…
I1023 17:30:05.710541  4224 net.cpp:322] The NetState phase (0) differed from the phase (1) specified by a rule in layer data
I1023 17:30:05.710690  4224 net.cpp:58] Initializing net from parameters: 
name: "CaffeNet"
state {
  phase: TRAIN
  level: 0
  stage: ""
}
layer {
  name: "data"
  type: "Data"
  top: "data"
  top: "label"
  include {
    phase: TRAIN
  }
  transform_param {
    mirror: true
    crop_size: 227
    mean_file: "imagenet_mean.binaryproto"
  }
  data_param {
    source: "../../data/imagenet/ilsvrc12_train_lmdb"
    batch_size: 10
    backend: LMDB
  }
}
layer {
  name: "conv1"
  type: "Convolution"
  bottom: "data"
  top: "conv1"
  param {
    lr_mult: 1
    decay_mult: 1
  }
  param {
    lr_mult: 2
    decay_mult: 0
  }
  convolution_param {
    num_output: 96
    kernel_size: 3
    weight_filler {
      type: "xavier"
    }
    bias_filler {
      type: "constant"
      value: 0
    }
  }
}
layer {
  name: "elu1"
  type: "ELU"
  bottom: "conv1"
  top: "conv1"
}
layer {
  name: "conv2"
  type: "Convolution"
  bottom: "conv1"
  top: "conv2"
  param {
    lr_mult: 1
    decay_mult: 1
  }
  param {
    lr_mult: 2
    decay_mult: 0
  }
  convolution_param {
    num_output: 96
    kernel_size: 3
    weight_filler {
      type: "xavier"
    }
    bias_filler {
      type: "constant"
      value: 1
    }
  }
}
layer {
  name: "elu2"
  type: "ELU"
  bottom: "conv2"
  top: "conv2"
}
layer {
  name: "convpool1"
  type: "Convolution"
  bottom: "conv2"
  top: "convpool1"
  param {
    lr_mult: 1
    decay_mult: 1
  }
  param {
    lr_mult: 2
    decay_mult: 0
  }
  convolution_param {
    num_output: 96
    kernel_size: 3
    stride: 2
    weight_filler {
      type: "xavier"
    }
    bias_filler {
      type: "constant"
      value: 1
    }
  }
}
layer {
  name: "elupool1"
  type: "ELU"
  bottom: "convpool1"
  top: "convpool1"
}
layer {
  name: "norm1"
  type: "BatchNorm"
  bottom: "convpool1"
  top: "norm1"
  batch_norm_param {
    use_global_stats: false
  }
}
layer {
  name: "conv3"
  type: "Convolution"
  bottom: "norm1"
  top: "conv3"
  param {
    lr_mult: 1
    decay_mult: 1
  }
  param {
    lr_mult: 2
    decay_mult: 0
  }
  convolution_param {
    num_output: 192
    kernel_size: 3
    weight_filler {
      type: "xavier"
    }
    bias_filler {
      type: "constant"
      value: 0
    }
  }
}
layer {
  name: "elu3"
  type: "ReLU"
  bottom: "conv3"
  top: "conv3"
}
layer {
  name: "conv4"
  type: "Convolution"
  bottom: "conv3"
  top: "conv4"
  param {
    lr_mult: 1
    decay_mult: 1
  }
  param {
    lr_mult: 2
    decay_mult: 0
  }
  convolution_param {
    num_output: 192
    kernel_size: 3
    weight_filler {
      type: "xavier"
    }
    bias_filler {
      type: "constant"
      value: 1
    }
  }
}
layer {
  name: "elu4"
  type: "ELU"
  bottom: "conv4"
  top: "conv4"
}
layer {
  name: "convpool2"
  type: "Convolution"
  bottom: "conv4"
  top: "convpool2"
  param {
    lr_mult: 1
    decay_mult: 1
  }
  param {
    lr_mult: 2
    decay_mult: 0
  }
  convolution_param {
    num_output: 192
    kernel_size: 3
    stride: 2
    weight_filler {
      type: "xavier"
    }
    bias_filler {
      type: "constant"
      value: 1
    }
  }
}
layer {
  name: "elupool2"
  type: "ELU"
  bottom: "convpool2"
  top: "convpool2"
}
layer {
  name: "norm2"
  type: "BatchNorm"
  bottom: "convpool2"
  top: "norm2"
  batch_norm_param {
    use_global_stats: false
  }
}
layer {
  name: "conv5"
  type: "Convolution"
  bottom: "norm2"
  top: "conv5"
  param {
    lr_mult: 1
    decay_mult: 1
  }
  param {
    lr_mult: 2
    decay_mult: 0
  }
  convolution_param {
    num_output: 256
    kernel_size: 3
    weight_filler {
      type: "xavier"
    }
    bias_filler {
      type: "constant"
      value: 1
    }
  }
}
layer {
  name: "elu5"
  type: "ELU"
  bottom: "conv5"
  top: "conv5"
}
layer {
  name: "conv6"
  type: "Convolution"
  bottom: "conv5"
  top: "conv6"
  param {
    lr_mult: 1
    decay_mult: 1
  }
  param {
    lr_mult: 2
    decay_mult: 0
  }
  convolution_param {
    num_output: 256
    kernel_size: 3
    weight_filler {
      type: "xavier"
    }
    bias_filler {
      type: "constant"
      value: 1
    }
  }
}
layer {
  name: "elu6"
  type: "ELU"
  bottom: "conv6"
  top: "conv6"
}
layer {
  name: "convpool3"
  type: "Convolution"
  bottom: "conv6"
  top: "convpool3"
  param {
    lr_mult: 1
    decay_mult: 1
  }
  param {
    lr_mult: 2
    decay_mult: 0
  }
  convolution_param {
    num_output: 256
    kernel_size: 3
    stride: 2
    weight_filler {
      type: "xavier"
    }
    bias_filler {
      type: "constant"
      value: 1
    }
  }
}
layer {
  name: "elupool3"
  type: "ELU"
  bottom: "convpool3"
  top: "convpool3"
}
layer {
  name: "norm3"
  type: "BatchNorm"
  bottom: "convpool3"
  top: "norm3"
  batch_norm_param {
    use_global_stats: false
  }
}
layer {
  name: "conv7"
  type: "Convolution"
  bottom: "norm3"
  top: "conv7"
  param {
    lr_mult: 1
    decay_mult: 1
  }
  param {
    lr_mult: 2
    decay_mult: 0
  }
  convolution_param {
    num_output: 384
    kernel_size: 2
    weight_filler {
      type: "xavier"
    }
    bias_filler {
      type: "constant"
      value: 1
    }
  }
}
layer {
  name: "elu7"
  type: "ELU"
  bottom: "conv7"
  top: "conv7"
}
layer {
  name: "conv8"
  type: "Convolution"
  bottom: "conv7"
  top: "conv8"
  param {
    lr_mult: 1
    decay_mult: 1
  }
  param {
    lr_mult: 2
    decay_mult: 0
  }
  convolution_param {
    num_output: 384
    kernel_size: 2
    weight_filler {
      type: "xavier"
    }
    bias_filler {
      type: "constant"
      value: 1
    }
  }
}
layer {
  name: "elu8"
  type: "ELU"
  bottom: "conv8"
  top: "conv8"
}
layer {
  name: "convpool4"
  type: "Convolution"
  bottom: "conv8"
  top: "convpool4"
  param {
    lr_mult: 1
    decay_mult: 1
  }
  param {
    lr_mult: 2
    decay_mult: 0
  }
  convolution_param {
    num_output: 384
    kernel_size: 2
    stride: 2
    weight_filler {
      type: "xavier"
    }
    bias_filler {
      type: "constant"
      value: 1
    }
  }
}
layer {
  name: "elupool4"
  type: "ELU"
  bottom: "convpool4"
  top: "convpool4"
}
layer {
  name: "norm4"
  type: "BatchNorm"
  bottom: "convpool4"
  top: "norm4"
  batch_norm_param {
    use_global_stats: false
  }
}
layer {
  name: "fc1"
  type: "InnerProduct"
  bottom: "norm4"
  top: "fc1"
  param {
    lr_mult: 1
    decay_mult: 1
  }
  param {
    lr_mult: 2
    decay_mult: 0
  }
  inner_product_param {
    num_output: 1024
    weight_filler {
      type: "gaussian"
      std: 0.005
    }
    bias_filler {
      type: "constant"
      value: 1
    }
  }
}
layer {
  name: "elu9"
  type: "ELU"
  bottom: "fc1"
  top: "fc1"
}
layer {
  name: "drop1"
  type: "Dropout"
  bottom: "fc1"
  top: "fc1"
  dropout_param {
    dropout_ratio: 0.5
  }
}
layer {
  name: "fc2"
  type: "InnerProduct"
  bottom: "fc1"
  top: "fc2"
  param {
    lr_mult: 1
    decay_mult: 1
  }
  param {
    lr_mult: 2
    decay_mult: 0
  }
  inner_product_param {
    num_output: 1024
    weight_filler {
      type: "gaussian"
      std: 0.005
    }
    bias_filler {
      type: "constant"
      value: 1
    }
  }
}
layer {
  name: "elu10"
  type: "ELU"
  bottom: "fc2"
  top: "fc2"
}
layer {
  name: "drop2"
  type: "Dropout"
  bottom: "fc2"
  top: "fc2"
  dropout_param {
    dropout_ratio: 0.5
  }
}
layer {
  name: "fc3"
  type: "InnerProduct"
  bottom: "fc2"
  top: "fc3"
  param {
    lr_mult: 1
    decay_mult: 1
  }
  param {
    lr_mult: 2
    decay_mult: 0
  }
  inner_product_param {
    num_output: 1000
    weight_filler {
      type: "gaussian"
      std: 0.01
    }
    bias_filler {
      type: "constant"
      value: 0
    }
  }
}
layer {
  name: "accuracy"
  type: "Accuracy"
  bottom: "fc3"
  bottom: "label"
  top: "accuracy"
}
layer {
  name: "loss"
  type: "SoftmaxWithLoss"
  bottom: "fc3"
  bottom: "label"
  top: "loss"
}
I1023 17:30:05.710818  4224 layer_factory.hpp:77] Creating layer data
I1023 17:30:05.711191  4224 net.cpp:100] Creating Layer data
I1023 17:30:05.711199  4224 net.cpp:408] data -> data
I1023 17:30:05.711213  4224 net.cpp:408] data -> label
I1023 17:30:05.711225  4224 data_transformer.cpp:25] Loading mean file from: imagenet_mean.binaryproto
I1023 17:30:05.711803  4229 db_lmdb.cpp:35] Opened lmdb ../../data/imagenet/ilsvrc12_train_lmdb
I1023 17:30:05.718164  4224 data_layer.cpp:41] output data size: 10,3,227,227
I1023 17:30:05.724611  4224 net.cpp:150] Setting up data
I1023 17:30:05.724637  4224 net.cpp:157] Top shape: 10 3 227 227 (1545870)
I1023 17:30:05.724640  4224 net.cpp:157] Top shape: 10 (10)
I1023 17:30:05.724642  4224 net.cpp:165] Memory required for data: 6183520
I1023 17:30:05.724649  4224 layer_factory.hpp:77] Creating layer label_data_1_split
I1023 17:30:05.724658  4224 net.cpp:100] Creating Layer label_data_1_split
I1023 17:30:05.724663  4224 net.cpp:434] label_data_1_split <- label
I1023 17:30:05.724673  4224 net.cpp:408] label_data_1_split -> label_data_1_split_0
I1023 17:30:05.724679  4224 net.cpp:408] label_data_1_split -> label_data_1_split_1
I1023 17:30:05.724711  4224 net.cpp:150] Setting up label_data_1_split
I1023 17:30:05.724716  4224 net.cpp:157] Top shape: 10 (10)
I1023 17:30:05.724719  4224 net.cpp:157] Top shape: 10 (10)
I1023 17:30:05.724720  4224 net.cpp:165] Memory required for data: 6183600
I1023 17:30:05.724722  4224 layer_factory.hpp:77] Creating layer conv1
I1023 17:30:05.724733  4224 net.cpp:100] Creating Layer conv1
I1023 17:30:05.724735  4224 net.cpp:434] conv1 <- data
I1023 17:30:05.724738  4224 net.cpp:408] conv1 -> conv1
I1023 17:30:05.849313  4224 net.cpp:150] Setting up conv1
I1023 17:30:05.849337  4224 net.cpp:157] Top shape: 10 96 225 225 (48600000)
I1023 17:30:05.849340  4224 net.cpp:165] Memory required for data: 200583600
I1023 17:30:05.849357  4224 layer_factory.hpp:77] Creating layer elu1
I1023 17:30:05.849365  4224 net.cpp:100] Creating Layer elu1
I1023 17:30:05.849367  4224 net.cpp:434] elu1 <- conv1
I1023 17:30:05.849373  4224 net.cpp:395] elu1 -> conv1 (in-place)
I1023 17:30:05.849382  4224 net.cpp:150] Setting up elu1
I1023 17:30:05.849386  4224 net.cpp:157] Top shape: 10 96 225 225 (48600000)
I1023 17:30:05.849390  4224 net.cpp:165] Memory required for data: 394983600
I1023 17:30:05.849395  4224 layer_factory.hpp:77] Creating layer conv2
I1023 17:30:05.849406  4224 net.cpp:100] Creating Layer conv2
I1023 17:30:05.849407  4224 net.cpp:434] conv2 <- conv1
I1023 17:30:05.849411  4224 net.cpp:408] conv2 -> conv2
I1023 17:30:05.850581  4224 net.cpp:150] Setting up conv2
I1023 17:30:05.850589  4224 net.cpp:157] Top shape: 10 96 223 223 (47739840)
I1023 17:30:05.850591  4224 net.cpp:165] Memory required for data: 585942960
I1023 17:30:05.850596  4224 layer_factory.hpp:77] Creating layer elu2
I1023 17:30:05.850600  4224 net.cpp:100] Creating Layer elu2
I1023 17:30:05.850602  4224 net.cpp:434] elu2 <- conv2
I1023 17:30:05.850605  4224 net.cpp:395] elu2 -> conv2 (in-place)
I1023 17:30:05.850608  4224 net.cpp:150] Setting up elu2
I1023 17:30:05.850610  4224 net.cpp:157] Top shape: 10 96 223 223 (47739840)
I1023 17:30:05.850612  4224 net.cpp:165] Memory required for data: 776902320
I1023 17:30:05.850613  4224 layer_factory.hpp:77] Creating layer convpool1
I1023 17:30:05.850618  4224 net.cpp:100] Creating Layer convpool1
I1023 17:30:05.850620  4224 net.cpp:434] convpool1 <- conv2
I1023 17:30:05.850623  4224 net.cpp:408] convpool1 -> convpool1
I1023 17:30:05.851815  4224 net.cpp:150] Setting up convpool1
I1023 17:30:05.851833  4224 net.cpp:157] Top shape: 10 96 111 111 (11828160)
I1023 17:30:05.851835  4224 net.cpp:165] Memory required for data: 824214960
I1023 17:30:05.851841  4224 layer_factory.hpp:77] Creating layer elupool1
I1023 17:30:05.851845  4224 net.cpp:100] Creating Layer elupool1
I1023 17:30:05.851846  4224 net.cpp:434] elupool1 <- convpool1
I1023 17:30:05.851850  4224 net.cpp:395] elupool1 -> convpool1 (in-place)
I1023 17:30:05.851852  4224 net.cpp:150] Setting up elupool1
I1023 17:30:05.851855  4224 net.cpp:157] Top shape: 10 96 111 111 (11828160)
I1023 17:30:05.851856  4224 net.cpp:165] Memory required for data: 871527600
I1023 17:30:05.851858  4224 layer_factory.hpp:77] Creating layer norm1
I1023 17:30:05.851863  4224 net.cpp:100] Creating Layer norm1
I1023 17:30:05.851864  4224 net.cpp:434] norm1 <- convpool1
I1023 17:30:05.851867  4224 net.cpp:408] norm1 -> norm1
I1023 17:30:05.851995  4224 net.cpp:150] Setting up norm1
I1023 17:30:05.852000  4224 net.cpp:157] Top shape: 10 96 111 111 (11828160)
I1023 17:30:05.852001  4224 net.cpp:165] Memory required for data: 918840240
I1023 17:30:05.852007  4224 layer_factory.hpp:77] Creating layer conv3
I1023 17:30:05.852012  4224 net.cpp:100] Creating Layer conv3
I1023 17:30:05.852015  4224 net.cpp:434] conv3 <- norm1
I1023 17:30:05.852020  4224 net.cpp:408] conv3 -> conv3
I1023 17:30:05.853497  4224 net.cpp:150] Setting up conv3
I1023 17:30:05.853507  4224 net.cpp:157] Top shape: 10 192 109 109 (22811520)
I1023 17:30:05.853509  4224 net.cpp:165] Memory required for data: 1010086320
I1023 17:30:05.853513  4224 layer_factory.hpp:77] Creating layer elu3
I1023 17:30:05.853516  4224 net.cpp:100] Creating Layer elu3
I1023 17:30:05.853519  4224 net.cpp:434] elu3 <- conv3
I1023 17:30:05.853521  4224 net.cpp:395] elu3 -> conv3 (in-place)
I1023 17:30:05.853714  4224 net.cpp:150] Setting up elu3
I1023 17:30:05.853721  4224 net.cpp:157] Top shape: 10 192 109 109 (22811520)
I1023 17:30:05.853724  4224 net.cpp:165] Memory required for data: 1101332400
I1023 17:30:05.853725  4224 layer_factory.hpp:77] Creating layer conv4
I1023 17:30:05.853730  4224 net.cpp:100] Creating Layer conv4
I1023 17:30:05.853732  4224 net.cpp:434] conv4 <- conv3
I1023 17:30:05.853736  4224 net.cpp:408] conv4 -> conv4
I1023 17:30:05.855773  4224 net.cpp:150] Setting up conv4
I1023 17:30:05.855782  4224 net.cpp:157] Top shape: 10 192 107 107 (21982080)
I1023 17:30:05.855783  4224 net.cpp:165] Memory required for data: 1189260720
I1023 17:30:05.855787  4224 layer_factory.hpp:77] Creating layer elu4
I1023 17:30:05.855790  4224 net.cpp:100] Creating Layer elu4
I1023 17:30:05.855792  4224 net.cpp:434] elu4 <- conv4
I1023 17:30:05.855795  4224 net.cpp:395] elu4 -> conv4 (in-place)
I1023 17:30:05.855799  4224 net.cpp:150] Setting up elu4
I1023 17:30:05.855801  4224 net.cpp:157] Top shape: 10 192 107 107 (21982080)
I1023 17:30:05.855803  4224 net.cpp:165] Memory required for data: 1277189040
I1023 17:30:05.855804  4224 layer_factory.hpp:77] Creating layer convpool2
I1023 17:30:05.855810  4224 net.cpp:100] Creating Layer convpool2
I1023 17:30:05.855811  4224 net.cpp:434] convpool2 <- conv4
I1023 17:30:05.855815  4224 net.cpp:408] convpool2 -> convpool2
I1023 17:30:05.857908  4224 net.cpp:150] Setting up convpool2
I1023 17:30:05.857916  4224 net.cpp:157] Top shape: 10 192 53 53 (5393280)
I1023 17:30:05.857918  4224 net.cpp:165] Memory required for data: 1298762160
I1023 17:30:05.857923  4224 layer_factory.hpp:77] Creating layer elupool2
I1023 17:30:05.857925  4224 net.cpp:100] Creating Layer elupool2
I1023 17:30:05.857928  4224 net.cpp:434] elupool2 <- convpool2
I1023 17:30:05.857930  4224 net.cpp:395] elupool2 -> convpool2 (in-place)
I1023 17:30:05.857934  4224 net.cpp:150] Setting up elupool2
I1023 17:30:05.857936  4224 net.cpp:157] Top shape: 10 192 53 53 (5393280)
I1023 17:30:05.857939  4224 net.cpp:165] Memory required for data: 1320335280
I1023 17:30:05.857939  4224 layer_factory.hpp:77] Creating layer norm2
I1023 17:30:05.857944  4224 net.cpp:100] Creating Layer norm2
I1023 17:30:05.857954  4224 net.cpp:434] norm2 <- convpool2
I1023 17:30:05.857957  4224 net.cpp:408] norm2 -> norm2
I1023 17:30:05.858093  4224 net.cpp:150] Setting up norm2
I1023 17:30:05.858096  4224 net.cpp:157] Top shape: 10 192 53 53 (5393280)
I1023 17:30:05.858098  4224 net.cpp:165] Memory required for data: 1341908400
I1023 17:30:05.858104  4224 layer_factory.hpp:77] Creating layer conv5
I1023 17:30:05.858111  4224 net.cpp:100] Creating Layer conv5
I1023 17:30:05.858114  4224 net.cpp:434] conv5 <- norm2
I1023 17:30:05.858116  4224 net.cpp:408] conv5 -> conv5
I1023 17:30:05.860692  4224 net.cpp:150] Setting up conv5
I1023 17:30:05.860702  4224 net.cpp:157] Top shape: 10 256 51 51 (6658560)
I1023 17:30:05.860702  4224 net.cpp:165] Memory required for data: 1368542640
I1023 17:30:05.860707  4224 layer_factory.hpp:77] Creating layer elu5
I1023 17:30:05.860710  4224 net.cpp:100] Creating Layer elu5
I1023 17:30:05.860713  4224 net.cpp:434] elu5 <- conv5
I1023 17:30:05.860716  4224 net.cpp:395] elu5 -> conv5 (in-place)
I1023 17:30:05.860719  4224 net.cpp:150] Setting up elu5
I1023 17:30:05.860723  4224 net.cpp:157] Top shape: 10 256 51 51 (6658560)
I1023 17:30:05.860724  4224 net.cpp:165] Memory required for data: 1395176880
I1023 17:30:05.860726  4224 layer_factory.hpp:77] Creating layer conv6
I1023 17:30:05.860731  4224 net.cpp:100] Creating Layer conv6
I1023 17:30:05.860733  4224 net.cpp:434] conv6 <- conv5
I1023 17:30:05.860736  4224 net.cpp:408] conv6 -> conv6
I1023 17:30:05.864205  4224 net.cpp:150] Setting up conv6
I1023 17:30:05.864222  4224 net.cpp:157] Top shape: 10 256 49 49 (6146560)
I1023 17:30:05.864223  4224 net.cpp:165] Memory required for data: 1419763120
I1023 17:30:05.864229  4224 layer_factory.hpp:77] Creating layer elu6
I1023 17:30:05.864234  4224 net.cpp:100] Creating Layer elu6
I1023 17:30:05.864236  4224 net.cpp:434] elu6 <- conv6
I1023 17:30:05.864240  4224 net.cpp:395] elu6 -> conv6 (in-place)
I1023 17:30:05.864245  4224 net.cpp:150] Setting up elu6
I1023 17:30:05.864248  4224 net.cpp:157] Top shape: 10 256 49 49 (6146560)
I1023 17:30:05.864248  4224 net.cpp:165] Memory required for data: 1444349360
I1023 17:30:05.864250  4224 layer_factory.hpp:77] Creating layer convpool3
I1023 17:30:05.864258  4224 net.cpp:100] Creating Layer convpool3
I1023 17:30:05.864259  4224 net.cpp:434] convpool3 <- conv6
I1023 17:30:05.864262  4224 net.cpp:408] convpool3 -> convpool3
I1023 17:30:05.867893  4224 net.cpp:150] Setting up convpool3
I1023 17:30:05.867905  4224 net.cpp:157] Top shape: 10 256 24 24 (1474560)
I1023 17:30:05.867908  4224 net.cpp:165] Memory required for data: 1450247600
I1023 17:30:05.867913  4224 layer_factory.hpp:77] Creating layer elupool3
I1023 17:30:05.867916  4224 net.cpp:100] Creating Layer elupool3
I1023 17:30:05.867918  4224 net.cpp:434] elupool3 <- convpool3
I1023 17:30:05.867921  4224 net.cpp:395] elupool3 -> convpool3 (in-place)
I1023 17:30:05.867925  4224 net.cpp:150] Setting up elupool3
I1023 17:30:05.867928  4224 net.cpp:157] Top shape: 10 256 24 24 (1474560)
I1023 17:30:05.867929  4224 net.cpp:165] Memory required for data: 1456145840
I1023 17:30:05.867931  4224 layer_factory.hpp:77] Creating layer norm3
I1023 17:30:05.867936  4224 net.cpp:100] Creating Layer norm3
I1023 17:30:05.867938  4224 net.cpp:434] norm3 <- convpool3
I1023 17:30:05.867940  4224 net.cpp:408] norm3 -> norm3
I1023 17:30:05.868077  4224 net.cpp:150] Setting up norm3
I1023 17:30:05.868080  4224 net.cpp:157] Top shape: 10 256 24 24 (1474560)
I1023 17:30:05.868083  4224 net.cpp:165] Memory required for data: 1462044080
I1023 17:30:05.868086  4224 layer_factory.hpp:77] Creating layer conv7
I1023 17:30:05.868091  4224 net.cpp:100] Creating Layer conv7
I1023 17:30:05.868093  4224 net.cpp:434] conv7 <- norm3
I1023 17:30:05.868098  4224 net.cpp:408] conv7 -> conv7
I1023 17:30:05.870406  4224 net.cpp:150] Setting up conv7
I1023 17:30:05.870415  4224 net.cpp:157] Top shape: 10 384 23 23 (2031360)
I1023 17:30:05.870416  4224 net.cpp:165] Memory required for data: 1470169520
I1023 17:30:05.870421  4224 layer_factory.hpp:77] Creating layer elu7
I1023 17:30:05.870436  4224 net.cpp:100] Creating Layer elu7
I1023 17:30:05.870440  4224 net.cpp:434] elu7 <- conv7
I1023 17:30:05.870441  4224 net.cpp:395] elu7 -> conv7 (in-place)
I1023 17:30:05.870445  4224 net.cpp:150] Setting up elu7
I1023 17:30:05.870448  4224 net.cpp:157] Top shape: 10 384 23 23 (2031360)
I1023 17:30:05.870450  4224 net.cpp:165] Memory required for data: 1478294960
I1023 17:30:05.870451  4224 layer_factory.hpp:77] Creating layer conv8
I1023 17:30:05.870457  4224 net.cpp:100] Creating Layer conv8
I1023 17:30:05.870460  4224 net.cpp:434] conv8 <- conv7
I1023 17:30:05.870463  4224 net.cpp:408] conv8 -> conv8
I1023 17:30:05.873658  4224 net.cpp:150] Setting up conv8
I1023 17:30:05.873668  4224 net.cpp:157] Top shape: 10 384 22 22 (1858560)
I1023 17:30:05.873672  4224 net.cpp:165] Memory required for data: 1485729200
I1023 17:30:05.873675  4224 layer_factory.hpp:77] Creating layer elu8
I1023 17:30:05.873678  4224 net.cpp:100] Creating Layer elu8
I1023 17:30:05.873680  4224 net.cpp:434] elu8 <- conv8
I1023 17:30:05.873684  4224 net.cpp:395] elu8 -> conv8 (in-place)
I1023 17:30:05.873688  4224 net.cpp:150] Setting up elu8
I1023 17:30:05.873690  4224 net.cpp:157] Top shape: 10 384 22 22 (1858560)
I1023 17:30:05.873692  4224 net.cpp:165] Memory required for data: 1493163440
I1023 17:30:05.873694  4224 layer_factory.hpp:77] Creating layer convpool4
I1023 17:30:05.873698  4224 net.cpp:100] Creating Layer convpool4
I1023 17:30:05.873700  4224 net.cpp:434] convpool4 <- conv8
I1023 17:30:05.873703  4224 net.cpp:408] convpool4 -> convpool4
I1023 17:30:05.876925  4224 net.cpp:150] Setting up convpool4
I1023 17:30:05.876938  4224 net.cpp:157] Top shape: 10 384 11 11 (464640)
I1023 17:30:05.876940  4224 net.cpp:165] Memory required for data: 1495022000
I1023 17:30:05.876950  4224 layer_factory.hpp:77] Creating layer elupool4
I1023 17:30:05.876955  4224 net.cpp:100] Creating Layer elupool4
I1023 17:30:05.876958  4224 net.cpp:434] elupool4 <- convpool4
I1023 17:30:05.876961  4224 net.cpp:395] elupool4 -> convpool4 (in-place)
I1023 17:30:05.876965  4224 net.cpp:150] Setting up elupool4
I1023 17:30:05.876968  4224 net.cpp:157] Top shape: 10 384 11 11 (464640)
I1023 17:30:05.876971  4224 net.cpp:165] Memory required for data: 1496880560
I1023 17:30:05.876971  4224 layer_factory.hpp:77] Creating layer norm4
I1023 17:30:05.876976  4224 net.cpp:100] Creating Layer norm4
I1023 17:30:05.876977  4224 net.cpp:434] norm4 <- convpool4
I1023 17:30:05.876981  4224 net.cpp:408] norm4 -> norm4
I1023 17:30:05.877115  4224 net.cpp:150] Setting up norm4
I1023 17:30:05.877120  4224 net.cpp:157] Top shape: 10 384 11 11 (464640)
I1023 17:30:05.877121  4224 net.cpp:165] Memory required for data: 1498739120
I1023 17:30:05.877125  4224 layer_factory.hpp:77] Creating layer fc1
I1023 17:30:05.877130  4224 net.cpp:100] Creating Layer fc1
I1023 17:30:05.877132  4224 net.cpp:434] fc1 <- norm4
I1023 17:30:05.877135  4224 net.cpp:408] fc1 -> fc1
I1023 17:30:06.464304  4224 net.cpp:150] Setting up fc1
I1023 17:30:06.464324  4224 net.cpp:157] Top shape: 10 1024 (10240)
I1023 17:30:06.464326  4224 net.cpp:165] Memory required for data: 1498780080
I1023 17:30:06.464334  4224 layer_factory.hpp:77] Creating layer elu9
I1023 17:30:06.464340  4224 net.cpp:100] Creating Layer elu9
I1023 17:30:06.464342  4224 net.cpp:434] elu9 <- fc1
I1023 17:30:06.464347  4224 net.cpp:395] elu9 -> fc1 (in-place)
I1023 17:30:06.464354  4224 net.cpp:150] Setting up elu9
I1023 17:30:06.464356  4224 net.cpp:157] Top shape: 10 1024 (10240)
I1023 17:30:06.464359  4224 net.cpp:165] Memory required for data: 1498821040
I1023 17:30:06.464360  4224 layer_factory.hpp:77] Creating layer drop1
I1023 17:30:06.464373  4224 net.cpp:100] Creating Layer drop1
I1023 17:30:06.464377  4224 net.cpp:434] drop1 <- fc1
I1023 17:30:06.464380  4224 net.cpp:395] drop1 -> fc1 (in-place)
I1023 17:30:06.464406  4224 net.cpp:150] Setting up drop1
I1023 17:30:06.464411  4224 net.cpp:157] Top shape: 10 1024 (10240)
I1023 17:30:06.464411  4224 net.cpp:165] Memory required for data: 1498862000
I1023 17:30:06.464424  4224 layer_factory.hpp:77] Creating layer fc2
I1023 17:30:06.464429  4224 net.cpp:100] Creating Layer fc2
I1023 17:30:06.464432  4224 net.cpp:434] fc2 <- fc1
I1023 17:30:06.464437  4224 net.cpp:408] fc2 -> fc2
I1023 17:30:06.472002  4224 net.cpp:150] Setting up fc2
I1023 17:30:06.472014  4224 net.cpp:157] Top shape: 10 1024 (10240)
I1023 17:30:06.472017  4224 net.cpp:165] Memory required for data: 1498902960
I1023 17:30:06.472020  4224 layer_factory.hpp:77] Creating layer elu10
I1023 17:30:06.472024  4224 net.cpp:100] Creating Layer elu10
I1023 17:30:06.472026  4224 net.cpp:434] elu10 <- fc2
I1023 17:30:06.472030  4224 net.cpp:395] elu10 -> fc2 (in-place)
I1023 17:30:06.472034  4224 net.cpp:150] Setting up elu10
I1023 17:30:06.472036  4224 net.cpp:157] Top shape: 10 1024 (10240)
I1023 17:30:06.472038  4224 net.cpp:165] Memory required for data: 1498943920
I1023 17:30:06.472039  4224 layer_factory.hpp:77] Creating layer drop2
I1023 17:30:06.472043  4224 net.cpp:100] Creating Layer drop2
I1023 17:30:06.472044  4224 net.cpp:434] drop2 <- fc2
I1023 17:30:06.472048  4224 net.cpp:395] drop2 -> fc2 (in-place)
I1023 17:30:06.472069  4224 net.cpp:150] Setting up drop2
I1023 17:30:06.472072  4224 net.cpp:157] Top shape: 10 1024 (10240)
I1023 17:30:06.472074  4224 net.cpp:165] Memory required for data: 1498984880
I1023 17:30:06.472075  4224 layer_factory.hpp:77] Creating layer fc3
I1023 17:30:06.472079  4224 net.cpp:100] Creating Layer fc3
I1023 17:30:06.472081  4224 net.cpp:434] fc3 <- fc2
I1023 17:30:06.472084  4224 net.cpp:408] fc3 -> fc3
I1023 17:30:06.479590  4224 net.cpp:150] Setting up fc3
I1023 17:30:06.479612  4224 net.cpp:157] Top shape: 10 1000 (10000)
I1023 17:30:06.479614  4224 net.cpp:165] Memory required for data: 1499024880
I1023 17:30:06.479621  4224 layer_factory.hpp:77] Creating layer fc3_fc3_0_split
I1023 17:30:06.479627  4224 net.cpp:100] Creating Layer fc3_fc3_0_split
I1023 17:30:06.479629  4224 net.cpp:434] fc3_fc3_0_split <- fc3
I1023 17:30:06.479635  4224 net.cpp:408] fc3_fc3_0_split -> fc3_fc3_0_split_0
I1023 17:30:06.479641  4224 net.cpp:408] fc3_fc3_0_split -> fc3_fc3_0_split_1
I1023 17:30:06.479677  4224 net.cpp:150] Setting up fc3_fc3_0_split
I1023 17:30:06.479682  4224 net.cpp:157] Top shape: 10 1000 (10000)
I1023 17:30:06.479684  4224 net.cpp:157] Top shape: 10 1000 (10000)
I1023 17:30:06.479686  4224 net.cpp:165] Memory required for data: 1499104880
I1023 17:30:06.479687  4224 layer_factory.hpp:77] Creating layer accuracy
I1023 17:30:06.479691  4224 net.cpp:100] Creating Layer accuracy
I1023 17:30:06.479693  4224 net.cpp:434] accuracy <- fc3_fc3_0_split_0
I1023 17:30:06.479696  4224 net.cpp:434] accuracy <- label_data_1_split_0
I1023 17:30:06.479698  4224 net.cpp:408] accuracy -> accuracy
…
