…
I1024 22:32:46.832890  2488 net.cpp:322] The NetState phase (0) differed from the phase (1) specified by a rule in layer data
I1024 22:32:46.833098  2488 net.cpp:58] Initializing net from parameters: 
name: "CaffeNet"
state {
  phase: TRAIN
  level: 0
  stage: ""
}
layer {
  name: "data"
  type: "Data"
  top: "data"
  top: "label"
  include {
    phase: TRAIN
  }
  transform_param {
    mirror: true
    crop_size: 227
    mean_file: "imagenet_mean.binaryproto"
  }
  data_param {
    source: "../../data/imagenet/ilsvrc12_train_lmdb"
    batch_size: 10
    backend: LMDB
  }
}
layer {
  name: "conv1"
  type: "Convolution"
  bottom: "data"
  top: "conv1"
  param {
    lr_mult: 1
    decay_mult: 1
  }
  param {
    lr_mult: 2
    decay_mult: 0
  }
  convolution_param {
    num_output: 96
    kernel_size: 3
    weight_filler {
      type: "xavier"
    }
    bias_filler {
      type: "constant"
      value: 0
    }
  }
}
layer {
  name: "elu1"
  type: "ELU"
  bottom: "conv1"
  top: "conv1"
}
layer {
  name: "conv2"
  type: "Convolution"
  bottom: "conv1"
  top: "conv2"
  param {
    lr_mult: 1
    decay_mult: 1
  }
  param {
    lr_mult: 2
    decay_mult: 0
  }
  convolution_param {
    num_output: 96
    kernel_size: 3
    weight_filler {
      type: "xavier"
    }
    bias_filler {
      type: "constant"
      value: 1
    }
  }
}
layer {
  name: "elu2"
  type: "ELU"
  bottom: "conv2"
  top: "conv2"
}
layer {
  name: "convpool1"
  type: "Convolution"
  bottom: "conv2"
  top: "convpool1"
  param {
    lr_mult: 1
    decay_mult: 1
  }
  param {
    lr_mult: 2
    decay_mult: 0
  }
  convolution_param {
    num_output: 96
    kernel_size: 3
    stride: 2
    weight_filler {
      type: "xavier"
    }
    bias_filler {
      type: "constant"
      value: 1
    }
  }
}
layer {
  name: "elupool1"
  type: "ELU"
  bottom: "convpool1"
  top: "convpool1"
}
layer {
  name: "norm1"
  type: "BatchNorm"
  bottom: "convpool1"
  top: "norm1"
  batch_norm_param {
    use_global_stats: false
  }
}
layer {
  name: "conv3"
  type: "Convolution"
  bottom: "norm1"
  top: "conv3"
  param {
    lr_mult: 1
    decay_mult: 1
  }
  param {
    lr_mult: 2
    decay_mult: 0
  }
  convolution_param {
    num_output: 192
    kernel_size: 3
    weight_filler {
      type: "xavier"
    }
    bias_filler {
      type: "constant"
      value: 0
    }
  }
}
layer {
  name: "elu3"
  type: "ReLU"
  bottom: "conv3"
  top: "conv3"
}
layer {
  name: "conv4"
  type: "Convolution"
  bottom: "conv3"
  top: "conv4"
  param {
    lr_mult: 1
    decay_mult: 1
  }
  param {
    lr_mult: 2
    decay_mult: 0
  }
  convolution_param {
    num_output: 192
    kernel_size: 3
    weight_filler {
      type: "xavier"
    }
    bias_filler {
      type: "constant"
      value: 1
    }
  }
}
layer {
  name: "elu4"
  type: "ELU"
  bottom: "conv4"
  top: "conv4"
}
layer {
  name: "convpool2"
  type: "Convolution"
  bottom: "conv4"
  top: "convpool2"
  param {
    lr_mult: 1
    decay_mult: 1
  }
  param {
    lr_mult: 2
    decay_mult: 0
  }
  convolution_param {
    num_output: 192
    kernel_size: 3
    stride: 2
    weight_filler {
      type: "xavier"
    }
    bias_filler {
      type: "constant"
      value: 1
    }
  }
}
layer {
  name: "elupool2"
  type: "ELU"
  bottom: "convpool2"
  top: "convpool2"
}
layer {
  name: "norm2"
  type: "BatchNorm"
  bottom: "convpool2"
  top: "norm2"
  batch_norm_param {
    use_global_stats: false
  }
}
layer {
  name: "conv5"
  type: "Convolution"
  bottom: "norm2"
  top: "conv5"
  param {
    lr_mult: 1
    decay_mult: 1
  }
  param {
    lr_mult: 2
    decay_mult: 0
  }
  convolution_param {
    num_output: 256
    kernel_size: 3
    weight_filler {
      type: "xavier"
    }
    bias_filler {
      type: "constant"
      value: 1
    }
  }
}
layer {
  name: "elu5"
  type: "ELU"
  bottom: "conv5"
  top: "conv5"
}
layer {
  name: "conv6"
  type: "Convolution"
  bottom: "conv5"
  top: "conv6"
  param {
    lr_mult: 1
    decay_mult: 1
  }
  param {
    lr_mult: 2
    decay_mult: 0
  }
  convolution_param {
    num_output: 256
    kernel_size: 3
    weight_filler {
      type: "xavier"
    }
    bias_filler {
      type: "constant"
      value: 1
    }
  }
}
layer {
  name: "elu6"
  type: "ELU"
  bottom: "conv6"
  top: "conv6"
}
layer {
  name: "convpool3"
  type: "Convolution"
  bottom: "conv6"
  top: "convpool3"
  param {
    lr_mult: 1
    decay_mult: 1
  }
  param {
    lr_mult: 2
    decay_mult: 0
  }
  convolution_param {
    num_output: 256
    kernel_size: 3
    stride: 2
    weight_filler {
      type: "xavier"
    }
    bias_filler {
      type: "constant"
      value: 1
    }
  }
}
layer {
  name: "elupool3"
  type: "ELU"
  bottom: "convpool3"
  top: "convpool3"
}
layer {
  name: "norm3"
  type: "BatchNorm"
  bottom: "convpool3"
  top: "norm3"
  batch_norm_param {
    use_global_stats: false
  }
}
layer {
  name: "conv7"
  type: "Convolution"
  bottom: "norm3"
  top: "conv7"
  param {
    lr_mult: 1
    decay_mult: 1
  }
  param {
    lr_mult: 2
    decay_mult: 0
  }
  convolution_param {
    num_output: 384
    kernel_size: 3
    weight_filler {
      type: "xavier"
    }
    bias_filler {
      type: "constant"
      value: 1
    }
  }
}
layer {
  name: "elu7"
  type: "ELU"
  bottom: "conv7"
  top: "conv7"
}
layer {
  name: "conv8"
  type: "Convolution"
  bottom: "conv7"
  top: "conv8"
  param {
    lr_mult: 1
    decay_mult: 1
  }
  param {
    lr_mult: 2
    decay_mult: 0
  }
  convolution_param {
    num_output: 384
    kernel_size: 3
    weight_filler {
      type: "xavier"
    }
    bias_filler {
      type: "constant"
      value: 1
    }
  }
}
layer {
  name: "elu8"
  type: "ELU"
  bottom: "conv8"
  top: "conv8"
}
layer {
  name: "convpool4"
  type: "Convolution"
  bottom: "conv8"
  top: "convpool4"
  param {
    lr_mult: 1
    decay_mult: 1
  }
  param {
    lr_mult: 2
    decay_mult: 0
  }
  convolution_param {
    num_output: 384
    kernel_size: 3
    stride: 2
    weight_filler {
      type: "xavier"
    }
    bias_filler {
      type: "constant"
      value: 1
    }
  }
}
layer {
  name: "elupool4"
  type: "ELU"
  bottom: "convpool4"
  top: "convpool4"
}
layer {
  name: "norm4"
  type: "BatchNorm"
  bottom: "convpool4"
  top: "norm4"
  batch_norm_param {
    use_global_stats: false
  }
}
layer {
  name: "conv9"
  type: "Convolution"
  bottom: "norm4"
  top: "conv9"
  param {
    lr_mult: 1
    decay_mult: 1
  }
  param {
    lr_mult: 2
    decay_mult: 0
  }
  convolution_param {
    num_output: 1024
    kernel_size: 3
    weight_filler {
      type: "xavier"
    }
    bias_filler {
      type: "constant"
      value: 1
    }
  }
}
layer {
  name: "elu9"
  type: "ELU"
  bottom: "conv9"
  top: "conv9"
}
layer {
  name: "conv10"
  type: "Convolution"
  bottom: "conv9"
  top: "conv10"
  param {
    lr_mult: 1
    decay_mult: 1
  }
  param {
    lr_mult: 2
    decay_mult: 0
  }
  convolution_param {
    num_output: 1024
    kernel_size: 1
    weight_filler {
      type: "xavier"
    }
    bias_filler {
      type: "constant"
      value: 1
    }
  }
}
layer {
  name: "elu10"
  type: "ELU"
  bottom: "conv10"
  top: "conv10"
}
layer {
  name: "conv11"
  type: "Convolution"
  bottom: "conv10"
  top: "conv11"
  param {
    lr_mult: 1
    decay_mult: 1
  }
  param {
    lr_mult: 2
    decay_mult: 0
  }
  convolution_param {
    num_output: 1000
    kernel_size: 1
    weight_filler {
      type: "xavier"
    }
    bias_filler {
      type: "constant"
      value: 1
    }
  }
}
layer {
  name: "elu11"
  type: "ELU"
  bottom: "conv11"
  top: "conv11"
}
layer {
  name: "pool"
  type: "Pooling"
  bottom: "conv11"
  top: "pool"
  pooling_param {
    pool: AVE
    global_pooling: true
  }
}
layer {
  name: "accuracy"
  type: "Accuracy"
  bottom: "pool"
  bottom: "label"
  top: "accuracy"
}
layer {
  name: "loss"
  type: "SoftmaxWithLoss"
  bottom: "pool"
  bottom: "label"
  top: "loss"
}
I1024 22:32:46.833225  2488 layer_factory.hpp:77] Creating layer data
I1024 22:32:46.834231  2488 net.cpp:100] Creating Layer data
I1024 22:32:46.834245  2488 net.cpp:408] data -> data
I1024 22:32:46.834262  2488 net.cpp:408] data -> label
I1024 22:32:46.834275  2488 data_transformer.cpp:25] Loading mean file from: imagenet_mean.binaryproto
I1024 22:32:46.936784  2494 db_lmdb.cpp:35] Opened lmdb ../../data/imagenet/ilsvrc12_train_lmdb
I1024 22:32:47.319434  2488 data_layer.cpp:41] output data size: 10,3,227,227
I1024 22:32:47.337101  2488 net.cpp:150] Setting up data
I1024 22:32:47.337236  2488 net.cpp:157] Top shape: 10 3 227 227 (1545870)
I1024 22:32:47.337251  2488 net.cpp:157] Top shape: 10 (10)
I1024 22:32:47.337260  2488 net.cpp:165] Memory required for data: 6183520
I1024 22:32:47.337275  2488 layer_factory.hpp:77] Creating layer label_data_1_split
I1024 22:32:47.337296  2488 net.cpp:100] Creating Layer label_data_1_split
I1024 22:32:47.337306  2488 net.cpp:434] label_data_1_split <- label
I1024 22:32:47.337330  2488 net.cpp:408] label_data_1_split -> label_data_1_split_0
I1024 22:32:47.337349  2488 net.cpp:408] label_data_1_split -> label_data_1_split_1
I1024 22:32:47.337431  2488 net.cpp:150] Setting up label_data_1_split
I1024 22:32:47.337443  2488 net.cpp:157] Top shape: 10 (10)
I1024 22:32:47.337451  2488 net.cpp:157] Top shape: 10 (10)
I1024 22:32:47.337456  2488 net.cpp:165] Memory required for data: 6183600
I1024 22:32:47.337461  2488 layer_factory.hpp:77] Creating layer conv1
I1024 22:32:47.337487  2488 net.cpp:100] Creating Layer conv1
I1024 22:32:47.337496  2488 net.cpp:434] conv1 <- data
I1024 22:32:47.337505  2488 net.cpp:408] conv1 -> conv1
I1024 22:32:48.854234  2488 net.cpp:150] Setting up conv1
I1024 22:32:48.854269  2488 net.cpp:157] Top shape: 10 96 225 225 (48600000)
I1024 22:32:48.854272  2488 net.cpp:165] Memory required for data: 200583600
I1024 22:32:48.854300  2488 layer_factory.hpp:77] Creating layer elu1
I1024 22:32:48.854310  2488 net.cpp:100] Creating Layer elu1
I1024 22:32:48.854313  2488 net.cpp:434] elu1 <- conv1
I1024 22:32:48.854321  2488 net.cpp:395] elu1 -> conv1 (in-place)
I1024 22:32:48.854331  2488 net.cpp:150] Setting up elu1
I1024 22:32:48.854336  2488 net.cpp:157] Top shape: 10 96 225 225 (48600000)
I1024 22:32:48.854339  2488 net.cpp:165] Memory required for data: 394983600
I1024 22:32:48.854342  2488 layer_factory.hpp:77] Creating layer conv2
I1024 22:32:48.854356  2488 net.cpp:100] Creating Layer conv2
I1024 22:32:48.854360  2488 net.cpp:434] conv2 <- conv1
I1024 22:32:48.854365  2488 net.cpp:408] conv2 -> conv2
I1024 22:32:48.859310  2488 net.cpp:150] Setting up conv2
I1024 22:32:48.859344  2488 net.cpp:157] Top shape: 10 96 223 223 (47739840)
I1024 22:32:48.859349  2488 net.cpp:165] Memory required for data: 585942960
I1024 22:32:48.859364  2488 layer_factory.hpp:77] Creating layer elu2
I1024 22:32:48.859374  2488 net.cpp:100] Creating Layer elu2
I1024 22:32:48.859377  2488 net.cpp:434] elu2 <- conv2
I1024 22:32:48.859383  2488 net.cpp:395] elu2 -> conv2 (in-place)
I1024 22:32:48.859392  2488 net.cpp:150] Setting up elu2
I1024 22:32:48.859398  2488 net.cpp:157] Top shape: 10 96 223 223 (47739840)
I1024 22:32:48.859400  2488 net.cpp:165] Memory required for data: 776902320
I1024 22:32:48.859403  2488 layer_factory.hpp:77] Creating layer convpool1
I1024 22:32:48.859419  2488 net.cpp:100] Creating Layer convpool1
I1024 22:32:48.859423  2488 net.cpp:434] convpool1 <- conv2
I1024 22:32:48.859429  2488 net.cpp:408] convpool1 -> convpool1
I1024 22:32:48.861454  2488 net.cpp:150] Setting up convpool1
I1024 22:32:48.861471  2488 net.cpp:157] Top shape: 10 96 111 111 (11828160)
I1024 22:32:48.861475  2488 net.cpp:165] Memory required for data: 824214960
I1024 22:32:48.861485  2488 layer_factory.hpp:77] Creating layer elupool1
I1024 22:32:48.861491  2488 net.cpp:100] Creating Layer elupool1
I1024 22:32:48.861495  2488 net.cpp:434] elupool1 <- convpool1
I1024 22:32:48.861500  2488 net.cpp:395] elupool1 -> convpool1 (in-place)
I1024 22:32:48.861505  2488 net.cpp:150] Setting up elupool1
I1024 22:32:48.861510  2488 net.cpp:157] Top shape: 10 96 111 111 (11828160)
I1024 22:32:48.861511  2488 net.cpp:165] Memory required for data: 871527600
I1024 22:32:48.861515  2488 layer_factory.hpp:77] Creating layer norm1
I1024 22:32:48.861523  2488 net.cpp:100] Creating Layer norm1
I1024 22:32:48.861527  2488 net.cpp:434] norm1 <- convpool1
I1024 22:32:48.861531  2488 net.cpp:408] norm1 -> norm1
I1024 22:32:48.861755  2488 net.cpp:150] Setting up norm1
I1024 22:32:48.861763  2488 net.cpp:157] Top shape: 10 96 111 111 (11828160)
I1024 22:32:48.861765  2488 net.cpp:165] Memory required for data: 918840240
I1024 22:32:48.861774  2488 layer_factory.hpp:77] Creating layer conv3
I1024 22:32:48.861783  2488 net.cpp:100] Creating Layer conv3
I1024 22:32:48.861786  2488 net.cpp:434] conv3 <- norm1
I1024 22:32:48.861790  2488 net.cpp:408] conv3 -> conv3
I1024 22:32:48.864050  2488 net.cpp:150] Setting up conv3
I1024 22:32:48.864064  2488 net.cpp:157] Top shape: 10 192 109 109 (22811520)
I1024 22:32:48.864068  2488 net.cpp:165] Memory required for data: 1010086320
I1024 22:32:48.864074  2488 layer_factory.hpp:77] Creating layer elu3
I1024 22:32:48.864080  2488 net.cpp:100] Creating Layer elu3
I1024 22:32:48.864085  2488 net.cpp:434] elu3 <- conv3
I1024 22:32:48.864091  2488 net.cpp:395] elu3 -> conv3 (in-place)
I1024 22:32:48.864370  2488 net.cpp:150] Setting up elu3
I1024 22:32:48.864382  2488 net.cpp:157] Top shape: 10 192 109 109 (22811520)
I1024 22:32:48.864387  2488 net.cpp:165] Memory required for data: 1101332400
I1024 22:32:48.864389  2488 layer_factory.hpp:77] Creating layer conv4
I1024 22:32:48.864398  2488 net.cpp:100] Creating Layer conv4
I1024 22:32:48.864403  2488 net.cpp:434] conv4 <- conv3
I1024 22:32:48.864410  2488 net.cpp:408] conv4 -> conv4
I1024 22:32:48.868001  2488 net.cpp:150] Setting up conv4
I1024 22:32:48.868024  2488 net.cpp:157] Top shape: 10 192 107 107 (21982080)
I1024 22:32:48.868028  2488 net.cpp:165] Memory required for data: 1189260720
I1024 22:32:48.868037  2488 layer_factory.hpp:77] Creating layer elu4
I1024 22:32:48.868043  2488 net.cpp:100] Creating Layer elu4
I1024 22:32:48.868046  2488 net.cpp:434] elu4 <- conv4
I1024 22:32:48.868052  2488 net.cpp:395] elu4 -> conv4 (in-place)
I1024 22:32:48.868060  2488 net.cpp:150] Setting up elu4
I1024 22:32:48.868065  2488 net.cpp:157] Top shape: 10 192 107 107 (21982080)
I1024 22:32:48.868067  2488 net.cpp:165] Memory required for data: 1277189040
I1024 22:32:48.868070  2488 layer_factory.hpp:77] Creating layer convpool2
I1024 22:32:48.868082  2488 net.cpp:100] Creating Layer convpool2
I1024 22:32:48.868085  2488 net.cpp:434] convpool2 <- conv4
I1024 22:32:48.868093  2488 net.cpp:408] convpool2 -> convpool2
I1024 22:32:48.871454  2488 net.cpp:150] Setting up convpool2
I1024 22:32:48.871470  2488 net.cpp:157] Top shape: 10 192 53 53 (5393280)
I1024 22:32:48.871474  2488 net.cpp:165] Memory required for data: 1298762160
I1024 22:32:48.871480  2488 layer_factory.hpp:77] Creating layer elupool2
I1024 22:32:48.871487  2488 net.cpp:100] Creating Layer elupool2
I1024 22:32:48.871492  2488 net.cpp:434] elupool2 <- convpool2
I1024 22:32:48.871497  2488 net.cpp:395] elupool2 -> convpool2 (in-place)
I1024 22:32:48.871505  2488 net.cpp:150] Setting up elupool2
I1024 22:32:48.871510  2488 net.cpp:157] Top shape: 10 192 53 53 (5393280)
I1024 22:32:48.871513  2488 net.cpp:165] Memory required for data: 1320335280
I1024 22:32:48.871515  2488 layer_factory.hpp:77] Creating layer norm2
I1024 22:32:48.871521  2488 net.cpp:100] Creating Layer norm2
I1024 22:32:48.871537  2488 net.cpp:434] norm2 <- convpool2
I1024 22:32:48.871543  2488 net.cpp:408] norm2 -> norm2
I1024 22:32:48.871758  2488 net.cpp:150] Setting up norm2
I1024 22:32:48.871765  2488 net.cpp:157] Top shape: 10 192 53 53 (5393280)
I1024 22:32:48.871768  2488 net.cpp:165] Memory required for data: 1341908400
I1024 22:32:48.871781  2488 layer_factory.hpp:77] Creating layer conv5
I1024 22:32:48.871795  2488 net.cpp:100] Creating Layer conv5
I1024 22:32:48.871800  2488 net.cpp:434] conv5 <- norm2
I1024 22:32:48.871805  2488 net.cpp:408] conv5 -> conv5
I1024 22:32:48.876126  2488 net.cpp:150] Setting up conv5
I1024 22:32:48.876139  2488 net.cpp:157] Top shape: 10 256 51 51 (6658560)
I1024 22:32:48.876142  2488 net.cpp:165] Memory required for data: 1368542640
I1024 22:32:48.876147  2488 layer_factory.hpp:77] Creating layer elu5
I1024 22:32:48.876155  2488 net.cpp:100] Creating Layer elu5
I1024 22:32:48.876159  2488 net.cpp:434] elu5 <- conv5
I1024 22:32:48.876163  2488 net.cpp:395] elu5 -> conv5 (in-place)
I1024 22:32:48.876169  2488 net.cpp:150] Setting up elu5
I1024 22:32:48.876174  2488 net.cpp:157] Top shape: 10 256 51 51 (6658560)
I1024 22:32:48.876176  2488 net.cpp:165] Memory required for data: 1395176880
I1024 22:32:48.876178  2488 layer_factory.hpp:77] Creating layer conv6
I1024 22:32:48.876186  2488 net.cpp:100] Creating Layer conv6
I1024 22:32:48.876190  2488 net.cpp:434] conv6 <- conv5
I1024 22:32:48.876196  2488 net.cpp:408] conv6 -> conv6
I1024 22:32:48.880388  2488 net.cpp:150] Setting up conv6
I1024 22:32:48.880400  2488 net.cpp:157] Top shape: 10 256 49 49 (6146560)
I1024 22:32:48.880403  2488 net.cpp:165] Memory required for data: 1419763120
I1024 22:32:48.880409  2488 layer_factory.hpp:77] Creating layer elu6
I1024 22:32:48.880414  2488 net.cpp:100] Creating Layer elu6
I1024 22:32:48.880417  2488 net.cpp:434] elu6 <- conv6
I1024 22:32:48.880421  2488 net.cpp:395] elu6 -> conv6 (in-place)
I1024 22:32:48.880426  2488 net.cpp:150] Setting up elu6
I1024 22:32:48.880430  2488 net.cpp:157] Top shape: 10 256 49 49 (6146560)
I1024 22:32:48.880434  2488 net.cpp:165] Memory required for data: 1444349360
I1024 22:32:48.880437  2488 layer_factory.hpp:77] Creating layer convpool3
I1024 22:32:48.880444  2488 net.cpp:100] Creating Layer convpool3
I1024 22:32:48.880446  2488 net.cpp:434] convpool3 <- conv6
I1024 22:32:48.880451  2488 net.cpp:408] convpool3 -> convpool3
I1024 22:32:48.885035  2488 net.cpp:150] Setting up convpool3
I1024 22:32:48.885057  2488 net.cpp:157] Top shape: 10 256 24 24 (1474560)
I1024 22:32:48.885059  2488 net.cpp:165] Memory required for data: 1450247600
I1024 22:32:48.885066  2488 layer_factory.hpp:77] Creating layer elupool3
I1024 22:32:48.885074  2488 net.cpp:100] Creating Layer elupool3
I1024 22:32:48.885076  2488 net.cpp:434] elupool3 <- convpool3
I1024 22:32:48.885082  2488 net.cpp:395] elupool3 -> convpool3 (in-place)
I1024 22:32:48.885088  2488 net.cpp:150] Setting up elupool3
I1024 22:32:48.885093  2488 net.cpp:157] Top shape: 10 256 24 24 (1474560)
I1024 22:32:48.885094  2488 net.cpp:165] Memory required for data: 1456145840
I1024 22:32:48.885097  2488 layer_factory.hpp:77] Creating layer norm3
I1024 22:32:48.885100  2488 net.cpp:100] Creating Layer norm3
I1024 22:32:48.885102  2488 net.cpp:434] norm3 <- convpool3
I1024 22:32:48.885107  2488 net.cpp:408] norm3 -> norm3
I1024 22:32:48.885254  2488 net.cpp:150] Setting up norm3
I1024 22:32:48.885259  2488 net.cpp:157] Top shape: 10 256 24 24 (1474560)
I1024 22:32:48.885262  2488 net.cpp:165] Memory required for data: 1462044080
I1024 22:32:48.885267  2488 layer_factory.hpp:77] Creating layer conv7
I1024 22:32:48.885274  2488 net.cpp:100] Creating Layer conv7
I1024 22:32:48.885277  2488 net.cpp:434] conv7 <- norm3
I1024 22:32:48.885282  2488 net.cpp:408] conv7 -> conv7
I1024 22:32:48.889931  2488 net.cpp:150] Setting up conv7
I1024 22:32:48.889941  2488 net.cpp:157] Top shape: 10 384 22 22 (1858560)
I1024 22:32:48.889943  2488 net.cpp:165] Memory required for data: 1469478320
I1024 22:32:48.889961  2488 layer_factory.hpp:77] Creating layer elu7
I1024 22:32:48.889966  2488 net.cpp:100] Creating Layer elu7
I1024 22:32:48.889967  2488 net.cpp:434] elu7 <- conv7
I1024 22:32:48.889971  2488 net.cpp:395] elu7 -> conv7 (in-place)
I1024 22:32:48.889976  2488 net.cpp:150] Setting up elu7
I1024 22:32:48.889978  2488 net.cpp:157] Top shape: 10 384 22 22 (1858560)
I1024 22:32:48.889981  2488 net.cpp:165] Memory required for data: 1476912560
I1024 22:32:48.889981  2488 layer_factory.hpp:77] Creating layer conv8
I1024 22:32:48.889988  2488 net.cpp:100] Creating Layer conv8
I1024 22:32:48.889991  2488 net.cpp:434] conv8 <- conv7
I1024 22:32:48.889994  2488 net.cpp:408] conv8 -> conv8
I1024 22:32:48.896329  2488 net.cpp:150] Setting up conv8
I1024 22:32:48.896353  2488 net.cpp:157] Top shape: 10 384 20 20 (1536000)
I1024 22:32:48.896354  2488 net.cpp:165] Memory required for data: 1483056560
I1024 22:32:48.896361  2488 layer_factory.hpp:77] Creating layer elu8
I1024 22:32:48.896366  2488 net.cpp:100] Creating Layer elu8
I1024 22:32:48.896371  2488 net.cpp:434] elu8 <- conv8
I1024 22:32:48.896375  2488 net.cpp:395] elu8 -> conv8 (in-place)
I1024 22:32:48.896380  2488 net.cpp:150] Setting up elu8
I1024 22:32:48.896384  2488 net.cpp:157] Top shape: 10 384 20 20 (1536000)
I1024 22:32:48.896385  2488 net.cpp:165] Memory required for data: 1489200560
I1024 22:32:48.896387  2488 layer_factory.hpp:77] Creating layer convpool4
I1024 22:32:48.896394  2488 net.cpp:100] Creating Layer convpool4
I1024 22:32:48.896396  2488 net.cpp:434] convpool4 <- conv8
I1024 22:32:48.896401  2488 net.cpp:408] convpool4 -> convpool4
I1024 22:32:48.902735  2488 net.cpp:150] Setting up convpool4
I1024 22:32:48.902755  2488 net.cpp:157] Top shape: 10 384 9 9 (311040)
I1024 22:32:48.902757  2488 net.cpp:165] Memory required for data: 1490444720
I1024 22:32:48.902770  2488 layer_factory.hpp:77] Creating layer elupool4
I1024 22:32:48.902776  2488 net.cpp:100] Creating Layer elupool4
I1024 22:32:48.902779  2488 net.cpp:434] elupool4 <- convpool4
I1024 22:32:48.902783  2488 net.cpp:395] elupool4 -> convpool4 (in-place)
I1024 22:32:48.902789  2488 net.cpp:150] Setting up elupool4
I1024 22:32:48.902792  2488 net.cpp:157] Top shape: 10 384 9 9 (311040)
I1024 22:32:48.902793  2488 net.cpp:165] Memory required for data: 1491688880
I1024 22:32:48.902796  2488 layer_factory.hpp:77] Creating layer norm4
I1024 22:32:48.902799  2488 net.cpp:100] Creating Layer norm4
I1024 22:32:48.902801  2488 net.cpp:434] norm4 <- convpool4
I1024 22:32:48.902806  2488 net.cpp:408] norm4 -> norm4
I1024 22:32:48.902946  2488 net.cpp:150] Setting up norm4
I1024 22:32:48.902951  2488 net.cpp:157] Top shape: 10 384 9 9 (311040)
I1024 22:32:48.902952  2488 net.cpp:165] Memory required for data: 1492933040
I1024 22:32:48.902956  2488 layer_factory.hpp:77] Creating layer conv9
I1024 22:32:48.902963  2488 net.cpp:100] Creating Layer conv9
I1024 22:32:48.902966  2488 net.cpp:434] conv9 <- norm4
I1024 22:32:48.902969  2488 net.cpp:408] conv9 -> conv9
I1024 22:32:48.919409  2488 net.cpp:150] Setting up conv9
I1024 22:32:48.919431  2488 net.cpp:157] Top shape: 10 1024 7 7 (501760)
I1024 22:32:48.919435  2488 net.cpp:165] Memory required for data: 1494940080
I1024 22:32:48.919441  2488 layer_factory.hpp:77] Creating layer elu9
I1024 22:32:48.919450  2488 net.cpp:100] Creating Layer elu9
I1024 22:32:48.919451  2488 net.cpp:434] elu9 <- conv9
I1024 22:32:48.919457  2488 net.cpp:395] elu9 -> conv9 (in-place)
I1024 22:32:48.919463  2488 net.cpp:150] Setting up elu9
I1024 22:32:48.919466  2488 net.cpp:157] Top shape: 10 1024 7 7 (501760)
I1024 22:32:48.919468  2488 net.cpp:165] Memory required for data: 1496947120
I1024 22:32:48.919471  2488 layer_factory.hpp:77] Creating layer conv10
I1024 22:32:48.919482  2488 net.cpp:100] Creating Layer conv10
I1024 22:32:48.919484  2488 net.cpp:434] conv10 <- conv9
I1024 22:32:48.919488  2488 net.cpp:408] conv10 -> conv10
I1024 22:32:48.924578  2488 net.cpp:150] Setting up conv10
I1024 22:32:48.924588  2488 net.cpp:157] Top shape: 10 1024 7 7 (501760)
I1024 22:32:48.924602  2488 net.cpp:165] Memory required for data: 1498954160
I1024 22:32:48.924607  2488 layer_factory.hpp:77] Creating layer elu10
I1024 22:32:48.924612  2488 net.cpp:100] Creating Layer elu10
I1024 22:32:48.924614  2488 net.cpp:434] elu10 <- conv10
I1024 22:32:48.924618  2488 net.cpp:395] elu10 -> conv10 (in-place)
I1024 22:32:48.924623  2488 net.cpp:150] Setting up elu10
I1024 22:32:48.924626  2488 net.cpp:157] Top shape: 10 1024 7 7 (501760)
I1024 22:32:48.924628  2488 net.cpp:165] Memory required for data: 1500961200
I1024 22:32:48.924629  2488 layer_factory.hpp:77] Creating layer conv11
I1024 22:32:48.924634  2488 net.cpp:100] Creating Layer conv11
I1024 22:32:48.924638  2488 net.cpp:434] conv11 <- conv10
I1024 22:32:48.924641  2488 net.cpp:408] conv11 -> conv11
I1024 22:32:48.929637  2488 net.cpp:150] Setting up conv11
I1024 22:32:48.929656  2488 net.cpp:157] Top shape: 10 1000 7 7 (490000)
I1024 22:32:48.929658  2488 net.cpp:165] Memory required for data: 1502921200
I1024 22:32:48.929664  2488 layer_factory.hpp:77] Creating layer elu11
I1024 22:32:48.929671  2488 net.cpp:100] Creating Layer elu11
I1024 22:32:48.929673  2488 net.cpp:434] elu11 <- conv11
I1024 22:32:48.929677  2488 net.cpp:395] elu11 -> conv11 (in-place)
I1024 22:32:48.929682  2488 net.cpp:150] Setting up elu11
I1024 22:32:48.929685  2488 net.cpp:157] Top shape: 10 1000 7 7 (490000)
I1024 22:32:48.929687  2488 net.cpp:165] Memory required for data: 1504881200
I1024 22:32:48.929689  2488 layer_factory.hpp:77] Creating layer pool
I1024 22:32:48.929693  2488 net.cpp:100] Creating Layer pool
I1024 22:32:48.929695  2488 net.cpp:434] pool <- conv11
I1024 22:32:48.929699  2488 net.cpp:408] pool -> pool
I1024 22:32:48.929920  2488 net.cpp:150] Setting up pool
I1024 22:32:48.929927  2488 net.cpp:157] Top shape: 10 1000 1 1 (10000)
I1024 22:32:48.929929  2488 net.cpp:165] Memory required for data: 1504921200
I1024 22:32:48.929931  2488 layer_factory.hpp:77] Creating layer pool_pool_0_split
I1024 22:32:48.929935  2488 net.cpp:100] Creating Layer pool_pool_0_split
I1024 22:32:48.929939  2488 net.cpp:434] pool_pool_0_split <- pool
I1024 22:32:48.929941  2488 net.cpp:408] pool_pool_0_split -> pool_pool_0_split_0
I1024 22:32:48.929945  2488 net.cpp:408] pool_pool_0_split -> pool_pool_0_split_1
I1024 22:32:48.929971  2488 net.cpp:150] Setting up pool_pool_0_split
I1024 22:32:48.929975  2488 net.cpp:157] Top shape: 10 1000 1 1 (10000)
I1024 22:32:48.929977  2488 net.cpp:157] Top shape: 10 1000 1 1 (10000)
I1024 22:32:48.929980  2488 net.cpp:165] Memory required for data: 1505001200
I1024 22:32:48.929981  2488 layer_factory.hpp:77] Creating layer accuracy
I1024 22:32:48.929985  2488 net.cpp:100] Creating Layer accuracy
I1024 22:32:48.929986  2488 net.cpp:434] accuracy <- pool_pool_0_split_0
I1024 22:32:48.929988  2488 net.cpp:434] accuracy <- label_data_1_split_0
I1024 22:32:48.929992  2488 net.cpp:408] accuracy -> accuracy
…
