…
I1023 17:45:32.790488  4514 net.cpp:322] The NetState phase (0) differed from the phase (1) specified by a rule in layer data
I1023 17:45:32.790637  4514 net.cpp:58] Initializing net from parameters: 
name: "CaffeNet"
state {
  phase: TRAIN
  level: 0
  stage: ""
}
layer {
  name: "data"
  type: "Data"
  top: "data"
  top: "label"
  include {
    phase: TRAIN
  }
  transform_param {
    mirror: true
    crop_size: 227
    mean_file: "imagenet_mean.binaryproto"
  }
  data_param {
    source: "../../data/imagenet/ilsvrc12_train_lmdb"
    batch_size: 25
    backend: LMDB
  }
}
layer {
  name: "conv1"
  type: "Convolution"
  bottom: "data"
  top: "conv1"
  param {
    lr_mult: 1
    decay_mult: 1
  }
  param {
    lr_mult: 2
    decay_mult: 0
  }
  convolution_param {
    num_output: 96
    kernel_size: 3
    weight_filler {
      type: "xavier"
    }
    bias_filler {
      type: "constant"
      value: 0
    }
  }
}
layer {
  name: "elu1"
  type: "ELU"
  bottom: "conv1"
  top: "conv1"
}
layer {
  name: "conv2"
  type: "Convolution"
  bottom: "conv1"
  top: "conv2"
  param {
    lr_mult: 1
    decay_mult: 1
  }
  param {
    lr_mult: 2
    decay_mult: 0
  }
  convolution_param {
    num_output: 96
    kernel_size: 3
    weight_filler {
      type: "xavier"
    }
    bias_filler {
      type: "constant"
      value: 1
    }
  }
}
layer {
  name: "elu2"
  type: "ELU"
  bottom: "conv2"
  top: "conv2"
}
layer {
  name: "convpool1"
  type: "Convolution"
  bottom: "conv2"
  top: "convpool1"
  param {
    lr_mult: 1
    decay_mult: 1
  }
  param {
    lr_mult: 2
    decay_mult: 0
  }
  convolution_param {
    num_output: 96
    kernel_size: 3
    stride: 2
    weight_filler {
      type: "xavier"
    }
    bias_filler {
      type: "constant"
      value: 1
    }
  }
}
layer {
  name: "elupool1"
  type: "ELU"
  bottom: "convpool1"
  top: "convpool1"
}
layer {
  name: "norm1"
  type: "BatchNorm"
  bottom: "convpool1"
  top: "norm1"
  batch_norm_param {
    use_global_stats: false
  }
}
layer {
  name: "conv3"
  type: "Convolution"
  bottom: "norm1"
  top: "conv3"
  param {
    lr_mult: 1
    decay_mult: 1
  }
  param {
    lr_mult: 2
    decay_mult: 0
  }
  convolution_param {
    num_output: 192
    kernel_size: 3
    weight_filler {
      type: "xavier"
    }
    bias_filler {
      type: "constant"
      value: 0
    }
  }
}
layer {
  name: "elu3"
  type: "ReLU"
  bottom: "conv3"
  top: "conv3"
}
layer {
  name: "conv4"
  type: "Convolution"
  bottom: "conv3"
  top: "conv4"
  param {
    lr_mult: 1
    decay_mult: 1
  }
  param {
    lr_mult: 2
    decay_mult: 0
  }
  convolution_param {
    num_output: 192
    kernel_size: 3
    weight_filler {
      type: "xavier"
    }
    bias_filler {
      type: "constant"
      value: 1
    }
  }
}
layer {
  name: "elu4"
  type: "ELU"
  bottom: "conv4"
  top: "conv4"
}
layer {
  name: "convpool2"
  type: "Convolution"
  bottom: "conv4"
  top: "convpool2"
  param {
    lr_mult: 1
    decay_mult: 1
  }
  param {
    lr_mult: 2
    decay_mult: 0
  }
  convolution_param {
    num_output: 192
    kernel_size: 3
    stride: 2
    weight_filler {
      type: "xavier"
    }
    bias_filler {
      type: "constant"
      value: 1
    }
  }
}
layer {
  name: "elupool2"
  type: "ELU"
  bottom: "convpool2"
  top: "convpool2"
}
layer {
  name: "norm2"
  type: "BatchNorm"
  bottom: "convpool2"
  top: "norm2"
  batch_norm_param {
    use_global_stats: false
  }
}
layer {
  name: "conv5"
  type: "Convolution"
  bottom: "norm2"
  top: "conv5"
  param {
    lr_mult: 1
    decay_mult: 1
  }
  param {
    lr_mult: 2
    decay_mult: 0
  }
  convolution_param {
    num_output: 256
    kernel_size: 3
    weight_filler {
      type: "xavier"
    }
    bias_filler {
      type: "constant"
      value: 1
    }
  }
}
layer {
  name: "elu5"
  type: "ELU"
  bottom: "conv5"
  top: "conv5"
}
layer {
  name: "conv6"
  type: "Convolution"
  bottom: "conv5"
  top: "conv6"
  param {
    lr_mult: 1
    decay_mult: 1
  }
  param {
    lr_mult: 2
    decay_mult: 0
  }
  convolution_param {
    num_output: 256
    kernel_size: 3
    weight_filler {
      type: "xavier"
    }
    bias_filler {
      type: "constant"
      value: 1
    }
  }
}
layer {
  name: "elu6"
  type: "ELU"
  bottom: "conv6"
  top: "conv6"
}
layer {
  name: "convpool3"
  type: "Convolution"
  bottom: "conv6"
  top: "convpool3"
  param {
    lr_mult: 1
    decay_mult: 1
  }
  param {
    lr_mult: 2
    decay_mult: 0
  }
  convolution_param {
    num_output: 256
    kernel_size: 3
    stride: 2
    weight_filler {
      type: "xavier"
    }
    bias_filler {
      type: "constant"
      value: 1
    }
  }
}
layer {
  name: "elupool3"
  type: "ELU"
  bottom: "convpool3"
  top: "convpool3"
}
layer {
  name: "norm3"
  type: "BatchNorm"
  bottom: "convpool3"
  top: "norm3"
  batch_norm_param {
    use_global_stats: false
  }
}
layer {
  name: "conv7"
  type: "Convolution"
  bottom: "norm3"
  top: "conv7"
  param {
    lr_mult: 1
    decay_mult: 1
  }
  param {
    lr_mult: 2
    decay_mult: 0
  }
  convolution_param {
    num_output: 384
    kernel_size: 3
    weight_filler {
      type: "xavier"
    }
    bias_filler {
      type: "constant"
      value: 1
    }
  }
}
layer {
  name: "elu7"
  type: "ELU"
  bottom: "conv7"
  top: "conv7"
}
layer {
  name: "conv8"
  type: "Convolution"
  bottom: "conv7"
  top: "conv8"
  param {
    lr_mult: 1
    decay_mult: 1
  }
  param {
    lr_mult: 2
    decay_mult: 0
  }
  convolution_param {
    num_output: 384
    kernel_size: 3
    weight_filler {
      type: "xavier"
    }
    bias_filler {
      type: "constant"
      value: 1
    }
  }
}
layer {
  name: "elu8"
  type: "ELU"
  bottom: "conv8"
  top: "conv8"
}
layer {
  name: "convpool4"
  type: "Convolution"
  bottom: "conv8"
  top: "convpool4"
  param {
    lr_mult: 1
    decay_mult: 1
  }
  param {
    lr_mult: 2
    decay_mult: 0
  }
  convolution_param {
    num_output: 384
    kernel_size: 3
    stride: 2
    weight_filler {
      type: "xavier"
    }
    bias_filler {
      type: "constant"
      value: 1
    }
  }
}
layer {
  name: "elupool4"
  type: "ELU"
  bottom: "convpool4"
  top: "convpool4"
}
layer {
  name: "norm4"
  type: "BatchNorm"
  bottom: "convpool4"
  top: "norm4"
  batch_norm_param {
    use_global_stats: false
  }
}
layer {
  name: "conv9"
  type: "Convolution"
  bottom: "norm4"
  top: "conv9"
  param {
    lr_mult: 1
    decay_mult: 1
  }
  param {
    lr_mult: 2
    decay_mult: 0
  }
  convolution_param {
    num_output: 1024
    kernel_size: 3
    weight_filler {
      type: "xavier"
    }
    bias_filler {
      type: "constant"
      value: 1
    }
  }
}
layer {
  name: "elu9"
  type: "ELU"
  bottom: "conv9"
  top: "conv9"
}
layer {
  name: "conv10"
  type: "Convolution"
  bottom: "conv9"
  top: "conv10"
  param {
    lr_mult: 1
    decay_mult: 1
  }
  param {
    lr_mult: 2
    decay_mult: 0
  }
  convolution_param {
    num_output: 1024
    kernel_size: 1
    weight_filler {
      type: "xavier"
    }
    bias_filler {
      type: "constant"
      value: 1
    }
  }
}
layer {
  name: "elu10"
  type: "ELU"
  bottom: "conv10"
  top: "conv10"
}
layer {
  name: "conv11"
  type: "Convolution"
  bottom: "conv10"
  top: "conv11"
  param {
    lr_mult: 1
    decay_mult: 1
  }
  param {
    lr_mult: 2
    decay_mult: 0
  }
  convolution_param {
    num_output: 1000
    kernel_size: 1
    weight_filler {
      type: "xavier"
    }
    bias_filler {
      type: "constant"
      value: 1
    }
  }
}
layer {
  name: "elu11"
  type: "ELU"
  bottom: "conv11"
  top: "conv11"
}
layer {
  name: "pool"
  type: "Pooling"
  bottom: "conv11"
  top: "pool"
  pooling_param {
    pool: AVE
    global_pooling: true
  }
}
layer {
  name: "accuracy"
  type: "Accuracy"
  bottom: "pool"
  bottom: "label"
  top: "accuracy"
}
layer {
  name: "loss"
  type: "SoftmaxWithLoss"
  bottom: "pool"
  bottom: "label"
  top: "loss"
}
I1023 17:45:32.790771  4514 layer_factory.hpp:77] Creating layer data
I1023 17:45:32.791157  4514 net.cpp:100] Creating Layer data
I1023 17:45:32.791170  4514 net.cpp:408] data -> data
I1023 17:45:32.791189  4514 net.cpp:408] data -> label
I1023 17:45:32.791200  4514 data_transformer.cpp:25] Loading mean file from: imagenet_mean.binaryproto
I1023 17:45:32.791787  4520 db_lmdb.cpp:35] Opened lmdb ../../data/imagenet/ilsvrc12_train_lmdb
I1023 17:45:32.798674  4514 data_layer.cpp:41] output data size: 25,3,227,227
I1023 17:45:32.814270  4514 net.cpp:150] Setting up data
I1023 17:45:32.814296  4514 net.cpp:157] Top shape: 25 3 227 227 (3864675)
I1023 17:45:32.814299  4514 net.cpp:157] Top shape: 25 (25)
I1023 17:45:32.814301  4514 net.cpp:165] Memory required for data: 15458800
I1023 17:45:32.814308  4514 layer_factory.hpp:77] Creating layer label_data_1_split
I1023 17:45:32.814318  4514 net.cpp:100] Creating Layer label_data_1_split
I1023 17:45:32.814322  4514 net.cpp:434] label_data_1_split <- label
I1023 17:45:32.814332  4514 net.cpp:408] label_data_1_split -> label_data_1_split_0
I1023 17:45:32.814342  4514 net.cpp:408] label_data_1_split -> label_data_1_split_1
I1023 17:45:32.814371  4514 net.cpp:150] Setting up label_data_1_split
I1023 17:45:32.814376  4514 net.cpp:157] Top shape: 25 (25)
I1023 17:45:32.814378  4514 net.cpp:157] Top shape: 25 (25)
I1023 17:45:32.814380  4514 net.cpp:165] Memory required for data: 15459000
I1023 17:45:32.814383  4514 layer_factory.hpp:77] Creating layer conv1
I1023 17:45:32.814394  4514 net.cpp:100] Creating Layer conv1
I1023 17:45:32.814396  4514 net.cpp:434] conv1 <- data
I1023 17:45:32.814399  4514 net.cpp:408] conv1 -> conv1
I1023 17:45:32.944701  4514 net.cpp:150] Setting up conv1
I1023 17:45:32.944730  4514 net.cpp:157] Top shape: 25 96 225 225 (121500000)
I1023 17:45:32.944731  4514 net.cpp:165] Memory required for data: 501459000
I1023 17:45:32.944751  4514 layer_factory.hpp:77] Creating layer elu1
I1023 17:45:32.944758  4514 net.cpp:100] Creating Layer elu1
I1023 17:45:32.944761  4514 net.cpp:434] elu1 <- conv1
I1023 17:45:32.944766  4514 net.cpp:395] elu1 -> conv1 (in-place)
I1023 17:45:32.944775  4514 net.cpp:150] Setting up elu1
I1023 17:45:32.944778  4514 net.cpp:157] Top shape: 25 96 225 225 (121500000)
I1023 17:45:32.944784  4514 net.cpp:165] Memory required for data: 987459000
I1023 17:45:32.944787  4514 layer_factory.hpp:77] Creating layer conv2
I1023 17:45:32.944797  4514 net.cpp:100] Creating Layer conv2
I1023 17:45:32.944800  4514 net.cpp:434] conv2 <- conv1
I1023 17:45:32.944804  4514 net.cpp:408] conv2 -> conv2
I1023 17:45:32.946058  4514 net.cpp:150] Setting up conv2
I1023 17:45:32.946069  4514 net.cpp:157] Top shape: 25 96 223 223 (119349600)
I1023 17:45:32.946070  4514 net.cpp:165] Memory required for data: 1464857400
I1023 17:45:32.946077  4514 layer_factory.hpp:77] Creating layer elu2
I1023 17:45:32.946081  4514 net.cpp:100] Creating Layer elu2
I1023 17:45:32.946082  4514 net.cpp:434] elu2 <- conv2
I1023 17:45:32.946086  4514 net.cpp:395] elu2 -> conv2 (in-place)
I1023 17:45:32.946090  4514 net.cpp:150] Setting up elu2
I1023 17:45:32.946092  4514 net.cpp:157] Top shape: 25 96 223 223 (119349600)
I1023 17:45:32.946094  4514 net.cpp:165] Memory required for data: 1942255800
I1023 17:45:32.946096  4514 layer_factory.hpp:77] Creating layer convpool1
I1023 17:45:32.946102  4514 net.cpp:100] Creating Layer convpool1
I1023 17:45:32.946105  4514 net.cpp:434] convpool1 <- conv2
I1023 17:45:32.946110  4514 net.cpp:408] convpool1 -> convpool1
I1023 17:45:32.947362  4514 net.cpp:150] Setting up convpool1
I1023 17:45:32.947383  4514 net.cpp:157] Top shape: 25 96 111 111 (29570400)
I1023 17:45:32.947386  4514 net.cpp:165] Memory required for data: 2060537400
I1023 17:45:32.947393  4514 layer_factory.hpp:77] Creating layer elupool1
I1023 17:45:32.947397  4514 net.cpp:100] Creating Layer elupool1
I1023 17:45:32.947399  4514 net.cpp:434] elupool1 <- convpool1
I1023 17:45:32.947402  4514 net.cpp:395] elupool1 -> convpool1 (in-place)
I1023 17:45:32.947407  4514 net.cpp:150] Setting up elupool1
I1023 17:45:32.947410  4514 net.cpp:157] Top shape: 25 96 111 111 (29570400)
I1023 17:45:32.947412  4514 net.cpp:165] Memory required for data: 2178819000
I1023 17:45:32.947414  4514 layer_factory.hpp:77] Creating layer norm1
I1023 17:45:32.947422  4514 net.cpp:100] Creating Layer norm1
I1023 17:45:32.947424  4514 net.cpp:434] norm1 <- convpool1
I1023 17:45:32.947430  4514 net.cpp:408] norm1 -> norm1
I1023 17:45:32.947571  4514 net.cpp:150] Setting up norm1
I1023 17:45:32.947576  4514 net.cpp:157] Top shape: 25 96 111 111 (29570400)
I1023 17:45:32.947577  4514 net.cpp:165] Memory required for data: 2297100600
I1023 17:45:32.947583  4514 layer_factory.hpp:77] Creating layer conv3
I1023 17:45:32.947589  4514 net.cpp:100] Creating Layer conv3
I1023 17:45:32.947592  4514 net.cpp:434] conv3 <- norm1
I1023 17:45:32.947594  4514 net.cpp:408] conv3 -> conv3
I1023 17:45:32.949093  4514 net.cpp:150] Setting up conv3
I1023 17:45:32.949105  4514 net.cpp:157] Top shape: 25 192 109 109 (57028800)
I1023 17:45:32.949106  4514 net.cpp:165] Memory required for data: 2525215800
I1023 17:45:32.949112  4514 layer_factory.hpp:77] Creating layer elu3
I1023 17:45:32.949118  4514 net.cpp:100] Creating Layer elu3
I1023 17:45:32.949122  4514 net.cpp:434] elu3 <- conv3
I1023 17:45:32.949127  4514 net.cpp:395] elu3 -> conv3 (in-place)
I1023 17:45:32.949331  4514 net.cpp:150] Setting up elu3
I1023 17:45:32.949338  4514 net.cpp:157] Top shape: 25 192 109 109 (57028800)
I1023 17:45:32.949340  4514 net.cpp:165] Memory required for data: 2753331000
I1023 17:45:32.949342  4514 layer_factory.hpp:77] Creating layer conv4
I1023 17:45:32.949350  4514 net.cpp:100] Creating Layer conv4
I1023 17:45:32.949355  4514 net.cpp:434] conv4 <- conv3
I1023 17:45:32.949360  4514 net.cpp:408] conv4 -> conv4
I1023 17:45:32.951578  4514 net.cpp:150] Setting up conv4
I1023 17:45:32.951597  4514 net.cpp:157] Top shape: 25 192 107 107 (54955200)
I1023 17:45:32.951602  4514 net.cpp:165] Memory required for data: 2973151800
I1023 17:45:32.951611  4514 layer_factory.hpp:77] Creating layer elu4
I1023 17:45:32.951618  4514 net.cpp:100] Creating Layer elu4
I1023 17:45:32.951622  4514 net.cpp:434] elu4 <- conv4
I1023 17:45:32.951627  4514 net.cpp:395] elu4 -> conv4 (in-place)
I1023 17:45:32.951632  4514 net.cpp:150] Setting up elu4
I1023 17:45:32.951635  4514 net.cpp:157] Top shape: 25 192 107 107 (54955200)
I1023 17:45:32.951637  4514 net.cpp:165] Memory required for data: 3192972600
I1023 17:45:32.951639  4514 layer_factory.hpp:77] Creating layer convpool2
I1023 17:45:32.951647  4514 net.cpp:100] Creating Layer convpool2
I1023 17:45:32.951648  4514 net.cpp:434] convpool2 <- conv4
I1023 17:45:32.951652  4514 net.cpp:408] convpool2 -> convpool2
I1023 17:45:32.954164  4514 net.cpp:150] Setting up convpool2
I1023 17:45:32.954181  4514 net.cpp:157] Top shape: 25 192 53 53 (13483200)
I1023 17:45:32.954183  4514 net.cpp:165] Memory required for data: 3246905400
I1023 17:45:32.954188  4514 layer_factory.hpp:77] Creating layer elupool2
I1023 17:45:32.954193  4514 net.cpp:100] Creating Layer elupool2
I1023 17:45:32.954196  4514 net.cpp:434] elupool2 <- convpool2
I1023 17:45:32.954200  4514 net.cpp:395] elupool2 -> convpool2 (in-place)
I1023 17:45:32.954205  4514 net.cpp:150] Setting up elupool2
I1023 17:45:32.954207  4514 net.cpp:157] Top shape: 25 192 53 53 (13483200)
I1023 17:45:32.954210  4514 net.cpp:165] Memory required for data: 3300838200
I1023 17:45:32.954210  4514 layer_factory.hpp:77] Creating layer norm2
I1023 17:45:32.954216  4514 net.cpp:100] Creating Layer norm2
I1023 17:45:32.954231  4514 net.cpp:434] norm2 <- convpool2
I1023 17:45:32.954236  4514 net.cpp:408] norm2 -> norm2
I1023 17:45:32.954368  4514 net.cpp:150] Setting up norm2
I1023 17:45:32.954373  4514 net.cpp:157] Top shape: 25 192 53 53 (13483200)
I1023 17:45:32.954375  4514 net.cpp:165] Memory required for data: 3354771000
I1023 17:45:32.954382  4514 layer_factory.hpp:77] Creating layer conv5
I1023 17:45:32.954391  4514 net.cpp:100] Creating Layer conv5
I1023 17:45:32.954393  4514 net.cpp:434] conv5 <- norm2
I1023 17:45:32.954396  4514 net.cpp:408] conv5 -> conv5
I1023 17:45:32.957183  4514 net.cpp:150] Setting up conv5
I1023 17:45:32.957202  4514 net.cpp:157] Top shape: 25 256 51 51 (16646400)
I1023 17:45:32.957204  4514 net.cpp:165] Memory required for data: 3421356600
I1023 17:45:32.957211  4514 layer_factory.hpp:77] Creating layer elu5
I1023 17:45:32.957218  4514 net.cpp:100] Creating Layer elu5
I1023 17:45:32.957221  4514 net.cpp:434] elu5 <- conv5
I1023 17:45:32.957232  4514 net.cpp:395] elu5 -> conv5 (in-place)
I1023 17:45:32.957239  4514 net.cpp:150] Setting up elu5
I1023 17:45:32.957242  4514 net.cpp:157] Top shape: 25 256 51 51 (16646400)
I1023 17:45:32.957244  4514 net.cpp:165] Memory required for data: 3487942200
I1023 17:45:32.957245  4514 layer_factory.hpp:77] Creating layer conv6
I1023 17:45:32.957252  4514 net.cpp:100] Creating Layer conv6
I1023 17:45:32.957254  4514 net.cpp:434] conv6 <- conv5
I1023 17:45:32.957258  4514 net.cpp:408] conv6 -> conv6
I1023 17:45:32.960630  4514 net.cpp:150] Setting up conv6
I1023 17:45:32.960644  4514 net.cpp:157] Top shape: 25 256 49 49 (15366400)
I1023 17:45:32.960646  4514 net.cpp:165] Memory required for data: 3549407800
I1023 17:45:32.960651  4514 layer_factory.hpp:77] Creating layer elu6
I1023 17:45:32.960656  4514 net.cpp:100] Creating Layer elu6
I1023 17:45:32.960659  4514 net.cpp:434] elu6 <- conv6
I1023 17:45:32.960664  4514 net.cpp:395] elu6 -> conv6 (in-place)
I1023 17:45:32.960667  4514 net.cpp:150] Setting up elu6
I1023 17:45:32.960670  4514 net.cpp:157] Top shape: 25 256 49 49 (15366400)
I1023 17:45:32.960672  4514 net.cpp:165] Memory required for data: 3610873400
I1023 17:45:32.960675  4514 layer_factory.hpp:77] Creating layer convpool3
I1023 17:45:32.960681  4514 net.cpp:100] Creating Layer convpool3
I1023 17:45:32.960685  4514 net.cpp:434] convpool3 <- conv6
I1023 17:45:32.960688  4514 net.cpp:408] convpool3 -> convpool3
I1023 17:45:32.964386  4514 net.cpp:150] Setting up convpool3
I1023 17:45:32.964401  4514 net.cpp:157] Top shape: 25 256 24 24 (3686400)
I1023 17:45:32.964402  4514 net.cpp:165] Memory required for data: 3625619000
I1023 17:45:32.964406  4514 layer_factory.hpp:77] Creating layer elupool3
I1023 17:45:32.964411  4514 net.cpp:100] Creating Layer elupool3
I1023 17:45:32.964413  4514 net.cpp:434] elupool3 <- convpool3
I1023 17:45:32.964416  4514 net.cpp:395] elupool3 -> convpool3 (in-place)
I1023 17:45:32.964421  4514 net.cpp:150] Setting up elupool3
I1023 17:45:32.964426  4514 net.cpp:157] Top shape: 25 256 24 24 (3686400)
I1023 17:45:32.964426  4514 net.cpp:165] Memory required for data: 3640364600
I1023 17:45:32.964428  4514 layer_factory.hpp:77] Creating layer norm3
I1023 17:45:32.964433  4514 net.cpp:100] Creating Layer norm3
I1023 17:45:32.964435  4514 net.cpp:434] norm3 <- convpool3
I1023 17:45:32.964438  4514 net.cpp:408] norm3 -> norm3
I1023 17:45:32.964568  4514 net.cpp:150] Setting up norm3
I1023 17:45:32.964572  4514 net.cpp:157] Top shape: 25 256 24 24 (3686400)
I1023 17:45:32.964576  4514 net.cpp:165] Memory required for data: 3655110200
I1023 17:45:32.964579  4514 layer_factory.hpp:77] Creating layer conv7
I1023 17:45:32.964584  4514 net.cpp:100] Creating Layer conv7
I1023 17:45:32.964587  4514 net.cpp:434] conv7 <- norm3
I1023 17:45:32.964592  4514 net.cpp:408] conv7 -> conv7
I1023 17:45:32.969101  4514 net.cpp:150] Setting up conv7
I1023 17:45:32.969113  4514 net.cpp:157] Top shape: 25 384 22 22 (4646400)
I1023 17:45:32.969116  4514 net.cpp:165] Memory required for data: 3673695800
I1023 17:45:32.969121  4514 layer_factory.hpp:77] Creating layer elu7
I1023 17:45:32.969139  4514 net.cpp:100] Creating Layer elu7
I1023 17:45:32.969142  4514 net.cpp:434] elu7 <- conv7
I1023 17:45:32.969146  4514 net.cpp:395] elu7 -> conv7 (in-place)
I1023 17:45:32.969151  4514 net.cpp:150] Setting up elu7
I1023 17:45:32.969154  4514 net.cpp:157] Top shape: 25 384 22 22 (4646400)
I1023 17:45:32.969156  4514 net.cpp:165] Memory required for data: 3692281400
I1023 17:45:32.969157  4514 layer_factory.hpp:77] Creating layer conv8
I1023 17:45:32.969163  4514 net.cpp:100] Creating Layer conv8
I1023 17:45:32.969166  4514 net.cpp:434] conv8 <- conv7
I1023 17:45:32.969171  4514 net.cpp:408] conv8 -> conv8
I1023 17:45:32.975693  4514 net.cpp:150] Setting up conv8
I1023 17:45:32.975718  4514 net.cpp:157] Top shape: 25 384 20 20 (3840000)
I1023 17:45:32.975719  4514 net.cpp:165] Memory required for data: 3707641400
I1023 17:45:32.975725  4514 layer_factory.hpp:77] Creating layer elu8
I1023 17:45:32.975731  4514 net.cpp:100] Creating Layer elu8
I1023 17:45:32.975734  4514 net.cpp:434] elu8 <- conv8
I1023 17:45:32.975738  4514 net.cpp:395] elu8 -> conv8 (in-place)
I1023 17:45:32.975744  4514 net.cpp:150] Setting up elu8
I1023 17:45:32.975746  4514 net.cpp:157] Top shape: 25 384 20 20 (3840000)
I1023 17:45:32.975749  4514 net.cpp:165] Memory required for data: 3723001400
I1023 17:45:32.975750  4514 layer_factory.hpp:77] Creating layer convpool4
I1023 17:45:32.975759  4514 net.cpp:100] Creating Layer convpool4
I1023 17:45:32.975759  4514 net.cpp:434] convpool4 <- conv8
I1023 17:45:32.975764  4514 net.cpp:408] convpool4 -> convpool4
I1023 17:45:32.982117  4514 net.cpp:150] Setting up convpool4
I1023 17:45:32.982137  4514 net.cpp:157] Top shape: 25 384 9 9 (777600)
I1023 17:45:32.982139  4514 net.cpp:165] Memory required for data: 3726111800
I1023 17:45:32.982149  4514 layer_factory.hpp:77] Creating layer elupool4
I1023 17:45:32.982156  4514 net.cpp:100] Creating Layer elupool4
I1023 17:45:32.982157  4514 net.cpp:434] elupool4 <- convpool4
I1023 17:45:32.982161  4514 net.cpp:395] elupool4 -> convpool4 (in-place)
I1023 17:45:32.982167  4514 net.cpp:150] Setting up elupool4
I1023 17:45:32.982170  4514 net.cpp:157] Top shape: 25 384 9 9 (777600)
I1023 17:45:32.982172  4514 net.cpp:165] Memory required for data: 3729222200
I1023 17:45:32.982173  4514 layer_factory.hpp:77] Creating layer norm4
I1023 17:45:32.982179  4514 net.cpp:100] Creating Layer norm4
I1023 17:45:32.982182  4514 net.cpp:434] norm4 <- convpool4
I1023 17:45:32.982184  4514 net.cpp:408] norm4 -> norm4
I1023 17:45:32.982321  4514 net.cpp:150] Setting up norm4
I1023 17:45:32.982326  4514 net.cpp:157] Top shape: 25 384 9 9 (777600)
I1023 17:45:32.982328  4514 net.cpp:165] Memory required for data: 3732332600
I1023 17:45:32.982332  4514 layer_factory.hpp:77] Creating layer conv9
I1023 17:45:32.982337  4514 net.cpp:100] Creating Layer conv9
I1023 17:45:32.982341  4514 net.cpp:434] conv9 <- norm4
I1023 17:45:32.982344  4514 net.cpp:408] conv9 -> conv9
I1023 17:45:32.998489  4514 net.cpp:150] Setting up conv9
I1023 17:45:32.998517  4514 net.cpp:157] Top shape: 25 1024 7 7 (1254400)
I1023 17:45:32.998519  4514 net.cpp:165] Memory required for data: 3737350200
I1023 17:45:32.998528  4514 layer_factory.hpp:77] Creating layer elu9
I1023 17:45:32.998533  4514 net.cpp:100] Creating Layer elu9
I1023 17:45:32.998538  4514 net.cpp:434] elu9 <- conv9
I1023 17:45:32.998543  4514 net.cpp:395] elu9 -> conv9 (in-place)
I1023 17:45:32.998549  4514 net.cpp:150] Setting up elu9
I1023 17:45:32.998551  4514 net.cpp:157] Top shape: 25 1024 7 7 (1254400)
I1023 17:45:32.998553  4514 net.cpp:165] Memory required for data: 3742367800
I1023 17:45:32.998555  4514 layer_factory.hpp:77] Creating layer conv10
I1023 17:45:32.998569  4514 net.cpp:100] Creating Layer conv10
I1023 17:45:32.998571  4514 net.cpp:434] conv10 <- conv9
I1023 17:45:32.998574  4514 net.cpp:408] conv10 -> conv10
I1023 17:45:33.004037  4514 net.cpp:150] Setting up conv10
I1023 17:45:33.004061  4514 net.cpp:157] Top shape: 25 1024 7 7 (1254400)
I1023 17:45:33.004063  4514 net.cpp:165] Memory required for data: 3747385400
I1023 17:45:33.004087  4514 layer_factory.hpp:77] Creating layer elu10
I1023 17:45:33.004094  4514 net.cpp:100] Creating Layer elu10
I1023 17:45:33.004097  4514 net.cpp:434] elu10 <- conv10
I1023 17:45:33.004101  4514 net.cpp:395] elu10 -> conv10 (in-place)
I1023 17:45:33.004107  4514 net.cpp:150] Setting up elu10
I1023 17:45:33.004111  4514 net.cpp:157] Top shape: 25 1024 7 7 (1254400)
I1023 17:45:33.004113  4514 net.cpp:165] Memory required for data: 3752403000
I1023 17:45:33.004115  4514 layer_factory.hpp:77] Creating layer conv11
I1023 17:45:33.004122  4514 net.cpp:100] Creating Layer conv11
I1023 17:45:33.004125  4514 net.cpp:434] conv11 <- conv10
I1023 17:45:33.004129  4514 net.cpp:408] conv11 -> conv11
I1023 17:45:33.009219  4514 net.cpp:150] Setting up conv11
I1023 17:45:33.009239  4514 net.cpp:157] Top shape: 25 1000 7 7 (1225000)
I1023 17:45:33.009243  4514 net.cpp:165] Memory required for data: 3757303000
I1023 17:45:33.009248  4514 layer_factory.hpp:77] Creating layer elu11
I1023 17:45:33.009253  4514 net.cpp:100] Creating Layer elu11
I1023 17:45:33.009254  4514 net.cpp:434] elu11 <- conv11
I1023 17:45:33.009258  4514 net.cpp:395] elu11 -> conv11 (in-place)
I1023 17:45:33.009263  4514 net.cpp:150] Setting up elu11
I1023 17:45:33.009265  4514 net.cpp:157] Top shape: 25 1000 7 7 (1225000)
I1023 17:45:33.009268  4514 net.cpp:165] Memory required for data: 3762203000
I1023 17:45:33.009269  4514 layer_factory.hpp:77] Creating layer pool
I1023 17:45:33.009274  4514 net.cpp:100] Creating Layer pool
I1023 17:45:33.009275  4514 net.cpp:434] pool <- conv11
I1023 17:45:33.009279  4514 net.cpp:408] pool -> pool
I1023 17:45:33.009500  4514 net.cpp:150] Setting up pool
I1023 17:45:33.009506  4514 net.cpp:157] Top shape: 25 1000 1 1 (25000)
I1023 17:45:33.009508  4514 net.cpp:165] Memory required for data: 3762303000
I1023 17:45:33.009510  4514 layer_factory.hpp:77] Creating layer pool_pool_0_split
I1023 17:45:33.009515  4514 net.cpp:100] Creating Layer pool_pool_0_split
I1023 17:45:33.009516  4514 net.cpp:434] pool_pool_0_split <- pool
I1023 17:45:33.009519  4514 net.cpp:408] pool_pool_0_split -> pool_pool_0_split_0
I1023 17:45:33.009523  4514 net.cpp:408] pool_pool_0_split -> pool_pool_0_split_1
I1023 17:45:33.009549  4514 net.cpp:150] Setting up pool_pool_0_split
I1023 17:45:33.009552  4514 net.cpp:157] Top shape: 25 1000 1 1 (25000)
I1023 17:45:33.009555  4514 net.cpp:157] Top shape: 25 1000 1 1 (25000)
I1023 17:45:33.009557  4514 net.cpp:165] Memory required for data: 3762503000
I1023 17:45:33.009558  4514 layer_factory.hpp:77] Creating layer accuracy
I1023 17:45:33.009562  4514 net.cpp:100] Creating Layer accuracy
I1023 17:45:33.009563  4514 net.cpp:434] accuracy <- pool_pool_0_split_0
I1023 17:45:33.009567  4514 net.cpp:434] accuracy <- label_data_1_split_0
I1023 17:45:33.009570  4514 net.cpp:408] accuracy -> accuracy
…
