…
  level: 0
  stage: ""
}
type: "SGD"
I1020 10:20:09.740427 12779 solver.cpp:81] Creating training net from train_net file: /home/adam/Honours/Honours-Project/cifar-100_pooling/max/leakyrelu/poolcnn_leakyrelu_train.prototxt
I1020 10:20:09.740738 12779 net.cpp:58] Initializing net from parameters: 
state {
  phase: TRAIN
  level: 0
  stage: ""
}
layer {
  name: "data"
  type: "HDF5Data"
  top: "data"
  top: "label_coarse"
  top: "label_fine"
  hdf5_data_param {
    source: "../../../../data/cifar-100/cifar_100_caffe_hdf5/train.txt"
    batch_size: 64
  }
}
layer {
  name: "conv1"
  type: "Convolution"
  bottom: "data"
  top: "conv1"
  convolution_param {
    num_output: 192
    kernel_size: 5
    weight_filler {
      type: "xavier"
    }
  }
}
layer {
  name: "relu1"
  type: "ReLU"
  bottom: "conv1"
  top: "relu1"
  relu_param {
    negative_slope: 0.1
  }
}
layer {
  name: "drop1"
  type: "Dropout"
  bottom: "relu1"
  top: "drop1"
  dropout_param {
    dropout_ratio: 0
  }
}
layer {
  name: "pool1"
  type: "Pooling"
  bottom: "drop1"
  top: "pool1"
  pooling_param {
    pool: MAX
    kernel_size: 2
    stride: 2
  }
}
layer {
  name: "conv2"
  type: "Convolution"
  bottom: "pool1"
  top: "conv2"
  convolution_param {
    num_output: 192
    kernel_size: 1
    weight_filler {
      type: "xavier"
    }
  }
}
layer {
  name: "relu2"
  type: "ReLU"
  bottom: "conv2"
  top: "relu2"
  relu_param {
    negative_slope: 0.1
  }
}
layer {
  name: "conv3"
  type: "Convolution"
  bottom: "relu2"
  top: "conv3"
  convolution_param {
    num_output: 240
    kernel_size: 3
    weight_filler {
      type: "xavier"
    }
  }
}
layer {
  name: "relu3"
  type: "ReLU"
  bottom: "conv3"
  top: "relu3"
  relu_param {
    negative_slope: 0.1
  }
}
layer {
  name: "drop2"
  type: "Dropout"
  bottom: "relu3"
  top: "drop2"
  dropout_param {
    dropout_ratio: 0.1
  }
}
layer {
  name: "pool2"
  type: "Pooling"
  bottom: "drop2"
  top: "pool2"
  pooling_param {
    pool: MAX
    kernel_size: 2
    stride: 2
  }
}
layer {
  name: "conv4"
  type: "Convolution"
  bottom: "pool2"
  top: "conv4"
  convolution_param {
    num_output: 240
    kernel_size: 1
    weight_filler {
      type: "xavier"
    }
  }
}
layer {
  name: "relu4"
  type: "ReLU"
  bottom: "conv4"
  top: "relu4"
  relu_param {
    negative_slope: 0.1
  }
}
layer {
  name: "conv5"
  type: "Convolution"
  bottom: "relu4"
  top: "conv5"
  convolution_param {
    num_output: 260
    kernel_size: 2
    weight_filler {
      type: "xavier"
    }
  }
}
layer {
  name: "relu5"
  type: "ReLU"
  bottom: "conv5"
  top: "relu5"
  relu_param {
    negative_slope: 0.1
  }
}
layer {
  name: "drop3"
  type: "Dropout"
  bottom: "relu5"
  top: "drop3"
  dropout_param {
    dropout_ratio: 0.2
  }
}
layer {
  name: "pool3"
  type: "Pooling"
  bottom: "drop3"
  top: "pool3"
  pooling_param {
    pool: MAX
    kernel_size: 2
    stride: 2
  }
}
layer {
  name: "conv6"
  type: "Convolution"
  bottom: "pool3"
  top: "conv6"
  convolution_param {
    num_output: 260
    kernel_size: 1
    weight_filler {
      type: "xavier"
    }
  }
}
layer {
  name: "relu6"
  type: "ReLU"
  bottom: "conv6"
  top: "relu6"
  relu_param {
    negative_slope: 0.1
  }
}
layer {
  name: "conv7"
  type: "Convolution"
  bottom: "relu6"
  top: "conv7"
  convolution_param {
    num_output: 280
    kernel_size: 2
    weight_filler {
      type: "xavier"
    }
  }
}
layer {
  name: "relu7"
  type: "ReLU"
  bottom: "conv7"
  top: "relu7"
  relu_param {
    negative_slope: 0.1
  }
}
layer {
  name: "drop4"
  type: "Dropout"
  bottom: "relu7"
  top: "drop4"
  dropout_param {
    dropout_ratio: 0.3
  }
}
layer {
  name: "pool4"
  type: "Pooling"
  bottom: "drop4"
  top: "pool4"
  pooling_param {
    pool: MAX
    kernel_size: 2
    stride: 2
  }
}
layer {
  name: "conv8"
  type: "Convolution"
  bottom: "pool4"
  top: "conv8"
  convolution_param {
    num_output: 280
    kernel_size: 1
    weight_filler {
      type: "xavier"
    }
  }
}
layer {
  name: "relu8"
  type: "ReLU"
  bottom: "conv8"
  top: "relu8"
  relu_param {
    negative_slope: 0.1
  }
}
layer {
  name: "drop5"
  type: "Dropout"
  bottom: "relu8"
  top: "drop5"
  dropout_param {
    dropout_ratio: 0.4
  }
}
layer {
  name: "pool5"
  type: "Pooling"
  bottom: "drop5"
  top: "pool5"
  pooling_param {
    pool: MAX
    kernel_size: 2
    stride: 2
  }
}
layer {
  name: "conv10"
  type: "Convolution"
  bottom: "pool5"
  top: "conv10"
  convolution_param {
    num_output: 300
    kernel_size: 1
    weight_filler {
      type: "xavier"
    }
  }
}
layer {
  name: "relu10"
  type: "ReLU"
  bottom: "conv10"
  top: "relu10"
  relu_param {
    negative_slope: 0.1
  }
}
layer {
  name: "drop6"
  type: "Dropout"
  bottom: "relu10"
  top: "drop6"
  dropout_param {
    dropout_ratio: 0.5
  }
}
layer {
  name: "pool6"
  type: "Pooling"
  bottom: "drop6"
  top: "pool6"
  pooling_param {
    pool: MAX
    kernel_size: 2
    stride: 2
  }
}
layer {
  name: "conv11"
  type: "Convolution"
  bottom: "pool6"
  top: "conv11"
  convolution_param {
    num_output: 100
    kernel_size: 1
    weight_filler {
      type: "xavier"
    }
  }
}
layer {
  name: "relu11"
  type: "ReLU"
  bottom: "conv11"
  top: "relu11"
  relu_param {
    negative_slope: 0.1
  }
}
layer {
  name: "drop7"
  type: "Dropout"
  bottom: "relu11"
  top: "drop7"
  dropout_param {
    dropout_ratio: 0
  }
}
layer {
  name: "pool7"
  type: "Pooling"
  bottom: "drop7"
  top: "pool7"
  pooling_param {
    pool: MAX
    kernel_size: 2
    stride: 2
  }
}
layer {
  name: "ip_c"
  type: "InnerProduct"
  bottom: "pool7"
  top: "ip_c"
  inner_product_param {
    num_output: 20
    weight_filler {
      type: "xavier"
    }
  }
}
layer {
  name: "accuracy_f"
  type: "Accuracy"
  bottom: "ip_c"
  bottom: "label_coarse"
  top: "accuracy_f"
}
layer {
  name: "loss_c"
  type: "SoftmaxWithLoss"
  bottom: "ip_c"
  bottom: "label_coarse"
  top: "loss_c"
}
layer {
  name: "ip_f"
  type: "InnerProduct"
  bottom: "pool7"
  top: "ip_f"
  inner_product_param {
    num_output: 100
    weight_filler {
      type: "xavier"
    }
  }
}
layer {
  name: "accuracy"
  type: "Accuracy"
  bottom: "ip_f"
  bottom: "label_fine"
  top: "accuracy"
}
layer {
  name: "loss_f"
  type: "SoftmaxWithLoss"
  bottom: "ip_f"
  bottom: "label_fine"
  top: "loss_f"
}
I1020 10:20:09.740883 12779 layer_factory.hpp:77] Creating layer data
I1020 10:20:09.740893 12779 net.cpp:100] Creating Layer data
I1020 10:20:09.740897 12779 net.cpp:408] data -> data
I1020 10:20:09.740911 12779 net.cpp:408] data -> label_coarse
I1020 10:20:09.740916 12779 net.cpp:408] data -> label_fine
I1020 10:20:09.740924 12779 hdf5_data_layer.cpp:79] Loading list of HDF5 filenames from: ../../../../data/cifar-100/cifar_100_caffe_hdf5/train.txt
I1020 10:20:09.740942 12779 hdf5_data_layer.cpp:93] Number of HDF5 files: 1
I1020 10:20:09.741556 12779 hdf5.cpp:35] Datatype class: H5T_INTEGER
I1020 10:20:11.317916 12779 net.cpp:150] Setting up data
I1020 10:20:11.317940 12779 net.cpp:157] Top shape: 64 3 32 32 (196608)
I1020 10:20:11.317944 12779 net.cpp:157] Top shape: 64 (64)
I1020 10:20:11.317945 12779 net.cpp:157] Top shape: 64 (64)
I1020 10:20:11.317947 12779 net.cpp:165] Memory required for data: 786944
I1020 10:20:11.317953 12779 layer_factory.hpp:77] Creating layer label_coarse_data_1_split
I1020 10:20:11.317962 12779 net.cpp:100] Creating Layer label_coarse_data_1_split
I1020 10:20:11.317967 12779 net.cpp:434] label_coarse_data_1_split <- label_coarse
I1020 10:20:11.317978 12779 net.cpp:408] label_coarse_data_1_split -> label_coarse_data_1_split_0
I1020 10:20:11.318004 12779 net.cpp:408] label_coarse_data_1_split -> label_coarse_data_1_split_1
I1020 10:20:11.318029 12779 net.cpp:150] Setting up label_coarse_data_1_split
I1020 10:20:11.318032 12779 net.cpp:157] Top shape: 64 (64)
I1020 10:20:11.318035 12779 net.cpp:157] Top shape: 64 (64)
I1020 10:20:11.318037 12779 net.cpp:165] Memory required for data: 787456
I1020 10:20:11.318039 12779 layer_factory.hpp:77] Creating layer label_fine_data_2_split
I1020 10:20:11.318042 12779 net.cpp:100] Creating Layer label_fine_data_2_split
I1020 10:20:11.318044 12779 net.cpp:434] label_fine_data_2_split <- label_fine
I1020 10:20:11.318048 12779 net.cpp:408] label_fine_data_2_split -> label_fine_data_2_split_0
I1020 10:20:11.318053 12779 net.cpp:408] label_fine_data_2_split -> label_fine_data_2_split_1
I1020 10:20:11.318073 12779 net.cpp:150] Setting up label_fine_data_2_split
I1020 10:20:11.318075 12779 net.cpp:157] Top shape: 64 (64)
I1020 10:20:11.318078 12779 net.cpp:157] Top shape: 64 (64)
I1020 10:20:11.318079 12779 net.cpp:165] Memory required for data: 787968
I1020 10:20:11.318081 12779 layer_factory.hpp:77] Creating layer conv1
I1020 10:20:11.318091 12779 net.cpp:100] Creating Layer conv1
I1020 10:20:11.318094 12779 net.cpp:434] conv1 <- data
I1020 10:20:11.318096 12779 net.cpp:408] conv1 -> conv1
I1020 10:20:11.435657 12779 net.cpp:150] Setting up conv1
I1020 10:20:11.435681 12779 net.cpp:157] Top shape: 64 192 28 28 (9633792)
I1020 10:20:11.435683 12779 net.cpp:165] Memory required for data: 39323136
I1020 10:20:11.435701 12779 layer_factory.hpp:77] Creating layer relu1
I1020 10:20:11.435711 12779 net.cpp:100] Creating Layer relu1
I1020 10:20:11.435714 12779 net.cpp:434] relu1 <- conv1
I1020 10:20:11.435719 12779 net.cpp:408] relu1 -> relu1
I1020 10:20:11.435849 12779 net.cpp:150] Setting up relu1
I1020 10:20:11.435855 12779 net.cpp:157] Top shape: 64 192 28 28 (9633792)
I1020 10:20:11.435858 12779 net.cpp:165] Memory required for data: 77858304
I1020 10:20:11.435859 12779 layer_factory.hpp:77] Creating layer drop1
I1020 10:20:11.435864 12779 net.cpp:100] Creating Layer drop1
I1020 10:20:11.435866 12779 net.cpp:434] drop1 <- relu1
I1020 10:20:11.435868 12779 net.cpp:408] drop1 -> drop1
I1020 10:20:11.435894 12779 net.cpp:150] Setting up drop1
I1020 10:20:11.435899 12779 net.cpp:157] Top shape: 64 192 28 28 (9633792)
I1020 10:20:11.435900 12779 net.cpp:165] Memory required for data: 116393472
I1020 10:20:11.435902 12779 layer_factory.hpp:77] Creating layer pool1
I1020 10:20:11.435906 12779 net.cpp:100] Creating Layer pool1
I1020 10:20:11.435907 12779 net.cpp:434] pool1 <- drop1
I1020 10:20:11.435910 12779 net.cpp:408] pool1 -> pool1
I1020 10:20:11.435937 12779 net.cpp:150] Setting up pool1
I1020 10:20:11.435940 12779 net.cpp:157] Top shape: 64 192 14 14 (2408448)
I1020 10:20:11.435942 12779 net.cpp:165] Memory required for data: 126027264
I1020 10:20:11.435945 12779 layer_factory.hpp:77] Creating layer conv2
I1020 10:20:11.435950 12779 net.cpp:100] Creating Layer conv2
I1020 10:20:11.435951 12779 net.cpp:434] conv2 <- pool1
I1020 10:20:11.435956 12779 net.cpp:408] conv2 -> conv2
I1020 10:20:11.436753 12779 net.cpp:150] Setting up conv2
I1020 10:20:11.436761 12779 net.cpp:157] Top shape: 64 192 14 14 (2408448)
I1020 10:20:11.436764 12779 net.cpp:165] Memory required for data: 135661056
I1020 10:20:11.436769 12779 layer_factory.hpp:77] Creating layer relu2
I1020 10:20:11.436774 12779 net.cpp:100] Creating Layer relu2
I1020 10:20:11.436775 12779 net.cpp:434] relu2 <- conv2
I1020 10:20:11.436779 12779 net.cpp:408] relu2 -> relu2
I1020 10:20:11.436890 12779 net.cpp:150] Setting up relu2
I1020 10:20:11.436897 12779 net.cpp:157] Top shape: 64 192 14 14 (2408448)
I1020 10:20:11.436898 12779 net.cpp:165] Memory required for data: 145294848
I1020 10:20:11.436900 12779 layer_factory.hpp:77] Creating layer conv3
I1020 10:20:11.436904 12779 net.cpp:100] Creating Layer conv3
I1020 10:20:11.436906 12779 net.cpp:434] conv3 <- relu2
I1020 10:20:11.436909 12779 net.cpp:408] conv3 -> conv3
I1020 10:20:11.439290 12779 net.cpp:150] Setting up conv3
I1020 10:20:11.439306 12779 net.cpp:157] Top shape: 64 240 12 12 (2211840)
I1020 10:20:11.439309 12779 net.cpp:165] Memory required for data: 154142208
I1020 10:20:11.439316 12779 layer_factory.hpp:77] Creating layer relu3
I1020 10:20:11.439318 12779 net.cpp:100] Creating Layer relu3
I1020 10:20:11.439321 12779 net.cpp:434] relu3 <- conv3
I1020 10:20:11.439323 12779 net.cpp:408] relu3 -> relu3
I1020 10:20:11.439505 12779 net.cpp:150] Setting up relu3
I1020 10:20:11.439512 12779 net.cpp:157] Top shape: 64 240 12 12 (2211840)
I1020 10:20:11.439514 12779 net.cpp:165] Memory required for data: 162989568
I1020 10:20:11.439517 12779 layer_factory.hpp:77] Creating layer drop2
I1020 10:20:11.439520 12779 net.cpp:100] Creating Layer drop2
I1020 10:20:11.439522 12779 net.cpp:434] drop2 <- relu3
I1020 10:20:11.439524 12779 net.cpp:408] drop2 -> drop2
I1020 10:20:11.439544 12779 net.cpp:150] Setting up drop2
I1020 10:20:11.439548 12779 net.cpp:157] Top shape: 64 240 12 12 (2211840)
I1020 10:20:11.439549 12779 net.cpp:165] Memory required for data: 171836928
I1020 10:20:11.439551 12779 layer_factory.hpp:77] Creating layer pool2
I1020 10:20:11.439555 12779 net.cpp:100] Creating Layer pool2
I1020 10:20:11.439558 12779 net.cpp:434] pool2 <- drop2
I1020 10:20:11.439561 12779 net.cpp:408] pool2 -> pool2
I1020 10:20:11.439582 12779 net.cpp:150] Setting up pool2
I1020 10:20:11.439586 12779 net.cpp:157] Top shape: 64 240 6 6 (552960)
I1020 10:20:11.439589 12779 net.cpp:165] Memory required for data: 174048768
I1020 10:20:11.439590 12779 layer_factory.hpp:77] Creating layer conv4
I1020 10:20:11.439594 12779 net.cpp:100] Creating Layer conv4
I1020 10:20:11.439596 12779 net.cpp:434] conv4 <- pool2
I1020 10:20:11.439599 12779 net.cpp:408] conv4 -> conv4
I1020 10:20:11.440392 12779 net.cpp:150] Setting up conv4
I1020 10:20:11.440400 12779 net.cpp:157] Top shape: 64 240 6 6 (552960)
I1020 10:20:11.440402 12779 net.cpp:165] Memory required for data: 176260608
I1020 10:20:11.440407 12779 layer_factory.hpp:77] Creating layer relu4
I1020 10:20:11.440409 12779 net.cpp:100] Creating Layer relu4
I1020 10:20:11.440412 12779 net.cpp:434] relu4 <- conv4
I1020 10:20:11.440414 12779 net.cpp:408] relu4 -> relu4
I1020 10:20:11.440516 12779 net.cpp:150] Setting up relu4
I1020 10:20:11.440521 12779 net.cpp:157] Top shape: 64 240 6 6 (552960)
I1020 10:20:11.440523 12779 net.cpp:165] Memory required for data: 178472448
I1020 10:20:11.440526 12779 layer_factory.hpp:77] Creating layer conv5
I1020 10:20:11.440529 12779 net.cpp:100] Creating Layer conv5
I1020 10:20:11.440531 12779 net.cpp:434] conv5 <- relu4
I1020 10:20:11.440534 12779 net.cpp:408] conv5 -> conv5
I1020 10:20:11.442232 12779 net.cpp:150] Setting up conv5
I1020 10:20:11.442240 12779 net.cpp:157] Top shape: 64 260 5 5 (416000)
I1020 10:20:11.442242 12779 net.cpp:165] Memory required for data: 180136448
I1020 10:20:11.442248 12779 layer_factory.hpp:77] Creating layer relu5
I1020 10:20:11.442253 12779 net.cpp:100] Creating Layer relu5
I1020 10:20:11.442255 12779 net.cpp:434] relu5 <- conv5
I1020 10:20:11.442258 12779 net.cpp:408] relu5 -> relu5
I1020 10:20:11.442360 12779 net.cpp:150] Setting up relu5
I1020 10:20:11.442365 12779 net.cpp:157] Top shape: 64 260 5 5 (416000)
I1020 10:20:11.442368 12779 net.cpp:165] Memory required for data: 181800448
I1020 10:20:11.442369 12779 layer_factory.hpp:77] Creating layer drop3
I1020 10:20:11.442373 12779 net.cpp:100] Creating Layer drop3
I1020 10:20:11.442374 12779 net.cpp:434] drop3 <- relu5
I1020 10:20:11.442378 12779 net.cpp:408] drop3 -> drop3
I1020 10:20:11.442397 12779 net.cpp:150] Setting up drop3
I1020 10:20:11.442400 12779 net.cpp:157] Top shape: 64 260 5 5 (416000)
I1020 10:20:11.442402 12779 net.cpp:165] Memory required for data: 183464448
I1020 10:20:11.442404 12779 layer_factory.hpp:77] Creating layer pool3
I1020 10:20:11.442407 12779 net.cpp:100] Creating Layer pool3
I1020 10:20:11.442409 12779 net.cpp:434] pool3 <- drop3
I1020 10:20:11.442412 12779 net.cpp:408] pool3 -> pool3
I1020 10:20:11.442433 12779 net.cpp:150] Setting up pool3
I1020 10:20:11.442445 12779 net.cpp:157] Top shape: 64 260 3 3 (149760)
I1020 10:20:11.442446 12779 net.cpp:165] Memory required for data: 184063488
I1020 10:20:11.442448 12779 layer_factory.hpp:77] Creating layer conv6
I1020 10:20:11.442452 12779 net.cpp:100] Creating Layer conv6
I1020 10:20:11.442454 12779 net.cpp:434] conv6 <- pool3
I1020 10:20:11.442457 12779 net.cpp:408] conv6 -> conv6
I1020 10:20:11.443509 12779 net.cpp:150] Setting up conv6
I1020 10:20:11.443517 12779 net.cpp:157] Top shape: 64 260 3 3 (149760)
I1020 10:20:11.443519 12779 net.cpp:165] Memory required for data: 184662528
I1020 10:20:11.443523 12779 layer_factory.hpp:77] Creating layer relu6
I1020 10:20:11.443526 12779 net.cpp:100] Creating Layer relu6
I1020 10:20:11.443529 12779 net.cpp:434] relu6 <- conv6
I1020 10:20:11.443531 12779 net.cpp:408] relu6 -> relu6
I1020 10:20:11.443709 12779 net.cpp:150] Setting up relu6
I1020 10:20:11.443716 12779 net.cpp:157] Top shape: 64 260 3 3 (149760)
I1020 10:20:11.443718 12779 net.cpp:165] Memory required for data: 185261568
I1020 10:20:11.443720 12779 layer_factory.hpp:77] Creating layer conv7
I1020 10:20:11.443724 12779 net.cpp:100] Creating Layer conv7
I1020 10:20:11.443727 12779 net.cpp:434] conv7 <- relu6
I1020 10:20:11.443729 12779 net.cpp:408] conv7 -> conv7
I1020 10:20:11.445601 12779 net.cpp:150] Setting up conv7
I1020 10:20:11.445611 12779 net.cpp:157] Top shape: 64 280 2 2 (71680)
I1020 10:20:11.445612 12779 net.cpp:165] Memory required for data: 185548288
I1020 10:20:11.445616 12779 layer_factory.hpp:77] Creating layer relu7
I1020 10:20:11.445621 12779 net.cpp:100] Creating Layer relu7
I1020 10:20:11.445622 12779 net.cpp:434] relu7 <- conv7
I1020 10:20:11.445626 12779 net.cpp:408] relu7 -> relu7
I1020 10:20:11.445727 12779 net.cpp:150] Setting up relu7
I1020 10:20:11.445732 12779 net.cpp:157] Top shape: 64 280 2 2 (71680)
I1020 10:20:11.445734 12779 net.cpp:165] Memory required for data: 185835008
I1020 10:20:11.445736 12779 layer_factory.hpp:77] Creating layer drop4
I1020 10:20:11.445740 12779 net.cpp:100] Creating Layer drop4
I1020 10:20:11.445742 12779 net.cpp:434] drop4 <- relu7
I1020 10:20:11.445744 12779 net.cpp:408] drop4 -> drop4
I1020 10:20:11.445765 12779 net.cpp:150] Setting up drop4
I1020 10:20:11.445768 12779 net.cpp:157] Top shape: 64 280 2 2 (71680)
I1020 10:20:11.445770 12779 net.cpp:165] Memory required for data: 186121728
I1020 10:20:11.445772 12779 layer_factory.hpp:77] Creating layer pool4
I1020 10:20:11.445775 12779 net.cpp:100] Creating Layer pool4
I1020 10:20:11.445778 12779 net.cpp:434] pool4 <- drop4
I1020 10:20:11.445780 12779 net.cpp:408] pool4 -> pool4
I1020 10:20:11.445801 12779 net.cpp:150] Setting up pool4
I1020 10:20:11.445804 12779 net.cpp:157] Top shape: 64 280 1 1 (17920)
I1020 10:20:11.445806 12779 net.cpp:165] Memory required for data: 186193408
I1020 10:20:11.445808 12779 layer_factory.hpp:77] Creating layer conv8
I1020 10:20:11.445811 12779 net.cpp:100] Creating Layer conv8
I1020 10:20:11.445813 12779 net.cpp:434] conv8 <- pool4
I1020 10:20:11.445817 12779 net.cpp:408] conv8 -> conv8
I1020 10:20:11.446743 12779 net.cpp:150] Setting up conv8
I1020 10:20:11.446751 12779 net.cpp:157] Top shape: 64 280 1 1 (17920)
I1020 10:20:11.446753 12779 net.cpp:165] Memory required for data: 186265088
I1020 10:20:11.446758 12779 layer_factory.hpp:77] Creating layer relu8
I1020 10:20:11.446760 12779 net.cpp:100] Creating Layer relu8
I1020 10:20:11.446763 12779 net.cpp:434] relu8 <- conv8
I1020 10:20:11.446765 12779 net.cpp:408] relu8 -> relu8
I1020 10:20:11.446873 12779 net.cpp:150] Setting up relu8
I1020 10:20:11.446878 12779 net.cpp:157] Top shape: 64 280 1 1 (17920)
I1020 10:20:11.446879 12779 net.cpp:165] Memory required for data: 186336768
I1020 10:20:11.446882 12779 layer_factory.hpp:77] Creating layer drop5
I1020 10:20:11.446885 12779 net.cpp:100] Creating Layer drop5
I1020 10:20:11.446887 12779 net.cpp:434] drop5 <- relu8
I1020 10:20:11.446889 12779 net.cpp:408] drop5 -> drop5
I1020 10:20:11.446910 12779 net.cpp:150] Setting up drop5
I1020 10:20:11.446924 12779 net.cpp:157] Top shape: 64 280 1 1 (17920)
I1020 10:20:11.446926 12779 net.cpp:165] Memory required for data: 186408448
I1020 10:20:11.446928 12779 layer_factory.hpp:77] Creating layer pool5
I1020 10:20:11.446931 12779 net.cpp:100] Creating Layer pool5
I1020 10:20:11.446933 12779 net.cpp:434] pool5 <- drop5
I1020 10:20:11.446936 12779 net.cpp:408] pool5 -> pool5
I1020 10:20:11.446961 12779 net.cpp:150] Setting up pool5
I1020 10:20:11.446965 12779 net.cpp:157] Top shape: 64 280 1 1 (17920)
I1020 10:20:11.446967 12779 net.cpp:165] Memory required for data: 186480128
I1020 10:20:11.446969 12779 layer_factory.hpp:77] Creating layer conv10
I1020 10:20:11.446974 12779 net.cpp:100] Creating Layer conv10
I1020 10:20:11.446976 12779 net.cpp:434] conv10 <- pool5
I1020 10:20:11.446980 12779 net.cpp:408] conv10 -> conv10
I1020 10:20:11.447916 12779 net.cpp:150] Setting up conv10
I1020 10:20:11.447923 12779 net.cpp:157] Top shape: 64 300 1 1 (19200)
I1020 10:20:11.447926 12779 net.cpp:165] Memory required for data: 186556928
I1020 10:20:11.447937 12779 layer_factory.hpp:77] Creating layer relu10
I1020 10:20:11.447942 12779 net.cpp:100] Creating Layer relu10
I1020 10:20:11.447943 12779 net.cpp:434] relu10 <- conv10
I1020 10:20:11.447947 12779 net.cpp:408] relu10 -> relu10
I1020 10:20:11.448133 12779 net.cpp:150] Setting up relu10
I1020 10:20:11.448139 12779 net.cpp:157] Top shape: 64 300 1 1 (19200)
I1020 10:20:11.448143 12779 net.cpp:165] Memory required for data: 186633728
I1020 10:20:11.448144 12779 layer_factory.hpp:77] Creating layer drop6
I1020 10:20:11.448149 12779 net.cpp:100] Creating Layer drop6
I1020 10:20:11.448153 12779 net.cpp:434] drop6 <- relu10
I1020 10:20:11.448158 12779 net.cpp:408] drop6 -> drop6
I1020 10:20:11.448182 12779 net.cpp:150] Setting up drop6
I1020 10:20:11.448187 12779 net.cpp:157] Top shape: 64 300 1 1 (19200)
I1020 10:20:11.448189 12779 net.cpp:165] Memory required for data: 186710528
I1020 10:20:11.448191 12779 layer_factory.hpp:77] Creating layer pool6
I1020 10:20:11.448199 12779 net.cpp:100] Creating Layer pool6
I1020 10:20:11.448204 12779 net.cpp:434] pool6 <- drop6
I1020 10:20:11.448207 12779 net.cpp:408] pool6 -> pool6
I1020 10:20:11.448230 12779 net.cpp:150] Setting up pool6
I1020 10:20:11.448233 12779 net.cpp:157] Top shape: 64 300 1 1 (19200)
I1020 10:20:11.448235 12779 net.cpp:165] Memory required for data: 186787328
I1020 10:20:11.448237 12779 layer_factory.hpp:77] Creating layer conv11
I1020 10:20:11.448241 12779 net.cpp:100] Creating Layer conv11
I1020 10:20:11.448245 12779 net.cpp:434] conv11 <- pool6
I1020 10:20:11.448247 12779 net.cpp:408] conv11 -> conv11
I1020 10:20:11.449578 12779 net.cpp:150] Setting up conv11
I1020 10:20:11.449587 12779 net.cpp:157] Top shape: 64 100 1 1 (6400)
I1020 10:20:11.449589 12779 net.cpp:165] Memory required for data: 186812928
I1020 10:20:11.449594 12779 layer_factory.hpp:77] Creating layer relu11
I1020 10:20:11.449599 12779 net.cpp:100] Creating Layer relu11
I1020 10:20:11.449600 12779 net.cpp:434] relu11 <- conv11
I1020 10:20:11.449604 12779 net.cpp:408] relu11 -> relu11
I1020 10:20:11.449708 12779 net.cpp:150] Setting up relu11
I1020 10:20:11.449713 12779 net.cpp:157] Top shape: 64 100 1 1 (6400)
I1020 10:20:11.449717 12779 net.cpp:165] Memory required for data: 186838528
I1020 10:20:11.449718 12779 layer_factory.hpp:77] Creating layer drop7
I1020 10:20:11.449722 12779 net.cpp:100] Creating Layer drop7
I1020 10:20:11.449724 12779 net.cpp:434] drop7 <- relu11
I1020 10:20:11.449728 12779 net.cpp:408] drop7 -> drop7
I1020 10:20:11.449748 12779 net.cpp:150] Setting up drop7
I1020 10:20:11.449753 12779 net.cpp:157] Top shape: 64 100 1 1 (6400)
I1020 10:20:11.449754 12779 net.cpp:165] Memory required for data: 186864128
I1020 10:20:11.449756 12779 layer_factory.hpp:77] Creating layer pool7
I1020 10:20:11.449759 12779 net.cpp:100] Creating Layer pool7
I1020 10:20:11.449761 12779 net.cpp:434] pool7 <- drop7
I1020 10:20:11.449764 12779 net.cpp:408] pool7 -> pool7
I1020 10:20:11.449784 12779 net.cpp:150] Setting up pool7
I1020 10:20:11.449789 12779 net.cpp:157] Top shape: 64 100 1 1 (6400)
I1020 10:20:11.449800 12779 net.cpp:165] Memory required for data: 186889728
I1020 10:20:11.449802 12779 layer_factory.hpp:77] Creating layer pool7_pool7_0_split
I1020 10:20:11.449806 12779 net.cpp:100] Creating Layer pool7_pool7_0_split
I1020 10:20:11.449808 12779 net.cpp:434] pool7_pool7_0_split <- pool7
I1020 10:20:11.449811 12779 net.cpp:408] pool7_pool7_0_split -> pool7_pool7_0_split_0
I1020 10:20:11.449815 12779 net.cpp:408] pool7_pool7_0_split -> pool7_pool7_0_split_1
I1020 10:20:11.449837 12779 net.cpp:150] Setting up pool7_pool7_0_split
I1020 10:20:11.449841 12779 net.cpp:157] Top shape: 64 100 1 1 (6400)
I1020 10:20:11.449843 12779 net.cpp:157] Top shape: 64 100 1 1 (6400)
I1020 10:20:11.449844 12779 net.cpp:165] Memory required for data: 186940928
I1020 10:20:11.449847 12779 layer_factory.hpp:77] Creating layer ip_c
I1020 10:20:11.449851 12779 net.cpp:100] Creating Layer ip_c
I1020 10:20:11.449853 12779 net.cpp:434] ip_c <- pool7_pool7_0_split_0
I1020 10:20:11.449856 12779 net.cpp:408] ip_c -> ip_c
I1020 10:20:11.450194 12779 net.cpp:150] Setting up ip_c
I1020 10:20:11.450201 12779 net.cpp:157] Top shape: 64 20 (1280)
I1020 10:20:11.450203 12779 net.cpp:165] Memory required for data: 186946048
I1020 10:20:11.450207 12779 layer_factory.hpp:77] Creating layer ip_c_ip_c_0_split
I1020 10:20:11.450212 12779 net.cpp:100] Creating Layer ip_c_ip_c_0_split
I1020 10:20:11.450214 12779 net.cpp:434] ip_c_ip_c_0_split <- ip_c
I1020 10:20:11.450217 12779 net.cpp:408] ip_c_ip_c_0_split -> ip_c_ip_c_0_split_0
I1020 10:20:11.450222 12779 net.cpp:408] ip_c_ip_c_0_split -> ip_c_ip_c_0_split_1
I1020 10:20:11.450243 12779 net.cpp:150] Setting up ip_c_ip_c_0_split
I1020 10:20:11.450248 12779 net.cpp:157] Top shape: 64 20 (1280)
I1020 10:20:11.450249 12779 net.cpp:157] Top shape: 64 20 (1280)
I1020 10:20:11.450251 12779 net.cpp:165] Memory required for data: 186956288
I1020 10:20:11.450255 12779 layer_factory.hpp:77] Creating layer accuracy_f
I1020 10:20:11.450259 12779 net.cpp:100] Creating Layer accuracy_f
I1020 10:20:11.450263 12779 net.cpp:434] accuracy_f <- ip_c_ip_c_0_split_0
I1020 10:20:11.450265 12779 net.cpp:434] accuracy_f <- label_coarse_data_1_split_0
I1020 10:20:11.450270 12779 net.cpp:408] accuracy_f -> accuracy_f
…
I1020 10:20:11.451107 12779 net.cpp:283] Network initialization done.
I1020 10:20:11.451308 12779 solver.cpp:181] Creating test net (#0) specified by test_net file: /home/adam/Honours/Honours-Project/cifar-100_pooling/max/leakyrelu/poolcnn_leakyrelu_test.prototxt
I1020 10:20:11.451432 12779 net.cpp:58] Initializing net from parameters: 
state {
  phase: TEST
}
layer {
  name: "data"
  type: "HDF5Data"
  top: "data"
  top: "label_coarse"
  top: "label_fine"
  hdf5_data_param {
    source: "../../../../data/cifar-100/cifar_100_caffe_hdf5/test.txt"
    batch_size: 100
  }
}
layer {
  name: "conv1"
  type: "Convolution"
  bottom: "data"
  top: "conv1"
  convolution_param {
    num_output: 192
    kernel_size: 5
    weight_filler {
      type: "xavier"
    }
  }
}
layer {
  name: "relu1"
  type: "ReLU"
  bottom: "conv1"
  top: "relu1"
  relu_param {
    negative_slope: 0.1
  }
}
layer {
  name: "drop1"
  type: "Dropout"
  bottom: "relu1"
  top: "drop1"
  dropout_param {
    dropout_ratio: 0
  }
}
layer {
  name: "pool1"
  type: "Pooling"
  bottom: "drop1"
  top: "pool1"
  pooling_param {
    pool: MAX
    kernel_size: 2
    stride: 2
  }
}
layer {
  name: "conv2"
  type: "Convolution"
  bottom: "pool1"
  top: "conv2"
  convolution_param {
    num_output: 192
    kernel_size: 1
    weight_filler {
      type: "xavier"
    }
  }
}
layer {
  name: "relu2"
  type: "ReLU"
  bottom: "conv2"
  top: "relu2"
  relu_param {
    negative_slope: 0.1
  }
}
layer {
  name: "conv3"
  type: "Convolution"
  bottom: "relu2"
  top: "conv3"
  convolution_param {
    num_output: 240
    kernel_size: 3
    weight_filler {
      type: "xavier"
    }
  }
}
layer {
  name: "relu3"
  type: "ReLU"
  bottom: "conv3"
  top: "relu3"
  relu_param {
    negative_slope: 0.1
  }
}
layer {
  name: "drop2"
  type: "Dropout"
  bottom: "relu3"
  top: "drop2"
  dropout_param {
    dropout_ratio: 0.1
  }
}
layer {
  name: "pool2"
  type: "Pooling"
  bottom: "drop2"
  top: "pool2"
  pooling_param {
    pool: MAX
    kernel_size: 2
    stride: 2
  }
}
layer {
  name: "conv4"
  type: "Convolution"
  bottom: "pool2"
  top: "conv4"
  convolution_param {
    num_output: 240
    kernel_size: 1
    weight_filler {
      type: "xavier"
    }
  }
}
layer {
  name: "relu4"
  type: "ReLU"
  bottom: "conv4"
  top: "relu4"
  relu_param {
    negative_slope: 0.1
  }
}
layer {
  name: "conv5"
  type: "Convolution"
  bottom: "relu4"
  top: "conv5"
  convolution_param {
    num_output: 260
    kernel_size: 2
    weight_filler {
      type: "xavier"
    }
  }
}
layer {
  name: "relu5"
  type: "ReLU"
  bottom: "conv5"
  top: "relu5"
  relu_param {
    negative_slope: 0.1
  }
}
layer {
  name: "drop3"
  type: "Dropout"
  bottom: "relu5"
  top: "drop3"
  dropout_param {
    dropout_ratio: 0.2
  }
}
layer {
  name: "pool3"
  type: "Pooling"
  bottom: "drop3"
  top: "pool3"
  pooling_param {
    pool: MAX
    kernel_size: 2
    stride: 2
  }
}
layer {
  name: "conv6"
  type: "Convolution"
  bottom: "pool3"
  top: "conv6"
  convolution_param {
    num_output: 260
    kernel_size: 1
    weight_filler {
      type: "xavier"
    }
  }
}
layer {
  name: "relu6"
  type: "ReLU"
  bottom: "conv6"
  top: "relu6"
  relu_param {
    negative_slope: 0.1
  }
}
layer {
  name: "conv7"
  type: "Convolution"
  bottom: "relu6"
  top: "conv7"
  convolution_param {
    num_output: 280
    kernel_size: 2
    weight_filler {
      type: "xavier"
    }
  }
}
layer {
  name: "relu7"
  type: "ReLU"
  bottom: "conv7"
  top: "relu7"
  relu_param {
    negative_slope: 0.1
  }
}
layer {
  name: "drop4"
  type: "Dropout"
  bottom: "relu7"
  top: "drop4"
  dropout_param {
    dropout_ratio: 0.3
  }
}
layer {
  name: "pool4"
  type: "Pooling"
  bottom: "drop4"
  top: "pool4"
  pooling_param {
    pool: MAX
    kernel_size: 2
    stride: 2
  }
}
layer {
  name: "conv8"
  type: "Convolution"
  bottom: "pool4"
  top: "conv8"
  convolution_param {
    num_output: 280
    kernel_size: 1
    weight_filler {
      type: "xavier"
    }
  }
}
layer {
  name: "relu8"
  type: "ReLU"
  bottom: "conv8"
  top: "relu8"
  relu_param {
    negative_slope: 0.1
  }
}
layer {
  name: "drop5"
  type: "Dropout"
  bottom: "relu8"
  top: "drop5"
  dropout_param {
    dropout_ratio: 0.4
  }
}
layer {
  name: "pool5"
  type: "Pooling"
  bottom: "drop5"
  top: "pool5"
  pooling_param {
    pool: MAX
    kernel_size: 2
    stride: 2
  }
}
layer {
  name: "conv10"
  type: "Convolution"
  bottom: "pool5"
  top: "conv10"
  convolution_param {
    num_output: 300
    kernel_size: 1
    weight_filler {
      type: "xavier"
    }
  }
}
layer {
  name: "relu10"
  type: "ReLU"
  bottom: "conv10"
  top: "relu10"
  relu_param {
    negative_slope: 0.1
  }
}
layer {
  name: "drop6"
  type: "Dropout"
  bottom: "relu10"
  top: "drop6"
  dropout_param {
    dropout_ratio: 0.5
  }
}
layer {
  name: "pool6"
  type: "Pooling"
  bottom: "drop6"
  top: "pool6"
  pooling_param {
    pool: MAX
    kernel_size: 2
    stride: 2
  }
}
layer {
  name: "conv11"
  type: "Convolution"
  bottom: "pool6"
  top: "conv11"
  convolution_param {
    num_output: 100
    kernel_size: 1
    weight_filler {
      type: "xavier"
    }
  }
}
layer {
  name: "relu11"
  type: "ReLU"
  bottom: "conv11"
  top: "relu11"
  relu_param {
    negative_slope: 0.1
  }
}
layer {
  name: "drop7"
  type: "Dropout"
  bottom: "relu11"
  top: "drop7"
  dropout_param {
    dropout_ratio: 0
  }
}
layer {
  name: "pool7"
  type: "Pooling"
  bottom: "drop7"
  top: "pool7"
  pooling_param {
    pool: MAX
    kernel_size: 2
    stride: 2
  }
}
layer {
  name: "ip_c"
  type: "InnerProduct"
  bottom: "pool7"
  top: "ip_c"
  inner_product_param {
    num_output: 20
    weight_filler {
      type: "xavier"
    }
  }
}
layer {
  name: "accuracy_f"
  type: "Accuracy"
  bottom: "ip_c"
  bottom: "label_coarse"
  top: "accuracy_f"
}
layer {
  name: "loss_c"
  type: "SoftmaxWithLoss"
  bottom: "ip_c"
  bottom: "label_coarse"
  top: "loss_c"
}
layer {
  name: "ip_f"
  type: "InnerProduct"
  bottom: "pool7"
  top: "ip_f"
  inner_product_param {
    num_output: 100
    weight_filler {
      type: "xavier"
    }
  }
}
layer {
  name: "accuracy"
  type: "Accuracy"
  bottom: "ip_f"
  bottom: "label_fine"
  top: "accuracy"
}
layer {
  name: "loss_f"
  type: "SoftmaxWithLoss"
  bottom: "ip_f"
  bottom: "label_fine"
  top: "loss_f"
}
I1020 10:20:11.451545 12779 layer_factory.hpp:77] Creating layer data
I1020 10:20:11.451551 12779 net.cpp:100] Creating Layer data
I1020 10:20:11.451556 12779 net.cpp:408] data -> data
I1020 10:20:11.451565 12779 net.cpp:408] data -> label_coarse
I1020 10:20:11.451570 12779 net.cpp:408] data -> label_fine
I1020 10:20:11.451576 12779 hdf5_data_layer.cpp:79] Loading list of HDF5 filenames from: ../../../../data/cifar-100/cifar_100_caffe_hdf5/test.txt
I1020 10:20:11.451591 12779 hdf5_data_layer.cpp:93] Number of HDF5 files: 1
I1020 10:20:11.704594 12779 net.cpp:150] Setting up data
I1020 10:20:11.704619 12779 net.cpp:157] Top shape: 100 3 32 32 (307200)
I1020 10:20:11.704644 12779 net.cpp:157] Top shape: 100 (100)
I1020 10:20:11.704649 12779 net.cpp:157] Top shape: 100 (100)
I1020 10:20:11.704653 12779 net.cpp:165] Memory required for data: 1229600
I1020 10:20:11.704661 12779 layer_factory.hpp:77] Creating layer label_coarse_data_1_split
I1020 10:20:11.704674 12779 net.cpp:100] Creating Layer label_coarse_data_1_split
I1020 10:20:11.704676 12779 net.cpp:434] label_coarse_data_1_split <- label_coarse
I1020 10:20:11.704682 12779 net.cpp:408] label_coarse_data_1_split -> label_coarse_data_1_split_0
I1020 10:20:11.704692 12779 net.cpp:408] label_coarse_data_1_split -> label_coarse_data_1_split_1
I1020 10:20:11.704720 12779 net.cpp:150] Setting up label_coarse_data_1_split
I1020 10:20:11.704723 12779 net.cpp:157] Top shape: 100 (100)
I1020 10:20:11.704727 12779 net.cpp:157] Top shape: 100 (100)
I1020 10:20:11.704731 12779 net.cpp:165] Memory required for data: 1230400
I1020 10:20:11.704733 12779 layer_factory.hpp:77] Creating layer label_fine_data_2_split
I1020 10:20:11.704738 12779 net.cpp:100] Creating Layer label_fine_data_2_split
I1020 10:20:11.704741 12779 net.cpp:434] label_fine_data_2_split <- label_fine
I1020 10:20:11.704746 12779 net.cpp:408] label_fine_data_2_split -> label_fine_data_2_split_0
I1020 10:20:11.704751 12779 net.cpp:408] label_fine_data_2_split -> label_fine_data_2_split_1
I1020 10:20:11.704776 12779 net.cpp:150] Setting up label_fine_data_2_split
I1020 10:20:11.704779 12779 net.cpp:157] Top shape: 100 (100)
I1020 10:20:11.704782 12779 net.cpp:157] Top shape: 100 (100)
I1020 10:20:11.704785 12779 net.cpp:165] Memory required for data: 1231200
I1020 10:20:11.704787 12779 layer_factory.hpp:77] Creating layer conv1
I1020 10:20:11.704797 12779 net.cpp:100] Creating Layer conv1
I1020 10:20:11.704799 12779 net.cpp:434] conv1 <- data
I1020 10:20:11.704803 12779 net.cpp:408] conv1 -> conv1
I1020 10:20:11.705622 12779 net.cpp:150] Setting up conv1
I1020 10:20:11.705631 12779 net.cpp:157] Top shape: 100 192 28 28 (15052800)
I1020 10:20:11.705634 12779 net.cpp:165] Memory required for data: 61442400
I1020 10:20:11.705641 12779 layer_factory.hpp:77] Creating layer relu1
I1020 10:20:11.705646 12779 net.cpp:100] Creating Layer relu1
I1020 10:20:11.705649 12779 net.cpp:434] relu1 <- conv1
I1020 10:20:11.705653 12779 net.cpp:408] relu1 -> relu1
I1020 10:20:11.705770 12779 net.cpp:150] Setting up relu1
I1020 10:20:11.705776 12779 net.cpp:157] Top shape: 100 192 28 28 (15052800)
I1020 10:20:11.705778 12779 net.cpp:165] Memory required for data: 121653600
I1020 10:20:11.705780 12779 layer_factory.hpp:77] Creating layer drop1
I1020 10:20:11.705785 12779 net.cpp:100] Creating Layer drop1
I1020 10:20:11.705787 12779 net.cpp:434] drop1 <- relu1
I1020 10:20:11.705790 12779 net.cpp:408] drop1 -> drop1
I1020 10:20:11.705814 12779 net.cpp:150] Setting up drop1
I1020 10:20:11.705818 12779 net.cpp:157] Top shape: 100 192 28 28 (15052800)
I1020 10:20:11.705821 12779 net.cpp:165] Memory required for data: 181864800
I1020 10:20:11.705822 12779 layer_factory.hpp:77] Creating layer pool1
I1020 10:20:11.705826 12779 net.cpp:100] Creating Layer pool1
I1020 10:20:11.705829 12779 net.cpp:434] pool1 <- drop1
I1020 10:20:11.705832 12779 net.cpp:408] pool1 -> pool1
I1020 10:20:11.705854 12779 net.cpp:150] Setting up pool1
I1020 10:20:11.705858 12779 net.cpp:157] Top shape: 100 192 14 14 (3763200)
I1020 10:20:11.705862 12779 net.cpp:165] Memory required for data: 196917600
I1020 10:20:11.705862 12779 layer_factory.hpp:77] Creating layer conv2
I1020 10:20:11.705868 12779 net.cpp:100] Creating Layer conv2
I1020 10:20:11.705871 12779 net.cpp:434] conv2 <- pool1
I1020 10:20:11.705876 12779 net.cpp:408] conv2 -> conv2
I1020 10:20:11.706624 12779 net.cpp:150] Setting up conv2
I1020 10:20:11.706632 12779 net.cpp:157] Top shape: 100 192 14 14 (3763200)
I1020 10:20:11.706636 12779 net.cpp:165] Memory required for data: 211970400
I1020 10:20:11.706645 12779 layer_factory.hpp:77] Creating layer relu2
I1020 10:20:11.706650 12779 net.cpp:100] Creating Layer relu2
I1020 10:20:11.706653 12779 net.cpp:434] relu2 <- conv2
I1020 10:20:11.706665 12779 net.cpp:408] relu2 -> relu2
I1020 10:20:11.706859 12779 net.cpp:150] Setting up relu2
I1020 10:20:11.706867 12779 net.cpp:157] Top shape: 100 192 14 14 (3763200)
I1020 10:20:11.706871 12779 net.cpp:165] Memory required for data: 227023200
I1020 10:20:11.706873 12779 layer_factory.hpp:77] Creating layer conv3
I1020 10:20:11.706881 12779 net.cpp:100] Creating Layer conv3
I1020 10:20:11.706884 12779 net.cpp:434] conv3 <- relu2
I1020 10:20:11.706889 12779 net.cpp:408] conv3 -> conv3
I1020 10:20:11.709352 12779 net.cpp:150] Setting up conv3
I1020 10:20:11.709362 12779 net.cpp:157] Top shape: 100 240 12 12 (3456000)
I1020 10:20:11.709367 12779 net.cpp:165] Memory required for data: 240847200
I1020 10:20:11.709373 12779 layer_factory.hpp:77] Creating layer relu3
I1020 10:20:11.709378 12779 net.cpp:100] Creating Layer relu3
I1020 10:20:11.709383 12779 net.cpp:434] relu3 <- conv3
I1020 10:20:11.709388 12779 net.cpp:408] relu3 -> relu3
I1020 10:20:11.709501 12779 net.cpp:150] Setting up relu3
I1020 10:20:11.709506 12779 net.cpp:157] Top shape: 100 240 12 12 (3456000)
I1020 10:20:11.709511 12779 net.cpp:165] Memory required for data: 254671200
I1020 10:20:11.709513 12779 layer_factory.hpp:77] Creating layer drop2
I1020 10:20:11.709518 12779 net.cpp:100] Creating Layer drop2
I1020 10:20:11.709522 12779 net.cpp:434] drop2 <- relu3
I1020 10:20:11.709527 12779 net.cpp:408] drop2 -> drop2
I1020 10:20:11.709552 12779 net.cpp:150] Setting up drop2
I1020 10:20:11.709555 12779 net.cpp:157] Top shape: 100 240 12 12 (3456000)
I1020 10:20:11.709558 12779 net.cpp:165] Memory required for data: 268495200
I1020 10:20:11.709561 12779 layer_factory.hpp:77] Creating layer pool2
I1020 10:20:11.709565 12779 net.cpp:100] Creating Layer pool2
I1020 10:20:11.709568 12779 net.cpp:434] pool2 <- drop2
I1020 10:20:11.709573 12779 net.cpp:408] pool2 -> pool2
I1020 10:20:11.709599 12779 net.cpp:150] Setting up pool2
I1020 10:20:11.709604 12779 net.cpp:157] Top shape: 100 240 6 6 (864000)
I1020 10:20:11.709607 12779 net.cpp:165] Memory required for data: 271951200
I1020 10:20:11.709610 12779 layer_factory.hpp:77] Creating layer conv4
I1020 10:20:11.709616 12779 net.cpp:100] Creating Layer conv4
I1020 10:20:11.709619 12779 net.cpp:434] conv4 <- pool2
I1020 10:20:11.709624 12779 net.cpp:408] conv4 -> conv4
I1020 10:20:11.710693 12779 net.cpp:150] Setting up conv4
I1020 10:20:11.710701 12779 net.cpp:157] Top shape: 100 240 6 6 (864000)
I1020 10:20:11.710703 12779 net.cpp:165] Memory required for data: 275407200
I1020 10:20:11.710708 12779 layer_factory.hpp:77] Creating layer relu4
I1020 10:20:11.710713 12779 net.cpp:100] Creating Layer relu4
I1020 10:20:11.710716 12779 net.cpp:434] relu4 <- conv4
I1020 10:20:11.710719 12779 net.cpp:408] relu4 -> relu4
I1020 10:20:11.710831 12779 net.cpp:150] Setting up relu4
I1020 10:20:11.710837 12779 net.cpp:157] Top shape: 100 240 6 6 (864000)
I1020 10:20:11.710839 12779 net.cpp:165] Memory required for data: 278863200
I1020 10:20:11.710841 12779 layer_factory.hpp:77] Creating layer conv5
I1020 10:20:11.710846 12779 net.cpp:100] Creating Layer conv5
I1020 10:20:11.710850 12779 net.cpp:434] conv5 <- relu4
I1020 10:20:11.710852 12779 net.cpp:408] conv5 -> conv5
I1020 10:20:11.712615 12779 net.cpp:150] Setting up conv5
I1020 10:20:11.712623 12779 net.cpp:157] Top shape: 100 260 5 5 (650000)
I1020 10:20:11.712626 12779 net.cpp:165] Memory required for data: 281463200
I1020 10:20:11.712631 12779 layer_factory.hpp:77] Creating layer relu5
I1020 10:20:11.712637 12779 net.cpp:100] Creating Layer relu5
I1020 10:20:11.712641 12779 net.cpp:434] relu5 <- conv5
I1020 10:20:11.712646 12779 net.cpp:408] relu5 -> relu5
I1020 10:20:11.712908 12779 net.cpp:150] Setting up relu5
I1020 10:20:11.712914 12779 net.cpp:157] Top shape: 100 260 5 5 (650000)
I1020 10:20:11.712916 12779 net.cpp:165] Memory required for data: 284063200
I1020 10:20:11.712919 12779 layer_factory.hpp:77] Creating layer drop3
I1020 10:20:11.712924 12779 net.cpp:100] Creating Layer drop3
I1020 10:20:11.712925 12779 net.cpp:434] drop3 <- relu5
I1020 10:20:11.712937 12779 net.cpp:408] drop3 -> drop3
I1020 10:20:11.712965 12779 net.cpp:150] Setting up drop3
I1020 10:20:11.712970 12779 net.cpp:157] Top shape: 100 260 5 5 (650000)
I1020 10:20:11.712973 12779 net.cpp:165] Memory required for data: 286663200
I1020 10:20:11.712976 12779 layer_factory.hpp:77] Creating layer pool3
I1020 10:20:11.712982 12779 net.cpp:100] Creating Layer pool3
I1020 10:20:11.712986 12779 net.cpp:434] pool3 <- drop3
I1020 10:20:11.712990 12779 net.cpp:408] pool3 -> pool3
I1020 10:20:11.713016 12779 net.cpp:150] Setting up pool3
I1020 10:20:11.713021 12779 net.cpp:157] Top shape: 100 260 3 3 (234000)
I1020 10:20:11.713026 12779 net.cpp:165] Memory required for data: 287599200
I1020 10:20:11.713027 12779 layer_factory.hpp:77] Creating layer conv6
I1020 10:20:11.713034 12779 net.cpp:100] Creating Layer conv6
I1020 10:20:11.713037 12779 net.cpp:434] conv6 <- pool3
I1020 10:20:11.713042 12779 net.cpp:408] conv6 -> conv6
I1020 10:20:11.714164 12779 net.cpp:150] Setting up conv6
I1020 10:20:11.714171 12779 net.cpp:157] Top shape: 100 260 3 3 (234000)
I1020 10:20:11.714176 12779 net.cpp:165] Memory required for data: 288535200
I1020 10:20:11.714184 12779 layer_factory.hpp:77] Creating layer relu6
I1020 10:20:11.714188 12779 net.cpp:100] Creating Layer relu6
I1020 10:20:11.714192 12779 net.cpp:434] relu6 <- conv6
I1020 10:20:11.714196 12779 net.cpp:408] relu6 -> relu6
I1020 10:20:11.714313 12779 net.cpp:150] Setting up relu6
I1020 10:20:11.714319 12779 net.cpp:157] Top shape: 100 260 3 3 (234000)
I1020 10:20:11.714323 12779 net.cpp:165] Memory required for data: 289471200
I1020 10:20:11.714326 12779 layer_factory.hpp:77] Creating layer conv7
I1020 10:20:11.714334 12779 net.cpp:100] Creating Layer conv7
I1020 10:20:11.714336 12779 net.cpp:434] conv7 <- relu6
I1020 10:20:11.714341 12779 net.cpp:408] conv7 -> conv7
I1020 10:20:11.716264 12779 net.cpp:150] Setting up conv7
I1020 10:20:11.716274 12779 net.cpp:157] Top shape: 100 280 2 2 (112000)
I1020 10:20:11.716275 12779 net.cpp:165] Memory required for data: 289919200
I1020 10:20:11.716281 12779 layer_factory.hpp:77] Creating layer relu7
I1020 10:20:11.716292 12779 net.cpp:100] Creating Layer relu7
I1020 10:20:11.716297 12779 net.cpp:434] relu7 <- conv7
I1020 10:20:11.716303 12779 net.cpp:408] relu7 -> relu7
I1020 10:20:11.716423 12779 net.cpp:150] Setting up relu7
I1020 10:20:11.716428 12779 net.cpp:157] Top shape: 100 280 2 2 (112000)
I1020 10:20:11.716433 12779 net.cpp:165] Memory required for data: 290367200
I1020 10:20:11.716434 12779 layer_factory.hpp:77] Creating layer drop4
I1020 10:20:11.716439 12779 net.cpp:100] Creating Layer drop4
I1020 10:20:11.716440 12779 net.cpp:434] drop4 <- relu7
I1020 10:20:11.716444 12779 net.cpp:408] drop4 -> drop4
I1020 10:20:11.716471 12779 net.cpp:150] Setting up drop4
I1020 10:20:11.716476 12779 net.cpp:157] Top shape: 100 280 2 2 (112000)
I1020 10:20:11.716480 12779 net.cpp:165] Memory required for data: 290815200
I1020 10:20:11.716482 12779 layer_factory.hpp:77] Creating layer pool4
I1020 10:20:11.716487 12779 net.cpp:100] Creating Layer pool4
I1020 10:20:11.716491 12779 net.cpp:434] pool4 <- drop4
I1020 10:20:11.716495 12779 net.cpp:408] pool4 -> pool4
I1020 10:20:11.716522 12779 net.cpp:150] Setting up pool4
I1020 10:20:11.716526 12779 net.cpp:157] Top shape: 100 280 1 1 (28000)
I1020 10:20:11.716528 12779 net.cpp:165] Memory required for data: 290927200
I1020 10:20:11.716531 12779 layer_factory.hpp:77] Creating layer conv8
I1020 10:20:11.716536 12779 net.cpp:100] Creating Layer conv8
I1020 10:20:11.716538 12779 net.cpp:434] conv8 <- pool4
I1020 10:20:11.716542 12779 net.cpp:408] conv8 -> conv8
I1020 10:20:11.717501 12779 net.cpp:150] Setting up conv8
I1020 10:20:11.717509 12779 net.cpp:157] Top shape: 100 280 1 1 (28000)
I1020 10:20:11.717511 12779 net.cpp:165] Memory required for data: 291039200
I1020 10:20:11.717516 12779 layer_factory.hpp:77] Creating layer relu8
I1020 10:20:11.717520 12779 net.cpp:100] Creating Layer relu8
I1020 10:20:11.717524 12779 net.cpp:434] relu8 <- conv8
I1020 10:20:11.717536 12779 net.cpp:408] relu8 -> relu8
I1020 10:20:11.717728 12779 net.cpp:150] Setting up relu8
I1020 10:20:11.717736 12779 net.cpp:157] Top shape: 100 280 1 1 (28000)
I1020 10:20:11.717738 12779 net.cpp:165] Memory required for data: 291151200
I1020 10:20:11.717741 12779 layer_factory.hpp:77] Creating layer drop5
I1020 10:20:11.717746 12779 net.cpp:100] Creating Layer drop5
I1020 10:20:11.717747 12779 net.cpp:434] drop5 <- relu8
I1020 10:20:11.717751 12779 net.cpp:408] drop5 -> drop5
I1020 10:20:11.717775 12779 net.cpp:150] Setting up drop5
I1020 10:20:11.717779 12779 net.cpp:157] Top shape: 100 280 1 1 (28000)
I1020 10:20:11.717782 12779 net.cpp:165] Memory required for data: 291263200
I1020 10:20:11.717783 12779 layer_factory.hpp:77] Creating layer pool5
I1020 10:20:11.717787 12779 net.cpp:100] Creating Layer pool5
I1020 10:20:11.717788 12779 net.cpp:434] pool5 <- drop5
I1020 10:20:11.717790 12779 net.cpp:408] pool5 -> pool5
I1020 10:20:11.717818 12779 net.cpp:150] Setting up pool5
I1020 10:20:11.717821 12779 net.cpp:157] Top shape: 100 280 1 1 (28000)
I1020 10:20:11.717824 12779 net.cpp:165] Memory required for data: 291375200
I1020 10:20:11.717826 12779 layer_factory.hpp:77] Creating layer conv10
I1020 10:20:11.717830 12779 net.cpp:100] Creating Layer conv10
I1020 10:20:11.717833 12779 net.cpp:434] conv10 <- pool5
I1020 10:20:11.717836 12779 net.cpp:408] conv10 -> conv10
I1020 10:20:11.719386 12779 net.cpp:150] Setting up conv10
I1020 10:20:11.719394 12779 net.cpp:157] Top shape: 100 300 1 1 (30000)
I1020 10:20:11.719396 12779 net.cpp:165] Memory required for data: 291495200
I1020 10:20:11.719403 12779 layer_factory.hpp:77] Creating layer relu10
I1020 10:20:11.719408 12779 net.cpp:100] Creating Layer relu10
I1020 10:20:11.719410 12779 net.cpp:434] relu10 <- conv10
I1020 10:20:11.719413 12779 net.cpp:408] relu10 -> relu10
I1020 10:20:11.719524 12779 net.cpp:150] Setting up relu10
I1020 10:20:11.719530 12779 net.cpp:157] Top shape: 100 300 1 1 (30000)
I1020 10:20:11.719532 12779 net.cpp:165] Memory required for data: 291615200
I1020 10:20:11.719534 12779 layer_factory.hpp:77] Creating layer drop6
I1020 10:20:11.719538 12779 net.cpp:100] Creating Layer drop6
I1020 10:20:11.719540 12779 net.cpp:434] drop6 <- relu10
I1020 10:20:11.719543 12779 net.cpp:408] drop6 -> drop6
I1020 10:20:11.719566 12779 net.cpp:150] Setting up drop6
I1020 10:20:11.719571 12779 net.cpp:157] Top shape: 100 300 1 1 (30000)
I1020 10:20:11.719573 12779 net.cpp:165] Memory required for data: 291735200
I1020 10:20:11.719574 12779 layer_factory.hpp:77] Creating layer pool6
I1020 10:20:11.719583 12779 net.cpp:100] Creating Layer pool6
I1020 10:20:11.719586 12779 net.cpp:434] pool6 <- drop6
I1020 10:20:11.719589 12779 net.cpp:408] pool6 -> pool6
I1020 10:20:11.719617 12779 net.cpp:150] Setting up pool6
I1020 10:20:11.719621 12779 net.cpp:157] Top shape: 100 300 1 1 (30000)
I1020 10:20:11.719625 12779 net.cpp:165] Memory required for data: 291855200
I1020 10:20:11.719629 12779 layer_factory.hpp:77] Creating layer conv11
I1020 10:20:11.719635 12779 net.cpp:100] Creating Layer conv11
I1020 10:20:11.719637 12779 net.cpp:434] conv11 <- pool6
I1020 10:20:11.719641 12779 net.cpp:408] conv11 -> conv11
I1020 10:20:11.720381 12779 net.cpp:150] Setting up conv11
I1020 10:20:11.720389 12779 net.cpp:157] Top shape: 100 100 1 1 (10000)
I1020 10:20:11.720393 12779 net.cpp:165] Memory required for data: 291895200
I1020 10:20:11.720401 12779 layer_factory.hpp:77] Creating layer relu11
I1020 10:20:11.720405 12779 net.cpp:100] Creating Layer relu11
I1020 10:20:11.720408 12779 net.cpp:434] relu11 <- conv11
I1020 10:20:11.720413 12779 net.cpp:408] relu11 -> relu11
I1020 10:20:11.720528 12779 net.cpp:150] Setting up relu11
I1020 10:20:11.720535 12779 net.cpp:157] Top shape: 100 100 1 1 (10000)
I1020 10:20:11.720537 12779 net.cpp:165] Memory required for data: 291935200
I1020 10:20:11.720541 12779 layer_factory.hpp:77] Creating layer drop7
I1020 10:20:11.720546 12779 net.cpp:100] Creating Layer drop7
I1020 10:20:11.720549 12779 net.cpp:434] drop7 <- relu11
I1020 10:20:11.720562 12779 net.cpp:408] drop7 -> drop7
I1020 10:20:11.720590 12779 net.cpp:150] Setting up drop7
I1020 10:20:11.720594 12779 net.cpp:157] Top shape: 100 100 1 1 (10000)
I1020 10:20:11.720598 12779 net.cpp:165] Memory required for data: 291975200
I1020 10:20:11.720600 12779 layer_factory.hpp:77] Creating layer pool7
I1020 10:20:11.720605 12779 net.cpp:100] Creating Layer pool7
I1020 10:20:11.720610 12779 net.cpp:434] pool7 <- drop7
I1020 10:20:11.720613 12779 net.cpp:408] pool7 -> pool7
I1020 10:20:11.720639 12779 net.cpp:150] Setting up pool7
I1020 10:20:11.720644 12779 net.cpp:157] Top shape: 100 100 1 1 (10000)
I1020 10:20:11.720649 12779 net.cpp:165] Memory required for data: 292015200
I1020 10:20:11.720650 12779 layer_factory.hpp:77] Creating layer pool7_pool7_0_split
I1020 10:20:11.720655 12779 net.cpp:100] Creating Layer pool7_pool7_0_split
I1020 10:20:11.720659 12779 net.cpp:434] pool7_pool7_0_split <- pool7
I1020 10:20:11.720662 12779 net.cpp:408] pool7_pool7_0_split -> pool7_pool7_0_split_0
I1020 10:20:11.720667 12779 net.cpp:408] pool7_pool7_0_split -> pool7_pool7_0_split_1
I1020 10:20:11.720692 12779 net.cpp:150] Setting up pool7_pool7_0_split
I1020 10:20:11.720696 12779 net.cpp:157] Top shape: 100 100 1 1 (10000)
I1020 10:20:11.720701 12779 net.cpp:157] Top shape: 100 100 1 1 (10000)
I1020 10:20:11.720705 12779 net.cpp:165] Memory required for data: 292095200
I1020 10:20:11.720707 12779 layer_factory.hpp:77] Creating layer ip_c
I1020 10:20:11.720712 12779 net.cpp:100] Creating Layer ip_c
I1020 10:20:11.720716 12779 net.cpp:434] ip_c <- pool7_pool7_0_split_0
I1020 10:20:11.720719 12779 net.cpp:408] ip_c -> ip_c
I1020 10:20:11.720798 12779 net.cpp:150] Setting up ip_c
I1020 10:20:11.720801 12779 net.cpp:157] Top shape: 100 20 (2000)
I1020 10:20:11.720804 12779 net.cpp:165] Memory required for data: 292103200
I1020 10:20:11.720808 12779 layer_factory.hpp:77] Creating layer ip_c_ip_c_0_split
I1020 10:20:11.720810 12779 net.cpp:100] Creating Layer ip_c_ip_c_0_split
I1020 10:20:11.720813 12779 net.cpp:434] ip_c_ip_c_0_split <- ip_c
I1020 10:20:11.720816 12779 net.cpp:408] ip_c_ip_c_0_split -> ip_c_ip_c_0_split_0
I1020 10:20:11.720820 12779 net.cpp:408] ip_c_ip_c_0_split -> ip_c_ip_c_0_split_1
I1020 10:20:11.720842 12779 net.cpp:150] Setting up ip_c_ip_c_0_split
I1020 10:20:11.720846 12779 net.cpp:157] Top shape: 100 20 (2000)
I1020 10:20:11.720849 12779 net.cpp:157] Top shape: 100 20 (2000)
I1020 10:20:11.720850 12779 net.cpp:165] Memory required for data: 292119200
I1020 10:20:11.720851 12779 layer_factory.hpp:77] Creating layer accuracy_f
I1020 10:20:11.720855 12779 net.cpp:100] Creating Layer accuracy_f
I1020 10:20:11.720859 12779 net.cpp:434] accuracy_f <- ip_c_ip_c_0_split_0
I1020 10:20:11.720861 12779 net.cpp:434] accuracy_f <- label_coarse_data_1_split_0
I1020 10:20:11.720865 12779 net.cpp:408] accuracy_f -> accuracy_f
…
