…
train_state {
  level: 0
  stage: ""
}
type: "RMSProp"
I1018 01:43:33.661466 13312 solver.cpp:81] Creating training net from train_net file: /home/adam/Honours/Honours-Project/cifar-100_pooling/max/elu/poolcnn_elu_train.prototxt
I1018 01:43:33.661773 13312 net.cpp:58] Initializing net from parameters: 
state {
  phase: TRAIN
  level: 0
  stage: ""
}
layer {
  name: "data"
  type: "HDF5Data"
  top: "data"
  top: "label_coarse"
  top: "label_fine"
  hdf5_data_param {
    source: "../../../../data/cifar-100/cifar_100_caffe_hdf5/train.txt"
    batch_size: 64
  }
}
layer {
  name: "conv1"
  type: "Convolution"
  bottom: "data"
  top: "conv1"
  convolution_param {
    num_output: 192
    kernel_size: 5
    weight_filler {
      type: "xavier"
    }
  }
}
layer {
  name: "pool1"
  type: "Pooling"
  bottom: "conv1"
  top: "pool1"
  pooling_param {
    pool: MAX
    kernel_size: 2
    stride: 2
  }
}
layer {
  name: "drop1"
  type: "Dropout"
  bottom: "pool1"
  top: "drop1"
  dropout_param {
    dropout_ratio: 0
  }
}
layer {
  name: "elu1"
  type: "ELU"
  bottom: "drop1"
  top: "elu1"
}
layer {
  name: "conv2"
  type: "Convolution"
  bottom: "elu1"
  top: "conv2"
  convolution_param {
    num_output: 192
    kernel_size: 1
    weight_filler {
      type: "xavier"
    }
  }
}
layer {
  name: "conv3"
  type: "Convolution"
  bottom: "conv2"
  top: "conv3"
  convolution_param {
    num_output: 240
    kernel_size: 3
    weight_filler {
      type: "xavier"
    }
  }
}
layer {
  name: "pool2"
  type: "Pooling"
  bottom: "conv3"
  top: "pool2"
  pooling_param {
    pool: MAX
    kernel_size: 2
    stride: 2
  }
}
layer {
  name: "drop2"
  type: "Dropout"
  bottom: "pool2"
  top: "drop2"
  dropout_param {
    dropout_ratio: 0.1
  }
}
layer {
  name: "elu2"
  type: "ELU"
  bottom: "drop2"
  top: "elu2"
}
layer {
  name: "conv4"
  type: "Convolution"
  bottom: "elu2"
  top: "conv4"
  convolution_param {
    num_output: 240
    kernel_size: 1
    weight_filler {
      type: "xavier"
    }
  }
}
layer {
  name: "conv5"
  type: "Convolution"
  bottom: "conv4"
  top: "conv5"
  convolution_param {
    num_output: 260
    kernel_size: 2
    weight_filler {
      type: "xavier"
    }
  }
}
layer {
  name: "pool3"
  type: "Pooling"
  bottom: "conv5"
  top: "pool3"
  pooling_param {
    pool: MAX
    kernel_size: 2
    stride: 2
  }
}
layer {
  name: "drop3"
  type: "Dropout"
  bottom: "pool3"
  top: "drop3"
  dropout_param {
    dropout_ratio: 0.2
  }
}
layer {
  name: "elu3"
  type: "ELU"
  bottom: "drop3"
  top: "elu3"
}
layer {
  name: "conv6"
  type: "Convolution"
  bottom: "elu3"
  top: "conv6"
  convolution_param {
    num_output: 260
    kernel_size: 1
    weight_filler {
      type: "xavier"
    }
  }
}
layer {
  name: "conv7"
  type: "Convolution"
  bottom: "conv6"
  top: "conv7"
  convolution_param {
    num_output: 280
    kernel_size: 2
    weight_filler {
      type: "xavier"
    }
  }
}
layer {
  name: "pool4"
  type: "Pooling"
  bottom: "conv7"
  top: "pool4"
  pooling_param {
    pool: MAX
    kernel_size: 2
    stride: 2
  }
}
layer {
  name: "drop4"
  type: "Dropout"
  bottom: "pool4"
  top: "drop4"
  dropout_param {
    dropout_ratio: 0.3
  }
}
layer {
  name: "elu4"
  type: "ELU"
  bottom: "drop4"
  top: "elu4"
}
layer {
  name: "conv8"
  type: "Convolution"
  bottom: "elu4"
  top: "conv8"
  convolution_param {
    num_output: 280
    kernel_size: 1
    weight_filler {
      type: "xavier"
    }
  }
}
layer {
  name: "pool5"
  type: "Pooling"
  bottom: "conv8"
  top: "pool5"
  pooling_param {
    pool: MAX
    kernel_size: 2
    stride: 2
  }
}
layer {
  name: "drop5"
  type: "Dropout"
  bottom: "pool5"
  top: "drop5"
  dropout_param {
    dropout_ratio: 0.4
  }
}
layer {
  name: "elu5"
  type: "ELU"
  bottom: "drop5"
  top: "elu5"
}
layer {
  name: "conv10"
  type: "Convolution"
  bottom: "elu5"
  top: "conv10"
  convolution_param {
    num_output: 300
    kernel_size: 1
    weight_filler {
      type: "xavier"
    }
  }
}
layer {
  name: "pool6"
  type: "Pooling"
  bottom: "conv10"
  top: "pool6"
  pooling_param {
    pool: MAX
    kernel_size: 2
    stride: 2
  }
}
layer {
  name: "drop6"
  type: "Dropout"
  bottom: "pool6"
  top: "drop6"
  dropout_param {
    dropout_ratio: 0.5
  }
}
layer {
  name: "elu6"
  type: "ELU"
  bottom: "drop6"
  top: "elu6"
}
layer {
  name: "conv11"
  type: "Convolution"
  bottom: "elu6"
  top: "conv11"
  convolution_param {
    num_output: 100
    kernel_size: 1
    weight_filler {
      type: "xavier"
    }
  }
}
layer {
  name: "pool7"
  type: "Pooling"
  bottom: "conv11"
  top: "pool7"
  pooling_param {
    pool: MAX
    kernel_size: 2
    stride: 2
  }
}
layer {
  name: "drop7"
  type: "Dropout"
  bottom: "pool7"
  top: "drop7"
  dropout_param {
    dropout_ratio: 0
  }
}
layer {
  name: "elu7"
  type: "ELU"
  bottom: "drop7"
  top: "elu7"
}
layer {
  name: "pool"
  type: "Pooling"
  bottom: "elu7"
  top: "pool"
  pooling_param {
    pool: AVE
    global_pooling: true
  }
}
layer {
  name: "flatten"
  type: "Flatten"
  bottom: "pool"
  top: "flatten"
}
layer {
  name: "ip_c"
  type: "InnerProduct"
  bottom: "flatten"
  top: "ip_c"
  inner_product_param {
    num_output: 20
    weight_filler {
      type: "xavier"
    }
  }
}
layer {
  name: "accuracy_f"
  type: "Accuracy"
  bottom: "ip_c"
  bottom: "label_coarse"
  top: "accuracy_f"
}
layer {
  name: "loss_c"
  type: "SoftmaxWithLoss"
  bottom: "ip_c"
  bottom: "label_coarse"
  top: "loss_c"
}
layer {
  name: "ip_f"
  type: "InnerProduct"
  bottom: "flatten"
  top: "ip_f"
  inner_product_param {
    num_output: 100
    weight_filler {
      type: "xavier"
    }
  }
}
layer {
  name: "accuracy"
  type: "Accuracy"
  bottom: "ip_f"
  bottom: "label_fine"
  top: "accuracy"
}
layer {
  name: "loss_f"
  type: "SoftmaxWithLoss"
  bottom: "ip_f"
  bottom: "label_fine"
  top: "loss_f"
}
I1018 01:43:33.661972 13312 layer_factory.hpp:77] Creating layer data
I1018 01:43:33.661983 13312 net.cpp:100] Creating Layer data
I1018 01:43:33.661990 13312 net.cpp:408] data -> data
I1018 01:43:33.662009 13312 net.cpp:408] data -> label_coarse
I1018 01:43:33.662019 13312 net.cpp:408] data -> label_fine
I1018 01:43:33.662029 13312 hdf5_data_layer.cpp:79] Loading list of HDF5 filenames from: ../../../../data/cifar-100/cifar_100_caffe_hdf5/train.txt
I1018 01:43:33.662058 13312 hdf5_data_layer.cpp:93] Number of HDF5 files: 1
I1018 01:43:33.662827 13312 hdf5.cpp:35] Datatype class: H5T_INTEGER
I1018 01:43:35.343080 13312 net.cpp:150] Setting up data
I1018 01:43:35.343111 13312 net.cpp:157] Top shape: 64 3 32 32 (196608)
I1018 01:43:35.343116 13312 net.cpp:157] Top shape: 64 (64)
I1018 01:43:35.343118 13312 net.cpp:157] Top shape: 64 (64)
I1018 01:43:35.343122 13312 net.cpp:165] Memory required for data: 786944
I1018 01:43:35.343132 13312 layer_factory.hpp:77] Creating layer label_coarse_data_1_split
I1018 01:43:35.343145 13312 net.cpp:100] Creating Layer label_coarse_data_1_split
I1018 01:43:35.343152 13312 net.cpp:434] label_coarse_data_1_split <- label_coarse
I1018 01:43:35.343173 13312 net.cpp:408] label_coarse_data_1_split -> label_coarse_data_1_split_0
I1018 01:43:35.343186 13312 net.cpp:408] label_coarse_data_1_split -> label_coarse_data_1_split_1
I1018 01:43:35.343219 13312 net.cpp:150] Setting up label_coarse_data_1_split
I1018 01:43:35.343225 13312 net.cpp:157] Top shape: 64 (64)
I1018 01:43:35.343228 13312 net.cpp:157] Top shape: 64 (64)
I1018 01:43:35.343232 13312 net.cpp:165] Memory required for data: 787456
I1018 01:43:35.343235 13312 layer_factory.hpp:77] Creating layer label_fine_data_2_split
I1018 01:43:35.343242 13312 net.cpp:100] Creating Layer label_fine_data_2_split
I1018 01:43:35.343255 13312 net.cpp:434] label_fine_data_2_split <- label_fine
I1018 01:43:35.343261 13312 net.cpp:408] label_fine_data_2_split -> label_fine_data_2_split_0
I1018 01:43:35.343269 13312 net.cpp:408] label_fine_data_2_split -> label_fine_data_2_split_1
I1018 01:43:35.343292 13312 net.cpp:150] Setting up label_fine_data_2_split
I1018 01:43:35.343297 13312 net.cpp:157] Top shape: 64 (64)
I1018 01:43:35.343302 13312 net.cpp:157] Top shape: 64 (64)
I1018 01:43:35.343304 13312 net.cpp:165] Memory required for data: 787968
I1018 01:43:35.343307 13312 layer_factory.hpp:77] Creating layer conv1
I1018 01:43:35.343322 13312 net.cpp:100] Creating Layer conv1
I1018 01:43:35.343324 13312 net.cpp:434] conv1 <- data
I1018 01:43:35.343330 13312 net.cpp:408] conv1 -> conv1
I1018 01:43:35.467202 13312 net.cpp:150] Setting up conv1
I1018 01:43:35.467234 13312 net.cpp:157] Top shape: 64 192 28 28 (9633792)
I1018 01:43:35.467237 13312 net.cpp:165] Memory required for data: 39323136
I1018 01:43:35.467264 13312 layer_factory.hpp:77] Creating layer pool1
I1018 01:43:35.467279 13312 net.cpp:100] Creating Layer pool1
I1018 01:43:35.467284 13312 net.cpp:434] pool1 <- conv1
I1018 01:43:35.467293 13312 net.cpp:408] pool1 -> pool1
I1018 01:43:35.467339 13312 net.cpp:150] Setting up pool1
I1018 01:43:35.467344 13312 net.cpp:157] Top shape: 64 192 14 14 (2408448)
I1018 01:43:35.467348 13312 net.cpp:165] Memory required for data: 48956928
I1018 01:43:35.467352 13312 layer_factory.hpp:77] Creating layer drop1
I1018 01:43:35.467360 13312 net.cpp:100] Creating Layer drop1
I1018 01:43:35.467362 13312 net.cpp:434] drop1 <- pool1
I1018 01:43:35.467367 13312 net.cpp:408] drop1 -> drop1
I1018 01:43:35.467393 13312 net.cpp:150] Setting up drop1
I1018 01:43:35.467398 13312 net.cpp:157] Top shape: 64 192 14 14 (2408448)
I1018 01:43:35.467401 13312 net.cpp:165] Memory required for data: 58590720
I1018 01:43:35.467404 13312 layer_factory.hpp:77] Creating layer elu1
I1018 01:43:35.467411 13312 net.cpp:100] Creating Layer elu1
I1018 01:43:35.467414 13312 net.cpp:434] elu1 <- drop1
I1018 01:43:35.467418 13312 net.cpp:408] elu1 -> elu1
I1018 01:43:35.467433 13312 net.cpp:150] Setting up elu1
I1018 01:43:35.467439 13312 net.cpp:157] Top shape: 64 192 14 14 (2408448)
I1018 01:43:35.467442 13312 net.cpp:165] Memory required for data: 68224512
I1018 01:43:35.467444 13312 layer_factory.hpp:77] Creating layer conv2
I1018 01:43:35.467453 13312 net.cpp:100] Creating Layer conv2
I1018 01:43:35.467456 13312 net.cpp:434] conv2 <- elu1
I1018 01:43:35.467461 13312 net.cpp:408] conv2 -> conv2
I1018 01:43:35.468210 13312 net.cpp:150] Setting up conv2
I1018 01:43:35.468219 13312 net.cpp:157] Top shape: 64 192 14 14 (2408448)
I1018 01:43:35.468224 13312 net.cpp:165] Memory required for data: 77858304
I1018 01:43:35.468231 13312 layer_factory.hpp:77] Creating layer conv3
I1018 01:43:35.468240 13312 net.cpp:100] Creating Layer conv3
I1018 01:43:35.468243 13312 net.cpp:434] conv3 <- conv2
I1018 01:43:35.468250 13312 net.cpp:408] conv3 -> conv3
I1018 01:43:35.470669 13312 net.cpp:150] Setting up conv3
I1018 01:43:35.470677 13312 net.cpp:157] Top shape: 64 240 12 12 (2211840)
I1018 01:43:35.470680 13312 net.cpp:165] Memory required for data: 86705664
I1018 01:43:35.470690 13312 layer_factory.hpp:77] Creating layer pool2
I1018 01:43:35.470696 13312 net.cpp:100] Creating Layer pool2
I1018 01:43:35.470700 13312 net.cpp:434] pool2 <- conv3
I1018 01:43:35.470705 13312 net.cpp:408] pool2 -> pool2
I1018 01:43:35.470733 13312 net.cpp:150] Setting up pool2
I1018 01:43:35.470738 13312 net.cpp:157] Top shape: 64 240 6 6 (552960)
I1018 01:43:35.470741 13312 net.cpp:165] Memory required for data: 88917504
I1018 01:43:35.470744 13312 layer_factory.hpp:77] Creating layer drop2
I1018 01:43:35.470751 13312 net.cpp:100] Creating Layer drop2
I1018 01:43:35.470753 13312 net.cpp:434] drop2 <- pool2
I1018 01:43:35.470759 13312 net.cpp:408] drop2 -> drop2
I1018 01:43:35.470783 13312 net.cpp:150] Setting up drop2
I1018 01:43:35.470788 13312 net.cpp:157] Top shape: 64 240 6 6 (552960)
I1018 01:43:35.470801 13312 net.cpp:165] Memory required for data: 91129344
I1018 01:43:35.470805 13312 layer_factory.hpp:77] Creating layer elu2
I1018 01:43:35.470811 13312 net.cpp:100] Creating Layer elu2
I1018 01:43:35.470815 13312 net.cpp:434] elu2 <- drop2
I1018 01:43:35.470819 13312 net.cpp:408] elu2 -> elu2
I1018 01:43:35.470836 13312 net.cpp:150] Setting up elu2
I1018 01:43:35.470841 13312 net.cpp:157] Top shape: 64 240 6 6 (552960)
I1018 01:43:35.470845 13312 net.cpp:165] Memory required for data: 93341184
I1018 01:43:35.470849 13312 layer_factory.hpp:77] Creating layer conv4
I1018 01:43:35.470855 13312 net.cpp:100] Creating Layer conv4
I1018 01:43:35.470859 13312 net.cpp:434] conv4 <- elu2
I1018 01:43:35.470865 13312 net.cpp:408] conv4 -> conv4
I1018 01:43:35.471724 13312 net.cpp:150] Setting up conv4
I1018 01:43:35.471734 13312 net.cpp:157] Top shape: 64 240 6 6 (552960)
I1018 01:43:35.471736 13312 net.cpp:165] Memory required for data: 95553024
I1018 01:43:35.471743 13312 layer_factory.hpp:77] Creating layer conv5
I1018 01:43:35.471752 13312 net.cpp:100] Creating Layer conv5
I1018 01:43:35.471756 13312 net.cpp:434] conv5 <- conv4
I1018 01:43:35.471763 13312 net.cpp:408] conv5 -> conv5
I1018 01:43:35.473526 13312 net.cpp:150] Setting up conv5
I1018 01:43:35.473536 13312 net.cpp:157] Top shape: 64 260 5 5 (416000)
I1018 01:43:35.473538 13312 net.cpp:165] Memory required for data: 97217024
I1018 01:43:35.473547 13312 layer_factory.hpp:77] Creating layer pool3
I1018 01:43:35.473554 13312 net.cpp:100] Creating Layer pool3
I1018 01:43:35.473558 13312 net.cpp:434] pool3 <- conv5
I1018 01:43:35.473563 13312 net.cpp:408] pool3 -> pool3
I1018 01:43:35.473590 13312 net.cpp:150] Setting up pool3
I1018 01:43:35.473597 13312 net.cpp:157] Top shape: 64 260 3 3 (149760)
I1018 01:43:35.473599 13312 net.cpp:165] Memory required for data: 97816064
I1018 01:43:35.473603 13312 layer_factory.hpp:77] Creating layer drop3
I1018 01:43:35.473608 13312 net.cpp:100] Creating Layer drop3
I1018 01:43:35.473611 13312 net.cpp:434] drop3 <- pool3
I1018 01:43:35.473618 13312 net.cpp:408] drop3 -> drop3
I1018 01:43:35.473640 13312 net.cpp:150] Setting up drop3
I1018 01:43:35.473646 13312 net.cpp:157] Top shape: 64 260 3 3 (149760)
I1018 01:43:35.473649 13312 net.cpp:165] Memory required for data: 98415104
I1018 01:43:35.473652 13312 layer_factory.hpp:77] Creating layer elu3
I1018 01:43:35.473660 13312 net.cpp:100] Creating Layer elu3
I1018 01:43:35.473664 13312 net.cpp:434] elu3 <- drop3
I1018 01:43:35.473680 13312 net.cpp:408] elu3 -> elu3
I1018 01:43:35.473698 13312 net.cpp:150] Setting up elu3
I1018 01:43:35.473703 13312 net.cpp:157] Top shape: 64 260 3 3 (149760)
I1018 01:43:35.473706 13312 net.cpp:165] Memory required for data: 99014144
I1018 01:43:35.473711 13312 layer_factory.hpp:77] Creating layer conv6
I1018 01:43:35.473717 13312 net.cpp:100] Creating Layer conv6
I1018 01:43:35.473721 13312 net.cpp:434] conv6 <- elu3
I1018 01:43:35.473726 13312 net.cpp:408] conv6 -> conv6
I1018 01:43:35.474828 13312 net.cpp:150] Setting up conv6
I1018 01:43:35.474838 13312 net.cpp:157] Top shape: 64 260 3 3 (149760)
I1018 01:43:35.474840 13312 net.cpp:165] Memory required for data: 99613184
I1018 01:43:35.474846 13312 layer_factory.hpp:77] Creating layer conv7
I1018 01:43:35.474855 13312 net.cpp:100] Creating Layer conv7
I1018 01:43:35.474858 13312 net.cpp:434] conv7 <- conv6
I1018 01:43:35.474864 13312 net.cpp:408] conv7 -> conv7
I1018 01:43:35.476755 13312 net.cpp:150] Setting up conv7
I1018 01:43:35.476771 13312 net.cpp:157] Top shape: 64 280 2 2 (71680)
I1018 01:43:35.476774 13312 net.cpp:165] Memory required for data: 99899904
I1018 01:43:35.476781 13312 layer_factory.hpp:77] Creating layer pool4
I1018 01:43:35.476788 13312 net.cpp:100] Creating Layer pool4
I1018 01:43:35.476793 13312 net.cpp:434] pool4 <- conv7
I1018 01:43:35.476802 13312 net.cpp:408] pool4 -> pool4
I1018 01:43:35.476830 13312 net.cpp:150] Setting up pool4
I1018 01:43:35.476836 13312 net.cpp:157] Top shape: 64 280 1 1 (17920)
I1018 01:43:35.476840 13312 net.cpp:165] Memory required for data: 99971584
I1018 01:43:35.476852 13312 layer_factory.hpp:77] Creating layer drop4
I1018 01:43:35.476860 13312 net.cpp:100] Creating Layer drop4
I1018 01:43:35.476862 13312 net.cpp:434] drop4 <- pool4
I1018 01:43:35.476868 13312 net.cpp:408] drop4 -> drop4
I1018 01:43:35.476897 13312 net.cpp:150] Setting up drop4
I1018 01:43:35.476902 13312 net.cpp:157] Top shape: 64 280 1 1 (17920)
I1018 01:43:35.476904 13312 net.cpp:165] Memory required for data: 100043264
I1018 01:43:35.476908 13312 layer_factory.hpp:77] Creating layer elu4
I1018 01:43:35.476913 13312 net.cpp:100] Creating Layer elu4
I1018 01:43:35.476917 13312 net.cpp:434] elu4 <- drop4
I1018 01:43:35.476922 13312 net.cpp:408] elu4 -> elu4
I1018 01:43:35.476938 13312 net.cpp:150] Setting up elu4
I1018 01:43:35.476943 13312 net.cpp:157] Top shape: 64 280 1 1 (17920)
I1018 01:43:35.476945 13312 net.cpp:165] Memory required for data: 100114944
I1018 01:43:35.476948 13312 layer_factory.hpp:77] Creating layer conv8
I1018 01:43:35.476958 13312 net.cpp:100] Creating Layer conv8
I1018 01:43:35.476961 13312 net.cpp:434] conv8 <- elu4
I1018 01:43:35.476966 13312 net.cpp:408] conv8 -> conv8
I1018 01:43:35.477875 13312 net.cpp:150] Setting up conv8
I1018 01:43:35.477885 13312 net.cpp:157] Top shape: 64 280 1 1 (17920)
I1018 01:43:35.477887 13312 net.cpp:165] Memory required for data: 100186624
I1018 01:43:35.477893 13312 layer_factory.hpp:77] Creating layer pool5
I1018 01:43:35.477900 13312 net.cpp:100] Creating Layer pool5
I1018 01:43:35.477905 13312 net.cpp:434] pool5 <- conv8
I1018 01:43:35.477910 13312 net.cpp:408] pool5 -> pool5
I1018 01:43:35.477938 13312 net.cpp:150] Setting up pool5
I1018 01:43:35.477943 13312 net.cpp:157] Top shape: 64 280 1 1 (17920)
I1018 01:43:35.477946 13312 net.cpp:165] Memory required for data: 100258304
I1018 01:43:35.477949 13312 layer_factory.hpp:77] Creating layer drop5
I1018 01:43:35.477954 13312 net.cpp:100] Creating Layer drop5
I1018 01:43:35.477958 13312 net.cpp:434] drop5 <- pool5
I1018 01:43:35.477964 13312 net.cpp:408] drop5 -> drop5
I1018 01:43:35.477989 13312 net.cpp:150] Setting up drop5
I1018 01:43:35.477993 13312 net.cpp:157] Top shape: 64 280 1 1 (17920)
I1018 01:43:35.477996 13312 net.cpp:165] Memory required for data: 100329984
I1018 01:43:35.477999 13312 layer_factory.hpp:77] Creating layer elu5
I1018 01:43:35.478005 13312 net.cpp:100] Creating Layer elu5
I1018 01:43:35.478009 13312 net.cpp:434] elu5 <- drop5
I1018 01:43:35.478013 13312 net.cpp:408] elu5 -> elu5
I1018 01:43:35.478029 13312 net.cpp:150] Setting up elu5
I1018 01:43:35.478035 13312 net.cpp:157] Top shape: 64 280 1 1 (17920)
I1018 01:43:35.478037 13312 net.cpp:165] Memory required for data: 100401664
I1018 01:43:35.478040 13312 layer_factory.hpp:77] Creating layer conv10
I1018 01:43:35.478049 13312 net.cpp:100] Creating Layer conv10
I1018 01:43:35.478054 13312 net.cpp:434] conv10 <- elu5
I1018 01:43:35.478057 13312 net.cpp:408] conv10 -> conv10
I1018 01:43:35.479020 13312 net.cpp:150] Setting up conv10
I1018 01:43:35.479032 13312 net.cpp:157] Top shape: 64 300 1 1 (19200)
I1018 01:43:35.479035 13312 net.cpp:165] Memory required for data: 100478464
I1018 01:43:35.479049 13312 layer_factory.hpp:77] Creating layer pool6
I1018 01:43:35.479059 13312 net.cpp:100] Creating Layer pool6
I1018 01:43:35.479063 13312 net.cpp:434] pool6 <- conv10
I1018 01:43:35.479071 13312 net.cpp:408] pool6 -> pool6
I1018 01:43:35.479101 13312 net.cpp:150] Setting up pool6
I1018 01:43:35.479107 13312 net.cpp:157] Top shape: 64 300 1 1 (19200)
I1018 01:43:35.479110 13312 net.cpp:165] Memory required for data: 100555264
I1018 01:43:35.479113 13312 layer_factory.hpp:77] Creating layer drop6
I1018 01:43:35.479121 13312 net.cpp:100] Creating Layer drop6
I1018 01:43:35.479125 13312 net.cpp:434] drop6 <- pool6
I1018 01:43:35.479128 13312 net.cpp:408] drop6 -> drop6
I1018 01:43:35.479158 13312 net.cpp:150] Setting up drop6
I1018 01:43:35.479164 13312 net.cpp:157] Top shape: 64 300 1 1 (19200)
I1018 01:43:35.479167 13312 net.cpp:165] Memory required for data: 100632064
I1018 01:43:35.479182 13312 layer_factory.hpp:77] Creating layer elu6
I1018 01:43:35.479187 13312 net.cpp:100] Creating Layer elu6
I1018 01:43:35.479192 13312 net.cpp:434] elu6 <- drop6
I1018 01:43:35.479197 13312 net.cpp:408] elu6 -> elu6
I1018 01:43:35.479215 13312 net.cpp:150] Setting up elu6
I1018 01:43:35.479220 13312 net.cpp:157] Top shape: 64 300 1 1 (19200)
I1018 01:43:35.479224 13312 net.cpp:165] Memory required for data: 100708864
I1018 01:43:35.479228 13312 layer_factory.hpp:77] Creating layer conv11
I1018 01:43:35.479234 13312 net.cpp:100] Creating Layer conv11
I1018 01:43:35.479238 13312 net.cpp:434] conv11 <- elu6
I1018 01:43:35.479244 13312 net.cpp:408] conv11 -> conv11
I1018 01:43:35.480002 13312 net.cpp:150] Setting up conv11
I1018 01:43:35.480011 13312 net.cpp:157] Top shape: 64 100 1 1 (6400)
I1018 01:43:35.480015 13312 net.cpp:165] Memory required for data: 100734464
I1018 01:43:35.480020 13312 layer_factory.hpp:77] Creating layer pool7
I1018 01:43:35.480028 13312 net.cpp:100] Creating Layer pool7
I1018 01:43:35.480032 13312 net.cpp:434] pool7 <- conv11
I1018 01:43:35.480037 13312 net.cpp:408] pool7 -> pool7
I1018 01:43:35.480067 13312 net.cpp:150] Setting up pool7
I1018 01:43:35.480072 13312 net.cpp:157] Top shape: 64 100 1 1 (6400)
I1018 01:43:35.480075 13312 net.cpp:165] Memory required for data: 100760064
I1018 01:43:35.480078 13312 layer_factory.hpp:77] Creating layer drop7
I1018 01:43:35.480087 13312 net.cpp:100] Creating Layer drop7
I1018 01:43:35.480090 13312 net.cpp:434] drop7 <- pool7
I1018 01:43:35.480095 13312 net.cpp:408] drop7 -> drop7
I1018 01:43:35.480120 13312 net.cpp:150] Setting up drop7
I1018 01:43:35.480125 13312 net.cpp:157] Top shape: 64 100 1 1 (6400)
I1018 01:43:35.480129 13312 net.cpp:165] Memory required for data: 100785664
I1018 01:43:35.480132 13312 layer_factory.hpp:77] Creating layer elu7
I1018 01:43:35.480137 13312 net.cpp:100] Creating Layer elu7
I1018 01:43:35.480141 13312 net.cpp:434] elu7 <- drop7
I1018 01:43:35.480145 13312 net.cpp:408] elu7 -> elu7
I1018 01:43:35.480164 13312 net.cpp:150] Setting up elu7
I1018 01:43:35.480168 13312 net.cpp:157] Top shape: 64 100 1 1 (6400)
I1018 01:43:35.480171 13312 net.cpp:165] Memory required for data: 100811264
I1018 01:43:35.480175 13312 layer_factory.hpp:77] Creating layer pool
I1018 01:43:35.480180 13312 net.cpp:100] Creating Layer pool
I1018 01:43:35.480183 13312 net.cpp:434] pool <- elu7
I1018 01:43:35.480190 13312 net.cpp:408] pool -> pool
I1018 01:43:35.480392 13312 net.cpp:150] Setting up pool
I1018 01:43:35.480401 13312 net.cpp:157] Top shape: 64 100 1 1 (6400)
I1018 01:43:35.480404 13312 net.cpp:165] Memory required for data: 100836864
I1018 01:43:35.480407 13312 layer_factory.hpp:77] Creating layer flatten
I1018 01:43:35.480413 13312 net.cpp:100] Creating Layer flatten
I1018 01:43:35.480417 13312 net.cpp:434] flatten <- pool
I1018 01:43:35.480422 13312 net.cpp:408] flatten -> flatten
I1018 01:43:35.480442 13312 net.cpp:150] Setting up flatten
I1018 01:43:35.480446 13312 net.cpp:157] Top shape: 64 100 (6400)
I1018 01:43:35.480449 13312 net.cpp:165] Memory required for data: 100862464
I1018 01:43:35.480451 13312 layer_factory.hpp:77] Creating layer flatten_flatten_0_split
I1018 01:43:35.480458 13312 net.cpp:100] Creating Layer flatten_flatten_0_split
I1018 01:43:35.480461 13312 net.cpp:434] flatten_flatten_0_split <- flatten
I1018 01:43:35.480466 13312 net.cpp:408] flatten_flatten_0_split -> flatten_flatten_0_split_0
I1018 01:43:35.480473 13312 net.cpp:408] flatten_flatten_0_split -> flatten_flatten_0_split_1
I1018 01:43:35.480500 13312 net.cpp:150] Setting up flatten_flatten_0_split
I1018 01:43:35.480505 13312 net.cpp:157] Top shape: 64 100 (6400)
I1018 01:43:35.480509 13312 net.cpp:157] Top shape: 64 100 (6400)
I1018 01:43:35.480512 13312 net.cpp:165] Memory required for data: 100913664
I1018 01:43:35.480515 13312 layer_factory.hpp:77] Creating layer ip_c
I1018 01:43:35.480520 13312 net.cpp:100] Creating Layer ip_c
I1018 01:43:35.480525 13312 net.cpp:434] ip_c <- flatten_flatten_0_split_0
I1018 01:43:35.480538 13312 net.cpp:408] ip_c -> ip_c
I1018 01:43:35.480877 13312 net.cpp:150] Setting up ip_c
I1018 01:43:35.480885 13312 net.cpp:157] Top shape: 64 20 (1280)
I1018 01:43:35.480888 13312 net.cpp:165] Memory required for data: 100918784
I1018 01:43:35.480895 13312 layer_factory.hpp:77] Creating layer ip_c_ip_c_0_split
I1018 01:43:35.480900 13312 net.cpp:100] Creating Layer ip_c_ip_c_0_split
I1018 01:43:35.480903 13312 net.cpp:434] ip_c_ip_c_0_split <- ip_c
I1018 01:43:35.480911 13312 net.cpp:408] ip_c_ip_c_0_split -> ip_c_ip_c_0_split_0
I1018 01:43:35.480918 13312 net.cpp:408] ip_c_ip_c_0_split -> ip_c_ip_c_0_split_1
I1018 01:43:35.480943 13312 net.cpp:150] Setting up ip_c_ip_c_0_split
I1018 01:43:35.480947 13312 net.cpp:157] Top shape: 64 20 (1280)
I1018 01:43:35.480952 13312 net.cpp:157] Top shape: 64 20 (1280)
I1018 01:43:35.480955 13312 net.cpp:165] Memory required for data: 100929024
I1018 01:43:35.480958 13312 layer_factory.hpp:77] Creating layer accuracy_f
I1018 01:43:35.480964 13312 net.cpp:100] Creating Layer accuracy_f
I1018 01:43:35.480968 13312 net.cpp:434] accuracy_f <- ip_c_ip_c_0_split_0
I1018 01:43:35.480973 13312 net.cpp:434] accuracy_f <- label_coarse_data_1_split_0
I1018 01:43:35.480978 13312 net.cpp:408] accuracy_f -> accuracy_f
…
I1018 01:43:35.481993 13312 net.cpp:283] Network initialization done.
I1018 01:43:35.482188 13312 solver.cpp:181] Creating test net (#0) specified by test_net file: /home/adam/Honours/Honours-Project/cifar-100_pooling/max/elu/poolcnn_elu_test.prototxt
I1018 01:43:35.482309 13312 net.cpp:58] Initializing net from parameters: 
state {
  phase: TEST
}
layer {
  name: "data"
  type: "HDF5Data"
  top: "data"
  top: "label_coarse"
  top: "label_fine"
  hdf5_data_param {
    source: "../../../../data/cifar-100/cifar_100_caffe_hdf5/test.txt"
    batch_size: 100
  }
}
layer {
  name: "conv1"
  type: "Convolution"
  bottom: "data"
  top: "conv1"
  convolution_param {
    num_output: 192
    kernel_size: 5
    weight_filler {
      type: "xavier"
    }
  }
}
layer {
  name: "pool1"
  type: "Pooling"
  bottom: "conv1"
  top: "pool1"
  pooling_param {
    pool: MAX
    kernel_size: 2
    stride: 2
  }
}
layer {
  name: "drop1"
  type: "Dropout"
  bottom: "pool1"
  top: "drop1"
  dropout_param {
    dropout_ratio: 0
  }
}
layer {
  name: "elu1"
  type: "ELU"
  bottom: "drop1"
  top: "elu1"
}
layer {
  name: "conv2"
  type: "Convolution"
  bottom: "elu1"
  top: "conv2"
  convolution_param {
    num_output: 192
    kernel_size: 1
    weight_filler {
      type: "xavier"
    }
  }
}
layer {
  name: "conv3"
  type: "Convolution"
  bottom: "conv2"
  top: "conv3"
  convolution_param {
    num_output: 240
    kernel_size: 3
    weight_filler {
      type: "xavier"
    }
  }
}
layer {
  name: "pool2"
  type: "Pooling"
  bottom: "conv3"
  top: "pool2"
  pooling_param {
    pool: MAX
    kernel_size: 2
    stride: 2
  }
}
layer {
  name: "drop2"
  type: "Dropout"
  bottom: "pool2"
  top: "drop2"
  dropout_param {
    dropout_ratio: 0.1
  }
}
layer {
  name: "elu2"
  type: "ELU"
  bottom: "drop2"
  top: "elu2"
}
layer {
  name: "conv4"
  type: "Convolution"
  bottom: "elu2"
  top: "conv4"
  convolution_param {
    num_output: 240
    kernel_size: 1
    weight_filler {
      type: "xavier"
    }
  }
}
layer {
  name: "conv5"
  type: "Convolution"
  bottom: "conv4"
  top: "conv5"
  convolution_param {
    num_output: 260
    kernel_size: 2
    weight_filler {
      type: "xavier"
    }
  }
}
layer {
  name: "pool3"
  type: "Pooling"
  bottom: "conv5"
  top: "pool3"
  pooling_param {
    pool: MAX
    kernel_size: 2
    stride: 2
  }
}
layer {
  name: "drop3"
  type: "Dropout"
  bottom: "pool3"
  top: "drop3"
  dropout_param {
    dropout_ratio: 0.2
  }
}
layer {
  name: "elu3"
  type: "ELU"
  bottom: "drop3"
  top: "elu3"
}
layer {
  name: "conv6"
  type: "Convolution"
  bottom: "elu3"
  top: "conv6"
  convolution_param {
    num_output: 260
    kernel_size: 1
    weight_filler {
      type: "xavier"
    }
  }
}
layer {
  name: "conv7"
  type: "Convolution"
  bottom: "conv6"
  top: "conv7"
  convolution_param {
    num_output: 280
    kernel_size: 2
    weight_filler {
      type: "xavier"
    }
  }
}
layer {
  name: "pool4"
  type: "Pooling"
  bottom: "conv7"
  top: "pool4"
  pooling_param {
    pool: MAX
    kernel_size: 2
    stride: 2
  }
}
layer {
  name: "drop4"
  type: "Dropout"
  bottom: "pool4"
  top: "drop4"
  dropout_param {
    dropout_ratio: 0.3
  }
}
layer {
  name: "elu4"
  type: "ELU"
  bottom: "drop4"
  top: "elu4"
}
layer {
  name: "conv8"
  type: "Convolution"
  bottom: "elu4"
  top: "conv8"
  convolution_param {
    num_output: 280
    kernel_size: 1
    weight_filler {
      type: "xavier"
    }
  }
}
layer {
  name: "pool5"
  type: "Pooling"
  bottom: "conv8"
  top: "pool5"
  pooling_param {
    pool: MAX
    kernel_size: 2
    stride: 2
  }
}
layer {
  name: "drop5"
  type: "Dropout"
  bottom: "pool5"
  top: "drop5"
  dropout_param {
    dropout_ratio: 0.4
  }
}
layer {
  name: "elu5"
  type: "ELU"
  bottom: "drop5"
  top: "elu5"
}
layer {
  name: "conv10"
  type: "Convolution"
  bottom: "elu5"
  top: "conv10"
  convolution_param {
    num_output: 300
    kernel_size: 1
    weight_filler {
      type: "xavier"
    }
  }
}
layer {
  name: "pool6"
  type: "Pooling"
  bottom: "conv10"
  top: "pool6"
  pooling_param {
    pool: MAX
    kernel_size: 2
    stride: 2
  }
}
layer {
  name: "drop6"
  type: "Dropout"
  bottom: "pool6"
  top: "drop6"
  dropout_param {
    dropout_ratio: 0.5
  }
}
layer {
  name: "elu6"
  type: "ELU"
  bottom: "drop6"
  top: "elu6"
}
layer {
  name: "conv11"
  type: "Convolution"
  bottom: "elu6"
  top: "conv11"
  convolution_param {
    num_output: 100
    kernel_size: 1
    weight_filler {
      type: "xavier"
    }
  }
}
layer {
  name: "pool7"
  type: "Pooling"
  bottom: "conv11"
  top: "pool7"
  pooling_param {
    pool: MAX
    kernel_size: 2
    stride: 2
  }
}
layer {
  name: "drop7"
  type: "Dropout"
  bottom: "pool7"
  top: "drop7"
  dropout_param {
    dropout_ratio: 0
  }
}
layer {
  name: "elu7"
  type: "ELU"
  bottom: "drop7"
  top: "elu7"
}
layer {
  name: "pool"
  type: "Pooling"
  bottom: "elu7"
  top: "pool"
  pooling_param {
    pool: AVE
    global_pooling: true
  }
}
layer {
  name: "flatten"
  type: "Flatten"
  bottom: "pool"
  top: "flatten"
}
layer {
  name: "ip_c"
  type: "InnerProduct"
  bottom: "flatten"
  top: "ip_c"
  inner_product_param {
    num_output: 20
    weight_filler {
      type: "xavier"
    }
  }
}
layer {
  name: "accuracy_f"
  type: "Accuracy"
  bottom: "ip_c"
  bottom: "label_coarse"
  top: "accuracy_f"
}
layer {
  name: "loss_c"
  type: "SoftmaxWithLoss"
  bottom: "ip_c"
  bottom: "label_coarse"
  top: "loss_c"
}
layer {
  name: "ip_f"
  type: "InnerProduct"
  bottom: "flatten"
  top: "ip_f"
  inner_product_param {
    num_output: 100
    weight_filler {
      type: "xavier"
    }
  }
}
layer {
  name: "accuracy"
  type: "Accuracy"
  bottom: "ip_f"
  bottom: "label_fine"
  top: "accuracy"
}
layer {
  name: "loss_f"
  type: "SoftmaxWithLoss"
  bottom: "ip_f"
  bottom: "label_fine"
  top: "loss_f"
}
I1018 01:43:35.482429 13312 layer_factory.hpp:77] Creating layer data
I1018 01:43:35.482435 13312 net.cpp:100] Creating Layer data
I1018 01:43:35.482439 13312 net.cpp:408] data -> data
I1018 01:43:35.482445 13312 net.cpp:408] data -> label_coarse
I1018 01:43:35.482450 13312 net.cpp:408] data -> label_fine
I1018 01:43:35.482455 13312 hdf5_data_layer.cpp:79] Loading list of HDF5 filenames from: ../../../../data/cifar-100/cifar_100_caffe_hdf5/test.txt
I1018 01:43:35.482472 13312 hdf5_data_layer.cpp:93] Number of HDF5 files: 1
I1018 01:43:35.742027 13312 net.cpp:150] Setting up data
I1018 01:43:35.742059 13312 net.cpp:157] Top shape: 100 3 32 32 (307200)
I1018 01:43:35.742063 13312 net.cpp:157] Top shape: 100 (100)
I1018 01:43:35.742068 13312 net.cpp:157] Top shape: 100 (100)
I1018 01:43:35.742069 13312 net.cpp:165] Memory required for data: 1229600
I1018 01:43:35.742076 13312 layer_factory.hpp:77] Creating layer label_coarse_data_1_split
I1018 01:43:35.742089 13312 net.cpp:100] Creating Layer label_coarse_data_1_split
I1018 01:43:35.742095 13312 net.cpp:434] label_coarse_data_1_split <- label_coarse
I1018 01:43:35.742102 13312 net.cpp:408] label_coarse_data_1_split -> label_coarse_data_1_split_0
I1018 01:43:35.742112 13312 net.cpp:408] label_coarse_data_1_split -> label_coarse_data_1_split_1
I1018 01:43:35.742146 13312 net.cpp:150] Setting up label_coarse_data_1_split
I1018 01:43:35.742152 13312 net.cpp:157] Top shape: 100 (100)
I1018 01:43:35.742156 13312 net.cpp:157] Top shape: 100 (100)
I1018 01:43:35.742158 13312 net.cpp:165] Memory required for data: 1230400
I1018 01:43:35.742161 13312 layer_factory.hpp:77] Creating layer label_fine_data_2_split
I1018 01:43:35.742166 13312 net.cpp:100] Creating Layer label_fine_data_2_split
I1018 01:43:35.742168 13312 net.cpp:434] label_fine_data_2_split <- label_fine
I1018 01:43:35.742172 13312 net.cpp:408] label_fine_data_2_split -> label_fine_data_2_split_0
I1018 01:43:35.742175 13312 net.cpp:408] label_fine_data_2_split -> label_fine_data_2_split_1
I1018 01:43:35.742197 13312 net.cpp:150] Setting up label_fine_data_2_split
I1018 01:43:35.742200 13312 net.cpp:157] Top shape: 100 (100)
I1018 01:43:35.742202 13312 net.cpp:157] Top shape: 100 (100)
I1018 01:43:35.742590 13312 net.cpp:165] Memory required for data: 1231200
I1018 01:43:35.742595 13312 layer_factory.hpp:77] Creating layer conv1
I1018 01:43:35.742604 13312 net.cpp:100] Creating Layer conv1
I1018 01:43:35.742605 13312 net.cpp:434] conv1 <- data
I1018 01:43:35.742609 13312 net.cpp:408] conv1 -> conv1
I1018 01:43:35.743490 13312 net.cpp:150] Setting up conv1
I1018 01:43:35.743500 13312 net.cpp:157] Top shape: 100 192 28 28 (15052800)
I1018 01:43:35.743502 13312 net.cpp:165] Memory required for data: 61442400
I1018 01:43:35.743510 13312 layer_factory.hpp:77] Creating layer pool1
I1018 01:43:35.743516 13312 net.cpp:100] Creating Layer pool1
I1018 01:43:35.743518 13312 net.cpp:434] pool1 <- conv1
I1018 01:43:35.743521 13312 net.cpp:408] pool1 -> pool1
I1018 01:43:35.743548 13312 net.cpp:150] Setting up pool1
I1018 01:43:35.743553 13312 net.cpp:157] Top shape: 100 192 14 14 (3763200)
I1018 01:43:35.743556 13312 net.cpp:165] Memory required for data: 76495200
I1018 01:43:35.743557 13312 layer_factory.hpp:77] Creating layer drop1
I1018 01:43:35.743561 13312 net.cpp:100] Creating Layer drop1
I1018 01:43:35.743563 13312 net.cpp:434] drop1 <- pool1
I1018 01:43:35.743566 13312 net.cpp:408] drop1 -> drop1
I1018 01:43:35.743588 13312 net.cpp:150] Setting up drop1
I1018 01:43:35.743592 13312 net.cpp:157] Top shape: 100 192 14 14 (3763200)
I1018 01:43:35.743593 13312 net.cpp:165] Memory required for data: 91548000
I1018 01:43:35.743594 13312 layer_factory.hpp:77] Creating layer elu1
I1018 01:43:35.743597 13312 net.cpp:100] Creating Layer elu1
I1018 01:43:35.743599 13312 net.cpp:434] elu1 <- drop1
I1018 01:43:35.743602 13312 net.cpp:408] elu1 -> elu1
I1018 01:43:35.743614 13312 net.cpp:150] Setting up elu1
I1018 01:43:35.743618 13312 net.cpp:157] Top shape: 100 192 14 14 (3763200)
I1018 01:43:35.743619 13312 net.cpp:165] Memory required for data: 106600800
I1018 01:43:35.743621 13312 layer_factory.hpp:77] Creating layer conv2
I1018 01:43:35.743626 13312 net.cpp:100] Creating Layer conv2
I1018 01:43:35.743628 13312 net.cpp:434] conv2 <- elu1
I1018 01:43:35.743630 13312 net.cpp:408] conv2 -> conv2
I1018 01:43:35.744410 13312 net.cpp:150] Setting up conv2
I1018 01:43:35.744417 13312 net.cpp:157] Top shape: 100 192 14 14 (3763200)
I1018 01:43:35.744421 13312 net.cpp:165] Memory required for data: 121653600
I1018 01:43:35.744426 13312 layer_factory.hpp:77] Creating layer conv3
I1018 01:43:35.744431 13312 net.cpp:100] Creating Layer conv3
I1018 01:43:35.744434 13312 net.cpp:434] conv3 <- conv2
I1018 01:43:35.744438 13312 net.cpp:408] conv3 -> conv3
I1018 01:43:35.747025 13312 net.cpp:150] Setting up conv3
I1018 01:43:35.747042 13312 net.cpp:157] Top shape: 100 240 12 12 (3456000)
I1018 01:43:35.747045 13312 net.cpp:165] Memory required for data: 135477600
I1018 01:43:35.747052 13312 layer_factory.hpp:77] Creating layer pool2
I1018 01:43:35.747058 13312 net.cpp:100] Creating Layer pool2
I1018 01:43:35.747061 13312 net.cpp:434] pool2 <- conv3
I1018 01:43:35.747064 13312 net.cpp:408] pool2 -> pool2
I1018 01:43:35.747093 13312 net.cpp:150] Setting up pool2
I1018 01:43:35.747098 13312 net.cpp:157] Top shape: 100 240 6 6 (864000)
I1018 01:43:35.747099 13312 net.cpp:165] Memory required for data: 138933600
I1018 01:43:35.747102 13312 layer_factory.hpp:77] Creating layer drop2
I1018 01:43:35.747107 13312 net.cpp:100] Creating Layer drop2
I1018 01:43:35.747108 13312 net.cpp:434] drop2 <- pool2
I1018 01:43:35.747112 13312 net.cpp:408] drop2 -> drop2
I1018 01:43:35.747134 13312 net.cpp:150] Setting up drop2
I1018 01:43:35.747138 13312 net.cpp:157] Top shape: 100 240 6 6 (864000)
I1018 01:43:35.747139 13312 net.cpp:165] Memory required for data: 142389600
I1018 01:43:35.747141 13312 layer_factory.hpp:77] Creating layer elu2
I1018 01:43:35.747144 13312 net.cpp:100] Creating Layer elu2
I1018 01:43:35.747146 13312 net.cpp:434] elu2 <- drop2
I1018 01:43:35.747148 13312 net.cpp:408] elu2 -> elu2
I1018 01:43:35.747161 13312 net.cpp:150] Setting up elu2
I1018 01:43:35.747164 13312 net.cpp:157] Top shape: 100 240 6 6 (864000)
I1018 01:43:35.747177 13312 net.cpp:165] Memory required for data: 145845600
I1018 01:43:35.747179 13312 layer_factory.hpp:77] Creating layer conv4
I1018 01:43:35.747184 13312 net.cpp:100] Creating Layer conv4
I1018 01:43:35.747187 13312 net.cpp:434] conv4 <- elu2
I1018 01:43:35.747190 13312 net.cpp:408] conv4 -> conv4
I1018 01:43:35.748301 13312 net.cpp:150] Setting up conv4
I1018 01:43:35.748309 13312 net.cpp:157] Top shape: 100 240 6 6 (864000)
I1018 01:43:35.748312 13312 net.cpp:165] Memory required for data: 149301600
I1018 01:43:35.748317 13312 layer_factory.hpp:77] Creating layer conv5
I1018 01:43:35.748322 13312 net.cpp:100] Creating Layer conv5
I1018 01:43:35.748323 13312 net.cpp:434] conv5 <- conv4
I1018 01:43:35.748327 13312 net.cpp:408] conv5 -> conv5
I1018 01:43:35.750033 13312 net.cpp:150] Setting up conv5
I1018 01:43:35.750042 13312 net.cpp:157] Top shape: 100 260 5 5 (650000)
I1018 01:43:35.750044 13312 net.cpp:165] Memory required for data: 151901600
I1018 01:43:35.750051 13312 layer_factory.hpp:77] Creating layer pool3
I1018 01:43:35.750054 13312 net.cpp:100] Creating Layer pool3
I1018 01:43:35.750056 13312 net.cpp:434] pool3 <- conv5
I1018 01:43:35.750061 13312 net.cpp:408] pool3 -> pool3
I1018 01:43:35.750087 13312 net.cpp:150] Setting up pool3
I1018 01:43:35.750092 13312 net.cpp:157] Top shape: 100 260 3 3 (234000)
I1018 01:43:35.750092 13312 net.cpp:165] Memory required for data: 152837600
I1018 01:43:35.750094 13312 layer_factory.hpp:77] Creating layer drop3
I1018 01:43:35.750098 13312 net.cpp:100] Creating Layer drop3
I1018 01:43:35.750100 13312 net.cpp:434] drop3 <- pool3
I1018 01:43:35.750103 13312 net.cpp:408] drop3 -> drop3
I1018 01:43:35.750125 13312 net.cpp:150] Setting up drop3
I1018 01:43:35.750130 13312 net.cpp:157] Top shape: 100 260 3 3 (234000)
I1018 01:43:35.750131 13312 net.cpp:165] Memory required for data: 153773600
I1018 01:43:35.750133 13312 layer_factory.hpp:77] Creating layer elu3
I1018 01:43:35.750138 13312 net.cpp:100] Creating Layer elu3
I1018 01:43:35.750140 13312 net.cpp:434] elu3 <- drop3
I1018 01:43:35.750144 13312 net.cpp:408] elu3 -> elu3
I1018 01:43:35.750156 13312 net.cpp:150] Setting up elu3
I1018 01:43:35.750159 13312 net.cpp:157] Top shape: 100 260 3 3 (234000)
I1018 01:43:35.750161 13312 net.cpp:165] Memory required for data: 154709600
I1018 01:43:35.750164 13312 layer_factory.hpp:77] Creating layer conv6
I1018 01:43:35.750167 13312 net.cpp:100] Creating Layer conv6
I1018 01:43:35.750169 13312 net.cpp:434] conv6 <- elu3
I1018 01:43:35.750172 13312 net.cpp:408] conv6 -> conv6
I1018 01:43:35.751291 13312 net.cpp:150] Setting up conv6
I1018 01:43:35.751298 13312 net.cpp:157] Top shape: 100 260 3 3 (234000)
I1018 01:43:35.751301 13312 net.cpp:165] Memory required for data: 155645600
I1018 01:43:35.751305 13312 layer_factory.hpp:77] Creating layer conv7
I1018 01:43:35.751309 13312 net.cpp:100] Creating Layer conv7
I1018 01:43:35.751312 13312 net.cpp:434] conv7 <- conv6
I1018 01:43:35.751315 13312 net.cpp:408] conv7 -> conv7
I1018 01:43:35.753254 13312 net.cpp:150] Setting up conv7
I1018 01:43:35.753263 13312 net.cpp:157] Top shape: 100 280 2 2 (112000)
I1018 01:43:35.753265 13312 net.cpp:165] Memory required for data: 156093600
I1018 01:43:35.753269 13312 layer_factory.hpp:77] Creating layer pool4
I1018 01:43:35.753274 13312 net.cpp:100] Creating Layer pool4
I1018 01:43:35.753278 13312 net.cpp:434] pool4 <- conv7
I1018 01:43:35.753280 13312 net.cpp:408] pool4 -> pool4
I1018 01:43:35.753309 13312 net.cpp:150] Setting up pool4
I1018 01:43:35.753312 13312 net.cpp:157] Top shape: 100 280 1 1 (28000)
I1018 01:43:35.753314 13312 net.cpp:165] Memory required for data: 156205600
I1018 01:43:35.753316 13312 layer_factory.hpp:77] Creating layer drop4
I1018 01:43:35.753319 13312 net.cpp:100] Creating Layer drop4
I1018 01:43:35.753322 13312 net.cpp:434] drop4 <- pool4
I1018 01:43:35.753326 13312 net.cpp:408] drop4 -> drop4
I1018 01:43:35.753350 13312 net.cpp:150] Setting up drop4
I1018 01:43:35.753352 13312 net.cpp:157] Top shape: 100 280 1 1 (28000)
I1018 01:43:35.753355 13312 net.cpp:165] Memory required for data: 156317600
I1018 01:43:35.753366 13312 layer_factory.hpp:77] Creating layer elu4
I1018 01:43:35.753371 13312 net.cpp:100] Creating Layer elu4
I1018 01:43:35.753372 13312 net.cpp:434] elu4 <- drop4
I1018 01:43:35.753376 13312 net.cpp:408] elu4 -> elu4
I1018 01:43:35.753391 13312 net.cpp:150] Setting up elu4
I1018 01:43:35.753394 13312 net.cpp:157] Top shape: 100 280 1 1 (28000)
I1018 01:43:35.753396 13312 net.cpp:165] Memory required for data: 156429600
I1018 01:43:35.753398 13312 layer_factory.hpp:77] Creating layer conv8
I1018 01:43:35.753402 13312 net.cpp:100] Creating Layer conv8
I1018 01:43:35.753406 13312 net.cpp:434] conv8 <- elu4
I1018 01:43:35.753408 13312 net.cpp:408] conv8 -> conv8
I1018 01:43:35.754658 13312 net.cpp:150] Setting up conv8
I1018 01:43:35.754669 13312 net.cpp:157] Top shape: 100 280 1 1 (28000)
I1018 01:43:35.754672 13312 net.cpp:165] Memory required for data: 156541600
I1018 01:43:35.754675 13312 layer_factory.hpp:77] Creating layer pool5
I1018 01:43:35.754680 13312 net.cpp:100] Creating Layer pool5
I1018 01:43:35.754684 13312 net.cpp:434] pool5 <- conv8
I1018 01:43:35.754688 13312 net.cpp:408] pool5 -> pool5
I1018 01:43:35.754714 13312 net.cpp:150] Setting up pool5
I1018 01:43:35.754719 13312 net.cpp:157] Top shape: 100 280 1 1 (28000)
I1018 01:43:35.754720 13312 net.cpp:165] Memory required for data: 156653600
I1018 01:43:35.754722 13312 layer_factory.hpp:77] Creating layer drop5
I1018 01:43:35.754725 13312 net.cpp:100] Creating Layer drop5
I1018 01:43:35.754727 13312 net.cpp:434] drop5 <- pool5
I1018 01:43:35.754730 13312 net.cpp:408] drop5 -> drop5
I1018 01:43:35.754753 13312 net.cpp:150] Setting up drop5
I1018 01:43:35.754757 13312 net.cpp:157] Top shape: 100 280 1 1 (28000)
I1018 01:43:35.754760 13312 net.cpp:165] Memory required for data: 156765600
I1018 01:43:35.754760 13312 layer_factory.hpp:77] Creating layer elu5
I1018 01:43:35.754763 13312 net.cpp:100] Creating Layer elu5
I1018 01:43:35.754765 13312 net.cpp:434] elu5 <- drop5
I1018 01:43:35.754768 13312 net.cpp:408] elu5 -> elu5
I1018 01:43:35.754781 13312 net.cpp:150] Setting up elu5
I1018 01:43:35.754786 13312 net.cpp:157] Top shape: 100 280 1 1 (28000)
I1018 01:43:35.754787 13312 net.cpp:165] Memory required for data: 156877600
I1018 01:43:35.754789 13312 layer_factory.hpp:77] Creating layer conv10
I1018 01:43:35.754794 13312 net.cpp:100] Creating Layer conv10
I1018 01:43:35.754797 13312 net.cpp:434] conv10 <- elu5
I1018 01:43:35.754801 13312 net.cpp:408] conv10 -> conv10
I1018 01:43:35.755756 13312 net.cpp:150] Setting up conv10
I1018 01:43:35.755764 13312 net.cpp:157] Top shape: 100 300 1 1 (30000)
I1018 01:43:35.755765 13312 net.cpp:165] Memory required for data: 156997600
I1018 01:43:35.755774 13312 layer_factory.hpp:77] Creating layer pool6
I1018 01:43:35.755779 13312 net.cpp:100] Creating Layer pool6
I1018 01:43:35.755781 13312 net.cpp:434] pool6 <- conv10
I1018 01:43:35.755784 13312 net.cpp:408] pool6 -> pool6
I1018 01:43:35.755810 13312 net.cpp:150] Setting up pool6
I1018 01:43:35.755815 13312 net.cpp:157] Top shape: 100 300 1 1 (30000)
I1018 01:43:35.755816 13312 net.cpp:165] Memory required for data: 157117600
I1018 01:43:35.755818 13312 layer_factory.hpp:77] Creating layer drop6
I1018 01:43:35.755821 13312 net.cpp:100] Creating Layer drop6
I1018 01:43:35.755823 13312 net.cpp:434] drop6 <- pool6
I1018 01:43:35.755826 13312 net.cpp:408] drop6 -> drop6
I1018 01:43:35.755852 13312 net.cpp:150] Setting up drop6
I1018 01:43:35.755857 13312 net.cpp:157] Top shape: 100 300 1 1 (30000)
I1018 01:43:35.755859 13312 net.cpp:165] Memory required for data: 157237600
I1018 01:43:35.755861 13312 layer_factory.hpp:77] Creating layer elu6
I1018 01:43:35.755863 13312 net.cpp:100] Creating Layer elu6
I1018 01:43:35.755866 13312 net.cpp:434] elu6 <- drop6
I1018 01:43:35.755869 13312 net.cpp:408] elu6 -> elu6
I1018 01:43:35.755882 13312 net.cpp:150] Setting up elu6
I1018 01:43:35.755887 13312 net.cpp:157] Top shape: 100 300 1 1 (30000)
I1018 01:43:35.755887 13312 net.cpp:165] Memory required for data: 157357600
I1018 01:43:35.755900 13312 layer_factory.hpp:77] Creating layer conv11
I1018 01:43:35.755906 13312 net.cpp:100] Creating Layer conv11
I1018 01:43:35.755908 13312 net.cpp:434] conv11 <- elu6
I1018 01:43:35.755911 13312 net.cpp:408] conv11 -> conv11
I1018 01:43:35.756698 13312 net.cpp:150] Setting up conv11
I1018 01:43:35.756706 13312 net.cpp:157] Top shape: 100 100 1 1 (10000)
I1018 01:43:35.756709 13312 net.cpp:165] Memory required for data: 157397600
I1018 01:43:35.756713 13312 layer_factory.hpp:77] Creating layer pool7
I1018 01:43:35.756717 13312 net.cpp:100] Creating Layer pool7
I1018 01:43:35.756721 13312 net.cpp:434] pool7 <- conv11
I1018 01:43:35.756723 13312 net.cpp:408] pool7 -> pool7
I1018 01:43:35.756749 13312 net.cpp:150] Setting up pool7
I1018 01:43:35.756754 13312 net.cpp:157] Top shape: 100 100 1 1 (10000)
I1018 01:43:35.756757 13312 net.cpp:165] Memory required for data: 157437600
I1018 01:43:35.756757 13312 layer_factory.hpp:77] Creating layer drop7
I1018 01:43:35.756763 13312 net.cpp:100] Creating Layer drop7
I1018 01:43:35.756767 13312 net.cpp:434] drop7 <- pool7
I1018 01:43:35.756769 13312 net.cpp:408] drop7 -> drop7
I1018 01:43:35.756793 13312 net.cpp:150] Setting up drop7
I1018 01:43:35.756795 13312 net.cpp:157] Top shape: 100 100 1 1 (10000)
I1018 01:43:35.756798 13312 net.cpp:165] Memory required for data: 157477600
I1018 01:43:35.756800 13312 layer_factory.hpp:77] Creating layer elu7
I1018 01:43:35.756803 13312 net.cpp:100] Creating Layer elu7
I1018 01:43:35.756805 13312 net.cpp:434] elu7 <- drop7
I1018 01:43:35.756809 13312 net.cpp:408] elu7 -> elu7
I1018 01:43:35.756824 13312 net.cpp:150] Setting up elu7
I1018 01:43:35.756826 13312 net.cpp:157] Top shape: 100 100 1 1 (10000)
I1018 01:43:35.756829 13312 net.cpp:165] Memory required for data: 157517600
I1018 01:43:35.756831 13312 layer_factory.hpp:77] Creating layer pool
I1018 01:43:35.756834 13312 net.cpp:100] Creating Layer pool
I1018 01:43:35.756836 13312 net.cpp:434] pool <- elu7
I1018 01:43:35.756839 13312 net.cpp:408] pool -> pool
I1018 01:43:35.757063 13312 net.cpp:150] Setting up pool
I1018 01:43:35.757071 13312 net.cpp:157] Top shape: 100 100 1 1 (10000)
I1018 01:43:35.757073 13312 net.cpp:165] Memory required for data: 157557600
I1018 01:43:35.757076 13312 layer_factory.hpp:77] Creating layer flatten
I1018 01:43:35.757079 13312 net.cpp:100] Creating Layer flatten
I1018 01:43:35.757081 13312 net.cpp:434] flatten <- pool
I1018 01:43:35.757084 13312 net.cpp:408] flatten -> flatten
I1018 01:43:35.757102 13312 net.cpp:150] Setting up flatten
I1018 01:43:35.757105 13312 net.cpp:157] Top shape: 100 100 (10000)
I1018 01:43:35.757107 13312 net.cpp:165] Memory required for data: 157597600
I1018 01:43:35.757108 13312 layer_factory.hpp:77] Creating layer flatten_flatten_0_split
I1018 01:43:35.757112 13312 net.cpp:100] Creating Layer flatten_flatten_0_split
I1018 01:43:35.757114 13312 net.cpp:434] flatten_flatten_0_split <- flatten
I1018 01:43:35.757117 13312 net.cpp:408] flatten_flatten_0_split -> flatten_flatten_0_split_0
I1018 01:43:35.757120 13312 net.cpp:408] flatten_flatten_0_split -> flatten_flatten_0_split_1
I1018 01:43:35.757143 13312 net.cpp:150] Setting up flatten_flatten_0_split
I1018 01:43:35.757148 13312 net.cpp:157] Top shape: 100 100 (10000)
I1018 01:43:35.757149 13312 net.cpp:157] Top shape: 100 100 (10000)
I1018 01:43:35.757151 13312 net.cpp:165] Memory required for data: 157677600
I1018 01:43:35.757153 13312 layer_factory.hpp:77] Creating layer ip_c
I1018 01:43:35.757158 13312 net.cpp:100] Creating Layer ip_c
I1018 01:43:35.757160 13312 net.cpp:434] ip_c <- flatten_flatten_0_split_0
I1018 01:43:35.757164 13312 net.cpp:408] ip_c -> ip_c
I1018 01:43:35.757258 13312 net.cpp:150] Setting up ip_c
I1018 01:43:35.757264 13312 net.cpp:157] Top shape: 100 20 (2000)
I1018 01:43:35.757266 13312 net.cpp:165] Memory required for data: 157685600
I1018 01:43:35.757269 13312 layer_factory.hpp:77] Creating layer ip_c_ip_c_0_split
I1018 01:43:35.757273 13312 net.cpp:100] Creating Layer ip_c_ip_c_0_split
I1018 01:43:35.757277 13312 net.cpp:434] ip_c_ip_c_0_split <- ip_c
I1018 01:43:35.757287 13312 net.cpp:408] ip_c_ip_c_0_split -> ip_c_ip_c_0_split_0
I1018 01:43:35.757292 13312 net.cpp:408] ip_c_ip_c_0_split -> ip_c_ip_c_0_split_1
I1018 01:43:35.757316 13312 net.cpp:150] Setting up ip_c_ip_c_0_split
I1018 01:43:35.757320 13312 net.cpp:157] Top shape: 100 20 (2000)
I1018 01:43:35.757323 13312 net.cpp:157] Top shape: 100 20 (2000)
I1018 01:43:35.757324 13312 net.cpp:165] Memory required for data: 157701600
I1018 01:43:35.757325 13312 layer_factory.hpp:77] Creating layer accuracy_f
I1018 01:43:35.757330 13312 net.cpp:100] Creating Layer accuracy_f
I1018 01:43:35.757333 13312 net.cpp:434] accuracy_f <- ip_c_ip_c_0_split_0
I1018 01:43:35.757335 13312 net.cpp:434] accuracy_f <- label_coarse_data_1_split_0
I1018 01:43:35.757339 13312 net.cpp:408] accuracy_f -> accuracy_f
…
