…
  level: 0
  stage: ""
}
type: "RMSProp"
I1020 10:05:58.678921 12739 solver.cpp:81] Creating training net from train_net file: /home/adam/Honours/Honours-Project/cifar-100_pooling/max/leakyrelu/poolcnn_leakyrelu_train.prototxt
I1020 10:05:58.679240 12739 net.cpp:58] Initializing net from parameters: 
state {
  phase: TRAIN
  level: 0
  stage: ""
}
layer {
  name: "data"
  type: "HDF5Data"
  top: "data"
  top: "label_coarse"
  top: "label_fine"
  hdf5_data_param {
    source: "../../../../data/cifar-100/cifar_100_caffe_hdf5/train.txt"
    batch_size: 64
  }
}
layer {
  name: "conv1"
  type: "Convolution"
  bottom: "data"
  top: "conv1"
  convolution_param {
    num_output: 192
    kernel_size: 5
    weight_filler {
      type: "xavier"
    }
  }
}
layer {
  name: "relu1"
  type: "ReLU"
  bottom: "conv1"
  top: "relu1"
  relu_param {
    negative_slope: 0.1
  }
}
layer {
  name: "drop1"
  type: "Dropout"
  bottom: "relu1"
  top: "drop1"
  dropout_param {
    dropout_ratio: 0
  }
}
layer {
  name: "pool1"
  type: "Pooling"
  bottom: "drop1"
  top: "pool1"
  pooling_param {
    pool: MAX
    kernel_size: 2
    stride: 2
  }
}
layer {
  name: "conv2"
  type: "Convolution"
  bottom: "pool1"
  top: "conv2"
  convolution_param {
    num_output: 192
    kernel_size: 1
    weight_filler {
      type: "xavier"
    }
  }
}
layer {
  name: "relu2"
  type: "ReLU"
  bottom: "conv2"
  top: "relu2"
  relu_param {
    negative_slope: 0.1
  }
}
layer {
  name: "conv3"
  type: "Convolution"
  bottom: "relu2"
  top: "conv3"
  convolution_param {
    num_output: 240
    kernel_size: 3
    weight_filler {
      type: "xavier"
    }
  }
}
layer {
  name: "relu3"
  type: "ReLU"
  bottom: "conv3"
  top: "relu3"
  relu_param {
    negative_slope: 0.1
  }
}
layer {
  name: "drop2"
  type: "Dropout"
  bottom: "relu3"
  top: "drop2"
  dropout_param {
    dropout_ratio: 0.1
  }
}
layer {
  name: "pool2"
  type: "Pooling"
  bottom: "drop2"
  top: "pool2"
  pooling_param {
    pool: MAX
    kernel_size: 2
    stride: 2
  }
}
layer {
  name: "conv4"
  type: "Convolution"
  bottom: "pool2"
  top: "conv4"
  convolution_param {
    num_output: 240
    kernel_size: 1
    weight_filler {
      type: "xavier"
    }
  }
}
layer {
  name: "relu4"
  type: "ReLU"
  bottom: "conv4"
  top: "relu4"
  relu_param {
    negative_slope: 0.1
  }
}
layer {
  name: "conv5"
  type: "Convolution"
  bottom: "relu4"
  top: "conv5"
  convolution_param {
    num_output: 260
    kernel_size: 2
    weight_filler {
      type: "xavier"
    }
  }
}
layer {
  name: "relu5"
  type: "ReLU"
  bottom: "conv5"
  top: "relu5"
  relu_param {
    negative_slope: 0.1
  }
}
layer {
  name: "drop3"
  type: "Dropout"
  bottom: "relu5"
  top: "drop3"
  dropout_param {
    dropout_ratio: 0.2
  }
}
layer {
  name: "pool3"
  type: "Pooling"
  bottom: "drop3"
  top: "pool3"
  pooling_param {
    pool: MAX
    kernel_size: 2
    stride: 2
  }
}
layer {
  name: "conv6"
  type: "Convolution"
  bottom: "pool3"
  top: "conv6"
  convolution_param {
    num_output: 260
    kernel_size: 1
    weight_filler {
      type: "xavier"
    }
  }
}
layer {
  name: "relu6"
  type: "ReLU"
  bottom: "conv6"
  top: "relu6"
  relu_param {
    negative_slope: 0.1
  }
}
layer {
  name: "conv7"
  type: "Convolution"
  bottom: "relu6"
  top: "conv7"
  convolution_param {
    num_output: 280
    kernel_size: 2
    weight_filler {
      type: "xavier"
    }
  }
}
layer {
  name: "relu7"
  type: "ReLU"
  bottom: "conv7"
  top: "relu7"
  relu_param {
    negative_slope: 0.1
  }
}
layer {
  name: "drop4"
  type: "Dropout"
  bottom: "relu7"
  top: "drop4"
  dropout_param {
    dropout_ratio: 0.3
  }
}
layer {
  name: "pool4"
  type: "Pooling"
  bottom: "drop4"
  top: "pool4"
  pooling_param {
    pool: MAX
    kernel_size: 2
    stride: 2
  }
}
layer {
  name: "conv8"
  type: "Convolution"
  bottom: "pool4"
  top: "conv8"
  convolution_param {
    num_output: 280
    kernel_size: 1
    weight_filler {
      type: "xavier"
    }
  }
}
layer {
  name: "relu8"
  type: "ReLU"
  bottom: "conv8"
  top: "relu8"
  relu_param {
    negative_slope: 0.1
  }
}
layer {
  name: "drop5"
  type: "Dropout"
  bottom: "relu8"
  top: "drop5"
  dropout_param {
    dropout_ratio: 0.4
  }
}
layer {
  name: "pool5"
  type: "Pooling"
  bottom: "drop5"
  top: "pool5"
  pooling_param {
    pool: MAX
    kernel_size: 2
    stride: 2
  }
}
layer {
  name: "conv10"
  type: "Convolution"
  bottom: "pool5"
  top: "conv10"
  convolution_param {
    num_output: 300
    kernel_size: 1
    weight_filler {
      type: "xavier"
    }
  }
}
layer {
  name: "relu10"
  type: "ReLU"
  bottom: "conv10"
  top: "relu10"
  relu_param {
    negative_slope: 0.1
  }
}
layer {
  name: "drop6"
  type: "Dropout"
  bottom: "relu10"
  top: "drop6"
  dropout_param {
    dropout_ratio: 0.5
  }
}
layer {
  name: "pool6"
  type: "Pooling"
  bottom: "drop6"
  top: "pool6"
  pooling_param {
    pool: MAX
    kernel_size: 2
    stride: 2
  }
}
layer {
  name: "conv11"
  type: "Convolution"
  bottom: "pool6"
  top: "conv11"
  convolution_param {
    num_output: 100
    kernel_size: 1
    weight_filler {
      type: "xavier"
    }
  }
}
layer {
  name: "relu11"
  type: "ReLU"
  bottom: "conv11"
  top: "relu11"
  relu_param {
    negative_slope: 0.1
  }
}
layer {
  name: "drop7"
  type: "Dropout"
  bottom: "relu11"
  top: "drop7"
  dropout_param {
    dropout_ratio: 0
  }
}
layer {
  name: "pool7"
  type: "Pooling"
  bottom: "drop7"
  top: "pool7"
  pooling_param {
    pool: MAX
    kernel_size: 2
    stride: 2
  }
}
layer {
  name: "ip_c"
  type: "InnerProduct"
  bottom: "pool7"
  top: "ip_c"
  inner_product_param {
    num_output: 20
    weight_filler {
      type: "xavier"
    }
  }
}
layer {
  name: "accuracy_f"
  type: "Accuracy"
  bottom: "ip_c"
  bottom: "label_coarse"
  top: "accuracy_f"
}
layer {
  name: "loss_c"
  type: "SoftmaxWithLoss"
  bottom: "ip_c"
  bottom: "label_coarse"
  top: "loss_c"
}
layer {
  name: "ip_f"
  type: "InnerProduct"
  bottom: "pool7"
  top: "ip_f"
  inner_product_param {
    num_output: 100
    weight_filler {
      type: "xavier"
    }
  }
}
layer {
  name: "accuracy"
  type: "Accuracy"
  bottom: "ip_f"
  bottom: "label_fine"
  top: "accuracy"
}
layer {
  name: "loss_f"
  type: "SoftmaxWithLoss"
  bottom: "ip_f"
  bottom: "label_fine"
  top: "loss_f"
}
I1020 10:05:58.679389 12739 layer_factory.hpp:77] Creating layer data
I1020 10:05:58.679405 12739 net.cpp:100] Creating Layer data
I1020 10:05:58.679411 12739 net.cpp:408] data -> data
I1020 10:05:58.679425 12739 net.cpp:408] data -> label_coarse
I1020 10:05:58.679431 12739 net.cpp:408] data -> label_fine
I1020 10:05:58.679436 12739 hdf5_data_layer.cpp:79] Loading list of HDF5 filenames from: ../../../../data/cifar-100/cifar_100_caffe_hdf5/train.txt
I1020 10:05:58.679455 12739 hdf5_data_layer.cpp:93] Number of HDF5 files: 1
I1020 10:05:58.680068 12739 hdf5.cpp:35] Datatype class: H5T_INTEGER
I1020 10:06:00.260661 12739 net.cpp:150] Setting up data
I1020 10:06:00.260687 12739 net.cpp:157] Top shape: 64 3 32 32 (196608)
I1020 10:06:00.260690 12739 net.cpp:157] Top shape: 64 (64)
I1020 10:06:00.260692 12739 net.cpp:157] Top shape: 64 (64)
I1020 10:06:00.260694 12739 net.cpp:165] Memory required for data: 786944
I1020 10:06:00.260700 12739 layer_factory.hpp:77] Creating layer label_coarse_data_1_split
I1020 10:06:00.260709 12739 net.cpp:100] Creating Layer label_coarse_data_1_split
I1020 10:06:00.260712 12739 net.cpp:434] label_coarse_data_1_split <- label_coarse
I1020 10:06:00.260722 12739 net.cpp:408] label_coarse_data_1_split -> label_coarse_data_1_split_0
I1020 10:06:00.260751 12739 net.cpp:408] label_coarse_data_1_split -> label_coarse_data_1_split_1
I1020 10:06:00.260776 12739 net.cpp:150] Setting up label_coarse_data_1_split
I1020 10:06:00.260781 12739 net.cpp:157] Top shape: 64 (64)
I1020 10:06:00.260783 12739 net.cpp:157] Top shape: 64 (64)
I1020 10:06:00.260784 12739 net.cpp:165] Memory required for data: 787456
I1020 10:06:00.260787 12739 layer_factory.hpp:77] Creating layer label_fine_data_2_split
I1020 10:06:00.260789 12739 net.cpp:100] Creating Layer label_fine_data_2_split
I1020 10:06:00.260792 12739 net.cpp:434] label_fine_data_2_split <- label_fine
I1020 10:06:00.260795 12739 net.cpp:408] label_fine_data_2_split -> label_fine_data_2_split_0
I1020 10:06:00.260799 12739 net.cpp:408] label_fine_data_2_split -> label_fine_data_2_split_1
I1020 10:06:00.260817 12739 net.cpp:150] Setting up label_fine_data_2_split
I1020 10:06:00.260823 12739 net.cpp:157] Top shape: 64 (64)
I1020 10:06:00.260825 12739 net.cpp:157] Top shape: 64 (64)
I1020 10:06:00.260828 12739 net.cpp:165] Memory required for data: 787968
I1020 10:06:00.260829 12739 layer_factory.hpp:77] Creating layer conv1
I1020 10:06:00.260841 12739 net.cpp:100] Creating Layer conv1
I1020 10:06:00.260843 12739 net.cpp:434] conv1 <- data
I1020 10:06:00.260846 12739 net.cpp:408] conv1 -> conv1
I1020 10:06:00.380326 12739 net.cpp:150] Setting up conv1
I1020 10:06:00.380353 12739 net.cpp:157] Top shape: 64 192 28 28 (9633792)
I1020 10:06:00.380355 12739 net.cpp:165] Memory required for data: 39323136
I1020 10:06:00.380373 12739 layer_factory.hpp:77] Creating layer relu1
I1020 10:06:00.380383 12739 net.cpp:100] Creating Layer relu1
I1020 10:06:00.380386 12739 net.cpp:434] relu1 <- conv1
I1020 10:06:00.380391 12739 net.cpp:408] relu1 -> relu1
I1020 10:06:00.380522 12739 net.cpp:150] Setting up relu1
I1020 10:06:00.380528 12739 net.cpp:157] Top shape: 64 192 28 28 (9633792)
I1020 10:06:00.380530 12739 net.cpp:165] Memory required for data: 77858304
I1020 10:06:00.380532 12739 layer_factory.hpp:77] Creating layer drop1
I1020 10:06:00.380537 12739 net.cpp:100] Creating Layer drop1
I1020 10:06:00.380538 12739 net.cpp:434] drop1 <- relu1
I1020 10:06:00.380542 12739 net.cpp:408] drop1 -> drop1
I1020 10:06:00.380568 12739 net.cpp:150] Setting up drop1
I1020 10:06:00.380573 12739 net.cpp:157] Top shape: 64 192 28 28 (9633792)
I1020 10:06:00.380573 12739 net.cpp:165] Memory required for data: 116393472
I1020 10:06:00.380576 12739 layer_factory.hpp:77] Creating layer pool1
I1020 10:06:00.380579 12739 net.cpp:100] Creating Layer pool1
I1020 10:06:00.380581 12739 net.cpp:434] pool1 <- drop1
I1020 10:06:00.380584 12739 net.cpp:408] pool1 -> pool1
I1020 10:06:00.380610 12739 net.cpp:150] Setting up pool1
I1020 10:06:00.380614 12739 net.cpp:157] Top shape: 64 192 14 14 (2408448)
I1020 10:06:00.380615 12739 net.cpp:165] Memory required for data: 126027264
I1020 10:06:00.380616 12739 layer_factory.hpp:77] Creating layer conv2
I1020 10:06:00.380623 12739 net.cpp:100] Creating Layer conv2
I1020 10:06:00.380625 12739 net.cpp:434] conv2 <- pool1
I1020 10:06:00.380630 12739 net.cpp:408] conv2 -> conv2
I1020 10:06:00.381424 12739 net.cpp:150] Setting up conv2
I1020 10:06:00.381433 12739 net.cpp:157] Top shape: 64 192 14 14 (2408448)
I1020 10:06:00.381434 12739 net.cpp:165] Memory required for data: 135661056
I1020 10:06:00.381439 12739 layer_factory.hpp:77] Creating layer relu2
I1020 10:06:00.381444 12739 net.cpp:100] Creating Layer relu2
I1020 10:06:00.381446 12739 net.cpp:434] relu2 <- conv2
I1020 10:06:00.381449 12739 net.cpp:408] relu2 -> relu2
I1020 10:06:00.381563 12739 net.cpp:150] Setting up relu2
I1020 10:06:00.381568 12739 net.cpp:157] Top shape: 64 192 14 14 (2408448)
I1020 10:06:00.381570 12739 net.cpp:165] Memory required for data: 145294848
I1020 10:06:00.381572 12739 layer_factory.hpp:77] Creating layer conv3
I1020 10:06:00.381577 12739 net.cpp:100] Creating Layer conv3
I1020 10:06:00.381578 12739 net.cpp:434] conv3 <- relu2
I1020 10:06:00.381582 12739 net.cpp:408] conv3 -> conv3
I1020 10:06:00.383981 12739 net.cpp:150] Setting up conv3
I1020 10:06:00.383998 12739 net.cpp:157] Top shape: 64 240 12 12 (2211840)
I1020 10:06:00.384001 12739 net.cpp:165] Memory required for data: 154142208
I1020 10:06:00.384006 12739 layer_factory.hpp:77] Creating layer relu3
I1020 10:06:00.384011 12739 net.cpp:100] Creating Layer relu3
I1020 10:06:00.384012 12739 net.cpp:434] relu3 <- conv3
I1020 10:06:00.384016 12739 net.cpp:408] relu3 -> relu3
I1020 10:06:00.384198 12739 net.cpp:150] Setting up relu3
I1020 10:06:00.384205 12739 net.cpp:157] Top shape: 64 240 12 12 (2211840)
I1020 10:06:00.384207 12739 net.cpp:165] Memory required for data: 162989568
I1020 10:06:00.384208 12739 layer_factory.hpp:77] Creating layer drop2
I1020 10:06:00.384212 12739 net.cpp:100] Creating Layer drop2
I1020 10:06:00.384214 12739 net.cpp:434] drop2 <- relu3
I1020 10:06:00.384217 12739 net.cpp:408] drop2 -> drop2
I1020 10:06:00.384238 12739 net.cpp:150] Setting up drop2
I1020 10:06:00.384241 12739 net.cpp:157] Top shape: 64 240 12 12 (2211840)
I1020 10:06:00.384243 12739 net.cpp:165] Memory required for data: 171836928
I1020 10:06:00.384245 12739 layer_factory.hpp:77] Creating layer pool2
I1020 10:06:00.384248 12739 net.cpp:100] Creating Layer pool2
I1020 10:06:00.384251 12739 net.cpp:434] pool2 <- drop2
I1020 10:06:00.384254 12739 net.cpp:408] pool2 -> pool2
I1020 10:06:00.384276 12739 net.cpp:150] Setting up pool2
I1020 10:06:00.384280 12739 net.cpp:157] Top shape: 64 240 6 6 (552960)
I1020 10:06:00.384282 12739 net.cpp:165] Memory required for data: 174048768
I1020 10:06:00.384284 12739 layer_factory.hpp:77] Creating layer conv4
I1020 10:06:00.384292 12739 net.cpp:100] Creating Layer conv4
I1020 10:06:00.384294 12739 net.cpp:434] conv4 <- pool2
I1020 10:06:00.384297 12739 net.cpp:408] conv4 -> conv4
I1020 10:06:00.385095 12739 net.cpp:150] Setting up conv4
I1020 10:06:00.385102 12739 net.cpp:157] Top shape: 64 240 6 6 (552960)
I1020 10:06:00.385104 12739 net.cpp:165] Memory required for data: 176260608
I1020 10:06:00.385108 12739 layer_factory.hpp:77] Creating layer relu4
I1020 10:06:00.385112 12739 net.cpp:100] Creating Layer relu4
I1020 10:06:00.385113 12739 net.cpp:434] relu4 <- conv4
I1020 10:06:00.385116 12739 net.cpp:408] relu4 -> relu4
I1020 10:06:00.385221 12739 net.cpp:150] Setting up relu4
I1020 10:06:00.385227 12739 net.cpp:157] Top shape: 64 240 6 6 (552960)
I1020 10:06:00.385228 12739 net.cpp:165] Memory required for data: 178472448
I1020 10:06:00.385231 12739 layer_factory.hpp:77] Creating layer conv5
I1020 10:06:00.385236 12739 net.cpp:100] Creating Layer conv5
I1020 10:06:00.385236 12739 net.cpp:434] conv5 <- relu4
I1020 10:06:00.385239 12739 net.cpp:408] conv5 -> conv5
I1020 10:06:00.386950 12739 net.cpp:150] Setting up conv5
I1020 10:06:00.386960 12739 net.cpp:157] Top shape: 64 260 5 5 (416000)
I1020 10:06:00.386961 12739 net.cpp:165] Memory required for data: 180136448
I1020 10:06:00.386966 12739 layer_factory.hpp:77] Creating layer relu5
I1020 10:06:00.386971 12739 net.cpp:100] Creating Layer relu5
I1020 10:06:00.386973 12739 net.cpp:434] relu5 <- conv5
I1020 10:06:00.386976 12739 net.cpp:408] relu5 -> relu5
I1020 10:06:00.387085 12739 net.cpp:150] Setting up relu5
I1020 10:06:00.387091 12739 net.cpp:157] Top shape: 64 260 5 5 (416000)
I1020 10:06:00.387094 12739 net.cpp:165] Memory required for data: 181800448
I1020 10:06:00.387095 12739 layer_factory.hpp:77] Creating layer drop3
I1020 10:06:00.387099 12739 net.cpp:100] Creating Layer drop3
I1020 10:06:00.387099 12739 net.cpp:434] drop3 <- relu5
I1020 10:06:00.387104 12739 net.cpp:408] drop3 -> drop3
I1020 10:06:00.387126 12739 net.cpp:150] Setting up drop3
I1020 10:06:00.387130 12739 net.cpp:157] Top shape: 64 260 5 5 (416000)
I1020 10:06:00.387131 12739 net.cpp:165] Memory required for data: 183464448
I1020 10:06:00.387133 12739 layer_factory.hpp:77] Creating layer pool3
I1020 10:06:00.387136 12739 net.cpp:100] Creating Layer pool3
I1020 10:06:00.387138 12739 net.cpp:434] pool3 <- drop3
I1020 10:06:00.387141 12739 net.cpp:408] pool3 -> pool3
I1020 10:06:00.387166 12739 net.cpp:150] Setting up pool3
I1020 10:06:00.387177 12739 net.cpp:157] Top shape: 64 260 3 3 (149760)
I1020 10:06:00.387179 12739 net.cpp:165] Memory required for data: 184063488
I1020 10:06:00.387181 12739 layer_factory.hpp:77] Creating layer conv6
I1020 10:06:00.387187 12739 net.cpp:100] Creating Layer conv6
I1020 10:06:00.387189 12739 net.cpp:434] conv6 <- pool3
I1020 10:06:00.387192 12739 net.cpp:408] conv6 -> conv6
I1020 10:06:00.388296 12739 net.cpp:150] Setting up conv6
I1020 10:06:00.388304 12739 net.cpp:157] Top shape: 64 260 3 3 (149760)
I1020 10:06:00.388306 12739 net.cpp:165] Memory required for data: 184662528
I1020 10:06:00.388310 12739 layer_factory.hpp:77] Creating layer relu6
I1020 10:06:00.388314 12739 net.cpp:100] Creating Layer relu6
I1020 10:06:00.388315 12739 net.cpp:434] relu6 <- conv6
I1020 10:06:00.388319 12739 net.cpp:408] relu6 -> relu6
I1020 10:06:00.388515 12739 net.cpp:150] Setting up relu6
I1020 10:06:00.388523 12739 net.cpp:157] Top shape: 64 260 3 3 (149760)
I1020 10:06:00.388525 12739 net.cpp:165] Memory required for data: 185261568
I1020 10:06:00.388527 12739 layer_factory.hpp:77] Creating layer conv7
I1020 10:06:00.388532 12739 net.cpp:100] Creating Layer conv7
I1020 10:06:00.388535 12739 net.cpp:434] conv7 <- relu6
I1020 10:06:00.388537 12739 net.cpp:408] conv7 -> conv7
I1020 10:06:00.390451 12739 net.cpp:150] Setting up conv7
I1020 10:06:00.390460 12739 net.cpp:157] Top shape: 64 280 2 2 (71680)
I1020 10:06:00.390462 12739 net.cpp:165] Memory required for data: 185548288
I1020 10:06:00.390466 12739 layer_factory.hpp:77] Creating layer relu7
I1020 10:06:00.390470 12739 net.cpp:100] Creating Layer relu7
I1020 10:06:00.390471 12739 net.cpp:434] relu7 <- conv7
I1020 10:06:00.390475 12739 net.cpp:408] relu7 -> relu7
I1020 10:06:00.390593 12739 net.cpp:150] Setting up relu7
I1020 10:06:00.390599 12739 net.cpp:157] Top shape: 64 280 2 2 (71680)
I1020 10:06:00.390600 12739 net.cpp:165] Memory required for data: 185835008
I1020 10:06:00.390601 12739 layer_factory.hpp:77] Creating layer drop4
I1020 10:06:00.390605 12739 net.cpp:100] Creating Layer drop4
I1020 10:06:00.390607 12739 net.cpp:434] drop4 <- relu7
I1020 10:06:00.390610 12739 net.cpp:408] drop4 -> drop4
I1020 10:06:00.390633 12739 net.cpp:150] Setting up drop4
I1020 10:06:00.390638 12739 net.cpp:157] Top shape: 64 280 2 2 (71680)
I1020 10:06:00.390640 12739 net.cpp:165] Memory required for data: 186121728
I1020 10:06:00.390641 12739 layer_factory.hpp:77] Creating layer pool4
I1020 10:06:00.390646 12739 net.cpp:100] Creating Layer pool4
I1020 10:06:00.390650 12739 net.cpp:434] pool4 <- drop4
I1020 10:06:00.390655 12739 net.cpp:408] pool4 -> pool4
I1020 10:06:00.390681 12739 net.cpp:150] Setting up pool4
I1020 10:06:00.390686 12739 net.cpp:157] Top shape: 64 280 1 1 (17920)
I1020 10:06:00.390688 12739 net.cpp:165] Memory required for data: 186193408
I1020 10:06:00.390689 12739 layer_factory.hpp:77] Creating layer conv8
I1020 10:06:00.390693 12739 net.cpp:100] Creating Layer conv8
I1020 10:06:00.390696 12739 net.cpp:434] conv8 <- pool4
I1020 10:06:00.390699 12739 net.cpp:408] conv8 -> conv8
I1020 10:06:00.391680 12739 net.cpp:150] Setting up conv8
I1020 10:06:00.391688 12739 net.cpp:157] Top shape: 64 280 1 1 (17920)
I1020 10:06:00.391690 12739 net.cpp:165] Memory required for data: 186265088
I1020 10:06:00.391695 12739 layer_factory.hpp:77] Creating layer relu8
I1020 10:06:00.391700 12739 net.cpp:100] Creating Layer relu8
I1020 10:06:00.391701 12739 net.cpp:434] relu8 <- conv8
I1020 10:06:00.391703 12739 net.cpp:408] relu8 -> relu8
I1020 10:06:00.391827 12739 net.cpp:150] Setting up relu8
I1020 10:06:00.391834 12739 net.cpp:157] Top shape: 64 280 1 1 (17920)
I1020 10:06:00.391835 12739 net.cpp:165] Memory required for data: 186336768
I1020 10:06:00.391837 12739 layer_factory.hpp:77] Creating layer drop5
I1020 10:06:00.391841 12739 net.cpp:100] Creating Layer drop5
I1020 10:06:00.391844 12739 net.cpp:434] drop5 <- relu8
I1020 10:06:00.391846 12739 net.cpp:408] drop5 -> drop5
I1020 10:06:00.391872 12739 net.cpp:150] Setting up drop5
I1020 10:06:00.391877 12739 net.cpp:157] Top shape: 64 280 1 1 (17920)
I1020 10:06:00.391887 12739 net.cpp:165] Memory required for data: 186408448
I1020 10:06:00.391890 12739 layer_factory.hpp:77] Creating layer pool5
I1020 10:06:00.391893 12739 net.cpp:100] Creating Layer pool5
I1020 10:06:00.391896 12739 net.cpp:434] pool5 <- drop5
I1020 10:06:00.391898 12739 net.cpp:408] pool5 -> pool5
I1020 10:06:00.391926 12739 net.cpp:150] Setting up pool5
I1020 10:06:00.391929 12739 net.cpp:157] Top shape: 64 280 1 1 (17920)
I1020 10:06:00.391932 12739 net.cpp:165] Memory required for data: 186480128
I1020 10:06:00.391934 12739 layer_factory.hpp:77] Creating layer conv10
I1020 10:06:00.391940 12739 net.cpp:100] Creating Layer conv10
I1020 10:06:00.391944 12739 net.cpp:434] conv10 <- pool5
I1020 10:06:00.391950 12739 net.cpp:408] conv10 -> conv10
I1020 10:06:00.392948 12739 net.cpp:150] Setting up conv10
I1020 10:06:00.392956 12739 net.cpp:157] Top shape: 64 300 1 1 (19200)
I1020 10:06:00.392959 12739 net.cpp:165] Memory required for data: 186556928
I1020 10:06:00.392969 12739 layer_factory.hpp:77] Creating layer relu10
I1020 10:06:00.392974 12739 net.cpp:100] Creating Layer relu10
I1020 10:06:00.392978 12739 net.cpp:434] relu10 <- conv10
I1020 10:06:00.392982 12739 net.cpp:408] relu10 -> relu10
I1020 10:06:00.393177 12739 net.cpp:150] Setting up relu10
I1020 10:06:00.393184 12739 net.cpp:157] Top shape: 64 300 1 1 (19200)
I1020 10:06:00.393187 12739 net.cpp:165] Memory required for data: 186633728
I1020 10:06:00.393188 12739 layer_factory.hpp:77] Creating layer drop6
I1020 10:06:00.393193 12739 net.cpp:100] Creating Layer drop6
I1020 10:06:00.393195 12739 net.cpp:434] drop6 <- relu10
I1020 10:06:00.393198 12739 net.cpp:408] drop6 -> drop6
I1020 10:06:00.393221 12739 net.cpp:150] Setting up drop6
I1020 10:06:00.393226 12739 net.cpp:157] Top shape: 64 300 1 1 (19200)
I1020 10:06:00.393227 12739 net.cpp:165] Memory required for data: 186710528
I1020 10:06:00.393229 12739 layer_factory.hpp:77] Creating layer pool6
I1020 10:06:00.393236 12739 net.cpp:100] Creating Layer pool6
I1020 10:06:00.393239 12739 net.cpp:434] pool6 <- drop6
I1020 10:06:00.393242 12739 net.cpp:408] pool6 -> pool6
I1020 10:06:00.393266 12739 net.cpp:150] Setting up pool6
I1020 10:06:00.393270 12739 net.cpp:157] Top shape: 64 300 1 1 (19200)
I1020 10:06:00.393272 12739 net.cpp:165] Memory required for data: 186787328
I1020 10:06:00.393273 12739 layer_factory.hpp:77] Creating layer conv11
I1020 10:06:00.393278 12739 net.cpp:100] Creating Layer conv11
I1020 10:06:00.393281 12739 net.cpp:434] conv11 <- pool6
I1020 10:06:00.393285 12739 net.cpp:408] conv11 -> conv11
I1020 10:06:00.394368 12739 net.cpp:150] Setting up conv11
I1020 10:06:00.394376 12739 net.cpp:157] Top shape: 64 100 1 1 (6400)
I1020 10:06:00.394378 12739 net.cpp:165] Memory required for data: 186812928
I1020 10:06:00.394382 12739 layer_factory.hpp:77] Creating layer relu11
I1020 10:06:00.394385 12739 net.cpp:100] Creating Layer relu11
I1020 10:06:00.394387 12739 net.cpp:434] relu11 <- conv11
I1020 10:06:00.394390 12739 net.cpp:408] relu11 -> relu11
I1020 10:06:00.394511 12739 net.cpp:150] Setting up relu11
I1020 10:06:00.394517 12739 net.cpp:157] Top shape: 64 100 1 1 (6400)
I1020 10:06:00.394520 12739 net.cpp:165] Memory required for data: 186838528
I1020 10:06:00.394521 12739 layer_factory.hpp:77] Creating layer drop7
I1020 10:06:00.394525 12739 net.cpp:100] Creating Layer drop7
I1020 10:06:00.394526 12739 net.cpp:434] drop7 <- relu11
I1020 10:06:00.394531 12739 net.cpp:408] drop7 -> drop7
I1020 10:06:00.394554 12739 net.cpp:150] Setting up drop7
I1020 10:06:00.394561 12739 net.cpp:157] Top shape: 64 100 1 1 (6400)
I1020 10:06:00.394562 12739 net.cpp:165] Memory required for data: 186864128
I1020 10:06:00.394563 12739 layer_factory.hpp:77] Creating layer pool7
I1020 10:06:00.394567 12739 net.cpp:100] Creating Layer pool7
I1020 10:06:00.394572 12739 net.cpp:434] pool7 <- drop7
I1020 10:06:00.394574 12739 net.cpp:408] pool7 -> pool7
I1020 10:06:00.394598 12739 net.cpp:150] Setting up pool7
I1020 10:06:00.394603 12739 net.cpp:157] Top shape: 64 100 1 1 (6400)
I1020 10:06:00.394613 12739 net.cpp:165] Memory required for data: 186889728
I1020 10:06:00.394613 12739 layer_factory.hpp:77] Creating layer pool7_pool7_0_split
I1020 10:06:00.394618 12739 net.cpp:100] Creating Layer pool7_pool7_0_split
I1020 10:06:00.394620 12739 net.cpp:434] pool7_pool7_0_split <- pool7
I1020 10:06:00.394623 12739 net.cpp:408] pool7_pool7_0_split -> pool7_pool7_0_split_0
I1020 10:06:00.394628 12739 net.cpp:408] pool7_pool7_0_split -> pool7_pool7_0_split_1
I1020 10:06:00.394652 12739 net.cpp:150] Setting up pool7_pool7_0_split
I1020 10:06:00.394656 12739 net.cpp:157] Top shape: 64 100 1 1 (6400)
I1020 10:06:00.394661 12739 net.cpp:157] Top shape: 64 100 1 1 (6400)
I1020 10:06:00.394665 12739 net.cpp:165] Memory required for data: 186940928
I1020 10:06:00.394667 12739 layer_factory.hpp:77] Creating layer ip_c
I1020 10:06:00.394673 12739 net.cpp:100] Creating Layer ip_c
I1020 10:06:00.394677 12739 net.cpp:434] ip_c <- pool7_pool7_0_split_0
I1020 10:06:00.394681 12739 net.cpp:408] ip_c -> ip_c
I1020 10:06:00.395021 12739 net.cpp:150] Setting up ip_c
I1020 10:06:00.395028 12739 net.cpp:157] Top shape: 64 20 (1280)
I1020 10:06:00.395031 12739 net.cpp:165] Memory required for data: 186946048
I1020 10:06:00.395035 12739 layer_factory.hpp:77] Creating layer ip_c_ip_c_0_split
I1020 10:06:00.395038 12739 net.cpp:100] Creating Layer ip_c_ip_c_0_split
I1020 10:06:00.395041 12739 net.cpp:434] ip_c_ip_c_0_split <- ip_c
I1020 10:06:00.395045 12739 net.cpp:408] ip_c_ip_c_0_split -> ip_c_ip_c_0_split_0
I1020 10:06:00.395050 12739 net.cpp:408] ip_c_ip_c_0_split -> ip_c_ip_c_0_split_1
I1020 10:06:00.395073 12739 net.cpp:150] Setting up ip_c_ip_c_0_split
I1020 10:06:00.395076 12739 net.cpp:157] Top shape: 64 20 (1280)
I1020 10:06:00.395081 12739 net.cpp:157] Top shape: 64 20 (1280)
I1020 10:06:00.395081 12739 net.cpp:165] Memory required for data: 186956288
I1020 10:06:00.395084 12739 layer_factory.hpp:77] Creating layer accuracy_f
I1020 10:06:00.395087 12739 net.cpp:100] Creating Layer accuracy_f
I1020 10:06:00.395090 12739 net.cpp:434] accuracy_f <- ip_c_ip_c_0_split_0
I1020 10:06:00.395092 12739 net.cpp:434] accuracy_f <- label_coarse_data_1_split_0
I1020 10:06:00.395097 12739 net.cpp:408] accuracy_f -> accuracy_f
…
I1020 10:06:00.396031 12739 net.cpp:283] Network initialization done.
I1020 10:06:00.396231 12739 solver.cpp:181] Creating test net (#0) specified by test_net file: /home/adam/Honours/Honours-Project/cifar-100_pooling/max/leakyrelu/poolcnn_leakyrelu_test.prototxt
I1020 10:06:00.396361 12739 net.cpp:58] Initializing net from parameters: 
state {
  phase: TEST
}
layer {
  name: "data"
  type: "HDF5Data"
  top: "data"
  top: "label_coarse"
  top: "label_fine"
  hdf5_data_param {
    source: "../../../../data/cifar-100/cifar_100_caffe_hdf5/test.txt"
    batch_size: 100
  }
}
layer {
  name: "conv1"
  type: "Convolution"
  bottom: "data"
  top: "conv1"
  convolution_param {
    num_output: 192
    kernel_size: 5
    weight_filler {
      type: "xavier"
    }
  }
}
layer {
  name: "relu1"
  type: "ReLU"
  bottom: "conv1"
  top: "relu1"
  relu_param {
    negative_slope: 0.1
  }
}
layer {
  name: "drop1"
  type: "Dropout"
  bottom: "relu1"
  top: "drop1"
  dropout_param {
    dropout_ratio: 0
  }
}
layer {
  name: "pool1"
  type: "Pooling"
  bottom: "drop1"
  top: "pool1"
  pooling_param {
    pool: MAX
    kernel_size: 2
    stride: 2
  }
}
layer {
  name: "conv2"
  type: "Convolution"
  bottom: "pool1"
  top: "conv2"
  convolution_param {
    num_output: 192
    kernel_size: 1
    weight_filler {
      type: "xavier"
    }
  }
}
layer {
  name: "relu2"
  type: "ReLU"
  bottom: "conv2"
  top: "relu2"
  relu_param {
    negative_slope: 0.1
  }
}
layer {
  name: "conv3"
  type: "Convolution"
  bottom: "relu2"
  top: "conv3"
  convolution_param {
    num_output: 240
    kernel_size: 3
    weight_filler {
      type: "xavier"
    }
  }
}
layer {
  name: "relu3"
  type: "ReLU"
  bottom: "conv3"
  top: "relu3"
  relu_param {
    negative_slope: 0.1
  }
}
layer {
  name: "drop2"
  type: "Dropout"
  bottom: "relu3"
  top: "drop2"
  dropout_param {
    dropout_ratio: 0.1
  }
}
layer {
  name: "pool2"
  type: "Pooling"
  bottom: "drop2"
  top: "pool2"
  pooling_param {
    pool: MAX
    kernel_size: 2
    stride: 2
  }
}
layer {
  name: "conv4"
  type: "Convolution"
  bottom: "pool2"
  top: "conv4"
  convolution_param {
    num_output: 240
    kernel_size: 1
    weight_filler {
      type: "xavier"
    }
  }
}
layer {
  name: "relu4"
  type: "ReLU"
  bottom: "conv4"
  top: "relu4"
  relu_param {
    negative_slope: 0.1
  }
}
layer {
  name: "conv5"
  type: "Convolution"
  bottom: "relu4"
  top: "conv5"
  convolution_param {
    num_output: 260
    kernel_size: 2
    weight_filler {
      type: "xavier"
    }
  }
}
layer {
  name: "relu5"
  type: "ReLU"
  bottom: "conv5"
  top: "relu5"
  relu_param {
    negative_slope: 0.1
  }
}
layer {
  name: "drop3"
  type: "Dropout"
  bottom: "relu5"
  top: "drop3"
  dropout_param {
    dropout_ratio: 0.2
  }
}
layer {
  name: "pool3"
  type: "Pooling"
  bottom: "drop3"
  top: "pool3"
  pooling_param {
    pool: MAX
    kernel_size: 2
    stride: 2
  }
}
layer {
  name: "conv6"
  type: "Convolution"
  bottom: "pool3"
  top: "conv6"
  convolution_param {
    num_output: 260
    kernel_size: 1
    weight_filler {
      type: "xavier"
    }
  }
}
layer {
  name: "relu6"
  type: "ReLU"
  bottom: "conv6"
  top: "relu6"
  relu_param {
    negative_slope: 0.1
  }
}
layer {
  name: "conv7"
  type: "Convolution"
  bottom: "relu6"
  top: "conv7"
  convolution_param {
    num_output: 280
    kernel_size: 2
    weight_filler {
      type: "xavier"
    }
  }
}
layer {
  name: "relu7"
  type: "ReLU"
  bottom: "conv7"
  top: "relu7"
  relu_param {
    negative_slope: 0.1
  }
}
layer {
  name: "drop4"
  type: "Dropout"
  bottom: "relu7"
  top: "drop4"
  dropout_param {
    dropout_ratio: 0.3
  }
}
layer {
  name: "pool4"
  type: "Pooling"
  bottom: "drop4"
  top: "pool4"
  pooling_param {
    pool: MAX
    kernel_size: 2
    stride: 2
  }
}
layer {
  name: "conv8"
  type: "Convolution"
  bottom: "pool4"
  top: "conv8"
  convolution_param {
    num_output: 280
    kernel_size: 1
    weight_filler {
      type: "xavier"
    }
  }
}
layer {
  name: "relu8"
  type: "ReLU"
  bottom: "conv8"
  top: "relu8"
  relu_param {
    negative_slope: 0.1
  }
}
layer {
  name: "drop5"
  type: "Dropout"
  bottom: "relu8"
  top: "drop5"
  dropout_param {
    dropout_ratio: 0.4
  }
}
layer {
  name: "pool5"
  type: "Pooling"
  bottom: "drop5"
  top: "pool5"
  pooling_param {
    pool: MAX
    kernel_size: 2
    stride: 2
  }
}
layer {
  name: "conv10"
  type: "Convolution"
  bottom: "pool5"
  top: "conv10"
  convolution_param {
    num_output: 300
    kernel_size: 1
    weight_filler {
      type: "xavier"
    }
  }
}
layer {
  name: "relu10"
  type: "ReLU"
  bottom: "conv10"
  top: "relu10"
  relu_param {
    negative_slope: 0.1
  }
}
layer {
  name: "drop6"
  type: "Dropout"
  bottom: "relu10"
  top: "drop6"
  dropout_param {
    dropout_ratio: 0.5
  }
}
layer {
  name: "pool6"
  type: "Pooling"
  bottom: "drop6"
  top: "pool6"
  pooling_param {
    pool: MAX
    kernel_size: 2
    stride: 2
  }
}
layer {
  name: "conv11"
  type: "Convolution"
  bottom: "pool6"
  top: "conv11"
  convolution_param {
    num_output: 100
    kernel_size: 1
    weight_filler {
      type: "xavier"
    }
  }
}
layer {
  name: "relu11"
  type: "ReLU"
  bottom: "conv11"
  top: "relu11"
  relu_param {
    negative_slope: 0.1
  }
}
layer {
  name: "drop7"
  type: "Dropout"
  bottom: "relu11"
  top: "drop7"
  dropout_param {
    dropout_ratio: 0
  }
}
layer {
  name: "pool7"
  type: "Pooling"
  bottom: "drop7"
  top: "pool7"
  pooling_param {
    pool: MAX
    kernel_size: 2
    stride: 2
  }
}
layer {
  name: "ip_c"
  type: "InnerProduct"
  bottom: "pool7"
  top: "ip_c"
  inner_product_param {
    num_output: 20
    weight_filler {
      type: "xavier"
    }
  }
}
layer {
  name: "accuracy_f"
  type: "Accuracy"
  bottom: "ip_c"
  bottom: "label_coarse"
  top: "accuracy_f"
}
layer {
  name: "loss_c"
  type: "SoftmaxWithLoss"
  bottom: "ip_c"
  bottom: "label_coarse"
  top: "loss_c"
}
layer {
  name: "ip_f"
  type: "InnerProduct"
  bottom: "pool7"
  top: "ip_f"
  inner_product_param {
    num_output: 100
    weight_filler {
      type: "xavier"
    }
  }
}
layer {
  name: "accuracy"
  type: "Accuracy"
  bottom: "ip_f"
  bottom: "label_fine"
  top: "accuracy"
}
layer {
  name: "loss_f"
  type: "SoftmaxWithLoss"
  bottom: "ip_f"
  bottom: "label_fine"
  top: "loss_f"
}
I1020 10:06:00.396481 12739 layer_factory.hpp:77] Creating layer data
I1020 10:06:00.396488 12739 net.cpp:100] Creating Layer data
I1020 10:06:00.396493 12739 net.cpp:408] data -> data
I1020 10:06:00.396499 12739 net.cpp:408] data -> label_coarse
I1020 10:06:00.396504 12739 net.cpp:408] data -> label_fine
I1020 10:06:00.396510 12739 hdf5_data_layer.cpp:79] Loading list of HDF5 filenames from: ../../../../data/cifar-100/cifar_100_caffe_hdf5/test.txt
I1020 10:06:00.396528 12739 hdf5_data_layer.cpp:93] Number of HDF5 files: 1
I1020 10:06:00.649895 12739 net.cpp:150] Setting up data
I1020 10:06:00.649919 12739 net.cpp:157] Top shape: 100 3 32 32 (307200)
I1020 10:06:00.649940 12739 net.cpp:157] Top shape: 100 (100)
I1020 10:06:00.649943 12739 net.cpp:157] Top shape: 100 (100)
I1020 10:06:00.649945 12739 net.cpp:165] Memory required for data: 1229600
I1020 10:06:00.649950 12739 layer_factory.hpp:77] Creating layer label_coarse_data_1_split
I1020 10:06:00.649963 12739 net.cpp:100] Creating Layer label_coarse_data_1_split
I1020 10:06:00.649967 12739 net.cpp:434] label_coarse_data_1_split <- label_coarse
I1020 10:06:00.649976 12739 net.cpp:408] label_coarse_data_1_split -> label_coarse_data_1_split_0
I1020 10:06:00.649983 12739 net.cpp:408] label_coarse_data_1_split -> label_coarse_data_1_split_1
I1020 10:06:00.650012 12739 net.cpp:150] Setting up label_coarse_data_1_split
I1020 10:06:00.650017 12739 net.cpp:157] Top shape: 100 (100)
I1020 10:06:00.650018 12739 net.cpp:157] Top shape: 100 (100)
I1020 10:06:00.650020 12739 net.cpp:165] Memory required for data: 1230400
I1020 10:06:00.650022 12739 layer_factory.hpp:77] Creating layer label_fine_data_2_split
I1020 10:06:00.650025 12739 net.cpp:100] Creating Layer label_fine_data_2_split
I1020 10:06:00.650027 12739 net.cpp:434] label_fine_data_2_split <- label_fine
I1020 10:06:00.650032 12739 net.cpp:408] label_fine_data_2_split -> label_fine_data_2_split_0
I1020 10:06:00.650035 12739 net.cpp:408] label_fine_data_2_split -> label_fine_data_2_split_1
I1020 10:06:00.650058 12739 net.cpp:150] Setting up label_fine_data_2_split
I1020 10:06:00.650061 12739 net.cpp:157] Top shape: 100 (100)
I1020 10:06:00.650063 12739 net.cpp:157] Top shape: 100 (100)
I1020 10:06:00.650064 12739 net.cpp:165] Memory required for data: 1231200
I1020 10:06:00.650066 12739 layer_factory.hpp:77] Creating layer conv1
I1020 10:06:00.650074 12739 net.cpp:100] Creating Layer conv1
I1020 10:06:00.650076 12739 net.cpp:434] conv1 <- data
I1020 10:06:00.650080 12739 net.cpp:408] conv1 -> conv1
I1020 10:06:00.650902 12739 net.cpp:150] Setting up conv1
I1020 10:06:00.650910 12739 net.cpp:157] Top shape: 100 192 28 28 (15052800)
I1020 10:06:00.650913 12739 net.cpp:165] Memory required for data: 61442400
I1020 10:06:00.650919 12739 layer_factory.hpp:77] Creating layer relu1
I1020 10:06:00.650925 12739 net.cpp:100] Creating Layer relu1
I1020 10:06:00.650928 12739 net.cpp:434] relu1 <- conv1
I1020 10:06:00.650931 12739 net.cpp:408] relu1 -> relu1
I1020 10:06:00.651051 12739 net.cpp:150] Setting up relu1
I1020 10:06:00.651057 12739 net.cpp:157] Top shape: 100 192 28 28 (15052800)
I1020 10:06:00.651058 12739 net.cpp:165] Memory required for data: 121653600
I1020 10:06:00.651060 12739 layer_factory.hpp:77] Creating layer drop1
I1020 10:06:00.651065 12739 net.cpp:100] Creating Layer drop1
I1020 10:06:00.651068 12739 net.cpp:434] drop1 <- relu1
I1020 10:06:00.651072 12739 net.cpp:408] drop1 -> drop1
I1020 10:06:00.651094 12739 net.cpp:150] Setting up drop1
I1020 10:06:00.651099 12739 net.cpp:157] Top shape: 100 192 28 28 (15052800)
I1020 10:06:00.651101 12739 net.cpp:165] Memory required for data: 181864800
I1020 10:06:00.651103 12739 layer_factory.hpp:77] Creating layer pool1
I1020 10:06:00.651106 12739 net.cpp:100] Creating Layer pool1
I1020 10:06:00.651109 12739 net.cpp:434] pool1 <- drop1
I1020 10:06:00.651113 12739 net.cpp:408] pool1 -> pool1
I1020 10:06:00.651135 12739 net.cpp:150] Setting up pool1
I1020 10:06:00.651139 12739 net.cpp:157] Top shape: 100 192 14 14 (3763200)
I1020 10:06:00.651142 12739 net.cpp:165] Memory required for data: 196917600
I1020 10:06:00.651144 12739 layer_factory.hpp:77] Creating layer conv2
I1020 10:06:00.651149 12739 net.cpp:100] Creating Layer conv2
I1020 10:06:00.651154 12739 net.cpp:434] conv2 <- pool1
I1020 10:06:00.651159 12739 net.cpp:408] conv2 -> conv2
I1020 10:06:00.651926 12739 net.cpp:150] Setting up conv2
I1020 10:06:00.651934 12739 net.cpp:157] Top shape: 100 192 14 14 (3763200)
I1020 10:06:00.651937 12739 net.cpp:165] Memory required for data: 211970400
I1020 10:06:00.651942 12739 layer_factory.hpp:77] Creating layer relu2
I1020 10:06:00.651947 12739 net.cpp:100] Creating Layer relu2
I1020 10:06:00.651949 12739 net.cpp:434] relu2 <- conv2
I1020 10:06:00.651962 12739 net.cpp:408] relu2 -> relu2
I1020 10:06:00.652158 12739 net.cpp:150] Setting up relu2
I1020 10:06:00.652165 12739 net.cpp:157] Top shape: 100 192 14 14 (3763200)
I1020 10:06:00.652168 12739 net.cpp:165] Memory required for data: 227023200
I1020 10:06:00.652169 12739 layer_factory.hpp:77] Creating layer conv3
I1020 10:06:00.652175 12739 net.cpp:100] Creating Layer conv3
I1020 10:06:00.652179 12739 net.cpp:434] conv3 <- relu2
I1020 10:06:00.652181 12739 net.cpp:408] conv3 -> conv3
I1020 10:06:00.654649 12739 net.cpp:150] Setting up conv3
I1020 10:06:00.654659 12739 net.cpp:157] Top shape: 100 240 12 12 (3456000)
I1020 10:06:00.654661 12739 net.cpp:165] Memory required for data: 240847200
I1020 10:06:00.654666 12739 layer_factory.hpp:77] Creating layer relu3
I1020 10:06:00.654670 12739 net.cpp:100] Creating Layer relu3
I1020 10:06:00.654673 12739 net.cpp:434] relu3 <- conv3
I1020 10:06:00.654676 12739 net.cpp:408] relu3 -> relu3
I1020 10:06:00.654790 12739 net.cpp:150] Setting up relu3
I1020 10:06:00.654795 12739 net.cpp:157] Top shape: 100 240 12 12 (3456000)
I1020 10:06:00.654798 12739 net.cpp:165] Memory required for data: 254671200
I1020 10:06:00.654800 12739 layer_factory.hpp:77] Creating layer drop2
I1020 10:06:00.654803 12739 net.cpp:100] Creating Layer drop2
I1020 10:06:00.654806 12739 net.cpp:434] drop2 <- relu3
I1020 10:06:00.654809 12739 net.cpp:408] drop2 -> drop2
I1020 10:06:00.654832 12739 net.cpp:150] Setting up drop2
I1020 10:06:00.654836 12739 net.cpp:157] Top shape: 100 240 12 12 (3456000)
I1020 10:06:00.654839 12739 net.cpp:165] Memory required for data: 268495200
I1020 10:06:00.654841 12739 layer_factory.hpp:77] Creating layer pool2
I1020 10:06:00.654844 12739 net.cpp:100] Creating Layer pool2
I1020 10:06:00.654847 12739 net.cpp:434] pool2 <- drop2
I1020 10:06:00.654850 12739 net.cpp:408] pool2 -> pool2
I1020 10:06:00.654875 12739 net.cpp:150] Setting up pool2
I1020 10:06:00.654878 12739 net.cpp:157] Top shape: 100 240 6 6 (864000)
I1020 10:06:00.654881 12739 net.cpp:165] Memory required for data: 271951200
I1020 10:06:00.654882 12739 layer_factory.hpp:77] Creating layer conv4
I1020 10:06:00.654888 12739 net.cpp:100] Creating Layer conv4
I1020 10:06:00.654891 12739 net.cpp:434] conv4 <- pool2
I1020 10:06:00.654896 12739 net.cpp:408] conv4 -> conv4
I1020 10:06:00.655967 12739 net.cpp:150] Setting up conv4
I1020 10:06:00.655977 12739 net.cpp:157] Top shape: 100 240 6 6 (864000)
I1020 10:06:00.655978 12739 net.cpp:165] Memory required for data: 275407200
I1020 10:06:00.655983 12739 layer_factory.hpp:77] Creating layer relu4
I1020 10:06:00.655987 12739 net.cpp:100] Creating Layer relu4
I1020 10:06:00.655990 12739 net.cpp:434] relu4 <- conv4
I1020 10:06:00.655993 12739 net.cpp:408] relu4 -> relu4
I1020 10:06:00.656107 12739 net.cpp:150] Setting up relu4
I1020 10:06:00.656112 12739 net.cpp:157] Top shape: 100 240 6 6 (864000)
I1020 10:06:00.656116 12739 net.cpp:165] Memory required for data: 278863200
I1020 10:06:00.656117 12739 layer_factory.hpp:77] Creating layer conv5
I1020 10:06:00.656122 12739 net.cpp:100] Creating Layer conv5
I1020 10:06:00.656124 12739 net.cpp:434] conv5 <- relu4
I1020 10:06:00.656128 12739 net.cpp:408] conv5 -> conv5
I1020 10:06:00.657901 12739 net.cpp:150] Setting up conv5
I1020 10:06:00.657908 12739 net.cpp:157] Top shape: 100 260 5 5 (650000)
I1020 10:06:00.657910 12739 net.cpp:165] Memory required for data: 281463200
I1020 10:06:00.657917 12739 layer_factory.hpp:77] Creating layer relu5
I1020 10:06:00.657922 12739 net.cpp:100] Creating Layer relu5
I1020 10:06:00.657925 12739 net.cpp:434] relu5 <- conv5
I1020 10:06:00.657928 12739 net.cpp:408] relu5 -> relu5
I1020 10:06:00.658192 12739 net.cpp:150] Setting up relu5
I1020 10:06:00.658200 12739 net.cpp:157] Top shape: 100 260 5 5 (650000)
I1020 10:06:00.658201 12739 net.cpp:165] Memory required for data: 284063200
I1020 10:06:00.658203 12739 layer_factory.hpp:77] Creating layer drop3
I1020 10:06:00.658208 12739 net.cpp:100] Creating Layer drop3
I1020 10:06:00.658210 12739 net.cpp:434] drop3 <- relu5
I1020 10:06:00.658222 12739 net.cpp:408] drop3 -> drop3
I1020 10:06:00.658248 12739 net.cpp:150] Setting up drop3
I1020 10:06:00.658253 12739 net.cpp:157] Top shape: 100 260 5 5 (650000)
I1020 10:06:00.658255 12739 net.cpp:165] Memory required for data: 286663200
I1020 10:06:00.658257 12739 layer_factory.hpp:77] Creating layer pool3
I1020 10:06:00.658260 12739 net.cpp:100] Creating Layer pool3
I1020 10:06:00.658263 12739 net.cpp:434] pool3 <- drop3
I1020 10:06:00.658267 12739 net.cpp:408] pool3 -> pool3
I1020 10:06:00.658289 12739 net.cpp:150] Setting up pool3
I1020 10:06:00.658293 12739 net.cpp:157] Top shape: 100 260 3 3 (234000)
I1020 10:06:00.658295 12739 net.cpp:165] Memory required for data: 287599200
I1020 10:06:00.658298 12739 layer_factory.hpp:77] Creating layer conv6
I1020 10:06:00.658301 12739 net.cpp:100] Creating Layer conv6
I1020 10:06:00.658304 12739 net.cpp:434] conv6 <- pool3
I1020 10:06:00.658308 12739 net.cpp:408] conv6 -> conv6
I1020 10:06:00.659432 12739 net.cpp:150] Setting up conv6
I1020 10:06:00.659440 12739 net.cpp:157] Top shape: 100 260 3 3 (234000)
I1020 10:06:00.659442 12739 net.cpp:165] Memory required for data: 288535200
I1020 10:06:00.659447 12739 layer_factory.hpp:77] Creating layer relu6
I1020 10:06:00.659451 12739 net.cpp:100] Creating Layer relu6
I1020 10:06:00.659453 12739 net.cpp:434] relu6 <- conv6
I1020 10:06:00.659457 12739 net.cpp:408] relu6 -> relu6
I1020 10:06:00.659572 12739 net.cpp:150] Setting up relu6
I1020 10:06:00.659577 12739 net.cpp:157] Top shape: 100 260 3 3 (234000)
I1020 10:06:00.659580 12739 net.cpp:165] Memory required for data: 289471200
I1020 10:06:00.659581 12739 layer_factory.hpp:77] Creating layer conv7
I1020 10:06:00.659587 12739 net.cpp:100] Creating Layer conv7
I1020 10:06:00.659590 12739 net.cpp:434] conv7 <- relu6
I1020 10:06:00.659592 12739 net.cpp:408] conv7 -> conv7
I1020 10:06:00.661527 12739 net.cpp:150] Setting up conv7
I1020 10:06:00.661537 12739 net.cpp:157] Top shape: 100 280 2 2 (112000)
I1020 10:06:00.661540 12739 net.cpp:165] Memory required for data: 289919200
I1020 10:06:00.661542 12739 layer_factory.hpp:77] Creating layer relu7
I1020 10:06:00.661547 12739 net.cpp:100] Creating Layer relu7
I1020 10:06:00.661550 12739 net.cpp:434] relu7 <- conv7
I1020 10:06:00.661553 12739 net.cpp:408] relu7 -> relu7
I1020 10:06:00.661669 12739 net.cpp:150] Setting up relu7
I1020 10:06:00.661674 12739 net.cpp:157] Top shape: 100 280 2 2 (112000)
I1020 10:06:00.661676 12739 net.cpp:165] Memory required for data: 290367200
I1020 10:06:00.661679 12739 layer_factory.hpp:77] Creating layer drop4
I1020 10:06:00.661684 12739 net.cpp:100] Creating Layer drop4
I1020 10:06:00.661685 12739 net.cpp:434] drop4 <- relu7
I1020 10:06:00.661689 12739 net.cpp:408] drop4 -> drop4
I1020 10:06:00.661713 12739 net.cpp:150] Setting up drop4
I1020 10:06:00.661717 12739 net.cpp:157] Top shape: 100 280 2 2 (112000)
I1020 10:06:00.661720 12739 net.cpp:165] Memory required for data: 290815200
I1020 10:06:00.661721 12739 layer_factory.hpp:77] Creating layer pool4
I1020 10:06:00.661725 12739 net.cpp:100] Creating Layer pool4
I1020 10:06:00.661726 12739 net.cpp:434] pool4 <- drop4
I1020 10:06:00.661730 12739 net.cpp:408] pool4 -> pool4
I1020 10:06:00.661754 12739 net.cpp:150] Setting up pool4
I1020 10:06:00.661758 12739 net.cpp:157] Top shape: 100 280 1 1 (28000)
I1020 10:06:00.661761 12739 net.cpp:165] Memory required for data: 290927200
I1020 10:06:00.661762 12739 layer_factory.hpp:77] Creating layer conv8
I1020 10:06:00.661767 12739 net.cpp:100] Creating Layer conv8
I1020 10:06:00.661769 12739 net.cpp:434] conv8 <- pool4
I1020 10:06:00.661772 12739 net.cpp:408] conv8 -> conv8
I1020 10:06:00.662734 12739 net.cpp:150] Setting up conv8
I1020 10:06:00.662744 12739 net.cpp:157] Top shape: 100 280 1 1 (28000)
I1020 10:06:00.662745 12739 net.cpp:165] Memory required for data: 291039200
I1020 10:06:00.662749 12739 layer_factory.hpp:77] Creating layer relu8
I1020 10:06:00.662753 12739 net.cpp:100] Creating Layer relu8
I1020 10:06:00.662756 12739 net.cpp:434] relu8 <- conv8
I1020 10:06:00.662770 12739 net.cpp:408] relu8 -> relu8
I1020 10:06:00.662963 12739 net.cpp:150] Setting up relu8
I1020 10:06:00.662971 12739 net.cpp:157] Top shape: 100 280 1 1 (28000)
I1020 10:06:00.662972 12739 net.cpp:165] Memory required for data: 291151200
I1020 10:06:00.662976 12739 layer_factory.hpp:77] Creating layer drop5
I1020 10:06:00.662979 12739 net.cpp:100] Creating Layer drop5
I1020 10:06:00.662983 12739 net.cpp:434] drop5 <- relu8
I1020 10:06:00.662987 12739 net.cpp:408] drop5 -> drop5
I1020 10:06:00.663012 12739 net.cpp:150] Setting up drop5
I1020 10:06:00.663017 12739 net.cpp:157] Top shape: 100 280 1 1 (28000)
I1020 10:06:00.663018 12739 net.cpp:165] Memory required for data: 291263200
I1020 10:06:00.663020 12739 layer_factory.hpp:77] Creating layer pool5
I1020 10:06:00.663023 12739 net.cpp:100] Creating Layer pool5
I1020 10:06:00.663025 12739 net.cpp:434] pool5 <- drop5
I1020 10:06:00.663028 12739 net.cpp:408] pool5 -> pool5
I1020 10:06:00.663055 12739 net.cpp:150] Setting up pool5
I1020 10:06:00.663059 12739 net.cpp:157] Top shape: 100 280 1 1 (28000)
I1020 10:06:00.663063 12739 net.cpp:165] Memory required for data: 291375200
I1020 10:06:00.663064 12739 layer_factory.hpp:77] Creating layer conv10
I1020 10:06:00.663069 12739 net.cpp:100] Creating Layer conv10
I1020 10:06:00.663071 12739 net.cpp:434] conv10 <- pool5
I1020 10:06:00.663074 12739 net.cpp:408] conv10 -> conv10
I1020 10:06:00.664557 12739 net.cpp:150] Setting up conv10
I1020 10:06:00.664567 12739 net.cpp:157] Top shape: 100 300 1 1 (30000)
I1020 10:06:00.664569 12739 net.cpp:165] Memory required for data: 291495200
I1020 10:06:00.664579 12739 layer_factory.hpp:77] Creating layer relu10
I1020 10:06:00.664584 12739 net.cpp:100] Creating Layer relu10
I1020 10:06:00.664589 12739 net.cpp:434] relu10 <- conv10
I1020 10:06:00.664595 12739 net.cpp:408] relu10 -> relu10
I1020 10:06:00.664710 12739 net.cpp:150] Setting up relu10
I1020 10:06:00.664716 12739 net.cpp:157] Top shape: 100 300 1 1 (30000)
I1020 10:06:00.664721 12739 net.cpp:165] Memory required for data: 291615200
I1020 10:06:00.664723 12739 layer_factory.hpp:77] Creating layer drop6
I1020 10:06:00.664728 12739 net.cpp:100] Creating Layer drop6
I1020 10:06:00.664732 12739 net.cpp:434] drop6 <- relu10
I1020 10:06:00.664737 12739 net.cpp:408] drop6 -> drop6
I1020 10:06:00.664765 12739 net.cpp:150] Setting up drop6
I1020 10:06:00.664769 12739 net.cpp:157] Top shape: 100 300 1 1 (30000)
I1020 10:06:00.664772 12739 net.cpp:165] Memory required for data: 291735200
I1020 10:06:00.664777 12739 layer_factory.hpp:77] Creating layer pool6
I1020 10:06:00.664784 12739 net.cpp:100] Creating Layer pool6
I1020 10:06:00.664788 12739 net.cpp:434] pool6 <- drop6
I1020 10:06:00.664791 12739 net.cpp:408] pool6 -> pool6
I1020 10:06:00.664816 12739 net.cpp:150] Setting up pool6
I1020 10:06:00.664820 12739 net.cpp:157] Top shape: 100 300 1 1 (30000)
I1020 10:06:00.664822 12739 net.cpp:165] Memory required for data: 291855200
I1020 10:06:00.664824 12739 layer_factory.hpp:77] Creating layer conv11
I1020 10:06:00.664829 12739 net.cpp:100] Creating Layer conv11
I1020 10:06:00.664832 12739 net.cpp:434] conv11 <- pool6
I1020 10:06:00.664835 12739 net.cpp:408] conv11 -> conv11
I1020 10:06:00.665571 12739 net.cpp:150] Setting up conv11
I1020 10:06:00.665580 12739 net.cpp:157] Top shape: 100 100 1 1 (10000)
I1020 10:06:00.665585 12739 net.cpp:165] Memory required for data: 291895200
I1020 10:06:00.665590 12739 layer_factory.hpp:77] Creating layer relu11
I1020 10:06:00.665594 12739 net.cpp:100] Creating Layer relu11
I1020 10:06:00.665597 12739 net.cpp:434] relu11 <- conv11
I1020 10:06:00.665601 12739 net.cpp:408] relu11 -> relu11
I1020 10:06:00.665715 12739 net.cpp:150] Setting up relu11
I1020 10:06:00.665721 12739 net.cpp:157] Top shape: 100 100 1 1 (10000)
I1020 10:06:00.665725 12739 net.cpp:165] Memory required for data: 291935200
I1020 10:06:00.665729 12739 layer_factory.hpp:77] Creating layer drop7
I1020 10:06:00.665732 12739 net.cpp:100] Creating Layer drop7
I1020 10:06:00.665735 12739 net.cpp:434] drop7 <- relu11
I1020 10:06:00.665747 12739 net.cpp:408] drop7 -> drop7
I1020 10:06:00.665772 12739 net.cpp:150] Setting up drop7
I1020 10:06:00.665776 12739 net.cpp:157] Top shape: 100 100 1 1 (10000)
I1020 10:06:00.665778 12739 net.cpp:165] Memory required for data: 291975200
I1020 10:06:00.665781 12739 layer_factory.hpp:77] Creating layer pool7
I1020 10:06:00.665783 12739 net.cpp:100] Creating Layer pool7
I1020 10:06:00.665786 12739 net.cpp:434] pool7 <- drop7
I1020 10:06:00.665788 12739 net.cpp:408] pool7 -> pool7
I1020 10:06:00.665812 12739 net.cpp:150] Setting up pool7
I1020 10:06:00.665817 12739 net.cpp:157] Top shape: 100 100 1 1 (10000)
I1020 10:06:00.665818 12739 net.cpp:165] Memory required for data: 292015200
I1020 10:06:00.665819 12739 layer_factory.hpp:77] Creating layer pool7_pool7_0_split
I1020 10:06:00.665823 12739 net.cpp:100] Creating Layer pool7_pool7_0_split
I1020 10:06:00.665827 12739 net.cpp:434] pool7_pool7_0_split <- pool7
I1020 10:06:00.665828 12739 net.cpp:408] pool7_pool7_0_split -> pool7_pool7_0_split_0
I1020 10:06:00.665832 12739 net.cpp:408] pool7_pool7_0_split -> pool7_pool7_0_split_1
I1020 10:06:00.665855 12739 net.cpp:150] Setting up pool7_pool7_0_split
I1020 10:06:00.665859 12739 net.cpp:157] Top shape: 100 100 1 1 (10000)
I1020 10:06:00.665861 12739 net.cpp:157] Top shape: 100 100 1 1 (10000)
I1020 10:06:00.665863 12739 net.cpp:165] Memory required for data: 292095200
I1020 10:06:00.665864 12739 layer_factory.hpp:77] Creating layer ip_c
I1020 10:06:00.665868 12739 net.cpp:100] Creating Layer ip_c
I1020 10:06:00.665871 12739 net.cpp:434] ip_c <- pool7_pool7_0_split_0
I1020 10:06:00.665874 12739 net.cpp:408] ip_c -> ip_c
I1020 10:06:00.665957 12739 net.cpp:150] Setting up ip_c
I1020 10:06:00.665962 12739 net.cpp:157] Top shape: 100 20 (2000)
I1020 10:06:00.665964 12739 net.cpp:165] Memory required for data: 292103200
I1020 10:06:00.665967 12739 layer_factory.hpp:77] Creating layer ip_c_ip_c_0_split
I1020 10:06:00.665971 12739 net.cpp:100] Creating Layer ip_c_ip_c_0_split
I1020 10:06:00.665973 12739 net.cpp:434] ip_c_ip_c_0_split <- ip_c
I1020 10:06:00.665977 12739 net.cpp:408] ip_c_ip_c_0_split -> ip_c_ip_c_0_split_0
I1020 10:06:00.665980 12739 net.cpp:408] ip_c_ip_c_0_split -> ip_c_ip_c_0_split_1
I1020 10:06:00.666004 12739 net.cpp:150] Setting up ip_c_ip_c_0_split
I1020 10:06:00.666008 12739 net.cpp:157] Top shape: 100 20 (2000)
I1020 10:06:00.666010 12739 net.cpp:157] Top shape: 100 20 (2000)
I1020 10:06:00.666012 12739 net.cpp:165] Memory required for data: 292119200
I1020 10:06:00.666014 12739 layer_factory.hpp:77] Creating layer accuracy_f
I1020 10:06:00.666019 12739 net.cpp:100] Creating Layer accuracy_f
I1020 10:06:00.666023 12739 net.cpp:434] accuracy_f <- ip_c_ip_c_0_split_0
I1020 10:06:00.666025 12739 net.cpp:434] accuracy_f <- label_coarse_data_1_split_0
I1020 10:06:00.666029 12739 net.cpp:408] accuracy_f -> accuracy_f
…
