…
  level: 0
  stage: ""
}
type: "AdaDelta"
I1020 06:17:18.331635 11232 solver.cpp:81] Creating training net from train_net file: /home/adam/Honours/Honours-Project/cifar-100_pooling/max/relu/poolcnn_relu_train.prototxt
I1020 06:17:18.331933 11232 net.cpp:58] Initializing net from parameters: 
state {
  phase: TRAIN
  level: 0
  stage: ""
}
layer {
  name: "data"
  type: "HDF5Data"
  top: "data"
  top: "label_coarse"
  top: "label_fine"
  hdf5_data_param {
    source: "../../../../data/cifar-100/cifar_100_caffe_hdf5/train.txt"
    batch_size: 64
  }
}
layer {
  name: "conv1"
  type: "Convolution"
  bottom: "data"
  top: "conv1"
  convolution_param {
    num_output: 192
    kernel_size: 5
    weight_filler {
      type: "xavier"
    }
  }
}
layer {
  name: "relu1"
  type: "ReLU"
  bottom: "conv1"
  top: "relu1"
}
layer {
  name: "drop1"
  type: "Dropout"
  bottom: "relu1"
  top: "drop1"
  dropout_param {
    dropout_ratio: 0
  }
}
layer {
  name: "pool1"
  type: "Pooling"
  bottom: "drop1"
  top: "pool1"
  pooling_param {
    pool: MAX
    kernel_size: 2
    stride: 2
  }
}
layer {
  name: "conv2"
  type: "Convolution"
  bottom: "pool1"
  top: "conv2"
  convolution_param {
    num_output: 192
    kernel_size: 1
    weight_filler {
      type: "xavier"
    }
  }
}
layer {
  name: "relu2"
  type: "ReLU"
  bottom: "conv2"
  top: "relu2"
}
layer {
  name: "conv3"
  type: "Convolution"
  bottom: "relu2"
  top: "conv3"
  convolution_param {
    num_output: 240
    kernel_size: 3
    weight_filler {
      type: "xavier"
    }
  }
}
layer {
  name: "relu3"
  type: "ReLU"
  bottom: "conv3"
  top: "relu3"
}
layer {
  name: "drop2"
  type: "Dropout"
  bottom: "relu3"
  top: "drop2"
  dropout_param {
    dropout_ratio: 0.1
  }
}
layer {
  name: "pool2"
  type: "Pooling"
  bottom: "drop2"
  top: "pool2"
  pooling_param {
    pool: MAX
    kernel_size: 2
    stride: 2
  }
}
layer {
  name: "conv4"
  type: "Convolution"
  bottom: "pool2"
  top: "conv4"
  convolution_param {
    num_output: 240
    kernel_size: 1
    weight_filler {
      type: "xavier"
    }
  }
}
layer {
  name: "relu4"
  type: "ReLU"
  bottom: "conv4"
  top: "relu4"
}
layer {
  name: "conv5"
  type: "Convolution"
  bottom: "relu4"
  top: "conv5"
  convolution_param {
    num_output: 260
    kernel_size: 2
    weight_filler {
      type: "xavier"
    }
  }
}
layer {
  name: "relu5"
  type: "ReLU"
  bottom: "conv5"
  top: "relu5"
}
layer {
  name: "drop3"
  type: "Dropout"
  bottom: "relu5"
  top: "drop3"
  dropout_param {
    dropout_ratio: 0.2
  }
}
layer {
  name: "pool3"
  type: "Pooling"
  bottom: "drop3"
  top: "pool3"
  pooling_param {
    pool: MAX
    kernel_size: 2
    stride: 2
  }
}
layer {
  name: "conv6"
  type: "Convolution"
  bottom: "pool3"
  top: "conv6"
  convolution_param {
    num_output: 260
    kernel_size: 1
    weight_filler {
      type: "xavier"
    }
  }
}
layer {
  name: "relu6"
  type: "ReLU"
  bottom: "conv6"
  top: "relu6"
}
layer {
  name: "conv7"
  type: "Convolution"
  bottom: "relu6"
  top: "conv7"
  convolution_param {
    num_output: 280
    kernel_size: 2
    weight_filler {
      type: "xavier"
    }
  }
}
layer {
  name: "relu7"
  type: "ReLU"
  bottom: "conv7"
  top: "relu7"
}
layer {
  name: "drop4"
  type: "Dropout"
  bottom: "relu7"
  top: "drop4"
  dropout_param {
    dropout_ratio: 0.3
  }
}
layer {
  name: "pool4"
  type: "Pooling"
  bottom: "drop4"
  top: "pool4"
  pooling_param {
    pool: MAX
    kernel_size: 2
    stride: 2
  }
}
layer {
  name: "conv8"
  type: "Convolution"
  bottom: "pool4"
  top: "conv8"
  convolution_param {
    num_output: 280
    kernel_size: 1
    weight_filler {
      type: "xavier"
    }
  }
}
layer {
  name: "relu8"
  type: "ReLU"
  bottom: "conv8"
  top: "relu8"
}
layer {
  name: "drop5"
  type: "Dropout"
  bottom: "relu8"
  top: "drop5"
  dropout_param {
    dropout_ratio: 0.4
  }
}
layer {
  name: "pool5"
  type: "Pooling"
  bottom: "drop5"
  top: "pool5"
  pooling_param {
    pool: MAX
    kernel_size: 2
    stride: 2
  }
}
layer {
  name: "conv10"
  type: "Convolution"
  bottom: "pool5"
  top: "conv10"
  convolution_param {
    num_output: 300
    kernel_size: 1
    weight_filler {
      type: "xavier"
    }
  }
}
layer {
  name: "relu10"
  type: "ReLU"
  bottom: "conv10"
  top: "relu10"
}
layer {
  name: "drop6"
  type: "Dropout"
  bottom: "relu10"
  top: "drop6"
  dropout_param {
    dropout_ratio: 0.5
  }
}
layer {
  name: "pool6"
  type: "Pooling"
  bottom: "drop6"
  top: "pool6"
  pooling_param {
    pool: MAX
    kernel_size: 2
    stride: 2
  }
}
layer {
  name: "conv11"
  type: "Convolution"
  bottom: "pool6"
  top: "conv11"
  convolution_param {
    num_output: 100
    kernel_size: 1
    weight_filler {
      type: "xavier"
    }
  }
}
layer {
  name: "relu11"
  type: "ReLU"
  bottom: "conv11"
  top: "relu11"
}
layer {
  name: "drop7"
  type: "Dropout"
  bottom: "relu11"
  top: "drop7"
  dropout_param {
    dropout_ratio: 0
  }
}
layer {
  name: "pool7"
  type: "Pooling"
  bottom: "drop7"
  top: "pool7"
  pooling_param {
    pool: MAX
    kernel_size: 2
    stride: 2
  }
}
layer {
  name: "ip_c"
  type: "InnerProduct"
  bottom: "pool7"
  top: "ip_c"
  inner_product_param {
    num_output: 20
    weight_filler {
      type: "xavier"
    }
  }
}
layer {
  name: "accuracy_f"
  type: "Accuracy"
  bottom: "ip_c"
  bottom: "label_coarse"
  top: "accuracy_f"
}
layer {
  name: "loss_c"
  type: "SoftmaxWithLoss"
  bottom: "ip_c"
  bottom: "label_coarse"
  top: "loss_c"
}
layer {
  name: "ip_f"
  type: "InnerProduct"
  bottom: "pool7"
  top: "ip_f"
  inner_product_param {
    num_output: 100
    weight_filler {
      type: "xavier"
    }
  }
}
layer {
  name: "accuracy"
  type: "Accuracy"
  bottom: "ip_f"
  bottom: "label_fine"
  top: "accuracy"
}
layer {
  name: "loss_f"
  type: "SoftmaxWithLoss"
  bottom: "ip_f"
  bottom: "label_fine"
  top: "loss_f"
}
I1020 06:17:18.332051 11232 layer_factory.hpp:77] Creating layer data
I1020 06:17:18.332061 11232 net.cpp:100] Creating Layer data
I1020 06:17:18.332063 11232 net.cpp:408] data -> data
I1020 06:17:18.332077 11232 net.cpp:408] data -> label_coarse
I1020 06:17:18.332082 11232 net.cpp:408] data -> label_fine
I1020 06:17:18.332092 11232 hdf5_data_layer.cpp:79] Loading list of HDF5 filenames from: ../../../../data/cifar-100/cifar_100_caffe_hdf5/train.txt
I1020 06:17:18.332110 11232 hdf5_data_layer.cpp:93] Number of HDF5 files: 1
I1020 06:17:18.332748 11232 hdf5.cpp:35] Datatype class: H5T_INTEGER
I1020 06:17:19.908187 11232 net.cpp:150] Setting up data
I1020 06:17:19.908213 11232 net.cpp:157] Top shape: 64 3 32 32 (196608)
I1020 06:17:19.908216 11232 net.cpp:157] Top shape: 64 (64)
I1020 06:17:19.908218 11232 net.cpp:157] Top shape: 64 (64)
I1020 06:17:19.908219 11232 net.cpp:165] Memory required for data: 786944
I1020 06:17:19.908226 11232 layer_factory.hpp:77] Creating layer label_coarse_data_1_split
I1020 06:17:19.908236 11232 net.cpp:100] Creating Layer label_coarse_data_1_split
I1020 06:17:19.908239 11232 net.cpp:434] label_coarse_data_1_split <- label_coarse
I1020 06:17:19.908249 11232 net.cpp:408] label_coarse_data_1_split -> label_coarse_data_1_split_0
I1020 06:17:19.908257 11232 net.cpp:408] label_coarse_data_1_split -> label_coarse_data_1_split_1
I1020 06:17:19.908277 11232 net.cpp:150] Setting up label_coarse_data_1_split
I1020 06:17:19.908282 11232 net.cpp:157] Top shape: 64 (64)
I1020 06:17:19.908284 11232 net.cpp:157] Top shape: 64 (64)
I1020 06:17:19.908287 11232 net.cpp:165] Memory required for data: 787456
I1020 06:17:19.908295 11232 layer_factory.hpp:77] Creating layer label_fine_data_2_split
I1020 06:17:19.908311 11232 net.cpp:100] Creating Layer label_fine_data_2_split
I1020 06:17:19.908313 11232 net.cpp:434] label_fine_data_2_split <- label_fine
I1020 06:17:19.908318 11232 net.cpp:408] label_fine_data_2_split -> label_fine_data_2_split_0
I1020 06:17:19.908320 11232 net.cpp:408] label_fine_data_2_split -> label_fine_data_2_split_1
I1020 06:17:19.908339 11232 net.cpp:150] Setting up label_fine_data_2_split
I1020 06:17:19.908342 11232 net.cpp:157] Top shape: 64 (64)
I1020 06:17:19.908345 11232 net.cpp:157] Top shape: 64 (64)
I1020 06:17:19.908347 11232 net.cpp:165] Memory required for data: 787968
I1020 06:17:19.908349 11232 layer_factory.hpp:77] Creating layer conv1
I1020 06:17:19.908360 11232 net.cpp:100] Creating Layer conv1
I1020 06:17:19.908362 11232 net.cpp:434] conv1 <- data
I1020 06:17:19.908365 11232 net.cpp:408] conv1 -> conv1
I1020 06:17:20.027520 11232 net.cpp:150] Setting up conv1
I1020 06:17:20.027547 11232 net.cpp:157] Top shape: 64 192 28 28 (9633792)
I1020 06:17:20.027550 11232 net.cpp:165] Memory required for data: 39323136
I1020 06:17:20.027566 11232 layer_factory.hpp:77] Creating layer relu1
I1020 06:17:20.027576 11232 net.cpp:100] Creating Layer relu1
I1020 06:17:20.027580 11232 net.cpp:434] relu1 <- conv1
I1020 06:17:20.027585 11232 net.cpp:408] relu1 -> relu1
I1020 06:17:20.027709 11232 net.cpp:150] Setting up relu1
I1020 06:17:20.027716 11232 net.cpp:157] Top shape: 64 192 28 28 (9633792)
I1020 06:17:20.027717 11232 net.cpp:165] Memory required for data: 77858304
I1020 06:17:20.027720 11232 layer_factory.hpp:77] Creating layer drop1
I1020 06:17:20.027725 11232 net.cpp:100] Creating Layer drop1
I1020 06:17:20.027727 11232 net.cpp:434] drop1 <- relu1
I1020 06:17:20.027729 11232 net.cpp:408] drop1 -> drop1
I1020 06:17:20.027752 11232 net.cpp:150] Setting up drop1
I1020 06:17:20.027756 11232 net.cpp:157] Top shape: 64 192 28 28 (9633792)
I1020 06:17:20.027758 11232 net.cpp:165] Memory required for data: 116393472
I1020 06:17:20.027760 11232 layer_factory.hpp:77] Creating layer pool1
I1020 06:17:20.027765 11232 net.cpp:100] Creating Layer pool1
I1020 06:17:20.027766 11232 net.cpp:434] pool1 <- drop1
I1020 06:17:20.027770 11232 net.cpp:408] pool1 -> pool1
I1020 06:17:20.027796 11232 net.cpp:150] Setting up pool1
I1020 06:17:20.027799 11232 net.cpp:157] Top shape: 64 192 14 14 (2408448)
I1020 06:17:20.027801 11232 net.cpp:165] Memory required for data: 126027264
I1020 06:17:20.027802 11232 layer_factory.hpp:77] Creating layer conv2
I1020 06:17:20.027808 11232 net.cpp:100] Creating Layer conv2
I1020 06:17:20.027811 11232 net.cpp:434] conv2 <- pool1
I1020 06:17:20.027813 11232 net.cpp:408] conv2 -> conv2
I1020 06:17:20.028619 11232 net.cpp:150] Setting up conv2
I1020 06:17:20.028626 11232 net.cpp:157] Top shape: 64 192 14 14 (2408448)
I1020 06:17:20.028628 11232 net.cpp:165] Memory required for data: 135661056
I1020 06:17:20.028633 11232 layer_factory.hpp:77] Creating layer relu2
I1020 06:17:20.028637 11232 net.cpp:100] Creating Layer relu2
I1020 06:17:20.028640 11232 net.cpp:434] relu2 <- conv2
I1020 06:17:20.028643 11232 net.cpp:408] relu2 -> relu2
I1020 06:17:20.028758 11232 net.cpp:150] Setting up relu2
I1020 06:17:20.028762 11232 net.cpp:157] Top shape: 64 192 14 14 (2408448)
I1020 06:17:20.028764 11232 net.cpp:165] Memory required for data: 145294848
I1020 06:17:20.028766 11232 layer_factory.hpp:77] Creating layer conv3
I1020 06:17:20.028770 11232 net.cpp:100] Creating Layer conv3
I1020 06:17:20.028772 11232 net.cpp:434] conv3 <- relu2
I1020 06:17:20.028775 11232 net.cpp:408] conv3 -> conv3
I1020 06:17:20.031157 11232 net.cpp:150] Setting up conv3
I1020 06:17:20.031165 11232 net.cpp:157] Top shape: 64 240 12 12 (2211840)
I1020 06:17:20.031167 11232 net.cpp:165] Memory required for data: 154142208
I1020 06:17:20.031172 11232 layer_factory.hpp:77] Creating layer relu3
I1020 06:17:20.031177 11232 net.cpp:100] Creating Layer relu3
I1020 06:17:20.031178 11232 net.cpp:434] relu3 <- conv3
I1020 06:17:20.031180 11232 net.cpp:408] relu3 -> relu3
I1020 06:17:20.031363 11232 net.cpp:150] Setting up relu3
I1020 06:17:20.031380 11232 net.cpp:157] Top shape: 64 240 12 12 (2211840)
I1020 06:17:20.031383 11232 net.cpp:165] Memory required for data: 162989568
I1020 06:17:20.031383 11232 layer_factory.hpp:77] Creating layer drop2
I1020 06:17:20.031386 11232 net.cpp:100] Creating Layer drop2
I1020 06:17:20.031389 11232 net.cpp:434] drop2 <- relu3
I1020 06:17:20.031393 11232 net.cpp:408] drop2 -> drop2
I1020 06:17:20.031414 11232 net.cpp:150] Setting up drop2
I1020 06:17:20.031416 11232 net.cpp:157] Top shape: 64 240 12 12 (2211840)
I1020 06:17:20.031419 11232 net.cpp:165] Memory required for data: 171836928
I1020 06:17:20.031420 11232 layer_factory.hpp:77] Creating layer pool2
I1020 06:17:20.031424 11232 net.cpp:100] Creating Layer pool2
I1020 06:17:20.031426 11232 net.cpp:434] pool2 <- drop2
I1020 06:17:20.031430 11232 net.cpp:408] pool2 -> pool2
I1020 06:17:20.031452 11232 net.cpp:150] Setting up pool2
I1020 06:17:20.031457 11232 net.cpp:157] Top shape: 64 240 6 6 (552960)
I1020 06:17:20.031460 11232 net.cpp:165] Memory required for data: 174048768
I1020 06:17:20.031461 11232 layer_factory.hpp:77] Creating layer conv4
I1020 06:17:20.031466 11232 net.cpp:100] Creating Layer conv4
I1020 06:17:20.031467 11232 net.cpp:434] conv4 <- pool2
I1020 06:17:20.031469 11232 net.cpp:408] conv4 -> conv4
I1020 06:17:20.032308 11232 net.cpp:150] Setting up conv4
I1020 06:17:20.032315 11232 net.cpp:157] Top shape: 64 240 6 6 (552960)
I1020 06:17:20.032317 11232 net.cpp:165] Memory required for data: 176260608
I1020 06:17:20.032321 11232 layer_factory.hpp:77] Creating layer relu4
I1020 06:17:20.032325 11232 net.cpp:100] Creating Layer relu4
I1020 06:17:20.032327 11232 net.cpp:434] relu4 <- conv4
I1020 06:17:20.032330 11232 net.cpp:408] relu4 -> relu4
I1020 06:17:20.032444 11232 net.cpp:150] Setting up relu4
I1020 06:17:20.032450 11232 net.cpp:157] Top shape: 64 240 6 6 (552960)
I1020 06:17:20.032451 11232 net.cpp:165] Memory required for data: 178472448
I1020 06:17:20.032454 11232 layer_factory.hpp:77] Creating layer conv5
I1020 06:17:20.032459 11232 net.cpp:100] Creating Layer conv5
I1020 06:17:20.032460 11232 net.cpp:434] conv5 <- relu4
I1020 06:17:20.032464 11232 net.cpp:408] conv5 -> conv5
I1020 06:17:20.034390 11232 net.cpp:150] Setting up conv5
I1020 06:17:20.034399 11232 net.cpp:157] Top shape: 64 260 5 5 (416000)
I1020 06:17:20.034400 11232 net.cpp:165] Memory required for data: 180136448
I1020 06:17:20.034406 11232 layer_factory.hpp:77] Creating layer relu5
I1020 06:17:20.034411 11232 net.cpp:100] Creating Layer relu5
I1020 06:17:20.034413 11232 net.cpp:434] relu5 <- conv5
I1020 06:17:20.034417 11232 net.cpp:408] relu5 -> relu5
I1020 06:17:20.034533 11232 net.cpp:150] Setting up relu5
I1020 06:17:20.034538 11232 net.cpp:157] Top shape: 64 260 5 5 (416000)
I1020 06:17:20.034539 11232 net.cpp:165] Memory required for data: 181800448
I1020 06:17:20.034541 11232 layer_factory.hpp:77] Creating layer drop3
I1020 06:17:20.034544 11232 net.cpp:100] Creating Layer drop3
I1020 06:17:20.034546 11232 net.cpp:434] drop3 <- relu5
I1020 06:17:20.034549 11232 net.cpp:408] drop3 -> drop3
I1020 06:17:20.034571 11232 net.cpp:150] Setting up drop3
I1020 06:17:20.034575 11232 net.cpp:157] Top shape: 64 260 5 5 (416000)
I1020 06:17:20.034577 11232 net.cpp:165] Memory required for data: 183464448
I1020 06:17:20.034579 11232 layer_factory.hpp:77] Creating layer pool3
I1020 06:17:20.034581 11232 net.cpp:100] Creating Layer pool3
I1020 06:17:20.034584 11232 net.cpp:434] pool3 <- drop3
I1020 06:17:20.034586 11232 net.cpp:408] pool3 -> pool3
I1020 06:17:20.034610 11232 net.cpp:150] Setting up pool3
I1020 06:17:20.034613 11232 net.cpp:157] Top shape: 64 260 3 3 (149760)
I1020 06:17:20.034615 11232 net.cpp:165] Memory required for data: 184063488
I1020 06:17:20.034616 11232 layer_factory.hpp:77] Creating layer conv6
I1020 06:17:20.034621 11232 net.cpp:100] Creating Layer conv6
I1020 06:17:20.034622 11232 net.cpp:434] conv6 <- pool3
I1020 06:17:20.034626 11232 net.cpp:408] conv6 -> conv6
I1020 06:17:20.035733 11232 net.cpp:150] Setting up conv6
I1020 06:17:20.035748 11232 net.cpp:157] Top shape: 64 260 3 3 (149760)
I1020 06:17:20.035750 11232 net.cpp:165] Memory required for data: 184662528
I1020 06:17:20.035754 11232 layer_factory.hpp:77] Creating layer relu6
I1020 06:17:20.035758 11232 net.cpp:100] Creating Layer relu6
I1020 06:17:20.035760 11232 net.cpp:434] relu6 <- conv6
I1020 06:17:20.035763 11232 net.cpp:408] relu6 -> relu6
I1020 06:17:20.035955 11232 net.cpp:150] Setting up relu6
I1020 06:17:20.035962 11232 net.cpp:157] Top shape: 64 260 3 3 (149760)
I1020 06:17:20.035964 11232 net.cpp:165] Memory required for data: 185261568
I1020 06:17:20.035966 11232 layer_factory.hpp:77] Creating layer conv7
I1020 06:17:20.035971 11232 net.cpp:100] Creating Layer conv7
I1020 06:17:20.035974 11232 net.cpp:434] conv7 <- relu6
I1020 06:17:20.035977 11232 net.cpp:408] conv7 -> conv7
I1020 06:17:20.037894 11232 net.cpp:150] Setting up conv7
I1020 06:17:20.037902 11232 net.cpp:157] Top shape: 64 280 2 2 (71680)
I1020 06:17:20.037904 11232 net.cpp:165] Memory required for data: 185548288
I1020 06:17:20.037907 11232 layer_factory.hpp:77] Creating layer relu7
I1020 06:17:20.037911 11232 net.cpp:100] Creating Layer relu7
I1020 06:17:20.037912 11232 net.cpp:434] relu7 <- conv7
I1020 06:17:20.037916 11232 net.cpp:408] relu7 -> relu7
I1020 06:17:20.038028 11232 net.cpp:150] Setting up relu7
I1020 06:17:20.038034 11232 net.cpp:157] Top shape: 64 280 2 2 (71680)
I1020 06:17:20.038035 11232 net.cpp:165] Memory required for data: 185835008
I1020 06:17:20.038038 11232 layer_factory.hpp:77] Creating layer drop4
I1020 06:17:20.038041 11232 net.cpp:100] Creating Layer drop4
I1020 06:17:20.038043 11232 net.cpp:434] drop4 <- relu7
I1020 06:17:20.038046 11232 net.cpp:408] drop4 -> drop4
I1020 06:17:20.038067 11232 net.cpp:150] Setting up drop4
I1020 06:17:20.038070 11232 net.cpp:157] Top shape: 64 280 2 2 (71680)
I1020 06:17:20.038072 11232 net.cpp:165] Memory required for data: 186121728
I1020 06:17:20.038074 11232 layer_factory.hpp:77] Creating layer pool4
I1020 06:17:20.038077 11232 net.cpp:100] Creating Layer pool4
I1020 06:17:20.038079 11232 net.cpp:434] pool4 <- drop4
I1020 06:17:20.038082 11232 net.cpp:408] pool4 -> pool4
I1020 06:17:20.038105 11232 net.cpp:150] Setting up pool4
I1020 06:17:20.038107 11232 net.cpp:157] Top shape: 64 280 1 1 (17920)
I1020 06:17:20.038110 11232 net.cpp:165] Memory required for data: 186193408
I1020 06:17:20.038111 11232 layer_factory.hpp:77] Creating layer conv8
I1020 06:17:20.038115 11232 net.cpp:100] Creating Layer conv8
I1020 06:17:20.038117 11232 net.cpp:434] conv8 <- pool4
I1020 06:17:20.038120 11232 net.cpp:408] conv8 -> conv8
I1020 06:17:20.039098 11232 net.cpp:150] Setting up conv8
I1020 06:17:20.039106 11232 net.cpp:157] Top shape: 64 280 1 1 (17920)
I1020 06:17:20.039108 11232 net.cpp:165] Memory required for data: 186265088
I1020 06:17:20.039111 11232 layer_factory.hpp:77] Creating layer relu8
I1020 06:17:20.039115 11232 net.cpp:100] Creating Layer relu8
I1020 06:17:20.039118 11232 net.cpp:434] relu8 <- conv8
I1020 06:17:20.039119 11232 net.cpp:408] relu8 -> relu8
I1020 06:17:20.039242 11232 net.cpp:150] Setting up relu8
I1020 06:17:20.039247 11232 net.cpp:157] Top shape: 64 280 1 1 (17920)
I1020 06:17:20.039249 11232 net.cpp:165] Memory required for data: 186336768
I1020 06:17:20.039252 11232 layer_factory.hpp:77] Creating layer drop5
I1020 06:17:20.039254 11232 net.cpp:100] Creating Layer drop5
I1020 06:17:20.039257 11232 net.cpp:434] drop5 <- relu8
I1020 06:17:20.039259 11232 net.cpp:408] drop5 -> drop5
I1020 06:17:20.039283 11232 net.cpp:150] Setting up drop5
I1020 06:17:20.039286 11232 net.cpp:157] Top shape: 64 280 1 1 (17920)
I1020 06:17:20.039289 11232 net.cpp:165] Memory required for data: 186408448
I1020 06:17:20.039291 11232 layer_factory.hpp:77] Creating layer pool5
I1020 06:17:20.039294 11232 net.cpp:100] Creating Layer pool5
I1020 06:17:20.039296 11232 net.cpp:434] pool5 <- drop5
I1020 06:17:20.039300 11232 net.cpp:408] pool5 -> pool5
I1020 06:17:20.039327 11232 net.cpp:150] Setting up pool5
I1020 06:17:20.039331 11232 net.cpp:157] Top shape: 64 280 1 1 (17920)
I1020 06:17:20.039342 11232 net.cpp:165] Memory required for data: 186480128
I1020 06:17:20.039345 11232 layer_factory.hpp:77] Creating layer conv10
I1020 06:17:20.039350 11232 net.cpp:100] Creating Layer conv10
I1020 06:17:20.039352 11232 net.cpp:434] conv10 <- pool5
I1020 06:17:20.039355 11232 net.cpp:408] conv10 -> conv10
I1020 06:17:20.040302 11232 net.cpp:150] Setting up conv10
I1020 06:17:20.040310 11232 net.cpp:157] Top shape: 64 300 1 1 (19200)
I1020 06:17:20.040313 11232 net.cpp:165] Memory required for data: 186556928
I1020 06:17:20.040319 11232 layer_factory.hpp:77] Creating layer relu10
I1020 06:17:20.040323 11232 net.cpp:100] Creating Layer relu10
I1020 06:17:20.040325 11232 net.cpp:434] relu10 <- conv10
I1020 06:17:20.040329 11232 net.cpp:408] relu10 -> relu10
I1020 06:17:20.040521 11232 net.cpp:150] Setting up relu10
I1020 06:17:20.040529 11232 net.cpp:157] Top shape: 64 300 1 1 (19200)
I1020 06:17:20.040530 11232 net.cpp:165] Memory required for data: 186633728
I1020 06:17:20.040532 11232 layer_factory.hpp:77] Creating layer drop6
I1020 06:17:20.040535 11232 net.cpp:100] Creating Layer drop6
I1020 06:17:20.040539 11232 net.cpp:434] drop6 <- relu10
I1020 06:17:20.040542 11232 net.cpp:408] drop6 -> drop6
I1020 06:17:20.040566 11232 net.cpp:150] Setting up drop6
I1020 06:17:20.040570 11232 net.cpp:157] Top shape: 64 300 1 1 (19200)
I1020 06:17:20.040571 11232 net.cpp:165] Memory required for data: 186710528
I1020 06:17:20.040573 11232 layer_factory.hpp:77] Creating layer pool6
I1020 06:17:20.040580 11232 net.cpp:100] Creating Layer pool6
I1020 06:17:20.040582 11232 net.cpp:434] pool6 <- drop6
I1020 06:17:20.040585 11232 net.cpp:408] pool6 -> pool6
I1020 06:17:20.040608 11232 net.cpp:150] Setting up pool6
I1020 06:17:20.040611 11232 net.cpp:157] Top shape: 64 300 1 1 (19200)
I1020 06:17:20.040613 11232 net.cpp:165] Memory required for data: 186787328
I1020 06:17:20.040614 11232 layer_factory.hpp:77] Creating layer conv11
I1020 06:17:20.040621 11232 net.cpp:100] Creating Layer conv11
I1020 06:17:20.040622 11232 net.cpp:434] conv11 <- pool6
I1020 06:17:20.040626 11232 net.cpp:408] conv11 -> conv11
I1020 06:17:20.041712 11232 net.cpp:150] Setting up conv11
I1020 06:17:20.041719 11232 net.cpp:157] Top shape: 64 100 1 1 (6400)
I1020 06:17:20.041723 11232 net.cpp:165] Memory required for data: 186812928
I1020 06:17:20.041725 11232 layer_factory.hpp:77] Creating layer relu11
I1020 06:17:20.041728 11232 net.cpp:100] Creating Layer relu11
I1020 06:17:20.041731 11232 net.cpp:434] relu11 <- conv11
I1020 06:17:20.041736 11232 net.cpp:408] relu11 -> relu11
I1020 06:17:20.041851 11232 net.cpp:150] Setting up relu11
I1020 06:17:20.041857 11232 net.cpp:157] Top shape: 64 100 1 1 (6400)
I1020 06:17:20.041859 11232 net.cpp:165] Memory required for data: 186838528
I1020 06:17:20.041862 11232 layer_factory.hpp:77] Creating layer drop7
I1020 06:17:20.041864 11232 net.cpp:100] Creating Layer drop7
I1020 06:17:20.041867 11232 net.cpp:434] drop7 <- relu11
I1020 06:17:20.041870 11232 net.cpp:408] drop7 -> drop7
I1020 06:17:20.041893 11232 net.cpp:150] Setting up drop7
I1020 06:17:20.041898 11232 net.cpp:157] Top shape: 64 100 1 1 (6400)
I1020 06:17:20.041899 11232 net.cpp:165] Memory required for data: 186864128
I1020 06:17:20.041901 11232 layer_factory.hpp:77] Creating layer pool7
I1020 06:17:20.041904 11232 net.cpp:100] Creating Layer pool7
I1020 06:17:20.041906 11232 net.cpp:434] pool7 <- drop7
I1020 06:17:20.041909 11232 net.cpp:408] pool7 -> pool7
I1020 06:17:20.041930 11232 net.cpp:150] Setting up pool7
I1020 06:17:20.041935 11232 net.cpp:157] Top shape: 64 100 1 1 (6400)
I1020 06:17:20.041937 11232 net.cpp:165] Memory required for data: 186889728
I1020 06:17:20.041939 11232 layer_factory.hpp:77] Creating layer pool7_pool7_0_split
I1020 06:17:20.041942 11232 net.cpp:100] Creating Layer pool7_pool7_0_split
I1020 06:17:20.041945 11232 net.cpp:434] pool7_pool7_0_split <- pool7
I1020 06:17:20.041947 11232 net.cpp:408] pool7_pool7_0_split -> pool7_pool7_0_split_0
I1020 06:17:20.041952 11232 net.cpp:408] pool7_pool7_0_split -> pool7_pool7_0_split_1
I1020 06:17:20.041982 11232 net.cpp:150] Setting up pool7_pool7_0_split
I1020 06:17:20.041986 11232 net.cpp:157] Top shape: 64 100 1 1 (6400)
I1020 06:17:20.041988 11232 net.cpp:157] Top shape: 64 100 1 1 (6400)
I1020 06:17:20.041990 11232 net.cpp:165] Memory required for data: 186940928
I1020 06:17:20.041992 11232 layer_factory.hpp:77] Creating layer ip_c
I1020 06:17:20.041997 11232 net.cpp:100] Creating Layer ip_c
I1020 06:17:20.041999 11232 net.cpp:434] ip_c <- pool7_pool7_0_split_0
I1020 06:17:20.042002 11232 net.cpp:408] ip_c -> ip_c
I1020 06:17:20.042328 11232 net.cpp:150] Setting up ip_c
I1020 06:17:20.042335 11232 net.cpp:157] Top shape: 64 20 (1280)
I1020 06:17:20.042337 11232 net.cpp:165] Memory required for data: 186946048
I1020 06:17:20.042341 11232 layer_factory.hpp:77] Creating layer ip_c_ip_c_0_split
I1020 06:17:20.042346 11232 net.cpp:100] Creating Layer ip_c_ip_c_0_split
I1020 06:17:20.042347 11232 net.cpp:434] ip_c_ip_c_0_split <- ip_c
I1020 06:17:20.042351 11232 net.cpp:408] ip_c_ip_c_0_split -> ip_c_ip_c_0_split_0
I1020 06:17:20.042356 11232 net.cpp:408] ip_c_ip_c_0_split -> ip_c_ip_c_0_split_1
I1020 06:17:20.042379 11232 net.cpp:150] Setting up ip_c_ip_c_0_split
I1020 06:17:20.042383 11232 net.cpp:157] Top shape: 64 20 (1280)
I1020 06:17:20.042385 11232 net.cpp:157] Top shape: 64 20 (1280)
I1020 06:17:20.042387 11232 net.cpp:165] Memory required for data: 186956288
I1020 06:17:20.042388 11232 layer_factory.hpp:77] Creating layer accuracy_f
I1020 06:17:20.042392 11232 net.cpp:100] Creating Layer accuracy_f
I1020 06:17:20.042394 11232 net.cpp:434] accuracy_f <- ip_c_ip_c_0_split_0
I1020 06:17:20.042397 11232 net.cpp:434] accuracy_f <- label_coarse_data_1_split_0
I1020 06:17:20.042399 11232 net.cpp:408] accuracy_f -> accuracy_f
…
I1020 06:17:20.043236 11232 net.cpp:283] Network initialization done.
I1020 06:17:20.043431 11232 solver.cpp:181] Creating test net (#0) specified by test_net file: /home/adam/Honours/Honours-Project/cifar-100_pooling/max/relu/poolcnn_relu_test.prototxt
I1020 06:17:20.043548 11232 net.cpp:58] Initializing net from parameters: 
state {
  phase: TEST
}
layer {
  name: "data"
  type: "HDF5Data"
  top: "data"
  top: "label_coarse"
  top: "label_fine"
  hdf5_data_param {
    source: "../../../../data/cifar-100/cifar_100_caffe_hdf5/test.txt"
    batch_size: 100
  }
}
layer {
  name: "conv1"
  type: "Convolution"
  bottom: "data"
  top: "conv1"
  convolution_param {
    num_output: 192
    kernel_size: 5
    weight_filler {
      type: "xavier"
    }
  }
}
layer {
  name: "relu1"
  type: "ReLU"
  bottom: "conv1"
  top: "relu1"
}
layer {
  name: "drop1"
  type: "Dropout"
  bottom: "relu1"
  top: "drop1"
  dropout_param {
    dropout_ratio: 0
  }
}
layer {
  name: "pool1"
  type: "Pooling"
  bottom: "drop1"
  top: "pool1"
  pooling_param {
    pool: MAX
    kernel_size: 2
    stride: 2
  }
}
layer {
  name: "conv2"
  type: "Convolution"
  bottom: "pool1"
  top: "conv2"
  convolution_param {
    num_output: 192
    kernel_size: 1
    weight_filler {
      type: "xavier"
    }
  }
}
layer {
  name: "relu2"
  type: "ReLU"
  bottom: "conv2"
  top: "relu2"
}
layer {
  name: "conv3"
  type: "Convolution"
  bottom: "relu2"
  top: "conv3"
  convolution_param {
    num_output: 240
    kernel_size: 3
    weight_filler {
      type: "xavier"
    }
  }
}
layer {
  name: "relu3"
  type: "ReLU"
  bottom: "conv3"
  top: "relu3"
}
layer {
  name: "drop2"
  type: "Dropout"
  bottom: "relu3"
  top: "drop2"
  dropout_param {
    dropout_ratio: 0.1
  }
}
layer {
  name: "pool2"
  type: "Pooling"
  bottom: "drop2"
  top: "pool2"
  pooling_param {
    pool: MAX
    kernel_size: 2
    stride: 2
  }
}
layer {
  name: "conv4"
  type: "Convolution"
  bottom: "pool2"
  top: "conv4"
  convolution_param {
    num_output: 240
    kernel_size: 1
    weight_filler {
      type: "xavier"
    }
  }
}
layer {
  name: "relu4"
  type: "ReLU"
  bottom: "conv4"
  top: "relu4"
}
layer {
  name: "conv5"
  type: "Convolution"
  bottom: "relu4"
  top: "conv5"
  convolution_param {
    num_output: 260
    kernel_size: 2
    weight_filler {
      type: "xavier"
    }
  }
}
layer {
  name: "relu5"
  type: "ReLU"
  bottom: "conv5"
  top: "relu5"
}
layer {
  name: "drop3"
  type: "Dropout"
  bottom: "relu5"
  top: "drop3"
  dropout_param {
    dropout_ratio: 0.2
  }
}
layer {
  name: "pool3"
  type: "Pooling"
  bottom: "drop3"
  top: "pool3"
  pooling_param {
    pool: MAX
    kernel_size: 2
    stride: 2
  }
}
layer {
  name: "conv6"
  type: "Convolution"
  bottom: "pool3"
  top: "conv6"
  convolution_param {
    num_output: 260
    kernel_size: 1
    weight_filler {
      type: "xavier"
    }
  }
}
layer {
  name: "relu6"
  type: "ReLU"
  bottom: "conv6"
  top: "relu6"
}
layer {
  name: "conv7"
  type: "Convolution"
  bottom: "relu6"
  top: "conv7"
  convolution_param {
    num_output: 280
    kernel_size: 2
    weight_filler {
      type: "xavier"
    }
  }
}
layer {
  name: "relu7"
  type: "ReLU"
  bottom: "conv7"
  top: "relu7"
}
layer {
  name: "drop4"
  type: "Dropout"
  bottom: "relu7"
  top: "drop4"
  dropout_param {
    dropout_ratio: 0.3
  }
}
layer {
  name: "pool4"
  type: "Pooling"
  bottom: "drop4"
  top: "pool4"
  pooling_param {
    pool: MAX
    kernel_size: 2
    stride: 2
  }
}
layer {
  name: "conv8"
  type: "Convolution"
  bottom: "pool4"
  top: "conv8"
  convolution_param {
    num_output: 280
    kernel_size: 1
    weight_filler {
      type: "xavier"
    }
  }
}
layer {
  name: "relu8"
  type: "ReLU"
  bottom: "conv8"
  top: "relu8"
}
layer {
  name: "drop5"
  type: "Dropout"
  bottom: "relu8"
  top: "drop5"
  dropout_param {
    dropout_ratio: 0.4
  }
}
layer {
  name: "pool5"
  type: "Pooling"
  bottom: "drop5"
  top: "pool5"
  pooling_param {
    pool: MAX
    kernel_size: 2
    stride: 2
  }
}
layer {
  name: "conv10"
  type: "Convolution"
  bottom: "pool5"
  top: "conv10"
  convolution_param {
    num_output: 300
    kernel_size: 1
    weight_filler {
      type: "xavier"
    }
  }
}
layer {
  name: "relu10"
  type: "ReLU"
  bottom: "conv10"
  top: "relu10"
}
layer {
  name: "drop6"
  type: "Dropout"
  bottom: "relu10"
  top: "drop6"
  dropout_param {
    dropout_ratio: 0.5
  }
}
layer {
  name: "pool6"
  type: "Pooling"
  bottom: "drop6"
  top: "pool6"
  pooling_param {
    pool: MAX
    kernel_size: 2
    stride: 2
  }
}
layer {
  name: "conv11"
  type: "Convolution"
  bottom: "pool6"
  top: "conv11"
  convolution_param {
    num_output: 100
    kernel_size: 1
    weight_filler {
      type: "xavier"
    }
  }
}
layer {
  name: "relu11"
  type: "ReLU"
  bottom: "conv11"
  top: "relu11"
}
layer {
  name: "drop7"
  type: "Dropout"
  bottom: "relu11"
  top: "drop7"
  dropout_param {
    dropout_ratio: 0
  }
}
layer {
  name: "pool7"
  type: "Pooling"
  bottom: "drop7"
  top: "pool7"
  pooling_param {
    pool: MAX
    kernel_size: 2
    stride: 2
  }
}
layer {
  name: "ip_c"
  type: "InnerProduct"
  bottom: "pool7"
  top: "ip_c"
  inner_product_param {
    num_output: 20
    weight_filler {
      type: "xavier"
    }
  }
}
layer {
  name: "accuracy_f"
  type: "Accuracy"
  bottom: "ip_c"
  bottom: "label_coarse"
  top: "accuracy_f"
}
layer {
  name: "loss_c"
  type: "SoftmaxWithLoss"
  bottom: "ip_c"
  bottom: "label_coarse"
  top: "loss_c"
}
layer {
  name: "ip_f"
  type: "InnerProduct"
  bottom: "pool7"
  top: "ip_f"
  inner_product_param {
    num_output: 100
    weight_filler {
      type: "xavier"
    }
  }
}
layer {
  name: "accuracy"
  type: "Accuracy"
  bottom: "ip_f"
  bottom: "label_fine"
  top: "accuracy"
}
layer {
  name: "loss_f"
  type: "SoftmaxWithLoss"
  bottom: "ip_f"
  bottom: "label_fine"
  top: "loss_f"
}
I1020 06:17:20.043637 11232 layer_factory.hpp:77] Creating layer data
I1020 06:17:20.043643 11232 net.cpp:100] Creating Layer data
I1020 06:17:20.043645 11232 net.cpp:408] data -> data
I1020 06:17:20.043649 11232 net.cpp:408] data -> label_coarse
I1020 06:17:20.043653 11232 net.cpp:408] data -> label_fine
I1020 06:17:20.043656 11232 hdf5_data_layer.cpp:79] Loading list of HDF5 filenames from: ../../../../data/cifar-100/cifar_100_caffe_hdf5/test.txt
I1020 06:17:20.043669 11232 hdf5_data_layer.cpp:93] Number of HDF5 files: 1
I1020 06:17:20.297835 11232 net.cpp:150] Setting up data
I1020 06:17:20.297859 11232 net.cpp:157] Top shape: 100 3 32 32 (307200)
I1020 06:17:20.297863 11232 net.cpp:157] Top shape: 100 (100)
I1020 06:17:20.297864 11232 net.cpp:157] Top shape: 100 (100)
I1020 06:17:20.297865 11232 net.cpp:165] Memory required for data: 1229600
I1020 06:17:20.297870 11232 layer_factory.hpp:77] Creating layer label_coarse_data_1_split
I1020 06:17:20.297879 11232 net.cpp:100] Creating Layer label_coarse_data_1_split
I1020 06:17:20.297881 11232 net.cpp:434] label_coarse_data_1_split <- label_coarse
I1020 06:17:20.297886 11232 net.cpp:408] label_coarse_data_1_split -> label_coarse_data_1_split_0
I1020 06:17:20.297894 11232 net.cpp:408] label_coarse_data_1_split -> label_coarse_data_1_split_1
I1020 06:17:20.297919 11232 net.cpp:150] Setting up label_coarse_data_1_split
I1020 06:17:20.297924 11232 net.cpp:157] Top shape: 100 (100)
I1020 06:17:20.297925 11232 net.cpp:157] Top shape: 100 (100)
I1020 06:17:20.297926 11232 net.cpp:165] Memory required for data: 1230400
I1020 06:17:20.297942 11232 layer_factory.hpp:77] Creating layer label_fine_data_2_split
I1020 06:17:20.297946 11232 net.cpp:100] Creating Layer label_fine_data_2_split
I1020 06:17:20.297948 11232 net.cpp:434] label_fine_data_2_split <- label_fine
I1020 06:17:20.297951 11232 net.cpp:408] label_fine_data_2_split -> label_fine_data_2_split_0
I1020 06:17:20.297955 11232 net.cpp:408] label_fine_data_2_split -> label_fine_data_2_split_1
I1020 06:17:20.297976 11232 net.cpp:150] Setting up label_fine_data_2_split
I1020 06:17:20.297981 11232 net.cpp:157] Top shape: 100 (100)
I1020 06:17:20.297982 11232 net.cpp:157] Top shape: 100 (100)
I1020 06:17:20.297984 11232 net.cpp:165] Memory required for data: 1231200
I1020 06:17:20.297986 11232 layer_factory.hpp:77] Creating layer conv1
I1020 06:17:20.297991 11232 net.cpp:100] Creating Layer conv1
I1020 06:17:20.297993 11232 net.cpp:434] conv1 <- data
I1020 06:17:20.297997 11232 net.cpp:408] conv1 -> conv1
I1020 06:17:20.298821 11232 net.cpp:150] Setting up conv1
I1020 06:17:20.298830 11232 net.cpp:157] Top shape: 100 192 28 28 (15052800)
I1020 06:17:20.298832 11232 net.cpp:165] Memory required for data: 61442400
I1020 06:17:20.298840 11232 layer_factory.hpp:77] Creating layer relu1
I1020 06:17:20.298844 11232 net.cpp:100] Creating Layer relu1
I1020 06:17:20.298846 11232 net.cpp:434] relu1 <- conv1
I1020 06:17:20.298848 11232 net.cpp:408] relu1 -> relu1
I1020 06:17:20.298967 11232 net.cpp:150] Setting up relu1
I1020 06:17:20.298974 11232 net.cpp:157] Top shape: 100 192 28 28 (15052800)
I1020 06:17:20.298974 11232 net.cpp:165] Memory required for data: 121653600
I1020 06:17:20.298976 11232 layer_factory.hpp:77] Creating layer drop1
I1020 06:17:20.298981 11232 net.cpp:100] Creating Layer drop1
I1020 06:17:20.298982 11232 net.cpp:434] drop1 <- relu1
I1020 06:17:20.298985 11232 net.cpp:408] drop1 -> drop1
I1020 06:17:20.299008 11232 net.cpp:150] Setting up drop1
I1020 06:17:20.299012 11232 net.cpp:157] Top shape: 100 192 28 28 (15052800)
I1020 06:17:20.299015 11232 net.cpp:165] Memory required for data: 181864800
I1020 06:17:20.299015 11232 layer_factory.hpp:77] Creating layer pool1
I1020 06:17:20.299020 11232 net.cpp:100] Creating Layer pool1
I1020 06:17:20.299021 11232 net.cpp:434] pool1 <- drop1
I1020 06:17:20.299026 11232 net.cpp:408] pool1 -> pool1
I1020 06:17:20.299048 11232 net.cpp:150] Setting up pool1
I1020 06:17:20.299052 11232 net.cpp:157] Top shape: 100 192 14 14 (3763200)
I1020 06:17:20.299053 11232 net.cpp:165] Memory required for data: 196917600
I1020 06:17:20.299055 11232 layer_factory.hpp:77] Creating layer conv2
I1020 06:17:20.299059 11232 net.cpp:100] Creating Layer conv2
I1020 06:17:20.299060 11232 net.cpp:434] conv2 <- pool1
I1020 06:17:20.299064 11232 net.cpp:408] conv2 -> conv2
I1020 06:17:20.299827 11232 net.cpp:150] Setting up conv2
I1020 06:17:20.299834 11232 net.cpp:157] Top shape: 100 192 14 14 (3763200)
I1020 06:17:20.299836 11232 net.cpp:165] Memory required for data: 211970400
I1020 06:17:20.299842 11232 layer_factory.hpp:77] Creating layer relu2
I1020 06:17:20.299846 11232 net.cpp:100] Creating Layer relu2
I1020 06:17:20.299849 11232 net.cpp:434] relu2 <- conv2
I1020 06:17:20.299851 11232 net.cpp:408] relu2 -> relu2
I1020 06:17:20.300045 11232 net.cpp:150] Setting up relu2
I1020 06:17:20.300051 11232 net.cpp:157] Top shape: 100 192 14 14 (3763200)
I1020 06:17:20.300053 11232 net.cpp:165] Memory required for data: 227023200
I1020 06:17:20.300055 11232 layer_factory.hpp:77] Creating layer conv3
I1020 06:17:20.300060 11232 net.cpp:100] Creating Layer conv3
I1020 06:17:20.300061 11232 net.cpp:434] conv3 <- relu2
I1020 06:17:20.300065 11232 net.cpp:408] conv3 -> conv3
I1020 06:17:20.302526 11232 net.cpp:150] Setting up conv3
I1020 06:17:20.302534 11232 net.cpp:157] Top shape: 100 240 12 12 (3456000)
I1020 06:17:20.302536 11232 net.cpp:165] Memory required for data: 240847200
I1020 06:17:20.302541 11232 layer_factory.hpp:77] Creating layer relu3
I1020 06:17:20.302546 11232 net.cpp:100] Creating Layer relu3
I1020 06:17:20.302556 11232 net.cpp:434] relu3 <- conv3
I1020 06:17:20.302559 11232 net.cpp:408] relu3 -> relu3
I1020 06:17:20.302673 11232 net.cpp:150] Setting up relu3
I1020 06:17:20.302680 11232 net.cpp:157] Top shape: 100 240 12 12 (3456000)
I1020 06:17:20.302680 11232 net.cpp:165] Memory required for data: 254671200
I1020 06:17:20.302683 11232 layer_factory.hpp:77] Creating layer drop2
I1020 06:17:20.302686 11232 net.cpp:100] Creating Layer drop2
I1020 06:17:20.302688 11232 net.cpp:434] drop2 <- relu3
I1020 06:17:20.302690 11232 net.cpp:408] drop2 -> drop2
I1020 06:17:20.302713 11232 net.cpp:150] Setting up drop2
I1020 06:17:20.302717 11232 net.cpp:157] Top shape: 100 240 12 12 (3456000)
I1020 06:17:20.302719 11232 net.cpp:165] Memory required for data: 268495200
I1020 06:17:20.302721 11232 layer_factory.hpp:77] Creating layer pool2
I1020 06:17:20.302724 11232 net.cpp:100] Creating Layer pool2
I1020 06:17:20.302726 11232 net.cpp:434] pool2 <- drop2
I1020 06:17:20.302729 11232 net.cpp:408] pool2 -> pool2
I1020 06:17:20.302754 11232 net.cpp:150] Setting up pool2
I1020 06:17:20.302758 11232 net.cpp:157] Top shape: 100 240 6 6 (864000)
I1020 06:17:20.302760 11232 net.cpp:165] Memory required for data: 271951200
I1020 06:17:20.302762 11232 layer_factory.hpp:77] Creating layer conv4
I1020 06:17:20.302767 11232 net.cpp:100] Creating Layer conv4
I1020 06:17:20.302769 11232 net.cpp:434] conv4 <- pool2
I1020 06:17:20.302772 11232 net.cpp:408] conv4 -> conv4
I1020 06:17:20.303849 11232 net.cpp:150] Setting up conv4
I1020 06:17:20.303858 11232 net.cpp:157] Top shape: 100 240 6 6 (864000)
I1020 06:17:20.303860 11232 net.cpp:165] Memory required for data: 275407200
I1020 06:17:20.303864 11232 layer_factory.hpp:77] Creating layer relu4
I1020 06:17:20.303869 11232 net.cpp:100] Creating Layer relu4
I1020 06:17:20.303871 11232 net.cpp:434] relu4 <- conv4
I1020 06:17:20.303875 11232 net.cpp:408] relu4 -> relu4
I1020 06:17:20.303992 11232 net.cpp:150] Setting up relu4
I1020 06:17:20.303998 11232 net.cpp:157] Top shape: 100 240 6 6 (864000)
I1020 06:17:20.303999 11232 net.cpp:165] Memory required for data: 278863200
I1020 06:17:20.304003 11232 layer_factory.hpp:77] Creating layer conv5
I1020 06:17:20.304008 11232 net.cpp:100] Creating Layer conv5
I1020 06:17:20.304009 11232 net.cpp:434] conv5 <- relu4
I1020 06:17:20.304013 11232 net.cpp:408] conv5 -> conv5
I1020 06:17:20.305784 11232 net.cpp:150] Setting up conv5
I1020 06:17:20.305793 11232 net.cpp:157] Top shape: 100 260 5 5 (650000)
I1020 06:17:20.305794 11232 net.cpp:165] Memory required for data: 281463200
I1020 06:17:20.305800 11232 layer_factory.hpp:77] Creating layer relu5
I1020 06:17:20.305806 11232 net.cpp:100] Creating Layer relu5
I1020 06:17:20.305809 11232 net.cpp:434] relu5 <- conv5
I1020 06:17:20.305812 11232 net.cpp:408] relu5 -> relu5
I1020 06:17:20.306079 11232 net.cpp:150] Setting up relu5
I1020 06:17:20.306087 11232 net.cpp:157] Top shape: 100 260 5 5 (650000)
I1020 06:17:20.306090 11232 net.cpp:165] Memory required for data: 284063200
I1020 06:17:20.306092 11232 layer_factory.hpp:77] Creating layer drop3
I1020 06:17:20.306095 11232 net.cpp:100] Creating Layer drop3
I1020 06:17:20.306098 11232 net.cpp:434] drop3 <- relu5
I1020 06:17:20.306102 11232 net.cpp:408] drop3 -> drop3
I1020 06:17:20.306126 11232 net.cpp:150] Setting up drop3
I1020 06:17:20.306131 11232 net.cpp:157] Top shape: 100 260 5 5 (650000)
I1020 06:17:20.306133 11232 net.cpp:165] Memory required for data: 286663200
I1020 06:17:20.306135 11232 layer_factory.hpp:77] Creating layer pool3
I1020 06:17:20.306138 11232 net.cpp:100] Creating Layer pool3
I1020 06:17:20.306140 11232 net.cpp:434] pool3 <- drop3
I1020 06:17:20.306143 11232 net.cpp:408] pool3 -> pool3
I1020 06:17:20.306166 11232 net.cpp:150] Setting up pool3
I1020 06:17:20.306169 11232 net.cpp:157] Top shape: 100 260 3 3 (234000)
I1020 06:17:20.306171 11232 net.cpp:165] Memory required for data: 287599200
I1020 06:17:20.306174 11232 layer_factory.hpp:77] Creating layer conv6
I1020 06:17:20.306177 11232 net.cpp:100] Creating Layer conv6
I1020 06:17:20.306180 11232 net.cpp:434] conv6 <- pool3
I1020 06:17:20.306191 11232 net.cpp:408] conv6 -> conv6
I1020 06:17:20.307315 11232 net.cpp:150] Setting up conv6
I1020 06:17:20.307323 11232 net.cpp:157] Top shape: 100 260 3 3 (234000)
I1020 06:17:20.307325 11232 net.cpp:165] Memory required for data: 288535200
I1020 06:17:20.307329 11232 layer_factory.hpp:77] Creating layer relu6
I1020 06:17:20.307332 11232 net.cpp:100] Creating Layer relu6
I1020 06:17:20.307334 11232 net.cpp:434] relu6 <- conv6
I1020 06:17:20.307337 11232 net.cpp:408] relu6 -> relu6
I1020 06:17:20.307454 11232 net.cpp:150] Setting up relu6
I1020 06:17:20.307461 11232 net.cpp:157] Top shape: 100 260 3 3 (234000)
I1020 06:17:20.307461 11232 net.cpp:165] Memory required for data: 289471200
I1020 06:17:20.307463 11232 layer_factory.hpp:77] Creating layer conv7
I1020 06:17:20.307468 11232 net.cpp:100] Creating Layer conv7
I1020 06:17:20.307471 11232 net.cpp:434] conv7 <- relu6
I1020 06:17:20.307473 11232 net.cpp:408] conv7 -> conv7
I1020 06:17:20.309402 11232 net.cpp:150] Setting up conv7
I1020 06:17:20.309412 11232 net.cpp:157] Top shape: 100 280 2 2 (112000)
I1020 06:17:20.309413 11232 net.cpp:165] Memory required for data: 289919200
I1020 06:17:20.309417 11232 layer_factory.hpp:77] Creating layer relu7
I1020 06:17:20.309420 11232 net.cpp:100] Creating Layer relu7
I1020 06:17:20.309422 11232 net.cpp:434] relu7 <- conv7
I1020 06:17:20.309427 11232 net.cpp:408] relu7 -> relu7
I1020 06:17:20.309543 11232 net.cpp:150] Setting up relu7
I1020 06:17:20.309548 11232 net.cpp:157] Top shape: 100 280 2 2 (112000)
I1020 06:17:20.309551 11232 net.cpp:165] Memory required for data: 290367200
I1020 06:17:20.309552 11232 layer_factory.hpp:77] Creating layer drop4
I1020 06:17:20.309556 11232 net.cpp:100] Creating Layer drop4
I1020 06:17:20.309557 11232 net.cpp:434] drop4 <- relu7
I1020 06:17:20.309561 11232 net.cpp:408] drop4 -> drop4
I1020 06:17:20.309584 11232 net.cpp:150] Setting up drop4
I1020 06:17:20.309588 11232 net.cpp:157] Top shape: 100 280 2 2 (112000)
I1020 06:17:20.309589 11232 net.cpp:165] Memory required for data: 290815200
I1020 06:17:20.309592 11232 layer_factory.hpp:77] Creating layer pool4
I1020 06:17:20.309595 11232 net.cpp:100] Creating Layer pool4
I1020 06:17:20.309597 11232 net.cpp:434] pool4 <- drop4
I1020 06:17:20.309599 11232 net.cpp:408] pool4 -> pool4
I1020 06:17:20.309623 11232 net.cpp:150] Setting up pool4
I1020 06:17:20.309628 11232 net.cpp:157] Top shape: 100 280 1 1 (28000)
I1020 06:17:20.309628 11232 net.cpp:165] Memory required for data: 290927200
I1020 06:17:20.309630 11232 layer_factory.hpp:77] Creating layer conv8
I1020 06:17:20.309634 11232 net.cpp:100] Creating Layer conv8
I1020 06:17:20.309638 11232 net.cpp:434] conv8 <- pool4
I1020 06:17:20.309640 11232 net.cpp:408] conv8 -> conv8
I1020 06:17:20.310573 11232 net.cpp:150] Setting up conv8
I1020 06:17:20.310581 11232 net.cpp:157] Top shape: 100 280 1 1 (28000)
I1020 06:17:20.310583 11232 net.cpp:165] Memory required for data: 291039200
I1020 06:17:20.310587 11232 layer_factory.hpp:77] Creating layer relu8
I1020 06:17:20.310590 11232 net.cpp:100] Creating Layer relu8
I1020 06:17:20.310592 11232 net.cpp:434] relu8 <- conv8
I1020 06:17:20.310595 11232 net.cpp:408] relu8 -> relu8
I1020 06:17:20.310789 11232 net.cpp:150] Setting up relu8
I1020 06:17:20.310796 11232 net.cpp:157] Top shape: 100 280 1 1 (28000)
I1020 06:17:20.310798 11232 net.cpp:165] Memory required for data: 291151200
I1020 06:17:20.310801 11232 layer_factory.hpp:77] Creating layer drop5
I1020 06:17:20.310804 11232 net.cpp:100] Creating Layer drop5
I1020 06:17:20.310806 11232 net.cpp:434] drop5 <- relu8
I1020 06:17:20.310809 11232 net.cpp:408] drop5 -> drop5
I1020 06:17:20.310832 11232 net.cpp:150] Setting up drop5
I1020 06:17:20.310837 11232 net.cpp:157] Top shape: 100 280 1 1 (28000)
I1020 06:17:20.310837 11232 net.cpp:165] Memory required for data: 291263200
I1020 06:17:20.310839 11232 layer_factory.hpp:77] Creating layer pool5
I1020 06:17:20.310844 11232 net.cpp:100] Creating Layer pool5
I1020 06:17:20.310847 11232 net.cpp:434] pool5 <- drop5
I1020 06:17:20.310863 11232 net.cpp:408] pool5 -> pool5
I1020 06:17:20.310890 11232 net.cpp:150] Setting up pool5
I1020 06:17:20.310895 11232 net.cpp:157] Top shape: 100 280 1 1 (28000)
I1020 06:17:20.310897 11232 net.cpp:165] Memory required for data: 291375200
I1020 06:17:20.310899 11232 layer_factory.hpp:77] Creating layer conv10
I1020 06:17:20.310904 11232 net.cpp:100] Creating Layer conv10
I1020 06:17:20.310905 11232 net.cpp:434] conv10 <- pool5
I1020 06:17:20.310909 11232 net.cpp:408] conv10 -> conv10
I1020 06:17:20.312132 11232 net.cpp:150] Setting up conv10
I1020 06:17:20.312140 11232 net.cpp:157] Top shape: 100 300 1 1 (30000)
I1020 06:17:20.312142 11232 net.cpp:165] Memory required for data: 291495200
I1020 06:17:20.312150 11232 layer_factory.hpp:77] Creating layer relu10
I1020 06:17:20.312152 11232 net.cpp:100] Creating Layer relu10
I1020 06:17:20.312155 11232 net.cpp:434] relu10 <- conv10
I1020 06:17:20.312157 11232 net.cpp:408] relu10 -> relu10
I1020 06:17:20.312268 11232 net.cpp:150] Setting up relu10
I1020 06:17:20.312273 11232 net.cpp:157] Top shape: 100 300 1 1 (30000)
I1020 06:17:20.312274 11232 net.cpp:165] Memory required for data: 291615200
I1020 06:17:20.312276 11232 layer_factory.hpp:77] Creating layer drop6
I1020 06:17:20.312280 11232 net.cpp:100] Creating Layer drop6
I1020 06:17:20.312283 11232 net.cpp:434] drop6 <- relu10
I1020 06:17:20.312284 11232 net.cpp:408] drop6 -> drop6
I1020 06:17:20.312315 11232 net.cpp:150] Setting up drop6
I1020 06:17:20.312320 11232 net.cpp:157] Top shape: 100 300 1 1 (30000)
I1020 06:17:20.312321 11232 net.cpp:165] Memory required for data: 291735200
I1020 06:17:20.312324 11232 layer_factory.hpp:77] Creating layer pool6
I1020 06:17:20.312330 11232 net.cpp:100] Creating Layer pool6
I1020 06:17:20.312331 11232 net.cpp:434] pool6 <- drop6
I1020 06:17:20.312333 11232 net.cpp:408] pool6 -> pool6
I1020 06:17:20.312356 11232 net.cpp:150] Setting up pool6
I1020 06:17:20.312360 11232 net.cpp:157] Top shape: 100 300 1 1 (30000)
I1020 06:17:20.312361 11232 net.cpp:165] Memory required for data: 291855200
I1020 06:17:20.312363 11232 layer_factory.hpp:77] Creating layer conv11
I1020 06:17:20.312367 11232 net.cpp:100] Creating Layer conv11
I1020 06:17:20.312369 11232 net.cpp:434] conv11 <- pool6
I1020 06:17:20.312372 11232 net.cpp:408] conv11 -> conv11
I1020 06:17:20.313102 11232 net.cpp:150] Setting up conv11
I1020 06:17:20.313110 11232 net.cpp:157] Top shape: 100 100 1 1 (10000)
I1020 06:17:20.313112 11232 net.cpp:165] Memory required for data: 291895200
I1020 06:17:20.313117 11232 layer_factory.hpp:77] Creating layer relu11
I1020 06:17:20.313119 11232 net.cpp:100] Creating Layer relu11
I1020 06:17:20.313122 11232 net.cpp:434] relu11 <- conv11
I1020 06:17:20.313124 11232 net.cpp:408] relu11 -> relu11
I1020 06:17:20.313236 11232 net.cpp:150] Setting up relu11
I1020 06:17:20.313242 11232 net.cpp:157] Top shape: 100 100 1 1 (10000)
I1020 06:17:20.313243 11232 net.cpp:165] Memory required for data: 291935200
I1020 06:17:20.313246 11232 layer_factory.hpp:77] Creating layer drop7
I1020 06:17:20.313249 11232 net.cpp:100] Creating Layer drop7
I1020 06:17:20.313251 11232 net.cpp:434] drop7 <- relu11
I1020 06:17:20.313253 11232 net.cpp:408] drop7 -> drop7
I1020 06:17:20.313277 11232 net.cpp:150] Setting up drop7
I1020 06:17:20.313282 11232 net.cpp:157] Top shape: 100 100 1 1 (10000)
I1020 06:17:20.313283 11232 net.cpp:165] Memory required for data: 291975200
I1020 06:17:20.313285 11232 layer_factory.hpp:77] Creating layer pool7
I1020 06:17:20.313288 11232 net.cpp:100] Creating Layer pool7
I1020 06:17:20.313290 11232 net.cpp:434] pool7 <- drop7
I1020 06:17:20.313293 11232 net.cpp:408] pool7 -> pool7
I1020 06:17:20.313316 11232 net.cpp:150] Setting up pool7
I1020 06:17:20.313319 11232 net.cpp:157] Top shape: 100 100 1 1 (10000)
I1020 06:17:20.313321 11232 net.cpp:165] Memory required for data: 292015200
I1020 06:17:20.313323 11232 layer_factory.hpp:77] Creating layer pool7_pool7_0_split
I1020 06:17:20.313326 11232 net.cpp:100] Creating Layer pool7_pool7_0_split
I1020 06:17:20.313335 11232 net.cpp:434] pool7_pool7_0_split <- pool7
I1020 06:17:20.313339 11232 net.cpp:408] pool7_pool7_0_split -> pool7_pool7_0_split_0
I1020 06:17:20.313343 11232 net.cpp:408] pool7_pool7_0_split -> pool7_pool7_0_split_1
I1020 06:17:20.313365 11232 net.cpp:150] Setting up pool7_pool7_0_split
I1020 06:17:20.313369 11232 net.cpp:157] Top shape: 100 100 1 1 (10000)
I1020 06:17:20.313372 11232 net.cpp:157] Top shape: 100 100 1 1 (10000)
I1020 06:17:20.313375 11232 net.cpp:165] Memory required for data: 292095200
I1020 06:17:20.313376 11232 layer_factory.hpp:77] Creating layer ip_c
I1020 06:17:20.313380 11232 net.cpp:100] Creating Layer ip_c
I1020 06:17:20.313383 11232 net.cpp:434] ip_c <- pool7_pool7_0_split_0
I1020 06:17:20.313386 11232 net.cpp:408] ip_c -> ip_c
I1020 06:17:20.313463 11232 net.cpp:150] Setting up ip_c
I1020 06:17:20.313467 11232 net.cpp:157] Top shape: 100 20 (2000)
I1020 06:17:20.313472 11232 net.cpp:165] Memory required for data: 292103200
I1020 06:17:20.313474 11232 layer_factory.hpp:77] Creating layer ip_c_ip_c_0_split
I1020 06:17:20.313477 11232 net.cpp:100] Creating Layer ip_c_ip_c_0_split
I1020 06:17:20.313479 11232 net.cpp:434] ip_c_ip_c_0_split <- ip_c
I1020 06:17:20.313482 11232 net.cpp:408] ip_c_ip_c_0_split -> ip_c_ip_c_0_split_0
I1020 06:17:20.313486 11232 net.cpp:408] ip_c_ip_c_0_split -> ip_c_ip_c_0_split_1
I1020 06:17:20.313510 11232 net.cpp:150] Setting up ip_c_ip_c_0_split
I1020 06:17:20.313513 11232 net.cpp:157] Top shape: 100 20 (2000)
I1020 06:17:20.313516 11232 net.cpp:157] Top shape: 100 20 (2000)
I1020 06:17:20.313518 11232 net.cpp:165] Memory required for data: 292119200
I1020 06:17:20.313519 11232 layer_factory.hpp:77] Creating layer accuracy_f
I1020 06:17:20.313522 11232 net.cpp:100] Creating Layer accuracy_f
I1020 06:17:20.313524 11232 net.cpp:434] accuracy_f <- ip_c_ip_c_0_split_0
I1020 06:17:20.313526 11232 net.cpp:434] accuracy_f <- label_coarse_data_1_split_0
I1020 06:17:20.313529 11232 net.cpp:408] accuracy_f -> accuracy_f
…
