…
  level: 0
  stage: ""
}
type: "Adam"
I1020 09:37:34.363675 12653 solver.cpp:81] Creating training net from train_net file: /home/adam/Honours/Honours-Project/cifar-100_pooling/max/leakyrelu/poolcnn_leakyrelu_train.prototxt
I1020 09:37:34.363987 12653 net.cpp:58] Initializing net from parameters: 
state {
  phase: TRAIN
  level: 0
  stage: ""
}
layer {
  name: "data"
  type: "HDF5Data"
  top: "data"
  top: "label_coarse"
  top: "label_fine"
  hdf5_data_param {
    source: "../../../../data/cifar-100/cifar_100_caffe_hdf5/train.txt"
    batch_size: 64
  }
}
layer {
  name: "conv1"
  type: "Convolution"
  bottom: "data"
  top: "conv1"
  convolution_param {
    num_output: 192
    kernel_size: 5
    weight_filler {
      type: "xavier"
    }
  }
}
layer {
  name: "relu1"
  type: "ReLU"
  bottom: "conv1"
  top: "relu1"
  relu_param {
    negative_slope: 0.1
  }
}
layer {
  name: "drop1"
  type: "Dropout"
  bottom: "relu1"
  top: "drop1"
  dropout_param {
    dropout_ratio: 0
  }
}
layer {
  name: "pool1"
  type: "Pooling"
  bottom: "drop1"
  top: "pool1"
  pooling_param {
    pool: MAX
    kernel_size: 2
    stride: 2
  }
}
layer {
  name: "conv2"
  type: "Convolution"
  bottom: "pool1"
  top: "conv2"
  convolution_param {
    num_output: 192
    kernel_size: 1
    weight_filler {
      type: "xavier"
    }
  }
}
layer {
  name: "relu2"
  type: "ReLU"
  bottom: "conv2"
  top: "relu2"
  relu_param {
    negative_slope: 0.1
  }
}
layer {
  name: "conv3"
  type: "Convolution"
  bottom: "relu2"
  top: "conv3"
  convolution_param {
    num_output: 240
    kernel_size: 3
    weight_filler {
      type: "xavier"
    }
  }
}
layer {
  name: "relu3"
  type: "ReLU"
  bottom: "conv3"
  top: "relu3"
  relu_param {
    negative_slope: 0.1
  }
}
layer {
  name: "drop2"
  type: "Dropout"
  bottom: "relu3"
  top: "drop2"
  dropout_param {
    dropout_ratio: 0.1
  }
}
layer {
  name: "pool2"
  type: "Pooling"
  bottom: "drop2"
  top: "pool2"
  pooling_param {
    pool: MAX
    kernel_size: 2
    stride: 2
  }
}
layer {
  name: "conv4"
  type: "Convolution"
  bottom: "pool2"
  top: "conv4"
  convolution_param {
    num_output: 240
    kernel_size: 1
    weight_filler {
      type: "xavier"
    }
  }
}
layer {
  name: "relu4"
  type: "ReLU"
  bottom: "conv4"
  top: "relu4"
  relu_param {
    negative_slope: 0.1
  }
}
layer {
  name: "conv5"
  type: "Convolution"
  bottom: "relu4"
  top: "conv5"
  convolution_param {
    num_output: 260
    kernel_size: 2
    weight_filler {
      type: "xavier"
    }
  }
}
layer {
  name: "relu5"
  type: "ReLU"
  bottom: "conv5"
  top: "relu5"
  relu_param {
    negative_slope: 0.1
  }
}
layer {
  name: "drop3"
  type: "Dropout"
  bottom: "relu5"
  top: "drop3"
  dropout_param {
    dropout_ratio: 0.2
  }
}
layer {
  name: "pool3"
  type: "Pooling"
  bottom: "drop3"
  top: "pool3"
  pooling_param {
    pool: MAX
    kernel_size: 2
    stride: 2
  }
}
layer {
  name: "conv6"
  type: "Convolution"
  bottom: "pool3"
  top: "conv6"
  convolution_param {
    num_output: 260
    kernel_size: 1
    weight_filler {
      type: "xavier"
    }
  }
}
layer {
  name: "relu6"
  type: "ReLU"
  bottom: "conv6"
  top: "relu6"
  relu_param {
    negative_slope: 0.1
  }
}
layer {
  name: "conv7"
  type: "Convolution"
  bottom: "relu6"
  top: "conv7"
  convolution_param {
    num_output: 280
    kernel_size: 2
    weight_filler {
      type: "xavier"
    }
  }
}
layer {
  name: "relu7"
  type: "ReLU"
  bottom: "conv7"
  top: "relu7"
  relu_param {
    negative_slope: 0.1
  }
}
layer {
  name: "drop4"
  type: "Dropout"
  bottom: "relu7"
  top: "drop4"
  dropout_param {
    dropout_ratio: 0.3
  }
}
layer {
  name: "pool4"
  type: "Pooling"
  bottom: "drop4"
  top: "pool4"
  pooling_param {
    pool: MAX
    kernel_size: 2
    stride: 2
  }
}
layer {
  name: "conv8"
  type: "Convolution"
  bottom: "pool4"
  top: "conv8"
  convolution_param {
    num_output: 280
    kernel_size: 1
    weight_filler {
      type: "xavier"
    }
  }
}
layer {
  name: "relu8"
  type: "ReLU"
  bottom: "conv8"
  top: "relu8"
  relu_param {
    negative_slope: 0.1
  }
}
layer {
  name: "drop5"
  type: "Dropout"
  bottom: "relu8"
  top: "drop5"
  dropout_param {
    dropout_ratio: 0.4
  }
}
layer {
  name: "pool5"
  type: "Pooling"
  bottom: "drop5"
  top: "pool5"
  pooling_param {
    pool: MAX
    kernel_size: 2
    stride: 2
  }
}
layer {
  name: "conv10"
  type: "Convolution"
  bottom: "pool5"
  top: "conv10"
  convolution_param {
    num_output: 300
    kernel_size: 1
    weight_filler {
      type: "xavier"
    }
  }
}
layer {
  name: "relu10"
  type: "ReLU"
  bottom: "conv10"
  top: "relu10"
  relu_param {
    negative_slope: 0.1
  }
}
layer {
  name: "drop6"
  type: "Dropout"
  bottom: "relu10"
  top: "drop6"
  dropout_param {
    dropout_ratio: 0.5
  }
}
layer {
  name: "pool6"
  type: "Pooling"
  bottom: "drop6"
  top: "pool6"
  pooling_param {
    pool: MAX
    kernel_size: 2
    stride: 2
  }
}
layer {
  name: "conv11"
  type: "Convolution"
  bottom: "pool6"
  top: "conv11"
  convolution_param {
    num_output: 100
    kernel_size: 1
    weight_filler {
      type: "xavier"
    }
  }
}
layer {
  name: "relu11"
  type: "ReLU"
  bottom: "conv11"
  top: "relu11"
  relu_param {
    negative_slope: 0.1
  }
}
layer {
  name: "drop7"
  type: "Dropout"
  bottom: "relu11"
  top: "drop7"
  dropout_param {
    dropout_ratio: 0
  }
}
layer {
  name: "pool7"
  type: "Pooling"
  bottom: "drop7"
  top: "pool7"
  pooling_param {
    pool: MAX
    kernel_size: 2
    stride: 2
  }
}
layer {
  name: "ip_c"
  type: "InnerProduct"
  bottom: "pool7"
  top: "ip_c"
  inner_product_param {
    num_output: 20
    weight_filler {
      type: "xavier"
    }
  }
}
layer {
  name: "accuracy_f"
  type: "Accuracy"
  bottom: "ip_c"
  bottom: "label_coarse"
  top: "accuracy_f"
}
layer {
  name: "loss_c"
  type: "SoftmaxWithLoss"
  bottom: "ip_c"
  bottom: "label_coarse"
  top: "loss_c"
}
layer {
  name: "ip_f"
  type: "InnerProduct"
  bottom: "pool7"
  top: "ip_f"
  inner_product_param {
    num_output: 100
    weight_filler {
      type: "xavier"
    }
  }
}
layer {
  name: "accuracy"
  type: "Accuracy"
  bottom: "ip_f"
  bottom: "label_fine"
  top: "accuracy"
}
layer {
  name: "loss_f"
  type: "SoftmaxWithLoss"
  bottom: "ip_f"
  bottom: "label_fine"
  top: "loss_f"
}
I1020 09:37:34.364131 12653 layer_factory.hpp:77] Creating layer data
I1020 09:37:34.364145 12653 net.cpp:100] Creating Layer data
I1020 09:37:34.364150 12653 net.cpp:408] data -> data
I1020 09:37:34.364167 12653 net.cpp:408] data -> label_coarse
I1020 09:37:34.364176 12653 net.cpp:408] data -> label_fine
I1020 09:37:34.364181 12653 hdf5_data_layer.cpp:79] Loading list of HDF5 filenames from: ../../../../data/cifar-100/cifar_100_caffe_hdf5/train.txt
I1020 09:37:34.364204 12653 hdf5_data_layer.cpp:93] Number of HDF5 files: 1
I1020 09:37:34.364825 12653 hdf5.cpp:35] Datatype class: H5T_INTEGER
I1020 09:37:35.942582 12653 net.cpp:150] Setting up data
I1020 09:37:35.942611 12653 net.cpp:157] Top shape: 64 3 32 32 (196608)
I1020 09:37:35.942615 12653 net.cpp:157] Top shape: 64 (64)
I1020 09:37:35.942617 12653 net.cpp:157] Top shape: 64 (64)
I1020 09:37:35.942620 12653 net.cpp:165] Memory required for data: 786944
I1020 09:37:35.942626 12653 layer_factory.hpp:77] Creating layer label_coarse_data_1_split
I1020 09:37:35.942634 12653 net.cpp:100] Creating Layer label_coarse_data_1_split
I1020 09:37:35.942641 12653 net.cpp:434] label_coarse_data_1_split <- label_coarse
I1020 09:37:35.942653 12653 net.cpp:408] label_coarse_data_1_split -> label_coarse_data_1_split_0
I1020 09:37:35.942677 12653 net.cpp:408] label_coarse_data_1_split -> label_coarse_data_1_split_1
I1020 09:37:35.942699 12653 net.cpp:150] Setting up label_coarse_data_1_split
I1020 09:37:35.942703 12653 net.cpp:157] Top shape: 64 (64)
I1020 09:37:35.942705 12653 net.cpp:157] Top shape: 64 (64)
I1020 09:37:35.942708 12653 net.cpp:165] Memory required for data: 787456
I1020 09:37:35.942709 12653 layer_factory.hpp:77] Creating layer label_fine_data_2_split
I1020 09:37:35.942714 12653 net.cpp:100] Creating Layer label_fine_data_2_split
I1020 09:37:35.942718 12653 net.cpp:434] label_fine_data_2_split <- label_fine
I1020 09:37:35.942723 12653 net.cpp:408] label_fine_data_2_split -> label_fine_data_2_split_0
I1020 09:37:35.942729 12653 net.cpp:408] label_fine_data_2_split -> label_fine_data_2_split_1
I1020 09:37:35.942750 12653 net.cpp:150] Setting up label_fine_data_2_split
I1020 09:37:35.942754 12653 net.cpp:157] Top shape: 64 (64)
I1020 09:37:35.942756 12653 net.cpp:157] Top shape: 64 (64)
I1020 09:37:35.942759 12653 net.cpp:165] Memory required for data: 787968
I1020 09:37:35.942760 12653 layer_factory.hpp:77] Creating layer conv1
I1020 09:37:35.942770 12653 net.cpp:100] Creating Layer conv1
I1020 09:37:35.942772 12653 net.cpp:434] conv1 <- data
I1020 09:37:35.942775 12653 net.cpp:408] conv1 -> conv1
I1020 09:37:36.061270 12653 net.cpp:150] Setting up conv1
I1020 09:37:36.061297 12653 net.cpp:157] Top shape: 64 192 28 28 (9633792)
I1020 09:37:36.061300 12653 net.cpp:165] Memory required for data: 39323136
I1020 09:37:36.061318 12653 layer_factory.hpp:77] Creating layer relu1
I1020 09:37:36.061331 12653 net.cpp:100] Creating Layer relu1
I1020 09:37:36.061333 12653 net.cpp:434] relu1 <- conv1
I1020 09:37:36.061341 12653 net.cpp:408] relu1 -> relu1
I1020 09:37:36.061468 12653 net.cpp:150] Setting up relu1
I1020 09:37:36.061476 12653 net.cpp:157] Top shape: 64 192 28 28 (9633792)
I1020 09:37:36.061477 12653 net.cpp:165] Memory required for data: 77858304
I1020 09:37:36.061480 12653 layer_factory.hpp:77] Creating layer drop1
I1020 09:37:36.061485 12653 net.cpp:100] Creating Layer drop1
I1020 09:37:36.061487 12653 net.cpp:434] drop1 <- relu1
I1020 09:37:36.061489 12653 net.cpp:408] drop1 -> drop1
I1020 09:37:36.061514 12653 net.cpp:150] Setting up drop1
I1020 09:37:36.061518 12653 net.cpp:157] Top shape: 64 192 28 28 (9633792)
I1020 09:37:36.061520 12653 net.cpp:165] Memory required for data: 116393472
I1020 09:37:36.061522 12653 layer_factory.hpp:77] Creating layer pool1
I1020 09:37:36.061525 12653 net.cpp:100] Creating Layer pool1
I1020 09:37:36.061527 12653 net.cpp:434] pool1 <- drop1
I1020 09:37:36.061530 12653 net.cpp:408] pool1 -> pool1
I1020 09:37:36.061556 12653 net.cpp:150] Setting up pool1
I1020 09:37:36.061560 12653 net.cpp:157] Top shape: 64 192 14 14 (2408448)
I1020 09:37:36.061561 12653 net.cpp:165] Memory required for data: 126027264
I1020 09:37:36.061564 12653 layer_factory.hpp:77] Creating layer conv2
I1020 09:37:36.061569 12653 net.cpp:100] Creating Layer conv2
I1020 09:37:36.061571 12653 net.cpp:434] conv2 <- pool1
I1020 09:37:36.061574 12653 net.cpp:408] conv2 -> conv2
I1020 09:37:36.062363 12653 net.cpp:150] Setting up conv2
I1020 09:37:36.062371 12653 net.cpp:157] Top shape: 64 192 14 14 (2408448)
I1020 09:37:36.062373 12653 net.cpp:165] Memory required for data: 135661056
I1020 09:37:36.062378 12653 layer_factory.hpp:77] Creating layer relu2
I1020 09:37:36.062383 12653 net.cpp:100] Creating Layer relu2
I1020 09:37:36.062386 12653 net.cpp:434] relu2 <- conv2
I1020 09:37:36.062388 12653 net.cpp:408] relu2 -> relu2
I1020 09:37:36.062502 12653 net.cpp:150] Setting up relu2
I1020 09:37:36.062508 12653 net.cpp:157] Top shape: 64 192 14 14 (2408448)
I1020 09:37:36.062510 12653 net.cpp:165] Memory required for data: 145294848
I1020 09:37:36.062512 12653 layer_factory.hpp:77] Creating layer conv3
I1020 09:37:36.062516 12653 net.cpp:100] Creating Layer conv3
I1020 09:37:36.062520 12653 net.cpp:434] conv3 <- relu2
I1020 09:37:36.062522 12653 net.cpp:408] conv3 -> conv3
I1020 09:37:36.064918 12653 net.cpp:150] Setting up conv3
I1020 09:37:36.064935 12653 net.cpp:157] Top shape: 64 240 12 12 (2211840)
I1020 09:37:36.064939 12653 net.cpp:165] Memory required for data: 154142208
I1020 09:37:36.064945 12653 layer_factory.hpp:77] Creating layer relu3
I1020 09:37:36.064949 12653 net.cpp:100] Creating Layer relu3
I1020 09:37:36.064951 12653 net.cpp:434] relu3 <- conv3
I1020 09:37:36.064954 12653 net.cpp:408] relu3 -> relu3
I1020 09:37:36.065143 12653 net.cpp:150] Setting up relu3
I1020 09:37:36.065150 12653 net.cpp:157] Top shape: 64 240 12 12 (2211840)
I1020 09:37:36.065151 12653 net.cpp:165] Memory required for data: 162989568
I1020 09:37:36.065155 12653 layer_factory.hpp:77] Creating layer drop2
I1020 09:37:36.065158 12653 net.cpp:100] Creating Layer drop2
I1020 09:37:36.065160 12653 net.cpp:434] drop2 <- relu3
I1020 09:37:36.065163 12653 net.cpp:408] drop2 -> drop2
I1020 09:37:36.065186 12653 net.cpp:150] Setting up drop2
I1020 09:37:36.065189 12653 net.cpp:157] Top shape: 64 240 12 12 (2211840)
I1020 09:37:36.065192 12653 net.cpp:165] Memory required for data: 171836928
I1020 09:37:36.065194 12653 layer_factory.hpp:77] Creating layer pool2
I1020 09:37:36.065198 12653 net.cpp:100] Creating Layer pool2
I1020 09:37:36.065201 12653 net.cpp:434] pool2 <- drop2
I1020 09:37:36.065204 12653 net.cpp:408] pool2 -> pool2
I1020 09:37:36.065232 12653 net.cpp:150] Setting up pool2
I1020 09:37:36.065237 12653 net.cpp:157] Top shape: 64 240 6 6 (552960)
I1020 09:37:36.065240 12653 net.cpp:165] Memory required for data: 174048768
I1020 09:37:36.065244 12653 layer_factory.hpp:77] Creating layer conv4
I1020 09:37:36.065253 12653 net.cpp:100] Creating Layer conv4
I1020 09:37:36.065256 12653 net.cpp:434] conv4 <- pool2
I1020 09:37:36.065259 12653 net.cpp:408] conv4 -> conv4
I1020 09:37:36.066089 12653 net.cpp:150] Setting up conv4
I1020 09:37:36.066097 12653 net.cpp:157] Top shape: 64 240 6 6 (552960)
I1020 09:37:36.066102 12653 net.cpp:165] Memory required for data: 176260608
I1020 09:37:36.066109 12653 layer_factory.hpp:77] Creating layer relu4
I1020 09:37:36.066114 12653 net.cpp:100] Creating Layer relu4
I1020 09:37:36.066118 12653 net.cpp:434] relu4 <- conv4
I1020 09:37:36.066124 12653 net.cpp:408] relu4 -> relu4
I1020 09:37:36.066239 12653 net.cpp:150] Setting up relu4
I1020 09:37:36.066246 12653 net.cpp:157] Top shape: 64 240 6 6 (552960)
I1020 09:37:36.066249 12653 net.cpp:165] Memory required for data: 178472448
I1020 09:37:36.066253 12653 layer_factory.hpp:77] Creating layer conv5
I1020 09:37:36.066260 12653 net.cpp:100] Creating Layer conv5
I1020 09:37:36.066263 12653 net.cpp:434] conv5 <- relu4
I1020 09:37:36.066267 12653 net.cpp:408] conv5 -> conv5
I1020 09:37:36.067987 12653 net.cpp:150] Setting up conv5
I1020 09:37:36.067996 12653 net.cpp:157] Top shape: 64 260 5 5 (416000)
I1020 09:37:36.068001 12653 net.cpp:165] Memory required for data: 180136448
I1020 09:37:36.068008 12653 layer_factory.hpp:77] Creating layer relu5
I1020 09:37:36.068016 12653 net.cpp:100] Creating Layer relu5
I1020 09:37:36.068019 12653 net.cpp:434] relu5 <- conv5
I1020 09:37:36.068023 12653 net.cpp:408] relu5 -> relu5
I1020 09:37:36.068130 12653 net.cpp:150] Setting up relu5
I1020 09:37:36.068136 12653 net.cpp:157] Top shape: 64 260 5 5 (416000)
I1020 09:37:36.068140 12653 net.cpp:165] Memory required for data: 181800448
I1020 09:37:36.068145 12653 layer_factory.hpp:77] Creating layer drop3
I1020 09:37:36.068150 12653 net.cpp:100] Creating Layer drop3
I1020 09:37:36.068153 12653 net.cpp:434] drop3 <- relu5
I1020 09:37:36.068157 12653 net.cpp:408] drop3 -> drop3
I1020 09:37:36.068181 12653 net.cpp:150] Setting up drop3
I1020 09:37:36.068186 12653 net.cpp:157] Top shape: 64 260 5 5 (416000)
I1020 09:37:36.068189 12653 net.cpp:165] Memory required for data: 183464448
I1020 09:37:36.068192 12653 layer_factory.hpp:77] Creating layer pool3
I1020 09:37:36.068197 12653 net.cpp:100] Creating Layer pool3
I1020 09:37:36.068202 12653 net.cpp:434] pool3 <- drop3
I1020 09:37:36.068207 12653 net.cpp:408] pool3 -> pool3
I1020 09:37:36.068230 12653 net.cpp:150] Setting up pool3
I1020 09:37:36.068243 12653 net.cpp:157] Top shape: 64 260 3 3 (149760)
I1020 09:37:36.068246 12653 net.cpp:165] Memory required for data: 184063488
I1020 09:37:36.068250 12653 layer_factory.hpp:77] Creating layer conv6
I1020 09:37:36.068256 12653 net.cpp:100] Creating Layer conv6
I1020 09:37:36.068259 12653 net.cpp:434] conv6 <- pool3
I1020 09:37:36.068264 12653 net.cpp:408] conv6 -> conv6
I1020 09:37:36.069350 12653 net.cpp:150] Setting up conv6
I1020 09:37:36.069357 12653 net.cpp:157] Top shape: 64 260 3 3 (149760)
I1020 09:37:36.069361 12653 net.cpp:165] Memory required for data: 184662528
I1020 09:37:36.069367 12653 layer_factory.hpp:77] Creating layer relu6
I1020 09:37:36.069373 12653 net.cpp:100] Creating Layer relu6
I1020 09:37:36.069377 12653 net.cpp:434] relu6 <- conv6
I1020 09:37:36.069382 12653 net.cpp:408] relu6 -> relu6
I1020 09:37:36.069568 12653 net.cpp:150] Setting up relu6
I1020 09:37:36.069576 12653 net.cpp:157] Top shape: 64 260 3 3 (149760)
I1020 09:37:36.069579 12653 net.cpp:165] Memory required for data: 185261568
I1020 09:37:36.069583 12653 layer_factory.hpp:77] Creating layer conv7
I1020 09:37:36.069591 12653 net.cpp:100] Creating Layer conv7
I1020 09:37:36.069594 12653 net.cpp:434] conv7 <- relu6
I1020 09:37:36.069599 12653 net.cpp:408] conv7 -> conv7
I1020 09:37:36.071480 12653 net.cpp:150] Setting up conv7
I1020 09:37:36.071488 12653 net.cpp:157] Top shape: 64 280 2 2 (71680)
I1020 09:37:36.071493 12653 net.cpp:165] Memory required for data: 185548288
I1020 09:37:36.071501 12653 layer_factory.hpp:77] Creating layer relu7
I1020 09:37:36.071506 12653 net.cpp:100] Creating Layer relu7
I1020 09:37:36.071509 12653 net.cpp:434] relu7 <- conv7
I1020 09:37:36.071514 12653 net.cpp:408] relu7 -> relu7
I1020 09:37:36.071624 12653 net.cpp:150] Setting up relu7
I1020 09:37:36.071630 12653 net.cpp:157] Top shape: 64 280 2 2 (71680)
I1020 09:37:36.071633 12653 net.cpp:165] Memory required for data: 185835008
I1020 09:37:36.071637 12653 layer_factory.hpp:77] Creating layer drop4
I1020 09:37:36.071642 12653 net.cpp:100] Creating Layer drop4
I1020 09:37:36.071646 12653 net.cpp:434] drop4 <- relu7
I1020 09:37:36.071650 12653 net.cpp:408] drop4 -> drop4
I1020 09:37:36.071674 12653 net.cpp:150] Setting up drop4
I1020 09:37:36.071678 12653 net.cpp:157] Top shape: 64 280 2 2 (71680)
I1020 09:37:36.071682 12653 net.cpp:165] Memory required for data: 186121728
I1020 09:37:36.071684 12653 layer_factory.hpp:77] Creating layer pool4
I1020 09:37:36.071689 12653 net.cpp:100] Creating Layer pool4
I1020 09:37:36.071693 12653 net.cpp:434] pool4 <- drop4
I1020 09:37:36.071697 12653 net.cpp:408] pool4 -> pool4
I1020 09:37:36.071720 12653 net.cpp:150] Setting up pool4
I1020 09:37:36.071725 12653 net.cpp:157] Top shape: 64 280 1 1 (17920)
I1020 09:37:36.071729 12653 net.cpp:165] Memory required for data: 186193408
I1020 09:37:36.071732 12653 layer_factory.hpp:77] Creating layer conv8
I1020 09:37:36.071738 12653 net.cpp:100] Creating Layer conv8
I1020 09:37:36.071741 12653 net.cpp:434] conv8 <- pool4
I1020 09:37:36.071746 12653 net.cpp:408] conv8 -> conv8
I1020 09:37:36.072720 12653 net.cpp:150] Setting up conv8
I1020 09:37:36.072731 12653 net.cpp:157] Top shape: 64 280 1 1 (17920)
I1020 09:37:36.072732 12653 net.cpp:165] Memory required for data: 186265088
I1020 09:37:36.072738 12653 layer_factory.hpp:77] Creating layer relu8
I1020 09:37:36.072744 12653 net.cpp:100] Creating Layer relu8
I1020 09:37:36.072747 12653 net.cpp:434] relu8 <- conv8
I1020 09:37:36.072751 12653 net.cpp:408] relu8 -> relu8
I1020 09:37:36.072888 12653 net.cpp:150] Setting up relu8
I1020 09:37:36.072896 12653 net.cpp:157] Top shape: 64 280 1 1 (17920)
I1020 09:37:36.072898 12653 net.cpp:165] Memory required for data: 186336768
I1020 09:37:36.072901 12653 layer_factory.hpp:77] Creating layer drop5
I1020 09:37:36.072906 12653 net.cpp:100] Creating Layer drop5
I1020 09:37:36.072909 12653 net.cpp:434] drop5 <- relu8
I1020 09:37:36.072913 12653 net.cpp:408] drop5 -> drop5
I1020 09:37:36.072942 12653 net.cpp:150] Setting up drop5
I1020 09:37:36.072948 12653 net.cpp:157] Top shape: 64 280 1 1 (17920)
I1020 09:37:36.072973 12653 net.cpp:165] Memory required for data: 186408448
I1020 09:37:36.072979 12653 layer_factory.hpp:77] Creating layer pool5
I1020 09:37:36.072984 12653 net.cpp:100] Creating Layer pool5
I1020 09:37:36.072988 12653 net.cpp:434] pool5 <- drop5
I1020 09:37:36.072993 12653 net.cpp:408] pool5 -> pool5
I1020 09:37:36.073029 12653 net.cpp:150] Setting up pool5
I1020 09:37:36.073035 12653 net.cpp:157] Top shape: 64 280 1 1 (17920)
I1020 09:37:36.073038 12653 net.cpp:165] Memory required for data: 186480128
I1020 09:37:36.073040 12653 layer_factory.hpp:77] Creating layer conv10
I1020 09:37:36.073046 12653 net.cpp:100] Creating Layer conv10
I1020 09:37:36.073050 12653 net.cpp:434] conv10 <- pool5
I1020 09:37:36.073055 12653 net.cpp:408] conv10 -> conv10
I1020 09:37:36.074232 12653 net.cpp:150] Setting up conv10
I1020 09:37:36.074244 12653 net.cpp:157] Top shape: 64 300 1 1 (19200)
I1020 09:37:36.074249 12653 net.cpp:165] Memory required for data: 186556928
I1020 09:37:36.074259 12653 layer_factory.hpp:77] Creating layer relu10
I1020 09:37:36.074265 12653 net.cpp:100] Creating Layer relu10
I1020 09:37:36.074270 12653 net.cpp:434] relu10 <- conv10
I1020 09:37:36.074275 12653 net.cpp:408] relu10 -> relu10
I1020 09:37:36.074513 12653 net.cpp:150] Setting up relu10
I1020 09:37:36.074522 12653 net.cpp:157] Top shape: 64 300 1 1 (19200)
I1020 09:37:36.074523 12653 net.cpp:165] Memory required for data: 186633728
I1020 09:37:36.074527 12653 layer_factory.hpp:77] Creating layer drop6
I1020 09:37:36.074530 12653 net.cpp:100] Creating Layer drop6
I1020 09:37:36.074532 12653 net.cpp:434] drop6 <- relu10
I1020 09:37:36.074537 12653 net.cpp:408] drop6 -> drop6
I1020 09:37:36.074560 12653 net.cpp:150] Setting up drop6
I1020 09:37:36.074564 12653 net.cpp:157] Top shape: 64 300 1 1 (19200)
I1020 09:37:36.074566 12653 net.cpp:165] Memory required for data: 186710528
I1020 09:37:36.074568 12653 layer_factory.hpp:77] Creating layer pool6
I1020 09:37:36.074573 12653 net.cpp:100] Creating Layer pool6
I1020 09:37:36.074576 12653 net.cpp:434] pool6 <- drop6
I1020 09:37:36.074579 12653 net.cpp:408] pool6 -> pool6
I1020 09:37:36.074601 12653 net.cpp:150] Setting up pool6
I1020 09:37:36.074604 12653 net.cpp:157] Top shape: 64 300 1 1 (19200)
I1020 09:37:36.074607 12653 net.cpp:165] Memory required for data: 186787328
I1020 09:37:36.074609 12653 layer_factory.hpp:77] Creating layer conv11
I1020 09:37:36.074614 12653 net.cpp:100] Creating Layer conv11
I1020 09:37:36.074616 12653 net.cpp:434] conv11 <- pool6
I1020 09:37:36.074620 12653 net.cpp:408] conv11 -> conv11
I1020 09:37:36.075512 12653 net.cpp:150] Setting up conv11
I1020 09:37:36.075520 12653 net.cpp:157] Top shape: 64 100 1 1 (6400)
I1020 09:37:36.075522 12653 net.cpp:165] Memory required for data: 186812928
I1020 09:37:36.075526 12653 layer_factory.hpp:77] Creating layer relu11
I1020 09:37:36.075531 12653 net.cpp:100] Creating Layer relu11
I1020 09:37:36.075533 12653 net.cpp:434] relu11 <- conv11
I1020 09:37:36.075536 12653 net.cpp:408] relu11 -> relu11
I1020 09:37:36.075644 12653 net.cpp:150] Setting up relu11
I1020 09:37:36.075649 12653 net.cpp:157] Top shape: 64 100 1 1 (6400)
I1020 09:37:36.075651 12653 net.cpp:165] Memory required for data: 186838528
I1020 09:37:36.075654 12653 layer_factory.hpp:77] Creating layer drop7
I1020 09:37:36.075656 12653 net.cpp:100] Creating Layer drop7
I1020 09:37:36.075659 12653 net.cpp:434] drop7 <- relu11
I1020 09:37:36.075662 12653 net.cpp:408] drop7 -> drop7
I1020 09:37:36.075683 12653 net.cpp:150] Setting up drop7
I1020 09:37:36.075687 12653 net.cpp:157] Top shape: 64 100 1 1 (6400)
I1020 09:37:36.075690 12653 net.cpp:165] Memory required for data: 186864128
I1020 09:37:36.075691 12653 layer_factory.hpp:77] Creating layer pool7
I1020 09:37:36.075695 12653 net.cpp:100] Creating Layer pool7
I1020 09:37:36.075696 12653 net.cpp:434] pool7 <- drop7
I1020 09:37:36.075700 12653 net.cpp:408] pool7 -> pool7
I1020 09:37:36.075719 12653 net.cpp:150] Setting up pool7
I1020 09:37:36.075723 12653 net.cpp:157] Top shape: 64 100 1 1 (6400)
I1020 09:37:36.075733 12653 net.cpp:165] Memory required for data: 186889728
I1020 09:37:36.075736 12653 layer_factory.hpp:77] Creating layer pool7_pool7_0_split
I1020 09:37:36.075738 12653 net.cpp:100] Creating Layer pool7_pool7_0_split
I1020 09:37:36.075740 12653 net.cpp:434] pool7_pool7_0_split <- pool7
I1020 09:37:36.075744 12653 net.cpp:408] pool7_pool7_0_split -> pool7_pool7_0_split_0
I1020 09:37:36.075748 12653 net.cpp:408] pool7_pool7_0_split -> pool7_pool7_0_split_1
I1020 09:37:36.075770 12653 net.cpp:150] Setting up pool7_pool7_0_split
I1020 09:37:36.075774 12653 net.cpp:157] Top shape: 64 100 1 1 (6400)
I1020 09:37:36.075778 12653 net.cpp:157] Top shape: 64 100 1 1 (6400)
I1020 09:37:36.075779 12653 net.cpp:165] Memory required for data: 186940928
I1020 09:37:36.075781 12653 layer_factory.hpp:77] Creating layer ip_c
I1020 09:37:36.075784 12653 net.cpp:100] Creating Layer ip_c
I1020 09:37:36.075788 12653 net.cpp:434] ip_c <- pool7_pool7_0_split_0
I1020 09:37:36.075790 12653 net.cpp:408] ip_c -> ip_c
I1020 09:37:36.076122 12653 net.cpp:150] Setting up ip_c
I1020 09:37:36.076128 12653 net.cpp:157] Top shape: 64 20 (1280)
I1020 09:37:36.076131 12653 net.cpp:165] Memory required for data: 186946048
I1020 09:37:36.076135 12653 layer_factory.hpp:77] Creating layer ip_c_ip_c_0_split
I1020 09:37:36.076139 12653 net.cpp:100] Creating Layer ip_c_ip_c_0_split
I1020 09:37:36.076141 12653 net.cpp:434] ip_c_ip_c_0_split <- ip_c
I1020 09:37:36.076145 12653 net.cpp:408] ip_c_ip_c_0_split -> ip_c_ip_c_0_split_0
I1020 09:37:36.076150 12653 net.cpp:408] ip_c_ip_c_0_split -> ip_c_ip_c_0_split_1
I1020 09:37:36.076171 12653 net.cpp:150] Setting up ip_c_ip_c_0_split
I1020 09:37:36.076174 12653 net.cpp:157] Top shape: 64 20 (1280)
I1020 09:37:36.076179 12653 net.cpp:157] Top shape: 64 20 (1280)
I1020 09:37:36.076180 12653 net.cpp:165] Memory required for data: 186956288
I1020 09:37:36.076181 12653 layer_factory.hpp:77] Creating layer accuracy_f
I1020 09:37:36.076185 12653 net.cpp:100] Creating Layer accuracy_f
I1020 09:37:36.076189 12653 net.cpp:434] accuracy_f <- ip_c_ip_c_0_split_0
I1020 09:37:36.076190 12653 net.cpp:434] accuracy_f <- label_coarse_data_1_split_0
I1020 09:37:36.076195 12653 net.cpp:408] accuracy_f -> accuracy_f
…
I1020 09:37:36.077003 12653 net.cpp:283] Network initialization done.
I1020 09:37:36.077205 12653 solver.cpp:181] Creating test net (#0) specified by test_net file: /home/adam/Honours/Honours-Project/cifar-100_pooling/max/leakyrelu/poolcnn_leakyrelu_test.prototxt
I1020 09:37:36.077327 12653 net.cpp:58] Initializing net from parameters: 
state {
  phase: TEST
}
layer {
  name: "data"
  type: "HDF5Data"
  top: "data"
  top: "label_coarse"
  top: "label_fine"
  hdf5_data_param {
    source: "../../../../data/cifar-100/cifar_100_caffe_hdf5/test.txt"
    batch_size: 100
  }
}
layer {
  name: "conv1"
  type: "Convolution"
  bottom: "data"
  top: "conv1"
  convolution_param {
    num_output: 192
    kernel_size: 5
    weight_filler {
      type: "xavier"
    }
  }
}
layer {
  name: "relu1"
  type: "ReLU"
  bottom: "conv1"
  top: "relu1"
  relu_param {
    negative_slope: 0.1
  }
}
layer {
  name: "drop1"
  type: "Dropout"
  bottom: "relu1"
  top: "drop1"
  dropout_param {
    dropout_ratio: 0
  }
}
layer {
  name: "pool1"
  type: "Pooling"
  bottom: "drop1"
  top: "pool1"
  pooling_param {
    pool: MAX
    kernel_size: 2
    stride: 2
  }
}
layer {
  name: "conv2"
  type: "Convolution"
  bottom: "pool1"
  top: "conv2"
  convolution_param {
    num_output: 192
    kernel_size: 1
    weight_filler {
      type: "xavier"
    }
  }
}
layer {
  name: "relu2"
  type: "ReLU"
  bottom: "conv2"
  top: "relu2"
  relu_param {
    negative_slope: 0.1
  }
}
layer {
  name: "conv3"
  type: "Convolution"
  bottom: "relu2"
  top: "conv3"
  convolution_param {
    num_output: 240
    kernel_size: 3
    weight_filler {
      type: "xavier"
    }
  }
}
layer {
  name: "relu3"
  type: "ReLU"
  bottom: "conv3"
  top: "relu3"
  relu_param {
    negative_slope: 0.1
  }
}
layer {
  name: "drop2"
  type: "Dropout"
  bottom: "relu3"
  top: "drop2"
  dropout_param {
    dropout_ratio: 0.1
  }
}
layer {
  name: "pool2"
  type: "Pooling"
  bottom: "drop2"
  top: "pool2"
  pooling_param {
    pool: MAX
    kernel_size: 2
    stride: 2
  }
}
layer {
  name: "conv4"
  type: "Convolution"
  bottom: "pool2"
  top: "conv4"
  convolution_param {
    num_output: 240
    kernel_size: 1
    weight_filler {
      type: "xavier"
    }
  }
}
layer {
  name: "relu4"
  type: "ReLU"
  bottom: "conv4"
  top: "relu4"
  relu_param {
    negative_slope: 0.1
  }
}
layer {
  name: "conv5"
  type: "Convolution"
  bottom: "relu4"
  top: "conv5"
  convolution_param {
    num_output: 260
    kernel_size: 2
    weight_filler {
      type: "xavier"
    }
  }
}
layer {
  name: "relu5"
  type: "ReLU"
  bottom: "conv5"
  top: "relu5"
  relu_param {
    negative_slope: 0.1
  }
}
layer {
  name: "drop3"
  type: "Dropout"
  bottom: "relu5"
  top: "drop3"
  dropout_param {
    dropout_ratio: 0.2
  }
}
layer {
  name: "pool3"
  type: "Pooling"
  bottom: "drop3"
  top: "pool3"
  pooling_param {
    pool: MAX
    kernel_size: 2
    stride: 2
  }
}
layer {
  name: "conv6"
  type: "Convolution"
  bottom: "pool3"
  top: "conv6"
  convolution_param {
    num_output: 260
    kernel_size: 1
    weight_filler {
      type: "xavier"
    }
  }
}
layer {
  name: "relu6"
  type: "ReLU"
  bottom: "conv6"
  top: "relu6"
  relu_param {
    negative_slope: 0.1
  }
}
layer {
  name: "conv7"
  type: "Convolution"
  bottom: "relu6"
  top: "conv7"
  convolution_param {
    num_output: 280
    kernel_size: 2
    weight_filler {
      type: "xavier"
    }
  }
}
layer {
  name: "relu7"
  type: "ReLU"
  bottom: "conv7"
  top: "relu7"
  relu_param {
    negative_slope: 0.1
  }
}
layer {
  name: "drop4"
  type: "Dropout"
  bottom: "relu7"
  top: "drop4"
  dropout_param {
    dropout_ratio: 0.3
  }
}
layer {
  name: "pool4"
  type: "Pooling"
  bottom: "drop4"
  top: "pool4"
  pooling_param {
    pool: MAX
    kernel_size: 2
    stride: 2
  }
}
layer {
  name: "conv8"
  type: "Convolution"
  bottom: "pool4"
  top: "conv8"
  convolution_param {
    num_output: 280
    kernel_size: 1
    weight_filler {
      type: "xavier"
    }
  }
}
layer {
  name: "relu8"
  type: "ReLU"
  bottom: "conv8"
  top: "relu8"
  relu_param {
    negative_slope: 0.1
  }
}
layer {
  name: "drop5"
  type: "Dropout"
  bottom: "relu8"
  top: "drop5"
  dropout_param {
    dropout_ratio: 0.4
  }
}
layer {
  name: "pool5"
  type: "Pooling"
  bottom: "drop5"
  top: "pool5"
  pooling_param {
    pool: MAX
    kernel_size: 2
    stride: 2
  }
}
layer {
  name: "conv10"
  type: "Convolution"
  bottom: "pool5"
  top: "conv10"
  convolution_param {
    num_output: 300
    kernel_size: 1
    weight_filler {
      type: "xavier"
    }
  }
}
layer {
  name: "relu10"
  type: "ReLU"
  bottom: "conv10"
  top: "relu10"
  relu_param {
    negative_slope: 0.1
  }
}
layer {
  name: "drop6"
  type: "Dropout"
  bottom: "relu10"
  top: "drop6"
  dropout_param {
    dropout_ratio: 0.5
  }
}
layer {
  name: "pool6"
  type: "Pooling"
  bottom: "drop6"
  top: "pool6"
  pooling_param {
    pool: MAX
    kernel_size: 2
    stride: 2
  }
}
layer {
  name: "conv11"
  type: "Convolution"
  bottom: "pool6"
  top: "conv11"
  convolution_param {
    num_output: 100
    kernel_size: 1
    weight_filler {
      type: "xavier"
    }
  }
}
layer {
  name: "relu11"
  type: "ReLU"
  bottom: "conv11"
  top: "relu11"
  relu_param {
    negative_slope: 0.1
  }
}
layer {
  name: "drop7"
  type: "Dropout"
  bottom: "relu11"
  top: "drop7"
  dropout_param {
    dropout_ratio: 0
  }
}
layer {
  name: "pool7"
  type: "Pooling"
  bottom: "drop7"
  top: "pool7"
  pooling_param {
    pool: MAX
    kernel_size: 2
    stride: 2
  }
}
layer {
  name: "ip_c"
  type: "InnerProduct"
  bottom: "pool7"
  top: "ip_c"
  inner_product_param {
    num_output: 20
    weight_filler {
      type: "xavier"
    }
  }
}
layer {
  name: "accuracy_f"
  type: "Accuracy"
  bottom: "ip_c"
  bottom: "label_coarse"
  top: "accuracy_f"
}
layer {
  name: "loss_c"
  type: "SoftmaxWithLoss"
  bottom: "ip_c"
  bottom: "label_coarse"
  top: "loss_c"
}
layer {
  name: "ip_f"
  type: "InnerProduct"
  bottom: "pool7"
  top: "ip_f"
  inner_product_param {
    num_output: 100
    weight_filler {
      type: "xavier"
    }
  }
}
layer {
  name: "accuracy"
  type: "Accuracy"
  bottom: "ip_f"
  bottom: "label_fine"
  top: "accuracy"
}
layer {
  name: "loss_f"
  type: "SoftmaxWithLoss"
  bottom: "ip_f"
  bottom: "label_fine"
  top: "loss_f"
}
I1020 09:37:36.077414 12653 layer_factory.hpp:77] Creating layer data
I1020 09:37:36.077420 12653 net.cpp:100] Creating Layer data
I1020 09:37:36.077422 12653 net.cpp:408] data -> data
I1020 09:37:36.077426 12653 net.cpp:408] data -> label_coarse
I1020 09:37:36.077430 12653 net.cpp:408] data -> label_fine
I1020 09:37:36.077435 12653 hdf5_data_layer.cpp:79] Loading list of HDF5 filenames from: ../../../../data/cifar-100/cifar_100_caffe_hdf5/test.txt
I1020 09:37:36.077448 12653 hdf5_data_layer.cpp:93] Number of HDF5 files: 1
I1020 09:37:36.330449 12653 net.cpp:150] Setting up data
I1020 09:37:36.330476 12653 net.cpp:157] Top shape: 100 3 32 32 (307200)
I1020 09:37:36.330497 12653 net.cpp:157] Top shape: 100 (100)
I1020 09:37:36.330500 12653 net.cpp:157] Top shape: 100 (100)
I1020 09:37:36.330502 12653 net.cpp:165] Memory required for data: 1229600
I1020 09:37:36.330507 12653 layer_factory.hpp:77] Creating layer label_coarse_data_1_split
I1020 09:37:36.330518 12653 net.cpp:100] Creating Layer label_coarse_data_1_split
I1020 09:37:36.330520 12653 net.cpp:434] label_coarse_data_1_split <- label_coarse
I1020 09:37:36.330525 12653 net.cpp:408] label_coarse_data_1_split -> label_coarse_data_1_split_0
I1020 09:37:36.330533 12653 net.cpp:408] label_coarse_data_1_split -> label_coarse_data_1_split_1
I1020 09:37:36.330564 12653 net.cpp:150] Setting up label_coarse_data_1_split
I1020 09:37:36.330569 12653 net.cpp:157] Top shape: 100 (100)
I1020 09:37:36.330570 12653 net.cpp:157] Top shape: 100 (100)
I1020 09:37:36.330571 12653 net.cpp:165] Memory required for data: 1230400
I1020 09:37:36.330574 12653 layer_factory.hpp:77] Creating layer label_fine_data_2_split
I1020 09:37:36.330577 12653 net.cpp:100] Creating Layer label_fine_data_2_split
I1020 09:37:36.330579 12653 net.cpp:434] label_fine_data_2_split <- label_fine
I1020 09:37:36.330582 12653 net.cpp:408] label_fine_data_2_split -> label_fine_data_2_split_0
I1020 09:37:36.330586 12653 net.cpp:408] label_fine_data_2_split -> label_fine_data_2_split_1
I1020 09:37:36.330606 12653 net.cpp:150] Setting up label_fine_data_2_split
I1020 09:37:36.330610 12653 net.cpp:157] Top shape: 100 (100)
I1020 09:37:36.330611 12653 net.cpp:157] Top shape: 100 (100)
I1020 09:37:36.330613 12653 net.cpp:165] Memory required for data: 1231200
I1020 09:37:36.330615 12653 layer_factory.hpp:77] Creating layer conv1
I1020 09:37:36.330622 12653 net.cpp:100] Creating Layer conv1
I1020 09:37:36.330624 12653 net.cpp:434] conv1 <- data
I1020 09:37:36.330628 12653 net.cpp:408] conv1 -> conv1
I1020 09:37:36.331451 12653 net.cpp:150] Setting up conv1
I1020 09:37:36.331459 12653 net.cpp:157] Top shape: 100 192 28 28 (15052800)
I1020 09:37:36.331461 12653 net.cpp:165] Memory required for data: 61442400
I1020 09:37:36.331470 12653 layer_factory.hpp:77] Creating layer relu1
I1020 09:37:36.331475 12653 net.cpp:100] Creating Layer relu1
I1020 09:37:36.331476 12653 net.cpp:434] relu1 <- conv1
I1020 09:37:36.331480 12653 net.cpp:408] relu1 -> relu1
I1020 09:37:36.331598 12653 net.cpp:150] Setting up relu1
I1020 09:37:36.331604 12653 net.cpp:157] Top shape: 100 192 28 28 (15052800)
I1020 09:37:36.331606 12653 net.cpp:165] Memory required for data: 121653600
I1020 09:37:36.331609 12653 layer_factory.hpp:77] Creating layer drop1
I1020 09:37:36.331612 12653 net.cpp:100] Creating Layer drop1
I1020 09:37:36.331614 12653 net.cpp:434] drop1 <- relu1
I1020 09:37:36.331617 12653 net.cpp:408] drop1 -> drop1
I1020 09:37:36.331640 12653 net.cpp:150] Setting up drop1
I1020 09:37:36.331645 12653 net.cpp:157] Top shape: 100 192 28 28 (15052800)
I1020 09:37:36.331646 12653 net.cpp:165] Memory required for data: 181864800
I1020 09:37:36.331647 12653 layer_factory.hpp:77] Creating layer pool1
I1020 09:37:36.331651 12653 net.cpp:100] Creating Layer pool1
I1020 09:37:36.331655 12653 net.cpp:434] pool1 <- drop1
I1020 09:37:36.331656 12653 net.cpp:408] pool1 -> pool1
I1020 09:37:36.331679 12653 net.cpp:150] Setting up pool1
I1020 09:37:36.331683 12653 net.cpp:157] Top shape: 100 192 14 14 (3763200)
I1020 09:37:36.331686 12653 net.cpp:165] Memory required for data: 196917600
I1020 09:37:36.331687 12653 layer_factory.hpp:77] Creating layer conv2
I1020 09:37:36.331691 12653 net.cpp:100] Creating Layer conv2
I1020 09:37:36.331693 12653 net.cpp:434] conv2 <- pool1
I1020 09:37:36.331696 12653 net.cpp:408] conv2 -> conv2
I1020 09:37:36.332466 12653 net.cpp:150] Setting up conv2
I1020 09:37:36.332475 12653 net.cpp:157] Top shape: 100 192 14 14 (3763200)
I1020 09:37:36.332478 12653 net.cpp:165] Memory required for data: 211970400
I1020 09:37:36.332482 12653 layer_factory.hpp:77] Creating layer relu2
I1020 09:37:36.332487 12653 net.cpp:100] Creating Layer relu2
I1020 09:37:36.332489 12653 net.cpp:434] relu2 <- conv2
I1020 09:37:36.332499 12653 net.cpp:408] relu2 -> relu2
I1020 09:37:36.332696 12653 net.cpp:150] Setting up relu2
I1020 09:37:36.332703 12653 net.cpp:157] Top shape: 100 192 14 14 (3763200)
I1020 09:37:36.332705 12653 net.cpp:165] Memory required for data: 227023200
I1020 09:37:36.332707 12653 layer_factory.hpp:77] Creating layer conv3
I1020 09:37:36.332712 12653 net.cpp:100] Creating Layer conv3
I1020 09:37:36.332715 12653 net.cpp:434] conv3 <- relu2
I1020 09:37:36.332718 12653 net.cpp:408] conv3 -> conv3
I1020 09:37:36.335166 12653 net.cpp:150] Setting up conv3
I1020 09:37:36.335175 12653 net.cpp:157] Top shape: 100 240 12 12 (3456000)
I1020 09:37:36.335177 12653 net.cpp:165] Memory required for data: 240847200
I1020 09:37:36.335182 12653 layer_factory.hpp:77] Creating layer relu3
I1020 09:37:36.335186 12653 net.cpp:100] Creating Layer relu3
I1020 09:37:36.335188 12653 net.cpp:434] relu3 <- conv3
I1020 09:37:36.335191 12653 net.cpp:408] relu3 -> relu3
I1020 09:37:36.335301 12653 net.cpp:150] Setting up relu3
I1020 09:37:36.335307 12653 net.cpp:157] Top shape: 100 240 12 12 (3456000)
I1020 09:37:36.335309 12653 net.cpp:165] Memory required for data: 254671200
I1020 09:37:36.335311 12653 layer_factory.hpp:77] Creating layer drop2
I1020 09:37:36.335314 12653 net.cpp:100] Creating Layer drop2
I1020 09:37:36.335316 12653 net.cpp:434] drop2 <- relu3
I1020 09:37:36.335319 12653 net.cpp:408] drop2 -> drop2
I1020 09:37:36.335342 12653 net.cpp:150] Setting up drop2
I1020 09:37:36.335346 12653 net.cpp:157] Top shape: 100 240 12 12 (3456000)
I1020 09:37:36.335347 12653 net.cpp:165] Memory required for data: 268495200
I1020 09:37:36.335350 12653 layer_factory.hpp:77] Creating layer pool2
I1020 09:37:36.335353 12653 net.cpp:100] Creating Layer pool2
I1020 09:37:36.335356 12653 net.cpp:434] pool2 <- drop2
I1020 09:37:36.335360 12653 net.cpp:408] pool2 -> pool2
I1020 09:37:36.335383 12653 net.cpp:150] Setting up pool2
I1020 09:37:36.335387 12653 net.cpp:157] Top shape: 100 240 6 6 (864000)
I1020 09:37:36.335389 12653 net.cpp:165] Memory required for data: 271951200
I1020 09:37:36.335391 12653 layer_factory.hpp:77] Creating layer conv4
I1020 09:37:36.335396 12653 net.cpp:100] Creating Layer conv4
I1020 09:37:36.335398 12653 net.cpp:434] conv4 <- pool2
I1020 09:37:36.335402 12653 net.cpp:408] conv4 -> conv4
I1020 09:37:36.336479 12653 net.cpp:150] Setting up conv4
I1020 09:37:36.336488 12653 net.cpp:157] Top shape: 100 240 6 6 (864000)
I1020 09:37:36.336490 12653 net.cpp:165] Memory required for data: 275407200
I1020 09:37:36.336494 12653 layer_factory.hpp:77] Creating layer relu4
I1020 09:37:36.336498 12653 net.cpp:100] Creating Layer relu4
I1020 09:37:36.336501 12653 net.cpp:434] relu4 <- conv4
I1020 09:37:36.336504 12653 net.cpp:408] relu4 -> relu4
I1020 09:37:36.336617 12653 net.cpp:150] Setting up relu4
I1020 09:37:36.336623 12653 net.cpp:157] Top shape: 100 240 6 6 (864000)
I1020 09:37:36.336627 12653 net.cpp:165] Memory required for data: 278863200
I1020 09:37:36.336627 12653 layer_factory.hpp:77] Creating layer conv5
I1020 09:37:36.336632 12653 net.cpp:100] Creating Layer conv5
I1020 09:37:36.336634 12653 net.cpp:434] conv5 <- relu4
I1020 09:37:36.336638 12653 net.cpp:408] conv5 -> conv5
I1020 09:37:36.338392 12653 net.cpp:150] Setting up conv5
I1020 09:37:36.338400 12653 net.cpp:157] Top shape: 100 260 5 5 (650000)
I1020 09:37:36.338402 12653 net.cpp:165] Memory required for data: 281463200
I1020 09:37:36.338409 12653 layer_factory.hpp:77] Creating layer relu5
I1020 09:37:36.338414 12653 net.cpp:100] Creating Layer relu5
I1020 09:37:36.338418 12653 net.cpp:434] relu5 <- conv5
I1020 09:37:36.338420 12653 net.cpp:408] relu5 -> relu5
I1020 09:37:36.338680 12653 net.cpp:150] Setting up relu5
I1020 09:37:36.338687 12653 net.cpp:157] Top shape: 100 260 5 5 (650000)
I1020 09:37:36.338690 12653 net.cpp:165] Memory required for data: 284063200
I1020 09:37:36.338692 12653 layer_factory.hpp:77] Creating layer drop3
I1020 09:37:36.338696 12653 net.cpp:100] Creating Layer drop3
I1020 09:37:36.338699 12653 net.cpp:434] drop3 <- relu5
I1020 09:37:36.338711 12653 net.cpp:408] drop3 -> drop3
I1020 09:37:36.338737 12653 net.cpp:150] Setting up drop3
I1020 09:37:36.338742 12653 net.cpp:157] Top shape: 100 260 5 5 (650000)
I1020 09:37:36.338743 12653 net.cpp:165] Memory required for data: 286663200
I1020 09:37:36.338745 12653 layer_factory.hpp:77] Creating layer pool3
I1020 09:37:36.338749 12653 net.cpp:100] Creating Layer pool3
I1020 09:37:36.338752 12653 net.cpp:434] pool3 <- drop3
I1020 09:37:36.338754 12653 net.cpp:408] pool3 -> pool3
I1020 09:37:36.338776 12653 net.cpp:150] Setting up pool3
I1020 09:37:36.338780 12653 net.cpp:157] Top shape: 100 260 3 3 (234000)
I1020 09:37:36.338783 12653 net.cpp:165] Memory required for data: 287599200
I1020 09:37:36.338785 12653 layer_factory.hpp:77] Creating layer conv6
I1020 09:37:36.338789 12653 net.cpp:100] Creating Layer conv6
I1020 09:37:36.338791 12653 net.cpp:434] conv6 <- pool3
I1020 09:37:36.338795 12653 net.cpp:408] conv6 -> conv6
I1020 09:37:36.339903 12653 net.cpp:150] Setting up conv6
I1020 09:37:36.339911 12653 net.cpp:157] Top shape: 100 260 3 3 (234000)
I1020 09:37:36.339913 12653 net.cpp:165] Memory required for data: 288535200
I1020 09:37:36.339918 12653 layer_factory.hpp:77] Creating layer relu6
I1020 09:37:36.339922 12653 net.cpp:100] Creating Layer relu6
I1020 09:37:36.339926 12653 net.cpp:434] relu6 <- conv6
I1020 09:37:36.339928 12653 net.cpp:408] relu6 -> relu6
I1020 09:37:36.340040 12653 net.cpp:150] Setting up relu6
I1020 09:37:36.340045 12653 net.cpp:157] Top shape: 100 260 3 3 (234000)
I1020 09:37:36.340047 12653 net.cpp:165] Memory required for data: 289471200
I1020 09:37:36.340049 12653 layer_factory.hpp:77] Creating layer conv7
I1020 09:37:36.340055 12653 net.cpp:100] Creating Layer conv7
I1020 09:37:36.340057 12653 net.cpp:434] conv7 <- relu6
I1020 09:37:36.340060 12653 net.cpp:408] conv7 -> conv7
I1020 09:37:36.341972 12653 net.cpp:150] Setting up conv7
I1020 09:37:36.341981 12653 net.cpp:157] Top shape: 100 280 2 2 (112000)
I1020 09:37:36.341984 12653 net.cpp:165] Memory required for data: 289919200
I1020 09:37:36.341987 12653 layer_factory.hpp:77] Creating layer relu7
I1020 09:37:36.341990 12653 net.cpp:100] Creating Layer relu7
I1020 09:37:36.341995 12653 net.cpp:434] relu7 <- conv7
I1020 09:37:36.341997 12653 net.cpp:408] relu7 -> relu7
I1020 09:37:36.342106 12653 net.cpp:150] Setting up relu7
I1020 09:37:36.342111 12653 net.cpp:157] Top shape: 100 280 2 2 (112000)
I1020 09:37:36.342114 12653 net.cpp:165] Memory required for data: 290367200
I1020 09:37:36.342116 12653 layer_factory.hpp:77] Creating layer drop4
I1020 09:37:36.342119 12653 net.cpp:100] Creating Layer drop4
I1020 09:37:36.342121 12653 net.cpp:434] drop4 <- relu7
I1020 09:37:36.342124 12653 net.cpp:408] drop4 -> drop4
I1020 09:37:36.342149 12653 net.cpp:150] Setting up drop4
I1020 09:37:36.342152 12653 net.cpp:157] Top shape: 100 280 2 2 (112000)
I1020 09:37:36.342154 12653 net.cpp:165] Memory required for data: 290815200
I1020 09:37:36.342156 12653 layer_factory.hpp:77] Creating layer pool4
I1020 09:37:36.342159 12653 net.cpp:100] Creating Layer pool4
I1020 09:37:36.342161 12653 net.cpp:434] pool4 <- drop4
I1020 09:37:36.342164 12653 net.cpp:408] pool4 -> pool4
I1020 09:37:36.342188 12653 net.cpp:150] Setting up pool4
I1020 09:37:36.342192 12653 net.cpp:157] Top shape: 100 280 1 1 (28000)
I1020 09:37:36.342195 12653 net.cpp:165] Memory required for data: 290927200
I1020 09:37:36.342195 12653 layer_factory.hpp:77] Creating layer conv8
I1020 09:37:36.342200 12653 net.cpp:100] Creating Layer conv8
I1020 09:37:36.342203 12653 net.cpp:434] conv8 <- pool4
I1020 09:37:36.342206 12653 net.cpp:408] conv8 -> conv8
I1020 09:37:36.343381 12653 net.cpp:150] Setting up conv8
I1020 09:37:36.343394 12653 net.cpp:157] Top shape: 100 280 1 1 (28000)
I1020 09:37:36.343397 12653 net.cpp:165] Memory required for data: 291039200
I1020 09:37:36.343403 12653 layer_factory.hpp:77] Creating layer relu8
I1020 09:37:36.343408 12653 net.cpp:100] Creating Layer relu8
I1020 09:37:36.343411 12653 net.cpp:434] relu8 <- conv8
I1020 09:37:36.343426 12653 net.cpp:408] relu8 -> relu8
I1020 09:37:36.343659 12653 net.cpp:150] Setting up relu8
I1020 09:37:36.343669 12653 net.cpp:157] Top shape: 100 280 1 1 (28000)
I1020 09:37:36.343673 12653 net.cpp:165] Memory required for data: 291151200
I1020 09:37:36.343677 12653 layer_factory.hpp:77] Creating layer drop5
I1020 09:37:36.343683 12653 net.cpp:100] Creating Layer drop5
I1020 09:37:36.343686 12653 net.cpp:434] drop5 <- relu8
I1020 09:37:36.343691 12653 net.cpp:408] drop5 -> drop5
I1020 09:37:36.343725 12653 net.cpp:150] Setting up drop5
I1020 09:37:36.343731 12653 net.cpp:157] Top shape: 100 280 1 1 (28000)
I1020 09:37:36.343734 12653 net.cpp:165] Memory required for data: 291263200
I1020 09:37:36.343737 12653 layer_factory.hpp:77] Creating layer pool5
I1020 09:37:36.343742 12653 net.cpp:100] Creating Layer pool5
I1020 09:37:36.343746 12653 net.cpp:434] pool5 <- drop5
I1020 09:37:36.343750 12653 net.cpp:408] pool5 -> pool5
I1020 09:37:36.343786 12653 net.cpp:150] Setting up pool5
I1020 09:37:36.343793 12653 net.cpp:157] Top shape: 100 280 1 1 (28000)
I1020 09:37:36.343796 12653 net.cpp:165] Memory required for data: 291375200
I1020 09:37:36.343798 12653 layer_factory.hpp:77] Creating layer conv10
I1020 09:37:36.343806 12653 net.cpp:100] Creating Layer conv10
I1020 09:37:36.343811 12653 net.cpp:434] conv10 <- pool5
I1020 09:37:36.343816 12653 net.cpp:408] conv10 -> conv10
I1020 09:37:36.345122 12653 net.cpp:150] Setting up conv10
I1020 09:37:36.345132 12653 net.cpp:157] Top shape: 100 300 1 1 (30000)
I1020 09:37:36.345134 12653 net.cpp:165] Memory required for data: 291495200
I1020 09:37:36.345141 12653 layer_factory.hpp:77] Creating layer relu10
I1020 09:37:36.345145 12653 net.cpp:100] Creating Layer relu10
I1020 09:37:36.345149 12653 net.cpp:434] relu10 <- conv10
I1020 09:37:36.345152 12653 net.cpp:408] relu10 -> relu10
I1020 09:37:36.345260 12653 net.cpp:150] Setting up relu10
I1020 09:37:36.345265 12653 net.cpp:157] Top shape: 100 300 1 1 (30000)
I1020 09:37:36.345268 12653 net.cpp:165] Memory required for data: 291615200
I1020 09:37:36.345270 12653 layer_factory.hpp:77] Creating layer drop6
I1020 09:37:36.345273 12653 net.cpp:100] Creating Layer drop6
I1020 09:37:36.345276 12653 net.cpp:434] drop6 <- relu10
I1020 09:37:36.345279 12653 net.cpp:408] drop6 -> drop6
I1020 09:37:36.345304 12653 net.cpp:150] Setting up drop6
I1020 09:37:36.345307 12653 net.cpp:157] Top shape: 100 300 1 1 (30000)
I1020 09:37:36.345309 12653 net.cpp:165] Memory required for data: 291735200
I1020 09:37:36.345311 12653 layer_factory.hpp:77] Creating layer pool6
I1020 09:37:36.345317 12653 net.cpp:100] Creating Layer pool6
I1020 09:37:36.345319 12653 net.cpp:434] pool6 <- drop6
I1020 09:37:36.345322 12653 net.cpp:408] pool6 -> pool6
I1020 09:37:36.345346 12653 net.cpp:150] Setting up pool6
I1020 09:37:36.345350 12653 net.cpp:157] Top shape: 100 300 1 1 (30000)
I1020 09:37:36.345351 12653 net.cpp:165] Memory required for data: 291855200
I1020 09:37:36.345353 12653 layer_factory.hpp:77] Creating layer conv11
I1020 09:37:36.345360 12653 net.cpp:100] Creating Layer conv11
I1020 09:37:36.345361 12653 net.cpp:434] conv11 <- pool6
I1020 09:37:36.345365 12653 net.cpp:408] conv11 -> conv11
I1020 09:37:36.346071 12653 net.cpp:150] Setting up conv11
I1020 09:37:36.346079 12653 net.cpp:157] Top shape: 100 100 1 1 (10000)
I1020 09:37:36.346082 12653 net.cpp:165] Memory required for data: 291895200
I1020 09:37:36.346086 12653 layer_factory.hpp:77] Creating layer relu11
I1020 09:37:36.346091 12653 net.cpp:100] Creating Layer relu11
I1020 09:37:36.346093 12653 net.cpp:434] relu11 <- conv11
I1020 09:37:36.346096 12653 net.cpp:408] relu11 -> relu11
I1020 09:37:36.346202 12653 net.cpp:150] Setting up relu11
I1020 09:37:36.346207 12653 net.cpp:157] Top shape: 100 100 1 1 (10000)
I1020 09:37:36.346210 12653 net.cpp:165] Memory required for data: 291935200
I1020 09:37:36.346212 12653 layer_factory.hpp:77] Creating layer drop7
I1020 09:37:36.346215 12653 net.cpp:100] Creating Layer drop7
I1020 09:37:36.346217 12653 net.cpp:434] drop7 <- relu11
I1020 09:37:36.346230 12653 net.cpp:408] drop7 -> drop7
I1020 09:37:36.346254 12653 net.cpp:150] Setting up drop7
I1020 09:37:36.346258 12653 net.cpp:157] Top shape: 100 100 1 1 (10000)
I1020 09:37:36.346261 12653 net.cpp:165] Memory required for data: 291975200
I1020 09:37:36.346262 12653 layer_factory.hpp:77] Creating layer pool7
I1020 09:37:36.346266 12653 net.cpp:100] Creating Layer pool7
I1020 09:37:36.346268 12653 net.cpp:434] pool7 <- drop7
I1020 09:37:36.346271 12653 net.cpp:408] pool7 -> pool7
I1020 09:37:36.346294 12653 net.cpp:150] Setting up pool7
I1020 09:37:36.346298 12653 net.cpp:157] Top shape: 100 100 1 1 (10000)
I1020 09:37:36.346300 12653 net.cpp:165] Memory required for data: 292015200
I1020 09:37:36.346302 12653 layer_factory.hpp:77] Creating layer pool7_pool7_0_split
I1020 09:37:36.346305 12653 net.cpp:100] Creating Layer pool7_pool7_0_split
I1020 09:37:36.346307 12653 net.cpp:434] pool7_pool7_0_split <- pool7
I1020 09:37:36.346310 12653 net.cpp:408] pool7_pool7_0_split -> pool7_pool7_0_split_0
I1020 09:37:36.346314 12653 net.cpp:408] pool7_pool7_0_split -> pool7_pool7_0_split_1
I1020 09:37:36.346338 12653 net.cpp:150] Setting up pool7_pool7_0_split
I1020 09:37:36.346341 12653 net.cpp:157] Top shape: 100 100 1 1 (10000)
I1020 09:37:36.346343 12653 net.cpp:157] Top shape: 100 100 1 1 (10000)
I1020 09:37:36.346345 12653 net.cpp:165] Memory required for data: 292095200
I1020 09:37:36.346348 12653 layer_factory.hpp:77] Creating layer ip_c
I1020 09:37:36.346351 12653 net.cpp:100] Creating Layer ip_c
I1020 09:37:36.346354 12653 net.cpp:434] ip_c <- pool7_pool7_0_split_0
I1020 09:37:36.346356 12653 net.cpp:408] ip_c -> ip_c
I1020 09:37:36.346431 12653 net.cpp:150] Setting up ip_c
I1020 09:37:36.346434 12653 net.cpp:157] Top shape: 100 20 (2000)
I1020 09:37:36.346436 12653 net.cpp:165] Memory required for data: 292103200
I1020 09:37:36.346439 12653 layer_factory.hpp:77] Creating layer ip_c_ip_c_0_split
I1020 09:37:36.346442 12653 net.cpp:100] Creating Layer ip_c_ip_c_0_split
I1020 09:37:36.346444 12653 net.cpp:434] ip_c_ip_c_0_split <- ip_c
I1020 09:37:36.346447 12653 net.cpp:408] ip_c_ip_c_0_split -> ip_c_ip_c_0_split_0
I1020 09:37:36.346451 12653 net.cpp:408] ip_c_ip_c_0_split -> ip_c_ip_c_0_split_1
I1020 09:37:36.346473 12653 net.cpp:150] Setting up ip_c_ip_c_0_split
I1020 09:37:36.346477 12653 net.cpp:157] Top shape: 100 20 (2000)
I1020 09:37:36.346479 12653 net.cpp:157] Top shape: 100 20 (2000)
I1020 09:37:36.346480 12653 net.cpp:165] Memory required for data: 292119200
I1020 09:37:36.346483 12653 layer_factory.hpp:77] Creating layer accuracy_f
I1020 09:37:36.346487 12653 net.cpp:100] Creating Layer accuracy_f
I1020 09:37:36.346488 12653 net.cpp:434] accuracy_f <- ip_c_ip_c_0_split_0
I1020 09:37:36.346490 12653 net.cpp:434] accuracy_f <- label_coarse_data_1_split_0
I1020 09:37:36.346494 12653 net.cpp:408] accuracy_f -> accuracy_f
…
