…
  level: 0
  stage: ""
}
type: "AdaGrad"
I1020 09:23:23.111081 12616 solver.cpp:81] Creating training net from train_net file: /home/adam/Honours/Honours-Project/cifar-100_pooling/max/leakyrelu/poolcnn_leakyrelu_train.prototxt
I1020 09:23:23.111394 12616 net.cpp:58] Initializing net from parameters: 
state {
  phase: TRAIN
  level: 0
  stage: ""
}
layer {
  name: "data"
  type: "HDF5Data"
  top: "data"
  top: "label_coarse"
  top: "label_fine"
  hdf5_data_param {
    source: "../../../../data/cifar-100/cifar_100_caffe_hdf5/train.txt"
    batch_size: 64
  }
}
layer {
  name: "conv1"
  type: "Convolution"
  bottom: "data"
  top: "conv1"
  convolution_param {
    num_output: 192
    kernel_size: 5
    weight_filler {
      type: "xavier"
    }
  }
}
layer {
  name: "relu1"
  type: "ReLU"
  bottom: "conv1"
  top: "relu1"
  relu_param {
    negative_slope: 0.1
  }
}
layer {
  name: "drop1"
  type: "Dropout"
  bottom: "relu1"
  top: "drop1"
  dropout_param {
    dropout_ratio: 0
  }
}
layer {
  name: "pool1"
  type: "Pooling"
  bottom: "drop1"
  top: "pool1"
  pooling_param {
    pool: MAX
    kernel_size: 2
    stride: 2
  }
}
layer {
  name: "conv2"
  type: "Convolution"
  bottom: "pool1"
  top: "conv2"
  convolution_param {
    num_output: 192
    kernel_size: 1
    weight_filler {
      type: "xavier"
    }
  }
}
layer {
  name: "relu2"
  type: "ReLU"
  bottom: "conv2"
  top: "relu2"
  relu_param {
    negative_slope: 0.1
  }
}
layer {
  name: "conv3"
  type: "Convolution"
  bottom: "relu2"
  top: "conv3"
  convolution_param {
    num_output: 240
    kernel_size: 3
    weight_filler {
      type: "xavier"
    }
  }
}
layer {
  name: "relu3"
  type: "ReLU"
  bottom: "conv3"
  top: "relu3"
  relu_param {
    negative_slope: 0.1
  }
}
layer {
  name: "drop2"
  type: "Dropout"
  bottom: "relu3"
  top: "drop2"
  dropout_param {
    dropout_ratio: 0.1
  }
}
layer {
  name: "pool2"
  type: "Pooling"
  bottom: "drop2"
  top: "pool2"
  pooling_param {
    pool: MAX
    kernel_size: 2
    stride: 2
  }
}
layer {
  name: "conv4"
  type: "Convolution"
  bottom: "pool2"
  top: "conv4"
  convolution_param {
    num_output: 240
    kernel_size: 1
    weight_filler {
      type: "xavier"
    }
  }
}
layer {
  name: "relu4"
  type: "ReLU"
  bottom: "conv4"
  top: "relu4"
  relu_param {
    negative_slope: 0.1
  }
}
layer {
  name: "conv5"
  type: "Convolution"
  bottom: "relu4"
  top: "conv5"
  convolution_param {
    num_output: 260
    kernel_size: 2
    weight_filler {
      type: "xavier"
    }
  }
}
layer {
  name: "relu5"
  type: "ReLU"
  bottom: "conv5"
  top: "relu5"
  relu_param {
    negative_slope: 0.1
  }
}
layer {
  name: "drop3"
  type: "Dropout"
  bottom: "relu5"
  top: "drop3"
  dropout_param {
    dropout_ratio: 0.2
  }
}
layer {
  name: "pool3"
  type: "Pooling"
  bottom: "drop3"
  top: "pool3"
  pooling_param {
    pool: MAX
    kernel_size: 2
    stride: 2
  }
}
layer {
  name: "conv6"
  type: "Convolution"
  bottom: "pool3"
  top: "conv6"
  convolution_param {
    num_output: 260
    kernel_size: 1
    weight_filler {
      type: "xavier"
    }
  }
}
layer {
  name: "relu6"
  type: "ReLU"
  bottom: "conv6"
  top: "relu6"
  relu_param {
    negative_slope: 0.1
  }
}
layer {
  name: "conv7"
  type: "Convolution"
  bottom: "relu6"
  top: "conv7"
  convolution_param {
    num_output: 280
    kernel_size: 2
    weight_filler {
      type: "xavier"
    }
  }
}
layer {
  name: "relu7"
  type: "ReLU"
  bottom: "conv7"
  top: "relu7"
  relu_param {
    negative_slope: 0.1
  }
}
layer {
  name: "drop4"
  type: "Dropout"
  bottom: "relu7"
  top: "drop4"
  dropout_param {
    dropout_ratio: 0.3
  }
}
layer {
  name: "pool4"
  type: "Pooling"
  bottom: "drop4"
  top: "pool4"
  pooling_param {
    pool: MAX
    kernel_size: 2
    stride: 2
  }
}
layer {
  name: "conv8"
  type: "Convolution"
  bottom: "pool4"
  top: "conv8"
  convolution_param {
    num_output: 280
    kernel_size: 1
    weight_filler {
      type: "xavier"
    }
  }
}
layer {
  name: "relu8"
  type: "ReLU"
  bottom: "conv8"
  top: "relu8"
  relu_param {
    negative_slope: 0.1
  }
}
layer {
  name: "drop5"
  type: "Dropout"
  bottom: "relu8"
  top: "drop5"
  dropout_param {
    dropout_ratio: 0.4
  }
}
layer {
  name: "pool5"
  type: "Pooling"
  bottom: "drop5"
  top: "pool5"
  pooling_param {
    pool: MAX
    kernel_size: 2
    stride: 2
  }
}
layer {
  name: "conv10"
  type: "Convolution"
  bottom: "pool5"
  top: "conv10"
  convolution_param {
    num_output: 300
    kernel_size: 1
    weight_filler {
      type: "xavier"
    }
  }
}
layer {
  name: "relu10"
  type: "ReLU"
  bottom: "conv10"
  top: "relu10"
  relu_param {
    negative_slope: 0.1
  }
}
layer {
  name: "drop6"
  type: "Dropout"
  bottom: "relu10"
  top: "drop6"
  dropout_param {
    dropout_ratio: 0.5
  }
}
layer {
  name: "pool6"
  type: "Pooling"
  bottom: "drop6"
  top: "pool6"
  pooling_param {
    pool: MAX
    kernel_size: 2
    stride: 2
  }
}
layer {
  name: "conv11"
  type: "Convolution"
  bottom: "pool6"
  top: "conv11"
  convolution_param {
    num_output: 100
    kernel_size: 1
    weight_filler {
      type: "xavier"
    }
  }
}
layer {
  name: "relu11"
  type: "ReLU"
  bottom: "conv11"
  top: "relu11"
  relu_param {
    negative_slope: 0.1
  }
}
layer {
  name: "drop7"
  type: "Dropout"
  bottom: "relu11"
  top: "drop7"
  dropout_param {
    dropout_ratio: 0
  }
}
layer {
  name: "pool7"
  type: "Pooling"
  bottom: "drop7"
  top: "pool7"
  pooling_param {
    pool: MAX
    kernel_size: 2
    stride: 2
  }
}
layer {
  name: "ip_c"
  type: "InnerProduct"
  bottom: "pool7"
  top: "ip_c"
  inner_product_param {
    num_output: 20
    weight_filler {
      type: "xavier"
    }
  }
}
layer {
  name: "accuracy_f"
  type: "Accuracy"
  bottom: "ip_c"
  bottom: "label_coarse"
  top: "accuracy_f"
}
layer {
  name: "loss_c"
  type: "SoftmaxWithLoss"
  bottom: "ip_c"
  bottom: "label_coarse"
  top: "loss_c"
}
layer {
  name: "ip_f"
  type: "InnerProduct"
  bottom: "pool7"
  top: "ip_f"
  inner_product_param {
    num_output: 100
    weight_filler {
      type: "xavier"
    }
  }
}
layer {
  name: "accuracy"
  type: "Accuracy"
  bottom: "ip_f"
  bottom: "label_fine"
  top: "accuracy"
}
layer {
  name: "loss_f"
  type: "SoftmaxWithLoss"
  bottom: "ip_f"
  bottom: "label_fine"
  top: "loss_f"
}
I1020 09:23:23.111518 12616 layer_factory.hpp:77] Creating layer data
I1020 09:23:23.111528 12616 net.cpp:100] Creating Layer data
I1020 09:23:23.111533 12616 net.cpp:408] data -> data
I1020 09:23:23.111547 12616 net.cpp:408] data -> label_coarse
I1020 09:23:23.111553 12616 net.cpp:408] data -> label_fine
I1020 09:23:23.111562 12616 hdf5_data_layer.cpp:79] Loading list of HDF5 filenames from: ../../../../data/cifar-100/cifar_100_caffe_hdf5/train.txt
I1020 09:23:23.111585 12616 hdf5_data_layer.cpp:93] Number of HDF5 files: 1
I1020 09:23:23.112205 12616 hdf5.cpp:35] Datatype class: H5T_INTEGER
I1020 09:23:24.689240 12616 net.cpp:150] Setting up data
I1020 09:23:24.689268 12616 net.cpp:157] Top shape: 64 3 32 32 (196608)
I1020 09:23:24.689272 12616 net.cpp:157] Top shape: 64 (64)
I1020 09:23:24.689275 12616 net.cpp:157] Top shape: 64 (64)
I1020 09:23:24.689277 12616 net.cpp:165] Memory required for data: 786944
I1020 09:23:24.689285 12616 layer_factory.hpp:77] Creating layer label_coarse_data_1_split
I1020 09:23:24.689297 12616 net.cpp:100] Creating Layer label_coarse_data_1_split
I1020 09:23:24.689303 12616 net.cpp:434] label_coarse_data_1_split <- label_coarse
I1020 09:23:24.689316 12616 net.cpp:408] label_coarse_data_1_split -> label_coarse_data_1_split_0
I1020 09:23:24.689337 12616 net.cpp:408] label_coarse_data_1_split -> label_coarse_data_1_split_1
I1020 09:23:24.689365 12616 net.cpp:150] Setting up label_coarse_data_1_split
I1020 09:23:24.689369 12616 net.cpp:157] Top shape: 64 (64)
I1020 09:23:24.689373 12616 net.cpp:157] Top shape: 64 (64)
I1020 09:23:24.689376 12616 net.cpp:165] Memory required for data: 787456
I1020 09:23:24.689379 12616 layer_factory.hpp:77] Creating layer label_fine_data_2_split
I1020 09:23:24.689385 12616 net.cpp:100] Creating Layer label_fine_data_2_split
I1020 09:23:24.689388 12616 net.cpp:434] label_fine_data_2_split <- label_fine
I1020 09:23:24.689394 12616 net.cpp:408] label_fine_data_2_split -> label_fine_data_2_split_0
I1020 09:23:24.689401 12616 net.cpp:408] label_fine_data_2_split -> label_fine_data_2_split_1
I1020 09:23:24.689424 12616 net.cpp:150] Setting up label_fine_data_2_split
I1020 09:23:24.689427 12616 net.cpp:157] Top shape: 64 (64)
I1020 09:23:24.689430 12616 net.cpp:157] Top shape: 64 (64)
I1020 09:23:24.689434 12616 net.cpp:165] Memory required for data: 787968
I1020 09:23:24.689436 12616 layer_factory.hpp:77] Creating layer conv1
I1020 09:23:24.689448 12616 net.cpp:100] Creating Layer conv1
I1020 09:23:24.689451 12616 net.cpp:434] conv1 <- data
I1020 09:23:24.689456 12616 net.cpp:408] conv1 -> conv1
I1020 09:23:24.808104 12616 net.cpp:150] Setting up conv1
I1020 09:23:24.808135 12616 net.cpp:157] Top shape: 64 192 28 28 (9633792)
I1020 09:23:24.808140 12616 net.cpp:165] Memory required for data: 39323136
I1020 09:23:24.808167 12616 layer_factory.hpp:77] Creating layer relu1
I1020 09:23:24.808181 12616 net.cpp:100] Creating Layer relu1
I1020 09:23:24.808184 12616 net.cpp:434] relu1 <- conv1
I1020 09:23:24.808192 12616 net.cpp:408] relu1 -> relu1
I1020 09:23:24.808333 12616 net.cpp:150] Setting up relu1
I1020 09:23:24.808342 12616 net.cpp:157] Top shape: 64 192 28 28 (9633792)
I1020 09:23:24.808344 12616 net.cpp:165] Memory required for data: 77858304
I1020 09:23:24.808347 12616 layer_factory.hpp:77] Creating layer drop1
I1020 09:23:24.808354 12616 net.cpp:100] Creating Layer drop1
I1020 09:23:24.808358 12616 net.cpp:434] drop1 <- relu1
I1020 09:23:24.808362 12616 net.cpp:408] drop1 -> drop1
I1020 09:23:24.808389 12616 net.cpp:150] Setting up drop1
I1020 09:23:24.808394 12616 net.cpp:157] Top shape: 64 192 28 28 (9633792)
I1020 09:23:24.808398 12616 net.cpp:165] Memory required for data: 116393472
I1020 09:23:24.808400 12616 layer_factory.hpp:77] Creating layer pool1
I1020 09:23:24.808405 12616 net.cpp:100] Creating Layer pool1
I1020 09:23:24.808409 12616 net.cpp:434] pool1 <- drop1
I1020 09:23:24.808414 12616 net.cpp:408] pool1 -> pool1
I1020 09:23:24.808446 12616 net.cpp:150] Setting up pool1
I1020 09:23:24.808451 12616 net.cpp:157] Top shape: 64 192 14 14 (2408448)
I1020 09:23:24.808454 12616 net.cpp:165] Memory required for data: 126027264
I1020 09:23:24.808459 12616 layer_factory.hpp:77] Creating layer conv2
I1020 09:23:24.808466 12616 net.cpp:100] Creating Layer conv2
I1020 09:23:24.808470 12616 net.cpp:434] conv2 <- pool1
I1020 09:23:24.808475 12616 net.cpp:408] conv2 -> conv2
I1020 09:23:24.809264 12616 net.cpp:150] Setting up conv2
I1020 09:23:24.809273 12616 net.cpp:157] Top shape: 64 192 14 14 (2408448)
I1020 09:23:24.809276 12616 net.cpp:165] Memory required for data: 135661056
I1020 09:23:24.809283 12616 layer_factory.hpp:77] Creating layer relu2
I1020 09:23:24.809291 12616 net.cpp:100] Creating Layer relu2
I1020 09:23:24.809295 12616 net.cpp:434] relu2 <- conv2
I1020 09:23:24.809300 12616 net.cpp:408] relu2 -> relu2
I1020 09:23:24.809418 12616 net.cpp:150] Setting up relu2
I1020 09:23:24.809425 12616 net.cpp:157] Top shape: 64 192 14 14 (2408448)
I1020 09:23:24.809428 12616 net.cpp:165] Memory required for data: 145294848
I1020 09:23:24.809432 12616 layer_factory.hpp:77] Creating layer conv3
I1020 09:23:24.809437 12616 net.cpp:100] Creating Layer conv3
I1020 09:23:24.809442 12616 net.cpp:434] conv3 <- relu2
I1020 09:23:24.809447 12616 net.cpp:408] conv3 -> conv3
I1020 09:23:24.811830 12616 net.cpp:150] Setting up conv3
I1020 09:23:24.811847 12616 net.cpp:157] Top shape: 64 240 12 12 (2211840)
I1020 09:23:24.811851 12616 net.cpp:165] Memory required for data: 154142208
I1020 09:23:24.811859 12616 layer_factory.hpp:77] Creating layer relu3
I1020 09:23:24.811866 12616 net.cpp:100] Creating Layer relu3
I1020 09:23:24.811868 12616 net.cpp:434] relu3 <- conv3
I1020 09:23:24.811875 12616 net.cpp:408] relu3 -> relu3
I1020 09:23:24.812060 12616 net.cpp:150] Setting up relu3
I1020 09:23:24.812067 12616 net.cpp:157] Top shape: 64 240 12 12 (2211840)
I1020 09:23:24.812070 12616 net.cpp:165] Memory required for data: 162989568
I1020 09:23:24.812074 12616 layer_factory.hpp:77] Creating layer drop2
I1020 09:23:24.812079 12616 net.cpp:100] Creating Layer drop2
I1020 09:23:24.812083 12616 net.cpp:434] drop2 <- relu3
I1020 09:23:24.812088 12616 net.cpp:408] drop2 -> drop2
I1020 09:23:24.812114 12616 net.cpp:150] Setting up drop2
I1020 09:23:24.812119 12616 net.cpp:157] Top shape: 64 240 12 12 (2211840)
I1020 09:23:24.812121 12616 net.cpp:165] Memory required for data: 171836928
I1020 09:23:24.812124 12616 layer_factory.hpp:77] Creating layer pool2
I1020 09:23:24.812129 12616 net.cpp:100] Creating Layer pool2
I1020 09:23:24.812134 12616 net.cpp:434] pool2 <- drop2
I1020 09:23:24.812137 12616 net.cpp:408] pool2 -> pool2
I1020 09:23:24.812163 12616 net.cpp:150] Setting up pool2
I1020 09:23:24.812168 12616 net.cpp:157] Top shape: 64 240 6 6 (552960)
I1020 09:23:24.812171 12616 net.cpp:165] Memory required for data: 174048768
I1020 09:23:24.812175 12616 layer_factory.hpp:77] Creating layer conv4
I1020 09:23:24.812180 12616 net.cpp:100] Creating Layer conv4
I1020 09:23:24.812185 12616 net.cpp:434] conv4 <- pool2
I1020 09:23:24.812189 12616 net.cpp:408] conv4 -> conv4
I1020 09:23:24.812986 12616 net.cpp:150] Setting up conv4
I1020 09:23:24.812995 12616 net.cpp:157] Top shape: 64 240 6 6 (552960)
I1020 09:23:24.812999 12616 net.cpp:165] Memory required for data: 176260608
I1020 09:23:24.813004 12616 layer_factory.hpp:77] Creating layer relu4
I1020 09:23:24.813010 12616 net.cpp:100] Creating Layer relu4
I1020 09:23:24.813014 12616 net.cpp:434] relu4 <- conv4
I1020 09:23:24.813019 12616 net.cpp:408] relu4 -> relu4
I1020 09:23:24.813128 12616 net.cpp:150] Setting up relu4
I1020 09:23:24.813134 12616 net.cpp:157] Top shape: 64 240 6 6 (552960)
I1020 09:23:24.813138 12616 net.cpp:165] Memory required for data: 178472448
I1020 09:23:24.813140 12616 layer_factory.hpp:77] Creating layer conv5
I1020 09:23:24.813148 12616 net.cpp:100] Creating Layer conv5
I1020 09:23:24.813151 12616 net.cpp:434] conv5 <- relu4
I1020 09:23:24.813156 12616 net.cpp:408] conv5 -> conv5
I1020 09:23:24.814882 12616 net.cpp:150] Setting up conv5
I1020 09:23:24.814889 12616 net.cpp:157] Top shape: 64 260 5 5 (416000)
I1020 09:23:24.814893 12616 net.cpp:165] Memory required for data: 180136448
I1020 09:23:24.814901 12616 layer_factory.hpp:77] Creating layer relu5
I1020 09:23:24.814909 12616 net.cpp:100] Creating Layer relu5
I1020 09:23:24.814913 12616 net.cpp:434] relu5 <- conv5
I1020 09:23:24.814918 12616 net.cpp:408] relu5 -> relu5
I1020 09:23:24.815026 12616 net.cpp:150] Setting up relu5
I1020 09:23:24.815033 12616 net.cpp:157] Top shape: 64 260 5 5 (416000)
I1020 09:23:24.815037 12616 net.cpp:165] Memory required for data: 181800448
I1020 09:23:24.815039 12616 layer_factory.hpp:77] Creating layer drop3
I1020 09:23:24.815045 12616 net.cpp:100] Creating Layer drop3
I1020 09:23:24.815049 12616 net.cpp:434] drop3 <- relu5
I1020 09:23:24.815053 12616 net.cpp:408] drop3 -> drop3
I1020 09:23:24.815078 12616 net.cpp:150] Setting up drop3
I1020 09:23:24.815083 12616 net.cpp:157] Top shape: 64 260 5 5 (416000)
I1020 09:23:24.815088 12616 net.cpp:165] Memory required for data: 183464448
I1020 09:23:24.815090 12616 layer_factory.hpp:77] Creating layer pool3
I1020 09:23:24.815095 12616 net.cpp:100] Creating Layer pool3
I1020 09:23:24.815099 12616 net.cpp:434] pool3 <- drop3
I1020 09:23:24.815104 12616 net.cpp:408] pool3 -> pool3
I1020 09:23:24.815129 12616 net.cpp:150] Setting up pool3
I1020 09:23:24.815140 12616 net.cpp:157] Top shape: 64 260 3 3 (149760)
I1020 09:23:24.815145 12616 net.cpp:165] Memory required for data: 184063488
I1020 09:23:24.815147 12616 layer_factory.hpp:77] Creating layer conv6
I1020 09:23:24.815155 12616 net.cpp:100] Creating Layer conv6
I1020 09:23:24.815158 12616 net.cpp:434] conv6 <- pool3
I1020 09:23:24.815162 12616 net.cpp:408] conv6 -> conv6
I1020 09:23:24.816274 12616 net.cpp:150] Setting up conv6
I1020 09:23:24.816285 12616 net.cpp:157] Top shape: 64 260 3 3 (149760)
I1020 09:23:24.816293 12616 net.cpp:165] Memory required for data: 184662528
I1020 09:23:24.816298 12616 layer_factory.hpp:77] Creating layer relu6
I1020 09:23:24.816304 12616 net.cpp:100] Creating Layer relu6
I1020 09:23:24.816308 12616 net.cpp:434] relu6 <- conv6
I1020 09:23:24.816313 12616 net.cpp:408] relu6 -> relu6
I1020 09:23:24.816521 12616 net.cpp:150] Setting up relu6
I1020 09:23:24.816530 12616 net.cpp:157] Top shape: 64 260 3 3 (149760)
I1020 09:23:24.816534 12616 net.cpp:165] Memory required for data: 185261568
I1020 09:23:24.816537 12616 layer_factory.hpp:77] Creating layer conv7
I1020 09:23:24.816545 12616 net.cpp:100] Creating Layer conv7
I1020 09:23:24.816548 12616 net.cpp:434] conv7 <- relu6
I1020 09:23:24.816555 12616 net.cpp:408] conv7 -> conv7
I1020 09:23:24.818470 12616 net.cpp:150] Setting up conv7
I1020 09:23:24.818478 12616 net.cpp:157] Top shape: 64 280 2 2 (71680)
I1020 09:23:24.818481 12616 net.cpp:165] Memory required for data: 185548288
I1020 09:23:24.818486 12616 layer_factory.hpp:77] Creating layer relu7
I1020 09:23:24.818495 12616 net.cpp:100] Creating Layer relu7
I1020 09:23:24.818498 12616 net.cpp:434] relu7 <- conv7
I1020 09:23:24.818503 12616 net.cpp:408] relu7 -> relu7
I1020 09:23:24.818624 12616 net.cpp:150] Setting up relu7
I1020 09:23:24.818630 12616 net.cpp:157] Top shape: 64 280 2 2 (71680)
I1020 09:23:24.818634 12616 net.cpp:165] Memory required for data: 185835008
I1020 09:23:24.818636 12616 layer_factory.hpp:77] Creating layer drop4
I1020 09:23:24.818641 12616 net.cpp:100] Creating Layer drop4
I1020 09:23:24.818645 12616 net.cpp:434] drop4 <- relu7
I1020 09:23:24.818651 12616 net.cpp:408] drop4 -> drop4
I1020 09:23:24.818677 12616 net.cpp:150] Setting up drop4
I1020 09:23:24.818682 12616 net.cpp:157] Top shape: 64 280 2 2 (71680)
I1020 09:23:24.818686 12616 net.cpp:165] Memory required for data: 186121728
I1020 09:23:24.818688 12616 layer_factory.hpp:77] Creating layer pool4
I1020 09:23:24.818694 12616 net.cpp:100] Creating Layer pool4
I1020 09:23:24.818698 12616 net.cpp:434] pool4 <- drop4
I1020 09:23:24.818702 12616 net.cpp:408] pool4 -> pool4
I1020 09:23:24.818728 12616 net.cpp:150] Setting up pool4
I1020 09:23:24.818733 12616 net.cpp:157] Top shape: 64 280 1 1 (17920)
I1020 09:23:24.818737 12616 net.cpp:165] Memory required for data: 186193408
I1020 09:23:24.818740 12616 layer_factory.hpp:77] Creating layer conv8
I1020 09:23:24.818748 12616 net.cpp:100] Creating Layer conv8
I1020 09:23:24.818752 12616 net.cpp:434] conv8 <- pool4
I1020 09:23:24.818755 12616 net.cpp:408] conv8 -> conv8
I1020 09:23:24.819735 12616 net.cpp:150] Setting up conv8
I1020 09:23:24.819743 12616 net.cpp:157] Top shape: 64 280 1 1 (17920)
I1020 09:23:24.819746 12616 net.cpp:165] Memory required for data: 186265088
I1020 09:23:24.819752 12616 layer_factory.hpp:77] Creating layer relu8
I1020 09:23:24.819761 12616 net.cpp:100] Creating Layer relu8
I1020 09:23:24.819764 12616 net.cpp:434] relu8 <- conv8
I1020 09:23:24.819768 12616 net.cpp:408] relu8 -> relu8
I1020 09:23:24.819892 12616 net.cpp:150] Setting up relu8
I1020 09:23:24.819900 12616 net.cpp:157] Top shape: 64 280 1 1 (17920)
I1020 09:23:24.819903 12616 net.cpp:165] Memory required for data: 186336768
I1020 09:23:24.819906 12616 layer_factory.hpp:77] Creating layer drop5
I1020 09:23:24.819911 12616 net.cpp:100] Creating Layer drop5
I1020 09:23:24.819916 12616 net.cpp:434] drop5 <- relu8
I1020 09:23:24.819922 12616 net.cpp:408] drop5 -> drop5
I1020 09:23:24.819949 12616 net.cpp:150] Setting up drop5
I1020 09:23:24.819954 12616 net.cpp:157] Top shape: 64 280 1 1 (17920)
I1020 09:23:24.819967 12616 net.cpp:165] Memory required for data: 186408448
I1020 09:23:24.819969 12616 layer_factory.hpp:77] Creating layer pool5
I1020 09:23:24.819975 12616 net.cpp:100] Creating Layer pool5
I1020 09:23:24.819978 12616 net.cpp:434] pool5 <- drop5
I1020 09:23:24.819983 12616 net.cpp:408] pool5 -> pool5
I1020 09:23:24.820014 12616 net.cpp:150] Setting up pool5
I1020 09:23:24.820020 12616 net.cpp:157] Top shape: 64 280 1 1 (17920)
I1020 09:23:24.820024 12616 net.cpp:165] Memory required for data: 186480128
I1020 09:23:24.820027 12616 layer_factory.hpp:77] Creating layer conv10
I1020 09:23:24.820034 12616 net.cpp:100] Creating Layer conv10
I1020 09:23:24.820037 12616 net.cpp:434] conv10 <- pool5
I1020 09:23:24.820042 12616 net.cpp:408] conv10 -> conv10
I1020 09:23:24.820992 12616 net.cpp:150] Setting up conv10
I1020 09:23:24.821002 12616 net.cpp:157] Top shape: 64 300 1 1 (19200)
I1020 09:23:24.821005 12616 net.cpp:165] Memory required for data: 186556928
I1020 09:23:24.821017 12616 layer_factory.hpp:77] Creating layer relu10
I1020 09:23:24.821022 12616 net.cpp:100] Creating Layer relu10
I1020 09:23:24.821027 12616 net.cpp:434] relu10 <- conv10
I1020 09:23:24.821032 12616 net.cpp:408] relu10 -> relu10
I1020 09:23:24.821228 12616 net.cpp:150] Setting up relu10
I1020 09:23:24.821236 12616 net.cpp:157] Top shape: 64 300 1 1 (19200)
I1020 09:23:24.821239 12616 net.cpp:165] Memory required for data: 186633728
I1020 09:23:24.821243 12616 layer_factory.hpp:77] Creating layer drop6
I1020 09:23:24.821249 12616 net.cpp:100] Creating Layer drop6
I1020 09:23:24.821254 12616 net.cpp:434] drop6 <- relu10
I1020 09:23:24.821259 12616 net.cpp:408] drop6 -> drop6
I1020 09:23:24.821286 12616 net.cpp:150] Setting up drop6
I1020 09:23:24.821291 12616 net.cpp:157] Top shape: 64 300 1 1 (19200)
I1020 09:23:24.821296 12616 net.cpp:165] Memory required for data: 186710528
I1020 09:23:24.821300 12616 layer_factory.hpp:77] Creating layer pool6
I1020 09:23:24.821308 12616 net.cpp:100] Creating Layer pool6
I1020 09:23:24.821311 12616 net.cpp:434] pool6 <- drop6
I1020 09:23:24.821316 12616 net.cpp:408] pool6 -> pool6
I1020 09:23:24.821342 12616 net.cpp:150] Setting up pool6
I1020 09:23:24.821347 12616 net.cpp:157] Top shape: 64 300 1 1 (19200)
I1020 09:23:24.821351 12616 net.cpp:165] Memory required for data: 186787328
I1020 09:23:24.821354 12616 layer_factory.hpp:77] Creating layer conv11
I1020 09:23:24.821362 12616 net.cpp:100] Creating Layer conv11
I1020 09:23:24.821365 12616 net.cpp:434] conv11 <- pool6
I1020 09:23:24.821372 12616 net.cpp:408] conv11 -> conv11
I1020 09:23:24.822499 12616 net.cpp:150] Setting up conv11
I1020 09:23:24.822507 12616 net.cpp:157] Top shape: 64 100 1 1 (6400)
I1020 09:23:24.822510 12616 net.cpp:165] Memory required for data: 186812928
I1020 09:23:24.822516 12616 layer_factory.hpp:77] Creating layer relu11
I1020 09:23:24.822522 12616 net.cpp:100] Creating Layer relu11
I1020 09:23:24.822526 12616 net.cpp:434] relu11 <- conv11
I1020 09:23:24.822530 12616 net.cpp:408] relu11 -> relu11
I1020 09:23:24.822648 12616 net.cpp:150] Setting up relu11
I1020 09:23:24.822654 12616 net.cpp:157] Top shape: 64 100 1 1 (6400)
I1020 09:23:24.822657 12616 net.cpp:165] Memory required for data: 186838528
I1020 09:23:24.822659 12616 layer_factory.hpp:77] Creating layer drop7
I1020 09:23:24.822664 12616 net.cpp:100] Creating Layer drop7
I1020 09:23:24.822669 12616 net.cpp:434] drop7 <- relu11
I1020 09:23:24.822675 12616 net.cpp:408] drop7 -> drop7
I1020 09:23:24.822700 12616 net.cpp:150] Setting up drop7
I1020 09:23:24.822706 12616 net.cpp:157] Top shape: 64 100 1 1 (6400)
I1020 09:23:24.822710 12616 net.cpp:165] Memory required for data: 186864128
I1020 09:23:24.822713 12616 layer_factory.hpp:77] Creating layer pool7
I1020 09:23:24.822717 12616 net.cpp:100] Creating Layer pool7
I1020 09:23:24.822721 12616 net.cpp:434] pool7 <- drop7
I1020 09:23:24.822726 12616 net.cpp:408] pool7 -> pool7
I1020 09:23:24.822752 12616 net.cpp:150] Setting up pool7
I1020 09:23:24.822757 12616 net.cpp:157] Top shape: 64 100 1 1 (6400)
I1020 09:23:24.822768 12616 net.cpp:165] Memory required for data: 186889728
I1020 09:23:24.822772 12616 layer_factory.hpp:77] Creating layer pool7_pool7_0_split
I1020 09:23:24.822779 12616 net.cpp:100] Creating Layer pool7_pool7_0_split
I1020 09:23:24.822782 12616 net.cpp:434] pool7_pool7_0_split <- pool7
I1020 09:23:24.822788 12616 net.cpp:408] pool7_pool7_0_split -> pool7_pool7_0_split_0
I1020 09:23:24.822794 12616 net.cpp:408] pool7_pool7_0_split -> pool7_pool7_0_split_1
I1020 09:23:24.822821 12616 net.cpp:150] Setting up pool7_pool7_0_split
I1020 09:23:24.822825 12616 net.cpp:157] Top shape: 64 100 1 1 (6400)
I1020 09:23:24.822829 12616 net.cpp:157] Top shape: 64 100 1 1 (6400)
I1020 09:23:24.822834 12616 net.cpp:165] Memory required for data: 186940928
I1020 09:23:24.822836 12616 layer_factory.hpp:77] Creating layer ip_c
I1020 09:23:24.822844 12616 net.cpp:100] Creating Layer ip_c
I1020 09:23:24.822846 12616 net.cpp:434] ip_c <- pool7_pool7_0_split_0
I1020 09:23:24.822851 12616 net.cpp:408] ip_c -> ip_c
I1020 09:23:24.823194 12616 net.cpp:150] Setting up ip_c
I1020 09:23:24.823200 12616 net.cpp:157] Top shape: 64 20 (1280)
I1020 09:23:24.823204 12616 net.cpp:165] Memory required for data: 186946048
I1020 09:23:24.823210 12616 layer_factory.hpp:77] Creating layer ip_c_ip_c_0_split
I1020 09:23:24.823215 12616 net.cpp:100] Creating Layer ip_c_ip_c_0_split
I1020 09:23:24.823220 12616 net.cpp:434] ip_c_ip_c_0_split <- ip_c
I1020 09:23:24.823225 12616 net.cpp:408] ip_c_ip_c_0_split -> ip_c_ip_c_0_split_0
I1020 09:23:24.823232 12616 net.cpp:408] ip_c_ip_c_0_split -> ip_c_ip_c_0_split_1
I1020 09:23:24.823258 12616 net.cpp:150] Setting up ip_c_ip_c_0_split
I1020 09:23:24.823262 12616 net.cpp:157] Top shape: 64 20 (1280)
I1020 09:23:24.823266 12616 net.cpp:157] Top shape: 64 20 (1280)
I1020 09:23:24.823271 12616 net.cpp:165] Memory required for data: 186956288
I1020 09:23:24.823272 12616 layer_factory.hpp:77] Creating layer accuracy_f
I1020 09:23:24.823277 12616 net.cpp:100] Creating Layer accuracy_f
I1020 09:23:24.823282 12616 net.cpp:434] accuracy_f <- ip_c_ip_c_0_split_0
I1020 09:23:24.823287 12616 net.cpp:434] accuracy_f <- label_coarse_data_1_split_0
I1020 09:23:24.823292 12616 net.cpp:408] accuracy_f -> accuracy_f
…
I1020 09:23:24.824295 12616 net.cpp:283] Network initialization done.
I1020 09:23:24.824498 12616 solver.cpp:181] Creating test net (#0) specified by test_net file: /home/adam/Honours/Honours-Project/cifar-100_pooling/max/leakyrelu/poolcnn_leakyrelu_test.prototxt
I1020 09:23:24.824625 12616 net.cpp:58] Initializing net from parameters: 
state {
  phase: TEST
}
layer {
  name: "data"
  type: "HDF5Data"
  top: "data"
  top: "label_coarse"
  top: "label_fine"
  hdf5_data_param {
    source: "../../../../data/cifar-100/cifar_100_caffe_hdf5/test.txt"
    batch_size: 100
  }
}
layer {
  name: "conv1"
  type: "Convolution"
  bottom: "data"
  top: "conv1"
  convolution_param {
    num_output: 192
    kernel_size: 5
    weight_filler {
      type: "xavier"
    }
  }
}
layer {
  name: "relu1"
  type: "ReLU"
  bottom: "conv1"
  top: "relu1"
  relu_param {
    negative_slope: 0.1
  }
}
layer {
  name: "drop1"
  type: "Dropout"
  bottom: "relu1"
  top: "drop1"
  dropout_param {
    dropout_ratio: 0
  }
}
layer {
  name: "pool1"
  type: "Pooling"
  bottom: "drop1"
  top: "pool1"
  pooling_param {
    pool: MAX
    kernel_size: 2
    stride: 2
  }
}
layer {
  name: "conv2"
  type: "Convolution"
  bottom: "pool1"
  top: "conv2"
  convolution_param {
    num_output: 192
    kernel_size: 1
    weight_filler {
      type: "xavier"
    }
  }
}
layer {
  name: "relu2"
  type: "ReLU"
  bottom: "conv2"
  top: "relu2"
  relu_param {
    negative_slope: 0.1
  }
}
layer {
  name: "conv3"
  type: "Convolution"
  bottom: "relu2"
  top: "conv3"
  convolution_param {
    num_output: 240
    kernel_size: 3
    weight_filler {
      type: "xavier"
    }
  }
}
layer {
  name: "relu3"
  type: "ReLU"
  bottom: "conv3"
  top: "relu3"
  relu_param {
    negative_slope: 0.1
  }
}
layer {
  name: "drop2"
  type: "Dropout"
  bottom: "relu3"
  top: "drop2"
  dropout_param {
    dropout_ratio: 0.1
  }
}
layer {
  name: "pool2"
  type: "Pooling"
  bottom: "drop2"
  top: "pool2"
  pooling_param {
    pool: MAX
    kernel_size: 2
    stride: 2
  }
}
layer {
  name: "conv4"
  type: "Convolution"
  bottom: "pool2"
  top: "conv4"
  convolution_param {
    num_output: 240
    kernel_size: 1
    weight_filler {
      type: "xavier"
    }
  }
}
layer {
  name: "relu4"
  type: "ReLU"
  bottom: "conv4"
  top: "relu4"
  relu_param {
    negative_slope: 0.1
  }
}
layer {
  name: "conv5"
  type: "Convolution"
  bottom: "relu4"
  top: "conv5"
  convolution_param {
    num_output: 260
    kernel_size: 2
    weight_filler {
      type: "xavier"
    }
  }
}
layer {
  name: "relu5"
  type: "ReLU"
  bottom: "conv5"
  top: "relu5"
  relu_param {
    negative_slope: 0.1
  }
}
layer {
  name: "drop3"
  type: "Dropout"
  bottom: "relu5"
  top: "drop3"
  dropout_param {
    dropout_ratio: 0.2
  }
}
layer {
  name: "pool3"
  type: "Pooling"
  bottom: "drop3"
  top: "pool3"
  pooling_param {
    pool: MAX
    kernel_size: 2
    stride: 2
  }
}
layer {
  name: "conv6"
  type: "Convolution"
  bottom: "pool3"
  top: "conv6"
  convolution_param {
    num_output: 260
    kernel_size: 1
    weight_filler {
      type: "xavier"
    }
  }
}
layer {
  name: "relu6"
  type: "ReLU"
  bottom: "conv6"
  top: "relu6"
  relu_param {
    negative_slope: 0.1
  }
}
layer {
  name: "conv7"
  type: "Convolution"
  bottom: "relu6"
  top: "conv7"
  convolution_param {
    num_output: 280
    kernel_size: 2
    weight_filler {
      type: "xavier"
    }
  }
}
layer {
  name: "relu7"
  type: "ReLU"
  bottom: "conv7"
  top: "relu7"
  relu_param {
    negative_slope: 0.1
  }
}
layer {
  name: "drop4"
  type: "Dropout"
  bottom: "relu7"
  top: "drop4"
  dropout_param {
    dropout_ratio: 0.3
  }
}
layer {
  name: "pool4"
  type: "Pooling"
  bottom: "drop4"
  top: "pool4"
  pooling_param {
    pool: MAX
    kernel_size: 2
    stride: 2
  }
}
layer {
  name: "conv8"
  type: "Convolution"
  bottom: "pool4"
  top: "conv8"
  convolution_param {
    num_output: 280
    kernel_size: 1
    weight_filler {
      type: "xavier"
    }
  }
}
layer {
  name: "relu8"
  type: "ReLU"
  bottom: "conv8"
  top: "relu8"
  relu_param {
    negative_slope: 0.1
  }
}
layer {
  name: "drop5"
  type: "Dropout"
  bottom: "relu8"
  top: "drop5"
  dropout_param {
    dropout_ratio: 0.4
  }
}
layer {
  name: "pool5"
  type: "Pooling"
  bottom: "drop5"
  top: "pool5"
  pooling_param {
    pool: MAX
    kernel_size: 2
    stride: 2
  }
}
layer {
  name: "conv10"
  type: "Convolution"
  bottom: "pool5"
  top: "conv10"
  convolution_param {
    num_output: 300
    kernel_size: 1
    weight_filler {
      type: "xavier"
    }
  }
}
layer {
  name: "relu10"
  type: "ReLU"
  bottom: "conv10"
  top: "relu10"
  relu_param {
    negative_slope: 0.1
  }
}
layer {
  name: "drop6"
  type: "Dropout"
  bottom: "relu10"
  top: "drop6"
  dropout_param {
    dropout_ratio: 0.5
  }
}
layer {
  name: "pool6"
  type: "Pooling"
  bottom: "drop6"
  top: "pool6"
  pooling_param {
    pool: MAX
    kernel_size: 2
    stride: 2
  }
}
layer {
  name: "conv11"
  type: "Convolution"
  bottom: "pool6"
  top: "conv11"
  convolution_param {
    num_output: 100
    kernel_size: 1
    weight_filler {
      type: "xavier"
    }
  }
}
layer {
  name: "relu11"
  type: "ReLU"
  bottom: "conv11"
  top: "relu11"
  relu_param {
    negative_slope: 0.1
  }
}
layer {
  name: "drop7"
  type: "Dropout"
  bottom: "relu11"
  top: "drop7"
  dropout_param {
    dropout_ratio: 0
  }
}
layer {
  name: "pool7"
  type: "Pooling"
  bottom: "drop7"
  top: "pool7"
  pooling_param {
    pool: MAX
    kernel_size: 2
    stride: 2
  }
}
layer {
  name: "ip_c"
  type: "InnerProduct"
  bottom: "pool7"
  top: "ip_c"
  inner_product_param {
    num_output: 20
    weight_filler {
      type: "xavier"
    }
  }
}
layer {
  name: "accuracy_f"
  type: "Accuracy"
  bottom: "ip_c"
  bottom: "label_coarse"
  top: "accuracy_f"
}
layer {
  name: "loss_c"
  type: "SoftmaxWithLoss"
  bottom: "ip_c"
  bottom: "label_coarse"
  top: "loss_c"
}
layer {
  name: "ip_f"
  type: "InnerProduct"
  bottom: "pool7"
  top: "ip_f"
  inner_product_param {
    num_output: 100
    weight_filler {
      type: "xavier"
    }
  }
}
layer {
  name: "accuracy"
  type: "Accuracy"
  bottom: "ip_f"
  bottom: "label_fine"
  top: "accuracy"
}
layer {
  name: "loss_f"
  type: "SoftmaxWithLoss"
  bottom: "ip_f"
  bottom: "label_fine"
  top: "loss_f"
}
I1020 09:23:24.824748 12616 layer_factory.hpp:77] Creating layer data
I1020 09:23:24.824755 12616 net.cpp:100] Creating Layer data
I1020 09:23:24.824759 12616 net.cpp:408] data -> data
I1020 09:23:24.824764 12616 net.cpp:408] data -> label_coarse
I1020 09:23:24.824769 12616 net.cpp:408] data -> label_fine
I1020 09:23:24.824774 12616 hdf5_data_layer.cpp:79] Loading list of HDF5 filenames from: ../../../../data/cifar-100/cifar_100_caffe_hdf5/test.txt
I1020 09:23:24.824792 12616 hdf5_data_layer.cpp:93] Number of HDF5 files: 1
I1020 09:23:25.079927 12616 net.cpp:150] Setting up data
I1020 09:23:25.079955 12616 net.cpp:157] Top shape: 100 3 32 32 (307200)
I1020 09:23:25.079984 12616 net.cpp:157] Top shape: 100 (100)
I1020 09:23:25.079990 12616 net.cpp:157] Top shape: 100 (100)
I1020 09:23:25.079993 12616 net.cpp:165] Memory required for data: 1229600
I1020 09:23:25.079998 12616 layer_factory.hpp:77] Creating layer label_coarse_data_1_split
I1020 09:23:25.080011 12616 net.cpp:100] Creating Layer label_coarse_data_1_split
I1020 09:23:25.080016 12616 net.cpp:434] label_coarse_data_1_split <- label_coarse
I1020 09:23:25.080024 12616 net.cpp:408] label_coarse_data_1_split -> label_coarse_data_1_split_0
I1020 09:23:25.080034 12616 net.cpp:408] label_coarse_data_1_split -> label_coarse_data_1_split_1
I1020 09:23:25.080065 12616 net.cpp:150] Setting up label_coarse_data_1_split
I1020 09:23:25.080070 12616 net.cpp:157] Top shape: 100 (100)
I1020 09:23:25.080073 12616 net.cpp:157] Top shape: 100 (100)
I1020 09:23:25.080076 12616 net.cpp:165] Memory required for data: 1230400
I1020 09:23:25.080080 12616 layer_factory.hpp:77] Creating layer label_fine_data_2_split
I1020 09:23:25.080085 12616 net.cpp:100] Creating Layer label_fine_data_2_split
I1020 09:23:25.080088 12616 net.cpp:434] label_fine_data_2_split <- label_fine
I1020 09:23:25.080093 12616 net.cpp:408] label_fine_data_2_split -> label_fine_data_2_split_0
I1020 09:23:25.080099 12616 net.cpp:408] label_fine_data_2_split -> label_fine_data_2_split_1
I1020 09:23:25.080126 12616 net.cpp:150] Setting up label_fine_data_2_split
I1020 09:23:25.080129 12616 net.cpp:157] Top shape: 100 (100)
I1020 09:23:25.080133 12616 net.cpp:157] Top shape: 100 (100)
I1020 09:23:25.080135 12616 net.cpp:165] Memory required for data: 1231200
I1020 09:23:25.080139 12616 layer_factory.hpp:77] Creating layer conv1
I1020 09:23:25.080148 12616 net.cpp:100] Creating Layer conv1
I1020 09:23:25.080152 12616 net.cpp:434] conv1 <- data
I1020 09:23:25.080155 12616 net.cpp:408] conv1 -> conv1
I1020 09:23:25.080994 12616 net.cpp:150] Setting up conv1
I1020 09:23:25.081003 12616 net.cpp:157] Top shape: 100 192 28 28 (15052800)
I1020 09:23:25.081007 12616 net.cpp:165] Memory required for data: 61442400
I1020 09:23:25.081017 12616 layer_factory.hpp:77] Creating layer relu1
I1020 09:23:25.081024 12616 net.cpp:100] Creating Layer relu1
I1020 09:23:25.081028 12616 net.cpp:434] relu1 <- conv1
I1020 09:23:25.081033 12616 net.cpp:408] relu1 -> relu1
I1020 09:23:25.081157 12616 net.cpp:150] Setting up relu1
I1020 09:23:25.081164 12616 net.cpp:157] Top shape: 100 192 28 28 (15052800)
I1020 09:23:25.081167 12616 net.cpp:165] Memory required for data: 121653600
I1020 09:23:25.081171 12616 layer_factory.hpp:77] Creating layer drop1
I1020 09:23:25.081176 12616 net.cpp:100] Creating Layer drop1
I1020 09:23:25.081179 12616 net.cpp:434] drop1 <- relu1
I1020 09:23:25.081184 12616 net.cpp:408] drop1 -> drop1
I1020 09:23:25.081212 12616 net.cpp:150] Setting up drop1
I1020 09:23:25.081218 12616 net.cpp:157] Top shape: 100 192 28 28 (15052800)
I1020 09:23:25.081220 12616 net.cpp:165] Memory required for data: 181864800
I1020 09:23:25.081223 12616 layer_factory.hpp:77] Creating layer pool1
I1020 09:23:25.081229 12616 net.cpp:100] Creating Layer pool1
I1020 09:23:25.081233 12616 net.cpp:434] pool1 <- drop1
I1020 09:23:25.081238 12616 net.cpp:408] pool1 -> pool1
I1020 09:23:25.081264 12616 net.cpp:150] Setting up pool1
I1020 09:23:25.081269 12616 net.cpp:157] Top shape: 100 192 14 14 (3763200)
I1020 09:23:25.081272 12616 net.cpp:165] Memory required for data: 196917600
I1020 09:23:25.081275 12616 layer_factory.hpp:77] Creating layer conv2
I1020 09:23:25.081281 12616 net.cpp:100] Creating Layer conv2
I1020 09:23:25.081285 12616 net.cpp:434] conv2 <- pool1
I1020 09:23:25.081290 12616 net.cpp:408] conv2 -> conv2
I1020 09:23:25.082051 12616 net.cpp:150] Setting up conv2
I1020 09:23:25.082058 12616 net.cpp:157] Top shape: 100 192 14 14 (3763200)
I1020 09:23:25.082062 12616 net.cpp:165] Memory required for data: 211970400
I1020 09:23:25.082069 12616 layer_factory.hpp:77] Creating layer relu2
I1020 09:23:25.082077 12616 net.cpp:100] Creating Layer relu2
I1020 09:23:25.082080 12616 net.cpp:434] relu2 <- conv2
I1020 09:23:25.082094 12616 net.cpp:408] relu2 -> relu2
I1020 09:23:25.082293 12616 net.cpp:150] Setting up relu2
I1020 09:23:25.082300 12616 net.cpp:157] Top shape: 100 192 14 14 (3763200)
I1020 09:23:25.082304 12616 net.cpp:165] Memory required for data: 227023200
I1020 09:23:25.082307 12616 layer_factory.hpp:77] Creating layer conv3
I1020 09:23:25.082315 12616 net.cpp:100] Creating Layer conv3
I1020 09:23:25.082319 12616 net.cpp:434] conv3 <- relu2
I1020 09:23:25.082324 12616 net.cpp:408] conv3 -> conv3
I1020 09:23:25.084841 12616 net.cpp:150] Setting up conv3
I1020 09:23:25.084851 12616 net.cpp:157] Top shape: 100 240 12 12 (3456000)
I1020 09:23:25.084854 12616 net.cpp:165] Memory required for data: 240847200
I1020 09:23:25.084862 12616 layer_factory.hpp:77] Creating layer relu3
I1020 09:23:25.084869 12616 net.cpp:100] Creating Layer relu3
I1020 09:23:25.084872 12616 net.cpp:434] relu3 <- conv3
I1020 09:23:25.084878 12616 net.cpp:408] relu3 -> relu3
I1020 09:23:25.084997 12616 net.cpp:150] Setting up relu3
I1020 09:23:25.085005 12616 net.cpp:157] Top shape: 100 240 12 12 (3456000)
I1020 09:23:25.085007 12616 net.cpp:165] Memory required for data: 254671200
I1020 09:23:25.085010 12616 layer_factory.hpp:77] Creating layer drop2
I1020 09:23:25.085016 12616 net.cpp:100] Creating Layer drop2
I1020 09:23:25.085019 12616 net.cpp:434] drop2 <- relu3
I1020 09:23:25.085024 12616 net.cpp:408] drop2 -> drop2
I1020 09:23:25.085052 12616 net.cpp:150] Setting up drop2
I1020 09:23:25.085057 12616 net.cpp:157] Top shape: 100 240 12 12 (3456000)
I1020 09:23:25.085062 12616 net.cpp:165] Memory required for data: 268495200
I1020 09:23:25.085063 12616 layer_factory.hpp:77] Creating layer pool2
I1020 09:23:25.085068 12616 net.cpp:100] Creating Layer pool2
I1020 09:23:25.085072 12616 net.cpp:434] pool2 <- drop2
I1020 09:23:25.085078 12616 net.cpp:408] pool2 -> pool2
I1020 09:23:25.085106 12616 net.cpp:150] Setting up pool2
I1020 09:23:25.085113 12616 net.cpp:157] Top shape: 100 240 6 6 (864000)
I1020 09:23:25.085114 12616 net.cpp:165] Memory required for data: 271951200
I1020 09:23:25.085117 12616 layer_factory.hpp:77] Creating layer conv4
I1020 09:23:25.085125 12616 net.cpp:100] Creating Layer conv4
I1020 09:23:25.085129 12616 net.cpp:434] conv4 <- pool2
I1020 09:23:25.085134 12616 net.cpp:408] conv4 -> conv4
I1020 09:23:25.086212 12616 net.cpp:150] Setting up conv4
I1020 09:23:25.086222 12616 net.cpp:157] Top shape: 100 240 6 6 (864000)
I1020 09:23:25.086225 12616 net.cpp:165] Memory required for data: 275407200
I1020 09:23:25.086231 12616 layer_factory.hpp:77] Creating layer relu4
I1020 09:23:25.086237 12616 net.cpp:100] Creating Layer relu4
I1020 09:23:25.086241 12616 net.cpp:434] relu4 <- conv4
I1020 09:23:25.086247 12616 net.cpp:408] relu4 -> relu4
I1020 09:23:25.086367 12616 net.cpp:150] Setting up relu4
I1020 09:23:25.086374 12616 net.cpp:157] Top shape: 100 240 6 6 (864000)
I1020 09:23:25.086377 12616 net.cpp:165] Memory required for data: 278863200
I1020 09:23:25.086380 12616 layer_factory.hpp:77] Creating layer conv5
I1020 09:23:25.086388 12616 net.cpp:100] Creating Layer conv5
I1020 09:23:25.086391 12616 net.cpp:434] conv5 <- relu4
I1020 09:23:25.086397 12616 net.cpp:408] conv5 -> conv5
I1020 09:23:25.088167 12616 net.cpp:150] Setting up conv5
I1020 09:23:25.088177 12616 net.cpp:157] Top shape: 100 260 5 5 (650000)
I1020 09:23:25.088181 12616 net.cpp:165] Memory required for data: 281463200
I1020 09:23:25.088188 12616 layer_factory.hpp:77] Creating layer relu5
I1020 09:23:25.088196 12616 net.cpp:100] Creating Layer relu5
I1020 09:23:25.088201 12616 net.cpp:434] relu5 <- conv5
I1020 09:23:25.088205 12616 net.cpp:408] relu5 -> relu5
I1020 09:23:25.088477 12616 net.cpp:150] Setting up relu5
I1020 09:23:25.088486 12616 net.cpp:157] Top shape: 100 260 5 5 (650000)
I1020 09:23:25.088490 12616 net.cpp:165] Memory required for data: 284063200
I1020 09:23:25.088493 12616 layer_factory.hpp:77] Creating layer drop3
I1020 09:23:25.088498 12616 net.cpp:100] Creating Layer drop3
I1020 09:23:25.088502 12616 net.cpp:434] drop3 <- relu5
I1020 09:23:25.088516 12616 net.cpp:408] drop3 -> drop3
I1020 09:23:25.088546 12616 net.cpp:150] Setting up drop3
I1020 09:23:25.088551 12616 net.cpp:157] Top shape: 100 260 5 5 (650000)
I1020 09:23:25.088556 12616 net.cpp:165] Memory required for data: 286663200
I1020 09:23:25.088558 12616 layer_factory.hpp:77] Creating layer pool3
I1020 09:23:25.088563 12616 net.cpp:100] Creating Layer pool3
I1020 09:23:25.088567 12616 net.cpp:434] pool3 <- drop3
I1020 09:23:25.088572 12616 net.cpp:408] pool3 -> pool3
I1020 09:23:25.088600 12616 net.cpp:150] Setting up pool3
I1020 09:23:25.088605 12616 net.cpp:157] Top shape: 100 260 3 3 (234000)
I1020 09:23:25.088608 12616 net.cpp:165] Memory required for data: 287599200
I1020 09:23:25.088613 12616 layer_factory.hpp:77] Creating layer conv6
I1020 09:23:25.088618 12616 net.cpp:100] Creating Layer conv6
I1020 09:23:25.088621 12616 net.cpp:434] conv6 <- pool3
I1020 09:23:25.088626 12616 net.cpp:408] conv6 -> conv6
I1020 09:23:25.089757 12616 net.cpp:150] Setting up conv6
I1020 09:23:25.089766 12616 net.cpp:157] Top shape: 100 260 3 3 (234000)
I1020 09:23:25.089769 12616 net.cpp:165] Memory required for data: 288535200
I1020 09:23:25.089776 12616 layer_factory.hpp:77] Creating layer relu6
I1020 09:23:25.089782 12616 net.cpp:100] Creating Layer relu6
I1020 09:23:25.089787 12616 net.cpp:434] relu6 <- conv6
I1020 09:23:25.089792 12616 net.cpp:408] relu6 -> relu6
I1020 09:23:25.089908 12616 net.cpp:150] Setting up relu6
I1020 09:23:25.089915 12616 net.cpp:157] Top shape: 100 260 3 3 (234000)
I1020 09:23:25.089918 12616 net.cpp:165] Memory required for data: 289471200
I1020 09:23:25.089921 12616 layer_factory.hpp:77] Creating layer conv7
I1020 09:23:25.089927 12616 net.cpp:100] Creating Layer conv7
I1020 09:23:25.089931 12616 net.cpp:434] conv7 <- relu6
I1020 09:23:25.089936 12616 net.cpp:408] conv7 -> conv7
I1020 09:23:25.091868 12616 net.cpp:150] Setting up conv7
I1020 09:23:25.091877 12616 net.cpp:157] Top shape: 100 280 2 2 (112000)
I1020 09:23:25.091881 12616 net.cpp:165] Memory required for data: 289919200
I1020 09:23:25.091887 12616 layer_factory.hpp:77] Creating layer relu7
I1020 09:23:25.091893 12616 net.cpp:100] Creating Layer relu7
I1020 09:23:25.091897 12616 net.cpp:434] relu7 <- conv7
I1020 09:23:25.091903 12616 net.cpp:408] relu7 -> relu7
I1020 09:23:25.092022 12616 net.cpp:150] Setting up relu7
I1020 09:23:25.092030 12616 net.cpp:157] Top shape: 100 280 2 2 (112000)
I1020 09:23:25.092032 12616 net.cpp:165] Memory required for data: 290367200
I1020 09:23:25.092036 12616 layer_factory.hpp:77] Creating layer drop4
I1020 09:23:25.092041 12616 net.cpp:100] Creating Layer drop4
I1020 09:23:25.092046 12616 net.cpp:434] drop4 <- relu7
I1020 09:23:25.092051 12616 net.cpp:408] drop4 -> drop4
I1020 09:23:25.092080 12616 net.cpp:150] Setting up drop4
I1020 09:23:25.092085 12616 net.cpp:157] Top shape: 100 280 2 2 (112000)
I1020 09:23:25.092088 12616 net.cpp:165] Memory required for data: 290815200
I1020 09:23:25.092090 12616 layer_factory.hpp:77] Creating layer pool4
I1020 09:23:25.092097 12616 net.cpp:100] Creating Layer pool4
I1020 09:23:25.092099 12616 net.cpp:434] pool4 <- drop4
I1020 09:23:25.092104 12616 net.cpp:408] pool4 -> pool4
I1020 09:23:25.092133 12616 net.cpp:150] Setting up pool4
I1020 09:23:25.092139 12616 net.cpp:157] Top shape: 100 280 1 1 (28000)
I1020 09:23:25.092142 12616 net.cpp:165] Memory required for data: 290927200
I1020 09:23:25.092144 12616 layer_factory.hpp:77] Creating layer conv8
I1020 09:23:25.092151 12616 net.cpp:100] Creating Layer conv8
I1020 09:23:25.092154 12616 net.cpp:434] conv8 <- pool4
I1020 09:23:25.092159 12616 net.cpp:408] conv8 -> conv8
I1020 09:23:25.093101 12616 net.cpp:150] Setting up conv8
I1020 09:23:25.093111 12616 net.cpp:157] Top shape: 100 280 1 1 (28000)
I1020 09:23:25.093114 12616 net.cpp:165] Memory required for data: 291039200
I1020 09:23:25.093121 12616 layer_factory.hpp:77] Creating layer relu8
I1020 09:23:25.093127 12616 net.cpp:100] Creating Layer relu8
I1020 09:23:25.093130 12616 net.cpp:434] relu8 <- conv8
I1020 09:23:25.093147 12616 net.cpp:408] relu8 -> relu8
I1020 09:23:25.093344 12616 net.cpp:150] Setting up relu8
I1020 09:23:25.093353 12616 net.cpp:157] Top shape: 100 280 1 1 (28000)
I1020 09:23:25.093354 12616 net.cpp:165] Memory required for data: 291151200
I1020 09:23:25.093358 12616 layer_factory.hpp:77] Creating layer drop5
I1020 09:23:25.093364 12616 net.cpp:100] Creating Layer drop5
I1020 09:23:25.093367 12616 net.cpp:434] drop5 <- relu8
I1020 09:23:25.093372 12616 net.cpp:408] drop5 -> drop5
I1020 09:23:25.093401 12616 net.cpp:150] Setting up drop5
I1020 09:23:25.093406 12616 net.cpp:157] Top shape: 100 280 1 1 (28000)
I1020 09:23:25.093410 12616 net.cpp:165] Memory required for data: 291263200
I1020 09:23:25.093411 12616 layer_factory.hpp:77] Creating layer pool5
I1020 09:23:25.093417 12616 net.cpp:100] Creating Layer pool5
I1020 09:23:25.093421 12616 net.cpp:434] pool5 <- drop5
I1020 09:23:25.093425 12616 net.cpp:408] pool5 -> pool5
I1020 09:23:25.093458 12616 net.cpp:150] Setting up pool5
I1020 09:23:25.093463 12616 net.cpp:157] Top shape: 100 280 1 1 (28000)
I1020 09:23:25.093466 12616 net.cpp:165] Memory required for data: 291375200
I1020 09:23:25.093469 12616 layer_factory.hpp:77] Creating layer conv10
I1020 09:23:25.093477 12616 net.cpp:100] Creating Layer conv10
I1020 09:23:25.093479 12616 net.cpp:434] conv10 <- pool5
I1020 09:23:25.093484 12616 net.cpp:408] conv10 -> conv10
I1020 09:23:25.095082 12616 net.cpp:150] Setting up conv10
I1020 09:23:25.095090 12616 net.cpp:157] Top shape: 100 300 1 1 (30000)
I1020 09:23:25.095094 12616 net.cpp:165] Memory required for data: 291495200
I1020 09:23:25.095103 12616 layer_factory.hpp:77] Creating layer relu10
I1020 09:23:25.095108 12616 net.cpp:100] Creating Layer relu10
I1020 09:23:25.095113 12616 net.cpp:434] relu10 <- conv10
I1020 09:23:25.095118 12616 net.cpp:408] relu10 -> relu10
I1020 09:23:25.095233 12616 net.cpp:150] Setting up relu10
I1020 09:23:25.095239 12616 net.cpp:157] Top shape: 100 300 1 1 (30000)
I1020 09:23:25.095242 12616 net.cpp:165] Memory required for data: 291615200
I1020 09:23:25.095247 12616 layer_factory.hpp:77] Creating layer drop6
I1020 09:23:25.095250 12616 net.cpp:100] Creating Layer drop6
I1020 09:23:25.095254 12616 net.cpp:434] drop6 <- relu10
I1020 09:23:25.095259 12616 net.cpp:408] drop6 -> drop6
I1020 09:23:25.095288 12616 net.cpp:150] Setting up drop6
I1020 09:23:25.095293 12616 net.cpp:157] Top shape: 100 300 1 1 (30000)
I1020 09:23:25.095295 12616 net.cpp:165] Memory required for data: 291735200
I1020 09:23:25.095299 12616 layer_factory.hpp:77] Creating layer pool6
I1020 09:23:25.095307 12616 net.cpp:100] Creating Layer pool6
I1020 09:23:25.095310 12616 net.cpp:434] pool6 <- drop6
I1020 09:23:25.095315 12616 net.cpp:408] pool6 -> pool6
I1020 09:23:25.095343 12616 net.cpp:150] Setting up pool6
I1020 09:23:25.095347 12616 net.cpp:157] Top shape: 100 300 1 1 (30000)
I1020 09:23:25.095352 12616 net.cpp:165] Memory required for data: 291855200
I1020 09:23:25.095355 12616 layer_factory.hpp:77] Creating layer conv11
I1020 09:23:25.095361 12616 net.cpp:100] Creating Layer conv11
I1020 09:23:25.095365 12616 net.cpp:434] conv11 <- pool6
I1020 09:23:25.095369 12616 net.cpp:408] conv11 -> conv11
I1020 09:23:25.096109 12616 net.cpp:150] Setting up conv11
I1020 09:23:25.096118 12616 net.cpp:157] Top shape: 100 100 1 1 (10000)
I1020 09:23:25.096122 12616 net.cpp:165] Memory required for data: 291895200
I1020 09:23:25.096128 12616 layer_factory.hpp:77] Creating layer relu11
I1020 09:23:25.096133 12616 net.cpp:100] Creating Layer relu11
I1020 09:23:25.096138 12616 net.cpp:434] relu11 <- conv11
I1020 09:23:25.096143 12616 net.cpp:408] relu11 -> relu11
I1020 09:23:25.096259 12616 net.cpp:150] Setting up relu11
I1020 09:23:25.096266 12616 net.cpp:157] Top shape: 100 100 1 1 (10000)
I1020 09:23:25.096268 12616 net.cpp:165] Memory required for data: 291935200
I1020 09:23:25.096271 12616 layer_factory.hpp:77] Creating layer drop7
I1020 09:23:25.096277 12616 net.cpp:100] Creating Layer drop7
I1020 09:23:25.096281 12616 net.cpp:434] drop7 <- relu11
I1020 09:23:25.096297 12616 net.cpp:408] drop7 -> drop7
I1020 09:23:25.096328 12616 net.cpp:150] Setting up drop7
I1020 09:23:25.096334 12616 net.cpp:157] Top shape: 100 100 1 1 (10000)
I1020 09:23:25.096338 12616 net.cpp:165] Memory required for data: 291975200
I1020 09:23:25.096339 12616 layer_factory.hpp:77] Creating layer pool7
I1020 09:23:25.096344 12616 net.cpp:100] Creating Layer pool7
I1020 09:23:25.096349 12616 net.cpp:434] pool7 <- drop7
I1020 09:23:25.096352 12616 net.cpp:408] pool7 -> pool7
I1020 09:23:25.096379 12616 net.cpp:150] Setting up pool7
I1020 09:23:25.096385 12616 net.cpp:157] Top shape: 100 100 1 1 (10000)
I1020 09:23:25.096388 12616 net.cpp:165] Memory required for data: 292015200
I1020 09:23:25.096391 12616 layer_factory.hpp:77] Creating layer pool7_pool7_0_split
I1020 09:23:25.096396 12616 net.cpp:100] Creating Layer pool7_pool7_0_split
I1020 09:23:25.096400 12616 net.cpp:434] pool7_pool7_0_split <- pool7
I1020 09:23:25.096405 12616 net.cpp:408] pool7_pool7_0_split -> pool7_pool7_0_split_0
I1020 09:23:25.096410 12616 net.cpp:408] pool7_pool7_0_split -> pool7_pool7_0_split_1
I1020 09:23:25.096437 12616 net.cpp:150] Setting up pool7_pool7_0_split
I1020 09:23:25.096442 12616 net.cpp:157] Top shape: 100 100 1 1 (10000)
I1020 09:23:25.096447 12616 net.cpp:157] Top shape: 100 100 1 1 (10000)
I1020 09:23:25.096451 12616 net.cpp:165] Memory required for data: 292095200
I1020 09:23:25.096453 12616 layer_factory.hpp:77] Creating layer ip_c
I1020 09:23:25.096459 12616 net.cpp:100] Creating Layer ip_c
I1020 09:23:25.096462 12616 net.cpp:434] ip_c <- pool7_pool7_0_split_0
I1020 09:23:25.096467 12616 net.cpp:408] ip_c -> ip_c
I1020 09:23:25.096550 12616 net.cpp:150] Setting up ip_c
I1020 09:23:25.096555 12616 net.cpp:157] Top shape: 100 20 (2000)
I1020 09:23:25.096559 12616 net.cpp:165] Memory required for data: 292103200
I1020 09:23:25.096565 12616 layer_factory.hpp:77] Creating layer ip_c_ip_c_0_split
I1020 09:23:25.096568 12616 net.cpp:100] Creating Layer ip_c_ip_c_0_split
I1020 09:23:25.096572 12616 net.cpp:434] ip_c_ip_c_0_split <- ip_c
I1020 09:23:25.096577 12616 net.cpp:408] ip_c_ip_c_0_split -> ip_c_ip_c_0_split_0
I1020 09:23:25.096585 12616 net.cpp:408] ip_c_ip_c_0_split -> ip_c_ip_c_0_split_1
I1020 09:23:25.096611 12616 net.cpp:150] Setting up ip_c_ip_c_0_split
I1020 09:23:25.096616 12616 net.cpp:157] Top shape: 100 20 (2000)
I1020 09:23:25.096618 12616 net.cpp:157] Top shape: 100 20 (2000)
I1020 09:23:25.096622 12616 net.cpp:165] Memory required for data: 292119200
I1020 09:23:25.096626 12616 layer_factory.hpp:77] Creating layer accuracy_f
I1020 09:23:25.096629 12616 net.cpp:100] Creating Layer accuracy_f
I1020 09:23:25.096632 12616 net.cpp:434] accuracy_f <- ip_c_ip_c_0_split_0
I1020 09:23:25.096638 12616 net.cpp:434] accuracy_f <- label_coarse_data_1_split_0
I1020 09:23:25.096643 12616 net.cpp:408] accuracy_f -> accuracy_f
…
