…
  stage: ""
}
type: "AdaDelta"
I1017 23:21:35.459646  8776 solver.cpp:81] Creating training net from train_net file: /home/adam/Honours/Honours-Project/cifar-100_pooling/max/leakyrelu/poolcnn_leakyrelu_train.prototxt
I1017 23:21:35.459974  8776 net.cpp:58] Initializing net from parameters: 
state {
  phase: TRAIN
  level: 0
  stage: ""
}
layer {
  name: "data"
  type: "HDF5Data"
  top: "data"
  top: "label_coarse"
  top: "label_fine"
  hdf5_data_param {
    source: "../../../../data/cifar-100/cifar_100_caffe_hdf5/train.txt"
    batch_size: 64
  }
}
layer {
  name: "conv1"
  type: "Convolution"
  bottom: "data"
  top: "conv1"
  convolution_param {
    num_output: 192
    kernel_size: 5
    weight_filler {
      type: "xavier"
    }
  }
}
layer {
  name: "pool1"
  type: "Pooling"
  bottom: "conv1"
  top: "pool1"
  pooling_param {
    pool: MAX
    kernel_size: 2
    stride: 2
  }
}
layer {
  name: "drop1"
  type: "Dropout"
  bottom: "pool1"
  top: "drop1"
  dropout_param {
    dropout_ratio: 0
  }
}
layer {
  name: "relu1"
  type: "ReLU"
  bottom: "drop1"
  top: "relu1"
  relu_param {
    negative_slope: 0.01
  }
}
layer {
  name: "conv2"
  type: "Convolution"
  bottom: "relu1"
  top: "conv2"
  convolution_param {
    num_output: 192
    kernel_size: 1
    weight_filler {
      type: "xavier"
    }
  }
}
layer {
  name: "conv3"
  type: "Convolution"
  bottom: "conv2"
  top: "conv3"
  convolution_param {
    num_output: 240
    kernel_size: 3
    weight_filler {
      type: "xavier"
    }
  }
}
layer {
  name: "pool2"
  type: "Pooling"
  bottom: "conv3"
  top: "pool2"
  pooling_param {
    pool: MAX
    kernel_size: 2
    stride: 2
  }
}
layer {
  name: "drop2"
  type: "Dropout"
  bottom: "pool2"
  top: "drop2"
  dropout_param {
    dropout_ratio: 0.1
  }
}
layer {
  name: "relu2"
  type: "ReLU"
  bottom: "drop2"
  top: "relu2"
  relu_param {
    negative_slope: 0.01
  }
}
layer {
  name: "conv4"
  type: "Convolution"
  bottom: "relu2"
  top: "conv4"
  convolution_param {
    num_output: 240
    kernel_size: 1
    weight_filler {
      type: "xavier"
    }
  }
}
layer {
  name: "conv5"
  type: "Convolution"
  bottom: "conv4"
  top: "conv5"
  convolution_param {
    num_output: 260
    kernel_size: 2
    weight_filler {
      type: "xavier"
    }
  }
}
layer {
  name: "pool3"
  type: "Pooling"
  bottom: "conv5"
  top: "pool3"
  pooling_param {
    pool: MAX
    kernel_size: 2
    stride: 2
  }
}
layer {
  name: "drop3"
  type: "Dropout"
  bottom: "pool3"
  top: "drop3"
  dropout_param {
    dropout_ratio: 0.2
  }
}
layer {
  name: "relu3"
  type: "ReLU"
  bottom: "drop3"
  top: "relu3"
  relu_param {
    negative_slope: 0.01
  }
}
layer {
  name: "conv6"
  type: "Convolution"
  bottom: "relu3"
  top: "conv6"
  convolution_param {
    num_output: 260
    kernel_size: 1
    weight_filler {
      type: "xavier"
    }
  }
}
layer {
  name: "conv7"
  type: "Convolution"
  bottom: "conv6"
  top: "conv7"
  convolution_param {
    num_output: 280
    kernel_size: 2
    weight_filler {
      type: "xavier"
    }
  }
}
layer {
  name: "pool4"
  type: "Pooling"
  bottom: "conv7"
  top: "pool4"
  pooling_param {
    pool: MAX
    kernel_size: 2
    stride: 2
  }
}
layer {
  name: "drop4"
  type: "Dropout"
  bottom: "pool4"
  top: "drop4"
  dropout_param {
    dropout_ratio: 0.3
  }
}
layer {
  name: "relu4"
  type: "ReLU"
  bottom: "drop4"
  top: "relu4"
  relu_param {
    negative_slope: 0.01
  }
}
layer {
  name: "conv8"
  type: "Convolution"
  bottom: "relu4"
  top: "conv8"
  convolution_param {
    num_output: 280
    kernel_size: 1
    weight_filler {
      type: "xavier"
    }
  }
}
layer {
  name: "pool5"
  type: "Pooling"
  bottom: "conv8"
  top: "pool5"
  pooling_param {
    pool: MAX
    kernel_size: 2
    stride: 2
  }
}
layer {
  name: "drop5"
  type: "Dropout"
  bottom: "pool5"
  top: "drop5"
  dropout_param {
    dropout_ratio: 0.4
  }
}
layer {
  name: "relu5"
  type: "ReLU"
  bottom: "drop5"
  top: "relu5"
  relu_param {
    negative_slope: 0.01
  }
}
layer {
  name: "conv10"
  type: "Convolution"
  bottom: "relu5"
  top: "conv10"
  convolution_param {
    num_output: 300
    kernel_size: 1
    weight_filler {
      type: "xavier"
    }
  }
}
layer {
  name: "pool6"
  type: "Pooling"
  bottom: "conv10"
  top: "pool6"
  pooling_param {
    pool: MAX
    kernel_size: 2
    stride: 2
  }
}
layer {
  name: "drop6"
  type: "Dropout"
  bottom: "pool6"
  top: "drop6"
  dropout_param {
    dropout_ratio: 0.5
  }
}
layer {
  name: "relu6"
  type: "ReLU"
  bottom: "drop6"
  top: "relu6"
  relu_param {
    negative_slope: 0.01
  }
}
layer {
  name: "conv11"
  type: "Convolution"
  bottom: "relu6"
  top: "conv11"
  convolution_param {
    num_output: 100
    kernel_size: 1
    weight_filler {
      type: "xavier"
    }
  }
}
layer {
  name: "pool7"
  type: "Pooling"
  bottom: "conv11"
  top: "pool7"
  pooling_param {
    pool: MAX
    kernel_size: 2
    stride: 2
  }
}
layer {
  name: "drop7"
  type: "Dropout"
  bottom: "pool7"
  top: "drop7"
  dropout_param {
    dropout_ratio: 0
  }
}
layer {
  name: "relu7"
  type: "ReLU"
  bottom: "drop7"
  top: "relu7"
  relu_param {
    negative_slope: 0.01
  }
}
layer {
  name: "pool"
  type: "Pooling"
  bottom: "relu7"
  top: "pool"
  pooling_param {
    pool: AVE
    global_pooling: true
  }
}
layer {
  name: "flatten"
  type: "Flatten"
  bottom: "pool"
  top: "flatten"
}
layer {
  name: "ip_c"
  type: "InnerProduct"
  bottom: "flatten"
  top: "ip_c"
  inner_product_param {
    num_output: 20
    weight_filler {
      type: "xavier"
    }
  }
}
layer {
  name: "accuracy_f"
  type: "Accuracy"
  bottom: "ip_c"
  bottom: "label_coarse"
  top: "accuracy_f"
}
layer {
  name: "loss_c"
  type: "SoftmaxWithLoss"
  bottom: "ip_c"
  bottom: "label_coarse"
  top: "loss_c"
}
layer {
  name: "ip_f"
  type: "InnerProduct"
  bottom: "flatten"
  top: "ip_f"
  inner_product_param {
    num_output: 100
    weight_filler {
      type: "xavier"
    }
  }
}
layer {
  name: "accuracy"
  type: "Accuracy"
  bottom: "ip_f"
  bottom: "label_fine"
  top: "accuracy"
}
layer {
  name: "loss_f"
  type: "SoftmaxWithLoss"
  bottom: "ip_f"
  bottom: "label_fine"
  top: "loss_f"
}
I1017 23:21:35.460101  8776 layer_factory.hpp:77] Creating layer data
I1017 23:21:35.460110  8776 net.cpp:100] Creating Layer data
I1017 23:21:35.460114  8776 net.cpp:408] data -> data
I1017 23:21:35.460129  8776 net.cpp:408] data -> label_coarse
I1017 23:21:35.460135  8776 net.cpp:408] data -> label_fine
I1017 23:21:35.460142  8776 hdf5_data_layer.cpp:79] Loading list of HDF5 filenames from: ../../../../data/cifar-100/cifar_100_caffe_hdf5/train.txt
I1017 23:21:35.460170  8776 hdf5_data_layer.cpp:93] Number of HDF5 files: 1
I1017 23:21:35.460793  8776 hdf5.cpp:35] Datatype class: H5T_INTEGER
I1017 23:21:37.072752  8776 net.cpp:150] Setting up data
I1017 23:21:37.072777  8776 net.cpp:157] Top shape: 64 3 32 32 (196608)
I1017 23:21:37.072782  8776 net.cpp:157] Top shape: 64 (64)
I1017 23:21:37.072785  8776 net.cpp:157] Top shape: 64 (64)
I1017 23:21:37.072788  8776 net.cpp:165] Memory required for data: 786944
I1017 23:21:37.072795  8776 layer_factory.hpp:77] Creating layer label_coarse_data_1_split
I1017 23:21:37.072808  8776 net.cpp:100] Creating Layer label_coarse_data_1_split
I1017 23:21:37.072813  8776 net.cpp:434] label_coarse_data_1_split <- label_coarse
I1017 23:21:37.072826  8776 net.cpp:408] label_coarse_data_1_split -> label_coarse_data_1_split_0
I1017 23:21:37.072842  8776 net.cpp:408] label_coarse_data_1_split -> label_coarse_data_1_split_1
I1017 23:21:37.072885  8776 net.cpp:150] Setting up label_coarse_data_1_split
I1017 23:21:37.072891  8776 net.cpp:157] Top shape: 64 (64)
I1017 23:21:37.072896  8776 net.cpp:157] Top shape: 64 (64)
I1017 23:21:37.072898  8776 net.cpp:165] Memory required for data: 787456
I1017 23:21:37.072903  8776 layer_factory.hpp:77] Creating layer label_fine_data_2_split
I1017 23:21:37.072911  8776 net.cpp:100] Creating Layer label_fine_data_2_split
I1017 23:21:37.072913  8776 net.cpp:434] label_fine_data_2_split <- label_fine
I1017 23:21:37.072919  8776 net.cpp:408] label_fine_data_2_split -> label_fine_data_2_split_0
I1017 23:21:37.072926  8776 net.cpp:408] label_fine_data_2_split -> label_fine_data_2_split_1
I1017 23:21:37.072949  8776 net.cpp:150] Setting up label_fine_data_2_split
I1017 23:21:37.072953  8776 net.cpp:157] Top shape: 64 (64)
I1017 23:21:37.072957  8776 net.cpp:157] Top shape: 64 (64)
I1017 23:21:37.072962  8776 net.cpp:165] Memory required for data: 787968
I1017 23:21:37.072964  8776 layer_factory.hpp:77] Creating layer conv1
I1017 23:21:37.072978  8776 net.cpp:100] Creating Layer conv1
I1017 23:21:37.072980  8776 net.cpp:434] conv1 <- data
I1017 23:21:37.072988  8776 net.cpp:408] conv1 -> conv1
I1017 23:21:37.192770  8776 net.cpp:150] Setting up conv1
I1017 23:21:37.192798  8776 net.cpp:157] Top shape: 64 192 28 28 (9633792)
I1017 23:21:37.192801  8776 net.cpp:165] Memory required for data: 39323136
I1017 23:21:37.192827  8776 layer_factory.hpp:77] Creating layer pool1
I1017 23:21:37.192839  8776 net.cpp:100] Creating Layer pool1
I1017 23:21:37.192844  8776 net.cpp:434] pool1 <- conv1
I1017 23:21:37.192852  8776 net.cpp:408] pool1 -> pool1
I1017 23:21:37.192894  8776 net.cpp:150] Setting up pool1
I1017 23:21:37.192900  8776 net.cpp:157] Top shape: 64 192 14 14 (2408448)
I1017 23:21:37.192903  8776 net.cpp:165] Memory required for data: 48956928
I1017 23:21:37.192905  8776 layer_factory.hpp:77] Creating layer drop1
I1017 23:21:37.192912  8776 net.cpp:100] Creating Layer drop1
I1017 23:21:37.192916  8776 net.cpp:434] drop1 <- pool1
I1017 23:21:37.192921  8776 net.cpp:408] drop1 -> drop1
I1017 23:21:37.192950  8776 net.cpp:150] Setting up drop1
I1017 23:21:37.192955  8776 net.cpp:157] Top shape: 64 192 14 14 (2408448)
I1017 23:21:37.192958  8776 net.cpp:165] Memory required for data: 58590720
I1017 23:21:37.192961  8776 layer_factory.hpp:77] Creating layer relu1
I1017 23:21:37.192966  8776 net.cpp:100] Creating Layer relu1
I1017 23:21:37.192970  8776 net.cpp:434] relu1 <- drop1
I1017 23:21:37.192973  8776 net.cpp:408] relu1 -> relu1
I1017 23:21:37.193094  8776 net.cpp:150] Setting up relu1
I1017 23:21:37.193100  8776 net.cpp:157] Top shape: 64 192 14 14 (2408448)
I1017 23:21:37.193105  8776 net.cpp:165] Memory required for data: 68224512
I1017 23:21:37.193109  8776 layer_factory.hpp:77] Creating layer conv2
I1017 23:21:37.193117  8776 net.cpp:100] Creating Layer conv2
I1017 23:21:37.193120  8776 net.cpp:434] conv2 <- relu1
I1017 23:21:37.193126  8776 net.cpp:408] conv2 -> conv2
I1017 23:21:37.193936  8776 net.cpp:150] Setting up conv2
I1017 23:21:37.193945  8776 net.cpp:157] Top shape: 64 192 14 14 (2408448)
I1017 23:21:37.193949  8776 net.cpp:165] Memory required for data: 77858304
I1017 23:21:37.193958  8776 layer_factory.hpp:77] Creating layer conv3
I1017 23:21:37.193965  8776 net.cpp:100] Creating Layer conv3
I1017 23:21:37.193969  8776 net.cpp:434] conv3 <- conv2
I1017 23:21:37.193975  8776 net.cpp:408] conv3 -> conv3
I1017 23:21:37.196421  8776 net.cpp:150] Setting up conv3
I1017 23:21:37.196435  8776 net.cpp:157] Top shape: 64 240 12 12 (2211840)
I1017 23:21:37.196439  8776 net.cpp:165] Memory required for data: 86705664
I1017 23:21:37.196447  8776 layer_factory.hpp:77] Creating layer pool2
I1017 23:21:37.196455  8776 net.cpp:100] Creating Layer pool2
I1017 23:21:37.196460  8776 net.cpp:434] pool2 <- conv3
I1017 23:21:37.196467  8776 net.cpp:408] pool2 -> pool2
I1017 23:21:37.196498  8776 net.cpp:150] Setting up pool2
I1017 23:21:37.196504  8776 net.cpp:157] Top shape: 64 240 6 6 (552960)
I1017 23:21:37.196519  8776 net.cpp:165] Memory required for data: 88917504
I1017 23:21:37.196522  8776 layer_factory.hpp:77] Creating layer drop2
I1017 23:21:37.196529  8776 net.cpp:100] Creating Layer drop2
I1017 23:21:37.196532  8776 net.cpp:434] drop2 <- pool2
I1017 23:21:37.196537  8776 net.cpp:408] drop2 -> drop2
I1017 23:21:37.196563  8776 net.cpp:150] Setting up drop2
I1017 23:21:37.196568  8776 net.cpp:157] Top shape: 64 240 6 6 (552960)
I1017 23:21:37.196570  8776 net.cpp:165] Memory required for data: 91129344
I1017 23:21:37.196573  8776 layer_factory.hpp:77] Creating layer relu2
I1017 23:21:37.196578  8776 net.cpp:100] Creating Layer relu2
I1017 23:21:37.196581  8776 net.cpp:434] relu2 <- drop2
I1017 23:21:37.196588  8776 net.cpp:408] relu2 -> relu2
I1017 23:21:37.196705  8776 net.cpp:150] Setting up relu2
I1017 23:21:37.196712  8776 net.cpp:157] Top shape: 64 240 6 6 (552960)
I1017 23:21:37.196714  8776 net.cpp:165] Memory required for data: 93341184
I1017 23:21:37.196717  8776 layer_factory.hpp:77] Creating layer conv4
I1017 23:21:37.196727  8776 net.cpp:100] Creating Layer conv4
I1017 23:21:37.196729  8776 net.cpp:434] conv4 <- relu2
I1017 23:21:37.196735  8776 net.cpp:408] conv4 -> conv4
I1017 23:21:37.197573  8776 net.cpp:150] Setting up conv4
I1017 23:21:37.197582  8776 net.cpp:157] Top shape: 64 240 6 6 (552960)
I1017 23:21:37.197587  8776 net.cpp:165] Memory required for data: 95553024
I1017 23:21:37.197592  8776 layer_factory.hpp:77] Creating layer conv5
I1017 23:21:37.197599  8776 net.cpp:100] Creating Layer conv5
I1017 23:21:37.197603  8776 net.cpp:434] conv5 <- conv4
I1017 23:21:37.197609  8776 net.cpp:408] conv5 -> conv5
I1017 23:21:37.199389  8776 net.cpp:150] Setting up conv5
I1017 23:21:37.199399  8776 net.cpp:157] Top shape: 64 260 5 5 (416000)
I1017 23:21:37.199404  8776 net.cpp:165] Memory required for data: 97217024
I1017 23:21:37.199412  8776 layer_factory.hpp:77] Creating layer pool3
I1017 23:21:37.199419  8776 net.cpp:100] Creating Layer pool3
I1017 23:21:37.199422  8776 net.cpp:434] pool3 <- conv5
I1017 23:21:37.199429  8776 net.cpp:408] pool3 -> pool3
I1017 23:21:37.199456  8776 net.cpp:150] Setting up pool3
I1017 23:21:37.199461  8776 net.cpp:157] Top shape: 64 260 3 3 (149760)
I1017 23:21:37.199465  8776 net.cpp:165] Memory required for data: 97816064
I1017 23:21:37.199468  8776 layer_factory.hpp:77] Creating layer drop3
I1017 23:21:37.199476  8776 net.cpp:100] Creating Layer drop3
I1017 23:21:37.199478  8776 net.cpp:434] drop3 <- pool3
I1017 23:21:37.199483  8776 net.cpp:408] drop3 -> drop3
I1017 23:21:37.199507  8776 net.cpp:150] Setting up drop3
I1017 23:21:37.199512  8776 net.cpp:157] Top shape: 64 260 3 3 (149760)
I1017 23:21:37.199515  8776 net.cpp:165] Memory required for data: 98415104
I1017 23:21:37.199519  8776 layer_factory.hpp:77] Creating layer relu3
I1017 23:21:37.199527  8776 net.cpp:100] Creating Layer relu3
I1017 23:21:37.199530  8776 net.cpp:434] relu3 <- drop3
I1017 23:21:37.199535  8776 net.cpp:408] relu3 -> relu3
I1017 23:21:37.199651  8776 net.cpp:150] Setting up relu3
I1017 23:21:37.199661  8776 net.cpp:157] Top shape: 64 260 3 3 (149760)
I1017 23:21:37.199664  8776 net.cpp:165] Memory required for data: 99014144
I1017 23:21:37.199667  8776 layer_factory.hpp:77] Creating layer conv6
I1017 23:21:37.199676  8776 net.cpp:100] Creating Layer conv6
I1017 23:21:37.199678  8776 net.cpp:434] conv6 <- relu3
I1017 23:21:37.199683  8776 net.cpp:408] conv6 -> conv6
I1017 23:21:37.200801  8776 net.cpp:150] Setting up conv6
I1017 23:21:37.200812  8776 net.cpp:157] Top shape: 64 260 3 3 (149760)
I1017 23:21:37.200815  8776 net.cpp:165] Memory required for data: 99613184
I1017 23:21:37.200821  8776 layer_factory.hpp:77] Creating layer conv7
I1017 23:21:37.200829  8776 net.cpp:100] Creating Layer conv7
I1017 23:21:37.200834  8776 net.cpp:434] conv7 <- conv6
I1017 23:21:37.200839  8776 net.cpp:408] conv7 -> conv7
I1017 23:21:37.202797  8776 net.cpp:150] Setting up conv7
I1017 23:21:37.202806  8776 net.cpp:157] Top shape: 64 280 2 2 (71680)
I1017 23:21:37.202808  8776 net.cpp:165] Memory required for data: 99899904
I1017 23:21:37.202823  8776 layer_factory.hpp:77] Creating layer pool4
I1017 23:21:37.202828  8776 net.cpp:100] Creating Layer pool4
I1017 23:21:37.202831  8776 net.cpp:434] pool4 <- conv7
I1017 23:21:37.202833  8776 net.cpp:408] pool4 -> pool4
I1017 23:21:37.202862  8776 net.cpp:150] Setting up pool4
I1017 23:21:37.202867  8776 net.cpp:157] Top shape: 64 280 1 1 (17920)
I1017 23:21:37.202868  8776 net.cpp:165] Memory required for data: 99971584
I1017 23:21:37.202870  8776 layer_factory.hpp:77] Creating layer drop4
I1017 23:21:37.202873  8776 net.cpp:100] Creating Layer drop4
I1017 23:21:37.202875  8776 net.cpp:434] drop4 <- pool4
I1017 23:21:37.202878  8776 net.cpp:408] drop4 -> drop4
I1017 23:21:37.202898  8776 net.cpp:150] Setting up drop4
I1017 23:21:37.202903  8776 net.cpp:157] Top shape: 64 280 1 1 (17920)
I1017 23:21:37.202904  8776 net.cpp:165] Memory required for data: 100043264
I1017 23:21:37.202906  8776 layer_factory.hpp:77] Creating layer relu4
I1017 23:21:37.202910  8776 net.cpp:100] Creating Layer relu4
I1017 23:21:37.202914  8776 net.cpp:434] relu4 <- drop4
I1017 23:21:37.202919  8776 net.cpp:408] relu4 -> relu4
I1017 23:21:37.203033  8776 net.cpp:150] Setting up relu4
I1017 23:21:37.203039  8776 net.cpp:157] Top shape: 64 280 1 1 (17920)
I1017 23:21:37.203042  8776 net.cpp:165] Memory required for data: 100114944
I1017 23:21:37.203042  8776 layer_factory.hpp:77] Creating layer conv8
I1017 23:21:37.203048  8776 net.cpp:100] Creating Layer conv8
I1017 23:21:37.203049  8776 net.cpp:434] conv8 <- relu4
I1017 23:21:37.203053  8776 net.cpp:408] conv8 -> conv8
I1017 23:21:37.203958  8776 net.cpp:150] Setting up conv8
I1017 23:21:37.203968  8776 net.cpp:157] Top shape: 64 280 1 1 (17920)
I1017 23:21:37.203969  8776 net.cpp:165] Memory required for data: 100186624
I1017 23:21:37.203975  8776 layer_factory.hpp:77] Creating layer pool5
I1017 23:21:37.203980  8776 net.cpp:100] Creating Layer pool5
I1017 23:21:37.203984  8776 net.cpp:434] pool5 <- conv8
I1017 23:21:37.203987  8776 net.cpp:408] pool5 -> pool5
I1017 23:21:37.204016  8776 net.cpp:150] Setting up pool5
I1017 23:21:37.204022  8776 net.cpp:157] Top shape: 64 280 1 1 (17920)
I1017 23:21:37.204025  8776 net.cpp:165] Memory required for data: 100258304
I1017 23:21:37.204026  8776 layer_factory.hpp:77] Creating layer drop5
I1017 23:21:37.204031  8776 net.cpp:100] Creating Layer drop5
I1017 23:21:37.204035  8776 net.cpp:434] drop5 <- pool5
I1017 23:21:37.204038  8776 net.cpp:408] drop5 -> drop5
I1017 23:21:37.204063  8776 net.cpp:150] Setting up drop5
I1017 23:21:37.204067  8776 net.cpp:157] Top shape: 64 280 1 1 (17920)
I1017 23:21:37.204071  8776 net.cpp:165] Memory required for data: 100329984
I1017 23:21:37.204072  8776 layer_factory.hpp:77] Creating layer relu5
I1017 23:21:37.204077  8776 net.cpp:100] Creating Layer relu5
I1017 23:21:37.204082  8776 net.cpp:434] relu5 <- drop5
I1017 23:21:37.204084  8776 net.cpp:408] relu5 -> relu5
I1017 23:21:37.204320  8776 net.cpp:150] Setting up relu5
I1017 23:21:37.204330  8776 net.cpp:157] Top shape: 64 280 1 1 (17920)
I1017 23:21:37.204334  8776 net.cpp:165] Memory required for data: 100401664
I1017 23:21:37.204336  8776 layer_factory.hpp:77] Creating layer conv10
I1017 23:21:37.204344  8776 net.cpp:100] Creating Layer conv10
I1017 23:21:37.204346  8776 net.cpp:434] conv10 <- relu5
I1017 23:21:37.204351  8776 net.cpp:408] conv10 -> conv10
I1017 23:21:37.205689  8776 net.cpp:150] Setting up conv10
I1017 23:21:37.205699  8776 net.cpp:157] Top shape: 64 300 1 1 (19200)
I1017 23:21:37.205701  8776 net.cpp:165] Memory required for data: 100478464
I1017 23:21:37.205708  8776 layer_factory.hpp:77] Creating layer pool6
I1017 23:21:37.205713  8776 net.cpp:100] Creating Layer pool6
I1017 23:21:37.205715  8776 net.cpp:434] pool6 <- conv10
I1017 23:21:37.205718  8776 net.cpp:408] pool6 -> pool6
I1017 23:21:37.205746  8776 net.cpp:150] Setting up pool6
I1017 23:21:37.205750  8776 net.cpp:157] Top shape: 64 300 1 1 (19200)
I1017 23:21:37.205752  8776 net.cpp:165] Memory required for data: 100555264
I1017 23:21:37.205765  8776 layer_factory.hpp:77] Creating layer drop6
I1017 23:21:37.205768  8776 net.cpp:100] Creating Layer drop6
I1017 23:21:37.205770  8776 net.cpp:434] drop6 <- pool6
I1017 23:21:37.205773  8776 net.cpp:408] drop6 -> drop6
I1017 23:21:37.205801  8776 net.cpp:150] Setting up drop6
I1017 23:21:37.205806  8776 net.cpp:157] Top shape: 64 300 1 1 (19200)
I1017 23:21:37.205806  8776 net.cpp:165] Memory required for data: 100632064
I1017 23:21:37.205808  8776 layer_factory.hpp:77] Creating layer relu6
I1017 23:21:37.205812  8776 net.cpp:100] Creating Layer relu6
I1017 23:21:37.205814  8776 net.cpp:434] relu6 <- drop6
I1017 23:21:37.205816  8776 net.cpp:408] relu6 -> relu6
I1017 23:21:37.205931  8776 net.cpp:150] Setting up relu6
I1017 23:21:37.205937  8776 net.cpp:157] Top shape: 64 300 1 1 (19200)
I1017 23:21:37.205940  8776 net.cpp:165] Memory required for data: 100708864
I1017 23:21:37.205941  8776 layer_factory.hpp:77] Creating layer conv11
I1017 23:21:37.205946  8776 net.cpp:100] Creating Layer conv11
I1017 23:21:37.205947  8776 net.cpp:434] conv11 <- relu6
I1017 23:21:37.205951  8776 net.cpp:408] conv11 -> conv11
I1017 23:21:37.206688  8776 net.cpp:150] Setting up conv11
I1017 23:21:37.206696  8776 net.cpp:157] Top shape: 64 100 1 1 (6400)
I1017 23:21:37.206698  8776 net.cpp:165] Memory required for data: 100734464
I1017 23:21:37.206702  8776 layer_factory.hpp:77] Creating layer pool7
I1017 23:21:37.206707  8776 net.cpp:100] Creating Layer pool7
I1017 23:21:37.206708  8776 net.cpp:434] pool7 <- conv11
I1017 23:21:37.206712  8776 net.cpp:408] pool7 -> pool7
I1017 23:21:37.206737  8776 net.cpp:150] Setting up pool7
I1017 23:21:37.206740  8776 net.cpp:157] Top shape: 64 100 1 1 (6400)
I1017 23:21:37.206743  8776 net.cpp:165] Memory required for data: 100760064
I1017 23:21:37.206744  8776 layer_factory.hpp:77] Creating layer drop7
I1017 23:21:37.206750  8776 net.cpp:100] Creating Layer drop7
I1017 23:21:37.206753  8776 net.cpp:434] drop7 <- pool7
I1017 23:21:37.206754  8776 net.cpp:408] drop7 -> drop7
I1017 23:21:37.206776  8776 net.cpp:150] Setting up drop7
I1017 23:21:37.206780  8776 net.cpp:157] Top shape: 64 100 1 1 (6400)
I1017 23:21:37.206781  8776 net.cpp:165] Memory required for data: 100785664
I1017 23:21:37.206784  8776 layer_factory.hpp:77] Creating layer relu7
I1017 23:21:37.206786  8776 net.cpp:100] Creating Layer relu7
I1017 23:21:37.206789  8776 net.cpp:434] relu7 <- drop7
I1017 23:21:37.206794  8776 net.cpp:408] relu7 -> relu7
I1017 23:21:37.206905  8776 net.cpp:150] Setting up relu7
I1017 23:21:37.206910  8776 net.cpp:157] Top shape: 64 100 1 1 (6400)
I1017 23:21:37.206912  8776 net.cpp:165] Memory required for data: 100811264
I1017 23:21:37.206914  8776 layer_factory.hpp:77] Creating layer pool
I1017 23:21:37.206918  8776 net.cpp:100] Creating Layer pool
I1017 23:21:37.206919  8776 net.cpp:434] pool <- relu7
I1017 23:21:37.206923  8776 net.cpp:408] pool -> pool
I1017 23:21:37.207123  8776 net.cpp:150] Setting up pool
I1017 23:21:37.207129  8776 net.cpp:157] Top shape: 64 100 1 1 (6400)
I1017 23:21:37.207131  8776 net.cpp:165] Memory required for data: 100836864
I1017 23:21:37.207134  8776 layer_factory.hpp:77] Creating layer flatten
I1017 23:21:37.207139  8776 net.cpp:100] Creating Layer flatten
I1017 23:21:37.207140  8776 net.cpp:434] flatten <- pool
I1017 23:21:37.207142  8776 net.cpp:408] flatten -> flatten
I1017 23:21:37.207159  8776 net.cpp:150] Setting up flatten
I1017 23:21:37.207162  8776 net.cpp:157] Top shape: 64 100 (6400)
I1017 23:21:37.207164  8776 net.cpp:165] Memory required for data: 100862464
I1017 23:21:37.207165  8776 layer_factory.hpp:77] Creating layer flatten_flatten_0_split
I1017 23:21:37.207168  8776 net.cpp:100] Creating Layer flatten_flatten_0_split
I1017 23:21:37.207171  8776 net.cpp:434] flatten_flatten_0_split <- flatten
I1017 23:21:37.207175  8776 net.cpp:408] flatten_flatten_0_split -> flatten_flatten_0_split_0
I1017 23:21:37.207180  8776 net.cpp:408] flatten_flatten_0_split -> flatten_flatten_0_split_1
I1017 23:21:37.207202  8776 net.cpp:150] Setting up flatten_flatten_0_split
I1017 23:21:37.207212  8776 net.cpp:157] Top shape: 64 100 (6400)
I1017 23:21:37.207214  8776 net.cpp:157] Top shape: 64 100 (6400)
I1017 23:21:37.207216  8776 net.cpp:165] Memory required for data: 100913664
I1017 23:21:37.207218  8776 layer_factory.hpp:77] Creating layer ip_c
I1017 23:21:37.207222  8776 net.cpp:100] Creating Layer ip_c
I1017 23:21:37.207224  8776 net.cpp:434] ip_c <- flatten_flatten_0_split_0
I1017 23:21:37.207227  8776 net.cpp:408] ip_c -> ip_c
I1017 23:21:37.207566  8776 net.cpp:150] Setting up ip_c
I1017 23:21:37.207572  8776 net.cpp:157] Top shape: 64 20 (1280)
I1017 23:21:37.207573  8776 net.cpp:165] Memory required for data: 100918784
I1017 23:21:37.207577  8776 layer_factory.hpp:77] Creating layer ip_c_ip_c_0_split
I1017 23:21:37.207583  8776 net.cpp:100] Creating Layer ip_c_ip_c_0_split
I1017 23:21:37.207587  8776 net.cpp:434] ip_c_ip_c_0_split <- ip_c
I1017 23:21:37.207589  8776 net.cpp:408] ip_c_ip_c_0_split -> ip_c_ip_c_0_split_0
I1017 23:21:37.207594  8776 net.cpp:408] ip_c_ip_c_0_split -> ip_c_ip_c_0_split_1
I1017 23:21:37.207617  8776 net.cpp:150] Setting up ip_c_ip_c_0_split
I1017 23:21:37.207622  8776 net.cpp:157] Top shape: 64 20 (1280)
I1017 23:21:37.207623  8776 net.cpp:157] Top shape: 64 20 (1280)
I1017 23:21:37.207624  8776 net.cpp:165] Memory required for data: 100929024
I1017 23:21:37.207626  8776 layer_factory.hpp:77] Creating layer accuracy_f
I1017 23:21:37.207630  8776 net.cpp:100] Creating Layer accuracy_f
I1017 23:21:37.207633  8776 net.cpp:434] accuracy_f <- ip_c_ip_c_0_split_0
I1017 23:21:37.207635  8776 net.cpp:434] accuracy_f <- label_coarse_data_1_split_0
I1017 23:21:37.207639  8776 net.cpp:408] accuracy_f -> accuracy_f
…
I1017 23:21:37.208487  8776 net.cpp:283] Network initialization done.
I1017 23:21:37.208689  8776 solver.cpp:181] Creating test net (#0) specified by test_net file: /home/adam/Honours/Honours-Project/cifar-100_pooling/max/leakyrelu/poolcnn_leakyrelu_test.prototxt
I1017 23:21:37.208814  8776 net.cpp:58] Initializing net from parameters: 
state {
  phase: TEST
}
layer {
  name: "data"
  type: "HDF5Data"
  top: "data"
  top: "label_coarse"
  top: "label_fine"
  hdf5_data_param {
    source: "../../../../data/cifar-100/cifar_100_caffe_hdf5/test.txt"
    batch_size: 100
  }
}
layer {
  name: "conv1"
  type: "Convolution"
  bottom: "data"
  top: "conv1"
  convolution_param {
    num_output: 192
    kernel_size: 5
    weight_filler {
      type: "xavier"
    }
  }
}
layer {
  name: "pool1"
  type: "Pooling"
  bottom: "conv1"
  top: "pool1"
  pooling_param {
    pool: MAX
    kernel_size: 2
    stride: 2
  }
}
layer {
  name: "drop1"
  type: "Dropout"
  bottom: "pool1"
  top: "drop1"
  dropout_param {
    dropout_ratio: 0
  }
}
layer {
  name: "relu1"
  type: "ReLU"
  bottom: "drop1"
  top: "relu1"
  relu_param {
    negative_slope: 0.01
  }
}
layer {
  name: "conv2"
  type: "Convolution"
  bottom: "relu1"
  top: "conv2"
  convolution_param {
    num_output: 192
    kernel_size: 1
    weight_filler {
      type: "xavier"
    }
  }
}
layer {
  name: "conv3"
  type: "Convolution"
  bottom: "conv2"
  top: "conv3"
  convolution_param {
    num_output: 240
    kernel_size: 3
    weight_filler {
      type: "xavier"
    }
  }
}
layer {
  name: "pool2"
  type: "Pooling"
  bottom: "conv3"
  top: "pool2"
  pooling_param {
    pool: MAX
    kernel_size: 2
    stride: 2
  }
}
layer {
  name: "drop2"
  type: "Dropout"
  bottom: "pool2"
  top: "drop2"
  dropout_param {
    dropout_ratio: 0.1
  }
}
layer {
  name: "relu2"
  type: "ReLU"
  bottom: "drop2"
  top: "relu2"
  relu_param {
    negative_slope: 0.01
  }
}
layer {
  name: "conv4"
  type: "Convolution"
  bottom: "relu2"
  top: "conv4"
  convolution_param {
    num_output: 240
    kernel_size: 1
    weight_filler {
      type: "xavier"
    }
  }
}
layer {
  name: "conv5"
  type: "Convolution"
  bottom: "conv4"
  top: "conv5"
  convolution_param {
    num_output: 260
    kernel_size: 2
    weight_filler {
      type: "xavier"
    }
  }
}
layer {
  name: "pool3"
  type: "Pooling"
  bottom: "conv5"
  top: "pool3"
  pooling_param {
    pool: MAX
    kernel_size: 2
    stride: 2
  }
}
layer {
  name: "drop3"
  type: "Dropout"
  bottom: "pool3"
  top: "drop3"
  dropout_param {
    dropout_ratio: 0.2
  }
}
layer {
  name: "relu3"
  type: "ReLU"
  bottom: "drop3"
  top: "relu3"
  relu_param {
    negative_slope: 0.01
  }
}
layer {
  name: "conv6"
  type: "Convolution"
  bottom: "relu3"
  top: "conv6"
  convolution_param {
    num_output: 260
    kernel_size: 1
    weight_filler {
      type: "xavier"
    }
  }
}
layer {
  name: "conv7"
  type: "Convolution"
  bottom: "conv6"
  top: "conv7"
  convolution_param {
    num_output: 280
    kernel_size: 2
    weight_filler {
      type: "xavier"
    }
  }
}
layer {
  name: "pool4"
  type: "Pooling"
  bottom: "conv7"
  top: "pool4"
  pooling_param {
    pool: MAX
    kernel_size: 2
    stride: 2
  }
}
layer {
  name: "drop4"
  type: "Dropout"
  bottom: "pool4"
  top: "drop4"
  dropout_param {
    dropout_ratio: 0.3
  }
}
layer {
  name: "relu4"
  type: "ReLU"
  bottom: "drop4"
  top: "relu4"
  relu_param {
    negative_slope: 0.01
  }
}
layer {
  name: "conv8"
  type: "Convolution"
  bottom: "relu4"
  top: "conv8"
  convolution_param {
    num_output: 280
    kernel_size: 1
    weight_filler {
      type: "xavier"
    }
  }
}
layer {
  name: "pool5"
  type: "Pooling"
  bottom: "conv8"
  top: "pool5"
  pooling_param {
    pool: MAX
    kernel_size: 2
    stride: 2
  }
}
layer {
  name: "drop5"
  type: "Dropout"
  bottom: "pool5"
  top: "drop5"
  dropout_param {
    dropout_ratio: 0.4
  }
}
layer {
  name: "relu5"
  type: "ReLU"
  bottom: "drop5"
  top: "relu5"
  relu_param {
    negative_slope: 0.01
  }
}
layer {
  name: "conv10"
  type: "Convolution"
  bottom: "relu5"
  top: "conv10"
  convolution_param {
    num_output: 300
    kernel_size: 1
    weight_filler {
      type: "xavier"
    }
  }
}
layer {
  name: "pool6"
  type: "Pooling"
  bottom: "conv10"
  top: "pool6"
  pooling_param {
    pool: MAX
    kernel_size: 2
    stride: 2
  }
}
layer {
  name: "drop6"
  type: "Dropout"
  bottom: "pool6"
  top: "drop6"
  dropout_param {
    dropout_ratio: 0.5
  }
}
layer {
  name: "relu6"
  type: "ReLU"
  bottom: "drop6"
  top: "relu6"
  relu_param {
    negative_slope: 0.01
  }
}
layer {
  name: "conv11"
  type: "Convolution"
  bottom: "relu6"
  top: "conv11"
  convolution_param {
    num_output: 100
    kernel_size: 1
    weight_filler {
      type: "xavier"
    }
  }
}
layer {
  name: "pool7"
  type: "Pooling"
  bottom: "conv11"
  top: "pool7"
  pooling_param {
    pool: MAX
    kernel_size: 2
    stride: 2
  }
}
layer {
  name: "drop7"
  type: "Dropout"
  bottom: "pool7"
  top: "drop7"
  dropout_param {
    dropout_ratio: 0
  }
}
layer {
  name: "relu7"
  type: "ReLU"
  bottom: "drop7"
  top: "relu7"
  relu_param {
    negative_slope: 0.01
  }
}
layer {
  name: "pool"
  type: "Pooling"
  bottom: "relu7"
  top: "pool"
  pooling_param {
    pool: AVE
    global_pooling: true
  }
}
layer {
  name: "flatten"
  type: "Flatten"
  bottom: "pool"
  top: "flatten"
}
layer {
  name: "ip_c"
  type: "InnerProduct"
  bottom: "flatten"
  top: "ip_c"
  inner_product_param {
    num_output: 20
    weight_filler {
      type: "xavier"
    }
  }
}
layer {
  name: "accuracy_f"
  type: "Accuracy"
  bottom: "ip_c"
  bottom: "label_coarse"
  top: "accuracy_f"
}
layer {
  name: "loss_c"
  type: "SoftmaxWithLoss"
  bottom: "ip_c"
  bottom: "label_coarse"
  top: "loss_c"
}
layer {
  name: "ip_f"
  type: "InnerProduct"
  bottom: "flatten"
  top: "ip_f"
  inner_product_param {
    num_output: 100
    weight_filler {
      type: "xavier"
    }
  }
}
layer {
  name: "accuracy"
  type: "Accuracy"
  bottom: "ip_f"
  bottom: "label_fine"
  top: "accuracy"
}
layer {
  name: "loss_f"
  type: "SoftmaxWithLoss"
  bottom: "ip_f"
  bottom: "label_fine"
  top: "loss_f"
}
I1017 23:21:37.208935  8776 layer_factory.hpp:77] Creating layer data
I1017 23:21:37.208940  8776 net.cpp:100] Creating Layer data
I1017 23:21:37.208943  8776 net.cpp:408] data -> data
I1017 23:21:37.208950  8776 net.cpp:408] data -> label_coarse
I1017 23:21:37.208953  8776 net.cpp:408] data -> label_fine
I1017 23:21:37.208959  8776 hdf5_data_layer.cpp:79] Loading list of HDF5 filenames from: ../../../../data/cifar-100/cifar_100_caffe_hdf5/test.txt
I1017 23:21:37.208974  8776 hdf5_data_layer.cpp:93] Number of HDF5 files: 1
I1017 23:21:37.464408  8776 net.cpp:150] Setting up data
I1017 23:21:37.464434  8776 net.cpp:157] Top shape: 100 3 32 32 (307200)
I1017 23:21:37.464437  8776 net.cpp:157] Top shape: 100 (100)
I1017 23:21:37.464439  8776 net.cpp:157] Top shape: 100 (100)
I1017 23:21:37.464440  8776 net.cpp:165] Memory required for data: 1229600
I1017 23:21:37.464445  8776 layer_factory.hpp:77] Creating layer label_coarse_data_1_split
I1017 23:21:37.464454  8776 net.cpp:100] Creating Layer label_coarse_data_1_split
I1017 23:21:37.464457  8776 net.cpp:434] label_coarse_data_1_split <- label_coarse
I1017 23:21:37.464460  8776 net.cpp:408] label_coarse_data_1_split -> label_coarse_data_1_split_0
I1017 23:21:37.464469  8776 net.cpp:408] label_coarse_data_1_split -> label_coarse_data_1_split_1
I1017 23:21:37.464500  8776 net.cpp:150] Setting up label_coarse_data_1_split
I1017 23:21:37.464504  8776 net.cpp:157] Top shape: 100 (100)
I1017 23:21:37.464522  8776 net.cpp:157] Top shape: 100 (100)
I1017 23:21:37.464525  8776 net.cpp:165] Memory required for data: 1230400
I1017 23:21:37.464529  8776 layer_factory.hpp:77] Creating layer label_fine_data_2_split
I1017 23:21:37.464534  8776 net.cpp:100] Creating Layer label_fine_data_2_split
I1017 23:21:37.464537  8776 net.cpp:434] label_fine_data_2_split <- label_fine
I1017 23:21:37.464542  8776 net.cpp:408] label_fine_data_2_split -> label_fine_data_2_split_0
I1017 23:21:37.464548  8776 net.cpp:408] label_fine_data_2_split -> label_fine_data_2_split_1
I1017 23:21:37.464573  8776 net.cpp:150] Setting up label_fine_data_2_split
I1017 23:21:37.464577  8776 net.cpp:157] Top shape: 100 (100)
I1017 23:21:37.464579  8776 net.cpp:157] Top shape: 100 (100)
I1017 23:21:37.464581  8776 net.cpp:165] Memory required for data: 1231200
I1017 23:21:37.464582  8776 layer_factory.hpp:77] Creating layer conv1
I1017 23:21:37.464589  8776 net.cpp:100] Creating Layer conv1
I1017 23:21:37.464591  8776 net.cpp:434] conv1 <- data
I1017 23:21:37.464594  8776 net.cpp:408] conv1 -> conv1
I1017 23:21:37.465433  8776 net.cpp:150] Setting up conv1
I1017 23:21:37.465442  8776 net.cpp:157] Top shape: 100 192 28 28 (15052800)
I1017 23:21:37.465445  8776 net.cpp:165] Memory required for data: 61442400
I1017 23:21:37.465451  8776 layer_factory.hpp:77] Creating layer pool1
I1017 23:21:37.465457  8776 net.cpp:100] Creating Layer pool1
I1017 23:21:37.465459  8776 net.cpp:434] pool1 <- conv1
I1017 23:21:37.465463  8776 net.cpp:408] pool1 -> pool1
I1017 23:21:37.465489  8776 net.cpp:150] Setting up pool1
I1017 23:21:37.465494  8776 net.cpp:157] Top shape: 100 192 14 14 (3763200)
I1017 23:21:37.465495  8776 net.cpp:165] Memory required for data: 76495200
I1017 23:21:37.465497  8776 layer_factory.hpp:77] Creating layer drop1
I1017 23:21:37.465502  8776 net.cpp:100] Creating Layer drop1
I1017 23:21:37.465503  8776 net.cpp:434] drop1 <- pool1
I1017 23:21:37.465505  8776 net.cpp:408] drop1 -> drop1
I1017 23:21:37.465528  8776 net.cpp:150] Setting up drop1
I1017 23:21:37.465531  8776 net.cpp:157] Top shape: 100 192 14 14 (3763200)
I1017 23:21:37.465533  8776 net.cpp:165] Memory required for data: 91548000
I1017 23:21:37.465534  8776 layer_factory.hpp:77] Creating layer relu1
I1017 23:21:37.465538  8776 net.cpp:100] Creating Layer relu1
I1017 23:21:37.465540  8776 net.cpp:434] relu1 <- drop1
I1017 23:21:37.465543  8776 net.cpp:408] relu1 -> relu1
I1017 23:21:37.465664  8776 net.cpp:150] Setting up relu1
I1017 23:21:37.465679  8776 net.cpp:157] Top shape: 100 192 14 14 (3763200)
I1017 23:21:37.465682  8776 net.cpp:165] Memory required for data: 106600800
I1017 23:21:37.465683  8776 layer_factory.hpp:77] Creating layer conv2
I1017 23:21:37.465687  8776 net.cpp:100] Creating Layer conv2
I1017 23:21:37.465690  8776 net.cpp:434] conv2 <- relu1
I1017 23:21:37.465693  8776 net.cpp:408] conv2 -> conv2
I1017 23:21:37.466467  8776 net.cpp:150] Setting up conv2
I1017 23:21:37.466475  8776 net.cpp:157] Top shape: 100 192 14 14 (3763200)
I1017 23:21:37.466477  8776 net.cpp:165] Memory required for data: 121653600
I1017 23:21:37.466482  8776 layer_factory.hpp:77] Creating layer conv3
I1017 23:21:37.466488  8776 net.cpp:100] Creating Layer conv3
I1017 23:21:37.466490  8776 net.cpp:434] conv3 <- conv2
I1017 23:21:37.466495  8776 net.cpp:408] conv3 -> conv3
I1017 23:21:37.469038  8776 net.cpp:150] Setting up conv3
I1017 23:21:37.469048  8776 net.cpp:157] Top shape: 100 240 12 12 (3456000)
I1017 23:21:37.469050  8776 net.cpp:165] Memory required for data: 135477600
I1017 23:21:37.469058  8776 layer_factory.hpp:77] Creating layer pool2
I1017 23:21:37.469063  8776 net.cpp:100] Creating Layer pool2
I1017 23:21:37.469064  8776 net.cpp:434] pool2 <- conv3
I1017 23:21:37.469069  8776 net.cpp:408] pool2 -> pool2
I1017 23:21:37.469095  8776 net.cpp:150] Setting up pool2
I1017 23:21:37.469100  8776 net.cpp:157] Top shape: 100 240 6 6 (864000)
I1017 23:21:37.469101  8776 net.cpp:165] Memory required for data: 138933600
I1017 23:21:37.469104  8776 layer_factory.hpp:77] Creating layer drop2
I1017 23:21:37.469120  8776 net.cpp:100] Creating Layer drop2
I1017 23:21:37.469121  8776 net.cpp:434] drop2 <- pool2
I1017 23:21:37.469125  8776 net.cpp:408] drop2 -> drop2
I1017 23:21:37.469146  8776 net.cpp:150] Setting up drop2
I1017 23:21:37.469151  8776 net.cpp:157] Top shape: 100 240 6 6 (864000)
I1017 23:21:37.469152  8776 net.cpp:165] Memory required for data: 142389600
I1017 23:21:37.469153  8776 layer_factory.hpp:77] Creating layer relu2
I1017 23:21:37.469157  8776 net.cpp:100] Creating Layer relu2
I1017 23:21:37.469161  8776 net.cpp:434] relu2 <- drop2
I1017 23:21:37.469163  8776 net.cpp:408] relu2 -> relu2
I1017 23:21:37.469357  8776 net.cpp:150] Setting up relu2
I1017 23:21:37.469364  8776 net.cpp:157] Top shape: 100 240 6 6 (864000)
I1017 23:21:37.469367  8776 net.cpp:165] Memory required for data: 145845600
I1017 23:21:37.469368  8776 layer_factory.hpp:77] Creating layer conv4
I1017 23:21:37.469373  8776 net.cpp:100] Creating Layer conv4
I1017 23:21:37.469374  8776 net.cpp:434] conv4 <- relu2
I1017 23:21:37.469378  8776 net.cpp:408] conv4 -> conv4
I1017 23:21:37.470407  8776 net.cpp:150] Setting up conv4
I1017 23:21:37.470414  8776 net.cpp:157] Top shape: 100 240 6 6 (864000)
I1017 23:21:37.470417  8776 net.cpp:165] Memory required for data: 149301600
I1017 23:21:37.470422  8776 layer_factory.hpp:77] Creating layer conv5
I1017 23:21:37.470427  8776 net.cpp:100] Creating Layer conv5
I1017 23:21:37.470428  8776 net.cpp:434] conv5 <- conv4
I1017 23:21:37.470432  8776 net.cpp:408] conv5 -> conv5
I1017 23:21:37.472192  8776 net.cpp:150] Setting up conv5
I1017 23:21:37.472199  8776 net.cpp:157] Top shape: 100 260 5 5 (650000)
I1017 23:21:37.472201  8776 net.cpp:165] Memory required for data: 151901600
I1017 23:21:37.472208  8776 layer_factory.hpp:77] Creating layer pool3
I1017 23:21:37.472211  8776 net.cpp:100] Creating Layer pool3
I1017 23:21:37.472213  8776 net.cpp:434] pool3 <- conv5
I1017 23:21:37.472216  8776 net.cpp:408] pool3 -> pool3
I1017 23:21:37.472244  8776 net.cpp:150] Setting up pool3
I1017 23:21:37.472247  8776 net.cpp:157] Top shape: 100 260 3 3 (234000)
I1017 23:21:37.472249  8776 net.cpp:165] Memory required for data: 152837600
I1017 23:21:37.472250  8776 layer_factory.hpp:77] Creating layer drop3
I1017 23:21:37.472254  8776 net.cpp:100] Creating Layer drop3
I1017 23:21:37.472255  8776 net.cpp:434] drop3 <- pool3
I1017 23:21:37.472259  8776 net.cpp:408] drop3 -> drop3
I1017 23:21:37.472280  8776 net.cpp:150] Setting up drop3
I1017 23:21:37.472283  8776 net.cpp:157] Top shape: 100 260 3 3 (234000)
I1017 23:21:37.472285  8776 net.cpp:165] Memory required for data: 153773600
I1017 23:21:37.472287  8776 layer_factory.hpp:77] Creating layer relu3
I1017 23:21:37.472291  8776 net.cpp:100] Creating Layer relu3
I1017 23:21:37.472293  8776 net.cpp:434] relu3 <- drop3
I1017 23:21:37.472296  8776 net.cpp:408] relu3 -> relu3
I1017 23:21:37.472496  8776 net.cpp:150] Setting up relu3
I1017 23:21:37.472502  8776 net.cpp:157] Top shape: 100 260 3 3 (234000)
I1017 23:21:37.472504  8776 net.cpp:165] Memory required for data: 154709600
I1017 23:21:37.472506  8776 layer_factory.hpp:77] Creating layer conv6
I1017 23:21:37.472512  8776 net.cpp:100] Creating Layer conv6
I1017 23:21:37.472513  8776 net.cpp:434] conv6 <- relu3
I1017 23:21:37.472517  8776 net.cpp:408] conv6 -> conv6
I1017 23:21:37.473565  8776 net.cpp:150] Setting up conv6
I1017 23:21:37.473573  8776 net.cpp:157] Top shape: 100 260 3 3 (234000)
I1017 23:21:37.473575  8776 net.cpp:165] Memory required for data: 155645600
I1017 23:21:37.473578  8776 layer_factory.hpp:77] Creating layer conv7
I1017 23:21:37.473584  8776 net.cpp:100] Creating Layer conv7
I1017 23:21:37.473587  8776 net.cpp:434] conv7 <- conv6
I1017 23:21:37.473589  8776 net.cpp:408] conv7 -> conv7
I1017 23:21:37.475612  8776 net.cpp:150] Setting up conv7
I1017 23:21:37.475621  8776 net.cpp:157] Top shape: 100 280 2 2 (112000)
I1017 23:21:37.475625  8776 net.cpp:165] Memory required for data: 156093600
I1017 23:21:37.475627  8776 layer_factory.hpp:77] Creating layer pool4
I1017 23:21:37.475641  8776 net.cpp:100] Creating Layer pool4
I1017 23:21:37.475644  8776 net.cpp:434] pool4 <- conv7
I1017 23:21:37.475648  8776 net.cpp:408] pool4 -> pool4
I1017 23:21:37.475677  8776 net.cpp:150] Setting up pool4
I1017 23:21:37.475680  8776 net.cpp:157] Top shape: 100 280 1 1 (28000)
I1017 23:21:37.475682  8776 net.cpp:165] Memory required for data: 156205600
I1017 23:21:37.475683  8776 layer_factory.hpp:77] Creating layer drop4
I1017 23:21:37.475687  8776 net.cpp:100] Creating Layer drop4
I1017 23:21:37.475689  8776 net.cpp:434] drop4 <- pool4
I1017 23:21:37.475692  8776 net.cpp:408] drop4 -> drop4
I1017 23:21:37.475715  8776 net.cpp:150] Setting up drop4
I1017 23:21:37.475719  8776 net.cpp:157] Top shape: 100 280 1 1 (28000)
I1017 23:21:37.475720  8776 net.cpp:165] Memory required for data: 156317600
I1017 23:21:37.475723  8776 layer_factory.hpp:77] Creating layer relu4
I1017 23:21:37.475726  8776 net.cpp:100] Creating Layer relu4
I1017 23:21:37.475728  8776 net.cpp:434] relu4 <- drop4
I1017 23:21:37.475730  8776 net.cpp:408] relu4 -> relu4
I1017 23:21:37.475931  8776 net.cpp:150] Setting up relu4
I1017 23:21:37.475939  8776 net.cpp:157] Top shape: 100 280 1 1 (28000)
I1017 23:21:37.475940  8776 net.cpp:165] Memory required for data: 156429600
I1017 23:21:37.475942  8776 layer_factory.hpp:77] Creating layer conv8
I1017 23:21:37.475946  8776 net.cpp:100] Creating Layer conv8
I1017 23:21:37.475950  8776 net.cpp:434] conv8 <- relu4
I1017 23:21:37.475953  8776 net.cpp:408] conv8 -> conv8
I1017 23:21:37.477190  8776 net.cpp:150] Setting up conv8
I1017 23:21:37.477200  8776 net.cpp:157] Top shape: 100 280 1 1 (28000)
I1017 23:21:37.477205  8776 net.cpp:165] Memory required for data: 156541600
I1017 23:21:37.477210  8776 layer_factory.hpp:77] Creating layer pool5
I1017 23:21:37.477216  8776 net.cpp:100] Creating Layer pool5
I1017 23:21:37.477218  8776 net.cpp:434] pool5 <- conv8
I1017 23:21:37.477223  8776 net.cpp:408] pool5 -> pool5
I1017 23:21:37.477259  8776 net.cpp:150] Setting up pool5
I1017 23:21:37.477267  8776 net.cpp:157] Top shape: 100 280 1 1 (28000)
I1017 23:21:37.477269  8776 net.cpp:165] Memory required for data: 156653600
I1017 23:21:37.477272  8776 layer_factory.hpp:77] Creating layer drop5
I1017 23:21:37.477277  8776 net.cpp:100] Creating Layer drop5
I1017 23:21:37.477279  8776 net.cpp:434] drop5 <- pool5
I1017 23:21:37.477283  8776 net.cpp:408] drop5 -> drop5
I1017 23:21:37.477315  8776 net.cpp:150] Setting up drop5
I1017 23:21:37.477322  8776 net.cpp:157] Top shape: 100 280 1 1 (28000)
I1017 23:21:37.477326  8776 net.cpp:165] Memory required for data: 156765600
I1017 23:21:37.477329  8776 layer_factory.hpp:77] Creating layer relu5
I1017 23:21:37.477334  8776 net.cpp:100] Creating Layer relu5
I1017 23:21:37.477339  8776 net.cpp:434] relu5 <- drop5
I1017 23:21:37.477344  8776 net.cpp:408] relu5 -> relu5
I1017 23:21:37.477512  8776 net.cpp:150] Setting up relu5
I1017 23:21:37.477522  8776 net.cpp:157] Top shape: 100 280 1 1 (28000)
I1017 23:21:37.477526  8776 net.cpp:165] Memory required for data: 156877600
I1017 23:21:37.477530  8776 layer_factory.hpp:77] Creating layer conv10
I1017 23:21:37.477537  8776 net.cpp:100] Creating Layer conv10
I1017 23:21:37.477541  8776 net.cpp:434] conv10 <- relu5
I1017 23:21:37.477546  8776 net.cpp:408] conv10 -> conv10
I1017 23:21:37.478562  8776 net.cpp:150] Setting up conv10
I1017 23:21:37.478570  8776 net.cpp:157] Top shape: 100 300 1 1 (30000)
I1017 23:21:37.478574  8776 net.cpp:165] Memory required for data: 156997600
I1017 23:21:37.478581  8776 layer_factory.hpp:77] Creating layer pool6
I1017 23:21:37.478585  8776 net.cpp:100] Creating Layer pool6
I1017 23:21:37.478588  8776 net.cpp:434] pool6 <- conv10
I1017 23:21:37.478591  8776 net.cpp:408] pool6 -> pool6
I1017 23:21:37.478617  8776 net.cpp:150] Setting up pool6
I1017 23:21:37.478621  8776 net.cpp:157] Top shape: 100 300 1 1 (30000)
I1017 23:21:37.478622  8776 net.cpp:165] Memory required for data: 157117600
I1017 23:21:37.478624  8776 layer_factory.hpp:77] Creating layer drop6
I1017 23:21:37.478639  8776 net.cpp:100] Creating Layer drop6
I1017 23:21:37.478641  8776 net.cpp:434] drop6 <- pool6
I1017 23:21:37.478644  8776 net.cpp:408] drop6 -> drop6
I1017 23:21:37.478670  8776 net.cpp:150] Setting up drop6
I1017 23:21:37.478674  8776 net.cpp:157] Top shape: 100 300 1 1 (30000)
I1017 23:21:37.478677  8776 net.cpp:165] Memory required for data: 157237600
I1017 23:21:37.478678  8776 layer_factory.hpp:77] Creating layer relu6
I1017 23:21:37.478682  8776 net.cpp:100] Creating Layer relu6
I1017 23:21:37.478683  8776 net.cpp:434] relu6 <- drop6
I1017 23:21:37.478685  8776 net.cpp:408] relu6 -> relu6
I1017 23:21:37.478801  8776 net.cpp:150] Setting up relu6
I1017 23:21:37.478806  8776 net.cpp:157] Top shape: 100 300 1 1 (30000)
I1017 23:21:37.478808  8776 net.cpp:165] Memory required for data: 157357600
I1017 23:21:37.478811  8776 layer_factory.hpp:77] Creating layer conv11
I1017 23:21:37.478816  8776 net.cpp:100] Creating Layer conv11
I1017 23:21:37.478817  8776 net.cpp:434] conv11 <- relu6
I1017 23:21:37.478821  8776 net.cpp:408] conv11 -> conv11
I1017 23:21:37.479562  8776 net.cpp:150] Setting up conv11
I1017 23:21:37.479570  8776 net.cpp:157] Top shape: 100 100 1 1 (10000)
I1017 23:21:37.479574  8776 net.cpp:165] Memory required for data: 157397600
I1017 23:21:37.479580  8776 layer_factory.hpp:77] Creating layer pool7
I1017 23:21:37.479585  8776 net.cpp:100] Creating Layer pool7
I1017 23:21:37.479589  8776 net.cpp:434] pool7 <- conv11
I1017 23:21:37.479594  8776 net.cpp:408] pool7 -> pool7
I1017 23:21:37.479624  8776 net.cpp:150] Setting up pool7
I1017 23:21:37.479629  8776 net.cpp:157] Top shape: 100 100 1 1 (10000)
I1017 23:21:37.479631  8776 net.cpp:165] Memory required for data: 157437600
I1017 23:21:37.479635  8776 layer_factory.hpp:77] Creating layer drop7
I1017 23:21:37.479643  8776 net.cpp:100] Creating Layer drop7
I1017 23:21:37.479646  8776 net.cpp:434] drop7 <- pool7
I1017 23:21:37.479650  8776 net.cpp:408] drop7 -> drop7
I1017 23:21:37.479674  8776 net.cpp:150] Setting up drop7
I1017 23:21:37.479679  8776 net.cpp:157] Top shape: 100 100 1 1 (10000)
I1017 23:21:37.479683  8776 net.cpp:165] Memory required for data: 157477600
I1017 23:21:37.479686  8776 layer_factory.hpp:77] Creating layer relu7
I1017 23:21:37.479689  8776 net.cpp:100] Creating Layer relu7
I1017 23:21:37.479693  8776 net.cpp:434] relu7 <- drop7
I1017 23:21:37.479697  8776 net.cpp:408] relu7 -> relu7
I1017 23:21:37.479893  8776 net.cpp:150] Setting up relu7
I1017 23:21:37.479900  8776 net.cpp:157] Top shape: 100 100 1 1 (10000)
I1017 23:21:37.479904  8776 net.cpp:165] Memory required for data: 157517600
I1017 23:21:37.479907  8776 layer_factory.hpp:77] Creating layer pool
I1017 23:21:37.479912  8776 net.cpp:100] Creating Layer pool
I1017 23:21:37.479915  8776 net.cpp:434] pool <- relu7
I1017 23:21:37.479920  8776 net.cpp:408] pool -> pool
I1017 23:21:37.480036  8776 net.cpp:150] Setting up pool
I1017 23:21:37.480041  8776 net.cpp:157] Top shape: 100 100 1 1 (10000)
I1017 23:21:37.480044  8776 net.cpp:165] Memory required for data: 157557600
I1017 23:21:37.480047  8776 layer_factory.hpp:77] Creating layer flatten
I1017 23:21:37.480052  8776 net.cpp:100] Creating Layer flatten
I1017 23:21:37.480056  8776 net.cpp:434] flatten <- pool
I1017 23:21:37.480059  8776 net.cpp:408] flatten -> flatten
I1017 23:21:37.480077  8776 net.cpp:150] Setting up flatten
I1017 23:21:37.480082  8776 net.cpp:157] Top shape: 100 100 (10000)
I1017 23:21:37.480083  8776 net.cpp:165] Memory required for data: 157597600
I1017 23:21:37.480085  8776 layer_factory.hpp:77] Creating layer flatten_flatten_0_split
I1017 23:21:37.480090  8776 net.cpp:100] Creating Layer flatten_flatten_0_split
I1017 23:21:37.480093  8776 net.cpp:434] flatten_flatten_0_split <- flatten
I1017 23:21:37.480096  8776 net.cpp:408] flatten_flatten_0_split -> flatten_flatten_0_split_0
I1017 23:21:37.480099  8776 net.cpp:408] flatten_flatten_0_split -> flatten_flatten_0_split_1
I1017 23:21:37.480125  8776 net.cpp:150] Setting up flatten_flatten_0_split
I1017 23:21:37.480129  8776 net.cpp:157] Top shape: 100 100 (10000)
I1017 23:21:37.480139  8776 net.cpp:157] Top shape: 100 100 (10000)
I1017 23:21:37.480141  8776 net.cpp:165] Memory required for data: 157677600
I1017 23:21:37.480144  8776 layer_factory.hpp:77] Creating layer ip_c
I1017 23:21:37.480147  8776 net.cpp:100] Creating Layer ip_c
I1017 23:21:37.480150  8776 net.cpp:434] ip_c <- flatten_flatten_0_split_0
I1017 23:21:37.480154  8776 net.cpp:408] ip_c -> ip_c
I1017 23:21:37.480233  8776 net.cpp:150] Setting up ip_c
I1017 23:21:37.480237  8776 net.cpp:157] Top shape: 100 20 (2000)
I1017 23:21:37.480239  8776 net.cpp:165] Memory required for data: 157685600
I1017 23:21:37.480242  8776 layer_factory.hpp:77] Creating layer ip_c_ip_c_0_split
I1017 23:21:37.480247  8776 net.cpp:100] Creating Layer ip_c_ip_c_0_split
I1017 23:21:37.480248  8776 net.cpp:434] ip_c_ip_c_0_split <- ip_c
I1017 23:21:37.480250  8776 net.cpp:408] ip_c_ip_c_0_split -> ip_c_ip_c_0_split_0
I1017 23:21:37.480254  8776 net.cpp:408] ip_c_ip_c_0_split -> ip_c_ip_c_0_split_1
I1017 23:21:37.480279  8776 net.cpp:150] Setting up ip_c_ip_c_0_split
I1017 23:21:37.480283  8776 net.cpp:157] Top shape: 100 20 (2000)
I1017 23:21:37.480285  8776 net.cpp:157] Top shape: 100 20 (2000)
I1017 23:21:37.480286  8776 net.cpp:165] Memory required for data: 157701600
I1017 23:21:37.480288  8776 layer_factory.hpp:77] Creating layer accuracy_f
I1017 23:21:37.480291  8776 net.cpp:100] Creating Layer accuracy_f
I1017 23:21:37.480293  8776 net.cpp:434] accuracy_f <- ip_c_ip_c_0_split_0
I1017 23:21:37.480296  8776 net.cpp:434] accuracy_f <- label_coarse_data_1_split_0
I1017 23:21:37.480299  8776 net.cpp:408] accuracy_f -> accuracy_f
…
