…
  stage: ""
}
type: "Nesterov"
I1020 09:51:47.600922 12689 solver.cpp:81] Creating training net from train_net file: /home/adam/Honours/Honours-Project/cifar-100_pooling/max/leakyrelu/poolcnn_leakyrelu_train.prototxt
I1020 09:51:47.601228 12689 net.cpp:58] Initializing net from parameters: 
state {
  phase: TRAIN
  level: 0
  stage: ""
}
layer {
  name: "data"
  type: "HDF5Data"
  top: "data"
  top: "label_coarse"
  top: "label_fine"
  hdf5_data_param {
    source: "../../../../data/cifar-100/cifar_100_caffe_hdf5/train.txt"
    batch_size: 64
  }
}
layer {
  name: "conv1"
  type: "Convolution"
  bottom: "data"
  top: "conv1"
  convolution_param {
    num_output: 192
    kernel_size: 5
    weight_filler {
      type: "xavier"
    }
  }
}
layer {
  name: "relu1"
  type: "ReLU"
  bottom: "conv1"
  top: "relu1"
  relu_param {
    negative_slope: 0.1
  }
}
layer {
  name: "drop1"
  type: "Dropout"
  bottom: "relu1"
  top: "drop1"
  dropout_param {
    dropout_ratio: 0
  }
}
layer {
  name: "pool1"
  type: "Pooling"
  bottom: "drop1"
  top: "pool1"
  pooling_param {
    pool: MAX
    kernel_size: 2
    stride: 2
  }
}
layer {
  name: "conv2"
  type: "Convolution"
  bottom: "pool1"
  top: "conv2"
  convolution_param {
    num_output: 192
    kernel_size: 1
    weight_filler {
      type: "xavier"
    }
  }
}
layer {
  name: "relu2"
  type: "ReLU"
  bottom: "conv2"
  top: "relu2"
  relu_param {
    negative_slope: 0.1
  }
}
layer {
  name: "conv3"
  type: "Convolution"
  bottom: "relu2"
  top: "conv3"
  convolution_param {
    num_output: 240
    kernel_size: 3
    weight_filler {
      type: "xavier"
    }
  }
}
layer {
  name: "relu3"
  type: "ReLU"
  bottom: "conv3"
  top: "relu3"
  relu_param {
    negative_slope: 0.1
  }
}
layer {
  name: "drop2"
  type: "Dropout"
  bottom: "relu3"
  top: "drop2"
  dropout_param {
    dropout_ratio: 0.1
  }
}
layer {
  name: "pool2"
  type: "Pooling"
  bottom: "drop2"
  top: "pool2"
  pooling_param {
    pool: MAX
    kernel_size: 2
    stride: 2
  }
}
layer {
  name: "conv4"
  type: "Convolution"
  bottom: "pool2"
  top: "conv4"
  convolution_param {
    num_output: 240
    kernel_size: 1
    weight_filler {
      type: "xavier"
    }
  }
}
layer {
  name: "relu4"
  type: "ReLU"
  bottom: "conv4"
  top: "relu4"
  relu_param {
    negative_slope: 0.1
  }
}
layer {
  name: "conv5"
  type: "Convolution"
  bottom: "relu4"
  top: "conv5"
  convolution_param {
    num_output: 260
    kernel_size: 2
    weight_filler {
      type: "xavier"
    }
  }
}
layer {
  name: "relu5"
  type: "ReLU"
  bottom: "conv5"
  top: "relu5"
  relu_param {
    negative_slope: 0.1
  }
}
layer {
  name: "drop3"
  type: "Dropout"
  bottom: "relu5"
  top: "drop3"
  dropout_param {
    dropout_ratio: 0.2
  }
}
layer {
  name: "pool3"
  type: "Pooling"
  bottom: "drop3"
  top: "pool3"
  pooling_param {
    pool: MAX
    kernel_size: 2
    stride: 2
  }
}
layer {
  name: "conv6"
  type: "Convolution"
  bottom: "pool3"
  top: "conv6"
  convolution_param {
    num_output: 260
    kernel_size: 1
    weight_filler {
      type: "xavier"
    }
  }
}
layer {
  name: "relu6"
  type: "ReLU"
  bottom: "conv6"
  top: "relu6"
  relu_param {
    negative_slope: 0.1
  }
}
layer {
  name: "conv7"
  type: "Convolution"
  bottom: "relu6"
  top: "conv7"
  convolution_param {
    num_output: 280
    kernel_size: 2
    weight_filler {
      type: "xavier"
    }
  }
}
layer {
  name: "relu7"
  type: "ReLU"
  bottom: "conv7"
  top: "relu7"
  relu_param {
    negative_slope: 0.1
  }
}
layer {
  name: "drop4"
  type: "Dropout"
  bottom: "relu7"
  top: "drop4"
  dropout_param {
    dropout_ratio: 0.3
  }
}
layer {
  name: "pool4"
  type: "Pooling"
  bottom: "drop4"
  top: "pool4"
  pooling_param {
    pool: MAX
    kernel_size: 2
    stride: 2
  }
}
layer {
  name: "conv8"
  type: "Convolution"
  bottom: "pool4"
  top: "conv8"
  convolution_param {
    num_output: 280
    kernel_size: 1
    weight_filler {
      type: "xavier"
    }
  }
}
layer {
  name: "relu8"
  type: "ReLU"
  bottom: "conv8"
  top: "relu8"
  relu_param {
    negative_slope: 0.1
  }
}
layer {
  name: "drop5"
  type: "Dropout"
  bottom: "relu8"
  top: "drop5"
  dropout_param {
    dropout_ratio: 0.4
  }
}
layer {
  name: "pool5"
  type: "Pooling"
  bottom: "drop5"
  top: "pool5"
  pooling_param {
    pool: MAX
    kernel_size: 2
    stride: 2
  }
}
layer {
  name: "conv10"
  type: "Convolution"
  bottom: "pool5"
  top: "conv10"
  convolution_param {
    num_output: 300
    kernel_size: 1
    weight_filler {
      type: "xavier"
    }
  }
}
layer {
  name: "relu10"
  type: "ReLU"
  bottom: "conv10"
  top: "relu10"
  relu_param {
    negative_slope: 0.1
  }
}
layer {
  name: "drop6"
  type: "Dropout"
  bottom: "relu10"
  top: "drop6"
  dropout_param {
    dropout_ratio: 0.5
  }
}
layer {
  name: "pool6"
  type: "Pooling"
  bottom: "drop6"
  top: "pool6"
  pooling_param {
    pool: MAX
    kernel_size: 2
    stride: 2
  }
}
layer {
  name: "conv11"
  type: "Convolution"
  bottom: "pool6"
  top: "conv11"
  convolution_param {
    num_output: 100
    kernel_size: 1
    weight_filler {
      type: "xavier"
    }
  }
}
layer {
  name: "relu11"
  type: "ReLU"
  bottom: "conv11"
  top: "relu11"
  relu_param {
    negative_slope: 0.1
  }
}
layer {
  name: "drop7"
  type: "Dropout"
  bottom: "relu11"
  top: "drop7"
  dropout_param {
    dropout_ratio: 0
  }
}
layer {
  name: "pool7"
  type: "Pooling"
  bottom: "drop7"
  top: "pool7"
  pooling_param {
    pool: MAX
    kernel_size: 2
    stride: 2
  }
}
layer {
  name: "ip_c"
  type: "InnerProduct"
  bottom: "pool7"
  top: "ip_c"
  inner_product_param {
    num_output: 20
    weight_filler {
      type: "xavier"
    }
  }
}
layer {
  name: "accuracy_f"
  type: "Accuracy"
  bottom: "ip_c"
  bottom: "label_coarse"
  top: "accuracy_f"
}
layer {
  name: "loss_c"
  type: "SoftmaxWithLoss"
  bottom: "ip_c"
  bottom: "label_coarse"
  top: "loss_c"
}
layer {
  name: "ip_f"
  type: "InnerProduct"
  bottom: "pool7"
  top: "ip_f"
  inner_product_param {
    num_output: 100
    weight_filler {
      type: "xavier"
    }
  }
}
layer {
  name: "accuracy"
  type: "Accuracy"
  bottom: "ip_f"
  bottom: "label_fine"
  top: "accuracy"
}
layer {
  name: "loss_f"
  type: "SoftmaxWithLoss"
  bottom: "ip_f"
  bottom: "label_fine"
  top: "loss_f"
}
I1020 09:51:47.601372 12689 layer_factory.hpp:77] Creating layer data
I1020 09:51:47.601384 12689 net.cpp:100] Creating Layer data
I1020 09:51:47.601390 12689 net.cpp:408] data -> data
I1020 09:51:47.601405 12689 net.cpp:408] data -> label_coarse
I1020 09:51:47.601413 12689 net.cpp:408] data -> label_fine
I1020 09:51:47.601421 12689 hdf5_data_layer.cpp:79] Loading list of HDF5 filenames from: ../../../../data/cifar-100/cifar_100_caffe_hdf5/train.txt
I1020 09:51:47.601440 12689 hdf5_data_layer.cpp:93] Number of HDF5 files: 1
I1020 09:51:47.602056 12689 hdf5.cpp:35] Datatype class: H5T_INTEGER
I1020 09:51:49.179437 12689 net.cpp:150] Setting up data
I1020 09:51:49.179463 12689 net.cpp:157] Top shape: 64 3 32 32 (196608)
I1020 09:51:49.179466 12689 net.cpp:157] Top shape: 64 (64)
I1020 09:51:49.179468 12689 net.cpp:157] Top shape: 64 (64)
I1020 09:51:49.179471 12689 net.cpp:165] Memory required for data: 786944
I1020 09:51:49.179476 12689 layer_factory.hpp:77] Creating layer label_coarse_data_1_split
I1020 09:51:49.179486 12689 net.cpp:100] Creating Layer label_coarse_data_1_split
I1020 09:51:49.179489 12689 net.cpp:434] label_coarse_data_1_split <- label_coarse
I1020 09:51:49.179500 12689 net.cpp:408] label_coarse_data_1_split -> label_coarse_data_1_split_0
I1020 09:51:49.179532 12689 net.cpp:408] label_coarse_data_1_split -> label_coarse_data_1_split_1
I1020 09:51:49.179554 12689 net.cpp:150] Setting up label_coarse_data_1_split
I1020 09:51:49.179558 12689 net.cpp:157] Top shape: 64 (64)
I1020 09:51:49.179560 12689 net.cpp:157] Top shape: 64 (64)
I1020 09:51:49.179561 12689 net.cpp:165] Memory required for data: 787456
I1020 09:51:49.179563 12689 layer_factory.hpp:77] Creating layer label_fine_data_2_split
I1020 09:51:49.179568 12689 net.cpp:100] Creating Layer label_fine_data_2_split
I1020 09:51:49.179569 12689 net.cpp:434] label_fine_data_2_split <- label_fine
I1020 09:51:49.179572 12689 net.cpp:408] label_fine_data_2_split -> label_fine_data_2_split_0
I1020 09:51:49.179575 12689 net.cpp:408] label_fine_data_2_split -> label_fine_data_2_split_1
I1020 09:51:49.179595 12689 net.cpp:150] Setting up label_fine_data_2_split
I1020 09:51:49.179600 12689 net.cpp:157] Top shape: 64 (64)
I1020 09:51:49.179602 12689 net.cpp:157] Top shape: 64 (64)
I1020 09:51:49.179605 12689 net.cpp:165] Memory required for data: 787968
I1020 09:51:49.179608 12689 layer_factory.hpp:77] Creating layer conv1
I1020 09:51:49.179620 12689 net.cpp:100] Creating Layer conv1
I1020 09:51:49.179623 12689 net.cpp:434] conv1 <- data
I1020 09:51:49.179627 12689 net.cpp:408] conv1 -> conv1
I1020 09:51:49.297058 12689 net.cpp:150] Setting up conv1
I1020 09:51:49.297085 12689 net.cpp:157] Top shape: 64 192 28 28 (9633792)
I1020 09:51:49.297087 12689 net.cpp:165] Memory required for data: 39323136
I1020 09:51:49.297106 12689 layer_factory.hpp:77] Creating layer relu1
I1020 09:51:49.297116 12689 net.cpp:100] Creating Layer relu1
I1020 09:51:49.297118 12689 net.cpp:434] relu1 <- conv1
I1020 09:51:49.297123 12689 net.cpp:408] relu1 -> relu1
I1020 09:51:49.297251 12689 net.cpp:150] Setting up relu1
I1020 09:51:49.297257 12689 net.cpp:157] Top shape: 64 192 28 28 (9633792)
I1020 09:51:49.297260 12689 net.cpp:165] Memory required for data: 77858304
I1020 09:51:49.297261 12689 layer_factory.hpp:77] Creating layer drop1
I1020 09:51:49.297266 12689 net.cpp:100] Creating Layer drop1
I1020 09:51:49.297267 12689 net.cpp:434] drop1 <- relu1
I1020 09:51:49.297271 12689 net.cpp:408] drop1 -> drop1
I1020 09:51:49.297294 12689 net.cpp:150] Setting up drop1
I1020 09:51:49.297298 12689 net.cpp:157] Top shape: 64 192 28 28 (9633792)
I1020 09:51:49.297302 12689 net.cpp:165] Memory required for data: 116393472
I1020 09:51:49.297305 12689 layer_factory.hpp:77] Creating layer pool1
I1020 09:51:49.297312 12689 net.cpp:100] Creating Layer pool1
I1020 09:51:49.297314 12689 net.cpp:434] pool1 <- drop1
I1020 09:51:49.297317 12689 net.cpp:408] pool1 -> pool1
I1020 09:51:49.297343 12689 net.cpp:150] Setting up pool1
I1020 09:51:49.297348 12689 net.cpp:157] Top shape: 64 192 14 14 (2408448)
I1020 09:51:49.297350 12689 net.cpp:165] Memory required for data: 126027264
I1020 09:51:49.297351 12689 layer_factory.hpp:77] Creating layer conv2
I1020 09:51:49.297358 12689 net.cpp:100] Creating Layer conv2
I1020 09:51:49.297360 12689 net.cpp:434] conv2 <- pool1
I1020 09:51:49.297363 12689 net.cpp:408] conv2 -> conv2
I1020 09:51:49.298182 12689 net.cpp:150] Setting up conv2
I1020 09:51:49.298189 12689 net.cpp:157] Top shape: 64 192 14 14 (2408448)
I1020 09:51:49.298192 12689 net.cpp:165] Memory required for data: 135661056
I1020 09:51:49.298197 12689 layer_factory.hpp:77] Creating layer relu2
I1020 09:51:49.298203 12689 net.cpp:100] Creating Layer relu2
I1020 09:51:49.298205 12689 net.cpp:434] relu2 <- conv2
I1020 09:51:49.298209 12689 net.cpp:408] relu2 -> relu2
I1020 09:51:49.298328 12689 net.cpp:150] Setting up relu2
I1020 09:51:49.298333 12689 net.cpp:157] Top shape: 64 192 14 14 (2408448)
I1020 09:51:49.298336 12689 net.cpp:165] Memory required for data: 145294848
I1020 09:51:49.298338 12689 layer_factory.hpp:77] Creating layer conv3
I1020 09:51:49.298343 12689 net.cpp:100] Creating Layer conv3
I1020 09:51:49.298346 12689 net.cpp:434] conv3 <- relu2
I1020 09:51:49.298349 12689 net.cpp:408] conv3 -> conv3
I1020 09:51:49.300801 12689 net.cpp:150] Setting up conv3
I1020 09:51:49.300813 12689 net.cpp:157] Top shape: 64 240 12 12 (2211840)
I1020 09:51:49.300815 12689 net.cpp:165] Memory required for data: 154142208
I1020 09:51:49.300822 12689 layer_factory.hpp:77] Creating layer relu3
I1020 09:51:49.300827 12689 net.cpp:100] Creating Layer relu3
I1020 09:51:49.300829 12689 net.cpp:434] relu3 <- conv3
I1020 09:51:49.300833 12689 net.cpp:408] relu3 -> relu3
I1020 09:51:49.301023 12689 net.cpp:150] Setting up relu3
I1020 09:51:49.301030 12689 net.cpp:157] Top shape: 64 240 12 12 (2211840)
I1020 09:51:49.301033 12689 net.cpp:165] Memory required for data: 162989568
I1020 09:51:49.301034 12689 layer_factory.hpp:77] Creating layer drop2
I1020 09:51:49.301038 12689 net.cpp:100] Creating Layer drop2
I1020 09:51:49.301040 12689 net.cpp:434] drop2 <- relu3
I1020 09:51:49.301043 12689 net.cpp:408] drop2 -> drop2
I1020 09:51:49.301066 12689 net.cpp:150] Setting up drop2
I1020 09:51:49.301071 12689 net.cpp:157] Top shape: 64 240 12 12 (2211840)
I1020 09:51:49.301074 12689 net.cpp:165] Memory required for data: 171836928
I1020 09:51:49.301077 12689 layer_factory.hpp:77] Creating layer pool2
I1020 09:51:49.301084 12689 net.cpp:100] Creating Layer pool2
I1020 09:51:49.301085 12689 net.cpp:434] pool2 <- drop2
I1020 09:51:49.301090 12689 net.cpp:408] pool2 -> pool2
I1020 09:51:49.301113 12689 net.cpp:150] Setting up pool2
I1020 09:51:49.301117 12689 net.cpp:157] Top shape: 64 240 6 6 (552960)
I1020 09:51:49.301120 12689 net.cpp:165] Memory required for data: 174048768
I1020 09:51:49.301121 12689 layer_factory.hpp:77] Creating layer conv4
I1020 09:51:49.301126 12689 net.cpp:100] Creating Layer conv4
I1020 09:51:49.301128 12689 net.cpp:434] conv4 <- pool2
I1020 09:51:49.301132 12689 net.cpp:408] conv4 -> conv4
I1020 09:51:49.301956 12689 net.cpp:150] Setting up conv4
I1020 09:51:49.301964 12689 net.cpp:157] Top shape: 64 240 6 6 (552960)
I1020 09:51:49.301966 12689 net.cpp:165] Memory required for data: 176260608
I1020 09:51:49.301970 12689 layer_factory.hpp:77] Creating layer relu4
I1020 09:51:49.301975 12689 net.cpp:100] Creating Layer relu4
I1020 09:51:49.301976 12689 net.cpp:434] relu4 <- conv4
I1020 09:51:49.301980 12689 net.cpp:408] relu4 -> relu4
I1020 09:51:49.302091 12689 net.cpp:150] Setting up relu4
I1020 09:51:49.302098 12689 net.cpp:157] Top shape: 64 240 6 6 (552960)
I1020 09:51:49.302099 12689 net.cpp:165] Memory required for data: 178472448
I1020 09:51:49.302100 12689 layer_factory.hpp:77] Creating layer conv5
I1020 09:51:49.302105 12689 net.cpp:100] Creating Layer conv5
I1020 09:51:49.302109 12689 net.cpp:434] conv5 <- relu4
I1020 09:51:49.302111 12689 net.cpp:408] conv5 -> conv5
I1020 09:51:49.303864 12689 net.cpp:150] Setting up conv5
I1020 09:51:49.303871 12689 net.cpp:157] Top shape: 64 260 5 5 (416000)
I1020 09:51:49.303874 12689 net.cpp:165] Memory required for data: 180136448
I1020 09:51:49.303880 12689 layer_factory.hpp:77] Creating layer relu5
I1020 09:51:49.303886 12689 net.cpp:100] Creating Layer relu5
I1020 09:51:49.303889 12689 net.cpp:434] relu5 <- conv5
I1020 09:51:49.303892 12689 net.cpp:408] relu5 -> relu5
I1020 09:51:49.304005 12689 net.cpp:150] Setting up relu5
I1020 09:51:49.304011 12689 net.cpp:157] Top shape: 64 260 5 5 (416000)
I1020 09:51:49.304013 12689 net.cpp:165] Memory required for data: 181800448
I1020 09:51:49.304014 12689 layer_factory.hpp:77] Creating layer drop3
I1020 09:51:49.304018 12689 net.cpp:100] Creating Layer drop3
I1020 09:51:49.304020 12689 net.cpp:434] drop3 <- relu5
I1020 09:51:49.304023 12689 net.cpp:408] drop3 -> drop3
I1020 09:51:49.304045 12689 net.cpp:150] Setting up drop3
I1020 09:51:49.304049 12689 net.cpp:157] Top shape: 64 260 5 5 (416000)
I1020 09:51:49.304050 12689 net.cpp:165] Memory required for data: 183464448
I1020 09:51:49.304052 12689 layer_factory.hpp:77] Creating layer pool3
I1020 09:51:49.304056 12689 net.cpp:100] Creating Layer pool3
I1020 09:51:49.304059 12689 net.cpp:434] pool3 <- drop3
I1020 09:51:49.304062 12689 net.cpp:408] pool3 -> pool3
I1020 09:51:49.304083 12689 net.cpp:150] Setting up pool3
I1020 09:51:49.304095 12689 net.cpp:157] Top shape: 64 260 3 3 (149760)
I1020 09:51:49.304096 12689 net.cpp:165] Memory required for data: 184063488
I1020 09:51:49.304100 12689 layer_factory.hpp:77] Creating layer conv6
I1020 09:51:49.304103 12689 net.cpp:100] Creating Layer conv6
I1020 09:51:49.304105 12689 net.cpp:434] conv6 <- pool3
I1020 09:51:49.304108 12689 net.cpp:408] conv6 -> conv6
I1020 09:51:49.305210 12689 net.cpp:150] Setting up conv6
I1020 09:51:49.305218 12689 net.cpp:157] Top shape: 64 260 3 3 (149760)
I1020 09:51:49.305220 12689 net.cpp:165] Memory required for data: 184662528
I1020 09:51:49.305224 12689 layer_factory.hpp:77] Creating layer relu6
I1020 09:51:49.305228 12689 net.cpp:100] Creating Layer relu6
I1020 09:51:49.305232 12689 net.cpp:434] relu6 <- conv6
I1020 09:51:49.305235 12689 net.cpp:408] relu6 -> relu6
I1020 09:51:49.305425 12689 net.cpp:150] Setting up relu6
I1020 09:51:49.305433 12689 net.cpp:157] Top shape: 64 260 3 3 (149760)
I1020 09:51:49.305435 12689 net.cpp:165] Memory required for data: 185261568
I1020 09:51:49.305438 12689 layer_factory.hpp:77] Creating layer conv7
I1020 09:51:49.305441 12689 net.cpp:100] Creating Layer conv7
I1020 09:51:49.305444 12689 net.cpp:434] conv7 <- relu6
I1020 09:51:49.305449 12689 net.cpp:408] conv7 -> conv7
I1020 09:51:49.307351 12689 net.cpp:150] Setting up conv7
I1020 09:51:49.307360 12689 net.cpp:157] Top shape: 64 280 2 2 (71680)
I1020 09:51:49.307363 12689 net.cpp:165] Memory required for data: 185548288
I1020 09:51:49.307366 12689 layer_factory.hpp:77] Creating layer relu7
I1020 09:51:49.307371 12689 net.cpp:100] Creating Layer relu7
I1020 09:51:49.307374 12689 net.cpp:434] relu7 <- conv7
I1020 09:51:49.307377 12689 net.cpp:408] relu7 -> relu7
I1020 09:51:49.307492 12689 net.cpp:150] Setting up relu7
I1020 09:51:49.307497 12689 net.cpp:157] Top shape: 64 280 2 2 (71680)
I1020 09:51:49.307498 12689 net.cpp:165] Memory required for data: 185835008
I1020 09:51:49.307502 12689 layer_factory.hpp:77] Creating layer drop4
I1020 09:51:49.307504 12689 net.cpp:100] Creating Layer drop4
I1020 09:51:49.307507 12689 net.cpp:434] drop4 <- relu7
I1020 09:51:49.307509 12689 net.cpp:408] drop4 -> drop4
I1020 09:51:49.307533 12689 net.cpp:150] Setting up drop4
I1020 09:51:49.307536 12689 net.cpp:157] Top shape: 64 280 2 2 (71680)
I1020 09:51:49.307538 12689 net.cpp:165] Memory required for data: 186121728
I1020 09:51:49.307539 12689 layer_factory.hpp:77] Creating layer pool4
I1020 09:51:49.307543 12689 net.cpp:100] Creating Layer pool4
I1020 09:51:49.307545 12689 net.cpp:434] pool4 <- drop4
I1020 09:51:49.307548 12689 net.cpp:408] pool4 -> pool4
I1020 09:51:49.307569 12689 net.cpp:150] Setting up pool4
I1020 09:51:49.307574 12689 net.cpp:157] Top shape: 64 280 1 1 (17920)
I1020 09:51:49.307574 12689 net.cpp:165] Memory required for data: 186193408
I1020 09:51:49.307576 12689 layer_factory.hpp:77] Creating layer conv8
I1020 09:51:49.307580 12689 net.cpp:100] Creating Layer conv8
I1020 09:51:49.307584 12689 net.cpp:434] conv8 <- pool4
I1020 09:51:49.307587 12689 net.cpp:408] conv8 -> conv8
I1020 09:51:49.308573 12689 net.cpp:150] Setting up conv8
I1020 09:51:49.308584 12689 net.cpp:157] Top shape: 64 280 1 1 (17920)
I1020 09:51:49.308588 12689 net.cpp:165] Memory required for data: 186265088
I1020 09:51:49.308593 12689 layer_factory.hpp:77] Creating layer relu8
I1020 09:51:49.308599 12689 net.cpp:100] Creating Layer relu8
I1020 09:51:49.308603 12689 net.cpp:434] relu8 <- conv8
I1020 09:51:49.308607 12689 net.cpp:408] relu8 -> relu8
I1020 09:51:49.308753 12689 net.cpp:150] Setting up relu8
I1020 09:51:49.308759 12689 net.cpp:157] Top shape: 64 280 1 1 (17920)
I1020 09:51:49.308763 12689 net.cpp:165] Memory required for data: 186336768
I1020 09:51:49.308765 12689 layer_factory.hpp:77] Creating layer drop5
I1020 09:51:49.308770 12689 net.cpp:100] Creating Layer drop5
I1020 09:51:49.308773 12689 net.cpp:434] drop5 <- relu8
I1020 09:51:49.308778 12689 net.cpp:408] drop5 -> drop5
I1020 09:51:49.308806 12689 net.cpp:150] Setting up drop5
I1020 09:51:49.308821 12689 net.cpp:157] Top shape: 64 280 1 1 (17920)
I1020 09:51:49.308825 12689 net.cpp:165] Memory required for data: 186408448
I1020 09:51:49.308827 12689 layer_factory.hpp:77] Creating layer pool5
I1020 09:51:49.308832 12689 net.cpp:100] Creating Layer pool5
I1020 09:51:49.308836 12689 net.cpp:434] pool5 <- drop5
I1020 09:51:49.308840 12689 net.cpp:408] pool5 -> pool5
I1020 09:51:49.308878 12689 net.cpp:150] Setting up pool5
I1020 09:51:49.308886 12689 net.cpp:157] Top shape: 64 280 1 1 (17920)
I1020 09:51:49.308888 12689 net.cpp:165] Memory required for data: 186480128
I1020 09:51:49.308890 12689 layer_factory.hpp:77] Creating layer conv10
I1020 09:51:49.308897 12689 net.cpp:100] Creating Layer conv10
I1020 09:51:49.308900 12689 net.cpp:434] conv10 <- pool5
I1020 09:51:49.308905 12689 net.cpp:408] conv10 -> conv10
I1020 09:51:49.310128 12689 net.cpp:150] Setting up conv10
I1020 09:51:49.310139 12689 net.cpp:157] Top shape: 64 300 1 1 (19200)
I1020 09:51:49.310142 12689 net.cpp:165] Memory required for data: 186556928
I1020 09:51:49.310151 12689 layer_factory.hpp:77] Creating layer relu10
I1020 09:51:49.310159 12689 net.cpp:100] Creating Layer relu10
I1020 09:51:49.310163 12689 net.cpp:434] relu10 <- conv10
I1020 09:51:49.310169 12689 net.cpp:408] relu10 -> relu10
I1020 09:51:49.310433 12689 net.cpp:150] Setting up relu10
I1020 09:51:49.310443 12689 net.cpp:157] Top shape: 64 300 1 1 (19200)
I1020 09:51:49.310446 12689 net.cpp:165] Memory required for data: 186633728
I1020 09:51:49.310448 12689 layer_factory.hpp:77] Creating layer drop6
I1020 09:51:49.310452 12689 net.cpp:100] Creating Layer drop6
I1020 09:51:49.310456 12689 net.cpp:434] drop6 <- relu10
I1020 09:51:49.310458 12689 net.cpp:408] drop6 -> drop6
I1020 09:51:49.310484 12689 net.cpp:150] Setting up drop6
I1020 09:51:49.310488 12689 net.cpp:157] Top shape: 64 300 1 1 (19200)
I1020 09:51:49.310490 12689 net.cpp:165] Memory required for data: 186710528
I1020 09:51:49.310492 12689 layer_factory.hpp:77] Creating layer pool6
I1020 09:51:49.310499 12689 net.cpp:100] Creating Layer pool6
I1020 09:51:49.310503 12689 net.cpp:434] pool6 <- drop6
I1020 09:51:49.310505 12689 net.cpp:408] pool6 -> pool6
I1020 09:51:49.310528 12689 net.cpp:150] Setting up pool6
I1020 09:51:49.310533 12689 net.cpp:157] Top shape: 64 300 1 1 (19200)
I1020 09:51:49.310534 12689 net.cpp:165] Memory required for data: 186787328
I1020 09:51:49.310536 12689 layer_factory.hpp:77] Creating layer conv11
I1020 09:51:49.310540 12689 net.cpp:100] Creating Layer conv11
I1020 09:51:49.310542 12689 net.cpp:434] conv11 <- pool6
I1020 09:51:49.310547 12689 net.cpp:408] conv11 -> conv11
I1020 09:51:49.311553 12689 net.cpp:150] Setting up conv11
I1020 09:51:49.311560 12689 net.cpp:157] Top shape: 64 100 1 1 (6400)
I1020 09:51:49.311563 12689 net.cpp:165] Memory required for data: 186812928
I1020 09:51:49.311566 12689 layer_factory.hpp:77] Creating layer relu11
I1020 09:51:49.311570 12689 net.cpp:100] Creating Layer relu11
I1020 09:51:49.311573 12689 net.cpp:434] relu11 <- conv11
I1020 09:51:49.311578 12689 net.cpp:408] relu11 -> relu11
I1020 09:51:49.311691 12689 net.cpp:150] Setting up relu11
I1020 09:51:49.311697 12689 net.cpp:157] Top shape: 64 100 1 1 (6400)
I1020 09:51:49.311697 12689 net.cpp:165] Memory required for data: 186838528
I1020 09:51:49.311699 12689 layer_factory.hpp:77] Creating layer drop7
I1020 09:51:49.311703 12689 net.cpp:100] Creating Layer drop7
I1020 09:51:49.311704 12689 net.cpp:434] drop7 <- relu11
I1020 09:51:49.311708 12689 net.cpp:408] drop7 -> drop7
I1020 09:51:49.311731 12689 net.cpp:150] Setting up drop7
I1020 09:51:49.311736 12689 net.cpp:157] Top shape: 64 100 1 1 (6400)
I1020 09:51:49.311738 12689 net.cpp:165] Memory required for data: 186864128
I1020 09:51:49.311740 12689 layer_factory.hpp:77] Creating layer pool7
I1020 09:51:49.311743 12689 net.cpp:100] Creating Layer pool7
I1020 09:51:49.311745 12689 net.cpp:434] pool7 <- drop7
I1020 09:51:49.311748 12689 net.cpp:408] pool7 -> pool7
I1020 09:51:49.311769 12689 net.cpp:150] Setting up pool7
I1020 09:51:49.311774 12689 net.cpp:157] Top shape: 64 100 1 1 (6400)
I1020 09:51:49.311784 12689 net.cpp:165] Memory required for data: 186889728
I1020 09:51:49.311785 12689 layer_factory.hpp:77] Creating layer pool7_pool7_0_split
I1020 09:51:49.311789 12689 net.cpp:100] Creating Layer pool7_pool7_0_split
I1020 09:51:49.311791 12689 net.cpp:434] pool7_pool7_0_split <- pool7
I1020 09:51:49.311794 12689 net.cpp:408] pool7_pool7_0_split -> pool7_pool7_0_split_0
I1020 09:51:49.311800 12689 net.cpp:408] pool7_pool7_0_split -> pool7_pool7_0_split_1
I1020 09:51:49.311822 12689 net.cpp:150] Setting up pool7_pool7_0_split
I1020 09:51:49.311825 12689 net.cpp:157] Top shape: 64 100 1 1 (6400)
I1020 09:51:49.311828 12689 net.cpp:157] Top shape: 64 100 1 1 (6400)
I1020 09:51:49.311830 12689 net.cpp:165] Memory required for data: 186940928
I1020 09:51:49.311831 12689 layer_factory.hpp:77] Creating layer ip_c
I1020 09:51:49.311836 12689 net.cpp:100] Creating Layer ip_c
I1020 09:51:49.311838 12689 net.cpp:434] ip_c <- pool7_pool7_0_split_0
I1020 09:51:49.311841 12689 net.cpp:408] ip_c -> ip_c
I1020 09:51:49.312180 12689 net.cpp:150] Setting up ip_c
I1020 09:51:49.312186 12689 net.cpp:157] Top shape: 64 20 (1280)
I1020 09:51:49.312187 12689 net.cpp:165] Memory required for data: 186946048
I1020 09:51:49.312191 12689 layer_factory.hpp:77] Creating layer ip_c_ip_c_0_split
I1020 09:51:49.312196 12689 net.cpp:100] Creating Layer ip_c_ip_c_0_split
I1020 09:51:49.312198 12689 net.cpp:434] ip_c_ip_c_0_split <- ip_c
I1020 09:51:49.312201 12689 net.cpp:408] ip_c_ip_c_0_split -> ip_c_ip_c_0_split_0
I1020 09:51:49.312206 12689 net.cpp:408] ip_c_ip_c_0_split -> ip_c_ip_c_0_split_1
I1020 09:51:49.312229 12689 net.cpp:150] Setting up ip_c_ip_c_0_split
I1020 09:51:49.312232 12689 net.cpp:157] Top shape: 64 20 (1280)
I1020 09:51:49.312234 12689 net.cpp:157] Top shape: 64 20 (1280)
I1020 09:51:49.312237 12689 net.cpp:165] Memory required for data: 186956288
I1020 09:51:49.312238 12689 layer_factory.hpp:77] Creating layer accuracy_f
I1020 09:51:49.312242 12689 net.cpp:100] Creating Layer accuracy_f
I1020 09:51:49.312243 12689 net.cpp:434] accuracy_f <- ip_c_ip_c_0_split_0
I1020 09:51:49.312247 12689 net.cpp:434] accuracy_f <- label_coarse_data_1_split_0
I1020 09:51:49.312249 12689 net.cpp:408] accuracy_f -> accuracy_f
…
I1020 09:51:49.313102 12689 net.cpp:283] Network initialization done.
I1020 09:51:49.313303 12689 solver.cpp:181] Creating test net (#0) specified by test_net file: /home/adam/Honours/Honours-Project/cifar-100_pooling/max/leakyrelu/poolcnn_leakyrelu_test.prototxt
I1020 09:51:49.313427 12689 net.cpp:58] Initializing net from parameters: 
state {
  phase: TEST
}
layer {
  name: "data"
  type: "HDF5Data"
  top: "data"
  top: "label_coarse"
  top: "label_fine"
  hdf5_data_param {
    source: "../../../../data/cifar-100/cifar_100_caffe_hdf5/test.txt"
    batch_size: 100
  }
}
layer {
  name: "conv1"
  type: "Convolution"
  bottom: "data"
  top: "conv1"
  convolution_param {
    num_output: 192
    kernel_size: 5
    weight_filler {
      type: "xavier"
    }
  }
}
layer {
  name: "relu1"
  type: "ReLU"
  bottom: "conv1"
  top: "relu1"
  relu_param {
    negative_slope: 0.1
  }
}
layer {
  name: "drop1"
  type: "Dropout"
  bottom: "relu1"
  top: "drop1"
  dropout_param {
    dropout_ratio: 0
  }
}
layer {
  name: "pool1"
  type: "Pooling"
  bottom: "drop1"
  top: "pool1"
  pooling_param {
    pool: MAX
    kernel_size: 2
    stride: 2
  }
}
layer {
  name: "conv2"
  type: "Convolution"
  bottom: "pool1"
  top: "conv2"
  convolution_param {
    num_output: 192
    kernel_size: 1
    weight_filler {
      type: "xavier"
    }
  }
}
layer {
  name: "relu2"
  type: "ReLU"
  bottom: "conv2"
  top: "relu2"
  relu_param {
    negative_slope: 0.1
  }
}
layer {
  name: "conv3"
  type: "Convolution"
  bottom: "relu2"
  top: "conv3"
  convolution_param {
    num_output: 240
    kernel_size: 3
    weight_filler {
      type: "xavier"
    }
  }
}
layer {
  name: "relu3"
  type: "ReLU"
  bottom: "conv3"
  top: "relu3"
  relu_param {
    negative_slope: 0.1
  }
}
layer {
  name: "drop2"
  type: "Dropout"
  bottom: "relu3"
  top: "drop2"
  dropout_param {
    dropout_ratio: 0.1
  }
}
layer {
  name: "pool2"
  type: "Pooling"
  bottom: "drop2"
  top: "pool2"
  pooling_param {
    pool: MAX
    kernel_size: 2
    stride: 2
  }
}
layer {
  name: "conv4"
  type: "Convolution"
  bottom: "pool2"
  top: "conv4"
  convolution_param {
    num_output: 240
    kernel_size: 1
    weight_filler {
      type: "xavier"
    }
  }
}
layer {
  name: "relu4"
  type: "ReLU"
  bottom: "conv4"
  top: "relu4"
  relu_param {
    negative_slope: 0.1
  }
}
layer {
  name: "conv5"
  type: "Convolution"
  bottom: "relu4"
  top: "conv5"
  convolution_param {
    num_output: 260
    kernel_size: 2
    weight_filler {
      type: "xavier"
    }
  }
}
layer {
  name: "relu5"
  type: "ReLU"
  bottom: "conv5"
  top: "relu5"
  relu_param {
    negative_slope: 0.1
  }
}
layer {
  name: "drop3"
  type: "Dropout"
  bottom: "relu5"
  top: "drop3"
  dropout_param {
    dropout_ratio: 0.2
  }
}
layer {
  name: "pool3"
  type: "Pooling"
  bottom: "drop3"
  top: "pool3"
  pooling_param {
    pool: MAX
    kernel_size: 2
    stride: 2
  }
}
layer {
  name: "conv6"
  type: "Convolution"
  bottom: "pool3"
  top: "conv6"
  convolution_param {
    num_output: 260
    kernel_size: 1
    weight_filler {
      type: "xavier"
    }
  }
}
layer {
  name: "relu6"
  type: "ReLU"
  bottom: "conv6"
  top: "relu6"
  relu_param {
    negative_slope: 0.1
  }
}
layer {
  name: "conv7"
  type: "Convolution"
  bottom: "relu6"
  top: "conv7"
  convolution_param {
    num_output: 280
    kernel_size: 2
    weight_filler {
      type: "xavier"
    }
  }
}
layer {
  name: "relu7"
  type: "ReLU"
  bottom: "conv7"
  top: "relu7"
  relu_param {
    negative_slope: 0.1
  }
}
layer {
  name: "drop4"
  type: "Dropout"
  bottom: "relu7"
  top: "drop4"
  dropout_param {
    dropout_ratio: 0.3
  }
}
layer {
  name: "pool4"
  type: "Pooling"
  bottom: "drop4"
  top: "pool4"
  pooling_param {
    pool: MAX
    kernel_size: 2
    stride: 2
  }
}
layer {
  name: "conv8"
  type: "Convolution"
  bottom: "pool4"
  top: "conv8"
  convolution_param {
    num_output: 280
    kernel_size: 1
    weight_filler {
      type: "xavier"
    }
  }
}
layer {
  name: "relu8"
  type: "ReLU"
  bottom: "conv8"
  top: "relu8"
  relu_param {
    negative_slope: 0.1
  }
}
layer {
  name: "drop5"
  type: "Dropout"
  bottom: "relu8"
  top: "drop5"
  dropout_param {
    dropout_ratio: 0.4
  }
}
layer {
  name: "pool5"
  type: "Pooling"
  bottom: "drop5"
  top: "pool5"
  pooling_param {
    pool: MAX
    kernel_size: 2
    stride: 2
  }
}
layer {
  name: "conv10"
  type: "Convolution"
  bottom: "pool5"
  top: "conv10"
  convolution_param {
    num_output: 300
    kernel_size: 1
    weight_filler {
      type: "xavier"
    }
  }
}
layer {
  name: "relu10"
  type: "ReLU"
  bottom: "conv10"
  top: "relu10"
  relu_param {
    negative_slope: 0.1
  }
}
layer {
  name: "drop6"
  type: "Dropout"
  bottom: "relu10"
  top: "drop6"
  dropout_param {
    dropout_ratio: 0.5
  }
}
layer {
  name: "pool6"
  type: "Pooling"
  bottom: "drop6"
  top: "pool6"
  pooling_param {
    pool: MAX
    kernel_size: 2
    stride: 2
  }
}
layer {
  name: "conv11"
  type: "Convolution"
  bottom: "pool6"
  top: "conv11"
  convolution_param {
    num_output: 100
    kernel_size: 1
    weight_filler {
      type: "xavier"
    }
  }
}
layer {
  name: "relu11"
  type: "ReLU"
  bottom: "conv11"
  top: "relu11"
  relu_param {
    negative_slope: 0.1
  }
}
layer {
  name: "drop7"
  type: "Dropout"
  bottom: "relu11"
  top: "drop7"
  dropout_param {
    dropout_ratio: 0
  }
}
layer {
  name: "pool7"
  type: "Pooling"
  bottom: "drop7"
  top: "pool7"
  pooling_param {
    pool: MAX
    kernel_size: 2
    stride: 2
  }
}
layer {
  name: "ip_c"
  type: "InnerProduct"
  bottom: "pool7"
  top: "ip_c"
  inner_product_param {
    num_output: 20
    weight_filler {
      type: "xavier"
    }
  }
}
layer {
  name: "accuracy_f"
  type: "Accuracy"
  bottom: "ip_c"
  bottom: "label_coarse"
  top: "accuracy_f"
}
layer {
  name: "loss_c"
  type: "SoftmaxWithLoss"
  bottom: "ip_c"
  bottom: "label_coarse"
  top: "loss_c"
}
layer {
  name: "ip_f"
  type: "InnerProduct"
  bottom: "pool7"
  top: "ip_f"
  inner_product_param {
    num_output: 100
    weight_filler {
      type: "xavier"
    }
  }
}
layer {
  name: "accuracy"
  type: "Accuracy"
  bottom: "ip_f"
  bottom: "label_fine"
  top: "accuracy"
}
layer {
  name: "loss_f"
  type: "SoftmaxWithLoss"
  bottom: "ip_f"
  bottom: "label_fine"
  top: "loss_f"
}
I1020 09:51:49.313536 12689 layer_factory.hpp:77] Creating layer data
I1020 09:51:49.313542 12689 net.cpp:100] Creating Layer data
I1020 09:51:49.313545 12689 net.cpp:408] data -> data
I1020 09:51:49.313549 12689 net.cpp:408] data -> label_coarse
I1020 09:51:49.313552 12689 net.cpp:408] data -> label_fine
I1020 09:51:49.313555 12689 hdf5_data_layer.cpp:79] Loading list of HDF5 filenames from: ../../../../data/cifar-100/cifar_100_caffe_hdf5/test.txt
I1020 09:51:49.313571 12689 hdf5_data_layer.cpp:93] Number of HDF5 files: 1
I1020 09:51:49.567173 12689 net.cpp:150] Setting up data
I1020 09:51:49.567195 12689 net.cpp:157] Top shape: 100 3 32 32 (307200)
I1020 09:51:49.567217 12689 net.cpp:157] Top shape: 100 (100)
I1020 09:51:49.567220 12689 net.cpp:157] Top shape: 100 (100)
I1020 09:51:49.567221 12689 net.cpp:165] Memory required for data: 1229600
I1020 09:51:49.567226 12689 layer_factory.hpp:77] Creating layer label_coarse_data_1_split
I1020 09:51:49.567236 12689 net.cpp:100] Creating Layer label_coarse_data_1_split
I1020 09:51:49.567240 12689 net.cpp:434] label_coarse_data_1_split <- label_coarse
I1020 09:51:49.567246 12689 net.cpp:408] label_coarse_data_1_split -> label_coarse_data_1_split_0
I1020 09:51:49.567255 12689 net.cpp:408] label_coarse_data_1_split -> label_coarse_data_1_split_1
I1020 09:51:49.567283 12689 net.cpp:150] Setting up label_coarse_data_1_split
I1020 09:51:49.567287 12689 net.cpp:157] Top shape: 100 (100)
I1020 09:51:49.567291 12689 net.cpp:157] Top shape: 100 (100)
I1020 09:51:49.567291 12689 net.cpp:165] Memory required for data: 1230400
I1020 09:51:49.567293 12689 layer_factory.hpp:77] Creating layer label_fine_data_2_split
I1020 09:51:49.567297 12689 net.cpp:100] Creating Layer label_fine_data_2_split
I1020 09:51:49.567298 12689 net.cpp:434] label_fine_data_2_split <- label_fine
I1020 09:51:49.567302 12689 net.cpp:408] label_fine_data_2_split -> label_fine_data_2_split_0
I1020 09:51:49.567306 12689 net.cpp:408] label_fine_data_2_split -> label_fine_data_2_split_1
I1020 09:51:49.567328 12689 net.cpp:150] Setting up label_fine_data_2_split
I1020 09:51:49.567332 12689 net.cpp:157] Top shape: 100 (100)
I1020 09:51:49.567334 12689 net.cpp:157] Top shape: 100 (100)
I1020 09:51:49.567335 12689 net.cpp:165] Memory required for data: 1231200
I1020 09:51:49.567337 12689 layer_factory.hpp:77] Creating layer conv1
I1020 09:51:49.567344 12689 net.cpp:100] Creating Layer conv1
I1020 09:51:49.567347 12689 net.cpp:434] conv1 <- data
I1020 09:51:49.567350 12689 net.cpp:408] conv1 -> conv1
I1020 09:51:49.568179 12689 net.cpp:150] Setting up conv1
I1020 09:51:49.568187 12689 net.cpp:157] Top shape: 100 192 28 28 (15052800)
I1020 09:51:49.568189 12689 net.cpp:165] Memory required for data: 61442400
I1020 09:51:49.568197 12689 layer_factory.hpp:77] Creating layer relu1
I1020 09:51:49.568202 12689 net.cpp:100] Creating Layer relu1
I1020 09:51:49.568203 12689 net.cpp:434] relu1 <- conv1
I1020 09:51:49.568207 12689 net.cpp:408] relu1 -> relu1
I1020 09:51:49.568334 12689 net.cpp:150] Setting up relu1
I1020 09:51:49.568341 12689 net.cpp:157] Top shape: 100 192 28 28 (15052800)
I1020 09:51:49.568342 12689 net.cpp:165] Memory required for data: 121653600
I1020 09:51:49.568344 12689 layer_factory.hpp:77] Creating layer drop1
I1020 09:51:49.568348 12689 net.cpp:100] Creating Layer drop1
I1020 09:51:49.568351 12689 net.cpp:434] drop1 <- relu1
I1020 09:51:49.568353 12689 net.cpp:408] drop1 -> drop1
I1020 09:51:49.568377 12689 net.cpp:150] Setting up drop1
I1020 09:51:49.568380 12689 net.cpp:157] Top shape: 100 192 28 28 (15052800)
I1020 09:51:49.568382 12689 net.cpp:165] Memory required for data: 181864800
I1020 09:51:49.568384 12689 layer_factory.hpp:77] Creating layer pool1
I1020 09:51:49.568387 12689 net.cpp:100] Creating Layer pool1
I1020 09:51:49.568389 12689 net.cpp:434] pool1 <- drop1
I1020 09:51:49.568392 12689 net.cpp:408] pool1 -> pool1
I1020 09:51:49.568414 12689 net.cpp:150] Setting up pool1
I1020 09:51:49.568418 12689 net.cpp:157] Top shape: 100 192 14 14 (3763200)
I1020 09:51:49.568419 12689 net.cpp:165] Memory required for data: 196917600
I1020 09:51:49.568421 12689 layer_factory.hpp:77] Creating layer conv2
I1020 09:51:49.568426 12689 net.cpp:100] Creating Layer conv2
I1020 09:51:49.568428 12689 net.cpp:434] conv2 <- pool1
I1020 09:51:49.568431 12689 net.cpp:408] conv2 -> conv2
I1020 09:51:49.569195 12689 net.cpp:150] Setting up conv2
I1020 09:51:49.569203 12689 net.cpp:157] Top shape: 100 192 14 14 (3763200)
I1020 09:51:49.569205 12689 net.cpp:165] Memory required for data: 211970400
I1020 09:51:49.569211 12689 layer_factory.hpp:77] Creating layer relu2
I1020 09:51:49.569216 12689 net.cpp:100] Creating Layer relu2
I1020 09:51:49.569226 12689 net.cpp:434] relu2 <- conv2
I1020 09:51:49.569228 12689 net.cpp:408] relu2 -> relu2
I1020 09:51:49.569422 12689 net.cpp:150] Setting up relu2
I1020 09:51:49.569430 12689 net.cpp:157] Top shape: 100 192 14 14 (3763200)
I1020 09:51:49.569432 12689 net.cpp:165] Memory required for data: 227023200
I1020 09:51:49.569433 12689 layer_factory.hpp:77] Creating layer conv3
I1020 09:51:49.569438 12689 net.cpp:100] Creating Layer conv3
I1020 09:51:49.569442 12689 net.cpp:434] conv3 <- relu2
I1020 09:51:49.569444 12689 net.cpp:408] conv3 -> conv3
I1020 09:51:49.571905 12689 net.cpp:150] Setting up conv3
I1020 09:51:49.571913 12689 net.cpp:157] Top shape: 100 240 12 12 (3456000)
I1020 09:51:49.571916 12689 net.cpp:165] Memory required for data: 240847200
I1020 09:51:49.571921 12689 layer_factory.hpp:77] Creating layer relu3
I1020 09:51:49.571925 12689 net.cpp:100] Creating Layer relu3
I1020 09:51:49.571928 12689 net.cpp:434] relu3 <- conv3
I1020 09:51:49.571931 12689 net.cpp:408] relu3 -> relu3
I1020 09:51:49.572043 12689 net.cpp:150] Setting up relu3
I1020 09:51:49.572048 12689 net.cpp:157] Top shape: 100 240 12 12 (3456000)
I1020 09:51:49.572051 12689 net.cpp:165] Memory required for data: 254671200
I1020 09:51:49.572053 12689 layer_factory.hpp:77] Creating layer drop2
I1020 09:51:49.572057 12689 net.cpp:100] Creating Layer drop2
I1020 09:51:49.572058 12689 net.cpp:434] drop2 <- relu3
I1020 09:51:49.572062 12689 net.cpp:408] drop2 -> drop2
I1020 09:51:49.572085 12689 net.cpp:150] Setting up drop2
I1020 09:51:49.572089 12689 net.cpp:157] Top shape: 100 240 12 12 (3456000)
I1020 09:51:49.572091 12689 net.cpp:165] Memory required for data: 268495200
I1020 09:51:49.572093 12689 layer_factory.hpp:77] Creating layer pool2
I1020 09:51:49.572096 12689 net.cpp:100] Creating Layer pool2
I1020 09:51:49.572099 12689 net.cpp:434] pool2 <- drop2
I1020 09:51:49.572103 12689 net.cpp:408] pool2 -> pool2
I1020 09:51:49.572129 12689 net.cpp:150] Setting up pool2
I1020 09:51:49.572134 12689 net.cpp:157] Top shape: 100 240 6 6 (864000)
I1020 09:51:49.572137 12689 net.cpp:165] Memory required for data: 271951200
I1020 09:51:49.572140 12689 layer_factory.hpp:77] Creating layer conv4
I1020 09:51:49.572146 12689 net.cpp:100] Creating Layer conv4
I1020 09:51:49.572150 12689 net.cpp:434] conv4 <- pool2
I1020 09:51:49.572154 12689 net.cpp:408] conv4 -> conv4
I1020 09:51:49.573242 12689 net.cpp:150] Setting up conv4
I1020 09:51:49.573251 12689 net.cpp:157] Top shape: 100 240 6 6 (864000)
I1020 09:51:49.573256 12689 net.cpp:165] Memory required for data: 275407200
I1020 09:51:49.573261 12689 layer_factory.hpp:77] Creating layer relu4
I1020 09:51:49.573266 12689 net.cpp:100] Creating Layer relu4
I1020 09:51:49.573271 12689 net.cpp:434] relu4 <- conv4
I1020 09:51:49.573276 12689 net.cpp:408] relu4 -> relu4
I1020 09:51:49.573396 12689 net.cpp:150] Setting up relu4
I1020 09:51:49.573402 12689 net.cpp:157] Top shape: 100 240 6 6 (864000)
I1020 09:51:49.573405 12689 net.cpp:165] Memory required for data: 278863200
I1020 09:51:49.573410 12689 layer_factory.hpp:77] Creating layer conv5
I1020 09:51:49.573415 12689 net.cpp:100] Creating Layer conv5
I1020 09:51:49.573418 12689 net.cpp:434] conv5 <- relu4
I1020 09:51:49.573423 12689 net.cpp:408] conv5 -> conv5
I1020 09:51:49.575188 12689 net.cpp:150] Setting up conv5
I1020 09:51:49.575196 12689 net.cpp:157] Top shape: 100 260 5 5 (650000)
I1020 09:51:49.575198 12689 net.cpp:165] Memory required for data: 281463200
I1020 09:51:49.575206 12689 layer_factory.hpp:77] Creating layer relu5
I1020 09:51:49.575213 12689 net.cpp:100] Creating Layer relu5
I1020 09:51:49.575215 12689 net.cpp:434] relu5 <- conv5
I1020 09:51:49.575219 12689 net.cpp:408] relu5 -> relu5
I1020 09:51:49.575484 12689 net.cpp:150] Setting up relu5
I1020 09:51:49.575490 12689 net.cpp:157] Top shape: 100 260 5 5 (650000)
I1020 09:51:49.575494 12689 net.cpp:165] Memory required for data: 284063200
I1020 09:51:49.575495 12689 layer_factory.hpp:77] Creating layer drop3
I1020 09:51:49.575498 12689 net.cpp:100] Creating Layer drop3
I1020 09:51:49.575500 12689 net.cpp:434] drop3 <- relu5
I1020 09:51:49.575512 12689 net.cpp:408] drop3 -> drop3
I1020 09:51:49.575538 12689 net.cpp:150] Setting up drop3
I1020 09:51:49.575542 12689 net.cpp:157] Top shape: 100 260 5 5 (650000)
I1020 09:51:49.575546 12689 net.cpp:165] Memory required for data: 286663200
I1020 09:51:49.575546 12689 layer_factory.hpp:77] Creating layer pool3
I1020 09:51:49.575549 12689 net.cpp:100] Creating Layer pool3
I1020 09:51:49.575551 12689 net.cpp:434] pool3 <- drop3
I1020 09:51:49.575554 12689 net.cpp:408] pool3 -> pool3
I1020 09:51:49.575577 12689 net.cpp:150] Setting up pool3
I1020 09:51:49.575580 12689 net.cpp:157] Top shape: 100 260 3 3 (234000)
I1020 09:51:49.575582 12689 net.cpp:165] Memory required for data: 287599200
I1020 09:51:49.575584 12689 layer_factory.hpp:77] Creating layer conv6
I1020 09:51:49.575588 12689 net.cpp:100] Creating Layer conv6
I1020 09:51:49.575592 12689 net.cpp:434] conv6 <- pool3
I1020 09:51:49.575594 12689 net.cpp:408] conv6 -> conv6
I1020 09:51:49.576722 12689 net.cpp:150] Setting up conv6
I1020 09:51:49.576731 12689 net.cpp:157] Top shape: 100 260 3 3 (234000)
I1020 09:51:49.576733 12689 net.cpp:165] Memory required for data: 288535200
I1020 09:51:49.576737 12689 layer_factory.hpp:77] Creating layer relu6
I1020 09:51:49.576741 12689 net.cpp:100] Creating Layer relu6
I1020 09:51:49.576745 12689 net.cpp:434] relu6 <- conv6
I1020 09:51:49.576747 12689 net.cpp:408] relu6 -> relu6
I1020 09:51:49.576861 12689 net.cpp:150] Setting up relu6
I1020 09:51:49.576867 12689 net.cpp:157] Top shape: 100 260 3 3 (234000)
I1020 09:51:49.576869 12689 net.cpp:165] Memory required for data: 289471200
I1020 09:51:49.576870 12689 layer_factory.hpp:77] Creating layer conv7
I1020 09:51:49.576875 12689 net.cpp:100] Creating Layer conv7
I1020 09:51:49.576879 12689 net.cpp:434] conv7 <- relu6
I1020 09:51:49.576881 12689 net.cpp:408] conv7 -> conv7
I1020 09:51:49.578796 12689 net.cpp:150] Setting up conv7
I1020 09:51:49.578805 12689 net.cpp:157] Top shape: 100 280 2 2 (112000)
I1020 09:51:49.578807 12689 net.cpp:165] Memory required for data: 289919200
I1020 09:51:49.578811 12689 layer_factory.hpp:77] Creating layer relu7
I1020 09:51:49.578814 12689 net.cpp:100] Creating Layer relu7
I1020 09:51:49.578817 12689 net.cpp:434] relu7 <- conv7
I1020 09:51:49.578821 12689 net.cpp:408] relu7 -> relu7
I1020 09:51:49.578939 12689 net.cpp:150] Setting up relu7
I1020 09:51:49.578945 12689 net.cpp:157] Top shape: 100 280 2 2 (112000)
I1020 09:51:49.578946 12689 net.cpp:165] Memory required for data: 290367200
I1020 09:51:49.578949 12689 layer_factory.hpp:77] Creating layer drop4
I1020 09:51:49.578953 12689 net.cpp:100] Creating Layer drop4
I1020 09:51:49.578954 12689 net.cpp:434] drop4 <- relu7
I1020 09:51:49.578958 12689 net.cpp:408] drop4 -> drop4
I1020 09:51:49.578981 12689 net.cpp:150] Setting up drop4
I1020 09:51:49.578985 12689 net.cpp:157] Top shape: 100 280 2 2 (112000)
I1020 09:51:49.578987 12689 net.cpp:165] Memory required for data: 290815200
I1020 09:51:49.578989 12689 layer_factory.hpp:77] Creating layer pool4
I1020 09:51:49.578992 12689 net.cpp:100] Creating Layer pool4
I1020 09:51:49.578994 12689 net.cpp:434] pool4 <- drop4
I1020 09:51:49.578997 12689 net.cpp:408] pool4 -> pool4
I1020 09:51:49.579020 12689 net.cpp:150] Setting up pool4
I1020 09:51:49.579025 12689 net.cpp:157] Top shape: 100 280 1 1 (28000)
I1020 09:51:49.579026 12689 net.cpp:165] Memory required for data: 290927200
I1020 09:51:49.579028 12689 layer_factory.hpp:77] Creating layer conv8
I1020 09:51:49.579032 12689 net.cpp:100] Creating Layer conv8
I1020 09:51:49.579035 12689 net.cpp:434] conv8 <- pool4
I1020 09:51:49.579037 12689 net.cpp:408] conv8 -> conv8
I1020 09:51:49.580257 12689 net.cpp:150] Setting up conv8
I1020 09:51:49.580268 12689 net.cpp:157] Top shape: 100 280 1 1 (28000)
I1020 09:51:49.580271 12689 net.cpp:165] Memory required for data: 291039200
I1020 09:51:49.580276 12689 layer_factory.hpp:77] Creating layer relu8
I1020 09:51:49.580279 12689 net.cpp:100] Creating Layer relu8
I1020 09:51:49.580282 12689 net.cpp:434] relu8 <- conv8
I1020 09:51:49.580303 12689 net.cpp:408] relu8 -> relu8
I1020 09:51:49.580557 12689 net.cpp:150] Setting up relu8
I1020 09:51:49.580567 12689 net.cpp:157] Top shape: 100 280 1 1 (28000)
I1020 09:51:49.580571 12689 net.cpp:165] Memory required for data: 291151200
I1020 09:51:49.580575 12689 layer_factory.hpp:77] Creating layer drop5
I1020 09:51:49.580581 12689 net.cpp:100] Creating Layer drop5
I1020 09:51:49.580586 12689 net.cpp:434] drop5 <- relu8
I1020 09:51:49.580592 12689 net.cpp:408] drop5 -> drop5
I1020 09:51:49.580628 12689 net.cpp:150] Setting up drop5
I1020 09:51:49.580634 12689 net.cpp:157] Top shape: 100 280 1 1 (28000)
I1020 09:51:49.580637 12689 net.cpp:165] Memory required for data: 291263200
I1020 09:51:49.580641 12689 layer_factory.hpp:77] Creating layer pool5
I1020 09:51:49.580648 12689 net.cpp:100] Creating Layer pool5
I1020 09:51:49.580651 12689 net.cpp:434] pool5 <- drop5
I1020 09:51:49.580657 12689 net.cpp:408] pool5 -> pool5
I1020 09:51:49.580693 12689 net.cpp:150] Setting up pool5
I1020 09:51:49.580701 12689 net.cpp:157] Top shape: 100 280 1 1 (28000)
I1020 09:51:49.580704 12689 net.cpp:165] Memory required for data: 291375200
I1020 09:51:49.580708 12689 layer_factory.hpp:77] Creating layer conv10
I1020 09:51:49.580715 12689 net.cpp:100] Creating Layer conv10
I1020 09:51:49.580720 12689 net.cpp:434] conv10 <- pool5
I1020 09:51:49.580725 12689 net.cpp:408] conv10 -> conv10
I1020 09:51:49.582002 12689 net.cpp:150] Setting up conv10
I1020 09:51:49.582011 12689 net.cpp:157] Top shape: 100 300 1 1 (30000)
I1020 09:51:49.582015 12689 net.cpp:165] Memory required for data: 291495200
I1020 09:51:49.582021 12689 layer_factory.hpp:77] Creating layer relu10
I1020 09:51:49.582026 12689 net.cpp:100] Creating Layer relu10
I1020 09:51:49.582028 12689 net.cpp:434] relu10 <- conv10
I1020 09:51:49.582033 12689 net.cpp:408] relu10 -> relu10
I1020 09:51:49.582145 12689 net.cpp:150] Setting up relu10
I1020 09:51:49.582150 12689 net.cpp:157] Top shape: 100 300 1 1 (30000)
I1020 09:51:49.582152 12689 net.cpp:165] Memory required for data: 291615200
I1020 09:51:49.582155 12689 layer_factory.hpp:77] Creating layer drop6
I1020 09:51:49.582159 12689 net.cpp:100] Creating Layer drop6
I1020 09:51:49.582162 12689 net.cpp:434] drop6 <- relu10
I1020 09:51:49.582165 12689 net.cpp:408] drop6 -> drop6
I1020 09:51:49.582190 12689 net.cpp:150] Setting up drop6
I1020 09:51:49.582193 12689 net.cpp:157] Top shape: 100 300 1 1 (30000)
I1020 09:51:49.582195 12689 net.cpp:165] Memory required for data: 291735200
I1020 09:51:49.582197 12689 layer_factory.hpp:77] Creating layer pool6
I1020 09:51:49.582207 12689 net.cpp:100] Creating Layer pool6
I1020 09:51:49.582211 12689 net.cpp:434] pool6 <- drop6
I1020 09:51:49.582216 12689 net.cpp:408] pool6 -> pool6
I1020 09:51:49.582242 12689 net.cpp:150] Setting up pool6
I1020 09:51:49.582245 12689 net.cpp:157] Top shape: 100 300 1 1 (30000)
I1020 09:51:49.582247 12689 net.cpp:165] Memory required for data: 291855200
I1020 09:51:49.582249 12689 layer_factory.hpp:77] Creating layer conv11
I1020 09:51:49.582254 12689 net.cpp:100] Creating Layer conv11
I1020 09:51:49.582257 12689 net.cpp:434] conv11 <- pool6
I1020 09:51:49.582260 12689 net.cpp:408] conv11 -> conv11
I1020 09:51:49.582998 12689 net.cpp:150] Setting up conv11
I1020 09:51:49.583006 12689 net.cpp:157] Top shape: 100 100 1 1 (10000)
I1020 09:51:49.583009 12689 net.cpp:165] Memory required for data: 291895200
I1020 09:51:49.583012 12689 layer_factory.hpp:77] Creating layer relu11
I1020 09:51:49.583016 12689 net.cpp:100] Creating Layer relu11
I1020 09:51:49.583019 12689 net.cpp:434] relu11 <- conv11
I1020 09:51:49.583024 12689 net.cpp:408] relu11 -> relu11
I1020 09:51:49.583135 12689 net.cpp:150] Setting up relu11
I1020 09:51:49.583142 12689 net.cpp:157] Top shape: 100 100 1 1 (10000)
I1020 09:51:49.583143 12689 net.cpp:165] Memory required for data: 291935200
I1020 09:51:49.583145 12689 layer_factory.hpp:77] Creating layer drop7
I1020 09:51:49.583149 12689 net.cpp:100] Creating Layer drop7
I1020 09:51:49.583151 12689 net.cpp:434] drop7 <- relu11
I1020 09:51:49.583163 12689 net.cpp:408] drop7 -> drop7
I1020 09:51:49.583189 12689 net.cpp:150] Setting up drop7
I1020 09:51:49.583194 12689 net.cpp:157] Top shape: 100 100 1 1 (10000)
I1020 09:51:49.583194 12689 net.cpp:165] Memory required for data: 291975200
I1020 09:51:49.583196 12689 layer_factory.hpp:77] Creating layer pool7
I1020 09:51:49.583200 12689 net.cpp:100] Creating Layer pool7
I1020 09:51:49.583202 12689 net.cpp:434] pool7 <- drop7
I1020 09:51:49.583205 12689 net.cpp:408] pool7 -> pool7
I1020 09:51:49.583227 12689 net.cpp:150] Setting up pool7
I1020 09:51:49.583231 12689 net.cpp:157] Top shape: 100 100 1 1 (10000)
I1020 09:51:49.583233 12689 net.cpp:165] Memory required for data: 292015200
I1020 09:51:49.583235 12689 layer_factory.hpp:77] Creating layer pool7_pool7_0_split
I1020 09:51:49.583238 12689 net.cpp:100] Creating Layer pool7_pool7_0_split
I1020 09:51:49.583241 12689 net.cpp:434] pool7_pool7_0_split <- pool7
I1020 09:51:49.583243 12689 net.cpp:408] pool7_pool7_0_split -> pool7_pool7_0_split_0
I1020 09:51:49.583247 12689 net.cpp:408] pool7_pool7_0_split -> pool7_pool7_0_split_1
I1020 09:51:49.583271 12689 net.cpp:150] Setting up pool7_pool7_0_split
I1020 09:51:49.583274 12689 net.cpp:157] Top shape: 100 100 1 1 (10000)
I1020 09:51:49.583276 12689 net.cpp:157] Top shape: 100 100 1 1 (10000)
I1020 09:51:49.583278 12689 net.cpp:165] Memory required for data: 292095200
I1020 09:51:49.583279 12689 layer_factory.hpp:77] Creating layer ip_c
I1020 09:51:49.583284 12689 net.cpp:100] Creating Layer ip_c
I1020 09:51:49.583287 12689 net.cpp:434] ip_c <- pool7_pool7_0_split_0
I1020 09:51:49.583290 12689 net.cpp:408] ip_c -> ip_c
I1020 09:51:49.583369 12689 net.cpp:150] Setting up ip_c
I1020 09:51:49.583372 12689 net.cpp:157] Top shape: 100 20 (2000)
I1020 09:51:49.583374 12689 net.cpp:165] Memory required for data: 292103200
I1020 09:51:49.583377 12689 layer_factory.hpp:77] Creating layer ip_c_ip_c_0_split
I1020 09:51:49.583381 12689 net.cpp:100] Creating Layer ip_c_ip_c_0_split
I1020 09:51:49.583384 12689 net.cpp:434] ip_c_ip_c_0_split <- ip_c
I1020 09:51:49.583387 12689 net.cpp:408] ip_c_ip_c_0_split -> ip_c_ip_c_0_split_0
I1020 09:51:49.583391 12689 net.cpp:408] ip_c_ip_c_0_split -> ip_c_ip_c_0_split_1
I1020 09:51:49.583413 12689 net.cpp:150] Setting up ip_c_ip_c_0_split
I1020 09:51:49.583417 12689 net.cpp:157] Top shape: 100 20 (2000)
I1020 09:51:49.583420 12689 net.cpp:157] Top shape: 100 20 (2000)
I1020 09:51:49.583420 12689 net.cpp:165] Memory required for data: 292119200
I1020 09:51:49.583422 12689 layer_factory.hpp:77] Creating layer accuracy_f
I1020 09:51:49.583426 12689 net.cpp:100] Creating Layer accuracy_f
I1020 09:51:49.583428 12689 net.cpp:434] accuracy_f <- ip_c_ip_c_0_split_0
I1020 09:51:49.583431 12689 net.cpp:434] accuracy_f <- label_coarse_data_1_split_0
I1020 09:51:49.583434 12689 net.cpp:408] accuracy_f -> accuracy_f
…
