…
train_state {
  level: 0
  stage: ""
}
type: "Adam"
I1018 01:15:12.147369 12689 solver.cpp:81] Creating training net from train_net file: /home/adam/Honours/Honours-Project/cifar-100_pooling/max/elu/poolcnn_elu_train.prototxt
I1018 01:15:12.147708 12689 net.cpp:58] Initializing net from parameters: 
state {
  phase: TRAIN
  level: 0
  stage: ""
}
layer {
  name: "data"
  type: "HDF5Data"
  top: "data"
  top: "label_coarse"
  top: "label_fine"
  hdf5_data_param {
    source: "../../../../data/cifar-100/cifar_100_caffe_hdf5/train.txt"
    batch_size: 64
  }
}
layer {
  name: "conv1"
  type: "Convolution"
  bottom: "data"
  top: "conv1"
  convolution_param {
    num_output: 192
    kernel_size: 5
    weight_filler {
      type: "xavier"
    }
  }
}
layer {
  name: "pool1"
  type: "Pooling"
  bottom: "conv1"
  top: "pool1"
  pooling_param {
    pool: MAX
    kernel_size: 2
    stride: 2
  }
}
layer {
  name: "drop1"
  type: "Dropout"
  bottom: "pool1"
  top: "drop1"
  dropout_param {
    dropout_ratio: 0
  }
}
layer {
  name: "elu1"
  type: "ELU"
  bottom: "drop1"
  top: "elu1"
}
layer {
  name: "conv2"
  type: "Convolution"
  bottom: "elu1"
  top: "conv2"
  convolution_param {
    num_output: 192
    kernel_size: 1
    weight_filler {
      type: "xavier"
    }
  }
}
layer {
  name: "conv3"
  type: "Convolution"
  bottom: "conv2"
  top: "conv3"
  convolution_param {
    num_output: 240
    kernel_size: 3
    weight_filler {
      type: "xavier"
    }
  }
}
layer {
  name: "pool2"
  type: "Pooling"
  bottom: "conv3"
  top: "pool2"
  pooling_param {
    pool: MAX
    kernel_size: 2
    stride: 2
  }
}
layer {
  name: "drop2"
  type: "Dropout"
  bottom: "pool2"
  top: "drop2"
  dropout_param {
    dropout_ratio: 0.1
  }
}
layer {
  name: "elu2"
  type: "ELU"
  bottom: "drop2"
  top: "elu2"
}
layer {
  name: "conv4"
  type: "Convolution"
  bottom: "elu2"
  top: "conv4"
  convolution_param {
    num_output: 240
    kernel_size: 1
    weight_filler {
      type: "xavier"
    }
  }
}
layer {
  name: "conv5"
  type: "Convolution"
  bottom: "conv4"
  top: "conv5"
  convolution_param {
    num_output: 260
    kernel_size: 2
    weight_filler {
      type: "xavier"
    }
  }
}
layer {
  name: "pool3"
  type: "Pooling"
  bottom: "conv5"
  top: "pool3"
  pooling_param {
    pool: MAX
    kernel_size: 2
    stride: 2
  }
}
layer {
  name: "drop3"
  type: "Dropout"
  bottom: "pool3"
  top: "drop3"
  dropout_param {
    dropout_ratio: 0.2
  }
}
layer {
  name: "elu3"
  type: "ELU"
  bottom: "drop3"
  top: "elu3"
}
layer {
  name: "conv6"
  type: "Convolution"
  bottom: "elu3"
  top: "conv6"
  convolution_param {
    num_output: 260
    kernel_size: 1
    weight_filler {
      type: "xavier"
    }
  }
}
layer {
  name: "conv7"
  type: "Convolution"
  bottom: "conv6"
  top: "conv7"
  convolution_param {
    num_output: 280
    kernel_size: 2
    weight_filler {
      type: "xavier"
    }
  }
}
layer {
  name: "pool4"
  type: "Pooling"
  bottom: "conv7"
  top: "pool4"
  pooling_param {
    pool: MAX
    kernel_size: 2
    stride: 2
  }
}
layer {
  name: "drop4"
  type: "Dropout"
  bottom: "pool4"
  top: "drop4"
  dropout_param {
    dropout_ratio: 0.3
  }
}
layer {
  name: "elu4"
  type: "ELU"
  bottom: "drop4"
  top: "elu4"
}
layer {
  name: "conv8"
  type: "Convolution"
  bottom: "elu4"
  top: "conv8"
  convolution_param {
    num_output: 280
    kernel_size: 1
    weight_filler {
      type: "xavier"
    }
  }
}
layer {
  name: "pool5"
  type: "Pooling"
  bottom: "conv8"
  top: "pool5"
  pooling_param {
    pool: MAX
    kernel_size: 2
    stride: 2
  }
}
layer {
  name: "drop5"
  type: "Dropout"
  bottom: "pool5"
  top: "drop5"
  dropout_param {
    dropout_ratio: 0.4
  }
}
layer {
  name: "elu5"
  type: "ELU"
  bottom: "drop5"
  top: "elu5"
}
layer {
  name: "conv10"
  type: "Convolution"
  bottom: "elu5"
  top: "conv10"
  convolution_param {
    num_output: 300
    kernel_size: 1
    weight_filler {
      type: "xavier"
    }
  }
}
layer {
  name: "pool6"
  type: "Pooling"
  bottom: "conv10"
  top: "pool6"
  pooling_param {
    pool: MAX
    kernel_size: 2
    stride: 2
  }
}
layer {
  name: "drop6"
  type: "Dropout"
  bottom: "pool6"
  top: "drop6"
  dropout_param {
    dropout_ratio: 0.5
  }
}
layer {
  name: "elu6"
  type: "ELU"
  bottom: "drop6"
  top: "elu6"
}
layer {
  name: "conv11"
  type: "Convolution"
  bottom: "elu6"
  top: "conv11"
  convolution_param {
    num_output: 100
    kernel_size: 1
    weight_filler {
      type: "xavier"
    }
  }
}
layer {
  name: "pool7"
  type: "Pooling"
  bottom: "conv11"
  top: "pool7"
  pooling_param {
    pool: MAX
    kernel_size: 2
    stride: 2
  }
}
layer {
  name: "drop7"
  type: "Dropout"
  bottom: "pool7"
  top: "drop7"
  dropout_param {
    dropout_ratio: 0
  }
}
layer {
  name: "elu7"
  type: "ELU"
  bottom: "drop7"
  top: "elu7"
}
layer {
  name: "pool"
  type: "Pooling"
  bottom: "elu7"
  top: "pool"
  pooling_param {
    pool: AVE
    global_pooling: true
  }
}
layer {
  name: "flatten"
  type: "Flatten"
  bottom: "pool"
  top: "flatten"
}
layer {
  name: "ip_c"
  type: "InnerProduct"
  bottom: "flatten"
  top: "ip_c"
  inner_product_param {
    num_output: 20
    weight_filler {
      type: "xavier"
    }
  }
}
layer {
  name: "accuracy_f"
  type: "Accuracy"
  bottom: "ip_c"
  bottom: "label_coarse"
  top: "accuracy_f"
}
layer {
  name: "loss_c"
  type: "SoftmaxWithLoss"
  bottom: "ip_c"
  bottom: "label_coarse"
  top: "loss_c"
}
layer {
  name: "ip_f"
  type: "InnerProduct"
  bottom: "flatten"
  top: "ip_f"
  inner_product_param {
    num_output: 100
    weight_filler {
      type: "xavier"
    }
  }
}
layer {
  name: "accuracy"
  type: "Accuracy"
  bottom: "ip_f"
  bottom: "label_fine"
  top: "accuracy"
}
layer {
  name: "loss_f"
  type: "SoftmaxWithLoss"
  bottom: "ip_f"
  bottom: "label_fine"
  top: "loss_f"
}
I1018 01:15:12.147845 12689 layer_factory.hpp:77] Creating layer data
I1018 01:15:12.147856 12689 net.cpp:100] Creating Layer data
I1018 01:15:12.147861 12689 net.cpp:408] data -> data
I1018 01:15:12.147876 12689 net.cpp:408] data -> label_coarse
I1018 01:15:12.147881 12689 net.cpp:408] data -> label_fine
I1018 01:15:12.147886 12689 hdf5_data_layer.cpp:79] Loading list of HDF5 filenames from: ../../../../data/cifar-100/cifar_100_caffe_hdf5/train.txt
I1018 01:15:12.147904 12689 hdf5_data_layer.cpp:93] Number of HDF5 files: 1
I1018 01:15:12.148528 12689 hdf5.cpp:35] Datatype class: H5T_INTEGER
I1018 01:15:13.826768 12689 net.cpp:150] Setting up data
I1018 01:15:13.826792 12689 net.cpp:157] Top shape: 64 3 32 32 (196608)
I1018 01:15:13.826795 12689 net.cpp:157] Top shape: 64 (64)
I1018 01:15:13.826797 12689 net.cpp:157] Top shape: 64 (64)
I1018 01:15:13.826799 12689 net.cpp:165] Memory required for data: 786944
I1018 01:15:13.826807 12689 layer_factory.hpp:77] Creating layer label_coarse_data_1_split
I1018 01:15:13.826815 12689 net.cpp:100] Creating Layer label_coarse_data_1_split
I1018 01:15:13.826819 12689 net.cpp:434] label_coarse_data_1_split <- label_coarse
I1018 01:15:13.826830 12689 net.cpp:408] label_coarse_data_1_split -> label_coarse_data_1_split_0
I1018 01:15:13.826840 12689 net.cpp:408] label_coarse_data_1_split -> label_coarse_data_1_split_1
I1018 01:15:13.826867 12689 net.cpp:150] Setting up label_coarse_data_1_split
I1018 01:15:13.826871 12689 net.cpp:157] Top shape: 64 (64)
I1018 01:15:13.826874 12689 net.cpp:157] Top shape: 64 (64)
I1018 01:15:13.826875 12689 net.cpp:165] Memory required for data: 787456
I1018 01:15:13.826877 12689 layer_factory.hpp:77] Creating layer label_fine_data_2_split
I1018 01:15:13.826881 12689 net.cpp:100] Creating Layer label_fine_data_2_split
I1018 01:15:13.826896 12689 net.cpp:434] label_fine_data_2_split <- label_fine
I1018 01:15:13.826901 12689 net.cpp:408] label_fine_data_2_split -> label_fine_data_2_split_0
I1018 01:15:13.826905 12689 net.cpp:408] label_fine_data_2_split -> label_fine_data_2_split_1
I1018 01:15:13.826926 12689 net.cpp:150] Setting up label_fine_data_2_split
I1018 01:15:13.826930 12689 net.cpp:157] Top shape: 64 (64)
I1018 01:15:13.826933 12689 net.cpp:157] Top shape: 64 (64)
I1018 01:15:13.826934 12689 net.cpp:165] Memory required for data: 787968
I1018 01:15:13.826936 12689 layer_factory.hpp:77] Creating layer conv1
I1018 01:15:13.826946 12689 net.cpp:100] Creating Layer conv1
I1018 01:15:13.826948 12689 net.cpp:434] conv1 <- data
I1018 01:15:13.826951 12689 net.cpp:408] conv1 -> conv1
I1018 01:15:13.947268 12689 net.cpp:150] Setting up conv1
I1018 01:15:13.947288 12689 net.cpp:157] Top shape: 64 192 28 28 (9633792)
I1018 01:15:13.947291 12689 net.cpp:165] Memory required for data: 39323136
I1018 01:15:13.947309 12689 layer_factory.hpp:77] Creating layer pool1
I1018 01:15:13.947319 12689 net.cpp:100] Creating Layer pool1
I1018 01:15:13.947321 12689 net.cpp:434] pool1 <- conv1
I1018 01:15:13.947326 12689 net.cpp:408] pool1 -> pool1
I1018 01:15:13.947371 12689 net.cpp:150] Setting up pool1
I1018 01:15:13.947376 12689 net.cpp:157] Top shape: 64 192 14 14 (2408448)
I1018 01:15:13.947377 12689 net.cpp:165] Memory required for data: 48956928
I1018 01:15:13.947379 12689 layer_factory.hpp:77] Creating layer drop1
I1018 01:15:13.947383 12689 net.cpp:100] Creating Layer drop1
I1018 01:15:13.947386 12689 net.cpp:434] drop1 <- pool1
I1018 01:15:13.947388 12689 net.cpp:408] drop1 -> drop1
I1018 01:15:13.947413 12689 net.cpp:150] Setting up drop1
I1018 01:15:13.947418 12689 net.cpp:157] Top shape: 64 192 14 14 (2408448)
I1018 01:15:13.947422 12689 net.cpp:165] Memory required for data: 58590720
I1018 01:15:13.947424 12689 layer_factory.hpp:77] Creating layer elu1
I1018 01:15:13.947429 12689 net.cpp:100] Creating Layer elu1
I1018 01:15:13.947433 12689 net.cpp:434] elu1 <- drop1
I1018 01:15:13.947438 12689 net.cpp:408] elu1 -> elu1
I1018 01:15:13.947453 12689 net.cpp:150] Setting up elu1
I1018 01:15:13.947458 12689 net.cpp:157] Top shape: 64 192 14 14 (2408448)
I1018 01:15:13.947459 12689 net.cpp:165] Memory required for data: 68224512
I1018 01:15:13.947460 12689 layer_factory.hpp:77] Creating layer conv2
I1018 01:15:13.947468 12689 net.cpp:100] Creating Layer conv2
I1018 01:15:13.947470 12689 net.cpp:434] conv2 <- elu1
I1018 01:15:13.947473 12689 net.cpp:408] conv2 -> conv2
I1018 01:15:13.948220 12689 net.cpp:150] Setting up conv2
I1018 01:15:13.948227 12689 net.cpp:157] Top shape: 64 192 14 14 (2408448)
I1018 01:15:13.948230 12689 net.cpp:165] Memory required for data: 77858304
I1018 01:15:13.948236 12689 layer_factory.hpp:77] Creating layer conv3
I1018 01:15:13.948242 12689 net.cpp:100] Creating Layer conv3
I1018 01:15:13.948245 12689 net.cpp:434] conv3 <- conv2
I1018 01:15:13.948248 12689 net.cpp:408] conv3 -> conv3
I1018 01:15:13.950680 12689 net.cpp:150] Setting up conv3
I1018 01:15:13.950688 12689 net.cpp:157] Top shape: 64 240 12 12 (2211840)
I1018 01:15:13.950691 12689 net.cpp:165] Memory required for data: 86705664
I1018 01:15:13.950696 12689 layer_factory.hpp:77] Creating layer pool2
I1018 01:15:13.950700 12689 net.cpp:100] Creating Layer pool2
I1018 01:15:13.950702 12689 net.cpp:434] pool2 <- conv3
I1018 01:15:13.950707 12689 net.cpp:408] pool2 -> pool2
I1018 01:15:13.950731 12689 net.cpp:150] Setting up pool2
I1018 01:15:13.950736 12689 net.cpp:157] Top shape: 64 240 6 6 (552960)
I1018 01:15:13.950736 12689 net.cpp:165] Memory required for data: 88917504
I1018 01:15:13.950738 12689 layer_factory.hpp:77] Creating layer drop2
I1018 01:15:13.950742 12689 net.cpp:100] Creating Layer drop2
I1018 01:15:13.950744 12689 net.cpp:434] drop2 <- pool2
I1018 01:15:13.950747 12689 net.cpp:408] drop2 -> drop2
I1018 01:15:13.950767 12689 net.cpp:150] Setting up drop2
I1018 01:15:13.950770 12689 net.cpp:157] Top shape: 64 240 6 6 (552960)
I1018 01:15:13.950783 12689 net.cpp:165] Memory required for data: 91129344
I1018 01:15:13.950784 12689 layer_factory.hpp:77] Creating layer elu2
I1018 01:15:13.950788 12689 net.cpp:100] Creating Layer elu2
I1018 01:15:13.950789 12689 net.cpp:434] elu2 <- drop2
I1018 01:15:13.950793 12689 net.cpp:408] elu2 -> elu2
I1018 01:15:13.950804 12689 net.cpp:150] Setting up elu2
I1018 01:15:13.950808 12689 net.cpp:157] Top shape: 64 240 6 6 (552960)
I1018 01:15:13.950810 12689 net.cpp:165] Memory required for data: 93341184
I1018 01:15:13.950811 12689 layer_factory.hpp:77] Creating layer conv4
I1018 01:15:13.950817 12689 net.cpp:100] Creating Layer conv4
I1018 01:15:13.950819 12689 net.cpp:434] conv4 <- elu2
I1018 01:15:13.950822 12689 net.cpp:408] conv4 -> conv4
I1018 01:15:13.951634 12689 net.cpp:150] Setting up conv4
I1018 01:15:13.951642 12689 net.cpp:157] Top shape: 64 240 6 6 (552960)
I1018 01:15:13.951645 12689 net.cpp:165] Memory required for data: 95553024
I1018 01:15:13.951649 12689 layer_factory.hpp:77] Creating layer conv5
I1018 01:15:13.951654 12689 net.cpp:100] Creating Layer conv5
I1018 01:15:13.951656 12689 net.cpp:434] conv5 <- conv4
I1018 01:15:13.951659 12689 net.cpp:408] conv5 -> conv5
I1018 01:15:13.953392 12689 net.cpp:150] Setting up conv5
I1018 01:15:13.953399 12689 net.cpp:157] Top shape: 64 260 5 5 (416000)
I1018 01:15:13.953402 12689 net.cpp:165] Memory required for data: 97217024
I1018 01:15:13.953408 12689 layer_factory.hpp:77] Creating layer pool3
I1018 01:15:13.953411 12689 net.cpp:100] Creating Layer pool3
I1018 01:15:13.953413 12689 net.cpp:434] pool3 <- conv5
I1018 01:15:13.953418 12689 net.cpp:408] pool3 -> pool3
I1018 01:15:13.953440 12689 net.cpp:150] Setting up pool3
I1018 01:15:13.953445 12689 net.cpp:157] Top shape: 64 260 3 3 (149760)
I1018 01:15:13.953446 12689 net.cpp:165] Memory required for data: 97816064
I1018 01:15:13.953449 12689 layer_factory.hpp:77] Creating layer drop3
I1018 01:15:13.953451 12689 net.cpp:100] Creating Layer drop3
I1018 01:15:13.953454 12689 net.cpp:434] drop3 <- pool3
I1018 01:15:13.953457 12689 net.cpp:408] drop3 -> drop3
I1018 01:15:13.953476 12689 net.cpp:150] Setting up drop3
I1018 01:15:13.953480 12689 net.cpp:157] Top shape: 64 260 3 3 (149760)
I1018 01:15:13.953481 12689 net.cpp:165] Memory required for data: 98415104
I1018 01:15:13.953482 12689 layer_factory.hpp:77] Creating layer elu3
I1018 01:15:13.953487 12689 net.cpp:100] Creating Layer elu3
I1018 01:15:13.953490 12689 net.cpp:434] elu3 <- drop3
I1018 01:15:13.953492 12689 net.cpp:408] elu3 -> elu3
I1018 01:15:13.953505 12689 net.cpp:150] Setting up elu3
I1018 01:15:13.953508 12689 net.cpp:157] Top shape: 64 260 3 3 (149760)
I1018 01:15:13.953510 12689 net.cpp:165] Memory required for data: 99014144
I1018 01:15:13.953512 12689 layer_factory.hpp:77] Creating layer conv6
I1018 01:15:13.953517 12689 net.cpp:100] Creating Layer conv6
I1018 01:15:13.953521 12689 net.cpp:434] conv6 <- elu3
I1018 01:15:13.953523 12689 net.cpp:408] conv6 -> conv6
I1018 01:15:13.954622 12689 net.cpp:150] Setting up conv6
I1018 01:15:13.954630 12689 net.cpp:157] Top shape: 64 260 3 3 (149760)
I1018 01:15:13.954632 12689 net.cpp:165] Memory required for data: 99613184
I1018 01:15:13.954637 12689 layer_factory.hpp:77] Creating layer conv7
I1018 01:15:13.954643 12689 net.cpp:100] Creating Layer conv7
I1018 01:15:13.954645 12689 net.cpp:434] conv7 <- conv6
I1018 01:15:13.954649 12689 net.cpp:408] conv7 -> conv7
I1018 01:15:13.956475 12689 net.cpp:150] Setting up conv7
I1018 01:15:13.956483 12689 net.cpp:157] Top shape: 64 280 2 2 (71680)
I1018 01:15:13.956486 12689 net.cpp:165] Memory required for data: 99899904
I1018 01:15:13.956490 12689 layer_factory.hpp:77] Creating layer pool4
I1018 01:15:13.956496 12689 net.cpp:100] Creating Layer pool4
I1018 01:15:13.956498 12689 net.cpp:434] pool4 <- conv7
I1018 01:15:13.956501 12689 net.cpp:408] pool4 -> pool4
I1018 01:15:13.956526 12689 net.cpp:150] Setting up pool4
I1018 01:15:13.956529 12689 net.cpp:157] Top shape: 64 280 1 1 (17920)
I1018 01:15:13.956532 12689 net.cpp:165] Memory required for data: 99971584
I1018 01:15:13.956542 12689 layer_factory.hpp:77] Creating layer drop4
I1018 01:15:13.956545 12689 net.cpp:100] Creating Layer drop4
I1018 01:15:13.956548 12689 net.cpp:434] drop4 <- pool4
I1018 01:15:13.956553 12689 net.cpp:408] drop4 -> drop4
I1018 01:15:13.956575 12689 net.cpp:150] Setting up drop4
I1018 01:15:13.956580 12689 net.cpp:157] Top shape: 64 280 1 1 (17920)
I1018 01:15:13.956583 12689 net.cpp:165] Memory required for data: 100043264
I1018 01:15:13.956584 12689 layer_factory.hpp:77] Creating layer elu4
I1018 01:15:13.956588 12689 net.cpp:100] Creating Layer elu4
I1018 01:15:13.956589 12689 net.cpp:434] elu4 <- drop4
I1018 01:15:13.956591 12689 net.cpp:408] elu4 -> elu4
I1018 01:15:13.956605 12689 net.cpp:150] Setting up elu4
I1018 01:15:13.956609 12689 net.cpp:157] Top shape: 64 280 1 1 (17920)
I1018 01:15:13.956610 12689 net.cpp:165] Memory required for data: 100114944
I1018 01:15:13.956612 12689 layer_factory.hpp:77] Creating layer conv8
I1018 01:15:13.956616 12689 net.cpp:100] Creating Layer conv8
I1018 01:15:13.956619 12689 net.cpp:434] conv8 <- elu4
I1018 01:15:13.956622 12689 net.cpp:408] conv8 -> conv8
I1018 01:15:13.957556 12689 net.cpp:150] Setting up conv8
I1018 01:15:13.957566 12689 net.cpp:157] Top shape: 64 280 1 1 (17920)
I1018 01:15:13.957567 12689 net.cpp:165] Memory required for data: 100186624
I1018 01:15:13.957571 12689 layer_factory.hpp:77] Creating layer pool5
I1018 01:15:13.957576 12689 net.cpp:100] Creating Layer pool5
I1018 01:15:13.957578 12689 net.cpp:434] pool5 <- conv8
I1018 01:15:13.957582 12689 net.cpp:408] pool5 -> pool5
I1018 01:15:13.957607 12689 net.cpp:150] Setting up pool5
I1018 01:15:13.957610 12689 net.cpp:157] Top shape: 64 280 1 1 (17920)
I1018 01:15:13.957612 12689 net.cpp:165] Memory required for data: 100258304
I1018 01:15:13.957615 12689 layer_factory.hpp:77] Creating layer drop5
I1018 01:15:13.957620 12689 net.cpp:100] Creating Layer drop5
I1018 01:15:13.957624 12689 net.cpp:434] drop5 <- pool5
I1018 01:15:13.957628 12689 net.cpp:408] drop5 -> drop5
I1018 01:15:13.957653 12689 net.cpp:150] Setting up drop5
I1018 01:15:13.957657 12689 net.cpp:157] Top shape: 64 280 1 1 (17920)
I1018 01:15:13.957661 12689 net.cpp:165] Memory required for data: 100329984
I1018 01:15:13.957664 12689 layer_factory.hpp:77] Creating layer elu5
I1018 01:15:13.957674 12689 net.cpp:100] Creating Layer elu5
I1018 01:15:13.957675 12689 net.cpp:434] elu5 <- drop5
I1018 01:15:13.957680 12689 net.cpp:408] elu5 -> elu5
I1018 01:15:13.957695 12689 net.cpp:150] Setting up elu5
I1018 01:15:13.957700 12689 net.cpp:157] Top shape: 64 280 1 1 (17920)
I1018 01:15:13.957703 12689 net.cpp:165] Memory required for data: 100401664
I1018 01:15:13.957705 12689 layer_factory.hpp:77] Creating layer conv10
I1018 01:15:13.957712 12689 net.cpp:100] Creating Layer conv10
I1018 01:15:13.957716 12689 net.cpp:434] conv10 <- elu5
I1018 01:15:13.957721 12689 net.cpp:408] conv10 -> conv10
I1018 01:15:13.958642 12689 net.cpp:150] Setting up conv10
I1018 01:15:13.958649 12689 net.cpp:157] Top shape: 64 300 1 1 (19200)
I1018 01:15:13.958653 12689 net.cpp:165] Memory required for data: 100478464
I1018 01:15:13.958664 12689 layer_factory.hpp:77] Creating layer pool6
I1018 01:15:13.958670 12689 net.cpp:100] Creating Layer pool6
I1018 01:15:13.958674 12689 net.cpp:434] pool6 <- conv10
I1018 01:15:13.958678 12689 net.cpp:408] pool6 -> pool6
I1018 01:15:13.958706 12689 net.cpp:150] Setting up pool6
I1018 01:15:13.958710 12689 net.cpp:157] Top shape: 64 300 1 1 (19200)
I1018 01:15:13.958714 12689 net.cpp:165] Memory required for data: 100555264
I1018 01:15:13.958716 12689 layer_factory.hpp:77] Creating layer drop6
I1018 01:15:13.958722 12689 net.cpp:100] Creating Layer drop6
I1018 01:15:13.958725 12689 net.cpp:434] drop6 <- pool6
I1018 01:15:13.958730 12689 net.cpp:408] drop6 -> drop6
I1018 01:15:13.958756 12689 net.cpp:150] Setting up drop6
I1018 01:15:13.958761 12689 net.cpp:157] Top shape: 64 300 1 1 (19200)
I1018 01:15:13.958765 12689 net.cpp:165] Memory required for data: 100632064
I1018 01:15:13.958775 12689 layer_factory.hpp:77] Creating layer elu6
I1018 01:15:13.958781 12689 net.cpp:100] Creating Layer elu6
I1018 01:15:13.958784 12689 net.cpp:434] elu6 <- drop6
I1018 01:15:13.958788 12689 net.cpp:408] elu6 -> elu6
I1018 01:15:13.958806 12689 net.cpp:150] Setting up elu6
I1018 01:15:13.958809 12689 net.cpp:157] Top shape: 64 300 1 1 (19200)
I1018 01:15:13.958813 12689 net.cpp:165] Memory required for data: 100708864
I1018 01:15:13.958816 12689 layer_factory.hpp:77] Creating layer conv11
I1018 01:15:13.958822 12689 net.cpp:100] Creating Layer conv11
I1018 01:15:13.958824 12689 net.cpp:434] conv11 <- elu6
I1018 01:15:13.958828 12689 net.cpp:408] conv11 -> conv11
I1018 01:15:13.959597 12689 net.cpp:150] Setting up conv11
I1018 01:15:13.959605 12689 net.cpp:157] Top shape: 64 100 1 1 (6400)
I1018 01:15:13.959607 12689 net.cpp:165] Memory required for data: 100734464
I1018 01:15:13.959614 12689 layer_factory.hpp:77] Creating layer pool7
I1018 01:15:13.959619 12689 net.cpp:100] Creating Layer pool7
I1018 01:15:13.959624 12689 net.cpp:434] pool7 <- conv11
I1018 01:15:13.959628 12689 net.cpp:408] pool7 -> pool7
I1018 01:15:13.959656 12689 net.cpp:150] Setting up pool7
I1018 01:15:13.959661 12689 net.cpp:157] Top shape: 64 100 1 1 (6400)
I1018 01:15:13.959662 12689 net.cpp:165] Memory required for data: 100760064
I1018 01:15:13.959663 12689 layer_factory.hpp:77] Creating layer drop7
I1018 01:15:13.959671 12689 net.cpp:100] Creating Layer drop7
I1018 01:15:13.959673 12689 net.cpp:434] drop7 <- pool7
I1018 01:15:13.959676 12689 net.cpp:408] drop7 -> drop7
I1018 01:15:13.959697 12689 net.cpp:150] Setting up drop7
I1018 01:15:13.959702 12689 net.cpp:157] Top shape: 64 100 1 1 (6400)
I1018 01:15:13.959703 12689 net.cpp:165] Memory required for data: 100785664
I1018 01:15:13.959705 12689 layer_factory.hpp:77] Creating layer elu7
I1018 01:15:13.959707 12689 net.cpp:100] Creating Layer elu7
I1018 01:15:13.959709 12689 net.cpp:434] elu7 <- drop7
I1018 01:15:13.959712 12689 net.cpp:408] elu7 -> elu7
I1018 01:15:13.959724 12689 net.cpp:150] Setting up elu7
I1018 01:15:13.959728 12689 net.cpp:157] Top shape: 64 100 1 1 (6400)
I1018 01:15:13.959730 12689 net.cpp:165] Memory required for data: 100811264
I1018 01:15:13.959731 12689 layer_factory.hpp:77] Creating layer pool
I1018 01:15:13.959735 12689 net.cpp:100] Creating Layer pool
I1018 01:15:13.959738 12689 net.cpp:434] pool <- elu7
I1018 01:15:13.959743 12689 net.cpp:408] pool -> pool
I1018 01:15:13.959942 12689 net.cpp:150] Setting up pool
I1018 01:15:13.959949 12689 net.cpp:157] Top shape: 64 100 1 1 (6400)
I1018 01:15:13.959951 12689 net.cpp:165] Memory required for data: 100836864
I1018 01:15:13.959954 12689 layer_factory.hpp:77] Creating layer flatten
I1018 01:15:13.959956 12689 net.cpp:100] Creating Layer flatten
I1018 01:15:13.959959 12689 net.cpp:434] flatten <- pool
I1018 01:15:13.959961 12689 net.cpp:408] flatten -> flatten
I1018 01:15:13.959977 12689 net.cpp:150] Setting up flatten
I1018 01:15:13.959981 12689 net.cpp:157] Top shape: 64 100 (6400)
I1018 01:15:13.959983 12689 net.cpp:165] Memory required for data: 100862464
I1018 01:15:13.959985 12689 layer_factory.hpp:77] Creating layer flatten_flatten_0_split
I1018 01:15:13.959988 12689 net.cpp:100] Creating Layer flatten_flatten_0_split
I1018 01:15:13.959991 12689 net.cpp:434] flatten_flatten_0_split <- flatten
I1018 01:15:13.959995 12689 net.cpp:408] flatten_flatten_0_split -> flatten_flatten_0_split_0
I1018 01:15:13.959998 12689 net.cpp:408] flatten_flatten_0_split -> flatten_flatten_0_split_1
I1018 01:15:13.960021 12689 net.cpp:150] Setting up flatten_flatten_0_split
I1018 01:15:13.960024 12689 net.cpp:157] Top shape: 64 100 (6400)
I1018 01:15:13.960026 12689 net.cpp:157] Top shape: 64 100 (6400)
I1018 01:15:13.960028 12689 net.cpp:165] Memory required for data: 100913664
I1018 01:15:13.960031 12689 layer_factory.hpp:77] Creating layer ip_c
I1018 01:15:13.960034 12689 net.cpp:100] Creating Layer ip_c
I1018 01:15:13.960037 12689 net.cpp:434] ip_c <- flatten_flatten_0_split_0
I1018 01:15:13.960041 12689 net.cpp:408] ip_c -> ip_c
I1018 01:15:13.960396 12689 net.cpp:150] Setting up ip_c
I1018 01:15:13.960402 12689 net.cpp:157] Top shape: 64 20 (1280)
I1018 01:15:13.960404 12689 net.cpp:165] Memory required for data: 100918784
I1018 01:15:13.960408 12689 layer_factory.hpp:77] Creating layer ip_c_ip_c_0_split
I1018 01:15:13.960413 12689 net.cpp:100] Creating Layer ip_c_ip_c_0_split
I1018 01:15:13.960415 12689 net.cpp:434] ip_c_ip_c_0_split <- ip_c
I1018 01:15:13.960419 12689 net.cpp:408] ip_c_ip_c_0_split -> ip_c_ip_c_0_split_0
I1018 01:15:13.960424 12689 net.cpp:408] ip_c_ip_c_0_split -> ip_c_ip_c_0_split_1
I1018 01:15:13.960445 12689 net.cpp:150] Setting up ip_c_ip_c_0_split
I1018 01:15:13.960449 12689 net.cpp:157] Top shape: 64 20 (1280)
I1018 01:15:13.960451 12689 net.cpp:157] Top shape: 64 20 (1280)
I1018 01:15:13.960453 12689 net.cpp:165] Memory required for data: 100929024
I1018 01:15:13.960458 12689 layer_factory.hpp:77] Creating layer accuracy_f
I1018 01:15:13.960463 12689 net.cpp:100] Creating Layer accuracy_f
I1018 01:15:13.960465 12689 net.cpp:434] accuracy_f <- ip_c_ip_c_0_split_0
I1018 01:15:13.960469 12689 net.cpp:434] accuracy_f <- label_coarse_data_1_split_0
I1018 01:15:13.960474 12689 net.cpp:408] accuracy_f -> accuracy_f
…
I1018 01:15:13.961376 12689 net.cpp:283] Network initialization done.
I1018 01:15:13.961571 12689 solver.cpp:181] Creating test net (#0) specified by test_net file: /home/adam/Honours/Honours-Project/cifar-100_pooling/max/elu/poolcnn_elu_test.prototxt
I1018 01:15:13.961694 12689 net.cpp:58] Initializing net from parameters: 
state {
  phase: TEST
}
layer {
  name: "data"
  type: "HDF5Data"
  top: "data"
  top: "label_coarse"
  top: "label_fine"
  hdf5_data_param {
    source: "../../../../data/cifar-100/cifar_100_caffe_hdf5/test.txt"
    batch_size: 100
  }
}
layer {
  name: "conv1"
  type: "Convolution"
  bottom: "data"
  top: "conv1"
  convolution_param {
    num_output: 192
    kernel_size: 5
    weight_filler {
      type: "xavier"
    }
  }
}
layer {
  name: "pool1"
  type: "Pooling"
  bottom: "conv1"
  top: "pool1"
  pooling_param {
    pool: MAX
    kernel_size: 2
    stride: 2
  }
}
layer {
  name: "drop1"
  type: "Dropout"
  bottom: "pool1"
  top: "drop1"
  dropout_param {
    dropout_ratio: 0
  }
}
layer {
  name: "elu1"
  type: "ELU"
  bottom: "drop1"
  top: "elu1"
}
layer {
  name: "conv2"
  type: "Convolution"
  bottom: "elu1"
  top: "conv2"
  convolution_param {
    num_output: 192
    kernel_size: 1
    weight_filler {
      type: "xavier"
    }
  }
}
layer {
  name: "conv3"
  type: "Convolution"
  bottom: "conv2"
  top: "conv3"
  convolution_param {
    num_output: 240
    kernel_size: 3
    weight_filler {
      type: "xavier"
    }
  }
}
layer {
  name: "pool2"
  type: "Pooling"
  bottom: "conv3"
  top: "pool2"
  pooling_param {
    pool: MAX
    kernel_size: 2
    stride: 2
  }
}
layer {
  name: "drop2"
  type: "Dropout"
  bottom: "pool2"
  top: "drop2"
  dropout_param {
    dropout_ratio: 0.1
  }
}
layer {
  name: "elu2"
  type: "ELU"
  bottom: "drop2"
  top: "elu2"
}
layer {
  name: "conv4"
  type: "Convolution"
  bottom: "elu2"
  top: "conv4"
  convolution_param {
    num_output: 240
    kernel_size: 1
    weight_filler {
      type: "xavier"
    }
  }
}
layer {
  name: "conv5"
  type: "Convolution"
  bottom: "conv4"
  top: "conv5"
  convolution_param {
    num_output: 260
    kernel_size: 2
    weight_filler {
      type: "xavier"
    }
  }
}
layer {
  name: "pool3"
  type: "Pooling"
  bottom: "conv5"
  top: "pool3"
  pooling_param {
    pool: MAX
    kernel_size: 2
    stride: 2
  }
}
layer {
  name: "drop3"
  type: "Dropout"
  bottom: "pool3"
  top: "drop3"
  dropout_param {
    dropout_ratio: 0.2
  }
}
layer {
  name: "elu3"
  type: "ELU"
  bottom: "drop3"
  top: "elu3"
}
layer {
  name: "conv6"
  type: "Convolution"
  bottom: "elu3"
  top: "conv6"
  convolution_param {
    num_output: 260
    kernel_size: 1
    weight_filler {
      type: "xavier"
    }
  }
}
layer {
  name: "conv7"
  type: "Convolution"
  bottom: "conv6"
  top: "conv7"
  convolution_param {
    num_output: 280
    kernel_size: 2
    weight_filler {
      type: "xavier"
    }
  }
}
layer {
  name: "pool4"
  type: "Pooling"
  bottom: "conv7"
  top: "pool4"
  pooling_param {
    pool: MAX
    kernel_size: 2
    stride: 2
  }
}
layer {
  name: "drop4"
  type: "Dropout"
  bottom: "pool4"
  top: "drop4"
  dropout_param {
    dropout_ratio: 0.3
  }
}
layer {
  name: "elu4"
  type: "ELU"
  bottom: "drop4"
  top: "elu4"
}
layer {
  name: "conv8"
  type: "Convolution"
  bottom: "elu4"
  top: "conv8"
  convolution_param {
    num_output: 280
    kernel_size: 1
    weight_filler {
      type: "xavier"
    }
  }
}
layer {
  name: "pool5"
  type: "Pooling"
  bottom: "conv8"
  top: "pool5"
  pooling_param {
    pool: MAX
    kernel_size: 2
    stride: 2
  }
}
layer {
  name: "drop5"
  type: "Dropout"
  bottom: "pool5"
  top: "drop5"
  dropout_param {
    dropout_ratio: 0.4
  }
}
layer {
  name: "elu5"
  type: "ELU"
  bottom: "drop5"
  top: "elu5"
}
layer {
  name: "conv10"
  type: "Convolution"
  bottom: "elu5"
  top: "conv10"
  convolution_param {
    num_output: 300
    kernel_size: 1
    weight_filler {
      type: "xavier"
    }
  }
}
layer {
  name: "pool6"
  type: "Pooling"
  bottom: "conv10"
  top: "pool6"
  pooling_param {
    pool: MAX
    kernel_size: 2
    stride: 2
  }
}
layer {
  name: "drop6"
  type: "Dropout"
  bottom: "pool6"
  top: "drop6"
  dropout_param {
    dropout_ratio: 0.5
  }
}
layer {
  name: "elu6"
  type: "ELU"
  bottom: "drop6"
  top: "elu6"
}
layer {
  name: "conv11"
  type: "Convolution"
  bottom: "elu6"
  top: "conv11"
  convolution_param {
    num_output: 100
    kernel_size: 1
    weight_filler {
      type: "xavier"
    }
  }
}
layer {
  name: "pool7"
  type: "Pooling"
  bottom: "conv11"
  top: "pool7"
  pooling_param {
    pool: MAX
    kernel_size: 2
    stride: 2
  }
}
layer {
  name: "drop7"
  type: "Dropout"
  bottom: "pool7"
  top: "drop7"
  dropout_param {
    dropout_ratio: 0
  }
}
layer {
  name: "elu7"
  type: "ELU"
  bottom: "drop7"
  top: "elu7"
}
layer {
  name: "pool"
  type: "Pooling"
  bottom: "elu7"
  top: "pool"
  pooling_param {
    pool: AVE
    global_pooling: true
  }
}
layer {
  name: "flatten"
  type: "Flatten"
  bottom: "pool"
  top: "flatten"
}
layer {
  name: "ip_c"
  type: "InnerProduct"
  bottom: "flatten"
  top: "ip_c"
  inner_product_param {
    num_output: 20
    weight_filler {
      type: "xavier"
    }
  }
}
layer {
  name: "accuracy_f"
  type: "Accuracy"
  bottom: "ip_c"
  bottom: "label_coarse"
  top: "accuracy_f"
}
layer {
  name: "loss_c"
  type: "SoftmaxWithLoss"
  bottom: "ip_c"
  bottom: "label_coarse"
  top: "loss_c"
}
layer {
  name: "ip_f"
  type: "InnerProduct"
  bottom: "flatten"
  top: "ip_f"
  inner_product_param {
    num_output: 100
    weight_filler {
      type: "xavier"
    }
  }
}
layer {
  name: "accuracy"
  type: "Accuracy"
  bottom: "ip_f"
  bottom: "label_fine"
  top: "accuracy"
}
layer {
  name: "loss_f"
  type: "SoftmaxWithLoss"
  bottom: "ip_f"
  bottom: "label_fine"
  top: "loss_f"
}
I1018 01:15:13.961808 12689 layer_factory.hpp:77] Creating layer data
I1018 01:15:13.961815 12689 net.cpp:100] Creating Layer data
I1018 01:15:13.961819 12689 net.cpp:408] data -> data
I1018 01:15:13.961825 12689 net.cpp:408] data -> label_coarse
I1018 01:15:13.961830 12689 net.cpp:408] data -> label_fine
I1018 01:15:13.961836 12689 hdf5_data_layer.cpp:79] Loading list of HDF5 filenames from: ../../../../data/cifar-100/cifar_100_caffe_hdf5/test.txt
I1018 01:15:13.961853 12689 hdf5_data_layer.cpp:93] Number of HDF5 files: 1
I1018 01:15:14.220391 12689 net.cpp:150] Setting up data
I1018 01:15:14.220413 12689 net.cpp:157] Top shape: 100 3 32 32 (307200)
I1018 01:15:14.220417 12689 net.cpp:157] Top shape: 100 (100)
I1018 01:15:14.220418 12689 net.cpp:157] Top shape: 100 (100)
I1018 01:15:14.220420 12689 net.cpp:165] Memory required for data: 1229600
I1018 01:15:14.220425 12689 layer_factory.hpp:77] Creating layer label_coarse_data_1_split
I1018 01:15:14.220433 12689 net.cpp:100] Creating Layer label_coarse_data_1_split
I1018 01:15:14.220435 12689 net.cpp:434] label_coarse_data_1_split <- label_coarse
I1018 01:15:14.220441 12689 net.cpp:408] label_coarse_data_1_split -> label_coarse_data_1_split_0
I1018 01:15:14.220449 12689 net.cpp:408] label_coarse_data_1_split -> label_coarse_data_1_split_1
I1018 01:15:14.220479 12689 net.cpp:150] Setting up label_coarse_data_1_split
I1018 01:15:14.220482 12689 net.cpp:157] Top shape: 100 (100)
I1018 01:15:14.220484 12689 net.cpp:157] Top shape: 100 (100)
I1018 01:15:14.220486 12689 net.cpp:165] Memory required for data: 1230400
I1018 01:15:14.220489 12689 layer_factory.hpp:77] Creating layer label_fine_data_2_split
I1018 01:15:14.220491 12689 net.cpp:100] Creating Layer label_fine_data_2_split
I1018 01:15:14.220494 12689 net.cpp:434] label_fine_data_2_split <- label_fine
I1018 01:15:14.220497 12689 net.cpp:408] label_fine_data_2_split -> label_fine_data_2_split_0
I1018 01:15:14.220500 12689 net.cpp:408] label_fine_data_2_split -> label_fine_data_2_split_1
I1018 01:15:14.220522 12689 net.cpp:150] Setting up label_fine_data_2_split
I1018 01:15:14.220527 12689 net.cpp:157] Top shape: 100 (100)
I1018 01:15:14.220531 12689 net.cpp:157] Top shape: 100 (100)
I1018 01:15:14.220546 12689 net.cpp:165] Memory required for data: 1231200
I1018 01:15:14.220548 12689 layer_factory.hpp:77] Creating layer conv1
I1018 01:15:14.220556 12689 net.cpp:100] Creating Layer conv1
I1018 01:15:14.220561 12689 net.cpp:434] conv1 <- data
I1018 01:15:14.220563 12689 net.cpp:408] conv1 -> conv1
I1018 01:15:14.221385 12689 net.cpp:150] Setting up conv1
I1018 01:15:14.221392 12689 net.cpp:157] Top shape: 100 192 28 28 (15052800)
I1018 01:15:14.221395 12689 net.cpp:165] Memory required for data: 61442400
I1018 01:15:14.221401 12689 layer_factory.hpp:77] Creating layer pool1
I1018 01:15:14.221406 12689 net.cpp:100] Creating Layer pool1
I1018 01:15:14.221408 12689 net.cpp:434] pool1 <- conv1
I1018 01:15:14.221411 12689 net.cpp:408] pool1 -> pool1
I1018 01:15:14.221438 12689 net.cpp:150] Setting up pool1
I1018 01:15:14.221442 12689 net.cpp:157] Top shape: 100 192 14 14 (3763200)
I1018 01:15:14.221444 12689 net.cpp:165] Memory required for data: 76495200
I1018 01:15:14.221446 12689 layer_factory.hpp:77] Creating layer drop1
I1018 01:15:14.221449 12689 net.cpp:100] Creating Layer drop1
I1018 01:15:14.221451 12689 net.cpp:434] drop1 <- pool1
I1018 01:15:14.221453 12689 net.cpp:408] drop1 -> drop1
I1018 01:15:14.221474 12689 net.cpp:150] Setting up drop1
I1018 01:15:14.221478 12689 net.cpp:157] Top shape: 100 192 14 14 (3763200)
I1018 01:15:14.221480 12689 net.cpp:165] Memory required for data: 91548000
I1018 01:15:14.221482 12689 layer_factory.hpp:77] Creating layer elu1
I1018 01:15:14.221485 12689 net.cpp:100] Creating Layer elu1
I1018 01:15:14.221487 12689 net.cpp:434] elu1 <- drop1
I1018 01:15:14.221489 12689 net.cpp:408] elu1 -> elu1
I1018 01:15:14.221501 12689 net.cpp:150] Setting up elu1
I1018 01:15:14.221505 12689 net.cpp:157] Top shape: 100 192 14 14 (3763200)
I1018 01:15:14.221508 12689 net.cpp:165] Memory required for data: 106600800
I1018 01:15:14.221509 12689 layer_factory.hpp:77] Creating layer conv2
I1018 01:15:14.221515 12689 net.cpp:100] Creating Layer conv2
I1018 01:15:14.221519 12689 net.cpp:434] conv2 <- elu1
I1018 01:15:14.221524 12689 net.cpp:408] conv2 -> conv2
I1018 01:15:14.222296 12689 net.cpp:150] Setting up conv2
I1018 01:15:14.222306 12689 net.cpp:157] Top shape: 100 192 14 14 (3763200)
I1018 01:15:14.222308 12689 net.cpp:165] Memory required for data: 121653600
I1018 01:15:14.222313 12689 layer_factory.hpp:77] Creating layer conv3
I1018 01:15:14.222319 12689 net.cpp:100] Creating Layer conv3
I1018 01:15:14.222321 12689 net.cpp:434] conv3 <- conv2
I1018 01:15:14.222326 12689 net.cpp:408] conv3 -> conv3
I1018 01:15:14.224789 12689 net.cpp:150] Setting up conv3
I1018 01:15:14.224798 12689 net.cpp:157] Top shape: 100 240 12 12 (3456000)
I1018 01:15:14.224800 12689 net.cpp:165] Memory required for data: 135477600
I1018 01:15:14.224807 12689 layer_factory.hpp:77] Creating layer pool2
I1018 01:15:14.224812 12689 net.cpp:100] Creating Layer pool2
I1018 01:15:14.224813 12689 net.cpp:434] pool2 <- conv3
I1018 01:15:14.224817 12689 net.cpp:408] pool2 -> pool2
I1018 01:15:14.224843 12689 net.cpp:150] Setting up pool2
I1018 01:15:14.224848 12689 net.cpp:157] Top shape: 100 240 6 6 (864000)
I1018 01:15:14.224849 12689 net.cpp:165] Memory required for data: 138933600
I1018 01:15:14.224850 12689 layer_factory.hpp:77] Creating layer drop2
I1018 01:15:14.224854 12689 net.cpp:100] Creating Layer drop2
I1018 01:15:14.224856 12689 net.cpp:434] drop2 <- pool2
I1018 01:15:14.224859 12689 net.cpp:408] drop2 -> drop2
I1018 01:15:14.224879 12689 net.cpp:150] Setting up drop2
I1018 01:15:14.224884 12689 net.cpp:157] Top shape: 100 240 6 6 (864000)
I1018 01:15:14.224886 12689 net.cpp:165] Memory required for data: 142389600
I1018 01:15:14.224889 12689 layer_factory.hpp:77] Creating layer elu2
I1018 01:15:14.224890 12689 net.cpp:100] Creating Layer elu2
I1018 01:15:14.224894 12689 net.cpp:434] elu2 <- drop2
I1018 01:15:14.224896 12689 net.cpp:408] elu2 -> elu2
I1018 01:15:14.224910 12689 net.cpp:150] Setting up elu2
I1018 01:15:14.224912 12689 net.cpp:157] Top shape: 100 240 6 6 (864000)
I1018 01:15:14.224915 12689 net.cpp:165] Memory required for data: 145845600
I1018 01:15:14.224925 12689 layer_factory.hpp:77] Creating layer conv4
I1018 01:15:14.224931 12689 net.cpp:100] Creating Layer conv4
I1018 01:15:14.224933 12689 net.cpp:434] conv4 <- elu2
I1018 01:15:14.224936 12689 net.cpp:408] conv4 -> conv4
I1018 01:15:14.226044 12689 net.cpp:150] Setting up conv4
I1018 01:15:14.226054 12689 net.cpp:157] Top shape: 100 240 6 6 (864000)
I1018 01:15:14.226056 12689 net.cpp:165] Memory required for data: 149301600
I1018 01:15:14.226061 12689 layer_factory.hpp:77] Creating layer conv5
I1018 01:15:14.226068 12689 net.cpp:100] Creating Layer conv5
I1018 01:15:14.226069 12689 net.cpp:434] conv5 <- conv4
I1018 01:15:14.226073 12689 net.cpp:408] conv5 -> conv5
I1018 01:15:14.227803 12689 net.cpp:150] Setting up conv5
I1018 01:15:14.227813 12689 net.cpp:157] Top shape: 100 260 5 5 (650000)
I1018 01:15:14.227814 12689 net.cpp:165] Memory required for data: 151901600
I1018 01:15:14.227821 12689 layer_factory.hpp:77] Creating layer pool3
I1018 01:15:14.227825 12689 net.cpp:100] Creating Layer pool3
I1018 01:15:14.227828 12689 net.cpp:434] pool3 <- conv5
I1018 01:15:14.227831 12689 net.cpp:408] pool3 -> pool3
I1018 01:15:14.227857 12689 net.cpp:150] Setting up pool3
I1018 01:15:14.227862 12689 net.cpp:157] Top shape: 100 260 3 3 (234000)
I1018 01:15:14.227864 12689 net.cpp:165] Memory required for data: 152837600
I1018 01:15:14.227865 12689 layer_factory.hpp:77] Creating layer drop3
I1018 01:15:14.227869 12689 net.cpp:100] Creating Layer drop3
I1018 01:15:14.227870 12689 net.cpp:434] drop3 <- pool3
I1018 01:15:14.227874 12689 net.cpp:408] drop3 -> drop3
I1018 01:15:14.227895 12689 net.cpp:150] Setting up drop3
I1018 01:15:14.227900 12689 net.cpp:157] Top shape: 100 260 3 3 (234000)
I1018 01:15:14.227901 12689 net.cpp:165] Memory required for data: 153773600
I1018 01:15:14.227902 12689 layer_factory.hpp:77] Creating layer elu3
I1018 01:15:14.227907 12689 net.cpp:100] Creating Layer elu3
I1018 01:15:14.227910 12689 net.cpp:434] elu3 <- drop3
I1018 01:15:14.227913 12689 net.cpp:408] elu3 -> elu3
I1018 01:15:14.227927 12689 net.cpp:150] Setting up elu3
I1018 01:15:14.227931 12689 net.cpp:157] Top shape: 100 260 3 3 (234000)
I1018 01:15:14.227932 12689 net.cpp:165] Memory required for data: 154709600
I1018 01:15:14.227934 12689 layer_factory.hpp:77] Creating layer conv6
I1018 01:15:14.227939 12689 net.cpp:100] Creating Layer conv6
I1018 01:15:14.227941 12689 net.cpp:434] conv6 <- elu3
I1018 01:15:14.227943 12689 net.cpp:408] conv6 -> conv6
I1018 01:15:14.229073 12689 net.cpp:150] Setting up conv6
I1018 01:15:14.229081 12689 net.cpp:157] Top shape: 100 260 3 3 (234000)
I1018 01:15:14.229084 12689 net.cpp:165] Memory required for data: 155645600
I1018 01:15:14.229087 12689 layer_factory.hpp:77] Creating layer conv7
I1018 01:15:14.229092 12689 net.cpp:100] Creating Layer conv7
I1018 01:15:14.229094 12689 net.cpp:434] conv7 <- conv6
I1018 01:15:14.229099 12689 net.cpp:408] conv7 -> conv7
I1018 01:15:14.231027 12689 net.cpp:150] Setting up conv7
I1018 01:15:14.231036 12689 net.cpp:157] Top shape: 100 280 2 2 (112000)
I1018 01:15:14.231039 12689 net.cpp:165] Memory required for data: 156093600
I1018 01:15:14.231042 12689 layer_factory.hpp:77] Creating layer pool4
I1018 01:15:14.231046 12689 net.cpp:100] Creating Layer pool4
I1018 01:15:14.231050 12689 net.cpp:434] pool4 <- conv7
I1018 01:15:14.231052 12689 net.cpp:408] pool4 -> pool4
I1018 01:15:14.231076 12689 net.cpp:150] Setting up pool4
I1018 01:15:14.231081 12689 net.cpp:157] Top shape: 100 280 1 1 (28000)
I1018 01:15:14.231082 12689 net.cpp:165] Memory required for data: 156205600
I1018 01:15:14.231084 12689 layer_factory.hpp:77] Creating layer drop4
I1018 01:15:14.231086 12689 net.cpp:100] Creating Layer drop4
I1018 01:15:14.231088 12689 net.cpp:434] drop4 <- pool4
I1018 01:15:14.231092 12689 net.cpp:408] drop4 -> drop4
I1018 01:15:14.231113 12689 net.cpp:150] Setting up drop4
I1018 01:15:14.231117 12689 net.cpp:157] Top shape: 100 280 1 1 (28000)
I1018 01:15:14.231118 12689 net.cpp:165] Memory required for data: 156317600
I1018 01:15:14.231132 12689 layer_factory.hpp:77] Creating layer elu4
I1018 01:15:14.231134 12689 net.cpp:100] Creating Layer elu4
I1018 01:15:14.231135 12689 net.cpp:434] elu4 <- drop4
I1018 01:15:14.231138 12689 net.cpp:408] elu4 -> elu4
I1018 01:15:14.231154 12689 net.cpp:150] Setting up elu4
I1018 01:15:14.231158 12689 net.cpp:157] Top shape: 100 280 1 1 (28000)
I1018 01:15:14.231159 12689 net.cpp:165] Memory required for data: 156429600
I1018 01:15:14.231161 12689 layer_factory.hpp:77] Creating layer conv8
I1018 01:15:14.231166 12689 net.cpp:100] Creating Layer conv8
I1018 01:15:14.231168 12689 net.cpp:434] conv8 <- elu4
I1018 01:15:14.231171 12689 net.cpp:408] conv8 -> conv8
I1018 01:15:14.232098 12689 net.cpp:150] Setting up conv8
I1018 01:15:14.232108 12689 net.cpp:157] Top shape: 100 280 1 1 (28000)
I1018 01:15:14.232111 12689 net.cpp:165] Memory required for data: 156541600
I1018 01:15:14.232117 12689 layer_factory.hpp:77] Creating layer pool5
I1018 01:15:14.232125 12689 net.cpp:100] Creating Layer pool5
I1018 01:15:14.232146 12689 net.cpp:434] pool5 <- conv8
I1018 01:15:14.232153 12689 net.cpp:408] pool5 -> pool5
I1018 01:15:14.232193 12689 net.cpp:150] Setting up pool5
I1018 01:15:14.232199 12689 net.cpp:157] Top shape: 100 280 1 1 (28000)
I1018 01:15:14.232203 12689 net.cpp:165] Memory required for data: 156653600
I1018 01:15:14.232206 12689 layer_factory.hpp:77] Creating layer drop5
I1018 01:15:14.232220 12689 net.cpp:100] Creating Layer drop5
I1018 01:15:14.232224 12689 net.cpp:434] drop5 <- pool5
I1018 01:15:14.232230 12689 net.cpp:408] drop5 -> drop5
I1018 01:15:14.232269 12689 net.cpp:150] Setting up drop5
I1018 01:15:14.232273 12689 net.cpp:157] Top shape: 100 280 1 1 (28000)
I1018 01:15:14.232275 12689 net.cpp:165] Memory required for data: 156765600
I1018 01:15:14.232280 12689 layer_factory.hpp:77] Creating layer elu5
I1018 01:15:14.232283 12689 net.cpp:100] Creating Layer elu5
I1018 01:15:14.232287 12689 net.cpp:434] elu5 <- drop5
I1018 01:15:14.232291 12689 net.cpp:408] elu5 -> elu5
I1018 01:15:14.232311 12689 net.cpp:150] Setting up elu5
I1018 01:15:14.232316 12689 net.cpp:157] Top shape: 100 280 1 1 (28000)
I1018 01:15:14.232326 12689 net.cpp:165] Memory required for data: 156877600
I1018 01:15:14.232331 12689 layer_factory.hpp:77] Creating layer conv10
I1018 01:15:14.232341 12689 net.cpp:100] Creating Layer conv10
I1018 01:15:14.232344 12689 net.cpp:434] conv10 <- elu5
I1018 01:15:14.232350 12689 net.cpp:408] conv10 -> conv10
I1018 01:15:14.233435 12689 net.cpp:150] Setting up conv10
I1018 01:15:14.233448 12689 net.cpp:157] Top shape: 100 300 1 1 (30000)
I1018 01:15:14.233451 12689 net.cpp:165] Memory required for data: 156997600
I1018 01:15:14.233465 12689 layer_factory.hpp:77] Creating layer pool6
I1018 01:15:14.233474 12689 net.cpp:100] Creating Layer pool6
I1018 01:15:14.233479 12689 net.cpp:434] pool6 <- conv10
I1018 01:15:14.233485 12689 net.cpp:408] pool6 -> pool6
I1018 01:15:14.233520 12689 net.cpp:150] Setting up pool6
I1018 01:15:14.233525 12689 net.cpp:157] Top shape: 100 300 1 1 (30000)
I1018 01:15:14.233530 12689 net.cpp:165] Memory required for data: 157117600
I1018 01:15:14.233533 12689 layer_factory.hpp:77] Creating layer drop6
I1018 01:15:14.233538 12689 net.cpp:100] Creating Layer drop6
I1018 01:15:14.233542 12689 net.cpp:434] drop6 <- pool6
I1018 01:15:14.233547 12689 net.cpp:408] drop6 -> drop6
I1018 01:15:14.233578 12689 net.cpp:150] Setting up drop6
I1018 01:15:14.233583 12689 net.cpp:157] Top shape: 100 300 1 1 (30000)
I1018 01:15:14.233587 12689 net.cpp:165] Memory required for data: 157237600
I1018 01:15:14.233590 12689 layer_factory.hpp:77] Creating layer elu6
I1018 01:15:14.233595 12689 net.cpp:100] Creating Layer elu6
I1018 01:15:14.233599 12689 net.cpp:434] elu6 <- drop6
I1018 01:15:14.233604 12689 net.cpp:408] elu6 -> elu6
I1018 01:15:14.233621 12689 net.cpp:150] Setting up elu6
I1018 01:15:14.233626 12689 net.cpp:157] Top shape: 100 300 1 1 (30000)
I1018 01:15:14.233629 12689 net.cpp:165] Memory required for data: 157357600
I1018 01:15:14.233645 12689 layer_factory.hpp:77] Creating layer conv11
I1018 01:15:14.233654 12689 net.cpp:100] Creating Layer conv11
I1018 01:15:14.233657 12689 net.cpp:434] conv11 <- elu6
I1018 01:15:14.233662 12689 net.cpp:408] conv11 -> conv11
I1018 01:15:14.234745 12689 net.cpp:150] Setting up conv11
I1018 01:15:14.234755 12689 net.cpp:157] Top shape: 100 100 1 1 (10000)
I1018 01:15:14.234758 12689 net.cpp:165] Memory required for data: 157397600
I1018 01:15:14.234766 12689 layer_factory.hpp:77] Creating layer pool7
I1018 01:15:14.234771 12689 net.cpp:100] Creating Layer pool7
I1018 01:15:14.234776 12689 net.cpp:434] pool7 <- conv11
I1018 01:15:14.234781 12689 net.cpp:408] pool7 -> pool7
I1018 01:15:14.234812 12689 net.cpp:150] Setting up pool7
I1018 01:15:14.234817 12689 net.cpp:157] Top shape: 100 100 1 1 (10000)
I1018 01:15:14.234822 12689 net.cpp:165] Memory required for data: 157437600
I1018 01:15:14.234824 12689 layer_factory.hpp:77] Creating layer drop7
I1018 01:15:14.234833 12689 net.cpp:100] Creating Layer drop7
I1018 01:15:14.234835 12689 net.cpp:434] drop7 <- pool7
I1018 01:15:14.234840 12689 net.cpp:408] drop7 -> drop7
I1018 01:15:14.234866 12689 net.cpp:150] Setting up drop7
I1018 01:15:14.234872 12689 net.cpp:157] Top shape: 100 100 1 1 (10000)
I1018 01:15:14.234875 12689 net.cpp:165] Memory required for data: 157477600
I1018 01:15:14.234879 12689 layer_factory.hpp:77] Creating layer elu7
I1018 01:15:14.234884 12689 net.cpp:100] Creating Layer elu7
I1018 01:15:14.234886 12689 net.cpp:434] elu7 <- drop7
I1018 01:15:14.234891 12689 net.cpp:408] elu7 -> elu7
I1018 01:15:14.234908 12689 net.cpp:150] Setting up elu7
I1018 01:15:14.234913 12689 net.cpp:157] Top shape: 100 100 1 1 (10000)
I1018 01:15:14.234917 12689 net.cpp:165] Memory required for data: 157517600
I1018 01:15:14.234920 12689 layer_factory.hpp:77] Creating layer pool
I1018 01:15:14.234925 12689 net.cpp:100] Creating Layer pool
I1018 01:15:14.234928 12689 net.cpp:434] pool <- elu7
I1018 01:15:14.234933 12689 net.cpp:408] pool -> pool
I1018 01:15:14.235137 12689 net.cpp:150] Setting up pool
I1018 01:15:14.235144 12689 net.cpp:157] Top shape: 100 100 1 1 (10000)
I1018 01:15:14.235148 12689 net.cpp:165] Memory required for data: 157557600
I1018 01:15:14.235152 12689 layer_factory.hpp:77] Creating layer flatten
I1018 01:15:14.235158 12689 net.cpp:100] Creating Layer flatten
I1018 01:15:14.235162 12689 net.cpp:434] flatten <- pool
I1018 01:15:14.235167 12689 net.cpp:408] flatten -> flatten
I1018 01:15:14.235186 12689 net.cpp:150] Setting up flatten
I1018 01:15:14.235191 12689 net.cpp:157] Top shape: 100 100 (10000)
I1018 01:15:14.235194 12689 net.cpp:165] Memory required for data: 157597600
I1018 01:15:14.235198 12689 layer_factory.hpp:77] Creating layer flatten_flatten_0_split
I1018 01:15:14.235203 12689 net.cpp:100] Creating Layer flatten_flatten_0_split
I1018 01:15:14.235208 12689 net.cpp:434] flatten_flatten_0_split <- flatten
I1018 01:15:14.235211 12689 net.cpp:408] flatten_flatten_0_split -> flatten_flatten_0_split_0
I1018 01:15:14.235219 12689 net.cpp:408] flatten_flatten_0_split -> flatten_flatten_0_split_1
I1018 01:15:14.235246 12689 net.cpp:150] Setting up flatten_flatten_0_split
I1018 01:15:14.235251 12689 net.cpp:157] Top shape: 100 100 (10000)
I1018 01:15:14.235255 12689 net.cpp:157] Top shape: 100 100 (10000)
I1018 01:15:14.235260 12689 net.cpp:165] Memory required for data: 157677600
I1018 01:15:14.235262 12689 layer_factory.hpp:77] Creating layer ip_c
I1018 01:15:14.235267 12689 net.cpp:100] Creating Layer ip_c
I1018 01:15:14.235271 12689 net.cpp:434] ip_c <- flatten_flatten_0_split_0
I1018 01:15:14.235276 12689 net.cpp:408] ip_c -> ip_c
I1018 01:15:14.235359 12689 net.cpp:150] Setting up ip_c
I1018 01:15:14.235364 12689 net.cpp:157] Top shape: 100 20 (2000)
I1018 01:15:14.235368 12689 net.cpp:165] Memory required for data: 157685600
I1018 01:15:14.235374 12689 layer_factory.hpp:77] Creating layer ip_c_ip_c_0_split
I1018 01:15:14.235379 12689 net.cpp:100] Creating Layer ip_c_ip_c_0_split
I1018 01:15:14.235383 12689 net.cpp:434] ip_c_ip_c_0_split <- ip_c
I1018 01:15:14.235396 12689 net.cpp:408] ip_c_ip_c_0_split -> ip_c_ip_c_0_split_0
I1018 01:15:14.235404 12689 net.cpp:408] ip_c_ip_c_0_split -> ip_c_ip_c_0_split_1
I1018 01:15:14.235430 12689 net.cpp:150] Setting up ip_c_ip_c_0_split
I1018 01:15:14.235435 12689 net.cpp:157] Top shape: 100 20 (2000)
I1018 01:15:14.235438 12689 net.cpp:157] Top shape: 100 20 (2000)
I1018 01:15:14.235442 12689 net.cpp:165] Memory required for data: 157701600
I1018 01:15:14.235445 12689 layer_factory.hpp:77] Creating layer accuracy_f
I1018 01:15:14.235450 12689 net.cpp:100] Creating Layer accuracy_f
I1018 01:15:14.235455 12689 net.cpp:434] accuracy_f <- ip_c_ip_c_0_split_0
I1018 01:15:14.235460 12689 net.cpp:434] accuracy_f <- label_coarse_data_1_split_0
I1018 01:15:14.235465 12689 net.cpp:408] accuracy_f -> accuracy_f
…
