…
  stage: ""
}
type: "Nesterov"
I1018 00:00:24.558106  9488 solver.cpp:81] Creating training net from train_net file: /home/adam/Honours/Honours-Project/cifar-100_pooling/max/leakyrelu/poolcnn_leakyrelu_train.prototxt
I1018 00:00:24.558441  9488 net.cpp:58] Initializing net from parameters: 
state {
  phase: TRAIN
  level: 0
  stage: ""
}
layer {
  name: "data"
  type: "HDF5Data"
  top: "data"
  top: "label_coarse"
  top: "label_fine"
  hdf5_data_param {
    source: "../../../../data/cifar-100/cifar_100_caffe_hdf5/train.txt"
    batch_size: 64
  }
}
layer {
  name: "conv1"
  type: "Convolution"
  bottom: "data"
  top: "conv1"
  convolution_param {
    num_output: 192
    kernel_size: 5
    weight_filler {
      type: "xavier"
    }
  }
}
layer {
  name: "pool1"
  type: "Pooling"
  bottom: "conv1"
  top: "pool1"
  pooling_param {
    pool: MAX
    kernel_size: 2
    stride: 2
  }
}
layer {
  name: "drop1"
  type: "Dropout"
  bottom: "pool1"
  top: "drop1"
  dropout_param {
    dropout_ratio: 0
  }
}
layer {
  name: "relu1"
  type: "ReLU"
  bottom: "drop1"
  top: "relu1"
  relu_param {
    negative_slope: 0.01
  }
}
layer {
  name: "conv2"
  type: "Convolution"
  bottom: "relu1"
  top: "conv2"
  convolution_param {
    num_output: 192
    kernel_size: 1
    weight_filler {
      type: "xavier"
    }
  }
}
layer {
  name: "conv3"
  type: "Convolution"
  bottom: "conv2"
  top: "conv3"
  convolution_param {
    num_output: 240
    kernel_size: 3
    weight_filler {
      type: "xavier"
    }
  }
}
layer {
  name: "pool2"
  type: "Pooling"
  bottom: "conv3"
  top: "pool2"
  pooling_param {
    pool: MAX
    kernel_size: 2
    stride: 2
  }
}
layer {
  name: "drop2"
  type: "Dropout"
  bottom: "pool2"
  top: "drop2"
  dropout_param {
    dropout_ratio: 0.1
  }
}
layer {
  name: "relu2"
  type: "ReLU"
  bottom: "drop2"
  top: "relu2"
  relu_param {
    negative_slope: 0.01
  }
}
layer {
  name: "conv4"
  type: "Convolution"
  bottom: "relu2"
  top: "conv4"
  convolution_param {
    num_output: 240
    kernel_size: 1
    weight_filler {
      type: "xavier"
    }
  }
}
layer {
  name: "conv5"
  type: "Convolution"
  bottom: "conv4"
  top: "conv5"
  convolution_param {
    num_output: 260
    kernel_size: 2
    weight_filler {
      type: "xavier"
    }
  }
}
layer {
  name: "pool3"
  type: "Pooling"
  bottom: "conv5"
  top: "pool3"
  pooling_param {
    pool: MAX
    kernel_size: 2
    stride: 2
  }
}
layer {
  name: "drop3"
  type: "Dropout"
  bottom: "pool3"
  top: "drop3"
  dropout_param {
    dropout_ratio: 0.2
  }
}
layer {
  name: "relu3"
  type: "ReLU"
  bottom: "drop3"
  top: "relu3"
  relu_param {
    negative_slope: 0.01
  }
}
layer {
  name: "conv6"
  type: "Convolution"
  bottom: "relu3"
  top: "conv6"
  convolution_param {
    num_output: 260
    kernel_size: 1
    weight_filler {
      type: "xavier"
    }
  }
}
layer {
  name: "conv7"
  type: "Convolution"
  bottom: "conv6"
  top: "conv7"
  convolution_param {
    num_output: 280
    kernel_size: 2
    weight_filler {
      type: "xavier"
    }
  }
}
layer {
  name: "pool4"
  type: "Pooling"
  bottom: "conv7"
  top: "pool4"
  pooling_param {
    pool: MAX
    kernel_size: 2
    stride: 2
  }
}
layer {
  name: "drop4"
  type: "Dropout"
  bottom: "pool4"
  top: "drop4"
  dropout_param {
    dropout_ratio: 0.3
  }
}
layer {
  name: "relu4"
  type: "ReLU"
  bottom: "drop4"
  top: "relu4"
  relu_param {
    negative_slope: 0.01
  }
}
layer {
  name: "conv8"
  type: "Convolution"
  bottom: "relu4"
  top: "conv8"
  convolution_param {
    num_output: 280
    kernel_size: 1
    weight_filler {
      type: "xavier"
    }
  }
}
layer {
  name: "pool5"
  type: "Pooling"
  bottom: "conv8"
  top: "pool5"
  pooling_param {
    pool: MAX
    kernel_size: 2
    stride: 2
  }
}
layer {
  name: "drop5"
  type: "Dropout"
  bottom: "pool5"
  top: "drop5"
  dropout_param {
    dropout_ratio: 0.4
  }
}
layer {
  name: "relu5"
  type: "ReLU"
  bottom: "drop5"
  top: "relu5"
  relu_param {
    negative_slope: 0.01
  }
}
layer {
  name: "conv10"
  type: "Convolution"
  bottom: "relu5"
  top: "conv10"
  convolution_param {
    num_output: 300
    kernel_size: 1
    weight_filler {
      type: "xavier"
    }
  }
}
layer {
  name: "pool6"
  type: "Pooling"
  bottom: "conv10"
  top: "pool6"
  pooling_param {
    pool: MAX
    kernel_size: 2
    stride: 2
  }
}
layer {
  name: "drop6"
  type: "Dropout"
  bottom: "pool6"
  top: "drop6"
  dropout_param {
    dropout_ratio: 0.5
  }
}
layer {
  name: "relu6"
  type: "ReLU"
  bottom: "drop6"
  top: "relu6"
  relu_param {
    negative_slope: 0.01
  }
}
layer {
  name: "conv11"
  type: "Convolution"
  bottom: "relu6"
  top: "conv11"
  convolution_param {
    num_output: 100
    kernel_size: 1
    weight_filler {
      type: "xavier"
    }
  }
}
layer {
  name: "pool7"
  type: "Pooling"
  bottom: "conv11"
  top: "pool7"
  pooling_param {
    pool: MAX
    kernel_size: 2
    stride: 2
  }
}
layer {
  name: "drop7"
  type: "Dropout"
  bottom: "pool7"
  top: "drop7"
  dropout_param {
    dropout_ratio: 0
  }
}
layer {
  name: "relu7"
  type: "ReLU"
  bottom: "drop7"
  top: "relu7"
  relu_param {
    negative_slope: 0.01
  }
}
layer {
  name: "pool"
  type: "Pooling"
  bottom: "relu7"
  top: "pool"
  pooling_param {
    pool: AVE
    global_pooling: true
  }
}
layer {
  name: "flatten"
  type: "Flatten"
  bottom: "pool"
  top: "flatten"
}
layer {
  name: "ip_c"
  type: "InnerProduct"
  bottom: "flatten"
  top: "ip_c"
  inner_product_param {
    num_output: 20
    weight_filler {
      type: "xavier"
    }
  }
}
layer {
  name: "accuracy_f"
  type: "Accuracy"
  bottom: "ip_c"
  bottom: "label_coarse"
  top: "accuracy_f"
}
layer {
  name: "loss_c"
  type: "SoftmaxWithLoss"
  bottom: "ip_c"
  bottom: "label_coarse"
  top: "loss_c"
}
layer {
  name: "ip_f"
  type: "InnerProduct"
  bottom: "flatten"
  top: "ip_f"
  inner_product_param {
    num_output: 100
    weight_filler {
      type: "xavier"
    }
  }
}
layer {
  name: "accuracy"
  type: "Accuracy"
  bottom: "ip_f"
  bottom: "label_fine"
  top: "accuracy"
}
layer {
  name: "loss_f"
  type: "SoftmaxWithLoss"
  bottom: "ip_f"
  bottom: "label_fine"
  top: "loss_f"
}
I1018 00:00:24.559391  9488 layer_factory.hpp:77] Creating layer data
I1018 00:00:24.559401  9488 net.cpp:100] Creating Layer data
I1018 00:00:24.559406  9488 net.cpp:408] data -> data
I1018 00:00:24.559419  9488 net.cpp:408] data -> label_coarse
I1018 00:00:24.559425  9488 net.cpp:408] data -> label_fine
I1018 00:00:24.559430  9488 hdf5_data_layer.cpp:79] Loading list of HDF5 filenames from: ../../../../data/cifar-100/cifar_100_caffe_hdf5/train.txt
I1018 00:00:24.559453  9488 hdf5_data_layer.cpp:93] Number of HDF5 files: 1
I1018 00:00:24.560084  9488 hdf5.cpp:35] Datatype class: H5T_INTEGER
I1018 00:00:26.158534  9488 net.cpp:150] Setting up data
I1018 00:00:26.158557  9488 net.cpp:157] Top shape: 64 3 32 32 (196608)
I1018 00:00:26.158560  9488 net.cpp:157] Top shape: 64 (64)
I1018 00:00:26.158562  9488 net.cpp:157] Top shape: 64 (64)
I1018 00:00:26.158565  9488 net.cpp:165] Memory required for data: 786944
I1018 00:00:26.158571  9488 layer_factory.hpp:77] Creating layer label_coarse_data_1_split
I1018 00:00:26.158581  9488 net.cpp:100] Creating Layer label_coarse_data_1_split
I1018 00:00:26.158586  9488 net.cpp:434] label_coarse_data_1_split <- label_coarse
I1018 00:00:26.158596  9488 net.cpp:408] label_coarse_data_1_split -> label_coarse_data_1_split_0
I1018 00:00:26.158603  9488 net.cpp:408] label_coarse_data_1_split -> label_coarse_data_1_split_1
I1018 00:00:26.158639  9488 net.cpp:150] Setting up label_coarse_data_1_split
I1018 00:00:26.158643  9488 net.cpp:157] Top shape: 64 (64)
I1018 00:00:26.158645  9488 net.cpp:157] Top shape: 64 (64)
I1018 00:00:26.158646  9488 net.cpp:165] Memory required for data: 787456
I1018 00:00:26.158648  9488 layer_factory.hpp:77] Creating layer label_fine_data_2_split
I1018 00:00:26.158653  9488 net.cpp:100] Creating Layer label_fine_data_2_split
I1018 00:00:26.158654  9488 net.cpp:434] label_fine_data_2_split <- label_fine
I1018 00:00:26.158658  9488 net.cpp:408] label_fine_data_2_split -> label_fine_data_2_split_0
I1018 00:00:26.158663  9488 net.cpp:408] label_fine_data_2_split -> label_fine_data_2_split_1
I1018 00:00:26.158679  9488 net.cpp:150] Setting up label_fine_data_2_split
I1018 00:00:26.158681  9488 net.cpp:157] Top shape: 64 (64)
I1018 00:00:26.158684  9488 net.cpp:157] Top shape: 64 (64)
I1018 00:00:26.158685  9488 net.cpp:165] Memory required for data: 787968
I1018 00:00:26.158687  9488 layer_factory.hpp:77] Creating layer conv1
I1018 00:00:26.158696  9488 net.cpp:100] Creating Layer conv1
I1018 00:00:26.158699  9488 net.cpp:434] conv1 <- data
I1018 00:00:26.158702  9488 net.cpp:408] conv1 -> conv1
I1018 00:00:26.277715  9488 net.cpp:150] Setting up conv1
I1018 00:00:26.277739  9488 net.cpp:157] Top shape: 64 192 28 28 (9633792)
I1018 00:00:26.277741  9488 net.cpp:165] Memory required for data: 39323136
I1018 00:00:26.277760  9488 layer_factory.hpp:77] Creating layer pool1
I1018 00:00:26.277770  9488 net.cpp:100] Creating Layer pool1
I1018 00:00:26.277773  9488 net.cpp:434] pool1 <- conv1
I1018 00:00:26.277777  9488 net.cpp:408] pool1 -> pool1
I1018 00:00:26.277822  9488 net.cpp:150] Setting up pool1
I1018 00:00:26.277827  9488 net.cpp:157] Top shape: 64 192 14 14 (2408448)
I1018 00:00:26.277829  9488 net.cpp:165] Memory required for data: 48956928
I1018 00:00:26.277832  9488 layer_factory.hpp:77] Creating layer drop1
I1018 00:00:26.277837  9488 net.cpp:100] Creating Layer drop1
I1018 00:00:26.277838  9488 net.cpp:434] drop1 <- pool1
I1018 00:00:26.277842  9488 net.cpp:408] drop1 -> drop1
I1018 00:00:26.277865  9488 net.cpp:150] Setting up drop1
I1018 00:00:26.277870  9488 net.cpp:157] Top shape: 64 192 14 14 (2408448)
I1018 00:00:26.277873  9488 net.cpp:165] Memory required for data: 58590720
I1018 00:00:26.277873  9488 layer_factory.hpp:77] Creating layer relu1
I1018 00:00:26.277878  9488 net.cpp:100] Creating Layer relu1
I1018 00:00:26.277881  9488 net.cpp:434] relu1 <- drop1
I1018 00:00:26.277886  9488 net.cpp:408] relu1 -> relu1
I1018 00:00:26.278007  9488 net.cpp:150] Setting up relu1
I1018 00:00:26.278012  9488 net.cpp:157] Top shape: 64 192 14 14 (2408448)
I1018 00:00:26.278015  9488 net.cpp:165] Memory required for data: 68224512
I1018 00:00:26.278017  9488 layer_factory.hpp:77] Creating layer conv2
I1018 00:00:26.278024  9488 net.cpp:100] Creating Layer conv2
I1018 00:00:26.278028  9488 net.cpp:434] conv2 <- relu1
I1018 00:00:26.278030  9488 net.cpp:408] conv2 -> conv2
I1018 00:00:26.278817  9488 net.cpp:150] Setting up conv2
I1018 00:00:26.278825  9488 net.cpp:157] Top shape: 64 192 14 14 (2408448)
I1018 00:00:26.278827  9488 net.cpp:165] Memory required for data: 77858304
I1018 00:00:26.278833  9488 layer_factory.hpp:77] Creating layer conv3
I1018 00:00:26.278838  9488 net.cpp:100] Creating Layer conv3
I1018 00:00:26.278841  9488 net.cpp:434] conv3 <- conv2
I1018 00:00:26.278844  9488 net.cpp:408] conv3 -> conv3
I1018 00:00:26.281250  9488 net.cpp:150] Setting up conv3
I1018 00:00:26.281258  9488 net.cpp:157] Top shape: 64 240 12 12 (2211840)
I1018 00:00:26.281260  9488 net.cpp:165] Memory required for data: 86705664
I1018 00:00:26.281266  9488 layer_factory.hpp:77] Creating layer pool2
I1018 00:00:26.281270  9488 net.cpp:100] Creating Layer pool2
I1018 00:00:26.281271  9488 net.cpp:434] pool2 <- conv3
I1018 00:00:26.281275  9488 net.cpp:408] pool2 -> pool2
I1018 00:00:26.281297  9488 net.cpp:150] Setting up pool2
I1018 00:00:26.281301  9488 net.cpp:157] Top shape: 64 240 6 6 (552960)
I1018 00:00:26.281316  9488 net.cpp:165] Memory required for data: 88917504
I1018 00:00:26.281318  9488 layer_factory.hpp:77] Creating layer drop2
I1018 00:00:26.281322  9488 net.cpp:100] Creating Layer drop2
I1018 00:00:26.281324  9488 net.cpp:434] drop2 <- pool2
I1018 00:00:26.281328  9488 net.cpp:408] drop2 -> drop2
I1018 00:00:26.281349  9488 net.cpp:150] Setting up drop2
I1018 00:00:26.281353  9488 net.cpp:157] Top shape: 64 240 6 6 (552960)
I1018 00:00:26.281355  9488 net.cpp:165] Memory required for data: 91129344
I1018 00:00:26.281357  9488 layer_factory.hpp:77] Creating layer relu2
I1018 00:00:26.281360  9488 net.cpp:100] Creating Layer relu2
I1018 00:00:26.281363  9488 net.cpp:434] relu2 <- drop2
I1018 00:00:26.281365  9488 net.cpp:408] relu2 -> relu2
I1018 00:00:26.281476  9488 net.cpp:150] Setting up relu2
I1018 00:00:26.281483  9488 net.cpp:157] Top shape: 64 240 6 6 (552960)
I1018 00:00:26.281486  9488 net.cpp:165] Memory required for data: 93341184
I1018 00:00:26.281487  9488 layer_factory.hpp:77] Creating layer conv4
I1018 00:00:26.281492  9488 net.cpp:100] Creating Layer conv4
I1018 00:00:26.281494  9488 net.cpp:434] conv4 <- relu2
I1018 00:00:26.281497  9488 net.cpp:408] conv4 -> conv4
I1018 00:00:26.282333  9488 net.cpp:150] Setting up conv4
I1018 00:00:26.282341  9488 net.cpp:157] Top shape: 64 240 6 6 (552960)
I1018 00:00:26.282342  9488 net.cpp:165] Memory required for data: 95553024
I1018 00:00:26.282346  9488 layer_factory.hpp:77] Creating layer conv5
I1018 00:00:26.282351  9488 net.cpp:100] Creating Layer conv5
I1018 00:00:26.282353  9488 net.cpp:434] conv5 <- conv4
I1018 00:00:26.282357  9488 net.cpp:408] conv5 -> conv5
I1018 00:00:26.284091  9488 net.cpp:150] Setting up conv5
I1018 00:00:26.284099  9488 net.cpp:157] Top shape: 64 260 5 5 (416000)
I1018 00:00:26.284101  9488 net.cpp:165] Memory required for data: 97217024
I1018 00:00:26.284106  9488 layer_factory.hpp:77] Creating layer pool3
I1018 00:00:26.284111  9488 net.cpp:100] Creating Layer pool3
I1018 00:00:26.284113  9488 net.cpp:434] pool3 <- conv5
I1018 00:00:26.284116  9488 net.cpp:408] pool3 -> pool3
I1018 00:00:26.284140  9488 net.cpp:150] Setting up pool3
I1018 00:00:26.284145  9488 net.cpp:157] Top shape: 64 260 3 3 (149760)
I1018 00:00:26.284147  9488 net.cpp:165] Memory required for data: 97816064
I1018 00:00:26.284148  9488 layer_factory.hpp:77] Creating layer drop3
I1018 00:00:26.284152  9488 net.cpp:100] Creating Layer drop3
I1018 00:00:26.284153  9488 net.cpp:434] drop3 <- pool3
I1018 00:00:26.284157  9488 net.cpp:408] drop3 -> drop3
I1018 00:00:26.284176  9488 net.cpp:150] Setting up drop3
I1018 00:00:26.284180  9488 net.cpp:157] Top shape: 64 260 3 3 (149760)
I1018 00:00:26.284183  9488 net.cpp:165] Memory required for data: 98415104
I1018 00:00:26.284183  9488 layer_factory.hpp:77] Creating layer relu3
I1018 00:00:26.284188  9488 net.cpp:100] Creating Layer relu3
I1018 00:00:26.284189  9488 net.cpp:434] relu3 <- drop3
I1018 00:00:26.284193  9488 net.cpp:408] relu3 -> relu3
I1018 00:00:26.284304  9488 net.cpp:150] Setting up relu3
I1018 00:00:26.284308  9488 net.cpp:157] Top shape: 64 260 3 3 (149760)
I1018 00:00:26.284310  9488 net.cpp:165] Memory required for data: 99014144
I1018 00:00:26.284312  9488 layer_factory.hpp:77] Creating layer conv6
I1018 00:00:26.284317  9488 net.cpp:100] Creating Layer conv6
I1018 00:00:26.284319  9488 net.cpp:434] conv6 <- relu3
I1018 00:00:26.284322  9488 net.cpp:408] conv6 -> conv6
I1018 00:00:26.285416  9488 net.cpp:150] Setting up conv6
I1018 00:00:26.285424  9488 net.cpp:157] Top shape: 64 260 3 3 (149760)
I1018 00:00:26.285426  9488 net.cpp:165] Memory required for data: 99613184
I1018 00:00:26.285429  9488 layer_factory.hpp:77] Creating layer conv7
I1018 00:00:26.285435  9488 net.cpp:100] Creating Layer conv7
I1018 00:00:26.285437  9488 net.cpp:434] conv7 <- conv6
I1018 00:00:26.285441  9488 net.cpp:408] conv7 -> conv7
I1018 00:00:26.287358  9488 net.cpp:150] Setting up conv7
I1018 00:00:26.287366  9488 net.cpp:157] Top shape: 64 280 2 2 (71680)
I1018 00:00:26.287369  9488 net.cpp:165] Memory required for data: 99899904
I1018 00:00:26.287380  9488 layer_factory.hpp:77] Creating layer pool4
I1018 00:00:26.287384  9488 net.cpp:100] Creating Layer pool4
I1018 00:00:26.287387  9488 net.cpp:434] pool4 <- conv7
I1018 00:00:26.287390  9488 net.cpp:408] pool4 -> pool4
I1018 00:00:26.287415  9488 net.cpp:150] Setting up pool4
I1018 00:00:26.287418  9488 net.cpp:157] Top shape: 64 280 1 1 (17920)
I1018 00:00:26.287420  9488 net.cpp:165] Memory required for data: 99971584
I1018 00:00:26.287422  9488 layer_factory.hpp:77] Creating layer drop4
I1018 00:00:26.287425  9488 net.cpp:100] Creating Layer drop4
I1018 00:00:26.287427  9488 net.cpp:434] drop4 <- pool4
I1018 00:00:26.287431  9488 net.cpp:408] drop4 -> drop4
I1018 00:00:26.287451  9488 net.cpp:150] Setting up drop4
I1018 00:00:26.287454  9488 net.cpp:157] Top shape: 64 280 1 1 (17920)
I1018 00:00:26.287456  9488 net.cpp:165] Memory required for data: 100043264
I1018 00:00:26.287458  9488 layer_factory.hpp:77] Creating layer relu4
I1018 00:00:26.287462  9488 net.cpp:100] Creating Layer relu4
I1018 00:00:26.287463  9488 net.cpp:434] relu4 <- drop4
I1018 00:00:26.287467  9488 net.cpp:408] relu4 -> relu4
I1018 00:00:26.287577  9488 net.cpp:150] Setting up relu4
I1018 00:00:26.287582  9488 net.cpp:157] Top shape: 64 280 1 1 (17920)
I1018 00:00:26.287585  9488 net.cpp:165] Memory required for data: 100114944
I1018 00:00:26.287586  9488 layer_factory.hpp:77] Creating layer conv8
I1018 00:00:26.287590  9488 net.cpp:100] Creating Layer conv8
I1018 00:00:26.287592  9488 net.cpp:434] conv8 <- relu4
I1018 00:00:26.287597  9488 net.cpp:408] conv8 -> conv8
I1018 00:00:26.288491  9488 net.cpp:150] Setting up conv8
I1018 00:00:26.288498  9488 net.cpp:157] Top shape: 64 280 1 1 (17920)
I1018 00:00:26.288501  9488 net.cpp:165] Memory required for data: 100186624
I1018 00:00:26.288504  9488 layer_factory.hpp:77] Creating layer pool5
I1018 00:00:26.288507  9488 net.cpp:100] Creating Layer pool5
I1018 00:00:26.288509  9488 net.cpp:434] pool5 <- conv8
I1018 00:00:26.288513  9488 net.cpp:408] pool5 -> pool5
I1018 00:00:26.288537  9488 net.cpp:150] Setting up pool5
I1018 00:00:26.288540  9488 net.cpp:157] Top shape: 64 280 1 1 (17920)
I1018 00:00:26.288542  9488 net.cpp:165] Memory required for data: 100258304
I1018 00:00:26.288544  9488 layer_factory.hpp:77] Creating layer drop5
I1018 00:00:26.288548  9488 net.cpp:100] Creating Layer drop5
I1018 00:00:26.288549  9488 net.cpp:434] drop5 <- pool5
I1018 00:00:26.288553  9488 net.cpp:408] drop5 -> drop5
I1018 00:00:26.288573  9488 net.cpp:150] Setting up drop5
I1018 00:00:26.288576  9488 net.cpp:157] Top shape: 64 280 1 1 (17920)
I1018 00:00:26.288578  9488 net.cpp:165] Memory required for data: 100329984
I1018 00:00:26.288580  9488 layer_factory.hpp:77] Creating layer relu5
I1018 00:00:26.288583  9488 net.cpp:100] Creating Layer relu5
I1018 00:00:26.288585  9488 net.cpp:434] relu5 <- drop5
I1018 00:00:26.288588  9488 net.cpp:408] relu5 -> relu5
I1018 00:00:26.288784  9488 net.cpp:150] Setting up relu5
I1018 00:00:26.288790  9488 net.cpp:157] Top shape: 64 280 1 1 (17920)
I1018 00:00:26.288792  9488 net.cpp:165] Memory required for data: 100401664
I1018 00:00:26.288794  9488 layer_factory.hpp:77] Creating layer conv10
I1018 00:00:26.288800  9488 net.cpp:100] Creating Layer conv10
I1018 00:00:26.288801  9488 net.cpp:434] conv10 <- relu5
I1018 00:00:26.288805  9488 net.cpp:408] conv10 -> conv10
I1018 00:00:26.289813  9488 net.cpp:150] Setting up conv10
I1018 00:00:26.289820  9488 net.cpp:157] Top shape: 64 300 1 1 (19200)
I1018 00:00:26.289822  9488 net.cpp:165] Memory required for data: 100478464
I1018 00:00:26.289829  9488 layer_factory.hpp:77] Creating layer pool6
I1018 00:00:26.289834  9488 net.cpp:100] Creating Layer pool6
I1018 00:00:26.289836  9488 net.cpp:434] pool6 <- conv10
I1018 00:00:26.289839  9488 net.cpp:408] pool6 -> pool6
I1018 00:00:26.289865  9488 net.cpp:150] Setting up pool6
I1018 00:00:26.289868  9488 net.cpp:157] Top shape: 64 300 1 1 (19200)
I1018 00:00:26.289870  9488 net.cpp:165] Memory required for data: 100555264
I1018 00:00:26.289880  9488 layer_factory.hpp:77] Creating layer drop6
I1018 00:00:26.289885  9488 net.cpp:100] Creating Layer drop6
I1018 00:00:26.289885  9488 net.cpp:434] drop6 <- pool6
I1018 00:00:26.289890  9488 net.cpp:408] drop6 -> drop6
I1018 00:00:26.289913  9488 net.cpp:150] Setting up drop6
I1018 00:00:26.289917  9488 net.cpp:157] Top shape: 64 300 1 1 (19200)
I1018 00:00:26.289918  9488 net.cpp:165] Memory required for data: 100632064
I1018 00:00:26.289921  9488 layer_factory.hpp:77] Creating layer relu6
I1018 00:00:26.289923  9488 net.cpp:100] Creating Layer relu6
I1018 00:00:26.289927  9488 net.cpp:434] relu6 <- drop6
I1018 00:00:26.289930  9488 net.cpp:408] relu6 -> relu6
I1018 00:00:26.290045  9488 net.cpp:150] Setting up relu6
I1018 00:00:26.290050  9488 net.cpp:157] Top shape: 64 300 1 1 (19200)
I1018 00:00:26.290050  9488 net.cpp:165] Memory required for data: 100708864
I1018 00:00:26.290052  9488 layer_factory.hpp:77] Creating layer conv11
I1018 00:00:26.290057  9488 net.cpp:100] Creating Layer conv11
I1018 00:00:26.290060  9488 net.cpp:434] conv11 <- relu6
I1018 00:00:26.290063  9488 net.cpp:408] conv11 -> conv11
I1018 00:00:26.290791  9488 net.cpp:150] Setting up conv11
I1018 00:00:26.290798  9488 net.cpp:157] Top shape: 64 100 1 1 (6400)
I1018 00:00:26.290801  9488 net.cpp:165] Memory required for data: 100734464
I1018 00:00:26.290804  9488 layer_factory.hpp:77] Creating layer pool7
I1018 00:00:26.290808  9488 net.cpp:100] Creating Layer pool7
I1018 00:00:26.290812  9488 net.cpp:434] pool7 <- conv11
I1018 00:00:26.290814  9488 net.cpp:408] pool7 -> pool7
I1018 00:00:26.290838  9488 net.cpp:150] Setting up pool7
I1018 00:00:26.290843  9488 net.cpp:157] Top shape: 64 100 1 1 (6400)
I1018 00:00:26.290844  9488 net.cpp:165] Memory required for data: 100760064
I1018 00:00:26.290846  9488 layer_factory.hpp:77] Creating layer drop7
I1018 00:00:26.290853  9488 net.cpp:100] Creating Layer drop7
I1018 00:00:26.290854  9488 net.cpp:434] drop7 <- pool7
I1018 00:00:26.290858  9488 net.cpp:408] drop7 -> drop7
I1018 00:00:26.290879  9488 net.cpp:150] Setting up drop7
I1018 00:00:26.290881  9488 net.cpp:157] Top shape: 64 100 1 1 (6400)
I1018 00:00:26.290884  9488 net.cpp:165] Memory required for data: 100785664
I1018 00:00:26.290885  9488 layer_factory.hpp:77] Creating layer relu7
I1018 00:00:26.290889  9488 net.cpp:100] Creating Layer relu7
I1018 00:00:26.290890  9488 net.cpp:434] relu7 <- drop7
I1018 00:00:26.290894  9488 net.cpp:408] relu7 -> relu7
I1018 00:00:26.291010  9488 net.cpp:150] Setting up relu7
I1018 00:00:26.291018  9488 net.cpp:157] Top shape: 64 100 1 1 (6400)
I1018 00:00:26.291018  9488 net.cpp:165] Memory required for data: 100811264
I1018 00:00:26.291020  9488 layer_factory.hpp:77] Creating layer pool
I1018 00:00:26.291024  9488 net.cpp:100] Creating Layer pool
I1018 00:00:26.291026  9488 net.cpp:434] pool <- relu7
I1018 00:00:26.291030  9488 net.cpp:408] pool -> pool
I1018 00:00:26.291230  9488 net.cpp:150] Setting up pool
I1018 00:00:26.291237  9488 net.cpp:157] Top shape: 64 100 1 1 (6400)
I1018 00:00:26.291239  9488 net.cpp:165] Memory required for data: 100836864
I1018 00:00:26.291241  9488 layer_factory.hpp:77] Creating layer flatten
I1018 00:00:26.291245  9488 net.cpp:100] Creating Layer flatten
I1018 00:00:26.291247  9488 net.cpp:434] flatten <- pool
I1018 00:00:26.291251  9488 net.cpp:408] flatten -> flatten
I1018 00:00:26.291266  9488 net.cpp:150] Setting up flatten
I1018 00:00:26.291271  9488 net.cpp:157] Top shape: 64 100 (6400)
I1018 00:00:26.291276  9488 net.cpp:165] Memory required for data: 100862464
I1018 00:00:26.291280  9488 layer_factory.hpp:77] Creating layer flatten_flatten_0_split
I1018 00:00:26.291285  9488 net.cpp:100] Creating Layer flatten_flatten_0_split
I1018 00:00:26.291288  9488 net.cpp:434] flatten_flatten_0_split <- flatten
I1018 00:00:26.291292  9488 net.cpp:408] flatten_flatten_0_split -> flatten_flatten_0_split_0
I1018 00:00:26.291297  9488 net.cpp:408] flatten_flatten_0_split -> flatten_flatten_0_split_1
I1018 00:00:26.291323  9488 net.cpp:150] Setting up flatten_flatten_0_split
I1018 00:00:26.291333  9488 net.cpp:157] Top shape: 64 100 (6400)
I1018 00:00:26.291335  9488 net.cpp:157] Top shape: 64 100 (6400)
I1018 00:00:26.291337  9488 net.cpp:165] Memory required for data: 100913664
I1018 00:00:26.291339  9488 layer_factory.hpp:77] Creating layer ip_c
I1018 00:00:26.291343  9488 net.cpp:100] Creating Layer ip_c
I1018 00:00:26.291345  9488 net.cpp:434] ip_c <- flatten_flatten_0_split_0
I1018 00:00:26.291349  9488 net.cpp:408] ip_c -> ip_c
I1018 00:00:26.291683  9488 net.cpp:150] Setting up ip_c
I1018 00:00:26.291689  9488 net.cpp:157] Top shape: 64 20 (1280)
I1018 00:00:26.291692  9488 net.cpp:165] Memory required for data: 100918784
I1018 00:00:26.291695  9488 layer_factory.hpp:77] Creating layer ip_c_ip_c_0_split
I1018 00:00:26.291699  9488 net.cpp:100] Creating Layer ip_c_ip_c_0_split
I1018 00:00:26.291700  9488 net.cpp:434] ip_c_ip_c_0_split <- ip_c
I1018 00:00:26.291704  9488 net.cpp:408] ip_c_ip_c_0_split -> ip_c_ip_c_0_split_0
I1018 00:00:26.291709  9488 net.cpp:408] ip_c_ip_c_0_split -> ip_c_ip_c_0_split_1
I1018 00:00:26.291733  9488 net.cpp:150] Setting up ip_c_ip_c_0_split
I1018 00:00:26.291738  9488 net.cpp:157] Top shape: 64 20 (1280)
I1018 00:00:26.291739  9488 net.cpp:157] Top shape: 64 20 (1280)
I1018 00:00:26.291741  9488 net.cpp:165] Memory required for data: 100929024
I1018 00:00:26.291743  9488 layer_factory.hpp:77] Creating layer accuracy_f
I1018 00:00:26.291746  9488 net.cpp:100] Creating Layer accuracy_f
I1018 00:00:26.291749  9488 net.cpp:434] accuracy_f <- ip_c_ip_c_0_split_0
I1018 00:00:26.291751  9488 net.cpp:434] accuracy_f <- label_coarse_data_1_split_0
I1018 00:00:26.291754  9488 net.cpp:408] accuracy_f -> accuracy_f
…
I1018 00:00:26.292639  9488 net.cpp:283] Network initialization done.
I1018 00:00:26.292836  9488 solver.cpp:181] Creating test net (#0) specified by test_net file: /home/adam/Honours/Honours-Project/cifar-100_pooling/max/leakyrelu/poolcnn_leakyrelu_test.prototxt
I1018 00:00:26.292959  9488 net.cpp:58] Initializing net from parameters: 
state {
  phase: TEST
}
layer {
  name: "data"
  type: "HDF5Data"
  top: "data"
  top: "label_coarse"
  top: "label_fine"
  hdf5_data_param {
    source: "../../../../data/cifar-100/cifar_100_caffe_hdf5/test.txt"
    batch_size: 100
  }
}
layer {
  name: "conv1"
  type: "Convolution"
  bottom: "data"
  top: "conv1"
  convolution_param {
    num_output: 192
    kernel_size: 5
    weight_filler {
      type: "xavier"
    }
  }
}
layer {
  name: "pool1"
  type: "Pooling"
  bottom: "conv1"
  top: "pool1"
  pooling_param {
    pool: MAX
    kernel_size: 2
    stride: 2
  }
}
layer {
  name: "drop1"
  type: "Dropout"
  bottom: "pool1"
  top: "drop1"
  dropout_param {
    dropout_ratio: 0
  }
}
layer {
  name: "relu1"
  type: "ReLU"
  bottom: "drop1"
  top: "relu1"
  relu_param {
    negative_slope: 0.01
  }
}
layer {
  name: "conv2"
  type: "Convolution"
  bottom: "relu1"
  top: "conv2"
  convolution_param {
    num_output: 192
    kernel_size: 1
    weight_filler {
      type: "xavier"
    }
  }
}
layer {
  name: "conv3"
  type: "Convolution"
  bottom: "conv2"
  top: "conv3"
  convolution_param {
    num_output: 240
    kernel_size: 3
    weight_filler {
      type: "xavier"
    }
  }
}
layer {
  name: "pool2"
  type: "Pooling"
  bottom: "conv3"
  top: "pool2"
  pooling_param {
    pool: MAX
    kernel_size: 2
    stride: 2
  }
}
layer {
  name: "drop2"
  type: "Dropout"
  bottom: "pool2"
  top: "drop2"
  dropout_param {
    dropout_ratio: 0.1
  }
}
layer {
  name: "relu2"
  type: "ReLU"
  bottom: "drop2"
  top: "relu2"
  relu_param {
    negative_slope: 0.01
  }
}
layer {
  name: "conv4"
  type: "Convolution"
  bottom: "relu2"
  top: "conv4"
  convolution_param {
    num_output: 240
    kernel_size: 1
    weight_filler {
      type: "xavier"
    }
  }
}
layer {
  name: "conv5"
  type: "Convolution"
  bottom: "conv4"
  top: "conv5"
  convolution_param {
    num_output: 260
    kernel_size: 2
    weight_filler {
      type: "xavier"
    }
  }
}
layer {
  name: "pool3"
  type: "Pooling"
  bottom: "conv5"
  top: "pool3"
  pooling_param {
    pool: MAX
    kernel_size: 2
    stride: 2
  }
}
layer {
  name: "drop3"
  type: "Dropout"
  bottom: "pool3"
  top: "drop3"
  dropout_param {
    dropout_ratio: 0.2
  }
}
layer {
  name: "relu3"
  type: "ReLU"
  bottom: "drop3"
  top: "relu3"
  relu_param {
    negative_slope: 0.01
  }
}
layer {
  name: "conv6"
  type: "Convolution"
  bottom: "relu3"
  top: "conv6"
  convolution_param {
    num_output: 260
    kernel_size: 1
    weight_filler {
      type: "xavier"
    }
  }
}
layer {
  name: "conv7"
  type: "Convolution"
  bottom: "conv6"
  top: "conv7"
  convolution_param {
    num_output: 280
    kernel_size: 2
    weight_filler {
      type: "xavier"
    }
  }
}
layer {
  name: "pool4"
  type: "Pooling"
  bottom: "conv7"
  top: "pool4"
  pooling_param {
    pool: MAX
    kernel_size: 2
    stride: 2
  }
}
layer {
  name: "drop4"
  type: "Dropout"
  bottom: "pool4"
  top: "drop4"
  dropout_param {
    dropout_ratio: 0.3
  }
}
layer {
  name: "relu4"
  type: "ReLU"
  bottom: "drop4"
  top: "relu4"
  relu_param {
    negative_slope: 0.01
  }
}
layer {
  name: "conv8"
  type: "Convolution"
  bottom: "relu4"
  top: "conv8"
  convolution_param {
    num_output: 280
    kernel_size: 1
    weight_filler {
      type: "xavier"
    }
  }
}
layer {
  name: "pool5"
  type: "Pooling"
  bottom: "conv8"
  top: "pool5"
  pooling_param {
    pool: MAX
    kernel_size: 2
    stride: 2
  }
}
layer {
  name: "drop5"
  type: "Dropout"
  bottom: "pool5"
  top: "drop5"
  dropout_param {
    dropout_ratio: 0.4
  }
}
layer {
  name: "relu5"
  type: "ReLU"
  bottom: "drop5"
  top: "relu5"
  relu_param {
    negative_slope: 0.01
  }
}
layer {
  name: "conv10"
  type: "Convolution"
  bottom: "relu5"
  top: "conv10"
  convolution_param {
    num_output: 300
    kernel_size: 1
    weight_filler {
      type: "xavier"
    }
  }
}
layer {
  name: "pool6"
  type: "Pooling"
  bottom: "conv10"
  top: "pool6"
  pooling_param {
    pool: MAX
    kernel_size: 2
    stride: 2
  }
}
layer {
  name: "drop6"
  type: "Dropout"
  bottom: "pool6"
  top: "drop6"
  dropout_param {
    dropout_ratio: 0.5
  }
}
layer {
  name: "relu6"
  type: "ReLU"
  bottom: "drop6"
  top: "relu6"
  relu_param {
    negative_slope: 0.01
  }
}
layer {
  name: "conv11"
  type: "Convolution"
  bottom: "relu6"
  top: "conv11"
  convolution_param {
    num_output: 100
    kernel_size: 1
    weight_filler {
      type: "xavier"
    }
  }
}
layer {
  name: "pool7"
  type: "Pooling"
  bottom: "conv11"
  top: "pool7"
  pooling_param {
    pool: MAX
    kernel_size: 2
    stride: 2
  }
}
layer {
  name: "drop7"
  type: "Dropout"
  bottom: "pool7"
  top: "drop7"
  dropout_param {
    dropout_ratio: 0
  }
}
layer {
  name: "relu7"
  type: "ReLU"
  bottom: "drop7"
  top: "relu7"
  relu_param {
    negative_slope: 0.01
  }
}
layer {
  name: "pool"
  type: "Pooling"
  bottom: "relu7"
  top: "pool"
  pooling_param {
    pool: AVE
    global_pooling: true
  }
}
layer {
  name: "flatten"
  type: "Flatten"
  bottom: "pool"
  top: "flatten"
}
layer {
  name: "ip_c"
  type: "InnerProduct"
  bottom: "flatten"
  top: "ip_c"
  inner_product_param {
    num_output: 20
    weight_filler {
      type: "xavier"
    }
  }
}
layer {
  name: "accuracy_f"
  type: "Accuracy"
  bottom: "ip_c"
  bottom: "label_coarse"
  top: "accuracy_f"
}
layer {
  name: "loss_c"
  type: "SoftmaxWithLoss"
  bottom: "ip_c"
  bottom: "label_coarse"
  top: "loss_c"
}
layer {
  name: "ip_f"
  type: "InnerProduct"
  bottom: "flatten"
  top: "ip_f"
  inner_product_param {
    num_output: 100
    weight_filler {
      type: "xavier"
    }
  }
}
layer {
  name: "accuracy"
  type: "Accuracy"
  bottom: "ip_f"
  bottom: "label_fine"
  top: "accuracy"
}
layer {
  name: "loss_f"
  type: "SoftmaxWithLoss"
  bottom: "ip_f"
  bottom: "label_fine"
  top: "loss_f"
}
I1018 00:00:26.293077  9488 layer_factory.hpp:77] Creating layer data
I1018 00:00:26.293083  9488 net.cpp:100] Creating Layer data
I1018 00:00:26.293088  9488 net.cpp:408] data -> data
I1018 00:00:26.293095  9488 net.cpp:408] data -> label_coarse
I1018 00:00:26.293100  9488 net.cpp:408] data -> label_fine
I1018 00:00:26.293107  9488 hdf5_data_layer.cpp:79] Loading list of HDF5 filenames from: ../../../../data/cifar-100/cifar_100_caffe_hdf5/test.txt
I1018 00:00:26.293123  9488 hdf5_data_layer.cpp:93] Number of HDF5 files: 1
I1018 00:00:26.546681  9488 net.cpp:150] Setting up data
I1018 00:00:26.546706  9488 net.cpp:157] Top shape: 100 3 32 32 (307200)
I1018 00:00:26.546710  9488 net.cpp:157] Top shape: 100 (100)
I1018 00:00:26.546711  9488 net.cpp:157] Top shape: 100 (100)
I1018 00:00:26.546712  9488 net.cpp:165] Memory required for data: 1229600
I1018 00:00:26.546717  9488 layer_factory.hpp:77] Creating layer label_coarse_data_1_split
I1018 00:00:26.546725  9488 net.cpp:100] Creating Layer label_coarse_data_1_split
I1018 00:00:26.546728  9488 net.cpp:434] label_coarse_data_1_split <- label_coarse
I1018 00:00:26.546733  9488 net.cpp:408] label_coarse_data_1_split -> label_coarse_data_1_split_0
I1018 00:00:26.546742  9488 net.cpp:408] label_coarse_data_1_split -> label_coarse_data_1_split_1
I1018 00:00:26.546772  9488 net.cpp:150] Setting up label_coarse_data_1_split
I1018 00:00:26.546775  9488 net.cpp:157] Top shape: 100 (100)
I1018 00:00:26.546794  9488 net.cpp:157] Top shape: 100 (100)
I1018 00:00:26.546797  9488 net.cpp:165] Memory required for data: 1230400
I1018 00:00:26.546798  9488 layer_factory.hpp:77] Creating layer label_fine_data_2_split
I1018 00:00:26.546802  9488 net.cpp:100] Creating Layer label_fine_data_2_split
I1018 00:00:26.546803  9488 net.cpp:434] label_fine_data_2_split <- label_fine
I1018 00:00:26.546808  9488 net.cpp:408] label_fine_data_2_split -> label_fine_data_2_split_0
I1018 00:00:26.546811  9488 net.cpp:408] label_fine_data_2_split -> label_fine_data_2_split_1
I1018 00:00:26.546835  9488 net.cpp:150] Setting up label_fine_data_2_split
I1018 00:00:26.546839  9488 net.cpp:157] Top shape: 100 (100)
I1018 00:00:26.546843  9488 net.cpp:157] Top shape: 100 (100)
I1018 00:00:26.546844  9488 net.cpp:165] Memory required for data: 1231200
I1018 00:00:26.546844  9488 layer_factory.hpp:77] Creating layer conv1
I1018 00:00:26.546851  9488 net.cpp:100] Creating Layer conv1
I1018 00:00:26.546854  9488 net.cpp:434] conv1 <- data
I1018 00:00:26.546856  9488 net.cpp:408] conv1 -> conv1
I1018 00:00:26.547679  9488 net.cpp:150] Setting up conv1
I1018 00:00:26.547688  9488 net.cpp:157] Top shape: 100 192 28 28 (15052800)
I1018 00:00:26.547689  9488 net.cpp:165] Memory required for data: 61442400
I1018 00:00:26.547696  9488 layer_factory.hpp:77] Creating layer pool1
I1018 00:00:26.547703  9488 net.cpp:100] Creating Layer pool1
I1018 00:00:26.547704  9488 net.cpp:434] pool1 <- conv1
I1018 00:00:26.547708  9488 net.cpp:408] pool1 -> pool1
I1018 00:00:26.547734  9488 net.cpp:150] Setting up pool1
I1018 00:00:26.547739  9488 net.cpp:157] Top shape: 100 192 14 14 (3763200)
I1018 00:00:26.547740  9488 net.cpp:165] Memory required for data: 76495200
I1018 00:00:26.547742  9488 layer_factory.hpp:77] Creating layer drop1
I1018 00:00:26.547746  9488 net.cpp:100] Creating Layer drop1
I1018 00:00:26.547749  9488 net.cpp:434] drop1 <- pool1
I1018 00:00:26.547751  9488 net.cpp:408] drop1 -> drop1
I1018 00:00:26.547772  9488 net.cpp:150] Setting up drop1
I1018 00:00:26.547776  9488 net.cpp:157] Top shape: 100 192 14 14 (3763200)
I1018 00:00:26.547777  9488 net.cpp:165] Memory required for data: 91548000
I1018 00:00:26.547780  9488 layer_factory.hpp:77] Creating layer relu1
I1018 00:00:26.547782  9488 net.cpp:100] Creating Layer relu1
I1018 00:00:26.547785  9488 net.cpp:434] relu1 <- drop1
I1018 00:00:26.547788  9488 net.cpp:408] relu1 -> relu1
I1018 00:00:26.547906  9488 net.cpp:150] Setting up relu1
I1018 00:00:26.547912  9488 net.cpp:157] Top shape: 100 192 14 14 (3763200)
I1018 00:00:26.547914  9488 net.cpp:165] Memory required for data: 106600800
I1018 00:00:26.547915  9488 layer_factory.hpp:77] Creating layer conv2
I1018 00:00:26.547919  9488 net.cpp:100] Creating Layer conv2
I1018 00:00:26.547922  9488 net.cpp:434] conv2 <- relu1
I1018 00:00:26.547925  9488 net.cpp:408] conv2 -> conv2
I1018 00:00:26.548687  9488 net.cpp:150] Setting up conv2
I1018 00:00:26.548694  9488 net.cpp:157] Top shape: 100 192 14 14 (3763200)
I1018 00:00:26.548696  9488 net.cpp:165] Memory required for data: 121653600
I1018 00:00:26.548702  9488 layer_factory.hpp:77] Creating layer conv3
I1018 00:00:26.548707  9488 net.cpp:100] Creating Layer conv3
I1018 00:00:26.548709  9488 net.cpp:434] conv3 <- conv2
I1018 00:00:26.548713  9488 net.cpp:408] conv3 -> conv3
I1018 00:00:26.551192  9488 net.cpp:150] Setting up conv3
I1018 00:00:26.551199  9488 net.cpp:157] Top shape: 100 240 12 12 (3456000)
I1018 00:00:26.551201  9488 net.cpp:165] Memory required for data: 135477600
I1018 00:00:26.551208  9488 layer_factory.hpp:77] Creating layer pool2
I1018 00:00:26.551211  9488 net.cpp:100] Creating Layer pool2
I1018 00:00:26.551213  9488 net.cpp:434] pool2 <- conv3
I1018 00:00:26.551216  9488 net.cpp:408] pool2 -> pool2
I1018 00:00:26.551240  9488 net.cpp:150] Setting up pool2
I1018 00:00:26.551244  9488 net.cpp:157] Top shape: 100 240 6 6 (864000)
I1018 00:00:26.551246  9488 net.cpp:165] Memory required for data: 138933600
I1018 00:00:26.551249  9488 layer_factory.hpp:77] Creating layer drop2
I1018 00:00:26.551259  9488 net.cpp:100] Creating Layer drop2
I1018 00:00:26.551261  9488 net.cpp:434] drop2 <- pool2
I1018 00:00:26.551265  9488 net.cpp:408] drop2 -> drop2
I1018 00:00:26.551286  9488 net.cpp:150] Setting up drop2
I1018 00:00:26.551290  9488 net.cpp:157] Top shape: 100 240 6 6 (864000)
I1018 00:00:26.551291  9488 net.cpp:165] Memory required for data: 142389600
I1018 00:00:26.551293  9488 layer_factory.hpp:77] Creating layer relu2
I1018 00:00:26.551296  9488 net.cpp:100] Creating Layer relu2
I1018 00:00:26.551298  9488 net.cpp:434] relu2 <- drop2
I1018 00:00:26.551301  9488 net.cpp:408] relu2 -> relu2
I1018 00:00:26.551496  9488 net.cpp:150] Setting up relu2
I1018 00:00:26.551502  9488 net.cpp:157] Top shape: 100 240 6 6 (864000)
I1018 00:00:26.551506  9488 net.cpp:165] Memory required for data: 145845600
I1018 00:00:26.551506  9488 layer_factory.hpp:77] Creating layer conv4
I1018 00:00:26.551512  9488 net.cpp:100] Creating Layer conv4
I1018 00:00:26.551513  9488 net.cpp:434] conv4 <- relu2
I1018 00:00:26.551517  9488 net.cpp:408] conv4 -> conv4
I1018 00:00:26.552528  9488 net.cpp:150] Setting up conv4
I1018 00:00:26.552536  9488 net.cpp:157] Top shape: 100 240 6 6 (864000)
I1018 00:00:26.552538  9488 net.cpp:165] Memory required for data: 149301600
I1018 00:00:26.552542  9488 layer_factory.hpp:77] Creating layer conv5
I1018 00:00:26.552547  9488 net.cpp:100] Creating Layer conv5
I1018 00:00:26.552549  9488 net.cpp:434] conv5 <- conv4
I1018 00:00:26.552552  9488 net.cpp:408] conv5 -> conv5
I1018 00:00:26.554340  9488 net.cpp:150] Setting up conv5
I1018 00:00:26.554348  9488 net.cpp:157] Top shape: 100 260 5 5 (650000)
I1018 00:00:26.554350  9488 net.cpp:165] Memory required for data: 151901600
I1018 00:00:26.554357  9488 layer_factory.hpp:77] Creating layer pool3
I1018 00:00:26.554361  9488 net.cpp:100] Creating Layer pool3
I1018 00:00:26.554363  9488 net.cpp:434] pool3 <- conv5
I1018 00:00:26.554368  9488 net.cpp:408] pool3 -> pool3
I1018 00:00:26.554394  9488 net.cpp:150] Setting up pool3
I1018 00:00:26.554399  9488 net.cpp:157] Top shape: 100 260 3 3 (234000)
I1018 00:00:26.554400  9488 net.cpp:165] Memory required for data: 152837600
I1018 00:00:26.554401  9488 layer_factory.hpp:77] Creating layer drop3
I1018 00:00:26.554405  9488 net.cpp:100] Creating Layer drop3
I1018 00:00:26.554407  9488 net.cpp:434] drop3 <- pool3
I1018 00:00:26.554410  9488 net.cpp:408] drop3 -> drop3
I1018 00:00:26.554432  9488 net.cpp:150] Setting up drop3
I1018 00:00:26.554435  9488 net.cpp:157] Top shape: 100 260 3 3 (234000)
I1018 00:00:26.554437  9488 net.cpp:165] Memory required for data: 153773600
I1018 00:00:26.554440  9488 layer_factory.hpp:77] Creating layer relu3
I1018 00:00:26.554445  9488 net.cpp:100] Creating Layer relu3
I1018 00:00:26.554445  9488 net.cpp:434] relu3 <- drop3
I1018 00:00:26.554450  9488 net.cpp:408] relu3 -> relu3
I1018 00:00:26.554656  9488 net.cpp:150] Setting up relu3
I1018 00:00:26.554662  9488 net.cpp:157] Top shape: 100 260 3 3 (234000)
I1018 00:00:26.554664  9488 net.cpp:165] Memory required for data: 154709600
I1018 00:00:26.554666  9488 layer_factory.hpp:77] Creating layer conv6
I1018 00:00:26.554672  9488 net.cpp:100] Creating Layer conv6
I1018 00:00:26.554673  9488 net.cpp:434] conv6 <- relu3
I1018 00:00:26.554677  9488 net.cpp:408] conv6 -> conv6
I1018 00:00:26.555737  9488 net.cpp:150] Setting up conv6
I1018 00:00:26.555745  9488 net.cpp:157] Top shape: 100 260 3 3 (234000)
I1018 00:00:26.555747  9488 net.cpp:165] Memory required for data: 155645600
I1018 00:00:26.555752  9488 layer_factory.hpp:77] Creating layer conv7
I1018 00:00:26.555757  9488 net.cpp:100] Creating Layer conv7
I1018 00:00:26.555758  9488 net.cpp:434] conv7 <- conv6
I1018 00:00:26.555761  9488 net.cpp:408] conv7 -> conv7
I1018 00:00:26.557787  9488 net.cpp:150] Setting up conv7
I1018 00:00:26.557796  9488 net.cpp:157] Top shape: 100 280 2 2 (112000)
I1018 00:00:26.557798  9488 net.cpp:165] Memory required for data: 156093600
I1018 00:00:26.557802  9488 layer_factory.hpp:77] Creating layer pool4
I1018 00:00:26.557816  9488 net.cpp:100] Creating Layer pool4
I1018 00:00:26.557819  9488 net.cpp:434] pool4 <- conv7
I1018 00:00:26.557823  9488 net.cpp:408] pool4 -> pool4
I1018 00:00:26.557853  9488 net.cpp:150] Setting up pool4
I1018 00:00:26.557858  9488 net.cpp:157] Top shape: 100 280 1 1 (28000)
I1018 00:00:26.557860  9488 net.cpp:165] Memory required for data: 156205600
I1018 00:00:26.557862  9488 layer_factory.hpp:77] Creating layer drop4
I1018 00:00:26.557865  9488 net.cpp:100] Creating Layer drop4
I1018 00:00:26.557868  9488 net.cpp:434] drop4 <- pool4
I1018 00:00:26.557870  9488 net.cpp:408] drop4 -> drop4
I1018 00:00:26.557893  9488 net.cpp:150] Setting up drop4
I1018 00:00:26.557896  9488 net.cpp:157] Top shape: 100 280 1 1 (28000)
I1018 00:00:26.557899  9488 net.cpp:165] Memory required for data: 156317600
I1018 00:00:26.557904  9488 layer_factory.hpp:77] Creating layer relu4
I1018 00:00:26.557909  9488 net.cpp:100] Creating Layer relu4
I1018 00:00:26.557914  9488 net.cpp:434] relu4 <- drop4
I1018 00:00:26.557916  9488 net.cpp:408] relu4 -> relu4
I1018 00:00:26.558121  9488 net.cpp:150] Setting up relu4
I1018 00:00:26.558128  9488 net.cpp:157] Top shape: 100 280 1 1 (28000)
I1018 00:00:26.558130  9488 net.cpp:165] Memory required for data: 156429600
I1018 00:00:26.558132  9488 layer_factory.hpp:77] Creating layer conv8
I1018 00:00:26.558137  9488 net.cpp:100] Creating Layer conv8
I1018 00:00:26.558140  9488 net.cpp:434] conv8 <- relu4
I1018 00:00:26.558143  9488 net.cpp:408] conv8 -> conv8
I1018 00:00:26.559064  9488 net.cpp:150] Setting up conv8
I1018 00:00:26.559072  9488 net.cpp:157] Top shape: 100 280 1 1 (28000)
I1018 00:00:26.559074  9488 net.cpp:165] Memory required for data: 156541600
I1018 00:00:26.559077  9488 layer_factory.hpp:77] Creating layer pool5
I1018 00:00:26.559082  9488 net.cpp:100] Creating Layer pool5
I1018 00:00:26.559084  9488 net.cpp:434] pool5 <- conv8
I1018 00:00:26.559087  9488 net.cpp:408] pool5 -> pool5
I1018 00:00:26.559113  9488 net.cpp:150] Setting up pool5
I1018 00:00:26.559118  9488 net.cpp:157] Top shape: 100 280 1 1 (28000)
I1018 00:00:26.559119  9488 net.cpp:165] Memory required for data: 156653600
I1018 00:00:26.559121  9488 layer_factory.hpp:77] Creating layer drop5
I1018 00:00:26.559124  9488 net.cpp:100] Creating Layer drop5
I1018 00:00:26.559126  9488 net.cpp:434] drop5 <- pool5
I1018 00:00:26.559129  9488 net.cpp:408] drop5 -> drop5
I1018 00:00:26.559152  9488 net.cpp:150] Setting up drop5
I1018 00:00:26.559155  9488 net.cpp:157] Top shape: 100 280 1 1 (28000)
I1018 00:00:26.559156  9488 net.cpp:165] Memory required for data: 156765600
I1018 00:00:26.559159  9488 layer_factory.hpp:77] Creating layer relu5
I1018 00:00:26.559161  9488 net.cpp:100] Creating Layer relu5
I1018 00:00:26.559164  9488 net.cpp:434] relu5 <- drop5
I1018 00:00:26.559165  9488 net.cpp:408] relu5 -> relu5
I1018 00:00:26.559279  9488 net.cpp:150] Setting up relu5
I1018 00:00:26.559283  9488 net.cpp:157] Top shape: 100 280 1 1 (28000)
I1018 00:00:26.559285  9488 net.cpp:165] Memory required for data: 156877600
I1018 00:00:26.559288  9488 layer_factory.hpp:77] Creating layer conv10
I1018 00:00:26.559293  9488 net.cpp:100] Creating Layer conv10
I1018 00:00:26.559294  9488 net.cpp:434] conv10 <- relu5
I1018 00:00:26.559298  9488 net.cpp:408] conv10 -> conv10
I1018 00:00:26.560219  9488 net.cpp:150] Setting up conv10
I1018 00:00:26.560226  9488 net.cpp:157] Top shape: 100 300 1 1 (30000)
I1018 00:00:26.560228  9488 net.cpp:165] Memory required for data: 156997600
I1018 00:00:26.560235  9488 layer_factory.hpp:77] Creating layer pool6
I1018 00:00:26.560240  9488 net.cpp:100] Creating Layer pool6
I1018 00:00:26.560241  9488 net.cpp:434] pool6 <- conv10
I1018 00:00:26.560245  9488 net.cpp:408] pool6 -> pool6
I1018 00:00:26.560269  9488 net.cpp:150] Setting up pool6
I1018 00:00:26.560273  9488 net.cpp:157] Top shape: 100 300 1 1 (30000)
I1018 00:00:26.560276  9488 net.cpp:165] Memory required for data: 157117600
I1018 00:00:26.560277  9488 layer_factory.hpp:77] Creating layer drop6
I1018 00:00:26.560286  9488 net.cpp:100] Creating Layer drop6
I1018 00:00:26.560288  9488 net.cpp:434] drop6 <- pool6
I1018 00:00:26.560292  9488 net.cpp:408] drop6 -> drop6
I1018 00:00:26.560317  9488 net.cpp:150] Setting up drop6
I1018 00:00:26.560320  9488 net.cpp:157] Top shape: 100 300 1 1 (30000)
I1018 00:00:26.560322  9488 net.cpp:165] Memory required for data: 157237600
I1018 00:00:26.560324  9488 layer_factory.hpp:77] Creating layer relu6
I1018 00:00:26.560328  9488 net.cpp:100] Creating Layer relu6
I1018 00:00:26.560329  9488 net.cpp:434] relu6 <- drop6
I1018 00:00:26.560331  9488 net.cpp:408] relu6 -> relu6
I1018 00:00:26.560444  9488 net.cpp:150] Setting up relu6
I1018 00:00:26.560449  9488 net.cpp:157] Top shape: 100 300 1 1 (30000)
I1018 00:00:26.560451  9488 net.cpp:165] Memory required for data: 157357600
I1018 00:00:26.560453  9488 layer_factory.hpp:77] Creating layer conv11
I1018 00:00:26.560459  9488 net.cpp:100] Creating Layer conv11
I1018 00:00:26.560462  9488 net.cpp:434] conv11 <- relu6
I1018 00:00:26.560466  9488 net.cpp:408] conv11 -> conv11
I1018 00:00:26.561187  9488 net.cpp:150] Setting up conv11
I1018 00:00:26.561194  9488 net.cpp:157] Top shape: 100 100 1 1 (10000)
I1018 00:00:26.561197  9488 net.cpp:165] Memory required for data: 157397600
I1018 00:00:26.561200  9488 layer_factory.hpp:77] Creating layer pool7
I1018 00:00:26.561204  9488 net.cpp:100] Creating Layer pool7
I1018 00:00:26.561206  9488 net.cpp:434] pool7 <- conv11
I1018 00:00:26.561209  9488 net.cpp:408] pool7 -> pool7
I1018 00:00:26.561235  9488 net.cpp:150] Setting up pool7
I1018 00:00:26.561240  9488 net.cpp:157] Top shape: 100 100 1 1 (10000)
I1018 00:00:26.561242  9488 net.cpp:165] Memory required for data: 157437600
I1018 00:00:26.561244  9488 layer_factory.hpp:77] Creating layer drop7
I1018 00:00:26.561249  9488 net.cpp:100] Creating Layer drop7
I1018 00:00:26.561251  9488 net.cpp:434] drop7 <- pool7
I1018 00:00:26.561254  9488 net.cpp:408] drop7 -> drop7
I1018 00:00:26.561280  9488 net.cpp:150] Setting up drop7
I1018 00:00:26.561283  9488 net.cpp:157] Top shape: 100 100 1 1 (10000)
I1018 00:00:26.561285  9488 net.cpp:165] Memory required for data: 157477600
I1018 00:00:26.561287  9488 layer_factory.hpp:77] Creating layer relu7
I1018 00:00:26.561290  9488 net.cpp:100] Creating Layer relu7
I1018 00:00:26.561291  9488 net.cpp:434] relu7 <- drop7
I1018 00:00:26.561295  9488 net.cpp:408] relu7 -> relu7
I1018 00:00:26.561487  9488 net.cpp:150] Setting up relu7
I1018 00:00:26.561494  9488 net.cpp:157] Top shape: 100 100 1 1 (10000)
I1018 00:00:26.561496  9488 net.cpp:165] Memory required for data: 157517600
I1018 00:00:26.561497  9488 layer_factory.hpp:77] Creating layer pool
I1018 00:00:26.561501  9488 net.cpp:100] Creating Layer pool
I1018 00:00:26.561503  9488 net.cpp:434] pool <- relu7
I1018 00:00:26.561507  9488 net.cpp:408] pool -> pool
I1018 00:00:26.561619  9488 net.cpp:150] Setting up pool
I1018 00:00:26.561625  9488 net.cpp:157] Top shape: 100 100 1 1 (10000)
I1018 00:00:26.561626  9488 net.cpp:165] Memory required for data: 157557600
I1018 00:00:26.561628  9488 layer_factory.hpp:77] Creating layer flatten
I1018 00:00:26.561632  9488 net.cpp:100] Creating Layer flatten
I1018 00:00:26.561635  9488 net.cpp:434] flatten <- pool
I1018 00:00:26.561637  9488 net.cpp:408] flatten -> flatten
I1018 00:00:26.561655  9488 net.cpp:150] Setting up flatten
I1018 00:00:26.561658  9488 net.cpp:157] Top shape: 100 100 (10000)
I1018 00:00:26.561661  9488 net.cpp:165] Memory required for data: 157597600
I1018 00:00:26.561662  9488 layer_factory.hpp:77] Creating layer flatten_flatten_0_split
I1018 00:00:26.561669  9488 net.cpp:100] Creating Layer flatten_flatten_0_split
I1018 00:00:26.561671  9488 net.cpp:434] flatten_flatten_0_split <- flatten
I1018 00:00:26.561676  9488 net.cpp:408] flatten_flatten_0_split -> flatten_flatten_0_split_0
I1018 00:00:26.561679  9488 net.cpp:408] flatten_flatten_0_split -> flatten_flatten_0_split_1
I1018 00:00:26.561704  9488 net.cpp:150] Setting up flatten_flatten_0_split
I1018 00:00:26.561708  9488 net.cpp:157] Top shape: 100 100 (10000)
I1018 00:00:26.561719  9488 net.cpp:157] Top shape: 100 100 (10000)
I1018 00:00:26.561722  9488 net.cpp:165] Memory required for data: 157677600
I1018 00:00:26.561727  9488 layer_factory.hpp:77] Creating layer ip_c
I1018 00:00:26.561733  9488 net.cpp:100] Creating Layer ip_c
I1018 00:00:26.561736  9488 net.cpp:434] ip_c <- flatten_flatten_0_split_0
I1018 00:00:26.561740  9488 net.cpp:408] ip_c -> ip_c
I1018 00:00:26.561820  9488 net.cpp:150] Setting up ip_c
I1018 00:00:26.561825  9488 net.cpp:157] Top shape: 100 20 (2000)
I1018 00:00:26.561830  9488 net.cpp:165] Memory required for data: 157685600
I1018 00:00:26.561835  9488 layer_factory.hpp:77] Creating layer ip_c_ip_c_0_split
I1018 00:00:26.561838  9488 net.cpp:100] Creating Layer ip_c_ip_c_0_split
I1018 00:00:26.561841  9488 net.cpp:434] ip_c_ip_c_0_split <- ip_c
I1018 00:00:26.561848  9488 net.cpp:408] ip_c_ip_c_0_split -> ip_c_ip_c_0_split_0
I1018 00:00:26.561854  9488 net.cpp:408] ip_c_ip_c_0_split -> ip_c_ip_c_0_split_1
I1018 00:00:26.561880  9488 net.cpp:150] Setting up ip_c_ip_c_0_split
I1018 00:00:26.561884  9488 net.cpp:157] Top shape: 100 20 (2000)
I1018 00:00:26.561888  9488 net.cpp:157] Top shape: 100 20 (2000)
I1018 00:00:26.561892  9488 net.cpp:165] Memory required for data: 157701600
I1018 00:00:26.561894  9488 layer_factory.hpp:77] Creating layer accuracy_f
I1018 00:00:26.561899  9488 net.cpp:100] Creating Layer accuracy_f
I1018 00:00:26.561902  9488 net.cpp:434] accuracy_f <- ip_c_ip_c_0_split_0
I1018 00:00:26.561906  9488 net.cpp:434] accuracy_f <- label_coarse_data_1_split_0
I1018 00:00:26.561910  9488 net.cpp:408] accuracy_f -> accuracy_f
…
