…
train_state {
  level: 0
  stage: ""
}
type: "Adam"
I1020 06:45:57.686933 11630 solver.cpp:81] Creating training net from train_net file: /home/adam/Honours/Honours-Project/cifar-100_pooling/max/relu/poolcnn_relu_train.prototxt
I1020 06:45:57.687223 11630 net.cpp:58] Initializing net from parameters: 
state {
  phase: TRAIN
  level: 0
  stage: ""
}
layer {
  name: "data"
  type: "HDF5Data"
  top: "data"
  top: "label_coarse"
  top: "label_fine"
  hdf5_data_param {
    source: "../../../../data/cifar-100/cifar_100_caffe_hdf5/train.txt"
    batch_size: 64
  }
}
layer {
  name: "conv1"
  type: "Convolution"
  bottom: "data"
  top: "conv1"
  convolution_param {
    num_output: 192
    kernel_size: 5
    weight_filler {
      type: "xavier"
    }
  }
}
layer {
  name: "relu1"
  type: "ReLU"
  bottom: "conv1"
  top: "relu1"
}
layer {
  name: "drop1"
  type: "Dropout"
  bottom: "relu1"
  top: "drop1"
  dropout_param {
    dropout_ratio: 0
  }
}
layer {
  name: "pool1"
  type: "Pooling"
  bottom: "drop1"
  top: "pool1"
  pooling_param {
    pool: MAX
    kernel_size: 2
    stride: 2
  }
}
layer {
  name: "conv2"
  type: "Convolution"
  bottom: "pool1"
  top: "conv2"
  convolution_param {
    num_output: 192
    kernel_size: 1
    weight_filler {
      type: "xavier"
    }
  }
}
layer {
  name: "relu2"
  type: "ReLU"
  bottom: "conv2"
  top: "relu2"
}
layer {
  name: "conv3"
  type: "Convolution"
  bottom: "relu2"
  top: "conv3"
  convolution_param {
    num_output: 240
    kernel_size: 3
    weight_filler {
      type: "xavier"
    }
  }
}
layer {
  name: "relu3"
  type: "ReLU"
  bottom: "conv3"
  top: "relu3"
}
layer {
  name: "drop2"
  type: "Dropout"
  bottom: "relu3"
  top: "drop2"
  dropout_param {
    dropout_ratio: 0.1
  }
}
layer {
  name: "pool2"
  type: "Pooling"
  bottom: "drop2"
  top: "pool2"
  pooling_param {
    pool: MAX
    kernel_size: 2
    stride: 2
  }
}
layer {
  name: "conv4"
  type: "Convolution"
  bottom: "pool2"
  top: "conv4"
  convolution_param {
    num_output: 240
    kernel_size: 1
    weight_filler {
      type: "xavier"
    }
  }
}
layer {
  name: "relu4"
  type: "ReLU"
  bottom: "conv4"
  top: "relu4"
}
layer {
  name: "conv5"
  type: "Convolution"
  bottom: "relu4"
  top: "conv5"
  convolution_param {
    num_output: 260
    kernel_size: 2
    weight_filler {
      type: "xavier"
    }
  }
}
layer {
  name: "relu5"
  type: "ReLU"
  bottom: "conv5"
  top: "relu5"
}
layer {
  name: "drop3"
  type: "Dropout"
  bottom: "relu5"
  top: "drop3"
  dropout_param {
    dropout_ratio: 0.2
  }
}
layer {
  name: "pool3"
  type: "Pooling"
  bottom: "drop3"
  top: "pool3"
  pooling_param {
    pool: MAX
    kernel_size: 2
    stride: 2
  }
}
layer {
  name: "conv6"
  type: "Convolution"
  bottom: "pool3"
  top: "conv6"
  convolution_param {
    num_output: 260
    kernel_size: 1
    weight_filler {
      type: "xavier"
    }
  }
}
layer {
  name: "relu6"
  type: "ReLU"
  bottom: "conv6"
  top: "relu6"
}
layer {
  name: "conv7"
  type: "Convolution"
  bottom: "relu6"
  top: "conv7"
  convolution_param {
    num_output: 280
    kernel_size: 2
    weight_filler {
      type: "xavier"
    }
  }
}
layer {
  name: "relu7"
  type: "ReLU"
  bottom: "conv7"
  top: "relu7"
}
layer {
  name: "drop4"
  type: "Dropout"
  bottom: "relu7"
  top: "drop4"
  dropout_param {
    dropout_ratio: 0.3
  }
}
layer {
  name: "pool4"
  type: "Pooling"
  bottom: "drop4"
  top: "pool4"
  pooling_param {
    pool: MAX
    kernel_size: 2
    stride: 2
  }
}
layer {
  name: "conv8"
  type: "Convolution"
  bottom: "pool4"
  top: "conv8"
  convolution_param {
    num_output: 280
    kernel_size: 1
    weight_filler {
      type: "xavier"
    }
  }
}
layer {
  name: "relu8"
  type: "ReLU"
  bottom: "conv8"
  top: "relu8"
}
layer {
  name: "drop5"
  type: "Dropout"
  bottom: "relu8"
  top: "drop5"
  dropout_param {
    dropout_ratio: 0.4
  }
}
layer {
  name: "pool5"
  type: "Pooling"
  bottom: "drop5"
  top: "pool5"
  pooling_param {
    pool: MAX
    kernel_size: 2
    stride: 2
  }
}
layer {
  name: "conv10"
  type: "Convolution"
  bottom: "pool5"
  top: "conv10"
  convolution_param {
    num_output: 300
    kernel_size: 1
    weight_filler {
      type: "xavier"
    }
  }
}
layer {
  name: "relu10"
  type: "ReLU"
  bottom: "conv10"
  top: "relu10"
}
layer {
  name: "drop6"
  type: "Dropout"
  bottom: "relu10"
  top: "drop6"
  dropout_param {
    dropout_ratio: 0.5
  }
}
layer {
  name: "pool6"
  type: "Pooling"
  bottom: "drop6"
  top: "pool6"
  pooling_param {
    pool: MAX
    kernel_size: 2
    stride: 2
  }
}
layer {
  name: "conv11"
  type: "Convolution"
  bottom: "pool6"
  top: "conv11"
  convolution_param {
    num_output: 100
    kernel_size: 1
    weight_filler {
      type: "xavier"
    }
  }
}
layer {
  name: "relu11"
  type: "ReLU"
  bottom: "conv11"
  top: "relu11"
}
layer {
  name: "drop7"
  type: "Dropout"
  bottom: "relu11"
  top: "drop7"
  dropout_param {
    dropout_ratio: 0
  }
}
layer {
  name: "pool7"
  type: "Pooling"
  bottom: "drop7"
  top: "pool7"
  pooling_param {
    pool: MAX
    kernel_size: 2
    stride: 2
  }
}
layer {
  name: "ip_c"
  type: "InnerProduct"
  bottom: "pool7"
  top: "ip_c"
  inner_product_param {
    num_output: 20
    weight_filler {
      type: "xavier"
    }
  }
}
layer {
  name: "accuracy_f"
  type: "Accuracy"
  bottom: "ip_c"
  bottom: "label_coarse"
  top: "accuracy_f"
}
layer {
  name: "loss_c"
  type: "SoftmaxWithLoss"
  bottom: "ip_c"
  bottom: "label_coarse"
  top: "loss_c"
}
layer {
  name: "ip_f"
  type: "InnerProduct"
  bottom: "pool7"
  top: "ip_f"
  inner_product_param {
    num_output: 100
    weight_filler {
      type: "xavier"
    }
  }
}
layer {
  name: "accuracy"
  type: "Accuracy"
  bottom: "ip_f"
  bottom: "label_fine"
  top: "accuracy"
}
layer {
  name: "loss_f"
  type: "SoftmaxWithLoss"
  bottom: "ip_f"
  bottom: "label_fine"
  top: "loss_f"
}
I1020 06:45:57.687366 11630 layer_factory.hpp:77] Creating layer data
I1020 06:45:57.687376 11630 net.cpp:100] Creating Layer data
I1020 06:45:57.687381 11630 net.cpp:408] data -> data
I1020 06:45:57.687396 11630 net.cpp:408] data -> label_coarse
I1020 06:45:57.687402 11630 net.cpp:408] data -> label_fine
I1020 06:45:57.687407 11630 hdf5_data_layer.cpp:79] Loading list of HDF5 filenames from: ../../../../data/cifar-100/cifar_100_caffe_hdf5/train.txt
I1020 06:45:57.687427 11630 hdf5_data_layer.cpp:93] Number of HDF5 files: 1
I1020 06:45:57.688045 11630 hdf5.cpp:35] Datatype class: H5T_INTEGER
I1020 06:45:59.261901 11630 net.cpp:150] Setting up data
I1020 06:45:59.261926 11630 net.cpp:157] Top shape: 64 3 32 32 (196608)
I1020 06:45:59.261930 11630 net.cpp:157] Top shape: 64 (64)
I1020 06:45:59.261932 11630 net.cpp:157] Top shape: 64 (64)
I1020 06:45:59.261934 11630 net.cpp:165] Memory required for data: 786944
I1020 06:45:59.261940 11630 layer_factory.hpp:77] Creating layer label_coarse_data_1_split
I1020 06:45:59.261948 11630 net.cpp:100] Creating Layer label_coarse_data_1_split
I1020 06:45:59.261953 11630 net.cpp:434] label_coarse_data_1_split <- label_coarse
I1020 06:45:59.261965 11630 net.cpp:408] label_coarse_data_1_split -> label_coarse_data_1_split_0
I1020 06:45:59.261973 11630 net.cpp:408] label_coarse_data_1_split -> label_coarse_data_1_split_1
I1020 06:45:59.261997 11630 net.cpp:150] Setting up label_coarse_data_1_split
I1020 06:45:59.262001 11630 net.cpp:157] Top shape: 64 (64)
I1020 06:45:59.262004 11630 net.cpp:157] Top shape: 64 (64)
I1020 06:45:59.262006 11630 net.cpp:165] Memory required for data: 787456
I1020 06:45:59.262007 11630 layer_factory.hpp:77] Creating layer label_fine_data_2_split
I1020 06:45:59.262024 11630 net.cpp:100] Creating Layer label_fine_data_2_split
I1020 06:45:59.262027 11630 net.cpp:434] label_fine_data_2_split <- label_fine
I1020 06:45:59.262030 11630 net.cpp:408] label_fine_data_2_split -> label_fine_data_2_split_0
I1020 06:45:59.262034 11630 net.cpp:408] label_fine_data_2_split -> label_fine_data_2_split_1
I1020 06:45:59.262055 11630 net.cpp:150] Setting up label_fine_data_2_split
I1020 06:45:59.262059 11630 net.cpp:157] Top shape: 64 (64)
I1020 06:45:59.262061 11630 net.cpp:157] Top shape: 64 (64)
I1020 06:45:59.262063 11630 net.cpp:165] Memory required for data: 787968
I1020 06:45:59.262064 11630 layer_factory.hpp:77] Creating layer conv1
I1020 06:45:59.262075 11630 net.cpp:100] Creating Layer conv1
I1020 06:45:59.262076 11630 net.cpp:434] conv1 <- data
I1020 06:45:59.262079 11630 net.cpp:408] conv1 -> conv1
I1020 06:45:59.378726 11630 net.cpp:150] Setting up conv1
I1020 06:45:59.378751 11630 net.cpp:157] Top shape: 64 192 28 28 (9633792)
I1020 06:45:59.378753 11630 net.cpp:165] Memory required for data: 39323136
I1020 06:45:59.378770 11630 layer_factory.hpp:77] Creating layer relu1
I1020 06:45:59.378782 11630 net.cpp:100] Creating Layer relu1
I1020 06:45:59.378785 11630 net.cpp:434] relu1 <- conv1
I1020 06:45:59.378793 11630 net.cpp:408] relu1 -> relu1
I1020 06:45:59.378921 11630 net.cpp:150] Setting up relu1
I1020 06:45:59.378926 11630 net.cpp:157] Top shape: 64 192 28 28 (9633792)
I1020 06:45:59.378928 11630 net.cpp:165] Memory required for data: 77858304
I1020 06:45:59.378931 11630 layer_factory.hpp:77] Creating layer drop1
I1020 06:45:59.378936 11630 net.cpp:100] Creating Layer drop1
I1020 06:45:59.378937 11630 net.cpp:434] drop1 <- relu1
I1020 06:45:59.378940 11630 net.cpp:408] drop1 -> drop1
I1020 06:45:59.378965 11630 net.cpp:150] Setting up drop1
I1020 06:45:59.378969 11630 net.cpp:157] Top shape: 64 192 28 28 (9633792)
I1020 06:45:59.378971 11630 net.cpp:165] Memory required for data: 116393472
I1020 06:45:59.378973 11630 layer_factory.hpp:77] Creating layer pool1
I1020 06:45:59.378976 11630 net.cpp:100] Creating Layer pool1
I1020 06:45:59.378978 11630 net.cpp:434] pool1 <- drop1
I1020 06:45:59.378981 11630 net.cpp:408] pool1 -> pool1
I1020 06:45:59.379007 11630 net.cpp:150] Setting up pool1
I1020 06:45:59.379011 11630 net.cpp:157] Top shape: 64 192 14 14 (2408448)
I1020 06:45:59.379012 11630 net.cpp:165] Memory required for data: 126027264
I1020 06:45:59.379014 11630 layer_factory.hpp:77] Creating layer conv2
I1020 06:45:59.379020 11630 net.cpp:100] Creating Layer conv2
I1020 06:45:59.379022 11630 net.cpp:434] conv2 <- pool1
I1020 06:45:59.379027 11630 net.cpp:408] conv2 -> conv2
I1020 06:45:59.379813 11630 net.cpp:150] Setting up conv2
I1020 06:45:59.379822 11630 net.cpp:157] Top shape: 64 192 14 14 (2408448)
I1020 06:45:59.379823 11630 net.cpp:165] Memory required for data: 135661056
I1020 06:45:59.379829 11630 layer_factory.hpp:77] Creating layer relu2
I1020 06:45:59.379833 11630 net.cpp:100] Creating Layer relu2
I1020 06:45:59.379835 11630 net.cpp:434] relu2 <- conv2
I1020 06:45:59.379838 11630 net.cpp:408] relu2 -> relu2
I1020 06:45:59.379951 11630 net.cpp:150] Setting up relu2
I1020 06:45:59.379956 11630 net.cpp:157] Top shape: 64 192 14 14 (2408448)
I1020 06:45:59.379958 11630 net.cpp:165] Memory required for data: 145294848
I1020 06:45:59.379961 11630 layer_factory.hpp:77] Creating layer conv3
I1020 06:45:59.379964 11630 net.cpp:100] Creating Layer conv3
I1020 06:45:59.379966 11630 net.cpp:434] conv3 <- relu2
I1020 06:45:59.379969 11630 net.cpp:408] conv3 -> conv3
I1020 06:45:59.382359 11630 net.cpp:150] Setting up conv3
I1020 06:45:59.382366 11630 net.cpp:157] Top shape: 64 240 12 12 (2211840)
I1020 06:45:59.382369 11630 net.cpp:165] Memory required for data: 154142208
I1020 06:45:59.382375 11630 layer_factory.hpp:77] Creating layer relu3
I1020 06:45:59.382378 11630 net.cpp:100] Creating Layer relu3
I1020 06:45:59.382380 11630 net.cpp:434] relu3 <- conv3
I1020 06:45:59.382383 11630 net.cpp:408] relu3 -> relu3
I1020 06:45:59.382567 11630 net.cpp:150] Setting up relu3
I1020 06:45:59.382586 11630 net.cpp:157] Top shape: 64 240 12 12 (2211840)
I1020 06:45:59.382587 11630 net.cpp:165] Memory required for data: 162989568
I1020 06:45:59.382588 11630 layer_factory.hpp:77] Creating layer drop2
I1020 06:45:59.382593 11630 net.cpp:100] Creating Layer drop2
I1020 06:45:59.382594 11630 net.cpp:434] drop2 <- relu3
I1020 06:45:59.382598 11630 net.cpp:408] drop2 -> drop2
I1020 06:45:59.382619 11630 net.cpp:150] Setting up drop2
I1020 06:45:59.382623 11630 net.cpp:157] Top shape: 64 240 12 12 (2211840)
I1020 06:45:59.382625 11630 net.cpp:165] Memory required for data: 171836928
I1020 06:45:59.382627 11630 layer_factory.hpp:77] Creating layer pool2
I1020 06:45:59.382629 11630 net.cpp:100] Creating Layer pool2
I1020 06:45:59.382632 11630 net.cpp:434] pool2 <- drop2
I1020 06:45:59.382635 11630 net.cpp:408] pool2 -> pool2
I1020 06:45:59.382657 11630 net.cpp:150] Setting up pool2
I1020 06:45:59.382661 11630 net.cpp:157] Top shape: 64 240 6 6 (552960)
I1020 06:45:59.382663 11630 net.cpp:165] Memory required for data: 174048768
I1020 06:45:59.382664 11630 layer_factory.hpp:77] Creating layer conv4
I1020 06:45:59.382668 11630 net.cpp:100] Creating Layer conv4
I1020 06:45:59.382670 11630 net.cpp:434] conv4 <- pool2
I1020 06:45:59.382673 11630 net.cpp:408] conv4 -> conv4
I1020 06:45:59.383496 11630 net.cpp:150] Setting up conv4
I1020 06:45:59.383502 11630 net.cpp:157] Top shape: 64 240 6 6 (552960)
I1020 06:45:59.383504 11630 net.cpp:165] Memory required for data: 176260608
I1020 06:45:59.383508 11630 layer_factory.hpp:77] Creating layer relu4
I1020 06:45:59.383512 11630 net.cpp:100] Creating Layer relu4
I1020 06:45:59.383514 11630 net.cpp:434] relu4 <- conv4
I1020 06:45:59.383517 11630 net.cpp:408] relu4 -> relu4
I1020 06:45:59.383628 11630 net.cpp:150] Setting up relu4
I1020 06:45:59.383635 11630 net.cpp:157] Top shape: 64 240 6 6 (552960)
I1020 06:45:59.383635 11630 net.cpp:165] Memory required for data: 178472448
I1020 06:45:59.383637 11630 layer_factory.hpp:77] Creating layer conv5
I1020 06:45:59.383641 11630 net.cpp:100] Creating Layer conv5
I1020 06:45:59.383643 11630 net.cpp:434] conv5 <- relu4
I1020 06:45:59.383646 11630 net.cpp:408] conv5 -> conv5
I1020 06:45:59.385385 11630 net.cpp:150] Setting up conv5
I1020 06:45:59.385395 11630 net.cpp:157] Top shape: 64 260 5 5 (416000)
I1020 06:45:59.385396 11630 net.cpp:165] Memory required for data: 180136448
I1020 06:45:59.385402 11630 layer_factory.hpp:77] Creating layer relu5
I1020 06:45:59.385407 11630 net.cpp:100] Creating Layer relu5
I1020 06:45:59.385409 11630 net.cpp:434] relu5 <- conv5
I1020 06:45:59.385412 11630 net.cpp:408] relu5 -> relu5
I1020 06:45:59.385522 11630 net.cpp:150] Setting up relu5
I1020 06:45:59.385529 11630 net.cpp:157] Top shape: 64 260 5 5 (416000)
I1020 06:45:59.385530 11630 net.cpp:165] Memory required for data: 181800448
I1020 06:45:59.385532 11630 layer_factory.hpp:77] Creating layer drop3
I1020 06:45:59.385535 11630 net.cpp:100] Creating Layer drop3
I1020 06:45:59.385537 11630 net.cpp:434] drop3 <- relu5
I1020 06:45:59.385540 11630 net.cpp:408] drop3 -> drop3
I1020 06:45:59.385562 11630 net.cpp:150] Setting up drop3
I1020 06:45:59.385566 11630 net.cpp:157] Top shape: 64 260 5 5 (416000)
I1020 06:45:59.385567 11630 net.cpp:165] Memory required for data: 183464448
I1020 06:45:59.385571 11630 layer_factory.hpp:77] Creating layer pool3
I1020 06:45:59.385573 11630 net.cpp:100] Creating Layer pool3
I1020 06:45:59.385576 11630 net.cpp:434] pool3 <- drop3
I1020 06:45:59.385578 11630 net.cpp:408] pool3 -> pool3
I1020 06:45:59.385601 11630 net.cpp:150] Setting up pool3
I1020 06:45:59.385603 11630 net.cpp:157] Top shape: 64 260 3 3 (149760)
I1020 06:45:59.385606 11630 net.cpp:165] Memory required for data: 184063488
I1020 06:45:59.385607 11630 layer_factory.hpp:77] Creating layer conv6
I1020 06:45:59.385612 11630 net.cpp:100] Creating Layer conv6
I1020 06:45:59.385613 11630 net.cpp:434] conv6 <- pool3
I1020 06:45:59.385615 11630 net.cpp:408] conv6 -> conv6
I1020 06:45:59.386719 11630 net.cpp:150] Setting up conv6
I1020 06:45:59.386734 11630 net.cpp:157] Top shape: 64 260 3 3 (149760)
I1020 06:45:59.386736 11630 net.cpp:165] Memory required for data: 184662528
I1020 06:45:59.386740 11630 layer_factory.hpp:77] Creating layer relu6
I1020 06:45:59.386744 11630 net.cpp:100] Creating Layer relu6
I1020 06:45:59.386745 11630 net.cpp:434] relu6 <- conv6
I1020 06:45:59.386749 11630 net.cpp:408] relu6 -> relu6
I1020 06:45:59.386939 11630 net.cpp:150] Setting up relu6
I1020 06:45:59.386945 11630 net.cpp:157] Top shape: 64 260 3 3 (149760)
I1020 06:45:59.386947 11630 net.cpp:165] Memory required for data: 185261568
I1020 06:45:59.386950 11630 layer_factory.hpp:77] Creating layer conv7
I1020 06:45:59.386953 11630 net.cpp:100] Creating Layer conv7
I1020 06:45:59.386955 11630 net.cpp:434] conv7 <- relu6
I1020 06:45:59.386960 11630 net.cpp:408] conv7 -> conv7
I1020 06:45:59.388859 11630 net.cpp:150] Setting up conv7
I1020 06:45:59.388867 11630 net.cpp:157] Top shape: 64 280 2 2 (71680)
I1020 06:45:59.388870 11630 net.cpp:165] Memory required for data: 185548288
I1020 06:45:59.388873 11630 layer_factory.hpp:77] Creating layer relu7
I1020 06:45:59.388876 11630 net.cpp:100] Creating Layer relu7
I1020 06:45:59.388878 11630 net.cpp:434] relu7 <- conv7
I1020 06:45:59.388881 11630 net.cpp:408] relu7 -> relu7
I1020 06:45:59.388996 11630 net.cpp:150] Setting up relu7
I1020 06:45:59.389001 11630 net.cpp:157] Top shape: 64 280 2 2 (71680)
I1020 06:45:59.389003 11630 net.cpp:165] Memory required for data: 185835008
I1020 06:45:59.389004 11630 layer_factory.hpp:77] Creating layer drop4
I1020 06:45:59.389008 11630 net.cpp:100] Creating Layer drop4
I1020 06:45:59.389010 11630 net.cpp:434] drop4 <- relu7
I1020 06:45:59.389014 11630 net.cpp:408] drop4 -> drop4
I1020 06:45:59.389035 11630 net.cpp:150] Setting up drop4
I1020 06:45:59.389039 11630 net.cpp:157] Top shape: 64 280 2 2 (71680)
I1020 06:45:59.389042 11630 net.cpp:165] Memory required for data: 186121728
I1020 06:45:59.389044 11630 layer_factory.hpp:77] Creating layer pool4
I1020 06:45:59.389046 11630 net.cpp:100] Creating Layer pool4
I1020 06:45:59.389050 11630 net.cpp:434] pool4 <- drop4
I1020 06:45:59.389052 11630 net.cpp:408] pool4 -> pool4
I1020 06:45:59.389072 11630 net.cpp:150] Setting up pool4
I1020 06:45:59.389076 11630 net.cpp:157] Top shape: 64 280 1 1 (17920)
I1020 06:45:59.389078 11630 net.cpp:165] Memory required for data: 186193408
I1020 06:45:59.389080 11630 layer_factory.hpp:77] Creating layer conv8
I1020 06:45:59.389084 11630 net.cpp:100] Creating Layer conv8
I1020 06:45:59.389086 11630 net.cpp:434] conv8 <- pool4
I1020 06:45:59.389089 11630 net.cpp:408] conv8 -> conv8
I1020 06:45:59.390061 11630 net.cpp:150] Setting up conv8
I1020 06:45:59.390070 11630 net.cpp:157] Top shape: 64 280 1 1 (17920)
I1020 06:45:59.390072 11630 net.cpp:165] Memory required for data: 186265088
I1020 06:45:59.390075 11630 layer_factory.hpp:77] Creating layer relu8
I1020 06:45:59.390079 11630 net.cpp:100] Creating Layer relu8
I1020 06:45:59.390080 11630 net.cpp:434] relu8 <- conv8
I1020 06:45:59.390084 11630 net.cpp:408] relu8 -> relu8
I1020 06:45:59.390226 11630 net.cpp:150] Setting up relu8
I1020 06:45:59.390233 11630 net.cpp:157] Top shape: 64 280 1 1 (17920)
I1020 06:45:59.390235 11630 net.cpp:165] Memory required for data: 186336768
I1020 06:45:59.390238 11630 layer_factory.hpp:77] Creating layer drop5
I1020 06:45:59.390242 11630 net.cpp:100] Creating Layer drop5
I1020 06:45:59.390244 11630 net.cpp:434] drop5 <- relu8
I1020 06:45:59.390249 11630 net.cpp:408] drop5 -> drop5
I1020 06:45:59.390278 11630 net.cpp:150] Setting up drop5
I1020 06:45:59.390285 11630 net.cpp:157] Top shape: 64 280 1 1 (17920)
I1020 06:45:59.390288 11630 net.cpp:165] Memory required for data: 186408448
I1020 06:45:59.390290 11630 layer_factory.hpp:77] Creating layer pool5
I1020 06:45:59.390295 11630 net.cpp:100] Creating Layer pool5
I1020 06:45:59.390298 11630 net.cpp:434] pool5 <- drop5
I1020 06:45:59.390302 11630 net.cpp:408] pool5 -> pool5
I1020 06:45:59.390336 11630 net.cpp:150] Setting up pool5
I1020 06:45:59.390341 11630 net.cpp:157] Top shape: 64 280 1 1 (17920)
I1020 06:45:59.390354 11630 net.cpp:165] Memory required for data: 186480128
I1020 06:45:59.390357 11630 layer_factory.hpp:77] Creating layer conv10
I1020 06:45:59.390362 11630 net.cpp:100] Creating Layer conv10
I1020 06:45:59.390365 11630 net.cpp:434] conv10 <- pool5
I1020 06:45:59.390369 11630 net.cpp:408] conv10 -> conv10
I1020 06:45:59.391580 11630 net.cpp:150] Setting up conv10
I1020 06:45:59.391592 11630 net.cpp:157] Top shape: 64 300 1 1 (19200)
I1020 06:45:59.391594 11630 net.cpp:165] Memory required for data: 186556928
I1020 06:45:59.391604 11630 layer_factory.hpp:77] Creating layer relu10
I1020 06:45:59.391610 11630 net.cpp:100] Creating Layer relu10
I1020 06:45:59.391613 11630 net.cpp:434] relu10 <- conv10
I1020 06:45:59.391618 11630 net.cpp:408] relu10 -> relu10
I1020 06:45:59.391839 11630 net.cpp:150] Setting up relu10
I1020 06:45:59.391846 11630 net.cpp:157] Top shape: 64 300 1 1 (19200)
I1020 06:45:59.391849 11630 net.cpp:165] Memory required for data: 186633728
I1020 06:45:59.391850 11630 layer_factory.hpp:77] Creating layer drop6
I1020 06:45:59.391855 11630 net.cpp:100] Creating Layer drop6
I1020 06:45:59.391856 11630 net.cpp:434] drop6 <- relu10
I1020 06:45:59.391860 11630 net.cpp:408] drop6 -> drop6
I1020 06:45:59.391885 11630 net.cpp:150] Setting up drop6
I1020 06:45:59.391888 11630 net.cpp:157] Top shape: 64 300 1 1 (19200)
I1020 06:45:59.391891 11630 net.cpp:165] Memory required for data: 186710528
I1020 06:45:59.391891 11630 layer_factory.hpp:77] Creating layer pool6
I1020 06:45:59.391898 11630 net.cpp:100] Creating Layer pool6
I1020 06:45:59.391901 11630 net.cpp:434] pool6 <- drop6
I1020 06:45:59.391903 11630 net.cpp:408] pool6 -> pool6
I1020 06:45:59.391927 11630 net.cpp:150] Setting up pool6
I1020 06:45:59.391929 11630 net.cpp:157] Top shape: 64 300 1 1 (19200)
I1020 06:45:59.391932 11630 net.cpp:165] Memory required for data: 186787328
I1020 06:45:59.391932 11630 layer_factory.hpp:77] Creating layer conv11
I1020 06:45:59.391938 11630 net.cpp:100] Creating Layer conv11
I1020 06:45:59.391940 11630 net.cpp:434] conv11 <- pool6
I1020 06:45:59.391944 11630 net.cpp:408] conv11 -> conv11
I1020 06:45:59.392863 11630 net.cpp:150] Setting up conv11
I1020 06:45:59.392871 11630 net.cpp:157] Top shape: 64 100 1 1 (6400)
I1020 06:45:59.392874 11630 net.cpp:165] Memory required for data: 186812928
I1020 06:45:59.392877 11630 layer_factory.hpp:77] Creating layer relu11
I1020 06:45:59.392880 11630 net.cpp:100] Creating Layer relu11
I1020 06:45:59.392882 11630 net.cpp:434] relu11 <- conv11
I1020 06:45:59.392887 11630 net.cpp:408] relu11 -> relu11
I1020 06:45:59.392998 11630 net.cpp:150] Setting up relu11
I1020 06:45:59.393003 11630 net.cpp:157] Top shape: 64 100 1 1 (6400)
I1020 06:45:59.393004 11630 net.cpp:165] Memory required for data: 186838528
I1020 06:45:59.393007 11630 layer_factory.hpp:77] Creating layer drop7
I1020 06:45:59.393009 11630 net.cpp:100] Creating Layer drop7
I1020 06:45:59.393013 11630 net.cpp:434] drop7 <- relu11
I1020 06:45:59.393014 11630 net.cpp:408] drop7 -> drop7
I1020 06:45:59.393038 11630 net.cpp:150] Setting up drop7
I1020 06:45:59.393043 11630 net.cpp:157] Top shape: 64 100 1 1 (6400)
I1020 06:45:59.393044 11630 net.cpp:165] Memory required for data: 186864128
I1020 06:45:59.393046 11630 layer_factory.hpp:77] Creating layer pool7
I1020 06:45:59.393049 11630 net.cpp:100] Creating Layer pool7
I1020 06:45:59.393052 11630 net.cpp:434] pool7 <- drop7
I1020 06:45:59.393055 11630 net.cpp:408] pool7 -> pool7
I1020 06:45:59.393079 11630 net.cpp:150] Setting up pool7
I1020 06:45:59.393081 11630 net.cpp:157] Top shape: 64 100 1 1 (6400)
I1020 06:45:59.393084 11630 net.cpp:165] Memory required for data: 186889728
I1020 06:45:59.393085 11630 layer_factory.hpp:77] Creating layer pool7_pool7_0_split
I1020 06:45:59.393090 11630 net.cpp:100] Creating Layer pool7_pool7_0_split
I1020 06:45:59.393090 11630 net.cpp:434] pool7_pool7_0_split <- pool7
I1020 06:45:59.393093 11630 net.cpp:408] pool7_pool7_0_split -> pool7_pool7_0_split_0
I1020 06:45:59.393098 11630 net.cpp:408] pool7_pool7_0_split -> pool7_pool7_0_split_1
I1020 06:45:59.393129 11630 net.cpp:150] Setting up pool7_pool7_0_split
I1020 06:45:59.393132 11630 net.cpp:157] Top shape: 64 100 1 1 (6400)
I1020 06:45:59.393136 11630 net.cpp:157] Top shape: 64 100 1 1 (6400)
I1020 06:45:59.393136 11630 net.cpp:165] Memory required for data: 186940928
I1020 06:45:59.393138 11630 layer_factory.hpp:77] Creating layer ip_c
I1020 06:45:59.393142 11630 net.cpp:100] Creating Layer ip_c
I1020 06:45:59.393146 11630 net.cpp:434] ip_c <- pool7_pool7_0_split_0
I1020 06:45:59.393148 11630 net.cpp:408] ip_c -> ip_c
I1020 06:45:59.393484 11630 net.cpp:150] Setting up ip_c
I1020 06:45:59.393491 11630 net.cpp:157] Top shape: 64 20 (1280)
I1020 06:45:59.393493 11630 net.cpp:165] Memory required for data: 186946048
I1020 06:45:59.393496 11630 layer_factory.hpp:77] Creating layer ip_c_ip_c_0_split
I1020 06:45:59.393499 11630 net.cpp:100] Creating Layer ip_c_ip_c_0_split
I1020 06:45:59.393501 11630 net.cpp:434] ip_c_ip_c_0_split <- ip_c
I1020 06:45:59.393504 11630 net.cpp:408] ip_c_ip_c_0_split -> ip_c_ip_c_0_split_0
I1020 06:45:59.393508 11630 net.cpp:408] ip_c_ip_c_0_split -> ip_c_ip_c_0_split_1
I1020 06:45:59.393530 11630 net.cpp:150] Setting up ip_c_ip_c_0_split
I1020 06:45:59.393533 11630 net.cpp:157] Top shape: 64 20 (1280)
I1020 06:45:59.393535 11630 net.cpp:157] Top shape: 64 20 (1280)
I1020 06:45:59.393537 11630 net.cpp:165] Memory required for data: 186956288
I1020 06:45:59.393538 11630 layer_factory.hpp:77] Creating layer accuracy_f
I1020 06:45:59.393542 11630 net.cpp:100] Creating Layer accuracy_f
I1020 06:45:59.393543 11630 net.cpp:434] accuracy_f <- ip_c_ip_c_0_split_0
I1020 06:45:59.393546 11630 net.cpp:434] accuracy_f <- label_coarse_data_1_split_0
I1020 06:45:59.393550 11630 net.cpp:408] accuracy_f -> accuracy_f
…
I1020 06:45:59.394393 11630 net.cpp:283] Network initialization done.
I1020 06:45:59.394587 11630 solver.cpp:181] Creating test net (#0) specified by test_net file: /home/adam/Honours/Honours-Project/cifar-100_pooling/max/relu/poolcnn_relu_test.prototxt
I1020 06:45:59.394706 11630 net.cpp:58] Initializing net from parameters: 
state {
  phase: TEST
}
layer {
  name: "data"
  type: "HDF5Data"
  top: "data"
  top: "label_coarse"
  top: "label_fine"
  hdf5_data_param {
    source: "../../../../data/cifar-100/cifar_100_caffe_hdf5/test.txt"
    batch_size: 100
  }
}
layer {
  name: "conv1"
  type: "Convolution"
  bottom: "data"
  top: "conv1"
  convolution_param {
    num_output: 192
    kernel_size: 5
    weight_filler {
      type: "xavier"
    }
  }
}
layer {
  name: "relu1"
  type: "ReLU"
  bottom: "conv1"
  top: "relu1"
}
layer {
  name: "drop1"
  type: "Dropout"
  bottom: "relu1"
  top: "drop1"
  dropout_param {
    dropout_ratio: 0
  }
}
layer {
  name: "pool1"
  type: "Pooling"
  bottom: "drop1"
  top: "pool1"
  pooling_param {
    pool: MAX
    kernel_size: 2
    stride: 2
  }
}
layer {
  name: "conv2"
  type: "Convolution"
  bottom: "pool1"
  top: "conv2"
  convolution_param {
    num_output: 192
    kernel_size: 1
    weight_filler {
      type: "xavier"
    }
  }
}
layer {
  name: "relu2"
  type: "ReLU"
  bottom: "conv2"
  top: "relu2"
}
layer {
  name: "conv3"
  type: "Convolution"
  bottom: "relu2"
  top: "conv3"
  convolution_param {
    num_output: 240
    kernel_size: 3
    weight_filler {
      type: "xavier"
    }
  }
}
layer {
  name: "relu3"
  type: "ReLU"
  bottom: "conv3"
  top: "relu3"
}
layer {
  name: "drop2"
  type: "Dropout"
  bottom: "relu3"
  top: "drop2"
  dropout_param {
    dropout_ratio: 0.1
  }
}
layer {
  name: "pool2"
  type: "Pooling"
  bottom: "drop2"
  top: "pool2"
  pooling_param {
    pool: MAX
    kernel_size: 2
    stride: 2
  }
}
layer {
  name: "conv4"
  type: "Convolution"
  bottom: "pool2"
  top: "conv4"
  convolution_param {
    num_output: 240
    kernel_size: 1
    weight_filler {
      type: "xavier"
    }
  }
}
layer {
  name: "relu4"
  type: "ReLU"
  bottom: "conv4"
  top: "relu4"
}
layer {
  name: "conv5"
  type: "Convolution"
  bottom: "relu4"
  top: "conv5"
  convolution_param {
    num_output: 260
    kernel_size: 2
    weight_filler {
      type: "xavier"
    }
  }
}
layer {
  name: "relu5"
  type: "ReLU"
  bottom: "conv5"
  top: "relu5"
}
layer {
  name: "drop3"
  type: "Dropout"
  bottom: "relu5"
  top: "drop3"
  dropout_param {
    dropout_ratio: 0.2
  }
}
layer {
  name: "pool3"
  type: "Pooling"
  bottom: "drop3"
  top: "pool3"
  pooling_param {
    pool: MAX
    kernel_size: 2
    stride: 2
  }
}
layer {
  name: "conv6"
  type: "Convolution"
  bottom: "pool3"
  top: "conv6"
  convolution_param {
    num_output: 260
    kernel_size: 1
    weight_filler {
      type: "xavier"
    }
  }
}
layer {
  name: "relu6"
  type: "ReLU"
  bottom: "conv6"
  top: "relu6"
}
layer {
  name: "conv7"
  type: "Convolution"
  bottom: "relu6"
  top: "conv7"
  convolution_param {
    num_output: 280
    kernel_size: 2
    weight_filler {
      type: "xavier"
    }
  }
}
layer {
  name: "relu7"
  type: "ReLU"
  bottom: "conv7"
  top: "relu7"
}
layer {
  name: "drop4"
  type: "Dropout"
  bottom: "relu7"
  top: "drop4"
  dropout_param {
    dropout_ratio: 0.3
  }
}
layer {
  name: "pool4"
  type: "Pooling"
  bottom: "drop4"
  top: "pool4"
  pooling_param {
    pool: MAX
    kernel_size: 2
    stride: 2
  }
}
layer {
  name: "conv8"
  type: "Convolution"
  bottom: "pool4"
  top: "conv8"
  convolution_param {
    num_output: 280
    kernel_size: 1
    weight_filler {
      type: "xavier"
    }
  }
}
layer {
  name: "relu8"
  type: "ReLU"
  bottom: "conv8"
  top: "relu8"
}
layer {
  name: "drop5"
  type: "Dropout"
  bottom: "relu8"
  top: "drop5"
  dropout_param {
    dropout_ratio: 0.4
  }
}
layer {
  name: "pool5"
  type: "Pooling"
  bottom: "drop5"
  top: "pool5"
  pooling_param {
    pool: MAX
    kernel_size: 2
    stride: 2
  }
}
layer {
  name: "conv10"
  type: "Convolution"
  bottom: "pool5"
  top: "conv10"
  convolution_param {
    num_output: 300
    kernel_size: 1
    weight_filler {
      type: "xavier"
    }
  }
}
layer {
  name: "relu10"
  type: "ReLU"
  bottom: "conv10"
  top: "relu10"
}
layer {
  name: "drop6"
  type: "Dropout"
  bottom: "relu10"
  top: "drop6"
  dropout_param {
    dropout_ratio: 0.5
  }
}
layer {
  name: "pool6"
  type: "Pooling"
  bottom: "drop6"
  top: "pool6"
  pooling_param {
    pool: MAX
    kernel_size: 2
    stride: 2
  }
}
layer {
  name: "conv11"
  type: "Convolution"
  bottom: "pool6"
  top: "conv11"
  convolution_param {
    num_output: 100
    kernel_size: 1
    weight_filler {
      type: "xavier"
    }
  }
}
layer {
  name: "relu11"
  type: "ReLU"
  bottom: "conv11"
  top: "relu11"
}
layer {
  name: "drop7"
  type: "Dropout"
  bottom: "relu11"
  top: "drop7"
  dropout_param {
    dropout_ratio: 0
  }
}
layer {
  name: "pool7"
  type: "Pooling"
  bottom: "drop7"
  top: "pool7"
  pooling_param {
    pool: MAX
    kernel_size: 2
    stride: 2
  }
}
layer {
  name: "ip_c"
  type: "InnerProduct"
  bottom: "pool7"
  top: "ip_c"
  inner_product_param {
    num_output: 20
    weight_filler {
      type: "xavier"
    }
  }
}
layer {
  name: "accuracy_f"
  type: "Accuracy"
  bottom: "ip_c"
  bottom: "label_coarse"
  top: "accuracy_f"
}
layer {
  name: "loss_c"
  type: "SoftmaxWithLoss"
  bottom: "ip_c"
  bottom: "label_coarse"
  top: "loss_c"
}
layer {
  name: "ip_f"
  type: "InnerProduct"
  bottom: "pool7"
  top: "ip_f"
  inner_product_param {
    num_output: 100
    weight_filler {
      type: "xavier"
    }
  }
}
layer {
  name: "accuracy"
  type: "Accuracy"
  bottom: "ip_f"
  bottom: "label_fine"
  top: "accuracy"
}
layer {
  name: "loss_f"
  type: "SoftmaxWithLoss"
  bottom: "ip_f"
  bottom: "label_fine"
  top: "loss_f"
}
I1020 06:45:59.394810 11630 layer_factory.hpp:77] Creating layer data
I1020 06:45:59.394816 11630 net.cpp:100] Creating Layer data
I1020 06:45:59.394821 11630 net.cpp:408] data -> data
I1020 06:45:59.394826 11630 net.cpp:408] data -> label_coarse
I1020 06:45:59.394831 11630 net.cpp:408] data -> label_fine
I1020 06:45:59.394837 11630 hdf5_data_layer.cpp:79] Loading list of HDF5 filenames from: ../../../../data/cifar-100/cifar_100_caffe_hdf5/test.txt
I1020 06:45:59.394853 11630 hdf5_data_layer.cpp:93] Number of HDF5 files: 1
I1020 06:45:59.648579 11630 net.cpp:150] Setting up data
I1020 06:45:59.648603 11630 net.cpp:157] Top shape: 100 3 32 32 (307200)
I1020 06:45:59.648607 11630 net.cpp:157] Top shape: 100 (100)
I1020 06:45:59.648609 11630 net.cpp:157] Top shape: 100 (100)
I1020 06:45:59.648610 11630 net.cpp:165] Memory required for data: 1229600
I1020 06:45:59.648615 11630 layer_factory.hpp:77] Creating layer label_coarse_data_1_split
I1020 06:45:59.648624 11630 net.cpp:100] Creating Layer label_coarse_data_1_split
I1020 06:45:59.648627 11630 net.cpp:434] label_coarse_data_1_split <- label_coarse
I1020 06:45:59.648632 11630 net.cpp:408] label_coarse_data_1_split -> label_coarse_data_1_split_0
I1020 06:45:59.648639 11630 net.cpp:408] label_coarse_data_1_split -> label_coarse_data_1_split_1
I1020 06:45:59.648674 11630 net.cpp:150] Setting up label_coarse_data_1_split
I1020 06:45:59.648679 11630 net.cpp:157] Top shape: 100 (100)
I1020 06:45:59.648680 11630 net.cpp:157] Top shape: 100 (100)
I1020 06:45:59.648681 11630 net.cpp:165] Memory required for data: 1230400
I1020 06:45:59.648699 11630 layer_factory.hpp:77] Creating layer label_fine_data_2_split
I1020 06:45:59.648704 11630 net.cpp:100] Creating Layer label_fine_data_2_split
I1020 06:45:59.648705 11630 net.cpp:434] label_fine_data_2_split <- label_fine
I1020 06:45:59.648708 11630 net.cpp:408] label_fine_data_2_split -> label_fine_data_2_split_0
I1020 06:45:59.648712 11630 net.cpp:408] label_fine_data_2_split -> label_fine_data_2_split_1
I1020 06:45:59.648736 11630 net.cpp:150] Setting up label_fine_data_2_split
I1020 06:45:59.648741 11630 net.cpp:157] Top shape: 100 (100)
I1020 06:45:59.648742 11630 net.cpp:157] Top shape: 100 (100)
I1020 06:45:59.648744 11630 net.cpp:165] Memory required for data: 1231200
I1020 06:45:59.648746 11630 layer_factory.hpp:77] Creating layer conv1
I1020 06:45:59.648752 11630 net.cpp:100] Creating Layer conv1
I1020 06:45:59.648754 11630 net.cpp:434] conv1 <- data
I1020 06:45:59.648757 11630 net.cpp:408] conv1 -> conv1
I1020 06:45:59.649591 11630 net.cpp:150] Setting up conv1
I1020 06:45:59.649600 11630 net.cpp:157] Top shape: 100 192 28 28 (15052800)
I1020 06:45:59.649601 11630 net.cpp:165] Memory required for data: 61442400
I1020 06:45:59.649608 11630 layer_factory.hpp:77] Creating layer relu1
I1020 06:45:59.649613 11630 net.cpp:100] Creating Layer relu1
I1020 06:45:59.649616 11630 net.cpp:434] relu1 <- conv1
I1020 06:45:59.649618 11630 net.cpp:408] relu1 -> relu1
I1020 06:45:59.649740 11630 net.cpp:150] Setting up relu1
I1020 06:45:59.649746 11630 net.cpp:157] Top shape: 100 192 28 28 (15052800)
I1020 06:45:59.649747 11630 net.cpp:165] Memory required for data: 121653600
I1020 06:45:59.649749 11630 layer_factory.hpp:77] Creating layer drop1
I1020 06:45:59.649754 11630 net.cpp:100] Creating Layer drop1
I1020 06:45:59.649755 11630 net.cpp:434] drop1 <- relu1
I1020 06:45:59.649758 11630 net.cpp:408] drop1 -> drop1
I1020 06:45:59.649783 11630 net.cpp:150] Setting up drop1
I1020 06:45:59.649788 11630 net.cpp:157] Top shape: 100 192 28 28 (15052800)
I1020 06:45:59.649790 11630 net.cpp:165] Memory required for data: 181864800
I1020 06:45:59.649791 11630 layer_factory.hpp:77] Creating layer pool1
I1020 06:45:59.649794 11630 net.cpp:100] Creating Layer pool1
I1020 06:45:59.649796 11630 net.cpp:434] pool1 <- drop1
I1020 06:45:59.649799 11630 net.cpp:408] pool1 -> pool1
I1020 06:45:59.649822 11630 net.cpp:150] Setting up pool1
I1020 06:45:59.649826 11630 net.cpp:157] Top shape: 100 192 14 14 (3763200)
I1020 06:45:59.649827 11630 net.cpp:165] Memory required for data: 196917600
I1020 06:45:59.649829 11630 layer_factory.hpp:77] Creating layer conv2
I1020 06:45:59.649833 11630 net.cpp:100] Creating Layer conv2
I1020 06:45:59.649835 11630 net.cpp:434] conv2 <- pool1
I1020 06:45:59.649838 11630 net.cpp:408] conv2 -> conv2
I1020 06:45:59.650604 11630 net.cpp:150] Setting up conv2
I1020 06:45:59.650611 11630 net.cpp:157] Top shape: 100 192 14 14 (3763200)
I1020 06:45:59.650612 11630 net.cpp:165] Memory required for data: 211970400
I1020 06:45:59.650619 11630 layer_factory.hpp:77] Creating layer relu2
I1020 06:45:59.650622 11630 net.cpp:100] Creating Layer relu2
I1020 06:45:59.650624 11630 net.cpp:434] relu2 <- conv2
I1020 06:45:59.650627 11630 net.cpp:408] relu2 -> relu2
I1020 06:45:59.650820 11630 net.cpp:150] Setting up relu2
I1020 06:45:59.650826 11630 net.cpp:157] Top shape: 100 192 14 14 (3763200)
I1020 06:45:59.650828 11630 net.cpp:165] Memory required for data: 227023200
I1020 06:45:59.650830 11630 layer_factory.hpp:77] Creating layer conv3
I1020 06:45:59.650835 11630 net.cpp:100] Creating Layer conv3
I1020 06:45:59.650837 11630 net.cpp:434] conv3 <- relu2
I1020 06:45:59.650840 11630 net.cpp:408] conv3 -> conv3
I1020 06:45:59.653311 11630 net.cpp:150] Setting up conv3
I1020 06:45:59.653319 11630 net.cpp:157] Top shape: 100 240 12 12 (3456000)
I1020 06:45:59.653321 11630 net.cpp:165] Memory required for data: 240847200
I1020 06:45:59.653327 11630 layer_factory.hpp:77] Creating layer relu3
I1020 06:45:59.653331 11630 net.cpp:100] Creating Layer relu3
I1020 06:45:59.653332 11630 net.cpp:434] relu3 <- conv3
I1020 06:45:59.653344 11630 net.cpp:408] relu3 -> relu3
I1020 06:45:59.653460 11630 net.cpp:150] Setting up relu3
I1020 06:45:59.653465 11630 net.cpp:157] Top shape: 100 240 12 12 (3456000)
I1020 06:45:59.653468 11630 net.cpp:165] Memory required for data: 254671200
I1020 06:45:59.653470 11630 layer_factory.hpp:77] Creating layer drop2
I1020 06:45:59.653472 11630 net.cpp:100] Creating Layer drop2
I1020 06:45:59.653475 11630 net.cpp:434] drop2 <- relu3
I1020 06:45:59.653478 11630 net.cpp:408] drop2 -> drop2
I1020 06:45:59.653501 11630 net.cpp:150] Setting up drop2
I1020 06:45:59.653503 11630 net.cpp:157] Top shape: 100 240 12 12 (3456000)
I1020 06:45:59.653506 11630 net.cpp:165] Memory required for data: 268495200
I1020 06:45:59.653508 11630 layer_factory.hpp:77] Creating layer pool2
I1020 06:45:59.653512 11630 net.cpp:100] Creating Layer pool2
I1020 06:45:59.653514 11630 net.cpp:434] pool2 <- drop2
I1020 06:45:59.653517 11630 net.cpp:408] pool2 -> pool2
I1020 06:45:59.653542 11630 net.cpp:150] Setting up pool2
I1020 06:45:59.653545 11630 net.cpp:157] Top shape: 100 240 6 6 (864000)
I1020 06:45:59.653547 11630 net.cpp:165] Memory required for data: 271951200
I1020 06:45:59.653548 11630 layer_factory.hpp:77] Creating layer conv4
I1020 06:45:59.653553 11630 net.cpp:100] Creating Layer conv4
I1020 06:45:59.653554 11630 net.cpp:434] conv4 <- pool2
I1020 06:45:59.653558 11630 net.cpp:408] conv4 -> conv4
I1020 06:45:59.654628 11630 net.cpp:150] Setting up conv4
I1020 06:45:59.654638 11630 net.cpp:157] Top shape: 100 240 6 6 (864000)
I1020 06:45:59.654639 11630 net.cpp:165] Memory required for data: 275407200
I1020 06:45:59.654642 11630 layer_factory.hpp:77] Creating layer relu4
I1020 06:45:59.654646 11630 net.cpp:100] Creating Layer relu4
I1020 06:45:59.654649 11630 net.cpp:434] relu4 <- conv4
I1020 06:45:59.654651 11630 net.cpp:408] relu4 -> relu4
I1020 06:45:59.654765 11630 net.cpp:150] Setting up relu4
I1020 06:45:59.654772 11630 net.cpp:157] Top shape: 100 240 6 6 (864000)
I1020 06:45:59.654773 11630 net.cpp:165] Memory required for data: 278863200
I1020 06:45:59.654774 11630 layer_factory.hpp:77] Creating layer conv5
I1020 06:45:59.654779 11630 net.cpp:100] Creating Layer conv5
I1020 06:45:59.654781 11630 net.cpp:434] conv5 <- relu4
I1020 06:45:59.654784 11630 net.cpp:408] conv5 -> conv5
I1020 06:45:59.656551 11630 net.cpp:150] Setting up conv5
I1020 06:45:59.656559 11630 net.cpp:157] Top shape: 100 260 5 5 (650000)
I1020 06:45:59.656561 11630 net.cpp:165] Memory required for data: 281463200
I1020 06:45:59.656568 11630 layer_factory.hpp:77] Creating layer relu5
I1020 06:45:59.656572 11630 net.cpp:100] Creating Layer relu5
I1020 06:45:59.656574 11630 net.cpp:434] relu5 <- conv5
I1020 06:45:59.656577 11630 net.cpp:408] relu5 -> relu5
I1020 06:45:59.656838 11630 net.cpp:150] Setting up relu5
I1020 06:45:59.656846 11630 net.cpp:157] Top shape: 100 260 5 5 (650000)
I1020 06:45:59.656847 11630 net.cpp:165] Memory required for data: 284063200
I1020 06:45:59.656849 11630 layer_factory.hpp:77] Creating layer drop3
I1020 06:45:59.656853 11630 net.cpp:100] Creating Layer drop3
I1020 06:45:59.656854 11630 net.cpp:434] drop3 <- relu5
I1020 06:45:59.656858 11630 net.cpp:408] drop3 -> drop3
I1020 06:45:59.656883 11630 net.cpp:150] Setting up drop3
I1020 06:45:59.656888 11630 net.cpp:157] Top shape: 100 260 5 5 (650000)
I1020 06:45:59.656888 11630 net.cpp:165] Memory required for data: 286663200
I1020 06:45:59.656890 11630 layer_factory.hpp:77] Creating layer pool3
I1020 06:45:59.656893 11630 net.cpp:100] Creating Layer pool3
I1020 06:45:59.656895 11630 net.cpp:434] pool3 <- drop3
I1020 06:45:59.656898 11630 net.cpp:408] pool3 -> pool3
I1020 06:45:59.656921 11630 net.cpp:150] Setting up pool3
I1020 06:45:59.656924 11630 net.cpp:157] Top shape: 100 260 3 3 (234000)
I1020 06:45:59.656926 11630 net.cpp:165] Memory required for data: 287599200
I1020 06:45:59.656927 11630 layer_factory.hpp:77] Creating layer conv6
I1020 06:45:59.656931 11630 net.cpp:100] Creating Layer conv6
I1020 06:45:59.656934 11630 net.cpp:434] conv6 <- pool3
I1020 06:45:59.656945 11630 net.cpp:408] conv6 -> conv6
I1020 06:45:59.658068 11630 net.cpp:150] Setting up conv6
I1020 06:45:59.658077 11630 net.cpp:157] Top shape: 100 260 3 3 (234000)
I1020 06:45:59.658078 11630 net.cpp:165] Memory required for data: 288535200
I1020 06:45:59.658082 11630 layer_factory.hpp:77] Creating layer relu6
I1020 06:45:59.658085 11630 net.cpp:100] Creating Layer relu6
I1020 06:45:59.658087 11630 net.cpp:434] relu6 <- conv6
I1020 06:45:59.658090 11630 net.cpp:408] relu6 -> relu6
I1020 06:45:59.658203 11630 net.cpp:150] Setting up relu6
I1020 06:45:59.658208 11630 net.cpp:157] Top shape: 100 260 3 3 (234000)
I1020 06:45:59.658210 11630 net.cpp:165] Memory required for data: 289471200
I1020 06:45:59.658212 11630 layer_factory.hpp:77] Creating layer conv7
I1020 06:45:59.658217 11630 net.cpp:100] Creating Layer conv7
I1020 06:45:59.658218 11630 net.cpp:434] conv7 <- relu6
I1020 06:45:59.658221 11630 net.cpp:408] conv7 -> conv7
I1020 06:45:59.660143 11630 net.cpp:150] Setting up conv7
I1020 06:45:59.660151 11630 net.cpp:157] Top shape: 100 280 2 2 (112000)
I1020 06:45:59.660153 11630 net.cpp:165] Memory required for data: 289919200
I1020 06:45:59.660157 11630 layer_factory.hpp:77] Creating layer relu7
I1020 06:45:59.660161 11630 net.cpp:100] Creating Layer relu7
I1020 06:45:59.660163 11630 net.cpp:434] relu7 <- conv7
I1020 06:45:59.660166 11630 net.cpp:408] relu7 -> relu7
I1020 06:45:59.660279 11630 net.cpp:150] Setting up relu7
I1020 06:45:59.660284 11630 net.cpp:157] Top shape: 100 280 2 2 (112000)
I1020 06:45:59.660286 11630 net.cpp:165] Memory required for data: 290367200
I1020 06:45:59.660293 11630 layer_factory.hpp:77] Creating layer drop4
I1020 06:45:59.660297 11630 net.cpp:100] Creating Layer drop4
I1020 06:45:59.660300 11630 net.cpp:434] drop4 <- relu7
I1020 06:45:59.660302 11630 net.cpp:408] drop4 -> drop4
I1020 06:45:59.660326 11630 net.cpp:150] Setting up drop4
I1020 06:45:59.660331 11630 net.cpp:157] Top shape: 100 280 2 2 (112000)
I1020 06:45:59.660332 11630 net.cpp:165] Memory required for data: 290815200
I1020 06:45:59.660334 11630 layer_factory.hpp:77] Creating layer pool4
I1020 06:45:59.660337 11630 net.cpp:100] Creating Layer pool4
I1020 06:45:59.660339 11630 net.cpp:434] pool4 <- drop4
I1020 06:45:59.660342 11630 net.cpp:408] pool4 -> pool4
I1020 06:45:59.660367 11630 net.cpp:150] Setting up pool4
I1020 06:45:59.660369 11630 net.cpp:157] Top shape: 100 280 1 1 (28000)
I1020 06:45:59.660370 11630 net.cpp:165] Memory required for data: 290927200
I1020 06:45:59.660372 11630 layer_factory.hpp:77] Creating layer conv8
I1020 06:45:59.660378 11630 net.cpp:100] Creating Layer conv8
I1020 06:45:59.660382 11630 net.cpp:434] conv8 <- pool4
I1020 06:45:59.660387 11630 net.cpp:408] conv8 -> conv8
I1020 06:45:59.661574 11630 net.cpp:150] Setting up conv8
I1020 06:45:59.661586 11630 net.cpp:157] Top shape: 100 280 1 1 (28000)
I1020 06:45:59.661589 11630 net.cpp:165] Memory required for data: 291039200
I1020 06:45:59.661597 11630 layer_factory.hpp:77] Creating layer relu8
I1020 06:45:59.661602 11630 net.cpp:100] Creating Layer relu8
I1020 06:45:59.661605 11630 net.cpp:434] relu8 <- conv8
I1020 06:45:59.661610 11630 net.cpp:408] relu8 -> relu8
I1020 06:45:59.661862 11630 net.cpp:150] Setting up relu8
I1020 06:45:59.661871 11630 net.cpp:157] Top shape: 100 280 1 1 (28000)
I1020 06:45:59.661875 11630 net.cpp:165] Memory required for data: 291151200
I1020 06:45:59.661877 11630 layer_factory.hpp:77] Creating layer drop5
I1020 06:45:59.661882 11630 net.cpp:100] Creating Layer drop5
I1020 06:45:59.661885 11630 net.cpp:434] drop5 <- relu8
I1020 06:45:59.661890 11630 net.cpp:408] drop5 -> drop5
I1020 06:45:59.661926 11630 net.cpp:150] Setting up drop5
I1020 06:45:59.661932 11630 net.cpp:157] Top shape: 100 280 1 1 (28000)
I1020 06:45:59.661936 11630 net.cpp:165] Memory required for data: 291263200
I1020 06:45:59.661939 11630 layer_factory.hpp:77] Creating layer pool5
I1020 06:45:59.661944 11630 net.cpp:100] Creating Layer pool5
I1020 06:45:59.661948 11630 net.cpp:434] pool5 <- drop5
I1020 06:45:59.661967 11630 net.cpp:408] pool5 -> pool5
I1020 06:45:59.662009 11630 net.cpp:150] Setting up pool5
I1020 06:45:59.662015 11630 net.cpp:157] Top shape: 100 280 1 1 (28000)
I1020 06:45:59.662017 11630 net.cpp:165] Memory required for data: 291375200
I1020 06:45:59.662020 11630 layer_factory.hpp:77] Creating layer conv10
I1020 06:45:59.662027 11630 net.cpp:100] Creating Layer conv10
I1020 06:45:59.662031 11630 net.cpp:434] conv10 <- pool5
I1020 06:45:59.662035 11630 net.cpp:408] conv10 -> conv10
I1020 06:45:59.663125 11630 net.cpp:150] Setting up conv10
I1020 06:45:59.663133 11630 net.cpp:157] Top shape: 100 300 1 1 (30000)
I1020 06:45:59.663136 11630 net.cpp:165] Memory required for data: 291495200
I1020 06:45:59.663142 11630 layer_factory.hpp:77] Creating layer relu10
I1020 06:45:59.663146 11630 net.cpp:100] Creating Layer relu10
I1020 06:45:59.663148 11630 net.cpp:434] relu10 <- conv10
I1020 06:45:59.663151 11630 net.cpp:408] relu10 -> relu10
I1020 06:45:59.663259 11630 net.cpp:150] Setting up relu10
I1020 06:45:59.663264 11630 net.cpp:157] Top shape: 100 300 1 1 (30000)
I1020 06:45:59.663266 11630 net.cpp:165] Memory required for data: 291615200
I1020 06:45:59.663269 11630 layer_factory.hpp:77] Creating layer drop6
I1020 06:45:59.663271 11630 net.cpp:100] Creating Layer drop6
I1020 06:45:59.663274 11630 net.cpp:434] drop6 <- relu10
I1020 06:45:59.663276 11630 net.cpp:408] drop6 -> drop6
I1020 06:45:59.663300 11630 net.cpp:150] Setting up drop6
I1020 06:45:59.663305 11630 net.cpp:157] Top shape: 100 300 1 1 (30000)
I1020 06:45:59.663306 11630 net.cpp:165] Memory required for data: 291735200
I1020 06:45:59.663308 11630 layer_factory.hpp:77] Creating layer pool6
I1020 06:45:59.663316 11630 net.cpp:100] Creating Layer pool6
I1020 06:45:59.663318 11630 net.cpp:434] pool6 <- drop6
I1020 06:45:59.663321 11630 net.cpp:408] pool6 -> pool6
I1020 06:45:59.663346 11630 net.cpp:150] Setting up pool6
I1020 06:45:59.663348 11630 net.cpp:157] Top shape: 100 300 1 1 (30000)
I1020 06:45:59.663349 11630 net.cpp:165] Memory required for data: 291855200
I1020 06:45:59.663352 11630 layer_factory.hpp:77] Creating layer conv11
I1020 06:45:59.663355 11630 net.cpp:100] Creating Layer conv11
I1020 06:45:59.663357 11630 net.cpp:434] conv11 <- pool6
I1020 06:45:59.663360 11630 net.cpp:408] conv11 -> conv11
I1020 06:45:59.664080 11630 net.cpp:150] Setting up conv11
I1020 06:45:59.664088 11630 net.cpp:157] Top shape: 100 100 1 1 (10000)
I1020 06:45:59.664090 11630 net.cpp:165] Memory required for data: 291895200
I1020 06:45:59.664094 11630 layer_factory.hpp:77] Creating layer relu11
I1020 06:45:59.664098 11630 net.cpp:100] Creating Layer relu11
I1020 06:45:59.664099 11630 net.cpp:434] relu11 <- conv11
I1020 06:45:59.664103 11630 net.cpp:408] relu11 -> relu11
I1020 06:45:59.664211 11630 net.cpp:150] Setting up relu11
I1020 06:45:59.664216 11630 net.cpp:157] Top shape: 100 100 1 1 (10000)
I1020 06:45:59.664218 11630 net.cpp:165] Memory required for data: 291935200
I1020 06:45:59.664219 11630 layer_factory.hpp:77] Creating layer drop7
I1020 06:45:59.664222 11630 net.cpp:100] Creating Layer drop7
I1020 06:45:59.664224 11630 net.cpp:434] drop7 <- relu11
I1020 06:45:59.664228 11630 net.cpp:408] drop7 -> drop7
I1020 06:45:59.664252 11630 net.cpp:150] Setting up drop7
I1020 06:45:59.664254 11630 net.cpp:157] Top shape: 100 100 1 1 (10000)
I1020 06:45:59.664257 11630 net.cpp:165] Memory required for data: 291975200
I1020 06:45:59.664258 11630 layer_factory.hpp:77] Creating layer pool7
I1020 06:45:59.664261 11630 net.cpp:100] Creating Layer pool7
I1020 06:45:59.664263 11630 net.cpp:434] pool7 <- drop7
I1020 06:45:59.664266 11630 net.cpp:408] pool7 -> pool7
I1020 06:45:59.664300 11630 net.cpp:150] Setting up pool7
I1020 06:45:59.664305 11630 net.cpp:157] Top shape: 100 100 1 1 (10000)
I1020 06:45:59.664306 11630 net.cpp:165] Memory required for data: 292015200
I1020 06:45:59.664309 11630 layer_factory.hpp:77] Creating layer pool7_pool7_0_split
I1020 06:45:59.664311 11630 net.cpp:100] Creating Layer pool7_pool7_0_split
I1020 06:45:59.664314 11630 net.cpp:434] pool7_pool7_0_split <- pool7
I1020 06:45:59.664324 11630 net.cpp:408] pool7_pool7_0_split -> pool7_pool7_0_split_0
I1020 06:45:59.664327 11630 net.cpp:408] pool7_pool7_0_split -> pool7_pool7_0_split_1
I1020 06:45:59.664350 11630 net.cpp:150] Setting up pool7_pool7_0_split
I1020 06:45:59.664355 11630 net.cpp:157] Top shape: 100 100 1 1 (10000)
I1020 06:45:59.664356 11630 net.cpp:157] Top shape: 100 100 1 1 (10000)
I1020 06:45:59.664358 11630 net.cpp:165] Memory required for data: 292095200
I1020 06:45:59.664361 11630 layer_factory.hpp:77] Creating layer ip_c
I1020 06:45:59.664364 11630 net.cpp:100] Creating Layer ip_c
I1020 06:45:59.664366 11630 net.cpp:434] ip_c <- pool7_pool7_0_split_0
I1020 06:45:59.664368 11630 net.cpp:408] ip_c -> ip_c
I1020 06:45:59.664445 11630 net.cpp:150] Setting up ip_c
I1020 06:45:59.664449 11630 net.cpp:157] Top shape: 100 20 (2000)
I1020 06:45:59.664450 11630 net.cpp:165] Memory required for data: 292103200
I1020 06:45:59.664453 11630 layer_factory.hpp:77] Creating layer ip_c_ip_c_0_split
I1020 06:45:59.664458 11630 net.cpp:100] Creating Layer ip_c_ip_c_0_split
I1020 06:45:59.664459 11630 net.cpp:434] ip_c_ip_c_0_split <- ip_c
I1020 06:45:59.664463 11630 net.cpp:408] ip_c_ip_c_0_split -> ip_c_ip_c_0_split_0
I1020 06:45:59.664465 11630 net.cpp:408] ip_c_ip_c_0_split -> ip_c_ip_c_0_split_1
I1020 06:45:59.664489 11630 net.cpp:150] Setting up ip_c_ip_c_0_split
I1020 06:45:59.664491 11630 net.cpp:157] Top shape: 100 20 (2000)
I1020 06:45:59.664494 11630 net.cpp:157] Top shape: 100 20 (2000)
I1020 06:45:59.664494 11630 net.cpp:165] Memory required for data: 292119200
I1020 06:45:59.664496 11630 layer_factory.hpp:77] Creating layer accuracy_f
I1020 06:45:59.664499 11630 net.cpp:100] Creating Layer accuracy_f
I1020 06:45:59.664501 11630 net.cpp:434] accuracy_f <- ip_c_ip_c_0_split_0
I1020 06:45:59.664505 11630 net.cpp:434] accuracy_f <- label_coarse_data_1_split_0
I1020 06:45:59.664507 11630 net.cpp:408] accuracy_f -> accuracy_f
…
