…
  level: 0
  stage: ""
}
type: "SGD"
I1018 00:27:04.362885 12063 solver.cpp:81] Creating training net from train_net file: /home/adam/Honours/Honours-Project/cifar-100_pooling/max/leakyrelu/poolcnn_leakyrelu_train.prototxt
I1018 00:27:04.363206 12063 net.cpp:58] Initializing net from parameters: 
state {
  phase: TRAIN
  level: 0
  stage: ""
}
layer {
  name: "data"
  type: "HDF5Data"
  top: "data"
  top: "label_coarse"
  top: "label_fine"
  hdf5_data_param {
    source: "../../../../data/cifar-100/cifar_100_caffe_hdf5/train.txt"
    batch_size: 64
  }
}
layer {
  name: "conv1"
  type: "Convolution"
  bottom: "data"
  top: "conv1"
  convolution_param {
    num_output: 192
    kernel_size: 5
    weight_filler {
      type: "xavier"
    }
  }
}
layer {
  name: "pool1"
  type: "Pooling"
  bottom: "conv1"
  top: "pool1"
  pooling_param {
    pool: MAX
    kernel_size: 2
    stride: 2
  }
}
layer {
  name: "drop1"
  type: "Dropout"
  bottom: "pool1"
  top: "drop1"
  dropout_param {
    dropout_ratio: 0
  }
}
layer {
  name: "relu1"
  type: "ReLU"
  bottom: "drop1"
  top: "relu1"
  relu_param {
    negative_slope: 0.01
  }
}
layer {
  name: "conv2"
  type: "Convolution"
  bottom: "relu1"
  top: "conv2"
  convolution_param {
    num_output: 192
    kernel_size: 1
    weight_filler {
      type: "xavier"
    }
  }
}
layer {
  name: "conv3"
  type: "Convolution"
  bottom: "conv2"
  top: "conv3"
  convolution_param {
    num_output: 240
    kernel_size: 3
    weight_filler {
      type: "xavier"
    }
  }
}
layer {
  name: "pool2"
  type: "Pooling"
  bottom: "conv3"
  top: "pool2"
  pooling_param {
    pool: MAX
    kernel_size: 2
    stride: 2
  }
}
layer {
  name: "drop2"
  type: "Dropout"
  bottom: "pool2"
  top: "drop2"
  dropout_param {
    dropout_ratio: 0.1
  }
}
layer {
  name: "relu2"
  type: "ReLU"
  bottom: "drop2"
  top: "relu2"
  relu_param {
    negative_slope: 0.01
  }
}
layer {
  name: "conv4"
  type: "Convolution"
  bottom: "relu2"
  top: "conv4"
  convolution_param {
    num_output: 240
    kernel_size: 1
    weight_filler {
      type: "xavier"
    }
  }
}
layer {
  name: "conv5"
  type: "Convolution"
  bottom: "conv4"
  top: "conv5"
  convolution_param {
    num_output: 260
    kernel_size: 2
    weight_filler {
      type: "xavier"
    }
  }
}
layer {
  name: "pool3"
  type: "Pooling"
  bottom: "conv5"
  top: "pool3"
  pooling_param {
    pool: MAX
    kernel_size: 2
    stride: 2
  }
}
layer {
  name: "drop3"
  type: "Dropout"
  bottom: "pool3"
  top: "drop3"
  dropout_param {
    dropout_ratio: 0.2
  }
}
layer {
  name: "relu3"
  type: "ReLU"
  bottom: "drop3"
  top: "relu3"
  relu_param {
    negative_slope: 0.01
  }
}
layer {
  name: "conv6"
  type: "Convolution"
  bottom: "relu3"
  top: "conv6"
  convolution_param {
    num_output: 260
    kernel_size: 1
    weight_filler {
      type: "xavier"
    }
  }
}
layer {
  name: "conv7"
  type: "Convolution"
  bottom: "conv6"
  top: "conv7"
  convolution_param {
    num_output: 280
    kernel_size: 2
    weight_filler {
      type: "xavier"
    }
  }
}
layer {
  name: "pool4"
  type: "Pooling"
  bottom: "conv7"
  top: "pool4"
  pooling_param {
    pool: MAX
    kernel_size: 2
    stride: 2
  }
}
layer {
  name: "drop4"
  type: "Dropout"
  bottom: "pool4"
  top: "drop4"
  dropout_param {
    dropout_ratio: 0.3
  }
}
layer {
  name: "relu4"
  type: "ReLU"
  bottom: "drop4"
  top: "relu4"
  relu_param {
    negative_slope: 0.01
  }
}
layer {
  name: "conv8"
  type: "Convolution"
  bottom: "relu4"
  top: "conv8"
  convolution_param {
    num_output: 280
    kernel_size: 1
    weight_filler {
      type: "xavier"
    }
  }
}
layer {
  name: "pool5"
  type: "Pooling"
  bottom: "conv8"
  top: "pool5"
  pooling_param {
    pool: MAX
    kernel_size: 2
    stride: 2
  }
}
layer {
  name: "drop5"
  type: "Dropout"
  bottom: "pool5"
  top: "drop5"
  dropout_param {
    dropout_ratio: 0.4
  }
}
layer {
  name: "relu5"
  type: "ReLU"
  bottom: "drop5"
  top: "relu5"
  relu_param {
    negative_slope: 0.01
  }
}
layer {
  name: "conv10"
  type: "Convolution"
  bottom: "relu5"
  top: "conv10"
  convolution_param {
    num_output: 300
    kernel_size: 1
    weight_filler {
      type: "xavier"
    }
  }
}
layer {
  name: "pool6"
  type: "Pooling"
  bottom: "conv10"
  top: "pool6"
  pooling_param {
    pool: MAX
    kernel_size: 2
    stride: 2
  }
}
layer {
  name: "drop6"
  type: "Dropout"
  bottom: "pool6"
  top: "drop6"
  dropout_param {
    dropout_ratio: 0.5
  }
}
layer {
  name: "relu6"
  type: "ReLU"
  bottom: "drop6"
  top: "relu6"
  relu_param {
    negative_slope: 0.01
  }
}
layer {
  name: "conv11"
  type: "Convolution"
  bottom: "relu6"
  top: "conv11"
  convolution_param {
    num_output: 100
    kernel_size: 1
    weight_filler {
      type: "xavier"
    }
  }
}
layer {
  name: "pool7"
  type: "Pooling"
  bottom: "conv11"
  top: "pool7"
  pooling_param {
    pool: MAX
    kernel_size: 2
    stride: 2
  }
}
layer {
  name: "drop7"
  type: "Dropout"
  bottom: "pool7"
  top: "drop7"
  dropout_param {
    dropout_ratio: 0
  }
}
layer {
  name: "relu7"
  type: "ReLU"
  bottom: "drop7"
  top: "relu7"
  relu_param {
    negative_slope: 0.01
  }
}
layer {
  name: "pool"
  type: "Pooling"
  bottom: "relu7"
  top: "pool"
  pooling_param {
    pool: AVE
    global_pooling: true
  }
}
layer {
  name: "flatten"
  type: "Flatten"
  bottom: "pool"
  top: "flatten"
}
layer {
  name: "ip_c"
  type: "InnerProduct"
  bottom: "flatten"
  top: "ip_c"
  inner_product_param {
    num_output: 20
    weight_filler {
      type: "xavier"
    }
  }
}
layer {
  name: "accuracy_f"
  type: "Accuracy"
  bottom: "ip_c"
  bottom: "label_coarse"
  top: "accuracy_f"
}
layer {
  name: "loss_c"
  type: "SoftmaxWithLoss"
  bottom: "ip_c"
  bottom: "label_coarse"
  top: "loss_c"
}
layer {
  name: "ip_f"
  type: "InnerProduct"
  bottom: "flatten"
  top: "ip_f"
  inner_product_param {
    num_output: 100
    weight_filler {
      type: "xavier"
    }
  }
}
layer {
  name: "accuracy"
  type: "Accuracy"
  bottom: "ip_f"
  bottom: "label_fine"
  top: "accuracy"
}
layer {
  name: "loss_f"
  type: "SoftmaxWithLoss"
  bottom: "ip_f"
  bottom: "label_fine"
  top: "loss_f"
}
I1018 00:27:04.363353 12063 layer_factory.hpp:77] Creating layer data
I1018 00:27:04.363364 12063 net.cpp:100] Creating Layer data
I1018 00:27:04.363382 12063 net.cpp:408] data -> data
I1018 00:27:04.363399 12063 net.cpp:408] data -> label_coarse
I1018 00:27:04.363404 12063 net.cpp:408] data -> label_fine
I1018 00:27:04.363412 12063 hdf5_data_layer.cpp:79] Loading list of HDF5 filenames from: ../../../../data/cifar-100/cifar_100_caffe_hdf5/train.txt
I1018 00:27:04.363431 12063 hdf5_data_layer.cpp:93] Number of HDF5 files: 1
I1018 00:27:04.364141 12063 hdf5.cpp:35] Datatype class: H5T_INTEGER
I1018 00:27:06.007992 12063 net.cpp:150] Setting up data
I1018 00:27:06.008014 12063 net.cpp:157] Top shape: 64 3 32 32 (196608)
I1018 00:27:06.008018 12063 net.cpp:157] Top shape: 64 (64)
I1018 00:27:06.008019 12063 net.cpp:157] Top shape: 64 (64)
I1018 00:27:06.008021 12063 net.cpp:165] Memory required for data: 786944
I1018 00:27:06.008028 12063 layer_factory.hpp:77] Creating layer label_coarse_data_1_split
I1018 00:27:06.008036 12063 net.cpp:100] Creating Layer label_coarse_data_1_split
I1018 00:27:06.008041 12063 net.cpp:434] label_coarse_data_1_split <- label_coarse
I1018 00:27:06.008051 12063 net.cpp:408] label_coarse_data_1_split -> label_coarse_data_1_split_0
I1018 00:27:06.008057 12063 net.cpp:408] label_coarse_data_1_split -> label_coarse_data_1_split_1
I1018 00:27:06.008093 12063 net.cpp:150] Setting up label_coarse_data_1_split
I1018 00:27:06.008097 12063 net.cpp:157] Top shape: 64 (64)
I1018 00:27:06.008100 12063 net.cpp:157] Top shape: 64 (64)
I1018 00:27:06.008101 12063 net.cpp:165] Memory required for data: 787456
I1018 00:27:06.008103 12063 layer_factory.hpp:77] Creating layer label_fine_data_2_split
I1018 00:27:06.008107 12063 net.cpp:100] Creating Layer label_fine_data_2_split
I1018 00:27:06.008110 12063 net.cpp:434] label_fine_data_2_split <- label_fine
I1018 00:27:06.008113 12063 net.cpp:408] label_fine_data_2_split -> label_fine_data_2_split_0
I1018 00:27:06.008116 12063 net.cpp:408] label_fine_data_2_split -> label_fine_data_2_split_1
I1018 00:27:06.008133 12063 net.cpp:150] Setting up label_fine_data_2_split
I1018 00:27:06.008137 12063 net.cpp:157] Top shape: 64 (64)
I1018 00:27:06.008139 12063 net.cpp:157] Top shape: 64 (64)
I1018 00:27:06.008141 12063 net.cpp:165] Memory required for data: 787968
I1018 00:27:06.008142 12063 layer_factory.hpp:77] Creating layer conv1
I1018 00:27:06.008152 12063 net.cpp:100] Creating Layer conv1
I1018 00:27:06.008154 12063 net.cpp:434] conv1 <- data
I1018 00:27:06.008157 12063 net.cpp:408] conv1 -> conv1
I1018 00:27:06.129312 12063 net.cpp:150] Setting up conv1
I1018 00:27:06.129336 12063 net.cpp:157] Top shape: 64 192 28 28 (9633792)
I1018 00:27:06.129339 12063 net.cpp:165] Memory required for data: 39323136
I1018 00:27:06.129356 12063 layer_factory.hpp:77] Creating layer pool1
I1018 00:27:06.129366 12063 net.cpp:100] Creating Layer pool1
I1018 00:27:06.129370 12063 net.cpp:434] pool1 <- conv1
I1018 00:27:06.129375 12063 net.cpp:408] pool1 -> pool1
I1018 00:27:06.129413 12063 net.cpp:150] Setting up pool1
I1018 00:27:06.129418 12063 net.cpp:157] Top shape: 64 192 14 14 (2408448)
I1018 00:27:06.129420 12063 net.cpp:165] Memory required for data: 48956928
I1018 00:27:06.129422 12063 layer_factory.hpp:77] Creating layer drop1
I1018 00:27:06.129426 12063 net.cpp:100] Creating Layer drop1
I1018 00:27:06.129429 12063 net.cpp:434] drop1 <- pool1
I1018 00:27:06.129432 12063 net.cpp:408] drop1 -> drop1
I1018 00:27:06.129454 12063 net.cpp:150] Setting up drop1
I1018 00:27:06.129458 12063 net.cpp:157] Top shape: 64 192 14 14 (2408448)
I1018 00:27:06.129459 12063 net.cpp:165] Memory required for data: 58590720
I1018 00:27:06.129462 12063 layer_factory.hpp:77] Creating layer relu1
I1018 00:27:06.129465 12063 net.cpp:100] Creating Layer relu1
I1018 00:27:06.129467 12063 net.cpp:434] relu1 <- drop1
I1018 00:27:06.129470 12063 net.cpp:408] relu1 -> relu1
I1018 00:27:06.129585 12063 net.cpp:150] Setting up relu1
I1018 00:27:06.129590 12063 net.cpp:157] Top shape: 64 192 14 14 (2408448)
I1018 00:27:06.129592 12063 net.cpp:165] Memory required for data: 68224512
I1018 00:27:06.129595 12063 layer_factory.hpp:77] Creating layer conv2
I1018 00:27:06.129601 12063 net.cpp:100] Creating Layer conv2
I1018 00:27:06.129602 12063 net.cpp:434] conv2 <- relu1
I1018 00:27:06.129606 12063 net.cpp:408] conv2 -> conv2
I1018 00:27:06.130398 12063 net.cpp:150] Setting up conv2
I1018 00:27:06.130406 12063 net.cpp:157] Top shape: 64 192 14 14 (2408448)
I1018 00:27:06.130409 12063 net.cpp:165] Memory required for data: 77858304
I1018 00:27:06.130414 12063 layer_factory.hpp:77] Creating layer conv3
I1018 00:27:06.130419 12063 net.cpp:100] Creating Layer conv3
I1018 00:27:06.130421 12063 net.cpp:434] conv3 <- conv2
I1018 00:27:06.130424 12063 net.cpp:408] conv3 -> conv3
I1018 00:27:06.132823 12063 net.cpp:150] Setting up conv3
I1018 00:27:06.132832 12063 net.cpp:157] Top shape: 64 240 12 12 (2211840)
I1018 00:27:06.132833 12063 net.cpp:165] Memory required for data: 86705664
I1018 00:27:06.132839 12063 layer_factory.hpp:77] Creating layer pool2
I1018 00:27:06.132843 12063 net.cpp:100] Creating Layer pool2
I1018 00:27:06.132845 12063 net.cpp:434] pool2 <- conv3
I1018 00:27:06.132848 12063 net.cpp:408] pool2 -> pool2
I1018 00:27:06.132870 12063 net.cpp:150] Setting up pool2
I1018 00:27:06.132874 12063 net.cpp:157] Top shape: 64 240 6 6 (552960)
I1018 00:27:06.132876 12063 net.cpp:165] Memory required for data: 88917504
I1018 00:27:06.132889 12063 layer_factory.hpp:77] Creating layer drop2
I1018 00:27:06.132892 12063 net.cpp:100] Creating Layer drop2
I1018 00:27:06.132894 12063 net.cpp:434] drop2 <- pool2
I1018 00:27:06.132896 12063 net.cpp:408] drop2 -> drop2
I1018 00:27:06.132917 12063 net.cpp:150] Setting up drop2
I1018 00:27:06.132920 12063 net.cpp:157] Top shape: 64 240 6 6 (552960)
I1018 00:27:06.132922 12063 net.cpp:165] Memory required for data: 91129344
I1018 00:27:06.132923 12063 layer_factory.hpp:77] Creating layer relu2
I1018 00:27:06.132927 12063 net.cpp:100] Creating Layer relu2
I1018 00:27:06.132928 12063 net.cpp:434] relu2 <- drop2
I1018 00:27:06.132931 12063 net.cpp:408] relu2 -> relu2
I1018 00:27:06.133034 12063 net.cpp:150] Setting up relu2
I1018 00:27:06.133039 12063 net.cpp:157] Top shape: 64 240 6 6 (552960)
I1018 00:27:06.133041 12063 net.cpp:165] Memory required for data: 93341184
I1018 00:27:06.133044 12063 layer_factory.hpp:77] Creating layer conv4
I1018 00:27:06.133047 12063 net.cpp:100] Creating Layer conv4
I1018 00:27:06.133049 12063 net.cpp:434] conv4 <- relu2
I1018 00:27:06.133052 12063 net.cpp:408] conv4 -> conv4
I1018 00:27:06.133872 12063 net.cpp:150] Setting up conv4
I1018 00:27:06.133880 12063 net.cpp:157] Top shape: 64 240 6 6 (552960)
I1018 00:27:06.133883 12063 net.cpp:165] Memory required for data: 95553024
I1018 00:27:06.133888 12063 layer_factory.hpp:77] Creating layer conv5
I1018 00:27:06.133891 12063 net.cpp:100] Creating Layer conv5
I1018 00:27:06.133893 12063 net.cpp:434] conv5 <- conv4
I1018 00:27:06.133898 12063 net.cpp:408] conv5 -> conv5
I1018 00:27:06.135633 12063 net.cpp:150] Setting up conv5
I1018 00:27:06.135648 12063 net.cpp:157] Top shape: 64 260 5 5 (416000)
I1018 00:27:06.135651 12063 net.cpp:165] Memory required for data: 97217024
I1018 00:27:06.135663 12063 layer_factory.hpp:77] Creating layer pool3
I1018 00:27:06.135669 12063 net.cpp:100] Creating Layer pool3
I1018 00:27:06.135673 12063 net.cpp:434] pool3 <- conv5
I1018 00:27:06.135679 12063 net.cpp:408] pool3 -> pool3
I1018 00:27:06.135709 12063 net.cpp:150] Setting up pool3
I1018 00:27:06.135713 12063 net.cpp:157] Top shape: 64 260 3 3 (149760)
I1018 00:27:06.135716 12063 net.cpp:165] Memory required for data: 97816064
I1018 00:27:06.135720 12063 layer_factory.hpp:77] Creating layer drop3
I1018 00:27:06.135726 12063 net.cpp:100] Creating Layer drop3
I1018 00:27:06.135730 12063 net.cpp:434] drop3 <- pool3
I1018 00:27:06.135735 12063 net.cpp:408] drop3 -> drop3
I1018 00:27:06.135758 12063 net.cpp:150] Setting up drop3
I1018 00:27:06.135763 12063 net.cpp:157] Top shape: 64 260 3 3 (149760)
I1018 00:27:06.135766 12063 net.cpp:165] Memory required for data: 98415104
I1018 00:27:06.135769 12063 layer_factory.hpp:77] Creating layer relu3
I1018 00:27:06.135776 12063 net.cpp:100] Creating Layer relu3
I1018 00:27:06.135779 12063 net.cpp:434] relu3 <- drop3
I1018 00:27:06.135785 12063 net.cpp:408] relu3 -> relu3
I1018 00:27:06.135903 12063 net.cpp:150] Setting up relu3
I1018 00:27:06.135910 12063 net.cpp:157] Top shape: 64 260 3 3 (149760)
I1018 00:27:06.135913 12063 net.cpp:165] Memory required for data: 99014144
I1018 00:27:06.135917 12063 layer_factory.hpp:77] Creating layer conv6
I1018 00:27:06.135926 12063 net.cpp:100] Creating Layer conv6
I1018 00:27:06.135928 12063 net.cpp:434] conv6 <- relu3
I1018 00:27:06.135934 12063 net.cpp:408] conv6 -> conv6
I1018 00:27:06.137053 12063 net.cpp:150] Setting up conv6
I1018 00:27:06.137061 12063 net.cpp:157] Top shape: 64 260 3 3 (149760)
I1018 00:27:06.137064 12063 net.cpp:165] Memory required for data: 99613184
I1018 00:27:06.137070 12063 layer_factory.hpp:77] Creating layer conv7
I1018 00:27:06.137079 12063 net.cpp:100] Creating Layer conv7
I1018 00:27:06.137084 12063 net.cpp:434] conv7 <- conv6
I1018 00:27:06.137089 12063 net.cpp:408] conv7 -> conv7
I1018 00:27:06.139013 12063 net.cpp:150] Setting up conv7
I1018 00:27:06.139022 12063 net.cpp:157] Top shape: 64 280 2 2 (71680)
I1018 00:27:06.139025 12063 net.cpp:165] Memory required for data: 99899904
I1018 00:27:06.139042 12063 layer_factory.hpp:77] Creating layer pool4
I1018 00:27:06.139048 12063 net.cpp:100] Creating Layer pool4
I1018 00:27:06.139053 12063 net.cpp:434] pool4 <- conv7
I1018 00:27:06.139060 12063 net.cpp:408] pool4 -> pool4
I1018 00:27:06.139087 12063 net.cpp:150] Setting up pool4
I1018 00:27:06.139093 12063 net.cpp:157] Top shape: 64 280 1 1 (17920)
I1018 00:27:06.139098 12063 net.cpp:165] Memory required for data: 99971584
I1018 00:27:06.139101 12063 layer_factory.hpp:77] Creating layer drop4
I1018 00:27:06.139107 12063 net.cpp:100] Creating Layer drop4
I1018 00:27:06.139111 12063 net.cpp:434] drop4 <- pool4
I1018 00:27:06.139117 12063 net.cpp:408] drop4 -> drop4
I1018 00:27:06.139142 12063 net.cpp:150] Setting up drop4
I1018 00:27:06.139147 12063 net.cpp:157] Top shape: 64 280 1 1 (17920)
I1018 00:27:06.139149 12063 net.cpp:165] Memory required for data: 100043264
I1018 00:27:06.139153 12063 layer_factory.hpp:77] Creating layer relu4
I1018 00:27:06.139158 12063 net.cpp:100] Creating Layer relu4
I1018 00:27:06.139163 12063 net.cpp:434] relu4 <- drop4
I1018 00:27:06.139168 12063 net.cpp:408] relu4 -> relu4
I1018 00:27:06.139282 12063 net.cpp:150] Setting up relu4
I1018 00:27:06.139291 12063 net.cpp:157] Top shape: 64 280 1 1 (17920)
I1018 00:27:06.139294 12063 net.cpp:165] Memory required for data: 100114944
I1018 00:27:06.139297 12063 layer_factory.hpp:77] Creating layer conv8
I1018 00:27:06.139307 12063 net.cpp:100] Creating Layer conv8
I1018 00:27:06.139309 12063 net.cpp:434] conv8 <- relu4
I1018 00:27:06.139314 12063 net.cpp:408] conv8 -> conv8
I1018 00:27:06.140221 12063 net.cpp:150] Setting up conv8
I1018 00:27:06.140230 12063 net.cpp:157] Top shape: 64 280 1 1 (17920)
I1018 00:27:06.140233 12063 net.cpp:165] Memory required for data: 100186624
I1018 00:27:06.140239 12063 layer_factory.hpp:77] Creating layer pool5
I1018 00:27:06.140246 12063 net.cpp:100] Creating Layer pool5
I1018 00:27:06.140250 12063 net.cpp:434] pool5 <- conv8
I1018 00:27:06.140255 12063 net.cpp:408] pool5 -> pool5
I1018 00:27:06.140283 12063 net.cpp:150] Setting up pool5
I1018 00:27:06.140288 12063 net.cpp:157] Top shape: 64 280 1 1 (17920)
I1018 00:27:06.140292 12063 net.cpp:165] Memory required for data: 100258304
I1018 00:27:06.140296 12063 layer_factory.hpp:77] Creating layer drop5
I1018 00:27:06.140300 12063 net.cpp:100] Creating Layer drop5
I1018 00:27:06.140305 12063 net.cpp:434] drop5 <- pool5
I1018 00:27:06.140310 12063 net.cpp:408] drop5 -> drop5
I1018 00:27:06.140334 12063 net.cpp:150] Setting up drop5
I1018 00:27:06.140339 12063 net.cpp:157] Top shape: 64 280 1 1 (17920)
I1018 00:27:06.140342 12063 net.cpp:165] Memory required for data: 100329984
I1018 00:27:06.140347 12063 layer_factory.hpp:77] Creating layer relu5
I1018 00:27:06.140352 12063 net.cpp:100] Creating Layer relu5
I1018 00:27:06.140355 12063 net.cpp:434] relu5 <- drop5
I1018 00:27:06.140360 12063 net.cpp:408] relu5 -> relu5
I1018 00:27:06.140561 12063 net.cpp:150] Setting up relu5
I1018 00:27:06.140569 12063 net.cpp:157] Top shape: 64 280 1 1 (17920)
I1018 00:27:06.140573 12063 net.cpp:165] Memory required for data: 100401664
I1018 00:27:06.140575 12063 layer_factory.hpp:77] Creating layer conv10
I1018 00:27:06.140583 12063 net.cpp:100] Creating Layer conv10
I1018 00:27:06.140586 12063 net.cpp:434] conv10 <- relu5
I1018 00:27:06.140594 12063 net.cpp:408] conv10 -> conv10
I1018 00:27:06.141675 12063 net.cpp:150] Setting up conv10
I1018 00:27:06.141687 12063 net.cpp:157] Top shape: 64 300 1 1 (19200)
I1018 00:27:06.141690 12063 net.cpp:165] Memory required for data: 100478464
I1018 00:27:06.141701 12063 layer_factory.hpp:77] Creating layer pool6
I1018 00:27:06.141707 12063 net.cpp:100] Creating Layer pool6
I1018 00:27:06.141712 12063 net.cpp:434] pool6 <- conv10
I1018 00:27:06.141718 12063 net.cpp:408] pool6 -> pool6
I1018 00:27:06.141747 12063 net.cpp:150] Setting up pool6
I1018 00:27:06.141754 12063 net.cpp:157] Top shape: 64 300 1 1 (19200)
I1018 00:27:06.141758 12063 net.cpp:165] Memory required for data: 100555264
I1018 00:27:06.141762 12063 layer_factory.hpp:77] Creating layer drop6
I1018 00:27:06.141773 12063 net.cpp:100] Creating Layer drop6
I1018 00:27:06.141777 12063 net.cpp:434] drop6 <- pool6
I1018 00:27:06.141784 12063 net.cpp:408] drop6 -> drop6
I1018 00:27:06.141813 12063 net.cpp:150] Setting up drop6
I1018 00:27:06.141819 12063 net.cpp:157] Top shape: 64 300 1 1 (19200)
I1018 00:27:06.141822 12063 net.cpp:165] Memory required for data: 100632064
I1018 00:27:06.141826 12063 layer_factory.hpp:77] Creating layer relu6
I1018 00:27:06.141831 12063 net.cpp:100] Creating Layer relu6
I1018 00:27:06.141835 12063 net.cpp:434] relu6 <- drop6
I1018 00:27:06.141840 12063 net.cpp:408] relu6 -> relu6
I1018 00:27:06.141957 12063 net.cpp:150] Setting up relu6
I1018 00:27:06.141964 12063 net.cpp:157] Top shape: 64 300 1 1 (19200)
I1018 00:27:06.141968 12063 net.cpp:165] Memory required for data: 100708864
I1018 00:27:06.141970 12063 layer_factory.hpp:77] Creating layer conv11
I1018 00:27:06.141978 12063 net.cpp:100] Creating Layer conv11
I1018 00:27:06.141981 12063 net.cpp:434] conv11 <- relu6
I1018 00:27:06.141988 12063 net.cpp:408] conv11 -> conv11
I1018 00:27:06.142722 12063 net.cpp:150] Setting up conv11
I1018 00:27:06.142731 12063 net.cpp:157] Top shape: 64 100 1 1 (6400)
I1018 00:27:06.142735 12063 net.cpp:165] Memory required for data: 100734464
I1018 00:27:06.142741 12063 layer_factory.hpp:77] Creating layer pool7
I1018 00:27:06.142747 12063 net.cpp:100] Creating Layer pool7
I1018 00:27:06.142751 12063 net.cpp:434] pool7 <- conv11
I1018 00:27:06.142757 12063 net.cpp:408] pool7 -> pool7
I1018 00:27:06.142786 12063 net.cpp:150] Setting up pool7
I1018 00:27:06.142791 12063 net.cpp:157] Top shape: 64 100 1 1 (6400)
I1018 00:27:06.142796 12063 net.cpp:165] Memory required for data: 100760064
I1018 00:27:06.142798 12063 layer_factory.hpp:77] Creating layer drop7
I1018 00:27:06.142808 12063 net.cpp:100] Creating Layer drop7
I1018 00:27:06.142812 12063 net.cpp:434] drop7 <- pool7
I1018 00:27:06.142815 12063 net.cpp:408] drop7 -> drop7
I1018 00:27:06.142843 12063 net.cpp:150] Setting up drop7
I1018 00:27:06.142848 12063 net.cpp:157] Top shape: 64 100 1 1 (6400)
I1018 00:27:06.142851 12063 net.cpp:165] Memory required for data: 100785664
I1018 00:27:06.142854 12063 layer_factory.hpp:77] Creating layer relu7
I1018 00:27:06.142859 12063 net.cpp:100] Creating Layer relu7
I1018 00:27:06.142863 12063 net.cpp:434] relu7 <- drop7
I1018 00:27:06.142868 12063 net.cpp:408] relu7 -> relu7
I1018 00:27:06.142984 12063 net.cpp:150] Setting up relu7
I1018 00:27:06.142992 12063 net.cpp:157] Top shape: 64 100 1 1 (6400)
I1018 00:27:06.142994 12063 net.cpp:165] Memory required for data: 100811264
I1018 00:27:06.142997 12063 layer_factory.hpp:77] Creating layer pool
I1018 00:27:06.143003 12063 net.cpp:100] Creating Layer pool
I1018 00:27:06.143007 12063 net.cpp:434] pool <- relu7
I1018 00:27:06.143014 12063 net.cpp:408] pool -> pool
I1018 00:27:06.143225 12063 net.cpp:150] Setting up pool
I1018 00:27:06.143234 12063 net.cpp:157] Top shape: 64 100 1 1 (6400)
I1018 00:27:06.143237 12063 net.cpp:165] Memory required for data: 100836864
I1018 00:27:06.143240 12063 layer_factory.hpp:77] Creating layer flatten
I1018 00:27:06.143246 12063 net.cpp:100] Creating Layer flatten
I1018 00:27:06.143249 12063 net.cpp:434] flatten <- pool
I1018 00:27:06.143254 12063 net.cpp:408] flatten -> flatten
I1018 00:27:06.143275 12063 net.cpp:150] Setting up flatten
I1018 00:27:06.143278 12063 net.cpp:157] Top shape: 64 100 (6400)
I1018 00:27:06.143280 12063 net.cpp:165] Memory required for data: 100862464
I1018 00:27:06.143281 12063 layer_factory.hpp:77] Creating layer flatten_flatten_0_split
I1018 00:27:06.143287 12063 net.cpp:100] Creating Layer flatten_flatten_0_split
I1018 00:27:06.143290 12063 net.cpp:434] flatten_flatten_0_split <- flatten
I1018 00:27:06.143292 12063 net.cpp:408] flatten_flatten_0_split -> flatten_flatten_0_split_0
I1018 00:27:06.143296 12063 net.cpp:408] flatten_flatten_0_split -> flatten_flatten_0_split_1
I1018 00:27:06.143319 12063 net.cpp:150] Setting up flatten_flatten_0_split
I1018 00:27:06.143331 12063 net.cpp:157] Top shape: 64 100 (6400)
I1018 00:27:06.143334 12063 net.cpp:157] Top shape: 64 100 (6400)
I1018 00:27:06.143337 12063 net.cpp:165] Memory required for data: 100913664
I1018 00:27:06.143339 12063 layer_factory.hpp:77] Creating layer ip_c
I1018 00:27:06.143345 12063 net.cpp:100] Creating Layer ip_c
I1018 00:27:06.143348 12063 net.cpp:434] ip_c <- flatten_flatten_0_split_0
I1018 00:27:06.143352 12063 net.cpp:408] ip_c -> ip_c
I1018 00:27:06.143704 12063 net.cpp:150] Setting up ip_c
I1018 00:27:06.143712 12063 net.cpp:157] Top shape: 64 20 (1280)
I1018 00:27:06.143713 12063 net.cpp:165] Memory required for data: 100918784
I1018 00:27:06.143717 12063 layer_factory.hpp:77] Creating layer ip_c_ip_c_0_split
I1018 00:27:06.143721 12063 net.cpp:100] Creating Layer ip_c_ip_c_0_split
I1018 00:27:06.143724 12063 net.cpp:434] ip_c_ip_c_0_split <- ip_c
I1018 00:27:06.143728 12063 net.cpp:408] ip_c_ip_c_0_split -> ip_c_ip_c_0_split_0
I1018 00:27:06.143731 12063 net.cpp:408] ip_c_ip_c_0_split -> ip_c_ip_c_0_split_1
I1018 00:27:06.143754 12063 net.cpp:150] Setting up ip_c_ip_c_0_split
I1018 00:27:06.143759 12063 net.cpp:157] Top shape: 64 20 (1280)
I1018 00:27:06.143760 12063 net.cpp:157] Top shape: 64 20 (1280)
I1018 00:27:06.143761 12063 net.cpp:165] Memory required for data: 100929024
I1018 00:27:06.143764 12063 layer_factory.hpp:77] Creating layer accuracy_f
I1018 00:27:06.143767 12063 net.cpp:100] Creating Layer accuracy_f
I1018 00:27:06.143769 12063 net.cpp:434] accuracy_f <- ip_c_ip_c_0_split_0
I1018 00:27:06.143771 12063 net.cpp:434] accuracy_f <- label_coarse_data_1_split_0
I1018 00:27:06.143775 12063 net.cpp:408] accuracy_f -> accuracy_f
…
I1018 00:27:06.144606 12063 net.cpp:283] Network initialization done.
I1018 00:27:06.144805 12063 solver.cpp:181] Creating test net (#0) specified by test_net file: /home/adam/Honours/Honours-Project/cifar-100_pooling/max/leakyrelu/poolcnn_leakyrelu_test.prototxt
I1018 00:27:06.144928 12063 net.cpp:58] Initializing net from parameters: 
state {
  phase: TEST
}
layer {
  name: "data"
  type: "HDF5Data"
  top: "data"
  top: "label_coarse"
  top: "label_fine"
  hdf5_data_param {
    source: "../../../../data/cifar-100/cifar_100_caffe_hdf5/test.txt"
    batch_size: 100
  }
}
layer {
  name: "conv1"
  type: "Convolution"
  bottom: "data"
  top: "conv1"
  convolution_param {
    num_output: 192
    kernel_size: 5
    weight_filler {
      type: "xavier"
    }
  }
}
layer {
  name: "pool1"
  type: "Pooling"
  bottom: "conv1"
  top: "pool1"
  pooling_param {
    pool: MAX
    kernel_size: 2
    stride: 2
  }
}
layer {
  name: "drop1"
  type: "Dropout"
  bottom: "pool1"
  top: "drop1"
  dropout_param {
    dropout_ratio: 0
  }
}
layer {
  name: "relu1"
  type: "ReLU"
  bottom: "drop1"
  top: "relu1"
  relu_param {
    negative_slope: 0.01
  }
}
layer {
  name: "conv2"
  type: "Convolution"
  bottom: "relu1"
  top: "conv2"
  convolution_param {
    num_output: 192
    kernel_size: 1
    weight_filler {
      type: "xavier"
    }
  }
}
layer {
  name: "conv3"
  type: "Convolution"
  bottom: "conv2"
  top: "conv3"
  convolution_param {
    num_output: 240
    kernel_size: 3
    weight_filler {
      type: "xavier"
    }
  }
}
layer {
  name: "pool2"
  type: "Pooling"
  bottom: "conv3"
  top: "pool2"
  pooling_param {
    pool: MAX
    kernel_size: 2
    stride: 2
  }
}
layer {
  name: "drop2"
  type: "Dropout"
  bottom: "pool2"
  top: "drop2"
  dropout_param {
    dropout_ratio: 0.1
  }
}
layer {
  name: "relu2"
  type: "ReLU"
  bottom: "drop2"
  top: "relu2"
  relu_param {
    negative_slope: 0.01
  }
}
layer {
  name: "conv4"
  type: "Convolution"
  bottom: "relu2"
  top: "conv4"
  convolution_param {
    num_output: 240
    kernel_size: 1
    weight_filler {
      type: "xavier"
    }
  }
}
layer {
  name: "conv5"
  type: "Convolution"
  bottom: "conv4"
  top: "conv5"
  convolution_param {
    num_output: 260
    kernel_size: 2
    weight_filler {
      type: "xavier"
    }
  }
}
layer {
  name: "pool3"
  type: "Pooling"
  bottom: "conv5"
  top: "pool3"
  pooling_param {
    pool: MAX
    kernel_size: 2
    stride: 2
  }
}
layer {
  name: "drop3"
  type: "Dropout"
  bottom: "pool3"
  top: "drop3"
  dropout_param {
    dropout_ratio: 0.2
  }
}
layer {
  name: "relu3"
  type: "ReLU"
  bottom: "drop3"
  top: "relu3"
  relu_param {
    negative_slope: 0.01
  }
}
layer {
  name: "conv6"
  type: "Convolution"
  bottom: "relu3"
  top: "conv6"
  convolution_param {
    num_output: 260
    kernel_size: 1
    weight_filler {
      type: "xavier"
    }
  }
}
layer {
  name: "conv7"
  type: "Convolution"
  bottom: "conv6"
  top: "conv7"
  convolution_param {
    num_output: 280
    kernel_size: 2
    weight_filler {
      type: "xavier"
    }
  }
}
layer {
  name: "pool4"
  type: "Pooling"
  bottom: "conv7"
  top: "pool4"
  pooling_param {
    pool: MAX
    kernel_size: 2
    stride: 2
  }
}
layer {
  name: "drop4"
  type: "Dropout"
  bottom: "pool4"
  top: "drop4"
  dropout_param {
    dropout_ratio: 0.3
  }
}
layer {
  name: "relu4"
  type: "ReLU"
  bottom: "drop4"
  top: "relu4"
  relu_param {
    negative_slope: 0.01
  }
}
layer {
  name: "conv8"
  type: "Convolution"
  bottom: "relu4"
  top: "conv8"
  convolution_param {
    num_output: 280
    kernel_size: 1
    weight_filler {
      type: "xavier"
    }
  }
}
layer {
  name: "pool5"
  type: "Pooling"
  bottom: "conv8"
  top: "pool5"
  pooling_param {
    pool: MAX
    kernel_size: 2
    stride: 2
  }
}
layer {
  name: "drop5"
  type: "Dropout"
  bottom: "pool5"
  top: "drop5"
  dropout_param {
    dropout_ratio: 0.4
  }
}
layer {
  name: "relu5"
  type: "ReLU"
  bottom: "drop5"
  top: "relu5"
  relu_param {
    negative_slope: 0.01
  }
}
layer {
  name: "conv10"
  type: "Convolution"
  bottom: "relu5"
  top: "conv10"
  convolution_param {
    num_output: 300
    kernel_size: 1
    weight_filler {
      type: "xavier"
    }
  }
}
layer {
  name: "pool6"
  type: "Pooling"
  bottom: "conv10"
  top: "pool6"
  pooling_param {
    pool: MAX
    kernel_size: 2
    stride: 2
  }
}
layer {
  name: "drop6"
  type: "Dropout"
  bottom: "pool6"
  top: "drop6"
  dropout_param {
    dropout_ratio: 0.5
  }
}
layer {
  name: "relu6"
  type: "ReLU"
  bottom: "drop6"
  top: "relu6"
  relu_param {
    negative_slope: 0.01
  }
}
layer {
  name: "conv11"
  type: "Convolution"
  bottom: "relu6"
  top: "conv11"
  convolution_param {
    num_output: 100
    kernel_size: 1
    weight_filler {
      type: "xavier"
    }
  }
}
layer {
  name: "pool7"
  type: "Pooling"
  bottom: "conv11"
  top: "pool7"
  pooling_param {
    pool: MAX
    kernel_size: 2
    stride: 2
  }
}
layer {
  name: "drop7"
  type: "Dropout"
  bottom: "pool7"
  top: "drop7"
  dropout_param {
    dropout_ratio: 0
  }
}
layer {
  name: "relu7"
  type: "ReLU"
  bottom: "drop7"
  top: "relu7"
  relu_param {
    negative_slope: 0.01
  }
}
layer {
  name: "pool"
  type: "Pooling"
  bottom: "relu7"
  top: "pool"
  pooling_param {
    pool: AVE
    global_pooling: true
  }
}
layer {
  name: "flatten"
  type: "Flatten"
  bottom: "pool"
  top: "flatten"
}
layer {
  name: "ip_c"
  type: "InnerProduct"
  bottom: "flatten"
  top: "ip_c"
  inner_product_param {
    num_output: 20
    weight_filler {
      type: "xavier"
    }
  }
}
layer {
  name: "accuracy_f"
  type: "Accuracy"
  bottom: "ip_c"
  bottom: "label_coarse"
  top: "accuracy_f"
}
layer {
  name: "loss_c"
  type: "SoftmaxWithLoss"
  bottom: "ip_c"
  bottom: "label_coarse"
  top: "loss_c"
}
layer {
  name: "ip_f"
  type: "InnerProduct"
  bottom: "flatten"
  top: "ip_f"
  inner_product_param {
    num_output: 100
    weight_filler {
      type: "xavier"
    }
  }
}
layer {
  name: "accuracy"
  type: "Accuracy"
  bottom: "ip_f"
  bottom: "label_fine"
  top: "accuracy"
}
layer {
  name: "loss_f"
  type: "SoftmaxWithLoss"
  bottom: "ip_f"
  bottom: "label_fine"
  top: "loss_f"
}
I1018 00:27:06.145020 12063 layer_factory.hpp:77] Creating layer data
I1018 00:27:06.145026 12063 net.cpp:100] Creating Layer data
I1018 00:27:06.145028 12063 net.cpp:408] data -> data
I1018 00:27:06.145032 12063 net.cpp:408] data -> label_coarse
I1018 00:27:06.145035 12063 net.cpp:408] data -> label_fine
I1018 00:27:06.145040 12063 hdf5_data_layer.cpp:79] Loading list of HDF5 filenames from: ../../../../data/cifar-100/cifar_100_caffe_hdf5/test.txt
I1018 00:27:06.145054 12063 hdf5_data_layer.cpp:93] Number of HDF5 files: 1
I1018 00:27:06.403136 12063 net.cpp:150] Setting up data
I1018 00:27:06.403162 12063 net.cpp:157] Top shape: 100 3 32 32 (307200)
I1018 00:27:06.403164 12063 net.cpp:157] Top shape: 100 (100)
I1018 00:27:06.403167 12063 net.cpp:157] Top shape: 100 (100)
I1018 00:27:06.403168 12063 net.cpp:165] Memory required for data: 1229600
I1018 00:27:06.403172 12063 layer_factory.hpp:77] Creating layer label_coarse_data_1_split
I1018 00:27:06.403182 12063 net.cpp:100] Creating Layer label_coarse_data_1_split
I1018 00:27:06.403184 12063 net.cpp:434] label_coarse_data_1_split <- label_coarse
I1018 00:27:06.403190 12063 net.cpp:408] label_coarse_data_1_split -> label_coarse_data_1_split_0
I1018 00:27:06.403198 12063 net.cpp:408] label_coarse_data_1_split -> label_coarse_data_1_split_1
I1018 00:27:06.403223 12063 net.cpp:150] Setting up label_coarse_data_1_split
I1018 00:27:06.403226 12063 net.cpp:157] Top shape: 100 (100)
I1018 00:27:06.403244 12063 net.cpp:157] Top shape: 100 (100)
I1018 00:27:06.403245 12063 net.cpp:165] Memory required for data: 1230400
I1018 00:27:06.403247 12063 layer_factory.hpp:77] Creating layer label_fine_data_2_split
I1018 00:27:06.403251 12063 net.cpp:100] Creating Layer label_fine_data_2_split
I1018 00:27:06.403254 12063 net.cpp:434] label_fine_data_2_split <- label_fine
I1018 00:27:06.403256 12063 net.cpp:408] label_fine_data_2_split -> label_fine_data_2_split_0
I1018 00:27:06.403260 12063 net.cpp:408] label_fine_data_2_split -> label_fine_data_2_split_1
I1018 00:27:06.403281 12063 net.cpp:150] Setting up label_fine_data_2_split
I1018 00:27:06.403285 12063 net.cpp:157] Top shape: 100 (100)
I1018 00:27:06.403287 12063 net.cpp:157] Top shape: 100 (100)
I1018 00:27:06.403290 12063 net.cpp:165] Memory required for data: 1231200
I1018 00:27:06.403290 12063 layer_factory.hpp:77] Creating layer conv1
I1018 00:27:06.403297 12063 net.cpp:100] Creating Layer conv1
I1018 00:27:06.403300 12063 net.cpp:434] conv1 <- data
I1018 00:27:06.403302 12063 net.cpp:408] conv1 -> conv1
I1018 00:27:06.404144 12063 net.cpp:150] Setting up conv1
I1018 00:27:06.404152 12063 net.cpp:157] Top shape: 100 192 28 28 (15052800)
I1018 00:27:06.404155 12063 net.cpp:165] Memory required for data: 61442400
I1018 00:27:06.404161 12063 layer_factory.hpp:77] Creating layer pool1
I1018 00:27:06.404166 12063 net.cpp:100] Creating Layer pool1
I1018 00:27:06.404168 12063 net.cpp:434] pool1 <- conv1
I1018 00:27:06.404172 12063 net.cpp:408] pool1 -> pool1
I1018 00:27:06.404199 12063 net.cpp:150] Setting up pool1
I1018 00:27:06.404204 12063 net.cpp:157] Top shape: 100 192 14 14 (3763200)
I1018 00:27:06.404206 12063 net.cpp:165] Memory required for data: 76495200
I1018 00:27:06.404207 12063 layer_factory.hpp:77] Creating layer drop1
I1018 00:27:06.404211 12063 net.cpp:100] Creating Layer drop1
I1018 00:27:06.404212 12063 net.cpp:434] drop1 <- pool1
I1018 00:27:06.404216 12063 net.cpp:408] drop1 -> drop1
I1018 00:27:06.404237 12063 net.cpp:150] Setting up drop1
I1018 00:27:06.404242 12063 net.cpp:157] Top shape: 100 192 14 14 (3763200)
I1018 00:27:06.404243 12063 net.cpp:165] Memory required for data: 91548000
I1018 00:27:06.404244 12063 layer_factory.hpp:77] Creating layer relu1
I1018 00:27:06.404248 12063 net.cpp:100] Creating Layer relu1
I1018 00:27:06.404250 12063 net.cpp:434] relu1 <- drop1
I1018 00:27:06.404253 12063 net.cpp:408] relu1 -> relu1
I1018 00:27:06.404372 12063 net.cpp:150] Setting up relu1
I1018 00:27:06.404377 12063 net.cpp:157] Top shape: 100 192 14 14 (3763200)
I1018 00:27:06.404379 12063 net.cpp:165] Memory required for data: 106600800
I1018 00:27:06.404381 12063 layer_factory.hpp:77] Creating layer conv2
I1018 00:27:06.404386 12063 net.cpp:100] Creating Layer conv2
I1018 00:27:06.404387 12063 net.cpp:434] conv2 <- relu1
I1018 00:27:06.404392 12063 net.cpp:408] conv2 -> conv2
I1018 00:27:06.405167 12063 net.cpp:150] Setting up conv2
I1018 00:27:06.405175 12063 net.cpp:157] Top shape: 100 192 14 14 (3763200)
I1018 00:27:06.405177 12063 net.cpp:165] Memory required for data: 121653600
I1018 00:27:06.405182 12063 layer_factory.hpp:77] Creating layer conv3
I1018 00:27:06.405189 12063 net.cpp:100] Creating Layer conv3
I1018 00:27:06.405190 12063 net.cpp:434] conv3 <- conv2
I1018 00:27:06.405194 12063 net.cpp:408] conv3 -> conv3
I1018 00:27:06.407724 12063 net.cpp:150] Setting up conv3
I1018 00:27:06.407734 12063 net.cpp:157] Top shape: 100 240 12 12 (3456000)
I1018 00:27:06.407737 12063 net.cpp:165] Memory required for data: 135477600
I1018 00:27:06.407742 12063 layer_factory.hpp:77] Creating layer pool2
I1018 00:27:06.407745 12063 net.cpp:100] Creating Layer pool2
I1018 00:27:06.407747 12063 net.cpp:434] pool2 <- conv3
I1018 00:27:06.407750 12063 net.cpp:408] pool2 -> pool2
I1018 00:27:06.407776 12063 net.cpp:150] Setting up pool2
I1018 00:27:06.407780 12063 net.cpp:157] Top shape: 100 240 6 6 (864000)
I1018 00:27:06.407783 12063 net.cpp:165] Memory required for data: 138933600
I1018 00:27:06.407783 12063 layer_factory.hpp:77] Creating layer drop2
I1018 00:27:06.407795 12063 net.cpp:100] Creating Layer drop2
I1018 00:27:06.407799 12063 net.cpp:434] drop2 <- pool2
I1018 00:27:06.407801 12063 net.cpp:408] drop2 -> drop2
I1018 00:27:06.407824 12063 net.cpp:150] Setting up drop2
I1018 00:27:06.407827 12063 net.cpp:157] Top shape: 100 240 6 6 (864000)
I1018 00:27:06.407829 12063 net.cpp:165] Memory required for data: 142389600
I1018 00:27:06.407831 12063 layer_factory.hpp:77] Creating layer relu2
I1018 00:27:06.407835 12063 net.cpp:100] Creating Layer relu2
I1018 00:27:06.407836 12063 net.cpp:434] relu2 <- drop2
I1018 00:27:06.407840 12063 net.cpp:408] relu2 -> relu2
I1018 00:27:06.408036 12063 net.cpp:150] Setting up relu2
I1018 00:27:06.408043 12063 net.cpp:157] Top shape: 100 240 6 6 (864000)
I1018 00:27:06.408044 12063 net.cpp:165] Memory required for data: 145845600
I1018 00:27:06.408047 12063 layer_factory.hpp:77] Creating layer conv4
I1018 00:27:06.408051 12063 net.cpp:100] Creating Layer conv4
I1018 00:27:06.408053 12063 net.cpp:434] conv4 <- relu2
I1018 00:27:06.408057 12063 net.cpp:408] conv4 -> conv4
I1018 00:27:06.409085 12063 net.cpp:150] Setting up conv4
I1018 00:27:06.409092 12063 net.cpp:157] Top shape: 100 240 6 6 (864000)
I1018 00:27:06.409095 12063 net.cpp:165] Memory required for data: 149301600
I1018 00:27:06.409098 12063 layer_factory.hpp:77] Creating layer conv5
I1018 00:27:06.409103 12063 net.cpp:100] Creating Layer conv5
I1018 00:27:06.409106 12063 net.cpp:434] conv5 <- conv4
I1018 00:27:06.409108 12063 net.cpp:408] conv5 -> conv5
I1018 00:27:06.410887 12063 net.cpp:150] Setting up conv5
I1018 00:27:06.410897 12063 net.cpp:157] Top shape: 100 260 5 5 (650000)
I1018 00:27:06.410898 12063 net.cpp:165] Memory required for data: 151901600
I1018 00:27:06.410904 12063 layer_factory.hpp:77] Creating layer pool3
I1018 00:27:06.410908 12063 net.cpp:100] Creating Layer pool3
I1018 00:27:06.410910 12063 net.cpp:434] pool3 <- conv5
I1018 00:27:06.410914 12063 net.cpp:408] pool3 -> pool3
I1018 00:27:06.410941 12063 net.cpp:150] Setting up pool3
I1018 00:27:06.410945 12063 net.cpp:157] Top shape: 100 260 3 3 (234000)
I1018 00:27:06.410948 12063 net.cpp:165] Memory required for data: 152837600
I1018 00:27:06.410949 12063 layer_factory.hpp:77] Creating layer drop3
I1018 00:27:06.410953 12063 net.cpp:100] Creating Layer drop3
I1018 00:27:06.410954 12063 net.cpp:434] drop3 <- pool3
I1018 00:27:06.410958 12063 net.cpp:408] drop3 -> drop3
I1018 00:27:06.410979 12063 net.cpp:150] Setting up drop3
I1018 00:27:06.410982 12063 net.cpp:157] Top shape: 100 260 3 3 (234000)
I1018 00:27:06.410984 12063 net.cpp:165] Memory required for data: 153773600
I1018 00:27:06.410986 12063 layer_factory.hpp:77] Creating layer relu3
I1018 00:27:06.410991 12063 net.cpp:100] Creating Layer relu3
I1018 00:27:06.410993 12063 net.cpp:434] relu3 <- drop3
I1018 00:27:06.410996 12063 net.cpp:408] relu3 -> relu3
I1018 00:27:06.411200 12063 net.cpp:150] Setting up relu3
I1018 00:27:06.411206 12063 net.cpp:157] Top shape: 100 260 3 3 (234000)
I1018 00:27:06.411207 12063 net.cpp:165] Memory required for data: 154709600
I1018 00:27:06.411209 12063 layer_factory.hpp:77] Creating layer conv6
I1018 00:27:06.411214 12063 net.cpp:100] Creating Layer conv6
I1018 00:27:06.411216 12063 net.cpp:434] conv6 <- relu3
I1018 00:27:06.411219 12063 net.cpp:408] conv6 -> conv6
I1018 00:27:06.412287 12063 net.cpp:150] Setting up conv6
I1018 00:27:06.412297 12063 net.cpp:157] Top shape: 100 260 3 3 (234000)
I1018 00:27:06.412298 12063 net.cpp:165] Memory required for data: 155645600
I1018 00:27:06.412302 12063 layer_factory.hpp:77] Creating layer conv7
I1018 00:27:06.412307 12063 net.cpp:100] Creating Layer conv7
I1018 00:27:06.412308 12063 net.cpp:434] conv7 <- conv6
I1018 00:27:06.412312 12063 net.cpp:408] conv7 -> conv7
I1018 00:27:06.414335 12063 net.cpp:150] Setting up conv7
I1018 00:27:06.414343 12063 net.cpp:157] Top shape: 100 280 2 2 (112000)
I1018 00:27:06.414346 12063 net.cpp:165] Memory required for data: 156093600
I1018 00:27:06.414350 12063 layer_factory.hpp:77] Creating layer pool4
I1018 00:27:06.414366 12063 net.cpp:100] Creating Layer pool4
I1018 00:27:06.414368 12063 net.cpp:434] pool4 <- conv7
I1018 00:27:06.414371 12063 net.cpp:408] pool4 -> pool4
I1018 00:27:06.414399 12063 net.cpp:150] Setting up pool4
I1018 00:27:06.414403 12063 net.cpp:157] Top shape: 100 280 1 1 (28000)
I1018 00:27:06.414404 12063 net.cpp:165] Memory required for data: 156205600
I1018 00:27:06.414407 12063 layer_factory.hpp:77] Creating layer drop4
I1018 00:27:06.414410 12063 net.cpp:100] Creating Layer drop4
I1018 00:27:06.414412 12063 net.cpp:434] drop4 <- pool4
I1018 00:27:06.414415 12063 net.cpp:408] drop4 -> drop4
I1018 00:27:06.414438 12063 net.cpp:150] Setting up drop4
I1018 00:27:06.414440 12063 net.cpp:157] Top shape: 100 280 1 1 (28000)
I1018 00:27:06.414443 12063 net.cpp:165] Memory required for data: 156317600
I1018 00:27:06.414445 12063 layer_factory.hpp:77] Creating layer relu4
I1018 00:27:06.414449 12063 net.cpp:100] Creating Layer relu4
I1018 00:27:06.414453 12063 net.cpp:434] relu4 <- drop4
I1018 00:27:06.414454 12063 net.cpp:408] relu4 -> relu4
I1018 00:27:06.414695 12063 net.cpp:150] Setting up relu4
I1018 00:27:06.414705 12063 net.cpp:157] Top shape: 100 280 1 1 (28000)
I1018 00:27:06.414706 12063 net.cpp:165] Memory required for data: 156429600
I1018 00:27:06.414708 12063 layer_factory.hpp:77] Creating layer conv8
I1018 00:27:06.414713 12063 net.cpp:100] Creating Layer conv8
I1018 00:27:06.414716 12063 net.cpp:434] conv8 <- relu4
I1018 00:27:06.414719 12063 net.cpp:408] conv8 -> conv8
I1018 00:27:06.415678 12063 net.cpp:150] Setting up conv8
I1018 00:27:06.415685 12063 net.cpp:157] Top shape: 100 280 1 1 (28000)
I1018 00:27:06.415688 12063 net.cpp:165] Memory required for data: 156541600
I1018 00:27:06.415691 12063 layer_factory.hpp:77] Creating layer pool5
I1018 00:27:06.415695 12063 net.cpp:100] Creating Layer pool5
I1018 00:27:06.415698 12063 net.cpp:434] pool5 <- conv8
I1018 00:27:06.415700 12063 net.cpp:408] pool5 -> pool5
I1018 00:27:06.415730 12063 net.cpp:150] Setting up pool5
I1018 00:27:06.415736 12063 net.cpp:157] Top shape: 100 280 1 1 (28000)
I1018 00:27:06.415738 12063 net.cpp:165] Memory required for data: 156653600
I1018 00:27:06.415742 12063 layer_factory.hpp:77] Creating layer drop5
I1018 00:27:06.415746 12063 net.cpp:100] Creating Layer drop5
I1018 00:27:06.415750 12063 net.cpp:434] drop5 <- pool5
I1018 00:27:06.415753 12063 net.cpp:408] drop5 -> drop5
I1018 00:27:06.415786 12063 net.cpp:150] Setting up drop5
I1018 00:27:06.415791 12063 net.cpp:157] Top shape: 100 280 1 1 (28000)
I1018 00:27:06.415791 12063 net.cpp:165] Memory required for data: 156765600
I1018 00:27:06.415793 12063 layer_factory.hpp:77] Creating layer relu5
I1018 00:27:06.415797 12063 net.cpp:100] Creating Layer relu5
I1018 00:27:06.415799 12063 net.cpp:434] relu5 <- drop5
I1018 00:27:06.415802 12063 net.cpp:408] relu5 -> relu5
I1018 00:27:06.415927 12063 net.cpp:150] Setting up relu5
I1018 00:27:06.415935 12063 net.cpp:157] Top shape: 100 280 1 1 (28000)
I1018 00:27:06.415938 12063 net.cpp:165] Memory required for data: 156877600
I1018 00:27:06.415940 12063 layer_factory.hpp:77] Creating layer conv10
I1018 00:27:06.415946 12063 net.cpp:100] Creating Layer conv10
I1018 00:27:06.415947 12063 net.cpp:434] conv10 <- relu5
I1018 00:27:06.415951 12063 net.cpp:408] conv10 -> conv10
I1018 00:27:06.416890 12063 net.cpp:150] Setting up conv10
I1018 00:27:06.416898 12063 net.cpp:157] Top shape: 100 300 1 1 (30000)
I1018 00:27:06.416900 12063 net.cpp:165] Memory required for data: 156997600
I1018 00:27:06.416908 12063 layer_factory.hpp:77] Creating layer pool6
I1018 00:27:06.416913 12063 net.cpp:100] Creating Layer pool6
I1018 00:27:06.416915 12063 net.cpp:434] pool6 <- conv10
I1018 00:27:06.416919 12063 net.cpp:408] pool6 -> pool6
I1018 00:27:06.416944 12063 net.cpp:150] Setting up pool6
I1018 00:27:06.416949 12063 net.cpp:157] Top shape: 100 300 1 1 (30000)
I1018 00:27:06.416950 12063 net.cpp:165] Memory required for data: 157117600
I1018 00:27:06.416954 12063 layer_factory.hpp:77] Creating layer drop6
I1018 00:27:06.416965 12063 net.cpp:100] Creating Layer drop6
I1018 00:27:06.416967 12063 net.cpp:434] drop6 <- pool6
I1018 00:27:06.416970 12063 net.cpp:408] drop6 -> drop6
I1018 00:27:06.416997 12063 net.cpp:150] Setting up drop6
I1018 00:27:06.417001 12063 net.cpp:157] Top shape: 100 300 1 1 (30000)
I1018 00:27:06.417003 12063 net.cpp:165] Memory required for data: 157237600
I1018 00:27:06.417006 12063 layer_factory.hpp:77] Creating layer relu6
I1018 00:27:06.417008 12063 net.cpp:100] Creating Layer relu6
I1018 00:27:06.417011 12063 net.cpp:434] relu6 <- drop6
I1018 00:27:06.417013 12063 net.cpp:408] relu6 -> relu6
I1018 00:27:06.417125 12063 net.cpp:150] Setting up relu6
I1018 00:27:06.417130 12063 net.cpp:157] Top shape: 100 300 1 1 (30000)
I1018 00:27:06.417134 12063 net.cpp:165] Memory required for data: 157357600
I1018 00:27:06.417135 12063 layer_factory.hpp:77] Creating layer conv11
I1018 00:27:06.417140 12063 net.cpp:100] Creating Layer conv11
I1018 00:27:06.417142 12063 net.cpp:434] conv11 <- relu6
I1018 00:27:06.417145 12063 net.cpp:408] conv11 -> conv11
I1018 00:27:06.417891 12063 net.cpp:150] Setting up conv11
I1018 00:27:06.417899 12063 net.cpp:157] Top shape: 100 100 1 1 (10000)
I1018 00:27:06.417902 12063 net.cpp:165] Memory required for data: 157397600
I1018 00:27:06.417906 12063 layer_factory.hpp:77] Creating layer pool7
I1018 00:27:06.417910 12063 net.cpp:100] Creating Layer pool7
I1018 00:27:06.417912 12063 net.cpp:434] pool7 <- conv11
I1018 00:27:06.417917 12063 net.cpp:408] pool7 -> pool7
I1018 00:27:06.417943 12063 net.cpp:150] Setting up pool7
I1018 00:27:06.417946 12063 net.cpp:157] Top shape: 100 100 1 1 (10000)
I1018 00:27:06.417948 12063 net.cpp:165] Memory required for data: 157437600
I1018 00:27:06.417951 12063 layer_factory.hpp:77] Creating layer drop7
I1018 00:27:06.417956 12063 net.cpp:100] Creating Layer drop7
I1018 00:27:06.417958 12063 net.cpp:434] drop7 <- pool7
I1018 00:27:06.417961 12063 net.cpp:408] drop7 -> drop7
I1018 00:27:06.417985 12063 net.cpp:150] Setting up drop7
I1018 00:27:06.417989 12063 net.cpp:157] Top shape: 100 100 1 1 (10000)
I1018 00:27:06.417990 12063 net.cpp:165] Memory required for data: 157477600
I1018 00:27:06.417992 12063 layer_factory.hpp:77] Creating layer relu7
I1018 00:27:06.417995 12063 net.cpp:100] Creating Layer relu7
I1018 00:27:06.417997 12063 net.cpp:434] relu7 <- drop7
I1018 00:27:06.418000 12063 net.cpp:408] relu7 -> relu7
I1018 00:27:06.418191 12063 net.cpp:150] Setting up relu7
I1018 00:27:06.418198 12063 net.cpp:157] Top shape: 100 100 1 1 (10000)
I1018 00:27:06.418200 12063 net.cpp:165] Memory required for data: 157517600
I1018 00:27:06.418202 12063 layer_factory.hpp:77] Creating layer pool
I1018 00:27:06.418205 12063 net.cpp:100] Creating Layer pool
I1018 00:27:06.418208 12063 net.cpp:434] pool <- relu7
I1018 00:27:06.418211 12063 net.cpp:408] pool -> pool
I1018 00:27:06.418323 12063 net.cpp:150] Setting up pool
I1018 00:27:06.418328 12063 net.cpp:157] Top shape: 100 100 1 1 (10000)
I1018 00:27:06.418330 12063 net.cpp:165] Memory required for data: 157557600
I1018 00:27:06.418332 12063 layer_factory.hpp:77] Creating layer flatten
I1018 00:27:06.418335 12063 net.cpp:100] Creating Layer flatten
I1018 00:27:06.418337 12063 net.cpp:434] flatten <- pool
I1018 00:27:06.418341 12063 net.cpp:408] flatten -> flatten
I1018 00:27:06.418357 12063 net.cpp:150] Setting up flatten
I1018 00:27:06.418361 12063 net.cpp:157] Top shape: 100 100 (10000)
I1018 00:27:06.418362 12063 net.cpp:165] Memory required for data: 157597600
I1018 00:27:06.418365 12063 layer_factory.hpp:77] Creating layer flatten_flatten_0_split
I1018 00:27:06.418367 12063 net.cpp:100] Creating Layer flatten_flatten_0_split
I1018 00:27:06.418370 12063 net.cpp:434] flatten_flatten_0_split <- flatten
I1018 00:27:06.418373 12063 net.cpp:408] flatten_flatten_0_split -> flatten_flatten_0_split_0
I1018 00:27:06.418377 12063 net.cpp:408] flatten_flatten_0_split -> flatten_flatten_0_split_1
I1018 00:27:06.418401 12063 net.cpp:150] Setting up flatten_flatten_0_split
I1018 00:27:06.418406 12063 net.cpp:157] Top shape: 100 100 (10000)
I1018 00:27:06.418414 12063 net.cpp:157] Top shape: 100 100 (10000)
I1018 00:27:06.418416 12063 net.cpp:165] Memory required for data: 157677600
I1018 00:27:06.418418 12063 layer_factory.hpp:77] Creating layer ip_c
I1018 00:27:06.418423 12063 net.cpp:100] Creating Layer ip_c
I1018 00:27:06.418426 12063 net.cpp:434] ip_c <- flatten_flatten_0_split_0
I1018 00:27:06.418428 12063 net.cpp:408] ip_c -> ip_c
I1018 00:27:06.418509 12063 net.cpp:150] Setting up ip_c
I1018 00:27:06.418512 12063 net.cpp:157] Top shape: 100 20 (2000)
I1018 00:27:06.418514 12063 net.cpp:165] Memory required for data: 157685600
I1018 00:27:06.418517 12063 layer_factory.hpp:77] Creating layer ip_c_ip_c_0_split
I1018 00:27:06.418521 12063 net.cpp:100] Creating Layer ip_c_ip_c_0_split
I1018 00:27:06.418524 12063 net.cpp:434] ip_c_ip_c_0_split <- ip_c
I1018 00:27:06.418525 12063 net.cpp:408] ip_c_ip_c_0_split -> ip_c_ip_c_0_split_0
I1018 00:27:06.418529 12063 net.cpp:408] ip_c_ip_c_0_split -> ip_c_ip_c_0_split_1
I1018 00:27:06.418555 12063 net.cpp:150] Setting up ip_c_ip_c_0_split
I1018 00:27:06.418557 12063 net.cpp:157] Top shape: 100 20 (2000)
I1018 00:27:06.418560 12063 net.cpp:157] Top shape: 100 20 (2000)
I1018 00:27:06.418561 12063 net.cpp:165] Memory required for data: 157701600
I1018 00:27:06.418563 12063 layer_factory.hpp:77] Creating layer accuracy_f
I1018 00:27:06.418566 12063 net.cpp:100] Creating Layer accuracy_f
I1018 00:27:06.418568 12063 net.cpp:434] accuracy_f <- ip_c_ip_c_0_split_0
I1018 00:27:06.418571 12063 net.cpp:434] accuracy_f <- label_coarse_data_1_split_0
I1018 00:27:06.418575 12063 net.cpp:408] accuracy_f -> accuracy_f
…
