…
  level: 0
  stage: ""
}
type: "Nesterov"
I1020 07:00:18.231534 11667 solver.cpp:81] Creating training net from train_net file: /home/adam/Honours/Honours-Project/cifar-100_pooling/max/relu/poolcnn_relu_train.prototxt
I1020 07:00:18.231827 11667 net.cpp:58] Initializing net from parameters: 
state {
  phase: TRAIN
  level: 0
  stage: ""
}
layer {
  name: "data"
  type: "HDF5Data"
  top: "data"
  top: "label_coarse"
  top: "label_fine"
  hdf5_data_param {
    source: "../../../../data/cifar-100/cifar_100_caffe_hdf5/train.txt"
    batch_size: 64
  }
}
layer {
  name: "conv1"
  type: "Convolution"
  bottom: "data"
  top: "conv1"
  convolution_param {
    num_output: 192
    kernel_size: 5
    weight_filler {
      type: "xavier"
    }
  }
}
layer {
  name: "relu1"
  type: "ReLU"
  bottom: "conv1"
  top: "relu1"
}
layer {
  name: "drop1"
  type: "Dropout"
  bottom: "relu1"
  top: "drop1"
  dropout_param {
    dropout_ratio: 0
  }
}
layer {
  name: "pool1"
  type: "Pooling"
  bottom: "drop1"
  top: "pool1"
  pooling_param {
    pool: MAX
    kernel_size: 2
    stride: 2
  }
}
layer {
  name: "conv2"
  type: "Convolution"
  bottom: "pool1"
  top: "conv2"
  convolution_param {
    num_output: 192
    kernel_size: 1
    weight_filler {
      type: "xavier"
    }
  }
}
layer {
  name: "relu2"
  type: "ReLU"
  bottom: "conv2"
  top: "relu2"
}
layer {
  name: "conv3"
  type: "Convolution"
  bottom: "relu2"
  top: "conv3"
  convolution_param {
    num_output: 240
    kernel_size: 3
    weight_filler {
      type: "xavier"
    }
  }
}
layer {
  name: "relu3"
  type: "ReLU"
  bottom: "conv3"
  top: "relu3"
}
layer {
  name: "drop2"
  type: "Dropout"
  bottom: "relu3"
  top: "drop2"
  dropout_param {
    dropout_ratio: 0.1
  }
}
layer {
  name: "pool2"
  type: "Pooling"
  bottom: "drop2"
  top: "pool2"
  pooling_param {
    pool: MAX
    kernel_size: 2
    stride: 2
  }
}
layer {
  name: "conv4"
  type: "Convolution"
  bottom: "pool2"
  top: "conv4"
  convolution_param {
    num_output: 240
    kernel_size: 1
    weight_filler {
      type: "xavier"
    }
  }
}
layer {
  name: "relu4"
  type: "ReLU"
  bottom: "conv4"
  top: "relu4"
}
layer {
  name: "conv5"
  type: "Convolution"
  bottom: "relu4"
  top: "conv5"
  convolution_param {
    num_output: 260
    kernel_size: 2
    weight_filler {
      type: "xavier"
    }
  }
}
layer {
  name: "relu5"
  type: "ReLU"
  bottom: "conv5"
  top: "relu5"
}
layer {
  name: "drop3"
  type: "Dropout"
  bottom: "relu5"
  top: "drop3"
  dropout_param {
    dropout_ratio: 0.2
  }
}
layer {
  name: "pool3"
  type: "Pooling"
  bottom: "drop3"
  top: "pool3"
  pooling_param {
    pool: MAX
    kernel_size: 2
    stride: 2
  }
}
layer {
  name: "conv6"
  type: "Convolution"
  bottom: "pool3"
  top: "conv6"
  convolution_param {
    num_output: 260
    kernel_size: 1
    weight_filler {
      type: "xavier"
    }
  }
}
layer {
  name: "relu6"
  type: "ReLU"
  bottom: "conv6"
  top: "relu6"
}
layer {
  name: "conv7"
  type: "Convolution"
  bottom: "relu6"
  top: "conv7"
  convolution_param {
    num_output: 280
    kernel_size: 2
    weight_filler {
      type: "xavier"
    }
  }
}
layer {
  name: "relu7"
  type: "ReLU"
  bottom: "conv7"
  top: "relu7"
}
layer {
  name: "drop4"
  type: "Dropout"
  bottom: "relu7"
  top: "drop4"
  dropout_param {
    dropout_ratio: 0.3
  }
}
layer {
  name: "pool4"
  type: "Pooling"
  bottom: "drop4"
  top: "pool4"
  pooling_param {
    pool: MAX
    kernel_size: 2
    stride: 2
  }
}
layer {
  name: "conv8"
  type: "Convolution"
  bottom: "pool4"
  top: "conv8"
  convolution_param {
    num_output: 280
    kernel_size: 1
    weight_filler {
      type: "xavier"
    }
  }
}
layer {
  name: "relu8"
  type: "ReLU"
  bottom: "conv8"
  top: "relu8"
}
layer {
  name: "drop5"
  type: "Dropout"
  bottom: "relu8"
  top: "drop5"
  dropout_param {
    dropout_ratio: 0.4
  }
}
layer {
  name: "pool5"
  type: "Pooling"
  bottom: "drop5"
  top: "pool5"
  pooling_param {
    pool: MAX
    kernel_size: 2
    stride: 2
  }
}
layer {
  name: "conv10"
  type: "Convolution"
  bottom: "pool5"
  top: "conv10"
  convolution_param {
    num_output: 300
    kernel_size: 1
    weight_filler {
      type: "xavier"
    }
  }
}
layer {
  name: "relu10"
  type: "ReLU"
  bottom: "conv10"
  top: "relu10"
}
layer {
  name: "drop6"
  type: "Dropout"
  bottom: "relu10"
  top: "drop6"
  dropout_param {
    dropout_ratio: 0.5
  }
}
layer {
  name: "pool6"
  type: "Pooling"
  bottom: "drop6"
  top: "pool6"
  pooling_param {
    pool: MAX
    kernel_size: 2
    stride: 2
  }
}
layer {
  name: "conv11"
  type: "Convolution"
  bottom: "pool6"
  top: "conv11"
  convolution_param {
    num_output: 100
    kernel_size: 1
    weight_filler {
      type: "xavier"
    }
  }
}
layer {
  name: "relu11"
  type: "ReLU"
  bottom: "conv11"
  top: "relu11"
}
layer {
  name: "drop7"
  type: "Dropout"
  bottom: "relu11"
  top: "drop7"
  dropout_param {
    dropout_ratio: 0
  }
}
layer {
  name: "pool7"
  type: "Pooling"
  bottom: "drop7"
  top: "pool7"
  pooling_param {
    pool: MAX
    kernel_size: 2
    stride: 2
  }
}
layer {
  name: "ip_c"
  type: "InnerProduct"
  bottom: "pool7"
  top: "ip_c"
  inner_product_param {
    num_output: 20
    weight_filler {
      type: "xavier"
    }
  }
}
layer {
  name: "accuracy_f"
  type: "Accuracy"
  bottom: "ip_c"
  bottom: "label_coarse"
  top: "accuracy_f"
}
layer {
  name: "loss_c"
  type: "SoftmaxWithLoss"
  bottom: "ip_c"
  bottom: "label_coarse"
  top: "loss_c"
}
layer {
  name: "ip_f"
  type: "InnerProduct"
  bottom: "pool7"
  top: "ip_f"
  inner_product_param {
    num_output: 100
    weight_filler {
      type: "xavier"
    }
  }
}
layer {
  name: "accuracy"
  type: "Accuracy"
  bottom: "ip_f"
  bottom: "label_fine"
  top: "accuracy"
}
layer {
  name: "loss_f"
  type: "SoftmaxWithLoss"
  bottom: "ip_f"
  bottom: "label_fine"
  top: "loss_f"
}
I1020 07:00:18.231948 11667 layer_factory.hpp:77] Creating layer data
I1020 07:00:18.231957 11667 net.cpp:100] Creating Layer data
I1020 07:00:18.231962 11667 net.cpp:408] data -> data
I1020 07:00:18.231977 11667 net.cpp:408] data -> label_coarse
I1020 07:00:18.231983 11667 net.cpp:408] data -> label_fine
I1020 07:00:18.231992 11667 hdf5_data_layer.cpp:79] Loading list of HDF5 filenames from: ../../../../data/cifar-100/cifar_100_caffe_hdf5/train.txt
I1020 07:00:18.232012 11667 hdf5_data_layer.cpp:93] Number of HDF5 files: 1
I1020 07:00:18.232635 11667 hdf5.cpp:35] Datatype class: H5T_INTEGER
I1020 07:00:19.812538 11667 net.cpp:150] Setting up data
I1020 07:00:19.812562 11667 net.cpp:157] Top shape: 64 3 32 32 (196608)
I1020 07:00:19.812566 11667 net.cpp:157] Top shape: 64 (64)
I1020 07:00:19.812567 11667 net.cpp:157] Top shape: 64 (64)
I1020 07:00:19.812569 11667 net.cpp:165] Memory required for data: 786944
I1020 07:00:19.812575 11667 layer_factory.hpp:77] Creating layer label_coarse_data_1_split
I1020 07:00:19.812584 11667 net.cpp:100] Creating Layer label_coarse_data_1_split
I1020 07:00:19.812588 11667 net.cpp:434] label_coarse_data_1_split <- label_coarse
I1020 07:00:19.812600 11667 net.cpp:408] label_coarse_data_1_split -> label_coarse_data_1_split_0
I1020 07:00:19.812609 11667 net.cpp:408] label_coarse_data_1_split -> label_coarse_data_1_split_1
I1020 07:00:19.812633 11667 net.cpp:150] Setting up label_coarse_data_1_split
I1020 07:00:19.812638 11667 net.cpp:157] Top shape: 64 (64)
I1020 07:00:19.812640 11667 net.cpp:157] Top shape: 64 (64)
I1020 07:00:19.812641 11667 net.cpp:165] Memory required for data: 787456
I1020 07:00:19.812644 11667 layer_factory.hpp:77] Creating layer label_fine_data_2_split
I1020 07:00:19.812660 11667 net.cpp:100] Creating Layer label_fine_data_2_split
I1020 07:00:19.812664 11667 net.cpp:434] label_fine_data_2_split <- label_fine
I1020 07:00:19.812666 11667 net.cpp:408] label_fine_data_2_split -> label_fine_data_2_split_0
I1020 07:00:19.812670 11667 net.cpp:408] label_fine_data_2_split -> label_fine_data_2_split_1
I1020 07:00:19.812687 11667 net.cpp:150] Setting up label_fine_data_2_split
I1020 07:00:19.812691 11667 net.cpp:157] Top shape: 64 (64)
I1020 07:00:19.812693 11667 net.cpp:157] Top shape: 64 (64)
I1020 07:00:19.812695 11667 net.cpp:165] Memory required for data: 787968
I1020 07:00:19.812695 11667 layer_factory.hpp:77] Creating layer conv1
I1020 07:00:19.812706 11667 net.cpp:100] Creating Layer conv1
I1020 07:00:19.812708 11667 net.cpp:434] conv1 <- data
I1020 07:00:19.812711 11667 net.cpp:408] conv1 -> conv1
I1020 07:00:19.932927 11667 net.cpp:150] Setting up conv1
I1020 07:00:19.932957 11667 net.cpp:157] Top shape: 64 192 28 28 (9633792)
I1020 07:00:19.932960 11667 net.cpp:165] Memory required for data: 39323136
I1020 07:00:19.932978 11667 layer_factory.hpp:77] Creating layer relu1
I1020 07:00:19.932989 11667 net.cpp:100] Creating Layer relu1
I1020 07:00:19.932992 11667 net.cpp:434] relu1 <- conv1
I1020 07:00:19.932996 11667 net.cpp:408] relu1 -> relu1
I1020 07:00:19.933125 11667 net.cpp:150] Setting up relu1
I1020 07:00:19.933132 11667 net.cpp:157] Top shape: 64 192 28 28 (9633792)
I1020 07:00:19.933136 11667 net.cpp:165] Memory required for data: 77858304
I1020 07:00:19.933140 11667 layer_factory.hpp:77] Creating layer drop1
I1020 07:00:19.933146 11667 net.cpp:100] Creating Layer drop1
I1020 07:00:19.933161 11667 net.cpp:434] drop1 <- relu1
I1020 07:00:19.933169 11667 net.cpp:408] drop1 -> drop1
I1020 07:00:19.933203 11667 net.cpp:150] Setting up drop1
I1020 07:00:19.933209 11667 net.cpp:157] Top shape: 64 192 28 28 (9633792)
I1020 07:00:19.933213 11667 net.cpp:165] Memory required for data: 116393472
I1020 07:00:19.933217 11667 layer_factory.hpp:77] Creating layer pool1
I1020 07:00:19.933223 11667 net.cpp:100] Creating Layer pool1
I1020 07:00:19.933225 11667 net.cpp:434] pool1 <- drop1
I1020 07:00:19.933228 11667 net.cpp:408] pool1 -> pool1
I1020 07:00:19.933259 11667 net.cpp:150] Setting up pool1
I1020 07:00:19.933262 11667 net.cpp:157] Top shape: 64 192 14 14 (2408448)
I1020 07:00:19.933264 11667 net.cpp:165] Memory required for data: 126027264
I1020 07:00:19.933265 11667 layer_factory.hpp:77] Creating layer conv2
I1020 07:00:19.933271 11667 net.cpp:100] Creating Layer conv2
I1020 07:00:19.933274 11667 net.cpp:434] conv2 <- pool1
I1020 07:00:19.933276 11667 net.cpp:408] conv2 -> conv2
I1020 07:00:19.934069 11667 net.cpp:150] Setting up conv2
I1020 07:00:19.934077 11667 net.cpp:157] Top shape: 64 192 14 14 (2408448)
I1020 07:00:19.934079 11667 net.cpp:165] Memory required for data: 135661056
I1020 07:00:19.934085 11667 layer_factory.hpp:77] Creating layer relu2
I1020 07:00:19.934089 11667 net.cpp:100] Creating Layer relu2
I1020 07:00:19.934092 11667 net.cpp:434] relu2 <- conv2
I1020 07:00:19.934094 11667 net.cpp:408] relu2 -> relu2
I1020 07:00:19.934208 11667 net.cpp:150] Setting up relu2
I1020 07:00:19.934214 11667 net.cpp:157] Top shape: 64 192 14 14 (2408448)
I1020 07:00:19.934216 11667 net.cpp:165] Memory required for data: 145294848
I1020 07:00:19.934217 11667 layer_factory.hpp:77] Creating layer conv3
I1020 07:00:19.934222 11667 net.cpp:100] Creating Layer conv3
I1020 07:00:19.934224 11667 net.cpp:434] conv3 <- relu2
I1020 07:00:19.934227 11667 net.cpp:408] conv3 -> conv3
I1020 07:00:19.936614 11667 net.cpp:150] Setting up conv3
I1020 07:00:19.936622 11667 net.cpp:157] Top shape: 64 240 12 12 (2211840)
I1020 07:00:19.936625 11667 net.cpp:165] Memory required for data: 154142208
I1020 07:00:19.936630 11667 layer_factory.hpp:77] Creating layer relu3
I1020 07:00:19.936633 11667 net.cpp:100] Creating Layer relu3
I1020 07:00:19.936635 11667 net.cpp:434] relu3 <- conv3
I1020 07:00:19.936637 11667 net.cpp:408] relu3 -> relu3
I1020 07:00:19.936813 11667 net.cpp:150] Setting up relu3
I1020 07:00:19.936830 11667 net.cpp:157] Top shape: 64 240 12 12 (2211840)
I1020 07:00:19.936831 11667 net.cpp:165] Memory required for data: 162989568
I1020 07:00:19.936833 11667 layer_factory.hpp:77] Creating layer drop2
I1020 07:00:19.936837 11667 net.cpp:100] Creating Layer drop2
I1020 07:00:19.936839 11667 net.cpp:434] drop2 <- relu3
I1020 07:00:19.936842 11667 net.cpp:408] drop2 -> drop2
I1020 07:00:19.936864 11667 net.cpp:150] Setting up drop2
I1020 07:00:19.936867 11667 net.cpp:157] Top shape: 64 240 12 12 (2211840)
I1020 07:00:19.936869 11667 net.cpp:165] Memory required for data: 171836928
I1020 07:00:19.936872 11667 layer_factory.hpp:77] Creating layer pool2
I1020 07:00:19.936874 11667 net.cpp:100] Creating Layer pool2
I1020 07:00:19.936877 11667 net.cpp:434] pool2 <- drop2
I1020 07:00:19.936880 11667 net.cpp:408] pool2 -> pool2
I1020 07:00:19.936902 11667 net.cpp:150] Setting up pool2
I1020 07:00:19.936906 11667 net.cpp:157] Top shape: 64 240 6 6 (552960)
I1020 07:00:19.936908 11667 net.cpp:165] Memory required for data: 174048768
I1020 07:00:19.936909 11667 layer_factory.hpp:77] Creating layer conv4
I1020 07:00:19.936913 11667 net.cpp:100] Creating Layer conv4
I1020 07:00:19.936915 11667 net.cpp:434] conv4 <- pool2
I1020 07:00:19.936918 11667 net.cpp:408] conv4 -> conv4
I1020 07:00:19.937719 11667 net.cpp:150] Setting up conv4
I1020 07:00:19.937726 11667 net.cpp:157] Top shape: 64 240 6 6 (552960)
I1020 07:00:19.937728 11667 net.cpp:165] Memory required for data: 176260608
I1020 07:00:19.937732 11667 layer_factory.hpp:77] Creating layer relu4
I1020 07:00:19.937736 11667 net.cpp:100] Creating Layer relu4
I1020 07:00:19.937737 11667 net.cpp:434] relu4 <- conv4
I1020 07:00:19.937741 11667 net.cpp:408] relu4 -> relu4
I1020 07:00:19.937851 11667 net.cpp:150] Setting up relu4
I1020 07:00:19.937856 11667 net.cpp:157] Top shape: 64 240 6 6 (552960)
I1020 07:00:19.937860 11667 net.cpp:165] Memory required for data: 178472448
I1020 07:00:19.937861 11667 layer_factory.hpp:77] Creating layer conv5
I1020 07:00:19.937865 11667 net.cpp:100] Creating Layer conv5
I1020 07:00:19.937866 11667 net.cpp:434] conv5 <- relu4
I1020 07:00:19.937870 11667 net.cpp:408] conv5 -> conv5
I1020 07:00:19.939594 11667 net.cpp:150] Setting up conv5
I1020 07:00:19.939602 11667 net.cpp:157] Top shape: 64 260 5 5 (416000)
I1020 07:00:19.939604 11667 net.cpp:165] Memory required for data: 180136448
I1020 07:00:19.939610 11667 layer_factory.hpp:77] Creating layer relu5
I1020 07:00:19.939616 11667 net.cpp:100] Creating Layer relu5
I1020 07:00:19.939618 11667 net.cpp:434] relu5 <- conv5
I1020 07:00:19.939621 11667 net.cpp:408] relu5 -> relu5
I1020 07:00:19.939730 11667 net.cpp:150] Setting up relu5
I1020 07:00:19.939735 11667 net.cpp:157] Top shape: 64 260 5 5 (416000)
I1020 07:00:19.939738 11667 net.cpp:165] Memory required for data: 181800448
I1020 07:00:19.939739 11667 layer_factory.hpp:77] Creating layer drop3
I1020 07:00:19.939743 11667 net.cpp:100] Creating Layer drop3
I1020 07:00:19.939744 11667 net.cpp:434] drop3 <- relu5
I1020 07:00:19.939746 11667 net.cpp:408] drop3 -> drop3
I1020 07:00:19.939769 11667 net.cpp:150] Setting up drop3
I1020 07:00:19.939772 11667 net.cpp:157] Top shape: 64 260 5 5 (416000)
I1020 07:00:19.939775 11667 net.cpp:165] Memory required for data: 183464448
I1020 07:00:19.939776 11667 layer_factory.hpp:77] Creating layer pool3
I1020 07:00:19.939779 11667 net.cpp:100] Creating Layer pool3
I1020 07:00:19.939782 11667 net.cpp:434] pool3 <- drop3
I1020 07:00:19.939785 11667 net.cpp:408] pool3 -> pool3
I1020 07:00:19.939806 11667 net.cpp:150] Setting up pool3
I1020 07:00:19.939810 11667 net.cpp:157] Top shape: 64 260 3 3 (149760)
I1020 07:00:19.939811 11667 net.cpp:165] Memory required for data: 184063488
I1020 07:00:19.939813 11667 layer_factory.hpp:77] Creating layer conv6
I1020 07:00:19.939818 11667 net.cpp:100] Creating Layer conv6
I1020 07:00:19.939821 11667 net.cpp:434] conv6 <- pool3
I1020 07:00:19.939823 11667 net.cpp:408] conv6 -> conv6
I1020 07:00:19.940924 11667 net.cpp:150] Setting up conv6
I1020 07:00:19.940939 11667 net.cpp:157] Top shape: 64 260 3 3 (149760)
I1020 07:00:19.940942 11667 net.cpp:165] Memory required for data: 184662528
I1020 07:00:19.940945 11667 layer_factory.hpp:77] Creating layer relu6
I1020 07:00:19.940949 11667 net.cpp:100] Creating Layer relu6
I1020 07:00:19.940950 11667 net.cpp:434] relu6 <- conv6
I1020 07:00:19.940954 11667 net.cpp:408] relu6 -> relu6
I1020 07:00:19.941145 11667 net.cpp:150] Setting up relu6
I1020 07:00:19.941153 11667 net.cpp:157] Top shape: 64 260 3 3 (149760)
I1020 07:00:19.941154 11667 net.cpp:165] Memory required for data: 185261568
I1020 07:00:19.941155 11667 layer_factory.hpp:77] Creating layer conv7
I1020 07:00:19.941161 11667 net.cpp:100] Creating Layer conv7
I1020 07:00:19.941164 11667 net.cpp:434] conv7 <- relu6
I1020 07:00:19.941166 11667 net.cpp:408] conv7 -> conv7
I1020 07:00:19.943068 11667 net.cpp:150] Setting up conv7
I1020 07:00:19.943075 11667 net.cpp:157] Top shape: 64 280 2 2 (71680)
I1020 07:00:19.943078 11667 net.cpp:165] Memory required for data: 185548288
I1020 07:00:19.943081 11667 layer_factory.hpp:77] Creating layer relu7
I1020 07:00:19.943084 11667 net.cpp:100] Creating Layer relu7
I1020 07:00:19.943087 11667 net.cpp:434] relu7 <- conv7
I1020 07:00:19.943090 11667 net.cpp:408] relu7 -> relu7
I1020 07:00:19.943202 11667 net.cpp:150] Setting up relu7
I1020 07:00:19.943207 11667 net.cpp:157] Top shape: 64 280 2 2 (71680)
I1020 07:00:19.943209 11667 net.cpp:165] Memory required for data: 185835008
I1020 07:00:19.943210 11667 layer_factory.hpp:77] Creating layer drop4
I1020 07:00:19.943214 11667 net.cpp:100] Creating Layer drop4
I1020 07:00:19.943215 11667 net.cpp:434] drop4 <- relu7
I1020 07:00:19.943219 11667 net.cpp:408] drop4 -> drop4
I1020 07:00:19.943240 11667 net.cpp:150] Setting up drop4
I1020 07:00:19.943244 11667 net.cpp:157] Top shape: 64 280 2 2 (71680)
I1020 07:00:19.943246 11667 net.cpp:165] Memory required for data: 186121728
I1020 07:00:19.943249 11667 layer_factory.hpp:77] Creating layer pool4
I1020 07:00:19.943253 11667 net.cpp:100] Creating Layer pool4
I1020 07:00:19.943255 11667 net.cpp:434] pool4 <- drop4
I1020 07:00:19.943259 11667 net.cpp:408] pool4 -> pool4
I1020 07:00:19.943279 11667 net.cpp:150] Setting up pool4
I1020 07:00:19.943282 11667 net.cpp:157] Top shape: 64 280 1 1 (17920)
I1020 07:00:19.943284 11667 net.cpp:165] Memory required for data: 186193408
I1020 07:00:19.943285 11667 layer_factory.hpp:77] Creating layer conv8
I1020 07:00:19.943290 11667 net.cpp:100] Creating Layer conv8
I1020 07:00:19.943292 11667 net.cpp:434] conv8 <- pool4
I1020 07:00:19.943295 11667 net.cpp:408] conv8 -> conv8
I1020 07:00:19.944263 11667 net.cpp:150] Setting up conv8
I1020 07:00:19.944272 11667 net.cpp:157] Top shape: 64 280 1 1 (17920)
I1020 07:00:19.944272 11667 net.cpp:165] Memory required for data: 186265088
I1020 07:00:19.944277 11667 layer_factory.hpp:77] Creating layer relu8
I1020 07:00:19.944280 11667 net.cpp:100] Creating Layer relu8
I1020 07:00:19.944283 11667 net.cpp:434] relu8 <- conv8
I1020 07:00:19.944285 11667 net.cpp:408] relu8 -> relu8
I1020 07:00:19.944432 11667 net.cpp:150] Setting up relu8
I1020 07:00:19.944440 11667 net.cpp:157] Top shape: 64 280 1 1 (17920)
I1020 07:00:19.944443 11667 net.cpp:165] Memory required for data: 186336768
I1020 07:00:19.944447 11667 layer_factory.hpp:77] Creating layer drop5
I1020 07:00:19.944450 11667 net.cpp:100] Creating Layer drop5
I1020 07:00:19.944453 11667 net.cpp:434] drop5 <- relu8
I1020 07:00:19.944458 11667 net.cpp:408] drop5 -> drop5
I1020 07:00:19.944485 11667 net.cpp:150] Setting up drop5
I1020 07:00:19.944490 11667 net.cpp:157] Top shape: 64 280 1 1 (17920)
I1020 07:00:19.944492 11667 net.cpp:165] Memory required for data: 186408448
I1020 07:00:19.944495 11667 layer_factory.hpp:77] Creating layer pool5
I1020 07:00:19.944500 11667 net.cpp:100] Creating Layer pool5
I1020 07:00:19.944504 11667 net.cpp:434] pool5 <- drop5
I1020 07:00:19.944507 11667 net.cpp:408] pool5 -> pool5
I1020 07:00:19.944542 11667 net.cpp:150] Setting up pool5
I1020 07:00:19.944566 11667 net.cpp:157] Top shape: 64 280 1 1 (17920)
I1020 07:00:19.944577 11667 net.cpp:165] Memory required for data: 186480128
I1020 07:00:19.944581 11667 layer_factory.hpp:77] Creating layer conv10
I1020 07:00:19.944587 11667 net.cpp:100] Creating Layer conv10
I1020 07:00:19.944589 11667 net.cpp:434] conv10 <- pool5
I1020 07:00:19.944594 11667 net.cpp:408] conv10 -> conv10
I1020 07:00:19.945816 11667 net.cpp:150] Setting up conv10
I1020 07:00:19.945827 11667 net.cpp:157] Top shape: 64 300 1 1 (19200)
I1020 07:00:19.945832 11667 net.cpp:165] Memory required for data: 186556928
I1020 07:00:19.945842 11667 layer_factory.hpp:77] Creating layer relu10
I1020 07:00:19.945847 11667 net.cpp:100] Creating Layer relu10
I1020 07:00:19.945850 11667 net.cpp:434] relu10 <- conv10
I1020 07:00:19.945855 11667 net.cpp:408] relu10 -> relu10
I1020 07:00:19.946074 11667 net.cpp:150] Setting up relu10
I1020 07:00:19.946081 11667 net.cpp:157] Top shape: 64 300 1 1 (19200)
I1020 07:00:19.946084 11667 net.cpp:165] Memory required for data: 186633728
I1020 07:00:19.946085 11667 layer_factory.hpp:77] Creating layer drop6
I1020 07:00:19.946089 11667 net.cpp:100] Creating Layer drop6
I1020 07:00:19.946091 11667 net.cpp:434] drop6 <- relu10
I1020 07:00:19.946094 11667 net.cpp:408] drop6 -> drop6
I1020 07:00:19.946120 11667 net.cpp:150] Setting up drop6
I1020 07:00:19.946123 11667 net.cpp:157] Top shape: 64 300 1 1 (19200)
I1020 07:00:19.946125 11667 net.cpp:165] Memory required for data: 186710528
I1020 07:00:19.946127 11667 layer_factory.hpp:77] Creating layer pool6
I1020 07:00:19.946133 11667 net.cpp:100] Creating Layer pool6
I1020 07:00:19.946136 11667 net.cpp:434] pool6 <- drop6
I1020 07:00:19.946138 11667 net.cpp:408] pool6 -> pool6
I1020 07:00:19.946161 11667 net.cpp:150] Setting up pool6
I1020 07:00:19.946164 11667 net.cpp:157] Top shape: 64 300 1 1 (19200)
I1020 07:00:19.946166 11667 net.cpp:165] Memory required for data: 186787328
I1020 07:00:19.946167 11667 layer_factory.hpp:77] Creating layer conv11
I1020 07:00:19.946173 11667 net.cpp:100] Creating Layer conv11
I1020 07:00:19.946176 11667 net.cpp:434] conv11 <- pool6
I1020 07:00:19.946178 11667 net.cpp:408] conv11 -> conv11
I1020 07:00:19.947049 11667 net.cpp:150] Setting up conv11
I1020 07:00:19.947057 11667 net.cpp:157] Top shape: 64 100 1 1 (6400)
I1020 07:00:19.947059 11667 net.cpp:165] Memory required for data: 186812928
I1020 07:00:19.947063 11667 layer_factory.hpp:77] Creating layer relu11
I1020 07:00:19.947067 11667 net.cpp:100] Creating Layer relu11
I1020 07:00:19.947068 11667 net.cpp:434] relu11 <- conv11
I1020 07:00:19.947072 11667 net.cpp:408] relu11 -> relu11
I1020 07:00:19.947185 11667 net.cpp:150] Setting up relu11
I1020 07:00:19.947190 11667 net.cpp:157] Top shape: 64 100 1 1 (6400)
I1020 07:00:19.947191 11667 net.cpp:165] Memory required for data: 186838528
I1020 07:00:19.947192 11667 layer_factory.hpp:77] Creating layer drop7
I1020 07:00:19.947196 11667 net.cpp:100] Creating Layer drop7
I1020 07:00:19.947197 11667 net.cpp:434] drop7 <- relu11
I1020 07:00:19.947201 11667 net.cpp:408] drop7 -> drop7
I1020 07:00:19.947223 11667 net.cpp:150] Setting up drop7
I1020 07:00:19.947227 11667 net.cpp:157] Top shape: 64 100 1 1 (6400)
I1020 07:00:19.947230 11667 net.cpp:165] Memory required for data: 186864128
I1020 07:00:19.947232 11667 layer_factory.hpp:77] Creating layer pool7
I1020 07:00:19.947234 11667 net.cpp:100] Creating Layer pool7
I1020 07:00:19.947237 11667 net.cpp:434] pool7 <- drop7
I1020 07:00:19.947239 11667 net.cpp:408] pool7 -> pool7
I1020 07:00:19.947262 11667 net.cpp:150] Setting up pool7
I1020 07:00:19.947264 11667 net.cpp:157] Top shape: 64 100 1 1 (6400)
I1020 07:00:19.947266 11667 net.cpp:165] Memory required for data: 186889728
I1020 07:00:19.947268 11667 layer_factory.hpp:77] Creating layer pool7_pool7_0_split
I1020 07:00:19.947271 11667 net.cpp:100] Creating Layer pool7_pool7_0_split
I1020 07:00:19.947273 11667 net.cpp:434] pool7_pool7_0_split <- pool7
I1020 07:00:19.947276 11667 net.cpp:408] pool7_pool7_0_split -> pool7_pool7_0_split_0
I1020 07:00:19.947279 11667 net.cpp:408] pool7_pool7_0_split -> pool7_pool7_0_split_1
I1020 07:00:19.947309 11667 net.cpp:150] Setting up pool7_pool7_0_split
I1020 07:00:19.947314 11667 net.cpp:157] Top shape: 64 100 1 1 (6400)
I1020 07:00:19.947316 11667 net.cpp:157] Top shape: 64 100 1 1 (6400)
I1020 07:00:19.947317 11667 net.cpp:165] Memory required for data: 186940928
I1020 07:00:19.947319 11667 layer_factory.hpp:77] Creating layer ip_c
I1020 07:00:19.947324 11667 net.cpp:100] Creating Layer ip_c
I1020 07:00:19.947325 11667 net.cpp:434] ip_c <- pool7_pool7_0_split_0
I1020 07:00:19.947329 11667 net.cpp:408] ip_c -> ip_c
I1020 07:00:19.947657 11667 net.cpp:150] Setting up ip_c
I1020 07:00:19.947664 11667 net.cpp:157] Top shape: 64 20 (1280)
I1020 07:00:19.947665 11667 net.cpp:165] Memory required for data: 186946048
I1020 07:00:19.947669 11667 layer_factory.hpp:77] Creating layer ip_c_ip_c_0_split
I1020 07:00:19.947672 11667 net.cpp:100] Creating Layer ip_c_ip_c_0_split
I1020 07:00:19.947674 11667 net.cpp:434] ip_c_ip_c_0_split <- ip_c
I1020 07:00:19.947677 11667 net.cpp:408] ip_c_ip_c_0_split -> ip_c_ip_c_0_split_0
I1020 07:00:19.947681 11667 net.cpp:408] ip_c_ip_c_0_split -> ip_c_ip_c_0_split_1
I1020 07:00:19.947703 11667 net.cpp:150] Setting up ip_c_ip_c_0_split
I1020 07:00:19.947706 11667 net.cpp:157] Top shape: 64 20 (1280)
I1020 07:00:19.947708 11667 net.cpp:157] Top shape: 64 20 (1280)
I1020 07:00:19.947710 11667 net.cpp:165] Memory required for data: 186956288
I1020 07:00:19.947711 11667 layer_factory.hpp:77] Creating layer accuracy_f
I1020 07:00:19.947715 11667 net.cpp:100] Creating Layer accuracy_f
I1020 07:00:19.947716 11667 net.cpp:434] accuracy_f <- ip_c_ip_c_0_split_0
I1020 07:00:19.947720 11667 net.cpp:434] accuracy_f <- label_coarse_data_1_split_0
I1020 07:00:19.947722 11667 net.cpp:408] accuracy_f -> accuracy_f
…
I1020 07:00:19.948580 11667 net.cpp:283] Network initialization done.
I1020 07:00:19.948770 11667 solver.cpp:181] Creating test net (#0) specified by test_net file: /home/adam/Honours/Honours-Project/cifar-100_pooling/max/relu/poolcnn_relu_test.prototxt
I1020 07:00:19.948886 11667 net.cpp:58] Initializing net from parameters: 
state {
  phase: TEST
}
layer {
  name: "data"
  type: "HDF5Data"
  top: "data"
  top: "label_coarse"
  top: "label_fine"
  hdf5_data_param {
    source: "../../../../data/cifar-100/cifar_100_caffe_hdf5/test.txt"
    batch_size: 100
  }
}
layer {
  name: "conv1"
  type: "Convolution"
  bottom: "data"
  top: "conv1"
  convolution_param {
    num_output: 192
    kernel_size: 5
    weight_filler {
      type: "xavier"
    }
  }
}
layer {
  name: "relu1"
  type: "ReLU"
  bottom: "conv1"
  top: "relu1"
}
layer {
  name: "drop1"
  type: "Dropout"
  bottom: "relu1"
  top: "drop1"
  dropout_param {
    dropout_ratio: 0
  }
}
layer {
  name: "pool1"
  type: "Pooling"
  bottom: "drop1"
  top: "pool1"
  pooling_param {
    pool: MAX
    kernel_size: 2
    stride: 2
  }
}
layer {
  name: "conv2"
  type: "Convolution"
  bottom: "pool1"
  top: "conv2"
  convolution_param {
    num_output: 192
    kernel_size: 1
    weight_filler {
      type: "xavier"
    }
  }
}
layer {
  name: "relu2"
  type: "ReLU"
  bottom: "conv2"
  top: "relu2"
}
layer {
  name: "conv3"
  type: "Convolution"
  bottom: "relu2"
  top: "conv3"
  convolution_param {
    num_output: 240
    kernel_size: 3
    weight_filler {
      type: "xavier"
    }
  }
}
layer {
  name: "relu3"
  type: "ReLU"
  bottom: "conv3"
  top: "relu3"
}
layer {
  name: "drop2"
  type: "Dropout"
  bottom: "relu3"
  top: "drop2"
  dropout_param {
    dropout_ratio: 0.1
  }
}
layer {
  name: "pool2"
  type: "Pooling"
  bottom: "drop2"
  top: "pool2"
  pooling_param {
    pool: MAX
    kernel_size: 2
    stride: 2
  }
}
layer {
  name: "conv4"
  type: "Convolution"
  bottom: "pool2"
  top: "conv4"
  convolution_param {
    num_output: 240
    kernel_size: 1
    weight_filler {
      type: "xavier"
    }
  }
}
layer {
  name: "relu4"
  type: "ReLU"
  bottom: "conv4"
  top: "relu4"
}
layer {
  name: "conv5"
  type: "Convolution"
  bottom: "relu4"
  top: "conv5"
  convolution_param {
    num_output: 260
    kernel_size: 2
    weight_filler {
      type: "xavier"
    }
  }
}
layer {
  name: "relu5"
  type: "ReLU"
  bottom: "conv5"
  top: "relu5"
}
layer {
  name: "drop3"
  type: "Dropout"
  bottom: "relu5"
  top: "drop3"
  dropout_param {
    dropout_ratio: 0.2
  }
}
layer {
  name: "pool3"
  type: "Pooling"
  bottom: "drop3"
  top: "pool3"
  pooling_param {
    pool: MAX
    kernel_size: 2
    stride: 2
  }
}
layer {
  name: "conv6"
  type: "Convolution"
  bottom: "pool3"
  top: "conv6"
  convolution_param {
    num_output: 260
    kernel_size: 1
    weight_filler {
      type: "xavier"
    }
  }
}
layer {
  name: "relu6"
  type: "ReLU"
  bottom: "conv6"
  top: "relu6"
}
layer {
  name: "conv7"
  type: "Convolution"
  bottom: "relu6"
  top: "conv7"
  convolution_param {
    num_output: 280
    kernel_size: 2
    weight_filler {
      type: "xavier"
    }
  }
}
layer {
  name: "relu7"
  type: "ReLU"
  bottom: "conv7"
  top: "relu7"
}
layer {
  name: "drop4"
  type: "Dropout"
  bottom: "relu7"
  top: "drop4"
  dropout_param {
    dropout_ratio: 0.3
  }
}
layer {
  name: "pool4"
  type: "Pooling"
  bottom: "drop4"
  top: "pool4"
  pooling_param {
    pool: MAX
    kernel_size: 2
    stride: 2
  }
}
layer {
  name: "conv8"
  type: "Convolution"
  bottom: "pool4"
  top: "conv8"
  convolution_param {
    num_output: 280
    kernel_size: 1
    weight_filler {
      type: "xavier"
    }
  }
}
layer {
  name: "relu8"
  type: "ReLU"
  bottom: "conv8"
  top: "relu8"
}
layer {
  name: "drop5"
  type: "Dropout"
  bottom: "relu8"
  top: "drop5"
  dropout_param {
    dropout_ratio: 0.4
  }
}
layer {
  name: "pool5"
  type: "Pooling"
  bottom: "drop5"
  top: "pool5"
  pooling_param {
    pool: MAX
    kernel_size: 2
    stride: 2
  }
}
layer {
  name: "conv10"
  type: "Convolution"
  bottom: "pool5"
  top: "conv10"
  convolution_param {
    num_output: 300
    kernel_size: 1
    weight_filler {
      type: "xavier"
    }
  }
}
layer {
  name: "relu10"
  type: "ReLU"
  bottom: "conv10"
  top: "relu10"
}
layer {
  name: "drop6"
  type: "Dropout"
  bottom: "relu10"
  top: "drop6"
  dropout_param {
    dropout_ratio: 0.5
  }
}
layer {
  name: "pool6"
  type: "Pooling"
  bottom: "drop6"
  top: "pool6"
  pooling_param {
    pool: MAX
    kernel_size: 2
    stride: 2
  }
}
layer {
  name: "conv11"
  type: "Convolution"
  bottom: "pool6"
  top: "conv11"
  convolution_param {
    num_output: 100
    kernel_size: 1
    weight_filler {
      type: "xavier"
    }
  }
}
layer {
  name: "relu11"
  type: "ReLU"
  bottom: "conv11"
  top: "relu11"
}
layer {
  name: "drop7"
  type: "Dropout"
  bottom: "relu11"
  top: "drop7"
  dropout_param {
    dropout_ratio: 0
  }
}
layer {
  name: "pool7"
  type: "Pooling"
  bottom: "drop7"
  top: "pool7"
  pooling_param {
    pool: MAX
    kernel_size: 2
    stride: 2
  }
}
layer {
  name: "ip_c"
  type: "InnerProduct"
  bottom: "pool7"
  top: "ip_c"
  inner_product_param {
    num_output: 20
    weight_filler {
      type: "xavier"
    }
  }
}
layer {
  name: "accuracy_f"
  type: "Accuracy"
  bottom: "ip_c"
  bottom: "label_coarse"
  top: "accuracy_f"
}
layer {
  name: "loss_c"
  type: "SoftmaxWithLoss"
  bottom: "ip_c"
  bottom: "label_coarse"
  top: "loss_c"
}
layer {
  name: "ip_f"
  type: "InnerProduct"
  bottom: "pool7"
  top: "ip_f"
  inner_product_param {
    num_output: 100
    weight_filler {
      type: "xavier"
    }
  }
}
layer {
  name: "accuracy"
  type: "Accuracy"
  bottom: "ip_f"
  bottom: "label_fine"
  top: "accuracy"
}
layer {
  name: "loss_f"
  type: "SoftmaxWithLoss"
  bottom: "ip_f"
  bottom: "label_fine"
  top: "loss_f"
}
I1020 07:00:19.949003 11667 layer_factory.hpp:77] Creating layer data
I1020 07:00:19.949010 11667 net.cpp:100] Creating Layer data
I1020 07:00:19.949015 11667 net.cpp:408] data -> data
I1020 07:00:19.949020 11667 net.cpp:408] data -> label_coarse
I1020 07:00:19.949025 11667 net.cpp:408] data -> label_fine
I1020 07:00:19.949030 11667 hdf5_data_layer.cpp:79] Loading list of HDF5 filenames from: ../../../../data/cifar-100/cifar_100_caffe_hdf5/test.txt
I1020 07:00:19.949044 11667 hdf5_data_layer.cpp:93] Number of HDF5 files: 1
I1020 07:00:20.202435 11667 net.cpp:150] Setting up data
I1020 07:00:20.202457 11667 net.cpp:157] Top shape: 100 3 32 32 (307200)
I1020 07:00:20.202461 11667 net.cpp:157] Top shape: 100 (100)
I1020 07:00:20.202463 11667 net.cpp:157] Top shape: 100 (100)
I1020 07:00:20.202464 11667 net.cpp:165] Memory required for data: 1229600
I1020 07:00:20.202469 11667 layer_factory.hpp:77] Creating layer label_coarse_data_1_split
I1020 07:00:20.202478 11667 net.cpp:100] Creating Layer label_coarse_data_1_split
I1020 07:00:20.202481 11667 net.cpp:434] label_coarse_data_1_split <- label_coarse
I1020 07:00:20.202486 11667 net.cpp:408] label_coarse_data_1_split -> label_coarse_data_1_split_0
I1020 07:00:20.202492 11667 net.cpp:408] label_coarse_data_1_split -> label_coarse_data_1_split_1
I1020 07:00:20.202517 11667 net.cpp:150] Setting up label_coarse_data_1_split
I1020 07:00:20.202520 11667 net.cpp:157] Top shape: 100 (100)
I1020 07:00:20.202522 11667 net.cpp:157] Top shape: 100 (100)
I1020 07:00:20.202524 11667 net.cpp:165] Memory required for data: 1230400
I1020 07:00:20.202541 11667 layer_factory.hpp:77] Creating layer label_fine_data_2_split
I1020 07:00:20.202545 11667 net.cpp:100] Creating Layer label_fine_data_2_split
I1020 07:00:20.202548 11667 net.cpp:434] label_fine_data_2_split <- label_fine
I1020 07:00:20.202550 11667 net.cpp:408] label_fine_data_2_split -> label_fine_data_2_split_0
I1020 07:00:20.202554 11667 net.cpp:408] label_fine_data_2_split -> label_fine_data_2_split_1
I1020 07:00:20.202579 11667 net.cpp:150] Setting up label_fine_data_2_split
I1020 07:00:20.202584 11667 net.cpp:157] Top shape: 100 (100)
I1020 07:00:20.202585 11667 net.cpp:157] Top shape: 100 (100)
I1020 07:00:20.202587 11667 net.cpp:165] Memory required for data: 1231200
I1020 07:00:20.202589 11667 layer_factory.hpp:77] Creating layer conv1
I1020 07:00:20.202596 11667 net.cpp:100] Creating Layer conv1
I1020 07:00:20.202600 11667 net.cpp:434] conv1 <- data
I1020 07:00:20.202603 11667 net.cpp:408] conv1 -> conv1
I1020 07:00:20.203416 11667 net.cpp:150] Setting up conv1
I1020 07:00:20.203424 11667 net.cpp:157] Top shape: 100 192 28 28 (15052800)
I1020 07:00:20.203426 11667 net.cpp:165] Memory required for data: 61442400
I1020 07:00:20.203433 11667 layer_factory.hpp:77] Creating layer relu1
I1020 07:00:20.203438 11667 net.cpp:100] Creating Layer relu1
I1020 07:00:20.203439 11667 net.cpp:434] relu1 <- conv1
I1020 07:00:20.203443 11667 net.cpp:408] relu1 -> relu1
I1020 07:00:20.203562 11667 net.cpp:150] Setting up relu1
I1020 07:00:20.203568 11667 net.cpp:157] Top shape: 100 192 28 28 (15052800)
I1020 07:00:20.203569 11667 net.cpp:165] Memory required for data: 121653600
I1020 07:00:20.203572 11667 layer_factory.hpp:77] Creating layer drop1
I1020 07:00:20.203575 11667 net.cpp:100] Creating Layer drop1
I1020 07:00:20.203577 11667 net.cpp:434] drop1 <- relu1
I1020 07:00:20.203580 11667 net.cpp:408] drop1 -> drop1
I1020 07:00:20.203603 11667 net.cpp:150] Setting up drop1
I1020 07:00:20.203609 11667 net.cpp:157] Top shape: 100 192 28 28 (15052800)
I1020 07:00:20.203613 11667 net.cpp:165] Memory required for data: 181864800
I1020 07:00:20.203615 11667 layer_factory.hpp:77] Creating layer pool1
I1020 07:00:20.203620 11667 net.cpp:100] Creating Layer pool1
I1020 07:00:20.203624 11667 net.cpp:434] pool1 <- drop1
I1020 07:00:20.203626 11667 net.cpp:408] pool1 -> pool1
I1020 07:00:20.203650 11667 net.cpp:150] Setting up pool1
I1020 07:00:20.203654 11667 net.cpp:157] Top shape: 100 192 14 14 (3763200)
I1020 07:00:20.203656 11667 net.cpp:165] Memory required for data: 196917600
I1020 07:00:20.203658 11667 layer_factory.hpp:77] Creating layer conv2
I1020 07:00:20.203662 11667 net.cpp:100] Creating Layer conv2
I1020 07:00:20.203665 11667 net.cpp:434] conv2 <- pool1
I1020 07:00:20.203667 11667 net.cpp:408] conv2 -> conv2
I1020 07:00:20.204427 11667 net.cpp:150] Setting up conv2
I1020 07:00:20.204435 11667 net.cpp:157] Top shape: 100 192 14 14 (3763200)
I1020 07:00:20.204437 11667 net.cpp:165] Memory required for data: 211970400
I1020 07:00:20.204443 11667 layer_factory.hpp:77] Creating layer relu2
I1020 07:00:20.204448 11667 net.cpp:100] Creating Layer relu2
I1020 07:00:20.204450 11667 net.cpp:434] relu2 <- conv2
I1020 07:00:20.204453 11667 net.cpp:408] relu2 -> relu2
I1020 07:00:20.204646 11667 net.cpp:150] Setting up relu2
I1020 07:00:20.204653 11667 net.cpp:157] Top shape: 100 192 14 14 (3763200)
I1020 07:00:20.204654 11667 net.cpp:165] Memory required for data: 227023200
I1020 07:00:20.204656 11667 layer_factory.hpp:77] Creating layer conv3
I1020 07:00:20.204663 11667 net.cpp:100] Creating Layer conv3
I1020 07:00:20.204664 11667 net.cpp:434] conv3 <- relu2
I1020 07:00:20.204668 11667 net.cpp:408] conv3 -> conv3
I1020 07:00:20.207108 11667 net.cpp:150] Setting up conv3
I1020 07:00:20.207116 11667 net.cpp:157] Top shape: 100 240 12 12 (3456000)
I1020 07:00:20.207118 11667 net.cpp:165] Memory required for data: 240847200
I1020 07:00:20.207123 11667 layer_factory.hpp:77] Creating layer relu3
I1020 07:00:20.207128 11667 net.cpp:100] Creating Layer relu3
I1020 07:00:20.207137 11667 net.cpp:434] relu3 <- conv3
I1020 07:00:20.207140 11667 net.cpp:408] relu3 -> relu3
I1020 07:00:20.207252 11667 net.cpp:150] Setting up relu3
I1020 07:00:20.207257 11667 net.cpp:157] Top shape: 100 240 12 12 (3456000)
I1020 07:00:20.207259 11667 net.cpp:165] Memory required for data: 254671200
I1020 07:00:20.207260 11667 layer_factory.hpp:77] Creating layer drop2
I1020 07:00:20.207263 11667 net.cpp:100] Creating Layer drop2
I1020 07:00:20.207265 11667 net.cpp:434] drop2 <- relu3
I1020 07:00:20.207268 11667 net.cpp:408] drop2 -> drop2
I1020 07:00:20.207293 11667 net.cpp:150] Setting up drop2
I1020 07:00:20.207296 11667 net.cpp:157] Top shape: 100 240 12 12 (3456000)
I1020 07:00:20.207298 11667 net.cpp:165] Memory required for data: 268495200
I1020 07:00:20.207300 11667 layer_factory.hpp:77] Creating layer pool2
I1020 07:00:20.207304 11667 net.cpp:100] Creating Layer pool2
I1020 07:00:20.207305 11667 net.cpp:434] pool2 <- drop2
I1020 07:00:20.207307 11667 net.cpp:408] pool2 -> pool2
I1020 07:00:20.207332 11667 net.cpp:150] Setting up pool2
I1020 07:00:20.207336 11667 net.cpp:157] Top shape: 100 240 6 6 (864000)
I1020 07:00:20.207337 11667 net.cpp:165] Memory required for data: 271951200
I1020 07:00:20.207340 11667 layer_factory.hpp:77] Creating layer conv4
I1020 07:00:20.207343 11667 net.cpp:100] Creating Layer conv4
I1020 07:00:20.207346 11667 net.cpp:434] conv4 <- pool2
I1020 07:00:20.207350 11667 net.cpp:408] conv4 -> conv4
I1020 07:00:20.208431 11667 net.cpp:150] Setting up conv4
I1020 07:00:20.208439 11667 net.cpp:157] Top shape: 100 240 6 6 (864000)
I1020 07:00:20.208441 11667 net.cpp:165] Memory required for data: 275407200
I1020 07:00:20.208446 11667 layer_factory.hpp:77] Creating layer relu4
I1020 07:00:20.208449 11667 net.cpp:100] Creating Layer relu4
I1020 07:00:20.208452 11667 net.cpp:434] relu4 <- conv4
I1020 07:00:20.208456 11667 net.cpp:408] relu4 -> relu4
I1020 07:00:20.208567 11667 net.cpp:150] Setting up relu4
I1020 07:00:20.208572 11667 net.cpp:157] Top shape: 100 240 6 6 (864000)
I1020 07:00:20.208575 11667 net.cpp:165] Memory required for data: 278863200
I1020 07:00:20.208577 11667 layer_factory.hpp:77] Creating layer conv5
I1020 07:00:20.208581 11667 net.cpp:100] Creating Layer conv5
I1020 07:00:20.208583 11667 net.cpp:434] conv5 <- relu4
I1020 07:00:20.208588 11667 net.cpp:408] conv5 -> conv5
I1020 07:00:20.210345 11667 net.cpp:150] Setting up conv5
I1020 07:00:20.210353 11667 net.cpp:157] Top shape: 100 260 5 5 (650000)
I1020 07:00:20.210355 11667 net.cpp:165] Memory required for data: 281463200
I1020 07:00:20.210361 11667 layer_factory.hpp:77] Creating layer relu5
I1020 07:00:20.210366 11667 net.cpp:100] Creating Layer relu5
I1020 07:00:20.210368 11667 net.cpp:434] relu5 <- conv5
I1020 07:00:20.210371 11667 net.cpp:408] relu5 -> relu5
I1020 07:00:20.210630 11667 net.cpp:150] Setting up relu5
I1020 07:00:20.210638 11667 net.cpp:157] Top shape: 100 260 5 5 (650000)
I1020 07:00:20.210639 11667 net.cpp:165] Memory required for data: 284063200
I1020 07:00:20.210641 11667 layer_factory.hpp:77] Creating layer drop3
I1020 07:00:20.210645 11667 net.cpp:100] Creating Layer drop3
I1020 07:00:20.210647 11667 net.cpp:434] drop3 <- relu5
I1020 07:00:20.210650 11667 net.cpp:408] drop3 -> drop3
I1020 07:00:20.210675 11667 net.cpp:150] Setting up drop3
I1020 07:00:20.210680 11667 net.cpp:157] Top shape: 100 260 5 5 (650000)
I1020 07:00:20.210681 11667 net.cpp:165] Memory required for data: 286663200
I1020 07:00:20.210682 11667 layer_factory.hpp:77] Creating layer pool3
I1020 07:00:20.210685 11667 net.cpp:100] Creating Layer pool3
I1020 07:00:20.210687 11667 net.cpp:434] pool3 <- drop3
I1020 07:00:20.210690 11667 net.cpp:408] pool3 -> pool3
I1020 07:00:20.210713 11667 net.cpp:150] Setting up pool3
I1020 07:00:20.210716 11667 net.cpp:157] Top shape: 100 260 3 3 (234000)
I1020 07:00:20.210718 11667 net.cpp:165] Memory required for data: 287599200
I1020 07:00:20.210721 11667 layer_factory.hpp:77] Creating layer conv6
I1020 07:00:20.210724 11667 net.cpp:100] Creating Layer conv6
I1020 07:00:20.210726 11667 net.cpp:434] conv6 <- pool3
I1020 07:00:20.210737 11667 net.cpp:408] conv6 -> conv6
I1020 07:00:20.211848 11667 net.cpp:150] Setting up conv6
I1020 07:00:20.211856 11667 net.cpp:157] Top shape: 100 260 3 3 (234000)
I1020 07:00:20.211858 11667 net.cpp:165] Memory required for data: 288535200
I1020 07:00:20.211863 11667 layer_factory.hpp:77] Creating layer relu6
I1020 07:00:20.211866 11667 net.cpp:100] Creating Layer relu6
I1020 07:00:20.211869 11667 net.cpp:434] relu6 <- conv6
I1020 07:00:20.211872 11667 net.cpp:408] relu6 -> relu6
I1020 07:00:20.211984 11667 net.cpp:150] Setting up relu6
I1020 07:00:20.211990 11667 net.cpp:157] Top shape: 100 260 3 3 (234000)
I1020 07:00:20.211992 11667 net.cpp:165] Memory required for data: 289471200
I1020 07:00:20.211993 11667 layer_factory.hpp:77] Creating layer conv7
I1020 07:00:20.211998 11667 net.cpp:100] Creating Layer conv7
I1020 07:00:20.212002 11667 net.cpp:434] conv7 <- relu6
I1020 07:00:20.212004 11667 net.cpp:408] conv7 -> conv7
I1020 07:00:20.213929 11667 net.cpp:150] Setting up conv7
I1020 07:00:20.213938 11667 net.cpp:157] Top shape: 100 280 2 2 (112000)
I1020 07:00:20.213940 11667 net.cpp:165] Memory required for data: 289919200
I1020 07:00:20.213944 11667 layer_factory.hpp:77] Creating layer relu7
I1020 07:00:20.213948 11667 net.cpp:100] Creating Layer relu7
I1020 07:00:20.213950 11667 net.cpp:434] relu7 <- conv7
I1020 07:00:20.213953 11667 net.cpp:408] relu7 -> relu7
I1020 07:00:20.214066 11667 net.cpp:150] Setting up relu7
I1020 07:00:20.214072 11667 net.cpp:157] Top shape: 100 280 2 2 (112000)
I1020 07:00:20.214074 11667 net.cpp:165] Memory required for data: 290367200
I1020 07:00:20.214076 11667 layer_factory.hpp:77] Creating layer drop4
I1020 07:00:20.214079 11667 net.cpp:100] Creating Layer drop4
I1020 07:00:20.214082 11667 net.cpp:434] drop4 <- relu7
I1020 07:00:20.214085 11667 net.cpp:408] drop4 -> drop4
I1020 07:00:20.214108 11667 net.cpp:150] Setting up drop4
I1020 07:00:20.214112 11667 net.cpp:157] Top shape: 100 280 2 2 (112000)
I1020 07:00:20.214113 11667 net.cpp:165] Memory required for data: 290815200
I1020 07:00:20.214117 11667 layer_factory.hpp:77] Creating layer pool4
I1020 07:00:20.214119 11667 net.cpp:100] Creating Layer pool4
I1020 07:00:20.214121 11667 net.cpp:434] pool4 <- drop4
I1020 07:00:20.214124 11667 net.cpp:408] pool4 -> pool4
I1020 07:00:20.214148 11667 net.cpp:150] Setting up pool4
I1020 07:00:20.214153 11667 net.cpp:157] Top shape: 100 280 1 1 (28000)
I1020 07:00:20.214154 11667 net.cpp:165] Memory required for data: 290927200
I1020 07:00:20.214155 11667 layer_factory.hpp:77] Creating layer conv8
I1020 07:00:20.214160 11667 net.cpp:100] Creating Layer conv8
I1020 07:00:20.214162 11667 net.cpp:434] conv8 <- pool4
I1020 07:00:20.214165 11667 net.cpp:408] conv8 -> conv8
I1020 07:00:20.215353 11667 net.cpp:150] Setting up conv8
I1020 07:00:20.215366 11667 net.cpp:157] Top shape: 100 280 1 1 (28000)
I1020 07:00:20.215370 11667 net.cpp:165] Memory required for data: 291039200
I1020 07:00:20.215376 11667 layer_factory.hpp:77] Creating layer relu8
I1020 07:00:20.215384 11667 net.cpp:100] Creating Layer relu8
I1020 07:00:20.215386 11667 net.cpp:434] relu8 <- conv8
I1020 07:00:20.215394 11667 net.cpp:408] relu8 -> relu8
I1020 07:00:20.215643 11667 net.cpp:150] Setting up relu8
I1020 07:00:20.215653 11667 net.cpp:157] Top shape: 100 280 1 1 (28000)
I1020 07:00:20.215657 11667 net.cpp:165] Memory required for data: 291151200
I1020 07:00:20.215662 11667 layer_factory.hpp:77] Creating layer drop5
I1020 07:00:20.215668 11667 net.cpp:100] Creating Layer drop5
I1020 07:00:20.215673 11667 net.cpp:434] drop5 <- relu8
I1020 07:00:20.215678 11667 net.cpp:408] drop5 -> drop5
I1020 07:00:20.215718 11667 net.cpp:150] Setting up drop5
I1020 07:00:20.215723 11667 net.cpp:157] Top shape: 100 280 1 1 (28000)
I1020 07:00:20.215726 11667 net.cpp:165] Memory required for data: 291263200
I1020 07:00:20.215729 11667 layer_factory.hpp:77] Creating layer pool5
I1020 07:00:20.215736 11667 net.cpp:100] Creating Layer pool5
I1020 07:00:20.215740 11667 net.cpp:434] pool5 <- drop5
I1020 07:00:20.215759 11667 net.cpp:408] pool5 -> pool5
I1020 07:00:20.215801 11667 net.cpp:150] Setting up pool5
I1020 07:00:20.215808 11667 net.cpp:157] Top shape: 100 280 1 1 (28000)
I1020 07:00:20.215812 11667 net.cpp:165] Memory required for data: 291375200
I1020 07:00:20.215816 11667 layer_factory.hpp:77] Creating layer conv10
I1020 07:00:20.215823 11667 net.cpp:100] Creating Layer conv10
I1020 07:00:20.215827 11667 net.cpp:434] conv10 <- pool5
I1020 07:00:20.215833 11667 net.cpp:408] conv10 -> conv10
I1020 07:00:20.216866 11667 net.cpp:150] Setting up conv10
I1020 07:00:20.216873 11667 net.cpp:157] Top shape: 100 300 1 1 (30000)
I1020 07:00:20.216876 11667 net.cpp:165] Memory required for data: 291495200
I1020 07:00:20.216883 11667 layer_factory.hpp:77] Creating layer relu10
I1020 07:00:20.216887 11667 net.cpp:100] Creating Layer relu10
I1020 07:00:20.216891 11667 net.cpp:434] relu10 <- conv10
I1020 07:00:20.216893 11667 net.cpp:408] relu10 -> relu10
I1020 07:00:20.217002 11667 net.cpp:150] Setting up relu10
I1020 07:00:20.217007 11667 net.cpp:157] Top shape: 100 300 1 1 (30000)
I1020 07:00:20.217010 11667 net.cpp:165] Memory required for data: 291615200
I1020 07:00:20.217011 11667 layer_factory.hpp:77] Creating layer drop6
I1020 07:00:20.217015 11667 net.cpp:100] Creating Layer drop6
I1020 07:00:20.217017 11667 net.cpp:434] drop6 <- relu10
I1020 07:00:20.217020 11667 net.cpp:408] drop6 -> drop6
I1020 07:00:20.217044 11667 net.cpp:150] Setting up drop6
I1020 07:00:20.217049 11667 net.cpp:157] Top shape: 100 300 1 1 (30000)
I1020 07:00:20.217051 11667 net.cpp:165] Memory required for data: 291735200
I1020 07:00:20.217052 11667 layer_factory.hpp:77] Creating layer pool6
I1020 07:00:20.217057 11667 net.cpp:100] Creating Layer pool6
I1020 07:00:20.217061 11667 net.cpp:434] pool6 <- drop6
I1020 07:00:20.217063 11667 net.cpp:408] pool6 -> pool6
I1020 07:00:20.217087 11667 net.cpp:150] Setting up pool6
I1020 07:00:20.217090 11667 net.cpp:157] Top shape: 100 300 1 1 (30000)
I1020 07:00:20.217092 11667 net.cpp:165] Memory required for data: 291855200
I1020 07:00:20.217094 11667 layer_factory.hpp:77] Creating layer conv11
I1020 07:00:20.217098 11667 net.cpp:100] Creating Layer conv11
I1020 07:00:20.217100 11667 net.cpp:434] conv11 <- pool6
I1020 07:00:20.217104 11667 net.cpp:408] conv11 -> conv11
I1020 07:00:20.217824 11667 net.cpp:150] Setting up conv11
I1020 07:00:20.217833 11667 net.cpp:157] Top shape: 100 100 1 1 (10000)
I1020 07:00:20.217835 11667 net.cpp:165] Memory required for data: 291895200
I1020 07:00:20.217839 11667 layer_factory.hpp:77] Creating layer relu11
I1020 07:00:20.217842 11667 net.cpp:100] Creating Layer relu11
I1020 07:00:20.217845 11667 net.cpp:434] relu11 <- conv11
I1020 07:00:20.217849 11667 net.cpp:408] relu11 -> relu11
I1020 07:00:20.217958 11667 net.cpp:150] Setting up relu11
I1020 07:00:20.217963 11667 net.cpp:157] Top shape: 100 100 1 1 (10000)
I1020 07:00:20.217967 11667 net.cpp:165] Memory required for data: 291935200
I1020 07:00:20.217968 11667 layer_factory.hpp:77] Creating layer drop7
I1020 07:00:20.217972 11667 net.cpp:100] Creating Layer drop7
I1020 07:00:20.217973 11667 net.cpp:434] drop7 <- relu11
I1020 07:00:20.217977 11667 net.cpp:408] drop7 -> drop7
I1020 07:00:20.217999 11667 net.cpp:150] Setting up drop7
I1020 07:00:20.218003 11667 net.cpp:157] Top shape: 100 100 1 1 (10000)
I1020 07:00:20.218005 11667 net.cpp:165] Memory required for data: 291975200
I1020 07:00:20.218008 11667 layer_factory.hpp:77] Creating layer pool7
I1020 07:00:20.218010 11667 net.cpp:100] Creating Layer pool7
I1020 07:00:20.218014 11667 net.cpp:434] pool7 <- drop7
I1020 07:00:20.218019 11667 net.cpp:408] pool7 -> pool7
I1020 07:00:20.218044 11667 net.cpp:150] Setting up pool7
I1020 07:00:20.218049 11667 net.cpp:157] Top shape: 100 100 1 1 (10000)
I1020 07:00:20.218052 11667 net.cpp:165] Memory required for data: 292015200
I1020 07:00:20.218055 11667 layer_factory.hpp:77] Creating layer pool7_pool7_0_split
I1020 07:00:20.218060 11667 net.cpp:100] Creating Layer pool7_pool7_0_split
I1020 07:00:20.218070 11667 net.cpp:434] pool7_pool7_0_split <- pool7
I1020 07:00:20.218073 11667 net.cpp:408] pool7_pool7_0_split -> pool7_pool7_0_split_0
I1020 07:00:20.218077 11667 net.cpp:408] pool7_pool7_0_split -> pool7_pool7_0_split_1
I1020 07:00:20.218101 11667 net.cpp:150] Setting up pool7_pool7_0_split
I1020 07:00:20.218104 11667 net.cpp:157] Top shape: 100 100 1 1 (10000)
I1020 07:00:20.218107 11667 net.cpp:157] Top shape: 100 100 1 1 (10000)
I1020 07:00:20.218109 11667 net.cpp:165] Memory required for data: 292095200
I1020 07:00:20.218111 11667 layer_factory.hpp:77] Creating layer ip_c
I1020 07:00:20.218114 11667 net.cpp:100] Creating Layer ip_c
I1020 07:00:20.218117 11667 net.cpp:434] ip_c <- pool7_pool7_0_split_0
I1020 07:00:20.218121 11667 net.cpp:408] ip_c -> ip_c
I1020 07:00:20.218199 11667 net.cpp:150] Setting up ip_c
I1020 07:00:20.218204 11667 net.cpp:157] Top shape: 100 20 (2000)
I1020 07:00:20.218207 11667 net.cpp:165] Memory required for data: 292103200
I1020 07:00:20.218212 11667 layer_factory.hpp:77] Creating layer ip_c_ip_c_0_split
I1020 07:00:20.218216 11667 net.cpp:100] Creating Layer ip_c_ip_c_0_split
I1020 07:00:20.218220 11667 net.cpp:434] ip_c_ip_c_0_split <- ip_c
I1020 07:00:20.218225 11667 net.cpp:408] ip_c_ip_c_0_split -> ip_c_ip_c_0_split_0
I1020 07:00:20.218231 11667 net.cpp:408] ip_c_ip_c_0_split -> ip_c_ip_c_0_split_1
I1020 07:00:20.218256 11667 net.cpp:150] Setting up ip_c_ip_c_0_split
I1020 07:00:20.218261 11667 net.cpp:157] Top shape: 100 20 (2000)
I1020 07:00:20.218264 11667 net.cpp:157] Top shape: 100 20 (2000)
I1020 07:00:20.218267 11667 net.cpp:165] Memory required for data: 292119200
I1020 07:00:20.218269 11667 layer_factory.hpp:77] Creating layer accuracy_f
I1020 07:00:20.218273 11667 net.cpp:100] Creating Layer accuracy_f
I1020 07:00:20.218276 11667 net.cpp:434] accuracy_f <- ip_c_ip_c_0_split_0
I1020 07:00:20.218279 11667 net.cpp:434] accuracy_f <- label_coarse_data_1_split_0
I1020 07:00:20.218282 11667 net.cpp:408] accuracy_f -> accuracy_f
…
