…
  stage: ""
}
type: "AdaDelta"
I1020 09:09:10.540170 12557 solver.cpp:81] Creating training net from train_net file: /home/adam/Honours/Honours-Project/cifar-100_pooling/max/leakyrelu/poolcnn_leakyrelu_train.prototxt
I1020 09:09:10.540493 12557 net.cpp:58] Initializing net from parameters: 
state {
  phase: TRAIN
  level: 0
  stage: ""
}
layer {
  name: "data"
  type: "HDF5Data"
  top: "data"
  top: "label_coarse"
  top: "label_fine"
  hdf5_data_param {
    source: "../../../../data/cifar-100/cifar_100_caffe_hdf5/train.txt"
    batch_size: 64
  }
}
layer {
  name: "conv1"
  type: "Convolution"
  bottom: "data"
  top: "conv1"
  convolution_param {
    num_output: 192
    kernel_size: 5
    weight_filler {
      type: "xavier"
    }
  }
}
layer {
  name: "relu1"
  type: "ReLU"
  bottom: "conv1"
  top: "relu1"
  relu_param {
    negative_slope: 0.1
  }
}
layer {
  name: "drop1"
  type: "Dropout"
  bottom: "relu1"
  top: "drop1"
  dropout_param {
    dropout_ratio: 0
  }
}
layer {
  name: "pool1"
  type: "Pooling"
  bottom: "drop1"
  top: "pool1"
  pooling_param {
    pool: MAX
    kernel_size: 2
    stride: 2
  }
}
layer {
  name: "conv2"
  type: "Convolution"
  bottom: "pool1"
  top: "conv2"
  convolution_param {
    num_output: 192
    kernel_size: 1
    weight_filler {
      type: "xavier"
    }
  }
}
layer {
  name: "relu2"
  type: "ReLU"
  bottom: "conv2"
  top: "relu2"
  relu_param {
    negative_slope: 0.1
  }
}
layer {
  name: "conv3"
  type: "Convolution"
  bottom: "relu2"
  top: "conv3"
  convolution_param {
    num_output: 240
    kernel_size: 3
    weight_filler {
      type: "xavier"
    }
  }
}
layer {
  name: "relu3"
  type: "ReLU"
  bottom: "conv3"
  top: "relu3"
  relu_param {
    negative_slope: 0.1
  }
}
layer {
  name: "drop2"
  type: "Dropout"
  bottom: "relu3"
  top: "drop2"
  dropout_param {
    dropout_ratio: 0.1
  }
}
layer {
  name: "pool2"
  type: "Pooling"
  bottom: "drop2"
  top: "pool2"
  pooling_param {
    pool: MAX
    kernel_size: 2
    stride: 2
  }
}
layer {
  name: "conv4"
  type: "Convolution"
  bottom: "pool2"
  top: "conv4"
  convolution_param {
    num_output: 240
    kernel_size: 1
    weight_filler {
      type: "xavier"
    }
  }
}
layer {
  name: "relu4"
  type: "ReLU"
  bottom: "conv4"
  top: "relu4"
  relu_param {
    negative_slope: 0.1
  }
}
layer {
  name: "conv5"
  type: "Convolution"
  bottom: "relu4"
  top: "conv5"
  convolution_param {
    num_output: 260
    kernel_size: 2
    weight_filler {
      type: "xavier"
    }
  }
}
layer {
  name: "relu5"
  type: "ReLU"
  bottom: "conv5"
  top: "relu5"
  relu_param {
    negative_slope: 0.1
  }
}
layer {
  name: "drop3"
  type: "Dropout"
  bottom: "relu5"
  top: "drop3"
  dropout_param {
    dropout_ratio: 0.2
  }
}
layer {
  name: "pool3"
  type: "Pooling"
  bottom: "drop3"
  top: "pool3"
  pooling_param {
    pool: MAX
    kernel_size: 2
    stride: 2
  }
}
layer {
  name: "conv6"
  type: "Convolution"
  bottom: "pool3"
  top: "conv6"
  convolution_param {
    num_output: 260
    kernel_size: 1
    weight_filler {
      type: "xavier"
    }
  }
}
layer {
  name: "relu6"
  type: "ReLU"
  bottom: "conv6"
  top: "relu6"
  relu_param {
    negative_slope: 0.1
  }
}
layer {
  name: "conv7"
  type: "Convolution"
  bottom: "relu6"
  top: "conv7"
  convolution_param {
    num_output: 280
    kernel_size: 2
    weight_filler {
      type: "xavier"
    }
  }
}
layer {
  name: "relu7"
  type: "ReLU"
  bottom: "conv7"
  top: "relu7"
  relu_param {
    negative_slope: 0.1
  }
}
layer {
  name: "drop4"
  type: "Dropout"
  bottom: "relu7"
  top: "drop4"
  dropout_param {
    dropout_ratio: 0.3
  }
}
layer {
  name: "pool4"
  type: "Pooling"
  bottom: "drop4"
  top: "pool4"
  pooling_param {
    pool: MAX
    kernel_size: 2
    stride: 2
  }
}
layer {
  name: "conv8"
  type: "Convolution"
  bottom: "pool4"
  top: "conv8"
  convolution_param {
    num_output: 280
    kernel_size: 1
    weight_filler {
      type: "xavier"
    }
  }
}
layer {
  name: "relu8"
  type: "ReLU"
  bottom: "conv8"
  top: "relu8"
  relu_param {
    negative_slope: 0.1
  }
}
layer {
  name: "drop5"
  type: "Dropout"
  bottom: "relu8"
  top: "drop5"
  dropout_param {
    dropout_ratio: 0.4
  }
}
layer {
  name: "pool5"
  type: "Pooling"
  bottom: "drop5"
  top: "pool5"
  pooling_param {
    pool: MAX
    kernel_size: 2
    stride: 2
  }
}
layer {
  name: "conv10"
  type: "Convolution"
  bottom: "pool5"
  top: "conv10"
  convolution_param {
    num_output: 300
    kernel_size: 1
    weight_filler {
      type: "xavier"
    }
  }
}
layer {
  name: "relu10"
  type: "ReLU"
  bottom: "conv10"
  top: "relu10"
  relu_param {
    negative_slope: 0.1
  }
}
layer {
  name: "drop6"
  type: "Dropout"
  bottom: "relu10"
  top: "drop6"
  dropout_param {
    dropout_ratio: 0.5
  }
}
layer {
  name: "pool6"
  type: "Pooling"
  bottom: "drop6"
  top: "pool6"
  pooling_param {
    pool: MAX
    kernel_size: 2
    stride: 2
  }
}
layer {
  name: "conv11"
  type: "Convolution"
  bottom: "pool6"
  top: "conv11"
  convolution_param {
    num_output: 100
    kernel_size: 1
    weight_filler {
      type: "xavier"
    }
  }
}
layer {
  name: "relu11"
  type: "ReLU"
  bottom: "conv11"
  top: "relu11"
  relu_param {
    negative_slope: 0.1
  }
}
layer {
  name: "drop7"
  type: "Dropout"
  bottom: "relu11"
  top: "drop7"
  dropout_param {
    dropout_ratio: 0
  }
}
layer {
  name: "pool7"
  type: "Pooling"
  bottom: "drop7"
  top: "pool7"
  pooling_param {
    pool: MAX
    kernel_size: 2
    stride: 2
  }
}
layer {
  name: "ip_c"
  type: "InnerProduct"
  bottom: "pool7"
  top: "ip_c"
  inner_product_param {
    num_output: 20
    weight_filler {
      type: "xavier"
    }
  }
}
layer {
  name: "accuracy_f"
  type: "Accuracy"
  bottom: "ip_c"
  bottom: "label_coarse"
  top: "accuracy_f"
}
layer {
  name: "loss_c"
  type: "SoftmaxWithLoss"
  bottom: "ip_c"
  bottom: "label_coarse"
  top: "loss_c"
}
layer {
  name: "ip_f"
  type: "InnerProduct"
  bottom: "pool7"
  top: "ip_f"
  inner_product_param {
    num_output: 100
    weight_filler {
      type: "xavier"
    }
  }
}
layer {
  name: "accuracy"
  type: "Accuracy"
  bottom: "ip_f"
  bottom: "label_fine"
  top: "accuracy"
}
layer {
  name: "loss_f"
  type: "SoftmaxWithLoss"
  bottom: "ip_f"
  bottom: "label_fine"
  top: "loss_f"
}
I1020 09:09:10.540638 12557 layer_factory.hpp:77] Creating layer data
I1020 09:09:10.540649 12557 net.cpp:100] Creating Layer data
I1020 09:09:10.540660 12557 net.cpp:408] data -> data
I1020 09:09:10.540674 12557 net.cpp:408] data -> label_coarse
I1020 09:09:10.540683 12557 net.cpp:408] data -> label_fine
I1020 09:09:10.540690 12557 hdf5_data_layer.cpp:79] Loading list of HDF5 filenames from: ../../../../data/cifar-100/cifar_100_caffe_hdf5/train.txt
I1020 09:09:10.540709 12557 hdf5_data_layer.cpp:93] Number of HDF5 files: 1
I1020 09:09:10.541321 12557 hdf5.cpp:35] Datatype class: H5T_INTEGER
I1020 09:09:12.114356 12557 net.cpp:150] Setting up data
I1020 09:09:12.114382 12557 net.cpp:157] Top shape: 64 3 32 32 (196608)
I1020 09:09:12.114384 12557 net.cpp:157] Top shape: 64 (64)
I1020 09:09:12.114387 12557 net.cpp:157] Top shape: 64 (64)
I1020 09:09:12.114388 12557 net.cpp:165] Memory required for data: 786944
I1020 09:09:12.114393 12557 layer_factory.hpp:77] Creating layer label_coarse_data_1_split
I1020 09:09:12.114403 12557 net.cpp:100] Creating Layer label_coarse_data_1_split
I1020 09:09:12.114408 12557 net.cpp:434] label_coarse_data_1_split <- label_coarse
I1020 09:09:12.114418 12557 net.cpp:408] label_coarse_data_1_split -> label_coarse_data_1_split_0
I1020 09:09:12.114449 12557 net.cpp:408] label_coarse_data_1_split -> label_coarse_data_1_split_1
I1020 09:09:12.114475 12557 net.cpp:150] Setting up label_coarse_data_1_split
I1020 09:09:12.114477 12557 net.cpp:157] Top shape: 64 (64)
I1020 09:09:12.114480 12557 net.cpp:157] Top shape: 64 (64)
I1020 09:09:12.114481 12557 net.cpp:165] Memory required for data: 787456
I1020 09:09:12.114483 12557 layer_factory.hpp:77] Creating layer label_fine_data_2_split
I1020 09:09:12.114486 12557 net.cpp:100] Creating Layer label_fine_data_2_split
I1020 09:09:12.114490 12557 net.cpp:434] label_fine_data_2_split <- label_fine
I1020 09:09:12.114492 12557 net.cpp:408] label_fine_data_2_split -> label_fine_data_2_split_0
I1020 09:09:12.114497 12557 net.cpp:408] label_fine_data_2_split -> label_fine_data_2_split_1
I1020 09:09:12.114518 12557 net.cpp:150] Setting up label_fine_data_2_split
I1020 09:09:12.114522 12557 net.cpp:157] Top shape: 64 (64)
I1020 09:09:12.114524 12557 net.cpp:157] Top shape: 64 (64)
I1020 09:09:12.114526 12557 net.cpp:165] Memory required for data: 787968
I1020 09:09:12.114527 12557 layer_factory.hpp:77] Creating layer conv1
I1020 09:09:12.114538 12557 net.cpp:100] Creating Layer conv1
I1020 09:09:12.114540 12557 net.cpp:434] conv1 <- data
I1020 09:09:12.114543 12557 net.cpp:408] conv1 -> conv1
I1020 09:09:12.233386 12557 net.cpp:150] Setting up conv1
I1020 09:09:12.233408 12557 net.cpp:157] Top shape: 64 192 28 28 (9633792)
I1020 09:09:12.233412 12557 net.cpp:165] Memory required for data: 39323136
I1020 09:09:12.233428 12557 layer_factory.hpp:77] Creating layer relu1
I1020 09:09:12.233438 12557 net.cpp:100] Creating Layer relu1
I1020 09:09:12.233441 12557 net.cpp:434] relu1 <- conv1
I1020 09:09:12.233448 12557 net.cpp:408] relu1 -> relu1
I1020 09:09:12.233577 12557 net.cpp:150] Setting up relu1
I1020 09:09:12.233582 12557 net.cpp:157] Top shape: 64 192 28 28 (9633792)
I1020 09:09:12.233584 12557 net.cpp:165] Memory required for data: 77858304
I1020 09:09:12.233587 12557 layer_factory.hpp:77] Creating layer drop1
I1020 09:09:12.233592 12557 net.cpp:100] Creating Layer drop1
I1020 09:09:12.233593 12557 net.cpp:434] drop1 <- relu1
I1020 09:09:12.233597 12557 net.cpp:408] drop1 -> drop1
I1020 09:09:12.233621 12557 net.cpp:150] Setting up drop1
I1020 09:09:12.233625 12557 net.cpp:157] Top shape: 64 192 28 28 (9633792)
I1020 09:09:12.233628 12557 net.cpp:165] Memory required for data: 116393472
I1020 09:09:12.233629 12557 layer_factory.hpp:77] Creating layer pool1
I1020 09:09:12.233633 12557 net.cpp:100] Creating Layer pool1
I1020 09:09:12.233634 12557 net.cpp:434] pool1 <- drop1
I1020 09:09:12.233636 12557 net.cpp:408] pool1 -> pool1
I1020 09:09:12.233664 12557 net.cpp:150] Setting up pool1
I1020 09:09:12.233666 12557 net.cpp:157] Top shape: 64 192 14 14 (2408448)
I1020 09:09:12.233669 12557 net.cpp:165] Memory required for data: 126027264
I1020 09:09:12.233669 12557 layer_factory.hpp:77] Creating layer conv2
I1020 09:09:12.233675 12557 net.cpp:100] Creating Layer conv2
I1020 09:09:12.233677 12557 net.cpp:434] conv2 <- pool1
I1020 09:09:12.233682 12557 net.cpp:408] conv2 -> conv2
I1020 09:09:12.234464 12557 net.cpp:150] Setting up conv2
I1020 09:09:12.234472 12557 net.cpp:157] Top shape: 64 192 14 14 (2408448)
I1020 09:09:12.234474 12557 net.cpp:165] Memory required for data: 135661056
I1020 09:09:12.234480 12557 layer_factory.hpp:77] Creating layer relu2
I1020 09:09:12.234484 12557 net.cpp:100] Creating Layer relu2
I1020 09:09:12.234486 12557 net.cpp:434] relu2 <- conv2
I1020 09:09:12.234489 12557 net.cpp:408] relu2 -> relu2
I1020 09:09:12.234606 12557 net.cpp:150] Setting up relu2
I1020 09:09:12.234611 12557 net.cpp:157] Top shape: 64 192 14 14 (2408448)
I1020 09:09:12.234613 12557 net.cpp:165] Memory required for data: 145294848
I1020 09:09:12.234616 12557 layer_factory.hpp:77] Creating layer conv3
I1020 09:09:12.234619 12557 net.cpp:100] Creating Layer conv3
I1020 09:09:12.234622 12557 net.cpp:434] conv3 <- relu2
I1020 09:09:12.234625 12557 net.cpp:408] conv3 -> conv3
I1020 09:09:12.237030 12557 net.cpp:150] Setting up conv3
I1020 09:09:12.237040 12557 net.cpp:157] Top shape: 64 240 12 12 (2211840)
I1020 09:09:12.237041 12557 net.cpp:165] Memory required for data: 154142208
I1020 09:09:12.237047 12557 layer_factory.hpp:77] Creating layer relu3
I1020 09:09:12.237051 12557 net.cpp:100] Creating Layer relu3
I1020 09:09:12.237052 12557 net.cpp:434] relu3 <- conv3
I1020 09:09:12.237056 12557 net.cpp:408] relu3 -> relu3
I1020 09:09:12.237236 12557 net.cpp:150] Setting up relu3
I1020 09:09:12.237241 12557 net.cpp:157] Top shape: 64 240 12 12 (2211840)
I1020 09:09:12.237243 12557 net.cpp:165] Memory required for data: 162989568
I1020 09:09:12.237246 12557 layer_factory.hpp:77] Creating layer drop2
I1020 09:09:12.237249 12557 net.cpp:100] Creating Layer drop2
I1020 09:09:12.237251 12557 net.cpp:434] drop2 <- relu3
I1020 09:09:12.237254 12557 net.cpp:408] drop2 -> drop2
I1020 09:09:12.237274 12557 net.cpp:150] Setting up drop2
I1020 09:09:12.237280 12557 net.cpp:157] Top shape: 64 240 12 12 (2211840)
I1020 09:09:12.237282 12557 net.cpp:165] Memory required for data: 171836928
I1020 09:09:12.237285 12557 layer_factory.hpp:77] Creating layer pool2
I1020 09:09:12.237290 12557 net.cpp:100] Creating Layer pool2
I1020 09:09:12.237294 12557 net.cpp:434] pool2 <- drop2
I1020 09:09:12.237298 12557 net.cpp:408] pool2 -> pool2
I1020 09:09:12.237321 12557 net.cpp:150] Setting up pool2
I1020 09:09:12.237325 12557 net.cpp:157] Top shape: 64 240 6 6 (552960)
I1020 09:09:12.237327 12557 net.cpp:165] Memory required for data: 174048768
I1020 09:09:12.237329 12557 layer_factory.hpp:77] Creating layer conv4
I1020 09:09:12.237334 12557 net.cpp:100] Creating Layer conv4
I1020 09:09:12.237335 12557 net.cpp:434] conv4 <- pool2
I1020 09:09:12.237339 12557 net.cpp:408] conv4 -> conv4
I1020 09:09:12.238122 12557 net.cpp:150] Setting up conv4
I1020 09:09:12.238131 12557 net.cpp:157] Top shape: 64 240 6 6 (552960)
I1020 09:09:12.238132 12557 net.cpp:165] Memory required for data: 176260608
I1020 09:09:12.238135 12557 layer_factory.hpp:77] Creating layer relu4
I1020 09:09:12.238139 12557 net.cpp:100] Creating Layer relu4
I1020 09:09:12.238142 12557 net.cpp:434] relu4 <- conv4
I1020 09:09:12.238144 12557 net.cpp:408] relu4 -> relu4
I1020 09:09:12.238248 12557 net.cpp:150] Setting up relu4
I1020 09:09:12.238253 12557 net.cpp:157] Top shape: 64 240 6 6 (552960)
I1020 09:09:12.238255 12557 net.cpp:165] Memory required for data: 178472448
I1020 09:09:12.238257 12557 layer_factory.hpp:77] Creating layer conv5
I1020 09:09:12.238262 12557 net.cpp:100] Creating Layer conv5
I1020 09:09:12.238265 12557 net.cpp:434] conv5 <- relu4
I1020 09:09:12.238267 12557 net.cpp:408] conv5 -> conv5
I1020 09:09:12.239991 12557 net.cpp:150] Setting up conv5
I1020 09:09:12.240000 12557 net.cpp:157] Top shape: 64 260 5 5 (416000)
I1020 09:09:12.240002 12557 net.cpp:165] Memory required for data: 180136448
I1020 09:09:12.240007 12557 layer_factory.hpp:77] Creating layer relu5
I1020 09:09:12.240013 12557 net.cpp:100] Creating Layer relu5
I1020 09:09:12.240015 12557 net.cpp:434] relu5 <- conv5
I1020 09:09:12.240018 12557 net.cpp:408] relu5 -> relu5
I1020 09:09:12.240133 12557 net.cpp:150] Setting up relu5
I1020 09:09:12.240139 12557 net.cpp:157] Top shape: 64 260 5 5 (416000)
I1020 09:09:12.240140 12557 net.cpp:165] Memory required for data: 181800448
I1020 09:09:12.240142 12557 layer_factory.hpp:77] Creating layer drop3
I1020 09:09:12.240146 12557 net.cpp:100] Creating Layer drop3
I1020 09:09:12.240147 12557 net.cpp:434] drop3 <- relu5
I1020 09:09:12.240151 12557 net.cpp:408] drop3 -> drop3
I1020 09:09:12.240175 12557 net.cpp:150] Setting up drop3
I1020 09:09:12.240180 12557 net.cpp:157] Top shape: 64 260 5 5 (416000)
I1020 09:09:12.240181 12557 net.cpp:165] Memory required for data: 183464448
I1020 09:09:12.240183 12557 layer_factory.hpp:77] Creating layer pool3
I1020 09:09:12.240187 12557 net.cpp:100] Creating Layer pool3
I1020 09:09:12.240191 12557 net.cpp:434] pool3 <- drop3
I1020 09:09:12.240195 12557 net.cpp:408] pool3 -> pool3
I1020 09:09:12.240218 12557 net.cpp:150] Setting up pool3
I1020 09:09:12.240229 12557 net.cpp:157] Top shape: 64 260 3 3 (149760)
I1020 09:09:12.240231 12557 net.cpp:165] Memory required for data: 184063488
I1020 09:09:12.240232 12557 layer_factory.hpp:77] Creating layer conv6
I1020 09:09:12.240237 12557 net.cpp:100] Creating Layer conv6
I1020 09:09:12.240239 12557 net.cpp:434] conv6 <- pool3
I1020 09:09:12.240242 12557 net.cpp:408] conv6 -> conv6
I1020 09:09:12.241372 12557 net.cpp:150] Setting up conv6
I1020 09:09:12.241380 12557 net.cpp:157] Top shape: 64 260 3 3 (149760)
I1020 09:09:12.241382 12557 net.cpp:165] Memory required for data: 184662528
I1020 09:09:12.241386 12557 layer_factory.hpp:77] Creating layer relu6
I1020 09:09:12.241389 12557 net.cpp:100] Creating Layer relu6
I1020 09:09:12.241391 12557 net.cpp:434] relu6 <- conv6
I1020 09:09:12.241394 12557 net.cpp:408] relu6 -> relu6
I1020 09:09:12.241585 12557 net.cpp:150] Setting up relu6
I1020 09:09:12.241592 12557 net.cpp:157] Top shape: 64 260 3 3 (149760)
I1020 09:09:12.241595 12557 net.cpp:165] Memory required for data: 185261568
I1020 09:09:12.241596 12557 layer_factory.hpp:77] Creating layer conv7
I1020 09:09:12.241601 12557 net.cpp:100] Creating Layer conv7
I1020 09:09:12.241603 12557 net.cpp:434] conv7 <- relu6
I1020 09:09:12.241607 12557 net.cpp:408] conv7 -> conv7
I1020 09:09:12.243517 12557 net.cpp:150] Setting up conv7
I1020 09:09:12.243526 12557 net.cpp:157] Top shape: 64 280 2 2 (71680)
I1020 09:09:12.243528 12557 net.cpp:165] Memory required for data: 185548288
I1020 09:09:12.243532 12557 layer_factory.hpp:77] Creating layer relu7
I1020 09:09:12.243535 12557 net.cpp:100] Creating Layer relu7
I1020 09:09:12.243537 12557 net.cpp:434] relu7 <- conv7
I1020 09:09:12.243541 12557 net.cpp:408] relu7 -> relu7
I1020 09:09:12.243657 12557 net.cpp:150] Setting up relu7
I1020 09:09:12.243664 12557 net.cpp:157] Top shape: 64 280 2 2 (71680)
I1020 09:09:12.243665 12557 net.cpp:165] Memory required for data: 185835008
I1020 09:09:12.243667 12557 layer_factory.hpp:77] Creating layer drop4
I1020 09:09:12.243670 12557 net.cpp:100] Creating Layer drop4
I1020 09:09:12.243672 12557 net.cpp:434] drop4 <- relu7
I1020 09:09:12.243675 12557 net.cpp:408] drop4 -> drop4
I1020 09:09:12.243697 12557 net.cpp:150] Setting up drop4
I1020 09:09:12.243703 12557 net.cpp:157] Top shape: 64 280 2 2 (71680)
I1020 09:09:12.243707 12557 net.cpp:165] Memory required for data: 186121728
I1020 09:09:12.243710 12557 layer_factory.hpp:77] Creating layer pool4
I1020 09:09:12.243715 12557 net.cpp:100] Creating Layer pool4
I1020 09:09:12.243719 12557 net.cpp:434] pool4 <- drop4
I1020 09:09:12.243723 12557 net.cpp:408] pool4 -> pool4
I1020 09:09:12.243749 12557 net.cpp:150] Setting up pool4
I1020 09:09:12.243753 12557 net.cpp:157] Top shape: 64 280 1 1 (17920)
I1020 09:09:12.243755 12557 net.cpp:165] Memory required for data: 186193408
I1020 09:09:12.243757 12557 layer_factory.hpp:77] Creating layer conv8
I1020 09:09:12.243762 12557 net.cpp:100] Creating Layer conv8
I1020 09:09:12.243763 12557 net.cpp:434] conv8 <- pool4
I1020 09:09:12.243767 12557 net.cpp:408] conv8 -> conv8
I1020 09:09:12.244747 12557 net.cpp:150] Setting up conv8
I1020 09:09:12.244757 12557 net.cpp:157] Top shape: 64 280 1 1 (17920)
I1020 09:09:12.244760 12557 net.cpp:165] Memory required for data: 186265088
I1020 09:09:12.244763 12557 layer_factory.hpp:77] Creating layer relu8
I1020 09:09:12.244767 12557 net.cpp:100] Creating Layer relu8
I1020 09:09:12.244770 12557 net.cpp:434] relu8 <- conv8
I1020 09:09:12.244772 12557 net.cpp:408] relu8 -> relu8
I1020 09:09:12.244896 12557 net.cpp:150] Setting up relu8
I1020 09:09:12.244901 12557 net.cpp:157] Top shape: 64 280 1 1 (17920)
I1020 09:09:12.244904 12557 net.cpp:165] Memory required for data: 186336768
I1020 09:09:12.244905 12557 layer_factory.hpp:77] Creating layer drop5
I1020 09:09:12.244909 12557 net.cpp:100] Creating Layer drop5
I1020 09:09:12.244910 12557 net.cpp:434] drop5 <- relu8
I1020 09:09:12.244915 12557 net.cpp:408] drop5 -> drop5
I1020 09:09:12.244938 12557 net.cpp:150] Setting up drop5
I1020 09:09:12.244952 12557 net.cpp:157] Top shape: 64 280 1 1 (17920)
I1020 09:09:12.244954 12557 net.cpp:165] Memory required for data: 186408448
I1020 09:09:12.244956 12557 layer_factory.hpp:77] Creating layer pool5
I1020 09:09:12.244959 12557 net.cpp:100] Creating Layer pool5
I1020 09:09:12.244961 12557 net.cpp:434] pool5 <- drop5
I1020 09:09:12.244964 12557 net.cpp:408] pool5 -> pool5
I1020 09:09:12.244990 12557 net.cpp:150] Setting up pool5
I1020 09:09:12.244994 12557 net.cpp:157] Top shape: 64 280 1 1 (17920)
I1020 09:09:12.244997 12557 net.cpp:165] Memory required for data: 186480128
I1020 09:09:12.245000 12557 layer_factory.hpp:77] Creating layer conv10
I1020 09:09:12.245008 12557 net.cpp:100] Creating Layer conv10
I1020 09:09:12.245012 12557 net.cpp:434] conv10 <- pool5
I1020 09:09:12.245015 12557 net.cpp:408] conv10 -> conv10
I1020 09:09:12.246000 12557 net.cpp:150] Setting up conv10
I1020 09:09:12.246007 12557 net.cpp:157] Top shape: 64 300 1 1 (19200)
I1020 09:09:12.246009 12557 net.cpp:165] Memory required for data: 186556928
I1020 09:09:12.246017 12557 layer_factory.hpp:77] Creating layer relu10
I1020 09:09:12.246021 12557 net.cpp:100] Creating Layer relu10
I1020 09:09:12.246023 12557 net.cpp:434] relu10 <- conv10
I1020 09:09:12.246027 12557 net.cpp:408] relu10 -> relu10
I1020 09:09:12.246223 12557 net.cpp:150] Setting up relu10
I1020 09:09:12.246230 12557 net.cpp:157] Top shape: 64 300 1 1 (19200)
I1020 09:09:12.246232 12557 net.cpp:165] Memory required for data: 186633728
I1020 09:09:12.246234 12557 layer_factory.hpp:77] Creating layer drop6
I1020 09:09:12.246238 12557 net.cpp:100] Creating Layer drop6
I1020 09:09:12.246240 12557 net.cpp:434] drop6 <- relu10
I1020 09:09:12.246244 12557 net.cpp:408] drop6 -> drop6
I1020 09:09:12.246270 12557 net.cpp:150] Setting up drop6
I1020 09:09:12.246276 12557 net.cpp:157] Top shape: 64 300 1 1 (19200)
I1020 09:09:12.246279 12557 net.cpp:165] Memory required for data: 186710528
I1020 09:09:12.246282 12557 layer_factory.hpp:77] Creating layer pool6
I1020 09:09:12.246291 12557 net.cpp:100] Creating Layer pool6
I1020 09:09:12.246295 12557 net.cpp:434] pool6 <- drop6
I1020 09:09:12.246300 12557 net.cpp:408] pool6 -> pool6
I1020 09:09:12.246330 12557 net.cpp:150] Setting up pool6
I1020 09:09:12.246335 12557 net.cpp:157] Top shape: 64 300 1 1 (19200)
I1020 09:09:12.246337 12557 net.cpp:165] Memory required for data: 186787328
I1020 09:09:12.246341 12557 layer_factory.hpp:77] Creating layer conv11
I1020 09:09:12.246351 12557 net.cpp:100] Creating Layer conv11
I1020 09:09:12.246353 12557 net.cpp:434] conv11 <- pool6
I1020 09:09:12.246358 12557 net.cpp:408] conv11 -> conv11
I1020 09:09:12.247375 12557 net.cpp:150] Setting up conv11
I1020 09:09:12.247385 12557 net.cpp:157] Top shape: 64 100 1 1 (6400)
I1020 09:09:12.247387 12557 net.cpp:165] Memory required for data: 186812928
I1020 09:09:12.247393 12557 layer_factory.hpp:77] Creating layer relu11
I1020 09:09:12.247400 12557 net.cpp:100] Creating Layer relu11
I1020 09:09:12.247403 12557 net.cpp:434] relu11 <- conv11
I1020 09:09:12.247409 12557 net.cpp:408] relu11 -> relu11
I1020 09:09:12.247527 12557 net.cpp:150] Setting up relu11
I1020 09:09:12.247534 12557 net.cpp:157] Top shape: 64 100 1 1 (6400)
I1020 09:09:12.247537 12557 net.cpp:165] Memory required for data: 186838528
I1020 09:09:12.247541 12557 layer_factory.hpp:77] Creating layer drop7
I1020 09:09:12.247547 12557 net.cpp:100] Creating Layer drop7
I1020 09:09:12.247550 12557 net.cpp:434] drop7 <- relu11
I1020 09:09:12.247555 12557 net.cpp:408] drop7 -> drop7
I1020 09:09:12.247582 12557 net.cpp:150] Setting up drop7
I1020 09:09:12.247587 12557 net.cpp:157] Top shape: 64 100 1 1 (6400)
I1020 09:09:12.247591 12557 net.cpp:165] Memory required for data: 186864128
I1020 09:09:12.247594 12557 layer_factory.hpp:77] Creating layer pool7
I1020 09:09:12.247598 12557 net.cpp:100] Creating Layer pool7
I1020 09:09:12.247602 12557 net.cpp:434] pool7 <- drop7
I1020 09:09:12.247607 12557 net.cpp:408] pool7 -> pool7
I1020 09:09:12.247633 12557 net.cpp:150] Setting up pool7
I1020 09:09:12.247639 12557 net.cpp:157] Top shape: 64 100 1 1 (6400)
I1020 09:09:12.247649 12557 net.cpp:165] Memory required for data: 186889728
I1020 09:09:12.247653 12557 layer_factory.hpp:77] Creating layer pool7_pool7_0_split
I1020 09:09:12.247658 12557 net.cpp:100] Creating Layer pool7_pool7_0_split
I1020 09:09:12.247661 12557 net.cpp:434] pool7_pool7_0_split <- pool7
I1020 09:09:12.247666 12557 net.cpp:408] pool7_pool7_0_split -> pool7_pool7_0_split_0
I1020 09:09:12.247674 12557 net.cpp:408] pool7_pool7_0_split -> pool7_pool7_0_split_1
I1020 09:09:12.247700 12557 net.cpp:150] Setting up pool7_pool7_0_split
I1020 09:09:12.247705 12557 net.cpp:157] Top shape: 64 100 1 1 (6400)
I1020 09:09:12.247709 12557 net.cpp:157] Top shape: 64 100 1 1 (6400)
I1020 09:09:12.247712 12557 net.cpp:165] Memory required for data: 186940928
I1020 09:09:12.247715 12557 layer_factory.hpp:77] Creating layer ip_c
I1020 09:09:12.247722 12557 net.cpp:100] Creating Layer ip_c
I1020 09:09:12.247725 12557 net.cpp:434] ip_c <- pool7_pool7_0_split_0
I1020 09:09:12.247730 12557 net.cpp:408] ip_c -> ip_c
I1020 09:09:12.248073 12557 net.cpp:150] Setting up ip_c
I1020 09:09:12.248080 12557 net.cpp:157] Top shape: 64 20 (1280)
I1020 09:09:12.248083 12557 net.cpp:165] Memory required for data: 186946048
I1020 09:09:12.248088 12557 layer_factory.hpp:77] Creating layer ip_c_ip_c_0_split
I1020 09:09:12.248095 12557 net.cpp:100] Creating Layer ip_c_ip_c_0_split
I1020 09:09:12.248098 12557 net.cpp:434] ip_c_ip_c_0_split <- ip_c
I1020 09:09:12.248105 12557 net.cpp:408] ip_c_ip_c_0_split -> ip_c_ip_c_0_split_0
I1020 09:09:12.248111 12557 net.cpp:408] ip_c_ip_c_0_split -> ip_c_ip_c_0_split_1
I1020 09:09:12.248137 12557 net.cpp:150] Setting up ip_c_ip_c_0_split
I1020 09:09:12.248142 12557 net.cpp:157] Top shape: 64 20 (1280)
I1020 09:09:12.248145 12557 net.cpp:157] Top shape: 64 20 (1280)
I1020 09:09:12.248148 12557 net.cpp:165] Memory required for data: 186956288
I1020 09:09:12.248152 12557 layer_factory.hpp:77] Creating layer accuracy_f
I1020 09:09:12.248157 12557 net.cpp:100] Creating Layer accuracy_f
I1020 09:09:12.248160 12557 net.cpp:434] accuracy_f <- ip_c_ip_c_0_split_0
I1020 09:09:12.248165 12557 net.cpp:434] accuracy_f <- label_coarse_data_1_split_0
I1020 09:09:12.248172 12557 net.cpp:408] accuracy_f -> accuracy_f
…
I1020 09:09:12.249148 12557 net.cpp:283] Network initialization done.
I1020 09:09:12.249353 12557 solver.cpp:181] Creating test net (#0) specified by test_net file: /home/adam/Honours/Honours-Project/cifar-100_pooling/max/leakyrelu/poolcnn_leakyrelu_test.prototxt
I1020 09:09:12.249477 12557 net.cpp:58] Initializing net from parameters: 
state {
  phase: TEST
}
layer {
  name: "data"
  type: "HDF5Data"
  top: "data"
  top: "label_coarse"
  top: "label_fine"
  hdf5_data_param {
    source: "../../../../data/cifar-100/cifar_100_caffe_hdf5/test.txt"
    batch_size: 100
  }
}
layer {
  name: "conv1"
  type: "Convolution"
  bottom: "data"
  top: "conv1"
  convolution_param {
    num_output: 192
    kernel_size: 5
    weight_filler {
      type: "xavier"
    }
  }
}
layer {
  name: "relu1"
  type: "ReLU"
  bottom: "conv1"
  top: "relu1"
  relu_param {
    negative_slope: 0.1
  }
}
layer {
  name: "drop1"
  type: "Dropout"
  bottom: "relu1"
  top: "drop1"
  dropout_param {
    dropout_ratio: 0
  }
}
layer {
  name: "pool1"
  type: "Pooling"
  bottom: "drop1"
  top: "pool1"
  pooling_param {
    pool: MAX
    kernel_size: 2
    stride: 2
  }
}
layer {
  name: "conv2"
  type: "Convolution"
  bottom: "pool1"
  top: "conv2"
  convolution_param {
    num_output: 192
    kernel_size: 1
    weight_filler {
      type: "xavier"
    }
  }
}
layer {
  name: "relu2"
  type: "ReLU"
  bottom: "conv2"
  top: "relu2"
  relu_param {
    negative_slope: 0.1
  }
}
layer {
  name: "conv3"
  type: "Convolution"
  bottom: "relu2"
  top: "conv3"
  convolution_param {
    num_output: 240
    kernel_size: 3
    weight_filler {
      type: "xavier"
    }
  }
}
layer {
  name: "relu3"
  type: "ReLU"
  bottom: "conv3"
  top: "relu3"
  relu_param {
    negative_slope: 0.1
  }
}
layer {
  name: "drop2"
  type: "Dropout"
  bottom: "relu3"
  top: "drop2"
  dropout_param {
    dropout_ratio: 0.1
  }
}
layer {
  name: "pool2"
  type: "Pooling"
  bottom: "drop2"
  top: "pool2"
  pooling_param {
    pool: MAX
    kernel_size: 2
    stride: 2
  }
}
layer {
  name: "conv4"
  type: "Convolution"
  bottom: "pool2"
  top: "conv4"
  convolution_param {
    num_output: 240
    kernel_size: 1
    weight_filler {
      type: "xavier"
    }
  }
}
layer {
  name: "relu4"
  type: "ReLU"
  bottom: "conv4"
  top: "relu4"
  relu_param {
    negative_slope: 0.1
  }
}
layer {
  name: "conv5"
  type: "Convolution"
  bottom: "relu4"
  top: "conv5"
  convolution_param {
    num_output: 260
    kernel_size: 2
    weight_filler {
      type: "xavier"
    }
  }
}
layer {
  name: "relu5"
  type: "ReLU"
  bottom: "conv5"
  top: "relu5"
  relu_param {
    negative_slope: 0.1
  }
}
layer {
  name: "drop3"
  type: "Dropout"
  bottom: "relu5"
  top: "drop3"
  dropout_param {
    dropout_ratio: 0.2
  }
}
layer {
  name: "pool3"
  type: "Pooling"
  bottom: "drop3"
  top: "pool3"
  pooling_param {
    pool: MAX
    kernel_size: 2
    stride: 2
  }
}
layer {
  name: "conv6"
  type: "Convolution"
  bottom: "pool3"
  top: "conv6"
  convolution_param {
    num_output: 260
    kernel_size: 1
    weight_filler {
      type: "xavier"
    }
  }
}
layer {
  name: "relu6"
  type: "ReLU"
  bottom: "conv6"
  top: "relu6"
  relu_param {
    negative_slope: 0.1
  }
}
layer {
  name: "conv7"
  type: "Convolution"
  bottom: "relu6"
  top: "conv7"
  convolution_param {
    num_output: 280
    kernel_size: 2
    weight_filler {
      type: "xavier"
    }
  }
}
layer {
  name: "relu7"
  type: "ReLU"
  bottom: "conv7"
  top: "relu7"
  relu_param {
    negative_slope: 0.1
  }
}
layer {
  name: "drop4"
  type: "Dropout"
  bottom: "relu7"
  top: "drop4"
  dropout_param {
    dropout_ratio: 0.3
  }
}
layer {
  name: "pool4"
  type: "Pooling"
  bottom: "drop4"
  top: "pool4"
  pooling_param {
    pool: MAX
    kernel_size: 2
    stride: 2
  }
}
layer {
  name: "conv8"
  type: "Convolution"
  bottom: "pool4"
  top: "conv8"
  convolution_param {
    num_output: 280
    kernel_size: 1
    weight_filler {
      type: "xavier"
    }
  }
}
layer {
  name: "relu8"
  type: "ReLU"
  bottom: "conv8"
  top: "relu8"
  relu_param {
    negative_slope: 0.1
  }
}
layer {
  name: "drop5"
  type: "Dropout"
  bottom: "relu8"
  top: "drop5"
  dropout_param {
    dropout_ratio: 0.4
  }
}
layer {
  name: "pool5"
  type: "Pooling"
  bottom: "drop5"
  top: "pool5"
  pooling_param {
    pool: MAX
    kernel_size: 2
    stride: 2
  }
}
layer {
  name: "conv10"
  type: "Convolution"
  bottom: "pool5"
  top: "conv10"
  convolution_param {
    num_output: 300
    kernel_size: 1
    weight_filler {
      type: "xavier"
    }
  }
}
layer {
  name: "relu10"
  type: "ReLU"
  bottom: "conv10"
  top: "relu10"
  relu_param {
    negative_slope: 0.1
  }
}
layer {
  name: "drop6"
  type: "Dropout"
  bottom: "relu10"
  top: "drop6"
  dropout_param {
    dropout_ratio: 0.5
  }
}
layer {
  name: "pool6"
  type: "Pooling"
  bottom: "drop6"
  top: "pool6"
  pooling_param {
    pool: MAX
    kernel_size: 2
    stride: 2
  }
}
layer {
  name: "conv11"
  type: "Convolution"
  bottom: "pool6"
  top: "conv11"
  convolution_param {
    num_output: 100
    kernel_size: 1
    weight_filler {
      type: "xavier"
    }
  }
}
layer {
  name: "relu11"
  type: "ReLU"
  bottom: "conv11"
  top: "relu11"
  relu_param {
    negative_slope: 0.1
  }
}
layer {
  name: "drop7"
  type: "Dropout"
  bottom: "relu11"
  top: "drop7"
  dropout_param {
    dropout_ratio: 0
  }
}
layer {
  name: "pool7"
  type: "Pooling"
  bottom: "drop7"
  top: "pool7"
  pooling_param {
    pool: MAX
    kernel_size: 2
    stride: 2
  }
}
layer {
  name: "ip_c"
  type: "InnerProduct"
  bottom: "pool7"
  top: "ip_c"
  inner_product_param {
    num_output: 20
    weight_filler {
      type: "xavier"
    }
  }
}
layer {
  name: "accuracy_f"
  type: "Accuracy"
  bottom: "ip_c"
  bottom: "label_coarse"
  top: "accuracy_f"
}
layer {
  name: "loss_c"
  type: "SoftmaxWithLoss"
  bottom: "ip_c"
  bottom: "label_coarse"
  top: "loss_c"
}
layer {
  name: "ip_f"
  type: "InnerProduct"
  bottom: "pool7"
  top: "ip_f"
  inner_product_param {
    num_output: 100
    weight_filler {
      type: "xavier"
    }
  }
}
layer {
  name: "accuracy"
  type: "Accuracy"
  bottom: "ip_f"
  bottom: "label_fine"
  top: "accuracy"
}
layer {
  name: "loss_f"
  type: "SoftmaxWithLoss"
  bottom: "ip_f"
  bottom: "label_fine"
  top: "loss_f"
}
I1020 09:09:12.249593 12557 layer_factory.hpp:77] Creating layer data
I1020 09:09:12.249599 12557 net.cpp:100] Creating Layer data
I1020 09:09:12.249603 12557 net.cpp:408] data -> data
I1020 09:09:12.249610 12557 net.cpp:408] data -> label_coarse
I1020 09:09:12.249616 12557 net.cpp:408] data -> label_fine
I1020 09:09:12.249622 12557 hdf5_data_layer.cpp:79] Loading list of HDF5 filenames from: ../../../../data/cifar-100/cifar_100_caffe_hdf5/test.txt
I1020 09:09:12.249640 12557 hdf5_data_layer.cpp:93] Number of HDF5 files: 1
I1020 09:09:12.502912 12557 net.cpp:150] Setting up data
I1020 09:09:12.502935 12557 net.cpp:157] Top shape: 100 3 32 32 (307200)
I1020 09:09:12.502957 12557 net.cpp:157] Top shape: 100 (100)
I1020 09:09:12.502960 12557 net.cpp:157] Top shape: 100 (100)
I1020 09:09:12.502962 12557 net.cpp:165] Memory required for data: 1229600
I1020 09:09:12.502967 12557 layer_factory.hpp:77] Creating layer label_coarse_data_1_split
I1020 09:09:12.502979 12557 net.cpp:100] Creating Layer label_coarse_data_1_split
I1020 09:09:12.502984 12557 net.cpp:434] label_coarse_data_1_split <- label_coarse
I1020 09:09:12.502990 12557 net.cpp:408] label_coarse_data_1_split -> label_coarse_data_1_split_0
I1020 09:09:12.502998 12557 net.cpp:408] label_coarse_data_1_split -> label_coarse_data_1_split_1
I1020 09:09:12.503026 12557 net.cpp:150] Setting up label_coarse_data_1_split
I1020 09:09:12.503031 12557 net.cpp:157] Top shape: 100 (100)
I1020 09:09:12.503032 12557 net.cpp:157] Top shape: 100 (100)
I1020 09:09:12.503033 12557 net.cpp:165] Memory required for data: 1230400
I1020 09:09:12.503036 12557 layer_factory.hpp:77] Creating layer label_fine_data_2_split
I1020 09:09:12.503039 12557 net.cpp:100] Creating Layer label_fine_data_2_split
I1020 09:09:12.503041 12557 net.cpp:434] label_fine_data_2_split <- label_fine
I1020 09:09:12.503044 12557 net.cpp:408] label_fine_data_2_split -> label_fine_data_2_split_0
I1020 09:09:12.503047 12557 net.cpp:408] label_fine_data_2_split -> label_fine_data_2_split_1
I1020 09:09:12.503070 12557 net.cpp:150] Setting up label_fine_data_2_split
I1020 09:09:12.503073 12557 net.cpp:157] Top shape: 100 (100)
I1020 09:09:12.503075 12557 net.cpp:157] Top shape: 100 (100)
I1020 09:09:12.503077 12557 net.cpp:165] Memory required for data: 1231200
I1020 09:09:12.503078 12557 layer_factory.hpp:77] Creating layer conv1
I1020 09:09:12.503085 12557 net.cpp:100] Creating Layer conv1
I1020 09:09:12.503087 12557 net.cpp:434] conv1 <- data
I1020 09:09:12.503092 12557 net.cpp:408] conv1 -> conv1
I1020 09:09:12.503911 12557 net.cpp:150] Setting up conv1
I1020 09:09:12.503917 12557 net.cpp:157] Top shape: 100 192 28 28 (15052800)
I1020 09:09:12.503919 12557 net.cpp:165] Memory required for data: 61442400
I1020 09:09:12.503926 12557 layer_factory.hpp:77] Creating layer relu1
I1020 09:09:12.503931 12557 net.cpp:100] Creating Layer relu1
I1020 09:09:12.503933 12557 net.cpp:434] relu1 <- conv1
I1020 09:09:12.503937 12557 net.cpp:408] relu1 -> relu1
I1020 09:09:12.504056 12557 net.cpp:150] Setting up relu1
I1020 09:09:12.504061 12557 net.cpp:157] Top shape: 100 192 28 28 (15052800)
I1020 09:09:12.504063 12557 net.cpp:165] Memory required for data: 121653600
I1020 09:09:12.504065 12557 layer_factory.hpp:77] Creating layer drop1
I1020 09:09:12.504068 12557 net.cpp:100] Creating Layer drop1
I1020 09:09:12.504071 12557 net.cpp:434] drop1 <- relu1
I1020 09:09:12.504073 12557 net.cpp:408] drop1 -> drop1
I1020 09:09:12.504096 12557 net.cpp:150] Setting up drop1
I1020 09:09:12.504101 12557 net.cpp:157] Top shape: 100 192 28 28 (15052800)
I1020 09:09:12.504102 12557 net.cpp:165] Memory required for data: 181864800
I1020 09:09:12.504104 12557 layer_factory.hpp:77] Creating layer pool1
I1020 09:09:12.504108 12557 net.cpp:100] Creating Layer pool1
I1020 09:09:12.504111 12557 net.cpp:434] pool1 <- drop1
I1020 09:09:12.504113 12557 net.cpp:408] pool1 -> pool1
I1020 09:09:12.504137 12557 net.cpp:150] Setting up pool1
I1020 09:09:12.504140 12557 net.cpp:157] Top shape: 100 192 14 14 (3763200)
I1020 09:09:12.504142 12557 net.cpp:165] Memory required for data: 196917600
I1020 09:09:12.504143 12557 layer_factory.hpp:77] Creating layer conv2
I1020 09:09:12.504148 12557 net.cpp:100] Creating Layer conv2
I1020 09:09:12.504149 12557 net.cpp:434] conv2 <- pool1
I1020 09:09:12.504153 12557 net.cpp:408] conv2 -> conv2
I1020 09:09:12.504914 12557 net.cpp:150] Setting up conv2
I1020 09:09:12.504921 12557 net.cpp:157] Top shape: 100 192 14 14 (3763200)
I1020 09:09:12.504923 12557 net.cpp:165] Memory required for data: 211970400
I1020 09:09:12.504928 12557 layer_factory.hpp:77] Creating layer relu2
I1020 09:09:12.504932 12557 net.cpp:100] Creating Layer relu2
I1020 09:09:12.504943 12557 net.cpp:434] relu2 <- conv2
I1020 09:09:12.504947 12557 net.cpp:408] relu2 -> relu2
I1020 09:09:12.505141 12557 net.cpp:150] Setting up relu2
I1020 09:09:12.505148 12557 net.cpp:157] Top shape: 100 192 14 14 (3763200)
I1020 09:09:12.505151 12557 net.cpp:165] Memory required for data: 227023200
I1020 09:09:12.505152 12557 layer_factory.hpp:77] Creating layer conv3
I1020 09:09:12.505156 12557 net.cpp:100] Creating Layer conv3
I1020 09:09:12.505159 12557 net.cpp:434] conv3 <- relu2
I1020 09:09:12.505162 12557 net.cpp:408] conv3 -> conv3
I1020 09:09:12.507616 12557 net.cpp:150] Setting up conv3
I1020 09:09:12.507623 12557 net.cpp:157] Top shape: 100 240 12 12 (3456000)
I1020 09:09:12.507625 12557 net.cpp:165] Memory required for data: 240847200
I1020 09:09:12.507630 12557 layer_factory.hpp:77] Creating layer relu3
I1020 09:09:12.507634 12557 net.cpp:100] Creating Layer relu3
I1020 09:09:12.507637 12557 net.cpp:434] relu3 <- conv3
I1020 09:09:12.507639 12557 net.cpp:408] relu3 -> relu3
I1020 09:09:12.507750 12557 net.cpp:150] Setting up relu3
I1020 09:09:12.507755 12557 net.cpp:157] Top shape: 100 240 12 12 (3456000)
I1020 09:09:12.507757 12557 net.cpp:165] Memory required for data: 254671200
I1020 09:09:12.507760 12557 layer_factory.hpp:77] Creating layer drop2
I1020 09:09:12.507762 12557 net.cpp:100] Creating Layer drop2
I1020 09:09:12.507764 12557 net.cpp:434] drop2 <- relu3
I1020 09:09:12.507767 12557 net.cpp:408] drop2 -> drop2
I1020 09:09:12.507791 12557 net.cpp:150] Setting up drop2
I1020 09:09:12.507796 12557 net.cpp:157] Top shape: 100 240 12 12 (3456000)
I1020 09:09:12.507797 12557 net.cpp:165] Memory required for data: 268495200
I1020 09:09:12.507798 12557 layer_factory.hpp:77] Creating layer pool2
I1020 09:09:12.507802 12557 net.cpp:100] Creating Layer pool2
I1020 09:09:12.507805 12557 net.cpp:434] pool2 <- drop2
I1020 09:09:12.507807 12557 net.cpp:408] pool2 -> pool2
I1020 09:09:12.507832 12557 net.cpp:150] Setting up pool2
I1020 09:09:12.507835 12557 net.cpp:157] Top shape: 100 240 6 6 (864000)
I1020 09:09:12.507838 12557 net.cpp:165] Memory required for data: 271951200
I1020 09:09:12.507838 12557 layer_factory.hpp:77] Creating layer conv4
I1020 09:09:12.507843 12557 net.cpp:100] Creating Layer conv4
I1020 09:09:12.507845 12557 net.cpp:434] conv4 <- pool2
I1020 09:09:12.507848 12557 net.cpp:408] conv4 -> conv4
I1020 09:09:12.508935 12557 net.cpp:150] Setting up conv4
I1020 09:09:12.508944 12557 net.cpp:157] Top shape: 100 240 6 6 (864000)
I1020 09:09:12.508947 12557 net.cpp:165] Memory required for data: 275407200
I1020 09:09:12.508951 12557 layer_factory.hpp:77] Creating layer relu4
I1020 09:09:12.508955 12557 net.cpp:100] Creating Layer relu4
I1020 09:09:12.508957 12557 net.cpp:434] relu4 <- conv4
I1020 09:09:12.508960 12557 net.cpp:408] relu4 -> relu4
I1020 09:09:12.509075 12557 net.cpp:150] Setting up relu4
I1020 09:09:12.509080 12557 net.cpp:157] Top shape: 100 240 6 6 (864000)
I1020 09:09:12.509083 12557 net.cpp:165] Memory required for data: 278863200
I1020 09:09:12.509085 12557 layer_factory.hpp:77] Creating layer conv5
I1020 09:09:12.509090 12557 net.cpp:100] Creating Layer conv5
I1020 09:09:12.509093 12557 net.cpp:434] conv5 <- relu4
I1020 09:09:12.509095 12557 net.cpp:408] conv5 -> conv5
I1020 09:09:12.510856 12557 net.cpp:150] Setting up conv5
I1020 09:09:12.510864 12557 net.cpp:157] Top shape: 100 260 5 5 (650000)
I1020 09:09:12.510866 12557 net.cpp:165] Memory required for data: 281463200
I1020 09:09:12.510872 12557 layer_factory.hpp:77] Creating layer relu5
I1020 09:09:12.510877 12557 net.cpp:100] Creating Layer relu5
I1020 09:09:12.510880 12557 net.cpp:434] relu5 <- conv5
I1020 09:09:12.510884 12557 net.cpp:408] relu5 -> relu5
I1020 09:09:12.511144 12557 net.cpp:150] Setting up relu5
I1020 09:09:12.511152 12557 net.cpp:157] Top shape: 100 260 5 5 (650000)
I1020 09:09:12.511154 12557 net.cpp:165] Memory required for data: 284063200
I1020 09:09:12.511157 12557 layer_factory.hpp:77] Creating layer drop3
I1020 09:09:12.511160 12557 net.cpp:100] Creating Layer drop3
I1020 09:09:12.511163 12557 net.cpp:434] drop3 <- relu5
I1020 09:09:12.511175 12557 net.cpp:408] drop3 -> drop3
I1020 09:09:12.511204 12557 net.cpp:150] Setting up drop3
I1020 09:09:12.511207 12557 net.cpp:157] Top shape: 100 260 5 5 (650000)
I1020 09:09:12.511211 12557 net.cpp:165] Memory required for data: 286663200
I1020 09:09:12.511215 12557 layer_factory.hpp:77] Creating layer pool3
I1020 09:09:12.511219 12557 net.cpp:100] Creating Layer pool3
I1020 09:09:12.511224 12557 net.cpp:434] pool3 <- drop3
I1020 09:09:12.511227 12557 net.cpp:408] pool3 -> pool3
I1020 09:09:12.511253 12557 net.cpp:150] Setting up pool3
I1020 09:09:12.511257 12557 net.cpp:157] Top shape: 100 260 3 3 (234000)
I1020 09:09:12.511260 12557 net.cpp:165] Memory required for data: 287599200
I1020 09:09:12.511261 12557 layer_factory.hpp:77] Creating layer conv6
I1020 09:09:12.511266 12557 net.cpp:100] Creating Layer conv6
I1020 09:09:12.511268 12557 net.cpp:434] conv6 <- pool3
I1020 09:09:12.511271 12557 net.cpp:408] conv6 -> conv6
I1020 09:09:12.512403 12557 net.cpp:150] Setting up conv6
I1020 09:09:12.512411 12557 net.cpp:157] Top shape: 100 260 3 3 (234000)
I1020 09:09:12.512414 12557 net.cpp:165] Memory required for data: 288535200
I1020 09:09:12.512418 12557 layer_factory.hpp:77] Creating layer relu6
I1020 09:09:12.512421 12557 net.cpp:100] Creating Layer relu6
I1020 09:09:12.512424 12557 net.cpp:434] relu6 <- conv6
I1020 09:09:12.512428 12557 net.cpp:408] relu6 -> relu6
I1020 09:09:12.512544 12557 net.cpp:150] Setting up relu6
I1020 09:09:12.512549 12557 net.cpp:157] Top shape: 100 260 3 3 (234000)
I1020 09:09:12.512552 12557 net.cpp:165] Memory required for data: 289471200
I1020 09:09:12.512554 12557 layer_factory.hpp:77] Creating layer conv7
I1020 09:09:12.512558 12557 net.cpp:100] Creating Layer conv7
I1020 09:09:12.512562 12557 net.cpp:434] conv7 <- relu6
I1020 09:09:12.512565 12557 net.cpp:408] conv7 -> conv7
I1020 09:09:12.514494 12557 net.cpp:150] Setting up conv7
I1020 09:09:12.514503 12557 net.cpp:157] Top shape: 100 280 2 2 (112000)
I1020 09:09:12.514504 12557 net.cpp:165] Memory required for data: 289919200
I1020 09:09:12.514509 12557 layer_factory.hpp:77] Creating layer relu7
I1020 09:09:12.514513 12557 net.cpp:100] Creating Layer relu7
I1020 09:09:12.514516 12557 net.cpp:434] relu7 <- conv7
I1020 09:09:12.514519 12557 net.cpp:408] relu7 -> relu7
I1020 09:09:12.514638 12557 net.cpp:150] Setting up relu7
I1020 09:09:12.514643 12557 net.cpp:157] Top shape: 100 280 2 2 (112000)
I1020 09:09:12.514644 12557 net.cpp:165] Memory required for data: 290367200
I1020 09:09:12.514647 12557 layer_factory.hpp:77] Creating layer drop4
I1020 09:09:12.514653 12557 net.cpp:100] Creating Layer drop4
I1020 09:09:12.514657 12557 net.cpp:434] drop4 <- relu7
I1020 09:09:12.514662 12557 net.cpp:408] drop4 -> drop4
I1020 09:09:12.514688 12557 net.cpp:150] Setting up drop4
I1020 09:09:12.514694 12557 net.cpp:157] Top shape: 100 280 2 2 (112000)
I1020 09:09:12.514696 12557 net.cpp:165] Memory required for data: 290815200
I1020 09:09:12.514698 12557 layer_factory.hpp:77] Creating layer pool4
I1020 09:09:12.514701 12557 net.cpp:100] Creating Layer pool4
I1020 09:09:12.514703 12557 net.cpp:434] pool4 <- drop4
I1020 09:09:12.514706 12557 net.cpp:408] pool4 -> pool4
I1020 09:09:12.514730 12557 net.cpp:150] Setting up pool4
I1020 09:09:12.514735 12557 net.cpp:157] Top shape: 100 280 1 1 (28000)
I1020 09:09:12.514740 12557 net.cpp:165] Memory required for data: 290927200
I1020 09:09:12.514741 12557 layer_factory.hpp:77] Creating layer conv8
I1020 09:09:12.514749 12557 net.cpp:100] Creating Layer conv8
I1020 09:09:12.514751 12557 net.cpp:434] conv8 <- pool4
I1020 09:09:12.514755 12557 net.cpp:408] conv8 -> conv8
I1020 09:09:12.515732 12557 net.cpp:150] Setting up conv8
I1020 09:09:12.515743 12557 net.cpp:157] Top shape: 100 280 1 1 (28000)
I1020 09:09:12.515745 12557 net.cpp:165] Memory required for data: 291039200
I1020 09:09:12.515753 12557 layer_factory.hpp:77] Creating layer relu8
I1020 09:09:12.515760 12557 net.cpp:100] Creating Layer relu8
I1020 09:09:12.515763 12557 net.cpp:434] relu8 <- conv8
I1020 09:09:12.515780 12557 net.cpp:408] relu8 -> relu8
I1020 09:09:12.515991 12557 net.cpp:150] Setting up relu8
I1020 09:09:12.516000 12557 net.cpp:157] Top shape: 100 280 1 1 (28000)
I1020 09:09:12.516001 12557 net.cpp:165] Memory required for data: 291151200
I1020 09:09:12.516003 12557 layer_factory.hpp:77] Creating layer drop5
I1020 09:09:12.516010 12557 net.cpp:100] Creating Layer drop5
I1020 09:09:12.516013 12557 net.cpp:434] drop5 <- relu8
I1020 09:09:12.516019 12557 net.cpp:408] drop5 -> drop5
I1020 09:09:12.516052 12557 net.cpp:150] Setting up drop5
I1020 09:09:12.516057 12557 net.cpp:157] Top shape: 100 280 1 1 (28000)
I1020 09:09:12.516059 12557 net.cpp:165] Memory required for data: 291263200
I1020 09:09:12.516062 12557 layer_factory.hpp:77] Creating layer pool5
I1020 09:09:12.516068 12557 net.cpp:100] Creating Layer pool5
I1020 09:09:12.516072 12557 net.cpp:434] pool5 <- drop5
I1020 09:09:12.516078 12557 net.cpp:408] pool5 -> pool5
I1020 09:09:12.516111 12557 net.cpp:150] Setting up pool5
I1020 09:09:12.516116 12557 net.cpp:157] Top shape: 100 280 1 1 (28000)
I1020 09:09:12.516119 12557 net.cpp:165] Memory required for data: 291375200
I1020 09:09:12.516122 12557 layer_factory.hpp:77] Creating layer conv10
I1020 09:09:12.516130 12557 net.cpp:100] Creating Layer conv10
I1020 09:09:12.516134 12557 net.cpp:434] conv10 <- pool5
I1020 09:09:12.516140 12557 net.cpp:408] conv10 -> conv10
I1020 09:09:12.517510 12557 net.cpp:150] Setting up conv10
I1020 09:09:12.517518 12557 net.cpp:157] Top shape: 100 300 1 1 (30000)
I1020 09:09:12.517520 12557 net.cpp:165] Memory required for data: 291495200
I1020 09:09:12.517529 12557 layer_factory.hpp:77] Creating layer relu10
I1020 09:09:12.517532 12557 net.cpp:100] Creating Layer relu10
I1020 09:09:12.517534 12557 net.cpp:434] relu10 <- conv10
I1020 09:09:12.517537 12557 net.cpp:408] relu10 -> relu10
I1020 09:09:12.517657 12557 net.cpp:150] Setting up relu10
I1020 09:09:12.517663 12557 net.cpp:157] Top shape: 100 300 1 1 (30000)
I1020 09:09:12.517664 12557 net.cpp:165] Memory required for data: 291615200
I1020 09:09:12.517666 12557 layer_factory.hpp:77] Creating layer drop6
I1020 09:09:12.517670 12557 net.cpp:100] Creating Layer drop6
I1020 09:09:12.517673 12557 net.cpp:434] drop6 <- relu10
I1020 09:09:12.517674 12557 net.cpp:408] drop6 -> drop6
I1020 09:09:12.517699 12557 net.cpp:150] Setting up drop6
I1020 09:09:12.517704 12557 net.cpp:157] Top shape: 100 300 1 1 (30000)
I1020 09:09:12.517705 12557 net.cpp:165] Memory required for data: 291735200
I1020 09:09:12.517709 12557 layer_factory.hpp:77] Creating layer pool6
I1020 09:09:12.517719 12557 net.cpp:100] Creating Layer pool6
I1020 09:09:12.517724 12557 net.cpp:434] pool6 <- drop6
I1020 09:09:12.517727 12557 net.cpp:408] pool6 -> pool6
I1020 09:09:12.517760 12557 net.cpp:150] Setting up pool6
I1020 09:09:12.517763 12557 net.cpp:157] Top shape: 100 300 1 1 (30000)
I1020 09:09:12.517765 12557 net.cpp:165] Memory required for data: 291855200
I1020 09:09:12.517768 12557 layer_factory.hpp:77] Creating layer conv11
I1020 09:09:12.517774 12557 net.cpp:100] Creating Layer conv11
I1020 09:09:12.517778 12557 net.cpp:434] conv11 <- pool6
I1020 09:09:12.517786 12557 net.cpp:408] conv11 -> conv11
I1020 09:09:12.518527 12557 net.cpp:150] Setting up conv11
I1020 09:09:12.518535 12557 net.cpp:157] Top shape: 100 100 1 1 (10000)
I1020 09:09:12.518539 12557 net.cpp:165] Memory required for data: 291895200
I1020 09:09:12.518546 12557 layer_factory.hpp:77] Creating layer relu11
I1020 09:09:12.518553 12557 net.cpp:100] Creating Layer relu11
I1020 09:09:12.518556 12557 net.cpp:434] relu11 <- conv11
I1020 09:09:12.518563 12557 net.cpp:408] relu11 -> relu11
I1020 09:09:12.518681 12557 net.cpp:150] Setting up relu11
I1020 09:09:12.518687 12557 net.cpp:157] Top shape: 100 100 1 1 (10000)
I1020 09:09:12.518689 12557 net.cpp:165] Memory required for data: 291935200
I1020 09:09:12.518692 12557 layer_factory.hpp:77] Creating layer drop7
I1020 09:09:12.518698 12557 net.cpp:100] Creating Layer drop7
I1020 09:09:12.518702 12557 net.cpp:434] drop7 <- relu11
I1020 09:09:12.518718 12557 net.cpp:408] drop7 -> drop7
I1020 09:09:12.518749 12557 net.cpp:150] Setting up drop7
I1020 09:09:12.518754 12557 net.cpp:157] Top shape: 100 100 1 1 (10000)
I1020 09:09:12.518756 12557 net.cpp:165] Memory required for data: 291975200
I1020 09:09:12.518759 12557 layer_factory.hpp:77] Creating layer pool7
I1020 09:09:12.518764 12557 net.cpp:100] Creating Layer pool7
I1020 09:09:12.518767 12557 net.cpp:434] pool7 <- drop7
I1020 09:09:12.518774 12557 net.cpp:408] pool7 -> pool7
I1020 09:09:12.518803 12557 net.cpp:150] Setting up pool7
I1020 09:09:12.518808 12557 net.cpp:157] Top shape: 100 100 1 1 (10000)
I1020 09:09:12.518810 12557 net.cpp:165] Memory required for data: 292015200
I1020 09:09:12.518815 12557 layer_factory.hpp:77] Creating layer pool7_pool7_0_split
I1020 09:09:12.518820 12557 net.cpp:100] Creating Layer pool7_pool7_0_split
I1020 09:09:12.518823 12557 net.cpp:434] pool7_pool7_0_split <- pool7
I1020 09:09:12.518828 12557 net.cpp:408] pool7_pool7_0_split -> pool7_pool7_0_split_0
I1020 09:09:12.518836 12557 net.cpp:408] pool7_pool7_0_split -> pool7_pool7_0_split_1
I1020 09:09:12.518864 12557 net.cpp:150] Setting up pool7_pool7_0_split
I1020 09:09:12.518869 12557 net.cpp:157] Top shape: 100 100 1 1 (10000)
I1020 09:09:12.518872 12557 net.cpp:157] Top shape: 100 100 1 1 (10000)
I1020 09:09:12.518877 12557 net.cpp:165] Memory required for data: 292095200
I1020 09:09:12.518879 12557 layer_factory.hpp:77] Creating layer ip_c
I1020 09:09:12.518885 12557 net.cpp:100] Creating Layer ip_c
I1020 09:09:12.518889 12557 net.cpp:434] ip_c <- pool7_pool7_0_split_0
I1020 09:09:12.518895 12557 net.cpp:408] ip_c -> ip_c
I1020 09:09:12.518982 12557 net.cpp:150] Setting up ip_c
I1020 09:09:12.518986 12557 net.cpp:157] Top shape: 100 20 (2000)
I1020 09:09:12.518988 12557 net.cpp:165] Memory required for data: 292103200
I1020 09:09:12.518996 12557 layer_factory.hpp:77] Creating layer ip_c_ip_c_0_split
I1020 09:09:12.519001 12557 net.cpp:100] Creating Layer ip_c_ip_c_0_split
I1020 09:09:12.519004 12557 net.cpp:434] ip_c_ip_c_0_split <- ip_c
I1020 09:09:12.519011 12557 net.cpp:408] ip_c_ip_c_0_split -> ip_c_ip_c_0_split_0
I1020 09:09:12.519017 12557 net.cpp:408] ip_c_ip_c_0_split -> ip_c_ip_c_0_split_1
I1020 09:09:12.519047 12557 net.cpp:150] Setting up ip_c_ip_c_0_split
I1020 09:09:12.519052 12557 net.cpp:157] Top shape: 100 20 (2000)
I1020 09:09:12.519054 12557 net.cpp:157] Top shape: 100 20 (2000)
I1020 09:09:12.519057 12557 net.cpp:165] Memory required for data: 292119200
I1020 09:09:12.519060 12557 layer_factory.hpp:77] Creating layer accuracy_f
I1020 09:09:12.519065 12557 net.cpp:100] Creating Layer accuracy_f
I1020 09:09:12.519069 12557 net.cpp:434] accuracy_f <- ip_c_ip_c_0_split_0
I1020 09:09:12.519075 12557 net.cpp:434] accuracy_f <- label_coarse_data_1_split_0
I1020 09:09:12.519080 12557 net.cpp:408] accuracy_f -> accuracy_f
…
