…
  level: 0
  stage: ""
}
type: "Adam"
I1017 23:47:36.978173  9391 solver.cpp:81] Creating training net from train_net file: /home/adam/Honours/Honours-Project/cifar-100_pooling/max/leakyrelu/poolcnn_leakyrelu_train.prototxt
I1017 23:47:36.978487  9391 net.cpp:58] Initializing net from parameters: 
state {
  phase: TRAIN
  level: 0
  stage: ""
}
layer {
  name: "data"
  type: "HDF5Data"
  top: "data"
  top: "label_coarse"
  top: "label_fine"
  hdf5_data_param {
    source: "../../../../data/cifar-100/cifar_100_caffe_hdf5/train.txt"
    batch_size: 64
  }
}
layer {
  name: "conv1"
  type: "Convolution"
  bottom: "data"
  top: "conv1"
  convolution_param {
    num_output: 192
    kernel_size: 5
    weight_filler {
      type: "xavier"
    }
  }
}
layer {
  name: "pool1"
  type: "Pooling"
  bottom: "conv1"
  top: "pool1"
  pooling_param {
    pool: MAX
    kernel_size: 2
    stride: 2
  }
}
layer {
  name: "drop1"
  type: "Dropout"
  bottom: "pool1"
  top: "drop1"
  dropout_param {
    dropout_ratio: 0
  }
}
layer {
  name: "relu1"
  type: "ReLU"
  bottom: "drop1"
  top: "relu1"
  relu_param {
    negative_slope: 0.01
  }
}
layer {
  name: "conv2"
  type: "Convolution"
  bottom: "relu1"
  top: "conv2"
  convolution_param {
    num_output: 192
    kernel_size: 1
    weight_filler {
      type: "xavier"
    }
  }
}
layer {
  name: "conv3"
  type: "Convolution"
  bottom: "conv2"
  top: "conv3"
  convolution_param {
    num_output: 240
    kernel_size: 3
    weight_filler {
      type: "xavier"
    }
  }
}
layer {
  name: "pool2"
  type: "Pooling"
  bottom: "conv3"
  top: "pool2"
  pooling_param {
    pool: MAX
    kernel_size: 2
    stride: 2
  }
}
layer {
  name: "drop2"
  type: "Dropout"
  bottom: "pool2"
  top: "drop2"
  dropout_param {
    dropout_ratio: 0.1
  }
}
layer {
  name: "relu2"
  type: "ReLU"
  bottom: "drop2"
  top: "relu2"
  relu_param {
    negative_slope: 0.01
  }
}
layer {
  name: "conv4"
  type: "Convolution"
  bottom: "relu2"
  top: "conv4"
  convolution_param {
    num_output: 240
    kernel_size: 1
    weight_filler {
      type: "xavier"
    }
  }
}
layer {
  name: "conv5"
  type: "Convolution"
  bottom: "conv4"
  top: "conv5"
  convolution_param {
    num_output: 260
    kernel_size: 2
    weight_filler {
      type: "xavier"
    }
  }
}
layer {
  name: "pool3"
  type: "Pooling"
  bottom: "conv5"
  top: "pool3"
  pooling_param {
    pool: MAX
    kernel_size: 2
    stride: 2
  }
}
layer {
  name: "drop3"
  type: "Dropout"
  bottom: "pool3"
  top: "drop3"
  dropout_param {
    dropout_ratio: 0.2
  }
}
layer {
  name: "relu3"
  type: "ReLU"
  bottom: "drop3"
  top: "relu3"
  relu_param {
    negative_slope: 0.01
  }
}
layer {
  name: "conv6"
  type: "Convolution"
  bottom: "relu3"
  top: "conv6"
  convolution_param {
    num_output: 260
    kernel_size: 1
    weight_filler {
      type: "xavier"
    }
  }
}
layer {
  name: "conv7"
  type: "Convolution"
  bottom: "conv6"
  top: "conv7"
  convolution_param {
    num_output: 280
    kernel_size: 2
    weight_filler {
      type: "xavier"
    }
  }
}
layer {
  name: "pool4"
  type: "Pooling"
  bottom: "conv7"
  top: "pool4"
  pooling_param {
    pool: MAX
    kernel_size: 2
    stride: 2
  }
}
layer {
  name: "drop4"
  type: "Dropout"
  bottom: "pool4"
  top: "drop4"
  dropout_param {
    dropout_ratio: 0.3
  }
}
layer {
  name: "relu4"
  type: "ReLU"
  bottom: "drop4"
  top: "relu4"
  relu_param {
    negative_slope: 0.01
  }
}
layer {
  name: "conv8"
  type: "Convolution"
  bottom: "relu4"
  top: "conv8"
  convolution_param {
    num_output: 280
    kernel_size: 1
    weight_filler {
      type: "xavier"
    }
  }
}
layer {
  name: "pool5"
  type: "Pooling"
  bottom: "conv8"
  top: "pool5"
  pooling_param {
    pool: MAX
    kernel_size: 2
    stride: 2
  }
}
layer {
  name: "drop5"
  type: "Dropout"
  bottom: "pool5"
  top: "drop5"
  dropout_param {
    dropout_ratio: 0.4
  }
}
layer {
  name: "relu5"
  type: "ReLU"
  bottom: "drop5"
  top: "relu5"
  relu_param {
    negative_slope: 0.01
  }
}
layer {
  name: "conv10"
  type: "Convolution"
  bottom: "relu5"
  top: "conv10"
  convolution_param {
    num_output: 300
    kernel_size: 1
    weight_filler {
      type: "xavier"
    }
  }
}
layer {
  name: "pool6"
  type: "Pooling"
  bottom: "conv10"
  top: "pool6"
  pooling_param {
    pool: MAX
    kernel_size: 2
    stride: 2
  }
}
layer {
  name: "drop6"
  type: "Dropout"
  bottom: "pool6"
  top: "drop6"
  dropout_param {
    dropout_ratio: 0.5
  }
}
layer {
  name: "relu6"
  type: "ReLU"
  bottom: "drop6"
  top: "relu6"
  relu_param {
    negative_slope: 0.01
  }
}
layer {
  name: "conv11"
  type: "Convolution"
  bottom: "relu6"
  top: "conv11"
  convolution_param {
    num_output: 100
    kernel_size: 1
    weight_filler {
      type: "xavier"
    }
  }
}
layer {
  name: "pool7"
  type: "Pooling"
  bottom: "conv11"
  top: "pool7"
  pooling_param {
    pool: MAX
    kernel_size: 2
    stride: 2
  }
}
layer {
  name: "drop7"
  type: "Dropout"
  bottom: "pool7"
  top: "drop7"
  dropout_param {
    dropout_ratio: 0
  }
}
layer {
  name: "relu7"
  type: "ReLU"
  bottom: "drop7"
  top: "relu7"
  relu_param {
    negative_slope: 0.01
  }
}
layer {
  name: "pool"
  type: "Pooling"
  bottom: "relu7"
  top: "pool"
  pooling_param {
    pool: AVE
    global_pooling: true
  }
}
layer {
  name: "flatten"
  type: "Flatten"
  bottom: "pool"
  top: "flatten"
}
layer {
  name: "ip_c"
  type: "InnerProduct"
  bottom: "flatten"
  top: "ip_c"
  inner_product_param {
    num_output: 20
    weight_filler {
      type: "xavier"
    }
  }
}
layer {
  name: "accuracy_f"
  type: "Accuracy"
  bottom: "ip_c"
  bottom: "label_coarse"
  top: "accuracy_f"
}
layer {
  name: "loss_c"
  type: "SoftmaxWithLoss"
  bottom: "ip_c"
  bottom: "label_coarse"
  top: "loss_c"
}
layer {
  name: "ip_f"
  type: "InnerProduct"
  bottom: "flatten"
  top: "ip_f"
  inner_product_param {
    num_output: 100
    weight_filler {
      type: "xavier"
    }
  }
}
layer {
  name: "accuracy"
  type: "Accuracy"
  bottom: "ip_f"
  bottom: "label_fine"
  top: "accuracy"
}
layer {
  name: "loss_f"
  type: "SoftmaxWithLoss"
  bottom: "ip_f"
  bottom: "label_fine"
  top: "loss_f"
}
I1017 23:47:36.978629  9391 layer_factory.hpp:77] Creating layer data
I1017 23:47:36.978639  9391 net.cpp:100] Creating Layer data
I1017 23:47:36.978643  9391 net.cpp:408] data -> data
I1017 23:47:36.978657  9391 net.cpp:408] data -> label_coarse
I1017 23:47:36.978665  9391 net.cpp:408] data -> label_fine
I1017 23:47:36.978670  9391 hdf5_data_layer.cpp:79] Loading list of HDF5 filenames from: ../../../../data/cifar-100/cifar_100_caffe_hdf5/train.txt
I1017 23:47:36.978690  9391 hdf5_data_layer.cpp:93] Number of HDF5 files: 1
I1017 23:47:36.979310  9391 hdf5.cpp:35] Datatype class: H5T_INTEGER
I1017 23:47:38.666625  9391 net.cpp:150] Setting up data
I1017 23:47:38.666647  9391 net.cpp:157] Top shape: 64 3 32 32 (196608)
I1017 23:47:38.666651  9391 net.cpp:157] Top shape: 64 (64)
I1017 23:47:38.666652  9391 net.cpp:157] Top shape: 64 (64)
I1017 23:47:38.666654  9391 net.cpp:165] Memory required for data: 786944
I1017 23:47:38.666661  9391 layer_factory.hpp:77] Creating layer label_coarse_data_1_split
I1017 23:47:38.666669  9391 net.cpp:100] Creating Layer label_coarse_data_1_split
I1017 23:47:38.666674  9391 net.cpp:434] label_coarse_data_1_split <- label_coarse
I1017 23:47:38.666684  9391 net.cpp:408] label_coarse_data_1_split -> label_coarse_data_1_split_0
I1017 23:47:38.666692  9391 net.cpp:408] label_coarse_data_1_split -> label_coarse_data_1_split_1
I1017 23:47:38.666712  9391 net.cpp:150] Setting up label_coarse_data_1_split
I1017 23:47:38.666726  9391 net.cpp:157] Top shape: 64 (64)
I1017 23:47:38.666729  9391 net.cpp:157] Top shape: 64 (64)
I1017 23:47:38.666730  9391 net.cpp:165] Memory required for data: 787456
I1017 23:47:38.666733  9391 layer_factory.hpp:77] Creating layer label_fine_data_2_split
I1017 23:47:38.666736  9391 net.cpp:100] Creating Layer label_fine_data_2_split
I1017 23:47:38.666738  9391 net.cpp:434] label_fine_data_2_split <- label_fine
I1017 23:47:38.666741  9391 net.cpp:408] label_fine_data_2_split -> label_fine_data_2_split_0
I1017 23:47:38.666745  9391 net.cpp:408] label_fine_data_2_split -> label_fine_data_2_split_1
I1017 23:47:38.666762  9391 net.cpp:150] Setting up label_fine_data_2_split
I1017 23:47:38.666766  9391 net.cpp:157] Top shape: 64 (64)
I1017 23:47:38.666769  9391 net.cpp:157] Top shape: 64 (64)
I1017 23:47:38.666770  9391 net.cpp:165] Memory required for data: 787968
I1017 23:47:38.666771  9391 layer_factory.hpp:77] Creating layer conv1
I1017 23:47:38.666782  9391 net.cpp:100] Creating Layer conv1
I1017 23:47:38.666785  9391 net.cpp:434] conv1 <- data
I1017 23:47:38.666788  9391 net.cpp:408] conv1 -> conv1
I1017 23:47:38.789742  9391 net.cpp:150] Setting up conv1
I1017 23:47:38.789769  9391 net.cpp:157] Top shape: 64 192 28 28 (9633792)
I1017 23:47:38.789772  9391 net.cpp:165] Memory required for data: 39323136
I1017 23:47:38.789790  9391 layer_factory.hpp:77] Creating layer pool1
I1017 23:47:38.789800  9391 net.cpp:100] Creating Layer pool1
I1017 23:47:38.789804  9391 net.cpp:434] pool1 <- conv1
I1017 23:47:38.789810  9391 net.cpp:408] pool1 -> pool1
I1017 23:47:38.789852  9391 net.cpp:150] Setting up pool1
I1017 23:47:38.789858  9391 net.cpp:157] Top shape: 64 192 14 14 (2408448)
I1017 23:47:38.789860  9391 net.cpp:165] Memory required for data: 48956928
I1017 23:47:38.789862  9391 layer_factory.hpp:77] Creating layer drop1
I1017 23:47:38.789866  9391 net.cpp:100] Creating Layer drop1
I1017 23:47:38.789868  9391 net.cpp:434] drop1 <- pool1
I1017 23:47:38.789871  9391 net.cpp:408] drop1 -> drop1
I1017 23:47:38.789894  9391 net.cpp:150] Setting up drop1
I1017 23:47:38.789897  9391 net.cpp:157] Top shape: 64 192 14 14 (2408448)
I1017 23:47:38.789899  9391 net.cpp:165] Memory required for data: 58590720
I1017 23:47:38.789901  9391 layer_factory.hpp:77] Creating layer relu1
I1017 23:47:38.789906  9391 net.cpp:100] Creating Layer relu1
I1017 23:47:38.789907  9391 net.cpp:434] relu1 <- drop1
I1017 23:47:38.789909  9391 net.cpp:408] relu1 -> relu1
I1017 23:47:38.790026  9391 net.cpp:150] Setting up relu1
I1017 23:47:38.790031  9391 net.cpp:157] Top shape: 64 192 14 14 (2408448)
I1017 23:47:38.790033  9391 net.cpp:165] Memory required for data: 68224512
I1017 23:47:38.790035  9391 layer_factory.hpp:77] Creating layer conv2
I1017 23:47:38.790041  9391 net.cpp:100] Creating Layer conv2
I1017 23:47:38.790043  9391 net.cpp:434] conv2 <- relu1
I1017 23:47:38.790046  9391 net.cpp:408] conv2 -> conv2
I1017 23:47:38.790848  9391 net.cpp:150] Setting up conv2
I1017 23:47:38.790856  9391 net.cpp:157] Top shape: 64 192 14 14 (2408448)
I1017 23:47:38.790858  9391 net.cpp:165] Memory required for data: 77858304
I1017 23:47:38.790863  9391 layer_factory.hpp:77] Creating layer conv3
I1017 23:47:38.790869  9391 net.cpp:100] Creating Layer conv3
I1017 23:47:38.790873  9391 net.cpp:434] conv3 <- conv2
I1017 23:47:38.790876  9391 net.cpp:408] conv3 -> conv3
I1017 23:47:38.793434  9391 net.cpp:150] Setting up conv3
I1017 23:47:38.793452  9391 net.cpp:157] Top shape: 64 240 12 12 (2211840)
I1017 23:47:38.793455  9391 net.cpp:165] Memory required for data: 86705664
I1017 23:47:38.793464  9391 layer_factory.hpp:77] Creating layer pool2
I1017 23:47:38.793472  9391 net.cpp:100] Creating Layer pool2
I1017 23:47:38.793474  9391 net.cpp:434] pool2 <- conv3
I1017 23:47:38.793479  9391 net.cpp:408] pool2 -> pool2
I1017 23:47:38.793506  9391 net.cpp:150] Setting up pool2
I1017 23:47:38.793509  9391 net.cpp:157] Top shape: 64 240 6 6 (552960)
I1017 23:47:38.793511  9391 net.cpp:165] Memory required for data: 88917504
I1017 23:47:38.793526  9391 layer_factory.hpp:77] Creating layer drop2
I1017 23:47:38.793530  9391 net.cpp:100] Creating Layer drop2
I1017 23:47:38.793532  9391 net.cpp:434] drop2 <- pool2
I1017 23:47:38.793537  9391 net.cpp:408] drop2 -> drop2
I1017 23:47:38.793560  9391 net.cpp:150] Setting up drop2
I1017 23:47:38.793565  9391 net.cpp:157] Top shape: 64 240 6 6 (552960)
I1017 23:47:38.793567  9391 net.cpp:165] Memory required for data: 91129344
I1017 23:47:38.793568  9391 layer_factory.hpp:77] Creating layer relu2
I1017 23:47:38.793572  9391 net.cpp:100] Creating Layer relu2
I1017 23:47:38.793575  9391 net.cpp:434] relu2 <- drop2
I1017 23:47:38.793577  9391 net.cpp:408] relu2 -> relu2
I1017 23:47:38.793699  9391 net.cpp:150] Setting up relu2
I1017 23:47:38.793705  9391 net.cpp:157] Top shape: 64 240 6 6 (552960)
I1017 23:47:38.793706  9391 net.cpp:165] Memory required for data: 93341184
I1017 23:47:38.793709  9391 layer_factory.hpp:77] Creating layer conv4
I1017 23:47:38.793715  9391 net.cpp:100] Creating Layer conv4
I1017 23:47:38.793718  9391 net.cpp:434] conv4 <- relu2
I1017 23:47:38.793721  9391 net.cpp:408] conv4 -> conv4
I1017 23:47:38.794561  9391 net.cpp:150] Setting up conv4
I1017 23:47:38.794569  9391 net.cpp:157] Top shape: 64 240 6 6 (552960)
I1017 23:47:38.794572  9391 net.cpp:165] Memory required for data: 95553024
I1017 23:47:38.794575  9391 layer_factory.hpp:77] Creating layer conv5
I1017 23:47:38.794581  9391 net.cpp:100] Creating Layer conv5
I1017 23:47:38.794584  9391 net.cpp:434] conv5 <- conv4
I1017 23:47:38.794589  9391 net.cpp:408] conv5 -> conv5
I1017 23:47:38.796345  9391 net.cpp:150] Setting up conv5
I1017 23:47:38.796353  9391 net.cpp:157] Top shape: 64 260 5 5 (416000)
I1017 23:47:38.796355  9391 net.cpp:165] Memory required for data: 97217024
I1017 23:47:38.796363  9391 layer_factory.hpp:77] Creating layer pool3
I1017 23:47:38.796367  9391 net.cpp:100] Creating Layer pool3
I1017 23:47:38.796370  9391 net.cpp:434] pool3 <- conv5
I1017 23:47:38.796373  9391 net.cpp:408] pool3 -> pool3
I1017 23:47:38.796399  9391 net.cpp:150] Setting up pool3
I1017 23:47:38.796403  9391 net.cpp:157] Top shape: 64 260 3 3 (149760)
I1017 23:47:38.796406  9391 net.cpp:165] Memory required for data: 97816064
I1017 23:47:38.796407  9391 layer_factory.hpp:77] Creating layer drop3
I1017 23:47:38.796411  9391 net.cpp:100] Creating Layer drop3
I1017 23:47:38.796413  9391 net.cpp:434] drop3 <- pool3
I1017 23:47:38.796416  9391 net.cpp:408] drop3 -> drop3
I1017 23:47:38.796437  9391 net.cpp:150] Setting up drop3
I1017 23:47:38.796442  9391 net.cpp:157] Top shape: 64 260 3 3 (149760)
I1017 23:47:38.796444  9391 net.cpp:165] Memory required for data: 98415104
I1017 23:47:38.796445  9391 layer_factory.hpp:77] Creating layer relu3
I1017 23:47:38.796452  9391 net.cpp:100] Creating Layer relu3
I1017 23:47:38.796453  9391 net.cpp:434] relu3 <- drop3
I1017 23:47:38.796457  9391 net.cpp:408] relu3 -> relu3
I1017 23:47:38.796567  9391 net.cpp:150] Setting up relu3
I1017 23:47:38.796573  9391 net.cpp:157] Top shape: 64 260 3 3 (149760)
I1017 23:47:38.796576  9391 net.cpp:165] Memory required for data: 99014144
I1017 23:47:38.796577  9391 layer_factory.hpp:77] Creating layer conv6
I1017 23:47:38.796581  9391 net.cpp:100] Creating Layer conv6
I1017 23:47:38.796584  9391 net.cpp:434] conv6 <- relu3
I1017 23:47:38.796588  9391 net.cpp:408] conv6 -> conv6
I1017 23:47:38.797705  9391 net.cpp:150] Setting up conv6
I1017 23:47:38.797713  9391 net.cpp:157] Top shape: 64 260 3 3 (149760)
I1017 23:47:38.797715  9391 net.cpp:165] Memory required for data: 99613184
I1017 23:47:38.797719  9391 layer_factory.hpp:77] Creating layer conv7
I1017 23:47:38.797725  9391 net.cpp:100] Creating Layer conv7
I1017 23:47:38.797729  9391 net.cpp:434] conv7 <- conv6
I1017 23:47:38.797732  9391 net.cpp:408] conv7 -> conv7
I1017 23:47:38.799650  9391 net.cpp:150] Setting up conv7
I1017 23:47:38.799659  9391 net.cpp:157] Top shape: 64 280 2 2 (71680)
I1017 23:47:38.799661  9391 net.cpp:165] Memory required for data: 99899904
I1017 23:47:38.799677  9391 layer_factory.hpp:77] Creating layer pool4
I1017 23:47:38.799684  9391 net.cpp:100] Creating Layer pool4
I1017 23:47:38.799685  9391 net.cpp:434] pool4 <- conv7
I1017 23:47:38.799688  9391 net.cpp:408] pool4 -> pool4
I1017 23:47:38.799715  9391 net.cpp:150] Setting up pool4
I1017 23:47:38.799720  9391 net.cpp:157] Top shape: 64 280 1 1 (17920)
I1017 23:47:38.799721  9391 net.cpp:165] Memory required for data: 99971584
I1017 23:47:38.799722  9391 layer_factory.hpp:77] Creating layer drop4
I1017 23:47:38.799726  9391 net.cpp:100] Creating Layer drop4
I1017 23:47:38.799728  9391 net.cpp:434] drop4 <- pool4
I1017 23:47:38.799732  9391 net.cpp:408] drop4 -> drop4
I1017 23:47:38.799754  9391 net.cpp:150] Setting up drop4
I1017 23:47:38.799758  9391 net.cpp:157] Top shape: 64 280 1 1 (17920)
I1017 23:47:38.799760  9391 net.cpp:165] Memory required for data: 100043264
I1017 23:47:38.799762  9391 layer_factory.hpp:77] Creating layer relu4
I1017 23:47:38.799765  9391 net.cpp:100] Creating Layer relu4
I1017 23:47:38.799767  9391 net.cpp:434] relu4 <- drop4
I1017 23:47:38.799770  9391 net.cpp:408] relu4 -> relu4
I1017 23:47:38.799882  9391 net.cpp:150] Setting up relu4
I1017 23:47:38.799888  9391 net.cpp:157] Top shape: 64 280 1 1 (17920)
I1017 23:47:38.799890  9391 net.cpp:165] Memory required for data: 100114944
I1017 23:47:38.799892  9391 layer_factory.hpp:77] Creating layer conv8
I1017 23:47:38.799897  9391 net.cpp:100] Creating Layer conv8
I1017 23:47:38.799899  9391 net.cpp:434] conv8 <- relu4
I1017 23:47:38.799902  9391 net.cpp:408] conv8 -> conv8
I1017 23:47:38.800833  9391 net.cpp:150] Setting up conv8
I1017 23:47:38.800843  9391 net.cpp:157] Top shape: 64 280 1 1 (17920)
I1017 23:47:38.800844  9391 net.cpp:165] Memory required for data: 100186624
I1017 23:47:38.800848  9391 layer_factory.hpp:77] Creating layer pool5
I1017 23:47:38.800854  9391 net.cpp:100] Creating Layer pool5
I1017 23:47:38.800856  9391 net.cpp:434] pool5 <- conv8
I1017 23:47:38.800859  9391 net.cpp:408] pool5 -> pool5
I1017 23:47:38.800884  9391 net.cpp:150] Setting up pool5
I1017 23:47:38.800889  9391 net.cpp:157] Top shape: 64 280 1 1 (17920)
I1017 23:47:38.800890  9391 net.cpp:165] Memory required for data: 100258304
I1017 23:47:38.800891  9391 layer_factory.hpp:77] Creating layer drop5
I1017 23:47:38.800894  9391 net.cpp:100] Creating Layer drop5
I1017 23:47:38.800897  9391 net.cpp:434] drop5 <- pool5
I1017 23:47:38.800900  9391 net.cpp:408] drop5 -> drop5
I1017 23:47:38.800921  9391 net.cpp:150] Setting up drop5
I1017 23:47:38.800925  9391 net.cpp:157] Top shape: 64 280 1 1 (17920)
I1017 23:47:38.800926  9391 net.cpp:165] Memory required for data: 100329984
I1017 23:47:38.800928  9391 layer_factory.hpp:77] Creating layer relu5
I1017 23:47:38.800931  9391 net.cpp:100] Creating Layer relu5
I1017 23:47:38.800933  9391 net.cpp:434] relu5 <- drop5
I1017 23:47:38.800936  9391 net.cpp:408] relu5 -> relu5
I1017 23:47:38.801147  9391 net.cpp:150] Setting up relu5
I1017 23:47:38.801156  9391 net.cpp:157] Top shape: 64 280 1 1 (17920)
I1017 23:47:38.801157  9391 net.cpp:165] Memory required for data: 100401664
I1017 23:47:38.801159  9391 layer_factory.hpp:77] Creating layer conv10
I1017 23:47:38.801164  9391 net.cpp:100] Creating Layer conv10
I1017 23:47:38.801167  9391 net.cpp:434] conv10 <- relu5
I1017 23:47:38.801172  9391 net.cpp:408] conv10 -> conv10
I1017 23:47:38.802203  9391 net.cpp:150] Setting up conv10
I1017 23:47:38.802212  9391 net.cpp:157] Top shape: 64 300 1 1 (19200)
I1017 23:47:38.802214  9391 net.cpp:165] Memory required for data: 100478464
I1017 23:47:38.802222  9391 layer_factory.hpp:77] Creating layer pool6
I1017 23:47:38.802227  9391 net.cpp:100] Creating Layer pool6
I1017 23:47:38.802230  9391 net.cpp:434] pool6 <- conv10
I1017 23:47:38.802233  9391 net.cpp:408] pool6 -> pool6
I1017 23:47:38.802258  9391 net.cpp:150] Setting up pool6
I1017 23:47:38.802263  9391 net.cpp:157] Top shape: 64 300 1 1 (19200)
I1017 23:47:38.802263  9391 net.cpp:165] Memory required for data: 100555264
I1017 23:47:38.802266  9391 layer_factory.hpp:77] Creating layer drop6
I1017 23:47:38.802278  9391 net.cpp:100] Creating Layer drop6
I1017 23:47:38.802279  9391 net.cpp:434] drop6 <- pool6
I1017 23:47:38.802283  9391 net.cpp:408] drop6 -> drop6
I1017 23:47:38.802309  9391 net.cpp:150] Setting up drop6
I1017 23:47:38.802312  9391 net.cpp:157] Top shape: 64 300 1 1 (19200)
I1017 23:47:38.802315  9391 net.cpp:165] Memory required for data: 100632064
I1017 23:47:38.802316  9391 layer_factory.hpp:77] Creating layer relu6
I1017 23:47:38.802320  9391 net.cpp:100] Creating Layer relu6
I1017 23:47:38.802322  9391 net.cpp:434] relu6 <- drop6
I1017 23:47:38.802325  9391 net.cpp:408] relu6 -> relu6
I1017 23:47:38.802438  9391 net.cpp:150] Setting up relu6
I1017 23:47:38.802445  9391 net.cpp:157] Top shape: 64 300 1 1 (19200)
I1017 23:47:38.802448  9391 net.cpp:165] Memory required for data: 100708864
I1017 23:47:38.802449  9391 layer_factory.hpp:77] Creating layer conv11
I1017 23:47:38.802453  9391 net.cpp:100] Creating Layer conv11
I1017 23:47:38.802456  9391 net.cpp:434] conv11 <- relu6
I1017 23:47:38.802460  9391 net.cpp:408] conv11 -> conv11
I1017 23:47:38.803208  9391 net.cpp:150] Setting up conv11
I1017 23:47:38.803217  9391 net.cpp:157] Top shape: 64 100 1 1 (6400)
I1017 23:47:38.803220  9391 net.cpp:165] Memory required for data: 100734464
I1017 23:47:38.803223  9391 layer_factory.hpp:77] Creating layer pool7
I1017 23:47:38.803230  9391 net.cpp:100] Creating Layer pool7
I1017 23:47:38.803232  9391 net.cpp:434] pool7 <- conv11
I1017 23:47:38.803236  9391 net.cpp:408] pool7 -> pool7
I1017 23:47:38.803261  9391 net.cpp:150] Setting up pool7
I1017 23:47:38.803266  9391 net.cpp:157] Top shape: 64 100 1 1 (6400)
I1017 23:47:38.803267  9391 net.cpp:165] Memory required for data: 100760064
I1017 23:47:38.803269  9391 layer_factory.hpp:77] Creating layer drop7
I1017 23:47:38.803278  9391 net.cpp:100] Creating Layer drop7
I1017 23:47:38.803282  9391 net.cpp:434] drop7 <- pool7
I1017 23:47:38.803284  9391 net.cpp:408] drop7 -> drop7
I1017 23:47:38.803305  9391 net.cpp:150] Setting up drop7
I1017 23:47:38.803310  9391 net.cpp:157] Top shape: 64 100 1 1 (6400)
I1017 23:47:38.803313  9391 net.cpp:165] Memory required for data: 100785664
I1017 23:47:38.803314  9391 layer_factory.hpp:77] Creating layer relu7
I1017 23:47:38.803318  9391 net.cpp:100] Creating Layer relu7
I1017 23:47:38.803319  9391 net.cpp:434] relu7 <- drop7
I1017 23:47:38.803321  9391 net.cpp:408] relu7 -> relu7
I1017 23:47:38.803434  9391 net.cpp:150] Setting up relu7
I1017 23:47:38.803439  9391 net.cpp:157] Top shape: 64 100 1 1 (6400)
I1017 23:47:38.803442  9391 net.cpp:165] Memory required for data: 100811264
I1017 23:47:38.803444  9391 layer_factory.hpp:77] Creating layer pool
I1017 23:47:38.803447  9391 net.cpp:100] Creating Layer pool
I1017 23:47:38.803450  9391 net.cpp:434] pool <- relu7
I1017 23:47:38.803454  9391 net.cpp:408] pool -> pool
I1017 23:47:38.803655  9391 net.cpp:150] Setting up pool
I1017 23:47:38.803661  9391 net.cpp:157] Top shape: 64 100 1 1 (6400)
I1017 23:47:38.803664  9391 net.cpp:165] Memory required for data: 100836864
I1017 23:47:38.803666  9391 layer_factory.hpp:77] Creating layer flatten
I1017 23:47:38.803670  9391 net.cpp:100] Creating Layer flatten
I1017 23:47:38.803673  9391 net.cpp:434] flatten <- pool
I1017 23:47:38.803676  9391 net.cpp:408] flatten -> flatten
I1017 23:47:38.803692  9391 net.cpp:150] Setting up flatten
I1017 23:47:38.803696  9391 net.cpp:157] Top shape: 64 100 (6400)
I1017 23:47:38.803699  9391 net.cpp:165] Memory required for data: 100862464
I1017 23:47:38.803700  9391 layer_factory.hpp:77] Creating layer flatten_flatten_0_split
I1017 23:47:38.803704  9391 net.cpp:100] Creating Layer flatten_flatten_0_split
I1017 23:47:38.803705  9391 net.cpp:434] flatten_flatten_0_split <- flatten
I1017 23:47:38.803709  9391 net.cpp:408] flatten_flatten_0_split -> flatten_flatten_0_split_0
I1017 23:47:38.803714  9391 net.cpp:408] flatten_flatten_0_split -> flatten_flatten_0_split_1
I1017 23:47:38.803738  9391 net.cpp:150] Setting up flatten_flatten_0_split
I1017 23:47:38.803748  9391 net.cpp:157] Top shape: 64 100 (6400)
I1017 23:47:38.803750  9391 net.cpp:157] Top shape: 64 100 (6400)
I1017 23:47:38.803752  9391 net.cpp:165] Memory required for data: 100913664
I1017 23:47:38.803755  9391 layer_factory.hpp:77] Creating layer ip_c
I1017 23:47:38.803758  9391 net.cpp:100] Creating Layer ip_c
I1017 23:47:38.803761  9391 net.cpp:434] ip_c <- flatten_flatten_0_split_0
I1017 23:47:38.803766  9391 net.cpp:408] ip_c -> ip_c
I1017 23:47:38.804103  9391 net.cpp:150] Setting up ip_c
I1017 23:47:38.804111  9391 net.cpp:157] Top shape: 64 20 (1280)
I1017 23:47:38.804112  9391 net.cpp:165] Memory required for data: 100918784
I1017 23:47:38.804116  9391 layer_factory.hpp:77] Creating layer ip_c_ip_c_0_split
I1017 23:47:38.804121  9391 net.cpp:100] Creating Layer ip_c_ip_c_0_split
I1017 23:47:38.804122  9391 net.cpp:434] ip_c_ip_c_0_split <- ip_c
I1017 23:47:38.804126  9391 net.cpp:408] ip_c_ip_c_0_split -> ip_c_ip_c_0_split_0
I1017 23:47:38.804131  9391 net.cpp:408] ip_c_ip_c_0_split -> ip_c_ip_c_0_split_1
I1017 23:47:38.804153  9391 net.cpp:150] Setting up ip_c_ip_c_0_split
I1017 23:47:38.804157  9391 net.cpp:157] Top shape: 64 20 (1280)
I1017 23:47:38.804159  9391 net.cpp:157] Top shape: 64 20 (1280)
I1017 23:47:38.804160  9391 net.cpp:165] Memory required for data: 100929024
I1017 23:47:38.804162  9391 layer_factory.hpp:77] Creating layer accuracy_f
I1017 23:47:38.804167  9391 net.cpp:100] Creating Layer accuracy_f
I1017 23:47:38.804169  9391 net.cpp:434] accuracy_f <- ip_c_ip_c_0_split_0
I1017 23:47:38.804172  9391 net.cpp:434] accuracy_f <- label_coarse_data_1_split_0
I1017 23:47:38.804177  9391 net.cpp:408] accuracy_f -> accuracy_f
…
I1017 23:47:38.805022  9391 net.cpp:283] Network initialization done.
I1017 23:47:38.805274  9391 solver.cpp:181] Creating test net (#0) specified by test_net file: /home/adam/Honours/Honours-Project/cifar-100_pooling/max/leakyrelu/poolcnn_leakyrelu_test.prototxt
I1017 23:47:38.805411  9391 net.cpp:58] Initializing net from parameters: 
state {
  phase: TEST
}
layer {
  name: "data"
  type: "HDF5Data"
  top: "data"
  top: "label_coarse"
  top: "label_fine"
  hdf5_data_param {
    source: "../../../../data/cifar-100/cifar_100_caffe_hdf5/test.txt"
    batch_size: 100
  }
}
layer {
  name: "conv1"
  type: "Convolution"
  bottom: "data"
  top: "conv1"
  convolution_param {
    num_output: 192
    kernel_size: 5
    weight_filler {
      type: "xavier"
    }
  }
}
layer {
  name: "pool1"
  type: "Pooling"
  bottom: "conv1"
  top: "pool1"
  pooling_param {
    pool: MAX
    kernel_size: 2
    stride: 2
  }
}
layer {
  name: "drop1"
  type: "Dropout"
  bottom: "pool1"
  top: "drop1"
  dropout_param {
    dropout_ratio: 0
  }
}
layer {
  name: "relu1"
  type: "ReLU"
  bottom: "drop1"
  top: "relu1"
  relu_param {
    negative_slope: 0.01
  }
}
layer {
  name: "conv2"
  type: "Convolution"
  bottom: "relu1"
  top: "conv2"
  convolution_param {
    num_output: 192
    kernel_size: 1
    weight_filler {
      type: "xavier"
    }
  }
}
layer {
  name: "conv3"
  type: "Convolution"
  bottom: "conv2"
  top: "conv3"
  convolution_param {
    num_output: 240
    kernel_size: 3
    weight_filler {
      type: "xavier"
    }
  }
}
layer {
  name: "pool2"
  type: "Pooling"
  bottom: "conv3"
  top: "pool2"
  pooling_param {
    pool: MAX
    kernel_size: 2
    stride: 2
  }
}
layer {
  name: "drop2"
  type: "Dropout"
  bottom: "pool2"
  top: "drop2"
  dropout_param {
    dropout_ratio: 0.1
  }
}
layer {
  name: "relu2"
  type: "ReLU"
  bottom: "drop2"
  top: "relu2"
  relu_param {
    negative_slope: 0.01
  }
}
layer {
  name: "conv4"
  type: "Convolution"
  bottom: "relu2"
  top: "conv4"
  convolution_param {
    num_output: 240
    kernel_size: 1
    weight_filler {
      type: "xavier"
    }
  }
}
layer {
  name: "conv5"
  type: "Convolution"
  bottom: "conv4"
  top: "conv5"
  convolution_param {
    num_output: 260
    kernel_size: 2
    weight_filler {
      type: "xavier"
    }
  }
}
layer {
  name: "pool3"
  type: "Pooling"
  bottom: "conv5"
  top: "pool3"
  pooling_param {
    pool: MAX
    kernel_size: 2
    stride: 2
  }
}
layer {
  name: "drop3"
  type: "Dropout"
  bottom: "pool3"
  top: "drop3"
  dropout_param {
    dropout_ratio: 0.2
  }
}
layer {
  name: "relu3"
  type: "ReLU"
  bottom: "drop3"
  top: "relu3"
  relu_param {
    negative_slope: 0.01
  }
}
layer {
  name: "conv6"
  type: "Convolution"
  bottom: "relu3"
  top: "conv6"
  convolution_param {
    num_output: 260
    kernel_size: 1
    weight_filler {
      type: "xavier"
    }
  }
}
layer {
  name: "conv7"
  type: "Convolution"
  bottom: "conv6"
  top: "conv7"
  convolution_param {
    num_output: 280
    kernel_size: 2
    weight_filler {
      type: "xavier"
    }
  }
}
layer {
  name: "pool4"
  type: "Pooling"
  bottom: "conv7"
  top: "pool4"
  pooling_param {
    pool: MAX
    kernel_size: 2
    stride: 2
  }
}
layer {
  name: "drop4"
  type: "Dropout"
  bottom: "pool4"
  top: "drop4"
  dropout_param {
    dropout_ratio: 0.3
  }
}
layer {
  name: "relu4"
  type: "ReLU"
  bottom: "drop4"
  top: "relu4"
  relu_param {
    negative_slope: 0.01
  }
}
layer {
  name: "conv8"
  type: "Convolution"
  bottom: "relu4"
  top: "conv8"
  convolution_param {
    num_output: 280
    kernel_size: 1
    weight_filler {
      type: "xavier"
    }
  }
}
layer {
  name: "pool5"
  type: "Pooling"
  bottom: "conv8"
  top: "pool5"
  pooling_param {
    pool: MAX
    kernel_size: 2
    stride: 2
  }
}
layer {
  name: "drop5"
  type: "Dropout"
  bottom: "pool5"
  top: "drop5"
  dropout_param {
    dropout_ratio: 0.4
  }
}
layer {
  name: "relu5"
  type: "ReLU"
  bottom: "drop5"
  top: "relu5"
  relu_param {
    negative_slope: 0.01
  }
}
layer {
  name: "conv10"
  type: "Convolution"
  bottom: "relu5"
  top: "conv10"
  convolution_param {
    num_output: 300
    kernel_size: 1
    weight_filler {
      type: "xavier"
    }
  }
}
layer {
  name: "pool6"
  type: "Pooling"
  bottom: "conv10"
  top: "pool6"
  pooling_param {
    pool: MAX
    kernel_size: 2
    stride: 2
  }
}
layer {
  name: "drop6"
  type: "Dropout"
  bottom: "pool6"
  top: "drop6"
  dropout_param {
    dropout_ratio: 0.5
  }
}
layer {
  name: "relu6"
  type: "ReLU"
  bottom: "drop6"
  top: "relu6"
  relu_param {
    negative_slope: 0.01
  }
}
layer {
  name: "conv11"
  type: "Convolution"
  bottom: "relu6"
  top: "conv11"
  convolution_param {
    num_output: 100
    kernel_size: 1
    weight_filler {
      type: "xavier"
    }
  }
}
layer {
  name: "pool7"
  type: "Pooling"
  bottom: "conv11"
  top: "pool7"
  pooling_param {
    pool: MAX
    kernel_size: 2
    stride: 2
  }
}
layer {
  name: "drop7"
  type: "Dropout"
  bottom: "pool7"
  top: "drop7"
  dropout_param {
    dropout_ratio: 0
  }
}
layer {
  name: "relu7"
  type: "ReLU"
  bottom: "drop7"
  top: "relu7"
  relu_param {
    negative_slope: 0.01
  }
}
layer {
  name: "pool"
  type: "Pooling"
  bottom: "relu7"
  top: "pool"
  pooling_param {
    pool: AVE
    global_pooling: true
  }
}
layer {
  name: "flatten"
  type: "Flatten"
  bottom: "pool"
  top: "flatten"
}
layer {
  name: "ip_c"
  type: "InnerProduct"
  bottom: "flatten"
  top: "ip_c"
  inner_product_param {
    num_output: 20
    weight_filler {
      type: "xavier"
    }
  }
}
layer {
  name: "accuracy_f"
  type: "Accuracy"
  bottom: "ip_c"
  bottom: "label_coarse"
  top: "accuracy_f"
}
layer {
  name: "loss_c"
  type: "SoftmaxWithLoss"
  bottom: "ip_c"
  bottom: "label_coarse"
  top: "loss_c"
}
layer {
  name: "ip_f"
  type: "InnerProduct"
  bottom: "flatten"
  top: "ip_f"
  inner_product_param {
    num_output: 100
    weight_filler {
      type: "xavier"
    }
  }
}
layer {
  name: "accuracy"
  type: "Accuracy"
  bottom: "ip_f"
  bottom: "label_fine"
  top: "accuracy"
}
layer {
  name: "loss_f"
  type: "SoftmaxWithLoss"
  bottom: "ip_f"
  bottom: "label_fine"
  top: "loss_f"
}
I1017 23:47:38.805501  9391 layer_factory.hpp:77] Creating layer data
I1017 23:47:38.805506  9391 net.cpp:100] Creating Layer data
I1017 23:47:38.805508  9391 net.cpp:408] data -> data
I1017 23:47:38.805512  9391 net.cpp:408] data -> label_coarse
I1017 23:47:38.805516  9391 net.cpp:408] data -> label_fine
I1017 23:47:38.805521  9391 hdf5_data_layer.cpp:79] Loading list of HDF5 filenames from: ../../../../data/cifar-100/cifar_100_caffe_hdf5/test.txt
I1017 23:47:38.805534  9391 hdf5_data_layer.cpp:93] Number of HDF5 files: 1
I1017 23:47:39.070231  9391 net.cpp:150] Setting up data
I1017 23:47:39.070256  9391 net.cpp:157] Top shape: 100 3 32 32 (307200)
I1017 23:47:39.070258  9391 net.cpp:157] Top shape: 100 (100)
I1017 23:47:39.070261  9391 net.cpp:157] Top shape: 100 (100)
I1017 23:47:39.070262  9391 net.cpp:165] Memory required for data: 1229600
I1017 23:47:39.070268  9391 layer_factory.hpp:77] Creating layer label_coarse_data_1_split
I1017 23:47:39.070277  9391 net.cpp:100] Creating Layer label_coarse_data_1_split
I1017 23:47:39.070279  9391 net.cpp:434] label_coarse_data_1_split <- label_coarse
I1017 23:47:39.070284  9391 net.cpp:408] label_coarse_data_1_split -> label_coarse_data_1_split_0
I1017 23:47:39.070293  9391 net.cpp:408] label_coarse_data_1_split -> label_coarse_data_1_split_1
I1017 23:47:39.070322  9391 net.cpp:150] Setting up label_coarse_data_1_split
I1017 23:47:39.070325  9391 net.cpp:157] Top shape: 100 (100)
I1017 23:47:39.070343  9391 net.cpp:157] Top shape: 100 (100)
I1017 23:47:39.070344  9391 net.cpp:165] Memory required for data: 1230400
I1017 23:47:39.070346  9391 layer_factory.hpp:77] Creating layer label_fine_data_2_split
I1017 23:47:39.070350  9391 net.cpp:100] Creating Layer label_fine_data_2_split
I1017 23:47:39.070353  9391 net.cpp:434] label_fine_data_2_split <- label_fine
I1017 23:47:39.070355  9391 net.cpp:408] label_fine_data_2_split -> label_fine_data_2_split_0
I1017 23:47:39.070359  9391 net.cpp:408] label_fine_data_2_split -> label_fine_data_2_split_1
I1017 23:47:39.070381  9391 net.cpp:150] Setting up label_fine_data_2_split
I1017 23:47:39.070386  9391 net.cpp:157] Top shape: 100 (100)
I1017 23:47:39.070390  9391 net.cpp:157] Top shape: 100 (100)
I1017 23:47:39.070394  9391 net.cpp:165] Memory required for data: 1231200
I1017 23:47:39.070396  9391 layer_factory.hpp:77] Creating layer conv1
I1017 23:47:39.070405  9391 net.cpp:100] Creating Layer conv1
I1017 23:47:39.070410  9391 net.cpp:434] conv1 <- data
I1017 23:47:39.070415  9391 net.cpp:408] conv1 -> conv1
I1017 23:47:39.071286  9391 net.cpp:150] Setting up conv1
I1017 23:47:39.071296  9391 net.cpp:157] Top shape: 100 192 28 28 (15052800)
I1017 23:47:39.071300  9391 net.cpp:165] Memory required for data: 61442400
I1017 23:47:39.071310  9391 layer_factory.hpp:77] Creating layer pool1
I1017 23:47:39.071317  9391 net.cpp:100] Creating Layer pool1
I1017 23:47:39.071321  9391 net.cpp:434] pool1 <- conv1
I1017 23:47:39.071327  9391 net.cpp:408] pool1 -> pool1
I1017 23:47:39.071360  9391 net.cpp:150] Setting up pool1
I1017 23:47:39.071367  9391 net.cpp:157] Top shape: 100 192 14 14 (3763200)
I1017 23:47:39.071369  9391 net.cpp:165] Memory required for data: 76495200
I1017 23:47:39.071373  9391 layer_factory.hpp:77] Creating layer drop1
I1017 23:47:39.071380  9391 net.cpp:100] Creating Layer drop1
I1017 23:47:39.071384  9391 net.cpp:434] drop1 <- pool1
I1017 23:47:39.071388  9391 net.cpp:408] drop1 -> drop1
I1017 23:47:39.071416  9391 net.cpp:150] Setting up drop1
I1017 23:47:39.071421  9391 net.cpp:157] Top shape: 100 192 14 14 (3763200)
I1017 23:47:39.071424  9391 net.cpp:165] Memory required for data: 91548000
I1017 23:47:39.071429  9391 layer_factory.hpp:77] Creating layer relu1
I1017 23:47:39.071434  9391 net.cpp:100] Creating Layer relu1
I1017 23:47:39.071437  9391 net.cpp:434] relu1 <- drop1
I1017 23:47:39.071442  9391 net.cpp:408] relu1 -> relu1
I1017 23:47:39.071570  9391 net.cpp:150] Setting up relu1
I1017 23:47:39.071578  9391 net.cpp:157] Top shape: 100 192 14 14 (3763200)
I1017 23:47:39.071580  9391 net.cpp:165] Memory required for data: 106600800
I1017 23:47:39.071584  9391 layer_factory.hpp:77] Creating layer conv2
I1017 23:47:39.071591  9391 net.cpp:100] Creating Layer conv2
I1017 23:47:39.071595  9391 net.cpp:434] conv2 <- relu1
I1017 23:47:39.071601  9391 net.cpp:408] conv2 -> conv2
I1017 23:47:39.072461  9391 net.cpp:150] Setting up conv2
I1017 23:47:39.072473  9391 net.cpp:157] Top shape: 100 192 14 14 (3763200)
I1017 23:47:39.072475  9391 net.cpp:165] Memory required for data: 121653600
I1017 23:47:39.072485  9391 layer_factory.hpp:77] Creating layer conv3
I1017 23:47:39.072495  9391 net.cpp:100] Creating Layer conv3
I1017 23:47:39.072499  9391 net.cpp:434] conv3 <- conv2
I1017 23:47:39.072505  9391 net.cpp:408] conv3 -> conv3
I1017 23:47:39.075270  9391 net.cpp:150] Setting up conv3
I1017 23:47:39.075297  9391 net.cpp:157] Top shape: 100 240 12 12 (3456000)
I1017 23:47:39.075300  9391 net.cpp:165] Memory required for data: 135477600
I1017 23:47:39.075315  9391 layer_factory.hpp:77] Creating layer pool2
I1017 23:47:39.075323  9391 net.cpp:100] Creating Layer pool2
I1017 23:47:39.075328  9391 net.cpp:434] pool2 <- conv3
I1017 23:47:39.075336  9391 net.cpp:408] pool2 -> pool2
I1017 23:47:39.075379  9391 net.cpp:150] Setting up pool2
I1017 23:47:39.075384  9391 net.cpp:157] Top shape: 100 240 6 6 (864000)
I1017 23:47:39.075387  9391 net.cpp:165] Memory required for data: 138933600
I1017 23:47:39.075390  9391 layer_factory.hpp:77] Creating layer drop2
I1017 23:47:39.075408  9391 net.cpp:100] Creating Layer drop2
I1017 23:47:39.075412  9391 net.cpp:434] drop2 <- pool2
I1017 23:47:39.075418  9391 net.cpp:408] drop2 -> drop2
I1017 23:47:39.075446  9391 net.cpp:150] Setting up drop2
I1017 23:47:39.075453  9391 net.cpp:157] Top shape: 100 240 6 6 (864000)
I1017 23:47:39.075455  9391 net.cpp:165] Memory required for data: 142389600
I1017 23:47:39.075459  9391 layer_factory.hpp:77] Creating layer relu2
I1017 23:47:39.075464  9391 net.cpp:100] Creating Layer relu2
I1017 23:47:39.075469  9391 net.cpp:434] relu2 <- drop2
I1017 23:47:39.075474  9391 net.cpp:408] relu2 -> relu2
I1017 23:47:39.075685  9391 net.cpp:150] Setting up relu2
I1017 23:47:39.075695  9391 net.cpp:157] Top shape: 100 240 6 6 (864000)
I1017 23:47:39.075698  9391 net.cpp:165] Memory required for data: 145845600
I1017 23:47:39.075701  9391 layer_factory.hpp:77] Creating layer conv4
I1017 23:47:39.075711  9391 net.cpp:100] Creating Layer conv4
I1017 23:47:39.075714  9391 net.cpp:434] conv4 <- relu2
I1017 23:47:39.075721  9391 net.cpp:408] conv4 -> conv4
I1017 23:47:39.076972  9391 net.cpp:150] Setting up conv4
I1017 23:47:39.076987  9391 net.cpp:157] Top shape: 100 240 6 6 (864000)
I1017 23:47:39.076989  9391 net.cpp:165] Memory required for data: 149301600
I1017 23:47:39.076997  9391 layer_factory.hpp:77] Creating layer conv5
I1017 23:47:39.077008  9391 net.cpp:100] Creating Layer conv5
I1017 23:47:39.077011  9391 net.cpp:434] conv5 <- conv4
I1017 23:47:39.077018  9391 net.cpp:408] conv5 -> conv5
I1017 23:47:39.078892  9391 net.cpp:150] Setting up conv5
I1017 23:47:39.078905  9391 net.cpp:157] Top shape: 100 260 5 5 (650000)
I1017 23:47:39.078908  9391 net.cpp:165] Memory required for data: 151901600
I1017 23:47:39.078919  9391 layer_factory.hpp:77] Creating layer pool3
I1017 23:47:39.078928  9391 net.cpp:100] Creating Layer pool3
I1017 23:47:39.078933  9391 net.cpp:434] pool3 <- conv5
I1017 23:47:39.078939  9391 net.cpp:408] pool3 -> pool3
I1017 23:47:39.078974  9391 net.cpp:150] Setting up pool3
I1017 23:47:39.078979  9391 net.cpp:157] Top shape: 100 260 3 3 (234000)
I1017 23:47:39.078984  9391 net.cpp:165] Memory required for data: 152837600
I1017 23:47:39.078986  9391 layer_factory.hpp:77] Creating layer drop3
I1017 23:47:39.078992  9391 net.cpp:100] Creating Layer drop3
I1017 23:47:39.078996  9391 net.cpp:434] drop3 <- pool3
I1017 23:47:39.079001  9391 net.cpp:408] drop3 -> drop3
I1017 23:47:39.079028  9391 net.cpp:150] Setting up drop3
I1017 23:47:39.079033  9391 net.cpp:157] Top shape: 100 260 3 3 (234000)
I1017 23:47:39.079037  9391 net.cpp:165] Memory required for data: 153773600
I1017 23:47:39.079042  9391 layer_factory.hpp:77] Creating layer relu3
I1017 23:47:39.079051  9391 net.cpp:100] Creating Layer relu3
I1017 23:47:39.079053  9391 net.cpp:434] relu3 <- drop3
I1017 23:47:39.079059  9391 net.cpp:408] relu3 -> relu3
I1017 23:47:39.079272  9391 net.cpp:150] Setting up relu3
I1017 23:47:39.079279  9391 net.cpp:157] Top shape: 100 260 3 3 (234000)
I1017 23:47:39.079282  9391 net.cpp:165] Memory required for data: 154709600
I1017 23:47:39.079287  9391 layer_factory.hpp:77] Creating layer conv6
I1017 23:47:39.079295  9391 net.cpp:100] Creating Layer conv6
I1017 23:47:39.079299  9391 net.cpp:434] conv6 <- relu3
I1017 23:47:39.079305  9391 net.cpp:408] conv6 -> conv6
I1017 23:47:39.080394  9391 net.cpp:150] Setting up conv6
I1017 23:47:39.080404  9391 net.cpp:157] Top shape: 100 260 3 3 (234000)
I1017 23:47:39.080406  9391 net.cpp:165] Memory required for data: 155645600
I1017 23:47:39.080413  9391 layer_factory.hpp:77] Creating layer conv7
I1017 23:47:39.080421  9391 net.cpp:100] Creating Layer conv7
I1017 23:47:39.080425  9391 net.cpp:434] conv7 <- conv6
I1017 23:47:39.080432  9391 net.cpp:408] conv7 -> conv7
I1017 23:47:39.082554  9391 net.cpp:150] Setting up conv7
I1017 23:47:39.082569  9391 net.cpp:157] Top shape: 100 280 2 2 (112000)
I1017 23:47:39.082573  9391 net.cpp:165] Memory required for data: 156093600
I1017 23:47:39.082579  9391 layer_factory.hpp:77] Creating layer pool4
I1017 23:47:39.082599  9391 net.cpp:100] Creating Layer pool4
I1017 23:47:39.082604  9391 net.cpp:434] pool4 <- conv7
I1017 23:47:39.082612  9391 net.cpp:408] pool4 -> pool4
I1017 23:47:39.082644  9391 net.cpp:150] Setting up pool4
I1017 23:47:39.082650  9391 net.cpp:157] Top shape: 100 280 1 1 (28000)
I1017 23:47:39.082654  9391 net.cpp:165] Memory required for data: 156205600
I1017 23:47:39.082659  9391 layer_factory.hpp:77] Creating layer drop4
I1017 23:47:39.082665  9391 net.cpp:100] Creating Layer drop4
I1017 23:47:39.082669  9391 net.cpp:434] drop4 <- pool4
I1017 23:47:39.082674  9391 net.cpp:408] drop4 -> drop4
I1017 23:47:39.082701  9391 net.cpp:150] Setting up drop4
I1017 23:47:39.082706  9391 net.cpp:157] Top shape: 100 280 1 1 (28000)
I1017 23:47:39.082710  9391 net.cpp:165] Memory required for data: 156317600
I1017 23:47:39.082713  9391 layer_factory.hpp:77] Creating layer relu4
I1017 23:47:39.082720  9391 net.cpp:100] Creating Layer relu4
I1017 23:47:39.082723  9391 net.cpp:434] relu4 <- drop4
I1017 23:47:39.082729  9391 net.cpp:408] relu4 -> relu4
I1017 23:47:39.082936  9391 net.cpp:150] Setting up relu4
I1017 23:47:39.082944  9391 net.cpp:157] Top shape: 100 280 1 1 (28000)
I1017 23:47:39.082947  9391 net.cpp:165] Memory required for data: 156429600
I1017 23:47:39.082950  9391 layer_factory.hpp:77] Creating layer conv8
I1017 23:47:39.082958  9391 net.cpp:100] Creating Layer conv8
I1017 23:47:39.082962  9391 net.cpp:434] conv8 <- relu4
I1017 23:47:39.082967  9391 net.cpp:408] conv8 -> conv8
I1017 23:47:39.083900  9391 net.cpp:150] Setting up conv8
I1017 23:47:39.083909  9391 net.cpp:157] Top shape: 100 280 1 1 (28000)
I1017 23:47:39.083912  9391 net.cpp:165] Memory required for data: 156541600
I1017 23:47:39.083920  9391 layer_factory.hpp:77] Creating layer pool5
I1017 23:47:39.083925  9391 net.cpp:100] Creating Layer pool5
I1017 23:47:39.083930  9391 net.cpp:434] pool5 <- conv8
I1017 23:47:39.083936  9391 net.cpp:408] pool5 -> pool5
I1017 23:47:39.083966  9391 net.cpp:150] Setting up pool5
I1017 23:47:39.083971  9391 net.cpp:157] Top shape: 100 280 1 1 (28000)
I1017 23:47:39.083976  9391 net.cpp:165] Memory required for data: 156653600
I1017 23:47:39.083979  9391 layer_factory.hpp:77] Creating layer drop5
I1017 23:47:39.083984  9391 net.cpp:100] Creating Layer drop5
I1017 23:47:39.083988  9391 net.cpp:434] drop5 <- pool5
I1017 23:47:39.083994  9391 net.cpp:408] drop5 -> drop5
I1017 23:47:39.084020  9391 net.cpp:150] Setting up drop5
I1017 23:47:39.084027  9391 net.cpp:157] Top shape: 100 280 1 1 (28000)
I1017 23:47:39.084029  9391 net.cpp:165] Memory required for data: 156765600
I1017 23:47:39.084033  9391 layer_factory.hpp:77] Creating layer relu5
I1017 23:47:39.084038  9391 net.cpp:100] Creating Layer relu5
I1017 23:47:39.084041  9391 net.cpp:434] relu5 <- drop5
I1017 23:47:39.084046  9391 net.cpp:408] relu5 -> relu5
I1017 23:47:39.084164  9391 net.cpp:150] Setting up relu5
I1017 23:47:39.084172  9391 net.cpp:157] Top shape: 100 280 1 1 (28000)
I1017 23:47:39.084177  9391 net.cpp:165] Memory required for data: 156877600
I1017 23:47:39.084179  9391 layer_factory.hpp:77] Creating layer conv10
I1017 23:47:39.084187  9391 net.cpp:100] Creating Layer conv10
I1017 23:47:39.084190  9391 net.cpp:434] conv10 <- relu5
I1017 23:47:39.084195  9391 net.cpp:408] conv10 -> conv10
I1017 23:47:39.085139  9391 net.cpp:150] Setting up conv10
I1017 23:47:39.085146  9391 net.cpp:157] Top shape: 100 300 1 1 (30000)
I1017 23:47:39.085150  9391 net.cpp:165] Memory required for data: 156997600
I1017 23:47:39.085160  9391 layer_factory.hpp:77] Creating layer pool6
I1017 23:47:39.085166  9391 net.cpp:100] Creating Layer pool6
I1017 23:47:39.085170  9391 net.cpp:434] pool6 <- conv10
I1017 23:47:39.085175  9391 net.cpp:408] pool6 -> pool6
I1017 23:47:39.085204  9391 net.cpp:150] Setting up pool6
I1017 23:47:39.085211  9391 net.cpp:157] Top shape: 100 300 1 1 (30000)
I1017 23:47:39.085213  9391 net.cpp:165] Memory required for data: 157117600
I1017 23:47:39.085216  9391 layer_factory.hpp:77] Creating layer drop6
I1017 23:47:39.085222  9391 net.cpp:100] Creating Layer drop6
I1017 23:47:39.085232  9391 net.cpp:434] drop6 <- pool6
I1017 23:47:39.085237  9391 net.cpp:408] drop6 -> drop6
I1017 23:47:39.085266  9391 net.cpp:150] Setting up drop6
I1017 23:47:39.085273  9391 net.cpp:157] Top shape: 100 300 1 1 (30000)
I1017 23:47:39.085276  9391 net.cpp:165] Memory required for data: 157237600
I1017 23:47:39.085279  9391 layer_factory.hpp:77] Creating layer relu6
I1017 23:47:39.085284  9391 net.cpp:100] Creating Layer relu6
I1017 23:47:39.085289  9391 net.cpp:434] relu6 <- drop6
I1017 23:47:39.085292  9391 net.cpp:408] relu6 -> relu6
I1017 23:47:39.085410  9391 net.cpp:150] Setting up relu6
I1017 23:47:39.085417  9391 net.cpp:157] Top shape: 100 300 1 1 (30000)
I1017 23:47:39.085419  9391 net.cpp:165] Memory required for data: 157357600
I1017 23:47:39.085423  9391 layer_factory.hpp:77] Creating layer conv11
I1017 23:47:39.085431  9391 net.cpp:100] Creating Layer conv11
I1017 23:47:39.085434  9391 net.cpp:434] conv11 <- relu6
I1017 23:47:39.085439  9391 net.cpp:408] conv11 -> conv11
I1017 23:47:39.086215  9391 net.cpp:150] Setting up conv11
I1017 23:47:39.086223  9391 net.cpp:157] Top shape: 100 100 1 1 (10000)
I1017 23:47:39.086226  9391 net.cpp:165] Memory required for data: 157397600
I1017 23:47:39.086232  9391 layer_factory.hpp:77] Creating layer pool7
I1017 23:47:39.086241  9391 net.cpp:100] Creating Layer pool7
I1017 23:47:39.086244  9391 net.cpp:434] pool7 <- conv11
I1017 23:47:39.086249  9391 net.cpp:408] pool7 -> pool7
I1017 23:47:39.086279  9391 net.cpp:150] Setting up pool7
I1017 23:47:39.086285  9391 net.cpp:157] Top shape: 100 100 1 1 (10000)
I1017 23:47:39.086288  9391 net.cpp:165] Memory required for data: 157437600
I1017 23:47:39.086292  9391 layer_factory.hpp:77] Creating layer drop7
I1017 23:47:39.086302  9391 net.cpp:100] Creating Layer drop7
I1017 23:47:39.086307  9391 net.cpp:434] drop7 <- pool7
I1017 23:47:39.086311  9391 net.cpp:408] drop7 -> drop7
I1017 23:47:39.086338  9391 net.cpp:150] Setting up drop7
I1017 23:47:39.086343  9391 net.cpp:157] Top shape: 100 100 1 1 (10000)
I1017 23:47:39.086346  9391 net.cpp:165] Memory required for data: 157477600
I1017 23:47:39.086349  9391 layer_factory.hpp:77] Creating layer relu7
I1017 23:47:39.086354  9391 net.cpp:100] Creating Layer relu7
I1017 23:47:39.086357  9391 net.cpp:434] relu7 <- drop7
I1017 23:47:39.086362  9391 net.cpp:408] relu7 -> relu7
I1017 23:47:39.086565  9391 net.cpp:150] Setting up relu7
I1017 23:47:39.086572  9391 net.cpp:157] Top shape: 100 100 1 1 (10000)
I1017 23:47:39.086575  9391 net.cpp:165] Memory required for data: 157517600
I1017 23:47:39.086580  9391 layer_factory.hpp:77] Creating layer pool
I1017 23:47:39.086585  9391 net.cpp:100] Creating Layer pool
I1017 23:47:39.086588  9391 net.cpp:434] pool <- relu7
I1017 23:47:39.086593  9391 net.cpp:408] pool -> pool
I1017 23:47:39.086711  9391 net.cpp:150] Setting up pool
I1017 23:47:39.086717  9391 net.cpp:157] Top shape: 100 100 1 1 (10000)
I1017 23:47:39.086720  9391 net.cpp:165] Memory required for data: 157557600
I1017 23:47:39.086724  9391 layer_factory.hpp:77] Creating layer flatten
I1017 23:47:39.086730  9391 net.cpp:100] Creating Layer flatten
I1017 23:47:39.086733  9391 net.cpp:434] flatten <- pool
I1017 23:47:39.086738  9391 net.cpp:408] flatten -> flatten
I1017 23:47:39.086758  9391 net.cpp:150] Setting up flatten
I1017 23:47:39.086763  9391 net.cpp:157] Top shape: 100 100 (10000)
I1017 23:47:39.086766  9391 net.cpp:165] Memory required for data: 157597600
I1017 23:47:39.086769  9391 layer_factory.hpp:77] Creating layer flatten_flatten_0_split
I1017 23:47:39.086774  9391 net.cpp:100] Creating Layer flatten_flatten_0_split
I1017 23:47:39.086778  9391 net.cpp:434] flatten_flatten_0_split <- flatten
I1017 23:47:39.086783  9391 net.cpp:408] flatten_flatten_0_split -> flatten_flatten_0_split_0
I1017 23:47:39.086789  9391 net.cpp:408] flatten_flatten_0_split -> flatten_flatten_0_split_1
I1017 23:47:39.086819  9391 net.cpp:150] Setting up flatten_flatten_0_split
I1017 23:47:39.086824  9391 net.cpp:157] Top shape: 100 100 (10000)
I1017 23:47:39.086836  9391 net.cpp:157] Top shape: 100 100 (10000)
I1017 23:47:39.086839  9391 net.cpp:165] Memory required for data: 157677600
I1017 23:47:39.086843  9391 layer_factory.hpp:77] Creating layer ip_c
I1017 23:47:39.086849  9391 net.cpp:100] Creating Layer ip_c
I1017 23:47:39.086853  9391 net.cpp:434] ip_c <- flatten_flatten_0_split_0
I1017 23:47:39.086858  9391 net.cpp:408] ip_c -> ip_c
I1017 23:47:39.086942  9391 net.cpp:150] Setting up ip_c
I1017 23:47:39.086948  9391 net.cpp:157] Top shape: 100 20 (2000)
I1017 23:47:39.086951  9391 net.cpp:165] Memory required for data: 157685600
I1017 23:47:39.086957  9391 layer_factory.hpp:77] Creating layer ip_c_ip_c_0_split
I1017 23:47:39.086962  9391 net.cpp:100] Creating Layer ip_c_ip_c_0_split
I1017 23:47:39.086966  9391 net.cpp:434] ip_c_ip_c_0_split <- ip_c
I1017 23:47:39.086971  9391 net.cpp:408] ip_c_ip_c_0_split -> ip_c_ip_c_0_split_0
I1017 23:47:39.086979  9391 net.cpp:408] ip_c_ip_c_0_split -> ip_c_ip_c_0_split_1
I1017 23:47:39.087007  9391 net.cpp:150] Setting up ip_c_ip_c_0_split
I1017 23:47:39.087013  9391 net.cpp:157] Top shape: 100 20 (2000)
I1017 23:47:39.087015  9391 net.cpp:157] Top shape: 100 20 (2000)
I1017 23:47:39.087019  9391 net.cpp:165] Memory required for data: 157701600
I1017 23:47:39.087023  9391 layer_factory.hpp:77] Creating layer accuracy_f
I1017 23:47:39.087028  9391 net.cpp:100] Creating Layer accuracy_f
I1017 23:47:39.087031  9391 net.cpp:434] accuracy_f <- ip_c_ip_c_0_split_0
I1017 23:47:39.087035  9391 net.cpp:434] accuracy_f <- label_coarse_data_1_split_0
I1017 23:47:39.087040  9391 net.cpp:408] accuracy_f -> accuracy_f
…
