…
train_state {
  level: 0
  stage: ""
}
type: "Nesterov"
I1018 01:29:03.459952 13201 solver.cpp:81] Creating training net from train_net file: /home/adam/Honours/Honours-Project/cifar-100_pooling/max/elu/poolcnn_elu_train.prototxt
I1018 01:29:03.460244 13201 net.cpp:58] Initializing net from parameters: 
state {
  phase: TRAIN
  level: 0
  stage: ""
}
layer {
  name: "data"
  type: "HDF5Data"
  top: "data"
  top: "label_coarse"
  top: "label_fine"
  hdf5_data_param {
    source: "../../../../data/cifar-100/cifar_100_caffe_hdf5/train.txt"
    batch_size: 64
  }
}
layer {
  name: "conv1"
  type: "Convolution"
  bottom: "data"
  top: "conv1"
  convolution_param {
    num_output: 192
    kernel_size: 5
    weight_filler {
      type: "xavier"
    }
  }
}
layer {
  name: "pool1"
  type: "Pooling"
  bottom: "conv1"
  top: "pool1"
  pooling_param {
    pool: MAX
    kernel_size: 2
    stride: 2
  }
}
layer {
  name: "drop1"
  type: "Dropout"
  bottom: "pool1"
  top: "drop1"
  dropout_param {
    dropout_ratio: 0
  }
}
layer {
  name: "elu1"
  type: "ELU"
  bottom: "drop1"
  top: "elu1"
}
layer {
  name: "conv2"
  type: "Convolution"
  bottom: "elu1"
  top: "conv2"
  convolution_param {
    num_output: 192
    kernel_size: 1
    weight_filler {
      type: "xavier"
    }
  }
}
layer {
  name: "conv3"
  type: "Convolution"
  bottom: "conv2"
  top: "conv3"
  convolution_param {
    num_output: 240
    kernel_size: 3
    weight_filler {
      type: "xavier"
    }
  }
}
layer {
  name: "pool2"
  type: "Pooling"
  bottom: "conv3"
  top: "pool2"
  pooling_param {
    pool: MAX
    kernel_size: 2
    stride: 2
  }
}
layer {
  name: "drop2"
  type: "Dropout"
  bottom: "pool2"
  top: "drop2"
  dropout_param {
    dropout_ratio: 0.1
  }
}
layer {
  name: "elu2"
  type: "ELU"
  bottom: "drop2"
  top: "elu2"
}
layer {
  name: "conv4"
  type: "Convolution"
  bottom: "elu2"
  top: "conv4"
  convolution_param {
    num_output: 240
    kernel_size: 1
    weight_filler {
      type: "xavier"
    }
  }
}
layer {
  name: "conv5"
  type: "Convolution"
  bottom: "conv4"
  top: "conv5"
  convolution_param {
    num_output: 260
    kernel_size: 2
    weight_filler {
      type: "xavier"
    }
  }
}
layer {
  name: "pool3"
  type: "Pooling"
  bottom: "conv5"
  top: "pool3"
  pooling_param {
    pool: MAX
    kernel_size: 2
    stride: 2
  }
}
layer {
  name: "drop3"
  type: "Dropout"
  bottom: "pool3"
  top: "drop3"
  dropout_param {
    dropout_ratio: 0.2
  }
}
layer {
  name: "elu3"
  type: "ELU"
  bottom: "drop3"
  top: "elu3"
}
layer {
  name: "conv6"
  type: "Convolution"
  bottom: "elu3"
  top: "conv6"
  convolution_param {
    num_output: 260
    kernel_size: 1
    weight_filler {
      type: "xavier"
    }
  }
}
layer {
  name: "conv7"
  type: "Convolution"
  bottom: "conv6"
  top: "conv7"
  convolution_param {
    num_output: 280
    kernel_size: 2
    weight_filler {
      type: "xavier"
    }
  }
}
layer {
  name: "pool4"
  type: "Pooling"
  bottom: "conv7"
  top: "pool4"
  pooling_param {
    pool: MAX
    kernel_size: 2
    stride: 2
  }
}
layer {
  name: "drop4"
  type: "Dropout"
  bottom: "pool4"
  top: "drop4"
  dropout_param {
    dropout_ratio: 0.3
  }
}
layer {
  name: "elu4"
  type: "ELU"
  bottom: "drop4"
  top: "elu4"
}
layer {
  name: "conv8"
  type: "Convolution"
  bottom: "elu4"
  top: "conv8"
  convolution_param {
    num_output: 280
    kernel_size: 1
    weight_filler {
      type: "xavier"
    }
  }
}
layer {
  name: "pool5"
  type: "Pooling"
  bottom: "conv8"
  top: "pool5"
  pooling_param {
    pool: MAX
    kernel_size: 2
    stride: 2
  }
}
layer {
  name: "drop5"
  type: "Dropout"
  bottom: "pool5"
  top: "drop5"
  dropout_param {
    dropout_ratio: 0.4
  }
}
layer {
  name: "elu5"
  type: "ELU"
  bottom: "drop5"
  top: "elu5"
}
layer {
  name: "conv10"
  type: "Convolution"
  bottom: "elu5"
  top: "conv10"
  convolution_param {
    num_output: 300
    kernel_size: 1
    weight_filler {
      type: "xavier"
    }
  }
}
layer {
  name: "pool6"
  type: "Pooling"
  bottom: "conv10"
  top: "pool6"
  pooling_param {
    pool: MAX
    kernel_size: 2
    stride: 2
  }
}
layer {
  name: "drop6"
  type: "Dropout"
  bottom: "pool6"
  top: "drop6"
  dropout_param {
    dropout_ratio: 0.5
  }
}
layer {
  name: "elu6"
  type: "ELU"
  bottom: "drop6"
  top: "elu6"
}
layer {
  name: "conv11"
  type: "Convolution"
  bottom: "elu6"
  top: "conv11"
  convolution_param {
    num_output: 100
    kernel_size: 1
    weight_filler {
      type: "xavier"
    }
  }
}
layer {
  name: "pool7"
  type: "Pooling"
  bottom: "conv11"
  top: "pool7"
  pooling_param {
    pool: MAX
    kernel_size: 2
    stride: 2
  }
}
layer {
  name: "drop7"
  type: "Dropout"
  bottom: "pool7"
  top: "drop7"
  dropout_param {
    dropout_ratio: 0
  }
}
layer {
  name: "elu7"
  type: "ELU"
  bottom: "drop7"
  top: "elu7"
}
layer {
  name: "pool"
  type: "Pooling"
  bottom: "elu7"
  top: "pool"
  pooling_param {
    pool: AVE
    global_pooling: true
  }
}
layer {
  name: "flatten"
  type: "Flatten"
  bottom: "pool"
  top: "flatten"
}
layer {
  name: "ip_c"
  type: "InnerProduct"
  bottom: "flatten"
  top: "ip_c"
  inner_product_param {
    num_output: 20
    weight_filler {
      type: "xavier"
    }
  }
}
layer {
  name: "accuracy_f"
  type: "Accuracy"
  bottom: "ip_c"
  bottom: "label_coarse"
  top: "accuracy_f"
}
layer {
  name: "loss_c"
  type: "SoftmaxWithLoss"
  bottom: "ip_c"
  bottom: "label_coarse"
  top: "loss_c"
}
layer {
  name: "ip_f"
  type: "InnerProduct"
  bottom: "flatten"
  top: "ip_f"
  inner_product_param {
    num_output: 100
    weight_filler {
      type: "xavier"
    }
  }
}
layer {
  name: "accuracy"
  type: "Accuracy"
  bottom: "ip_f"
  bottom: "label_fine"
  top: "accuracy"
}
layer {
  name: "loss_f"
  type: "SoftmaxWithLoss"
  bottom: "ip_f"
  bottom: "label_fine"
  top: "loss_f"
}
I1018 01:29:03.460402 13201 layer_factory.hpp:77] Creating layer data
I1018 01:29:03.460413 13201 net.cpp:100] Creating Layer data
I1018 01:29:03.460419 13201 net.cpp:408] data -> data
I1018 01:29:03.460435 13201 net.cpp:408] data -> label_coarse
I1018 01:29:03.460444 13201 net.cpp:408] data -> label_fine
I1018 01:29:03.460455 13201 hdf5_data_layer.cpp:79] Loading list of HDF5 filenames from: ../../../../data/cifar-100/cifar_100_caffe_hdf5/train.txt
I1018 01:29:03.460477 13201 hdf5_data_layer.cpp:93] Number of HDF5 files: 1
I1018 01:29:03.461097 13201 hdf5.cpp:35] Datatype class: H5T_INTEGER
I1018 01:29:05.102231 13201 net.cpp:150] Setting up data
I1018 01:29:05.102257 13201 net.cpp:157] Top shape: 64 3 32 32 (196608)
I1018 01:29:05.102262 13201 net.cpp:157] Top shape: 64 (64)
I1018 01:29:05.102265 13201 net.cpp:157] Top shape: 64 (64)
I1018 01:29:05.102267 13201 net.cpp:165] Memory required for data: 786944
I1018 01:29:05.102274 13201 layer_factory.hpp:77] Creating layer label_coarse_data_1_split
I1018 01:29:05.102288 13201 net.cpp:100] Creating Layer label_coarse_data_1_split
I1018 01:29:05.102293 13201 net.cpp:434] label_coarse_data_1_split <- label_coarse
I1018 01:29:05.102305 13201 net.cpp:408] label_coarse_data_1_split -> label_coarse_data_1_split_0
I1018 01:29:05.102315 13201 net.cpp:408] label_coarse_data_1_split -> label_coarse_data_1_split_1
I1018 01:29:05.102341 13201 net.cpp:150] Setting up label_coarse_data_1_split
I1018 01:29:05.102346 13201 net.cpp:157] Top shape: 64 (64)
I1018 01:29:05.102350 13201 net.cpp:157] Top shape: 64 (64)
I1018 01:29:05.102354 13201 net.cpp:165] Memory required for data: 787456
I1018 01:29:05.102357 13201 layer_factory.hpp:77] Creating layer label_fine_data_2_split
I1018 01:29:05.102375 13201 net.cpp:100] Creating Layer label_fine_data_2_split
I1018 01:29:05.102380 13201 net.cpp:434] label_fine_data_2_split <- label_fine
I1018 01:29:05.102385 13201 net.cpp:408] label_fine_data_2_split -> label_fine_data_2_split_0
I1018 01:29:05.102391 13201 net.cpp:408] label_fine_data_2_split -> label_fine_data_2_split_1
I1018 01:29:05.102412 13201 net.cpp:150] Setting up label_fine_data_2_split
I1018 01:29:05.102416 13201 net.cpp:157] Top shape: 64 (64)
I1018 01:29:05.102419 13201 net.cpp:157] Top shape: 64 (64)
I1018 01:29:05.102423 13201 net.cpp:165] Memory required for data: 787968
I1018 01:29:05.102427 13201 layer_factory.hpp:77] Creating layer conv1
I1018 01:29:05.102439 13201 net.cpp:100] Creating Layer conv1
I1018 01:29:05.102442 13201 net.cpp:434] conv1 <- data
I1018 01:29:05.102448 13201 net.cpp:408] conv1 -> conv1
I1018 01:29:05.224692 13201 net.cpp:150] Setting up conv1
I1018 01:29:05.224717 13201 net.cpp:157] Top shape: 64 192 28 28 (9633792)
I1018 01:29:05.224720 13201 net.cpp:165] Memory required for data: 39323136
I1018 01:29:05.224743 13201 layer_factory.hpp:77] Creating layer pool1
I1018 01:29:05.224756 13201 net.cpp:100] Creating Layer pool1
I1018 01:29:05.224759 13201 net.cpp:434] pool1 <- conv1
I1018 01:29:05.224766 13201 net.cpp:408] pool1 -> pool1
I1018 01:29:05.224812 13201 net.cpp:150] Setting up pool1
I1018 01:29:05.224817 13201 net.cpp:157] Top shape: 64 192 14 14 (2408448)
I1018 01:29:05.224820 13201 net.cpp:165] Memory required for data: 48956928
I1018 01:29:05.224823 13201 layer_factory.hpp:77] Creating layer drop1
I1018 01:29:05.224829 13201 net.cpp:100] Creating Layer drop1
I1018 01:29:05.224833 13201 net.cpp:434] drop1 <- pool1
I1018 01:29:05.224838 13201 net.cpp:408] drop1 -> drop1
I1018 01:29:05.224865 13201 net.cpp:150] Setting up drop1
I1018 01:29:05.224870 13201 net.cpp:157] Top shape: 64 192 14 14 (2408448)
I1018 01:29:05.224874 13201 net.cpp:165] Memory required for data: 58590720
I1018 01:29:05.224876 13201 layer_factory.hpp:77] Creating layer elu1
I1018 01:29:05.224881 13201 net.cpp:100] Creating Layer elu1
I1018 01:29:05.224885 13201 net.cpp:434] elu1 <- drop1
I1018 01:29:05.224890 13201 net.cpp:408] elu1 -> elu1
I1018 01:29:05.224905 13201 net.cpp:150] Setting up elu1
I1018 01:29:05.224910 13201 net.cpp:157] Top shape: 64 192 14 14 (2408448)
I1018 01:29:05.224915 13201 net.cpp:165] Memory required for data: 68224512
I1018 01:29:05.224918 13201 layer_factory.hpp:77] Creating layer conv2
I1018 01:29:05.224925 13201 net.cpp:100] Creating Layer conv2
I1018 01:29:05.224928 13201 net.cpp:434] conv2 <- elu1
I1018 01:29:05.224933 13201 net.cpp:408] conv2 -> conv2
I1018 01:29:05.225682 13201 net.cpp:150] Setting up conv2
I1018 01:29:05.225689 13201 net.cpp:157] Top shape: 64 192 14 14 (2408448)
I1018 01:29:05.225692 13201 net.cpp:165] Memory required for data: 77858304
I1018 01:29:05.225702 13201 layer_factory.hpp:77] Creating layer conv3
I1018 01:29:05.225711 13201 net.cpp:100] Creating Layer conv3
I1018 01:29:05.225714 13201 net.cpp:434] conv3 <- conv2
I1018 01:29:05.225720 13201 net.cpp:408] conv3 -> conv3
I1018 01:29:05.228157 13201 net.cpp:150] Setting up conv3
I1018 01:29:05.228168 13201 net.cpp:157] Top shape: 64 240 12 12 (2211840)
I1018 01:29:05.228171 13201 net.cpp:165] Memory required for data: 86705664
I1018 01:29:05.228180 13201 layer_factory.hpp:77] Creating layer pool2
I1018 01:29:05.228186 13201 net.cpp:100] Creating Layer pool2
I1018 01:29:05.228190 13201 net.cpp:434] pool2 <- conv3
I1018 01:29:05.228198 13201 net.cpp:408] pool2 -> pool2
I1018 01:29:05.228224 13201 net.cpp:150] Setting up pool2
I1018 01:29:05.228229 13201 net.cpp:157] Top shape: 64 240 6 6 (552960)
I1018 01:29:05.228232 13201 net.cpp:165] Memory required for data: 88917504
I1018 01:29:05.228236 13201 layer_factory.hpp:77] Creating layer drop2
I1018 01:29:05.228243 13201 net.cpp:100] Creating Layer drop2
I1018 01:29:05.228246 13201 net.cpp:434] drop2 <- pool2
I1018 01:29:05.228251 13201 net.cpp:408] drop2 -> drop2
I1018 01:29:05.228276 13201 net.cpp:150] Setting up drop2
I1018 01:29:05.228281 13201 net.cpp:157] Top shape: 64 240 6 6 (552960)
I1018 01:29:05.228293 13201 net.cpp:165] Memory required for data: 91129344
I1018 01:29:05.228296 13201 layer_factory.hpp:77] Creating layer elu2
I1018 01:29:05.228302 13201 net.cpp:100] Creating Layer elu2
I1018 01:29:05.228305 13201 net.cpp:434] elu2 <- drop2
I1018 01:29:05.228312 13201 net.cpp:408] elu2 -> elu2
I1018 01:29:05.228328 13201 net.cpp:150] Setting up elu2
I1018 01:29:05.228334 13201 net.cpp:157] Top shape: 64 240 6 6 (552960)
I1018 01:29:05.228338 13201 net.cpp:165] Memory required for data: 93341184
I1018 01:29:05.228340 13201 layer_factory.hpp:77] Creating layer conv4
I1018 01:29:05.228348 13201 net.cpp:100] Creating Layer conv4
I1018 01:29:05.228350 13201 net.cpp:434] conv4 <- elu2
I1018 01:29:05.228356 13201 net.cpp:408] conv4 -> conv4
I1018 01:29:05.229183 13201 net.cpp:150] Setting up conv4
I1018 01:29:05.229193 13201 net.cpp:157] Top shape: 64 240 6 6 (552960)
I1018 01:29:05.229197 13201 net.cpp:165] Memory required for data: 95553024
I1018 01:29:05.229203 13201 layer_factory.hpp:77] Creating layer conv5
I1018 01:29:05.229210 13201 net.cpp:100] Creating Layer conv5
I1018 01:29:05.229214 13201 net.cpp:434] conv5 <- conv4
I1018 01:29:05.229220 13201 net.cpp:408] conv5 -> conv5
I1018 01:29:05.230984 13201 net.cpp:150] Setting up conv5
I1018 01:29:05.230995 13201 net.cpp:157] Top shape: 64 260 5 5 (416000)
I1018 01:29:05.230998 13201 net.cpp:165] Memory required for data: 97217024
I1018 01:29:05.231007 13201 layer_factory.hpp:77] Creating layer pool3
I1018 01:29:05.231012 13201 net.cpp:100] Creating Layer pool3
I1018 01:29:05.231019 13201 net.cpp:434] pool3 <- conv5
I1018 01:29:05.231024 13201 net.cpp:408] pool3 -> pool3
I1018 01:29:05.231051 13201 net.cpp:150] Setting up pool3
I1018 01:29:05.231056 13201 net.cpp:157] Top shape: 64 260 3 3 (149760)
I1018 01:29:05.231060 13201 net.cpp:165] Memory required for data: 97816064
I1018 01:29:05.231063 13201 layer_factory.hpp:77] Creating layer drop3
I1018 01:29:05.231070 13201 net.cpp:100] Creating Layer drop3
I1018 01:29:05.231072 13201 net.cpp:434] drop3 <- pool3
I1018 01:29:05.231078 13201 net.cpp:408] drop3 -> drop3
I1018 01:29:05.231101 13201 net.cpp:150] Setting up drop3
I1018 01:29:05.231107 13201 net.cpp:157] Top shape: 64 260 3 3 (149760)
I1018 01:29:05.231111 13201 net.cpp:165] Memory required for data: 98415104
I1018 01:29:05.231113 13201 layer_factory.hpp:77] Creating layer elu3
I1018 01:29:05.231122 13201 net.cpp:100] Creating Layer elu3
I1018 01:29:05.231125 13201 net.cpp:434] elu3 <- drop3
I1018 01:29:05.231129 13201 net.cpp:408] elu3 -> elu3
I1018 01:29:05.231147 13201 net.cpp:150] Setting up elu3
I1018 01:29:05.231151 13201 net.cpp:157] Top shape: 64 260 3 3 (149760)
I1018 01:29:05.231155 13201 net.cpp:165] Memory required for data: 99014144
I1018 01:29:05.231158 13201 layer_factory.hpp:77] Creating layer conv6
I1018 01:29:05.231166 13201 net.cpp:100] Creating Layer conv6
I1018 01:29:05.231169 13201 net.cpp:434] conv6 <- elu3
I1018 01:29:05.231176 13201 net.cpp:408] conv6 -> conv6
I1018 01:29:05.232305 13201 net.cpp:150] Setting up conv6
I1018 01:29:05.232313 13201 net.cpp:157] Top shape: 64 260 3 3 (149760)
I1018 01:29:05.232316 13201 net.cpp:165] Memory required for data: 99613184
I1018 01:29:05.232322 13201 layer_factory.hpp:77] Creating layer conv7
I1018 01:29:05.232332 13201 net.cpp:100] Creating Layer conv7
I1018 01:29:05.232336 13201 net.cpp:434] conv7 <- conv6
I1018 01:29:05.232342 13201 net.cpp:408] conv7 -> conv7
I1018 01:29:05.234208 13201 net.cpp:150] Setting up conv7
I1018 01:29:05.234217 13201 net.cpp:157] Top shape: 64 280 2 2 (71680)
I1018 01:29:05.234220 13201 net.cpp:165] Memory required for data: 99899904
I1018 01:29:05.234226 13201 layer_factory.hpp:77] Creating layer pool4
I1018 01:29:05.234235 13201 net.cpp:100] Creating Layer pool4
I1018 01:29:05.234239 13201 net.cpp:434] pool4 <- conv7
I1018 01:29:05.234244 13201 net.cpp:408] pool4 -> pool4
I1018 01:29:05.234273 13201 net.cpp:150] Setting up pool4
I1018 01:29:05.234279 13201 net.cpp:157] Top shape: 64 280 1 1 (17920)
I1018 01:29:05.234292 13201 net.cpp:165] Memory required for data: 99971584
I1018 01:29:05.234295 13201 layer_factory.hpp:77] Creating layer drop4
I1018 01:29:05.234302 13201 net.cpp:100] Creating Layer drop4
I1018 01:29:05.234305 13201 net.cpp:434] drop4 <- pool4
I1018 01:29:05.234311 13201 net.cpp:408] drop4 -> drop4
I1018 01:29:05.234335 13201 net.cpp:150] Setting up drop4
I1018 01:29:05.234343 13201 net.cpp:157] Top shape: 64 280 1 1 (17920)
I1018 01:29:05.234346 13201 net.cpp:165] Memory required for data: 100043264
I1018 01:29:05.234349 13201 layer_factory.hpp:77] Creating layer elu4
I1018 01:29:05.234354 13201 net.cpp:100] Creating Layer elu4
I1018 01:29:05.234356 13201 net.cpp:434] elu4 <- drop4
I1018 01:29:05.234361 13201 net.cpp:408] elu4 -> elu4
I1018 01:29:05.234378 13201 net.cpp:150] Setting up elu4
I1018 01:29:05.234383 13201 net.cpp:157] Top shape: 64 280 1 1 (17920)
I1018 01:29:05.234386 13201 net.cpp:165] Memory required for data: 100114944
I1018 01:29:05.234390 13201 layer_factory.hpp:77] Creating layer conv8
I1018 01:29:05.234397 13201 net.cpp:100] Creating Layer conv8
I1018 01:29:05.234400 13201 net.cpp:434] conv8 <- elu4
I1018 01:29:05.234405 13201 net.cpp:408] conv8 -> conv8
I1018 01:29:05.235304 13201 net.cpp:150] Setting up conv8
I1018 01:29:05.235314 13201 net.cpp:157] Top shape: 64 280 1 1 (17920)
I1018 01:29:05.235317 13201 net.cpp:165] Memory required for data: 100186624
I1018 01:29:05.235323 13201 layer_factory.hpp:77] Creating layer pool5
I1018 01:29:05.235329 13201 net.cpp:100] Creating Layer pool5
I1018 01:29:05.235333 13201 net.cpp:434] pool5 <- conv8
I1018 01:29:05.235339 13201 net.cpp:408] pool5 -> pool5
I1018 01:29:05.235366 13201 net.cpp:150] Setting up pool5
I1018 01:29:05.235371 13201 net.cpp:157] Top shape: 64 280 1 1 (17920)
I1018 01:29:05.235374 13201 net.cpp:165] Memory required for data: 100258304
I1018 01:29:05.235378 13201 layer_factory.hpp:77] Creating layer drop5
I1018 01:29:05.235383 13201 net.cpp:100] Creating Layer drop5
I1018 01:29:05.235388 13201 net.cpp:434] drop5 <- pool5
I1018 01:29:05.235393 13201 net.cpp:408] drop5 -> drop5
I1018 01:29:05.235417 13201 net.cpp:150] Setting up drop5
I1018 01:29:05.235422 13201 net.cpp:157] Top shape: 64 280 1 1 (17920)
I1018 01:29:05.235426 13201 net.cpp:165] Memory required for data: 100329984
I1018 01:29:05.235430 13201 layer_factory.hpp:77] Creating layer elu5
I1018 01:29:05.235433 13201 net.cpp:100] Creating Layer elu5
I1018 01:29:05.235437 13201 net.cpp:434] elu5 <- drop5
I1018 01:29:05.235442 13201 net.cpp:408] elu5 -> elu5
I1018 01:29:05.235458 13201 net.cpp:150] Setting up elu5
I1018 01:29:05.235465 13201 net.cpp:157] Top shape: 64 280 1 1 (17920)
I1018 01:29:05.235468 13201 net.cpp:165] Memory required for data: 100401664
I1018 01:29:05.235471 13201 layer_factory.hpp:77] Creating layer conv10
I1018 01:29:05.235477 13201 net.cpp:100] Creating Layer conv10
I1018 01:29:05.235481 13201 net.cpp:434] conv10 <- elu5
I1018 01:29:05.235486 13201 net.cpp:408] conv10 -> conv10
I1018 01:29:05.236413 13201 net.cpp:150] Setting up conv10
I1018 01:29:05.236424 13201 net.cpp:157] Top shape: 64 300 1 1 (19200)
I1018 01:29:05.236428 13201 net.cpp:165] Memory required for data: 100478464
I1018 01:29:05.236438 13201 layer_factory.hpp:77] Creating layer pool6
I1018 01:29:05.236443 13201 net.cpp:100] Creating Layer pool6
I1018 01:29:05.236448 13201 net.cpp:434] pool6 <- conv10
I1018 01:29:05.236454 13201 net.cpp:408] pool6 -> pool6
I1018 01:29:05.236480 13201 net.cpp:150] Setting up pool6
I1018 01:29:05.236485 13201 net.cpp:157] Top shape: 64 300 1 1 (19200)
I1018 01:29:05.236488 13201 net.cpp:165] Memory required for data: 100555264
I1018 01:29:05.236491 13201 layer_factory.hpp:77] Creating layer drop6
I1018 01:29:05.236498 13201 net.cpp:100] Creating Layer drop6
I1018 01:29:05.236502 13201 net.cpp:434] drop6 <- pool6
I1018 01:29:05.236507 13201 net.cpp:408] drop6 -> drop6
I1018 01:29:05.236536 13201 net.cpp:150] Setting up drop6
I1018 01:29:05.236541 13201 net.cpp:157] Top shape: 64 300 1 1 (19200)
I1018 01:29:05.236546 13201 net.cpp:165] Memory required for data: 100632064
I1018 01:29:05.236555 13201 layer_factory.hpp:77] Creating layer elu6
I1018 01:29:05.236560 13201 net.cpp:100] Creating Layer elu6
I1018 01:29:05.236564 13201 net.cpp:434] elu6 <- drop6
I1018 01:29:05.236570 13201 net.cpp:408] elu6 -> elu6
I1018 01:29:05.236588 13201 net.cpp:150] Setting up elu6
I1018 01:29:05.236593 13201 net.cpp:157] Top shape: 64 300 1 1 (19200)
I1018 01:29:05.236598 13201 net.cpp:165] Memory required for data: 100708864
I1018 01:29:05.236600 13201 layer_factory.hpp:77] Creating layer conv11
I1018 01:29:05.236608 13201 net.cpp:100] Creating Layer conv11
I1018 01:29:05.236611 13201 net.cpp:434] conv11 <- elu6
I1018 01:29:05.236616 13201 net.cpp:408] conv11 -> conv11
I1018 01:29:05.237402 13201 net.cpp:150] Setting up conv11
I1018 01:29:05.237411 13201 net.cpp:157] Top shape: 64 100 1 1 (6400)
I1018 01:29:05.237416 13201 net.cpp:165] Memory required for data: 100734464
I1018 01:29:05.237421 13201 layer_factory.hpp:77] Creating layer pool7
I1018 01:29:05.237427 13201 net.cpp:100] Creating Layer pool7
I1018 01:29:05.237432 13201 net.cpp:434] pool7 <- conv11
I1018 01:29:05.237437 13201 net.cpp:408] pool7 -> pool7
I1018 01:29:05.237465 13201 net.cpp:150] Setting up pool7
I1018 01:29:05.237470 13201 net.cpp:157] Top shape: 64 100 1 1 (6400)
I1018 01:29:05.237473 13201 net.cpp:165] Memory required for data: 100760064
I1018 01:29:05.237478 13201 layer_factory.hpp:77] Creating layer drop7
I1018 01:29:05.237486 13201 net.cpp:100] Creating Layer drop7
I1018 01:29:05.237490 13201 net.cpp:434] drop7 <- pool7
I1018 01:29:05.237494 13201 net.cpp:408] drop7 -> drop7
I1018 01:29:05.237520 13201 net.cpp:150] Setting up drop7
I1018 01:29:05.237525 13201 net.cpp:157] Top shape: 64 100 1 1 (6400)
I1018 01:29:05.237529 13201 net.cpp:165] Memory required for data: 100785664
I1018 01:29:05.237532 13201 layer_factory.hpp:77] Creating layer elu7
I1018 01:29:05.237536 13201 net.cpp:100] Creating Layer elu7
I1018 01:29:05.237540 13201 net.cpp:434] elu7 <- drop7
I1018 01:29:05.237546 13201 net.cpp:408] elu7 -> elu7
I1018 01:29:05.237561 13201 net.cpp:150] Setting up elu7
I1018 01:29:05.237568 13201 net.cpp:157] Top shape: 64 100 1 1 (6400)
I1018 01:29:05.237571 13201 net.cpp:165] Memory required for data: 100811264
I1018 01:29:05.237576 13201 layer_factory.hpp:77] Creating layer pool
I1018 01:29:05.237579 13201 net.cpp:100] Creating Layer pool
I1018 01:29:05.237583 13201 net.cpp:434] pool <- elu7
I1018 01:29:05.237588 13201 net.cpp:408] pool -> pool
I1018 01:29:05.237812 13201 net.cpp:150] Setting up pool
I1018 01:29:05.237821 13201 net.cpp:157] Top shape: 64 100 1 1 (6400)
I1018 01:29:05.237824 13201 net.cpp:165] Memory required for data: 100836864
I1018 01:29:05.237828 13201 layer_factory.hpp:77] Creating layer flatten
I1018 01:29:05.237833 13201 net.cpp:100] Creating Layer flatten
I1018 01:29:05.237838 13201 net.cpp:434] flatten <- pool
I1018 01:29:05.237843 13201 net.cpp:408] flatten -> flatten
I1018 01:29:05.237861 13201 net.cpp:150] Setting up flatten
I1018 01:29:05.237866 13201 net.cpp:157] Top shape: 64 100 (6400)
I1018 01:29:05.237869 13201 net.cpp:165] Memory required for data: 100862464
I1018 01:29:05.237871 13201 layer_factory.hpp:77] Creating layer flatten_flatten_0_split
I1018 01:29:05.237879 13201 net.cpp:100] Creating Layer flatten_flatten_0_split
I1018 01:29:05.237882 13201 net.cpp:434] flatten_flatten_0_split <- flatten
I1018 01:29:05.237887 13201 net.cpp:408] flatten_flatten_0_split -> flatten_flatten_0_split_0
I1018 01:29:05.237895 13201 net.cpp:408] flatten_flatten_0_split -> flatten_flatten_0_split_1
I1018 01:29:05.237922 13201 net.cpp:150] Setting up flatten_flatten_0_split
I1018 01:29:05.237931 13201 net.cpp:157] Top shape: 64 100 (6400)
I1018 01:29:05.237934 13201 net.cpp:157] Top shape: 64 100 (6400)
I1018 01:29:05.237937 13201 net.cpp:165] Memory required for data: 100913664
I1018 01:29:05.237939 13201 layer_factory.hpp:77] Creating layer ip_c
I1018 01:29:05.237946 13201 net.cpp:100] Creating Layer ip_c
I1018 01:29:05.237951 13201 net.cpp:434] ip_c <- flatten_flatten_0_split_0
I1018 01:29:05.237962 13201 net.cpp:408] ip_c -> ip_c
I1018 01:29:05.238322 13201 net.cpp:150] Setting up ip_c
I1018 01:29:05.238329 13201 net.cpp:157] Top shape: 64 20 (1280)
I1018 01:29:05.238332 13201 net.cpp:165] Memory required for data: 100918784
I1018 01:29:05.238337 13201 layer_factory.hpp:77] Creating layer ip_c_ip_c_0_split
I1018 01:29:05.238343 13201 net.cpp:100] Creating Layer ip_c_ip_c_0_split
I1018 01:29:05.238348 13201 net.cpp:434] ip_c_ip_c_0_split <- ip_c
I1018 01:29:05.238353 13201 net.cpp:408] ip_c_ip_c_0_split -> ip_c_ip_c_0_split_0
I1018 01:29:05.238359 13201 net.cpp:408] ip_c_ip_c_0_split -> ip_c_ip_c_0_split_1
I1018 01:29:05.238386 13201 net.cpp:150] Setting up ip_c_ip_c_0_split
I1018 01:29:05.238392 13201 net.cpp:157] Top shape: 64 20 (1280)
I1018 01:29:05.238395 13201 net.cpp:157] Top shape: 64 20 (1280)
I1018 01:29:05.238399 13201 net.cpp:165] Memory required for data: 100929024
I1018 01:29:05.238401 13201 layer_factory.hpp:77] Creating layer accuracy_f
I1018 01:29:05.238407 13201 net.cpp:100] Creating Layer accuracy_f
I1018 01:29:05.238411 13201 net.cpp:434] accuracy_f <- ip_c_ip_c_0_split_0
I1018 01:29:05.238415 13201 net.cpp:434] accuracy_f <- label_coarse_data_1_split_0
I1018 01:29:05.238421 13201 net.cpp:408] accuracy_f -> accuracy_f
…
I1018 01:29:05.239475 13201 net.cpp:283] Network initialization done.
I1018 01:29:05.239670 13201 solver.cpp:181] Creating test net (#0) specified by test_net file: /home/adam/Honours/Honours-Project/cifar-100_pooling/max/elu/poolcnn_elu_test.prototxt
I1018 01:29:05.239792 13201 net.cpp:58] Initializing net from parameters: 
state {
  phase: TEST
}
layer {
  name: "data"
  type: "HDF5Data"
  top: "data"
  top: "label_coarse"
  top: "label_fine"
  hdf5_data_param {
    source: "../../../../data/cifar-100/cifar_100_caffe_hdf5/test.txt"
    batch_size: 100
  }
}
layer {
  name: "conv1"
  type: "Convolution"
  bottom: "data"
  top: "conv1"
  convolution_param {
    num_output: 192
    kernel_size: 5
    weight_filler {
      type: "xavier"
    }
  }
}
layer {
  name: "pool1"
  type: "Pooling"
  bottom: "conv1"
  top: "pool1"
  pooling_param {
    pool: MAX
    kernel_size: 2
    stride: 2
  }
}
layer {
  name: "drop1"
  type: "Dropout"
  bottom: "pool1"
  top: "drop1"
  dropout_param {
    dropout_ratio: 0
  }
}
layer {
  name: "elu1"
  type: "ELU"
  bottom: "drop1"
  top: "elu1"
}
layer {
  name: "conv2"
  type: "Convolution"
  bottom: "elu1"
  top: "conv2"
  convolution_param {
    num_output: 192
    kernel_size: 1
    weight_filler {
      type: "xavier"
    }
  }
}
layer {
  name: "conv3"
  type: "Convolution"
  bottom: "conv2"
  top: "conv3"
  convolution_param {
    num_output: 240
    kernel_size: 3
    weight_filler {
      type: "xavier"
    }
  }
}
layer {
  name: "pool2"
  type: "Pooling"
  bottom: "conv3"
  top: "pool2"
  pooling_param {
    pool: MAX
    kernel_size: 2
    stride: 2
  }
}
layer {
  name: "drop2"
  type: "Dropout"
  bottom: "pool2"
  top: "drop2"
  dropout_param {
    dropout_ratio: 0.1
  }
}
layer {
  name: "elu2"
  type: "ELU"
  bottom: "drop2"
  top: "elu2"
}
layer {
  name: "conv4"
  type: "Convolution"
  bottom: "elu2"
  top: "conv4"
  convolution_param {
    num_output: 240
    kernel_size: 1
    weight_filler {
      type: "xavier"
    }
  }
}
layer {
  name: "conv5"
  type: "Convolution"
  bottom: "conv4"
  top: "conv5"
  convolution_param {
    num_output: 260
    kernel_size: 2
    weight_filler {
      type: "xavier"
    }
  }
}
layer {
  name: "pool3"
  type: "Pooling"
  bottom: "conv5"
  top: "pool3"
  pooling_param {
    pool: MAX
    kernel_size: 2
    stride: 2
  }
}
layer {
  name: "drop3"
  type: "Dropout"
  bottom: "pool3"
  top: "drop3"
  dropout_param {
    dropout_ratio: 0.2
  }
}
layer {
  name: "elu3"
  type: "ELU"
  bottom: "drop3"
  top: "elu3"
}
layer {
  name: "conv6"
  type: "Convolution"
  bottom: "elu3"
  top: "conv6"
  convolution_param {
    num_output: 260
    kernel_size: 1
    weight_filler {
      type: "xavier"
    }
  }
}
layer {
  name: "conv7"
  type: "Convolution"
  bottom: "conv6"
  top: "conv7"
  convolution_param {
    num_output: 280
    kernel_size: 2
    weight_filler {
      type: "xavier"
    }
  }
}
layer {
  name: "pool4"
  type: "Pooling"
  bottom: "conv7"
  top: "pool4"
  pooling_param {
    pool: MAX
    kernel_size: 2
    stride: 2
  }
}
layer {
  name: "drop4"
  type: "Dropout"
  bottom: "pool4"
  top: "drop4"
  dropout_param {
    dropout_ratio: 0.3
  }
}
layer {
  name: "elu4"
  type: "ELU"
  bottom: "drop4"
  top: "elu4"
}
layer {
  name: "conv8"
  type: "Convolution"
  bottom: "elu4"
  top: "conv8"
  convolution_param {
    num_output: 280
    kernel_size: 1
    weight_filler {
      type: "xavier"
    }
  }
}
layer {
  name: "pool5"
  type: "Pooling"
  bottom: "conv8"
  top: "pool5"
  pooling_param {
    pool: MAX
    kernel_size: 2
    stride: 2
  }
}
layer {
  name: "drop5"
  type: "Dropout"
  bottom: "pool5"
  top: "drop5"
  dropout_param {
    dropout_ratio: 0.4
  }
}
layer {
  name: "elu5"
  type: "ELU"
  bottom: "drop5"
  top: "elu5"
}
layer {
  name: "conv10"
  type: "Convolution"
  bottom: "elu5"
  top: "conv10"
  convolution_param {
    num_output: 300
    kernel_size: 1
    weight_filler {
      type: "xavier"
    }
  }
}
layer {
  name: "pool6"
  type: "Pooling"
  bottom: "conv10"
  top: "pool6"
  pooling_param {
    pool: MAX
    kernel_size: 2
    stride: 2
  }
}
layer {
  name: "drop6"
  type: "Dropout"
  bottom: "pool6"
  top: "drop6"
  dropout_param {
    dropout_ratio: 0.5
  }
}
layer {
  name: "elu6"
  type: "ELU"
  bottom: "drop6"
  top: "elu6"
}
layer {
  name: "conv11"
  type: "Convolution"
  bottom: "elu6"
  top: "conv11"
  convolution_param {
    num_output: 100
    kernel_size: 1
    weight_filler {
      type: "xavier"
    }
  }
}
layer {
  name: "pool7"
  type: "Pooling"
  bottom: "conv11"
  top: "pool7"
  pooling_param {
    pool: MAX
    kernel_size: 2
    stride: 2
  }
}
layer {
  name: "drop7"
  type: "Dropout"
  bottom: "pool7"
  top: "drop7"
  dropout_param {
    dropout_ratio: 0
  }
}
layer {
  name: "elu7"
  type: "ELU"
  bottom: "drop7"
  top: "elu7"
}
layer {
  name: "pool"
  type: "Pooling"
  bottom: "elu7"
  top: "pool"
  pooling_param {
    pool: AVE
    global_pooling: true
  }
}
layer {
  name: "flatten"
  type: "Flatten"
  bottom: "pool"
  top: "flatten"
}
layer {
  name: "ip_c"
  type: "InnerProduct"
  bottom: "flatten"
  top: "ip_c"
  inner_product_param {
    num_output: 20
    weight_filler {
      type: "xavier"
    }
  }
}
layer {
  name: "accuracy_f"
  type: "Accuracy"
  bottom: "ip_c"
  bottom: "label_coarse"
  top: "accuracy_f"
}
layer {
  name: "loss_c"
  type: "SoftmaxWithLoss"
  bottom: "ip_c"
  bottom: "label_coarse"
  top: "loss_c"
}
layer {
  name: "ip_f"
  type: "InnerProduct"
  bottom: "flatten"
  top: "ip_f"
  inner_product_param {
    num_output: 100
    weight_filler {
      type: "xavier"
    }
  }
}
layer {
  name: "accuracy"
  type: "Accuracy"
  bottom: "ip_f"
  bottom: "label_fine"
  top: "accuracy"
}
layer {
  name: "loss_f"
  type: "SoftmaxWithLoss"
  bottom: "ip_f"
  bottom: "label_fine"
  top: "loss_f"
}
I1018 01:29:05.239913 13201 layer_factory.hpp:77] Creating layer data
I1018 01:29:05.239920 13201 net.cpp:100] Creating Layer data
I1018 01:29:05.239924 13201 net.cpp:408] data -> data
I1018 01:29:05.239930 13201 net.cpp:408] data -> label_coarse
I1018 01:29:05.239934 13201 net.cpp:408] data -> label_fine
I1018 01:29:05.239940 13201 hdf5_data_layer.cpp:79] Loading list of HDF5 filenames from: ../../../../data/cifar-100/cifar_100_caffe_hdf5/test.txt
I1018 01:29:05.239956 13201 hdf5_data_layer.cpp:93] Number of HDF5 files: 1
I1018 01:29:05.497200 13201 net.cpp:150] Setting up data
I1018 01:29:05.497225 13201 net.cpp:157] Top shape: 100 3 32 32 (307200)
I1018 01:29:05.497229 13201 net.cpp:157] Top shape: 100 (100)
I1018 01:29:05.497232 13201 net.cpp:157] Top shape: 100 (100)
I1018 01:29:05.497236 13201 net.cpp:165] Memory required for data: 1229600
I1018 01:29:05.497242 13201 layer_factory.hpp:77] Creating layer label_coarse_data_1_split
I1018 01:29:05.497252 13201 net.cpp:100] Creating Layer label_coarse_data_1_split
I1018 01:29:05.497256 13201 net.cpp:434] label_coarse_data_1_split <- label_coarse
I1018 01:29:05.497264 13201 net.cpp:408] label_coarse_data_1_split -> label_coarse_data_1_split_0
I1018 01:29:05.497274 13201 net.cpp:408] label_coarse_data_1_split -> label_coarse_data_1_split_1
I1018 01:29:05.497303 13201 net.cpp:150] Setting up label_coarse_data_1_split
I1018 01:29:05.497308 13201 net.cpp:157] Top shape: 100 (100)
I1018 01:29:05.497313 13201 net.cpp:157] Top shape: 100 (100)
I1018 01:29:05.497315 13201 net.cpp:165] Memory required for data: 1230400
I1018 01:29:05.497318 13201 layer_factory.hpp:77] Creating layer label_fine_data_2_split
I1018 01:29:05.497324 13201 net.cpp:100] Creating Layer label_fine_data_2_split
I1018 01:29:05.497328 13201 net.cpp:434] label_fine_data_2_split <- label_fine
I1018 01:29:05.497334 13201 net.cpp:408] label_fine_data_2_split -> label_fine_data_2_split_0
I1018 01:29:05.497340 13201 net.cpp:408] label_fine_data_2_split -> label_fine_data_2_split_1
I1018 01:29:05.497365 13201 net.cpp:150] Setting up label_fine_data_2_split
I1018 01:29:05.497370 13201 net.cpp:157] Top shape: 100 (100)
I1018 01:29:05.497375 13201 net.cpp:157] Top shape: 100 (100)
I1018 01:29:05.497387 13201 net.cpp:165] Memory required for data: 1231200
I1018 01:29:05.497390 13201 layer_factory.hpp:77] Creating layer conv1
I1018 01:29:05.497400 13201 net.cpp:100] Creating Layer conv1
I1018 01:29:05.497402 13201 net.cpp:434] conv1 <- data
I1018 01:29:05.497407 13201 net.cpp:408] conv1 -> conv1
I1018 01:29:05.498237 13201 net.cpp:150] Setting up conv1
I1018 01:29:05.498247 13201 net.cpp:157] Top shape: 100 192 28 28 (15052800)
I1018 01:29:05.498251 13201 net.cpp:165] Memory required for data: 61442400
I1018 01:29:05.498260 13201 layer_factory.hpp:77] Creating layer pool1
I1018 01:29:05.498268 13201 net.cpp:100] Creating Layer pool1
I1018 01:29:05.498271 13201 net.cpp:434] pool1 <- conv1
I1018 01:29:05.498277 13201 net.cpp:408] pool1 -> pool1
I1018 01:29:05.498307 13201 net.cpp:150] Setting up pool1
I1018 01:29:05.498313 13201 net.cpp:157] Top shape: 100 192 14 14 (3763200)
I1018 01:29:05.498317 13201 net.cpp:165] Memory required for data: 76495200
I1018 01:29:05.498320 13201 layer_factory.hpp:77] Creating layer drop1
I1018 01:29:05.498327 13201 net.cpp:100] Creating Layer drop1
I1018 01:29:05.498329 13201 net.cpp:434] drop1 <- pool1
I1018 01:29:05.498334 13201 net.cpp:408] drop1 -> drop1
I1018 01:29:05.498359 13201 net.cpp:150] Setting up drop1
I1018 01:29:05.498364 13201 net.cpp:157] Top shape: 100 192 14 14 (3763200)
I1018 01:29:05.498368 13201 net.cpp:165] Memory required for data: 91548000
I1018 01:29:05.498371 13201 layer_factory.hpp:77] Creating layer elu1
I1018 01:29:05.498378 13201 net.cpp:100] Creating Layer elu1
I1018 01:29:05.498380 13201 net.cpp:434] elu1 <- drop1
I1018 01:29:05.498385 13201 net.cpp:408] elu1 -> elu1
I1018 01:29:05.498400 13201 net.cpp:150] Setting up elu1
I1018 01:29:05.498406 13201 net.cpp:157] Top shape: 100 192 14 14 (3763200)
I1018 01:29:05.498409 13201 net.cpp:165] Memory required for data: 106600800
I1018 01:29:05.498414 13201 layer_factory.hpp:77] Creating layer conv2
I1018 01:29:05.498420 13201 net.cpp:100] Creating Layer conv2
I1018 01:29:05.498423 13201 net.cpp:434] conv2 <- elu1
I1018 01:29:05.498428 13201 net.cpp:408] conv2 -> conv2
I1018 01:29:05.499195 13201 net.cpp:150] Setting up conv2
I1018 01:29:05.499204 13201 net.cpp:157] Top shape: 100 192 14 14 (3763200)
I1018 01:29:05.499208 13201 net.cpp:165] Memory required for data: 121653600
I1018 01:29:05.499217 13201 layer_factory.hpp:77] Creating layer conv3
I1018 01:29:05.499224 13201 net.cpp:100] Creating Layer conv3
I1018 01:29:05.499228 13201 net.cpp:434] conv3 <- conv2
I1018 01:29:05.499234 13201 net.cpp:408] conv3 -> conv3
I1018 01:29:05.501713 13201 net.cpp:150] Setting up conv3
I1018 01:29:05.501723 13201 net.cpp:157] Top shape: 100 240 12 12 (3456000)
I1018 01:29:05.501725 13201 net.cpp:165] Memory required for data: 135477600
I1018 01:29:05.501734 13201 layer_factory.hpp:77] Creating layer pool2
I1018 01:29:05.501741 13201 net.cpp:100] Creating Layer pool2
I1018 01:29:05.501744 13201 net.cpp:434] pool2 <- conv3
I1018 01:29:05.501750 13201 net.cpp:408] pool2 -> pool2
I1018 01:29:05.501780 13201 net.cpp:150] Setting up pool2
I1018 01:29:05.501785 13201 net.cpp:157] Top shape: 100 240 6 6 (864000)
I1018 01:29:05.501788 13201 net.cpp:165] Memory required for data: 138933600
I1018 01:29:05.501791 13201 layer_factory.hpp:77] Creating layer drop2
I1018 01:29:05.501797 13201 net.cpp:100] Creating Layer drop2
I1018 01:29:05.501801 13201 net.cpp:434] drop2 <- pool2
I1018 01:29:05.501806 13201 net.cpp:408] drop2 -> drop2
I1018 01:29:05.501832 13201 net.cpp:150] Setting up drop2
I1018 01:29:05.501837 13201 net.cpp:157] Top shape: 100 240 6 6 (864000)
I1018 01:29:05.501842 13201 net.cpp:165] Memory required for data: 142389600
I1018 01:29:05.501843 13201 layer_factory.hpp:77] Creating layer elu2
I1018 01:29:05.501848 13201 net.cpp:100] Creating Layer elu2
I1018 01:29:05.501852 13201 net.cpp:434] elu2 <- drop2
I1018 01:29:05.501857 13201 net.cpp:408] elu2 -> elu2
I1018 01:29:05.501873 13201 net.cpp:150] Setting up elu2
I1018 01:29:05.501878 13201 net.cpp:157] Top shape: 100 240 6 6 (864000)
I1018 01:29:05.501888 13201 net.cpp:165] Memory required for data: 145845600
I1018 01:29:05.501893 13201 layer_factory.hpp:77] Creating layer conv4
I1018 01:29:05.501899 13201 net.cpp:100] Creating Layer conv4
I1018 01:29:05.501902 13201 net.cpp:434] conv4 <- elu2
I1018 01:29:05.501909 13201 net.cpp:408] conv4 -> conv4
I1018 01:29:05.502995 13201 net.cpp:150] Setting up conv4
I1018 01:29:05.503005 13201 net.cpp:157] Top shape: 100 240 6 6 (864000)
I1018 01:29:05.503008 13201 net.cpp:165] Memory required for data: 149301600
I1018 01:29:05.503015 13201 layer_factory.hpp:77] Creating layer conv5
I1018 01:29:05.503022 13201 net.cpp:100] Creating Layer conv5
I1018 01:29:05.503026 13201 net.cpp:434] conv5 <- conv4
I1018 01:29:05.503031 13201 net.cpp:408] conv5 -> conv5
I1018 01:29:05.504801 13201 net.cpp:150] Setting up conv5
I1018 01:29:05.504812 13201 net.cpp:157] Top shape: 100 260 5 5 (650000)
I1018 01:29:05.504815 13201 net.cpp:165] Memory required for data: 151901600
I1018 01:29:05.504824 13201 layer_factory.hpp:77] Creating layer pool3
I1018 01:29:05.504832 13201 net.cpp:100] Creating Layer pool3
I1018 01:29:05.504837 13201 net.cpp:434] pool3 <- conv5
I1018 01:29:05.504842 13201 net.cpp:408] pool3 -> pool3
I1018 01:29:05.504873 13201 net.cpp:150] Setting up pool3
I1018 01:29:05.504879 13201 net.cpp:157] Top shape: 100 260 3 3 (234000)
I1018 01:29:05.504881 13201 net.cpp:165] Memory required for data: 152837600
I1018 01:29:05.504884 13201 layer_factory.hpp:77] Creating layer drop3
I1018 01:29:05.504890 13201 net.cpp:100] Creating Layer drop3
I1018 01:29:05.504894 13201 net.cpp:434] drop3 <- pool3
I1018 01:29:05.504900 13201 net.cpp:408] drop3 -> drop3
I1018 01:29:05.504926 13201 net.cpp:150] Setting up drop3
I1018 01:29:05.504931 13201 net.cpp:157] Top shape: 100 260 3 3 (234000)
I1018 01:29:05.504935 13201 net.cpp:165] Memory required for data: 153773600
I1018 01:29:05.504938 13201 layer_factory.hpp:77] Creating layer elu3
I1018 01:29:05.504945 13201 net.cpp:100] Creating Layer elu3
I1018 01:29:05.504948 13201 net.cpp:434] elu3 <- drop3
I1018 01:29:05.504954 13201 net.cpp:408] elu3 -> elu3
I1018 01:29:05.504971 13201 net.cpp:150] Setting up elu3
I1018 01:29:05.504976 13201 net.cpp:157] Top shape: 100 260 3 3 (234000)
I1018 01:29:05.504978 13201 net.cpp:165] Memory required for data: 154709600
I1018 01:29:05.504982 13201 layer_factory.hpp:77] Creating layer conv6
I1018 01:29:05.504989 13201 net.cpp:100] Creating Layer conv6
I1018 01:29:05.504992 13201 net.cpp:434] conv6 <- elu3
I1018 01:29:05.504997 13201 net.cpp:408] conv6 -> conv6
I1018 01:29:05.506158 13201 net.cpp:150] Setting up conv6
I1018 01:29:05.506168 13201 net.cpp:157] Top shape: 100 260 3 3 (234000)
I1018 01:29:05.506172 13201 net.cpp:165] Memory required for data: 155645600
I1018 01:29:05.506178 13201 layer_factory.hpp:77] Creating layer conv7
I1018 01:29:05.506187 13201 net.cpp:100] Creating Layer conv7
I1018 01:29:05.506191 13201 net.cpp:434] conv7 <- conv6
I1018 01:29:05.506196 13201 net.cpp:408] conv7 -> conv7
I1018 01:29:05.508132 13201 net.cpp:150] Setting up conv7
I1018 01:29:05.508141 13201 net.cpp:157] Top shape: 100 280 2 2 (112000)
I1018 01:29:05.508146 13201 net.cpp:165] Memory required for data: 156093600
I1018 01:29:05.508152 13201 layer_factory.hpp:77] Creating layer pool4
I1018 01:29:05.508158 13201 net.cpp:100] Creating Layer pool4
I1018 01:29:05.508162 13201 net.cpp:434] pool4 <- conv7
I1018 01:29:05.508168 13201 net.cpp:408] pool4 -> pool4
I1018 01:29:05.508198 13201 net.cpp:150] Setting up pool4
I1018 01:29:05.508203 13201 net.cpp:157] Top shape: 100 280 1 1 (28000)
I1018 01:29:05.508205 13201 net.cpp:165] Memory required for data: 156205600
I1018 01:29:05.508209 13201 layer_factory.hpp:77] Creating layer drop4
I1018 01:29:05.508214 13201 net.cpp:100] Creating Layer drop4
I1018 01:29:05.508219 13201 net.cpp:434] drop4 <- pool4
I1018 01:29:05.508224 13201 net.cpp:408] drop4 -> drop4
I1018 01:29:05.508249 13201 net.cpp:150] Setting up drop4
I1018 01:29:05.508255 13201 net.cpp:157] Top shape: 100 280 1 1 (28000)
I1018 01:29:05.508258 13201 net.cpp:165] Memory required for data: 156317600
I1018 01:29:05.508272 13201 layer_factory.hpp:77] Creating layer elu4
I1018 01:29:05.508278 13201 net.cpp:100] Creating Layer elu4
I1018 01:29:05.508282 13201 net.cpp:434] elu4 <- drop4
I1018 01:29:05.508286 13201 net.cpp:408] elu4 -> elu4
I1018 01:29:05.508304 13201 net.cpp:150] Setting up elu4
I1018 01:29:05.508309 13201 net.cpp:157] Top shape: 100 280 1 1 (28000)
I1018 01:29:05.508312 13201 net.cpp:165] Memory required for data: 156429600
I1018 01:29:05.508316 13201 layer_factory.hpp:77] Creating layer conv8
I1018 01:29:05.508322 13201 net.cpp:100] Creating Layer conv8
I1018 01:29:05.508327 13201 net.cpp:434] conv8 <- elu4
I1018 01:29:05.508332 13201 net.cpp:408] conv8 -> conv8
I1018 01:29:05.509274 13201 net.cpp:150] Setting up conv8
I1018 01:29:05.509282 13201 net.cpp:157] Top shape: 100 280 1 1 (28000)
I1018 01:29:05.509286 13201 net.cpp:165] Memory required for data: 156541600
I1018 01:29:05.509292 13201 layer_factory.hpp:77] Creating layer pool5
I1018 01:29:05.509299 13201 net.cpp:100] Creating Layer pool5
I1018 01:29:05.509302 13201 net.cpp:434] pool5 <- conv8
I1018 01:29:05.509310 13201 net.cpp:408] pool5 -> pool5
I1018 01:29:05.509340 13201 net.cpp:150] Setting up pool5
I1018 01:29:05.509344 13201 net.cpp:157] Top shape: 100 280 1 1 (28000)
I1018 01:29:05.509347 13201 net.cpp:165] Memory required for data: 156653600
I1018 01:29:05.509351 13201 layer_factory.hpp:77] Creating layer drop5
I1018 01:29:05.509356 13201 net.cpp:100] Creating Layer drop5
I1018 01:29:05.509361 13201 net.cpp:434] drop5 <- pool5
I1018 01:29:05.509366 13201 net.cpp:408] drop5 -> drop5
I1018 01:29:05.509392 13201 net.cpp:150] Setting up drop5
I1018 01:29:05.509397 13201 net.cpp:157] Top shape: 100 280 1 1 (28000)
I1018 01:29:05.509400 13201 net.cpp:165] Memory required for data: 156765600
I1018 01:29:05.509403 13201 layer_factory.hpp:77] Creating layer elu5
I1018 01:29:05.509408 13201 net.cpp:100] Creating Layer elu5
I1018 01:29:05.509413 13201 net.cpp:434] elu5 <- drop5
I1018 01:29:05.509418 13201 net.cpp:408] elu5 -> elu5
I1018 01:29:05.509434 13201 net.cpp:150] Setting up elu5
I1018 01:29:05.509439 13201 net.cpp:157] Top shape: 100 280 1 1 (28000)
I1018 01:29:05.509443 13201 net.cpp:165] Memory required for data: 156877600
I1018 01:29:05.509445 13201 layer_factory.hpp:77] Creating layer conv10
I1018 01:29:05.509454 13201 net.cpp:100] Creating Layer conv10
I1018 01:29:05.509456 13201 net.cpp:434] conv10 <- elu5
I1018 01:29:05.509461 13201 net.cpp:408] conv10 -> conv10
I1018 01:29:05.510479 13201 net.cpp:150] Setting up conv10
I1018 01:29:05.510489 13201 net.cpp:157] Top shape: 100 300 1 1 (30000)
I1018 01:29:05.510493 13201 net.cpp:165] Memory required for data: 156997600
I1018 01:29:05.510504 13201 layer_factory.hpp:77] Creating layer pool6
I1018 01:29:05.510509 13201 net.cpp:100] Creating Layer pool6
I1018 01:29:05.510514 13201 net.cpp:434] pool6 <- conv10
I1018 01:29:05.510519 13201 net.cpp:408] pool6 -> pool6
I1018 01:29:05.510550 13201 net.cpp:150] Setting up pool6
I1018 01:29:05.510555 13201 net.cpp:157] Top shape: 100 300 1 1 (30000)
I1018 01:29:05.510560 13201 net.cpp:165] Memory required for data: 157117600
I1018 01:29:05.510563 13201 layer_factory.hpp:77] Creating layer drop6
I1018 01:29:05.510568 13201 net.cpp:100] Creating Layer drop6
I1018 01:29:05.510572 13201 net.cpp:434] drop6 <- pool6
I1018 01:29:05.510578 13201 net.cpp:408] drop6 -> drop6
I1018 01:29:05.510607 13201 net.cpp:150] Setting up drop6
I1018 01:29:05.510613 13201 net.cpp:157] Top shape: 100 300 1 1 (30000)
I1018 01:29:05.510617 13201 net.cpp:165] Memory required for data: 157237600
I1018 01:29:05.510620 13201 layer_factory.hpp:77] Creating layer elu6
I1018 01:29:05.510627 13201 net.cpp:100] Creating Layer elu6
I1018 01:29:05.510629 13201 net.cpp:434] elu6 <- drop6
I1018 01:29:05.510635 13201 net.cpp:408] elu6 -> elu6
I1018 01:29:05.510653 13201 net.cpp:150] Setting up elu6
I1018 01:29:05.510658 13201 net.cpp:157] Top shape: 100 300 1 1 (30000)
I1018 01:29:05.510660 13201 net.cpp:165] Memory required for data: 157357600
I1018 01:29:05.510673 13201 layer_factory.hpp:77] Creating layer conv11
I1018 01:29:05.510680 13201 net.cpp:100] Creating Layer conv11
I1018 01:29:05.510684 13201 net.cpp:434] conv11 <- elu6
I1018 01:29:05.510689 13201 net.cpp:408] conv11 -> conv11
I1018 01:29:05.511759 13201 net.cpp:150] Setting up conv11
I1018 01:29:05.511770 13201 net.cpp:157] Top shape: 100 100 1 1 (10000)
I1018 01:29:05.511772 13201 net.cpp:165] Memory required for data: 157397600
I1018 01:29:05.511780 13201 layer_factory.hpp:77] Creating layer pool7
I1018 01:29:05.511785 13201 net.cpp:100] Creating Layer pool7
I1018 01:29:05.511788 13201 net.cpp:434] pool7 <- conv11
I1018 01:29:05.511793 13201 net.cpp:408] pool7 -> pool7
I1018 01:29:05.511832 13201 net.cpp:150] Setting up pool7
I1018 01:29:05.511838 13201 net.cpp:157] Top shape: 100 100 1 1 (10000)
I1018 01:29:05.511842 13201 net.cpp:165] Memory required for data: 157437600
I1018 01:29:05.511845 13201 layer_factory.hpp:77] Creating layer drop7
I1018 01:29:05.511853 13201 net.cpp:100] Creating Layer drop7
I1018 01:29:05.511857 13201 net.cpp:434] drop7 <- pool7
I1018 01:29:05.511862 13201 net.cpp:408] drop7 -> drop7
I1018 01:29:05.511898 13201 net.cpp:150] Setting up drop7
I1018 01:29:05.511904 13201 net.cpp:157] Top shape: 100 100 1 1 (10000)
I1018 01:29:05.511907 13201 net.cpp:165] Memory required for data: 157477600
I1018 01:29:05.511910 13201 layer_factory.hpp:77] Creating layer elu7
I1018 01:29:05.511915 13201 net.cpp:100] Creating Layer elu7
I1018 01:29:05.511919 13201 net.cpp:434] elu7 <- drop7
I1018 01:29:05.511924 13201 net.cpp:408] elu7 -> elu7
I1018 01:29:05.511941 13201 net.cpp:150] Setting up elu7
I1018 01:29:05.511947 13201 net.cpp:157] Top shape: 100 100 1 1 (10000)
I1018 01:29:05.511950 13201 net.cpp:165] Memory required for data: 157517600
I1018 01:29:05.511953 13201 layer_factory.hpp:77] Creating layer pool
I1018 01:29:05.511958 13201 net.cpp:100] Creating Layer pool
I1018 01:29:05.511962 13201 net.cpp:434] pool <- elu7
I1018 01:29:05.511967 13201 net.cpp:408] pool -> pool
I1018 01:29:05.512197 13201 net.cpp:150] Setting up pool
I1018 01:29:05.512204 13201 net.cpp:157] Top shape: 100 100 1 1 (10000)
I1018 01:29:05.512208 13201 net.cpp:165] Memory required for data: 157557600
I1018 01:29:05.512212 13201 layer_factory.hpp:77] Creating layer flatten
I1018 01:29:05.512217 13201 net.cpp:100] Creating Layer flatten
I1018 01:29:05.512220 13201 net.cpp:434] flatten <- pool
I1018 01:29:05.512226 13201 net.cpp:408] flatten -> flatten
I1018 01:29:05.512246 13201 net.cpp:150] Setting up flatten
I1018 01:29:05.512251 13201 net.cpp:157] Top shape: 100 100 (10000)
I1018 01:29:05.512254 13201 net.cpp:165] Memory required for data: 157597600
I1018 01:29:05.512259 13201 layer_factory.hpp:77] Creating layer flatten_flatten_0_split
I1018 01:29:05.512264 13201 net.cpp:100] Creating Layer flatten_flatten_0_split
I1018 01:29:05.512267 13201 net.cpp:434] flatten_flatten_0_split <- flatten
I1018 01:29:05.512271 13201 net.cpp:408] flatten_flatten_0_split -> flatten_flatten_0_split_0
I1018 01:29:05.512279 13201 net.cpp:408] flatten_flatten_0_split -> flatten_flatten_0_split_1
I1018 01:29:05.512307 13201 net.cpp:150] Setting up flatten_flatten_0_split
I1018 01:29:05.512311 13201 net.cpp:157] Top shape: 100 100 (10000)
I1018 01:29:05.512315 13201 net.cpp:157] Top shape: 100 100 (10000)
I1018 01:29:05.512320 13201 net.cpp:165] Memory required for data: 157677600
I1018 01:29:05.512321 13201 layer_factory.hpp:77] Creating layer ip_c
I1018 01:29:05.512328 13201 net.cpp:100] Creating Layer ip_c
I1018 01:29:05.512331 13201 net.cpp:434] ip_c <- flatten_flatten_0_split_0
I1018 01:29:05.512338 13201 net.cpp:408] ip_c -> ip_c
I1018 01:29:05.512421 13201 net.cpp:150] Setting up ip_c
I1018 01:29:05.512428 13201 net.cpp:157] Top shape: 100 20 (2000)
I1018 01:29:05.512429 13201 net.cpp:165] Memory required for data: 157685600
I1018 01:29:05.512436 13201 layer_factory.hpp:77] Creating layer ip_c_ip_c_0_split
I1018 01:29:05.512440 13201 net.cpp:100] Creating Layer ip_c_ip_c_0_split
I1018 01:29:05.512444 13201 net.cpp:434] ip_c_ip_c_0_split <- ip_c
I1018 01:29:05.512457 13201 net.cpp:408] ip_c_ip_c_0_split -> ip_c_ip_c_0_split_0
I1018 01:29:05.512465 13201 net.cpp:408] ip_c_ip_c_0_split -> ip_c_ip_c_0_split_1
I1018 01:29:05.512490 13201 net.cpp:150] Setting up ip_c_ip_c_0_split
I1018 01:29:05.512495 13201 net.cpp:157] Top shape: 100 20 (2000)
I1018 01:29:05.512498 13201 net.cpp:157] Top shape: 100 20 (2000)
I1018 01:29:05.512502 13201 net.cpp:165] Memory required for data: 157701600
I1018 01:29:05.512506 13201 layer_factory.hpp:77] Creating layer accuracy_f
I1018 01:29:05.512511 13201 net.cpp:100] Creating Layer accuracy_f
I1018 01:29:05.512514 13201 net.cpp:434] accuracy_f <- ip_c_ip_c_0_split_0
I1018 01:29:05.512521 13201 net.cpp:434] accuracy_f <- label_coarse_data_1_split_0
I1018 01:29:05.512526 13201 net.cpp:408] accuracy_f -> accuracy_f
…
