…
  level: 0
  stage: ""
}
type: "AdaGrad"
I1017 23:34:21.874287  9201 solver.cpp:81] Creating training net from train_net file: /home/adam/Honours/Honours-Project/cifar-100_pooling/max/leakyrelu/poolcnn_leakyrelu_train.prototxt
I1017 23:34:21.874620  9201 net.cpp:58] Initializing net from parameters: 
state {
  phase: TRAIN
  level: 0
  stage: ""
}
layer {
  name: "data"
  type: "HDF5Data"
  top: "data"
  top: "label_coarse"
  top: "label_fine"
  hdf5_data_param {
    source: "../../../../data/cifar-100/cifar_100_caffe_hdf5/train.txt"
    batch_size: 64
  }
}
layer {
  name: "conv1"
  type: "Convolution"
  bottom: "data"
  top: "conv1"
  convolution_param {
    num_output: 192
    kernel_size: 5
    weight_filler {
      type: "xavier"
    }
  }
}
layer {
  name: "pool1"
  type: "Pooling"
  bottom: "conv1"
  top: "pool1"
  pooling_param {
    pool: MAX
    kernel_size: 2
    stride: 2
  }
}
layer {
  name: "drop1"
  type: "Dropout"
  bottom: "pool1"
  top: "drop1"
  dropout_param {
    dropout_ratio: 0
  }
}
layer {
  name: "relu1"
  type: "ReLU"
  bottom: "drop1"
  top: "relu1"
  relu_param {
    negative_slope: 0.01
  }
}
layer {
  name: "conv2"
  type: "Convolution"
  bottom: "relu1"
  top: "conv2"
  convolution_param {
    num_output: 192
    kernel_size: 1
    weight_filler {
      type: "xavier"
    }
  }
}
layer {
  name: "conv3"
  type: "Convolution"
  bottom: "conv2"
  top: "conv3"
  convolution_param {
    num_output: 240
    kernel_size: 3
    weight_filler {
      type: "xavier"
    }
  }
}
layer {
  name: "pool2"
  type: "Pooling"
  bottom: "conv3"
  top: "pool2"
  pooling_param {
    pool: MAX
    kernel_size: 2
    stride: 2
  }
}
layer {
  name: "drop2"
  type: "Dropout"
  bottom: "pool2"
  top: "drop2"
  dropout_param {
    dropout_ratio: 0.1
  }
}
layer {
  name: "relu2"
  type: "ReLU"
  bottom: "drop2"
  top: "relu2"
  relu_param {
    negative_slope: 0.01
  }
}
layer {
  name: "conv4"
  type: "Convolution"
  bottom: "relu2"
  top: "conv4"
  convolution_param {
    num_output: 240
    kernel_size: 1
    weight_filler {
      type: "xavier"
    }
  }
}
layer {
  name: "conv5"
  type: "Convolution"
  bottom: "conv4"
  top: "conv5"
  convolution_param {
    num_output: 260
    kernel_size: 2
    weight_filler {
      type: "xavier"
    }
  }
}
layer {
  name: "pool3"
  type: "Pooling"
  bottom: "conv5"
  top: "pool3"
  pooling_param {
    pool: MAX
    kernel_size: 2
    stride: 2
  }
}
layer {
  name: "drop3"
  type: "Dropout"
  bottom: "pool3"
  top: "drop3"
  dropout_param {
    dropout_ratio: 0.2
  }
}
layer {
  name: "relu3"
  type: "ReLU"
  bottom: "drop3"
  top: "relu3"
  relu_param {
    negative_slope: 0.01
  }
}
layer {
  name: "conv6"
  type: "Convolution"
  bottom: "relu3"
  top: "conv6"
  convolution_param {
    num_output: 260
    kernel_size: 1
    weight_filler {
      type: "xavier"
    }
  }
}
layer {
  name: "conv7"
  type: "Convolution"
  bottom: "conv6"
  top: "conv7"
  convolution_param {
    num_output: 280
    kernel_size: 2
    weight_filler {
      type: "xavier"
    }
  }
}
layer {
  name: "pool4"
  type: "Pooling"
  bottom: "conv7"
  top: "pool4"
  pooling_param {
    pool: MAX
    kernel_size: 2
    stride: 2
  }
}
layer {
  name: "drop4"
  type: "Dropout"
  bottom: "pool4"
  top: "drop4"
  dropout_param {
    dropout_ratio: 0.3
  }
}
layer {
  name: "relu4"
  type: "ReLU"
  bottom: "drop4"
  top: "relu4"
  relu_param {
    negative_slope: 0.01
  }
}
layer {
  name: "conv8"
  type: "Convolution"
  bottom: "relu4"
  top: "conv8"
  convolution_param {
    num_output: 280
    kernel_size: 1
    weight_filler {
      type: "xavier"
    }
  }
}
layer {
  name: "pool5"
  type: "Pooling"
  bottom: "conv8"
  top: "pool5"
  pooling_param {
    pool: MAX
    kernel_size: 2
    stride: 2
  }
}
layer {
  name: "drop5"
  type: "Dropout"
  bottom: "pool5"
  top: "drop5"
  dropout_param {
    dropout_ratio: 0.4
  }
}
layer {
  name: "relu5"
  type: "ReLU"
  bottom: "drop5"
  top: "relu5"
  relu_param {
    negative_slope: 0.01
  }
}
layer {
  name: "conv10"
  type: "Convolution"
  bottom: "relu5"
  top: "conv10"
  convolution_param {
    num_output: 300
    kernel_size: 1
    weight_filler {
      type: "xavier"
    }
  }
}
layer {
  name: "pool6"
  type: "Pooling"
  bottom: "conv10"
  top: "pool6"
  pooling_param {
    pool: MAX
    kernel_size: 2
    stride: 2
  }
}
layer {
  name: "drop6"
  type: "Dropout"
  bottom: "pool6"
  top: "drop6"
  dropout_param {
    dropout_ratio: 0.5
  }
}
layer {
  name: "relu6"
  type: "ReLU"
  bottom: "drop6"
  top: "relu6"
  relu_param {
    negative_slope: 0.01
  }
}
layer {
  name: "conv11"
  type: "Convolution"
  bottom: "relu6"
  top: "conv11"
  convolution_param {
    num_output: 100
    kernel_size: 1
    weight_filler {
      type: "xavier"
    }
  }
}
layer {
  name: "pool7"
  type: "Pooling"
  bottom: "conv11"
  top: "pool7"
  pooling_param {
    pool: MAX
    kernel_size: 2
    stride: 2
  }
}
layer {
  name: "drop7"
  type: "Dropout"
  bottom: "pool7"
  top: "drop7"
  dropout_param {
    dropout_ratio: 0
  }
}
layer {
  name: "relu7"
  type: "ReLU"
  bottom: "drop7"
  top: "relu7"
  relu_param {
    negative_slope: 0.01
  }
}
layer {
  name: "pool"
  type: "Pooling"
  bottom: "relu7"
  top: "pool"
  pooling_param {
    pool: AVE
    global_pooling: true
  }
}
layer {
  name: "flatten"
  type: "Flatten"
  bottom: "pool"
  top: "flatten"
}
layer {
  name: "ip_c"
  type: "InnerProduct"
  bottom: "flatten"
  top: "ip_c"
  inner_product_param {
    num_output: 20
    weight_filler {
      type: "xavier"
    }
  }
}
layer {
  name: "accuracy_f"
  type: "Accuracy"
  bottom: "ip_c"
  bottom: "label_coarse"
  top: "accuracy_f"
}
layer {
  name: "loss_c"
  type: "SoftmaxWithLoss"
  bottom: "ip_c"
  bottom: "label_coarse"
  top: "loss_c"
}
layer {
  name: "ip_f"
  type: "InnerProduct"
  bottom: "flatten"
  top: "ip_f"
  inner_product_param {
    num_output: 100
    weight_filler {
      type: "xavier"
    }
  }
}
layer {
  name: "accuracy"
  type: "Accuracy"
  bottom: "ip_f"
  bottom: "label_fine"
  top: "accuracy"
}
layer {
  name: "loss_f"
  type: "SoftmaxWithLoss"
  bottom: "ip_f"
  bottom: "label_fine"
  top: "loss_f"
}
I1017 23:34:21.874783  9201 layer_factory.hpp:77] Creating layer data
I1017 23:34:21.874794  9201 net.cpp:100] Creating Layer data
I1017 23:34:21.874799  9201 net.cpp:408] data -> data
I1017 23:34:21.874817  9201 net.cpp:408] data -> label_coarse
I1017 23:34:21.874830  9201 net.cpp:408] data -> label_fine
I1017 23:34:21.874840  9201 hdf5_data_layer.cpp:79] Loading list of HDF5 filenames from: ../../../../data/cifar-100/cifar_100_caffe_hdf5/train.txt
I1017 23:34:21.874864  9201 hdf5_data_layer.cpp:93] Number of HDF5 files: 1
I1017 23:34:21.875504  9201 hdf5.cpp:35] Datatype class: H5T_INTEGER
I1017 23:34:23.499989  9201 net.cpp:150] Setting up data
I1017 23:34:23.500013  9201 net.cpp:157] Top shape: 64 3 32 32 (196608)
I1017 23:34:23.500016  9201 net.cpp:157] Top shape: 64 (64)
I1017 23:34:23.500020  9201 net.cpp:157] Top shape: 64 (64)
I1017 23:34:23.500023  9201 net.cpp:165] Memory required for data: 786944
I1017 23:34:23.500031  9201 layer_factory.hpp:77] Creating layer label_coarse_data_1_split
I1017 23:34:23.500042  9201 net.cpp:100] Creating Layer label_coarse_data_1_split
I1017 23:34:23.500048  9201 net.cpp:434] label_coarse_data_1_split <- label_coarse
I1017 23:34:23.500061  9201 net.cpp:408] label_coarse_data_1_split -> label_coarse_data_1_split_0
I1017 23:34:23.500072  9201 net.cpp:408] label_coarse_data_1_split -> label_coarse_data_1_split_1
I1017 23:34:23.500110  9201 net.cpp:150] Setting up label_coarse_data_1_split
I1017 23:34:23.500116  9201 net.cpp:157] Top shape: 64 (64)
I1017 23:34:23.500120  9201 net.cpp:157] Top shape: 64 (64)
I1017 23:34:23.500123  9201 net.cpp:165] Memory required for data: 787456
I1017 23:34:23.500128  9201 layer_factory.hpp:77] Creating layer label_fine_data_2_split
I1017 23:34:23.500133  9201 net.cpp:100] Creating Layer label_fine_data_2_split
I1017 23:34:23.500136  9201 net.cpp:434] label_fine_data_2_split <- label_fine
I1017 23:34:23.500141  9201 net.cpp:408] label_fine_data_2_split -> label_fine_data_2_split_0
I1017 23:34:23.500149  9201 net.cpp:408] label_fine_data_2_split -> label_fine_data_2_split_1
I1017 23:34:23.500169  9201 net.cpp:150] Setting up label_fine_data_2_split
I1017 23:34:23.500174  9201 net.cpp:157] Top shape: 64 (64)
I1017 23:34:23.500179  9201 net.cpp:157] Top shape: 64 (64)
I1017 23:34:23.500181  9201 net.cpp:165] Memory required for data: 787968
I1017 23:34:23.500185  9201 layer_factory.hpp:77] Creating layer conv1
I1017 23:34:23.500197  9201 net.cpp:100] Creating Layer conv1
I1017 23:34:23.500201  9201 net.cpp:434] conv1 <- data
I1017 23:34:23.500206  9201 net.cpp:408] conv1 -> conv1
I1017 23:34:23.618918  9201 net.cpp:150] Setting up conv1
I1017 23:34:23.618948  9201 net.cpp:157] Top shape: 64 192 28 28 (9633792)
I1017 23:34:23.618952  9201 net.cpp:165] Memory required for data: 39323136
I1017 23:34:23.618975  9201 layer_factory.hpp:77] Creating layer pool1
I1017 23:34:23.618989  9201 net.cpp:100] Creating Layer pool1
I1017 23:34:23.618995  9201 net.cpp:434] pool1 <- conv1
I1017 23:34:23.619001  9201 net.cpp:408] pool1 -> pool1
I1017 23:34:23.619048  9201 net.cpp:150] Setting up pool1
I1017 23:34:23.619055  9201 net.cpp:157] Top shape: 64 192 14 14 (2408448)
I1017 23:34:23.619060  9201 net.cpp:165] Memory required for data: 48956928
I1017 23:34:23.619063  9201 layer_factory.hpp:77] Creating layer drop1
I1017 23:34:23.619071  9201 net.cpp:100] Creating Layer drop1
I1017 23:34:23.619073  9201 net.cpp:434] drop1 <- pool1
I1017 23:34:23.619079  9201 net.cpp:408] drop1 -> drop1
I1017 23:34:23.619107  9201 net.cpp:150] Setting up drop1
I1017 23:34:23.619112  9201 net.cpp:157] Top shape: 64 192 14 14 (2408448)
I1017 23:34:23.619115  9201 net.cpp:165] Memory required for data: 58590720
I1017 23:34:23.619119  9201 layer_factory.hpp:77] Creating layer relu1
I1017 23:34:23.619125  9201 net.cpp:100] Creating Layer relu1
I1017 23:34:23.619128  9201 net.cpp:434] relu1 <- drop1
I1017 23:34:23.619134  9201 net.cpp:408] relu1 -> relu1
I1017 23:34:23.619258  9201 net.cpp:150] Setting up relu1
I1017 23:34:23.619266  9201 net.cpp:157] Top shape: 64 192 14 14 (2408448)
I1017 23:34:23.619268  9201 net.cpp:165] Memory required for data: 68224512
I1017 23:34:23.619271  9201 layer_factory.hpp:77] Creating layer conv2
I1017 23:34:23.619282  9201 net.cpp:100] Creating Layer conv2
I1017 23:34:23.619285  9201 net.cpp:434] conv2 <- relu1
I1017 23:34:23.619292  9201 net.cpp:408] conv2 -> conv2
I1017 23:34:23.620115  9201 net.cpp:150] Setting up conv2
I1017 23:34:23.620123  9201 net.cpp:157] Top shape: 64 192 14 14 (2408448)
I1017 23:34:23.620127  9201 net.cpp:165] Memory required for data: 77858304
I1017 23:34:23.620136  9201 layer_factory.hpp:77] Creating layer conv3
I1017 23:34:23.620143  9201 net.cpp:100] Creating Layer conv3
I1017 23:34:23.620147  9201 net.cpp:434] conv3 <- conv2
I1017 23:34:23.620153  9201 net.cpp:408] conv3 -> conv3
I1017 23:34:23.622552  9201 net.cpp:150] Setting up conv3
I1017 23:34:23.622561  9201 net.cpp:157] Top shape: 64 240 12 12 (2211840)
I1017 23:34:23.622565  9201 net.cpp:165] Memory required for data: 86705664
I1017 23:34:23.622573  9201 layer_factory.hpp:77] Creating layer pool2
I1017 23:34:23.622580  9201 net.cpp:100] Creating Layer pool2
I1017 23:34:23.622583  9201 net.cpp:434] pool2 <- conv3
I1017 23:34:23.622589  9201 net.cpp:408] pool2 -> pool2
I1017 23:34:23.622614  9201 net.cpp:150] Setting up pool2
I1017 23:34:23.622620  9201 net.cpp:157] Top shape: 64 240 6 6 (552960)
I1017 23:34:23.622623  9201 net.cpp:165] Memory required for data: 88917504
I1017 23:34:23.622635  9201 layer_factory.hpp:77] Creating layer drop2
I1017 23:34:23.622642  9201 net.cpp:100] Creating Layer drop2
I1017 23:34:23.622644  9201 net.cpp:434] drop2 <- pool2
I1017 23:34:23.622649  9201 net.cpp:408] drop2 -> drop2
I1017 23:34:23.622673  9201 net.cpp:150] Setting up drop2
I1017 23:34:23.622678  9201 net.cpp:157] Top shape: 64 240 6 6 (552960)
I1017 23:34:23.622681  9201 net.cpp:165] Memory required for data: 91129344
I1017 23:34:23.622684  9201 layer_factory.hpp:77] Creating layer relu2
I1017 23:34:23.622690  9201 net.cpp:100] Creating Layer relu2
I1017 23:34:23.622694  9201 net.cpp:434] relu2 <- drop2
I1017 23:34:23.622699  9201 net.cpp:408] relu2 -> relu2
I1017 23:34:23.622807  9201 net.cpp:150] Setting up relu2
I1017 23:34:23.622814  9201 net.cpp:157] Top shape: 64 240 6 6 (552960)
I1017 23:34:23.622817  9201 net.cpp:165] Memory required for data: 93341184
I1017 23:34:23.622820  9201 layer_factory.hpp:77] Creating layer conv4
I1017 23:34:23.622826  9201 net.cpp:100] Creating Layer conv4
I1017 23:34:23.622830  9201 net.cpp:434] conv4 <- relu2
I1017 23:34:23.622835  9201 net.cpp:408] conv4 -> conv4
I1017 23:34:23.623633  9201 net.cpp:150] Setting up conv4
I1017 23:34:23.623642  9201 net.cpp:157] Top shape: 64 240 6 6 (552960)
I1017 23:34:23.623646  9201 net.cpp:165] Memory required for data: 95553024
I1017 23:34:23.623651  9201 layer_factory.hpp:77] Creating layer conv5
I1017 23:34:23.623659  9201 net.cpp:100] Creating Layer conv5
I1017 23:34:23.623663  9201 net.cpp:434] conv5 <- conv4
I1017 23:34:23.623670  9201 net.cpp:408] conv5 -> conv5
I1017 23:34:23.625392  9201 net.cpp:150] Setting up conv5
I1017 23:34:23.625401  9201 net.cpp:157] Top shape: 64 260 5 5 (416000)
I1017 23:34:23.625404  9201 net.cpp:165] Memory required for data: 97217024
I1017 23:34:23.625413  9201 layer_factory.hpp:77] Creating layer pool3
I1017 23:34:23.625419  9201 net.cpp:100] Creating Layer pool3
I1017 23:34:23.625423  9201 net.cpp:434] pool3 <- conv5
I1017 23:34:23.625429  9201 net.cpp:408] pool3 -> pool3
I1017 23:34:23.625457  9201 net.cpp:150] Setting up pool3
I1017 23:34:23.625461  9201 net.cpp:157] Top shape: 64 260 3 3 (149760)
I1017 23:34:23.625464  9201 net.cpp:165] Memory required for data: 97816064
I1017 23:34:23.625468  9201 layer_factory.hpp:77] Creating layer drop3
I1017 23:34:23.625474  9201 net.cpp:100] Creating Layer drop3
I1017 23:34:23.625478  9201 net.cpp:434] drop3 <- pool3
I1017 23:34:23.625483  9201 net.cpp:408] drop3 -> drop3
I1017 23:34:23.625506  9201 net.cpp:150] Setting up drop3
I1017 23:34:23.625511  9201 net.cpp:157] Top shape: 64 260 3 3 (149760)
I1017 23:34:23.625515  9201 net.cpp:165] Memory required for data: 98415104
I1017 23:34:23.625519  9201 layer_factory.hpp:77] Creating layer relu3
I1017 23:34:23.625524  9201 net.cpp:100] Creating Layer relu3
I1017 23:34:23.625529  9201 net.cpp:434] relu3 <- drop3
I1017 23:34:23.625533  9201 net.cpp:408] relu3 -> relu3
I1017 23:34:23.625644  9201 net.cpp:150] Setting up relu3
I1017 23:34:23.625651  9201 net.cpp:157] Top shape: 64 260 3 3 (149760)
I1017 23:34:23.625654  9201 net.cpp:165] Memory required for data: 99014144
I1017 23:34:23.625658  9201 layer_factory.hpp:77] Creating layer conv6
I1017 23:34:23.625669  9201 net.cpp:100] Creating Layer conv6
I1017 23:34:23.625674  9201 net.cpp:434] conv6 <- relu3
I1017 23:34:23.625679  9201 net.cpp:408] conv6 -> conv6
I1017 23:34:23.626773  9201 net.cpp:150] Setting up conv6
I1017 23:34:23.626782  9201 net.cpp:157] Top shape: 64 260 3 3 (149760)
I1017 23:34:23.626786  9201 net.cpp:165] Memory required for data: 99613184
I1017 23:34:23.626792  9201 layer_factory.hpp:77] Creating layer conv7
I1017 23:34:23.626801  9201 net.cpp:100] Creating Layer conv7
I1017 23:34:23.626804  9201 net.cpp:434] conv7 <- conv6
I1017 23:34:23.626811  9201 net.cpp:408] conv7 -> conv7
I1017 23:34:23.628707  9201 net.cpp:150] Setting up conv7
I1017 23:34:23.628716  9201 net.cpp:157] Top shape: 64 280 2 2 (71680)
I1017 23:34:23.628720  9201 net.cpp:165] Memory required for data: 99899904
I1017 23:34:23.628736  9201 layer_factory.hpp:77] Creating layer pool4
I1017 23:34:23.628741  9201 net.cpp:100] Creating Layer pool4
I1017 23:34:23.628746  9201 net.cpp:434] pool4 <- conv7
I1017 23:34:23.628751  9201 net.cpp:408] pool4 -> pool4
I1017 23:34:23.628779  9201 net.cpp:150] Setting up pool4
I1017 23:34:23.628784  9201 net.cpp:157] Top shape: 64 280 1 1 (17920)
I1017 23:34:23.628788  9201 net.cpp:165] Memory required for data: 99971584
I1017 23:34:23.628790  9201 layer_factory.hpp:77] Creating layer drop4
I1017 23:34:23.628795  9201 net.cpp:100] Creating Layer drop4
I1017 23:34:23.628799  9201 net.cpp:434] drop4 <- pool4
I1017 23:34:23.628805  9201 net.cpp:408] drop4 -> drop4
I1017 23:34:23.628829  9201 net.cpp:150] Setting up drop4
I1017 23:34:23.628834  9201 net.cpp:157] Top shape: 64 280 1 1 (17920)
I1017 23:34:23.628836  9201 net.cpp:165] Memory required for data: 100043264
I1017 23:34:23.628840  9201 layer_factory.hpp:77] Creating layer relu4
I1017 23:34:23.628845  9201 net.cpp:100] Creating Layer relu4
I1017 23:34:23.628849  9201 net.cpp:434] relu4 <- drop4
I1017 23:34:23.628854  9201 net.cpp:408] relu4 -> relu4
I1017 23:34:23.628965  9201 net.cpp:150] Setting up relu4
I1017 23:34:23.628971  9201 net.cpp:157] Top shape: 64 280 1 1 (17920)
I1017 23:34:23.628974  9201 net.cpp:165] Memory required for data: 100114944
I1017 23:34:23.628978  9201 layer_factory.hpp:77] Creating layer conv8
I1017 23:34:23.628984  9201 net.cpp:100] Creating Layer conv8
I1017 23:34:23.628988  9201 net.cpp:434] conv8 <- relu4
I1017 23:34:23.628993  9201 net.cpp:408] conv8 -> conv8
I1017 23:34:23.629873  9201 net.cpp:150] Setting up conv8
I1017 23:34:23.629883  9201 net.cpp:157] Top shape: 64 280 1 1 (17920)
I1017 23:34:23.629885  9201 net.cpp:165] Memory required for data: 100186624
I1017 23:34:23.629891  9201 layer_factory.hpp:77] Creating layer pool5
I1017 23:34:23.629896  9201 net.cpp:100] Creating Layer pool5
I1017 23:34:23.629901  9201 net.cpp:434] pool5 <- conv8
I1017 23:34:23.629906  9201 net.cpp:408] pool5 -> pool5
I1017 23:34:23.629933  9201 net.cpp:150] Setting up pool5
I1017 23:34:23.629938  9201 net.cpp:157] Top shape: 64 280 1 1 (17920)
I1017 23:34:23.629942  9201 net.cpp:165] Memory required for data: 100258304
I1017 23:34:23.629945  9201 layer_factory.hpp:77] Creating layer drop5
I1017 23:34:23.629951  9201 net.cpp:100] Creating Layer drop5
I1017 23:34:23.629956  9201 net.cpp:434] drop5 <- pool5
I1017 23:34:23.629961  9201 net.cpp:408] drop5 -> drop5
I1017 23:34:23.629984  9201 net.cpp:150] Setting up drop5
I1017 23:34:23.629989  9201 net.cpp:157] Top shape: 64 280 1 1 (17920)
I1017 23:34:23.629992  9201 net.cpp:165] Memory required for data: 100329984
I1017 23:34:23.629997  9201 layer_factory.hpp:77] Creating layer relu5
I1017 23:34:23.630000  9201 net.cpp:100] Creating Layer relu5
I1017 23:34:23.630004  9201 net.cpp:434] relu5 <- drop5
I1017 23:34:23.630009  9201 net.cpp:408] relu5 -> relu5
I1017 23:34:23.630205  9201 net.cpp:150] Setting up relu5
I1017 23:34:23.630213  9201 net.cpp:157] Top shape: 64 280 1 1 (17920)
I1017 23:34:23.630216  9201 net.cpp:165] Memory required for data: 100401664
I1017 23:34:23.630219  9201 layer_factory.hpp:77] Creating layer conv10
I1017 23:34:23.630226  9201 net.cpp:100] Creating Layer conv10
I1017 23:34:23.630230  9201 net.cpp:434] conv10 <- relu5
I1017 23:34:23.630235  9201 net.cpp:408] conv10 -> conv10
I1017 23:34:23.631222  9201 net.cpp:150] Setting up conv10
I1017 23:34:23.631230  9201 net.cpp:157] Top shape: 64 300 1 1 (19200)
I1017 23:34:23.631234  9201 net.cpp:165] Memory required for data: 100478464
I1017 23:34:23.631244  9201 layer_factory.hpp:77] Creating layer pool6
I1017 23:34:23.631249  9201 net.cpp:100] Creating Layer pool6
I1017 23:34:23.631254  9201 net.cpp:434] pool6 <- conv10
I1017 23:34:23.631259  9201 net.cpp:408] pool6 -> pool6
I1017 23:34:23.631288  9201 net.cpp:150] Setting up pool6
I1017 23:34:23.631294  9201 net.cpp:157] Top shape: 64 300 1 1 (19200)
I1017 23:34:23.631297  9201 net.cpp:165] Memory required for data: 100555264
I1017 23:34:23.631300  9201 layer_factory.hpp:77] Creating layer drop6
I1017 23:34:23.631312  9201 net.cpp:100] Creating Layer drop6
I1017 23:34:23.631317  9201 net.cpp:434] drop6 <- pool6
I1017 23:34:23.631323  9201 net.cpp:408] drop6 -> drop6
I1017 23:34:23.631350  9201 net.cpp:150] Setting up drop6
I1017 23:34:23.631356  9201 net.cpp:157] Top shape: 64 300 1 1 (19200)
I1017 23:34:23.631358  9201 net.cpp:165] Memory required for data: 100632064
I1017 23:34:23.631362  9201 layer_factory.hpp:77] Creating layer relu6
I1017 23:34:23.631367  9201 net.cpp:100] Creating Layer relu6
I1017 23:34:23.631371  9201 net.cpp:434] relu6 <- drop6
I1017 23:34:23.631376  9201 net.cpp:408] relu6 -> relu6
I1017 23:34:23.631489  9201 net.cpp:150] Setting up relu6
I1017 23:34:23.631495  9201 net.cpp:157] Top shape: 64 300 1 1 (19200)
I1017 23:34:23.631499  9201 net.cpp:165] Memory required for data: 100708864
I1017 23:34:23.631501  9201 layer_factory.hpp:77] Creating layer conv11
I1017 23:34:23.631510  9201 net.cpp:100] Creating Layer conv11
I1017 23:34:23.631513  9201 net.cpp:434] conv11 <- relu6
I1017 23:34:23.631518  9201 net.cpp:408] conv11 -> conv11
I1017 23:34:23.632241  9201 net.cpp:150] Setting up conv11
I1017 23:34:23.632249  9201 net.cpp:157] Top shape: 64 100 1 1 (6400)
I1017 23:34:23.632253  9201 net.cpp:165] Memory required for data: 100734464
I1017 23:34:23.632259  9201 layer_factory.hpp:77] Creating layer pool7
I1017 23:34:23.632264  9201 net.cpp:100] Creating Layer pool7
I1017 23:34:23.632269  9201 net.cpp:434] pool7 <- conv11
I1017 23:34:23.632274  9201 net.cpp:408] pool7 -> pool7
I1017 23:34:23.632302  9201 net.cpp:150] Setting up pool7
I1017 23:34:23.632308  9201 net.cpp:157] Top shape: 64 100 1 1 (6400)
I1017 23:34:23.632311  9201 net.cpp:165] Memory required for data: 100760064
I1017 23:34:23.632314  9201 layer_factory.hpp:77] Creating layer drop7
I1017 23:34:23.632323  9201 net.cpp:100] Creating Layer drop7
I1017 23:34:23.632325  9201 net.cpp:434] drop7 <- pool7
I1017 23:34:23.632330  9201 net.cpp:408] drop7 -> drop7
I1017 23:34:23.632355  9201 net.cpp:150] Setting up drop7
I1017 23:34:23.632360  9201 net.cpp:157] Top shape: 64 100 1 1 (6400)
I1017 23:34:23.632364  9201 net.cpp:165] Memory required for data: 100785664
I1017 23:34:23.632367  9201 layer_factory.hpp:77] Creating layer relu7
I1017 23:34:23.632372  9201 net.cpp:100] Creating Layer relu7
I1017 23:34:23.632375  9201 net.cpp:434] relu7 <- drop7
I1017 23:34:23.632380  9201 net.cpp:408] relu7 -> relu7
I1017 23:34:23.632493  9201 net.cpp:150] Setting up relu7
I1017 23:34:23.632498  9201 net.cpp:157] Top shape: 64 100 1 1 (6400)
I1017 23:34:23.632501  9201 net.cpp:165] Memory required for data: 100811264
I1017 23:34:23.632504  9201 layer_factory.hpp:77] Creating layer pool
I1017 23:34:23.632510  9201 net.cpp:100] Creating Layer pool
I1017 23:34:23.632514  9201 net.cpp:434] pool <- relu7
I1017 23:34:23.632519  9201 net.cpp:408] pool -> pool
I1017 23:34:23.632714  9201 net.cpp:150] Setting up pool
I1017 23:34:23.632721  9201 net.cpp:157] Top shape: 64 100 1 1 (6400)
I1017 23:34:23.632725  9201 net.cpp:165] Memory required for data: 100836864
I1017 23:34:23.632728  9201 layer_factory.hpp:77] Creating layer flatten
I1017 23:34:23.632733  9201 net.cpp:100] Creating Layer flatten
I1017 23:34:23.632737  9201 net.cpp:434] flatten <- pool
I1017 23:34:23.632742  9201 net.cpp:408] flatten -> flatten
I1017 23:34:23.632761  9201 net.cpp:150] Setting up flatten
I1017 23:34:23.632766  9201 net.cpp:157] Top shape: 64 100 (6400)
I1017 23:34:23.632771  9201 net.cpp:165] Memory required for data: 100862464
I1017 23:34:23.632773  9201 layer_factory.hpp:77] Creating layer flatten_flatten_0_split
I1017 23:34:23.632778  9201 net.cpp:100] Creating Layer flatten_flatten_0_split
I1017 23:34:23.632782  9201 net.cpp:434] flatten_flatten_0_split <- flatten
I1017 23:34:23.632788  9201 net.cpp:408] flatten_flatten_0_split -> flatten_flatten_0_split_0
I1017 23:34:23.632794  9201 net.cpp:408] flatten_flatten_0_split -> flatten_flatten_0_split_1
I1017 23:34:23.632820  9201 net.cpp:150] Setting up flatten_flatten_0_split
I1017 23:34:23.632830  9201 net.cpp:157] Top shape: 64 100 (6400)
I1017 23:34:23.632835  9201 net.cpp:157] Top shape: 64 100 (6400)
I1017 23:34:23.632838  9201 net.cpp:165] Memory required for data: 100913664
I1017 23:34:23.632841  9201 layer_factory.hpp:77] Creating layer ip_c
I1017 23:34:23.632846  9201 net.cpp:100] Creating Layer ip_c
I1017 23:34:23.632851  9201 net.cpp:434] ip_c <- flatten_flatten_0_split_0
I1017 23:34:23.632856  9201 net.cpp:408] ip_c -> ip_c
I1017 23:34:23.633182  9201 net.cpp:150] Setting up ip_c
I1017 23:34:23.633188  9201 net.cpp:157] Top shape: 64 20 (1280)
I1017 23:34:23.633193  9201 net.cpp:165] Memory required for data: 100918784
I1017 23:34:23.633198  9201 layer_factory.hpp:77] Creating layer ip_c_ip_c_0_split
I1017 23:34:23.633204  9201 net.cpp:100] Creating Layer ip_c_ip_c_0_split
I1017 23:34:23.633208  9201 net.cpp:434] ip_c_ip_c_0_split <- ip_c
I1017 23:34:23.633214  9201 net.cpp:408] ip_c_ip_c_0_split -> ip_c_ip_c_0_split_0
I1017 23:34:23.633221  9201 net.cpp:408] ip_c_ip_c_0_split -> ip_c_ip_c_0_split_1
I1017 23:34:23.633247  9201 net.cpp:150] Setting up ip_c_ip_c_0_split
I1017 23:34:23.633251  9201 net.cpp:157] Top shape: 64 20 (1280)
I1017 23:34:23.633257  9201 net.cpp:157] Top shape: 64 20 (1280)
I1017 23:34:23.633260  9201 net.cpp:165] Memory required for data: 100929024
I1017 23:34:23.633263  9201 layer_factory.hpp:77] Creating layer accuracy_f
I1017 23:34:23.633268  9201 net.cpp:100] Creating Layer accuracy_f
I1017 23:34:23.633272  9201 net.cpp:434] accuracy_f <- ip_c_ip_c_0_split_0
I1017 23:34:23.633277  9201 net.cpp:434] accuracy_f <- label_coarse_data_1_split_0
I1017 23:34:23.633282  9201 net.cpp:408] accuracy_f -> accuracy_f
…
I1017 23:34:23.634279  9201 net.cpp:283] Network initialization done.
I1017 23:34:23.634485  9201 solver.cpp:181] Creating test net (#0) specified by test_net file: /home/adam/Honours/Honours-Project/cifar-100_pooling/max/leakyrelu/poolcnn_leakyrelu_test.prototxt
I1017 23:34:23.634611  9201 net.cpp:58] Initializing net from parameters: 
state {
  phase: TEST
}
layer {
  name: "data"
  type: "HDF5Data"
  top: "data"
  top: "label_coarse"
  top: "label_fine"
  hdf5_data_param {
    source: "../../../../data/cifar-100/cifar_100_caffe_hdf5/test.txt"
    batch_size: 100
  }
}
layer {
  name: "conv1"
  type: "Convolution"
  bottom: "data"
  top: "conv1"
  convolution_param {
    num_output: 192
    kernel_size: 5
    weight_filler {
      type: "xavier"
    }
  }
}
layer {
  name: "pool1"
  type: "Pooling"
  bottom: "conv1"
  top: "pool1"
  pooling_param {
    pool: MAX
    kernel_size: 2
    stride: 2
  }
}
layer {
  name: "drop1"
  type: "Dropout"
  bottom: "pool1"
  top: "drop1"
  dropout_param {
    dropout_ratio: 0
  }
}
layer {
  name: "relu1"
  type: "ReLU"
  bottom: "drop1"
  top: "relu1"
  relu_param {
    negative_slope: 0.01
  }
}
layer {
  name: "conv2"
  type: "Convolution"
  bottom: "relu1"
  top: "conv2"
  convolution_param {
    num_output: 192
    kernel_size: 1
    weight_filler {
      type: "xavier"
    }
  }
}
layer {
  name: "conv3"
  type: "Convolution"
  bottom: "conv2"
  top: "conv3"
  convolution_param {
    num_output: 240
    kernel_size: 3
    weight_filler {
      type: "xavier"
    }
  }
}
layer {
  name: "pool2"
  type: "Pooling"
  bottom: "conv3"
  top: "pool2"
  pooling_param {
    pool: MAX
    kernel_size: 2
    stride: 2
  }
}
layer {
  name: "drop2"
  type: "Dropout"
  bottom: "pool2"
  top: "drop2"
  dropout_param {
    dropout_ratio: 0.1
  }
}
layer {
  name: "relu2"
  type: "ReLU"
  bottom: "drop2"
  top: "relu2"
  relu_param {
    negative_slope: 0.01
  }
}
layer {
  name: "conv4"
  type: "Convolution"
  bottom: "relu2"
  top: "conv4"
  convolution_param {
    num_output: 240
    kernel_size: 1
    weight_filler {
      type: "xavier"
    }
  }
}
layer {
  name: "conv5"
  type: "Convolution"
  bottom: "conv4"
  top: "conv5"
  convolution_param {
    num_output: 260
    kernel_size: 2
    weight_filler {
      type: "xavier"
    }
  }
}
layer {
  name: "pool3"
  type: "Pooling"
  bottom: "conv5"
  top: "pool3"
  pooling_param {
    pool: MAX
    kernel_size: 2
    stride: 2
  }
}
layer {
  name: "drop3"
  type: "Dropout"
  bottom: "pool3"
  top: "drop3"
  dropout_param {
    dropout_ratio: 0.2
  }
}
layer {
  name: "relu3"
  type: "ReLU"
  bottom: "drop3"
  top: "relu3"
  relu_param {
    negative_slope: 0.01
  }
}
layer {
  name: "conv6"
  type: "Convolution"
  bottom: "relu3"
  top: "conv6"
  convolution_param {
    num_output: 260
    kernel_size: 1
    weight_filler {
      type: "xavier"
    }
  }
}
layer {
  name: "conv7"
  type: "Convolution"
  bottom: "conv6"
  top: "conv7"
  convolution_param {
    num_output: 280
    kernel_size: 2
    weight_filler {
      type: "xavier"
    }
  }
}
layer {
  name: "pool4"
  type: "Pooling"
  bottom: "conv7"
  top: "pool4"
  pooling_param {
    pool: MAX
    kernel_size: 2
    stride: 2
  }
}
layer {
  name: "drop4"
  type: "Dropout"
  bottom: "pool4"
  top: "drop4"
  dropout_param {
    dropout_ratio: 0.3
  }
}
layer {
  name: "relu4"
  type: "ReLU"
  bottom: "drop4"
  top: "relu4"
  relu_param {
    negative_slope: 0.01
  }
}
layer {
  name: "conv8"
  type: "Convolution"
  bottom: "relu4"
  top: "conv8"
  convolution_param {
    num_output: 280
    kernel_size: 1
    weight_filler {
      type: "xavier"
    }
  }
}
layer {
  name: "pool5"
  type: "Pooling"
  bottom: "conv8"
  top: "pool5"
  pooling_param {
    pool: MAX
    kernel_size: 2
    stride: 2
  }
}
layer {
  name: "drop5"
  type: "Dropout"
  bottom: "pool5"
  top: "drop5"
  dropout_param {
    dropout_ratio: 0.4
  }
}
layer {
  name: "relu5"
  type: "ReLU"
  bottom: "drop5"
  top: "relu5"
  relu_param {
    negative_slope: 0.01
  }
}
layer {
  name: "conv10"
  type: "Convolution"
  bottom: "relu5"
  top: "conv10"
  convolution_param {
    num_output: 300
    kernel_size: 1
    weight_filler {
      type: "xavier"
    }
  }
}
layer {
  name: "pool6"
  type: "Pooling"
  bottom: "conv10"
  top: "pool6"
  pooling_param {
    pool: MAX
    kernel_size: 2
    stride: 2
  }
}
layer {
  name: "drop6"
  type: "Dropout"
  bottom: "pool6"
  top: "drop6"
  dropout_param {
    dropout_ratio: 0.5
  }
}
layer {
  name: "relu6"
  type: "ReLU"
  bottom: "drop6"
  top: "relu6"
  relu_param {
    negative_slope: 0.01
  }
}
layer {
  name: "conv11"
  type: "Convolution"
  bottom: "relu6"
  top: "conv11"
  convolution_param {
    num_output: 100
    kernel_size: 1
    weight_filler {
      type: "xavier"
    }
  }
}
layer {
  name: "pool7"
  type: "Pooling"
  bottom: "conv11"
  top: "pool7"
  pooling_param {
    pool: MAX
    kernel_size: 2
    stride: 2
  }
}
layer {
  name: "drop7"
  type: "Dropout"
  bottom: "pool7"
  top: "drop7"
  dropout_param {
    dropout_ratio: 0
  }
}
layer {
  name: "relu7"
  type: "ReLU"
  bottom: "drop7"
  top: "relu7"
  relu_param {
    negative_slope: 0.01
  }
}
layer {
  name: "pool"
  type: "Pooling"
  bottom: "relu7"
  top: "pool"
  pooling_param {
    pool: AVE
    global_pooling: true
  }
}
layer {
  name: "flatten"
  type: "Flatten"
  bottom: "pool"
  top: "flatten"
}
layer {
  name: "ip_c"
  type: "InnerProduct"
  bottom: "flatten"
  top: "ip_c"
  inner_product_param {
    num_output: 20
    weight_filler {
      type: "xavier"
    }
  }
}
layer {
  name: "accuracy_f"
  type: "Accuracy"
  bottom: "ip_c"
  bottom: "label_coarse"
  top: "accuracy_f"
}
layer {
  name: "loss_c"
  type: "SoftmaxWithLoss"
  bottom: "ip_c"
  bottom: "label_coarse"
  top: "loss_c"
}
layer {
  name: "ip_f"
  type: "InnerProduct"
  bottom: "flatten"
  top: "ip_f"
  inner_product_param {
    num_output: 100
    weight_filler {
      type: "xavier"
    }
  }
}
layer {
  name: "accuracy"
  type: "Accuracy"
  bottom: "ip_f"
  bottom: "label_fine"
  top: "accuracy"
}
layer {
  name: "loss_f"
  type: "SoftmaxWithLoss"
  bottom: "ip_f"
  bottom: "label_fine"
  top: "loss_f"
}
I1017 23:34:23.634727  9201 layer_factory.hpp:77] Creating layer data
I1017 23:34:23.634733  9201 net.cpp:100] Creating Layer data
I1017 23:34:23.634738  9201 net.cpp:408] data -> data
I1017 23:34:23.634743  9201 net.cpp:408] data -> label_coarse
I1017 23:34:23.634749  9201 net.cpp:408] data -> label_fine
I1017 23:34:23.634754  9201 hdf5_data_layer.cpp:79] Loading list of HDF5 filenames from: ../../../../data/cifar-100/cifar_100_caffe_hdf5/test.txt
I1017 23:34:23.634770  9201 hdf5_data_layer.cpp:93] Number of HDF5 files: 1
I1017 23:34:23.895303  9201 net.cpp:150] Setting up data
I1017 23:34:23.895325  9201 net.cpp:157] Top shape: 100 3 32 32 (307200)
I1017 23:34:23.895329  9201 net.cpp:157] Top shape: 100 (100)
I1017 23:34:23.895334  9201 net.cpp:157] Top shape: 100 (100)
I1017 23:34:23.895335  9201 net.cpp:165] Memory required for data: 1229600
I1017 23:34:23.895341  9201 layer_factory.hpp:77] Creating layer label_coarse_data_1_split
I1017 23:34:23.895354  9201 net.cpp:100] Creating Layer label_coarse_data_1_split
I1017 23:34:23.895359  9201 net.cpp:434] label_coarse_data_1_split <- label_coarse
I1017 23:34:23.895365  9201 net.cpp:408] label_coarse_data_1_split -> label_coarse_data_1_split_0
I1017 23:34:23.895375  9201 net.cpp:408] label_coarse_data_1_split -> label_coarse_data_1_split_1
I1017 23:34:23.895406  9201 net.cpp:150] Setting up label_coarse_data_1_split
I1017 23:34:23.895411  9201 net.cpp:157] Top shape: 100 (100)
I1017 23:34:23.895426  9201 net.cpp:157] Top shape: 100 (100)
I1017 23:34:23.895429  9201 net.cpp:165] Memory required for data: 1230400
I1017 23:34:23.895432  9201 layer_factory.hpp:77] Creating layer label_fine_data_2_split
I1017 23:34:23.895438  9201 net.cpp:100] Creating Layer label_fine_data_2_split
I1017 23:34:23.895442  9201 net.cpp:434] label_fine_data_2_split <- label_fine
I1017 23:34:23.895447  9201 net.cpp:408] label_fine_data_2_split -> label_fine_data_2_split_0
I1017 23:34:23.895454  9201 net.cpp:408] label_fine_data_2_split -> label_fine_data_2_split_1
I1017 23:34:23.895480  9201 net.cpp:150] Setting up label_fine_data_2_split
I1017 23:34:23.895485  9201 net.cpp:157] Top shape: 100 (100)
I1017 23:34:23.895488  9201 net.cpp:157] Top shape: 100 (100)
I1017 23:34:23.895493  9201 net.cpp:165] Memory required for data: 1231200
I1017 23:34:23.895496  9201 layer_factory.hpp:77] Creating layer conv1
I1017 23:34:23.895505  9201 net.cpp:100] Creating Layer conv1
I1017 23:34:23.895509  9201 net.cpp:434] conv1 <- data
I1017 23:34:23.895514  9201 net.cpp:408] conv1 -> conv1
I1017 23:34:23.896348  9201 net.cpp:150] Setting up conv1
I1017 23:34:23.896358  9201 net.cpp:157] Top shape: 100 192 28 28 (15052800)
I1017 23:34:23.896360  9201 net.cpp:165] Memory required for data: 61442400
I1017 23:34:23.896370  9201 layer_factory.hpp:77] Creating layer pool1
I1017 23:34:23.896378  9201 net.cpp:100] Creating Layer pool1
I1017 23:34:23.896383  9201 net.cpp:434] pool1 <- conv1
I1017 23:34:23.896387  9201 net.cpp:408] pool1 -> pool1
I1017 23:34:23.896419  9201 net.cpp:150] Setting up pool1
I1017 23:34:23.896425  9201 net.cpp:157] Top shape: 100 192 14 14 (3763200)
I1017 23:34:23.896427  9201 net.cpp:165] Memory required for data: 76495200
I1017 23:34:23.896431  9201 layer_factory.hpp:77] Creating layer drop1
I1017 23:34:23.896437  9201 net.cpp:100] Creating Layer drop1
I1017 23:34:23.896441  9201 net.cpp:434] drop1 <- pool1
I1017 23:34:23.896446  9201 net.cpp:408] drop1 -> drop1
I1017 23:34:23.896472  9201 net.cpp:150] Setting up drop1
I1017 23:34:23.896478  9201 net.cpp:157] Top shape: 100 192 14 14 (3763200)
I1017 23:34:23.896482  9201 net.cpp:165] Memory required for data: 91548000
I1017 23:34:23.896486  9201 layer_factory.hpp:77] Creating layer relu1
I1017 23:34:23.896491  9201 net.cpp:100] Creating Layer relu1
I1017 23:34:23.896493  9201 net.cpp:434] relu1 <- drop1
I1017 23:34:23.896499  9201 net.cpp:408] relu1 -> relu1
I1017 23:34:23.896623  9201 net.cpp:150] Setting up relu1
I1017 23:34:23.896631  9201 net.cpp:157] Top shape: 100 192 14 14 (3763200)
I1017 23:34:23.896633  9201 net.cpp:165] Memory required for data: 106600800
I1017 23:34:23.896637  9201 layer_factory.hpp:77] Creating layer conv2
I1017 23:34:23.896644  9201 net.cpp:100] Creating Layer conv2
I1017 23:34:23.896648  9201 net.cpp:434] conv2 <- relu1
I1017 23:34:23.896653  9201 net.cpp:408] conv2 -> conv2
I1017 23:34:23.897425  9201 net.cpp:150] Setting up conv2
I1017 23:34:23.897433  9201 net.cpp:157] Top shape: 100 192 14 14 (3763200)
I1017 23:34:23.897438  9201 net.cpp:165] Memory required for data: 121653600
I1017 23:34:23.897445  9201 layer_factory.hpp:77] Creating layer conv3
I1017 23:34:23.897454  9201 net.cpp:100] Creating Layer conv3
I1017 23:34:23.897459  9201 net.cpp:434] conv3 <- conv2
I1017 23:34:23.897464  9201 net.cpp:408] conv3 -> conv3
I1017 23:34:23.899935  9201 net.cpp:150] Setting up conv3
I1017 23:34:23.899945  9201 net.cpp:157] Top shape: 100 240 12 12 (3456000)
I1017 23:34:23.899948  9201 net.cpp:165] Memory required for data: 135477600
I1017 23:34:23.899956  9201 layer_factory.hpp:77] Creating layer pool2
I1017 23:34:23.899962  9201 net.cpp:100] Creating Layer pool2
I1017 23:34:23.899966  9201 net.cpp:434] pool2 <- conv3
I1017 23:34:23.899972  9201 net.cpp:408] pool2 -> pool2
I1017 23:34:23.900003  9201 net.cpp:150] Setting up pool2
I1017 23:34:23.900008  9201 net.cpp:157] Top shape: 100 240 6 6 (864000)
I1017 23:34:23.900013  9201 net.cpp:165] Memory required for data: 138933600
I1017 23:34:23.900017  9201 layer_factory.hpp:77] Creating layer drop2
I1017 23:34:23.900029  9201 net.cpp:100] Creating Layer drop2
I1017 23:34:23.900033  9201 net.cpp:434] drop2 <- pool2
I1017 23:34:23.900040  9201 net.cpp:408] drop2 -> drop2
I1017 23:34:23.900065  9201 net.cpp:150] Setting up drop2
I1017 23:34:23.900070  9201 net.cpp:157] Top shape: 100 240 6 6 (864000)
I1017 23:34:23.900074  9201 net.cpp:165] Memory required for data: 142389600
I1017 23:34:23.900079  9201 layer_factory.hpp:77] Creating layer relu2
I1017 23:34:23.900084  9201 net.cpp:100] Creating Layer relu2
I1017 23:34:23.900087  9201 net.cpp:434] relu2 <- drop2
I1017 23:34:23.900094  9201 net.cpp:408] relu2 -> relu2
I1017 23:34:23.900290  9201 net.cpp:150] Setting up relu2
I1017 23:34:23.900298  9201 net.cpp:157] Top shape: 100 240 6 6 (864000)
I1017 23:34:23.900301  9201 net.cpp:165] Memory required for data: 145845600
I1017 23:34:23.900305  9201 layer_factory.hpp:77] Creating layer conv4
I1017 23:34:23.900313  9201 net.cpp:100] Creating Layer conv4
I1017 23:34:23.900317  9201 net.cpp:434] conv4 <- relu2
I1017 23:34:23.900323  9201 net.cpp:408] conv4 -> conv4
I1017 23:34:23.901329  9201 net.cpp:150] Setting up conv4
I1017 23:34:23.901340  9201 net.cpp:157] Top shape: 100 240 6 6 (864000)
I1017 23:34:23.901343  9201 net.cpp:165] Memory required for data: 149301600
I1017 23:34:23.901350  9201 layer_factory.hpp:77] Creating layer conv5
I1017 23:34:23.901356  9201 net.cpp:100] Creating Layer conv5
I1017 23:34:23.901360  9201 net.cpp:434] conv5 <- conv4
I1017 23:34:23.901367  9201 net.cpp:408] conv5 -> conv5
I1017 23:34:23.903190  9201 net.cpp:150] Setting up conv5
I1017 23:34:23.903203  9201 net.cpp:157] Top shape: 100 260 5 5 (650000)
I1017 23:34:23.903208  9201 net.cpp:165] Memory required for data: 151901600
I1017 23:34:23.903218  9201 layer_factory.hpp:77] Creating layer pool3
I1017 23:34:23.903224  9201 net.cpp:100] Creating Layer pool3
I1017 23:34:23.903228  9201 net.cpp:434] pool3 <- conv5
I1017 23:34:23.903236  9201 net.cpp:408] pool3 -> pool3
I1017 23:34:23.903267  9201 net.cpp:150] Setting up pool3
I1017 23:34:23.903272  9201 net.cpp:157] Top shape: 100 260 3 3 (234000)
I1017 23:34:23.903276  9201 net.cpp:165] Memory required for data: 152837600
I1017 23:34:23.903280  9201 layer_factory.hpp:77] Creating layer drop3
I1017 23:34:23.903287  9201 net.cpp:100] Creating Layer drop3
I1017 23:34:23.903290  9201 net.cpp:434] drop3 <- pool3
I1017 23:34:23.903296  9201 net.cpp:408] drop3 -> drop3
I1017 23:34:23.903321  9201 net.cpp:150] Setting up drop3
I1017 23:34:23.903326  9201 net.cpp:157] Top shape: 100 260 3 3 (234000)
I1017 23:34:23.903331  9201 net.cpp:165] Memory required for data: 153773600
I1017 23:34:23.903333  9201 layer_factory.hpp:77] Creating layer relu3
I1017 23:34:23.903342  9201 net.cpp:100] Creating Layer relu3
I1017 23:34:23.903345  9201 net.cpp:434] relu3 <- drop3
I1017 23:34:23.903350  9201 net.cpp:408] relu3 -> relu3
I1017 23:34:23.903556  9201 net.cpp:150] Setting up relu3
I1017 23:34:23.903564  9201 net.cpp:157] Top shape: 100 260 3 3 (234000)
I1017 23:34:23.903568  9201 net.cpp:165] Memory required for data: 154709600
I1017 23:34:23.903573  9201 layer_factory.hpp:77] Creating layer conv6
I1017 23:34:23.903579  9201 net.cpp:100] Creating Layer conv6
I1017 23:34:23.903584  9201 net.cpp:434] conv6 <- relu3
I1017 23:34:23.903589  9201 net.cpp:408] conv6 -> conv6
I1017 23:34:23.904638  9201 net.cpp:150] Setting up conv6
I1017 23:34:23.904646  9201 net.cpp:157] Top shape: 100 260 3 3 (234000)
I1017 23:34:23.904650  9201 net.cpp:165] Memory required for data: 155645600
I1017 23:34:23.904657  9201 layer_factory.hpp:77] Creating layer conv7
I1017 23:34:23.904664  9201 net.cpp:100] Creating Layer conv7
I1017 23:34:23.904669  9201 net.cpp:434] conv7 <- conv6
I1017 23:34:23.904675  9201 net.cpp:408] conv7 -> conv7
I1017 23:34:23.906697  9201 net.cpp:150] Setting up conv7
I1017 23:34:23.906708  9201 net.cpp:157] Top shape: 100 280 2 2 (112000)
I1017 23:34:23.906710  9201 net.cpp:165] Memory required for data: 156093600
I1017 23:34:23.906718  9201 layer_factory.hpp:77] Creating layer pool4
I1017 23:34:23.906731  9201 net.cpp:100] Creating Layer pool4
I1017 23:34:23.906736  9201 net.cpp:434] pool4 <- conv7
I1017 23:34:23.906743  9201 net.cpp:408] pool4 -> pool4
I1017 23:34:23.906772  9201 net.cpp:150] Setting up pool4
I1017 23:34:23.906777  9201 net.cpp:157] Top shape: 100 280 1 1 (28000)
I1017 23:34:23.906782  9201 net.cpp:165] Memory required for data: 156205600
I1017 23:34:23.906785  9201 layer_factory.hpp:77] Creating layer drop4
I1017 23:34:23.906791  9201 net.cpp:100] Creating Layer drop4
I1017 23:34:23.906795  9201 net.cpp:434] drop4 <- pool4
I1017 23:34:23.906800  9201 net.cpp:408] drop4 -> drop4
I1017 23:34:23.906826  9201 net.cpp:150] Setting up drop4
I1017 23:34:23.906831  9201 net.cpp:157] Top shape: 100 280 1 1 (28000)
I1017 23:34:23.906836  9201 net.cpp:165] Memory required for data: 156317600
I1017 23:34:23.906838  9201 layer_factory.hpp:77] Creating layer relu4
I1017 23:34:23.906843  9201 net.cpp:100] Creating Layer relu4
I1017 23:34:23.906847  9201 net.cpp:434] relu4 <- drop4
I1017 23:34:23.906852  9201 net.cpp:408] relu4 -> relu4
I1017 23:34:23.907052  9201 net.cpp:150] Setting up relu4
I1017 23:34:23.907059  9201 net.cpp:157] Top shape: 100 280 1 1 (28000)
I1017 23:34:23.907063  9201 net.cpp:165] Memory required for data: 156429600
I1017 23:34:23.907068  9201 layer_factory.hpp:77] Creating layer conv8
I1017 23:34:23.907075  9201 net.cpp:100] Creating Layer conv8
I1017 23:34:23.907079  9201 net.cpp:434] conv8 <- relu4
I1017 23:34:23.907086  9201 net.cpp:408] conv8 -> conv8
I1017 23:34:23.907995  9201 net.cpp:150] Setting up conv8
I1017 23:34:23.908004  9201 net.cpp:157] Top shape: 100 280 1 1 (28000)
I1017 23:34:23.908006  9201 net.cpp:165] Memory required for data: 156541600
I1017 23:34:23.908015  9201 layer_factory.hpp:77] Creating layer pool5
I1017 23:34:23.908020  9201 net.cpp:100] Creating Layer pool5
I1017 23:34:23.908023  9201 net.cpp:434] pool5 <- conv8
I1017 23:34:23.908030  9201 net.cpp:408] pool5 -> pool5
I1017 23:34:23.908058  9201 net.cpp:150] Setting up pool5
I1017 23:34:23.908063  9201 net.cpp:157] Top shape: 100 280 1 1 (28000)
I1017 23:34:23.908066  9201 net.cpp:165] Memory required for data: 156653600
I1017 23:34:23.908071  9201 layer_factory.hpp:77] Creating layer drop5
I1017 23:34:23.908077  9201 net.cpp:100] Creating Layer drop5
I1017 23:34:23.908080  9201 net.cpp:434] drop5 <- pool5
I1017 23:34:23.908085  9201 net.cpp:408] drop5 -> drop5
I1017 23:34:23.908110  9201 net.cpp:150] Setting up drop5
I1017 23:34:23.908116  9201 net.cpp:157] Top shape: 100 280 1 1 (28000)
I1017 23:34:23.908119  9201 net.cpp:165] Memory required for data: 156765600
I1017 23:34:23.908123  9201 layer_factory.hpp:77] Creating layer relu5
I1017 23:34:23.908128  9201 net.cpp:100] Creating Layer relu5
I1017 23:34:23.908133  9201 net.cpp:434] relu5 <- drop5
I1017 23:34:23.908136  9201 net.cpp:408] relu5 -> relu5
I1017 23:34:23.908252  9201 net.cpp:150] Setting up relu5
I1017 23:34:23.908258  9201 net.cpp:157] Top shape: 100 280 1 1 (28000)
I1017 23:34:23.908262  9201 net.cpp:165] Memory required for data: 156877600
I1017 23:34:23.908267  9201 layer_factory.hpp:77] Creating layer conv10
I1017 23:34:23.908272  9201 net.cpp:100] Creating Layer conv10
I1017 23:34:23.908277  9201 net.cpp:434] conv10 <- relu5
I1017 23:34:23.908282  9201 net.cpp:408] conv10 -> conv10
I1017 23:34:23.909217  9201 net.cpp:150] Setting up conv10
I1017 23:34:23.909225  9201 net.cpp:157] Top shape: 100 300 1 1 (30000)
I1017 23:34:23.909229  9201 net.cpp:165] Memory required for data: 156997600
I1017 23:34:23.909238  9201 layer_factory.hpp:77] Creating layer pool6
I1017 23:34:23.909245  9201 net.cpp:100] Creating Layer pool6
I1017 23:34:23.909248  9201 net.cpp:434] pool6 <- conv10
I1017 23:34:23.909255  9201 net.cpp:408] pool6 -> pool6
I1017 23:34:23.909284  9201 net.cpp:150] Setting up pool6
I1017 23:34:23.909289  9201 net.cpp:157] Top shape: 100 300 1 1 (30000)
I1017 23:34:23.909293  9201 net.cpp:165] Memory required for data: 157117600
I1017 23:34:23.909296  9201 layer_factory.hpp:77] Creating layer drop6
I1017 23:34:23.909301  9201 net.cpp:100] Creating Layer drop6
I1017 23:34:23.909312  9201 net.cpp:434] drop6 <- pool6
I1017 23:34:23.909318  9201 net.cpp:408] drop6 -> drop6
I1017 23:34:23.909346  9201 net.cpp:150] Setting up drop6
I1017 23:34:23.909353  9201 net.cpp:157] Top shape: 100 300 1 1 (30000)
I1017 23:34:23.909356  9201 net.cpp:165] Memory required for data: 157237600
I1017 23:34:23.909359  9201 layer_factory.hpp:77] Creating layer relu6
I1017 23:34:23.909365  9201 net.cpp:100] Creating Layer relu6
I1017 23:34:23.909368  9201 net.cpp:434] relu6 <- drop6
I1017 23:34:23.909374  9201 net.cpp:408] relu6 -> relu6
I1017 23:34:23.909490  9201 net.cpp:150] Setting up relu6
I1017 23:34:23.909497  9201 net.cpp:157] Top shape: 100 300 1 1 (30000)
I1017 23:34:23.909499  9201 net.cpp:165] Memory required for data: 157357600
I1017 23:34:23.909503  9201 layer_factory.hpp:77] Creating layer conv11
I1017 23:34:23.909512  9201 net.cpp:100] Creating Layer conv11
I1017 23:34:23.909515  9201 net.cpp:434] conv11 <- relu6
I1017 23:34:23.909520  9201 net.cpp:408] conv11 -> conv11
I1017 23:34:23.910276  9201 net.cpp:150] Setting up conv11
I1017 23:34:23.910285  9201 net.cpp:157] Top shape: 100 100 1 1 (10000)
I1017 23:34:23.910289  9201 net.cpp:165] Memory required for data: 157397600
I1017 23:34:23.910295  9201 layer_factory.hpp:77] Creating layer pool7
I1017 23:34:23.910300  9201 net.cpp:100] Creating Layer pool7
I1017 23:34:23.910305  9201 net.cpp:434] pool7 <- conv11
I1017 23:34:23.910310  9201 net.cpp:408] pool7 -> pool7
I1017 23:34:23.910341  9201 net.cpp:150] Setting up pool7
I1017 23:34:23.910346  9201 net.cpp:157] Top shape: 100 100 1 1 (10000)
I1017 23:34:23.910349  9201 net.cpp:165] Memory required for data: 157437600
I1017 23:34:23.910353  9201 layer_factory.hpp:77] Creating layer drop7
I1017 23:34:23.910361  9201 net.cpp:100] Creating Layer drop7
I1017 23:34:23.910364  9201 net.cpp:434] drop7 <- pool7
I1017 23:34:23.910369  9201 net.cpp:408] drop7 -> drop7
I1017 23:34:23.910395  9201 net.cpp:150] Setting up drop7
I1017 23:34:23.910400  9201 net.cpp:157] Top shape: 100 100 1 1 (10000)
I1017 23:34:23.910404  9201 net.cpp:165] Memory required for data: 157477600
I1017 23:34:23.910408  9201 layer_factory.hpp:77] Creating layer relu7
I1017 23:34:23.910413  9201 net.cpp:100] Creating Layer relu7
I1017 23:34:23.910416  9201 net.cpp:434] relu7 <- drop7
I1017 23:34:23.910423  9201 net.cpp:408] relu7 -> relu7
I1017 23:34:23.910614  9201 net.cpp:150] Setting up relu7
I1017 23:34:23.910622  9201 net.cpp:157] Top shape: 100 100 1 1 (10000)
I1017 23:34:23.910625  9201 net.cpp:165] Memory required for data: 157517600
I1017 23:34:23.910629  9201 layer_factory.hpp:77] Creating layer pool
I1017 23:34:23.910635  9201 net.cpp:100] Creating Layer pool
I1017 23:34:23.910639  9201 net.cpp:434] pool <- relu7
I1017 23:34:23.910645  9201 net.cpp:408] pool -> pool
I1017 23:34:23.910756  9201 net.cpp:150] Setting up pool
I1017 23:34:23.910763  9201 net.cpp:157] Top shape: 100 100 1 1 (10000)
I1017 23:34:23.910765  9201 net.cpp:165] Memory required for data: 157557600
I1017 23:34:23.910769  9201 layer_factory.hpp:77] Creating layer flatten
I1017 23:34:23.910775  9201 net.cpp:100] Creating Layer flatten
I1017 23:34:23.910779  9201 net.cpp:434] flatten <- pool
I1017 23:34:23.910784  9201 net.cpp:408] flatten -> flatten
I1017 23:34:23.910804  9201 net.cpp:150] Setting up flatten
I1017 23:34:23.910809  9201 net.cpp:157] Top shape: 100 100 (10000)
I1017 23:34:23.910811  9201 net.cpp:165] Memory required for data: 157597600
I1017 23:34:23.910815  9201 layer_factory.hpp:77] Creating layer flatten_flatten_0_split
I1017 23:34:23.910820  9201 net.cpp:100] Creating Layer flatten_flatten_0_split
I1017 23:34:23.910825  9201 net.cpp:434] flatten_flatten_0_split <- flatten
I1017 23:34:23.910830  9201 net.cpp:408] flatten_flatten_0_split -> flatten_flatten_0_split_0
I1017 23:34:23.910836  9201 net.cpp:408] flatten_flatten_0_split -> flatten_flatten_0_split_1
I1017 23:34:23.910863  9201 net.cpp:150] Setting up flatten_flatten_0_split
I1017 23:34:23.910868  9201 net.cpp:157] Top shape: 100 100 (10000)
I1017 23:34:23.910879  9201 net.cpp:157] Top shape: 100 100 (10000)
I1017 23:34:23.910883  9201 net.cpp:165] Memory required for data: 157677600
I1017 23:34:23.910887  9201 layer_factory.hpp:77] Creating layer ip_c
I1017 23:34:23.910893  9201 net.cpp:100] Creating Layer ip_c
I1017 23:34:23.910897  9201 net.cpp:434] ip_c <- flatten_flatten_0_split_0
I1017 23:34:23.910902  9201 net.cpp:408] ip_c -> ip_c
I1017 23:34:23.910979  9201 net.cpp:150] Setting up ip_c
I1017 23:34:23.910984  9201 net.cpp:157] Top shape: 100 20 (2000)
I1017 23:34:23.910987  9201 net.cpp:165] Memory required for data: 157685600
I1017 23:34:23.910993  9201 layer_factory.hpp:77] Creating layer ip_c_ip_c_0_split
I1017 23:34:23.910998  9201 net.cpp:100] Creating Layer ip_c_ip_c_0_split
I1017 23:34:23.911003  9201 net.cpp:434] ip_c_ip_c_0_split <- ip_c
I1017 23:34:23.911008  9201 net.cpp:408] ip_c_ip_c_0_split -> ip_c_ip_c_0_split_0
I1017 23:34:23.911015  9201 net.cpp:408] ip_c_ip_c_0_split -> ip_c_ip_c_0_split_1
I1017 23:34:23.911041  9201 net.cpp:150] Setting up ip_c_ip_c_0_split
I1017 23:34:23.911046  9201 net.cpp:157] Top shape: 100 20 (2000)
I1017 23:34:23.911051  9201 net.cpp:157] Top shape: 100 20 (2000)
I1017 23:34:23.911053  9201 net.cpp:165] Memory required for data: 157701600
I1017 23:34:23.911056  9201 layer_factory.hpp:77] Creating layer accuracy_f
I1017 23:34:23.911062  9201 net.cpp:100] Creating Layer accuracy_f
I1017 23:34:23.911067  9201 net.cpp:434] accuracy_f <- ip_c_ip_c_0_split_0
I1017 23:34:23.911070  9201 net.cpp:434] accuracy_f <- label_coarse_data_1_split_0
I1017 23:34:23.911077  9201 net.cpp:408] accuracy_f -> accuracy_f
…
