…
train_state {
  level: 0
  stage: ""
}
type: "AdaDelta"
I1018 00:47:14.852583 12405 solver.cpp:81] Creating training net from train_net file: /home/adam/Honours/Honours-Project/cifar-100_pooling/max/elu/poolcnn_elu_train.prototxt
I1018 00:47:14.852892 12405 net.cpp:58] Initializing net from parameters: 
state {
  phase: TRAIN
  level: 0
  stage: ""
}
layer {
  name: "data"
  type: "HDF5Data"
  top: "data"
  top: "label_coarse"
  top: "label_fine"
  hdf5_data_param {
    source: "../../../../data/cifar-100/cifar_100_caffe_hdf5/train.txt"
    batch_size: 64
  }
}
layer {
  name: "conv1"
  type: "Convolution"
  bottom: "data"
  top: "conv1"
  convolution_param {
    num_output: 192
    kernel_size: 5
    weight_filler {
      type: "xavier"
    }
  }
}
layer {
  name: "pool1"
  type: "Pooling"
  bottom: "conv1"
  top: "pool1"
  pooling_param {
    pool: MAX
    kernel_size: 2
    stride: 2
  }
}
layer {
  name: "drop1"
  type: "Dropout"
  bottom: "pool1"
  top: "drop1"
  dropout_param {
    dropout_ratio: 0
  }
}
layer {
  name: "elu1"
  type: "ELU"
  bottom: "drop1"
  top: "elu1"
}
layer {
  name: "conv2"
  type: "Convolution"
  bottom: "elu1"
  top: "conv2"
  convolution_param {
    num_output: 192
    kernel_size: 1
    weight_filler {
      type: "xavier"
    }
  }
}
layer {
  name: "conv3"
  type: "Convolution"
  bottom: "conv2"
  top: "conv3"
  convolution_param {
    num_output: 240
    kernel_size: 3
    weight_filler {
      type: "xavier"
    }
  }
}
layer {
  name: "pool2"
  type: "Pooling"
  bottom: "conv3"
  top: "pool2"
  pooling_param {
    pool: MAX
    kernel_size: 2
    stride: 2
  }
}
layer {
  name: "drop2"
  type: "Dropout"
  bottom: "pool2"
  top: "drop2"
  dropout_param {
    dropout_ratio: 0.1
  }
}
layer {
  name: "elu2"
  type: "ELU"
  bottom: "drop2"
  top: "elu2"
}
layer {
  name: "conv4"
  type: "Convolution"
  bottom: "elu2"
  top: "conv4"
  convolution_param {
    num_output: 240
    kernel_size: 1
    weight_filler {
      type: "xavier"
    }
  }
}
layer {
  name: "conv5"
  type: "Convolution"
  bottom: "conv4"
  top: "conv5"
  convolution_param {
    num_output: 260
    kernel_size: 2
    weight_filler {
      type: "xavier"
    }
  }
}
layer {
  name: "pool3"
  type: "Pooling"
  bottom: "conv5"
  top: "pool3"
  pooling_param {
    pool: MAX
    kernel_size: 2
    stride: 2
  }
}
layer {
  name: "drop3"
  type: "Dropout"
  bottom: "pool3"
  top: "drop3"
  dropout_param {
    dropout_ratio: 0.2
  }
}
layer {
  name: "elu3"
  type: "ELU"
  bottom: "drop3"
  top: "elu3"
}
layer {
  name: "conv6"
  type: "Convolution"
  bottom: "elu3"
  top: "conv6"
  convolution_param {
    num_output: 260
    kernel_size: 1
    weight_filler {
      type: "xavier"
    }
  }
}
layer {
  name: "conv7"
  type: "Convolution"
  bottom: "conv6"
  top: "conv7"
  convolution_param {
    num_output: 280
    kernel_size: 2
    weight_filler {
      type: "xavier"
    }
  }
}
layer {
  name: "pool4"
  type: "Pooling"
  bottom: "conv7"
  top: "pool4"
  pooling_param {
    pool: MAX
    kernel_size: 2
    stride: 2
  }
}
layer {
  name: "drop4"
  type: "Dropout"
  bottom: "pool4"
  top: "drop4"
  dropout_param {
    dropout_ratio: 0.3
  }
}
layer {
  name: "elu4"
  type: "ELU"
  bottom: "drop4"
  top: "elu4"
}
layer {
  name: "conv8"
  type: "Convolution"
  bottom: "elu4"
  top: "conv8"
  convolution_param {
    num_output: 280
    kernel_size: 1
    weight_filler {
      type: "xavier"
    }
  }
}
layer {
  name: "pool5"
  type: "Pooling"
  bottom: "conv8"
  top: "pool5"
  pooling_param {
    pool: MAX
    kernel_size: 2
    stride: 2
  }
}
layer {
  name: "drop5"
  type: "Dropout"
  bottom: "pool5"
  top: "drop5"
  dropout_param {
    dropout_ratio: 0.4
  }
}
layer {
  name: "elu5"
  type: "ELU"
  bottom: "drop5"
  top: "elu5"
}
layer {
  name: "conv10"
  type: "Convolution"
  bottom: "elu5"
  top: "conv10"
  convolution_param {
    num_output: 300
    kernel_size: 1
    weight_filler {
      type: "xavier"
    }
  }
}
layer {
  name: "pool6"
  type: "Pooling"
  bottom: "conv10"
  top: "pool6"
  pooling_param {
    pool: MAX
    kernel_size: 2
    stride: 2
  }
}
layer {
  name: "drop6"
  type: "Dropout"
  bottom: "pool6"
  top: "drop6"
  dropout_param {
    dropout_ratio: 0.5
  }
}
layer {
  name: "elu6"
  type: "ELU"
  bottom: "drop6"
  top: "elu6"
}
layer {
  name: "conv11"
  type: "Convolution"
  bottom: "elu6"
  top: "conv11"
  convolution_param {
    num_output: 100
    kernel_size: 1
    weight_filler {
      type: "xavier"
    }
  }
}
layer {
  name: "pool7"
  type: "Pooling"
  bottom: "conv11"
  top: "pool7"
  pooling_param {
    pool: MAX
    kernel_size: 2
    stride: 2
  }
}
layer {
  name: "drop7"
  type: "Dropout"
  bottom: "pool7"
  top: "drop7"
  dropout_param {
    dropout_ratio: 0
  }
}
layer {
  name: "elu7"
  type: "ELU"
  bottom: "drop7"
  top: "elu7"
}
layer {
  name: "pool"
  type: "Pooling"
  bottom: "elu7"
  top: "pool"
  pooling_param {
    pool: AVE
    global_pooling: true
  }
}
layer {
  name: "flatten"
  type: "Flatten"
  bottom: "pool"
  top: "flatten"
}
layer {
  name: "ip_c"
  type: "InnerProduct"
  bottom: "flatten"
  top: "ip_c"
  inner_product_param {
    num_output: 20
    weight_filler {
      type: "xavier"
    }
  }
}
layer {
  name: "accuracy_f"
  type: "Accuracy"
  bottom: "ip_c"
  bottom: "label_coarse"
  top: "accuracy_f"
}
layer {
  name: "loss_c"
  type: "SoftmaxWithLoss"
  bottom: "ip_c"
  bottom: "label_coarse"
  top: "loss_c"
}
layer {
  name: "ip_f"
  type: "InnerProduct"
  bottom: "flatten"
  top: "ip_f"
  inner_product_param {
    num_output: 100
    weight_filler {
      type: "xavier"
    }
  }
}
layer {
  name: "accuracy"
  type: "Accuracy"
  bottom: "ip_f"
  bottom: "label_fine"
  top: "accuracy"
}
layer {
  name: "loss_f"
  type: "SoftmaxWithLoss"
  bottom: "ip_f"
  bottom: "label_fine"
  top: "loss_f"
}
I1018 00:47:14.853042 12405 layer_factory.hpp:77] Creating layer data
I1018 00:47:14.853054 12405 net.cpp:100] Creating Layer data
I1018 00:47:14.853058 12405 net.cpp:408] data -> data
I1018 00:47:14.853071 12405 net.cpp:408] data -> label_coarse
I1018 00:47:14.853080 12405 net.cpp:408] data -> label_fine
I1018 00:47:14.853087 12405 hdf5_data_layer.cpp:79] Loading list of HDF5 filenames from: ../../../../data/cifar-100/cifar_100_caffe_hdf5/train.txt
I1018 00:47:14.853107 12405 hdf5_data_layer.cpp:93] Number of HDF5 files: 1
I1018 00:47:14.853732 12405 hdf5.cpp:35] Datatype class: H5T_INTEGER
I1018 00:47:16.481564 12405 net.cpp:150] Setting up data
I1018 00:47:16.481590 12405 net.cpp:157] Top shape: 64 3 32 32 (196608)
I1018 00:47:16.481593 12405 net.cpp:157] Top shape: 64 (64)
I1018 00:47:16.481595 12405 net.cpp:157] Top shape: 64 (64)
I1018 00:47:16.481597 12405 net.cpp:165] Memory required for data: 786944
I1018 00:47:16.481603 12405 layer_factory.hpp:77] Creating layer label_coarse_data_1_split
I1018 00:47:16.481612 12405 net.cpp:100] Creating Layer label_coarse_data_1_split
I1018 00:47:16.481616 12405 net.cpp:434] label_coarse_data_1_split <- label_coarse
I1018 00:47:16.481626 12405 net.cpp:408] label_coarse_data_1_split -> label_coarse_data_1_split_0
I1018 00:47:16.481633 12405 net.cpp:408] label_coarse_data_1_split -> label_coarse_data_1_split_1
I1018 00:47:16.481655 12405 net.cpp:150] Setting up label_coarse_data_1_split
I1018 00:47:16.481660 12405 net.cpp:157] Top shape: 64 (64)
I1018 00:47:16.481663 12405 net.cpp:157] Top shape: 64 (64)
I1018 00:47:16.481664 12405 net.cpp:165] Memory required for data: 787456
I1018 00:47:16.481672 12405 layer_factory.hpp:77] Creating layer label_fine_data_2_split
I1018 00:47:16.481686 12405 net.cpp:100] Creating Layer label_fine_data_2_split
I1018 00:47:16.481689 12405 net.cpp:434] label_fine_data_2_split <- label_fine
I1018 00:47:16.481693 12405 net.cpp:408] label_fine_data_2_split -> label_fine_data_2_split_0
I1018 00:47:16.481696 12405 net.cpp:408] label_fine_data_2_split -> label_fine_data_2_split_1
I1018 00:47:16.481714 12405 net.cpp:150] Setting up label_fine_data_2_split
I1018 00:47:16.481717 12405 net.cpp:157] Top shape: 64 (64)
I1018 00:47:16.481719 12405 net.cpp:157] Top shape: 64 (64)
I1018 00:47:16.481721 12405 net.cpp:165] Memory required for data: 787968
I1018 00:47:16.481722 12405 layer_factory.hpp:77] Creating layer conv1
I1018 00:47:16.481732 12405 net.cpp:100] Creating Layer conv1
I1018 00:47:16.481736 12405 net.cpp:434] conv1 <- data
I1018 00:47:16.481739 12405 net.cpp:408] conv1 -> conv1
I1018 00:47:16.600409 12405 net.cpp:150] Setting up conv1
I1018 00:47:16.600435 12405 net.cpp:157] Top shape: 64 192 28 28 (9633792)
I1018 00:47:16.600436 12405 net.cpp:165] Memory required for data: 39323136
I1018 00:47:16.600453 12405 layer_factory.hpp:77] Creating layer pool1
I1018 00:47:16.600464 12405 net.cpp:100] Creating Layer pool1
I1018 00:47:16.600467 12405 net.cpp:434] pool1 <- conv1
I1018 00:47:16.600472 12405 net.cpp:408] pool1 -> pool1
I1018 00:47:16.600510 12405 net.cpp:150] Setting up pool1
I1018 00:47:16.600515 12405 net.cpp:157] Top shape: 64 192 14 14 (2408448)
I1018 00:47:16.600517 12405 net.cpp:165] Memory required for data: 48956928
I1018 00:47:16.600519 12405 layer_factory.hpp:77] Creating layer drop1
I1018 00:47:16.600523 12405 net.cpp:100] Creating Layer drop1
I1018 00:47:16.600524 12405 net.cpp:434] drop1 <- pool1
I1018 00:47:16.600528 12405 net.cpp:408] drop1 -> drop1
I1018 00:47:16.600549 12405 net.cpp:150] Setting up drop1
I1018 00:47:16.600553 12405 net.cpp:157] Top shape: 64 192 14 14 (2408448)
I1018 00:47:16.600555 12405 net.cpp:165] Memory required for data: 58590720
I1018 00:47:16.600558 12405 layer_factory.hpp:77] Creating layer elu1
I1018 00:47:16.600561 12405 net.cpp:100] Creating Layer elu1
I1018 00:47:16.600564 12405 net.cpp:434] elu1 <- drop1
I1018 00:47:16.600566 12405 net.cpp:408] elu1 -> elu1
I1018 00:47:16.600577 12405 net.cpp:150] Setting up elu1
I1018 00:47:16.600581 12405 net.cpp:157] Top shape: 64 192 14 14 (2408448)
I1018 00:47:16.600582 12405 net.cpp:165] Memory required for data: 68224512
I1018 00:47:16.600584 12405 layer_factory.hpp:77] Creating layer conv2
I1018 00:47:16.600590 12405 net.cpp:100] Creating Layer conv2
I1018 00:47:16.600592 12405 net.cpp:434] conv2 <- elu1
I1018 00:47:16.600595 12405 net.cpp:408] conv2 -> conv2
I1018 00:47:16.601318 12405 net.cpp:150] Setting up conv2
I1018 00:47:16.601326 12405 net.cpp:157] Top shape: 64 192 14 14 (2408448)
I1018 00:47:16.601328 12405 net.cpp:165] Memory required for data: 77858304
I1018 00:47:16.601333 12405 layer_factory.hpp:77] Creating layer conv3
I1018 00:47:16.601339 12405 net.cpp:100] Creating Layer conv3
I1018 00:47:16.601342 12405 net.cpp:434] conv3 <- conv2
I1018 00:47:16.601346 12405 net.cpp:408] conv3 -> conv3
I1018 00:47:16.603761 12405 net.cpp:150] Setting up conv3
I1018 00:47:16.603770 12405 net.cpp:157] Top shape: 64 240 12 12 (2211840)
I1018 00:47:16.603772 12405 net.cpp:165] Memory required for data: 86705664
I1018 00:47:16.603780 12405 layer_factory.hpp:77] Creating layer pool2
I1018 00:47:16.603783 12405 net.cpp:100] Creating Layer pool2
I1018 00:47:16.603785 12405 net.cpp:434] pool2 <- conv3
I1018 00:47:16.603790 12405 net.cpp:408] pool2 -> pool2
I1018 00:47:16.603813 12405 net.cpp:150] Setting up pool2
I1018 00:47:16.603818 12405 net.cpp:157] Top shape: 64 240 6 6 (552960)
I1018 00:47:16.603821 12405 net.cpp:165] Memory required for data: 88917504
I1018 00:47:16.603821 12405 layer_factory.hpp:77] Creating layer drop2
I1018 00:47:16.603826 12405 net.cpp:100] Creating Layer drop2
I1018 00:47:16.603828 12405 net.cpp:434] drop2 <- pool2
I1018 00:47:16.603832 12405 net.cpp:408] drop2 -> drop2
I1018 00:47:16.603855 12405 net.cpp:150] Setting up drop2
I1018 00:47:16.603859 12405 net.cpp:157] Top shape: 64 240 6 6 (552960)
I1018 00:47:16.603875 12405 net.cpp:165] Memory required for data: 91129344
I1018 00:47:16.603878 12405 layer_factory.hpp:77] Creating layer elu2
I1018 00:47:16.603883 12405 net.cpp:100] Creating Layer elu2
I1018 00:47:16.603888 12405 net.cpp:434] elu2 <- drop2
I1018 00:47:16.603891 12405 net.cpp:408] elu2 -> elu2
I1018 00:47:16.603909 12405 net.cpp:150] Setting up elu2
I1018 00:47:16.603914 12405 net.cpp:157] Top shape: 64 240 6 6 (552960)
I1018 00:47:16.603917 12405 net.cpp:165] Memory required for data: 93341184
I1018 00:47:16.603919 12405 layer_factory.hpp:77] Creating layer conv4
I1018 00:47:16.603926 12405 net.cpp:100] Creating Layer conv4
I1018 00:47:16.603929 12405 net.cpp:434] conv4 <- elu2
I1018 00:47:16.603935 12405 net.cpp:408] conv4 -> conv4
I1018 00:47:16.604802 12405 net.cpp:150] Setting up conv4
I1018 00:47:16.604820 12405 net.cpp:157] Top shape: 64 240 6 6 (552960)
I1018 00:47:16.604822 12405 net.cpp:165] Memory required for data: 95553024
I1018 00:47:16.604830 12405 layer_factory.hpp:77] Creating layer conv5
I1018 00:47:16.604837 12405 net.cpp:100] Creating Layer conv5
I1018 00:47:16.604843 12405 net.cpp:434] conv5 <- conv4
I1018 00:47:16.604849 12405 net.cpp:408] conv5 -> conv5
I1018 00:47:16.606699 12405 net.cpp:150] Setting up conv5
I1018 00:47:16.606710 12405 net.cpp:157] Top shape: 64 260 5 5 (416000)
I1018 00:47:16.606712 12405 net.cpp:165] Memory required for data: 97217024
I1018 00:47:16.606720 12405 layer_factory.hpp:77] Creating layer pool3
I1018 00:47:16.606725 12405 net.cpp:100] Creating Layer pool3
I1018 00:47:16.606727 12405 net.cpp:434] pool3 <- conv5
I1018 00:47:16.606732 12405 net.cpp:408] pool3 -> pool3
I1018 00:47:16.606760 12405 net.cpp:150] Setting up pool3
I1018 00:47:16.606765 12405 net.cpp:157] Top shape: 64 260 3 3 (149760)
I1018 00:47:16.606767 12405 net.cpp:165] Memory required for data: 97816064
I1018 00:47:16.606770 12405 layer_factory.hpp:77] Creating layer drop3
I1018 00:47:16.606773 12405 net.cpp:100] Creating Layer drop3
I1018 00:47:16.606775 12405 net.cpp:434] drop3 <- pool3
I1018 00:47:16.606777 12405 net.cpp:408] drop3 -> drop3
I1018 00:47:16.606801 12405 net.cpp:150] Setting up drop3
I1018 00:47:16.606804 12405 net.cpp:157] Top shape: 64 260 3 3 (149760)
I1018 00:47:16.606806 12405 net.cpp:165] Memory required for data: 98415104
I1018 00:47:16.606809 12405 layer_factory.hpp:77] Creating layer elu3
I1018 00:47:16.606817 12405 net.cpp:100] Creating Layer elu3
I1018 00:47:16.606820 12405 net.cpp:434] elu3 <- drop3
I1018 00:47:16.606824 12405 net.cpp:408] elu3 -> elu3
I1018 00:47:16.606839 12405 net.cpp:150] Setting up elu3
I1018 00:47:16.606843 12405 net.cpp:157] Top shape: 64 260 3 3 (149760)
I1018 00:47:16.606845 12405 net.cpp:165] Memory required for data: 99014144
I1018 00:47:16.606848 12405 layer_factory.hpp:77] Creating layer conv6
I1018 00:47:16.606851 12405 net.cpp:100] Creating Layer conv6
I1018 00:47:16.606854 12405 net.cpp:434] conv6 <- elu3
I1018 00:47:16.606858 12405 net.cpp:408] conv6 -> conv6
I1018 00:47:16.607962 12405 net.cpp:150] Setting up conv6
I1018 00:47:16.607970 12405 net.cpp:157] Top shape: 64 260 3 3 (149760)
I1018 00:47:16.607972 12405 net.cpp:165] Memory required for data: 99613184
I1018 00:47:16.607976 12405 layer_factory.hpp:77] Creating layer conv7
I1018 00:47:16.607983 12405 net.cpp:100] Creating Layer conv7
I1018 00:47:16.607985 12405 net.cpp:434] conv7 <- conv6
I1018 00:47:16.607990 12405 net.cpp:408] conv7 -> conv7
I1018 00:47:16.609845 12405 net.cpp:150] Setting up conv7
I1018 00:47:16.609854 12405 net.cpp:157] Top shape: 64 280 2 2 (71680)
I1018 00:47:16.609856 12405 net.cpp:165] Memory required for data: 99899904
I1018 00:47:16.609860 12405 layer_factory.hpp:77] Creating layer pool4
I1018 00:47:16.609865 12405 net.cpp:100] Creating Layer pool4
I1018 00:47:16.609868 12405 net.cpp:434] pool4 <- conv7
I1018 00:47:16.609870 12405 net.cpp:408] pool4 -> pool4
I1018 00:47:16.609894 12405 net.cpp:150] Setting up pool4
I1018 00:47:16.609899 12405 net.cpp:157] Top shape: 64 280 1 1 (17920)
I1018 00:47:16.609910 12405 net.cpp:165] Memory required for data: 99971584
I1018 00:47:16.609912 12405 layer_factory.hpp:77] Creating layer drop4
I1018 00:47:16.609916 12405 net.cpp:100] Creating Layer drop4
I1018 00:47:16.609918 12405 net.cpp:434] drop4 <- pool4
I1018 00:47:16.609922 12405 net.cpp:408] drop4 -> drop4
I1018 00:47:16.609943 12405 net.cpp:150] Setting up drop4
I1018 00:47:16.609946 12405 net.cpp:157] Top shape: 64 280 1 1 (17920)
I1018 00:47:16.609948 12405 net.cpp:165] Memory required for data: 100043264
I1018 00:47:16.609951 12405 layer_factory.hpp:77] Creating layer elu4
I1018 00:47:16.609953 12405 net.cpp:100] Creating Layer elu4
I1018 00:47:16.609956 12405 net.cpp:434] elu4 <- drop4
I1018 00:47:16.609958 12405 net.cpp:408] elu4 -> elu4
I1018 00:47:16.609972 12405 net.cpp:150] Setting up elu4
I1018 00:47:16.609974 12405 net.cpp:157] Top shape: 64 280 1 1 (17920)
I1018 00:47:16.609977 12405 net.cpp:165] Memory required for data: 100114944
I1018 00:47:16.609978 12405 layer_factory.hpp:77] Creating layer conv8
I1018 00:47:16.609982 12405 net.cpp:100] Creating Layer conv8
I1018 00:47:16.609984 12405 net.cpp:434] conv8 <- elu4
I1018 00:47:16.609988 12405 net.cpp:408] conv8 -> conv8
I1018 00:47:16.610887 12405 net.cpp:150] Setting up conv8
I1018 00:47:16.610894 12405 net.cpp:157] Top shape: 64 280 1 1 (17920)
I1018 00:47:16.610895 12405 net.cpp:165] Memory required for data: 100186624
I1018 00:47:16.610899 12405 layer_factory.hpp:77] Creating layer pool5
I1018 00:47:16.610904 12405 net.cpp:100] Creating Layer pool5
I1018 00:47:16.610906 12405 net.cpp:434] pool5 <- conv8
I1018 00:47:16.610908 12405 net.cpp:408] pool5 -> pool5
I1018 00:47:16.610932 12405 net.cpp:150] Setting up pool5
I1018 00:47:16.610937 12405 net.cpp:157] Top shape: 64 280 1 1 (17920)
I1018 00:47:16.610939 12405 net.cpp:165] Memory required for data: 100258304
I1018 00:47:16.610940 12405 layer_factory.hpp:77] Creating layer drop5
I1018 00:47:16.610944 12405 net.cpp:100] Creating Layer drop5
I1018 00:47:16.610947 12405 net.cpp:434] drop5 <- pool5
I1018 00:47:16.610949 12405 net.cpp:408] drop5 -> drop5
I1018 00:47:16.610970 12405 net.cpp:150] Setting up drop5
I1018 00:47:16.610973 12405 net.cpp:157] Top shape: 64 280 1 1 (17920)
I1018 00:47:16.610975 12405 net.cpp:165] Memory required for data: 100329984
I1018 00:47:16.610977 12405 layer_factory.hpp:77] Creating layer elu5
I1018 00:47:16.610980 12405 net.cpp:100] Creating Layer elu5
I1018 00:47:16.610981 12405 net.cpp:434] elu5 <- drop5
I1018 00:47:16.610985 12405 net.cpp:408] elu5 -> elu5
I1018 00:47:16.610996 12405 net.cpp:150] Setting up elu5
I1018 00:47:16.610999 12405 net.cpp:157] Top shape: 64 280 1 1 (17920)
I1018 00:47:16.611001 12405 net.cpp:165] Memory required for data: 100401664
I1018 00:47:16.611003 12405 layer_factory.hpp:77] Creating layer conv10
I1018 00:47:16.611008 12405 net.cpp:100] Creating Layer conv10
I1018 00:47:16.611011 12405 net.cpp:434] conv10 <- elu5
I1018 00:47:16.611013 12405 net.cpp:408] conv10 -> conv10
I1018 00:47:16.611928 12405 net.cpp:150] Setting up conv10
I1018 00:47:16.611935 12405 net.cpp:157] Top shape: 64 300 1 1 (19200)
I1018 00:47:16.611937 12405 net.cpp:165] Memory required for data: 100478464
I1018 00:47:16.611945 12405 layer_factory.hpp:77] Creating layer pool6
I1018 00:47:16.611950 12405 net.cpp:100] Creating Layer pool6
I1018 00:47:16.611953 12405 net.cpp:434] pool6 <- conv10
I1018 00:47:16.611956 12405 net.cpp:408] pool6 -> pool6
I1018 00:47:16.611980 12405 net.cpp:150] Setting up pool6
I1018 00:47:16.611985 12405 net.cpp:157] Top shape: 64 300 1 1 (19200)
I1018 00:47:16.611987 12405 net.cpp:165] Memory required for data: 100555264
I1018 00:47:16.611989 12405 layer_factory.hpp:77] Creating layer drop6
I1018 00:47:16.611992 12405 net.cpp:100] Creating Layer drop6
I1018 00:47:16.611994 12405 net.cpp:434] drop6 <- pool6
I1018 00:47:16.611997 12405 net.cpp:408] drop6 -> drop6
I1018 00:47:16.612021 12405 net.cpp:150] Setting up drop6
I1018 00:47:16.612025 12405 net.cpp:157] Top shape: 64 300 1 1 (19200)
I1018 00:47:16.612027 12405 net.cpp:165] Memory required for data: 100632064
I1018 00:47:16.612036 12405 layer_factory.hpp:77] Creating layer elu6
I1018 00:47:16.612040 12405 net.cpp:100] Creating Layer elu6
I1018 00:47:16.612041 12405 net.cpp:434] elu6 <- drop6
I1018 00:47:16.612046 12405 net.cpp:408] elu6 -> elu6
I1018 00:47:16.612061 12405 net.cpp:150] Setting up elu6
I1018 00:47:16.612066 12405 net.cpp:157] Top shape: 64 300 1 1 (19200)
I1018 00:47:16.612066 12405 net.cpp:165] Memory required for data: 100708864
I1018 00:47:16.612068 12405 layer_factory.hpp:77] Creating layer conv11
I1018 00:47:16.612073 12405 net.cpp:100] Creating Layer conv11
I1018 00:47:16.612076 12405 net.cpp:434] conv11 <- elu6
I1018 00:47:16.612077 12405 net.cpp:408] conv11 -> conv11
I1018 00:47:16.612814 12405 net.cpp:150] Setting up conv11
I1018 00:47:16.612823 12405 net.cpp:157] Top shape: 64 100 1 1 (6400)
I1018 00:47:16.612824 12405 net.cpp:165] Memory required for data: 100734464
I1018 00:47:16.612828 12405 layer_factory.hpp:77] Creating layer pool7
I1018 00:47:16.612831 12405 net.cpp:100] Creating Layer pool7
I1018 00:47:16.612833 12405 net.cpp:434] pool7 <- conv11
I1018 00:47:16.612838 12405 net.cpp:408] pool7 -> pool7
I1018 00:47:16.612860 12405 net.cpp:150] Setting up pool7
I1018 00:47:16.612865 12405 net.cpp:157] Top shape: 64 100 1 1 (6400)
I1018 00:47:16.612867 12405 net.cpp:165] Memory required for data: 100760064
I1018 00:47:16.612869 12405 layer_factory.hpp:77] Creating layer drop7
I1018 00:47:16.612874 12405 net.cpp:100] Creating Layer drop7
I1018 00:47:16.612877 12405 net.cpp:434] drop7 <- pool7
I1018 00:47:16.612880 12405 net.cpp:408] drop7 -> drop7
I1018 00:47:16.612905 12405 net.cpp:150] Setting up drop7
I1018 00:47:16.612910 12405 net.cpp:157] Top shape: 64 100 1 1 (6400)
I1018 00:47:16.612912 12405 net.cpp:165] Memory required for data: 100785664
I1018 00:47:16.612915 12405 layer_factory.hpp:77] Creating layer elu7
I1018 00:47:16.612916 12405 net.cpp:100] Creating Layer elu7
I1018 00:47:16.612918 12405 net.cpp:434] elu7 <- drop7
I1018 00:47:16.612921 12405 net.cpp:408] elu7 -> elu7
I1018 00:47:16.612934 12405 net.cpp:150] Setting up elu7
I1018 00:47:16.612939 12405 net.cpp:157] Top shape: 64 100 1 1 (6400)
I1018 00:47:16.612941 12405 net.cpp:165] Memory required for data: 100811264
I1018 00:47:16.612943 12405 layer_factory.hpp:77] Creating layer pool
I1018 00:47:16.612947 12405 net.cpp:100] Creating Layer pool
I1018 00:47:16.612948 12405 net.cpp:434] pool <- elu7
I1018 00:47:16.612951 12405 net.cpp:408] pool -> pool
I1018 00:47:16.613155 12405 net.cpp:150] Setting up pool
I1018 00:47:16.613162 12405 net.cpp:157] Top shape: 64 100 1 1 (6400)
I1018 00:47:16.613164 12405 net.cpp:165] Memory required for data: 100836864
I1018 00:47:16.613167 12405 layer_factory.hpp:77] Creating layer flatten
I1018 00:47:16.613173 12405 net.cpp:100] Creating Layer flatten
I1018 00:47:16.613176 12405 net.cpp:434] flatten <- pool
I1018 00:47:16.613183 12405 net.cpp:408] flatten -> flatten
I1018 00:47:16.613200 12405 net.cpp:150] Setting up flatten
I1018 00:47:16.613204 12405 net.cpp:157] Top shape: 64 100 (6400)
I1018 00:47:16.613206 12405 net.cpp:165] Memory required for data: 100862464
I1018 00:47:16.613207 12405 layer_factory.hpp:77] Creating layer flatten_flatten_0_split
I1018 00:47:16.613212 12405 net.cpp:100] Creating Layer flatten_flatten_0_split
I1018 00:47:16.613214 12405 net.cpp:434] flatten_flatten_0_split <- flatten
I1018 00:47:16.613219 12405 net.cpp:408] flatten_flatten_0_split -> flatten_flatten_0_split_0
I1018 00:47:16.613224 12405 net.cpp:408] flatten_flatten_0_split -> flatten_flatten_0_split_1
I1018 00:47:16.613248 12405 net.cpp:150] Setting up flatten_flatten_0_split
I1018 00:47:16.613253 12405 net.cpp:157] Top shape: 64 100 (6400)
I1018 00:47:16.613256 12405 net.cpp:157] Top shape: 64 100 (6400)
I1018 00:47:16.613257 12405 net.cpp:165] Memory required for data: 100913664
I1018 00:47:16.613260 12405 layer_factory.hpp:77] Creating layer ip_c
I1018 00:47:16.613263 12405 net.cpp:100] Creating Layer ip_c
I1018 00:47:16.613266 12405 net.cpp:434] ip_c <- flatten_flatten_0_split_0
I1018 00:47:16.613276 12405 net.cpp:408] ip_c -> ip_c
I1018 00:47:16.613628 12405 net.cpp:150] Setting up ip_c
I1018 00:47:16.613636 12405 net.cpp:157] Top shape: 64 20 (1280)
I1018 00:47:16.613637 12405 net.cpp:165] Memory required for data: 100918784
I1018 00:47:16.613641 12405 layer_factory.hpp:77] Creating layer ip_c_ip_c_0_split
I1018 00:47:16.613646 12405 net.cpp:100] Creating Layer ip_c_ip_c_0_split
I1018 00:47:16.613647 12405 net.cpp:434] ip_c_ip_c_0_split <- ip_c
I1018 00:47:16.613651 12405 net.cpp:408] ip_c_ip_c_0_split -> ip_c_ip_c_0_split_0
I1018 00:47:16.613656 12405 net.cpp:408] ip_c_ip_c_0_split -> ip_c_ip_c_0_split_1
I1018 00:47:16.613684 12405 net.cpp:150] Setting up ip_c_ip_c_0_split
I1018 00:47:16.613688 12405 net.cpp:157] Top shape: 64 20 (1280)
I1018 00:47:16.613690 12405 net.cpp:157] Top shape: 64 20 (1280)
I1018 00:47:16.613692 12405 net.cpp:165] Memory required for data: 100929024
I1018 00:47:16.613694 12405 layer_factory.hpp:77] Creating layer accuracy_f
I1018 00:47:16.613698 12405 net.cpp:100] Creating Layer accuracy_f
I1018 00:47:16.613700 12405 net.cpp:434] accuracy_f <- ip_c_ip_c_0_split_0
I1018 00:47:16.613703 12405 net.cpp:434] accuracy_f <- label_coarse_data_1_split_0
I1018 00:47:16.613706 12405 net.cpp:408] accuracy_f -> accuracy_f
…
I1018 00:47:16.614548 12405 net.cpp:283] Network initialization done.
I1018 00:47:16.614744 12405 solver.cpp:181] Creating test net (#0) specified by test_net file: /home/adam/Honours/Honours-Project/cifar-100_pooling/max/elu/poolcnn_elu_test.prototxt
I1018 00:47:16.614862 12405 net.cpp:58] Initializing net from parameters: 
state {
  phase: TEST
}
layer {
  name: "data"
  type: "HDF5Data"
  top: "data"
  top: "label_coarse"
  top: "label_fine"
  hdf5_data_param {
    source: "../../../../data/cifar-100/cifar_100_caffe_hdf5/test.txt"
    batch_size: 100
  }
}
layer {
  name: "conv1"
  type: "Convolution"
  bottom: "data"
  top: "conv1"
  convolution_param {
    num_output: 192
    kernel_size: 5
    weight_filler {
      type: "xavier"
    }
  }
}
layer {
  name: "pool1"
  type: "Pooling"
  bottom: "conv1"
  top: "pool1"
  pooling_param {
    pool: MAX
    kernel_size: 2
    stride: 2
  }
}
layer {
  name: "drop1"
  type: "Dropout"
  bottom: "pool1"
  top: "drop1"
  dropout_param {
    dropout_ratio: 0
  }
}
layer {
  name: "elu1"
  type: "ELU"
  bottom: "drop1"
  top: "elu1"
}
layer {
  name: "conv2"
  type: "Convolution"
  bottom: "elu1"
  top: "conv2"
  convolution_param {
    num_output: 192
    kernel_size: 1
    weight_filler {
      type: "xavier"
    }
  }
}
layer {
  name: "conv3"
  type: "Convolution"
  bottom: "conv2"
  top: "conv3"
  convolution_param {
    num_output: 240
    kernel_size: 3
    weight_filler {
      type: "xavier"
    }
  }
}
layer {
  name: "pool2"
  type: "Pooling"
  bottom: "conv3"
  top: "pool2"
  pooling_param {
    pool: MAX
    kernel_size: 2
    stride: 2
  }
}
layer {
  name: "drop2"
  type: "Dropout"
  bottom: "pool2"
  top: "drop2"
  dropout_param {
    dropout_ratio: 0.1
  }
}
layer {
  name: "elu2"
  type: "ELU"
  bottom: "drop2"
  top: "elu2"
}
layer {
  name: "conv4"
  type: "Convolution"
  bottom: "elu2"
  top: "conv4"
  convolution_param {
    num_output: 240
    kernel_size: 1
    weight_filler {
      type: "xavier"
    }
  }
}
layer {
  name: "conv5"
  type: "Convolution"
  bottom: "conv4"
  top: "conv5"
  convolution_param {
    num_output: 260
    kernel_size: 2
    weight_filler {
      type: "xavier"
    }
  }
}
layer {
  name: "pool3"
  type: "Pooling"
  bottom: "conv5"
  top: "pool3"
  pooling_param {
    pool: MAX
    kernel_size: 2
    stride: 2
  }
}
layer {
  name: "drop3"
  type: "Dropout"
  bottom: "pool3"
  top: "drop3"
  dropout_param {
    dropout_ratio: 0.2
  }
}
layer {
  name: "elu3"
  type: "ELU"
  bottom: "drop3"
  top: "elu3"
}
layer {
  name: "conv6"
  type: "Convolution"
  bottom: "elu3"
  top: "conv6"
  convolution_param {
    num_output: 260
    kernel_size: 1
    weight_filler {
      type: "xavier"
    }
  }
}
layer {
  name: "conv7"
  type: "Convolution"
  bottom: "conv6"
  top: "conv7"
  convolution_param {
    num_output: 280
    kernel_size: 2
    weight_filler {
      type: "xavier"
    }
  }
}
layer {
  name: "pool4"
  type: "Pooling"
  bottom: "conv7"
  top: "pool4"
  pooling_param {
    pool: MAX
    kernel_size: 2
    stride: 2
  }
}
layer {
  name: "drop4"
  type: "Dropout"
  bottom: "pool4"
  top: "drop4"
  dropout_param {
    dropout_ratio: 0.3
  }
}
layer {
  name: "elu4"
  type: "ELU"
  bottom: "drop4"
  top: "elu4"
}
layer {
  name: "conv8"
  type: "Convolution"
  bottom: "elu4"
  top: "conv8"
  convolution_param {
    num_output: 280
    kernel_size: 1
    weight_filler {
      type: "xavier"
    }
  }
}
layer {
  name: "pool5"
  type: "Pooling"
  bottom: "conv8"
  top: "pool5"
  pooling_param {
    pool: MAX
    kernel_size: 2
    stride: 2
  }
}
layer {
  name: "drop5"
  type: "Dropout"
  bottom: "pool5"
  top: "drop5"
  dropout_param {
    dropout_ratio: 0.4
  }
}
layer {
  name: "elu5"
  type: "ELU"
  bottom: "drop5"
  top: "elu5"
}
layer {
  name: "conv10"
  type: "Convolution"
  bottom: "elu5"
  top: "conv10"
  convolution_param {
    num_output: 300
    kernel_size: 1
    weight_filler {
      type: "xavier"
    }
  }
}
layer {
  name: "pool6"
  type: "Pooling"
  bottom: "conv10"
  top: "pool6"
  pooling_param {
    pool: MAX
    kernel_size: 2
    stride: 2
  }
}
layer {
  name: "drop6"
  type: "Dropout"
  bottom: "pool6"
  top: "drop6"
  dropout_param {
    dropout_ratio: 0.5
  }
}
layer {
  name: "elu6"
  type: "ELU"
  bottom: "drop6"
  top: "elu6"
}
layer {
  name: "conv11"
  type: "Convolution"
  bottom: "elu6"
  top: "conv11"
  convolution_param {
    num_output: 100
    kernel_size: 1
    weight_filler {
      type: "xavier"
    }
  }
}
layer {
  name: "pool7"
  type: "Pooling"
  bottom: "conv11"
  top: "pool7"
  pooling_param {
    pool: MAX
    kernel_size: 2
    stride: 2
  }
}
layer {
  name: "drop7"
  type: "Dropout"
  bottom: "pool7"
  top: "drop7"
  dropout_param {
    dropout_ratio: 0
  }
}
layer {
  name: "elu7"
  type: "ELU"
  bottom: "drop7"
  top: "elu7"
}
layer {
  name: "pool"
  type: "Pooling"
  bottom: "elu7"
  top: "pool"
  pooling_param {
    pool: AVE
    global_pooling: true
  }
}
layer {
  name: "flatten"
  type: "Flatten"
  bottom: "pool"
  top: "flatten"
}
layer {
  name: "ip_c"
  type: "InnerProduct"
  bottom: "flatten"
  top: "ip_c"
  inner_product_param {
    num_output: 20
    weight_filler {
      type: "xavier"
    }
  }
}
layer {
  name: "accuracy_f"
  type: "Accuracy"
  bottom: "ip_c"
  bottom: "label_coarse"
  top: "accuracy_f"
}
layer {
  name: "loss_c"
  type: "SoftmaxWithLoss"
  bottom: "ip_c"
  bottom: "label_coarse"
  top: "loss_c"
}
layer {
  name: "ip_f"
  type: "InnerProduct"
  bottom: "flatten"
  top: "ip_f"
  inner_product_param {
    num_output: 100
    weight_filler {
      type: "xavier"
    }
  }
}
layer {
  name: "accuracy"
  type: "Accuracy"
  bottom: "ip_f"
  bottom: "label_fine"
  top: "accuracy"
}
layer {
  name: "loss_f"
  type: "SoftmaxWithLoss"
  bottom: "ip_f"
  bottom: "label_fine"
  top: "loss_f"
}
I1018 00:47:16.614984 12405 layer_factory.hpp:77] Creating layer data
I1018 00:47:16.614991 12405 net.cpp:100] Creating Layer data
I1018 00:47:16.614995 12405 net.cpp:408] data -> data
I1018 00:47:16.615000 12405 net.cpp:408] data -> label_coarse
I1018 00:47:16.615005 12405 net.cpp:408] data -> label_fine
I1018 00:47:16.615010 12405 hdf5_data_layer.cpp:79] Loading list of HDF5 filenames from: ../../../../data/cifar-100/cifar_100_caffe_hdf5/test.txt
I1018 00:47:16.615027 12405 hdf5_data_layer.cpp:93] Number of HDF5 files: 1
I1018 00:47:16.872128 12405 net.cpp:150] Setting up data
I1018 00:47:16.872156 12405 net.cpp:157] Top shape: 100 3 32 32 (307200)
I1018 00:47:16.872159 12405 net.cpp:157] Top shape: 100 (100)
I1018 00:47:16.872162 12405 net.cpp:157] Top shape: 100 (100)
I1018 00:47:16.872164 12405 net.cpp:165] Memory required for data: 1229600
I1018 00:47:16.872169 12405 layer_factory.hpp:77] Creating layer label_coarse_data_1_split
I1018 00:47:16.872180 12405 net.cpp:100] Creating Layer label_coarse_data_1_split
I1018 00:47:16.872184 12405 net.cpp:434] label_coarse_data_1_split <- label_coarse
I1018 00:47:16.872189 12405 net.cpp:408] label_coarse_data_1_split -> label_coarse_data_1_split_0
I1018 00:47:16.872200 12405 net.cpp:408] label_coarse_data_1_split -> label_coarse_data_1_split_1
I1018 00:47:16.872233 12405 net.cpp:150] Setting up label_coarse_data_1_split
I1018 00:47:16.872238 12405 net.cpp:157] Top shape: 100 (100)
I1018 00:47:16.872241 12405 net.cpp:157] Top shape: 100 (100)
I1018 00:47:16.872242 12405 net.cpp:165] Memory required for data: 1230400
I1018 00:47:16.872246 12405 layer_factory.hpp:77] Creating layer label_fine_data_2_split
I1018 00:47:16.872253 12405 net.cpp:100] Creating Layer label_fine_data_2_split
I1018 00:47:16.872257 12405 net.cpp:434] label_fine_data_2_split <- label_fine
I1018 00:47:16.872262 12405 net.cpp:408] label_fine_data_2_split -> label_fine_data_2_split_0
I1018 00:47:16.872268 12405 net.cpp:408] label_fine_data_2_split -> label_fine_data_2_split_1
I1018 00:47:16.872294 12405 net.cpp:150] Setting up label_fine_data_2_split
I1018 00:47:16.872298 12405 net.cpp:157] Top shape: 100 (100)
I1018 00:47:16.872301 12405 net.cpp:157] Top shape: 100 (100)
I1018 00:47:16.872315 12405 net.cpp:165] Memory required for data: 1231200
I1018 00:47:16.872318 12405 layer_factory.hpp:77] Creating layer conv1
I1018 00:47:16.872328 12405 net.cpp:100] Creating Layer conv1
I1018 00:47:16.872330 12405 net.cpp:434] conv1 <- data
I1018 00:47:16.872334 12405 net.cpp:408] conv1 -> conv1
I1018 00:47:16.873198 12405 net.cpp:150] Setting up conv1
I1018 00:47:16.873206 12405 net.cpp:157] Top shape: 100 192 28 28 (15052800)
I1018 00:47:16.873209 12405 net.cpp:165] Memory required for data: 61442400
I1018 00:47:16.873217 12405 layer_factory.hpp:77] Creating layer pool1
I1018 00:47:16.873224 12405 net.cpp:100] Creating Layer pool1
I1018 00:47:16.873226 12405 net.cpp:434] pool1 <- conv1
I1018 00:47:16.873229 12405 net.cpp:408] pool1 -> pool1
I1018 00:47:16.873257 12405 net.cpp:150] Setting up pool1
I1018 00:47:16.873262 12405 net.cpp:157] Top shape: 100 192 14 14 (3763200)
I1018 00:47:16.873265 12405 net.cpp:165] Memory required for data: 76495200
I1018 00:47:16.873266 12405 layer_factory.hpp:77] Creating layer drop1
I1018 00:47:16.873270 12405 net.cpp:100] Creating Layer drop1
I1018 00:47:16.873273 12405 net.cpp:434] drop1 <- pool1
I1018 00:47:16.873276 12405 net.cpp:408] drop1 -> drop1
I1018 00:47:16.873299 12405 net.cpp:150] Setting up drop1
I1018 00:47:16.873303 12405 net.cpp:157] Top shape: 100 192 14 14 (3763200)
I1018 00:47:16.873306 12405 net.cpp:165] Memory required for data: 91548000
I1018 00:47:16.873307 12405 layer_factory.hpp:77] Creating layer elu1
I1018 00:47:16.873309 12405 net.cpp:100] Creating Layer elu1
I1018 00:47:16.873312 12405 net.cpp:434] elu1 <- drop1
I1018 00:47:16.873316 12405 net.cpp:408] elu1 -> elu1
I1018 00:47:16.873328 12405 net.cpp:150] Setting up elu1
I1018 00:47:16.873332 12405 net.cpp:157] Top shape: 100 192 14 14 (3763200)
I1018 00:47:16.873334 12405 net.cpp:165] Memory required for data: 106600800
I1018 00:47:16.873337 12405 layer_factory.hpp:77] Creating layer conv2
I1018 00:47:16.873342 12405 net.cpp:100] Creating Layer conv2
I1018 00:47:16.873347 12405 net.cpp:434] conv2 <- elu1
I1018 00:47:16.873350 12405 net.cpp:408] conv2 -> conv2
I1018 00:47:16.874131 12405 net.cpp:150] Setting up conv2
I1018 00:47:16.874140 12405 net.cpp:157] Top shape: 100 192 14 14 (3763200)
I1018 00:47:16.874143 12405 net.cpp:165] Memory required for data: 121653600
I1018 00:47:16.874151 12405 layer_factory.hpp:77] Creating layer conv3
I1018 00:47:16.874160 12405 net.cpp:100] Creating Layer conv3
I1018 00:47:16.874163 12405 net.cpp:434] conv3 <- conv2
I1018 00:47:16.874167 12405 net.cpp:408] conv3 -> conv3
I1018 00:47:16.876643 12405 net.cpp:150] Setting up conv3
I1018 00:47:16.876654 12405 net.cpp:157] Top shape: 100 240 12 12 (3456000)
I1018 00:47:16.876657 12405 net.cpp:165] Memory required for data: 135477600
I1018 00:47:16.876662 12405 layer_factory.hpp:77] Creating layer pool2
I1018 00:47:16.876667 12405 net.cpp:100] Creating Layer pool2
I1018 00:47:16.876669 12405 net.cpp:434] pool2 <- conv3
I1018 00:47:16.876673 12405 net.cpp:408] pool2 -> pool2
I1018 00:47:16.876701 12405 net.cpp:150] Setting up pool2
I1018 00:47:16.876706 12405 net.cpp:157] Top shape: 100 240 6 6 (864000)
I1018 00:47:16.876709 12405 net.cpp:165] Memory required for data: 138933600
I1018 00:47:16.876713 12405 layer_factory.hpp:77] Creating layer drop2
I1018 00:47:16.876718 12405 net.cpp:100] Creating Layer drop2
I1018 00:47:16.876721 12405 net.cpp:434] drop2 <- pool2
I1018 00:47:16.876726 12405 net.cpp:408] drop2 -> drop2
I1018 00:47:16.876751 12405 net.cpp:150] Setting up drop2
I1018 00:47:16.876755 12405 net.cpp:157] Top shape: 100 240 6 6 (864000)
I1018 00:47:16.876757 12405 net.cpp:165] Memory required for data: 142389600
I1018 00:47:16.876760 12405 layer_factory.hpp:77] Creating layer elu2
I1018 00:47:16.876762 12405 net.cpp:100] Creating Layer elu2
I1018 00:47:16.876763 12405 net.cpp:434] elu2 <- drop2
I1018 00:47:16.876766 12405 net.cpp:408] elu2 -> elu2
I1018 00:47:16.876780 12405 net.cpp:150] Setting up elu2
I1018 00:47:16.876782 12405 net.cpp:157] Top shape: 100 240 6 6 (864000)
I1018 00:47:16.876794 12405 net.cpp:165] Memory required for data: 145845600
I1018 00:47:16.876797 12405 layer_factory.hpp:77] Creating layer conv4
I1018 00:47:16.876804 12405 net.cpp:100] Creating Layer conv4
I1018 00:47:16.876807 12405 net.cpp:434] conv4 <- elu2
I1018 00:47:16.876811 12405 net.cpp:408] conv4 -> conv4
I1018 00:47:16.877918 12405 net.cpp:150] Setting up conv4
I1018 00:47:16.877926 12405 net.cpp:157] Top shape: 100 240 6 6 (864000)
I1018 00:47:16.877929 12405 net.cpp:165] Memory required for data: 149301600
I1018 00:47:16.877933 12405 layer_factory.hpp:77] Creating layer conv5
I1018 00:47:16.877939 12405 net.cpp:100] Creating Layer conv5
I1018 00:47:16.877943 12405 net.cpp:434] conv5 <- conv4
I1018 00:47:16.877946 12405 net.cpp:408] conv5 -> conv5
I1018 00:47:16.879633 12405 net.cpp:150] Setting up conv5
I1018 00:47:16.879642 12405 net.cpp:157] Top shape: 100 260 5 5 (650000)
I1018 00:47:16.879644 12405 net.cpp:165] Memory required for data: 151901600
I1018 00:47:16.879650 12405 layer_factory.hpp:77] Creating layer pool3
I1018 00:47:16.879654 12405 net.cpp:100] Creating Layer pool3
I1018 00:47:16.879657 12405 net.cpp:434] pool3 <- conv5
I1018 00:47:16.879662 12405 net.cpp:408] pool3 -> pool3
I1018 00:47:16.879689 12405 net.cpp:150] Setting up pool3
I1018 00:47:16.879693 12405 net.cpp:157] Top shape: 100 260 3 3 (234000)
I1018 00:47:16.879694 12405 net.cpp:165] Memory required for data: 152837600
I1018 00:47:16.879696 12405 layer_factory.hpp:77] Creating layer drop3
I1018 00:47:16.879700 12405 net.cpp:100] Creating Layer drop3
I1018 00:47:16.879703 12405 net.cpp:434] drop3 <- pool3
I1018 00:47:16.879705 12405 net.cpp:408] drop3 -> drop3
I1018 00:47:16.879727 12405 net.cpp:150] Setting up drop3
I1018 00:47:16.879731 12405 net.cpp:157] Top shape: 100 260 3 3 (234000)
I1018 00:47:16.879732 12405 net.cpp:165] Memory required for data: 153773600
I1018 00:47:16.879734 12405 layer_factory.hpp:77] Creating layer elu3
I1018 00:47:16.879739 12405 net.cpp:100] Creating Layer elu3
I1018 00:47:16.879742 12405 net.cpp:434] elu3 <- drop3
I1018 00:47:16.879745 12405 net.cpp:408] elu3 -> elu3
I1018 00:47:16.879758 12405 net.cpp:150] Setting up elu3
I1018 00:47:16.879762 12405 net.cpp:157] Top shape: 100 260 3 3 (234000)
I1018 00:47:16.879765 12405 net.cpp:165] Memory required for data: 154709600
I1018 00:47:16.879765 12405 layer_factory.hpp:77] Creating layer conv6
I1018 00:47:16.879770 12405 net.cpp:100] Creating Layer conv6
I1018 00:47:16.879772 12405 net.cpp:434] conv6 <- elu3
I1018 00:47:16.879776 12405 net.cpp:408] conv6 -> conv6
I1018 00:47:16.880880 12405 net.cpp:150] Setting up conv6
I1018 00:47:16.880888 12405 net.cpp:157] Top shape: 100 260 3 3 (234000)
I1018 00:47:16.880892 12405 net.cpp:165] Memory required for data: 155645600
I1018 00:47:16.880897 12405 layer_factory.hpp:77] Creating layer conv7
I1018 00:47:16.880902 12405 net.cpp:100] Creating Layer conv7
I1018 00:47:16.880904 12405 net.cpp:434] conv7 <- conv6
I1018 00:47:16.880908 12405 net.cpp:408] conv7 -> conv7
I1018 00:47:16.882833 12405 net.cpp:150] Setting up conv7
I1018 00:47:16.882840 12405 net.cpp:157] Top shape: 100 280 2 2 (112000)
I1018 00:47:16.882843 12405 net.cpp:165] Memory required for data: 156093600
I1018 00:47:16.882846 12405 layer_factory.hpp:77] Creating layer pool4
I1018 00:47:16.882850 12405 net.cpp:100] Creating Layer pool4
I1018 00:47:16.882853 12405 net.cpp:434] pool4 <- conv7
I1018 00:47:16.882858 12405 net.cpp:408] pool4 -> pool4
I1018 00:47:16.882884 12405 net.cpp:150] Setting up pool4
I1018 00:47:16.882887 12405 net.cpp:157] Top shape: 100 280 1 1 (28000)
I1018 00:47:16.882889 12405 net.cpp:165] Memory required for data: 156205600
I1018 00:47:16.882890 12405 layer_factory.hpp:77] Creating layer drop4
I1018 00:47:16.882894 12405 net.cpp:100] Creating Layer drop4
I1018 00:47:16.882896 12405 net.cpp:434] drop4 <- pool4
I1018 00:47:16.882899 12405 net.cpp:408] drop4 -> drop4
I1018 00:47:16.882921 12405 net.cpp:150] Setting up drop4
I1018 00:47:16.882925 12405 net.cpp:157] Top shape: 100 280 1 1 (28000)
I1018 00:47:16.882927 12405 net.cpp:165] Memory required for data: 156317600
I1018 00:47:16.882938 12405 layer_factory.hpp:77] Creating layer elu4
I1018 00:47:16.882942 12405 net.cpp:100] Creating Layer elu4
I1018 00:47:16.882946 12405 net.cpp:434] elu4 <- drop4
I1018 00:47:16.882949 12405 net.cpp:408] elu4 -> elu4
I1018 00:47:16.882962 12405 net.cpp:150] Setting up elu4
I1018 00:47:16.882966 12405 net.cpp:157] Top shape: 100 280 1 1 (28000)
I1018 00:47:16.882968 12405 net.cpp:165] Memory required for data: 156429600
I1018 00:47:16.882971 12405 layer_factory.hpp:77] Creating layer conv8
I1018 00:47:16.882975 12405 net.cpp:100] Creating Layer conv8
I1018 00:47:16.882977 12405 net.cpp:434] conv8 <- elu4
I1018 00:47:16.882982 12405 net.cpp:408] conv8 -> conv8
I1018 00:47:16.883914 12405 net.cpp:150] Setting up conv8
I1018 00:47:16.883922 12405 net.cpp:157] Top shape: 100 280 1 1 (28000)
I1018 00:47:16.883924 12405 net.cpp:165] Memory required for data: 156541600
I1018 00:47:16.883929 12405 layer_factory.hpp:77] Creating layer pool5
I1018 00:47:16.883932 12405 net.cpp:100] Creating Layer pool5
I1018 00:47:16.883935 12405 net.cpp:434] pool5 <- conv8
I1018 00:47:16.883939 12405 net.cpp:408] pool5 -> pool5
I1018 00:47:16.883965 12405 net.cpp:150] Setting up pool5
I1018 00:47:16.883970 12405 net.cpp:157] Top shape: 100 280 1 1 (28000)
I1018 00:47:16.883971 12405 net.cpp:165] Memory required for data: 156653600
I1018 00:47:16.883973 12405 layer_factory.hpp:77] Creating layer drop5
I1018 00:47:16.883976 12405 net.cpp:100] Creating Layer drop5
I1018 00:47:16.883978 12405 net.cpp:434] drop5 <- pool5
I1018 00:47:16.883980 12405 net.cpp:408] drop5 -> drop5
I1018 00:47:16.884004 12405 net.cpp:150] Setting up drop5
I1018 00:47:16.884009 12405 net.cpp:157] Top shape: 100 280 1 1 (28000)
I1018 00:47:16.884011 12405 net.cpp:165] Memory required for data: 156765600
I1018 00:47:16.884014 12405 layer_factory.hpp:77] Creating layer elu5
I1018 00:47:16.884019 12405 net.cpp:100] Creating Layer elu5
I1018 00:47:16.884024 12405 net.cpp:434] elu5 <- drop5
I1018 00:47:16.884028 12405 net.cpp:408] elu5 -> elu5
I1018 00:47:16.884045 12405 net.cpp:150] Setting up elu5
I1018 00:47:16.884049 12405 net.cpp:157] Top shape: 100 280 1 1 (28000)
I1018 00:47:16.884053 12405 net.cpp:165] Memory required for data: 156877600
I1018 00:47:16.884055 12405 layer_factory.hpp:77] Creating layer conv10
I1018 00:47:16.884063 12405 net.cpp:100] Creating Layer conv10
I1018 00:47:16.884065 12405 net.cpp:434] conv10 <- elu5
I1018 00:47:16.884070 12405 net.cpp:408] conv10 -> conv10
I1018 00:47:16.885036 12405 net.cpp:150] Setting up conv10
I1018 00:47:16.885046 12405 net.cpp:157] Top shape: 100 300 1 1 (30000)
I1018 00:47:16.885049 12405 net.cpp:165] Memory required for data: 156997600
I1018 00:47:16.885061 12405 layer_factory.hpp:77] Creating layer pool6
I1018 00:47:16.885066 12405 net.cpp:100] Creating Layer pool6
I1018 00:47:16.885071 12405 net.cpp:434] pool6 <- conv10
I1018 00:47:16.885076 12405 net.cpp:408] pool6 -> pool6
I1018 00:47:16.885104 12405 net.cpp:150] Setting up pool6
I1018 00:47:16.885108 12405 net.cpp:157] Top shape: 100 300 1 1 (30000)
I1018 00:47:16.885112 12405 net.cpp:165] Memory required for data: 157117600
I1018 00:47:16.885114 12405 layer_factory.hpp:77] Creating layer drop6
I1018 00:47:16.885120 12405 net.cpp:100] Creating Layer drop6
I1018 00:47:16.885123 12405 net.cpp:434] drop6 <- pool6
I1018 00:47:16.885128 12405 net.cpp:408] drop6 -> drop6
I1018 00:47:16.885156 12405 net.cpp:150] Setting up drop6
I1018 00:47:16.885161 12405 net.cpp:157] Top shape: 100 300 1 1 (30000)
I1018 00:47:16.885165 12405 net.cpp:165] Memory required for data: 157237600
I1018 00:47:16.885167 12405 layer_factory.hpp:77] Creating layer elu6
I1018 00:47:16.885172 12405 net.cpp:100] Creating Layer elu6
I1018 00:47:16.885176 12405 net.cpp:434] elu6 <- drop6
I1018 00:47:16.885180 12405 net.cpp:408] elu6 -> elu6
I1018 00:47:16.885197 12405 net.cpp:150] Setting up elu6
I1018 00:47:16.885201 12405 net.cpp:157] Top shape: 100 300 1 1 (30000)
I1018 00:47:16.885205 12405 net.cpp:165] Memory required for data: 157357600
I1018 00:47:16.885217 12405 layer_factory.hpp:77] Creating layer conv11
I1018 00:47:16.885223 12405 net.cpp:100] Creating Layer conv11
I1018 00:47:16.885226 12405 net.cpp:434] conv11 <- elu6
I1018 00:47:16.885231 12405 net.cpp:408] conv11 -> conv11
I1018 00:47:16.885998 12405 net.cpp:150] Setting up conv11
I1018 00:47:16.886006 12405 net.cpp:157] Top shape: 100 100 1 1 (10000)
I1018 00:47:16.886009 12405 net.cpp:165] Memory required for data: 157397600
I1018 00:47:16.886016 12405 layer_factory.hpp:77] Creating layer pool7
I1018 00:47:16.886023 12405 net.cpp:100] Creating Layer pool7
I1018 00:47:16.886028 12405 net.cpp:434] pool7 <- conv11
I1018 00:47:16.886032 12405 net.cpp:408] pool7 -> pool7
I1018 00:47:16.886062 12405 net.cpp:150] Setting up pool7
I1018 00:47:16.886067 12405 net.cpp:157] Top shape: 100 100 1 1 (10000)
I1018 00:47:16.886070 12405 net.cpp:165] Memory required for data: 157437600
I1018 00:47:16.886075 12405 layer_factory.hpp:77] Creating layer drop7
I1018 00:47:16.886083 12405 net.cpp:100] Creating Layer drop7
I1018 00:47:16.886086 12405 net.cpp:434] drop7 <- pool7
I1018 00:47:16.886091 12405 net.cpp:408] drop7 -> drop7
I1018 00:47:16.886118 12405 net.cpp:150] Setting up drop7
I1018 00:47:16.886124 12405 net.cpp:157] Top shape: 100 100 1 1 (10000)
I1018 00:47:16.886128 12405 net.cpp:165] Memory required for data: 157477600
I1018 00:47:16.886132 12405 layer_factory.hpp:77] Creating layer elu7
I1018 00:47:16.886135 12405 net.cpp:100] Creating Layer elu7
I1018 00:47:16.886139 12405 net.cpp:434] elu7 <- drop7
I1018 00:47:16.886144 12405 net.cpp:408] elu7 -> elu7
I1018 00:47:16.886162 12405 net.cpp:150] Setting up elu7
I1018 00:47:16.886167 12405 net.cpp:157] Top shape: 100 100 1 1 (10000)
I1018 00:47:16.886170 12405 net.cpp:165] Memory required for data: 157517600
I1018 00:47:16.886173 12405 layer_factory.hpp:77] Creating layer pool
I1018 00:47:16.886178 12405 net.cpp:100] Creating Layer pool
I1018 00:47:16.886183 12405 net.cpp:434] pool <- elu7
I1018 00:47:16.886188 12405 net.cpp:408] pool -> pool
I1018 00:47:16.886389 12405 net.cpp:150] Setting up pool
I1018 00:47:16.886397 12405 net.cpp:157] Top shape: 100 100 1 1 (10000)
I1018 00:47:16.886400 12405 net.cpp:165] Memory required for data: 157557600
I1018 00:47:16.886404 12405 layer_factory.hpp:77] Creating layer flatten
I1018 00:47:16.886409 12405 net.cpp:100] Creating Layer flatten
I1018 00:47:16.886414 12405 net.cpp:434] flatten <- pool
I1018 00:47:16.886418 12405 net.cpp:408] flatten -> flatten
I1018 00:47:16.886438 12405 net.cpp:150] Setting up flatten
I1018 00:47:16.886443 12405 net.cpp:157] Top shape: 100 100 (10000)
I1018 00:47:16.886446 12405 net.cpp:165] Memory required for data: 157597600
I1018 00:47:16.886450 12405 layer_factory.hpp:77] Creating layer flatten_flatten_0_split
I1018 00:47:16.886456 12405 net.cpp:100] Creating Layer flatten_flatten_0_split
I1018 00:47:16.886459 12405 net.cpp:434] flatten_flatten_0_split <- flatten
I1018 00:47:16.886464 12405 net.cpp:408] flatten_flatten_0_split -> flatten_flatten_0_split_0
I1018 00:47:16.886471 12405 net.cpp:408] flatten_flatten_0_split -> flatten_flatten_0_split_1
I1018 00:47:16.886499 12405 net.cpp:150] Setting up flatten_flatten_0_split
I1018 00:47:16.886503 12405 net.cpp:157] Top shape: 100 100 (10000)
I1018 00:47:16.886507 12405 net.cpp:157] Top shape: 100 100 (10000)
I1018 00:47:16.886512 12405 net.cpp:165] Memory required for data: 157677600
I1018 00:47:16.886514 12405 layer_factory.hpp:77] Creating layer ip_c
I1018 00:47:16.886521 12405 net.cpp:100] Creating Layer ip_c
I1018 00:47:16.886525 12405 net.cpp:434] ip_c <- flatten_flatten_0_split_0
I1018 00:47:16.886530 12405 net.cpp:408] ip_c -> ip_c
I1018 00:47:16.886611 12405 net.cpp:150] Setting up ip_c
I1018 00:47:16.886616 12405 net.cpp:157] Top shape: 100 20 (2000)
I1018 00:47:16.886620 12405 net.cpp:165] Memory required for data: 157685600
I1018 00:47:16.886626 12405 layer_factory.hpp:77] Creating layer ip_c_ip_c_0_split
I1018 00:47:16.886631 12405 net.cpp:100] Creating Layer ip_c_ip_c_0_split
I1018 00:47:16.886634 12405 net.cpp:434] ip_c_ip_c_0_split <- ip_c
I1018 00:47:16.886646 12405 net.cpp:408] ip_c_ip_c_0_split -> ip_c_ip_c_0_split_0
I1018 00:47:16.886653 12405 net.cpp:408] ip_c_ip_c_0_split -> ip_c_ip_c_0_split_1
I1018 00:47:16.886682 12405 net.cpp:150] Setting up ip_c_ip_c_0_split
I1018 00:47:16.886687 12405 net.cpp:157] Top shape: 100 20 (2000)
I1018 00:47:16.886690 12405 net.cpp:157] Top shape: 100 20 (2000)
I1018 00:47:16.886693 12405 net.cpp:165] Memory required for data: 157701600
I1018 00:47:16.886696 12405 layer_factory.hpp:77] Creating layer accuracy_f
I1018 00:47:16.886701 12405 net.cpp:100] Creating Layer accuracy_f
I1018 00:47:16.886705 12405 net.cpp:434] accuracy_f <- ip_c_ip_c_0_split_0
I1018 00:47:16.886709 12405 net.cpp:434] accuracy_f <- label_coarse_data_1_split_0
I1018 00:47:16.886716 12405 net.cpp:408] accuracy_f -> accuracy_f
…
