…
train_state {
  level: 0
  stage: ""
}
type: "SGD"
I1018 01:57:23.984567 13393 solver.cpp:81] Creating training net from train_net file: /home/adam/Honours/Honours-Project/cifar-100_pooling/max/elu/poolcnn_elu_train.prototxt
I1018 01:57:23.984858 13393 net.cpp:58] Initializing net from parameters: 
state {
  phase: TRAIN
  level: 0
  stage: ""
}
layer {
  name: "data"
  type: "HDF5Data"
  top: "data"
  top: "label_coarse"
  top: "label_fine"
  hdf5_data_param {
    source: "../../../../data/cifar-100/cifar_100_caffe_hdf5/train.txt"
    batch_size: 64
  }
}
layer {
  name: "conv1"
  type: "Convolution"
  bottom: "data"
  top: "conv1"
  convolution_param {
    num_output: 192
    kernel_size: 5
    weight_filler {
      type: "xavier"
    }
  }
}
layer {
  name: "pool1"
  type: "Pooling"
  bottom: "conv1"
  top: "pool1"
  pooling_param {
    pool: MAX
    kernel_size: 2
    stride: 2
  }
}
layer {
  name: "drop1"
  type: "Dropout"
  bottom: "pool1"
  top: "drop1"
  dropout_param {
    dropout_ratio: 0
  }
}
layer {
  name: "elu1"
  type: "ELU"
  bottom: "drop1"
  top: "elu1"
}
layer {
  name: "conv2"
  type: "Convolution"
  bottom: "elu1"
  top: "conv2"
  convolution_param {
    num_output: 192
    kernel_size: 1
    weight_filler {
      type: "xavier"
    }
  }
}
layer {
  name: "conv3"
  type: "Convolution"
  bottom: "conv2"
  top: "conv3"
  convolution_param {
    num_output: 240
    kernel_size: 3
    weight_filler {
      type: "xavier"
    }
  }
}
layer {
  name: "pool2"
  type: "Pooling"
  bottom: "conv3"
  top: "pool2"
  pooling_param {
    pool: MAX
    kernel_size: 2
    stride: 2
  }
}
layer {
  name: "drop2"
  type: "Dropout"
  bottom: "pool2"
  top: "drop2"
  dropout_param {
    dropout_ratio: 0.1
  }
}
layer {
  name: "elu2"
  type: "ELU"
  bottom: "drop2"
  top: "elu2"
}
layer {
  name: "conv4"
  type: "Convolution"
  bottom: "elu2"
  top: "conv4"
  convolution_param {
    num_output: 240
    kernel_size: 1
    weight_filler {
      type: "xavier"
    }
  }
}
layer {
  name: "conv5"
  type: "Convolution"
  bottom: "conv4"
  top: "conv5"
  convolution_param {
    num_output: 260
    kernel_size: 2
    weight_filler {
      type: "xavier"
    }
  }
}
layer {
  name: "pool3"
  type: "Pooling"
  bottom: "conv5"
  top: "pool3"
  pooling_param {
    pool: MAX
    kernel_size: 2
    stride: 2
  }
}
layer {
  name: "drop3"
  type: "Dropout"
  bottom: "pool3"
  top: "drop3"
  dropout_param {
    dropout_ratio: 0.2
  }
}
layer {
  name: "elu3"
  type: "ELU"
  bottom: "drop3"
  top: "elu3"
}
layer {
  name: "conv6"
  type: "Convolution"
  bottom: "elu3"
  top: "conv6"
  convolution_param {
    num_output: 260
    kernel_size: 1
    weight_filler {
      type: "xavier"
    }
  }
}
layer {
  name: "conv7"
  type: "Convolution"
  bottom: "conv6"
  top: "conv7"
  convolution_param {
    num_output: 280
    kernel_size: 2
    weight_filler {
      type: "xavier"
    }
  }
}
layer {
  name: "pool4"
  type: "Pooling"
  bottom: "conv7"
  top: "pool4"
  pooling_param {
    pool: MAX
    kernel_size: 2
    stride: 2
  }
}
layer {
  name: "drop4"
  type: "Dropout"
  bottom: "pool4"
  top: "drop4"
  dropout_param {
    dropout_ratio: 0.3
  }
}
layer {
  name: "elu4"
  type: "ELU"
  bottom: "drop4"
  top: "elu4"
}
layer {
  name: "conv8"
  type: "Convolution"
  bottom: "elu4"
  top: "conv8"
  convolution_param {
    num_output: 280
    kernel_size: 1
    weight_filler {
      type: "xavier"
    }
  }
}
layer {
  name: "pool5"
  type: "Pooling"
  bottom: "conv8"
  top: "pool5"
  pooling_param {
    pool: MAX
    kernel_size: 2
    stride: 2
  }
}
layer {
  name: "drop5"
  type: "Dropout"
  bottom: "pool5"
  top: "drop5"
  dropout_param {
    dropout_ratio: 0.4
  }
}
layer {
  name: "elu5"
  type: "ELU"
  bottom: "drop5"
  top: "elu5"
}
layer {
  name: "conv10"
  type: "Convolution"
  bottom: "elu5"
  top: "conv10"
  convolution_param {
    num_output: 300
    kernel_size: 1
    weight_filler {
      type: "xavier"
    }
  }
}
layer {
  name: "pool6"
  type: "Pooling"
  bottom: "conv10"
  top: "pool6"
  pooling_param {
    pool: MAX
    kernel_size: 2
    stride: 2
  }
}
layer {
  name: "drop6"
  type: "Dropout"
  bottom: "pool6"
  top: "drop6"
  dropout_param {
    dropout_ratio: 0.5
  }
}
layer {
  name: "elu6"
  type: "ELU"
  bottom: "drop6"
  top: "elu6"
}
layer {
  name: "conv11"
  type: "Convolution"
  bottom: "elu6"
  top: "conv11"
  convolution_param {
    num_output: 100
    kernel_size: 1
    weight_filler {
      type: "xavier"
    }
  }
}
layer {
  name: "pool7"
  type: "Pooling"
  bottom: "conv11"
  top: "pool7"
  pooling_param {
    pool: MAX
    kernel_size: 2
    stride: 2
  }
}
layer {
  name: "drop7"
  type: "Dropout"
  bottom: "pool7"
  top: "drop7"
  dropout_param {
    dropout_ratio: 0
  }
}
layer {
  name: "elu7"
  type: "ELU"
  bottom: "drop7"
  top: "elu7"
}
layer {
  name: "pool"
  type: "Pooling"
  bottom: "elu7"
  top: "pool"
  pooling_param {
    pool: AVE
    global_pooling: true
  }
}
layer {
  name: "flatten"
  type: "Flatten"
  bottom: "pool"
  top: "flatten"
}
layer {
  name: "ip_c"
  type: "InnerProduct"
  bottom: "flatten"
  top: "ip_c"
  inner_product_param {
    num_output: 20
    weight_filler {
      type: "xavier"
    }
  }
}
layer {
  name: "accuracy_f"
  type: "Accuracy"
  bottom: "ip_c"
  bottom: "label_coarse"
  top: "accuracy_f"
}
layer {
  name: "loss_c"
  type: "SoftmaxWithLoss"
  bottom: "ip_c"
  bottom: "label_coarse"
  top: "loss_c"
}
layer {
  name: "ip_f"
  type: "InnerProduct"
  bottom: "flatten"
  top: "ip_f"
  inner_product_param {
    num_output: 100
    weight_filler {
      type: "xavier"
    }
  }
}
layer {
  name: "accuracy"
  type: "Accuracy"
  bottom: "ip_f"
  bottom: "label_fine"
  top: "accuracy"
}
layer {
  name: "loss_f"
  type: "SoftmaxWithLoss"
  bottom: "ip_f"
  bottom: "label_fine"
  top: "loss_f"
}
I1018 01:57:23.984978 13393 layer_factory.hpp:77] Creating layer data
I1018 01:57:23.984987 13393 net.cpp:100] Creating Layer data
I1018 01:57:23.984989 13393 net.cpp:408] data -> data
I1018 01:57:23.985002 13393 net.cpp:408] data -> label_coarse
I1018 01:57:23.985008 13393 net.cpp:408] data -> label_fine
I1018 01:57:23.985013 13393 hdf5_data_layer.cpp:79] Loading list of HDF5 filenames from: ../../../../data/cifar-100/cifar_100_caffe_hdf5/train.txt
I1018 01:57:23.985033 13393 hdf5_data_layer.cpp:93] Number of HDF5 files: 1
I1018 01:57:23.985658 13393 hdf5.cpp:35] Datatype class: H5T_INTEGER
I1018 01:57:25.658784 13393 net.cpp:150] Setting up data
I1018 01:57:25.658808 13393 net.cpp:157] Top shape: 64 3 32 32 (196608)
I1018 01:57:25.658812 13393 net.cpp:157] Top shape: 64 (64)
I1018 01:57:25.658814 13393 net.cpp:157] Top shape: 64 (64)
I1018 01:57:25.658816 13393 net.cpp:165] Memory required for data: 786944
I1018 01:57:25.658823 13393 layer_factory.hpp:77] Creating layer label_coarse_data_1_split
I1018 01:57:25.658833 13393 net.cpp:100] Creating Layer label_coarse_data_1_split
I1018 01:57:25.658836 13393 net.cpp:434] label_coarse_data_1_split <- label_coarse
I1018 01:57:25.658849 13393 net.cpp:408] label_coarse_data_1_split -> label_coarse_data_1_split_0
I1018 01:57:25.658856 13393 net.cpp:408] label_coarse_data_1_split -> label_coarse_data_1_split_1
I1018 01:57:25.658879 13393 net.cpp:150] Setting up label_coarse_data_1_split
I1018 01:57:25.658885 13393 net.cpp:157] Top shape: 64 (64)
I1018 01:57:25.658890 13393 net.cpp:157] Top shape: 64 (64)
I1018 01:57:25.658892 13393 net.cpp:165] Memory required for data: 787456
I1018 01:57:25.658895 13393 layer_factory.hpp:77] Creating layer label_fine_data_2_split
I1018 01:57:25.658901 13393 net.cpp:100] Creating Layer label_fine_data_2_split
I1018 01:57:25.658920 13393 net.cpp:434] label_fine_data_2_split <- label_fine
I1018 01:57:25.658926 13393 net.cpp:408] label_fine_data_2_split -> label_fine_data_2_split_0
I1018 01:57:25.658932 13393 net.cpp:408] label_fine_data_2_split -> label_fine_data_2_split_1
I1018 01:57:25.658958 13393 net.cpp:150] Setting up label_fine_data_2_split
I1018 01:57:25.658964 13393 net.cpp:157] Top shape: 64 (64)
I1018 01:57:25.658967 13393 net.cpp:157] Top shape: 64 (64)
I1018 01:57:25.658970 13393 net.cpp:165] Memory required for data: 787968
I1018 01:57:25.658973 13393 layer_factory.hpp:77] Creating layer conv1
I1018 01:57:25.658989 13393 net.cpp:100] Creating Layer conv1
I1018 01:57:25.658993 13393 net.cpp:434] conv1 <- data
I1018 01:57:25.658999 13393 net.cpp:408] conv1 -> conv1
I1018 01:57:25.795274 13393 net.cpp:150] Setting up conv1
I1018 01:57:25.795306 13393 net.cpp:157] Top shape: 64 192 28 28 (9633792)
I1018 01:57:25.795310 13393 net.cpp:165] Memory required for data: 39323136
I1018 01:57:25.795342 13393 layer_factory.hpp:77] Creating layer pool1
I1018 01:57:25.795358 13393 net.cpp:100] Creating Layer pool1
I1018 01:57:25.795367 13393 net.cpp:434] pool1 <- conv1
I1018 01:57:25.795373 13393 net.cpp:408] pool1 -> pool1
I1018 01:57:25.795425 13393 net.cpp:150] Setting up pool1
I1018 01:57:25.795429 13393 net.cpp:157] Top shape: 64 192 14 14 (2408448)
I1018 01:57:25.795433 13393 net.cpp:165] Memory required for data: 48956928
I1018 01:57:25.795433 13393 layer_factory.hpp:77] Creating layer drop1
I1018 01:57:25.795439 13393 net.cpp:100] Creating Layer drop1
I1018 01:57:25.795440 13393 net.cpp:434] drop1 <- pool1
I1018 01:57:25.795444 13393 net.cpp:408] drop1 -> drop1
I1018 01:57:25.795469 13393 net.cpp:150] Setting up drop1
I1018 01:57:25.795473 13393 net.cpp:157] Top shape: 64 192 14 14 (2408448)
I1018 01:57:25.795475 13393 net.cpp:165] Memory required for data: 58590720
I1018 01:57:25.795476 13393 layer_factory.hpp:77] Creating layer elu1
I1018 01:57:25.795480 13393 net.cpp:100] Creating Layer elu1
I1018 01:57:25.795481 13393 net.cpp:434] elu1 <- drop1
I1018 01:57:25.795483 13393 net.cpp:408] elu1 -> elu1
I1018 01:57:25.795496 13393 net.cpp:150] Setting up elu1
I1018 01:57:25.795500 13393 net.cpp:157] Top shape: 64 192 14 14 (2408448)
I1018 01:57:25.795500 13393 net.cpp:165] Memory required for data: 68224512
I1018 01:57:25.795502 13393 layer_factory.hpp:77] Creating layer conv2
I1018 01:57:25.795509 13393 net.cpp:100] Creating Layer conv2
I1018 01:57:25.795511 13393 net.cpp:434] conv2 <- elu1
I1018 01:57:25.795516 13393 net.cpp:408] conv2 -> conv2
I1018 01:57:25.796298 13393 net.cpp:150] Setting up conv2
I1018 01:57:25.796306 13393 net.cpp:157] Top shape: 64 192 14 14 (2408448)
I1018 01:57:25.796308 13393 net.cpp:165] Memory required for data: 77858304
I1018 01:57:25.796314 13393 layer_factory.hpp:77] Creating layer conv3
I1018 01:57:25.796321 13393 net.cpp:100] Creating Layer conv3
I1018 01:57:25.796324 13393 net.cpp:434] conv3 <- conv2
I1018 01:57:25.796327 13393 net.cpp:408] conv3 -> conv3
I1018 01:57:25.798817 13393 net.cpp:150] Setting up conv3
I1018 01:57:25.798832 13393 net.cpp:157] Top shape: 64 240 12 12 (2211840)
I1018 01:57:25.798835 13393 net.cpp:165] Memory required for data: 86705664
I1018 01:57:25.798841 13393 layer_factory.hpp:77] Creating layer pool2
I1018 01:57:25.798847 13393 net.cpp:100] Creating Layer pool2
I1018 01:57:25.798849 13393 net.cpp:434] pool2 <- conv3
I1018 01:57:25.798853 13393 net.cpp:408] pool2 -> pool2
I1018 01:57:25.798882 13393 net.cpp:150] Setting up pool2
I1018 01:57:25.798887 13393 net.cpp:157] Top shape: 64 240 6 6 (552960)
I1018 01:57:25.798889 13393 net.cpp:165] Memory required for data: 88917504
I1018 01:57:25.798893 13393 layer_factory.hpp:77] Creating layer drop2
I1018 01:57:25.798900 13393 net.cpp:100] Creating Layer drop2
I1018 01:57:25.798904 13393 net.cpp:434] drop2 <- pool2
I1018 01:57:25.798909 13393 net.cpp:408] drop2 -> drop2
I1018 01:57:25.798933 13393 net.cpp:150] Setting up drop2
I1018 01:57:25.798938 13393 net.cpp:157] Top shape: 64 240 6 6 (552960)
I1018 01:57:25.798951 13393 net.cpp:165] Memory required for data: 91129344
I1018 01:57:25.798954 13393 layer_factory.hpp:77] Creating layer elu2
I1018 01:57:25.798960 13393 net.cpp:100] Creating Layer elu2
I1018 01:57:25.798964 13393 net.cpp:434] elu2 <- drop2
I1018 01:57:25.798967 13393 net.cpp:408] elu2 -> elu2
I1018 01:57:25.798982 13393 net.cpp:150] Setting up elu2
I1018 01:57:25.798987 13393 net.cpp:157] Top shape: 64 240 6 6 (552960)
I1018 01:57:25.798990 13393 net.cpp:165] Memory required for data: 93341184
I1018 01:57:25.798993 13393 layer_factory.hpp:77] Creating layer conv4
I1018 01:57:25.799000 13393 net.cpp:100] Creating Layer conv4
I1018 01:57:25.799003 13393 net.cpp:434] conv4 <- elu2
I1018 01:57:25.799007 13393 net.cpp:408] conv4 -> conv4
I1018 01:57:25.800259 13393 net.cpp:150] Setting up conv4
I1018 01:57:25.800271 13393 net.cpp:157] Top shape: 64 240 6 6 (552960)
I1018 01:57:25.800276 13393 net.cpp:165] Memory required for data: 95553024
I1018 01:57:25.800282 13393 layer_factory.hpp:77] Creating layer conv5
I1018 01:57:25.800290 13393 net.cpp:100] Creating Layer conv5
I1018 01:57:25.800294 13393 net.cpp:434] conv5 <- conv4
I1018 01:57:25.800300 13393 net.cpp:408] conv5 -> conv5
I1018 01:57:25.802240 13393 net.cpp:150] Setting up conv5
I1018 01:57:25.802256 13393 net.cpp:157] Top shape: 64 260 5 5 (416000)
I1018 01:57:25.802259 13393 net.cpp:165] Memory required for data: 97217024
I1018 01:57:25.802271 13393 layer_factory.hpp:77] Creating layer pool3
I1018 01:57:25.802301 13393 net.cpp:100] Creating Layer pool3
I1018 01:57:25.802309 13393 net.cpp:434] pool3 <- conv5
I1018 01:57:25.802316 13393 net.cpp:408] pool3 -> pool3
I1018 01:57:25.802355 13393 net.cpp:150] Setting up pool3
I1018 01:57:25.802361 13393 net.cpp:157] Top shape: 64 260 3 3 (149760)
I1018 01:57:25.802361 13393 net.cpp:165] Memory required for data: 97816064
I1018 01:57:25.802363 13393 layer_factory.hpp:77] Creating layer drop3
I1018 01:57:25.802369 13393 net.cpp:100] Creating Layer drop3
I1018 01:57:25.802372 13393 net.cpp:434] drop3 <- pool3
I1018 01:57:25.802377 13393 net.cpp:408] drop3 -> drop3
I1018 01:57:25.802405 13393 net.cpp:150] Setting up drop3
I1018 01:57:25.802412 13393 net.cpp:157] Top shape: 64 260 3 3 (149760)
I1018 01:57:25.802415 13393 net.cpp:165] Memory required for data: 98415104
I1018 01:57:25.802418 13393 layer_factory.hpp:77] Creating layer elu3
I1018 01:57:25.802428 13393 net.cpp:100] Creating Layer elu3
I1018 01:57:25.802433 13393 net.cpp:434] elu3 <- drop3
I1018 01:57:25.802438 13393 net.cpp:408] elu3 -> elu3
I1018 01:57:25.802458 13393 net.cpp:150] Setting up elu3
I1018 01:57:25.802462 13393 net.cpp:157] Top shape: 64 260 3 3 (149760)
I1018 01:57:25.802465 13393 net.cpp:165] Memory required for data: 99014144
I1018 01:57:25.802467 13393 layer_factory.hpp:77] Creating layer conv6
I1018 01:57:25.802472 13393 net.cpp:100] Creating Layer conv6
I1018 01:57:25.802475 13393 net.cpp:434] conv6 <- elu3
I1018 01:57:25.802479 13393 net.cpp:408] conv6 -> conv6
I1018 01:57:25.803647 13393 net.cpp:150] Setting up conv6
I1018 01:57:25.803656 13393 net.cpp:157] Top shape: 64 260 3 3 (149760)
I1018 01:57:25.803658 13393 net.cpp:165] Memory required for data: 99613184
I1018 01:57:25.803664 13393 layer_factory.hpp:77] Creating layer conv7
I1018 01:57:25.803673 13393 net.cpp:100] Creating Layer conv7
I1018 01:57:25.803678 13393 net.cpp:434] conv7 <- conv6
I1018 01:57:25.803684 13393 net.cpp:408] conv7 -> conv7
I1018 01:57:25.805528 13393 net.cpp:150] Setting up conv7
I1018 01:57:25.805536 13393 net.cpp:157] Top shape: 64 280 2 2 (71680)
I1018 01:57:25.805541 13393 net.cpp:165] Memory required for data: 99899904
I1018 01:57:25.805546 13393 layer_factory.hpp:77] Creating layer pool4
I1018 01:57:25.805553 13393 net.cpp:100] Creating Layer pool4
I1018 01:57:25.805557 13393 net.cpp:434] pool4 <- conv7
I1018 01:57:25.805563 13393 net.cpp:408] pool4 -> pool4
I1018 01:57:25.805594 13393 net.cpp:150] Setting up pool4
I1018 01:57:25.805600 13393 net.cpp:157] Top shape: 64 280 1 1 (17920)
I1018 01:57:25.805614 13393 net.cpp:165] Memory required for data: 99971584
I1018 01:57:25.805619 13393 layer_factory.hpp:77] Creating layer drop4
I1018 01:57:25.805624 13393 net.cpp:100] Creating Layer drop4
I1018 01:57:25.805629 13393 net.cpp:434] drop4 <- pool4
I1018 01:57:25.805634 13393 net.cpp:408] drop4 -> drop4
I1018 01:57:25.805663 13393 net.cpp:150] Setting up drop4
I1018 01:57:25.805676 13393 net.cpp:157] Top shape: 64 280 1 1 (17920)
I1018 01:57:25.805681 13393 net.cpp:165] Memory required for data: 100043264
I1018 01:57:25.805685 13393 layer_factory.hpp:77] Creating layer elu4
I1018 01:57:25.805688 13393 net.cpp:100] Creating Layer elu4
I1018 01:57:25.805692 13393 net.cpp:434] elu4 <- drop4
I1018 01:57:25.805698 13393 net.cpp:408] elu4 -> elu4
I1018 01:57:25.805716 13393 net.cpp:150] Setting up elu4
I1018 01:57:25.805722 13393 net.cpp:157] Top shape: 64 280 1 1 (17920)
I1018 01:57:25.805727 13393 net.cpp:165] Memory required for data: 100114944
I1018 01:57:25.805730 13393 layer_factory.hpp:77] Creating layer conv8
I1018 01:57:25.805735 13393 net.cpp:100] Creating Layer conv8
I1018 01:57:25.805739 13393 net.cpp:434] conv8 <- elu4
I1018 01:57:25.805744 13393 net.cpp:408] conv8 -> conv8
I1018 01:57:25.807087 13393 net.cpp:150] Setting up conv8
I1018 01:57:25.807096 13393 net.cpp:157] Top shape: 64 280 1 1 (17920)
I1018 01:57:25.807098 13393 net.cpp:165] Memory required for data: 100186624
I1018 01:57:25.807103 13393 layer_factory.hpp:77] Creating layer pool5
I1018 01:57:25.807111 13393 net.cpp:100] Creating Layer pool5
I1018 01:57:25.807114 13393 net.cpp:434] pool5 <- conv8
I1018 01:57:25.807121 13393 net.cpp:408] pool5 -> pool5
I1018 01:57:25.807152 13393 net.cpp:150] Setting up pool5
I1018 01:57:25.807157 13393 net.cpp:157] Top shape: 64 280 1 1 (17920)
I1018 01:57:25.807160 13393 net.cpp:165] Memory required for data: 100258304
I1018 01:57:25.807163 13393 layer_factory.hpp:77] Creating layer drop5
I1018 01:57:25.807170 13393 net.cpp:100] Creating Layer drop5
I1018 01:57:25.807174 13393 net.cpp:434] drop5 <- pool5
I1018 01:57:25.807180 13393 net.cpp:408] drop5 -> drop5
I1018 01:57:25.807210 13393 net.cpp:150] Setting up drop5
I1018 01:57:25.807214 13393 net.cpp:157] Top shape: 64 280 1 1 (17920)
I1018 01:57:25.807217 13393 net.cpp:165] Memory required for data: 100329984
I1018 01:57:25.807220 13393 layer_factory.hpp:77] Creating layer elu5
I1018 01:57:25.807225 13393 net.cpp:100] Creating Layer elu5
I1018 01:57:25.807230 13393 net.cpp:434] elu5 <- drop5
I1018 01:57:25.807236 13393 net.cpp:408] elu5 -> elu5
I1018 01:57:25.807256 13393 net.cpp:150] Setting up elu5
I1018 01:57:25.807260 13393 net.cpp:157] Top shape: 64 280 1 1 (17920)
I1018 01:57:25.807262 13393 net.cpp:165] Memory required for data: 100401664
I1018 01:57:25.807266 13393 layer_factory.hpp:77] Creating layer conv10
I1018 01:57:25.807274 13393 net.cpp:100] Creating Layer conv10
I1018 01:57:25.807278 13393 net.cpp:434] conv10 <- elu5
I1018 01:57:25.807283 13393 net.cpp:408] conv10 -> conv10
I1018 01:57:25.808281 13393 net.cpp:150] Setting up conv10
I1018 01:57:25.808290 13393 net.cpp:157] Top shape: 64 300 1 1 (19200)
I1018 01:57:25.808292 13393 net.cpp:165] Memory required for data: 100478464
I1018 01:57:25.808305 13393 layer_factory.hpp:77] Creating layer pool6
I1018 01:57:25.808311 13393 net.cpp:100] Creating Layer pool6
I1018 01:57:25.808316 13393 net.cpp:434] pool6 <- conv10
I1018 01:57:25.808321 13393 net.cpp:408] pool6 -> pool6
I1018 01:57:25.808354 13393 net.cpp:150] Setting up pool6
I1018 01:57:25.808359 13393 net.cpp:157] Top shape: 64 300 1 1 (19200)
I1018 01:57:25.808362 13393 net.cpp:165] Memory required for data: 100555264
I1018 01:57:25.808364 13393 layer_factory.hpp:77] Creating layer drop6
I1018 01:57:25.808370 13393 net.cpp:100] Creating Layer drop6
I1018 01:57:25.808374 13393 net.cpp:434] drop6 <- pool6
I1018 01:57:25.808382 13393 net.cpp:408] drop6 -> drop6
I1018 01:57:25.808413 13393 net.cpp:150] Setting up drop6
I1018 01:57:25.808418 13393 net.cpp:157] Top shape: 64 300 1 1 (19200)
I1018 01:57:25.808421 13393 net.cpp:165] Memory required for data: 100632064
I1018 01:57:25.808436 13393 layer_factory.hpp:77] Creating layer elu6
I1018 01:57:25.808440 13393 net.cpp:100] Creating Layer elu6
I1018 01:57:25.808444 13393 net.cpp:434] elu6 <- drop6
I1018 01:57:25.808450 13393 net.cpp:408] elu6 -> elu6
I1018 01:57:25.808471 13393 net.cpp:150] Setting up elu6
I1018 01:57:25.808475 13393 net.cpp:157] Top shape: 64 300 1 1 (19200)
I1018 01:57:25.808478 13393 net.cpp:165] Memory required for data: 100708864
I1018 01:57:25.808482 13393 layer_factory.hpp:77] Creating layer conv11
I1018 01:57:25.808491 13393 net.cpp:100] Creating Layer conv11
I1018 01:57:25.808495 13393 net.cpp:434] conv11 <- elu6
I1018 01:57:25.808501 13393 net.cpp:408] conv11 -> conv11
I1018 01:57:25.809265 13393 net.cpp:150] Setting up conv11
I1018 01:57:25.809276 13393 net.cpp:157] Top shape: 64 100 1 1 (6400)
I1018 01:57:25.809278 13393 net.cpp:165] Memory required for data: 100734464
I1018 01:57:25.809283 13393 layer_factory.hpp:77] Creating layer pool7
I1018 01:57:25.809290 13393 net.cpp:100] Creating Layer pool7
I1018 01:57:25.809294 13393 net.cpp:434] pool7 <- conv11
I1018 01:57:25.809299 13393 net.cpp:408] pool7 -> pool7
I1018 01:57:25.809334 13393 net.cpp:150] Setting up pool7
I1018 01:57:25.809339 13393 net.cpp:157] Top shape: 64 100 1 1 (6400)
I1018 01:57:25.809340 13393 net.cpp:165] Memory required for data: 100760064
I1018 01:57:25.809343 13393 layer_factory.hpp:77] Creating layer drop7
I1018 01:57:25.809356 13393 net.cpp:100] Creating Layer drop7
I1018 01:57:25.809361 13393 net.cpp:434] drop7 <- pool7
I1018 01:57:25.809365 13393 net.cpp:408] drop7 -> drop7
I1018 01:57:25.809394 13393 net.cpp:150] Setting up drop7
I1018 01:57:25.809399 13393 net.cpp:157] Top shape: 64 100 1 1 (6400)
I1018 01:57:25.809402 13393 net.cpp:165] Memory required for data: 100785664
I1018 01:57:25.809406 13393 layer_factory.hpp:77] Creating layer elu7
I1018 01:57:25.809412 13393 net.cpp:100] Creating Layer elu7
I1018 01:57:25.809415 13393 net.cpp:434] elu7 <- drop7
I1018 01:57:25.809422 13393 net.cpp:408] elu7 -> elu7
I1018 01:57:25.809442 13393 net.cpp:150] Setting up elu7
I1018 01:57:25.809445 13393 net.cpp:157] Top shape: 64 100 1 1 (6400)
I1018 01:57:25.809448 13393 net.cpp:165] Memory required for data: 100811264
I1018 01:57:25.809451 13393 layer_factory.hpp:77] Creating layer pool
I1018 01:57:25.809456 13393 net.cpp:100] Creating Layer pool
I1018 01:57:25.809460 13393 net.cpp:434] pool <- elu7
I1018 01:57:25.809468 13393 net.cpp:408] pool -> pool
I1018 01:57:25.809711 13393 net.cpp:150] Setting up pool
I1018 01:57:25.809720 13393 net.cpp:157] Top shape: 64 100 1 1 (6400)
I1018 01:57:25.809721 13393 net.cpp:165] Memory required for data: 100836864
I1018 01:57:25.809725 13393 layer_factory.hpp:77] Creating layer flatten
I1018 01:57:25.809733 13393 net.cpp:100] Creating Layer flatten
I1018 01:57:25.809737 13393 net.cpp:434] flatten <- pool
I1018 01:57:25.809743 13393 net.cpp:408] flatten -> flatten
I1018 01:57:25.809768 13393 net.cpp:150] Setting up flatten
I1018 01:57:25.809773 13393 net.cpp:157] Top shape: 64 100 (6400)
I1018 01:57:25.809774 13393 net.cpp:165] Memory required for data: 100862464
I1018 01:57:25.809777 13393 layer_factory.hpp:77] Creating layer flatten_flatten_0_split
I1018 01:57:25.809782 13393 net.cpp:100] Creating Layer flatten_flatten_0_split
I1018 01:57:25.809787 13393 net.cpp:434] flatten_flatten_0_split <- flatten
I1018 01:57:25.809794 13393 net.cpp:408] flatten_flatten_0_split -> flatten_flatten_0_split_0
I1018 01:57:25.809803 13393 net.cpp:408] flatten_flatten_0_split -> flatten_flatten_0_split_1
I1018 01:57:25.809835 13393 net.cpp:150] Setting up flatten_flatten_0_split
I1018 01:57:25.809840 13393 net.cpp:157] Top shape: 64 100 (6400)
I1018 01:57:25.809844 13393 net.cpp:157] Top shape: 64 100 (6400)
I1018 01:57:25.809845 13393 net.cpp:165] Memory required for data: 100913664
I1018 01:57:25.809849 13393 layer_factory.hpp:77] Creating layer ip_c
I1018 01:57:25.809857 13393 net.cpp:100] Creating Layer ip_c
I1018 01:57:25.809861 13393 net.cpp:434] ip_c <- flatten_flatten_0_split_0
I1018 01:57:25.809883 13393 net.cpp:408] ip_c -> ip_c
I1018 01:57:25.810339 13393 net.cpp:150] Setting up ip_c
I1018 01:57:25.810348 13393 net.cpp:157] Top shape: 64 20 (1280)
I1018 01:57:25.810349 13393 net.cpp:165] Memory required for data: 100918784
I1018 01:57:25.810355 13393 layer_factory.hpp:77] Creating layer ip_c_ip_c_0_split
I1018 01:57:25.810361 13393 net.cpp:100] Creating Layer ip_c_ip_c_0_split
I1018 01:57:25.810366 13393 net.cpp:434] ip_c_ip_c_0_split <- ip_c
I1018 01:57:25.810372 13393 net.cpp:408] ip_c_ip_c_0_split -> ip_c_ip_c_0_split_0
I1018 01:57:25.810380 13393 net.cpp:408] ip_c_ip_c_0_split -> ip_c_ip_c_0_split_1
I1018 01:57:25.810412 13393 net.cpp:150] Setting up ip_c_ip_c_0_split
I1018 01:57:25.810417 13393 net.cpp:157] Top shape: 64 20 (1280)
I1018 01:57:25.810420 13393 net.cpp:157] Top shape: 64 20 (1280)
I1018 01:57:25.810423 13393 net.cpp:165] Memory required for data: 100929024
I1018 01:57:25.810426 13393 layer_factory.hpp:77] Creating layer accuracy_f
I1018 01:57:25.810432 13393 net.cpp:100] Creating Layer accuracy_f
I1018 01:57:25.810436 13393 net.cpp:434] accuracy_f <- ip_c_ip_c_0_split_0
I1018 01:57:25.810442 13393 net.cpp:434] accuracy_f <- label_coarse_data_1_split_0
I1018 01:57:25.810448 13393 net.cpp:408] accuracy_f -> accuracy_f
…
I1018 01:57:25.811554 13393 net.cpp:283] Network initialization done.
I1018 01:57:25.811897 13393 solver.cpp:181] Creating test net (#0) specified by test_net file: /home/adam/Honours/Honours-Project/cifar-100_pooling/max/elu/poolcnn_elu_test.prototxt
I1018 01:57:25.812034 13393 net.cpp:58] Initializing net from parameters: 
state {
  phase: TEST
}
layer {
  name: "data"
  type: "HDF5Data"
  top: "data"
  top: "label_coarse"
  top: "label_fine"
  hdf5_data_param {
    source: "../../../../data/cifar-100/cifar_100_caffe_hdf5/test.txt"
    batch_size: 100
  }
}
layer {
  name: "conv1"
  type: "Convolution"
  bottom: "data"
  top: "conv1"
  convolution_param {
    num_output: 192
    kernel_size: 5
    weight_filler {
      type: "xavier"
    }
  }
}
layer {
  name: "pool1"
  type: "Pooling"
  bottom: "conv1"
  top: "pool1"
  pooling_param {
    pool: MAX
    kernel_size: 2
    stride: 2
  }
}
layer {
  name: "drop1"
  type: "Dropout"
  bottom: "pool1"
  top: "drop1"
  dropout_param {
    dropout_ratio: 0
  }
}
layer {
  name: "elu1"
  type: "ELU"
  bottom: "drop1"
  top: "elu1"
}
layer {
  name: "conv2"
  type: "Convolution"
  bottom: "elu1"
  top: "conv2"
  convolution_param {
    num_output: 192
    kernel_size: 1
    weight_filler {
      type: "xavier"
    }
  }
}
layer {
  name: "conv3"
  type: "Convolution"
  bottom: "conv2"
  top: "conv3"
  convolution_param {
    num_output: 240
    kernel_size: 3
    weight_filler {
      type: "xavier"
    }
  }
}
layer {
  name: "pool2"
  type: "Pooling"
  bottom: "conv3"
  top: "pool2"
  pooling_param {
    pool: MAX
    kernel_size: 2
    stride: 2
  }
}
layer {
  name: "drop2"
  type: "Dropout"
  bottom: "pool2"
  top: "drop2"
  dropout_param {
    dropout_ratio: 0.1
  }
}
layer {
  name: "elu2"
  type: "ELU"
  bottom: "drop2"
  top: "elu2"
}
layer {
  name: "conv4"
  type: "Convolution"
  bottom: "elu2"
  top: "conv4"
  convolution_param {
    num_output: 240
    kernel_size: 1
    weight_filler {
      type: "xavier"
    }
  }
}
layer {
  name: "conv5"
  type: "Convolution"
  bottom: "conv4"
  top: "conv5"
  convolution_param {
    num_output: 260
    kernel_size: 2
    weight_filler {
      type: "xavier"
    }
  }
}
layer {
  name: "pool3"
  type: "Pooling"
  bottom: "conv5"
  top: "pool3"
  pooling_param {
    pool: MAX
    kernel_size: 2
    stride: 2
  }
}
layer {
  name: "drop3"
  type: "Dropout"
  bottom: "pool3"
  top: "drop3"
  dropout_param {
    dropout_ratio: 0.2
  }
}
layer {
  name: "elu3"
  type: "ELU"
  bottom: "drop3"
  top: "elu3"
}
layer {
  name: "conv6"
  type: "Convolution"
  bottom: "elu3"
  top: "conv6"
  convolution_param {
    num_output: 260
    kernel_size: 1
    weight_filler {
      type: "xavier"
    }
  }
}
layer {
  name: "conv7"
  type: "Convolution"
  bottom: "conv6"
  top: "conv7"
  convolution_param {
    num_output: 280
    kernel_size: 2
    weight_filler {
      type: "xavier"
    }
  }
}
layer {
  name: "pool4"
  type: "Pooling"
  bottom: "conv7"
  top: "pool4"
  pooling_param {
    pool: MAX
    kernel_size: 2
    stride: 2
  }
}
layer {
  name: "drop4"
  type: "Dropout"
  bottom: "pool4"
  top: "drop4"
  dropout_param {
    dropout_ratio: 0.3
  }
}
layer {
  name: "elu4"
  type: "ELU"
  bottom: "drop4"
  top: "elu4"
}
layer {
  name: "conv8"
  type: "Convolution"
  bottom: "elu4"
  top: "conv8"
  convolution_param {
    num_output: 280
    kernel_size: 1
    weight_filler {
      type: "xavier"
    }
  }
}
layer {
  name: "pool5"
  type: "Pooling"
  bottom: "conv8"
  top: "pool5"
  pooling_param {
    pool: MAX
    kernel_size: 2
    stride: 2
  }
}
layer {
  name: "drop5"
  type: "Dropout"
  bottom: "pool5"
  top: "drop5"
  dropout_param {
    dropout_ratio: 0.4
  }
}
layer {
  name: "elu5"
  type: "ELU"
  bottom: "drop5"
  top: "elu5"
}
layer {
  name: "conv10"
  type: "Convolution"
  bottom: "elu5"
  top: "conv10"
  convolution_param {
    num_output: 300
    kernel_size: 1
    weight_filler {
      type: "xavier"
    }
  }
}
layer {
  name: "pool6"
  type: "Pooling"
  bottom: "conv10"
  top: "pool6"
  pooling_param {
    pool: MAX
    kernel_size: 2
    stride: 2
  }
}
layer {
  name: "drop6"
  type: "Dropout"
  bottom: "pool6"
  top: "drop6"
  dropout_param {
    dropout_ratio: 0.5
  }
}
layer {
  name: "elu6"
  type: "ELU"
  bottom: "drop6"
  top: "elu6"
}
layer {
  name: "conv11"
  type: "Convolution"
  bottom: "elu6"
  top: "conv11"
  convolution_param {
    num_output: 100
    kernel_size: 1
    weight_filler {
      type: "xavier"
    }
  }
}
layer {
  name: "pool7"
  type: "Pooling"
  bottom: "conv11"
  top: "pool7"
  pooling_param {
    pool: MAX
    kernel_size: 2
    stride: 2
  }
}
layer {
  name: "drop7"
  type: "Dropout"
  bottom: "pool7"
  top: "drop7"
  dropout_param {
    dropout_ratio: 0
  }
}
layer {
  name: "elu7"
  type: "ELU"
  bottom: "drop7"
  top: "elu7"
}
layer {
  name: "pool"
  type: "Pooling"
  bottom: "elu7"
  top: "pool"
  pooling_param {
    pool: AVE
    global_pooling: true
  }
}
layer {
  name: "flatten"
  type: "Flatten"
  bottom: "pool"
  top: "flatten"
}
layer {
  name: "ip_c"
  type: "InnerProduct"
  bottom: "flatten"
  top: "ip_c"
  inner_product_param {
    num_output: 20
    weight_filler {
      type: "xavier"
    }
  }
}
layer {
  name: "accuracy_f"
  type: "Accuracy"
  bottom: "ip_c"
  bottom: "label_coarse"
  top: "accuracy_f"
}
layer {
  name: "loss_c"
  type: "SoftmaxWithLoss"
  bottom: "ip_c"
  bottom: "label_coarse"
  top: "loss_c"
}
layer {
  name: "ip_f"
  type: "InnerProduct"
  bottom: "flatten"
  top: "ip_f"
  inner_product_param {
    num_output: 100
    weight_filler {
      type: "xavier"
    }
  }
}
layer {
  name: "accuracy"
  type: "Accuracy"
  bottom: "ip_f"
  bottom: "label_fine"
  top: "accuracy"
}
layer {
  name: "loss_f"
  type: "SoftmaxWithLoss"
  bottom: "ip_f"
  bottom: "label_fine"
  top: "loss_f"
}
I1018 01:57:25.812150 13393 layer_factory.hpp:77] Creating layer data
I1018 01:57:25.812158 13393 net.cpp:100] Creating Layer data
I1018 01:57:25.812162 13393 net.cpp:408] data -> data
I1018 01:57:25.812168 13393 net.cpp:408] data -> label_coarse
I1018 01:57:25.812173 13393 net.cpp:408] data -> label_fine
I1018 01:57:25.812178 13393 hdf5_data_layer.cpp:79] Loading list of HDF5 filenames from: ../../../../data/cifar-100/cifar_100_caffe_hdf5/test.txt
I1018 01:57:25.812201 13393 hdf5_data_layer.cpp:93] Number of HDF5 files: 1
I1018 01:57:26.077620 13393 net.cpp:150] Setting up data
I1018 01:57:26.077643 13393 net.cpp:157] Top shape: 100 3 32 32 (307200)
I1018 01:57:26.077646 13393 net.cpp:157] Top shape: 100 (100)
I1018 01:57:26.077648 13393 net.cpp:157] Top shape: 100 (100)
I1018 01:57:26.077651 13393 net.cpp:165] Memory required for data: 1229600
I1018 01:57:26.077656 13393 layer_factory.hpp:77] Creating layer label_coarse_data_1_split
I1018 01:57:26.077664 13393 net.cpp:100] Creating Layer label_coarse_data_1_split
I1018 01:57:26.077673 13393 net.cpp:434] label_coarse_data_1_split <- label_coarse
I1018 01:57:26.077678 13393 net.cpp:408] label_coarse_data_1_split -> label_coarse_data_1_split_0
I1018 01:57:26.077685 13393 net.cpp:408] label_coarse_data_1_split -> label_coarse_data_1_split_1
I1018 01:57:26.077714 13393 net.cpp:150] Setting up label_coarse_data_1_split
I1018 01:57:26.077720 13393 net.cpp:157] Top shape: 100 (100)
I1018 01:57:26.077723 13393 net.cpp:157] Top shape: 100 (100)
I1018 01:57:26.077725 13393 net.cpp:165] Memory required for data: 1230400
I1018 01:57:26.077728 13393 layer_factory.hpp:77] Creating layer label_fine_data_2_split
I1018 01:57:26.077733 13393 net.cpp:100] Creating Layer label_fine_data_2_split
I1018 01:57:26.077736 13393 net.cpp:434] label_fine_data_2_split <- label_fine
I1018 01:57:26.077740 13393 net.cpp:408] label_fine_data_2_split -> label_fine_data_2_split_0
I1018 01:57:26.077746 13393 net.cpp:408] label_fine_data_2_split -> label_fine_data_2_split_1
I1018 01:57:26.077776 13393 net.cpp:150] Setting up label_fine_data_2_split
I1018 01:57:26.077781 13393 net.cpp:157] Top shape: 100 (100)
I1018 01:57:26.077783 13393 net.cpp:157] Top shape: 100 (100)
I1018 01:57:26.077796 13393 net.cpp:165] Memory required for data: 1231200
I1018 01:57:26.077800 13393 layer_factory.hpp:77] Creating layer conv1
I1018 01:57:26.077806 13393 net.cpp:100] Creating Layer conv1
I1018 01:57:26.077807 13393 net.cpp:434] conv1 <- data
I1018 01:57:26.077811 13393 net.cpp:408] conv1 -> conv1
I1018 01:57:26.078656 13393 net.cpp:150] Setting up conv1
I1018 01:57:26.078665 13393 net.cpp:157] Top shape: 100 192 28 28 (15052800)
I1018 01:57:26.078667 13393 net.cpp:165] Memory required for data: 61442400
I1018 01:57:26.078673 13393 layer_factory.hpp:77] Creating layer pool1
I1018 01:57:26.078680 13393 net.cpp:100] Creating Layer pool1
I1018 01:57:26.078681 13393 net.cpp:434] pool1 <- conv1
I1018 01:57:26.078685 13393 net.cpp:408] pool1 -> pool1
I1018 01:57:26.078716 13393 net.cpp:150] Setting up pool1
I1018 01:57:26.078723 13393 net.cpp:157] Top shape: 100 192 14 14 (3763200)
I1018 01:57:26.078724 13393 net.cpp:165] Memory required for data: 76495200
I1018 01:57:26.078727 13393 layer_factory.hpp:77] Creating layer drop1
I1018 01:57:26.078730 13393 net.cpp:100] Creating Layer drop1
I1018 01:57:26.078732 13393 net.cpp:434] drop1 <- pool1
I1018 01:57:26.078735 13393 net.cpp:408] drop1 -> drop1
I1018 01:57:26.078759 13393 net.cpp:150] Setting up drop1
I1018 01:57:26.078763 13393 net.cpp:157] Top shape: 100 192 14 14 (3763200)
I1018 01:57:26.078766 13393 net.cpp:165] Memory required for data: 91548000
I1018 01:57:26.078770 13393 layer_factory.hpp:77] Creating layer elu1
I1018 01:57:26.078776 13393 net.cpp:100] Creating Layer elu1
I1018 01:57:26.078780 13393 net.cpp:434] elu1 <- drop1
I1018 01:57:26.078785 13393 net.cpp:408] elu1 -> elu1
I1018 01:57:26.078805 13393 net.cpp:150] Setting up elu1
I1018 01:57:26.078809 13393 net.cpp:157] Top shape: 100 192 14 14 (3763200)
I1018 01:57:26.078811 13393 net.cpp:165] Memory required for data: 106600800
I1018 01:57:26.078814 13393 layer_factory.hpp:77] Creating layer conv2
I1018 01:57:26.078817 13393 net.cpp:100] Creating Layer conv2
I1018 01:57:26.078819 13393 net.cpp:434] conv2 <- elu1
I1018 01:57:26.078822 13393 net.cpp:408] conv2 -> conv2
I1018 01:57:26.079609 13393 net.cpp:150] Setting up conv2
I1018 01:57:26.079617 13393 net.cpp:157] Top shape: 100 192 14 14 (3763200)
I1018 01:57:26.079619 13393 net.cpp:165] Memory required for data: 121653600
I1018 01:57:26.079624 13393 layer_factory.hpp:77] Creating layer conv3
I1018 01:57:26.079630 13393 net.cpp:100] Creating Layer conv3
I1018 01:57:26.079632 13393 net.cpp:434] conv3 <- conv2
I1018 01:57:26.079637 13393 net.cpp:408] conv3 -> conv3
I1018 01:57:26.082204 13393 net.cpp:150] Setting up conv3
I1018 01:57:26.082221 13393 net.cpp:157] Top shape: 100 240 12 12 (3456000)
I1018 01:57:26.082222 13393 net.cpp:165] Memory required for data: 135477600
I1018 01:57:26.082231 13393 layer_factory.hpp:77] Creating layer pool2
I1018 01:57:26.082236 13393 net.cpp:100] Creating Layer pool2
I1018 01:57:26.082238 13393 net.cpp:434] pool2 <- conv3
I1018 01:57:26.082242 13393 net.cpp:408] pool2 -> pool2
I1018 01:57:26.082270 13393 net.cpp:150] Setting up pool2
I1018 01:57:26.082274 13393 net.cpp:157] Top shape: 100 240 6 6 (864000)
I1018 01:57:26.082276 13393 net.cpp:165] Memory required for data: 138933600
I1018 01:57:26.082278 13393 layer_factory.hpp:77] Creating layer drop2
I1018 01:57:26.082283 13393 net.cpp:100] Creating Layer drop2
I1018 01:57:26.082284 13393 net.cpp:434] drop2 <- pool2
I1018 01:57:26.082289 13393 net.cpp:408] drop2 -> drop2
I1018 01:57:26.082319 13393 net.cpp:150] Setting up drop2
I1018 01:57:26.082322 13393 net.cpp:157] Top shape: 100 240 6 6 (864000)
I1018 01:57:26.082324 13393 net.cpp:165] Memory required for data: 142389600
I1018 01:57:26.082326 13393 layer_factory.hpp:77] Creating layer elu2
I1018 01:57:26.082329 13393 net.cpp:100] Creating Layer elu2
I1018 01:57:26.082331 13393 net.cpp:434] elu2 <- drop2
I1018 01:57:26.082334 13393 net.cpp:408] elu2 -> elu2
I1018 01:57:26.082350 13393 net.cpp:150] Setting up elu2
I1018 01:57:26.082355 13393 net.cpp:157] Top shape: 100 240 6 6 (864000)
I1018 01:57:26.082370 13393 net.cpp:165] Memory required for data: 145845600
I1018 01:57:26.082373 13393 layer_factory.hpp:77] Creating layer conv4
I1018 01:57:26.082379 13393 net.cpp:100] Creating Layer conv4
I1018 01:57:26.082381 13393 net.cpp:434] conv4 <- elu2
I1018 01:57:26.082386 13393 net.cpp:408] conv4 -> conv4
I1018 01:57:26.083508 13393 net.cpp:150] Setting up conv4
I1018 01:57:26.083518 13393 net.cpp:157] Top shape: 100 240 6 6 (864000)
I1018 01:57:26.083520 13393 net.cpp:165] Memory required for data: 149301600
I1018 01:57:26.083525 13393 layer_factory.hpp:77] Creating layer conv5
I1018 01:57:26.083530 13393 net.cpp:100] Creating Layer conv5
I1018 01:57:26.083534 13393 net.cpp:434] conv5 <- conv4
I1018 01:57:26.083537 13393 net.cpp:408] conv5 -> conv5
I1018 01:57:26.085312 13393 net.cpp:150] Setting up conv5
I1018 01:57:26.085321 13393 net.cpp:157] Top shape: 100 260 5 5 (650000)
I1018 01:57:26.085325 13393 net.cpp:165] Memory required for data: 151901600
I1018 01:57:26.085331 13393 layer_factory.hpp:77] Creating layer pool3
I1018 01:57:26.085335 13393 net.cpp:100] Creating Layer pool3
I1018 01:57:26.085338 13393 net.cpp:434] pool3 <- conv5
I1018 01:57:26.085342 13393 net.cpp:408] pool3 -> pool3
I1018 01:57:26.085379 13393 net.cpp:150] Setting up pool3
I1018 01:57:26.085384 13393 net.cpp:157] Top shape: 100 260 3 3 (234000)
I1018 01:57:26.085386 13393 net.cpp:165] Memory required for data: 152837600
I1018 01:57:26.085389 13393 layer_factory.hpp:77] Creating layer drop3
I1018 01:57:26.085393 13393 net.cpp:100] Creating Layer drop3
I1018 01:57:26.085396 13393 net.cpp:434] drop3 <- pool3
I1018 01:57:26.085398 13393 net.cpp:408] drop3 -> drop3
I1018 01:57:26.085423 13393 net.cpp:150] Setting up drop3
I1018 01:57:26.085430 13393 net.cpp:157] Top shape: 100 260 3 3 (234000)
I1018 01:57:26.085433 13393 net.cpp:165] Memory required for data: 153773600
I1018 01:57:26.085436 13393 layer_factory.hpp:77] Creating layer elu3
I1018 01:57:26.085443 13393 net.cpp:100] Creating Layer elu3
I1018 01:57:26.085445 13393 net.cpp:434] elu3 <- drop3
I1018 01:57:26.085448 13393 net.cpp:408] elu3 -> elu3
I1018 01:57:26.085464 13393 net.cpp:150] Setting up elu3
I1018 01:57:26.085469 13393 net.cpp:157] Top shape: 100 260 3 3 (234000)
I1018 01:57:26.085471 13393 net.cpp:165] Memory required for data: 154709600
I1018 01:57:26.085475 13393 layer_factory.hpp:77] Creating layer conv6
I1018 01:57:26.085482 13393 net.cpp:100] Creating Layer conv6
I1018 01:57:26.085487 13393 net.cpp:434] conv6 <- elu3
I1018 01:57:26.085494 13393 net.cpp:408] conv6 -> conv6
I1018 01:57:26.086630 13393 net.cpp:150] Setting up conv6
I1018 01:57:26.086638 13393 net.cpp:157] Top shape: 100 260 3 3 (234000)
I1018 01:57:26.086642 13393 net.cpp:165] Memory required for data: 155645600
I1018 01:57:26.086649 13393 layer_factory.hpp:77] Creating layer conv7
I1018 01:57:26.086657 13393 net.cpp:100] Creating Layer conv7
I1018 01:57:26.086661 13393 net.cpp:434] conv7 <- conv6
I1018 01:57:26.086668 13393 net.cpp:408] conv7 -> conv7
I1018 01:57:26.088611 13393 net.cpp:150] Setting up conv7
I1018 01:57:26.088619 13393 net.cpp:157] Top shape: 100 280 2 2 (112000)
I1018 01:57:26.088621 13393 net.cpp:165] Memory required for data: 156093600
I1018 01:57:26.088626 13393 layer_factory.hpp:77] Creating layer pool4
I1018 01:57:26.088629 13393 net.cpp:100] Creating Layer pool4
I1018 01:57:26.088631 13393 net.cpp:434] pool4 <- conv7
I1018 01:57:26.088635 13393 net.cpp:408] pool4 -> pool4
I1018 01:57:26.088665 13393 net.cpp:150] Setting up pool4
I1018 01:57:26.088670 13393 net.cpp:157] Top shape: 100 280 1 1 (28000)
I1018 01:57:26.088672 13393 net.cpp:165] Memory required for data: 156205600
I1018 01:57:26.088675 13393 layer_factory.hpp:77] Creating layer drop4
I1018 01:57:26.088680 13393 net.cpp:100] Creating Layer drop4
I1018 01:57:26.088682 13393 net.cpp:434] drop4 <- pool4
I1018 01:57:26.088686 13393 net.cpp:408] drop4 -> drop4
I1018 01:57:26.088716 13393 net.cpp:150] Setting up drop4
I1018 01:57:26.088721 13393 net.cpp:157] Top shape: 100 280 1 1 (28000)
I1018 01:57:26.088724 13393 net.cpp:165] Memory required for data: 156317600
I1018 01:57:26.088737 13393 layer_factory.hpp:77] Creating layer elu4
I1018 01:57:26.088742 13393 net.cpp:100] Creating Layer elu4
I1018 01:57:26.088747 13393 net.cpp:434] elu4 <- drop4
I1018 01:57:26.088753 13393 net.cpp:408] elu4 -> elu4
I1018 01:57:26.088773 13393 net.cpp:150] Setting up elu4
I1018 01:57:26.088778 13393 net.cpp:157] Top shape: 100 280 1 1 (28000)
I1018 01:57:26.088783 13393 net.cpp:165] Memory required for data: 156429600
I1018 01:57:26.088784 13393 layer_factory.hpp:77] Creating layer conv8
I1018 01:57:26.088791 13393 net.cpp:100] Creating Layer conv8
I1018 01:57:26.088795 13393 net.cpp:434] conv8 <- elu4
I1018 01:57:26.088802 13393 net.cpp:408] conv8 -> conv8
I1018 01:57:26.090216 13393 net.cpp:150] Setting up conv8
I1018 01:57:26.090227 13393 net.cpp:157] Top shape: 100 280 1 1 (28000)
I1018 01:57:26.090232 13393 net.cpp:165] Memory required for data: 156541600
I1018 01:57:26.090240 13393 layer_factory.hpp:77] Creating layer pool5
I1018 01:57:26.090247 13393 net.cpp:100] Creating Layer pool5
I1018 01:57:26.090251 13393 net.cpp:434] pool5 <- conv8
I1018 01:57:26.090257 13393 net.cpp:408] pool5 -> pool5
I1018 01:57:26.090291 13393 net.cpp:150] Setting up pool5
I1018 01:57:26.090297 13393 net.cpp:157] Top shape: 100 280 1 1 (28000)
I1018 01:57:26.090301 13393 net.cpp:165] Memory required for data: 156653600
I1018 01:57:26.090303 13393 layer_factory.hpp:77] Creating layer drop5
I1018 01:57:26.090309 13393 net.cpp:100] Creating Layer drop5
I1018 01:57:26.090313 13393 net.cpp:434] drop5 <- pool5
I1018 01:57:26.090319 13393 net.cpp:408] drop5 -> drop5
I1018 01:57:26.090349 13393 net.cpp:150] Setting up drop5
I1018 01:57:26.090353 13393 net.cpp:157] Top shape: 100 280 1 1 (28000)
I1018 01:57:26.090358 13393 net.cpp:165] Memory required for data: 156765600
I1018 01:57:26.090360 13393 layer_factory.hpp:77] Creating layer elu5
I1018 01:57:26.090366 13393 net.cpp:100] Creating Layer elu5
I1018 01:57:26.090370 13393 net.cpp:434] elu5 <- drop5
I1018 01:57:26.090376 13393 net.cpp:408] elu5 -> elu5
I1018 01:57:26.090397 13393 net.cpp:150] Setting up elu5
I1018 01:57:26.090401 13393 net.cpp:157] Top shape: 100 280 1 1 (28000)
I1018 01:57:26.090404 13393 net.cpp:165] Memory required for data: 156877600
I1018 01:57:26.090407 13393 layer_factory.hpp:77] Creating layer conv10
I1018 01:57:26.090415 13393 net.cpp:100] Creating Layer conv10
I1018 01:57:26.090418 13393 net.cpp:434] conv10 <- elu5
I1018 01:57:26.090425 13393 net.cpp:408] conv10 -> conv10
I1018 01:57:26.091399 13393 net.cpp:150] Setting up conv10
I1018 01:57:26.091408 13393 net.cpp:157] Top shape: 100 300 1 1 (30000)
I1018 01:57:26.091409 13393 net.cpp:165] Memory required for data: 156997600
I1018 01:57:26.091419 13393 layer_factory.hpp:77] Creating layer pool6
I1018 01:57:26.091426 13393 net.cpp:100] Creating Layer pool6
I1018 01:57:26.091431 13393 net.cpp:434] pool6 <- conv10
I1018 01:57:26.091437 13393 net.cpp:408] pool6 -> pool6
I1018 01:57:26.091470 13393 net.cpp:150] Setting up pool6
I1018 01:57:26.091475 13393 net.cpp:157] Top shape: 100 300 1 1 (30000)
I1018 01:57:26.091477 13393 net.cpp:165] Memory required for data: 157117600
I1018 01:57:26.091480 13393 layer_factory.hpp:77] Creating layer drop6
I1018 01:57:26.091485 13393 net.cpp:100] Creating Layer drop6
I1018 01:57:26.091490 13393 net.cpp:434] drop6 <- pool6
I1018 01:57:26.091496 13393 net.cpp:408] drop6 -> drop6
I1018 01:57:26.091528 13393 net.cpp:150] Setting up drop6
I1018 01:57:26.091533 13393 net.cpp:157] Top shape: 100 300 1 1 (30000)
I1018 01:57:26.091536 13393 net.cpp:165] Memory required for data: 157237600
I1018 01:57:26.091539 13393 layer_factory.hpp:77] Creating layer elu6
I1018 01:57:26.091544 13393 net.cpp:100] Creating Layer elu6
I1018 01:57:26.091548 13393 net.cpp:434] elu6 <- drop6
I1018 01:57:26.091554 13393 net.cpp:408] elu6 -> elu6
I1018 01:57:26.091574 13393 net.cpp:150] Setting up elu6
I1018 01:57:26.091578 13393 net.cpp:157] Top shape: 100 300 1 1 (30000)
I1018 01:57:26.091580 13393 net.cpp:165] Memory required for data: 157357600
I1018 01:57:26.091594 13393 layer_factory.hpp:77] Creating layer conv11
I1018 01:57:26.091601 13393 net.cpp:100] Creating Layer conv11
I1018 01:57:26.091605 13393 net.cpp:434] conv11 <- elu6
I1018 01:57:26.091611 13393 net.cpp:408] conv11 -> conv11
I1018 01:57:26.092384 13393 net.cpp:150] Setting up conv11
I1018 01:57:26.092392 13393 net.cpp:157] Top shape: 100 100 1 1 (10000)
I1018 01:57:26.092394 13393 net.cpp:165] Memory required for data: 157397600
I1018 01:57:26.092399 13393 layer_factory.hpp:77] Creating layer pool7
I1018 01:57:26.092406 13393 net.cpp:100] Creating Layer pool7
I1018 01:57:26.092411 13393 net.cpp:434] pool7 <- conv11
I1018 01:57:26.092417 13393 net.cpp:408] pool7 -> pool7
I1018 01:57:26.092449 13393 net.cpp:150] Setting up pool7
I1018 01:57:26.092454 13393 net.cpp:157] Top shape: 100 100 1 1 (10000)
I1018 01:57:26.092456 13393 net.cpp:165] Memory required for data: 157437600
I1018 01:57:26.092460 13393 layer_factory.hpp:77] Creating layer drop7
I1018 01:57:26.092469 13393 net.cpp:100] Creating Layer drop7
I1018 01:57:26.092474 13393 net.cpp:434] drop7 <- pool7
I1018 01:57:26.092479 13393 net.cpp:408] drop7 -> drop7
I1018 01:57:26.092509 13393 net.cpp:150] Setting up drop7
I1018 01:57:26.092514 13393 net.cpp:157] Top shape: 100 100 1 1 (10000)
I1018 01:57:26.092517 13393 net.cpp:165] Memory required for data: 157477600
I1018 01:57:26.092520 13393 layer_factory.hpp:77] Creating layer elu7
I1018 01:57:26.092525 13393 net.cpp:100] Creating Layer elu7
I1018 01:57:26.092530 13393 net.cpp:434] elu7 <- drop7
I1018 01:57:26.092535 13393 net.cpp:408] elu7 -> elu7
I1018 01:57:26.092555 13393 net.cpp:150] Setting up elu7
I1018 01:57:26.092559 13393 net.cpp:157] Top shape: 100 100 1 1 (10000)
I1018 01:57:26.092561 13393 net.cpp:165] Memory required for data: 157517600
I1018 01:57:26.092564 13393 layer_factory.hpp:77] Creating layer pool
I1018 01:57:26.092571 13393 net.cpp:100] Creating Layer pool
I1018 01:57:26.092574 13393 net.cpp:434] pool <- elu7
I1018 01:57:26.092579 13393 net.cpp:408] pool -> pool
I1018 01:57:26.092792 13393 net.cpp:150] Setting up pool
I1018 01:57:26.092799 13393 net.cpp:157] Top shape: 100 100 1 1 (10000)
I1018 01:57:26.092803 13393 net.cpp:165] Memory required for data: 157557600
I1018 01:57:26.092805 13393 layer_factory.hpp:77] Creating layer flatten
I1018 01:57:26.092813 13393 net.cpp:100] Creating Layer flatten
I1018 01:57:26.092816 13393 net.cpp:434] flatten <- pool
I1018 01:57:26.092823 13393 net.cpp:408] flatten -> flatten
I1018 01:57:26.092844 13393 net.cpp:150] Setting up flatten
I1018 01:57:26.092849 13393 net.cpp:157] Top shape: 100 100 (10000)
I1018 01:57:26.092851 13393 net.cpp:165] Memory required for data: 157597600
I1018 01:57:26.092854 13393 layer_factory.hpp:77] Creating layer flatten_flatten_0_split
I1018 01:57:26.092859 13393 net.cpp:100] Creating Layer flatten_flatten_0_split
I1018 01:57:26.092864 13393 net.cpp:434] flatten_flatten_0_split <- flatten
I1018 01:57:26.092869 13393 net.cpp:408] flatten_flatten_0_split -> flatten_flatten_0_split_0
I1018 01:57:26.092876 13393 net.cpp:408] flatten_flatten_0_split -> flatten_flatten_0_split_1
I1018 01:57:26.092907 13393 net.cpp:150] Setting up flatten_flatten_0_split
I1018 01:57:26.092911 13393 net.cpp:157] Top shape: 100 100 (10000)
I1018 01:57:26.092914 13393 net.cpp:157] Top shape: 100 100 (10000)
I1018 01:57:26.092917 13393 net.cpp:165] Memory required for data: 157677600
I1018 01:57:26.092921 13393 layer_factory.hpp:77] Creating layer ip_c
I1018 01:57:26.092927 13393 net.cpp:100] Creating Layer ip_c
I1018 01:57:26.092932 13393 net.cpp:434] ip_c <- flatten_flatten_0_split_0
I1018 01:57:26.092937 13393 net.cpp:408] ip_c -> ip_c
I1018 01:57:26.093024 13393 net.cpp:150] Setting up ip_c
I1018 01:57:26.093029 13393 net.cpp:157] Top shape: 100 20 (2000)
I1018 01:57:26.093029 13393 net.cpp:165] Memory required for data: 157685600
I1018 01:57:26.093034 13393 layer_factory.hpp:77] Creating layer ip_c_ip_c_0_split
I1018 01:57:26.093040 13393 net.cpp:100] Creating Layer ip_c_ip_c_0_split
I1018 01:57:26.093045 13393 net.cpp:434] ip_c_ip_c_0_split <- ip_c
I1018 01:57:26.093058 13393 net.cpp:408] ip_c_ip_c_0_split -> ip_c_ip_c_0_split_0
I1018 01:57:26.093066 13393 net.cpp:408] ip_c_ip_c_0_split -> ip_c_ip_c_0_split_1
I1018 01:57:26.093096 13393 net.cpp:150] Setting up ip_c_ip_c_0_split
I1018 01:57:26.093101 13393 net.cpp:157] Top shape: 100 20 (2000)
I1018 01:57:26.093104 13393 net.cpp:157] Top shape: 100 20 (2000)
I1018 01:57:26.093107 13393 net.cpp:165] Memory required for data: 157701600
I1018 01:57:26.093111 13393 layer_factory.hpp:77] Creating layer accuracy_f
I1018 01:57:26.093116 13393 net.cpp:100] Creating Layer accuracy_f
I1018 01:57:26.093121 13393 net.cpp:434] accuracy_f <- ip_c_ip_c_0_split_0
I1018 01:57:26.093127 13393 net.cpp:434] accuracy_f <- label_coarse_data_1_split_0
I1018 01:57:26.093132 13393 net.cpp:408] accuracy_f -> accuracy_f
…
