…
  level: 0
  stage: ""
}
type: "RMSProp"
I1020 07:14:36.143908 11720 solver.cpp:81] Creating training net from train_net file: /home/adam/Honours/Honours-Project/cifar-100_pooling/max/relu/poolcnn_relu_train.prototxt
I1020 07:14:36.144248 11720 net.cpp:58] Initializing net from parameters: 
state {
  phase: TRAIN
  level: 0
  stage: ""
}
layer {
  name: "data"
  type: "HDF5Data"
  top: "data"
  top: "label_coarse"
  top: "label_fine"
  hdf5_data_param {
    source: "../../../../data/cifar-100/cifar_100_caffe_hdf5/train.txt"
    batch_size: 64
  }
}
layer {
  name: "conv1"
  type: "Convolution"
  bottom: "data"
  top: "conv1"
  convolution_param {
    num_output: 192
    kernel_size: 5
    weight_filler {
      type: "xavier"
    }
  }
}
layer {
  name: "relu1"
  type: "ReLU"
  bottom: "conv1"
  top: "relu1"
}
layer {
  name: "drop1"
  type: "Dropout"
  bottom: "relu1"
  top: "drop1"
  dropout_param {
    dropout_ratio: 0
  }
}
layer {
  name: "pool1"
  type: "Pooling"
  bottom: "drop1"
  top: "pool1"
  pooling_param {
    pool: MAX
    kernel_size: 2
    stride: 2
  }
}
layer {
  name: "conv2"
  type: "Convolution"
  bottom: "pool1"
  top: "conv2"
  convolution_param {
    num_output: 192
    kernel_size: 1
    weight_filler {
      type: "xavier"
    }
  }
}
layer {
  name: "relu2"
  type: "ReLU"
  bottom: "conv2"
  top: "relu2"
}
layer {
  name: "conv3"
  type: "Convolution"
  bottom: "relu2"
  top: "conv3"
  convolution_param {
    num_output: 240
    kernel_size: 3
    weight_filler {
      type: "xavier"
    }
  }
}
layer {
  name: "relu3"
  type: "ReLU"
  bottom: "conv3"
  top: "relu3"
}
layer {
  name: "drop2"
  type: "Dropout"
  bottom: "relu3"
  top: "drop2"
  dropout_param {
    dropout_ratio: 0.1
  }
}
layer {
  name: "pool2"
  type: "Pooling"
  bottom: "drop2"
  top: "pool2"
  pooling_param {
    pool: MAX
    kernel_size: 2
    stride: 2
  }
}
layer {
  name: "conv4"
  type: "Convolution"
  bottom: "pool2"
  top: "conv4"
  convolution_param {
    num_output: 240
    kernel_size: 1
    weight_filler {
      type: "xavier"
    }
  }
}
layer {
  name: "relu4"
  type: "ReLU"
  bottom: "conv4"
  top: "relu4"
}
layer {
  name: "conv5"
  type: "Convolution"
  bottom: "relu4"
  top: "conv5"
  convolution_param {
    num_output: 260
    kernel_size: 2
    weight_filler {
      type: "xavier"
    }
  }
}
layer {
  name: "relu5"
  type: "ReLU"
  bottom: "conv5"
  top: "relu5"
}
layer {
  name: "drop3"
  type: "Dropout"
  bottom: "relu5"
  top: "drop3"
  dropout_param {
    dropout_ratio: 0.2
  }
}
layer {
  name: "pool3"
  type: "Pooling"
  bottom: "drop3"
  top: "pool3"
  pooling_param {
    pool: MAX
    kernel_size: 2
    stride: 2
  }
}
layer {
  name: "conv6"
  type: "Convolution"
  bottom: "pool3"
  top: "conv6"
  convolution_param {
    num_output: 260
    kernel_size: 1
    weight_filler {
      type: "xavier"
    }
  }
}
layer {
  name: "relu6"
  type: "ReLU"
  bottom: "conv6"
  top: "relu6"
}
layer {
  name: "conv7"
  type: "Convolution"
  bottom: "relu6"
  top: "conv7"
  convolution_param {
    num_output: 280
    kernel_size: 2
    weight_filler {
      type: "xavier"
    }
  }
}
layer {
  name: "relu7"
  type: "ReLU"
  bottom: "conv7"
  top: "relu7"
}
layer {
  name: "drop4"
  type: "Dropout"
  bottom: "relu7"
  top: "drop4"
  dropout_param {
    dropout_ratio: 0.3
  }
}
layer {
  name: "pool4"
  type: "Pooling"
  bottom: "drop4"
  top: "pool4"
  pooling_param {
    pool: MAX
    kernel_size: 2
    stride: 2
  }
}
layer {
  name: "conv8"
  type: "Convolution"
  bottom: "pool4"
  top: "conv8"
  convolution_param {
    num_output: 280
    kernel_size: 1
    weight_filler {
      type: "xavier"
    }
  }
}
layer {
  name: "relu8"
  type: "ReLU"
  bottom: "conv8"
  top: "relu8"
}
layer {
  name: "drop5"
  type: "Dropout"
  bottom: "relu8"
  top: "drop5"
  dropout_param {
    dropout_ratio: 0.4
  }
}
layer {
  name: "pool5"
  type: "Pooling"
  bottom: "drop5"
  top: "pool5"
  pooling_param {
    pool: MAX
    kernel_size: 2
    stride: 2
  }
}
layer {
  name: "conv10"
  type: "Convolution"
  bottom: "pool5"
  top: "conv10"
  convolution_param {
    num_output: 300
    kernel_size: 1
    weight_filler {
      type: "xavier"
    }
  }
}
layer {
  name: "relu10"
  type: "ReLU"
  bottom: "conv10"
  top: "relu10"
}
layer {
  name: "drop6"
  type: "Dropout"
  bottom: "relu10"
  top: "drop6"
  dropout_param {
    dropout_ratio: 0.5
  }
}
layer {
  name: "pool6"
  type: "Pooling"
  bottom: "drop6"
  top: "pool6"
  pooling_param {
    pool: MAX
    kernel_size: 2
    stride: 2
  }
}
layer {
  name: "conv11"
  type: "Convolution"
  bottom: "pool6"
  top: "conv11"
  convolution_param {
    num_output: 100
    kernel_size: 1
    weight_filler {
      type: "xavier"
    }
  }
}
layer {
  name: "relu11"
  type: "ReLU"
  bottom: "conv11"
  top: "relu11"
}
layer {
  name: "drop7"
  type: "Dropout"
  bottom: "relu11"
  top: "drop7"
  dropout_param {
    dropout_ratio: 0
  }
}
layer {
  name: "pool7"
  type: "Pooling"
  bottom: "drop7"
  top: "pool7"
  pooling_param {
    pool: MAX
    kernel_size: 2
    stride: 2
  }
}
layer {
  name: "ip_c"
  type: "InnerProduct"
  bottom: "pool7"
  top: "ip_c"
  inner_product_param {
    num_output: 20
    weight_filler {
      type: "xavier"
    }
  }
}
layer {
  name: "accuracy_f"
  type: "Accuracy"
  bottom: "ip_c"
  bottom: "label_coarse"
  top: "accuracy_f"
}
layer {
  name: "loss_c"
  type: "SoftmaxWithLoss"
  bottom: "ip_c"
  bottom: "label_coarse"
  top: "loss_c"
}
layer {
  name: "ip_f"
  type: "InnerProduct"
  bottom: "pool7"
  top: "ip_f"
  inner_product_param {
    num_output: 100
    weight_filler {
      type: "xavier"
    }
  }
}
layer {
  name: "accuracy"
  type: "Accuracy"
  bottom: "ip_f"
  bottom: "label_fine"
  top: "accuracy"
}
layer {
  name: "loss_f"
  type: "SoftmaxWithLoss"
  bottom: "ip_f"
  bottom: "label_fine"
  top: "loss_f"
}
I1020 07:14:36.144408 11720 layer_factory.hpp:77] Creating layer data
I1020 07:14:36.144419 11720 net.cpp:100] Creating Layer data
I1020 07:14:36.144424 11720 net.cpp:408] data -> data
I1020 07:14:36.144438 11720 net.cpp:408] data -> label_coarse
I1020 07:14:36.144445 11720 net.cpp:408] data -> label_fine
I1020 07:14:36.144454 11720 hdf5_data_layer.cpp:79] Loading list of HDF5 filenames from: ../../../../data/cifar-100/cifar_100_caffe_hdf5/train.txt
I1020 07:14:36.144475 11720 hdf5_data_layer.cpp:93] Number of HDF5 files: 1
I1020 07:14:36.145110 11720 hdf5.cpp:35] Datatype class: H5T_INTEGER
I1020 07:14:37.724486 11720 net.cpp:150] Setting up data
I1020 07:14:37.724510 11720 net.cpp:157] Top shape: 64 3 32 32 (196608)
I1020 07:14:37.724514 11720 net.cpp:157] Top shape: 64 (64)
I1020 07:14:37.724515 11720 net.cpp:157] Top shape: 64 (64)
I1020 07:14:37.724517 11720 net.cpp:165] Memory required for data: 786944
I1020 07:14:37.724522 11720 layer_factory.hpp:77] Creating layer label_coarse_data_1_split
I1020 07:14:37.724531 11720 net.cpp:100] Creating Layer label_coarse_data_1_split
I1020 07:14:37.724535 11720 net.cpp:434] label_coarse_data_1_split <- label_coarse
I1020 07:14:37.724546 11720 net.cpp:408] label_coarse_data_1_split -> label_coarse_data_1_split_0
I1020 07:14:37.724555 11720 net.cpp:408] label_coarse_data_1_split -> label_coarse_data_1_split_1
I1020 07:14:37.724580 11720 net.cpp:150] Setting up label_coarse_data_1_split
I1020 07:14:37.724583 11720 net.cpp:157] Top shape: 64 (64)
I1020 07:14:37.724586 11720 net.cpp:157] Top shape: 64 (64)
I1020 07:14:37.724587 11720 net.cpp:165] Memory required for data: 787456
I1020 07:14:37.724589 11720 layer_factory.hpp:77] Creating layer label_fine_data_2_split
I1020 07:14:37.724606 11720 net.cpp:100] Creating Layer label_fine_data_2_split
I1020 07:14:37.724609 11720 net.cpp:434] label_fine_data_2_split <- label_fine
I1020 07:14:37.724612 11720 net.cpp:408] label_fine_data_2_split -> label_fine_data_2_split_0
I1020 07:14:37.724617 11720 net.cpp:408] label_fine_data_2_split -> label_fine_data_2_split_1
I1020 07:14:37.724637 11720 net.cpp:150] Setting up label_fine_data_2_split
I1020 07:14:37.724642 11720 net.cpp:157] Top shape: 64 (64)
I1020 07:14:37.724643 11720 net.cpp:157] Top shape: 64 (64)
I1020 07:14:37.724644 11720 net.cpp:165] Memory required for data: 787968
I1020 07:14:37.724647 11720 layer_factory.hpp:77] Creating layer conv1
I1020 07:14:37.724656 11720 net.cpp:100] Creating Layer conv1
I1020 07:14:37.724658 11720 net.cpp:434] conv1 <- data
I1020 07:14:37.724661 11720 net.cpp:408] conv1 -> conv1
I1020 07:14:37.842773 11720 net.cpp:150] Setting up conv1
I1020 07:14:37.842800 11720 net.cpp:157] Top shape: 64 192 28 28 (9633792)
I1020 07:14:37.842803 11720 net.cpp:165] Memory required for data: 39323136
I1020 07:14:37.842820 11720 layer_factory.hpp:77] Creating layer relu1
I1020 07:14:37.842829 11720 net.cpp:100] Creating Layer relu1
I1020 07:14:37.842833 11720 net.cpp:434] relu1 <- conv1
I1020 07:14:37.842838 11720 net.cpp:408] relu1 -> relu1
I1020 07:14:37.842965 11720 net.cpp:150] Setting up relu1
I1020 07:14:37.842972 11720 net.cpp:157] Top shape: 64 192 28 28 (9633792)
I1020 07:14:37.842974 11720 net.cpp:165] Memory required for data: 77858304
I1020 07:14:37.842977 11720 layer_factory.hpp:77] Creating layer drop1
I1020 07:14:37.842981 11720 net.cpp:100] Creating Layer drop1
I1020 07:14:37.842983 11720 net.cpp:434] drop1 <- relu1
I1020 07:14:37.842986 11720 net.cpp:408] drop1 -> drop1
I1020 07:14:37.843013 11720 net.cpp:150] Setting up drop1
I1020 07:14:37.843017 11720 net.cpp:157] Top shape: 64 192 28 28 (9633792)
I1020 07:14:37.843019 11720 net.cpp:165] Memory required for data: 116393472
I1020 07:14:37.843020 11720 layer_factory.hpp:77] Creating layer pool1
I1020 07:14:37.843024 11720 net.cpp:100] Creating Layer pool1
I1020 07:14:37.843026 11720 net.cpp:434] pool1 <- drop1
I1020 07:14:37.843029 11720 net.cpp:408] pool1 -> pool1
I1020 07:14:37.843056 11720 net.cpp:150] Setting up pool1
I1020 07:14:37.843060 11720 net.cpp:157] Top shape: 64 192 14 14 (2408448)
I1020 07:14:37.843060 11720 net.cpp:165] Memory required for data: 126027264
I1020 07:14:37.843062 11720 layer_factory.hpp:77] Creating layer conv2
I1020 07:14:37.843070 11720 net.cpp:100] Creating Layer conv2
I1020 07:14:37.843073 11720 net.cpp:434] conv2 <- pool1
I1020 07:14:37.843080 11720 net.cpp:408] conv2 -> conv2
I1020 07:14:37.843880 11720 net.cpp:150] Setting up conv2
I1020 07:14:37.843888 11720 net.cpp:157] Top shape: 64 192 14 14 (2408448)
I1020 07:14:37.843890 11720 net.cpp:165] Memory required for data: 135661056
I1020 07:14:37.843895 11720 layer_factory.hpp:77] Creating layer relu2
I1020 07:14:37.843900 11720 net.cpp:100] Creating Layer relu2
I1020 07:14:37.843902 11720 net.cpp:434] relu2 <- conv2
I1020 07:14:37.843905 11720 net.cpp:408] relu2 -> relu2
I1020 07:14:37.844022 11720 net.cpp:150] Setting up relu2
I1020 07:14:37.844027 11720 net.cpp:157] Top shape: 64 192 14 14 (2408448)
I1020 07:14:37.844029 11720 net.cpp:165] Memory required for data: 145294848
I1020 07:14:37.844030 11720 layer_factory.hpp:77] Creating layer conv3
I1020 07:14:37.844035 11720 net.cpp:100] Creating Layer conv3
I1020 07:14:37.844038 11720 net.cpp:434] conv3 <- relu2
I1020 07:14:37.844040 11720 net.cpp:408] conv3 -> conv3
I1020 07:14:37.846437 11720 net.cpp:150] Setting up conv3
I1020 07:14:37.846446 11720 net.cpp:157] Top shape: 64 240 12 12 (2211840)
I1020 07:14:37.846447 11720 net.cpp:165] Memory required for data: 154142208
I1020 07:14:37.846453 11720 layer_factory.hpp:77] Creating layer relu3
I1020 07:14:37.846457 11720 net.cpp:100] Creating Layer relu3
I1020 07:14:37.846458 11720 net.cpp:434] relu3 <- conv3
I1020 07:14:37.846462 11720 net.cpp:408] relu3 -> relu3
I1020 07:14:37.846643 11720 net.cpp:150] Setting up relu3
I1020 07:14:37.846662 11720 net.cpp:157] Top shape: 64 240 12 12 (2211840)
I1020 07:14:37.846663 11720 net.cpp:165] Memory required for data: 162989568
I1020 07:14:37.846665 11720 layer_factory.hpp:77] Creating layer drop2
I1020 07:14:37.846669 11720 net.cpp:100] Creating Layer drop2
I1020 07:14:37.846671 11720 net.cpp:434] drop2 <- relu3
I1020 07:14:37.846674 11720 net.cpp:408] drop2 -> drop2
I1020 07:14:37.846696 11720 net.cpp:150] Setting up drop2
I1020 07:14:37.846702 11720 net.cpp:157] Top shape: 64 240 12 12 (2211840)
I1020 07:14:37.846705 11720 net.cpp:165] Memory required for data: 171836928
I1020 07:14:37.846707 11720 layer_factory.hpp:77] Creating layer pool2
I1020 07:14:37.846714 11720 net.cpp:100] Creating Layer pool2
I1020 07:14:37.846717 11720 net.cpp:434] pool2 <- drop2
I1020 07:14:37.846720 11720 net.cpp:408] pool2 -> pool2
I1020 07:14:37.846745 11720 net.cpp:150] Setting up pool2
I1020 07:14:37.846748 11720 net.cpp:157] Top shape: 64 240 6 6 (552960)
I1020 07:14:37.846750 11720 net.cpp:165] Memory required for data: 174048768
I1020 07:14:37.846752 11720 layer_factory.hpp:77] Creating layer conv4
I1020 07:14:37.846756 11720 net.cpp:100] Creating Layer conv4
I1020 07:14:37.846758 11720 net.cpp:434] conv4 <- pool2
I1020 07:14:37.846761 11720 net.cpp:408] conv4 -> conv4
I1020 07:14:37.847553 11720 net.cpp:150] Setting up conv4
I1020 07:14:37.847560 11720 net.cpp:157] Top shape: 64 240 6 6 (552960)
I1020 07:14:37.847563 11720 net.cpp:165] Memory required for data: 176260608
I1020 07:14:37.847566 11720 layer_factory.hpp:77] Creating layer relu4
I1020 07:14:37.847569 11720 net.cpp:100] Creating Layer relu4
I1020 07:14:37.847571 11720 net.cpp:434] relu4 <- conv4
I1020 07:14:37.847574 11720 net.cpp:408] relu4 -> relu4
I1020 07:14:37.847677 11720 net.cpp:150] Setting up relu4
I1020 07:14:37.847682 11720 net.cpp:157] Top shape: 64 240 6 6 (552960)
I1020 07:14:37.847683 11720 net.cpp:165] Memory required for data: 178472448
I1020 07:14:37.847686 11720 layer_factory.hpp:77] Creating layer conv5
I1020 07:14:37.847690 11720 net.cpp:100] Creating Layer conv5
I1020 07:14:37.847692 11720 net.cpp:434] conv5 <- relu4
I1020 07:14:37.847695 11720 net.cpp:408] conv5 -> conv5
I1020 07:14:37.849407 11720 net.cpp:150] Setting up conv5
I1020 07:14:37.849416 11720 net.cpp:157] Top shape: 64 260 5 5 (416000)
I1020 07:14:37.849418 11720 net.cpp:165] Memory required for data: 180136448
I1020 07:14:37.849423 11720 layer_factory.hpp:77] Creating layer relu5
I1020 07:14:37.849428 11720 net.cpp:100] Creating Layer relu5
I1020 07:14:37.849431 11720 net.cpp:434] relu5 <- conv5
I1020 07:14:37.849433 11720 net.cpp:408] relu5 -> relu5
I1020 07:14:37.849539 11720 net.cpp:150] Setting up relu5
I1020 07:14:37.849545 11720 net.cpp:157] Top shape: 64 260 5 5 (416000)
I1020 07:14:37.849546 11720 net.cpp:165] Memory required for data: 181800448
I1020 07:14:37.849548 11720 layer_factory.hpp:77] Creating layer drop3
I1020 07:14:37.849551 11720 net.cpp:100] Creating Layer drop3
I1020 07:14:37.849553 11720 net.cpp:434] drop3 <- relu5
I1020 07:14:37.849556 11720 net.cpp:408] drop3 -> drop3
I1020 07:14:37.849578 11720 net.cpp:150] Setting up drop3
I1020 07:14:37.849581 11720 net.cpp:157] Top shape: 64 260 5 5 (416000)
I1020 07:14:37.849584 11720 net.cpp:165] Memory required for data: 183464448
I1020 07:14:37.849586 11720 layer_factory.hpp:77] Creating layer pool3
I1020 07:14:37.849589 11720 net.cpp:100] Creating Layer pool3
I1020 07:14:37.849591 11720 net.cpp:434] pool3 <- drop3
I1020 07:14:37.849594 11720 net.cpp:408] pool3 -> pool3
I1020 07:14:37.849616 11720 net.cpp:150] Setting up pool3
I1020 07:14:37.849619 11720 net.cpp:157] Top shape: 64 260 3 3 (149760)
I1020 07:14:37.849622 11720 net.cpp:165] Memory required for data: 184063488
I1020 07:14:37.849622 11720 layer_factory.hpp:77] Creating layer conv6
I1020 07:14:37.849627 11720 net.cpp:100] Creating Layer conv6
I1020 07:14:37.849629 11720 net.cpp:434] conv6 <- pool3
I1020 07:14:37.849632 11720 net.cpp:408] conv6 -> conv6
I1020 07:14:37.850725 11720 net.cpp:150] Setting up conv6
I1020 07:14:37.850741 11720 net.cpp:157] Top shape: 64 260 3 3 (149760)
I1020 07:14:37.850744 11720 net.cpp:165] Memory required for data: 184662528
I1020 07:14:37.850749 11720 layer_factory.hpp:77] Creating layer relu6
I1020 07:14:37.850751 11720 net.cpp:100] Creating Layer relu6
I1020 07:14:37.850754 11720 net.cpp:434] relu6 <- conv6
I1020 07:14:37.850757 11720 net.cpp:408] relu6 -> relu6
I1020 07:14:37.850939 11720 net.cpp:150] Setting up relu6
I1020 07:14:37.850945 11720 net.cpp:157] Top shape: 64 260 3 3 (149760)
I1020 07:14:37.850947 11720 net.cpp:165] Memory required for data: 185261568
I1020 07:14:37.850950 11720 layer_factory.hpp:77] Creating layer conv7
I1020 07:14:37.850955 11720 net.cpp:100] Creating Layer conv7
I1020 07:14:37.850956 11720 net.cpp:434] conv7 <- relu6
I1020 07:14:37.850960 11720 net.cpp:408] conv7 -> conv7
I1020 07:14:37.852852 11720 net.cpp:150] Setting up conv7
I1020 07:14:37.852860 11720 net.cpp:157] Top shape: 64 280 2 2 (71680)
I1020 07:14:37.852862 11720 net.cpp:165] Memory required for data: 185548288
I1020 07:14:37.852866 11720 layer_factory.hpp:77] Creating layer relu7
I1020 07:14:37.852869 11720 net.cpp:100] Creating Layer relu7
I1020 07:14:37.852871 11720 net.cpp:434] relu7 <- conv7
I1020 07:14:37.852874 11720 net.cpp:408] relu7 -> relu7
I1020 07:14:37.852982 11720 net.cpp:150] Setting up relu7
I1020 07:14:37.852988 11720 net.cpp:157] Top shape: 64 280 2 2 (71680)
I1020 07:14:37.852988 11720 net.cpp:165] Memory required for data: 185835008
I1020 07:14:37.852990 11720 layer_factory.hpp:77] Creating layer drop4
I1020 07:14:37.852994 11720 net.cpp:100] Creating Layer drop4
I1020 07:14:37.852995 11720 net.cpp:434] drop4 <- relu7
I1020 07:14:37.852998 11720 net.cpp:408] drop4 -> drop4
I1020 07:14:37.853019 11720 net.cpp:150] Setting up drop4
I1020 07:14:37.853024 11720 net.cpp:157] Top shape: 64 280 2 2 (71680)
I1020 07:14:37.853024 11720 net.cpp:165] Memory required for data: 186121728
I1020 07:14:37.853026 11720 layer_factory.hpp:77] Creating layer pool4
I1020 07:14:37.853029 11720 net.cpp:100] Creating Layer pool4
I1020 07:14:37.853032 11720 net.cpp:434] pool4 <- drop4
I1020 07:14:37.853035 11720 net.cpp:408] pool4 -> pool4
I1020 07:14:37.853055 11720 net.cpp:150] Setting up pool4
I1020 07:14:37.853058 11720 net.cpp:157] Top shape: 64 280 1 1 (17920)
I1020 07:14:37.853060 11720 net.cpp:165] Memory required for data: 186193408
I1020 07:14:37.853062 11720 layer_factory.hpp:77] Creating layer conv8
I1020 07:14:37.853066 11720 net.cpp:100] Creating Layer conv8
I1020 07:14:37.853067 11720 net.cpp:434] conv8 <- pool4
I1020 07:14:37.853071 11720 net.cpp:408] conv8 -> conv8
I1020 07:14:37.854018 11720 net.cpp:150] Setting up conv8
I1020 07:14:37.854025 11720 net.cpp:157] Top shape: 64 280 1 1 (17920)
I1020 07:14:37.854027 11720 net.cpp:165] Memory required for data: 186265088
I1020 07:14:37.854032 11720 layer_factory.hpp:77] Creating layer relu8
I1020 07:14:37.854035 11720 net.cpp:100] Creating Layer relu8
I1020 07:14:37.854038 11720 net.cpp:434] relu8 <- conv8
I1020 07:14:37.854040 11720 net.cpp:408] relu8 -> relu8
I1020 07:14:37.854156 11720 net.cpp:150] Setting up relu8
I1020 07:14:37.854161 11720 net.cpp:157] Top shape: 64 280 1 1 (17920)
I1020 07:14:37.854163 11720 net.cpp:165] Memory required for data: 186336768
I1020 07:14:37.854166 11720 layer_factory.hpp:77] Creating layer drop5
I1020 07:14:37.854168 11720 net.cpp:100] Creating Layer drop5
I1020 07:14:37.854171 11720 net.cpp:434] drop5 <- relu8
I1020 07:14:37.854173 11720 net.cpp:408] drop5 -> drop5
I1020 07:14:37.854194 11720 net.cpp:150] Setting up drop5
I1020 07:14:37.854199 11720 net.cpp:157] Top shape: 64 280 1 1 (17920)
I1020 07:14:37.854202 11720 net.cpp:165] Memory required for data: 186408448
I1020 07:14:37.854203 11720 layer_factory.hpp:77] Creating layer pool5
I1020 07:14:37.854207 11720 net.cpp:100] Creating Layer pool5
I1020 07:14:37.854209 11720 net.cpp:434] pool5 <- drop5
I1020 07:14:37.854212 11720 net.cpp:408] pool5 -> pool5
I1020 07:14:37.854235 11720 net.cpp:150] Setting up pool5
I1020 07:14:37.854240 11720 net.cpp:157] Top shape: 64 280 1 1 (17920)
I1020 07:14:37.854250 11720 net.cpp:165] Memory required for data: 186480128
I1020 07:14:37.854252 11720 layer_factory.hpp:77] Creating layer conv10
I1020 07:14:37.854257 11720 net.cpp:100] Creating Layer conv10
I1020 07:14:37.854259 11720 net.cpp:434] conv10 <- pool5
I1020 07:14:37.854262 11720 net.cpp:408] conv10 -> conv10
I1020 07:14:37.855213 11720 net.cpp:150] Setting up conv10
I1020 07:14:37.855221 11720 net.cpp:157] Top shape: 64 300 1 1 (19200)
I1020 07:14:37.855223 11720 net.cpp:165] Memory required for data: 186556928
I1020 07:14:37.855231 11720 layer_factory.hpp:77] Creating layer relu10
I1020 07:14:37.855234 11720 net.cpp:100] Creating Layer relu10
I1020 07:14:37.855237 11720 net.cpp:434] relu10 <- conv10
I1020 07:14:37.855239 11720 net.cpp:408] relu10 -> relu10
I1020 07:14:37.855432 11720 net.cpp:150] Setting up relu10
I1020 07:14:37.855439 11720 net.cpp:157] Top shape: 64 300 1 1 (19200)
I1020 07:14:37.855442 11720 net.cpp:165] Memory required for data: 186633728
I1020 07:14:37.855443 11720 layer_factory.hpp:77] Creating layer drop6
I1020 07:14:37.855448 11720 net.cpp:100] Creating Layer drop6
I1020 07:14:37.855449 11720 net.cpp:434] drop6 <- relu10
I1020 07:14:37.855453 11720 net.cpp:408] drop6 -> drop6
I1020 07:14:37.855479 11720 net.cpp:150] Setting up drop6
I1020 07:14:37.855484 11720 net.cpp:157] Top shape: 64 300 1 1 (19200)
I1020 07:14:37.855484 11720 net.cpp:165] Memory required for data: 186710528
I1020 07:14:37.855486 11720 layer_factory.hpp:77] Creating layer pool6
I1020 07:14:37.855491 11720 net.cpp:100] Creating Layer pool6
I1020 07:14:37.855494 11720 net.cpp:434] pool6 <- drop6
I1020 07:14:37.855496 11720 net.cpp:408] pool6 -> pool6
I1020 07:14:37.855518 11720 net.cpp:150] Setting up pool6
I1020 07:14:37.855521 11720 net.cpp:157] Top shape: 64 300 1 1 (19200)
I1020 07:14:37.855523 11720 net.cpp:165] Memory required for data: 186787328
I1020 07:14:37.855525 11720 layer_factory.hpp:77] Creating layer conv11
I1020 07:14:37.855536 11720 net.cpp:100] Creating Layer conv11
I1020 07:14:37.855540 11720 net.cpp:434] conv11 <- pool6
I1020 07:14:37.855545 11720 net.cpp:408] conv11 -> conv11
I1020 07:14:37.856699 11720 net.cpp:150] Setting up conv11
I1020 07:14:37.856709 11720 net.cpp:157] Top shape: 64 100 1 1 (6400)
I1020 07:14:37.856709 11720 net.cpp:165] Memory required for data: 186812928
I1020 07:14:37.856714 11720 layer_factory.hpp:77] Creating layer relu11
I1020 07:14:37.856717 11720 net.cpp:100] Creating Layer relu11
I1020 07:14:37.856719 11720 net.cpp:434] relu11 <- conv11
I1020 07:14:37.856722 11720 net.cpp:408] relu11 -> relu11
I1020 07:14:37.856839 11720 net.cpp:150] Setting up relu11
I1020 07:14:37.856844 11720 net.cpp:157] Top shape: 64 100 1 1 (6400)
I1020 07:14:37.856847 11720 net.cpp:165] Memory required for data: 186838528
I1020 07:14:37.856848 11720 layer_factory.hpp:77] Creating layer drop7
I1020 07:14:37.856853 11720 net.cpp:100] Creating Layer drop7
I1020 07:14:37.856854 11720 net.cpp:434] drop7 <- relu11
I1020 07:14:37.856856 11720 net.cpp:408] drop7 -> drop7
I1020 07:14:37.856879 11720 net.cpp:150] Setting up drop7
I1020 07:14:37.856884 11720 net.cpp:157] Top shape: 64 100 1 1 (6400)
I1020 07:14:37.856885 11720 net.cpp:165] Memory required for data: 186864128
I1020 07:14:37.856887 11720 layer_factory.hpp:77] Creating layer pool7
I1020 07:14:37.856889 11720 net.cpp:100] Creating Layer pool7
I1020 07:14:37.856892 11720 net.cpp:434] pool7 <- drop7
I1020 07:14:37.856895 11720 net.cpp:408] pool7 -> pool7
I1020 07:14:37.856917 11720 net.cpp:150] Setting up pool7
I1020 07:14:37.856921 11720 net.cpp:157] Top shape: 64 100 1 1 (6400)
I1020 07:14:37.856923 11720 net.cpp:165] Memory required for data: 186889728
I1020 07:14:37.856925 11720 layer_factory.hpp:77] Creating layer pool7_pool7_0_split
I1020 07:14:37.856928 11720 net.cpp:100] Creating Layer pool7_pool7_0_split
I1020 07:14:37.856930 11720 net.cpp:434] pool7_pool7_0_split <- pool7
I1020 07:14:37.856933 11720 net.cpp:408] pool7_pool7_0_split -> pool7_pool7_0_split_0
I1020 07:14:37.856937 11720 net.cpp:408] pool7_pool7_0_split -> pool7_pool7_0_split_1
I1020 07:14:37.856966 11720 net.cpp:150] Setting up pool7_pool7_0_split
I1020 07:14:37.856971 11720 net.cpp:157] Top shape: 64 100 1 1 (6400)
I1020 07:14:37.856973 11720 net.cpp:157] Top shape: 64 100 1 1 (6400)
I1020 07:14:37.856976 11720 net.cpp:165] Memory required for data: 186940928
I1020 07:14:37.856976 11720 layer_factory.hpp:77] Creating layer ip_c
I1020 07:14:37.856981 11720 net.cpp:100] Creating Layer ip_c
I1020 07:14:37.856982 11720 net.cpp:434] ip_c <- pool7_pool7_0_split_0
I1020 07:14:37.856986 11720 net.cpp:408] ip_c -> ip_c
I1020 07:14:37.857323 11720 net.cpp:150] Setting up ip_c
I1020 07:14:37.857331 11720 net.cpp:157] Top shape: 64 20 (1280)
I1020 07:14:37.857332 11720 net.cpp:165] Memory required for data: 186946048
I1020 07:14:37.857336 11720 layer_factory.hpp:77] Creating layer ip_c_ip_c_0_split
I1020 07:14:37.857339 11720 net.cpp:100] Creating Layer ip_c_ip_c_0_split
I1020 07:14:37.857342 11720 net.cpp:434] ip_c_ip_c_0_split <- ip_c
I1020 07:14:37.857344 11720 net.cpp:408] ip_c_ip_c_0_split -> ip_c_ip_c_0_split_0
I1020 07:14:37.857348 11720 net.cpp:408] ip_c_ip_c_0_split -> ip_c_ip_c_0_split_1
I1020 07:14:37.857370 11720 net.cpp:150] Setting up ip_c_ip_c_0_split
I1020 07:14:37.857374 11720 net.cpp:157] Top shape: 64 20 (1280)
I1020 07:14:37.857377 11720 net.cpp:157] Top shape: 64 20 (1280)
I1020 07:14:37.857378 11720 net.cpp:165] Memory required for data: 186956288
I1020 07:14:37.857379 11720 layer_factory.hpp:77] Creating layer accuracy_f
I1020 07:14:37.857383 11720 net.cpp:100] Creating Layer accuracy_f
I1020 07:14:37.857384 11720 net.cpp:434] accuracy_f <- ip_c_ip_c_0_split_0
I1020 07:14:37.857388 11720 net.cpp:434] accuracy_f <- label_coarse_data_1_split_0
I1020 07:14:37.857391 11720 net.cpp:408] accuracy_f -> accuracy_f
…
I1020 07:14:37.858253 11720 net.cpp:283] Network initialization done.
I1020 07:14:37.858443 11720 solver.cpp:181] Creating test net (#0) specified by test_net file: /home/adam/Honours/Honours-Project/cifar-100_pooling/max/relu/poolcnn_relu_test.prototxt
I1020 07:14:37.858559 11720 net.cpp:58] Initializing net from parameters: 
state {
  phase: TEST
}
layer {
  name: "data"
  type: "HDF5Data"
  top: "data"
  top: "label_coarse"
  top: "label_fine"
  hdf5_data_param {
    source: "../../../../data/cifar-100/cifar_100_caffe_hdf5/test.txt"
    batch_size: 100
  }
}
layer {
  name: "conv1"
  type: "Convolution"
  bottom: "data"
  top: "conv1"
  convolution_param {
    num_output: 192
    kernel_size: 5
    weight_filler {
      type: "xavier"
    }
  }
}
layer {
  name: "relu1"
  type: "ReLU"
  bottom: "conv1"
  top: "relu1"
}
layer {
  name: "drop1"
  type: "Dropout"
  bottom: "relu1"
  top: "drop1"
  dropout_param {
    dropout_ratio: 0
  }
}
layer {
  name: "pool1"
  type: "Pooling"
  bottom: "drop1"
  top: "pool1"
  pooling_param {
    pool: MAX
    kernel_size: 2
    stride: 2
  }
}
layer {
  name: "conv2"
  type: "Convolution"
  bottom: "pool1"
  top: "conv2"
  convolution_param {
    num_output: 192
    kernel_size: 1
    weight_filler {
      type: "xavier"
    }
  }
}
layer {
  name: "relu2"
  type: "ReLU"
  bottom: "conv2"
  top: "relu2"
}
layer {
  name: "conv3"
  type: "Convolution"
  bottom: "relu2"
  top: "conv3"
  convolution_param {
    num_output: 240
    kernel_size: 3
    weight_filler {
      type: "xavier"
    }
  }
}
layer {
  name: "relu3"
  type: "ReLU"
  bottom: "conv3"
  top: "relu3"
}
layer {
  name: "drop2"
  type: "Dropout"
  bottom: "relu3"
  top: "drop2"
  dropout_param {
    dropout_ratio: 0.1
  }
}
layer {
  name: "pool2"
  type: "Pooling"
  bottom: "drop2"
  top: "pool2"
  pooling_param {
    pool: MAX
    kernel_size: 2
    stride: 2
  }
}
layer {
  name: "conv4"
  type: "Convolution"
  bottom: "pool2"
  top: "conv4"
  convolution_param {
    num_output: 240
    kernel_size: 1
    weight_filler {
      type: "xavier"
    }
  }
}
layer {
  name: "relu4"
  type: "ReLU"
  bottom: "conv4"
  top: "relu4"
}
layer {
  name: "conv5"
  type: "Convolution"
  bottom: "relu4"
  top: "conv5"
  convolution_param {
    num_output: 260
    kernel_size: 2
    weight_filler {
      type: "xavier"
    }
  }
}
layer {
  name: "relu5"
  type: "ReLU"
  bottom: "conv5"
  top: "relu5"
}
layer {
  name: "drop3"
  type: "Dropout"
  bottom: "relu5"
  top: "drop3"
  dropout_param {
    dropout_ratio: 0.2
  }
}
layer {
  name: "pool3"
  type: "Pooling"
  bottom: "drop3"
  top: "pool3"
  pooling_param {
    pool: MAX
    kernel_size: 2
    stride: 2
  }
}
layer {
  name: "conv6"
  type: "Convolution"
  bottom: "pool3"
  top: "conv6"
  convolution_param {
    num_output: 260
    kernel_size: 1
    weight_filler {
      type: "xavier"
    }
  }
}
layer {
  name: "relu6"
  type: "ReLU"
  bottom: "conv6"
  top: "relu6"
}
layer {
  name: "conv7"
  type: "Convolution"
  bottom: "relu6"
  top: "conv7"
  convolution_param {
    num_output: 280
    kernel_size: 2
    weight_filler {
      type: "xavier"
    }
  }
}
layer {
  name: "relu7"
  type: "ReLU"
  bottom: "conv7"
  top: "relu7"
}
layer {
  name: "drop4"
  type: "Dropout"
  bottom: "relu7"
  top: "drop4"
  dropout_param {
    dropout_ratio: 0.3
  }
}
layer {
  name: "pool4"
  type: "Pooling"
  bottom: "drop4"
  top: "pool4"
  pooling_param {
    pool: MAX
    kernel_size: 2
    stride: 2
  }
}
layer {
  name: "conv8"
  type: "Convolution"
  bottom: "pool4"
  top: "conv8"
  convolution_param {
    num_output: 280
    kernel_size: 1
    weight_filler {
      type: "xavier"
    }
  }
}
layer {
  name: "relu8"
  type: "ReLU"
  bottom: "conv8"
  top: "relu8"
}
layer {
  name: "drop5"
  type: "Dropout"
  bottom: "relu8"
  top: "drop5"
  dropout_param {
    dropout_ratio: 0.4
  }
}
layer {
  name: "pool5"
  type: "Pooling"
  bottom: "drop5"
  top: "pool5"
  pooling_param {
    pool: MAX
    kernel_size: 2
    stride: 2
  }
}
layer {
  name: "conv10"
  type: "Convolution"
  bottom: "pool5"
  top: "conv10"
  convolution_param {
    num_output: 300
    kernel_size: 1
    weight_filler {
      type: "xavier"
    }
  }
}
layer {
  name: "relu10"
  type: "ReLU"
  bottom: "conv10"
  top: "relu10"
}
layer {
  name: "drop6"
  type: "Dropout"
  bottom: "relu10"
  top: "drop6"
  dropout_param {
    dropout_ratio: 0.5
  }
}
layer {
  name: "pool6"
  type: "Pooling"
  bottom: "drop6"
  top: "pool6"
  pooling_param {
    pool: MAX
    kernel_size: 2
    stride: 2
  }
}
layer {
  name: "conv11"
  type: "Convolution"
  bottom: "pool6"
  top: "conv11"
  convolution_param {
    num_output: 100
    kernel_size: 1
    weight_filler {
      type: "xavier"
    }
  }
}
layer {
  name: "relu11"
  type: "ReLU"
  bottom: "conv11"
  top: "relu11"
}
layer {
  name: "drop7"
  type: "Dropout"
  bottom: "relu11"
  top: "drop7"
  dropout_param {
    dropout_ratio: 0
  }
}
layer {
  name: "pool7"
  type: "Pooling"
  bottom: "drop7"
  top: "pool7"
  pooling_param {
    pool: MAX
    kernel_size: 2
    stride: 2
  }
}
layer {
  name: "ip_c"
  type: "InnerProduct"
  bottom: "pool7"
  top: "ip_c"
  inner_product_param {
    num_output: 20
    weight_filler {
      type: "xavier"
    }
  }
}
layer {
  name: "accuracy_f"
  type: "Accuracy"
  bottom: "ip_c"
  bottom: "label_coarse"
  top: "accuracy_f"
}
layer {
  name: "loss_c"
  type: "SoftmaxWithLoss"
  bottom: "ip_c"
  bottom: "label_coarse"
  top: "loss_c"
}
layer {
  name: "ip_f"
  type: "InnerProduct"
  bottom: "pool7"
  top: "ip_f"
  inner_product_param {
    num_output: 100
    weight_filler {
      type: "xavier"
    }
  }
}
layer {
  name: "accuracy"
  type: "Accuracy"
  bottom: "ip_f"
  bottom: "label_fine"
  top: "accuracy"
}
layer {
  name: "loss_f"
  type: "SoftmaxWithLoss"
  bottom: "ip_f"
  bottom: "label_fine"
  top: "loss_f"
}
I1020 07:14:37.858677 11720 layer_factory.hpp:77] Creating layer data
I1020 07:14:37.858685 11720 net.cpp:100] Creating Layer data
I1020 07:14:37.858690 11720 net.cpp:408] data -> data
I1020 07:14:37.858696 11720 net.cpp:408] data -> label_coarse
I1020 07:14:37.858702 11720 net.cpp:408] data -> label_fine
I1020 07:14:37.858708 11720 hdf5_data_layer.cpp:79] Loading list of HDF5 filenames from: ../../../../data/cifar-100/cifar_100_caffe_hdf5/test.txt
I1020 07:14:37.858724 11720 hdf5_data_layer.cpp:93] Number of HDF5 files: 1
I1020 07:14:38.111776 11720 net.cpp:150] Setting up data
I1020 07:14:38.111800 11720 net.cpp:157] Top shape: 100 3 32 32 (307200)
I1020 07:14:38.111804 11720 net.cpp:157] Top shape: 100 (100)
I1020 07:14:38.111806 11720 net.cpp:157] Top shape: 100 (100)
I1020 07:14:38.111807 11720 net.cpp:165] Memory required for data: 1229600
I1020 07:14:38.111812 11720 layer_factory.hpp:77] Creating layer label_coarse_data_1_split
I1020 07:14:38.111820 11720 net.cpp:100] Creating Layer label_coarse_data_1_split
I1020 07:14:38.111824 11720 net.cpp:434] label_coarse_data_1_split <- label_coarse
I1020 07:14:38.111827 11720 net.cpp:408] label_coarse_data_1_split -> label_coarse_data_1_split_0
I1020 07:14:38.111835 11720 net.cpp:408] label_coarse_data_1_split -> label_coarse_data_1_split_1
I1020 07:14:38.111865 11720 net.cpp:150] Setting up label_coarse_data_1_split
I1020 07:14:38.111871 11720 net.cpp:157] Top shape: 100 (100)
I1020 07:14:38.111872 11720 net.cpp:157] Top shape: 100 (100)
I1020 07:14:38.111873 11720 net.cpp:165] Memory required for data: 1230400
I1020 07:14:38.111891 11720 layer_factory.hpp:77] Creating layer label_fine_data_2_split
I1020 07:14:38.111894 11720 net.cpp:100] Creating Layer label_fine_data_2_split
I1020 07:14:38.111896 11720 net.cpp:434] label_fine_data_2_split <- label_fine
I1020 07:14:38.111901 11720 net.cpp:408] label_fine_data_2_split -> label_fine_data_2_split_0
I1020 07:14:38.111904 11720 net.cpp:408] label_fine_data_2_split -> label_fine_data_2_split_1
I1020 07:14:38.111928 11720 net.cpp:150] Setting up label_fine_data_2_split
I1020 07:14:38.111932 11720 net.cpp:157] Top shape: 100 (100)
I1020 07:14:38.111934 11720 net.cpp:157] Top shape: 100 (100)
I1020 07:14:38.111937 11720 net.cpp:165] Memory required for data: 1231200
I1020 07:14:38.111938 11720 layer_factory.hpp:77] Creating layer conv1
I1020 07:14:38.111944 11720 net.cpp:100] Creating Layer conv1
I1020 07:14:38.111946 11720 net.cpp:434] conv1 <- data
I1020 07:14:38.111950 11720 net.cpp:408] conv1 -> conv1
I1020 07:14:38.112784 11720 net.cpp:150] Setting up conv1
I1020 07:14:38.112792 11720 net.cpp:157] Top shape: 100 192 28 28 (15052800)
I1020 07:14:38.112794 11720 net.cpp:165] Memory required for data: 61442400
I1020 07:14:38.112802 11720 layer_factory.hpp:77] Creating layer relu1
I1020 07:14:38.112807 11720 net.cpp:100] Creating Layer relu1
I1020 07:14:38.112808 11720 net.cpp:434] relu1 <- conv1
I1020 07:14:38.112812 11720 net.cpp:408] relu1 -> relu1
I1020 07:14:38.112936 11720 net.cpp:150] Setting up relu1
I1020 07:14:38.112941 11720 net.cpp:157] Top shape: 100 192 28 28 (15052800)
I1020 07:14:38.112943 11720 net.cpp:165] Memory required for data: 121653600
I1020 07:14:38.112946 11720 layer_factory.hpp:77] Creating layer drop1
I1020 07:14:38.112949 11720 net.cpp:100] Creating Layer drop1
I1020 07:14:38.112951 11720 net.cpp:434] drop1 <- relu1
I1020 07:14:38.112954 11720 net.cpp:408] drop1 -> drop1
I1020 07:14:38.112979 11720 net.cpp:150] Setting up drop1
I1020 07:14:38.112984 11720 net.cpp:157] Top shape: 100 192 28 28 (15052800)
I1020 07:14:38.112985 11720 net.cpp:165] Memory required for data: 181864800
I1020 07:14:38.112987 11720 layer_factory.hpp:77] Creating layer pool1
I1020 07:14:38.112992 11720 net.cpp:100] Creating Layer pool1
I1020 07:14:38.112993 11720 net.cpp:434] pool1 <- drop1
I1020 07:14:38.112996 11720 net.cpp:408] pool1 -> pool1
I1020 07:14:38.113018 11720 net.cpp:150] Setting up pool1
I1020 07:14:38.113021 11720 net.cpp:157] Top shape: 100 192 14 14 (3763200)
I1020 07:14:38.113023 11720 net.cpp:165] Memory required for data: 196917600
I1020 07:14:38.113024 11720 layer_factory.hpp:77] Creating layer conv2
I1020 07:14:38.113029 11720 net.cpp:100] Creating Layer conv2
I1020 07:14:38.113030 11720 net.cpp:434] conv2 <- pool1
I1020 07:14:38.113034 11720 net.cpp:408] conv2 -> conv2
I1020 07:14:38.113800 11720 net.cpp:150] Setting up conv2
I1020 07:14:38.113807 11720 net.cpp:157] Top shape: 100 192 14 14 (3763200)
I1020 07:14:38.113809 11720 net.cpp:165] Memory required for data: 211970400
I1020 07:14:38.113816 11720 layer_factory.hpp:77] Creating layer relu2
I1020 07:14:38.113819 11720 net.cpp:100] Creating Layer relu2
I1020 07:14:38.113821 11720 net.cpp:434] relu2 <- conv2
I1020 07:14:38.113824 11720 net.cpp:408] relu2 -> relu2
I1020 07:14:38.114017 11720 net.cpp:150] Setting up relu2
I1020 07:14:38.114024 11720 net.cpp:157] Top shape: 100 192 14 14 (3763200)
I1020 07:14:38.114027 11720 net.cpp:165] Memory required for data: 227023200
I1020 07:14:38.114028 11720 layer_factory.hpp:77] Creating layer conv3
I1020 07:14:38.114033 11720 net.cpp:100] Creating Layer conv3
I1020 07:14:38.114034 11720 net.cpp:434] conv3 <- relu2
I1020 07:14:38.114038 11720 net.cpp:408] conv3 -> conv3
I1020 07:14:38.116506 11720 net.cpp:150] Setting up conv3
I1020 07:14:38.116516 11720 net.cpp:157] Top shape: 100 240 12 12 (3456000)
I1020 07:14:38.116518 11720 net.cpp:165] Memory required for data: 240847200
I1020 07:14:38.116523 11720 layer_factory.hpp:77] Creating layer relu3
I1020 07:14:38.116526 11720 net.cpp:100] Creating Layer relu3
I1020 07:14:38.116529 11720 net.cpp:434] relu3 <- conv3
I1020 07:14:38.116540 11720 net.cpp:408] relu3 -> relu3
I1020 07:14:38.116657 11720 net.cpp:150] Setting up relu3
I1020 07:14:38.116662 11720 net.cpp:157] Top shape: 100 240 12 12 (3456000)
I1020 07:14:38.116665 11720 net.cpp:165] Memory required for data: 254671200
I1020 07:14:38.116667 11720 layer_factory.hpp:77] Creating layer drop2
I1020 07:14:38.116670 11720 net.cpp:100] Creating Layer drop2
I1020 07:14:38.116672 11720 net.cpp:434] drop2 <- relu3
I1020 07:14:38.116675 11720 net.cpp:408] drop2 -> drop2
I1020 07:14:38.116698 11720 net.cpp:150] Setting up drop2
I1020 07:14:38.116703 11720 net.cpp:157] Top shape: 100 240 12 12 (3456000)
I1020 07:14:38.116704 11720 net.cpp:165] Memory required for data: 268495200
I1020 07:14:38.116708 11720 layer_factory.hpp:77] Creating layer pool2
I1020 07:14:38.116710 11720 net.cpp:100] Creating Layer pool2
I1020 07:14:38.116714 11720 net.cpp:434] pool2 <- drop2
I1020 07:14:38.116716 11720 net.cpp:408] pool2 -> pool2
I1020 07:14:38.116741 11720 net.cpp:150] Setting up pool2
I1020 07:14:38.116745 11720 net.cpp:157] Top shape: 100 240 6 6 (864000)
I1020 07:14:38.116747 11720 net.cpp:165] Memory required for data: 271951200
I1020 07:14:38.116749 11720 layer_factory.hpp:77] Creating layer conv4
I1020 07:14:38.116753 11720 net.cpp:100] Creating Layer conv4
I1020 07:14:38.116755 11720 net.cpp:434] conv4 <- pool2
I1020 07:14:38.116758 11720 net.cpp:408] conv4 -> conv4
I1020 07:14:38.117848 11720 net.cpp:150] Setting up conv4
I1020 07:14:38.117856 11720 net.cpp:157] Top shape: 100 240 6 6 (864000)
I1020 07:14:38.117858 11720 net.cpp:165] Memory required for data: 275407200
I1020 07:14:38.117862 11720 layer_factory.hpp:77] Creating layer relu4
I1020 07:14:38.117866 11720 net.cpp:100] Creating Layer relu4
I1020 07:14:38.117868 11720 net.cpp:434] relu4 <- conv4
I1020 07:14:38.117871 11720 net.cpp:408] relu4 -> relu4
I1020 07:14:38.117986 11720 net.cpp:150] Setting up relu4
I1020 07:14:38.117991 11720 net.cpp:157] Top shape: 100 240 6 6 (864000)
I1020 07:14:38.117993 11720 net.cpp:165] Memory required for data: 278863200
I1020 07:14:38.117995 11720 layer_factory.hpp:77] Creating layer conv5
I1020 07:14:38.118000 11720 net.cpp:100] Creating Layer conv5
I1020 07:14:38.118001 11720 net.cpp:434] conv5 <- relu4
I1020 07:14:38.118005 11720 net.cpp:408] conv5 -> conv5
I1020 07:14:38.119774 11720 net.cpp:150] Setting up conv5
I1020 07:14:38.119782 11720 net.cpp:157] Top shape: 100 260 5 5 (650000)
I1020 07:14:38.119784 11720 net.cpp:165] Memory required for data: 281463200
I1020 07:14:38.119791 11720 layer_factory.hpp:77] Creating layer relu5
I1020 07:14:38.119796 11720 net.cpp:100] Creating Layer relu5
I1020 07:14:38.119797 11720 net.cpp:434] relu5 <- conv5
I1020 07:14:38.119801 11720 net.cpp:408] relu5 -> relu5
I1020 07:14:38.120064 11720 net.cpp:150] Setting up relu5
I1020 07:14:38.120072 11720 net.cpp:157] Top shape: 100 260 5 5 (650000)
I1020 07:14:38.120074 11720 net.cpp:165] Memory required for data: 284063200
I1020 07:14:38.120075 11720 layer_factory.hpp:77] Creating layer drop3
I1020 07:14:38.120079 11720 net.cpp:100] Creating Layer drop3
I1020 07:14:38.120081 11720 net.cpp:434] drop3 <- relu5
I1020 07:14:38.120085 11720 net.cpp:408] drop3 -> drop3
I1020 07:14:38.120110 11720 net.cpp:150] Setting up drop3
I1020 07:14:38.120113 11720 net.cpp:157] Top shape: 100 260 5 5 (650000)
I1020 07:14:38.120115 11720 net.cpp:165] Memory required for data: 286663200
I1020 07:14:38.120117 11720 layer_factory.hpp:77] Creating layer pool3
I1020 07:14:38.120121 11720 net.cpp:100] Creating Layer pool3
I1020 07:14:38.120122 11720 net.cpp:434] pool3 <- drop3
I1020 07:14:38.120126 11720 net.cpp:408] pool3 -> pool3
I1020 07:14:38.120147 11720 net.cpp:150] Setting up pool3
I1020 07:14:38.120151 11720 net.cpp:157] Top shape: 100 260 3 3 (234000)
I1020 07:14:38.120153 11720 net.cpp:165] Memory required for data: 287599200
I1020 07:14:38.120156 11720 layer_factory.hpp:77] Creating layer conv6
I1020 07:14:38.120159 11720 net.cpp:100] Creating Layer conv6
I1020 07:14:38.120160 11720 net.cpp:434] conv6 <- pool3
I1020 07:14:38.120172 11720 net.cpp:408] conv6 -> conv6
I1020 07:14:38.121311 11720 net.cpp:150] Setting up conv6
I1020 07:14:38.121320 11720 net.cpp:157] Top shape: 100 260 3 3 (234000)
I1020 07:14:38.121321 11720 net.cpp:165] Memory required for data: 288535200
I1020 07:14:38.121326 11720 layer_factory.hpp:77] Creating layer relu6
I1020 07:14:38.121330 11720 net.cpp:100] Creating Layer relu6
I1020 07:14:38.121331 11720 net.cpp:434] relu6 <- conv6
I1020 07:14:38.121335 11720 net.cpp:408] relu6 -> relu6
I1020 07:14:38.121450 11720 net.cpp:150] Setting up relu6
I1020 07:14:38.121456 11720 net.cpp:157] Top shape: 100 260 3 3 (234000)
I1020 07:14:38.121457 11720 net.cpp:165] Memory required for data: 289471200
I1020 07:14:38.121459 11720 layer_factory.hpp:77] Creating layer conv7
I1020 07:14:38.121464 11720 net.cpp:100] Creating Layer conv7
I1020 07:14:38.121466 11720 net.cpp:434] conv7 <- relu6
I1020 07:14:38.121470 11720 net.cpp:408] conv7 -> conv7
I1020 07:14:38.123395 11720 net.cpp:150] Setting up conv7
I1020 07:14:38.123404 11720 net.cpp:157] Top shape: 100 280 2 2 (112000)
I1020 07:14:38.123406 11720 net.cpp:165] Memory required for data: 289919200
I1020 07:14:38.123409 11720 layer_factory.hpp:77] Creating layer relu7
I1020 07:14:38.123414 11720 net.cpp:100] Creating Layer relu7
I1020 07:14:38.123415 11720 net.cpp:434] relu7 <- conv7
I1020 07:14:38.123419 11720 net.cpp:408] relu7 -> relu7
I1020 07:14:38.123534 11720 net.cpp:150] Setting up relu7
I1020 07:14:38.123540 11720 net.cpp:157] Top shape: 100 280 2 2 (112000)
I1020 07:14:38.123543 11720 net.cpp:165] Memory required for data: 290367200
I1020 07:14:38.123544 11720 layer_factory.hpp:77] Creating layer drop4
I1020 07:14:38.123548 11720 net.cpp:100] Creating Layer drop4
I1020 07:14:38.123548 11720 net.cpp:434] drop4 <- relu7
I1020 07:14:38.123553 11720 net.cpp:408] drop4 -> drop4
I1020 07:14:38.123575 11720 net.cpp:150] Setting up drop4
I1020 07:14:38.123579 11720 net.cpp:157] Top shape: 100 280 2 2 (112000)
I1020 07:14:38.123581 11720 net.cpp:165] Memory required for data: 290815200
I1020 07:14:38.123584 11720 layer_factory.hpp:77] Creating layer pool4
I1020 07:14:38.123586 11720 net.cpp:100] Creating Layer pool4
I1020 07:14:38.123589 11720 net.cpp:434] pool4 <- drop4
I1020 07:14:38.123591 11720 net.cpp:408] pool4 -> pool4
I1020 07:14:38.123616 11720 net.cpp:150] Setting up pool4
I1020 07:14:38.123620 11720 net.cpp:157] Top shape: 100 280 1 1 (28000)
I1020 07:14:38.123621 11720 net.cpp:165] Memory required for data: 290927200
I1020 07:14:38.123623 11720 layer_factory.hpp:77] Creating layer conv8
I1020 07:14:38.123627 11720 net.cpp:100] Creating Layer conv8
I1020 07:14:38.123630 11720 net.cpp:434] conv8 <- pool4
I1020 07:14:38.123632 11720 net.cpp:408] conv8 -> conv8
I1020 07:14:38.124608 11720 net.cpp:150] Setting up conv8
I1020 07:14:38.124617 11720 net.cpp:157] Top shape: 100 280 1 1 (28000)
I1020 07:14:38.124619 11720 net.cpp:165] Memory required for data: 291039200
I1020 07:14:38.124624 11720 layer_factory.hpp:77] Creating layer relu8
I1020 07:14:38.124626 11720 net.cpp:100] Creating Layer relu8
I1020 07:14:38.124629 11720 net.cpp:434] relu8 <- conv8
I1020 07:14:38.124632 11720 net.cpp:408] relu8 -> relu8
I1020 07:14:38.124826 11720 net.cpp:150] Setting up relu8
I1020 07:14:38.124833 11720 net.cpp:157] Top shape: 100 280 1 1 (28000)
I1020 07:14:38.124835 11720 net.cpp:165] Memory required for data: 291151200
I1020 07:14:38.124837 11720 layer_factory.hpp:77] Creating layer drop5
I1020 07:14:38.124841 11720 net.cpp:100] Creating Layer drop5
I1020 07:14:38.124842 11720 net.cpp:434] drop5 <- relu8
I1020 07:14:38.124846 11720 net.cpp:408] drop5 -> drop5
I1020 07:14:38.124874 11720 net.cpp:150] Setting up drop5
I1020 07:14:38.124878 11720 net.cpp:157] Top shape: 100 280 1 1 (28000)
I1020 07:14:38.124879 11720 net.cpp:165] Memory required for data: 291263200
I1020 07:14:38.124881 11720 layer_factory.hpp:77] Creating layer pool5
I1020 07:14:38.124886 11720 net.cpp:100] Creating Layer pool5
I1020 07:14:38.124887 11720 net.cpp:434] pool5 <- drop5
I1020 07:14:38.124900 11720 net.cpp:408] pool5 -> pool5
I1020 07:14:38.124933 11720 net.cpp:150] Setting up pool5
I1020 07:14:38.124938 11720 net.cpp:157] Top shape: 100 280 1 1 (28000)
I1020 07:14:38.124938 11720 net.cpp:165] Memory required for data: 291375200
I1020 07:14:38.124940 11720 layer_factory.hpp:77] Creating layer conv10
I1020 07:14:38.124945 11720 net.cpp:100] Creating Layer conv10
I1020 07:14:38.124948 11720 net.cpp:434] conv10 <- pool5
I1020 07:14:38.124950 11720 net.cpp:408] conv10 -> conv10
I1020 07:14:38.126463 11720 net.cpp:150] Setting up conv10
I1020 07:14:38.126472 11720 net.cpp:157] Top shape: 100 300 1 1 (30000)
I1020 07:14:38.126474 11720 net.cpp:165] Memory required for data: 291495200
I1020 07:14:38.126480 11720 layer_factory.hpp:77] Creating layer relu10
I1020 07:14:38.126483 11720 net.cpp:100] Creating Layer relu10
I1020 07:14:38.126487 11720 net.cpp:434] relu10 <- conv10
I1020 07:14:38.126489 11720 net.cpp:408] relu10 -> relu10
I1020 07:14:38.126605 11720 net.cpp:150] Setting up relu10
I1020 07:14:38.126610 11720 net.cpp:157] Top shape: 100 300 1 1 (30000)
I1020 07:14:38.126612 11720 net.cpp:165] Memory required for data: 291615200
I1020 07:14:38.126615 11720 layer_factory.hpp:77] Creating layer drop6
I1020 07:14:38.126617 11720 net.cpp:100] Creating Layer drop6
I1020 07:14:38.126619 11720 net.cpp:434] drop6 <- relu10
I1020 07:14:38.126622 11720 net.cpp:408] drop6 -> drop6
I1020 07:14:38.126648 11720 net.cpp:150] Setting up drop6
I1020 07:14:38.126652 11720 net.cpp:157] Top shape: 100 300 1 1 (30000)
I1020 07:14:38.126654 11720 net.cpp:165] Memory required for data: 291735200
I1020 07:14:38.126658 11720 layer_factory.hpp:77] Creating layer pool6
I1020 07:14:38.126665 11720 net.cpp:100] Creating Layer pool6
I1020 07:14:38.126668 11720 net.cpp:434] pool6 <- drop6
I1020 07:14:38.126672 11720 net.cpp:408] pool6 -> pool6
I1020 07:14:38.126700 11720 net.cpp:150] Setting up pool6
I1020 07:14:38.126704 11720 net.cpp:157] Top shape: 100 300 1 1 (30000)
I1020 07:14:38.126708 11720 net.cpp:165] Memory required for data: 291855200
I1020 07:14:38.126710 11720 layer_factory.hpp:77] Creating layer conv11
I1020 07:14:38.126718 11720 net.cpp:100] Creating Layer conv11
I1020 07:14:38.126721 11720 net.cpp:434] conv11 <- pool6
I1020 07:14:38.126725 11720 net.cpp:408] conv11 -> conv11
I1020 07:14:38.127467 11720 net.cpp:150] Setting up conv11
I1020 07:14:38.127476 11720 net.cpp:157] Top shape: 100 100 1 1 (10000)
I1020 07:14:38.127480 11720 net.cpp:165] Memory required for data: 291895200
I1020 07:14:38.127487 11720 layer_factory.hpp:77] Creating layer relu11
I1020 07:14:38.127491 11720 net.cpp:100] Creating Layer relu11
I1020 07:14:38.127496 11720 net.cpp:434] relu11 <- conv11
I1020 07:14:38.127501 11720 net.cpp:408] relu11 -> relu11
I1020 07:14:38.127616 11720 net.cpp:150] Setting up relu11
I1020 07:14:38.127621 11720 net.cpp:157] Top shape: 100 100 1 1 (10000)
I1020 07:14:38.127625 11720 net.cpp:165] Memory required for data: 291935200
I1020 07:14:38.127629 11720 layer_factory.hpp:77] Creating layer drop7
I1020 07:14:38.127634 11720 net.cpp:100] Creating Layer drop7
I1020 07:14:38.127637 11720 net.cpp:434] drop7 <- relu11
I1020 07:14:38.127642 11720 net.cpp:408] drop7 -> drop7
I1020 07:14:38.127671 11720 net.cpp:150] Setting up drop7
I1020 07:14:38.127674 11720 net.cpp:157] Top shape: 100 100 1 1 (10000)
I1020 07:14:38.127677 11720 net.cpp:165] Memory required for data: 291975200
I1020 07:14:38.127681 11720 layer_factory.hpp:77] Creating layer pool7
I1020 07:14:38.127686 11720 net.cpp:100] Creating Layer pool7
I1020 07:14:38.127688 11720 net.cpp:434] pool7 <- drop7
I1020 07:14:38.127691 11720 net.cpp:408] pool7 -> pool7
I1020 07:14:38.127718 11720 net.cpp:150] Setting up pool7
I1020 07:14:38.127722 11720 net.cpp:157] Top shape: 100 100 1 1 (10000)
I1020 07:14:38.127725 11720 net.cpp:165] Memory required for data: 292015200
I1020 07:14:38.127728 11720 layer_factory.hpp:77] Creating layer pool7_pool7_0_split
I1020 07:14:38.127733 11720 net.cpp:100] Creating Layer pool7_pool7_0_split
I1020 07:14:38.127737 11720 net.cpp:434] pool7_pool7_0_split <- pool7
I1020 07:14:38.127748 11720 net.cpp:408] pool7_pool7_0_split -> pool7_pool7_0_split_0
I1020 07:14:38.127755 11720 net.cpp:408] pool7_pool7_0_split -> pool7_pool7_0_split_1
I1020 07:14:38.127781 11720 net.cpp:150] Setting up pool7_pool7_0_split
I1020 07:14:38.127785 11720 net.cpp:157] Top shape: 100 100 1 1 (10000)
I1020 07:14:38.127790 11720 net.cpp:157] Top shape: 100 100 1 1 (10000)
I1020 07:14:38.127794 11720 net.cpp:165] Memory required for data: 292095200
I1020 07:14:38.127796 11720 layer_factory.hpp:77] Creating layer ip_c
I1020 07:14:38.127801 11720 net.cpp:100] Creating Layer ip_c
I1020 07:14:38.127804 11720 net.cpp:434] ip_c <- pool7_pool7_0_split_0
I1020 07:14:38.127807 11720 net.cpp:408] ip_c -> ip_c
I1020 07:14:38.127888 11720 net.cpp:150] Setting up ip_c
I1020 07:14:38.127892 11720 net.cpp:157] Top shape: 100 20 (2000)
I1020 07:14:38.127893 11720 net.cpp:165] Memory required for data: 292103200
I1020 07:14:38.127898 11720 layer_factory.hpp:77] Creating layer ip_c_ip_c_0_split
I1020 07:14:38.127902 11720 net.cpp:100] Creating Layer ip_c_ip_c_0_split
I1020 07:14:38.127905 11720 net.cpp:434] ip_c_ip_c_0_split <- ip_c
I1020 07:14:38.127908 11720 net.cpp:408] ip_c_ip_c_0_split -> ip_c_ip_c_0_split_0
I1020 07:14:38.127912 11720 net.cpp:408] ip_c_ip_c_0_split -> ip_c_ip_c_0_split_1
I1020 07:14:38.127936 11720 net.cpp:150] Setting up ip_c_ip_c_0_split
I1020 07:14:38.127939 11720 net.cpp:157] Top shape: 100 20 (2000)
I1020 07:14:38.127941 11720 net.cpp:157] Top shape: 100 20 (2000)
I1020 07:14:38.127943 11720 net.cpp:165] Memory required for data: 292119200
I1020 07:14:38.127945 11720 layer_factory.hpp:77] Creating layer accuracy_f
I1020 07:14:38.127948 11720 net.cpp:100] Creating Layer accuracy_f
I1020 07:14:38.127951 11720 net.cpp:434] accuracy_f <- ip_c_ip_c_0_split_0
I1020 07:14:38.127954 11720 net.cpp:434] accuracy_f <- label_coarse_data_1_split_0
I1020 07:14:38.127957 11720 net.cpp:408] accuracy_f -> accuracy_f
…
