…
train_state {
  level: 0
  stage: ""
}
type: "SGD"
I1020 07:28:55.113361 11776 solver.cpp:81] Creating training net from train_net file: /home/adam/Honours/Honours-Project/cifar-100_pooling/max/relu/poolcnn_relu_train.prototxt
I1020 07:28:55.113656 11776 net.cpp:58] Initializing net from parameters: 
state {
  phase: TRAIN
  level: 0
  stage: ""
}
layer {
  name: "data"
  type: "HDF5Data"
  top: "data"
  top: "label_coarse"
  top: "label_fine"
  hdf5_data_param {
    source: "../../../../data/cifar-100/cifar_100_caffe_hdf5/train.txt"
    batch_size: 64
  }
}
layer {
  name: "conv1"
  type: "Convolution"
  bottom: "data"
  top: "conv1"
  convolution_param {
    num_output: 192
    kernel_size: 5
    weight_filler {
      type: "xavier"
    }
  }
}
layer {
  name: "relu1"
  type: "ReLU"
  bottom: "conv1"
  top: "relu1"
}
layer {
  name: "drop1"
  type: "Dropout"
  bottom: "relu1"
  top: "drop1"
  dropout_param {
    dropout_ratio: 0
  }
}
layer {
  name: "pool1"
  type: "Pooling"
  bottom: "drop1"
  top: "pool1"
  pooling_param {
    pool: MAX
    kernel_size: 2
    stride: 2
  }
}
layer {
  name: "conv2"
  type: "Convolution"
  bottom: "pool1"
  top: "conv2"
  convolution_param {
    num_output: 192
    kernel_size: 1
    weight_filler {
      type: "xavier"
    }
  }
}
layer {
  name: "relu2"
  type: "ReLU"
  bottom: "conv2"
  top: "relu2"
}
layer {
  name: "conv3"
  type: "Convolution"
  bottom: "relu2"
  top: "conv3"
  convolution_param {
    num_output: 240
    kernel_size: 3
    weight_filler {
      type: "xavier"
    }
  }
}
layer {
  name: "relu3"
  type: "ReLU"
  bottom: "conv3"
  top: "relu3"
}
layer {
  name: "drop2"
  type: "Dropout"
  bottom: "relu3"
  top: "drop2"
  dropout_param {
    dropout_ratio: 0.1
  }
}
layer {
  name: "pool2"
  type: "Pooling"
  bottom: "drop2"
  top: "pool2"
  pooling_param {
    pool: MAX
    kernel_size: 2
    stride: 2
  }
}
layer {
  name: "conv4"
  type: "Convolution"
  bottom: "pool2"
  top: "conv4"
  convolution_param {
    num_output: 240
    kernel_size: 1
    weight_filler {
      type: "xavier"
    }
  }
}
layer {
  name: "relu4"
  type: "ReLU"
  bottom: "conv4"
  top: "relu4"
}
layer {
  name: "conv5"
  type: "Convolution"
  bottom: "relu4"
  top: "conv5"
  convolution_param {
    num_output: 260
    kernel_size: 2
    weight_filler {
      type: "xavier"
    }
  }
}
layer {
  name: "relu5"
  type: "ReLU"
  bottom: "conv5"
  top: "relu5"
}
layer {
  name: "drop3"
  type: "Dropout"
  bottom: "relu5"
  top: "drop3"
  dropout_param {
    dropout_ratio: 0.2
  }
}
layer {
  name: "pool3"
  type: "Pooling"
  bottom: "drop3"
  top: "pool3"
  pooling_param {
    pool: MAX
    kernel_size: 2
    stride: 2
  }
}
layer {
  name: "conv6"
  type: "Convolution"
  bottom: "pool3"
  top: "conv6"
  convolution_param {
    num_output: 260
    kernel_size: 1
    weight_filler {
      type: "xavier"
    }
  }
}
layer {
  name: "relu6"
  type: "ReLU"
  bottom: "conv6"
  top: "relu6"
}
layer {
  name: "conv7"
  type: "Convolution"
  bottom: "relu6"
  top: "conv7"
  convolution_param {
    num_output: 280
    kernel_size: 2
    weight_filler {
      type: "xavier"
    }
  }
}
layer {
  name: "relu7"
  type: "ReLU"
  bottom: "conv7"
  top: "relu7"
}
layer {
  name: "drop4"
  type: "Dropout"
  bottom: "relu7"
  top: "drop4"
  dropout_param {
    dropout_ratio: 0.3
  }
}
layer {
  name: "pool4"
  type: "Pooling"
  bottom: "drop4"
  top: "pool4"
  pooling_param {
    pool: MAX
    kernel_size: 2
    stride: 2
  }
}
layer {
  name: "conv8"
  type: "Convolution"
  bottom: "pool4"
  top: "conv8"
  convolution_param {
    num_output: 280
    kernel_size: 1
    weight_filler {
      type: "xavier"
    }
  }
}
layer {
  name: "relu8"
  type: "ReLU"
  bottom: "conv8"
  top: "relu8"
}
layer {
  name: "drop5"
  type: "Dropout"
  bottom: "relu8"
  top: "drop5"
  dropout_param {
    dropout_ratio: 0.4
  }
}
layer {
  name: "pool5"
  type: "Pooling"
  bottom: "drop5"
  top: "pool5"
  pooling_param {
    pool: MAX
    kernel_size: 2
    stride: 2
  }
}
layer {
  name: "conv10"
  type: "Convolution"
  bottom: "pool5"
  top: "conv10"
  convolution_param {
    num_output: 300
    kernel_size: 1
    weight_filler {
      type: "xavier"
    }
  }
}
layer {
  name: "relu10"
  type: "ReLU"
  bottom: "conv10"
  top: "relu10"
}
layer {
  name: "drop6"
  type: "Dropout"
  bottom: "relu10"
  top: "drop6"
  dropout_param {
    dropout_ratio: 0.5
  }
}
layer {
  name: "pool6"
  type: "Pooling"
  bottom: "drop6"
  top: "pool6"
  pooling_param {
    pool: MAX
    kernel_size: 2
    stride: 2
  }
}
layer {
  name: "conv11"
  type: "Convolution"
  bottom: "pool6"
  top: "conv11"
  convolution_param {
    num_output: 100
    kernel_size: 1
    weight_filler {
      type: "xavier"
    }
  }
}
layer {
  name: "relu11"
  type: "ReLU"
  bottom: "conv11"
  top: "relu11"
}
layer {
  name: "drop7"
  type: "Dropout"
  bottom: "relu11"
  top: "drop7"
  dropout_param {
    dropout_ratio: 0
  }
}
layer {
  name: "pool7"
  type: "Pooling"
  bottom: "drop7"
  top: "pool7"
  pooling_param {
    pool: MAX
    kernel_size: 2
    stride: 2
  }
}
layer {
  name: "ip_c"
  type: "InnerProduct"
  bottom: "pool7"
  top: "ip_c"
  inner_product_param {
    num_output: 20
    weight_filler {
      type: "xavier"
    }
  }
}
layer {
  name: "accuracy_f"
  type: "Accuracy"
  bottom: "ip_c"
  bottom: "label_coarse"
  top: "accuracy_f"
}
layer {
  name: "loss_c"
  type: "SoftmaxWithLoss"
  bottom: "ip_c"
  bottom: "label_coarse"
  top: "loss_c"
}
layer {
  name: "ip_f"
  type: "InnerProduct"
  bottom: "pool7"
  top: "ip_f"
  inner_product_param {
    num_output: 100
    weight_filler {
      type: "xavier"
    }
  }
}
layer {
  name: "accuracy"
  type: "Accuracy"
  bottom: "ip_f"
  bottom: "label_fine"
  top: "accuracy"
}
layer {
  name: "loss_f"
  type: "SoftmaxWithLoss"
  bottom: "ip_f"
  bottom: "label_fine"
  top: "loss_f"
}
I1020 07:28:55.113798 11776 layer_factory.hpp:77] Creating layer data
I1020 07:28:55.113809 11776 net.cpp:100] Creating Layer data
I1020 07:28:55.113814 11776 net.cpp:408] data -> data
I1020 07:28:55.113831 11776 net.cpp:408] data -> label_coarse
I1020 07:28:55.113837 11776 net.cpp:408] data -> label_fine
I1020 07:28:55.113847 11776 hdf5_data_layer.cpp:79] Loading list of HDF5 filenames from: ../../../../data/cifar-100/cifar_100_caffe_hdf5/train.txt
I1020 07:28:55.113867 11776 hdf5_data_layer.cpp:93] Number of HDF5 files: 1
I1020 07:28:55.114478 11776 hdf5.cpp:35] Datatype class: H5T_INTEGER
I1020 07:28:56.692767 11776 net.cpp:150] Setting up data
I1020 07:28:56.692793 11776 net.cpp:157] Top shape: 64 3 32 32 (196608)
I1020 07:28:56.692796 11776 net.cpp:157] Top shape: 64 (64)
I1020 07:28:56.692798 11776 net.cpp:157] Top shape: 64 (64)
I1020 07:28:56.692800 11776 net.cpp:165] Memory required for data: 786944
I1020 07:28:56.692806 11776 layer_factory.hpp:77] Creating layer label_coarse_data_1_split
I1020 07:28:56.692814 11776 net.cpp:100] Creating Layer label_coarse_data_1_split
I1020 07:28:56.692818 11776 net.cpp:434] label_coarse_data_1_split <- label_coarse
I1020 07:28:56.692829 11776 net.cpp:408] label_coarse_data_1_split -> label_coarse_data_1_split_0
I1020 07:28:56.692837 11776 net.cpp:408] label_coarse_data_1_split -> label_coarse_data_1_split_1
I1020 07:28:56.692859 11776 net.cpp:150] Setting up label_coarse_data_1_split
I1020 07:28:56.692862 11776 net.cpp:157] Top shape: 64 (64)
I1020 07:28:56.692864 11776 net.cpp:157] Top shape: 64 (64)
I1020 07:28:56.692867 11776 net.cpp:165] Memory required for data: 787456
I1020 07:28:56.692868 11776 layer_factory.hpp:77] Creating layer label_fine_data_2_split
I1020 07:28:56.692884 11776 net.cpp:100] Creating Layer label_fine_data_2_split
I1020 07:28:56.692886 11776 net.cpp:434] label_fine_data_2_split <- label_fine
I1020 07:28:56.692889 11776 net.cpp:408] label_fine_data_2_split -> label_fine_data_2_split_0
I1020 07:28:56.692893 11776 net.cpp:408] label_fine_data_2_split -> label_fine_data_2_split_1
I1020 07:28:56.692910 11776 net.cpp:150] Setting up label_fine_data_2_split
I1020 07:28:56.692914 11776 net.cpp:157] Top shape: 64 (64)
I1020 07:28:56.692916 11776 net.cpp:157] Top shape: 64 (64)
I1020 07:28:56.692919 11776 net.cpp:165] Memory required for data: 787968
I1020 07:28:56.692919 11776 layer_factory.hpp:77] Creating layer conv1
I1020 07:28:56.692930 11776 net.cpp:100] Creating Layer conv1
I1020 07:28:56.692934 11776 net.cpp:434] conv1 <- data
I1020 07:28:56.692936 11776 net.cpp:408] conv1 -> conv1
I1020 07:28:56.810928 11776 net.cpp:150] Setting up conv1
I1020 07:28:56.810957 11776 net.cpp:157] Top shape: 64 192 28 28 (9633792)
I1020 07:28:56.810959 11776 net.cpp:165] Memory required for data: 39323136
I1020 07:28:56.810981 11776 layer_factory.hpp:77] Creating layer relu1
I1020 07:28:56.810992 11776 net.cpp:100] Creating Layer relu1
I1020 07:28:56.810994 11776 net.cpp:434] relu1 <- conv1
I1020 07:28:56.810999 11776 net.cpp:408] relu1 -> relu1
I1020 07:28:56.811131 11776 net.cpp:150] Setting up relu1
I1020 07:28:56.811137 11776 net.cpp:157] Top shape: 64 192 28 28 (9633792)
I1020 07:28:56.811139 11776 net.cpp:165] Memory required for data: 77858304
I1020 07:28:56.811141 11776 layer_factory.hpp:77] Creating layer drop1
I1020 07:28:56.811146 11776 net.cpp:100] Creating Layer drop1
I1020 07:28:56.811149 11776 net.cpp:434] drop1 <- relu1
I1020 07:28:56.811152 11776 net.cpp:408] drop1 -> drop1
I1020 07:28:56.811177 11776 net.cpp:150] Setting up drop1
I1020 07:28:56.811182 11776 net.cpp:157] Top shape: 64 192 28 28 (9633792)
I1020 07:28:56.811183 11776 net.cpp:165] Memory required for data: 116393472
I1020 07:28:56.811185 11776 layer_factory.hpp:77] Creating layer pool1
I1020 07:28:56.811189 11776 net.cpp:100] Creating Layer pool1
I1020 07:28:56.811192 11776 net.cpp:434] pool1 <- drop1
I1020 07:28:56.811194 11776 net.cpp:408] pool1 -> pool1
I1020 07:28:56.811224 11776 net.cpp:150] Setting up pool1
I1020 07:28:56.811228 11776 net.cpp:157] Top shape: 64 192 14 14 (2408448)
I1020 07:28:56.811230 11776 net.cpp:165] Memory required for data: 126027264
I1020 07:28:56.811231 11776 layer_factory.hpp:77] Creating layer conv2
I1020 07:28:56.811239 11776 net.cpp:100] Creating Layer conv2
I1020 07:28:56.811244 11776 net.cpp:434] conv2 <- pool1
I1020 07:28:56.811247 11776 net.cpp:408] conv2 -> conv2
I1020 07:28:56.812098 11776 net.cpp:150] Setting up conv2
I1020 07:28:56.812105 11776 net.cpp:157] Top shape: 64 192 14 14 (2408448)
I1020 07:28:56.812108 11776 net.cpp:165] Memory required for data: 135661056
I1020 07:28:56.812115 11776 layer_factory.hpp:77] Creating layer relu2
I1020 07:28:56.812121 11776 net.cpp:100] Creating Layer relu2
I1020 07:28:56.812124 11776 net.cpp:434] relu2 <- conv2
I1020 07:28:56.812129 11776 net.cpp:408] relu2 -> relu2
I1020 07:28:56.812250 11776 net.cpp:150] Setting up relu2
I1020 07:28:56.812257 11776 net.cpp:157] Top shape: 64 192 14 14 (2408448)
I1020 07:28:56.812258 11776 net.cpp:165] Memory required for data: 145294848
I1020 07:28:56.812259 11776 layer_factory.hpp:77] Creating layer conv3
I1020 07:28:56.812264 11776 net.cpp:100] Creating Layer conv3
I1020 07:28:56.812268 11776 net.cpp:434] conv3 <- relu2
I1020 07:28:56.812273 11776 net.cpp:408] conv3 -> conv3
I1020 07:28:56.814730 11776 net.cpp:150] Setting up conv3
I1020 07:28:56.814739 11776 net.cpp:157] Top shape: 64 240 12 12 (2211840)
I1020 07:28:56.814741 11776 net.cpp:165] Memory required for data: 154142208
I1020 07:28:56.814748 11776 layer_factory.hpp:77] Creating layer relu3
I1020 07:28:56.814751 11776 net.cpp:100] Creating Layer relu3
I1020 07:28:56.814754 11776 net.cpp:434] relu3 <- conv3
I1020 07:28:56.814757 11776 net.cpp:408] relu3 -> relu3
I1020 07:28:56.814939 11776 net.cpp:150] Setting up relu3
I1020 07:28:56.814954 11776 net.cpp:157] Top shape: 64 240 12 12 (2211840)
I1020 07:28:56.814956 11776 net.cpp:165] Memory required for data: 162989568
I1020 07:28:56.814959 11776 layer_factory.hpp:77] Creating layer drop2
I1020 07:28:56.814962 11776 net.cpp:100] Creating Layer drop2
I1020 07:28:56.814965 11776 net.cpp:434] drop2 <- relu3
I1020 07:28:56.814967 11776 net.cpp:408] drop2 -> drop2
I1020 07:28:56.814991 11776 net.cpp:150] Setting up drop2
I1020 07:28:56.814996 11776 net.cpp:157] Top shape: 64 240 12 12 (2211840)
I1020 07:28:56.814997 11776 net.cpp:165] Memory required for data: 171836928
I1020 07:28:56.814999 11776 layer_factory.hpp:77] Creating layer pool2
I1020 07:28:56.815003 11776 net.cpp:100] Creating Layer pool2
I1020 07:28:56.815007 11776 net.cpp:434] pool2 <- drop2
I1020 07:28:56.815011 11776 net.cpp:408] pool2 -> pool2
I1020 07:28:56.815034 11776 net.cpp:150] Setting up pool2
I1020 07:28:56.815039 11776 net.cpp:157] Top shape: 64 240 6 6 (552960)
I1020 07:28:56.815040 11776 net.cpp:165] Memory required for data: 174048768
I1020 07:28:56.815042 11776 layer_factory.hpp:77] Creating layer conv4
I1020 07:28:56.815047 11776 net.cpp:100] Creating Layer conv4
I1020 07:28:56.815049 11776 net.cpp:434] conv4 <- pool2
I1020 07:28:56.815052 11776 net.cpp:408] conv4 -> conv4
I1020 07:28:56.815853 11776 net.cpp:150] Setting up conv4
I1020 07:28:56.815861 11776 net.cpp:157] Top shape: 64 240 6 6 (552960)
I1020 07:28:56.815865 11776 net.cpp:165] Memory required for data: 176260608
I1020 07:28:56.815871 11776 layer_factory.hpp:77] Creating layer relu4
I1020 07:28:56.815876 11776 net.cpp:100] Creating Layer relu4
I1020 07:28:56.815878 11776 net.cpp:434] relu4 <- conv4
I1020 07:28:56.815882 11776 net.cpp:408] relu4 -> relu4
I1020 07:28:56.815994 11776 net.cpp:150] Setting up relu4
I1020 07:28:56.815999 11776 net.cpp:157] Top shape: 64 240 6 6 (552960)
I1020 07:28:56.816001 11776 net.cpp:165] Memory required for data: 178472448
I1020 07:28:56.816004 11776 layer_factory.hpp:77] Creating layer conv5
I1020 07:28:56.816009 11776 net.cpp:100] Creating Layer conv5
I1020 07:28:56.816011 11776 net.cpp:434] conv5 <- relu4
I1020 07:28:56.816015 11776 net.cpp:408] conv5 -> conv5
I1020 07:28:56.817773 11776 net.cpp:150] Setting up conv5
I1020 07:28:56.817782 11776 net.cpp:157] Top shape: 64 260 5 5 (416000)
I1020 07:28:56.817785 11776 net.cpp:165] Memory required for data: 180136448
I1020 07:28:56.817793 11776 layer_factory.hpp:77] Creating layer relu5
I1020 07:28:56.817800 11776 net.cpp:100] Creating Layer relu5
I1020 07:28:56.817805 11776 net.cpp:434] relu5 <- conv5
I1020 07:28:56.817809 11776 net.cpp:408] relu5 -> relu5
I1020 07:28:56.817924 11776 net.cpp:150] Setting up relu5
I1020 07:28:56.817929 11776 net.cpp:157] Top shape: 64 260 5 5 (416000)
I1020 07:28:56.817932 11776 net.cpp:165] Memory required for data: 181800448
I1020 07:28:56.817934 11776 layer_factory.hpp:77] Creating layer drop3
I1020 07:28:56.817937 11776 net.cpp:100] Creating Layer drop3
I1020 07:28:56.817940 11776 net.cpp:434] drop3 <- relu5
I1020 07:28:56.817945 11776 net.cpp:408] drop3 -> drop3
I1020 07:28:56.817966 11776 net.cpp:150] Setting up drop3
I1020 07:28:56.817971 11776 net.cpp:157] Top shape: 64 260 5 5 (416000)
I1020 07:28:56.817973 11776 net.cpp:165] Memory required for data: 183464448
I1020 07:28:56.817975 11776 layer_factory.hpp:77] Creating layer pool3
I1020 07:28:56.817980 11776 net.cpp:100] Creating Layer pool3
I1020 07:28:56.817981 11776 net.cpp:434] pool3 <- drop3
I1020 07:28:56.817983 11776 net.cpp:408] pool3 -> pool3
I1020 07:28:56.818006 11776 net.cpp:150] Setting up pool3
I1020 07:28:56.818009 11776 net.cpp:157] Top shape: 64 260 3 3 (149760)
I1020 07:28:56.818011 11776 net.cpp:165] Memory required for data: 184063488
I1020 07:28:56.818013 11776 layer_factory.hpp:77] Creating layer conv6
I1020 07:28:56.818020 11776 net.cpp:100] Creating Layer conv6
I1020 07:28:56.818023 11776 net.cpp:434] conv6 <- pool3
I1020 07:28:56.818027 11776 net.cpp:408] conv6 -> conv6
I1020 07:28:56.819116 11776 net.cpp:150] Setting up conv6
I1020 07:28:56.819133 11776 net.cpp:157] Top shape: 64 260 3 3 (149760)
I1020 07:28:56.819135 11776 net.cpp:165] Memory required for data: 184662528
I1020 07:28:56.819139 11776 layer_factory.hpp:77] Creating layer relu6
I1020 07:28:56.819144 11776 net.cpp:100] Creating Layer relu6
I1020 07:28:56.819147 11776 net.cpp:434] relu6 <- conv6
I1020 07:28:56.819150 11776 net.cpp:408] relu6 -> relu6
I1020 07:28:56.819340 11776 net.cpp:150] Setting up relu6
I1020 07:28:56.819347 11776 net.cpp:157] Top shape: 64 260 3 3 (149760)
I1020 07:28:56.819350 11776 net.cpp:165] Memory required for data: 185261568
I1020 07:28:56.819352 11776 layer_factory.hpp:77] Creating layer conv7
I1020 07:28:56.819357 11776 net.cpp:100] Creating Layer conv7
I1020 07:28:56.819360 11776 net.cpp:434] conv7 <- relu6
I1020 07:28:56.819365 11776 net.cpp:408] conv7 -> conv7
I1020 07:28:56.821279 11776 net.cpp:150] Setting up conv7
I1020 07:28:56.821287 11776 net.cpp:157] Top shape: 64 280 2 2 (71680)
I1020 07:28:56.821291 11776 net.cpp:165] Memory required for data: 185548288
I1020 07:28:56.821297 11776 layer_factory.hpp:77] Creating layer relu7
I1020 07:28:56.821302 11776 net.cpp:100] Creating Layer relu7
I1020 07:28:56.821306 11776 net.cpp:434] relu7 <- conv7
I1020 07:28:56.821313 11776 net.cpp:408] relu7 -> relu7
I1020 07:28:56.821429 11776 net.cpp:150] Setting up relu7
I1020 07:28:56.821434 11776 net.cpp:157] Top shape: 64 280 2 2 (71680)
I1020 07:28:56.821439 11776 net.cpp:165] Memory required for data: 185835008
I1020 07:28:56.821440 11776 layer_factory.hpp:77] Creating layer drop4
I1020 07:28:56.821447 11776 net.cpp:100] Creating Layer drop4
I1020 07:28:56.821450 11776 net.cpp:434] drop4 <- relu7
I1020 07:28:56.821455 11776 net.cpp:408] drop4 -> drop4
I1020 07:28:56.821480 11776 net.cpp:150] Setting up drop4
I1020 07:28:56.821485 11776 net.cpp:157] Top shape: 64 280 2 2 (71680)
I1020 07:28:56.821488 11776 net.cpp:165] Memory required for data: 186121728
I1020 07:28:56.821491 11776 layer_factory.hpp:77] Creating layer pool4
I1020 07:28:56.821496 11776 net.cpp:100] Creating Layer pool4
I1020 07:28:56.821499 11776 net.cpp:434] pool4 <- drop4
I1020 07:28:56.821504 11776 net.cpp:408] pool4 -> pool4
I1020 07:28:56.821528 11776 net.cpp:150] Setting up pool4
I1020 07:28:56.821533 11776 net.cpp:157] Top shape: 64 280 1 1 (17920)
I1020 07:28:56.821537 11776 net.cpp:165] Memory required for data: 186193408
I1020 07:28:56.821539 11776 layer_factory.hpp:77] Creating layer conv8
I1020 07:28:56.821545 11776 net.cpp:100] Creating Layer conv8
I1020 07:28:56.821548 11776 net.cpp:434] conv8 <- pool4
I1020 07:28:56.821553 11776 net.cpp:408] conv8 -> conv8
I1020 07:28:56.822532 11776 net.cpp:150] Setting up conv8
I1020 07:28:56.822540 11776 net.cpp:157] Top shape: 64 280 1 1 (17920)
I1020 07:28:56.822542 11776 net.cpp:165] Memory required for data: 186265088
I1020 07:28:56.822547 11776 layer_factory.hpp:77] Creating layer relu8
I1020 07:28:56.822554 11776 net.cpp:100] Creating Layer relu8
I1020 07:28:56.822557 11776 net.cpp:434] relu8 <- conv8
I1020 07:28:56.822563 11776 net.cpp:408] relu8 -> relu8
I1020 07:28:56.822685 11776 net.cpp:150] Setting up relu8
I1020 07:28:56.822690 11776 net.cpp:157] Top shape: 64 280 1 1 (17920)
I1020 07:28:56.822692 11776 net.cpp:165] Memory required for data: 186336768
I1020 07:28:56.822695 11776 layer_factory.hpp:77] Creating layer drop5
I1020 07:28:56.822700 11776 net.cpp:100] Creating Layer drop5
I1020 07:28:56.822703 11776 net.cpp:434] drop5 <- relu8
I1020 07:28:56.822706 11776 net.cpp:408] drop5 -> drop5
I1020 07:28:56.822732 11776 net.cpp:150] Setting up drop5
I1020 07:28:56.822736 11776 net.cpp:157] Top shape: 64 280 1 1 (17920)
I1020 07:28:56.822738 11776 net.cpp:165] Memory required for data: 186408448
I1020 07:28:56.822741 11776 layer_factory.hpp:77] Creating layer pool5
I1020 07:28:56.822744 11776 net.cpp:100] Creating Layer pool5
I1020 07:28:56.822746 11776 net.cpp:434] pool5 <- drop5
I1020 07:28:56.822751 11776 net.cpp:408] pool5 -> pool5
I1020 07:28:56.822777 11776 net.cpp:150] Setting up pool5
I1020 07:28:56.822782 11776 net.cpp:157] Top shape: 64 280 1 1 (17920)
I1020 07:28:56.822794 11776 net.cpp:165] Memory required for data: 186480128
I1020 07:28:56.822796 11776 layer_factory.hpp:77] Creating layer conv10
I1020 07:28:56.822800 11776 net.cpp:100] Creating Layer conv10
I1020 07:28:56.822803 11776 net.cpp:434] conv10 <- pool5
I1020 07:28:56.822808 11776 net.cpp:408] conv10 -> conv10
I1020 07:28:56.823796 11776 net.cpp:150] Setting up conv10
I1020 07:28:56.823803 11776 net.cpp:157] Top shape: 64 300 1 1 (19200)
I1020 07:28:56.823806 11776 net.cpp:165] Memory required for data: 186556928
I1020 07:28:56.823813 11776 layer_factory.hpp:77] Creating layer relu10
I1020 07:28:56.823817 11776 net.cpp:100] Creating Layer relu10
I1020 07:28:56.823820 11776 net.cpp:434] relu10 <- conv10
I1020 07:28:56.823825 11776 net.cpp:408] relu10 -> relu10
I1020 07:28:56.824018 11776 net.cpp:150] Setting up relu10
I1020 07:28:56.824024 11776 net.cpp:157] Top shape: 64 300 1 1 (19200)
I1020 07:28:56.824026 11776 net.cpp:165] Memory required for data: 186633728
I1020 07:28:56.824028 11776 layer_factory.hpp:77] Creating layer drop6
I1020 07:28:56.824031 11776 net.cpp:100] Creating Layer drop6
I1020 07:28:56.824033 11776 net.cpp:434] drop6 <- relu10
I1020 07:28:56.824038 11776 net.cpp:408] drop6 -> drop6
I1020 07:28:56.824061 11776 net.cpp:150] Setting up drop6
I1020 07:28:56.824065 11776 net.cpp:157] Top shape: 64 300 1 1 (19200)
I1020 07:28:56.824069 11776 net.cpp:165] Memory required for data: 186710528
I1020 07:28:56.824069 11776 layer_factory.hpp:77] Creating layer pool6
I1020 07:28:56.824075 11776 net.cpp:100] Creating Layer pool6
I1020 07:28:56.824077 11776 net.cpp:434] pool6 <- drop6
I1020 07:28:56.824080 11776 net.cpp:408] pool6 -> pool6
I1020 07:28:56.824105 11776 net.cpp:150] Setting up pool6
I1020 07:28:56.824110 11776 net.cpp:157] Top shape: 64 300 1 1 (19200)
I1020 07:28:56.824112 11776 net.cpp:165] Memory required for data: 186787328
I1020 07:28:56.824115 11776 layer_factory.hpp:77] Creating layer conv11
I1020 07:28:56.824123 11776 net.cpp:100] Creating Layer conv11
I1020 07:28:56.824126 11776 net.cpp:434] conv11 <- pool6
I1020 07:28:56.824131 11776 net.cpp:408] conv11 -> conv11
I1020 07:28:56.824873 11776 net.cpp:150] Setting up conv11
I1020 07:28:56.824882 11776 net.cpp:157] Top shape: 64 100 1 1 (6400)
I1020 07:28:56.824884 11776 net.cpp:165] Memory required for data: 186812928
I1020 07:28:56.824887 11776 layer_factory.hpp:77] Creating layer relu11
I1020 07:28:56.824892 11776 net.cpp:100] Creating Layer relu11
I1020 07:28:56.824894 11776 net.cpp:434] relu11 <- conv11
I1020 07:28:56.824898 11776 net.cpp:408] relu11 -> relu11
I1020 07:28:56.825014 11776 net.cpp:150] Setting up relu11
I1020 07:28:56.825021 11776 net.cpp:157] Top shape: 64 100 1 1 (6400)
I1020 07:28:56.825023 11776 net.cpp:165] Memory required for data: 186838528
I1020 07:28:56.825026 11776 layer_factory.hpp:77] Creating layer drop7
I1020 07:28:56.825028 11776 net.cpp:100] Creating Layer drop7
I1020 07:28:56.825032 11776 net.cpp:434] drop7 <- relu11
I1020 07:28:56.825037 11776 net.cpp:408] drop7 -> drop7
I1020 07:28:56.825063 11776 net.cpp:150] Setting up drop7
I1020 07:28:56.825067 11776 net.cpp:157] Top shape: 64 100 1 1 (6400)
I1020 07:28:56.825072 11776 net.cpp:165] Memory required for data: 186864128
I1020 07:28:56.825074 11776 layer_factory.hpp:77] Creating layer pool7
I1020 07:28:56.825079 11776 net.cpp:100] Creating Layer pool7
I1020 07:28:56.825083 11776 net.cpp:434] pool7 <- drop7
I1020 07:28:56.825088 11776 net.cpp:408] pool7 -> pool7
I1020 07:28:56.825112 11776 net.cpp:150] Setting up pool7
I1020 07:28:56.825116 11776 net.cpp:157] Top shape: 64 100 1 1 (6400)
I1020 07:28:56.825119 11776 net.cpp:165] Memory required for data: 186889728
I1020 07:28:56.825124 11776 layer_factory.hpp:77] Creating layer pool7_pool7_0_split
I1020 07:28:56.825129 11776 net.cpp:100] Creating Layer pool7_pool7_0_split
I1020 07:28:56.825132 11776 net.cpp:434] pool7_pool7_0_split <- pool7
I1020 07:28:56.825136 11776 net.cpp:408] pool7_pool7_0_split -> pool7_pool7_0_split_0
I1020 07:28:56.825142 11776 net.cpp:408] pool7_pool7_0_split -> pool7_pool7_0_split_1
I1020 07:28:56.825178 11776 net.cpp:150] Setting up pool7_pool7_0_split
I1020 07:28:56.825183 11776 net.cpp:157] Top shape: 64 100 1 1 (6400)
I1020 07:28:56.825188 11776 net.cpp:157] Top shape: 64 100 1 1 (6400)
I1020 07:28:56.825191 11776 net.cpp:165] Memory required for data: 186940928
I1020 07:28:56.825194 11776 layer_factory.hpp:77] Creating layer ip_c
I1020 07:28:56.825199 11776 net.cpp:100] Creating Layer ip_c
I1020 07:28:56.825202 11776 net.cpp:434] ip_c <- pool7_pool7_0_split_0
I1020 07:28:56.825206 11776 net.cpp:408] ip_c -> ip_c
I1020 07:28:56.825541 11776 net.cpp:150] Setting up ip_c
I1020 07:28:56.825546 11776 net.cpp:157] Top shape: 64 20 (1280)
I1020 07:28:56.825549 11776 net.cpp:165] Memory required for data: 186946048
I1020 07:28:56.825553 11776 layer_factory.hpp:77] Creating layer ip_c_ip_c_0_split
I1020 07:28:56.825557 11776 net.cpp:100] Creating Layer ip_c_ip_c_0_split
I1020 07:28:56.825559 11776 net.cpp:434] ip_c_ip_c_0_split <- ip_c
I1020 07:28:56.825562 11776 net.cpp:408] ip_c_ip_c_0_split -> ip_c_ip_c_0_split_0
I1020 07:28:56.825567 11776 net.cpp:408] ip_c_ip_c_0_split -> ip_c_ip_c_0_split_1
I1020 07:28:56.825590 11776 net.cpp:150] Setting up ip_c_ip_c_0_split
I1020 07:28:56.825593 11776 net.cpp:157] Top shape: 64 20 (1280)
I1020 07:28:56.825595 11776 net.cpp:157] Top shape: 64 20 (1280)
I1020 07:28:56.825598 11776 net.cpp:165] Memory required for data: 186956288
I1020 07:28:56.825599 11776 layer_factory.hpp:77] Creating layer accuracy_f
I1020 07:28:56.825603 11776 net.cpp:100] Creating Layer accuracy_f
I1020 07:28:56.825604 11776 net.cpp:434] accuracy_f <- ip_c_ip_c_0_split_0
I1020 07:28:56.825608 11776 net.cpp:434] accuracy_f <- label_coarse_data_1_split_0
I1020 07:28:56.825613 11776 net.cpp:408] accuracy_f -> accuracy_f
…
I1020 07:28:56.826453 11776 net.cpp:283] Network initialization done.
I1020 07:28:56.826645 11776 solver.cpp:181] Creating test net (#0) specified by test_net file: /home/adam/Honours/Honours-Project/cifar-100_pooling/max/relu/poolcnn_relu_test.prototxt
I1020 07:28:56.826792 11776 net.cpp:58] Initializing net from parameters: 
state {
  phase: TEST
}
layer {
  name: "data"
  type: "HDF5Data"
  top: "data"
  top: "label_coarse"
  top: "label_fine"
  hdf5_data_param {
    source: "../../../../data/cifar-100/cifar_100_caffe_hdf5/test.txt"
    batch_size: 100
  }
}
layer {
  name: "conv1"
  type: "Convolution"
  bottom: "data"
  top: "conv1"
  convolution_param {
    num_output: 192
    kernel_size: 5
    weight_filler {
      type: "xavier"
    }
  }
}
layer {
  name: "relu1"
  type: "ReLU"
  bottom: "conv1"
  top: "relu1"
}
layer {
  name: "drop1"
  type: "Dropout"
  bottom: "relu1"
  top: "drop1"
  dropout_param {
    dropout_ratio: 0
  }
}
layer {
  name: "pool1"
  type: "Pooling"
  bottom: "drop1"
  top: "pool1"
  pooling_param {
    pool: MAX
    kernel_size: 2
    stride: 2
  }
}
layer {
  name: "conv2"
  type: "Convolution"
  bottom: "pool1"
  top: "conv2"
  convolution_param {
    num_output: 192
    kernel_size: 1
    weight_filler {
      type: "xavier"
    }
  }
}
layer {
  name: "relu2"
  type: "ReLU"
  bottom: "conv2"
  top: "relu2"
}
layer {
  name: "conv3"
  type: "Convolution"
  bottom: "relu2"
  top: "conv3"
  convolution_param {
    num_output: 240
    kernel_size: 3
    weight_filler {
      type: "xavier"
    }
  }
}
layer {
  name: "relu3"
  type: "ReLU"
  bottom: "conv3"
  top: "relu3"
}
layer {
  name: "drop2"
  type: "Dropout"
  bottom: "relu3"
  top: "drop2"
  dropout_param {
    dropout_ratio: 0.1
  }
}
layer {
  name: "pool2"
  type: "Pooling"
  bottom: "drop2"
  top: "pool2"
  pooling_param {
    pool: MAX
    kernel_size: 2
    stride: 2
  }
}
layer {
  name: "conv4"
  type: "Convolution"
  bottom: "pool2"
  top: "conv4"
  convolution_param {
    num_output: 240
    kernel_size: 1
    weight_filler {
      type: "xavier"
    }
  }
}
layer {
  name: "relu4"
  type: "ReLU"
  bottom: "conv4"
  top: "relu4"
}
layer {
  name: "conv5"
  type: "Convolution"
  bottom: "relu4"
  top: "conv5"
  convolution_param {
    num_output: 260
    kernel_size: 2
    weight_filler {
      type: "xavier"
    }
  }
}
layer {
  name: "relu5"
  type: "ReLU"
  bottom: "conv5"
  top: "relu5"
}
layer {
  name: "drop3"
  type: "Dropout"
  bottom: "relu5"
  top: "drop3"
  dropout_param {
    dropout_ratio: 0.2
  }
}
layer {
  name: "pool3"
  type: "Pooling"
  bottom: "drop3"
  top: "pool3"
  pooling_param {
    pool: MAX
    kernel_size: 2
    stride: 2
  }
}
layer {
  name: "conv6"
  type: "Convolution"
  bottom: "pool3"
  top: "conv6"
  convolution_param {
    num_output: 260
    kernel_size: 1
    weight_filler {
      type: "xavier"
    }
  }
}
layer {
  name: "relu6"
  type: "ReLU"
  bottom: "conv6"
  top: "relu6"
}
layer {
  name: "conv7"
  type: "Convolution"
  bottom: "relu6"
  top: "conv7"
  convolution_param {
    num_output: 280
    kernel_size: 2
    weight_filler {
      type: "xavier"
    }
  }
}
layer {
  name: "relu7"
  type: "ReLU"
  bottom: "conv7"
  top: "relu7"
}
layer {
  name: "drop4"
  type: "Dropout"
  bottom: "relu7"
  top: "drop4"
  dropout_param {
    dropout_ratio: 0.3
  }
}
layer {
  name: "pool4"
  type: "Pooling"
  bottom: "drop4"
  top: "pool4"
  pooling_param {
    pool: MAX
    kernel_size: 2
    stride: 2
  }
}
layer {
  name: "conv8"
  type: "Convolution"
  bottom: "pool4"
  top: "conv8"
  convolution_param {
    num_output: 280
    kernel_size: 1
    weight_filler {
      type: "xavier"
    }
  }
}
layer {
  name: "relu8"
  type: "ReLU"
  bottom: "conv8"
  top: "relu8"
}
layer {
  name: "drop5"
  type: "Dropout"
  bottom: "relu8"
  top: "drop5"
  dropout_param {
    dropout_ratio: 0.4
  }
}
layer {
  name: "pool5"
  type: "Pooling"
  bottom: "drop5"
  top: "pool5"
  pooling_param {
    pool: MAX
    kernel_size: 2
    stride: 2
  }
}
layer {
  name: "conv10"
  type: "Convolution"
  bottom: "pool5"
  top: "conv10"
  convolution_param {
    num_output: 300
    kernel_size: 1
    weight_filler {
      type: "xavier"
    }
  }
}
layer {
  name: "relu10"
  type: "ReLU"
  bottom: "conv10"
  top: "relu10"
}
layer {
  name: "drop6"
  type: "Dropout"
  bottom: "relu10"
  top: "drop6"
  dropout_param {
    dropout_ratio: 0.5
  }
}
layer {
  name: "pool6"
  type: "Pooling"
  bottom: "drop6"
  top: "pool6"
  pooling_param {
    pool: MAX
    kernel_size: 2
    stride: 2
  }
}
layer {
  name: "conv11"
  type: "Convolution"
  bottom: "pool6"
  top: "conv11"
  convolution_param {
    num_output: 100
    kernel_size: 1
    weight_filler {
      type: "xavier"
    }
  }
}
layer {
  name: "relu11"
  type: "ReLU"
  bottom: "conv11"
  top: "relu11"
}
layer {
  name: "drop7"
  type: "Dropout"
  bottom: "relu11"
  top: "drop7"
  dropout_param {
    dropout_ratio: 0
  }
}
layer {
  name: "pool7"
  type: "Pooling"
  bottom: "drop7"
  top: "pool7"
  pooling_param {
    pool: MAX
    kernel_size: 2
    stride: 2
  }
}
layer {
  name: "ip_c"
  type: "InnerProduct"
  bottom: "pool7"
  top: "ip_c"
  inner_product_param {
    num_output: 20
    weight_filler {
      type: "xavier"
    }
  }
}
layer {
  name: "accuracy_f"
  type: "Accuracy"
  bottom: "ip_c"
  bottom: "label_coarse"
  top: "accuracy_f"
}
layer {
  name: "loss_c"
  type: "SoftmaxWithLoss"
  bottom: "ip_c"
  bottom: "label_coarse"
  top: "loss_c"
}
layer {
  name: "ip_f"
  type: "InnerProduct"
  bottom: "pool7"
  top: "ip_f"
  inner_product_param {
    num_output: 100
    weight_filler {
      type: "xavier"
    }
  }
}
layer {
  name: "accuracy"
  type: "Accuracy"
  bottom: "ip_f"
  bottom: "label_fine"
  top: "accuracy"
}
layer {
  name: "loss_f"
  type: "SoftmaxWithLoss"
  bottom: "ip_f"
  bottom: "label_fine"
  top: "loss_f"
}
I1020 07:28:56.826907 11776 layer_factory.hpp:77] Creating layer data
I1020 07:28:56.826915 11776 net.cpp:100] Creating Layer data
I1020 07:28:56.826918 11776 net.cpp:408] data -> data
I1020 07:28:56.826925 11776 net.cpp:408] data -> label_coarse
I1020 07:28:56.826930 11776 net.cpp:408] data -> label_fine
I1020 07:28:56.826936 11776 hdf5_data_layer.cpp:79] Loading list of HDF5 filenames from: ../../../../data/cifar-100/cifar_100_caffe_hdf5/test.txt
I1020 07:28:56.826953 11776 hdf5_data_layer.cpp:93] Number of HDF5 files: 1
I1020 07:28:57.080446 11776 net.cpp:150] Setting up data
I1020 07:28:57.080472 11776 net.cpp:157] Top shape: 100 3 32 32 (307200)
I1020 07:28:57.080476 11776 net.cpp:157] Top shape: 100 (100)
I1020 07:28:57.080478 11776 net.cpp:157] Top shape: 100 (100)
I1020 07:28:57.080480 11776 net.cpp:165] Memory required for data: 1229600
I1020 07:28:57.080485 11776 layer_factory.hpp:77] Creating layer label_coarse_data_1_split
I1020 07:28:57.080495 11776 net.cpp:100] Creating Layer label_coarse_data_1_split
I1020 07:28:57.080500 11776 net.cpp:434] label_coarse_data_1_split <- label_coarse
I1020 07:28:57.080505 11776 net.cpp:408] label_coarse_data_1_split -> label_coarse_data_1_split_0
I1020 07:28:57.080513 11776 net.cpp:408] label_coarse_data_1_split -> label_coarse_data_1_split_1
I1020 07:28:57.080538 11776 net.cpp:150] Setting up label_coarse_data_1_split
I1020 07:28:57.080543 11776 net.cpp:157] Top shape: 100 (100)
I1020 07:28:57.080544 11776 net.cpp:157] Top shape: 100 (100)
I1020 07:28:57.080548 11776 net.cpp:165] Memory required for data: 1230400
I1020 07:28:57.080564 11776 layer_factory.hpp:77] Creating layer label_fine_data_2_split
I1020 07:28:57.080569 11776 net.cpp:100] Creating Layer label_fine_data_2_split
I1020 07:28:57.080571 11776 net.cpp:434] label_fine_data_2_split <- label_fine
I1020 07:28:57.080574 11776 net.cpp:408] label_fine_data_2_split -> label_fine_data_2_split_0
I1020 07:28:57.080579 11776 net.cpp:408] label_fine_data_2_split -> label_fine_data_2_split_1
I1020 07:28:57.080600 11776 net.cpp:150] Setting up label_fine_data_2_split
I1020 07:28:57.080605 11776 net.cpp:157] Top shape: 100 (100)
I1020 07:28:57.080606 11776 net.cpp:157] Top shape: 100 (100)
I1020 07:28:57.080608 11776 net.cpp:165] Memory required for data: 1231200
I1020 07:28:57.080610 11776 layer_factory.hpp:77] Creating layer conv1
I1020 07:28:57.080618 11776 net.cpp:100] Creating Layer conv1
I1020 07:28:57.080621 11776 net.cpp:434] conv1 <- data
I1020 07:28:57.080624 11776 net.cpp:408] conv1 -> conv1
I1020 07:28:57.081444 11776 net.cpp:150] Setting up conv1
I1020 07:28:57.081454 11776 net.cpp:157] Top shape: 100 192 28 28 (15052800)
I1020 07:28:57.081455 11776 net.cpp:165] Memory required for data: 61442400
I1020 07:28:57.081462 11776 layer_factory.hpp:77] Creating layer relu1
I1020 07:28:57.081468 11776 net.cpp:100] Creating Layer relu1
I1020 07:28:57.081470 11776 net.cpp:434] relu1 <- conv1
I1020 07:28:57.081473 11776 net.cpp:408] relu1 -> relu1
I1020 07:28:57.081593 11776 net.cpp:150] Setting up relu1
I1020 07:28:57.081598 11776 net.cpp:157] Top shape: 100 192 28 28 (15052800)
I1020 07:28:57.081601 11776 net.cpp:165] Memory required for data: 121653600
I1020 07:28:57.081603 11776 layer_factory.hpp:77] Creating layer drop1
I1020 07:28:57.081606 11776 net.cpp:100] Creating Layer drop1
I1020 07:28:57.081609 11776 net.cpp:434] drop1 <- relu1
I1020 07:28:57.081612 11776 net.cpp:408] drop1 -> drop1
I1020 07:28:57.081636 11776 net.cpp:150] Setting up drop1
I1020 07:28:57.081640 11776 net.cpp:157] Top shape: 100 192 28 28 (15052800)
I1020 07:28:57.081642 11776 net.cpp:165] Memory required for data: 181864800
I1020 07:28:57.081645 11776 layer_factory.hpp:77] Creating layer pool1
I1020 07:28:57.081647 11776 net.cpp:100] Creating Layer pool1
I1020 07:28:57.081650 11776 net.cpp:434] pool1 <- drop1
I1020 07:28:57.081653 11776 net.cpp:408] pool1 -> pool1
I1020 07:28:57.081676 11776 net.cpp:150] Setting up pool1
I1020 07:28:57.081681 11776 net.cpp:157] Top shape: 100 192 14 14 (3763200)
I1020 07:28:57.081682 11776 net.cpp:165] Memory required for data: 196917600
I1020 07:28:57.081684 11776 layer_factory.hpp:77] Creating layer conv2
I1020 07:28:57.081689 11776 net.cpp:100] Creating Layer conv2
I1020 07:28:57.081692 11776 net.cpp:434] conv2 <- pool1
I1020 07:28:57.081696 11776 net.cpp:408] conv2 -> conv2
I1020 07:28:57.082455 11776 net.cpp:150] Setting up conv2
I1020 07:28:57.082463 11776 net.cpp:157] Top shape: 100 192 14 14 (3763200)
I1020 07:28:57.082465 11776 net.cpp:165] Memory required for data: 211970400
I1020 07:28:57.082470 11776 layer_factory.hpp:77] Creating layer relu2
I1020 07:28:57.082476 11776 net.cpp:100] Creating Layer relu2
I1020 07:28:57.082479 11776 net.cpp:434] relu2 <- conv2
I1020 07:28:57.082481 11776 net.cpp:408] relu2 -> relu2
I1020 07:28:57.082676 11776 net.cpp:150] Setting up relu2
I1020 07:28:57.082684 11776 net.cpp:157] Top shape: 100 192 14 14 (3763200)
I1020 07:28:57.082685 11776 net.cpp:165] Memory required for data: 227023200
I1020 07:28:57.082687 11776 layer_factory.hpp:77] Creating layer conv3
I1020 07:28:57.082692 11776 net.cpp:100] Creating Layer conv3
I1020 07:28:57.082695 11776 net.cpp:434] conv3 <- relu2
I1020 07:28:57.082700 11776 net.cpp:408] conv3 -> conv3
I1020 07:28:57.085171 11776 net.cpp:150] Setting up conv3
I1020 07:28:57.085180 11776 net.cpp:157] Top shape: 100 240 12 12 (3456000)
I1020 07:28:57.085182 11776 net.cpp:165] Memory required for data: 240847200
I1020 07:28:57.085188 11776 layer_factory.hpp:77] Creating layer relu3
I1020 07:28:57.085192 11776 net.cpp:100] Creating Layer relu3
I1020 07:28:57.085194 11776 net.cpp:434] relu3 <- conv3
I1020 07:28:57.085206 11776 net.cpp:408] relu3 -> relu3
I1020 07:28:57.085324 11776 net.cpp:150] Setting up relu3
I1020 07:28:57.085328 11776 net.cpp:157] Top shape: 100 240 12 12 (3456000)
I1020 07:28:57.085331 11776 net.cpp:165] Memory required for data: 254671200
I1020 07:28:57.085333 11776 layer_factory.hpp:77] Creating layer drop2
I1020 07:28:57.085337 11776 net.cpp:100] Creating Layer drop2
I1020 07:28:57.085340 11776 net.cpp:434] drop2 <- relu3
I1020 07:28:57.085342 11776 net.cpp:408] drop2 -> drop2
I1020 07:28:57.085366 11776 net.cpp:150] Setting up drop2
I1020 07:28:57.085371 11776 net.cpp:157] Top shape: 100 240 12 12 (3456000)
I1020 07:28:57.085372 11776 net.cpp:165] Memory required for data: 268495200
I1020 07:28:57.085374 11776 layer_factory.hpp:77] Creating layer pool2
I1020 07:28:57.085377 11776 net.cpp:100] Creating Layer pool2
I1020 07:28:57.085381 11776 net.cpp:434] pool2 <- drop2
I1020 07:28:57.085382 11776 net.cpp:408] pool2 -> pool2
I1020 07:28:57.085407 11776 net.cpp:150] Setting up pool2
I1020 07:28:57.085412 11776 net.cpp:157] Top shape: 100 240 6 6 (864000)
I1020 07:28:57.085413 11776 net.cpp:165] Memory required for data: 271951200
I1020 07:28:57.085415 11776 layer_factory.hpp:77] Creating layer conv4
I1020 07:28:57.085419 11776 net.cpp:100] Creating Layer conv4
I1020 07:28:57.085422 11776 net.cpp:434] conv4 <- pool2
I1020 07:28:57.085425 11776 net.cpp:408] conv4 -> conv4
I1020 07:28:57.086503 11776 net.cpp:150] Setting up conv4
I1020 07:28:57.086510 11776 net.cpp:157] Top shape: 100 240 6 6 (864000)
I1020 07:28:57.086513 11776 net.cpp:165] Memory required for data: 275407200
I1020 07:28:57.086516 11776 layer_factory.hpp:77] Creating layer relu4
I1020 07:28:57.086520 11776 net.cpp:100] Creating Layer relu4
I1020 07:28:57.086524 11776 net.cpp:434] relu4 <- conv4
I1020 07:28:57.086526 11776 net.cpp:408] relu4 -> relu4
I1020 07:28:57.086642 11776 net.cpp:150] Setting up relu4
I1020 07:28:57.086647 11776 net.cpp:157] Top shape: 100 240 6 6 (864000)
I1020 07:28:57.086650 11776 net.cpp:165] Memory required for data: 278863200
I1020 07:28:57.086652 11776 layer_factory.hpp:77] Creating layer conv5
I1020 07:28:57.086658 11776 net.cpp:100] Creating Layer conv5
I1020 07:28:57.086659 11776 net.cpp:434] conv5 <- relu4
I1020 07:28:57.086663 11776 net.cpp:408] conv5 -> conv5
I1020 07:28:57.088429 11776 net.cpp:150] Setting up conv5
I1020 07:28:57.088438 11776 net.cpp:157] Top shape: 100 260 5 5 (650000)
I1020 07:28:57.088439 11776 net.cpp:165] Memory required for data: 281463200
I1020 07:28:57.088446 11776 layer_factory.hpp:77] Creating layer relu5
I1020 07:28:57.088452 11776 net.cpp:100] Creating Layer relu5
I1020 07:28:57.088455 11776 net.cpp:434] relu5 <- conv5
I1020 07:28:57.088459 11776 net.cpp:408] relu5 -> relu5
I1020 07:28:57.088721 11776 net.cpp:150] Setting up relu5
I1020 07:28:57.088728 11776 net.cpp:157] Top shape: 100 260 5 5 (650000)
I1020 07:28:57.088732 11776 net.cpp:165] Memory required for data: 284063200
I1020 07:28:57.088733 11776 layer_factory.hpp:77] Creating layer drop3
I1020 07:28:57.088737 11776 net.cpp:100] Creating Layer drop3
I1020 07:28:57.088739 11776 net.cpp:434] drop3 <- relu5
I1020 07:28:57.088743 11776 net.cpp:408] drop3 -> drop3
I1020 07:28:57.088768 11776 net.cpp:150] Setting up drop3
I1020 07:28:57.088773 11776 net.cpp:157] Top shape: 100 260 5 5 (650000)
I1020 07:28:57.088774 11776 net.cpp:165] Memory required for data: 286663200
I1020 07:28:57.088776 11776 layer_factory.hpp:77] Creating layer pool3
I1020 07:28:57.088780 11776 net.cpp:100] Creating Layer pool3
I1020 07:28:57.088783 11776 net.cpp:434] pool3 <- drop3
I1020 07:28:57.088785 11776 net.cpp:408] pool3 -> pool3
I1020 07:28:57.088809 11776 net.cpp:150] Setting up pool3
I1020 07:28:57.088812 11776 net.cpp:157] Top shape: 100 260 3 3 (234000)
I1020 07:28:57.088815 11776 net.cpp:165] Memory required for data: 287599200
I1020 07:28:57.088817 11776 layer_factory.hpp:77] Creating layer conv6
I1020 07:28:57.088821 11776 net.cpp:100] Creating Layer conv6
I1020 07:28:57.088824 11776 net.cpp:434] conv6 <- pool3
I1020 07:28:57.088835 11776 net.cpp:408] conv6 -> conv6
I1020 07:28:57.089967 11776 net.cpp:150] Setting up conv6
I1020 07:28:57.089977 11776 net.cpp:157] Top shape: 100 260 3 3 (234000)
I1020 07:28:57.089978 11776 net.cpp:165] Memory required for data: 288535200
I1020 07:28:57.089982 11776 layer_factory.hpp:77] Creating layer relu6
I1020 07:28:57.089987 11776 net.cpp:100] Creating Layer relu6
I1020 07:28:57.089989 11776 net.cpp:434] relu6 <- conv6
I1020 07:28:57.089993 11776 net.cpp:408] relu6 -> relu6
I1020 07:28:57.090108 11776 net.cpp:150] Setting up relu6
I1020 07:28:57.090113 11776 net.cpp:157] Top shape: 100 260 3 3 (234000)
I1020 07:28:57.090116 11776 net.cpp:165] Memory required for data: 289471200
I1020 07:28:57.090118 11776 layer_factory.hpp:77] Creating layer conv7
I1020 07:28:57.090123 11776 net.cpp:100] Creating Layer conv7
I1020 07:28:57.090126 11776 net.cpp:434] conv7 <- relu6
I1020 07:28:57.090129 11776 net.cpp:408] conv7 -> conv7
I1020 07:28:57.092057 11776 net.cpp:150] Setting up conv7
I1020 07:28:57.092066 11776 net.cpp:157] Top shape: 100 280 2 2 (112000)
I1020 07:28:57.092067 11776 net.cpp:165] Memory required for data: 289919200
I1020 07:28:57.092072 11776 layer_factory.hpp:77] Creating layer relu7
I1020 07:28:57.092075 11776 net.cpp:100] Creating Layer relu7
I1020 07:28:57.092078 11776 net.cpp:434] relu7 <- conv7
I1020 07:28:57.092082 11776 net.cpp:408] relu7 -> relu7
I1020 07:28:57.092200 11776 net.cpp:150] Setting up relu7
I1020 07:28:57.092205 11776 net.cpp:157] Top shape: 100 280 2 2 (112000)
I1020 07:28:57.092206 11776 net.cpp:165] Memory required for data: 290367200
I1020 07:28:57.092208 11776 layer_factory.hpp:77] Creating layer drop4
I1020 07:28:57.092212 11776 net.cpp:100] Creating Layer drop4
I1020 07:28:57.092214 11776 net.cpp:434] drop4 <- relu7
I1020 07:28:57.092218 11776 net.cpp:408] drop4 -> drop4
I1020 07:28:57.092242 11776 net.cpp:150] Setting up drop4
I1020 07:28:57.092247 11776 net.cpp:157] Top shape: 100 280 2 2 (112000)
I1020 07:28:57.092247 11776 net.cpp:165] Memory required for data: 290815200
I1020 07:28:57.092249 11776 layer_factory.hpp:77] Creating layer pool4
I1020 07:28:57.092252 11776 net.cpp:100] Creating Layer pool4
I1020 07:28:57.092255 11776 net.cpp:434] pool4 <- drop4
I1020 07:28:57.092258 11776 net.cpp:408] pool4 -> pool4
I1020 07:28:57.092283 11776 net.cpp:150] Setting up pool4
I1020 07:28:57.092286 11776 net.cpp:157] Top shape: 100 280 1 1 (28000)
I1020 07:28:57.092304 11776 net.cpp:165] Memory required for data: 290927200
I1020 07:28:57.092306 11776 layer_factory.hpp:77] Creating layer conv8
I1020 07:28:57.092311 11776 net.cpp:100] Creating Layer conv8
I1020 07:28:57.092314 11776 net.cpp:434] conv8 <- pool4
I1020 07:28:57.092317 11776 net.cpp:408] conv8 -> conv8
I1020 07:28:57.093292 11776 net.cpp:150] Setting up conv8
I1020 07:28:57.093300 11776 net.cpp:157] Top shape: 100 280 1 1 (28000)
I1020 07:28:57.093302 11776 net.cpp:165] Memory required for data: 291039200
I1020 07:28:57.093307 11776 layer_factory.hpp:77] Creating layer relu8
I1020 07:28:57.093310 11776 net.cpp:100] Creating Layer relu8
I1020 07:28:57.093312 11776 net.cpp:434] relu8 <- conv8
I1020 07:28:57.093315 11776 net.cpp:408] relu8 -> relu8
I1020 07:28:57.093508 11776 net.cpp:150] Setting up relu8
I1020 07:28:57.093515 11776 net.cpp:157] Top shape: 100 280 1 1 (28000)
I1020 07:28:57.093518 11776 net.cpp:165] Memory required for data: 291151200
I1020 07:28:57.093519 11776 layer_factory.hpp:77] Creating layer drop5
I1020 07:28:57.093523 11776 net.cpp:100] Creating Layer drop5
I1020 07:28:57.093525 11776 net.cpp:434] drop5 <- relu8
I1020 07:28:57.093528 11776 net.cpp:408] drop5 -> drop5
I1020 07:28:57.093552 11776 net.cpp:150] Setting up drop5
I1020 07:28:57.093556 11776 net.cpp:157] Top shape: 100 280 1 1 (28000)
I1020 07:28:57.093559 11776 net.cpp:165] Memory required for data: 291263200
I1020 07:28:57.093559 11776 layer_factory.hpp:77] Creating layer pool5
I1020 07:28:57.093564 11776 net.cpp:100] Creating Layer pool5
I1020 07:28:57.093565 11776 net.cpp:434] pool5 <- drop5
I1020 07:28:57.093578 11776 net.cpp:408] pool5 -> pool5
I1020 07:28:57.093607 11776 net.cpp:150] Setting up pool5
I1020 07:28:57.093611 11776 net.cpp:157] Top shape: 100 280 1 1 (28000)
I1020 07:28:57.093613 11776 net.cpp:165] Memory required for data: 291375200
I1020 07:28:57.093616 11776 layer_factory.hpp:77] Creating layer conv10
I1020 07:28:57.093621 11776 net.cpp:100] Creating Layer conv10
I1020 07:28:57.093623 11776 net.cpp:434] conv10 <- pool5
I1020 07:28:57.093626 11776 net.cpp:408] conv10 -> conv10
I1020 07:28:57.094858 11776 net.cpp:150] Setting up conv10
I1020 07:28:57.094866 11776 net.cpp:157] Top shape: 100 300 1 1 (30000)
I1020 07:28:57.094868 11776 net.cpp:165] Memory required for data: 291495200
I1020 07:28:57.094877 11776 layer_factory.hpp:77] Creating layer relu10
I1020 07:28:57.094880 11776 net.cpp:100] Creating Layer relu10
I1020 07:28:57.094882 11776 net.cpp:434] relu10 <- conv10
I1020 07:28:57.094885 11776 net.cpp:408] relu10 -> relu10
I1020 07:28:57.094998 11776 net.cpp:150] Setting up relu10
I1020 07:28:57.095002 11776 net.cpp:157] Top shape: 100 300 1 1 (30000)
I1020 07:28:57.095005 11776 net.cpp:165] Memory required for data: 291615200
I1020 07:28:57.095006 11776 layer_factory.hpp:77] Creating layer drop6
I1020 07:28:57.095010 11776 net.cpp:100] Creating Layer drop6
I1020 07:28:57.095011 11776 net.cpp:434] drop6 <- relu10
I1020 07:28:57.095015 11776 net.cpp:408] drop6 -> drop6
I1020 07:28:57.095038 11776 net.cpp:150] Setting up drop6
I1020 07:28:57.095042 11776 net.cpp:157] Top shape: 100 300 1 1 (30000)
I1020 07:28:57.095044 11776 net.cpp:165] Memory required for data: 291735200
I1020 07:28:57.095046 11776 layer_factory.hpp:77] Creating layer pool6
I1020 07:28:57.095052 11776 net.cpp:100] Creating Layer pool6
I1020 07:28:57.095054 11776 net.cpp:434] pool6 <- drop6
I1020 07:28:57.095057 11776 net.cpp:408] pool6 -> pool6
I1020 07:28:57.095080 11776 net.cpp:150] Setting up pool6
I1020 07:28:57.095084 11776 net.cpp:157] Top shape: 100 300 1 1 (30000)
I1020 07:28:57.095088 11776 net.cpp:165] Memory required for data: 291855200
I1020 07:28:57.095088 11776 layer_factory.hpp:77] Creating layer conv11
I1020 07:28:57.095093 11776 net.cpp:100] Creating Layer conv11
I1020 07:28:57.095095 11776 net.cpp:434] conv11 <- pool6
I1020 07:28:57.095099 11776 net.cpp:408] conv11 -> conv11
I1020 07:28:57.095831 11776 net.cpp:150] Setting up conv11
I1020 07:28:57.095839 11776 net.cpp:157] Top shape: 100 100 1 1 (10000)
I1020 07:28:57.095842 11776 net.cpp:165] Memory required for data: 291895200
I1020 07:28:57.095846 11776 layer_factory.hpp:77] Creating layer relu11
I1020 07:28:57.095849 11776 net.cpp:100] Creating Layer relu11
I1020 07:28:57.095852 11776 net.cpp:434] relu11 <- conv11
I1020 07:28:57.095855 11776 net.cpp:408] relu11 -> relu11
I1020 07:28:57.095968 11776 net.cpp:150] Setting up relu11
I1020 07:28:57.095973 11776 net.cpp:157] Top shape: 100 100 1 1 (10000)
I1020 07:28:57.095974 11776 net.cpp:165] Memory required for data: 291935200
I1020 07:28:57.095976 11776 layer_factory.hpp:77] Creating layer drop7
I1020 07:28:57.095980 11776 net.cpp:100] Creating Layer drop7
I1020 07:28:57.095983 11776 net.cpp:434] drop7 <- relu11
I1020 07:28:57.095985 11776 net.cpp:408] drop7 -> drop7
I1020 07:28:57.096009 11776 net.cpp:150] Setting up drop7
I1020 07:28:57.096014 11776 net.cpp:157] Top shape: 100 100 1 1 (10000)
I1020 07:28:57.096015 11776 net.cpp:165] Memory required for data: 291975200
I1020 07:28:57.096017 11776 layer_factory.hpp:77] Creating layer pool7
I1020 07:28:57.096020 11776 net.cpp:100] Creating Layer pool7
I1020 07:28:57.096024 11776 net.cpp:434] pool7 <- drop7
I1020 07:28:57.096026 11776 net.cpp:408] pool7 -> pool7
I1020 07:28:57.096048 11776 net.cpp:150] Setting up pool7
I1020 07:28:57.096052 11776 net.cpp:157] Top shape: 100 100 1 1 (10000)
I1020 07:28:57.096055 11776 net.cpp:165] Memory required for data: 292015200
I1020 07:28:57.096057 11776 layer_factory.hpp:77] Creating layer pool7_pool7_0_split
I1020 07:28:57.096060 11776 net.cpp:100] Creating Layer pool7_pool7_0_split
I1020 07:28:57.096062 11776 net.cpp:434] pool7_pool7_0_split <- pool7
I1020 07:28:57.096072 11776 net.cpp:408] pool7_pool7_0_split -> pool7_pool7_0_split_0
I1020 07:28:57.096076 11776 net.cpp:408] pool7_pool7_0_split -> pool7_pool7_0_split_1
I1020 07:28:57.096101 11776 net.cpp:150] Setting up pool7_pool7_0_split
I1020 07:28:57.096103 11776 net.cpp:157] Top shape: 100 100 1 1 (10000)
I1020 07:28:57.096107 11776 net.cpp:157] Top shape: 100 100 1 1 (10000)
I1020 07:28:57.096108 11776 net.cpp:165] Memory required for data: 292095200
I1020 07:28:57.096110 11776 layer_factory.hpp:77] Creating layer ip_c
I1020 07:28:57.096114 11776 net.cpp:100] Creating Layer ip_c
I1020 07:28:57.096117 11776 net.cpp:434] ip_c <- pool7_pool7_0_split_0
I1020 07:28:57.096119 11776 net.cpp:408] ip_c -> ip_c
I1020 07:28:57.096197 11776 net.cpp:150] Setting up ip_c
I1020 07:28:57.096200 11776 net.cpp:157] Top shape: 100 20 (2000)
I1020 07:28:57.096202 11776 net.cpp:165] Memory required for data: 292103200
I1020 07:28:57.096206 11776 layer_factory.hpp:77] Creating layer ip_c_ip_c_0_split
I1020 07:28:57.096210 11776 net.cpp:100] Creating Layer ip_c_ip_c_0_split
I1020 07:28:57.096211 11776 net.cpp:434] ip_c_ip_c_0_split <- ip_c
I1020 07:28:57.096215 11776 net.cpp:408] ip_c_ip_c_0_split -> ip_c_ip_c_0_split_0
I1020 07:28:57.096218 11776 net.cpp:408] ip_c_ip_c_0_split -> ip_c_ip_c_0_split_1
I1020 07:28:57.096241 11776 net.cpp:150] Setting up ip_c_ip_c_0_split
I1020 07:28:57.096245 11776 net.cpp:157] Top shape: 100 20 (2000)
I1020 07:28:57.096247 11776 net.cpp:157] Top shape: 100 20 (2000)
I1020 07:28:57.096248 11776 net.cpp:165] Memory required for data: 292119200
I1020 07:28:57.096251 11776 layer_factory.hpp:77] Creating layer accuracy_f
I1020 07:28:57.096253 11776 net.cpp:100] Creating Layer accuracy_f
I1020 07:28:57.096256 11776 net.cpp:434] accuracy_f <- ip_c_ip_c_0_split_0
I1020 07:28:57.096258 11776 net.cpp:434] accuracy_f <- label_coarse_data_1_split_0
I1020 07:28:57.096261 11776 net.cpp:408] accuracy_f -> accuracy_f
…
