…
  level: 0
  stage: ""
}
type: "AdaGrad"
I1020 06:31:38.948778 11286 solver.cpp:81] Creating training net from train_net file: /home/adam/Honours/Honours-Project/cifar-100_pooling/max/relu/poolcnn_relu_train.prototxt
I1020 06:31:38.949071 11286 net.cpp:58] Initializing net from parameters: 
state {
  phase: TRAIN
  level: 0
  stage: ""
}
layer {
  name: "data"
  type: "HDF5Data"
  top: "data"
  top: "label_coarse"
  top: "label_fine"
  hdf5_data_param {
    source: "../../../../data/cifar-100/cifar_100_caffe_hdf5/train.txt"
    batch_size: 64
  }
}
layer {
  name: "conv1"
  type: "Convolution"
  bottom: "data"
  top: "conv1"
  convolution_param {
    num_output: 192
    kernel_size: 5
    weight_filler {
      type: "xavier"
    }
  }
}
layer {
  name: "relu1"
  type: "ReLU"
  bottom: "conv1"
  top: "relu1"
}
layer {
  name: "drop1"
  type: "Dropout"
  bottom: "relu1"
  top: "drop1"
  dropout_param {
    dropout_ratio: 0
  }
}
layer {
  name: "pool1"
  type: "Pooling"
  bottom: "drop1"
  top: "pool1"
  pooling_param {
    pool: MAX
    kernel_size: 2
    stride: 2
  }
}
layer {
  name: "conv2"
  type: "Convolution"
  bottom: "pool1"
  top: "conv2"
  convolution_param {
    num_output: 192
    kernel_size: 1
    weight_filler {
      type: "xavier"
    }
  }
}
layer {
  name: "relu2"
  type: "ReLU"
  bottom: "conv2"
  top: "relu2"
}
layer {
  name: "conv3"
  type: "Convolution"
  bottom: "relu2"
  top: "conv3"
  convolution_param {
    num_output: 240
    kernel_size: 3
    weight_filler {
      type: "xavier"
    }
  }
}
layer {
  name: "relu3"
  type: "ReLU"
  bottom: "conv3"
  top: "relu3"
}
layer {
  name: "drop2"
  type: "Dropout"
  bottom: "relu3"
  top: "drop2"
  dropout_param {
    dropout_ratio: 0.1
  }
}
layer {
  name: "pool2"
  type: "Pooling"
  bottom: "drop2"
  top: "pool2"
  pooling_param {
    pool: MAX
    kernel_size: 2
    stride: 2
  }
}
layer {
  name: "conv4"
  type: "Convolution"
  bottom: "pool2"
  top: "conv4"
  convolution_param {
    num_output: 240
    kernel_size: 1
    weight_filler {
      type: "xavier"
    }
  }
}
layer {
  name: "relu4"
  type: "ReLU"
  bottom: "conv4"
  top: "relu4"
}
layer {
  name: "conv5"
  type: "Convolution"
  bottom: "relu4"
  top: "conv5"
  convolution_param {
    num_output: 260
    kernel_size: 2
    weight_filler {
      type: "xavier"
    }
  }
}
layer {
  name: "relu5"
  type: "ReLU"
  bottom: "conv5"
  top: "relu5"
}
layer {
  name: "drop3"
  type: "Dropout"
  bottom: "relu5"
  top: "drop3"
  dropout_param {
    dropout_ratio: 0.2
  }
}
layer {
  name: "pool3"
  type: "Pooling"
  bottom: "drop3"
  top: "pool3"
  pooling_param {
    pool: MAX
    kernel_size: 2
    stride: 2
  }
}
layer {
  name: "conv6"
  type: "Convolution"
  bottom: "pool3"
  top: "conv6"
  convolution_param {
    num_output: 260
    kernel_size: 1
    weight_filler {
      type: "xavier"
    }
  }
}
layer {
  name: "relu6"
  type: "ReLU"
  bottom: "conv6"
  top: "relu6"
}
layer {
  name: "conv7"
  type: "Convolution"
  bottom: "relu6"
  top: "conv7"
  convolution_param {
    num_output: 280
    kernel_size: 2
    weight_filler {
      type: "xavier"
    }
  }
}
layer {
  name: "relu7"
  type: "ReLU"
  bottom: "conv7"
  top: "relu7"
}
layer {
  name: "drop4"
  type: "Dropout"
  bottom: "relu7"
  top: "drop4"
  dropout_param {
    dropout_ratio: 0.3
  }
}
layer {
  name: "pool4"
  type: "Pooling"
  bottom: "drop4"
  top: "pool4"
  pooling_param {
    pool: MAX
    kernel_size: 2
    stride: 2
  }
}
layer {
  name: "conv8"
  type: "Convolution"
  bottom: "pool4"
  top: "conv8"
  convolution_param {
    num_output: 280
    kernel_size: 1
    weight_filler {
      type: "xavier"
    }
  }
}
layer {
  name: "relu8"
  type: "ReLU"
  bottom: "conv8"
  top: "relu8"
}
layer {
  name: "drop5"
  type: "Dropout"
  bottom: "relu8"
  top: "drop5"
  dropout_param {
    dropout_ratio: 0.4
  }
}
layer {
  name: "pool5"
  type: "Pooling"
  bottom: "drop5"
  top: "pool5"
  pooling_param {
    pool: MAX
    kernel_size: 2
    stride: 2
  }
}
layer {
  name: "conv10"
  type: "Convolution"
  bottom: "pool5"
  top: "conv10"
  convolution_param {
    num_output: 300
    kernel_size: 1
    weight_filler {
      type: "xavier"
    }
  }
}
layer {
  name: "relu10"
  type: "ReLU"
  bottom: "conv10"
  top: "relu10"
}
layer {
  name: "drop6"
  type: "Dropout"
  bottom: "relu10"
  top: "drop6"
  dropout_param {
    dropout_ratio: 0.5
  }
}
layer {
  name: "pool6"
  type: "Pooling"
  bottom: "drop6"
  top: "pool6"
  pooling_param {
    pool: MAX
    kernel_size: 2
    stride: 2
  }
}
layer {
  name: "conv11"
  type: "Convolution"
  bottom: "pool6"
  top: "conv11"
  convolution_param {
    num_output: 100
    kernel_size: 1
    weight_filler {
      type: "xavier"
    }
  }
}
layer {
  name: "relu11"
  type: "ReLU"
  bottom: "conv11"
  top: "relu11"
}
layer {
  name: "drop7"
  type: "Dropout"
  bottom: "relu11"
  top: "drop7"
  dropout_param {
    dropout_ratio: 0
  }
}
layer {
  name: "pool7"
  type: "Pooling"
  bottom: "drop7"
  top: "pool7"
  pooling_param {
    pool: MAX
    kernel_size: 2
    stride: 2
  }
}
layer {
  name: "ip_c"
  type: "InnerProduct"
  bottom: "pool7"
  top: "ip_c"
  inner_product_param {
    num_output: 20
    weight_filler {
      type: "xavier"
    }
  }
}
layer {
  name: "accuracy_f"
  type: "Accuracy"
  bottom: "ip_c"
  bottom: "label_coarse"
  top: "accuracy_f"
}
layer {
  name: "loss_c"
  type: "SoftmaxWithLoss"
  bottom: "ip_c"
  bottom: "label_coarse"
  top: "loss_c"
}
layer {
  name: "ip_f"
  type: "InnerProduct"
  bottom: "pool7"
  top: "ip_f"
  inner_product_param {
    num_output: 100
    weight_filler {
      type: "xavier"
    }
  }
}
layer {
  name: "accuracy"
  type: "Accuracy"
  bottom: "ip_f"
  bottom: "label_fine"
  top: "accuracy"
}
layer {
  name: "loss_f"
  type: "SoftmaxWithLoss"
  bottom: "ip_f"
  bottom: "label_fine"
  top: "loss_f"
}
I1020 06:31:38.949194 11286 layer_factory.hpp:77] Creating layer data
I1020 06:31:38.949204 11286 net.cpp:100] Creating Layer data
I1020 06:31:38.949208 11286 net.cpp:408] data -> data
I1020 06:31:38.949229 11286 net.cpp:408] data -> label_coarse
I1020 06:31:38.949239 11286 net.cpp:408] data -> label_fine
I1020 06:31:38.949249 11286 hdf5_data_layer.cpp:79] Loading list of HDF5 filenames from: ../../../../data/cifar-100/cifar_100_caffe_hdf5/train.txt
I1020 06:31:38.949273 11286 hdf5_data_layer.cpp:93] Number of HDF5 files: 1
I1020 06:31:38.949928 11286 hdf5.cpp:35] Datatype class: H5T_INTEGER
I1020 06:31:40.532851 11286 net.cpp:150] Setting up data
I1020 06:31:40.532878 11286 net.cpp:157] Top shape: 64 3 32 32 (196608)
I1020 06:31:40.532882 11286 net.cpp:157] Top shape: 64 (64)
I1020 06:31:40.532886 11286 net.cpp:157] Top shape: 64 (64)
I1020 06:31:40.532887 11286 net.cpp:165] Memory required for data: 786944
I1020 06:31:40.532896 11286 layer_factory.hpp:77] Creating layer label_coarse_data_1_split
I1020 06:31:40.532907 11286 net.cpp:100] Creating Layer label_coarse_data_1_split
I1020 06:31:40.532913 11286 net.cpp:434] label_coarse_data_1_split <- label_coarse
I1020 06:31:40.532927 11286 net.cpp:408] label_coarse_data_1_split -> label_coarse_data_1_split_0
I1020 06:31:40.532938 11286 net.cpp:408] label_coarse_data_1_split -> label_coarse_data_1_split_1
I1020 06:31:40.532963 11286 net.cpp:150] Setting up label_coarse_data_1_split
I1020 06:31:40.532968 11286 net.cpp:157] Top shape: 64 (64)
I1020 06:31:40.532973 11286 net.cpp:157] Top shape: 64 (64)
I1020 06:31:40.532976 11286 net.cpp:165] Memory required for data: 787456
I1020 06:31:40.532979 11286 layer_factory.hpp:77] Creating layer label_fine_data_2_split
I1020 06:31:40.532999 11286 net.cpp:100] Creating Layer label_fine_data_2_split
I1020 06:31:40.533002 11286 net.cpp:434] label_fine_data_2_split <- label_fine
I1020 06:31:40.533009 11286 net.cpp:408] label_fine_data_2_split -> label_fine_data_2_split_0
I1020 06:31:40.533015 11286 net.cpp:408] label_fine_data_2_split -> label_fine_data_2_split_1
I1020 06:31:40.533036 11286 net.cpp:150] Setting up label_fine_data_2_split
I1020 06:31:40.533041 11286 net.cpp:157] Top shape: 64 (64)
I1020 06:31:40.533046 11286 net.cpp:157] Top shape: 64 (64)
I1020 06:31:40.533048 11286 net.cpp:165] Memory required for data: 787968
I1020 06:31:40.533051 11286 layer_factory.hpp:77] Creating layer conv1
I1020 06:31:40.533064 11286 net.cpp:100] Creating Layer conv1
I1020 06:31:40.533067 11286 net.cpp:434] conv1 <- data
I1020 06:31:40.533073 11286 net.cpp:408] conv1 -> conv1
I1020 06:31:40.650601 11286 net.cpp:150] Setting up conv1
I1020 06:31:40.650627 11286 net.cpp:157] Top shape: 64 192 28 28 (9633792)
I1020 06:31:40.650630 11286 net.cpp:165] Memory required for data: 39323136
I1020 06:31:40.650653 11286 layer_factory.hpp:77] Creating layer relu1
I1020 06:31:40.650666 11286 net.cpp:100] Creating Layer relu1
I1020 06:31:40.650671 11286 net.cpp:434] relu1 <- conv1
I1020 06:31:40.650676 11286 net.cpp:408] relu1 -> relu1
I1020 06:31:40.650805 11286 net.cpp:150] Setting up relu1
I1020 06:31:40.650812 11286 net.cpp:157] Top shape: 64 192 28 28 (9633792)
I1020 06:31:40.650815 11286 net.cpp:165] Memory required for data: 77858304
I1020 06:31:40.650818 11286 layer_factory.hpp:77] Creating layer drop1
I1020 06:31:40.650825 11286 net.cpp:100] Creating Layer drop1
I1020 06:31:40.650830 11286 net.cpp:434] drop1 <- relu1
I1020 06:31:40.650833 11286 net.cpp:408] drop1 -> drop1
I1020 06:31:40.650861 11286 net.cpp:150] Setting up drop1
I1020 06:31:40.650866 11286 net.cpp:157] Top shape: 64 192 28 28 (9633792)
I1020 06:31:40.650869 11286 net.cpp:165] Memory required for data: 116393472
I1020 06:31:40.650872 11286 layer_factory.hpp:77] Creating layer pool1
I1020 06:31:40.650877 11286 net.cpp:100] Creating Layer pool1
I1020 06:31:40.650882 11286 net.cpp:434] pool1 <- drop1
I1020 06:31:40.650885 11286 net.cpp:408] pool1 -> pool1
I1020 06:31:40.650916 11286 net.cpp:150] Setting up pool1
I1020 06:31:40.650923 11286 net.cpp:157] Top shape: 64 192 14 14 (2408448)
I1020 06:31:40.650926 11286 net.cpp:165] Memory required for data: 126027264
I1020 06:31:40.650929 11286 layer_factory.hpp:77] Creating layer conv2
I1020 06:31:40.650938 11286 net.cpp:100] Creating Layer conv2
I1020 06:31:40.650941 11286 net.cpp:434] conv2 <- pool1
I1020 06:31:40.650948 11286 net.cpp:408] conv2 -> conv2
I1020 06:31:40.651737 11286 net.cpp:150] Setting up conv2
I1020 06:31:40.651747 11286 net.cpp:157] Top shape: 64 192 14 14 (2408448)
I1020 06:31:40.651751 11286 net.cpp:165] Memory required for data: 135661056
I1020 06:31:40.651758 11286 layer_factory.hpp:77] Creating layer relu2
I1020 06:31:40.651765 11286 net.cpp:100] Creating Layer relu2
I1020 06:31:40.651768 11286 net.cpp:434] relu2 <- conv2
I1020 06:31:40.651773 11286 net.cpp:408] relu2 -> relu2
I1020 06:31:40.651891 11286 net.cpp:150] Setting up relu2
I1020 06:31:40.651898 11286 net.cpp:157] Top shape: 64 192 14 14 (2408448)
I1020 06:31:40.651901 11286 net.cpp:165] Memory required for data: 145294848
I1020 06:31:40.651906 11286 layer_factory.hpp:77] Creating layer conv3
I1020 06:31:40.651913 11286 net.cpp:100] Creating Layer conv3
I1020 06:31:40.651916 11286 net.cpp:434] conv3 <- relu2
I1020 06:31:40.651921 11286 net.cpp:408] conv3 -> conv3
I1020 06:31:40.654336 11286 net.cpp:150] Setting up conv3
I1020 06:31:40.654346 11286 net.cpp:157] Top shape: 64 240 12 12 (2211840)
I1020 06:31:40.654350 11286 net.cpp:165] Memory required for data: 154142208
I1020 06:31:40.654357 11286 layer_factory.hpp:77] Creating layer relu3
I1020 06:31:40.654364 11286 net.cpp:100] Creating Layer relu3
I1020 06:31:40.654369 11286 net.cpp:434] relu3 <- conv3
I1020 06:31:40.654374 11286 net.cpp:408] relu3 -> relu3
I1020 06:31:40.654568 11286 net.cpp:150] Setting up relu3
I1020 06:31:40.654584 11286 net.cpp:157] Top shape: 64 240 12 12 (2211840)
I1020 06:31:40.654589 11286 net.cpp:165] Memory required for data: 162989568
I1020 06:31:40.654593 11286 layer_factory.hpp:77] Creating layer drop2
I1020 06:31:40.654598 11286 net.cpp:100] Creating Layer drop2
I1020 06:31:40.654603 11286 net.cpp:434] drop2 <- relu3
I1020 06:31:40.654608 11286 net.cpp:408] drop2 -> drop2
I1020 06:31:40.654635 11286 net.cpp:150] Setting up drop2
I1020 06:31:40.654640 11286 net.cpp:157] Top shape: 64 240 12 12 (2211840)
I1020 06:31:40.654644 11286 net.cpp:165] Memory required for data: 171836928
I1020 06:31:40.654647 11286 layer_factory.hpp:77] Creating layer pool2
I1020 06:31:40.654651 11286 net.cpp:100] Creating Layer pool2
I1020 06:31:40.654654 11286 net.cpp:434] pool2 <- drop2
I1020 06:31:40.654660 11286 net.cpp:408] pool2 -> pool2
I1020 06:31:40.654687 11286 net.cpp:150] Setting up pool2
I1020 06:31:40.654693 11286 net.cpp:157] Top shape: 64 240 6 6 (552960)
I1020 06:31:40.654696 11286 net.cpp:165] Memory required for data: 174048768
I1020 06:31:40.654700 11286 layer_factory.hpp:77] Creating layer conv4
I1020 06:31:40.654707 11286 net.cpp:100] Creating Layer conv4
I1020 06:31:40.654711 11286 net.cpp:434] conv4 <- pool2
I1020 06:31:40.654716 11286 net.cpp:408] conv4 -> conv4
I1020 06:31:40.655544 11286 net.cpp:150] Setting up conv4
I1020 06:31:40.655552 11286 net.cpp:157] Top shape: 64 240 6 6 (552960)
I1020 06:31:40.655555 11286 net.cpp:165] Memory required for data: 176260608
I1020 06:31:40.655561 11286 layer_factory.hpp:77] Creating layer relu4
I1020 06:31:40.655566 11286 net.cpp:100] Creating Layer relu4
I1020 06:31:40.655570 11286 net.cpp:434] relu4 <- conv4
I1020 06:31:40.655576 11286 net.cpp:408] relu4 -> relu4
I1020 06:31:40.655690 11286 net.cpp:150] Setting up relu4
I1020 06:31:40.655697 11286 net.cpp:157] Top shape: 64 240 6 6 (552960)
I1020 06:31:40.655701 11286 net.cpp:165] Memory required for data: 178472448
I1020 06:31:40.655704 11286 layer_factory.hpp:77] Creating layer conv5
I1020 06:31:40.655711 11286 net.cpp:100] Creating Layer conv5
I1020 06:31:40.655715 11286 net.cpp:434] conv5 <- relu4
I1020 06:31:40.655721 11286 net.cpp:408] conv5 -> conv5
I1020 06:31:40.657466 11286 net.cpp:150] Setting up conv5
I1020 06:31:40.657475 11286 net.cpp:157] Top shape: 64 260 5 5 (416000)
I1020 06:31:40.657480 11286 net.cpp:165] Memory required for data: 180136448
I1020 06:31:40.657488 11286 layer_factory.hpp:77] Creating layer relu5
I1020 06:31:40.657497 11286 net.cpp:100] Creating Layer relu5
I1020 06:31:40.657501 11286 net.cpp:434] relu5 <- conv5
I1020 06:31:40.657506 11286 net.cpp:408] relu5 -> relu5
I1020 06:31:40.657624 11286 net.cpp:150] Setting up relu5
I1020 06:31:40.657630 11286 net.cpp:157] Top shape: 64 260 5 5 (416000)
I1020 06:31:40.657634 11286 net.cpp:165] Memory required for data: 181800448
I1020 06:31:40.657636 11286 layer_factory.hpp:77] Creating layer drop3
I1020 06:31:40.657642 11286 net.cpp:100] Creating Layer drop3
I1020 06:31:40.657646 11286 net.cpp:434] drop3 <- relu5
I1020 06:31:40.657651 11286 net.cpp:408] drop3 -> drop3
I1020 06:31:40.657677 11286 net.cpp:150] Setting up drop3
I1020 06:31:40.657682 11286 net.cpp:157] Top shape: 64 260 5 5 (416000)
I1020 06:31:40.657685 11286 net.cpp:165] Memory required for data: 183464448
I1020 06:31:40.657688 11286 layer_factory.hpp:77] Creating layer pool3
I1020 06:31:40.657692 11286 net.cpp:100] Creating Layer pool3
I1020 06:31:40.657696 11286 net.cpp:434] pool3 <- drop3
I1020 06:31:40.657702 11286 net.cpp:408] pool3 -> pool3
I1020 06:31:40.657728 11286 net.cpp:150] Setting up pool3
I1020 06:31:40.657733 11286 net.cpp:157] Top shape: 64 260 3 3 (149760)
I1020 06:31:40.657737 11286 net.cpp:165] Memory required for data: 184063488
I1020 06:31:40.657739 11286 layer_factory.hpp:77] Creating layer conv6
I1020 06:31:40.657747 11286 net.cpp:100] Creating Layer conv6
I1020 06:31:40.657749 11286 net.cpp:434] conv6 <- pool3
I1020 06:31:40.657754 11286 net.cpp:408] conv6 -> conv6
I1020 06:31:40.658855 11286 net.cpp:150] Setting up conv6
I1020 06:31:40.658871 11286 net.cpp:157] Top shape: 64 260 3 3 (149760)
I1020 06:31:40.658875 11286 net.cpp:165] Memory required for data: 184662528
I1020 06:31:40.658881 11286 layer_factory.hpp:77] Creating layer relu6
I1020 06:31:40.658887 11286 net.cpp:100] Creating Layer relu6
I1020 06:31:40.658891 11286 net.cpp:434] relu6 <- conv6
I1020 06:31:40.658895 11286 net.cpp:408] relu6 -> relu6
I1020 06:31:40.659090 11286 net.cpp:150] Setting up relu6
I1020 06:31:40.659099 11286 net.cpp:157] Top shape: 64 260 3 3 (149760)
I1020 06:31:40.659102 11286 net.cpp:165] Memory required for data: 185261568
I1020 06:31:40.659106 11286 layer_factory.hpp:77] Creating layer conv7
I1020 06:31:40.659112 11286 net.cpp:100] Creating Layer conv7
I1020 06:31:40.659116 11286 net.cpp:434] conv7 <- relu6
I1020 06:31:40.659121 11286 net.cpp:408] conv7 -> conv7
I1020 06:31:40.661043 11286 net.cpp:150] Setting up conv7
I1020 06:31:40.661052 11286 net.cpp:157] Top shape: 64 280 2 2 (71680)
I1020 06:31:40.661056 11286 net.cpp:165] Memory required for data: 185548288
I1020 06:31:40.661062 11286 layer_factory.hpp:77] Creating layer relu7
I1020 06:31:40.661069 11286 net.cpp:100] Creating Layer relu7
I1020 06:31:40.661073 11286 net.cpp:434] relu7 <- conv7
I1020 06:31:40.661078 11286 net.cpp:408] relu7 -> relu7
I1020 06:31:40.661195 11286 net.cpp:150] Setting up relu7
I1020 06:31:40.661202 11286 net.cpp:157] Top shape: 64 280 2 2 (71680)
I1020 06:31:40.661206 11286 net.cpp:165] Memory required for data: 185835008
I1020 06:31:40.661208 11286 layer_factory.hpp:77] Creating layer drop4
I1020 06:31:40.661214 11286 net.cpp:100] Creating Layer drop4
I1020 06:31:40.661218 11286 net.cpp:434] drop4 <- relu7
I1020 06:31:40.661222 11286 net.cpp:408] drop4 -> drop4
I1020 06:31:40.661247 11286 net.cpp:150] Setting up drop4
I1020 06:31:40.661253 11286 net.cpp:157] Top shape: 64 280 2 2 (71680)
I1020 06:31:40.661255 11286 net.cpp:165] Memory required for data: 186121728
I1020 06:31:40.661258 11286 layer_factory.hpp:77] Creating layer pool4
I1020 06:31:40.661264 11286 net.cpp:100] Creating Layer pool4
I1020 06:31:40.661269 11286 net.cpp:434] pool4 <- drop4
I1020 06:31:40.661273 11286 net.cpp:408] pool4 -> pool4
I1020 06:31:40.661298 11286 net.cpp:150] Setting up pool4
I1020 06:31:40.661303 11286 net.cpp:157] Top shape: 64 280 1 1 (17920)
I1020 06:31:40.661308 11286 net.cpp:165] Memory required for data: 186193408
I1020 06:31:40.661310 11286 layer_factory.hpp:77] Creating layer conv8
I1020 06:31:40.661317 11286 net.cpp:100] Creating Layer conv8
I1020 06:31:40.661320 11286 net.cpp:434] conv8 <- pool4
I1020 06:31:40.661325 11286 net.cpp:408] conv8 -> conv8
I1020 06:31:40.662307 11286 net.cpp:150] Setting up conv8
I1020 06:31:40.662317 11286 net.cpp:157] Top shape: 64 280 1 1 (17920)
I1020 06:31:40.662319 11286 net.cpp:165] Memory required for data: 186265088
I1020 06:31:40.662325 11286 layer_factory.hpp:77] Creating layer relu8
I1020 06:31:40.662331 11286 net.cpp:100] Creating Layer relu8
I1020 06:31:40.662335 11286 net.cpp:434] relu8 <- conv8
I1020 06:31:40.662340 11286 net.cpp:408] relu8 -> relu8
I1020 06:31:40.662464 11286 net.cpp:150] Setting up relu8
I1020 06:31:40.662472 11286 net.cpp:157] Top shape: 64 280 1 1 (17920)
I1020 06:31:40.662477 11286 net.cpp:165] Memory required for data: 186336768
I1020 06:31:40.662480 11286 layer_factory.hpp:77] Creating layer drop5
I1020 06:31:40.662487 11286 net.cpp:100] Creating Layer drop5
I1020 06:31:40.662489 11286 net.cpp:434] drop5 <- relu8
I1020 06:31:40.662494 11286 net.cpp:408] drop5 -> drop5
I1020 06:31:40.662523 11286 net.cpp:150] Setting up drop5
I1020 06:31:40.662528 11286 net.cpp:157] Top shape: 64 280 1 1 (17920)
I1020 06:31:40.662530 11286 net.cpp:165] Memory required for data: 186408448
I1020 06:31:40.662533 11286 layer_factory.hpp:77] Creating layer pool5
I1020 06:31:40.662540 11286 net.cpp:100] Creating Layer pool5
I1020 06:31:40.662544 11286 net.cpp:434] pool5 <- drop5
I1020 06:31:40.662549 11286 net.cpp:408] pool5 -> pool5
I1020 06:31:40.662577 11286 net.cpp:150] Setting up pool5
I1020 06:31:40.662585 11286 net.cpp:157] Top shape: 64 280 1 1 (17920)
I1020 06:31:40.662595 11286 net.cpp:165] Memory required for data: 186480128
I1020 06:31:40.662600 11286 layer_factory.hpp:77] Creating layer conv10
I1020 06:31:40.662606 11286 net.cpp:100] Creating Layer conv10
I1020 06:31:40.662609 11286 net.cpp:434] conv10 <- pool5
I1020 06:31:40.662614 11286 net.cpp:408] conv10 -> conv10
I1020 06:31:40.663559 11286 net.cpp:150] Setting up conv10
I1020 06:31:40.663568 11286 net.cpp:157] Top shape: 64 300 1 1 (19200)
I1020 06:31:40.663573 11286 net.cpp:165] Memory required for data: 186556928
I1020 06:31:40.663583 11286 layer_factory.hpp:77] Creating layer relu10
I1020 06:31:40.663588 11286 net.cpp:100] Creating Layer relu10
I1020 06:31:40.663591 11286 net.cpp:434] relu10 <- conv10
I1020 06:31:40.663596 11286 net.cpp:408] relu10 -> relu10
I1020 06:31:40.664327 11286 net.cpp:150] Setting up relu10
I1020 06:31:40.664336 11286 net.cpp:157] Top shape: 64 300 1 1 (19200)
I1020 06:31:40.664340 11286 net.cpp:165] Memory required for data: 186633728
I1020 06:31:40.664342 11286 layer_factory.hpp:77] Creating layer drop6
I1020 06:31:40.664350 11286 net.cpp:100] Creating Layer drop6
I1020 06:31:40.664353 11286 net.cpp:434] drop6 <- relu10
I1020 06:31:40.664358 11286 net.cpp:408] drop6 -> drop6
I1020 06:31:40.664386 11286 net.cpp:150] Setting up drop6
I1020 06:31:40.664391 11286 net.cpp:157] Top shape: 64 300 1 1 (19200)
I1020 06:31:40.664396 11286 net.cpp:165] Memory required for data: 186710528
I1020 06:31:40.664398 11286 layer_factory.hpp:77] Creating layer pool6
I1020 06:31:40.664407 11286 net.cpp:100] Creating Layer pool6
I1020 06:31:40.664410 11286 net.cpp:434] pool6 <- drop6
I1020 06:31:40.664415 11286 net.cpp:408] pool6 -> pool6
I1020 06:31:40.664441 11286 net.cpp:150] Setting up pool6
I1020 06:31:40.664446 11286 net.cpp:157] Top shape: 64 300 1 1 (19200)
I1020 06:31:40.664449 11286 net.cpp:165] Memory required for data: 186787328
I1020 06:31:40.664453 11286 layer_factory.hpp:77] Creating layer conv11
I1020 06:31:40.664460 11286 net.cpp:100] Creating Layer conv11
I1020 06:31:40.664463 11286 net.cpp:434] conv11 <- pool6
I1020 06:31:40.664469 11286 net.cpp:408] conv11 -> conv11
I1020 06:31:40.665199 11286 net.cpp:150] Setting up conv11
I1020 06:31:40.665207 11286 net.cpp:157] Top shape: 64 100 1 1 (6400)
I1020 06:31:40.665210 11286 net.cpp:165] Memory required for data: 186812928
I1020 06:31:40.665216 11286 layer_factory.hpp:77] Creating layer relu11
I1020 06:31:40.665222 11286 net.cpp:100] Creating Layer relu11
I1020 06:31:40.665226 11286 net.cpp:434] relu11 <- conv11
I1020 06:31:40.665231 11286 net.cpp:408] relu11 -> relu11
I1020 06:31:40.665350 11286 net.cpp:150] Setting up relu11
I1020 06:31:40.665357 11286 net.cpp:157] Top shape: 64 100 1 1 (6400)
I1020 06:31:40.665362 11286 net.cpp:165] Memory required for data: 186838528
I1020 06:31:40.665365 11286 layer_factory.hpp:77] Creating layer drop7
I1020 06:31:40.665370 11286 net.cpp:100] Creating Layer drop7
I1020 06:31:40.665374 11286 net.cpp:434] drop7 <- relu11
I1020 06:31:40.665381 11286 net.cpp:408] drop7 -> drop7
I1020 06:31:40.665408 11286 net.cpp:150] Setting up drop7
I1020 06:31:40.665413 11286 net.cpp:157] Top shape: 64 100 1 1 (6400)
I1020 06:31:40.665417 11286 net.cpp:165] Memory required for data: 186864128
I1020 06:31:40.665421 11286 layer_factory.hpp:77] Creating layer pool7
I1020 06:31:40.665426 11286 net.cpp:100] Creating Layer pool7
I1020 06:31:40.665431 11286 net.cpp:434] pool7 <- drop7
I1020 06:31:40.665434 11286 net.cpp:408] pool7 -> pool7
I1020 06:31:40.665462 11286 net.cpp:150] Setting up pool7
I1020 06:31:40.665467 11286 net.cpp:157] Top shape: 64 100 1 1 (6400)
I1020 06:31:40.665469 11286 net.cpp:165] Memory required for data: 186889728
I1020 06:31:40.665472 11286 layer_factory.hpp:77] Creating layer pool7_pool7_0_split
I1020 06:31:40.665477 11286 net.cpp:100] Creating Layer pool7_pool7_0_split
I1020 06:31:40.665482 11286 net.cpp:434] pool7_pool7_0_split <- pool7
I1020 06:31:40.665487 11286 net.cpp:408] pool7_pool7_0_split -> pool7_pool7_0_split_0
I1020 06:31:40.665493 11286 net.cpp:408] pool7_pool7_0_split -> pool7_pool7_0_split_1
I1020 06:31:40.665527 11286 net.cpp:150] Setting up pool7_pool7_0_split
I1020 06:31:40.665534 11286 net.cpp:157] Top shape: 64 100 1 1 (6400)
I1020 06:31:40.665536 11286 net.cpp:157] Top shape: 64 100 1 1 (6400)
I1020 06:31:40.665540 11286 net.cpp:165] Memory required for data: 186940928
I1020 06:31:40.665542 11286 layer_factory.hpp:77] Creating layer ip_c
I1020 06:31:40.665549 11286 net.cpp:100] Creating Layer ip_c
I1020 06:31:40.665552 11286 net.cpp:434] ip_c <- pool7_pool7_0_split_0
I1020 06:31:40.665557 11286 net.cpp:408] ip_c -> ip_c
I1020 06:31:40.665892 11286 net.cpp:150] Setting up ip_c
I1020 06:31:40.665900 11286 net.cpp:157] Top shape: 64 20 (1280)
I1020 06:31:40.665904 11286 net.cpp:165] Memory required for data: 186946048
I1020 06:31:40.665909 11286 layer_factory.hpp:77] Creating layer ip_c_ip_c_0_split
I1020 06:31:40.665915 11286 net.cpp:100] Creating Layer ip_c_ip_c_0_split
I1020 06:31:40.665920 11286 net.cpp:434] ip_c_ip_c_0_split <- ip_c
I1020 06:31:40.665925 11286 net.cpp:408] ip_c_ip_c_0_split -> ip_c_ip_c_0_split_0
I1020 06:31:40.665931 11286 net.cpp:408] ip_c_ip_c_0_split -> ip_c_ip_c_0_split_1
I1020 06:31:40.665957 11286 net.cpp:150] Setting up ip_c_ip_c_0_split
I1020 06:31:40.665963 11286 net.cpp:157] Top shape: 64 20 (1280)
I1020 06:31:40.665966 11286 net.cpp:157] Top shape: 64 20 (1280)
I1020 06:31:40.665971 11286 net.cpp:165] Memory required for data: 186956288
I1020 06:31:40.665972 11286 layer_factory.hpp:77] Creating layer accuracy_f
I1020 06:31:40.665978 11286 net.cpp:100] Creating Layer accuracy_f
I1020 06:31:40.665982 11286 net.cpp:434] accuracy_f <- ip_c_ip_c_0_split_0
I1020 06:31:40.665985 11286 net.cpp:434] accuracy_f <- label_coarse_data_1_split_0
I1020 06:31:40.665990 11286 net.cpp:408] accuracy_f -> accuracy_f
…
I1020 06:31:40.666868 11286 net.cpp:283] Network initialization done.
I1020 06:31:40.667057 11286 solver.cpp:181] Creating test net (#0) specified by test_net file: /home/adam/Honours/Honours-Project/cifar-100_pooling/max/relu/poolcnn_relu_test.prototxt
I1020 06:31:40.667176 11286 net.cpp:58] Initializing net from parameters: 
state {
  phase: TEST
}
layer {
  name: "data"
  type: "HDF5Data"
  top: "data"
  top: "label_coarse"
  top: "label_fine"
  hdf5_data_param {
    source: "../../../../data/cifar-100/cifar_100_caffe_hdf5/test.txt"
    batch_size: 100
  }
}
layer {
  name: "conv1"
  type: "Convolution"
  bottom: "data"
  top: "conv1"
  convolution_param {
    num_output: 192
    kernel_size: 5
    weight_filler {
      type: "xavier"
    }
  }
}
layer {
  name: "relu1"
  type: "ReLU"
  bottom: "conv1"
  top: "relu1"
}
layer {
  name: "drop1"
  type: "Dropout"
  bottom: "relu1"
  top: "drop1"
  dropout_param {
    dropout_ratio: 0
  }
}
layer {
  name: "pool1"
  type: "Pooling"
  bottom: "drop1"
  top: "pool1"
  pooling_param {
    pool: MAX
    kernel_size: 2
    stride: 2
  }
}
layer {
  name: "conv2"
  type: "Convolution"
  bottom: "pool1"
  top: "conv2"
  convolution_param {
    num_output: 192
    kernel_size: 1
    weight_filler {
      type: "xavier"
    }
  }
}
layer {
  name: "relu2"
  type: "ReLU"
  bottom: "conv2"
  top: "relu2"
}
layer {
  name: "conv3"
  type: "Convolution"
  bottom: "relu2"
  top: "conv3"
  convolution_param {
    num_output: 240
    kernel_size: 3
    weight_filler {
      type: "xavier"
    }
  }
}
layer {
  name: "relu3"
  type: "ReLU"
  bottom: "conv3"
  top: "relu3"
}
layer {
  name: "drop2"
  type: "Dropout"
  bottom: "relu3"
  top: "drop2"
  dropout_param {
    dropout_ratio: 0.1
  }
}
layer {
  name: "pool2"
  type: "Pooling"
  bottom: "drop2"
  top: "pool2"
  pooling_param {
    pool: MAX
    kernel_size: 2
    stride: 2
  }
}
layer {
  name: "conv4"
  type: "Convolution"
  bottom: "pool2"
  top: "conv4"
  convolution_param {
    num_output: 240
    kernel_size: 1
    weight_filler {
      type: "xavier"
    }
  }
}
layer {
  name: "relu4"
  type: "ReLU"
  bottom: "conv4"
  top: "relu4"
}
layer {
  name: "conv5"
  type: "Convolution"
  bottom: "relu4"
  top: "conv5"
  convolution_param {
    num_output: 260
    kernel_size: 2
    weight_filler {
      type: "xavier"
    }
  }
}
layer {
  name: "relu5"
  type: "ReLU"
  bottom: "conv5"
  top: "relu5"
}
layer {
  name: "drop3"
  type: "Dropout"
  bottom: "relu5"
  top: "drop3"
  dropout_param {
    dropout_ratio: 0.2
  }
}
layer {
  name: "pool3"
  type: "Pooling"
  bottom: "drop3"
  top: "pool3"
  pooling_param {
    pool: MAX
    kernel_size: 2
    stride: 2
  }
}
layer {
  name: "conv6"
  type: "Convolution"
  bottom: "pool3"
  top: "conv6"
  convolution_param {
    num_output: 260
    kernel_size: 1
    weight_filler {
      type: "xavier"
    }
  }
}
layer {
  name: "relu6"
  type: "ReLU"
  bottom: "conv6"
  top: "relu6"
}
layer {
  name: "conv7"
  type: "Convolution"
  bottom: "relu6"
  top: "conv7"
  convolution_param {
    num_output: 280
    kernel_size: 2
    weight_filler {
      type: "xavier"
    }
  }
}
layer {
  name: "relu7"
  type: "ReLU"
  bottom: "conv7"
  top: "relu7"
}
layer {
  name: "drop4"
  type: "Dropout"
  bottom: "relu7"
  top: "drop4"
  dropout_param {
    dropout_ratio: 0.3
  }
}
layer {
  name: "pool4"
  type: "Pooling"
  bottom: "drop4"
  top: "pool4"
  pooling_param {
    pool: MAX
    kernel_size: 2
    stride: 2
  }
}
layer {
  name: "conv8"
  type: "Convolution"
  bottom: "pool4"
  top: "conv8"
  convolution_param {
    num_output: 280
    kernel_size: 1
    weight_filler {
      type: "xavier"
    }
  }
}
layer {
  name: "relu8"
  type: "ReLU"
  bottom: "conv8"
  top: "relu8"
}
layer {
  name: "drop5"
  type: "Dropout"
  bottom: "relu8"
  top: "drop5"
  dropout_param {
    dropout_ratio: 0.4
  }
}
layer {
  name: "pool5"
  type: "Pooling"
  bottom: "drop5"
  top: "pool5"
  pooling_param {
    pool: MAX
    kernel_size: 2
    stride: 2
  }
}
layer {
  name: "conv10"
  type: "Convolution"
  bottom: "pool5"
  top: "conv10"
  convolution_param {
    num_output: 300
    kernel_size: 1
    weight_filler {
      type: "xavier"
    }
  }
}
layer {
  name: "relu10"
  type: "ReLU"
  bottom: "conv10"
  top: "relu10"
}
layer {
  name: "drop6"
  type: "Dropout"
  bottom: "relu10"
  top: "drop6"
  dropout_param {
    dropout_ratio: 0.5
  }
}
layer {
  name: "pool6"
  type: "Pooling"
  bottom: "drop6"
  top: "pool6"
  pooling_param {
    pool: MAX
    kernel_size: 2
    stride: 2
  }
}
layer {
  name: "conv11"
  type: "Convolution"
  bottom: "pool6"
  top: "conv11"
  convolution_param {
    num_output: 100
    kernel_size: 1
    weight_filler {
      type: "xavier"
    }
  }
}
layer {
  name: "relu11"
  type: "ReLU"
  bottom: "conv11"
  top: "relu11"
}
layer {
  name: "drop7"
  type: "Dropout"
  bottom: "relu11"
  top: "drop7"
  dropout_param {
    dropout_ratio: 0
  }
}
layer {
  name: "pool7"
  type: "Pooling"
  bottom: "drop7"
  top: "pool7"
  pooling_param {
    pool: MAX
    kernel_size: 2
    stride: 2
  }
}
layer {
  name: "ip_c"
  type: "InnerProduct"
  bottom: "pool7"
  top: "ip_c"
  inner_product_param {
    num_output: 20
    weight_filler {
      type: "xavier"
    }
  }
}
layer {
  name: "accuracy_f"
  type: "Accuracy"
  bottom: "ip_c"
  bottom: "label_coarse"
  top: "accuracy_f"
}
layer {
  name: "loss_c"
  type: "SoftmaxWithLoss"
  bottom: "ip_c"
  bottom: "label_coarse"
  top: "loss_c"
}
layer {
  name: "ip_f"
  type: "InnerProduct"
  bottom: "pool7"
  top: "ip_f"
  inner_product_param {
    num_output: 100
    weight_filler {
      type: "xavier"
    }
  }
}
layer {
  name: "accuracy"
  type: "Accuracy"
  bottom: "ip_f"
  bottom: "label_fine"
  top: "accuracy"
}
layer {
  name: "loss_f"
  type: "SoftmaxWithLoss"
  bottom: "ip_f"
  bottom: "label_fine"
  top: "loss_f"
}
I1020 06:31:40.667264 11286 layer_factory.hpp:77] Creating layer data
I1020 06:31:40.667270 11286 net.cpp:100] Creating Layer data
I1020 06:31:40.667273 11286 net.cpp:408] data -> data
I1020 06:31:40.667276 11286 net.cpp:408] data -> label_coarse
I1020 06:31:40.667280 11286 net.cpp:408] data -> label_fine
I1020 06:31:40.667284 11286 hdf5_data_layer.cpp:79] Loading list of HDF5 filenames from: ../../../../data/cifar-100/cifar_100_caffe_hdf5/test.txt
I1020 06:31:40.667299 11286 hdf5_data_layer.cpp:93] Number of HDF5 files: 1
I1020 06:31:40.922454 11286 net.cpp:150] Setting up data
I1020 06:31:40.922477 11286 net.cpp:157] Top shape: 100 3 32 32 (307200)
I1020 06:31:40.922482 11286 net.cpp:157] Top shape: 100 (100)
I1020 06:31:40.922483 11286 net.cpp:157] Top shape: 100 (100)
I1020 06:31:40.922484 11286 net.cpp:165] Memory required for data: 1229600
I1020 06:31:40.922489 11286 layer_factory.hpp:77] Creating layer label_coarse_data_1_split
I1020 06:31:40.922498 11286 net.cpp:100] Creating Layer label_coarse_data_1_split
I1020 06:31:40.922502 11286 net.cpp:434] label_coarse_data_1_split <- label_coarse
I1020 06:31:40.922505 11286 net.cpp:408] label_coarse_data_1_split -> label_coarse_data_1_split_0
I1020 06:31:40.922513 11286 net.cpp:408] label_coarse_data_1_split -> label_coarse_data_1_split_1
I1020 06:31:40.922538 11286 net.cpp:150] Setting up label_coarse_data_1_split
I1020 06:31:40.922541 11286 net.cpp:157] Top shape: 100 (100)
I1020 06:31:40.922544 11286 net.cpp:157] Top shape: 100 (100)
I1020 06:31:40.922545 11286 net.cpp:165] Memory required for data: 1230400
I1020 06:31:40.922564 11286 layer_factory.hpp:77] Creating layer label_fine_data_2_split
I1020 06:31:40.922566 11286 net.cpp:100] Creating Layer label_fine_data_2_split
I1020 06:31:40.922569 11286 net.cpp:434] label_fine_data_2_split <- label_fine
I1020 06:31:40.922572 11286 net.cpp:408] label_fine_data_2_split -> label_fine_data_2_split_0
I1020 06:31:40.922576 11286 net.cpp:408] label_fine_data_2_split -> label_fine_data_2_split_1
I1020 06:31:40.922603 11286 net.cpp:150] Setting up label_fine_data_2_split
I1020 06:31:40.922607 11286 net.cpp:157] Top shape: 100 (100)
I1020 06:31:40.922610 11286 net.cpp:157] Top shape: 100 (100)
I1020 06:31:40.922611 11286 net.cpp:165] Memory required for data: 1231200
I1020 06:31:40.922612 11286 layer_factory.hpp:77] Creating layer conv1
I1020 06:31:40.922619 11286 net.cpp:100] Creating Layer conv1
I1020 06:31:40.922621 11286 net.cpp:434] conv1 <- data
I1020 06:31:40.922624 11286 net.cpp:408] conv1 -> conv1
I1020 06:31:40.923451 11286 net.cpp:150] Setting up conv1
I1020 06:31:40.923460 11286 net.cpp:157] Top shape: 100 192 28 28 (15052800)
I1020 06:31:40.923461 11286 net.cpp:165] Memory required for data: 61442400
I1020 06:31:40.923470 11286 layer_factory.hpp:77] Creating layer relu1
I1020 06:31:40.923475 11286 net.cpp:100] Creating Layer relu1
I1020 06:31:40.923475 11286 net.cpp:434] relu1 <- conv1
I1020 06:31:40.923478 11286 net.cpp:408] relu1 -> relu1
I1020 06:31:40.923600 11286 net.cpp:150] Setting up relu1
I1020 06:31:40.923606 11286 net.cpp:157] Top shape: 100 192 28 28 (15052800)
I1020 06:31:40.923609 11286 net.cpp:165] Memory required for data: 121653600
I1020 06:31:40.923610 11286 layer_factory.hpp:77] Creating layer drop1
I1020 06:31:40.923614 11286 net.cpp:100] Creating Layer drop1
I1020 06:31:40.923616 11286 net.cpp:434] drop1 <- relu1
I1020 06:31:40.923619 11286 net.cpp:408] drop1 -> drop1
I1020 06:31:40.923645 11286 net.cpp:150] Setting up drop1
I1020 06:31:40.923650 11286 net.cpp:157] Top shape: 100 192 28 28 (15052800)
I1020 06:31:40.923651 11286 net.cpp:165] Memory required for data: 181864800
I1020 06:31:40.923653 11286 layer_factory.hpp:77] Creating layer pool1
I1020 06:31:40.923658 11286 net.cpp:100] Creating Layer pool1
I1020 06:31:40.923662 11286 net.cpp:434] pool1 <- drop1
I1020 06:31:40.923666 11286 net.cpp:408] pool1 -> pool1
I1020 06:31:40.923692 11286 net.cpp:150] Setting up pool1
I1020 06:31:40.923696 11286 net.cpp:157] Top shape: 100 192 14 14 (3763200)
I1020 06:31:40.923697 11286 net.cpp:165] Memory required for data: 196917600
I1020 06:31:40.923699 11286 layer_factory.hpp:77] Creating layer conv2
I1020 06:31:40.923703 11286 net.cpp:100] Creating Layer conv2
I1020 06:31:40.923705 11286 net.cpp:434] conv2 <- pool1
I1020 06:31:40.923708 11286 net.cpp:408] conv2 -> conv2
I1020 06:31:40.924479 11286 net.cpp:150] Setting up conv2
I1020 06:31:40.924487 11286 net.cpp:157] Top shape: 100 192 14 14 (3763200)
I1020 06:31:40.924491 11286 net.cpp:165] Memory required for data: 211970400
I1020 06:31:40.924499 11286 layer_factory.hpp:77] Creating layer relu2
I1020 06:31:40.924505 11286 net.cpp:100] Creating Layer relu2
I1020 06:31:40.924507 11286 net.cpp:434] relu2 <- conv2
I1020 06:31:40.924510 11286 net.cpp:408] relu2 -> relu2
I1020 06:31:40.924706 11286 net.cpp:150] Setting up relu2
I1020 06:31:40.924713 11286 net.cpp:157] Top shape: 100 192 14 14 (3763200)
I1020 06:31:40.924715 11286 net.cpp:165] Memory required for data: 227023200
I1020 06:31:40.924717 11286 layer_factory.hpp:77] Creating layer conv3
I1020 06:31:40.924721 11286 net.cpp:100] Creating Layer conv3
I1020 06:31:40.924724 11286 net.cpp:434] conv3 <- relu2
I1020 06:31:40.924727 11286 net.cpp:408] conv3 -> conv3
I1020 06:31:40.927175 11286 net.cpp:150] Setting up conv3
I1020 06:31:40.927182 11286 net.cpp:157] Top shape: 100 240 12 12 (3456000)
I1020 06:31:40.927186 11286 net.cpp:165] Memory required for data: 240847200
I1020 06:31:40.927191 11286 layer_factory.hpp:77] Creating layer relu3
I1020 06:31:40.927194 11286 net.cpp:100] Creating Layer relu3
I1020 06:31:40.927196 11286 net.cpp:434] relu3 <- conv3
I1020 06:31:40.927207 11286 net.cpp:408] relu3 -> relu3
I1020 06:31:40.927323 11286 net.cpp:150] Setting up relu3
I1020 06:31:40.927330 11286 net.cpp:157] Top shape: 100 240 12 12 (3456000)
I1020 06:31:40.927330 11286 net.cpp:165] Memory required for data: 254671200
I1020 06:31:40.927333 11286 layer_factory.hpp:77] Creating layer drop2
I1020 06:31:40.927336 11286 net.cpp:100] Creating Layer drop2
I1020 06:31:40.927337 11286 net.cpp:434] drop2 <- relu3
I1020 06:31:40.927340 11286 net.cpp:408] drop2 -> drop2
I1020 06:31:40.927366 11286 net.cpp:150] Setting up drop2
I1020 06:31:40.927371 11286 net.cpp:157] Top shape: 100 240 12 12 (3456000)
I1020 06:31:40.927371 11286 net.cpp:165] Memory required for data: 268495200
I1020 06:31:40.927373 11286 layer_factory.hpp:77] Creating layer pool2
I1020 06:31:40.927377 11286 net.cpp:100] Creating Layer pool2
I1020 06:31:40.927381 11286 net.cpp:434] pool2 <- drop2
I1020 06:31:40.927386 11286 net.cpp:408] pool2 -> pool2
I1020 06:31:40.927413 11286 net.cpp:150] Setting up pool2
I1020 06:31:40.927418 11286 net.cpp:157] Top shape: 100 240 6 6 (864000)
I1020 06:31:40.927419 11286 net.cpp:165] Memory required for data: 271951200
I1020 06:31:40.927422 11286 layer_factory.hpp:77] Creating layer conv4
I1020 06:31:40.927425 11286 net.cpp:100] Creating Layer conv4
I1020 06:31:40.927428 11286 net.cpp:434] conv4 <- pool2
I1020 06:31:40.927430 11286 net.cpp:408] conv4 -> conv4
I1020 06:31:40.928524 11286 net.cpp:150] Setting up conv4
I1020 06:31:40.928532 11286 net.cpp:157] Top shape: 100 240 6 6 (864000)
I1020 06:31:40.928534 11286 net.cpp:165] Memory required for data: 275407200
I1020 06:31:40.928539 11286 layer_factory.hpp:77] Creating layer relu4
I1020 06:31:40.928542 11286 net.cpp:100] Creating Layer relu4
I1020 06:31:40.928544 11286 net.cpp:434] relu4 <- conv4
I1020 06:31:40.928547 11286 net.cpp:408] relu4 -> relu4
I1020 06:31:40.928664 11286 net.cpp:150] Setting up relu4
I1020 06:31:40.928669 11286 net.cpp:157] Top shape: 100 240 6 6 (864000)
I1020 06:31:40.928671 11286 net.cpp:165] Memory required for data: 278863200
I1020 06:31:40.928673 11286 layer_factory.hpp:77] Creating layer conv5
I1020 06:31:40.928678 11286 net.cpp:100] Creating Layer conv5
I1020 06:31:40.928679 11286 net.cpp:434] conv5 <- relu4
I1020 06:31:40.928683 11286 net.cpp:408] conv5 -> conv5
I1020 06:31:40.930439 11286 net.cpp:150] Setting up conv5
I1020 06:31:40.930449 11286 net.cpp:157] Top shape: 100 260 5 5 (650000)
I1020 06:31:40.930452 11286 net.cpp:165] Memory required for data: 281463200
I1020 06:31:40.930460 11286 layer_factory.hpp:77] Creating layer relu5
I1020 06:31:40.930467 11286 net.cpp:100] Creating Layer relu5
I1020 06:31:40.930470 11286 net.cpp:434] relu5 <- conv5
I1020 06:31:40.930475 11286 net.cpp:408] relu5 -> relu5
I1020 06:31:40.930740 11286 net.cpp:150] Setting up relu5
I1020 06:31:40.930748 11286 net.cpp:157] Top shape: 100 260 5 5 (650000)
I1020 06:31:40.930752 11286 net.cpp:165] Memory required for data: 284063200
I1020 06:31:40.930754 11286 layer_factory.hpp:77] Creating layer drop3
I1020 06:31:40.930758 11286 net.cpp:100] Creating Layer drop3
I1020 06:31:40.930763 11286 net.cpp:434] drop3 <- relu5
I1020 06:31:40.930769 11286 net.cpp:408] drop3 -> drop3
I1020 06:31:40.930796 11286 net.cpp:150] Setting up drop3
I1020 06:31:40.930801 11286 net.cpp:157] Top shape: 100 260 5 5 (650000)
I1020 06:31:40.930805 11286 net.cpp:165] Memory required for data: 286663200
I1020 06:31:40.930807 11286 layer_factory.hpp:77] Creating layer pool3
I1020 06:31:40.930814 11286 net.cpp:100] Creating Layer pool3
I1020 06:31:40.930816 11286 net.cpp:434] pool3 <- drop3
I1020 06:31:40.930822 11286 net.cpp:408] pool3 -> pool3
I1020 06:31:40.930848 11286 net.cpp:150] Setting up pool3
I1020 06:31:40.930853 11286 net.cpp:157] Top shape: 100 260 3 3 (234000)
I1020 06:31:40.930856 11286 net.cpp:165] Memory required for data: 287599200
I1020 06:31:40.930860 11286 layer_factory.hpp:77] Creating layer conv6
I1020 06:31:40.930866 11286 net.cpp:100] Creating Layer conv6
I1020 06:31:40.930868 11286 net.cpp:434] conv6 <- pool3
I1020 06:31:40.930882 11286 net.cpp:408] conv6 -> conv6
I1020 06:31:40.932008 11286 net.cpp:150] Setting up conv6
I1020 06:31:40.932015 11286 net.cpp:157] Top shape: 100 260 3 3 (234000)
I1020 06:31:40.932019 11286 net.cpp:165] Memory required for data: 288535200
I1020 06:31:40.932026 11286 layer_factory.hpp:77] Creating layer relu6
I1020 06:31:40.932032 11286 net.cpp:100] Creating Layer relu6
I1020 06:31:40.932035 11286 net.cpp:434] relu6 <- conv6
I1020 06:31:40.932040 11286 net.cpp:408] relu6 -> relu6
I1020 06:31:40.932157 11286 net.cpp:150] Setting up relu6
I1020 06:31:40.932163 11286 net.cpp:157] Top shape: 100 260 3 3 (234000)
I1020 06:31:40.932166 11286 net.cpp:165] Memory required for data: 289471200
I1020 06:31:40.932169 11286 layer_factory.hpp:77] Creating layer conv7
I1020 06:31:40.932176 11286 net.cpp:100] Creating Layer conv7
I1020 06:31:40.932179 11286 net.cpp:434] conv7 <- relu6
I1020 06:31:40.932184 11286 net.cpp:408] conv7 -> conv7
I1020 06:31:40.934121 11286 net.cpp:150] Setting up conv7
I1020 06:31:40.934130 11286 net.cpp:157] Top shape: 100 280 2 2 (112000)
I1020 06:31:40.934134 11286 net.cpp:165] Memory required for data: 289919200
I1020 06:31:40.934137 11286 layer_factory.hpp:77] Creating layer relu7
I1020 06:31:40.934140 11286 net.cpp:100] Creating Layer relu7
I1020 06:31:40.934144 11286 net.cpp:434] relu7 <- conv7
I1020 06:31:40.934146 11286 net.cpp:408] relu7 -> relu7
I1020 06:31:40.934267 11286 net.cpp:150] Setting up relu7
I1020 06:31:40.934273 11286 net.cpp:157] Top shape: 100 280 2 2 (112000)
I1020 06:31:40.934274 11286 net.cpp:165] Memory required for data: 290367200
I1020 06:31:40.934276 11286 layer_factory.hpp:77] Creating layer drop4
I1020 06:31:40.934280 11286 net.cpp:100] Creating Layer drop4
I1020 06:31:40.934281 11286 net.cpp:434] drop4 <- relu7
I1020 06:31:40.934284 11286 net.cpp:408] drop4 -> drop4
I1020 06:31:40.934309 11286 net.cpp:150] Setting up drop4
I1020 06:31:40.934315 11286 net.cpp:157] Top shape: 100 280 2 2 (112000)
I1020 06:31:40.934319 11286 net.cpp:165] Memory required for data: 290815200
I1020 06:31:40.934321 11286 layer_factory.hpp:77] Creating layer pool4
I1020 06:31:40.934326 11286 net.cpp:100] Creating Layer pool4
I1020 06:31:40.934329 11286 net.cpp:434] pool4 <- drop4
I1020 06:31:40.934332 11286 net.cpp:408] pool4 -> pool4
I1020 06:31:40.934357 11286 net.cpp:150] Setting up pool4
I1020 06:31:40.934362 11286 net.cpp:157] Top shape: 100 280 1 1 (28000)
I1020 06:31:40.934363 11286 net.cpp:165] Memory required for data: 290927200
I1020 06:31:40.934365 11286 layer_factory.hpp:77] Creating layer conv8
I1020 06:31:40.934370 11286 net.cpp:100] Creating Layer conv8
I1020 06:31:40.934372 11286 net.cpp:434] conv8 <- pool4
I1020 06:31:40.934376 11286 net.cpp:408] conv8 -> conv8
I1020 06:31:40.935339 11286 net.cpp:150] Setting up conv8
I1020 06:31:40.935348 11286 net.cpp:157] Top shape: 100 280 1 1 (28000)
I1020 06:31:40.935350 11286 net.cpp:165] Memory required for data: 291039200
I1020 06:31:40.935354 11286 layer_factory.hpp:77] Creating layer relu8
I1020 06:31:40.935358 11286 net.cpp:100] Creating Layer relu8
I1020 06:31:40.935359 11286 net.cpp:434] relu8 <- conv8
I1020 06:31:40.935362 11286 net.cpp:408] relu8 -> relu8
I1020 06:31:40.935556 11286 net.cpp:150] Setting up relu8
I1020 06:31:40.935564 11286 net.cpp:157] Top shape: 100 280 1 1 (28000)
I1020 06:31:40.935565 11286 net.cpp:165] Memory required for data: 291151200
I1020 06:31:40.935569 11286 layer_factory.hpp:77] Creating layer drop5
I1020 06:31:40.935571 11286 net.cpp:100] Creating Layer drop5
I1020 06:31:40.935573 11286 net.cpp:434] drop5 <- relu8
I1020 06:31:40.935576 11286 net.cpp:408] drop5 -> drop5
I1020 06:31:40.935603 11286 net.cpp:150] Setting up drop5
I1020 06:31:40.935607 11286 net.cpp:157] Top shape: 100 280 1 1 (28000)
I1020 06:31:40.935609 11286 net.cpp:165] Memory required for data: 291263200
I1020 06:31:40.935612 11286 layer_factory.hpp:77] Creating layer pool5
I1020 06:31:40.935616 11286 net.cpp:100] Creating Layer pool5
I1020 06:31:40.935621 11286 net.cpp:434] pool5 <- drop5
I1020 06:31:40.935636 11286 net.cpp:408] pool5 -> pool5
I1020 06:31:40.935669 11286 net.cpp:150] Setting up pool5
I1020 06:31:40.935673 11286 net.cpp:157] Top shape: 100 280 1 1 (28000)
I1020 06:31:40.935675 11286 net.cpp:165] Memory required for data: 291375200
I1020 06:31:40.935678 11286 layer_factory.hpp:77] Creating layer conv10
I1020 06:31:40.935681 11286 net.cpp:100] Creating Layer conv10
I1020 06:31:40.935683 11286 net.cpp:434] conv10 <- pool5
I1020 06:31:40.935688 11286 net.cpp:408] conv10 -> conv10
I1020 06:31:40.937050 11286 net.cpp:150] Setting up conv10
I1020 06:31:40.937058 11286 net.cpp:157] Top shape: 100 300 1 1 (30000)
I1020 06:31:40.937062 11286 net.cpp:165] Memory required for data: 291495200
I1020 06:31:40.937068 11286 layer_factory.hpp:77] Creating layer relu10
I1020 06:31:40.937072 11286 net.cpp:100] Creating Layer relu10
I1020 06:31:40.937073 11286 net.cpp:434] relu10 <- conv10
I1020 06:31:40.937077 11286 net.cpp:408] relu10 -> relu10
I1020 06:31:40.937185 11286 net.cpp:150] Setting up relu10
I1020 06:31:40.937191 11286 net.cpp:157] Top shape: 100 300 1 1 (30000)
I1020 06:31:40.937191 11286 net.cpp:165] Memory required for data: 291615200
I1020 06:31:40.937193 11286 layer_factory.hpp:77] Creating layer drop6
I1020 06:31:40.937197 11286 net.cpp:100] Creating Layer drop6
I1020 06:31:40.937198 11286 net.cpp:434] drop6 <- relu10
I1020 06:31:40.937201 11286 net.cpp:408] drop6 -> drop6
I1020 06:31:40.937225 11286 net.cpp:150] Setting up drop6
I1020 06:31:40.937229 11286 net.cpp:157] Top shape: 100 300 1 1 (30000)
I1020 06:31:40.937232 11286 net.cpp:165] Memory required for data: 291735200
I1020 06:31:40.937232 11286 layer_factory.hpp:77] Creating layer pool6
I1020 06:31:40.937237 11286 net.cpp:100] Creating Layer pool6
I1020 06:31:40.937240 11286 net.cpp:434] pool6 <- drop6
I1020 06:31:40.937243 11286 net.cpp:408] pool6 -> pool6
I1020 06:31:40.937266 11286 net.cpp:150] Setting up pool6
I1020 06:31:40.937269 11286 net.cpp:157] Top shape: 100 300 1 1 (30000)
I1020 06:31:40.937271 11286 net.cpp:165] Memory required for data: 291855200
I1020 06:31:40.937273 11286 layer_factory.hpp:77] Creating layer conv11
I1020 06:31:40.937278 11286 net.cpp:100] Creating Layer conv11
I1020 06:31:40.937279 11286 net.cpp:434] conv11 <- pool6
I1020 06:31:40.937283 11286 net.cpp:408] conv11 -> conv11
I1020 06:31:40.938004 11286 net.cpp:150] Setting up conv11
I1020 06:31:40.938011 11286 net.cpp:157] Top shape: 100 100 1 1 (10000)
I1020 06:31:40.938014 11286 net.cpp:165] Memory required for data: 291895200
I1020 06:31:40.938017 11286 layer_factory.hpp:77] Creating layer relu11
I1020 06:31:40.938020 11286 net.cpp:100] Creating Layer relu11
I1020 06:31:40.938022 11286 net.cpp:434] relu11 <- conv11
I1020 06:31:40.938025 11286 net.cpp:408] relu11 -> relu11
I1020 06:31:40.938133 11286 net.cpp:150] Setting up relu11
I1020 06:31:40.938138 11286 net.cpp:157] Top shape: 100 100 1 1 (10000)
I1020 06:31:40.938140 11286 net.cpp:165] Memory required for data: 291935200
I1020 06:31:40.938143 11286 layer_factory.hpp:77] Creating layer drop7
I1020 06:31:40.938145 11286 net.cpp:100] Creating Layer drop7
I1020 06:31:40.938148 11286 net.cpp:434] drop7 <- relu11
I1020 06:31:40.938150 11286 net.cpp:408] drop7 -> drop7
I1020 06:31:40.938174 11286 net.cpp:150] Setting up drop7
I1020 06:31:40.938179 11286 net.cpp:157] Top shape: 100 100 1 1 (10000)
I1020 06:31:40.938180 11286 net.cpp:165] Memory required for data: 291975200
I1020 06:31:40.938182 11286 layer_factory.hpp:77] Creating layer pool7
I1020 06:31:40.938184 11286 net.cpp:100] Creating Layer pool7
I1020 06:31:40.938187 11286 net.cpp:434] pool7 <- drop7
I1020 06:31:40.938189 11286 net.cpp:408] pool7 -> pool7
I1020 06:31:40.938213 11286 net.cpp:150] Setting up pool7
I1020 06:31:40.938217 11286 net.cpp:157] Top shape: 100 100 1 1 (10000)
I1020 06:31:40.938220 11286 net.cpp:165] Memory required for data: 292015200
I1020 06:31:40.938220 11286 layer_factory.hpp:77] Creating layer pool7_pool7_0_split
I1020 06:31:40.938225 11286 net.cpp:100] Creating Layer pool7_pool7_0_split
I1020 06:31:40.938228 11286 net.cpp:434] pool7_pool7_0_split <- pool7
I1020 06:31:40.938238 11286 net.cpp:408] pool7_pool7_0_split -> pool7_pool7_0_split_0
I1020 06:31:40.938243 11286 net.cpp:408] pool7_pool7_0_split -> pool7_pool7_0_split_1
I1020 06:31:40.938267 11286 net.cpp:150] Setting up pool7_pool7_0_split
I1020 06:31:40.938271 11286 net.cpp:157] Top shape: 100 100 1 1 (10000)
I1020 06:31:40.938274 11286 net.cpp:157] Top shape: 100 100 1 1 (10000)
I1020 06:31:40.938277 11286 net.cpp:165] Memory required for data: 292095200
I1020 06:31:40.938278 11286 layer_factory.hpp:77] Creating layer ip_c
I1020 06:31:40.938282 11286 net.cpp:100] Creating Layer ip_c
I1020 06:31:40.938284 11286 net.cpp:434] ip_c <- pool7_pool7_0_split_0
I1020 06:31:40.938287 11286 net.cpp:408] ip_c -> ip_c
I1020 06:31:40.938365 11286 net.cpp:150] Setting up ip_c
I1020 06:31:40.938370 11286 net.cpp:157] Top shape: 100 20 (2000)
I1020 06:31:40.938374 11286 net.cpp:165] Memory required for data: 292103200
I1020 06:31:40.938376 11286 layer_factory.hpp:77] Creating layer ip_c_ip_c_0_split
I1020 06:31:40.938380 11286 net.cpp:100] Creating Layer ip_c_ip_c_0_split
I1020 06:31:40.938382 11286 net.cpp:434] ip_c_ip_c_0_split <- ip_c
I1020 06:31:40.938385 11286 net.cpp:408] ip_c_ip_c_0_split -> ip_c_ip_c_0_split_0
I1020 06:31:40.938390 11286 net.cpp:408] ip_c_ip_c_0_split -> ip_c_ip_c_0_split_1
I1020 06:31:40.938412 11286 net.cpp:150] Setting up ip_c_ip_c_0_split
I1020 06:31:40.938416 11286 net.cpp:157] Top shape: 100 20 (2000)
I1020 06:31:40.938418 11286 net.cpp:157] Top shape: 100 20 (2000)
I1020 06:31:40.938421 11286 net.cpp:165] Memory required for data: 292119200
I1020 06:31:40.938422 11286 layer_factory.hpp:77] Creating layer accuracy_f
I1020 06:31:40.938426 11286 net.cpp:100] Creating Layer accuracy_f
I1020 06:31:40.938428 11286 net.cpp:434] accuracy_f <- ip_c_ip_c_0_split_0
I1020 06:31:40.938431 11286 net.cpp:434] accuracy_f <- label_coarse_data_1_split_0
I1020 06:31:40.938434 11286 net.cpp:408] accuracy_f -> accuracy_f
…
