…
train_state {
  level: 0
  stage: ""
}
type: "AdaGrad"
I1018 01:01:31.968075 12541 solver.cpp:81] Creating training net from train_net file: /home/adam/Honours/Honours-Project/cifar-100_pooling/max/elu/poolcnn_elu_train.prototxt
I1018 01:01:31.968387 12541 net.cpp:58] Initializing net from parameters: 
state {
  phase: TRAIN
  level: 0
  stage: ""
}
layer {
  name: "data"
  type: "HDF5Data"
  top: "data"
  top: "label_coarse"
  top: "label_fine"
  hdf5_data_param {
    source: "../../../../data/cifar-100/cifar_100_caffe_hdf5/train.txt"
    batch_size: 64
  }
}
layer {
  name: "conv1"
  type: "Convolution"
  bottom: "data"
  top: "conv1"
  convolution_param {
    num_output: 192
    kernel_size: 5
    weight_filler {
      type: "xavier"
    }
  }
}
layer {
  name: "pool1"
  type: "Pooling"
  bottom: "conv1"
  top: "pool1"
  pooling_param {
    pool: MAX
    kernel_size: 2
    stride: 2
  }
}
layer {
  name: "drop1"
  type: "Dropout"
  bottom: "pool1"
  top: "drop1"
  dropout_param {
    dropout_ratio: 0
  }
}
layer {
  name: "elu1"
  type: "ELU"
  bottom: "drop1"
  top: "elu1"
}
layer {
  name: "conv2"
  type: "Convolution"
  bottom: "elu1"
  top: "conv2"
  convolution_param {
    num_output: 192
    kernel_size: 1
    weight_filler {
      type: "xavier"
    }
  }
}
layer {
  name: "conv3"
  type: "Convolution"
  bottom: "conv2"
  top: "conv3"
  convolution_param {
    num_output: 240
    kernel_size: 3
    weight_filler {
      type: "xavier"
    }
  }
}
layer {
  name: "pool2"
  type: "Pooling"
  bottom: "conv3"
  top: "pool2"
  pooling_param {
    pool: MAX
    kernel_size: 2
    stride: 2
  }
}
layer {
  name: "drop2"
  type: "Dropout"
  bottom: "pool2"
  top: "drop2"
  dropout_param {
    dropout_ratio: 0.1
  }
}
layer {
  name: "elu2"
  type: "ELU"
  bottom: "drop2"
  top: "elu2"
}
layer {
  name: "conv4"
  type: "Convolution"
  bottom: "elu2"
  top: "conv4"
  convolution_param {
    num_output: 240
    kernel_size: 1
    weight_filler {
      type: "xavier"
    }
  }
}
layer {
  name: "conv5"
  type: "Convolution"
  bottom: "conv4"
  top: "conv5"
  convolution_param {
    num_output: 260
    kernel_size: 2
    weight_filler {
      type: "xavier"
    }
  }
}
layer {
  name: "pool3"
  type: "Pooling"
  bottom: "conv5"
  top: "pool3"
  pooling_param {
    pool: MAX
    kernel_size: 2
    stride: 2
  }
}
layer {
  name: "drop3"
  type: "Dropout"
  bottom: "pool3"
  top: "drop3"
  dropout_param {
    dropout_ratio: 0.2
  }
}
layer {
  name: "elu3"
  type: "ELU"
  bottom: "drop3"
  top: "elu3"
}
layer {
  name: "conv6"
  type: "Convolution"
  bottom: "elu3"
  top: "conv6"
  convolution_param {
    num_output: 260
    kernel_size: 1
    weight_filler {
      type: "xavier"
    }
  }
}
layer {
  name: "conv7"
  type: "Convolution"
  bottom: "conv6"
  top: "conv7"
  convolution_param {
    num_output: 280
    kernel_size: 2
    weight_filler {
      type: "xavier"
    }
  }
}
layer {
  name: "pool4"
  type: "Pooling"
  bottom: "conv7"
  top: "pool4"
  pooling_param {
    pool: MAX
    kernel_size: 2
    stride: 2
  }
}
layer {
  name: "drop4"
  type: "Dropout"
  bottom: "pool4"
  top: "drop4"
  dropout_param {
    dropout_ratio: 0.3
  }
}
layer {
  name: "elu4"
  type: "ELU"
  bottom: "drop4"
  top: "elu4"
}
layer {
  name: "conv8"
  type: "Convolution"
  bottom: "elu4"
  top: "conv8"
  convolution_param {
    num_output: 280
    kernel_size: 1
    weight_filler {
      type: "xavier"
    }
  }
}
layer {
  name: "pool5"
  type: "Pooling"
  bottom: "conv8"
  top: "pool5"
  pooling_param {
    pool: MAX
    kernel_size: 2
    stride: 2
  }
}
layer {
  name: "drop5"
  type: "Dropout"
  bottom: "pool5"
  top: "drop5"
  dropout_param {
    dropout_ratio: 0.4
  }
}
layer {
  name: "elu5"
  type: "ELU"
  bottom: "drop5"
  top: "elu5"
}
layer {
  name: "conv10"
  type: "Convolution"
  bottom: "elu5"
  top: "conv10"
  convolution_param {
    num_output: 300
    kernel_size: 1
    weight_filler {
      type: "xavier"
    }
  }
}
layer {
  name: "pool6"
  type: "Pooling"
  bottom: "conv10"
  top: "pool6"
  pooling_param {
    pool: MAX
    kernel_size: 2
    stride: 2
  }
}
layer {
  name: "drop6"
  type: "Dropout"
  bottom: "pool6"
  top: "drop6"
  dropout_param {
    dropout_ratio: 0.5
  }
}
layer {
  name: "elu6"
  type: "ELU"
  bottom: "drop6"
  top: "elu6"
}
layer {
  name: "conv11"
  type: "Convolution"
  bottom: "elu6"
  top: "conv11"
  convolution_param {
    num_output: 100
    kernel_size: 1
    weight_filler {
      type: "xavier"
    }
  }
}
layer {
  name: "pool7"
  type: "Pooling"
  bottom: "conv11"
  top: "pool7"
  pooling_param {
    pool: MAX
    kernel_size: 2
    stride: 2
  }
}
layer {
  name: "drop7"
  type: "Dropout"
  bottom: "pool7"
  top: "drop7"
  dropout_param {
    dropout_ratio: 0
  }
}
layer {
  name: "elu7"
  type: "ELU"
  bottom: "drop7"
  top: "elu7"
}
layer {
  name: "pool"
  type: "Pooling"
  bottom: "elu7"
  top: "pool"
  pooling_param {
    pool: AVE
    global_pooling: true
  }
}
layer {
  name: "flatten"
  type: "Flatten"
  bottom: "pool"
  top: "flatten"
}
layer {
  name: "ip_c"
  type: "InnerProduct"
  bottom: "flatten"
  top: "ip_c"
  inner_product_param {
    num_output: 20
    weight_filler {
      type: "xavier"
    }
  }
}
layer {
  name: "accuracy_f"
  type: "Accuracy"
  bottom: "ip_c"
  bottom: "label_coarse"
  top: "accuracy_f"
}
layer {
  name: "loss_c"
  type: "SoftmaxWithLoss"
  bottom: "ip_c"
  bottom: "label_coarse"
  top: "loss_c"
}
layer {
  name: "ip_f"
  type: "InnerProduct"
  bottom: "flatten"
  top: "ip_f"
  inner_product_param {
    num_output: 100
    weight_filler {
      type: "xavier"
    }
  }
}
layer {
  name: "accuracy"
  type: "Accuracy"
  bottom: "ip_f"
  bottom: "label_fine"
  top: "accuracy"
}
layer {
  name: "loss_f"
  type: "SoftmaxWithLoss"
  bottom: "ip_f"
  bottom: "label_fine"
  top: "loss_f"
}
I1018 01:01:31.968529 12541 layer_factory.hpp:77] Creating layer data
I1018 01:01:31.968539 12541 net.cpp:100] Creating Layer data
I1018 01:01:31.968544 12541 net.cpp:408] data -> data
I1018 01:01:31.968556 12541 net.cpp:408] data -> label_coarse
I1018 01:01:31.968562 12541 net.cpp:408] data -> label_fine
I1018 01:01:31.968571 12541 hdf5_data_layer.cpp:79] Loading list of HDF5 filenames from: ../../../../data/cifar-100/cifar_100_caffe_hdf5/train.txt
I1018 01:01:31.968592 12541 hdf5_data_layer.cpp:93] Number of HDF5 files: 1
I1018 01:01:31.969228 12541 hdf5.cpp:35] Datatype class: H5T_INTEGER
I1018 01:01:33.624596 12541 net.cpp:150] Setting up data
I1018 01:01:33.624619 12541 net.cpp:157] Top shape: 64 3 32 32 (196608)
I1018 01:01:33.624622 12541 net.cpp:157] Top shape: 64 (64)
I1018 01:01:33.624624 12541 net.cpp:157] Top shape: 64 (64)
I1018 01:01:33.624626 12541 net.cpp:165] Memory required for data: 786944
I1018 01:01:33.624632 12541 layer_factory.hpp:77] Creating layer label_coarse_data_1_split
I1018 01:01:33.624641 12541 net.cpp:100] Creating Layer label_coarse_data_1_split
I1018 01:01:33.624645 12541 net.cpp:434] label_coarse_data_1_split <- label_coarse
I1018 01:01:33.624656 12541 net.cpp:408] label_coarse_data_1_split -> label_coarse_data_1_split_0
I1018 01:01:33.624666 12541 net.cpp:408] label_coarse_data_1_split -> label_coarse_data_1_split_1
I1018 01:01:33.624693 12541 net.cpp:150] Setting up label_coarse_data_1_split
I1018 01:01:33.624698 12541 net.cpp:157] Top shape: 64 (64)
I1018 01:01:33.624701 12541 net.cpp:157] Top shape: 64 (64)
I1018 01:01:33.624704 12541 net.cpp:165] Memory required for data: 787456
I1018 01:01:33.624707 12541 layer_factory.hpp:77] Creating layer label_fine_data_2_split
I1018 01:01:33.624712 12541 net.cpp:100] Creating Layer label_fine_data_2_split
I1018 01:01:33.624729 12541 net.cpp:434] label_fine_data_2_split <- label_fine
I1018 01:01:33.624734 12541 net.cpp:408] label_fine_data_2_split -> label_fine_data_2_split_0
I1018 01:01:33.624742 12541 net.cpp:408] label_fine_data_2_split -> label_fine_data_2_split_1
I1018 01:01:33.624766 12541 net.cpp:150] Setting up label_fine_data_2_split
I1018 01:01:33.624773 12541 net.cpp:157] Top shape: 64 (64)
I1018 01:01:33.624775 12541 net.cpp:157] Top shape: 64 (64)
I1018 01:01:33.624776 12541 net.cpp:165] Memory required for data: 787968
I1018 01:01:33.624778 12541 layer_factory.hpp:77] Creating layer conv1
I1018 01:01:33.624790 12541 net.cpp:100] Creating Layer conv1
I1018 01:01:33.624792 12541 net.cpp:434] conv1 <- data
I1018 01:01:33.624795 12541 net.cpp:408] conv1 -> conv1
I1018 01:01:33.748692 12541 net.cpp:150] Setting up conv1
I1018 01:01:33.748716 12541 net.cpp:157] Top shape: 64 192 28 28 (9633792)
I1018 01:01:33.748718 12541 net.cpp:165] Memory required for data: 39323136
I1018 01:01:33.748735 12541 layer_factory.hpp:77] Creating layer pool1
I1018 01:01:33.748744 12541 net.cpp:100] Creating Layer pool1
I1018 01:01:33.748747 12541 net.cpp:434] pool1 <- conv1
I1018 01:01:33.748754 12541 net.cpp:408] pool1 -> pool1
I1018 01:01:33.748798 12541 net.cpp:150] Setting up pool1
I1018 01:01:33.748803 12541 net.cpp:157] Top shape: 64 192 14 14 (2408448)
I1018 01:01:33.748805 12541 net.cpp:165] Memory required for data: 48956928
I1018 01:01:33.748806 12541 layer_factory.hpp:77] Creating layer drop1
I1018 01:01:33.748811 12541 net.cpp:100] Creating Layer drop1
I1018 01:01:33.748813 12541 net.cpp:434] drop1 <- pool1
I1018 01:01:33.748816 12541 net.cpp:408] drop1 -> drop1
I1018 01:01:33.748839 12541 net.cpp:150] Setting up drop1
I1018 01:01:33.748842 12541 net.cpp:157] Top shape: 64 192 14 14 (2408448)
I1018 01:01:33.748844 12541 net.cpp:165] Memory required for data: 58590720
I1018 01:01:33.748845 12541 layer_factory.hpp:77] Creating layer elu1
I1018 01:01:33.748849 12541 net.cpp:100] Creating Layer elu1
I1018 01:01:33.748852 12541 net.cpp:434] elu1 <- drop1
I1018 01:01:33.748855 12541 net.cpp:408] elu1 -> elu1
I1018 01:01:33.748868 12541 net.cpp:150] Setting up elu1
I1018 01:01:33.748872 12541 net.cpp:157] Top shape: 64 192 14 14 (2408448)
I1018 01:01:33.748873 12541 net.cpp:165] Memory required for data: 68224512
I1018 01:01:33.748874 12541 layer_factory.hpp:77] Creating layer conv2
I1018 01:01:33.748880 12541 net.cpp:100] Creating Layer conv2
I1018 01:01:33.748883 12541 net.cpp:434] conv2 <- elu1
I1018 01:01:33.748886 12541 net.cpp:408] conv2 -> conv2
I1018 01:01:33.749639 12541 net.cpp:150] Setting up conv2
I1018 01:01:33.749646 12541 net.cpp:157] Top shape: 64 192 14 14 (2408448)
I1018 01:01:33.749649 12541 net.cpp:165] Memory required for data: 77858304
I1018 01:01:33.749653 12541 layer_factory.hpp:77] Creating layer conv3
I1018 01:01:33.749660 12541 net.cpp:100] Creating Layer conv3
I1018 01:01:33.749662 12541 net.cpp:434] conv3 <- conv2
I1018 01:01:33.749672 12541 net.cpp:408] conv3 -> conv3
I1018 01:01:33.752140 12541 net.cpp:150] Setting up conv3
I1018 01:01:33.752149 12541 net.cpp:157] Top shape: 64 240 12 12 (2211840)
I1018 01:01:33.752151 12541 net.cpp:165] Memory required for data: 86705664
I1018 01:01:33.752156 12541 layer_factory.hpp:77] Creating layer pool2
I1018 01:01:33.752161 12541 net.cpp:100] Creating Layer pool2
I1018 01:01:33.752163 12541 net.cpp:434] pool2 <- conv3
I1018 01:01:33.752167 12541 net.cpp:408] pool2 -> pool2
I1018 01:01:33.752190 12541 net.cpp:150] Setting up pool2
I1018 01:01:33.752194 12541 net.cpp:157] Top shape: 64 240 6 6 (552960)
I1018 01:01:33.752197 12541 net.cpp:165] Memory required for data: 88917504
I1018 01:01:33.752198 12541 layer_factory.hpp:77] Creating layer drop2
I1018 01:01:33.752202 12541 net.cpp:100] Creating Layer drop2
I1018 01:01:33.752203 12541 net.cpp:434] drop2 <- pool2
I1018 01:01:33.752207 12541 net.cpp:408] drop2 -> drop2
I1018 01:01:33.752228 12541 net.cpp:150] Setting up drop2
I1018 01:01:33.752229 12541 net.cpp:157] Top shape: 64 240 6 6 (552960)
I1018 01:01:33.752241 12541 net.cpp:165] Memory required for data: 91129344
I1018 01:01:33.752244 12541 layer_factory.hpp:77] Creating layer elu2
I1018 01:01:33.752248 12541 net.cpp:100] Creating Layer elu2
I1018 01:01:33.752249 12541 net.cpp:434] elu2 <- drop2
I1018 01:01:33.752252 12541 net.cpp:408] elu2 -> elu2
I1018 01:01:33.752265 12541 net.cpp:150] Setting up elu2
I1018 01:01:33.752269 12541 net.cpp:157] Top shape: 64 240 6 6 (552960)
I1018 01:01:33.752270 12541 net.cpp:165] Memory required for data: 93341184
I1018 01:01:33.752272 12541 layer_factory.hpp:77] Creating layer conv4
I1018 01:01:33.752277 12541 net.cpp:100] Creating Layer conv4
I1018 01:01:33.752279 12541 net.cpp:434] conv4 <- elu2
I1018 01:01:33.752282 12541 net.cpp:408] conv4 -> conv4
I1018 01:01:33.753094 12541 net.cpp:150] Setting up conv4
I1018 01:01:33.753103 12541 net.cpp:157] Top shape: 64 240 6 6 (552960)
I1018 01:01:33.753104 12541 net.cpp:165] Memory required for data: 95553024
I1018 01:01:33.753108 12541 layer_factory.hpp:77] Creating layer conv5
I1018 01:01:33.753113 12541 net.cpp:100] Creating Layer conv5
I1018 01:01:33.753115 12541 net.cpp:434] conv5 <- conv4
I1018 01:01:33.753119 12541 net.cpp:408] conv5 -> conv5
I1018 01:01:33.754976 12541 net.cpp:150] Setting up conv5
I1018 01:01:33.755012 12541 net.cpp:157] Top shape: 64 260 5 5 (416000)
I1018 01:01:33.755014 12541 net.cpp:165] Memory required for data: 97217024
I1018 01:01:33.755028 12541 layer_factory.hpp:77] Creating layer pool3
I1018 01:01:33.755038 12541 net.cpp:100] Creating Layer pool3
I1018 01:01:33.755043 12541 net.cpp:434] pool3 <- conv5
I1018 01:01:33.755048 12541 net.cpp:408] pool3 -> pool3
I1018 01:01:33.755085 12541 net.cpp:150] Setting up pool3
I1018 01:01:33.755089 12541 net.cpp:157] Top shape: 64 260 3 3 (149760)
I1018 01:01:33.755091 12541 net.cpp:165] Memory required for data: 97816064
I1018 01:01:33.755094 12541 layer_factory.hpp:77] Creating layer drop3
I1018 01:01:33.755098 12541 net.cpp:100] Creating Layer drop3
I1018 01:01:33.755100 12541 net.cpp:434] drop3 <- pool3
I1018 01:01:33.755103 12541 net.cpp:408] drop3 -> drop3
I1018 01:01:33.755127 12541 net.cpp:150] Setting up drop3
I1018 01:01:33.755131 12541 net.cpp:157] Top shape: 64 260 3 3 (149760)
I1018 01:01:33.755133 12541 net.cpp:165] Memory required for data: 98415104
I1018 01:01:33.755136 12541 layer_factory.hpp:77] Creating layer elu3
I1018 01:01:33.755146 12541 net.cpp:100] Creating Layer elu3
I1018 01:01:33.755147 12541 net.cpp:434] elu3 <- drop3
I1018 01:01:33.755151 12541 net.cpp:408] elu3 -> elu3
I1018 01:01:33.755164 12541 net.cpp:150] Setting up elu3
I1018 01:01:33.755172 12541 net.cpp:157] Top shape: 64 260 3 3 (149760)
I1018 01:01:33.755173 12541 net.cpp:165] Memory required for data: 99014144
I1018 01:01:33.755177 12541 layer_factory.hpp:77] Creating layer conv6
I1018 01:01:33.755185 12541 net.cpp:100] Creating Layer conv6
I1018 01:01:33.755189 12541 net.cpp:434] conv6 <- elu3
I1018 01:01:33.755195 12541 net.cpp:408] conv6 -> conv6
I1018 01:01:33.756448 12541 net.cpp:150] Setting up conv6
I1018 01:01:33.756465 12541 net.cpp:157] Top shape: 64 260 3 3 (149760)
I1018 01:01:33.756469 12541 net.cpp:165] Memory required for data: 99613184
I1018 01:01:33.756477 12541 layer_factory.hpp:77] Creating layer conv7
I1018 01:01:33.756487 12541 net.cpp:100] Creating Layer conv7
I1018 01:01:33.756494 12541 net.cpp:434] conv7 <- conv6
I1018 01:01:33.756500 12541 net.cpp:408] conv7 -> conv7
I1018 01:01:33.758488 12541 net.cpp:150] Setting up conv7
I1018 01:01:33.758502 12541 net.cpp:157] Top shape: 64 280 2 2 (71680)
I1018 01:01:33.758505 12541 net.cpp:165] Memory required for data: 99899904
I1018 01:01:33.758512 12541 layer_factory.hpp:77] Creating layer pool4
I1018 01:01:33.758519 12541 net.cpp:100] Creating Layer pool4
I1018 01:01:33.758523 12541 net.cpp:434] pool4 <- conv7
I1018 01:01:33.758529 12541 net.cpp:408] pool4 -> pool4
I1018 01:01:33.758560 12541 net.cpp:150] Setting up pool4
I1018 01:01:33.758565 12541 net.cpp:157] Top shape: 64 280 1 1 (17920)
I1018 01:01:33.758569 12541 net.cpp:165] Memory required for data: 99971584
I1018 01:01:33.758580 12541 layer_factory.hpp:77] Creating layer drop4
I1018 01:01:33.758589 12541 net.cpp:100] Creating Layer drop4
I1018 01:01:33.758592 12541 net.cpp:434] drop4 <- pool4
I1018 01:01:33.758596 12541 net.cpp:408] drop4 -> drop4
I1018 01:01:33.758622 12541 net.cpp:150] Setting up drop4
I1018 01:01:33.758628 12541 net.cpp:157] Top shape: 64 280 1 1 (17920)
I1018 01:01:33.758630 12541 net.cpp:165] Memory required for data: 100043264
I1018 01:01:33.758633 12541 layer_factory.hpp:77] Creating layer elu4
I1018 01:01:33.758638 12541 net.cpp:100] Creating Layer elu4
I1018 01:01:33.758643 12541 net.cpp:434] elu4 <- drop4
I1018 01:01:33.758648 12541 net.cpp:408] elu4 -> elu4
I1018 01:01:33.758663 12541 net.cpp:150] Setting up elu4
I1018 01:01:33.758668 12541 net.cpp:157] Top shape: 64 280 1 1 (17920)
I1018 01:01:33.758672 12541 net.cpp:165] Memory required for data: 100114944
I1018 01:01:33.758676 12541 layer_factory.hpp:77] Creating layer conv8
I1018 01:01:33.758683 12541 net.cpp:100] Creating Layer conv8
I1018 01:01:33.758687 12541 net.cpp:434] conv8 <- elu4
I1018 01:01:33.758692 12541 net.cpp:408] conv8 -> conv8
I1018 01:01:33.759599 12541 net.cpp:150] Setting up conv8
I1018 01:01:33.759608 12541 net.cpp:157] Top shape: 64 280 1 1 (17920)
I1018 01:01:33.759611 12541 net.cpp:165] Memory required for data: 100186624
I1018 01:01:33.759618 12541 layer_factory.hpp:77] Creating layer pool5
I1018 01:01:33.759625 12541 net.cpp:100] Creating Layer pool5
I1018 01:01:33.759629 12541 net.cpp:434] pool5 <- conv8
I1018 01:01:33.759634 12541 net.cpp:408] pool5 -> pool5
I1018 01:01:33.759660 12541 net.cpp:150] Setting up pool5
I1018 01:01:33.759665 12541 net.cpp:157] Top shape: 64 280 1 1 (17920)
I1018 01:01:33.759668 12541 net.cpp:165] Memory required for data: 100258304
I1018 01:01:33.759671 12541 layer_factory.hpp:77] Creating layer drop5
I1018 01:01:33.759676 12541 net.cpp:100] Creating Layer drop5
I1018 01:01:33.759680 12541 net.cpp:434] drop5 <- pool5
I1018 01:01:33.759685 12541 net.cpp:408] drop5 -> drop5
I1018 01:01:33.759709 12541 net.cpp:150] Setting up drop5
I1018 01:01:33.759714 12541 net.cpp:157] Top shape: 64 280 1 1 (17920)
I1018 01:01:33.759718 12541 net.cpp:165] Memory required for data: 100329984
I1018 01:01:33.759721 12541 layer_factory.hpp:77] Creating layer elu5
I1018 01:01:33.759727 12541 net.cpp:100] Creating Layer elu5
I1018 01:01:33.759730 12541 net.cpp:434] elu5 <- drop5
I1018 01:01:33.759734 12541 net.cpp:408] elu5 -> elu5
I1018 01:01:33.759752 12541 net.cpp:150] Setting up elu5
I1018 01:01:33.759757 12541 net.cpp:157] Top shape: 64 280 1 1 (17920)
I1018 01:01:33.759760 12541 net.cpp:165] Memory required for data: 100401664
I1018 01:01:33.759763 12541 layer_factory.hpp:77] Creating layer conv10
I1018 01:01:33.759770 12541 net.cpp:100] Creating Layer conv10
I1018 01:01:33.759773 12541 net.cpp:434] conv10 <- elu5
I1018 01:01:33.759779 12541 net.cpp:408] conv10 -> conv10
I1018 01:01:33.760723 12541 net.cpp:150] Setting up conv10
I1018 01:01:33.760731 12541 net.cpp:157] Top shape: 64 300 1 1 (19200)
I1018 01:01:33.760735 12541 net.cpp:165] Memory required for data: 100478464
I1018 01:01:33.760746 12541 layer_factory.hpp:77] Creating layer pool6
I1018 01:01:33.760751 12541 net.cpp:100] Creating Layer pool6
I1018 01:01:33.760756 12541 net.cpp:434] pool6 <- conv10
I1018 01:01:33.760761 12541 net.cpp:408] pool6 -> pool6
I1018 01:01:33.760792 12541 net.cpp:150] Setting up pool6
I1018 01:01:33.760797 12541 net.cpp:157] Top shape: 64 300 1 1 (19200)
I1018 01:01:33.760800 12541 net.cpp:165] Memory required for data: 100555264
I1018 01:01:33.760802 12541 layer_factory.hpp:77] Creating layer drop6
I1018 01:01:33.760808 12541 net.cpp:100] Creating Layer drop6
I1018 01:01:33.760810 12541 net.cpp:434] drop6 <- pool6
I1018 01:01:33.760815 12541 net.cpp:408] drop6 -> drop6
I1018 01:01:33.760848 12541 net.cpp:150] Setting up drop6
I1018 01:01:33.760855 12541 net.cpp:157] Top shape: 64 300 1 1 (19200)
I1018 01:01:33.760859 12541 net.cpp:165] Memory required for data: 100632064
I1018 01:01:33.760870 12541 layer_factory.hpp:77] Creating layer elu6
I1018 01:01:33.760877 12541 net.cpp:100] Creating Layer elu6
I1018 01:01:33.760881 12541 net.cpp:434] elu6 <- drop6
I1018 01:01:33.760885 12541 net.cpp:408] elu6 -> elu6
I1018 01:01:33.760903 12541 net.cpp:150] Setting up elu6
I1018 01:01:33.760908 12541 net.cpp:157] Top shape: 64 300 1 1 (19200)
I1018 01:01:33.760912 12541 net.cpp:165] Memory required for data: 100708864
I1018 01:01:33.760915 12541 layer_factory.hpp:77] Creating layer conv11
I1018 01:01:33.760922 12541 net.cpp:100] Creating Layer conv11
I1018 01:01:33.760926 12541 net.cpp:434] conv11 <- elu6
I1018 01:01:33.760933 12541 net.cpp:408] conv11 -> conv11
I1018 01:01:33.761685 12541 net.cpp:150] Setting up conv11
I1018 01:01:33.761693 12541 net.cpp:157] Top shape: 64 100 1 1 (6400)
I1018 01:01:33.761695 12541 net.cpp:165] Memory required for data: 100734464
I1018 01:01:33.761699 12541 layer_factory.hpp:77] Creating layer pool7
I1018 01:01:33.761704 12541 net.cpp:100] Creating Layer pool7
I1018 01:01:33.761708 12541 net.cpp:434] pool7 <- conv11
I1018 01:01:33.761709 12541 net.cpp:408] pool7 -> pool7
I1018 01:01:33.761735 12541 net.cpp:150] Setting up pool7
I1018 01:01:33.761739 12541 net.cpp:157] Top shape: 64 100 1 1 (6400)
I1018 01:01:33.761741 12541 net.cpp:165] Memory required for data: 100760064
I1018 01:01:33.761742 12541 layer_factory.hpp:77] Creating layer drop7
I1018 01:01:33.761749 12541 net.cpp:100] Creating Layer drop7
I1018 01:01:33.761752 12541 net.cpp:434] drop7 <- pool7
I1018 01:01:33.761755 12541 net.cpp:408] drop7 -> drop7
I1018 01:01:33.761775 12541 net.cpp:150] Setting up drop7
I1018 01:01:33.761780 12541 net.cpp:157] Top shape: 64 100 1 1 (6400)
I1018 01:01:33.761781 12541 net.cpp:165] Memory required for data: 100785664
I1018 01:01:33.761783 12541 layer_factory.hpp:77] Creating layer elu7
I1018 01:01:33.761786 12541 net.cpp:100] Creating Layer elu7
I1018 01:01:33.761790 12541 net.cpp:434] elu7 <- drop7
I1018 01:01:33.761791 12541 net.cpp:408] elu7 -> elu7
I1018 01:01:33.761804 12541 net.cpp:150] Setting up elu7
I1018 01:01:33.761808 12541 net.cpp:157] Top shape: 64 100 1 1 (6400)
I1018 01:01:33.761811 12541 net.cpp:165] Memory required for data: 100811264
I1018 01:01:33.761812 12541 layer_factory.hpp:77] Creating layer pool
I1018 01:01:33.761816 12541 net.cpp:100] Creating Layer pool
I1018 01:01:33.761816 12541 net.cpp:434] pool <- elu7
I1018 01:01:33.761821 12541 net.cpp:408] pool -> pool
I1018 01:01:33.762017 12541 net.cpp:150] Setting up pool
I1018 01:01:33.762023 12541 net.cpp:157] Top shape: 64 100 1 1 (6400)
I1018 01:01:33.762027 12541 net.cpp:165] Memory required for data: 100836864
I1018 01:01:33.762028 12541 layer_factory.hpp:77] Creating layer flatten
I1018 01:01:33.762032 12541 net.cpp:100] Creating Layer flatten
I1018 01:01:33.762034 12541 net.cpp:434] flatten <- pool
I1018 01:01:33.762037 12541 net.cpp:408] flatten -> flatten
I1018 01:01:33.762053 12541 net.cpp:150] Setting up flatten
I1018 01:01:33.762056 12541 net.cpp:157] Top shape: 64 100 (6400)
I1018 01:01:33.762058 12541 net.cpp:165] Memory required for data: 100862464
I1018 01:01:33.762059 12541 layer_factory.hpp:77] Creating layer flatten_flatten_0_split
I1018 01:01:33.762063 12541 net.cpp:100] Creating Layer flatten_flatten_0_split
I1018 01:01:33.762066 12541 net.cpp:434] flatten_flatten_0_split <- flatten
I1018 01:01:33.762069 12541 net.cpp:408] flatten_flatten_0_split -> flatten_flatten_0_split_0
I1018 01:01:33.762073 12541 net.cpp:408] flatten_flatten_0_split -> flatten_flatten_0_split_1
I1018 01:01:33.762096 12541 net.cpp:150] Setting up flatten_flatten_0_split
I1018 01:01:33.762099 12541 net.cpp:157] Top shape: 64 100 (6400)
I1018 01:01:33.762101 12541 net.cpp:157] Top shape: 64 100 (6400)
I1018 01:01:33.762104 12541 net.cpp:165] Memory required for data: 100913664
I1018 01:01:33.762105 12541 layer_factory.hpp:77] Creating layer ip_c
I1018 01:01:33.762109 12541 net.cpp:100] Creating Layer ip_c
I1018 01:01:33.762111 12541 net.cpp:434] ip_c <- flatten_flatten_0_split_0
I1018 01:01:33.762122 12541 net.cpp:408] ip_c -> ip_c
I1018 01:01:33.762455 12541 net.cpp:150] Setting up ip_c
I1018 01:01:33.762464 12541 net.cpp:157] Top shape: 64 20 (1280)
I1018 01:01:33.762465 12541 net.cpp:165] Memory required for data: 100918784
I1018 01:01:33.762470 12541 layer_factory.hpp:77] Creating layer ip_c_ip_c_0_split
I1018 01:01:33.762473 12541 net.cpp:100] Creating Layer ip_c_ip_c_0_split
I1018 01:01:33.762475 12541 net.cpp:434] ip_c_ip_c_0_split <- ip_c
I1018 01:01:33.762480 12541 net.cpp:408] ip_c_ip_c_0_split -> ip_c_ip_c_0_split_0
I1018 01:01:33.762485 12541 net.cpp:408] ip_c_ip_c_0_split -> ip_c_ip_c_0_split_1
I1018 01:01:33.762506 12541 net.cpp:150] Setting up ip_c_ip_c_0_split
I1018 01:01:33.762511 12541 net.cpp:157] Top shape: 64 20 (1280)
I1018 01:01:33.762512 12541 net.cpp:157] Top shape: 64 20 (1280)
I1018 01:01:33.762513 12541 net.cpp:165] Memory required for data: 100929024
I1018 01:01:33.762516 12541 layer_factory.hpp:77] Creating layer accuracy_f
I1018 01:01:33.762519 12541 net.cpp:100] Creating Layer accuracy_f
I1018 01:01:33.762522 12541 net.cpp:434] accuracy_f <- ip_c_ip_c_0_split_0
I1018 01:01:33.762526 12541 net.cpp:434] accuracy_f <- label_coarse_data_1_split_0
I1018 01:01:33.762529 12541 net.cpp:408] accuracy_f -> accuracy_f
…
I1018 01:01:33.763360 12541 net.cpp:283] Network initialization done.
I1018 01:01:33.763550 12541 solver.cpp:181] Creating test net (#0) specified by test_net file: /home/adam/Honours/Honours-Project/cifar-100_pooling/max/elu/poolcnn_elu_test.prototxt
I1018 01:01:33.763669 12541 net.cpp:58] Initializing net from parameters: 
state {
  phase: TEST
}
layer {
  name: "data"
  type: "HDF5Data"
  top: "data"
  top: "label_coarse"
  top: "label_fine"
  hdf5_data_param {
    source: "../../../../data/cifar-100/cifar_100_caffe_hdf5/test.txt"
    batch_size: 100
  }
}
layer {
  name: "conv1"
  type: "Convolution"
  bottom: "data"
  top: "conv1"
  convolution_param {
    num_output: 192
    kernel_size: 5
    weight_filler {
      type: "xavier"
    }
  }
}
layer {
  name: "pool1"
  type: "Pooling"
  bottom: "conv1"
  top: "pool1"
  pooling_param {
    pool: MAX
    kernel_size: 2
    stride: 2
  }
}
layer {
  name: "drop1"
  type: "Dropout"
  bottom: "pool1"
  top: "drop1"
  dropout_param {
    dropout_ratio: 0
  }
}
layer {
  name: "elu1"
  type: "ELU"
  bottom: "drop1"
  top: "elu1"
}
layer {
  name: "conv2"
  type: "Convolution"
  bottom: "elu1"
  top: "conv2"
  convolution_param {
    num_output: 192
    kernel_size: 1
    weight_filler {
      type: "xavier"
    }
  }
}
layer {
  name: "conv3"
  type: "Convolution"
  bottom: "conv2"
  top: "conv3"
  convolution_param {
    num_output: 240
    kernel_size: 3
    weight_filler {
      type: "xavier"
    }
  }
}
layer {
  name: "pool2"
  type: "Pooling"
  bottom: "conv3"
  top: "pool2"
  pooling_param {
    pool: MAX
    kernel_size: 2
    stride: 2
  }
}
layer {
  name: "drop2"
  type: "Dropout"
  bottom: "pool2"
  top: "drop2"
  dropout_param {
    dropout_ratio: 0.1
  }
}
layer {
  name: "elu2"
  type: "ELU"
  bottom: "drop2"
  top: "elu2"
}
layer {
  name: "conv4"
  type: "Convolution"
  bottom: "elu2"
  top: "conv4"
  convolution_param {
    num_output: 240
    kernel_size: 1
    weight_filler {
      type: "xavier"
    }
  }
}
layer {
  name: "conv5"
  type: "Convolution"
  bottom: "conv4"
  top: "conv5"
  convolution_param {
    num_output: 260
    kernel_size: 2
    weight_filler {
      type: "xavier"
    }
  }
}
layer {
  name: "pool3"
  type: "Pooling"
  bottom: "conv5"
  top: "pool3"
  pooling_param {
    pool: MAX
    kernel_size: 2
    stride: 2
  }
}
layer {
  name: "drop3"
  type: "Dropout"
  bottom: "pool3"
  top: "drop3"
  dropout_param {
    dropout_ratio: 0.2
  }
}
layer {
  name: "elu3"
  type: "ELU"
  bottom: "drop3"
  top: "elu3"
}
layer {
  name: "conv6"
  type: "Convolution"
  bottom: "elu3"
  top: "conv6"
  convolution_param {
    num_output: 260
    kernel_size: 1
    weight_filler {
      type: "xavier"
    }
  }
}
layer {
  name: "conv7"
  type: "Convolution"
  bottom: "conv6"
  top: "conv7"
  convolution_param {
    num_output: 280
    kernel_size: 2
    weight_filler {
      type: "xavier"
    }
  }
}
layer {
  name: "pool4"
  type: "Pooling"
  bottom: "conv7"
  top: "pool4"
  pooling_param {
    pool: MAX
    kernel_size: 2
    stride: 2
  }
}
layer {
  name: "drop4"
  type: "Dropout"
  bottom: "pool4"
  top: "drop4"
  dropout_param {
    dropout_ratio: 0.3
  }
}
layer {
  name: "elu4"
  type: "ELU"
  bottom: "drop4"
  top: "elu4"
}
layer {
  name: "conv8"
  type: "Convolution"
  bottom: "elu4"
  top: "conv8"
  convolution_param {
    num_output: 280
    kernel_size: 1
    weight_filler {
      type: "xavier"
    }
  }
}
layer {
  name: "pool5"
  type: "Pooling"
  bottom: "conv8"
  top: "pool5"
  pooling_param {
    pool: MAX
    kernel_size: 2
    stride: 2
  }
}
layer {
  name: "drop5"
  type: "Dropout"
  bottom: "pool5"
  top: "drop5"
  dropout_param {
    dropout_ratio: 0.4
  }
}
layer {
  name: "elu5"
  type: "ELU"
  bottom: "drop5"
  top: "elu5"
}
layer {
  name: "conv10"
  type: "Convolution"
  bottom: "elu5"
  top: "conv10"
  convolution_param {
    num_output: 300
    kernel_size: 1
    weight_filler {
      type: "xavier"
    }
  }
}
layer {
  name: "pool6"
  type: "Pooling"
  bottom: "conv10"
  top: "pool6"
  pooling_param {
    pool: MAX
    kernel_size: 2
    stride: 2
  }
}
layer {
  name: "drop6"
  type: "Dropout"
  bottom: "pool6"
  top: "drop6"
  dropout_param {
    dropout_ratio: 0.5
  }
}
layer {
  name: "elu6"
  type: "ELU"
  bottom: "drop6"
  top: "elu6"
}
layer {
  name: "conv11"
  type: "Convolution"
  bottom: "elu6"
  top: "conv11"
  convolution_param {
    num_output: 100
    kernel_size: 1
    weight_filler {
      type: "xavier"
    }
  }
}
layer {
  name: "pool7"
  type: "Pooling"
  bottom: "conv11"
  top: "pool7"
  pooling_param {
    pool: MAX
    kernel_size: 2
    stride: 2
  }
}
layer {
  name: "drop7"
  type: "Dropout"
  bottom: "pool7"
  top: "drop7"
  dropout_param {
    dropout_ratio: 0
  }
}
layer {
  name: "elu7"
  type: "ELU"
  bottom: "drop7"
  top: "elu7"
}
layer {
  name: "pool"
  type: "Pooling"
  bottom: "elu7"
  top: "pool"
  pooling_param {
    pool: AVE
    global_pooling: true
  }
}
layer {
  name: "flatten"
  type: "Flatten"
  bottom: "pool"
  top: "flatten"
}
layer {
  name: "ip_c"
  type: "InnerProduct"
  bottom: "flatten"
  top: "ip_c"
  inner_product_param {
    num_output: 20
    weight_filler {
      type: "xavier"
    }
  }
}
layer {
  name: "accuracy_f"
  type: "Accuracy"
  bottom: "ip_c"
  bottom: "label_coarse"
  top: "accuracy_f"
}
layer {
  name: "loss_c"
  type: "SoftmaxWithLoss"
  bottom: "ip_c"
  bottom: "label_coarse"
  top: "loss_c"
}
layer {
  name: "ip_f"
  type: "InnerProduct"
  bottom: "flatten"
  top: "ip_f"
  inner_product_param {
    num_output: 100
    weight_filler {
      type: "xavier"
    }
  }
}
layer {
  name: "accuracy"
  type: "Accuracy"
  bottom: "ip_f"
  bottom: "label_fine"
  top: "accuracy"
}
layer {
  name: "loss_f"
  type: "SoftmaxWithLoss"
  bottom: "ip_f"
  bottom: "label_fine"
  top: "loss_f"
}
I1018 01:01:33.763759 12541 layer_factory.hpp:77] Creating layer data
I1018 01:01:33.763764 12541 net.cpp:100] Creating Layer data
I1018 01:01:33.763767 12541 net.cpp:408] data -> data
I1018 01:01:33.763770 12541 net.cpp:408] data -> label_coarse
I1018 01:01:33.763774 12541 net.cpp:408] data -> label_fine
I1018 01:01:33.763778 12541 hdf5_data_layer.cpp:79] Loading list of HDF5 filenames from: ../../../../data/cifar-100/cifar_100_caffe_hdf5/test.txt
I1018 01:01:33.763792 12541 hdf5_data_layer.cpp:93] Number of HDF5 files: 1
I1018 01:01:34.025959 12541 net.cpp:150] Setting up data
I1018 01:01:34.025981 12541 net.cpp:157] Top shape: 100 3 32 32 (307200)
I1018 01:01:34.025985 12541 net.cpp:157] Top shape: 100 (100)
I1018 01:01:34.025987 12541 net.cpp:157] Top shape: 100 (100)
I1018 01:01:34.025988 12541 net.cpp:165] Memory required for data: 1229600
I1018 01:01:34.025993 12541 layer_factory.hpp:77] Creating layer label_coarse_data_1_split
I1018 01:01:34.026003 12541 net.cpp:100] Creating Layer label_coarse_data_1_split
I1018 01:01:34.026005 12541 net.cpp:434] label_coarse_data_1_split <- label_coarse
I1018 01:01:34.026010 12541 net.cpp:408] label_coarse_data_1_split -> label_coarse_data_1_split_0
I1018 01:01:34.026018 12541 net.cpp:408] label_coarse_data_1_split -> label_coarse_data_1_split_1
I1018 01:01:34.026042 12541 net.cpp:150] Setting up label_coarse_data_1_split
I1018 01:01:34.026046 12541 net.cpp:157] Top shape: 100 (100)
I1018 01:01:34.026048 12541 net.cpp:157] Top shape: 100 (100)
I1018 01:01:34.026051 12541 net.cpp:165] Memory required for data: 1230400
I1018 01:01:34.026051 12541 layer_factory.hpp:77] Creating layer label_fine_data_2_split
I1018 01:01:34.026056 12541 net.cpp:100] Creating Layer label_fine_data_2_split
I1018 01:01:34.026057 12541 net.cpp:434] label_fine_data_2_split <- label_fine
I1018 01:01:34.026062 12541 net.cpp:408] label_fine_data_2_split -> label_fine_data_2_split_0
I1018 01:01:34.026064 12541 net.cpp:408] label_fine_data_2_split -> label_fine_data_2_split_1
I1018 01:01:34.026084 12541 net.cpp:150] Setting up label_fine_data_2_split
I1018 01:01:34.026087 12541 net.cpp:157] Top shape: 100 (100)
I1018 01:01:34.026090 12541 net.cpp:157] Top shape: 100 (100)
I1018 01:01:34.026104 12541 net.cpp:165] Memory required for data: 1231200
I1018 01:01:34.026106 12541 layer_factory.hpp:77] Creating layer conv1
I1018 01:01:34.026113 12541 net.cpp:100] Creating Layer conv1
I1018 01:01:34.026115 12541 net.cpp:434] conv1 <- data
I1018 01:01:34.026118 12541 net.cpp:408] conv1 -> conv1
I1018 01:01:34.026938 12541 net.cpp:150] Setting up conv1
I1018 01:01:34.026947 12541 net.cpp:157] Top shape: 100 192 28 28 (15052800)
I1018 01:01:34.026949 12541 net.cpp:165] Memory required for data: 61442400
I1018 01:01:34.026957 12541 layer_factory.hpp:77] Creating layer pool1
I1018 01:01:34.026962 12541 net.cpp:100] Creating Layer pool1
I1018 01:01:34.026965 12541 net.cpp:434] pool1 <- conv1
I1018 01:01:34.026968 12541 net.cpp:408] pool1 -> pool1
I1018 01:01:34.026996 12541 net.cpp:150] Setting up pool1
I1018 01:01:34.027000 12541 net.cpp:157] Top shape: 100 192 14 14 (3763200)
I1018 01:01:34.027003 12541 net.cpp:165] Memory required for data: 76495200
I1018 01:01:34.027004 12541 layer_factory.hpp:77] Creating layer drop1
I1018 01:01:34.027007 12541 net.cpp:100] Creating Layer drop1
I1018 01:01:34.027010 12541 net.cpp:434] drop1 <- pool1
I1018 01:01:34.027014 12541 net.cpp:408] drop1 -> drop1
I1018 01:01:34.027034 12541 net.cpp:150] Setting up drop1
I1018 01:01:34.027039 12541 net.cpp:157] Top shape: 100 192 14 14 (3763200)
I1018 01:01:34.027040 12541 net.cpp:165] Memory required for data: 91548000
I1018 01:01:34.027042 12541 layer_factory.hpp:77] Creating layer elu1
I1018 01:01:34.027045 12541 net.cpp:100] Creating Layer elu1
I1018 01:01:34.027046 12541 net.cpp:434] elu1 <- drop1
I1018 01:01:34.027050 12541 net.cpp:408] elu1 -> elu1
I1018 01:01:34.027061 12541 net.cpp:150] Setting up elu1
I1018 01:01:34.027065 12541 net.cpp:157] Top shape: 100 192 14 14 (3763200)
I1018 01:01:34.027067 12541 net.cpp:165] Memory required for data: 106600800
I1018 01:01:34.027068 12541 layer_factory.hpp:77] Creating layer conv2
I1018 01:01:34.027072 12541 net.cpp:100] Creating Layer conv2
I1018 01:01:34.027076 12541 net.cpp:434] conv2 <- elu1
I1018 01:01:34.027078 12541 net.cpp:408] conv2 -> conv2
I1018 01:01:34.027858 12541 net.cpp:150] Setting up conv2
I1018 01:01:34.027866 12541 net.cpp:157] Top shape: 100 192 14 14 (3763200)
I1018 01:01:34.027868 12541 net.cpp:165] Memory required for data: 121653600
I1018 01:01:34.027873 12541 layer_factory.hpp:77] Creating layer conv3
I1018 01:01:34.027879 12541 net.cpp:100] Creating Layer conv3
I1018 01:01:34.027882 12541 net.cpp:434] conv3 <- conv2
I1018 01:01:34.027885 12541 net.cpp:408] conv3 -> conv3
I1018 01:01:34.030622 12541 net.cpp:150] Setting up conv3
I1018 01:01:34.030643 12541 net.cpp:157] Top shape: 100 240 12 12 (3456000)
I1018 01:01:34.030645 12541 net.cpp:165] Memory required for data: 135477600
I1018 01:01:34.030655 12541 layer_factory.hpp:77] Creating layer pool2
I1018 01:01:34.030663 12541 net.cpp:100] Creating Layer pool2
I1018 01:01:34.030668 12541 net.cpp:434] pool2 <- conv3
I1018 01:01:34.030673 12541 net.cpp:408] pool2 -> pool2
I1018 01:01:34.030702 12541 net.cpp:150] Setting up pool2
I1018 01:01:34.030707 12541 net.cpp:157] Top shape: 100 240 6 6 (864000)
I1018 01:01:34.030709 12541 net.cpp:165] Memory required for data: 138933600
I1018 01:01:34.030710 12541 layer_factory.hpp:77] Creating layer drop2
I1018 01:01:34.030714 12541 net.cpp:100] Creating Layer drop2
I1018 01:01:34.030717 12541 net.cpp:434] drop2 <- pool2
I1018 01:01:34.030720 12541 net.cpp:408] drop2 -> drop2
I1018 01:01:34.030743 12541 net.cpp:150] Setting up drop2
I1018 01:01:34.030747 12541 net.cpp:157] Top shape: 100 240 6 6 (864000)
I1018 01:01:34.030750 12541 net.cpp:165] Memory required for data: 142389600
I1018 01:01:34.030751 12541 layer_factory.hpp:77] Creating layer elu2
I1018 01:01:34.030755 12541 net.cpp:100] Creating Layer elu2
I1018 01:01:34.030756 12541 net.cpp:434] elu2 <- drop2
I1018 01:01:34.030760 12541 net.cpp:408] elu2 -> elu2
I1018 01:01:34.030772 12541 net.cpp:150] Setting up elu2
I1018 01:01:34.030776 12541 net.cpp:157] Top shape: 100 240 6 6 (864000)
I1018 01:01:34.030791 12541 net.cpp:165] Memory required for data: 145845600
I1018 01:01:34.030792 12541 layer_factory.hpp:77] Creating layer conv4
I1018 01:01:34.030798 12541 net.cpp:100] Creating Layer conv4
I1018 01:01:34.030802 12541 net.cpp:434] conv4 <- elu2
I1018 01:01:34.030805 12541 net.cpp:408] conv4 -> conv4
I1018 01:01:34.031939 12541 net.cpp:150] Setting up conv4
I1018 01:01:34.031947 12541 net.cpp:157] Top shape: 100 240 6 6 (864000)
I1018 01:01:34.031949 12541 net.cpp:165] Memory required for data: 149301600
I1018 01:01:34.031954 12541 layer_factory.hpp:77] Creating layer conv5
I1018 01:01:34.031960 12541 net.cpp:100] Creating Layer conv5
I1018 01:01:34.031962 12541 net.cpp:434] conv5 <- conv4
I1018 01:01:34.031965 12541 net.cpp:408] conv5 -> conv5
I1018 01:01:34.033706 12541 net.cpp:150] Setting up conv5
I1018 01:01:34.033715 12541 net.cpp:157] Top shape: 100 260 5 5 (650000)
I1018 01:01:34.033718 12541 net.cpp:165] Memory required for data: 151901600
I1018 01:01:34.033725 12541 layer_factory.hpp:77] Creating layer pool3
I1018 01:01:34.033730 12541 net.cpp:100] Creating Layer pool3
I1018 01:01:34.033732 12541 net.cpp:434] pool3 <- conv5
I1018 01:01:34.033736 12541 net.cpp:408] pool3 -> pool3
I1018 01:01:34.033762 12541 net.cpp:150] Setting up pool3
I1018 01:01:34.033767 12541 net.cpp:157] Top shape: 100 260 3 3 (234000)
I1018 01:01:34.033769 12541 net.cpp:165] Memory required for data: 152837600
I1018 01:01:34.033771 12541 layer_factory.hpp:77] Creating layer drop3
I1018 01:01:34.033774 12541 net.cpp:100] Creating Layer drop3
I1018 01:01:34.033776 12541 net.cpp:434] drop3 <- pool3
I1018 01:01:34.033779 12541 net.cpp:408] drop3 -> drop3
I1018 01:01:34.033802 12541 net.cpp:150] Setting up drop3
I1018 01:01:34.033805 12541 net.cpp:157] Top shape: 100 260 3 3 (234000)
I1018 01:01:34.033807 12541 net.cpp:165] Memory required for data: 153773600
I1018 01:01:34.033809 12541 layer_factory.hpp:77] Creating layer elu3
I1018 01:01:34.033813 12541 net.cpp:100] Creating Layer elu3
I1018 01:01:34.033816 12541 net.cpp:434] elu3 <- drop3
I1018 01:01:34.033819 12541 net.cpp:408] elu3 -> elu3
I1018 01:01:34.033833 12541 net.cpp:150] Setting up elu3
I1018 01:01:34.033838 12541 net.cpp:157] Top shape: 100 260 3 3 (234000)
I1018 01:01:34.033838 12541 net.cpp:165] Memory required for data: 154709600
I1018 01:01:34.033840 12541 layer_factory.hpp:77] Creating layer conv6
I1018 01:01:34.033844 12541 net.cpp:100] Creating Layer conv6
I1018 01:01:34.033848 12541 net.cpp:434] conv6 <- elu3
I1018 01:01:34.033850 12541 net.cpp:408] conv6 -> conv6
I1018 01:01:34.034958 12541 net.cpp:150] Setting up conv6
I1018 01:01:34.034966 12541 net.cpp:157] Top shape: 100 260 3 3 (234000)
I1018 01:01:34.034970 12541 net.cpp:165] Memory required for data: 155645600
I1018 01:01:34.034973 12541 layer_factory.hpp:77] Creating layer conv7
I1018 01:01:34.034978 12541 net.cpp:100] Creating Layer conv7
I1018 01:01:34.034982 12541 net.cpp:434] conv7 <- conv6
I1018 01:01:34.034986 12541 net.cpp:408] conv7 -> conv7
I1018 01:01:34.036931 12541 net.cpp:150] Setting up conv7
I1018 01:01:34.036942 12541 net.cpp:157] Top shape: 100 280 2 2 (112000)
I1018 01:01:34.036945 12541 net.cpp:165] Memory required for data: 156093600
I1018 01:01:34.036950 12541 layer_factory.hpp:77] Creating layer pool4
I1018 01:01:34.036954 12541 net.cpp:100] Creating Layer pool4
I1018 01:01:34.036957 12541 net.cpp:434] pool4 <- conv7
I1018 01:01:34.036963 12541 net.cpp:408] pool4 -> pool4
I1018 01:01:34.036990 12541 net.cpp:150] Setting up pool4
I1018 01:01:34.036994 12541 net.cpp:157] Top shape: 100 280 1 1 (28000)
I1018 01:01:34.036996 12541 net.cpp:165] Memory required for data: 156205600
I1018 01:01:34.036998 12541 layer_factory.hpp:77] Creating layer drop4
I1018 01:01:34.037001 12541 net.cpp:100] Creating Layer drop4
I1018 01:01:34.037004 12541 net.cpp:434] drop4 <- pool4
I1018 01:01:34.037008 12541 net.cpp:408] drop4 -> drop4
I1018 01:01:34.037030 12541 net.cpp:150] Setting up drop4
I1018 01:01:34.037034 12541 net.cpp:157] Top shape: 100 280 1 1 (28000)
I1018 01:01:34.037036 12541 net.cpp:165] Memory required for data: 156317600
I1018 01:01:34.037048 12541 layer_factory.hpp:77] Creating layer elu4
I1018 01:01:34.037052 12541 net.cpp:100] Creating Layer elu4
I1018 01:01:34.037055 12541 net.cpp:434] elu4 <- drop4
I1018 01:01:34.037056 12541 net.cpp:408] elu4 -> elu4
I1018 01:01:34.037071 12541 net.cpp:150] Setting up elu4
I1018 01:01:34.037075 12541 net.cpp:157] Top shape: 100 280 1 1 (28000)
I1018 01:01:34.037076 12541 net.cpp:165] Memory required for data: 156429600
I1018 01:01:34.037078 12541 layer_factory.hpp:77] Creating layer conv8
I1018 01:01:34.037083 12541 net.cpp:100] Creating Layer conv8
I1018 01:01:34.037086 12541 net.cpp:434] conv8 <- elu4
I1018 01:01:34.037089 12541 net.cpp:408] conv8 -> conv8
I1018 01:01:34.038141 12541 net.cpp:150] Setting up conv8
I1018 01:01:34.038159 12541 net.cpp:157] Top shape: 100 280 1 1 (28000)
I1018 01:01:34.038161 12541 net.cpp:165] Memory required for data: 156541600
I1018 01:01:34.038168 12541 layer_factory.hpp:77] Creating layer pool5
I1018 01:01:34.038174 12541 net.cpp:100] Creating Layer pool5
I1018 01:01:34.038178 12541 net.cpp:434] pool5 <- conv8
I1018 01:01:34.038183 12541 net.cpp:408] pool5 -> pool5
I1018 01:01:34.038214 12541 net.cpp:150] Setting up pool5
I1018 01:01:34.038218 12541 net.cpp:157] Top shape: 100 280 1 1 (28000)
I1018 01:01:34.038220 12541 net.cpp:165] Memory required for data: 156653600
I1018 01:01:34.038223 12541 layer_factory.hpp:77] Creating layer drop5
I1018 01:01:34.038226 12541 net.cpp:100] Creating Layer drop5
I1018 01:01:34.038228 12541 net.cpp:434] drop5 <- pool5
I1018 01:01:34.038231 12541 net.cpp:408] drop5 -> drop5
I1018 01:01:34.038255 12541 net.cpp:150] Setting up drop5
I1018 01:01:34.038259 12541 net.cpp:157] Top shape: 100 280 1 1 (28000)
I1018 01:01:34.038261 12541 net.cpp:165] Memory required for data: 156765600
I1018 01:01:34.038262 12541 layer_factory.hpp:77] Creating layer elu5
I1018 01:01:34.038265 12541 net.cpp:100] Creating Layer elu5
I1018 01:01:34.038267 12541 net.cpp:434] elu5 <- drop5
I1018 01:01:34.038271 12541 net.cpp:408] elu5 -> elu5
I1018 01:01:34.038285 12541 net.cpp:150] Setting up elu5
I1018 01:01:34.038288 12541 net.cpp:157] Top shape: 100 280 1 1 (28000)
I1018 01:01:34.038290 12541 net.cpp:165] Memory required for data: 156877600
I1018 01:01:34.038291 12541 layer_factory.hpp:77] Creating layer conv10
I1018 01:01:34.038296 12541 net.cpp:100] Creating Layer conv10
I1018 01:01:34.038300 12541 net.cpp:434] conv10 <- elu5
I1018 01:01:34.038303 12541 net.cpp:408] conv10 -> conv10
I1018 01:01:34.039402 12541 net.cpp:150] Setting up conv10
I1018 01:01:34.039413 12541 net.cpp:157] Top shape: 100 300 1 1 (30000)
I1018 01:01:34.039415 12541 net.cpp:165] Memory required for data: 156997600
I1018 01:01:34.039424 12541 layer_factory.hpp:77] Creating layer pool6
I1018 01:01:34.039432 12541 net.cpp:100] Creating Layer pool6
I1018 01:01:34.039434 12541 net.cpp:434] pool6 <- conv10
I1018 01:01:34.039438 12541 net.cpp:408] pool6 -> pool6
I1018 01:01:34.039469 12541 net.cpp:150] Setting up pool6
I1018 01:01:34.039474 12541 net.cpp:157] Top shape: 100 300 1 1 (30000)
I1018 01:01:34.039475 12541 net.cpp:165] Memory required for data: 157117600
I1018 01:01:34.039477 12541 layer_factory.hpp:77] Creating layer drop6
I1018 01:01:34.039480 12541 net.cpp:100] Creating Layer drop6
I1018 01:01:34.039482 12541 net.cpp:434] drop6 <- pool6
I1018 01:01:34.039486 12541 net.cpp:408] drop6 -> drop6
I1018 01:01:34.039523 12541 net.cpp:150] Setting up drop6
I1018 01:01:34.039530 12541 net.cpp:157] Top shape: 100 300 1 1 (30000)
I1018 01:01:34.039532 12541 net.cpp:165] Memory required for data: 157237600
I1018 01:01:34.039536 12541 layer_factory.hpp:77] Creating layer elu6
I1018 01:01:34.039542 12541 net.cpp:100] Creating Layer elu6
I1018 01:01:34.039546 12541 net.cpp:434] elu6 <- drop6
I1018 01:01:34.039551 12541 net.cpp:408] elu6 -> elu6
I1018 01:01:34.039569 12541 net.cpp:150] Setting up elu6
I1018 01:01:34.039574 12541 net.cpp:157] Top shape: 100 300 1 1 (30000)
I1018 01:01:34.039577 12541 net.cpp:165] Memory required for data: 157357600
I1018 01:01:34.039592 12541 layer_factory.hpp:77] Creating layer conv11
I1018 01:01:34.039599 12541 net.cpp:100] Creating Layer conv11
I1018 01:01:34.039602 12541 net.cpp:434] conv11 <- elu6
I1018 01:01:34.039608 12541 net.cpp:408] conv11 -> conv11
I1018 01:01:34.040421 12541 net.cpp:150] Setting up conv11
I1018 01:01:34.040429 12541 net.cpp:157] Top shape: 100 100 1 1 (10000)
I1018 01:01:34.040432 12541 net.cpp:165] Memory required for data: 157397600
I1018 01:01:34.040438 12541 layer_factory.hpp:77] Creating layer pool7
I1018 01:01:34.040444 12541 net.cpp:100] Creating Layer pool7
I1018 01:01:34.040449 12541 net.cpp:434] pool7 <- conv11
I1018 01:01:34.040453 12541 net.cpp:408] pool7 -> pool7
I1018 01:01:34.040482 12541 net.cpp:150] Setting up pool7
I1018 01:01:34.040487 12541 net.cpp:157] Top shape: 100 100 1 1 (10000)
I1018 01:01:34.040488 12541 net.cpp:165] Memory required for data: 157437600
I1018 01:01:34.040493 12541 layer_factory.hpp:77] Creating layer drop7
I1018 01:01:34.040501 12541 net.cpp:100] Creating Layer drop7
I1018 01:01:34.040503 12541 net.cpp:434] drop7 <- pool7
I1018 01:01:34.040508 12541 net.cpp:408] drop7 -> drop7
I1018 01:01:34.040534 12541 net.cpp:150] Setting up drop7
I1018 01:01:34.040537 12541 net.cpp:157] Top shape: 100 100 1 1 (10000)
I1018 01:01:34.040539 12541 net.cpp:165] Memory required for data: 157477600
I1018 01:01:34.040542 12541 layer_factory.hpp:77] Creating layer elu7
I1018 01:01:34.040546 12541 net.cpp:100] Creating Layer elu7
I1018 01:01:34.040549 12541 net.cpp:434] elu7 <- drop7
I1018 01:01:34.040554 12541 net.cpp:408] elu7 -> elu7
I1018 01:01:34.040570 12541 net.cpp:150] Setting up elu7
I1018 01:01:34.040575 12541 net.cpp:157] Top shape: 100 100 1 1 (10000)
I1018 01:01:34.040576 12541 net.cpp:165] Memory required for data: 157517600
I1018 01:01:34.040580 12541 layer_factory.hpp:77] Creating layer pool
I1018 01:01:34.040583 12541 net.cpp:100] Creating Layer pool
I1018 01:01:34.040588 12541 net.cpp:434] pool <- elu7
I1018 01:01:34.040592 12541 net.cpp:408] pool -> pool
I1018 01:01:34.040794 12541 net.cpp:150] Setting up pool
I1018 01:01:34.040802 12541 net.cpp:157] Top shape: 100 100 1 1 (10000)
I1018 01:01:34.040804 12541 net.cpp:165] Memory required for data: 157557600
I1018 01:01:34.040807 12541 layer_factory.hpp:77] Creating layer flatten
I1018 01:01:34.040812 12541 net.cpp:100] Creating Layer flatten
I1018 01:01:34.040814 12541 net.cpp:434] flatten <- pool
I1018 01:01:34.040817 12541 net.cpp:408] flatten -> flatten
I1018 01:01:34.040833 12541 net.cpp:150] Setting up flatten
I1018 01:01:34.040838 12541 net.cpp:157] Top shape: 100 100 (10000)
I1018 01:01:34.040838 12541 net.cpp:165] Memory required for data: 157597600
I1018 01:01:34.040840 12541 layer_factory.hpp:77] Creating layer flatten_flatten_0_split
I1018 01:01:34.040844 12541 net.cpp:100] Creating Layer flatten_flatten_0_split
I1018 01:01:34.040846 12541 net.cpp:434] flatten_flatten_0_split <- flatten
I1018 01:01:34.040849 12541 net.cpp:408] flatten_flatten_0_split -> flatten_flatten_0_split_0
I1018 01:01:34.040853 12541 net.cpp:408] flatten_flatten_0_split -> flatten_flatten_0_split_1
I1018 01:01:34.040879 12541 net.cpp:150] Setting up flatten_flatten_0_split
I1018 01:01:34.040881 12541 net.cpp:157] Top shape: 100 100 (10000)
I1018 01:01:34.040884 12541 net.cpp:157] Top shape: 100 100 (10000)
I1018 01:01:34.040885 12541 net.cpp:165] Memory required for data: 157677600
I1018 01:01:34.040887 12541 layer_factory.hpp:77] Creating layer ip_c
I1018 01:01:34.040891 12541 net.cpp:100] Creating Layer ip_c
I1018 01:01:34.040894 12541 net.cpp:434] ip_c <- flatten_flatten_0_split_0
I1018 01:01:34.040897 12541 net.cpp:408] ip_c -> ip_c
I1018 01:01:34.040976 12541 net.cpp:150] Setting up ip_c
I1018 01:01:34.040979 12541 net.cpp:157] Top shape: 100 20 (2000)
I1018 01:01:34.040982 12541 net.cpp:165] Memory required for data: 157685600
I1018 01:01:34.040985 12541 layer_factory.hpp:77] Creating layer ip_c_ip_c_0_split
I1018 01:01:34.040988 12541 net.cpp:100] Creating Layer ip_c_ip_c_0_split
I1018 01:01:34.040989 12541 net.cpp:434] ip_c_ip_c_0_split <- ip_c
I1018 01:01:34.041000 12541 net.cpp:408] ip_c_ip_c_0_split -> ip_c_ip_c_0_split_0
I1018 01:01:34.041004 12541 net.cpp:408] ip_c_ip_c_0_split -> ip_c_ip_c_0_split_1
I1018 01:01:34.041028 12541 net.cpp:150] Setting up ip_c_ip_c_0_split
I1018 01:01:34.041031 12541 net.cpp:157] Top shape: 100 20 (2000)
I1018 01:01:34.041033 12541 net.cpp:157] Top shape: 100 20 (2000)
I1018 01:01:34.041035 12541 net.cpp:165] Memory required for data: 157701600
I1018 01:01:34.041038 12541 layer_factory.hpp:77] Creating layer accuracy_f
I1018 01:01:34.041040 12541 net.cpp:100] Creating Layer accuracy_f
I1018 01:01:34.041043 12541 net.cpp:434] accuracy_f <- ip_c_ip_c_0_split_0
I1018 01:01:34.041045 12541 net.cpp:434] accuracy_f <- label_coarse_data_1_split_0
I1018 01:01:34.041049 12541 net.cpp:408] accuracy_f -> accuracy_f
…
