…
  level: 0
  stage: ""
}
type: "AdaGrad"
I1017 21:01:34.009060  7544 solver.cpp:81] Creating training net from train_net file: /home/adam/Honours/Honours-Project/cifar-100_pooling/max/relu/poolcnn_relu_train.prototxt
I1017 21:01:34.009363  7544 net.cpp:58] Initializing net from parameters: 
state {
  phase: TRAIN
  level: 0
  stage: ""
}
layer {
  name: "data"
  type: "HDF5Data"
  top: "data"
  top: "label_coarse"
  top: "label_fine"
  hdf5_data_param {
    source: "../../../../data/cifar-100/cifar_100_caffe_hdf5/train.txt"
    batch_size: 64
  }
}
layer {
  name: "conv1"
  type: "Convolution"
  bottom: "data"
  top: "conv1"
  convolution_param {
    num_output: 192
    kernel_size: 5
    weight_filler {
      type: "xavier"
    }
  }
}
layer {
  name: "pool1"
  type: "Pooling"
  bottom: "conv1"
  top: "pool1"
  pooling_param {
    pool: MAX
    kernel_size: 2
    stride: 2
  }
}
layer {
  name: "drop1"
  type: "Dropout"
  bottom: "pool1"
  top: "drop1"
  dropout_param {
    dropout_ratio: 0
  }
}
layer {
  name: "relu1"
  type: "ReLU"
  bottom: "drop1"
  top: "relu1"
}
layer {
  name: "conv2"
  type: "Convolution"
  bottom: "relu1"
  top: "conv2"
  convolution_param {
    num_output: 192
    kernel_size: 1
    weight_filler {
      type: "xavier"
    }
  }
}
layer {
  name: "conv3"
  type: "Convolution"
  bottom: "conv2"
  top: "conv3"
  convolution_param {
    num_output: 240
    kernel_size: 3
    weight_filler {
      type: "xavier"
    }
  }
}
layer {
  name: "pool2"
  type: "Pooling"
  bottom: "conv3"
  top: "pool2"
  pooling_param {
    pool: MAX
    kernel_size: 2
    stride: 2
  }
}
layer {
  name: "drop2"
  type: "Dropout"
  bottom: "pool2"
  top: "drop2"
  dropout_param {
    dropout_ratio: 0.1
  }
}
layer {
  name: "relu2"
  type: "ReLU"
  bottom: "drop2"
  top: "relu2"
}
layer {
  name: "conv4"
  type: "Convolution"
  bottom: "relu2"
  top: "conv4"
  convolution_param {
    num_output: 240
    kernel_size: 1
    weight_filler {
      type: "xavier"
    }
  }
}
layer {
  name: "conv5"
  type: "Convolution"
  bottom: "conv4"
  top: "conv5"
  convolution_param {
    num_output: 260
    kernel_size: 2
    weight_filler {
      type: "xavier"
    }
  }
}
layer {
  name: "pool3"
  type: "Pooling"
  bottom: "conv5"
  top: "pool3"
  pooling_param {
    pool: MAX
    kernel_size: 2
    stride: 2
  }
}
layer {
  name: "drop3"
  type: "Dropout"
  bottom: "pool3"
  top: "drop3"
  dropout_param {
    dropout_ratio: 0.2
  }
}
layer {
  name: "relu3"
  type: "ReLU"
  bottom: "drop3"
  top: "relu3"
}
layer {
  name: "conv6"
  type: "Convolution"
  bottom: "relu3"
  top: "conv6"
  convolution_param {
    num_output: 260
    kernel_size: 1
    weight_filler {
      type: "xavier"
    }
  }
}
layer {
  name: "conv7"
  type: "Convolution"
  bottom: "conv6"
  top: "conv7"
  convolution_param {
    num_output: 280
    kernel_size: 2
    weight_filler {
      type: "xavier"
    }
  }
}
layer {
  name: "pool4"
  type: "Pooling"
  bottom: "conv7"
  top: "pool4"
  pooling_param {
    pool: MAX
    kernel_size: 2
    stride: 2
  }
}
layer {
  name: "drop4"
  type: "Dropout"
  bottom: "pool4"
  top: "drop4"
  dropout_param {
    dropout_ratio: 0.3
  }
}
layer {
  name: "relu4"
  type: "ReLU"
  bottom: "drop4"
  top: "relu4"
}
layer {
  name: "conv8"
  type: "Convolution"
  bottom: "relu4"
  top: "conv8"
  convolution_param {
    num_output: 280
    kernel_size: 1
    weight_filler {
      type: "xavier"
    }
  }
}
layer {
  name: "pool5"
  type: "Pooling"
  bottom: "conv8"
  top: "pool5"
  pooling_param {
    pool: MAX
    kernel_size: 2
    stride: 2
  }
}
layer {
  name: "drop5"
  type: "Dropout"
  bottom: "pool5"
  top: "drop5"
  dropout_param {
    dropout_ratio: 0.4
  }
}
layer {
  name: "relu5"
  type: "ReLU"
  bottom: "drop5"
  top: "relu5"
}
layer {
  name: "conv10"
  type: "Convolution"
  bottom: "relu5"
  top: "conv10"
  convolution_param {
    num_output: 300
    kernel_size: 1
    weight_filler {
      type: "xavier"
    }
  }
}
layer {
  name: "pool6"
  type: "Pooling"
  bottom: "conv10"
  top: "pool6"
  pooling_param {
    pool: MAX
    kernel_size: 2
    stride: 2
  }
}
layer {
  name: "drop6"
  type: "Dropout"
  bottom: "pool6"
  top: "drop6"
  dropout_param {
    dropout_ratio: 0.5
  }
}
layer {
  name: "relu6"
  type: "ReLU"
  bottom: "drop6"
  top: "relu6"
}
layer {
  name: "conv11"
  type: "Convolution"
  bottom: "relu6"
  top: "conv11"
  convolution_param {
    num_output: 100
    kernel_size: 1
    weight_filler {
      type: "xavier"
    }
  }
}
layer {
  name: "pool7"
  type: "Pooling"
  bottom: "conv11"
  top: "pool7"
  pooling_param {
    pool: MAX
    kernel_size: 2
    stride: 2
  }
}
layer {
  name: "drop7"
  type: "Dropout"
  bottom: "pool7"
  top: "drop7"
  dropout_param {
    dropout_ratio: 0
  }
}
layer {
  name: "relu7"
  type: "ReLU"
  bottom: "drop7"
  top: "relu7"
}
layer {
  name: "pool"
  type: "Pooling"
  bottom: "relu7"
  top: "pool"
  pooling_param {
    pool: AVE
    global_pooling: true
  }
}
layer {
  name: "flatten"
  type: "Flatten"
  bottom: "pool"
  top: "flatten"
}
layer {
  name: "ip_c"
  type: "InnerProduct"
  bottom: "flatten"
  top: "ip_c"
  inner_product_param {
    num_output: 20
    weight_filler {
      type: "xavier"
    }
  }
}
layer {
  name: "accuracy_f"
  type: "Accuracy"
  bottom: "ip_c"
  bottom: "label_coarse"
  top: "accuracy_f"
}
layer {
  name: "loss_c"
  type: "SoftmaxWithLoss"
  bottom: "ip_c"
  bottom: "label_coarse"
  top: "loss_c"
}
layer {
  name: "ip_f"
  type: "InnerProduct"
  bottom: "flatten"
  top: "ip_f"
  inner_product_param {
    num_output: 100
    weight_filler {
      type: "xavier"
    }
  }
}
layer {
  name: "accuracy"
  type: "Accuracy"
  bottom: "ip_f"
  bottom: "label_fine"
  top: "accuracy"
}
layer {
  name: "loss_f"
  type: "SoftmaxWithLoss"
  bottom: "ip_f"
  bottom: "label_fine"
  top: "loss_f"
}
I1017 21:01:34.009521  7544 layer_factory.hpp:77] Creating layer data
I1017 21:01:34.009531  7544 net.cpp:100] Creating Layer data
I1017 21:01:34.009536  7544 net.cpp:408] data -> data
I1017 21:01:34.009552  7544 net.cpp:408] data -> label_coarse
I1017 21:01:34.009562  7544 net.cpp:408] data -> label_fine
I1017 21:01:34.009573  7544 hdf5_data_layer.cpp:79] Loading list of HDF5 filenames from: ../../../../data/cifar-100/cifar_100_caffe_hdf5/train.txt
I1017 21:01:34.009595  7544 hdf5_data_layer.cpp:93] Number of HDF5 files: 1
I1017 21:01:34.010212  7544 hdf5.cpp:35] Datatype class: H5T_INTEGER
I1017 21:01:35.590725  7544 net.cpp:150] Setting up data
I1017 21:01:35.590752  7544 net.cpp:157] Top shape: 64 3 32 32 (196608)
I1017 21:01:35.590756  7544 net.cpp:157] Top shape: 64 (64)
I1017 21:01:35.590759  7544 net.cpp:157] Top shape: 64 (64)
I1017 21:01:35.590762  7544 net.cpp:165] Memory required for data: 786944
I1017 21:01:35.590770  7544 layer_factory.hpp:77] Creating layer label_coarse_data_1_split
I1017 21:01:35.590782  7544 net.cpp:100] Creating Layer label_coarse_data_1_split
I1017 21:01:35.590788  7544 net.cpp:434] label_coarse_data_1_split <- label_coarse
I1017 21:01:35.590801  7544 net.cpp:408] label_coarse_data_1_split -> label_coarse_data_1_split_0
I1017 21:01:35.590811  7544 net.cpp:408] label_coarse_data_1_split -> label_coarse_data_1_split_1
I1017 21:01:35.590837  7544 net.cpp:150] Setting up label_coarse_data_1_split
I1017 21:01:35.590842  7544 net.cpp:157] Top shape: 64 (64)
I1017 21:01:35.590845  7544 net.cpp:157] Top shape: 64 (64)
I1017 21:01:35.590849  7544 net.cpp:165] Memory required for data: 787456
I1017 21:01:35.590852  7544 layer_factory.hpp:77] Creating layer label_fine_data_2_split
I1017 21:01:35.590870  7544 net.cpp:100] Creating Layer label_fine_data_2_split
I1017 21:01:35.590874  7544 net.cpp:434] label_fine_data_2_split <- label_fine
I1017 21:01:35.590880  7544 net.cpp:408] label_fine_data_2_split -> label_fine_data_2_split_0
I1017 21:01:35.590886  7544 net.cpp:408] label_fine_data_2_split -> label_fine_data_2_split_1
I1017 21:01:35.590908  7544 net.cpp:150] Setting up label_fine_data_2_split
I1017 21:01:35.590912  7544 net.cpp:157] Top shape: 64 (64)
I1017 21:01:35.590917  7544 net.cpp:157] Top shape: 64 (64)
I1017 21:01:35.590920  7544 net.cpp:165] Memory required for data: 787968
I1017 21:01:35.590924  7544 layer_factory.hpp:77] Creating layer conv1
I1017 21:01:35.590936  7544 net.cpp:100] Creating Layer conv1
I1017 21:01:35.590940  7544 net.cpp:434] conv1 <- data
I1017 21:01:35.590945  7544 net.cpp:408] conv1 -> conv1
I1017 21:01:35.709563  7544 net.cpp:150] Setting up conv1
I1017 21:01:35.709589  7544 net.cpp:157] Top shape: 64 192 28 28 (9633792)
I1017 21:01:35.709592  7544 net.cpp:165] Memory required for data: 39323136
I1017 21:01:35.709615  7544 layer_factory.hpp:77] Creating layer pool1
I1017 21:01:35.709628  7544 net.cpp:100] Creating Layer pool1
I1017 21:01:35.709633  7544 net.cpp:434] pool1 <- conv1
I1017 21:01:35.709641  7544 net.cpp:408] pool1 -> pool1
I1017 21:01:35.709691  7544 net.cpp:150] Setting up pool1
I1017 21:01:35.709697  7544 net.cpp:157] Top shape: 64 192 14 14 (2408448)
I1017 21:01:35.709700  7544 net.cpp:165] Memory required for data: 48956928
I1017 21:01:35.709705  7544 layer_factory.hpp:77] Creating layer drop1
I1017 21:01:35.709712  7544 net.cpp:100] Creating Layer drop1
I1017 21:01:35.709715  7544 net.cpp:434] drop1 <- pool1
I1017 21:01:35.709720  7544 net.cpp:408] drop1 -> drop1
I1017 21:01:35.709748  7544 net.cpp:150] Setting up drop1
I1017 21:01:35.709753  7544 net.cpp:157] Top shape: 64 192 14 14 (2408448)
I1017 21:01:35.709755  7544 net.cpp:165] Memory required for data: 58590720
I1017 21:01:35.709759  7544 layer_factory.hpp:77] Creating layer relu1
I1017 21:01:35.709765  7544 net.cpp:100] Creating Layer relu1
I1017 21:01:35.709769  7544 net.cpp:434] relu1 <- drop1
I1017 21:01:35.709774  7544 net.cpp:408] relu1 -> relu1
I1017 21:01:35.709892  7544 net.cpp:150] Setting up relu1
I1017 21:01:35.709899  7544 net.cpp:157] Top shape: 64 192 14 14 (2408448)
I1017 21:01:35.709903  7544 net.cpp:165] Memory required for data: 68224512
I1017 21:01:35.709905  7544 layer_factory.hpp:77] Creating layer conv2
I1017 21:01:35.709914  7544 net.cpp:100] Creating Layer conv2
I1017 21:01:35.709918  7544 net.cpp:434] conv2 <- relu1
I1017 21:01:35.709923  7544 net.cpp:408] conv2 -> conv2
I1017 21:01:35.710727  7544 net.cpp:150] Setting up conv2
I1017 21:01:35.710736  7544 net.cpp:157] Top shape: 64 192 14 14 (2408448)
I1017 21:01:35.710741  7544 net.cpp:165] Memory required for data: 77858304
I1017 21:01:35.710748  7544 layer_factory.hpp:77] Creating layer conv3
I1017 21:01:35.710757  7544 net.cpp:100] Creating Layer conv3
I1017 21:01:35.710760  7544 net.cpp:434] conv3 <- conv2
I1017 21:01:35.710767  7544 net.cpp:408] conv3 -> conv3
I1017 21:01:35.713174  7544 net.cpp:150] Setting up conv3
I1017 21:01:35.713184  7544 net.cpp:157] Top shape: 64 240 12 12 (2211840)
I1017 21:01:35.713187  7544 net.cpp:165] Memory required for data: 86705664
I1017 21:01:35.713196  7544 layer_factory.hpp:77] Creating layer pool2
I1017 21:01:35.713202  7544 net.cpp:100] Creating Layer pool2
I1017 21:01:35.713207  7544 net.cpp:434] pool2 <- conv3
I1017 21:01:35.713212  7544 net.cpp:408] pool2 -> pool2
I1017 21:01:35.713238  7544 net.cpp:150] Setting up pool2
I1017 21:01:35.713244  7544 net.cpp:157] Top shape: 64 240 6 6 (552960)
I1017 21:01:35.713248  7544 net.cpp:165] Memory required for data: 88917504
I1017 21:01:35.713250  7544 layer_factory.hpp:77] Creating layer drop2
I1017 21:01:35.713256  7544 net.cpp:100] Creating Layer drop2
I1017 21:01:35.713260  7544 net.cpp:434] drop2 <- pool2
I1017 21:01:35.713265  7544 net.cpp:408] drop2 -> drop2
I1017 21:01:35.713290  7544 net.cpp:150] Setting up drop2
I1017 21:01:35.713304  7544 net.cpp:157] Top shape: 64 240 6 6 (552960)
I1017 21:01:35.713307  7544 net.cpp:165] Memory required for data: 91129344
I1017 21:01:35.713311  7544 layer_factory.hpp:77] Creating layer relu2
I1017 21:01:35.713316  7544 net.cpp:100] Creating Layer relu2
I1017 21:01:35.713320  7544 net.cpp:434] relu2 <- drop2
I1017 21:01:35.713326  7544 net.cpp:408] relu2 -> relu2
I1017 21:01:35.713438  7544 net.cpp:150] Setting up relu2
I1017 21:01:35.713445  7544 net.cpp:157] Top shape: 64 240 6 6 (552960)
I1017 21:01:35.713449  7544 net.cpp:165] Memory required for data: 93341184
I1017 21:01:35.713452  7544 layer_factory.hpp:77] Creating layer conv4
I1017 21:01:35.713459  7544 net.cpp:100] Creating Layer conv4
I1017 21:01:35.713464  7544 net.cpp:434] conv4 <- relu2
I1017 21:01:35.713467  7544 net.cpp:408] conv4 -> conv4
I1017 21:01:35.714278  7544 net.cpp:150] Setting up conv4
I1017 21:01:35.714287  7544 net.cpp:157] Top shape: 64 240 6 6 (552960)
I1017 21:01:35.714292  7544 net.cpp:165] Memory required for data: 95553024
I1017 21:01:35.714298  7544 layer_factory.hpp:77] Creating layer conv5
I1017 21:01:35.714304  7544 net.cpp:100] Creating Layer conv5
I1017 21:01:35.714308  7544 net.cpp:434] conv5 <- conv4
I1017 21:01:35.714313  7544 net.cpp:408] conv5 -> conv5
I1017 21:01:35.716030  7544 net.cpp:150] Setting up conv5
I1017 21:01:35.716039  7544 net.cpp:157] Top shape: 64 260 5 5 (416000)
I1017 21:01:35.716043  7544 net.cpp:165] Memory required for data: 97217024
I1017 21:01:35.716053  7544 layer_factory.hpp:77] Creating layer pool3
I1017 21:01:35.716058  7544 net.cpp:100] Creating Layer pool3
I1017 21:01:35.716063  7544 net.cpp:434] pool3 <- conv5
I1017 21:01:35.716068  7544 net.cpp:408] pool3 -> pool3
I1017 21:01:35.716095  7544 net.cpp:150] Setting up pool3
I1017 21:01:35.716100  7544 net.cpp:157] Top shape: 64 260 3 3 (149760)
I1017 21:01:35.716104  7544 net.cpp:165] Memory required for data: 97816064
I1017 21:01:35.716109  7544 layer_factory.hpp:77] Creating layer drop3
I1017 21:01:35.716114  7544 net.cpp:100] Creating Layer drop3
I1017 21:01:35.716117  7544 net.cpp:434] drop3 <- pool3
I1017 21:01:35.716123  7544 net.cpp:408] drop3 -> drop3
I1017 21:01:35.716145  7544 net.cpp:150] Setting up drop3
I1017 21:01:35.716150  7544 net.cpp:157] Top shape: 64 260 3 3 (149760)
I1017 21:01:35.716155  7544 net.cpp:165] Memory required for data: 98415104
I1017 21:01:35.716158  7544 layer_factory.hpp:77] Creating layer relu3
I1017 21:01:35.716164  7544 net.cpp:100] Creating Layer relu3
I1017 21:01:35.716167  7544 net.cpp:434] relu3 <- drop3
I1017 21:01:35.716172  7544 net.cpp:408] relu3 -> relu3
I1017 21:01:35.716284  7544 net.cpp:150] Setting up relu3
I1017 21:01:35.716289  7544 net.cpp:157] Top shape: 64 260 3 3 (149760)
I1017 21:01:35.716292  7544 net.cpp:165] Memory required for data: 99014144
I1017 21:01:35.716295  7544 layer_factory.hpp:77] Creating layer conv6
I1017 21:01:35.716302  7544 net.cpp:100] Creating Layer conv6
I1017 21:01:35.716306  7544 net.cpp:434] conv6 <- relu3
I1017 21:01:35.716311  7544 net.cpp:408] conv6 -> conv6
I1017 21:01:35.717393  7544 net.cpp:150] Setting up conv6
I1017 21:01:35.717402  7544 net.cpp:157] Top shape: 64 260 3 3 (149760)
I1017 21:01:35.717406  7544 net.cpp:165] Memory required for data: 99613184
I1017 21:01:35.717411  7544 layer_factory.hpp:77] Creating layer conv7
I1017 21:01:35.717420  7544 net.cpp:100] Creating Layer conv7
I1017 21:01:35.717424  7544 net.cpp:434] conv7 <- conv6
I1017 21:01:35.717432  7544 net.cpp:408] conv7 -> conv7
I1017 21:01:35.719359  7544 net.cpp:150] Setting up conv7
I1017 21:01:35.719368  7544 net.cpp:157] Top shape: 64 280 2 2 (71680)
I1017 21:01:35.719372  7544 net.cpp:165] Memory required for data: 99899904
I1017 21:01:35.719378  7544 layer_factory.hpp:77] Creating layer pool4
I1017 21:01:35.719384  7544 net.cpp:100] Creating Layer pool4
I1017 21:01:35.719388  7544 net.cpp:434] pool4 <- conv7
I1017 21:01:35.719395  7544 net.cpp:408] pool4 -> pool4
I1017 21:01:35.719422  7544 net.cpp:150] Setting up pool4
I1017 21:01:35.719429  7544 net.cpp:157] Top shape: 64 280 1 1 (17920)
I1017 21:01:35.719440  7544 net.cpp:165] Memory required for data: 99971584
I1017 21:01:35.719444  7544 layer_factory.hpp:77] Creating layer drop4
I1017 21:01:35.719449  7544 net.cpp:100] Creating Layer drop4
I1017 21:01:35.719454  7544 net.cpp:434] drop4 <- pool4
I1017 21:01:35.719458  7544 net.cpp:408] drop4 -> drop4
I1017 21:01:35.719485  7544 net.cpp:150] Setting up drop4
I1017 21:01:35.719491  7544 net.cpp:157] Top shape: 64 280 1 1 (17920)
I1017 21:01:35.719493  7544 net.cpp:165] Memory required for data: 100043264
I1017 21:01:35.719496  7544 layer_factory.hpp:77] Creating layer relu4
I1017 21:01:35.719502  7544 net.cpp:100] Creating Layer relu4
I1017 21:01:35.719506  7544 net.cpp:434] relu4 <- drop4
I1017 21:01:35.719511  7544 net.cpp:408] relu4 -> relu4
I1017 21:01:35.719629  7544 net.cpp:150] Setting up relu4
I1017 21:01:35.719636  7544 net.cpp:157] Top shape: 64 280 1 1 (17920)
I1017 21:01:35.719640  7544 net.cpp:165] Memory required for data: 100114944
I1017 21:01:35.719645  7544 layer_factory.hpp:77] Creating layer conv8
I1017 21:01:35.719652  7544 net.cpp:100] Creating Layer conv8
I1017 21:01:35.719655  7544 net.cpp:434] conv8 <- relu4
I1017 21:01:35.719661  7544 net.cpp:408] conv8 -> conv8
I1017 21:01:35.720564  7544 net.cpp:150] Setting up conv8
I1017 21:01:35.720572  7544 net.cpp:157] Top shape: 64 280 1 1 (17920)
I1017 21:01:35.720577  7544 net.cpp:165] Memory required for data: 100186624
I1017 21:01:35.720582  7544 layer_factory.hpp:77] Creating layer pool5
I1017 21:01:35.720588  7544 net.cpp:100] Creating Layer pool5
I1017 21:01:35.720592  7544 net.cpp:434] pool5 <- conv8
I1017 21:01:35.720599  7544 net.cpp:408] pool5 -> pool5
I1017 21:01:35.720626  7544 net.cpp:150] Setting up pool5
I1017 21:01:35.720633  7544 net.cpp:157] Top shape: 64 280 1 1 (17920)
I1017 21:01:35.720636  7544 net.cpp:165] Memory required for data: 100258304
I1017 21:01:35.720640  7544 layer_factory.hpp:77] Creating layer drop5
I1017 21:01:35.720645  7544 net.cpp:100] Creating Layer drop5
I1017 21:01:35.720649  7544 net.cpp:434] drop5 <- pool5
I1017 21:01:35.720654  7544 net.cpp:408] drop5 -> drop5
I1017 21:01:35.720679  7544 net.cpp:150] Setting up drop5
I1017 21:01:35.720685  7544 net.cpp:157] Top shape: 64 280 1 1 (17920)
I1017 21:01:35.720686  7544 net.cpp:165] Memory required for data: 100329984
I1017 21:01:35.720690  7544 layer_factory.hpp:77] Creating layer relu5
I1017 21:01:35.720695  7544 net.cpp:100] Creating Layer relu5
I1017 21:01:35.720700  7544 net.cpp:434] relu5 <- drop5
I1017 21:01:35.720705  7544 net.cpp:408] relu5 -> relu5
I1017 21:01:35.720906  7544 net.cpp:150] Setting up relu5
I1017 21:01:35.720914  7544 net.cpp:157] Top shape: 64 280 1 1 (17920)
I1017 21:01:35.720917  7544 net.cpp:165] Memory required for data: 100401664
I1017 21:01:35.720921  7544 layer_factory.hpp:77] Creating layer conv10
I1017 21:01:35.720928  7544 net.cpp:100] Creating Layer conv10
I1017 21:01:35.720932  7544 net.cpp:434] conv10 <- relu5
I1017 21:01:35.720938  7544 net.cpp:408] conv10 -> conv10
I1017 21:01:35.721962  7544 net.cpp:150] Setting up conv10
I1017 21:01:35.721972  7544 net.cpp:157] Top shape: 64 300 1 1 (19200)
I1017 21:01:35.721976  7544 net.cpp:165] Memory required for data: 100478464
I1017 21:01:35.721987  7544 layer_factory.hpp:77] Creating layer pool6
I1017 21:01:35.721992  7544 net.cpp:100] Creating Layer pool6
I1017 21:01:35.721997  7544 net.cpp:434] pool6 <- conv10
I1017 21:01:35.722003  7544 net.cpp:408] pool6 -> pool6
I1017 21:01:35.722031  7544 net.cpp:150] Setting up pool6
I1017 21:01:35.722038  7544 net.cpp:157] Top shape: 64 300 1 1 (19200)
I1017 21:01:35.722041  7544 net.cpp:165] Memory required for data: 100555264
I1017 21:01:35.722045  7544 layer_factory.hpp:77] Creating layer drop6
I1017 21:01:35.722053  7544 net.cpp:100] Creating Layer drop6
I1017 21:01:35.722055  7544 net.cpp:434] drop6 <- pool6
I1017 21:01:35.722059  7544 net.cpp:408] drop6 -> drop6
I1017 21:01:35.722089  7544 net.cpp:150] Setting up drop6
I1017 21:01:35.722095  7544 net.cpp:157] Top shape: 64 300 1 1 (19200)
I1017 21:01:35.722107  7544 net.cpp:165] Memory required for data: 100632064
I1017 21:01:35.722110  7544 layer_factory.hpp:77] Creating layer relu6
I1017 21:01:35.722116  7544 net.cpp:100] Creating Layer relu6
I1017 21:01:35.722121  7544 net.cpp:434] relu6 <- drop6
I1017 21:01:35.722126  7544 net.cpp:408] relu6 -> relu6
I1017 21:01:35.722244  7544 net.cpp:150] Setting up relu6
I1017 21:01:35.722251  7544 net.cpp:157] Top shape: 64 300 1 1 (19200)
I1017 21:01:35.722254  7544 net.cpp:165] Memory required for data: 100708864
I1017 21:01:35.722256  7544 layer_factory.hpp:77] Creating layer conv11
I1017 21:01:35.722264  7544 net.cpp:100] Creating Layer conv11
I1017 21:01:35.722267  7544 net.cpp:434] conv11 <- relu6
I1017 21:01:35.722273  7544 net.cpp:408] conv11 -> conv11
I1017 21:01:35.723454  7544 net.cpp:150] Setting up conv11
I1017 21:01:35.723464  7544 net.cpp:157] Top shape: 64 100 1 1 (6400)
I1017 21:01:35.723467  7544 net.cpp:165] Memory required for data: 100734464
I1017 21:01:35.723472  7544 layer_factory.hpp:77] Creating layer pool7
I1017 21:01:35.723479  7544 net.cpp:100] Creating Layer pool7
I1017 21:01:35.723484  7544 net.cpp:434] pool7 <- conv11
I1017 21:01:35.723489  7544 net.cpp:408] pool7 -> pool7
I1017 21:01:35.723517  7544 net.cpp:150] Setting up pool7
I1017 21:01:35.723522  7544 net.cpp:157] Top shape: 64 100 1 1 (6400)
I1017 21:01:35.723526  7544 net.cpp:165] Memory required for data: 100760064
I1017 21:01:35.723529  7544 layer_factory.hpp:77] Creating layer drop7
I1017 21:01:35.723538  7544 net.cpp:100] Creating Layer drop7
I1017 21:01:35.723541  7544 net.cpp:434] drop7 <- pool7
I1017 21:01:35.723546  7544 net.cpp:408] drop7 -> drop7
I1017 21:01:35.723572  7544 net.cpp:150] Setting up drop7
I1017 21:01:35.723577  7544 net.cpp:157] Top shape: 64 100 1 1 (6400)
I1017 21:01:35.723579  7544 net.cpp:165] Memory required for data: 100785664
I1017 21:01:35.723582  7544 layer_factory.hpp:77] Creating layer relu7
I1017 21:01:35.723588  7544 net.cpp:100] Creating Layer relu7
I1017 21:01:35.723592  7544 net.cpp:434] relu7 <- drop7
I1017 21:01:35.723597  7544 net.cpp:408] relu7 -> relu7
I1017 21:01:35.723714  7544 net.cpp:150] Setting up relu7
I1017 21:01:35.723722  7544 net.cpp:157] Top shape: 64 100 1 1 (6400)
I1017 21:01:35.723726  7544 net.cpp:165] Memory required for data: 100811264
I1017 21:01:35.723728  7544 layer_factory.hpp:77] Creating layer pool
I1017 21:01:35.723733  7544 net.cpp:100] Creating Layer pool
I1017 21:01:35.723738  7544 net.cpp:434] pool <- relu7
I1017 21:01:35.723743  7544 net.cpp:408] pool -> pool
I1017 21:01:35.723947  7544 net.cpp:150] Setting up pool
I1017 21:01:35.723954  7544 net.cpp:157] Top shape: 64 100 1 1 (6400)
I1017 21:01:35.723958  7544 net.cpp:165] Memory required for data: 100836864
I1017 21:01:35.723960  7544 layer_factory.hpp:77] Creating layer flatten
I1017 21:01:35.723966  7544 net.cpp:100] Creating Layer flatten
I1017 21:01:35.723970  7544 net.cpp:434] flatten <- pool
I1017 21:01:35.723978  7544 net.cpp:408] flatten -> flatten
I1017 21:01:35.723996  7544 net.cpp:150] Setting up flatten
I1017 21:01:35.724001  7544 net.cpp:157] Top shape: 64 100 (6400)
I1017 21:01:35.724004  7544 net.cpp:165] Memory required for data: 100862464
I1017 21:01:35.724006  7544 layer_factory.hpp:77] Creating layer flatten_flatten_0_split
I1017 21:01:35.724014  7544 net.cpp:100] Creating Layer flatten_flatten_0_split
I1017 21:01:35.724019  7544 net.cpp:434] flatten_flatten_0_split <- flatten
I1017 21:01:35.724022  7544 net.cpp:408] flatten_flatten_0_split -> flatten_flatten_0_split_0
I1017 21:01:35.724030  7544 net.cpp:408] flatten_flatten_0_split -> flatten_flatten_0_split_1
I1017 21:01:35.724057  7544 net.cpp:150] Setting up flatten_flatten_0_split
I1017 21:01:35.724062  7544 net.cpp:157] Top shape: 64 100 (6400)
I1017 21:01:35.724067  7544 net.cpp:157] Top shape: 64 100 (6400)
I1017 21:01:35.724071  7544 net.cpp:165] Memory required for data: 100913664
I1017 21:01:35.724073  7544 layer_factory.hpp:77] Creating layer ip_c
I1017 21:01:35.724081  7544 net.cpp:100] Creating Layer ip_c
I1017 21:01:35.724089  7544 net.cpp:434] ip_c <- flatten_flatten_0_split_0
I1017 21:01:35.724095  7544 net.cpp:408] ip_c -> ip_c
I1017 21:01:35.724441  7544 net.cpp:150] Setting up ip_c
I1017 21:01:35.724447  7544 net.cpp:157] Top shape: 64 20 (1280)
I1017 21:01:35.724450  7544 net.cpp:165] Memory required for data: 100918784
I1017 21:01:35.724457  7544 layer_factory.hpp:77] Creating layer ip_c_ip_c_0_split
I1017 21:01:35.724462  7544 net.cpp:100] Creating Layer ip_c_ip_c_0_split
I1017 21:01:35.724467  7544 net.cpp:434] ip_c_ip_c_0_split <- ip_c
I1017 21:01:35.724472  7544 net.cpp:408] ip_c_ip_c_0_split -> ip_c_ip_c_0_split_0
I1017 21:01:35.724478  7544 net.cpp:408] ip_c_ip_c_0_split -> ip_c_ip_c_0_split_1
I1017 21:01:35.724504  7544 net.cpp:150] Setting up ip_c_ip_c_0_split
I1017 21:01:35.724509  7544 net.cpp:157] Top shape: 64 20 (1280)
I1017 21:01:35.724514  7544 net.cpp:157] Top shape: 64 20 (1280)
I1017 21:01:35.724515  7544 net.cpp:165] Memory required for data: 100929024
I1017 21:01:35.724519  7544 layer_factory.hpp:77] Creating layer accuracy_f
I1017 21:01:35.724524  7544 net.cpp:100] Creating Layer accuracy_f
I1017 21:01:35.724529  7544 net.cpp:434] accuracy_f <- ip_c_ip_c_0_split_0
I1017 21:01:35.724532  7544 net.cpp:434] accuracy_f <- label_coarse_data_1_split_0
I1017 21:01:35.724539  7544 net.cpp:408] accuracy_f -> accuracy_f
…
I1017 21:01:35.725543  7544 net.cpp:283] Network initialization done.
I1017 21:01:35.725744  7544 solver.cpp:181] Creating test net (#0) specified by test_net file: /home/adam/Honours/Honours-Project/cifar-100_pooling/max/relu/poolcnn_relu_test.prototxt
I1017 21:01:35.725865  7544 net.cpp:58] Initializing net from parameters: 
state {
  phase: TEST
}
layer {
  name: "data"
  type: "HDF5Data"
  top: "data"
  top: "label_coarse"
  top: "label_fine"
  hdf5_data_param {
    source: "../../../../data/cifar-100/cifar_100_caffe_hdf5/test.txt"
    batch_size: 100
  }
}
layer {
  name: "conv1"
  type: "Convolution"
  bottom: "data"
  top: "conv1"
  convolution_param {
    num_output: 192
    kernel_size: 5
    weight_filler {
      type: "xavier"
    }
  }
}
layer {
  name: "pool1"
  type: "Pooling"
  bottom: "conv1"
  top: "pool1"
  pooling_param {
    pool: MAX
    kernel_size: 2
    stride: 2
  }
}
layer {
  name: "drop1"
  type: "Dropout"
  bottom: "pool1"
  top: "drop1"
  dropout_param {
    dropout_ratio: 0
  }
}
layer {
  name: "relu1"
  type: "ReLU"
  bottom: "drop1"
  top: "relu1"
}
layer {
  name: "conv2"
  type: "Convolution"
  bottom: "relu1"
  top: "conv2"
  convolution_param {
    num_output: 192
    kernel_size: 1
    weight_filler {
      type: "xavier"
    }
  }
}
layer {
  name: "conv3"
  type: "Convolution"
  bottom: "conv2"
  top: "conv3"
  convolution_param {
    num_output: 240
    kernel_size: 3
    weight_filler {
      type: "xavier"
    }
  }
}
layer {
  name: "pool2"
  type: "Pooling"
  bottom: "conv3"
  top: "pool2"
  pooling_param {
    pool: MAX
    kernel_size: 2
    stride: 2
  }
}
layer {
  name: "drop2"
  type: "Dropout"
  bottom: "pool2"
  top: "drop2"
  dropout_param {
    dropout_ratio: 0.1
  }
}
layer {
  name: "relu2"
  type: "ReLU"
  bottom: "drop2"
  top: "relu2"
}
layer {
  name: "conv4"
  type: "Convolution"
  bottom: "relu2"
  top: "conv4"
  convolution_param {
    num_output: 240
    kernel_size: 1
    weight_filler {
      type: "xavier"
    }
  }
}
layer {
  name: "conv5"
  type: "Convolution"
  bottom: "conv4"
  top: "conv5"
  convolution_param {
    num_output: 260
    kernel_size: 2
    weight_filler {
      type: "xavier"
    }
  }
}
layer {
  name: "pool3"
  type: "Pooling"
  bottom: "conv5"
  top: "pool3"
  pooling_param {
    pool: MAX
    kernel_size: 2
    stride: 2
  }
}
layer {
  name: "drop3"
  type: "Dropout"
  bottom: "pool3"
  top: "drop3"
  dropout_param {
    dropout_ratio: 0.2
  }
}
layer {
  name: "relu3"
  type: "ReLU"
  bottom: "drop3"
  top: "relu3"
}
layer {
  name: "conv6"
  type: "Convolution"
  bottom: "relu3"
  top: "conv6"
  convolution_param {
    num_output: 260
    kernel_size: 1
    weight_filler {
      type: "xavier"
    }
  }
}
layer {
  name: "conv7"
  type: "Convolution"
  bottom: "conv6"
  top: "conv7"
  convolution_param {
    num_output: 280
    kernel_size: 2
    weight_filler {
      type: "xavier"
    }
  }
}
layer {
  name: "pool4"
  type: "Pooling"
  bottom: "conv7"
  top: "pool4"
  pooling_param {
    pool: MAX
    kernel_size: 2
    stride: 2
  }
}
layer {
  name: "drop4"
  type: "Dropout"
  bottom: "pool4"
  top: "drop4"
  dropout_param {
    dropout_ratio: 0.3
  }
}
layer {
  name: "relu4"
  type: "ReLU"
  bottom: "drop4"
  top: "relu4"
}
layer {
  name: "conv8"
  type: "Convolution"
  bottom: "relu4"
  top: "conv8"
  convolution_param {
    num_output: 280
    kernel_size: 1
    weight_filler {
      type: "xavier"
    }
  }
}
layer {
  name: "pool5"
  type: "Pooling"
  bottom: "conv8"
  top: "pool5"
  pooling_param {
    pool: MAX
    kernel_size: 2
    stride: 2
  }
}
layer {
  name: "drop5"
  type: "Dropout"
  bottom: "pool5"
  top: "drop5"
  dropout_param {
    dropout_ratio: 0.4
  }
}
layer {
  name: "relu5"
  type: "ReLU"
  bottom: "drop5"
  top: "relu5"
}
layer {
  name: "conv10"
  type: "Convolution"
  bottom: "relu5"
  top: "conv10"
  convolution_param {
    num_output: 300
    kernel_size: 1
    weight_filler {
      type: "xavier"
    }
  }
}
layer {
  name: "pool6"
  type: "Pooling"
  bottom: "conv10"
  top: "pool6"
  pooling_param {
    pool: MAX
    kernel_size: 2
    stride: 2
  }
}
layer {
  name: "drop6"
  type: "Dropout"
  bottom: "pool6"
  top: "drop6"
  dropout_param {
    dropout_ratio: 0.5
  }
}
layer {
  name: "relu6"
  type: "ReLU"
  bottom: "drop6"
  top: "relu6"
}
layer {
  name: "conv11"
  type: "Convolution"
  bottom: "relu6"
  top: "conv11"
  convolution_param {
    num_output: 100
    kernel_size: 1
    weight_filler {
      type: "xavier"
    }
  }
}
layer {
  name: "pool7"
  type: "Pooling"
  bottom: "conv11"
  top: "pool7"
  pooling_param {
    pool: MAX
    kernel_size: 2
    stride: 2
  }
}
layer {
  name: "drop7"
  type: "Dropout"
  bottom: "pool7"
  top: "drop7"
  dropout_param {
    dropout_ratio: 0
  }
}
layer {
  name: "relu7"
  type: "ReLU"
  bottom: "drop7"
  top: "relu7"
}
layer {
  name: "pool"
  type: "Pooling"
  bottom: "relu7"
  top: "pool"
  pooling_param {
    pool: AVE
    global_pooling: true
  }
}
layer {
  name: "flatten"
  type: "Flatten"
  bottom: "pool"
  top: "flatten"
}
layer {
  name: "ip_c"
  type: "InnerProduct"
  bottom: "flatten"
  top: "ip_c"
  inner_product_param {
    num_output: 20
    weight_filler {
      type: "xavier"
    }
  }
}
layer {
  name: "accuracy_f"
  type: "Accuracy"
  bottom: "ip_c"
  bottom: "label_coarse"
  top: "accuracy_f"
}
layer {
  name: "loss_c"
  type: "SoftmaxWithLoss"
  bottom: "ip_c"
  bottom: "label_coarse"
  top: "loss_c"
}
layer {
  name: "ip_f"
  type: "InnerProduct"
  bottom: "flatten"
  top: "ip_f"
  inner_product_param {
    num_output: 100
    weight_filler {
      type: "xavier"
    }
  }
}
layer {
  name: "accuracy"
  type: "Accuracy"
  bottom: "ip_f"
  bottom: "label_fine"
  top: "accuracy"
}
layer {
  name: "loss_f"
  type: "SoftmaxWithLoss"
  bottom: "ip_f"
  bottom: "label_fine"
  top: "loss_f"
}
I1017 21:01:35.725986  7544 layer_factory.hpp:77] Creating layer data
I1017 21:01:35.725992  7544 net.cpp:100] Creating Layer data
I1017 21:01:35.725996  7544 net.cpp:408] data -> data
I1017 21:01:35.726002  7544 net.cpp:408] data -> label_coarse
I1017 21:01:35.726007  7544 net.cpp:408] data -> label_fine
I1017 21:01:35.726012  7544 hdf5_data_layer.cpp:79] Loading list of HDF5 filenames from: ../../../../data/cifar-100/cifar_100_caffe_hdf5/test.txt
I1017 21:01:35.726029  7544 hdf5_data_layer.cpp:93] Number of HDF5 files: 1
I1017 21:01:35.981885  7544 net.cpp:150] Setting up data
I1017 21:01:35.981912  7544 net.cpp:157] Top shape: 100 3 32 32 (307200)
I1017 21:01:35.981916  7544 net.cpp:157] Top shape: 100 (100)
I1017 21:01:35.981920  7544 net.cpp:157] Top shape: 100 (100)
I1017 21:01:35.981922  7544 net.cpp:165] Memory required for data: 1229600
I1017 21:01:35.981930  7544 layer_factory.hpp:77] Creating layer label_coarse_data_1_split
I1017 21:01:35.981941  7544 net.cpp:100] Creating Layer label_coarse_data_1_split
I1017 21:01:35.981946  7544 net.cpp:434] label_coarse_data_1_split <- label_coarse
I1017 21:01:35.981955  7544 net.cpp:408] label_coarse_data_1_split -> label_coarse_data_1_split_0
I1017 21:01:35.981964  7544 net.cpp:408] label_coarse_data_1_split -> label_coarse_data_1_split_1
I1017 21:01:35.981994  7544 net.cpp:150] Setting up label_coarse_data_1_split
I1017 21:01:35.981999  7544 net.cpp:157] Top shape: 100 (100)
I1017 21:01:35.982003  7544 net.cpp:157] Top shape: 100 (100)
I1017 21:01:35.982005  7544 net.cpp:165] Memory required for data: 1230400
I1017 21:01:35.982008  7544 layer_factory.hpp:77] Creating layer label_fine_data_2_split
I1017 21:01:35.982014  7544 net.cpp:100] Creating Layer label_fine_data_2_split
I1017 21:01:35.982018  7544 net.cpp:434] label_fine_data_2_split <- label_fine
I1017 21:01:35.982023  7544 net.cpp:408] label_fine_data_2_split -> label_fine_data_2_split_0
I1017 21:01:35.982029  7544 net.cpp:408] label_fine_data_2_split -> label_fine_data_2_split_1
I1017 21:01:35.982055  7544 net.cpp:150] Setting up label_fine_data_2_split
I1017 21:01:35.982074  7544 net.cpp:157] Top shape: 100 (100)
I1017 21:01:35.982077  7544 net.cpp:157] Top shape: 100 (100)
I1017 21:01:35.982080  7544 net.cpp:165] Memory required for data: 1231200
I1017 21:01:35.982084  7544 layer_factory.hpp:77] Creating layer conv1
I1017 21:01:35.982095  7544 net.cpp:100] Creating Layer conv1
I1017 21:01:35.982097  7544 net.cpp:434] conv1 <- data
I1017 21:01:35.982102  7544 net.cpp:408] conv1 -> conv1
I1017 21:01:35.982925  7544 net.cpp:150] Setting up conv1
I1017 21:01:35.982934  7544 net.cpp:157] Top shape: 100 192 28 28 (15052800)
I1017 21:01:35.982938  7544 net.cpp:165] Memory required for data: 61442400
I1017 21:01:35.982947  7544 layer_factory.hpp:77] Creating layer pool1
I1017 21:01:35.982955  7544 net.cpp:100] Creating Layer pool1
I1017 21:01:35.982959  7544 net.cpp:434] pool1 <- conv1
I1017 21:01:35.982964  7544 net.cpp:408] pool1 -> pool1
I1017 21:01:35.982995  7544 net.cpp:150] Setting up pool1
I1017 21:01:35.983000  7544 net.cpp:157] Top shape: 100 192 14 14 (3763200)
I1017 21:01:35.983003  7544 net.cpp:165] Memory required for data: 76495200
I1017 21:01:35.983007  7544 layer_factory.hpp:77] Creating layer drop1
I1017 21:01:35.983012  7544 net.cpp:100] Creating Layer drop1
I1017 21:01:35.983016  7544 net.cpp:434] drop1 <- pool1
I1017 21:01:35.983021  7544 net.cpp:408] drop1 -> drop1
I1017 21:01:35.983047  7544 net.cpp:150] Setting up drop1
I1017 21:01:35.983052  7544 net.cpp:157] Top shape: 100 192 14 14 (3763200)
I1017 21:01:35.983055  7544 net.cpp:165] Memory required for data: 91548000
I1017 21:01:35.983058  7544 layer_factory.hpp:77] Creating layer relu1
I1017 21:01:35.983063  7544 net.cpp:100] Creating Layer relu1
I1017 21:01:35.983067  7544 net.cpp:434] relu1 <- drop1
I1017 21:01:35.983072  7544 net.cpp:408] relu1 -> relu1
I1017 21:01:35.983192  7544 net.cpp:150] Setting up relu1
I1017 21:01:35.983199  7544 net.cpp:157] Top shape: 100 192 14 14 (3763200)
I1017 21:01:35.983202  7544 net.cpp:165] Memory required for data: 106600800
I1017 21:01:35.983206  7544 layer_factory.hpp:77] Creating layer conv2
I1017 21:01:35.983213  7544 net.cpp:100] Creating Layer conv2
I1017 21:01:35.983217  7544 net.cpp:434] conv2 <- relu1
I1017 21:01:35.983222  7544 net.cpp:408] conv2 -> conv2
I1017 21:01:35.983985  7544 net.cpp:150] Setting up conv2
I1017 21:01:35.983994  7544 net.cpp:157] Top shape: 100 192 14 14 (3763200)
I1017 21:01:35.983999  7544 net.cpp:165] Memory required for data: 121653600
I1017 21:01:35.984005  7544 layer_factory.hpp:77] Creating layer conv3
I1017 21:01:35.984014  7544 net.cpp:100] Creating Layer conv3
I1017 21:01:35.984019  7544 net.cpp:434] conv3 <- conv2
I1017 21:01:35.984024  7544 net.cpp:408] conv3 -> conv3
I1017 21:01:35.986557  7544 net.cpp:150] Setting up conv3
I1017 21:01:35.986567  7544 net.cpp:157] Top shape: 100 240 12 12 (3456000)
I1017 21:01:35.986570  7544 net.cpp:165] Memory required for data: 135477600
I1017 21:01:35.986578  7544 layer_factory.hpp:77] Creating layer pool2
I1017 21:01:35.986585  7544 net.cpp:100] Creating Layer pool2
I1017 21:01:35.986590  7544 net.cpp:434] pool2 <- conv3
I1017 21:01:35.986598  7544 net.cpp:408] pool2 -> pool2
I1017 21:01:35.986627  7544 net.cpp:150] Setting up pool2
I1017 21:01:35.986634  7544 net.cpp:157] Top shape: 100 240 6 6 (864000)
I1017 21:01:35.986637  7544 net.cpp:165] Memory required for data: 138933600
I1017 21:01:35.986640  7544 layer_factory.hpp:77] Creating layer drop2
I1017 21:01:35.986644  7544 net.cpp:100] Creating Layer drop2
I1017 21:01:35.986649  7544 net.cpp:434] drop2 <- pool2
I1017 21:01:35.986654  7544 net.cpp:408] drop2 -> drop2
I1017 21:01:35.986680  7544 net.cpp:150] Setting up drop2
I1017 21:01:35.986685  7544 net.cpp:157] Top shape: 100 240 6 6 (864000)
I1017 21:01:35.986688  7544 net.cpp:165] Memory required for data: 142389600
I1017 21:01:35.986693  7544 layer_factory.hpp:77] Creating layer relu2
I1017 21:01:35.986697  7544 net.cpp:100] Creating Layer relu2
I1017 21:01:35.986701  7544 net.cpp:434] relu2 <- drop2
I1017 21:01:35.986706  7544 net.cpp:408] relu2 -> relu2
I1017 21:01:35.986910  7544 net.cpp:150] Setting up relu2
I1017 21:01:35.986918  7544 net.cpp:157] Top shape: 100 240 6 6 (864000)
I1017 21:01:35.986922  7544 net.cpp:165] Memory required for data: 145845600
I1017 21:01:35.986925  7544 layer_factory.hpp:77] Creating layer conv4
I1017 21:01:35.986932  7544 net.cpp:100] Creating Layer conv4
I1017 21:01:35.986937  7544 net.cpp:434] conv4 <- relu2
I1017 21:01:35.986941  7544 net.cpp:408] conv4 -> conv4
I1017 21:01:35.987943  7544 net.cpp:150] Setting up conv4
I1017 21:01:35.987953  7544 net.cpp:157] Top shape: 100 240 6 6 (864000)
I1017 21:01:35.987957  7544 net.cpp:165] Memory required for data: 149301600
I1017 21:01:35.987962  7544 layer_factory.hpp:77] Creating layer conv5
I1017 21:01:35.987969  7544 net.cpp:100] Creating Layer conv5
I1017 21:01:35.987973  7544 net.cpp:434] conv5 <- conv4
I1017 21:01:35.987979  7544 net.cpp:408] conv5 -> conv5
I1017 21:01:35.989748  7544 net.cpp:150] Setting up conv5
I1017 21:01:35.989758  7544 net.cpp:157] Top shape: 100 260 5 5 (650000)
I1017 21:01:35.989763  7544 net.cpp:165] Memory required for data: 151901600
I1017 21:01:35.989771  7544 layer_factory.hpp:77] Creating layer pool3
I1017 21:01:35.989778  7544 net.cpp:100] Creating Layer pool3
I1017 21:01:35.989780  7544 net.cpp:434] pool3 <- conv5
I1017 21:01:35.989787  7544 net.cpp:408] pool3 -> pool3
I1017 21:01:35.989817  7544 net.cpp:150] Setting up pool3
I1017 21:01:35.989823  7544 net.cpp:157] Top shape: 100 260 3 3 (234000)
I1017 21:01:35.989826  7544 net.cpp:165] Memory required for data: 152837600
I1017 21:01:35.989830  7544 layer_factory.hpp:77] Creating layer drop3
I1017 21:01:35.989836  7544 net.cpp:100] Creating Layer drop3
I1017 21:01:35.989840  7544 net.cpp:434] drop3 <- pool3
I1017 21:01:35.989845  7544 net.cpp:408] drop3 -> drop3
I1017 21:01:35.989871  7544 net.cpp:150] Setting up drop3
I1017 21:01:35.989876  7544 net.cpp:157] Top shape: 100 260 3 3 (234000)
I1017 21:01:35.989881  7544 net.cpp:165] Memory required for data: 153773600
I1017 21:01:35.989883  7544 layer_factory.hpp:77] Creating layer relu3
I1017 21:01:35.989891  7544 net.cpp:100] Creating Layer relu3
I1017 21:01:35.989893  7544 net.cpp:434] relu3 <- drop3
I1017 21:01:35.989898  7544 net.cpp:408] relu3 -> relu3
I1017 21:01:35.990103  7544 net.cpp:150] Setting up relu3
I1017 21:01:35.990111  7544 net.cpp:157] Top shape: 100 260 3 3 (234000)
I1017 21:01:35.990115  7544 net.cpp:165] Memory required for data: 154709600
I1017 21:01:35.990118  7544 layer_factory.hpp:77] Creating layer conv6
I1017 21:01:35.990125  7544 net.cpp:100] Creating Layer conv6
I1017 21:01:35.990129  7544 net.cpp:434] conv6 <- relu3
I1017 21:01:35.990135  7544 net.cpp:408] conv6 -> conv6
I1017 21:01:35.991183  7544 net.cpp:150] Setting up conv6
I1017 21:01:35.991191  7544 net.cpp:157] Top shape: 100 260 3 3 (234000)
I1017 21:01:35.991194  7544 net.cpp:165] Memory required for data: 155645600
I1017 21:01:35.991201  7544 layer_factory.hpp:77] Creating layer conv7
I1017 21:01:35.991209  7544 net.cpp:100] Creating Layer conv7
I1017 21:01:35.991214  7544 net.cpp:434] conv7 <- conv6
I1017 21:01:35.991219  7544 net.cpp:408] conv7 -> conv7
I1017 21:01:35.993223  7544 net.cpp:150] Setting up conv7
I1017 21:01:35.993234  7544 net.cpp:157] Top shape: 100 280 2 2 (112000)
I1017 21:01:35.993237  7544 net.cpp:165] Memory required for data: 156093600
I1017 21:01:35.993243  7544 layer_factory.hpp:77] Creating layer pool4
I1017 21:01:35.993250  7544 net.cpp:100] Creating Layer pool4
I1017 21:01:35.993254  7544 net.cpp:434] pool4 <- conv7
I1017 21:01:35.993260  7544 net.cpp:408] pool4 -> pool4
I1017 21:01:35.993290  7544 net.cpp:150] Setting up pool4
I1017 21:01:35.993296  7544 net.cpp:157] Top shape: 100 280 1 1 (28000)
I1017 21:01:35.993299  7544 net.cpp:165] Memory required for data: 156205600
I1017 21:01:35.993302  7544 layer_factory.hpp:77] Creating layer drop4
I1017 21:01:35.993309  7544 net.cpp:100] Creating Layer drop4
I1017 21:01:35.993312  7544 net.cpp:434] drop4 <- pool4
I1017 21:01:35.993317  7544 net.cpp:408] drop4 -> drop4
I1017 21:01:35.993346  7544 net.cpp:150] Setting up drop4
I1017 21:01:35.993360  7544 net.cpp:157] Top shape: 100 280 1 1 (28000)
I1017 21:01:35.993365  7544 net.cpp:165] Memory required for data: 156317600
I1017 21:01:35.993367  7544 layer_factory.hpp:77] Creating layer relu4
I1017 21:01:35.993371  7544 net.cpp:100] Creating Layer relu4
I1017 21:01:35.993376  7544 net.cpp:434] relu4 <- drop4
I1017 21:01:35.993381  7544 net.cpp:408] relu4 -> relu4
I1017 21:01:35.993584  7544 net.cpp:150] Setting up relu4
I1017 21:01:35.993592  7544 net.cpp:157] Top shape: 100 280 1 1 (28000)
I1017 21:01:35.993595  7544 net.cpp:165] Memory required for data: 156429600
I1017 21:01:35.993598  7544 layer_factory.hpp:77] Creating layer conv8
I1017 21:01:35.993605  7544 net.cpp:100] Creating Layer conv8
I1017 21:01:35.993609  7544 net.cpp:434] conv8 <- relu4
I1017 21:01:35.993614  7544 net.cpp:408] conv8 -> conv8
I1017 21:01:35.994556  7544 net.cpp:150] Setting up conv8
I1017 21:01:35.994565  7544 net.cpp:157] Top shape: 100 280 1 1 (28000)
I1017 21:01:35.994568  7544 net.cpp:165] Memory required for data: 156541600
I1017 21:01:35.994575  7544 layer_factory.hpp:77] Creating layer pool5
I1017 21:01:35.994581  7544 net.cpp:100] Creating Layer pool5
I1017 21:01:35.994585  7544 net.cpp:434] pool5 <- conv8
I1017 21:01:35.994591  7544 net.cpp:408] pool5 -> pool5
I1017 21:01:35.994621  7544 net.cpp:150] Setting up pool5
I1017 21:01:35.994627  7544 net.cpp:157] Top shape: 100 280 1 1 (28000)
I1017 21:01:35.994631  7544 net.cpp:165] Memory required for data: 156653600
I1017 21:01:35.994632  7544 layer_factory.hpp:77] Creating layer drop5
I1017 21:01:35.994638  7544 net.cpp:100] Creating Layer drop5
I1017 21:01:35.994642  7544 net.cpp:434] drop5 <- pool5
I1017 21:01:35.994647  7544 net.cpp:408] drop5 -> drop5
I1017 21:01:35.994674  7544 net.cpp:150] Setting up drop5
I1017 21:01:35.994679  7544 net.cpp:157] Top shape: 100 280 1 1 (28000)
I1017 21:01:35.994683  7544 net.cpp:165] Memory required for data: 156765600
I1017 21:01:35.994686  7544 layer_factory.hpp:77] Creating layer relu5
I1017 21:01:35.994690  7544 net.cpp:100] Creating Layer relu5
I1017 21:01:35.994693  7544 net.cpp:434] relu5 <- drop5
I1017 21:01:35.994699  7544 net.cpp:408] relu5 -> relu5
I1017 21:01:35.994820  7544 net.cpp:150] Setting up relu5
I1017 21:01:35.994827  7544 net.cpp:157] Top shape: 100 280 1 1 (28000)
I1017 21:01:35.994829  7544 net.cpp:165] Memory required for data: 156877600
I1017 21:01:35.994833  7544 layer_factory.hpp:77] Creating layer conv10
I1017 21:01:35.994841  7544 net.cpp:100] Creating Layer conv10
I1017 21:01:35.994844  7544 net.cpp:434] conv10 <- relu5
I1017 21:01:35.994849  7544 net.cpp:408] conv10 -> conv10
I1017 21:01:35.995959  7544 net.cpp:150] Setting up conv10
I1017 21:01:35.995967  7544 net.cpp:157] Top shape: 100 300 1 1 (30000)
I1017 21:01:35.995970  7544 net.cpp:165] Memory required for data: 156997600
I1017 21:01:35.995981  7544 layer_factory.hpp:77] Creating layer pool6
I1017 21:01:35.995987  7544 net.cpp:100] Creating Layer pool6
I1017 21:01:35.995991  7544 net.cpp:434] pool6 <- conv10
I1017 21:01:35.995996  7544 net.cpp:408] pool6 -> pool6
I1017 21:01:35.996026  7544 net.cpp:150] Setting up pool6
I1017 21:01:35.996032  7544 net.cpp:157] Top shape: 100 300 1 1 (30000)
I1017 21:01:35.996037  7544 net.cpp:165] Memory required for data: 157117600
I1017 21:01:35.996039  7544 layer_factory.hpp:77] Creating layer drop6
I1017 21:01:35.996044  7544 net.cpp:100] Creating Layer drop6
I1017 21:01:35.996048  7544 net.cpp:434] drop6 <- pool6
I1017 21:01:35.996052  7544 net.cpp:408] drop6 -> drop6
I1017 21:01:35.996081  7544 net.cpp:150] Setting up drop6
I1017 21:01:35.996088  7544 net.cpp:157] Top shape: 100 300 1 1 (30000)
I1017 21:01:35.996091  7544 net.cpp:165] Memory required for data: 157237600
I1017 21:01:35.996094  7544 layer_factory.hpp:77] Creating layer relu6
I1017 21:01:35.996098  7544 net.cpp:100] Creating Layer relu6
I1017 21:01:35.996103  7544 net.cpp:434] relu6 <- drop6
I1017 21:01:35.996107  7544 net.cpp:408] relu6 -> relu6
I1017 21:01:35.996222  7544 net.cpp:150] Setting up relu6
I1017 21:01:35.996235  7544 net.cpp:157] Top shape: 100 300 1 1 (30000)
I1017 21:01:35.996238  7544 net.cpp:165] Memory required for data: 157357600
I1017 21:01:35.996243  7544 layer_factory.hpp:77] Creating layer conv11
I1017 21:01:35.996250  7544 net.cpp:100] Creating Layer conv11
I1017 21:01:35.996253  7544 net.cpp:434] conv11 <- relu6
I1017 21:01:35.996258  7544 net.cpp:408] conv11 -> conv11
I1017 21:01:35.996986  7544 net.cpp:150] Setting up conv11
I1017 21:01:35.996995  7544 net.cpp:157] Top shape: 100 100 1 1 (10000)
I1017 21:01:35.996999  7544 net.cpp:165] Memory required for data: 157397600
I1017 21:01:35.997004  7544 layer_factory.hpp:77] Creating layer pool7
I1017 21:01:35.997011  7544 net.cpp:100] Creating Layer pool7
I1017 21:01:35.997015  7544 net.cpp:434] pool7 <- conv11
I1017 21:01:35.997020  7544 net.cpp:408] pool7 -> pool7
I1017 21:01:35.997050  7544 net.cpp:150] Setting up pool7
I1017 21:01:35.997056  7544 net.cpp:157] Top shape: 100 100 1 1 (10000)
I1017 21:01:35.997059  7544 net.cpp:165] Memory required for data: 157437600
I1017 21:01:35.997062  7544 layer_factory.hpp:77] Creating layer drop7
I1017 21:01:35.997069  7544 net.cpp:100] Creating Layer drop7
I1017 21:01:35.997073  7544 net.cpp:434] drop7 <- pool7
I1017 21:01:35.997078  7544 net.cpp:408] drop7 -> drop7
I1017 21:01:35.997104  7544 net.cpp:150] Setting up drop7
I1017 21:01:35.997109  7544 net.cpp:157] Top shape: 100 100 1 1 (10000)
I1017 21:01:35.997113  7544 net.cpp:165] Memory required for data: 157477600
I1017 21:01:35.997117  7544 layer_factory.hpp:77] Creating layer relu7
I1017 21:01:35.997120  7544 net.cpp:100] Creating Layer relu7
I1017 21:01:35.997124  7544 net.cpp:434] relu7 <- drop7
I1017 21:01:35.997129  7544 net.cpp:408] relu7 -> relu7
I1017 21:01:35.997321  7544 net.cpp:150] Setting up relu7
I1017 21:01:35.997329  7544 net.cpp:157] Top shape: 100 100 1 1 (10000)
I1017 21:01:35.997331  7544 net.cpp:165] Memory required for data: 157517600
I1017 21:01:35.997335  7544 layer_factory.hpp:77] Creating layer pool
I1017 21:01:35.997340  7544 net.cpp:100] Creating Layer pool
I1017 21:01:35.997344  7544 net.cpp:434] pool <- relu7
I1017 21:01:35.997349  7544 net.cpp:408] pool -> pool
I1017 21:01:35.997462  7544 net.cpp:150] Setting up pool
I1017 21:01:35.997467  7544 net.cpp:157] Top shape: 100 100 1 1 (10000)
I1017 21:01:35.997470  7544 net.cpp:165] Memory required for data: 157557600
I1017 21:01:35.997473  7544 layer_factory.hpp:77] Creating layer flatten
I1017 21:01:35.997479  7544 net.cpp:100] Creating Layer flatten
I1017 21:01:35.997483  7544 net.cpp:434] flatten <- pool
I1017 21:01:35.997488  7544 net.cpp:408] flatten -> flatten
I1017 21:01:35.997508  7544 net.cpp:150] Setting up flatten
I1017 21:01:35.997514  7544 net.cpp:157] Top shape: 100 100 (10000)
I1017 21:01:35.997516  7544 net.cpp:165] Memory required for data: 157597600
I1017 21:01:35.997519  7544 layer_factory.hpp:77] Creating layer flatten_flatten_0_split
I1017 21:01:35.997525  7544 net.cpp:100] Creating Layer flatten_flatten_0_split
I1017 21:01:35.997529  7544 net.cpp:434] flatten_flatten_0_split <- flatten
I1017 21:01:35.997534  7544 net.cpp:408] flatten_flatten_0_split -> flatten_flatten_0_split_0
I1017 21:01:35.997540  7544 net.cpp:408] flatten_flatten_0_split -> flatten_flatten_0_split_1
I1017 21:01:35.997568  7544 net.cpp:150] Setting up flatten_flatten_0_split
I1017 21:01:35.997573  7544 net.cpp:157] Top shape: 100 100 (10000)
I1017 21:01:35.997577  7544 net.cpp:157] Top shape: 100 100 (10000)
I1017 21:01:35.997581  7544 net.cpp:165] Memory required for data: 157677600
I1017 21:01:35.997583  7544 layer_factory.hpp:77] Creating layer ip_c
I1017 21:01:35.997589  7544 net.cpp:100] Creating Layer ip_c
I1017 21:01:35.997592  7544 net.cpp:434] ip_c <- flatten_flatten_0_split_0
I1017 21:01:35.997597  7544 net.cpp:408] ip_c -> ip_c
I1017 21:01:35.997684  7544 net.cpp:150] Setting up ip_c
I1017 21:01:35.997691  7544 net.cpp:157] Top shape: 100 20 (2000)
I1017 21:01:35.997694  7544 net.cpp:165] Memory required for data: 157685600
I1017 21:01:35.997699  7544 layer_factory.hpp:77] Creating layer ip_c_ip_c_0_split
I1017 21:01:35.997711  7544 net.cpp:100] Creating Layer ip_c_ip_c_0_split
I1017 21:01:35.997716  7544 net.cpp:434] ip_c_ip_c_0_split <- ip_c
I1017 21:01:35.997721  7544 net.cpp:408] ip_c_ip_c_0_split -> ip_c_ip_c_0_split_0
I1017 21:01:35.997728  7544 net.cpp:408] ip_c_ip_c_0_split -> ip_c_ip_c_0_split_1
I1017 21:01:35.997756  7544 net.cpp:150] Setting up ip_c_ip_c_0_split
I1017 21:01:35.997761  7544 net.cpp:157] Top shape: 100 20 (2000)
I1017 21:01:35.997764  7544 net.cpp:157] Top shape: 100 20 (2000)
I1017 21:01:35.997768  7544 net.cpp:165] Memory required for data: 157701600
I1017 21:01:35.997771  7544 layer_factory.hpp:77] Creating layer accuracy_f
I1017 21:01:35.997776  7544 net.cpp:100] Creating Layer accuracy_f
I1017 21:01:35.997781  7544 net.cpp:434] accuracy_f <- ip_c_ip_c_0_split_0
I1017 21:01:35.997784  7544 net.cpp:434] accuracy_f <- label_coarse_data_1_split_0
I1017 21:01:35.997789  7544 net.cpp:408] accuracy_f -> accuracy_f
…
