…
  level: 0
  stage: ""
}
type: "RMSProp"
I1018 00:13:22.029978  9668 solver.cpp:81] Creating training net from train_net file: /home/adam/Honours/Honours-Project/cifar-100_pooling/max/leakyrelu/poolcnn_leakyrelu_train.prototxt
I1018 00:13:22.030308  9668 net.cpp:58] Initializing net from parameters: 
state {
  phase: TRAIN
  level: 0
  stage: ""
}
layer {
  name: "data"
  type: "HDF5Data"
  top: "data"
  top: "label_coarse"
  top: "label_fine"
  hdf5_data_param {
    source: "../../../../data/cifar-100/cifar_100_caffe_hdf5/train.txt"
    batch_size: 64
  }
}
layer {
  name: "conv1"
  type: "Convolution"
  bottom: "data"
  top: "conv1"
  convolution_param {
    num_output: 192
    kernel_size: 5
    weight_filler {
      type: "xavier"
    }
  }
}
layer {
  name: "pool1"
  type: "Pooling"
  bottom: "conv1"
  top: "pool1"
  pooling_param {
    pool: MAX
    kernel_size: 2
    stride: 2
  }
}
layer {
  name: "drop1"
  type: "Dropout"
  bottom: "pool1"
  top: "drop1"
  dropout_param {
    dropout_ratio: 0
  }
}
layer {
  name: "relu1"
  type: "ReLU"
  bottom: "drop1"
  top: "relu1"
  relu_param {
    negative_slope: 0.01
  }
}
layer {
  name: "conv2"
  type: "Convolution"
  bottom: "relu1"
  top: "conv2"
  convolution_param {
    num_output: 192
    kernel_size: 1
    weight_filler {
      type: "xavier"
    }
  }
}
layer {
  name: "conv3"
  type: "Convolution"
  bottom: "conv2"
  top: "conv3"
  convolution_param {
    num_output: 240
    kernel_size: 3
    weight_filler {
      type: "xavier"
    }
  }
}
layer {
  name: "pool2"
  type: "Pooling"
  bottom: "conv3"
  top: "pool2"
  pooling_param {
    pool: MAX
    kernel_size: 2
    stride: 2
  }
}
layer {
  name: "drop2"
  type: "Dropout"
  bottom: "pool2"
  top: "drop2"
  dropout_param {
    dropout_ratio: 0.1
  }
}
layer {
  name: "relu2"
  type: "ReLU"
  bottom: "drop2"
  top: "relu2"
  relu_param {
    negative_slope: 0.01
  }
}
layer {
  name: "conv4"
  type: "Convolution"
  bottom: "relu2"
  top: "conv4"
  convolution_param {
    num_output: 240
    kernel_size: 1
    weight_filler {
      type: "xavier"
    }
  }
}
layer {
  name: "conv5"
  type: "Convolution"
  bottom: "conv4"
  top: "conv5"
  convolution_param {
    num_output: 260
    kernel_size: 2
    weight_filler {
      type: "xavier"
    }
  }
}
layer {
  name: "pool3"
  type: "Pooling"
  bottom: "conv5"
  top: "pool3"
  pooling_param {
    pool: MAX
    kernel_size: 2
    stride: 2
  }
}
layer {
  name: "drop3"
  type: "Dropout"
  bottom: "pool3"
  top: "drop3"
  dropout_param {
    dropout_ratio: 0.2
  }
}
layer {
  name: "relu3"
  type: "ReLU"
  bottom: "drop3"
  top: "relu3"
  relu_param {
    negative_slope: 0.01
  }
}
layer {
  name: "conv6"
  type: "Convolution"
  bottom: "relu3"
  top: "conv6"
  convolution_param {
    num_output: 260
    kernel_size: 1
    weight_filler {
      type: "xavier"
    }
  }
}
layer {
  name: "conv7"
  type: "Convolution"
  bottom: "conv6"
  top: "conv7"
  convolution_param {
    num_output: 280
    kernel_size: 2
    weight_filler {
      type: "xavier"
    }
  }
}
layer {
  name: "pool4"
  type: "Pooling"
  bottom: "conv7"
  top: "pool4"
  pooling_param {
    pool: MAX
    kernel_size: 2
    stride: 2
  }
}
layer {
  name: "drop4"
  type: "Dropout"
  bottom: "pool4"
  top: "drop4"
  dropout_param {
    dropout_ratio: 0.3
  }
}
layer {
  name: "relu4"
  type: "ReLU"
  bottom: "drop4"
  top: "relu4"
  relu_param {
    negative_slope: 0.01
  }
}
layer {
  name: "conv8"
  type: "Convolution"
  bottom: "relu4"
  top: "conv8"
  convolution_param {
    num_output: 280
    kernel_size: 1
    weight_filler {
      type: "xavier"
    }
  }
}
layer {
  name: "pool5"
  type: "Pooling"
  bottom: "conv8"
  top: "pool5"
  pooling_param {
    pool: MAX
    kernel_size: 2
    stride: 2
  }
}
layer {
  name: "drop5"
  type: "Dropout"
  bottom: "pool5"
  top: "drop5"
  dropout_param {
    dropout_ratio: 0.4
  }
}
layer {
  name: "relu5"
  type: "ReLU"
  bottom: "drop5"
  top: "relu5"
  relu_param {
    negative_slope: 0.01
  }
}
layer {
  name: "conv10"
  type: "Convolution"
  bottom: "relu5"
  top: "conv10"
  convolution_param {
    num_output: 300
    kernel_size: 1
    weight_filler {
      type: "xavier"
    }
  }
}
layer {
  name: "pool6"
  type: "Pooling"
  bottom: "conv10"
  top: "pool6"
  pooling_param {
    pool: MAX
    kernel_size: 2
    stride: 2
  }
}
layer {
  name: "drop6"
  type: "Dropout"
  bottom: "pool6"
  top: "drop6"
  dropout_param {
    dropout_ratio: 0.5
  }
}
layer {
  name: "relu6"
  type: "ReLU"
  bottom: "drop6"
  top: "relu6"
  relu_param {
    negative_slope: 0.01
  }
}
layer {
  name: "conv11"
  type: "Convolution"
  bottom: "relu6"
  top: "conv11"
  convolution_param {
    num_output: 100
    kernel_size: 1
    weight_filler {
      type: "xavier"
    }
  }
}
layer {
  name: "pool7"
  type: "Pooling"
  bottom: "conv11"
  top: "pool7"
  pooling_param {
    pool: MAX
    kernel_size: 2
    stride: 2
  }
}
layer {
  name: "drop7"
  type: "Dropout"
  bottom: "pool7"
  top: "drop7"
  dropout_param {
    dropout_ratio: 0
  }
}
layer {
  name: "relu7"
  type: "ReLU"
  bottom: "drop7"
  top: "relu7"
  relu_param {
    negative_slope: 0.01
  }
}
layer {
  name: "pool"
  type: "Pooling"
  bottom: "relu7"
  top: "pool"
  pooling_param {
    pool: AVE
    global_pooling: true
  }
}
layer {
  name: "flatten"
  type: "Flatten"
  bottom: "pool"
  top: "flatten"
}
layer {
  name: "ip_c"
  type: "InnerProduct"
  bottom: "flatten"
  top: "ip_c"
  inner_product_param {
    num_output: 20
    weight_filler {
      type: "xavier"
    }
  }
}
layer {
  name: "accuracy_f"
  type: "Accuracy"
  bottom: "ip_c"
  bottom: "label_coarse"
  top: "accuracy_f"
}
layer {
  name: "loss_c"
  type: "SoftmaxWithLoss"
  bottom: "ip_c"
  bottom: "label_coarse"
  top: "loss_c"
}
layer {
  name: "ip_f"
  type: "InnerProduct"
  bottom: "flatten"
  top: "ip_f"
  inner_product_param {
    num_output: 100
    weight_filler {
      type: "xavier"
    }
  }
}
layer {
  name: "accuracy"
  type: "Accuracy"
  bottom: "ip_f"
  bottom: "label_fine"
  top: "accuracy"
}
layer {
  name: "loss_f"
  type: "SoftmaxWithLoss"
  bottom: "ip_f"
  bottom: "label_fine"
  top: "loss_f"
}
I1018 00:13:22.030447  9668 layer_factory.hpp:77] Creating layer data
I1018 00:13:22.030458  9668 net.cpp:100] Creating Layer data
I1018 00:13:22.030462  9668 net.cpp:408] data -> data
I1018 00:13:22.030477  9668 net.cpp:408] data -> label_coarse
I1018 00:13:22.030483  9668 net.cpp:408] data -> label_fine
I1018 00:13:22.030491  9668 hdf5_data_layer.cpp:79] Loading list of HDF5 filenames from: ../../../../data/cifar-100/cifar_100_caffe_hdf5/train.txt
I1018 00:13:22.030514  9668 hdf5_data_layer.cpp:93] Number of HDF5 files: 1
I1018 00:13:22.031219  9668 hdf5.cpp:35] Datatype class: H5T_INTEGER
I1018 00:13:23.671241  9668 net.cpp:150] Setting up data
I1018 00:13:23.671265  9668 net.cpp:157] Top shape: 64 3 32 32 (196608)
I1018 00:13:23.671268  9668 net.cpp:157] Top shape: 64 (64)
I1018 00:13:23.671270  9668 net.cpp:157] Top shape: 64 (64)
I1018 00:13:23.671272  9668 net.cpp:165] Memory required for data: 786944
I1018 00:13:23.671278  9668 layer_factory.hpp:77] Creating layer label_coarse_data_1_split
I1018 00:13:23.671288  9668 net.cpp:100] Creating Layer label_coarse_data_1_split
I1018 00:13:23.671293  9668 net.cpp:434] label_coarse_data_1_split <- label_coarse
I1018 00:13:23.671306  9668 net.cpp:408] label_coarse_data_1_split -> label_coarse_data_1_split_0
I1018 00:13:23.671315  9668 net.cpp:408] label_coarse_data_1_split -> label_coarse_data_1_split_1
I1018 00:13:23.671351  9668 net.cpp:150] Setting up label_coarse_data_1_split
I1018 00:13:23.671355  9668 net.cpp:157] Top shape: 64 (64)
I1018 00:13:23.671357  9668 net.cpp:157] Top shape: 64 (64)
I1018 00:13:23.671360  9668 net.cpp:165] Memory required for data: 787456
I1018 00:13:23.671361  9668 layer_factory.hpp:77] Creating layer label_fine_data_2_split
I1018 00:13:23.671365  9668 net.cpp:100] Creating Layer label_fine_data_2_split
I1018 00:13:23.671366  9668 net.cpp:434] label_fine_data_2_split <- label_fine
I1018 00:13:23.671371  9668 net.cpp:408] label_fine_data_2_split -> label_fine_data_2_split_0
I1018 00:13:23.671376  9668 net.cpp:408] label_fine_data_2_split -> label_fine_data_2_split_1
I1018 00:13:23.671396  9668 net.cpp:150] Setting up label_fine_data_2_split
I1018 00:13:23.671401  9668 net.cpp:157] Top shape: 64 (64)
I1018 00:13:23.671402  9668 net.cpp:157] Top shape: 64 (64)
I1018 00:13:23.671404  9668 net.cpp:165] Memory required for data: 787968
I1018 00:13:23.671406  9668 layer_factory.hpp:77] Creating layer conv1
I1018 00:13:23.671416  9668 net.cpp:100] Creating Layer conv1
I1018 00:13:23.671418  9668 net.cpp:434] conv1 <- data
I1018 00:13:23.671422  9668 net.cpp:408] conv1 -> conv1
I1018 00:13:23.793133  9668 net.cpp:150] Setting up conv1
I1018 00:13:23.793156  9668 net.cpp:157] Top shape: 64 192 28 28 (9633792)
I1018 00:13:23.793159  9668 net.cpp:165] Memory required for data: 39323136
I1018 00:13:23.793176  9668 layer_factory.hpp:77] Creating layer pool1
I1018 00:13:23.793189  9668 net.cpp:100] Creating Layer pool1
I1018 00:13:23.793192  9668 net.cpp:434] pool1 <- conv1
I1018 00:13:23.793200  9668 net.cpp:408] pool1 -> pool1
I1018 00:13:23.793243  9668 net.cpp:150] Setting up pool1
I1018 00:13:23.793248  9668 net.cpp:157] Top shape: 64 192 14 14 (2408448)
I1018 00:13:23.793251  9668 net.cpp:165] Memory required for data: 48956928
I1018 00:13:23.793252  9668 layer_factory.hpp:77] Creating layer drop1
I1018 00:13:23.793257  9668 net.cpp:100] Creating Layer drop1
I1018 00:13:23.793259  9668 net.cpp:434] drop1 <- pool1
I1018 00:13:23.793262  9668 net.cpp:408] drop1 -> drop1
I1018 00:13:23.793287  9668 net.cpp:150] Setting up drop1
I1018 00:13:23.793290  9668 net.cpp:157] Top shape: 64 192 14 14 (2408448)
I1018 00:13:23.793292  9668 net.cpp:165] Memory required for data: 58590720
I1018 00:13:23.793293  9668 layer_factory.hpp:77] Creating layer relu1
I1018 00:13:23.793298  9668 net.cpp:100] Creating Layer relu1
I1018 00:13:23.793299  9668 net.cpp:434] relu1 <- drop1
I1018 00:13:23.793303  9668 net.cpp:408] relu1 -> relu1
I1018 00:13:23.793421  9668 net.cpp:150] Setting up relu1
I1018 00:13:23.793426  9668 net.cpp:157] Top shape: 64 192 14 14 (2408448)
I1018 00:13:23.793428  9668 net.cpp:165] Memory required for data: 68224512
I1018 00:13:23.793431  9668 layer_factory.hpp:77] Creating layer conv2
I1018 00:13:23.793436  9668 net.cpp:100] Creating Layer conv2
I1018 00:13:23.793438  9668 net.cpp:434] conv2 <- relu1
I1018 00:13:23.793442  9668 net.cpp:408] conv2 -> conv2
I1018 00:13:23.794253  9668 net.cpp:150] Setting up conv2
I1018 00:13:23.794262  9668 net.cpp:157] Top shape: 64 192 14 14 (2408448)
I1018 00:13:23.794265  9668 net.cpp:165] Memory required for data: 77858304
I1018 00:13:23.794270  9668 layer_factory.hpp:77] Creating layer conv3
I1018 00:13:23.794276  9668 net.cpp:100] Creating Layer conv3
I1018 00:13:23.794278  9668 net.cpp:434] conv3 <- conv2
I1018 00:13:23.794282  9668 net.cpp:408] conv3 -> conv3
I1018 00:13:23.796690  9668 net.cpp:150] Setting up conv3
I1018 00:13:23.796700  9668 net.cpp:157] Top shape: 64 240 12 12 (2211840)
I1018 00:13:23.796701  9668 net.cpp:165] Memory required for data: 86705664
I1018 00:13:23.796707  9668 layer_factory.hpp:77] Creating layer pool2
I1018 00:13:23.796711  9668 net.cpp:100] Creating Layer pool2
I1018 00:13:23.796713  9668 net.cpp:434] pool2 <- conv3
I1018 00:13:23.796715  9668 net.cpp:408] pool2 -> pool2
I1018 00:13:23.796741  9668 net.cpp:150] Setting up pool2
I1018 00:13:23.796746  9668 net.cpp:157] Top shape: 64 240 6 6 (552960)
I1018 00:13:23.796747  9668 net.cpp:165] Memory required for data: 88917504
I1018 00:13:23.796761  9668 layer_factory.hpp:77] Creating layer drop2
I1018 00:13:23.796764  9668 net.cpp:100] Creating Layer drop2
I1018 00:13:23.796766  9668 net.cpp:434] drop2 <- pool2
I1018 00:13:23.796769  9668 net.cpp:408] drop2 -> drop2
I1018 00:13:23.796789  9668 net.cpp:150] Setting up drop2
I1018 00:13:23.796792  9668 net.cpp:157] Top shape: 64 240 6 6 (552960)
I1018 00:13:23.796794  9668 net.cpp:165] Memory required for data: 91129344
I1018 00:13:23.796797  9668 layer_factory.hpp:77] Creating layer relu2
I1018 00:13:23.796800  9668 net.cpp:100] Creating Layer relu2
I1018 00:13:23.796803  9668 net.cpp:434] relu2 <- drop2
I1018 00:13:23.796807  9668 net.cpp:408] relu2 -> relu2
I1018 00:13:23.796918  9668 net.cpp:150] Setting up relu2
I1018 00:13:23.796923  9668 net.cpp:157] Top shape: 64 240 6 6 (552960)
I1018 00:13:23.796926  9668 net.cpp:165] Memory required for data: 93341184
I1018 00:13:23.796927  9668 layer_factory.hpp:77] Creating layer conv4
I1018 00:13:23.796931  9668 net.cpp:100] Creating Layer conv4
I1018 00:13:23.796933  9668 net.cpp:434] conv4 <- relu2
I1018 00:13:23.796937  9668 net.cpp:408] conv4 -> conv4
I1018 00:13:23.797740  9668 net.cpp:150] Setting up conv4
I1018 00:13:23.797747  9668 net.cpp:157] Top shape: 64 240 6 6 (552960)
I1018 00:13:23.797750  9668 net.cpp:165] Memory required for data: 95553024
I1018 00:13:23.797755  9668 layer_factory.hpp:77] Creating layer conv5
I1018 00:13:23.797760  9668 net.cpp:100] Creating Layer conv5
I1018 00:13:23.797761  9668 net.cpp:434] conv5 <- conv4
I1018 00:13:23.797765  9668 net.cpp:408] conv5 -> conv5
I1018 00:13:23.799476  9668 net.cpp:150] Setting up conv5
I1018 00:13:23.799484  9668 net.cpp:157] Top shape: 64 260 5 5 (416000)
I1018 00:13:23.799486  9668 net.cpp:165] Memory required for data: 97217024
I1018 00:13:23.799492  9668 layer_factory.hpp:77] Creating layer pool3
I1018 00:13:23.799496  9668 net.cpp:100] Creating Layer pool3
I1018 00:13:23.799499  9668 net.cpp:434] pool3 <- conv5
I1018 00:13:23.799501  9668 net.cpp:408] pool3 -> pool3
I1018 00:13:23.799526  9668 net.cpp:150] Setting up pool3
I1018 00:13:23.799531  9668 net.cpp:157] Top shape: 64 260 3 3 (149760)
I1018 00:13:23.799533  9668 net.cpp:165] Memory required for data: 97816064
I1018 00:13:23.799535  9668 layer_factory.hpp:77] Creating layer drop3
I1018 00:13:23.799538  9668 net.cpp:100] Creating Layer drop3
I1018 00:13:23.799540  9668 net.cpp:434] drop3 <- pool3
I1018 00:13:23.799543  9668 net.cpp:408] drop3 -> drop3
I1018 00:13:23.799562  9668 net.cpp:150] Setting up drop3
I1018 00:13:23.799566  9668 net.cpp:157] Top shape: 64 260 3 3 (149760)
I1018 00:13:23.799567  9668 net.cpp:165] Memory required for data: 98415104
I1018 00:13:23.799569  9668 layer_factory.hpp:77] Creating layer relu3
I1018 00:13:23.799573  9668 net.cpp:100] Creating Layer relu3
I1018 00:13:23.799576  9668 net.cpp:434] relu3 <- drop3
I1018 00:13:23.799578  9668 net.cpp:408] relu3 -> relu3
I1018 00:13:23.799686  9668 net.cpp:150] Setting up relu3
I1018 00:13:23.799692  9668 net.cpp:157] Top shape: 64 260 3 3 (149760)
I1018 00:13:23.799693  9668 net.cpp:165] Memory required for data: 99014144
I1018 00:13:23.799695  9668 layer_factory.hpp:77] Creating layer conv6
I1018 00:13:23.799700  9668 net.cpp:100] Creating Layer conv6
I1018 00:13:23.799701  9668 net.cpp:434] conv6 <- relu3
I1018 00:13:23.799705  9668 net.cpp:408] conv6 -> conv6
I1018 00:13:23.800772  9668 net.cpp:150] Setting up conv6
I1018 00:13:23.800781  9668 net.cpp:157] Top shape: 64 260 3 3 (149760)
I1018 00:13:23.800782  9668 net.cpp:165] Memory required for data: 99613184
I1018 00:13:23.800786  9668 layer_factory.hpp:77] Creating layer conv7
I1018 00:13:23.800791  9668 net.cpp:100] Creating Layer conv7
I1018 00:13:23.800793  9668 net.cpp:434] conv7 <- conv6
I1018 00:13:23.800797  9668 net.cpp:408] conv7 -> conv7
I1018 00:13:23.802701  9668 net.cpp:150] Setting up conv7
I1018 00:13:23.802709  9668 net.cpp:157] Top shape: 64 280 2 2 (71680)
I1018 00:13:23.802712  9668 net.cpp:165] Memory required for data: 99899904
I1018 00:13:23.802726  9668 layer_factory.hpp:77] Creating layer pool4
I1018 00:13:23.802729  9668 net.cpp:100] Creating Layer pool4
I1018 00:13:23.802731  9668 net.cpp:434] pool4 <- conv7
I1018 00:13:23.802736  9668 net.cpp:408] pool4 -> pool4
I1018 00:13:23.802762  9668 net.cpp:150] Setting up pool4
I1018 00:13:23.802767  9668 net.cpp:157] Top shape: 64 280 1 1 (17920)
I1018 00:13:23.802767  9668 net.cpp:165] Memory required for data: 99971584
I1018 00:13:23.802769  9668 layer_factory.hpp:77] Creating layer drop4
I1018 00:13:23.802773  9668 net.cpp:100] Creating Layer drop4
I1018 00:13:23.802775  9668 net.cpp:434] drop4 <- pool4
I1018 00:13:23.802778  9668 net.cpp:408] drop4 -> drop4
I1018 00:13:23.802798  9668 net.cpp:150] Setting up drop4
I1018 00:13:23.802800  9668 net.cpp:157] Top shape: 64 280 1 1 (17920)
I1018 00:13:23.802803  9668 net.cpp:165] Memory required for data: 100043264
I1018 00:13:23.802804  9668 layer_factory.hpp:77] Creating layer relu4
I1018 00:13:23.802808  9668 net.cpp:100] Creating Layer relu4
I1018 00:13:23.802810  9668 net.cpp:434] relu4 <- drop4
I1018 00:13:23.802814  9668 net.cpp:408] relu4 -> relu4
I1018 00:13:23.802923  9668 net.cpp:150] Setting up relu4
I1018 00:13:23.802929  9668 net.cpp:157] Top shape: 64 280 1 1 (17920)
I1018 00:13:23.802932  9668 net.cpp:165] Memory required for data: 100114944
I1018 00:13:23.802933  9668 layer_factory.hpp:77] Creating layer conv8
I1018 00:13:23.802937  9668 net.cpp:100] Creating Layer conv8
I1018 00:13:23.802940  9668 net.cpp:434] conv8 <- relu4
I1018 00:13:23.802943  9668 net.cpp:408] conv8 -> conv8
I1018 00:13:23.803808  9668 net.cpp:150] Setting up conv8
I1018 00:13:23.803815  9668 net.cpp:157] Top shape: 64 280 1 1 (17920)
I1018 00:13:23.803817  9668 net.cpp:165] Memory required for data: 100186624
I1018 00:13:23.803822  9668 layer_factory.hpp:77] Creating layer pool5
I1018 00:13:23.803825  9668 net.cpp:100] Creating Layer pool5
I1018 00:13:23.803828  9668 net.cpp:434] pool5 <- conv8
I1018 00:13:23.803830  9668 net.cpp:408] pool5 -> pool5
I1018 00:13:23.803853  9668 net.cpp:150] Setting up pool5
I1018 00:13:23.803858  9668 net.cpp:157] Top shape: 64 280 1 1 (17920)
I1018 00:13:23.803859  9668 net.cpp:165] Memory required for data: 100258304
I1018 00:13:23.803861  9668 layer_factory.hpp:77] Creating layer drop5
I1018 00:13:23.803864  9668 net.cpp:100] Creating Layer drop5
I1018 00:13:23.803866  9668 net.cpp:434] drop5 <- pool5
I1018 00:13:23.803869  9668 net.cpp:408] drop5 -> drop5
I1018 00:13:23.803889  9668 net.cpp:150] Setting up drop5
I1018 00:13:23.803892  9668 net.cpp:157] Top shape: 64 280 1 1 (17920)
I1018 00:13:23.803894  9668 net.cpp:165] Memory required for data: 100329984
I1018 00:13:23.803895  9668 layer_factory.hpp:77] Creating layer relu5
I1018 00:13:23.803899  9668 net.cpp:100] Creating Layer relu5
I1018 00:13:23.803900  9668 net.cpp:434] relu5 <- drop5
I1018 00:13:23.803902  9668 net.cpp:408] relu5 -> relu5
I1018 00:13:23.804091  9668 net.cpp:150] Setting up relu5
I1018 00:13:23.804100  9668 net.cpp:157] Top shape: 64 280 1 1 (17920)
I1018 00:13:23.804100  9668 net.cpp:165] Memory required for data: 100401664
I1018 00:13:23.804102  9668 layer_factory.hpp:77] Creating layer conv10
I1018 00:13:23.804107  9668 net.cpp:100] Creating Layer conv10
I1018 00:13:23.804110  9668 net.cpp:434] conv10 <- relu5
I1018 00:13:23.804112  9668 net.cpp:408] conv10 -> conv10
I1018 00:13:23.805135  9668 net.cpp:150] Setting up conv10
I1018 00:13:23.805145  9668 net.cpp:157] Top shape: 64 300 1 1 (19200)
I1018 00:13:23.805146  9668 net.cpp:165] Memory required for data: 100478464
I1018 00:13:23.805153  9668 layer_factory.hpp:77] Creating layer pool6
I1018 00:13:23.805157  9668 net.cpp:100] Creating Layer pool6
I1018 00:13:23.805160  9668 net.cpp:434] pool6 <- conv10
I1018 00:13:23.805163  9668 net.cpp:408] pool6 -> pool6
I1018 00:13:23.805189  9668 net.cpp:150] Setting up pool6
I1018 00:13:23.805194  9668 net.cpp:157] Top shape: 64 300 1 1 (19200)
I1018 00:13:23.805197  9668 net.cpp:165] Memory required for data: 100555264
I1018 00:13:23.805198  9668 layer_factory.hpp:77] Creating layer drop6
I1018 00:13:23.805209  9668 net.cpp:100] Creating Layer drop6
I1018 00:13:23.805212  9668 net.cpp:434] drop6 <- pool6
I1018 00:13:23.805214  9668 net.cpp:408] drop6 -> drop6
I1018 00:13:23.805239  9668 net.cpp:150] Setting up drop6
I1018 00:13:23.805245  9668 net.cpp:157] Top shape: 64 300 1 1 (19200)
I1018 00:13:23.805248  9668 net.cpp:165] Memory required for data: 100632064
I1018 00:13:23.805249  9668 layer_factory.hpp:77] Creating layer relu6
I1018 00:13:23.805254  9668 net.cpp:100] Creating Layer relu6
I1018 00:13:23.805256  9668 net.cpp:434] relu6 <- drop6
I1018 00:13:23.805259  9668 net.cpp:408] relu6 -> relu6
I1018 00:13:23.805371  9668 net.cpp:150] Setting up relu6
I1018 00:13:23.805375  9668 net.cpp:157] Top shape: 64 300 1 1 (19200)
I1018 00:13:23.805377  9668 net.cpp:165] Memory required for data: 100708864
I1018 00:13:23.805379  9668 layer_factory.hpp:77] Creating layer conv11
I1018 00:13:23.805383  9668 net.cpp:100] Creating Layer conv11
I1018 00:13:23.805387  9668 net.cpp:434] conv11 <- relu6
I1018 00:13:23.805389  9668 net.cpp:408] conv11 -> conv11
I1018 00:13:23.806094  9668 net.cpp:150] Setting up conv11
I1018 00:13:23.806102  9668 net.cpp:157] Top shape: 64 100 1 1 (6400)
I1018 00:13:23.806104  9668 net.cpp:165] Memory required for data: 100734464
I1018 00:13:23.806108  9668 layer_factory.hpp:77] Creating layer pool7
I1018 00:13:23.806113  9668 net.cpp:100] Creating Layer pool7
I1018 00:13:23.806113  9668 net.cpp:434] pool7 <- conv11
I1018 00:13:23.806118  9668 net.cpp:408] pool7 -> pool7
I1018 00:13:23.806141  9668 net.cpp:150] Setting up pool7
I1018 00:13:23.806145  9668 net.cpp:157] Top shape: 64 100 1 1 (6400)
I1018 00:13:23.806148  9668 net.cpp:165] Memory required for data: 100760064
I1018 00:13:23.806149  9668 layer_factory.hpp:77] Creating layer drop7
I1018 00:13:23.806154  9668 net.cpp:100] Creating Layer drop7
I1018 00:13:23.806156  9668 net.cpp:434] drop7 <- pool7
I1018 00:13:23.806159  9668 net.cpp:408] drop7 -> drop7
I1018 00:13:23.806180  9668 net.cpp:150] Setting up drop7
I1018 00:13:23.806183  9668 net.cpp:157] Top shape: 64 100 1 1 (6400)
I1018 00:13:23.806185  9668 net.cpp:165] Memory required for data: 100785664
I1018 00:13:23.806186  9668 layer_factory.hpp:77] Creating layer relu7
I1018 00:13:23.806190  9668 net.cpp:100] Creating Layer relu7
I1018 00:13:23.806193  9668 net.cpp:434] relu7 <- drop7
I1018 00:13:23.806198  9668 net.cpp:408] relu7 -> relu7
I1018 00:13:23.806308  9668 net.cpp:150] Setting up relu7
I1018 00:13:23.806314  9668 net.cpp:157] Top shape: 64 100 1 1 (6400)
I1018 00:13:23.806316  9668 net.cpp:165] Memory required for data: 100811264
I1018 00:13:23.806318  9668 layer_factory.hpp:77] Creating layer pool
I1018 00:13:23.806321  9668 net.cpp:100] Creating Layer pool
I1018 00:13:23.806324  9668 net.cpp:434] pool <- relu7
I1018 00:13:23.806326  9668 net.cpp:408] pool -> pool
I1018 00:13:23.806516  9668 net.cpp:150] Setting up pool
I1018 00:13:23.806524  9668 net.cpp:157] Top shape: 64 100 1 1 (6400)
I1018 00:13:23.806527  9668 net.cpp:165] Memory required for data: 100836864
I1018 00:13:23.806532  9668 layer_factory.hpp:77] Creating layer flatten
I1018 00:13:23.806537  9668 net.cpp:100] Creating Layer flatten
I1018 00:13:23.806541  9668 net.cpp:434] flatten <- pool
I1018 00:13:23.806546  9668 net.cpp:408] flatten -> flatten
I1018 00:13:23.806565  9668 net.cpp:150] Setting up flatten
I1018 00:13:23.806569  9668 net.cpp:157] Top shape: 64 100 (6400)
I1018 00:13:23.806572  9668 net.cpp:165] Memory required for data: 100862464
I1018 00:13:23.806577  9668 layer_factory.hpp:77] Creating layer flatten_flatten_0_split
I1018 00:13:23.806581  9668 net.cpp:100] Creating Layer flatten_flatten_0_split
I1018 00:13:23.806586  9668 net.cpp:434] flatten_flatten_0_split <- flatten
I1018 00:13:23.806588  9668 net.cpp:408] flatten_flatten_0_split -> flatten_flatten_0_split_0
I1018 00:13:23.806596  9668 net.cpp:408] flatten_flatten_0_split -> flatten_flatten_0_split_1
I1018 00:13:23.806619  9668 net.cpp:150] Setting up flatten_flatten_0_split
I1018 00:13:23.806629  9668 net.cpp:157] Top shape: 64 100 (6400)
I1018 00:13:23.806632  9668 net.cpp:157] Top shape: 64 100 (6400)
I1018 00:13:23.806634  9668 net.cpp:165] Memory required for data: 100913664
I1018 00:13:23.806637  9668 layer_factory.hpp:77] Creating layer ip_c
I1018 00:13:23.806640  9668 net.cpp:100] Creating Layer ip_c
I1018 00:13:23.806644  9668 net.cpp:434] ip_c <- flatten_flatten_0_split_0
I1018 00:13:23.806648  9668 net.cpp:408] ip_c -> ip_c
I1018 00:13:23.806985  9668 net.cpp:150] Setting up ip_c
I1018 00:13:23.806993  9668 net.cpp:157] Top shape: 64 20 (1280)
I1018 00:13:23.806996  9668 net.cpp:165] Memory required for data: 100918784
I1018 00:13:23.807003  9668 layer_factory.hpp:77] Creating layer ip_c_ip_c_0_split
I1018 00:13:23.807008  9668 net.cpp:100] Creating Layer ip_c_ip_c_0_split
I1018 00:13:23.807011  9668 net.cpp:434] ip_c_ip_c_0_split <- ip_c
I1018 00:13:23.807015  9668 net.cpp:408] ip_c_ip_c_0_split -> ip_c_ip_c_0_split_0
I1018 00:13:23.807023  9668 net.cpp:408] ip_c_ip_c_0_split -> ip_c_ip_c_0_split_1
I1018 00:13:23.807045  9668 net.cpp:150] Setting up ip_c_ip_c_0_split
I1018 00:13:23.807049  9668 net.cpp:157] Top shape: 64 20 (1280)
I1018 00:13:23.807052  9668 net.cpp:157] Top shape: 64 20 (1280)
I1018 00:13:23.807054  9668 net.cpp:165] Memory required for data: 100929024
I1018 00:13:23.807056  9668 layer_factory.hpp:77] Creating layer accuracy_f
I1018 00:13:23.807060  9668 net.cpp:100] Creating Layer accuracy_f
I1018 00:13:23.807062  9668 net.cpp:434] accuracy_f <- ip_c_ip_c_0_split_0
I1018 00:13:23.807065  9668 net.cpp:434] accuracy_f <- label_coarse_data_1_split_0
I1018 00:13:23.807070  9668 net.cpp:408] accuracy_f -> accuracy_f
…
I1018 00:13:23.807978  9668 net.cpp:283] Network initialization done.
I1018 00:13:23.808239  9668 solver.cpp:181] Creating test net (#0) specified by test_net file: /home/adam/Honours/Honours-Project/cifar-100_pooling/max/leakyrelu/poolcnn_leakyrelu_test.prototxt
I1018 00:13:23.808370  9668 net.cpp:58] Initializing net from parameters: 
state {
  phase: TEST
}
layer {
  name: "data"
  type: "HDF5Data"
  top: "data"
  top: "label_coarse"
  top: "label_fine"
  hdf5_data_param {
    source: "../../../../data/cifar-100/cifar_100_caffe_hdf5/test.txt"
    batch_size: 100
  }
}
layer {
  name: "conv1"
  type: "Convolution"
  bottom: "data"
  top: "conv1"
  convolution_param {
    num_output: 192
    kernel_size: 5
    weight_filler {
      type: "xavier"
    }
  }
}
layer {
  name: "pool1"
  type: "Pooling"
  bottom: "conv1"
  top: "pool1"
  pooling_param {
    pool: MAX
    kernel_size: 2
    stride: 2
  }
}
layer {
  name: "drop1"
  type: "Dropout"
  bottom: "pool1"
  top: "drop1"
  dropout_param {
    dropout_ratio: 0
  }
}
layer {
  name: "relu1"
  type: "ReLU"
  bottom: "drop1"
  top: "relu1"
  relu_param {
    negative_slope: 0.01
  }
}
layer {
  name: "conv2"
  type: "Convolution"
  bottom: "relu1"
  top: "conv2"
  convolution_param {
    num_output: 192
    kernel_size: 1
    weight_filler {
      type: "xavier"
    }
  }
}
layer {
  name: "conv3"
  type: "Convolution"
  bottom: "conv2"
  top: "conv3"
  convolution_param {
    num_output: 240
    kernel_size: 3
    weight_filler {
      type: "xavier"
    }
  }
}
layer {
  name: "pool2"
  type: "Pooling"
  bottom: "conv3"
  top: "pool2"
  pooling_param {
    pool: MAX
    kernel_size: 2
    stride: 2
  }
}
layer {
  name: "drop2"
  type: "Dropout"
  bottom: "pool2"
  top: "drop2"
  dropout_param {
    dropout_ratio: 0.1
  }
}
layer {
  name: "relu2"
  type: "ReLU"
  bottom: "drop2"
  top: "relu2"
  relu_param {
    negative_slope: 0.01
  }
}
layer {
  name: "conv4"
  type: "Convolution"
  bottom: "relu2"
  top: "conv4"
  convolution_param {
    num_output: 240
    kernel_size: 1
    weight_filler {
      type: "xavier"
    }
  }
}
layer {
  name: "conv5"
  type: "Convolution"
  bottom: "conv4"
  top: "conv5"
  convolution_param {
    num_output: 260
    kernel_size: 2
    weight_filler {
      type: "xavier"
    }
  }
}
layer {
  name: "pool3"
  type: "Pooling"
  bottom: "conv5"
  top: "pool3"
  pooling_param {
    pool: MAX
    kernel_size: 2
    stride: 2
  }
}
layer {
  name: "drop3"
  type: "Dropout"
  bottom: "pool3"
  top: "drop3"
  dropout_param {
    dropout_ratio: 0.2
  }
}
layer {
  name: "relu3"
  type: "ReLU"
  bottom: "drop3"
  top: "relu3"
  relu_param {
    negative_slope: 0.01
  }
}
layer {
  name: "conv6"
  type: "Convolution"
  bottom: "relu3"
  top: "conv6"
  convolution_param {
    num_output: 260
    kernel_size: 1
    weight_filler {
      type: "xavier"
    }
  }
}
layer {
  name: "conv7"
  type: "Convolution"
  bottom: "conv6"
  top: "conv7"
  convolution_param {
    num_output: 280
    kernel_size: 2
    weight_filler {
      type: "xavier"
    }
  }
}
layer {
  name: "pool4"
  type: "Pooling"
  bottom: "conv7"
  top: "pool4"
  pooling_param {
    pool: MAX
    kernel_size: 2
    stride: 2
  }
}
layer {
  name: "drop4"
  type: "Dropout"
  bottom: "pool4"
  top: "drop4"
  dropout_param {
    dropout_ratio: 0.3
  }
}
layer {
  name: "relu4"
  type: "ReLU"
  bottom: "drop4"
  top: "relu4"
  relu_param {
    negative_slope: 0.01
  }
}
layer {
  name: "conv8"
  type: "Convolution"
  bottom: "relu4"
  top: "conv8"
  convolution_param {
    num_output: 280
    kernel_size: 1
    weight_filler {
      type: "xavier"
    }
  }
}
layer {
  name: "pool5"
  type: "Pooling"
  bottom: "conv8"
  top: "pool5"
  pooling_param {
    pool: MAX
    kernel_size: 2
    stride: 2
  }
}
layer {
  name: "drop5"
  type: "Dropout"
  bottom: "pool5"
  top: "drop5"
  dropout_param {
    dropout_ratio: 0.4
  }
}
layer {
  name: "relu5"
  type: "ReLU"
  bottom: "drop5"
  top: "relu5"
  relu_param {
    negative_slope: 0.01
  }
}
layer {
  name: "conv10"
  type: "Convolution"
  bottom: "relu5"
  top: "conv10"
  convolution_param {
    num_output: 300
    kernel_size: 1
    weight_filler {
      type: "xavier"
    }
  }
}
layer {
  name: "pool6"
  type: "Pooling"
  bottom: "conv10"
  top: "pool6"
  pooling_param {
    pool: MAX
    kernel_size: 2
    stride: 2
  }
}
layer {
  name: "drop6"
  type: "Dropout"
  bottom: "pool6"
  top: "drop6"
  dropout_param {
    dropout_ratio: 0.5
  }
}
layer {
  name: "relu6"
  type: "ReLU"
  bottom: "drop6"
  top: "relu6"
  relu_param {
    negative_slope: 0.01
  }
}
layer {
  name: "conv11"
  type: "Convolution"
  bottom: "relu6"
  top: "conv11"
  convolution_param {
    num_output: 100
    kernel_size: 1
    weight_filler {
      type: "xavier"
    }
  }
}
layer {
  name: "pool7"
  type: "Pooling"
  bottom: "conv11"
  top: "pool7"
  pooling_param {
    pool: MAX
    kernel_size: 2
    stride: 2
  }
}
layer {
  name: "drop7"
  type: "Dropout"
  bottom: "pool7"
  top: "drop7"
  dropout_param {
    dropout_ratio: 0
  }
}
layer {
  name: "relu7"
  type: "ReLU"
  bottom: "drop7"
  top: "relu7"
  relu_param {
    negative_slope: 0.01
  }
}
layer {
  name: "pool"
  type: "Pooling"
  bottom: "relu7"
  top: "pool"
  pooling_param {
    pool: AVE
    global_pooling: true
  }
}
layer {
  name: "flatten"
  type: "Flatten"
  bottom: "pool"
  top: "flatten"
}
layer {
  name: "ip_c"
  type: "InnerProduct"
  bottom: "flatten"
  top: "ip_c"
  inner_product_param {
    num_output: 20
    weight_filler {
      type: "xavier"
    }
  }
}
layer {
  name: "accuracy_f"
  type: "Accuracy"
  bottom: "ip_c"
  bottom: "label_coarse"
  top: "accuracy_f"
}
layer {
  name: "loss_c"
  type: "SoftmaxWithLoss"
  bottom: "ip_c"
  bottom: "label_coarse"
  top: "loss_c"
}
layer {
  name: "ip_f"
  type: "InnerProduct"
  bottom: "flatten"
  top: "ip_f"
  inner_product_param {
    num_output: 100
    weight_filler {
      type: "xavier"
    }
  }
}
layer {
  name: "accuracy"
  type: "Accuracy"
  bottom: "ip_f"
  bottom: "label_fine"
  top: "accuracy"
}
layer {
  name: "loss_f"
  type: "SoftmaxWithLoss"
  bottom: "ip_f"
  bottom: "label_fine"
  top: "loss_f"
}
I1018 00:13:23.808492  9668 layer_factory.hpp:77] Creating layer data
I1018 00:13:23.808501  9668 net.cpp:100] Creating Layer data
I1018 00:13:23.808503  9668 net.cpp:408] data -> data
I1018 00:13:23.808509  9668 net.cpp:408] data -> label_coarse
I1018 00:13:23.808516  9668 net.cpp:408] data -> label_fine
I1018 00:13:23.808521  9668 hdf5_data_layer.cpp:79] Loading list of HDF5 filenames from: ../../../../data/cifar-100/cifar_100_caffe_hdf5/test.txt
I1018 00:13:23.808535  9668 hdf5_data_layer.cpp:93] Number of HDF5 files: 1
I1018 00:13:24.066396  9668 net.cpp:150] Setting up data
I1018 00:13:24.066421  9668 net.cpp:157] Top shape: 100 3 32 32 (307200)
I1018 00:13:24.066426  9668 net.cpp:157] Top shape: 100 (100)
I1018 00:13:24.066428  9668 net.cpp:157] Top shape: 100 (100)
I1018 00:13:24.066431  9668 net.cpp:165] Memory required for data: 1229600
I1018 00:13:24.066438  9668 layer_factory.hpp:77] Creating layer label_coarse_data_1_split
I1018 00:13:24.066450  9668 net.cpp:100] Creating Layer label_coarse_data_1_split
I1018 00:13:24.066453  9668 net.cpp:434] label_coarse_data_1_split <- label_coarse
I1018 00:13:24.066460  9668 net.cpp:408] label_coarse_data_1_split -> label_coarse_data_1_split_0
I1018 00:13:24.066471  9668 net.cpp:408] label_coarse_data_1_split -> label_coarse_data_1_split_1
I1018 00:13:24.066500  9668 net.cpp:150] Setting up label_coarse_data_1_split
I1018 00:13:24.066505  9668 net.cpp:157] Top shape: 100 (100)
I1018 00:13:24.066522  9668 net.cpp:157] Top shape: 100 (100)
I1018 00:13:24.066526  9668 net.cpp:165] Memory required for data: 1230400
I1018 00:13:24.066529  9668 layer_factory.hpp:77] Creating layer label_fine_data_2_split
I1018 00:13:24.066535  9668 net.cpp:100] Creating Layer label_fine_data_2_split
I1018 00:13:24.066539  9668 net.cpp:434] label_fine_data_2_split <- label_fine
I1018 00:13:24.066545  9668 net.cpp:408] label_fine_data_2_split -> label_fine_data_2_split_0
I1018 00:13:24.066551  9668 net.cpp:408] label_fine_data_2_split -> label_fine_data_2_split_1
I1018 00:13:24.066576  9668 net.cpp:150] Setting up label_fine_data_2_split
I1018 00:13:24.066581  9668 net.cpp:157] Top shape: 100 (100)
I1018 00:13:24.066586  9668 net.cpp:157] Top shape: 100 (100)
I1018 00:13:24.066588  9668 net.cpp:165] Memory required for data: 1231200
I1018 00:13:24.066592  9668 layer_factory.hpp:77] Creating layer conv1
I1018 00:13:24.066601  9668 net.cpp:100] Creating Layer conv1
I1018 00:13:24.066603  9668 net.cpp:434] conv1 <- data
I1018 00:13:24.066609  9668 net.cpp:408] conv1 -> conv1
I1018 00:13:24.067466  9668 net.cpp:150] Setting up conv1
I1018 00:13:24.067476  9668 net.cpp:157] Top shape: 100 192 28 28 (15052800)
I1018 00:13:24.067479  9668 net.cpp:165] Memory required for data: 61442400
I1018 00:13:24.067490  9668 layer_factory.hpp:77] Creating layer pool1
I1018 00:13:24.067498  9668 net.cpp:100] Creating Layer pool1
I1018 00:13:24.067502  9668 net.cpp:434] pool1 <- conv1
I1018 00:13:24.067507  9668 net.cpp:408] pool1 -> pool1
I1018 00:13:24.067538  9668 net.cpp:150] Setting up pool1
I1018 00:13:24.067543  9668 net.cpp:157] Top shape: 100 192 14 14 (3763200)
I1018 00:13:24.067548  9668 net.cpp:165] Memory required for data: 76495200
I1018 00:13:24.067550  9668 layer_factory.hpp:77] Creating layer drop1
I1018 00:13:24.067558  9668 net.cpp:100] Creating Layer drop1
I1018 00:13:24.067561  9668 net.cpp:434] drop1 <- pool1
I1018 00:13:24.067566  9668 net.cpp:408] drop1 -> drop1
I1018 00:13:24.067591  9668 net.cpp:150] Setting up drop1
I1018 00:13:24.067597  9668 net.cpp:157] Top shape: 100 192 14 14 (3763200)
I1018 00:13:24.067601  9668 net.cpp:165] Memory required for data: 91548000
I1018 00:13:24.067605  9668 layer_factory.hpp:77] Creating layer relu1
I1018 00:13:24.067610  9668 net.cpp:100] Creating Layer relu1
I1018 00:13:24.067613  9668 net.cpp:434] relu1 <- drop1
I1018 00:13:24.067618  9668 net.cpp:408] relu1 -> relu1
I1018 00:13:24.067740  9668 net.cpp:150] Setting up relu1
I1018 00:13:24.067747  9668 net.cpp:157] Top shape: 100 192 14 14 (3763200)
I1018 00:13:24.067750  9668 net.cpp:165] Memory required for data: 106600800
I1018 00:13:24.067754  9668 layer_factory.hpp:77] Creating layer conv2
I1018 00:13:24.067761  9668 net.cpp:100] Creating Layer conv2
I1018 00:13:24.067764  9668 net.cpp:434] conv2 <- relu1
I1018 00:13:24.067770  9668 net.cpp:408] conv2 -> conv2
I1018 00:13:24.068536  9668 net.cpp:150] Setting up conv2
I1018 00:13:24.068544  9668 net.cpp:157] Top shape: 100 192 14 14 (3763200)
I1018 00:13:24.068547  9668 net.cpp:165] Memory required for data: 121653600
I1018 00:13:24.068555  9668 layer_factory.hpp:77] Creating layer conv3
I1018 00:13:24.068564  9668 net.cpp:100] Creating Layer conv3
I1018 00:13:24.068568  9668 net.cpp:434] conv3 <- conv2
I1018 00:13:24.068573  9668 net.cpp:408] conv3 -> conv3
I1018 00:13:24.071064  9668 net.cpp:150] Setting up conv3
I1018 00:13:24.071074  9668 net.cpp:157] Top shape: 100 240 12 12 (3456000)
I1018 00:13:24.071077  9668 net.cpp:165] Memory required for data: 135477600
I1018 00:13:24.071085  9668 layer_factory.hpp:77] Creating layer pool2
I1018 00:13:24.071092  9668 net.cpp:100] Creating Layer pool2
I1018 00:13:24.071097  9668 net.cpp:434] pool2 <- conv3
I1018 00:13:24.071104  9668 net.cpp:408] pool2 -> pool2
I1018 00:13:24.071132  9668 net.cpp:150] Setting up pool2
I1018 00:13:24.071138  9668 net.cpp:157] Top shape: 100 240 6 6 (864000)
I1018 00:13:24.071142  9668 net.cpp:165] Memory required for data: 138933600
I1018 00:13:24.071146  9668 layer_factory.hpp:77] Creating layer drop2
I1018 00:13:24.071157  9668 net.cpp:100] Creating Layer drop2
I1018 00:13:24.071162  9668 net.cpp:434] drop2 <- pool2
I1018 00:13:24.071167  9668 net.cpp:408] drop2 -> drop2
I1018 00:13:24.071193  9668 net.cpp:150] Setting up drop2
I1018 00:13:24.071198  9668 net.cpp:157] Top shape: 100 240 6 6 (864000)
I1018 00:13:24.071202  9668 net.cpp:165] Memory required for data: 142389600
I1018 00:13:24.071205  9668 layer_factory.hpp:77] Creating layer relu2
I1018 00:13:24.071209  9668 net.cpp:100] Creating Layer relu2
I1018 00:13:24.071213  9668 net.cpp:434] relu2 <- drop2
I1018 00:13:24.071218  9668 net.cpp:408] relu2 -> relu2
I1018 00:13:24.071416  9668 net.cpp:150] Setting up relu2
I1018 00:13:24.071424  9668 net.cpp:157] Top shape: 100 240 6 6 (864000)
I1018 00:13:24.071429  9668 net.cpp:165] Memory required for data: 145845600
I1018 00:13:24.071431  9668 layer_factory.hpp:77] Creating layer conv4
I1018 00:13:24.071440  9668 net.cpp:100] Creating Layer conv4
I1018 00:13:24.071444  9668 net.cpp:434] conv4 <- relu2
I1018 00:13:24.071449  9668 net.cpp:408] conv4 -> conv4
I1018 00:13:24.072459  9668 net.cpp:150] Setting up conv4
I1018 00:13:24.072468  9668 net.cpp:157] Top shape: 100 240 6 6 (864000)
I1018 00:13:24.072473  9668 net.cpp:165] Memory required for data: 149301600
I1018 00:13:24.072479  9668 layer_factory.hpp:77] Creating layer conv5
I1018 00:13:24.072487  9668 net.cpp:100] Creating Layer conv5
I1018 00:13:24.072490  9668 net.cpp:434] conv5 <- conv4
I1018 00:13:24.072496  9668 net.cpp:408] conv5 -> conv5
I1018 00:13:24.074286  9668 net.cpp:150] Setting up conv5
I1018 00:13:24.074296  9668 net.cpp:157] Top shape: 100 260 5 5 (650000)
I1018 00:13:24.074301  9668 net.cpp:165] Memory required for data: 151901600
I1018 00:13:24.074309  9668 layer_factory.hpp:77] Creating layer pool3
I1018 00:13:24.074316  9668 net.cpp:100] Creating Layer pool3
I1018 00:13:24.074321  9668 net.cpp:434] pool3 <- conv5
I1018 00:13:24.074326  9668 net.cpp:408] pool3 -> pool3
I1018 00:13:24.074357  9668 net.cpp:150] Setting up pool3
I1018 00:13:24.074362  9668 net.cpp:157] Top shape: 100 260 3 3 (234000)
I1018 00:13:24.074367  9668 net.cpp:165] Memory required for data: 152837600
I1018 00:13:24.074369  9668 layer_factory.hpp:77] Creating layer drop3
I1018 00:13:24.074374  9668 net.cpp:100] Creating Layer drop3
I1018 00:13:24.074378  9668 net.cpp:434] drop3 <- pool3
I1018 00:13:24.074383  9668 net.cpp:408] drop3 -> drop3
I1018 00:13:24.074410  9668 net.cpp:150] Setting up drop3
I1018 00:13:24.074416  9668 net.cpp:157] Top shape: 100 260 3 3 (234000)
I1018 00:13:24.074419  9668 net.cpp:165] Memory required for data: 153773600
I1018 00:13:24.074422  9668 layer_factory.hpp:77] Creating layer relu3
I1018 00:13:24.074430  9668 net.cpp:100] Creating Layer relu3
I1018 00:13:24.074434  9668 net.cpp:434] relu3 <- drop3
I1018 00:13:24.074440  9668 net.cpp:408] relu3 -> relu3
I1018 00:13:24.074697  9668 net.cpp:150] Setting up relu3
I1018 00:13:24.074708  9668 net.cpp:157] Top shape: 100 260 3 3 (234000)
I1018 00:13:24.074712  9668 net.cpp:165] Memory required for data: 154709600
I1018 00:13:24.074715  9668 layer_factory.hpp:77] Creating layer conv6
I1018 00:13:24.074725  9668 net.cpp:100] Creating Layer conv6
I1018 00:13:24.074730  9668 net.cpp:434] conv6 <- relu3
I1018 00:13:24.074738  9668 net.cpp:408] conv6 -> conv6
I1018 00:13:24.075958  9668 net.cpp:150] Setting up conv6
I1018 00:13:24.075974  9668 net.cpp:157] Top shape: 100 260 3 3 (234000)
I1018 00:13:24.075978  9668 net.cpp:165] Memory required for data: 155645600
I1018 00:13:24.075985  9668 layer_factory.hpp:77] Creating layer conv7
I1018 00:13:24.075995  9668 net.cpp:100] Creating Layer conv7
I1018 00:13:24.076000  9668 net.cpp:434] conv7 <- conv6
I1018 00:13:24.076006  9668 net.cpp:408] conv7 -> conv7
I1018 00:13:24.078179  9668 net.cpp:150] Setting up conv7
I1018 00:13:24.078197  9668 net.cpp:157] Top shape: 100 280 2 2 (112000)
I1018 00:13:24.078202  9668 net.cpp:165] Memory required for data: 156093600
I1018 00:13:24.078207  9668 layer_factory.hpp:77] Creating layer pool4
I1018 00:13:24.078232  9668 net.cpp:100] Creating Layer pool4
I1018 00:13:24.078236  9668 net.cpp:434] pool4 <- conv7
I1018 00:13:24.078243  9668 net.cpp:408] pool4 -> pool4
I1018 00:13:24.078279  9668 net.cpp:150] Setting up pool4
I1018 00:13:24.078285  9668 net.cpp:157] Top shape: 100 280 1 1 (28000)
I1018 00:13:24.078289  9668 net.cpp:165] Memory required for data: 156205600
I1018 00:13:24.078291  9668 layer_factory.hpp:77] Creating layer drop4
I1018 00:13:24.078297  9668 net.cpp:100] Creating Layer drop4
I1018 00:13:24.078300  9668 net.cpp:434] drop4 <- pool4
I1018 00:13:24.078305  9668 net.cpp:408] drop4 -> drop4
I1018 00:13:24.078336  9668 net.cpp:150] Setting up drop4
I1018 00:13:24.078341  9668 net.cpp:157] Top shape: 100 280 1 1 (28000)
I1018 00:13:24.078344  9668 net.cpp:165] Memory required for data: 156317600
I1018 00:13:24.078346  9668 layer_factory.hpp:77] Creating layer relu4
I1018 00:13:24.078352  9668 net.cpp:100] Creating Layer relu4
I1018 00:13:24.078354  9668 net.cpp:434] relu4 <- drop4
I1018 00:13:24.078359  9668 net.cpp:408] relu4 -> relu4
I1018 00:13:24.078618  9668 net.cpp:150] Setting up relu4
I1018 00:13:24.078626  9668 net.cpp:157] Top shape: 100 280 1 1 (28000)
I1018 00:13:24.078627  9668 net.cpp:165] Memory required for data: 156429600
I1018 00:13:24.078629  9668 layer_factory.hpp:77] Creating layer conv8
I1018 00:13:24.078635  9668 net.cpp:100] Creating Layer conv8
I1018 00:13:24.078639  9668 net.cpp:434] conv8 <- relu4
I1018 00:13:24.078642  9668 net.cpp:408] conv8 -> conv8
I1018 00:13:24.079916  9668 net.cpp:150] Setting up conv8
I1018 00:13:24.079928  9668 net.cpp:157] Top shape: 100 280 1 1 (28000)
I1018 00:13:24.079933  9668 net.cpp:165] Memory required for data: 156541600
I1018 00:13:24.079941  9668 layer_factory.hpp:77] Creating layer pool5
I1018 00:13:24.079947  9668 net.cpp:100] Creating Layer pool5
I1018 00:13:24.079952  9668 net.cpp:434] pool5 <- conv8
I1018 00:13:24.079957  9668 net.cpp:408] pool5 -> pool5
I1018 00:13:24.079995  9668 net.cpp:150] Setting up pool5
I1018 00:13:24.080003  9668 net.cpp:157] Top shape: 100 280 1 1 (28000)
I1018 00:13:24.080006  9668 net.cpp:165] Memory required for data: 156653600
I1018 00:13:24.080010  9668 layer_factory.hpp:77] Creating layer drop5
I1018 00:13:24.080015  9668 net.cpp:100] Creating Layer drop5
I1018 00:13:24.080018  9668 net.cpp:434] drop5 <- pool5
I1018 00:13:24.080024  9668 net.cpp:408] drop5 -> drop5
I1018 00:13:24.080060  9668 net.cpp:150] Setting up drop5
I1018 00:13:24.080066  9668 net.cpp:157] Top shape: 100 280 1 1 (28000)
I1018 00:13:24.080070  9668 net.cpp:165] Memory required for data: 156765600
I1018 00:13:24.080072  9668 layer_factory.hpp:77] Creating layer relu5
I1018 00:13:24.080077  9668 net.cpp:100] Creating Layer relu5
I1018 00:13:24.080080  9668 net.cpp:434] relu5 <- drop5
I1018 00:13:24.080085  9668 net.cpp:408] relu5 -> relu5
I1018 00:13:24.080216  9668 net.cpp:150] Setting up relu5
I1018 00:13:24.080224  9668 net.cpp:157] Top shape: 100 280 1 1 (28000)
I1018 00:13:24.080225  9668 net.cpp:165] Memory required for data: 156877600
I1018 00:13:24.080227  9668 layer_factory.hpp:77] Creating layer conv10
I1018 00:13:24.080232  9668 net.cpp:100] Creating Layer conv10
I1018 00:13:24.080235  9668 net.cpp:434] conv10 <- relu5
I1018 00:13:24.080238  9668 net.cpp:408] conv10 -> conv10
I1018 00:13:24.081215  9668 net.cpp:150] Setting up conv10
I1018 00:13:24.081223  9668 net.cpp:157] Top shape: 100 300 1 1 (30000)
I1018 00:13:24.081228  9668 net.cpp:165] Memory required for data: 156997600
I1018 00:13:24.081235  9668 layer_factory.hpp:77] Creating layer pool6
I1018 00:13:24.081239  9668 net.cpp:100] Creating Layer pool6
I1018 00:13:24.081243  9668 net.cpp:434] pool6 <- conv10
I1018 00:13:24.081246  9668 net.cpp:408] pool6 -> pool6
I1018 00:13:24.081271  9668 net.cpp:150] Setting up pool6
I1018 00:13:24.081274  9668 net.cpp:157] Top shape: 100 300 1 1 (30000)
I1018 00:13:24.081276  9668 net.cpp:165] Memory required for data: 157117600
I1018 00:13:24.081279  9668 layer_factory.hpp:77] Creating layer drop6
I1018 00:13:24.081281  9668 net.cpp:100] Creating Layer drop6
I1018 00:13:24.081292  9668 net.cpp:434] drop6 <- pool6
I1018 00:13:24.081296  9668 net.cpp:408] drop6 -> drop6
I1018 00:13:24.081322  9668 net.cpp:150] Setting up drop6
I1018 00:13:24.081327  9668 net.cpp:157] Top shape: 100 300 1 1 (30000)
I1018 00:13:24.081329  9668 net.cpp:165] Memory required for data: 157237600
I1018 00:13:24.081331  9668 layer_factory.hpp:77] Creating layer relu6
I1018 00:13:24.081334  9668 net.cpp:100] Creating Layer relu6
I1018 00:13:24.081336  9668 net.cpp:434] relu6 <- drop6
I1018 00:13:24.081339  9668 net.cpp:408] relu6 -> relu6
I1018 00:13:24.081451  9668 net.cpp:150] Setting up relu6
I1018 00:13:24.081457  9668 net.cpp:157] Top shape: 100 300 1 1 (30000)
I1018 00:13:24.081459  9668 net.cpp:165] Memory required for data: 157357600
I1018 00:13:24.081461  9668 layer_factory.hpp:77] Creating layer conv11
I1018 00:13:24.081466  9668 net.cpp:100] Creating Layer conv11
I1018 00:13:24.081470  9668 net.cpp:434] conv11 <- relu6
I1018 00:13:24.081473  9668 net.cpp:408] conv11 -> conv11
I1018 00:13:24.082213  9668 net.cpp:150] Setting up conv11
I1018 00:13:24.082221  9668 net.cpp:157] Top shape: 100 100 1 1 (10000)
I1018 00:13:24.082224  9668 net.cpp:165] Memory required for data: 157397600
I1018 00:13:24.082228  9668 layer_factory.hpp:77] Creating layer pool7
I1018 00:13:24.082232  9668 net.cpp:100] Creating Layer pool7
I1018 00:13:24.082234  9668 net.cpp:434] pool7 <- conv11
I1018 00:13:24.082238  9668 net.cpp:408] pool7 -> pool7
I1018 00:13:24.082265  9668 net.cpp:150] Setting up pool7
I1018 00:13:24.082269  9668 net.cpp:157] Top shape: 100 100 1 1 (10000)
I1018 00:13:24.082271  9668 net.cpp:165] Memory required for data: 157437600
I1018 00:13:24.082273  9668 layer_factory.hpp:77] Creating layer drop7
I1018 00:13:24.082279  9668 net.cpp:100] Creating Layer drop7
I1018 00:13:24.082283  9668 net.cpp:434] drop7 <- pool7
I1018 00:13:24.082285  9668 net.cpp:408] drop7 -> drop7
I1018 00:13:24.082309  9668 net.cpp:150] Setting up drop7
I1018 00:13:24.082312  9668 net.cpp:157] Top shape: 100 100 1 1 (10000)
I1018 00:13:24.082314  9668 net.cpp:165] Memory required for data: 157477600
I1018 00:13:24.082315  9668 layer_factory.hpp:77] Creating layer relu7
I1018 00:13:24.082319  9668 net.cpp:100] Creating Layer relu7
I1018 00:13:24.082321  9668 net.cpp:434] relu7 <- drop7
I1018 00:13:24.082324  9668 net.cpp:408] relu7 -> relu7
I1018 00:13:24.082515  9668 net.cpp:150] Setting up relu7
I1018 00:13:24.082521  9668 net.cpp:157] Top shape: 100 100 1 1 (10000)
I1018 00:13:24.082525  9668 net.cpp:165] Memory required for data: 157517600
I1018 00:13:24.082526  9668 layer_factory.hpp:77] Creating layer pool
I1018 00:13:24.082530  9668 net.cpp:100] Creating Layer pool
I1018 00:13:24.082532  9668 net.cpp:434] pool <- relu7
I1018 00:13:24.082535  9668 net.cpp:408] pool -> pool
I1018 00:13:24.082646  9668 net.cpp:150] Setting up pool
I1018 00:13:24.082651  9668 net.cpp:157] Top shape: 100 100 1 1 (10000)
I1018 00:13:24.082654  9668 net.cpp:165] Memory required for data: 157557600
I1018 00:13:24.082656  9668 layer_factory.hpp:77] Creating layer flatten
I1018 00:13:24.082659  9668 net.cpp:100] Creating Layer flatten
I1018 00:13:24.082662  9668 net.cpp:434] flatten <- pool
I1018 00:13:24.082665  9668 net.cpp:408] flatten -> flatten
I1018 00:13:24.082681  9668 net.cpp:150] Setting up flatten
I1018 00:13:24.082684  9668 net.cpp:157] Top shape: 100 100 (10000)
I1018 00:13:24.082686  9668 net.cpp:165] Memory required for data: 157597600
I1018 00:13:24.082689  9668 layer_factory.hpp:77] Creating layer flatten_flatten_0_split
I1018 00:13:24.082692  9668 net.cpp:100] Creating Layer flatten_flatten_0_split
I1018 00:13:24.082695  9668 net.cpp:434] flatten_flatten_0_split <- flatten
I1018 00:13:24.082697  9668 net.cpp:408] flatten_flatten_0_split -> flatten_flatten_0_split_0
I1018 00:13:24.082702  9668 net.cpp:408] flatten_flatten_0_split -> flatten_flatten_0_split_1
I1018 00:13:24.082726  9668 net.cpp:150] Setting up flatten_flatten_0_split
I1018 00:13:24.082729  9668 net.cpp:157] Top shape: 100 100 (10000)
I1018 00:13:24.082739  9668 net.cpp:157] Top shape: 100 100 (10000)
I1018 00:13:24.082741  9668 net.cpp:165] Memory required for data: 157677600
I1018 00:13:24.082743  9668 layer_factory.hpp:77] Creating layer ip_c
I1018 00:13:24.082747  9668 net.cpp:100] Creating Layer ip_c
I1018 00:13:24.082751  9668 net.cpp:434] ip_c <- flatten_flatten_0_split_0
I1018 00:13:24.082753  9668 net.cpp:408] ip_c -> ip_c
I1018 00:13:24.082833  9668 net.cpp:150] Setting up ip_c
I1018 00:13:24.082836  9668 net.cpp:157] Top shape: 100 20 (2000)
I1018 00:13:24.082839  9668 net.cpp:165] Memory required for data: 157685600
I1018 00:13:24.082842  9668 layer_factory.hpp:77] Creating layer ip_c_ip_c_0_split
I1018 00:13:24.082845  9668 net.cpp:100] Creating Layer ip_c_ip_c_0_split
I1018 00:13:24.082849  9668 net.cpp:434] ip_c_ip_c_0_split <- ip_c
I1018 00:13:24.082851  9668 net.cpp:408] ip_c_ip_c_0_split -> ip_c_ip_c_0_split_0
I1018 00:13:24.082855  9668 net.cpp:408] ip_c_ip_c_0_split -> ip_c_ip_c_0_split_1
I1018 00:13:24.082878  9668 net.cpp:150] Setting up ip_c_ip_c_0_split
I1018 00:13:24.082881  9668 net.cpp:157] Top shape: 100 20 (2000)
I1018 00:13:24.082883  9668 net.cpp:157] Top shape: 100 20 (2000)
I1018 00:13:24.082885  9668 net.cpp:165] Memory required for data: 157701600
I1018 00:13:24.082887  9668 layer_factory.hpp:77] Creating layer accuracy_f
I1018 00:13:24.082890  9668 net.cpp:100] Creating Layer accuracy_f
I1018 00:13:24.082893  9668 net.cpp:434] accuracy_f <- ip_c_ip_c_0_split_0
I1018 00:13:24.082896  9668 net.cpp:434] accuracy_f <- label_coarse_data_1_split_0
I1018 00:13:24.082900  9668 net.cpp:408] accuracy_f -> accuracy_f
…
