…
  level: 0
  stage: ""
}
type: "AdaDelta"
I1017 20:49:23.798053  7506 solver.cpp:81] Creating training net from train_net file: /home/adam/Honours/Honours-Project/cifar-100_pooling/max/relu/poolcnn_relu_train.prototxt
I1017 20:49:23.798349  7506 net.cpp:58] Initializing net from parameters: 
state {
  phase: TRAIN
  level: 0
  stage: ""
}
layer {
  name: "data"
  type: "HDF5Data"
  top: "data"
  top: "label_coarse"
  top: "label_fine"
  hdf5_data_param {
    source: "../../../../data/cifar-100/cifar_100_caffe_hdf5/train.txt"
    batch_size: 64
  }
}
layer {
  name: "conv1"
  type: "Convolution"
  bottom: "data"
  top: "conv1"
  convolution_param {
    num_output: 192
    kernel_size: 5
    weight_filler {
      type: "xavier"
    }
  }
}
layer {
  name: "pool1"
  type: "Pooling"
  bottom: "conv1"
  top: "pool1"
  pooling_param {
    pool: MAX
    kernel_size: 2
    stride: 2
  }
}
layer {
  name: "drop1"
  type: "Dropout"
  bottom: "pool1"
  top: "drop1"
  dropout_param {
    dropout_ratio: 0
  }
}
layer {
  name: "relu1"
  type: "ReLU"
  bottom: "drop1"
  top: "relu1"
}
layer {
  name: "conv2"
  type: "Convolution"
  bottom: "relu1"
  top: "conv2"
  convolution_param {
    num_output: 192
    kernel_size: 1
    weight_filler {
      type: "xavier"
    }
  }
}
layer {
  name: "conv3"
  type: "Convolution"
  bottom: "conv2"
  top: "conv3"
  convolution_param {
    num_output: 240
    kernel_size: 3
    weight_filler {
      type: "xavier"
    }
  }
}
layer {
  name: "pool2"
  type: "Pooling"
  bottom: "conv3"
  top: "pool2"
  pooling_param {
    pool: MAX
    kernel_size: 2
    stride: 2
  }
}
layer {
  name: "drop2"
  type: "Dropout"
  bottom: "pool2"
  top: "drop2"
  dropout_param {
    dropout_ratio: 0.1
  }
}
layer {
  name: "relu2"
  type: "ReLU"
  bottom: "drop2"
  top: "relu2"
}
layer {
  name: "conv4"
  type: "Convolution"
  bottom: "relu2"
  top: "conv4"
  convolution_param {
    num_output: 240
    kernel_size: 1
    weight_filler {
      type: "xavier"
    }
  }
}
layer {
  name: "conv5"
  type: "Convolution"
  bottom: "conv4"
  top: "conv5"
  convolution_param {
    num_output: 260
    kernel_size: 2
    weight_filler {
      type: "xavier"
    }
  }
}
layer {
  name: "pool3"
  type: "Pooling"
  bottom: "conv5"
  top: "pool3"
  pooling_param {
    pool: MAX
    kernel_size: 2
    stride: 2
  }
}
layer {
  name: "drop3"
  type: "Dropout"
  bottom: "pool3"
  top: "drop3"
  dropout_param {
    dropout_ratio: 0.2
  }
}
layer {
  name: "relu3"
  type: "ReLU"
  bottom: "drop3"
  top: "relu3"
}
layer {
  name: "conv6"
  type: "Convolution"
  bottom: "relu3"
  top: "conv6"
  convolution_param {
    num_output: 260
    kernel_size: 1
    weight_filler {
      type: "xavier"
    }
  }
}
layer {
  name: "conv7"
  type: "Convolution"
  bottom: "conv6"
  top: "conv7"
  convolution_param {
    num_output: 280
    kernel_size: 2
    weight_filler {
      type: "xavier"
    }
  }
}
layer {
  name: "pool4"
  type: "Pooling"
  bottom: "conv7"
  top: "pool4"
  pooling_param {
    pool: MAX
    kernel_size: 2
    stride: 2
  }
}
layer {
  name: "drop4"
  type: "Dropout"
  bottom: "pool4"
  top: "drop4"
  dropout_param {
    dropout_ratio: 0.3
  }
}
layer {
  name: "relu4"
  type: "ReLU"
  bottom: "drop4"
  top: "relu4"
}
layer {
  name: "conv8"
  type: "Convolution"
  bottom: "relu4"
  top: "conv8"
  convolution_param {
    num_output: 280
    kernel_size: 1
    weight_filler {
      type: "xavier"
    }
  }
}
layer {
  name: "pool5"
  type: "Pooling"
  bottom: "conv8"
  top: "pool5"
  pooling_param {
    pool: MAX
    kernel_size: 2
    stride: 2
  }
}
layer {
  name: "drop5"
  type: "Dropout"
  bottom: "pool5"
  top: "drop5"
  dropout_param {
    dropout_ratio: 0.4
  }
}
layer {
  name: "relu5"
  type: "ReLU"
  bottom: "drop5"
  top: "relu5"
}
layer {
  name: "conv10"
  type: "Convolution"
  bottom: "relu5"
  top: "conv10"
  convolution_param {
    num_output: 300
    kernel_size: 1
    weight_filler {
      type: "xavier"
    }
  }
}
layer {
  name: "pool6"
  type: "Pooling"
  bottom: "conv10"
  top: "pool6"
  pooling_param {
    pool: MAX
    kernel_size: 2
    stride: 2
  }
}
layer {
  name: "drop6"
  type: "Dropout"
  bottom: "pool6"
  top: "drop6"
  dropout_param {
    dropout_ratio: 0.5
  }
}
layer {
  name: "relu6"
  type: "ReLU"
  bottom: "drop6"
  top: "relu6"
}
layer {
  name: "conv11"
  type: "Convolution"
  bottom: "relu6"
  top: "conv11"
  convolution_param {
    num_output: 100
    kernel_size: 1
    weight_filler {
      type: "xavier"
    }
  }
}
layer {
  name: "pool7"
  type: "Pooling"
  bottom: "conv11"
  top: "pool7"
  pooling_param {
    pool: MAX
    kernel_size: 2
    stride: 2
  }
}
layer {
  name: "drop7"
  type: "Dropout"
  bottom: "pool7"
  top: "drop7"
  dropout_param {
    dropout_ratio: 0
  }
}
layer {
  name: "relu7"
  type: "ReLU"
  bottom: "drop7"
  top: "relu7"
}
layer {
  name: "pool"
  type: "Pooling"
  bottom: "relu7"
  top: "pool"
  pooling_param {
    pool: AVE
    global_pooling: true
  }
}
layer {
  name: "flatten"
  type: "Flatten"
  bottom: "pool"
  top: "flatten"
}
layer {
  name: "ip_c"
  type: "InnerProduct"
  bottom: "flatten"
  top: "ip_c"
  inner_product_param {
    num_output: 20
    weight_filler {
      type: "xavier"
    }
  }
}
layer {
  name: "accuracy_f"
  type: "Accuracy"
  bottom: "ip_c"
  bottom: "label_coarse"
  top: "accuracy_f"
}
layer {
  name: "loss_c"
  type: "SoftmaxWithLoss"
  bottom: "ip_c"
  bottom: "label_coarse"
  top: "loss_c"
}
layer {
  name: "ip_f"
  type: "InnerProduct"
  bottom: "flatten"
  top: "ip_f"
  inner_product_param {
    num_output: 100
    weight_filler {
      type: "xavier"
    }
  }
}
layer {
  name: "accuracy"
  type: "Accuracy"
  bottom: "ip_f"
  bottom: "label_fine"
  top: "accuracy"
}
layer {
  name: "loss_f"
  type: "SoftmaxWithLoss"
  bottom: "ip_f"
  bottom: "label_fine"
  top: "loss_f"
}
I1017 20:49:23.798492  7506 layer_factory.hpp:77] Creating layer data
I1017 20:49:23.798503  7506 net.cpp:100] Creating Layer data
I1017 20:49:23.798508  7506 net.cpp:408] data -> data
I1017 20:49:23.798522  7506 net.cpp:408] data -> label_coarse
I1017 20:49:23.798528  7506 net.cpp:408] data -> label_fine
I1017 20:49:23.798535  7506 hdf5_data_layer.cpp:79] Loading list of HDF5 filenames from: ../../../../data/cifar-100/cifar_100_caffe_hdf5/train.txt
I1017 20:49:23.825345  7506 hdf5_data_layer.cpp:93] Number of HDF5 files: 1
I1017 20:49:23.922356  7506 hdf5.cpp:35] Datatype class: H5T_INTEGER
I1017 20:49:25.589365  7506 net.cpp:150] Setting up data
I1017 20:49:25.589390  7506 net.cpp:157] Top shape: 64 3 32 32 (196608)
I1017 20:49:25.589392  7506 net.cpp:157] Top shape: 64 (64)
I1017 20:49:25.589395  7506 net.cpp:157] Top shape: 64 (64)
I1017 20:49:25.589396  7506 net.cpp:165] Memory required for data: 786944
I1017 20:49:25.589402  7506 layer_factory.hpp:77] Creating layer label_coarse_data_1_split
I1017 20:49:25.589411  7506 net.cpp:100] Creating Layer label_coarse_data_1_split
I1017 20:49:25.589416  7506 net.cpp:434] label_coarse_data_1_split <- label_coarse
I1017 20:49:25.589426  7506 net.cpp:408] label_coarse_data_1_split -> label_coarse_data_1_split_0
I1017 20:49:25.589434  7506 net.cpp:408] label_coarse_data_1_split -> label_coarse_data_1_split_1
I1017 20:49:25.589455  7506 net.cpp:150] Setting up label_coarse_data_1_split
I1017 20:49:25.589459  7506 net.cpp:157] Top shape: 64 (64)
I1017 20:49:25.589462  7506 net.cpp:157] Top shape: 64 (64)
I1017 20:49:25.589463  7506 net.cpp:165] Memory required for data: 787456
I1017 20:49:25.589464  7506 layer_factory.hpp:77] Creating layer label_fine_data_2_split
I1017 20:49:25.589483  7506 net.cpp:100] Creating Layer label_fine_data_2_split
I1017 20:49:25.589484  7506 net.cpp:434] label_fine_data_2_split <- label_fine
I1017 20:49:25.589488  7506 net.cpp:408] label_fine_data_2_split -> label_fine_data_2_split_0
I1017 20:49:25.589493  7506 net.cpp:408] label_fine_data_2_split -> label_fine_data_2_split_1
I1017 20:49:25.589509  7506 net.cpp:150] Setting up label_fine_data_2_split
I1017 20:49:25.589514  7506 net.cpp:157] Top shape: 64 (64)
I1017 20:49:25.589515  7506 net.cpp:157] Top shape: 64 (64)
I1017 20:49:25.589516  7506 net.cpp:165] Memory required for data: 787968
I1017 20:49:25.589519  7506 layer_factory.hpp:77] Creating layer conv1
I1017 20:49:25.589529  7506 net.cpp:100] Creating Layer conv1
I1017 20:49:25.589531  7506 net.cpp:434] conv1 <- data
I1017 20:49:25.589534  7506 net.cpp:408] conv1 -> conv1
I1017 20:49:25.706667  7506 net.cpp:150] Setting up conv1
I1017 20:49:25.706692  7506 net.cpp:157] Top shape: 64 192 28 28 (9633792)
I1017 20:49:25.706696  7506 net.cpp:165] Memory required for data: 39323136
I1017 20:49:25.706713  7506 layer_factory.hpp:77] Creating layer pool1
I1017 20:49:25.706724  7506 net.cpp:100] Creating Layer pool1
I1017 20:49:25.706727  7506 net.cpp:434] pool1 <- conv1
I1017 20:49:25.706733  7506 net.cpp:408] pool1 -> pool1
I1017 20:49:25.706771  7506 net.cpp:150] Setting up pool1
I1017 20:49:25.706778  7506 net.cpp:157] Top shape: 64 192 14 14 (2408448)
I1017 20:49:25.706779  7506 net.cpp:165] Memory required for data: 48956928
I1017 20:49:25.706781  7506 layer_factory.hpp:77] Creating layer drop1
I1017 20:49:25.706785  7506 net.cpp:100] Creating Layer drop1
I1017 20:49:25.706787  7506 net.cpp:434] drop1 <- pool1
I1017 20:49:25.706790  7506 net.cpp:408] drop1 -> drop1
I1017 20:49:25.706814  7506 net.cpp:150] Setting up drop1
I1017 20:49:25.706816  7506 net.cpp:157] Top shape: 64 192 14 14 (2408448)
I1017 20:49:25.706817  7506 net.cpp:165] Memory required for data: 58590720
I1017 20:49:25.706820  7506 layer_factory.hpp:77] Creating layer relu1
I1017 20:49:25.706823  7506 net.cpp:100] Creating Layer relu1
I1017 20:49:25.706827  7506 net.cpp:434] relu1 <- drop1
I1017 20:49:25.706830  7506 net.cpp:408] relu1 -> relu1
I1017 20:49:25.706943  7506 net.cpp:150] Setting up relu1
I1017 20:49:25.706948  7506 net.cpp:157] Top shape: 64 192 14 14 (2408448)
I1017 20:49:25.706949  7506 net.cpp:165] Memory required for data: 68224512
I1017 20:49:25.706951  7506 layer_factory.hpp:77] Creating layer conv2
I1017 20:49:25.706957  7506 net.cpp:100] Creating Layer conv2
I1017 20:49:25.706959  7506 net.cpp:434] conv2 <- relu1
I1017 20:49:25.706962  7506 net.cpp:408] conv2 -> conv2
I1017 20:49:25.707761  7506 net.cpp:150] Setting up conv2
I1017 20:49:25.707768  7506 net.cpp:157] Top shape: 64 192 14 14 (2408448)
I1017 20:49:25.707772  7506 net.cpp:165] Memory required for data: 77858304
I1017 20:49:25.707777  7506 layer_factory.hpp:77] Creating layer conv3
I1017 20:49:25.707782  7506 net.cpp:100] Creating Layer conv3
I1017 20:49:25.707784  7506 net.cpp:434] conv3 <- conv2
I1017 20:49:25.707788  7506 net.cpp:408] conv3 -> conv3
I1017 20:49:25.710198  7506 net.cpp:150] Setting up conv3
I1017 20:49:25.710209  7506 net.cpp:157] Top shape: 64 240 12 12 (2211840)
I1017 20:49:25.710211  7506 net.cpp:165] Memory required for data: 86705664
I1017 20:49:25.710216  7506 layer_factory.hpp:77] Creating layer pool2
I1017 20:49:25.710221  7506 net.cpp:100] Creating Layer pool2
I1017 20:49:25.710222  7506 net.cpp:434] pool2 <- conv3
I1017 20:49:25.710227  7506 net.cpp:408] pool2 -> pool2
I1017 20:49:25.710250  7506 net.cpp:150] Setting up pool2
I1017 20:49:25.710255  7506 net.cpp:157] Top shape: 64 240 6 6 (552960)
I1017 20:49:25.710256  7506 net.cpp:165] Memory required for data: 88917504
I1017 20:49:25.710258  7506 layer_factory.hpp:77] Creating layer drop2
I1017 20:49:25.710263  7506 net.cpp:100] Creating Layer drop2
I1017 20:49:25.710263  7506 net.cpp:434] drop2 <- pool2
I1017 20:49:25.710266  7506 net.cpp:408] drop2 -> drop2
I1017 20:49:25.710286  7506 net.cpp:150] Setting up drop2
I1017 20:49:25.710301  7506 net.cpp:157] Top shape: 64 240 6 6 (552960)
I1017 20:49:25.710302  7506 net.cpp:165] Memory required for data: 91129344
I1017 20:49:25.710304  7506 layer_factory.hpp:77] Creating layer relu2
I1017 20:49:25.710307  7506 net.cpp:100] Creating Layer relu2
I1017 20:49:25.710309  7506 net.cpp:434] relu2 <- drop2
I1017 20:49:25.710314  7506 net.cpp:408] relu2 -> relu2
I1017 20:49:25.710423  7506 net.cpp:150] Setting up relu2
I1017 20:49:25.710428  7506 net.cpp:157] Top shape: 64 240 6 6 (552960)
I1017 20:49:25.710430  7506 net.cpp:165] Memory required for data: 93341184
I1017 20:49:25.710431  7506 layer_factory.hpp:77] Creating layer conv4
I1017 20:49:25.710436  7506 net.cpp:100] Creating Layer conv4
I1017 20:49:25.710438  7506 net.cpp:434] conv4 <- relu2
I1017 20:49:25.710443  7506 net.cpp:408] conv4 -> conv4
I1017 20:49:25.711266  7506 net.cpp:150] Setting up conv4
I1017 20:49:25.711274  7506 net.cpp:157] Top shape: 64 240 6 6 (552960)
I1017 20:49:25.711277  7506 net.cpp:165] Memory required for data: 95553024
I1017 20:49:25.711280  7506 layer_factory.hpp:77] Creating layer conv5
I1017 20:49:25.711285  7506 net.cpp:100] Creating Layer conv5
I1017 20:49:25.711287  7506 net.cpp:434] conv5 <- conv4
I1017 20:49:25.711290  7506 net.cpp:408] conv5 -> conv5
I1017 20:49:25.713021  7506 net.cpp:150] Setting up conv5
I1017 20:49:25.713029  7506 net.cpp:157] Top shape: 64 260 5 5 (416000)
I1017 20:49:25.713032  7506 net.cpp:165] Memory required for data: 97217024
I1017 20:49:25.713037  7506 layer_factory.hpp:77] Creating layer pool3
I1017 20:49:25.713042  7506 net.cpp:100] Creating Layer pool3
I1017 20:49:25.713043  7506 net.cpp:434] pool3 <- conv5
I1017 20:49:25.713047  7506 net.cpp:408] pool3 -> pool3
I1017 20:49:25.713070  7506 net.cpp:150] Setting up pool3
I1017 20:49:25.713074  7506 net.cpp:157] Top shape: 64 260 3 3 (149760)
I1017 20:49:25.713076  7506 net.cpp:165] Memory required for data: 97816064
I1017 20:49:25.713078  7506 layer_factory.hpp:77] Creating layer drop3
I1017 20:49:25.713081  7506 net.cpp:100] Creating Layer drop3
I1017 20:49:25.713083  7506 net.cpp:434] drop3 <- pool3
I1017 20:49:25.713086  7506 net.cpp:408] drop3 -> drop3
I1017 20:49:25.713106  7506 net.cpp:150] Setting up drop3
I1017 20:49:25.713109  7506 net.cpp:157] Top shape: 64 260 3 3 (149760)
I1017 20:49:25.713111  7506 net.cpp:165] Memory required for data: 98415104
I1017 20:49:25.713114  7506 layer_factory.hpp:77] Creating layer relu3
I1017 20:49:25.713117  7506 net.cpp:100] Creating Layer relu3
I1017 20:49:25.713119  7506 net.cpp:434] relu3 <- drop3
I1017 20:49:25.713122  7506 net.cpp:408] relu3 -> relu3
I1017 20:49:25.713232  7506 net.cpp:150] Setting up relu3
I1017 20:49:25.713238  7506 net.cpp:157] Top shape: 64 260 3 3 (149760)
I1017 20:49:25.713238  7506 net.cpp:165] Memory required for data: 99014144
I1017 20:49:25.713240  7506 layer_factory.hpp:77] Creating layer conv6
I1017 20:49:25.713246  7506 net.cpp:100] Creating Layer conv6
I1017 20:49:25.713248  7506 net.cpp:434] conv6 <- relu3
I1017 20:49:25.713251  7506 net.cpp:408] conv6 -> conv6
I1017 20:49:25.714354  7506 net.cpp:150] Setting up conv6
I1017 20:49:25.714362  7506 net.cpp:157] Top shape: 64 260 3 3 (149760)
I1017 20:49:25.714365  7506 net.cpp:165] Memory required for data: 99613184
I1017 20:49:25.714367  7506 layer_factory.hpp:77] Creating layer conv7
I1017 20:49:25.714373  7506 net.cpp:100] Creating Layer conv7
I1017 20:49:25.714375  7506 net.cpp:434] conv7 <- conv6
I1017 20:49:25.714378  7506 net.cpp:408] conv7 -> conv7
I1017 20:49:25.716275  7506 net.cpp:150] Setting up conv7
I1017 20:49:25.716284  7506 net.cpp:157] Top shape: 64 280 2 2 (71680)
I1017 20:49:25.716286  7506 net.cpp:165] Memory required for data: 99899904
I1017 20:49:25.716290  7506 layer_factory.hpp:77] Creating layer pool4
I1017 20:49:25.716294  7506 net.cpp:100] Creating Layer pool4
I1017 20:49:25.716296  7506 net.cpp:434] pool4 <- conv7
I1017 20:49:25.716300  7506 net.cpp:408] pool4 -> pool4
I1017 20:49:25.716322  7506 net.cpp:150] Setting up pool4
I1017 20:49:25.716327  7506 net.cpp:157] Top shape: 64 280 1 1 (17920)
I1017 20:49:25.716338  7506 net.cpp:165] Memory required for data: 99971584
I1017 20:49:25.716341  7506 layer_factory.hpp:77] Creating layer drop4
I1017 20:49:25.716344  7506 net.cpp:100] Creating Layer drop4
I1017 20:49:25.716346  7506 net.cpp:434] drop4 <- pool4
I1017 20:49:25.716351  7506 net.cpp:408] drop4 -> drop4
I1017 20:49:25.716372  7506 net.cpp:150] Setting up drop4
I1017 20:49:25.716377  7506 net.cpp:157] Top shape: 64 280 1 1 (17920)
I1017 20:49:25.716378  7506 net.cpp:165] Memory required for data: 100043264
I1017 20:49:25.716380  7506 layer_factory.hpp:77] Creating layer relu4
I1017 20:49:25.716383  7506 net.cpp:100] Creating Layer relu4
I1017 20:49:25.716384  7506 net.cpp:434] relu4 <- drop4
I1017 20:49:25.716388  7506 net.cpp:408] relu4 -> relu4
I1017 20:49:25.716497  7506 net.cpp:150] Setting up relu4
I1017 20:49:25.716502  7506 net.cpp:157] Top shape: 64 280 1 1 (17920)
I1017 20:49:25.716505  7506 net.cpp:165] Memory required for data: 100114944
I1017 20:49:25.716506  7506 layer_factory.hpp:77] Creating layer conv8
I1017 20:49:25.716511  7506 net.cpp:100] Creating Layer conv8
I1017 20:49:25.716512  7506 net.cpp:434] conv8 <- relu4
I1017 20:49:25.716516  7506 net.cpp:408] conv8 -> conv8
I1017 20:49:25.717409  7506 net.cpp:150] Setting up conv8
I1017 20:49:25.717417  7506 net.cpp:157] Top shape: 64 280 1 1 (17920)
I1017 20:49:25.717419  7506 net.cpp:165] Memory required for data: 100186624
I1017 20:49:25.717423  7506 layer_factory.hpp:77] Creating layer pool5
I1017 20:49:25.717427  7506 net.cpp:100] Creating Layer pool5
I1017 20:49:25.717428  7506 net.cpp:434] pool5 <- conv8
I1017 20:49:25.717432  7506 net.cpp:408] pool5 -> pool5
I1017 20:49:25.717455  7506 net.cpp:150] Setting up pool5
I1017 20:49:25.717458  7506 net.cpp:157] Top shape: 64 280 1 1 (17920)
I1017 20:49:25.717460  7506 net.cpp:165] Memory required for data: 100258304
I1017 20:49:25.717463  7506 layer_factory.hpp:77] Creating layer drop5
I1017 20:49:25.717465  7506 net.cpp:100] Creating Layer drop5
I1017 20:49:25.717468  7506 net.cpp:434] drop5 <- pool5
I1017 20:49:25.717470  7506 net.cpp:408] drop5 -> drop5
I1017 20:49:25.717491  7506 net.cpp:150] Setting up drop5
I1017 20:49:25.717494  7506 net.cpp:157] Top shape: 64 280 1 1 (17920)
I1017 20:49:25.717495  7506 net.cpp:165] Memory required for data: 100329984
I1017 20:49:25.717497  7506 layer_factory.hpp:77] Creating layer relu5
I1017 20:49:25.717500  7506 net.cpp:100] Creating Layer relu5
I1017 20:49:25.717501  7506 net.cpp:434] relu5 <- drop5
I1017 20:49:25.717504  7506 net.cpp:408] relu5 -> relu5
I1017 20:49:25.717703  7506 net.cpp:150] Setting up relu5
I1017 20:49:25.717710  7506 net.cpp:157] Top shape: 64 280 1 1 (17920)
I1017 20:49:25.717712  7506 net.cpp:165] Memory required for data: 100401664
I1017 20:49:25.717715  7506 layer_factory.hpp:77] Creating layer conv10
I1017 20:49:25.717720  7506 net.cpp:100] Creating Layer conv10
I1017 20:49:25.717721  7506 net.cpp:434] conv10 <- relu5
I1017 20:49:25.717725  7506 net.cpp:408] conv10 -> conv10
I1017 20:49:25.718776  7506 net.cpp:150] Setting up conv10
I1017 20:49:25.718787  7506 net.cpp:157] Top shape: 64 300 1 1 (19200)
I1017 20:49:25.718791  7506 net.cpp:165] Memory required for data: 100478464
I1017 20:49:25.718797  7506 layer_factory.hpp:77] Creating layer pool6
I1017 20:49:25.718801  7506 net.cpp:100] Creating Layer pool6
I1017 20:49:25.718804  7506 net.cpp:434] pool6 <- conv10
I1017 20:49:25.718807  7506 net.cpp:408] pool6 -> pool6
I1017 20:49:25.718835  7506 net.cpp:150] Setting up pool6
I1017 20:49:25.718840  7506 net.cpp:157] Top shape: 64 300 1 1 (19200)
I1017 20:49:25.718842  7506 net.cpp:165] Memory required for data: 100555264
I1017 20:49:25.718843  7506 layer_factory.hpp:77] Creating layer drop6
I1017 20:49:25.718847  7506 net.cpp:100] Creating Layer drop6
I1017 20:49:25.718848  7506 net.cpp:434] drop6 <- pool6
I1017 20:49:25.718852  7506 net.cpp:408] drop6 -> drop6
I1017 20:49:25.718878  7506 net.cpp:150] Setting up drop6
I1017 20:49:25.718881  7506 net.cpp:157] Top shape: 64 300 1 1 (19200)
I1017 20:49:25.718891  7506 net.cpp:165] Memory required for data: 100632064
I1017 20:49:25.718894  7506 layer_factory.hpp:77] Creating layer relu6
I1017 20:49:25.718897  7506 net.cpp:100] Creating Layer relu6
I1017 20:49:25.718899  7506 net.cpp:434] relu6 <- drop6
I1017 20:49:25.718901  7506 net.cpp:408] relu6 -> relu6
I1017 20:49:25.719049  7506 net.cpp:150] Setting up relu6
I1017 20:49:25.719055  7506 net.cpp:157] Top shape: 64 300 1 1 (19200)
I1017 20:49:25.719058  7506 net.cpp:165] Memory required for data: 100708864
I1017 20:49:25.719059  7506 layer_factory.hpp:77] Creating layer conv11
I1017 20:49:25.719065  7506 net.cpp:100] Creating Layer conv11
I1017 20:49:25.719068  7506 net.cpp:434] conv11 <- relu6
I1017 20:49:25.719070  7506 net.cpp:408] conv11 -> conv11
I1017 20:49:25.719852  7506 net.cpp:150] Setting up conv11
I1017 20:49:25.719861  7506 net.cpp:157] Top shape: 64 100 1 1 (6400)
I1017 20:49:25.719862  7506 net.cpp:165] Memory required for data: 100734464
I1017 20:49:25.719866  7506 layer_factory.hpp:77] Creating layer pool7
I1017 20:49:25.719869  7506 net.cpp:100] Creating Layer pool7
I1017 20:49:25.719872  7506 net.cpp:434] pool7 <- conv11
I1017 20:49:25.719877  7506 net.cpp:408] pool7 -> pool7
I1017 20:49:25.719900  7506 net.cpp:150] Setting up pool7
I1017 20:49:25.719904  7506 net.cpp:157] Top shape: 64 100 1 1 (6400)
I1017 20:49:25.719907  7506 net.cpp:165] Memory required for data: 100760064
I1017 20:49:25.719908  7506 layer_factory.hpp:77] Creating layer drop7
I1017 20:49:25.719915  7506 net.cpp:100] Creating Layer drop7
I1017 20:49:25.719918  7506 net.cpp:434] drop7 <- pool7
I1017 20:49:25.719920  7506 net.cpp:408] drop7 -> drop7
I1017 20:49:25.719943  7506 net.cpp:150] Setting up drop7
I1017 20:49:25.719945  7506 net.cpp:157] Top shape: 64 100 1 1 (6400)
I1017 20:49:25.719947  7506 net.cpp:165] Memory required for data: 100785664
I1017 20:49:25.719949  7506 layer_factory.hpp:77] Creating layer relu7
I1017 20:49:25.719951  7506 net.cpp:100] Creating Layer relu7
I1017 20:49:25.719954  7506 net.cpp:434] relu7 <- drop7
I1017 20:49:25.719956  7506 net.cpp:408] relu7 -> relu7
I1017 20:49:25.720087  7506 net.cpp:150] Setting up relu7
I1017 20:49:25.720093  7506 net.cpp:157] Top shape: 64 100 1 1 (6400)
I1017 20:49:25.720094  7506 net.cpp:165] Memory required for data: 100811264
I1017 20:49:25.720096  7506 layer_factory.hpp:77] Creating layer pool
I1017 20:49:25.720101  7506 net.cpp:100] Creating Layer pool
I1017 20:49:25.720103  7506 net.cpp:434] pool <- relu7
I1017 20:49:25.720106  7506 net.cpp:408] pool -> pool
I1017 20:49:25.720350  7506 net.cpp:150] Setting up pool
I1017 20:49:25.720357  7506 net.cpp:157] Top shape: 64 100 1 1 (6400)
I1017 20:49:25.720360  7506 net.cpp:165] Memory required for data: 100836864
I1017 20:49:25.720361  7506 layer_factory.hpp:77] Creating layer flatten
I1017 20:49:25.720366  7506 net.cpp:100] Creating Layer flatten
I1017 20:49:25.720367  7506 net.cpp:434] flatten <- pool
I1017 20:49:25.720371  7506 net.cpp:408] flatten -> flatten
I1017 20:49:25.720386  7506 net.cpp:150] Setting up flatten
I1017 20:49:25.720389  7506 net.cpp:157] Top shape: 64 100 (6400)
I1017 20:49:25.720391  7506 net.cpp:165] Memory required for data: 100862464
I1017 20:49:25.720393  7506 layer_factory.hpp:77] Creating layer flatten_flatten_0_split
I1017 20:49:25.720397  7506 net.cpp:100] Creating Layer flatten_flatten_0_split
I1017 20:49:25.720399  7506 net.cpp:434] flatten_flatten_0_split <- flatten
I1017 20:49:25.720403  7506 net.cpp:408] flatten_flatten_0_split -> flatten_flatten_0_split_0
I1017 20:49:25.720407  7506 net.cpp:408] flatten_flatten_0_split -> flatten_flatten_0_split_1
I1017 20:49:25.720432  7506 net.cpp:150] Setting up flatten_flatten_0_split
I1017 20:49:25.720434  7506 net.cpp:157] Top shape: 64 100 (6400)
I1017 20:49:25.720438  7506 net.cpp:157] Top shape: 64 100 (6400)
I1017 20:49:25.720439  7506 net.cpp:165] Memory required for data: 100913664
I1017 20:49:25.720440  7506 layer_factory.hpp:77] Creating layer ip_c
I1017 20:49:25.720444  7506 net.cpp:100] Creating Layer ip_c
I1017 20:49:25.720454  7506 net.cpp:434] ip_c <- flatten_flatten_0_split_0
I1017 20:49:25.720458  7506 net.cpp:408] ip_c -> ip_c
I1017 20:49:25.720791  7506 net.cpp:150] Setting up ip_c
I1017 20:49:25.720798  7506 net.cpp:157] Top shape: 64 20 (1280)
I1017 20:49:25.720800  7506 net.cpp:165] Memory required for data: 100918784
I1017 20:49:25.720804  7506 layer_factory.hpp:77] Creating layer ip_c_ip_c_0_split
I1017 20:49:25.720808  7506 net.cpp:100] Creating Layer ip_c_ip_c_0_split
I1017 20:49:25.720810  7506 net.cpp:434] ip_c_ip_c_0_split <- ip_c
I1017 20:49:25.720815  7506 net.cpp:408] ip_c_ip_c_0_split -> ip_c_ip_c_0_split_0
I1017 20:49:25.720819  7506 net.cpp:408] ip_c_ip_c_0_split -> ip_c_ip_c_0_split_1
I1017 20:49:25.720841  7506 net.cpp:150] Setting up ip_c_ip_c_0_split
I1017 20:49:25.720845  7506 net.cpp:157] Top shape: 64 20 (1280)
I1017 20:49:25.720849  7506 net.cpp:157] Top shape: 64 20 (1280)
I1017 20:49:25.720849  7506 net.cpp:165] Memory required for data: 100929024
I1017 20:49:25.720851  7506 layer_factory.hpp:77] Creating layer accuracy_f
I1017 20:49:25.720855  7506 net.cpp:100] Creating Layer accuracy_f
I1017 20:49:25.720859  7506 net.cpp:434] accuracy_f <- ip_c_ip_c_0_split_0
I1017 20:49:25.720861  7506 net.cpp:434] accuracy_f <- label_coarse_data_1_split_0
I1017 20:49:25.720865  7506 net.cpp:408] accuracy_f -> accuracy_f
…
I1017 20:49:25.721715  7506 net.cpp:283] Network initialization done.
I1017 20:49:25.721909  7506 solver.cpp:181] Creating test net (#0) specified by test_net file: /home/adam/Honours/Honours-Project/cifar-100_pooling/max/relu/poolcnn_relu_test.prototxt
I1017 20:49:25.722025  7506 net.cpp:58] Initializing net from parameters: 
state {
  phase: TEST
}
layer {
  name: "data"
  type: "HDF5Data"
  top: "data"
  top: "label_coarse"
  top: "label_fine"
  hdf5_data_param {
    source: "../../../../data/cifar-100/cifar_100_caffe_hdf5/test.txt"
    batch_size: 100
  }
}
layer {
  name: "conv1"
  type: "Convolution"
  bottom: "data"
  top: "conv1"
  convolution_param {
    num_output: 192
    kernel_size: 5
    weight_filler {
      type: "xavier"
    }
  }
}
layer {
  name: "pool1"
  type: "Pooling"
  bottom: "conv1"
  top: "pool1"
  pooling_param {
    pool: MAX
    kernel_size: 2
    stride: 2
  }
}
layer {
  name: "drop1"
  type: "Dropout"
  bottom: "pool1"
  top: "drop1"
  dropout_param {
    dropout_ratio: 0
  }
}
layer {
  name: "relu1"
  type: "ReLU"
  bottom: "drop1"
  top: "relu1"
}
layer {
  name: "conv2"
  type: "Convolution"
  bottom: "relu1"
  top: "conv2"
  convolution_param {
    num_output: 192
    kernel_size: 1
    weight_filler {
      type: "xavier"
    }
  }
}
layer {
  name: "conv3"
  type: "Convolution"
  bottom: "conv2"
  top: "conv3"
  convolution_param {
    num_output: 240
    kernel_size: 3
    weight_filler {
      type: "xavier"
    }
  }
}
layer {
  name: "pool2"
  type: "Pooling"
  bottom: "conv3"
  top: "pool2"
  pooling_param {
    pool: MAX
    kernel_size: 2
    stride: 2
  }
}
layer {
  name: "drop2"
  type: "Dropout"
  bottom: "pool2"
  top: "drop2"
  dropout_param {
    dropout_ratio: 0.1
  }
}
layer {
  name: "relu2"
  type: "ReLU"
  bottom: "drop2"
  top: "relu2"
}
layer {
  name: "conv4"
  type: "Convolution"
  bottom: "relu2"
  top: "conv4"
  convolution_param {
    num_output: 240
    kernel_size: 1
    weight_filler {
      type: "xavier"
    }
  }
}
layer {
  name: "conv5"
  type: "Convolution"
  bottom: "conv4"
  top: "conv5"
  convolution_param {
    num_output: 260
    kernel_size: 2
    weight_filler {
      type: "xavier"
    }
  }
}
layer {
  name: "pool3"
  type: "Pooling"
  bottom: "conv5"
  top: "pool3"
  pooling_param {
    pool: MAX
    kernel_size: 2
    stride: 2
  }
}
layer {
  name: "drop3"
  type: "Dropout"
  bottom: "pool3"
  top: "drop3"
  dropout_param {
    dropout_ratio: 0.2
  }
}
layer {
  name: "relu3"
  type: "ReLU"
  bottom: "drop3"
  top: "relu3"
}
layer {
  name: "conv6"
  type: "Convolution"
  bottom: "relu3"
  top: "conv6"
  convolution_param {
    num_output: 260
    kernel_size: 1
    weight_filler {
      type: "xavier"
    }
  }
}
layer {
  name: "conv7"
  type: "Convolution"
  bottom: "conv6"
  top: "conv7"
  convolution_param {
    num_output: 280
    kernel_size: 2
    weight_filler {
      type: "xavier"
    }
  }
}
layer {
  name: "pool4"
  type: "Pooling"
  bottom: "conv7"
  top: "pool4"
  pooling_param {
    pool: MAX
    kernel_size: 2
    stride: 2
  }
}
layer {
  name: "drop4"
  type: "Dropout"
  bottom: "pool4"
  top: "drop4"
  dropout_param {
    dropout_ratio: 0.3
  }
}
layer {
  name: "relu4"
  type: "ReLU"
  bottom: "drop4"
  top: "relu4"
}
layer {
  name: "conv8"
  type: "Convolution"
  bottom: "relu4"
  top: "conv8"
  convolution_param {
    num_output: 280
    kernel_size: 1
    weight_filler {
      type: "xavier"
    }
  }
}
layer {
  name: "pool5"
  type: "Pooling"
  bottom: "conv8"
  top: "pool5"
  pooling_param {
    pool: MAX
    kernel_size: 2
    stride: 2
  }
}
layer {
  name: "drop5"
  type: "Dropout"
  bottom: "pool5"
  top: "drop5"
  dropout_param {
    dropout_ratio: 0.4
  }
}
layer {
  name: "relu5"
  type: "ReLU"
  bottom: "drop5"
  top: "relu5"
}
layer {
  name: "conv10"
  type: "Convolution"
  bottom: "relu5"
  top: "conv10"
  convolution_param {
    num_output: 300
    kernel_size: 1
    weight_filler {
      type: "xavier"
    }
  }
}
layer {
  name: "pool6"
  type: "Pooling"
  bottom: "conv10"
  top: "pool6"
  pooling_param {
    pool: MAX
    kernel_size: 2
    stride: 2
  }
}
layer {
  name: "drop6"
  type: "Dropout"
  bottom: "pool6"
  top: "drop6"
  dropout_param {
    dropout_ratio: 0.5
  }
}
layer {
  name: "relu6"
  type: "ReLU"
  bottom: "drop6"
  top: "relu6"
}
layer {
  name: "conv11"
  type: "Convolution"
  bottom: "relu6"
  top: "conv11"
  convolution_param {
    num_output: 100
    kernel_size: 1
    weight_filler {
      type: "xavier"
    }
  }
}
layer {
  name: "pool7"
  type: "Pooling"
  bottom: "conv11"
  top: "pool7"
  pooling_param {
    pool: MAX
    kernel_size: 2
    stride: 2
  }
}
layer {
  name: "drop7"
  type: "Dropout"
  bottom: "pool7"
  top: "drop7"
  dropout_param {
    dropout_ratio: 0
  }
}
layer {
  name: "relu7"
  type: "ReLU"
  bottom: "drop7"
  top: "relu7"
}
layer {
  name: "pool"
  type: "Pooling"
  bottom: "relu7"
  top: "pool"
  pooling_param {
    pool: AVE
    global_pooling: true
  }
}
layer {
  name: "flatten"
  type: "Flatten"
  bottom: "pool"
  top: "flatten"
}
layer {
  name: "ip_c"
  type: "InnerProduct"
  bottom: "flatten"
  top: "ip_c"
  inner_product_param {
    num_output: 20
    weight_filler {
      type: "xavier"
    }
  }
}
layer {
  name: "accuracy_f"
  type: "Accuracy"
  bottom: "ip_c"
  bottom: "label_coarse"
  top: "accuracy_f"
}
layer {
  name: "loss_c"
  type: "SoftmaxWithLoss"
  bottom: "ip_c"
  bottom: "label_coarse"
  top: "loss_c"
}
layer {
  name: "ip_f"
  type: "InnerProduct"
  bottom: "flatten"
  top: "ip_f"
  inner_product_param {
    num_output: 100
    weight_filler {
      type: "xavier"
    }
  }
}
layer {
  name: "accuracy"
  type: "Accuracy"
  bottom: "ip_f"
  bottom: "label_fine"
  top: "accuracy"
}
layer {
  name: "loss_f"
  type: "SoftmaxWithLoss"
  bottom: "ip_f"
  bottom: "label_fine"
  top: "loss_f"
}
I1017 20:49:25.722117  7506 layer_factory.hpp:77] Creating layer data
I1017 20:49:25.722122  7506 net.cpp:100] Creating Layer data
I1017 20:49:25.722126  7506 net.cpp:408] data -> data
I1017 20:49:25.722129  7506 net.cpp:408] data -> label_coarse
I1017 20:49:25.722132  7506 net.cpp:408] data -> label_fine
I1017 20:49:25.722136  7506 hdf5_data_layer.cpp:79] Loading list of HDF5 filenames from: ../../../../data/cifar-100/cifar_100_caffe_hdf5/test.txt
I1017 20:49:25.722694  7506 hdf5_data_layer.cpp:93] Number of HDF5 files: 1
I1017 20:49:26.040828  7506 net.cpp:150] Setting up data
I1017 20:49:26.040855  7506 net.cpp:157] Top shape: 100 3 32 32 (307200)
I1017 20:49:26.040859  7506 net.cpp:157] Top shape: 100 (100)
I1017 20:49:26.040861  7506 net.cpp:157] Top shape: 100 (100)
I1017 20:49:26.040863  7506 net.cpp:165] Memory required for data: 1229600
I1017 20:49:26.040869  7506 layer_factory.hpp:77] Creating layer label_coarse_data_1_split
I1017 20:49:26.040879  7506 net.cpp:100] Creating Layer label_coarse_data_1_split
I1017 20:49:26.040882  7506 net.cpp:434] label_coarse_data_1_split <- label_coarse
I1017 20:49:26.040887  7506 net.cpp:408] label_coarse_data_1_split -> label_coarse_data_1_split_0
I1017 20:49:26.040895  7506 net.cpp:408] label_coarse_data_1_split -> label_coarse_data_1_split_1
I1017 20:49:26.040920  7506 net.cpp:150] Setting up label_coarse_data_1_split
I1017 20:49:26.040925  7506 net.cpp:157] Top shape: 100 (100)
I1017 20:49:26.040927  7506 net.cpp:157] Top shape: 100 (100)
I1017 20:49:26.040928  7506 net.cpp:165] Memory required for data: 1230400
I1017 20:49:26.040930  7506 layer_factory.hpp:77] Creating layer label_fine_data_2_split
I1017 20:49:26.040935  7506 net.cpp:100] Creating Layer label_fine_data_2_split
I1017 20:49:26.040937  7506 net.cpp:434] label_fine_data_2_split <- label_fine
I1017 20:49:26.040940  7506 net.cpp:408] label_fine_data_2_split -> label_fine_data_2_split_0
I1017 20:49:26.040944  7506 net.cpp:408] label_fine_data_2_split -> label_fine_data_2_split_1
I1017 20:49:26.040966  7506 net.cpp:150] Setting up label_fine_data_2_split
I1017 20:49:26.040979  7506 net.cpp:157] Top shape: 100 (100)
I1017 20:49:26.040982  7506 net.cpp:157] Top shape: 100 (100)
I1017 20:49:26.040983  7506 net.cpp:165] Memory required for data: 1231200
I1017 20:49:26.040985  7506 layer_factory.hpp:77] Creating layer conv1
I1017 20:49:26.040992  7506 net.cpp:100] Creating Layer conv1
I1017 20:49:26.040994  7506 net.cpp:434] conv1 <- data
I1017 20:49:26.040997  7506 net.cpp:408] conv1 -> conv1
I1017 20:49:26.041836  7506 net.cpp:150] Setting up conv1
I1017 20:49:26.041846  7506 net.cpp:157] Top shape: 100 192 28 28 (15052800)
I1017 20:49:26.041848  7506 net.cpp:165] Memory required for data: 61442400
I1017 20:49:26.041856  7506 layer_factory.hpp:77] Creating layer pool1
I1017 20:49:26.041862  7506 net.cpp:100] Creating Layer pool1
I1017 20:49:26.041864  7506 net.cpp:434] pool1 <- conv1
I1017 20:49:26.041867  7506 net.cpp:408] pool1 -> pool1
I1017 20:49:26.041894  7506 net.cpp:150] Setting up pool1
I1017 20:49:26.041899  7506 net.cpp:157] Top shape: 100 192 14 14 (3763200)
I1017 20:49:26.041903  7506 net.cpp:165] Memory required for data: 76495200
I1017 20:49:26.041904  7506 layer_factory.hpp:77] Creating layer drop1
I1017 20:49:26.041908  7506 net.cpp:100] Creating Layer drop1
I1017 20:49:26.041911  7506 net.cpp:434] drop1 <- pool1
I1017 20:49:26.041914  7506 net.cpp:408] drop1 -> drop1
I1017 20:49:26.041936  7506 net.cpp:150] Setting up drop1
I1017 20:49:26.041940  7506 net.cpp:157] Top shape: 100 192 14 14 (3763200)
I1017 20:49:26.041944  7506 net.cpp:165] Memory required for data: 91548000
I1017 20:49:26.041944  7506 layer_factory.hpp:77] Creating layer relu1
I1017 20:49:26.041947  7506 net.cpp:100] Creating Layer relu1
I1017 20:49:26.041949  7506 net.cpp:434] relu1 <- drop1
I1017 20:49:26.041954  7506 net.cpp:408] relu1 -> relu1
I1017 20:49:26.042069  7506 net.cpp:150] Setting up relu1
I1017 20:49:26.042074  7506 net.cpp:157] Top shape: 100 192 14 14 (3763200)
I1017 20:49:26.042076  7506 net.cpp:165] Memory required for data: 106600800
I1017 20:49:26.042078  7506 layer_factory.hpp:77] Creating layer conv2
I1017 20:49:26.042083  7506 net.cpp:100] Creating Layer conv2
I1017 20:49:26.042085  7506 net.cpp:434] conv2 <- relu1
I1017 20:49:26.042088  7506 net.cpp:408] conv2 -> conv2
I1017 20:49:26.042850  7506 net.cpp:150] Setting up conv2
I1017 20:49:26.042857  7506 net.cpp:157] Top shape: 100 192 14 14 (3763200)
I1017 20:49:26.042860  7506 net.cpp:165] Memory required for data: 121653600
I1017 20:49:26.042865  7506 layer_factory.hpp:77] Creating layer conv3
I1017 20:49:26.042871  7506 net.cpp:100] Creating Layer conv3
I1017 20:49:26.042875  7506 net.cpp:434] conv3 <- conv2
I1017 20:49:26.042877  7506 net.cpp:408] conv3 -> conv3
I1017 20:49:26.045312  7506 net.cpp:150] Setting up conv3
I1017 20:49:26.045321  7506 net.cpp:157] Top shape: 100 240 12 12 (3456000)
I1017 20:49:26.045325  7506 net.cpp:165] Memory required for data: 135477600
I1017 20:49:26.045330  7506 layer_factory.hpp:77] Creating layer pool2
I1017 20:49:26.045334  7506 net.cpp:100] Creating Layer pool2
I1017 20:49:26.045336  7506 net.cpp:434] pool2 <- conv3
I1017 20:49:26.045339  7506 net.cpp:408] pool2 -> pool2
I1017 20:49:26.045367  7506 net.cpp:150] Setting up pool2
I1017 20:49:26.045370  7506 net.cpp:157] Top shape: 100 240 6 6 (864000)
I1017 20:49:26.045373  7506 net.cpp:165] Memory required for data: 138933600
I1017 20:49:26.045374  7506 layer_factory.hpp:77] Creating layer drop2
I1017 20:49:26.045378  7506 net.cpp:100] Creating Layer drop2
I1017 20:49:26.045380  7506 net.cpp:434] drop2 <- pool2
I1017 20:49:26.045383  7506 net.cpp:408] drop2 -> drop2
I1017 20:49:26.045405  7506 net.cpp:150] Setting up drop2
I1017 20:49:26.045409  7506 net.cpp:157] Top shape: 100 240 6 6 (864000)
I1017 20:49:26.045411  7506 net.cpp:165] Memory required for data: 142389600
I1017 20:49:26.045413  7506 layer_factory.hpp:77] Creating layer relu2
I1017 20:49:26.045415  7506 net.cpp:100] Creating Layer relu2
I1017 20:49:26.045418  7506 net.cpp:434] relu2 <- drop2
I1017 20:49:26.045420  7506 net.cpp:408] relu2 -> relu2
I1017 20:49:26.045619  7506 net.cpp:150] Setting up relu2
I1017 20:49:26.045626  7506 net.cpp:157] Top shape: 100 240 6 6 (864000)
I1017 20:49:26.045629  7506 net.cpp:165] Memory required for data: 145845600
I1017 20:49:26.045630  7506 layer_factory.hpp:77] Creating layer conv4
I1017 20:49:26.045635  7506 net.cpp:100] Creating Layer conv4
I1017 20:49:26.045639  7506 net.cpp:434] conv4 <- relu2
I1017 20:49:26.045641  7506 net.cpp:408] conv4 -> conv4
I1017 20:49:26.046653  7506 net.cpp:150] Setting up conv4
I1017 20:49:26.046661  7506 net.cpp:157] Top shape: 100 240 6 6 (864000)
I1017 20:49:26.046663  7506 net.cpp:165] Memory required for data: 149301600
I1017 20:49:26.046667  7506 layer_factory.hpp:77] Creating layer conv5
I1017 20:49:26.046672  7506 net.cpp:100] Creating Layer conv5
I1017 20:49:26.046675  7506 net.cpp:434] conv5 <- conv4
I1017 20:49:26.046679  7506 net.cpp:408] conv5 -> conv5
I1017 20:49:26.048424  7506 net.cpp:150] Setting up conv5
I1017 20:49:26.048431  7506 net.cpp:157] Top shape: 100 260 5 5 (650000)
I1017 20:49:26.048434  7506 net.cpp:165] Memory required for data: 151901600
I1017 20:49:26.048440  7506 layer_factory.hpp:77] Creating layer pool3
I1017 20:49:26.048445  7506 net.cpp:100] Creating Layer pool3
I1017 20:49:26.048447  7506 net.cpp:434] pool3 <- conv5
I1017 20:49:26.048451  7506 net.cpp:408] pool3 -> pool3
I1017 20:49:26.048478  7506 net.cpp:150] Setting up pool3
I1017 20:49:26.048482  7506 net.cpp:157] Top shape: 100 260 3 3 (234000)
I1017 20:49:26.048485  7506 net.cpp:165] Memory required for data: 152837600
I1017 20:49:26.048486  7506 layer_factory.hpp:77] Creating layer drop3
I1017 20:49:26.048490  7506 net.cpp:100] Creating Layer drop3
I1017 20:49:26.048491  7506 net.cpp:434] drop3 <- pool3
I1017 20:49:26.048494  7506 net.cpp:408] drop3 -> drop3
I1017 20:49:26.048516  7506 net.cpp:150] Setting up drop3
I1017 20:49:26.048521  7506 net.cpp:157] Top shape: 100 260 3 3 (234000)
I1017 20:49:26.048522  7506 net.cpp:165] Memory required for data: 153773600
I1017 20:49:26.048524  7506 layer_factory.hpp:77] Creating layer relu3
I1017 20:49:26.048529  7506 net.cpp:100] Creating Layer relu3
I1017 20:49:26.048532  7506 net.cpp:434] relu3 <- drop3
I1017 20:49:26.048534  7506 net.cpp:408] relu3 -> relu3
I1017 20:49:26.048734  7506 net.cpp:150] Setting up relu3
I1017 20:49:26.048741  7506 net.cpp:157] Top shape: 100 260 3 3 (234000)
I1017 20:49:26.048744  7506 net.cpp:165] Memory required for data: 154709600
I1017 20:49:26.048746  7506 layer_factory.hpp:77] Creating layer conv6
I1017 20:49:26.048751  7506 net.cpp:100] Creating Layer conv6
I1017 20:49:26.048754  7506 net.cpp:434] conv6 <- relu3
I1017 20:49:26.048758  7506 net.cpp:408] conv6 -> conv6
I1017 20:49:26.049798  7506 net.cpp:150] Setting up conv6
I1017 20:49:26.049806  7506 net.cpp:157] Top shape: 100 260 3 3 (234000)
I1017 20:49:26.049808  7506 net.cpp:165] Memory required for data: 155645600
I1017 20:49:26.049813  7506 layer_factory.hpp:77] Creating layer conv7
I1017 20:49:26.049818  7506 net.cpp:100] Creating Layer conv7
I1017 20:49:26.049821  7506 net.cpp:434] conv7 <- conv6
I1017 20:49:26.049825  7506 net.cpp:408] conv7 -> conv7
I1017 20:49:26.051807  7506 net.cpp:150] Setting up conv7
I1017 20:49:26.051815  7506 net.cpp:157] Top shape: 100 280 2 2 (112000)
I1017 20:49:26.051817  7506 net.cpp:165] Memory required for data: 156093600
I1017 20:49:26.051821  7506 layer_factory.hpp:77] Creating layer pool4
I1017 20:49:26.051826  7506 net.cpp:100] Creating Layer pool4
I1017 20:49:26.051828  7506 net.cpp:434] pool4 <- conv7
I1017 20:49:26.051831  7506 net.cpp:408] pool4 -> pool4
I1017 20:49:26.051857  7506 net.cpp:150] Setting up pool4
I1017 20:49:26.051862  7506 net.cpp:157] Top shape: 100 280 1 1 (28000)
I1017 20:49:26.051863  7506 net.cpp:165] Memory required for data: 156205600
I1017 20:49:26.051865  7506 layer_factory.hpp:77] Creating layer drop4
I1017 20:49:26.051868  7506 net.cpp:100] Creating Layer drop4
I1017 20:49:26.051872  7506 net.cpp:434] drop4 <- pool4
I1017 20:49:26.051874  7506 net.cpp:408] drop4 -> drop4
I1017 20:49:26.051897  7506 net.cpp:150] Setting up drop4
I1017 20:49:26.051908  7506 net.cpp:157] Top shape: 100 280 1 1 (28000)
I1017 20:49:26.051909  7506 net.cpp:165] Memory required for data: 156317600
I1017 20:49:26.051911  7506 layer_factory.hpp:77] Creating layer relu4
I1017 20:49:26.051914  7506 net.cpp:100] Creating Layer relu4
I1017 20:49:26.051918  7506 net.cpp:434] relu4 <- drop4
I1017 20:49:26.051920  7506 net.cpp:408] relu4 -> relu4
I1017 20:49:26.052115  7506 net.cpp:150] Setting up relu4
I1017 20:49:26.052122  7506 net.cpp:157] Top shape: 100 280 1 1 (28000)
I1017 20:49:26.052124  7506 net.cpp:165] Memory required for data: 156429600
I1017 20:49:26.052126  7506 layer_factory.hpp:77] Creating layer conv8
I1017 20:49:26.052132  7506 net.cpp:100] Creating Layer conv8
I1017 20:49:26.052134  7506 net.cpp:434] conv8 <- relu4
I1017 20:49:26.052139  7506 net.cpp:408] conv8 -> conv8
I1017 20:49:26.053046  7506 net.cpp:150] Setting up conv8
I1017 20:49:26.053053  7506 net.cpp:157] Top shape: 100 280 1 1 (28000)
I1017 20:49:26.053056  7506 net.cpp:165] Memory required for data: 156541600
I1017 20:49:26.053061  7506 layer_factory.hpp:77] Creating layer pool5
I1017 20:49:26.053064  7506 net.cpp:100] Creating Layer pool5
I1017 20:49:26.053067  7506 net.cpp:434] pool5 <- conv8
I1017 20:49:26.053071  7506 net.cpp:408] pool5 -> pool5
I1017 20:49:26.053097  7506 net.cpp:150] Setting up pool5
I1017 20:49:26.053102  7506 net.cpp:157] Top shape: 100 280 1 1 (28000)
I1017 20:49:26.053102  7506 net.cpp:165] Memory required for data: 156653600
I1017 20:49:26.053104  7506 layer_factory.hpp:77] Creating layer drop5
I1017 20:49:26.053108  7506 net.cpp:100] Creating Layer drop5
I1017 20:49:26.053109  7506 net.cpp:434] drop5 <- pool5
I1017 20:49:26.053112  7506 net.cpp:408] drop5 -> drop5
I1017 20:49:26.053134  7506 net.cpp:150] Setting up drop5
I1017 20:49:26.053139  7506 net.cpp:157] Top shape: 100 280 1 1 (28000)
I1017 20:49:26.053140  7506 net.cpp:165] Memory required for data: 156765600
I1017 20:49:26.053143  7506 layer_factory.hpp:77] Creating layer relu5
I1017 20:49:26.053145  7506 net.cpp:100] Creating Layer relu5
I1017 20:49:26.053148  7506 net.cpp:434] relu5 <- drop5
I1017 20:49:26.053150  7506 net.cpp:408] relu5 -> relu5
I1017 20:49:26.053261  7506 net.cpp:150] Setting up relu5
I1017 20:49:26.053267  7506 net.cpp:157] Top shape: 100 280 1 1 (28000)
I1017 20:49:26.053269  7506 net.cpp:165] Memory required for data: 156877600
I1017 20:49:26.053272  7506 layer_factory.hpp:77] Creating layer conv10
I1017 20:49:26.053275  7506 net.cpp:100] Creating Layer conv10
I1017 20:49:26.053278  7506 net.cpp:434] conv10 <- relu5
I1017 20:49:26.053282  7506 net.cpp:408] conv10 -> conv10
I1017 20:49:26.054204  7506 net.cpp:150] Setting up conv10
I1017 20:49:26.054213  7506 net.cpp:157] Top shape: 100 300 1 1 (30000)
I1017 20:49:26.054214  7506 net.cpp:165] Memory required for data: 156997600
I1017 20:49:26.054221  7506 layer_factory.hpp:77] Creating layer pool6
I1017 20:49:26.054225  7506 net.cpp:100] Creating Layer pool6
I1017 20:49:26.054227  7506 net.cpp:434] pool6 <- conv10
I1017 20:49:26.054230  7506 net.cpp:408] pool6 -> pool6
I1017 20:49:26.054257  7506 net.cpp:150] Setting up pool6
I1017 20:49:26.054260  7506 net.cpp:157] Top shape: 100 300 1 1 (30000)
I1017 20:49:26.054262  7506 net.cpp:165] Memory required for data: 157117600
I1017 20:49:26.054265  7506 layer_factory.hpp:77] Creating layer drop6
I1017 20:49:26.054267  7506 net.cpp:100] Creating Layer drop6
I1017 20:49:26.054270  7506 net.cpp:434] drop6 <- pool6
I1017 20:49:26.054272  7506 net.cpp:408] drop6 -> drop6
I1017 20:49:26.054296  7506 net.cpp:150] Setting up drop6
I1017 20:49:26.054301  7506 net.cpp:157] Top shape: 100 300 1 1 (30000)
I1017 20:49:26.054304  7506 net.cpp:165] Memory required for data: 157237600
I1017 20:49:26.054306  7506 layer_factory.hpp:77] Creating layer relu6
I1017 20:49:26.054308  7506 net.cpp:100] Creating Layer relu6
I1017 20:49:26.054311  7506 net.cpp:434] relu6 <- drop6
I1017 20:49:26.054313  7506 net.cpp:408] relu6 -> relu6
I1017 20:49:26.054422  7506 net.cpp:150] Setting up relu6
I1017 20:49:26.054433  7506 net.cpp:157] Top shape: 100 300 1 1 (30000)
I1017 20:49:26.054437  7506 net.cpp:165] Memory required for data: 157357600
I1017 20:49:26.054438  7506 layer_factory.hpp:77] Creating layer conv11
I1017 20:49:26.054443  7506 net.cpp:100] Creating Layer conv11
I1017 20:49:26.054446  7506 net.cpp:434] conv11 <- relu6
I1017 20:49:26.054450  7506 net.cpp:408] conv11 -> conv11
I1017 20:49:26.055172  7506 net.cpp:150] Setting up conv11
I1017 20:49:26.055179  7506 net.cpp:157] Top shape: 100 100 1 1 (10000)
I1017 20:49:26.055181  7506 net.cpp:165] Memory required for data: 157397600
I1017 20:49:26.055186  7506 layer_factory.hpp:77] Creating layer pool7
I1017 20:49:26.055189  7506 net.cpp:100] Creating Layer pool7
I1017 20:49:26.055192  7506 net.cpp:434] pool7 <- conv11
I1017 20:49:26.055196  7506 net.cpp:408] pool7 -> pool7
I1017 20:49:26.055220  7506 net.cpp:150] Setting up pool7
I1017 20:49:26.055224  7506 net.cpp:157] Top shape: 100 100 1 1 (10000)
I1017 20:49:26.055227  7506 net.cpp:165] Memory required for data: 157437600
I1017 20:49:26.055227  7506 layer_factory.hpp:77] Creating layer drop7
I1017 20:49:26.055233  7506 net.cpp:100] Creating Layer drop7
I1017 20:49:26.055236  7506 net.cpp:434] drop7 <- pool7
I1017 20:49:26.055239  7506 net.cpp:408] drop7 -> drop7
I1017 20:49:26.055260  7506 net.cpp:150] Setting up drop7
I1017 20:49:26.055264  7506 net.cpp:157] Top shape: 100 100 1 1 (10000)
I1017 20:49:26.055266  7506 net.cpp:165] Memory required for data: 157477600
I1017 20:49:26.055269  7506 layer_factory.hpp:77] Creating layer relu7
I1017 20:49:26.055270  7506 net.cpp:100] Creating Layer relu7
I1017 20:49:26.055274  7506 net.cpp:434] relu7 <- drop7
I1017 20:49:26.055275  7506 net.cpp:408] relu7 -> relu7
I1017 20:49:26.055469  7506 net.cpp:150] Setting up relu7
I1017 20:49:26.055474  7506 net.cpp:157] Top shape: 100 100 1 1 (10000)
I1017 20:49:26.055477  7506 net.cpp:165] Memory required for data: 157517600
I1017 20:49:26.055480  7506 layer_factory.hpp:77] Creating layer pool
I1017 20:49:26.055483  7506 net.cpp:100] Creating Layer pool
I1017 20:49:26.055485  7506 net.cpp:434] pool <- relu7
I1017 20:49:26.055490  7506 net.cpp:408] pool -> pool
I1017 20:49:26.055600  7506 net.cpp:150] Setting up pool
I1017 20:49:26.055605  7506 net.cpp:157] Top shape: 100 100 1 1 (10000)
I1017 20:49:26.055608  7506 net.cpp:165] Memory required for data: 157557600
I1017 20:49:26.055609  7506 layer_factory.hpp:77] Creating layer flatten
I1017 20:49:26.055613  7506 net.cpp:100] Creating Layer flatten
I1017 20:49:26.055614  7506 net.cpp:434] flatten <- pool
I1017 20:49:26.055618  7506 net.cpp:408] flatten -> flatten
I1017 20:49:26.055634  7506 net.cpp:150] Setting up flatten
I1017 20:49:26.055637  7506 net.cpp:157] Top shape: 100 100 (10000)
I1017 20:49:26.055639  7506 net.cpp:165] Memory required for data: 157597600
I1017 20:49:26.055640  7506 layer_factory.hpp:77] Creating layer flatten_flatten_0_split
I1017 20:49:26.055644  7506 net.cpp:100] Creating Layer flatten_flatten_0_split
I1017 20:49:26.055646  7506 net.cpp:434] flatten_flatten_0_split <- flatten
I1017 20:49:26.055649  7506 net.cpp:408] flatten_flatten_0_split -> flatten_flatten_0_split_0
I1017 20:49:26.055654  7506 net.cpp:408] flatten_flatten_0_split -> flatten_flatten_0_split_1
I1017 20:49:26.055677  7506 net.cpp:150] Setting up flatten_flatten_0_split
I1017 20:49:26.055680  7506 net.cpp:157] Top shape: 100 100 (10000)
I1017 20:49:26.055682  7506 net.cpp:157] Top shape: 100 100 (10000)
I1017 20:49:26.055685  7506 net.cpp:165] Memory required for data: 157677600
I1017 20:49:26.055686  7506 layer_factory.hpp:77] Creating layer ip_c
I1017 20:49:26.055691  7506 net.cpp:100] Creating Layer ip_c
I1017 20:49:26.055692  7506 net.cpp:434] ip_c <- flatten_flatten_0_split_0
I1017 20:49:26.055696  7506 net.cpp:408] ip_c -> ip_c
I1017 20:49:26.055771  7506 net.cpp:150] Setting up ip_c
I1017 20:49:26.055775  7506 net.cpp:157] Top shape: 100 20 (2000)
I1017 20:49:26.055778  7506 net.cpp:165] Memory required for data: 157685600
I1017 20:49:26.055780  7506 layer_factory.hpp:77] Creating layer ip_c_ip_c_0_split
I1017 20:49:26.055789  7506 net.cpp:100] Creating Layer ip_c_ip_c_0_split
I1017 20:49:26.055794  7506 net.cpp:434] ip_c_ip_c_0_split <- ip_c
I1017 20:49:26.055796  7506 net.cpp:408] ip_c_ip_c_0_split -> ip_c_ip_c_0_split_0
I1017 20:49:26.055800  7506 net.cpp:408] ip_c_ip_c_0_split -> ip_c_ip_c_0_split_1
I1017 20:49:26.055824  7506 net.cpp:150] Setting up ip_c_ip_c_0_split
I1017 20:49:26.055829  7506 net.cpp:157] Top shape: 100 20 (2000)
I1017 20:49:26.055830  7506 net.cpp:157] Top shape: 100 20 (2000)
I1017 20:49:26.055831  7506 net.cpp:165] Memory required for data: 157701600
I1017 20:49:26.055835  7506 layer_factory.hpp:77] Creating layer accuracy_f
I1017 20:49:26.055837  7506 net.cpp:100] Creating Layer accuracy_f
I1017 20:49:26.055840  7506 net.cpp:434] accuracy_f <- ip_c_ip_c_0_split_0
I1017 20:49:26.055843  7506 net.cpp:434] accuracy_f <- label_coarse_data_1_split_0
I1017 20:49:26.055846  7506 net.cpp:408] accuracy_f -> accuracy_f
…
