…
  stage: ""
}
type: "Nesterov"
I1011 16:00:49.167526  6583 solver.cpp:81] Creating training net from train_net file: /home/adam/Honours/Honours-Project/cifar-10_allcnn/elu/allcnn_elu_train.prototxt
I1011 16:00:49.167873  6583 net.cpp:58] Initializing net from parameters: 
state {
  phase: TRAIN
  level: 0
  stage: ""
}
layer {
  name: "data"
  type: "Data"
  top: "data"
  top: "label"
  transform_param {
    mean_file: "mean.binaryproto"
  }
  data_param {
    source: "../../../data/cifar-10/cifar10_train_lmdb"
    batch_size: 64
    backend: LMDB
  }
}
layer {
  name: "conv1"
  type: "Convolution"
  bottom: "data"
  top: "conv1"
  convolution_param {
    num_output: 96
    kernel_size: 3
    weight_filler {
      type: "xavier"
    }
  }
}
layer {
  name: "elu1"
  type: "ELU"
  bottom: "conv1"
  top: "conv1"
}
layer {
  name: "conv2"
  type: "Convolution"
  bottom: "conv1"
  top: "conv2"
  convolution_param {
    num_output: 96
    kernel_size: 3
    weight_filler {
      type: "xavier"
    }
  }
}
layer {
  name: "bn1"
  type: "BatchNorm"
  bottom: "conv2"
  top: "bn1"
}
layer {
  name: "elu2"
  type: "ELU"
  bottom: "bn1"
  top: "bn1"
}
layer {
  name: "drop1"
  type: "Dropout"
  bottom: "bn1"
  top: "drop1"
  dropout_param {
    dropout_ratio: 0.5
  }
}
layer {
  name: "conv3"
  type: "Convolution"
  bottom: "drop1"
  top: "conv3"
  convolution_param {
    num_output: 96
    kernel_size: 3
    stride: 2
    weight_filler {
      type: "xavier"
    }
  }
}
layer {
  name: "elu3"
  type: "ELU"
  bottom: "conv3"
  top: "conv3"
}
layer {
  name: "conv4"
  type: "Convolution"
  bottom: "conv3"
  top: "conv4"
  convolution_param {
    num_output: 192
    kernel_size: 3
    weight_filler {
      type: "xavier"
    }
  }
}
layer {
  name: "elu4"
  type: "ELU"
  bottom: "conv4"
  top: "conv4"
}
layer {
  name: "conv5"
  type: "Convolution"
  bottom: "conv4"
  top: "conv5"
  convolution_param {
    num_output: 192
    kernel_size: 3
    weight_filler {
      type: "xavier"
    }
  }
}
layer {
  name: "bn2"
  type: "BatchNorm"
  bottom: "conv5"
  top: "bn2"
}
layer {
  name: "elu5"
  type: "ELU"
  bottom: "bn2"
  top: "bn2"
}
layer {
  name: "drop4"
  type: "Dropout"
  bottom: "bn2"
  top: "drop4"
  dropout_param {
    dropout_ratio: 0.5
  }
}
layer {
  name: "conv6"
  type: "Convolution"
  bottom: "drop4"
  top: "conv6"
  convolution_param {
    num_output: 192
    kernel_size: 3
    stride: 2
    weight_filler {
      type: "xavier"
    }
  }
}
layer {
  name: "elu6"
  type: "ELU"
  bottom: "conv6"
  top: "conv6"
}
layer {
  name: "conv7"
  type: "Convolution"
  bottom: "conv6"
  top: "conv7"
  convolution_param {
    num_output: 192
    kernel_size: 3
    weight_filler {
      type: "xavier"
    }
  }
}
layer {
  name: "elu7"
  type: "ELU"
  bottom: "conv7"
  top: "conv7"
}
layer {
  name: "conv8"
  type: "Convolution"
  bottom: "conv7"
  top: "conv8"
  convolution_param {
    num_output: 192
    kernel_size: 1
    weight_filler {
      type: "xavier"
    }
  }
}
layer {
  name: "elu8"
  type: "ELU"
  bottom: "conv8"
  top: "conv8"
}
layer {
  name: "conv9"
  type: "Convolution"
  bottom: "conv8"
  top: "conv9"
  convolution_param {
    num_output: 10
    kernel_size: 1
    weight_filler {
      type: "xavier"
    }
  }
}
layer {
  name: "elu9"
  type: "ELU"
  bottom: "conv9"
  top: "conv9"
}
layer {
  name: "pool"
  type: "Pooling"
  bottom: "conv9"
  top: "pool"
  pooling_param {
    pool: AVE
    global_pooling: true
  }
}
layer {
  name: "flatten"
  type: "Flatten"
  bottom: "pool"
  top: "flatten"
}
layer {
  name: "score"
  type: "InnerProduct"
  bottom: "flatten"
  top: "score"
  inner_product_param {
    num_output: 10
    weight_filler {
      type: "gaussian"
    }
  }
}
layer {
  name: "accuracy"
  type: "Accuracy"
  bottom: "score"
  bottom: "label"
  top: "accuracy"
}
layer {
  name: "loss"
  type: "SoftmaxWithLoss"
  bottom: "score"
  bottom: "label"
  top: "loss"
}
I1011 16:00:49.167975  6583 layer_factory.hpp:77] Creating layer data
I1011 16:00:49.168476  6583 net.cpp:100] Creating Layer data
I1011 16:00:49.168493  6583 net.cpp:408] data -> data
I1011 16:00:49.168540  6583 net.cpp:408] data -> label
I1011 16:00:49.168579  6583 data_transformer.cpp:25] Loading mean file from: mean.binaryproto
I1011 16:00:49.169363  6589 db_lmdb.cpp:35] Opened lmdb ../../../data/cifar-10/cifar10_train_lmdb
I1011 16:00:49.176059  6583 data_layer.cpp:41] output data size: 64,3,32,32
I1011 16:00:49.177781  6583 net.cpp:150] Setting up data
I1011 16:00:49.177798  6583 net.cpp:157] Top shape: 64 3 32 32 (196608)
I1011 16:00:49.177825  6583 net.cpp:157] Top shape: 64 (64)
I1011 16:00:49.177827  6583 net.cpp:165] Memory required for data: 786688
I1011 16:00:49.177835  6583 layer_factory.hpp:77] Creating layer label_data_1_split
I1011 16:00:49.177846  6583 net.cpp:100] Creating Layer label_data_1_split
I1011 16:00:49.177851  6583 net.cpp:434] label_data_1_split <- label
I1011 16:00:49.177904  6583 net.cpp:408] label_data_1_split -> label_data_1_split_0
I1011 16:00:49.177929  6583 net.cpp:408] label_data_1_split -> label_data_1_split_1
I1011 16:00:49.179162  6583 net.cpp:150] Setting up label_data_1_split
I1011 16:00:49.179170  6583 net.cpp:157] Top shape: 64 (64)
I1011 16:00:49.179173  6583 net.cpp:157] Top shape: 64 (64)
I1011 16:00:49.179174  6583 net.cpp:165] Memory required for data: 787200
I1011 16:00:49.179177  6583 layer_factory.hpp:77] Creating layer conv1
I1011 16:00:49.179226  6583 net.cpp:100] Creating Layer conv1
I1011 16:00:49.179229  6583 net.cpp:434] conv1 <- data
I1011 16:00:49.179247  6583 net.cpp:408] conv1 -> conv1
I1011 16:00:49.317160  6583 net.cpp:150] Setting up conv1
I1011 16:00:49.317185  6583 net.cpp:157] Top shape: 64 96 30 30 (5529600)
I1011 16:00:49.317188  6583 net.cpp:165] Memory required for data: 22905600
I1011 16:00:49.317205  6583 layer_factory.hpp:77] Creating layer elu1
I1011 16:00:49.317214  6583 net.cpp:100] Creating Layer elu1
I1011 16:00:49.317216  6583 net.cpp:434] elu1 <- conv1
I1011 16:00:49.317220  6583 net.cpp:395] elu1 -> conv1 (in-place)
I1011 16:00:49.317241  6583 net.cpp:150] Setting up elu1
I1011 16:00:49.317245  6583 net.cpp:157] Top shape: 64 96 30 30 (5529600)
I1011 16:00:49.317246  6583 net.cpp:165] Memory required for data: 45024000
I1011 16:00:49.317248  6583 layer_factory.hpp:77] Creating layer conv2
I1011 16:00:49.317270  6583 net.cpp:100] Creating Layer conv2
I1011 16:00:49.317272  6583 net.cpp:434] conv2 <- conv1
I1011 16:00:49.317291  6583 net.cpp:408] conv2 -> conv2
I1011 16:00:49.318760  6583 net.cpp:150] Setting up conv2
I1011 16:00:49.318773  6583 net.cpp:157] Top shape: 64 96 28 28 (4816896)
I1011 16:00:49.318775  6583 net.cpp:165] Memory required for data: 64291584
I1011 16:00:49.318783  6583 layer_factory.hpp:77] Creating layer bn1
I1011 16:00:49.318788  6583 net.cpp:100] Creating Layer bn1
I1011 16:00:49.318789  6583 net.cpp:434] bn1 <- conv2
I1011 16:00:49.318794  6583 net.cpp:408] bn1 -> bn1
I1011 16:00:49.319021  6583 net.cpp:150] Setting up bn1
I1011 16:00:49.319027  6583 net.cpp:157] Top shape: 64 96 28 28 (4816896)
I1011 16:00:49.319043  6583 net.cpp:165] Memory required for data: 83559168
I1011 16:00:49.319049  6583 layer_factory.hpp:77] Creating layer elu2
I1011 16:00:49.319053  6583 net.cpp:100] Creating Layer elu2
I1011 16:00:49.319056  6583 net.cpp:434] elu2 <- bn1
I1011 16:00:49.319059  6583 net.cpp:395] elu2 -> bn1 (in-place)
I1011 16:00:49.319079  6583 net.cpp:150] Setting up elu2
I1011 16:00:49.319083  6583 net.cpp:157] Top shape: 64 96 28 28 (4816896)
I1011 16:00:49.319084  6583 net.cpp:165] Memory required for data: 102826752
I1011 16:00:49.319111  6583 layer_factory.hpp:77] Creating layer drop1
I1011 16:00:49.319129  6583 net.cpp:100] Creating Layer drop1
I1011 16:00:49.319131  6583 net.cpp:434] drop1 <- bn1
I1011 16:00:49.319134  6583 net.cpp:408] drop1 -> drop1
I1011 16:00:49.319166  6583 net.cpp:150] Setting up drop1
I1011 16:00:49.319172  6583 net.cpp:157] Top shape: 64 96 28 28 (4816896)
I1011 16:00:49.319175  6583 net.cpp:165] Memory required for data: 122094336
I1011 16:00:49.319176  6583 layer_factory.hpp:77] Creating layer conv3
I1011 16:00:49.319185  6583 net.cpp:100] Creating Layer conv3
I1011 16:00:49.319186  6583 net.cpp:434] conv3 <- drop1
I1011 16:00:49.319191  6583 net.cpp:408] conv3 -> conv3
I1011 16:00:49.320597  6583 net.cpp:150] Setting up conv3
I1011 16:00:49.320608  6583 net.cpp:157] Top shape: 64 96 13 13 (1038336)
I1011 16:00:49.320611  6583 net.cpp:165] Memory required for data: 126247680
I1011 16:00:49.320617  6583 layer_factory.hpp:77] Creating layer elu3
I1011 16:00:49.320621  6583 net.cpp:100] Creating Layer elu3
I1011 16:00:49.320623  6583 net.cpp:434] elu3 <- conv3
I1011 16:00:49.320627  6583 net.cpp:395] elu3 -> conv3 (in-place)
I1011 16:00:49.320632  6583 net.cpp:150] Setting up elu3
I1011 16:00:49.320634  6583 net.cpp:157] Top shape: 64 96 13 13 (1038336)
I1011 16:00:49.320636  6583 net.cpp:165] Memory required for data: 130401024
I1011 16:00:49.320638  6583 layer_factory.hpp:77] Creating layer conv4
I1011 16:00:49.320657  6583 net.cpp:100] Creating Layer conv4
I1011 16:00:49.320659  6583 net.cpp:434] conv4 <- conv3
I1011 16:00:49.320663  6583 net.cpp:408] conv4 -> conv4
I1011 16:00:49.322789  6583 net.cpp:150] Setting up conv4
I1011 16:00:49.322803  6583 net.cpp:157] Top shape: 64 192 11 11 (1486848)
I1011 16:00:49.322805  6583 net.cpp:165] Memory required for data: 136348416
I1011 16:00:49.322811  6583 layer_factory.hpp:77] Creating layer elu4
I1011 16:00:49.322815  6583 net.cpp:100] Creating Layer elu4
I1011 16:00:49.322818  6583 net.cpp:434] elu4 <- conv4
I1011 16:00:49.322820  6583 net.cpp:395] elu4 -> conv4 (in-place)
I1011 16:00:49.322825  6583 net.cpp:150] Setting up elu4
I1011 16:00:49.322827  6583 net.cpp:157] Top shape: 64 192 11 11 (1486848)
I1011 16:00:49.322830  6583 net.cpp:165] Memory required for data: 142295808
I1011 16:00:49.322832  6583 layer_factory.hpp:77] Creating layer conv5
I1011 16:00:49.322854  6583 net.cpp:100] Creating Layer conv5
I1011 16:00:49.322855  6583 net.cpp:434] conv5 <- conv4
I1011 16:00:49.322860  6583 net.cpp:408] conv5 -> conv5
I1011 16:00:49.325620  6583 net.cpp:150] Setting up conv5
I1011 16:00:49.325634  6583 net.cpp:157] Top shape: 64 192 9 9 (995328)
I1011 16:00:49.325637  6583 net.cpp:165] Memory required for data: 146277120
I1011 16:00:49.325641  6583 layer_factory.hpp:77] Creating layer bn2
I1011 16:00:49.325647  6583 net.cpp:100] Creating Layer bn2
I1011 16:00:49.325650  6583 net.cpp:434] bn2 <- conv5
I1011 16:00:49.325654  6583 net.cpp:408] bn2 -> bn2
I1011 16:00:49.325909  6583 net.cpp:150] Setting up bn2
I1011 16:00:49.325914  6583 net.cpp:157] Top shape: 64 192 9 9 (995328)
I1011 16:00:49.325930  6583 net.cpp:165] Memory required for data: 150258432
I1011 16:00:49.325935  6583 layer_factory.hpp:77] Creating layer elu5
I1011 16:00:49.325939  6583 net.cpp:100] Creating Layer elu5
I1011 16:00:49.325942  6583 net.cpp:434] elu5 <- bn2
I1011 16:00:49.325945  6583 net.cpp:395] elu5 -> bn2 (in-place)
I1011 16:00:49.325949  6583 net.cpp:150] Setting up elu5
I1011 16:00:49.325968  6583 net.cpp:157] Top shape: 64 192 9 9 (995328)
I1011 16:00:49.325969  6583 net.cpp:165] Memory required for data: 154239744
I1011 16:00:49.325971  6583 layer_factory.hpp:77] Creating layer drop4
I1011 16:00:49.325976  6583 net.cpp:100] Creating Layer drop4
I1011 16:00:49.325979  6583 net.cpp:434] drop4 <- bn2
I1011 16:00:49.325995  6583 net.cpp:408] drop4 -> drop4
I1011 16:00:49.326025  6583 net.cpp:150] Setting up drop4
I1011 16:00:49.326030  6583 net.cpp:157] Top shape: 64 192 9 9 (995328)
I1011 16:00:49.326032  6583 net.cpp:165] Memory required for data: 158221056
I1011 16:00:49.326045  6583 layer_factory.hpp:77] Creating layer conv6
I1011 16:00:49.326055  6583 net.cpp:100] Creating Layer conv6
I1011 16:00:49.326057  6583 net.cpp:434] conv6 <- drop4
I1011 16:00:49.326061  6583 net.cpp:408] conv6 -> conv6
I1011 16:00:49.328768  6583 net.cpp:150] Setting up conv6
I1011 16:00:49.328799  6583 net.cpp:157] Top shape: 64 192 4 4 (196608)
I1011 16:00:49.328801  6583 net.cpp:165] Memory required for data: 159007488
I1011 16:00:49.328811  6583 layer_factory.hpp:77] Creating layer elu6
I1011 16:00:49.328817  6583 net.cpp:100] Creating Layer elu6
I1011 16:00:49.328820  6583 net.cpp:434] elu6 <- conv6
I1011 16:00:49.328838  6583 net.cpp:395] elu6 -> conv6 (in-place)
I1011 16:00:49.328891  6583 net.cpp:150] Setting up elu6
I1011 16:00:49.328908  6583 net.cpp:157] Top shape: 64 192 4 4 (196608)
I1011 16:00:49.328909  6583 net.cpp:165] Memory required for data: 159793920
I1011 16:00:49.328912  6583 layer_factory.hpp:77] Creating layer conv7
I1011 16:00:49.328933  6583 net.cpp:100] Creating Layer conv7
I1011 16:00:49.328934  6583 net.cpp:434] conv7 <- conv6
I1011 16:00:49.328951  6583 net.cpp:408] conv7 -> conv7
I1011 16:00:49.331609  6583 net.cpp:150] Setting up conv7
I1011 16:00:49.331622  6583 net.cpp:157] Top shape: 64 192 2 2 (49152)
I1011 16:00:49.331625  6583 net.cpp:165] Memory required for data: 159990528
I1011 16:00:49.331630  6583 layer_factory.hpp:77] Creating layer elu7
I1011 16:00:49.331634  6583 net.cpp:100] Creating Layer elu7
I1011 16:00:49.331636  6583 net.cpp:434] elu7 <- conv7
I1011 16:00:49.331640  6583 net.cpp:395] elu7 -> conv7 (in-place)
I1011 16:00:49.331645  6583 net.cpp:150] Setting up elu7
I1011 16:00:49.331650  6583 net.cpp:157] Top shape: 64 192 2 2 (49152)
I1011 16:00:49.331650  6583 net.cpp:165] Memory required for data: 160187136
I1011 16:00:49.331652  6583 layer_factory.hpp:77] Creating layer conv8
I1011 16:00:49.331673  6583 net.cpp:100] Creating Layer conv8
I1011 16:00:49.331676  6583 net.cpp:434] conv8 <- conv7
I1011 16:00:49.331678  6583 net.cpp:408] conv8 -> conv8
I1011 16:00:49.332998  6583 net.cpp:150] Setting up conv8
I1011 16:00:49.333010  6583 net.cpp:157] Top shape: 64 192 2 2 (49152)
I1011 16:00:49.333012  6583 net.cpp:165] Memory required for data: 160383744
I1011 16:00:49.333017  6583 layer_factory.hpp:77] Creating layer elu8
I1011 16:00:49.333021  6583 net.cpp:100] Creating Layer elu8
I1011 16:00:49.333024  6583 net.cpp:434] elu8 <- conv8
I1011 16:00:49.333026  6583 net.cpp:395] elu8 -> conv8 (in-place)
I1011 16:00:49.333032  6583 net.cpp:150] Setting up elu8
I1011 16:00:49.333035  6583 net.cpp:157] Top shape: 64 192 2 2 (49152)
I1011 16:00:49.333036  6583 net.cpp:165] Memory required for data: 160580352
I1011 16:00:49.333039  6583 layer_factory.hpp:77] Creating layer conv9
I1011 16:00:49.333057  6583 net.cpp:100] Creating Layer conv9
I1011 16:00:49.333060  6583 net.cpp:434] conv9 <- conv8
I1011 16:00:49.333063  6583 net.cpp:408] conv9 -> conv9
I1011 16:00:49.334009  6583 net.cpp:150] Setting up conv9
I1011 16:00:49.334020  6583 net.cpp:157] Top shape: 64 10 2 2 (2560)
I1011 16:00:49.334022  6583 net.cpp:165] Memory required for data: 160590592
I1011 16:00:49.334028  6583 layer_factory.hpp:77] Creating layer elu9
I1011 16:00:49.334030  6583 net.cpp:100] Creating Layer elu9
I1011 16:00:49.334033  6583 net.cpp:434] elu9 <- conv9
I1011 16:00:49.334038  6583 net.cpp:395] elu9 -> conv9 (in-place)
I1011 16:00:49.334041  6583 net.cpp:150] Setting up elu9
I1011 16:00:49.334044  6583 net.cpp:157] Top shape: 64 10 2 2 (2560)
I1011 16:00:49.334046  6583 net.cpp:165] Memory required for data: 160600832
I1011 16:00:49.334048  6583 layer_factory.hpp:77] Creating layer pool
I1011 16:00:49.334066  6583 net.cpp:100] Creating Layer pool
I1011 16:00:49.334069  6583 net.cpp:434] pool <- conv9
I1011 16:00:49.334071  6583 net.cpp:408] pool -> pool
I1011 16:00:49.334491  6583 net.cpp:150] Setting up pool
I1011 16:00:49.334501  6583 net.cpp:157] Top shape: 64 10 1 1 (640)
I1011 16:00:49.334502  6583 net.cpp:165] Memory required for data: 160603392
I1011 16:00:49.334529  6583 layer_factory.hpp:77] Creating layer flatten
I1011 16:00:49.334534  6583 net.cpp:100] Creating Layer flatten
I1011 16:00:49.334537  6583 net.cpp:434] flatten <- pool
I1011 16:00:49.334553  6583 net.cpp:408] flatten -> flatten
I1011 16:00:49.334575  6583 net.cpp:150] Setting up flatten
I1011 16:00:49.334580  6583 net.cpp:157] Top shape: 64 10 (640)
I1011 16:00:49.334595  6583 net.cpp:165] Memory required for data: 160605952
I1011 16:00:49.334597  6583 layer_factory.hpp:77] Creating layer score
I1011 16:00:49.334602  6583 net.cpp:100] Creating Layer score
I1011 16:00:49.334619  6583 net.cpp:434] score <- flatten
I1011 16:00:49.334622  6583 net.cpp:408] score -> score
I1011 16:00:49.334808  6583 net.cpp:150] Setting up score
I1011 16:00:49.334813  6583 net.cpp:157] Top shape: 64 10 (640)
I1011 16:00:49.334830  6583 net.cpp:165] Memory required for data: 160608512
I1011 16:00:49.334833  6583 layer_factory.hpp:77] Creating layer score_score_0_split
I1011 16:00:49.334837  6583 net.cpp:100] Creating Layer score_score_0_split
I1011 16:00:49.334839  6583 net.cpp:434] score_score_0_split <- score
I1011 16:00:49.334844  6583 net.cpp:408] score_score_0_split -> score_score_0_split_0
I1011 16:00:49.334849  6583 net.cpp:408] score_score_0_split -> score_score_0_split_1
I1011 16:00:49.334920  6583 net.cpp:150] Setting up score_score_0_split
I1011 16:00:49.334924  6583 net.cpp:157] Top shape: 64 10 (640)
I1011 16:00:49.334926  6583 net.cpp:157] Top shape: 64 10 (640)
I1011 16:00:49.334928  6583 net.cpp:165] Memory required for data: 160613632
I1011 16:00:49.334930  6583 layer_factory.hpp:77] Creating layer accuracy
I1011 16:00:49.334934  6583 net.cpp:100] Creating Layer accuracy
I1011 16:00:49.334949  6583 net.cpp:434] accuracy <- score_score_0_split_0
I1011 16:00:49.334952  6583 net.cpp:434] accuracy <- label_data_1_split_0
I1011 16:00:49.334956  6583 net.cpp:408] accuracy -> accuracy
…
I1011 16:00:49.335510  6583 net.cpp:283] Network initialization done.
I1011 16:00:49.335741  6583 solver.cpp:181] Creating test net (#0) specified by test_net file: /home/adam/Honours/Honours-Project/cifar-10_allcnn/elu/allcnn_elu_test.prototxt
I1011 16:00:49.335902  6583 net.cpp:58] Initializing net from parameters: 
state {
  phase: TEST
}
layer {
  name: "data"
  type: "Data"
  top: "data"
  top: "label"
  transform_param {
    mean_file: "mean.binaryproto"
  }
  data_param {
    source: "../../../data/cifar-10/cifar10_test_lmdb"
    batch_size: 100
    backend: LMDB
  }
}
layer {
  name: "conv1"
  type: "Convolution"
  bottom: "data"
  top: "conv1"
  convolution_param {
    num_output: 96
    kernel_size: 3
    weight_filler {
      type: "xavier"
    }
  }
}
layer {
  name: "elu1"
  type: "ELU"
  bottom: "conv1"
  top: "conv1"
}
layer {
  name: "conv2"
  type: "Convolution"
  bottom: "conv1"
  top: "conv2"
  convolution_param {
    num_output: 96
    kernel_size: 3
    weight_filler {
      type: "xavier"
    }
  }
}
layer {
  name: "bn1"
  type: "BatchNorm"
  bottom: "conv2"
  top: "bn1"
}
layer {
  name: "elu2"
  type: "ELU"
  bottom: "bn1"
  top: "bn1"
}
layer {
  name: "drop1"
  type: "Dropout"
  bottom: "bn1"
  top: "drop1"
  dropout_param {
    dropout_ratio: 0.5
  }
}
layer {
  name: "conv3"
  type: "Convolution"
  bottom: "drop1"
  top: "conv3"
  convolution_param {
    num_output: 96
    kernel_size: 3
    stride: 2
    weight_filler {
      type: "xavier"
    }
  }
}
layer {
  name: "elu3"
  type: "ELU"
  bottom: "conv3"
  top: "conv3"
}
layer {
  name: "conv4"
  type: "Convolution"
  bottom: "conv3"
  top: "conv4"
  convolution_param {
    num_output: 192
    kernel_size: 3
    weight_filler {
      type: "xavier"
    }
  }
}
layer {
  name: "elu4"
  type: "ELU"
  bottom: "conv4"
  top: "conv4"
}
layer {
  name: "conv5"
  type: "Convolution"
  bottom: "conv4"
  top: "conv5"
  convolution_param {
    num_output: 192
    kernel_size: 3
    weight_filler {
      type: "xavier"
    }
  }
}
layer {
  name: "bn2"
  type: "BatchNorm"
  bottom: "conv5"
  top: "bn2"
}
layer {
  name: "elu5"
  type: "ELU"
  bottom: "bn2"
  top: "bn2"
}
layer {
  name: "drop4"
  type: "Dropout"
  bottom: "bn2"
  top: "drop4"
  dropout_param {
    dropout_ratio: 0.5
  }
}
layer {
  name: "conv6"
  type: "Convolution"
  bottom: "drop4"
  top: "conv6"
  convolution_param {
    num_output: 192
    kernel_size: 3
    stride: 2
    weight_filler {
      type: "xavier"
    }
  }
}
layer {
  name: "elu6"
  type: "ELU"
  bottom: "conv6"
  top: "conv6"
}
layer {
  name: "conv7"
  type: "Convolution"
  bottom: "conv6"
  top: "conv7"
  convolution_param {
    num_output: 192
    kernel_size: 3
    weight_filler {
      type: "xavier"
    }
  }
}
layer {
  name: "elu7"
  type: "ELU"
  bottom: "conv7"
  top: "conv7"
}
layer {
  name: "conv8"
  type: "Convolution"
  bottom: "conv7"
  top: "conv8"
  convolution_param {
    num_output: 192
    kernel_size: 1
    weight_filler {
      type: "xavier"
    }
  }
}
layer {
  name: "elu8"
  type: "ELU"
  bottom: "conv8"
  top: "conv8"
}
layer {
  name: "conv9"
  type: "Convolution"
  bottom: "conv8"
  top: "conv9"
  convolution_param {
    num_output: 10
    kernel_size: 1
    weight_filler {
      type: "xavier"
    }
  }
}
layer {
  name: "elu9"
  type: "ELU"
  bottom: "conv9"
  top: "conv9"
}
layer {
  name: "pool"
  type: "Pooling"
  bottom: "conv9"
  top: "pool"
  pooling_param {
    pool: AVE
    global_pooling: true
  }
}
layer {
  name: "flatten"
  type: "Flatten"
  bottom: "pool"
  top: "flatten"
}
layer {
  name: "score"
  type: "InnerProduct"
  bottom: "flatten"
  top: "score"
  inner_product_param {
    num_output: 10
    weight_filler {
      type: "gaussian"
    }
  }
}
layer {
  name: "accuracy"
  type: "Accuracy"
  bottom: "score"
  bottom: "label"
  top: "accuracy"
}
layer {
  name: "loss"
  type: "SoftmaxWithLoss"
  bottom: "score"
  bottom: "label"
  top: "loss"
}
I1011 16:00:49.335995  6583 layer_factory.hpp:77] Creating layer data
I1011 16:00:49.336082  6583 net.cpp:100] Creating Layer data
I1011 16:00:49.336129  6583 net.cpp:408] data -> data
I1011 16:00:49.336138  6583 net.cpp:408] data -> label
I1011 16:00:49.336143  6583 data_transformer.cpp:25] Loading mean file from: mean.binaryproto
I1011 16:00:49.336813  6591 db_lmdb.cpp:35] Opened lmdb ../../../data/cifar-10/cifar10_test_lmdb
I1011 16:00:49.336979  6583 data_layer.cpp:41] output data size: 100,3,32,32
I1011 16:00:49.339081  6583 net.cpp:150] Setting up data
I1011 16:00:49.339103  6583 net.cpp:157] Top shape: 100 3 32 32 (307200)
I1011 16:00:49.339107  6583 net.cpp:157] Top shape: 100 (100)
I1011 16:00:49.339108  6583 net.cpp:165] Memory required for data: 1229200
I1011 16:00:49.339126  6583 layer_factory.hpp:77] Creating layer label_data_1_split
I1011 16:00:49.339136  6583 net.cpp:100] Creating Layer label_data_1_split
I1011 16:00:49.339140  6583 net.cpp:434] label_data_1_split <- label
I1011 16:00:49.339159  6583 net.cpp:408] label_data_1_split -> label_data_1_split_0
I1011 16:00:49.339167  6583 net.cpp:408] label_data_1_split -> label_data_1_split_1
I1011 16:00:49.339224  6583 net.cpp:150] Setting up label_data_1_split
I1011 16:00:49.339229  6583 net.cpp:157] Top shape: 100 (100)
I1011 16:00:49.339247  6583 net.cpp:157] Top shape: 100 (100)
I1011 16:00:49.339248  6583 net.cpp:165] Memory required for data: 1230000
I1011 16:00:49.339251  6583 layer_factory.hpp:77] Creating layer conv1
I1011 16:00:49.339274  6583 net.cpp:100] Creating Layer conv1
I1011 16:00:49.339277  6583 net.cpp:434] conv1 <- data
I1011 16:00:49.339295  6583 net.cpp:408] conv1 -> conv1
I1011 16:00:49.340559  6583 net.cpp:150] Setting up conv1
I1011 16:00:49.340584  6583 net.cpp:157] Top shape: 100 96 30 30 (8640000)
I1011 16:00:49.340586  6583 net.cpp:165] Memory required for data: 35790000
I1011 16:00:49.340608  6583 layer_factory.hpp:77] Creating layer elu1
I1011 16:00:49.340615  6583 net.cpp:100] Creating Layer elu1
I1011 16:00:49.340617  6583 net.cpp:434] elu1 <- conv1
I1011 16:00:49.340621  6583 net.cpp:395] elu1 -> conv1 (in-place)
I1011 16:00:49.340641  6583 net.cpp:150] Setting up elu1
I1011 16:00:49.340643  6583 net.cpp:157] Top shape: 100 96 30 30 (8640000)
I1011 16:00:49.340646  6583 net.cpp:165] Memory required for data: 70350000
I1011 16:00:49.340647  6583 layer_factory.hpp:77] Creating layer conv2
I1011 16:00:49.340654  6583 net.cpp:100] Creating Layer conv2
I1011 16:00:49.340656  6583 net.cpp:434] conv2 <- conv1
I1011 16:00:49.340662  6583 net.cpp:408] conv2 -> conv2
I1011 16:00:49.342138  6583 net.cpp:150] Setting up conv2
I1011 16:00:49.342150  6583 net.cpp:157] Top shape: 100 96 28 28 (7526400)
I1011 16:00:49.342154  6583 net.cpp:165] Memory required for data: 100455600
I1011 16:00:49.342160  6583 layer_factory.hpp:77] Creating layer bn1
I1011 16:00:49.342181  6583 net.cpp:100] Creating Layer bn1
I1011 16:00:49.342186  6583 net.cpp:434] bn1 <- conv2
I1011 16:00:49.342190  6583 net.cpp:408] bn1 -> bn1
I1011 16:00:49.342378  6583 net.cpp:150] Setting up bn1
I1011 16:00:49.342393  6583 net.cpp:157] Top shape: 100 96 28 28 (7526400)
I1011 16:00:49.342396  6583 net.cpp:165] Memory required for data: 130561200
I1011 16:00:49.342402  6583 layer_factory.hpp:77] Creating layer elu2
I1011 16:00:49.342419  6583 net.cpp:100] Creating Layer elu2
I1011 16:00:49.342423  6583 net.cpp:434] elu2 <- bn1
I1011 16:00:49.342427  6583 net.cpp:395] elu2 -> bn1 (in-place)
I1011 16:00:49.342432  6583 net.cpp:150] Setting up elu2
I1011 16:00:49.342435  6583 net.cpp:157] Top shape: 100 96 28 28 (7526400)
I1011 16:00:49.342447  6583 net.cpp:165] Memory required for data: 160666800
I1011 16:00:49.342450  6583 layer_factory.hpp:77] Creating layer drop1
I1011 16:00:49.342455  6583 net.cpp:100] Creating Layer drop1
I1011 16:00:49.342470  6583 net.cpp:434] drop1 <- bn1
I1011 16:00:49.342481  6583 net.cpp:408] drop1 -> drop1
I1011 16:00:49.342526  6583 net.cpp:150] Setting up drop1
I1011 16:00:49.342542  6583 net.cpp:157] Top shape: 100 96 28 28 (7526400)
I1011 16:00:49.342551  6583 net.cpp:165] Memory required for data: 190772400
I1011 16:00:49.342561  6583 layer_factory.hpp:77] Creating layer conv3
I1011 16:00:49.342576  6583 net.cpp:100] Creating Layer conv3
I1011 16:00:49.342586  6583 net.cpp:434] conv3 <- drop1
I1011 16:00:49.342597  6583 net.cpp:408] conv3 -> conv3
I1011 16:00:49.343896  6583 net.cpp:150] Setting up conv3
I1011 16:00:49.343909  6583 net.cpp:157] Top shape: 100 96 13 13 (1622400)
I1011 16:00:49.343911  6583 net.cpp:165] Memory required for data: 197262000
I1011 16:00:49.343920  6583 layer_factory.hpp:77] Creating layer elu3
I1011 16:00:49.343926  6583 net.cpp:100] Creating Layer elu3
I1011 16:00:49.343929  6583 net.cpp:434] elu3 <- conv3
I1011 16:00:49.343932  6583 net.cpp:395] elu3 -> conv3 (in-place)
I1011 16:00:49.343951  6583 net.cpp:150] Setting up elu3
I1011 16:00:49.343957  6583 net.cpp:157] Top shape: 100 96 13 13 (1622400)
I1011 16:00:49.343960  6583 net.cpp:165] Memory required for data: 203751600
I1011 16:00:49.343961  6583 layer_factory.hpp:77] Creating layer conv4
I1011 16:00:49.343966  6583 net.cpp:100] Creating Layer conv4
I1011 16:00:49.343968  6583 net.cpp:434] conv4 <- conv3
I1011 16:00:49.343973  6583 net.cpp:408] conv4 -> conv4
I1011 16:00:49.345841  6583 net.cpp:150] Setting up conv4
I1011 16:00:49.345870  6583 net.cpp:157] Top shape: 100 192 11 11 (2323200)
I1011 16:00:49.345875  6583 net.cpp:165] Memory required for data: 213044400
I1011 16:00:49.345880  6583 layer_factory.hpp:77] Creating layer elu4
I1011 16:00:49.345899  6583 net.cpp:100] Creating Layer elu4
I1011 16:00:49.345902  6583 net.cpp:434] elu4 <- conv4
I1011 16:00:49.345906  6583 net.cpp:395] elu4 -> conv4 (in-place)
I1011 16:00:49.345912  6583 net.cpp:150] Setting up elu4
I1011 16:00:49.345916  6583 net.cpp:157] Top shape: 100 192 11 11 (2323200)
I1011 16:00:49.345918  6583 net.cpp:165] Memory required for data: 222337200
I1011 16:00:49.345921  6583 layer_factory.hpp:77] Creating layer conv5
I1011 16:00:49.345927  6583 net.cpp:100] Creating Layer conv5
I1011 16:00:49.345930  6583 net.cpp:434] conv5 <- conv4
I1011 16:00:49.345934  6583 net.cpp:408] conv5 -> conv5
I1011 16:00:49.348737  6583 net.cpp:150] Setting up conv5
I1011 16:00:49.348755  6583 net.cpp:157] Top shape: 100 192 9 9 (1555200)
I1011 16:00:49.348757  6583 net.cpp:165] Memory required for data: 228558000
I1011 16:00:49.348763  6583 layer_factory.hpp:77] Creating layer bn2
I1011 16:00:49.348769  6583 net.cpp:100] Creating Layer bn2
I1011 16:00:49.348814  6583 net.cpp:434] bn2 <- conv5
I1011 16:00:49.348840  6583 net.cpp:408] bn2 -> bn2
I1011 16:00:49.349053  6583 net.cpp:150] Setting up bn2
I1011 16:00:49.349059  6583 net.cpp:157] Top shape: 100 192 9 9 (1555200)
I1011 16:00:49.349074  6583 net.cpp:165] Memory required for data: 234778800
I1011 16:00:49.349079  6583 layer_factory.hpp:77] Creating layer elu5
I1011 16:00:49.349082  6583 net.cpp:100] Creating Layer elu5
I1011 16:00:49.349084  6583 net.cpp:434] elu5 <- bn2
I1011 16:00:49.349088  6583 net.cpp:395] elu5 -> bn2 (in-place)
I1011 16:00:49.349107  6583 net.cpp:150] Setting up elu5
I1011 16:00:49.349119  6583 net.cpp:157] Top shape: 100 192 9 9 (1555200)
I1011 16:00:49.349123  6583 net.cpp:165] Memory required for data: 240999600
I1011 16:00:49.349124  6583 layer_factory.hpp:77] Creating layer drop4
I1011 16:00:49.349143  6583 net.cpp:100] Creating Layer drop4
I1011 16:00:49.349145  6583 net.cpp:434] drop4 <- bn2
I1011 16:00:49.349148  6583 net.cpp:408] drop4 -> drop4
I1011 16:00:49.349181  6583 net.cpp:150] Setting up drop4
I1011 16:00:49.349186  6583 net.cpp:157] Top shape: 100 192 9 9 (1555200)
I1011 16:00:49.349201  6583 net.cpp:165] Memory required for data: 247220400
I1011 16:00:49.349203  6583 layer_factory.hpp:77] Creating layer conv6
I1011 16:00:49.349215  6583 net.cpp:100] Creating Layer conv6
I1011 16:00:49.349218  6583 net.cpp:434] conv6 <- drop4
I1011 16:00:49.349221  6583 net.cpp:408] conv6 -> conv6
I1011 16:00:49.351929  6583 net.cpp:150] Setting up conv6
I1011 16:00:49.351941  6583 net.cpp:157] Top shape: 100 192 4 4 (307200)
I1011 16:00:49.351943  6583 net.cpp:165] Memory required for data: 248449200
I1011 16:00:49.351951  6583 layer_factory.hpp:77] Creating layer elu6
I1011 16:00:49.351956  6583 net.cpp:100] Creating Layer elu6
I1011 16:00:49.351958  6583 net.cpp:434] elu6 <- conv6
I1011 16:00:49.351963  6583 net.cpp:395] elu6 -> conv6 (in-place)
I1011 16:00:49.351969  6583 net.cpp:150] Setting up elu6
I1011 16:00:49.351971  6583 net.cpp:157] Top shape: 100 192 4 4 (307200)
I1011 16:00:49.351972  6583 net.cpp:165] Memory required for data: 249678000
I1011 16:00:49.351989  6583 layer_factory.hpp:77] Creating layer conv7
I1011 16:00:49.351994  6583 net.cpp:100] Creating Layer conv7
I1011 16:00:49.351997  6583 net.cpp:434] conv7 <- conv6
I1011 16:00:49.352000  6583 net.cpp:408] conv7 -> conv7
I1011 16:00:49.354790  6583 net.cpp:150] Setting up conv7
I1011 16:00:49.354805  6583 net.cpp:157] Top shape: 100 192 2 2 (76800)
I1011 16:00:49.354807  6583 net.cpp:165] Memory required for data: 249985200
I1011 16:00:49.354812  6583 layer_factory.hpp:77] Creating layer elu7
I1011 16:00:49.354816  6583 net.cpp:100] Creating Layer elu7
I1011 16:00:49.354820  6583 net.cpp:434] elu7 <- conv7
I1011 16:00:49.354822  6583 net.cpp:395] elu7 -> conv7 (in-place)
I1011 16:00:49.354828  6583 net.cpp:150] Setting up elu7
I1011 16:00:49.354831  6583 net.cpp:157] Top shape: 100 192 2 2 (76800)
I1011 16:00:49.354833  6583 net.cpp:165] Memory required for data: 250292400
I1011 16:00:49.354835  6583 layer_factory.hpp:77] Creating layer conv8
I1011 16:00:49.354854  6583 net.cpp:100] Creating Layer conv8
I1011 16:00:49.354856  6583 net.cpp:434] conv8 <- conv7
I1011 16:00:49.354861  6583 net.cpp:408] conv8 -> conv8
I1011 16:00:49.355950  6583 net.cpp:150] Setting up conv8
I1011 16:00:49.355960  6583 net.cpp:157] Top shape: 100 192 2 2 (76800)
I1011 16:00:49.355962  6583 net.cpp:165] Memory required for data: 250599600
I1011 16:00:49.355967  6583 layer_factory.hpp:77] Creating layer elu8
I1011 16:00:49.355970  6583 net.cpp:100] Creating Layer elu8
I1011 16:00:49.355973  6583 net.cpp:434] elu8 <- conv8
I1011 16:00:49.355978  6583 net.cpp:395] elu8 -> conv8 (in-place)
I1011 16:00:49.355983  6583 net.cpp:150] Setting up elu8
I1011 16:00:49.355984  6583 net.cpp:157] Top shape: 100 192 2 2 (76800)
I1011 16:00:49.355986  6583 net.cpp:165] Memory required for data: 250906800
I1011 16:00:49.355988  6583 layer_factory.hpp:77] Creating layer conv9
I1011 16:00:49.355994  6583 net.cpp:100] Creating Layer conv9
I1011 16:00:49.356010  6583 net.cpp:434] conv9 <- conv8
I1011 16:00:49.356014  6583 net.cpp:408] conv9 -> conv9
I1011 16:00:49.356927  6583 net.cpp:150] Setting up conv9
I1011 16:00:49.356940  6583 net.cpp:157] Top shape: 100 10 2 2 (4000)
I1011 16:00:49.356941  6583 net.cpp:165] Memory required for data: 250922800
I1011 16:00:49.356945  6583 layer_factory.hpp:77] Creating layer elu9
I1011 16:00:49.356950  6583 net.cpp:100] Creating Layer elu9
I1011 16:00:49.356951  6583 net.cpp:434] elu9 <- conv9
I1011 16:00:49.356955  6583 net.cpp:395] elu9 -> conv9 (in-place)
I1011 16:00:49.356958  6583 net.cpp:150] Setting up elu9
I1011 16:00:49.356986  6583 net.cpp:157] Top shape: 100 10 2 2 (4000)
I1011 16:00:49.356989  6583 net.cpp:165] Memory required for data: 250938800
I1011 16:00:49.356992  6583 layer_factory.hpp:77] Creating layer pool
I1011 16:00:49.356995  6583 net.cpp:100] Creating Layer pool
I1011 16:00:49.356997  6583 net.cpp:434] pool <- conv9
I1011 16:00:49.357002  6583 net.cpp:408] pool -> pool
I1011 16:00:49.357311  6583 net.cpp:150] Setting up pool
I1011 16:00:49.357321  6583 net.cpp:157] Top shape: 100 10 1 1 (1000)
I1011 16:00:49.357322  6583 net.cpp:165] Memory required for data: 250942800
I1011 16:00:49.357324  6583 layer_factory.hpp:77] Creating layer flatten
I1011 16:00:49.357329  6583 net.cpp:100] Creating Layer flatten
I1011 16:00:49.357332  6583 net.cpp:434] flatten <- pool
I1011 16:00:49.357348  6583 net.cpp:408] flatten -> flatten
I1011 16:00:49.357372  6583 net.cpp:150] Setting up flatten
I1011 16:00:49.357377  6583 net.cpp:157] Top shape: 100 10 (1000)
I1011 16:00:49.357378  6583 net.cpp:165] Memory required for data: 250946800
I1011 16:00:49.357380  6583 layer_factory.hpp:77] Creating layer score
I1011 16:00:49.357403  6583 net.cpp:100] Creating Layer score
I1011 16:00:49.357405  6583 net.cpp:434] score <- flatten
I1011 16:00:49.357410  6583 net.cpp:408] score -> score
I1011 16:00:49.357534  6583 net.cpp:150] Setting up score
I1011 16:00:49.357538  6583 net.cpp:157] Top shape: 100 10 (1000)
I1011 16:00:49.357540  6583 net.cpp:165] Memory required for data: 250950800
I1011 16:00:49.357544  6583 layer_factory.hpp:77] Creating layer score_score_0_split
I1011 16:00:49.357549  6583 net.cpp:100] Creating Layer score_score_0_split
I1011 16:00:49.357552  6583 net.cpp:434] score_score_0_split <- score
I1011 16:00:49.357573  6583 net.cpp:408] score_score_0_split -> score_score_0_split_0
I1011 16:00:49.357576  6583 net.cpp:408] score_score_0_split -> score_score_0_split_1
I1011 16:00:49.357645  6583 net.cpp:150] Setting up score_score_0_split
I1011 16:00:49.357650  6583 net.cpp:157] Top shape: 100 10 (1000)
I1011 16:00:49.357651  6583 net.cpp:157] Top shape: 100 10 (1000)
I1011 16:00:49.357653  6583 net.cpp:165] Memory required for data: 250958800
I1011 16:00:49.357656  6583 layer_factory.hpp:77] Creating layer accuracy
I1011 16:00:49.357659  6583 net.cpp:100] Creating Layer accuracy
I1011 16:00:49.357661  6583 net.cpp:434] accuracy <- score_score_0_split_0
I1011 16:00:49.357677  6583 net.cpp:434] accuracy <- label_data_1_split_0
I1011 16:00:49.357682  6583 net.cpp:408] accuracy -> accuracy
…
