…
  stage: ""
}
type: "SGD"
I1012 23:23:01.183342  8241 solver.cpp:81] Creating training net from train_net file: /home/adam/Honours/Honours-Project/cifar-10_allcnn/relu/allcnn_relu_train.prototxt
I1012 23:23:01.183667  8241 net.cpp:58] Initializing net from parameters: 
state {
  phase: TRAIN
  level: 0
  stage: ""
}
layer {
  name: "data"
  type: "Data"
  top: "data"
  top: "label"
  transform_param {
    mean_file: "mean.binaryproto"
  }
  data_param {
    source: "../../../data/cifar-10/cifar10_train_lmdb"
    batch_size: 64
    backend: LMDB
  }
}
layer {
  name: "conv1"
  type: "Convolution"
  bottom: "data"
  top: "conv1"
  convolution_param {
    num_output: 96
    kernel_size: 3
    weight_filler {
      type: "xavier"
    }
  }
}
layer {
  name: "relu1"
  type: "ReLU"
  bottom: "conv1"
  top: "conv1"
}
layer {
  name: "conv2"
  type: "Convolution"
  bottom: "conv1"
  top: "conv2"
  convolution_param {
    num_output: 96
    kernel_size: 3
    weight_filler {
      type: "xavier"
    }
  }
}
layer {
  name: "bn1"
  type: "BatchNorm"
  bottom: "conv2"
  top: "bn1"
}
layer {
  name: "relu2"
  type: "ReLU"
  bottom: "bn1"
  top: "bn1"
}
layer {
  name: "conv3"
  type: "Convolution"
  bottom: "bn1"
  top: "conv3"
  convolution_param {
    num_output: 96
    kernel_size: 3
    stride: 2
    weight_filler {
      type: "xavier"
    }
  }
}
layer {
  name: "drop1"
  type: "Dropout"
  bottom: "conv3"
  top: "drop1"
  dropout_param {
    dropout_ratio: 0.5
  }
}
layer {
  name: "relu3"
  type: "ReLU"
  bottom: "drop1"
  top: "drop1"
}
layer {
  name: "conv4"
  type: "Convolution"
  bottom: "drop1"
  top: "conv4"
  convolution_param {
    num_output: 192
    kernel_size: 3
    weight_filler {
      type: "xavier"
    }
  }
}
layer {
  name: "relu4"
  type: "ReLU"
  bottom: "conv4"
  top: "conv4"
}
layer {
  name: "conv5"
  type: "Convolution"
  bottom: "conv4"
  top: "conv5"
  convolution_param {
    num_output: 192
    kernel_size: 3
    weight_filler {
      type: "xavier"
    }
  }
}
layer {
  name: "bn2"
  type: "BatchNorm"
  bottom: "conv5"
  top: "bn2"
}
layer {
  name: "relu5"
  type: "ReLU"
  bottom: "bn2"
  top: "bn2"
}
layer {
  name: "conv6"
  type: "Convolution"
  bottom: "bn2"
  top: "conv6"
  convolution_param {
    num_output: 192
    kernel_size: 3
    stride: 2
    weight_filler {
      type: "xavier"
    }
  }
}
layer {
  name: "drop4"
  type: "Dropout"
  bottom: "conv6"
  top: "drop4"
  dropout_param {
    dropout_ratio: 0.5
  }
}
layer {
  name: "relu6"
  type: "ReLU"
  bottom: "drop4"
  top: "drop4"
}
layer {
  name: "conv7"
  type: "Convolution"
  bottom: "drop4"
  top: "conv7"
  convolution_param {
    num_output: 192
    kernel_size: 3
    weight_filler {
      type: "xavier"
    }
  }
}
layer {
  name: "relu7"
  type: "ReLU"
  bottom: "conv7"
  top: "conv7"
}
layer {
  name: "conv8"
  type: "Convolution"
  bottom: "conv7"
  top: "conv8"
  convolution_param {
    num_output: 192
    kernel_size: 1
    weight_filler {
      type: "xavier"
    }
  }
}
layer {
  name: "relu8"
  type: "ReLU"
  bottom: "conv8"
  top: "conv8"
}
layer {
  name: "conv9"
  type: "Convolution"
  bottom: "conv8"
  top: "conv9"
  convolution_param {
    num_output: 10
    kernel_size: 1
    weight_filler {
      type: "xavier"
    }
  }
}
layer {
  name: "relu9"
  type: "ReLU"
  bottom: "conv9"
  top: "conv9"
}
layer {
  name: "pool"
  type: "Pooling"
  bottom: "conv9"
  top: "pool"
  pooling_param {
    pool: AVE
    global_pooling: true
  }
}
layer {
  name: "flatten"
  type: "Flatten"
  bottom: "pool"
  top: "flatten"
}
layer {
  name: "score"
  type: "InnerProduct"
  bottom: "flatten"
  top: "score"
  inner_product_param {
    num_output: 10
    weight_filler {
      type: "gaussian"
    }
  }
}
layer {
  name: "accuracy"
  type: "Accuracy"
  bottom: "score"
  bottom: "label"
  top: "accuracy"
}
layer {
  name: "loss"
  type: "SoftmaxWithLoss"
  bottom: "score"
  bottom: "label"
  top: "loss"
}
I1012 23:23:01.183823  8241 layer_factory.hpp:77] Creating layer data
I1012 23:23:01.184350  8241 net.cpp:100] Creating Layer data
I1012 23:23:01.184360  8241 net.cpp:408] data -> data
I1012 23:23:01.184391  8241 net.cpp:408] data -> label
I1012 23:23:01.184415  8241 data_transformer.cpp:25] Loading mean file from: mean.binaryproto
I1012 23:23:01.185055  8246 db_lmdb.cpp:35] Opened lmdb ../../../data/cifar-10/cifar10_train_lmdb
I1012 23:23:01.191431  8241 data_layer.cpp:41] output data size: 64,3,32,32
I1012 23:23:01.192975  8241 net.cpp:150] Setting up data
I1012 23:23:01.193002  8241 net.cpp:157] Top shape: 64 3 32 32 (196608)
I1012 23:23:01.193006  8241 net.cpp:157] Top shape: 64 (64)
I1012 23:23:01.193007  8241 net.cpp:165] Memory required for data: 786688
I1012 23:23:01.193016  8241 layer_factory.hpp:77] Creating layer label_data_1_split
I1012 23:23:01.193042  8241 net.cpp:100] Creating Layer label_data_1_split
I1012 23:23:01.193048  8241 net.cpp:434] label_data_1_split <- label
I1012 23:23:01.193069  8241 net.cpp:408] label_data_1_split -> label_data_1_split_0
I1012 23:23:01.193092  8241 net.cpp:408] label_data_1_split -> label_data_1_split_1
I1012 23:23:01.193123  8241 net.cpp:150] Setting up label_data_1_split
I1012 23:23:01.193145  8241 net.cpp:157] Top shape: 64 (64)
I1012 23:23:01.193147  8241 net.cpp:157] Top shape: 64 (64)
I1012 23:23:01.193150  8241 net.cpp:165] Memory required for data: 787200
I1012 23:23:01.193152  8241 layer_factory.hpp:77] Creating layer conv1
I1012 23:23:01.193178  8241 net.cpp:100] Creating Layer conv1
I1012 23:23:01.193182  8241 net.cpp:434] conv1 <- data
I1012 23:23:01.193187  8241 net.cpp:408] conv1 -> conv1
I1012 23:23:01.330656  8241 net.cpp:150] Setting up conv1
I1012 23:23:01.330693  8241 net.cpp:157] Top shape: 64 96 30 30 (5529600)
I1012 23:23:01.330694  8241 net.cpp:165] Memory required for data: 22905600
I1012 23:23:01.330744  8241 layer_factory.hpp:77] Creating layer relu1
I1012 23:23:01.330754  8241 net.cpp:100] Creating Layer relu1
I1012 23:23:01.330775  8241 net.cpp:434] relu1 <- conv1
I1012 23:23:01.330780  8241 net.cpp:395] relu1 -> conv1 (in-place)
I1012 23:23:01.330978  8241 net.cpp:150] Setting up relu1
I1012 23:23:01.330984  8241 net.cpp:157] Top shape: 64 96 30 30 (5529600)
I1012 23:23:01.331001  8241 net.cpp:165] Memory required for data: 45024000
I1012 23:23:01.331003  8241 layer_factory.hpp:77] Creating layer conv2
I1012 23:23:01.331012  8241 net.cpp:100] Creating Layer conv2
I1012 23:23:01.331017  8241 net.cpp:434] conv2 <- conv1
I1012 23:23:01.331020  8241 net.cpp:408] conv2 -> conv2
I1012 23:23:01.333077  8241 net.cpp:150] Setting up conv2
I1012 23:23:01.333106  8241 net.cpp:157] Top shape: 64 96 28 28 (4816896)
I1012 23:23:01.333108  8241 net.cpp:165] Memory required for data: 64291584
I1012 23:23:01.333117  8241 layer_factory.hpp:77] Creating layer bn1
I1012 23:23:01.333122  8241 net.cpp:100] Creating Layer bn1
I1012 23:23:01.333127  8241 net.cpp:434] bn1 <- conv2
I1012 23:23:01.333145  8241 net.cpp:408] bn1 -> bn1
I1012 23:23:01.333331  8241 net.cpp:150] Setting up bn1
I1012 23:23:01.333336  8241 net.cpp:157] Top shape: 64 96 28 28 (4816896)
I1012 23:23:01.333338  8241 net.cpp:165] Memory required for data: 83559168
I1012 23:23:01.333345  8241 layer_factory.hpp:77] Creating layer relu2
I1012 23:23:01.333349  8241 net.cpp:100] Creating Layer relu2
I1012 23:23:01.333351  8241 net.cpp:434] relu2 <- bn1
I1012 23:23:01.333354  8241 net.cpp:395] relu2 -> bn1 (in-place)
I1012 23:23:01.333533  8241 net.cpp:150] Setting up relu2
I1012 23:23:01.333539  8241 net.cpp:157] Top shape: 64 96 28 28 (4816896)
I1012 23:23:01.333551  8241 net.cpp:165] Memory required for data: 102826752
I1012 23:23:01.333554  8241 layer_factory.hpp:77] Creating layer conv3
I1012 23:23:01.333560  8241 net.cpp:100] Creating Layer conv3
I1012 23:23:01.333562  8241 net.cpp:434] conv3 <- bn1
I1012 23:23:01.333581  8241 net.cpp:408] conv3 -> conv3
I1012 23:23:01.334728  8241 net.cpp:150] Setting up conv3
I1012 23:23:01.334738  8241 net.cpp:157] Top shape: 64 96 13 13 (1038336)
I1012 23:23:01.334740  8241 net.cpp:165] Memory required for data: 106980096
I1012 23:23:01.334748  8241 layer_factory.hpp:77] Creating layer drop1
I1012 23:23:01.334753  8241 net.cpp:100] Creating Layer drop1
I1012 23:23:01.334755  8241 net.cpp:434] drop1 <- conv3
I1012 23:23:01.334758  8241 net.cpp:408] drop1 -> drop1
I1012 23:23:01.334805  8241 net.cpp:150] Setting up drop1
I1012 23:23:01.334823  8241 net.cpp:157] Top shape: 64 96 13 13 (1038336)
I1012 23:23:01.334825  8241 net.cpp:165] Memory required for data: 111133440
I1012 23:23:01.334827  8241 layer_factory.hpp:77] Creating layer relu3
I1012 23:23:01.334843  8241 net.cpp:100] Creating Layer relu3
I1012 23:23:01.334846  8241 net.cpp:434] relu3 <- drop1
I1012 23:23:01.334848  8241 net.cpp:395] relu3 -> drop1 (in-place)
I1012 23:23:01.335121  8241 net.cpp:150] Setting up relu3
I1012 23:23:01.335129  8241 net.cpp:157] Top shape: 64 96 13 13 (1038336)
I1012 23:23:01.335131  8241 net.cpp:165] Memory required for data: 115286784
I1012 23:23:01.335134  8241 layer_factory.hpp:77] Creating layer conv4
I1012 23:23:01.335139  8241 net.cpp:100] Creating Layer conv4
I1012 23:23:01.335141  8241 net.cpp:434] conv4 <- drop1
I1012 23:23:01.335145  8241 net.cpp:408] conv4 -> conv4
I1012 23:23:01.336943  8241 net.cpp:150] Setting up conv4
I1012 23:23:01.336953  8241 net.cpp:157] Top shape: 64 192 11 11 (1486848)
I1012 23:23:01.336956  8241 net.cpp:165] Memory required for data: 121234176
I1012 23:23:01.336961  8241 layer_factory.hpp:77] Creating layer relu4
I1012 23:23:01.336964  8241 net.cpp:100] Creating Layer relu4
I1012 23:23:01.336966  8241 net.cpp:434] relu4 <- conv4
I1012 23:23:01.336971  8241 net.cpp:395] relu4 -> conv4 (in-place)
I1012 23:23:01.337143  8241 net.cpp:150] Setting up relu4
I1012 23:23:01.337151  8241 net.cpp:157] Top shape: 64 192 11 11 (1486848)
I1012 23:23:01.337152  8241 net.cpp:165] Memory required for data: 127181568
I1012 23:23:01.337154  8241 layer_factory.hpp:77] Creating layer conv5
I1012 23:23:01.337162  8241 net.cpp:100] Creating Layer conv5
I1012 23:23:01.337163  8241 net.cpp:434] conv5 <- conv4
I1012 23:23:01.337167  8241 net.cpp:408] conv5 -> conv5
I1012 23:23:01.339702  8241 net.cpp:150] Setting up conv5
I1012 23:23:01.339714  8241 net.cpp:157] Top shape: 64 192 9 9 (995328)
I1012 23:23:01.339715  8241 net.cpp:165] Memory required for data: 131162880
I1012 23:23:01.339720  8241 layer_factory.hpp:77] Creating layer bn2
I1012 23:23:01.339725  8241 net.cpp:100] Creating Layer bn2
I1012 23:23:01.339726  8241 net.cpp:434] bn2 <- conv5
I1012 23:23:01.339730  8241 net.cpp:408] bn2 -> bn2
I1012 23:23:01.339932  8241 net.cpp:150] Setting up bn2
I1012 23:23:01.339938  8241 net.cpp:157] Top shape: 64 192 9 9 (995328)
I1012 23:23:01.339941  8241 net.cpp:165] Memory required for data: 135144192
I1012 23:23:01.339944  8241 layer_factory.hpp:77] Creating layer relu5
I1012 23:23:01.339948  8241 net.cpp:100] Creating Layer relu5
I1012 23:23:01.339951  8241 net.cpp:434] relu5 <- bn2
I1012 23:23:01.339953  8241 net.cpp:395] relu5 -> bn2 (in-place)
I1012 23:23:01.340123  8241 net.cpp:150] Setting up relu5
I1012 23:23:01.340129  8241 net.cpp:157] Top shape: 64 192 9 9 (995328)
I1012 23:23:01.340131  8241 net.cpp:165] Memory required for data: 139125504
I1012 23:23:01.340133  8241 layer_factory.hpp:77] Creating layer conv6
I1012 23:23:01.340139  8241 net.cpp:100] Creating Layer conv6
I1012 23:23:01.340142  8241 net.cpp:434] conv6 <- bn2
I1012 23:23:01.340145  8241 net.cpp:408] conv6 -> conv6
I1012 23:23:01.342824  8241 net.cpp:150] Setting up conv6
I1012 23:23:01.342842  8241 net.cpp:157] Top shape: 64 192 4 4 (196608)
I1012 23:23:01.342844  8241 net.cpp:165] Memory required for data: 139911936
I1012 23:23:01.342887  8241 layer_factory.hpp:77] Creating layer drop4
I1012 23:23:01.342911  8241 net.cpp:100] Creating Layer drop4
I1012 23:23:01.342931  8241 net.cpp:434] drop4 <- conv6
I1012 23:23:01.342936  8241 net.cpp:408] drop4 -> drop4
I1012 23:23:01.343008  8241 net.cpp:150] Setting up drop4
I1012 23:23:01.343014  8241 net.cpp:157] Top shape: 64 192 4 4 (196608)
I1012 23:23:01.343015  8241 net.cpp:165] Memory required for data: 140698368
I1012 23:23:01.343031  8241 layer_factory.hpp:77] Creating layer relu6
I1012 23:23:01.343035  8241 net.cpp:100] Creating Layer relu6
I1012 23:23:01.343037  8241 net.cpp:434] relu6 <- drop4
I1012 23:23:01.343041  8241 net.cpp:395] relu6 -> drop4 (in-place)
I1012 23:23:01.343366  8241 net.cpp:150] Setting up relu6
I1012 23:23:01.343389  8241 net.cpp:157] Top shape: 64 192 4 4 (196608)
I1012 23:23:01.343391  8241 net.cpp:165] Memory required for data: 141484800
I1012 23:23:01.343394  8241 layer_factory.hpp:77] Creating layer conv7
I1012 23:23:01.343402  8241 net.cpp:100] Creating Layer conv7
I1012 23:23:01.343405  8241 net.cpp:434] conv7 <- drop4
I1012 23:23:01.343425  8241 net.cpp:408] conv7 -> conv7
I1012 23:23:01.346354  8241 net.cpp:150] Setting up conv7
I1012 23:23:01.346369  8241 net.cpp:157] Top shape: 64 192 2 2 (49152)
I1012 23:23:01.346371  8241 net.cpp:165] Memory required for data: 141681408
I1012 23:23:01.346376  8241 layer_factory.hpp:77] Creating layer relu7
I1012 23:23:01.346384  8241 net.cpp:100] Creating Layer relu7
I1012 23:23:01.346386  8241 net.cpp:434] relu7 <- conv7
I1012 23:23:01.346390  8241 net.cpp:395] relu7 -> conv7 (in-place)
I1012 23:23:01.346683  8241 net.cpp:150] Setting up relu7
I1012 23:23:01.346693  8241 net.cpp:157] Top shape: 64 192 2 2 (49152)
I1012 23:23:01.346695  8241 net.cpp:165] Memory required for data: 141878016
I1012 23:23:01.346698  8241 layer_factory.hpp:77] Creating layer conv8
I1012 23:23:01.346704  8241 net.cpp:100] Creating Layer conv8
I1012 23:23:01.346706  8241 net.cpp:434] conv8 <- conv7
I1012 23:23:01.346711  8241 net.cpp:408] conv8 -> conv8
I1012 23:23:01.347965  8241 net.cpp:150] Setting up conv8
I1012 23:23:01.347975  8241 net.cpp:157] Top shape: 64 192 2 2 (49152)
I1012 23:23:01.347978  8241 net.cpp:165] Memory required for data: 142074624
I1012 23:23:01.347982  8241 layer_factory.hpp:77] Creating layer relu8
I1012 23:23:01.347986  8241 net.cpp:100] Creating Layer relu8
I1012 23:23:01.347988  8241 net.cpp:434] relu8 <- conv8
I1012 23:23:01.347991  8241 net.cpp:395] relu8 -> conv8 (in-place)
I1012 23:23:01.348160  8241 net.cpp:150] Setting up relu8
I1012 23:23:01.348166  8241 net.cpp:157] Top shape: 64 192 2 2 (49152)
I1012 23:23:01.348168  8241 net.cpp:165] Memory required for data: 142271232
I1012 23:23:01.348170  8241 layer_factory.hpp:77] Creating layer conv9
I1012 23:23:01.348176  8241 net.cpp:100] Creating Layer conv9
I1012 23:23:01.348178  8241 net.cpp:434] conv9 <- conv8
I1012 23:23:01.348181  8241 net.cpp:408] conv9 -> conv9
I1012 23:23:01.348994  8241 net.cpp:150] Setting up conv9
I1012 23:23:01.349004  8241 net.cpp:157] Top shape: 64 10 2 2 (2560)
I1012 23:23:01.349005  8241 net.cpp:165] Memory required for data: 142281472
I1012 23:23:01.349010  8241 layer_factory.hpp:77] Creating layer relu9
I1012 23:23:01.349014  8241 net.cpp:100] Creating Layer relu9
I1012 23:23:01.349016  8241 net.cpp:434] relu9 <- conv9
I1012 23:23:01.349020  8241 net.cpp:395] relu9 -> conv9 (in-place)
I1012 23:23:01.349272  8241 net.cpp:150] Setting up relu9
I1012 23:23:01.349279  8241 net.cpp:157] Top shape: 64 10 2 2 (2560)
I1012 23:23:01.349282  8241 net.cpp:165] Memory required for data: 142291712
I1012 23:23:01.349283  8241 layer_factory.hpp:77] Creating layer pool
I1012 23:23:01.349289  8241 net.cpp:100] Creating Layer pool
I1012 23:23:01.349292  8241 net.cpp:434] pool <- conv9
I1012 23:23:01.349294  8241 net.cpp:408] pool -> pool
I1012 23:23:01.349489  8241 net.cpp:150] Setting up pool
I1012 23:23:01.349495  8241 net.cpp:157] Top shape: 64 10 1 1 (640)
I1012 23:23:01.349498  8241 net.cpp:165] Memory required for data: 142294272
I1012 23:23:01.349509  8241 layer_factory.hpp:77] Creating layer flatten
I1012 23:23:01.349512  8241 net.cpp:100] Creating Layer flatten
I1012 23:23:01.349514  8241 net.cpp:434] flatten <- pool
I1012 23:23:01.349519  8241 net.cpp:408] flatten -> flatten
I1012 23:23:01.349553  8241 net.cpp:150] Setting up flatten
I1012 23:23:01.349557  8241 net.cpp:157] Top shape: 64 10 (640)
I1012 23:23:01.349560  8241 net.cpp:165] Memory required for data: 142296832
I1012 23:23:01.349561  8241 layer_factory.hpp:77] Creating layer score
I1012 23:23:01.349581  8241 net.cpp:100] Creating Layer score
I1012 23:23:01.349584  8241 net.cpp:434] score <- flatten
I1012 23:23:01.349599  8241 net.cpp:408] score -> score
I1012 23:23:01.349761  8241 net.cpp:150] Setting up score
I1012 23:23:01.349767  8241 net.cpp:157] Top shape: 64 10 (640)
I1012 23:23:01.349768  8241 net.cpp:165] Memory required for data: 142299392
I1012 23:23:01.349772  8241 layer_factory.hpp:77] Creating layer score_score_0_split
I1012 23:23:01.349776  8241 net.cpp:100] Creating Layer score_score_0_split
I1012 23:23:01.349778  8241 net.cpp:434] score_score_0_split <- score
I1012 23:23:01.349781  8241 net.cpp:408] score_score_0_split -> score_score_0_split_0
I1012 23:23:01.349786  8241 net.cpp:408] score_score_0_split -> score_score_0_split_1
I1012 23:23:01.349827  8241 net.cpp:150] Setting up score_score_0_split
I1012 23:23:01.349830  8241 net.cpp:157] Top shape: 64 10 (640)
I1012 23:23:01.349848  8241 net.cpp:157] Top shape: 64 10 (640)
I1012 23:23:01.349848  8241 net.cpp:165] Memory required for data: 142304512
I1012 23:23:01.349850  8241 layer_factory.hpp:77] Creating layer accuracy
I1012 23:23:01.349869  8241 net.cpp:100] Creating Layer accuracy
I1012 23:23:01.349871  8241 net.cpp:434] accuracy <- score_score_0_split_0
I1012 23:23:01.349874  8241 net.cpp:434] accuracy <- label_data_1_split_0
I1012 23:23:01.349891  8241 net.cpp:408] accuracy -> accuracy
…
I1012 23:23:01.350486  8241 net.cpp:283] Network initialization done.
I1012 23:23:01.350674  8241 solver.cpp:181] Creating test net (#0) specified by test_net file: /home/adam/Honours/Honours-Project/cifar-10_allcnn/relu/allcnn_relu_test.prototxt
I1012 23:23:01.350846  8241 net.cpp:58] Initializing net from parameters: 
state {
  phase: TEST
}
layer {
  name: "data"
  type: "Data"
  top: "data"
  top: "label"
  transform_param {
    mean_file: "mean.binaryproto"
  }
  data_param {
    source: "../../../data/cifar-10/cifar10_test_lmdb"
    batch_size: 100
    backend: LMDB
  }
}
layer {
  name: "conv1"
  type: "Convolution"
  bottom: "data"
  top: "conv1"
  convolution_param {
    num_output: 96
    kernel_size: 3
    weight_filler {
      type: "xavier"
    }
  }
}
layer {
  name: "relu1"
  type: "ReLU"
  bottom: "conv1"
  top: "conv1"
}
layer {
  name: "conv2"
  type: "Convolution"
  bottom: "conv1"
  top: "conv2"
  convolution_param {
    num_output: 96
    kernel_size: 3
    weight_filler {
      type: "xavier"
    }
  }
}
layer {
  name: "bn1"
  type: "BatchNorm"
  bottom: "conv2"
  top: "bn1"
}
layer {
  name: "relu2"
  type: "ReLU"
  bottom: "bn1"
  top: "bn1"
}
layer {
  name: "conv3"
  type: "Convolution"
  bottom: "bn1"
  top: "conv3"
  convolution_param {
    num_output: 96
    kernel_size: 3
    stride: 2
    weight_filler {
      type: "xavier"
    }
  }
}
layer {
  name: "drop1"
  type: "Dropout"
  bottom: "conv3"
  top: "drop1"
  dropout_param {
    dropout_ratio: 0.5
  }
}
layer {
  name: "relu3"
  type: "ReLU"
  bottom: "drop1"
  top: "drop1"
}
layer {
  name: "conv4"
  type: "Convolution"
  bottom: "drop1"
  top: "conv4"
  convolution_param {
    num_output: 192
    kernel_size: 3
    weight_filler {
      type: "xavier"
    }
  }
}
layer {
  name: "relu4"
  type: "ReLU"
  bottom: "conv4"
  top: "conv4"
}
layer {
  name: "conv5"
  type: "Convolution"
  bottom: "conv4"
  top: "conv5"
  convolution_param {
    num_output: 192
    kernel_size: 3
    weight_filler {
      type: "xavier"
    }
  }
}
layer {
  name: "bn2"
  type: "BatchNorm"
  bottom: "conv5"
  top: "bn2"
}
layer {
  name: "relu5"
  type: "ReLU"
  bottom: "bn2"
  top: "bn2"
}
layer {
  name: "conv6"
  type: "Convolution"
  bottom: "bn2"
  top: "conv6"
  convolution_param {
    num_output: 192
    kernel_size: 3
    stride: 2
    weight_filler {
      type: "xavier"
    }
  }
}
layer {
  name: "drop4"
  type: "Dropout"
  bottom: "conv6"
  top: "drop4"
  dropout_param {
    dropout_ratio: 0.5
  }
}
layer {
  name: "relu6"
  type: "ReLU"
  bottom: "drop4"
  top: "drop4"
}
layer {
  name: "conv7"
  type: "Convolution"
  bottom: "drop4"
  top: "conv7"
  convolution_param {
    num_output: 192
    kernel_size: 3
    weight_filler {
      type: "xavier"
    }
  }
}
layer {
  name: "relu7"
  type: "ReLU"
  bottom: "conv7"
  top: "conv7"
}
layer {
  name: "conv8"
  type: "Convolution"
  bottom: "conv7"
  top: "conv8"
  convolution_param {
    num_output: 192
    kernel_size: 1
    weight_filler {
      type: "xavier"
    }
  }
}
layer {
  name: "relu8"
  type: "ReLU"
  bottom: "conv8"
  top: "conv8"
}
layer {
  name: "conv9"
  type: "Convolution"
  bottom: "conv8"
  top: "conv9"
  convolution_param {
    num_output: 10
    kernel_size: 1
    weight_filler {
      type: "xavier"
    }
  }
}
layer {
  name: "relu9"
  type: "ReLU"
  bottom: "conv9"
  top: "conv9"
}
layer {
  name: "pool"
  type: "Pooling"
  bottom: "conv9"
  top: "pool"
  pooling_param {
    pool: AVE
    global_pooling: true
  }
}
layer {
  name: "flatten"
  type: "Flatten"
  bottom: "pool"
  top: "flatten"
}
layer {
  name: "score"
  type: "InnerProduct"
  bottom: "flatten"
  top: "score"
  inner_product_param {
    num_output: 10
    weight_filler {
      type: "gaussian"
    }
  }
}
layer {
  name: "accuracy"
  type: "Accuracy"
  bottom: "score"
  bottom: "label"
  top: "accuracy"
}
layer {
  name: "loss"
  type: "SoftmaxWithLoss"
  bottom: "score"
  bottom: "label"
  top: "loss"
}
I1012 23:23:01.350975  8241 layer_factory.hpp:77] Creating layer data
I1012 23:23:01.351058  8241 net.cpp:100] Creating Layer data
I1012 23:23:01.351065  8241 net.cpp:408] data -> data
I1012 23:23:01.351071  8241 net.cpp:408] data -> label
I1012 23:23:01.351076  8241 data_transformer.cpp:25] Loading mean file from: mean.binaryproto
I1012 23:23:01.351845  8248 db_lmdb.cpp:35] Opened lmdb ../../../data/cifar-10/cifar10_test_lmdb
I1012 23:23:01.351949  8241 data_layer.cpp:41] output data size: 100,3,32,32
I1012 23:23:01.353816  8241 net.cpp:150] Setting up data
I1012 23:23:01.353854  8241 net.cpp:157] Top shape: 100 3 32 32 (307200)
I1012 23:23:01.353857  8241 net.cpp:157] Top shape: 100 (100)
I1012 23:23:01.353859  8241 net.cpp:165] Memory required for data: 1229200
I1012 23:23:01.353863  8241 layer_factory.hpp:77] Creating layer label_data_1_split
I1012 23:23:01.353871  8241 net.cpp:100] Creating Layer label_data_1_split
I1012 23:23:01.353875  8241 net.cpp:434] label_data_1_split <- label
I1012 23:23:01.353894  8241 net.cpp:408] label_data_1_split -> label_data_1_split_0
I1012 23:23:01.353917  8241 net.cpp:408] label_data_1_split -> label_data_1_split_1
I1012 23:23:01.353957  8241 net.cpp:150] Setting up label_data_1_split
I1012 23:23:01.353962  8241 net.cpp:157] Top shape: 100 (100)
I1012 23:23:01.353965  8241 net.cpp:157] Top shape: 100 (100)
I1012 23:23:01.353966  8241 net.cpp:165] Memory required for data: 1230000
I1012 23:23:01.353968  8241 layer_factory.hpp:77] Creating layer conv1
I1012 23:23:01.353976  8241 net.cpp:100] Creating Layer conv1
I1012 23:23:01.353979  8241 net.cpp:434] conv1 <- data
I1012 23:23:01.353996  8241 net.cpp:408] conv1 -> conv1
I1012 23:23:01.355217  8241 net.cpp:150] Setting up conv1
I1012 23:23:01.355255  8241 net.cpp:157] Top shape: 100 96 30 30 (8640000)
I1012 23:23:01.355260  8241 net.cpp:165] Memory required for data: 35790000
I1012 23:23:01.355283  8241 layer_factory.hpp:77] Creating layer relu1
I1012 23:23:01.355289  8241 net.cpp:100] Creating Layer relu1
I1012 23:23:01.355291  8241 net.cpp:434] relu1 <- conv1
I1012 23:23:01.355295  8241 net.cpp:395] relu1 -> conv1 (in-place)
I1012 23:23:01.355451  8241 net.cpp:150] Setting up relu1
I1012 23:23:01.355458  8241 net.cpp:157] Top shape: 100 96 30 30 (8640000)
I1012 23:23:01.355474  8241 net.cpp:165] Memory required for data: 70350000
I1012 23:23:01.355478  8241 layer_factory.hpp:77] Creating layer conv2
I1012 23:23:01.355499  8241 net.cpp:100] Creating Layer conv2
I1012 23:23:01.355501  8241 net.cpp:434] conv2 <- conv1
I1012 23:23:01.355505  8241 net.cpp:408] conv2 -> conv2
I1012 23:23:01.356981  8241 net.cpp:150] Setting up conv2
I1012 23:23:01.356992  8241 net.cpp:157] Top shape: 100 96 28 28 (7526400)
I1012 23:23:01.356993  8241 net.cpp:165] Memory required for data: 100455600
I1012 23:23:01.357000  8241 layer_factory.hpp:77] Creating layer bn1
I1012 23:23:01.357007  8241 net.cpp:100] Creating Layer bn1
I1012 23:23:01.357010  8241 net.cpp:434] bn1 <- conv2
I1012 23:23:01.357014  8241 net.cpp:408] bn1 -> bn1
I1012 23:23:01.357203  8241 net.cpp:150] Setting up bn1
I1012 23:23:01.357210  8241 net.cpp:157] Top shape: 100 96 28 28 (7526400)
I1012 23:23:01.357213  8241 net.cpp:165] Memory required for data: 130561200
I1012 23:23:01.357218  8241 layer_factory.hpp:77] Creating layer relu2
I1012 23:23:01.357223  8241 net.cpp:100] Creating Layer relu2
I1012 23:23:01.357225  8241 net.cpp:434] relu2 <- bn1
I1012 23:23:01.357228  8241 net.cpp:395] relu2 -> bn1 (in-place)
I1012 23:23:01.357470  8241 net.cpp:150] Setting up relu2
I1012 23:23:01.357478  8241 net.cpp:157] Top shape: 100 96 28 28 (7526400)
I1012 23:23:01.357482  8241 net.cpp:165] Memory required for data: 160666800
I1012 23:23:01.357484  8241 layer_factory.hpp:77] Creating layer conv3
I1012 23:23:01.357491  8241 net.cpp:100] Creating Layer conv3
I1012 23:23:01.357492  8241 net.cpp:434] conv3 <- bn1
I1012 23:23:01.357497  8241 net.cpp:408] conv3 -> conv3
I1012 23:23:01.358660  8241 net.cpp:150] Setting up conv3
I1012 23:23:01.358669  8241 net.cpp:157] Top shape: 100 96 13 13 (1622400)
I1012 23:23:01.358672  8241 net.cpp:165] Memory required for data: 167156400
I1012 23:23:01.358681  8241 layer_factory.hpp:77] Creating layer drop1
I1012 23:23:01.358688  8241 net.cpp:100] Creating Layer drop1
I1012 23:23:01.358691  8241 net.cpp:434] drop1 <- conv3
I1012 23:23:01.358695  8241 net.cpp:408] drop1 -> drop1
I1012 23:23:01.358732  8241 net.cpp:150] Setting up drop1
I1012 23:23:01.358736  8241 net.cpp:157] Top shape: 100 96 13 13 (1622400)
I1012 23:23:01.358738  8241 net.cpp:165] Memory required for data: 173646000
I1012 23:23:01.358741  8241 layer_factory.hpp:77] Creating layer relu3
I1012 23:23:01.358743  8241 net.cpp:100] Creating Layer relu3
I1012 23:23:01.358747  8241 net.cpp:434] relu3 <- drop1
I1012 23:23:01.358749  8241 net.cpp:395] relu3 -> drop1 (in-place)
I1012 23:23:01.358989  8241 net.cpp:150] Setting up relu3
I1012 23:23:01.358995  8241 net.cpp:157] Top shape: 100 96 13 13 (1622400)
I1012 23:23:01.358997  8241 net.cpp:165] Memory required for data: 180135600
I1012 23:23:01.359000  8241 layer_factory.hpp:77] Creating layer conv4
I1012 23:23:01.359006  8241 net.cpp:100] Creating Layer conv4
I1012 23:23:01.359009  8241 net.cpp:434] conv4 <- drop1
I1012 23:23:01.359014  8241 net.cpp:408] conv4 -> conv4
I1012 23:23:01.360929  8241 net.cpp:150] Setting up conv4
I1012 23:23:01.360939  8241 net.cpp:157] Top shape: 100 192 11 11 (2323200)
I1012 23:23:01.360942  8241 net.cpp:165] Memory required for data: 189428400
I1012 23:23:01.360947  8241 layer_factory.hpp:77] Creating layer relu4
I1012 23:23:01.360954  8241 net.cpp:100] Creating Layer relu4
I1012 23:23:01.360956  8241 net.cpp:434] relu4 <- conv4
I1012 23:23:01.360960  8241 net.cpp:395] relu4 -> conv4 (in-place)
I1012 23:23:01.361101  8241 net.cpp:150] Setting up relu4
I1012 23:23:01.361107  8241 net.cpp:157] Top shape: 100 192 11 11 (2323200)
I1012 23:23:01.361109  8241 net.cpp:165] Memory required for data: 198721200
I1012 23:23:01.361111  8241 layer_factory.hpp:77] Creating layer conv5
I1012 23:23:01.361119  8241 net.cpp:100] Creating Layer conv5
I1012 23:23:01.361121  8241 net.cpp:434] conv5 <- conv4
I1012 23:23:01.361125  8241 net.cpp:408] conv5 -> conv5
I1012 23:23:01.363963  8241 net.cpp:150] Setting up conv5
I1012 23:23:01.363976  8241 net.cpp:157] Top shape: 100 192 9 9 (1555200)
I1012 23:23:01.363977  8241 net.cpp:165] Memory required for data: 204942000
I1012 23:23:01.363983  8241 layer_factory.hpp:77] Creating layer bn2
I1012 23:23:01.363988  8241 net.cpp:100] Creating Layer bn2
I1012 23:23:01.363991  8241 net.cpp:434] bn2 <- conv5
I1012 23:23:01.363996  8241 net.cpp:408] bn2 -> bn2
I1012 23:23:01.364209  8241 net.cpp:150] Setting up bn2
I1012 23:23:01.364214  8241 net.cpp:157] Top shape: 100 192 9 9 (1555200)
I1012 23:23:01.364217  8241 net.cpp:165] Memory required for data: 211162800
I1012 23:23:01.364222  8241 layer_factory.hpp:77] Creating layer relu5
I1012 23:23:01.364225  8241 net.cpp:100] Creating Layer relu5
I1012 23:23:01.364228  8241 net.cpp:434] relu5 <- bn2
I1012 23:23:01.364240  8241 net.cpp:395] relu5 -> bn2 (in-place)
I1012 23:23:01.364517  8241 net.cpp:150] Setting up relu5
I1012 23:23:01.364526  8241 net.cpp:157] Top shape: 100 192 9 9 (1555200)
I1012 23:23:01.364527  8241 net.cpp:165] Memory required for data: 217383600
I1012 23:23:01.364531  8241 layer_factory.hpp:77] Creating layer conv6
I1012 23:23:01.364537  8241 net.cpp:100] Creating Layer conv6
I1012 23:23:01.364538  8241 net.cpp:434] conv6 <- bn2
I1012 23:23:01.364544  8241 net.cpp:408] conv6 -> conv6
I1012 23:23:01.367054  8241 net.cpp:150] Setting up conv6
I1012 23:23:01.367065  8241 net.cpp:157] Top shape: 100 192 4 4 (307200)
I1012 23:23:01.367069  8241 net.cpp:165] Memory required for data: 218612400
I1012 23:23:01.367076  8241 layer_factory.hpp:77] Creating layer drop4
I1012 23:23:01.367084  8241 net.cpp:100] Creating Layer drop4
I1012 23:23:01.367086  8241 net.cpp:434] drop4 <- conv6
I1012 23:23:01.367090  8241 net.cpp:408] drop4 -> drop4
I1012 23:23:01.367152  8241 net.cpp:150] Setting up drop4
I1012 23:23:01.367169  8241 net.cpp:157] Top shape: 100 192 4 4 (307200)
I1012 23:23:01.367172  8241 net.cpp:165] Memory required for data: 219841200
I1012 23:23:01.367174  8241 layer_factory.hpp:77] Creating layer relu6
I1012 23:23:01.367177  8241 net.cpp:100] Creating Layer relu6
I1012 23:23:01.367193  8241 net.cpp:434] relu6 <- drop4
I1012 23:23:01.367197  8241 net.cpp:395] relu6 -> drop4 (in-place)
I1012 23:23:01.367446  8241 net.cpp:150] Setting up relu6
I1012 23:23:01.367455  8241 net.cpp:157] Top shape: 100 192 4 4 (307200)
I1012 23:23:01.367456  8241 net.cpp:165] Memory required for data: 221070000
I1012 23:23:01.367458  8241 layer_factory.hpp:77] Creating layer conv7
I1012 23:23:01.367465  8241 net.cpp:100] Creating Layer conv7
I1012 23:23:01.367466  8241 net.cpp:434] conv7 <- drop4
I1012 23:23:01.367470  8241 net.cpp:408] conv7 -> conv7
I1012 23:23:01.370038  8241 net.cpp:150] Setting up conv7
I1012 23:23:01.370048  8241 net.cpp:157] Top shape: 100 192 2 2 (76800)
I1012 23:23:01.370049  8241 net.cpp:165] Memory required for data: 221377200
I1012 23:23:01.370054  8241 layer_factory.hpp:77] Creating layer relu7
I1012 23:23:01.370059  8241 net.cpp:100] Creating Layer relu7
I1012 23:23:01.370060  8241 net.cpp:434] relu7 <- conv7
I1012 23:23:01.370064  8241 net.cpp:395] relu7 -> conv7 (in-place)
I1012 23:23:01.370239  8241 net.cpp:150] Setting up relu7
I1012 23:23:01.370246  8241 net.cpp:157] Top shape: 100 192 2 2 (76800)
I1012 23:23:01.370249  8241 net.cpp:165] Memory required for data: 221684400
I1012 23:23:01.370251  8241 layer_factory.hpp:77] Creating layer conv8
I1012 23:23:01.370257  8241 net.cpp:100] Creating Layer conv8
I1012 23:23:01.370273  8241 net.cpp:434] conv8 <- conv7
I1012 23:23:01.370278  8241 net.cpp:408] conv8 -> conv8
I1012 23:23:01.371260  8241 net.cpp:150] Setting up conv8
I1012 23:23:01.371269  8241 net.cpp:157] Top shape: 100 192 2 2 (76800)
I1012 23:23:01.371273  8241 net.cpp:165] Memory required for data: 221991600
I1012 23:23:01.371276  8241 layer_factory.hpp:77] Creating layer relu8
I1012 23:23:01.371280  8241 net.cpp:100] Creating Layer relu8
I1012 23:23:01.371284  8241 net.cpp:434] relu8 <- conv8
I1012 23:23:01.371286  8241 net.cpp:395] relu8 -> conv8 (in-place)
I1012 23:23:01.371546  8241 net.cpp:150] Setting up relu8
I1012 23:23:01.371553  8241 net.cpp:157] Top shape: 100 192 2 2 (76800)
I1012 23:23:01.371556  8241 net.cpp:165] Memory required for data: 222298800
I1012 23:23:01.371558  8241 layer_factory.hpp:77] Creating layer conv9
I1012 23:23:01.371563  8241 net.cpp:100] Creating Layer conv9
I1012 23:23:01.371567  8241 net.cpp:434] conv9 <- conv8
I1012 23:23:01.371570  8241 net.cpp:408] conv9 -> conv9
I1012 23:23:01.372334  8241 net.cpp:150] Setting up conv9
I1012 23:23:01.372344  8241 net.cpp:157] Top shape: 100 10 2 2 (4000)
I1012 23:23:01.372345  8241 net.cpp:165] Memory required for data: 222314800
I1012 23:23:01.372349  8241 layer_factory.hpp:77] Creating layer relu9
I1012 23:23:01.372354  8241 net.cpp:100] Creating Layer relu9
I1012 23:23:01.372356  8241 net.cpp:434] relu9 <- conv9
I1012 23:23:01.372370  8241 net.cpp:395] relu9 -> conv9 (in-place)
I1012 23:23:01.372633  8241 net.cpp:150] Setting up relu9
I1012 23:23:01.372642  8241 net.cpp:157] Top shape: 100 10 2 2 (4000)
I1012 23:23:01.372643  8241 net.cpp:165] Memory required for data: 222330800
I1012 23:23:01.372647  8241 layer_factory.hpp:77] Creating layer pool
I1012 23:23:01.372651  8241 net.cpp:100] Creating Layer pool
I1012 23:23:01.372653  8241 net.cpp:434] pool <- conv9
I1012 23:23:01.372656  8241 net.cpp:408] pool -> pool
I1012 23:23:01.372848  8241 net.cpp:150] Setting up pool
I1012 23:23:01.372853  8241 net.cpp:157] Top shape: 100 10 1 1 (1000)
I1012 23:23:01.372855  8241 net.cpp:165] Memory required for data: 222334800
I1012 23:23:01.372858  8241 layer_factory.hpp:77] Creating layer flatten
I1012 23:23:01.372861  8241 net.cpp:100] Creating Layer flatten
I1012 23:23:01.372864  8241 net.cpp:434] flatten <- pool
I1012 23:23:01.372866  8241 net.cpp:408] flatten -> flatten
I1012 23:23:01.372900  8241 net.cpp:150] Setting up flatten
I1012 23:23:01.372905  8241 net.cpp:157] Top shape: 100 10 (1000)
I1012 23:23:01.372908  8241 net.cpp:165] Memory required for data: 222338800
I1012 23:23:01.372910  8241 layer_factory.hpp:77] Creating layer score
I1012 23:23:01.372915  8241 net.cpp:100] Creating Layer score
I1012 23:23:01.372917  8241 net.cpp:434] score <- flatten
I1012 23:23:01.372936  8241 net.cpp:408] score -> score
I1012 23:23:01.373097  8241 net.cpp:150] Setting up score
I1012 23:23:01.373101  8241 net.cpp:157] Top shape: 100 10 (1000)
I1012 23:23:01.373103  8241 net.cpp:165] Memory required for data: 222342800
I1012 23:23:01.373107  8241 layer_factory.hpp:77] Creating layer score_score_0_split
I1012 23:23:01.373111  8241 net.cpp:100] Creating Layer score_score_0_split
I1012 23:23:01.373113  8241 net.cpp:434] score_score_0_split <- score
I1012 23:23:01.373116  8241 net.cpp:408] score_score_0_split -> score_score_0_split_0
I1012 23:23:01.373121  8241 net.cpp:408] score_score_0_split -> score_score_0_split_1
I1012 23:23:01.373165  8241 net.cpp:150] Setting up score_score_0_split
I1012 23:23:01.373169  8241 net.cpp:157] Top shape: 100 10 (1000)
I1012 23:23:01.373186  8241 net.cpp:157] Top shape: 100 10 (1000)
I1012 23:23:01.373188  8241 net.cpp:165] Memory required for data: 222350800
I1012 23:23:01.373189  8241 layer_factory.hpp:77] Creating layer accuracy
I1012 23:23:01.373208  8241 net.cpp:100] Creating Layer accuracy
I1012 23:23:01.373209  8241 net.cpp:434] accuracy <- score_score_0_split_0
I1012 23:23:01.373212  8241 net.cpp:434] accuracy <- label_data_1_split_0
I1012 23:23:01.373229  8241 net.cpp:408] accuracy -> accuracy
…
