…
  stage: ""
}
type: "SGD"
I1011 16:54:34.152849  6987 solver.cpp:81] Creating training net from train_net file: /home/adam/Honours/Honours-Project/cifar-10_allcnn/elu/allcnn_elu_train.prototxt
I1011 16:54:34.153177  6987 net.cpp:58] Initializing net from parameters: 
state {
  phase: TRAIN
  level: 0
  stage: ""
}
layer {
  name: "data"
  type: "Data"
  top: "data"
  top: "label"
  transform_param {
    mean_file: "mean.binaryproto"
  }
  data_param {
    source: "../../../data/cifar-10/cifar10_train_lmdb"
    batch_size: 64
    backend: LMDB
  }
}
layer {
  name: "conv1"
  type: "Convolution"
  bottom: "data"
  top: "conv1"
  convolution_param {
    num_output: 96
    kernel_size: 3
    weight_filler {
      type: "xavier"
    }
  }
}
layer {
  name: "elu1"
  type: "ELU"
  bottom: "conv1"
  top: "conv1"
}
layer {
  name: "conv2"
  type: "Convolution"
  bottom: "conv1"
  top: "conv2"
  convolution_param {
    num_output: 96
    kernel_size: 3
    weight_filler {
      type: "xavier"
    }
  }
}
layer {
  name: "bn1"
  type: "BatchNorm"
  bottom: "conv2"
  top: "bn1"
}
layer {
  name: "elu2"
  type: "ELU"
  bottom: "bn1"
  top: "bn1"
}
layer {
  name: "drop1"
  type: "Dropout"
  bottom: "bn1"
  top: "drop1"
  dropout_param {
    dropout_ratio: 0.5
  }
}
layer {
  name: "conv3"
  type: "Convolution"
  bottom: "drop1"
  top: "conv3"
  convolution_param {
    num_output: 96
    kernel_size: 3
    stride: 2
    weight_filler {
      type: "xavier"
    }
  }
}
layer {
  name: "elu3"
  type: "ELU"
  bottom: "conv3"
  top: "conv3"
}
layer {
  name: "conv4"
  type: "Convolution"
  bottom: "conv3"
  top: "conv4"
  convolution_param {
    num_output: 192
    kernel_size: 3
    weight_filler {
      type: "xavier"
    }
  }
}
layer {
  name: "elu4"
  type: "ELU"
  bottom: "conv4"
  top: "conv4"
}
layer {
  name: "conv5"
  type: "Convolution"
  bottom: "conv4"
  top: "conv5"
  convolution_param {
    num_output: 192
    kernel_size: 3
    weight_filler {
      type: "xavier"
    }
  }
}
layer {
  name: "bn2"
  type: "BatchNorm"
  bottom: "conv5"
  top: "bn2"
}
layer {
  name: "elu5"
  type: "ELU"
  bottom: "bn2"
  top: "bn2"
}
layer {
  name: "drop4"
  type: "Dropout"
  bottom: "bn2"
  top: "drop4"
  dropout_param {
    dropout_ratio: 0.5
  }
}
layer {
  name: "conv6"
  type: "Convolution"
  bottom: "drop4"
  top: "conv6"
  convolution_param {
    num_output: 192
    kernel_size: 3
    stride: 2
    weight_filler {
      type: "xavier"
    }
  }
}
layer {
  name: "elu6"
  type: "ELU"
  bottom: "conv6"
  top: "conv6"
}
layer {
  name: "conv7"
  type: "Convolution"
  bottom: "conv6"
  top: "conv7"
  convolution_param {
    num_output: 192
    kernel_size: 3
    weight_filler {
      type: "xavier"
    }
  }
}
layer {
  name: "elu7"
  type: "ELU"
  bottom: "conv7"
  top: "conv7"
}
layer {
  name: "conv8"
  type: "Convolution"
  bottom: "conv7"
  top: "conv8"
  convolution_param {
    num_output: 192
    kernel_size: 1
    weight_filler {
      type: "xavier"
    }
  }
}
layer {
  name: "elu8"
  type: "ELU"
  bottom: "conv8"
  top: "conv8"
}
layer {
  name: "conv9"
  type: "Convolution"
  bottom: "conv8"
  top: "conv9"
  convolution_param {
    num_output: 10
    kernel_size: 1
    weight_filler {
      type: "xavier"
    }
  }
}
layer {
  name: "elu9"
  type: "ELU"
  bottom: "conv9"
  top: "conv9"
}
layer {
  name: "pool"
  type: "Pooling"
  bottom: "conv9"
  top: "pool"
  pooling_param {
    pool: AVE
    global_pooling: true
  }
}
layer {
  name: "flatten"
  type: "Flatten"
  bottom: "pool"
  top: "flatten"
}
layer {
  name: "score"
  type: "InnerProduct"
  bottom: "flatten"
  top: "score"
  inner_product_param {
    num_output: 10
    weight_filler {
      type: "gaussian"
    }
  }
}
layer {
  name: "accuracy"
  type: "Accuracy"
  bottom: "score"
  bottom: "label"
  top: "accuracy"
}
layer {
  name: "loss"
  type: "SoftmaxWithLoss"
  bottom: "score"
  bottom: "label"
  top: "loss"
}
I1011 16:54:34.153326  6987 layer_factory.hpp:77] Creating layer data
I1011 16:54:34.153800  6987 net.cpp:100] Creating Layer data
I1011 16:54:34.153846  6987 net.cpp:408] data -> data
I1011 16:54:34.153879  6987 net.cpp:408] data -> label
I1011 16:54:34.153895  6987 data_transformer.cpp:25] Loading mean file from: mean.binaryproto
I1011 16:54:34.154644  6992 db_lmdb.cpp:35] Opened lmdb ../../../data/cifar-10/cifar10_train_lmdb
I1011 16:54:34.161226  6987 data_layer.cpp:41] output data size: 64,3,32,32
I1011 16:54:34.162955  6987 net.cpp:150] Setting up data
I1011 16:54:34.163003  6987 net.cpp:157] Top shape: 64 3 32 32 (196608)
I1011 16:54:34.163007  6987 net.cpp:157] Top shape: 64 (64)
I1011 16:54:34.163009  6987 net.cpp:165] Memory required for data: 786688
I1011 16:54:34.163017  6987 layer_factory.hpp:77] Creating layer label_data_1_split
I1011 16:54:34.163041  6987 net.cpp:100] Creating Layer label_data_1_split
I1011 16:54:34.163045  6987 net.cpp:434] label_data_1_split <- label
I1011 16:54:34.163055  6987 net.cpp:408] label_data_1_split -> label_data_1_split_0
I1011 16:54:34.163065  6987 net.cpp:408] label_data_1_split -> label_data_1_split_1
I1011 16:54:34.164067  6987 net.cpp:150] Setting up label_data_1_split
I1011 16:54:34.164085  6987 net.cpp:157] Top shape: 64 (64)
I1011 16:54:34.164088  6987 net.cpp:157] Top shape: 64 (64)
I1011 16:54:34.164089  6987 net.cpp:165] Memory required for data: 787200
I1011 16:54:34.164093  6987 layer_factory.hpp:77] Creating layer conv1
I1011 16:54:34.164140  6987 net.cpp:100] Creating Layer conv1
I1011 16:54:34.164144  6987 net.cpp:434] conv1 <- data
I1011 16:54:34.164147  6987 net.cpp:408] conv1 -> conv1
I1011 16:54:34.302964  6987 net.cpp:150] Setting up conv1
I1011 16:54:34.302989  6987 net.cpp:157] Top shape: 64 96 30 30 (5529600)
I1011 16:54:34.302990  6987 net.cpp:165] Memory required for data: 22905600
I1011 16:54:34.303009  6987 layer_factory.hpp:77] Creating layer elu1
I1011 16:54:34.303015  6987 net.cpp:100] Creating Layer elu1
I1011 16:54:34.303019  6987 net.cpp:434] elu1 <- conv1
I1011 16:54:34.303037  6987 net.cpp:395] elu1 -> conv1 (in-place)
I1011 16:54:34.303045  6987 net.cpp:150] Setting up elu1
I1011 16:54:34.303047  6987 net.cpp:157] Top shape: 64 96 30 30 (5529600)
I1011 16:54:34.303050  6987 net.cpp:165] Memory required for data: 45024000
I1011 16:54:34.303051  6987 layer_factory.hpp:77] Creating layer conv2
I1011 16:54:34.303061  6987 net.cpp:100] Creating Layer conv2
I1011 16:54:34.303077  6987 net.cpp:434] conv2 <- conv1
I1011 16:54:34.303081  6987 net.cpp:408] conv2 -> conv2
I1011 16:54:34.304617  6987 net.cpp:150] Setting up conv2
I1011 16:54:34.304630  6987 net.cpp:157] Top shape: 64 96 28 28 (4816896)
I1011 16:54:34.304632  6987 net.cpp:165] Memory required for data: 64291584
I1011 16:54:34.304639  6987 layer_factory.hpp:77] Creating layer bn1
I1011 16:54:34.304644  6987 net.cpp:100] Creating Layer bn1
I1011 16:54:34.304646  6987 net.cpp:434] bn1 <- conv2
I1011 16:54:34.304651  6987 net.cpp:408] bn1 -> bn1
I1011 16:54:34.304908  6987 net.cpp:150] Setting up bn1
I1011 16:54:34.304913  6987 net.cpp:157] Top shape: 64 96 28 28 (4816896)
I1011 16:54:34.304930  6987 net.cpp:165] Memory required for data: 83559168
I1011 16:54:34.304937  6987 layer_factory.hpp:77] Creating layer elu2
I1011 16:54:34.304940  6987 net.cpp:100] Creating Layer elu2
I1011 16:54:34.304942  6987 net.cpp:434] elu2 <- bn1
I1011 16:54:34.304945  6987 net.cpp:395] elu2 -> bn1 (in-place)
I1011 16:54:34.304951  6987 net.cpp:150] Setting up elu2
I1011 16:54:34.304970  6987 net.cpp:157] Top shape: 64 96 28 28 (4816896)
I1011 16:54:34.304971  6987 net.cpp:165] Memory required for data: 102826752
I1011 16:54:34.304998  6987 layer_factory.hpp:77] Creating layer drop1
I1011 16:54:34.305003  6987 net.cpp:100] Creating Layer drop1
I1011 16:54:34.305006  6987 net.cpp:434] drop1 <- bn1
I1011 16:54:34.305008  6987 net.cpp:408] drop1 -> drop1
I1011 16:54:34.305063  6987 net.cpp:150] Setting up drop1
I1011 16:54:34.305068  6987 net.cpp:157] Top shape: 64 96 28 28 (4816896)
I1011 16:54:34.305070  6987 net.cpp:165] Memory required for data: 122094336
I1011 16:54:34.305073  6987 layer_factory.hpp:77] Creating layer conv3
I1011 16:54:34.305079  6987 net.cpp:100] Creating Layer conv3
I1011 16:54:34.305081  6987 net.cpp:434] conv3 <- drop1
I1011 16:54:34.305084  6987 net.cpp:408] conv3 -> conv3
I1011 16:54:34.306458  6987 net.cpp:150] Setting up conv3
I1011 16:54:34.306468  6987 net.cpp:157] Top shape: 64 96 13 13 (1038336)
I1011 16:54:34.306470  6987 net.cpp:165] Memory required for data: 126247680
I1011 16:54:34.306478  6987 layer_factory.hpp:77] Creating layer elu3
I1011 16:54:34.306481  6987 net.cpp:100] Creating Layer elu3
I1011 16:54:34.306483  6987 net.cpp:434] elu3 <- conv3
I1011 16:54:34.306486  6987 net.cpp:395] elu3 -> conv3 (in-place)
I1011 16:54:34.306490  6987 net.cpp:150] Setting up elu3
I1011 16:54:34.306493  6987 net.cpp:157] Top shape: 64 96 13 13 (1038336)
I1011 16:54:34.306494  6987 net.cpp:165] Memory required for data: 130401024
I1011 16:54:34.306498  6987 layer_factory.hpp:77] Creating layer conv4
I1011 16:54:34.306501  6987 net.cpp:100] Creating Layer conv4
I1011 16:54:34.306517  6987 net.cpp:434] conv4 <- conv3
I1011 16:54:34.306521  6987 net.cpp:408] conv4 -> conv4
I1011 16:54:34.308425  6987 net.cpp:150] Setting up conv4
I1011 16:54:34.308436  6987 net.cpp:157] Top shape: 64 192 11 11 (1486848)
I1011 16:54:34.308439  6987 net.cpp:165] Memory required for data: 136348416
I1011 16:54:34.308444  6987 layer_factory.hpp:77] Creating layer elu4
I1011 16:54:34.308447  6987 net.cpp:100] Creating Layer elu4
I1011 16:54:34.308449  6987 net.cpp:434] elu4 <- conv4
I1011 16:54:34.308454  6987 net.cpp:395] elu4 -> conv4 (in-place)
I1011 16:54:34.308457  6987 net.cpp:150] Setting up elu4
I1011 16:54:34.308459  6987 net.cpp:157] Top shape: 64 192 11 11 (1486848)
I1011 16:54:34.308461  6987 net.cpp:165] Memory required for data: 142295808
I1011 16:54:34.308464  6987 layer_factory.hpp:77] Creating layer conv5
I1011 16:54:34.308468  6987 net.cpp:100] Creating Layer conv5
I1011 16:54:34.308485  6987 net.cpp:434] conv5 <- conv4
I1011 16:54:34.308487  6987 net.cpp:408] conv5 -> conv5
I1011 16:54:34.311130  6987 net.cpp:150] Setting up conv5
I1011 16:54:34.311143  6987 net.cpp:157] Top shape: 64 192 9 9 (995328)
I1011 16:54:34.311146  6987 net.cpp:165] Memory required for data: 146277120
I1011 16:54:34.311151  6987 layer_factory.hpp:77] Creating layer bn2
I1011 16:54:34.311156  6987 net.cpp:100] Creating Layer bn2
I1011 16:54:34.311157  6987 net.cpp:434] bn2 <- conv5
I1011 16:54:34.311161  6987 net.cpp:408] bn2 -> bn2
I1011 16:54:34.311389  6987 net.cpp:150] Setting up bn2
I1011 16:54:34.311394  6987 net.cpp:157] Top shape: 64 192 9 9 (995328)
I1011 16:54:34.311411  6987 net.cpp:165] Memory required for data: 150258432
I1011 16:54:34.311416  6987 layer_factory.hpp:77] Creating layer elu5
I1011 16:54:34.311419  6987 net.cpp:100] Creating Layer elu5
I1011 16:54:34.311421  6987 net.cpp:434] elu5 <- bn2
I1011 16:54:34.311425  6987 net.cpp:395] elu5 -> bn2 (in-place)
I1011 16:54:34.311429  6987 net.cpp:150] Setting up elu5
I1011 16:54:34.311447  6987 net.cpp:157] Top shape: 64 192 9 9 (995328)
I1011 16:54:34.311450  6987 net.cpp:165] Memory required for data: 154239744
I1011 16:54:34.311451  6987 layer_factory.hpp:77] Creating layer drop4
I1011 16:54:34.311467  6987 net.cpp:100] Creating Layer drop4
I1011 16:54:34.311470  6987 net.cpp:434] drop4 <- bn2
I1011 16:54:34.311472  6987 net.cpp:408] drop4 -> drop4
I1011 16:54:34.311497  6987 net.cpp:150] Setting up drop4
I1011 16:54:34.311516  6987 net.cpp:157] Top shape: 64 192 9 9 (995328)
I1011 16:54:34.311517  6987 net.cpp:165] Memory required for data: 158221056
I1011 16:54:34.311545  6987 layer_factory.hpp:77] Creating layer conv6
I1011 16:54:34.311553  6987 net.cpp:100] Creating Layer conv6
I1011 16:54:34.311556  6987 net.cpp:434] conv6 <- drop4
I1011 16:54:34.311574  6987 net.cpp:408] conv6 -> conv6
I1011 16:54:34.314273  6987 net.cpp:150] Setting up conv6
I1011 16:54:34.314304  6987 net.cpp:157] Top shape: 64 192 4 4 (196608)
I1011 16:54:34.314306  6987 net.cpp:165] Memory required for data: 159007488
I1011 16:54:34.314316  6987 layer_factory.hpp:77] Creating layer elu6
I1011 16:54:34.314321  6987 net.cpp:100] Creating Layer elu6
I1011 16:54:34.314324  6987 net.cpp:434] elu6 <- conv6
I1011 16:54:34.314328  6987 net.cpp:395] elu6 -> conv6 (in-place)
I1011 16:54:34.314354  6987 net.cpp:150] Setting up elu6
I1011 16:54:34.314357  6987 net.cpp:157] Top shape: 64 192 4 4 (196608)
I1011 16:54:34.314359  6987 net.cpp:165] Memory required for data: 159793920
I1011 16:54:34.314375  6987 layer_factory.hpp:77] Creating layer conv7
I1011 16:54:34.314381  6987 net.cpp:100] Creating Layer conv7
I1011 16:54:34.314384  6987 net.cpp:434] conv7 <- conv6
I1011 16:54:34.314388  6987 net.cpp:408] conv7 -> conv7
I1011 16:54:34.316934  6987 net.cpp:150] Setting up conv7
I1011 16:54:34.316947  6987 net.cpp:157] Top shape: 64 192 2 2 (49152)
I1011 16:54:34.316949  6987 net.cpp:165] Memory required for data: 159990528
I1011 16:54:34.316954  6987 layer_factory.hpp:77] Creating layer elu7
I1011 16:54:34.316959  6987 net.cpp:100] Creating Layer elu7
I1011 16:54:34.316962  6987 net.cpp:434] elu7 <- conv7
I1011 16:54:34.316964  6987 net.cpp:395] elu7 -> conv7 (in-place)
I1011 16:54:34.316969  6987 net.cpp:150] Setting up elu7
I1011 16:54:34.316972  6987 net.cpp:157] Top shape: 64 192 2 2 (49152)
I1011 16:54:34.316974  6987 net.cpp:165] Memory required for data: 160187136
I1011 16:54:34.316975  6987 layer_factory.hpp:77] Creating layer conv8
I1011 16:54:34.316995  6987 net.cpp:100] Creating Layer conv8
I1011 16:54:34.316998  6987 net.cpp:434] conv8 <- conv7
I1011 16:54:34.317000  6987 net.cpp:408] conv8 -> conv8
I1011 16:54:34.318359  6987 net.cpp:150] Setting up conv8
I1011 16:54:34.318372  6987 net.cpp:157] Top shape: 64 192 2 2 (49152)
I1011 16:54:34.318374  6987 net.cpp:165] Memory required for data: 160383744
I1011 16:54:34.318379  6987 layer_factory.hpp:77] Creating layer elu8
I1011 16:54:34.318383  6987 net.cpp:100] Creating Layer elu8
I1011 16:54:34.318385  6987 net.cpp:434] elu8 <- conv8
I1011 16:54:34.318388  6987 net.cpp:395] elu8 -> conv8 (in-place)
I1011 16:54:34.318393  6987 net.cpp:150] Setting up elu8
I1011 16:54:34.318395  6987 net.cpp:157] Top shape: 64 192 2 2 (49152)
I1011 16:54:34.318397  6987 net.cpp:165] Memory required for data: 160580352
I1011 16:54:34.318399  6987 layer_factory.hpp:77] Creating layer conv9
I1011 16:54:34.318418  6987 net.cpp:100] Creating Layer conv9
I1011 16:54:34.318420  6987 net.cpp:434] conv9 <- conv8
I1011 16:54:34.318424  6987 net.cpp:408] conv9 -> conv9
I1011 16:54:34.319257  6987 net.cpp:150] Setting up conv9
I1011 16:54:34.319281  6987 net.cpp:157] Top shape: 64 10 2 2 (2560)
I1011 16:54:34.319284  6987 net.cpp:165] Memory required for data: 160590592
I1011 16:54:34.319289  6987 layer_factory.hpp:77] Creating layer elu9
I1011 16:54:34.319293  6987 net.cpp:100] Creating Layer elu9
I1011 16:54:34.319295  6987 net.cpp:434] elu9 <- conv9
I1011 16:54:34.319298  6987 net.cpp:395] elu9 -> conv9 (in-place)
I1011 16:54:34.319303  6987 net.cpp:150] Setting up elu9
I1011 16:54:34.319321  6987 net.cpp:157] Top shape: 64 10 2 2 (2560)
I1011 16:54:34.319324  6987 net.cpp:165] Memory required for data: 160600832
I1011 16:54:34.319325  6987 layer_factory.hpp:77] Creating layer pool
I1011 16:54:34.319329  6987 net.cpp:100] Creating Layer pool
I1011 16:54:34.319331  6987 net.cpp:434] pool <- conv9
I1011 16:54:34.319334  6987 net.cpp:408] pool -> pool
I1011 16:54:34.319756  6987 net.cpp:150] Setting up pool
I1011 16:54:34.319763  6987 net.cpp:157] Top shape: 64 10 1 1 (640)
I1011 16:54:34.319779  6987 net.cpp:165] Memory required for data: 160603392
I1011 16:54:34.319793  6987 layer_factory.hpp:77] Creating layer flatten
I1011 16:54:34.319798  6987 net.cpp:100] Creating Layer flatten
I1011 16:54:34.319814  6987 net.cpp:434] flatten <- pool
I1011 16:54:34.319818  6987 net.cpp:408] flatten -> flatten
I1011 16:54:34.319888  6987 net.cpp:150] Setting up flatten
I1011 16:54:34.319895  6987 net.cpp:157] Top shape: 64 10 (640)
I1011 16:54:34.319896  6987 net.cpp:165] Memory required for data: 160605952
I1011 16:54:34.319898  6987 layer_factory.hpp:77] Creating layer score
I1011 16:54:34.319902  6987 net.cpp:100] Creating Layer score
I1011 16:54:34.319905  6987 net.cpp:434] score <- flatten
I1011 16:54:34.319908  6987 net.cpp:408] score -> score
I1011 16:54:34.320081  6987 net.cpp:150] Setting up score
I1011 16:54:34.320086  6987 net.cpp:157] Top shape: 64 10 (640)
I1011 16:54:34.320088  6987 net.cpp:165] Memory required for data: 160608512
I1011 16:54:34.320104  6987 layer_factory.hpp:77] Creating layer score_score_0_split
I1011 16:54:34.320108  6987 net.cpp:100] Creating Layer score_score_0_split
I1011 16:54:34.320111  6987 net.cpp:434] score_score_0_split <- score
I1011 16:54:34.320127  6987 net.cpp:408] score_score_0_split -> score_score_0_split_0
I1011 16:54:34.320130  6987 net.cpp:408] score_score_0_split -> score_score_0_split_1
I1011 16:54:34.320196  6987 net.cpp:150] Setting up score_score_0_split
I1011 16:54:34.320200  6987 net.cpp:157] Top shape: 64 10 (640)
I1011 16:54:34.320204  6987 net.cpp:157] Top shape: 64 10 (640)
I1011 16:54:34.320204  6987 net.cpp:165] Memory required for data: 160613632
I1011 16:54:34.320206  6987 layer_factory.hpp:77] Creating layer accuracy
I1011 16:54:34.320210  6987 net.cpp:100] Creating Layer accuracy
I1011 16:54:34.320212  6987 net.cpp:434] accuracy <- score_score_0_split_0
I1011 16:54:34.320230  6987 net.cpp:434] accuracy <- label_data_1_split_0
I1011 16:54:34.320233  6987 net.cpp:408] accuracy -> accuracy
…
I1011 16:54:34.320766  6987 net.cpp:283] Network initialization done.
I1011 16:54:34.320971  6987 solver.cpp:181] Creating test net (#0) specified by test_net file: /home/adam/Honours/Honours-Project/cifar-10_allcnn/elu/allcnn_elu_test.prototxt
I1011 16:54:34.321130  6987 net.cpp:58] Initializing net from parameters: 
state {
  phase: TEST
}
layer {
  name: "data"
  type: "Data"
  top: "data"
  top: "label"
  transform_param {
    mean_file: "mean.binaryproto"
  }
  data_param {
    source: "../../../data/cifar-10/cifar10_test_lmdb"
    batch_size: 100
    backend: LMDB
  }
}
layer {
  name: "conv1"
  type: "Convolution"
  bottom: "data"
  top: "conv1"
  convolution_param {
    num_output: 96
    kernel_size: 3
    weight_filler {
      type: "xavier"
    }
  }
}
layer {
  name: "elu1"
  type: "ELU"
  bottom: "conv1"
  top: "conv1"
}
layer {
  name: "conv2"
  type: "Convolution"
  bottom: "conv1"
  top: "conv2"
  convolution_param {
    num_output: 96
    kernel_size: 3
    weight_filler {
      type: "xavier"
    }
  }
}
layer {
  name: "bn1"
  type: "BatchNorm"
  bottom: "conv2"
  top: "bn1"
}
layer {
  name: "elu2"
  type: "ELU"
  bottom: "bn1"
  top: "bn1"
}
layer {
  name: "drop1"
  type: "Dropout"
  bottom: "bn1"
  top: "drop1"
  dropout_param {
    dropout_ratio: 0.5
  }
}
layer {
  name: "conv3"
  type: "Convolution"
  bottom: "drop1"
  top: "conv3"
  convolution_param {
    num_output: 96
    kernel_size: 3
    stride: 2
    weight_filler {
      type: "xavier"
    }
  }
}
layer {
  name: "elu3"
  type: "ELU"
  bottom: "conv3"
  top: "conv3"
}
layer {
  name: "conv4"
  type: "Convolution"
  bottom: "conv3"
  top: "conv4"
  convolution_param {
    num_output: 192
    kernel_size: 3
    weight_filler {
      type: "xavier"
    }
  }
}
layer {
  name: "elu4"
  type: "ELU"
  bottom: "conv4"
  top: "conv4"
}
layer {
  name: "conv5"
  type: "Convolution"
  bottom: "conv4"
  top: "conv5"
  convolution_param {
    num_output: 192
    kernel_size: 3
    weight_filler {
      type: "xavier"
    }
  }
}
layer {
  name: "bn2"
  type: "BatchNorm"
  bottom: "conv5"
  top: "bn2"
}
layer {
  name: "elu5"
  type: "ELU"
  bottom: "bn2"
  top: "bn2"
}
layer {
  name: "drop4"
  type: "Dropout"
  bottom: "bn2"
  top: "drop4"
  dropout_param {
    dropout_ratio: 0.5
  }
}
layer {
  name: "conv6"
  type: "Convolution"
  bottom: "drop4"
  top: "conv6"
  convolution_param {
    num_output: 192
    kernel_size: 3
    stride: 2
    weight_filler {
      type: "xavier"
    }
  }
}
layer {
  name: "elu6"
  type: "ELU"
  bottom: "conv6"
  top: "conv6"
}
layer {
  name: "conv7"
  type: "Convolution"
  bottom: "conv6"
  top: "conv7"
  convolution_param {
    num_output: 192
    kernel_size: 3
    weight_filler {
      type: "xavier"
    }
  }
}
layer {
  name: "elu7"
  type: "ELU"
  bottom: "conv7"
  top: "conv7"
}
layer {
  name: "conv8"
  type: "Convolution"
  bottom: "conv7"
  top: "conv8"
  convolution_param {
    num_output: 192
    kernel_size: 1
    weight_filler {
      type: "xavier"
    }
  }
}
layer {
  name: "elu8"
  type: "ELU"
  bottom: "conv8"
  top: "conv8"
}
layer {
  name: "conv9"
  type: "Convolution"
  bottom: "conv8"
  top: "conv9"
  convolution_param {
    num_output: 10
    kernel_size: 1
    weight_filler {
      type: "xavier"
    }
  }
}
layer {
  name: "elu9"
  type: "ELU"
  bottom: "conv9"
  top: "conv9"
}
layer {
  name: "pool"
  type: "Pooling"
  bottom: "conv9"
  top: "pool"
  pooling_param {
    pool: AVE
    global_pooling: true
  }
}
layer {
  name: "flatten"
  type: "Flatten"
  bottom: "pool"
  top: "flatten"
}
layer {
  name: "score"
  type: "InnerProduct"
  bottom: "flatten"
  top: "score"
  inner_product_param {
    num_output: 10
    weight_filler {
      type: "gaussian"
    }
  }
}
layer {
  name: "accuracy"
  type: "Accuracy"
  bottom: "score"
  bottom: "label"
  top: "accuracy"
}
layer {
  name: "loss"
  type: "SoftmaxWithLoss"
  bottom: "score"
  bottom: "label"
  top: "loss"
}
I1011 16:54:34.321228  6987 layer_factory.hpp:77] Creating layer data
I1011 16:54:34.321308  6987 net.cpp:100] Creating Layer data
I1011 16:54:34.321313  6987 net.cpp:408] data -> data
I1011 16:54:34.321318  6987 net.cpp:408] data -> label
I1011 16:54:34.321323  6987 data_transformer.cpp:25] Loading mean file from: mean.binaryproto
I1011 16:54:34.322306  6994 db_lmdb.cpp:35] Opened lmdb ../../../data/cifar-10/cifar10_test_lmdb
I1011 16:54:34.322513  6987 data_layer.cpp:41] output data size: 100,3,32,32
I1011 16:54:34.324606  6987 net.cpp:150] Setting up data
I1011 16:54:34.324625  6987 net.cpp:157] Top shape: 100 3 32 32 (307200)
I1011 16:54:34.324630  6987 net.cpp:157] Top shape: 100 (100)
I1011 16:54:34.324631  6987 net.cpp:165] Memory required for data: 1229200
I1011 16:54:34.324648  6987 layer_factory.hpp:77] Creating layer label_data_1_split
I1011 16:54:34.324671  6987 net.cpp:100] Creating Layer label_data_1_split
I1011 16:54:34.324673  6987 net.cpp:434] label_data_1_split <- label
I1011 16:54:34.324678  6987 net.cpp:408] label_data_1_split -> label_data_1_split_0
I1011 16:54:34.324686  6987 net.cpp:408] label_data_1_split -> label_data_1_split_1
I1011 16:54:34.324739  6987 net.cpp:150] Setting up label_data_1_split
I1011 16:54:34.324744  6987 net.cpp:157] Top shape: 100 (100)
I1011 16:54:34.324748  6987 net.cpp:157] Top shape: 100 (100)
I1011 16:54:34.324749  6987 net.cpp:165] Memory required for data: 1230000
I1011 16:54:34.324751  6987 layer_factory.hpp:77] Creating layer conv1
I1011 16:54:34.324759  6987 net.cpp:100] Creating Layer conv1
I1011 16:54:34.324761  6987 net.cpp:434] conv1 <- data
I1011 16:54:34.324765  6987 net.cpp:408] conv1 -> conv1
I1011 16:54:34.325857  6987 net.cpp:150] Setting up conv1
I1011 16:54:34.325884  6987 net.cpp:157] Top shape: 100 96 30 30 (8640000)
I1011 16:54:34.325886  6987 net.cpp:165] Memory required for data: 35790000
I1011 16:54:34.325896  6987 layer_factory.hpp:77] Creating layer elu1
I1011 16:54:34.325899  6987 net.cpp:100] Creating Layer elu1
I1011 16:54:34.325902  6987 net.cpp:434] elu1 <- conv1
I1011 16:54:34.325906  6987 net.cpp:395] elu1 -> conv1 (in-place)
I1011 16:54:34.325924  6987 net.cpp:150] Setting up elu1
I1011 16:54:34.325927  6987 net.cpp:157] Top shape: 100 96 30 30 (8640000)
I1011 16:54:34.325929  6987 net.cpp:165] Memory required for data: 70350000
I1011 16:54:34.325932  6987 layer_factory.hpp:77] Creating layer conv2
I1011 16:54:34.325954  6987 net.cpp:100] Creating Layer conv2
I1011 16:54:34.325973  6987 net.cpp:434] conv2 <- conv1
I1011 16:54:34.325978  6987 net.cpp:408] conv2 -> conv2
I1011 16:54:34.327303  6987 net.cpp:150] Setting up conv2
I1011 16:54:34.327314  6987 net.cpp:157] Top shape: 100 96 28 28 (7526400)
I1011 16:54:34.327317  6987 net.cpp:165] Memory required for data: 100455600
I1011 16:54:34.327324  6987 layer_factory.hpp:77] Creating layer bn1
I1011 16:54:34.327345  6987 net.cpp:100] Creating Layer bn1
I1011 16:54:34.327347  6987 net.cpp:434] bn1 <- conv2
I1011 16:54:34.327363  6987 net.cpp:408] bn1 -> bn1
I1011 16:54:34.327577  6987 net.cpp:150] Setting up bn1
I1011 16:54:34.327594  6987 net.cpp:157] Top shape: 100 96 28 28 (7526400)
I1011 16:54:34.327596  6987 net.cpp:165] Memory required for data: 130561200
I1011 16:54:34.327605  6987 layer_factory.hpp:77] Creating layer elu2
I1011 16:54:34.327608  6987 net.cpp:100] Creating Layer elu2
I1011 16:54:34.327610  6987 net.cpp:434] elu2 <- bn1
I1011 16:54:34.327613  6987 net.cpp:395] elu2 -> bn1 (in-place)
I1011 16:54:34.327617  6987 net.cpp:150] Setting up elu2
I1011 16:54:34.327620  6987 net.cpp:157] Top shape: 100 96 28 28 (7526400)
I1011 16:54:34.327622  6987 net.cpp:165] Memory required for data: 160666800
I1011 16:54:34.327625  6987 layer_factory.hpp:77] Creating layer drop1
I1011 16:54:34.327628  6987 net.cpp:100] Creating Layer drop1
I1011 16:54:34.327630  6987 net.cpp:434] drop1 <- bn1
I1011 16:54:34.327632  6987 net.cpp:408] drop1 -> drop1
I1011 16:54:34.327663  6987 net.cpp:150] Setting up drop1
I1011 16:54:34.327668  6987 net.cpp:157] Top shape: 100 96 28 28 (7526400)
I1011 16:54:34.327671  6987 net.cpp:165] Memory required for data: 190772400
I1011 16:54:34.327672  6987 layer_factory.hpp:77] Creating layer conv3
I1011 16:54:34.327679  6987 net.cpp:100] Creating Layer conv3
I1011 16:54:34.327682  6987 net.cpp:434] conv3 <- drop1
I1011 16:54:34.327685  6987 net.cpp:408] conv3 -> conv3
I1011 16:54:34.329123  6987 net.cpp:150] Setting up conv3
I1011 16:54:34.329134  6987 net.cpp:157] Top shape: 100 96 13 13 (1622400)
I1011 16:54:34.329136  6987 net.cpp:165] Memory required for data: 197262000
I1011 16:54:34.329144  6987 layer_factory.hpp:77] Creating layer elu3
I1011 16:54:34.329147  6987 net.cpp:100] Creating Layer elu3
I1011 16:54:34.329164  6987 net.cpp:434] elu3 <- conv3
I1011 16:54:34.329167  6987 net.cpp:395] elu3 -> conv3 (in-place)
I1011 16:54:34.329172  6987 net.cpp:150] Setting up elu3
I1011 16:54:34.329175  6987 net.cpp:157] Top shape: 100 96 13 13 (1622400)
I1011 16:54:34.329177  6987 net.cpp:165] Memory required for data: 203751600
I1011 16:54:34.329180  6987 layer_factory.hpp:77] Creating layer conv4
I1011 16:54:34.329185  6987 net.cpp:100] Creating Layer conv4
I1011 16:54:34.329188  6987 net.cpp:434] conv4 <- conv3
I1011 16:54:34.329191  6987 net.cpp:408] conv4 -> conv4
I1011 16:54:34.330978  6987 net.cpp:150] Setting up conv4
I1011 16:54:34.330993  6987 net.cpp:157] Top shape: 100 192 11 11 (2323200)
I1011 16:54:34.330996  6987 net.cpp:165] Memory required for data: 213044400
I1011 16:54:34.331002  6987 layer_factory.hpp:77] Creating layer elu4
I1011 16:54:34.331007  6987 net.cpp:100] Creating Layer elu4
I1011 16:54:34.331009  6987 net.cpp:434] elu4 <- conv4
I1011 16:54:34.331013  6987 net.cpp:395] elu4 -> conv4 (in-place)
I1011 16:54:34.331018  6987 net.cpp:150] Setting up elu4
I1011 16:54:34.331022  6987 net.cpp:157] Top shape: 100 192 11 11 (2323200)
I1011 16:54:34.331023  6987 net.cpp:165] Memory required for data: 222337200
I1011 16:54:34.331025  6987 layer_factory.hpp:77] Creating layer conv5
I1011 16:54:34.331032  6987 net.cpp:100] Creating Layer conv5
I1011 16:54:34.331033  6987 net.cpp:434] conv5 <- conv4
I1011 16:54:34.331037  6987 net.cpp:408] conv5 -> conv5
I1011 16:54:34.333884  6987 net.cpp:150] Setting up conv5
I1011 16:54:34.333901  6987 net.cpp:157] Top shape: 100 192 9 9 (1555200)
I1011 16:54:34.333904  6987 net.cpp:165] Memory required for data: 228558000
I1011 16:54:34.333928  6987 layer_factory.hpp:77] Creating layer bn2
I1011 16:54:34.333935  6987 net.cpp:100] Creating Layer bn2
I1011 16:54:34.333936  6987 net.cpp:434] bn2 <- conv5
I1011 16:54:34.333953  6987 net.cpp:408] bn2 -> bn2
I1011 16:54:34.334143  6987 net.cpp:150] Setting up bn2
I1011 16:54:34.334148  6987 net.cpp:157] Top shape: 100 192 9 9 (1555200)
I1011 16:54:34.334151  6987 net.cpp:165] Memory required for data: 234778800
I1011 16:54:34.334169  6987 layer_factory.hpp:77] Creating layer elu5
I1011 16:54:34.334175  6987 net.cpp:100] Creating Layer elu5
I1011 16:54:34.334177  6987 net.cpp:434] elu5 <- bn2
I1011 16:54:34.334180  6987 net.cpp:395] elu5 -> bn2 (in-place)
I1011 16:54:34.334197  6987 net.cpp:150] Setting up elu5
I1011 16:54:34.334226  6987 net.cpp:157] Top shape: 100 192 9 9 (1555200)
I1011 16:54:34.334229  6987 net.cpp:165] Memory required for data: 240999600
I1011 16:54:34.334231  6987 layer_factory.hpp:77] Creating layer drop4
I1011 16:54:34.334235  6987 net.cpp:100] Creating Layer drop4
I1011 16:54:34.334238  6987 net.cpp:434] drop4 <- bn2
I1011 16:54:34.334240  6987 net.cpp:408] drop4 -> drop4
I1011 16:54:34.334270  6987 net.cpp:150] Setting up drop4
I1011 16:54:34.334275  6987 net.cpp:157] Top shape: 100 192 9 9 (1555200)
I1011 16:54:34.334290  6987 net.cpp:165] Memory required for data: 247220400
I1011 16:54:34.334290  6987 layer_factory.hpp:77] Creating layer conv6
I1011 16:54:34.334313  6987 net.cpp:100] Creating Layer conv6
I1011 16:54:34.334316  6987 net.cpp:434] conv6 <- drop4
I1011 16:54:34.334321  6987 net.cpp:408] conv6 -> conv6
I1011 16:54:34.336936  6987 net.cpp:150] Setting up conv6
I1011 16:54:34.336949  6987 net.cpp:157] Top shape: 100 192 4 4 (307200)
I1011 16:54:34.336952  6987 net.cpp:165] Memory required for data: 248449200
I1011 16:54:34.336961  6987 layer_factory.hpp:77] Creating layer elu6
I1011 16:54:34.336966  6987 net.cpp:100] Creating Layer elu6
I1011 16:54:34.336968  6987 net.cpp:434] elu6 <- conv6
I1011 16:54:34.336972  6987 net.cpp:395] elu6 -> conv6 (in-place)
I1011 16:54:34.336977  6987 net.cpp:150] Setting up elu6
I1011 16:54:34.336979  6987 net.cpp:157] Top shape: 100 192 4 4 (307200)
I1011 16:54:34.336982  6987 net.cpp:165] Memory required for data: 249678000
I1011 16:54:34.336983  6987 layer_factory.hpp:77] Creating layer conv7
I1011 16:54:34.337011  6987 net.cpp:100] Creating Layer conv7
I1011 16:54:34.337013  6987 net.cpp:434] conv7 <- conv6
I1011 16:54:34.337018  6987 net.cpp:408] conv7 -> conv7
I1011 16:54:34.339735  6987 net.cpp:150] Setting up conv7
I1011 16:54:34.339750  6987 net.cpp:157] Top shape: 100 192 2 2 (76800)
I1011 16:54:34.339751  6987 net.cpp:165] Memory required for data: 249985200
I1011 16:54:34.339757  6987 layer_factory.hpp:77] Creating layer elu7
I1011 16:54:34.339763  6987 net.cpp:100] Creating Layer elu7
I1011 16:54:34.339766  6987 net.cpp:434] elu7 <- conv7
I1011 16:54:34.339769  6987 net.cpp:395] elu7 -> conv7 (in-place)
I1011 16:54:34.339774  6987 net.cpp:150] Setting up elu7
I1011 16:54:34.339777  6987 net.cpp:157] Top shape: 100 192 2 2 (76800)
I1011 16:54:34.339778  6987 net.cpp:165] Memory required for data: 250292400
I1011 16:54:34.339781  6987 layer_factory.hpp:77] Creating layer conv8
I1011 16:54:34.339787  6987 net.cpp:100] Creating Layer conv8
I1011 16:54:34.339788  6987 net.cpp:434] conv8 <- conv7
I1011 16:54:34.339792  6987 net.cpp:408] conv8 -> conv8
I1011 16:54:34.340852  6987 net.cpp:150] Setting up conv8
I1011 16:54:34.340862  6987 net.cpp:157] Top shape: 100 192 2 2 (76800)
I1011 16:54:34.340863  6987 net.cpp:165] Memory required for data: 250599600
I1011 16:54:34.340868  6987 layer_factory.hpp:77] Creating layer elu8
I1011 16:54:34.340873  6987 net.cpp:100] Creating Layer elu8
I1011 16:54:34.340874  6987 net.cpp:434] elu8 <- conv8
I1011 16:54:34.340878  6987 net.cpp:395] elu8 -> conv8 (in-place)
I1011 16:54:34.340881  6987 net.cpp:150] Setting up elu8
I1011 16:54:34.340884  6987 net.cpp:157] Top shape: 100 192 2 2 (76800)
I1011 16:54:34.340886  6987 net.cpp:165] Memory required for data: 250906800
I1011 16:54:34.340888  6987 layer_factory.hpp:77] Creating layer conv9
I1011 16:54:34.340906  6987 net.cpp:100] Creating Layer conv9
I1011 16:54:34.340909  6987 net.cpp:434] conv9 <- conv8
I1011 16:54:34.340914  6987 net.cpp:408] conv9 -> conv9
I1011 16:54:34.341876  6987 net.cpp:150] Setting up conv9
I1011 16:54:34.341886  6987 net.cpp:157] Top shape: 100 10 2 2 (4000)
I1011 16:54:34.341888  6987 net.cpp:165] Memory required for data: 250922800
I1011 16:54:34.341892  6987 layer_factory.hpp:77] Creating layer elu9
I1011 16:54:34.341897  6987 net.cpp:100] Creating Layer elu9
I1011 16:54:34.341899  6987 net.cpp:434] elu9 <- conv9
I1011 16:54:34.341902  6987 net.cpp:395] elu9 -> conv9 (in-place)
I1011 16:54:34.341907  6987 net.cpp:150] Setting up elu9
I1011 16:54:34.341919  6987 net.cpp:157] Top shape: 100 10 2 2 (4000)
I1011 16:54:34.341922  6987 net.cpp:165] Memory required for data: 250938800
I1011 16:54:34.341923  6987 layer_factory.hpp:77] Creating layer pool
I1011 16:54:34.341941  6987 net.cpp:100] Creating Layer pool
I1011 16:54:34.341943  6987 net.cpp:434] pool <- conv9
I1011 16:54:34.341948  6987 net.cpp:408] pool -> pool
I1011 16:54:34.342278  6987 net.cpp:150] Setting up pool
I1011 16:54:34.342288  6987 net.cpp:157] Top shape: 100 10 1 1 (1000)
I1011 16:54:34.342303  6987 net.cpp:165] Memory required for data: 250942800
I1011 16:54:34.342305  6987 layer_factory.hpp:77] Creating layer flatten
I1011 16:54:34.342309  6987 net.cpp:100] Creating Layer flatten
I1011 16:54:34.342311  6987 net.cpp:434] flatten <- pool
I1011 16:54:34.342316  6987 net.cpp:408] flatten -> flatten
I1011 16:54:34.342363  6987 net.cpp:150] Setting up flatten
I1011 16:54:34.342381  6987 net.cpp:157] Top shape: 100 10 (1000)
I1011 16:54:34.342382  6987 net.cpp:165] Memory required for data: 250946800
I1011 16:54:34.342384  6987 layer_factory.hpp:77] Creating layer score
I1011 16:54:34.342389  6987 net.cpp:100] Creating Layer score
I1011 16:54:34.342416  6987 net.cpp:434] score <- flatten
I1011 16:54:34.342419  6987 net.cpp:408] score -> score
I1011 16:54:34.342540  6987 net.cpp:150] Setting up score
I1011 16:54:34.342543  6987 net.cpp:157] Top shape: 100 10 (1000)
I1011 16:54:34.342559  6987 net.cpp:165] Memory required for data: 250950800
I1011 16:54:34.342563  6987 layer_factory.hpp:77] Creating layer score_score_0_split
I1011 16:54:34.342567  6987 net.cpp:100] Creating Layer score_score_0_split
I1011 16:54:34.342569  6987 net.cpp:434] score_score_0_split <- score
I1011 16:54:34.342573  6987 net.cpp:408] score_score_0_split -> score_score_0_split_0
I1011 16:54:34.342577  6987 net.cpp:408] score_score_0_split -> score_score_0_split_1
I1011 16:54:34.342633  6987 net.cpp:150] Setting up score_score_0_split
I1011 16:54:34.342638  6987 net.cpp:157] Top shape: 100 10 (1000)
I1011 16:54:34.342639  6987 net.cpp:157] Top shape: 100 10 (1000)
I1011 16:54:34.342641  6987 net.cpp:165] Memory required for data: 250958800
I1011 16:54:34.342655  6987 layer_factory.hpp:77] Creating layer accuracy
I1011 16:54:34.342660  6987 net.cpp:100] Creating Layer accuracy
I1011 16:54:34.342663  6987 net.cpp:434] accuracy <- score_score_0_split_0
I1011 16:54:34.342680  6987 net.cpp:434] accuracy <- label_data_1_split_0
I1011 16:54:34.342684  6987 net.cpp:408] accuracy -> accuracy
…
