…
  stage: ""
}
type: "SGD"
I1009 20:09:48.401479  7856 solver.cpp:81] Creating training net from train_net file: /home/adam/Honours/Honours-Project/cifar-10_allcnn/relu/allcnn_relu_train.prototxt
I1009 20:09:48.401769  7856 net.cpp:58] Initializing net from parameters: 
state {
  phase: TRAIN
  level: 0
  stage: ""
}
layer {
  name: "data"
  type: "Data"
  top: "data"
  top: "label"
  transform_param {
    mean_file: "mean.binaryproto"
  }
  data_param {
    source: "../../../data/cifar-10/cifar10_train_lmdb"
    batch_size: 64
    backend: LMDB
  }
}
layer {
  name: "conv1"
  type: "Convolution"
  bottom: "data"
  top: "conv1"
  convolution_param {
    num_output: 96
    kernel_size: 3
    weight_filler {
      type: "xavier"
    }
  }
}
layer {
  name: "relu1"
  type: "ReLU"
  bottom: "conv1"
  top: "conv1"
}
layer {
  name: "conv2"
  type: "Convolution"
  bottom: "conv1"
  top: "conv2"
  convolution_param {
    num_output: 96
    kernel_size: 3
    weight_filler {
      type: "xavier"
    }
  }
}
layer {
  name: "relu2"
  type: "ReLU"
  bottom: "conv2"
  top: "conv2"
}
layer {
  name: "conv3"
  type: "Convolution"
  bottom: "conv2"
  top: "conv3"
  convolution_param {
    num_output: 96
    kernel_size: 3
    stride: 2
    weight_filler {
      type: "xavier"
    }
  }
}
layer {
  name: "relu3"
  type: "ReLU"
  bottom: "conv3"
  top: "conv3"
}
layer {
  name: "conv4"
  type: "Convolution"
  bottom: "conv3"
  top: "conv4"
  convolution_param {
    num_output: 192
    kernel_size: 3
    weight_filler {
      type: "xavier"
    }
  }
}
layer {
  name: "relu4"
  type: "ReLU"
  bottom: "conv4"
  top: "conv4"
}
layer {
  name: "conv5"
  type: "Convolution"
  bottom: "conv4"
  top: "conv5"
  convolution_param {
    num_output: 192
    kernel_size: 3
    weight_filler {
      type: "xavier"
    }
  }
}
layer {
  name: "relu5"
  type: "ReLU"
  bottom: "conv5"
  top: "conv5"
}
layer {
  name: "conv6"
  type: "Convolution"
  bottom: "conv5"
  top: "conv6"
  convolution_param {
    num_output: 192
    kernel_size: 3
    stride: 2
    weight_filler {
      type: "xavier"
    }
  }
}
layer {
  name: "relu6"
  type: "ReLU"
  bottom: "conv6"
  top: "conv6"
}
layer {
  name: "conv7"
  type: "Convolution"
  bottom: "conv6"
  top: "conv7"
  convolution_param {
    num_output: 192
    kernel_size: 3
    weight_filler {
      type: "xavier"
    }
  }
}
layer {
  name: "relu7"
  type: "ReLU"
  bottom: "conv7"
  top: "conv7"
}
layer {
  name: "conv8"
  type: "Convolution"
  bottom: "conv7"
  top: "conv8"
  convolution_param {
    num_output: 192
    kernel_size: 1
    weight_filler {
      type: "xavier"
    }
  }
}
layer {
  name: "relu8"
  type: "ReLU"
  bottom: "conv8"
  top: "conv8"
}
layer {
  name: "conv9"
  type: "Convolution"
  bottom: "conv8"
  top: "conv9"
  convolution_param {
    num_output: 10
    kernel_size: 1
    weight_filler {
      type: "xavier"
    }
  }
}
layer {
  name: "relu9"
  type: "ReLU"
  bottom: "conv9"
  top: "conv9"
}
layer {
  name: "pool"
  type: "Pooling"
  bottom: "conv9"
  top: "pool"
  pooling_param {
    pool: AVE
    global_pooling: true
  }
}
layer {
  name: "score"
  type: "InnerProduct"
  bottom: "pool"
  top: "score"
  inner_product_param {
    num_output: 10
    weight_filler {
      type: "gaussian"
    }
  }
}
layer {
  name: "accuracy"
  type: "Accuracy"
  bottom: "score"
  bottom: "label"
  top: "accuracy"
}
layer {
  name: "loss"
  type: "SoftmaxWithLoss"
  bottom: "score"
  bottom: "label"
  top: "loss"
}
I1009 20:09:48.401903  7856 layer_factory.hpp:77] Creating layer data
I1009 20:09:48.402457  7856 net.cpp:100] Creating Layer data
I1009 20:09:48.402465  7856 net.cpp:408] data -> data
I1009 20:09:48.402504  7856 net.cpp:408] data -> label
I1009 20:09:48.402515  7856 data_transformer.cpp:25] Loading mean file from: mean.binaryproto
I1009 20:09:48.403203  7861 db_lmdb.cpp:35] Opened lmdb ../../../data/cifar-10/cifar10_train_lmdb
I1009 20:09:48.409540  7856 data_layer.cpp:41] output data size: 64,3,32,32
I1009 20:09:48.411114  7856 net.cpp:150] Setting up data
I1009 20:09:48.411128  7856 net.cpp:157] Top shape: 64 3 32 32 (196608)
I1009 20:09:48.411133  7856 net.cpp:157] Top shape: 64 (64)
I1009 20:09:48.411156  7856 net.cpp:165] Memory required for data: 786688
I1009 20:09:48.411164  7856 layer_factory.hpp:77] Creating layer label_data_1_split
I1009 20:09:48.411175  7856 net.cpp:100] Creating Layer label_data_1_split
I1009 20:09:48.411195  7856 net.cpp:434] label_data_1_split <- label
I1009 20:09:48.411219  7856 net.cpp:408] label_data_1_split -> label_data_1_split_0
I1009 20:09:48.411228  7856 net.cpp:408] label_data_1_split -> label_data_1_split_1
I1009 20:09:48.411352  7856 net.cpp:150] Setting up label_data_1_split
I1009 20:09:48.411381  7856 net.cpp:157] Top shape: 64 (64)
I1009 20:09:48.411383  7856 net.cpp:157] Top shape: 64 (64)
I1009 20:09:48.411386  7856 net.cpp:165] Memory required for data: 787200
I1009 20:09:48.411388  7856 layer_factory.hpp:77] Creating layer conv1
I1009 20:09:48.411403  7856 net.cpp:100] Creating Layer conv1
I1009 20:09:48.411406  7856 net.cpp:434] conv1 <- data
I1009 20:09:48.411412  7856 net.cpp:408] conv1 -> conv1
I1009 20:09:48.548900  7856 net.cpp:150] Setting up conv1
I1009 20:09:48.548923  7856 net.cpp:157] Top shape: 64 96 30 30 (5529600)
I1009 20:09:48.548925  7856 net.cpp:165] Memory required for data: 22905600
I1009 20:09:48.548943  7856 layer_factory.hpp:77] Creating layer relu1
I1009 20:09:48.548951  7856 net.cpp:100] Creating Layer relu1
I1009 20:09:48.548954  7856 net.cpp:434] relu1 <- conv1
I1009 20:09:48.548957  7856 net.cpp:395] relu1 -> conv1 (in-place)
I1009 20:09:48.549159  7856 net.cpp:150] Setting up relu1
I1009 20:09:48.549165  7856 net.cpp:157] Top shape: 64 96 30 30 (5529600)
I1009 20:09:48.549166  7856 net.cpp:165] Memory required for data: 45024000
I1009 20:09:48.549170  7856 layer_factory.hpp:77] Creating layer conv2
I1009 20:09:48.549177  7856 net.cpp:100] Creating Layer conv2
I1009 20:09:48.549180  7856 net.cpp:434] conv2 <- conv1
I1009 20:09:48.549183  7856 net.cpp:408] conv2 -> conv2
I1009 20:09:48.550534  7856 net.cpp:150] Setting up conv2
I1009 20:09:48.550544  7856 net.cpp:157] Top shape: 64 96 28 28 (4816896)
I1009 20:09:48.550546  7856 net.cpp:165] Memory required for data: 64291584
I1009 20:09:48.550552  7856 layer_factory.hpp:77] Creating layer relu2
I1009 20:09:48.550556  7856 net.cpp:100] Creating Layer relu2
I1009 20:09:48.550559  7856 net.cpp:434] relu2 <- conv2
I1009 20:09:48.550561  7856 net.cpp:395] relu2 -> conv2 (in-place)
I1009 20:09:48.550740  7856 net.cpp:150] Setting up relu2
I1009 20:09:48.550746  7856 net.cpp:157] Top shape: 64 96 28 28 (4816896)
I1009 20:09:48.550748  7856 net.cpp:165] Memory required for data: 83559168
I1009 20:09:48.550750  7856 layer_factory.hpp:77] Creating layer conv3
I1009 20:09:48.550755  7856 net.cpp:100] Creating Layer conv3
I1009 20:09:48.550757  7856 net.cpp:434] conv3 <- conv2
I1009 20:09:48.550760  7856 net.cpp:408] conv3 -> conv3
I1009 20:09:48.551893  7856 net.cpp:150] Setting up conv3
I1009 20:09:48.551903  7856 net.cpp:157] Top shape: 64 96 13 13 (1038336)
I1009 20:09:48.551904  7856 net.cpp:165] Memory required for data: 87712512
I1009 20:09:48.551911  7856 layer_factory.hpp:77] Creating layer relu3
I1009 20:09:48.551914  7856 net.cpp:100] Creating Layer relu3
I1009 20:09:48.551916  7856 net.cpp:434] relu3 <- conv3
I1009 20:09:48.551920  7856 net.cpp:395] relu3 -> conv3 (in-place)
I1009 20:09:48.552152  7856 net.cpp:150] Setting up relu3
I1009 20:09:48.552160  7856 net.cpp:157] Top shape: 64 96 13 13 (1038336)
I1009 20:09:48.552172  7856 net.cpp:165] Memory required for data: 91865856
I1009 20:09:48.552175  7856 layer_factory.hpp:77] Creating layer conv4
I1009 20:09:48.552182  7856 net.cpp:100] Creating Layer conv4
I1009 20:09:48.552184  7856 net.cpp:434] conv4 <- conv3
I1009 20:09:48.552187  7856 net.cpp:408] conv4 -> conv4
I1009 20:09:48.553961  7856 net.cpp:150] Setting up conv4
I1009 20:09:48.553971  7856 net.cpp:157] Top shape: 64 192 11 11 (1486848)
I1009 20:09:48.553972  7856 net.cpp:165] Memory required for data: 97813248
I1009 20:09:48.553977  7856 layer_factory.hpp:77] Creating layer relu4
I1009 20:09:48.553982  7856 net.cpp:100] Creating Layer relu4
I1009 20:09:48.553983  7856 net.cpp:434] relu4 <- conv4
I1009 20:09:48.553987  7856 net.cpp:395] relu4 -> conv4 (in-place)
I1009 20:09:48.554147  7856 net.cpp:150] Setting up relu4
I1009 20:09:48.554152  7856 net.cpp:157] Top shape: 64 192 11 11 (1486848)
I1009 20:09:48.554154  7856 net.cpp:165] Memory required for data: 103760640
I1009 20:09:48.554157  7856 layer_factory.hpp:77] Creating layer conv5
I1009 20:09:48.554162  7856 net.cpp:100] Creating Layer conv5
I1009 20:09:48.554163  7856 net.cpp:434] conv5 <- conv4
I1009 20:09:48.554167  7856 net.cpp:408] conv5 -> conv5
I1009 20:09:48.556656  7856 net.cpp:150] Setting up conv5
I1009 20:09:48.556666  7856 net.cpp:157] Top shape: 64 192 9 9 (995328)
I1009 20:09:48.556669  7856 net.cpp:165] Memory required for data: 107741952
I1009 20:09:48.556676  7856 layer_factory.hpp:77] Creating layer relu5
I1009 20:09:48.556680  7856 net.cpp:100] Creating Layer relu5
I1009 20:09:48.556682  7856 net.cpp:434] relu5 <- conv5
I1009 20:09:48.556685  7856 net.cpp:395] relu5 -> conv5 (in-place)
I1009 20:09:48.556841  7856 net.cpp:150] Setting up relu5
I1009 20:09:48.556846  7856 net.cpp:157] Top shape: 64 192 9 9 (995328)
I1009 20:09:48.556849  7856 net.cpp:165] Memory required for data: 111723264
I1009 20:09:48.556851  7856 layer_factory.hpp:77] Creating layer conv6
I1009 20:09:48.556856  7856 net.cpp:100] Creating Layer conv6
I1009 20:09:48.556859  7856 net.cpp:434] conv6 <- conv5
I1009 20:09:48.556861  7856 net.cpp:408] conv6 -> conv6
I1009 20:09:48.559324  7856 net.cpp:150] Setting up conv6
I1009 20:09:48.559334  7856 net.cpp:157] Top shape: 64 192 4 4 (196608)
I1009 20:09:48.559337  7856 net.cpp:165] Memory required for data: 112509696
I1009 20:09:48.559341  7856 layer_factory.hpp:77] Creating layer relu6
I1009 20:09:48.559345  7856 net.cpp:100] Creating Layer relu6
I1009 20:09:48.559348  7856 net.cpp:434] relu6 <- conv6
I1009 20:09:48.559351  7856 net.cpp:395] relu6 -> conv6 (in-place)
I1009 20:09:48.559618  7856 net.cpp:150] Setting up relu6
I1009 20:09:48.559626  7856 net.cpp:157] Top shape: 64 192 4 4 (196608)
I1009 20:09:48.559628  7856 net.cpp:165] Memory required for data: 113296128
I1009 20:09:48.559631  7856 layer_factory.hpp:77] Creating layer conv7
I1009 20:09:48.559638  7856 net.cpp:100] Creating Layer conv7
I1009 20:09:48.559653  7856 net.cpp:434] conv7 <- conv6
I1009 20:09:48.559658  7856 net.cpp:408] conv7 -> conv7
I1009 20:09:48.562559  7856 net.cpp:150] Setting up conv7
I1009 20:09:48.562592  7856 net.cpp:157] Top shape: 64 192 2 2 (49152)
I1009 20:09:48.562594  7856 net.cpp:165] Memory required for data: 113492736
I1009 20:09:48.562600  7856 layer_factory.hpp:77] Creating layer relu7
I1009 20:09:48.562608  7856 net.cpp:100] Creating Layer relu7
I1009 20:09:48.562609  7856 net.cpp:434] relu7 <- conv7
I1009 20:09:48.562613  7856 net.cpp:395] relu7 -> conv7 (in-place)
I1009 20:09:48.562860  7856 net.cpp:150] Setting up relu7
I1009 20:09:48.562868  7856 net.cpp:157] Top shape: 64 192 2 2 (49152)
I1009 20:09:48.562870  7856 net.cpp:165] Memory required for data: 113689344
I1009 20:09:48.562873  7856 layer_factory.hpp:77] Creating layer conv8
I1009 20:09:48.562881  7856 net.cpp:100] Creating Layer conv8
I1009 20:09:48.562885  7856 net.cpp:434] conv8 <- conv7
I1009 20:09:48.562887  7856 net.cpp:408] conv8 -> conv8
I1009 20:09:48.564071  7856 net.cpp:150] Setting up conv8
I1009 20:09:48.564095  7856 net.cpp:157] Top shape: 64 192 2 2 (49152)
I1009 20:09:48.564110  7856 net.cpp:165] Memory required for data: 113885952
I1009 20:09:48.564116  7856 layer_factory.hpp:77] Creating layer relu8
I1009 20:09:48.564136  7856 net.cpp:100] Creating Layer relu8
I1009 20:09:48.564138  7856 net.cpp:434] relu8 <- conv8
I1009 20:09:48.564155  7856 net.cpp:395] relu8 -> conv8 (in-place)
I1009 20:09:48.564301  7856 net.cpp:150] Setting up relu8
I1009 20:09:48.564307  7856 net.cpp:157] Top shape: 64 192 2 2 (49152)
I1009 20:09:48.564324  7856 net.cpp:165] Memory required for data: 114082560
I1009 20:09:48.564327  7856 layer_factory.hpp:77] Creating layer conv9
I1009 20:09:48.564332  7856 net.cpp:100] Creating Layer conv9
I1009 20:09:48.564334  7856 net.cpp:434] conv9 <- conv8
I1009 20:09:48.564337  7856 net.cpp:408] conv9 -> conv9
I1009 20:09:48.565096  7856 net.cpp:150] Setting up conv9
I1009 20:09:48.565119  7856 net.cpp:157] Top shape: 64 10 2 2 (2560)
I1009 20:09:48.565121  7856 net.cpp:165] Memory required for data: 114092800
I1009 20:09:48.565129  7856 layer_factory.hpp:77] Creating layer relu9
I1009 20:09:48.565135  7856 net.cpp:100] Creating Layer relu9
I1009 20:09:48.565151  7856 net.cpp:434] relu9 <- conv9
I1009 20:09:48.565155  7856 net.cpp:395] relu9 -> conv9 (in-place)
I1009 20:09:48.565407  7856 net.cpp:150] Setting up relu9
I1009 20:09:48.565413  7856 net.cpp:157] Top shape: 64 10 2 2 (2560)
I1009 20:09:48.565431  7856 net.cpp:165] Memory required for data: 114103040
I1009 20:09:48.565433  7856 layer_factory.hpp:77] Creating layer pool
I1009 20:09:48.565438  7856 net.cpp:100] Creating Layer pool
I1009 20:09:48.565440  7856 net.cpp:434] pool <- conv9
I1009 20:09:48.565443  7856 net.cpp:408] pool -> pool
I1009 20:09:48.565635  7856 net.cpp:150] Setting up pool
I1009 20:09:48.565641  7856 net.cpp:157] Top shape: 64 10 1 1 (640)
I1009 20:09:48.565657  7856 net.cpp:165] Memory required for data: 114105600
I1009 20:09:48.565660  7856 layer_factory.hpp:77] Creating layer score
I1009 20:09:48.565665  7856 net.cpp:100] Creating Layer score
I1009 20:09:48.565666  7856 net.cpp:434] score <- pool
I1009 20:09:48.565670  7856 net.cpp:408] score -> score
I1009 20:09:48.565794  7856 net.cpp:150] Setting up score
I1009 20:09:48.565798  7856 net.cpp:157] Top shape: 64 10 (640)
I1009 20:09:48.565814  7856 net.cpp:165] Memory required for data: 114108160
I1009 20:09:48.565819  7856 layer_factory.hpp:77] Creating layer score_score_0_split
I1009 20:09:48.565824  7856 net.cpp:100] Creating Layer score_score_0_split
I1009 20:09:48.565825  7856 net.cpp:434] score_score_0_split <- score
I1009 20:09:48.565910  7856 net.cpp:408] score_score_0_split -> score_score_0_split_0
I1009 20:09:48.565932  7856 net.cpp:408] score_score_0_split -> score_score_0_split_1
I1009 20:09:48.566004  7856 net.cpp:150] Setting up score_score_0_split
I1009 20:09:48.566009  7856 net.cpp:157] Top shape: 64 10 (640)
I1009 20:09:48.566025  7856 net.cpp:157] Top shape: 64 10 (640)
I1009 20:09:48.566027  7856 net.cpp:165] Memory required for data: 114113280
I1009 20:09:48.566030  7856 layer_factory.hpp:77] Creating layer accuracy
I1009 20:09:48.566047  7856 net.cpp:100] Creating Layer accuracy
I1009 20:09:48.566049  7856 net.cpp:434] accuracy <- score_score_0_split_0
I1009 20:09:48.566052  7856 net.cpp:434] accuracy <- label_data_1_split_0
I1009 20:09:48.566071  7856 net.cpp:408] accuracy -> accuracy
…
I1009 20:09:48.566604  7856 net.cpp:283] Network initialization done.
I1009 20:09:48.566784  7856 solver.cpp:181] Creating test net (#0) specified by test_net file: /home/adam/Honours/Honours-Project/cifar-10_allcnn/relu/allcnn_relu_test.prototxt
I1009 20:09:48.566901  7856 net.cpp:58] Initializing net from parameters: 
state {
  phase: TEST
}
layer {
  name: "data"
  type: "Data"
  top: "data"
  top: "label"
  transform_param {
    mean_file: "mean.binaryproto"
  }
  data_param {
    source: "../../../data/cifar-10/cifar10_test_lmdb"
    batch_size: 100
    backend: LMDB
  }
}
layer {
  name: "conv1"
  type: "Convolution"
  bottom: "data"
  top: "conv1"
  convolution_param {
    num_output: 96
    kernel_size: 3
    weight_filler {
      type: "xavier"
    }
  }
}
layer {
  name: "relu1"
  type: "ReLU"
  bottom: "conv1"
  top: "conv1"
}
layer {
  name: "conv2"
  type: "Convolution"
  bottom: "conv1"
  top: "conv2"
  convolution_param {
    num_output: 96
    kernel_size: 3
    weight_filler {
      type: "xavier"
    }
  }
}
layer {
  name: "relu2"
  type: "ReLU"
  bottom: "conv2"
  top: "conv2"
}
layer {
  name: "conv3"
  type: "Convolution"
  bottom: "conv2"
  top: "conv3"
  convolution_param {
    num_output: 96
    kernel_size: 3
    stride: 2
    weight_filler {
      type: "xavier"
    }
  }
}
layer {
  name: "relu3"
  type: "ReLU"
  bottom: "conv3"
  top: "conv3"
}
layer {
  name: "conv4"
  type: "Convolution"
  bottom: "conv3"
  top: "conv4"
  convolution_param {
    num_output: 192
    kernel_size: 3
    weight_filler {
      type: "xavier"
    }
  }
}
layer {
  name: "relu4"
  type: "ReLU"
  bottom: "conv4"
  top: "conv4"
}
layer {
  name: "conv5"
  type: "Convolution"
  bottom: "conv4"
  top: "conv5"
  convolution_param {
    num_output: 192
    kernel_size: 3
    weight_filler {
      type: "xavier"
    }
  }
}
layer {
  name: "relu5"
  type: "ReLU"
  bottom: "conv5"
  top: "conv5"
}
layer {
  name: "conv6"
  type: "Convolution"
  bottom: "conv5"
  top: "conv6"
  convolution_param {
    num_output: 192
    kernel_size: 3
    stride: 2
    weight_filler {
      type: "xavier"
    }
  }
}
layer {
  name: "relu6"
  type: "ReLU"
  bottom: "conv6"
  top: "conv6"
}
layer {
  name: "conv7"
  type: "Convolution"
  bottom: "conv6"
  top: "conv7"
  convolution_param {
    num_output: 192
    kernel_size: 3
    weight_filler {
      type: "xavier"
    }
  }
}
layer {
  name: "relu7"
  type: "ReLU"
  bottom: "conv7"
  top: "conv7"
}
layer {
  name: "conv8"
  type: "Convolution"
  bottom: "conv7"
  top: "conv8"
  convolution_param {
    num_output: 192
    kernel_size: 1
    weight_filler {
      type: "xavier"
    }
  }
}
layer {
  name: "relu8"
  type: "ReLU"
  bottom: "conv8"
  top: "conv8"
}
layer {
  name: "conv9"
  type: "Convolution"
  bottom: "conv8"
  top: "conv9"
  convolution_param {
    num_output: 10
    kernel_size: 1
    weight_filler {
      type: "xavier"
    }
  }
}
layer {
  name: "relu9"
  type: "ReLU"
  bottom: "conv9"
  top: "conv9"
}
layer {
  name: "pool"
  type: "Pooling"
  bottom: "conv9"
  top: "pool"
  pooling_param {
    pool: AVE
    global_pooling: true
  }
}
layer {
  name: "score"
  type: "InnerProduct"
  bottom: "pool"
  top: "score"
  inner_product_param {
    num_output: 10
    weight_filler {
      type: "gaussian"
    }
  }
}
layer {
  name: "accuracy"
  type: "Accuracy"
  bottom: "score"
  bottom: "label"
  top: "accuracy"
}
layer {
  name: "loss"
  type: "SoftmaxWithLoss"
  bottom: "score"
  bottom: "label"
  top: "loss"
}
I1009 20:09:48.566979  7856 layer_factory.hpp:77] Creating layer data
I1009 20:09:48.567072  7856 net.cpp:100] Creating Layer data
I1009 20:09:48.567078  7856 net.cpp:408] data -> data
I1009 20:09:48.567085  7856 net.cpp:408] data -> label
I1009 20:09:48.567090  7856 data_transformer.cpp:25] Loading mean file from: mean.binaryproto
I1009 20:09:48.567837  7863 db_lmdb.cpp:35] Opened lmdb ../../../data/cifar-10/cifar10_test_lmdb
I1009 20:09:48.567940  7856 data_layer.cpp:41] output data size: 100,3,32,32
I1009 20:09:48.569816  7856 net.cpp:150] Setting up data
I1009 20:09:48.569833  7856 net.cpp:157] Top shape: 100 3 32 32 (307200)
I1009 20:09:48.569838  7856 net.cpp:157] Top shape: 100 (100)
I1009 20:09:48.569839  7856 net.cpp:165] Memory required for data: 1229200
I1009 20:09:48.569855  7856 layer_factory.hpp:77] Creating layer label_data_1_split
I1009 20:09:48.569864  7856 net.cpp:100] Creating Layer label_data_1_split
I1009 20:09:48.569880  7856 net.cpp:434] label_data_1_split <- label
I1009 20:09:48.569885  7856 net.cpp:408] label_data_1_split -> label_data_1_split_0
I1009 20:09:48.569890  7856 net.cpp:408] label_data_1_split -> label_data_1_split_1
I1009 20:09:48.569986  7856 net.cpp:150] Setting up label_data_1_split
I1009 20:09:48.569991  7856 net.cpp:157] Top shape: 100 (100)
I1009 20:09:48.569994  7856 net.cpp:157] Top shape: 100 (100)
I1009 20:09:48.569996  7856 net.cpp:165] Memory required for data: 1230000
I1009 20:09:48.569998  7856 layer_factory.hpp:77] Creating layer conv1
I1009 20:09:48.570020  7856 net.cpp:100] Creating Layer conv1
I1009 20:09:48.570022  7856 net.cpp:434] conv1 <- data
I1009 20:09:48.570026  7856 net.cpp:408] conv1 -> conv1
I1009 20:09:48.571033  7856 net.cpp:150] Setting up conv1
I1009 20:09:48.571056  7856 net.cpp:157] Top shape: 100 96 30 30 (8640000)
I1009 20:09:48.571059  7856 net.cpp:165] Memory required for data: 35790000
I1009 20:09:48.571069  7856 layer_factory.hpp:77] Creating layer relu1
I1009 20:09:48.571074  7856 net.cpp:100] Creating Layer relu1
I1009 20:09:48.571076  7856 net.cpp:434] relu1 <- conv1
I1009 20:09:48.571079  7856 net.cpp:395] relu1 -> conv1 (in-place)
I1009 20:09:48.571236  7856 net.cpp:150] Setting up relu1
I1009 20:09:48.571244  7856 net.cpp:157] Top shape: 100 96 30 30 (8640000)
I1009 20:09:48.571259  7856 net.cpp:165] Memory required for data: 70350000
I1009 20:09:48.571261  7856 layer_factory.hpp:77] Creating layer conv2
I1009 20:09:48.571281  7856 net.cpp:100] Creating Layer conv2
I1009 20:09:48.571295  7856 net.cpp:434] conv2 <- conv1
I1009 20:09:48.571300  7856 net.cpp:408] conv2 -> conv2
I1009 20:09:48.572600  7856 net.cpp:150] Setting up conv2
I1009 20:09:48.572624  7856 net.cpp:157] Top shape: 100 96 28 28 (7526400)
I1009 20:09:48.572626  7856 net.cpp:165] Memory required for data: 100455600
I1009 20:09:48.572648  7856 layer_factory.hpp:77] Creating layer relu2
I1009 20:09:48.572651  7856 net.cpp:100] Creating Layer relu2
I1009 20:09:48.572654  7856 net.cpp:434] relu2 <- conv2
I1009 20:09:48.572657  7856 net.cpp:395] relu2 -> conv2 (in-place)
I1009 20:09:48.572885  7856 net.cpp:150] Setting up relu2
I1009 20:09:48.572906  7856 net.cpp:157] Top shape: 100 96 28 28 (7526400)
I1009 20:09:48.572908  7856 net.cpp:165] Memory required for data: 130561200
I1009 20:09:48.572911  7856 layer_factory.hpp:77] Creating layer conv3
I1009 20:09:48.572917  7856 net.cpp:100] Creating Layer conv3
I1009 20:09:48.572919  7856 net.cpp:434] conv3 <- conv2
I1009 20:09:48.572924  7856 net.cpp:408] conv3 -> conv3
I1009 20:09:48.574009  7856 net.cpp:150] Setting up conv3
I1009 20:09:48.574033  7856 net.cpp:157] Top shape: 100 96 13 13 (1622400)
I1009 20:09:48.574036  7856 net.cpp:165] Memory required for data: 137050800
I1009 20:09:48.574048  7856 layer_factory.hpp:77] Creating layer relu3
I1009 20:09:48.574053  7856 net.cpp:100] Creating Layer relu3
I1009 20:09:48.574055  7856 net.cpp:434] relu3 <- conv3
I1009 20:09:48.574059  7856 net.cpp:395] relu3 -> conv3 (in-place)
I1009 20:09:48.574291  7856 net.cpp:150] Setting up relu3
I1009 20:09:48.574314  7856 net.cpp:157] Top shape: 100 96 13 13 (1622400)
I1009 20:09:48.574317  7856 net.cpp:165] Memory required for data: 143540400
I1009 20:09:48.574319  7856 layer_factory.hpp:77] Creating layer conv4
I1009 20:09:48.574327  7856 net.cpp:100] Creating Layer conv4
I1009 20:09:48.574331  7856 net.cpp:434] conv4 <- conv3
I1009 20:09:48.574334  7856 net.cpp:408] conv4 -> conv4
I1009 20:09:48.576215  7856 net.cpp:150] Setting up conv4
I1009 20:09:48.576241  7856 net.cpp:157] Top shape: 100 192 11 11 (2323200)
I1009 20:09:48.576244  7856 net.cpp:165] Memory required for data: 152833200
I1009 20:09:48.576248  7856 layer_factory.hpp:77] Creating layer relu4
I1009 20:09:48.576253  7856 net.cpp:100] Creating Layer relu4
I1009 20:09:48.576269  7856 net.cpp:434] relu4 <- conv4
I1009 20:09:48.576272  7856 net.cpp:395] relu4 -> conv4 (in-place)
I1009 20:09:48.576418  7856 net.cpp:150] Setting up relu4
I1009 20:09:48.576426  7856 net.cpp:157] Top shape: 100 192 11 11 (2323200)
I1009 20:09:48.576442  7856 net.cpp:165] Memory required for data: 162126000
I1009 20:09:48.576444  7856 layer_factory.hpp:77] Creating layer conv5
I1009 20:09:48.576450  7856 net.cpp:100] Creating Layer conv5
I1009 20:09:48.576452  7856 net.cpp:434] conv5 <- conv4
I1009 20:09:48.576457  7856 net.cpp:408] conv5 -> conv5
I1009 20:09:48.579720  7856 net.cpp:150] Setting up conv5
I1009 20:09:48.579738  7856 net.cpp:157] Top shape: 100 192 9 9 (1555200)
I1009 20:09:48.579741  7856 net.cpp:165] Memory required for data: 168346800
I1009 20:09:48.579749  7856 layer_factory.hpp:77] Creating layer relu5
I1009 20:09:48.579756  7856 net.cpp:100] Creating Layer relu5
I1009 20:09:48.579757  7856 net.cpp:434] relu5 <- conv5
I1009 20:09:48.579762  7856 net.cpp:395] relu5 -> conv5 (in-place)
I1009 20:09:48.580040  7856 net.cpp:150] Setting up relu5
I1009 20:09:48.580049  7856 net.cpp:157] Top shape: 100 192 9 9 (1555200)
I1009 20:09:48.580050  7856 net.cpp:165] Memory required for data: 174567600
I1009 20:09:48.580052  7856 layer_factory.hpp:77] Creating layer conv6
I1009 20:09:48.580060  7856 net.cpp:100] Creating Layer conv6
I1009 20:09:48.580061  7856 net.cpp:434] conv6 <- conv5
I1009 20:09:48.580065  7856 net.cpp:408] conv6 -> conv6
I1009 20:09:48.582561  7856 net.cpp:150] Setting up conv6
I1009 20:09:48.582571  7856 net.cpp:157] Top shape: 100 192 4 4 (307200)
I1009 20:09:48.582572  7856 net.cpp:165] Memory required for data: 175796400
I1009 20:09:48.582577  7856 layer_factory.hpp:77] Creating layer relu6
I1009 20:09:48.582592  7856 net.cpp:100] Creating Layer relu6
I1009 20:09:48.582594  7856 net.cpp:434] relu6 <- conv6
I1009 20:09:48.582598  7856 net.cpp:395] relu6 -> conv6 (in-place)
I1009 20:09:48.582877  7856 net.cpp:150] Setting up relu6
I1009 20:09:48.582885  7856 net.cpp:157] Top shape: 100 192 4 4 (307200)
I1009 20:09:48.582887  7856 net.cpp:165] Memory required for data: 177025200
I1009 20:09:48.582890  7856 layer_factory.hpp:77] Creating layer conv7
I1009 20:09:48.582896  7856 net.cpp:100] Creating Layer conv7
I1009 20:09:48.582898  7856 net.cpp:434] conv7 <- conv6
I1009 20:09:48.582902  7856 net.cpp:408] conv7 -> conv7
I1009 20:09:48.585458  7856 net.cpp:150] Setting up conv7
I1009 20:09:48.585469  7856 net.cpp:157] Top shape: 100 192 2 2 (76800)
I1009 20:09:48.585471  7856 net.cpp:165] Memory required for data: 177332400
I1009 20:09:48.585475  7856 layer_factory.hpp:77] Creating layer relu7
I1009 20:09:48.585480  7856 net.cpp:100] Creating Layer relu7
I1009 20:09:48.585482  7856 net.cpp:434] relu7 <- conv7
I1009 20:09:48.585486  7856 net.cpp:395] relu7 -> conv7 (in-place)
I1009 20:09:48.585651  7856 net.cpp:150] Setting up relu7
I1009 20:09:48.585659  7856 net.cpp:157] Top shape: 100 192 2 2 (76800)
I1009 20:09:48.585660  7856 net.cpp:165] Memory required for data: 177639600
I1009 20:09:48.585662  7856 layer_factory.hpp:77] Creating layer conv8
I1009 20:09:48.585670  7856 net.cpp:100] Creating Layer conv8
I1009 20:09:48.585674  7856 net.cpp:434] conv8 <- conv7
I1009 20:09:48.585676  7856 net.cpp:408] conv8 -> conv8
I1009 20:09:48.586659  7856 net.cpp:150] Setting up conv8
I1009 20:09:48.586669  7856 net.cpp:157] Top shape: 100 192 2 2 (76800)
I1009 20:09:48.586671  7856 net.cpp:165] Memory required for data: 177946800
I1009 20:09:48.586675  7856 layer_factory.hpp:77] Creating layer relu8
I1009 20:09:48.586679  7856 net.cpp:100] Creating Layer relu8
I1009 20:09:48.586681  7856 net.cpp:434] relu8 <- conv8
I1009 20:09:48.586685  7856 net.cpp:395] relu8 -> conv8 (in-place)
I1009 20:09:48.586959  7856 net.cpp:150] Setting up relu8
I1009 20:09:48.586968  7856 net.cpp:157] Top shape: 100 192 2 2 (76800)
I1009 20:09:48.586971  7856 net.cpp:165] Memory required for data: 178254000
I1009 20:09:48.586972  7856 layer_factory.hpp:77] Creating layer conv9
I1009 20:09:48.586978  7856 net.cpp:100] Creating Layer conv9
I1009 20:09:48.586980  7856 net.cpp:434] conv9 <- conv8
I1009 20:09:48.586984  7856 net.cpp:408] conv9 -> conv9
I1009 20:09:48.587736  7856 net.cpp:150] Setting up conv9
I1009 20:09:48.587745  7856 net.cpp:157] Top shape: 100 10 2 2 (4000)
I1009 20:09:48.587749  7856 net.cpp:165] Memory required for data: 178270000
I1009 20:09:48.587755  7856 layer_factory.hpp:77] Creating layer relu9
I1009 20:09:48.587760  7856 net.cpp:100] Creating Layer relu9
I1009 20:09:48.587762  7856 net.cpp:434] relu9 <- conv9
I1009 20:09:48.587765  7856 net.cpp:395] relu9 -> conv9 (in-place)
I1009 20:09:48.588021  7856 net.cpp:150] Setting up relu9
I1009 20:09:48.588028  7856 net.cpp:157] Top shape: 100 10 2 2 (4000)
I1009 20:09:48.588030  7856 net.cpp:165] Memory required for data: 178286000
I1009 20:09:48.588032  7856 layer_factory.hpp:77] Creating layer pool
I1009 20:09:48.588037  7856 net.cpp:100] Creating Layer pool
I1009 20:09:48.588040  7856 net.cpp:434] pool <- conv9
I1009 20:09:48.588043  7856 net.cpp:408] pool -> pool
I1009 20:09:48.588243  7856 net.cpp:150] Setting up pool
I1009 20:09:48.588248  7856 net.cpp:157] Top shape: 100 10 1 1 (1000)
I1009 20:09:48.588249  7856 net.cpp:165] Memory required for data: 178290000
I1009 20:09:48.588251  7856 layer_factory.hpp:77] Creating layer score
I1009 20:09:48.588256  7856 net.cpp:100] Creating Layer score
I1009 20:09:48.588258  7856 net.cpp:434] score <- pool
I1009 20:09:48.588263  7856 net.cpp:408] score -> score
I1009 20:09:48.588390  7856 net.cpp:150] Setting up score
I1009 20:09:48.588394  7856 net.cpp:157] Top shape: 100 10 (1000)
I1009 20:09:48.588397  7856 net.cpp:165] Memory required for data: 178294000
I1009 20:09:48.588400  7856 layer_factory.hpp:77] Creating layer score_score_0_split
I1009 20:09:48.588413  7856 net.cpp:100] Creating Layer score_score_0_split
I1009 20:09:48.588416  7856 net.cpp:434] score_score_0_split <- score
I1009 20:09:48.588420  7856 net.cpp:408] score_score_0_split -> score_score_0_split_0
I1009 20:09:48.588424  7856 net.cpp:408] score_score_0_split -> score_score_0_split_1
I1009 20:09:48.588500  7856 net.cpp:150] Setting up score_score_0_split
I1009 20:09:48.588505  7856 net.cpp:157] Top shape: 100 10 (1000)
I1009 20:09:48.588520  7856 net.cpp:157] Top shape: 100 10 (1000)
I1009 20:09:48.588521  7856 net.cpp:165] Memory required for data: 178302000
I1009 20:09:48.588523  7856 layer_factory.hpp:77] Creating layer accuracy
I1009 20:09:48.588541  7856 net.cpp:100] Creating Layer accuracy
I1009 20:09:48.588543  7856 net.cpp:434] accuracy <- score_score_0_split_0
I1009 20:09:48.588547  7856 net.cpp:434] accuracy <- label_data_1_split_0
I1009 20:09:48.588551  7856 net.cpp:408] accuracy -> accuracy
…
