…
  stage: ""
}
type: "AdaDelta"
I1012 15:46:51.345372  5394 solver.cpp:81] Creating training net from train_net file: /home/adam/Honours/Honours-Project/cifar-10_allcnn/relu/allcnn_relu_train.prototxt
I1012 15:46:51.345711  5394 net.cpp:58] Initializing net from parameters: 
state {
  phase: TRAIN
  level: 0
  stage: ""
}
layer {
  name: "data"
  type: "Data"
  top: "data"
  top: "label"
  transform_param {
    mean_file: "mean.binaryproto"
  }
  data_param {
    source: "../../../data/cifar-10/cifar10_train_lmdb"
    batch_size: 64
    backend: LMDB
  }
}
layer {
  name: "conv1"
  type: "Convolution"
  bottom: "data"
  top: "conv1"
  convolution_param {
    num_output: 96
    kernel_size: 3
    weight_filler {
      type: "xavier"
    }
  }
}
layer {
  name: "relu1"
  type: "ReLU"
  bottom: "conv1"
  top: "conv1"
}
layer {
  name: "conv2"
  type: "Convolution"
  bottom: "conv1"
  top: "conv2"
  convolution_param {
    num_output: 96
    kernel_size: 3
    weight_filler {
      type: "xavier"
    }
  }
}
layer {
  name: "bn1"
  type: "BatchNorm"
  bottom: "conv2"
  top: "bn1"
}
layer {
  name: "relu2"
  type: "ReLU"
  bottom: "bn1"
  top: "bn1"
}
layer {
  name: "conv3"
  type: "Convolution"
  bottom: "bn1"
  top: "conv3"
  convolution_param {
    num_output: 96
    kernel_size: 3
    stride: 2
    weight_filler {
      type: "xavier"
    }
  }
}
layer {
  name: "drop1"
  type: "Dropout"
  bottom: "conv3"
  top: "drop1"
  dropout_param {
    dropout_ratio: 0.5
  }
}
layer {
  name: "relu3"
  type: "ReLU"
  bottom: "drop1"
  top: "drop1"
}
layer {
  name: "conv4"
  type: "Convolution"
  bottom: "drop1"
  top: "conv4"
  convolution_param {
    num_output: 192
    kernel_size: 3
    weight_filler {
      type: "xavier"
    }
  }
}
layer {
  name: "relu4"
  type: "ReLU"
  bottom: "conv4"
  top: "conv4"
}
layer {
  name: "conv5"
  type: "Convolution"
  bottom: "conv4"
  top: "conv5"
  convolution_param {
    num_output: 192
    kernel_size: 3
    weight_filler {
      type: "xavier"
    }
  }
}
layer {
  name: "bn2"
  type: "BatchNorm"
  bottom: "conv5"
  top: "bn2"
}
layer {
  name: "relu5"
  type: "ReLU"
  bottom: "bn2"
  top: "bn2"
}
layer {
  name: "conv6"
  type: "Convolution"
  bottom: "bn2"
  top: "conv6"
  convolution_param {
    num_output: 192
    kernel_size: 3
    stride: 2
    weight_filler {
      type: "xavier"
    }
  }
}
layer {
  name: "drop4"
  type: "Dropout"
  bottom: "conv6"
  top: "drop4"
  dropout_param {
    dropout_ratio: 0.5
  }
}
layer {
  name: "relu6"
  type: "ReLU"
  bottom: "drop4"
  top: "drop4"
}
layer {
  name: "conv7"
  type: "Convolution"
  bottom: "drop4"
  top: "conv7"
  convolution_param {
    num_output: 192
    kernel_size: 3
    weight_filler {
      type: "xavier"
    }
  }
}
layer {
  name: "relu7"
  type: "ReLU"
  bottom: "conv7"
  top: "conv7"
}
layer {
  name: "conv8"
  type: "Convolution"
  bottom: "conv7"
  top: "conv8"
  convolution_param {
    num_output: 192
    kernel_size: 1
    weight_filler {
      type: "xavier"
    }
  }
}
layer {
  name: "relu8"
  type: "ReLU"
  bottom: "conv8"
  top: "conv8"
}
layer {
  name: "conv9"
  type: "Convolution"
  bottom: "conv8"
  top: "conv9"
  convolution_param {
    num_output: 10
    kernel_size: 1
    weight_filler {
      type: "xavier"
    }
  }
}
layer {
  name: "relu9"
  type: "ReLU"
  bottom: "conv9"
  top: "conv9"
}
layer {
  name: "pool"
  type: "Pooling"
  bottom: "conv9"
  top: "pool"
  pooling_param {
    pool: AVE
    global_pooling: true
  }
}
layer {
  name: "flatten"
  type: "Flatten"
  bottom: "pool"
  top: "flatten"
}
layer {
  name: "score"
  type: "InnerProduct"
  bottom: "flatten"
  top: "score"
  inner_product_param {
    num_output: 10
    weight_filler {
      type: "gaussian"
    }
  }
}
layer {
  name: "accuracy"
  type: "Accuracy"
  bottom: "score"
  bottom: "label"
  top: "accuracy"
}
layer {
  name: "loss"
  type: "SoftmaxWithLoss"
  bottom: "score"
  bottom: "label"
  top: "loss"
}
I1012 15:46:51.345870  5394 layer_factory.hpp:77] Creating layer data
I1012 15:46:51.346292  5394 net.cpp:100] Creating Layer data
I1012 15:46:51.346300  5394 net.cpp:408] data -> data
I1012 15:46:51.346338  5394 net.cpp:408] data -> label
I1012 15:46:51.346361  5394 data_transformer.cpp:25] Loading mean file from: mean.binaryproto
I1012 15:46:51.347046  5399 db_lmdb.cpp:35] Opened lmdb ../../../data/cifar-10/cifar10_train_lmdb
I1012 15:46:51.353327  5394 data_layer.cpp:41] output data size: 64,3,32,32
I1012 15:46:51.354841  5394 net.cpp:150] Setting up data
I1012 15:46:51.354856  5394 net.cpp:157] Top shape: 64 3 32 32 (196608)
I1012 15:46:51.354859  5394 net.cpp:157] Top shape: 64 (64)
I1012 15:46:51.354861  5394 net.cpp:165] Memory required for data: 786688
I1012 15:46:51.354892  5394 layer_factory.hpp:77] Creating layer label_data_1_split
I1012 15:46:51.354902  5394 net.cpp:100] Creating Layer label_data_1_split
I1012 15:46:51.354905  5394 net.cpp:434] label_data_1_split <- label
I1012 15:46:51.354930  5394 net.cpp:408] label_data_1_split -> label_data_1_split_0
I1012 15:46:51.354954  5394 net.cpp:408] label_data_1_split -> label_data_1_split_1
I1012 15:46:51.355000  5394 net.cpp:150] Setting up label_data_1_split
I1012 15:46:51.355003  5394 net.cpp:157] Top shape: 64 (64)
I1012 15:46:51.355020  5394 net.cpp:157] Top shape: 64 (64)
I1012 15:46:51.355021  5394 net.cpp:165] Memory required for data: 787200
I1012 15:46:51.355023  5394 layer_factory.hpp:77] Creating layer conv1
I1012 15:46:51.355048  5394 net.cpp:100] Creating Layer conv1
I1012 15:46:51.355065  5394 net.cpp:434] conv1 <- data
I1012 15:46:51.355069  5394 net.cpp:408] conv1 -> conv1
I1012 15:46:51.490090  5394 net.cpp:150] Setting up conv1
I1012 15:46:51.490114  5394 net.cpp:157] Top shape: 64 96 30 30 (5529600)
I1012 15:46:51.490118  5394 net.cpp:165] Memory required for data: 22905600
I1012 15:46:51.490134  5394 layer_factory.hpp:77] Creating layer relu1
I1012 15:46:51.490144  5394 net.cpp:100] Creating Layer relu1
I1012 15:46:51.490147  5394 net.cpp:434] relu1 <- conv1
I1012 15:46:51.490151  5394 net.cpp:395] relu1 -> conv1 (in-place)
I1012 15:46:51.490365  5394 net.cpp:150] Setting up relu1
I1012 15:46:51.490371  5394 net.cpp:157] Top shape: 64 96 30 30 (5529600)
I1012 15:46:51.490373  5394 net.cpp:165] Memory required for data: 45024000
I1012 15:46:51.490375  5394 layer_factory.hpp:77] Creating layer conv2
I1012 15:46:51.490386  5394 net.cpp:100] Creating Layer conv2
I1012 15:46:51.490387  5394 net.cpp:434] conv2 <- conv1
I1012 15:46:51.490391  5394 net.cpp:408] conv2 -> conv2
I1012 15:46:51.491832  5394 net.cpp:150] Setting up conv2
I1012 15:46:51.491843  5394 net.cpp:157] Top shape: 64 96 28 28 (4816896)
I1012 15:46:51.491845  5394 net.cpp:165] Memory required for data: 64291584
I1012 15:46:51.491852  5394 layer_factory.hpp:77] Creating layer bn1
I1012 15:46:51.491857  5394 net.cpp:100] Creating Layer bn1
I1012 15:46:51.491858  5394 net.cpp:434] bn1 <- conv2
I1012 15:46:51.491863  5394 net.cpp:408] bn1 -> bn1
I1012 15:46:51.492053  5394 net.cpp:150] Setting up bn1
I1012 15:46:51.492059  5394 net.cpp:157] Top shape: 64 96 28 28 (4816896)
I1012 15:46:51.492061  5394 net.cpp:165] Memory required for data: 83559168
I1012 15:46:51.492066  5394 layer_factory.hpp:77] Creating layer relu2
I1012 15:46:51.492070  5394 net.cpp:100] Creating Layer relu2
I1012 15:46:51.492072  5394 net.cpp:434] relu2 <- bn1
I1012 15:46:51.492075  5394 net.cpp:395] relu2 -> bn1 (in-place)
I1012 15:46:51.492247  5394 net.cpp:150] Setting up relu2
I1012 15:46:51.492254  5394 net.cpp:157] Top shape: 64 96 28 28 (4816896)
I1012 15:46:51.492265  5394 net.cpp:165] Memory required for data: 102826752
I1012 15:46:51.492269  5394 layer_factory.hpp:77] Creating layer conv3
I1012 15:46:51.492275  5394 net.cpp:100] Creating Layer conv3
I1012 15:46:51.492277  5394 net.cpp:434] conv3 <- bn1
I1012 15:46:51.492280  5394 net.cpp:408] conv3 -> conv3
I1012 15:46:51.493470  5394 net.cpp:150] Setting up conv3
I1012 15:46:51.493479  5394 net.cpp:157] Top shape: 64 96 13 13 (1038336)
I1012 15:46:51.493481  5394 net.cpp:165] Memory required for data: 106980096
I1012 15:46:51.493489  5394 layer_factory.hpp:77] Creating layer drop1
I1012 15:46:51.493494  5394 net.cpp:100] Creating Layer drop1
I1012 15:46:51.493496  5394 net.cpp:434] drop1 <- conv3
I1012 15:46:51.493500  5394 net.cpp:408] drop1 -> drop1
I1012 15:46:51.493561  5394 net.cpp:150] Setting up drop1
I1012 15:46:51.493567  5394 net.cpp:157] Top shape: 64 96 13 13 (1038336)
I1012 15:46:51.493582  5394 net.cpp:165] Memory required for data: 111133440
I1012 15:46:51.493584  5394 layer_factory.hpp:77] Creating layer relu3
I1012 15:46:51.493587  5394 net.cpp:100] Creating Layer relu3
I1012 15:46:51.493589  5394 net.cpp:434] relu3 <- drop1
I1012 15:46:51.493607  5394 net.cpp:395] relu3 -> drop1 (in-place)
I1012 15:46:51.493872  5394 net.cpp:150] Setting up relu3
I1012 15:46:51.493880  5394 net.cpp:157] Top shape: 64 96 13 13 (1038336)
I1012 15:46:51.493882  5394 net.cpp:165] Memory required for data: 115286784
I1012 15:46:51.493885  5394 layer_factory.hpp:77] Creating layer conv4
I1012 15:46:51.493891  5394 net.cpp:100] Creating Layer conv4
I1012 15:46:51.493893  5394 net.cpp:434] conv4 <- drop1
I1012 15:46:51.493896  5394 net.cpp:408] conv4 -> conv4
I1012 15:46:51.495733  5394 net.cpp:150] Setting up conv4
I1012 15:46:51.495743  5394 net.cpp:157] Top shape: 64 192 11 11 (1486848)
I1012 15:46:51.495744  5394 net.cpp:165] Memory required for data: 121234176
I1012 15:46:51.495749  5394 layer_factory.hpp:77] Creating layer relu4
I1012 15:46:51.495753  5394 net.cpp:100] Creating Layer relu4
I1012 15:46:51.495754  5394 net.cpp:434] relu4 <- conv4
I1012 15:46:51.495759  5394 net.cpp:395] relu4 -> conv4 (in-place)
I1012 15:46:51.495949  5394 net.cpp:150] Setting up relu4
I1012 15:46:51.495955  5394 net.cpp:157] Top shape: 64 192 11 11 (1486848)
I1012 15:46:51.495959  5394 net.cpp:165] Memory required for data: 127181568
I1012 15:46:51.495960  5394 layer_factory.hpp:77] Creating layer conv5
I1012 15:46:51.495965  5394 net.cpp:100] Creating Layer conv5
I1012 15:46:51.495966  5394 net.cpp:434] conv5 <- conv4
I1012 15:46:51.495971  5394 net.cpp:408] conv5 -> conv5
I1012 15:46:51.498499  5394 net.cpp:150] Setting up conv5
I1012 15:46:51.498509  5394 net.cpp:157] Top shape: 64 192 9 9 (995328)
I1012 15:46:51.498512  5394 net.cpp:165] Memory required for data: 131162880
I1012 15:46:51.498517  5394 layer_factory.hpp:77] Creating layer bn2
I1012 15:46:51.498522  5394 net.cpp:100] Creating Layer bn2
I1012 15:46:51.498523  5394 net.cpp:434] bn2 <- conv5
I1012 15:46:51.498528  5394 net.cpp:408] bn2 -> bn2
I1012 15:46:51.498723  5394 net.cpp:150] Setting up bn2
I1012 15:46:51.498728  5394 net.cpp:157] Top shape: 64 192 9 9 (995328)
I1012 15:46:51.498729  5394 net.cpp:165] Memory required for data: 135144192
I1012 15:46:51.498733  5394 layer_factory.hpp:77] Creating layer relu5
I1012 15:46:51.498738  5394 net.cpp:100] Creating Layer relu5
I1012 15:46:51.498739  5394 net.cpp:434] relu5 <- bn2
I1012 15:46:51.498741  5394 net.cpp:395] relu5 -> bn2 (in-place)
I1012 15:46:51.498914  5394 net.cpp:150] Setting up relu5
I1012 15:46:51.498919  5394 net.cpp:157] Top shape: 64 192 9 9 (995328)
I1012 15:46:51.498921  5394 net.cpp:165] Memory required for data: 139125504
I1012 15:46:51.498924  5394 layer_factory.hpp:77] Creating layer conv6
I1012 15:46:51.498929  5394 net.cpp:100] Creating Layer conv6
I1012 15:46:51.498931  5394 net.cpp:434] conv6 <- bn2
I1012 15:46:51.498934  5394 net.cpp:408] conv6 -> conv6
I1012 15:46:51.501443  5394 net.cpp:150] Setting up conv6
I1012 15:46:51.501467  5394 net.cpp:157] Top shape: 64 192 4 4 (196608)
I1012 15:46:51.501482  5394 net.cpp:165] Memory required for data: 139911936
I1012 15:46:51.501505  5394 layer_factory.hpp:77] Creating layer drop4
I1012 15:46:51.501526  5394 net.cpp:100] Creating Layer drop4
I1012 15:46:51.501529  5394 net.cpp:434] drop4 <- conv6
I1012 15:46:51.501533  5394 net.cpp:408] drop4 -> drop4
I1012 15:46:51.501581  5394 net.cpp:150] Setting up drop4
I1012 15:46:51.501586  5394 net.cpp:157] Top shape: 64 192 4 4 (196608)
I1012 15:46:51.501588  5394 net.cpp:165] Memory required for data: 140698368
I1012 15:46:51.501590  5394 layer_factory.hpp:77] Creating layer relu6
I1012 15:46:51.501595  5394 net.cpp:100] Creating Layer relu6
I1012 15:46:51.501596  5394 net.cpp:434] relu6 <- drop4
I1012 15:46:51.501612  5394 net.cpp:395] relu6 -> drop4 (in-place)
I1012 15:46:51.501880  5394 net.cpp:150] Setting up relu6
I1012 15:46:51.501904  5394 net.cpp:157] Top shape: 64 192 4 4 (196608)
I1012 15:46:51.501905  5394 net.cpp:165] Memory required for data: 141484800
I1012 15:46:51.501907  5394 layer_factory.hpp:77] Creating layer conv7
I1012 15:46:51.501914  5394 net.cpp:100] Creating Layer conv7
I1012 15:46:51.501916  5394 net.cpp:434] conv7 <- drop4
I1012 15:46:51.501920  5394 net.cpp:408] conv7 -> conv7
I1012 15:46:51.504953  5394 net.cpp:150] Setting up conv7
I1012 15:46:51.504971  5394 net.cpp:157] Top shape: 64 192 2 2 (49152)
I1012 15:46:51.504973  5394 net.cpp:165] Memory required for data: 141681408
I1012 15:46:51.504979  5394 layer_factory.hpp:77] Creating layer relu7
I1012 15:46:51.504986  5394 net.cpp:100] Creating Layer relu7
I1012 15:46:51.504987  5394 net.cpp:434] relu7 <- conv7
I1012 15:46:51.504992  5394 net.cpp:395] relu7 -> conv7 (in-place)
I1012 15:46:51.505244  5394 net.cpp:150] Setting up relu7
I1012 15:46:51.505252  5394 net.cpp:157] Top shape: 64 192 2 2 (49152)
I1012 15:46:51.505254  5394 net.cpp:165] Memory required for data: 141878016
I1012 15:46:51.505256  5394 layer_factory.hpp:77] Creating layer conv8
I1012 15:46:51.505264  5394 net.cpp:100] Creating Layer conv8
I1012 15:46:51.505265  5394 net.cpp:434] conv8 <- conv7
I1012 15:46:51.505270  5394 net.cpp:408] conv8 -> conv8
I1012 15:46:51.506522  5394 net.cpp:150] Setting up conv8
I1012 15:46:51.506531  5394 net.cpp:157] Top shape: 64 192 2 2 (49152)
I1012 15:46:51.506534  5394 net.cpp:165] Memory required for data: 142074624
I1012 15:46:51.506538  5394 layer_factory.hpp:77] Creating layer relu8
I1012 15:46:51.506542  5394 net.cpp:100] Creating Layer relu8
I1012 15:46:51.506546  5394 net.cpp:434] relu8 <- conv8
I1012 15:46:51.506548  5394 net.cpp:395] relu8 -> conv8 (in-place)
I1012 15:46:51.506716  5394 net.cpp:150] Setting up relu8
I1012 15:46:51.506722  5394 net.cpp:157] Top shape: 64 192 2 2 (49152)
I1012 15:46:51.506724  5394 net.cpp:165] Memory required for data: 142271232
I1012 15:46:51.506726  5394 layer_factory.hpp:77] Creating layer conv9
I1012 15:46:51.506732  5394 net.cpp:100] Creating Layer conv9
I1012 15:46:51.506734  5394 net.cpp:434] conv9 <- conv8
I1012 15:46:51.506737  5394 net.cpp:408] conv9 -> conv9
I1012 15:46:51.507549  5394 net.cpp:150] Setting up conv9
I1012 15:46:51.507557  5394 net.cpp:157] Top shape: 64 10 2 2 (2560)
I1012 15:46:51.507560  5394 net.cpp:165] Memory required for data: 142281472
I1012 15:46:51.507563  5394 layer_factory.hpp:77] Creating layer relu9
I1012 15:46:51.507567  5394 net.cpp:100] Creating Layer relu9
I1012 15:46:51.507570  5394 net.cpp:434] relu9 <- conv9
I1012 15:46:51.507573  5394 net.cpp:395] relu9 -> conv9 (in-place)
I1012 15:46:51.507823  5394 net.cpp:150] Setting up relu9
I1012 15:46:51.507832  5394 net.cpp:157] Top shape: 64 10 2 2 (2560)
I1012 15:46:51.507833  5394 net.cpp:165] Memory required for data: 142291712
I1012 15:46:51.507835  5394 layer_factory.hpp:77] Creating layer pool
I1012 15:46:51.507840  5394 net.cpp:100] Creating Layer pool
I1012 15:46:51.507843  5394 net.cpp:434] pool <- conv9
I1012 15:46:51.507845  5394 net.cpp:408] pool -> pool
I1012 15:46:51.508038  5394 net.cpp:150] Setting up pool
I1012 15:46:51.508045  5394 net.cpp:157] Top shape: 64 10 1 1 (640)
I1012 15:46:51.508056  5394 net.cpp:165] Memory required for data: 142294272
I1012 15:46:51.508059  5394 layer_factory.hpp:77] Creating layer flatten
I1012 15:46:51.508062  5394 net.cpp:100] Creating Layer flatten
I1012 15:46:51.508064  5394 net.cpp:434] flatten <- pool
I1012 15:46:51.508067  5394 net.cpp:408] flatten -> flatten
I1012 15:46:51.508102  5394 net.cpp:150] Setting up flatten
I1012 15:46:51.508106  5394 net.cpp:157] Top shape: 64 10 (640)
I1012 15:46:51.508108  5394 net.cpp:165] Memory required for data: 142296832
I1012 15:46:51.508110  5394 layer_factory.hpp:77] Creating layer score
I1012 15:46:51.508128  5394 net.cpp:100] Creating Layer score
I1012 15:46:51.508131  5394 net.cpp:434] score <- flatten
I1012 15:46:51.508134  5394 net.cpp:408] score -> score
I1012 15:46:51.508291  5394 net.cpp:150] Setting up score
I1012 15:46:51.508294  5394 net.cpp:157] Top shape: 64 10 (640)
I1012 15:46:51.508296  5394 net.cpp:165] Memory required for data: 142299392
I1012 15:46:51.508301  5394 layer_factory.hpp:77] Creating layer score_score_0_split
I1012 15:46:51.508304  5394 net.cpp:100] Creating Layer score_score_0_split
I1012 15:46:51.508306  5394 net.cpp:434] score_score_0_split <- score
I1012 15:46:51.508309  5394 net.cpp:408] score_score_0_split -> score_score_0_split_0
I1012 15:46:51.508313  5394 net.cpp:408] score_score_0_split -> score_score_0_split_1
I1012 15:46:51.508354  5394 net.cpp:150] Setting up score_score_0_split
I1012 15:46:51.508358  5394 net.cpp:157] Top shape: 64 10 (640)
I1012 15:46:51.508361  5394 net.cpp:157] Top shape: 64 10 (640)
I1012 15:46:51.508363  5394 net.cpp:165] Memory required for data: 142304512
I1012 15:46:51.508378  5394 layer_factory.hpp:77] Creating layer accuracy
I1012 15:46:51.508383  5394 net.cpp:100] Creating Layer accuracy
I1012 15:46:51.508385  5394 net.cpp:434] accuracy <- score_score_0_split_0
I1012 15:46:51.508401  5394 net.cpp:434] accuracy <- label_data_1_split_0
I1012 15:46:51.508404  5394 net.cpp:408] accuracy -> accuracy
…
I1012 15:46:51.509028  5394 net.cpp:283] Network initialization done.
I1012 15:46:51.509270  5394 solver.cpp:181] Creating test net (#0) specified by test_net file: /home/adam/Honours/Honours-Project/cifar-10_allcnn/relu/allcnn_relu_test.prototxt
I1012 15:46:51.509428  5394 net.cpp:58] Initializing net from parameters: 
state {
  phase: TEST
}
layer {
  name: "data"
  type: "Data"
  top: "data"
  top: "label"
  transform_param {
    mean_file: "mean.binaryproto"
  }
  data_param {
    source: "../../../data/cifar-10/cifar10_test_lmdb"
    batch_size: 100
    backend: LMDB
  }
}
layer {
  name: "conv1"
  type: "Convolution"
  bottom: "data"
  top: "conv1"
  convolution_param {
    num_output: 96
    kernel_size: 3
    weight_filler {
      type: "xavier"
    }
  }
}
layer {
  name: "relu1"
  type: "ReLU"
  bottom: "conv1"
  top: "conv1"
}
layer {
  name: "conv2"
  type: "Convolution"
  bottom: "conv1"
  top: "conv2"
  convolution_param {
    num_output: 96
    kernel_size: 3
    weight_filler {
      type: "xavier"
    }
  }
}
layer {
  name: "bn1"
  type: "BatchNorm"
  bottom: "conv2"
  top: "bn1"
}
layer {
  name: "relu2"
  type: "ReLU"
  bottom: "bn1"
  top: "bn1"
}
layer {
  name: "conv3"
  type: "Convolution"
  bottom: "bn1"
  top: "conv3"
  convolution_param {
    num_output: 96
    kernel_size: 3
    stride: 2
    weight_filler {
      type: "xavier"
    }
  }
}
layer {
  name: "drop1"
  type: "Dropout"
  bottom: "conv3"
  top: "drop1"
  dropout_param {
    dropout_ratio: 0.5
  }
}
layer {
  name: "relu3"
  type: "ReLU"
  bottom: "drop1"
  top: "drop1"
}
layer {
  name: "conv4"
  type: "Convolution"
  bottom: "drop1"
  top: "conv4"
  convolution_param {
    num_output: 192
    kernel_size: 3
    weight_filler {
      type: "xavier"
    }
  }
}
layer {
  name: "relu4"
  type: "ReLU"
  bottom: "conv4"
  top: "conv4"
}
layer {
  name: "conv5"
  type: "Convolution"
  bottom: "conv4"
  top: "conv5"
  convolution_param {
    num_output: 192
    kernel_size: 3
    weight_filler {
      type: "xavier"
    }
  }
}
layer {
  name: "bn2"
  type: "BatchNorm"
  bottom: "conv5"
  top: "bn2"
}
layer {
  name: "relu5"
  type: "ReLU"
  bottom: "bn2"
  top: "bn2"
}
layer {
  name: "conv6"
  type: "Convolution"
  bottom: "bn2"
  top: "conv6"
  convolution_param {
    num_output: 192
    kernel_size: 3
    stride: 2
    weight_filler {
      type: "xavier"
    }
  }
}
layer {
  name: "drop4"
  type: "Dropout"
  bottom: "conv6"
  top: "drop4"
  dropout_param {
    dropout_ratio: 0.5
  }
}
layer {
  name: "relu6"
  type: "ReLU"
  bottom: "drop4"
  top: "drop4"
}
layer {
  name: "conv7"
  type: "Convolution"
  bottom: "drop4"
  top: "conv7"
  convolution_param {
    num_output: 192
    kernel_size: 3
    weight_filler {
      type: "xavier"
    }
  }
}
layer {
  name: "relu7"
  type: "ReLU"
  bottom: "conv7"
  top: "conv7"
}
layer {
  name: "conv8"
  type: "Convolution"
  bottom: "conv7"
  top: "conv8"
  convolution_param {
    num_output: 192
    kernel_size: 1
    weight_filler {
      type: "xavier"
    }
  }
}
layer {
  name: "relu8"
  type: "ReLU"
  bottom: "conv8"
  top: "conv8"
}
layer {
  name: "conv9"
  type: "Convolution"
  bottom: "conv8"
  top: "conv9"
  convolution_param {
    num_output: 10
    kernel_size: 1
    weight_filler {
      type: "xavier"
    }
  }
}
layer {
  name: "relu9"
  type: "ReLU"
  bottom: "conv9"
  top: "conv9"
}
layer {
  name: "pool"
  type: "Pooling"
  bottom: "conv9"
  top: "pool"
  pooling_param {
    pool: AVE
    global_pooling: true
  }
}
layer {
  name: "flatten"
  type: "Flatten"
  bottom: "pool"
  top: "flatten"
}
layer {
  name: "score"
  type: "InnerProduct"
  bottom: "flatten"
  top: "score"
  inner_product_param {
    num_output: 10
    weight_filler {
      type: "gaussian"
    }
  }
}
layer {
  name: "accuracy"
  type: "Accuracy"
  bottom: "score"
  bottom: "label"
  top: "accuracy"
}
layer {
  name: "loss"
  type: "SoftmaxWithLoss"
  bottom: "score"
  bottom: "label"
  top: "loss"
}
I1012 15:46:51.509544  5394 layer_factory.hpp:77] Creating layer data
I1012 15:46:51.509627  5394 net.cpp:100] Creating Layer data
I1012 15:46:51.509639  5394 net.cpp:408] data -> data
I1012 15:46:51.509646  5394 net.cpp:408] data -> label
I1012 15:46:51.509652  5394 data_transformer.cpp:25] Loading mean file from: mean.binaryproto
I1012 15:46:51.560031  5401 db_lmdb.cpp:35] Opened lmdb ../../../data/cifar-10/cifar10_test_lmdb
I1012 15:46:51.565659  5394 data_layer.cpp:41] output data size: 100,3,32,32
I1012 15:46:51.571465  5394 net.cpp:150] Setting up data
I1012 15:46:51.571521  5394 net.cpp:157] Top shape: 100 3 32 32 (307200)
I1012 15:46:51.571539  5394 net.cpp:157] Top shape: 100 (100)
I1012 15:46:51.571547  5394 net.cpp:165] Memory required for data: 1229200
I1012 15:46:51.571560  5394 layer_factory.hpp:77] Creating layer label_data_1_split
I1012 15:46:51.571585  5394 net.cpp:100] Creating Layer label_data_1_split
I1012 15:46:51.571595  5394 net.cpp:434] label_data_1_split <- label
I1012 15:46:51.571610  5394 net.cpp:408] label_data_1_split -> label_data_1_split_0
I1012 15:46:51.571638  5394 net.cpp:408] label_data_1_split -> label_data_1_split_1
I1012 15:46:51.571782  5394 net.cpp:150] Setting up label_data_1_split
I1012 15:46:51.571801  5394 net.cpp:157] Top shape: 100 (100)
I1012 15:46:51.571811  5394 net.cpp:157] Top shape: 100 (100)
I1012 15:46:51.571817  5394 net.cpp:165] Memory required for data: 1230000
I1012 15:46:51.571826  5394 layer_factory.hpp:77] Creating layer conv1
I1012 15:46:51.571856  5394 net.cpp:100] Creating Layer conv1
I1012 15:46:51.571866  5394 net.cpp:434] conv1 <- data
I1012 15:46:51.571883  5394 net.cpp:408] conv1 -> conv1
I1012 15:46:51.576277  5394 net.cpp:150] Setting up conv1
I1012 15:46:51.576339  5394 net.cpp:157] Top shape: 100 96 30 30 (8640000)
I1012 15:46:51.576349  5394 net.cpp:165] Memory required for data: 35790000
I1012 15:46:51.576380  5394 layer_factory.hpp:77] Creating layer relu1
I1012 15:46:51.576403  5394 net.cpp:100] Creating Layer relu1
I1012 15:46:51.576413  5394 net.cpp:434] relu1 <- conv1
I1012 15:46:51.576432  5394 net.cpp:395] relu1 -> conv1 (in-place)
I1012 15:46:51.577046  5394 net.cpp:150] Setting up relu1
I1012 15:46:51.577083  5394 net.cpp:157] Top shape: 100 96 30 30 (8640000)
I1012 15:46:51.577091  5394 net.cpp:165] Memory required for data: 70350000
I1012 15:46:51.577100  5394 layer_factory.hpp:77] Creating layer conv2
I1012 15:46:51.577133  5394 net.cpp:100] Creating Layer conv2
I1012 15:46:51.577143  5394 net.cpp:434] conv2 <- conv1
I1012 15:46:51.577160  5394 net.cpp:408] conv2 -> conv2
I1012 15:46:51.582370  5394 net.cpp:150] Setting up conv2
I1012 15:46:51.582453  5394 net.cpp:157] Top shape: 100 96 28 28 (7526400)
I1012 15:46:51.582474  5394 net.cpp:165] Memory required for data: 100455600
I1012 15:46:51.582504  5394 layer_factory.hpp:77] Creating layer bn1
I1012 15:46:51.582530  5394 net.cpp:100] Creating Layer bn1
I1012 15:46:51.582542  5394 net.cpp:434] bn1 <- conv2
I1012 15:46:51.582602  5394 net.cpp:408] bn1 -> bn1
I1012 15:46:51.583303  5394 net.cpp:150] Setting up bn1
I1012 15:46:51.583326  5394 net.cpp:157] Top shape: 100 96 28 28 (7526400)
I1012 15:46:51.583335  5394 net.cpp:165] Memory required for data: 130561200
I1012 15:46:51.583359  5394 layer_factory.hpp:77] Creating layer relu2
I1012 15:46:51.583379  5394 net.cpp:100] Creating Layer relu2
I1012 15:46:51.583387  5394 net.cpp:434] relu2 <- bn1
I1012 15:46:51.583405  5394 net.cpp:395] relu2 -> bn1 (in-place)
I1012 15:46:51.584264  5394 net.cpp:150] Setting up relu2
I1012 15:46:51.584297  5394 net.cpp:157] Top shape: 100 96 28 28 (7526400)
I1012 15:46:51.584307  5394 net.cpp:165] Memory required for data: 160666800
I1012 15:46:51.584316  5394 layer_factory.hpp:77] Creating layer conv3
I1012 15:46:51.584342  5394 net.cpp:100] Creating Layer conv3
I1012 15:46:51.584352  5394 net.cpp:434] conv3 <- bn1
I1012 15:46:51.584370  5394 net.cpp:408] conv3 -> conv3
I1012 15:46:51.588759  5394 net.cpp:150] Setting up conv3
I1012 15:46:51.588802  5394 net.cpp:157] Top shape: 100 96 13 13 (1622400)
I1012 15:46:51.588812  5394 net.cpp:165] Memory required for data: 167156400
I1012 15:46:51.588838  5394 layer_factory.hpp:77] Creating layer drop1
I1012 15:46:51.588867  5394 net.cpp:100] Creating Layer drop1
I1012 15:46:51.588881  5394 net.cpp:434] drop1 <- conv3
I1012 15:46:51.588896  5394 net.cpp:408] drop1 -> drop1
I1012 15:46:51.589027  5394 net.cpp:150] Setting up drop1
I1012 15:46:51.589047  5394 net.cpp:157] Top shape: 100 96 13 13 (1622400)
I1012 15:46:51.589057  5394 net.cpp:165] Memory required for data: 173646000
I1012 15:46:51.589066  5394 layer_factory.hpp:77] Creating layer relu3
I1012 15:46:51.589078  5394 net.cpp:100] Creating Layer relu3
I1012 15:46:51.589087  5394 net.cpp:434] relu3 <- drop1
I1012 15:46:51.589100  5394 net.cpp:395] relu3 -> drop1 (in-place)
I1012 15:46:51.589901  5394 net.cpp:150] Setting up relu3
I1012 15:46:51.589933  5394 net.cpp:157] Top shape: 100 96 13 13 (1622400)
I1012 15:46:51.589946  5394 net.cpp:165] Memory required for data: 180135600
I1012 15:46:51.589954  5394 layer_factory.hpp:77] Creating layer conv4
I1012 15:46:51.589978  5394 net.cpp:100] Creating Layer conv4
I1012 15:46:51.589990  5394 net.cpp:434] conv4 <- drop1
I1012 15:46:51.590004  5394 net.cpp:408] conv4 -> conv4
I1012 15:46:51.596937  5394 net.cpp:150] Setting up conv4
I1012 15:46:51.596969  5394 net.cpp:157] Top shape: 100 192 11 11 (2323200)
I1012 15:46:51.596976  5394 net.cpp:165] Memory required for data: 189428400
I1012 15:46:51.596989  5394 layer_factory.hpp:77] Creating layer relu4
I1012 15:46:51.597002  5394 net.cpp:100] Creating Layer relu4
I1012 15:46:51.597008  5394 net.cpp:434] relu4 <- conv4
I1012 15:46:51.597020  5394 net.cpp:395] relu4 -> conv4 (in-place)
I1012 15:46:51.597376  5394 net.cpp:150] Setting up relu4
I1012 15:46:51.597395  5394 net.cpp:157] Top shape: 100 192 11 11 (2323200)
I1012 15:46:51.597401  5394 net.cpp:165] Memory required for data: 198721200
I1012 15:46:51.597406  5394 layer_factory.hpp:77] Creating layer conv5
I1012 15:46:51.597421  5394 net.cpp:100] Creating Layer conv5
I1012 15:46:51.597426  5394 net.cpp:434] conv5 <- conv4
I1012 15:46:51.597437  5394 net.cpp:408] conv5 -> conv5
I1012 15:46:51.603708  5394 net.cpp:150] Setting up conv5
I1012 15:46:51.603729  5394 net.cpp:157] Top shape: 100 192 9 9 (1555200)
I1012 15:46:51.603734  5394 net.cpp:165] Memory required for data: 204942000
I1012 15:46:51.603742  5394 layer_factory.hpp:77] Creating layer bn2
I1012 15:46:51.603750  5394 net.cpp:100] Creating Layer bn2
I1012 15:46:51.603756  5394 net.cpp:434] bn2 <- conv5
I1012 15:46:51.603763  5394 net.cpp:408] bn2 -> bn2
I1012 15:46:51.604104  5394 net.cpp:150] Setting up bn2
I1012 15:46:51.604113  5394 net.cpp:157] Top shape: 100 192 9 9 (1555200)
I1012 15:46:51.604117  5394 net.cpp:165] Memory required for data: 211162800
I1012 15:46:51.604126  5394 layer_factory.hpp:77] Creating layer relu5
I1012 15:46:51.604133  5394 net.cpp:100] Creating Layer relu5
I1012 15:46:51.604137  5394 net.cpp:434] relu5 <- bn2
I1012 15:46:51.604164  5394 net.cpp:395] relu5 -> bn2 (in-place)
I1012 15:46:51.604609  5394 net.cpp:150] Setting up relu5
I1012 15:46:51.604625  5394 net.cpp:157] Top shape: 100 192 9 9 (1555200)
I1012 15:46:51.604629  5394 net.cpp:165] Memory required for data: 217383600
I1012 15:46:51.604635  5394 layer_factory.hpp:77] Creating layer conv6
I1012 15:46:51.604645  5394 net.cpp:100] Creating Layer conv6
I1012 15:46:51.604651  5394 net.cpp:434] conv6 <- bn2
I1012 15:46:51.604660  5394 net.cpp:408] conv6 -> conv6
I1012 15:46:51.609030  5394 net.cpp:150] Setting up conv6
I1012 15:46:51.609046  5394 net.cpp:157] Top shape: 100 192 4 4 (307200)
I1012 15:46:51.609050  5394 net.cpp:165] Memory required for data: 218612400
I1012 15:46:51.609063  5394 layer_factory.hpp:77] Creating layer drop4
I1012 15:46:51.609076  5394 net.cpp:100] Creating Layer drop4
I1012 15:46:51.609079  5394 net.cpp:434] drop4 <- conv6
I1012 15:46:51.609086  5394 net.cpp:408] drop4 -> drop4
I1012 15:46:51.609138  5394 net.cpp:150] Setting up drop4
I1012 15:46:51.609145  5394 net.cpp:157] Top shape: 100 192 4 4 (307200)
I1012 15:46:51.609148  5394 net.cpp:165] Memory required for data: 219841200
I1012 15:46:51.609151  5394 layer_factory.hpp:77] Creating layer relu6
I1012 15:46:51.609156  5394 net.cpp:100] Creating Layer relu6
I1012 15:46:51.609159  5394 net.cpp:434] relu6 <- drop4
I1012 15:46:51.609166  5394 net.cpp:395] relu6 -> drop4 (in-place)
I1012 15:46:51.609503  5394 net.cpp:150] Setting up relu6
I1012 15:46:51.609516  5394 net.cpp:157] Top shape: 100 192 4 4 (307200)
I1012 15:46:51.609519  5394 net.cpp:165] Memory required for data: 221070000
I1012 15:46:51.609524  5394 layer_factory.hpp:77] Creating layer conv7
I1012 15:46:51.609532  5394 net.cpp:100] Creating Layer conv7
I1012 15:46:51.609536  5394 net.cpp:434] conv7 <- drop4
I1012 15:46:51.609542  5394 net.cpp:408] conv7 -> conv7
I1012 15:46:51.613312  5394 net.cpp:150] Setting up conv7
I1012 15:46:51.613325  5394 net.cpp:157] Top shape: 100 192 2 2 (76800)
I1012 15:46:51.613328  5394 net.cpp:165] Memory required for data: 221377200
I1012 15:46:51.613334  5394 layer_factory.hpp:77] Creating layer relu7
I1012 15:46:51.613340  5394 net.cpp:100] Creating Layer relu7
I1012 15:46:51.613343  5394 net.cpp:434] relu7 <- conv7
I1012 15:46:51.613348  5394 net.cpp:395] relu7 -> conv7 (in-place)
I1012 15:46:51.613525  5394 net.cpp:150] Setting up relu7
I1012 15:46:51.613533  5394 net.cpp:157] Top shape: 100 192 2 2 (76800)
I1012 15:46:51.613536  5394 net.cpp:165] Memory required for data: 221684400
I1012 15:46:51.613539  5394 layer_factory.hpp:77] Creating layer conv8
I1012 15:46:51.613548  5394 net.cpp:100] Creating Layer conv8
I1012 15:46:51.613550  5394 net.cpp:434] conv8 <- conv7
I1012 15:46:51.613556  5394 net.cpp:408] conv8 -> conv8
I1012 15:46:51.614825  5394 net.cpp:150] Setting up conv8
I1012 15:46:51.614836  5394 net.cpp:157] Top shape: 100 192 2 2 (76800)
I1012 15:46:51.614840  5394 net.cpp:165] Memory required for data: 221991600
I1012 15:46:51.614845  5394 layer_factory.hpp:77] Creating layer relu8
I1012 15:46:51.614850  5394 net.cpp:100] Creating Layer relu8
I1012 15:46:51.614853  5394 net.cpp:434] relu8 <- conv8
I1012 15:46:51.614858  5394 net.cpp:395] relu8 -> conv8 (in-place)
I1012 15:46:51.615144  5394 net.cpp:150] Setting up relu8
I1012 15:46:51.615154  5394 net.cpp:157] Top shape: 100 192 2 2 (76800)
I1012 15:46:51.615157  5394 net.cpp:165] Memory required for data: 222298800
I1012 15:46:51.615160  5394 layer_factory.hpp:77] Creating layer conv9
I1012 15:46:51.615167  5394 net.cpp:100] Creating Layer conv9
I1012 15:46:51.615170  5394 net.cpp:434] conv9 <- conv8
I1012 15:46:51.615175  5394 net.cpp:408] conv9 -> conv9
I1012 15:46:51.616137  5394 net.cpp:150] Setting up conv9
I1012 15:46:51.616149  5394 net.cpp:157] Top shape: 100 10 2 2 (4000)
I1012 15:46:51.616153  5394 net.cpp:165] Memory required for data: 222314800
I1012 15:46:51.616158  5394 layer_factory.hpp:77] Creating layer relu9
I1012 15:46:51.616163  5394 net.cpp:100] Creating Layer relu9
I1012 15:46:51.616165  5394 net.cpp:434] relu9 <- conv9
I1012 15:46:51.616183  5394 net.cpp:395] relu9 -> conv9 (in-place)
I1012 15:46:51.616472  5394 net.cpp:150] Setting up relu9
I1012 15:46:51.616482  5394 net.cpp:157] Top shape: 100 10 2 2 (4000)
I1012 15:46:51.616485  5394 net.cpp:165] Memory required for data: 222330800
I1012 15:46:51.616488  5394 layer_factory.hpp:77] Creating layer pool
I1012 15:46:51.616497  5394 net.cpp:100] Creating Layer pool
I1012 15:46:51.616499  5394 net.cpp:434] pool <- conv9
I1012 15:46:51.616503  5394 net.cpp:408] pool -> pool
I1012 15:46:51.616709  5394 net.cpp:150] Setting up pool
I1012 15:46:51.616717  5394 net.cpp:157] Top shape: 100 10 1 1 (1000)
I1012 15:46:51.616719  5394 net.cpp:165] Memory required for data: 222334800
I1012 15:46:51.616722  5394 layer_factory.hpp:77] Creating layer flatten
I1012 15:46:51.616726  5394 net.cpp:100] Creating Layer flatten
I1012 15:46:51.616729  5394 net.cpp:434] flatten <- pool
I1012 15:46:51.616732  5394 net.cpp:408] flatten -> flatten
I1012 15:46:51.616755  5394 net.cpp:150] Setting up flatten
I1012 15:46:51.616760  5394 net.cpp:157] Top shape: 100 10 (1000)
I1012 15:46:51.616762  5394 net.cpp:165] Memory required for data: 222338800
I1012 15:46:51.616765  5394 layer_factory.hpp:77] Creating layer score
I1012 15:46:51.616770  5394 net.cpp:100] Creating Layer score
I1012 15:46:51.616773  5394 net.cpp:434] score <- flatten
I1012 15:46:51.616776  5394 net.cpp:408] score -> score
I1012 15:46:51.616883  5394 net.cpp:150] Setting up score
I1012 15:46:51.616888  5394 net.cpp:157] Top shape: 100 10 (1000)
I1012 15:46:51.616890  5394 net.cpp:165] Memory required for data: 222342800
I1012 15:46:51.616895  5394 layer_factory.hpp:77] Creating layer score_score_0_split
I1012 15:46:51.616900  5394 net.cpp:100] Creating Layer score_score_0_split
I1012 15:46:51.616902  5394 net.cpp:434] score_score_0_split <- score
I1012 15:46:51.616906  5394 net.cpp:408] score_score_0_split -> score_score_0_split_0
I1012 15:46:51.616911  5394 net.cpp:408] score_score_0_split -> score_score_0_split_1
I1012 15:46:51.616945  5394 net.cpp:150] Setting up score_score_0_split
I1012 15:46:51.616948  5394 net.cpp:157] Top shape: 100 10 (1000)
I1012 15:46:51.616951  5394 net.cpp:157] Top shape: 100 10 (1000)
I1012 15:46:51.616953  5394 net.cpp:165] Memory required for data: 222350800
I1012 15:46:51.616955  5394 layer_factory.hpp:77] Creating layer accuracy
I1012 15:46:51.616961  5394 net.cpp:100] Creating Layer accuracy
I1012 15:46:51.616962  5394 net.cpp:434] accuracy <- score_score_0_split_0
I1012 15:46:51.616966  5394 net.cpp:434] accuracy <- label_data_1_split_0
I1012 15:46:51.616969  5394 net.cpp:408] accuracy -> accuracy
…
