…
  stage: ""
}
type: "RMSProp"
I1013 06:59:53.504609 10884 solver.cpp:81] Creating training net from train_net file: /home/adam/Honours/Honours-Project/cifar-10_allcnn/elu/allcnn_elu_train.prototxt
I1013 06:59:53.504943 10884 net.cpp:58] Initializing net from parameters: 
state {
  phase: TRAIN
  level: 0
  stage: ""
}
layer {
  name: "data"
  type: "Data"
  top: "data"
  top: "label"
  transform_param {
    mean_file: "mean.binaryproto"
  }
  data_param {
    source: "../../../data/cifar-10/cifar10_train_lmdb"
    batch_size: 64
    backend: LMDB
  }
}
layer {
  name: "conv1"
  type: "Convolution"
  bottom: "data"
  top: "conv1"
  convolution_param {
    num_output: 96
    kernel_size: 3
    weight_filler {
      type: "xavier"
    }
  }
}
layer {
  name: "elu1"
  type: "ELU"
  bottom: "conv1"
  top: "conv1"
}
layer {
  name: "conv2"
  type: "Convolution"
  bottom: "conv1"
  top: "conv2"
  convolution_param {
    num_output: 96
    kernel_size: 3
    weight_filler {
      type: "xavier"
    }
  }
}
layer {
  name: "bn1"
  type: "BatchNorm"
  bottom: "conv2"
  top: "bn1"
}
layer {
  name: "elu2"
  type: "ELU"
  bottom: "bn1"
  top: "bn1"
}
layer {
  name: "conv3"
  type: "Convolution"
  bottom: "bn1"
  top: "conv3"
  convolution_param {
    num_output: 96
    kernel_size: 3
    stride: 2
    weight_filler {
      type: "xavier"
    }
  }
}
layer {
  name: "drop1"
  type: "Dropout"
  bottom: "conv3"
  top: "drop1"
  dropout_param {
    dropout_ratio: 0.5
  }
}
layer {
  name: "elu3"
  type: "ELU"
  bottom: "drop1"
  top: "drop1"
}
layer {
  name: "conv4"
  type: "Convolution"
  bottom: "drop1"
  top: "conv4"
  convolution_param {
    num_output: 192
    kernel_size: 3
    weight_filler {
      type: "xavier"
    }
  }
}
layer {
  name: "elu4"
  type: "ELU"
  bottom: "conv4"
  top: "conv4"
}
layer {
  name: "conv5"
  type: "Convolution"
  bottom: "conv4"
  top: "conv5"
  convolution_param {
    num_output: 192
    kernel_size: 3
    weight_filler {
      type: "xavier"
    }
  }
}
layer {
  name: "bn2"
  type: "BatchNorm"
  bottom: "conv5"
  top: "bn2"
}
layer {
  name: "elu5"
  type: "ELU"
  bottom: "bn2"
  top: "bn2"
}
layer {
  name: "conv6"
  type: "Convolution"
  bottom: "bn2"
  top: "conv6"
  convolution_param {
    num_output: 192
    kernel_size: 3
    stride: 2
    weight_filler {
      type: "xavier"
    }
  }
}
layer {
  name: "drop4"
  type: "Dropout"
  bottom: "conv6"
  top: "drop4"
  dropout_param {
    dropout_ratio: 0.5
  }
}
layer {
  name: "elu6"
  type: "ELU"
  bottom: "drop4"
  top: "drop4"
}
layer {
  name: "conv7"
  type: "Convolution"
  bottom: "drop4"
  top: "conv7"
  convolution_param {
    num_output: 192
    kernel_size: 3
    weight_filler {
      type: "xavier"
    }
  }
}
layer {
  name: "elu7"
  type: "ELU"
  bottom: "conv7"
  top: "conv7"
}
layer {
  name: "conv8"
  type: "Convolution"
  bottom: "conv7"
  top: "conv8"
  convolution_param {
    num_output: 192
    kernel_size: 1
    weight_filler {
      type: "xavier"
    }
  }
}
layer {
  name: "elu8"
  type: "ELU"
  bottom: "conv8"
  top: "conv8"
}
layer {
  name: "conv9"
  type: "Convolution"
  bottom: "conv8"
  top: "conv9"
  convolution_param {
    num_output: 10
    kernel_size: 1
    weight_filler {
      type: "xavier"
    }
  }
}
layer {
  name: "elu9"
  type: "ELU"
  bottom: "conv9"
  top: "conv9"
}
layer {
  name: "pool"
  type: "Pooling"
  bottom: "conv9"
  top: "pool"
  pooling_param {
    pool: AVE
    global_pooling: true
  }
}
layer {
  name: "flatten"
  type: "Flatten"
  bottom: "pool"
  top: "flatten"
}
layer {
  name: "score"
  type: "InnerProduct"
  bottom: "flatten"
  top: "score"
  inner_product_param {
    num_output: 10
    weight_filler {
      type: "gaussian"
    }
  }
}
layer {
  name: "accuracy"
  type: "Accuracy"
  bottom: "score"
  bottom: "label"
  top: "accuracy"
}
layer {
  name: "loss"
  type: "SoftmaxWithLoss"
  bottom: "score"
  bottom: "label"
  top: "loss"
}
I1013 06:59:53.505085 10884 layer_factory.hpp:77] Creating layer data
I1013 06:59:53.505522 10884 net.cpp:100] Creating Layer data
I1013 06:59:53.505547 10884 net.cpp:408] data -> data
I1013 06:59:53.505561 10884 net.cpp:408] data -> label
I1013 06:59:53.505600 10884 data_transformer.cpp:25] Loading mean file from: mean.binaryproto
I1013 06:59:53.506242 10889 db_lmdb.cpp:35] Opened lmdb ../../../data/cifar-10/cifar10_train_lmdb
I1013 06:59:53.512652 10884 data_layer.cpp:41] output data size: 64,3,32,32
I1013 06:59:53.514135 10884 net.cpp:150] Setting up data
I1013 06:59:53.514165 10884 net.cpp:157] Top shape: 64 3 32 32 (196608)
I1013 06:59:53.514168 10884 net.cpp:157] Top shape: 64 (64)
I1013 06:59:53.514170 10884 net.cpp:165] Memory required for data: 786688
I1013 06:59:53.514178 10884 layer_factory.hpp:77] Creating layer label_data_1_split
I1013 06:59:53.514189 10884 net.cpp:100] Creating Layer label_data_1_split
I1013 06:59:53.514194 10884 net.cpp:434] label_data_1_split <- label
I1013 06:59:53.514216 10884 net.cpp:408] label_data_1_split -> label_data_1_split_0
I1013 06:59:53.514235 10884 net.cpp:408] label_data_1_split -> label_data_1_split_1
I1013 06:59:53.514293 10884 net.cpp:150] Setting up label_data_1_split
I1013 06:59:53.514312 10884 net.cpp:157] Top shape: 64 (64)
I1013 06:59:53.514314 10884 net.cpp:157] Top shape: 64 (64)
I1013 06:59:53.514317 10884 net.cpp:165] Memory required for data: 787200
I1013 06:59:53.514333 10884 layer_factory.hpp:77] Creating layer conv1
I1013 06:59:53.514345 10884 net.cpp:100] Creating Layer conv1
I1013 06:59:53.514348 10884 net.cpp:434] conv1 <- data
I1013 06:59:53.514353 10884 net.cpp:408] conv1 -> conv1
I1013 06:59:53.650449 10884 net.cpp:150] Setting up conv1
I1013 06:59:53.650471 10884 net.cpp:157] Top shape: 64 96 30 30 (5529600)
I1013 06:59:53.650473 10884 net.cpp:165] Memory required for data: 22905600
I1013 06:59:53.650490 10884 layer_factory.hpp:77] Creating layer elu1
I1013 06:59:53.650496 10884 net.cpp:100] Creating Layer elu1
I1013 06:59:53.650499 10884 net.cpp:434] elu1 <- conv1
I1013 06:59:53.650504 10884 net.cpp:395] elu1 -> conv1 (in-place)
I1013 06:59:53.650511 10884 net.cpp:150] Setting up elu1
I1013 06:59:53.650514 10884 net.cpp:157] Top shape: 64 96 30 30 (5529600)
I1013 06:59:53.650530 10884 net.cpp:165] Memory required for data: 45024000
I1013 06:59:53.650532 10884 layer_factory.hpp:77] Creating layer conv2
I1013 06:59:53.650542 10884 net.cpp:100] Creating Layer conv2
I1013 06:59:53.650550 10884 net.cpp:434] conv2 <- conv1
I1013 06:59:53.650568 10884 net.cpp:408] conv2 -> conv2
I1013 06:59:53.651911 10884 net.cpp:150] Setting up conv2
I1013 06:59:53.651919 10884 net.cpp:157] Top shape: 64 96 28 28 (4816896)
I1013 06:59:53.651921 10884 net.cpp:165] Memory required for data: 64291584
I1013 06:59:53.651927 10884 layer_factory.hpp:77] Creating layer bn1
I1013 06:59:53.651933 10884 net.cpp:100] Creating Layer bn1
I1013 06:59:53.651935 10884 net.cpp:434] bn1 <- conv2
I1013 06:59:53.651938 10884 net.cpp:408] bn1 -> bn1
I1013 06:59:53.652143 10884 net.cpp:150] Setting up bn1
I1013 06:59:53.652148 10884 net.cpp:157] Top shape: 64 96 28 28 (4816896)
I1013 06:59:53.652150 10884 net.cpp:165] Memory required for data: 83559168
I1013 06:59:53.652156 10884 layer_factory.hpp:77] Creating layer elu2
I1013 06:59:53.652159 10884 net.cpp:100] Creating Layer elu2
I1013 06:59:53.652161 10884 net.cpp:434] elu2 <- bn1
I1013 06:59:53.652164 10884 net.cpp:395] elu2 -> bn1 (in-place)
I1013 06:59:53.652168 10884 net.cpp:150] Setting up elu2
I1013 06:59:53.652170 10884 net.cpp:157] Top shape: 64 96 28 28 (4816896)
I1013 06:59:53.652173 10884 net.cpp:165] Memory required for data: 102826752
I1013 06:59:53.652184 10884 layer_factory.hpp:77] Creating layer conv3
I1013 06:59:53.652205 10884 net.cpp:100] Creating Layer conv3
I1013 06:59:53.652207 10884 net.cpp:434] conv3 <- bn1
I1013 06:59:53.652212 10884 net.cpp:408] conv3 -> conv3
I1013 06:59:53.653429 10884 net.cpp:150] Setting up conv3
I1013 06:59:53.653439 10884 net.cpp:157] Top shape: 64 96 13 13 (1038336)
I1013 06:59:53.653441 10884 net.cpp:165] Memory required for data: 106980096
I1013 06:59:53.653447 10884 layer_factory.hpp:77] Creating layer drop1
I1013 06:59:53.653453 10884 net.cpp:100] Creating Layer drop1
I1013 06:59:53.653456 10884 net.cpp:434] drop1 <- conv3
I1013 06:59:53.653460 10884 net.cpp:408] drop1 -> drop1
I1013 06:59:53.653519 10884 net.cpp:150] Setting up drop1
I1013 06:59:53.653538 10884 net.cpp:157] Top shape: 64 96 13 13 (1038336)
I1013 06:59:53.653540 10884 net.cpp:165] Memory required for data: 111133440
I1013 06:59:53.653542 10884 layer_factory.hpp:77] Creating layer elu3
I1013 06:59:53.653545 10884 net.cpp:100] Creating Layer elu3
I1013 06:59:53.653548 10884 net.cpp:434] elu3 <- drop1
I1013 06:59:53.653550 10884 net.cpp:395] elu3 -> drop1 (in-place)
I1013 06:59:53.653553 10884 net.cpp:150] Setting up elu3
I1013 06:59:53.653556 10884 net.cpp:157] Top shape: 64 96 13 13 (1038336)
I1013 06:59:53.653558 10884 net.cpp:165] Memory required for data: 115286784
I1013 06:59:53.653559 10884 layer_factory.hpp:77] Creating layer conv4
I1013 06:59:53.653565 10884 net.cpp:100] Creating Layer conv4
I1013 06:59:53.653568 10884 net.cpp:434] conv4 <- drop1
I1013 06:59:53.653586 10884 net.cpp:408] conv4 -> conv4
I1013 06:59:53.655429 10884 net.cpp:150] Setting up conv4
I1013 06:59:53.655438 10884 net.cpp:157] Top shape: 64 192 11 11 (1486848)
I1013 06:59:53.655441 10884 net.cpp:165] Memory required for data: 121234176
I1013 06:59:53.655445 10884 layer_factory.hpp:77] Creating layer elu4
I1013 06:59:53.655449 10884 net.cpp:100] Creating Layer elu4
I1013 06:59:53.655452 10884 net.cpp:434] elu4 <- conv4
I1013 06:59:53.655454 10884 net.cpp:395] elu4 -> conv4 (in-place)
I1013 06:59:53.655459 10884 net.cpp:150] Setting up elu4
I1013 06:59:53.655462 10884 net.cpp:157] Top shape: 64 192 11 11 (1486848)
I1013 06:59:53.655463 10884 net.cpp:165] Memory required for data: 127181568
I1013 06:59:53.655465 10884 layer_factory.hpp:77] Creating layer conv5
I1013 06:59:53.655470 10884 net.cpp:100] Creating Layer conv5
I1013 06:59:53.655472 10884 net.cpp:434] conv5 <- conv4
I1013 06:59:53.655475 10884 net.cpp:408] conv5 -> conv5
I1013 06:59:53.658004 10884 net.cpp:150] Setting up conv5
I1013 06:59:53.658013 10884 net.cpp:157] Top shape: 64 192 9 9 (995328)
I1013 06:59:53.658015 10884 net.cpp:165] Memory required for data: 131162880
I1013 06:59:53.658020 10884 layer_factory.hpp:77] Creating layer bn2
I1013 06:59:53.658025 10884 net.cpp:100] Creating Layer bn2
I1013 06:59:53.658027 10884 net.cpp:434] bn2 <- conv5
I1013 06:59:53.658030 10884 net.cpp:408] bn2 -> bn2
I1013 06:59:53.658236 10884 net.cpp:150] Setting up bn2
I1013 06:59:53.658241 10884 net.cpp:157] Top shape: 64 192 9 9 (995328)
I1013 06:59:53.658243 10884 net.cpp:165] Memory required for data: 135144192
I1013 06:59:53.658247 10884 layer_factory.hpp:77] Creating layer elu5
I1013 06:59:53.658251 10884 net.cpp:100] Creating Layer elu5
I1013 06:59:53.658252 10884 net.cpp:434] elu5 <- bn2
I1013 06:59:53.658257 10884 net.cpp:395] elu5 -> bn2 (in-place)
I1013 06:59:53.658260 10884 net.cpp:150] Setting up elu5
I1013 06:59:53.658263 10884 net.cpp:157] Top shape: 64 192 9 9 (995328)
I1013 06:59:53.658264 10884 net.cpp:165] Memory required for data: 139125504
I1013 06:59:53.658267 10884 layer_factory.hpp:77] Creating layer conv6
I1013 06:59:53.658272 10884 net.cpp:100] Creating Layer conv6
I1013 06:59:53.658274 10884 net.cpp:434] conv6 <- bn2
I1013 06:59:53.658277 10884 net.cpp:408] conv6 -> conv6
I1013 06:59:53.660831 10884 net.cpp:150] Setting up conv6
I1013 06:59:53.660841 10884 net.cpp:157] Top shape: 64 192 4 4 (196608)
I1013 06:59:53.660843 10884 net.cpp:165] Memory required for data: 139911936
I1013 06:59:53.660862 10884 layer_factory.hpp:77] Creating layer drop4
I1013 06:59:53.660871 10884 net.cpp:100] Creating Layer drop4
I1013 06:59:53.660872 10884 net.cpp:434] drop4 <- conv6
I1013 06:59:53.660876 10884 net.cpp:408] drop4 -> drop4
I1013 06:59:53.660935 10884 net.cpp:150] Setting up drop4
I1013 06:59:53.660941 10884 net.cpp:157] Top shape: 64 192 4 4 (196608)
I1013 06:59:53.660943 10884 net.cpp:165] Memory required for data: 140698368
I1013 06:59:53.660945 10884 layer_factory.hpp:77] Creating layer elu6
I1013 06:59:53.660948 10884 net.cpp:100] Creating Layer elu6
I1013 06:59:53.660950 10884 net.cpp:434] elu6 <- drop4
I1013 06:59:53.660954 10884 net.cpp:395] elu6 -> drop4 (in-place)
I1013 06:59:53.660958 10884 net.cpp:150] Setting up elu6
I1013 06:59:53.660960 10884 net.cpp:157] Top shape: 64 192 4 4 (196608)
I1013 06:59:53.660962 10884 net.cpp:165] Memory required for data: 141484800
I1013 06:59:53.660964 10884 layer_factory.hpp:77] Creating layer conv7
I1013 06:59:53.660969 10884 net.cpp:100] Creating Layer conv7
I1013 06:59:53.660989 10884 net.cpp:434] conv7 <- drop4
I1013 06:59:53.660992 10884 net.cpp:408] conv7 -> conv7
I1013 06:59:53.663944 10884 net.cpp:150] Setting up conv7
I1013 06:59:53.663975 10884 net.cpp:157] Top shape: 64 192 2 2 (49152)
I1013 06:59:53.663977 10884 net.cpp:165] Memory required for data: 141681408
I1013 06:59:53.663998 10884 layer_factory.hpp:77] Creating layer elu7
I1013 06:59:53.664017 10884 net.cpp:100] Creating Layer elu7
I1013 06:59:53.664021 10884 net.cpp:434] elu7 <- conv7
I1013 06:59:53.664038 10884 net.cpp:395] elu7 -> conv7 (in-place)
I1013 06:59:53.664046 10884 net.cpp:150] Setting up elu7
I1013 06:59:53.664048 10884 net.cpp:157] Top shape: 64 192 2 2 (49152)
I1013 06:59:53.664050 10884 net.cpp:165] Memory required for data: 141878016
I1013 06:59:53.664052 10884 layer_factory.hpp:77] Creating layer conv8
I1013 06:59:53.664072 10884 net.cpp:100] Creating Layer conv8
I1013 06:59:53.664074 10884 net.cpp:434] conv8 <- conv7
I1013 06:59:53.664079 10884 net.cpp:408] conv8 -> conv8
I1013 06:59:53.665343 10884 net.cpp:150] Setting up conv8
I1013 06:59:53.665352 10884 net.cpp:157] Top shape: 64 192 2 2 (49152)
I1013 06:59:53.665355 10884 net.cpp:165] Memory required for data: 142074624
I1013 06:59:53.665359 10884 layer_factory.hpp:77] Creating layer elu8
I1013 06:59:53.665364 10884 net.cpp:100] Creating Layer elu8
I1013 06:59:53.665365 10884 net.cpp:434] elu8 <- conv8
I1013 06:59:53.665369 10884 net.cpp:395] elu8 -> conv8 (in-place)
I1013 06:59:53.665372 10884 net.cpp:150] Setting up elu8
I1013 06:59:53.665375 10884 net.cpp:157] Top shape: 64 192 2 2 (49152)
I1013 06:59:53.665377 10884 net.cpp:165] Memory required for data: 142271232
I1013 06:59:53.665380 10884 layer_factory.hpp:77] Creating layer conv9
I1013 06:59:53.665385 10884 net.cpp:100] Creating Layer conv9
I1013 06:59:53.665386 10884 net.cpp:434] conv9 <- conv8
I1013 06:59:53.665390 10884 net.cpp:408] conv9 -> conv9
I1013 06:59:53.666223 10884 net.cpp:150] Setting up conv9
I1013 06:59:53.666230 10884 net.cpp:157] Top shape: 64 10 2 2 (2560)
I1013 06:59:53.666232 10884 net.cpp:165] Memory required for data: 142281472
I1013 06:59:53.666237 10884 layer_factory.hpp:77] Creating layer elu9
I1013 06:59:53.666241 10884 net.cpp:100] Creating Layer elu9
I1013 06:59:53.666244 10884 net.cpp:434] elu9 <- conv9
I1013 06:59:53.666246 10884 net.cpp:395] elu9 -> conv9 (in-place)
I1013 06:59:53.666250 10884 net.cpp:150] Setting up elu9
I1013 06:59:53.666254 10884 net.cpp:157] Top shape: 64 10 2 2 (2560)
I1013 06:59:53.666254 10884 net.cpp:165] Memory required for data: 142291712
I1013 06:59:53.666257 10884 layer_factory.hpp:77] Creating layer pool
I1013 06:59:53.666261 10884 net.cpp:100] Creating Layer pool
I1013 06:59:53.666263 10884 net.cpp:434] pool <- conv9
I1013 06:59:53.666266 10884 net.cpp:408] pool -> pool
I1013 06:59:53.666637 10884 net.cpp:150] Setting up pool
I1013 06:59:53.666646 10884 net.cpp:157] Top shape: 64 10 1 1 (640)
I1013 06:59:53.666647 10884 net.cpp:165] Memory required for data: 142294272
I1013 06:59:53.666649 10884 layer_factory.hpp:77] Creating layer flatten
I1013 06:59:53.666663 10884 net.cpp:100] Creating Layer flatten
I1013 06:59:53.666666 10884 net.cpp:434] flatten <- pool
I1013 06:59:53.666671 10884 net.cpp:408] flatten -> flatten
I1013 06:59:53.666705 10884 net.cpp:150] Setting up flatten
I1013 06:59:53.666725 10884 net.cpp:157] Top shape: 64 10 (640)
I1013 06:59:53.666728 10884 net.cpp:165] Memory required for data: 142296832
I1013 06:59:53.666729 10884 layer_factory.hpp:77] Creating layer score
I1013 06:59:53.666749 10884 net.cpp:100] Creating Layer score
I1013 06:59:53.666751 10884 net.cpp:434] score <- flatten
I1013 06:59:53.666755 10884 net.cpp:408] score -> score
I1013 06:59:53.666914 10884 net.cpp:150] Setting up score
I1013 06:59:53.666919 10884 net.cpp:157] Top shape: 64 10 (640)
I1013 06:59:53.666921 10884 net.cpp:165] Memory required for data: 142299392
I1013 06:59:53.666924 10884 layer_factory.hpp:77] Creating layer score_score_0_split
I1013 06:59:53.666929 10884 net.cpp:100] Creating Layer score_score_0_split
I1013 06:59:53.666930 10884 net.cpp:434] score_score_0_split <- score
I1013 06:59:53.666934 10884 net.cpp:408] score_score_0_split -> score_score_0_split_0
I1013 06:59:53.666939 10884 net.cpp:408] score_score_0_split -> score_score_0_split_1
I1013 06:59:53.666978 10884 net.cpp:150] Setting up score_score_0_split
I1013 06:59:53.666982 10884 net.cpp:157] Top shape: 64 10 (640)
I1013 06:59:53.666997 10884 net.cpp:157] Top shape: 64 10 (640)
I1013 06:59:53.666999 10884 net.cpp:165] Memory required for data: 142304512
I1013 06:59:53.667001 10884 layer_factory.hpp:77] Creating layer accuracy
I1013 06:59:53.667022 10884 net.cpp:100] Creating Layer accuracy
I1013 06:59:53.667024 10884 net.cpp:434] accuracy <- score_score_0_split_0
I1013 06:59:53.667027 10884 net.cpp:434] accuracy <- label_data_1_split_0
I1013 06:59:53.667031 10884 net.cpp:408] accuracy -> accuracy
…
I1013 06:59:53.667553 10884 net.cpp:283] Network initialization done.
I1013 06:59:53.667783 10884 solver.cpp:181] Creating test net (#0) specified by test_net file: /home/adam/Honours/Honours-Project/cifar-10_allcnn/elu/allcnn_elu_test.prototxt
I1013 06:59:53.667942 10884 net.cpp:58] Initializing net from parameters: 
state {
  phase: TEST
}
layer {
  name: "data"
  type: "Data"
  top: "data"
  top: "label"
  transform_param {
    mean_file: "mean.binaryproto"
  }
  data_param {
    source: "../../../data/cifar-10/cifar10_test_lmdb"
    batch_size: 100
    backend: LMDB
  }
}
layer {
  name: "conv1"
  type: "Convolution"
  bottom: "data"
  top: "conv1"
  convolution_param {
    num_output: 96
    kernel_size: 3
    weight_filler {
      type: "xavier"
    }
  }
}
layer {
  name: "elu1"
  type: "ELU"
  bottom: "conv1"
  top: "conv1"
}
layer {
  name: "conv2"
  type: "Convolution"
  bottom: "conv1"
  top: "conv2"
  convolution_param {
    num_output: 96
    kernel_size: 3
    weight_filler {
      type: "xavier"
    }
  }
}
layer {
  name: "bn1"
  type: "BatchNorm"
  bottom: "conv2"
  top: "bn1"
}
layer {
  name: "elu2"
  type: "ELU"
  bottom: "bn1"
  top: "bn1"
}
layer {
  name: "conv3"
  type: "Convolution"
  bottom: "bn1"
  top: "conv3"
  convolution_param {
    num_output: 96
    kernel_size: 3
    stride: 2
    weight_filler {
      type: "xavier"
    }
  }
}
layer {
  name: "drop1"
  type: "Dropout"
  bottom: "conv3"
  top: "drop1"
  dropout_param {
    dropout_ratio: 0.5
  }
}
layer {
  name: "elu3"
  type: "ELU"
  bottom: "drop1"
  top: "drop1"
}
layer {
  name: "conv4"
  type: "Convolution"
  bottom: "drop1"
  top: "conv4"
  convolution_param {
    num_output: 192
    kernel_size: 3
    weight_filler {
      type: "xavier"
    }
  }
}
layer {
  name: "elu4"
  type: "ELU"
  bottom: "conv4"
  top: "conv4"
}
layer {
  name: "conv5"
  type: "Convolution"
  bottom: "conv4"
  top: "conv5"
  convolution_param {
    num_output: 192
    kernel_size: 3
    weight_filler {
      type: "xavier"
    }
  }
}
layer {
  name: "bn2"
  type: "BatchNorm"
  bottom: "conv5"
  top: "bn2"
}
layer {
  name: "elu5"
  type: "ELU"
  bottom: "bn2"
  top: "bn2"
}
layer {
  name: "conv6"
  type: "Convolution"
  bottom: "bn2"
  top: "conv6"
  convolution_param {
    num_output: 192
    kernel_size: 3
    stride: 2
    weight_filler {
      type: "xavier"
    }
  }
}
layer {
  name: "drop4"
  type: "Dropout"
  bottom: "conv6"
  top: "drop4"
  dropout_param {
    dropout_ratio: 0.5
  }
}
layer {
  name: "elu6"
  type: "ELU"
  bottom: "drop4"
  top: "drop4"
}
layer {
  name: "conv7"
  type: "Convolution"
  bottom: "drop4"
  top: "conv7"
  convolution_param {
    num_output: 192
    kernel_size: 3
    weight_filler {
      type: "xavier"
    }
  }
}
layer {
  name: "elu7"
  type: "ELU"
  bottom: "conv7"
  top: "conv7"
}
layer {
  name: "conv8"
  type: "Convolution"
  bottom: "conv7"
  top: "conv8"
  convolution_param {
    num_output: 192
    kernel_size: 1
    weight_filler {
      type: "xavier"
    }
  }
}
layer {
  name: "elu8"
  type: "ELU"
  bottom: "conv8"
  top: "conv8"
}
layer {
  name: "conv9"
  type: "Convolution"
  bottom: "conv8"
  top: "conv9"
  convolution_param {
    num_output: 10
    kernel_size: 1
    weight_filler {
      type: "xavier"
    }
  }
}
layer {
  name: "elu9"
  type: "ELU"
  bottom: "conv9"
  top: "conv9"
}
layer {
  name: "pool"
  type: "Pooling"
  bottom: "conv9"
  top: "pool"
  pooling_param {
    pool: AVE
    global_pooling: true
  }
}
layer {
  name: "flatten"
  type: "Flatten"
  bottom: "pool"
  top: "flatten"
}
layer {
  name: "score"
  type: "InnerProduct"
  bottom: "flatten"
  top: "score"
  inner_product_param {
    num_output: 10
    weight_filler {
      type: "gaussian"
    }
  }
}
layer {
  name: "accuracy"
  type: "Accuracy"
  bottom: "score"
  bottom: "label"
  top: "accuracy"
}
layer {
  name: "loss"
  type: "SoftmaxWithLoss"
  bottom: "score"
  bottom: "label"
  top: "loss"
}
I1013 06:59:53.668040 10884 layer_factory.hpp:77] Creating layer data
I1013 06:59:53.668253 10884 net.cpp:100] Creating Layer data
I1013 06:59:53.668259 10884 net.cpp:408] data -> data
I1013 06:59:53.668265 10884 net.cpp:408] data -> label
I1013 06:59:53.668272 10884 data_transformer.cpp:25] Loading mean file from: mean.binaryproto
I1013 06:59:53.669008 10891 db_lmdb.cpp:35] Opened lmdb ../../../data/cifar-10/cifar10_test_lmdb
I1013 06:59:53.669152 10884 data_layer.cpp:41] output data size: 100,3,32,32
I1013 06:59:53.671103 10884 net.cpp:150] Setting up data
I1013 06:59:53.671123 10884 net.cpp:157] Top shape: 100 3 32 32 (307200)
I1013 06:59:53.671139 10884 net.cpp:157] Top shape: 100 (100)
I1013 06:59:53.671140 10884 net.cpp:165] Memory required for data: 1229200
I1013 06:59:53.671144 10884 layer_factory.hpp:77] Creating layer label_data_1_split
I1013 06:59:53.671167 10884 net.cpp:100] Creating Layer label_data_1_split
I1013 06:59:53.671170 10884 net.cpp:434] label_data_1_split <- label
I1013 06:59:53.671176 10884 net.cpp:408] label_data_1_split -> label_data_1_split_0
I1013 06:59:53.671182 10884 net.cpp:408] label_data_1_split -> label_data_1_split_1
I1013 06:59:53.671326 10884 net.cpp:150] Setting up label_data_1_split
I1013 06:59:53.671331 10884 net.cpp:157] Top shape: 100 (100)
I1013 06:59:53.671334 10884 net.cpp:157] Top shape: 100 (100)
I1013 06:59:53.671357 10884 net.cpp:165] Memory required for data: 1230000
I1013 06:59:53.671360 10884 layer_factory.hpp:77] Creating layer conv1
I1013 06:59:53.671368 10884 net.cpp:100] Creating Layer conv1
I1013 06:59:53.671370 10884 net.cpp:434] conv1 <- data
I1013 06:59:53.671375 10884 net.cpp:408] conv1 -> conv1
I1013 06:59:53.672446 10884 net.cpp:150] Setting up conv1
I1013 06:59:53.672456 10884 net.cpp:157] Top shape: 100 96 30 30 (8640000)
I1013 06:59:53.672459 10884 net.cpp:165] Memory required for data: 35790000
I1013 06:59:53.672466 10884 layer_factory.hpp:77] Creating layer elu1
I1013 06:59:53.672485 10884 net.cpp:100] Creating Layer elu1
I1013 06:59:53.672487 10884 net.cpp:434] elu1 <- conv1
I1013 06:59:53.672492 10884 net.cpp:395] elu1 -> conv1 (in-place)
I1013 06:59:53.672510 10884 net.cpp:150] Setting up elu1
I1013 06:59:53.672514 10884 net.cpp:157] Top shape: 100 96 30 30 (8640000)
I1013 06:59:53.672533 10884 net.cpp:165] Memory required for data: 70350000
I1013 06:59:53.672534 10884 layer_factory.hpp:77] Creating layer conv2
I1013 06:59:53.672554 10884 net.cpp:100] Creating Layer conv2
I1013 06:59:53.672556 10884 net.cpp:434] conv2 <- conv1
I1013 06:59:53.672560 10884 net.cpp:408] conv2 -> conv2
I1013 06:59:53.673959 10884 net.cpp:150] Setting up conv2
I1013 06:59:53.673970 10884 net.cpp:157] Top shape: 100 96 28 28 (7526400)
I1013 06:59:53.673974 10884 net.cpp:165] Memory required for data: 100455600
I1013 06:59:53.673979 10884 layer_factory.hpp:77] Creating layer bn1
I1013 06:59:53.673985 10884 net.cpp:100] Creating Layer bn1
I1013 06:59:53.673990 10884 net.cpp:434] bn1 <- conv2
I1013 06:59:53.673998 10884 net.cpp:408] bn1 -> bn1
I1013 06:59:53.674171 10884 net.cpp:150] Setting up bn1
I1013 06:59:53.674176 10884 net.cpp:157] Top shape: 100 96 28 28 (7526400)
I1013 06:59:53.674188 10884 net.cpp:165] Memory required for data: 130561200
I1013 06:59:53.674196 10884 layer_factory.hpp:77] Creating layer elu2
I1013 06:59:53.674201 10884 net.cpp:100] Creating Layer elu2
I1013 06:59:53.674202 10884 net.cpp:434] elu2 <- bn1
I1013 06:59:53.674206 10884 net.cpp:395] elu2 -> bn1 (in-place)
I1013 06:59:53.674211 10884 net.cpp:150] Setting up elu2
I1013 06:59:53.674216 10884 net.cpp:157] Top shape: 100 96 28 28 (7526400)
I1013 06:59:53.674217 10884 net.cpp:165] Memory required for data: 160666800
I1013 06:59:53.674219 10884 layer_factory.hpp:77] Creating layer conv3
I1013 06:59:53.674224 10884 net.cpp:100] Creating Layer conv3
I1013 06:59:53.674227 10884 net.cpp:434] conv3 <- bn1
I1013 06:59:53.674234 10884 net.cpp:408] conv3 -> conv3
I1013 06:59:53.675456 10884 net.cpp:150] Setting up conv3
I1013 06:59:53.675467 10884 net.cpp:157] Top shape: 100 96 13 13 (1622400)
I1013 06:59:53.675470 10884 net.cpp:165] Memory required for data: 167156400
I1013 06:59:53.675477 10884 layer_factory.hpp:77] Creating layer drop1
I1013 06:59:53.675485 10884 net.cpp:100] Creating Layer drop1
I1013 06:59:53.675488 10884 net.cpp:434] drop1 <- conv3
I1013 06:59:53.675493 10884 net.cpp:408] drop1 -> drop1
I1013 06:59:53.675529 10884 net.cpp:150] Setting up drop1
I1013 06:59:53.675534 10884 net.cpp:157] Top shape: 100 96 13 13 (1622400)
I1013 06:59:53.675535 10884 net.cpp:165] Memory required for data: 173646000
I1013 06:59:53.675544 10884 layer_factory.hpp:77] Creating layer elu3
I1013 06:59:53.675547 10884 net.cpp:100] Creating Layer elu3
I1013 06:59:53.675549 10884 net.cpp:434] elu3 <- drop1
I1013 06:59:53.675554 10884 net.cpp:395] elu3 -> drop1 (in-place)
I1013 06:59:53.675559 10884 net.cpp:150] Setting up elu3
I1013 06:59:53.675562 10884 net.cpp:157] Top shape: 100 96 13 13 (1622400)
I1013 06:59:53.675565 10884 net.cpp:165] Memory required for data: 180135600
I1013 06:59:53.675565 10884 layer_factory.hpp:77] Creating layer conv4
I1013 06:59:53.675571 10884 net.cpp:100] Creating Layer conv4
I1013 06:59:53.675575 10884 net.cpp:434] conv4 <- drop1
I1013 06:59:53.675577 10884 net.cpp:408] conv4 -> conv4
I1013 06:59:53.677357 10884 net.cpp:150] Setting up conv4
I1013 06:59:53.677367 10884 net.cpp:157] Top shape: 100 192 11 11 (2323200)
I1013 06:59:53.677371 10884 net.cpp:165] Memory required for data: 189428400
I1013 06:59:53.677374 10884 layer_factory.hpp:77] Creating layer elu4
I1013 06:59:53.677381 10884 net.cpp:100] Creating Layer elu4
I1013 06:59:53.677383 10884 net.cpp:434] elu4 <- conv4
I1013 06:59:53.677386 10884 net.cpp:395] elu4 -> conv4 (in-place)
I1013 06:59:53.677392 10884 net.cpp:150] Setting up elu4
I1013 06:59:53.677394 10884 net.cpp:157] Top shape: 100 192 11 11 (2323200)
I1013 06:59:53.677397 10884 net.cpp:165] Memory required for data: 198721200
I1013 06:59:53.677398 10884 layer_factory.hpp:77] Creating layer conv5
I1013 06:59:53.677407 10884 net.cpp:100] Creating Layer conv5
I1013 06:59:53.677409 10884 net.cpp:434] conv5 <- conv4
I1013 06:59:53.677412 10884 net.cpp:408] conv5 -> conv5
I1013 06:59:53.680853 10884 net.cpp:150] Setting up conv5
I1013 06:59:53.680869 10884 net.cpp:157] Top shape: 100 192 9 9 (1555200)
I1013 06:59:53.680872 10884 net.cpp:165] Memory required for data: 204942000
I1013 06:59:53.680878 10884 layer_factory.hpp:77] Creating layer bn2
I1013 06:59:53.680884 10884 net.cpp:100] Creating Layer bn2
I1013 06:59:53.680902 10884 net.cpp:434] bn2 <- conv5
I1013 06:59:53.680907 10884 net.cpp:408] bn2 -> bn2
I1013 06:59:53.681129 10884 net.cpp:150] Setting up bn2
I1013 06:59:53.681134 10884 net.cpp:157] Top shape: 100 192 9 9 (1555200)
I1013 06:59:53.681136 10884 net.cpp:165] Memory required for data: 211162800
I1013 06:59:53.681141 10884 layer_factory.hpp:77] Creating layer elu5
I1013 06:59:53.681145 10884 net.cpp:100] Creating Layer elu5
I1013 06:59:53.681161 10884 net.cpp:434] elu5 <- bn2
I1013 06:59:53.681164 10884 net.cpp:395] elu5 -> bn2 (in-place)
I1013 06:59:53.681169 10884 net.cpp:150] Setting up elu5
I1013 06:59:53.681171 10884 net.cpp:157] Top shape: 100 192 9 9 (1555200)
I1013 06:59:53.681198 10884 net.cpp:165] Memory required for data: 217383600
I1013 06:59:53.681200 10884 layer_factory.hpp:77] Creating layer conv6
I1013 06:59:53.681207 10884 net.cpp:100] Creating Layer conv6
I1013 06:59:53.681210 10884 net.cpp:434] conv6 <- bn2
I1013 06:59:53.681215 10884 net.cpp:408] conv6 -> conv6
I1013 06:59:53.684027 10884 net.cpp:150] Setting up conv6
I1013 06:59:53.684056 10884 net.cpp:157] Top shape: 100 192 4 4 (307200)
I1013 06:59:53.684058 10884 net.cpp:165] Memory required for data: 218612400
I1013 06:59:53.684069 10884 layer_factory.hpp:77] Creating layer drop4
I1013 06:59:53.684078 10884 net.cpp:100] Creating Layer drop4
I1013 06:59:53.684098 10884 net.cpp:434] drop4 <- conv6
I1013 06:59:53.684103 10884 net.cpp:408] drop4 -> drop4
I1013 06:59:53.684165 10884 net.cpp:150] Setting up drop4
I1013 06:59:53.684170 10884 net.cpp:157] Top shape: 100 192 4 4 (307200)
I1013 06:59:53.684172 10884 net.cpp:165] Memory required for data: 219841200
I1013 06:59:53.684173 10884 layer_factory.hpp:77] Creating layer elu6
I1013 06:59:53.684177 10884 net.cpp:100] Creating Layer elu6
I1013 06:59:53.684180 10884 net.cpp:434] elu6 <- drop4
I1013 06:59:53.684182 10884 net.cpp:395] elu6 -> drop4 (in-place)
I1013 06:59:53.684186 10884 net.cpp:150] Setting up elu6
I1013 06:59:53.684188 10884 net.cpp:157] Top shape: 100 192 4 4 (307200)
I1013 06:59:53.684190 10884 net.cpp:165] Memory required for data: 221070000
I1013 06:59:53.684213 10884 layer_factory.hpp:77] Creating layer conv7
I1013 06:59:53.684219 10884 net.cpp:100] Creating Layer conv7
I1013 06:59:53.684237 10884 net.cpp:434] conv7 <- drop4
I1013 06:59:53.684242 10884 net.cpp:408] conv7 -> conv7
I1013 06:59:53.686861 10884 net.cpp:150] Setting up conv7
I1013 06:59:53.686872 10884 net.cpp:157] Top shape: 100 192 2 2 (76800)
I1013 06:59:53.686874 10884 net.cpp:165] Memory required for data: 221377200
I1013 06:59:53.686878 10884 layer_factory.hpp:77] Creating layer elu7
I1013 06:59:53.686882 10884 net.cpp:100] Creating Layer elu7
I1013 06:59:53.686884 10884 net.cpp:434] elu7 <- conv7
I1013 06:59:53.686888 10884 net.cpp:395] elu7 -> conv7 (in-place)
I1013 06:59:53.686892 10884 net.cpp:150] Setting up elu7
I1013 06:59:53.686895 10884 net.cpp:157] Top shape: 100 192 2 2 (76800)
I1013 06:59:53.686897 10884 net.cpp:165] Memory required for data: 221684400
I1013 06:59:53.686898 10884 layer_factory.hpp:77] Creating layer conv8
I1013 06:59:53.686918 10884 net.cpp:100] Creating Layer conv8
I1013 06:59:53.686920 10884 net.cpp:434] conv8 <- conv7
I1013 06:59:53.686923 10884 net.cpp:408] conv8 -> conv8
I1013 06:59:53.687912 10884 net.cpp:150] Setting up conv8
I1013 06:59:53.687922 10884 net.cpp:157] Top shape: 100 192 2 2 (76800)
I1013 06:59:53.687924 10884 net.cpp:165] Memory required for data: 221991600
I1013 06:59:53.687928 10884 layer_factory.hpp:77] Creating layer elu8
I1013 06:59:53.687932 10884 net.cpp:100] Creating Layer elu8
I1013 06:59:53.687934 10884 net.cpp:434] elu8 <- conv8
I1013 06:59:53.687937 10884 net.cpp:395] elu8 -> conv8 (in-place)
I1013 06:59:53.687940 10884 net.cpp:150] Setting up elu8
I1013 06:59:53.687943 10884 net.cpp:157] Top shape: 100 192 2 2 (76800)
I1013 06:59:53.687947 10884 net.cpp:165] Memory required for data: 222298800
I1013 06:59:53.687948 10884 layer_factory.hpp:77] Creating layer conv9
I1013 06:59:53.687952 10884 net.cpp:100] Creating Layer conv9
I1013 06:59:53.687968 10884 net.cpp:434] conv9 <- conv8
I1013 06:59:53.687973 10884 net.cpp:408] conv9 -> conv9
I1013 06:59:53.688824 10884 net.cpp:150] Setting up conv9
I1013 06:59:53.688833 10884 net.cpp:157] Top shape: 100 10 2 2 (4000)
I1013 06:59:53.688835 10884 net.cpp:165] Memory required for data: 222314800
I1013 06:59:53.688839 10884 layer_factory.hpp:77] Creating layer elu9
I1013 06:59:53.688843 10884 net.cpp:100] Creating Layer elu9
I1013 06:59:53.688845 10884 net.cpp:434] elu9 <- conv9
I1013 06:59:53.688848 10884 net.cpp:395] elu9 -> conv9 (in-place)
I1013 06:59:53.688853 10884 net.cpp:150] Setting up elu9
I1013 06:59:53.688855 10884 net.cpp:157] Top shape: 100 10 2 2 (4000)
I1013 06:59:53.688880 10884 net.cpp:165] Memory required for data: 222330800
I1013 06:59:53.688884 10884 layer_factory.hpp:77] Creating layer pool
I1013 06:59:53.688887 10884 net.cpp:100] Creating Layer pool
I1013 06:59:53.688889 10884 net.cpp:434] pool <- conv9
I1013 06:59:53.688892 10884 net.cpp:408] pool -> pool
I1013 06:59:53.689187 10884 net.cpp:150] Setting up pool
I1013 06:59:53.689194 10884 net.cpp:157] Top shape: 100 10 1 1 (1000)
I1013 06:59:53.689196 10884 net.cpp:165] Memory required for data: 222334800
I1013 06:59:53.689198 10884 layer_factory.hpp:77] Creating layer flatten
I1013 06:59:53.689201 10884 net.cpp:100] Creating Layer flatten
I1013 06:59:53.689204 10884 net.cpp:434] flatten <- pool
I1013 06:59:53.689208 10884 net.cpp:408] flatten -> flatten
I1013 06:59:53.689244 10884 net.cpp:150] Setting up flatten
I1013 06:59:53.689247 10884 net.cpp:157] Top shape: 100 10 (1000)
I1013 06:59:53.689249 10884 net.cpp:165] Memory required for data: 222338800
I1013 06:59:53.689251 10884 layer_factory.hpp:77] Creating layer score
I1013 06:59:53.689255 10884 net.cpp:100] Creating Layer score
I1013 06:59:53.689260 10884 net.cpp:434] score <- flatten
I1013 06:59:53.689281 10884 net.cpp:408] score -> score
I1013 06:59:53.689460 10884 net.cpp:150] Setting up score
I1013 06:59:53.689463 10884 net.cpp:157] Top shape: 100 10 (1000)
I1013 06:59:53.689479 10884 net.cpp:165] Memory required for data: 222342800
I1013 06:59:53.689483 10884 layer_factory.hpp:77] Creating layer score_score_0_split
I1013 06:59:53.689488 10884 net.cpp:100] Creating Layer score_score_0_split
I1013 06:59:53.689491 10884 net.cpp:434] score_score_0_split <- score
I1013 06:59:53.689494 10884 net.cpp:408] score_score_0_split -> score_score_0_split_0
I1013 06:59:53.689501 10884 net.cpp:408] score_score_0_split -> score_score_0_split_1
I1013 06:59:53.689570 10884 net.cpp:150] Setting up score_score_0_split
I1013 06:59:53.689574 10884 net.cpp:157] Top shape: 100 10 (1000)
I1013 06:59:53.689591 10884 net.cpp:157] Top shape: 100 10 (1000)
I1013 06:59:53.689594 10884 net.cpp:165] Memory required for data: 222350800
I1013 06:59:53.689595 10884 layer_factory.hpp:77] Creating layer accuracy
I1013 06:59:53.689612 10884 net.cpp:100] Creating Layer accuracy
I1013 06:59:53.689615 10884 net.cpp:434] accuracy <- score_score_0_split_0
I1013 06:59:53.689617 10884 net.cpp:434] accuracy <- label_data_1_split_0
I1013 06:59:53.689620 10884 net.cpp:408] accuracy -> accuracy
…
