…
  stage: ""
}
type: "AdaDelta"
I1011 20:56:38.464404  5353 solver.cpp:81] Creating training net from train_net file: /home/adam/Honours/Honours-Project/cifar-10_allcnn/relu/allcnn_relu_train.prototxt
I1011 20:56:38.464702  5353 net.cpp:58] Initializing net from parameters: 
state {
  phase: TRAIN
  level: 0
  stage: ""
}
layer {
  name: "data"
  type: "Data"
  top: "data"
  top: "label"
  transform_param {
    mean_file: "mean.binaryproto"
  }
  data_param {
    source: "../../../data/cifar-10/cifar10_train_lmdb"
    batch_size: 64
    backend: LMDB
  }
}
layer {
  name: "conv1"
  type: "Convolution"
  bottom: "data"
  top: "conv1"
  convolution_param {
    num_output: 96
    kernel_size: 3
    weight_filler {
      type: "xavier"
    }
  }
}
layer {
  name: "conv2"
  type: "Convolution"
  bottom: "conv1"
  top: "conv2"
  convolution_param {
    num_output: 96
    kernel_size: 3
    weight_filler {
      type: "xavier"
    }
  }
}
layer {
  name: "bn1"
  type: "BatchNorm"
  bottom: "conv2"
  top: "bn1"
}
layer {
  name: "conv3"
  type: "Convolution"
  bottom: "bn1"
  top: "conv3"
  convolution_param {
    num_output: 96
    kernel_size: 3
    stride: 2
    weight_filler {
      type: "xavier"
    }
  }
}
layer {
  name: "drop1"
  type: "Dropout"
  bottom: "conv3"
  top: "drop1"
  dropout_param {
    dropout_ratio: 0.5
  }
}
layer {
  name: "relu3"
  type: "ReLU"
  bottom: "drop1"
  top: "drop1"
}
layer {
  name: "conv4"
  type: "Convolution"
  bottom: "drop1"
  top: "conv4"
  convolution_param {
    num_output: 192
    kernel_size: 3
    weight_filler {
      type: "xavier"
    }
  }
}
layer {
  name: "conv5"
  type: "Convolution"
  bottom: "conv4"
  top: "conv5"
  convolution_param {
    num_output: 192
    kernel_size: 3
    weight_filler {
      type: "xavier"
    }
  }
}
layer {
  name: "bn2"
  type: "BatchNorm"
  bottom: "conv5"
  top: "bn2"
}
layer {
  name: "conv6"
  type: "Convolution"
  bottom: "bn2"
  top: "conv6"
  convolution_param {
    num_output: 192
    kernel_size: 3
    stride: 2
    weight_filler {
      type: "xavier"
    }
  }
}
layer {
  name: "drop4"
  type: "Dropout"
  bottom: "conv6"
  top: "drop4"
  dropout_param {
    dropout_ratio: 0.5
  }
}
layer {
  name: "relu6"
  type: "ReLU"
  bottom: "drop4"
  top: "drop4"
}
layer {
  name: "conv7"
  type: "Convolution"
  bottom: "drop4"
  top: "conv7"
  convolution_param {
    num_output: 192
    kernel_size: 3
    weight_filler {
      type: "xavier"
    }
  }
}
layer {
  name: "relu7"
  type: "ReLU"
  bottom: "conv7"
  top: "conv7"
}
layer {
  name: "conv8"
  type: "Convolution"
  bottom: "conv7"
  top: "conv8"
  convolution_param {
    num_output: 192
    kernel_size: 1
    weight_filler {
      type: "xavier"
    }
  }
}
layer {
  name: "relu8"
  type: "ReLU"
  bottom: "conv8"
  top: "conv8"
}
layer {
  name: "conv9"
  type: "Convolution"
  bottom: "conv8"
  top: "conv9"
  convolution_param {
    num_output: 10
    kernel_size: 1
    weight_filler {
      type: "xavier"
    }
  }
}
layer {
  name: "relu9"
  type: "ReLU"
  bottom: "conv9"
  top: "conv9"
}
layer {
  name: "pool"
  type: "Pooling"
  bottom: "conv9"
  top: "pool"
  pooling_param {
    pool: AVE
    global_pooling: true
  }
}
layer {
  name: "flatten"
  type: "Flatten"
  bottom: "pool"
  top: "flatten"
}
layer {
  name: "score"
  type: "InnerProduct"
  bottom: "flatten"
  top: "score"
  inner_product_param {
    num_output: 10
    weight_filler {
      type: "gaussian"
    }
  }
}
layer {
  name: "accuracy"
  type: "Accuracy"
  bottom: "score"
  bottom: "label"
  top: "accuracy"
}
layer {
  name: "loss"
  type: "SoftmaxWithLoss"
  bottom: "score"
  bottom: "label"
  top: "loss"
}
I1011 20:56:38.464841  5353 layer_factory.hpp:77] Creating layer data
I1011 20:56:38.465260  5353 net.cpp:100] Creating Layer data
I1011 20:56:38.465267  5353 net.cpp:408] data -> data
I1011 20:56:38.465306  5353 net.cpp:408] data -> label
I1011 20:56:38.465317  5353 data_transformer.cpp:25] Loading mean file from: mean.binaryproto
I1011 20:56:38.466024  5358 db_lmdb.cpp:35] Opened lmdb ../../../data/cifar-10/cifar10_train_lmdb
I1011 20:56:38.472347  5353 data_layer.cpp:41] output data size: 64,3,32,32
I1011 20:56:38.473860  5353 net.cpp:150] Setting up data
I1011 20:56:38.473876  5353 net.cpp:157] Top shape: 64 3 32 32 (196608)
I1011 20:56:38.473894  5353 net.cpp:157] Top shape: 64 (64)
I1011 20:56:38.473896  5353 net.cpp:165] Memory required for data: 786688
I1011 20:56:38.473917  5353 layer_factory.hpp:77] Creating layer label_data_1_split
I1011 20:56:38.473942  5353 net.cpp:100] Creating Layer label_data_1_split
I1011 20:56:38.473948  5353 net.cpp:434] label_data_1_split <- label
I1011 20:56:38.473971  5353 net.cpp:408] label_data_1_split -> label_data_1_split_0
I1011 20:56:38.473980  5353 net.cpp:408] label_data_1_split -> label_data_1_split_1
I1011 20:56:38.474011  5353 net.cpp:150] Setting up label_data_1_split
I1011 20:56:38.474016  5353 net.cpp:157] Top shape: 64 (64)
I1011 20:56:38.474019  5353 net.cpp:157] Top shape: 64 (64)
I1011 20:56:38.474020  5353 net.cpp:165] Memory required for data: 787200
I1011 20:56:38.474022  5353 layer_factory.hpp:77] Creating layer conv1
I1011 20:56:38.474033  5353 net.cpp:100] Creating Layer conv1
I1011 20:56:38.474035  5353 net.cpp:434] conv1 <- data
I1011 20:56:38.474041  5353 net.cpp:408] conv1 -> conv1
I1011 20:56:38.609032  5353 net.cpp:150] Setting up conv1
I1011 20:56:38.609056  5353 net.cpp:157] Top shape: 64 96 30 30 (5529600)
I1011 20:56:38.609060  5353 net.cpp:165] Memory required for data: 22905600
I1011 20:56:38.609076  5353 layer_factory.hpp:77] Creating layer conv2
I1011 20:56:38.609086  5353 net.cpp:100] Creating Layer conv2
I1011 20:56:38.609089  5353 net.cpp:434] conv2 <- conv1
I1011 20:56:38.609094  5353 net.cpp:408] conv2 -> conv2
I1011 20:56:38.610433  5353 net.cpp:150] Setting up conv2
I1011 20:56:38.610457  5353 net.cpp:157] Top shape: 64 96 28 28 (4816896)
I1011 20:56:38.610460  5353 net.cpp:165] Memory required for data: 42173184
I1011 20:56:38.610466  5353 layer_factory.hpp:77] Creating layer bn1
I1011 20:56:38.610472  5353 net.cpp:100] Creating Layer bn1
I1011 20:56:38.610476  5353 net.cpp:434] bn1 <- conv2
I1011 20:56:38.610493  5353 net.cpp:408] bn1 -> bn1
I1011 20:56:38.610697  5353 net.cpp:150] Setting up bn1
I1011 20:56:38.610702  5353 net.cpp:157] Top shape: 64 96 28 28 (4816896)
I1011 20:56:38.610703  5353 net.cpp:165] Memory required for data: 61440768
I1011 20:56:38.610709  5353 layer_factory.hpp:77] Creating layer conv3
I1011 20:56:38.610715  5353 net.cpp:100] Creating Layer conv3
I1011 20:56:38.610718  5353 net.cpp:434] conv3 <- bn1
I1011 20:56:38.610720  5353 net.cpp:408] conv3 -> conv3
I1011 20:56:38.611912  5353 net.cpp:150] Setting up conv3
I1011 20:56:38.611922  5353 net.cpp:157] Top shape: 64 96 13 13 (1038336)
I1011 20:56:38.611923  5353 net.cpp:165] Memory required for data: 65594112
I1011 20:56:38.611929  5353 layer_factory.hpp:77] Creating layer drop1
I1011 20:56:38.611934  5353 net.cpp:100] Creating Layer drop1
I1011 20:56:38.611937  5353 net.cpp:434] drop1 <- conv3
I1011 20:56:38.611940  5353 net.cpp:408] drop1 -> drop1
I1011 20:56:38.612002  5353 net.cpp:150] Setting up drop1
I1011 20:56:38.612007  5353 net.cpp:157] Top shape: 64 96 13 13 (1038336)
I1011 20:56:38.612022  5353 net.cpp:165] Memory required for data: 69747456
I1011 20:56:38.612025  5353 layer_factory.hpp:77] Creating layer relu3
I1011 20:56:38.612028  5353 net.cpp:100] Creating Layer relu3
I1011 20:56:38.612030  5353 net.cpp:434] relu3 <- drop1
I1011 20:56:38.612049  5353 net.cpp:395] relu3 -> drop1 (in-place)
I1011 20:56:38.612336  5353 net.cpp:150] Setting up relu3
I1011 20:56:38.612344  5353 net.cpp:157] Top shape: 64 96 13 13 (1038336)
I1011 20:56:38.612346  5353 net.cpp:165] Memory required for data: 73900800
I1011 20:56:38.612349  5353 layer_factory.hpp:77] Creating layer conv4
I1011 20:56:38.612355  5353 net.cpp:100] Creating Layer conv4
I1011 20:56:38.612357  5353 net.cpp:434] conv4 <- drop1
I1011 20:56:38.612362  5353 net.cpp:408] conv4 -> conv4
I1011 20:56:38.614195  5353 net.cpp:150] Setting up conv4
I1011 20:56:38.614219  5353 net.cpp:157] Top shape: 64 192 11 11 (1486848)
I1011 20:56:38.614223  5353 net.cpp:165] Memory required for data: 79848192
I1011 20:56:38.614228  5353 layer_factory.hpp:77] Creating layer conv5
I1011 20:56:38.614246  5353 net.cpp:100] Creating Layer conv5
I1011 20:56:38.614248  5353 net.cpp:434] conv5 <- conv4
I1011 20:56:38.614269  5353 net.cpp:408] conv5 -> conv5
I1011 20:56:38.616726  5353 net.cpp:150] Setting up conv5
I1011 20:56:38.616736  5353 net.cpp:157] Top shape: 64 192 9 9 (995328)
I1011 20:56:38.616739  5353 net.cpp:165] Memory required for data: 83829504
I1011 20:56:38.616742  5353 layer_factory.hpp:77] Creating layer bn2
I1011 20:56:38.616746  5353 net.cpp:100] Creating Layer bn2
I1011 20:56:38.616749  5353 net.cpp:434] bn2 <- conv5
I1011 20:56:38.616752  5353 net.cpp:408] bn2 -> bn2
I1011 20:56:38.616947  5353 net.cpp:150] Setting up bn2
I1011 20:56:38.616953  5353 net.cpp:157] Top shape: 64 192 9 9 (995328)
I1011 20:56:38.616955  5353 net.cpp:165] Memory required for data: 87810816
I1011 20:56:38.616960  5353 layer_factory.hpp:77] Creating layer conv6
I1011 20:56:38.616964  5353 net.cpp:100] Creating Layer conv6
I1011 20:56:38.616966  5353 net.cpp:434] conv6 <- bn2
I1011 20:56:38.616969  5353 net.cpp:408] conv6 -> conv6
I1011 20:56:38.619493  5353 net.cpp:150] Setting up conv6
I1011 20:56:38.619503  5353 net.cpp:157] Top shape: 64 192 4 4 (196608)
I1011 20:56:38.619506  5353 net.cpp:165] Memory required for data: 88597248
I1011 20:56:38.619514  5353 layer_factory.hpp:77] Creating layer drop4
I1011 20:56:38.619518  5353 net.cpp:100] Creating Layer drop4
I1011 20:56:38.619521  5353 net.cpp:434] drop4 <- conv6
I1011 20:56:38.619525  5353 net.cpp:408] drop4 -> drop4
I1011 20:56:38.619570  5353 net.cpp:150] Setting up drop4
I1011 20:56:38.619590  5353 net.cpp:157] Top shape: 64 192 4 4 (196608)
I1011 20:56:38.619591  5353 net.cpp:165] Memory required for data: 89383680
I1011 20:56:38.619593  5353 layer_factory.hpp:77] Creating layer relu6
I1011 20:56:38.619611  5353 net.cpp:100] Creating Layer relu6
I1011 20:56:38.619612  5353 net.cpp:434] relu6 <- drop4
I1011 20:56:38.619616  5353 net.cpp:395] relu6 -> drop4 (in-place)
I1011 20:56:38.619897  5353 net.cpp:150] Setting up relu6
I1011 20:56:38.619920  5353 net.cpp:157] Top shape: 64 192 4 4 (196608)
I1011 20:56:38.619921  5353 net.cpp:165] Memory required for data: 90170112
I1011 20:56:38.619923  5353 layer_factory.hpp:77] Creating layer conv7
I1011 20:56:38.619930  5353 net.cpp:100] Creating Layer conv7
I1011 20:56:38.619933  5353 net.cpp:434] conv7 <- drop4
I1011 20:56:38.619936  5353 net.cpp:408] conv7 -> conv7
I1011 20:56:38.622921  5353 net.cpp:150] Setting up conv7
I1011 20:56:38.622941  5353 net.cpp:157] Top shape: 64 192 2 2 (49152)
I1011 20:56:38.622942  5353 net.cpp:165] Memory required for data: 90366720
I1011 20:56:38.622948  5353 layer_factory.hpp:77] Creating layer relu7
I1011 20:56:38.622953  5353 net.cpp:100] Creating Layer relu7
I1011 20:56:38.622956  5353 net.cpp:434] relu7 <- conv7
I1011 20:56:38.622961  5353 net.cpp:395] relu7 -> conv7 (in-place)
I1011 20:56:38.623220  5353 net.cpp:150] Setting up relu7
I1011 20:56:38.623229  5353 net.cpp:157] Top shape: 64 192 2 2 (49152)
I1011 20:56:38.623230  5353 net.cpp:165] Memory required for data: 90563328
I1011 20:56:38.623234  5353 layer_factory.hpp:77] Creating layer conv8
I1011 20:56:38.623244  5353 net.cpp:100] Creating Layer conv8
I1011 20:56:38.623245  5353 net.cpp:434] conv8 <- conv7
I1011 20:56:38.623250  5353 net.cpp:408] conv8 -> conv8
I1011 20:56:38.624495  5353 net.cpp:150] Setting up conv8
I1011 20:56:38.624505  5353 net.cpp:157] Top shape: 64 192 2 2 (49152)
I1011 20:56:38.624507  5353 net.cpp:165] Memory required for data: 90759936
I1011 20:56:38.624511  5353 layer_factory.hpp:77] Creating layer relu8
I1011 20:56:38.624516  5353 net.cpp:100] Creating Layer relu8
I1011 20:56:38.624518  5353 net.cpp:434] relu8 <- conv8
I1011 20:56:38.624521  5353 net.cpp:395] relu8 -> conv8 (in-place)
I1011 20:56:38.624773  5353 net.cpp:150] Setting up relu8
I1011 20:56:38.624780  5353 net.cpp:157] Top shape: 64 192 2 2 (49152)
I1011 20:56:38.624783  5353 net.cpp:165] Memory required for data: 90956544
I1011 20:56:38.624784  5353 layer_factory.hpp:77] Creating layer conv9
I1011 20:56:38.624791  5353 net.cpp:100] Creating Layer conv9
I1011 20:56:38.624794  5353 net.cpp:434] conv9 <- conv8
I1011 20:56:38.624797  5353 net.cpp:408] conv9 -> conv9
I1011 20:56:38.625622  5353 net.cpp:150] Setting up conv9
I1011 20:56:38.625630  5353 net.cpp:157] Top shape: 64 10 2 2 (2560)
I1011 20:56:38.625633  5353 net.cpp:165] Memory required for data: 90966784
I1011 20:56:38.625638  5353 layer_factory.hpp:77] Creating layer relu9
I1011 20:56:38.625640  5353 net.cpp:100] Creating Layer relu9
I1011 20:56:38.625643  5353 net.cpp:434] relu9 <- conv9
I1011 20:56:38.625648  5353 net.cpp:395] relu9 -> conv9 (in-place)
I1011 20:56:38.625900  5353 net.cpp:150] Setting up relu9
I1011 20:56:38.625908  5353 net.cpp:157] Top shape: 64 10 2 2 (2560)
I1011 20:56:38.625910  5353 net.cpp:165] Memory required for data: 90977024
I1011 20:56:38.625912  5353 layer_factory.hpp:77] Creating layer pool
I1011 20:56:38.625916  5353 net.cpp:100] Creating Layer pool
I1011 20:56:38.625919  5353 net.cpp:434] pool <- conv9
I1011 20:56:38.625922  5353 net.cpp:408] pool -> pool
I1011 20:56:38.626127  5353 net.cpp:150] Setting up pool
I1011 20:56:38.626134  5353 net.cpp:157] Top shape: 64 10 1 1 (640)
I1011 20:56:38.626150  5353 net.cpp:165] Memory required for data: 90979584
I1011 20:56:38.626152  5353 layer_factory.hpp:77] Creating layer flatten
I1011 20:56:38.626157  5353 net.cpp:100] Creating Layer flatten
I1011 20:56:38.626158  5353 net.cpp:434] flatten <- pool
I1011 20:56:38.626162  5353 net.cpp:408] flatten -> flatten
I1011 20:56:38.626220  5353 net.cpp:150] Setting up flatten
I1011 20:56:38.626237  5353 net.cpp:157] Top shape: 64 10 (640)
I1011 20:56:38.626240  5353 net.cpp:165] Memory required for data: 90982144
I1011 20:56:38.626241  5353 layer_factory.hpp:77] Creating layer score
I1011 20:56:38.626262  5353 net.cpp:100] Creating Layer score
I1011 20:56:38.626265  5353 net.cpp:434] score <- flatten
I1011 20:56:38.626267  5353 net.cpp:408] score -> score
I1011 20:56:38.626415  5353 net.cpp:150] Setting up score
I1011 20:56:38.626420  5353 net.cpp:157] Top shape: 64 10 (640)
I1011 20:56:38.626420  5353 net.cpp:165] Memory required for data: 90984704
I1011 20:56:38.626425  5353 layer_factory.hpp:77] Creating layer score_score_0_split
I1011 20:56:38.626428  5353 net.cpp:100] Creating Layer score_score_0_split
I1011 20:56:38.626430  5353 net.cpp:434] score_score_0_split <- score
I1011 20:56:38.626435  5353 net.cpp:408] score_score_0_split -> score_score_0_split_0
I1011 20:56:38.626438  5353 net.cpp:408] score_score_0_split -> score_score_0_split_1
I1011 20:56:38.626494  5353 net.cpp:150] Setting up score_score_0_split
I1011 20:56:38.626498  5353 net.cpp:157] Top shape: 64 10 (640)
I1011 20:56:38.626500  5353 net.cpp:157] Top shape: 64 10 (640)
I1011 20:56:38.626502  5353 net.cpp:165] Memory required for data: 90989824
I1011 20:56:38.626504  5353 layer_factory.hpp:77] Creating layer accuracy
I1011 20:56:38.626508  5353 net.cpp:100] Creating Layer accuracy
I1011 20:56:38.626510  5353 net.cpp:434] accuracy <- score_score_0_split_0
I1011 20:56:38.626513  5353 net.cpp:434] accuracy <- label_data_1_split_0
I1011 20:56:38.626518  5353 net.cpp:408] accuracy -> accuracy
…
I1011 20:56:38.627116  5353 net.cpp:283] Network initialization done.
I1011 20:56:38.627305  5353 solver.cpp:181] Creating test net (#0) specified by test_net file: /home/adam/Honours/Honours-Project/cifar-10_allcnn/relu/allcnn_relu_test.prototxt
I1011 20:56:38.627429  5353 net.cpp:58] Initializing net from parameters: 
state {
  phase: TEST
}
layer {
  name: "data"
  type: "Data"
  top: "data"
  top: "label"
  transform_param {
    mean_file: "mean.binaryproto"
  }
  data_param {
    source: "../../../data/cifar-10/cifar10_test_lmdb"
    batch_size: 100
    backend: LMDB
  }
}
layer {
  name: "conv1"
  type: "Convolution"
  bottom: "data"
  top: "conv1"
  convolution_param {
    num_output: 96
    kernel_size: 3
    weight_filler {
      type: "xavier"
    }
  }
}
layer {
  name: "conv2"
  type: "Convolution"
  bottom: "conv1"
  top: "conv2"
  convolution_param {
    num_output: 96
    kernel_size: 3
    weight_filler {
      type: "xavier"
    }
  }
}
layer {
  name: "bn1"
  type: "BatchNorm"
  bottom: "conv2"
  top: "bn1"
}
layer {
  name: "conv3"
  type: "Convolution"
  bottom: "bn1"
  top: "conv3"
  convolution_param {
    num_output: 96
    kernel_size: 3
    stride: 2
    weight_filler {
      type: "xavier"
    }
  }
}
layer {
  name: "drop1"
  type: "Dropout"
  bottom: "conv3"
  top: "drop1"
  dropout_param {
    dropout_ratio: 0.5
  }
}
layer {
  name: "relu3"
  type: "ReLU"
  bottom: "drop1"
  top: "drop1"
}
layer {
  name: "conv4"
  type: "Convolution"
  bottom: "drop1"
  top: "conv4"
  convolution_param {
    num_output: 192
    kernel_size: 3
    weight_filler {
      type: "xavier"
    }
  }
}
layer {
  name: "conv5"
  type: "Convolution"
  bottom: "conv4"
  top: "conv5"
  convolution_param {
    num_output: 192
    kernel_size: 3
    weight_filler {
      type: "xavier"
    }
  }
}
layer {
  name: "bn2"
  type: "BatchNorm"
  bottom: "conv5"
  top: "bn2"
}
layer {
  name: "conv6"
  type: "Convolution"
  bottom: "bn2"
  top: "conv6"
  convolution_param {
    num_output: 192
    kernel_size: 3
    stride: 2
    weight_filler {
      type: "xavier"
    }
  }
}
layer {
  name: "drop4"
  type: "Dropout"
  bottom: "conv6"
  top: "drop4"
  dropout_param {
    dropout_ratio: 0.5
  }
}
layer {
  name: "relu6"
  type: "ReLU"
  bottom: "drop4"
  top: "drop4"
}
layer {
  name: "conv7"
  type: "Convolution"
  bottom: "drop4"
  top: "conv7"
  convolution_param {
    num_output: 192
    kernel_size: 3
    weight_filler {
      type: "xavier"
    }
  }
}
layer {
  name: "relu7"
  type: "ReLU"
  bottom: "conv7"
  top: "conv7"
}
layer {
  name: "conv8"
  type: "Convolution"
  bottom: "conv7"
  top: "conv8"
  convolution_param {
    num_output: 192
    kernel_size: 1
    weight_filler {
      type: "xavier"
    }
  }
}
layer {
  name: "relu8"
  type: "ReLU"
  bottom: "conv8"
  top: "conv8"
}
layer {
  name: "conv9"
  type: "Convolution"
  bottom: "conv8"
  top: "conv9"
  convolution_param {
    num_output: 10
    kernel_size: 1
    weight_filler {
      type: "xavier"
    }
  }
}
layer {
  name: "relu9"
  type: "ReLU"
  bottom: "conv9"
  top: "conv9"
}
layer {
  name: "pool"
  type: "Pooling"
  bottom: "conv9"
  top: "pool"
  pooling_param {
    pool: AVE
    global_pooling: true
  }
}
layer {
  name: "flatten"
  type: "Flatten"
  bottom: "pool"
  top: "flatten"
}
layer {
  name: "score"
  type: "InnerProduct"
  bottom: "flatten"
  top: "score"
  inner_product_param {
    num_output: 10
    weight_filler {
      type: "gaussian"
    }
  }
}
layer {
  name: "accuracy"
  type: "Accuracy"
  bottom: "score"
  bottom: "label"
  top: "accuracy"
}
layer {
  name: "loss"
  type: "SoftmaxWithLoss"
  bottom: "score"
  bottom: "label"
  top: "loss"
}
I1011 20:56:38.627532  5353 layer_factory.hpp:77] Creating layer data
I1011 20:56:38.627616  5353 net.cpp:100] Creating Layer data
I1011 20:56:38.627622  5353 net.cpp:408] data -> data
I1011 20:56:38.627627  5353 net.cpp:408] data -> label
I1011 20:56:38.627635  5353 data_transformer.cpp:25] Loading mean file from: mean.binaryproto
I1011 20:56:38.628339  5360 db_lmdb.cpp:35] Opened lmdb ../../../data/cifar-10/cifar10_test_lmdb
I1011 20:56:38.628428  5353 data_layer.cpp:41] output data size: 100,3,32,32
I1011 20:56:38.630478  5353 net.cpp:150] Setting up data
I1011 20:56:38.630513  5353 net.cpp:157] Top shape: 100 3 32 32 (307200)
I1011 20:56:38.630517  5353 net.cpp:157] Top shape: 100 (100)
I1011 20:56:38.630518  5353 net.cpp:165] Memory required for data: 1229200
I1011 20:56:38.630537  5353 layer_factory.hpp:77] Creating layer label_data_1_split
I1011 20:56:38.630544  5353 net.cpp:100] Creating Layer label_data_1_split
I1011 20:56:38.630560  5353 net.cpp:434] label_data_1_split <- label
I1011 20:56:38.630568  5353 net.cpp:408] label_data_1_split -> label_data_1_split_0
I1011 20:56:38.630574  5353 net.cpp:408] label_data_1_split -> label_data_1_split_1
I1011 20:56:38.630692  5353 net.cpp:150] Setting up label_data_1_split
I1011 20:56:38.630697  5353 net.cpp:157] Top shape: 100 (100)
I1011 20:56:38.630722  5353 net.cpp:157] Top shape: 100 (100)
I1011 20:56:38.630722  5353 net.cpp:165] Memory required for data: 1230000
I1011 20:56:38.630725  5353 layer_factory.hpp:77] Creating layer conv1
I1011 20:56:38.630733  5353 net.cpp:100] Creating Layer conv1
I1011 20:56:38.630738  5353 net.cpp:434] conv1 <- data
I1011 20:56:38.630741  5353 net.cpp:408] conv1 -> conv1
I1011 20:56:38.631832  5353 net.cpp:150] Setting up conv1
I1011 20:56:38.631844  5353 net.cpp:157] Top shape: 100 96 30 30 (8640000)
I1011 20:56:38.631845  5353 net.cpp:165] Memory required for data: 35790000
I1011 20:56:38.631871  5353 layer_factory.hpp:77] Creating layer conv2
I1011 20:56:38.631876  5353 net.cpp:100] Creating Layer conv2
I1011 20:56:38.631880  5353 net.cpp:434] conv2 <- conv1
I1011 20:56:38.631885  5353 net.cpp:408] conv2 -> conv2
I1011 20:56:38.633208  5353 net.cpp:150] Setting up conv2
I1011 20:56:38.633219  5353 net.cpp:157] Top shape: 100 96 28 28 (7526400)
I1011 20:56:38.633235  5353 net.cpp:165] Memory required for data: 65895600
I1011 20:56:38.633241  5353 layer_factory.hpp:77] Creating layer bn1
I1011 20:56:38.633249  5353 net.cpp:100] Creating Layer bn1
I1011 20:56:38.633251  5353 net.cpp:434] bn1 <- conv2
I1011 20:56:38.633255  5353 net.cpp:408] bn1 -> bn1
I1011 20:56:38.633460  5353 net.cpp:150] Setting up bn1
I1011 20:56:38.633466  5353 net.cpp:157] Top shape: 100 96 28 28 (7526400)
I1011 20:56:38.633467  5353 net.cpp:165] Memory required for data: 96001200
I1011 20:56:38.633474  5353 layer_factory.hpp:77] Creating layer conv3
I1011 20:56:38.633481  5353 net.cpp:100] Creating Layer conv3
I1011 20:56:38.633483  5353 net.cpp:434] conv3 <- bn1
I1011 20:56:38.633488  5353 net.cpp:408] conv3 -> conv3
I1011 20:56:38.634863  5353 net.cpp:150] Setting up conv3
I1011 20:56:38.634876  5353 net.cpp:157] Top shape: 100 96 13 13 (1622400)
I1011 20:56:38.634878  5353 net.cpp:165] Memory required for data: 102490800
I1011 20:56:38.634884  5353 layer_factory.hpp:77] Creating layer drop1
I1011 20:56:38.634891  5353 net.cpp:100] Creating Layer drop1
I1011 20:56:38.634894  5353 net.cpp:434] drop1 <- conv3
I1011 20:56:38.634899  5353 net.cpp:408] drop1 -> drop1
I1011 20:56:38.634934  5353 net.cpp:150] Setting up drop1
I1011 20:56:38.634939  5353 net.cpp:157] Top shape: 100 96 13 13 (1622400)
I1011 20:56:38.634941  5353 net.cpp:165] Memory required for data: 108980400
I1011 20:56:38.634944  5353 layer_factory.hpp:77] Creating layer relu3
I1011 20:56:38.634948  5353 net.cpp:100] Creating Layer relu3
I1011 20:56:38.634950  5353 net.cpp:434] relu3 <- drop1
I1011 20:56:38.634954  5353 net.cpp:395] relu3 -> drop1 (in-place)
I1011 20:56:38.635182  5353 net.cpp:150] Setting up relu3
I1011 20:56:38.635191  5353 net.cpp:157] Top shape: 100 96 13 13 (1622400)
I1011 20:56:38.635193  5353 net.cpp:165] Memory required for data: 115470000
I1011 20:56:38.635195  5353 layer_factory.hpp:77] Creating layer conv4
I1011 20:56:38.635203  5353 net.cpp:100] Creating Layer conv4
I1011 20:56:38.635205  5353 net.cpp:434] conv4 <- drop1
I1011 20:56:38.635210  5353 net.cpp:408] conv4 -> conv4
I1011 20:56:38.637456  5353 net.cpp:150] Setting up conv4
I1011 20:56:38.637471  5353 net.cpp:157] Top shape: 100 192 11 11 (2323200)
I1011 20:56:38.637473  5353 net.cpp:165] Memory required for data: 124762800
I1011 20:56:38.637480  5353 layer_factory.hpp:77] Creating layer conv5
I1011 20:56:38.637487  5353 net.cpp:100] Creating Layer conv5
I1011 20:56:38.637506  5353 net.cpp:434] conv5 <- conv4
I1011 20:56:38.637511  5353 net.cpp:408] conv5 -> conv5
I1011 20:56:38.640290  5353 net.cpp:150] Setting up conv5
I1011 20:56:38.640305  5353 net.cpp:157] Top shape: 100 192 9 9 (1555200)
I1011 20:56:38.640307  5353 net.cpp:165] Memory required for data: 130983600
I1011 20:56:38.640312  5353 layer_factory.hpp:77] Creating layer bn2
I1011 20:56:38.640332  5353 net.cpp:100] Creating Layer bn2
I1011 20:56:38.640336  5353 net.cpp:434] bn2 <- conv5
I1011 20:56:38.640339  5353 net.cpp:408] bn2 -> bn2
I1011 20:56:38.640532  5353 net.cpp:150] Setting up bn2
I1011 20:56:38.640537  5353 net.cpp:157] Top shape: 100 192 9 9 (1555200)
I1011 20:56:38.640539  5353 net.cpp:165] Memory required for data: 137204400
I1011 20:56:38.640544  5353 layer_factory.hpp:77] Creating layer conv6
I1011 20:56:38.640549  5353 net.cpp:100] Creating Layer conv6
I1011 20:56:38.640552  5353 net.cpp:434] conv6 <- bn2
I1011 20:56:38.640554  5353 net.cpp:408] conv6 -> conv6
I1011 20:56:38.643144  5353 net.cpp:150] Setting up conv6
I1011 20:56:38.643156  5353 net.cpp:157] Top shape: 100 192 4 4 (307200)
I1011 20:56:38.643157  5353 net.cpp:165] Memory required for data: 138433200
I1011 20:56:38.643167  5353 layer_factory.hpp:77] Creating layer drop4
I1011 20:56:38.643170  5353 net.cpp:100] Creating Layer drop4
I1011 20:56:38.643173  5353 net.cpp:434] drop4 <- conv6
I1011 20:56:38.643177  5353 net.cpp:408] drop4 -> drop4
I1011 20:56:38.643239  5353 net.cpp:150] Setting up drop4
I1011 20:56:38.643256  5353 net.cpp:157] Top shape: 100 192 4 4 (307200)
I1011 20:56:38.643259  5353 net.cpp:165] Memory required for data: 139662000
I1011 20:56:38.643260  5353 layer_factory.hpp:77] Creating layer relu6
I1011 20:56:38.643265  5353 net.cpp:100] Creating Layer relu6
I1011 20:56:38.643282  5353 net.cpp:434] relu6 <- drop4
I1011 20:56:38.643285  5353 net.cpp:395] relu6 -> drop4 (in-place)
I1011 20:56:38.643548  5353 net.cpp:150] Setting up relu6
I1011 20:56:38.643555  5353 net.cpp:157] Top shape: 100 192 4 4 (307200)
I1011 20:56:38.643558  5353 net.cpp:165] Memory required for data: 140890800
I1011 20:56:38.643560  5353 layer_factory.hpp:77] Creating layer conv7
I1011 20:56:38.643565  5353 net.cpp:100] Creating Layer conv7
I1011 20:56:38.643568  5353 net.cpp:434] conv7 <- drop4
I1011 20:56:38.643573  5353 net.cpp:408] conv7 -> conv7
I1011 20:56:38.646155  5353 net.cpp:150] Setting up conv7
I1011 20:56:38.646167  5353 net.cpp:157] Top shape: 100 192 2 2 (76800)
I1011 20:56:38.646169  5353 net.cpp:165] Memory required for data: 141198000
I1011 20:56:38.646179  5353 layer_factory.hpp:77] Creating layer relu7
I1011 20:56:38.646184  5353 net.cpp:100] Creating Layer relu7
I1011 20:56:38.646209  5353 net.cpp:434] relu7 <- conv7
I1011 20:56:38.646212  5353 net.cpp:395] relu7 -> conv7 (in-place)
I1011 20:56:38.646473  5353 net.cpp:150] Setting up relu7
I1011 20:56:38.646482  5353 net.cpp:157] Top shape: 100 192 2 2 (76800)
I1011 20:56:38.646484  5353 net.cpp:165] Memory required for data: 141505200
I1011 20:56:38.646486  5353 layer_factory.hpp:77] Creating layer conv8
I1011 20:56:38.646494  5353 net.cpp:100] Creating Layer conv8
I1011 20:56:38.646497  5353 net.cpp:434] conv8 <- conv7
I1011 20:56:38.646500  5353 net.cpp:408] conv8 -> conv8
I1011 20:56:38.647477  5353 net.cpp:150] Setting up conv8
I1011 20:56:38.647487  5353 net.cpp:157] Top shape: 100 192 2 2 (76800)
I1011 20:56:38.647490  5353 net.cpp:165] Memory required for data: 141812400
I1011 20:56:38.647495  5353 layer_factory.hpp:77] Creating layer relu8
I1011 20:56:38.647497  5353 net.cpp:100] Creating Layer relu8
I1011 20:56:38.647500  5353 net.cpp:434] relu8 <- conv8
I1011 20:56:38.647502  5353 net.cpp:395] relu8 -> conv8 (in-place)
I1011 20:56:38.647660  5353 net.cpp:150] Setting up relu8
I1011 20:56:38.647666  5353 net.cpp:157] Top shape: 100 192 2 2 (76800)
I1011 20:56:38.647668  5353 net.cpp:165] Memory required for data: 142119600
I1011 20:56:38.647670  5353 layer_factory.hpp:77] Creating layer conv9
I1011 20:56:38.647675  5353 net.cpp:100] Creating Layer conv9
I1011 20:56:38.647677  5353 net.cpp:434] conv9 <- conv8
I1011 20:56:38.647681  5353 net.cpp:408] conv9 -> conv9
I1011 20:56:38.648521  5353 net.cpp:150] Setting up conv9
I1011 20:56:38.648531  5353 net.cpp:157] Top shape: 100 10 2 2 (4000)
I1011 20:56:38.648533  5353 net.cpp:165] Memory required for data: 142135600
I1011 20:56:38.648537  5353 layer_factory.hpp:77] Creating layer relu9
I1011 20:56:38.648541  5353 net.cpp:100] Creating Layer relu9
I1011 20:56:38.648543  5353 net.cpp:434] relu9 <- conv9
I1011 20:56:38.648547  5353 net.cpp:395] relu9 -> conv9 (in-place)
I1011 20:56:38.648792  5353 net.cpp:150] Setting up relu9
I1011 20:56:38.648799  5353 net.cpp:157] Top shape: 100 10 2 2 (4000)
I1011 20:56:38.648802  5353 net.cpp:165] Memory required for data: 142151600
I1011 20:56:38.648803  5353 layer_factory.hpp:77] Creating layer pool
I1011 20:56:38.648808  5353 net.cpp:100] Creating Layer pool
I1011 20:56:38.648810  5353 net.cpp:434] pool <- conv9
I1011 20:56:38.648814  5353 net.cpp:408] pool -> pool
I1011 20:56:38.649035  5353 net.cpp:150] Setting up pool
I1011 20:56:38.649042  5353 net.cpp:157] Top shape: 100 10 1 1 (1000)
I1011 20:56:38.649044  5353 net.cpp:165] Memory required for data: 142155600
I1011 20:56:38.649045  5353 layer_factory.hpp:77] Creating layer flatten
I1011 20:56:38.649050  5353 net.cpp:100] Creating Layer flatten
I1011 20:56:38.649052  5353 net.cpp:434] flatten <- pool
I1011 20:56:38.649055  5353 net.cpp:408] flatten -> flatten
I1011 20:56:38.649091  5353 net.cpp:150] Setting up flatten
I1011 20:56:38.649107  5353 net.cpp:157] Top shape: 100 10 (1000)
I1011 20:56:38.649109  5353 net.cpp:165] Memory required for data: 142159600
I1011 20:56:38.649111  5353 layer_factory.hpp:77] Creating layer score
I1011 20:56:38.649116  5353 net.cpp:100] Creating Layer score
I1011 20:56:38.649117  5353 net.cpp:434] score <- flatten
I1011 20:56:38.649135  5353 net.cpp:408] score -> score
I1011 20:56:38.649281  5353 net.cpp:150] Setting up score
I1011 20:56:38.649286  5353 net.cpp:157] Top shape: 100 10 (1000)
I1011 20:56:38.649287  5353 net.cpp:165] Memory required for data: 142163600
I1011 20:56:38.649291  5353 layer_factory.hpp:77] Creating layer score_score_0_split
I1011 20:56:38.649294  5353 net.cpp:100] Creating Layer score_score_0_split
I1011 20:56:38.649296  5353 net.cpp:434] score_score_0_split <- score
I1011 20:56:38.649302  5353 net.cpp:408] score_score_0_split -> score_score_0_split_0
I1011 20:56:38.649305  5353 net.cpp:408] score_score_0_split -> score_score_0_split_1
I1011 20:56:38.649377  5353 net.cpp:150] Setting up score_score_0_split
I1011 20:56:38.649382  5353 net.cpp:157] Top shape: 100 10 (1000)
I1011 20:56:38.649397  5353 net.cpp:157] Top shape: 100 10 (1000)
I1011 20:56:38.649399  5353 net.cpp:165] Memory required for data: 142171600
I1011 20:56:38.649400  5353 layer_factory.hpp:77] Creating layer accuracy
I1011 20:56:38.649405  5353 net.cpp:100] Creating Layer accuracy
I1011 20:56:38.649406  5353 net.cpp:434] accuracy <- score_score_0_split_0
I1011 20:56:38.649423  5353 net.cpp:434] accuracy <- label_data_1_split_0
I1011 20:56:38.649427  5353 net.cpp:408] accuracy -> accuracy
…
