…
  stage: ""
}
type: "Adam"
I1012 18:49:19.117943  6510 solver.cpp:81] Creating training net from train_net file: /home/adam/Honours/Honours-Project/cifar-10_allcnn/relu/allcnn_relu_train.prototxt
I1012 18:49:19.118268  6510 net.cpp:58] Initializing net from parameters: 
state {
  phase: TRAIN
  level: 0
  stage: ""
}
layer {
  name: "data"
  type: "Data"
  top: "data"
  top: "label"
  transform_param {
    mean_file: "mean.binaryproto"
  }
  data_param {
    source: "../../../data/cifar-10/cifar10_train_lmdb"
    batch_size: 64
    backend: LMDB
  }
}
layer {
  name: "conv1"
  type: "Convolution"
  bottom: "data"
  top: "conv1"
  convolution_param {
    num_output: 96
    kernel_size: 3
    weight_filler {
      type: "xavier"
    }
  }
}
layer {
  name: "relu1"
  type: "ReLU"
  bottom: "conv1"
  top: "conv1"
}
layer {
  name: "conv2"
  type: "Convolution"
  bottom: "conv1"
  top: "conv2"
  convolution_param {
    num_output: 96
    kernel_size: 3
    weight_filler {
      type: "xavier"
    }
  }
}
layer {
  name: "bn1"
  type: "BatchNorm"
  bottom: "conv2"
  top: "bn1"
}
layer {
  name: "relu2"
  type: "ReLU"
  bottom: "bn1"
  top: "bn1"
}
layer {
  name: "conv3"
  type: "Convolution"
  bottom: "bn1"
  top: "conv3"
  convolution_param {
    num_output: 96
    kernel_size: 3
    stride: 2
    weight_filler {
      type: "xavier"
    }
  }
}
layer {
  name: "drop1"
  type: "Dropout"
  bottom: "conv3"
  top: "drop1"
  dropout_param {
    dropout_ratio: 0.5
  }
}
layer {
  name: "relu3"
  type: "ReLU"
  bottom: "drop1"
  top: "drop1"
}
layer {
  name: "conv4"
  type: "Convolution"
  bottom: "drop1"
  top: "conv4"
  convolution_param {
    num_output: 192
    kernel_size: 3
    weight_filler {
      type: "xavier"
    }
  }
}
layer {
  name: "relu4"
  type: "ReLU"
  bottom: "conv4"
  top: "conv4"
}
layer {
  name: "conv5"
  type: "Convolution"
  bottom: "conv4"
  top: "conv5"
  convolution_param {
    num_output: 192
    kernel_size: 3
    weight_filler {
      type: "xavier"
    }
  }
}
layer {
  name: "bn2"
  type: "BatchNorm"
  bottom: "conv5"
  top: "bn2"
}
layer {
  name: "relu5"
  type: "ReLU"
  bottom: "bn2"
  top: "bn2"
}
layer {
  name: "conv6"
  type: "Convolution"
  bottom: "bn2"
  top: "conv6"
  convolution_param {
    num_output: 192
    kernel_size: 3
    stride: 2
    weight_filler {
      type: "xavier"
    }
  }
}
layer {
  name: "drop4"
  type: "Dropout"
  bottom: "conv6"
  top: "drop4"
  dropout_param {
    dropout_ratio: 0.5
  }
}
layer {
  name: "relu6"
  type: "ReLU"
  bottom: "drop4"
  top: "drop4"
}
layer {
  name: "conv7"
  type: "Convolution"
  bottom: "drop4"
  top: "conv7"
  convolution_param {
    num_output: 192
    kernel_size: 3
    weight_filler {
      type: "xavier"
    }
  }
}
layer {
  name: "relu7"
  type: "ReLU"
  bottom: "conv7"
  top: "conv7"
}
layer {
  name: "conv8"
  type: "Convolution"
  bottom: "conv7"
  top: "conv8"
  convolution_param {
    num_output: 192
    kernel_size: 1
    weight_filler {
      type: "xavier"
    }
  }
}
layer {
  name: "relu8"
  type: "ReLU"
  bottom: "conv8"
  top: "conv8"
}
layer {
  name: "conv9"
  type: "Convolution"
  bottom: "conv8"
  top: "conv9"
  convolution_param {
    num_output: 10
    kernel_size: 1
    weight_filler {
      type: "xavier"
    }
  }
}
layer {
  name: "relu9"
  type: "ReLU"
  bottom: "conv9"
  top: "conv9"
}
layer {
  name: "pool"
  type: "Pooling"
  bottom: "conv9"
  top: "pool"
  pooling_param {
    pool: AVE
    global_pooling: true
  }
}
layer {
  name: "flatten"
  type: "Flatten"
  bottom: "pool"
  top: "flatten"
}
layer {
  name: "score"
  type: "InnerProduct"
  bottom: "flatten"
  top: "score"
  inner_product_param {
    num_output: 10
    weight_filler {
      type: "gaussian"
    }
  }
}
layer {
  name: "accuracy"
  type: "Accuracy"
  bottom: "score"
  bottom: "label"
  top: "accuracy"
}
layer {
  name: "loss"
  type: "SoftmaxWithLoss"
  bottom: "score"
  bottom: "label"
  top: "loss"
}
I1012 18:49:19.118412  6510 layer_factory.hpp:77] Creating layer data
I1012 18:49:19.118854  6510 net.cpp:100] Creating Layer data
I1012 18:49:19.118862  6510 net.cpp:408] data -> data
I1012 18:49:19.118901  6510 net.cpp:408] data -> label
I1012 18:49:19.118911  6510 data_transformer.cpp:25] Loading mean file from: mean.binaryproto
I1012 18:49:19.119581  6516 db_lmdb.cpp:35] Opened lmdb ../../../data/cifar-10/cifar10_train_lmdb
I1012 18:49:19.125941  6510 data_layer.cpp:41] output data size: 64,3,32,32
I1012 18:49:19.127488  6510 net.cpp:150] Setting up data
I1012 18:49:19.127521  6510 net.cpp:157] Top shape: 64 3 32 32 (196608)
I1012 18:49:19.127523  6510 net.cpp:157] Top shape: 64 (64)
I1012 18:49:19.127526  6510 net.cpp:165] Memory required for data: 786688
I1012 18:49:19.127533  6510 layer_factory.hpp:77] Creating layer label_data_1_split
I1012 18:49:19.127543  6510 net.cpp:100] Creating Layer label_data_1_split
I1012 18:49:19.127565  6510 net.cpp:434] label_data_1_split <- label
I1012 18:49:19.127588  6510 net.cpp:408] label_data_1_split -> label_data_1_split_0
I1012 18:49:19.127609  6510 net.cpp:408] label_data_1_split -> label_data_1_split_1
I1012 18:49:19.127668  6510 net.cpp:150] Setting up label_data_1_split
I1012 18:49:19.127673  6510 net.cpp:157] Top shape: 64 (64)
I1012 18:49:19.127676  6510 net.cpp:157] Top shape: 64 (64)
I1012 18:49:19.127677  6510 net.cpp:165] Memory required for data: 787200
I1012 18:49:19.127681  6510 layer_factory.hpp:77] Creating layer conv1
I1012 18:49:19.127706  6510 net.cpp:100] Creating Layer conv1
I1012 18:49:19.127709  6510 net.cpp:434] conv1 <- data
I1012 18:49:19.127712  6510 net.cpp:408] conv1 -> conv1
I1012 18:49:19.262166  6510 net.cpp:150] Setting up conv1
I1012 18:49:19.262189  6510 net.cpp:157] Top shape: 64 96 30 30 (5529600)
I1012 18:49:19.262192  6510 net.cpp:165] Memory required for data: 22905600
I1012 18:49:19.262209  6510 layer_factory.hpp:77] Creating layer relu1
I1012 18:49:19.262217  6510 net.cpp:100] Creating Layer relu1
I1012 18:49:19.262220  6510 net.cpp:434] relu1 <- conv1
I1012 18:49:19.262224  6510 net.cpp:395] relu1 -> conv1 (in-place)
I1012 18:49:19.262450  6510 net.cpp:150] Setting up relu1
I1012 18:49:19.262459  6510 net.cpp:157] Top shape: 64 96 30 30 (5529600)
I1012 18:49:19.262460  6510 net.cpp:165] Memory required for data: 45024000
I1012 18:49:19.262462  6510 layer_factory.hpp:77] Creating layer conv2
I1012 18:49:19.262471  6510 net.cpp:100] Creating Layer conv2
I1012 18:49:19.262473  6510 net.cpp:434] conv2 <- conv1
I1012 18:49:19.262476  6510 net.cpp:408] conv2 -> conv2
I1012 18:49:19.263859  6510 net.cpp:150] Setting up conv2
I1012 18:49:19.263870  6510 net.cpp:157] Top shape: 64 96 28 28 (4816896)
I1012 18:49:19.263871  6510 net.cpp:165] Memory required for data: 64291584
I1012 18:49:19.263878  6510 layer_factory.hpp:77] Creating layer bn1
I1012 18:49:19.263885  6510 net.cpp:100] Creating Layer bn1
I1012 18:49:19.263886  6510 net.cpp:434] bn1 <- conv2
I1012 18:49:19.263890  6510 net.cpp:408] bn1 -> bn1
I1012 18:49:19.264081  6510 net.cpp:150] Setting up bn1
I1012 18:49:19.264086  6510 net.cpp:157] Top shape: 64 96 28 28 (4816896)
I1012 18:49:19.264087  6510 net.cpp:165] Memory required for data: 83559168
I1012 18:49:19.264093  6510 layer_factory.hpp:77] Creating layer relu2
I1012 18:49:19.264097  6510 net.cpp:100] Creating Layer relu2
I1012 18:49:19.264099  6510 net.cpp:434] relu2 <- bn1
I1012 18:49:19.264102  6510 net.cpp:395] relu2 -> bn1 (in-place)
I1012 18:49:19.264291  6510 net.cpp:150] Setting up relu2
I1012 18:49:19.264297  6510 net.cpp:157] Top shape: 64 96 28 28 (4816896)
I1012 18:49:19.264298  6510 net.cpp:165] Memory required for data: 102826752
I1012 18:49:19.264312  6510 layer_factory.hpp:77] Creating layer conv3
I1012 18:49:19.264317  6510 net.cpp:100] Creating Layer conv3
I1012 18:49:19.264320  6510 net.cpp:434] conv3 <- bn1
I1012 18:49:19.264323  6510 net.cpp:408] conv3 -> conv3
I1012 18:49:19.265519  6510 net.cpp:150] Setting up conv3
I1012 18:49:19.265529  6510 net.cpp:157] Top shape: 64 96 13 13 (1038336)
I1012 18:49:19.265532  6510 net.cpp:165] Memory required for data: 106980096
I1012 18:49:19.265537  6510 layer_factory.hpp:77] Creating layer drop1
I1012 18:49:19.265544  6510 net.cpp:100] Creating Layer drop1
I1012 18:49:19.265547  6510 net.cpp:434] drop1 <- conv3
I1012 18:49:19.265549  6510 net.cpp:408] drop1 -> drop1
I1012 18:49:19.265612  6510 net.cpp:150] Setting up drop1
I1012 18:49:19.265617  6510 net.cpp:157] Top shape: 64 96 13 13 (1038336)
I1012 18:49:19.265632  6510 net.cpp:165] Memory required for data: 111133440
I1012 18:49:19.265635  6510 layer_factory.hpp:77] Creating layer relu3
I1012 18:49:19.265637  6510 net.cpp:100] Creating Layer relu3
I1012 18:49:19.265640  6510 net.cpp:434] relu3 <- drop1
I1012 18:49:19.265657  6510 net.cpp:395] relu3 -> drop1 (in-place)
I1012 18:49:19.265938  6510 net.cpp:150] Setting up relu3
I1012 18:49:19.265946  6510 net.cpp:157] Top shape: 64 96 13 13 (1038336)
I1012 18:49:19.265949  6510 net.cpp:165] Memory required for data: 115286784
I1012 18:49:19.265950  6510 layer_factory.hpp:77] Creating layer conv4
I1012 18:49:19.265956  6510 net.cpp:100] Creating Layer conv4
I1012 18:49:19.265959  6510 net.cpp:434] conv4 <- drop1
I1012 18:49:19.265961  6510 net.cpp:408] conv4 -> conv4
I1012 18:49:19.267866  6510 net.cpp:150] Setting up conv4
I1012 18:49:19.267876  6510 net.cpp:157] Top shape: 64 192 11 11 (1486848)
I1012 18:49:19.267879  6510 net.cpp:165] Memory required for data: 121234176
I1012 18:49:19.267884  6510 layer_factory.hpp:77] Creating layer relu4
I1012 18:49:19.267889  6510 net.cpp:100] Creating Layer relu4
I1012 18:49:19.267890  6510 net.cpp:434] relu4 <- conv4
I1012 18:49:19.267894  6510 net.cpp:395] relu4 -> conv4 (in-place)
I1012 18:49:19.268072  6510 net.cpp:150] Setting up relu4
I1012 18:49:19.268079  6510 net.cpp:157] Top shape: 64 192 11 11 (1486848)
I1012 18:49:19.268081  6510 net.cpp:165] Memory required for data: 127181568
I1012 18:49:19.268084  6510 layer_factory.hpp:77] Creating layer conv5
I1012 18:49:19.268090  6510 net.cpp:100] Creating Layer conv5
I1012 18:49:19.268091  6510 net.cpp:434] conv5 <- conv4
I1012 18:49:19.268095  6510 net.cpp:408] conv5 -> conv5
I1012 18:49:19.270628  6510 net.cpp:150] Setting up conv5
I1012 18:49:19.270639  6510 net.cpp:157] Top shape: 64 192 9 9 (995328)
I1012 18:49:19.270642  6510 net.cpp:165] Memory required for data: 131162880
I1012 18:49:19.270647  6510 layer_factory.hpp:77] Creating layer bn2
I1012 18:49:19.270650  6510 net.cpp:100] Creating Layer bn2
I1012 18:49:19.270653  6510 net.cpp:434] bn2 <- conv5
I1012 18:49:19.270656  6510 net.cpp:408] bn2 -> bn2
I1012 18:49:19.270850  6510 net.cpp:150] Setting up bn2
I1012 18:49:19.270855  6510 net.cpp:157] Top shape: 64 192 9 9 (995328)
I1012 18:49:19.270858  6510 net.cpp:165] Memory required for data: 135144192
I1012 18:49:19.270861  6510 layer_factory.hpp:77] Creating layer relu5
I1012 18:49:19.270865  6510 net.cpp:100] Creating Layer relu5
I1012 18:49:19.270867  6510 net.cpp:434] relu5 <- bn2
I1012 18:49:19.270870  6510 net.cpp:395] relu5 -> bn2 (in-place)
I1012 18:49:19.271041  6510 net.cpp:150] Setting up relu5
I1012 18:49:19.271047  6510 net.cpp:157] Top shape: 64 192 9 9 (995328)
I1012 18:49:19.271049  6510 net.cpp:165] Memory required for data: 139125504
I1012 18:49:19.271051  6510 layer_factory.hpp:77] Creating layer conv6
I1012 18:49:19.271057  6510 net.cpp:100] Creating Layer conv6
I1012 18:49:19.271059  6510 net.cpp:434] conv6 <- bn2
I1012 18:49:19.271062  6510 net.cpp:408] conv6 -> conv6
I1012 18:49:19.273607  6510 net.cpp:150] Setting up conv6
I1012 18:49:19.273633  6510 net.cpp:157] Top shape: 64 192 4 4 (196608)
I1012 18:49:19.273635  6510 net.cpp:165] Memory required for data: 139911936
I1012 18:49:19.273685  6510 layer_factory.hpp:77] Creating layer drop4
I1012 18:49:19.273707  6510 net.cpp:100] Creating Layer drop4
I1012 18:49:19.273710  6510 net.cpp:434] drop4 <- conv6
I1012 18:49:19.273715  6510 net.cpp:408] drop4 -> drop4
I1012 18:49:19.273787  6510 net.cpp:150] Setting up drop4
I1012 18:49:19.273792  6510 net.cpp:157] Top shape: 64 192 4 4 (196608)
I1012 18:49:19.273793  6510 net.cpp:165] Memory required for data: 140698368
I1012 18:49:19.273810  6510 layer_factory.hpp:77] Creating layer relu6
I1012 18:49:19.273813  6510 net.cpp:100] Creating Layer relu6
I1012 18:49:19.273815  6510 net.cpp:434] relu6 <- drop4
I1012 18:49:19.273831  6510 net.cpp:395] relu6 -> drop4 (in-place)
I1012 18:49:19.274116  6510 net.cpp:150] Setting up relu6
I1012 18:49:19.274139  6510 net.cpp:157] Top shape: 64 192 4 4 (196608)
I1012 18:49:19.274142  6510 net.cpp:165] Memory required for data: 141484800
I1012 18:49:19.274143  6510 layer_factory.hpp:77] Creating layer conv7
I1012 18:49:19.274163  6510 net.cpp:100] Creating Layer conv7
I1012 18:49:19.274165  6510 net.cpp:434] conv7 <- drop4
I1012 18:49:19.274169  6510 net.cpp:408] conv7 -> conv7
I1012 18:49:19.277479  6510 net.cpp:150] Setting up conv7
I1012 18:49:19.277498  6510 net.cpp:157] Top shape: 64 192 2 2 (49152)
I1012 18:49:19.277501  6510 net.cpp:165] Memory required for data: 141681408
I1012 18:49:19.277523  6510 layer_factory.hpp:77] Creating layer relu7
I1012 18:49:19.277529  6510 net.cpp:100] Creating Layer relu7
I1012 18:49:19.277544  6510 net.cpp:434] relu7 <- conv7
I1012 18:49:19.277549  6510 net.cpp:395] relu7 -> conv7 (in-place)
I1012 18:49:19.277834  6510 net.cpp:150] Setting up relu7
I1012 18:49:19.277842  6510 net.cpp:157] Top shape: 64 192 2 2 (49152)
I1012 18:49:19.277844  6510 net.cpp:165] Memory required for data: 141878016
I1012 18:49:19.277847  6510 layer_factory.hpp:77] Creating layer conv8
I1012 18:49:19.277854  6510 net.cpp:100] Creating Layer conv8
I1012 18:49:19.277856  6510 net.cpp:434] conv8 <- conv7
I1012 18:49:19.277861  6510 net.cpp:408] conv8 -> conv8
I1012 18:49:19.279116  6510 net.cpp:150] Setting up conv8
I1012 18:49:19.279126  6510 net.cpp:157] Top shape: 64 192 2 2 (49152)
I1012 18:49:19.279129  6510 net.cpp:165] Memory required for data: 142074624
I1012 18:49:19.279134  6510 layer_factory.hpp:77] Creating layer relu8
I1012 18:49:19.279137  6510 net.cpp:100] Creating Layer relu8
I1012 18:49:19.279140  6510 net.cpp:434] relu8 <- conv8
I1012 18:49:19.279144  6510 net.cpp:395] relu8 -> conv8 (in-place)
I1012 18:49:19.279314  6510 net.cpp:150] Setting up relu8
I1012 18:49:19.279320  6510 net.cpp:157] Top shape: 64 192 2 2 (49152)
I1012 18:49:19.279323  6510 net.cpp:165] Memory required for data: 142271232
I1012 18:49:19.279325  6510 layer_factory.hpp:77] Creating layer conv9
I1012 18:49:19.279330  6510 net.cpp:100] Creating Layer conv9
I1012 18:49:19.279332  6510 net.cpp:434] conv9 <- conv8
I1012 18:49:19.279335  6510 net.cpp:408] conv9 -> conv9
I1012 18:49:19.280149  6510 net.cpp:150] Setting up conv9
I1012 18:49:19.280158  6510 net.cpp:157] Top shape: 64 10 2 2 (2560)
I1012 18:49:19.280160  6510 net.cpp:165] Memory required for data: 142281472
I1012 18:49:19.280164  6510 layer_factory.hpp:77] Creating layer relu9
I1012 18:49:19.280169  6510 net.cpp:100] Creating Layer relu9
I1012 18:49:19.280170  6510 net.cpp:434] relu9 <- conv9
I1012 18:49:19.280174  6510 net.cpp:395] relu9 -> conv9 (in-place)
I1012 18:49:19.280444  6510 net.cpp:150] Setting up relu9
I1012 18:49:19.280452  6510 net.cpp:157] Top shape: 64 10 2 2 (2560)
I1012 18:49:19.280454  6510 net.cpp:165] Memory required for data: 142291712
I1012 18:49:19.280457  6510 layer_factory.hpp:77] Creating layer pool
I1012 18:49:19.280462  6510 net.cpp:100] Creating Layer pool
I1012 18:49:19.280464  6510 net.cpp:434] pool <- conv9
I1012 18:49:19.280467  6510 net.cpp:408] pool -> pool
I1012 18:49:19.280674  6510 net.cpp:150] Setting up pool
I1012 18:49:19.280680  6510 net.cpp:157] Top shape: 64 10 1 1 (640)
I1012 18:49:19.280683  6510 net.cpp:165] Memory required for data: 142294272
I1012 18:49:19.280694  6510 layer_factory.hpp:77] Creating layer flatten
I1012 18:49:19.280699  6510 net.cpp:100] Creating Layer flatten
I1012 18:49:19.280700  6510 net.cpp:434] flatten <- pool
I1012 18:49:19.280704  6510 net.cpp:408] flatten -> flatten
I1012 18:49:19.280738  6510 net.cpp:150] Setting up flatten
I1012 18:49:19.280742  6510 net.cpp:157] Top shape: 64 10 (640)
I1012 18:49:19.280745  6510 net.cpp:165] Memory required for data: 142296832
I1012 18:49:19.280746  6510 layer_factory.hpp:77] Creating layer score
I1012 18:49:19.280751  6510 net.cpp:100] Creating Layer score
I1012 18:49:19.280753  6510 net.cpp:434] score <- flatten
I1012 18:49:19.280772  6510 net.cpp:408] score -> score
I1012 18:49:19.280928  6510 net.cpp:150] Setting up score
I1012 18:49:19.280933  6510 net.cpp:157] Top shape: 64 10 (640)
I1012 18:49:19.280936  6510 net.cpp:165] Memory required for data: 142299392
I1012 18:49:19.280939  6510 layer_factory.hpp:77] Creating layer score_score_0_split
I1012 18:49:19.280942  6510 net.cpp:100] Creating Layer score_score_0_split
I1012 18:49:19.280944  6510 net.cpp:434] score_score_0_split <- score
I1012 18:49:19.280948  6510 net.cpp:408] score_score_0_split -> score_score_0_split_0
I1012 18:49:19.280952  6510 net.cpp:408] score_score_0_split -> score_score_0_split_1
I1012 18:49:19.280993  6510 net.cpp:150] Setting up score_score_0_split
I1012 18:49:19.280997  6510 net.cpp:157] Top shape: 64 10 (640)
I1012 18:49:19.280999  6510 net.cpp:157] Top shape: 64 10 (640)
I1012 18:49:19.281002  6510 net.cpp:165] Memory required for data: 142304512
I1012 18:49:19.281016  6510 layer_factory.hpp:77] Creating layer accuracy
I1012 18:49:19.281021  6510 net.cpp:100] Creating Layer accuracy
I1012 18:49:19.281023  6510 net.cpp:434] accuracy <- score_score_0_split_0
I1012 18:49:19.281042  6510 net.cpp:434] accuracy <- label_data_1_split_0
I1012 18:49:19.281046  6510 net.cpp:408] accuracy -> accuracy
…
I1012 18:49:19.281649  6510 net.cpp:283] Network initialization done.
I1012 18:49:19.281855  6510 solver.cpp:181] Creating test net (#0) specified by test_net file: /home/adam/Honours/Honours-Project/cifar-10_allcnn/relu/allcnn_relu_test.prototxt
I1012 18:49:19.282025  6510 net.cpp:58] Initializing net from parameters: 
state {
  phase: TEST
}
layer {
  name: "data"
  type: "Data"
  top: "data"
  top: "label"
  transform_param {
    mean_file: "mean.binaryproto"
  }
  data_param {
    source: "../../../data/cifar-10/cifar10_test_lmdb"
    batch_size: 100
    backend: LMDB
  }
}
layer {
  name: "conv1"
  type: "Convolution"
  bottom: "data"
  top: "conv1"
  convolution_param {
    num_output: 96
    kernel_size: 3
    weight_filler {
      type: "xavier"
    }
  }
}
layer {
  name: "relu1"
  type: "ReLU"
  bottom: "conv1"
  top: "conv1"
}
layer {
  name: "conv2"
  type: "Convolution"
  bottom: "conv1"
  top: "conv2"
  convolution_param {
    num_output: 96
    kernel_size: 3
    weight_filler {
      type: "xavier"
    }
  }
}
layer {
  name: "bn1"
  type: "BatchNorm"
  bottom: "conv2"
  top: "bn1"
}
layer {
  name: "relu2"
  type: "ReLU"
  bottom: "bn1"
  top: "bn1"
}
layer {
  name: "conv3"
  type: "Convolution"
  bottom: "bn1"
  top: "conv3"
  convolution_param {
    num_output: 96
    kernel_size: 3
    stride: 2
    weight_filler {
      type: "xavier"
    }
  }
}
layer {
  name: "drop1"
  type: "Dropout"
  bottom: "conv3"
  top: "drop1"
  dropout_param {
    dropout_ratio: 0.5
  }
}
layer {
  name: "relu3"
  type: "ReLU"
  bottom: "drop1"
  top: "drop1"
}
layer {
  name: "conv4"
  type: "Convolution"
  bottom: "drop1"
  top: "conv4"
  convolution_param {
    num_output: 192
    kernel_size: 3
    weight_filler {
      type: "xavier"
    }
  }
}
layer {
  name: "relu4"
  type: "ReLU"
  bottom: "conv4"
  top: "conv4"
}
layer {
  name: "conv5"
  type: "Convolution"
  bottom: "conv4"
  top: "conv5"
  convolution_param {
    num_output: 192
    kernel_size: 3
    weight_filler {
      type: "xavier"
    }
  }
}
layer {
  name: "bn2"
  type: "BatchNorm"
  bottom: "conv5"
  top: "bn2"
}
layer {
  name: "relu5"
  type: "ReLU"
  bottom: "bn2"
  top: "bn2"
}
layer {
  name: "conv6"
  type: "Convolution"
  bottom: "bn2"
  top: "conv6"
  convolution_param {
    num_output: 192
    kernel_size: 3
    stride: 2
    weight_filler {
      type: "xavier"
    }
  }
}
layer {
  name: "drop4"
  type: "Dropout"
  bottom: "conv6"
  top: "drop4"
  dropout_param {
    dropout_ratio: 0.5
  }
}
layer {
  name: "relu6"
  type: "ReLU"
  bottom: "drop4"
  top: "drop4"
}
layer {
  name: "conv7"
  type: "Convolution"
  bottom: "drop4"
  top: "conv7"
  convolution_param {
    num_output: 192
    kernel_size: 3
    weight_filler {
      type: "xavier"
    }
  }
}
layer {
  name: "relu7"
  type: "ReLU"
  bottom: "conv7"
  top: "conv7"
}
layer {
  name: "conv8"
  type: "Convolution"
  bottom: "conv7"
  top: "conv8"
  convolution_param {
    num_output: 192
    kernel_size: 1
    weight_filler {
      type: "xavier"
    }
  }
}
layer {
  name: "relu8"
  type: "ReLU"
  bottom: "conv8"
  top: "conv8"
}
layer {
  name: "conv9"
  type: "Convolution"
  bottom: "conv8"
  top: "conv9"
  convolution_param {
    num_output: 10
    kernel_size: 1
    weight_filler {
      type: "xavier"
    }
  }
}
layer {
  name: "relu9"
  type: "ReLU"
  bottom: "conv9"
  top: "conv9"
}
layer {
  name: "pool"
  type: "Pooling"
  bottom: "conv9"
  top: "pool"
  pooling_param {
    pool: AVE
    global_pooling: true
  }
}
layer {
  name: "flatten"
  type: "Flatten"
  bottom: "pool"
  top: "flatten"
}
layer {
  name: "score"
  type: "InnerProduct"
  bottom: "flatten"
  top: "score"
  inner_product_param {
    num_output: 10
    weight_filler {
      type: "gaussian"
    }
  }
}
layer {
  name: "accuracy"
  type: "Accuracy"
  bottom: "score"
  bottom: "label"
  top: "accuracy"
}
layer {
  name: "loss"
  type: "SoftmaxWithLoss"
  bottom: "score"
  bottom: "label"
  top: "loss"
}
I1012 18:49:19.282155  6510 layer_factory.hpp:77] Creating layer data
I1012 18:49:19.282238  6510 net.cpp:100] Creating Layer data
I1012 18:49:19.282243  6510 net.cpp:408] data -> data
I1012 18:49:19.282249  6510 net.cpp:408] data -> label
I1012 18:49:19.282254  6510 data_transformer.cpp:25] Loading mean file from: mean.binaryproto
I1012 18:49:19.283046  6518 db_lmdb.cpp:35] Opened lmdb ../../../data/cifar-10/cifar10_test_lmdb
I1012 18:49:19.283164  6510 data_layer.cpp:41] output data size: 100,3,32,32
I1012 18:49:19.285066  6510 net.cpp:150] Setting up data
I1012 18:49:19.285086  6510 net.cpp:157] Top shape: 100 3 32 32 (307200)
I1012 18:49:19.285089  6510 net.cpp:157] Top shape: 100 (100)
I1012 18:49:19.285104  6510 net.cpp:165] Memory required for data: 1229200
I1012 18:49:19.285109  6510 layer_factory.hpp:77] Creating layer label_data_1_split
I1012 18:49:19.285120  6510 net.cpp:100] Creating Layer label_data_1_split
I1012 18:49:19.285122  6510 net.cpp:434] label_data_1_split <- label
I1012 18:49:19.285127  6510 net.cpp:408] label_data_1_split -> label_data_1_split_0
I1012 18:49:19.285151  6510 net.cpp:408] label_data_1_split -> label_data_1_split_1
I1012 18:49:19.285231  6510 net.cpp:150] Setting up label_data_1_split
I1012 18:49:19.285236  6510 net.cpp:157] Top shape: 100 (100)
I1012 18:49:19.285239  6510 net.cpp:157] Top shape: 100 (100)
I1012 18:49:19.285241  6510 net.cpp:165] Memory required for data: 1230000
I1012 18:49:19.285244  6510 layer_factory.hpp:77] Creating layer conv1
I1012 18:49:19.285254  6510 net.cpp:100] Creating Layer conv1
I1012 18:49:19.285257  6510 net.cpp:434] conv1 <- data
I1012 18:49:19.285281  6510 net.cpp:408] conv1 -> conv1
I1012 18:49:19.286607  6510 net.cpp:150] Setting up conv1
I1012 18:49:19.286618  6510 net.cpp:157] Top shape: 100 96 30 30 (8640000)
I1012 18:49:19.286638  6510 net.cpp:165] Memory required for data: 35790000
I1012 18:49:19.286664  6510 layer_factory.hpp:77] Creating layer relu1
I1012 18:49:19.286674  6510 net.cpp:100] Creating Layer relu1
I1012 18:49:19.286677  6510 net.cpp:434] relu1 <- conv1
I1012 18:49:19.286685  6510 net.cpp:395] relu1 -> conv1 (in-place)
I1012 18:49:19.286856  6510 net.cpp:150] Setting up relu1
I1012 18:49:19.286880  6510 net.cpp:157] Top shape: 100 96 30 30 (8640000)
I1012 18:49:19.286882  6510 net.cpp:165] Memory required for data: 70350000
I1012 18:49:19.286892  6510 layer_factory.hpp:77] Creating layer conv2
I1012 18:49:19.286902  6510 net.cpp:100] Creating Layer conv2
I1012 18:49:19.286921  6510 net.cpp:434] conv2 <- conv1
I1012 18:49:19.286924  6510 net.cpp:408] conv2 -> conv2
I1012 18:49:19.288422  6510 net.cpp:150] Setting up conv2
I1012 18:49:19.288434  6510 net.cpp:157] Top shape: 100 96 28 28 (7526400)
I1012 18:49:19.288436  6510 net.cpp:165] Memory required for data: 100455600
I1012 18:49:19.288442  6510 layer_factory.hpp:77] Creating layer bn1
I1012 18:49:19.288450  6510 net.cpp:100] Creating Layer bn1
I1012 18:49:19.288451  6510 net.cpp:434] bn1 <- conv2
I1012 18:49:19.288455  6510 net.cpp:408] bn1 -> bn1
I1012 18:49:19.288646  6510 net.cpp:150] Setting up bn1
I1012 18:49:19.288653  6510 net.cpp:157] Top shape: 100 96 28 28 (7526400)
I1012 18:49:19.288655  6510 net.cpp:165] Memory required for data: 130561200
I1012 18:49:19.288662  6510 layer_factory.hpp:77] Creating layer relu2
I1012 18:49:19.288666  6510 net.cpp:100] Creating Layer relu2
I1012 18:49:19.288671  6510 net.cpp:434] relu2 <- bn1
I1012 18:49:19.288674  6510 net.cpp:395] relu2 -> bn1 (in-place)
I1012 18:49:19.288914  6510 net.cpp:150] Setting up relu2
I1012 18:49:19.288923  6510 net.cpp:157] Top shape: 100 96 28 28 (7526400)
I1012 18:49:19.288925  6510 net.cpp:165] Memory required for data: 160666800
I1012 18:49:19.288928  6510 layer_factory.hpp:77] Creating layer conv3
I1012 18:49:19.288936  6510 net.cpp:100] Creating Layer conv3
I1012 18:49:19.288940  6510 net.cpp:434] conv3 <- bn1
I1012 18:49:19.288945  6510 net.cpp:408] conv3 -> conv3
I1012 18:49:19.290093  6510 net.cpp:150] Setting up conv3
I1012 18:49:19.290103  6510 net.cpp:157] Top shape: 100 96 13 13 (1622400)
I1012 18:49:19.290105  6510 net.cpp:165] Memory required for data: 167156400
I1012 18:49:19.290112  6510 layer_factory.hpp:77] Creating layer drop1
I1012 18:49:19.290119  6510 net.cpp:100] Creating Layer drop1
I1012 18:49:19.290122  6510 net.cpp:434] drop1 <- conv3
I1012 18:49:19.290127  6510 net.cpp:408] drop1 -> drop1
I1012 18:49:19.290161  6510 net.cpp:150] Setting up drop1
I1012 18:49:19.290166  6510 net.cpp:157] Top shape: 100 96 13 13 (1622400)
I1012 18:49:19.290169  6510 net.cpp:165] Memory required for data: 173646000
I1012 18:49:19.290170  6510 layer_factory.hpp:77] Creating layer relu3
I1012 18:49:19.290174  6510 net.cpp:100] Creating Layer relu3
I1012 18:49:19.290175  6510 net.cpp:434] relu3 <- drop1
I1012 18:49:19.290179  6510 net.cpp:395] relu3 -> drop1 (in-place)
I1012 18:49:19.290412  6510 net.cpp:150] Setting up relu3
I1012 18:49:19.290434  6510 net.cpp:157] Top shape: 100 96 13 13 (1622400)
I1012 18:49:19.290436  6510 net.cpp:165] Memory required for data: 180135600
I1012 18:49:19.290439  6510 layer_factory.hpp:77] Creating layer conv4
I1012 18:49:19.290446  6510 net.cpp:100] Creating Layer conv4
I1012 18:49:19.290448  6510 net.cpp:434] conv4 <- drop1
I1012 18:49:19.290454  6510 net.cpp:408] conv4 -> conv4
I1012 18:49:19.292379  6510 net.cpp:150] Setting up conv4
I1012 18:49:19.292392  6510 net.cpp:157] Top shape: 100 192 11 11 (2323200)
I1012 18:49:19.292395  6510 net.cpp:165] Memory required for data: 189428400
I1012 18:49:19.292402  6510 layer_factory.hpp:77] Creating layer relu4
I1012 18:49:19.292407  6510 net.cpp:100] Creating Layer relu4
I1012 18:49:19.292412  6510 net.cpp:434] relu4 <- conv4
I1012 18:49:19.292415  6510 net.cpp:395] relu4 -> conv4 (in-place)
I1012 18:49:19.292572  6510 net.cpp:150] Setting up relu4
I1012 18:49:19.292578  6510 net.cpp:157] Top shape: 100 192 11 11 (2323200)
I1012 18:49:19.292580  6510 net.cpp:165] Memory required for data: 198721200
I1012 18:49:19.292583  6510 layer_factory.hpp:77] Creating layer conv5
I1012 18:49:19.292604  6510 net.cpp:100] Creating Layer conv5
I1012 18:49:19.292606  6510 net.cpp:434] conv5 <- conv4
I1012 18:49:19.292610  6510 net.cpp:408] conv5 -> conv5
I1012 18:49:19.295683  6510 net.cpp:150] Setting up conv5
I1012 18:49:19.295717  6510 net.cpp:157] Top shape: 100 192 9 9 (1555200)
I1012 18:49:19.295719  6510 net.cpp:165] Memory required for data: 204942000
I1012 18:49:19.295725  6510 layer_factory.hpp:77] Creating layer bn2
I1012 18:49:19.295733  6510 net.cpp:100] Creating Layer bn2
I1012 18:49:19.295737  6510 net.cpp:434] bn2 <- conv5
I1012 18:49:19.295755  6510 net.cpp:408] bn2 -> bn2
I1012 18:49:19.295969  6510 net.cpp:150] Setting up bn2
I1012 18:49:19.295974  6510 net.cpp:157] Top shape: 100 192 9 9 (1555200)
I1012 18:49:19.295989  6510 net.cpp:165] Memory required for data: 211162800
I1012 18:49:19.295994  6510 layer_factory.hpp:77] Creating layer relu5
I1012 18:49:19.296011  6510 net.cpp:100] Creating Layer relu5
I1012 18:49:19.296013  6510 net.cpp:434] relu5 <- bn2
I1012 18:49:19.296015  6510 net.cpp:395] relu5 -> bn2 (in-place)
I1012 18:49:19.296329  6510 net.cpp:150] Setting up relu5
I1012 18:49:19.296337  6510 net.cpp:157] Top shape: 100 192 9 9 (1555200)
I1012 18:49:19.296340  6510 net.cpp:165] Memory required for data: 217383600
I1012 18:49:19.296342  6510 layer_factory.hpp:77] Creating layer conv6
I1012 18:49:19.296349  6510 net.cpp:100] Creating Layer conv6
I1012 18:49:19.296350  6510 net.cpp:434] conv6 <- bn2
I1012 18:49:19.296355  6510 net.cpp:408] conv6 -> conv6
I1012 18:49:19.299113  6510 net.cpp:150] Setting up conv6
I1012 18:49:19.299124  6510 net.cpp:157] Top shape: 100 192 4 4 (307200)
I1012 18:49:19.299126  6510 net.cpp:165] Memory required for data: 218612400
I1012 18:49:19.299134  6510 layer_factory.hpp:77] Creating layer drop4
I1012 18:49:19.299141  6510 net.cpp:100] Creating Layer drop4
I1012 18:49:19.299144  6510 net.cpp:434] drop4 <- conv6
I1012 18:49:19.299147  6510 net.cpp:408] drop4 -> drop4
I1012 18:49:19.299208  6510 net.cpp:150] Setting up drop4
I1012 18:49:19.299213  6510 net.cpp:157] Top shape: 100 192 4 4 (307200)
I1012 18:49:19.299228  6510 net.cpp:165] Memory required for data: 219841200
I1012 18:49:19.299231  6510 layer_factory.hpp:77] Creating layer relu6
I1012 18:49:19.299233  6510 net.cpp:100] Creating Layer relu6
I1012 18:49:19.299234  6510 net.cpp:434] relu6 <- drop4
I1012 18:49:19.299252  6510 net.cpp:395] relu6 -> drop4 (in-place)
I1012 18:49:19.299523  6510 net.cpp:150] Setting up relu6
I1012 18:49:19.299531  6510 net.cpp:157] Top shape: 100 192 4 4 (307200)
I1012 18:49:19.299533  6510 net.cpp:165] Memory required for data: 221070000
I1012 18:49:19.299535  6510 layer_factory.hpp:77] Creating layer conv7
I1012 18:49:19.299541  6510 net.cpp:100] Creating Layer conv7
I1012 18:49:19.299543  6510 net.cpp:434] conv7 <- drop4
I1012 18:49:19.299547  6510 net.cpp:408] conv7 -> conv7
I1012 18:49:19.302105  6510 net.cpp:150] Setting up conv7
I1012 18:49:19.302115  6510 net.cpp:157] Top shape: 100 192 2 2 (76800)
I1012 18:49:19.302117  6510 net.cpp:165] Memory required for data: 221377200
I1012 18:49:19.302121  6510 layer_factory.hpp:77] Creating layer relu7
I1012 18:49:19.302125  6510 net.cpp:100] Creating Layer relu7
I1012 18:49:19.302127  6510 net.cpp:434] relu7 <- conv7
I1012 18:49:19.302131  6510 net.cpp:395] relu7 -> conv7 (in-place)
I1012 18:49:19.302309  6510 net.cpp:150] Setting up relu7
I1012 18:49:19.302316  6510 net.cpp:157] Top shape: 100 192 2 2 (76800)
I1012 18:49:19.302320  6510 net.cpp:165] Memory required for data: 221684400
I1012 18:49:19.302321  6510 layer_factory.hpp:77] Creating layer conv8
I1012 18:49:19.302326  6510 net.cpp:100] Creating Layer conv8
I1012 18:49:19.302330  6510 net.cpp:434] conv8 <- conv7
I1012 18:49:19.302333  6510 net.cpp:408] conv8 -> conv8
I1012 18:49:19.303325  6510 net.cpp:150] Setting up conv8
I1012 18:49:19.303334  6510 net.cpp:157] Top shape: 100 192 2 2 (76800)
I1012 18:49:19.303336  6510 net.cpp:165] Memory required for data: 221991600
I1012 18:49:19.303355  6510 layer_factory.hpp:77] Creating layer relu8
I1012 18:49:19.303359  6510 net.cpp:100] Creating Layer relu8
I1012 18:49:19.303361  6510 net.cpp:434] relu8 <- conv8
I1012 18:49:19.303365  6510 net.cpp:395] relu8 -> conv8 (in-place)
I1012 18:49:19.303622  6510 net.cpp:150] Setting up relu8
I1012 18:49:19.303629  6510 net.cpp:157] Top shape: 100 192 2 2 (76800)
I1012 18:49:19.303632  6510 net.cpp:165] Memory required for data: 222298800
I1012 18:49:19.303633  6510 layer_factory.hpp:77] Creating layer conv9
I1012 18:49:19.303654  6510 net.cpp:100] Creating Layer conv9
I1012 18:49:19.303658  6510 net.cpp:434] conv9 <- conv8
I1012 18:49:19.303661  6510 net.cpp:408] conv9 -> conv9
I1012 18:49:19.304441  6510 net.cpp:150] Setting up conv9
I1012 18:49:19.304450  6510 net.cpp:157] Top shape: 100 10 2 2 (4000)
I1012 18:49:19.304452  6510 net.cpp:165] Memory required for data: 222314800
I1012 18:49:19.304471  6510 layer_factory.hpp:77] Creating layer relu9
I1012 18:49:19.304476  6510 net.cpp:100] Creating Layer relu9
I1012 18:49:19.304478  6510 net.cpp:434] relu9 <- conv9
I1012 18:49:19.304491  6510 net.cpp:395] relu9 -> conv9 (in-place)
I1012 18:49:19.304766  6510 net.cpp:150] Setting up relu9
I1012 18:49:19.304774  6510 net.cpp:157] Top shape: 100 10 2 2 (4000)
I1012 18:49:19.304776  6510 net.cpp:165] Memory required for data: 222330800
I1012 18:49:19.304778  6510 layer_factory.hpp:77] Creating layer pool
I1012 18:49:19.304797  6510 net.cpp:100] Creating Layer pool
I1012 18:49:19.304800  6510 net.cpp:434] pool <- conv9
I1012 18:49:19.304803  6510 net.cpp:408] pool -> pool
I1012 18:49:19.305048  6510 net.cpp:150] Setting up pool
I1012 18:49:19.305054  6510 net.cpp:157] Top shape: 100 10 1 1 (1000)
I1012 18:49:19.305057  6510 net.cpp:165] Memory required for data: 222334800
I1012 18:49:19.305058  6510 layer_factory.hpp:77] Creating layer flatten
I1012 18:49:19.305076  6510 net.cpp:100] Creating Layer flatten
I1012 18:49:19.305078  6510 net.cpp:434] flatten <- pool
I1012 18:49:19.305083  6510 net.cpp:408] flatten -> flatten
I1012 18:49:19.305116  6510 net.cpp:150] Setting up flatten
I1012 18:49:19.305135  6510 net.cpp:157] Top shape: 100 10 (1000)
I1012 18:49:19.305137  6510 net.cpp:165] Memory required for data: 222338800
I1012 18:49:19.305138  6510 layer_factory.hpp:77] Creating layer score
I1012 18:49:19.305142  6510 net.cpp:100] Creating Layer score
I1012 18:49:19.305158  6510 net.cpp:434] score <- flatten
I1012 18:49:19.305161  6510 net.cpp:408] score -> score
I1012 18:49:19.305327  6510 net.cpp:150] Setting up score
I1012 18:49:19.305331  6510 net.cpp:157] Top shape: 100 10 (1000)
I1012 18:49:19.305333  6510 net.cpp:165] Memory required for data: 222342800
I1012 18:49:19.305337  6510 layer_factory.hpp:77] Creating layer score_score_0_split
I1012 18:49:19.305341  6510 net.cpp:100] Creating Layer score_score_0_split
I1012 18:49:19.305343  6510 net.cpp:434] score_score_0_split <- score
I1012 18:49:19.305346  6510 net.cpp:408] score_score_0_split -> score_score_0_split_0
I1012 18:49:19.305351  6510 net.cpp:408] score_score_0_split -> score_score_0_split_1
I1012 18:49:19.305379  6510 net.cpp:150] Setting up score_score_0_split
I1012 18:49:19.305383  6510 net.cpp:157] Top shape: 100 10 (1000)
I1012 18:49:19.305385  6510 net.cpp:157] Top shape: 100 10 (1000)
I1012 18:49:19.305387  6510 net.cpp:165] Memory required for data: 222350800
I1012 18:49:19.305389  6510 layer_factory.hpp:77] Creating layer accuracy
I1012 18:49:19.305393  6510 net.cpp:100] Creating Layer accuracy
I1012 18:49:19.305397  6510 net.cpp:434] accuracy <- score_score_0_split_0
I1012 18:49:19.305398  6510 net.cpp:434] accuracy <- label_data_1_split_0
I1012 18:49:19.305402  6510 net.cpp:408] accuracy -> accuracy
…
