…
  stage: ""
}
type: "RMSProp"
I1009 20:08:59.230821  7832 solver.cpp:81] Creating training net from train_net file: /home/adam/Honours/Honours-Project/cifar-10_allcnn/relu/allcnn_relu_train.prototxt
I1009 20:08:59.231081  7832 net.cpp:58] Initializing net from parameters: 
state {
  phase: TRAIN
  level: 0
  stage: ""
}
layer {
  name: "data"
  type: "Data"
  top: "data"
  top: "label"
  transform_param {
    mean_file: "mean.binaryproto"
  }
  data_param {
    source: "../../../data/cifar-10/cifar10_train_lmdb"
    batch_size: 64
    backend: LMDB
  }
}
layer {
  name: "conv1"
  type: "Convolution"
  bottom: "data"
  top: "conv1"
  convolution_param {
    num_output: 96
    kernel_size: 3
    weight_filler {
      type: "xavier"
    }
  }
}
layer {
  name: "relu1"
  type: "ReLU"
  bottom: "conv1"
  top: "conv1"
}
layer {
  name: "conv2"
  type: "Convolution"
  bottom: "conv1"
  top: "conv2"
  convolution_param {
    num_output: 96
    kernel_size: 3
    weight_filler {
      type: "xavier"
    }
  }
}
layer {
  name: "relu2"
  type: "ReLU"
  bottom: "conv2"
  top: "conv2"
}
layer {
  name: "conv3"
  type: "Convolution"
  bottom: "conv2"
  top: "conv3"
  convolution_param {
    num_output: 96
    kernel_size: 3
    stride: 2
    weight_filler {
      type: "xavier"
    }
  }
}
layer {
  name: "relu3"
  type: "ReLU"
  bottom: "conv3"
  top: "conv3"
}
layer {
  name: "conv4"
  type: "Convolution"
  bottom: "conv3"
  top: "conv4"
  convolution_param {
    num_output: 192
    kernel_size: 3
    weight_filler {
      type: "xavier"
    }
  }
}
layer {
  name: "relu4"
  type: "ReLU"
  bottom: "conv4"
  top: "conv4"
}
layer {
  name: "conv5"
  type: "Convolution"
  bottom: "conv4"
  top: "conv5"
  convolution_param {
    num_output: 192
    kernel_size: 3
    weight_filler {
      type: "xavier"
    }
  }
}
layer {
  name: "relu5"
  type: "ReLU"
  bottom: "conv5"
  top: "conv5"
}
layer {
  name: "conv6"
  type: "Convolution"
  bottom: "conv5"
  top: "conv6"
  convolution_param {
    num_output: 192
    kernel_size: 3
    stride: 2
    weight_filler {
      type: "xavier"
    }
  }
}
layer {
  name: "relu6"
  type: "ReLU"
  bottom: "conv6"
  top: "conv6"
}
layer {
  name: "conv7"
  type: "Convolution"
  bottom: "conv6"
  top: "conv7"
  convolution_param {
    num_output: 192
    kernel_size: 3
    weight_filler {
      type: "xavier"
    }
  }
}
layer {
  name: "relu7"
  type: "ReLU"
  bottom: "conv7"
  top: "conv7"
}
layer {
  name: "conv8"
  type: "Convolution"
  bottom: "conv7"
  top: "conv8"
  convolution_param {
    num_output: 192
    kernel_size: 1
    weight_filler {
      type: "xavier"
    }
  }
}
layer {
  name: "relu8"
  type: "ReLU"
  bottom: "conv8"
  top: "conv8"
}
layer {
  name: "conv9"
  type: "Convolution"
  bottom: "conv8"
  top: "conv9"
  convolution_param {
    num_output: 10
    kernel_size: 1
    weight_filler {
      type: "xavier"
    }
  }
}
layer {
  name: "relu9"
  type: "ReLU"
  bottom: "conv9"
  top: "conv9"
}
layer {
  name: "pool"
  type: "Pooling"
  bottom: "conv9"
  top: "pool"
  pooling_param {
    pool: AVE
    global_pooling: true
  }
}
layer {
  name: "score"
  type: "InnerProduct"
  bottom: "pool"
  top: "score"
  inner_product_param {
    num_output: 10
    weight_filler {
      type: "gaussian"
    }
  }
}
layer {
  name: "accuracy"
  type: "Accuracy"
  bottom: "score"
  bottom: "label"
  top: "accuracy"
}
layer {
  name: "loss"
  type: "SoftmaxWithLoss"
  bottom: "score"
  bottom: "label"
  top: "loss"
}
I1009 20:08:59.231191  7832 layer_factory.hpp:77] Creating layer data
I1009 20:08:59.231742  7832 net.cpp:100] Creating Layer data
I1009 20:08:59.231751  7832 net.cpp:408] data -> data
I1009 20:08:59.231791  7832 net.cpp:408] data -> label
I1009 20:08:59.231801  7832 data_transformer.cpp:25] Loading mean file from: mean.binaryproto
I1009 20:08:59.232445  7837 db_lmdb.cpp:35] Opened lmdb ../../../data/cifar-10/cifar10_train_lmdb
I1009 20:08:59.239022  7832 data_layer.cpp:41] output data size: 64,3,32,32
I1009 20:08:59.240562  7832 net.cpp:150] Setting up data
I1009 20:08:59.240592  7832 net.cpp:157] Top shape: 64 3 32 32 (196608)
I1009 20:08:59.240597  7832 net.cpp:157] Top shape: 64 (64)
I1009 20:08:59.240612  7832 net.cpp:165] Memory required for data: 786688
I1009 20:08:59.240622  7832 layer_factory.hpp:77] Creating layer label_data_1_split
I1009 20:08:59.240646  7832 net.cpp:100] Creating Layer label_data_1_split
I1009 20:08:59.240653  7832 net.cpp:434] label_data_1_split <- label
I1009 20:08:59.240661  7832 net.cpp:408] label_data_1_split -> label_data_1_split_0
I1009 20:08:59.240670  7832 net.cpp:408] label_data_1_split -> label_data_1_split_1
I1009 20:08:59.240741  7832 net.cpp:150] Setting up label_data_1_split
I1009 20:08:59.240747  7832 net.cpp:157] Top shape: 64 (64)
I1009 20:08:59.240751  7832 net.cpp:157] Top shape: 64 (64)
I1009 20:08:59.240764  7832 net.cpp:165] Memory required for data: 787200
I1009 20:08:59.240767  7832 layer_factory.hpp:77] Creating layer conv1
I1009 20:08:59.240793  7832 net.cpp:100] Creating Layer conv1
I1009 20:08:59.240795  7832 net.cpp:434] conv1 <- data
I1009 20:08:59.240814  7832 net.cpp:408] conv1 -> conv1
I1009 20:08:59.379150  7832 net.cpp:150] Setting up conv1
I1009 20:08:59.379174  7832 net.cpp:157] Top shape: 64 96 30 30 (5529600)
I1009 20:08:59.379176  7832 net.cpp:165] Memory required for data: 22905600
I1009 20:08:59.379194  7832 layer_factory.hpp:77] Creating layer relu1
I1009 20:08:59.379202  7832 net.cpp:100] Creating Layer relu1
I1009 20:08:59.379205  7832 net.cpp:434] relu1 <- conv1
I1009 20:08:59.379209  7832 net.cpp:395] relu1 -> conv1 (in-place)
I1009 20:08:59.379410  7832 net.cpp:150] Setting up relu1
I1009 20:08:59.379417  7832 net.cpp:157] Top shape: 64 96 30 30 (5529600)
I1009 20:08:59.379420  7832 net.cpp:165] Memory required for data: 45024000
I1009 20:08:59.379421  7832 layer_factory.hpp:77] Creating layer conv2
I1009 20:08:59.379431  7832 net.cpp:100] Creating Layer conv2
I1009 20:08:59.379432  7832 net.cpp:434] conv2 <- conv1
I1009 20:08:59.379436  7832 net.cpp:408] conv2 -> conv2
I1009 20:08:59.380820  7832 net.cpp:150] Setting up conv2
I1009 20:08:59.380830  7832 net.cpp:157] Top shape: 64 96 28 28 (4816896)
I1009 20:08:59.380832  7832 net.cpp:165] Memory required for data: 64291584
I1009 20:08:59.380838  7832 layer_factory.hpp:77] Creating layer relu2
I1009 20:08:59.380842  7832 net.cpp:100] Creating Layer relu2
I1009 20:08:59.380844  7832 net.cpp:434] relu2 <- conv2
I1009 20:08:59.380847  7832 net.cpp:395] relu2 -> conv2 (in-place)
I1009 20:08:59.381000  7832 net.cpp:150] Setting up relu2
I1009 20:08:59.381006  7832 net.cpp:157] Top shape: 64 96 28 28 (4816896)
I1009 20:08:59.381008  7832 net.cpp:165] Memory required for data: 83559168
I1009 20:08:59.381011  7832 layer_factory.hpp:77] Creating layer conv3
I1009 20:08:59.381016  7832 net.cpp:100] Creating Layer conv3
I1009 20:08:59.381018  7832 net.cpp:434] conv3 <- conv2
I1009 20:08:59.381021  7832 net.cpp:408] conv3 -> conv3
I1009 20:08:59.382184  7832 net.cpp:150] Setting up conv3
I1009 20:08:59.382194  7832 net.cpp:157] Top shape: 64 96 13 13 (1038336)
I1009 20:08:59.382197  7832 net.cpp:165] Memory required for data: 87712512
I1009 20:08:59.382203  7832 layer_factory.hpp:77] Creating layer relu3
I1009 20:08:59.382206  7832 net.cpp:100] Creating Layer relu3
I1009 20:08:59.382208  7832 net.cpp:434] relu3 <- conv3
I1009 20:08:59.382213  7832 net.cpp:395] relu3 -> conv3 (in-place)
I1009 20:08:59.382479  7832 net.cpp:150] Setting up relu3
I1009 20:08:59.382488  7832 net.cpp:157] Top shape: 64 96 13 13 (1038336)
I1009 20:08:59.382500  7832 net.cpp:165] Memory required for data: 91865856
I1009 20:08:59.382503  7832 layer_factory.hpp:77] Creating layer conv4
I1009 20:08:59.382510  7832 net.cpp:100] Creating Layer conv4
I1009 20:08:59.382513  7832 net.cpp:434] conv4 <- conv3
I1009 20:08:59.382517  7832 net.cpp:408] conv4 -> conv4
I1009 20:08:59.384363  7832 net.cpp:150] Setting up conv4
I1009 20:08:59.384373  7832 net.cpp:157] Top shape: 64 192 11 11 (1486848)
I1009 20:08:59.384377  7832 net.cpp:165] Memory required for data: 97813248
I1009 20:08:59.384380  7832 layer_factory.hpp:77] Creating layer relu4
I1009 20:08:59.384385  7832 net.cpp:100] Creating Layer relu4
I1009 20:08:59.384387  7832 net.cpp:434] relu4 <- conv4
I1009 20:08:59.384390  7832 net.cpp:395] relu4 -> conv4 (in-place)
I1009 20:08:59.384564  7832 net.cpp:150] Setting up relu4
I1009 20:08:59.384572  7832 net.cpp:157] Top shape: 64 192 11 11 (1486848)
I1009 20:08:59.384573  7832 net.cpp:165] Memory required for data: 103760640
I1009 20:08:59.384575  7832 layer_factory.hpp:77] Creating layer conv5
I1009 20:08:59.384582  7832 net.cpp:100] Creating Layer conv5
I1009 20:08:59.384583  7832 net.cpp:434] conv5 <- conv4
I1009 20:08:59.384588  7832 net.cpp:408] conv5 -> conv5
I1009 20:08:59.387133  7832 net.cpp:150] Setting up conv5
I1009 20:08:59.387143  7832 net.cpp:157] Top shape: 64 192 9 9 (995328)
I1009 20:08:59.387145  7832 net.cpp:165] Memory required for data: 107741952
I1009 20:08:59.387152  7832 layer_factory.hpp:77] Creating layer relu5
I1009 20:08:59.387157  7832 net.cpp:100] Creating Layer relu5
I1009 20:08:59.387161  7832 net.cpp:434] relu5 <- conv5
I1009 20:08:59.387163  7832 net.cpp:395] relu5 -> conv5 (in-place)
I1009 20:08:59.387331  7832 net.cpp:150] Setting up relu5
I1009 20:08:59.387338  7832 net.cpp:157] Top shape: 64 192 9 9 (995328)
I1009 20:08:59.387341  7832 net.cpp:165] Memory required for data: 111723264
I1009 20:08:59.387342  7832 layer_factory.hpp:77] Creating layer conv6
I1009 20:08:59.387347  7832 net.cpp:100] Creating Layer conv6
I1009 20:08:59.387349  7832 net.cpp:434] conv6 <- conv5
I1009 20:08:59.387356  7832 net.cpp:408] conv6 -> conv6
I1009 20:08:59.389891  7832 net.cpp:150] Setting up conv6
I1009 20:08:59.389902  7832 net.cpp:157] Top shape: 64 192 4 4 (196608)
I1009 20:08:59.389904  7832 net.cpp:165] Memory required for data: 112509696
I1009 20:08:59.389925  7832 layer_factory.hpp:77] Creating layer relu6
I1009 20:08:59.389928  7832 net.cpp:100] Creating Layer relu6
I1009 20:08:59.389930  7832 net.cpp:434] relu6 <- conv6
I1009 20:08:59.389948  7832 net.cpp:395] relu6 -> conv6 (in-place)
I1009 20:08:59.390202  7832 net.cpp:150] Setting up relu6
I1009 20:08:59.390210  7832 net.cpp:157] Top shape: 64 192 4 4 (196608)
I1009 20:08:59.390213  7832 net.cpp:165] Memory required for data: 113296128
I1009 20:08:59.390215  7832 layer_factory.hpp:77] Creating layer conv7
I1009 20:08:59.390236  7832 net.cpp:100] Creating Layer conv7
I1009 20:08:59.390239  7832 net.cpp:434] conv7 <- conv6
I1009 20:08:59.390244  7832 net.cpp:408] conv7 -> conv7
I1009 20:08:59.393323  7832 net.cpp:150] Setting up conv7
I1009 20:08:59.393342  7832 net.cpp:157] Top shape: 64 192 2 2 (49152)
I1009 20:08:59.393343  7832 net.cpp:165] Memory required for data: 113492736
I1009 20:08:59.393349  7832 layer_factory.hpp:77] Creating layer relu7
I1009 20:08:59.393354  7832 net.cpp:100] Creating Layer relu7
I1009 20:08:59.393358  7832 net.cpp:434] relu7 <- conv7
I1009 20:08:59.393362  7832 net.cpp:395] relu7 -> conv7 (in-place)
I1009 20:08:59.393615  7832 net.cpp:150] Setting up relu7
I1009 20:08:59.393625  7832 net.cpp:157] Top shape: 64 192 2 2 (49152)
I1009 20:08:59.393626  7832 net.cpp:165] Memory required for data: 113689344
I1009 20:08:59.393628  7832 layer_factory.hpp:77] Creating layer conv8
I1009 20:08:59.393637  7832 net.cpp:100] Creating Layer conv8
I1009 20:08:59.393640  7832 net.cpp:434] conv8 <- conv7
I1009 20:08:59.393643  7832 net.cpp:408] conv8 -> conv8
I1009 20:08:59.394902  7832 net.cpp:150] Setting up conv8
I1009 20:08:59.394912  7832 net.cpp:157] Top shape: 64 192 2 2 (49152)
I1009 20:08:59.394924  7832 net.cpp:165] Memory required for data: 113885952
I1009 20:08:59.394929  7832 layer_factory.hpp:77] Creating layer relu8
I1009 20:08:59.394933  7832 net.cpp:100] Creating Layer relu8
I1009 20:08:59.394935  7832 net.cpp:434] relu8 <- conv8
I1009 20:08:59.394940  7832 net.cpp:395] relu8 -> conv8 (in-place)
I1009 20:08:59.395109  7832 net.cpp:150] Setting up relu8
I1009 20:08:59.395115  7832 net.cpp:157] Top shape: 64 192 2 2 (49152)
I1009 20:08:59.395117  7832 net.cpp:165] Memory required for data: 114082560
I1009 20:08:59.395119  7832 layer_factory.hpp:77] Creating layer conv9
I1009 20:08:59.395125  7832 net.cpp:100] Creating Layer conv9
I1009 20:08:59.395128  7832 net.cpp:434] conv9 <- conv8
I1009 20:08:59.395133  7832 net.cpp:408] conv9 -> conv9
I1009 20:08:59.395936  7832 net.cpp:150] Setting up conv9
I1009 20:08:59.395944  7832 net.cpp:157] Top shape: 64 10 2 2 (2560)
I1009 20:08:59.395946  7832 net.cpp:165] Memory required for data: 114092800
I1009 20:08:59.395956  7832 layer_factory.hpp:77] Creating layer relu9
I1009 20:08:59.395959  7832 net.cpp:100] Creating Layer relu9
I1009 20:08:59.395961  7832 net.cpp:434] relu9 <- conv9
I1009 20:08:59.395965  7832 net.cpp:395] relu9 -> conv9 (in-place)
I1009 20:08:59.396229  7832 net.cpp:150] Setting up relu9
I1009 20:08:59.396237  7832 net.cpp:157] Top shape: 64 10 2 2 (2560)
I1009 20:08:59.396239  7832 net.cpp:165] Memory required for data: 114103040
I1009 20:08:59.396241  7832 layer_factory.hpp:77] Creating layer pool
I1009 20:08:59.396246  7832 net.cpp:100] Creating Layer pool
I1009 20:08:59.396248  7832 net.cpp:434] pool <- conv9
I1009 20:08:59.396252  7832 net.cpp:408] pool -> pool
I1009 20:08:59.396455  7832 net.cpp:150] Setting up pool
I1009 20:08:59.396461  7832 net.cpp:157] Top shape: 64 10 1 1 (640)
I1009 20:08:59.396462  7832 net.cpp:165] Memory required for data: 114105600
I1009 20:08:59.396464  7832 layer_factory.hpp:77] Creating layer score
I1009 20:08:59.396469  7832 net.cpp:100] Creating Layer score
I1009 20:08:59.396471  7832 net.cpp:434] score <- pool
I1009 20:08:59.396474  7832 net.cpp:408] score -> score
I1009 20:08:59.396620  7832 net.cpp:150] Setting up score
I1009 20:08:59.396625  7832 net.cpp:157] Top shape: 64 10 (640)
I1009 20:08:59.396626  7832 net.cpp:165] Memory required for data: 114108160
I1009 20:08:59.396631  7832 layer_factory.hpp:77] Creating layer score_score_0_split
I1009 20:08:59.396634  7832 net.cpp:100] Creating Layer score_score_0_split
I1009 20:08:59.396637  7832 net.cpp:434] score_score_0_split <- score
I1009 20:08:59.396641  7832 net.cpp:408] score_score_0_split -> score_score_0_split_0
I1009 20:08:59.396646  7832 net.cpp:408] score_score_0_split -> score_score_0_split_1
I1009 20:08:59.396688  7832 net.cpp:150] Setting up score_score_0_split
I1009 20:08:59.396693  7832 net.cpp:157] Top shape: 64 10 (640)
I1009 20:08:59.396697  7832 net.cpp:157] Top shape: 64 10 (640)
I1009 20:08:59.396697  7832 net.cpp:165] Memory required for data: 114113280
I1009 20:08:59.396699  7832 layer_factory.hpp:77] Creating layer accuracy
I1009 20:08:59.396718  7832 net.cpp:100] Creating Layer accuracy
I1009 20:08:59.396720  7832 net.cpp:434] accuracy <- score_score_0_split_0
I1009 20:08:59.396723  7832 net.cpp:434] accuracy <- label_data_1_split_0
I1009 20:08:59.396739  7832 net.cpp:408] accuracy -> accuracy
…
I1009 20:08:59.397334  7832 net.cpp:283] Network initialization done.
I1009 20:08:59.397557  7832 solver.cpp:181] Creating test net (#0) specified by test_net file: /home/adam/Honours/Honours-Project/cifar-10_allcnn/relu/allcnn_relu_test.prototxt
I1009 20:08:59.397701  7832 net.cpp:58] Initializing net from parameters: 
state {
  phase: TEST
}
layer {
  name: "data"
  type: "Data"
  top: "data"
  top: "label"
  transform_param {
    mean_file: "mean.binaryproto"
  }
  data_param {
    source: "../../../data/cifar-10/cifar10_test_lmdb"
    batch_size: 100
    backend: LMDB
  }
}
layer {
  name: "conv1"
  type: "Convolution"
  bottom: "data"
  top: "conv1"
  convolution_param {
    num_output: 96
    kernel_size: 3
    weight_filler {
      type: "xavier"
    }
  }
}
layer {
  name: "relu1"
  type: "ReLU"
  bottom: "conv1"
  top: "conv1"
}
layer {
  name: "conv2"
  type: "Convolution"
  bottom: "conv1"
  top: "conv2"
  convolution_param {
    num_output: 96
    kernel_size: 3
    weight_filler {
      type: "xavier"
    }
  }
}
layer {
  name: "relu2"
  type: "ReLU"
  bottom: "conv2"
  top: "conv2"
}
layer {
  name: "conv3"
  type: "Convolution"
  bottom: "conv2"
  top: "conv3"
  convolution_param {
    num_output: 96
    kernel_size: 3
    stride: 2
    weight_filler {
      type: "xavier"
    }
  }
}
layer {
  name: "relu3"
  type: "ReLU"
  bottom: "conv3"
  top: "conv3"
}
layer {
  name: "conv4"
  type: "Convolution"
  bottom: "conv3"
  top: "conv4"
  convolution_param {
    num_output: 192
    kernel_size: 3
    weight_filler {
      type: "xavier"
    }
  }
}
layer {
  name: "relu4"
  type: "ReLU"
  bottom: "conv4"
  top: "conv4"
}
layer {
  name: "conv5"
  type: "Convolution"
  bottom: "conv4"
  top: "conv5"
  convolution_param {
    num_output: 192
    kernel_size: 3
    weight_filler {
      type: "xavier"
    }
  }
}
layer {
  name: "relu5"
  type: "ReLU"
  bottom: "conv5"
  top: "conv5"
}
layer {
  name: "conv6"
  type: "Convolution"
  bottom: "conv5"
  top: "conv6"
  convolution_param {
    num_output: 192
    kernel_size: 3
    stride: 2
    weight_filler {
      type: "xavier"
    }
  }
}
layer {
  name: "relu6"
  type: "ReLU"
  bottom: "conv6"
  top: "conv6"
}
layer {
  name: "conv7"
  type: "Convolution"
  bottom: "conv6"
  top: "conv7"
  convolution_param {
    num_output: 192
    kernel_size: 3
    weight_filler {
      type: "xavier"
    }
  }
}
layer {
  name: "relu7"
  type: "ReLU"
  bottom: "conv7"
  top: "conv7"
}
layer {
  name: "conv8"
  type: "Convolution"
  bottom: "conv7"
  top: "conv8"
  convolution_param {
    num_output: 192
    kernel_size: 1
    weight_filler {
      type: "xavier"
    }
  }
}
layer {
  name: "relu8"
  type: "ReLU"
  bottom: "conv8"
  top: "conv8"
}
layer {
  name: "conv9"
  type: "Convolution"
  bottom: "conv8"
  top: "conv9"
  convolution_param {
    num_output: 10
    kernel_size: 1
    weight_filler {
      type: "xavier"
    }
  }
}
layer {
  name: "relu9"
  type: "ReLU"
  bottom: "conv9"
  top: "conv9"
}
layer {
  name: "pool"
  type: "Pooling"
  bottom: "conv9"
  top: "pool"
  pooling_param {
    pool: AVE
    global_pooling: true
  }
}
layer {
  name: "score"
  type: "InnerProduct"
  bottom: "pool"
  top: "score"
  inner_product_param {
    num_output: 10
    weight_filler {
      type: "gaussian"
    }
  }
}
layer {
  name: "accuracy"
  type: "Accuracy"
  bottom: "score"
  bottom: "label"
  top: "accuracy"
}
layer {
  name: "loss"
  type: "SoftmaxWithLoss"
  bottom: "score"
  bottom: "label"
  top: "loss"
}
I1009 20:08:59.397780  7832 layer_factory.hpp:77] Creating layer data
I1009 20:08:59.397904  7832 net.cpp:100] Creating Layer data
I1009 20:08:59.397910  7832 net.cpp:408] data -> data
I1009 20:08:59.397917  7832 net.cpp:408] data -> label
I1009 20:08:59.397939  7832 data_transformer.cpp:25] Loading mean file from: mean.binaryproto
I1009 20:08:59.398684  7840 db_lmdb.cpp:35] Opened lmdb ../../../data/cifar-10/cifar10_test_lmdb
I1009 20:08:59.398840  7832 data_layer.cpp:41] output data size: 100,3,32,32
I1009 20:08:59.400851  7832 net.cpp:150] Setting up data
I1009 20:08:59.400872  7832 net.cpp:157] Top shape: 100 3 32 32 (307200)
I1009 20:08:59.400876  7832 net.cpp:157] Top shape: 100 (100)
I1009 20:08:59.400877  7832 net.cpp:165] Memory required for data: 1229200
I1009 20:08:59.400897  7832 layer_factory.hpp:77] Creating layer label_data_1_split
I1009 20:08:59.400905  7832 net.cpp:100] Creating Layer label_data_1_split
I1009 20:08:59.400908  7832 net.cpp:434] label_data_1_split <- label
I1009 20:08:59.400913  7832 net.cpp:408] label_data_1_split -> label_data_1_split_0
I1009 20:08:59.400921  7832 net.cpp:408] label_data_1_split -> label_data_1_split_1
I1009 20:08:59.401026  7832 net.cpp:150] Setting up label_data_1_split
I1009 20:08:59.401031  7832 net.cpp:157] Top shape: 100 (100)
I1009 20:08:59.401046  7832 net.cpp:157] Top shape: 100 (100)
I1009 20:08:59.401047  7832 net.cpp:165] Memory required for data: 1230000
I1009 20:08:59.401049  7832 layer_factory.hpp:77] Creating layer conv1
I1009 20:08:59.401072  7832 net.cpp:100] Creating Layer conv1
I1009 20:08:59.401073  7832 net.cpp:434] conv1 <- data
I1009 20:08:59.401078  7832 net.cpp:408] conv1 -> conv1
I1009 20:08:59.402072  7832 net.cpp:150] Setting up conv1
I1009 20:08:59.402081  7832 net.cpp:157] Top shape: 100 96 30 30 (8640000)
I1009 20:08:59.402083  7832 net.cpp:165] Memory required for data: 35790000
I1009 20:08:59.402106  7832 layer_factory.hpp:77] Creating layer relu1
I1009 20:08:59.402109  7832 net.cpp:100] Creating Layer relu1
I1009 20:08:59.402117  7832 net.cpp:434] relu1 <- conv1
I1009 20:08:59.402122  7832 net.cpp:395] relu1 -> conv1 (in-place)
I1009 20:08:59.402436  7832 net.cpp:150] Setting up relu1
I1009 20:08:59.402444  7832 net.cpp:157] Top shape: 100 96 30 30 (8640000)
I1009 20:08:59.402447  7832 net.cpp:165] Memory required for data: 70350000
I1009 20:08:59.402472  7832 layer_factory.hpp:77] Creating layer conv2
I1009 20:08:59.402480  7832 net.cpp:100] Creating Layer conv2
I1009 20:08:59.402549  7832 net.cpp:434] conv2 <- conv1
I1009 20:08:59.402556  7832 net.cpp:408] conv2 -> conv2
I1009 20:08:59.403972  7832 net.cpp:150] Setting up conv2
I1009 20:08:59.403985  7832 net.cpp:157] Top shape: 100 96 28 28 (7526400)
I1009 20:08:59.403988  7832 net.cpp:165] Memory required for data: 100455600
I1009 20:08:59.404008  7832 layer_factory.hpp:77] Creating layer relu2
I1009 20:08:59.404014  7832 net.cpp:100] Creating Layer relu2
I1009 20:08:59.404017  7832 net.cpp:434] relu2 <- conv2
I1009 20:08:59.404021  7832 net.cpp:395] relu2 -> conv2 (in-place)
I1009 20:08:59.404295  7832 net.cpp:150] Setting up relu2
I1009 20:08:59.404305  7832 net.cpp:157] Top shape: 100 96 28 28 (7526400)
I1009 20:08:59.404309  7832 net.cpp:165] Memory required for data: 130561200
I1009 20:08:59.404310  7832 layer_factory.hpp:77] Creating layer conv3
I1009 20:08:59.404319  7832 net.cpp:100] Creating Layer conv3
I1009 20:08:59.404322  7832 net.cpp:434] conv3 <- conv2
I1009 20:08:59.404327  7832 net.cpp:408] conv3 -> conv3
I1009 20:08:59.405445  7832 net.cpp:150] Setting up conv3
I1009 20:08:59.405468  7832 net.cpp:157] Top shape: 100 96 13 13 (1622400)
I1009 20:08:59.405480  7832 net.cpp:165] Memory required for data: 137050800
I1009 20:08:59.405490  7832 layer_factory.hpp:77] Creating layer relu3
I1009 20:08:59.405494  7832 net.cpp:100] Creating Layer relu3
I1009 20:08:59.405498  7832 net.cpp:434] relu3 <- conv3
I1009 20:08:59.405500  7832 net.cpp:395] relu3 -> conv3 (in-place)
I1009 20:08:59.405745  7832 net.cpp:150] Setting up relu3
I1009 20:08:59.405753  7832 net.cpp:157] Top shape: 100 96 13 13 (1622400)
I1009 20:08:59.405756  7832 net.cpp:165] Memory required for data: 143540400
I1009 20:08:59.405758  7832 layer_factory.hpp:77] Creating layer conv4
I1009 20:08:59.405767  7832 net.cpp:100] Creating Layer conv4
I1009 20:08:59.405771  7832 net.cpp:434] conv4 <- conv3
I1009 20:08:59.405774  7832 net.cpp:408] conv4 -> conv4
I1009 20:08:59.407809  7832 net.cpp:150] Setting up conv4
I1009 20:08:59.407837  7832 net.cpp:157] Top shape: 100 192 11 11 (2323200)
I1009 20:08:59.407840  7832 net.cpp:165] Memory required for data: 152833200
I1009 20:08:59.407846  7832 layer_factory.hpp:77] Creating layer relu4
I1009 20:08:59.407851  7832 net.cpp:100] Creating Layer relu4
I1009 20:08:59.407853  7832 net.cpp:434] relu4 <- conv4
I1009 20:08:59.407858  7832 net.cpp:395] relu4 -> conv4 (in-place)
I1009 20:08:59.408061  7832 net.cpp:150] Setting up relu4
I1009 20:08:59.408079  7832 net.cpp:157] Top shape: 100 192 11 11 (2323200)
I1009 20:08:59.408082  7832 net.cpp:165] Memory required for data: 162126000
I1009 20:08:59.408083  7832 layer_factory.hpp:77] Creating layer conv5
I1009 20:08:59.408104  7832 net.cpp:100] Creating Layer conv5
I1009 20:08:59.408107  7832 net.cpp:434] conv5 <- conv4
I1009 20:08:59.408112  7832 net.cpp:408] conv5 -> conv5
I1009 20:08:59.410899  7832 net.cpp:150] Setting up conv5
I1009 20:08:59.410913  7832 net.cpp:157] Top shape: 100 192 9 9 (1555200)
I1009 20:08:59.410915  7832 net.cpp:165] Memory required for data: 168346800
I1009 20:08:59.410924  7832 layer_factory.hpp:77] Creating layer relu5
I1009 20:08:59.410943  7832 net.cpp:100] Creating Layer relu5
I1009 20:08:59.410946  7832 net.cpp:434] relu5 <- conv5
I1009 20:08:59.410950  7832 net.cpp:395] relu5 -> conv5 (in-place)
I1009 20:08:59.411247  7832 net.cpp:150] Setting up relu5
I1009 20:08:59.411255  7832 net.cpp:157] Top shape: 100 192 9 9 (1555200)
I1009 20:08:59.411273  7832 net.cpp:165] Memory required for data: 174567600
I1009 20:08:59.411275  7832 layer_factory.hpp:77] Creating layer conv6
I1009 20:08:59.411294  7832 net.cpp:100] Creating Layer conv6
I1009 20:08:59.411298  7832 net.cpp:434] conv6 <- conv5
I1009 20:08:59.411303  7832 net.cpp:408] conv6 -> conv6
I1009 20:08:59.413856  7832 net.cpp:150] Setting up conv6
I1009 20:08:59.413880  7832 net.cpp:157] Top shape: 100 192 4 4 (307200)
I1009 20:08:59.413882  7832 net.cpp:165] Memory required for data: 175796400
I1009 20:08:59.413887  7832 layer_factory.hpp:77] Creating layer relu6
I1009 20:08:59.413902  7832 net.cpp:100] Creating Layer relu6
I1009 20:08:59.413918  7832 net.cpp:434] relu6 <- conv6
I1009 20:08:59.413923  7832 net.cpp:395] relu6 -> conv6 (in-place)
I1009 20:08:59.414208  7832 net.cpp:150] Setting up relu6
I1009 20:08:59.414217  7832 net.cpp:157] Top shape: 100 192 4 4 (307200)
I1009 20:08:59.414221  7832 net.cpp:165] Memory required for data: 177025200
I1009 20:08:59.414222  7832 layer_factory.hpp:77] Creating layer conv7
I1009 20:08:59.414227  7832 net.cpp:100] Creating Layer conv7
I1009 20:08:59.414229  7832 net.cpp:434] conv7 <- conv6
I1009 20:08:59.414235  7832 net.cpp:408] conv7 -> conv7
I1009 20:08:59.416801  7832 net.cpp:150] Setting up conv7
I1009 20:08:59.416812  7832 net.cpp:157] Top shape: 100 192 2 2 (76800)
I1009 20:08:59.416815  7832 net.cpp:165] Memory required for data: 177332400
I1009 20:08:59.416820  7832 layer_factory.hpp:77] Creating layer relu7
I1009 20:08:59.416823  7832 net.cpp:100] Creating Layer relu7
I1009 20:08:59.416826  7832 net.cpp:434] relu7 <- conv7
I1009 20:08:59.416829  7832 net.cpp:395] relu7 -> conv7 (in-place)
I1009 20:08:59.417001  7832 net.cpp:150] Setting up relu7
I1009 20:08:59.417007  7832 net.cpp:157] Top shape: 100 192 2 2 (76800)
I1009 20:08:59.417009  7832 net.cpp:165] Memory required for data: 177639600
I1009 20:08:59.417011  7832 layer_factory.hpp:77] Creating layer conv8
I1009 20:08:59.417021  7832 net.cpp:100] Creating Layer conv8
I1009 20:08:59.417023  7832 net.cpp:434] conv8 <- conv7
I1009 20:08:59.417026  7832 net.cpp:408] conv8 -> conv8
I1009 20:08:59.418000  7832 net.cpp:150] Setting up conv8
I1009 20:08:59.418009  7832 net.cpp:157] Top shape: 100 192 2 2 (76800)
I1009 20:08:59.418011  7832 net.cpp:165] Memory required for data: 177946800
I1009 20:08:59.418015  7832 layer_factory.hpp:77] Creating layer relu8
I1009 20:08:59.418018  7832 net.cpp:100] Creating Layer relu8
I1009 20:08:59.418021  7832 net.cpp:434] relu8 <- conv8
I1009 20:08:59.418025  7832 net.cpp:395] relu8 -> conv8 (in-place)
I1009 20:08:59.418283  7832 net.cpp:150] Setting up relu8
I1009 20:08:59.418292  7832 net.cpp:157] Top shape: 100 192 2 2 (76800)
I1009 20:08:59.418293  7832 net.cpp:165] Memory required for data: 178254000
I1009 20:08:59.418295  7832 layer_factory.hpp:77] Creating layer conv9
I1009 20:08:59.418303  7832 net.cpp:100] Creating Layer conv9
I1009 20:08:59.418304  7832 net.cpp:434] conv9 <- conv8
I1009 20:08:59.418309  7832 net.cpp:408] conv9 -> conv9
I1009 20:08:59.419107  7832 net.cpp:150] Setting up conv9
I1009 20:08:59.419116  7832 net.cpp:157] Top shape: 100 10 2 2 (4000)
I1009 20:08:59.419118  7832 net.cpp:165] Memory required for data: 178270000
I1009 20:08:59.419126  7832 layer_factory.hpp:77] Creating layer relu9
I1009 20:08:59.419131  7832 net.cpp:100] Creating Layer relu9
I1009 20:08:59.419133  7832 net.cpp:434] relu9 <- conv9
I1009 20:08:59.419137  7832 net.cpp:395] relu9 -> conv9 (in-place)
I1009 20:08:59.419406  7832 net.cpp:150] Setting up relu9
I1009 20:08:59.419414  7832 net.cpp:157] Top shape: 100 10 2 2 (4000)
I1009 20:08:59.419416  7832 net.cpp:165] Memory required for data: 178286000
I1009 20:08:59.419419  7832 layer_factory.hpp:77] Creating layer pool
I1009 20:08:59.419423  7832 net.cpp:100] Creating Layer pool
I1009 20:08:59.419425  7832 net.cpp:434] pool <- conv9
I1009 20:08:59.419428  7832 net.cpp:408] pool -> pool
I1009 20:08:59.419625  7832 net.cpp:150] Setting up pool
I1009 20:08:59.419631  7832 net.cpp:157] Top shape: 100 10 1 1 (1000)
I1009 20:08:59.419633  7832 net.cpp:165] Memory required for data: 178290000
I1009 20:08:59.419636  7832 layer_factory.hpp:77] Creating layer score
I1009 20:08:59.419641  7832 net.cpp:100] Creating Layer score
I1009 20:08:59.419642  7832 net.cpp:434] score <- pool
I1009 20:08:59.419646  7832 net.cpp:408] score -> score
I1009 20:08:59.419795  7832 net.cpp:150] Setting up score
I1009 20:08:59.419800  7832 net.cpp:157] Top shape: 100 10 (1000)
I1009 20:08:59.419801  7832 net.cpp:165] Memory required for data: 178294000
I1009 20:08:59.419806  7832 layer_factory.hpp:77] Creating layer score_score_0_split
I1009 20:08:59.419816  7832 net.cpp:100] Creating Layer score_score_0_split
I1009 20:08:59.419819  7832 net.cpp:434] score_score_0_split <- score
I1009 20:08:59.419823  7832 net.cpp:408] score_score_0_split -> score_score_0_split_0
I1009 20:08:59.419828  7832 net.cpp:408] score_score_0_split -> score_score_0_split_1
I1009 20:08:59.419891  7832 net.cpp:150] Setting up score_score_0_split
I1009 20:08:59.419895  7832 net.cpp:157] Top shape: 100 10 (1000)
I1009 20:08:59.419911  7832 net.cpp:157] Top shape: 100 10 (1000)
I1009 20:08:59.419914  7832 net.cpp:165] Memory required for data: 178302000
I1009 20:08:59.419915  7832 layer_factory.hpp:77] Creating layer accuracy
I1009 20:08:59.419934  7832 net.cpp:100] Creating Layer accuracy
I1009 20:08:59.419936  7832 net.cpp:434] accuracy <- score_score_0_split_0
I1009 20:08:59.419939  7832 net.cpp:434] accuracy <- label_data_1_split_0
I1009 20:08:59.419942  7832 net.cpp:408] accuracy -> accuracy
…
