…
type: "RMSProp"
I1013 16:06:59.591239 15660 solver.cpp:81] Creating training net from train_net file: /home/adam/Honours/Honours-Project/cifar-10_allcnn/leakyrelu/allcnn_leakyrelu_train.prototxt
I1013 16:06:59.591583 15660 net.cpp:58] Initializing net from parameters: 
state {
  phase: TRAIN
  level: 0
  stage: ""
}
layer {
  name: "data"
  type: "Data"
  top: "data"
  top: "label"
  transform_param {
    mean_file: "mean.binaryproto"
  }
  data_param {
    source: "../../../data/cifar-10/cifar10_train_lmdb"
    batch_size: 64
    backend: LMDB
  }
}
layer {
  name: "conv1"
  type: "Convolution"
  bottom: "data"
  top: "conv1"
  convolution_param {
    num_output: 96
    kernel_size: 3
    weight_filler {
      type: "xavier"
    }
  }
}
layer {
  name: "relu1"
  type: "ReLU"
  bottom: "conv1"
  top: "conv1"
  relu_param {
    negative_slope: 0.01
  }
}
layer {
  name: "conv2"
  type: "Convolution"
  bottom: "conv1"
  top: "conv2"
  convolution_param {
    num_output: 96
    kernel_size: 3
    weight_filler {
      type: "xavier"
    }
  }
}
layer {
  name: "bn1"
  type: "BatchNorm"
  bottom: "conv2"
  top: "bn1"
}
layer {
  name: "relu2"
  type: "ReLU"
  bottom: "bn1"
  top: "bn1"
  relu_param {
    negative_slope: 0.01
  }
}
layer {
  name: "conv3"
  type: "Convolution"
  bottom: "bn1"
  top: "conv3"
  convolution_param {
    num_output: 96
    kernel_size: 3
    stride: 2
    weight_filler {
      type: "xavier"
    }
  }
}
layer {
  name: "drop1"
  type: "Dropout"
  bottom: "conv3"
  top: "drop1"
  dropout_param {
    dropout_ratio: 0.5
  }
}
layer {
  name: "relu3"
  type: "ReLU"
  bottom: "drop1"
  top: "drop1"
  relu_param {
    negative_slope: 0.01
  }
}
layer {
  name: "conv4"
  type: "Convolution"
  bottom: "drop1"
  top: "conv4"
  convolution_param {
    num_output: 192
    kernel_size: 3
    weight_filler {
      type: "xavier"
    }
  }
}
layer {
  name: "relu4"
  type: "ReLU"
  bottom: "conv4"
  top: "conv4"
  relu_param {
    negative_slope: 0.01
  }
}
layer {
  name: "conv5"
  type: "Convolution"
  bottom: "conv4"
  top: "conv5"
  convolution_param {
    num_output: 192
    kernel_size: 3
    weight_filler {
      type: "xavier"
    }
  }
}
layer {
  name: "bn2"
  type: "BatchNorm"
  bottom: "conv5"
  top: "bn2"
}
layer {
  name: "relu5"
  type: "ReLU"
  bottom: "bn2"
  top: "bn2"
  relu_param {
    negative_slope: 0.01
  }
}
layer {
  name: "conv6"
  type: "Convolution"
  bottom: "bn2"
  top: "conv6"
  convolution_param {
    num_output: 192
    kernel_size: 3
    stride: 2
    weight_filler {
      type: "xavier"
    }
  }
}
layer {
  name: "drop4"
  type: "Dropout"
  bottom: "conv6"
  top: "drop4"
  dropout_param {
    dropout_ratio: 0.5
  }
}
layer {
  name: "relu6"
  type: "ReLU"
  bottom: "drop4"
  top: "drop4"
  relu_param {
    negative_slope: 0.01
  }
}
layer {
  name: "conv7"
  type: "Convolution"
  bottom: "drop4"
  top: "conv7"
  convolution_param {
    num_output: 192
    kernel_size: 3
    weight_filler {
      type: "xavier"
    }
  }
}
layer {
  name: "relu7"
  type: "ReLU"
  bottom: "conv7"
  top: "conv7"
  relu_param {
    negative_slope: 0.01
  }
}
layer {
  name: "conv8"
  type: "Convolution"
  bottom: "conv7"
  top: "conv8"
  convolution_param {
    num_output: 192
    kernel_size: 1
    weight_filler {
      type: "xavier"
    }
  }
}
layer {
  name: "relu8"
  type: "ReLU"
  bottom: "conv8"
  top: "conv8"
  relu_param {
    negative_slope: 0.01
  }
}
layer {
  name: "conv9"
  type: "Convolution"
  bottom: "conv8"
  top: "conv9"
  convolution_param {
    num_output: 10
    kernel_size: 1
    weight_filler {
      type: "xavier"
    }
  }
}
layer {
  name: "relu9"
  type: "ReLU"
  bottom: "conv9"
  top: "conv9"
  relu_param {
    negative_slope: 0.01
  }
}
layer {
  name: "pool"
  type: "Pooling"
  bottom: "conv9"
  top: "pool"
  pooling_param {
    pool: AVE
    global_pooling: true
  }
}
layer {
  name: "flatten"
  type: "Flatten"
  bottom: "pool"
  top: "flatten"
}
layer {
  name: "score"
  type: "InnerProduct"
  bottom: "flatten"
  top: "score"
  inner_product_param {
    num_output: 10
    weight_filler {
      type: "gaussian"
    }
  }
}
layer {
  name: "accuracy"
  type: "Accuracy"
  bottom: "score"
  bottom: "label"
  top: "accuracy"
}
layer {
  name: "loss"
  type: "SoftmaxWithLoss"
  bottom: "score"
  bottom: "label"
  top: "loss"
}
I1013 16:06:59.591739 15660 layer_factory.hpp:77] Creating layer data
I1013 16:06:59.592161 15660 net.cpp:100] Creating Layer data
I1013 16:06:59.592171 15660 net.cpp:408] data -> data
I1013 16:06:59.592223 15660 net.cpp:408] data -> label
I1013 16:06:59.592247 15660 data_transformer.cpp:25] Loading mean file from: mean.binaryproto
I1013 16:06:59.592882 15665 db_lmdb.cpp:35] Opened lmdb ../../../data/cifar-10/cifar10_train_lmdb
I1013 16:06:59.599392 15660 data_layer.cpp:41] output data size: 64,3,32,32
I1013 16:06:59.601104 15660 net.cpp:150] Setting up data
I1013 16:06:59.601121 15660 net.cpp:157] Top shape: 64 3 32 32 (196608)
I1013 16:06:59.601147 15660 net.cpp:157] Top shape: 64 (64)
I1013 16:06:59.601148 15660 net.cpp:165] Memory required for data: 786688
I1013 16:06:59.601156 15660 layer_factory.hpp:77] Creating layer label_data_1_split
I1013 16:06:59.601167 15660 net.cpp:100] Creating Layer label_data_1_split
I1013 16:06:59.601172 15660 net.cpp:434] label_data_1_split <- label
I1013 16:06:59.601197 15660 net.cpp:408] label_data_1_split -> label_data_1_split_0
I1013 16:06:59.601205 15660 net.cpp:408] label_data_1_split -> label_data_1_split_1
I1013 16:06:59.601300 15660 net.cpp:150] Setting up label_data_1_split
I1013 16:06:59.601307 15660 net.cpp:157] Top shape: 64 (64)
I1013 16:06:59.601322 15660 net.cpp:157] Top shape: 64 (64)
I1013 16:06:59.601325 15660 net.cpp:165] Memory required for data: 787200
I1013 16:06:59.601326 15660 layer_factory.hpp:77] Creating layer conv1
I1013 16:06:59.601341 15660 net.cpp:100] Creating Layer conv1
I1013 16:06:59.601356 15660 net.cpp:434] conv1 <- data
I1013 16:06:59.601362 15660 net.cpp:408] conv1 -> conv1
I1013 16:06:59.734074 15660 net.cpp:150] Setting up conv1
I1013 16:06:59.734098 15660 net.cpp:157] Top shape: 64 96 30 30 (5529600)
I1013 16:06:59.734102 15660 net.cpp:165] Memory required for data: 22905600
I1013 16:06:59.734118 15660 layer_factory.hpp:77] Creating layer relu1
I1013 16:06:59.734127 15660 net.cpp:100] Creating Layer relu1
I1013 16:06:59.734130 15660 net.cpp:434] relu1 <- conv1
I1013 16:06:59.734134 15660 net.cpp:395] relu1 -> conv1 (in-place)
I1013 16:06:59.734335 15660 net.cpp:150] Setting up relu1
I1013 16:06:59.734343 15660 net.cpp:157] Top shape: 64 96 30 30 (5529600)
I1013 16:06:59.734359 15660 net.cpp:165] Memory required for data: 45024000
I1013 16:06:59.734361 15660 layer_factory.hpp:77] Creating layer conv2
I1013 16:06:59.734369 15660 net.cpp:100] Creating Layer conv2
I1013 16:06:59.734371 15660 net.cpp:434] conv2 <- conv1
I1013 16:06:59.734375 15660 net.cpp:408] conv2 -> conv2
I1013 16:06:59.735781 15660 net.cpp:150] Setting up conv2
I1013 16:06:59.735791 15660 net.cpp:157] Top shape: 64 96 28 28 (4816896)
I1013 16:06:59.735793 15660 net.cpp:165] Memory required for data: 64291584
I1013 16:06:59.735800 15660 layer_factory.hpp:77] Creating layer bn1
I1013 16:06:59.735805 15660 net.cpp:100] Creating Layer bn1
I1013 16:06:59.735806 15660 net.cpp:434] bn1 <- conv2
I1013 16:06:59.735810 15660 net.cpp:408] bn1 -> bn1
I1013 16:06:59.736011 15660 net.cpp:150] Setting up bn1
I1013 16:06:59.736016 15660 net.cpp:157] Top shape: 64 96 28 28 (4816896)
I1013 16:06:59.736017 15660 net.cpp:165] Memory required for data: 83559168
I1013 16:06:59.736034 15660 layer_factory.hpp:77] Creating layer relu2
I1013 16:06:59.736039 15660 net.cpp:100] Creating Layer relu2
I1013 16:06:59.736042 15660 net.cpp:434] relu2 <- bn1
I1013 16:06:59.736045 15660 net.cpp:395] relu2 -> bn1 (in-place)
I1013 16:06:59.736243 15660 net.cpp:150] Setting up relu2
I1013 16:06:59.736250 15660 net.cpp:157] Top shape: 64 96 28 28 (4816896)
I1013 16:06:59.736251 15660 net.cpp:165] Memory required for data: 102826752
I1013 16:06:59.736253 15660 layer_factory.hpp:77] Creating layer conv3
I1013 16:06:59.736259 15660 net.cpp:100] Creating Layer conv3
I1013 16:06:59.736261 15660 net.cpp:434] conv3 <- bn1
I1013 16:06:59.736266 15660 net.cpp:408] conv3 -> conv3
I1013 16:06:59.737450 15660 net.cpp:150] Setting up conv3
I1013 16:06:59.737459 15660 net.cpp:157] Top shape: 64 96 13 13 (1038336)
I1013 16:06:59.737462 15660 net.cpp:165] Memory required for data: 106980096
I1013 16:06:59.737468 15660 layer_factory.hpp:77] Creating layer drop1
I1013 16:06:59.737473 15660 net.cpp:100] Creating Layer drop1
I1013 16:06:59.737476 15660 net.cpp:434] drop1 <- conv3
I1013 16:06:59.737479 15660 net.cpp:408] drop1 -> drop1
I1013 16:06:59.737540 15660 net.cpp:150] Setting up drop1
I1013 16:06:59.737545 15660 net.cpp:157] Top shape: 64 96 13 13 (1038336)
I1013 16:06:59.737546 15660 net.cpp:165] Memory required for data: 111133440
I1013 16:06:59.737561 15660 layer_factory.hpp:77] Creating layer relu3
I1013 16:06:59.737565 15660 net.cpp:100] Creating Layer relu3
I1013 16:06:59.737567 15660 net.cpp:434] relu3 <- drop1
I1013 16:06:59.737584 15660 net.cpp:395] relu3 -> drop1 (in-place)
I1013 16:06:59.737850 15660 net.cpp:150] Setting up relu3
I1013 16:06:59.737859 15660 net.cpp:157] Top shape: 64 96 13 13 (1038336)
I1013 16:06:59.737860 15660 net.cpp:165] Memory required for data: 115286784
I1013 16:06:59.737862 15660 layer_factory.hpp:77] Creating layer conv4
I1013 16:06:59.737869 15660 net.cpp:100] Creating Layer conv4
I1013 16:06:59.737871 15660 net.cpp:434] conv4 <- drop1
I1013 16:06:59.737875 15660 net.cpp:408] conv4 -> conv4
I1013 16:06:59.739733 15660 net.cpp:150] Setting up conv4
I1013 16:06:59.739744 15660 net.cpp:157] Top shape: 64 192 11 11 (1486848)
I1013 16:06:59.739747 15660 net.cpp:165] Memory required for data: 121234176
I1013 16:06:59.739751 15660 layer_factory.hpp:77] Creating layer relu4
I1013 16:06:59.739755 15660 net.cpp:100] Creating Layer relu4
I1013 16:06:59.739758 15660 net.cpp:434] relu4 <- conv4
I1013 16:06:59.739760 15660 net.cpp:395] relu4 -> conv4 (in-place)
I1013 16:06:59.739964 15660 net.cpp:150] Setting up relu4
I1013 16:06:59.739969 15660 net.cpp:157] Top shape: 64 192 11 11 (1486848)
I1013 16:06:59.739971 15660 net.cpp:165] Memory required for data: 127181568
I1013 16:06:59.739974 15660 layer_factory.hpp:77] Creating layer conv5
I1013 16:06:59.739979 15660 net.cpp:100] Creating Layer conv5
I1013 16:06:59.739981 15660 net.cpp:434] conv5 <- conv4
I1013 16:06:59.739984 15660 net.cpp:408] conv5 -> conv5
I1013 16:06:59.742504 15660 net.cpp:150] Setting up conv5
I1013 16:06:59.742514 15660 net.cpp:157] Top shape: 64 192 9 9 (995328)
I1013 16:06:59.742516 15660 net.cpp:165] Memory required for data: 131162880
I1013 16:06:59.742521 15660 layer_factory.hpp:77] Creating layer bn2
I1013 16:06:59.742525 15660 net.cpp:100] Creating Layer bn2
I1013 16:06:59.742527 15660 net.cpp:434] bn2 <- conv5
I1013 16:06:59.742532 15660 net.cpp:408] bn2 -> bn2
I1013 16:06:59.742727 15660 net.cpp:150] Setting up bn2
I1013 16:06:59.742732 15660 net.cpp:157] Top shape: 64 192 9 9 (995328)
I1013 16:06:59.742733 15660 net.cpp:165] Memory required for data: 135144192
I1013 16:06:59.742738 15660 layer_factory.hpp:77] Creating layer relu5
I1013 16:06:59.742741 15660 net.cpp:100] Creating Layer relu5
I1013 16:06:59.742743 15660 net.cpp:434] relu5 <- bn2
I1013 16:06:59.742745 15660 net.cpp:395] relu5 -> bn2 (in-place)
I1013 16:06:59.742929 15660 net.cpp:150] Setting up relu5
I1013 16:06:59.742935 15660 net.cpp:157] Top shape: 64 192 9 9 (995328)
I1013 16:06:59.742938 15660 net.cpp:165] Memory required for data: 139125504
I1013 16:06:59.742949 15660 layer_factory.hpp:77] Creating layer conv6
I1013 16:06:59.742954 15660 net.cpp:100] Creating Layer conv6
I1013 16:06:59.742956 15660 net.cpp:434] conv6 <- bn2
I1013 16:06:59.742961 15660 net.cpp:408] conv6 -> conv6
I1013 16:06:59.745482 15660 net.cpp:150] Setting up conv6
I1013 16:06:59.745507 15660 net.cpp:157] Top shape: 64 192 4 4 (196608)
I1013 16:06:59.745510 15660 net.cpp:165] Memory required for data: 139911936
I1013 16:06:59.745532 15660 layer_factory.hpp:77] Creating layer drop4
I1013 16:06:59.745554 15660 net.cpp:100] Creating Layer drop4
I1013 16:06:59.745558 15660 net.cpp:434] drop4 <- conv6
I1013 16:06:59.745563 15660 net.cpp:408] drop4 -> drop4
I1013 16:06:59.745606 15660 net.cpp:150] Setting up drop4
I1013 16:06:59.745612 15660 net.cpp:157] Top shape: 64 192 4 4 (196608)
I1013 16:06:59.745628 15660 net.cpp:165] Memory required for data: 140698368
I1013 16:06:59.745630 15660 layer_factory.hpp:77] Creating layer relu6
I1013 16:06:59.745635 15660 net.cpp:100] Creating Layer relu6
I1013 16:06:59.745649 15660 net.cpp:434] relu6 <- drop4
I1013 16:06:59.745652 15660 net.cpp:395] relu6 -> drop4 (in-place)
I1013 16:06:59.745908 15660 net.cpp:150] Setting up relu6
I1013 16:06:59.745929 15660 net.cpp:157] Top shape: 64 192 4 4 (196608)
I1013 16:06:59.745931 15660 net.cpp:165] Memory required for data: 141484800
I1013 16:06:59.745934 15660 layer_factory.hpp:77] Creating layer conv7
I1013 16:06:59.745941 15660 net.cpp:100] Creating Layer conv7
I1013 16:06:59.745944 15660 net.cpp:434] conv7 <- drop4
I1013 16:06:59.745947 15660 net.cpp:408] conv7 -> conv7
I1013 16:06:59.748497 15660 net.cpp:150] Setting up conv7
I1013 16:06:59.748507 15660 net.cpp:157] Top shape: 64 192 2 2 (49152)
I1013 16:06:59.748510 15660 net.cpp:165] Memory required for data: 141681408
I1013 16:06:59.748514 15660 layer_factory.hpp:77] Creating layer relu7
I1013 16:06:59.748518 15660 net.cpp:100] Creating Layer relu7
I1013 16:06:59.748520 15660 net.cpp:434] relu7 <- conv7
I1013 16:06:59.748523 15660 net.cpp:395] relu7 -> conv7 (in-place)
I1013 16:06:59.748777 15660 net.cpp:150] Setting up relu7
I1013 16:06:59.748785 15660 net.cpp:157] Top shape: 64 192 2 2 (49152)
I1013 16:06:59.748787 15660 net.cpp:165] Memory required for data: 141878016
I1013 16:06:59.748790 15660 layer_factory.hpp:77] Creating layer conv8
I1013 16:06:59.748796 15660 net.cpp:100] Creating Layer conv8
I1013 16:06:59.748798 15660 net.cpp:434] conv8 <- conv7
I1013 16:06:59.748802 15660 net.cpp:408] conv8 -> conv8
I1013 16:06:59.750031 15660 net.cpp:150] Setting up conv8
I1013 16:06:59.750041 15660 net.cpp:157] Top shape: 64 192 2 2 (49152)
I1013 16:06:59.750042 15660 net.cpp:165] Memory required for data: 142074624
I1013 16:06:59.750046 15660 layer_factory.hpp:77] Creating layer relu8
I1013 16:06:59.750051 15660 net.cpp:100] Creating Layer relu8
I1013 16:06:59.750053 15660 net.cpp:434] relu8 <- conv8
I1013 16:06:59.750057 15660 net.cpp:395] relu8 -> conv8 (in-place)
I1013 16:06:59.750227 15660 net.cpp:150] Setting up relu8
I1013 16:06:59.750233 15660 net.cpp:157] Top shape: 64 192 2 2 (49152)
I1013 16:06:59.750236 15660 net.cpp:165] Memory required for data: 142271232
I1013 16:06:59.750237 15660 layer_factory.hpp:77] Creating layer conv9
I1013 16:06:59.750243 15660 net.cpp:100] Creating Layer conv9
I1013 16:06:59.750246 15660 net.cpp:434] conv9 <- conv8
I1013 16:06:59.750249 15660 net.cpp:408] conv9 -> conv9
I1013 16:06:59.751055 15660 net.cpp:150] Setting up conv9
I1013 16:06:59.751065 15660 net.cpp:157] Top shape: 64 10 2 2 (2560)
I1013 16:06:59.751067 15660 net.cpp:165] Memory required for data: 142281472
I1013 16:06:59.751071 15660 layer_factory.hpp:77] Creating layer relu9
I1013 16:06:59.751075 15660 net.cpp:100] Creating Layer relu9
I1013 16:06:59.751077 15660 net.cpp:434] relu9 <- conv9
I1013 16:06:59.751082 15660 net.cpp:395] relu9 -> conv9 (in-place)
I1013 16:06:59.751334 15660 net.cpp:150] Setting up relu9
I1013 16:06:59.751343 15660 net.cpp:157] Top shape: 64 10 2 2 (2560)
I1013 16:06:59.751344 15660 net.cpp:165] Memory required for data: 142291712
I1013 16:06:59.751355 15660 layer_factory.hpp:77] Creating layer pool
I1013 16:06:59.751360 15660 net.cpp:100] Creating Layer pool
I1013 16:06:59.751363 15660 net.cpp:434] pool <- conv9
I1013 16:06:59.751368 15660 net.cpp:408] pool -> pool
I1013 16:06:59.751559 15660 net.cpp:150] Setting up pool
I1013 16:06:59.751565 15660 net.cpp:157] Top shape: 64 10 1 1 (640)
I1013 16:06:59.751567 15660 net.cpp:165] Memory required for data: 142294272
I1013 16:06:59.751569 15660 layer_factory.hpp:77] Creating layer flatten
I1013 16:06:59.751574 15660 net.cpp:100] Creating Layer flatten
I1013 16:06:59.751575 15660 net.cpp:434] flatten <- pool
I1013 16:06:59.751579 15660 net.cpp:408] flatten -> flatten
I1013 16:06:59.751597 15660 net.cpp:150] Setting up flatten
I1013 16:06:59.751616 15660 net.cpp:157] Top shape: 64 10 (640)
I1013 16:06:59.751616 15660 net.cpp:165] Memory required for data: 142296832
I1013 16:06:59.751618 15660 layer_factory.hpp:77] Creating layer score
I1013 16:06:59.751622 15660 net.cpp:100] Creating Layer score
I1013 16:06:59.751624 15660 net.cpp:434] score <- flatten
I1013 16:06:59.751628 15660 net.cpp:408] score -> score
I1013 16:06:59.751772 15660 net.cpp:150] Setting up score
I1013 16:06:59.751776 15660 net.cpp:157] Top shape: 64 10 (640)
I1013 16:06:59.751778 15660 net.cpp:165] Memory required for data: 142299392
I1013 16:06:59.751782 15660 layer_factory.hpp:77] Creating layer score_score_0_split
I1013 16:06:59.751785 15660 net.cpp:100] Creating Layer score_score_0_split
I1013 16:06:59.751787 15660 net.cpp:434] score_score_0_split <- score
I1013 16:06:59.751791 15660 net.cpp:408] score_score_0_split -> score_score_0_split_0
I1013 16:06:59.751796 15660 net.cpp:408] score_score_0_split -> score_score_0_split_1
I1013 16:06:59.751835 15660 net.cpp:150] Setting up score_score_0_split
I1013 16:06:59.751839 15660 net.cpp:157] Top shape: 64 10 (640)
I1013 16:06:59.751842 15660 net.cpp:157] Top shape: 64 10 (640)
I1013 16:06:59.751843 15660 net.cpp:165] Memory required for data: 142304512
I1013 16:06:59.751859 15660 layer_factory.hpp:77] Creating layer accuracy
I1013 16:06:59.751864 15660 net.cpp:100] Creating Layer accuracy
I1013 16:06:59.751866 15660 net.cpp:434] accuracy <- score_score_0_split_0
I1013 16:06:59.751881 15660 net.cpp:434] accuracy <- label_data_1_split_0
I1013 16:06:59.751886 15660 net.cpp:408] accuracy -> accuracy
…
I1013 16:06:59.752491 15660 net.cpp:283] Network initialization done.
I1013 16:06:59.752737 15660 solver.cpp:181] Creating test net (#0) specified by test_net file: /home/adam/Honours/Honours-Project/cifar-10_allcnn/leakyrelu/allcnn_leakyrelu_test.prototxt
I1013 16:06:59.752892 15660 net.cpp:58] Initializing net from parameters: 
state {
  phase: TEST
}
layer {
  name: "data"
  type: "Data"
  top: "data"
  top: "label"
  transform_param {
    mean_file: "mean.binaryproto"
  }
  data_param {
    source: "../../../data/cifar-10/cifar10_test_lmdb"
    batch_size: 100
    backend: LMDB
  }
}
layer {
  name: "conv1"
  type: "Convolution"
  bottom: "data"
  top: "conv1"
  convolution_param {
    num_output: 96
    kernel_size: 3
    weight_filler {
      type: "xavier"
    }
  }
}
layer {
  name: "relu1"
  type: "ReLU"
  bottom: "conv1"
  top: "conv1"
  relu_param {
    negative_slope: 0.01
  }
}
layer {
  name: "conv2"
  type: "Convolution"
  bottom: "conv1"
  top: "conv2"
  convolution_param {
    num_output: 96
    kernel_size: 3
    weight_filler {
      type: "xavier"
    }
  }
}
layer {
  name: "bn1"
  type: "BatchNorm"
  bottom: "conv2"
  top: "bn1"
}
layer {
  name: "relu2"
  type: "ReLU"
  bottom: "bn1"
  top: "bn1"
  relu_param {
    negative_slope: 0.01
  }
}
layer {
  name: "conv3"
  type: "Convolution"
  bottom: "bn1"
  top: "conv3"
  convolution_param {
    num_output: 96
    kernel_size: 3
    stride: 2
    weight_filler {
      type: "xavier"
    }
  }
}
layer {
  name: "drop1"
  type: "Dropout"
  bottom: "conv3"
  top: "drop1"
  dropout_param {
    dropout_ratio: 0.5
  }
}
layer {
  name: "relu3"
  type: "ReLU"
  bottom: "drop1"
  top: "drop1"
  relu_param {
    negative_slope: 0.01
  }
}
layer {
  name: "conv4"
  type: "Convolution"
  bottom: "drop1"
  top: "conv4"
  convolution_param {
    num_output: 192
    kernel_size: 3
    weight_filler {
      type: "xavier"
    }
  }
}
layer {
  name: "relu4"
  type: "ReLU"
  bottom: "conv4"
  top: "conv4"
  relu_param {
    negative_slope: 0.01
  }
}
layer {
  name: "conv5"
  type: "Convolution"
  bottom: "conv4"
  top: "conv5"
  convolution_param {
    num_output: 192
    kernel_size: 3
    weight_filler {
      type: "xavier"
    }
  }
}
layer {
  name: "bn2"
  type: "BatchNorm"
  bottom: "conv5"
  top: "bn2"
}
layer {
  name: "relu5"
  type: "ReLU"
  bottom: "bn2"
  top: "bn2"
  relu_param {
    negative_slope: 0.01
  }
}
layer {
  name: "conv6"
  type: "Convolution"
  bottom: "bn2"
  top: "conv6"
  convolution_param {
    num_output: 192
    kernel_size: 3
    stride: 2
    weight_filler {
      type: "xavier"
    }
  }
}
layer {
  name: "drop4"
  type: "Dropout"
  bottom: "conv6"
  top: "drop4"
  dropout_param {
    dropout_ratio: 0.5
  }
}
layer {
  name: "relu6"
  type: "ReLU"
  bottom: "drop4"
  top: "drop4"
  relu_param {
    negative_slope: 0.01
  }
}
layer {
  name: "conv7"
  type: "Convolution"
  bottom: "drop4"
  top: "conv7"
  convolution_param {
    num_output: 192
    kernel_size: 3
    weight_filler {
      type: "xavier"
    }
  }
}
layer {
  name: "relu7"
  type: "ReLU"
  bottom: "conv7"
  top: "conv7"
  relu_param {
    negative_slope: 0.01
  }
}
layer {
  name: "conv8"
  type: "Convolution"
  bottom: "conv7"
  top: "conv8"
  convolution_param {
    num_output: 192
    kernel_size: 1
    weight_filler {
      type: "xavier"
    }
  }
}
layer {
  name: "relu8"
  type: "ReLU"
  bottom: "conv8"
  top: "conv8"
  relu_param {
    negative_slope: 0.01
  }
}
layer {
  name: "conv9"
  type: "Convolution"
  bottom: "conv8"
  top: "conv9"
  convolution_param {
    num_output: 10
    kernel_size: 1
    weight_filler {
      type: "xavier"
    }
  }
}
layer {
  name: "relu9"
  type: "ReLU"
  bottom: "conv9"
  top: "conv9"
  relu_param {
    negative_slope: 0.01
  }
}
layer {
  name: "pool"
  type: "Pooling"
  bottom: "conv9"
  top: "pool"
  pooling_param {
    pool: AVE
    global_pooling: true
  }
}
layer {
  name: "flatten"
  type: "Flatten"
  bottom: "pool"
  top: "flatten"
}
layer {
  name: "score"
  type: "InnerProduct"
  bottom: "flatten"
  top: "score"
  inner_product_param {
    num_output: 10
    weight_filler {
      type: "gaussian"
    }
  }
}
layer {
  name: "accuracy"
  type: "Accuracy"
  bottom: "score"
  bottom: "label"
  top: "accuracy"
}
layer {
  name: "loss"
  type: "SoftmaxWithLoss"
  bottom: "score"
  bottom: "label"
  top: "loss"
}
I1013 16:06:59.752995 15660 layer_factory.hpp:77] Creating layer data
I1013 16:06:59.753093 15660 net.cpp:100] Creating Layer data
I1013 16:06:59.753098 15660 net.cpp:408] data -> data
I1013 16:06:59.753104 15660 net.cpp:408] data -> label
I1013 16:06:59.753110 15660 data_transformer.cpp:25] Loading mean file from: mean.binaryproto
I1013 16:06:59.753799 15667 db_lmdb.cpp:35] Opened lmdb ../../../data/cifar-10/cifar10_test_lmdb
I1013 16:06:59.753922 15660 data_layer.cpp:41] output data size: 100,3,32,32
I1013 16:06:59.755877 15660 net.cpp:150] Setting up data
I1013 16:06:59.755924 15660 net.cpp:157] Top shape: 100 3 32 32 (307200)
I1013 16:06:59.755928 15660 net.cpp:157] Top shape: 100 (100)
I1013 16:06:59.755944 15660 net.cpp:165] Memory required for data: 1229200
I1013 16:06:59.755949 15660 layer_factory.hpp:77] Creating layer label_data_1_split
I1013 16:06:59.755956 15660 net.cpp:100] Creating Layer label_data_1_split
I1013 16:06:59.755959 15660 net.cpp:434] label_data_1_split <- label
I1013 16:06:59.755964 15660 net.cpp:408] label_data_1_split -> label_data_1_split_0
I1013 16:06:59.755973 15660 net.cpp:408] label_data_1_split -> label_data_1_split_1
I1013 16:06:59.756032 15660 net.cpp:150] Setting up label_data_1_split
I1013 16:06:59.756038 15660 net.cpp:157] Top shape: 100 (100)
I1013 16:06:59.756041 15660 net.cpp:157] Top shape: 100 (100)
I1013 16:06:59.756043 15660 net.cpp:165] Memory required for data: 1230000
I1013 16:06:59.756047 15660 layer_factory.hpp:77] Creating layer conv1
I1013 16:06:59.756069 15660 net.cpp:100] Creating Layer conv1
I1013 16:06:59.756072 15660 net.cpp:434] conv1 <- data
I1013 16:06:59.756075 15660 net.cpp:408] conv1 -> conv1
I1013 16:06:59.757238 15660 net.cpp:150] Setting up conv1
I1013 16:06:59.757248 15660 net.cpp:157] Top shape: 100 96 30 30 (8640000)
I1013 16:06:59.757266 15660 net.cpp:165] Memory required for data: 35790000
I1013 16:06:59.757274 15660 layer_factory.hpp:77] Creating layer relu1
I1013 16:06:59.757279 15660 net.cpp:100] Creating Layer relu1
I1013 16:06:59.757283 15660 net.cpp:434] relu1 <- conv1
I1013 16:06:59.757287 15660 net.cpp:395] relu1 -> conv1 (in-place)
I1013 16:06:59.757444 15660 net.cpp:150] Setting up relu1
I1013 16:06:59.757478 15660 net.cpp:157] Top shape: 100 96 30 30 (8640000)
I1013 16:06:59.757493 15660 net.cpp:165] Memory required for data: 70350000
I1013 16:06:59.757498 15660 layer_factory.hpp:77] Creating layer conv2
I1013 16:06:59.757504 15660 net.cpp:100] Creating Layer conv2
I1013 16:06:59.757506 15660 net.cpp:434] conv2 <- conv1
I1013 16:06:59.757525 15660 net.cpp:408] conv2 -> conv2
I1013 16:06:59.758934 15660 net.cpp:150] Setting up conv2
I1013 16:06:59.758944 15660 net.cpp:157] Top shape: 100 96 28 28 (7526400)
I1013 16:06:59.758947 15660 net.cpp:165] Memory required for data: 100455600
I1013 16:06:59.758955 15660 layer_factory.hpp:77] Creating layer bn1
I1013 16:06:59.758961 15660 net.cpp:100] Creating Layer bn1
I1013 16:06:59.758965 15660 net.cpp:434] bn1 <- conv2
I1013 16:06:59.758968 15660 net.cpp:408] bn1 -> bn1
I1013 16:06:59.759145 15660 net.cpp:150] Setting up bn1
I1013 16:06:59.759150 15660 net.cpp:157] Top shape: 100 96 28 28 (7526400)
I1013 16:06:59.759151 15660 net.cpp:165] Memory required for data: 130561200
I1013 16:06:59.759158 15660 layer_factory.hpp:77] Creating layer relu2
I1013 16:06:59.759162 15660 net.cpp:100] Creating Layer relu2
I1013 16:06:59.759166 15660 net.cpp:434] relu2 <- bn1
I1013 16:06:59.759168 15660 net.cpp:395] relu2 -> bn1 (in-place)
I1013 16:06:59.759423 15660 net.cpp:150] Setting up relu2
I1013 16:06:59.759430 15660 net.cpp:157] Top shape: 100 96 28 28 (7526400)
I1013 16:06:59.759433 15660 net.cpp:165] Memory required for data: 160666800
I1013 16:06:59.759435 15660 layer_factory.hpp:77] Creating layer conv3
I1013 16:06:59.759443 15660 net.cpp:100] Creating Layer conv3
I1013 16:06:59.759445 15660 net.cpp:434] conv3 <- bn1
I1013 16:06:59.759449 15660 net.cpp:408] conv3 -> conv3
I1013 16:06:59.760726 15660 net.cpp:150] Setting up conv3
I1013 16:06:59.760736 15660 net.cpp:157] Top shape: 100 96 13 13 (1622400)
I1013 16:06:59.760740 15660 net.cpp:165] Memory required for data: 167156400
I1013 16:06:59.760746 15660 layer_factory.hpp:77] Creating layer drop1
I1013 16:06:59.760752 15660 net.cpp:100] Creating Layer drop1
I1013 16:06:59.760754 15660 net.cpp:434] drop1 <- conv3
I1013 16:06:59.760759 15660 net.cpp:408] drop1 -> drop1
I1013 16:06:59.760793 15660 net.cpp:150] Setting up drop1
I1013 16:06:59.760799 15660 net.cpp:157] Top shape: 100 96 13 13 (1622400)
I1013 16:06:59.760802 15660 net.cpp:165] Memory required for data: 173646000
I1013 16:06:59.760803 15660 layer_factory.hpp:77] Creating layer relu3
I1013 16:06:59.760808 15660 net.cpp:100] Creating Layer relu3
I1013 16:06:59.760812 15660 net.cpp:434] relu3 <- drop1
I1013 16:06:59.760815 15660 net.cpp:395] relu3 -> drop1 (in-place)
I1013 16:06:59.761046 15660 net.cpp:150] Setting up relu3
I1013 16:06:59.761054 15660 net.cpp:157] Top shape: 100 96 13 13 (1622400)
I1013 16:06:59.761057 15660 net.cpp:165] Memory required for data: 180135600
I1013 16:06:59.761060 15660 layer_factory.hpp:77] Creating layer conv4
I1013 16:06:59.761066 15660 net.cpp:100] Creating Layer conv4
I1013 16:06:59.761070 15660 net.cpp:434] conv4 <- drop1
I1013 16:06:59.761073 15660 net.cpp:408] conv4 -> conv4
I1013 16:06:59.762967 15660 net.cpp:150] Setting up conv4
I1013 16:06:59.762995 15660 net.cpp:157] Top shape: 100 192 11 11 (2323200)
I1013 16:06:59.762996 15660 net.cpp:165] Memory required for data: 189428400
I1013 16:06:59.763002 15660 layer_factory.hpp:77] Creating layer relu4
I1013 16:06:59.763007 15660 net.cpp:100] Creating Layer relu4
I1013 16:06:59.763010 15660 net.cpp:434] relu4 <- conv4
I1013 16:06:59.763028 15660 net.cpp:395] relu4 -> conv4 (in-place)
I1013 16:06:59.763192 15660 net.cpp:150] Setting up relu4
I1013 16:06:59.763212 15660 net.cpp:157] Top shape: 100 192 11 11 (2323200)
I1013 16:06:59.763214 15660 net.cpp:165] Memory required for data: 198721200
I1013 16:06:59.763216 15660 layer_factory.hpp:77] Creating layer conv5
I1013 16:06:59.763236 15660 net.cpp:100] Creating Layer conv5
I1013 16:06:59.763238 15660 net.cpp:434] conv5 <- conv4
I1013 16:06:59.763242 15660 net.cpp:408] conv5 -> conv5
I1013 16:06:59.765964 15660 net.cpp:150] Setting up conv5
I1013 16:06:59.765998 15660 net.cpp:157] Top shape: 100 192 9 9 (1555200)
I1013 16:06:59.766001 15660 net.cpp:165] Memory required for data: 204942000
I1013 16:06:59.766006 15660 layer_factory.hpp:77] Creating layer bn2
I1013 16:06:59.766010 15660 net.cpp:100] Creating Layer bn2
I1013 16:06:59.766014 15660 net.cpp:434] bn2 <- conv5
I1013 16:06:59.766018 15660 net.cpp:408] bn2 -> bn2
I1013 16:06:59.766228 15660 net.cpp:150] Setting up bn2
I1013 16:06:59.766233 15660 net.cpp:157] Top shape: 100 192 9 9 (1555200)
I1013 16:06:59.766248 15660 net.cpp:165] Memory required for data: 211162800
I1013 16:06:59.766253 15660 layer_factory.hpp:77] Creating layer relu5
I1013 16:06:59.766258 15660 net.cpp:100] Creating Layer relu5
I1013 16:06:59.766260 15660 net.cpp:434] relu5 <- bn2
I1013 16:06:59.766263 15660 net.cpp:395] relu5 -> bn2 (in-place)
I1013 16:06:59.766593 15660 net.cpp:150] Setting up relu5
I1013 16:06:59.766602 15660 net.cpp:157] Top shape: 100 192 9 9 (1555200)
I1013 16:06:59.766604 15660 net.cpp:165] Memory required for data: 217383600
I1013 16:06:59.766607 15660 layer_factory.hpp:77] Creating layer conv6
I1013 16:06:59.766611 15660 net.cpp:100] Creating Layer conv6
I1013 16:06:59.766613 15660 net.cpp:434] conv6 <- bn2
I1013 16:06:59.766618 15660 net.cpp:408] conv6 -> conv6
I1013 16:06:59.769093 15660 net.cpp:150] Setting up conv6
I1013 16:06:59.769104 15660 net.cpp:157] Top shape: 100 192 4 4 (307200)
I1013 16:06:59.769105 15660 net.cpp:165] Memory required for data: 218612400
I1013 16:06:59.769114 15660 layer_factory.hpp:77] Creating layer drop4
I1013 16:06:59.769121 15660 net.cpp:100] Creating Layer drop4
I1013 16:06:59.769124 15660 net.cpp:434] drop4 <- conv6
I1013 16:06:59.769127 15660 net.cpp:408] drop4 -> drop4
I1013 16:06:59.769187 15660 net.cpp:150] Setting up drop4
I1013 16:06:59.769193 15660 net.cpp:157] Top shape: 100 192 4 4 (307200)
I1013 16:06:59.769196 15660 net.cpp:165] Memory required for data: 219841200
I1013 16:06:59.769209 15660 layer_factory.hpp:77] Creating layer relu6
I1013 16:06:59.769213 15660 net.cpp:100] Creating Layer relu6
I1013 16:06:59.769215 15660 net.cpp:434] relu6 <- drop4
I1013 16:06:59.769232 15660 net.cpp:395] relu6 -> drop4 (in-place)
I1013 16:06:59.769506 15660 net.cpp:150] Setting up relu6
I1013 16:06:59.769515 15660 net.cpp:157] Top shape: 100 192 4 4 (307200)
I1013 16:06:59.769516 15660 net.cpp:165] Memory required for data: 221070000
I1013 16:06:59.769518 15660 layer_factory.hpp:77] Creating layer conv7
I1013 16:06:59.769525 15660 net.cpp:100] Creating Layer conv7
I1013 16:06:59.769526 15660 net.cpp:434] conv7 <- drop4
I1013 16:06:59.769529 15660 net.cpp:408] conv7 -> conv7
I1013 16:06:59.772147 15660 net.cpp:150] Setting up conv7
I1013 16:06:59.772157 15660 net.cpp:157] Top shape: 100 192 2 2 (76800)
I1013 16:06:59.772161 15660 net.cpp:165] Memory required for data: 221377200
I1013 16:06:59.772164 15660 layer_factory.hpp:77] Creating layer relu7
I1013 16:06:59.772168 15660 net.cpp:100] Creating Layer relu7
I1013 16:06:59.772171 15660 net.cpp:434] relu7 <- conv7
I1013 16:06:59.772176 15660 net.cpp:395] relu7 -> conv7 (in-place)
I1013 16:06:59.772347 15660 net.cpp:150] Setting up relu7
I1013 16:06:59.772353 15660 net.cpp:157] Top shape: 100 192 2 2 (76800)
I1013 16:06:59.772356 15660 net.cpp:165] Memory required for data: 221684400
I1013 16:06:59.772357 15660 layer_factory.hpp:77] Creating layer conv8
I1013 16:06:59.772363 15660 net.cpp:100] Creating Layer conv8
I1013 16:06:59.772366 15660 net.cpp:434] conv8 <- conv7
I1013 16:06:59.772369 15660 net.cpp:408] conv8 -> conv8
I1013 16:06:59.773355 15660 net.cpp:150] Setting up conv8
I1013 16:06:59.773363 15660 net.cpp:157] Top shape: 100 192 2 2 (76800)
I1013 16:06:59.773365 15660 net.cpp:165] Memory required for data: 221991600
I1013 16:06:59.773370 15660 layer_factory.hpp:77] Creating layer relu8
I1013 16:06:59.773373 15660 net.cpp:100] Creating Layer relu8
I1013 16:06:59.773375 15660 net.cpp:434] relu8 <- conv8
I1013 16:06:59.773380 15660 net.cpp:395] relu8 -> conv8 (in-place)
I1013 16:06:59.773653 15660 net.cpp:150] Setting up relu8
I1013 16:06:59.773661 15660 net.cpp:157] Top shape: 100 192 2 2 (76800)
I1013 16:06:59.773663 15660 net.cpp:165] Memory required for data: 222298800
I1013 16:06:59.773665 15660 layer_factory.hpp:77] Creating layer conv9
I1013 16:06:59.773671 15660 net.cpp:100] Creating Layer conv9
I1013 16:06:59.773674 15660 net.cpp:434] conv9 <- conv8
I1013 16:06:59.773677 15660 net.cpp:408] conv9 -> conv9
I1013 16:06:59.774425 15660 net.cpp:150] Setting up conv9
I1013 16:06:59.774446 15660 net.cpp:157] Top shape: 100 10 2 2 (4000)
I1013 16:06:59.774449 15660 net.cpp:165] Memory required for data: 222314800
I1013 16:06:59.774453 15660 layer_factory.hpp:77] Creating layer relu9
I1013 16:06:59.774457 15660 net.cpp:100] Creating Layer relu9
I1013 16:06:59.774459 15660 net.cpp:434] relu9 <- conv9
I1013 16:06:59.774464 15660 net.cpp:395] relu9 -> conv9 (in-place)
I1013 16:06:59.774724 15660 net.cpp:150] Setting up relu9
I1013 16:06:59.774731 15660 net.cpp:157] Top shape: 100 10 2 2 (4000)
I1013 16:06:59.774734 15660 net.cpp:165] Memory required for data: 222330800
I1013 16:06:59.774735 15660 layer_factory.hpp:77] Creating layer pool
I1013 16:06:59.774739 15660 net.cpp:100] Creating Layer pool
I1013 16:06:59.774741 15660 net.cpp:434] pool <- conv9
I1013 16:06:59.774746 15660 net.cpp:408] pool -> pool
I1013 16:06:59.774946 15660 net.cpp:150] Setting up pool
I1013 16:06:59.774953 15660 net.cpp:157] Top shape: 100 10 1 1 (1000)
I1013 16:06:59.774955 15660 net.cpp:165] Memory required for data: 222334800
I1013 16:06:59.774957 15660 layer_factory.hpp:77] Creating layer flatten
I1013 16:06:59.774960 15660 net.cpp:100] Creating Layer flatten
I1013 16:06:59.774962 15660 net.cpp:434] flatten <- pool
I1013 16:06:59.774966 15660 net.cpp:408] flatten -> flatten
I1013 16:06:59.774986 15660 net.cpp:150] Setting up flatten
I1013 16:06:59.774988 15660 net.cpp:157] Top shape: 100 10 (1000)
I1013 16:06:59.774991 15660 net.cpp:165] Memory required for data: 222338800
I1013 16:06:59.775007 15660 layer_factory.hpp:77] Creating layer score
I1013 16:06:59.775012 15660 net.cpp:100] Creating Layer score
I1013 16:06:59.775014 15660 net.cpp:434] score <- flatten
I1013 16:06:59.775017 15660 net.cpp:408] score -> score
I1013 16:06:59.775136 15660 net.cpp:150] Setting up score
I1013 16:06:59.775141 15660 net.cpp:157] Top shape: 100 10 (1000)
I1013 16:06:59.775143 15660 net.cpp:165] Memory required for data: 222342800
I1013 16:06:59.775146 15660 layer_factory.hpp:77] Creating layer score_score_0_split
I1013 16:06:59.775151 15660 net.cpp:100] Creating Layer score_score_0_split
I1013 16:06:59.775153 15660 net.cpp:434] score_score_0_split <- score
I1013 16:06:59.775156 15660 net.cpp:408] score_score_0_split -> score_score_0_split_0
I1013 16:06:59.775161 15660 net.cpp:408] score_score_0_split -> score_score_0_split_1
I1013 16:06:59.775203 15660 net.cpp:150] Setting up score_score_0_split
I1013 16:06:59.775220 15660 net.cpp:157] Top shape: 100 10 (1000)
I1013 16:06:59.775223 15660 net.cpp:157] Top shape: 100 10 (1000)
I1013 16:06:59.775224 15660 net.cpp:165] Memory required for data: 222350800
I1013 16:06:59.775226 15660 layer_factory.hpp:77] Creating layer accuracy
I1013 16:06:59.775246 15660 net.cpp:100] Creating Layer accuracy
I1013 16:06:59.775249 15660 net.cpp:434] accuracy <- score_score_0_split_0
I1013 16:06:59.775251 15660 net.cpp:434] accuracy <- label_data_1_split_0
I1013 16:06:59.775269 15660 net.cpp:408] accuracy -> accuracy
…
