…
}
type: "Adam"
I1013 13:04:51.584144 13930 solver.cpp:81] Creating training net from train_net file: /home/adam/Honours/Honours-Project/cifar-10_allcnn/leakyrelu/allcnn_leakyrelu_train.prototxt
I1013 13:04:51.584519 13930 net.cpp:58] Initializing net from parameters: 
state {
  phase: TRAIN
  level: 0
  stage: ""
}
layer {
  name: "data"
  type: "Data"
  top: "data"
  top: "label"
  transform_param {
    mean_file: "mean.binaryproto"
  }
  data_param {
    source: "../../../data/cifar-10/cifar10_train_lmdb"
    batch_size: 64
    backend: LMDB
  }
}
layer {
  name: "conv1"
  type: "Convolution"
  bottom: "data"
  top: "conv1"
  convolution_param {
    num_output: 96
    kernel_size: 3
    weight_filler {
      type: "xavier"
    }
  }
}
layer {
  name: "relu1"
  type: "ReLU"
  bottom: "conv1"
  top: "conv1"
  relu_param {
    negative_slope: 0.01
  }
}
layer {
  name: "conv2"
  type: "Convolution"
  bottom: "conv1"
  top: "conv2"
  convolution_param {
    num_output: 96
    kernel_size: 3
    weight_filler {
      type: "xavier"
    }
  }
}
layer {
  name: "bn1"
  type: "BatchNorm"
  bottom: "conv2"
  top: "bn1"
}
layer {
  name: "relu2"
  type: "ReLU"
  bottom: "bn1"
  top: "bn1"
  relu_param {
    negative_slope: 0.01
  }
}
layer {
  name: "conv3"
  type: "Convolution"
  bottom: "bn1"
  top: "conv3"
  convolution_param {
    num_output: 96
    kernel_size: 3
    stride: 2
    weight_filler {
      type: "xavier"
    }
  }
}
layer {
  name: "drop1"
  type: "Dropout"
  bottom: "conv3"
  top: "drop1"
  dropout_param {
    dropout_ratio: 0.5
  }
}
layer {
  name: "relu3"
  type: "ReLU"
  bottom: "drop1"
  top: "drop1"
  relu_param {
    negative_slope: 0.01
  }
}
layer {
  name: "conv4"
  type: "Convolution"
  bottom: "drop1"
  top: "conv4"
  convolution_param {
    num_output: 192
    kernel_size: 3
    weight_filler {
      type: "xavier"
    }
  }
}
layer {
  name: "relu4"
  type: "ReLU"
  bottom: "conv4"
  top: "conv4"
  relu_param {
    negative_slope: 0.01
  }
}
layer {
  name: "conv5"
  type: "Convolution"
  bottom: "conv4"
  top: "conv5"
  convolution_param {
    num_output: 192
    kernel_size: 3
    weight_filler {
      type: "xavier"
    }
  }
}
layer {
  name: "bn2"
  type: "BatchNorm"
  bottom: "conv5"
  top: "bn2"
}
layer {
  name: "relu5"
  type: "ReLU"
  bottom: "bn2"
  top: "bn2"
  relu_param {
    negative_slope: 0.01
  }
}
layer {
  name: "conv6"
  type: "Convolution"
  bottom: "bn2"
  top: "conv6"
  convolution_param {
    num_output: 192
    kernel_size: 3
    stride: 2
    weight_filler {
      type: "xavier"
    }
  }
}
layer {
  name: "drop4"
  type: "Dropout"
  bottom: "conv6"
  top: "drop4"
  dropout_param {
    dropout_ratio: 0.5
  }
}
layer {
  name: "relu6"
  type: "ReLU"
  bottom: "drop4"
  top: "drop4"
  relu_param {
    negative_slope: 0.01
  }
}
layer {
  name: "conv7"
  type: "Convolution"
  bottom: "drop4"
  top: "conv7"
  convolution_param {
    num_output: 192
    kernel_size: 3
    weight_filler {
      type: "xavier"
    }
  }
}
layer {
  name: "relu7"
  type: "ReLU"
  bottom: "conv7"
  top: "conv7"
  relu_param {
    negative_slope: 0.01
  }
}
layer {
  name: "conv8"
  type: "Convolution"
  bottom: "conv7"
  top: "conv8"
  convolution_param {
    num_output: 192
    kernel_size: 1
    weight_filler {
      type: "xavier"
    }
  }
}
layer {
  name: "relu8"
  type: "ReLU"
  bottom: "conv8"
  top: "conv8"
  relu_param {
    negative_slope: 0.01
  }
}
layer {
  name: "conv9"
  type: "Convolution"
  bottom: "conv8"
  top: "conv9"
  convolution_param {
    num_output: 10
    kernel_size: 1
    weight_filler {
      type: "xavier"
    }
  }
}
layer {
  name: "relu9"
  type: "ReLU"
  bottom: "conv9"
  top: "conv9"
  relu_param {
    negative_slope: 0.01
  }
}
layer {
  name: "pool"
  type: "Pooling"
  bottom: "conv9"
  top: "pool"
  pooling_param {
    pool: AVE
    global_pooling: true
  }
}
layer {
  name: "flatten"
  type: "Flatten"
  bottom: "pool"
  top: "flatten"
}
layer {
  name: "score"
  type: "InnerProduct"
  bottom: "flatten"
  top: "score"
  inner_product_param {
    num_output: 10
    weight_filler {
      type: "gaussian"
    }
  }
}
layer {
  name: "accuracy"
  type: "Accuracy"
  bottom: "score"
  bottom: "label"
  top: "accuracy"
}
layer {
  name: "loss"
  type: "SoftmaxWithLoss"
  bottom: "score"
  bottom: "label"
  top: "loss"
}
I1013 13:04:51.584661 13930 layer_factory.hpp:77] Creating layer data
I1013 13:04:51.585193 13930 net.cpp:100] Creating Layer data
I1013 13:04:51.585223 13930 net.cpp:408] data -> data
I1013 13:04:51.585255 13930 net.cpp:408] data -> label
I1013 13:04:51.585279 13930 data_transformer.cpp:25] Loading mean file from: mean.binaryproto
I1013 13:04:51.585935 13936 db_lmdb.cpp:35] Opened lmdb ../../../data/cifar-10/cifar10_train_lmdb
I1013 13:04:51.592337 13930 data_layer.cpp:41] output data size: 64,3,32,32
I1013 13:04:51.593858 13930 net.cpp:150] Setting up data
I1013 13:04:51.593870 13930 net.cpp:157] Top shape: 64 3 32 32 (196608)
I1013 13:04:51.593874 13930 net.cpp:157] Top shape: 64 (64)
I1013 13:04:51.593876 13930 net.cpp:165] Memory required for data: 786688
I1013 13:04:51.593897 13930 layer_factory.hpp:77] Creating layer label_data_1_split
I1013 13:04:51.593921 13930 net.cpp:100] Creating Layer label_data_1_split
I1013 13:04:51.593925 13930 net.cpp:434] label_data_1_split <- label
I1013 13:04:51.593950 13930 net.cpp:408] label_data_1_split -> label_data_1_split_0
I1013 13:04:51.593956 13930 net.cpp:408] label_data_1_split -> label_data_1_split_1
I1013 13:04:51.594022 13930 net.cpp:150] Setting up label_data_1_split
I1013 13:04:51.594027 13930 net.cpp:157] Top shape: 64 (64)
I1013 13:04:51.594043 13930 net.cpp:157] Top shape: 64 (64)
I1013 13:04:51.594044 13930 net.cpp:165] Memory required for data: 787200
I1013 13:04:51.594046 13930 layer_factory.hpp:77] Creating layer conv1
I1013 13:04:51.594071 13930 net.cpp:100] Creating Layer conv1
I1013 13:04:51.594087 13930 net.cpp:434] conv1 <- data
I1013 13:04:51.594094 13930 net.cpp:408] conv1 -> conv1
I1013 13:04:51.730172 13930 net.cpp:150] Setting up conv1
I1013 13:04:51.730200 13930 net.cpp:157] Top shape: 64 96 30 30 (5529600)
I1013 13:04:51.730202 13930 net.cpp:165] Memory required for data: 22905600
I1013 13:04:51.730221 13930 layer_factory.hpp:77] Creating layer relu1
I1013 13:04:51.730228 13930 net.cpp:100] Creating Layer relu1
I1013 13:04:51.730232 13930 net.cpp:434] relu1 <- conv1
I1013 13:04:51.730235 13930 net.cpp:395] relu1 -> conv1 (in-place)
I1013 13:04:51.730463 13930 net.cpp:150] Setting up relu1
I1013 13:04:51.730469 13930 net.cpp:157] Top shape: 64 96 30 30 (5529600)
I1013 13:04:51.730473 13930 net.cpp:165] Memory required for data: 45024000
I1013 13:04:51.730474 13930 layer_factory.hpp:77] Creating layer conv2
I1013 13:04:51.730482 13930 net.cpp:100] Creating Layer conv2
I1013 13:04:51.730484 13930 net.cpp:434] conv2 <- conv1
I1013 13:04:51.730489 13930 net.cpp:408] conv2 -> conv2
I1013 13:04:51.731851 13930 net.cpp:150] Setting up conv2
I1013 13:04:51.731861 13930 net.cpp:157] Top shape: 64 96 28 28 (4816896)
I1013 13:04:51.731863 13930 net.cpp:165] Memory required for data: 64291584
I1013 13:04:51.731869 13930 layer_factory.hpp:77] Creating layer bn1
I1013 13:04:51.731874 13930 net.cpp:100] Creating Layer bn1
I1013 13:04:51.731876 13930 net.cpp:434] bn1 <- conv2
I1013 13:04:51.731879 13930 net.cpp:408] bn1 -> bn1
I1013 13:04:51.732059 13930 net.cpp:150] Setting up bn1
I1013 13:04:51.732064 13930 net.cpp:157] Top shape: 64 96 28 28 (4816896)
I1013 13:04:51.732066 13930 net.cpp:165] Memory required for data: 83559168
I1013 13:04:51.732084 13930 layer_factory.hpp:77] Creating layer relu2
I1013 13:04:51.732087 13930 net.cpp:100] Creating Layer relu2
I1013 13:04:51.732089 13930 net.cpp:434] relu2 <- bn1
I1013 13:04:51.732092 13930 net.cpp:395] relu2 -> bn1 (in-place)
I1013 13:04:51.732257 13930 net.cpp:150] Setting up relu2
I1013 13:04:51.732264 13930 net.cpp:157] Top shape: 64 96 28 28 (4816896)
I1013 13:04:51.732265 13930 net.cpp:165] Memory required for data: 102826752
I1013 13:04:51.732267 13930 layer_factory.hpp:77] Creating layer conv3
I1013 13:04:51.732272 13930 net.cpp:100] Creating Layer conv3
I1013 13:04:51.732275 13930 net.cpp:434] conv3 <- bn1
I1013 13:04:51.732277 13930 net.cpp:408] conv3 -> conv3
I1013 13:04:51.733420 13930 net.cpp:150] Setting up conv3
I1013 13:04:51.733428 13930 net.cpp:157] Top shape: 64 96 13 13 (1038336)
I1013 13:04:51.733431 13930 net.cpp:165] Memory required for data: 106980096
I1013 13:04:51.733438 13930 layer_factory.hpp:77] Creating layer drop1
I1013 13:04:51.733443 13930 net.cpp:100] Creating Layer drop1
I1013 13:04:51.733445 13930 net.cpp:434] drop1 <- conv3
I1013 13:04:51.733448 13930 net.cpp:408] drop1 -> drop1
I1013 13:04:51.733494 13930 net.cpp:150] Setting up drop1
I1013 13:04:51.733512 13930 net.cpp:157] Top shape: 64 96 13 13 (1038336)
I1013 13:04:51.733515 13930 net.cpp:165] Memory required for data: 111133440
I1013 13:04:51.733516 13930 layer_factory.hpp:77] Creating layer relu3
I1013 13:04:51.733532 13930 net.cpp:100] Creating Layer relu3
I1013 13:04:51.733535 13930 net.cpp:434] relu3 <- drop1
I1013 13:04:51.733537 13930 net.cpp:395] relu3 -> drop1 (in-place)
I1013 13:04:51.733810 13930 net.cpp:150] Setting up relu3
I1013 13:04:51.733819 13930 net.cpp:157] Top shape: 64 96 13 13 (1038336)
I1013 13:04:51.733820 13930 net.cpp:165] Memory required for data: 115286784
I1013 13:04:51.733822 13930 layer_factory.hpp:77] Creating layer conv4
I1013 13:04:51.733829 13930 net.cpp:100] Creating Layer conv4
I1013 13:04:51.733830 13930 net.cpp:434] conv4 <- drop1
I1013 13:04:51.733834 13930 net.cpp:408] conv4 -> conv4
I1013 13:04:51.735687 13930 net.cpp:150] Setting up conv4
I1013 13:04:51.735697 13930 net.cpp:157] Top shape: 64 192 11 11 (1486848)
I1013 13:04:51.735699 13930 net.cpp:165] Memory required for data: 121234176
I1013 13:04:51.735703 13930 layer_factory.hpp:77] Creating layer relu4
I1013 13:04:51.735708 13930 net.cpp:100] Creating Layer relu4
I1013 13:04:51.735710 13930 net.cpp:434] relu4 <- conv4
I1013 13:04:51.735714 13930 net.cpp:395] relu4 -> conv4 (in-place)
I1013 13:04:51.735887 13930 net.cpp:150] Setting up relu4
I1013 13:04:51.735893 13930 net.cpp:157] Top shape: 64 192 11 11 (1486848)
I1013 13:04:51.735895 13930 net.cpp:165] Memory required for data: 127181568
I1013 13:04:51.735898 13930 layer_factory.hpp:77] Creating layer conv5
I1013 13:04:51.735903 13930 net.cpp:100] Creating Layer conv5
I1013 13:04:51.735904 13930 net.cpp:434] conv5 <- conv4
I1013 13:04:51.735908 13930 net.cpp:408] conv5 -> conv5
I1013 13:04:51.738409 13930 net.cpp:150] Setting up conv5
I1013 13:04:51.738421 13930 net.cpp:157] Top shape: 64 192 9 9 (995328)
I1013 13:04:51.738425 13930 net.cpp:165] Memory required for data: 131162880
I1013 13:04:51.738428 13930 layer_factory.hpp:77] Creating layer bn2
I1013 13:04:51.738432 13930 net.cpp:100] Creating Layer bn2
I1013 13:04:51.738435 13930 net.cpp:434] bn2 <- conv5
I1013 13:04:51.738438 13930 net.cpp:408] bn2 -> bn2
I1013 13:04:51.738638 13930 net.cpp:150] Setting up bn2
I1013 13:04:51.738643 13930 net.cpp:157] Top shape: 64 192 9 9 (995328)
I1013 13:04:51.738646 13930 net.cpp:165] Memory required for data: 135144192
I1013 13:04:51.738651 13930 layer_factory.hpp:77] Creating layer relu5
I1013 13:04:51.738653 13930 net.cpp:100] Creating Layer relu5
I1013 13:04:51.738656 13930 net.cpp:434] relu5 <- bn2
I1013 13:04:51.738659 13930 net.cpp:395] relu5 -> bn2 (in-place)
I1013 13:04:51.738823 13930 net.cpp:150] Setting up relu5
I1013 13:04:51.738829 13930 net.cpp:157] Top shape: 64 192 9 9 (995328)
I1013 13:04:51.738831 13930 net.cpp:165] Memory required for data: 139125504
I1013 13:04:51.738840 13930 layer_factory.hpp:77] Creating layer conv6
I1013 13:04:51.738847 13930 net.cpp:100] Creating Layer conv6
I1013 13:04:51.738849 13930 net.cpp:434] conv6 <- bn2
I1013 13:04:51.738853 13930 net.cpp:408] conv6 -> conv6
I1013 13:04:51.741359 13930 net.cpp:150] Setting up conv6
I1013 13:04:51.741384 13930 net.cpp:157] Top shape: 64 192 4 4 (196608)
I1013 13:04:51.741386 13930 net.cpp:165] Memory required for data: 139911936
I1013 13:04:51.741408 13930 layer_factory.hpp:77] Creating layer drop4
I1013 13:04:51.741431 13930 net.cpp:100] Creating Layer drop4
I1013 13:04:51.741435 13930 net.cpp:434] drop4 <- conv6
I1013 13:04:51.741438 13930 net.cpp:408] drop4 -> drop4
I1013 13:04:51.741497 13930 net.cpp:150] Setting up drop4
I1013 13:04:51.741502 13930 net.cpp:157] Top shape: 64 192 4 4 (196608)
I1013 13:04:51.741518 13930 net.cpp:165] Memory required for data: 140698368
I1013 13:04:51.741519 13930 layer_factory.hpp:77] Creating layer relu6
I1013 13:04:51.741524 13930 net.cpp:100] Creating Layer relu6
I1013 13:04:51.741526 13930 net.cpp:434] relu6 <- drop4
I1013 13:04:51.741528 13930 net.cpp:395] relu6 -> drop4 (in-place)
I1013 13:04:51.741786 13930 net.cpp:150] Setting up relu6
I1013 13:04:51.741808 13930 net.cpp:157] Top shape: 64 192 4 4 (196608)
I1013 13:04:51.741811 13930 net.cpp:165] Memory required for data: 141484800
I1013 13:04:51.741813 13930 layer_factory.hpp:77] Creating layer conv7
I1013 13:04:51.741818 13930 net.cpp:100] Creating Layer conv7
I1013 13:04:51.741821 13930 net.cpp:434] conv7 <- drop4
I1013 13:04:51.741825 13930 net.cpp:408] conv7 -> conv7
I1013 13:04:51.745520 13930 net.cpp:150] Setting up conv7
I1013 13:04:51.745537 13930 net.cpp:157] Top shape: 64 192 2 2 (49152)
I1013 13:04:51.745538 13930 net.cpp:165] Memory required for data: 141681408
I1013 13:04:51.745545 13930 layer_factory.hpp:77] Creating layer relu7
I1013 13:04:51.745551 13930 net.cpp:100] Creating Layer relu7
I1013 13:04:51.745553 13930 net.cpp:434] relu7 <- conv7
I1013 13:04:51.745558 13930 net.cpp:395] relu7 -> conv7 (in-place)
I1013 13:04:51.745806 13930 net.cpp:150] Setting up relu7
I1013 13:04:51.745815 13930 net.cpp:157] Top shape: 64 192 2 2 (49152)
I1013 13:04:51.745816 13930 net.cpp:165] Memory required for data: 141878016
I1013 13:04:51.745820 13930 layer_factory.hpp:77] Creating layer conv8
I1013 13:04:51.745827 13930 net.cpp:100] Creating Layer conv8
I1013 13:04:51.745829 13930 net.cpp:434] conv8 <- conv7
I1013 13:04:51.745833 13930 net.cpp:408] conv8 -> conv8
I1013 13:04:51.747102 13930 net.cpp:150] Setting up conv8
I1013 13:04:51.747112 13930 net.cpp:157] Top shape: 64 192 2 2 (49152)
I1013 13:04:51.747114 13930 net.cpp:165] Memory required for data: 142074624
I1013 13:04:51.747118 13930 layer_factory.hpp:77] Creating layer relu8
I1013 13:04:51.747123 13930 net.cpp:100] Creating Layer relu8
I1013 13:04:51.747124 13930 net.cpp:434] relu8 <- conv8
I1013 13:04:51.747129 13930 net.cpp:395] relu8 -> conv8 (in-place)
I1013 13:04:51.747297 13930 net.cpp:150] Setting up relu8
I1013 13:04:51.747303 13930 net.cpp:157] Top shape: 64 192 2 2 (49152)
I1013 13:04:51.747304 13930 net.cpp:165] Memory required for data: 142271232
I1013 13:04:51.747306 13930 layer_factory.hpp:77] Creating layer conv9
I1013 13:04:51.747313 13930 net.cpp:100] Creating Layer conv9
I1013 13:04:51.747314 13930 net.cpp:434] conv9 <- conv8
I1013 13:04:51.747318 13930 net.cpp:408] conv9 -> conv9
I1013 13:04:51.748116 13930 net.cpp:150] Setting up conv9
I1013 13:04:51.748126 13930 net.cpp:157] Top shape: 64 10 2 2 (2560)
I1013 13:04:51.748127 13930 net.cpp:165] Memory required for data: 142281472
I1013 13:04:51.748131 13930 layer_factory.hpp:77] Creating layer relu9
I1013 13:04:51.748136 13930 net.cpp:100] Creating Layer relu9
I1013 13:04:51.748137 13930 net.cpp:434] relu9 <- conv9
I1013 13:04:51.748141 13930 net.cpp:395] relu9 -> conv9 (in-place)
I1013 13:04:51.748392 13930 net.cpp:150] Setting up relu9
I1013 13:04:51.748401 13930 net.cpp:157] Top shape: 64 10 2 2 (2560)
I1013 13:04:51.748404 13930 net.cpp:165] Memory required for data: 142291712
I1013 13:04:51.748415 13930 layer_factory.hpp:77] Creating layer pool
I1013 13:04:51.748420 13930 net.cpp:100] Creating Layer pool
I1013 13:04:51.748422 13930 net.cpp:434] pool <- conv9
I1013 13:04:51.748425 13930 net.cpp:408] pool -> pool
I1013 13:04:51.748644 13930 net.cpp:150] Setting up pool
I1013 13:04:51.748651 13930 net.cpp:157] Top shape: 64 10 1 1 (640)
I1013 13:04:51.748652 13930 net.cpp:165] Memory required for data: 142294272
I1013 13:04:51.748654 13930 layer_factory.hpp:77] Creating layer flatten
I1013 13:04:51.748657 13930 net.cpp:100] Creating Layer flatten
I1013 13:04:51.748659 13930 net.cpp:434] flatten <- pool
I1013 13:04:51.748663 13930 net.cpp:408] flatten -> flatten
I1013 13:04:51.748682 13930 net.cpp:150] Setting up flatten
I1013 13:04:51.748700 13930 net.cpp:157] Top shape: 64 10 (640)
I1013 13:04:51.748703 13930 net.cpp:165] Memory required for data: 142296832
I1013 13:04:51.748704 13930 layer_factory.hpp:77] Creating layer score
I1013 13:04:51.748708 13930 net.cpp:100] Creating Layer score
I1013 13:04:51.748710 13930 net.cpp:434] score <- flatten
I1013 13:04:51.748715 13930 net.cpp:408] score -> score
I1013 13:04:51.748860 13930 net.cpp:150] Setting up score
I1013 13:04:51.748864 13930 net.cpp:157] Top shape: 64 10 (640)
I1013 13:04:51.748867 13930 net.cpp:165] Memory required for data: 142299392
I1013 13:04:51.748870 13930 layer_factory.hpp:77] Creating layer score_score_0_split
I1013 13:04:51.748873 13930 net.cpp:100] Creating Layer score_score_0_split
I1013 13:04:51.748875 13930 net.cpp:434] score_score_0_split <- score
I1013 13:04:51.748879 13930 net.cpp:408] score_score_0_split -> score_score_0_split_0
I1013 13:04:51.748883 13930 net.cpp:408] score_score_0_split -> score_score_0_split_1
I1013 13:04:51.748924 13930 net.cpp:150] Setting up score_score_0_split
I1013 13:04:51.748929 13930 net.cpp:157] Top shape: 64 10 (640)
I1013 13:04:51.748930 13930 net.cpp:157] Top shape: 64 10 (640)
I1013 13:04:51.748946 13930 net.cpp:165] Memory required for data: 142304512
I1013 13:04:51.748949 13930 layer_factory.hpp:77] Creating layer accuracy
I1013 13:04:51.748952 13930 net.cpp:100] Creating Layer accuracy
I1013 13:04:51.748955 13930 net.cpp:434] accuracy <- score_score_0_split_0
I1013 13:04:51.748970 13930 net.cpp:434] accuracy <- label_data_1_split_0
I1013 13:04:51.748973 13930 net.cpp:408] accuracy -> accuracy
…
I1013 13:04:51.749598 13930 net.cpp:283] Network initialization done.
I1013 13:04:51.749861 13930 solver.cpp:181] Creating test net (#0) specified by test_net file: /home/adam/Honours/Honours-Project/cifar-10_allcnn/leakyrelu/allcnn_leakyrelu_test.prototxt
I1013 13:04:51.750016 13930 net.cpp:58] Initializing net from parameters: 
state {
  phase: TEST
}
layer {
  name: "data"
  type: "Data"
  top: "data"
  top: "label"
  transform_param {
    mean_file: "mean.binaryproto"
  }
  data_param {
    source: "../../../data/cifar-10/cifar10_test_lmdb"
    batch_size: 100
    backend: LMDB
  }
}
layer {
  name: "conv1"
  type: "Convolution"
  bottom: "data"
  top: "conv1"
  convolution_param {
    num_output: 96
    kernel_size: 3
    weight_filler {
      type: "xavier"
    }
  }
}
layer {
  name: "relu1"
  type: "ReLU"
  bottom: "conv1"
  top: "conv1"
  relu_param {
    negative_slope: 0.01
  }
}
layer {
  name: "conv2"
  type: "Convolution"
  bottom: "conv1"
  top: "conv2"
  convolution_param {
    num_output: 96
    kernel_size: 3
    weight_filler {
      type: "xavier"
    }
  }
}
layer {
  name: "bn1"
  type: "BatchNorm"
  bottom: "conv2"
  top: "bn1"
}
layer {
  name: "relu2"
  type: "ReLU"
  bottom: "bn1"
  top: "bn1"
  relu_param {
    negative_slope: 0.01
  }
}
layer {
  name: "conv3"
  type: "Convolution"
  bottom: "bn1"
  top: "conv3"
  convolution_param {
    num_output: 96
    kernel_size: 3
    stride: 2
    weight_filler {
      type: "xavier"
    }
  }
}
layer {
  name: "drop1"
  type: "Dropout"
  bottom: "conv3"
  top: "drop1"
  dropout_param {
    dropout_ratio: 0.5
  }
}
layer {
  name: "relu3"
  type: "ReLU"
  bottom: "drop1"
  top: "drop1"
  relu_param {
    negative_slope: 0.01
  }
}
layer {
  name: "conv4"
  type: "Convolution"
  bottom: "drop1"
  top: "conv4"
  convolution_param {
    num_output: 192
    kernel_size: 3
    weight_filler {
      type: "xavier"
    }
  }
}
layer {
  name: "relu4"
  type: "ReLU"
  bottom: "conv4"
  top: "conv4"
  relu_param {
    negative_slope: 0.01
  }
}
layer {
  name: "conv5"
  type: "Convolution"
  bottom: "conv4"
  top: "conv5"
  convolution_param {
    num_output: 192
    kernel_size: 3
    weight_filler {
      type: "xavier"
    }
  }
}
layer {
  name: "bn2"
  type: "BatchNorm"
  bottom: "conv5"
  top: "bn2"
}
layer {
  name: "relu5"
  type: "ReLU"
  bottom: "bn2"
  top: "bn2"
  relu_param {
    negative_slope: 0.01
  }
}
layer {
  name: "conv6"
  type: "Convolution"
  bottom: "bn2"
  top: "conv6"
  convolution_param {
    num_output: 192
    kernel_size: 3
    stride: 2
    weight_filler {
      type: "xavier"
    }
  }
}
layer {
  name: "drop4"
  type: "Dropout"
  bottom: "conv6"
  top: "drop4"
  dropout_param {
    dropout_ratio: 0.5
  }
}
layer {
  name: "relu6"
  type: "ReLU"
  bottom: "drop4"
  top: "drop4"
  relu_param {
    negative_slope: 0.01
  }
}
layer {
  name: "conv7"
  type: "Convolution"
  bottom: "drop4"
  top: "conv7"
  convolution_param {
    num_output: 192
    kernel_size: 3
    weight_filler {
      type: "xavier"
    }
  }
}
layer {
  name: "relu7"
  type: "ReLU"
  bottom: "conv7"
  top: "conv7"
  relu_param {
    negative_slope: 0.01
  }
}
layer {
  name: "conv8"
  type: "Convolution"
  bottom: "conv7"
  top: "conv8"
  convolution_param {
    num_output: 192
    kernel_size: 1
    weight_filler {
      type: "xavier"
    }
  }
}
layer {
  name: "relu8"
  type: "ReLU"
  bottom: "conv8"
  top: "conv8"
  relu_param {
    negative_slope: 0.01
  }
}
layer {
  name: "conv9"
  type: "Convolution"
  bottom: "conv8"
  top: "conv9"
  convolution_param {
    num_output: 10
    kernel_size: 1
    weight_filler {
      type: "xavier"
    }
  }
}
layer {
  name: "relu9"
  type: "ReLU"
  bottom: "conv9"
  top: "conv9"
  relu_param {
    negative_slope: 0.01
  }
}
layer {
  name: "pool"
  type: "Pooling"
  bottom: "conv9"
  top: "pool"
  pooling_param {
    pool: AVE
    global_pooling: true
  }
}
layer {
  name: "flatten"
  type: "Flatten"
  bottom: "pool"
  top: "flatten"
}
layer {
  name: "score"
  type: "InnerProduct"
  bottom: "flatten"
  top: "score"
  inner_product_param {
    num_output: 10
    weight_filler {
      type: "gaussian"
    }
  }
}
layer {
  name: "accuracy"
  type: "Accuracy"
  bottom: "score"
  bottom: "label"
  top: "accuracy"
}
layer {
  name: "loss"
  type: "SoftmaxWithLoss"
  bottom: "score"
  bottom: "label"
  top: "loss"
}
I1013 13:04:51.750134 13930 layer_factory.hpp:77] Creating layer data
I1013 13:04:51.750233 13930 net.cpp:100] Creating Layer data
I1013 13:04:51.750238 13930 net.cpp:408] data -> data
I1013 13:04:51.750244 13930 net.cpp:408] data -> label
I1013 13:04:51.750250 13930 data_transformer.cpp:25] Loading mean file from: mean.binaryproto
I1013 13:04:51.750946 13938 db_lmdb.cpp:35] Opened lmdb ../../../data/cifar-10/cifar10_test_lmdb
I1013 13:04:51.751081 13930 data_layer.cpp:41] output data size: 100,3,32,32
I1013 13:04:51.752952 13930 net.cpp:150] Setting up data
I1013 13:04:51.752992 13930 net.cpp:157] Top shape: 100 3 32 32 (307200)
I1013 13:04:51.752995 13930 net.cpp:157] Top shape: 100 (100)
I1013 13:04:51.752998 13930 net.cpp:165] Memory required for data: 1229200
I1013 13:04:51.753002 13930 layer_factory.hpp:77] Creating layer label_data_1_split
I1013 13:04:51.753010 13930 net.cpp:100] Creating Layer label_data_1_split
I1013 13:04:51.753013 13930 net.cpp:434] label_data_1_split <- label
I1013 13:04:51.753018 13930 net.cpp:408] label_data_1_split -> label_data_1_split_0
I1013 13:04:51.753041 13930 net.cpp:408] label_data_1_split -> label_data_1_split_1
I1013 13:04:51.753150 13930 net.cpp:150] Setting up label_data_1_split
I1013 13:04:51.753155 13930 net.cpp:157] Top shape: 100 (100)
I1013 13:04:51.753157 13930 net.cpp:157] Top shape: 100 (100)
I1013 13:04:51.753159 13930 net.cpp:165] Memory required for data: 1230000
I1013 13:04:51.753161 13930 layer_factory.hpp:77] Creating layer conv1
I1013 13:04:51.753170 13930 net.cpp:100] Creating Layer conv1
I1013 13:04:51.753172 13930 net.cpp:434] conv1 <- data
I1013 13:04:51.753176 13930 net.cpp:408] conv1 -> conv1
I1013 13:04:51.754309 13930 net.cpp:150] Setting up conv1
I1013 13:04:51.754333 13930 net.cpp:157] Top shape: 100 96 30 30 (8640000)
I1013 13:04:51.754335 13930 net.cpp:165] Memory required for data: 35790000
I1013 13:04:51.754343 13930 layer_factory.hpp:77] Creating layer relu1
I1013 13:04:51.754349 13930 net.cpp:100] Creating Layer relu1
I1013 13:04:51.754351 13930 net.cpp:434] relu1 <- conv1
I1013 13:04:51.754355 13930 net.cpp:395] relu1 -> conv1 (in-place)
I1013 13:04:51.754559 13930 net.cpp:150] Setting up relu1
I1013 13:04:51.754588 13930 net.cpp:157] Top shape: 100 96 30 30 (8640000)
I1013 13:04:51.754590 13930 net.cpp:165] Memory required for data: 70350000
I1013 13:04:51.754593 13930 layer_factory.hpp:77] Creating layer conv2
I1013 13:04:51.754602 13930 net.cpp:100] Creating Layer conv2
I1013 13:04:51.754604 13930 net.cpp:434] conv2 <- conv1
I1013 13:04:51.754609 13930 net.cpp:408] conv2 -> conv2
I1013 13:04:51.756084 13930 net.cpp:150] Setting up conv2
I1013 13:04:51.756095 13930 net.cpp:157] Top shape: 100 96 28 28 (7526400)
I1013 13:04:51.756098 13930 net.cpp:165] Memory required for data: 100455600
I1013 13:04:51.756105 13930 layer_factory.hpp:77] Creating layer bn1
I1013 13:04:51.756113 13930 net.cpp:100] Creating Layer bn1
I1013 13:04:51.756114 13930 net.cpp:434] bn1 <- conv2
I1013 13:04:51.756134 13930 net.cpp:408] bn1 -> bn1
I1013 13:04:51.756316 13930 net.cpp:150] Setting up bn1
I1013 13:04:51.756323 13930 net.cpp:157] Top shape: 100 96 28 28 (7526400)
I1013 13:04:51.756325 13930 net.cpp:165] Memory required for data: 130561200
I1013 13:04:51.756332 13930 layer_factory.hpp:77] Creating layer relu2
I1013 13:04:51.756338 13930 net.cpp:100] Creating Layer relu2
I1013 13:04:51.756342 13930 net.cpp:434] relu2 <- bn1
I1013 13:04:51.756346 13930 net.cpp:395] relu2 -> bn1 (in-place)
I1013 13:04:51.756587 13930 net.cpp:150] Setting up relu2
I1013 13:04:51.756595 13930 net.cpp:157] Top shape: 100 96 28 28 (7526400)
I1013 13:04:51.756598 13930 net.cpp:165] Memory required for data: 160666800
I1013 13:04:51.756600 13930 layer_factory.hpp:77] Creating layer conv3
I1013 13:04:51.756608 13930 net.cpp:100] Creating Layer conv3
I1013 13:04:51.756611 13930 net.cpp:434] conv3 <- bn1
I1013 13:04:51.756615 13930 net.cpp:408] conv3 -> conv3
I1013 13:04:51.757761 13930 net.cpp:150] Setting up conv3
I1013 13:04:51.757771 13930 net.cpp:157] Top shape: 100 96 13 13 (1622400)
I1013 13:04:51.757774 13930 net.cpp:165] Memory required for data: 167156400
I1013 13:04:51.757781 13930 layer_factory.hpp:77] Creating layer drop1
I1013 13:04:51.757788 13930 net.cpp:100] Creating Layer drop1
I1013 13:04:51.757803 13930 net.cpp:434] drop1 <- conv3
I1013 13:04:51.757812 13930 net.cpp:408] drop1 -> drop1
I1013 13:04:51.757849 13930 net.cpp:150] Setting up drop1
I1013 13:04:51.757855 13930 net.cpp:157] Top shape: 100 96 13 13 (1622400)
I1013 13:04:51.757858 13930 net.cpp:165] Memory required for data: 173646000
I1013 13:04:51.757860 13930 layer_factory.hpp:77] Creating layer relu3
I1013 13:04:51.757863 13930 net.cpp:100] Creating Layer relu3
I1013 13:04:51.757866 13930 net.cpp:434] relu3 <- drop1
I1013 13:04:51.757869 13930 net.cpp:395] relu3 -> drop1 (in-place)
I1013 13:04:51.758102 13930 net.cpp:150] Setting up relu3
I1013 13:04:51.758112 13930 net.cpp:157] Top shape: 100 96 13 13 (1622400)
I1013 13:04:51.758114 13930 net.cpp:165] Memory required for data: 180135600
I1013 13:04:51.758116 13930 layer_factory.hpp:77] Creating layer conv4
I1013 13:04:51.758122 13930 net.cpp:100] Creating Layer conv4
I1013 13:04:51.758126 13930 net.cpp:434] conv4 <- drop1
I1013 13:04:51.758131 13930 net.cpp:408] conv4 -> conv4
I1013 13:04:51.760118 13930 net.cpp:150] Setting up conv4
I1013 13:04:51.760133 13930 net.cpp:157] Top shape: 100 192 11 11 (2323200)
I1013 13:04:51.760135 13930 net.cpp:165] Memory required for data: 189428400
I1013 13:04:51.760141 13930 layer_factory.hpp:77] Creating layer relu4
I1013 13:04:51.760160 13930 net.cpp:100] Creating Layer relu4
I1013 13:04:51.760164 13930 net.cpp:434] relu4 <- conv4
I1013 13:04:51.760169 13930 net.cpp:395] relu4 -> conv4 (in-place)
I1013 13:04:51.760347 13930 net.cpp:150] Setting up relu4
I1013 13:04:51.760354 13930 net.cpp:157] Top shape: 100 192 11 11 (2323200)
I1013 13:04:51.760355 13930 net.cpp:165] Memory required for data: 198721200
I1013 13:04:51.760357 13930 layer_factory.hpp:77] Creating layer conv5
I1013 13:04:51.760365 13930 net.cpp:100] Creating Layer conv5
I1013 13:04:51.760380 13930 net.cpp:434] conv5 <- conv4
I1013 13:04:51.760385 13930 net.cpp:408] conv5 -> conv5
I1013 13:04:51.763257 13930 net.cpp:150] Setting up conv5
I1013 13:04:51.763278 13930 net.cpp:157] Top shape: 100 192 9 9 (1555200)
I1013 13:04:51.763281 13930 net.cpp:165] Memory required for data: 204942000
I1013 13:04:51.763286 13930 layer_factory.hpp:77] Creating layer bn2
I1013 13:04:51.763290 13930 net.cpp:100] Creating Layer bn2
I1013 13:04:51.763293 13930 net.cpp:434] bn2 <- conv5
I1013 13:04:51.763296 13930 net.cpp:408] bn2 -> bn2
I1013 13:04:51.763509 13930 net.cpp:150] Setting up bn2
I1013 13:04:51.763514 13930 net.cpp:157] Top shape: 100 192 9 9 (1555200)
I1013 13:04:51.763516 13930 net.cpp:165] Memory required for data: 211162800
I1013 13:04:51.763520 13930 layer_factory.hpp:77] Creating layer relu5
I1013 13:04:51.763525 13930 net.cpp:100] Creating Layer relu5
I1013 13:04:51.763527 13930 net.cpp:434] relu5 <- bn2
I1013 13:04:51.763530 13930 net.cpp:395] relu5 -> bn2 (in-place)
I1013 13:04:51.763836 13930 net.cpp:150] Setting up relu5
I1013 13:04:51.763844 13930 net.cpp:157] Top shape: 100 192 9 9 (1555200)
I1013 13:04:51.763846 13930 net.cpp:165] Memory required for data: 217383600
I1013 13:04:51.763849 13930 layer_factory.hpp:77] Creating layer conv6
I1013 13:04:51.763854 13930 net.cpp:100] Creating Layer conv6
I1013 13:04:51.763856 13930 net.cpp:434] conv6 <- bn2
I1013 13:04:51.763860 13930 net.cpp:408] conv6 -> conv6
I1013 13:04:51.766342 13930 net.cpp:150] Setting up conv6
I1013 13:04:51.766351 13930 net.cpp:157] Top shape: 100 192 4 4 (307200)
I1013 13:04:51.766353 13930 net.cpp:165] Memory required for data: 218612400
I1013 13:04:51.766361 13930 layer_factory.hpp:77] Creating layer drop4
I1013 13:04:51.766369 13930 net.cpp:100] Creating Layer drop4
I1013 13:04:51.766371 13930 net.cpp:434] drop4 <- conv6
I1013 13:04:51.766376 13930 net.cpp:408] drop4 -> drop4
I1013 13:04:51.766441 13930 net.cpp:150] Setting up drop4
I1013 13:04:51.766458 13930 net.cpp:157] Top shape: 100 192 4 4 (307200)
I1013 13:04:51.766460 13930 net.cpp:165] Memory required for data: 219841200
I1013 13:04:51.766463 13930 layer_factory.hpp:77] Creating layer relu6
I1013 13:04:51.766479 13930 net.cpp:100] Creating Layer relu6
I1013 13:04:51.766481 13930 net.cpp:434] relu6 <- drop4
I1013 13:04:51.766484 13930 net.cpp:395] relu6 -> drop4 (in-place)
I1013 13:04:51.766774 13930 net.cpp:150] Setting up relu6
I1013 13:04:51.766782 13930 net.cpp:157] Top shape: 100 192 4 4 (307200)
I1013 13:04:51.766784 13930 net.cpp:165] Memory required for data: 221070000
I1013 13:04:51.766787 13930 layer_factory.hpp:77] Creating layer conv7
I1013 13:04:51.766793 13930 net.cpp:100] Creating Layer conv7
I1013 13:04:51.766794 13930 net.cpp:434] conv7 <- drop4
I1013 13:04:51.766798 13930 net.cpp:408] conv7 -> conv7
I1013 13:04:51.769354 13930 net.cpp:150] Setting up conv7
I1013 13:04:51.769364 13930 net.cpp:157] Top shape: 100 192 2 2 (76800)
I1013 13:04:51.769367 13930 net.cpp:165] Memory required for data: 221377200
I1013 13:04:51.769371 13930 layer_factory.hpp:77] Creating layer relu7
I1013 13:04:51.769376 13930 net.cpp:100] Creating Layer relu7
I1013 13:04:51.769378 13930 net.cpp:434] relu7 <- conv7
I1013 13:04:51.769381 13930 net.cpp:395] relu7 -> conv7 (in-place)
I1013 13:04:51.769564 13930 net.cpp:150] Setting up relu7
I1013 13:04:51.769570 13930 net.cpp:157] Top shape: 100 192 2 2 (76800)
I1013 13:04:51.769587 13930 net.cpp:165] Memory required for data: 221684400
I1013 13:04:51.769589 13930 layer_factory.hpp:77] Creating layer conv8
I1013 13:04:51.769595 13930 net.cpp:100] Creating Layer conv8
I1013 13:04:51.769598 13930 net.cpp:434] conv8 <- conv7
I1013 13:04:51.769601 13930 net.cpp:408] conv8 -> conv8
I1013 13:04:51.770586 13930 net.cpp:150] Setting up conv8
I1013 13:04:51.770596 13930 net.cpp:157] Top shape: 100 192 2 2 (76800)
I1013 13:04:51.770598 13930 net.cpp:165] Memory required for data: 221991600
I1013 13:04:51.770602 13930 layer_factory.hpp:77] Creating layer relu8
I1013 13:04:51.770606 13930 net.cpp:100] Creating Layer relu8
I1013 13:04:51.770608 13930 net.cpp:434] relu8 <- conv8
I1013 13:04:51.770612 13930 net.cpp:395] relu8 -> conv8 (in-place)
I1013 13:04:51.770870 13930 net.cpp:150] Setting up relu8
I1013 13:04:51.770886 13930 net.cpp:157] Top shape: 100 192 2 2 (76800)
I1013 13:04:51.770889 13930 net.cpp:165] Memory required for data: 222298800
I1013 13:04:51.770890 13930 layer_factory.hpp:77] Creating layer conv9
I1013 13:04:51.770896 13930 net.cpp:100] Creating Layer conv9
I1013 13:04:51.770900 13930 net.cpp:434] conv9 <- conv8
I1013 13:04:51.770902 13930 net.cpp:408] conv9 -> conv9
I1013 13:04:51.771658 13930 net.cpp:150] Setting up conv9
I1013 13:04:51.771668 13930 net.cpp:157] Top shape: 100 10 2 2 (4000)
I1013 13:04:51.771670 13930 net.cpp:165] Memory required for data: 222314800
I1013 13:04:51.771674 13930 layer_factory.hpp:77] Creating layer relu9
I1013 13:04:51.771678 13930 net.cpp:100] Creating Layer relu9
I1013 13:04:51.771680 13930 net.cpp:434] relu9 <- conv9
I1013 13:04:51.771684 13930 net.cpp:395] relu9 -> conv9 (in-place)
I1013 13:04:51.771941 13930 net.cpp:150] Setting up relu9
I1013 13:04:51.771950 13930 net.cpp:157] Top shape: 100 10 2 2 (4000)
I1013 13:04:51.771951 13930 net.cpp:165] Memory required for data: 222330800
I1013 13:04:51.771953 13930 layer_factory.hpp:77] Creating layer pool
I1013 13:04:51.771958 13930 net.cpp:100] Creating Layer pool
I1013 13:04:51.771960 13930 net.cpp:434] pool <- conv9
I1013 13:04:51.771965 13930 net.cpp:408] pool -> pool
I1013 13:04:51.772150 13930 net.cpp:150] Setting up pool
I1013 13:04:51.772156 13930 net.cpp:157] Top shape: 100 10 1 1 (1000)
I1013 13:04:51.772158 13930 net.cpp:165] Memory required for data: 222334800
I1013 13:04:51.772161 13930 layer_factory.hpp:77] Creating layer flatten
I1013 13:04:51.772164 13930 net.cpp:100] Creating Layer flatten
I1013 13:04:51.772166 13930 net.cpp:434] flatten <- pool
I1013 13:04:51.772169 13930 net.cpp:408] flatten -> flatten
I1013 13:04:51.772189 13930 net.cpp:150] Setting up flatten
I1013 13:04:51.772207 13930 net.cpp:157] Top shape: 100 10 (1000)
I1013 13:04:51.772208 13930 net.cpp:165] Memory required for data: 222338800
I1013 13:04:51.772210 13930 layer_factory.hpp:77] Creating layer score
I1013 13:04:51.772214 13930 net.cpp:100] Creating Layer score
I1013 13:04:51.772217 13930 net.cpp:434] score <- flatten
I1013 13:04:51.772220 13930 net.cpp:408] score -> score
I1013 13:04:51.772374 13930 net.cpp:150] Setting up score
I1013 13:04:51.772379 13930 net.cpp:157] Top shape: 100 10 (1000)
I1013 13:04:51.772380 13930 net.cpp:165] Memory required for data: 222342800
I1013 13:04:51.772384 13930 layer_factory.hpp:77] Creating layer score_score_0_split
I1013 13:04:51.772388 13930 net.cpp:100] Creating Layer score_score_0_split
I1013 13:04:51.772390 13930 net.cpp:434] score_score_0_split <- score
I1013 13:04:51.772394 13930 net.cpp:408] score_score_0_split -> score_score_0_split_0
I1013 13:04:51.772398 13930 net.cpp:408] score_score_0_split -> score_score_0_split_1
I1013 13:04:51.772441 13930 net.cpp:150] Setting up score_score_0_split
I1013 13:04:51.772445 13930 net.cpp:157] Top shape: 100 10 (1000)
I1013 13:04:51.772447 13930 net.cpp:157] Top shape: 100 10 (1000)
I1013 13:04:51.772464 13930 net.cpp:165] Memory required for data: 222350800
I1013 13:04:51.772465 13930 layer_factory.hpp:77] Creating layer accuracy
I1013 13:04:51.772469 13930 net.cpp:100] Creating Layer accuracy
I1013 13:04:51.772485 13930 net.cpp:434] accuracy <- score_score_0_split_0
I1013 13:04:51.772487 13930 net.cpp:434] accuracy <- label_data_1_split_0
I1013 13:04:51.772492 13930 net.cpp:408] accuracy -> accuracy
…
