…
  stage: ""
}
type: "Nesterov"
I1010 14:43:31.706079  5944 solver.cpp:81] Creating training net from train_net file: /home/adam/Honours/Honours-Project/cifar-10_allcnn/relu/allcnn_relu_train.prototxt
I1010 14:43:31.706396  5944 net.cpp:58] Initializing net from parameters: 
state {
  phase: TRAIN
  level: 0
  stage: ""
}
layer {
  name: "data"
  type: "Data"
  top: "data"
  top: "label"
  transform_param {
    mean_file: "mean.binaryproto"
  }
  data_param {
    source: "../../../data/cifar-10/cifar10_train_lmdb"
    batch_size: 64
    backend: LMDB
  }
}
layer {
  name: "conv1"
  type: "Convolution"
  bottom: "data"
  top: "conv1"
  convolution_param {
    num_output: 96
    kernel_size: 3
    weight_filler {
      type: "xavier"
    }
  }
}
layer {
  name: "relu1"
  type: "ReLU"
  bottom: "conv1"
  top: "conv1"
}
layer {
  name: "conv2"
  type: "Convolution"
  bottom: "conv1"
  top: "conv2"
  convolution_param {
    num_output: 96
    kernel_size: 3
    weight_filler {
      type: "xavier"
    }
  }
}
layer {
  name: "bn1"
  type: "BatchNorm"
  bottom: "conv2"
  top: "bn1"
}
layer {
  name: "relu2"
  type: "ReLU"
  bottom: "bn1"
  top: "bn1"
}
layer {
  name: "drop1"
  type: "Dropout"
  bottom: "bn1"
  top: "drop1"
  dropout_param {
    dropout_ratio: 0.5
  }
}
layer {
  name: "conv3"
  type: "Convolution"
  bottom: "drop1"
  top: "conv3"
  convolution_param {
    num_output: 96
    kernel_size: 3
    stride: 2
    weight_filler {
      type: "xavier"
    }
  }
}
layer {
  name: "relu3"
  type: "ReLU"
  bottom: "conv3"
  top: "conv3"
}
layer {
  name: "conv4"
  type: "Convolution"
  bottom: "conv3"
  top: "conv4"
  convolution_param {
    num_output: 192
    kernel_size: 3
    weight_filler {
      type: "xavier"
    }
  }
}
layer {
  name: "relu4"
  type: "ReLU"
  bottom: "conv4"
  top: "conv4"
}
layer {
  name: "conv5"
  type: "Convolution"
  bottom: "conv4"
  top: "conv5"
  convolution_param {
    num_output: 192
    kernel_size: 3
    weight_filler {
      type: "xavier"
    }
  }
}
layer {
  name: "bn2"
  type: "BatchNorm"
  bottom: "conv5"
  top: "bn2"
}
layer {
  name: "relu5"
  type: "ReLU"
  bottom: "bn2"
  top: "bn2"
}
layer {
  name: "drop4"
  type: "Dropout"
  bottom: "bn2"
  top: "drop4"
  dropout_param {
    dropout_ratio: 0.5
  }
}
layer {
  name: "conv6"
  type: "Convolution"
  bottom: "drop4"
  top: "conv6"
  convolution_param {
    num_output: 192
    kernel_size: 3
    stride: 2
    weight_filler {
      type: "xavier"
    }
  }
}
layer {
  name: "relu6"
  type: "ReLU"
  bottom: "conv6"
  top: "conv6"
}
layer {
  name: "conv7"
  type: "Convolution"
  bottom: "conv6"
  top: "conv7"
  convolution_param {
    num_output: 192
    kernel_size: 3
    weight_filler {
      type: "xavier"
    }
  }
}
layer {
  name: "relu7"
  type: "ReLU"
  bottom: "conv7"
  top: "conv7"
}
layer {
  name: "conv8"
  type: "Convolution"
  bottom: "conv7"
  top: "conv8"
  convolution_param {
    num_output: 192
    kernel_size: 1
    weight_filler {
      type: "xavier"
    }
  }
}
layer {
  name: "relu8"
  type: "ReLU"
  bottom: "conv8"
  top: "conv8"
}
layer {
  name: "conv9"
  type: "Convolution"
  bottom: "conv8"
  top: "conv9"
  convolution_param {
    num_output: 10
    kernel_size: 1
    weight_filler {
      type: "xavier"
    }
  }
}
layer {
  name: "relu9"
  type: "ReLU"
  bottom: "conv9"
  top: "conv9"
}
layer {
  name: "pool"
  type: "Pooling"
  bottom: "conv9"
  top: "pool"
  pooling_param {
    pool: AVE
    global_pooling: true
  }
}
layer {
  name: "flatten"
  type: "Flatten"
  bottom: "pool"
  top: "flatten"
}
layer {
  name: "score"
  type: "InnerProduct"
  bottom: "flatten"
  top: "score"
  inner_product_param {
    num_output: 10
    weight_filler {
      type: "gaussian"
    }
  }
}
layer {
  name: "accuracy"
  type: "Accuracy"
  bottom: "score"
  bottom: "label"
  top: "accuracy"
}
layer {
  name: "loss"
  type: "SoftmaxWithLoss"
  bottom: "score"
  bottom: "label"
  top: "loss"
}
I1010 14:43:31.706545  5944 layer_factory.hpp:77] Creating layer data
I1010 14:43:31.707008  5944 net.cpp:100] Creating Layer data
I1010 14:43:31.707016  5944 net.cpp:408] data -> data
I1010 14:43:31.707032  5944 net.cpp:408] data -> label
I1010 14:43:31.707058  5944 data_transformer.cpp:25] Loading mean file from: mean.binaryproto
I1010 14:43:31.707703  5949 db_lmdb.cpp:35] Opened lmdb ../../../data/cifar-10/cifar10_train_lmdb
I1010 14:43:31.714156  5944 data_layer.cpp:41] output data size: 64,3,32,32
I1010 14:43:31.715821  5944 net.cpp:150] Setting up data
I1010 14:43:31.715840  5944 net.cpp:157] Top shape: 64 3 32 32 (196608)
I1010 14:43:31.715844  5944 net.cpp:157] Top shape: 64 (64)
I1010 14:43:31.715847  5944 net.cpp:165] Memory required for data: 786688
I1010 14:43:31.715867  5944 layer_factory.hpp:77] Creating layer label_data_1_split
I1010 14:43:31.715889  5944 net.cpp:100] Creating Layer label_data_1_split
I1010 14:43:31.715893  5944 net.cpp:434] label_data_1_split <- label
I1010 14:43:31.715903  5944 net.cpp:408] label_data_1_split -> label_data_1_split_0
I1010 14:43:31.715909  5944 net.cpp:408] label_data_1_split -> label_data_1_split_1
I1010 14:43:31.715955  5944 net.cpp:150] Setting up label_data_1_split
I1010 14:43:31.715960  5944 net.cpp:157] Top shape: 64 (64)
I1010 14:43:31.715962  5944 net.cpp:157] Top shape: 64 (64)
I1010 14:43:31.715965  5944 net.cpp:165] Memory required for data: 787200
I1010 14:43:31.715966  5944 layer_factory.hpp:77] Creating layer conv1
I1010 14:43:31.715977  5944 net.cpp:100] Creating Layer conv1
I1010 14:43:31.715979  5944 net.cpp:434] conv1 <- data
I1010 14:43:31.715984  5944 net.cpp:408] conv1 -> conv1
I1010 14:43:31.854856  5944 net.cpp:150] Setting up conv1
I1010 14:43:31.854879  5944 net.cpp:157] Top shape: 64 96 30 30 (5529600)
I1010 14:43:31.854882  5944 net.cpp:165] Memory required for data: 22905600
I1010 14:43:31.854898  5944 layer_factory.hpp:77] Creating layer relu1
I1010 14:43:31.854907  5944 net.cpp:100] Creating Layer relu1
I1010 14:43:31.854910  5944 net.cpp:434] relu1 <- conv1
I1010 14:43:31.854913  5944 net.cpp:395] relu1 -> conv1 (in-place)
I1010 14:43:31.855096  5944 net.cpp:150] Setting up relu1
I1010 14:43:31.855103  5944 net.cpp:157] Top shape: 64 96 30 30 (5529600)
I1010 14:43:31.855105  5944 net.cpp:165] Memory required for data: 45024000
I1010 14:43:31.855108  5944 layer_factory.hpp:77] Creating layer conv2
I1010 14:43:31.855118  5944 net.cpp:100] Creating Layer conv2
I1010 14:43:31.855119  5944 net.cpp:434] conv2 <- conv1
I1010 14:43:31.855123  5944 net.cpp:408] conv2 -> conv2
I1010 14:43:31.856524  5944 net.cpp:150] Setting up conv2
I1010 14:43:31.856534  5944 net.cpp:157] Top shape: 64 96 28 28 (4816896)
I1010 14:43:31.856536  5944 net.cpp:165] Memory required for data: 64291584
I1010 14:43:31.856544  5944 layer_factory.hpp:77] Creating layer bn1
I1010 14:43:31.856549  5944 net.cpp:100] Creating Layer bn1
I1010 14:43:31.856550  5944 net.cpp:434] bn1 <- conv2
I1010 14:43:31.856554  5944 net.cpp:408] bn1 -> bn1
I1010 14:43:31.856745  5944 net.cpp:150] Setting up bn1
I1010 14:43:31.856750  5944 net.cpp:157] Top shape: 64 96 28 28 (4816896)
I1010 14:43:31.856766  5944 net.cpp:165] Memory required for data: 83559168
I1010 14:43:31.856772  5944 layer_factory.hpp:77] Creating layer relu2
I1010 14:43:31.856776  5944 net.cpp:100] Creating Layer relu2
I1010 14:43:31.856778  5944 net.cpp:434] relu2 <- bn1
I1010 14:43:31.856781  5944 net.cpp:395] relu2 -> bn1 (in-place)
I1010 14:43:31.856973  5944 net.cpp:150] Setting up relu2
I1010 14:43:31.856979  5944 net.cpp:157] Top shape: 64 96 28 28 (4816896)
I1010 14:43:31.856992  5944 net.cpp:165] Memory required for data: 102826752
I1010 14:43:31.856993  5944 layer_factory.hpp:77] Creating layer drop1
I1010 14:43:31.856997  5944 net.cpp:100] Creating Layer drop1
I1010 14:43:31.856999  5944 net.cpp:434] drop1 <- bn1
I1010 14:43:31.857004  5944 net.cpp:408] drop1 -> drop1
I1010 14:43:31.857049  5944 net.cpp:150] Setting up drop1
I1010 14:43:31.857069  5944 net.cpp:157] Top shape: 64 96 28 28 (4816896)
I1010 14:43:31.857071  5944 net.cpp:165] Memory required for data: 122094336
I1010 14:43:31.857086  5944 layer_factory.hpp:77] Creating layer conv3
I1010 14:43:31.857092  5944 net.cpp:100] Creating Layer conv3
I1010 14:43:31.857095  5944 net.cpp:434] conv3 <- drop1
I1010 14:43:31.857112  5944 net.cpp:408] conv3 -> conv3
I1010 14:43:31.858283  5944 net.cpp:150] Setting up conv3
I1010 14:43:31.858291  5944 net.cpp:157] Top shape: 64 96 13 13 (1038336)
I1010 14:43:31.858294  5944 net.cpp:165] Memory required for data: 126247680
I1010 14:43:31.858300  5944 layer_factory.hpp:77] Creating layer relu3
I1010 14:43:31.858304  5944 net.cpp:100] Creating Layer relu3
I1010 14:43:31.858305  5944 net.cpp:434] relu3 <- conv3
I1010 14:43:31.858309  5944 net.cpp:395] relu3 -> conv3 (in-place)
I1010 14:43:31.858552  5944 net.cpp:150] Setting up relu3
I1010 14:43:31.858559  5944 net.cpp:157] Top shape: 64 96 13 13 (1038336)
I1010 14:43:31.858561  5944 net.cpp:165] Memory required for data: 130401024
I1010 14:43:31.858563  5944 layer_factory.hpp:77] Creating layer conv4
I1010 14:43:31.858569  5944 net.cpp:100] Creating Layer conv4
I1010 14:43:31.858572  5944 net.cpp:434] conv4 <- conv3
I1010 14:43:31.858574  5944 net.cpp:408] conv4 -> conv4
I1010 14:43:31.860389  5944 net.cpp:150] Setting up conv4
I1010 14:43:31.860399  5944 net.cpp:157] Top shape: 64 192 11 11 (1486848)
I1010 14:43:31.860401  5944 net.cpp:165] Memory required for data: 136348416
I1010 14:43:31.860405  5944 layer_factory.hpp:77] Creating layer relu4
I1010 14:43:31.860409  5944 net.cpp:100] Creating Layer relu4
I1010 14:43:31.860411  5944 net.cpp:434] relu4 <- conv4
I1010 14:43:31.860414  5944 net.cpp:395] relu4 -> conv4 (in-place)
I1010 14:43:31.860580  5944 net.cpp:150] Setting up relu4
I1010 14:43:31.860585  5944 net.cpp:157] Top shape: 64 192 11 11 (1486848)
I1010 14:43:31.860587  5944 net.cpp:165] Memory required for data: 142295808
I1010 14:43:31.860590  5944 layer_factory.hpp:77] Creating layer conv5
I1010 14:43:31.860595  5944 net.cpp:100] Creating Layer conv5
I1010 14:43:31.860597  5944 net.cpp:434] conv5 <- conv4
I1010 14:43:31.860600  5944 net.cpp:408] conv5 -> conv5
I1010 14:43:31.863098  5944 net.cpp:150] Setting up conv5
I1010 14:43:31.863109  5944 net.cpp:157] Top shape: 64 192 9 9 (995328)
I1010 14:43:31.863112  5944 net.cpp:165] Memory required for data: 146277120
I1010 14:43:31.863117  5944 layer_factory.hpp:77] Creating layer bn2
I1010 14:43:31.863121  5944 net.cpp:100] Creating Layer bn2
I1010 14:43:31.863123  5944 net.cpp:434] bn2 <- conv5
I1010 14:43:31.863127  5944 net.cpp:408] bn2 -> bn2
I1010 14:43:31.863327  5944 net.cpp:150] Setting up bn2
I1010 14:43:31.863332  5944 net.cpp:157] Top shape: 64 192 9 9 (995328)
I1010 14:43:31.863333  5944 net.cpp:165] Memory required for data: 150258432
I1010 14:43:31.863338  5944 layer_factory.hpp:77] Creating layer relu5
I1010 14:43:31.863342  5944 net.cpp:100] Creating Layer relu5
I1010 14:43:31.863343  5944 net.cpp:434] relu5 <- bn2
I1010 14:43:31.863346  5944 net.cpp:395] relu5 -> bn2 (in-place)
I1010 14:43:31.863526  5944 net.cpp:150] Setting up relu5
I1010 14:43:31.863533  5944 net.cpp:157] Top shape: 64 192 9 9 (995328)
I1010 14:43:31.863535  5944 net.cpp:165] Memory required for data: 154239744
I1010 14:43:31.863538  5944 layer_factory.hpp:77] Creating layer drop4
I1010 14:43:31.863540  5944 net.cpp:100] Creating Layer drop4
I1010 14:43:31.863543  5944 net.cpp:434] drop4 <- bn2
I1010 14:43:31.863546  5944 net.cpp:408] drop4 -> drop4
I1010 14:43:31.863587  5944 net.cpp:150] Setting up drop4
I1010 14:43:31.863592  5944 net.cpp:157] Top shape: 64 192 9 9 (995328)
I1010 14:43:31.863616  5944 net.cpp:165] Memory required for data: 158221056
I1010 14:43:31.863620  5944 layer_factory.hpp:77] Creating layer conv6
I1010 14:43:31.863638  5944 net.cpp:100] Creating Layer conv6
I1010 14:43:31.863641  5944 net.cpp:434] conv6 <- drop4
I1010 14:43:31.863644  5944 net.cpp:408] conv6 -> conv6
I1010 14:43:31.866227  5944 net.cpp:150] Setting up conv6
I1010 14:43:31.866240  5944 net.cpp:157] Top shape: 64 192 4 4 (196608)
I1010 14:43:31.866242  5944 net.cpp:165] Memory required for data: 159007488
I1010 14:43:31.866267  5944 layer_factory.hpp:77] Creating layer relu6
I1010 14:43:31.866273  5944 net.cpp:100] Creating Layer relu6
I1010 14:43:31.866276  5944 net.cpp:434] relu6 <- conv6
I1010 14:43:31.866279  5944 net.cpp:395] relu6 -> conv6 (in-place)
I1010 14:43:31.866549  5944 net.cpp:150] Setting up relu6
I1010 14:43:31.866556  5944 net.cpp:157] Top shape: 64 192 4 4 (196608)
I1010 14:43:31.866559  5944 net.cpp:165] Memory required for data: 159793920
I1010 14:43:31.866561  5944 layer_factory.hpp:77] Creating layer conv7
I1010 14:43:31.866582  5944 net.cpp:100] Creating Layer conv7
I1010 14:43:31.866585  5944 net.cpp:434] conv7 <- conv6
I1010 14:43:31.866588  5944 net.cpp:408] conv7 -> conv7
I1010 14:43:31.869597  5944 net.cpp:150] Setting up conv7
I1010 14:43:31.869613  5944 net.cpp:157] Top shape: 64 192 2 2 (49152)
I1010 14:43:31.869616  5944 net.cpp:165] Memory required for data: 159990528
I1010 14:43:31.869621  5944 layer_factory.hpp:77] Creating layer relu7
I1010 14:43:31.869626  5944 net.cpp:100] Creating Layer relu7
I1010 14:43:31.869629  5944 net.cpp:434] relu7 <- conv7
I1010 14:43:31.869633  5944 net.cpp:395] relu7 -> conv7 (in-place)
I1010 14:43:31.869886  5944 net.cpp:150] Setting up relu7
I1010 14:43:31.869894  5944 net.cpp:157] Top shape: 64 192 2 2 (49152)
I1010 14:43:31.869896  5944 net.cpp:165] Memory required for data: 160187136
I1010 14:43:31.869899  5944 layer_factory.hpp:77] Creating layer conv8
I1010 14:43:31.869905  5944 net.cpp:100] Creating Layer conv8
I1010 14:43:31.869907  5944 net.cpp:434] conv8 <- conv7
I1010 14:43:31.869912  5944 net.cpp:408] conv8 -> conv8
I1010 14:43:31.871166  5944 net.cpp:150] Setting up conv8
I1010 14:43:31.871176  5944 net.cpp:157] Top shape: 64 192 2 2 (49152)
I1010 14:43:31.871177  5944 net.cpp:165] Memory required for data: 160383744
I1010 14:43:31.871182  5944 layer_factory.hpp:77] Creating layer relu8
I1010 14:43:31.871186  5944 net.cpp:100] Creating Layer relu8
I1010 14:43:31.871188  5944 net.cpp:434] relu8 <- conv8
I1010 14:43:31.871191  5944 net.cpp:395] relu8 -> conv8 (in-place)
I1010 14:43:31.871361  5944 net.cpp:150] Setting up relu8
I1010 14:43:31.871366  5944 net.cpp:157] Top shape: 64 192 2 2 (49152)
I1010 14:43:31.871368  5944 net.cpp:165] Memory required for data: 160580352
I1010 14:43:31.871371  5944 layer_factory.hpp:77] Creating layer conv9
I1010 14:43:31.871376  5944 net.cpp:100] Creating Layer conv9
I1010 14:43:31.871378  5944 net.cpp:434] conv9 <- conv8
I1010 14:43:31.871382  5944 net.cpp:408] conv9 -> conv9
I1010 14:43:31.872195  5944 net.cpp:150] Setting up conv9
I1010 14:43:31.872205  5944 net.cpp:157] Top shape: 64 10 2 2 (2560)
I1010 14:43:31.872206  5944 net.cpp:165] Memory required for data: 160590592
I1010 14:43:31.872210  5944 layer_factory.hpp:77] Creating layer relu9
I1010 14:43:31.872213  5944 net.cpp:100] Creating Layer relu9
I1010 14:43:31.872215  5944 net.cpp:434] relu9 <- conv9
I1010 14:43:31.872220  5944 net.cpp:395] relu9 -> conv9 (in-place)
I1010 14:43:31.872473  5944 net.cpp:150] Setting up relu9
I1010 14:43:31.872479  5944 net.cpp:157] Top shape: 64 10 2 2 (2560)
I1010 14:43:31.872481  5944 net.cpp:165] Memory required for data: 160600832
I1010 14:43:31.872483  5944 layer_factory.hpp:77] Creating layer pool
I1010 14:43:31.872488  5944 net.cpp:100] Creating Layer pool
I1010 14:43:31.872491  5944 net.cpp:434] pool <- conv9
I1010 14:43:31.872494  5944 net.cpp:408] pool -> pool
I1010 14:43:31.872685  5944 net.cpp:150] Setting up pool
I1010 14:43:31.872691  5944 net.cpp:157] Top shape: 64 10 1 1 (640)
I1010 14:43:31.872704  5944 net.cpp:165] Memory required for data: 160603392
I1010 14:43:31.872706  5944 layer_factory.hpp:77] Creating layer flatten
I1010 14:43:31.872710  5944 net.cpp:100] Creating Layer flatten
I1010 14:43:31.872712  5944 net.cpp:434] flatten <- pool
I1010 14:43:31.872715  5944 net.cpp:408] flatten -> flatten
I1010 14:43:31.872750  5944 net.cpp:150] Setting up flatten
I1010 14:43:31.872755  5944 net.cpp:157] Top shape: 64 10 (640)
I1010 14:43:31.872756  5944 net.cpp:165] Memory required for data: 160605952
I1010 14:43:31.872758  5944 layer_factory.hpp:77] Creating layer score
I1010 14:43:31.872777  5944 net.cpp:100] Creating Layer score
I1010 14:43:31.872781  5944 net.cpp:434] score <- flatten
I1010 14:43:31.872783  5944 net.cpp:408] score -> score
I1010 14:43:31.872936  5944 net.cpp:150] Setting up score
I1010 14:43:31.872941  5944 net.cpp:157] Top shape: 64 10 (640)
I1010 14:43:31.872943  5944 net.cpp:165] Memory required for data: 160608512
I1010 14:43:31.872947  5944 layer_factory.hpp:77] Creating layer score_score_0_split
I1010 14:43:31.872951  5944 net.cpp:100] Creating Layer score_score_0_split
I1010 14:43:31.872953  5944 net.cpp:434] score_score_0_split <- score
I1010 14:43:31.872956  5944 net.cpp:408] score_score_0_split -> score_score_0_split_0
I1010 14:43:31.872984  5944 net.cpp:408] score_score_0_split -> score_score_0_split_1
I1010 14:43:31.873040  5944 net.cpp:150] Setting up score_score_0_split
I1010 14:43:31.873044  5944 net.cpp:157] Top shape: 64 10 (640)
I1010 14:43:31.873046  5944 net.cpp:157] Top shape: 64 10 (640)
I1010 14:43:31.873049  5944 net.cpp:165] Memory required for data: 160613632
I1010 14:43:31.873064  5944 layer_factory.hpp:77] Creating layer accuracy
I1010 14:43:31.873069  5944 net.cpp:100] Creating Layer accuracy
I1010 14:43:31.873070  5944 net.cpp:434] accuracy <- score_score_0_split_0
I1010 14:43:31.873086  5944 net.cpp:434] accuracy <- label_data_1_split_0
I1010 14:43:31.873090  5944 net.cpp:408] accuracy -> accuracy
…
I1010 14:43:31.873704  5944 net.cpp:283] Network initialization done.
I1010 14:43:31.873940  5944 solver.cpp:181] Creating test net (#0) specified by test_net file: /home/adam/Honours/Honours-Project/cifar-10_allcnn/relu/allcnn_relu_test.prototxt
I1010 14:43:31.874084  5944 net.cpp:58] Initializing net from parameters: 
state {
  phase: TEST
}
layer {
  name: "data"
  type: "Data"
  top: "data"
  top: "label"
  transform_param {
    mean_file: "mean.binaryproto"
  }
  data_param {
    source: "../../../data/cifar-10/cifar10_test_lmdb"
    batch_size: 100
    backend: LMDB
  }
}
layer {
  name: "conv1"
  type: "Convolution"
  bottom: "data"
  top: "conv1"
  convolution_param {
    num_output: 96
    kernel_size: 3
    weight_filler {
      type: "xavier"
    }
  }
}
layer {
  name: "relu1"
  type: "ReLU"
  bottom: "conv1"
  top: "conv1"
}
layer {
  name: "conv2"
  type: "Convolution"
  bottom: "conv1"
  top: "conv2"
  convolution_param {
    num_output: 96
    kernel_size: 3
    weight_filler {
      type: "xavier"
    }
  }
}
layer {
  name: "bn1"
  type: "BatchNorm"
  bottom: "conv2"
  top: "bn1"
}
layer {
  name: "relu2"
  type: "ReLU"
  bottom: "bn1"
  top: "bn1"
}
layer {
  name: "drop1"
  type: "Dropout"
  bottom: "bn1"
  top: "drop1"
  dropout_param {
    dropout_ratio: 0.5
  }
}
layer {
  name: "conv3"
  type: "Convolution"
  bottom: "drop1"
  top: "conv3"
  convolution_param {
    num_output: 96
    kernel_size: 3
    stride: 2
    weight_filler {
      type: "xavier"
    }
  }
}
layer {
  name: "relu3"
  type: "ReLU"
  bottom: "conv3"
  top: "conv3"
}
layer {
  name: "conv4"
  type: "Convolution"
  bottom: "conv3"
  top: "conv4"
  convolution_param {
    num_output: 192
    kernel_size: 3
    weight_filler {
      type: "xavier"
    }
  }
}
layer {
  name: "relu4"
  type: "ReLU"
  bottom: "conv4"
  top: "conv4"
}
layer {
  name: "conv5"
  type: "Convolution"
  bottom: "conv4"
  top: "conv5"
  convolution_param {
    num_output: 192
    kernel_size: 3
    weight_filler {
      type: "xavier"
    }
  }
}
layer {
  name: "bn2"
  type: "BatchNorm"
  bottom: "conv5"
  top: "bn2"
}
layer {
  name: "relu5"
  type: "ReLU"
  bottom: "bn2"
  top: "bn2"
}
layer {
  name: "drop4"
  type: "Dropout"
  bottom: "bn2"
  top: "drop4"
  dropout_param {
    dropout_ratio: 0.5
  }
}
layer {
  name: "conv6"
  type: "Convolution"
  bottom: "drop4"
  top: "conv6"
  convolution_param {
    num_output: 192
    kernel_size: 3
    stride: 2
    weight_filler {
      type: "xavier"
    }
  }
}
layer {
  name: "relu6"
  type: "ReLU"
  bottom: "conv6"
  top: "conv6"
}
layer {
  name: "conv7"
  type: "Convolution"
  bottom: "conv6"
  top: "conv7"
  convolution_param {
    num_output: 192
    kernel_size: 3
    weight_filler {
      type: "xavier"
    }
  }
}
layer {
  name: "relu7"
  type: "ReLU"
  bottom: "conv7"
  top: "conv7"
}
layer {
  name: "conv8"
  type: "Convolution"
  bottom: "conv7"
  top: "conv8"
  convolution_param {
    num_output: 192
    kernel_size: 1
    weight_filler {
      type: "xavier"
    }
  }
}
layer {
  name: "relu8"
  type: "ReLU"
  bottom: "conv8"
  top: "conv8"
}
layer {
  name: "conv9"
  type: "Convolution"
  bottom: "conv8"
  top: "conv9"
  convolution_param {
    num_output: 10
    kernel_size: 1
    weight_filler {
      type: "xavier"
    }
  }
}
layer {
  name: "relu9"
  type: "ReLU"
  bottom: "conv9"
  top: "conv9"
}
layer {
  name: "pool"
  type: "Pooling"
  bottom: "conv9"
  top: "pool"
  pooling_param {
    pool: AVE
    global_pooling: true
  }
}
layer {
  name: "flatten"
  type: "Flatten"
  bottom: "pool"
  top: "flatten"
}
layer {
  name: "score"
  type: "InnerProduct"
  bottom: "flatten"
  top: "score"
  inner_product_param {
    num_output: 10
    weight_filler {
      type: "gaussian"
    }
  }
}
layer {
  name: "accuracy"
  type: "Accuracy"
  bottom: "score"
  bottom: "label"
  top: "accuracy"
}
layer {
  name: "loss"
  type: "SoftmaxWithLoss"
  bottom: "score"
  bottom: "label"
  top: "loss"
}
I1010 14:43:31.874186  5944 layer_factory.hpp:77] Creating layer data
I1010 14:43:31.874297  5944 net.cpp:100] Creating Layer data
I1010 14:43:31.874303  5944 net.cpp:408] data -> data
I1010 14:43:31.874310  5944 net.cpp:408] data -> label
I1010 14:43:31.874316  5944 data_transformer.cpp:25] Loading mean file from: mean.binaryproto
I1010 14:43:31.875072  5951 db_lmdb.cpp:35] Opened lmdb ../../../data/cifar-10/cifar10_test_lmdb
I1010 14:43:31.875196  5944 data_layer.cpp:41] output data size: 100,3,32,32
I1010 14:43:31.877198  5944 net.cpp:150] Setting up data
I1010 14:43:31.877238  5944 net.cpp:157] Top shape: 100 3 32 32 (307200)
I1010 14:43:31.877241  5944 net.cpp:157] Top shape: 100 (100)
I1010 14:43:31.877243  5944 net.cpp:165] Memory required for data: 1229200
I1010 14:43:31.877248  5944 layer_factory.hpp:77] Creating layer label_data_1_split
I1010 14:43:31.877256  5944 net.cpp:100] Creating Layer label_data_1_split
I1010 14:43:31.877260  5944 net.cpp:434] label_data_1_split <- label
I1010 14:43:31.877280  5944 net.cpp:408] label_data_1_split -> label_data_1_split_0
I1010 14:43:31.877300  5944 net.cpp:408] label_data_1_split -> label_data_1_split_1
I1010 14:43:31.877373  5944 net.cpp:150] Setting up label_data_1_split
I1010 14:43:31.877378  5944 net.cpp:157] Top shape: 100 (100)
I1010 14:43:31.877382  5944 net.cpp:157] Top shape: 100 (100)
I1010 14:43:31.877382  5944 net.cpp:165] Memory required for data: 1230000
I1010 14:43:31.877384  5944 layer_factory.hpp:77] Creating layer conv1
I1010 14:43:31.877393  5944 net.cpp:100] Creating Layer conv1
I1010 14:43:31.877395  5944 net.cpp:434] conv1 <- data
I1010 14:43:31.877399  5944 net.cpp:408] conv1 -> conv1
I1010 14:43:31.878434  5944 net.cpp:150] Setting up conv1
I1010 14:43:31.878463  5944 net.cpp:157] Top shape: 100 96 30 30 (8640000)
I1010 14:43:31.878464  5944 net.cpp:165] Memory required for data: 35790000
I1010 14:43:31.878473  5944 layer_factory.hpp:77] Creating layer relu1
I1010 14:43:31.878476  5944 net.cpp:100] Creating Layer relu1
I1010 14:43:31.878479  5944 net.cpp:434] relu1 <- conv1
I1010 14:43:31.878499  5944 net.cpp:395] relu1 -> conv1 (in-place)
I1010 14:43:31.878764  5944 net.cpp:150] Setting up relu1
I1010 14:43:31.878785  5944 net.cpp:157] Top shape: 100 96 30 30 (8640000)
I1010 14:43:31.878787  5944 net.cpp:165] Memory required for data: 70350000
I1010 14:43:31.878789  5944 layer_factory.hpp:77] Creating layer conv2
I1010 14:43:31.878811  5944 net.cpp:100] Creating Layer conv2
I1010 14:43:31.878814  5944 net.cpp:434] conv2 <- conv1
I1010 14:43:31.878818  5944 net.cpp:408] conv2 -> conv2
I1010 14:43:31.880208  5944 net.cpp:150] Setting up conv2
I1010 14:43:31.880231  5944 net.cpp:157] Top shape: 100 96 28 28 (7526400)
I1010 14:43:31.880234  5944 net.cpp:165] Memory required for data: 100455600
I1010 14:43:31.880240  5944 layer_factory.hpp:77] Creating layer bn1
I1010 14:43:31.880246  5944 net.cpp:100] Creating Layer bn1
I1010 14:43:31.880249  5944 net.cpp:434] bn1 <- conv2
I1010 14:43:31.880264  5944 net.cpp:408] bn1 -> bn1
I1010 14:43:31.880466  5944 net.cpp:150] Setting up bn1
I1010 14:43:31.880473  5944 net.cpp:157] Top shape: 100 96 28 28 (7526400)
I1010 14:43:31.880475  5944 net.cpp:165] Memory required for data: 130561200
I1010 14:43:31.880482  5944 layer_factory.hpp:77] Creating layer relu2
I1010 14:43:31.880486  5944 net.cpp:100] Creating Layer relu2
I1010 14:43:31.880489  5944 net.cpp:434] relu2 <- bn1
I1010 14:43:31.880507  5944 net.cpp:395] relu2 -> bn1 (in-place)
I1010 14:43:31.880758  5944 net.cpp:150] Setting up relu2
I1010 14:43:31.880766  5944 net.cpp:157] Top shape: 100 96 28 28 (7526400)
I1010 14:43:31.880769  5944 net.cpp:165] Memory required for data: 160666800
I1010 14:43:31.880771  5944 layer_factory.hpp:77] Creating layer drop1
I1010 14:43:31.880776  5944 net.cpp:100] Creating Layer drop1
I1010 14:43:31.880780  5944 net.cpp:434] drop1 <- bn1
I1010 14:43:31.880784  5944 net.cpp:408] drop1 -> drop1
I1010 14:43:31.880834  5944 net.cpp:150] Setting up drop1
I1010 14:43:31.880839  5944 net.cpp:157] Top shape: 100 96 28 28 (7526400)
I1010 14:43:31.880841  5944 net.cpp:165] Memory required for data: 190772400
I1010 14:43:31.880843  5944 layer_factory.hpp:77] Creating layer conv3
I1010 14:43:31.880851  5944 net.cpp:100] Creating Layer conv3
I1010 14:43:31.880854  5944 net.cpp:434] conv3 <- drop1
I1010 14:43:31.880857  5944 net.cpp:408] conv3 -> conv3
I1010 14:43:31.881986  5944 net.cpp:150] Setting up conv3
I1010 14:43:31.881997  5944 net.cpp:157] Top shape: 100 96 13 13 (1622400)
I1010 14:43:31.881999  5944 net.cpp:165] Memory required for data: 197262000
I1010 14:43:31.882007  5944 layer_factory.hpp:77] Creating layer relu3
I1010 14:43:31.882011  5944 net.cpp:100] Creating Layer relu3
I1010 14:43:31.882014  5944 net.cpp:434] relu3 <- conv3
I1010 14:43:31.882019  5944 net.cpp:395] relu3 -> conv3 (in-place)
I1010 14:43:31.882259  5944 net.cpp:150] Setting up relu3
I1010 14:43:31.882267  5944 net.cpp:157] Top shape: 100 96 13 13 (1622400)
I1010 14:43:31.882269  5944 net.cpp:165] Memory required for data: 203751600
I1010 14:43:31.882272  5944 layer_factory.hpp:77] Creating layer conv4
I1010 14:43:31.882278  5944 net.cpp:100] Creating Layer conv4
I1010 14:43:31.882282  5944 net.cpp:434] conv4 <- conv3
I1010 14:43:31.882285  5944 net.cpp:408] conv4 -> conv4
I1010 14:43:31.885380  5944 net.cpp:150] Setting up conv4
I1010 14:43:31.885393  5944 net.cpp:157] Top shape: 100 192 11 11 (2323200)
I1010 14:43:31.885396  5944 net.cpp:165] Memory required for data: 213044400
I1010 14:43:31.885401  5944 layer_factory.hpp:77] Creating layer relu4
I1010 14:43:31.885406  5944 net.cpp:100] Creating Layer relu4
I1010 14:43:31.885409  5944 net.cpp:434] relu4 <- conv4
I1010 14:43:31.885428  5944 net.cpp:395] relu4 -> conv4 (in-place)
I1010 14:43:31.885608  5944 net.cpp:150] Setting up relu4
I1010 14:43:31.885615  5944 net.cpp:157] Top shape: 100 192 11 11 (2323200)
I1010 14:43:31.885617  5944 net.cpp:165] Memory required for data: 222337200
I1010 14:43:31.885622  5944 layer_factory.hpp:77] Creating layer conv5
I1010 14:43:31.885627  5944 net.cpp:100] Creating Layer conv5
I1010 14:43:31.885644  5944 net.cpp:434] conv5 <- conv4
I1010 14:43:31.885649  5944 net.cpp:408] conv5 -> conv5
I1010 14:43:31.888380  5944 net.cpp:150] Setting up conv5
I1010 14:43:31.888391  5944 net.cpp:157] Top shape: 100 192 9 9 (1555200)
I1010 14:43:31.888392  5944 net.cpp:165] Memory required for data: 228558000
I1010 14:43:31.888397  5944 layer_factory.hpp:77] Creating layer bn2
I1010 14:43:31.888402  5944 net.cpp:100] Creating Layer bn2
I1010 14:43:31.888404  5944 net.cpp:434] bn2 <- conv5
I1010 14:43:31.888408  5944 net.cpp:408] bn2 -> bn2
I1010 14:43:31.888617  5944 net.cpp:150] Setting up bn2
I1010 14:43:31.888622  5944 net.cpp:157] Top shape: 100 192 9 9 (1555200)
I1010 14:43:31.888624  5944 net.cpp:165] Memory required for data: 234778800
I1010 14:43:31.888628  5944 layer_factory.hpp:77] Creating layer relu5
I1010 14:43:31.888633  5944 net.cpp:100] Creating Layer relu5
I1010 14:43:31.888634  5944 net.cpp:434] relu5 <- bn2
I1010 14:43:31.888648  5944 net.cpp:395] relu5 -> bn2 (in-place)
I1010 14:43:31.888924  5944 net.cpp:150] Setting up relu5
I1010 14:43:31.888937  5944 net.cpp:157] Top shape: 100 192 9 9 (1555200)
I1010 14:43:31.888941  5944 net.cpp:165] Memory required for data: 240999600
I1010 14:43:31.888942  5944 layer_factory.hpp:77] Creating layer drop4
I1010 14:43:31.888947  5944 net.cpp:100] Creating Layer drop4
I1010 14:43:31.888962  5944 net.cpp:434] drop4 <- bn2
I1010 14:43:31.888967  5944 net.cpp:408] drop4 -> drop4
I1010 14:43:31.889044  5944 net.cpp:150] Setting up drop4
I1010 14:43:31.889050  5944 net.cpp:157] Top shape: 100 192 9 9 (1555200)
I1010 14:43:31.889063  5944 net.cpp:165] Memory required for data: 247220400
I1010 14:43:31.889065  5944 layer_factory.hpp:77] Creating layer conv6
I1010 14:43:31.889088  5944 net.cpp:100] Creating Layer conv6
I1010 14:43:31.889091  5944 net.cpp:434] conv6 <- drop4
I1010 14:43:31.889093  5944 net.cpp:408] conv6 -> conv6
I1010 14:43:31.891585  5944 net.cpp:150] Setting up conv6
I1010 14:43:31.891595  5944 net.cpp:157] Top shape: 100 192 4 4 (307200)
I1010 14:43:31.891598  5944 net.cpp:165] Memory required for data: 248449200
I1010 14:43:31.891607  5944 layer_factory.hpp:77] Creating layer relu6
I1010 14:43:31.891610  5944 net.cpp:100] Creating Layer relu6
I1010 14:43:31.891613  5944 net.cpp:434] relu6 <- conv6
I1010 14:43:31.891616  5944 net.cpp:395] relu6 -> conv6 (in-place)
I1010 14:43:31.891875  5944 net.cpp:150] Setting up relu6
I1010 14:43:31.891882  5944 net.cpp:157] Top shape: 100 192 4 4 (307200)
I1010 14:43:31.891885  5944 net.cpp:165] Memory required for data: 249678000
I1010 14:43:31.891886  5944 layer_factory.hpp:77] Creating layer conv7
I1010 14:43:31.891893  5944 net.cpp:100] Creating Layer conv7
I1010 14:43:31.891896  5944 net.cpp:434] conv7 <- conv6
I1010 14:43:31.891899  5944 net.cpp:408] conv7 -> conv7
I1010 14:43:31.894516  5944 net.cpp:150] Setting up conv7
I1010 14:43:31.894527  5944 net.cpp:157] Top shape: 100 192 2 2 (76800)
I1010 14:43:31.894529  5944 net.cpp:165] Memory required for data: 249985200
I1010 14:43:31.894534  5944 layer_factory.hpp:77] Creating layer relu7
I1010 14:43:31.894538  5944 net.cpp:100] Creating Layer relu7
I1010 14:43:31.894541  5944 net.cpp:434] relu7 <- conv7
I1010 14:43:31.894544  5944 net.cpp:395] relu7 -> conv7 (in-place)
I1010 14:43:31.894712  5944 net.cpp:150] Setting up relu7
I1010 14:43:31.894718  5944 net.cpp:157] Top shape: 100 192 2 2 (76800)
I1010 14:43:31.894721  5944 net.cpp:165] Memory required for data: 250292400
I1010 14:43:31.894722  5944 layer_factory.hpp:77] Creating layer conv8
I1010 14:43:31.894729  5944 net.cpp:100] Creating Layer conv8
I1010 14:43:31.894731  5944 net.cpp:434] conv8 <- conv7
I1010 14:43:31.894736  5944 net.cpp:408] conv8 -> conv8
I1010 14:43:31.895707  5944 net.cpp:150] Setting up conv8
I1010 14:43:31.895716  5944 net.cpp:157] Top shape: 100 192 2 2 (76800)
I1010 14:43:31.895720  5944 net.cpp:165] Memory required for data: 250599600
I1010 14:43:31.895723  5944 layer_factory.hpp:77] Creating layer relu8
I1010 14:43:31.895726  5944 net.cpp:100] Creating Layer relu8
I1010 14:43:31.895728  5944 net.cpp:434] relu8 <- conv8
I1010 14:43:31.895732  5944 net.cpp:395] relu8 -> conv8 (in-place)
I1010 14:43:31.895988  5944 net.cpp:150] Setting up relu8
I1010 14:43:31.895997  5944 net.cpp:157] Top shape: 100 192 2 2 (76800)
I1010 14:43:31.895998  5944 net.cpp:165] Memory required for data: 250906800
I1010 14:43:31.896000  5944 layer_factory.hpp:77] Creating layer conv9
I1010 14:43:31.896005  5944 net.cpp:100] Creating Layer conv9
I1010 14:43:31.896008  5944 net.cpp:434] conv9 <- conv8
I1010 14:43:31.896011  5944 net.cpp:408] conv9 -> conv9
I1010 14:43:31.896754  5944 net.cpp:150] Setting up conv9
I1010 14:43:31.896762  5944 net.cpp:157] Top shape: 100 10 2 2 (4000)
I1010 14:43:31.896764  5944 net.cpp:165] Memory required for data: 250922800
I1010 14:43:31.896769  5944 layer_factory.hpp:77] Creating layer relu9
I1010 14:43:31.896772  5944 net.cpp:100] Creating Layer relu9
I1010 14:43:31.896775  5944 net.cpp:434] relu9 <- conv9
I1010 14:43:31.896786  5944 net.cpp:395] relu9 -> conv9 (in-place)
I1010 14:43:31.897088  5944 net.cpp:150] Setting up relu9
I1010 14:43:31.897095  5944 net.cpp:157] Top shape: 100 10 2 2 (4000)
I1010 14:43:31.897097  5944 net.cpp:165] Memory required for data: 250938800
I1010 14:43:31.897099  5944 layer_factory.hpp:77] Creating layer pool
I1010 14:43:31.897104  5944 net.cpp:100] Creating Layer pool
I1010 14:43:31.897106  5944 net.cpp:434] pool <- conv9
I1010 14:43:31.897109  5944 net.cpp:408] pool -> pool
I1010 14:43:31.897294  5944 net.cpp:150] Setting up pool
I1010 14:43:31.897300  5944 net.cpp:157] Top shape: 100 10 1 1 (1000)
I1010 14:43:31.897302  5944 net.cpp:165] Memory required for data: 250942800
I1010 14:43:31.897305  5944 layer_factory.hpp:77] Creating layer flatten
I1010 14:43:31.897308  5944 net.cpp:100] Creating Layer flatten
I1010 14:43:31.897310  5944 net.cpp:434] flatten <- pool
I1010 14:43:31.897315  5944 net.cpp:408] flatten -> flatten
I1010 14:43:31.897333  5944 net.cpp:150] Setting up flatten
I1010 14:43:31.897351  5944 net.cpp:157] Top shape: 100 10 (1000)
I1010 14:43:31.897353  5944 net.cpp:165] Memory required for data: 250946800
I1010 14:43:31.897356  5944 layer_factory.hpp:77] Creating layer score
I1010 14:43:31.897373  5944 net.cpp:100] Creating Layer score
I1010 14:43:31.897375  5944 net.cpp:434] score <- flatten
I1010 14:43:31.897378  5944 net.cpp:408] score -> score
I1010 14:43:31.897547  5944 net.cpp:150] Setting up score
I1010 14:43:31.897552  5944 net.cpp:157] Top shape: 100 10 (1000)
I1010 14:43:31.897553  5944 net.cpp:165] Memory required for data: 250950800
I1010 14:43:31.897557  5944 layer_factory.hpp:77] Creating layer score_score_0_split
I1010 14:43:31.897562  5944 net.cpp:100] Creating Layer score_score_0_split
I1010 14:43:31.897563  5944 net.cpp:434] score_score_0_split <- score
I1010 14:43:31.897567  5944 net.cpp:408] score_score_0_split -> score_score_0_split_0
I1010 14:43:31.897570  5944 net.cpp:408] score_score_0_split -> score_score_0_split_1
I1010 14:43:31.897614  5944 net.cpp:150] Setting up score_score_0_split
I1010 14:43:31.897619  5944 net.cpp:157] Top shape: 100 10 (1000)
I1010 14:43:31.897620  5944 net.cpp:157] Top shape: 100 10 (1000)
I1010 14:43:31.897622  5944 net.cpp:165] Memory required for data: 250958800
I1010 14:43:31.897639  5944 layer_factory.hpp:77] Creating layer accuracy
I1010 14:43:31.897641  5944 net.cpp:100] Creating Layer accuracy
I1010 14:43:31.897644  5944 net.cpp:434] accuracy <- score_score_0_split_0
I1010 14:43:31.897660  5944 net.cpp:434] accuracy <- label_data_1_split_0
I1010 14:43:31.897663  5944 net.cpp:408] accuracy -> accuracy
…
