…
  stage: ""
}
type: "Adam"
I1013 03:57:03.490243  9822 solver.cpp:81] Creating training net from train_net file: /home/adam/Honours/Honours-Project/cifar-10_allcnn/elu/allcnn_elu_train.prototxt
I1013 03:57:03.490561  9822 net.cpp:58] Initializing net from parameters: 
state {
  phase: TRAIN
  level: 0
  stage: ""
}
layer {
  name: "data"
  type: "Data"
  top: "data"
  top: "label"
  transform_param {
    mean_file: "mean.binaryproto"
  }
  data_param {
    source: "../../../data/cifar-10/cifar10_train_lmdb"
    batch_size: 64
    backend: LMDB
  }
}
layer {
  name: "conv1"
  type: "Convolution"
  bottom: "data"
  top: "conv1"
  convolution_param {
    num_output: 96
    kernel_size: 3
    weight_filler {
      type: "xavier"
    }
  }
}
layer {
  name: "elu1"
  type: "ELU"
  bottom: "conv1"
  top: "conv1"
}
layer {
  name: "conv2"
  type: "Convolution"
  bottom: "conv1"
  top: "conv2"
  convolution_param {
    num_output: 96
    kernel_size: 3
    weight_filler {
      type: "xavier"
    }
  }
}
layer {
  name: "bn1"
  type: "BatchNorm"
  bottom: "conv2"
  top: "bn1"
}
layer {
  name: "elu2"
  type: "ELU"
  bottom: "bn1"
  top: "bn1"
}
layer {
  name: "conv3"
  type: "Convolution"
  bottom: "bn1"
  top: "conv3"
  convolution_param {
    num_output: 96
    kernel_size: 3
    stride: 2
    weight_filler {
      type: "xavier"
    }
  }
}
layer {
  name: "drop1"
  type: "Dropout"
  bottom: "conv3"
  top: "drop1"
  dropout_param {
    dropout_ratio: 0.5
  }
}
layer {
  name: "elu3"
  type: "ELU"
  bottom: "drop1"
  top: "drop1"
}
layer {
  name: "conv4"
  type: "Convolution"
  bottom: "drop1"
  top: "conv4"
  convolution_param {
    num_output: 192
    kernel_size: 3
    weight_filler {
      type: "xavier"
    }
  }
}
layer {
  name: "elu4"
  type: "ELU"
  bottom: "conv4"
  top: "conv4"
}
layer {
  name: "conv5"
  type: "Convolution"
  bottom: "conv4"
  top: "conv5"
  convolution_param {
    num_output: 192
    kernel_size: 3
    weight_filler {
      type: "xavier"
    }
  }
}
layer {
  name: "bn2"
  type: "BatchNorm"
  bottom: "conv5"
  top: "bn2"
}
layer {
  name: "elu5"
  type: "ELU"
  bottom: "bn2"
  top: "bn2"
}
layer {
  name: "conv6"
  type: "Convolution"
  bottom: "bn2"
  top: "conv6"
  convolution_param {
    num_output: 192
    kernel_size: 3
    stride: 2
    weight_filler {
      type: "xavier"
    }
  }
}
layer {
  name: "drop4"
  type: "Dropout"
  bottom: "conv6"
  top: "drop4"
  dropout_param {
    dropout_ratio: 0.5
  }
}
layer {
  name: "elu6"
  type: "ELU"
  bottom: "drop4"
  top: "drop4"
}
layer {
  name: "conv7"
  type: "Convolution"
  bottom: "drop4"
  top: "conv7"
  convolution_param {
    num_output: 192
    kernel_size: 3
    weight_filler {
      type: "xavier"
    }
  }
}
layer {
  name: "elu7"
  type: "ELU"
  bottom: "conv7"
  top: "conv7"
}
layer {
  name: "conv8"
  type: "Convolution"
  bottom: "conv7"
  top: "conv8"
  convolution_param {
    num_output: 192
    kernel_size: 1
    weight_filler {
      type: "xavier"
    }
  }
}
layer {
  name: "elu8"
  type: "ELU"
  bottom: "conv8"
  top: "conv8"
}
layer {
  name: "conv9"
  type: "Convolution"
  bottom: "conv8"
  top: "conv9"
  convolution_param {
    num_output: 10
    kernel_size: 1
    weight_filler {
      type: "xavier"
    }
  }
}
layer {
  name: "elu9"
  type: "ELU"
  bottom: "conv9"
  top: "conv9"
}
layer {
  name: "pool"
  type: "Pooling"
  bottom: "conv9"
  top: "pool"
  pooling_param {
    pool: AVE
    global_pooling: true
  }
}
layer {
  name: "flatten"
  type: "Flatten"
  bottom: "pool"
  top: "flatten"
}
layer {
  name: "score"
  type: "InnerProduct"
  bottom: "flatten"
  top: "score"
  inner_product_param {
    num_output: 10
    weight_filler {
      type: "gaussian"
    }
  }
}
layer {
  name: "accuracy"
  type: "Accuracy"
  bottom: "score"
  bottom: "label"
  top: "accuracy"
}
layer {
  name: "loss"
  type: "SoftmaxWithLoss"
  bottom: "score"
  bottom: "label"
  top: "loss"
}
I1013 03:57:03.490715  9822 layer_factory.hpp:77] Creating layer data
I1013 03:57:03.491165  9822 net.cpp:100] Creating Layer data
I1013 03:57:03.491189  9822 net.cpp:408] data -> data
I1013 03:57:03.491217  9822 net.cpp:408] data -> label
I1013 03:57:03.491228  9822 data_transformer.cpp:25] Loading mean file from: mean.binaryproto
I1013 03:57:03.491868  9827 db_lmdb.cpp:35] Opened lmdb ../../../data/cifar-10/cifar10_train_lmdb
I1013 03:57:03.498383  9822 data_layer.cpp:41] output data size: 64,3,32,32
I1013 03:57:03.499902  9822 net.cpp:150] Setting up data
I1013 03:57:03.499932  9822 net.cpp:157] Top shape: 64 3 32 32 (196608)
I1013 03:57:03.499934  9822 net.cpp:157] Top shape: 64 (64)
I1013 03:57:03.499936  9822 net.cpp:165] Memory required for data: 786688
I1013 03:57:03.499944  9822 layer_factory.hpp:77] Creating layer label_data_1_split
I1013 03:57:03.499954  9822 net.cpp:100] Creating Layer label_data_1_split
I1013 03:57:03.499972  9822 net.cpp:434] label_data_1_split <- label
I1013 03:57:03.499995  9822 net.cpp:408] label_data_1_split -> label_data_1_split_0
I1013 03:57:03.500017  9822 net.cpp:408] label_data_1_split -> label_data_1_split_1
I1013 03:57:03.500099  9822 net.cpp:150] Setting up label_data_1_split
I1013 03:57:03.500104  9822 net.cpp:157] Top shape: 64 (64)
I1013 03:57:03.500123  9822 net.cpp:157] Top shape: 64 (64)
I1013 03:57:03.500125  9822 net.cpp:165] Memory required for data: 787200
I1013 03:57:03.500128  9822 layer_factory.hpp:77] Creating layer conv1
I1013 03:57:03.500167  9822 net.cpp:100] Creating Layer conv1
I1013 03:57:03.500170  9822 net.cpp:434] conv1 <- data
I1013 03:57:03.500174  9822 net.cpp:408] conv1 -> conv1
I1013 03:57:03.638633  9822 net.cpp:150] Setting up conv1
I1013 03:57:03.638653  9822 net.cpp:157] Top shape: 64 96 30 30 (5529600)
I1013 03:57:03.638655  9822 net.cpp:165] Memory required for data: 22905600
I1013 03:57:03.638672  9822 layer_factory.hpp:77] Creating layer elu1
I1013 03:57:03.638679  9822 net.cpp:100] Creating Layer elu1
I1013 03:57:03.638682  9822 net.cpp:434] elu1 <- conv1
I1013 03:57:03.638687  9822 net.cpp:395] elu1 -> conv1 (in-place)
I1013 03:57:03.638708  9822 net.cpp:150] Setting up elu1
I1013 03:57:03.638711  9822 net.cpp:157] Top shape: 64 96 30 30 (5529600)
I1013 03:57:03.638713  9822 net.cpp:165] Memory required for data: 45024000
I1013 03:57:03.638715  9822 layer_factory.hpp:77] Creating layer conv2
I1013 03:57:03.638723  9822 net.cpp:100] Creating Layer conv2
I1013 03:57:03.638739  9822 net.cpp:434] conv2 <- conv1
I1013 03:57:03.638743  9822 net.cpp:408] conv2 -> conv2
I1013 03:57:03.640051  9822 net.cpp:150] Setting up conv2
I1013 03:57:03.640061  9822 net.cpp:157] Top shape: 64 96 28 28 (4816896)
I1013 03:57:03.640064  9822 net.cpp:165] Memory required for data: 64291584
I1013 03:57:03.640070  9822 layer_factory.hpp:77] Creating layer bn1
I1013 03:57:03.640074  9822 net.cpp:100] Creating Layer bn1
I1013 03:57:03.640077  9822 net.cpp:434] bn1 <- conv2
I1013 03:57:03.640081  9822 net.cpp:408] bn1 -> bn1
I1013 03:57:03.640271  9822 net.cpp:150] Setting up bn1
I1013 03:57:03.640276  9822 net.cpp:157] Top shape: 64 96 28 28 (4816896)
I1013 03:57:03.640278  9822 net.cpp:165] Memory required for data: 83559168
I1013 03:57:03.640285  9822 layer_factory.hpp:77] Creating layer elu2
I1013 03:57:03.640288  9822 net.cpp:100] Creating Layer elu2
I1013 03:57:03.640290  9822 net.cpp:434] elu2 <- bn1
I1013 03:57:03.640293  9822 net.cpp:395] elu2 -> bn1 (in-place)
I1013 03:57:03.640297  9822 net.cpp:150] Setting up elu2
I1013 03:57:03.640300  9822 net.cpp:157] Top shape: 64 96 28 28 (4816896)
I1013 03:57:03.640301  9822 net.cpp:165] Memory required for data: 102826752
I1013 03:57:03.640327  9822 layer_factory.hpp:77] Creating layer conv3
I1013 03:57:03.640333  9822 net.cpp:100] Creating Layer conv3
I1013 03:57:03.640336  9822 net.cpp:434] conv3 <- bn1
I1013 03:57:03.640339  9822 net.cpp:408] conv3 -> conv3
I1013 03:57:03.641543  9822 net.cpp:150] Setting up conv3
I1013 03:57:03.641552  9822 net.cpp:157] Top shape: 64 96 13 13 (1038336)
I1013 03:57:03.641556  9822 net.cpp:165] Memory required for data: 106980096
I1013 03:57:03.641562  9822 layer_factory.hpp:77] Creating layer drop1
I1013 03:57:03.641568  9822 net.cpp:100] Creating Layer drop1
I1013 03:57:03.641571  9822 net.cpp:434] drop1 <- conv3
I1013 03:57:03.641574  9822 net.cpp:408] drop1 -> drop1
I1013 03:57:03.641635  9822 net.cpp:150] Setting up drop1
I1013 03:57:03.641641  9822 net.cpp:157] Top shape: 64 96 13 13 (1038336)
I1013 03:57:03.641655  9822 net.cpp:165] Memory required for data: 111133440
I1013 03:57:03.641657  9822 layer_factory.hpp:77] Creating layer elu3
I1013 03:57:03.641661  9822 net.cpp:100] Creating Layer elu3
I1013 03:57:03.641679  9822 net.cpp:434] elu3 <- drop1
I1013 03:57:03.641680  9822 net.cpp:395] elu3 -> drop1 (in-place)
I1013 03:57:03.641685  9822 net.cpp:150] Setting up elu3
I1013 03:57:03.641688  9822 net.cpp:157] Top shape: 64 96 13 13 (1038336)
I1013 03:57:03.641690  9822 net.cpp:165] Memory required for data: 115286784
I1013 03:57:03.641691  9822 layer_factory.hpp:77] Creating layer conv4
I1013 03:57:03.641696  9822 net.cpp:100] Creating Layer conv4
I1013 03:57:03.641700  9822 net.cpp:434] conv4 <- drop1
I1013 03:57:03.641717  9822 net.cpp:408] conv4 -> conv4
I1013 03:57:03.643556  9822 net.cpp:150] Setting up conv4
I1013 03:57:03.643568  9822 net.cpp:157] Top shape: 64 192 11 11 (1486848)
I1013 03:57:03.643569  9822 net.cpp:165] Memory required for data: 121234176
I1013 03:57:03.643574  9822 layer_factory.hpp:77] Creating layer elu4
I1013 03:57:03.643577  9822 net.cpp:100] Creating Layer elu4
I1013 03:57:03.643580  9822 net.cpp:434] elu4 <- conv4
I1013 03:57:03.643584  9822 net.cpp:395] elu4 -> conv4 (in-place)
I1013 03:57:03.643587  9822 net.cpp:150] Setting up elu4
I1013 03:57:03.643590  9822 net.cpp:157] Top shape: 64 192 11 11 (1486848)
I1013 03:57:03.643591  9822 net.cpp:165] Memory required for data: 127181568
I1013 03:57:03.643594  9822 layer_factory.hpp:77] Creating layer conv5
I1013 03:57:03.643599  9822 net.cpp:100] Creating Layer conv5
I1013 03:57:03.643615  9822 net.cpp:434] conv5 <- conv4
I1013 03:57:03.643620  9822 net.cpp:408] conv5 -> conv5
I1013 03:57:03.646131  9822 net.cpp:150] Setting up conv5
I1013 03:57:03.646141  9822 net.cpp:157] Top shape: 64 192 9 9 (995328)
I1013 03:57:03.646142  9822 net.cpp:165] Memory required for data: 131162880
I1013 03:57:03.646147  9822 layer_factory.hpp:77] Creating layer bn2
I1013 03:57:03.646152  9822 net.cpp:100] Creating Layer bn2
I1013 03:57:03.646154  9822 net.cpp:434] bn2 <- conv5
I1013 03:57:03.646157  9822 net.cpp:408] bn2 -> bn2
I1013 03:57:03.646337  9822 net.cpp:150] Setting up bn2
I1013 03:57:03.646342  9822 net.cpp:157] Top shape: 64 192 9 9 (995328)
I1013 03:57:03.646344  9822 net.cpp:165] Memory required for data: 135144192
I1013 03:57:03.646349  9822 layer_factory.hpp:77] Creating layer elu5
I1013 03:57:03.646353  9822 net.cpp:100] Creating Layer elu5
I1013 03:57:03.646354  9822 net.cpp:434] elu5 <- bn2
I1013 03:57:03.646358  9822 net.cpp:395] elu5 -> bn2 (in-place)
I1013 03:57:03.646360  9822 net.cpp:150] Setting up elu5
I1013 03:57:03.646363  9822 net.cpp:157] Top shape: 64 192 9 9 (995328)
I1013 03:57:03.646364  9822 net.cpp:165] Memory required for data: 139125504
I1013 03:57:03.646366  9822 layer_factory.hpp:77] Creating layer conv6
I1013 03:57:03.646373  9822 net.cpp:100] Creating Layer conv6
I1013 03:57:03.646374  9822 net.cpp:434] conv6 <- bn2
I1013 03:57:03.646391  9822 net.cpp:408] conv6 -> conv6
I1013 03:57:03.648950  9822 net.cpp:150] Setting up conv6
I1013 03:57:03.648960  9822 net.cpp:157] Top shape: 64 192 4 4 (196608)
I1013 03:57:03.648962  9822 net.cpp:165] Memory required for data: 139911936
I1013 03:57:03.648980  9822 layer_factory.hpp:77] Creating layer drop4
I1013 03:57:03.648988  9822 net.cpp:100] Creating Layer drop4
I1013 03:57:03.648990  9822 net.cpp:434] drop4 <- conv6
I1013 03:57:03.648994  9822 net.cpp:408] drop4 -> drop4
I1013 03:57:03.649067  9822 net.cpp:150] Setting up drop4
I1013 03:57:03.649072  9822 net.cpp:157] Top shape: 64 192 4 4 (196608)
I1013 03:57:03.649075  9822 net.cpp:165] Memory required for data: 140698368
I1013 03:57:03.649091  9822 layer_factory.hpp:77] Creating layer elu6
I1013 03:57:03.649093  9822 net.cpp:100] Creating Layer elu6
I1013 03:57:03.649096  9822 net.cpp:434] elu6 <- drop4
I1013 03:57:03.649099  9822 net.cpp:395] elu6 -> drop4 (in-place)
I1013 03:57:03.649103  9822 net.cpp:150] Setting up elu6
I1013 03:57:03.649106  9822 net.cpp:157] Top shape: 64 192 4 4 (196608)
I1013 03:57:03.649109  9822 net.cpp:165] Memory required for data: 141484800
I1013 03:57:03.649111  9822 layer_factory.hpp:77] Creating layer conv7
I1013 03:57:03.649132  9822 net.cpp:100] Creating Layer conv7
I1013 03:57:03.649134  9822 net.cpp:434] conv7 <- drop4
I1013 03:57:03.649137  9822 net.cpp:408] conv7 -> conv7
I1013 03:57:03.653036  9822 net.cpp:150] Setting up conv7
I1013 03:57:03.653055  9822 net.cpp:157] Top shape: 64 192 2 2 (49152)
I1013 03:57:03.653058  9822 net.cpp:165] Memory required for data: 141681408
I1013 03:57:03.653064  9822 layer_factory.hpp:77] Creating layer elu7
I1013 03:57:03.653069  9822 net.cpp:100] Creating Layer elu7
I1013 03:57:03.653072  9822 net.cpp:434] elu7 <- conv7
I1013 03:57:03.653076  9822 net.cpp:395] elu7 -> conv7 (in-place)
I1013 03:57:03.653082  9822 net.cpp:150] Setting up elu7
I1013 03:57:03.653085  9822 net.cpp:157] Top shape: 64 192 2 2 (49152)
I1013 03:57:03.653087  9822 net.cpp:165] Memory required for data: 141878016
I1013 03:57:03.653090  9822 layer_factory.hpp:77] Creating layer conv8
I1013 03:57:03.653095  9822 net.cpp:100] Creating Layer conv8
I1013 03:57:03.653096  9822 net.cpp:434] conv8 <- conv7
I1013 03:57:03.653115  9822 net.cpp:408] conv8 -> conv8
I1013 03:57:03.654345  9822 net.cpp:150] Setting up conv8
I1013 03:57:03.654356  9822 net.cpp:157] Top shape: 64 192 2 2 (49152)
I1013 03:57:03.654358  9822 net.cpp:165] Memory required for data: 142074624
I1013 03:57:03.654363  9822 layer_factory.hpp:77] Creating layer elu8
I1013 03:57:03.654366  9822 net.cpp:100] Creating Layer elu8
I1013 03:57:03.654369  9822 net.cpp:434] elu8 <- conv8
I1013 03:57:03.654372  9822 net.cpp:395] elu8 -> conv8 (in-place)
I1013 03:57:03.654376  9822 net.cpp:150] Setting up elu8
I1013 03:57:03.654381  9822 net.cpp:157] Top shape: 64 192 2 2 (49152)
I1013 03:57:03.654382  9822 net.cpp:165] Memory required for data: 142271232
I1013 03:57:03.654384  9822 layer_factory.hpp:77] Creating layer conv9
I1013 03:57:03.654403  9822 net.cpp:100] Creating Layer conv9
I1013 03:57:03.654405  9822 net.cpp:434] conv9 <- conv8
I1013 03:57:03.654409  9822 net.cpp:408] conv9 -> conv9
I1013 03:57:03.655233  9822 net.cpp:150] Setting up conv9
I1013 03:57:03.655244  9822 net.cpp:157] Top shape: 64 10 2 2 (2560)
I1013 03:57:03.655246  9822 net.cpp:165] Memory required for data: 142281472
I1013 03:57:03.655251  9822 layer_factory.hpp:77] Creating layer elu9
I1013 03:57:03.655254  9822 net.cpp:100] Creating Layer elu9
I1013 03:57:03.655256  9822 net.cpp:434] elu9 <- conv9
I1013 03:57:03.655259  9822 net.cpp:395] elu9 -> conv9 (in-place)
I1013 03:57:03.655263  9822 net.cpp:150] Setting up elu9
I1013 03:57:03.655267  9822 net.cpp:157] Top shape: 64 10 2 2 (2560)
I1013 03:57:03.655268  9822 net.cpp:165] Memory required for data: 142291712
I1013 03:57:03.655269  9822 layer_factory.hpp:77] Creating layer pool
I1013 03:57:03.655274  9822 net.cpp:100] Creating Layer pool
I1013 03:57:03.655292  9822 net.cpp:434] pool <- conv9
I1013 03:57:03.655294  9822 net.cpp:408] pool -> pool
I1013 03:57:03.655663  9822 net.cpp:150] Setting up pool
I1013 03:57:03.655670  9822 net.cpp:157] Top shape: 64 10 1 1 (640)
I1013 03:57:03.655673  9822 net.cpp:165] Memory required for data: 142294272
I1013 03:57:03.655674  9822 layer_factory.hpp:77] Creating layer flatten
I1013 03:57:03.655689  9822 net.cpp:100] Creating Layer flatten
I1013 03:57:03.655692  9822 net.cpp:434] flatten <- pool
I1013 03:57:03.655695  9822 net.cpp:408] flatten -> flatten
I1013 03:57:03.655730  9822 net.cpp:150] Setting up flatten
I1013 03:57:03.655735  9822 net.cpp:157] Top shape: 64 10 (640)
I1013 03:57:03.655736  9822 net.cpp:165] Memory required for data: 142296832
I1013 03:57:03.655738  9822 layer_factory.hpp:77] Creating layer score
I1013 03:57:03.655742  9822 net.cpp:100] Creating Layer score
I1013 03:57:03.655758  9822 net.cpp:434] score <- flatten
I1013 03:57:03.655762  9822 net.cpp:408] score -> score
I1013 03:57:03.655936  9822 net.cpp:150] Setting up score
I1013 03:57:03.655941  9822 net.cpp:157] Top shape: 64 10 (640)
I1013 03:57:03.655942  9822 net.cpp:165] Memory required for data: 142299392
I1013 03:57:03.655946  9822 layer_factory.hpp:77] Creating layer score_score_0_split
I1013 03:57:03.655951  9822 net.cpp:100] Creating Layer score_score_0_split
I1013 03:57:03.655952  9822 net.cpp:434] score_score_0_split <- score
I1013 03:57:03.655956  9822 net.cpp:408] score_score_0_split -> score_score_0_split_0
I1013 03:57:03.655961  9822 net.cpp:408] score_score_0_split -> score_score_0_split_1
I1013 03:57:03.656002  9822 net.cpp:150] Setting up score_score_0_split
I1013 03:57:03.656005  9822 net.cpp:157] Top shape: 64 10 (640)
I1013 03:57:03.656020  9822 net.cpp:157] Top shape: 64 10 (640)
I1013 03:57:03.656023  9822 net.cpp:165] Memory required for data: 142304512
I1013 03:57:03.656023  9822 layer_factory.hpp:77] Creating layer accuracy
I1013 03:57:03.656028  9822 net.cpp:100] Creating Layer accuracy
I1013 03:57:03.656046  9822 net.cpp:434] accuracy <- score_score_0_split_0
I1013 03:57:03.656049  9822 net.cpp:434] accuracy <- label_data_1_split_0
I1013 03:57:03.656054  9822 net.cpp:408] accuracy -> accuracy
…
I1013 03:57:03.656630  9822 net.cpp:283] Network initialization done.
I1013 03:57:03.656867  9822 solver.cpp:181] Creating test net (#0) specified by test_net file: /home/adam/Honours/Honours-Project/cifar-10_allcnn/elu/allcnn_elu_test.prototxt
I1013 03:57:03.657024  9822 net.cpp:58] Initializing net from parameters: 
state {
  phase: TEST
}
layer {
  name: "data"
  type: "Data"
  top: "data"
  top: "label"
  transform_param {
    mean_file: "mean.binaryproto"
  }
  data_param {
    source: "../../../data/cifar-10/cifar10_test_lmdb"
    batch_size: 100
    backend: LMDB
  }
}
layer {
  name: "conv1"
  type: "Convolution"
  bottom: "data"
  top: "conv1"
  convolution_param {
    num_output: 96
    kernel_size: 3
    weight_filler {
      type: "xavier"
    }
  }
}
layer {
  name: "elu1"
  type: "ELU"
  bottom: "conv1"
  top: "conv1"
}
layer {
  name: "conv2"
  type: "Convolution"
  bottom: "conv1"
  top: "conv2"
  convolution_param {
    num_output: 96
    kernel_size: 3
    weight_filler {
      type: "xavier"
    }
  }
}
layer {
  name: "bn1"
  type: "BatchNorm"
  bottom: "conv2"
  top: "bn1"
}
layer {
  name: "elu2"
  type: "ELU"
  bottom: "bn1"
  top: "bn1"
}
layer {
  name: "conv3"
  type: "Convolution"
  bottom: "bn1"
  top: "conv3"
  convolution_param {
    num_output: 96
    kernel_size: 3
    stride: 2
    weight_filler {
      type: "xavier"
    }
  }
}
layer {
  name: "drop1"
  type: "Dropout"
  bottom: "conv3"
  top: "drop1"
  dropout_param {
    dropout_ratio: 0.5
  }
}
layer {
  name: "elu3"
  type: "ELU"
  bottom: "drop1"
  top: "drop1"
}
layer {
  name: "conv4"
  type: "Convolution"
  bottom: "drop1"
  top: "conv4"
  convolution_param {
    num_output: 192
    kernel_size: 3
    weight_filler {
      type: "xavier"
    }
  }
}
layer {
  name: "elu4"
  type: "ELU"
  bottom: "conv4"
  top: "conv4"
}
layer {
  name: "conv5"
  type: "Convolution"
  bottom: "conv4"
  top: "conv5"
  convolution_param {
    num_output: 192
    kernel_size: 3
    weight_filler {
      type: "xavier"
    }
  }
}
layer {
  name: "bn2"
  type: "BatchNorm"
  bottom: "conv5"
  top: "bn2"
}
layer {
  name: "elu5"
  type: "ELU"
  bottom: "bn2"
  top: "bn2"
}
layer {
  name: "conv6"
  type: "Convolution"
  bottom: "bn2"
  top: "conv6"
  convolution_param {
    num_output: 192
    kernel_size: 3
    stride: 2
    weight_filler {
      type: "xavier"
    }
  }
}
layer {
  name: "drop4"
  type: "Dropout"
  bottom: "conv6"
  top: "drop4"
  dropout_param {
    dropout_ratio: 0.5
  }
}
layer {
  name: "elu6"
  type: "ELU"
  bottom: "drop4"
  top: "drop4"
}
layer {
  name: "conv7"
  type: "Convolution"
  bottom: "drop4"
  top: "conv7"
  convolution_param {
    num_output: 192
    kernel_size: 3
    weight_filler {
      type: "xavier"
    }
  }
}
layer {
  name: "elu7"
  type: "ELU"
  bottom: "conv7"
  top: "conv7"
}
layer {
  name: "conv8"
  type: "Convolution"
  bottom: "conv7"
  top: "conv8"
  convolution_param {
    num_output: 192
    kernel_size: 1
    weight_filler {
      type: "xavier"
    }
  }
}
layer {
  name: "elu8"
  type: "ELU"
  bottom: "conv8"
  top: "conv8"
}
layer {
  name: "conv9"
  type: "Convolution"
  bottom: "conv8"
  top: "conv9"
  convolution_param {
    num_output: 10
    kernel_size: 1
    weight_filler {
      type: "xavier"
    }
  }
}
layer {
  name: "elu9"
  type: "ELU"
  bottom: "conv9"
  top: "conv9"
}
layer {
  name: "pool"
  type: "Pooling"
  bottom: "conv9"
  top: "pool"
  pooling_param {
    pool: AVE
    global_pooling: true
  }
}
layer {
  name: "flatten"
  type: "Flatten"
  bottom: "pool"
  top: "flatten"
}
layer {
  name: "score"
  type: "InnerProduct"
  bottom: "flatten"
  top: "score"
  inner_product_param {
    num_output: 10
    weight_filler {
      type: "gaussian"
    }
  }
}
layer {
  name: "accuracy"
  type: "Accuracy"
  bottom: "score"
  bottom: "label"
  top: "accuracy"
}
layer {
  name: "loss"
  type: "SoftmaxWithLoss"
  bottom: "score"
  bottom: "label"
  top: "loss"
}
I1013 03:57:03.657127  9822 layer_factory.hpp:77] Creating layer data
I1013 03:57:03.657223  9822 net.cpp:100] Creating Layer data
I1013 03:57:03.657230  9822 net.cpp:408] data -> data
I1013 03:57:03.657236  9822 net.cpp:408] data -> label
I1013 03:57:03.657243  9822 data_transformer.cpp:25] Loading mean file from: mean.binaryproto
I1013 03:57:03.657966  9829 db_lmdb.cpp:35] Opened lmdb ../../../data/cifar-10/cifar10_test_lmdb
I1013 03:57:03.658069  9822 data_layer.cpp:41] output data size: 100,3,32,32
I1013 03:57:03.659950  9822 net.cpp:150] Setting up data
I1013 03:57:03.659967  9822 net.cpp:157] Top shape: 100 3 32 32 (307200)
I1013 03:57:03.659993  9822 net.cpp:157] Top shape: 100 (100)
I1013 03:57:03.659996  9822 net.cpp:165] Memory required for data: 1229200
I1013 03:57:03.659998  9822 layer_factory.hpp:77] Creating layer label_data_1_split
I1013 03:57:03.660008  9822 net.cpp:100] Creating Layer label_data_1_split
I1013 03:57:03.660012  9822 net.cpp:434] label_data_1_split <- label
I1013 03:57:03.660015  9822 net.cpp:408] label_data_1_split -> label_data_1_split_0
I1013 03:57:03.660037  9822 net.cpp:408] label_data_1_split -> label_data_1_split_1
I1013 03:57:03.660140  9822 net.cpp:150] Setting up label_data_1_split
I1013 03:57:03.660158  9822 net.cpp:157] Top shape: 100 (100)
I1013 03:57:03.660161  9822 net.cpp:157] Top shape: 100 (100)
I1013 03:57:03.660162  9822 net.cpp:165] Memory required for data: 1230000
I1013 03:57:03.660164  9822 layer_factory.hpp:77] Creating layer conv1
I1013 03:57:03.660187  9822 net.cpp:100] Creating Layer conv1
I1013 03:57:03.660202  9822 net.cpp:434] conv1 <- data
I1013 03:57:03.660207  9822 net.cpp:408] conv1 -> conv1
I1013 03:57:03.661098  9822 net.cpp:150] Setting up conv1
I1013 03:57:03.661120  9822 net.cpp:157] Top shape: 100 96 30 30 (8640000)
I1013 03:57:03.661123  9822 net.cpp:165] Memory required for data: 35790000
I1013 03:57:03.661131  9822 layer_factory.hpp:77] Creating layer elu1
I1013 03:57:03.661136  9822 net.cpp:100] Creating Layer elu1
I1013 03:57:03.661139  9822 net.cpp:434] elu1 <- conv1
I1013 03:57:03.661157  9822 net.cpp:395] elu1 -> conv1 (in-place)
I1013 03:57:03.661164  9822 net.cpp:150] Setting up elu1
I1013 03:57:03.661180  9822 net.cpp:157] Top shape: 100 96 30 30 (8640000)
I1013 03:57:03.661181  9822 net.cpp:165] Memory required for data: 70350000
I1013 03:57:03.661183  9822 layer_factory.hpp:77] Creating layer conv2
I1013 03:57:03.661190  9822 net.cpp:100] Creating Layer conv2
I1013 03:57:03.661193  9822 net.cpp:434] conv2 <- conv1
I1013 03:57:03.661196  9822 net.cpp:408] conv2 -> conv2
I1013 03:57:03.662575  9822 net.cpp:150] Setting up conv2
I1013 03:57:03.662585  9822 net.cpp:157] Top shape: 100 96 28 28 (7526400)
I1013 03:57:03.662587  9822 net.cpp:165] Memory required for data: 100455600
I1013 03:57:03.662608  9822 layer_factory.hpp:77] Creating layer bn1
I1013 03:57:03.662616  9822 net.cpp:100] Creating Layer bn1
I1013 03:57:03.662618  9822 net.cpp:434] bn1 <- conv2
I1013 03:57:03.662622  9822 net.cpp:408] bn1 -> bn1
I1013 03:57:03.662884  9822 net.cpp:150] Setting up bn1
I1013 03:57:03.662890  9822 net.cpp:157] Top shape: 100 96 28 28 (7526400)
I1013 03:57:03.662902  9822 net.cpp:165] Memory required for data: 130561200
I1013 03:57:03.662924  9822 layer_factory.hpp:77] Creating layer elu2
I1013 03:57:03.662953  9822 net.cpp:100] Creating Layer elu2
I1013 03:57:03.662972  9822 net.cpp:434] elu2 <- bn1
I1013 03:57:03.662976  9822 net.cpp:395] elu2 -> bn1 (in-place)
I1013 03:57:03.662981  9822 net.cpp:150] Setting up elu2
I1013 03:57:03.662984  9822 net.cpp:157] Top shape: 100 96 28 28 (7526400)
I1013 03:57:03.662986  9822 net.cpp:165] Memory required for data: 160666800
I1013 03:57:03.662988  9822 layer_factory.hpp:77] Creating layer conv3
I1013 03:57:03.662995  9822 net.cpp:100] Creating Layer conv3
I1013 03:57:03.662999  9822 net.cpp:434] conv3 <- bn1
I1013 03:57:03.663002  9822 net.cpp:408] conv3 -> conv3
I1013 03:57:03.664366  9822 net.cpp:150] Setting up conv3
I1013 03:57:03.664376  9822 net.cpp:157] Top shape: 100 96 13 13 (1622400)
I1013 03:57:03.664381  9822 net.cpp:165] Memory required for data: 167156400
I1013 03:57:03.664387  9822 layer_factory.hpp:77] Creating layer drop1
I1013 03:57:03.664396  9822 net.cpp:100] Creating Layer drop1
I1013 03:57:03.664398  9822 net.cpp:434] drop1 <- conv3
I1013 03:57:03.664403  9822 net.cpp:408] drop1 -> drop1
I1013 03:57:03.664438  9822 net.cpp:150] Setting up drop1
I1013 03:57:03.664444  9822 net.cpp:157] Top shape: 100 96 13 13 (1622400)
I1013 03:57:03.664460  9822 net.cpp:165] Memory required for data: 173646000
I1013 03:57:03.664464  9822 layer_factory.hpp:77] Creating layer elu3
I1013 03:57:03.664469  9822 net.cpp:100] Creating Layer elu3
I1013 03:57:03.664471  9822 net.cpp:434] elu3 <- drop1
I1013 03:57:03.664474  9822 net.cpp:395] elu3 -> drop1 (in-place)
I1013 03:57:03.664479  9822 net.cpp:150] Setting up elu3
I1013 03:57:03.664481  9822 net.cpp:157] Top shape: 100 96 13 13 (1622400)
I1013 03:57:03.664484  9822 net.cpp:165] Memory required for data: 180135600
I1013 03:57:03.664485  9822 layer_factory.hpp:77] Creating layer conv4
I1013 03:57:03.664491  9822 net.cpp:100] Creating Layer conv4
I1013 03:57:03.664494  9822 net.cpp:434] conv4 <- drop1
I1013 03:57:03.664497  9822 net.cpp:408] conv4 -> conv4
I1013 03:57:03.666306  9822 net.cpp:150] Setting up conv4
I1013 03:57:03.666319  9822 net.cpp:157] Top shape: 100 192 11 11 (2323200)
I1013 03:57:03.666323  9822 net.cpp:165] Memory required for data: 189428400
I1013 03:57:03.666328  9822 layer_factory.hpp:77] Creating layer elu4
I1013 03:57:03.666333  9822 net.cpp:100] Creating Layer elu4
I1013 03:57:03.666337  9822 net.cpp:434] elu4 <- conv4
I1013 03:57:03.666340  9822 net.cpp:395] elu4 -> conv4 (in-place)
I1013 03:57:03.666347  9822 net.cpp:150] Setting up elu4
I1013 03:57:03.666350  9822 net.cpp:157] Top shape: 100 192 11 11 (2323200)
I1013 03:57:03.666352  9822 net.cpp:165] Memory required for data: 198721200
I1013 03:57:03.666354  9822 layer_factory.hpp:77] Creating layer conv5
I1013 03:57:03.666360  9822 net.cpp:100] Creating Layer conv5
I1013 03:57:03.666363  9822 net.cpp:434] conv5 <- conv4
I1013 03:57:03.666368  9822 net.cpp:408] conv5 -> conv5
I1013 03:57:03.669145  9822 net.cpp:150] Setting up conv5
I1013 03:57:03.669162  9822 net.cpp:157] Top shape: 100 192 9 9 (1555200)
I1013 03:57:03.669165  9822 net.cpp:165] Memory required for data: 204942000
I1013 03:57:03.669172  9822 layer_factory.hpp:77] Creating layer bn2
I1013 03:57:03.669193  9822 net.cpp:100] Creating Layer bn2
I1013 03:57:03.669196  9822 net.cpp:434] bn2 <- conv5
I1013 03:57:03.669216  9822 net.cpp:408] bn2 -> bn2
I1013 03:57:03.669425  9822 net.cpp:150] Setting up bn2
I1013 03:57:03.669430  9822 net.cpp:157] Top shape: 100 192 9 9 (1555200)
I1013 03:57:03.669445  9822 net.cpp:165] Memory required for data: 211162800
I1013 03:57:03.669450  9822 layer_factory.hpp:77] Creating layer elu5
I1013 03:57:03.669467  9822 net.cpp:100] Creating Layer elu5
I1013 03:57:03.669469  9822 net.cpp:434] elu5 <- bn2
I1013 03:57:03.669472  9822 net.cpp:395] elu5 -> bn2 (in-place)
I1013 03:57:03.669492  9822 net.cpp:150] Setting up elu5
I1013 03:57:03.669494  9822 net.cpp:157] Top shape: 100 192 9 9 (1555200)
I1013 03:57:03.669523  9822 net.cpp:165] Memory required for data: 217383600
I1013 03:57:03.669526  9822 layer_factory.hpp:77] Creating layer conv6
I1013 03:57:03.669533  9822 net.cpp:100] Creating Layer conv6
I1013 03:57:03.669535  9822 net.cpp:434] conv6 <- bn2
I1013 03:57:03.669539  9822 net.cpp:408] conv6 -> conv6
I1013 03:57:03.672197  9822 net.cpp:150] Setting up conv6
I1013 03:57:03.672222  9822 net.cpp:157] Top shape: 100 192 4 4 (307200)
I1013 03:57:03.672225  9822 net.cpp:165] Memory required for data: 218612400
I1013 03:57:03.672246  9822 layer_factory.hpp:77] Creating layer drop4
I1013 03:57:03.672269  9822 net.cpp:100] Creating Layer drop4
I1013 03:57:03.672272  9822 net.cpp:434] drop4 <- conv6
I1013 03:57:03.672277  9822 net.cpp:408] drop4 -> drop4
I1013 03:57:03.672325  9822 net.cpp:150] Setting up drop4
I1013 03:57:03.672329  9822 net.cpp:157] Top shape: 100 192 4 4 (307200)
I1013 03:57:03.672332  9822 net.cpp:165] Memory required for data: 219841200
I1013 03:57:03.672334  9822 layer_factory.hpp:77] Creating layer elu6
I1013 03:57:03.672338  9822 net.cpp:100] Creating Layer elu6
I1013 03:57:03.672339  9822 net.cpp:434] elu6 <- drop4
I1013 03:57:03.672343  9822 net.cpp:395] elu6 -> drop4 (in-place)
I1013 03:57:03.672346  9822 net.cpp:150] Setting up elu6
I1013 03:57:03.672349  9822 net.cpp:157] Top shape: 100 192 4 4 (307200)
I1013 03:57:03.672351  9822 net.cpp:165] Memory required for data: 221070000
I1013 03:57:03.672353  9822 layer_factory.hpp:77] Creating layer conv7
I1013 03:57:03.672359  9822 net.cpp:100] Creating Layer conv7
I1013 03:57:03.672377  9822 net.cpp:434] conv7 <- drop4
I1013 03:57:03.672380  9822 net.cpp:408] conv7 -> conv7
I1013 03:57:03.674978  9822 net.cpp:150] Setting up conv7
I1013 03:57:03.675004  9822 net.cpp:157] Top shape: 100 192 2 2 (76800)
I1013 03:57:03.675005  9822 net.cpp:165] Memory required for data: 221377200
I1013 03:57:03.675010  9822 layer_factory.hpp:77] Creating layer elu7
I1013 03:57:03.675027  9822 net.cpp:100] Creating Layer elu7
I1013 03:57:03.675029  9822 net.cpp:434] elu7 <- conv7
I1013 03:57:03.675047  9822 net.cpp:395] elu7 -> conv7 (in-place)
I1013 03:57:03.675052  9822 net.cpp:150] Setting up elu7
I1013 03:57:03.675056  9822 net.cpp:157] Top shape: 100 192 2 2 (76800)
I1013 03:57:03.675058  9822 net.cpp:165] Memory required for data: 221684400
I1013 03:57:03.675060  9822 layer_factory.hpp:77] Creating layer conv8
I1013 03:57:03.675081  9822 net.cpp:100] Creating Layer conv8
I1013 03:57:03.675083  9822 net.cpp:434] conv8 <- conv7
I1013 03:57:03.675087  9822 net.cpp:408] conv8 -> conv8
I1013 03:57:03.676043  9822 net.cpp:150] Setting up conv8
I1013 03:57:03.676065  9822 net.cpp:157] Top shape: 100 192 2 2 (76800)
I1013 03:57:03.676067  9822 net.cpp:165] Memory required for data: 221991600
I1013 03:57:03.676072  9822 layer_factory.hpp:77] Creating layer elu8
I1013 03:57:03.676076  9822 net.cpp:100] Creating Layer elu8
I1013 03:57:03.676079  9822 net.cpp:434] elu8 <- conv8
I1013 03:57:03.676082  9822 net.cpp:395] elu8 -> conv8 (in-place)
I1013 03:57:03.676089  9822 net.cpp:150] Setting up elu8
I1013 03:57:03.676105  9822 net.cpp:157] Top shape: 100 192 2 2 (76800)
I1013 03:57:03.676108  9822 net.cpp:165] Memory required for data: 222298800
I1013 03:57:03.676110  9822 layer_factory.hpp:77] Creating layer conv9
I1013 03:57:03.676128  9822 net.cpp:100] Creating Layer conv9
I1013 03:57:03.676131  9822 net.cpp:434] conv9 <- conv8
I1013 03:57:03.676136  9822 net.cpp:408] conv9 -> conv9
I1013 03:57:03.676960  9822 net.cpp:150] Setting up conv9
I1013 03:57:03.676970  9822 net.cpp:157] Top shape: 100 10 2 2 (4000)
I1013 03:57:03.676987  9822 net.cpp:165] Memory required for data: 222314800
I1013 03:57:03.676991  9822 layer_factory.hpp:77] Creating layer elu9
I1013 03:57:03.676995  9822 net.cpp:100] Creating Layer elu9
I1013 03:57:03.676997  9822 net.cpp:434] elu9 <- conv9
I1013 03:57:03.677000  9822 net.cpp:395] elu9 -> conv9 (in-place)
I1013 03:57:03.677006  9822 net.cpp:150] Setting up elu9
I1013 03:57:03.677023  9822 net.cpp:157] Top shape: 100 10 2 2 (4000)
I1013 03:57:03.677048  9822 net.cpp:165] Memory required for data: 222330800
I1013 03:57:03.677050  9822 layer_factory.hpp:77] Creating layer pool
I1013 03:57:03.677057  9822 net.cpp:100] Creating Layer pool
I1013 03:57:03.677058  9822 net.cpp:434] pool <- conv9
I1013 03:57:03.677062  9822 net.cpp:408] pool -> pool
I1013 03:57:03.677340  9822 net.cpp:150] Setting up pool
I1013 03:57:03.677348  9822 net.cpp:157] Top shape: 100 10 1 1 (1000)
I1013 03:57:03.677366  9822 net.cpp:165] Memory required for data: 222334800
I1013 03:57:03.677368  9822 layer_factory.hpp:77] Creating layer flatten
I1013 03:57:03.677372  9822 net.cpp:100] Creating Layer flatten
I1013 03:57:03.677374  9822 net.cpp:434] flatten <- pool
I1013 03:57:03.677378  9822 net.cpp:408] flatten -> flatten
I1013 03:57:03.677429  9822 net.cpp:150] Setting up flatten
I1013 03:57:03.677433  9822 net.cpp:157] Top shape: 100 10 (1000)
I1013 03:57:03.677448  9822 net.cpp:165] Memory required for data: 222338800
I1013 03:57:03.677450  9822 layer_factory.hpp:77] Creating layer score
I1013 03:57:03.677454  9822 net.cpp:100] Creating Layer score
I1013 03:57:03.677458  9822 net.cpp:434] score <- flatten
I1013 03:57:03.677461  9822 net.cpp:408] score -> score
I1013 03:57:03.677580  9822 net.cpp:150] Setting up score
I1013 03:57:03.677584  9822 net.cpp:157] Top shape: 100 10 (1000)
I1013 03:57:03.677599  9822 net.cpp:165] Memory required for data: 222342800
I1013 03:57:03.677603  9822 layer_factory.hpp:77] Creating layer score_score_0_split
I1013 03:57:03.677608  9822 net.cpp:100] Creating Layer score_score_0_split
I1013 03:57:03.677609  9822 net.cpp:434] score_score_0_split <- score
I1013 03:57:03.677614  9822 net.cpp:408] score_score_0_split -> score_score_0_split_0
I1013 03:57:03.677634  9822 net.cpp:408] score_score_0_split -> score_score_0_split_1
I1013 03:57:03.677690  9822 net.cpp:150] Setting up score_score_0_split
I1013 03:57:03.677695  9822 net.cpp:157] Top shape: 100 10 (1000)
I1013 03:57:03.677697  9822 net.cpp:157] Top shape: 100 10 (1000)
I1013 03:57:03.677698  9822 net.cpp:165] Memory required for data: 222350800
I1013 03:57:03.677700  9822 layer_factory.hpp:77] Creating layer accuracy
I1013 03:57:03.677705  9822 net.cpp:100] Creating Layer accuracy
I1013 03:57:03.677706  9822 net.cpp:434] accuracy <- score_score_0_split_0
I1013 03:57:03.677709  9822 net.cpp:434] accuracy <- label_data_1_split_0
I1013 03:57:03.677713  9822 net.cpp:408] accuracy -> accuracy
…
