…
  stage: ""
}
type: "AdaGrad"
I1011 15:07:00.258607  6054 solver.cpp:81] Creating training net from train_net file: /home/adam/Honours/Honours-Project/cifar-10_allcnn/elu/allcnn_elu_train.prototxt
I1011 15:07:00.258991  6054 net.cpp:58] Initializing net from parameters: 
state {
  phase: TRAIN
  level: 0
  stage: ""
}
layer {
  name: "data"
  type: "Data"
  top: "data"
  top: "label"
  transform_param {
    mean_file: "mean.binaryproto"
  }
  data_param {
    source: "../../../data/cifar-10/cifar10_train_lmdb"
    batch_size: 64
    backend: LMDB
  }
}
layer {
  name: "conv1"
  type: "Convolution"
  bottom: "data"
  top: "conv1"
  convolution_param {
    num_output: 96
    kernel_size: 3
    weight_filler {
      type: "xavier"
    }
  }
}
layer {
  name: "elu1"
  type: "ELU"
  bottom: "conv1"
  top: "conv1"
}
layer {
  name: "conv2"
  type: "Convolution"
  bottom: "conv1"
  top: "conv2"
  convolution_param {
    num_output: 96
    kernel_size: 3
    weight_filler {
      type: "xavier"
    }
  }
}
layer {
  name: "bn1"
  type: "BatchNorm"
  bottom: "conv2"
  top: "bn1"
}
layer {
  name: "elu2"
  type: "ELU"
  bottom: "bn1"
  top: "bn1"
}
layer {
  name: "drop1"
  type: "Dropout"
  bottom: "bn1"
  top: "drop1"
  dropout_param {
    dropout_ratio: 0.5
  }
}
layer {
  name: "conv3"
  type: "Convolution"
  bottom: "drop1"
  top: "conv3"
  convolution_param {
    num_output: 96
    kernel_size: 3
    stride: 2
    weight_filler {
      type: "xavier"
    }
  }
}
layer {
  name: "elu3"
  type: "ELU"
  bottom: "conv3"
  top: "conv3"
}
layer {
  name: "conv4"
  type: "Convolution"
  bottom: "conv3"
  top: "conv4"
  convolution_param {
    num_output: 192
    kernel_size: 3
    weight_filler {
      type: "xavier"
    }
  }
}
layer {
  name: "elu4"
  type: "ELU"
  bottom: "conv4"
  top: "conv4"
}
layer {
  name: "conv5"
  type: "Convolution"
  bottom: "conv4"
  top: "conv5"
  convolution_param {
    num_output: 192
    kernel_size: 3
    weight_filler {
      type: "xavier"
    }
  }
}
layer {
  name: "bn2"
  type: "BatchNorm"
  bottom: "conv5"
  top: "bn2"
}
layer {
  name: "elu5"
  type: "ELU"
  bottom: "bn2"
  top: "bn2"
}
layer {
  name: "drop4"
  type: "Dropout"
  bottom: "bn2"
  top: "drop4"
  dropout_param {
    dropout_ratio: 0.5
  }
}
layer {
  name: "conv6"
  type: "Convolution"
  bottom: "drop4"
  top: "conv6"
  convolution_param {
    num_output: 192
    kernel_size: 3
    stride: 2
    weight_filler {
      type: "xavier"
    }
  }
}
layer {
  name: "elu6"
  type: "ELU"
  bottom: "conv6"
  top: "conv6"
}
layer {
  name: "conv7"
  type: "Convolution"
  bottom: "conv6"
  top: "conv7"
  convolution_param {
    num_output: 192
    kernel_size: 3
    weight_filler {
      type: "xavier"
    }
  }
}
layer {
  name: "elu7"
  type: "ELU"
  bottom: "conv7"
  top: "conv7"
}
layer {
  name: "conv8"
  type: "Convolution"
  bottom: "conv7"
  top: "conv8"
  convolution_param {
    num_output: 192
    kernel_size: 1
    weight_filler {
      type: "xavier"
    }
  }
}
layer {
  name: "elu8"
  type: "ELU"
  bottom: "conv8"
  top: "conv8"
}
layer {
  name: "conv9"
  type: "Convolution"
  bottom: "conv8"
  top: "conv9"
  convolution_param {
    num_output: 10
    kernel_size: 1
    weight_filler {
      type: "xavier"
    }
  }
}
layer {
  name: "elu9"
  type: "ELU"
  bottom: "conv9"
  top: "conv9"
}
layer {
  name: "pool"
  type: "Pooling"
  bottom: "conv9"
  top: "pool"
  pooling_param {
    pool: AVE
    global_pooling: true
  }
}
layer {
  name: "flatten"
  type: "Flatten"
  bottom: "pool"
  top: "flatten"
}
layer {
  name: "score"
  type: "InnerProduct"
  bottom: "flatten"
  top: "score"
  inner_product_param {
    num_output: 10
    weight_filler {
      type: "gaussian"
    }
  }
}
layer {
  name: "accuracy"
  type: "Accuracy"
  bottom: "score"
  bottom: "label"
  top: "accuracy"
}
layer {
  name: "loss"
  type: "SoftmaxWithLoss"
  bottom: "score"
  bottom: "label"
  top: "loss"
}
I1011 15:07:00.259337  6054 layer_factory.hpp:77] Creating layer data
I1011 15:07:00.260051  6054 net.cpp:100] Creating Layer data
I1011 15:07:00.260061  6054 net.cpp:408] data -> data
I1011 15:07:00.260092  6054 net.cpp:408] data -> label
I1011 15:07:00.260103  6054 data_transformer.cpp:25] Loading mean file from: mean.binaryproto
I1011 15:07:00.262058  6060 db_lmdb.cpp:35] Opened lmdb ../../../data/cifar-10/cifar10_train_lmdb
I1011 15:07:00.267637  6054 data_layer.cpp:41] output data size: 64,3,32,32
I1011 15:07:00.269243  6054 net.cpp:150] Setting up data
I1011 15:07:00.269299  6054 net.cpp:157] Top shape: 64 3 32 32 (196608)
I1011 15:07:00.269311  6054 net.cpp:157] Top shape: 64 (64)
I1011 15:07:00.269320  6054 net.cpp:165] Memory required for data: 786688
I1011 15:07:00.269335  6054 layer_factory.hpp:77] Creating layer label_data_1_split
I1011 15:07:00.269351  6054 net.cpp:100] Creating Layer label_data_1_split
I1011 15:07:00.269363  6054 net.cpp:434] label_data_1_split <- label
I1011 15:07:00.269381  6054 net.cpp:408] label_data_1_split -> label_data_1_split_0
I1011 15:07:00.269408  6054 net.cpp:408] label_data_1_split -> label_data_1_split_1
I1011 15:07:00.269475  6054 net.cpp:150] Setting up label_data_1_split
I1011 15:07:00.269481  6054 net.cpp:157] Top shape: 64 (64)
I1011 15:07:00.269484  6054 net.cpp:157] Top shape: 64 (64)
I1011 15:07:00.269485  6054 net.cpp:165] Memory required for data: 787200
I1011 15:07:00.269489  6054 layer_factory.hpp:77] Creating layer conv1
I1011 15:07:00.269498  6054 net.cpp:100] Creating Layer conv1
I1011 15:07:00.269501  6054 net.cpp:434] conv1 <- data
I1011 15:07:00.269507  6054 net.cpp:408] conv1 -> conv1
I1011 15:07:00.408610  6054 net.cpp:150] Setting up conv1
I1011 15:07:00.408658  6054 net.cpp:157] Top shape: 64 96 30 30 (5529600)
I1011 15:07:00.408661  6054 net.cpp:165] Memory required for data: 22905600
I1011 15:07:00.408682  6054 layer_factory.hpp:77] Creating layer elu1
I1011 15:07:00.408704  6054 net.cpp:100] Creating Layer elu1
I1011 15:07:00.408707  6054 net.cpp:434] elu1 <- conv1
I1011 15:07:00.408725  6054 net.cpp:395] elu1 -> conv1 (in-place)
I1011 15:07:00.408732  6054 net.cpp:150] Setting up elu1
I1011 15:07:00.408735  6054 net.cpp:157] Top shape: 64 96 30 30 (5529600)
I1011 15:07:00.408782  6054 net.cpp:165] Memory required for data: 45024000
I1011 15:07:00.408795  6054 layer_factory.hpp:77] Creating layer conv2
I1011 15:07:00.408828  6054 net.cpp:100] Creating Layer conv2
I1011 15:07:00.408838  6054 net.cpp:434] conv2 <- conv1
I1011 15:07:00.408849  6054 net.cpp:408] conv2 -> conv2
I1011 15:07:00.410518  6054 net.cpp:150] Setting up conv2
I1011 15:07:00.410550  6054 net.cpp:157] Top shape: 64 96 28 28 (4816896)
I1011 15:07:00.410552  6054 net.cpp:165] Memory required for data: 64291584
I1011 15:07:00.410563  6054 layer_factory.hpp:77] Creating layer bn1
I1011 15:07:00.410583  6054 net.cpp:100] Creating Layer bn1
I1011 15:07:00.410586  6054 net.cpp:434] bn1 <- conv2
I1011 15:07:00.410591  6054 net.cpp:408] bn1 -> bn1
I1011 15:07:00.410780  6054 net.cpp:150] Setting up bn1
I1011 15:07:00.410786  6054 net.cpp:157] Top shape: 64 96 28 28 (4816896)
I1011 15:07:00.410804  6054 net.cpp:165] Memory required for data: 83559168
I1011 15:07:00.410810  6054 layer_factory.hpp:77] Creating layer elu2
I1011 15:07:00.410827  6054 net.cpp:100] Creating Layer elu2
I1011 15:07:00.410830  6054 net.cpp:434] elu2 <- bn1
I1011 15:07:00.410832  6054 net.cpp:395] elu2 -> bn1 (in-place)
I1011 15:07:00.410852  6054 net.cpp:150] Setting up elu2
I1011 15:07:00.410856  6054 net.cpp:157] Top shape: 64 96 28 28 (4816896)
I1011 15:07:00.410871  6054 net.cpp:165] Memory required for data: 102826752
I1011 15:07:00.410886  6054 layer_factory.hpp:77] Creating layer drop1
I1011 15:07:00.410889  6054 net.cpp:100] Creating Layer drop1
I1011 15:07:00.410903  6054 net.cpp:434] drop1 <- bn1
I1011 15:07:00.410913  6054 net.cpp:408] drop1 -> drop1
I1011 15:07:00.410991  6054 net.cpp:150] Setting up drop1
I1011 15:07:00.411011  6054 net.cpp:157] Top shape: 64 96 28 28 (4816896)
I1011 15:07:00.411015  6054 net.cpp:165] Memory required for data: 122094336
I1011 15:07:00.411016  6054 layer_factory.hpp:77] Creating layer conv3
I1011 15:07:00.411025  6054 net.cpp:100] Creating Layer conv3
I1011 15:07:00.411027  6054 net.cpp:434] conv3 <- drop1
I1011 15:07:00.411044  6054 net.cpp:408] conv3 -> conv3
I1011 15:07:00.412271  6054 net.cpp:150] Setting up conv3
I1011 15:07:00.412281  6054 net.cpp:157] Top shape: 64 96 13 13 (1038336)
I1011 15:07:00.412283  6054 net.cpp:165] Memory required for data: 126247680
I1011 15:07:00.412292  6054 layer_factory.hpp:77] Creating layer elu3
I1011 15:07:00.412309  6054 net.cpp:100] Creating Layer elu3
I1011 15:07:00.412312  6054 net.cpp:434] elu3 <- conv3
I1011 15:07:00.412315  6054 net.cpp:395] elu3 -> conv3 (in-place)
I1011 15:07:00.412320  6054 net.cpp:150] Setting up elu3
I1011 15:07:00.412323  6054 net.cpp:157] Top shape: 64 96 13 13 (1038336)
I1011 15:07:00.412325  6054 net.cpp:165] Memory required for data: 130401024
I1011 15:07:00.412328  6054 layer_factory.hpp:77] Creating layer conv4
I1011 15:07:00.412333  6054 net.cpp:100] Creating Layer conv4
I1011 15:07:00.412334  6054 net.cpp:434] conv4 <- conv3
I1011 15:07:00.412351  6054 net.cpp:408] conv4 -> conv4
I1011 15:07:00.414439  6054 net.cpp:150] Setting up conv4
I1011 15:07:00.414456  6054 net.cpp:157] Top shape: 64 192 11 11 (1486848)
I1011 15:07:00.414474  6054 net.cpp:165] Memory required for data: 136348416
I1011 15:07:00.414479  6054 layer_factory.hpp:77] Creating layer elu4
I1011 15:07:00.414485  6054 net.cpp:100] Creating Layer elu4
I1011 15:07:00.414487  6054 net.cpp:434] elu4 <- conv4
I1011 15:07:00.414491  6054 net.cpp:395] elu4 -> conv4 (in-place)
I1011 15:07:00.414496  6054 net.cpp:150] Setting up elu4
I1011 15:07:00.414546  6054 net.cpp:157] Top shape: 64 192 11 11 (1486848)
I1011 15:07:00.414549  6054 net.cpp:165] Memory required for data: 142295808
I1011 15:07:00.414552  6054 layer_factory.hpp:77] Creating layer conv5
I1011 15:07:00.414559  6054 net.cpp:100] Creating Layer conv5
I1011 15:07:00.414575  6054 net.cpp:434] conv5 <- conv4
I1011 15:07:00.414579  6054 net.cpp:408] conv5 -> conv5
I1011 15:07:00.417448  6054 net.cpp:150] Setting up conv5
I1011 15:07:00.417470  6054 net.cpp:157] Top shape: 64 192 9 9 (995328)
I1011 15:07:00.417474  6054 net.cpp:165] Memory required for data: 146277120
I1011 15:07:00.417481  6054 layer_factory.hpp:77] Creating layer bn2
I1011 15:07:00.417489  6054 net.cpp:100] Creating Layer bn2
I1011 15:07:00.417491  6054 net.cpp:434] bn2 <- conv5
I1011 15:07:00.417515  6054 net.cpp:408] bn2 -> bn2
I1011 15:07:00.417735  6054 net.cpp:150] Setting up bn2
I1011 15:07:00.417757  6054 net.cpp:157] Top shape: 64 192 9 9 (995328)
I1011 15:07:00.417760  6054 net.cpp:165] Memory required for data: 150258432
I1011 15:07:00.417768  6054 layer_factory.hpp:77] Creating layer elu5
I1011 15:07:00.417771  6054 net.cpp:100] Creating Layer elu5
I1011 15:07:00.417773  6054 net.cpp:434] elu5 <- bn2
I1011 15:07:00.417776  6054 net.cpp:395] elu5 -> bn2 (in-place)
I1011 15:07:00.417781  6054 net.cpp:150] Setting up elu5
I1011 15:07:00.417784  6054 net.cpp:157] Top shape: 64 192 9 9 (995328)
I1011 15:07:00.417786  6054 net.cpp:165] Memory required for data: 154239744
I1011 15:07:00.417788  6054 layer_factory.hpp:77] Creating layer drop4
I1011 15:07:00.417793  6054 net.cpp:100] Creating Layer drop4
I1011 15:07:00.417794  6054 net.cpp:434] drop4 <- bn2
I1011 15:07:00.417798  6054 net.cpp:408] drop4 -> drop4
I1011 15:07:00.417834  6054 net.cpp:150] Setting up drop4
I1011 15:07:00.417840  6054 net.cpp:157] Top shape: 64 192 9 9 (995328)
I1011 15:07:00.417841  6054 net.cpp:165] Memory required for data: 158221056
I1011 15:07:00.417853  6054 layer_factory.hpp:77] Creating layer conv6
I1011 15:07:00.417882  6054 net.cpp:100] Creating Layer conv6
I1011 15:07:00.417886  6054 net.cpp:434] conv6 <- drop4
I1011 15:07:00.417904  6054 net.cpp:408] conv6 -> conv6
I1011 15:07:00.420917  6054 net.cpp:150] Setting up conv6
I1011 15:07:00.420940  6054 net.cpp:157] Top shape: 64 192 4 4 (196608)
I1011 15:07:00.420943  6054 net.cpp:165] Memory required for data: 159007488
I1011 15:07:00.420955  6054 layer_factory.hpp:77] Creating layer elu6
I1011 15:07:00.420976  6054 net.cpp:100] Creating Layer elu6
I1011 15:07:00.421021  6054 net.cpp:434] elu6 <- conv6
I1011 15:07:00.421028  6054 net.cpp:395] elu6 -> conv6 (in-place)
I1011 15:07:00.421035  6054 net.cpp:150] Setting up elu6
I1011 15:07:00.421037  6054 net.cpp:157] Top shape: 64 192 4 4 (196608)
I1011 15:07:00.421039  6054 net.cpp:165] Memory required for data: 159793920
I1011 15:07:00.421041  6054 layer_factory.hpp:77] Creating layer conv7
I1011 15:07:00.421051  6054 net.cpp:100] Creating Layer conv7
I1011 15:07:00.421053  6054 net.cpp:434] conv7 <- conv6
I1011 15:07:00.421057  6054 net.cpp:408] conv7 -> conv7
I1011 15:07:00.423943  6054 net.cpp:150] Setting up conv7
I1011 15:07:00.423962  6054 net.cpp:157] Top shape: 64 192 2 2 (49152)
I1011 15:07:00.423964  6054 net.cpp:165] Memory required for data: 159990528
I1011 15:07:00.423985  6054 layer_factory.hpp:77] Creating layer elu7
I1011 15:07:00.423991  6054 net.cpp:100] Creating Layer elu7
I1011 15:07:00.424006  6054 net.cpp:434] elu7 <- conv7
I1011 15:07:00.424010  6054 net.cpp:395] elu7 -> conv7 (in-place)
I1011 15:07:00.424028  6054 net.cpp:150] Setting up elu7
I1011 15:07:00.424031  6054 net.cpp:157] Top shape: 64 192 2 2 (49152)
I1011 15:07:00.424033  6054 net.cpp:165] Memory required for data: 160187136
I1011 15:07:00.424048  6054 layer_factory.hpp:77] Creating layer conv8
I1011 15:07:00.424055  6054 net.cpp:100] Creating Layer conv8
I1011 15:07:00.424057  6054 net.cpp:434] conv8 <- conv7
I1011 15:07:00.424075  6054 net.cpp:408] conv8 -> conv8
I1011 15:07:00.425597  6054 net.cpp:150] Setting up conv8
I1011 15:07:00.425613  6054 net.cpp:157] Top shape: 64 192 2 2 (49152)
I1011 15:07:00.425616  6054 net.cpp:165] Memory required for data: 160383744
I1011 15:07:00.425621  6054 layer_factory.hpp:77] Creating layer elu8
I1011 15:07:00.425626  6054 net.cpp:100] Creating Layer elu8
I1011 15:07:00.425629  6054 net.cpp:434] elu8 <- conv8
I1011 15:07:00.425648  6054 net.cpp:395] elu8 -> conv8 (in-place)
I1011 15:07:00.425668  6054 net.cpp:150] Setting up elu8
I1011 15:07:00.425670  6054 net.cpp:157] Top shape: 64 192 2 2 (49152)
I1011 15:07:00.425673  6054 net.cpp:165] Memory required for data: 160580352
I1011 15:07:00.425674  6054 layer_factory.hpp:77] Creating layer conv9
I1011 15:07:00.425694  6054 net.cpp:100] Creating Layer conv9
I1011 15:07:00.425698  6054 net.cpp:434] conv9 <- conv8
I1011 15:07:00.425701  6054 net.cpp:408] conv9 -> conv9
I1011 15:07:00.426532  6054 net.cpp:150] Setting up conv9
I1011 15:07:00.426558  6054 net.cpp:157] Top shape: 64 10 2 2 (2560)
I1011 15:07:00.426560  6054 net.cpp:165] Memory required for data: 160590592
I1011 15:07:00.426578  6054 layer_factory.hpp:77] Creating layer elu9
I1011 15:07:00.426583  6054 net.cpp:100] Creating Layer elu9
I1011 15:07:00.426585  6054 net.cpp:434] elu9 <- conv9
I1011 15:07:00.426604  6054 net.cpp:395] elu9 -> conv9 (in-place)
I1011 15:07:00.426610  6054 net.cpp:150] Setting up elu9
I1011 15:07:00.426627  6054 net.cpp:157] Top shape: 64 10 2 2 (2560)
I1011 15:07:00.426630  6054 net.cpp:165] Memory required for data: 160600832
I1011 15:07:00.426631  6054 layer_factory.hpp:77] Creating layer pool
I1011 15:07:00.426636  6054 net.cpp:100] Creating Layer pool
I1011 15:07:00.426638  6054 net.cpp:434] pool <- conv9
I1011 15:07:00.426642  6054 net.cpp:408] pool -> pool
I1011 15:07:00.427145  6054 net.cpp:150] Setting up pool
I1011 15:07:00.427166  6054 net.cpp:157] Top shape: 64 10 1 1 (640)
I1011 15:07:00.427170  6054 net.cpp:165] Memory required for data: 160603392
I1011 15:07:00.427171  6054 layer_factory.hpp:77] Creating layer flatten
I1011 15:07:00.427186  6054 net.cpp:100] Creating Layer flatten
I1011 15:07:00.427203  6054 net.cpp:434] flatten <- pool
I1011 15:07:00.427207  6054 net.cpp:408] flatten -> flatten
I1011 15:07:00.427242  6054 net.cpp:150] Setting up flatten
I1011 15:07:00.427287  6054 net.cpp:157] Top shape: 64 10 (640)
I1011 15:07:00.427291  6054 net.cpp:165] Memory required for data: 160605952
I1011 15:07:00.427294  6054 layer_factory.hpp:77] Creating layer score
I1011 15:07:00.427314  6054 net.cpp:100] Creating Layer score
I1011 15:07:00.427317  6054 net.cpp:434] score <- flatten
I1011 15:07:00.427320  6054 net.cpp:408] score -> score
I1011 15:07:00.427455  6054 net.cpp:150] Setting up score
I1011 15:07:00.427474  6054 net.cpp:157] Top shape: 64 10 (640)
I1011 15:07:00.427476  6054 net.cpp:165] Memory required for data: 160608512
I1011 15:07:00.427480  6054 layer_factory.hpp:77] Creating layer score_score_0_split
I1011 15:07:00.427498  6054 net.cpp:100] Creating Layer score_score_0_split
I1011 15:07:00.427501  6054 net.cpp:434] score_score_0_split <- score
I1011 15:07:00.427518  6054 net.cpp:408] score_score_0_split -> score_score_0_split_0
I1011 15:07:00.427523  6054 net.cpp:408] score_score_0_split -> score_score_0_split_1
I1011 15:07:00.427551  6054 net.cpp:150] Setting up score_score_0_split
I1011 15:07:00.427554  6054 net.cpp:157] Top shape: 64 10 (640)
I1011 15:07:00.427557  6054 net.cpp:157] Top shape: 64 10 (640)
I1011 15:07:00.427559  6054 net.cpp:165] Memory required for data: 160613632
I1011 15:07:00.427561  6054 layer_factory.hpp:77] Creating layer accuracy
I1011 15:07:00.427567  6054 net.cpp:100] Creating Layer accuracy
I1011 15:07:00.427569  6054 net.cpp:434] accuracy <- score_score_0_split_0
I1011 15:07:00.427572  6054 net.cpp:434] accuracy <- label_data_1_split_0
I1011 15:07:00.427577  6054 net.cpp:408] accuracy -> accuracy
…
I1011 15:07:00.428087  6054 net.cpp:283] Network initialization done.
I1011 15:07:00.428299  6054 solver.cpp:181] Creating test net (#0) specified by test_net file: /home/adam/Honours/Honours-Project/cifar-10_allcnn/elu/allcnn_elu_test.prototxt
I1011 15:07:00.428411  6054 net.cpp:58] Initializing net from parameters: 
state {
  phase: TEST
}
layer {
  name: "data"
  type: "Data"
  top: "data"
  top: "label"
  transform_param {
    mean_file: "mean.binaryproto"
  }
  data_param {
    source: "../../../data/cifar-10/cifar10_test_lmdb"
    batch_size: 100
    backend: LMDB
  }
}
layer {
  name: "conv1"
  type: "Convolution"
  bottom: "data"
  top: "conv1"
  convolution_param {
    num_output: 96
    kernel_size: 3
    weight_filler {
      type: "xavier"
    }
  }
}
layer {
  name: "elu1"
  type: "ELU"
  bottom: "conv1"
  top: "conv1"
}
layer {
  name: "conv2"
  type: "Convolution"
  bottom: "conv1"
  top: "conv2"
  convolution_param {
    num_output: 96
    kernel_size: 3
    weight_filler {
      type: "xavier"
    }
  }
}
layer {
  name: "bn1"
  type: "BatchNorm"
  bottom: "conv2"
  top: "bn1"
}
layer {
  name: "elu2"
  type: "ELU"
  bottom: "bn1"
  top: "bn1"
}
layer {
  name: "drop1"
  type: "Dropout"
  bottom: "bn1"
  top: "drop1"
  dropout_param {
    dropout_ratio: 0.5
  }
}
layer {
  name: "conv3"
  type: "Convolution"
  bottom: "drop1"
  top: "conv3"
  convolution_param {
    num_output: 96
    kernel_size: 3
    stride: 2
    weight_filler {
      type: "xavier"
    }
  }
}
layer {
  name: "elu3"
  type: "ELU"
  bottom: "conv3"
  top: "conv3"
}
layer {
  name: "conv4"
  type: "Convolution"
  bottom: "conv3"
  top: "conv4"
  convolution_param {
    num_output: 192
    kernel_size: 3
    weight_filler {
      type: "xavier"
    }
  }
}
layer {
  name: "elu4"
  type: "ELU"
  bottom: "conv4"
  top: "conv4"
}
layer {
  name: "conv5"
  type: "Convolution"
  bottom: "conv4"
  top: "conv5"
  convolution_param {
    num_output: 192
    kernel_size: 3
    weight_filler {
      type: "xavier"
    }
  }
}
layer {
  name: "bn2"
  type: "BatchNorm"
  bottom: "conv5"
  top: "bn2"
}
layer {
  name: "elu5"
  type: "ELU"
  bottom: "bn2"
  top: "bn2"
}
layer {
  name: "drop4"
  type: "Dropout"
  bottom: "bn2"
  top: "drop4"
  dropout_param {
    dropout_ratio: 0.5
  }
}
layer {
  name: "conv6"
  type: "Convolution"
  bottom: "drop4"
  top: "conv6"
  convolution_param {
    num_output: 192
    kernel_size: 3
    stride: 2
    weight_filler {
      type: "xavier"
    }
  }
}
layer {
  name: "elu6"
  type: "ELU"
  bottom: "conv6"
  top: "conv6"
}
layer {
  name: "conv7"
  type: "Convolution"
  bottom: "conv6"
  top: "conv7"
  convolution_param {
    num_output: 192
    kernel_size: 3
    weight_filler {
      type: "xavier"
    }
  }
}
layer {
  name: "elu7"
  type: "ELU"
  bottom: "conv7"
  top: "conv7"
}
layer {
  name: "conv8"
  type: "Convolution"
  bottom: "conv7"
  top: "conv8"
  convolution_param {
    num_output: 192
    kernel_size: 1
    weight_filler {
      type: "xavier"
    }
  }
}
layer {
  name: "elu8"
  type: "ELU"
  bottom: "conv8"
  top: "conv8"
}
layer {
  name: "conv9"
  type: "Convolution"
  bottom: "conv8"
  top: "conv9"
  convolution_param {
    num_output: 10
    kernel_size: 1
    weight_filler {
      type: "xavier"
    }
  }
}
layer {
  name: "elu9"
  type: "ELU"
  bottom: "conv9"
  top: "conv9"
}
layer {
  name: "pool"
  type: "Pooling"
  bottom: "conv9"
  top: "pool"
  pooling_param {
    pool: AVE
    global_pooling: true
  }
}
layer {
  name: "flatten"
  type: "Flatten"
  bottom: "pool"
  top: "flatten"
}
layer {
  name: "score"
  type: "InnerProduct"
  bottom: "flatten"
  top: "score"
  inner_product_param {
    num_output: 10
    weight_filler {
      type: "gaussian"
    }
  }
}
layer {
  name: "accuracy"
  type: "Accuracy"
  bottom: "score"
  bottom: "label"
  top: "accuracy"
}
layer {
  name: "loss"
  type: "SoftmaxWithLoss"
  bottom: "score"
  bottom: "label"
  top: "loss"
}
I1011 15:07:00.428505  6054 layer_factory.hpp:77] Creating layer data
I1011 15:07:00.428745  6054 net.cpp:100] Creating Layer data
I1011 15:07:00.428751  6054 net.cpp:408] data -> data
I1011 15:07:00.428758  6054 net.cpp:408] data -> label
I1011 15:07:00.428778  6054 data_transformer.cpp:25] Loading mean file from: mean.binaryproto
I1011 15:07:00.429616  6062 db_lmdb.cpp:35] Opened lmdb ../../../data/cifar-10/cifar10_test_lmdb
I1011 15:07:00.430421  6054 data_layer.cpp:41] output data size: 100,3,32,32
I1011 15:07:00.432301  6054 net.cpp:150] Setting up data
I1011 15:07:00.432334  6054 net.cpp:157] Top shape: 100 3 32 32 (307200)
I1011 15:07:00.432337  6054 net.cpp:157] Top shape: 100 (100)
I1011 15:07:00.432340  6054 net.cpp:165] Memory required for data: 1229200
I1011 15:07:00.432344  6054 layer_factory.hpp:77] Creating layer label_data_1_split
I1011 15:07:00.432353  6054 net.cpp:100] Creating Layer label_data_1_split
I1011 15:07:00.432356  6054 net.cpp:434] label_data_1_split <- label
I1011 15:07:00.432363  6054 net.cpp:408] label_data_1_split -> label_data_1_split_0
I1011 15:07:00.432369  6054 net.cpp:408] label_data_1_split -> label_data_1_split_1
I1011 15:07:00.432428  6054 net.cpp:150] Setting up label_data_1_split
I1011 15:07:00.432438  6054 net.cpp:157] Top shape: 100 (100)
I1011 15:07:00.432441  6054 net.cpp:157] Top shape: 100 (100)
I1011 15:07:00.432459  6054 net.cpp:165] Memory required for data: 1230000
I1011 15:07:00.432461  6054 layer_factory.hpp:77] Creating layer conv1
I1011 15:07:00.432484  6054 net.cpp:100] Creating Layer conv1
I1011 15:07:00.432487  6054 net.cpp:434] conv1 <- data
I1011 15:07:00.432503  6054 net.cpp:408] conv1 -> conv1
I1011 15:07:00.433581  6054 net.cpp:150] Setting up conv1
I1011 15:07:00.433591  6054 net.cpp:157] Top shape: 100 96 30 30 (8640000)
I1011 15:07:00.433595  6054 net.cpp:165] Memory required for data: 35790000
I1011 15:07:00.433616  6054 layer_factory.hpp:77] Creating layer elu1
I1011 15:07:00.433620  6054 net.cpp:100] Creating Layer elu1
I1011 15:07:00.433622  6054 net.cpp:434] elu1 <- conv1
I1011 15:07:00.433640  6054 net.cpp:395] elu1 -> conv1 (in-place)
I1011 15:07:00.433643  6054 net.cpp:150] Setting up elu1
I1011 15:07:00.433646  6054 net.cpp:157] Top shape: 100 96 30 30 (8640000)
I1011 15:07:00.433648  6054 net.cpp:165] Memory required for data: 70350000
I1011 15:07:00.433650  6054 layer_factory.hpp:77] Creating layer conv2
I1011 15:07:00.433656  6054 net.cpp:100] Creating Layer conv2
I1011 15:07:00.433672  6054 net.cpp:434] conv2 <- conv1
I1011 15:07:00.433676  6054 net.cpp:408] conv2 -> conv2
I1011 15:07:00.435259  6054 net.cpp:150] Setting up conv2
I1011 15:07:00.435272  6054 net.cpp:157] Top shape: 100 96 28 28 (7526400)
I1011 15:07:00.435276  6054 net.cpp:165] Memory required for data: 100455600
I1011 15:07:00.435282  6054 layer_factory.hpp:77] Creating layer bn1
I1011 15:07:00.435288  6054 net.cpp:100] Creating Layer bn1
I1011 15:07:00.435292  6054 net.cpp:434] bn1 <- conv2
I1011 15:07:00.435295  6054 net.cpp:408] bn1 -> bn1
I1011 15:07:00.435472  6054 net.cpp:150] Setting up bn1
I1011 15:07:00.435477  6054 net.cpp:157] Top shape: 100 96 28 28 (7526400)
I1011 15:07:00.435492  6054 net.cpp:165] Memory required for data: 130561200
I1011 15:07:00.435499  6054 layer_factory.hpp:77] Creating layer elu2
I1011 15:07:00.435503  6054 net.cpp:100] Creating Layer elu2
I1011 15:07:00.435505  6054 net.cpp:434] elu2 <- bn1
I1011 15:07:00.435526  6054 net.cpp:395] elu2 -> bn1 (in-place)
I1011 15:07:00.435533  6054 net.cpp:150] Setting up elu2
I1011 15:07:00.435539  6054 net.cpp:157] Top shape: 100 96 28 28 (7526400)
I1011 15:07:00.435540  6054 net.cpp:165] Memory required for data: 160666800
I1011 15:07:00.435542  6054 layer_factory.hpp:77] Creating layer drop1
I1011 15:07:00.435547  6054 net.cpp:100] Creating Layer drop1
I1011 15:07:00.435549  6054 net.cpp:434] drop1 <- bn1
I1011 15:07:00.435554  6054 net.cpp:408] drop1 -> drop1
I1011 15:07:00.435596  6054 net.cpp:150] Setting up drop1
I1011 15:07:00.435601  6054 net.cpp:157] Top shape: 100 96 28 28 (7526400)
I1011 15:07:00.435603  6054 net.cpp:165] Memory required for data: 190772400
I1011 15:07:00.435606  6054 layer_factory.hpp:77] Creating layer conv3
I1011 15:07:00.435626  6054 net.cpp:100] Creating Layer conv3
I1011 15:07:00.435629  6054 net.cpp:434] conv3 <- drop1
I1011 15:07:00.435647  6054 net.cpp:408] conv3 -> conv3
I1011 15:07:00.436854  6054 net.cpp:150] Setting up conv3
I1011 15:07:00.436879  6054 net.cpp:157] Top shape: 100 96 13 13 (1622400)
I1011 15:07:00.436882  6054 net.cpp:165] Memory required for data: 197262000
I1011 15:07:00.436889  6054 layer_factory.hpp:77] Creating layer elu3
I1011 15:07:00.436895  6054 net.cpp:100] Creating Layer elu3
I1011 15:07:00.436898  6054 net.cpp:434] elu3 <- conv3
I1011 15:07:00.436902  6054 net.cpp:395] elu3 -> conv3 (in-place)
I1011 15:07:00.436906  6054 net.cpp:150] Setting up elu3
I1011 15:07:00.436909  6054 net.cpp:157] Top shape: 100 96 13 13 (1622400)
I1011 15:07:00.436913  6054 net.cpp:165] Memory required for data: 203751600
I1011 15:07:00.436928  6054 layer_factory.hpp:77] Creating layer conv4
I1011 15:07:00.436933  6054 net.cpp:100] Creating Layer conv4
I1011 15:07:00.436936  6054 net.cpp:434] conv4 <- conv3
I1011 15:07:00.436939  6054 net.cpp:408] conv4 -> conv4
I1011 15:07:00.438760  6054 net.cpp:150] Setting up conv4
I1011 15:07:00.438772  6054 net.cpp:157] Top shape: 100 192 11 11 (2323200)
I1011 15:07:00.438776  6054 net.cpp:165] Memory required for data: 213044400
I1011 15:07:00.438781  6054 layer_factory.hpp:77] Creating layer elu4
I1011 15:07:00.438787  6054 net.cpp:100] Creating Layer elu4
I1011 15:07:00.438791  6054 net.cpp:434] elu4 <- conv4
I1011 15:07:00.438796  6054 net.cpp:395] elu4 -> conv4 (in-place)
I1011 15:07:00.438799  6054 net.cpp:150] Setting up elu4
I1011 15:07:00.438803  6054 net.cpp:157] Top shape: 100 192 11 11 (2323200)
I1011 15:07:00.438805  6054 net.cpp:165] Memory required for data: 222337200
I1011 15:07:00.438807  6054 layer_factory.hpp:77] Creating layer conv5
I1011 15:07:00.438814  6054 net.cpp:100] Creating Layer conv5
I1011 15:07:00.438817  6054 net.cpp:434] conv5 <- conv4
I1011 15:07:00.438820  6054 net.cpp:408] conv5 -> conv5
I1011 15:07:00.441527  6054 net.cpp:150] Setting up conv5
I1011 15:07:00.441541  6054 net.cpp:157] Top shape: 100 192 9 9 (1555200)
I1011 15:07:00.441545  6054 net.cpp:165] Memory required for data: 228558000
I1011 15:07:00.441550  6054 layer_factory.hpp:77] Creating layer bn2
I1011 15:07:00.441555  6054 net.cpp:100] Creating Layer bn2
I1011 15:07:00.441556  6054 net.cpp:434] bn2 <- conv5
I1011 15:07:00.441561  6054 net.cpp:408] bn2 -> bn2
I1011 15:07:00.441761  6054 net.cpp:150] Setting up bn2
I1011 15:07:00.441766  6054 net.cpp:157] Top shape: 100 192 9 9 (1555200)
I1011 15:07:00.441768  6054 net.cpp:165] Memory required for data: 234778800
I1011 15:07:00.441772  6054 layer_factory.hpp:77] Creating layer elu5
I1011 15:07:00.441776  6054 net.cpp:100] Creating Layer elu5
I1011 15:07:00.441778  6054 net.cpp:434] elu5 <- bn2
I1011 15:07:00.441781  6054 net.cpp:395] elu5 -> bn2 (in-place)
I1011 15:07:00.441786  6054 net.cpp:150] Setting up elu5
I1011 15:07:00.441788  6054 net.cpp:157] Top shape: 100 192 9 9 (1555200)
I1011 15:07:00.441817  6054 net.cpp:165] Memory required for data: 240999600
I1011 15:07:00.441818  6054 layer_factory.hpp:77] Creating layer drop4
I1011 15:07:00.441823  6054 net.cpp:100] Creating Layer drop4
I1011 15:07:00.441826  6054 net.cpp:434] drop4 <- bn2
I1011 15:07:00.441829  6054 net.cpp:408] drop4 -> drop4
I1011 15:07:00.441874  6054 net.cpp:150] Setting up drop4
I1011 15:07:00.441879  6054 net.cpp:157] Top shape: 100 192 9 9 (1555200)
I1011 15:07:00.441881  6054 net.cpp:165] Memory required for data: 247220400
I1011 15:07:00.441884  6054 layer_factory.hpp:77] Creating layer conv6
I1011 15:07:00.441890  6054 net.cpp:100] Creating Layer conv6
I1011 15:07:00.441893  6054 net.cpp:434] conv6 <- drop4
I1011 15:07:00.441897  6054 net.cpp:408] conv6 -> conv6
I1011 15:07:00.444555  6054 net.cpp:150] Setting up conv6
I1011 15:07:00.444571  6054 net.cpp:157] Top shape: 100 192 4 4 (307200)
I1011 15:07:00.444573  6054 net.cpp:165] Memory required for data: 248449200
I1011 15:07:00.444583  6054 layer_factory.hpp:77] Creating layer elu6
I1011 15:07:00.444589  6054 net.cpp:100] Creating Layer elu6
I1011 15:07:00.444591  6054 net.cpp:434] elu6 <- conv6
I1011 15:07:00.444597  6054 net.cpp:395] elu6 -> conv6 (in-place)
I1011 15:07:00.444602  6054 net.cpp:150] Setting up elu6
I1011 15:07:00.444604  6054 net.cpp:157] Top shape: 100 192 4 4 (307200)
I1011 15:07:00.444620  6054 net.cpp:165] Memory required for data: 249678000
I1011 15:07:00.444623  6054 layer_factory.hpp:77] Creating layer conv7
I1011 15:07:00.444629  6054 net.cpp:100] Creating Layer conv7
I1011 15:07:00.444644  6054 net.cpp:434] conv7 <- conv6
I1011 15:07:00.444649  6054 net.cpp:408] conv7 -> conv7
I1011 15:07:00.447823  6054 net.cpp:150] Setting up conv7
I1011 15:07:00.447840  6054 net.cpp:157] Top shape: 100 192 2 2 (76800)
I1011 15:07:00.447844  6054 net.cpp:165] Memory required for data: 249985200
I1011 15:07:00.447851  6054 layer_factory.hpp:77] Creating layer elu7
I1011 15:07:00.447857  6054 net.cpp:100] Creating Layer elu7
I1011 15:07:00.447860  6054 net.cpp:434] elu7 <- conv7
I1011 15:07:00.447865  6054 net.cpp:395] elu7 -> conv7 (in-place)
I1011 15:07:00.447872  6054 net.cpp:150] Setting up elu7
I1011 15:07:00.447876  6054 net.cpp:157] Top shape: 100 192 2 2 (76800)
I1011 15:07:00.447878  6054 net.cpp:165] Memory required for data: 250292400
I1011 15:07:00.447880  6054 layer_factory.hpp:77] Creating layer conv8
I1011 15:07:00.447887  6054 net.cpp:100] Creating Layer conv8
I1011 15:07:00.447890  6054 net.cpp:434] conv8 <- conv7
I1011 15:07:00.447895  6054 net.cpp:408] conv8 -> conv8
I1011 15:07:00.448954  6054 net.cpp:150] Setting up conv8
I1011 15:07:00.448964  6054 net.cpp:157] Top shape: 100 192 2 2 (76800)
I1011 15:07:00.448967  6054 net.cpp:165] Memory required for data: 250599600
I1011 15:07:00.448972  6054 layer_factory.hpp:77] Creating layer elu8
I1011 15:07:00.448977  6054 net.cpp:100] Creating Layer elu8
I1011 15:07:00.448981  6054 net.cpp:434] elu8 <- conv8
I1011 15:07:00.448984  6054 net.cpp:395] elu8 -> conv8 (in-place)
I1011 15:07:00.448988  6054 net.cpp:150] Setting up elu8
I1011 15:07:00.448992  6054 net.cpp:157] Top shape: 100 192 2 2 (76800)
I1011 15:07:00.448994  6054 net.cpp:165] Memory required for data: 250906800
I1011 15:07:00.448997  6054 layer_factory.hpp:77] Creating layer conv9
I1011 15:07:00.449003  6054 net.cpp:100] Creating Layer conv9
I1011 15:07:00.449007  6054 net.cpp:434] conv9 <- conv8
I1011 15:07:00.449009  6054 net.cpp:408] conv9 -> conv9
I1011 15:07:00.449861  6054 net.cpp:150] Setting up conv9
I1011 15:07:00.449872  6054 net.cpp:157] Top shape: 100 10 2 2 (4000)
I1011 15:07:00.449874  6054 net.cpp:165] Memory required for data: 250922800
I1011 15:07:00.449879  6054 layer_factory.hpp:77] Creating layer elu9
I1011 15:07:00.449883  6054 net.cpp:100] Creating Layer elu9
I1011 15:07:00.449887  6054 net.cpp:434] elu9 <- conv9
I1011 15:07:00.449892  6054 net.cpp:395] elu9 -> conv9 (in-place)
I1011 15:07:00.449897  6054 net.cpp:150] Setting up elu9
I1011 15:07:00.449900  6054 net.cpp:157] Top shape: 100 10 2 2 (4000)
I1011 15:07:00.449913  6054 net.cpp:165] Memory required for data: 250938800
I1011 15:07:00.449915  6054 layer_factory.hpp:77] Creating layer pool
I1011 15:07:00.449919  6054 net.cpp:100] Creating Layer pool
I1011 15:07:00.449935  6054 net.cpp:434] pool <- conv9
I1011 15:07:00.449940  6054 net.cpp:408] pool -> pool
I1011 15:07:00.450239  6054 net.cpp:150] Setting up pool
I1011 15:07:00.450248  6054 net.cpp:157] Top shape: 100 10 1 1 (1000)
I1011 15:07:00.450249  6054 net.cpp:165] Memory required for data: 250942800
I1011 15:07:00.450253  6054 layer_factory.hpp:77] Creating layer flatten
I1011 15:07:00.450271  6054 net.cpp:100] Creating Layer flatten
I1011 15:07:00.450275  6054 net.cpp:434] flatten <- pool
I1011 15:07:00.450280  6054 net.cpp:408] flatten -> flatten
I1011 15:07:00.450328  6054 net.cpp:150] Setting up flatten
I1011 15:07:00.450335  6054 net.cpp:157] Top shape: 100 10 (1000)
I1011 15:07:00.450336  6054 net.cpp:165] Memory required for data: 250946800
I1011 15:07:00.450338  6054 layer_factory.hpp:77] Creating layer score
I1011 15:07:00.450342  6054 net.cpp:100] Creating Layer score
I1011 15:07:00.450358  6054 net.cpp:434] score <- flatten
I1011 15:07:00.450361  6054 net.cpp:408] score -> score
I1011 15:07:00.450485  6054 net.cpp:150] Setting up score
I1011 15:07:00.450489  6054 net.cpp:157] Top shape: 100 10 (1000)
I1011 15:07:00.450505  6054 net.cpp:165] Memory required for data: 250950800
I1011 15:07:00.450510  6054 layer_factory.hpp:77] Creating layer score_score_0_split
I1011 15:07:00.450515  6054 net.cpp:100] Creating Layer score_score_0_split
I1011 15:07:00.450516  6054 net.cpp:434] score_score_0_split <- score
I1011 15:07:00.450533  6054 net.cpp:408] score_score_0_split -> score_score_0_split_0
I1011 15:07:00.450538  6054 net.cpp:408] score_score_0_split -> score_score_0_split_1
I1011 15:07:00.450569  6054 net.cpp:150] Setting up score_score_0_split
I1011 15:07:00.450574  6054 net.cpp:157] Top shape: 100 10 (1000)
I1011 15:07:00.450577  6054 net.cpp:157] Top shape: 100 10 (1000)
I1011 15:07:00.450579  6054 net.cpp:165] Memory required for data: 250958800
I1011 15:07:00.450582  6054 layer_factory.hpp:77] Creating layer accuracy
I1011 15:07:00.450599  6054 net.cpp:100] Creating Layer accuracy
I1011 15:07:00.450603  6054 net.cpp:434] accuracy <- score_score_0_split_0
I1011 15:07:00.450618  6054 net.cpp:434] accuracy <- label_data_1_split_0
I1011 15:07:00.450621  6054 net.cpp:408] accuracy -> accuracy
…
