…
type: "Nesterov"
I1013 14:36:03.939622 15136 solver.cpp:81] Creating training net from train_net file: /home/adam/Honours/Honours-Project/cifar-10_allcnn/leakyrelu/allcnn_leakyrelu_train.prototxt
I1013 14:36:03.939946 15136 net.cpp:58] Initializing net from parameters: 
state {
  phase: TRAIN
  level: 0
  stage: ""
}
layer {
  name: "data"
  type: "Data"
  top: "data"
  top: "label"
  transform_param {
    mean_file: "mean.binaryproto"
  }
  data_param {
    source: "../../../data/cifar-10/cifar10_train_lmdb"
    batch_size: 64
    backend: LMDB
  }
}
layer {
  name: "conv1"
  type: "Convolution"
  bottom: "data"
  top: "conv1"
  convolution_param {
    num_output: 96
    kernel_size: 3
    weight_filler {
      type: "xavier"
    }
  }
}
layer {
  name: "relu1"
  type: "ReLU"
  bottom: "conv1"
  top: "conv1"
  relu_param {
    negative_slope: 0.01
  }
}
layer {
  name: "conv2"
  type: "Convolution"
  bottom: "conv1"
  top: "conv2"
  convolution_param {
    num_output: 96
    kernel_size: 3
    weight_filler {
      type: "xavier"
    }
  }
}
layer {
  name: "bn1"
  type: "BatchNorm"
  bottom: "conv2"
  top: "bn1"
}
layer {
  name: "relu2"
  type: "ReLU"
  bottom: "bn1"
  top: "bn1"
  relu_param {
    negative_slope: 0.01
  }
}
layer {
  name: "conv3"
  type: "Convolution"
  bottom: "bn1"
  top: "conv3"
  convolution_param {
    num_output: 96
    kernel_size: 3
    stride: 2
    weight_filler {
      type: "xavier"
    }
  }
}
layer {
  name: "drop1"
  type: "Dropout"
  bottom: "conv3"
  top: "drop1"
  dropout_param {
    dropout_ratio: 0.5
  }
}
layer {
  name: "relu3"
  type: "ReLU"
  bottom: "drop1"
  top: "drop1"
  relu_param {
    negative_slope: 0.01
  }
}
layer {
  name: "conv4"
  type: "Convolution"
  bottom: "drop1"
  top: "conv4"
  convolution_param {
    num_output: 192
    kernel_size: 3
    weight_filler {
      type: "xavier"
    }
  }
}
layer {
  name: "relu4"
  type: "ReLU"
  bottom: "conv4"
  top: "conv4"
  relu_param {
    negative_slope: 0.01
  }
}
layer {
  name: "conv5"
  type: "Convolution"
  bottom: "conv4"
  top: "conv5"
  convolution_param {
    num_output: 192
    kernel_size: 3
    weight_filler {
      type: "xavier"
    }
  }
}
layer {
  name: "bn2"
  type: "BatchNorm"
  bottom: "conv5"
  top: "bn2"
}
layer {
  name: "relu5"
  type: "ReLU"
  bottom: "bn2"
  top: "bn2"
  relu_param {
    negative_slope: 0.01
  }
}
layer {
  name: "conv6"
  type: "Convolution"
  bottom: "bn2"
  top: "conv6"
  convolution_param {
    num_output: 192
    kernel_size: 3
    stride: 2
    weight_filler {
      type: "xavier"
    }
  }
}
layer {
  name: "drop4"
  type: "Dropout"
  bottom: "conv6"
  top: "drop4"
  dropout_param {
    dropout_ratio: 0.5
  }
}
layer {
  name: "relu6"
  type: "ReLU"
  bottom: "drop4"
  top: "drop4"
  relu_param {
    negative_slope: 0.01
  }
}
layer {
  name: "conv7"
  type: "Convolution"
  bottom: "drop4"
  top: "conv7"
  convolution_param {
    num_output: 192
    kernel_size: 3
    weight_filler {
      type: "xavier"
    }
  }
}
layer {
  name: "relu7"
  type: "ReLU"
  bottom: "conv7"
  top: "conv7"
  relu_param {
    negative_slope: 0.01
  }
}
layer {
  name: "conv8"
  type: "Convolution"
  bottom: "conv7"
  top: "conv8"
  convolution_param {
    num_output: 192
    kernel_size: 1
    weight_filler {
      type: "xavier"
    }
  }
}
layer {
  name: "relu8"
  type: "ReLU"
  bottom: "conv8"
  top: "conv8"
  relu_param {
    negative_slope: 0.01
  }
}
layer {
  name: "conv9"
  type: "Convolution"
  bottom: "conv8"
  top: "conv9"
  convolution_param {
    num_output: 10
    kernel_size: 1
    weight_filler {
      type: "xavier"
    }
  }
}
layer {
  name: "relu9"
  type: "ReLU"
  bottom: "conv9"
  top: "conv9"
  relu_param {
    negative_slope: 0.01
  }
}
layer {
  name: "pool"
  type: "Pooling"
  bottom: "conv9"
  top: "pool"
  pooling_param {
    pool: AVE
    global_pooling: true
  }
}
layer {
  name: "flatten"
  type: "Flatten"
  bottom: "pool"
  top: "flatten"
}
layer {
  name: "score"
  type: "InnerProduct"
  bottom: "flatten"
  top: "score"
  inner_product_param {
    num_output: 10
    weight_filler {
      type: "gaussian"
    }
  }
}
layer {
  name: "accuracy"
  type: "Accuracy"
  bottom: "score"
  bottom: "label"
  top: "accuracy"
}
layer {
  name: "loss"
  type: "SoftmaxWithLoss"
  bottom: "score"
  bottom: "label"
  top: "loss"
}
I1013 14:36:03.940109 15136 layer_factory.hpp:77] Creating layer data
I1013 14:36:03.940547 15136 net.cpp:100] Creating Layer data
I1013 14:36:03.940556 15136 net.cpp:408] data -> data
I1013 14:36:03.940609 15136 net.cpp:408] data -> label
I1013 14:36:03.940649 15136 data_transformer.cpp:25] Loading mean file from: mean.binaryproto
I1013 14:36:03.943840 15141 db_lmdb.cpp:35] Opened lmdb ../../../data/cifar-10/cifar10_train_lmdb
I1013 14:36:03.947626 15136 data_layer.cpp:41] output data size: 64,3,32,32
I1013 14:36:03.949149 15136 net.cpp:150] Setting up data
I1013 14:36:03.949165 15136 net.cpp:157] Top shape: 64 3 32 32 (196608)
I1013 14:36:03.949182 15136 net.cpp:157] Top shape: 64 (64)
I1013 14:36:03.949184 15136 net.cpp:165] Memory required for data: 786688
I1013 14:36:03.949204 15136 layer_factory.hpp:77] Creating layer label_data_1_split
I1013 14:36:03.949229 15136 net.cpp:100] Creating Layer label_data_1_split
I1013 14:36:03.949232 15136 net.cpp:434] label_data_1_split <- label
I1013 14:36:03.949244 15136 net.cpp:408] label_data_1_split -> label_data_1_split_0
I1013 14:36:03.949257 15136 net.cpp:408] label_data_1_split -> label_data_1_split_1
I1013 14:36:03.949317 15136 net.cpp:150] Setting up label_data_1_split
I1013 14:36:03.949322 15136 net.cpp:157] Top shape: 64 (64)
I1013 14:36:03.949324 15136 net.cpp:157] Top shape: 64 (64)
I1013 14:36:03.949326 15136 net.cpp:165] Memory required for data: 787200
I1013 14:36:03.949328 15136 layer_factory.hpp:77] Creating layer conv1
I1013 14:36:03.949340 15136 net.cpp:100] Creating Layer conv1
I1013 14:36:03.949342 15136 net.cpp:434] conv1 <- data
I1013 14:36:03.949368 15136 net.cpp:408] conv1 -> conv1
I1013 14:36:04.085161 15136 net.cpp:150] Setting up conv1
I1013 14:36:04.085186 15136 net.cpp:157] Top shape: 64 96 30 30 (5529600)
I1013 14:36:04.085188 15136 net.cpp:165] Memory required for data: 22905600
I1013 14:36:04.085206 15136 layer_factory.hpp:77] Creating layer relu1
I1013 14:36:04.085214 15136 net.cpp:100] Creating Layer relu1
I1013 14:36:04.085217 15136 net.cpp:434] relu1 <- conv1
I1013 14:36:04.085222 15136 net.cpp:395] relu1 -> conv1 (in-place)
I1013 14:36:04.085435 15136 net.cpp:150] Setting up relu1
I1013 14:36:04.085443 15136 net.cpp:157] Top shape: 64 96 30 30 (5529600)
I1013 14:36:04.085444 15136 net.cpp:165] Memory required for data: 45024000
I1013 14:36:04.085446 15136 layer_factory.hpp:77] Creating layer conv2
I1013 14:36:04.085455 15136 net.cpp:100] Creating Layer conv2
I1013 14:36:04.085458 15136 net.cpp:434] conv2 <- conv1
I1013 14:36:04.085460 15136 net.cpp:408] conv2 -> conv2
I1013 14:36:04.086870 15136 net.cpp:150] Setting up conv2
I1013 14:36:04.086880 15136 net.cpp:157] Top shape: 64 96 28 28 (4816896)
I1013 14:36:04.086884 15136 net.cpp:165] Memory required for data: 64291584
I1013 14:36:04.086889 15136 layer_factory.hpp:77] Creating layer bn1
I1013 14:36:04.086894 15136 net.cpp:100] Creating Layer bn1
I1013 14:36:04.086895 15136 net.cpp:434] bn1 <- conv2
I1013 14:36:04.086900 15136 net.cpp:408] bn1 -> bn1
I1013 14:36:04.087090 15136 net.cpp:150] Setting up bn1
I1013 14:36:04.087095 15136 net.cpp:157] Top shape: 64 96 28 28 (4816896)
I1013 14:36:04.087097 15136 net.cpp:165] Memory required for data: 83559168
I1013 14:36:04.087115 15136 layer_factory.hpp:77] Creating layer relu2
I1013 14:36:04.087118 15136 net.cpp:100] Creating Layer relu2
I1013 14:36:04.087121 15136 net.cpp:434] relu2 <- bn1
I1013 14:36:04.087124 15136 net.cpp:395] relu2 -> bn1 (in-place)
I1013 14:36:04.087296 15136 net.cpp:150] Setting up relu2
I1013 14:36:04.087303 15136 net.cpp:157] Top shape: 64 96 28 28 (4816896)
I1013 14:36:04.087306 15136 net.cpp:165] Memory required for data: 102826752
I1013 14:36:04.087307 15136 layer_factory.hpp:77] Creating layer conv3
I1013 14:36:04.087314 15136 net.cpp:100] Creating Layer conv3
I1013 14:36:04.087316 15136 net.cpp:434] conv3 <- bn1
I1013 14:36:04.087321 15136 net.cpp:408] conv3 -> conv3
I1013 14:36:04.088500 15136 net.cpp:150] Setting up conv3
I1013 14:36:04.088510 15136 net.cpp:157] Top shape: 64 96 13 13 (1038336)
I1013 14:36:04.088511 15136 net.cpp:165] Memory required for data: 106980096
I1013 14:36:04.088518 15136 layer_factory.hpp:77] Creating layer drop1
I1013 14:36:04.088523 15136 net.cpp:100] Creating Layer drop1
I1013 14:36:04.088526 15136 net.cpp:434] drop1 <- conv3
I1013 14:36:04.088531 15136 net.cpp:408] drop1 -> drop1
I1013 14:36:04.088590 15136 net.cpp:150] Setting up drop1
I1013 14:36:04.088595 15136 net.cpp:157] Top shape: 64 96 13 13 (1038336)
I1013 14:36:04.088598 15136 net.cpp:165] Memory required for data: 111133440
I1013 14:36:04.088613 15136 layer_factory.hpp:77] Creating layer relu3
I1013 14:36:04.088618 15136 net.cpp:100] Creating Layer relu3
I1013 14:36:04.088619 15136 net.cpp:434] relu3 <- drop1
I1013 14:36:04.088636 15136 net.cpp:395] relu3 -> drop1 (in-place)
I1013 14:36:04.088898 15136 net.cpp:150] Setting up relu3
I1013 14:36:04.088907 15136 net.cpp:157] Top shape: 64 96 13 13 (1038336)
I1013 14:36:04.088908 15136 net.cpp:165] Memory required for data: 115286784
I1013 14:36:04.088912 15136 layer_factory.hpp:77] Creating layer conv4
I1013 14:36:04.088917 15136 net.cpp:100] Creating Layer conv4
I1013 14:36:04.088920 15136 net.cpp:434] conv4 <- drop1
I1013 14:36:04.088923 15136 net.cpp:408] conv4 -> conv4
I1013 14:36:04.090759 15136 net.cpp:150] Setting up conv4
I1013 14:36:04.090770 15136 net.cpp:157] Top shape: 64 192 11 11 (1486848)
I1013 14:36:04.090771 15136 net.cpp:165] Memory required for data: 121234176
I1013 14:36:04.090776 15136 layer_factory.hpp:77] Creating layer relu4
I1013 14:36:04.090780 15136 net.cpp:100] Creating Layer relu4
I1013 14:36:04.090782 15136 net.cpp:434] relu4 <- conv4
I1013 14:36:04.090786 15136 net.cpp:395] relu4 -> conv4 (in-place)
I1013 14:36:04.090961 15136 net.cpp:150] Setting up relu4
I1013 14:36:04.090967 15136 net.cpp:157] Top shape: 64 192 11 11 (1486848)
I1013 14:36:04.090970 15136 net.cpp:165] Memory required for data: 127181568
I1013 14:36:04.090971 15136 layer_factory.hpp:77] Creating layer conv5
I1013 14:36:04.090977 15136 net.cpp:100] Creating Layer conv5
I1013 14:36:04.090979 15136 net.cpp:434] conv5 <- conv4
I1013 14:36:04.090983 15136 net.cpp:408] conv5 -> conv5
I1013 14:36:04.093495 15136 net.cpp:150] Setting up conv5
I1013 14:36:04.093505 15136 net.cpp:157] Top shape: 64 192 9 9 (995328)
I1013 14:36:04.093508 15136 net.cpp:165] Memory required for data: 131162880
I1013 14:36:04.093513 15136 layer_factory.hpp:77] Creating layer bn2
I1013 14:36:04.093518 15136 net.cpp:100] Creating Layer bn2
I1013 14:36:04.093519 15136 net.cpp:434] bn2 <- conv5
I1013 14:36:04.093523 15136 net.cpp:408] bn2 -> bn2
I1013 14:36:04.093734 15136 net.cpp:150] Setting up bn2
I1013 14:36:04.093739 15136 net.cpp:157] Top shape: 64 192 9 9 (995328)
I1013 14:36:04.093755 15136 net.cpp:165] Memory required for data: 135144192
I1013 14:36:04.093760 15136 layer_factory.hpp:77] Creating layer relu5
I1013 14:36:04.093763 15136 net.cpp:100] Creating Layer relu5
I1013 14:36:04.093765 15136 net.cpp:434] relu5 <- bn2
I1013 14:36:04.093768 15136 net.cpp:395] relu5 -> bn2 (in-place)
I1013 14:36:04.093966 15136 net.cpp:150] Setting up relu5
I1013 14:36:04.093971 15136 net.cpp:157] Top shape: 64 192 9 9 (995328)
I1013 14:36:04.093973 15136 net.cpp:165] Memory required for data: 139125504
I1013 14:36:04.093986 15136 layer_factory.hpp:77] Creating layer conv6
I1013 14:36:04.093992 15136 net.cpp:100] Creating Layer conv6
I1013 14:36:04.093996 15136 net.cpp:434] conv6 <- bn2
I1013 14:36:04.093998 15136 net.cpp:408] conv6 -> conv6
I1013 14:36:04.096529 15136 net.cpp:150] Setting up conv6
I1013 14:36:04.096554 15136 net.cpp:157] Top shape: 64 192 4 4 (196608)
I1013 14:36:04.096557 15136 net.cpp:165] Memory required for data: 139911936
I1013 14:36:04.096580 15136 layer_factory.hpp:77] Creating layer drop4
I1013 14:36:04.096602 15136 net.cpp:100] Creating Layer drop4
I1013 14:36:04.096606 15136 net.cpp:434] drop4 <- conv6
I1013 14:36:04.096611 15136 net.cpp:408] drop4 -> drop4
I1013 14:36:04.096684 15136 net.cpp:150] Setting up drop4
I1013 14:36:04.096688 15136 net.cpp:157] Top shape: 64 192 4 4 (196608)
I1013 14:36:04.096704 15136 net.cpp:165] Memory required for data: 140698368
I1013 14:36:04.096706 15136 layer_factory.hpp:77] Creating layer relu6
I1013 14:36:04.096710 15136 net.cpp:100] Creating Layer relu6
I1013 14:36:04.096712 15136 net.cpp:434] relu6 <- drop4
I1013 14:36:04.096716 15136 net.cpp:395] relu6 -> drop4 (in-place)
I1013 14:36:04.096998 15136 net.cpp:150] Setting up relu6
I1013 14:36:04.097021 15136 net.cpp:157] Top shape: 64 192 4 4 (196608)
I1013 14:36:04.097023 15136 net.cpp:165] Memory required for data: 141484800
I1013 14:36:04.097025 15136 layer_factory.hpp:77] Creating layer conv7
I1013 14:36:04.097031 15136 net.cpp:100] Creating Layer conv7
I1013 14:36:04.097034 15136 net.cpp:434] conv7 <- drop4
I1013 14:36:04.097038 15136 net.cpp:408] conv7 -> conv7
I1013 14:36:04.099598 15136 net.cpp:150] Setting up conv7
I1013 14:36:04.099608 15136 net.cpp:157] Top shape: 64 192 2 2 (49152)
I1013 14:36:04.099611 15136 net.cpp:165] Memory required for data: 141681408
I1013 14:36:04.099614 15136 layer_factory.hpp:77] Creating layer relu7
I1013 14:36:04.099619 15136 net.cpp:100] Creating Layer relu7
I1013 14:36:04.099622 15136 net.cpp:434] relu7 <- conv7
I1013 14:36:04.099625 15136 net.cpp:395] relu7 -> conv7 (in-place)
I1013 14:36:04.099875 15136 net.cpp:150] Setting up relu7
I1013 14:36:04.099884 15136 net.cpp:157] Top shape: 64 192 2 2 (49152)
I1013 14:36:04.099885 15136 net.cpp:165] Memory required for data: 141878016
I1013 14:36:04.099887 15136 layer_factory.hpp:77] Creating layer conv8
I1013 14:36:04.099895 15136 net.cpp:100] Creating Layer conv8
I1013 14:36:04.099896 15136 net.cpp:434] conv8 <- conv7
I1013 14:36:04.099900 15136 net.cpp:408] conv8 -> conv8
I1013 14:36:04.101121 15136 net.cpp:150] Setting up conv8
I1013 14:36:04.101131 15136 net.cpp:157] Top shape: 64 192 2 2 (49152)
I1013 14:36:04.101133 15136 net.cpp:165] Memory required for data: 142074624
I1013 14:36:04.101137 15136 layer_factory.hpp:77] Creating layer relu8
I1013 14:36:04.101142 15136 net.cpp:100] Creating Layer relu8
I1013 14:36:04.101145 15136 net.cpp:434] relu8 <- conv8
I1013 14:36:04.101148 15136 net.cpp:395] relu8 -> conv8 (in-place)
I1013 14:36:04.101315 15136 net.cpp:150] Setting up relu8
I1013 14:36:04.101321 15136 net.cpp:157] Top shape: 64 192 2 2 (49152)
I1013 14:36:04.101323 15136 net.cpp:165] Memory required for data: 142271232
I1013 14:36:04.101325 15136 layer_factory.hpp:77] Creating layer conv9
I1013 14:36:04.101331 15136 net.cpp:100] Creating Layer conv9
I1013 14:36:04.101333 15136 net.cpp:434] conv9 <- conv8
I1013 14:36:04.101337 15136 net.cpp:408] conv9 -> conv9
I1013 14:36:04.102138 15136 net.cpp:150] Setting up conv9
I1013 14:36:04.102149 15136 net.cpp:157] Top shape: 64 10 2 2 (2560)
I1013 14:36:04.102150 15136 net.cpp:165] Memory required for data: 142281472
I1013 14:36:04.102154 15136 layer_factory.hpp:77] Creating layer relu9
I1013 14:36:04.102159 15136 net.cpp:100] Creating Layer relu9
I1013 14:36:04.102160 15136 net.cpp:434] relu9 <- conv9
I1013 14:36:04.102164 15136 net.cpp:395] relu9 -> conv9 (in-place)
I1013 14:36:04.102433 15136 net.cpp:150] Setting up relu9
I1013 14:36:04.102442 15136 net.cpp:157] Top shape: 64 10 2 2 (2560)
I1013 14:36:04.102443 15136 net.cpp:165] Memory required for data: 142291712
I1013 14:36:04.102455 15136 layer_factory.hpp:77] Creating layer pool
I1013 14:36:04.102461 15136 net.cpp:100] Creating Layer pool
I1013 14:36:04.102463 15136 net.cpp:434] pool <- conv9
I1013 14:36:04.102466 15136 net.cpp:408] pool -> pool
I1013 14:36:04.102685 15136 net.cpp:150] Setting up pool
I1013 14:36:04.102692 15136 net.cpp:157] Top shape: 64 10 1 1 (640)
I1013 14:36:04.102694 15136 net.cpp:165] Memory required for data: 142294272
I1013 14:36:04.102696 15136 layer_factory.hpp:77] Creating layer flatten
I1013 14:36:04.102700 15136 net.cpp:100] Creating Layer flatten
I1013 14:36:04.102702 15136 net.cpp:434] flatten <- pool
I1013 14:36:04.102705 15136 net.cpp:408] flatten -> flatten
I1013 14:36:04.102725 15136 net.cpp:150] Setting up flatten
I1013 14:36:04.102742 15136 net.cpp:157] Top shape: 64 10 (640)
I1013 14:36:04.102744 15136 net.cpp:165] Memory required for data: 142296832
I1013 14:36:04.102746 15136 layer_factory.hpp:77] Creating layer score
I1013 14:36:04.102751 15136 net.cpp:100] Creating Layer score
I1013 14:36:04.102753 15136 net.cpp:434] score <- flatten
I1013 14:36:04.102756 15136 net.cpp:408] score -> score
I1013 14:36:04.102886 15136 net.cpp:150] Setting up score
I1013 14:36:04.102891 15136 net.cpp:157] Top shape: 64 10 (640)
I1013 14:36:04.102893 15136 net.cpp:165] Memory required for data: 142299392
I1013 14:36:04.102897 15136 layer_factory.hpp:77] Creating layer score_score_0_split
I1013 14:36:04.102901 15136 net.cpp:100] Creating Layer score_score_0_split
I1013 14:36:04.102905 15136 net.cpp:434] score_score_0_split <- score
I1013 14:36:04.102907 15136 net.cpp:408] score_score_0_split -> score_score_0_split_0
I1013 14:36:04.102911 15136 net.cpp:408] score_score_0_split -> score_score_0_split_1
I1013 14:36:04.102953 15136 net.cpp:150] Setting up score_score_0_split
I1013 14:36:04.102957 15136 net.cpp:157] Top shape: 64 10 (640)
I1013 14:36:04.102974 15136 net.cpp:157] Top shape: 64 10 (640)
I1013 14:36:04.102975 15136 net.cpp:165] Memory required for data: 142304512
I1013 14:36:04.102977 15136 layer_factory.hpp:77] Creating layer accuracy
I1013 14:36:04.102982 15136 net.cpp:100] Creating Layer accuracy
I1013 14:36:04.102998 15136 net.cpp:434] accuracy <- score_score_0_split_0
I1013 14:36:04.103000 15136 net.cpp:434] accuracy <- label_data_1_split_0
I1013 14:36:04.103003 15136 net.cpp:408] accuracy -> accuracy
…
I1013 14:36:04.103585 15136 net.cpp:283] Network initialization done.
I1013 14:36:04.103790 15136 solver.cpp:181] Creating test net (#0) specified by test_net file: /home/adam/Honours/Honours-Project/cifar-10_allcnn/leakyrelu/allcnn_leakyrelu_test.prototxt
I1013 14:36:04.103983 15136 net.cpp:58] Initializing net from parameters: 
state {
  phase: TEST
}
layer {
  name: "data"
  type: "Data"
  top: "data"
  top: "label"
  transform_param {
    mean_file: "mean.binaryproto"
  }
  data_param {
    source: "../../../data/cifar-10/cifar10_test_lmdb"
    batch_size: 100
    backend: LMDB
  }
}
layer {
  name: "conv1"
  type: "Convolution"
  bottom: "data"
  top: "conv1"
  convolution_param {
    num_output: 96
    kernel_size: 3
    weight_filler {
      type: "xavier"
    }
  }
}
layer {
  name: "relu1"
  type: "ReLU"
  bottom: "conv1"
  top: "conv1"
  relu_param {
    negative_slope: 0.01
  }
}
layer {
  name: "conv2"
  type: "Convolution"
  bottom: "conv1"
  top: "conv2"
  convolution_param {
    num_output: 96
    kernel_size: 3
    weight_filler {
      type: "xavier"
    }
  }
}
layer {
  name: "bn1"
  type: "BatchNorm"
  bottom: "conv2"
  top: "bn1"
}
layer {
  name: "relu2"
  type: "ReLU"
  bottom: "bn1"
  top: "bn1"
  relu_param {
    negative_slope: 0.01
  }
}
layer {
  name: "conv3"
  type: "Convolution"
  bottom: "bn1"
  top: "conv3"
  convolution_param {
    num_output: 96
    kernel_size: 3
    stride: 2
    weight_filler {
      type: "xavier"
    }
  }
}
layer {
  name: "drop1"
  type: "Dropout"
  bottom: "conv3"
  top: "drop1"
  dropout_param {
    dropout_ratio: 0.5
  }
}
layer {
  name: "relu3"
  type: "ReLU"
  bottom: "drop1"
  top: "drop1"
  relu_param {
    negative_slope: 0.01
  }
}
layer {
  name: "conv4"
  type: "Convolution"
  bottom: "drop1"
  top: "conv4"
  convolution_param {
    num_output: 192
    kernel_size: 3
    weight_filler {
      type: "xavier"
    }
  }
}
layer {
  name: "relu4"
  type: "ReLU"
  bottom: "conv4"
  top: "conv4"
  relu_param {
    negative_slope: 0.01
  }
}
layer {
  name: "conv5"
  type: "Convolution"
  bottom: "conv4"
  top: "conv5"
  convolution_param {
    num_output: 192
    kernel_size: 3
    weight_filler {
      type: "xavier"
    }
  }
}
layer {
  name: "bn2"
  type: "BatchNorm"
  bottom: "conv5"
  top: "bn2"
}
layer {
  name: "relu5"
  type: "ReLU"
  bottom: "bn2"
  top: "bn2"
  relu_param {
    negative_slope: 0.01
  }
}
layer {
  name: "conv6"
  type: "Convolution"
  bottom: "bn2"
  top: "conv6"
  convolution_param {
    num_output: 192
    kernel_size: 3
    stride: 2
    weight_filler {
      type: "xavier"
    }
  }
}
layer {
  name: "drop4"
  type: "Dropout"
  bottom: "conv6"
  top: "drop4"
  dropout_param {
    dropout_ratio: 0.5
  }
}
layer {
  name: "relu6"
  type: "ReLU"
  bottom: "drop4"
  top: "drop4"
  relu_param {
    negative_slope: 0.01
  }
}
layer {
  name: "conv7"
  type: "Convolution"
  bottom: "drop4"
  top: "conv7"
  convolution_param {
    num_output: 192
    kernel_size: 3
    weight_filler {
      type: "xavier"
    }
  }
}
layer {
  name: "relu7"
  type: "ReLU"
  bottom: "conv7"
  top: "conv7"
  relu_param {
    negative_slope: 0.01
  }
}
layer {
  name: "conv8"
  type: "Convolution"
  bottom: "conv7"
  top: "conv8"
  convolution_param {
    num_output: 192
    kernel_size: 1
    weight_filler {
      type: "xavier"
    }
  }
}
layer {
  name: "relu8"
  type: "ReLU"
  bottom: "conv8"
  top: "conv8"
  relu_param {
    negative_slope: 0.01
  }
}
layer {
  name: "conv9"
  type: "Convolution"
  bottom: "conv8"
  top: "conv9"
  convolution_param {
    num_output: 10
    kernel_size: 1
    weight_filler {
      type: "xavier"
    }
  }
}
layer {
  name: "relu9"
  type: "ReLU"
  bottom: "conv9"
  top: "conv9"
  relu_param {
    negative_slope: 0.01
  }
}
layer {
  name: "pool"
  type: "Pooling"
  bottom: "conv9"
  top: "pool"
  pooling_param {
    pool: AVE
    global_pooling: true
  }
}
layer {
  name: "flatten"
  type: "Flatten"
  bottom: "pool"
  top: "flatten"
}
layer {
  name: "score"
  type: "InnerProduct"
  bottom: "flatten"
  top: "score"
  inner_product_param {
    num_output: 10
    weight_filler {
      type: "gaussian"
    }
  }
}
layer {
  name: "accuracy"
  type: "Accuracy"
  bottom: "score"
  bottom: "label"
  top: "accuracy"
}
layer {
  name: "loss"
  type: "SoftmaxWithLoss"
  bottom: "score"
  bottom: "label"
  top: "loss"
}
I1013 14:36:04.104102 15136 layer_factory.hpp:77] Creating layer data
I1013 14:36:04.104185 15136 net.cpp:100] Creating Layer data
I1013 14:36:04.104198 15136 net.cpp:408] data -> data
I1013 14:36:04.104205 15136 net.cpp:408] data -> label
I1013 14:36:04.104212 15136 data_transformer.cpp:25] Loading mean file from: mean.binaryproto
I1013 14:36:04.104913 15143 db_lmdb.cpp:35] Opened lmdb ../../../data/cifar-10/cifar10_test_lmdb
I1013 14:36:04.105049 15136 data_layer.cpp:41] output data size: 100,3,32,32
I1013 14:36:04.107105 15136 net.cpp:150] Setting up data
I1013 14:36:04.107146 15136 net.cpp:157] Top shape: 100 3 32 32 (307200)
I1013 14:36:04.107149 15136 net.cpp:157] Top shape: 100 (100)
I1013 14:36:04.107151 15136 net.cpp:165] Memory required for data: 1229200
I1013 14:36:04.107156 15136 layer_factory.hpp:77] Creating layer label_data_1_split
I1013 14:36:04.107163 15136 net.cpp:100] Creating Layer label_data_1_split
I1013 14:36:04.107167 15136 net.cpp:434] label_data_1_split <- label
I1013 14:36:04.107184 15136 net.cpp:408] label_data_1_split -> label_data_1_split_0
I1013 14:36:04.107205 15136 net.cpp:408] label_data_1_split -> label_data_1_split_1
I1013 14:36:04.107265 15136 net.cpp:150] Setting up label_data_1_split
I1013 14:36:04.107270 15136 net.cpp:157] Top shape: 100 (100)
I1013 14:36:04.107272 15136 net.cpp:157] Top shape: 100 (100)
I1013 14:36:04.107275 15136 net.cpp:165] Memory required for data: 1230000
I1013 14:36:04.107276 15136 layer_factory.hpp:77] Creating layer conv1
I1013 14:36:04.107301 15136 net.cpp:100] Creating Layer conv1
I1013 14:36:04.107305 15136 net.cpp:434] conv1 <- data
I1013 14:36:04.107308 15136 net.cpp:408] conv1 -> conv1
I1013 14:36:04.108667 15136 net.cpp:150] Setting up conv1
I1013 14:36:04.108707 15136 net.cpp:157] Top shape: 100 96 30 30 (8640000)
I1013 14:36:04.108711 15136 net.cpp:165] Memory required for data: 35790000
I1013 14:36:04.108721 15136 layer_factory.hpp:77] Creating layer relu1
I1013 14:36:04.108727 15136 net.cpp:100] Creating Layer relu1
I1013 14:36:04.108731 15136 net.cpp:434] relu1 <- conv1
I1013 14:36:04.108734 15136 net.cpp:395] relu1 -> conv1 (in-place)
I1013 14:36:04.108894 15136 net.cpp:150] Setting up relu1
I1013 14:36:04.108912 15136 net.cpp:157] Top shape: 100 96 30 30 (8640000)
I1013 14:36:04.108916 15136 net.cpp:165] Memory required for data: 70350000
I1013 14:36:04.108917 15136 layer_factory.hpp:77] Creating layer conv2
I1013 14:36:04.108925 15136 net.cpp:100] Creating Layer conv2
I1013 14:36:04.108928 15136 net.cpp:434] conv2 <- conv1
I1013 14:36:04.108932 15136 net.cpp:408] conv2 -> conv2
I1013 14:36:04.110375 15136 net.cpp:150] Setting up conv2
I1013 14:36:04.110391 15136 net.cpp:157] Top shape: 100 96 28 28 (7526400)
I1013 14:36:04.110395 15136 net.cpp:165] Memory required for data: 100455600
I1013 14:36:04.110404 15136 layer_factory.hpp:77] Creating layer bn1
I1013 14:36:04.110411 15136 net.cpp:100] Creating Layer bn1
I1013 14:36:04.110430 15136 net.cpp:434] bn1 <- conv2
I1013 14:36:04.110436 15136 net.cpp:408] bn1 -> bn1
I1013 14:36:04.110613 15136 net.cpp:150] Setting up bn1
I1013 14:36:04.110620 15136 net.cpp:157] Top shape: 100 96 28 28 (7526400)
I1013 14:36:04.110621 15136 net.cpp:165] Memory required for data: 130561200
I1013 14:36:04.110628 15136 layer_factory.hpp:77] Creating layer relu2
I1013 14:36:04.110633 15136 net.cpp:100] Creating Layer relu2
I1013 14:36:04.110635 15136 net.cpp:434] relu2 <- bn1
I1013 14:36:04.110640 15136 net.cpp:395] relu2 -> bn1 (in-place)
I1013 14:36:04.110899 15136 net.cpp:150] Setting up relu2
I1013 14:36:04.110908 15136 net.cpp:157] Top shape: 100 96 28 28 (7526400)
I1013 14:36:04.110911 15136 net.cpp:165] Memory required for data: 160666800
I1013 14:36:04.110914 15136 layer_factory.hpp:77] Creating layer conv3
I1013 14:36:04.110921 15136 net.cpp:100] Creating Layer conv3
I1013 14:36:04.110924 15136 net.cpp:434] conv3 <- bn1
I1013 14:36:04.110929 15136 net.cpp:408] conv3 -> conv3
I1013 14:36:04.112092 15136 net.cpp:150] Setting up conv3
I1013 14:36:04.112100 15136 net.cpp:157] Top shape: 100 96 13 13 (1622400)
I1013 14:36:04.112102 15136 net.cpp:165] Memory required for data: 167156400
I1013 14:36:04.112109 15136 layer_factory.hpp:77] Creating layer drop1
I1013 14:36:04.112119 15136 net.cpp:100] Creating Layer drop1
I1013 14:36:04.112123 15136 net.cpp:434] drop1 <- conv3
I1013 14:36:04.112128 15136 net.cpp:408] drop1 -> drop1
I1013 14:36:04.112161 15136 net.cpp:150] Setting up drop1
I1013 14:36:04.112166 15136 net.cpp:157] Top shape: 100 96 13 13 (1622400)
I1013 14:36:04.112169 15136 net.cpp:165] Memory required for data: 173646000
I1013 14:36:04.112171 15136 layer_factory.hpp:77] Creating layer relu3
I1013 14:36:04.112174 15136 net.cpp:100] Creating Layer relu3
I1013 14:36:04.112177 15136 net.cpp:434] relu3 <- drop1
I1013 14:36:04.112181 15136 net.cpp:395] relu3 -> drop1 (in-place)
I1013 14:36:04.112411 15136 net.cpp:150] Setting up relu3
I1013 14:36:04.112419 15136 net.cpp:157] Top shape: 100 96 13 13 (1622400)
I1013 14:36:04.112422 15136 net.cpp:165] Memory required for data: 180135600
I1013 14:36:04.112424 15136 layer_factory.hpp:77] Creating layer conv4
I1013 14:36:04.112431 15136 net.cpp:100] Creating Layer conv4
I1013 14:36:04.112433 15136 net.cpp:434] conv4 <- drop1
I1013 14:36:04.112438 15136 net.cpp:408] conv4 -> conv4
I1013 14:36:04.114342 15136 net.cpp:150] Setting up conv4
I1013 14:36:04.114354 15136 net.cpp:157] Top shape: 100 192 11 11 (2323200)
I1013 14:36:04.114357 15136 net.cpp:165] Memory required for data: 189428400
I1013 14:36:04.114362 15136 layer_factory.hpp:77] Creating layer relu4
I1013 14:36:04.114367 15136 net.cpp:100] Creating Layer relu4
I1013 14:36:04.114369 15136 net.cpp:434] relu4 <- conv4
I1013 14:36:04.114374 15136 net.cpp:395] relu4 -> conv4 (in-place)
I1013 14:36:04.114557 15136 net.cpp:150] Setting up relu4
I1013 14:36:04.114565 15136 net.cpp:157] Top shape: 100 192 11 11 (2323200)
I1013 14:36:04.114583 15136 net.cpp:165] Memory required for data: 198721200
I1013 14:36:04.114585 15136 layer_factory.hpp:77] Creating layer conv5
I1013 14:36:04.114591 15136 net.cpp:100] Creating Layer conv5
I1013 14:36:04.114593 15136 net.cpp:434] conv5 <- conv4
I1013 14:36:04.114598 15136 net.cpp:408] conv5 -> conv5
I1013 14:36:04.117393 15136 net.cpp:150] Setting up conv5
I1013 14:36:04.117403 15136 net.cpp:157] Top shape: 100 192 9 9 (1555200)
I1013 14:36:04.117406 15136 net.cpp:165] Memory required for data: 204942000
I1013 14:36:04.117411 15136 layer_factory.hpp:77] Creating layer bn2
I1013 14:36:04.117418 15136 net.cpp:100] Creating Layer bn2
I1013 14:36:04.117421 15136 net.cpp:434] bn2 <- conv5
I1013 14:36:04.117425 15136 net.cpp:408] bn2 -> bn2
I1013 14:36:04.117624 15136 net.cpp:150] Setting up bn2
I1013 14:36:04.117630 15136 net.cpp:157] Top shape: 100 192 9 9 (1555200)
I1013 14:36:04.117647 15136 net.cpp:165] Memory required for data: 211162800
I1013 14:36:04.117652 15136 layer_factory.hpp:77] Creating layer relu5
I1013 14:36:04.117657 15136 net.cpp:100] Creating Layer relu5
I1013 14:36:04.117660 15136 net.cpp:434] relu5 <- bn2
I1013 14:36:04.117664 15136 net.cpp:395] relu5 -> bn2 (in-place)
I1013 14:36:04.117929 15136 net.cpp:150] Setting up relu5
I1013 14:36:04.117938 15136 net.cpp:157] Top shape: 100 192 9 9 (1555200)
I1013 14:36:04.117940 15136 net.cpp:165] Memory required for data: 217383600
I1013 14:36:04.117944 15136 layer_factory.hpp:77] Creating layer conv6
I1013 14:36:04.117949 15136 net.cpp:100] Creating Layer conv6
I1013 14:36:04.117954 15136 net.cpp:434] conv6 <- bn2
I1013 14:36:04.117971 15136 net.cpp:408] conv6 -> conv6
I1013 14:36:04.120486 15136 net.cpp:150] Setting up conv6
I1013 14:36:04.120496 15136 net.cpp:157] Top shape: 100 192 4 4 (307200)
I1013 14:36:04.120513 15136 net.cpp:165] Memory required for data: 218612400
I1013 14:36:04.120523 15136 layer_factory.hpp:77] Creating layer drop4
I1013 14:36:04.120532 15136 net.cpp:100] Creating Layer drop4
I1013 14:36:04.120549 15136 net.cpp:434] drop4 <- conv6
I1013 14:36:04.120553 15136 net.cpp:408] drop4 -> drop4
I1013 14:36:04.120647 15136 net.cpp:150] Setting up drop4
I1013 14:36:04.120664 15136 net.cpp:157] Top shape: 100 192 4 4 (307200)
I1013 14:36:04.120666 15136 net.cpp:165] Memory required for data: 219841200
I1013 14:36:04.120668 15136 layer_factory.hpp:77] Creating layer relu6
I1013 14:36:04.120671 15136 net.cpp:100] Creating Layer relu6
I1013 14:36:04.120690 15136 net.cpp:434] relu6 <- drop4
I1013 14:36:04.120694 15136 net.cpp:395] relu6 -> drop4 (in-place)
I1013 14:36:04.120965 15136 net.cpp:150] Setting up relu6
I1013 14:36:04.120972 15136 net.cpp:157] Top shape: 100 192 4 4 (307200)
I1013 14:36:04.120975 15136 net.cpp:165] Memory required for data: 221070000
I1013 14:36:04.120976 15136 layer_factory.hpp:77] Creating layer conv7
I1013 14:36:04.120982 15136 net.cpp:100] Creating Layer conv7
I1013 14:36:04.120985 15136 net.cpp:434] conv7 <- drop4
I1013 14:36:04.120990 15136 net.cpp:408] conv7 -> conv7
I1013 14:36:04.123594 15136 net.cpp:150] Setting up conv7
I1013 14:36:04.123605 15136 net.cpp:157] Top shape: 100 192 2 2 (76800)
I1013 14:36:04.123606 15136 net.cpp:165] Memory required for data: 221377200
I1013 14:36:04.123611 15136 layer_factory.hpp:77] Creating layer relu7
I1013 14:36:04.123615 15136 net.cpp:100] Creating Layer relu7
I1013 14:36:04.123618 15136 net.cpp:434] relu7 <- conv7
I1013 14:36:04.123622 15136 net.cpp:395] relu7 -> conv7 (in-place)
I1013 14:36:04.123795 15136 net.cpp:150] Setting up relu7
I1013 14:36:04.123800 15136 net.cpp:157] Top shape: 100 192 2 2 (76800)
I1013 14:36:04.123802 15136 net.cpp:165] Memory required for data: 221684400
I1013 14:36:04.123805 15136 layer_factory.hpp:77] Creating layer conv8
I1013 14:36:04.123811 15136 net.cpp:100] Creating Layer conv8
I1013 14:36:04.123812 15136 net.cpp:434] conv8 <- conv7
I1013 14:36:04.123817 15136 net.cpp:408] conv8 -> conv8
I1013 14:36:04.124791 15136 net.cpp:150] Setting up conv8
I1013 14:36:04.124800 15136 net.cpp:157] Top shape: 100 192 2 2 (76800)
I1013 14:36:04.124802 15136 net.cpp:165] Memory required for data: 221991600
I1013 14:36:04.124806 15136 layer_factory.hpp:77] Creating layer relu8
I1013 14:36:04.124810 15136 net.cpp:100] Creating Layer relu8
I1013 14:36:04.124812 15136 net.cpp:434] relu8 <- conv8
I1013 14:36:04.124816 15136 net.cpp:395] relu8 -> conv8 (in-place)
I1013 14:36:04.125088 15136 net.cpp:150] Setting up relu8
I1013 14:36:04.125097 15136 net.cpp:157] Top shape: 100 192 2 2 (76800)
I1013 14:36:04.125098 15136 net.cpp:165] Memory required for data: 222298800
I1013 14:36:04.125102 15136 layer_factory.hpp:77] Creating layer conv9
I1013 14:36:04.125107 15136 net.cpp:100] Creating Layer conv9
I1013 14:36:04.125109 15136 net.cpp:434] conv9 <- conv8
I1013 14:36:04.125113 15136 net.cpp:408] conv9 -> conv9
I1013 14:36:04.125864 15136 net.cpp:150] Setting up conv9
I1013 14:36:04.125872 15136 net.cpp:157] Top shape: 100 10 2 2 (4000)
I1013 14:36:04.125874 15136 net.cpp:165] Memory required for data: 222314800
I1013 14:36:04.125879 15136 layer_factory.hpp:77] Creating layer relu9
I1013 14:36:04.125883 15136 net.cpp:100] Creating Layer relu9
I1013 14:36:04.125885 15136 net.cpp:434] relu9 <- conv9
I1013 14:36:04.125890 15136 net.cpp:395] relu9 -> conv9 (in-place)
I1013 14:36:04.126152 15136 net.cpp:150] Setting up relu9
I1013 14:36:04.126160 15136 net.cpp:157] Top shape: 100 10 2 2 (4000)
I1013 14:36:04.126163 15136 net.cpp:165] Memory required for data: 222330800
I1013 14:36:04.126166 15136 layer_factory.hpp:77] Creating layer pool
I1013 14:36:04.126171 15136 net.cpp:100] Creating Layer pool
I1013 14:36:04.126174 15136 net.cpp:434] pool <- conv9
I1013 14:36:04.126191 15136 net.cpp:408] pool -> pool
I1013 14:36:04.126358 15136 net.cpp:150] Setting up pool
I1013 14:36:04.126365 15136 net.cpp:157] Top shape: 100 10 1 1 (1000)
I1013 14:36:04.126368 15136 net.cpp:165] Memory required for data: 222334800
I1013 14:36:04.126370 15136 layer_factory.hpp:77] Creating layer flatten
I1013 14:36:04.126374 15136 net.cpp:100] Creating Layer flatten
I1013 14:36:04.126377 15136 net.cpp:434] flatten <- pool
I1013 14:36:04.126381 15136 net.cpp:408] flatten -> flatten
I1013 14:36:04.126402 15136 net.cpp:150] Setting up flatten
I1013 14:36:04.126406 15136 net.cpp:157] Top shape: 100 10 (1000)
I1013 14:36:04.126408 15136 net.cpp:165] Memory required for data: 222338800
I1013 14:36:04.126410 15136 layer_factory.hpp:77] Creating layer score
I1013 14:36:04.126420 15136 net.cpp:100] Creating Layer score
I1013 14:36:04.126423 15136 net.cpp:434] score <- flatten
I1013 14:36:04.126427 15136 net.cpp:408] score -> score
I1013 14:36:04.126528 15136 net.cpp:150] Setting up score
I1013 14:36:04.126533 15136 net.cpp:157] Top shape: 100 10 (1000)
I1013 14:36:04.126536 15136 net.cpp:165] Memory required for data: 222342800
I1013 14:36:04.126540 15136 layer_factory.hpp:77] Creating layer score_score_0_split
I1013 14:36:04.126545 15136 net.cpp:100] Creating Layer score_score_0_split
I1013 14:36:04.126549 15136 net.cpp:434] score_score_0_split <- score
I1013 14:36:04.126551 15136 net.cpp:408] score_score_0_split -> score_score_0_split_0
I1013 14:36:04.126556 15136 net.cpp:408] score_score_0_split -> score_score_0_split_1
I1013 14:36:04.126588 15136 net.cpp:150] Setting up score_score_0_split
I1013 14:36:04.126592 15136 net.cpp:157] Top shape: 100 10 (1000)
I1013 14:36:04.126595 15136 net.cpp:157] Top shape: 100 10 (1000)
I1013 14:36:04.126596 15136 net.cpp:165] Memory required for data: 222350800
I1013 14:36:04.126600 15136 layer_factory.hpp:77] Creating layer accuracy
I1013 14:36:04.126605 15136 net.cpp:100] Creating Layer accuracy
I1013 14:36:04.126607 15136 net.cpp:434] accuracy <- score_score_0_split_0
I1013 14:36:04.126610 15136 net.cpp:434] accuracy <- label_data_1_split_0
I1013 14:36:04.126613 15136 net.cpp:408] accuracy -> accuracy
…
