…
  stage: ""
}
type: "AdaDelta"
I1013 00:54:12.376679  8762 solver.cpp:81] Creating training net from train_net file: /home/adam/Honours/Honours-Project/cifar-10_allcnn/elu/allcnn_elu_train.prototxt
I1013 00:54:12.377008  8762 net.cpp:58] Initializing net from parameters: 
state {
  phase: TRAIN
  level: 0
  stage: ""
}
layer {
  name: "data"
  type: "Data"
  top: "data"
  top: "label"
  transform_param {
    mean_file: "mean.binaryproto"
  }
  data_param {
    source: "../../../data/cifar-10/cifar10_train_lmdb"
    batch_size: 64
    backend: LMDB
  }
}
layer {
  name: "conv1"
  type: "Convolution"
  bottom: "data"
  top: "conv1"
  convolution_param {
    num_output: 96
    kernel_size: 3
    weight_filler {
      type: "xavier"
    }
  }
}
layer {
  name: "elu1"
  type: "ELU"
  bottom: "conv1"
  top: "conv1"
}
layer {
  name: "conv2"
  type: "Convolution"
  bottom: "conv1"
  top: "conv2"
  convolution_param {
    num_output: 96
    kernel_size: 3
    weight_filler {
      type: "xavier"
    }
  }
}
layer {
  name: "bn1"
  type: "BatchNorm"
  bottom: "conv2"
  top: "bn1"
}
layer {
  name: "elu2"
  type: "ELU"
  bottom: "bn1"
  top: "bn1"
}
layer {
  name: "conv3"
  type: "Convolution"
  bottom: "bn1"
  top: "conv3"
  convolution_param {
    num_output: 96
    kernel_size: 3
    stride: 2
    weight_filler {
      type: "xavier"
    }
  }
}
layer {
  name: "drop1"
  type: "Dropout"
  bottom: "conv3"
  top: "drop1"
  dropout_param {
    dropout_ratio: 0.5
  }
}
layer {
  name: "elu3"
  type: "ELU"
  bottom: "drop1"
  top: "drop1"
}
layer {
  name: "conv4"
  type: "Convolution"
  bottom: "drop1"
  top: "conv4"
  convolution_param {
    num_output: 192
    kernel_size: 3
    weight_filler {
      type: "xavier"
    }
  }
}
layer {
  name: "elu4"
  type: "ELU"
  bottom: "conv4"
  top: "conv4"
}
layer {
  name: "conv5"
  type: "Convolution"
  bottom: "conv4"
  top: "conv5"
  convolution_param {
    num_output: 192
    kernel_size: 3
    weight_filler {
      type: "xavier"
    }
  }
}
layer {
  name: "bn2"
  type: "BatchNorm"
  bottom: "conv5"
  top: "bn2"
}
layer {
  name: "elu5"
  type: "ELU"
  bottom: "bn2"
  top: "bn2"
}
layer {
  name: "conv6"
  type: "Convolution"
  bottom: "bn2"
  top: "conv6"
  convolution_param {
    num_output: 192
    kernel_size: 3
    stride: 2
    weight_filler {
      type: "xavier"
    }
  }
}
layer {
  name: "drop4"
  type: "Dropout"
  bottom: "conv6"
  top: "drop4"
  dropout_param {
    dropout_ratio: 0.5
  }
}
layer {
  name: "elu6"
  type: "ELU"
  bottom: "drop4"
  top: "drop4"
}
layer {
  name: "conv7"
  type: "Convolution"
  bottom: "drop4"
  top: "conv7"
  convolution_param {
    num_output: 192
    kernel_size: 3
    weight_filler {
      type: "xavier"
    }
  }
}
layer {
  name: "elu7"
  type: "ELU"
  bottom: "conv7"
  top: "conv7"
}
layer {
  name: "conv8"
  type: "Convolution"
  bottom: "conv7"
  top: "conv8"
  convolution_param {
    num_output: 192
    kernel_size: 1
    weight_filler {
      type: "xavier"
    }
  }
}
layer {
  name: "elu8"
  type: "ELU"
  bottom: "conv8"
  top: "conv8"
}
layer {
  name: "conv9"
  type: "Convolution"
  bottom: "conv8"
  top: "conv9"
  convolution_param {
    num_output: 10
    kernel_size: 1
    weight_filler {
      type: "xavier"
    }
  }
}
layer {
  name: "elu9"
  type: "ELU"
  bottom: "conv9"
  top: "conv9"
}
layer {
  name: "pool"
  type: "Pooling"
  bottom: "conv9"
  top: "pool"
  pooling_param {
    pool: AVE
    global_pooling: true
  }
}
layer {
  name: "flatten"
  type: "Flatten"
  bottom: "pool"
  top: "flatten"
}
layer {
  name: "score"
  type: "InnerProduct"
  bottom: "flatten"
  top: "score"
  inner_product_param {
    num_output: 10
    weight_filler {
      type: "gaussian"
    }
  }
}
layer {
  name: "accuracy"
  type: "Accuracy"
  bottom: "score"
  bottom: "label"
  top: "accuracy"
}
layer {
  name: "loss"
  type: "SoftmaxWithLoss"
  bottom: "score"
  bottom: "label"
  top: "loss"
}
I1013 00:54:12.377166  8762 layer_factory.hpp:77] Creating layer data
I1013 00:54:12.377614  8762 net.cpp:100] Creating Layer data
I1013 00:54:12.377624  8762 net.cpp:408] data -> data
I1013 00:54:12.377661  8762 net.cpp:408] data -> label
I1013 00:54:12.377672  8762 data_transformer.cpp:25] Loading mean file from: mean.binaryproto
I1013 00:54:12.378340  8767 db_lmdb.cpp:35] Opened lmdb ../../../data/cifar-10/cifar10_train_lmdb
I1013 00:54:12.384878  8762 data_layer.cpp:41] output data size: 64,3,32,32
I1013 00:54:12.386481  8762 net.cpp:150] Setting up data
I1013 00:54:12.386497  8762 net.cpp:157] Top shape: 64 3 32 32 (196608)
I1013 00:54:12.386514  8762 net.cpp:157] Top shape: 64 (64)
I1013 00:54:12.386517  8762 net.cpp:165] Memory required for data: 786688
I1013 00:54:12.386524  8762 layer_factory.hpp:77] Creating layer label_data_1_split
I1013 00:54:12.386534  8762 net.cpp:100] Creating Layer label_data_1_split
I1013 00:54:12.386557  8762 net.cpp:434] label_data_1_split <- label
I1013 00:54:12.386579  8762 net.cpp:408] label_data_1_split -> label_data_1_split_0
I1013 00:54:12.386587  8762 net.cpp:408] label_data_1_split -> label_data_1_split_1
I1013 00:54:12.386638  8762 net.cpp:150] Setting up label_data_1_split
I1013 00:54:12.386644  8762 net.cpp:157] Top shape: 64 (64)
I1013 00:54:12.386647  8762 net.cpp:157] Top shape: 64 (64)
I1013 00:54:12.386648  8762 net.cpp:165] Memory required for data: 787200
I1013 00:54:12.386651  8762 layer_factory.hpp:77] Creating layer conv1
I1013 00:54:12.386663  8762 net.cpp:100] Creating Layer conv1
I1013 00:54:12.386665  8762 net.cpp:434] conv1 <- data
I1013 00:54:12.386669  8762 net.cpp:408] conv1 -> conv1
I1013 00:54:12.519590  8762 net.cpp:150] Setting up conv1
I1013 00:54:12.519614  8762 net.cpp:157] Top shape: 64 96 30 30 (5529600)
I1013 00:54:12.519618  8762 net.cpp:165] Memory required for data: 22905600
I1013 00:54:12.519634  8762 layer_factory.hpp:77] Creating layer elu1
I1013 00:54:12.519644  8762 net.cpp:100] Creating Layer elu1
I1013 00:54:12.519645  8762 net.cpp:434] elu1 <- conv1
I1013 00:54:12.519665  8762 net.cpp:395] elu1 -> conv1 (in-place)
I1013 00:54:12.519671  8762 net.cpp:150] Setting up elu1
I1013 00:54:12.519675  8762 net.cpp:157] Top shape: 64 96 30 30 (5529600)
I1013 00:54:12.519677  8762 net.cpp:165] Memory required for data: 45024000
I1013 00:54:12.519680  8762 layer_factory.hpp:77] Creating layer conv2
I1013 00:54:12.519704  8762 net.cpp:100] Creating Layer conv2
I1013 00:54:12.519707  8762 net.cpp:434] conv2 <- conv1
I1013 00:54:12.519711  8762 net.cpp:408] conv2 -> conv2
I1013 00:54:12.521049  8762 net.cpp:150] Setting up conv2
I1013 00:54:12.521059  8762 net.cpp:157] Top shape: 64 96 28 28 (4816896)
I1013 00:54:12.521062  8762 net.cpp:165] Memory required for data: 64291584
I1013 00:54:12.521082  8762 layer_factory.hpp:77] Creating layer bn1
I1013 00:54:12.521088  8762 net.cpp:100] Creating Layer bn1
I1013 00:54:12.521091  8762 net.cpp:434] bn1 <- conv2
I1013 00:54:12.521095  8762 net.cpp:408] bn1 -> bn1
I1013 00:54:12.521301  8762 net.cpp:150] Setting up bn1
I1013 00:54:12.521306  8762 net.cpp:157] Top shape: 64 96 28 28 (4816896)
I1013 00:54:12.521307  8762 net.cpp:165] Memory required for data: 83559168
I1013 00:54:12.521312  8762 layer_factory.hpp:77] Creating layer elu2
I1013 00:54:12.521317  8762 net.cpp:100] Creating Layer elu2
I1013 00:54:12.521318  8762 net.cpp:434] elu2 <- bn1
I1013 00:54:12.521322  8762 net.cpp:395] elu2 -> bn1 (in-place)
I1013 00:54:12.521327  8762 net.cpp:150] Setting up elu2
I1013 00:54:12.521329  8762 net.cpp:157] Top shape: 64 96 28 28 (4816896)
I1013 00:54:12.521330  8762 net.cpp:165] Memory required for data: 102826752
I1013 00:54:12.521358  8762 layer_factory.hpp:77] Creating layer conv3
I1013 00:54:12.521364  8762 net.cpp:100] Creating Layer conv3
I1013 00:54:12.521368  8762 net.cpp:434] conv3 <- bn1
I1013 00:54:12.521370  8762 net.cpp:408] conv3 -> conv3
I1013 00:54:12.522591  8762 net.cpp:150] Setting up conv3
I1013 00:54:12.522601  8762 net.cpp:157] Top shape: 64 96 13 13 (1038336)
I1013 00:54:12.522604  8762 net.cpp:165] Memory required for data: 106980096
I1013 00:54:12.522610  8762 layer_factory.hpp:77] Creating layer drop1
I1013 00:54:12.522616  8762 net.cpp:100] Creating Layer drop1
I1013 00:54:12.522619  8762 net.cpp:434] drop1 <- conv3
I1013 00:54:12.522622  8762 net.cpp:408] drop1 -> drop1
I1013 00:54:12.522683  8762 net.cpp:150] Setting up drop1
I1013 00:54:12.522689  8762 net.cpp:157] Top shape: 64 96 13 13 (1038336)
I1013 00:54:12.522703  8762 net.cpp:165] Memory required for data: 111133440
I1013 00:54:12.522706  8762 layer_factory.hpp:77] Creating layer elu3
I1013 00:54:12.522708  8762 net.cpp:100] Creating Layer elu3
I1013 00:54:12.522711  8762 net.cpp:434] elu3 <- drop1
I1013 00:54:12.522729  8762 net.cpp:395] elu3 -> drop1 (in-place)
I1013 00:54:12.522732  8762 net.cpp:150] Setting up elu3
I1013 00:54:12.522735  8762 net.cpp:157] Top shape: 64 96 13 13 (1038336)
I1013 00:54:12.522737  8762 net.cpp:165] Memory required for data: 115286784
I1013 00:54:12.522739  8762 layer_factory.hpp:77] Creating layer conv4
I1013 00:54:12.522744  8762 net.cpp:100] Creating Layer conv4
I1013 00:54:12.522747  8762 net.cpp:434] conv4 <- drop1
I1013 00:54:12.522765  8762 net.cpp:408] conv4 -> conv4
I1013 00:54:12.524616  8762 net.cpp:150] Setting up conv4
I1013 00:54:12.524626  8762 net.cpp:157] Top shape: 64 192 11 11 (1486848)
I1013 00:54:12.524627  8762 net.cpp:165] Memory required for data: 121234176
I1013 00:54:12.524631  8762 layer_factory.hpp:77] Creating layer elu4
I1013 00:54:12.524636  8762 net.cpp:100] Creating Layer elu4
I1013 00:54:12.524637  8762 net.cpp:434] elu4 <- conv4
I1013 00:54:12.524641  8762 net.cpp:395] elu4 -> conv4 (in-place)
I1013 00:54:12.524646  8762 net.cpp:150] Setting up elu4
I1013 00:54:12.524648  8762 net.cpp:157] Top shape: 64 192 11 11 (1486848)
I1013 00:54:12.524651  8762 net.cpp:165] Memory required for data: 127181568
I1013 00:54:12.524652  8762 layer_factory.hpp:77] Creating layer conv5
I1013 00:54:12.524672  8762 net.cpp:100] Creating Layer conv5
I1013 00:54:12.524674  8762 net.cpp:434] conv5 <- conv4
I1013 00:54:12.524677  8762 net.cpp:408] conv5 -> conv5
I1013 00:54:12.527214  8762 net.cpp:150] Setting up conv5
I1013 00:54:12.527225  8762 net.cpp:157] Top shape: 64 192 9 9 (995328)
I1013 00:54:12.527227  8762 net.cpp:165] Memory required for data: 131162880
I1013 00:54:12.527231  8762 layer_factory.hpp:77] Creating layer bn2
I1013 00:54:12.527235  8762 net.cpp:100] Creating Layer bn2
I1013 00:54:12.527238  8762 net.cpp:434] bn2 <- conv5
I1013 00:54:12.527242  8762 net.cpp:408] bn2 -> bn2
I1013 00:54:12.527434  8762 net.cpp:150] Setting up bn2
I1013 00:54:12.527441  8762 net.cpp:157] Top shape: 64 192 9 9 (995328)
I1013 00:54:12.527442  8762 net.cpp:165] Memory required for data: 135144192
I1013 00:54:12.527447  8762 layer_factory.hpp:77] Creating layer elu5
I1013 00:54:12.527451  8762 net.cpp:100] Creating Layer elu5
I1013 00:54:12.527452  8762 net.cpp:434] elu5 <- bn2
I1013 00:54:12.527456  8762 net.cpp:395] elu5 -> bn2 (in-place)
I1013 00:54:12.527458  8762 net.cpp:150] Setting up elu5
I1013 00:54:12.527462  8762 net.cpp:157] Top shape: 64 192 9 9 (995328)
I1013 00:54:12.527463  8762 net.cpp:165] Memory required for data: 139125504
I1013 00:54:12.527464  8762 layer_factory.hpp:77] Creating layer conv6
I1013 00:54:12.527469  8762 net.cpp:100] Creating Layer conv6
I1013 00:54:12.527472  8762 net.cpp:434] conv6 <- bn2
I1013 00:54:12.527489  8762 net.cpp:408] conv6 -> conv6
I1013 00:54:12.529989  8762 net.cpp:150] Setting up conv6
I1013 00:54:12.529999  8762 net.cpp:157] Top shape: 64 192 4 4 (196608)
I1013 00:54:12.530001  8762 net.cpp:165] Memory required for data: 139911936
I1013 00:54:12.530019  8762 layer_factory.hpp:77] Creating layer drop4
I1013 00:54:12.530028  8762 net.cpp:100] Creating Layer drop4
I1013 00:54:12.530030  8762 net.cpp:434] drop4 <- conv6
I1013 00:54:12.530035  8762 net.cpp:408] drop4 -> drop4
I1013 00:54:12.530093  8762 net.cpp:150] Setting up drop4
I1013 00:54:12.530110  8762 net.cpp:157] Top shape: 64 192 4 4 (196608)
I1013 00:54:12.530113  8762 net.cpp:165] Memory required for data: 140698368
I1013 00:54:12.530128  8762 layer_factory.hpp:77] Creating layer elu6
I1013 00:54:12.530131  8762 net.cpp:100] Creating Layer elu6
I1013 00:54:12.530133  8762 net.cpp:434] elu6 <- drop4
I1013 00:54:12.530135  8762 net.cpp:395] elu6 -> drop4 (in-place)
I1013 00:54:12.530153  8762 net.cpp:150] Setting up elu6
I1013 00:54:12.530156  8762 net.cpp:157] Top shape: 64 192 4 4 (196608)
I1013 00:54:12.530158  8762 net.cpp:165] Memory required for data: 141484800
I1013 00:54:12.530160  8762 layer_factory.hpp:77] Creating layer conv7
I1013 00:54:12.530166  8762 net.cpp:100] Creating Layer conv7
I1013 00:54:12.530169  8762 net.cpp:434] conv7 <- drop4
I1013 00:54:12.530172  8762 net.cpp:408] conv7 -> conv7
I1013 00:54:12.533161  8762 net.cpp:150] Setting up conv7
I1013 00:54:12.533196  8762 net.cpp:157] Top shape: 64 192 2 2 (49152)
I1013 00:54:12.533200  8762 net.cpp:165] Memory required for data: 141681408
I1013 00:54:12.533221  8762 layer_factory.hpp:77] Creating layer elu7
I1013 00:54:12.533241  8762 net.cpp:100] Creating Layer elu7
I1013 00:54:12.533244  8762 net.cpp:434] elu7 <- conv7
I1013 00:54:12.533248  8762 net.cpp:395] elu7 -> conv7 (in-place)
I1013 00:54:12.533268  8762 net.cpp:150] Setting up elu7
I1013 00:54:12.533272  8762 net.cpp:157] Top shape: 64 192 2 2 (49152)
I1013 00:54:12.533273  8762 net.cpp:165] Memory required for data: 141878016
I1013 00:54:12.533275  8762 layer_factory.hpp:77] Creating layer conv8
I1013 00:54:12.533282  8762 net.cpp:100] Creating Layer conv8
I1013 00:54:12.533284  8762 net.cpp:434] conv8 <- conv7
I1013 00:54:12.533288  8762 net.cpp:408] conv8 -> conv8
I1013 00:54:12.534554  8762 net.cpp:150] Setting up conv8
I1013 00:54:12.534565  8762 net.cpp:157] Top shape: 64 192 2 2 (49152)
I1013 00:54:12.534567  8762 net.cpp:165] Memory required for data: 142074624
I1013 00:54:12.534572  8762 layer_factory.hpp:77] Creating layer elu8
I1013 00:54:12.534576  8762 net.cpp:100] Creating Layer elu8
I1013 00:54:12.534579  8762 net.cpp:434] elu8 <- conv8
I1013 00:54:12.534584  8762 net.cpp:395] elu8 -> conv8 (in-place)
I1013 00:54:12.534589  8762 net.cpp:150] Setting up elu8
I1013 00:54:12.534591  8762 net.cpp:157] Top shape: 64 192 2 2 (49152)
I1013 00:54:12.534593  8762 net.cpp:165] Memory required for data: 142271232
I1013 00:54:12.534595  8762 layer_factory.hpp:77] Creating layer conv9
I1013 00:54:12.534600  8762 net.cpp:100] Creating Layer conv9
I1013 00:54:12.534616  8762 net.cpp:434] conv9 <- conv8
I1013 00:54:12.534620  8762 net.cpp:408] conv9 -> conv9
I1013 00:54:12.535434  8762 net.cpp:150] Setting up conv9
I1013 00:54:12.535444  8762 net.cpp:157] Top shape: 64 10 2 2 (2560)
I1013 00:54:12.535446  8762 net.cpp:165] Memory required for data: 142281472
I1013 00:54:12.535450  8762 layer_factory.hpp:77] Creating layer elu9
I1013 00:54:12.535454  8762 net.cpp:100] Creating Layer elu9
I1013 00:54:12.535455  8762 net.cpp:434] elu9 <- conv9
I1013 00:54:12.535459  8762 net.cpp:395] elu9 -> conv9 (in-place)
I1013 00:54:12.535465  8762 net.cpp:150] Setting up elu9
I1013 00:54:12.535466  8762 net.cpp:157] Top shape: 64 10 2 2 (2560)
I1013 00:54:12.535468  8762 net.cpp:165] Memory required for data: 142291712
I1013 00:54:12.535470  8762 layer_factory.hpp:77] Creating layer pool
I1013 00:54:12.535475  8762 net.cpp:100] Creating Layer pool
I1013 00:54:12.535490  8762 net.cpp:434] pool <- conv9
I1013 00:54:12.535495  8762 net.cpp:408] pool -> pool
I1013 00:54:12.535861  8762 net.cpp:150] Setting up pool
I1013 00:54:12.535869  8762 net.cpp:157] Top shape: 64 10 1 1 (640)
I1013 00:54:12.535871  8762 net.cpp:165] Memory required for data: 142294272
I1013 00:54:12.535882  8762 layer_factory.hpp:77] Creating layer flatten
I1013 00:54:12.535887  8762 net.cpp:100] Creating Layer flatten
I1013 00:54:12.535889  8762 net.cpp:434] flatten <- pool
I1013 00:54:12.535892  8762 net.cpp:408] flatten -> flatten
I1013 00:54:12.535928  8762 net.cpp:150] Setting up flatten
I1013 00:54:12.535931  8762 net.cpp:157] Top shape: 64 10 (640)
I1013 00:54:12.535933  8762 net.cpp:165] Memory required for data: 142296832
I1013 00:54:12.535935  8762 layer_factory.hpp:77] Creating layer score
I1013 00:54:12.535954  8762 net.cpp:100] Creating Layer score
I1013 00:54:12.535959  8762 net.cpp:434] score <- flatten
I1013 00:54:12.535974  8762 net.cpp:408] score -> score
I1013 00:54:12.536115  8762 net.cpp:150] Setting up score
I1013 00:54:12.536120  8762 net.cpp:157] Top shape: 64 10 (640)
I1013 00:54:12.536123  8762 net.cpp:165] Memory required for data: 142299392
I1013 00:54:12.536126  8762 layer_factory.hpp:77] Creating layer score_score_0_split
I1013 00:54:12.536130  8762 net.cpp:100] Creating Layer score_score_0_split
I1013 00:54:12.536133  8762 net.cpp:434] score_score_0_split <- score
I1013 00:54:12.536135  8762 net.cpp:408] score_score_0_split -> score_score_0_split_0
I1013 00:54:12.536140  8762 net.cpp:408] score_score_0_split -> score_score_0_split_1
I1013 00:54:12.536181  8762 net.cpp:150] Setting up score_score_0_split
I1013 00:54:12.536185  8762 net.cpp:157] Top shape: 64 10 (640)
I1013 00:54:12.536187  8762 net.cpp:157] Top shape: 64 10 (640)
I1013 00:54:12.536190  8762 net.cpp:165] Memory required for data: 142304512
I1013 00:54:12.536206  8762 layer_factory.hpp:77] Creating layer accuracy
I1013 00:54:12.536211  8762 net.cpp:100] Creating Layer accuracy
I1013 00:54:12.536212  8762 net.cpp:434] accuracy <- score_score_0_split_0
I1013 00:54:12.536228  8762 net.cpp:434] accuracy <- label_data_1_split_0
I1013 00:54:12.536231  8762 net.cpp:408] accuracy -> accuracy
…
I1013 00:54:12.536727  8762 net.cpp:283] Network initialization done.
I1013 00:54:12.536945  8762 solver.cpp:181] Creating test net (#0) specified by test_net file: /home/adam/Honours/Honours-Project/cifar-10_allcnn/elu/allcnn_elu_test.prototxt
I1013 00:54:12.537119  8762 net.cpp:58] Initializing net from parameters: 
state {
  phase: TEST
}
layer {
  name: "data"
  type: "Data"
  top: "data"
  top: "label"
  transform_param {
    mean_file: "mean.binaryproto"
  }
  data_param {
    source: "../../../data/cifar-10/cifar10_test_lmdb"
    batch_size: 100
    backend: LMDB
  }
}
layer {
  name: "conv1"
  type: "Convolution"
  bottom: "data"
  top: "conv1"
  convolution_param {
    num_output: 96
    kernel_size: 3
    weight_filler {
      type: "xavier"
    }
  }
}
layer {
  name: "elu1"
  type: "ELU"
  bottom: "conv1"
  top: "conv1"
}
layer {
  name: "conv2"
  type: "Convolution"
  bottom: "conv1"
  top: "conv2"
  convolution_param {
    num_output: 96
    kernel_size: 3
    weight_filler {
      type: "xavier"
    }
  }
}
layer {
  name: "bn1"
  type: "BatchNorm"
  bottom: "conv2"
  top: "bn1"
}
layer {
  name: "elu2"
  type: "ELU"
  bottom: "bn1"
  top: "bn1"
}
layer {
  name: "conv3"
  type: "Convolution"
  bottom: "bn1"
  top: "conv3"
  convolution_param {
    num_output: 96
    kernel_size: 3
    stride: 2
    weight_filler {
      type: "xavier"
    }
  }
}
layer {
  name: "drop1"
  type: "Dropout"
  bottom: "conv3"
  top: "drop1"
  dropout_param {
    dropout_ratio: 0.5
  }
}
layer {
  name: "elu3"
  type: "ELU"
  bottom: "drop1"
  top: "drop1"
}
layer {
  name: "conv4"
  type: "Convolution"
  bottom: "drop1"
  top: "conv4"
  convolution_param {
    num_output: 192
    kernel_size: 3
    weight_filler {
      type: "xavier"
    }
  }
}
layer {
  name: "elu4"
  type: "ELU"
  bottom: "conv4"
  top: "conv4"
}
layer {
  name: "conv5"
  type: "Convolution"
  bottom: "conv4"
  top: "conv5"
  convolution_param {
    num_output: 192
    kernel_size: 3
    weight_filler {
      type: "xavier"
    }
  }
}
layer {
  name: "bn2"
  type: "BatchNorm"
  bottom: "conv5"
  top: "bn2"
}
layer {
  name: "elu5"
  type: "ELU"
  bottom: "bn2"
  top: "bn2"
}
layer {
  name: "conv6"
  type: "Convolution"
  bottom: "bn2"
  top: "conv6"
  convolution_param {
    num_output: 192
    kernel_size: 3
    stride: 2
    weight_filler {
      type: "xavier"
    }
  }
}
layer {
  name: "drop4"
  type: "Dropout"
  bottom: "conv6"
  top: "drop4"
  dropout_param {
    dropout_ratio: 0.5
  }
}
layer {
  name: "elu6"
  type: "ELU"
  bottom: "drop4"
  top: "drop4"
}
layer {
  name: "conv7"
  type: "Convolution"
  bottom: "drop4"
  top: "conv7"
  convolution_param {
    num_output: 192
    kernel_size: 3
    weight_filler {
      type: "xavier"
    }
  }
}
layer {
  name: "elu7"
  type: "ELU"
  bottom: "conv7"
  top: "conv7"
}
layer {
  name: "conv8"
  type: "Convolution"
  bottom: "conv7"
  top: "conv8"
  convolution_param {
    num_output: 192
    kernel_size: 1
    weight_filler {
      type: "xavier"
    }
  }
}
layer {
  name: "elu8"
  type: "ELU"
  bottom: "conv8"
  top: "conv8"
}
layer {
  name: "conv9"
  type: "Convolution"
  bottom: "conv8"
  top: "conv9"
  convolution_param {
    num_output: 10
    kernel_size: 1
    weight_filler {
      type: "xavier"
    }
  }
}
layer {
  name: "elu9"
  type: "ELU"
  bottom: "conv9"
  top: "conv9"
}
layer {
  name: "pool"
  type: "Pooling"
  bottom: "conv9"
  top: "pool"
  pooling_param {
    pool: AVE
    global_pooling: true
  }
}
layer {
  name: "flatten"
  type: "Flatten"
  bottom: "pool"
  top: "flatten"
}
layer {
  name: "score"
  type: "InnerProduct"
  bottom: "flatten"
  top: "score"
  inner_product_param {
    num_output: 10
    weight_filler {
      type: "gaussian"
    }
  }
}
layer {
  name: "accuracy"
  type: "Accuracy"
  bottom: "score"
  bottom: "label"
  top: "accuracy"
}
layer {
  name: "loss"
  type: "SoftmaxWithLoss"
  bottom: "score"
  bottom: "label"
  top: "loss"
}
I1013 00:54:12.537240  8762 layer_factory.hpp:77] Creating layer data
I1013 00:54:12.537322  8762 net.cpp:100] Creating Layer data
I1013 00:54:12.537328  8762 net.cpp:408] data -> data
I1013 00:54:12.537334  8762 net.cpp:408] data -> label
I1013 00:54:12.537339  8762 data_transformer.cpp:25] Loading mean file from: mean.binaryproto
I1013 00:54:12.538019  8769 db_lmdb.cpp:35] Opened lmdb ../../../data/cifar-10/cifar10_test_lmdb
I1013 00:54:12.538147  8762 data_layer.cpp:41] output data size: 100,3,32,32
I1013 00:54:12.540055  8762 net.cpp:150] Setting up data
I1013 00:54:12.540076  8762 net.cpp:157] Top shape: 100 3 32 32 (307200)
I1013 00:54:12.540081  8762 net.cpp:157] Top shape: 100 (100)
I1013 00:54:12.540082  8762 net.cpp:165] Memory required for data: 1229200
I1013 00:54:12.540086  8762 layer_factory.hpp:77] Creating layer label_data_1_split
I1013 00:54:12.540112  8762 net.cpp:100] Creating Layer label_data_1_split
I1013 00:54:12.540114  8762 net.cpp:434] label_data_1_split <- label
I1013 00:54:12.540132  8762 net.cpp:408] label_data_1_split -> label_data_1_split_0
I1013 00:54:12.540139  8762 net.cpp:408] label_data_1_split -> label_data_1_split_1
I1013 00:54:12.540231  8762 net.cpp:150] Setting up label_data_1_split
I1013 00:54:12.540237  8762 net.cpp:157] Top shape: 100 (100)
I1013 00:54:12.540253  8762 net.cpp:157] Top shape: 100 (100)
I1013 00:54:12.540256  8762 net.cpp:165] Memory required for data: 1230000
I1013 00:54:12.540257  8762 layer_factory.hpp:77] Creating layer conv1
I1013 00:54:12.540278  8762 net.cpp:100] Creating Layer conv1
I1013 00:54:12.540280  8762 net.cpp:434] conv1 <- data
I1013 00:54:12.540284  8762 net.cpp:408] conv1 -> conv1
I1013 00:54:12.541610  8762 net.cpp:150] Setting up conv1
I1013 00:54:12.541623  8762 net.cpp:157] Top shape: 100 96 30 30 (8640000)
I1013 00:54:12.541627  8762 net.cpp:165] Memory required for data: 35790000
I1013 00:54:12.541637  8762 layer_factory.hpp:77] Creating layer elu1
I1013 00:54:12.541642  8762 net.cpp:100] Creating Layer elu1
I1013 00:54:12.541645  8762 net.cpp:434] elu1 <- conv1
I1013 00:54:12.541648  8762 net.cpp:395] elu1 -> conv1 (in-place)
I1013 00:54:12.541653  8762 net.cpp:150] Setting up elu1
I1013 00:54:12.541657  8762 net.cpp:157] Top shape: 100 96 30 30 (8640000)
I1013 00:54:12.541682  8762 net.cpp:165] Memory required for data: 70350000
I1013 00:54:12.541684  8762 layer_factory.hpp:77] Creating layer conv2
I1013 00:54:12.541697  8762 net.cpp:100] Creating Layer conv2
I1013 00:54:12.541700  8762 net.cpp:434] conv2 <- conv1
I1013 00:54:12.541704  8762 net.cpp:408] conv2 -> conv2
I1013 00:54:12.543112  8762 net.cpp:150] Setting up conv2
I1013 00:54:12.543126  8762 net.cpp:157] Top shape: 100 96 28 28 (7526400)
I1013 00:54:12.543129  8762 net.cpp:165] Memory required for data: 100455600
I1013 00:54:12.543136  8762 layer_factory.hpp:77] Creating layer bn1
I1013 00:54:12.543141  8762 net.cpp:100] Creating Layer bn1
I1013 00:54:12.543144  8762 net.cpp:434] bn1 <- conv2
I1013 00:54:12.543148  8762 net.cpp:408] bn1 -> bn1
I1013 00:54:12.543319  8762 net.cpp:150] Setting up bn1
I1013 00:54:12.543336  8762 net.cpp:157] Top shape: 100 96 28 28 (7526400)
I1013 00:54:12.543340  8762 net.cpp:165] Memory required for data: 130561200
I1013 00:54:12.543349  8762 layer_factory.hpp:77] Creating layer elu2
I1013 00:54:12.543352  8762 net.cpp:100] Creating Layer elu2
I1013 00:54:12.543356  8762 net.cpp:434] elu2 <- bn1
I1013 00:54:12.543360  8762 net.cpp:395] elu2 -> bn1 (in-place)
I1013 00:54:12.543365  8762 net.cpp:150] Setting up elu2
I1013 00:54:12.543367  8762 net.cpp:157] Top shape: 100 96 28 28 (7526400)
I1013 00:54:12.543370  8762 net.cpp:165] Memory required for data: 160666800
I1013 00:54:12.543372  8762 layer_factory.hpp:77] Creating layer conv3
I1013 00:54:12.543377  8762 net.cpp:100] Creating Layer conv3
I1013 00:54:12.543380  8762 net.cpp:434] conv3 <- bn1
I1013 00:54:12.543385  8762 net.cpp:408] conv3 -> conv3
I1013 00:54:12.544582  8762 net.cpp:150] Setting up conv3
I1013 00:54:12.544606  8762 net.cpp:157] Top shape: 100 96 13 13 (1622400)
I1013 00:54:12.544608  8762 net.cpp:165] Memory required for data: 167156400
I1013 00:54:12.544615  8762 layer_factory.hpp:77] Creating layer drop1
I1013 00:54:12.544622  8762 net.cpp:100] Creating Layer drop1
I1013 00:54:12.544625  8762 net.cpp:434] drop1 <- conv3
I1013 00:54:12.544630  8762 net.cpp:408] drop1 -> drop1
I1013 00:54:12.544677  8762 net.cpp:150] Setting up drop1
I1013 00:54:12.544682  8762 net.cpp:157] Top shape: 100 96 13 13 (1622400)
I1013 00:54:12.544683  8762 net.cpp:165] Memory required for data: 173646000
I1013 00:54:12.544687  8762 layer_factory.hpp:77] Creating layer elu3
I1013 00:54:12.544689  8762 net.cpp:100] Creating Layer elu3
I1013 00:54:12.544692  8762 net.cpp:434] elu3 <- drop1
I1013 00:54:12.544695  8762 net.cpp:395] elu3 -> drop1 (in-place)
I1013 00:54:12.544699  8762 net.cpp:150] Setting up elu3
I1013 00:54:12.544703  8762 net.cpp:157] Top shape: 100 96 13 13 (1622400)
I1013 00:54:12.544703  8762 net.cpp:165] Memory required for data: 180135600
I1013 00:54:12.544705  8762 layer_factory.hpp:77] Creating layer conv4
I1013 00:54:12.544710  8762 net.cpp:100] Creating Layer conv4
I1013 00:54:12.544713  8762 net.cpp:434] conv4 <- drop1
I1013 00:54:12.544716  8762 net.cpp:408] conv4 -> conv4
I1013 00:54:12.546525  8762 net.cpp:150] Setting up conv4
I1013 00:54:12.546550  8762 net.cpp:157] Top shape: 100 192 11 11 (2323200)
I1013 00:54:12.546553  8762 net.cpp:165] Memory required for data: 189428400
I1013 00:54:12.546558  8762 layer_factory.hpp:77] Creating layer elu4
I1013 00:54:12.546576  8762 net.cpp:100] Creating Layer elu4
I1013 00:54:12.546578  8762 net.cpp:434] elu4 <- conv4
I1013 00:54:12.546584  8762 net.cpp:395] elu4 -> conv4 (in-place)
I1013 00:54:12.546591  8762 net.cpp:150] Setting up elu4
I1013 00:54:12.546594  8762 net.cpp:157] Top shape: 100 192 11 11 (2323200)
I1013 00:54:12.546597  8762 net.cpp:165] Memory required for data: 198721200
I1013 00:54:12.546598  8762 layer_factory.hpp:77] Creating layer conv5
I1013 00:54:12.546604  8762 net.cpp:100] Creating Layer conv5
I1013 00:54:12.546607  8762 net.cpp:434] conv5 <- conv4
I1013 00:54:12.546610  8762 net.cpp:408] conv5 -> conv5
I1013 00:54:12.550489  8762 net.cpp:150] Setting up conv5
I1013 00:54:12.550508  8762 net.cpp:157] Top shape: 100 192 9 9 (1555200)
I1013 00:54:12.550511  8762 net.cpp:165] Memory required for data: 204942000
I1013 00:54:12.550518  8762 layer_factory.hpp:77] Creating layer bn2
I1013 00:54:12.550537  8762 net.cpp:100] Creating Layer bn2
I1013 00:54:12.550544  8762 net.cpp:434] bn2 <- conv5
I1013 00:54:12.550549  8762 net.cpp:408] bn2 -> bn2
I1013 00:54:12.550781  8762 net.cpp:150] Setting up bn2
I1013 00:54:12.550787  8762 net.cpp:157] Top shape: 100 192 9 9 (1555200)
I1013 00:54:12.550803  8762 net.cpp:165] Memory required for data: 211162800
I1013 00:54:12.550809  8762 layer_factory.hpp:77] Creating layer elu5
I1013 00:54:12.550825  8762 net.cpp:100] Creating Layer elu5
I1013 00:54:12.550828  8762 net.cpp:434] elu5 <- bn2
I1013 00:54:12.550832  8762 net.cpp:395] elu5 -> bn2 (in-place)
I1013 00:54:12.550855  8762 net.cpp:150] Setting up elu5
I1013 00:54:12.550881  8762 net.cpp:157] Top shape: 100 192 9 9 (1555200)
I1013 00:54:12.550884  8762 net.cpp:165] Memory required for data: 217383600
I1013 00:54:12.550885  8762 layer_factory.hpp:77] Creating layer conv6
I1013 00:54:12.550894  8762 net.cpp:100] Creating Layer conv6
I1013 00:54:12.550895  8762 net.cpp:434] conv6 <- bn2
I1013 00:54:12.550899  8762 net.cpp:408] conv6 -> conv6
I1013 00:54:12.553580  8762 net.cpp:150] Setting up conv6
I1013 00:54:12.553596  8762 net.cpp:157] Top shape: 100 192 4 4 (307200)
I1013 00:54:12.553598  8762 net.cpp:165] Memory required for data: 218612400
I1013 00:54:12.553608  8762 layer_factory.hpp:77] Creating layer drop4
I1013 00:54:12.553617  8762 net.cpp:100] Creating Layer drop4
I1013 00:54:12.553619  8762 net.cpp:434] drop4 <- conv6
I1013 00:54:12.553624  8762 net.cpp:408] drop4 -> drop4
I1013 00:54:12.553699  8762 net.cpp:150] Setting up drop4
I1013 00:54:12.553716  8762 net.cpp:157] Top shape: 100 192 4 4 (307200)
I1013 00:54:12.553719  8762 net.cpp:165] Memory required for data: 219841200
I1013 00:54:12.553738  8762 layer_factory.hpp:77] Creating layer elu6
I1013 00:54:12.553741  8762 net.cpp:100] Creating Layer elu6
I1013 00:54:12.553743  8762 net.cpp:434] elu6 <- drop4
I1013 00:54:12.553746  8762 net.cpp:395] elu6 -> drop4 (in-place)
I1013 00:54:12.553763  8762 net.cpp:150] Setting up elu6
I1013 00:54:12.553766  8762 net.cpp:157] Top shape: 100 192 4 4 (307200)
I1013 00:54:12.553767  8762 net.cpp:165] Memory required for data: 221070000
I1013 00:54:12.553769  8762 layer_factory.hpp:77] Creating layer conv7
I1013 00:54:12.553776  8762 net.cpp:100] Creating Layer conv7
I1013 00:54:12.553778  8762 net.cpp:434] conv7 <- drop4
I1013 00:54:12.553783  8762 net.cpp:408] conv7 -> conv7
I1013 00:54:12.556391  8762 net.cpp:150] Setting up conv7
I1013 00:54:12.556402  8762 net.cpp:157] Top shape: 100 192 2 2 (76800)
I1013 00:54:12.556404  8762 net.cpp:165] Memory required for data: 221377200
I1013 00:54:12.556409  8762 layer_factory.hpp:77] Creating layer elu7
I1013 00:54:12.556412  8762 net.cpp:100] Creating Layer elu7
I1013 00:54:12.556416  8762 net.cpp:434] elu7 <- conv7
I1013 00:54:12.556419  8762 net.cpp:395] elu7 -> conv7 (in-place)
I1013 00:54:12.556423  8762 net.cpp:150] Setting up elu7
I1013 00:54:12.556427  8762 net.cpp:157] Top shape: 100 192 2 2 (76800)
I1013 00:54:12.556428  8762 net.cpp:165] Memory required for data: 221684400
I1013 00:54:12.556430  8762 layer_factory.hpp:77] Creating layer conv8
I1013 00:54:12.556449  8762 net.cpp:100] Creating Layer conv8
I1013 00:54:12.556452  8762 net.cpp:434] conv8 <- conv7
I1013 00:54:12.556455  8762 net.cpp:408] conv8 -> conv8
I1013 00:54:12.557428  8762 net.cpp:150] Setting up conv8
I1013 00:54:12.557437  8762 net.cpp:157] Top shape: 100 192 2 2 (76800)
I1013 00:54:12.557440  8762 net.cpp:165] Memory required for data: 221991600
I1013 00:54:12.557443  8762 layer_factory.hpp:77] Creating layer elu8
I1013 00:54:12.557448  8762 net.cpp:100] Creating Layer elu8
I1013 00:54:12.557451  8762 net.cpp:434] elu8 <- conv8
I1013 00:54:12.557453  8762 net.cpp:395] elu8 -> conv8 (in-place)
I1013 00:54:12.557457  8762 net.cpp:150] Setting up elu8
I1013 00:54:12.557461  8762 net.cpp:157] Top shape: 100 192 2 2 (76800)
I1013 00:54:12.557462  8762 net.cpp:165] Memory required for data: 222298800
I1013 00:54:12.557463  8762 layer_factory.hpp:77] Creating layer conv9
I1013 00:54:12.557469  8762 net.cpp:100] Creating Layer conv9
I1013 00:54:12.557471  8762 net.cpp:434] conv9 <- conv8
I1013 00:54:12.557487  8762 net.cpp:408] conv9 -> conv9
I1013 00:54:12.558315  8762 net.cpp:150] Setting up conv9
I1013 00:54:12.558323  8762 net.cpp:157] Top shape: 100 10 2 2 (4000)
I1013 00:54:12.558326  8762 net.cpp:165] Memory required for data: 222314800
I1013 00:54:12.558331  8762 layer_factory.hpp:77] Creating layer elu9
I1013 00:54:12.558333  8762 net.cpp:100] Creating Layer elu9
I1013 00:54:12.558336  8762 net.cpp:434] elu9 <- conv9
I1013 00:54:12.558339  8762 net.cpp:395] elu9 -> conv9 (in-place)
I1013 00:54:12.558344  8762 net.cpp:150] Setting up elu9
I1013 00:54:12.558370  8762 net.cpp:157] Top shape: 100 10 2 2 (4000)
I1013 00:54:12.558372  8762 net.cpp:165] Memory required for data: 222330800
I1013 00:54:12.558374  8762 layer_factory.hpp:77] Creating layer pool
I1013 00:54:12.558379  8762 net.cpp:100] Creating Layer pool
I1013 00:54:12.558382  8762 net.cpp:434] pool <- conv9
I1013 00:54:12.558384  8762 net.cpp:408] pool -> pool
I1013 00:54:12.558701  8762 net.cpp:150] Setting up pool
I1013 00:54:12.558709  8762 net.cpp:157] Top shape: 100 10 1 1 (1000)
I1013 00:54:12.558712  8762 net.cpp:165] Memory required for data: 222334800
I1013 00:54:12.558713  8762 layer_factory.hpp:77] Creating layer flatten
I1013 00:54:12.558717  8762 net.cpp:100] Creating Layer flatten
I1013 00:54:12.558719  8762 net.cpp:434] flatten <- pool
I1013 00:54:12.558723  8762 net.cpp:408] flatten -> flatten
I1013 00:54:12.558758  8762 net.cpp:150] Setting up flatten
I1013 00:54:12.558763  8762 net.cpp:157] Top shape: 100 10 (1000)
I1013 00:54:12.558764  8762 net.cpp:165] Memory required for data: 222338800
I1013 00:54:12.558766  8762 layer_factory.hpp:77] Creating layer score
I1013 00:54:12.558771  8762 net.cpp:100] Creating Layer score
I1013 00:54:12.558774  8762 net.cpp:434] score <- flatten
I1013 00:54:12.558794  8762 net.cpp:408] score -> score
I1013 00:54:12.558938  8762 net.cpp:150] Setting up score
I1013 00:54:12.558943  8762 net.cpp:157] Top shape: 100 10 (1000)
I1013 00:54:12.558945  8762 net.cpp:165] Memory required for data: 222342800
I1013 00:54:12.558948  8762 layer_factory.hpp:77] Creating layer score_score_0_split
I1013 00:54:12.558953  8762 net.cpp:100] Creating Layer score_score_0_split
I1013 00:54:12.558954  8762 net.cpp:434] score_score_0_split <- score
I1013 00:54:12.558957  8762 net.cpp:408] score_score_0_split -> score_score_0_split_0
I1013 00:54:12.558961  8762 net.cpp:408] score_score_0_split -> score_score_0_split_1
I1013 00:54:12.559018  8762 net.cpp:150] Setting up score_score_0_split
I1013 00:54:12.559037  8762 net.cpp:157] Top shape: 100 10 (1000)
I1013 00:54:12.559039  8762 net.cpp:157] Top shape: 100 10 (1000)
I1013 00:54:12.559041  8762 net.cpp:165] Memory required for data: 222350800
I1013 00:54:12.559043  8762 layer_factory.hpp:77] Creating layer accuracy
I1013 00:54:12.559048  8762 net.cpp:100] Creating Layer accuracy
I1013 00:54:12.559051  8762 net.cpp:434] accuracy <- score_score_0_split_0
I1013 00:54:12.559053  8762 net.cpp:434] accuracy <- label_data_1_split_0
I1013 00:54:12.559056  8762 net.cpp:408] accuracy -> accuracy
…
