…
  stage: ""
}
type: "Adam"
I1010 21:44:47.993635  6313 solver.cpp:81] Creating training net from train_net file: /home/adam/Honours/Honours-Project/cifar-10_allcnn/relu/allcnn_relu_train.prototxt
I1010 21:44:47.994004  6313 net.cpp:58] Initializing net from parameters: 
state {
  phase: TRAIN
  level: 0
  stage: ""
}
layer {
  name: "data"
  type: "Data"
  top: "data"
  top: "label"
  transform_param {
    mean_file: "mean.binaryproto"
  }
  data_param {
    source: "../../../data/cifar-10/cifar10_train_lmdb"
    batch_size: 64
    backend: LMDB
  }
}
layer {
  name: "conv1"
  type: "Convolution"
  bottom: "data"
  top: "conv1"
  convolution_param {
    num_output: 96
    kernel_size: 3
    weight_filler {
      type: "xavier"
    }
  }
}
layer {
  name: "relu1"
  type: "ReLU"
  bottom: "conv1"
  top: "conv1"
}
layer {
  name: "conv2"
  type: "Convolution"
  bottom: "conv1"
  top: "conv2"
  convolution_param {
    num_output: 96
    kernel_size: 3
    weight_filler {
      type: "xavier"
    }
  }
}
layer {
  name: "bn1"
  type: "BatchNorm"
  bottom: "conv2"
  top: "bn1"
}
layer {
  name: "relu2"
  type: "ReLU"
  bottom: "bn1"
  top: "bn1"
}
layer {
  name: "drop1"
  type: "Dropout"
  bottom: "bn1"
  top: "drop1"
  dropout_param {
    dropout_ratio: 0.5
  }
}
layer {
  name: "conv3"
  type: "Convolution"
  bottom: "drop1"
  top: "conv3"
  convolution_param {
    num_output: 96
    kernel_size: 3
    stride: 2
    weight_filler {
      type: "xavier"
    }
  }
}
layer {
  name: "relu3"
  type: "ReLU"
  bottom: "conv3"
  top: "conv3"
}
layer {
  name: "conv4"
  type: "Convolution"
  bottom: "conv3"
  top: "conv4"
  convolution_param {
    num_output: 192
    kernel_size: 3
    weight_filler {
      type: "xavier"
    }
  }
}
layer {
  name: "relu4"
  type: "ReLU"
  bottom: "conv4"
  top: "conv4"
}
layer {
  name: "conv5"
  type: "Convolution"
  bottom: "conv4"
  top: "conv5"
  convolution_param {
    num_output: 192
    kernel_size: 3
    weight_filler {
      type: "xavier"
    }
  }
}
layer {
  name: "bn2"
  type: "BatchNorm"
  bottom: "conv5"
  top: "bn2"
}
layer {
  name: "relu5"
  type: "ReLU"
  bottom: "bn2"
  top: "bn2"
}
layer {
  name: "drop4"
  type: "Dropout"
  bottom: "bn2"
  top: "drop4"
  dropout_param {
    dropout_ratio: 0.5
  }
}
layer {
  name: "conv6"
  type: "Convolution"
  bottom: "drop4"
  top: "conv6"
  convolution_param {
    num_output: 192
    kernel_size: 3
    stride: 2
    weight_filler {
      type: "xavier"
    }
  }
}
layer {
  name: "relu6"
  type: "ReLU"
  bottom: "conv6"
  top: "conv6"
}
layer {
  name: "conv7"
  type: "Convolution"
  bottom: "conv6"
  top: "conv7"
  convolution_param {
    num_output: 192
    kernel_size: 3
    weight_filler {
      type: "xavier"
    }
  }
}
layer {
  name: "relu7"
  type: "ReLU"
  bottom: "conv7"
  top: "conv7"
}
layer {
  name: "conv8"
  type: "Convolution"
  bottom: "conv7"
  top: "conv8"
  convolution_param {
    num_output: 192
    kernel_size: 1
    weight_filler {
      type: "xavier"
    }
  }
}
layer {
  name: "relu8"
  type: "ReLU"
  bottom: "conv8"
  top: "conv8"
}
layer {
  name: "conv9"
  type: "Convolution"
  bottom: "conv8"
  top: "conv9"
  convolution_param {
    num_output: 10
    kernel_size: 1
    weight_filler {
      type: "xavier"
    }
  }
}
layer {
  name: "relu9"
  type: "ReLU"
  bottom: "conv9"
  top: "conv9"
}
layer {
  name: "pool"
  type: "Pooling"
  bottom: "conv9"
  top: "pool"
  pooling_param {
    pool: AVE
    global_pooling: true
  }
}
layer {
  name: "flatten"
  type: "Flatten"
  bottom: "pool"
  top: "flatten"
}
layer {
  name: "score"
  type: "InnerProduct"
  bottom: "flatten"
  top: "score"
  inner_product_param {
    num_output: 10
    weight_filler {
      type: "gaussian"
    }
  }
}
layer {
  name: "accuracy"
  type: "Accuracy"
  bottom: "score"
  bottom: "label"
  top: "accuracy"
}
layer {
  name: "loss"
  type: "SoftmaxWithLoss"
  bottom: "score"
  bottom: "label"
  top: "loss"
}
I1010 21:44:47.994166  6313 layer_factory.hpp:77] Creating layer data
I1010 21:44:47.994647  6313 net.cpp:100] Creating Layer data
I1010 21:44:47.994657  6313 net.cpp:408] data -> data
I1010 21:44:47.994702  6313 net.cpp:408] data -> label
I1010 21:44:47.994729  6313 data_transformer.cpp:25] Loading mean file from: mean.binaryproto
I1010 21:44:47.995458  6318 db_lmdb.cpp:35] Opened lmdb ../../../data/cifar-10/cifar10_train_lmdb
I1010 21:44:48.001751  6313 data_layer.cpp:41] output data size: 64,3,32,32
I1010 21:44:48.003437  6313 net.cpp:150] Setting up data
I1010 21:44:48.003475  6313 net.cpp:157] Top shape: 64 3 32 32 (196608)
I1010 21:44:48.003479  6313 net.cpp:157] Top shape: 64 (64)
I1010 21:44:48.003481  6313 net.cpp:165] Memory required for data: 786688
I1010 21:44:48.003490  6313 layer_factory.hpp:77] Creating layer label_data_1_split
I1010 21:44:48.003512  6313 net.cpp:100] Creating Layer label_data_1_split
I1010 21:44:48.003531  6313 net.cpp:434] label_data_1_split <- label
I1010 21:44:48.003554  6313 net.cpp:408] label_data_1_split -> label_data_1_split_0
I1010 21:44:48.003579  6313 net.cpp:408] label_data_1_split -> label_data_1_split_1
I1010 21:44:48.004477  6313 net.cpp:150] Setting up label_data_1_split
I1010 21:44:48.004504  6313 net.cpp:157] Top shape: 64 (64)
I1010 21:44:48.004508  6313 net.cpp:157] Top shape: 64 (64)
I1010 21:44:48.004509  6313 net.cpp:165] Memory required for data: 787200
I1010 21:44:48.004513  6313 layer_factory.hpp:77] Creating layer conv1
I1010 21:44:48.004530  6313 net.cpp:100] Creating Layer conv1
I1010 21:44:48.004534  6313 net.cpp:434] conv1 <- data
I1010 21:44:48.004539  6313 net.cpp:408] conv1 -> conv1
I1010 21:44:48.141297  6313 net.cpp:150] Setting up conv1
I1010 21:44:48.141319  6313 net.cpp:157] Top shape: 64 96 30 30 (5529600)
I1010 21:44:48.141321  6313 net.cpp:165] Memory required for data: 22905600
I1010 21:44:48.141340  6313 layer_factory.hpp:77] Creating layer relu1
I1010 21:44:48.141346  6313 net.cpp:100] Creating Layer relu1
I1010 21:44:48.141350  6313 net.cpp:434] relu1 <- conv1
I1010 21:44:48.141355  6313 net.cpp:395] relu1 -> conv1 (in-place)
I1010 21:44:48.141597  6313 net.cpp:150] Setting up relu1
I1010 21:44:48.141602  6313 net.cpp:157] Top shape: 64 96 30 30 (5529600)
I1010 21:44:48.141619  6313 net.cpp:165] Memory required for data: 45024000
I1010 21:44:48.141623  6313 layer_factory.hpp:77] Creating layer conv2
I1010 21:44:48.141633  6313 net.cpp:100] Creating Layer conv2
I1010 21:44:48.141636  6313 net.cpp:434] conv2 <- conv1
I1010 21:44:48.141654  6313 net.cpp:408] conv2 -> conv2
I1010 21:44:48.143702  6313 net.cpp:150] Setting up conv2
I1010 21:44:48.143748  6313 net.cpp:157] Top shape: 64 96 28 28 (4816896)
I1010 21:44:48.143751  6313 net.cpp:165] Memory required for data: 64291584
I1010 21:44:48.143774  6313 layer_factory.hpp:77] Creating layer bn1
I1010 21:44:48.143796  6313 net.cpp:100] Creating Layer bn1
I1010 21:44:48.143800  6313 net.cpp:434] bn1 <- conv2
I1010 21:44:48.143805  6313 net.cpp:408] bn1 -> bn1
I1010 21:44:48.143990  6313 net.cpp:150] Setting up bn1
I1010 21:44:48.143996  6313 net.cpp:157] Top shape: 64 96 28 28 (4816896)
I1010 21:44:48.144012  6313 net.cpp:165] Memory required for data: 83559168
I1010 21:44:48.144018  6313 layer_factory.hpp:77] Creating layer relu2
I1010 21:44:48.144023  6313 net.cpp:100] Creating Layer relu2
I1010 21:44:48.144026  6313 net.cpp:434] relu2 <- bn1
I1010 21:44:48.144028  6313 net.cpp:395] relu2 -> bn1 (in-place)
I1010 21:44:48.144222  6313 net.cpp:150] Setting up relu2
I1010 21:44:48.144227  6313 net.cpp:157] Top shape: 64 96 28 28 (4816896)
I1010 21:44:48.144243  6313 net.cpp:165] Memory required for data: 102826752
I1010 21:44:48.144269  6313 layer_factory.hpp:77] Creating layer drop1
I1010 21:44:48.144289  6313 net.cpp:100] Creating Layer drop1
I1010 21:44:48.144295  6313 net.cpp:434] drop1 <- bn1
I1010 21:44:48.144312  6313 net.cpp:408] drop1 -> drop1
I1010 21:44:48.144345  6313 net.cpp:150] Setting up drop1
I1010 21:44:48.144351  6313 net.cpp:157] Top shape: 64 96 28 28 (4816896)
I1010 21:44:48.144352  6313 net.cpp:165] Memory required for data: 122094336
I1010 21:44:48.144354  6313 layer_factory.hpp:77] Creating layer conv3
I1010 21:44:48.144362  6313 net.cpp:100] Creating Layer conv3
I1010 21:44:48.144364  6313 net.cpp:434] conv3 <- drop1
I1010 21:44:48.144369  6313 net.cpp:408] conv3 -> conv3
I1010 21:44:48.145638  6313 net.cpp:150] Setting up conv3
I1010 21:44:48.145663  6313 net.cpp:157] Top shape: 64 96 13 13 (1038336)
I1010 21:44:48.145665  6313 net.cpp:165] Memory required for data: 126247680
I1010 21:44:48.145684  6313 layer_factory.hpp:77] Creating layer relu3
I1010 21:44:48.145689  6313 net.cpp:100] Creating Layer relu3
I1010 21:44:48.145692  6313 net.cpp:434] relu3 <- conv3
I1010 21:44:48.145710  6313 net.cpp:395] relu3 -> conv3 (in-place)
I1010 21:44:48.145956  6313 net.cpp:150] Setting up relu3
I1010 21:44:48.145978  6313 net.cpp:157] Top shape: 64 96 13 13 (1038336)
I1010 21:44:48.145980  6313 net.cpp:165] Memory required for data: 130401024
I1010 21:44:48.145983  6313 layer_factory.hpp:77] Creating layer conv4
I1010 21:44:48.146003  6313 net.cpp:100] Creating Layer conv4
I1010 21:44:48.146004  6313 net.cpp:434] conv4 <- conv3
I1010 21:44:48.146009  6313 net.cpp:408] conv4 -> conv4
I1010 21:44:48.148095  6313 net.cpp:150] Setting up conv4
I1010 21:44:48.148125  6313 net.cpp:157] Top shape: 64 192 11 11 (1486848)
I1010 21:44:48.148128  6313 net.cpp:165] Memory required for data: 136348416
I1010 21:44:48.148134  6313 layer_factory.hpp:77] Creating layer relu4
I1010 21:44:48.148140  6313 net.cpp:100] Creating Layer relu4
I1010 21:44:48.148144  6313 net.cpp:434] relu4 <- conv4
I1010 21:44:48.148147  6313 net.cpp:395] relu4 -> conv4 (in-place)
I1010 21:44:48.148356  6313 net.cpp:150] Setting up relu4
I1010 21:44:48.148363  6313 net.cpp:157] Top shape: 64 192 11 11 (1486848)
I1010 21:44:48.148380  6313 net.cpp:165] Memory required for data: 142295808
I1010 21:44:48.148383  6313 layer_factory.hpp:77] Creating layer conv5
I1010 21:44:48.148402  6313 net.cpp:100] Creating Layer conv5
I1010 21:44:48.148404  6313 net.cpp:434] conv5 <- conv4
I1010 21:44:48.148409  6313 net.cpp:408] conv5 -> conv5
I1010 21:44:48.151005  6313 net.cpp:150] Setting up conv5
I1010 21:44:48.151034  6313 net.cpp:157] Top shape: 64 192 9 9 (995328)
I1010 21:44:48.151036  6313 net.cpp:165] Memory required for data: 146277120
I1010 21:44:48.151042  6313 layer_factory.hpp:77] Creating layer bn2
I1010 21:44:48.151048  6313 net.cpp:100] Creating Layer bn2
I1010 21:44:48.151051  6313 net.cpp:434] bn2 <- conv5
I1010 21:44:48.151056  6313 net.cpp:408] bn2 -> bn2
I1010 21:44:48.151307  6313 net.cpp:150] Setting up bn2
I1010 21:44:48.151314  6313 net.cpp:157] Top shape: 64 192 9 9 (995328)
I1010 21:44:48.151316  6313 net.cpp:165] Memory required for data: 150258432
I1010 21:44:48.151321  6313 layer_factory.hpp:77] Creating layer relu5
I1010 21:44:48.151331  6313 net.cpp:100] Creating Layer relu5
I1010 21:44:48.151347  6313 net.cpp:434] relu5 <- bn2
I1010 21:44:48.151351  6313 net.cpp:395] relu5 -> bn2 (in-place)
I1010 21:44:48.151516  6313 net.cpp:150] Setting up relu5
I1010 21:44:48.151523  6313 net.cpp:157] Top shape: 64 192 9 9 (995328)
I1010 21:44:48.151540  6313 net.cpp:165] Memory required for data: 154239744
I1010 21:44:48.151541  6313 layer_factory.hpp:77] Creating layer drop4
I1010 21:44:48.151547  6313 net.cpp:100] Creating Layer drop4
I1010 21:44:48.151549  6313 net.cpp:434] drop4 <- bn2
I1010 21:44:48.151552  6313 net.cpp:408] drop4 -> drop4
I1010 21:44:48.151621  6313 net.cpp:150] Setting up drop4
I1010 21:44:48.151625  6313 net.cpp:157] Top shape: 64 192 9 9 (995328)
I1010 21:44:48.151628  6313 net.cpp:165] Memory required for data: 158221056
I1010 21:44:48.151662  6313 layer_factory.hpp:77] Creating layer conv6
I1010 21:44:48.151672  6313 net.cpp:100] Creating Layer conv6
I1010 21:44:48.151688  6313 net.cpp:434] conv6 <- drop4
I1010 21:44:48.151691  6313 net.cpp:408] conv6 -> conv6
I1010 21:44:48.154376  6313 net.cpp:150] Setting up conv6
I1010 21:44:48.154450  6313 net.cpp:157] Top shape: 64 192 4 4 (196608)
I1010 21:44:48.154461  6313 net.cpp:165] Memory required for data: 159007488
I1010 21:44:48.154520  6313 layer_factory.hpp:77] Creating layer relu6
I1010 21:44:48.154536  6313 net.cpp:100] Creating Layer relu6
I1010 21:44:48.154546  6313 net.cpp:434] relu6 <- conv6
I1010 21:44:48.154558  6313 net.cpp:395] relu6 -> conv6 (in-place)
I1010 21:44:48.154877  6313 net.cpp:150] Setting up relu6
I1010 21:44:48.154887  6313 net.cpp:157] Top shape: 64 192 4 4 (196608)
I1010 21:44:48.154889  6313 net.cpp:165] Memory required for data: 159793920
I1010 21:44:48.154892  6313 layer_factory.hpp:77] Creating layer conv7
I1010 21:44:48.154898  6313 net.cpp:100] Creating Layer conv7
I1010 21:44:48.154902  6313 net.cpp:434] conv7 <- conv6
I1010 21:44:48.154922  6313 net.cpp:408] conv7 -> conv7
I1010 21:44:48.157632  6313 net.cpp:150] Setting up conv7
I1010 21:44:48.157655  6313 net.cpp:157] Top shape: 64 192 2 2 (49152)
I1010 21:44:48.157656  6313 net.cpp:165] Memory required for data: 159990528
I1010 21:44:48.157677  6313 layer_factory.hpp:77] Creating layer relu7
I1010 21:44:48.157698  6313 net.cpp:100] Creating Layer relu7
I1010 21:44:48.157717  6313 net.cpp:434] relu7 <- conv7
I1010 21:44:48.157724  6313 net.cpp:395] relu7 -> conv7 (in-place)
I1010 21:44:48.158009  6313 net.cpp:150] Setting up relu7
I1010 21:44:48.158031  6313 net.cpp:157] Top shape: 64 192 2 2 (49152)
I1010 21:44:48.158033  6313 net.cpp:165] Memory required for data: 160187136
I1010 21:44:48.158036  6313 layer_factory.hpp:77] Creating layer conv8
I1010 21:44:48.158056  6313 net.cpp:100] Creating Layer conv8
I1010 21:44:48.158058  6313 net.cpp:434] conv8 <- conv7
I1010 21:44:48.158062  6313 net.cpp:408] conv8 -> conv8
I1010 21:44:48.159441  6313 net.cpp:150] Setting up conv8
I1010 21:44:48.159469  6313 net.cpp:157] Top shape: 64 192 2 2 (49152)
I1010 21:44:48.159471  6313 net.cpp:165] Memory required for data: 160383744
I1010 21:44:48.159478  6313 layer_factory.hpp:77] Creating layer relu8
I1010 21:44:48.159482  6313 net.cpp:100] Creating Layer relu8
I1010 21:44:48.159485  6313 net.cpp:434] relu8 <- conv8
I1010 21:44:48.159490  6313 net.cpp:395] relu8 -> conv8 (in-place)
I1010 21:44:48.159675  6313 net.cpp:150] Setting up relu8
I1010 21:44:48.159682  6313 net.cpp:157] Top shape: 64 192 2 2 (49152)
I1010 21:44:48.159684  6313 net.cpp:165] Memory required for data: 160580352
I1010 21:44:48.159687  6313 layer_factory.hpp:77] Creating layer conv9
I1010 21:44:48.159693  6313 net.cpp:100] Creating Layer conv9
I1010 21:44:48.159695  6313 net.cpp:434] conv9 <- conv8
I1010 21:44:48.159714  6313 net.cpp:408] conv9 -> conv9
I1010 21:44:48.160584  6313 net.cpp:150] Setting up conv9
I1010 21:44:48.160610  6313 net.cpp:157] Top shape: 64 10 2 2 (2560)
I1010 21:44:48.160612  6313 net.cpp:165] Memory required for data: 160590592
I1010 21:44:48.160617  6313 layer_factory.hpp:77] Creating layer relu9
I1010 21:44:48.160621  6313 net.cpp:100] Creating Layer relu9
I1010 21:44:48.160624  6313 net.cpp:434] relu9 <- conv9
I1010 21:44:48.160627  6313 net.cpp:395] relu9 -> conv9 (in-place)
I1010 21:44:48.160889  6313 net.cpp:150] Setting up relu9
I1010 21:44:48.160912  6313 net.cpp:157] Top shape: 64 10 2 2 (2560)
I1010 21:44:48.160915  6313 net.cpp:165] Memory required for data: 160600832
I1010 21:44:48.160918  6313 layer_factory.hpp:77] Creating layer pool
I1010 21:44:48.160923  6313 net.cpp:100] Creating Layer pool
I1010 21:44:48.160938  6313 net.cpp:434] pool <- conv9
I1010 21:44:48.160943  6313 net.cpp:408] pool -> pool
I1010 21:44:48.161156  6313 net.cpp:150] Setting up pool
I1010 21:44:48.161164  6313 net.cpp:157] Top shape: 64 10 1 1 (640)
I1010 21:44:48.161180  6313 net.cpp:165] Memory required for data: 160603392
I1010 21:44:48.161206  6313 layer_factory.hpp:77] Creating layer flatten
I1010 21:44:48.161211  6313 net.cpp:100] Creating Layer flatten
I1010 21:44:48.161213  6313 net.cpp:434] flatten <- pool
I1010 21:44:48.161218  6313 net.cpp:408] flatten -> flatten
I1010 21:44:48.161262  6313 net.cpp:150] Setting up flatten
I1010 21:44:48.161275  6313 net.cpp:157] Top shape: 64 10 (640)
I1010 21:44:48.161283  6313 net.cpp:165] Memory required for data: 160605952
I1010 21:44:48.161290  6313 layer_factory.hpp:77] Creating layer score
I1010 21:44:48.161300  6313 net.cpp:100] Creating Layer score
I1010 21:44:48.161309  6313 net.cpp:434] score <- flatten
I1010 21:44:48.161319  6313 net.cpp:408] score -> score
I1010 21:44:48.161506  6313 net.cpp:150] Setting up score
I1010 21:44:48.161511  6313 net.cpp:157] Top shape: 64 10 (640)
I1010 21:44:48.161528  6313 net.cpp:165] Memory required for data: 160608512
I1010 21:44:48.161532  6313 layer_factory.hpp:77] Creating layer score_score_0_split
I1010 21:44:48.161536  6313 net.cpp:100] Creating Layer score_score_0_split
I1010 21:44:48.161538  6313 net.cpp:434] score_score_0_split <- score
I1010 21:44:48.161543  6313 net.cpp:408] score_score_0_split -> score_score_0_split_0
I1010 21:44:48.161548  6313 net.cpp:408] score_score_0_split -> score_score_0_split_1
I1010 21:44:48.161605  6313 net.cpp:150] Setting up score_score_0_split
I1010 21:44:48.161609  6313 net.cpp:157] Top shape: 64 10 (640)
I1010 21:44:48.161612  6313 net.cpp:157] Top shape: 64 10 (640)
I1010 21:44:48.161614  6313 net.cpp:165] Memory required for data: 160613632
I1010 21:44:48.161617  6313 layer_factory.hpp:77] Creating layer accuracy
I1010 21:44:48.161620  6313 net.cpp:100] Creating Layer accuracy
I1010 21:44:48.161623  6313 net.cpp:434] accuracy <- score_score_0_split_0
I1010 21:44:48.161625  6313 net.cpp:434] accuracy <- label_data_1_split_0
I1010 21:44:48.161630  6313 net.cpp:408] accuracy -> accuracy
…
I1010 21:44:48.162233  6313 net.cpp:283] Network initialization done.
I1010 21:44:48.162431  6313 solver.cpp:181] Creating test net (#0) specified by test_net file: /home/adam/Honours/Honours-Project/cifar-10_allcnn/relu/allcnn_relu_test.prototxt
I1010 21:44:48.162561  6313 net.cpp:58] Initializing net from parameters: 
state {
  phase: TEST
}
layer {
  name: "data"
  type: "Data"
  top: "data"
  top: "label"
  transform_param {
    mean_file: "mean.binaryproto"
  }
  data_param {
    source: "../../../data/cifar-10/cifar10_test_lmdb"
    batch_size: 100
    backend: LMDB
  }
}
layer {
  name: "conv1"
  type: "Convolution"
  bottom: "data"
  top: "conv1"
  convolution_param {
    num_output: 96
    kernel_size: 3
    weight_filler {
      type: "xavier"
    }
  }
}
layer {
  name: "relu1"
  type: "ReLU"
  bottom: "conv1"
  top: "conv1"
}
layer {
  name: "conv2"
  type: "Convolution"
  bottom: "conv1"
  top: "conv2"
  convolution_param {
    num_output: 96
    kernel_size: 3
    weight_filler {
      type: "xavier"
    }
  }
}
layer {
  name: "bn1"
  type: "BatchNorm"
  bottom: "conv2"
  top: "bn1"
}
layer {
  name: "relu2"
  type: "ReLU"
  bottom: "bn1"
  top: "bn1"
}
layer {
  name: "drop1"
  type: "Dropout"
  bottom: "bn1"
  top: "drop1"
  dropout_param {
    dropout_ratio: 0.5
  }
}
layer {
  name: "conv3"
  type: "Convolution"
  bottom: "drop1"
  top: "conv3"
  convolution_param {
    num_output: 96
    kernel_size: 3
    stride: 2
    weight_filler {
      type: "xavier"
    }
  }
}
layer {
  name: "relu3"
  type: "ReLU"
  bottom: "conv3"
  top: "conv3"
}
layer {
  name: "conv4"
  type: "Convolution"
  bottom: "conv3"
  top: "conv4"
  convolution_param {
    num_output: 192
    kernel_size: 3
    weight_filler {
      type: "xavier"
    }
  }
}
layer {
  name: "relu4"
  type: "ReLU"
  bottom: "conv4"
  top: "conv4"
}
layer {
  name: "conv5"
  type: "Convolution"
  bottom: "conv4"
  top: "conv5"
  convolution_param {
    num_output: 192
    kernel_size: 3
    weight_filler {
      type: "xavier"
    }
  }
}
layer {
  name: "bn2"
  type: "BatchNorm"
  bottom: "conv5"
  top: "bn2"
}
layer {
  name: "relu5"
  type: "ReLU"
  bottom: "bn2"
  top: "bn2"
}
layer {
  name: "drop4"
  type: "Dropout"
  bottom: "bn2"
  top: "drop4"
  dropout_param {
    dropout_ratio: 0.5
  }
}
layer {
  name: "conv6"
  type: "Convolution"
  bottom: "drop4"
  top: "conv6"
  convolution_param {
    num_output: 192
    kernel_size: 3
    stride: 2
    weight_filler {
      type: "xavier"
    }
  }
}
layer {
  name: "relu6"
  type: "ReLU"
  bottom: "conv6"
  top: "conv6"
}
layer {
  name: "conv7"
  type: "Convolution"
  bottom: "conv6"
  top: "conv7"
  convolution_param {
    num_output: 192
    kernel_size: 3
    weight_filler {
      type: "xavier"
    }
  }
}
layer {
  name: "relu7"
  type: "ReLU"
  bottom: "conv7"
  top: "conv7"
}
layer {
  name: "conv8"
  type: "Convolution"
  bottom: "conv7"
  top: "conv8"
  convolution_param {
    num_output: 192
    kernel_size: 1
    weight_filler {
      type: "xavier"
    }
  }
}
layer {
  name: "relu8"
  type: "ReLU"
  bottom: "conv8"
  top: "conv8"
}
layer {
  name: "conv9"
  type: "Convolution"
  bottom: "conv8"
  top: "conv9"
  convolution_param {
    num_output: 10
    kernel_size: 1
    weight_filler {
      type: "xavier"
    }
  }
}
layer {
  name: "relu9"
  type: "ReLU"
  bottom: "conv9"
  top: "conv9"
}
layer {
  name: "pool"
  type: "Pooling"
  bottom: "conv9"
  top: "pool"
  pooling_param {
    pool: AVE
    global_pooling: true
  }
}
layer {
  name: "flatten"
  type: "Flatten"
  bottom: "pool"
  top: "flatten"
}
layer {
  name: "score"
  type: "InnerProduct"
  bottom: "flatten"
  top: "score"
  inner_product_param {
    num_output: 10
    weight_filler {
      type: "gaussian"
    }
  }
}
layer {
  name: "accuracy"
  type: "Accuracy"
  bottom: "score"
  bottom: "label"
  top: "accuracy"
}
layer {
  name: "loss"
  type: "SoftmaxWithLoss"
  bottom: "score"
  bottom: "label"
  top: "loss"
}
I1010 21:44:48.162678  6313 layer_factory.hpp:77] Creating layer data
I1010 21:44:48.162787  6313 net.cpp:100] Creating Layer data
I1010 21:44:48.162794  6313 net.cpp:408] data -> data
I1010 21:44:48.162813  6313 net.cpp:408] data -> label
I1010 21:44:48.162833  6313 data_transformer.cpp:25] Loading mean file from: mean.binaryproto
I1010 21:44:48.163579  6320 db_lmdb.cpp:35] Opened lmdb ../../../data/cifar-10/cifar10_test_lmdb
I1010 21:44:48.163686  6313 data_layer.cpp:41] output data size: 100,3,32,32
I1010 21:44:48.165709  6313 net.cpp:150] Setting up data
I1010 21:44:48.165756  6313 net.cpp:157] Top shape: 100 3 32 32 (307200)
I1010 21:44:48.165760  6313 net.cpp:157] Top shape: 100 (100)
I1010 21:44:48.165761  6313 net.cpp:165] Memory required for data: 1229200
I1010 21:44:48.165779  6313 layer_factory.hpp:77] Creating layer label_data_1_split
I1010 21:44:48.165789  6313 net.cpp:100] Creating Layer label_data_1_split
I1010 21:44:48.165792  6313 net.cpp:434] label_data_1_split <- label
I1010 21:44:48.165798  6313 net.cpp:408] label_data_1_split -> label_data_1_split_0
I1010 21:44:48.165805  6313 net.cpp:408] label_data_1_split -> label_data_1_split_1
I1010 21:44:48.165875  6313 net.cpp:150] Setting up label_data_1_split
I1010 21:44:48.165882  6313 net.cpp:157] Top shape: 100 (100)
I1010 21:44:48.165885  6313 net.cpp:157] Top shape: 100 (100)
I1010 21:44:48.165886  6313 net.cpp:165] Memory required for data: 1230000
I1010 21:44:48.165889  6313 layer_factory.hpp:77] Creating layer conv1
I1010 21:44:48.165899  6313 net.cpp:100] Creating Layer conv1
I1010 21:44:48.165901  6313 net.cpp:434] conv1 <- data
I1010 21:44:48.165927  6313 net.cpp:408] conv1 -> conv1
I1010 21:44:48.167167  6313 net.cpp:150] Setting up conv1
I1010 21:44:48.167196  6313 net.cpp:157] Top shape: 100 96 30 30 (8640000)
I1010 21:44:48.167208  6313 net.cpp:165] Memory required for data: 35790000
I1010 21:44:48.167225  6313 layer_factory.hpp:77] Creating layer relu1
I1010 21:44:48.167240  6313 net.cpp:100] Creating Layer relu1
I1010 21:44:48.167253  6313 net.cpp:434] relu1 <- conv1
I1010 21:44:48.167264  6313 net.cpp:395] relu1 -> conv1 (in-place)
I1010 21:44:48.167449  6313 net.cpp:150] Setting up relu1
I1010 21:44:48.167469  6313 net.cpp:157] Top shape: 100 96 30 30 (8640000)
I1010 21:44:48.167477  6313 net.cpp:165] Memory required for data: 70350000
I1010 21:44:48.167489  6313 layer_factory.hpp:77] Creating layer conv2
I1010 21:44:48.167505  6313 net.cpp:100] Creating Layer conv2
I1010 21:44:48.167515  6313 net.cpp:434] conv2 <- conv1
I1010 21:44:48.167528  6313 net.cpp:408] conv2 -> conv2
I1010 21:44:48.169555  6313 net.cpp:150] Setting up conv2
I1010 21:44:48.169608  6313 net.cpp:157] Top shape: 100 96 28 28 (7526400)
I1010 21:44:48.169620  6313 net.cpp:165] Memory required for data: 100455600
I1010 21:44:48.169641  6313 layer_factory.hpp:77] Creating layer bn1
I1010 21:44:48.169656  6313 net.cpp:100] Creating Layer bn1
I1010 21:44:48.169667  6313 net.cpp:434] bn1 <- conv2
I1010 21:44:48.169685  6313 net.cpp:408] bn1 -> bn1
I1010 21:44:48.169911  6313 net.cpp:150] Setting up bn1
I1010 21:44:48.169929  6313 net.cpp:157] Top shape: 100 96 28 28 (7526400)
I1010 21:44:48.169939  6313 net.cpp:165] Memory required for data: 130561200
I1010 21:44:48.169955  6313 layer_factory.hpp:77] Creating layer relu2
I1010 21:44:48.169968  6313 net.cpp:100] Creating Layer relu2
I1010 21:44:48.169978  6313 net.cpp:434] relu2 <- bn1
I1010 21:44:48.169989  6313 net.cpp:395] relu2 -> bn1 (in-place)
I1010 21:44:48.170316  6313 net.cpp:150] Setting up relu2
I1010 21:44:48.170366  6313 net.cpp:157] Top shape: 100 96 28 28 (7526400)
I1010 21:44:48.170375  6313 net.cpp:165] Memory required for data: 160666800
I1010 21:44:48.170385  6313 layer_factory.hpp:77] Creating layer drop1
I1010 21:44:48.170398  6313 net.cpp:100] Creating Layer drop1
I1010 21:44:48.170408  6313 net.cpp:434] drop1 <- bn1
I1010 21:44:48.170420  6313 net.cpp:408] drop1 -> drop1
I1010 21:44:48.170480  6313 net.cpp:150] Setting up drop1
I1010 21:44:48.170493  6313 net.cpp:157] Top shape: 100 96 28 28 (7526400)
I1010 21:44:48.170502  6313 net.cpp:165] Memory required for data: 190772400
I1010 21:44:48.170511  6313 layer_factory.hpp:77] Creating layer conv3
I1010 21:44:48.170529  6313 net.cpp:100] Creating Layer conv3
I1010 21:44:48.170539  6313 net.cpp:434] conv3 <- drop1
I1010 21:44:48.170552  6313 net.cpp:408] conv3 -> conv3
I1010 21:44:48.172000  6313 net.cpp:150] Setting up conv3
I1010 21:44:48.172021  6313 net.cpp:157] Top shape: 100 96 13 13 (1622400)
I1010 21:44:48.172024  6313 net.cpp:165] Memory required for data: 197262000
I1010 21:44:48.172037  6313 layer_factory.hpp:77] Creating layer relu3
I1010 21:44:48.172045  6313 net.cpp:100] Creating Layer relu3
I1010 21:44:48.172051  6313 net.cpp:434] relu3 <- conv3
I1010 21:44:48.172057  6313 net.cpp:395] relu3 -> conv3 (in-place)
I1010 21:44:48.172343  6313 net.cpp:150] Setting up relu3
I1010 21:44:48.172355  6313 net.cpp:157] Top shape: 100 96 13 13 (1622400)
I1010 21:44:48.172358  6313 net.cpp:165] Memory required for data: 203751600
I1010 21:44:48.172360  6313 layer_factory.hpp:77] Creating layer conv4
I1010 21:44:48.172369  6313 net.cpp:100] Creating Layer conv4
I1010 21:44:48.172374  6313 net.cpp:434] conv4 <- conv3
I1010 21:44:48.172379  6313 net.cpp:408] conv4 -> conv4
I1010 21:44:48.174525  6313 net.cpp:150] Setting up conv4
I1010 21:44:48.174553  6313 net.cpp:157] Top shape: 100 192 11 11 (2323200)
I1010 21:44:48.174556  6313 net.cpp:165] Memory required for data: 213044400
I1010 21:44:48.174564  6313 layer_factory.hpp:77] Creating layer relu4
I1010 21:44:48.174571  6313 net.cpp:100] Creating Layer relu4
I1010 21:44:48.174574  6313 net.cpp:434] relu4 <- conv4
I1010 21:44:48.174579  6313 net.cpp:395] relu4 -> conv4 (in-place)
I1010 21:44:48.174733  6313 net.cpp:150] Setting up relu4
I1010 21:44:48.174742  6313 net.cpp:157] Top shape: 100 192 11 11 (2323200)
I1010 21:44:48.174744  6313 net.cpp:165] Memory required for data: 222337200
I1010 21:44:48.174747  6313 layer_factory.hpp:77] Creating layer conv5
I1010 21:44:48.174757  6313 net.cpp:100] Creating Layer conv5
I1010 21:44:48.174760  6313 net.cpp:434] conv5 <- conv4
I1010 21:44:48.174764  6313 net.cpp:408] conv5 -> conv5
I1010 21:44:48.178336  6313 net.cpp:150] Setting up conv5
I1010 21:44:48.178357  6313 net.cpp:157] Top shape: 100 192 9 9 (1555200)
I1010 21:44:48.178360  6313 net.cpp:165] Memory required for data: 228558000
I1010 21:44:48.178367  6313 layer_factory.hpp:77] Creating layer bn2
I1010 21:44:48.178375  6313 net.cpp:100] Creating Layer bn2
I1010 21:44:48.178377  6313 net.cpp:434] bn2 <- conv5
I1010 21:44:48.178382  6313 net.cpp:408] bn2 -> bn2
I1010 21:44:48.178571  6313 net.cpp:150] Setting up bn2
I1010 21:44:48.178578  6313 net.cpp:157] Top shape: 100 192 9 9 (1555200)
I1010 21:44:48.178581  6313 net.cpp:165] Memory required for data: 234778800
I1010 21:44:48.178586  6313 layer_factory.hpp:77] Creating layer relu5
I1010 21:44:48.178593  6313 net.cpp:100] Creating Layer relu5
I1010 21:44:48.178597  6313 net.cpp:434] relu5 <- bn2
I1010 21:44:48.178601  6313 net.cpp:395] relu5 -> bn2 (in-place)
I1010 21:44:48.179024  6313 net.cpp:150] Setting up relu5
I1010 21:44:48.179033  6313 net.cpp:157] Top shape: 100 192 9 9 (1555200)
I1010 21:44:48.179049  6313 net.cpp:165] Memory required for data: 240999600
I1010 21:44:48.179052  6313 layer_factory.hpp:77] Creating layer drop4
I1010 21:44:48.179057  6313 net.cpp:100] Creating Layer drop4
I1010 21:44:48.179062  6313 net.cpp:434] drop4 <- bn2
I1010 21:44:48.179066  6313 net.cpp:408] drop4 -> drop4
I1010 21:44:48.179112  6313 net.cpp:150] Setting up drop4
I1010 21:44:48.179117  6313 net.cpp:157] Top shape: 100 192 9 9 (1555200)
I1010 21:44:48.179119  6313 net.cpp:165] Memory required for data: 247220400
I1010 21:44:48.179121  6313 layer_factory.hpp:77] Creating layer conv6
I1010 21:44:48.179132  6313 net.cpp:100] Creating Layer conv6
I1010 21:44:48.179136  6313 net.cpp:434] conv6 <- drop4
I1010 21:44:48.179139  6313 net.cpp:408] conv6 -> conv6
I1010 21:44:48.181815  6313 net.cpp:150] Setting up conv6
I1010 21:44:48.181833  6313 net.cpp:157] Top shape: 100 192 4 4 (307200)
I1010 21:44:48.181835  6313 net.cpp:165] Memory required for data: 248449200
I1010 21:44:48.181845  6313 layer_factory.hpp:77] Creating layer relu6
I1010 21:44:48.181852  6313 net.cpp:100] Creating Layer relu6
I1010 21:44:48.181855  6313 net.cpp:434] relu6 <- conv6
I1010 21:44:48.181859  6313 net.cpp:395] relu6 -> conv6 (in-place)
I1010 21:44:48.182103  6313 net.cpp:150] Setting up relu6
I1010 21:44:48.182126  6313 net.cpp:157] Top shape: 100 192 4 4 (307200)
I1010 21:44:48.182127  6313 net.cpp:165] Memory required for data: 249678000
I1010 21:44:48.182131  6313 layer_factory.hpp:77] Creating layer conv7
I1010 21:44:48.182150  6313 net.cpp:100] Creating Layer conv7
I1010 21:44:48.182153  6313 net.cpp:434] conv7 <- conv6
I1010 21:44:48.182158  6313 net.cpp:408] conv7 -> conv7
I1010 21:44:48.184772  6313 net.cpp:150] Setting up conv7
I1010 21:44:48.184798  6313 net.cpp:157] Top shape: 100 192 2 2 (76800)
I1010 21:44:48.184801  6313 net.cpp:165] Memory required for data: 249985200
I1010 21:44:48.184806  6313 layer_factory.hpp:77] Creating layer relu7
I1010 21:44:48.184810  6313 net.cpp:100] Creating Layer relu7
I1010 21:44:48.184813  6313 net.cpp:434] relu7 <- conv7
I1010 21:44:48.184816  6313 net.cpp:395] relu7 -> conv7 (in-place)
I1010 21:44:48.184998  6313 net.cpp:150] Setting up relu7
I1010 21:44:48.185005  6313 net.cpp:157] Top shape: 100 192 2 2 (76800)
I1010 21:44:48.185021  6313 net.cpp:165] Memory required for data: 250292400
I1010 21:44:48.185024  6313 layer_factory.hpp:77] Creating layer conv8
I1010 21:44:48.185031  6313 net.cpp:100] Creating Layer conv8
I1010 21:44:48.185034  6313 net.cpp:434] conv8 <- conv7
I1010 21:44:48.185036  6313 net.cpp:408] conv8 -> conv8
I1010 21:44:48.186092  6313 net.cpp:150] Setting up conv8
I1010 21:44:48.186116  6313 net.cpp:157] Top shape: 100 192 2 2 (76800)
I1010 21:44:48.186120  6313 net.cpp:165] Memory required for data: 250599600
I1010 21:44:48.186125  6313 layer_factory.hpp:77] Creating layer relu8
I1010 21:44:48.186142  6313 net.cpp:100] Creating Layer relu8
I1010 21:44:48.186146  6313 net.cpp:434] relu8 <- conv8
I1010 21:44:48.186148  6313 net.cpp:395] relu8 -> conv8 (in-place)
I1010 21:44:48.186414  6313 net.cpp:150] Setting up relu8
I1010 21:44:48.186435  6313 net.cpp:157] Top shape: 100 192 2 2 (76800)
I1010 21:44:48.186437  6313 net.cpp:165] Memory required for data: 250906800
I1010 21:44:48.186440  6313 layer_factory.hpp:77] Creating layer conv9
I1010 21:44:48.186460  6313 net.cpp:100] Creating Layer conv9
I1010 21:44:48.186462  6313 net.cpp:434] conv9 <- conv8
I1010 21:44:48.186466  6313 net.cpp:408] conv9 -> conv9
I1010 21:44:48.187242  6313 net.cpp:150] Setting up conv9
I1010 21:44:48.187266  6313 net.cpp:157] Top shape: 100 10 2 2 (4000)
I1010 21:44:48.187269  6313 net.cpp:165] Memory required for data: 250922800
I1010 21:44:48.187274  6313 layer_factory.hpp:77] Creating layer relu9
I1010 21:44:48.187290  6313 net.cpp:100] Creating Layer relu9
I1010 21:44:48.187292  6313 net.cpp:434] relu9 <- conv9
I1010 21:44:48.187322  6313 net.cpp:395] relu9 -> conv9 (in-place)
I1010 21:44:48.187582  6313 net.cpp:150] Setting up relu9
I1010 21:44:48.187603  6313 net.cpp:157] Top shape: 100 10 2 2 (4000)
I1010 21:44:48.187607  6313 net.cpp:165] Memory required for data: 250938800
I1010 21:44:48.187608  6313 layer_factory.hpp:77] Creating layer pool
I1010 21:44:48.187613  6313 net.cpp:100] Creating Layer pool
I1010 21:44:48.187616  6313 net.cpp:434] pool <- conv9
I1010 21:44:48.187620  6313 net.cpp:408] pool -> pool
I1010 21:44:48.187834  6313 net.cpp:150] Setting up pool
I1010 21:44:48.187841  6313 net.cpp:157] Top shape: 100 10 1 1 (1000)
I1010 21:44:48.187857  6313 net.cpp:165] Memory required for data: 250942800
I1010 21:44:48.187860  6313 layer_factory.hpp:77] Creating layer flatten
I1010 21:44:48.187865  6313 net.cpp:100] Creating Layer flatten
I1010 21:44:48.187866  6313 net.cpp:434] flatten <- pool
I1010 21:44:48.187870  6313 net.cpp:408] flatten -> flatten
I1010 21:44:48.187919  6313 net.cpp:150] Setting up flatten
I1010 21:44:48.187937  6313 net.cpp:157] Top shape: 100 10 (1000)
I1010 21:44:48.187939  6313 net.cpp:165] Memory required for data: 250946800
I1010 21:44:48.187942  6313 layer_factory.hpp:77] Creating layer score
I1010 21:44:48.187963  6313 net.cpp:100] Creating Layer score
I1010 21:44:48.187965  6313 net.cpp:434] score <- flatten
I1010 21:44:48.187970  6313 net.cpp:408] score -> score
I1010 21:44:48.188133  6313 net.cpp:150] Setting up score
I1010 21:44:48.188136  6313 net.cpp:157] Top shape: 100 10 (1000)
I1010 21:44:48.188138  6313 net.cpp:165] Memory required for data: 250950800
I1010 21:44:48.188143  6313 layer_factory.hpp:77] Creating layer score_score_0_split
I1010 21:44:48.188158  6313 net.cpp:100] Creating Layer score_score_0_split
I1010 21:44:48.188160  6313 net.cpp:434] score_score_0_split <- score
I1010 21:44:48.188164  6313 net.cpp:408] score_score_0_split -> score_score_0_split_0
I1010 21:44:48.188184  6313 net.cpp:408] score_score_0_split -> score_score_0_split_1
I1010 21:44:48.188253  6313 net.cpp:150] Setting up score_score_0_split
I1010 21:44:48.188258  6313 net.cpp:157] Top shape: 100 10 (1000)
I1010 21:44:48.188261  6313 net.cpp:157] Top shape: 100 10 (1000)
I1010 21:44:48.188262  6313 net.cpp:165] Memory required for data: 250958800
I1010 21:44:48.188278  6313 layer_factory.hpp:77] Creating layer accuracy
I1010 21:44:48.188283  6313 net.cpp:100] Creating Layer accuracy
I1010 21:44:48.188287  6313 net.cpp:434] accuracy <- score_score_0_split_0
I1010 21:44:48.188302  6313 net.cpp:434] accuracy <- label_data_1_split_0
I1010 21:44:48.188305  6313 net.cpp:408] accuracy -> accuracy
…
