…
  stage: ""
}
type: "AdaDelta"
I1010 14:31:08.871940  5799 solver.cpp:81] Creating training net from train_net file: /home/adam/Honours/Honours-Project/cifar-10_allcnn/relu/allcnn_relu_train.prototxt
I1010 14:31:08.872264  5799 net.cpp:58] Initializing net from parameters: 
state {
  phase: TRAIN
  level: 0
  stage: ""
}
layer {
  name: "data"
  type: "Data"
  top: "data"
  top: "label"
  transform_param {
    mean_file: "mean.binaryproto"
  }
  data_param {
    source: "../../../data/cifar-10/cifar10_train_lmdb"
    batch_size: 64
    backend: LMDB
  }
}
layer {
  name: "conv1"
  type: "Convolution"
  bottom: "data"
  top: "conv1"
  convolution_param {
    num_output: 96
    kernel_size: 3
    weight_filler {
      type: "xavier"
    }
  }
}
layer {
  name: "relu1"
  type: "ReLU"
  bottom: "conv1"
  top: "conv1"
}
layer {
  name: "conv2"
  type: "Convolution"
  bottom: "conv1"
  top: "conv2"
  convolution_param {
    num_output: 96
    kernel_size: 3
    weight_filler {
      type: "xavier"
    }
  }
}
layer {
  name: "bn1"
  type: "BatchNorm"
  bottom: "conv2"
  top: "bn1"
}
layer {
  name: "relu2"
  type: "ReLU"
  bottom: "bn1"
  top: "bn1"
}
layer {
  name: "drop1"
  type: "Dropout"
  bottom: "bn1"
  top: "drop1"
  dropout_param {
    dropout_ratio: 0.5
  }
}
layer {
  name: "conv3"
  type: "Convolution"
  bottom: "drop1"
  top: "conv3"
  convolution_param {
    num_output: 96
    kernel_size: 3
    stride: 2
    weight_filler {
      type: "xavier"
    }
  }
}
layer {
  name: "relu3"
  type: "ReLU"
  bottom: "conv3"
  top: "conv3"
}
layer {
  name: "conv4"
  type: "Convolution"
  bottom: "conv3"
  top: "conv4"
  convolution_param {
    num_output: 192
    kernel_size: 3
    weight_filler {
      type: "xavier"
    }
  }
}
layer {
  name: "relu4"
  type: "ReLU"
  bottom: "conv4"
  top: "conv4"
}
layer {
  name: "conv5"
  type: "Convolution"
  bottom: "conv4"
  top: "conv5"
  convolution_param {
    num_output: 192
    kernel_size: 3
    weight_filler {
      type: "xavier"
    }
  }
}
layer {
  name: "bn2"
  type: "BatchNorm"
  bottom: "conv5"
  top: "bn2"
}
layer {
  name: "relu5"
  type: "ReLU"
  bottom: "bn2"
  top: "bn2"
}
layer {
  name: "drop4"
  type: "Dropout"
  bottom: "bn2"
  top: "drop4"
  dropout_param {
    dropout_ratio: 0.5
  }
}
layer {
  name: "conv6"
  type: "Convolution"
  bottom: "drop4"
  top: "conv6"
  convolution_param {
    num_output: 192
    kernel_size: 3
    stride: 2
    weight_filler {
      type: "xavier"
    }
  }
}
layer {
  name: "relu6"
  type: "ReLU"
  bottom: "conv6"
  top: "conv6"
}
layer {
  name: "conv7"
  type: "Convolution"
  bottom: "conv6"
  top: "conv7"
  convolution_param {
    num_output: 192
    kernel_size: 3
    weight_filler {
      type: "xavier"
    }
  }
}
layer {
  name: "relu7"
  type: "ReLU"
  bottom: "conv7"
  top: "conv7"
}
layer {
  name: "conv8"
  type: "Convolution"
  bottom: "conv7"
  top: "conv8"
  convolution_param {
    num_output: 192
    kernel_size: 1
    weight_filler {
      type: "xavier"
    }
  }
}
layer {
  name: "relu8"
  type: "ReLU"
  bottom: "conv8"
  top: "conv8"
}
layer {
  name: "conv9"
  type: "Convolution"
  bottom: "conv8"
  top: "conv9"
  convolution_param {
    num_output: 10
    kernel_size: 1
    weight_filler {
      type: "xavier"
    }
  }
}
layer {
  name: "relu9"
  type: "ReLU"
  bottom: "conv9"
  top: "conv9"
}
layer {
  name: "pool"
  type: "Pooling"
  bottom: "conv9"
  top: "pool"
  pooling_param {
    pool: AVE
    global_pooling: true
  }
}
layer {
  name: "flatten"
  type: "Flatten"
  bottom: "pool"
  top: "flatten"
}
layer {
  name: "score"
  type: "InnerProduct"
  bottom: "flatten"
  top: "score"
  inner_product_param {
    num_output: 10
    weight_filler {
      type: "gaussian"
    }
  }
}
layer {
  name: "accuracy"
  type: "Accuracy"
  bottom: "score"
  bottom: "label"
  top: "accuracy"
}
layer {
  name: "loss"
  type: "SoftmaxWithLoss"
  bottom: "score"
  bottom: "label"
  top: "loss"
}
I1010 14:31:08.872413  5799 layer_factory.hpp:77] Creating layer data
I1010 14:31:08.872869  5799 net.cpp:100] Creating Layer data
I1010 14:31:08.872877  5799 net.cpp:408] data -> data
I1010 14:31:08.872906  5799 net.cpp:408] data -> label
I1010 14:31:08.872941  5799 data_transformer.cpp:25] Loading mean file from: mean.binaryproto
I1010 14:31:08.874258  5804 db_lmdb.cpp:35] Opened lmdb ../../../data/cifar-10/cifar10_train_lmdb
I1010 14:31:08.880290  5799 data_layer.cpp:41] output data size: 64,3,32,32
I1010 14:31:08.881906  5799 net.cpp:150] Setting up data
I1010 14:31:08.881924  5799 net.cpp:157] Top shape: 64 3 32 32 (196608)
I1010 14:31:08.881928  5799 net.cpp:157] Top shape: 64 (64)
I1010 14:31:08.881944  5799 net.cpp:165] Memory required for data: 786688
I1010 14:31:08.881953  5799 layer_factory.hpp:77] Creating layer label_data_1_split
I1010 14:31:08.881974  5799 net.cpp:100] Creating Layer label_data_1_split
I1010 14:31:08.881978  5799 net.cpp:434] label_data_1_split <- label
I1010 14:31:08.881990  5799 net.cpp:408] label_data_1_split -> label_data_1_split_0
I1010 14:31:08.881997  5799 net.cpp:408] label_data_1_split -> label_data_1_split_1
I1010 14:31:08.882041  5799 net.cpp:150] Setting up label_data_1_split
I1010 14:31:08.882061  5799 net.cpp:157] Top shape: 64 (64)
I1010 14:31:08.882091  5799 net.cpp:157] Top shape: 64 (64)
I1010 14:31:08.882098  5799 net.cpp:165] Memory required for data: 787200
I1010 14:31:08.882107  5799 layer_factory.hpp:77] Creating layer conv1
I1010 14:31:08.882141  5799 net.cpp:100] Creating Layer conv1
I1010 14:31:08.882151  5799 net.cpp:434] conv1 <- data
I1010 14:31:08.882163  5799 net.cpp:408] conv1 -> conv1
I1010 14:31:09.018673  5799 net.cpp:150] Setting up conv1
I1010 14:31:09.018698  5799 net.cpp:157] Top shape: 64 96 30 30 (5529600)
I1010 14:31:09.018702  5799 net.cpp:165] Memory required for data: 22905600
I1010 14:31:09.018718  5799 layer_factory.hpp:77] Creating layer relu1
I1010 14:31:09.018726  5799 net.cpp:100] Creating Layer relu1
I1010 14:31:09.018729  5799 net.cpp:434] relu1 <- conv1
I1010 14:31:09.018733  5799 net.cpp:395] relu1 -> conv1 (in-place)
I1010 14:31:09.018937  5799 net.cpp:150] Setting up relu1
I1010 14:31:09.018944  5799 net.cpp:157] Top shape: 64 96 30 30 (5529600)
I1010 14:31:09.018946  5799 net.cpp:165] Memory required for data: 45024000
I1010 14:31:09.018949  5799 layer_factory.hpp:77] Creating layer conv2
I1010 14:31:09.018956  5799 net.cpp:100] Creating Layer conv2
I1010 14:31:09.018959  5799 net.cpp:434] conv2 <- conv1
I1010 14:31:09.018961  5799 net.cpp:408] conv2 -> conv2
I1010 14:31:09.020341  5799 net.cpp:150] Setting up conv2
I1010 14:31:09.020352  5799 net.cpp:157] Top shape: 64 96 28 28 (4816896)
I1010 14:31:09.020354  5799 net.cpp:165] Memory required for data: 64291584
I1010 14:31:09.020360  5799 layer_factory.hpp:77] Creating layer bn1
I1010 14:31:09.020364  5799 net.cpp:100] Creating Layer bn1
I1010 14:31:09.020366  5799 net.cpp:434] bn1 <- conv2
I1010 14:31:09.020371  5799 net.cpp:408] bn1 -> bn1
I1010 14:31:09.020581  5799 net.cpp:150] Setting up bn1
I1010 14:31:09.020586  5799 net.cpp:157] Top shape: 64 96 28 28 (4816896)
I1010 14:31:09.020587  5799 net.cpp:165] Memory required for data: 83559168
I1010 14:31:09.020593  5799 layer_factory.hpp:77] Creating layer relu2
I1010 14:31:09.020597  5799 net.cpp:100] Creating Layer relu2
I1010 14:31:09.020599  5799 net.cpp:434] relu2 <- bn1
I1010 14:31:09.020602  5799 net.cpp:395] relu2 -> bn1 (in-place)
I1010 14:31:09.020774  5799 net.cpp:150] Setting up relu2
I1010 14:31:09.020779  5799 net.cpp:157] Top shape: 64 96 28 28 (4816896)
I1010 14:31:09.020792  5799 net.cpp:165] Memory required for data: 102826752
I1010 14:31:09.020794  5799 layer_factory.hpp:77] Creating layer drop1
I1010 14:31:09.020799  5799 net.cpp:100] Creating Layer drop1
I1010 14:31:09.020802  5799 net.cpp:434] drop1 <- bn1
I1010 14:31:09.020805  5799 net.cpp:408] drop1 -> drop1
I1010 14:31:09.020865  5799 net.cpp:150] Setting up drop1
I1010 14:31:09.020869  5799 net.cpp:157] Top shape: 64 96 28 28 (4816896)
I1010 14:31:09.020871  5799 net.cpp:165] Memory required for data: 122094336
I1010 14:31:09.020886  5799 layer_factory.hpp:77] Creating layer conv3
I1010 14:31:09.020892  5799 net.cpp:100] Creating Layer conv3
I1010 14:31:09.020895  5799 net.cpp:434] conv3 <- drop1
I1010 14:31:09.020915  5799 net.cpp:408] conv3 -> conv3
I1010 14:31:09.022126  5799 net.cpp:150] Setting up conv3
I1010 14:31:09.022135  5799 net.cpp:157] Top shape: 64 96 13 13 (1038336)
I1010 14:31:09.022137  5799 net.cpp:165] Memory required for data: 126247680
I1010 14:31:09.022143  5799 layer_factory.hpp:77] Creating layer relu3
I1010 14:31:09.022148  5799 net.cpp:100] Creating Layer relu3
I1010 14:31:09.022150  5799 net.cpp:434] relu3 <- conv3
I1010 14:31:09.022153  5799 net.cpp:395] relu3 -> conv3 (in-place)
I1010 14:31:09.022409  5799 net.cpp:150] Setting up relu3
I1010 14:31:09.022416  5799 net.cpp:157] Top shape: 64 96 13 13 (1038336)
I1010 14:31:09.022418  5799 net.cpp:165] Memory required for data: 130401024
I1010 14:31:09.022420  5799 layer_factory.hpp:77] Creating layer conv4
I1010 14:31:09.022426  5799 net.cpp:100] Creating Layer conv4
I1010 14:31:09.022429  5799 net.cpp:434] conv4 <- conv3
I1010 14:31:09.022433  5799 net.cpp:408] conv4 -> conv4
I1010 14:31:09.024255  5799 net.cpp:150] Setting up conv4
I1010 14:31:09.024265  5799 net.cpp:157] Top shape: 64 192 11 11 (1486848)
I1010 14:31:09.024266  5799 net.cpp:165] Memory required for data: 136348416
I1010 14:31:09.024271  5799 layer_factory.hpp:77] Creating layer relu4
I1010 14:31:09.024274  5799 net.cpp:100] Creating Layer relu4
I1010 14:31:09.024276  5799 net.cpp:434] relu4 <- conv4
I1010 14:31:09.024279  5799 net.cpp:395] relu4 -> conv4 (in-place)
I1010 14:31:09.024441  5799 net.cpp:150] Setting up relu4
I1010 14:31:09.024446  5799 net.cpp:157] Top shape: 64 192 11 11 (1486848)
I1010 14:31:09.024448  5799 net.cpp:165] Memory required for data: 142295808
I1010 14:31:09.024451  5799 layer_factory.hpp:77] Creating layer conv5
I1010 14:31:09.024456  5799 net.cpp:100] Creating Layer conv5
I1010 14:31:09.024458  5799 net.cpp:434] conv5 <- conv4
I1010 14:31:09.024462  5799 net.cpp:408] conv5 -> conv5
I1010 14:31:09.026983  5799 net.cpp:150] Setting up conv5
I1010 14:31:09.026993  5799 net.cpp:157] Top shape: 64 192 9 9 (995328)
I1010 14:31:09.026995  5799 net.cpp:165] Memory required for data: 146277120
I1010 14:31:09.026999  5799 layer_factory.hpp:77] Creating layer bn2
I1010 14:31:09.027004  5799 net.cpp:100] Creating Layer bn2
I1010 14:31:09.027006  5799 net.cpp:434] bn2 <- conv5
I1010 14:31:09.027010  5799 net.cpp:408] bn2 -> bn2
I1010 14:31:09.027192  5799 net.cpp:150] Setting up bn2
I1010 14:31:09.027197  5799 net.cpp:157] Top shape: 64 192 9 9 (995328)
I1010 14:31:09.027199  5799 net.cpp:165] Memory required for data: 150258432
I1010 14:31:09.027204  5799 layer_factory.hpp:77] Creating layer relu5
I1010 14:31:09.027207  5799 net.cpp:100] Creating Layer relu5
I1010 14:31:09.027209  5799 net.cpp:434] relu5 <- bn2
I1010 14:31:09.027211  5799 net.cpp:395] relu5 -> bn2 (in-place)
I1010 14:31:09.027369  5799 net.cpp:150] Setting up relu5
I1010 14:31:09.027375  5799 net.cpp:157] Top shape: 64 192 9 9 (995328)
I1010 14:31:09.027377  5799 net.cpp:165] Memory required for data: 154239744
I1010 14:31:09.027379  5799 layer_factory.hpp:77] Creating layer drop4
I1010 14:31:09.027384  5799 net.cpp:100] Creating Layer drop4
I1010 14:31:09.027385  5799 net.cpp:434] drop4 <- bn2
I1010 14:31:09.027389  5799 net.cpp:408] drop4 -> drop4
I1010 14:31:09.027444  5799 net.cpp:150] Setting up drop4
I1010 14:31:09.027449  5799 net.cpp:157] Top shape: 64 192 9 9 (995328)
I1010 14:31:09.027475  5799 net.cpp:165] Memory required for data: 158221056
I1010 14:31:09.027493  5799 layer_factory.hpp:77] Creating layer conv6
I1010 14:31:09.027501  5799 net.cpp:100] Creating Layer conv6
I1010 14:31:09.027515  5799 net.cpp:434] conv6 <- drop4
I1010 14:31:09.027519  5799 net.cpp:408] conv6 -> conv6
I1010 14:31:09.030052  5799 net.cpp:150] Setting up conv6
I1010 14:31:09.030078  5799 net.cpp:157] Top shape: 64 192 4 4 (196608)
I1010 14:31:09.030081  5799 net.cpp:165] Memory required for data: 159007488
I1010 14:31:09.030092  5799 layer_factory.hpp:77] Creating layer relu6
I1010 14:31:09.030097  5799 net.cpp:100] Creating Layer relu6
I1010 14:31:09.030099  5799 net.cpp:434] relu6 <- conv6
I1010 14:31:09.030117  5799 net.cpp:395] relu6 -> conv6 (in-place)
I1010 14:31:09.030376  5799 net.cpp:150] Setting up relu6
I1010 14:31:09.030400  5799 net.cpp:157] Top shape: 64 192 4 4 (196608)
I1010 14:31:09.030401  5799 net.cpp:165] Memory required for data: 159793920
I1010 14:31:09.030403  5799 layer_factory.hpp:77] Creating layer conv7
I1010 14:31:09.030411  5799 net.cpp:100] Creating Layer conv7
I1010 14:31:09.030413  5799 net.cpp:434] conv7 <- conv6
I1010 14:31:09.030417  5799 net.cpp:408] conv7 -> conv7
I1010 14:31:09.033555  5799 net.cpp:150] Setting up conv7
I1010 14:31:09.033571  5799 net.cpp:157] Top shape: 64 192 2 2 (49152)
I1010 14:31:09.033574  5799 net.cpp:165] Memory required for data: 159990528
I1010 14:31:09.033581  5799 layer_factory.hpp:77] Creating layer relu7
I1010 14:31:09.033586  5799 net.cpp:100] Creating Layer relu7
I1010 14:31:09.033588  5799 net.cpp:434] relu7 <- conv7
I1010 14:31:09.033592  5799 net.cpp:395] relu7 -> conv7 (in-place)
I1010 14:31:09.033849  5799 net.cpp:150] Setting up relu7
I1010 14:31:09.033855  5799 net.cpp:157] Top shape: 64 192 2 2 (49152)
I1010 14:31:09.033857  5799 net.cpp:165] Memory required for data: 160187136
I1010 14:31:09.033859  5799 layer_factory.hpp:77] Creating layer conv8
I1010 14:31:09.033867  5799 net.cpp:100] Creating Layer conv8
I1010 14:31:09.033869  5799 net.cpp:434] conv8 <- conv7
I1010 14:31:09.033872  5799 net.cpp:408] conv8 -> conv8
I1010 14:31:09.035125  5799 net.cpp:150] Setting up conv8
I1010 14:31:09.035135  5799 net.cpp:157] Top shape: 64 192 2 2 (49152)
I1010 14:31:09.035136  5799 net.cpp:165] Memory required for data: 160383744
I1010 14:31:09.035141  5799 layer_factory.hpp:77] Creating layer relu8
I1010 14:31:09.035145  5799 net.cpp:100] Creating Layer relu8
I1010 14:31:09.035147  5799 net.cpp:434] relu8 <- conv8
I1010 14:31:09.035151  5799 net.cpp:395] relu8 -> conv8 (in-place)
I1010 14:31:09.035320  5799 net.cpp:150] Setting up relu8
I1010 14:31:09.035326  5799 net.cpp:157] Top shape: 64 192 2 2 (49152)
I1010 14:31:09.035327  5799 net.cpp:165] Memory required for data: 160580352
I1010 14:31:09.035329  5799 layer_factory.hpp:77] Creating layer conv9
I1010 14:31:09.035336  5799 net.cpp:100] Creating Layer conv9
I1010 14:31:09.035337  5799 net.cpp:434] conv9 <- conv8
I1010 14:31:09.035341  5799 net.cpp:408] conv9 -> conv9
I1010 14:31:09.036166  5799 net.cpp:150] Setting up conv9
I1010 14:31:09.036175  5799 net.cpp:157] Top shape: 64 10 2 2 (2560)
I1010 14:31:09.036178  5799 net.cpp:165] Memory required for data: 160590592
I1010 14:31:09.036182  5799 layer_factory.hpp:77] Creating layer relu9
I1010 14:31:09.036185  5799 net.cpp:100] Creating Layer relu9
I1010 14:31:09.036187  5799 net.cpp:434] relu9 <- conv9
I1010 14:31:09.036192  5799 net.cpp:395] relu9 -> conv9 (in-place)
I1010 14:31:09.036445  5799 net.cpp:150] Setting up relu9
I1010 14:31:09.036453  5799 net.cpp:157] Top shape: 64 10 2 2 (2560)
I1010 14:31:09.036454  5799 net.cpp:165] Memory required for data: 160600832
I1010 14:31:09.036456  5799 layer_factory.hpp:77] Creating layer pool
I1010 14:31:09.036461  5799 net.cpp:100] Creating Layer pool
I1010 14:31:09.036463  5799 net.cpp:434] pool <- conv9
I1010 14:31:09.036468  5799 net.cpp:408] pool -> pool
I1010 14:31:09.036659  5799 net.cpp:150] Setting up pool
I1010 14:31:09.036664  5799 net.cpp:157] Top shape: 64 10 1 1 (640)
I1010 14:31:09.036676  5799 net.cpp:165] Memory required for data: 160603392
I1010 14:31:09.036679  5799 layer_factory.hpp:77] Creating layer flatten
I1010 14:31:09.036682  5799 net.cpp:100] Creating Layer flatten
I1010 14:31:09.036684  5799 net.cpp:434] flatten <- pool
I1010 14:31:09.036689  5799 net.cpp:408] flatten -> flatten
I1010 14:31:09.036723  5799 net.cpp:150] Setting up flatten
I1010 14:31:09.036727  5799 net.cpp:157] Top shape: 64 10 (640)
I1010 14:31:09.036730  5799 net.cpp:165] Memory required for data: 160605952
I1010 14:31:09.036731  5799 layer_factory.hpp:77] Creating layer score
I1010 14:31:09.036749  5799 net.cpp:100] Creating Layer score
I1010 14:31:09.036752  5799 net.cpp:434] score <- flatten
I1010 14:31:09.036770  5799 net.cpp:408] score -> score
I1010 14:31:09.036906  5799 net.cpp:150] Setting up score
I1010 14:31:09.036909  5799 net.cpp:157] Top shape: 64 10 (640)
I1010 14:31:09.036911  5799 net.cpp:165] Memory required for data: 160608512
I1010 14:31:09.036916  5799 layer_factory.hpp:77] Creating layer score_score_0_split
I1010 14:31:09.036919  5799 net.cpp:100] Creating Layer score_score_0_split
I1010 14:31:09.036921  5799 net.cpp:434] score_score_0_split <- score
I1010 14:31:09.036926  5799 net.cpp:408] score_score_0_split -> score_score_0_split_0
I1010 14:31:09.036936  5799 net.cpp:408] score_score_0_split -> score_score_0_split_1
I1010 14:31:09.036978  5799 net.cpp:150] Setting up score_score_0_split
I1010 14:31:09.036995  5799 net.cpp:157] Top shape: 64 10 (640)
I1010 14:31:09.036998  5799 net.cpp:157] Top shape: 64 10 (640)
I1010 14:31:09.037000  5799 net.cpp:165] Memory required for data: 160613632
I1010 14:31:09.037015  5799 layer_factory.hpp:77] Creating layer accuracy
I1010 14:31:09.037019  5799 net.cpp:100] Creating Layer accuracy
I1010 14:31:09.037021  5799 net.cpp:434] accuracy <- score_score_0_split_0
I1010 14:31:09.037024  5799 net.cpp:434] accuracy <- label_data_1_split_0
I1010 14:31:09.037044  5799 net.cpp:408] accuracy -> accuracy
…
I1010 14:31:09.037629  5799 net.cpp:283] Network initialization done.
I1010 14:31:09.037847  5799 solver.cpp:181] Creating test net (#0) specified by test_net file: /home/adam/Honours/Honours-Project/cifar-10_allcnn/relu/allcnn_relu_test.prototxt
I1010 14:31:09.038017  5799 net.cpp:58] Initializing net from parameters: 
state {
  phase: TEST
}
layer {
  name: "data"
  type: "Data"
  top: "data"
  top: "label"
  transform_param {
    mean_file: "mean.binaryproto"
  }
  data_param {
    source: "../../../data/cifar-10/cifar10_test_lmdb"
    batch_size: 100
    backend: LMDB
  }
}
layer {
  name: "conv1"
  type: "Convolution"
  bottom: "data"
  top: "conv1"
  convolution_param {
    num_output: 96
    kernel_size: 3
    weight_filler {
      type: "xavier"
    }
  }
}
layer {
  name: "relu1"
  type: "ReLU"
  bottom: "conv1"
  top: "conv1"
}
layer {
  name: "conv2"
  type: "Convolution"
  bottom: "conv1"
  top: "conv2"
  convolution_param {
    num_output: 96
    kernel_size: 3
    weight_filler {
      type: "xavier"
    }
  }
}
layer {
  name: "bn1"
  type: "BatchNorm"
  bottom: "conv2"
  top: "bn1"
}
layer {
  name: "relu2"
  type: "ReLU"
  bottom: "bn1"
  top: "bn1"
}
layer {
  name: "drop1"
  type: "Dropout"
  bottom: "bn1"
  top: "drop1"
  dropout_param {
    dropout_ratio: 0.5
  }
}
layer {
  name: "conv3"
  type: "Convolution"
  bottom: "drop1"
  top: "conv3"
  convolution_param {
    num_output: 96
    kernel_size: 3
    stride: 2
    weight_filler {
      type: "xavier"
    }
  }
}
layer {
  name: "relu3"
  type: "ReLU"
  bottom: "conv3"
  top: "conv3"
}
layer {
  name: "conv4"
  type: "Convolution"
  bottom: "conv3"
  top: "conv4"
  convolution_param {
    num_output: 192
    kernel_size: 3
    weight_filler {
      type: "xavier"
    }
  }
}
layer {
  name: "relu4"
  type: "ReLU"
  bottom: "conv4"
  top: "conv4"
}
layer {
  name: "conv5"
  type: "Convolution"
  bottom: "conv4"
  top: "conv5"
  convolution_param {
    num_output: 192
    kernel_size: 3
    weight_filler {
      type: "xavier"
    }
  }
}
layer {
  name: "bn2"
  type: "BatchNorm"
  bottom: "conv5"
  top: "bn2"
}
layer {
  name: "relu5"
  type: "ReLU"
  bottom: "bn2"
  top: "bn2"
}
layer {
  name: "drop4"
  type: "Dropout"
  bottom: "bn2"
  top: "drop4"
  dropout_param {
    dropout_ratio: 0.5
  }
}
layer {
  name: "conv6"
  type: "Convolution"
  bottom: "drop4"
  top: "conv6"
  convolution_param {
    num_output: 192
    kernel_size: 3
    stride: 2
    weight_filler {
      type: "xavier"
    }
  }
}
layer {
  name: "relu6"
  type: "ReLU"
  bottom: "conv6"
  top: "conv6"
}
layer {
  name: "conv7"
  type: "Convolution"
  bottom: "conv6"
  top: "conv7"
  convolution_param {
    num_output: 192
    kernel_size: 3
    weight_filler {
      type: "xavier"
    }
  }
}
layer {
  name: "relu7"
  type: "ReLU"
  bottom: "conv7"
  top: "conv7"
}
layer {
  name: "conv8"
  type: "Convolution"
  bottom: "conv7"
  top: "conv8"
  convolution_param {
    num_output: 192
    kernel_size: 1
    weight_filler {
      type: "xavier"
    }
  }
}
layer {
  name: "relu8"
  type: "ReLU"
  bottom: "conv8"
  top: "conv8"
}
layer {
  name: "conv9"
  type: "Convolution"
  bottom: "conv8"
  top: "conv9"
  convolution_param {
    num_output: 10
    kernel_size: 1
    weight_filler {
      type: "xavier"
    }
  }
}
layer {
  name: "relu9"
  type: "ReLU"
  bottom: "conv9"
  top: "conv9"
}
layer {
  name: "pool"
  type: "Pooling"
  bottom: "conv9"
  top: "pool"
  pooling_param {
    pool: AVE
    global_pooling: true
  }
}
layer {
  name: "flatten"
  type: "Flatten"
  bottom: "pool"
  top: "flatten"
}
layer {
  name: "score"
  type: "InnerProduct"
  bottom: "flatten"
  top: "score"
  inner_product_param {
    num_output: 10
    weight_filler {
      type: "gaussian"
    }
  }
}
layer {
  name: "accuracy"
  type: "Accuracy"
  bottom: "score"
  bottom: "label"
  top: "accuracy"
}
layer {
  name: "loss"
  type: "SoftmaxWithLoss"
  bottom: "score"
  bottom: "label"
  top: "loss"
}
I1010 14:31:09.038148  5799 layer_factory.hpp:77] Creating layer data
I1010 14:31:09.038229  5799 net.cpp:100] Creating Layer data
I1010 14:31:09.038236  5799 net.cpp:408] data -> data
I1010 14:31:09.038244  5799 net.cpp:408] data -> label
I1010 14:31:09.038249  5799 data_transformer.cpp:25] Loading mean file from: mean.binaryproto
I1010 14:31:09.039057  5806 db_lmdb.cpp:35] Opened lmdb ../../../data/cifar-10/cifar10_test_lmdb
I1010 14:31:09.039162  5799 data_layer.cpp:41] output data size: 100,3,32,32
I1010 14:31:09.041213  5799 net.cpp:150] Setting up data
I1010 14:31:09.041249  5799 net.cpp:157] Top shape: 100 3 32 32 (307200)
I1010 14:31:09.041252  5799 net.cpp:157] Top shape: 100 (100)
I1010 14:31:09.041254  5799 net.cpp:165] Memory required for data: 1229200
I1010 14:31:09.041259  5799 layer_factory.hpp:77] Creating layer label_data_1_split
I1010 14:31:09.041281  5799 net.cpp:100] Creating Layer label_data_1_split
I1010 14:31:09.041285  5799 net.cpp:434] label_data_1_split <- label
I1010 14:31:09.041304  5799 net.cpp:408] label_data_1_split -> label_data_1_split_0
I1010 14:31:09.041312  5799 net.cpp:408] label_data_1_split -> label_data_1_split_1
I1010 14:31:09.041380  5799 net.cpp:150] Setting up label_data_1_split
I1010 14:31:09.041386  5799 net.cpp:157] Top shape: 100 (100)
I1010 14:31:09.041388  5799 net.cpp:157] Top shape: 100 (100)
I1010 14:31:09.041390  5799 net.cpp:165] Memory required for data: 1230000
I1010 14:31:09.041393  5799 layer_factory.hpp:77] Creating layer conv1
I1010 14:31:09.041401  5799 net.cpp:100] Creating Layer conv1
I1010 14:31:09.041404  5799 net.cpp:434] conv1 <- data
I1010 14:31:09.041407  5799 net.cpp:408] conv1 -> conv1
I1010 14:31:09.042500  5799 net.cpp:150] Setting up conv1
I1010 14:31:09.042526  5799 net.cpp:157] Top shape: 100 96 30 30 (8640000)
I1010 14:31:09.042528  5799 net.cpp:165] Memory required for data: 35790000
I1010 14:31:09.042536  5799 layer_factory.hpp:77] Creating layer relu1
I1010 14:31:09.042541  5799 net.cpp:100] Creating Layer relu1
I1010 14:31:09.042546  5799 net.cpp:434] relu1 <- conv1
I1010 14:31:09.042549  5799 net.cpp:395] relu1 -> conv1 (in-place)
I1010 14:31:09.042717  5799 net.cpp:150] Setting up relu1
I1010 14:31:09.042723  5799 net.cpp:157] Top shape: 100 96 30 30 (8640000)
I1010 14:31:09.042742  5799 net.cpp:165] Memory required for data: 70350000
I1010 14:31:09.042743  5799 layer_factory.hpp:77] Creating layer conv2
I1010 14:31:09.042750  5799 net.cpp:100] Creating Layer conv2
I1010 14:31:09.042753  5799 net.cpp:434] conv2 <- conv1
I1010 14:31:09.042758  5799 net.cpp:408] conv2 -> conv2
I1010 14:31:09.044140  5799 net.cpp:150] Setting up conv2
I1010 14:31:09.044165  5799 net.cpp:157] Top shape: 100 96 28 28 (7526400)
I1010 14:31:09.044168  5799 net.cpp:165] Memory required for data: 100455600
I1010 14:31:09.044174  5799 layer_factory.hpp:77] Creating layer bn1
I1010 14:31:09.044180  5799 net.cpp:100] Creating Layer bn1
I1010 14:31:09.044183  5799 net.cpp:434] bn1 <- conv2
I1010 14:31:09.044198  5799 net.cpp:408] bn1 -> bn1
I1010 14:31:09.044400  5799 net.cpp:150] Setting up bn1
I1010 14:31:09.044411  5799 net.cpp:157] Top shape: 100 96 28 28 (7526400)
I1010 14:31:09.044428  5799 net.cpp:165] Memory required for data: 130561200
I1010 14:31:09.044435  5799 layer_factory.hpp:77] Creating layer relu2
I1010 14:31:09.044456  5799 net.cpp:100] Creating Layer relu2
I1010 14:31:09.044457  5799 net.cpp:434] relu2 <- bn1
I1010 14:31:09.044461  5799 net.cpp:395] relu2 -> bn1 (in-place)
I1010 14:31:09.044724  5799 net.cpp:150] Setting up relu2
I1010 14:31:09.044746  5799 net.cpp:157] Top shape: 100 96 28 28 (7526400)
I1010 14:31:09.044749  5799 net.cpp:165] Memory required for data: 160666800
I1010 14:31:09.044751  5799 layer_factory.hpp:77] Creating layer drop1
I1010 14:31:09.044756  5799 net.cpp:100] Creating Layer drop1
I1010 14:31:09.044759  5799 net.cpp:434] drop1 <- bn1
I1010 14:31:09.044762  5799 net.cpp:408] drop1 -> drop1
I1010 14:31:09.044814  5799 net.cpp:150] Setting up drop1
I1010 14:31:09.044819  5799 net.cpp:157] Top shape: 100 96 28 28 (7526400)
I1010 14:31:09.044836  5799 net.cpp:165] Memory required for data: 190772400
I1010 14:31:09.044838  5799 layer_factory.hpp:77] Creating layer conv3
I1010 14:31:09.044847  5799 net.cpp:100] Creating Layer conv3
I1010 14:31:09.044849  5799 net.cpp:434] conv3 <- drop1
I1010 14:31:09.044852  5799 net.cpp:408] conv3 -> conv3
I1010 14:31:09.046231  5799 net.cpp:150] Setting up conv3
I1010 14:31:09.046241  5799 net.cpp:157] Top shape: 100 96 13 13 (1622400)
I1010 14:31:09.046243  5799 net.cpp:165] Memory required for data: 197262000
I1010 14:31:09.046250  5799 layer_factory.hpp:77] Creating layer relu3
I1010 14:31:09.046257  5799 net.cpp:100] Creating Layer relu3
I1010 14:31:09.046259  5799 net.cpp:434] relu3 <- conv3
I1010 14:31:09.046264  5799 net.cpp:395] relu3 -> conv3 (in-place)
I1010 14:31:09.046494  5799 net.cpp:150] Setting up relu3
I1010 14:31:09.046502  5799 net.cpp:157] Top shape: 100 96 13 13 (1622400)
I1010 14:31:09.046505  5799 net.cpp:165] Memory required for data: 203751600
I1010 14:31:09.046507  5799 layer_factory.hpp:77] Creating layer conv4
I1010 14:31:09.046515  5799 net.cpp:100] Creating Layer conv4
I1010 14:31:09.046519  5799 net.cpp:434] conv4 <- conv3
I1010 14:31:09.046522  5799 net.cpp:408] conv4 -> conv4
I1010 14:31:09.048638  5799 net.cpp:150] Setting up conv4
I1010 14:31:09.048655  5799 net.cpp:157] Top shape: 100 192 11 11 (2323200)
I1010 14:31:09.048656  5799 net.cpp:165] Memory required for data: 213044400
I1010 14:31:09.048662  5799 layer_factory.hpp:77] Creating layer relu4
I1010 14:31:09.048681  5799 net.cpp:100] Creating Layer relu4
I1010 14:31:09.048684  5799 net.cpp:434] relu4 <- conv4
I1010 14:31:09.048687  5799 net.cpp:395] relu4 -> conv4 (in-place)
I1010 14:31:09.048882  5799 net.cpp:150] Setting up relu4
I1010 14:31:09.048888  5799 net.cpp:157] Top shape: 100 192 11 11 (2323200)
I1010 14:31:09.048890  5799 net.cpp:165] Memory required for data: 222337200
I1010 14:31:09.048892  5799 layer_factory.hpp:77] Creating layer conv5
I1010 14:31:09.048898  5799 net.cpp:100] Creating Layer conv5
I1010 14:31:09.048913  5799 net.cpp:434] conv5 <- conv4
I1010 14:31:09.048918  5799 net.cpp:408] conv5 -> conv5
I1010 14:31:09.051622  5799 net.cpp:150] Setting up conv5
I1010 14:31:09.051633  5799 net.cpp:157] Top shape: 100 192 9 9 (1555200)
I1010 14:31:09.051636  5799 net.cpp:165] Memory required for data: 228558000
I1010 14:31:09.051640  5799 layer_factory.hpp:77] Creating layer bn2
I1010 14:31:09.051645  5799 net.cpp:100] Creating Layer bn2
I1010 14:31:09.051646  5799 net.cpp:434] bn2 <- conv5
I1010 14:31:09.051651  5799 net.cpp:408] bn2 -> bn2
I1010 14:31:09.051864  5799 net.cpp:150] Setting up bn2
I1010 14:31:09.051869  5799 net.cpp:157] Top shape: 100 192 9 9 (1555200)
I1010 14:31:09.051872  5799 net.cpp:165] Memory required for data: 234778800
I1010 14:31:09.051875  5799 layer_factory.hpp:77] Creating layer relu5
I1010 14:31:09.051879  5799 net.cpp:100] Creating Layer relu5
I1010 14:31:09.051882  5799 net.cpp:434] relu5 <- bn2
I1010 14:31:09.051894  5799 net.cpp:395] relu5 -> bn2 (in-place)
I1010 14:31:09.052171  5799 net.cpp:150] Setting up relu5
I1010 14:31:09.052180  5799 net.cpp:157] Top shape: 100 192 9 9 (1555200)
I1010 14:31:09.052181  5799 net.cpp:165] Memory required for data: 240999600
I1010 14:31:09.052183  5799 layer_factory.hpp:77] Creating layer drop4
I1010 14:31:09.052187  5799 net.cpp:100] Creating Layer drop4
I1010 14:31:09.052189  5799 net.cpp:434] drop4 <- bn2
I1010 14:31:09.052193  5799 net.cpp:408] drop4 -> drop4
I1010 14:31:09.052255  5799 net.cpp:150] Setting up drop4
I1010 14:31:09.052273  5799 net.cpp:157] Top shape: 100 192 9 9 (1555200)
I1010 14:31:09.052275  5799 net.cpp:165] Memory required for data: 247220400
I1010 14:31:09.052278  5799 layer_factory.hpp:77] Creating layer conv6
I1010 14:31:09.052300  5799 net.cpp:100] Creating Layer conv6
I1010 14:31:09.052302  5799 net.cpp:434] conv6 <- drop4
I1010 14:31:09.052305  5799 net.cpp:408] conv6 -> conv6
I1010 14:31:09.054874  5799 net.cpp:150] Setting up conv6
I1010 14:31:09.054884  5799 net.cpp:157] Top shape: 100 192 4 4 (307200)
I1010 14:31:09.054888  5799 net.cpp:165] Memory required for data: 248449200
I1010 14:31:09.054895  5799 layer_factory.hpp:77] Creating layer relu6
I1010 14:31:09.054900  5799 net.cpp:100] Creating Layer relu6
I1010 14:31:09.054903  5799 net.cpp:434] relu6 <- conv6
I1010 14:31:09.054905  5799 net.cpp:395] relu6 -> conv6 (in-place)
I1010 14:31:09.055163  5799 net.cpp:150] Setting up relu6
I1010 14:31:09.055172  5799 net.cpp:157] Top shape: 100 192 4 4 (307200)
I1010 14:31:09.055174  5799 net.cpp:165] Memory required for data: 249678000
I1010 14:31:09.055176  5799 layer_factory.hpp:77] Creating layer conv7
I1010 14:31:09.055181  5799 net.cpp:100] Creating Layer conv7
I1010 14:31:09.055183  5799 net.cpp:434] conv7 <- conv6
I1010 14:31:09.055188  5799 net.cpp:408] conv7 -> conv7
I1010 14:31:09.057807  5799 net.cpp:150] Setting up conv7
I1010 14:31:09.057818  5799 net.cpp:157] Top shape: 100 192 2 2 (76800)
I1010 14:31:09.057821  5799 net.cpp:165] Memory required for data: 249985200
I1010 14:31:09.057824  5799 layer_factory.hpp:77] Creating layer relu7
I1010 14:31:09.057828  5799 net.cpp:100] Creating Layer relu7
I1010 14:31:09.057831  5799 net.cpp:434] relu7 <- conv7
I1010 14:31:09.057833  5799 net.cpp:395] relu7 -> conv7 (in-place)
I1010 14:31:09.058007  5799 net.cpp:150] Setting up relu7
I1010 14:31:09.058012  5799 net.cpp:157] Top shape: 100 192 2 2 (76800)
I1010 14:31:09.058014  5799 net.cpp:165] Memory required for data: 250292400
I1010 14:31:09.058017  5799 layer_factory.hpp:77] Creating layer conv8
I1010 14:31:09.058022  5799 net.cpp:100] Creating Layer conv8
I1010 14:31:09.058024  5799 net.cpp:434] conv8 <- conv7
I1010 14:31:09.058028  5799 net.cpp:408] conv8 -> conv8
I1010 14:31:09.059015  5799 net.cpp:150] Setting up conv8
I1010 14:31:09.059025  5799 net.cpp:157] Top shape: 100 192 2 2 (76800)
I1010 14:31:09.059026  5799 net.cpp:165] Memory required for data: 250599600
I1010 14:31:09.059031  5799 layer_factory.hpp:77] Creating layer relu8
I1010 14:31:09.059033  5799 net.cpp:100] Creating Layer relu8
I1010 14:31:09.059036  5799 net.cpp:434] relu8 <- conv8
I1010 14:31:09.059038  5799 net.cpp:395] relu8 -> conv8 (in-place)
I1010 14:31:09.059298  5799 net.cpp:150] Setting up relu8
I1010 14:31:09.059306  5799 net.cpp:157] Top shape: 100 192 2 2 (76800)
I1010 14:31:09.059309  5799 net.cpp:165] Memory required for data: 250906800
I1010 14:31:09.059310  5799 layer_factory.hpp:77] Creating layer conv9
I1010 14:31:09.059316  5799 net.cpp:100] Creating Layer conv9
I1010 14:31:09.059319  5799 net.cpp:434] conv9 <- conv8
I1010 14:31:09.059322  5799 net.cpp:408] conv9 -> conv9
I1010 14:31:09.060082  5799 net.cpp:150] Setting up conv9
I1010 14:31:09.060091  5799 net.cpp:157] Top shape: 100 10 2 2 (4000)
I1010 14:31:09.060093  5799 net.cpp:165] Memory required for data: 250922800
I1010 14:31:09.060097  5799 layer_factory.hpp:77] Creating layer relu9
I1010 14:31:09.060101  5799 net.cpp:100] Creating Layer relu9
I1010 14:31:09.060103  5799 net.cpp:434] relu9 <- conv9
I1010 14:31:09.060117  5799 net.cpp:395] relu9 -> conv9 (in-place)
I1010 14:31:09.060403  5799 net.cpp:150] Setting up relu9
I1010 14:31:09.060411  5799 net.cpp:157] Top shape: 100 10 2 2 (4000)
I1010 14:31:09.060413  5799 net.cpp:165] Memory required for data: 250938800
I1010 14:31:09.060415  5799 layer_factory.hpp:77] Creating layer pool
I1010 14:31:09.060420  5799 net.cpp:100] Creating Layer pool
I1010 14:31:09.060421  5799 net.cpp:434] pool <- conv9
I1010 14:31:09.060425  5799 net.cpp:408] pool -> pool
I1010 14:31:09.060611  5799 net.cpp:150] Setting up pool
I1010 14:31:09.060616  5799 net.cpp:157] Top shape: 100 10 1 1 (1000)
I1010 14:31:09.060618  5799 net.cpp:165] Memory required for data: 250942800
I1010 14:31:09.060621  5799 layer_factory.hpp:77] Creating layer flatten
I1010 14:31:09.060626  5799 net.cpp:100] Creating Layer flatten
I1010 14:31:09.060627  5799 net.cpp:434] flatten <- pool
I1010 14:31:09.060631  5799 net.cpp:408] flatten -> flatten
I1010 14:31:09.060665  5799 net.cpp:150] Setting up flatten
I1010 14:31:09.060670  5799 net.cpp:157] Top shape: 100 10 (1000)
I1010 14:31:09.060672  5799 net.cpp:165] Memory required for data: 250946800
I1010 14:31:09.060673  5799 layer_factory.hpp:77] Creating layer score
I1010 14:31:09.060678  5799 net.cpp:100] Creating Layer score
I1010 14:31:09.060680  5799 net.cpp:434] score <- flatten
I1010 14:31:09.060698  5799 net.cpp:408] score -> score
I1010 14:31:09.060835  5799 net.cpp:150] Setting up score
I1010 14:31:09.060840  5799 net.cpp:157] Top shape: 100 10 (1000)
I1010 14:31:09.060842  5799 net.cpp:165] Memory required for data: 250950800
I1010 14:31:09.060847  5799 layer_factory.hpp:77] Creating layer score_score_0_split
I1010 14:31:09.060852  5799 net.cpp:100] Creating Layer score_score_0_split
I1010 14:31:09.060854  5799 net.cpp:434] score_score_0_split <- score
I1010 14:31:09.060873  5799 net.cpp:408] score_score_0_split -> score_score_0_split_0
I1010 14:31:09.060878  5799 net.cpp:408] score_score_0_split -> score_score_0_split_1
I1010 14:31:09.060940  5799 net.cpp:150] Setting up score_score_0_split
I1010 14:31:09.060945  5799 net.cpp:157] Top shape: 100 10 (1000)
I1010 14:31:09.060947  5799 net.cpp:157] Top shape: 100 10 (1000)
I1010 14:31:09.060950  5799 net.cpp:165] Memory required for data: 250958800
I1010 14:31:09.060951  5799 layer_factory.hpp:77] Creating layer accuracy
I1010 14:31:09.060956  5799 net.cpp:100] Creating Layer accuracy
I1010 14:31:09.060957  5799 net.cpp:434] accuracy <- score_score_0_split_0
I1010 14:31:09.060961  5799 net.cpp:434] accuracy <- label_data_1_split_0
I1010 14:31:09.060964  5799 net.cpp:408] accuracy -> accuracy
…
