…
  stage: ""
}
type: "AdaDelta"
I1012 07:53:39.432845  9941 solver.cpp:81] Creating training net from train_net file: /home/adam/Honours/Honours-Project/cifar-10_allcnn/elu/allcnn_elu_train.prototxt
I1012 07:53:39.433156  9941 net.cpp:58] Initializing net from parameters: 
state {
  phase: TRAIN
  level: 0
  stage: ""
}
layer {
  name: "data"
  type: "Data"
  top: "data"
  top: "label"
  transform_param {
    mean_file: "mean.binaryproto"
  }
  data_param {
    source: "../../../data/cifar-10/cifar10_train_lmdb"
    batch_size: 64
    backend: LMDB
  }
}
layer {
  name: "conv1"
  type: "Convolution"
  bottom: "data"
  top: "conv1"
  convolution_param {
    num_output: 96
    kernel_size: 3
    weight_filler {
      type: "xavier"
    }
  }
}
layer {
  name: "conv2"
  type: "Convolution"
  bottom: "conv1"
  top: "conv2"
  convolution_param {
    num_output: 96
    kernel_size: 3
    weight_filler {
      type: "xavier"
    }
  }
}
layer {
  name: "bn1"
  type: "BatchNorm"
  bottom: "conv2"
  top: "bn1"
}
layer {
  name: "conv3"
  type: "Convolution"
  bottom: "bn1"
  top: "conv3"
  convolution_param {
    num_output: 96
    kernel_size: 3
    stride: 2
    weight_filler {
      type: "xavier"
    }
  }
}
layer {
  name: "drop1"
  type: "Dropout"
  bottom: "conv3"
  top: "drop1"
  dropout_param {
    dropout_ratio: 0.5
  }
}
layer {
  name: "elu3"
  type: "ELU"
  bottom: "drop1"
  top: "drop1"
}
layer {
  name: "conv4"
  type: "Convolution"
  bottom: "drop1"
  top: "conv4"
  convolution_param {
    num_output: 192
    kernel_size: 3
    weight_filler {
      type: "xavier"
    }
  }
}
layer {
  name: "conv5"
  type: "Convolution"
  bottom: "conv4"
  top: "conv5"
  convolution_param {
    num_output: 192
    kernel_size: 3
    weight_filler {
      type: "xavier"
    }
  }
}
layer {
  name: "bn2"
  type: "BatchNorm"
  bottom: "conv5"
  top: "bn2"
}
layer {
  name: "conv6"
  type: "Convolution"
  bottom: "bn2"
  top: "conv6"
  convolution_param {
    num_output: 192
    kernel_size: 3
    stride: 2
    weight_filler {
      type: "xavier"
    }
  }
}
layer {
  name: "drop4"
  type: "Dropout"
  bottom: "conv6"
  top: "drop4"
  dropout_param {
    dropout_ratio: 0.5
  }
}
layer {
  name: "elu6"
  type: "ELU"
  bottom: "drop4"
  top: "drop4"
}
layer {
  name: "conv7"
  type: "Convolution"
  bottom: "drop4"
  top: "conv7"
  convolution_param {
    num_output: 192
    kernel_size: 3
    weight_filler {
      type: "xavier"
    }
  }
}
layer {
  name: "elu7"
  type: "ELU"
  bottom: "conv7"
  top: "conv7"
}
layer {
  name: "conv8"
  type: "Convolution"
  bottom: "conv7"
  top: "conv8"
  convolution_param {
    num_output: 192
    kernel_size: 1
    weight_filler {
      type: "xavier"
    }
  }
}
layer {
  name: "elu8"
  type: "ELU"
  bottom: "conv8"
  top: "conv8"
}
layer {
  name: "conv9"
  type: "Convolution"
  bottom: "conv8"
  top: "conv9"
  convolution_param {
    num_output: 10
    kernel_size: 1
    weight_filler {
      type: "xavier"
    }
  }
}
layer {
  name: "elu9"
  type: "ELU"
  bottom: "conv9"
  top: "conv9"
}
layer {
  name: "pool"
  type: "Pooling"
  bottom: "conv9"
  top: "pool"
  pooling_param {
    pool: AVE
    global_pooling: true
  }
}
layer {
  name: "flatten"
  type: "Flatten"
  bottom: "pool"
  top: "flatten"
}
layer {
  name: "score"
  type: "InnerProduct"
  bottom: "flatten"
  top: "score"
  inner_product_param {
    num_output: 10
    weight_filler {
      type: "gaussian"
    }
  }
}
layer {
  name: "accuracy"
  type: "Accuracy"
  bottom: "score"
  bottom: "label"
  top: "accuracy"
}
layer {
  name: "loss"
  type: "SoftmaxWithLoss"
  bottom: "score"
  bottom: "label"
  top: "loss"
}
I1012 07:53:39.433307  9941 layer_factory.hpp:77] Creating layer data
I1012 07:53:39.433820  9941 net.cpp:100] Creating Layer data
I1012 07:53:39.433842  9941 net.cpp:408] data -> data
I1012 07:53:39.433861  9941 net.cpp:408] data -> label
I1012 07:53:39.433887  9941 data_transformer.cpp:25] Loading mean file from: mean.binaryproto
I1012 07:53:39.434571  9946 db_lmdb.cpp:35] Opened lmdb ../../../data/cifar-10/cifar10_train_lmdb
I1012 07:53:39.459024  9941 data_layer.cpp:41] output data size: 64,3,32,32
I1012 07:53:39.461117  9941 net.cpp:150] Setting up data
I1012 07:53:39.461153  9941 net.cpp:157] Top shape: 64 3 32 32 (196608)
I1012 07:53:39.461158  9941 net.cpp:157] Top shape: 64 (64)
I1012 07:53:39.461174  9941 net.cpp:165] Memory required for data: 786688
I1012 07:53:39.461194  9941 layer_factory.hpp:77] Creating layer label_data_1_split
I1012 07:53:39.461205  9941 net.cpp:100] Creating Layer label_data_1_split
I1012 07:53:39.461208  9941 net.cpp:434] label_data_1_split <- label
I1012 07:53:39.461232  9941 net.cpp:408] label_data_1_split -> label_data_1_split_0
I1012 07:53:39.461241  9941 net.cpp:408] label_data_1_split -> label_data_1_split_1
I1012 07:53:39.461277  9941 net.cpp:150] Setting up label_data_1_split
I1012 07:53:39.461282  9941 net.cpp:157] Top shape: 64 (64)
I1012 07:53:39.461284  9941 net.cpp:157] Top shape: 64 (64)
I1012 07:53:39.461287  9941 net.cpp:165] Memory required for data: 787200
I1012 07:53:39.461288  9941 layer_factory.hpp:77] Creating layer conv1
I1012 07:53:39.461300  9941 net.cpp:100] Creating Layer conv1
I1012 07:53:39.461303  9941 net.cpp:434] conv1 <- data
I1012 07:53:39.461308  9941 net.cpp:408] conv1 -> conv1
I1012 07:53:39.597728  9941 net.cpp:150] Setting up conv1
I1012 07:53:39.597754  9941 net.cpp:157] Top shape: 64 96 30 30 (5529600)
I1012 07:53:39.597756  9941 net.cpp:165] Memory required for data: 22905600
I1012 07:53:39.597774  9941 layer_factory.hpp:77] Creating layer conv2
I1012 07:53:39.597785  9941 net.cpp:100] Creating Layer conv2
I1012 07:53:39.597787  9941 net.cpp:434] conv2 <- conv1
I1012 07:53:39.597792  9941 net.cpp:408] conv2 -> conv2
I1012 07:53:39.599103  9941 net.cpp:150] Setting up conv2
I1012 07:53:39.599113  9941 net.cpp:157] Top shape: 64 96 28 28 (4816896)
I1012 07:53:39.599115  9941 net.cpp:165] Memory required for data: 42173184
I1012 07:53:39.599123  9941 layer_factory.hpp:77] Creating layer bn1
I1012 07:53:39.599128  9941 net.cpp:100] Creating Layer bn1
I1012 07:53:39.599130  9941 net.cpp:434] bn1 <- conv2
I1012 07:53:39.599134  9941 net.cpp:408] bn1 -> bn1
I1012 07:53:39.599318  9941 net.cpp:150] Setting up bn1
I1012 07:53:39.599323  9941 net.cpp:157] Top shape: 64 96 28 28 (4816896)
I1012 07:53:39.599325  9941 net.cpp:165] Memory required for data: 61440768
I1012 07:53:39.599331  9941 layer_factory.hpp:77] Creating layer conv3
I1012 07:53:39.599337  9941 net.cpp:100] Creating Layer conv3
I1012 07:53:39.599339  9941 net.cpp:434] conv3 <- bn1
I1012 07:53:39.599344  9941 net.cpp:408] conv3 -> conv3
I1012 07:53:39.600550  9941 net.cpp:150] Setting up conv3
I1012 07:53:39.600559  9941 net.cpp:157] Top shape: 64 96 13 13 (1038336)
I1012 07:53:39.600561  9941 net.cpp:165] Memory required for data: 65594112
I1012 07:53:39.600569  9941 layer_factory.hpp:77] Creating layer drop1
I1012 07:53:39.600572  9941 net.cpp:100] Creating Layer drop1
I1012 07:53:39.600574  9941 net.cpp:434] drop1 <- conv3
I1012 07:53:39.600579  9941 net.cpp:408] drop1 -> drop1
I1012 07:53:39.600626  9941 net.cpp:150] Setting up drop1
I1012 07:53:39.600646  9941 net.cpp:157] Top shape: 64 96 13 13 (1038336)
I1012 07:53:39.600647  9941 net.cpp:165] Memory required for data: 69747456
I1012 07:53:39.600649  9941 layer_factory.hpp:77] Creating layer elu3
I1012 07:53:39.600672  9941 net.cpp:100] Creating Layer elu3
I1012 07:53:39.600687  9941 net.cpp:434] elu3 <- drop1
I1012 07:53:39.600690  9941 net.cpp:395] elu3 -> drop1 (in-place)
I1012 07:53:39.600705  9941 net.cpp:150] Setting up elu3
I1012 07:53:39.600724  9941 net.cpp:157] Top shape: 64 96 13 13 (1038336)
I1012 07:53:39.600728  9941 net.cpp:165] Memory required for data: 73900800
I1012 07:53:39.600730  9941 layer_factory.hpp:77] Creating layer conv4
I1012 07:53:39.600749  9941 net.cpp:100] Creating Layer conv4
I1012 07:53:39.600752  9941 net.cpp:434] conv4 <- drop1
I1012 07:53:39.600775  9941 net.cpp:408] conv4 -> conv4
I1012 07:53:39.602608  9941 net.cpp:150] Setting up conv4
I1012 07:53:39.602618  9941 net.cpp:157] Top shape: 64 192 11 11 (1486848)
I1012 07:53:39.602620  9941 net.cpp:165] Memory required for data: 79848192
I1012 07:53:39.602625  9941 layer_factory.hpp:77] Creating layer conv5
I1012 07:53:39.602632  9941 net.cpp:100] Creating Layer conv5
I1012 07:53:39.602634  9941 net.cpp:434] conv5 <- conv4
I1012 07:53:39.602638  9941 net.cpp:408] conv5 -> conv5
I1012 07:53:39.605141  9941 net.cpp:150] Setting up conv5
I1012 07:53:39.605151  9941 net.cpp:157] Top shape: 64 192 9 9 (995328)
I1012 07:53:39.605154  9941 net.cpp:165] Memory required for data: 83829504
I1012 07:53:39.605159  9941 layer_factory.hpp:77] Creating layer bn2
I1012 07:53:39.605162  9941 net.cpp:100] Creating Layer bn2
I1012 07:53:39.605165  9941 net.cpp:434] bn2 <- conv5
I1012 07:53:39.605167  9941 net.cpp:408] bn2 -> bn2
I1012 07:53:39.605376  9941 net.cpp:150] Setting up bn2
I1012 07:53:39.605381  9941 net.cpp:157] Top shape: 64 192 9 9 (995328)
I1012 07:53:39.605382  9941 net.cpp:165] Memory required for data: 87810816
I1012 07:53:39.605387  9941 layer_factory.hpp:77] Creating layer conv6
I1012 07:53:39.605393  9941 net.cpp:100] Creating Layer conv6
I1012 07:53:39.605397  9941 net.cpp:434] conv6 <- bn2
I1012 07:53:39.605401  9941 net.cpp:408] conv6 -> conv6
I1012 07:53:39.607913  9941 net.cpp:150] Setting up conv6
I1012 07:53:39.607924  9941 net.cpp:157] Top shape: 64 192 4 4 (196608)
I1012 07:53:39.607926  9941 net.cpp:165] Memory required for data: 88597248
I1012 07:53:39.607935  9941 layer_factory.hpp:77] Creating layer drop4
I1012 07:53:39.607939  9941 net.cpp:100] Creating Layer drop4
I1012 07:53:39.607942  9941 net.cpp:434] drop4 <- conv6
I1012 07:53:39.607945  9941 net.cpp:408] drop4 -> drop4
I1012 07:53:39.607990  9941 net.cpp:150] Setting up drop4
I1012 07:53:39.608009  9941 net.cpp:157] Top shape: 64 192 4 4 (196608)
I1012 07:53:39.608011  9941 net.cpp:165] Memory required for data: 89383680
I1012 07:53:39.608013  9941 layer_factory.hpp:77] Creating layer elu6
I1012 07:53:39.608029  9941 net.cpp:100] Creating Layer elu6
I1012 07:53:39.608031  9941 net.cpp:434] elu6 <- drop4
I1012 07:53:39.608036  9941 net.cpp:395] elu6 -> drop4 (in-place)
I1012 07:53:39.608053  9941 net.cpp:150] Setting up elu6
I1012 07:53:39.608055  9941 net.cpp:157] Top shape: 64 192 4 4 (196608)
I1012 07:53:39.608057  9941 net.cpp:165] Memory required for data: 90170112
I1012 07:53:39.608059  9941 layer_factory.hpp:77] Creating layer conv7
I1012 07:53:39.608065  9941 net.cpp:100] Creating Layer conv7
I1012 07:53:39.608067  9941 net.cpp:434] conv7 <- drop4
I1012 07:53:39.608070  9941 net.cpp:408] conv7 -> conv7
I1012 07:53:39.611063  9941 net.cpp:150] Setting up conv7
I1012 07:53:39.611083  9941 net.cpp:157] Top shape: 64 192 2 2 (49152)
I1012 07:53:39.611085  9941 net.cpp:165] Memory required for data: 90366720
I1012 07:53:39.611104  9941 layer_factory.hpp:77] Creating layer elu7
I1012 07:53:39.611110  9941 net.cpp:100] Creating Layer elu7
I1012 07:53:39.611114  9941 net.cpp:434] elu7 <- conv7
I1012 07:53:39.611116  9941 net.cpp:395] elu7 -> conv7 (in-place)
I1012 07:53:39.611121  9941 net.cpp:150] Setting up elu7
I1012 07:53:39.611124  9941 net.cpp:157] Top shape: 64 192 2 2 (49152)
I1012 07:53:39.611126  9941 net.cpp:165] Memory required for data: 90563328
I1012 07:53:39.611142  9941 layer_factory.hpp:77] Creating layer conv8
I1012 07:53:39.611152  9941 net.cpp:100] Creating Layer conv8
I1012 07:53:39.611155  9941 net.cpp:434] conv8 <- conv7
I1012 07:53:39.611158  9941 net.cpp:408] conv8 -> conv8
I1012 07:53:39.612443  9941 net.cpp:150] Setting up conv8
I1012 07:53:39.612462  9941 net.cpp:157] Top shape: 64 192 2 2 (49152)
I1012 07:53:39.612464  9941 net.cpp:165] Memory required for data: 90759936
I1012 07:53:39.612469  9941 layer_factory.hpp:77] Creating layer elu8
I1012 07:53:39.612474  9941 net.cpp:100] Creating Layer elu8
I1012 07:53:39.612476  9941 net.cpp:434] elu8 <- conv8
I1012 07:53:39.612479  9941 net.cpp:395] elu8 -> conv8 (in-place)
I1012 07:53:39.612483  9941 net.cpp:150] Setting up elu8
I1012 07:53:39.612486  9941 net.cpp:157] Top shape: 64 192 2 2 (49152)
I1012 07:53:39.612488  9941 net.cpp:165] Memory required for data: 90956544
I1012 07:53:39.612490  9941 layer_factory.hpp:77] Creating layer conv9
I1012 07:53:39.612509  9941 net.cpp:100] Creating Layer conv9
I1012 07:53:39.612511  9941 net.cpp:434] conv9 <- conv8
I1012 07:53:39.612515  9941 net.cpp:408] conv9 -> conv9
I1012 07:53:39.613319  9941 net.cpp:150] Setting up conv9
I1012 07:53:39.613329  9941 net.cpp:157] Top shape: 64 10 2 2 (2560)
I1012 07:53:39.613332  9941 net.cpp:165] Memory required for data: 90966784
I1012 07:53:39.613335  9941 layer_factory.hpp:77] Creating layer elu9
I1012 07:53:39.613339  9941 net.cpp:100] Creating Layer elu9
I1012 07:53:39.613342  9941 net.cpp:434] elu9 <- conv9
I1012 07:53:39.613345  9941 net.cpp:395] elu9 -> conv9 (in-place)
I1012 07:53:39.613349  9941 net.cpp:150] Setting up elu9
I1012 07:53:39.613353  9941 net.cpp:157] Top shape: 64 10 2 2 (2560)
I1012 07:53:39.613353  9941 net.cpp:165] Memory required for data: 90977024
I1012 07:53:39.613355  9941 layer_factory.hpp:77] Creating layer pool
I1012 07:53:39.613360  9941 net.cpp:100] Creating Layer pool
I1012 07:53:39.613363  9941 net.cpp:434] pool <- conv9
I1012 07:53:39.613379  9941 net.cpp:408] pool -> pool
I1012 07:53:39.613742  9941 net.cpp:150] Setting up pool
I1012 07:53:39.613750  9941 net.cpp:157] Top shape: 64 10 1 1 (640)
I1012 07:53:39.613752  9941 net.cpp:165] Memory required for data: 90979584
I1012 07:53:39.613754  9941 layer_factory.hpp:77] Creating layer flatten
I1012 07:53:39.613759  9941 net.cpp:100] Creating Layer flatten
I1012 07:53:39.613760  9941 net.cpp:434] flatten <- pool
I1012 07:53:39.613765  9941 net.cpp:408] flatten -> flatten
I1012 07:53:39.613782  9941 net.cpp:150] Setting up flatten
I1012 07:53:39.613801  9941 net.cpp:157] Top shape: 64 10 (640)
I1012 07:53:39.613802  9941 net.cpp:165] Memory required for data: 90982144
I1012 07:53:39.613804  9941 layer_factory.hpp:77] Creating layer score
I1012 07:53:39.613822  9941 net.cpp:100] Creating Layer score
I1012 07:53:39.613824  9941 net.cpp:434] score <- flatten
I1012 07:53:39.613828  9941 net.cpp:408] score -> score
I1012 07:53:39.613977  9941 net.cpp:150] Setting up score
I1012 07:53:39.613982  9941 net.cpp:157] Top shape: 64 10 (640)
I1012 07:53:39.613984  9941 net.cpp:165] Memory required for data: 90984704
I1012 07:53:39.613988  9941 layer_factory.hpp:77] Creating layer score_score_0_split
I1012 07:53:39.613992  9941 net.cpp:100] Creating Layer score_score_0_split
I1012 07:53:39.613994  9941 net.cpp:434] score_score_0_split <- score
I1012 07:53:39.613997  9941 net.cpp:408] score_score_0_split -> score_score_0_split_0
I1012 07:53:39.614002  9941 net.cpp:408] score_score_0_split -> score_score_0_split_1
I1012 07:53:39.614055  9941 net.cpp:150] Setting up score_score_0_split
I1012 07:53:39.614059  9941 net.cpp:157] Top shape: 64 10 (640)
I1012 07:53:39.614076  9941 net.cpp:157] Top shape: 64 10 (640)
I1012 07:53:39.614078  9941 net.cpp:165] Memory required for data: 90989824
I1012 07:53:39.614080  9941 layer_factory.hpp:77] Creating layer accuracy
I1012 07:53:39.614084  9941 net.cpp:100] Creating Layer accuracy
I1012 07:53:39.614086  9941 net.cpp:434] accuracy <- score_score_0_split_0
I1012 07:53:39.614089  9941 net.cpp:434] accuracy <- label_data_1_split_0
I1012 07:53:39.614092  9941 net.cpp:408] accuracy -> accuracy
…
I1012 07:53:39.614579  9941 net.cpp:283] Network initialization done.
I1012 07:53:39.614804  9941 solver.cpp:181] Creating test net (#0) specified by test_net file: /home/adam/Honours/Honours-Project/cifar-10_allcnn/elu/allcnn_elu_test.prototxt
I1012 07:53:39.614926  9941 net.cpp:58] Initializing net from parameters: 
state {
  phase: TEST
}
layer {
  name: "data"
  type: "Data"
  top: "data"
  top: "label"
  transform_param {
    mean_file: "mean.binaryproto"
  }
  data_param {
    source: "../../../data/cifar-10/cifar10_test_lmdb"
    batch_size: 100
    backend: LMDB
  }
}
layer {
  name: "conv1"
  type: "Convolution"
  bottom: "data"
  top: "conv1"
  convolution_param {
    num_output: 96
    kernel_size: 3
    weight_filler {
      type: "xavier"
    }
  }
}
layer {
  name: "conv2"
  type: "Convolution"
  bottom: "conv1"
  top: "conv2"
  convolution_param {
    num_output: 96
    kernel_size: 3
    weight_filler {
      type: "xavier"
    }
  }
}
layer {
  name: "bn1"
  type: "BatchNorm"
  bottom: "conv2"
  top: "bn1"
}
layer {
  name: "conv3"
  type: "Convolution"
  bottom: "bn1"
  top: "conv3"
  convolution_param {
    num_output: 96
    kernel_size: 3
    stride: 2
    weight_filler {
      type: "xavier"
    }
  }
}
layer {
  name: "drop1"
  type: "Dropout"
  bottom: "conv3"
  top: "drop1"
  dropout_param {
    dropout_ratio: 0.5
  }
}
layer {
  name: "elu3"
  type: "ELU"
  bottom: "drop1"
  top: "drop1"
}
layer {
  name: "conv4"
  type: "Convolution"
  bottom: "drop1"
  top: "conv4"
  convolution_param {
    num_output: 192
    kernel_size: 3
    weight_filler {
      type: "xavier"
    }
  }
}
layer {
  name: "conv5"
  type: "Convolution"
  bottom: "conv4"
  top: "conv5"
  convolution_param {
    num_output: 192
    kernel_size: 3
    weight_filler {
      type: "xavier"
    }
  }
}
layer {
  name: "bn2"
  type: "BatchNorm"
  bottom: "conv5"
  top: "bn2"
}
layer {
  name: "conv6"
  type: "Convolution"
  bottom: "bn2"
  top: "conv6"
  convolution_param {
    num_output: 192
    kernel_size: 3
    stride: 2
    weight_filler {
      type: "xavier"
    }
  }
}
layer {
  name: "drop4"
  type: "Dropout"
  bottom: "conv6"
  top: "drop4"
  dropout_param {
    dropout_ratio: 0.5
  }
}
layer {
  name: "elu6"
  type: "ELU"
  bottom: "drop4"
  top: "drop4"
}
layer {
  name: "conv7"
  type: "Convolution"
  bottom: "drop4"
  top: "conv7"
  convolution_param {
    num_output: 192
    kernel_size: 3
    weight_filler {
      type: "xavier"
    }
  }
}
layer {
  name: "elu7"
  type: "ELU"
  bottom: "conv7"
  top: "conv7"
}
layer {
  name: "conv8"
  type: "Convolution"
  bottom: "conv7"
  top: "conv8"
  convolution_param {
    num_output: 192
    kernel_size: 1
    weight_filler {
      type: "xavier"
    }
  }
}
layer {
  name: "elu8"
  type: "ELU"
  bottom: "conv8"
  top: "conv8"
}
layer {
  name: "conv9"
  type: "Convolution"
  bottom: "conv8"
  top: "conv9"
  convolution_param {
    num_output: 10
    kernel_size: 1
    weight_filler {
      type: "xavier"
    }
  }
}
layer {
  name: "elu9"
  type: "ELU"
  bottom: "conv9"
  top: "conv9"
}
layer {
  name: "pool"
  type: "Pooling"
  bottom: "conv9"
  top: "pool"
  pooling_param {
    pool: AVE
    global_pooling: true
  }
}
layer {
  name: "flatten"
  type: "Flatten"
  bottom: "pool"
  top: "flatten"
}
layer {
  name: "score"
  type: "InnerProduct"
  bottom: "flatten"
  top: "score"
  inner_product_param {
    num_output: 10
    weight_filler {
      type: "gaussian"
    }
  }
}
layer {
  name: "accuracy"
  type: "Accuracy"
  bottom: "score"
  bottom: "label"
  top: "accuracy"
}
layer {
  name: "loss"
  type: "SoftmaxWithLoss"
  bottom: "score"
  bottom: "label"
  top: "loss"
}
I1012 07:53:39.615036  9941 layer_factory.hpp:77] Creating layer data
I1012 07:53:39.615147  9941 net.cpp:100] Creating Layer data
I1012 07:53:39.615173  9941 net.cpp:408] data -> data
I1012 07:53:39.615195  9941 net.cpp:408] data -> label
I1012 07:53:39.615200  9941 data_transformer.cpp:25] Loading mean file from: mean.binaryproto
I1012 07:53:39.615928  9948 db_lmdb.cpp:35] Opened lmdb ../../../data/cifar-10/cifar10_test_lmdb
I1012 07:53:39.616032  9941 data_layer.cpp:41] output data size: 100,3,32,32
I1012 07:53:39.617818  9941 net.cpp:150] Setting up data
I1012 07:53:39.617858  9941 net.cpp:157] Top shape: 100 3 32 32 (307200)
I1012 07:53:39.617861  9941 net.cpp:157] Top shape: 100 (100)
I1012 07:53:39.617863  9941 net.cpp:165] Memory required for data: 1229200
I1012 07:53:39.617867  9941 layer_factory.hpp:77] Creating layer label_data_1_split
I1012 07:53:39.617875  9941 net.cpp:100] Creating Layer label_data_1_split
I1012 07:53:39.617878  9941 net.cpp:434] label_data_1_split <- label
I1012 07:53:39.617882  9941 net.cpp:408] label_data_1_split -> label_data_1_split_0
I1012 07:53:39.617905  9941 net.cpp:408] label_data_1_split -> label_data_1_split_1
I1012 07:53:39.618021  9941 net.cpp:150] Setting up label_data_1_split
I1012 07:53:39.618026  9941 net.cpp:157] Top shape: 100 (100)
I1012 07:53:39.618043  9941 net.cpp:157] Top shape: 100 (100)
I1012 07:53:39.618046  9941 net.cpp:165] Memory required for data: 1230000
I1012 07:53:39.618048  9941 layer_factory.hpp:77] Creating layer conv1
I1012 07:53:39.618057  9941 net.cpp:100] Creating Layer conv1
I1012 07:53:39.618060  9941 net.cpp:434] conv1 <- data
I1012 07:53:39.618065  9941 net.cpp:408] conv1 -> conv1
I1012 07:53:39.619158  9941 net.cpp:150] Setting up conv1
I1012 07:53:39.619190  9941 net.cpp:157] Top shape: 100 96 30 30 (8640000)
I1012 07:53:39.619195  9941 net.cpp:165] Memory required for data: 35790000
I1012 07:53:39.619220  9941 layer_factory.hpp:77] Creating layer conv2
I1012 07:53:39.619241  9941 net.cpp:100] Creating Layer conv2
I1012 07:53:39.619245  9941 net.cpp:434] conv2 <- conv1
I1012 07:53:39.619248  9941 net.cpp:408] conv2 -> conv2
I1012 07:53:39.620584  9941 net.cpp:150] Setting up conv2
I1012 07:53:39.620609  9941 net.cpp:157] Top shape: 100 96 28 28 (7526400)
I1012 07:53:39.620611  9941 net.cpp:165] Memory required for data: 65895600
I1012 07:53:39.620618  9941 layer_factory.hpp:77] Creating layer bn1
I1012 07:53:39.620625  9941 net.cpp:100] Creating Layer bn1
I1012 07:53:39.620626  9941 net.cpp:434] bn1 <- conv2
I1012 07:53:39.620631  9941 net.cpp:408] bn1 -> bn1
I1012 07:53:39.620884  9941 net.cpp:150] Setting up bn1
I1012 07:53:39.620892  9941 net.cpp:157] Top shape: 100 96 28 28 (7526400)
I1012 07:53:39.620894  9941 net.cpp:165] Memory required for data: 96001200
I1012 07:53:39.620900  9941 layer_factory.hpp:77] Creating layer conv3
I1012 07:53:39.620908  9941 net.cpp:100] Creating Layer conv3
I1012 07:53:39.620911  9941 net.cpp:434] conv3 <- bn1
I1012 07:53:39.620916  9941 net.cpp:408] conv3 -> conv3
I1012 07:53:39.622274  9941 net.cpp:150] Setting up conv3
I1012 07:53:39.622285  9941 net.cpp:157] Top shape: 100 96 13 13 (1622400)
I1012 07:53:39.622289  9941 net.cpp:165] Memory required for data: 102490800
I1012 07:53:39.622295  9941 layer_factory.hpp:77] Creating layer drop1
I1012 07:53:39.622303  9941 net.cpp:100] Creating Layer drop1
I1012 07:53:39.622319  9941 net.cpp:434] drop1 <- conv3
I1012 07:53:39.622326  9941 net.cpp:408] drop1 -> drop1
I1012 07:53:39.622365  9941 net.cpp:150] Setting up drop1
I1012 07:53:39.622370  9941 net.cpp:157] Top shape: 100 96 13 13 (1622400)
I1012 07:53:39.622373  9941 net.cpp:165] Memory required for data: 108980400
I1012 07:53:39.622375  9941 layer_factory.hpp:77] Creating layer elu3
I1012 07:53:39.622380  9941 net.cpp:100] Creating Layer elu3
I1012 07:53:39.622381  9941 net.cpp:434] elu3 <- drop1
I1012 07:53:39.622385  9941 net.cpp:395] elu3 -> drop1 (in-place)
I1012 07:53:39.622390  9941 net.cpp:150] Setting up elu3
I1012 07:53:39.622393  9941 net.cpp:157] Top shape: 100 96 13 13 (1622400)
I1012 07:53:39.622395  9941 net.cpp:165] Memory required for data: 115470000
I1012 07:53:39.622397  9941 layer_factory.hpp:77] Creating layer conv4
I1012 07:53:39.622405  9941 net.cpp:100] Creating Layer conv4
I1012 07:53:39.622409  9941 net.cpp:434] conv4 <- drop1
I1012 07:53:39.622412  9941 net.cpp:408] conv4 -> conv4
I1012 07:53:39.624191  9941 net.cpp:150] Setting up conv4
I1012 07:53:39.624202  9941 net.cpp:157] Top shape: 100 192 11 11 (2323200)
I1012 07:53:39.624204  9941 net.cpp:165] Memory required for data: 124762800
I1012 07:53:39.624208  9941 layer_factory.hpp:77] Creating layer conv5
I1012 07:53:39.624215  9941 net.cpp:100] Creating Layer conv5
I1012 07:53:39.624218  9941 net.cpp:434] conv5 <- conv4
I1012 07:53:39.624225  9941 net.cpp:408] conv5 -> conv5
I1012 07:53:39.628317  9941 net.cpp:150] Setting up conv5
I1012 07:53:39.628334  9941 net.cpp:157] Top shape: 100 192 9 9 (1555200)
I1012 07:53:39.628336  9941 net.cpp:165] Memory required for data: 130983600
I1012 07:53:39.628342  9941 layer_factory.hpp:77] Creating layer bn2
I1012 07:53:39.628348  9941 net.cpp:100] Creating Layer bn2
I1012 07:53:39.628366  9941 net.cpp:434] bn2 <- conv5
I1012 07:53:39.628371  9941 net.cpp:408] bn2 -> bn2
I1012 07:53:39.628594  9941 net.cpp:150] Setting up bn2
I1012 07:53:39.628600  9941 net.cpp:157] Top shape: 100 192 9 9 (1555200)
I1012 07:53:39.628602  9941 net.cpp:165] Memory required for data: 137204400
I1012 07:53:39.628607  9941 layer_factory.hpp:77] Creating layer conv6
I1012 07:53:39.628614  9941 net.cpp:100] Creating Layer conv6
I1012 07:53:39.628630  9941 net.cpp:434] conv6 <- bn2
I1012 07:53:39.628634  9941 net.cpp:408] conv6 -> conv6
I1012 07:53:39.631427  9941 net.cpp:150] Setting up conv6
I1012 07:53:39.631453  9941 net.cpp:157] Top shape: 100 192 4 4 (307200)
I1012 07:53:39.631455  9941 net.cpp:165] Memory required for data: 138433200
I1012 07:53:39.631480  9941 layer_factory.hpp:77] Creating layer drop4
I1012 07:53:39.631489  9941 net.cpp:100] Creating Layer drop4
I1012 07:53:39.631491  9941 net.cpp:434] drop4 <- conv6
I1012 07:53:39.631510  9941 net.cpp:408] drop4 -> drop4
I1012 07:53:39.631570  9941 net.cpp:150] Setting up drop4
I1012 07:53:39.631575  9941 net.cpp:157] Top shape: 100 192 4 4 (307200)
I1012 07:53:39.631590  9941 net.cpp:165] Memory required for data: 139662000
I1012 07:53:39.631592  9941 layer_factory.hpp:77] Creating layer elu6
I1012 07:53:39.631597  9941 net.cpp:100] Creating Layer elu6
I1012 07:53:39.631614  9941 net.cpp:434] elu6 <- drop4
I1012 07:53:39.631618  9941 net.cpp:395] elu6 -> drop4 (in-place)
I1012 07:53:39.631621  9941 net.cpp:150] Setting up elu6
I1012 07:53:39.631624  9941 net.cpp:157] Top shape: 100 192 4 4 (307200)
I1012 07:53:39.631628  9941 net.cpp:165] Memory required for data: 140890800
I1012 07:53:39.631628  9941 layer_factory.hpp:77] Creating layer conv7
I1012 07:53:39.631649  9941 net.cpp:100] Creating Layer conv7
I1012 07:53:39.631651  9941 net.cpp:434] conv7 <- drop4
I1012 07:53:39.631655  9941 net.cpp:408] conv7 -> conv7
I1012 07:53:39.634269  9941 net.cpp:150] Setting up conv7
I1012 07:53:39.634279  9941 net.cpp:157] Top shape: 100 192 2 2 (76800)
I1012 07:53:39.634280  9941 net.cpp:165] Memory required for data: 141198000
I1012 07:53:39.634299  9941 layer_factory.hpp:77] Creating layer elu7
I1012 07:53:39.634305  9941 net.cpp:100] Creating Layer elu7
I1012 07:53:39.634307  9941 net.cpp:434] elu7 <- conv7
I1012 07:53:39.634312  9941 net.cpp:395] elu7 -> conv7 (in-place)
I1012 07:53:39.634331  9941 net.cpp:150] Setting up elu7
I1012 07:53:39.634335  9941 net.cpp:157] Top shape: 100 192 2 2 (76800)
I1012 07:53:39.634337  9941 net.cpp:165] Memory required for data: 141505200
I1012 07:53:39.634340  9941 layer_factory.hpp:77] Creating layer conv8
I1012 07:53:39.634361  9941 net.cpp:100] Creating Layer conv8
I1012 07:53:39.634364  9941 net.cpp:434] conv8 <- conv7
I1012 07:53:39.634367  9941 net.cpp:408] conv8 -> conv8
I1012 07:53:39.635336  9941 net.cpp:150] Setting up conv8
I1012 07:53:39.635346  9941 net.cpp:157] Top shape: 100 192 2 2 (76800)
I1012 07:53:39.635349  9941 net.cpp:165] Memory required for data: 141812400
I1012 07:53:39.635368  9941 layer_factory.hpp:77] Creating layer elu8
I1012 07:53:39.635373  9941 net.cpp:100] Creating Layer elu8
I1012 07:53:39.635377  9941 net.cpp:434] elu8 <- conv8
I1012 07:53:39.635380  9941 net.cpp:395] elu8 -> conv8 (in-place)
I1012 07:53:39.635386  9941 net.cpp:150] Setting up elu8
I1012 07:53:39.635390  9941 net.cpp:157] Top shape: 100 192 2 2 (76800)
I1012 07:53:39.635391  9941 net.cpp:165] Memory required for data: 142119600
I1012 07:53:39.635393  9941 layer_factory.hpp:77] Creating layer conv9
I1012 07:53:39.635399  9941 net.cpp:100] Creating Layer conv9
I1012 07:53:39.635402  9941 net.cpp:434] conv9 <- conv8
I1012 07:53:39.635421  9941 net.cpp:408] conv9 -> conv9
I1012 07:53:39.636240  9941 net.cpp:150] Setting up conv9
I1012 07:53:39.636250  9941 net.cpp:157] Top shape: 100 10 2 2 (4000)
I1012 07:53:39.636252  9941 net.cpp:165] Memory required for data: 142135600
I1012 07:53:39.636271  9941 layer_factory.hpp:77] Creating layer elu9
I1012 07:53:39.636276  9941 net.cpp:100] Creating Layer elu9
I1012 07:53:39.636293  9941 net.cpp:434] elu9 <- conv9
I1012 07:53:39.636296  9941 net.cpp:395] elu9 -> conv9 (in-place)
I1012 07:53:39.636301  9941 net.cpp:150] Setting up elu9
I1012 07:53:39.636304  9941 net.cpp:157] Top shape: 100 10 2 2 (4000)
I1012 07:53:39.636307  9941 net.cpp:165] Memory required for data: 142151600
I1012 07:53:39.636308  9941 layer_factory.hpp:77] Creating layer pool
I1012 07:53:39.636312  9941 net.cpp:100] Creating Layer pool
I1012 07:53:39.636314  9941 net.cpp:434] pool <- conv9
I1012 07:53:39.636318  9941 net.cpp:408] pool -> pool
I1012 07:53:39.636587  9941 net.cpp:150] Setting up pool
I1012 07:53:39.636603  9941 net.cpp:157] Top shape: 100 10 1 1 (1000)
I1012 07:53:39.636606  9941 net.cpp:165] Memory required for data: 142155600
I1012 07:53:39.636623  9941 layer_factory.hpp:77] Creating layer flatten
I1012 07:53:39.636627  9941 net.cpp:100] Creating Layer flatten
I1012 07:53:39.636631  9941 net.cpp:434] flatten <- pool
I1012 07:53:39.636634  9941 net.cpp:408] flatten -> flatten
I1012 07:53:39.636669  9941 net.cpp:150] Setting up flatten
I1012 07:53:39.636673  9941 net.cpp:157] Top shape: 100 10 (1000)
I1012 07:53:39.636675  9941 net.cpp:165] Memory required for data: 142159600
I1012 07:53:39.636677  9941 layer_factory.hpp:77] Creating layer score
I1012 07:53:39.636698  9941 net.cpp:100] Creating Layer score
I1012 07:53:39.636700  9941 net.cpp:434] score <- flatten
I1012 07:53:39.636704  9941 net.cpp:408] score -> score
I1012 07:53:39.636809  9941 net.cpp:150] Setting up score
I1012 07:53:39.636814  9941 net.cpp:157] Top shape: 100 10 (1000)
I1012 07:53:39.636817  9941 net.cpp:165] Memory required for data: 142163600
I1012 07:53:39.636837  9941 layer_factory.hpp:77] Creating layer score_score_0_split
I1012 07:53:39.636842  9941 net.cpp:100] Creating Layer score_score_0_split
I1012 07:53:39.636844  9941 net.cpp:434] score_score_0_split <- score
I1012 07:53:39.636847  9941 net.cpp:408] score_score_0_split -> score_score_0_split_0
I1012 07:53:39.636852  9941 net.cpp:408] score_score_0_split -> score_score_0_split_1
I1012 07:53:39.636895  9941 net.cpp:150] Setting up score_score_0_split
I1012 07:53:39.636899  9941 net.cpp:157] Top shape: 100 10 (1000)
I1012 07:53:39.636903  9941 net.cpp:157] Top shape: 100 10 (1000)
I1012 07:53:39.636904  9941 net.cpp:165] Memory required for data: 142171600
I1012 07:53:39.636920  9941 layer_factory.hpp:77] Creating layer accuracy
I1012 07:53:39.636925  9941 net.cpp:100] Creating Layer accuracy
I1012 07:53:39.636929  9941 net.cpp:434] accuracy <- score_score_0_split_0
I1012 07:53:39.636931  9941 net.cpp:434] accuracy <- label_data_1_split_0
I1012 07:53:39.636947  9941 net.cpp:408] accuracy -> accuracy
…
