…
  stage: ""
}
type: "AdaDelta"
I1011 14:39:54.746496  5377 solver.cpp:81] Creating training net from train_net file: /home/adam/Honours/Honours-Project/cifar-10_allcnn/elu/allcnn_elu_train.prototxt
I1011 14:39:54.746814  5377 net.cpp:58] Initializing net from parameters: 
state {
  phase: TRAIN
  level: 0
  stage: ""
}
layer {
  name: "data"
  type: "Data"
  top: "data"
  top: "label"
  transform_param {
    mean_file: "mean.binaryproto"
  }
  data_param {
    source: "../../../data/cifar-10/cifar10_train_lmdb"
    batch_size: 64
    backend: LMDB
  }
}
layer {
  name: "conv1"
  type: "Convolution"
  bottom: "data"
  top: "conv1"
  convolution_param {
    num_output: 96
    kernel_size: 3
    weight_filler {
      type: "xavier"
    }
  }
}
layer {
  name: "elu1"
  type: "ELU"
  bottom: "conv1"
  top: "conv1"
}
layer {
  name: "conv2"
  type: "Convolution"
  bottom: "conv1"
  top: "conv2"
  convolution_param {
    num_output: 96
    kernel_size: 3
    weight_filler {
      type: "xavier"
    }
  }
}
layer {
  name: "bn1"
  type: "BatchNorm"
  bottom: "conv2"
  top: "bn1"
}
layer {
  name: "elu2"
  type: "ELU"
  bottom: "bn1"
  top: "bn1"
}
layer {
  name: "drop1"
  type: "Dropout"
  bottom: "bn1"
  top: "drop1"
  dropout_param {
    dropout_ratio: 0.5
  }
}
layer {
  name: "conv3"
  type: "Convolution"
  bottom: "drop1"
  top: "conv3"
  convolution_param {
    num_output: 96
    kernel_size: 3
    stride: 2
    weight_filler {
      type: "xavier"
    }
  }
}
layer {
  name: "elu3"
  type: "ELU"
  bottom: "conv3"
  top: "conv3"
}
layer {
  name: "conv4"
  type: "Convolution"
  bottom: "conv3"
  top: "conv4"
  convolution_param {
    num_output: 192
    kernel_size: 3
    weight_filler {
      type: "xavier"
    }
  }
}
layer {
  name: "elu4"
  type: "ELU"
  bottom: "conv4"
  top: "conv4"
}
layer {
  name: "conv5"
  type: "Convolution"
  bottom: "conv4"
  top: "conv5"
  convolution_param {
    num_output: 192
    kernel_size: 3
    weight_filler {
      type: "xavier"
    }
  }
}
layer {
  name: "bn2"
  type: "BatchNorm"
  bottom: "conv5"
  top: "bn2"
}
layer {
  name: "elu5"
  type: "ELU"
  bottom: "bn2"
  top: "bn2"
}
layer {
  name: "drop4"
  type: "Dropout"
  bottom: "bn2"
  top: "drop4"
  dropout_param {
    dropout_ratio: 0.5
  }
}
layer {
  name: "conv6"
  type: "Convolution"
  bottom: "drop4"
  top: "conv6"
  convolution_param {
    num_output: 192
    kernel_size: 3
    stride: 2
    weight_filler {
      type: "xavier"
    }
  }
}
layer {
  name: "elu6"
  type: "ELU"
  bottom: "conv6"
  top: "conv6"
}
layer {
  name: "conv7"
  type: "Convolution"
  bottom: "conv6"
  top: "conv7"
  convolution_param {
    num_output: 192
    kernel_size: 3
    weight_filler {
      type: "xavier"
    }
  }
}
layer {
  name: "elu7"
  type: "ELU"
  bottom: "conv7"
  top: "conv7"
}
layer {
  name: "conv8"
  type: "Convolution"
  bottom: "conv7"
  top: "conv8"
  convolution_param {
    num_output: 192
    kernel_size: 1
    weight_filler {
      type: "xavier"
    }
  }
}
layer {
  name: "elu8"
  type: "ELU"
  bottom: "conv8"
  top: "conv8"
}
layer {
  name: "conv9"
  type: "Convolution"
  bottom: "conv8"
  top: "conv9"
  convolution_param {
    num_output: 10
    kernel_size: 1
    weight_filler {
      type: "xavier"
    }
  }
}
layer {
  name: "elu9"
  type: "ELU"
  bottom: "conv9"
  top: "conv9"
}
layer {
  name: "pool"
  type: "Pooling"
  bottom: "conv9"
  top: "pool"
  pooling_param {
    pool: AVE
    global_pooling: true
  }
}
layer {
  name: "flatten"
  type: "Flatten"
  bottom: "pool"
  top: "flatten"
}
layer {
  name: "score"
  type: "InnerProduct"
  bottom: "flatten"
  top: "score"
  inner_product_param {
    num_output: 10
    weight_filler {
      type: "gaussian"
    }
  }
}
layer {
  name: "accuracy"
  type: "Accuracy"
  bottom: "score"
  bottom: "label"
  top: "accuracy"
}
layer {
  name: "loss"
  type: "SoftmaxWithLoss"
  bottom: "score"
  bottom: "label"
  top: "loss"
}
I1011 14:39:54.746963  5377 layer_factory.hpp:77] Creating layer data
I1011 14:39:54.747416  5377 net.cpp:100] Creating Layer data
I1011 14:39:54.747426  5377 net.cpp:408] data -> data
I1011 14:39:54.747457  5377 net.cpp:408] data -> label
I1011 14:39:54.747481  5377 data_transformer.cpp:25] Loading mean file from: mean.binaryproto
I1011 14:39:54.748175  5383 db_lmdb.cpp:35] Opened lmdb ../../../data/cifar-10/cifar10_train_lmdb
I1011 14:39:54.754647  5377 data_layer.cpp:41] output data size: 64,3,32,32
I1011 14:39:54.756283  5377 net.cpp:150] Setting up data
I1011 14:39:54.756301  5377 net.cpp:157] Top shape: 64 3 32 32 (196608)
I1011 14:39:54.756305  5377 net.cpp:157] Top shape: 64 (64)
I1011 14:39:54.756307  5377 net.cpp:165] Memory required for data: 786688
I1011 14:39:54.756330  5377 layer_factory.hpp:77] Creating layer label_data_1_split
I1011 14:39:54.756352  5377 net.cpp:100] Creating Layer label_data_1_split
I1011 14:39:54.756371  5377 net.cpp:434] label_data_1_split <- label
I1011 14:39:54.756382  5377 net.cpp:408] label_data_1_split -> label_data_1_split_0
I1011 14:39:54.756403  5377 net.cpp:408] label_data_1_split -> label_data_1_split_1
I1011 14:39:54.756435  5377 net.cpp:150] Setting up label_data_1_split
I1011 14:39:54.756440  5377 net.cpp:157] Top shape: 64 (64)
I1011 14:39:54.756444  5377 net.cpp:157] Top shape: 64 (64)
I1011 14:39:54.756446  5377 net.cpp:165] Memory required for data: 787200
I1011 14:39:54.756448  5377 layer_factory.hpp:77] Creating layer conv1
I1011 14:39:54.756482  5377 net.cpp:100] Creating Layer conv1
I1011 14:39:54.756485  5377 net.cpp:434] conv1 <- data
I1011 14:39:54.756489  5377 net.cpp:408] conv1 -> conv1
I1011 14:39:54.893239  5377 net.cpp:150] Setting up conv1
I1011 14:39:54.893265  5377 net.cpp:157] Top shape: 64 96 30 30 (5529600)
I1011 14:39:54.893267  5377 net.cpp:165] Memory required for data: 22905600
I1011 14:39:54.893285  5377 layer_factory.hpp:77] Creating layer elu1
I1011 14:39:54.893292  5377 net.cpp:100] Creating Layer elu1
I1011 14:39:54.893295  5377 net.cpp:434] elu1 <- conv1
I1011 14:39:54.893298  5377 net.cpp:395] elu1 -> conv1 (in-place)
I1011 14:39:54.893319  5377 net.cpp:150] Setting up elu1
I1011 14:39:54.893322  5377 net.cpp:157] Top shape: 64 96 30 30 (5529600)
I1011 14:39:54.893324  5377 net.cpp:165] Memory required for data: 45024000
I1011 14:39:54.893326  5377 layer_factory.hpp:77] Creating layer conv2
I1011 14:39:54.893334  5377 net.cpp:100] Creating Layer conv2
I1011 14:39:54.893337  5377 net.cpp:434] conv2 <- conv1
I1011 14:39:54.893340  5377 net.cpp:408] conv2 -> conv2
I1011 14:39:54.894768  5377 net.cpp:150] Setting up conv2
I1011 14:39:54.894778  5377 net.cpp:157] Top shape: 64 96 28 28 (4816896)
I1011 14:39:54.894780  5377 net.cpp:165] Memory required for data: 64291584
I1011 14:39:54.894786  5377 layer_factory.hpp:77] Creating layer bn1
I1011 14:39:54.894790  5377 net.cpp:100] Creating Layer bn1
I1011 14:39:54.894793  5377 net.cpp:434] bn1 <- conv2
I1011 14:39:54.894796  5377 net.cpp:408] bn1 -> bn1
I1011 14:39:54.894980  5377 net.cpp:150] Setting up bn1
I1011 14:39:54.894985  5377 net.cpp:157] Top shape: 64 96 28 28 (4816896)
I1011 14:39:54.894986  5377 net.cpp:165] Memory required for data: 83559168
I1011 14:39:54.894994  5377 layer_factory.hpp:77] Creating layer elu2
I1011 14:39:54.894996  5377 net.cpp:100] Creating Layer elu2
I1011 14:39:54.894999  5377 net.cpp:434] elu2 <- bn1
I1011 14:39:54.895001  5377 net.cpp:395] elu2 -> bn1 (in-place)
I1011 14:39:54.895005  5377 net.cpp:150] Setting up elu2
I1011 14:39:54.895007  5377 net.cpp:157] Top shape: 64 96 28 28 (4816896)
I1011 14:39:54.895009  5377 net.cpp:165] Memory required for data: 102826752
I1011 14:39:54.895036  5377 layer_factory.hpp:77] Creating layer drop1
I1011 14:39:54.895041  5377 net.cpp:100] Creating Layer drop1
I1011 14:39:54.895043  5377 net.cpp:434] drop1 <- bn1
I1011 14:39:54.895045  5377 net.cpp:408] drop1 -> drop1
I1011 14:39:54.895117  5377 net.cpp:150] Setting up drop1
I1011 14:39:54.895120  5377 net.cpp:157] Top shape: 64 96 28 28 (4816896)
I1011 14:39:54.895138  5377 net.cpp:165] Memory required for data: 122094336
I1011 14:39:54.895139  5377 layer_factory.hpp:77] Creating layer conv3
I1011 14:39:54.895159  5377 net.cpp:100] Creating Layer conv3
I1011 14:39:54.895160  5377 net.cpp:434] conv3 <- drop1
I1011 14:39:54.895164  5377 net.cpp:408] conv3 -> conv3
I1011 14:39:54.896332  5377 net.cpp:150] Setting up conv3
I1011 14:39:54.896342  5377 net.cpp:157] Top shape: 64 96 13 13 (1038336)
I1011 14:39:54.896344  5377 net.cpp:165] Memory required for data: 126247680
I1011 14:39:54.896350  5377 layer_factory.hpp:77] Creating layer elu3
I1011 14:39:54.896354  5377 net.cpp:100] Creating Layer elu3
I1011 14:39:54.896356  5377 net.cpp:434] elu3 <- conv3
I1011 14:39:54.896359  5377 net.cpp:395] elu3 -> conv3 (in-place)
I1011 14:39:54.896363  5377 net.cpp:150] Setting up elu3
I1011 14:39:54.896366  5377 net.cpp:157] Top shape: 64 96 13 13 (1038336)
I1011 14:39:54.896368  5377 net.cpp:165] Memory required for data: 130401024
I1011 14:39:54.896369  5377 layer_factory.hpp:77] Creating layer conv4
I1011 14:39:54.896389  5377 net.cpp:100] Creating Layer conv4
I1011 14:39:54.896390  5377 net.cpp:434] conv4 <- conv3
I1011 14:39:54.896394  5377 net.cpp:408] conv4 -> conv4
I1011 14:39:54.898250  5377 net.cpp:150] Setting up conv4
I1011 14:39:54.898262  5377 net.cpp:157] Top shape: 64 192 11 11 (1486848)
I1011 14:39:54.898263  5377 net.cpp:165] Memory required for data: 136348416
I1011 14:39:54.898267  5377 layer_factory.hpp:77] Creating layer elu4
I1011 14:39:54.898272  5377 net.cpp:100] Creating Layer elu4
I1011 14:39:54.898273  5377 net.cpp:434] elu4 <- conv4
I1011 14:39:54.898278  5377 net.cpp:395] elu4 -> conv4 (in-place)
I1011 14:39:54.898283  5377 net.cpp:150] Setting up elu4
I1011 14:39:54.898285  5377 net.cpp:157] Top shape: 64 192 11 11 (1486848)
I1011 14:39:54.898288  5377 net.cpp:165] Memory required for data: 142295808
I1011 14:39:54.898289  5377 layer_factory.hpp:77] Creating layer conv5
I1011 14:39:54.898309  5377 net.cpp:100] Creating Layer conv5
I1011 14:39:54.898311  5377 net.cpp:434] conv5 <- conv4
I1011 14:39:54.898314  5377 net.cpp:408] conv5 -> conv5
I1011 14:39:54.900862  5377 net.cpp:150] Setting up conv5
I1011 14:39:54.900872  5377 net.cpp:157] Top shape: 64 192 9 9 (995328)
I1011 14:39:54.900876  5377 net.cpp:165] Memory required for data: 146277120
I1011 14:39:54.900879  5377 layer_factory.hpp:77] Creating layer bn2
I1011 14:39:54.900883  5377 net.cpp:100] Creating Layer bn2
I1011 14:39:54.900885  5377 net.cpp:434] bn2 <- conv5
I1011 14:39:54.900890  5377 net.cpp:408] bn2 -> bn2
I1011 14:39:54.901084  5377 net.cpp:150] Setting up bn2
I1011 14:39:54.901103  5377 net.cpp:157] Top shape: 64 192 9 9 (995328)
I1011 14:39:54.901106  5377 net.cpp:165] Memory required for data: 150258432
I1011 14:39:54.901111  5377 layer_factory.hpp:77] Creating layer elu5
I1011 14:39:54.901115  5377 net.cpp:100] Creating Layer elu5
I1011 14:39:54.901118  5377 net.cpp:434] elu5 <- bn2
I1011 14:39:54.901120  5377 net.cpp:395] elu5 -> bn2 (in-place)
I1011 14:39:54.901139  5377 net.cpp:150] Setting up elu5
I1011 14:39:54.901142  5377 net.cpp:157] Top shape: 64 192 9 9 (995328)
I1011 14:39:54.901144  5377 net.cpp:165] Memory required for data: 154239744
I1011 14:39:54.901146  5377 layer_factory.hpp:77] Creating layer drop4
I1011 14:39:54.901150  5377 net.cpp:100] Creating Layer drop4
I1011 14:39:54.901152  5377 net.cpp:434] drop4 <- bn2
I1011 14:39:54.901155  5377 net.cpp:408] drop4 -> drop4
I1011 14:39:54.901183  5377 net.cpp:150] Setting up drop4
I1011 14:39:54.901188  5377 net.cpp:157] Top shape: 64 192 9 9 (995328)
I1011 14:39:54.901190  5377 net.cpp:165] Memory required for data: 158221056
I1011 14:39:54.901214  5377 layer_factory.hpp:77] Creating layer conv6
I1011 14:39:54.901224  5377 net.cpp:100] Creating Layer conv6
I1011 14:39:54.901227  5377 net.cpp:434] conv6 <- drop4
I1011 14:39:54.901232  5377 net.cpp:408] conv6 -> conv6
I1011 14:39:54.903841  5377 net.cpp:150] Setting up conv6
I1011 14:39:54.903851  5377 net.cpp:157] Top shape: 64 192 4 4 (196608)
I1011 14:39:54.903853  5377 net.cpp:165] Memory required for data: 159007488
I1011 14:39:54.903877  5377 layer_factory.hpp:77] Creating layer elu6
I1011 14:39:54.903883  5377 net.cpp:100] Creating Layer elu6
I1011 14:39:54.903899  5377 net.cpp:434] elu6 <- conv6
I1011 14:39:54.903903  5377 net.cpp:395] elu6 -> conv6 (in-place)
I1011 14:39:54.903908  5377 net.cpp:150] Setting up elu6
I1011 14:39:54.903913  5377 net.cpp:157] Top shape: 64 192 4 4 (196608)
I1011 14:39:54.903914  5377 net.cpp:165] Memory required for data: 159793920
I1011 14:39:54.903916  5377 layer_factory.hpp:77] Creating layer conv7
I1011 14:39:54.903923  5377 net.cpp:100] Creating Layer conv7
I1011 14:39:54.903925  5377 net.cpp:434] conv7 <- conv6
I1011 14:39:54.903930  5377 net.cpp:408] conv7 -> conv7
I1011 14:39:54.906733  5377 net.cpp:150] Setting up conv7
I1011 14:39:54.906752  5377 net.cpp:157] Top shape: 64 192 2 2 (49152)
I1011 14:39:54.906754  5377 net.cpp:165] Memory required for data: 159990528
I1011 14:39:54.906760  5377 layer_factory.hpp:77] Creating layer elu7
I1011 14:39:54.906766  5377 net.cpp:100] Creating Layer elu7
I1011 14:39:54.906769  5377 net.cpp:434] elu7 <- conv7
I1011 14:39:54.906772  5377 net.cpp:395] elu7 -> conv7 (in-place)
I1011 14:39:54.906777  5377 net.cpp:150] Setting up elu7
I1011 14:39:54.906780  5377 net.cpp:157] Top shape: 64 192 2 2 (49152)
I1011 14:39:54.906782  5377 net.cpp:165] Memory required for data: 160187136
I1011 14:39:54.906783  5377 layer_factory.hpp:77] Creating layer conv8
I1011 14:39:54.906805  5377 net.cpp:100] Creating Layer conv8
I1011 14:39:54.906806  5377 net.cpp:434] conv8 <- conv7
I1011 14:39:54.906810  5377 net.cpp:408] conv8 -> conv8
I1011 14:39:54.908051  5377 net.cpp:150] Setting up conv8
I1011 14:39:54.908061  5377 net.cpp:157] Top shape: 64 192 2 2 (49152)
I1011 14:39:54.908062  5377 net.cpp:165] Memory required for data: 160383744
I1011 14:39:54.908066  5377 layer_factory.hpp:77] Creating layer elu8
I1011 14:39:54.908071  5377 net.cpp:100] Creating Layer elu8
I1011 14:39:54.908073  5377 net.cpp:434] elu8 <- conv8
I1011 14:39:54.908077  5377 net.cpp:395] elu8 -> conv8 (in-place)
I1011 14:39:54.908082  5377 net.cpp:150] Setting up elu8
I1011 14:39:54.908084  5377 net.cpp:157] Top shape: 64 192 2 2 (49152)
I1011 14:39:54.908085  5377 net.cpp:165] Memory required for data: 160580352
I1011 14:39:54.908087  5377 layer_factory.hpp:77] Creating layer conv9
I1011 14:39:54.908093  5377 net.cpp:100] Creating Layer conv9
I1011 14:39:54.908109  5377 net.cpp:434] conv9 <- conv8
I1011 14:39:54.908113  5377 net.cpp:408] conv9 -> conv9
I1011 14:39:54.908923  5377 net.cpp:150] Setting up conv9
I1011 14:39:54.908932  5377 net.cpp:157] Top shape: 64 10 2 2 (2560)
I1011 14:39:54.908934  5377 net.cpp:165] Memory required for data: 160590592
I1011 14:39:54.908939  5377 layer_factory.hpp:77] Creating layer elu9
I1011 14:39:54.908942  5377 net.cpp:100] Creating Layer elu9
I1011 14:39:54.908944  5377 net.cpp:434] elu9 <- conv9
I1011 14:39:54.908948  5377 net.cpp:395] elu9 -> conv9 (in-place)
I1011 14:39:54.908952  5377 net.cpp:150] Setting up elu9
I1011 14:39:54.908956  5377 net.cpp:157] Top shape: 64 10 2 2 (2560)
I1011 14:39:54.908957  5377 net.cpp:165] Memory required for data: 160600832
I1011 14:39:54.908958  5377 layer_factory.hpp:77] Creating layer pool
I1011 14:39:54.908962  5377 net.cpp:100] Creating Layer pool
I1011 14:39:54.908964  5377 net.cpp:434] pool <- conv9
I1011 14:39:54.908982  5377 net.cpp:408] pool -> pool
I1011 14:39:54.909337  5377 net.cpp:150] Setting up pool
I1011 14:39:54.909344  5377 net.cpp:157] Top shape: 64 10 1 1 (640)
I1011 14:39:54.909346  5377 net.cpp:165] Memory required for data: 160603392
I1011 14:39:54.909358  5377 layer_factory.hpp:77] Creating layer flatten
I1011 14:39:54.909363  5377 net.cpp:100] Creating Layer flatten
I1011 14:39:54.909364  5377 net.cpp:434] flatten <- pool
I1011 14:39:54.909368  5377 net.cpp:408] flatten -> flatten
I1011 14:39:54.909409  5377 net.cpp:150] Setting up flatten
I1011 14:39:54.909415  5377 net.cpp:157] Top shape: 64 10 (640)
I1011 14:39:54.909416  5377 net.cpp:165] Memory required for data: 160605952
I1011 14:39:54.909432  5377 layer_factory.hpp:77] Creating layer score
I1011 14:39:54.909436  5377 net.cpp:100] Creating Layer score
I1011 14:39:54.909438  5377 net.cpp:434] score <- flatten
I1011 14:39:54.909453  5377 net.cpp:408] score -> score
I1011 14:39:54.909589  5377 net.cpp:150] Setting up score
I1011 14:39:54.909592  5377 net.cpp:157] Top shape: 64 10 (640)
I1011 14:39:54.909595  5377 net.cpp:165] Memory required for data: 160608512
I1011 14:39:54.909598  5377 layer_factory.hpp:77] Creating layer score_score_0_split
I1011 14:39:54.909602  5377 net.cpp:100] Creating Layer score_score_0_split
I1011 14:39:54.909605  5377 net.cpp:434] score_score_0_split <- score
I1011 14:39:54.909608  5377 net.cpp:408] score_score_0_split -> score_score_0_split_0
I1011 14:39:54.909612  5377 net.cpp:408] score_score_0_split -> score_score_0_split_1
I1011 14:39:54.909652  5377 net.cpp:150] Setting up score_score_0_split
I1011 14:39:54.909657  5377 net.cpp:157] Top shape: 64 10 (640)
I1011 14:39:54.909659  5377 net.cpp:157] Top shape: 64 10 (640)
I1011 14:39:54.909660  5377 net.cpp:165] Memory required for data: 160613632
I1011 14:39:54.909677  5377 layer_factory.hpp:77] Creating layer accuracy
I1011 14:39:54.909682  5377 net.cpp:100] Creating Layer accuracy
I1011 14:39:54.909684  5377 net.cpp:434] accuracy <- score_score_0_split_0
I1011 14:39:54.909699  5377 net.cpp:434] accuracy <- label_data_1_split_0
I1011 14:39:54.909703  5377 net.cpp:408] accuracy -> accuracy
…
I1011 14:39:54.910240  5377 net.cpp:283] Network initialization done.
I1011 14:39:54.910485  5377 solver.cpp:181] Creating test net (#0) specified by test_net file: /home/adam/Honours/Honours-Project/cifar-10_allcnn/elu/allcnn_elu_test.prototxt
I1011 14:39:54.910657  5377 net.cpp:58] Initializing net from parameters: 
state {
  phase: TEST
}
layer {
  name: "data"
  type: "Data"
  top: "data"
  top: "label"
  transform_param {
    mean_file: "mean.binaryproto"
  }
  data_param {
    source: "../../../data/cifar-10/cifar10_test_lmdb"
    batch_size: 100
    backend: LMDB
  }
}
layer {
  name: "conv1"
  type: "Convolution"
  bottom: "data"
  top: "conv1"
  convolution_param {
    num_output: 96
    kernel_size: 3
    weight_filler {
      type: "xavier"
    }
  }
}
layer {
  name: "elu1"
  type: "ELU"
  bottom: "conv1"
  top: "conv1"
}
layer {
  name: "conv2"
  type: "Convolution"
  bottom: "conv1"
  top: "conv2"
  convolution_param {
    num_output: 96
    kernel_size: 3
    weight_filler {
      type: "xavier"
    }
  }
}
layer {
  name: "bn1"
  type: "BatchNorm"
  bottom: "conv2"
  top: "bn1"
}
layer {
  name: "elu2"
  type: "ELU"
  bottom: "bn1"
  top: "bn1"
}
layer {
  name: "drop1"
  type: "Dropout"
  bottom: "bn1"
  top: "drop1"
  dropout_param {
    dropout_ratio: 0.5
  }
}
layer {
  name: "conv3"
  type: "Convolution"
  bottom: "drop1"
  top: "conv3"
  convolution_param {
    num_output: 96
    kernel_size: 3
    stride: 2
    weight_filler {
      type: "xavier"
    }
  }
}
layer {
  name: "elu3"
  type: "ELU"
  bottom: "conv3"
  top: "conv3"
}
layer {
  name: "conv4"
  type: "Convolution"
  bottom: "conv3"
  top: "conv4"
  convolution_param {
    num_output: 192
    kernel_size: 3
    weight_filler {
      type: "xavier"
    }
  }
}
layer {
  name: "elu4"
  type: "ELU"
  bottom: "conv4"
  top: "conv4"
}
layer {
  name: "conv5"
  type: "Convolution"
  bottom: "conv4"
  top: "conv5"
  convolution_param {
    num_output: 192
    kernel_size: 3
    weight_filler {
      type: "xavier"
    }
  }
}
layer {
  name: "bn2"
  type: "BatchNorm"
  bottom: "conv5"
  top: "bn2"
}
layer {
  name: "elu5"
  type: "ELU"
  bottom: "bn2"
  top: "bn2"
}
layer {
  name: "drop4"
  type: "Dropout"
  bottom: "bn2"
  top: "drop4"
  dropout_param {
    dropout_ratio: 0.5
  }
}
layer {
  name: "conv6"
  type: "Convolution"
  bottom: "drop4"
  top: "conv6"
  convolution_param {
    num_output: 192
    kernel_size: 3
    stride: 2
    weight_filler {
      type: "xavier"
    }
  }
}
layer {
  name: "elu6"
  type: "ELU"
  bottom: "conv6"
  top: "conv6"
}
layer {
  name: "conv7"
  type: "Convolution"
  bottom: "conv6"
  top: "conv7"
  convolution_param {
    num_output: 192
    kernel_size: 3
    weight_filler {
      type: "xavier"
    }
  }
}
layer {
  name: "elu7"
  type: "ELU"
  bottom: "conv7"
  top: "conv7"
}
layer {
  name: "conv8"
  type: "Convolution"
  bottom: "conv7"
  top: "conv8"
  convolution_param {
    num_output: 192
    kernel_size: 1
    weight_filler {
      type: "xavier"
    }
  }
}
layer {
  name: "elu8"
  type: "ELU"
  bottom: "conv8"
  top: "conv8"
}
layer {
  name: "conv9"
  type: "Convolution"
  bottom: "conv8"
  top: "conv9"
  convolution_param {
    num_output: 10
    kernel_size: 1
    weight_filler {
      type: "xavier"
    }
  }
}
layer {
  name: "elu9"
  type: "ELU"
  bottom: "conv9"
  top: "conv9"
}
layer {
  name: "pool"
  type: "Pooling"
  bottom: "conv9"
  top: "pool"
  pooling_param {
    pool: AVE
    global_pooling: true
  }
}
layer {
  name: "flatten"
  type: "Flatten"
  bottom: "pool"
  top: "flatten"
}
layer {
  name: "score"
  type: "InnerProduct"
  bottom: "flatten"
  top: "score"
  inner_product_param {
    num_output: 10
    weight_filler {
      type: "gaussian"
    }
  }
}
layer {
  name: "accuracy"
  type: "Accuracy"
  bottom: "score"
  bottom: "label"
  top: "accuracy"
}
layer {
  name: "loss"
  type: "SoftmaxWithLoss"
  bottom: "score"
  bottom: "label"
  top: "loss"
}
I1011 14:39:54.910761  5377 layer_factory.hpp:77] Creating layer data
I1011 14:39:54.910871  5377 net.cpp:100] Creating Layer data
I1011 14:39:54.910876  5377 net.cpp:408] data -> data
I1011 14:39:54.910881  5377 net.cpp:408] data -> label
I1011 14:39:54.910887  5377 data_transformer.cpp:25] Loading mean file from: mean.binaryproto
I1011 14:39:54.911587  5385 db_lmdb.cpp:35] Opened lmdb ../../../data/cifar-10/cifar10_test_lmdb
I1011 14:39:54.911737  5377 data_layer.cpp:41] output data size: 100,3,32,32
I1011 14:39:54.913604  5377 net.cpp:150] Setting up data
I1011 14:39:54.913652  5377 net.cpp:157] Top shape: 100 3 32 32 (307200)
I1011 14:39:54.913656  5377 net.cpp:157] Top shape: 100 (100)
I1011 14:39:54.913658  5377 net.cpp:165] Memory required for data: 1229200
I1011 14:39:54.913662  5377 layer_factory.hpp:77] Creating layer label_data_1_split
I1011 14:39:54.913683  5377 net.cpp:100] Creating Layer label_data_1_split
I1011 14:39:54.913687  5377 net.cpp:434] label_data_1_split <- label
I1011 14:39:54.913707  5377 net.cpp:408] label_data_1_split -> label_data_1_split_0
I1011 14:39:54.913713  5377 net.cpp:408] label_data_1_split -> label_data_1_split_1
I1011 14:39:54.913822  5377 net.cpp:150] Setting up label_data_1_split
I1011 14:39:54.913827  5377 net.cpp:157] Top shape: 100 (100)
I1011 14:39:54.913830  5377 net.cpp:157] Top shape: 100 (100)
I1011 14:39:54.913846  5377 net.cpp:165] Memory required for data: 1230000
I1011 14:39:54.913847  5377 layer_factory.hpp:77] Creating layer conv1
I1011 14:39:54.913871  5377 net.cpp:100] Creating Layer conv1
I1011 14:39:54.913873  5377 net.cpp:434] conv1 <- data
I1011 14:39:54.913877  5377 net.cpp:408] conv1 -> conv1
I1011 14:39:54.914850  5377 net.cpp:150] Setting up conv1
I1011 14:39:54.914875  5377 net.cpp:157] Top shape: 100 96 30 30 (8640000)
I1011 14:39:54.914877  5377 net.cpp:165] Memory required for data: 35790000
I1011 14:39:54.914897  5377 layer_factory.hpp:77] Creating layer elu1
I1011 14:39:54.914902  5377 net.cpp:100] Creating Layer elu1
I1011 14:39:54.914921  5377 net.cpp:434] elu1 <- conv1
I1011 14:39:54.914924  5377 net.cpp:395] elu1 -> conv1 (in-place)
I1011 14:39:54.914942  5377 net.cpp:150] Setting up elu1
I1011 14:39:54.914945  5377 net.cpp:157] Top shape: 100 96 30 30 (8640000)
I1011 14:39:54.914947  5377 net.cpp:165] Memory required for data: 70350000
I1011 14:39:54.914949  5377 layer_factory.hpp:77] Creating layer conv2
I1011 14:39:54.914957  5377 net.cpp:100] Creating Layer conv2
I1011 14:39:54.914959  5377 net.cpp:434] conv2 <- conv1
I1011 14:39:54.914963  5377 net.cpp:408] conv2 -> conv2
I1011 14:39:54.916524  5377 net.cpp:150] Setting up conv2
I1011 14:39:54.916534  5377 net.cpp:157] Top shape: 100 96 28 28 (7526400)
I1011 14:39:54.916538  5377 net.cpp:165] Memory required for data: 100455600
I1011 14:39:54.916559  5377 layer_factory.hpp:77] Creating layer bn1
I1011 14:39:54.916564  5377 net.cpp:100] Creating Layer bn1
I1011 14:39:54.916566  5377 net.cpp:434] bn1 <- conv2
I1011 14:39:54.916573  5377 net.cpp:408] bn1 -> bn1
I1011 14:39:54.916812  5377 net.cpp:150] Setting up bn1
I1011 14:39:54.916827  5377 net.cpp:157] Top shape: 100 96 28 28 (7526400)
I1011 14:39:54.916831  5377 net.cpp:165] Memory required for data: 130561200
I1011 14:39:54.916838  5377 layer_factory.hpp:77] Creating layer elu2
I1011 14:39:54.916842  5377 net.cpp:100] Creating Layer elu2
I1011 14:39:54.916844  5377 net.cpp:434] elu2 <- bn1
I1011 14:39:54.916847  5377 net.cpp:395] elu2 -> bn1 (in-place)
I1011 14:39:54.916851  5377 net.cpp:150] Setting up elu2
I1011 14:39:54.916854  5377 net.cpp:157] Top shape: 100 96 28 28 (7526400)
I1011 14:39:54.916857  5377 net.cpp:165] Memory required for data: 160666800
I1011 14:39:54.916859  5377 layer_factory.hpp:77] Creating layer drop1
I1011 14:39:54.916863  5377 net.cpp:100] Creating Layer drop1
I1011 14:39:54.916865  5377 net.cpp:434] drop1 <- bn1
I1011 14:39:54.916868  5377 net.cpp:408] drop1 -> drop1
I1011 14:39:54.916900  5377 net.cpp:150] Setting up drop1
I1011 14:39:54.916908  5377 net.cpp:157] Top shape: 100 96 28 28 (7526400)
I1011 14:39:54.916909  5377 net.cpp:165] Memory required for data: 190772400
I1011 14:39:54.916911  5377 layer_factory.hpp:77] Creating layer conv3
I1011 14:39:54.916918  5377 net.cpp:100] Creating Layer conv3
I1011 14:39:54.916921  5377 net.cpp:434] conv3 <- drop1
I1011 14:39:54.916926  5377 net.cpp:408] conv3 -> conv3
I1011 14:39:54.918401  5377 net.cpp:150] Setting up conv3
I1011 14:39:54.918413  5377 net.cpp:157] Top shape: 100 96 13 13 (1622400)
I1011 14:39:54.918416  5377 net.cpp:165] Memory required for data: 197262000
I1011 14:39:54.918424  5377 layer_factory.hpp:77] Creating layer elu3
I1011 14:39:54.918429  5377 net.cpp:100] Creating Layer elu3
I1011 14:39:54.918432  5377 net.cpp:434] elu3 <- conv3
I1011 14:39:54.918437  5377 net.cpp:395] elu3 -> conv3 (in-place)
I1011 14:39:54.918443  5377 net.cpp:150] Setting up elu3
I1011 14:39:54.918447  5377 net.cpp:157] Top shape: 100 96 13 13 (1622400)
I1011 14:39:54.918448  5377 net.cpp:165] Memory required for data: 203751600
I1011 14:39:54.918450  5377 layer_factory.hpp:77] Creating layer conv4
I1011 14:39:54.918457  5377 net.cpp:100] Creating Layer conv4
I1011 14:39:54.918460  5377 net.cpp:434] conv4 <- conv3
I1011 14:39:54.918463  5377 net.cpp:408] conv4 -> conv4
I1011 14:39:54.920259  5377 net.cpp:150] Setting up conv4
I1011 14:39:54.920270  5377 net.cpp:157] Top shape: 100 192 11 11 (2323200)
I1011 14:39:54.920274  5377 net.cpp:165] Memory required for data: 213044400
I1011 14:39:54.920277  5377 layer_factory.hpp:77] Creating layer elu4
I1011 14:39:54.920282  5377 net.cpp:100] Creating Layer elu4
I1011 14:39:54.920285  5377 net.cpp:434] elu4 <- conv4
I1011 14:39:54.920291  5377 net.cpp:395] elu4 -> conv4 (in-place)
I1011 14:39:54.920297  5377 net.cpp:150] Setting up elu4
I1011 14:39:54.920301  5377 net.cpp:157] Top shape: 100 192 11 11 (2323200)
I1011 14:39:54.920303  5377 net.cpp:165] Memory required for data: 222337200
I1011 14:39:54.920305  5377 layer_factory.hpp:77] Creating layer conv5
I1011 14:39:54.920311  5377 net.cpp:100] Creating Layer conv5
I1011 14:39:54.920315  5377 net.cpp:434] conv5 <- conv4
I1011 14:39:54.920318  5377 net.cpp:408] conv5 -> conv5
I1011 14:39:54.923310  5377 net.cpp:150] Setting up conv5
I1011 14:39:54.923328  5377 net.cpp:157] Top shape: 100 192 9 9 (1555200)
I1011 14:39:54.923331  5377 net.cpp:165] Memory required for data: 228558000
I1011 14:39:54.923352  5377 layer_factory.hpp:77] Creating layer bn2
I1011 14:39:54.923358  5377 net.cpp:100] Creating Layer bn2
I1011 14:39:54.923362  5377 net.cpp:434] bn2 <- conv5
I1011 14:39:54.923365  5377 net.cpp:408] bn2 -> bn2
I1011 14:39:54.923588  5377 net.cpp:150] Setting up bn2
I1011 14:39:54.923593  5377 net.cpp:157] Top shape: 100 192 9 9 (1555200)
I1011 14:39:54.923594  5377 net.cpp:165] Memory required for data: 234778800
I1011 14:39:54.923599  5377 layer_factory.hpp:77] Creating layer elu5
I1011 14:39:54.923602  5377 net.cpp:100] Creating Layer elu5
I1011 14:39:54.923604  5377 net.cpp:434] elu5 <- bn2
I1011 14:39:54.923607  5377 net.cpp:395] elu5 -> bn2 (in-place)
I1011 14:39:54.923611  5377 net.cpp:150] Setting up elu5
I1011 14:39:54.923641  5377 net.cpp:157] Top shape: 100 192 9 9 (1555200)
I1011 14:39:54.923643  5377 net.cpp:165] Memory required for data: 240999600
I1011 14:39:54.923645  5377 layer_factory.hpp:77] Creating layer drop4
I1011 14:39:54.923650  5377 net.cpp:100] Creating Layer drop4
I1011 14:39:54.923652  5377 net.cpp:434] drop4 <- bn2
I1011 14:39:54.923671  5377 net.cpp:408] drop4 -> drop4
I1011 14:39:54.923743  5377 net.cpp:150] Setting up drop4
I1011 14:39:54.923748  5377 net.cpp:157] Top shape: 100 192 9 9 (1555200)
I1011 14:39:54.923750  5377 net.cpp:165] Memory required for data: 247220400
I1011 14:39:54.923753  5377 layer_factory.hpp:77] Creating layer conv6
I1011 14:39:54.923774  5377 net.cpp:100] Creating Layer conv6
I1011 14:39:54.923775  5377 net.cpp:434] conv6 <- drop4
I1011 14:39:54.923779  5377 net.cpp:408] conv6 -> conv6
I1011 14:39:54.926426  5377 net.cpp:150] Setting up conv6
I1011 14:39:54.926436  5377 net.cpp:157] Top shape: 100 192 4 4 (307200)
I1011 14:39:54.926439  5377 net.cpp:165] Memory required for data: 248449200
I1011 14:39:54.926447  5377 layer_factory.hpp:77] Creating layer elu6
I1011 14:39:54.926451  5377 net.cpp:100] Creating Layer elu6
I1011 14:39:54.926453  5377 net.cpp:434] elu6 <- conv6
I1011 14:39:54.926456  5377 net.cpp:395] elu6 -> conv6 (in-place)
I1011 14:39:54.926460  5377 net.cpp:150] Setting up elu6
I1011 14:39:54.926463  5377 net.cpp:157] Top shape: 100 192 4 4 (307200)
I1011 14:39:54.926465  5377 net.cpp:165] Memory required for data: 249678000
I1011 14:39:54.926467  5377 layer_factory.hpp:77] Creating layer conv7
I1011 14:39:54.926486  5377 net.cpp:100] Creating Layer conv7
I1011 14:39:54.926487  5377 net.cpp:434] conv7 <- conv6
I1011 14:39:54.926491  5377 net.cpp:408] conv7 -> conv7
I1011 14:39:54.929067  5377 net.cpp:150] Setting up conv7
I1011 14:39:54.929077  5377 net.cpp:157] Top shape: 100 192 2 2 (76800)
I1011 14:39:54.929080  5377 net.cpp:165] Memory required for data: 249985200
I1011 14:39:54.929085  5377 layer_factory.hpp:77] Creating layer elu7
I1011 14:39:54.929088  5377 net.cpp:100] Creating Layer elu7
I1011 14:39:54.929090  5377 net.cpp:434] elu7 <- conv7
I1011 14:39:54.929095  5377 net.cpp:395] elu7 -> conv7 (in-place)
I1011 14:39:54.929100  5377 net.cpp:150] Setting up elu7
I1011 14:39:54.929101  5377 net.cpp:157] Top shape: 100 192 2 2 (76800)
I1011 14:39:54.929103  5377 net.cpp:165] Memory required for data: 250292400
I1011 14:39:54.929106  5377 layer_factory.hpp:77] Creating layer conv8
I1011 14:39:54.929111  5377 net.cpp:100] Creating Layer conv8
I1011 14:39:54.929127  5377 net.cpp:434] conv8 <- conv7
I1011 14:39:54.929131  5377 net.cpp:408] conv8 -> conv8
I1011 14:39:54.930122  5377 net.cpp:150] Setting up conv8
I1011 14:39:54.930132  5377 net.cpp:157] Top shape: 100 192 2 2 (76800)
I1011 14:39:54.930135  5377 net.cpp:165] Memory required for data: 250599600
I1011 14:39:54.930140  5377 layer_factory.hpp:77] Creating layer elu8
I1011 14:39:54.930142  5377 net.cpp:100] Creating Layer elu8
I1011 14:39:54.930145  5377 net.cpp:434] elu8 <- conv8
I1011 14:39:54.930148  5377 net.cpp:395] elu8 -> conv8 (in-place)
I1011 14:39:54.930152  5377 net.cpp:150] Setting up elu8
I1011 14:39:54.930155  5377 net.cpp:157] Top shape: 100 192 2 2 (76800)
I1011 14:39:54.930156  5377 net.cpp:165] Memory required for data: 250906800
I1011 14:39:54.930158  5377 layer_factory.hpp:77] Creating layer conv9
I1011 14:39:54.930178  5377 net.cpp:100] Creating Layer conv9
I1011 14:39:54.930181  5377 net.cpp:434] conv9 <- conv8
I1011 14:39:54.930184  5377 net.cpp:408] conv9 -> conv9
I1011 14:39:54.931037  5377 net.cpp:150] Setting up conv9
I1011 14:39:54.931047  5377 net.cpp:157] Top shape: 100 10 2 2 (4000)
I1011 14:39:54.931049  5377 net.cpp:165] Memory required for data: 250922800
I1011 14:39:54.931053  5377 layer_factory.hpp:77] Creating layer elu9
I1011 14:39:54.931057  5377 net.cpp:100] Creating Layer elu9
I1011 14:39:54.931059  5377 net.cpp:434] elu9 <- conv9
I1011 14:39:54.931063  5377 net.cpp:395] elu9 -> conv9 (in-place)
I1011 14:39:54.931067  5377 net.cpp:150] Setting up elu9
I1011 14:39:54.931078  5377 net.cpp:157] Top shape: 100 10 2 2 (4000)
I1011 14:39:54.931094  5377 net.cpp:165] Memory required for data: 250938800
I1011 14:39:54.931097  5377 layer_factory.hpp:77] Creating layer pool
I1011 14:39:54.931100  5377 net.cpp:100] Creating Layer pool
I1011 14:39:54.931102  5377 net.cpp:434] pool <- conv9
I1011 14:39:54.931107  5377 net.cpp:408] pool -> pool
I1011 14:39:54.931432  5377 net.cpp:150] Setting up pool
I1011 14:39:54.931442  5377 net.cpp:157] Top shape: 100 10 1 1 (1000)
I1011 14:39:54.931443  5377 net.cpp:165] Memory required for data: 250942800
I1011 14:39:54.931445  5377 layer_factory.hpp:77] Creating layer flatten
I1011 14:39:54.931448  5377 net.cpp:100] Creating Layer flatten
I1011 14:39:54.931452  5377 net.cpp:434] flatten <- pool
I1011 14:39:54.931455  5377 net.cpp:408] flatten -> flatten
I1011 14:39:54.931489  5377 net.cpp:150] Setting up flatten
I1011 14:39:54.931493  5377 net.cpp:157] Top shape: 100 10 (1000)
I1011 14:39:54.931495  5377 net.cpp:165] Memory required for data: 250946800
I1011 14:39:54.931498  5377 layer_factory.hpp:77] Creating layer score
I1011 14:39:54.931502  5377 net.cpp:100] Creating Layer score
I1011 14:39:54.931505  5377 net.cpp:434] score <- flatten
I1011 14:39:54.931524  5377 net.cpp:408] score -> score
I1011 14:39:54.931670  5377 net.cpp:150] Setting up score
I1011 14:39:54.931676  5377 net.cpp:157] Top shape: 100 10 (1000)
I1011 14:39:54.931679  5377 net.cpp:165] Memory required for data: 250950800
I1011 14:39:54.931682  5377 layer_factory.hpp:77] Creating layer score_score_0_split
I1011 14:39:54.931685  5377 net.cpp:100] Creating Layer score_score_0_split
I1011 14:39:54.931687  5377 net.cpp:434] score_score_0_split <- score
I1011 14:39:54.931690  5377 net.cpp:408] score_score_0_split -> score_score_0_split_0
I1011 14:39:54.931695  5377 net.cpp:408] score_score_0_split -> score_score_0_split_1
I1011 14:39:54.931738  5377 net.cpp:150] Setting up score_score_0_split
I1011 14:39:54.931742  5377 net.cpp:157] Top shape: 100 10 (1000)
I1011 14:39:54.931759  5377 net.cpp:157] Top shape: 100 10 (1000)
I1011 14:39:54.931761  5377 net.cpp:165] Memory required for data: 250958800
I1011 14:39:54.931762  5377 layer_factory.hpp:77] Creating layer accuracy
I1011 14:39:54.931780  5377 net.cpp:100] Creating Layer accuracy
I1011 14:39:54.931782  5377 net.cpp:434] accuracy <- score_score_0_split_0
I1011 14:39:54.931785  5377 net.cpp:434] accuracy <- label_data_1_split_0
I1011 14:39:54.931788  5377 net.cpp:408] accuracy -> accuracy
…
