…
  stage: ""
}
type: "AdaGrad"
I1012 17:18:07.593183  5989 solver.cpp:81] Creating training net from train_net file: /home/adam/Honours/Honours-Project/cifar-10_allcnn/relu/allcnn_relu_train.prototxt
I1012 17:18:07.593504  5989 net.cpp:58] Initializing net from parameters: 
state {
  phase: TRAIN
  level: 0
  stage: ""
}
layer {
  name: "data"
  type: "Data"
  top: "data"
  top: "label"
  transform_param {
    mean_file: "mean.binaryproto"
  }
  data_param {
    source: "../../../data/cifar-10/cifar10_train_lmdb"
    batch_size: 64
    backend: LMDB
  }
}
layer {
  name: "conv1"
  type: "Convolution"
  bottom: "data"
  top: "conv1"
  convolution_param {
    num_output: 96
    kernel_size: 3
    weight_filler {
      type: "xavier"
    }
  }
}
layer {
  name: "relu1"
  type: "ReLU"
  bottom: "conv1"
  top: "conv1"
}
layer {
  name: "conv2"
  type: "Convolution"
  bottom: "conv1"
  top: "conv2"
  convolution_param {
    num_output: 96
    kernel_size: 3
    weight_filler {
      type: "xavier"
    }
  }
}
layer {
  name: "bn1"
  type: "BatchNorm"
  bottom: "conv2"
  top: "bn1"
}
layer {
  name: "relu2"
  type: "ReLU"
  bottom: "bn1"
  top: "bn1"
}
layer {
  name: "conv3"
  type: "Convolution"
  bottom: "bn1"
  top: "conv3"
  convolution_param {
    num_output: 96
    kernel_size: 3
    stride: 2
    weight_filler {
      type: "xavier"
    }
  }
}
layer {
  name: "drop1"
  type: "Dropout"
  bottom: "conv3"
  top: "drop1"
  dropout_param {
    dropout_ratio: 0.5
  }
}
layer {
  name: "relu3"
  type: "ReLU"
  bottom: "drop1"
  top: "drop1"
}
layer {
  name: "conv4"
  type: "Convolution"
  bottom: "drop1"
  top: "conv4"
  convolution_param {
    num_output: 192
    kernel_size: 3
    weight_filler {
      type: "xavier"
    }
  }
}
layer {
  name: "relu4"
  type: "ReLU"
  bottom: "conv4"
  top: "conv4"
}
layer {
  name: "conv5"
  type: "Convolution"
  bottom: "conv4"
  top: "conv5"
  convolution_param {
    num_output: 192
    kernel_size: 3
    weight_filler {
      type: "xavier"
    }
  }
}
layer {
  name: "bn2"
  type: "BatchNorm"
  bottom: "conv5"
  top: "bn2"
}
layer {
  name: "relu5"
  type: "ReLU"
  bottom: "bn2"
  top: "bn2"
}
layer {
  name: "conv6"
  type: "Convolution"
  bottom: "bn2"
  top: "conv6"
  convolution_param {
    num_output: 192
    kernel_size: 3
    stride: 2
    weight_filler {
      type: "xavier"
    }
  }
}
layer {
  name: "drop4"
  type: "Dropout"
  bottom: "conv6"
  top: "drop4"
  dropout_param {
    dropout_ratio: 0.5
  }
}
layer {
  name: "relu6"
  type: "ReLU"
  bottom: "drop4"
  top: "drop4"
}
layer {
  name: "conv7"
  type: "Convolution"
  bottom: "drop4"
  top: "conv7"
  convolution_param {
    num_output: 192
    kernel_size: 3
    weight_filler {
      type: "xavier"
    }
  }
}
layer {
  name: "relu7"
  type: "ReLU"
  bottom: "conv7"
  top: "conv7"
}
layer {
  name: "conv8"
  type: "Convolution"
  bottom: "conv7"
  top: "conv8"
  convolution_param {
    num_output: 192
    kernel_size: 1
    weight_filler {
      type: "xavier"
    }
  }
}
layer {
  name: "relu8"
  type: "ReLU"
  bottom: "conv8"
  top: "conv8"
}
layer {
  name: "conv9"
  type: "Convolution"
  bottom: "conv8"
  top: "conv9"
  convolution_param {
    num_output: 10
    kernel_size: 1
    weight_filler {
      type: "xavier"
    }
  }
}
layer {
  name: "relu9"
  type: "ReLU"
  bottom: "conv9"
  top: "conv9"
}
layer {
  name: "pool"
  type: "Pooling"
  bottom: "conv9"
  top: "pool"
  pooling_param {
    pool: AVE
    global_pooling: true
  }
}
layer {
  name: "flatten"
  type: "Flatten"
  bottom: "pool"
  top: "flatten"
}
layer {
  name: "score"
  type: "InnerProduct"
  bottom: "flatten"
  top: "score"
  inner_product_param {
    num_output: 10
    weight_filler {
      type: "gaussian"
    }
  }
}
layer {
  name: "accuracy"
  type: "Accuracy"
  bottom: "score"
  bottom: "label"
  top: "accuracy"
}
layer {
  name: "loss"
  type: "SoftmaxWithLoss"
  bottom: "score"
  bottom: "label"
  top: "loss"
}
I1012 17:18:07.593649  5989 layer_factory.hpp:77] Creating layer data
I1012 17:18:07.594101  5989 net.cpp:100] Creating Layer data
I1012 17:18:07.594110  5989 net.cpp:408] data -> data
I1012 17:18:07.594126  5989 net.cpp:408] data -> label
I1012 17:18:07.594166  5989 data_transformer.cpp:25] Loading mean file from: mean.binaryproto
I1012 17:18:07.594844  5994 db_lmdb.cpp:35] Opened lmdb ../../../data/cifar-10/cifar10_train_lmdb
I1012 17:18:07.601099  5989 data_layer.cpp:41] output data size: 64,3,32,32
I1012 17:18:07.602792  5989 net.cpp:150] Setting up data
I1012 17:18:07.602813  5989 net.cpp:157] Top shape: 64 3 32 32 (196608)
I1012 17:18:07.602816  5989 net.cpp:157] Top shape: 64 (64)
I1012 17:18:07.602818  5989 net.cpp:165] Memory required for data: 786688
I1012 17:18:07.602840  5989 layer_factory.hpp:77] Creating layer label_data_1_split
I1012 17:18:07.602850  5989 net.cpp:100] Creating Layer label_data_1_split
I1012 17:18:07.602854  5989 net.cpp:434] label_data_1_split <- label
I1012 17:18:07.602879  5989 net.cpp:408] label_data_1_split -> label_data_1_split_0
I1012 17:18:07.602900  5989 net.cpp:408] label_data_1_split -> label_data_1_split_1
I1012 17:18:07.602967  5989 net.cpp:150] Setting up label_data_1_split
I1012 17:18:07.602988  5989 net.cpp:157] Top shape: 64 (64)
I1012 17:18:07.602990  5989 net.cpp:157] Top shape: 64 (64)
I1012 17:18:07.603005  5989 net.cpp:165] Memory required for data: 787200
I1012 17:18:07.603008  5989 layer_factory.hpp:77] Creating layer conv1
I1012 17:18:07.603031  5989 net.cpp:100] Creating Layer conv1
I1012 17:18:07.603034  5989 net.cpp:434] conv1 <- data
I1012 17:18:07.603039  5989 net.cpp:408] conv1 -> conv1
I1012 17:18:07.740236  5989 net.cpp:150] Setting up conv1
I1012 17:18:07.740258  5989 net.cpp:157] Top shape: 64 96 30 30 (5529600)
I1012 17:18:07.740262  5989 net.cpp:165] Memory required for data: 22905600
I1012 17:18:07.740279  5989 layer_factory.hpp:77] Creating layer relu1
I1012 17:18:07.740286  5989 net.cpp:100] Creating Layer relu1
I1012 17:18:07.740289  5989 net.cpp:434] relu1 <- conv1
I1012 17:18:07.740293  5989 net.cpp:395] relu1 -> conv1 (in-place)
I1012 17:18:07.740480  5989 net.cpp:150] Setting up relu1
I1012 17:18:07.740488  5989 net.cpp:157] Top shape: 64 96 30 30 (5529600)
I1012 17:18:07.740489  5989 net.cpp:165] Memory required for data: 45024000
I1012 17:18:07.740491  5989 layer_factory.hpp:77] Creating layer conv2
I1012 17:18:07.740499  5989 net.cpp:100] Creating Layer conv2
I1012 17:18:07.740501  5989 net.cpp:434] conv2 <- conv1
I1012 17:18:07.740504  5989 net.cpp:408] conv2 -> conv2
I1012 17:18:07.741875  5989 net.cpp:150] Setting up conv2
I1012 17:18:07.741884  5989 net.cpp:157] Top shape: 64 96 28 28 (4816896)
I1012 17:18:07.741888  5989 net.cpp:165] Memory required for data: 64291584
I1012 17:18:07.741894  5989 layer_factory.hpp:77] Creating layer bn1
I1012 17:18:07.741899  5989 net.cpp:100] Creating Layer bn1
I1012 17:18:07.741901  5989 net.cpp:434] bn1 <- conv2
I1012 17:18:07.741904  5989 net.cpp:408] bn1 -> bn1
I1012 17:18:07.742090  5989 net.cpp:150] Setting up bn1
I1012 17:18:07.742095  5989 net.cpp:157] Top shape: 64 96 28 28 (4816896)
I1012 17:18:07.742097  5989 net.cpp:165] Memory required for data: 83559168
I1012 17:18:07.742103  5989 layer_factory.hpp:77] Creating layer relu2
I1012 17:18:07.742107  5989 net.cpp:100] Creating Layer relu2
I1012 17:18:07.742110  5989 net.cpp:434] relu2 <- bn1
I1012 17:18:07.742112  5989 net.cpp:395] relu2 -> bn1 (in-place)
I1012 17:18:07.742275  5989 net.cpp:150] Setting up relu2
I1012 17:18:07.742281  5989 net.cpp:157] Top shape: 64 96 28 28 (4816896)
I1012 17:18:07.742283  5989 net.cpp:165] Memory required for data: 102826752
I1012 17:18:07.742296  5989 layer_factory.hpp:77] Creating layer conv3
I1012 17:18:07.742302  5989 net.cpp:100] Creating Layer conv3
I1012 17:18:07.742305  5989 net.cpp:434] conv3 <- bn1
I1012 17:18:07.742308  5989 net.cpp:408] conv3 -> conv3
I1012 17:18:07.743541  5989 net.cpp:150] Setting up conv3
I1012 17:18:07.743551  5989 net.cpp:157] Top shape: 64 96 13 13 (1038336)
I1012 17:18:07.743552  5989 net.cpp:165] Memory required for data: 106980096
I1012 17:18:07.743559  5989 layer_factory.hpp:77] Creating layer drop1
I1012 17:18:07.743566  5989 net.cpp:100] Creating Layer drop1
I1012 17:18:07.743567  5989 net.cpp:434] drop1 <- conv3
I1012 17:18:07.743572  5989 net.cpp:408] drop1 -> drop1
I1012 17:18:07.743619  5989 net.cpp:150] Setting up drop1
I1012 17:18:07.743638  5989 net.cpp:157] Top shape: 64 96 13 13 (1038336)
I1012 17:18:07.743641  5989 net.cpp:165] Memory required for data: 111133440
I1012 17:18:07.743643  5989 layer_factory.hpp:77] Creating layer relu3
I1012 17:18:07.743659  5989 net.cpp:100] Creating Layer relu3
I1012 17:18:07.743661  5989 net.cpp:434] relu3 <- drop1
I1012 17:18:07.743664  5989 net.cpp:395] relu3 -> drop1 (in-place)
I1012 17:18:07.743948  5989 net.cpp:150] Setting up relu3
I1012 17:18:07.743957  5989 net.cpp:157] Top shape: 64 96 13 13 (1038336)
I1012 17:18:07.743958  5989 net.cpp:165] Memory required for data: 115286784
I1012 17:18:07.743962  5989 layer_factory.hpp:77] Creating layer conv4
I1012 17:18:07.743966  5989 net.cpp:100] Creating Layer conv4
I1012 17:18:07.743968  5989 net.cpp:434] conv4 <- drop1
I1012 17:18:07.743973  5989 net.cpp:408] conv4 -> conv4
I1012 17:18:07.745800  5989 net.cpp:150] Setting up conv4
I1012 17:18:07.745811  5989 net.cpp:157] Top shape: 64 192 11 11 (1486848)
I1012 17:18:07.745813  5989 net.cpp:165] Memory required for data: 121234176
I1012 17:18:07.745817  5989 layer_factory.hpp:77] Creating layer relu4
I1012 17:18:07.745821  5989 net.cpp:100] Creating Layer relu4
I1012 17:18:07.745823  5989 net.cpp:434] relu4 <- conv4
I1012 17:18:07.745827  5989 net.cpp:395] relu4 -> conv4 (in-place)
I1012 17:18:07.746000  5989 net.cpp:150] Setting up relu4
I1012 17:18:07.746006  5989 net.cpp:157] Top shape: 64 192 11 11 (1486848)
I1012 17:18:07.746007  5989 net.cpp:165] Memory required for data: 127181568
I1012 17:18:07.746011  5989 layer_factory.hpp:77] Creating layer conv5
I1012 17:18:07.746016  5989 net.cpp:100] Creating Layer conv5
I1012 17:18:07.746017  5989 net.cpp:434] conv5 <- conv4
I1012 17:18:07.746021  5989 net.cpp:408] conv5 -> conv5
I1012 17:18:07.748548  5989 net.cpp:150] Setting up conv5
I1012 17:18:07.748558  5989 net.cpp:157] Top shape: 64 192 9 9 (995328)
I1012 17:18:07.748560  5989 net.cpp:165] Memory required for data: 131162880
I1012 17:18:07.748565  5989 layer_factory.hpp:77] Creating layer bn2
I1012 17:18:07.748570  5989 net.cpp:100] Creating Layer bn2
I1012 17:18:07.748572  5989 net.cpp:434] bn2 <- conv5
I1012 17:18:07.748575  5989 net.cpp:408] bn2 -> bn2
I1012 17:18:07.748776  5989 net.cpp:150] Setting up bn2
I1012 17:18:07.748781  5989 net.cpp:157] Top shape: 64 192 9 9 (995328)
I1012 17:18:07.748783  5989 net.cpp:165] Memory required for data: 135144192
I1012 17:18:07.748787  5989 layer_factory.hpp:77] Creating layer relu5
I1012 17:18:07.748790  5989 net.cpp:100] Creating Layer relu5
I1012 17:18:07.748792  5989 net.cpp:434] relu5 <- bn2
I1012 17:18:07.748796  5989 net.cpp:395] relu5 -> bn2 (in-place)
I1012 17:18:07.748967  5989 net.cpp:150] Setting up relu5
I1012 17:18:07.748975  5989 net.cpp:157] Top shape: 64 192 9 9 (995328)
I1012 17:18:07.748976  5989 net.cpp:165] Memory required for data: 139125504
I1012 17:18:07.748978  5989 layer_factory.hpp:77] Creating layer conv6
I1012 17:18:07.748983  5989 net.cpp:100] Creating Layer conv6
I1012 17:18:07.748986  5989 net.cpp:434] conv6 <- bn2
I1012 17:18:07.748989  5989 net.cpp:408] conv6 -> conv6
I1012 17:18:07.751513  5989 net.cpp:150] Setting up conv6
I1012 17:18:07.751538  5989 net.cpp:157] Top shape: 64 192 4 4 (196608)
I1012 17:18:07.751540  5989 net.cpp:165] Memory required for data: 139911936
I1012 17:18:07.751577  5989 layer_factory.hpp:77] Creating layer drop4
I1012 17:18:07.751587  5989 net.cpp:100] Creating Layer drop4
I1012 17:18:07.751590  5989 net.cpp:434] drop4 <- conv6
I1012 17:18:07.751606  5989 net.cpp:408] drop4 -> drop4
I1012 17:18:07.751680  5989 net.cpp:150] Setting up drop4
I1012 17:18:07.751685  5989 net.cpp:157] Top shape: 64 192 4 4 (196608)
I1012 17:18:07.751701  5989 net.cpp:165] Memory required for data: 140698368
I1012 17:18:07.751703  5989 layer_factory.hpp:77] Creating layer relu6
I1012 17:18:07.751708  5989 net.cpp:100] Creating Layer relu6
I1012 17:18:07.751709  5989 net.cpp:434] relu6 <- drop4
I1012 17:18:07.751713  5989 net.cpp:395] relu6 -> drop4 (in-place)
I1012 17:18:07.751972  5989 net.cpp:150] Setting up relu6
I1012 17:18:07.751996  5989 net.cpp:157] Top shape: 64 192 4 4 (196608)
I1012 17:18:07.751997  5989 net.cpp:165] Memory required for data: 141484800
I1012 17:18:07.751999  5989 layer_factory.hpp:77] Creating layer conv7
I1012 17:18:07.752018  5989 net.cpp:100] Creating Layer conv7
I1012 17:18:07.752020  5989 net.cpp:434] conv7 <- drop4
I1012 17:18:07.752024  5989 net.cpp:408] conv7 -> conv7
I1012 17:18:07.755246  5989 net.cpp:150] Setting up conv7
I1012 17:18:07.755265  5989 net.cpp:157] Top shape: 64 192 2 2 (49152)
I1012 17:18:07.755267  5989 net.cpp:165] Memory required for data: 141681408
I1012 17:18:07.755275  5989 layer_factory.hpp:77] Creating layer relu7
I1012 17:18:07.755280  5989 net.cpp:100] Creating Layer relu7
I1012 17:18:07.755282  5989 net.cpp:434] relu7 <- conv7
I1012 17:18:07.755286  5989 net.cpp:395] relu7 -> conv7 (in-place)
I1012 17:18:07.755542  5989 net.cpp:150] Setting up relu7
I1012 17:18:07.755551  5989 net.cpp:157] Top shape: 64 192 2 2 (49152)
I1012 17:18:07.755553  5989 net.cpp:165] Memory required for data: 141878016
I1012 17:18:07.755555  5989 layer_factory.hpp:77] Creating layer conv8
I1012 17:18:07.755563  5989 net.cpp:100] Creating Layer conv8
I1012 17:18:07.755564  5989 net.cpp:434] conv8 <- conv7
I1012 17:18:07.755568  5989 net.cpp:408] conv8 -> conv8
I1012 17:18:07.756820  5989 net.cpp:150] Setting up conv8
I1012 17:18:07.756830  5989 net.cpp:157] Top shape: 64 192 2 2 (49152)
I1012 17:18:07.756832  5989 net.cpp:165] Memory required for data: 142074624
I1012 17:18:07.756837  5989 layer_factory.hpp:77] Creating layer relu8
I1012 17:18:07.756840  5989 net.cpp:100] Creating Layer relu8
I1012 17:18:07.756844  5989 net.cpp:434] relu8 <- conv8
I1012 17:18:07.756847  5989 net.cpp:395] relu8 -> conv8 (in-place)
I1012 17:18:07.757014  5989 net.cpp:150] Setting up relu8
I1012 17:18:07.757020  5989 net.cpp:157] Top shape: 64 192 2 2 (49152)
I1012 17:18:07.757022  5989 net.cpp:165] Memory required for data: 142271232
I1012 17:18:07.757025  5989 layer_factory.hpp:77] Creating layer conv9
I1012 17:18:07.757028  5989 net.cpp:100] Creating Layer conv9
I1012 17:18:07.757030  5989 net.cpp:434] conv9 <- conv8
I1012 17:18:07.757035  5989 net.cpp:408] conv9 -> conv9
I1012 17:18:07.757844  5989 net.cpp:150] Setting up conv9
I1012 17:18:07.757853  5989 net.cpp:157] Top shape: 64 10 2 2 (2560)
I1012 17:18:07.757855  5989 net.cpp:165] Memory required for data: 142281472
I1012 17:18:07.757860  5989 layer_factory.hpp:77] Creating layer relu9
I1012 17:18:07.757863  5989 net.cpp:100] Creating Layer relu9
I1012 17:18:07.757865  5989 net.cpp:434] relu9 <- conv9
I1012 17:18:07.757869  5989 net.cpp:395] relu9 -> conv9 (in-place)
I1012 17:18:07.758122  5989 net.cpp:150] Setting up relu9
I1012 17:18:07.758129  5989 net.cpp:157] Top shape: 64 10 2 2 (2560)
I1012 17:18:07.758131  5989 net.cpp:165] Memory required for data: 142291712
I1012 17:18:07.758134  5989 layer_factory.hpp:77] Creating layer pool
I1012 17:18:07.758138  5989 net.cpp:100] Creating Layer pool
I1012 17:18:07.758141  5989 net.cpp:434] pool <- conv9
I1012 17:18:07.758144  5989 net.cpp:408] pool -> pool
I1012 17:18:07.758337  5989 net.cpp:150] Setting up pool
I1012 17:18:07.758343  5989 net.cpp:157] Top shape: 64 10 1 1 (640)
I1012 17:18:07.758345  5989 net.cpp:165] Memory required for data: 142294272
I1012 17:18:07.758358  5989 layer_factory.hpp:77] Creating layer flatten
I1012 17:18:07.758363  5989 net.cpp:100] Creating Layer flatten
I1012 17:18:07.758364  5989 net.cpp:434] flatten <- pool
I1012 17:18:07.758368  5989 net.cpp:408] flatten -> flatten
I1012 17:18:07.758420  5989 net.cpp:150] Setting up flatten
I1012 17:18:07.758440  5989 net.cpp:157] Top shape: 64 10 (640)
I1012 17:18:07.758441  5989 net.cpp:165] Memory required for data: 142296832
I1012 17:18:07.758443  5989 layer_factory.hpp:77] Creating layer score
I1012 17:18:07.758460  5989 net.cpp:100] Creating Layer score
I1012 17:18:07.758462  5989 net.cpp:434] score <- flatten
I1012 17:18:07.758482  5989 net.cpp:408] score -> score
I1012 17:18:07.758631  5989 net.cpp:150] Setting up score
I1012 17:18:07.758635  5989 net.cpp:157] Top shape: 64 10 (640)
I1012 17:18:07.758637  5989 net.cpp:165] Memory required for data: 142299392
I1012 17:18:07.758641  5989 layer_factory.hpp:77] Creating layer score_score_0_split
I1012 17:18:07.758644  5989 net.cpp:100] Creating Layer score_score_0_split
I1012 17:18:07.758646  5989 net.cpp:434] score_score_0_split <- score
I1012 17:18:07.758651  5989 net.cpp:408] score_score_0_split -> score_score_0_split_0
I1012 17:18:07.758656  5989 net.cpp:408] score_score_0_split -> score_score_0_split_1
I1012 17:18:07.758697  5989 net.cpp:150] Setting up score_score_0_split
I1012 17:18:07.758700  5989 net.cpp:157] Top shape: 64 10 (640)
I1012 17:18:07.758703  5989 net.cpp:157] Top shape: 64 10 (640)
I1012 17:18:07.758719  5989 net.cpp:165] Memory required for data: 142304512
I1012 17:18:07.758721  5989 layer_factory.hpp:77] Creating layer accuracy
I1012 17:18:07.758724  5989 net.cpp:100] Creating Layer accuracy
I1012 17:18:07.758728  5989 net.cpp:434] accuracy <- score_score_0_split_0
I1012 17:18:07.758743  5989 net.cpp:434] accuracy <- label_data_1_split_0
I1012 17:18:07.758746  5989 net.cpp:408] accuracy -> accuracy
…
I1012 17:18:07.759325  5989 net.cpp:283] Network initialization done.
I1012 17:18:07.759538  5989 solver.cpp:181] Creating test net (#0) specified by test_net file: /home/adam/Honours/Honours-Project/cifar-10_allcnn/relu/allcnn_relu_test.prototxt
I1012 17:18:07.759711  5989 net.cpp:58] Initializing net from parameters: 
state {
  phase: TEST
}
layer {
  name: "data"
  type: "Data"
  top: "data"
  top: "label"
  transform_param {
    mean_file: "mean.binaryproto"
  }
  data_param {
    source: "../../../data/cifar-10/cifar10_test_lmdb"
    batch_size: 100
    backend: LMDB
  }
}
layer {
  name: "conv1"
  type: "Convolution"
  bottom: "data"
  top: "conv1"
  convolution_param {
    num_output: 96
    kernel_size: 3
    weight_filler {
      type: "xavier"
    }
  }
}
layer {
  name: "relu1"
  type: "ReLU"
  bottom: "conv1"
  top: "conv1"
}
layer {
  name: "conv2"
  type: "Convolution"
  bottom: "conv1"
  top: "conv2"
  convolution_param {
    num_output: 96
    kernel_size: 3
    weight_filler {
      type: "xavier"
    }
  }
}
layer {
  name: "bn1"
  type: "BatchNorm"
  bottom: "conv2"
  top: "bn1"
}
layer {
  name: "relu2"
  type: "ReLU"
  bottom: "bn1"
  top: "bn1"
}
layer {
  name: "conv3"
  type: "Convolution"
  bottom: "bn1"
  top: "conv3"
  convolution_param {
    num_output: 96
    kernel_size: 3
    stride: 2
    weight_filler {
      type: "xavier"
    }
  }
}
layer {
  name: "drop1"
  type: "Dropout"
  bottom: "conv3"
  top: "drop1"
  dropout_param {
    dropout_ratio: 0.5
  }
}
layer {
  name: "relu3"
  type: "ReLU"
  bottom: "drop1"
  top: "drop1"
}
layer {
  name: "conv4"
  type: "Convolution"
  bottom: "drop1"
  top: "conv4"
  convolution_param {
    num_output: 192
    kernel_size: 3
    weight_filler {
      type: "xavier"
    }
  }
}
layer {
  name: "relu4"
  type: "ReLU"
  bottom: "conv4"
  top: "conv4"
}
layer {
  name: "conv5"
  type: "Convolution"
  bottom: "conv4"
  top: "conv5"
  convolution_param {
    num_output: 192
    kernel_size: 3
    weight_filler {
      type: "xavier"
    }
  }
}
layer {
  name: "bn2"
  type: "BatchNorm"
  bottom: "conv5"
  top: "bn2"
}
layer {
  name: "relu5"
  type: "ReLU"
  bottom: "bn2"
  top: "bn2"
}
layer {
  name: "conv6"
  type: "Convolution"
  bottom: "bn2"
  top: "conv6"
  convolution_param {
    num_output: 192
    kernel_size: 3
    stride: 2
    weight_filler {
      type: "xavier"
    }
  }
}
layer {
  name: "drop4"
  type: "Dropout"
  bottom: "conv6"
  top: "drop4"
  dropout_param {
    dropout_ratio: 0.5
  }
}
layer {
  name: "relu6"
  type: "ReLU"
  bottom: "drop4"
  top: "drop4"
}
layer {
  name: "conv7"
  type: "Convolution"
  bottom: "drop4"
  top: "conv7"
  convolution_param {
    num_output: 192
    kernel_size: 3
    weight_filler {
      type: "xavier"
    }
  }
}
layer {
  name: "relu7"
  type: "ReLU"
  bottom: "conv7"
  top: "conv7"
}
layer {
  name: "conv8"
  type: "Convolution"
  bottom: "conv7"
  top: "conv8"
  convolution_param {
    num_output: 192
    kernel_size: 1
    weight_filler {
      type: "xavier"
    }
  }
}
layer {
  name: "relu8"
  type: "ReLU"
  bottom: "conv8"
  top: "conv8"
}
layer {
  name: "conv9"
  type: "Convolution"
  bottom: "conv8"
  top: "conv9"
  convolution_param {
    num_output: 10
    kernel_size: 1
    weight_filler {
      type: "xavier"
    }
  }
}
layer {
  name: "relu9"
  type: "ReLU"
  bottom: "conv9"
  top: "conv9"
}
layer {
  name: "pool"
  type: "Pooling"
  bottom: "conv9"
  top: "pool"
  pooling_param {
    pool: AVE
    global_pooling: true
  }
}
layer {
  name: "flatten"
  type: "Flatten"
  bottom: "pool"
  top: "flatten"
}
layer {
  name: "score"
  type: "InnerProduct"
  bottom: "flatten"
  top: "score"
  inner_product_param {
    num_output: 10
    weight_filler {
      type: "gaussian"
    }
  }
}
layer {
  name: "accuracy"
  type: "Accuracy"
  bottom: "score"
  bottom: "label"
  top: "accuracy"
}
layer {
  name: "loss"
  type: "SoftmaxWithLoss"
  bottom: "score"
  bottom: "label"
  top: "loss"
}
I1012 17:18:07.759845  5989 layer_factory.hpp:77] Creating layer data
I1012 17:18:07.759925  5989 net.cpp:100] Creating Layer data
I1012 17:18:07.759932  5989 net.cpp:408] data -> data
I1012 17:18:07.759938  5989 net.cpp:408] data -> label
I1012 17:18:07.759944  5989 data_transformer.cpp:25] Loading mean file from: mean.binaryproto
I1012 17:18:07.760682  5996 db_lmdb.cpp:35] Opened lmdb ../../../data/cifar-10/cifar10_test_lmdb
I1012 17:18:07.760788  5989 data_layer.cpp:41] output data size: 100,3,32,32
I1012 17:18:07.762616  5989 net.cpp:150] Setting up data
I1012 17:18:07.762657  5989 net.cpp:157] Top shape: 100 3 32 32 (307200)
I1012 17:18:07.762660  5989 net.cpp:157] Top shape: 100 (100)
I1012 17:18:07.762665  5989 net.cpp:165] Memory required for data: 1229200
I1012 17:18:07.762668  5989 layer_factory.hpp:77] Creating layer label_data_1_split
I1012 17:18:07.762676  5989 net.cpp:100] Creating Layer label_data_1_split
I1012 17:18:07.762679  5989 net.cpp:434] label_data_1_split <- label
I1012 17:18:07.762684  5989 net.cpp:408] label_data_1_split -> label_data_1_split_0
I1012 17:18:07.762706  5989 net.cpp:408] label_data_1_split -> label_data_1_split_1
I1012 17:18:07.762778  5989 net.cpp:150] Setting up label_data_1_split
I1012 17:18:07.762781  5989 net.cpp:157] Top shape: 100 (100)
I1012 17:18:07.762784  5989 net.cpp:157] Top shape: 100 (100)
I1012 17:18:07.762786  5989 net.cpp:165] Memory required for data: 1230000
I1012 17:18:07.762789  5989 layer_factory.hpp:77] Creating layer conv1
I1012 17:18:07.762797  5989 net.cpp:100] Creating Layer conv1
I1012 17:18:07.762799  5989 net.cpp:434] conv1 <- data
I1012 17:18:07.762802  5989 net.cpp:408] conv1 -> conv1
I1012 17:18:07.763844  5989 net.cpp:150] Setting up conv1
I1012 17:18:07.763870  5989 net.cpp:157] Top shape: 100 96 30 30 (8640000)
I1012 17:18:07.763872  5989 net.cpp:165] Memory required for data: 35790000
I1012 17:18:07.763880  5989 layer_factory.hpp:77] Creating layer relu1
I1012 17:18:07.763886  5989 net.cpp:100] Creating Layer relu1
I1012 17:18:07.763890  5989 net.cpp:434] relu1 <- conv1
I1012 17:18:07.763908  5989 net.cpp:395] relu1 -> conv1 (in-place)
I1012 17:18:07.764259  5989 net.cpp:150] Setting up relu1
I1012 17:18:07.764266  5989 net.cpp:157] Top shape: 100 96 30 30 (8640000)
I1012 17:18:07.764282  5989 net.cpp:165] Memory required for data: 70350000
I1012 17:18:07.764286  5989 layer_factory.hpp:77] Creating layer conv2
I1012 17:18:07.764293  5989 net.cpp:100] Creating Layer conv2
I1012 17:18:07.764297  5989 net.cpp:434] conv2 <- conv1
I1012 17:18:07.764313  5989 net.cpp:408] conv2 -> conv2
I1012 17:18:07.765692  5989 net.cpp:150] Setting up conv2
I1012 17:18:07.765717  5989 net.cpp:157] Top shape: 100 96 28 28 (7526400)
I1012 17:18:07.765719  5989 net.cpp:165] Memory required for data: 100455600
I1012 17:18:07.765727  5989 layer_factory.hpp:77] Creating layer bn1
I1012 17:18:07.765732  5989 net.cpp:100] Creating Layer bn1
I1012 17:18:07.765733  5989 net.cpp:434] bn1 <- conv2
I1012 17:18:07.765738  5989 net.cpp:408] bn1 -> bn1
I1012 17:18:07.765969  5989 net.cpp:150] Setting up bn1
I1012 17:18:07.765976  5989 net.cpp:157] Top shape: 100 96 28 28 (7526400)
I1012 17:18:07.765995  5989 net.cpp:165] Memory required for data: 130561200
I1012 17:18:07.766005  5989 layer_factory.hpp:77] Creating layer relu2
I1012 17:18:07.766008  5989 net.cpp:100] Creating Layer relu2
I1012 17:18:07.766010  5989 net.cpp:434] relu2 <- bn1
I1012 17:18:07.766013  5989 net.cpp:395] relu2 -> bn1 (in-place)
I1012 17:18:07.766273  5989 net.cpp:150] Setting up relu2
I1012 17:18:07.766281  5989 net.cpp:157] Top shape: 100 96 28 28 (7526400)
I1012 17:18:07.766283  5989 net.cpp:165] Memory required for data: 160666800
I1012 17:18:07.766286  5989 layer_factory.hpp:77] Creating layer conv3
I1012 17:18:07.766293  5989 net.cpp:100] Creating Layer conv3
I1012 17:18:07.766297  5989 net.cpp:434] conv3 <- bn1
I1012 17:18:07.766301  5989 net.cpp:408] conv3 -> conv3
I1012 17:18:07.767452  5989 net.cpp:150] Setting up conv3
I1012 17:18:07.767475  5989 net.cpp:157] Top shape: 100 96 13 13 (1622400)
I1012 17:18:07.767480  5989 net.cpp:165] Memory required for data: 167156400
I1012 17:18:07.767488  5989 layer_factory.hpp:77] Creating layer drop1
I1012 17:18:07.767498  5989 net.cpp:100] Creating Layer drop1
I1012 17:18:07.767508  5989 net.cpp:434] drop1 <- conv3
I1012 17:18:07.767514  5989 net.cpp:408] drop1 -> drop1
I1012 17:18:07.767554  5989 net.cpp:150] Setting up drop1
I1012 17:18:07.767560  5989 net.cpp:157] Top shape: 100 96 13 13 (1622400)
I1012 17:18:07.767562  5989 net.cpp:165] Memory required for data: 173646000
I1012 17:18:07.767565  5989 layer_factory.hpp:77] Creating layer relu3
I1012 17:18:07.767568  5989 net.cpp:100] Creating Layer relu3
I1012 17:18:07.767571  5989 net.cpp:434] relu3 <- drop1
I1012 17:18:07.767575  5989 net.cpp:395] relu3 -> drop1 (in-place)
I1012 17:18:07.767827  5989 net.cpp:150] Setting up relu3
I1012 17:18:07.767835  5989 net.cpp:157] Top shape: 100 96 13 13 (1622400)
I1012 17:18:07.767838  5989 net.cpp:165] Memory required for data: 180135600
I1012 17:18:07.767840  5989 layer_factory.hpp:77] Creating layer conv4
I1012 17:18:07.767846  5989 net.cpp:100] Creating Layer conv4
I1012 17:18:07.767850  5989 net.cpp:434] conv4 <- drop1
I1012 17:18:07.767854  5989 net.cpp:408] conv4 -> conv4
I1012 17:18:07.771030  5989 net.cpp:150] Setting up conv4
I1012 17:18:07.771045  5989 net.cpp:157] Top shape: 100 192 11 11 (2323200)
I1012 17:18:07.771049  5989 net.cpp:165] Memory required for data: 189428400
I1012 17:18:07.771069  5989 layer_factory.hpp:77] Creating layer relu4
I1012 17:18:07.771075  5989 net.cpp:100] Creating Layer relu4
I1012 17:18:07.771090  5989 net.cpp:434] relu4 <- conv4
I1012 17:18:07.771095  5989 net.cpp:395] relu4 -> conv4 (in-place)
I1012 17:18:07.771265  5989 net.cpp:150] Setting up relu4
I1012 17:18:07.771271  5989 net.cpp:157] Top shape: 100 192 11 11 (2323200)
I1012 17:18:07.771287  5989 net.cpp:165] Memory required for data: 198721200
I1012 17:18:07.771289  5989 layer_factory.hpp:77] Creating layer conv5
I1012 17:18:07.771296  5989 net.cpp:100] Creating Layer conv5
I1012 17:18:07.771299  5989 net.cpp:434] conv5 <- conv4
I1012 17:18:07.771304  5989 net.cpp:408] conv5 -> conv5
I1012 17:18:07.774041  5989 net.cpp:150] Setting up conv5
I1012 17:18:07.774055  5989 net.cpp:157] Top shape: 100 192 9 9 (1555200)
I1012 17:18:07.774071  5989 net.cpp:165] Memory required for data: 204942000
I1012 17:18:07.774077  5989 layer_factory.hpp:77] Creating layer bn2
I1012 17:18:07.774083  5989 net.cpp:100] Creating Layer bn2
I1012 17:18:07.774085  5989 net.cpp:434] bn2 <- conv5
I1012 17:18:07.774091  5989 net.cpp:408] bn2 -> bn2
I1012 17:18:07.774343  5989 net.cpp:150] Setting up bn2
I1012 17:18:07.774363  5989 net.cpp:157] Top shape: 100 192 9 9 (1555200)
I1012 17:18:07.774364  5989 net.cpp:165] Memory required for data: 211162800
I1012 17:18:07.774369  5989 layer_factory.hpp:77] Creating layer relu5
I1012 17:18:07.774374  5989 net.cpp:100] Creating Layer relu5
I1012 17:18:07.774376  5989 net.cpp:434] relu5 <- bn2
I1012 17:18:07.774394  5989 net.cpp:395] relu5 -> bn2 (in-place)
I1012 17:18:07.774673  5989 net.cpp:150] Setting up relu5
I1012 17:18:07.774682  5989 net.cpp:157] Top shape: 100 192 9 9 (1555200)
I1012 17:18:07.774683  5989 net.cpp:165] Memory required for data: 217383600
I1012 17:18:07.774685  5989 layer_factory.hpp:77] Creating layer conv6
I1012 17:18:07.774691  5989 net.cpp:100] Creating Layer conv6
I1012 17:18:07.774694  5989 net.cpp:434] conv6 <- bn2
I1012 17:18:07.774698  5989 net.cpp:408] conv6 -> conv6
I1012 17:18:07.777194  5989 net.cpp:150] Setting up conv6
I1012 17:18:07.777204  5989 net.cpp:157] Top shape: 100 192 4 4 (307200)
I1012 17:18:07.777205  5989 net.cpp:165] Memory required for data: 218612400
I1012 17:18:07.777215  5989 layer_factory.hpp:77] Creating layer drop4
I1012 17:18:07.777222  5989 net.cpp:100] Creating Layer drop4
I1012 17:18:07.777225  5989 net.cpp:434] drop4 <- conv6
I1012 17:18:07.777228  5989 net.cpp:408] drop4 -> drop4
I1012 17:18:07.777290  5989 net.cpp:150] Setting up drop4
I1012 17:18:07.777309  5989 net.cpp:157] Top shape: 100 192 4 4 (307200)
I1012 17:18:07.777312  5989 net.cpp:165] Memory required for data: 219841200
I1012 17:18:07.777313  5989 layer_factory.hpp:77] Creating layer relu6
I1012 17:18:07.777317  5989 net.cpp:100] Creating Layer relu6
I1012 17:18:07.777333  5989 net.cpp:434] relu6 <- drop4
I1012 17:18:07.777335  5989 net.cpp:395] relu6 -> drop4 (in-place)
I1012 17:18:07.777609  5989 net.cpp:150] Setting up relu6
I1012 17:18:07.777617  5989 net.cpp:157] Top shape: 100 192 4 4 (307200)
I1012 17:18:07.777619  5989 net.cpp:165] Memory required for data: 221070000
I1012 17:18:07.777621  5989 layer_factory.hpp:77] Creating layer conv7
I1012 17:18:07.777628  5989 net.cpp:100] Creating Layer conv7
I1012 17:18:07.777631  5989 net.cpp:434] conv7 <- drop4
I1012 17:18:07.777634  5989 net.cpp:408] conv7 -> conv7
I1012 17:18:07.780226  5989 net.cpp:150] Setting up conv7
I1012 17:18:07.780237  5989 net.cpp:157] Top shape: 100 192 2 2 (76800)
I1012 17:18:07.780239  5989 net.cpp:165] Memory required for data: 221377200
I1012 17:18:07.780244  5989 layer_factory.hpp:77] Creating layer relu7
I1012 17:18:07.780248  5989 net.cpp:100] Creating Layer relu7
I1012 17:18:07.780251  5989 net.cpp:434] relu7 <- conv7
I1012 17:18:07.780253  5989 net.cpp:395] relu7 -> conv7 (in-place)
I1012 17:18:07.780426  5989 net.cpp:150] Setting up relu7
I1012 17:18:07.780432  5989 net.cpp:157] Top shape: 100 192 2 2 (76800)
I1012 17:18:07.780434  5989 net.cpp:165] Memory required for data: 221684400
I1012 17:18:07.780436  5989 layer_factory.hpp:77] Creating layer conv8
I1012 17:18:07.780442  5989 net.cpp:100] Creating Layer conv8
I1012 17:18:07.780444  5989 net.cpp:434] conv8 <- conv7
I1012 17:18:07.780448  5989 net.cpp:408] conv8 -> conv8
I1012 17:18:07.781430  5989 net.cpp:150] Setting up conv8
I1012 17:18:07.781440  5989 net.cpp:157] Top shape: 100 192 2 2 (76800)
I1012 17:18:07.781442  5989 net.cpp:165] Memory required for data: 221991600
I1012 17:18:07.781446  5989 layer_factory.hpp:77] Creating layer relu8
I1012 17:18:07.781450  5989 net.cpp:100] Creating Layer relu8
I1012 17:18:07.781452  5989 net.cpp:434] relu8 <- conv8
I1012 17:18:07.781455  5989 net.cpp:395] relu8 -> conv8 (in-place)
I1012 17:18:07.781714  5989 net.cpp:150] Setting up relu8
I1012 17:18:07.781723  5989 net.cpp:157] Top shape: 100 192 2 2 (76800)
I1012 17:18:07.781724  5989 net.cpp:165] Memory required for data: 222298800
I1012 17:18:07.781726  5989 layer_factory.hpp:77] Creating layer conv9
I1012 17:18:07.781733  5989 net.cpp:100] Creating Layer conv9
I1012 17:18:07.781735  5989 net.cpp:434] conv9 <- conv8
I1012 17:18:07.781739  5989 net.cpp:408] conv9 -> conv9
I1012 17:18:07.782546  5989 net.cpp:150] Setting up conv9
I1012 17:18:07.782555  5989 net.cpp:157] Top shape: 100 10 2 2 (4000)
I1012 17:18:07.782557  5989 net.cpp:165] Memory required for data: 222314800
I1012 17:18:07.782562  5989 layer_factory.hpp:77] Creating layer relu9
I1012 17:18:07.782564  5989 net.cpp:100] Creating Layer relu9
I1012 17:18:07.782567  5989 net.cpp:434] relu9 <- conv9
I1012 17:18:07.782582  5989 net.cpp:395] relu9 -> conv9 (in-place)
I1012 17:18:07.782843  5989 net.cpp:150] Setting up relu9
I1012 17:18:07.782851  5989 net.cpp:157] Top shape: 100 10 2 2 (4000)
I1012 17:18:07.782853  5989 net.cpp:165] Memory required for data: 222330800
I1012 17:18:07.782855  5989 layer_factory.hpp:77] Creating layer pool
I1012 17:18:07.782860  5989 net.cpp:100] Creating Layer pool
I1012 17:18:07.782862  5989 net.cpp:434] pool <- conv9
I1012 17:18:07.782866  5989 net.cpp:408] pool -> pool
I1012 17:18:07.783052  5989 net.cpp:150] Setting up pool
I1012 17:18:07.783058  5989 net.cpp:157] Top shape: 100 10 1 1 (1000)
I1012 17:18:07.783061  5989 net.cpp:165] Memory required for data: 222334800
I1012 17:18:07.783063  5989 layer_factory.hpp:77] Creating layer flatten
I1012 17:18:07.783066  5989 net.cpp:100] Creating Layer flatten
I1012 17:18:07.783068  5989 net.cpp:434] flatten <- pool
I1012 17:18:07.783072  5989 net.cpp:408] flatten -> flatten
I1012 17:18:07.783092  5989 net.cpp:150] Setting up flatten
I1012 17:18:07.783113  5989 net.cpp:157] Top shape: 100 10 (1000)
I1012 17:18:07.783114  5989 net.cpp:165] Memory required for data: 222338800
I1012 17:18:07.783116  5989 layer_factory.hpp:77] Creating layer score
I1012 17:18:07.783121  5989 net.cpp:100] Creating Layer score
I1012 17:18:07.783123  5989 net.cpp:434] score <- flatten
I1012 17:18:07.783126  5989 net.cpp:408] score -> score
I1012 17:18:07.783275  5989 net.cpp:150] Setting up score
I1012 17:18:07.783279  5989 net.cpp:157] Top shape: 100 10 (1000)
I1012 17:18:07.783282  5989 net.cpp:165] Memory required for data: 222342800
I1012 17:18:07.783285  5989 layer_factory.hpp:77] Creating layer score_score_0_split
I1012 17:18:07.783288  5989 net.cpp:100] Creating Layer score_score_0_split
I1012 17:18:07.783290  5989 net.cpp:434] score_score_0_split <- score
I1012 17:18:07.783294  5989 net.cpp:408] score_score_0_split -> score_score_0_split_0
I1012 17:18:07.783299  5989 net.cpp:408] score_score_0_split -> score_score_0_split_1
I1012 17:18:07.783344  5989 net.cpp:150] Setting up score_score_0_split
I1012 17:18:07.783347  5989 net.cpp:157] Top shape: 100 10 (1000)
I1012 17:18:07.783350  5989 net.cpp:157] Top shape: 100 10 (1000)
I1012 17:18:07.783366  5989 net.cpp:165] Memory required for data: 222350800
I1012 17:18:07.783368  5989 layer_factory.hpp:77] Creating layer accuracy
I1012 17:18:07.783372  5989 net.cpp:100] Creating Layer accuracy
I1012 17:18:07.783375  5989 net.cpp:434] accuracy <- score_score_0_split_0
I1012 17:18:07.783390  5989 net.cpp:434] accuracy <- label_data_1_split_0
I1012 17:18:07.783393  5989 net.cpp:408] accuracy -> accuracy
…
