…
  stage: ""
}
type: "RMSProp"
I1012 21:51:48.715775  7695 solver.cpp:81] Creating training net from train_net file: /home/adam/Honours/Honours-Project/cifar-10_allcnn/relu/allcnn_relu_train.prototxt
I1012 21:51:48.716094  7695 net.cpp:58] Initializing net from parameters: 
state {
  phase: TRAIN
  level: 0
  stage: ""
}
layer {
  name: "data"
  type: "Data"
  top: "data"
  top: "label"
  transform_param {
    mean_file: "mean.binaryproto"
  }
  data_param {
    source: "../../../data/cifar-10/cifar10_train_lmdb"
    batch_size: 64
    backend: LMDB
  }
}
layer {
  name: "conv1"
  type: "Convolution"
  bottom: "data"
  top: "conv1"
  convolution_param {
    num_output: 96
    kernel_size: 3
    weight_filler {
      type: "xavier"
    }
  }
}
layer {
  name: "relu1"
  type: "ReLU"
  bottom: "conv1"
  top: "conv1"
}
layer {
  name: "conv2"
  type: "Convolution"
  bottom: "conv1"
  top: "conv2"
  convolution_param {
    num_output: 96
    kernel_size: 3
    weight_filler {
      type: "xavier"
    }
  }
}
layer {
  name: "bn1"
  type: "BatchNorm"
  bottom: "conv2"
  top: "bn1"
}
layer {
  name: "relu2"
  type: "ReLU"
  bottom: "bn1"
  top: "bn1"
}
layer {
  name: "conv3"
  type: "Convolution"
  bottom: "bn1"
  top: "conv3"
  convolution_param {
    num_output: 96
    kernel_size: 3
    stride: 2
    weight_filler {
      type: "xavier"
    }
  }
}
layer {
  name: "drop1"
  type: "Dropout"
  bottom: "conv3"
  top: "drop1"
  dropout_param {
    dropout_ratio: 0.5
  }
}
layer {
  name: "relu3"
  type: "ReLU"
  bottom: "drop1"
  top: "drop1"
}
layer {
  name: "conv4"
  type: "Convolution"
  bottom: "drop1"
  top: "conv4"
  convolution_param {
    num_output: 192
    kernel_size: 3
    weight_filler {
      type: "xavier"
    }
  }
}
layer {
  name: "relu4"
  type: "ReLU"
  bottom: "conv4"
  top: "conv4"
}
layer {
  name: "conv5"
  type: "Convolution"
  bottom: "conv4"
  top: "conv5"
  convolution_param {
    num_output: 192
    kernel_size: 3
    weight_filler {
      type: "xavier"
    }
  }
}
layer {
  name: "bn2"
  type: "BatchNorm"
  bottom: "conv5"
  top: "bn2"
}
layer {
  name: "relu5"
  type: "ReLU"
  bottom: "bn2"
  top: "bn2"
}
layer {
  name: "conv6"
  type: "Convolution"
  bottom: "bn2"
  top: "conv6"
  convolution_param {
    num_output: 192
    kernel_size: 3
    stride: 2
    weight_filler {
      type: "xavier"
    }
  }
}
layer {
  name: "drop4"
  type: "Dropout"
  bottom: "conv6"
  top: "drop4"
  dropout_param {
    dropout_ratio: 0.5
  }
}
layer {
  name: "relu6"
  type: "ReLU"
  bottom: "drop4"
  top: "drop4"
}
layer {
  name: "conv7"
  type: "Convolution"
  bottom: "drop4"
  top: "conv7"
  convolution_param {
    num_output: 192
    kernel_size: 3
    weight_filler {
      type: "xavier"
    }
  }
}
layer {
  name: "relu7"
  type: "ReLU"
  bottom: "conv7"
  top: "conv7"
}
layer {
  name: "conv8"
  type: "Convolution"
  bottom: "conv7"
  top: "conv8"
  convolution_param {
    num_output: 192
    kernel_size: 1
    weight_filler {
      type: "xavier"
    }
  }
}
layer {
  name: "relu8"
  type: "ReLU"
  bottom: "conv8"
  top: "conv8"
}
layer {
  name: "conv9"
  type: "Convolution"
  bottom: "conv8"
  top: "conv9"
  convolution_param {
    num_output: 10
    kernel_size: 1
    weight_filler {
      type: "xavier"
    }
  }
}
layer {
  name: "relu9"
  type: "ReLU"
  bottom: "conv9"
  top: "conv9"
}
layer {
  name: "pool"
  type: "Pooling"
  bottom: "conv9"
  top: "pool"
  pooling_param {
    pool: AVE
    global_pooling: true
  }
}
layer {
  name: "flatten"
  type: "Flatten"
  bottom: "pool"
  top: "flatten"
}
layer {
  name: "score"
  type: "InnerProduct"
  bottom: "flatten"
  top: "score"
  inner_product_param {
    num_output: 10
    weight_filler {
      type: "gaussian"
    }
  }
}
layer {
  name: "accuracy"
  type: "Accuracy"
  bottom: "score"
  bottom: "label"
  top: "accuracy"
}
layer {
  name: "loss"
  type: "SoftmaxWithLoss"
  bottom: "score"
  bottom: "label"
  top: "loss"
}
I1012 21:51:48.716254  7695 layer_factory.hpp:77] Creating layer data
I1012 21:51:48.716725  7695 net.cpp:100] Creating Layer data
I1012 21:51:48.716747  7695 net.cpp:408] data -> data
I1012 21:51:48.716778  7695 net.cpp:408] data -> label
I1012 21:51:48.716802  7695 data_transformer.cpp:25] Loading mean file from: mean.binaryproto
I1012 21:51:48.717419  7701 db_lmdb.cpp:35] Opened lmdb ../../../data/cifar-10/cifar10_train_lmdb
I1012 21:51:48.723973  7695 data_layer.cpp:41] output data size: 64,3,32,32
I1012 21:51:48.725448  7695 net.cpp:150] Setting up data
I1012 21:51:48.725463  7695 net.cpp:157] Top shape: 64 3 32 32 (196608)
I1012 21:51:48.725466  7695 net.cpp:157] Top shape: 64 (64)
I1012 21:51:48.725492  7695 net.cpp:165] Memory required for data: 786688
I1012 21:51:48.725500  7695 layer_factory.hpp:77] Creating layer label_data_1_split
I1012 21:51:48.725510  7695 net.cpp:100] Creating Layer label_data_1_split
I1012 21:51:48.725529  7695 net.cpp:434] label_data_1_split <- label
I1012 21:51:48.725555  7695 net.cpp:408] label_data_1_split -> label_data_1_split_0
I1012 21:51:48.725564  7695 net.cpp:408] label_data_1_split -> label_data_1_split_1
I1012 21:51:48.725678  7695 net.cpp:150] Setting up label_data_1_split
I1012 21:51:48.725704  7695 net.cpp:157] Top shape: 64 (64)
I1012 21:51:48.725708  7695 net.cpp:157] Top shape: 64 (64)
I1012 21:51:48.725709  7695 net.cpp:165] Memory required for data: 787200
I1012 21:51:48.725711  7695 layer_factory.hpp:77] Creating layer conv1
I1012 21:51:48.725725  7695 net.cpp:100] Creating Layer conv1
I1012 21:51:48.725741  7695 net.cpp:434] conv1 <- data
I1012 21:51:48.725746  7695 net.cpp:408] conv1 -> conv1
I1012 21:51:48.863688  7695 net.cpp:150] Setting up conv1
I1012 21:51:48.863723  7695 net.cpp:157] Top shape: 64 96 30 30 (5529600)
I1012 21:51:48.863726  7695 net.cpp:165] Memory required for data: 22905600
I1012 21:51:48.863745  7695 layer_factory.hpp:77] Creating layer relu1
I1012 21:51:48.863752  7695 net.cpp:100] Creating Layer relu1
I1012 21:51:48.863770  7695 net.cpp:434] relu1 <- conv1
I1012 21:51:48.863775  7695 net.cpp:395] relu1 -> conv1 (in-place)
I1012 21:51:48.863951  7695 net.cpp:150] Setting up relu1
I1012 21:51:48.863957  7695 net.cpp:157] Top shape: 64 96 30 30 (5529600)
I1012 21:51:48.863960  7695 net.cpp:165] Memory required for data: 45024000
I1012 21:51:48.863961  7695 layer_factory.hpp:77] Creating layer conv2
I1012 21:51:48.863970  7695 net.cpp:100] Creating Layer conv2
I1012 21:51:48.863971  7695 net.cpp:434] conv2 <- conv1
I1012 21:51:48.863976  7695 net.cpp:408] conv2 -> conv2
I1012 21:51:48.865378  7695 net.cpp:150] Setting up conv2
I1012 21:51:48.865388  7695 net.cpp:157] Top shape: 64 96 28 28 (4816896)
I1012 21:51:48.865391  7695 net.cpp:165] Memory required for data: 64291584
I1012 21:51:48.865396  7695 layer_factory.hpp:77] Creating layer bn1
I1012 21:51:48.865402  7695 net.cpp:100] Creating Layer bn1
I1012 21:51:48.865406  7695 net.cpp:434] bn1 <- conv2
I1012 21:51:48.865408  7695 net.cpp:408] bn1 -> bn1
I1012 21:51:48.865612  7695 net.cpp:150] Setting up bn1
I1012 21:51:48.865617  7695 net.cpp:157] Top shape: 64 96 28 28 (4816896)
I1012 21:51:48.865619  7695 net.cpp:165] Memory required for data: 83559168
I1012 21:51:48.865625  7695 layer_factory.hpp:77] Creating layer relu2
I1012 21:51:48.865628  7695 net.cpp:100] Creating Layer relu2
I1012 21:51:48.865630  7695 net.cpp:434] relu2 <- bn1
I1012 21:51:48.865634  7695 net.cpp:395] relu2 -> bn1 (in-place)
I1012 21:51:48.865808  7695 net.cpp:150] Setting up relu2
I1012 21:51:48.865814  7695 net.cpp:157] Top shape: 64 96 28 28 (4816896)
I1012 21:51:48.865816  7695 net.cpp:165] Memory required for data: 102826752
I1012 21:51:48.865829  7695 layer_factory.hpp:77] Creating layer conv3
I1012 21:51:48.865834  7695 net.cpp:100] Creating Layer conv3
I1012 21:51:48.865836  7695 net.cpp:434] conv3 <- bn1
I1012 21:51:48.865840  7695 net.cpp:408] conv3 -> conv3
I1012 21:51:48.867038  7695 net.cpp:150] Setting up conv3
I1012 21:51:48.867048  7695 net.cpp:157] Top shape: 64 96 13 13 (1038336)
I1012 21:51:48.867050  7695 net.cpp:165] Memory required for data: 106980096
I1012 21:51:48.867056  7695 layer_factory.hpp:77] Creating layer drop1
I1012 21:51:48.867063  7695 net.cpp:100] Creating Layer drop1
I1012 21:51:48.867065  7695 net.cpp:434] drop1 <- conv3
I1012 21:51:48.867069  7695 net.cpp:408] drop1 -> drop1
I1012 21:51:48.867115  7695 net.cpp:150] Setting up drop1
I1012 21:51:48.867136  7695 net.cpp:157] Top shape: 64 96 13 13 (1038336)
I1012 21:51:48.867137  7695 net.cpp:165] Memory required for data: 111133440
I1012 21:51:48.867139  7695 layer_factory.hpp:77] Creating layer relu3
I1012 21:51:48.867156  7695 net.cpp:100] Creating Layer relu3
I1012 21:51:48.867157  7695 net.cpp:434] relu3 <- drop1
I1012 21:51:48.867161  7695 net.cpp:395] relu3 -> drop1 (in-place)
I1012 21:51:48.867442  7695 net.cpp:150] Setting up relu3
I1012 21:51:48.867449  7695 net.cpp:157] Top shape: 64 96 13 13 (1038336)
I1012 21:51:48.867451  7695 net.cpp:165] Memory required for data: 115286784
I1012 21:51:48.867454  7695 layer_factory.hpp:77] Creating layer conv4
I1012 21:51:48.867460  7695 net.cpp:100] Creating Layer conv4
I1012 21:51:48.867461  7695 net.cpp:434] conv4 <- drop1
I1012 21:51:48.867465  7695 net.cpp:408] conv4 -> conv4
I1012 21:51:48.869297  7695 net.cpp:150] Setting up conv4
I1012 21:51:48.869307  7695 net.cpp:157] Top shape: 64 192 11 11 (1486848)
I1012 21:51:48.869308  7695 net.cpp:165] Memory required for data: 121234176
I1012 21:51:48.869313  7695 layer_factory.hpp:77] Creating layer relu4
I1012 21:51:48.869316  7695 net.cpp:100] Creating Layer relu4
I1012 21:51:48.869319  7695 net.cpp:434] relu4 <- conv4
I1012 21:51:48.869323  7695 net.cpp:395] relu4 -> conv4 (in-place)
I1012 21:51:48.869498  7695 net.cpp:150] Setting up relu4
I1012 21:51:48.869504  7695 net.cpp:157] Top shape: 64 192 11 11 (1486848)
I1012 21:51:48.869506  7695 net.cpp:165] Memory required for data: 127181568
I1012 21:51:48.869508  7695 layer_factory.hpp:77] Creating layer conv5
I1012 21:51:48.869514  7695 net.cpp:100] Creating Layer conv5
I1012 21:51:48.869516  7695 net.cpp:434] conv5 <- conv4
I1012 21:51:48.869520  7695 net.cpp:408] conv5 -> conv5
I1012 21:51:48.872040  7695 net.cpp:150] Setting up conv5
I1012 21:51:48.872048  7695 net.cpp:157] Top shape: 64 192 9 9 (995328)
I1012 21:51:48.872051  7695 net.cpp:165] Memory required for data: 131162880
I1012 21:51:48.872056  7695 layer_factory.hpp:77] Creating layer bn2
I1012 21:51:48.872061  7695 net.cpp:100] Creating Layer bn2
I1012 21:51:48.872062  7695 net.cpp:434] bn2 <- conv5
I1012 21:51:48.872066  7695 net.cpp:408] bn2 -> bn2
I1012 21:51:48.872259  7695 net.cpp:150] Setting up bn2
I1012 21:51:48.872264  7695 net.cpp:157] Top shape: 64 192 9 9 (995328)
I1012 21:51:48.872267  7695 net.cpp:165] Memory required for data: 135144192
I1012 21:51:48.872272  7695 layer_factory.hpp:77] Creating layer relu5
I1012 21:51:48.872277  7695 net.cpp:100] Creating Layer relu5
I1012 21:51:48.872278  7695 net.cpp:434] relu5 <- bn2
I1012 21:51:48.872280  7695 net.cpp:395] relu5 -> bn2 (in-place)
I1012 21:51:48.872453  7695 net.cpp:150] Setting up relu5
I1012 21:51:48.872459  7695 net.cpp:157] Top shape: 64 192 9 9 (995328)
I1012 21:51:48.872460  7695 net.cpp:165] Memory required for data: 139125504
I1012 21:51:48.872463  7695 layer_factory.hpp:77] Creating layer conv6
I1012 21:51:48.872468  7695 net.cpp:100] Creating Layer conv6
I1012 21:51:48.872470  7695 net.cpp:434] conv6 <- bn2
I1012 21:51:48.872474  7695 net.cpp:408] conv6 -> conv6
I1012 21:51:48.874995  7695 net.cpp:150] Setting up conv6
I1012 21:51:48.875005  7695 net.cpp:157] Top shape: 64 192 4 4 (196608)
I1012 21:51:48.875007  7695 net.cpp:165] Memory required for data: 139911936
I1012 21:51:48.875042  7695 layer_factory.hpp:77] Creating layer drop4
I1012 21:51:48.875066  7695 net.cpp:100] Creating Layer drop4
I1012 21:51:48.875068  7695 net.cpp:434] drop4 <- conv6
I1012 21:51:48.875072  7695 net.cpp:408] drop4 -> drop4
I1012 21:51:48.875133  7695 net.cpp:150] Setting up drop4
I1012 21:51:48.875149  7695 net.cpp:157] Top shape: 64 192 4 4 (196608)
I1012 21:51:48.875151  7695 net.cpp:165] Memory required for data: 140698368
I1012 21:51:48.875154  7695 layer_factory.hpp:77] Creating layer relu6
I1012 21:51:48.875156  7695 net.cpp:100] Creating Layer relu6
I1012 21:51:48.875172  7695 net.cpp:434] relu6 <- drop4
I1012 21:51:48.875176  7695 net.cpp:395] relu6 -> drop4 (in-place)
I1012 21:51:48.875444  7695 net.cpp:150] Setting up relu6
I1012 21:51:48.875452  7695 net.cpp:157] Top shape: 64 192 4 4 (196608)
I1012 21:51:48.875454  7695 net.cpp:165] Memory required for data: 141484800
I1012 21:51:48.875457  7695 layer_factory.hpp:77] Creating layer conv7
I1012 21:51:48.875478  7695 net.cpp:100] Creating Layer conv7
I1012 21:51:48.875480  7695 net.cpp:434] conv7 <- drop4
I1012 21:51:48.875484  7695 net.cpp:408] conv7 -> conv7
I1012 21:51:48.878856  7695 net.cpp:150] Setting up conv7
I1012 21:51:48.878873  7695 net.cpp:157] Top shape: 64 192 2 2 (49152)
I1012 21:51:48.878876  7695 net.cpp:165] Memory required for data: 141681408
I1012 21:51:48.878882  7695 layer_factory.hpp:77] Creating layer relu7
I1012 21:51:48.878886  7695 net.cpp:100] Creating Layer relu7
I1012 21:51:48.878890  7695 net.cpp:434] relu7 <- conv7
I1012 21:51:48.878893  7695 net.cpp:395] relu7 -> conv7 (in-place)
I1012 21:51:48.879145  7695 net.cpp:150] Setting up relu7
I1012 21:51:48.879153  7695 net.cpp:157] Top shape: 64 192 2 2 (49152)
I1012 21:51:48.879155  7695 net.cpp:165] Memory required for data: 141878016
I1012 21:51:48.879158  7695 layer_factory.hpp:77] Creating layer conv8
I1012 21:51:48.879165  7695 net.cpp:100] Creating Layer conv8
I1012 21:51:48.879168  7695 net.cpp:434] conv8 <- conv7
I1012 21:51:48.879173  7695 net.cpp:408] conv8 -> conv8
I1012 21:51:48.880419  7695 net.cpp:150] Setting up conv8
I1012 21:51:48.880429  7695 net.cpp:157] Top shape: 64 192 2 2 (49152)
I1012 21:51:48.880431  7695 net.cpp:165] Memory required for data: 142074624
I1012 21:51:48.880435  7695 layer_factory.hpp:77] Creating layer relu8
I1012 21:51:48.880439  7695 net.cpp:100] Creating Layer relu8
I1012 21:51:48.880441  7695 net.cpp:434] relu8 <- conv8
I1012 21:51:48.880446  7695 net.cpp:395] relu8 -> conv8 (in-place)
I1012 21:51:48.880614  7695 net.cpp:150] Setting up relu8
I1012 21:51:48.880620  7695 net.cpp:157] Top shape: 64 192 2 2 (49152)
I1012 21:51:48.880622  7695 net.cpp:165] Memory required for data: 142271232
I1012 21:51:48.880625  7695 layer_factory.hpp:77] Creating layer conv9
I1012 21:51:48.880630  7695 net.cpp:100] Creating Layer conv9
I1012 21:51:48.880631  7695 net.cpp:434] conv9 <- conv8
I1012 21:51:48.880636  7695 net.cpp:408] conv9 -> conv9
I1012 21:51:48.881449  7695 net.cpp:150] Setting up conv9
I1012 21:51:48.881458  7695 net.cpp:157] Top shape: 64 10 2 2 (2560)
I1012 21:51:48.881460  7695 net.cpp:165] Memory required for data: 142281472
I1012 21:51:48.881464  7695 layer_factory.hpp:77] Creating layer relu9
I1012 21:51:48.881469  7695 net.cpp:100] Creating Layer relu9
I1012 21:51:48.881470  7695 net.cpp:434] relu9 <- conv9
I1012 21:51:48.881474  7695 net.cpp:395] relu9 -> conv9 (in-place)
I1012 21:51:48.881727  7695 net.cpp:150] Setting up relu9
I1012 21:51:48.881734  7695 net.cpp:157] Top shape: 64 10 2 2 (2560)
I1012 21:51:48.881736  7695 net.cpp:165] Memory required for data: 142291712
I1012 21:51:48.881738  7695 layer_factory.hpp:77] Creating layer pool
I1012 21:51:48.881743  7695 net.cpp:100] Creating Layer pool
I1012 21:51:48.881745  7695 net.cpp:434] pool <- conv9
I1012 21:51:48.881749  7695 net.cpp:408] pool -> pool
I1012 21:51:48.881943  7695 net.cpp:150] Setting up pool
I1012 21:51:48.881949  7695 net.cpp:157] Top shape: 64 10 1 1 (640)
I1012 21:51:48.881952  7695 net.cpp:165] Memory required for data: 142294272
I1012 21:51:48.881963  7695 layer_factory.hpp:77] Creating layer flatten
I1012 21:51:48.881968  7695 net.cpp:100] Creating Layer flatten
I1012 21:51:48.881969  7695 net.cpp:434] flatten <- pool
I1012 21:51:48.881973  7695 net.cpp:408] flatten -> flatten
I1012 21:51:48.882007  7695 net.cpp:150] Setting up flatten
I1012 21:51:48.882012  7695 net.cpp:157] Top shape: 64 10 (640)
I1012 21:51:48.882014  7695 net.cpp:165] Memory required for data: 142296832
I1012 21:51:48.882015  7695 layer_factory.hpp:77] Creating layer score
I1012 21:51:48.882035  7695 net.cpp:100] Creating Layer score
I1012 21:51:48.882037  7695 net.cpp:434] score <- flatten
I1012 21:51:48.882040  7695 net.cpp:408] score -> score
I1012 21:51:48.882196  7695 net.cpp:150] Setting up score
I1012 21:51:48.882201  7695 net.cpp:157] Top shape: 64 10 (640)
I1012 21:51:48.882203  7695 net.cpp:165] Memory required for data: 142299392
I1012 21:51:48.882207  7695 layer_factory.hpp:77] Creating layer score_score_0_split
I1012 21:51:48.882211  7695 net.cpp:100] Creating Layer score_score_0_split
I1012 21:51:48.882213  7695 net.cpp:434] score_score_0_split <- score
I1012 21:51:48.882216  7695 net.cpp:408] score_score_0_split -> score_score_0_split_0
I1012 21:51:48.882220  7695 net.cpp:408] score_score_0_split -> score_score_0_split_1
I1012 21:51:48.882277  7695 net.cpp:150] Setting up score_score_0_split
I1012 21:51:48.882280  7695 net.cpp:157] Top shape: 64 10 (640)
I1012 21:51:48.882282  7695 net.cpp:157] Top shape: 64 10 (640)
I1012 21:51:48.882284  7695 net.cpp:165] Memory required for data: 142304512
I1012 21:51:48.882287  7695 layer_factory.hpp:77] Creating layer accuracy
I1012 21:51:48.882290  7695 net.cpp:100] Creating Layer accuracy
I1012 21:51:48.882292  7695 net.cpp:434] accuracy <- score_score_0_split_0
I1012 21:51:48.882295  7695 net.cpp:434] accuracy <- label_data_1_split_0
I1012 21:51:48.882299  7695 net.cpp:408] accuracy -> accuracy
…
I1012 21:51:48.882946  7695 net.cpp:283] Network initialization done.
I1012 21:51:48.883203  7695 solver.cpp:181] Creating test net (#0) specified by test_net file: /home/adam/Honours/Honours-Project/cifar-10_allcnn/relu/allcnn_relu_test.prototxt
I1012 21:51:48.883347  7695 net.cpp:58] Initializing net from parameters: 
state {
  phase: TEST
}
layer {
  name: "data"
  type: "Data"
  top: "data"
  top: "label"
  transform_param {
    mean_file: "mean.binaryproto"
  }
  data_param {
    source: "../../../data/cifar-10/cifar10_test_lmdb"
    batch_size: 100
    backend: LMDB
  }
}
layer {
  name: "conv1"
  type: "Convolution"
  bottom: "data"
  top: "conv1"
  convolution_param {
    num_output: 96
    kernel_size: 3
    weight_filler {
      type: "xavier"
    }
  }
}
layer {
  name: "relu1"
  type: "ReLU"
  bottom: "conv1"
  top: "conv1"
}
layer {
  name: "conv2"
  type: "Convolution"
  bottom: "conv1"
  top: "conv2"
  convolution_param {
    num_output: 96
    kernel_size: 3
    weight_filler {
      type: "xavier"
    }
  }
}
layer {
  name: "bn1"
  type: "BatchNorm"
  bottom: "conv2"
  top: "bn1"
}
layer {
  name: "relu2"
  type: "ReLU"
  bottom: "bn1"
  top: "bn1"
}
layer {
  name: "conv3"
  type: "Convolution"
  bottom: "bn1"
  top: "conv3"
  convolution_param {
    num_output: 96
    kernel_size: 3
    stride: 2
    weight_filler {
      type: "xavier"
    }
  }
}
layer {
  name: "drop1"
  type: "Dropout"
  bottom: "conv3"
  top: "drop1"
  dropout_param {
    dropout_ratio: 0.5
  }
}
layer {
  name: "relu3"
  type: "ReLU"
  bottom: "drop1"
  top: "drop1"
}
layer {
  name: "conv4"
  type: "Convolution"
  bottom: "drop1"
  top: "conv4"
  convolution_param {
    num_output: 192
    kernel_size: 3
    weight_filler {
      type: "xavier"
    }
  }
}
layer {
  name: "relu4"
  type: "ReLU"
  bottom: "conv4"
  top: "conv4"
}
layer {
  name: "conv5"
  type: "Convolution"
  bottom: "conv4"
  top: "conv5"
  convolution_param {
    num_output: 192
    kernel_size: 3
    weight_filler {
      type: "xavier"
    }
  }
}
layer {
  name: "bn2"
  type: "BatchNorm"
  bottom: "conv5"
  top: "bn2"
}
layer {
  name: "relu5"
  type: "ReLU"
  bottom: "bn2"
  top: "bn2"
}
layer {
  name: "conv6"
  type: "Convolution"
  bottom: "bn2"
  top: "conv6"
  convolution_param {
    num_output: 192
    kernel_size: 3
    stride: 2
    weight_filler {
      type: "xavier"
    }
  }
}
layer {
  name: "drop4"
  type: "Dropout"
  bottom: "conv6"
  top: "drop4"
  dropout_param {
    dropout_ratio: 0.5
  }
}
layer {
  name: "relu6"
  type: "ReLU"
  bottom: "drop4"
  top: "drop4"
}
layer {
  name: "conv7"
  type: "Convolution"
  bottom: "drop4"
  top: "conv7"
  convolution_param {
    num_output: 192
    kernel_size: 3
    weight_filler {
      type: "xavier"
    }
  }
}
layer {
  name: "relu7"
  type: "ReLU"
  bottom: "conv7"
  top: "conv7"
}
layer {
  name: "conv8"
  type: "Convolution"
  bottom: "conv7"
  top: "conv8"
  convolution_param {
    num_output: 192
    kernel_size: 1
    weight_filler {
      type: "xavier"
    }
  }
}
layer {
  name: "relu8"
  type: "ReLU"
  bottom: "conv8"
  top: "conv8"
}
layer {
  name: "conv9"
  type: "Convolution"
  bottom: "conv8"
  top: "conv9"
  convolution_param {
    num_output: 10
    kernel_size: 1
    weight_filler {
      type: "xavier"
    }
  }
}
layer {
  name: "relu9"
  type: "ReLU"
  bottom: "conv9"
  top: "conv9"
}
layer {
  name: "pool"
  type: "Pooling"
  bottom: "conv9"
  top: "pool"
  pooling_param {
    pool: AVE
    global_pooling: true
  }
}
layer {
  name: "flatten"
  type: "Flatten"
  bottom: "pool"
  top: "flatten"
}
layer {
  name: "score"
  type: "InnerProduct"
  bottom: "flatten"
  top: "score"
  inner_product_param {
    num_output: 10
    weight_filler {
      type: "gaussian"
    }
  }
}
layer {
  name: "accuracy"
  type: "Accuracy"
  bottom: "score"
  bottom: "label"
  top: "accuracy"
}
layer {
  name: "loss"
  type: "SoftmaxWithLoss"
  bottom: "score"
  bottom: "label"
  top: "loss"
}
I1012 21:51:48.883461  7695 layer_factory.hpp:77] Creating layer data
I1012 21:51:48.883559  7695 net.cpp:100] Creating Layer data
I1012 21:51:48.883566  7695 net.cpp:408] data -> data
I1012 21:51:48.883572  7695 net.cpp:408] data -> label
I1012 21:51:48.883579  7695 data_transformer.cpp:25] Loading mean file from: mean.binaryproto
I1012 21:51:48.884325  7703 db_lmdb.cpp:35] Opened lmdb ../../../data/cifar-10/cifar10_test_lmdb
I1012 21:51:48.884480  7695 data_layer.cpp:41] output data size: 100,3,32,32
I1012 21:51:48.886358  7695 net.cpp:150] Setting up data
I1012 21:51:48.886397  7695 net.cpp:157] Top shape: 100 3 32 32 (307200)
I1012 21:51:48.886401  7695 net.cpp:157] Top shape: 100 (100)
I1012 21:51:48.886402  7695 net.cpp:165] Memory required for data: 1229200
I1012 21:51:48.886406  7695 layer_factory.hpp:77] Creating layer label_data_1_split
I1012 21:51:48.886415  7695 net.cpp:100] Creating Layer label_data_1_split
I1012 21:51:48.886445  7695 net.cpp:434] label_data_1_split <- label
I1012 21:51:48.886463  7695 net.cpp:408] label_data_1_split -> label_data_1_split_0
I1012 21:51:48.886471  7695 net.cpp:408] label_data_1_split -> label_data_1_split_1
I1012 21:51:48.886533  7695 net.cpp:150] Setting up label_data_1_split
I1012 21:51:48.886538  7695 net.cpp:157] Top shape: 100 (100)
I1012 21:51:48.886540  7695 net.cpp:157] Top shape: 100 (100)
I1012 21:51:48.886541  7695 net.cpp:165] Memory required for data: 1230000
I1012 21:51:48.886544  7695 layer_factory.hpp:77] Creating layer conv1
I1012 21:51:48.886553  7695 net.cpp:100] Creating Layer conv1
I1012 21:51:48.886554  7695 net.cpp:434] conv1 <- data
I1012 21:51:48.886559  7695 net.cpp:408] conv1 -> conv1
I1012 21:51:48.887689  7695 net.cpp:150] Setting up conv1
I1012 21:51:48.887713  7695 net.cpp:157] Top shape: 100 96 30 30 (8640000)
I1012 21:51:48.887715  7695 net.cpp:165] Memory required for data: 35790000
I1012 21:51:48.887723  7695 layer_factory.hpp:77] Creating layer relu1
I1012 21:51:48.887728  7695 net.cpp:100] Creating Layer relu1
I1012 21:51:48.887744  7695 net.cpp:434] relu1 <- conv1
I1012 21:51:48.887749  7695 net.cpp:395] relu1 -> conv1 (in-place)
I1012 21:51:48.887930  7695 net.cpp:150] Setting up relu1
I1012 21:51:48.887938  7695 net.cpp:157] Top shape: 100 96 30 30 (8640000)
I1012 21:51:48.887954  7695 net.cpp:165] Memory required for data: 70350000
I1012 21:51:48.887956  7695 layer_factory.hpp:77] Creating layer conv2
I1012 21:51:48.887965  7695 net.cpp:100] Creating Layer conv2
I1012 21:51:48.887967  7695 net.cpp:434] conv2 <- conv1
I1012 21:51:48.887971  7695 net.cpp:408] conv2 -> conv2
I1012 21:51:48.889319  7695 net.cpp:150] Setting up conv2
I1012 21:51:48.889343  7695 net.cpp:157] Top shape: 100 96 28 28 (7526400)
I1012 21:51:48.889345  7695 net.cpp:165] Memory required for data: 100455600
I1012 21:51:48.889353  7695 layer_factory.hpp:77] Creating layer bn1
I1012 21:51:48.889358  7695 net.cpp:100] Creating Layer bn1
I1012 21:51:48.889360  7695 net.cpp:434] bn1 <- conv2
I1012 21:51:48.889365  7695 net.cpp:408] bn1 -> bn1
I1012 21:51:48.889574  7695 net.cpp:150] Setting up bn1
I1012 21:51:48.889580  7695 net.cpp:157] Top shape: 100 96 28 28 (7526400)
I1012 21:51:48.889597  7695 net.cpp:165] Memory required for data: 130561200
I1012 21:51:48.889603  7695 layer_factory.hpp:77] Creating layer relu2
I1012 21:51:48.889607  7695 net.cpp:100] Creating Layer relu2
I1012 21:51:48.889610  7695 net.cpp:434] relu2 <- bn1
I1012 21:51:48.889613  7695 net.cpp:395] relu2 -> bn1 (in-place)
I1012 21:51:48.889956  7695 net.cpp:150] Setting up relu2
I1012 21:51:48.889966  7695 net.cpp:157] Top shape: 100 96 28 28 (7526400)
I1012 21:51:48.889967  7695 net.cpp:165] Memory required for data: 160666800
I1012 21:51:48.889969  7695 layer_factory.hpp:77] Creating layer conv3
I1012 21:51:48.889976  7695 net.cpp:100] Creating Layer conv3
I1012 21:51:48.889979  7695 net.cpp:434] conv3 <- bn1
I1012 21:51:48.889986  7695 net.cpp:408] conv3 -> conv3
I1012 21:51:48.891152  7695 net.cpp:150] Setting up conv3
I1012 21:51:48.891177  7695 net.cpp:157] Top shape: 100 96 13 13 (1622400)
I1012 21:51:48.891187  7695 net.cpp:165] Memory required for data: 167156400
I1012 21:51:48.891196  7695 layer_factory.hpp:77] Creating layer drop1
I1012 21:51:48.891204  7695 net.cpp:100] Creating Layer drop1
I1012 21:51:48.891208  7695 net.cpp:434] drop1 <- conv3
I1012 21:51:48.891212  7695 net.cpp:408] drop1 -> drop1
I1012 21:51:48.891253  7695 net.cpp:150] Setting up drop1
I1012 21:51:48.891258  7695 net.cpp:157] Top shape: 100 96 13 13 (1622400)
I1012 21:51:48.891260  7695 net.cpp:165] Memory required for data: 173646000
I1012 21:51:48.891263  7695 layer_factory.hpp:77] Creating layer relu3
I1012 21:51:48.891265  7695 net.cpp:100] Creating Layer relu3
I1012 21:51:48.891268  7695 net.cpp:434] relu3 <- drop1
I1012 21:51:48.891271  7695 net.cpp:395] relu3 -> drop1 (in-place)
I1012 21:51:48.891507  7695 net.cpp:150] Setting up relu3
I1012 21:51:48.891516  7695 net.cpp:157] Top shape: 100 96 13 13 (1622400)
I1012 21:51:48.891520  7695 net.cpp:165] Memory required for data: 180135600
I1012 21:51:48.891521  7695 layer_factory.hpp:77] Creating layer conv4
I1012 21:51:48.891528  7695 net.cpp:100] Creating Layer conv4
I1012 21:51:48.891531  7695 net.cpp:434] conv4 <- drop1
I1012 21:51:48.891535  7695 net.cpp:408] conv4 -> conv4
I1012 21:51:48.894196  7695 net.cpp:150] Setting up conv4
I1012 21:51:48.894222  7695 net.cpp:157] Top shape: 100 192 11 11 (2323200)
I1012 21:51:48.894223  7695 net.cpp:165] Memory required for data: 189428400
I1012 21:51:48.894243  7695 layer_factory.hpp:77] Creating layer relu4
I1012 21:51:48.894263  7695 net.cpp:100] Creating Layer relu4
I1012 21:51:48.894265  7695 net.cpp:434] relu4 <- conv4
I1012 21:51:48.894269  7695 net.cpp:395] relu4 -> conv4 (in-place)
I1012 21:51:48.894474  7695 net.cpp:150] Setting up relu4
I1012 21:51:48.894495  7695 net.cpp:157] Top shape: 100 192 11 11 (2323200)
I1012 21:51:48.894496  7695 net.cpp:165] Memory required for data: 198721200
I1012 21:51:48.894498  7695 layer_factory.hpp:77] Creating layer conv5
I1012 21:51:48.894517  7695 net.cpp:100] Creating Layer conv5
I1012 21:51:48.894520  7695 net.cpp:434] conv5 <- conv4
I1012 21:51:48.894525  7695 net.cpp:408] conv5 -> conv5
I1012 21:51:48.897413  7695 net.cpp:150] Setting up conv5
I1012 21:51:48.897428  7695 net.cpp:157] Top shape: 100 192 9 9 (1555200)
I1012 21:51:48.897429  7695 net.cpp:165] Memory required for data: 204942000
I1012 21:51:48.897434  7695 layer_factory.hpp:77] Creating layer bn2
I1012 21:51:48.897440  7695 net.cpp:100] Creating Layer bn2
I1012 21:51:48.897456  7695 net.cpp:434] bn2 <- conv5
I1012 21:51:48.897460  7695 net.cpp:408] bn2 -> bn2
I1012 21:51:48.897672  7695 net.cpp:150] Setting up bn2
I1012 21:51:48.897677  7695 net.cpp:157] Top shape: 100 192 9 9 (1555200)
I1012 21:51:48.897680  7695 net.cpp:165] Memory required for data: 211162800
I1012 21:51:48.897698  7695 layer_factory.hpp:77] Creating layer relu5
I1012 21:51:48.897703  7695 net.cpp:100] Creating Layer relu5
I1012 21:51:48.897706  7695 net.cpp:434] relu5 <- bn2
I1012 21:51:48.897708  7695 net.cpp:395] relu5 -> bn2 (in-place)
I1012 21:51:48.898031  7695 net.cpp:150] Setting up relu5
I1012 21:51:48.898051  7695 net.cpp:157] Top shape: 100 192 9 9 (1555200)
I1012 21:51:48.898054  7695 net.cpp:165] Memory required for data: 217383600
I1012 21:51:48.898056  7695 layer_factory.hpp:77] Creating layer conv6
I1012 21:51:48.898062  7695 net.cpp:100] Creating Layer conv6
I1012 21:51:48.898066  7695 net.cpp:434] conv6 <- bn2
I1012 21:51:48.898069  7695 net.cpp:408] conv6 -> conv6
I1012 21:51:48.900591  7695 net.cpp:150] Setting up conv6
I1012 21:51:48.900601  7695 net.cpp:157] Top shape: 100 192 4 4 (307200)
I1012 21:51:48.900604  7695 net.cpp:165] Memory required for data: 218612400
I1012 21:51:48.900612  7695 layer_factory.hpp:77] Creating layer drop4
I1012 21:51:48.900619  7695 net.cpp:100] Creating Layer drop4
I1012 21:51:48.900621  7695 net.cpp:434] drop4 <- conv6
I1012 21:51:48.900625  7695 net.cpp:408] drop4 -> drop4
I1012 21:51:48.900688  7695 net.cpp:150] Setting up drop4
I1012 21:51:48.900705  7695 net.cpp:157] Top shape: 100 192 4 4 (307200)
I1012 21:51:48.900707  7695 net.cpp:165] Memory required for data: 219841200
I1012 21:51:48.900709  7695 layer_factory.hpp:77] Creating layer relu6
I1012 21:51:48.900712  7695 net.cpp:100] Creating Layer relu6
I1012 21:51:48.900728  7695 net.cpp:434] relu6 <- drop4
I1012 21:51:48.900732  7695 net.cpp:395] relu6 -> drop4 (in-place)
I1012 21:51:48.901002  7695 net.cpp:150] Setting up relu6
I1012 21:51:48.901010  7695 net.cpp:157] Top shape: 100 192 4 4 (307200)
I1012 21:51:48.901012  7695 net.cpp:165] Memory required for data: 221070000
I1012 21:51:48.901015  7695 layer_factory.hpp:77] Creating layer conv7
I1012 21:51:48.901021  7695 net.cpp:100] Creating Layer conv7
I1012 21:51:48.901023  7695 net.cpp:434] conv7 <- drop4
I1012 21:51:48.901026  7695 net.cpp:408] conv7 -> conv7
I1012 21:51:48.903621  7695 net.cpp:150] Setting up conv7
I1012 21:51:48.903630  7695 net.cpp:157] Top shape: 100 192 2 2 (76800)
I1012 21:51:48.903633  7695 net.cpp:165] Memory required for data: 221377200
I1012 21:51:48.903637  7695 layer_factory.hpp:77] Creating layer relu7
I1012 21:51:48.903641  7695 net.cpp:100] Creating Layer relu7
I1012 21:51:48.903643  7695 net.cpp:434] relu7 <- conv7
I1012 21:51:48.903647  7695 net.cpp:395] relu7 -> conv7 (in-place)
I1012 21:51:48.903818  7695 net.cpp:150] Setting up relu7
I1012 21:51:48.903825  7695 net.cpp:157] Top shape: 100 192 2 2 (76800)
I1012 21:51:48.903826  7695 net.cpp:165] Memory required for data: 221684400
I1012 21:51:48.903828  7695 layer_factory.hpp:77] Creating layer conv8
I1012 21:51:48.903834  7695 net.cpp:100] Creating Layer conv8
I1012 21:51:48.903836  7695 net.cpp:434] conv8 <- conv7
I1012 21:51:48.903841  7695 net.cpp:408] conv8 -> conv8
I1012 21:51:48.904827  7695 net.cpp:150] Setting up conv8
I1012 21:51:48.904835  7695 net.cpp:157] Top shape: 100 192 2 2 (76800)
I1012 21:51:48.904839  7695 net.cpp:165] Memory required for data: 221991600
I1012 21:51:48.904842  7695 layer_factory.hpp:77] Creating layer relu8
I1012 21:51:48.904845  7695 net.cpp:100] Creating Layer relu8
I1012 21:51:48.904847  7695 net.cpp:434] relu8 <- conv8
I1012 21:51:48.904852  7695 net.cpp:395] relu8 -> conv8 (in-place)
I1012 21:51:48.905112  7695 net.cpp:150] Setting up relu8
I1012 21:51:48.905119  7695 net.cpp:157] Top shape: 100 192 2 2 (76800)
I1012 21:51:48.905122  7695 net.cpp:165] Memory required for data: 222298800
I1012 21:51:48.905123  7695 layer_factory.hpp:77] Creating layer conv9
I1012 21:51:48.905129  7695 net.cpp:100] Creating Layer conv9
I1012 21:51:48.905131  7695 net.cpp:434] conv9 <- conv8
I1012 21:51:48.905135  7695 net.cpp:408] conv9 -> conv9
I1012 21:51:48.905892  7695 net.cpp:150] Setting up conv9
I1012 21:51:48.905901  7695 net.cpp:157] Top shape: 100 10 2 2 (4000)
I1012 21:51:48.905905  7695 net.cpp:165] Memory required for data: 222314800
I1012 21:51:48.905907  7695 layer_factory.hpp:77] Creating layer relu9
I1012 21:51:48.905911  7695 net.cpp:100] Creating Layer relu9
I1012 21:51:48.905913  7695 net.cpp:434] relu9 <- conv9
I1012 21:51:48.905926  7695 net.cpp:395] relu9 -> conv9 (in-place)
I1012 21:51:48.906188  7695 net.cpp:150] Setting up relu9
I1012 21:51:48.906194  7695 net.cpp:157] Top shape: 100 10 2 2 (4000)
I1012 21:51:48.906198  7695 net.cpp:165] Memory required for data: 222330800
I1012 21:51:48.906199  7695 layer_factory.hpp:77] Creating layer pool
I1012 21:51:48.906204  7695 net.cpp:100] Creating Layer pool
I1012 21:51:48.906206  7695 net.cpp:434] pool <- conv9
I1012 21:51:48.906209  7695 net.cpp:408] pool -> pool
I1012 21:51:48.906397  7695 net.cpp:150] Setting up pool
I1012 21:51:48.906404  7695 net.cpp:157] Top shape: 100 10 1 1 (1000)
I1012 21:51:48.906407  7695 net.cpp:165] Memory required for data: 222334800
I1012 21:51:48.906409  7695 layer_factory.hpp:77] Creating layer flatten
I1012 21:51:48.906414  7695 net.cpp:100] Creating Layer flatten
I1012 21:51:48.906435  7695 net.cpp:434] flatten <- pool
I1012 21:51:48.906438  7695 net.cpp:408] flatten -> flatten
I1012 21:51:48.906476  7695 net.cpp:150] Setting up flatten
I1012 21:51:48.906492  7695 net.cpp:157] Top shape: 100 10 (1000)
I1012 21:51:48.906494  7695 net.cpp:165] Memory required for data: 222338800
I1012 21:51:48.906497  7695 layer_factory.hpp:77] Creating layer score
I1012 21:51:48.906502  7695 net.cpp:100] Creating Layer score
I1012 21:51:48.906503  7695 net.cpp:434] score <- flatten
I1012 21:51:48.906524  7695 net.cpp:408] score -> score
I1012 21:51:48.906657  7695 net.cpp:150] Setting up score
I1012 21:51:48.906662  7695 net.cpp:157] Top shape: 100 10 (1000)
I1012 21:51:48.906663  7695 net.cpp:165] Memory required for data: 222342800
I1012 21:51:48.906667  7695 layer_factory.hpp:77] Creating layer score_score_0_split
I1012 21:51:48.906672  7695 net.cpp:100] Creating Layer score_score_0_split
I1012 21:51:48.906674  7695 net.cpp:434] score_score_0_split <- score
I1012 21:51:48.906677  7695 net.cpp:408] score_score_0_split -> score_score_0_split_0
I1012 21:51:48.906682  7695 net.cpp:408] score_score_0_split -> score_score_0_split_1
I1012 21:51:48.906724  7695 net.cpp:150] Setting up score_score_0_split
I1012 21:51:48.906728  7695 net.cpp:157] Top shape: 100 10 (1000)
I1012 21:51:48.906731  7695 net.cpp:157] Top shape: 100 10 (1000)
I1012 21:51:48.906746  7695 net.cpp:165] Memory required for data: 222350800
I1012 21:51:48.906749  7695 layer_factory.hpp:77] Creating layer accuracy
I1012 21:51:48.906754  7695 net.cpp:100] Creating Layer accuracy
I1012 21:51:48.906769  7695 net.cpp:434] accuracy <- score_score_0_split_0
I1012 21:51:48.906770  7695 net.cpp:434] accuracy <- label_data_1_split_0
I1012 21:51:48.906774  7695 net.cpp:408] accuracy -> accuracy
…
