…
}
type: "Adam"
I1011 18:18:31.368191  7666 solver.cpp:81] Creating training net from train_net file: /home/adam/Honours/Honours-Project/cifar-10_allcnn/leakyrelu/allcnn_leakyrelu_train.prototxt
I1011 18:18:31.368578  7666 net.cpp:58] Initializing net from parameters: 
state {
  phase: TRAIN
  level: 0
  stage: ""
}
layer {
  name: "data"
  type: "Data"
  top: "data"
  top: "label"
  transform_param {
    mean_file: "mean.binaryproto"
  }
  data_param {
    source: "../../../data/cifar-10/cifar10_train_lmdb"
    batch_size: 64
    backend: LMDB
  }
}
layer {
  name: "conv1"
  type: "Convolution"
  bottom: "data"
  top: "conv1"
  convolution_param {
    num_output: 96
    kernel_size: 3
    weight_filler {
      type: "xavier"
    }
  }
}
layer {
  name: "relu1"
  type: "ReLU"
  bottom: "conv1"
  top: "conv1"
  relu_param {
    negative_slope: 0.01
  }
}
layer {
  name: "conv2"
  type: "Convolution"
  bottom: "conv1"
  top: "conv2"
  convolution_param {
    num_output: 96
    kernel_size: 3
    weight_filler {
      type: "xavier"
    }
  }
}
layer {
  name: "bn1"
  type: "BatchNorm"
  bottom: "conv2"
  top: "bn1"
}
layer {
  name: "relu2"
  type: "ReLU"
  bottom: "bn1"
  top: "bn1"
  relu_param {
    negative_slope: 0.01
  }
}
layer {
  name: "drop1"
  type: "Dropout"
  bottom: "bn1"
  top: "drop1"
  dropout_param {
    dropout_ratio: 0.5
  }
}
layer {
  name: "conv3"
  type: "Convolution"
  bottom: "drop1"
  top: "conv3"
  convolution_param {
    num_output: 96
    kernel_size: 3
    stride: 2
    weight_filler {
      type: "xavier"
    }
  }
}
layer {
  name: "relu3"
  type: "ReLU"
  bottom: "conv3"
  top: "conv3"
  relu_param {
    negative_slope: 0.01
  }
}
layer {
  name: "conv4"
  type: "Convolution"
  bottom: "conv3"
  top: "conv4"
  convolution_param {
    num_output: 192
    kernel_size: 3
    weight_filler {
      type: "xavier"
    }
  }
}
layer {
  name: "relu4"
  type: "ReLU"
  bottom: "conv4"
  top: "conv4"
  relu_param {
    negative_slope: 0.01
  }
}
layer {
  name: "conv5"
  type: "Convolution"
  bottom: "conv4"
  top: "conv5"
  convolution_param {
    num_output: 192
    kernel_size: 3
    weight_filler {
      type: "xavier"
    }
  }
}
layer {
  name: "bn2"
  type: "BatchNorm"
  bottom: "conv5"
  top: "bn2"
}
layer {
  name: "relu5"
  type: "ReLU"
  bottom: "bn2"
  top: "bn2"
  relu_param {
    negative_slope: 0.01
  }
}
layer {
  name: "drop4"
  type: "Dropout"
  bottom: "bn2"
  top: "drop4"
  dropout_param {
    dropout_ratio: 0.5
  }
}
layer {
  name: "conv6"
  type: "Convolution"
  bottom: "drop4"
  top: "conv6"
  convolution_param {
    num_output: 192
    kernel_size: 3
    stride: 2
    weight_filler {
      type: "xavier"
    }
  }
}
layer {
  name: "relu6"
  type: "ReLU"
  bottom: "conv6"
  top: "conv6"
  relu_param {
    negative_slope: 0.01
  }
}
layer {
  name: "conv7"
  type: "Convolution"
  bottom: "conv6"
  top: "conv7"
  convolution_param {
    num_output: 192
    kernel_size: 3
    weight_filler {
      type: "xavier"
    }
  }
}
layer {
  name: "relu7"
  type: "ReLU"
  bottom: "conv7"
  top: "conv7"
  relu_param {
    negative_slope: 0.01
  }
}
layer {
  name: "conv8"
  type: "Convolution"
  bottom: "conv7"
  top: "conv8"
  convolution_param {
    num_output: 192
    kernel_size: 1
    weight_filler {
      type: "xavier"
    }
  }
}
layer {
  name: "relu8"
  type: "ReLU"
  bottom: "conv8"
  top: "conv8"
  relu_param {
    negative_slope: 0.01
  }
}
layer {
  name: "conv9"
  type: "Convolution"
  bottom: "conv8"
  top: "conv9"
  convolution_param {
    num_output: 10
    kernel_size: 1
    weight_filler {
      type: "xavier"
    }
  }
}
layer {
  name: "relu9"
  type: "ReLU"
  bottom: "conv9"
  top: "conv9"
  relu_param {
    negative_slope: 0.01
  }
}
layer {
  name: "pool"
  type: "Pooling"
  bottom: "conv9"
  top: "pool"
  pooling_param {
    pool: AVE
    global_pooling: true
  }
}
layer {
  name: "flatten"
  type: "Flatten"
  bottom: "pool"
  top: "flatten"
}
layer {
  name: "score"
  type: "InnerProduct"
  bottom: "flatten"
  top: "score"
  inner_product_param {
    num_output: 10
    weight_filler {
      type: "gaussian"
    }
  }
}
layer {
  name: "accuracy"
  type: "Accuracy"
  bottom: "score"
  bottom: "label"
  top: "accuracy"
}
layer {
  name: "loss"
  type: "SoftmaxWithLoss"
  bottom: "score"
  bottom: "label"
  top: "loss"
}
I1011 18:18:31.368737  7666 layer_factory.hpp:77] Creating layer data
I1011 18:18:31.369165  7666 net.cpp:100] Creating Layer data
I1011 18:18:31.369174  7666 net.cpp:408] data -> data
I1011 18:18:31.369211  7666 net.cpp:408] data -> label
I1011 18:18:31.369221  7666 data_transformer.cpp:25] Loading mean file from: mean.binaryproto
I1011 18:18:31.369952  7673 db_lmdb.cpp:35] Opened lmdb ../../../data/cifar-10/cifar10_train_lmdb
I1011 18:18:31.376236  7666 data_layer.cpp:41] output data size: 64,3,32,32
I1011 18:18:31.377825  7666 net.cpp:150] Setting up data
I1011 18:18:31.377840  7666 net.cpp:157] Top shape: 64 3 32 32 (196608)
I1011 18:18:31.377842  7666 net.cpp:157] Top shape: 64 (64)
I1011 18:18:31.377867  7666 net.cpp:165] Memory required for data: 786688
I1011 18:18:31.377874  7666 layer_factory.hpp:77] Creating layer label_data_1_split
I1011 18:18:31.377884  7666 net.cpp:100] Creating Layer label_data_1_split
I1011 18:18:31.377888  7666 net.cpp:434] label_data_1_split <- label
I1011 18:18:31.377899  7666 net.cpp:408] label_data_1_split -> label_data_1_split_0
I1011 18:18:31.377923  7666 net.cpp:408] label_data_1_split -> label_data_1_split_1
I1011 18:18:31.377993  7666 net.cpp:150] Setting up label_data_1_split
I1011 18:18:31.378017  7666 net.cpp:157] Top shape: 64 (64)
I1011 18:18:31.378021  7666 net.cpp:157] Top shape: 64 (64)
I1011 18:18:31.378022  7666 net.cpp:165] Memory required for data: 787200
I1011 18:18:31.378024  7666 layer_factory.hpp:77] Creating layer conv1
I1011 18:18:31.378052  7666 net.cpp:100] Creating Layer conv1
I1011 18:18:31.378056  7666 net.cpp:434] conv1 <- data
I1011 18:18:31.378060  7666 net.cpp:408] conv1 -> conv1
I1011 18:18:31.514561  7666 net.cpp:150] Setting up conv1
I1011 18:18:31.514583  7666 net.cpp:157] Top shape: 64 96 30 30 (5529600)
I1011 18:18:31.514586  7666 net.cpp:165] Memory required for data: 22905600
I1011 18:18:31.514603  7666 layer_factory.hpp:77] Creating layer relu1
I1011 18:18:31.514612  7666 net.cpp:100] Creating Layer relu1
I1011 18:18:31.514616  7666 net.cpp:434] relu1 <- conv1
I1011 18:18:31.514633  7666 net.cpp:395] relu1 -> conv1 (in-place)
I1011 18:18:31.514816  7666 net.cpp:150] Setting up relu1
I1011 18:18:31.514822  7666 net.cpp:157] Top shape: 64 96 30 30 (5529600)
I1011 18:18:31.514824  7666 net.cpp:165] Memory required for data: 45024000
I1011 18:18:31.514827  7666 layer_factory.hpp:77] Creating layer conv2
I1011 18:18:31.514834  7666 net.cpp:100] Creating Layer conv2
I1011 18:18:31.514837  7666 net.cpp:434] conv2 <- conv1
I1011 18:18:31.514840  7666 net.cpp:408] conv2 -> conv2
I1011 18:18:31.516233  7666 net.cpp:150] Setting up conv2
I1011 18:18:31.516243  7666 net.cpp:157] Top shape: 64 96 28 28 (4816896)
I1011 18:18:31.516245  7666 net.cpp:165] Memory required for data: 64291584
I1011 18:18:31.516252  7666 layer_factory.hpp:77] Creating layer bn1
I1011 18:18:31.516257  7666 net.cpp:100] Creating Layer bn1
I1011 18:18:31.516259  7666 net.cpp:434] bn1 <- conv2
I1011 18:18:31.516263  7666 net.cpp:408] bn1 -> bn1
I1011 18:18:31.516468  7666 net.cpp:150] Setting up bn1
I1011 18:18:31.516474  7666 net.cpp:157] Top shape: 64 96 28 28 (4816896)
I1011 18:18:31.516474  7666 net.cpp:165] Memory required for data: 83559168
I1011 18:18:31.516491  7666 layer_factory.hpp:77] Creating layer relu2
I1011 18:18:31.516496  7666 net.cpp:100] Creating Layer relu2
I1011 18:18:31.516499  7666 net.cpp:434] relu2 <- bn1
I1011 18:18:31.516501  7666 net.cpp:395] relu2 -> bn1 (in-place)
I1011 18:18:31.516676  7666 net.cpp:150] Setting up relu2
I1011 18:18:31.516682  7666 net.cpp:157] Top shape: 64 96 28 28 (4816896)
I1011 18:18:31.516685  7666 net.cpp:165] Memory required for data: 102826752
I1011 18:18:31.516686  7666 layer_factory.hpp:77] Creating layer drop1
I1011 18:18:31.516690  7666 net.cpp:100] Creating Layer drop1
I1011 18:18:31.516692  7666 net.cpp:434] drop1 <- bn1
I1011 18:18:31.516696  7666 net.cpp:408] drop1 -> drop1
I1011 18:18:31.516741  7666 net.cpp:150] Setting up drop1
I1011 18:18:31.516746  7666 net.cpp:157] Top shape: 64 96 28 28 (4816896)
I1011 18:18:31.516747  7666 net.cpp:165] Memory required for data: 122094336
I1011 18:18:31.516749  7666 layer_factory.hpp:77] Creating layer conv3
I1011 18:18:31.516770  7666 net.cpp:100] Creating Layer conv3
I1011 18:18:31.516772  7666 net.cpp:434] conv3 <- drop1
I1011 18:18:31.516789  7666 net.cpp:408] conv3 -> conv3
I1011 18:18:31.518021  7666 net.cpp:150] Setting up conv3
I1011 18:18:31.518030  7666 net.cpp:157] Top shape: 64 96 13 13 (1038336)
I1011 18:18:31.518033  7666 net.cpp:165] Memory required for data: 126247680
I1011 18:18:31.518040  7666 layer_factory.hpp:77] Creating layer relu3
I1011 18:18:31.518044  7666 net.cpp:100] Creating Layer relu3
I1011 18:18:31.518046  7666 net.cpp:434] relu3 <- conv3
I1011 18:18:31.518051  7666 net.cpp:395] relu3 -> conv3 (in-place)
I1011 18:18:31.518306  7666 net.cpp:150] Setting up relu3
I1011 18:18:31.518313  7666 net.cpp:157] Top shape: 64 96 13 13 (1038336)
I1011 18:18:31.518316  7666 net.cpp:165] Memory required for data: 130401024
I1011 18:18:31.518317  7666 layer_factory.hpp:77] Creating layer conv4
I1011 18:18:31.518324  7666 net.cpp:100] Creating Layer conv4
I1011 18:18:31.518326  7666 net.cpp:434] conv4 <- conv3
I1011 18:18:31.518329  7666 net.cpp:408] conv4 -> conv4
I1011 18:18:31.520161  7666 net.cpp:150] Setting up conv4
I1011 18:18:31.520171  7666 net.cpp:157] Top shape: 64 192 11 11 (1486848)
I1011 18:18:31.520174  7666 net.cpp:165] Memory required for data: 136348416
I1011 18:18:31.520179  7666 layer_factory.hpp:77] Creating layer relu4
I1011 18:18:31.520182  7666 net.cpp:100] Creating Layer relu4
I1011 18:18:31.520185  7666 net.cpp:434] relu4 <- conv4
I1011 18:18:31.520189  7666 net.cpp:395] relu4 -> conv4 (in-place)
I1011 18:18:31.520366  7666 net.cpp:150] Setting up relu4
I1011 18:18:31.520372  7666 net.cpp:157] Top shape: 64 192 11 11 (1486848)
I1011 18:18:31.520375  7666 net.cpp:165] Memory required for data: 142295808
I1011 18:18:31.520376  7666 layer_factory.hpp:77] Creating layer conv5
I1011 18:18:31.520383  7666 net.cpp:100] Creating Layer conv5
I1011 18:18:31.520385  7666 net.cpp:434] conv5 <- conv4
I1011 18:18:31.520390  7666 net.cpp:408] conv5 -> conv5
I1011 18:18:31.522918  7666 net.cpp:150] Setting up conv5
I1011 18:18:31.522929  7666 net.cpp:157] Top shape: 64 192 9 9 (995328)
I1011 18:18:31.522931  7666 net.cpp:165] Memory required for data: 146277120
I1011 18:18:31.522936  7666 layer_factory.hpp:77] Creating layer bn2
I1011 18:18:31.522940  7666 net.cpp:100] Creating Layer bn2
I1011 18:18:31.522943  7666 net.cpp:434] bn2 <- conv5
I1011 18:18:31.522946  7666 net.cpp:408] bn2 -> bn2
I1011 18:18:31.523155  7666 net.cpp:150] Setting up bn2
I1011 18:18:31.523160  7666 net.cpp:157] Top shape: 64 192 9 9 (995328)
I1011 18:18:31.523162  7666 net.cpp:165] Memory required for data: 150258432
I1011 18:18:31.523166  7666 layer_factory.hpp:77] Creating layer relu5
I1011 18:18:31.523170  7666 net.cpp:100] Creating Layer relu5
I1011 18:18:31.523172  7666 net.cpp:434] relu5 <- bn2
I1011 18:18:31.523175  7666 net.cpp:395] relu5 -> bn2 (in-place)
I1011 18:18:31.523357  7666 net.cpp:150] Setting up relu5
I1011 18:18:31.523363  7666 net.cpp:157] Top shape: 64 192 9 9 (995328)
I1011 18:18:31.523365  7666 net.cpp:165] Memory required for data: 154239744
I1011 18:18:31.523376  7666 layer_factory.hpp:77] Creating layer drop4
I1011 18:18:31.523380  7666 net.cpp:100] Creating Layer drop4
I1011 18:18:31.523383  7666 net.cpp:434] drop4 <- bn2
I1011 18:18:31.523386  7666 net.cpp:408] drop4 -> drop4
I1011 18:18:31.523429  7666 net.cpp:150] Setting up drop4
I1011 18:18:31.523435  7666 net.cpp:157] Top shape: 64 192 9 9 (995328)
I1011 18:18:31.523452  7666 net.cpp:165] Memory required for data: 158221056
I1011 18:18:31.523453  7666 layer_factory.hpp:77] Creating layer conv6
I1011 18:18:31.523473  7666 net.cpp:100] Creating Layer conv6
I1011 18:18:31.523475  7666 net.cpp:434] conv6 <- drop4
I1011 18:18:31.523479  7666 net.cpp:408] conv6 -> conv6
I1011 18:18:31.526046  7666 net.cpp:150] Setting up conv6
I1011 18:18:31.526072  7666 net.cpp:157] Top shape: 64 192 4 4 (196608)
I1011 18:18:31.526074  7666 net.cpp:165] Memory required for data: 159007488
I1011 18:18:31.526083  7666 layer_factory.hpp:77] Creating layer relu6
I1011 18:18:31.526088  7666 net.cpp:100] Creating Layer relu6
I1011 18:18:31.526105  7666 net.cpp:434] relu6 <- conv6
I1011 18:18:31.526109  7666 net.cpp:395] relu6 -> conv6 (in-place)
I1011 18:18:31.526368  7666 net.cpp:150] Setting up relu6
I1011 18:18:31.526391  7666 net.cpp:157] Top shape: 64 192 4 4 (196608)
I1011 18:18:31.526392  7666 net.cpp:165] Memory required for data: 159793920
I1011 18:18:31.526396  7666 layer_factory.hpp:77] Creating layer conv7
I1011 18:18:31.526402  7666 net.cpp:100] Creating Layer conv7
I1011 18:18:31.526406  7666 net.cpp:434] conv7 <- conv6
I1011 18:18:31.526427  7666 net.cpp:408] conv7 -> conv7
I1011 18:18:31.529960  7666 net.cpp:150] Setting up conv7
I1011 18:18:31.529994  7666 net.cpp:157] Top shape: 64 192 2 2 (49152)
I1011 18:18:31.529997  7666 net.cpp:165] Memory required for data: 159990528
I1011 18:18:31.530017  7666 layer_factory.hpp:77] Creating layer relu7
I1011 18:18:31.530040  7666 net.cpp:100] Creating Layer relu7
I1011 18:18:31.530042  7666 net.cpp:434] relu7 <- conv7
I1011 18:18:31.530047  7666 net.cpp:395] relu7 -> conv7 (in-place)
I1011 18:18:31.530293  7666 net.cpp:150] Setting up relu7
I1011 18:18:31.530316  7666 net.cpp:157] Top shape: 64 192 2 2 (49152)
I1011 18:18:31.530318  7666 net.cpp:165] Memory required for data: 160187136
I1011 18:18:31.530321  7666 layer_factory.hpp:77] Creating layer conv8
I1011 18:18:31.530330  7666 net.cpp:100] Creating Layer conv8
I1011 18:18:31.530333  7666 net.cpp:434] conv8 <- conv7
I1011 18:18:31.530339  7666 net.cpp:408] conv8 -> conv8
I1011 18:18:31.531635  7666 net.cpp:150] Setting up conv8
I1011 18:18:31.531662  7666 net.cpp:157] Top shape: 64 192 2 2 (49152)
I1011 18:18:31.531666  7666 net.cpp:165] Memory required for data: 160383744
I1011 18:18:31.531672  7666 layer_factory.hpp:77] Creating layer relu8
I1011 18:18:31.531677  7666 net.cpp:100] Creating Layer relu8
I1011 18:18:31.531679  7666 net.cpp:434] relu8 <- conv8
I1011 18:18:31.531682  7666 net.cpp:395] relu8 -> conv8 (in-place)
I1011 18:18:31.531925  7666 net.cpp:150] Setting up relu8
I1011 18:18:31.531931  7666 net.cpp:157] Top shape: 64 192 2 2 (49152)
I1011 18:18:31.531949  7666 net.cpp:165] Memory required for data: 160580352
I1011 18:18:31.531950  7666 layer_factory.hpp:77] Creating layer conv9
I1011 18:18:31.531957  7666 net.cpp:100] Creating Layer conv9
I1011 18:18:31.531960  7666 net.cpp:434] conv9 <- conv8
I1011 18:18:31.531963  7666 net.cpp:408] conv9 -> conv9
I1011 18:18:31.533082  7666 net.cpp:150] Setting up conv9
I1011 18:18:31.533093  7666 net.cpp:157] Top shape: 64 10 2 2 (2560)
I1011 18:18:31.533097  7666 net.cpp:165] Memory required for data: 160590592
I1011 18:18:31.533115  7666 layer_factory.hpp:77] Creating layer relu9
I1011 18:18:31.533121  7666 net.cpp:100] Creating Layer relu9
I1011 18:18:31.533124  7666 net.cpp:434] relu9 <- conv9
I1011 18:18:31.533128  7666 net.cpp:395] relu9 -> conv9 (in-place)
I1011 18:18:31.533422  7666 net.cpp:150] Setting up relu9
I1011 18:18:31.533444  7666 net.cpp:157] Top shape: 64 10 2 2 (2560)
I1011 18:18:31.533447  7666 net.cpp:165] Memory required for data: 160600832
I1011 18:18:31.533457  7666 layer_factory.hpp:77] Creating layer pool
I1011 18:18:31.533463  7666 net.cpp:100] Creating Layer pool
I1011 18:18:31.533465  7666 net.cpp:434] pool <- conv9
I1011 18:18:31.533483  7666 net.cpp:408] pool -> pool
I1011 18:18:31.533666  7666 net.cpp:150] Setting up pool
I1011 18:18:31.533673  7666 net.cpp:157] Top shape: 64 10 1 1 (640)
I1011 18:18:31.533674  7666 net.cpp:165] Memory required for data: 160603392
I1011 18:18:31.533676  7666 layer_factory.hpp:77] Creating layer flatten
I1011 18:18:31.533679  7666 net.cpp:100] Creating Layer flatten
I1011 18:18:31.533681  7666 net.cpp:434] flatten <- pool
I1011 18:18:31.533686  7666 net.cpp:408] flatten -> flatten
I1011 18:18:31.533705  7666 net.cpp:150] Setting up flatten
I1011 18:18:31.533723  7666 net.cpp:157] Top shape: 64 10 (640)
I1011 18:18:31.533725  7666 net.cpp:165] Memory required for data: 160605952
I1011 18:18:31.533727  7666 layer_factory.hpp:77] Creating layer score
I1011 18:18:31.533745  7666 net.cpp:100] Creating Layer score
I1011 18:18:31.533746  7666 net.cpp:434] score <- flatten
I1011 18:18:31.533751  7666 net.cpp:408] score -> score
I1011 18:18:31.533887  7666 net.cpp:150] Setting up score
I1011 18:18:31.533891  7666 net.cpp:157] Top shape: 64 10 (640)
I1011 18:18:31.533907  7666 net.cpp:165] Memory required for data: 160608512
I1011 18:18:31.533911  7666 layer_factory.hpp:77] Creating layer score_score_0_split
I1011 18:18:31.533916  7666 net.cpp:100] Creating Layer score_score_0_split
I1011 18:18:31.533918  7666 net.cpp:434] score_score_0_split <- score
I1011 18:18:31.533923  7666 net.cpp:408] score_score_0_split -> score_score_0_split_0
I1011 18:18:31.533928  7666 net.cpp:408] score_score_0_split -> score_score_0_split_1
I1011 18:18:31.533993  7666 net.cpp:150] Setting up score_score_0_split
I1011 18:18:31.533998  7666 net.cpp:157] Top shape: 64 10 (640)
I1011 18:18:31.534001  7666 net.cpp:157] Top shape: 64 10 (640)
I1011 18:18:31.534003  7666 net.cpp:165] Memory required for data: 160613632
I1011 18:18:31.534004  7666 layer_factory.hpp:77] Creating layer accuracy
I1011 18:18:31.534008  7666 net.cpp:100] Creating Layer accuracy
I1011 18:18:31.534010  7666 net.cpp:434] accuracy <- score_score_0_split_0
I1011 18:18:31.534013  7666 net.cpp:434] accuracy <- label_data_1_split_0
I1011 18:18:31.534018  7666 net.cpp:408] accuracy -> accuracy
…
I1011 18:18:31.534600  7666 net.cpp:283] Network initialization done.
I1011 18:18:31.534826  7666 solver.cpp:181] Creating test net (#0) specified by test_net file: /home/adam/Honours/Honours-Project/cifar-10_allcnn/leakyrelu/allcnn_leakyrelu_test.prototxt
I1011 18:18:31.535006  7666 net.cpp:58] Initializing net from parameters: 
state {
  phase: TEST
}
layer {
  name: "data"
  type: "Data"
  top: "data"
  top: "label"
  transform_param {
    mean_file: "mean.binaryproto"
  }
  data_param {
    source: "../../../data/cifar-10/cifar10_test_lmdb"
    batch_size: 100
    backend: LMDB
  }
}
layer {
  name: "conv1"
  type: "Convolution"
  bottom: "data"
  top: "conv1"
  convolution_param {
    num_output: 96
    kernel_size: 3
    weight_filler {
      type: "xavier"
    }
  }
}
layer {
  name: "relu1"
  type: "ReLU"
  bottom: "conv1"
  top: "conv1"
  relu_param {
    negative_slope: 0.01
  }
}
layer {
  name: "conv2"
  type: "Convolution"
  bottom: "conv1"
  top: "conv2"
  convolution_param {
    num_output: 96
    kernel_size: 3
    weight_filler {
      type: "xavier"
    }
  }
}
layer {
  name: "bn1"
  type: "BatchNorm"
  bottom: "conv2"
  top: "bn1"
}
layer {
  name: "relu2"
  type: "ReLU"
  bottom: "bn1"
  top: "bn1"
  relu_param {
    negative_slope: 0.01
  }
}
layer {
  name: "drop1"
  type: "Dropout"
  bottom: "bn1"
  top: "drop1"
  dropout_param {
    dropout_ratio: 0.5
  }
}
layer {
  name: "conv3"
  type: "Convolution"
  bottom: "drop1"
  top: "conv3"
  convolution_param {
    num_output: 96
    kernel_size: 3
    stride: 2
    weight_filler {
      type: "xavier"
    }
  }
}
layer {
  name: "relu3"
  type: "ReLU"
  bottom: "conv3"
  top: "conv3"
  relu_param {
    negative_slope: 0.01
  }
}
layer {
  name: "conv4"
  type: "Convolution"
  bottom: "conv3"
  top: "conv4"
  convolution_param {
    num_output: 192
    kernel_size: 3
    weight_filler {
      type: "xavier"
    }
  }
}
layer {
  name: "relu4"
  type: "ReLU"
  bottom: "conv4"
  top: "conv4"
  relu_param {
    negative_slope: 0.01
  }
}
layer {
  name: "conv5"
  type: "Convolution"
  bottom: "conv4"
  top: "conv5"
  convolution_param {
    num_output: 192
    kernel_size: 3
    weight_filler {
      type: "xavier"
    }
  }
}
layer {
  name: "bn2"
  type: "BatchNorm"
  bottom: "conv5"
  top: "bn2"
}
layer {
  name: "relu5"
  type: "ReLU"
  bottom: "bn2"
  top: "bn2"
  relu_param {
    negative_slope: 0.01
  }
}
layer {
  name: "drop4"
  type: "Dropout"
  bottom: "bn2"
  top: "drop4"
  dropout_param {
    dropout_ratio: 0.5
  }
}
layer {
  name: "conv6"
  type: "Convolution"
  bottom: "drop4"
  top: "conv6"
  convolution_param {
    num_output: 192
    kernel_size: 3
    stride: 2
    weight_filler {
      type: "xavier"
    }
  }
}
layer {
  name: "relu6"
  type: "ReLU"
  bottom: "conv6"
  top: "conv6"
  relu_param {
    negative_slope: 0.01
  }
}
layer {
  name: "conv7"
  type: "Convolution"
  bottom: "conv6"
  top: "conv7"
  convolution_param {
    num_output: 192
    kernel_size: 3
    weight_filler {
      type: "xavier"
    }
  }
}
layer {
  name: "relu7"
  type: "ReLU"
  bottom: "conv7"
  top: "conv7"
  relu_param {
    negative_slope: 0.01
  }
}
layer {
  name: "conv8"
  type: "Convolution"
  bottom: "conv7"
  top: "conv8"
  convolution_param {
    num_output: 192
    kernel_size: 1
    weight_filler {
      type: "xavier"
    }
  }
}
layer {
  name: "relu8"
  type: "ReLU"
  bottom: "conv8"
  top: "conv8"
  relu_param {
    negative_slope: 0.01
  }
}
layer {
  name: "conv9"
  type: "Convolution"
  bottom: "conv8"
  top: "conv9"
  convolution_param {
    num_output: 10
    kernel_size: 1
    weight_filler {
      type: "xavier"
    }
  }
}
layer {
  name: "relu9"
  type: "ReLU"
  bottom: "conv9"
  top: "conv9"
  relu_param {
    negative_slope: 0.01
  }
}
layer {
  name: "pool"
  type: "Pooling"
  bottom: "conv9"
  top: "pool"
  pooling_param {
    pool: AVE
    global_pooling: true
  }
}
layer {
  name: "flatten"
  type: "Flatten"
  bottom: "pool"
  top: "flatten"
}
layer {
  name: "score"
  type: "InnerProduct"
  bottom: "flatten"
  top: "score"
  inner_product_param {
    num_output: 10
    weight_filler {
      type: "gaussian"
    }
  }
}
layer {
  name: "accuracy"
  type: "Accuracy"
  bottom: "score"
  bottom: "label"
  top: "accuracy"
}
layer {
  name: "loss"
  type: "SoftmaxWithLoss"
  bottom: "score"
  bottom: "label"
  top: "loss"
}
I1011 18:18:31.535123  7666 layer_factory.hpp:77] Creating layer data
I1011 18:18:31.535207  7666 net.cpp:100] Creating Layer data
I1011 18:18:31.535214  7666 net.cpp:408] data -> data
I1011 18:18:31.535220  7666 net.cpp:408] data -> label
I1011 18:18:31.535226  7666 data_transformer.cpp:25] Loading mean file from: mean.binaryproto
I1011 18:18:31.535992  7675 db_lmdb.cpp:35] Opened lmdb ../../../data/cifar-10/cifar10_test_lmdb
I1011 18:18:31.536116  7666 data_layer.cpp:41] output data size: 100,3,32,32
I1011 18:18:31.537992  7666 net.cpp:150] Setting up data
I1011 18:18:31.538031  7666 net.cpp:157] Top shape: 100 3 32 32 (307200)
I1011 18:18:31.538035  7666 net.cpp:157] Top shape: 100 (100)
I1011 18:18:31.538038  7666 net.cpp:165] Memory required for data: 1229200
I1011 18:18:31.538043  7666 layer_factory.hpp:77] Creating layer label_data_1_split
I1011 18:18:31.538050  7666 net.cpp:100] Creating Layer label_data_1_split
I1011 18:18:31.538053  7666 net.cpp:434] label_data_1_split <- label
I1011 18:18:31.538072  7666 net.cpp:408] label_data_1_split -> label_data_1_split_0
I1011 18:18:31.538081  7666 net.cpp:408] label_data_1_split -> label_data_1_split_1
I1011 18:18:31.538158  7666 net.cpp:150] Setting up label_data_1_split
I1011 18:18:31.538177  7666 net.cpp:157] Top shape: 100 (100)
I1011 18:18:31.538178  7666 net.cpp:157] Top shape: 100 (100)
I1011 18:18:31.538180  7666 net.cpp:165] Memory required for data: 1230000
I1011 18:18:31.538194  7666 layer_factory.hpp:77] Creating layer conv1
I1011 18:18:31.538203  7666 net.cpp:100] Creating Layer conv1
I1011 18:18:31.538220  7666 net.cpp:434] conv1 <- data
I1011 18:18:31.538223  7666 net.cpp:408] conv1 -> conv1
I1011 18:18:31.539327  7666 net.cpp:150] Setting up conv1
I1011 18:18:31.539338  7666 net.cpp:157] Top shape: 100 96 30 30 (8640000)
I1011 18:18:31.539340  7666 net.cpp:165] Memory required for data: 35790000
I1011 18:18:31.539371  7666 layer_factory.hpp:77] Creating layer relu1
I1011 18:18:31.539377  7666 net.cpp:100] Creating Layer relu1
I1011 18:18:31.539381  7666 net.cpp:434] relu1 <- conv1
I1011 18:18:31.539383  7666 net.cpp:395] relu1 -> conv1 (in-place)
I1011 18:18:31.539554  7666 net.cpp:150] Setting up relu1
I1011 18:18:31.539585  7666 net.cpp:157] Top shape: 100 96 30 30 (8640000)
I1011 18:18:31.539599  7666 net.cpp:165] Memory required for data: 70350000
I1011 18:18:31.539605  7666 layer_factory.hpp:77] Creating layer conv2
I1011 18:18:31.539630  7666 net.cpp:100] Creating Layer conv2
I1011 18:18:31.539633  7666 net.cpp:434] conv2 <- conv1
I1011 18:18:31.539639  7666 net.cpp:408] conv2 -> conv2
I1011 18:18:31.541004  7666 net.cpp:150] Setting up conv2
I1011 18:18:31.541014  7666 net.cpp:157] Top shape: 100 96 28 28 (7526400)
I1011 18:18:31.541016  7666 net.cpp:165] Memory required for data: 100455600
I1011 18:18:31.541024  7666 layer_factory.hpp:77] Creating layer bn1
I1011 18:18:31.541029  7666 net.cpp:100] Creating Layer bn1
I1011 18:18:31.541033  7666 net.cpp:434] bn1 <- conv2
I1011 18:18:31.541038  7666 net.cpp:408] bn1 -> bn1
I1011 18:18:31.541225  7666 net.cpp:150] Setting up bn1
I1011 18:18:31.541231  7666 net.cpp:157] Top shape: 100 96 28 28 (7526400)
I1011 18:18:31.541234  7666 net.cpp:165] Memory required for data: 130561200
I1011 18:18:31.541240  7666 layer_factory.hpp:77] Creating layer relu2
I1011 18:18:31.541260  7666 net.cpp:100] Creating Layer relu2
I1011 18:18:31.541263  7666 net.cpp:434] relu2 <- bn1
I1011 18:18:31.541267  7666 net.cpp:395] relu2 -> bn1 (in-place)
I1011 18:18:31.541527  7666 net.cpp:150] Setting up relu2
I1011 18:18:31.541538  7666 net.cpp:157] Top shape: 100 96 28 28 (7526400)
I1011 18:18:31.541540  7666 net.cpp:165] Memory required for data: 160666800
I1011 18:18:31.541543  7666 layer_factory.hpp:77] Creating layer drop1
I1011 18:18:31.541548  7666 net.cpp:100] Creating Layer drop1
I1011 18:18:31.541551  7666 net.cpp:434] drop1 <- bn1
I1011 18:18:31.541556  7666 net.cpp:408] drop1 -> drop1
I1011 18:18:31.541595  7666 net.cpp:150] Setting up drop1
I1011 18:18:31.541600  7666 net.cpp:157] Top shape: 100 96 28 28 (7526400)
I1011 18:18:31.541602  7666 net.cpp:165] Memory required for data: 190772400
I1011 18:18:31.541604  7666 layer_factory.hpp:77] Creating layer conv3
I1011 18:18:31.541612  7666 net.cpp:100] Creating Layer conv3
I1011 18:18:31.541616  7666 net.cpp:434] conv3 <- drop1
I1011 18:18:31.541620  7666 net.cpp:408] conv3 -> conv3
I1011 18:18:31.542753  7666 net.cpp:150] Setting up conv3
I1011 18:18:31.542763  7666 net.cpp:157] Top shape: 100 96 13 13 (1622400)
I1011 18:18:31.542765  7666 net.cpp:165] Memory required for data: 197262000
I1011 18:18:31.542773  7666 layer_factory.hpp:77] Creating layer relu3
I1011 18:18:31.542779  7666 net.cpp:100] Creating Layer relu3
I1011 18:18:31.542781  7666 net.cpp:434] relu3 <- conv3
I1011 18:18:31.542785  7666 net.cpp:395] relu3 -> conv3 (in-place)
I1011 18:18:31.543021  7666 net.cpp:150] Setting up relu3
I1011 18:18:31.543030  7666 net.cpp:157] Top shape: 100 96 13 13 (1622400)
I1011 18:18:31.543033  7666 net.cpp:165] Memory required for data: 203751600
I1011 18:18:31.543036  7666 layer_factory.hpp:77] Creating layer conv4
I1011 18:18:31.543042  7666 net.cpp:100] Creating Layer conv4
I1011 18:18:31.543045  7666 net.cpp:434] conv4 <- conv3
I1011 18:18:31.543051  7666 net.cpp:408] conv4 -> conv4
I1011 18:18:31.545286  7666 net.cpp:150] Setting up conv4
I1011 18:18:31.545300  7666 net.cpp:157] Top shape: 100 192 11 11 (2323200)
I1011 18:18:31.545302  7666 net.cpp:165] Memory required for data: 213044400
I1011 18:18:31.545308  7666 layer_factory.hpp:77] Creating layer relu4
I1011 18:18:31.545315  7666 net.cpp:100] Creating Layer relu4
I1011 18:18:31.545318  7666 net.cpp:434] relu4 <- conv4
I1011 18:18:31.545321  7666 net.cpp:395] relu4 -> conv4 (in-place)
I1011 18:18:31.545475  7666 net.cpp:150] Setting up relu4
I1011 18:18:31.545482  7666 net.cpp:157] Top shape: 100 192 11 11 (2323200)
I1011 18:18:31.545485  7666 net.cpp:165] Memory required for data: 222337200
I1011 18:18:31.545486  7666 layer_factory.hpp:77] Creating layer conv5
I1011 18:18:31.545493  7666 net.cpp:100] Creating Layer conv5
I1011 18:18:31.545497  7666 net.cpp:434] conv5 <- conv4
I1011 18:18:31.545500  7666 net.cpp:408] conv5 -> conv5
I1011 18:18:31.548362  7666 net.cpp:150] Setting up conv5
I1011 18:18:31.548388  7666 net.cpp:157] Top shape: 100 192 9 9 (1555200)
I1011 18:18:31.548393  7666 net.cpp:165] Memory required for data: 228558000
I1011 18:18:31.548399  7666 layer_factory.hpp:77] Creating layer bn2
I1011 18:18:31.548405  7666 net.cpp:100] Creating Layer bn2
I1011 18:18:31.548408  7666 net.cpp:434] bn2 <- conv5
I1011 18:18:31.548413  7666 net.cpp:408] bn2 -> bn2
I1011 18:18:31.548614  7666 net.cpp:150] Setting up bn2
I1011 18:18:31.548619  7666 net.cpp:157] Top shape: 100 192 9 9 (1555200)
I1011 18:18:31.548620  7666 net.cpp:165] Memory required for data: 234778800
I1011 18:18:31.548625  7666 layer_factory.hpp:77] Creating layer relu5
I1011 18:18:31.548630  7666 net.cpp:100] Creating Layer relu5
I1011 18:18:31.548632  7666 net.cpp:434] relu5 <- bn2
I1011 18:18:31.548635  7666 net.cpp:395] relu5 -> bn2 (in-place)
I1011 18:18:31.548877  7666 net.cpp:150] Setting up relu5
I1011 18:18:31.548885  7666 net.cpp:157] Top shape: 100 192 9 9 (1555200)
I1011 18:18:31.548888  7666 net.cpp:165] Memory required for data: 240999600
I1011 18:18:31.548890  7666 layer_factory.hpp:77] Creating layer drop4
I1011 18:18:31.548894  7666 net.cpp:100] Creating Layer drop4
I1011 18:18:31.548897  7666 net.cpp:434] drop4 <- bn2
I1011 18:18:31.548900  7666 net.cpp:408] drop4 -> drop4
I1011 18:18:31.548950  7666 net.cpp:150] Setting up drop4
I1011 18:18:31.548955  7666 net.cpp:157] Top shape: 100 192 9 9 (1555200)
I1011 18:18:31.548957  7666 net.cpp:165] Memory required for data: 247220400
I1011 18:18:31.548959  7666 layer_factory.hpp:77] Creating layer conv6
I1011 18:18:31.548982  7666 net.cpp:100] Creating Layer conv6
I1011 18:18:31.549000  7666 net.cpp:434] conv6 <- drop4
I1011 18:18:31.549003  7666 net.cpp:408] conv6 -> conv6
I1011 18:18:31.551548  7666 net.cpp:150] Setting up conv6
I1011 18:18:31.551558  7666 net.cpp:157] Top shape: 100 192 4 4 (307200)
I1011 18:18:31.551561  7666 net.cpp:165] Memory required for data: 248449200
I1011 18:18:31.551568  7666 layer_factory.hpp:77] Creating layer relu6
I1011 18:18:31.551574  7666 net.cpp:100] Creating Layer relu6
I1011 18:18:31.551578  7666 net.cpp:434] relu6 <- conv6
I1011 18:18:31.551580  7666 net.cpp:395] relu6 -> conv6 (in-place)
I1011 18:18:31.551829  7666 net.cpp:150] Setting up relu6
I1011 18:18:31.551837  7666 net.cpp:157] Top shape: 100 192 4 4 (307200)
I1011 18:18:31.551839  7666 net.cpp:165] Memory required for data: 249678000
I1011 18:18:31.551841  7666 layer_factory.hpp:77] Creating layer conv7
I1011 18:18:31.551848  7666 net.cpp:100] Creating Layer conv7
I1011 18:18:31.551851  7666 net.cpp:434] conv7 <- conv6
I1011 18:18:31.551856  7666 net.cpp:408] conv7 -> conv7
I1011 18:18:31.554484  7666 net.cpp:150] Setting up conv7
I1011 18:18:31.554496  7666 net.cpp:157] Top shape: 100 192 2 2 (76800)
I1011 18:18:31.554498  7666 net.cpp:165] Memory required for data: 249985200
I1011 18:18:31.554502  7666 layer_factory.hpp:77] Creating layer relu7
I1011 18:18:31.554507  7666 net.cpp:100] Creating Layer relu7
I1011 18:18:31.554509  7666 net.cpp:434] relu7 <- conv7
I1011 18:18:31.554513  7666 net.cpp:395] relu7 -> conv7 (in-place)
I1011 18:18:31.554687  7666 net.cpp:150] Setting up relu7
I1011 18:18:31.554692  7666 net.cpp:157] Top shape: 100 192 2 2 (76800)
I1011 18:18:31.554694  7666 net.cpp:165] Memory required for data: 250292400
I1011 18:18:31.554697  7666 layer_factory.hpp:77] Creating layer conv8
I1011 18:18:31.554703  7666 net.cpp:100] Creating Layer conv8
I1011 18:18:31.554705  7666 net.cpp:434] conv8 <- conv7
I1011 18:18:31.554708  7666 net.cpp:408] conv8 -> conv8
I1011 18:18:31.555678  7666 net.cpp:150] Setting up conv8
I1011 18:18:31.555687  7666 net.cpp:157] Top shape: 100 192 2 2 (76800)
I1011 18:18:31.555690  7666 net.cpp:165] Memory required for data: 250599600
I1011 18:18:31.555693  7666 layer_factory.hpp:77] Creating layer relu8
I1011 18:18:31.555698  7666 net.cpp:100] Creating Layer relu8
I1011 18:18:31.555701  7666 net.cpp:434] relu8 <- conv8
I1011 18:18:31.555703  7666 net.cpp:395] relu8 -> conv8 (in-place)
I1011 18:18:31.555971  7666 net.cpp:150] Setting up relu8
I1011 18:18:31.555980  7666 net.cpp:157] Top shape: 100 192 2 2 (76800)
I1011 18:18:31.555982  7666 net.cpp:165] Memory required for data: 250906800
I1011 18:18:31.555984  7666 layer_factory.hpp:77] Creating layer conv9
I1011 18:18:31.555991  7666 net.cpp:100] Creating Layer conv9
I1011 18:18:31.555994  7666 net.cpp:434] conv9 <- conv8
I1011 18:18:31.555997  7666 net.cpp:408] conv9 -> conv9
I1011 18:18:31.556742  7666 net.cpp:150] Setting up conv9
I1011 18:18:31.556752  7666 net.cpp:157] Top shape: 100 10 2 2 (4000)
I1011 18:18:31.556754  7666 net.cpp:165] Memory required for data: 250922800
I1011 18:18:31.556758  7666 layer_factory.hpp:77] Creating layer relu9
I1011 18:18:31.556762  7666 net.cpp:100] Creating Layer relu9
I1011 18:18:31.556764  7666 net.cpp:434] relu9 <- conv9
I1011 18:18:31.556768  7666 net.cpp:395] relu9 -> conv9 (in-place)
I1011 18:18:31.557024  7666 net.cpp:150] Setting up relu9
I1011 18:18:31.557032  7666 net.cpp:157] Top shape: 100 10 2 2 (4000)
I1011 18:18:31.557047  7666 net.cpp:165] Memory required for data: 250938800
I1011 18:18:31.557049  7666 layer_factory.hpp:77] Creating layer pool
I1011 18:18:31.557054  7666 net.cpp:100] Creating Layer pool
I1011 18:18:31.557056  7666 net.cpp:434] pool <- conv9
I1011 18:18:31.557061  7666 net.cpp:408] pool -> pool
I1011 18:18:31.557235  7666 net.cpp:150] Setting up pool
I1011 18:18:31.557241  7666 net.cpp:157] Top shape: 100 10 1 1 (1000)
I1011 18:18:31.557243  7666 net.cpp:165] Memory required for data: 250942800
I1011 18:18:31.557246  7666 layer_factory.hpp:77] Creating layer flatten
I1011 18:18:31.557250  7666 net.cpp:100] Creating Layer flatten
I1011 18:18:31.557253  7666 net.cpp:434] flatten <- pool
I1011 18:18:31.557271  7666 net.cpp:408] flatten -> flatten
I1011 18:18:31.557306  7666 net.cpp:150] Setting up flatten
I1011 18:18:31.557309  7666 net.cpp:157] Top shape: 100 10 (1000)
I1011 18:18:31.557312  7666 net.cpp:165] Memory required for data: 250946800
I1011 18:18:31.557313  7666 layer_factory.hpp:77] Creating layer score
I1011 18:18:31.557317  7666 net.cpp:100] Creating Layer score
I1011 18:18:31.557319  7666 net.cpp:434] score <- flatten
I1011 18:18:31.557324  7666 net.cpp:408] score -> score
I1011 18:18:31.557477  7666 net.cpp:150] Setting up score
I1011 18:18:31.557483  7666 net.cpp:157] Top shape: 100 10 (1000)
I1011 18:18:31.557485  7666 net.cpp:165] Memory required for data: 250950800
I1011 18:18:31.557503  7666 layer_factory.hpp:77] Creating layer score_score_0_split
I1011 18:18:31.557508  7666 net.cpp:100] Creating Layer score_score_0_split
I1011 18:18:31.557510  7666 net.cpp:434] score_score_0_split <- score
I1011 18:18:31.557514  7666 net.cpp:408] score_score_0_split -> score_score_0_split_0
I1011 18:18:31.557534  7666 net.cpp:408] score_score_0_split -> score_score_0_split_1
I1011 18:18:31.557564  7666 net.cpp:150] Setting up score_score_0_split
I1011 18:18:31.557569  7666 net.cpp:157] Top shape: 100 10 (1000)
I1011 18:18:31.557571  7666 net.cpp:157] Top shape: 100 10 (1000)
I1011 18:18:31.557574  7666 net.cpp:165] Memory required for data: 250958800
I1011 18:18:31.557575  7666 layer_factory.hpp:77] Creating layer accuracy
I1011 18:18:31.557581  7666 net.cpp:100] Creating Layer accuracy
I1011 18:18:31.557585  7666 net.cpp:434] accuracy <- score_score_0_split_0
I1011 18:18:31.557587  7666 net.cpp:434] accuracy <- label_data_1_split_0
I1011 18:18:31.557592  7666 net.cpp:408] accuracy -> accuracy
…
