…
type: "RMSProp"
I1011 19:11:54.301120  8031 solver.cpp:81] Creating training net from train_net file: /home/adam/Honours/Honours-Project/cifar-10_allcnn/leakyrelu/allcnn_leakyrelu_train.prototxt
I1011 19:11:54.301524  8031 net.cpp:58] Initializing net from parameters: 
state {
  phase: TRAIN
  level: 0
  stage: ""
}
layer {
  name: "data"
  type: "Data"
  top: "data"
  top: "label"
  transform_param {
    mean_file: "mean.binaryproto"
  }
  data_param {
    source: "../../../data/cifar-10/cifar10_train_lmdb"
    batch_size: 64
    backend: LMDB
  }
}
layer {
  name: "conv1"
  type: "Convolution"
  bottom: "data"
  top: "conv1"
  convolution_param {
    num_output: 96
    kernel_size: 3
    weight_filler {
      type: "xavier"
    }
  }
}
layer {
  name: "relu1"
  type: "ReLU"
  bottom: "conv1"
  top: "conv1"
  relu_param {
    negative_slope: 0.01
  }
}
layer {
  name: "conv2"
  type: "Convolution"
  bottom: "conv1"
  top: "conv2"
  convolution_param {
    num_output: 96
    kernel_size: 3
    weight_filler {
      type: "xavier"
    }
  }
}
layer {
  name: "bn1"
  type: "BatchNorm"
  bottom: "conv2"
  top: "bn1"
}
layer {
  name: "relu2"
  type: "ReLU"
  bottom: "bn1"
  top: "bn1"
  relu_param {
    negative_slope: 0.01
  }
}
layer {
  name: "drop1"
  type: "Dropout"
  bottom: "bn1"
  top: "drop1"
  dropout_param {
    dropout_ratio: 0.5
  }
}
layer {
  name: "conv3"
  type: "Convolution"
  bottom: "drop1"
  top: "conv3"
  convolution_param {
    num_output: 96
    kernel_size: 3
    stride: 2
    weight_filler {
      type: "xavier"
    }
  }
}
layer {
  name: "relu3"
  type: "ReLU"
  bottom: "conv3"
  top: "conv3"
  relu_param {
    negative_slope: 0.01
  }
}
layer {
  name: "conv4"
  type: "Convolution"
  bottom: "conv3"
  top: "conv4"
  convolution_param {
    num_output: 192
    kernel_size: 3
    weight_filler {
      type: "xavier"
    }
  }
}
layer {
  name: "relu4"
  type: "ReLU"
  bottom: "conv4"
  top: "conv4"
  relu_param {
    negative_slope: 0.01
  }
}
layer {
  name: "conv5"
  type: "Convolution"
  bottom: "conv4"
  top: "conv5"
  convolution_param {
    num_output: 192
    kernel_size: 3
    weight_filler {
      type: "xavier"
    }
  }
}
layer {
  name: "bn2"
  type: "BatchNorm"
  bottom: "conv5"
  top: "bn2"
}
layer {
  name: "relu5"
  type: "ReLU"
  bottom: "bn2"
  top: "bn2"
  relu_param {
    negative_slope: 0.01
  }
}
layer {
  name: "drop4"
  type: "Dropout"
  bottom: "bn2"
  top: "drop4"
  dropout_param {
    dropout_ratio: 0.5
  }
}
layer {
  name: "conv6"
  type: "Convolution"
  bottom: "drop4"
  top: "conv6"
  convolution_param {
    num_output: 192
    kernel_size: 3
    stride: 2
    weight_filler {
      type: "xavier"
    }
  }
}
layer {
  name: "relu6"
  type: "ReLU"
  bottom: "conv6"
  top: "conv6"
  relu_param {
    negative_slope: 0.01
  }
}
layer {
  name: "conv7"
  type: "Convolution"
  bottom: "conv6"
  top: "conv7"
  convolution_param {
    num_output: 192
    kernel_size: 3
    weight_filler {
      type: "xavier"
    }
  }
}
layer {
  name: "relu7"
  type: "ReLU"
  bottom: "conv7"
  top: "conv7"
  relu_param {
    negative_slope: 0.01
  }
}
layer {
  name: "conv8"
  type: "Convolution"
  bottom: "conv7"
  top: "conv8"
  convolution_param {
    num_output: 192
    kernel_size: 1
    weight_filler {
      type: "xavier"
    }
  }
}
layer {
  name: "relu8"
  type: "ReLU"
  bottom: "conv8"
  top: "conv8"
  relu_param {
    negative_slope: 0.01
  }
}
layer {
  name: "conv9"
  type: "Convolution"
  bottom: "conv8"
  top: "conv9"
  convolution_param {
    num_output: 10
    kernel_size: 1
    weight_filler {
      type: "xavier"
    }
  }
}
layer {
  name: "relu9"
  type: "ReLU"
  bottom: "conv9"
  top: "conv9"
  relu_param {
    negative_slope: 0.01
  }
}
layer {
  name: "pool"
  type: "Pooling"
  bottom: "conv9"
  top: "pool"
  pooling_param {
    pool: AVE
    global_pooling: true
  }
}
layer {
  name: "flatten"
  type: "Flatten"
  bottom: "pool"
  top: "flatten"
}
layer {
  name: "score"
  type: "InnerProduct"
  bottom: "flatten"
  top: "score"
  inner_product_param {
    num_output: 10
    weight_filler {
      type: "gaussian"
    }
  }
}
layer {
  name: "accuracy"
  type: "Accuracy"
  bottom: "score"
  bottom: "label"
  top: "accuracy"
}
layer {
  name: "loss"
  type: "SoftmaxWithLoss"
  bottom: "score"
  bottom: "label"
  top: "loss"
}
I1011 19:11:54.301712  8031 layer_factory.hpp:77] Creating layer data
I1011 19:11:54.302157  8031 net.cpp:100] Creating Layer data
I1011 19:11:54.302181  8031 net.cpp:408] data -> data
I1011 19:11:54.302211  8031 net.cpp:408] data -> label
I1011 19:11:54.302233  8031 data_transformer.cpp:25] Loading mean file from: mean.binaryproto
I1011 19:11:54.303319  8037 db_lmdb.cpp:35] Opened lmdb ../../../data/cifar-10/cifar10_train_lmdb
I1011 19:11:54.309376  8031 data_layer.cpp:41] output data size: 64,3,32,32
I1011 19:11:54.310915  8031 net.cpp:150] Setting up data
I1011 19:11:54.310930  8031 net.cpp:157] Top shape: 64 3 32 32 (196608)
I1011 19:11:54.310933  8031 net.cpp:157] Top shape: 64 (64)
I1011 19:11:54.310958  8031 net.cpp:165] Memory required for data: 786688
I1011 19:11:54.310966  8031 layer_factory.hpp:77] Creating layer label_data_1_split
I1011 19:11:54.310977  8031 net.cpp:100] Creating Layer label_data_1_split
I1011 19:11:54.310997  8031 net.cpp:434] label_data_1_split <- label
I1011 19:11:54.311022  8031 net.cpp:408] label_data_1_split -> label_data_1_split_0
I1011 19:11:54.311036  8031 net.cpp:408] label_data_1_split -> label_data_1_split_1
I1011 19:11:54.311098  8031 net.cpp:150] Setting up label_data_1_split
I1011 19:11:54.311102  8031 net.cpp:157] Top shape: 64 (64)
I1011 19:11:54.311105  8031 net.cpp:157] Top shape: 64 (64)
I1011 19:11:54.311106  8031 net.cpp:165] Memory required for data: 787200
I1011 19:11:54.311131  8031 layer_factory.hpp:77] Creating layer conv1
I1011 19:11:54.311143  8031 net.cpp:100] Creating Layer conv1
I1011 19:11:54.311146  8031 net.cpp:434] conv1 <- data
I1011 19:11:54.311151  8031 net.cpp:408] conv1 -> conv1
I1011 19:11:54.447877  8031 net.cpp:150] Setting up conv1
I1011 19:11:54.447901  8031 net.cpp:157] Top shape: 64 96 30 30 (5529600)
I1011 19:11:54.447903  8031 net.cpp:165] Memory required for data: 22905600
I1011 19:11:54.447921  8031 layer_factory.hpp:77] Creating layer relu1
I1011 19:11:54.447932  8031 net.cpp:100] Creating Layer relu1
I1011 19:11:54.447934  8031 net.cpp:434] relu1 <- conv1
I1011 19:11:54.447952  8031 net.cpp:395] relu1 -> conv1 (in-place)
I1011 19:11:54.448143  8031 net.cpp:150] Setting up relu1
I1011 19:11:54.448148  8031 net.cpp:157] Top shape: 64 96 30 30 (5529600)
I1011 19:11:54.448150  8031 net.cpp:165] Memory required for data: 45024000
I1011 19:11:54.448153  8031 layer_factory.hpp:77] Creating layer conv2
I1011 19:11:54.448160  8031 net.cpp:100] Creating Layer conv2
I1011 19:11:54.448163  8031 net.cpp:434] conv2 <- conv1
I1011 19:11:54.448166  8031 net.cpp:408] conv2 -> conv2
I1011 19:11:54.449553  8031 net.cpp:150] Setting up conv2
I1011 19:11:54.449563  8031 net.cpp:157] Top shape: 64 96 28 28 (4816896)
I1011 19:11:54.449564  8031 net.cpp:165] Memory required for data: 64291584
I1011 19:11:54.449571  8031 layer_factory.hpp:77] Creating layer bn1
I1011 19:11:54.449576  8031 net.cpp:100] Creating Layer bn1
I1011 19:11:54.449579  8031 net.cpp:434] bn1 <- conv2
I1011 19:11:54.449581  8031 net.cpp:408] bn1 -> bn1
I1011 19:11:54.449767  8031 net.cpp:150] Setting up bn1
I1011 19:11:54.449772  8031 net.cpp:157] Top shape: 64 96 28 28 (4816896)
I1011 19:11:54.449774  8031 net.cpp:165] Memory required for data: 83559168
I1011 19:11:54.449790  8031 layer_factory.hpp:77] Creating layer relu2
I1011 19:11:54.449795  8031 net.cpp:100] Creating Layer relu2
I1011 19:11:54.449797  8031 net.cpp:434] relu2 <- bn1
I1011 19:11:54.449800  8031 net.cpp:395] relu2 -> bn1 (in-place)
I1011 19:11:54.449996  8031 net.cpp:150] Setting up relu2
I1011 19:11:54.450001  8031 net.cpp:157] Top shape: 64 96 28 28 (4816896)
I1011 19:11:54.450003  8031 net.cpp:165] Memory required for data: 102826752
I1011 19:11:54.450006  8031 layer_factory.hpp:77] Creating layer drop1
I1011 19:11:54.450009  8031 net.cpp:100] Creating Layer drop1
I1011 19:11:54.450011  8031 net.cpp:434] drop1 <- bn1
I1011 19:11:54.450014  8031 net.cpp:408] drop1 -> drop1
I1011 19:11:54.450057  8031 net.cpp:150] Setting up drop1
I1011 19:11:54.450062  8031 net.cpp:157] Top shape: 64 96 28 28 (4816896)
I1011 19:11:54.450063  8031 net.cpp:165] Memory required for data: 122094336
I1011 19:11:54.450065  8031 layer_factory.hpp:77] Creating layer conv3
I1011 19:11:54.450085  8031 net.cpp:100] Creating Layer conv3
I1011 19:11:54.450088  8031 net.cpp:434] conv3 <- drop1
I1011 19:11:54.450091  8031 net.cpp:408] conv3 -> conv3
I1011 19:11:54.451272  8031 net.cpp:150] Setting up conv3
I1011 19:11:54.451280  8031 net.cpp:157] Top shape: 64 96 13 13 (1038336)
I1011 19:11:54.451283  8031 net.cpp:165] Memory required for data: 126247680
I1011 19:11:54.451289  8031 layer_factory.hpp:77] Creating layer relu3
I1011 19:11:54.451293  8031 net.cpp:100] Creating Layer relu3
I1011 19:11:54.451295  8031 net.cpp:434] relu3 <- conv3
I1011 19:11:54.451298  8031 net.cpp:395] relu3 -> conv3 (in-place)
I1011 19:11:54.451545  8031 net.cpp:150] Setting up relu3
I1011 19:11:54.451553  8031 net.cpp:157] Top shape: 64 96 13 13 (1038336)
I1011 19:11:54.451555  8031 net.cpp:165] Memory required for data: 130401024
I1011 19:11:54.451557  8031 layer_factory.hpp:77] Creating layer conv4
I1011 19:11:54.451563  8031 net.cpp:100] Creating Layer conv4
I1011 19:11:54.451565  8031 net.cpp:434] conv4 <- conv3
I1011 19:11:54.451568  8031 net.cpp:408] conv4 -> conv4
I1011 19:11:54.453363  8031 net.cpp:150] Setting up conv4
I1011 19:11:54.453373  8031 net.cpp:157] Top shape: 64 192 11 11 (1486848)
I1011 19:11:54.453375  8031 net.cpp:165] Memory required for data: 136348416
I1011 19:11:54.453380  8031 layer_factory.hpp:77] Creating layer relu4
I1011 19:11:54.453384  8031 net.cpp:100] Creating Layer relu4
I1011 19:11:54.453387  8031 net.cpp:434] relu4 <- conv4
I1011 19:11:54.453389  8031 net.cpp:395] relu4 -> conv4 (in-place)
I1011 19:11:54.453563  8031 net.cpp:150] Setting up relu4
I1011 19:11:54.453570  8031 net.cpp:157] Top shape: 64 192 11 11 (1486848)
I1011 19:11:54.453572  8031 net.cpp:165] Memory required for data: 142295808
I1011 19:11:54.453574  8031 layer_factory.hpp:77] Creating layer conv5
I1011 19:11:54.453579  8031 net.cpp:100] Creating Layer conv5
I1011 19:11:54.453582  8031 net.cpp:434] conv5 <- conv4
I1011 19:11:54.453584  8031 net.cpp:408] conv5 -> conv5
I1011 19:11:54.456058  8031 net.cpp:150] Setting up conv5
I1011 19:11:54.456068  8031 net.cpp:157] Top shape: 64 192 9 9 (995328)
I1011 19:11:54.456070  8031 net.cpp:165] Memory required for data: 146277120
I1011 19:11:54.456075  8031 layer_factory.hpp:77] Creating layer bn2
I1011 19:11:54.456080  8031 net.cpp:100] Creating Layer bn2
I1011 19:11:54.456082  8031 net.cpp:434] bn2 <- conv5
I1011 19:11:54.456085  8031 net.cpp:408] bn2 -> bn2
I1011 19:11:54.456277  8031 net.cpp:150] Setting up bn2
I1011 19:11:54.456282  8031 net.cpp:157] Top shape: 64 192 9 9 (995328)
I1011 19:11:54.456284  8031 net.cpp:165] Memory required for data: 150258432
I1011 19:11:54.456290  8031 layer_factory.hpp:77] Creating layer relu5
I1011 19:11:54.456292  8031 net.cpp:100] Creating Layer relu5
I1011 19:11:54.456295  8031 net.cpp:434] relu5 <- bn2
I1011 19:11:54.456297  8031 net.cpp:395] relu5 -> bn2 (in-place)
I1011 19:11:54.456450  8031 net.cpp:150] Setting up relu5
I1011 19:11:54.456456  8031 net.cpp:157] Top shape: 64 192 9 9 (995328)
I1011 19:11:54.456459  8031 net.cpp:165] Memory required for data: 154239744
I1011 19:11:54.456468  8031 layer_factory.hpp:77] Creating layer drop4
I1011 19:11:54.456472  8031 net.cpp:100] Creating Layer drop4
I1011 19:11:54.456475  8031 net.cpp:434] drop4 <- bn2
I1011 19:11:54.456478  8031 net.cpp:408] drop4 -> drop4
I1011 19:11:54.456537  8031 net.cpp:150] Setting up drop4
I1011 19:11:54.456554  8031 net.cpp:157] Top shape: 64 192 9 9 (995328)
I1011 19:11:54.456557  8031 net.cpp:165] Memory required for data: 158221056
I1011 19:11:54.456558  8031 layer_factory.hpp:77] Creating layer conv6
I1011 19:11:54.456565  8031 net.cpp:100] Creating Layer conv6
I1011 19:11:54.456568  8031 net.cpp:434] conv6 <- drop4
I1011 19:11:54.456585  8031 net.cpp:408] conv6 -> conv6
I1011 19:11:54.459316  8031 net.cpp:150] Setting up conv6
I1011 19:11:54.459350  8031 net.cpp:157] Top shape: 64 192 4 4 (196608)
I1011 19:11:54.459353  8031 net.cpp:165] Memory required for data: 159007488
I1011 19:11:54.459367  8031 layer_factory.hpp:77] Creating layer relu6
I1011 19:11:54.459373  8031 net.cpp:100] Creating Layer relu6
I1011 19:11:54.459377  8031 net.cpp:434] relu6 <- conv6
I1011 19:11:54.459381  8031 net.cpp:395] relu6 -> conv6 (in-place)
I1011 19:11:54.459628  8031 net.cpp:150] Setting up relu6
I1011 19:11:54.459652  8031 net.cpp:157] Top shape: 64 192 4 4 (196608)
I1011 19:11:54.459655  8031 net.cpp:165] Memory required for data: 159793920
I1011 19:11:54.459657  8031 layer_factory.hpp:77] Creating layer conv7
I1011 19:11:54.459666  8031 net.cpp:100] Creating Layer conv7
I1011 19:11:54.459682  8031 net.cpp:434] conv7 <- conv6
I1011 19:11:54.459686  8031 net.cpp:408] conv7 -> conv7
I1011 19:11:54.462507  8031 net.cpp:150] Setting up conv7
I1011 19:11:54.462538  8031 net.cpp:157] Top shape: 64 192 2 2 (49152)
I1011 19:11:54.462541  8031 net.cpp:165] Memory required for data: 159990528
I1011 19:11:54.462548  8031 layer_factory.hpp:77] Creating layer relu7
I1011 19:11:54.462553  8031 net.cpp:100] Creating Layer relu7
I1011 19:11:54.462555  8031 net.cpp:434] relu7 <- conv7
I1011 19:11:54.462560  8031 net.cpp:395] relu7 -> conv7 (in-place)
I1011 19:11:54.462813  8031 net.cpp:150] Setting up relu7
I1011 19:11:54.462821  8031 net.cpp:157] Top shape: 64 192 2 2 (49152)
I1011 19:11:54.462823  8031 net.cpp:165] Memory required for data: 160187136
I1011 19:11:54.462826  8031 layer_factory.hpp:77] Creating layer conv8
I1011 19:11:54.462832  8031 net.cpp:100] Creating Layer conv8
I1011 19:11:54.462834  8031 net.cpp:434] conv8 <- conv7
I1011 19:11:54.462838  8031 net.cpp:408] conv8 -> conv8
I1011 19:11:54.464089  8031 net.cpp:150] Setting up conv8
I1011 19:11:54.464099  8031 net.cpp:157] Top shape: 64 192 2 2 (49152)
I1011 19:11:54.464102  8031 net.cpp:165] Memory required for data: 160383744
I1011 19:11:54.464105  8031 layer_factory.hpp:77] Creating layer relu8
I1011 19:11:54.464109  8031 net.cpp:100] Creating Layer relu8
I1011 19:11:54.464112  8031 net.cpp:434] relu8 <- conv8
I1011 19:11:54.464115  8031 net.cpp:395] relu8 -> conv8 (in-place)
I1011 19:11:54.464288  8031 net.cpp:150] Setting up relu8
I1011 19:11:54.464294  8031 net.cpp:157] Top shape: 64 192 2 2 (49152)
I1011 19:11:54.464296  8031 net.cpp:165] Memory required for data: 160580352
I1011 19:11:54.464298  8031 layer_factory.hpp:77] Creating layer conv9
I1011 19:11:54.464303  8031 net.cpp:100] Creating Layer conv9
I1011 19:11:54.464305  8031 net.cpp:434] conv9 <- conv8
I1011 19:11:54.464309  8031 net.cpp:408] conv9 -> conv9
I1011 19:11:54.465126  8031 net.cpp:150] Setting up conv9
I1011 19:11:54.465136  8031 net.cpp:157] Top shape: 64 10 2 2 (2560)
I1011 19:11:54.465137  8031 net.cpp:165] Memory required for data: 160590592
I1011 19:11:54.465142  8031 layer_factory.hpp:77] Creating layer relu9
I1011 19:11:54.465145  8031 net.cpp:100] Creating Layer relu9
I1011 19:11:54.465148  8031 net.cpp:434] relu9 <- conv9
I1011 19:11:54.465152  8031 net.cpp:395] relu9 -> conv9 (in-place)
I1011 19:11:54.465412  8031 net.cpp:150] Setting up relu9
I1011 19:11:54.465420  8031 net.cpp:157] Top shape: 64 10 2 2 (2560)
I1011 19:11:54.465436  8031 net.cpp:165] Memory required for data: 160600832
I1011 19:11:54.465450  8031 layer_factory.hpp:77] Creating layer pool
I1011 19:11:54.465454  8031 net.cpp:100] Creating Layer pool
I1011 19:11:54.465457  8031 net.cpp:434] pool <- conv9
I1011 19:11:54.465462  8031 net.cpp:408] pool -> pool
I1011 19:11:54.465659  8031 net.cpp:150] Setting up pool
I1011 19:11:54.465665  8031 net.cpp:157] Top shape: 64 10 1 1 (640)
I1011 19:11:54.465667  8031 net.cpp:165] Memory required for data: 160603392
I1011 19:11:54.465669  8031 layer_factory.hpp:77] Creating layer flatten
I1011 19:11:54.465673  8031 net.cpp:100] Creating Layer flatten
I1011 19:11:54.465675  8031 net.cpp:434] flatten <- pool
I1011 19:11:54.465678  8031 net.cpp:408] flatten -> flatten
I1011 19:11:54.465698  8031 net.cpp:150] Setting up flatten
I1011 19:11:54.465716  8031 net.cpp:157] Top shape: 64 10 (640)
I1011 19:11:54.465718  8031 net.cpp:165] Memory required for data: 160605952
I1011 19:11:54.465719  8031 layer_factory.hpp:77] Creating layer score
I1011 19:11:54.465723  8031 net.cpp:100] Creating Layer score
I1011 19:11:54.465725  8031 net.cpp:434] score <- flatten
I1011 19:11:54.465730  8031 net.cpp:408] score -> score
I1011 19:11:54.465878  8031 net.cpp:150] Setting up score
I1011 19:11:54.465883  8031 net.cpp:157] Top shape: 64 10 (640)
I1011 19:11:54.465884  8031 net.cpp:165] Memory required for data: 160608512
I1011 19:11:54.465888  8031 layer_factory.hpp:77] Creating layer score_score_0_split
I1011 19:11:54.465905  8031 net.cpp:100] Creating Layer score_score_0_split
I1011 19:11:54.465909  8031 net.cpp:434] score_score_0_split <- score
I1011 19:11:54.465911  8031 net.cpp:408] score_score_0_split -> score_score_0_split_0
I1011 19:11:54.465916  8031 net.cpp:408] score_score_0_split -> score_score_0_split_1
I1011 19:11:54.465970  8031 net.cpp:150] Setting up score_score_0_split
I1011 19:11:54.465988  8031 net.cpp:157] Top shape: 64 10 (640)
I1011 19:11:54.465991  8031 net.cpp:157] Top shape: 64 10 (640)
I1011 19:11:54.465992  8031 net.cpp:165] Memory required for data: 160613632
I1011 19:11:54.465994  8031 layer_factory.hpp:77] Creating layer accuracy
I1011 19:11:54.466012  8031 net.cpp:100] Creating Layer accuracy
I1011 19:11:54.466013  8031 net.cpp:434] accuracy <- score_score_0_split_0
I1011 19:11:54.466017  8031 net.cpp:434] accuracy <- label_data_1_split_0
I1011 19:11:54.466034  8031 net.cpp:408] accuracy -> accuracy
…
I1011 19:11:54.466645  8031 net.cpp:283] Network initialization done.
I1011 19:11:54.466856  8031 solver.cpp:181] Creating test net (#0) specified by test_net file: /home/adam/Honours/Honours-Project/cifar-10_allcnn/leakyrelu/allcnn_leakyrelu_test.prototxt
I1011 19:11:54.467011  8031 net.cpp:58] Initializing net from parameters: 
state {
  phase: TEST
}
layer {
  name: "data"
  type: "Data"
  top: "data"
  top: "label"
  transform_param {
    mean_file: "mean.binaryproto"
  }
  data_param {
    source: "../../../data/cifar-10/cifar10_test_lmdb"
    batch_size: 100
    backend: LMDB
  }
}
layer {
  name: "conv1"
  type: "Convolution"
  bottom: "data"
  top: "conv1"
  convolution_param {
    num_output: 96
    kernel_size: 3
    weight_filler {
      type: "xavier"
    }
  }
}
layer {
  name: "relu1"
  type: "ReLU"
  bottom: "conv1"
  top: "conv1"
  relu_param {
    negative_slope: 0.01
  }
}
layer {
  name: "conv2"
  type: "Convolution"
  bottom: "conv1"
  top: "conv2"
  convolution_param {
    num_output: 96
    kernel_size: 3
    weight_filler {
      type: "xavier"
    }
  }
}
layer {
  name: "bn1"
  type: "BatchNorm"
  bottom: "conv2"
  top: "bn1"
}
layer {
  name: "relu2"
  type: "ReLU"
  bottom: "bn1"
  top: "bn1"
  relu_param {
    negative_slope: 0.01
  }
}
layer {
  name: "drop1"
  type: "Dropout"
  bottom: "bn1"
  top: "drop1"
  dropout_param {
    dropout_ratio: 0.5
  }
}
layer {
  name: "conv3"
  type: "Convolution"
  bottom: "drop1"
  top: "conv3"
  convolution_param {
    num_output: 96
    kernel_size: 3
    stride: 2
    weight_filler {
      type: "xavier"
    }
  }
}
layer {
  name: "relu3"
  type: "ReLU"
  bottom: "conv3"
  top: "conv3"
  relu_param {
    negative_slope: 0.01
  }
}
layer {
  name: "conv4"
  type: "Convolution"
  bottom: "conv3"
  top: "conv4"
  convolution_param {
    num_output: 192
    kernel_size: 3
    weight_filler {
      type: "xavier"
    }
  }
}
layer {
  name: "relu4"
  type: "ReLU"
  bottom: "conv4"
  top: "conv4"
  relu_param {
    negative_slope: 0.01
  }
}
layer {
  name: "conv5"
  type: "Convolution"
  bottom: "conv4"
  top: "conv5"
  convolution_param {
    num_output: 192
    kernel_size: 3
    weight_filler {
      type: "xavier"
    }
  }
}
layer {
  name: "bn2"
  type: "BatchNorm"
  bottom: "conv5"
  top: "bn2"
}
layer {
  name: "relu5"
  type: "ReLU"
  bottom: "bn2"
  top: "bn2"
  relu_param {
    negative_slope: 0.01
  }
}
layer {
  name: "drop4"
  type: "Dropout"
  bottom: "bn2"
  top: "drop4"
  dropout_param {
    dropout_ratio: 0.5
  }
}
layer {
  name: "conv6"
  type: "Convolution"
  bottom: "drop4"
  top: "conv6"
  convolution_param {
    num_output: 192
    kernel_size: 3
    stride: 2
    weight_filler {
      type: "xavier"
    }
  }
}
layer {
  name: "relu6"
  type: "ReLU"
  bottom: "conv6"
  top: "conv6"
  relu_param {
    negative_slope: 0.01
  }
}
layer {
  name: "conv7"
  type: "Convolution"
  bottom: "conv6"
  top: "conv7"
  convolution_param {
    num_output: 192
    kernel_size: 3
    weight_filler {
      type: "xavier"
    }
  }
}
layer {
  name: "relu7"
  type: "ReLU"
  bottom: "conv7"
  top: "conv7"
  relu_param {
    negative_slope: 0.01
  }
}
layer {
  name: "conv8"
  type: "Convolution"
  bottom: "conv7"
  top: "conv8"
  convolution_param {
    num_output: 192
    kernel_size: 1
    weight_filler {
      type: "xavier"
    }
  }
}
layer {
  name: "relu8"
  type: "ReLU"
  bottom: "conv8"
  top: "conv8"
  relu_param {
    negative_slope: 0.01
  }
}
layer {
  name: "conv9"
  type: "Convolution"
  bottom: "conv8"
  top: "conv9"
  convolution_param {
    num_output: 10
    kernel_size: 1
    weight_filler {
      type: "xavier"
    }
  }
}
layer {
  name: "relu9"
  type: "ReLU"
  bottom: "conv9"
  top: "conv9"
  relu_param {
    negative_slope: 0.01
  }
}
layer {
  name: "pool"
  type: "Pooling"
  bottom: "conv9"
  top: "pool"
  pooling_param {
    pool: AVE
    global_pooling: true
  }
}
layer {
  name: "flatten"
  type: "Flatten"
  bottom: "pool"
  top: "flatten"
}
layer {
  name: "score"
  type: "InnerProduct"
  bottom: "flatten"
  top: "score"
  inner_product_param {
    num_output: 10
    weight_filler {
      type: "gaussian"
    }
  }
}
layer {
  name: "accuracy"
  type: "Accuracy"
  bottom: "score"
  bottom: "label"
  top: "accuracy"
}
layer {
  name: "loss"
  type: "SoftmaxWithLoss"
  bottom: "score"
  bottom: "label"
  top: "loss"
}
I1011 19:11:54.467130  8031 layer_factory.hpp:77] Creating layer data
I1011 19:11:54.467325  8031 net.cpp:100] Creating Layer data
I1011 19:11:54.467352  8031 net.cpp:408] data -> data
I1011 19:11:54.467375  8031 net.cpp:408] data -> label
I1011 19:11:54.467380  8031 data_transformer.cpp:25] Loading mean file from: mean.binaryproto
I1011 19:11:54.468125  8039 db_lmdb.cpp:35] Opened lmdb ../../../data/cifar-10/cifar10_test_lmdb
I1011 19:11:54.468313  8031 data_layer.cpp:41] output data size: 100,3,32,32
I1011 19:11:54.470227  8031 net.cpp:150] Setting up data
I1011 19:11:54.470245  8031 net.cpp:157] Top shape: 100 3 32 32 (307200)
I1011 19:11:54.470248  8031 net.cpp:157] Top shape: 100 (100)
I1011 19:11:54.470250  8031 net.cpp:165] Memory required for data: 1229200
I1011 19:11:54.470254  8031 layer_factory.hpp:77] Creating layer label_data_1_split
I1011 19:11:54.470278  8031 net.cpp:100] Creating Layer label_data_1_split
I1011 19:11:54.470281  8031 net.cpp:434] label_data_1_split <- label
I1011 19:11:54.470299  8031 net.cpp:408] label_data_1_split -> label_data_1_split_0
I1011 19:11:54.470307  8031 net.cpp:408] label_data_1_split -> label_data_1_split_1
I1011 19:11:54.470363  8031 net.cpp:150] Setting up label_data_1_split
I1011 19:11:54.470368  8031 net.cpp:157] Top shape: 100 (100)
I1011 19:11:54.470371  8031 net.cpp:157] Top shape: 100 (100)
I1011 19:11:54.470373  8031 net.cpp:165] Memory required for data: 1230000
I1011 19:11:54.470376  8031 layer_factory.hpp:77] Creating layer conv1
I1011 19:11:54.470383  8031 net.cpp:100] Creating Layer conv1
I1011 19:11:54.470387  8031 net.cpp:434] conv1 <- data
I1011 19:11:54.470391  8031 net.cpp:408] conv1 -> conv1
I1011 19:11:54.471627  8031 net.cpp:150] Setting up conv1
I1011 19:11:54.471642  8031 net.cpp:157] Top shape: 100 96 30 30 (8640000)
I1011 19:11:54.471663  8031 net.cpp:165] Memory required for data: 35790000
I1011 19:11:54.471671  8031 layer_factory.hpp:77] Creating layer relu1
I1011 19:11:54.471678  8031 net.cpp:100] Creating Layer relu1
I1011 19:11:54.471679  8031 net.cpp:434] relu1 <- conv1
I1011 19:11:54.471684  8031 net.cpp:395] relu1 -> conv1 (in-place)
I1011 19:11:54.471843  8031 net.cpp:150] Setting up relu1
I1011 19:11:54.471859  8031 net.cpp:157] Top shape: 100 96 30 30 (8640000)
I1011 19:11:54.471863  8031 net.cpp:165] Memory required for data: 70350000
I1011 19:11:54.471865  8031 layer_factory.hpp:77] Creating layer conv2
I1011 19:11:54.471874  8031 net.cpp:100] Creating Layer conv2
I1011 19:11:54.471876  8031 net.cpp:434] conv2 <- conv1
I1011 19:11:54.471880  8031 net.cpp:408] conv2 -> conv2
I1011 19:11:54.473269  8031 net.cpp:150] Setting up conv2
I1011 19:11:54.473295  8031 net.cpp:157] Top shape: 100 96 28 28 (7526400)
I1011 19:11:54.473299  8031 net.cpp:165] Memory required for data: 100455600
I1011 19:11:54.473305  8031 layer_factory.hpp:77] Creating layer bn1
I1011 19:11:54.473310  8031 net.cpp:100] Creating Layer bn1
I1011 19:11:54.473312  8031 net.cpp:434] bn1 <- conv2
I1011 19:11:54.473317  8031 net.cpp:408] bn1 -> bn1
I1011 19:11:54.473552  8031 net.cpp:150] Setting up bn1
I1011 19:11:54.473575  8031 net.cpp:157] Top shape: 100 96 28 28 (7526400)
I1011 19:11:54.473577  8031 net.cpp:165] Memory required for data: 130561200
I1011 19:11:54.473584  8031 layer_factory.hpp:77] Creating layer relu2
I1011 19:11:54.473588  8031 net.cpp:100] Creating Layer relu2
I1011 19:11:54.473592  8031 net.cpp:434] relu2 <- bn1
I1011 19:11:54.473594  8031 net.cpp:395] relu2 -> bn1 (in-place)
I1011 19:11:54.473857  8031 net.cpp:150] Setting up relu2
I1011 19:11:54.473881  8031 net.cpp:157] Top shape: 100 96 28 28 (7526400)
I1011 19:11:54.473882  8031 net.cpp:165] Memory required for data: 160666800
I1011 19:11:54.473886  8031 layer_factory.hpp:77] Creating layer drop1
I1011 19:11:54.473891  8031 net.cpp:100] Creating Layer drop1
I1011 19:11:54.473892  8031 net.cpp:434] drop1 <- bn1
I1011 19:11:54.473896  8031 net.cpp:408] drop1 -> drop1
I1011 19:11:54.473945  8031 net.cpp:150] Setting up drop1
I1011 19:11:54.473950  8031 net.cpp:157] Top shape: 100 96 28 28 (7526400)
I1011 19:11:54.473968  8031 net.cpp:165] Memory required for data: 190772400
I1011 19:11:54.473969  8031 layer_factory.hpp:77] Creating layer conv3
I1011 19:11:54.473990  8031 net.cpp:100] Creating Layer conv3
I1011 19:11:54.473992  8031 net.cpp:434] conv3 <- drop1
I1011 19:11:54.473996  8031 net.cpp:408] conv3 -> conv3
I1011 19:11:54.475100  8031 net.cpp:150] Setting up conv3
I1011 19:11:54.475126  8031 net.cpp:157] Top shape: 100 96 13 13 (1622400)
I1011 19:11:54.475127  8031 net.cpp:165] Memory required for data: 197262000
I1011 19:11:54.475134  8031 layer_factory.hpp:77] Creating layer relu3
I1011 19:11:54.475138  8031 net.cpp:100] Creating Layer relu3
I1011 19:11:54.475142  8031 net.cpp:434] relu3 <- conv3
I1011 19:11:54.475145  8031 net.cpp:395] relu3 -> conv3 (in-place)
I1011 19:11:54.475395  8031 net.cpp:150] Setting up relu3
I1011 19:11:54.475404  8031 net.cpp:157] Top shape: 100 96 13 13 (1622400)
I1011 19:11:54.475419  8031 net.cpp:165] Memory required for data: 203751600
I1011 19:11:54.475422  8031 layer_factory.hpp:77] Creating layer conv4
I1011 19:11:54.475428  8031 net.cpp:100] Creating Layer conv4
I1011 19:11:54.475431  8031 net.cpp:434] conv4 <- conv3
I1011 19:11:54.475435  8031 net.cpp:408] conv4 -> conv4
I1011 19:11:54.478632  8031 net.cpp:150] Setting up conv4
I1011 19:11:54.478646  8031 net.cpp:157] Top shape: 100 192 11 11 (2323200)
I1011 19:11:54.478648  8031 net.cpp:165] Memory required for data: 213044400
I1011 19:11:54.478654  8031 layer_factory.hpp:77] Creating layer relu4
I1011 19:11:54.478673  8031 net.cpp:100] Creating Layer relu4
I1011 19:11:54.478677  8031 net.cpp:434] relu4 <- conv4
I1011 19:11:54.478695  8031 net.cpp:395] relu4 -> conv4 (in-place)
I1011 19:11:54.478879  8031 net.cpp:150] Setting up relu4
I1011 19:11:54.478885  8031 net.cpp:157] Top shape: 100 192 11 11 (2323200)
I1011 19:11:54.478904  8031 net.cpp:165] Memory required for data: 222337200
I1011 19:11:54.478905  8031 layer_factory.hpp:77] Creating layer conv5
I1011 19:11:54.478912  8031 net.cpp:100] Creating Layer conv5
I1011 19:11:54.478914  8031 net.cpp:434] conv5 <- conv4
I1011 19:11:54.478919  8031 net.cpp:408] conv5 -> conv5
I1011 19:11:54.481724  8031 net.cpp:150] Setting up conv5
I1011 19:11:54.481742  8031 net.cpp:157] Top shape: 100 192 9 9 (1555200)
I1011 19:11:54.481745  8031 net.cpp:165] Memory required for data: 228558000
I1011 19:11:54.481750  8031 layer_factory.hpp:77] Creating layer bn2
I1011 19:11:54.481755  8031 net.cpp:100] Creating Layer bn2
I1011 19:11:54.481756  8031 net.cpp:434] bn2 <- conv5
I1011 19:11:54.481760  8031 net.cpp:408] bn2 -> bn2
I1011 19:11:54.481974  8031 net.cpp:150] Setting up bn2
I1011 19:11:54.481979  8031 net.cpp:157] Top shape: 100 192 9 9 (1555200)
I1011 19:11:54.481982  8031 net.cpp:165] Memory required for data: 234778800
I1011 19:11:54.481986  8031 layer_factory.hpp:77] Creating layer relu5
I1011 19:11:54.481990  8031 net.cpp:100] Creating Layer relu5
I1011 19:11:54.481992  8031 net.cpp:434] relu5 <- bn2
I1011 19:11:54.481994  8031 net.cpp:395] relu5 -> bn2 (in-place)
I1011 19:11:54.482270  8031 net.cpp:150] Setting up relu5
I1011 19:11:54.482280  8031 net.cpp:157] Top shape: 100 192 9 9 (1555200)
I1011 19:11:54.482281  8031 net.cpp:165] Memory required for data: 240999600
I1011 19:11:54.482283  8031 layer_factory.hpp:77] Creating layer drop4
I1011 19:11:54.482287  8031 net.cpp:100] Creating Layer drop4
I1011 19:11:54.482290  8031 net.cpp:434] drop4 <- bn2
I1011 19:11:54.482293  8031 net.cpp:408] drop4 -> drop4
I1011 19:11:54.482342  8031 net.cpp:150] Setting up drop4
I1011 19:11:54.482360  8031 net.cpp:157] Top shape: 100 192 9 9 (1555200)
I1011 19:11:54.482362  8031 net.cpp:165] Memory required for data: 247220400
I1011 19:11:54.482364  8031 layer_factory.hpp:77] Creating layer conv6
I1011 19:11:54.482385  8031 net.cpp:100] Creating Layer conv6
I1011 19:11:54.482388  8031 net.cpp:434] conv6 <- drop4
I1011 19:11:54.482405  8031 net.cpp:408] conv6 -> conv6
I1011 19:11:54.484899  8031 net.cpp:150] Setting up conv6
I1011 19:11:54.484907  8031 net.cpp:157] Top shape: 100 192 4 4 (307200)
I1011 19:11:54.484910  8031 net.cpp:165] Memory required for data: 248449200
I1011 19:11:54.484917  8031 layer_factory.hpp:77] Creating layer relu6
I1011 19:11:54.484922  8031 net.cpp:100] Creating Layer relu6
I1011 19:11:54.484925  8031 net.cpp:434] relu6 <- conv6
I1011 19:11:54.484928  8031 net.cpp:395] relu6 -> conv6 (in-place)
I1011 19:11:54.485199  8031 net.cpp:150] Setting up relu6
I1011 19:11:54.485208  8031 net.cpp:157] Top shape: 100 192 4 4 (307200)
I1011 19:11:54.485210  8031 net.cpp:165] Memory required for data: 249678000
I1011 19:11:54.485213  8031 layer_factory.hpp:77] Creating layer conv7
I1011 19:11:54.485220  8031 net.cpp:100] Creating Layer conv7
I1011 19:11:54.485224  8031 net.cpp:434] conv7 <- conv6
I1011 19:11:54.485227  8031 net.cpp:408] conv7 -> conv7
I1011 19:11:54.487889  8031 net.cpp:150] Setting up conv7
I1011 19:11:54.487915  8031 net.cpp:157] Top shape: 100 192 2 2 (76800)
I1011 19:11:54.487917  8031 net.cpp:165] Memory required for data: 249985200
I1011 19:11:54.487922  8031 layer_factory.hpp:77] Creating layer relu7
I1011 19:11:54.487927  8031 net.cpp:100] Creating Layer relu7
I1011 19:11:54.487929  8031 net.cpp:434] relu7 <- conv7
I1011 19:11:54.487934  8031 net.cpp:395] relu7 -> conv7 (in-place)
I1011 19:11:54.488107  8031 net.cpp:150] Setting up relu7
I1011 19:11:54.488113  8031 net.cpp:157] Top shape: 100 192 2 2 (76800)
I1011 19:11:54.488116  8031 net.cpp:165] Memory required for data: 250292400
I1011 19:11:54.488117  8031 layer_factory.hpp:77] Creating layer conv8
I1011 19:11:54.488123  8031 net.cpp:100] Creating Layer conv8
I1011 19:11:54.488126  8031 net.cpp:434] conv8 <- conv7
I1011 19:11:54.488131  8031 net.cpp:408] conv8 -> conv8
I1011 19:11:54.489137  8031 net.cpp:150] Setting up conv8
I1011 19:11:54.489146  8031 net.cpp:157] Top shape: 100 192 2 2 (76800)
I1011 19:11:54.489148  8031 net.cpp:165] Memory required for data: 250599600
I1011 19:11:54.489153  8031 layer_factory.hpp:77] Creating layer relu8
I1011 19:11:54.489156  8031 net.cpp:100] Creating Layer relu8
I1011 19:11:54.489173  8031 net.cpp:434] relu8 <- conv8
I1011 19:11:54.489177  8031 net.cpp:395] relu8 -> conv8 (in-place)
I1011 19:11:54.489436  8031 net.cpp:150] Setting up relu8
I1011 19:11:54.489445  8031 net.cpp:157] Top shape: 100 192 2 2 (76800)
I1011 19:11:54.489447  8031 net.cpp:165] Memory required for data: 250906800
I1011 19:11:54.489450  8031 layer_factory.hpp:77] Creating layer conv9
I1011 19:11:54.489456  8031 net.cpp:100] Creating Layer conv9
I1011 19:11:54.489459  8031 net.cpp:434] conv9 <- conv8
I1011 19:11:54.489462  8031 net.cpp:408] conv9 -> conv9
I1011 19:11:54.490228  8031 net.cpp:150] Setting up conv9
I1011 19:11:54.490238  8031 net.cpp:157] Top shape: 100 10 2 2 (4000)
I1011 19:11:54.490241  8031 net.cpp:165] Memory required for data: 250922800
I1011 19:11:54.490245  8031 layer_factory.hpp:77] Creating layer relu9
I1011 19:11:54.490249  8031 net.cpp:100] Creating Layer relu9
I1011 19:11:54.490252  8031 net.cpp:434] relu9 <- conv9
I1011 19:11:54.490255  8031 net.cpp:395] relu9 -> conv9 (in-place)
I1011 19:11:54.490483  8031 net.cpp:150] Setting up relu9
I1011 19:11:54.490491  8031 net.cpp:157] Top shape: 100 10 2 2 (4000)
I1011 19:11:54.490494  8031 net.cpp:165] Memory required for data: 250938800
I1011 19:11:54.490496  8031 layer_factory.hpp:77] Creating layer pool
I1011 19:11:54.490501  8031 net.cpp:100] Creating Layer pool
I1011 19:11:54.490504  8031 net.cpp:434] pool <- conv9
I1011 19:11:54.490507  8031 net.cpp:408] pool -> pool
I1011 19:11:54.490663  8031 net.cpp:150] Setting up pool
I1011 19:11:54.490669  8031 net.cpp:157] Top shape: 100 10 1 1 (1000)
I1011 19:11:54.490670  8031 net.cpp:165] Memory required for data: 250942800
I1011 19:11:54.490674  8031 layer_factory.hpp:77] Creating layer flatten
I1011 19:11:54.490676  8031 net.cpp:100] Creating Layer flatten
I1011 19:11:54.490679  8031 net.cpp:434] flatten <- pool
I1011 19:11:54.490682  8031 net.cpp:408] flatten -> flatten
I1011 19:11:54.490703  8031 net.cpp:150] Setting up flatten
I1011 19:11:54.490708  8031 net.cpp:157] Top shape: 100 10 (1000)
I1011 19:11:54.490710  8031 net.cpp:165] Memory required for data: 250946800
I1011 19:11:54.490712  8031 layer_factory.hpp:77] Creating layer score
I1011 19:11:54.490720  8031 net.cpp:100] Creating Layer score
I1011 19:11:54.490721  8031 net.cpp:434] score <- flatten
I1011 19:11:54.490725  8031 net.cpp:408] score -> score
I1011 19:11:54.490825  8031 net.cpp:150] Setting up score
I1011 19:11:54.490830  8031 net.cpp:157] Top shape: 100 10 (1000)
I1011 19:11:54.490833  8031 net.cpp:165] Memory required for data: 250950800
I1011 19:11:54.490836  8031 layer_factory.hpp:77] Creating layer score_score_0_split
I1011 19:11:54.490840  8031 net.cpp:100] Creating Layer score_score_0_split
I1011 19:11:54.490842  8031 net.cpp:434] score_score_0_split <- score
I1011 19:11:54.490845  8031 net.cpp:408] score_score_0_split -> score_score_0_split_0
I1011 19:11:54.490850  8031 net.cpp:408] score_score_0_split -> score_score_0_split_1
I1011 19:11:54.490881  8031 net.cpp:150] Setting up score_score_0_split
I1011 19:11:54.490885  8031 net.cpp:157] Top shape: 100 10 (1000)
I1011 19:11:54.490888  8031 net.cpp:157] Top shape: 100 10 (1000)
I1011 19:11:54.490890  8031 net.cpp:165] Memory required for data: 250958800
I1011 19:11:54.490891  8031 layer_factory.hpp:77] Creating layer accuracy
I1011 19:11:54.490896  8031 net.cpp:100] Creating Layer accuracy
I1011 19:11:54.490898  8031 net.cpp:434] accuracy <- score_score_0_split_0
I1011 19:11:54.490901  8031 net.cpp:434] accuracy <- label_data_1_split_0
I1011 19:11:54.490905  8031 net.cpp:408] accuracy -> accuracy
…
