…
type: "Nesterov"
I1011 18:45:14.210219  7822 solver.cpp:81] Creating training net from train_net file: /home/adam/Honours/Honours-Project/cifar-10_allcnn/leakyrelu/allcnn_leakyrelu_train.prototxt
I1011 18:45:14.210618  7822 net.cpp:58] Initializing net from parameters: 
state {
  phase: TRAIN
  level: 0
  stage: ""
}
layer {
  name: "data"
  type: "Data"
  top: "data"
  top: "label"
  transform_param {
    mean_file: "mean.binaryproto"
  }
  data_param {
    source: "../../../data/cifar-10/cifar10_train_lmdb"
    batch_size: 64
    backend: LMDB
  }
}
layer {
  name: "conv1"
  type: "Convolution"
  bottom: "data"
  top: "conv1"
  convolution_param {
    num_output: 96
    kernel_size: 3
    weight_filler {
      type: "xavier"
    }
  }
}
layer {
  name: "relu1"
  type: "ReLU"
  bottom: "conv1"
  top: "conv1"
  relu_param {
    negative_slope: 0.01
  }
}
layer {
  name: "conv2"
  type: "Convolution"
  bottom: "conv1"
  top: "conv2"
  convolution_param {
    num_output: 96
    kernel_size: 3
    weight_filler {
      type: "xavier"
    }
  }
}
layer {
  name: "bn1"
  type: "BatchNorm"
  bottom: "conv2"
  top: "bn1"
}
layer {
  name: "relu2"
  type: "ReLU"
  bottom: "bn1"
  top: "bn1"
  relu_param {
    negative_slope: 0.01
  }
}
layer {
  name: "drop1"
  type: "Dropout"
  bottom: "bn1"
  top: "drop1"
  dropout_param {
    dropout_ratio: 0.5
  }
}
layer {
  name: "conv3"
  type: "Convolution"
  bottom: "drop1"
  top: "conv3"
  convolution_param {
    num_output: 96
    kernel_size: 3
    stride: 2
    weight_filler {
      type: "xavier"
    }
  }
}
layer {
  name: "relu3"
  type: "ReLU"
  bottom: "conv3"
  top: "conv3"
  relu_param {
    negative_slope: 0.01
  }
}
layer {
  name: "conv4"
  type: "Convolution"
  bottom: "conv3"
  top: "conv4"
  convolution_param {
    num_output: 192
    kernel_size: 3
    weight_filler {
      type: "xavier"
    }
  }
}
layer {
  name: "relu4"
  type: "ReLU"
  bottom: "conv4"
  top: "conv4"
  relu_param {
    negative_slope: 0.01
  }
}
layer {
  name: "conv5"
  type: "Convolution"
  bottom: "conv4"
  top: "conv5"
  convolution_param {
    num_output: 192
    kernel_size: 3
    weight_filler {
      type: "xavier"
    }
  }
}
layer {
  name: "bn2"
  type: "BatchNorm"
  bottom: "conv5"
  top: "bn2"
}
layer {
  name: "relu5"
  type: "ReLU"
  bottom: "bn2"
  top: "bn2"
  relu_param {
    negative_slope: 0.01
  }
}
layer {
  name: "drop4"
  type: "Dropout"
  bottom: "bn2"
  top: "drop4"
  dropout_param {
    dropout_ratio: 0.5
  }
}
layer {
  name: "conv6"
  type: "Convolution"
  bottom: "drop4"
  top: "conv6"
  convolution_param {
    num_output: 192
    kernel_size: 3
    stride: 2
    weight_filler {
      type: "xavier"
    }
  }
}
layer {
  name: "relu6"
  type: "ReLU"
  bottom: "conv6"
  top: "conv6"
  relu_param {
    negative_slope: 0.01
  }
}
layer {
  name: "conv7"
  type: "Convolution"
  bottom: "conv6"
  top: "conv7"
  convolution_param {
    num_output: 192
    kernel_size: 3
    weight_filler {
      type: "xavier"
    }
  }
}
layer {
  name: "relu7"
  type: "ReLU"
  bottom: "conv7"
  top: "conv7"
  relu_param {
    negative_slope: 0.01
  }
}
layer {
  name: "conv8"
  type: "Convolution"
  bottom: "conv7"
  top: "conv8"
  convolution_param {
    num_output: 192
    kernel_size: 1
    weight_filler {
      type: "xavier"
    }
  }
}
layer {
  name: "relu8"
  type: "ReLU"
  bottom: "conv8"
  top: "conv8"
  relu_param {
    negative_slope: 0.01
  }
}
layer {
  name: "conv9"
  type: "Convolution"
  bottom: "conv8"
  top: "conv9"
  convolution_param {
    num_output: 10
    kernel_size: 1
    weight_filler {
      type: "xavier"
    }
  }
}
layer {
  name: "relu9"
  type: "ReLU"
  bottom: "conv9"
  top: "conv9"
  relu_param {
    negative_slope: 0.01
  }
}
layer {
  name: "pool"
  type: "Pooling"
  bottom: "conv9"
  top: "pool"
  pooling_param {
    pool: AVE
    global_pooling: true
  }
}
layer {
  name: "flatten"
  type: "Flatten"
  bottom: "pool"
  top: "flatten"
}
layer {
  name: "score"
  type: "InnerProduct"
  bottom: "flatten"
  top: "score"
  inner_product_param {
    num_output: 10
    weight_filler {
      type: "gaussian"
    }
  }
}
layer {
  name: "accuracy"
  type: "Accuracy"
  bottom: "score"
  bottom: "label"
  top: "accuracy"
}
layer {
  name: "loss"
  type: "SoftmaxWithLoss"
  bottom: "score"
  bottom: "label"
  top: "loss"
}
I1011 18:45:14.210772  7822 layer_factory.hpp:77] Creating layer data
I1011 18:45:14.211201  7822 net.cpp:100] Creating Layer data
I1011 18:45:14.211210  7822 net.cpp:408] data -> data
I1011 18:45:14.211247  7822 net.cpp:408] data -> label
I1011 18:45:14.211258  7822 data_transformer.cpp:25] Loading mean file from: mean.binaryproto
I1011 18:45:14.211917  7828 db_lmdb.cpp:35] Opened lmdb ../../../data/cifar-10/cifar10_train_lmdb
I1011 18:45:14.218319  7822 data_layer.cpp:41] output data size: 64,3,32,32
I1011 18:45:14.219964  7822 net.cpp:150] Setting up data
I1011 18:45:14.219997  7822 net.cpp:157] Top shape: 64 3 32 32 (196608)
I1011 18:45:14.220002  7822 net.cpp:157] Top shape: 64 (64)
I1011 18:45:14.220005  7822 net.cpp:165] Memory required for data: 786688
I1011 18:45:14.220012  7822 layer_factory.hpp:77] Creating layer label_data_1_split
I1011 18:45:14.220036  7822 net.cpp:100] Creating Layer label_data_1_split
I1011 18:45:14.220041  7822 net.cpp:434] label_data_1_split <- label
I1011 18:45:14.220064  7822 net.cpp:408] label_data_1_split -> label_data_1_split_0
I1011 18:45:14.220085  7822 net.cpp:408] label_data_1_split -> label_data_1_split_1
I1011 18:45:14.220125  7822 net.cpp:150] Setting up label_data_1_split
I1011 18:45:14.220130  7822 net.cpp:157] Top shape: 64 (64)
I1011 18:45:14.220134  7822 net.cpp:157] Top shape: 64 (64)
I1011 18:45:14.220134  7822 net.cpp:165] Memory required for data: 787200
I1011 18:45:14.220137  7822 layer_factory.hpp:77] Creating layer conv1
I1011 18:45:14.220149  7822 net.cpp:100] Creating Layer conv1
I1011 18:45:14.220151  7822 net.cpp:434] conv1 <- data
I1011 18:45:14.220156  7822 net.cpp:408] conv1 -> conv1
I1011 18:45:14.358345  7822 net.cpp:150] Setting up conv1
I1011 18:45:14.358368  7822 net.cpp:157] Top shape: 64 96 30 30 (5529600)
I1011 18:45:14.358371  7822 net.cpp:165] Memory required for data: 22905600
I1011 18:45:14.358388  7822 layer_factory.hpp:77] Creating layer relu1
I1011 18:45:14.358397  7822 net.cpp:100] Creating Layer relu1
I1011 18:45:14.358400  7822 net.cpp:434] relu1 <- conv1
I1011 18:45:14.358404  7822 net.cpp:395] relu1 -> conv1 (in-place)
I1011 18:45:14.358608  7822 net.cpp:150] Setting up relu1
I1011 18:45:14.358614  7822 net.cpp:157] Top shape: 64 96 30 30 (5529600)
I1011 18:45:14.358616  7822 net.cpp:165] Memory required for data: 45024000
I1011 18:45:14.358618  7822 layer_factory.hpp:77] Creating layer conv2
I1011 18:45:14.358628  7822 net.cpp:100] Creating Layer conv2
I1011 18:45:14.358629  7822 net.cpp:434] conv2 <- conv1
I1011 18:45:14.358633  7822 net.cpp:408] conv2 -> conv2
I1011 18:45:14.360008  7822 net.cpp:150] Setting up conv2
I1011 18:45:14.360018  7822 net.cpp:157] Top shape: 64 96 28 28 (4816896)
I1011 18:45:14.360020  7822 net.cpp:165] Memory required for data: 64291584
I1011 18:45:14.360028  7822 layer_factory.hpp:77] Creating layer bn1
I1011 18:45:14.360031  7822 net.cpp:100] Creating Layer bn1
I1011 18:45:14.360034  7822 net.cpp:434] bn1 <- conv2
I1011 18:45:14.360038  7822 net.cpp:408] bn1 -> bn1
I1011 18:45:14.360219  7822 net.cpp:150] Setting up bn1
I1011 18:45:14.360224  7822 net.cpp:157] Top shape: 64 96 28 28 (4816896)
I1011 18:45:14.360225  7822 net.cpp:165] Memory required for data: 83559168
I1011 18:45:14.360242  7822 layer_factory.hpp:77] Creating layer relu2
I1011 18:45:14.360247  7822 net.cpp:100] Creating Layer relu2
I1011 18:45:14.360249  7822 net.cpp:434] relu2 <- bn1
I1011 18:45:14.360252  7822 net.cpp:395] relu2 -> bn1 (in-place)
I1011 18:45:14.360419  7822 net.cpp:150] Setting up relu2
I1011 18:45:14.360424  7822 net.cpp:157] Top shape: 64 96 28 28 (4816896)
I1011 18:45:14.360426  7822 net.cpp:165] Memory required for data: 102826752
I1011 18:45:14.360429  7822 layer_factory.hpp:77] Creating layer drop1
I1011 18:45:14.360432  7822 net.cpp:100] Creating Layer drop1
I1011 18:45:14.360435  7822 net.cpp:434] drop1 <- bn1
I1011 18:45:14.360437  7822 net.cpp:408] drop1 -> drop1
I1011 18:45:14.360479  7822 net.cpp:150] Setting up drop1
I1011 18:45:14.360484  7822 net.cpp:157] Top shape: 64 96 28 28 (4816896)
I1011 18:45:14.360486  7822 net.cpp:165] Memory required for data: 122094336
I1011 18:45:14.360488  7822 layer_factory.hpp:77] Creating layer conv3
I1011 18:45:14.360508  7822 net.cpp:100] Creating Layer conv3
I1011 18:45:14.360510  7822 net.cpp:434] conv3 <- drop1
I1011 18:45:14.360514  7822 net.cpp:408] conv3 -> conv3
I1011 18:45:14.361716  7822 net.cpp:150] Setting up conv3
I1011 18:45:14.361726  7822 net.cpp:157] Top shape: 64 96 13 13 (1038336)
I1011 18:45:14.361728  7822 net.cpp:165] Memory required for data: 126247680
I1011 18:45:14.361735  7822 layer_factory.hpp:77] Creating layer relu3
I1011 18:45:14.361739  7822 net.cpp:100] Creating Layer relu3
I1011 18:45:14.361742  7822 net.cpp:434] relu3 <- conv3
I1011 18:45:14.361744  7822 net.cpp:395] relu3 -> conv3 (in-place)
I1011 18:45:14.361991  7822 net.cpp:150] Setting up relu3
I1011 18:45:14.361999  7822 net.cpp:157] Top shape: 64 96 13 13 (1038336)
I1011 18:45:14.362001  7822 net.cpp:165] Memory required for data: 130401024
I1011 18:45:14.362004  7822 layer_factory.hpp:77] Creating layer conv4
I1011 18:45:14.362010  7822 net.cpp:100] Creating Layer conv4
I1011 18:45:14.362011  7822 net.cpp:434] conv4 <- conv3
I1011 18:45:14.362015  7822 net.cpp:408] conv4 -> conv4
I1011 18:45:14.363803  7822 net.cpp:150] Setting up conv4
I1011 18:45:14.363813  7822 net.cpp:157] Top shape: 64 192 11 11 (1486848)
I1011 18:45:14.363816  7822 net.cpp:165] Memory required for data: 136348416
I1011 18:45:14.363821  7822 layer_factory.hpp:77] Creating layer relu4
I1011 18:45:14.363824  7822 net.cpp:100] Creating Layer relu4
I1011 18:45:14.363826  7822 net.cpp:434] relu4 <- conv4
I1011 18:45:14.363831  7822 net.cpp:395] relu4 -> conv4 (in-place)
I1011 18:45:14.363996  7822 net.cpp:150] Setting up relu4
I1011 18:45:14.364001  7822 net.cpp:157] Top shape: 64 192 11 11 (1486848)
I1011 18:45:14.364004  7822 net.cpp:165] Memory required for data: 142295808
I1011 18:45:14.364006  7822 layer_factory.hpp:77] Creating layer conv5
I1011 18:45:14.364012  7822 net.cpp:100] Creating Layer conv5
I1011 18:45:14.364013  7822 net.cpp:434] conv5 <- conv4
I1011 18:45:14.364017  7822 net.cpp:408] conv5 -> conv5
I1011 18:45:14.366497  7822 net.cpp:150] Setting up conv5
I1011 18:45:14.366506  7822 net.cpp:157] Top shape: 64 192 9 9 (995328)
I1011 18:45:14.366509  7822 net.cpp:165] Memory required for data: 146277120
I1011 18:45:14.366513  7822 layer_factory.hpp:77] Creating layer bn2
I1011 18:45:14.366518  7822 net.cpp:100] Creating Layer bn2
I1011 18:45:14.366520  7822 net.cpp:434] bn2 <- conv5
I1011 18:45:14.366523  7822 net.cpp:408] bn2 -> bn2
I1011 18:45:14.366710  7822 net.cpp:150] Setting up bn2
I1011 18:45:14.366715  7822 net.cpp:157] Top shape: 64 192 9 9 (995328)
I1011 18:45:14.366717  7822 net.cpp:165] Memory required for data: 150258432
I1011 18:45:14.366722  7822 layer_factory.hpp:77] Creating layer relu5
I1011 18:45:14.366726  7822 net.cpp:100] Creating Layer relu5
I1011 18:45:14.366729  7822 net.cpp:434] relu5 <- bn2
I1011 18:45:14.366730  7822 net.cpp:395] relu5 -> bn2 (in-place)
I1011 18:45:14.366896  7822 net.cpp:150] Setting up relu5
I1011 18:45:14.366902  7822 net.cpp:157] Top shape: 64 192 9 9 (995328)
I1011 18:45:14.366904  7822 net.cpp:165] Memory required for data: 154239744
I1011 18:45:14.366914  7822 layer_factory.hpp:77] Creating layer drop4
I1011 18:45:14.366919  7822 net.cpp:100] Creating Layer drop4
I1011 18:45:14.366921  7822 net.cpp:434] drop4 <- bn2
I1011 18:45:14.366925  7822 net.cpp:408] drop4 -> drop4
I1011 18:45:14.366966  7822 net.cpp:150] Setting up drop4
I1011 18:45:14.366986  7822 net.cpp:157] Top shape: 64 192 9 9 (995328)
I1011 18:45:14.366987  7822 net.cpp:165] Memory required for data: 158221056
I1011 18:45:14.366989  7822 layer_factory.hpp:77] Creating layer conv6
I1011 18:45:14.367008  7822 net.cpp:100] Creating Layer conv6
I1011 18:45:14.367010  7822 net.cpp:434] conv6 <- drop4
I1011 18:45:14.367013  7822 net.cpp:408] conv6 -> conv6
I1011 18:45:14.369629  7822 net.cpp:150] Setting up conv6
I1011 18:45:14.369659  7822 net.cpp:157] Top shape: 64 192 4 4 (196608)
I1011 18:45:14.369663  7822 net.cpp:165] Memory required for data: 159007488
I1011 18:45:14.369671  7822 layer_factory.hpp:77] Creating layer relu6
I1011 18:45:14.369691  7822 net.cpp:100] Creating Layer relu6
I1011 18:45:14.369694  7822 net.cpp:434] relu6 <- conv6
I1011 18:45:14.369699  7822 net.cpp:395] relu6 -> conv6 (in-place)
I1011 18:45:14.369940  7822 net.cpp:150] Setting up relu6
I1011 18:45:14.369963  7822 net.cpp:157] Top shape: 64 192 4 4 (196608)
I1011 18:45:14.369966  7822 net.cpp:165] Memory required for data: 159793920
I1011 18:45:14.369968  7822 layer_factory.hpp:77] Creating layer conv7
I1011 18:45:14.369977  7822 net.cpp:100] Creating Layer conv7
I1011 18:45:14.369979  7822 net.cpp:434] conv7 <- conv6
I1011 18:45:14.369983  7822 net.cpp:408] conv7 -> conv7
I1011 18:45:14.373713  7822 net.cpp:150] Setting up conv7
I1011 18:45:14.373750  7822 net.cpp:157] Top shape: 64 192 2 2 (49152)
I1011 18:45:14.373754  7822 net.cpp:165] Memory required for data: 159990528
I1011 18:45:14.373760  7822 layer_factory.hpp:77] Creating layer relu7
I1011 18:45:14.373767  7822 net.cpp:100] Creating Layer relu7
I1011 18:45:14.373770  7822 net.cpp:434] relu7 <- conv7
I1011 18:45:14.373775  7822 net.cpp:395] relu7 -> conv7 (in-place)
I1011 18:45:14.374147  7822 net.cpp:150] Setting up relu7
I1011 18:45:14.374167  7822 net.cpp:157] Top shape: 64 192 2 2 (49152)
I1011 18:45:14.374169  7822 net.cpp:165] Memory required for data: 160187136
I1011 18:45:14.374186  7822 layer_factory.hpp:77] Creating layer conv8
I1011 18:45:14.374207  7822 net.cpp:100] Creating Layer conv8
I1011 18:45:14.374208  7822 net.cpp:434] conv8 <- conv7
I1011 18:45:14.374213  7822 net.cpp:408] conv8 -> conv8
I1011 18:45:14.375553  7822 net.cpp:150] Setting up conv8
I1011 18:45:14.375579  7822 net.cpp:157] Top shape: 64 192 2 2 (49152)
I1011 18:45:14.375581  7822 net.cpp:165] Memory required for data: 160383744
I1011 18:45:14.375586  7822 layer_factory.hpp:77] Creating layer relu8
I1011 18:45:14.375591  7822 net.cpp:100] Creating Layer relu8
I1011 18:45:14.375593  7822 net.cpp:434] relu8 <- conv8
I1011 18:45:14.375598  7822 net.cpp:395] relu8 -> conv8 (in-place)
I1011 18:45:14.375780  7822 net.cpp:150] Setting up relu8
I1011 18:45:14.375787  7822 net.cpp:157] Top shape: 64 192 2 2 (49152)
I1011 18:45:14.375803  7822 net.cpp:165] Memory required for data: 160580352
I1011 18:45:14.375805  7822 layer_factory.hpp:77] Creating layer conv9
I1011 18:45:14.375813  7822 net.cpp:100] Creating Layer conv9
I1011 18:45:14.375814  7822 net.cpp:434] conv9 <- conv8
I1011 18:45:14.375818  7822 net.cpp:408] conv9 -> conv9
I1011 18:45:14.376675  7822 net.cpp:150] Setting up conv9
I1011 18:45:14.376685  7822 net.cpp:157] Top shape: 64 10 2 2 (2560)
I1011 18:45:14.376688  7822 net.cpp:165] Memory required for data: 160590592
I1011 18:45:14.376693  7822 layer_factory.hpp:77] Creating layer relu9
I1011 18:45:14.376696  7822 net.cpp:100] Creating Layer relu9
I1011 18:45:14.376698  7822 net.cpp:434] relu9 <- conv9
I1011 18:45:14.376703  7822 net.cpp:395] relu9 -> conv9 (in-place)
I1011 18:45:14.376957  7822 net.cpp:150] Setting up relu9
I1011 18:45:14.376966  7822 net.cpp:157] Top shape: 64 10 2 2 (2560)
I1011 18:45:14.376968  7822 net.cpp:165] Memory required for data: 160600832
I1011 18:45:14.376981  7822 layer_factory.hpp:77] Creating layer pool
I1011 18:45:14.376986  7822 net.cpp:100] Creating Layer pool
I1011 18:45:14.376988  7822 net.cpp:434] pool <- conv9
I1011 18:45:14.376992  7822 net.cpp:408] pool -> pool
I1011 18:45:14.377188  7822 net.cpp:150] Setting up pool
I1011 18:45:14.377194  7822 net.cpp:157] Top shape: 64 10 1 1 (640)
I1011 18:45:14.377197  7822 net.cpp:165] Memory required for data: 160603392
I1011 18:45:14.377198  7822 layer_factory.hpp:77] Creating layer flatten
I1011 18:45:14.377203  7822 net.cpp:100] Creating Layer flatten
I1011 18:45:14.377205  7822 net.cpp:434] flatten <- pool
I1011 18:45:14.377208  7822 net.cpp:408] flatten -> flatten
I1011 18:45:14.377228  7822 net.cpp:150] Setting up flatten
I1011 18:45:14.377244  7822 net.cpp:157] Top shape: 64 10 (640)
I1011 18:45:14.377245  7822 net.cpp:165] Memory required for data: 160605952
I1011 18:45:14.377249  7822 layer_factory.hpp:77] Creating layer score
I1011 18:45:14.377252  7822 net.cpp:100] Creating Layer score
I1011 18:45:14.377254  7822 net.cpp:434] score <- flatten
I1011 18:45:14.377271  7822 net.cpp:408] score -> score
I1011 18:45:14.377375  7822 net.cpp:150] Setting up score
I1011 18:45:14.377380  7822 net.cpp:157] Top shape: 64 10 (640)
I1011 18:45:14.377382  7822 net.cpp:165] Memory required for data: 160608512
I1011 18:45:14.377387  7822 layer_factory.hpp:77] Creating layer score_score_0_split
I1011 18:45:14.377390  7822 net.cpp:100] Creating Layer score_score_0_split
I1011 18:45:14.377393  7822 net.cpp:434] score_score_0_split <- score
I1011 18:45:14.377416  7822 net.cpp:408] score_score_0_split -> score_score_0_split_0
I1011 18:45:14.377421  7822 net.cpp:408] score_score_0_split -> score_score_0_split_1
I1011 18:45:14.377463  7822 net.cpp:150] Setting up score_score_0_split
I1011 18:45:14.377480  7822 net.cpp:157] Top shape: 64 10 (640)
I1011 18:45:14.377483  7822 net.cpp:157] Top shape: 64 10 (640)
I1011 18:45:14.377485  7822 net.cpp:165] Memory required for data: 160613632
I1011 18:45:14.377486  7822 layer_factory.hpp:77] Creating layer accuracy
I1011 18:45:14.377506  7822 net.cpp:100] Creating Layer accuracy
I1011 18:45:14.377508  7822 net.cpp:434] accuracy <- score_score_0_split_0
I1011 18:45:14.377511  7822 net.cpp:434] accuracy <- label_data_1_split_0
I1011 18:45:14.377528  7822 net.cpp:408] accuracy -> accuracy
…
I1011 18:45:14.378093  7822 net.cpp:283] Network initialization done.
I1011 18:45:14.378339  7822 solver.cpp:181] Creating test net (#0) specified by test_net file: /home/adam/Honours/Honours-Project/cifar-10_allcnn/leakyrelu/allcnn_leakyrelu_test.prototxt
I1011 18:45:14.378480  7822 net.cpp:58] Initializing net from parameters: 
state {
  phase: TEST
}
layer {
  name: "data"
  type: "Data"
  top: "data"
  top: "label"
  transform_param {
    mean_file: "mean.binaryproto"
  }
  data_param {
    source: "../../../data/cifar-10/cifar10_test_lmdb"
    batch_size: 100
    backend: LMDB
  }
}
layer {
  name: "conv1"
  type: "Convolution"
  bottom: "data"
  top: "conv1"
  convolution_param {
    num_output: 96
    kernel_size: 3
    weight_filler {
      type: "xavier"
    }
  }
}
layer {
  name: "relu1"
  type: "ReLU"
  bottom: "conv1"
  top: "conv1"
  relu_param {
    negative_slope: 0.01
  }
}
layer {
  name: "conv2"
  type: "Convolution"
  bottom: "conv1"
  top: "conv2"
  convolution_param {
    num_output: 96
    kernel_size: 3
    weight_filler {
      type: "xavier"
    }
  }
}
layer {
  name: "bn1"
  type: "BatchNorm"
  bottom: "conv2"
  top: "bn1"
}
layer {
  name: "relu2"
  type: "ReLU"
  bottom: "bn1"
  top: "bn1"
  relu_param {
    negative_slope: 0.01
  }
}
layer {
  name: "drop1"
  type: "Dropout"
  bottom: "bn1"
  top: "drop1"
  dropout_param {
    dropout_ratio: 0.5
  }
}
layer {
  name: "conv3"
  type: "Convolution"
  bottom: "drop1"
  top: "conv3"
  convolution_param {
    num_output: 96
    kernel_size: 3
    stride: 2
    weight_filler {
      type: "xavier"
    }
  }
}
layer {
  name: "relu3"
  type: "ReLU"
  bottom: "conv3"
  top: "conv3"
  relu_param {
    negative_slope: 0.01
  }
}
layer {
  name: "conv4"
  type: "Convolution"
  bottom: "conv3"
  top: "conv4"
  convolution_param {
    num_output: 192
    kernel_size: 3
    weight_filler {
      type: "xavier"
    }
  }
}
layer {
  name: "relu4"
  type: "ReLU"
  bottom: "conv4"
  top: "conv4"
  relu_param {
    negative_slope: 0.01
  }
}
layer {
  name: "conv5"
  type: "Convolution"
  bottom: "conv4"
  top: "conv5"
  convolution_param {
    num_output: 192
    kernel_size: 3
    weight_filler {
      type: "xavier"
    }
  }
}
layer {
  name: "bn2"
  type: "BatchNorm"
  bottom: "conv5"
  top: "bn2"
}
layer {
  name: "relu5"
  type: "ReLU"
  bottom: "bn2"
  top: "bn2"
  relu_param {
    negative_slope: 0.01
  }
}
layer {
  name: "drop4"
  type: "Dropout"
  bottom: "bn2"
  top: "drop4"
  dropout_param {
    dropout_ratio: 0.5
  }
}
layer {
  name: "conv6"
  type: "Convolution"
  bottom: "drop4"
  top: "conv6"
  convolution_param {
    num_output: 192
    kernel_size: 3
    stride: 2
    weight_filler {
      type: "xavier"
    }
  }
}
layer {
  name: "relu6"
  type: "ReLU"
  bottom: "conv6"
  top: "conv6"
  relu_param {
    negative_slope: 0.01
  }
}
layer {
  name: "conv7"
  type: "Convolution"
  bottom: "conv6"
  top: "conv7"
  convolution_param {
    num_output: 192
    kernel_size: 3
    weight_filler {
      type: "xavier"
    }
  }
}
layer {
  name: "relu7"
  type: "ReLU"
  bottom: "conv7"
  top: "conv7"
  relu_param {
    negative_slope: 0.01
  }
}
layer {
  name: "conv8"
  type: "Convolution"
  bottom: "conv7"
  top: "conv8"
  convolution_param {
    num_output: 192
    kernel_size: 1
    weight_filler {
      type: "xavier"
    }
  }
}
layer {
  name: "relu8"
  type: "ReLU"
  bottom: "conv8"
  top: "conv8"
  relu_param {
    negative_slope: 0.01
  }
}
layer {
  name: "conv9"
  type: "Convolution"
  bottom: "conv8"
  top: "conv9"
  convolution_param {
    num_output: 10
    kernel_size: 1
    weight_filler {
      type: "xavier"
    }
  }
}
layer {
  name: "relu9"
  type: "ReLU"
  bottom: "conv9"
  top: "conv9"
  relu_param {
    negative_slope: 0.01
  }
}
layer {
  name: "pool"
  type: "Pooling"
  bottom: "conv9"
  top: "pool"
  pooling_param {
    pool: AVE
    global_pooling: true
  }
}
layer {
  name: "flatten"
  type: "Flatten"
  bottom: "pool"
  top: "flatten"
}
layer {
  name: "score"
  type: "InnerProduct"
  bottom: "flatten"
  top: "score"
  inner_product_param {
    num_output: 10
    weight_filler {
      type: "gaussian"
    }
  }
}
layer {
  name: "accuracy"
  type: "Accuracy"
  bottom: "score"
  bottom: "label"
  top: "accuracy"
}
layer {
  name: "loss"
  type: "SoftmaxWithLoss"
  bottom: "score"
  bottom: "label"
  top: "loss"
}
I1011 18:45:14.378587  7822 layer_factory.hpp:77] Creating layer data
I1011 18:45:14.378670  7822 net.cpp:100] Creating Layer data
I1011 18:45:14.378675  7822 net.cpp:408] data -> data
I1011 18:45:14.378681  7822 net.cpp:408] data -> label
I1011 18:45:14.378687  7822 data_transformer.cpp:25] Loading mean file from: mean.binaryproto
I1011 18:45:14.379364  7830 db_lmdb.cpp:35] Opened lmdb ../../../data/cifar-10/cifar10_test_lmdb
I1011 18:45:14.379499  7822 data_layer.cpp:41] output data size: 100,3,32,32
I1011 18:45:14.381355  7822 net.cpp:150] Setting up data
I1011 18:45:14.381424  7822 net.cpp:157] Top shape: 100 3 32 32 (307200)
I1011 18:45:14.381429  7822 net.cpp:157] Top shape: 100 (100)
I1011 18:45:14.381431  7822 net.cpp:165] Memory required for data: 1229200
I1011 18:45:14.381448  7822 layer_factory.hpp:77] Creating layer label_data_1_split
I1011 18:45:14.381469  7822 net.cpp:100] Creating Layer label_data_1_split
I1011 18:45:14.381474  7822 net.cpp:434] label_data_1_split <- label
I1011 18:45:14.381510  7822 net.cpp:408] label_data_1_split -> label_data_1_split_0
I1011 18:45:14.381520  7822 net.cpp:408] label_data_1_split -> label_data_1_split_1
I1011 18:45:14.381626  7822 net.cpp:150] Setting up label_data_1_split
I1011 18:45:14.381631  7822 net.cpp:157] Top shape: 100 (100)
I1011 18:45:14.381654  7822 net.cpp:157] Top shape: 100 (100)
I1011 18:45:14.381655  7822 net.cpp:165] Memory required for data: 1230000
I1011 18:45:14.381659  7822 layer_factory.hpp:77] Creating layer conv1
I1011 18:45:14.381666  7822 net.cpp:100] Creating Layer conv1
I1011 18:45:14.381669  7822 net.cpp:434] conv1 <- data
I1011 18:45:14.381686  7822 net.cpp:408] conv1 -> conv1
I1011 18:45:14.382802  7822 net.cpp:150] Setting up conv1
I1011 18:45:14.382817  7822 net.cpp:157] Top shape: 100 96 30 30 (8640000)
I1011 18:45:14.382833  7822 net.cpp:165] Memory required for data: 35790000
I1011 18:45:14.382841  7822 layer_factory.hpp:77] Creating layer relu1
I1011 18:45:14.382859  7822 net.cpp:100] Creating Layer relu1
I1011 18:45:14.382863  7822 net.cpp:434] relu1 <- conv1
I1011 18:45:14.382865  7822 net.cpp:395] relu1 -> conv1 (in-place)
I1011 18:45:14.383152  7822 net.cpp:150] Setting up relu1
I1011 18:45:14.383172  7822 net.cpp:157] Top shape: 100 96 30 30 (8640000)
I1011 18:45:14.383174  7822 net.cpp:165] Memory required for data: 70350000
I1011 18:45:14.383177  7822 layer_factory.hpp:77] Creating layer conv2
I1011 18:45:14.383198  7822 net.cpp:100] Creating Layer conv2
I1011 18:45:14.383200  7822 net.cpp:434] conv2 <- conv1
I1011 18:45:14.383208  7822 net.cpp:408] conv2 -> conv2
I1011 18:45:14.384593  7822 net.cpp:150] Setting up conv2
I1011 18:45:14.384603  7822 net.cpp:157] Top shape: 100 96 28 28 (7526400)
I1011 18:45:14.384606  7822 net.cpp:165] Memory required for data: 100455600
I1011 18:45:14.384614  7822 layer_factory.hpp:77] Creating layer bn1
I1011 18:45:14.384619  7822 net.cpp:100] Creating Layer bn1
I1011 18:45:14.384623  7822 net.cpp:434] bn1 <- conv2
I1011 18:45:14.384627  7822 net.cpp:408] bn1 -> bn1
I1011 18:45:14.384801  7822 net.cpp:150] Setting up bn1
I1011 18:45:14.384805  7822 net.cpp:157] Top shape: 100 96 28 28 (7526400)
I1011 18:45:14.384807  7822 net.cpp:165] Memory required for data: 130561200
I1011 18:45:14.384814  7822 layer_factory.hpp:77] Creating layer relu2
I1011 18:45:14.384819  7822 net.cpp:100] Creating Layer relu2
I1011 18:45:14.384820  7822 net.cpp:434] relu2 <- bn1
I1011 18:45:14.384824  7822 net.cpp:395] relu2 -> bn1 (in-place)
I1011 18:45:14.385066  7822 net.cpp:150] Setting up relu2
I1011 18:45:14.385074  7822 net.cpp:157] Top shape: 100 96 28 28 (7526400)
I1011 18:45:14.385077  7822 net.cpp:165] Memory required for data: 160666800
I1011 18:45:14.385079  7822 layer_factory.hpp:77] Creating layer drop1
I1011 18:45:14.385084  7822 net.cpp:100] Creating Layer drop1
I1011 18:45:14.385087  7822 net.cpp:434] drop1 <- bn1
I1011 18:45:14.385090  7822 net.cpp:408] drop1 -> drop1
I1011 18:45:14.385125  7822 net.cpp:150] Setting up drop1
I1011 18:45:14.385129  7822 net.cpp:157] Top shape: 100 96 28 28 (7526400)
I1011 18:45:14.385131  7822 net.cpp:165] Memory required for data: 190772400
I1011 18:45:14.385134  7822 layer_factory.hpp:77] Creating layer conv3
I1011 18:45:14.385143  7822 net.cpp:100] Creating Layer conv3
I1011 18:45:14.385145  7822 net.cpp:434] conv3 <- drop1
I1011 18:45:14.385149  7822 net.cpp:408] conv3 -> conv3
I1011 18:45:14.386301  7822 net.cpp:150] Setting up conv3
I1011 18:45:14.386310  7822 net.cpp:157] Top shape: 100 96 13 13 (1622400)
I1011 18:45:14.386312  7822 net.cpp:165] Memory required for data: 197262000
I1011 18:45:14.386320  7822 layer_factory.hpp:77] Creating layer relu3
I1011 18:45:14.386325  7822 net.cpp:100] Creating Layer relu3
I1011 18:45:14.386327  7822 net.cpp:434] relu3 <- conv3
I1011 18:45:14.386332  7822 net.cpp:395] relu3 -> conv3 (in-place)
I1011 18:45:14.386579  7822 net.cpp:150] Setting up relu3
I1011 18:45:14.386586  7822 net.cpp:157] Top shape: 100 96 13 13 (1622400)
I1011 18:45:14.386590  7822 net.cpp:165] Memory required for data: 203751600
I1011 18:45:14.386591  7822 layer_factory.hpp:77] Creating layer conv4
I1011 18:45:14.386598  7822 net.cpp:100] Creating Layer conv4
I1011 18:45:14.386601  7822 net.cpp:434] conv4 <- conv3
I1011 18:45:14.386605  7822 net.cpp:408] conv4 -> conv4
I1011 18:45:14.388744  7822 net.cpp:150] Setting up conv4
I1011 18:45:14.388758  7822 net.cpp:157] Top shape: 100 192 11 11 (2323200)
I1011 18:45:14.388761  7822 net.cpp:165] Memory required for data: 213044400
I1011 18:45:14.388767  7822 layer_factory.hpp:77] Creating layer relu4
I1011 18:45:14.388772  7822 net.cpp:100] Creating Layer relu4
I1011 18:45:14.388774  7822 net.cpp:434] relu4 <- conv4
I1011 18:45:14.388779  7822 net.cpp:395] relu4 -> conv4 (in-place)
I1011 18:45:14.388977  7822 net.cpp:150] Setting up relu4
I1011 18:45:14.388984  7822 net.cpp:157] Top shape: 100 192 11 11 (2323200)
I1011 18:45:14.388986  7822 net.cpp:165] Memory required for data: 222337200
I1011 18:45:14.388988  7822 layer_factory.hpp:77] Creating layer conv5
I1011 18:45:14.388995  7822 net.cpp:100] Creating Layer conv5
I1011 18:45:14.388999  7822 net.cpp:434] conv5 <- conv4
I1011 18:45:14.389004  7822 net.cpp:408] conv5 -> conv5
I1011 18:45:14.391935  7822 net.cpp:150] Setting up conv5
I1011 18:45:14.391952  7822 net.cpp:157] Top shape: 100 192 9 9 (1555200)
I1011 18:45:14.391954  7822 net.cpp:165] Memory required for data: 228558000
I1011 18:45:14.391960  7822 layer_factory.hpp:77] Creating layer bn2
I1011 18:45:14.391965  7822 net.cpp:100] Creating Layer bn2
I1011 18:45:14.391968  7822 net.cpp:434] bn2 <- conv5
I1011 18:45:14.391973  7822 net.cpp:408] bn2 -> bn2
I1011 18:45:14.392190  7822 net.cpp:150] Setting up bn2
I1011 18:45:14.392196  7822 net.cpp:157] Top shape: 100 192 9 9 (1555200)
I1011 18:45:14.392199  7822 net.cpp:165] Memory required for data: 234778800
I1011 18:45:14.392218  7822 layer_factory.hpp:77] Creating layer relu5
I1011 18:45:14.392223  7822 net.cpp:100] Creating Layer relu5
I1011 18:45:14.392225  7822 net.cpp:434] relu5 <- bn2
I1011 18:45:14.392228  7822 net.cpp:395] relu5 -> bn2 (in-place)
I1011 18:45:14.392513  7822 net.cpp:150] Setting up relu5
I1011 18:45:14.392523  7822 net.cpp:157] Top shape: 100 192 9 9 (1555200)
I1011 18:45:14.392540  7822 net.cpp:165] Memory required for data: 240999600
I1011 18:45:14.392542  7822 layer_factory.hpp:77] Creating layer drop4
I1011 18:45:14.392549  7822 net.cpp:100] Creating Layer drop4
I1011 18:45:14.392550  7822 net.cpp:434] drop4 <- bn2
I1011 18:45:14.392554  7822 net.cpp:408] drop4 -> drop4
I1011 18:45:14.392632  7822 net.cpp:150] Setting up drop4
I1011 18:45:14.392637  7822 net.cpp:157] Top shape: 100 192 9 9 (1555200)
I1011 18:45:14.392638  7822 net.cpp:165] Memory required for data: 247220400
I1011 18:45:14.392640  7822 layer_factory.hpp:77] Creating layer conv6
I1011 18:45:14.392652  7822 net.cpp:100] Creating Layer conv6
I1011 18:45:14.392655  7822 net.cpp:434] conv6 <- drop4
I1011 18:45:14.392659  7822 net.cpp:408] conv6 -> conv6
I1011 18:45:14.395484  7822 net.cpp:150] Setting up conv6
I1011 18:45:14.395500  7822 net.cpp:157] Top shape: 100 192 4 4 (307200)
I1011 18:45:14.395503  7822 net.cpp:165] Memory required for data: 248449200
I1011 18:45:14.395527  7822 layer_factory.hpp:77] Creating layer relu6
I1011 18:45:14.395534  7822 net.cpp:100] Creating Layer relu6
I1011 18:45:14.395536  7822 net.cpp:434] relu6 <- conv6
I1011 18:45:14.395539  7822 net.cpp:395] relu6 -> conv6 (in-place)
I1011 18:45:14.395812  7822 net.cpp:150] Setting up relu6
I1011 18:45:14.395819  7822 net.cpp:157] Top shape: 100 192 4 4 (307200)
I1011 18:45:14.395823  7822 net.cpp:165] Memory required for data: 249678000
I1011 18:45:14.395824  7822 layer_factory.hpp:77] Creating layer conv7
I1011 18:45:14.395830  7822 net.cpp:100] Creating Layer conv7
I1011 18:45:14.395848  7822 net.cpp:434] conv7 <- conv6
I1011 18:45:14.395853  7822 net.cpp:408] conv7 -> conv7
I1011 18:45:14.398480  7822 net.cpp:150] Setting up conv7
I1011 18:45:14.398491  7822 net.cpp:157] Top shape: 100 192 2 2 (76800)
I1011 18:45:14.398494  7822 net.cpp:165] Memory required for data: 249985200
I1011 18:45:14.398499  7822 layer_factory.hpp:77] Creating layer relu7
I1011 18:45:14.398502  7822 net.cpp:100] Creating Layer relu7
I1011 18:45:14.398505  7822 net.cpp:434] relu7 <- conv7
I1011 18:45:14.398509  7822 net.cpp:395] relu7 -> conv7 (in-place)
I1011 18:45:14.398710  7822 net.cpp:150] Setting up relu7
I1011 18:45:14.398716  7822 net.cpp:157] Top shape: 100 192 2 2 (76800)
I1011 18:45:14.398718  7822 net.cpp:165] Memory required for data: 250292400
I1011 18:45:14.398720  7822 layer_factory.hpp:77] Creating layer conv8
I1011 18:45:14.398727  7822 net.cpp:100] Creating Layer conv8
I1011 18:45:14.398730  7822 net.cpp:434] conv8 <- conv7
I1011 18:45:14.398733  7822 net.cpp:408] conv8 -> conv8
I1011 18:45:14.399724  7822 net.cpp:150] Setting up conv8
I1011 18:45:14.399734  7822 net.cpp:157] Top shape: 100 192 2 2 (76800)
I1011 18:45:14.399736  7822 net.cpp:165] Memory required for data: 250599600
I1011 18:45:14.399740  7822 layer_factory.hpp:77] Creating layer relu8
I1011 18:45:14.399744  7822 net.cpp:100] Creating Layer relu8
I1011 18:45:14.399746  7822 net.cpp:434] relu8 <- conv8
I1011 18:45:14.399749  7822 net.cpp:395] relu8 -> conv8 (in-place)
I1011 18:45:14.400023  7822 net.cpp:150] Setting up relu8
I1011 18:45:14.400032  7822 net.cpp:157] Top shape: 100 192 2 2 (76800)
I1011 18:45:14.400034  7822 net.cpp:165] Memory required for data: 250906800
I1011 18:45:14.400037  7822 layer_factory.hpp:77] Creating layer conv9
I1011 18:45:14.400043  7822 net.cpp:100] Creating Layer conv9
I1011 18:45:14.400045  7822 net.cpp:434] conv9 <- conv8
I1011 18:45:14.400048  7822 net.cpp:408] conv9 -> conv9
I1011 18:45:14.400815  7822 net.cpp:150] Setting up conv9
I1011 18:45:14.400825  7822 net.cpp:157] Top shape: 100 10 2 2 (4000)
I1011 18:45:14.400827  7822 net.cpp:165] Memory required for data: 250922800
I1011 18:45:14.400831  7822 layer_factory.hpp:77] Creating layer relu9
I1011 18:45:14.400835  7822 net.cpp:100] Creating Layer relu9
I1011 18:45:14.400837  7822 net.cpp:434] relu9 <- conv9
I1011 18:45:14.400841  7822 net.cpp:395] relu9 -> conv9 (in-place)
I1011 18:45:14.401114  7822 net.cpp:150] Setting up relu9
I1011 18:45:14.401124  7822 net.cpp:157] Top shape: 100 10 2 2 (4000)
I1011 18:45:14.401125  7822 net.cpp:165] Memory required for data: 250938800
I1011 18:45:14.401127  7822 layer_factory.hpp:77] Creating layer pool
I1011 18:45:14.401131  7822 net.cpp:100] Creating Layer pool
I1011 18:45:14.401134  7822 net.cpp:434] pool <- conv9
I1011 18:45:14.401139  7822 net.cpp:408] pool -> pool
I1011 18:45:14.401341  7822 net.cpp:150] Setting up pool
I1011 18:45:14.401347  7822 net.cpp:157] Top shape: 100 10 1 1 (1000)
I1011 18:45:14.401365  7822 net.cpp:165] Memory required for data: 250942800
I1011 18:45:14.401367  7822 layer_factory.hpp:77] Creating layer flatten
I1011 18:45:14.401372  7822 net.cpp:100] Creating Layer flatten
I1011 18:45:14.401376  7822 net.cpp:434] flatten <- pool
I1011 18:45:14.401378  7822 net.cpp:408] flatten -> flatten
I1011 18:45:14.401445  7822 net.cpp:150] Setting up flatten
I1011 18:45:14.401450  7822 net.cpp:157] Top shape: 100 10 (1000)
I1011 18:45:14.401453  7822 net.cpp:165] Memory required for data: 250946800
I1011 18:45:14.401454  7822 layer_factory.hpp:77] Creating layer score
I1011 18:45:14.401458  7822 net.cpp:100] Creating Layer score
I1011 18:45:14.401473  7822 net.cpp:434] score <- flatten
I1011 18:45:14.401476  7822 net.cpp:408] score -> score
I1011 18:45:14.401609  7822 net.cpp:150] Setting up score
I1011 18:45:14.401614  7822 net.cpp:157] Top shape: 100 10 (1000)
I1011 18:45:14.401617  7822 net.cpp:165] Memory required for data: 250950800
I1011 18:45:14.401620  7822 layer_factory.hpp:77] Creating layer score_score_0_split
I1011 18:45:14.401624  7822 net.cpp:100] Creating Layer score_score_0_split
I1011 18:45:14.401626  7822 net.cpp:434] score_score_0_split <- score
I1011 18:45:14.401629  7822 net.cpp:408] score_score_0_split -> score_score_0_split_0
I1011 18:45:14.401633  7822 net.cpp:408] score_score_0_split -> score_score_0_split_1
I1011 18:45:14.401679  7822 net.cpp:150] Setting up score_score_0_split
I1011 18:45:14.401695  7822 net.cpp:157] Top shape: 100 10 (1000)
I1011 18:45:14.401698  7822 net.cpp:157] Top shape: 100 10 (1000)
I1011 18:45:14.401700  7822 net.cpp:165] Memory required for data: 250958800
I1011 18:45:14.401701  7822 layer_factory.hpp:77] Creating layer accuracy
I1011 18:45:14.401718  7822 net.cpp:100] Creating Layer accuracy
I1011 18:45:14.401721  7822 net.cpp:434] accuracy <- score_score_0_split_0
I1011 18:45:14.401723  7822 net.cpp:434] accuracy <- label_data_1_split_0
I1011 18:45:14.401742  7822 net.cpp:408] accuracy -> accuracy
…
