…
  stage: ""
}
type: "AdaGrad"
I1013 02:25:40.001410  9291 solver.cpp:81] Creating training net from train_net file: /home/adam/Honours/Honours-Project/cifar-10_allcnn/elu/allcnn_elu_train.prototxt
I1013 02:25:40.001751  9291 net.cpp:58] Initializing net from parameters: 
state {
  phase: TRAIN
  level: 0
  stage: ""
}
layer {
  name: "data"
  type: "Data"
  top: "data"
  top: "label"
  transform_param {
    mean_file: "mean.binaryproto"
  }
  data_param {
    source: "../../../data/cifar-10/cifar10_train_lmdb"
    batch_size: 64
    backend: LMDB
  }
}
layer {
  name: "conv1"
  type: "Convolution"
  bottom: "data"
  top: "conv1"
  convolution_param {
    num_output: 96
    kernel_size: 3
    weight_filler {
      type: "xavier"
    }
  }
}
layer {
  name: "elu1"
  type: "ELU"
  bottom: "conv1"
  top: "conv1"
}
layer {
  name: "conv2"
  type: "Convolution"
  bottom: "conv1"
  top: "conv2"
  convolution_param {
    num_output: 96
    kernel_size: 3
    weight_filler {
      type: "xavier"
    }
  }
}
layer {
  name: "bn1"
  type: "BatchNorm"
  bottom: "conv2"
  top: "bn1"
}
layer {
  name: "elu2"
  type: "ELU"
  bottom: "bn1"
  top: "bn1"
}
layer {
  name: "conv3"
  type: "Convolution"
  bottom: "bn1"
  top: "conv3"
  convolution_param {
    num_output: 96
    kernel_size: 3
    stride: 2
    weight_filler {
      type: "xavier"
    }
  }
}
layer {
  name: "drop1"
  type: "Dropout"
  bottom: "conv3"
  top: "drop1"
  dropout_param {
    dropout_ratio: 0.5
  }
}
layer {
  name: "elu3"
  type: "ELU"
  bottom: "drop1"
  top: "drop1"
}
layer {
  name: "conv4"
  type: "Convolution"
  bottom: "drop1"
  top: "conv4"
  convolution_param {
    num_output: 192
    kernel_size: 3
    weight_filler {
      type: "xavier"
    }
  }
}
layer {
  name: "elu4"
  type: "ELU"
  bottom: "conv4"
  top: "conv4"
}
layer {
  name: "conv5"
  type: "Convolution"
  bottom: "conv4"
  top: "conv5"
  convolution_param {
    num_output: 192
    kernel_size: 3
    weight_filler {
      type: "xavier"
    }
  }
}
layer {
  name: "bn2"
  type: "BatchNorm"
  bottom: "conv5"
  top: "bn2"
}
layer {
  name: "elu5"
  type: "ELU"
  bottom: "bn2"
  top: "bn2"
}
layer {
  name: "conv6"
  type: "Convolution"
  bottom: "bn2"
  top: "conv6"
  convolution_param {
    num_output: 192
    kernel_size: 3
    stride: 2
    weight_filler {
      type: "xavier"
    }
  }
}
layer {
  name: "drop4"
  type: "Dropout"
  bottom: "conv6"
  top: "drop4"
  dropout_param {
    dropout_ratio: 0.5
  }
}
layer {
  name: "elu6"
  type: "ELU"
  bottom: "drop4"
  top: "drop4"
}
layer {
  name: "conv7"
  type: "Convolution"
  bottom: "drop4"
  top: "conv7"
  convolution_param {
    num_output: 192
    kernel_size: 3
    weight_filler {
      type: "xavier"
    }
  }
}
layer {
  name: "elu7"
  type: "ELU"
  bottom: "conv7"
  top: "conv7"
}
layer {
  name: "conv8"
  type: "Convolution"
  bottom: "conv7"
  top: "conv8"
  convolution_param {
    num_output: 192
    kernel_size: 1
    weight_filler {
      type: "xavier"
    }
  }
}
layer {
  name: "elu8"
  type: "ELU"
  bottom: "conv8"
  top: "conv8"
}
layer {
  name: "conv9"
  type: "Convolution"
  bottom: "conv8"
  top: "conv9"
  convolution_param {
    num_output: 10
    kernel_size: 1
    weight_filler {
      type: "xavier"
    }
  }
}
layer {
  name: "elu9"
  type: "ELU"
  bottom: "conv9"
  top: "conv9"
}
layer {
  name: "pool"
  type: "Pooling"
  bottom: "conv9"
  top: "pool"
  pooling_param {
    pool: AVE
    global_pooling: true
  }
}
layer {
  name: "flatten"
  type: "Flatten"
  bottom: "pool"
  top: "flatten"
}
layer {
  name: "score"
  type: "InnerProduct"
  bottom: "flatten"
  top: "score"
  inner_product_param {
    num_output: 10
    weight_filler {
      type: "gaussian"
    }
  }
}
layer {
  name: "accuracy"
  type: "Accuracy"
  bottom: "score"
  bottom: "label"
  top: "accuracy"
}
layer {
  name: "loss"
  type: "SoftmaxWithLoss"
  bottom: "score"
  bottom: "label"
  top: "loss"
}
I1013 02:25:40.001909  9291 layer_factory.hpp:77] Creating layer data
I1013 02:25:40.002342  9291 net.cpp:100] Creating Layer data
I1013 02:25:40.002365  9291 net.cpp:408] data -> data
I1013 02:25:40.002383  9291 net.cpp:408] data -> label
I1013 02:25:40.002408  9291 data_transformer.cpp:25] Loading mean file from: mean.binaryproto
I1013 02:25:40.003059  9296 db_lmdb.cpp:35] Opened lmdb ../../../data/cifar-10/cifar10_train_lmdb
I1013 02:25:40.009368  9291 data_layer.cpp:41] output data size: 64,3,32,32
I1013 02:25:40.010939  9291 net.cpp:150] Setting up data
I1013 02:25:40.010970  9291 net.cpp:157] Top shape: 64 3 32 32 (196608)
I1013 02:25:40.010973  9291 net.cpp:157] Top shape: 64 (64)
I1013 02:25:40.010975  9291 net.cpp:165] Memory required for data: 786688
I1013 02:25:40.010983  9291 layer_factory.hpp:77] Creating layer label_data_1_split
I1013 02:25:40.011008  9291 net.cpp:100] Creating Layer label_data_1_split
I1013 02:25:40.011028  9291 net.cpp:434] label_data_1_split <- label
I1013 02:25:40.011050  9291 net.cpp:408] label_data_1_split -> label_data_1_split_0
I1013 02:25:40.011057  9291 net.cpp:408] label_data_1_split -> label_data_1_split_1
I1013 02:25:40.011116  9291 net.cpp:150] Setting up label_data_1_split
I1013 02:25:40.011119  9291 net.cpp:157] Top shape: 64 (64)
I1013 02:25:40.011122  9291 net.cpp:157] Top shape: 64 (64)
I1013 02:25:40.011124  9291 net.cpp:165] Memory required for data: 787200
I1013 02:25:40.011126  9291 layer_factory.hpp:77] Creating layer conv1
I1013 02:25:40.011153  9291 net.cpp:100] Creating Layer conv1
I1013 02:25:40.011170  9291 net.cpp:434] conv1 <- data
I1013 02:25:40.011174  9291 net.cpp:408] conv1 -> conv1
I1013 02:25:40.145936  9291 net.cpp:150] Setting up conv1
I1013 02:25:40.145962  9291 net.cpp:157] Top shape: 64 96 30 30 (5529600)
I1013 02:25:40.145965  9291 net.cpp:165] Memory required for data: 22905600
I1013 02:25:40.145982  9291 layer_factory.hpp:77] Creating layer elu1
I1013 02:25:40.145990  9291 net.cpp:100] Creating Layer elu1
I1013 02:25:40.145993  9291 net.cpp:434] elu1 <- conv1
I1013 02:25:40.145998  9291 net.cpp:395] elu1 -> conv1 (in-place)
I1013 02:25:40.146004  9291 net.cpp:150] Setting up elu1
I1013 02:25:40.146021  9291 net.cpp:157] Top shape: 64 96 30 30 (5529600)
I1013 02:25:40.146023  9291 net.cpp:165] Memory required for data: 45024000
I1013 02:25:40.146025  9291 layer_factory.hpp:77] Creating layer conv2
I1013 02:25:40.146035  9291 net.cpp:100] Creating Layer conv2
I1013 02:25:40.146037  9291 net.cpp:434] conv2 <- conv1
I1013 02:25:40.146040  9291 net.cpp:408] conv2 -> conv2
I1013 02:25:40.147368  9291 net.cpp:150] Setting up conv2
I1013 02:25:40.147378  9291 net.cpp:157] Top shape: 64 96 28 28 (4816896)
I1013 02:25:40.147380  9291 net.cpp:165] Memory required for data: 64291584
I1013 02:25:40.147387  9291 layer_factory.hpp:77] Creating layer bn1
I1013 02:25:40.147392  9291 net.cpp:100] Creating Layer bn1
I1013 02:25:40.147394  9291 net.cpp:434] bn1 <- conv2
I1013 02:25:40.147397  9291 net.cpp:408] bn1 -> bn1
I1013 02:25:40.147567  9291 net.cpp:150] Setting up bn1
I1013 02:25:40.147572  9291 net.cpp:157] Top shape: 64 96 28 28 (4816896)
I1013 02:25:40.147573  9291 net.cpp:165] Memory required for data: 83559168
I1013 02:25:40.147579  9291 layer_factory.hpp:77] Creating layer elu2
I1013 02:25:40.147583  9291 net.cpp:100] Creating Layer elu2
I1013 02:25:40.147585  9291 net.cpp:434] elu2 <- bn1
I1013 02:25:40.147588  9291 net.cpp:395] elu2 -> bn1 (in-place)
I1013 02:25:40.147591  9291 net.cpp:150] Setting up elu2
I1013 02:25:40.147594  9291 net.cpp:157] Top shape: 64 96 28 28 (4816896)
I1013 02:25:40.147596  9291 net.cpp:165] Memory required for data: 102826752
I1013 02:25:40.147624  9291 layer_factory.hpp:77] Creating layer conv3
I1013 02:25:40.147629  9291 net.cpp:100] Creating Layer conv3
I1013 02:25:40.147632  9291 net.cpp:434] conv3 <- bn1
I1013 02:25:40.147636  9291 net.cpp:408] conv3 -> conv3
I1013 02:25:40.148816  9291 net.cpp:150] Setting up conv3
I1013 02:25:40.148825  9291 net.cpp:157] Top shape: 64 96 13 13 (1038336)
I1013 02:25:40.148828  9291 net.cpp:165] Memory required for data: 106980096
I1013 02:25:40.148834  9291 layer_factory.hpp:77] Creating layer drop1
I1013 02:25:40.148840  9291 net.cpp:100] Creating Layer drop1
I1013 02:25:40.148843  9291 net.cpp:434] drop1 <- conv3
I1013 02:25:40.148846  9291 net.cpp:408] drop1 -> drop1
I1013 02:25:40.148908  9291 net.cpp:150] Setting up drop1
I1013 02:25:40.148913  9291 net.cpp:157] Top shape: 64 96 13 13 (1038336)
I1013 02:25:40.148916  9291 net.cpp:165] Memory required for data: 111133440
I1013 02:25:40.148931  9291 layer_factory.hpp:77] Creating layer elu3
I1013 02:25:40.148933  9291 net.cpp:100] Creating Layer elu3
I1013 02:25:40.148936  9291 net.cpp:434] elu3 <- drop1
I1013 02:25:40.148953  9291 net.cpp:395] elu3 -> drop1 (in-place)
I1013 02:25:40.148957  9291 net.cpp:150] Setting up elu3
I1013 02:25:40.148959  9291 net.cpp:157] Top shape: 64 96 13 13 (1038336)
I1013 02:25:40.148975  9291 net.cpp:165] Memory required for data: 115286784
I1013 02:25:40.148977  9291 layer_factory.hpp:77] Creating layer conv4
I1013 02:25:40.148983  9291 net.cpp:100] Creating Layer conv4
I1013 02:25:40.148999  9291 net.cpp:434] conv4 <- drop1
I1013 02:25:40.149004  9291 net.cpp:408] conv4 -> conv4
I1013 02:25:40.150820  9291 net.cpp:150] Setting up conv4
I1013 02:25:40.150830  9291 net.cpp:157] Top shape: 64 192 11 11 (1486848)
I1013 02:25:40.150831  9291 net.cpp:165] Memory required for data: 121234176
I1013 02:25:40.150836  9291 layer_factory.hpp:77] Creating layer elu4
I1013 02:25:40.150840  9291 net.cpp:100] Creating Layer elu4
I1013 02:25:40.150842  9291 net.cpp:434] elu4 <- conv4
I1013 02:25:40.150846  9291 net.cpp:395] elu4 -> conv4 (in-place)
I1013 02:25:40.150851  9291 net.cpp:150] Setting up elu4
I1013 02:25:40.150853  9291 net.cpp:157] Top shape: 64 192 11 11 (1486848)
I1013 02:25:40.150856  9291 net.cpp:165] Memory required for data: 127181568
I1013 02:25:40.150856  9291 layer_factory.hpp:77] Creating layer conv5
I1013 02:25:40.150861  9291 net.cpp:100] Creating Layer conv5
I1013 02:25:40.150878  9291 net.cpp:434] conv5 <- conv4
I1013 02:25:40.150882  9291 net.cpp:408] conv5 -> conv5
I1013 02:25:40.153405  9291 net.cpp:150] Setting up conv5
I1013 02:25:40.153415  9291 net.cpp:157] Top shape: 64 192 9 9 (995328)
I1013 02:25:40.153419  9291 net.cpp:165] Memory required for data: 131162880
I1013 02:25:40.153422  9291 layer_factory.hpp:77] Creating layer bn2
I1013 02:25:40.153427  9291 net.cpp:100] Creating Layer bn2
I1013 02:25:40.153430  9291 net.cpp:434] bn2 <- conv5
I1013 02:25:40.153434  9291 net.cpp:408] bn2 -> bn2
I1013 02:25:40.153630  9291 net.cpp:150] Setting up bn2
I1013 02:25:40.153635  9291 net.cpp:157] Top shape: 64 192 9 9 (995328)
I1013 02:25:40.153636  9291 net.cpp:165] Memory required for data: 135144192
I1013 02:25:40.153641  9291 layer_factory.hpp:77] Creating layer elu5
I1013 02:25:40.153645  9291 net.cpp:100] Creating Layer elu5
I1013 02:25:40.153646  9291 net.cpp:434] elu5 <- bn2
I1013 02:25:40.153650  9291 net.cpp:395] elu5 -> bn2 (in-place)
I1013 02:25:40.153652  9291 net.cpp:150] Setting up elu5
I1013 02:25:40.153656  9291 net.cpp:157] Top shape: 64 192 9 9 (995328)
I1013 02:25:40.153657  9291 net.cpp:165] Memory required for data: 139125504
I1013 02:25:40.153658  9291 layer_factory.hpp:77] Creating layer conv6
I1013 02:25:40.153664  9291 net.cpp:100] Creating Layer conv6
I1013 02:25:40.153666  9291 net.cpp:434] conv6 <- bn2
I1013 02:25:40.153669  9291 net.cpp:408] conv6 -> conv6
I1013 02:25:40.156190  9291 net.cpp:150] Setting up conv6
I1013 02:25:40.156200  9291 net.cpp:157] Top shape: 64 192 4 4 (196608)
I1013 02:25:40.156203  9291 net.cpp:165] Memory required for data: 139911936
I1013 02:25:40.156221  9291 layer_factory.hpp:77] Creating layer drop4
I1013 02:25:40.156229  9291 net.cpp:100] Creating Layer drop4
I1013 02:25:40.156232  9291 net.cpp:434] drop4 <- conv6
I1013 02:25:40.156236  9291 net.cpp:408] drop4 -> drop4
I1013 02:25:40.156308  9291 net.cpp:150] Setting up drop4
I1013 02:25:40.156313  9291 net.cpp:157] Top shape: 64 192 4 4 (196608)
I1013 02:25:40.156316  9291 net.cpp:165] Memory required for data: 140698368
I1013 02:25:40.156330  9291 layer_factory.hpp:77] Creating layer elu6
I1013 02:25:40.156333  9291 net.cpp:100] Creating Layer elu6
I1013 02:25:40.156335  9291 net.cpp:434] elu6 <- drop4
I1013 02:25:40.156352  9291 net.cpp:395] elu6 -> drop4 (in-place)
I1013 02:25:40.156358  9291 net.cpp:150] Setting up elu6
I1013 02:25:40.156360  9291 net.cpp:157] Top shape: 64 192 4 4 (196608)
I1013 02:25:40.156374  9291 net.cpp:165] Memory required for data: 141484800
I1013 02:25:40.156376  9291 layer_factory.hpp:77] Creating layer conv7
I1013 02:25:40.156381  9291 net.cpp:100] Creating Layer conv7
I1013 02:25:40.156383  9291 net.cpp:434] conv7 <- drop4
I1013 02:25:40.156402  9291 net.cpp:408] conv7 -> conv7
I1013 02:25:40.160140  9291 net.cpp:150] Setting up conv7
I1013 02:25:40.160161  9291 net.cpp:157] Top shape: 64 192 2 2 (49152)
I1013 02:25:40.160162  9291 net.cpp:165] Memory required for data: 141681408
I1013 02:25:40.160168  9291 layer_factory.hpp:77] Creating layer elu7
I1013 02:25:40.160174  9291 net.cpp:100] Creating Layer elu7
I1013 02:25:40.160176  9291 net.cpp:434] elu7 <- conv7
I1013 02:25:40.160181  9291 net.cpp:395] elu7 -> conv7 (in-place)
I1013 02:25:40.160187  9291 net.cpp:150] Setting up elu7
I1013 02:25:40.160190  9291 net.cpp:157] Top shape: 64 192 2 2 (49152)
I1013 02:25:40.160192  9291 net.cpp:165] Memory required for data: 141878016
I1013 02:25:40.160208  9291 layer_factory.hpp:77] Creating layer conv8
I1013 02:25:40.160214  9291 net.cpp:100] Creating Layer conv8
I1013 02:25:40.160217  9291 net.cpp:434] conv8 <- conv7
I1013 02:25:40.160220  9291 net.cpp:408] conv8 -> conv8
I1013 02:25:40.161454  9291 net.cpp:150] Setting up conv8
I1013 02:25:40.161478  9291 net.cpp:157] Top shape: 64 192 2 2 (49152)
I1013 02:25:40.161480  9291 net.cpp:165] Memory required for data: 142074624
I1013 02:25:40.161485  9291 layer_factory.hpp:77] Creating layer elu8
I1013 02:25:40.161504  9291 net.cpp:100] Creating Layer elu8
I1013 02:25:40.161505  9291 net.cpp:434] elu8 <- conv8
I1013 02:25:40.161509  9291 net.cpp:395] elu8 -> conv8 (in-place)
I1013 02:25:40.161530  9291 net.cpp:150] Setting up elu8
I1013 02:25:40.161550  9291 net.cpp:157] Top shape: 64 192 2 2 (49152)
I1013 02:25:40.161551  9291 net.cpp:165] Memory required for data: 142271232
I1013 02:25:40.161553  9291 layer_factory.hpp:77] Creating layer conv9
I1013 02:25:40.161573  9291 net.cpp:100] Creating Layer conv9
I1013 02:25:40.161576  9291 net.cpp:434] conv9 <- conv8
I1013 02:25:40.161579  9291 net.cpp:408] conv9 -> conv9
I1013 02:25:40.162386  9291 net.cpp:150] Setting up conv9
I1013 02:25:40.162396  9291 net.cpp:157] Top shape: 64 10 2 2 (2560)
I1013 02:25:40.162398  9291 net.cpp:165] Memory required for data: 142281472
I1013 02:25:40.162402  9291 layer_factory.hpp:77] Creating layer elu9
I1013 02:25:40.162406  9291 net.cpp:100] Creating Layer elu9
I1013 02:25:40.162408  9291 net.cpp:434] elu9 <- conv9
I1013 02:25:40.162411  9291 net.cpp:395] elu9 -> conv9 (in-place)
I1013 02:25:40.162420  9291 net.cpp:150] Setting up elu9
I1013 02:25:40.162423  9291 net.cpp:157] Top shape: 64 10 2 2 (2560)
I1013 02:25:40.162425  9291 net.cpp:165] Memory required for data: 142291712
I1013 02:25:40.162426  9291 layer_factory.hpp:77] Creating layer pool
I1013 02:25:40.162446  9291 net.cpp:100] Creating Layer pool
I1013 02:25:40.162448  9291 net.cpp:434] pool <- conv9
I1013 02:25:40.162451  9291 net.cpp:408] pool -> pool
I1013 02:25:40.162802  9291 net.cpp:150] Setting up pool
I1013 02:25:40.162811  9291 net.cpp:157] Top shape: 64 10 1 1 (640)
I1013 02:25:40.162813  9291 net.cpp:165] Memory required for data: 142294272
I1013 02:25:40.162816  9291 layer_factory.hpp:77] Creating layer flatten
I1013 02:25:40.162829  9291 net.cpp:100] Creating Layer flatten
I1013 02:25:40.162832  9291 net.cpp:434] flatten <- pool
I1013 02:25:40.162837  9291 net.cpp:408] flatten -> flatten
I1013 02:25:40.162871  9291 net.cpp:150] Setting up flatten
I1013 02:25:40.162876  9291 net.cpp:157] Top shape: 64 10 (640)
I1013 02:25:40.162878  9291 net.cpp:165] Memory required for data: 142296832
I1013 02:25:40.162894  9291 layer_factory.hpp:77] Creating layer score
I1013 02:25:40.162899  9291 net.cpp:100] Creating Layer score
I1013 02:25:40.162900  9291 net.cpp:434] score <- flatten
I1013 02:25:40.162916  9291 net.cpp:408] score -> score
I1013 02:25:40.163045  9291 net.cpp:150] Setting up score
I1013 02:25:40.163049  9291 net.cpp:157] Top shape: 64 10 (640)
I1013 02:25:40.163051  9291 net.cpp:165] Memory required for data: 142299392
I1013 02:25:40.163055  9291 layer_factory.hpp:77] Creating layer score_score_0_split
I1013 02:25:40.163058  9291 net.cpp:100] Creating Layer score_score_0_split
I1013 02:25:40.163061  9291 net.cpp:434] score_score_0_split <- score
I1013 02:25:40.163064  9291 net.cpp:408] score_score_0_split -> score_score_0_split_0
I1013 02:25:40.163069  9291 net.cpp:408] score_score_0_split -> score_score_0_split_1
I1013 02:25:40.163108  9291 net.cpp:150] Setting up score_score_0_split
I1013 02:25:40.163113  9291 net.cpp:157] Top shape: 64 10 (640)
I1013 02:25:40.163115  9291 net.cpp:157] Top shape: 64 10 (640)
I1013 02:25:40.163117  9291 net.cpp:165] Memory required for data: 142304512
I1013 02:25:40.163133  9291 layer_factory.hpp:77] Creating layer accuracy
I1013 02:25:40.163137  9291 net.cpp:100] Creating Layer accuracy
I1013 02:25:40.163139  9291 net.cpp:434] accuracy <- score_score_0_split_0
I1013 02:25:40.163154  9291 net.cpp:434] accuracy <- label_data_1_split_0
I1013 02:25:40.163158  9291 net.cpp:408] accuracy -> accuracy
…
I1013 02:25:40.163643  9291 net.cpp:283] Network initialization done.
I1013 02:25:40.163887  9291 solver.cpp:181] Creating test net (#0) specified by test_net file: /home/adam/Honours/Honours-Project/cifar-10_allcnn/elu/allcnn_elu_test.prototxt
I1013 02:25:40.164060  9291 net.cpp:58] Initializing net from parameters: 
state {
  phase: TEST
}
layer {
  name: "data"
  type: "Data"
  top: "data"
  top: "label"
  transform_param {
    mean_file: "mean.binaryproto"
  }
  data_param {
    source: "../../../data/cifar-10/cifar10_test_lmdb"
    batch_size: 100
    backend: LMDB
  }
}
layer {
  name: "conv1"
  type: "Convolution"
  bottom: "data"
  top: "conv1"
  convolution_param {
    num_output: 96
    kernel_size: 3
    weight_filler {
      type: "xavier"
    }
  }
}
layer {
  name: "elu1"
  type: "ELU"
  bottom: "conv1"
  top: "conv1"
}
layer {
  name: "conv2"
  type: "Convolution"
  bottom: "conv1"
  top: "conv2"
  convolution_param {
    num_output: 96
    kernel_size: 3
    weight_filler {
      type: "xavier"
    }
  }
}
layer {
  name: "bn1"
  type: "BatchNorm"
  bottom: "conv2"
  top: "bn1"
}
layer {
  name: "elu2"
  type: "ELU"
  bottom: "bn1"
  top: "bn1"
}
layer {
  name: "conv3"
  type: "Convolution"
  bottom: "bn1"
  top: "conv3"
  convolution_param {
    num_output: 96
    kernel_size: 3
    stride: 2
    weight_filler {
      type: "xavier"
    }
  }
}
layer {
  name: "drop1"
  type: "Dropout"
  bottom: "conv3"
  top: "drop1"
  dropout_param {
    dropout_ratio: 0.5
  }
}
layer {
  name: "elu3"
  type: "ELU"
  bottom: "drop1"
  top: "drop1"
}
layer {
  name: "conv4"
  type: "Convolution"
  bottom: "drop1"
  top: "conv4"
  convolution_param {
    num_output: 192
    kernel_size: 3
    weight_filler {
      type: "xavier"
    }
  }
}
layer {
  name: "elu4"
  type: "ELU"
  bottom: "conv4"
  top: "conv4"
}
layer {
  name: "conv5"
  type: "Convolution"
  bottom: "conv4"
  top: "conv5"
  convolution_param {
    num_output: 192
    kernel_size: 3
    weight_filler {
      type: "xavier"
    }
  }
}
layer {
  name: "bn2"
  type: "BatchNorm"
  bottom: "conv5"
  top: "bn2"
}
layer {
  name: "elu5"
  type: "ELU"
  bottom: "bn2"
  top: "bn2"
}
layer {
  name: "conv6"
  type: "Convolution"
  bottom: "bn2"
  top: "conv6"
  convolution_param {
    num_output: 192
    kernel_size: 3
    stride: 2
    weight_filler {
      type: "xavier"
    }
  }
}
layer {
  name: "drop4"
  type: "Dropout"
  bottom: "conv6"
  top: "drop4"
  dropout_param {
    dropout_ratio: 0.5
  }
}
layer {
  name: "elu6"
  type: "ELU"
  bottom: "drop4"
  top: "drop4"
}
layer {
  name: "conv7"
  type: "Convolution"
  bottom: "drop4"
  top: "conv7"
  convolution_param {
    num_output: 192
    kernel_size: 3
    weight_filler {
      type: "xavier"
    }
  }
}
layer {
  name: "elu7"
  type: "ELU"
  bottom: "conv7"
  top: "conv7"
}
layer {
  name: "conv8"
  type: "Convolution"
  bottom: "conv7"
  top: "conv8"
  convolution_param {
    num_output: 192
    kernel_size: 1
    weight_filler {
      type: "xavier"
    }
  }
}
layer {
  name: "elu8"
  type: "ELU"
  bottom: "conv8"
  top: "conv8"
}
layer {
  name: "conv9"
  type: "Convolution"
  bottom: "conv8"
  top: "conv9"
  convolution_param {
    num_output: 10
    kernel_size: 1
    weight_filler {
      type: "xavier"
    }
  }
}
layer {
  name: "elu9"
  type: "ELU"
  bottom: "conv9"
  top: "conv9"
}
layer {
  name: "pool"
  type: "Pooling"
  bottom: "conv9"
  top: "pool"
  pooling_param {
    pool: AVE
    global_pooling: true
  }
}
layer {
  name: "flatten"
  type: "Flatten"
  bottom: "pool"
  top: "flatten"
}
layer {
  name: "score"
  type: "InnerProduct"
  bottom: "flatten"
  top: "score"
  inner_product_param {
    num_output: 10
    weight_filler {
      type: "gaussian"
    }
  }
}
layer {
  name: "accuracy"
  type: "Accuracy"
  bottom: "score"
  bottom: "label"
  top: "accuracy"
}
layer {
  name: "loss"
  type: "SoftmaxWithLoss"
  bottom: "score"
  bottom: "label"
  top: "loss"
}
I1013 02:25:40.164165  9291 layer_factory.hpp:77] Creating layer data
I1013 02:25:40.164247  9291 net.cpp:100] Creating Layer data
I1013 02:25:40.164254  9291 net.cpp:408] data -> data
I1013 02:25:40.164278  9291 net.cpp:408] data -> label
I1013 02:25:40.164283  9291 data_transformer.cpp:25] Loading mean file from: mean.binaryproto
I1013 02:25:40.165029  9298 db_lmdb.cpp:35] Opened lmdb ../../../data/cifar-10/cifar10_test_lmdb
I1013 02:25:40.165189  9291 data_layer.cpp:41] output data size: 100,3,32,32
I1013 02:25:40.167105  9291 net.cpp:150] Setting up data
I1013 02:25:40.167146  9291 net.cpp:157] Top shape: 100 3 32 32 (307200)
I1013 02:25:40.167150  9291 net.cpp:157] Top shape: 100 (100)
I1013 02:25:40.167151  9291 net.cpp:165] Memory required for data: 1229200
I1013 02:25:40.167168  9291 layer_factory.hpp:77] Creating layer label_data_1_split
I1013 02:25:40.167191  9291 net.cpp:100] Creating Layer label_data_1_split
I1013 02:25:40.167194  9291 net.cpp:434] label_data_1_split <- label
I1013 02:25:40.167213  9291 net.cpp:408] label_data_1_split -> label_data_1_split_0
I1013 02:25:40.167223  9291 net.cpp:408] label_data_1_split -> label_data_1_split_1
I1013 02:25:40.167273  9291 net.cpp:150] Setting up label_data_1_split
I1013 02:25:40.167292  9291 net.cpp:157] Top shape: 100 (100)
I1013 02:25:40.167294  9291 net.cpp:157] Top shape: 100 (100)
I1013 02:25:40.167296  9291 net.cpp:165] Memory required for data: 1230000
I1013 02:25:40.167299  9291 layer_factory.hpp:77] Creating layer conv1
I1013 02:25:40.167321  9291 net.cpp:100] Creating Layer conv1
I1013 02:25:40.167336  9291 net.cpp:434] conv1 <- data
I1013 02:25:40.167340  9291 net.cpp:408] conv1 -> conv1
I1013 02:25:40.168231  9291 net.cpp:150] Setting up conv1
I1013 02:25:40.168254  9291 net.cpp:157] Top shape: 100 96 30 30 (8640000)
I1013 02:25:40.168256  9291 net.cpp:165] Memory required for data: 35790000
I1013 02:25:40.168264  9291 layer_factory.hpp:77] Creating layer elu1
I1013 02:25:40.168268  9291 net.cpp:100] Creating Layer elu1
I1013 02:25:40.168272  9291 net.cpp:434] elu1 <- conv1
I1013 02:25:40.168290  9291 net.cpp:395] elu1 -> conv1 (in-place)
I1013 02:25:40.168297  9291 net.cpp:150] Setting up elu1
I1013 02:25:40.168313  9291 net.cpp:157] Top shape: 100 96 30 30 (8640000)
I1013 02:25:40.168314  9291 net.cpp:165] Memory required for data: 70350000
I1013 02:25:40.168316  9291 layer_factory.hpp:77] Creating layer conv2
I1013 02:25:40.168323  9291 net.cpp:100] Creating Layer conv2
I1013 02:25:40.168341  9291 net.cpp:434] conv2 <- conv1
I1013 02:25:40.168344  9291 net.cpp:408] conv2 -> conv2
I1013 02:25:40.169895  9291 net.cpp:150] Setting up conv2
I1013 02:25:40.169920  9291 net.cpp:157] Top shape: 100 96 28 28 (7526400)
I1013 02:25:40.169924  9291 net.cpp:165] Memory required for data: 100455600
I1013 02:25:40.169930  9291 layer_factory.hpp:77] Creating layer bn1
I1013 02:25:40.169935  9291 net.cpp:100] Creating Layer bn1
I1013 02:25:40.169939  9291 net.cpp:434] bn1 <- conv2
I1013 02:25:40.169944  9291 net.cpp:408] bn1 -> bn1
I1013 02:25:40.170168  9291 net.cpp:150] Setting up bn1
I1013 02:25:40.170174  9291 net.cpp:157] Top shape: 100 96 28 28 (7526400)
I1013 02:25:40.170186  9291 net.cpp:165] Memory required for data: 130561200
I1013 02:25:40.170194  9291 layer_factory.hpp:77] Creating layer elu2
I1013 02:25:40.170200  9291 net.cpp:100] Creating Layer elu2
I1013 02:25:40.170202  9291 net.cpp:434] elu2 <- bn1
I1013 02:25:40.170207  9291 net.cpp:395] elu2 -> bn1 (in-place)
I1013 02:25:40.170212  9291 net.cpp:150] Setting up elu2
I1013 02:25:40.170217  9291 net.cpp:157] Top shape: 100 96 28 28 (7526400)
I1013 02:25:40.170219  9291 net.cpp:165] Memory required for data: 160666800
I1013 02:25:40.170222  9291 layer_factory.hpp:77] Creating layer conv3
I1013 02:25:40.170228  9291 net.cpp:100] Creating Layer conv3
I1013 02:25:40.170230  9291 net.cpp:434] conv3 <- bn1
I1013 02:25:40.170234  9291 net.cpp:408] conv3 -> conv3
I1013 02:25:40.171586  9291 net.cpp:150] Setting up conv3
I1013 02:25:40.171597  9291 net.cpp:157] Top shape: 100 96 13 13 (1622400)
I1013 02:25:40.171598  9291 net.cpp:165] Memory required for data: 167156400
I1013 02:25:40.171605  9291 layer_factory.hpp:77] Creating layer drop1
I1013 02:25:40.171614  9291 net.cpp:100] Creating Layer drop1
I1013 02:25:40.171617  9291 net.cpp:434] drop1 <- conv3
I1013 02:25:40.171622  9291 net.cpp:408] drop1 -> drop1
I1013 02:25:40.171654  9291 net.cpp:150] Setting up drop1
I1013 02:25:40.171660  9291 net.cpp:157] Top shape: 100 96 13 13 (1622400)
I1013 02:25:40.171663  9291 net.cpp:165] Memory required for data: 173646000
I1013 02:25:40.171665  9291 layer_factory.hpp:77] Creating layer elu3
I1013 02:25:40.171669  9291 net.cpp:100] Creating Layer elu3
I1013 02:25:40.171671  9291 net.cpp:434] elu3 <- drop1
I1013 02:25:40.171674  9291 net.cpp:395] elu3 -> drop1 (in-place)
I1013 02:25:40.171679  9291 net.cpp:150] Setting up elu3
I1013 02:25:40.171681  9291 net.cpp:157] Top shape: 100 96 13 13 (1622400)
I1013 02:25:40.171684  9291 net.cpp:165] Memory required for data: 180135600
I1013 02:25:40.171685  9291 layer_factory.hpp:77] Creating layer conv4
I1013 02:25:40.171691  9291 net.cpp:100] Creating Layer conv4
I1013 02:25:40.171694  9291 net.cpp:434] conv4 <- drop1
I1013 02:25:40.171696  9291 net.cpp:408] conv4 -> conv4
I1013 02:25:40.173480  9291 net.cpp:150] Setting up conv4
I1013 02:25:40.173492  9291 net.cpp:157] Top shape: 100 192 11 11 (2323200)
I1013 02:25:40.173494  9291 net.cpp:165] Memory required for data: 189428400
I1013 02:25:40.173501  9291 layer_factory.hpp:77] Creating layer elu4
I1013 02:25:40.173506  9291 net.cpp:100] Creating Layer elu4
I1013 02:25:40.173509  9291 net.cpp:434] elu4 <- conv4
I1013 02:25:40.173513  9291 net.cpp:395] elu4 -> conv4 (in-place)
I1013 02:25:40.173519  9291 net.cpp:150] Setting up elu4
I1013 02:25:40.173522  9291 net.cpp:157] Top shape: 100 192 11 11 (2323200)
I1013 02:25:40.173524  9291 net.cpp:165] Memory required for data: 198721200
I1013 02:25:40.173527  9291 layer_factory.hpp:77] Creating layer conv5
I1013 02:25:40.173533  9291 net.cpp:100] Creating Layer conv5
I1013 02:25:40.173535  9291 net.cpp:434] conv5 <- conv4
I1013 02:25:40.173539  9291 net.cpp:408] conv5 -> conv5
I1013 02:25:40.176477  9291 net.cpp:150] Setting up conv5
I1013 02:25:40.176496  9291 net.cpp:157] Top shape: 100 192 9 9 (1555200)
I1013 02:25:40.176499  9291 net.cpp:165] Memory required for data: 204942000
I1013 02:25:40.176506  9291 layer_factory.hpp:77] Creating layer bn2
I1013 02:25:40.176512  9291 net.cpp:100] Creating Layer bn2
I1013 02:25:40.176513  9291 net.cpp:434] bn2 <- conv5
I1013 02:25:40.176518  9291 net.cpp:408] bn2 -> bn2
I1013 02:25:40.176725  9291 net.cpp:150] Setting up bn2
I1013 02:25:40.176730  9291 net.cpp:157] Top shape: 100 192 9 9 (1555200)
I1013 02:25:40.176733  9291 net.cpp:165] Memory required for data: 211162800
I1013 02:25:40.176738  9291 layer_factory.hpp:77] Creating layer elu5
I1013 02:25:40.176741  9291 net.cpp:100] Creating Layer elu5
I1013 02:25:40.176744  9291 net.cpp:434] elu5 <- bn2
I1013 02:25:40.176748  9291 net.cpp:395] elu5 -> bn2 (in-place)
I1013 02:25:40.176750  9291 net.cpp:150] Setting up elu5
I1013 02:25:40.176753  9291 net.cpp:157] Top shape: 100 192 9 9 (1555200)
I1013 02:25:40.176780  9291 net.cpp:165] Memory required for data: 217383600
I1013 02:25:40.176782  9291 layer_factory.hpp:77] Creating layer conv6
I1013 02:25:40.176789  9291 net.cpp:100] Creating Layer conv6
I1013 02:25:40.176794  9291 net.cpp:434] conv6 <- bn2
I1013 02:25:40.176810  9291 net.cpp:408] conv6 -> conv6
I1013 02:25:40.179421  9291 net.cpp:150] Setting up conv6
I1013 02:25:40.179431  9291 net.cpp:157] Top shape: 100 192 4 4 (307200)
I1013 02:25:40.179435  9291 net.cpp:165] Memory required for data: 218612400
I1013 02:25:40.179443  9291 layer_factory.hpp:77] Creating layer drop4
I1013 02:25:40.179450  9291 net.cpp:100] Creating Layer drop4
I1013 02:25:40.179453  9291 net.cpp:434] drop4 <- conv6
I1013 02:25:40.179457  9291 net.cpp:408] drop4 -> drop4
I1013 02:25:40.179530  9291 net.cpp:150] Setting up drop4
I1013 02:25:40.179535  9291 net.cpp:157] Top shape: 100 192 4 4 (307200)
I1013 02:25:40.179538  9291 net.cpp:165] Memory required for data: 219841200
I1013 02:25:40.179553  9291 layer_factory.hpp:77] Creating layer elu6
I1013 02:25:40.179556  9291 net.cpp:100] Creating Layer elu6
I1013 02:25:40.179558  9291 net.cpp:434] elu6 <- drop4
I1013 02:25:40.179561  9291 net.cpp:395] elu6 -> drop4 (in-place)
I1013 02:25:40.179579  9291 net.cpp:150] Setting up elu6
I1013 02:25:40.179582  9291 net.cpp:157] Top shape: 100 192 4 4 (307200)
I1013 02:25:40.179584  9291 net.cpp:165] Memory required for data: 221070000
I1013 02:25:40.179586  9291 layer_factory.hpp:77] Creating layer conv7
I1013 02:25:40.179591  9291 net.cpp:100] Creating Layer conv7
I1013 02:25:40.179595  9291 net.cpp:434] conv7 <- drop4
I1013 02:25:40.179600  9291 net.cpp:408] conv7 -> conv7
I1013 02:25:40.182150  9291 net.cpp:150] Setting up conv7
I1013 02:25:40.182160  9291 net.cpp:157] Top shape: 100 192 2 2 (76800)
I1013 02:25:40.182164  9291 net.cpp:165] Memory required for data: 221377200
I1013 02:25:40.182168  9291 layer_factory.hpp:77] Creating layer elu7
I1013 02:25:40.182173  9291 net.cpp:100] Creating Layer elu7
I1013 02:25:40.182174  9291 net.cpp:434] elu7 <- conv7
I1013 02:25:40.182178  9291 net.cpp:395] elu7 -> conv7 (in-place)
I1013 02:25:40.182183  9291 net.cpp:150] Setting up elu7
I1013 02:25:40.182185  9291 net.cpp:157] Top shape: 100 192 2 2 (76800)
I1013 02:25:40.182188  9291 net.cpp:165] Memory required for data: 221684400
I1013 02:25:40.182189  9291 layer_factory.hpp:77] Creating layer conv8
I1013 02:25:40.182209  9291 net.cpp:100] Creating Layer conv8
I1013 02:25:40.182211  9291 net.cpp:434] conv8 <- conv7
I1013 02:25:40.182215  9291 net.cpp:408] conv8 -> conv8
I1013 02:25:40.183203  9291 net.cpp:150] Setting up conv8
I1013 02:25:40.183213  9291 net.cpp:157] Top shape: 100 192 2 2 (76800)
I1013 02:25:40.183215  9291 net.cpp:165] Memory required for data: 221991600
I1013 02:25:40.183219  9291 layer_factory.hpp:77] Creating layer elu8
I1013 02:25:40.183223  9291 net.cpp:100] Creating Layer elu8
I1013 02:25:40.183225  9291 net.cpp:434] elu8 <- conv8
I1013 02:25:40.183228  9291 net.cpp:395] elu8 -> conv8 (in-place)
I1013 02:25:40.183233  9291 net.cpp:150] Setting up elu8
I1013 02:25:40.183235  9291 net.cpp:157] Top shape: 100 192 2 2 (76800)
I1013 02:25:40.183238  9291 net.cpp:165] Memory required for data: 222298800
I1013 02:25:40.183239  9291 layer_factory.hpp:77] Creating layer conv9
I1013 02:25:40.183245  9291 net.cpp:100] Creating Layer conv9
I1013 02:25:40.183261  9291 net.cpp:434] conv9 <- conv8
I1013 02:25:40.183266  9291 net.cpp:408] conv9 -> conv9
I1013 02:25:40.184103  9291 net.cpp:150] Setting up conv9
I1013 02:25:40.184113  9291 net.cpp:157] Top shape: 100 10 2 2 (4000)
I1013 02:25:40.184114  9291 net.cpp:165] Memory required for data: 222314800
I1013 02:25:40.184118  9291 layer_factory.hpp:77] Creating layer elu9
I1013 02:25:40.184123  9291 net.cpp:100] Creating Layer elu9
I1013 02:25:40.184125  9291 net.cpp:434] elu9 <- conv9
I1013 02:25:40.184128  9291 net.cpp:395] elu9 -> conv9 (in-place)
I1013 02:25:40.184132  9291 net.cpp:150] Setting up elu9
I1013 02:25:40.184135  9291 net.cpp:157] Top shape: 100 10 2 2 (4000)
I1013 02:25:40.184160  9291 net.cpp:165] Memory required for data: 222330800
I1013 02:25:40.184162  9291 layer_factory.hpp:77] Creating layer pool
I1013 02:25:40.184168  9291 net.cpp:100] Creating Layer pool
I1013 02:25:40.184170  9291 net.cpp:434] pool <- conv9
I1013 02:25:40.184173  9291 net.cpp:408] pool -> pool
I1013 02:25:40.184465  9291 net.cpp:150] Setting up pool
I1013 02:25:40.184473  9291 net.cpp:157] Top shape: 100 10 1 1 (1000)
I1013 02:25:40.184476  9291 net.cpp:165] Memory required for data: 222334800
I1013 02:25:40.184492  9291 layer_factory.hpp:77] Creating layer flatten
I1013 02:25:40.184496  9291 net.cpp:100] Creating Layer flatten
I1013 02:25:40.184499  9291 net.cpp:434] flatten <- pool
I1013 02:25:40.184504  9291 net.cpp:408] flatten -> flatten
I1013 02:25:40.184552  9291 net.cpp:150] Setting up flatten
I1013 02:25:40.184556  9291 net.cpp:157] Top shape: 100 10 (1000)
I1013 02:25:40.184558  9291 net.cpp:165] Memory required for data: 222338800
I1013 02:25:40.184561  9291 layer_factory.hpp:77] Creating layer score
I1013 02:25:40.184578  9291 net.cpp:100] Creating Layer score
I1013 02:25:40.184581  9291 net.cpp:434] score <- flatten
I1013 02:25:40.184599  9291 net.cpp:408] score -> score
I1013 02:25:40.184705  9291 net.cpp:150] Setting up score
I1013 02:25:40.184710  9291 net.cpp:157] Top shape: 100 10 (1000)
I1013 02:25:40.184726  9291 net.cpp:165] Memory required for data: 222342800
I1013 02:25:40.184731  9291 layer_factory.hpp:77] Creating layer score_score_0_split
I1013 02:25:40.184733  9291 net.cpp:100] Creating Layer score_score_0_split
I1013 02:25:40.184736  9291 net.cpp:434] score_score_0_split <- score
I1013 02:25:40.184741  9291 net.cpp:408] score_score_0_split -> score_score_0_split_0
I1013 02:25:40.184746  9291 net.cpp:408] score_score_0_split -> score_score_0_split_1
I1013 02:25:40.184803  9291 net.cpp:150] Setting up score_score_0_split
I1013 02:25:40.184806  9291 net.cpp:157] Top shape: 100 10 (1000)
I1013 02:25:40.184809  9291 net.cpp:157] Top shape: 100 10 (1000)
I1013 02:25:40.184811  9291 net.cpp:165] Memory required for data: 222350800
I1013 02:25:40.184813  9291 layer_factory.hpp:77] Creating layer accuracy
I1013 02:25:40.184818  9291 net.cpp:100] Creating Layer accuracy
I1013 02:25:40.184834  9291 net.cpp:434] accuracy <- score_score_0_split_0
I1013 02:25:40.184837  9291 net.cpp:434] accuracy <- label_data_1_split_0
I1013 02:25:40.184841  9291 net.cpp:408] accuracy -> accuracy
…
