…
  stage: ""
}
type: "AdaGrad"
I1012 09:43:19.456568 10619 solver.cpp:81] Creating training net from train_net file: /home/adam/Honours/Honours-Project/cifar-10_allcnn/elu/allcnn_elu_train.prototxt
I1012 09:43:19.456872 10619 net.cpp:58] Initializing net from parameters: 
state {
  phase: TRAIN
  level: 0
  stage: ""
}
layer {
  name: "data"
  type: "Data"
  top: "data"
  top: "label"
  transform_param {
    mean_file: "mean.binaryproto"
  }
  data_param {
    source: "../../../data/cifar-10/cifar10_train_lmdb"
    batch_size: 64
    backend: LMDB
  }
}
layer {
  name: "conv1"
  type: "Convolution"
  bottom: "data"
  top: "conv1"
  convolution_param {
    num_output: 96
    kernel_size: 3
    weight_filler {
      type: "xavier"
    }
  }
}
layer {
  name: "conv2"
  type: "Convolution"
  bottom: "conv1"
  top: "conv2"
  convolution_param {
    num_output: 96
    kernel_size: 3
    weight_filler {
      type: "xavier"
    }
  }
}
layer {
  name: "bn1"
  type: "BatchNorm"
  bottom: "conv2"
  top: "bn1"
}
layer {
  name: "conv3"
  type: "Convolution"
  bottom: "bn1"
  top: "conv3"
  convolution_param {
    num_output: 96
    kernel_size: 3
    stride: 2
    weight_filler {
      type: "xavier"
    }
  }
}
layer {
  name: "drop1"
  type: "Dropout"
  bottom: "conv3"
  top: "drop1"
  dropout_param {
    dropout_ratio: 0.5
  }
}
layer {
  name: "elu3"
  type: "ELU"
  bottom: "drop1"
  top: "drop1"
}
layer {
  name: "conv4"
  type: "Convolution"
  bottom: "drop1"
  top: "conv4"
  convolution_param {
    num_output: 192
    kernel_size: 3
    weight_filler {
      type: "xavier"
    }
  }
}
layer {
  name: "conv5"
  type: "Convolution"
  bottom: "conv4"
  top: "conv5"
  convolution_param {
    num_output: 192
    kernel_size: 3
    weight_filler {
      type: "xavier"
    }
  }
}
layer {
  name: "bn2"
  type: "BatchNorm"
  bottom: "conv5"
  top: "bn2"
}
layer {
  name: "conv6"
  type: "Convolution"
  bottom: "bn2"
  top: "conv6"
  convolution_param {
    num_output: 192
    kernel_size: 3
    stride: 2
    weight_filler {
      type: "xavier"
    }
  }
}
layer {
  name: "drop4"
  type: "Dropout"
  bottom: "conv6"
  top: "drop4"
  dropout_param {
    dropout_ratio: 0.5
  }
}
layer {
  name: "elu6"
  type: "ELU"
  bottom: "drop4"
  top: "drop4"
}
layer {
  name: "conv7"
  type: "Convolution"
  bottom: "drop4"
  top: "conv7"
  convolution_param {
    num_output: 192
    kernel_size: 3
    weight_filler {
      type: "xavier"
    }
  }
}
layer {
  name: "elu7"
  type: "ELU"
  bottom: "conv7"
  top: "conv7"
}
layer {
  name: "conv8"
  type: "Convolution"
  bottom: "conv7"
  top: "conv8"
  convolution_param {
    num_output: 192
    kernel_size: 1
    weight_filler {
      type: "xavier"
    }
  }
}
layer {
  name: "elu8"
  type: "ELU"
  bottom: "conv8"
  top: "conv8"
}
layer {
  name: "conv9"
  type: "Convolution"
  bottom: "conv8"
  top: "conv9"
  convolution_param {
    num_output: 10
    kernel_size: 1
    weight_filler {
      type: "xavier"
    }
  }
}
layer {
  name: "elu9"
  type: "ELU"
  bottom: "conv9"
  top: "conv9"
}
layer {
  name: "pool"
  type: "Pooling"
  bottom: "conv9"
  top: "pool"
  pooling_param {
    pool: AVE
    global_pooling: true
  }
}
layer {
  name: "flatten"
  type: "Flatten"
  bottom: "pool"
  top: "flatten"
}
layer {
  name: "score"
  type: "InnerProduct"
  bottom: "flatten"
  top: "score"
  inner_product_param {
    num_output: 10
    weight_filler {
      type: "gaussian"
    }
  }
}
layer {
  name: "accuracy"
  type: "Accuracy"
  bottom: "score"
  bottom: "label"
  top: "accuracy"
}
layer {
  name: "loss"
  type: "SoftmaxWithLoss"
  bottom: "score"
  bottom: "label"
  top: "loss"
}
I1012 09:43:19.457010 10619 layer_factory.hpp:77] Creating layer data
I1012 09:43:19.457468 10619 net.cpp:100] Creating Layer data
I1012 09:43:19.457476 10619 net.cpp:408] data -> data
I1012 09:43:19.457494 10619 net.cpp:408] data -> label
I1012 09:43:19.457518 10619 data_transformer.cpp:25] Loading mean file from: mean.binaryproto
I1012 09:43:19.458150 10624 db_lmdb.cpp:35] Opened lmdb ../../../data/cifar-10/cifar10_train_lmdb
I1012 09:43:19.464512 10619 data_layer.cpp:41] output data size: 64,3,32,32
I1012 09:43:19.466071 10619 net.cpp:150] Setting up data
I1012 09:43:19.466099 10619 net.cpp:157] Top shape: 64 3 32 32 (196608)
I1012 09:43:19.466117 10619 net.cpp:157] Top shape: 64 (64)
I1012 09:43:19.466120 10619 net.cpp:165] Memory required for data: 786688
I1012 09:43:19.466128 10619 layer_factory.hpp:77] Creating layer label_data_1_split
I1012 09:43:19.466138 10619 net.cpp:100] Creating Layer label_data_1_split
I1012 09:43:19.466164 10619 net.cpp:434] label_data_1_split <- label
I1012 09:43:19.466184 10619 net.cpp:408] label_data_1_split -> label_data_1_split_0
I1012 09:43:19.466193 10619 net.cpp:408] label_data_1_split -> label_data_1_split_1
I1012 09:43:19.466265 10619 net.cpp:150] Setting up label_data_1_split
I1012 09:43:19.466269 10619 net.cpp:157] Top shape: 64 (64)
I1012 09:43:19.466272 10619 net.cpp:157] Top shape: 64 (64)
I1012 09:43:19.466289 10619 net.cpp:165] Memory required for data: 787200
I1012 09:43:19.466291 10619 layer_factory.hpp:77] Creating layer conv1
I1012 09:43:19.466303 10619 net.cpp:100] Creating Layer conv1
I1012 09:43:19.466323 10619 net.cpp:434] conv1 <- data
I1012 09:43:19.466327 10619 net.cpp:408] conv1 -> conv1
I1012 09:43:19.602388 10619 net.cpp:150] Setting up conv1
I1012 09:43:19.602412 10619 net.cpp:157] Top shape: 64 96 30 30 (5529600)
I1012 09:43:19.602416 10619 net.cpp:165] Memory required for data: 22905600
I1012 09:43:19.602432 10619 layer_factory.hpp:77] Creating layer conv2
I1012 09:43:19.602443 10619 net.cpp:100] Creating Layer conv2
I1012 09:43:19.602447 10619 net.cpp:434] conv2 <- conv1
I1012 09:43:19.602465 10619 net.cpp:408] conv2 -> conv2
I1012 09:43:19.603751 10619 net.cpp:150] Setting up conv2
I1012 09:43:19.603761 10619 net.cpp:157] Top shape: 64 96 28 28 (4816896)
I1012 09:43:19.603765 10619 net.cpp:165] Memory required for data: 42173184
I1012 09:43:19.603770 10619 layer_factory.hpp:77] Creating layer bn1
I1012 09:43:19.603775 10619 net.cpp:100] Creating Layer bn1
I1012 09:43:19.603778 10619 net.cpp:434] bn1 <- conv2
I1012 09:43:19.603781 10619 net.cpp:408] bn1 -> bn1
I1012 09:43:19.603951 10619 net.cpp:150] Setting up bn1
I1012 09:43:19.603956 10619 net.cpp:157] Top shape: 64 96 28 28 (4816896)
I1012 09:43:19.603958 10619 net.cpp:165] Memory required for data: 61440768
I1012 09:43:19.603965 10619 layer_factory.hpp:77] Creating layer conv3
I1012 09:43:19.603971 10619 net.cpp:100] Creating Layer conv3
I1012 09:43:19.603972 10619 net.cpp:434] conv3 <- bn1
I1012 09:43:19.603976 10619 net.cpp:408] conv3 -> conv3
I1012 09:43:19.605108 10619 net.cpp:150] Setting up conv3
I1012 09:43:19.605116 10619 net.cpp:157] Top shape: 64 96 13 13 (1038336)
I1012 09:43:19.605118 10619 net.cpp:165] Memory required for data: 65594112
I1012 09:43:19.605124 10619 layer_factory.hpp:77] Creating layer drop1
I1012 09:43:19.605129 10619 net.cpp:100] Creating Layer drop1
I1012 09:43:19.605131 10619 net.cpp:434] drop1 <- conv3
I1012 09:43:19.605134 10619 net.cpp:408] drop1 -> drop1
I1012 09:43:19.605192 10619 net.cpp:150] Setting up drop1
I1012 09:43:19.605197 10619 net.cpp:157] Top shape: 64 96 13 13 (1038336)
I1012 09:43:19.605200 10619 net.cpp:165] Memory required for data: 69747456
I1012 09:43:19.605218 10619 layer_factory.hpp:77] Creating layer elu3
I1012 09:43:19.605221 10619 net.cpp:100] Creating Layer elu3
I1012 09:43:19.605223 10619 net.cpp:434] elu3 <- drop1
I1012 09:43:19.605226 10619 net.cpp:395] elu3 -> drop1 (in-place)
I1012 09:43:19.605243 10619 net.cpp:150] Setting up elu3
I1012 09:43:19.605273 10619 net.cpp:157] Top shape: 64 96 13 13 (1038336)
I1012 09:43:19.605274 10619 net.cpp:165] Memory required for data: 73900800
I1012 09:43:19.605278 10619 layer_factory.hpp:77] Creating layer conv4
I1012 09:43:19.605283 10619 net.cpp:100] Creating Layer conv4
I1012 09:43:19.605299 10619 net.cpp:434] conv4 <- drop1
I1012 09:43:19.605304 10619 net.cpp:408] conv4 -> conv4
I1012 09:43:19.607095 10619 net.cpp:150] Setting up conv4
I1012 09:43:19.607105 10619 net.cpp:157] Top shape: 64 192 11 11 (1486848)
I1012 09:43:19.607107 10619 net.cpp:165] Memory required for data: 79848192
I1012 09:43:19.607111 10619 layer_factory.hpp:77] Creating layer conv5
I1012 09:43:19.607116 10619 net.cpp:100] Creating Layer conv5
I1012 09:43:19.607120 10619 net.cpp:434] conv5 <- conv4
I1012 09:43:19.607122 10619 net.cpp:408] conv5 -> conv5
I1012 09:43:19.609591 10619 net.cpp:150] Setting up conv5
I1012 09:43:19.609601 10619 net.cpp:157] Top shape: 64 192 9 9 (995328)
I1012 09:43:19.609604 10619 net.cpp:165] Memory required for data: 83829504
I1012 09:43:19.609608 10619 layer_factory.hpp:77] Creating layer bn2
I1012 09:43:19.609612 10619 net.cpp:100] Creating Layer bn2
I1012 09:43:19.609616 10619 net.cpp:434] bn2 <- conv5
I1012 09:43:19.609618 10619 net.cpp:408] bn2 -> bn2
I1012 09:43:19.609804 10619 net.cpp:150] Setting up bn2
I1012 09:43:19.609808 10619 net.cpp:157] Top shape: 64 192 9 9 (995328)
I1012 09:43:19.609810 10619 net.cpp:165] Memory required for data: 87810816
I1012 09:43:19.609815 10619 layer_factory.hpp:77] Creating layer conv6
I1012 09:43:19.609820 10619 net.cpp:100] Creating Layer conv6
I1012 09:43:19.609822 10619 net.cpp:434] conv6 <- bn2
I1012 09:43:19.609825 10619 net.cpp:408] conv6 -> conv6
I1012 09:43:19.612341 10619 net.cpp:150] Setting up conv6
I1012 09:43:19.612352 10619 net.cpp:157] Top shape: 64 192 4 4 (196608)
I1012 09:43:19.612355 10619 net.cpp:165] Memory required for data: 88597248
I1012 09:43:19.612363 10619 layer_factory.hpp:77] Creating layer drop4
I1012 09:43:19.612367 10619 net.cpp:100] Creating Layer drop4
I1012 09:43:19.612370 10619 net.cpp:434] drop4 <- conv6
I1012 09:43:19.612373 10619 net.cpp:408] drop4 -> drop4
I1012 09:43:19.612419 10619 net.cpp:150] Setting up drop4
I1012 09:43:19.612437 10619 net.cpp:157] Top shape: 64 192 4 4 (196608)
I1012 09:43:19.612439 10619 net.cpp:165] Memory required for data: 89383680
I1012 09:43:19.612442 10619 layer_factory.hpp:77] Creating layer elu6
I1012 09:43:19.612457 10619 net.cpp:100] Creating Layer elu6
I1012 09:43:19.612459 10619 net.cpp:434] elu6 <- drop4
I1012 09:43:19.612463 10619 net.cpp:395] elu6 -> drop4 (in-place)
I1012 09:43:19.612481 10619 net.cpp:150] Setting up elu6
I1012 09:43:19.612483 10619 net.cpp:157] Top shape: 64 192 4 4 (196608)
I1012 09:43:19.612485 10619 net.cpp:165] Memory required for data: 90170112
I1012 09:43:19.612488 10619 layer_factory.hpp:77] Creating layer conv7
I1012 09:43:19.612493 10619 net.cpp:100] Creating Layer conv7
I1012 09:43:19.612495 10619 net.cpp:434] conv7 <- drop4
I1012 09:43:19.612498 10619 net.cpp:408] conv7 -> conv7
I1012 09:43:19.615401 10619 net.cpp:150] Setting up conv7
I1012 09:43:19.615423 10619 net.cpp:157] Top shape: 64 192 2 2 (49152)
I1012 09:43:19.615427 10619 net.cpp:165] Memory required for data: 90366720
I1012 09:43:19.615448 10619 layer_factory.hpp:77] Creating layer elu7
I1012 09:43:19.615454 10619 net.cpp:100] Creating Layer elu7
I1012 09:43:19.615470 10619 net.cpp:434] elu7 <- conv7
I1012 09:43:19.615474 10619 net.cpp:395] elu7 -> conv7 (in-place)
I1012 09:43:19.615494 10619 net.cpp:150] Setting up elu7
I1012 09:43:19.615496 10619 net.cpp:157] Top shape: 64 192 2 2 (49152)
I1012 09:43:19.615499 10619 net.cpp:165] Memory required for data: 90563328
I1012 09:43:19.615514 10619 layer_factory.hpp:77] Creating layer conv8
I1012 09:43:19.615525 10619 net.cpp:100] Creating Layer conv8
I1012 09:43:19.615528 10619 net.cpp:434] conv8 <- conv7
I1012 09:43:19.615532 10619 net.cpp:408] conv8 -> conv8
I1012 09:43:19.616883 10619 net.cpp:150] Setting up conv8
I1012 09:43:19.616904 10619 net.cpp:157] Top shape: 64 192 2 2 (49152)
I1012 09:43:19.616906 10619 net.cpp:165] Memory required for data: 90759936
I1012 09:43:19.616911 10619 layer_factory.hpp:77] Creating layer elu8
I1012 09:43:19.616916 10619 net.cpp:100] Creating Layer elu8
I1012 09:43:19.616919 10619 net.cpp:434] elu8 <- conv8
I1012 09:43:19.616922 10619 net.cpp:395] elu8 -> conv8 (in-place)
I1012 09:43:19.616926 10619 net.cpp:150] Setting up elu8
I1012 09:43:19.616930 10619 net.cpp:157] Top shape: 64 192 2 2 (49152)
I1012 09:43:19.616931 10619 net.cpp:165] Memory required for data: 90956544
I1012 09:43:19.616933 10619 layer_factory.hpp:77] Creating layer conv9
I1012 09:43:19.616953 10619 net.cpp:100] Creating Layer conv9
I1012 09:43:19.616955 10619 net.cpp:434] conv9 <- conv8
I1012 09:43:19.616958 10619 net.cpp:408] conv9 -> conv9
I1012 09:43:19.617769 10619 net.cpp:150] Setting up conv9
I1012 09:43:19.617779 10619 net.cpp:157] Top shape: 64 10 2 2 (2560)
I1012 09:43:19.617780 10619 net.cpp:165] Memory required for data: 90966784
I1012 09:43:19.617784 10619 layer_factory.hpp:77] Creating layer elu9
I1012 09:43:19.617789 10619 net.cpp:100] Creating Layer elu9
I1012 09:43:19.617790 10619 net.cpp:434] elu9 <- conv9
I1012 09:43:19.617794 10619 net.cpp:395] elu9 -> conv9 (in-place)
I1012 09:43:19.617799 10619 net.cpp:150] Setting up elu9
I1012 09:43:19.617801 10619 net.cpp:157] Top shape: 64 10 2 2 (2560)
I1012 09:43:19.617802 10619 net.cpp:165] Memory required for data: 90977024
I1012 09:43:19.617805 10619 layer_factory.hpp:77] Creating layer pool
I1012 09:43:19.617810 10619 net.cpp:100] Creating Layer pool
I1012 09:43:19.617811 10619 net.cpp:434] pool <- conv9
I1012 09:43:19.617828 10619 net.cpp:408] pool -> pool
I1012 09:43:19.618185 10619 net.cpp:150] Setting up pool
I1012 09:43:19.618192 10619 net.cpp:157] Top shape: 64 10 1 1 (640)
I1012 09:43:19.618196 10619 net.cpp:165] Memory required for data: 90979584
I1012 09:43:19.618197 10619 layer_factory.hpp:77] Creating layer flatten
I1012 09:43:19.618201 10619 net.cpp:100] Creating Layer flatten
I1012 09:43:19.618203 10619 net.cpp:434] flatten <- pool
I1012 09:43:19.618207 10619 net.cpp:408] flatten -> flatten
I1012 09:43:19.618240 10619 net.cpp:150] Setting up flatten
I1012 09:43:19.618244 10619 net.cpp:157] Top shape: 64 10 (640)
I1012 09:43:19.618247 10619 net.cpp:165] Memory required for data: 90982144
I1012 09:43:19.618247 10619 layer_factory.hpp:77] Creating layer score
I1012 09:43:19.618252 10619 net.cpp:100] Creating Layer score
I1012 09:43:19.618259 10619 net.cpp:434] score <- flatten
I1012 09:43:19.618278 10619 net.cpp:408] score -> score
I1012 09:43:19.618420 10619 net.cpp:150] Setting up score
I1012 09:43:19.618425 10619 net.cpp:157] Top shape: 64 10 (640)
I1012 09:43:19.618427 10619 net.cpp:165] Memory required for data: 90984704
I1012 09:43:19.618432 10619 layer_factory.hpp:77] Creating layer score_score_0_split
I1012 09:43:19.618435 10619 net.cpp:100] Creating Layer score_score_0_split
I1012 09:43:19.618438 10619 net.cpp:434] score_score_0_split <- score
I1012 09:43:19.618440 10619 net.cpp:408] score_score_0_split -> score_score_0_split_0
I1012 09:43:19.618445 10619 net.cpp:408] score_score_0_split -> score_score_0_split_1
I1012 09:43:19.618485 10619 net.cpp:150] Setting up score_score_0_split
I1012 09:43:19.618489 10619 net.cpp:157] Top shape: 64 10 (640)
I1012 09:43:19.618492 10619 net.cpp:157] Top shape: 64 10 (640)
I1012 09:43:19.618507 10619 net.cpp:165] Memory required for data: 90989824
I1012 09:43:19.618510 10619 layer_factory.hpp:77] Creating layer accuracy
I1012 09:43:19.618515 10619 net.cpp:100] Creating Layer accuracy
I1012 09:43:19.618530 10619 net.cpp:434] accuracy <- score_score_0_split_0
I1012 09:43:19.618532 10619 net.cpp:434] accuracy <- label_data_1_split_0
I1012 09:43:19.618535 10619 net.cpp:408] accuracy -> accuracy
…
I1012 09:43:19.619025 10619 net.cpp:283] Network initialization done.
I1012 09:43:19.619258 10619 solver.cpp:181] Creating test net (#0) specified by test_net file: /home/adam/Honours/Honours-Project/cifar-10_allcnn/elu/allcnn_elu_test.prototxt
I1012 09:43:19.619395 10619 net.cpp:58] Initializing net from parameters: 
state {
  phase: TEST
}
layer {
  name: "data"
  type: "Data"
  top: "data"
  top: "label"
  transform_param {
    mean_file: "mean.binaryproto"
  }
  data_param {
    source: "../../../data/cifar-10/cifar10_test_lmdb"
    batch_size: 100
    backend: LMDB
  }
}
layer {
  name: "conv1"
  type: "Convolution"
  bottom: "data"
  top: "conv1"
  convolution_param {
    num_output: 96
    kernel_size: 3
    weight_filler {
      type: "xavier"
    }
  }
}
layer {
  name: "conv2"
  type: "Convolution"
  bottom: "conv1"
  top: "conv2"
  convolution_param {
    num_output: 96
    kernel_size: 3
    weight_filler {
      type: "xavier"
    }
  }
}
layer {
  name: "bn1"
  type: "BatchNorm"
  bottom: "conv2"
  top: "bn1"
}
layer {
  name: "conv3"
  type: "Convolution"
  bottom: "bn1"
  top: "conv3"
  convolution_param {
    num_output: 96
    kernel_size: 3
    stride: 2
    weight_filler {
      type: "xavier"
    }
  }
}
layer {
  name: "drop1"
  type: "Dropout"
  bottom: "conv3"
  top: "drop1"
  dropout_param {
    dropout_ratio: 0.5
  }
}
layer {
  name: "elu3"
  type: "ELU"
  bottom: "drop1"
  top: "drop1"
}
layer {
  name: "conv4"
  type: "Convolution"
  bottom: "drop1"
  top: "conv4"
  convolution_param {
    num_output: 192
    kernel_size: 3
    weight_filler {
      type: "xavier"
    }
  }
}
layer {
  name: "conv5"
  type: "Convolution"
  bottom: "conv4"
  top: "conv5"
  convolution_param {
    num_output: 192
    kernel_size: 3
    weight_filler {
      type: "xavier"
    }
  }
}
layer {
  name: "bn2"
  type: "BatchNorm"
  bottom: "conv5"
  top: "bn2"
}
layer {
  name: "conv6"
  type: "Convolution"
  bottom: "bn2"
  top: "conv6"
  convolution_param {
    num_output: 192
    kernel_size: 3
    stride: 2
    weight_filler {
      type: "xavier"
    }
  }
}
layer {
  name: "drop4"
  type: "Dropout"
  bottom: "conv6"
  top: "drop4"
  dropout_param {
    dropout_ratio: 0.5
  }
}
layer {
  name: "elu6"
  type: "ELU"
  bottom: "drop4"
  top: "drop4"
}
layer {
  name: "conv7"
  type: "Convolution"
  bottom: "drop4"
  top: "conv7"
  convolution_param {
    num_output: 192
    kernel_size: 3
    weight_filler {
      type: "xavier"
    }
  }
}
layer {
  name: "elu7"
  type: "ELU"
  bottom: "conv7"
  top: "conv7"
}
layer {
  name: "conv8"
  type: "Convolution"
  bottom: "conv7"
  top: "conv8"
  convolution_param {
    num_output: 192
    kernel_size: 1
    weight_filler {
      type: "xavier"
    }
  }
}
layer {
  name: "elu8"
  type: "ELU"
  bottom: "conv8"
  top: "conv8"
}
layer {
  name: "conv9"
  type: "Convolution"
  bottom: "conv8"
  top: "conv9"
  convolution_param {
    num_output: 10
    kernel_size: 1
    weight_filler {
      type: "xavier"
    }
  }
}
layer {
  name: "elu9"
  type: "ELU"
  bottom: "conv9"
  top: "conv9"
}
layer {
  name: "pool"
  type: "Pooling"
  bottom: "conv9"
  top: "pool"
  pooling_param {
    pool: AVE
    global_pooling: true
  }
}
layer {
  name: "flatten"
  type: "Flatten"
  bottom: "pool"
  top: "flatten"
}
layer {
  name: "score"
  type: "InnerProduct"
  bottom: "flatten"
  top: "score"
  inner_product_param {
    num_output: 10
    weight_filler {
      type: "gaussian"
    }
  }
}
layer {
  name: "accuracy"
  type: "Accuracy"
  bottom: "score"
  bottom: "label"
  top: "accuracy"
}
layer {
  name: "loss"
  type: "SoftmaxWithLoss"
  bottom: "score"
  bottom: "label"
  top: "loss"
}
I1012 09:43:19.619494 10619 layer_factory.hpp:77] Creating layer data
I1012 09:43:19.619632 10619 net.cpp:100] Creating Layer data
I1012 09:43:19.619638 10619 net.cpp:408] data -> data
I1012 09:43:19.619660 10619 net.cpp:408] data -> label
I1012 09:43:19.619666 10619 data_transformer.cpp:25] Loading mean file from: mean.binaryproto
I1012 09:43:19.620476 10626 db_lmdb.cpp:35] Opened lmdb ../../../data/cifar-10/cifar10_test_lmdb
I1012 09:43:19.620648 10619 data_layer.cpp:41] output data size: 100,3,32,32
I1012 09:43:19.622568 10619 net.cpp:150] Setting up data
I1012 09:43:19.622606 10619 net.cpp:157] Top shape: 100 3 32 32 (307200)
I1012 09:43:19.622611 10619 net.cpp:157] Top shape: 100 (100)
I1012 09:43:19.622612 10619 net.cpp:165] Memory required for data: 1229200
I1012 09:43:19.622617 10619 layer_factory.hpp:77] Creating layer label_data_1_split
I1012 09:43:19.622638 10619 net.cpp:100] Creating Layer label_data_1_split
I1012 09:43:19.622655 10619 net.cpp:434] label_data_1_split <- label
I1012 09:43:19.622660 10619 net.cpp:408] label_data_1_split -> label_data_1_split_0
I1012 09:43:19.622669 10619 net.cpp:408] label_data_1_split -> label_data_1_split_1
I1012 09:43:19.622740 10619 net.cpp:150] Setting up label_data_1_split
I1012 09:43:19.622745 10619 net.cpp:157] Top shape: 100 (100)
I1012 09:43:19.622747 10619 net.cpp:157] Top shape: 100 (100)
I1012 09:43:19.622748 10619 net.cpp:165] Memory required for data: 1230000
I1012 09:43:19.622751 10619 layer_factory.hpp:77] Creating layer conv1
I1012 09:43:19.622759 10619 net.cpp:100] Creating Layer conv1
I1012 09:43:19.622762 10619 net.cpp:434] conv1 <- data
I1012 09:43:19.622766 10619 net.cpp:408] conv1 -> conv1
I1012 09:43:19.623894 10619 net.cpp:150] Setting up conv1
I1012 09:43:19.623927 10619 net.cpp:157] Top shape: 100 96 30 30 (8640000)
I1012 09:43:19.623932 10619 net.cpp:165] Memory required for data: 35790000
I1012 09:43:19.623940 10619 layer_factory.hpp:77] Creating layer conv2
I1012 09:43:19.623947 10619 net.cpp:100] Creating Layer conv2
I1012 09:43:19.623951 10619 net.cpp:434] conv2 <- conv1
I1012 09:43:19.623970 10619 net.cpp:408] conv2 -> conv2
I1012 09:43:19.625283 10619 net.cpp:150] Setting up conv2
I1012 09:43:19.625308 10619 net.cpp:157] Top shape: 100 96 28 28 (7526400)
I1012 09:43:19.625311 10619 net.cpp:165] Memory required for data: 65895600
I1012 09:43:19.625319 10619 layer_factory.hpp:77] Creating layer bn1
I1012 09:43:19.625324 10619 net.cpp:100] Creating Layer bn1
I1012 09:43:19.625326 10619 net.cpp:434] bn1 <- conv2
I1012 09:43:19.625330 10619 net.cpp:408] bn1 -> bn1
I1012 09:43:19.625526 10619 net.cpp:150] Setting up bn1
I1012 09:43:19.625532 10619 net.cpp:157] Top shape: 100 96 28 28 (7526400)
I1012 09:43:19.625550 10619 net.cpp:165] Memory required for data: 96001200
I1012 09:43:19.625555 10619 layer_factory.hpp:77] Creating layer conv3
I1012 09:43:19.625574 10619 net.cpp:100] Creating Layer conv3
I1012 09:43:19.625576 10619 net.cpp:434] conv3 <- bn1
I1012 09:43:19.625581 10619 net.cpp:408] conv3 -> conv3
I1012 09:43:19.626766 10619 net.cpp:150] Setting up conv3
I1012 09:43:19.626791 10619 net.cpp:157] Top shape: 100 96 13 13 (1622400)
I1012 09:43:19.626793 10619 net.cpp:165] Memory required for data: 102490800
I1012 09:43:19.626801 10619 layer_factory.hpp:77] Creating layer drop1
I1012 09:43:19.626806 10619 net.cpp:100] Creating Layer drop1
I1012 09:43:19.626809 10619 net.cpp:434] drop1 <- conv3
I1012 09:43:19.626813 10619 net.cpp:408] drop1 -> drop1
I1012 09:43:19.626847 10619 net.cpp:150] Setting up drop1
I1012 09:43:19.626852 10619 net.cpp:157] Top shape: 100 96 13 13 (1622400)
I1012 09:43:19.626853 10619 net.cpp:165] Memory required for data: 108980400
I1012 09:43:19.626869 10619 layer_factory.hpp:77] Creating layer elu3
I1012 09:43:19.626873 10619 net.cpp:100] Creating Layer elu3
I1012 09:43:19.626874 10619 net.cpp:434] elu3 <- drop1
I1012 09:43:19.626891 10619 net.cpp:395] elu3 -> drop1 (in-place)
I1012 09:43:19.626895 10619 net.cpp:150] Setting up elu3
I1012 09:43:19.626899 10619 net.cpp:157] Top shape: 100 96 13 13 (1622400)
I1012 09:43:19.626900 10619 net.cpp:165] Memory required for data: 115470000
I1012 09:43:19.626915 10619 layer_factory.hpp:77] Creating layer conv4
I1012 09:43:19.626921 10619 net.cpp:100] Creating Layer conv4
I1012 09:43:19.626924 10619 net.cpp:434] conv4 <- drop1
I1012 09:43:19.626940 10619 net.cpp:408] conv4 -> conv4
I1012 09:43:19.628708 10619 net.cpp:150] Setting up conv4
I1012 09:43:19.628734 10619 net.cpp:157] Top shape: 100 192 11 11 (2323200)
I1012 09:43:19.628736 10619 net.cpp:165] Memory required for data: 124762800
I1012 09:43:19.628741 10619 layer_factory.hpp:77] Creating layer conv5
I1012 09:43:19.628747 10619 net.cpp:100] Creating Layer conv5
I1012 09:43:19.628749 10619 net.cpp:434] conv5 <- conv4
I1012 09:43:19.628754 10619 net.cpp:408] conv5 -> conv5
I1012 09:43:19.632144 10619 net.cpp:150] Setting up conv5
I1012 09:43:19.632161 10619 net.cpp:157] Top shape: 100 192 9 9 (1555200)
I1012 09:43:19.632164 10619 net.cpp:165] Memory required for data: 130983600
I1012 09:43:19.632184 10619 layer_factory.hpp:77] Creating layer bn2
I1012 09:43:19.632190 10619 net.cpp:100] Creating Layer bn2
I1012 09:43:19.632192 10619 net.cpp:434] bn2 <- conv5
I1012 09:43:19.632197 10619 net.cpp:408] bn2 -> bn2
I1012 09:43:19.632443 10619 net.cpp:150] Setting up bn2
I1012 09:43:19.632449 10619 net.cpp:157] Top shape: 100 192 9 9 (1555200)
I1012 09:43:19.632467 10619 net.cpp:165] Memory required for data: 137204400
I1012 09:43:19.632472 10619 layer_factory.hpp:77] Creating layer conv6
I1012 09:43:19.632477 10619 net.cpp:100] Creating Layer conv6
I1012 09:43:19.632479 10619 net.cpp:434] conv6 <- bn2
I1012 09:43:19.632483 10619 net.cpp:408] conv6 -> conv6
I1012 09:43:19.635294 10619 net.cpp:150] Setting up conv6
I1012 09:43:19.635321 10619 net.cpp:157] Top shape: 100 192 4 4 (307200)
I1012 09:43:19.635324 10619 net.cpp:165] Memory required for data: 138433200
I1012 09:43:19.635334 10619 layer_factory.hpp:77] Creating layer drop4
I1012 09:43:19.635339 10619 net.cpp:100] Creating Layer drop4
I1012 09:43:19.635342 10619 net.cpp:434] drop4 <- conv6
I1012 09:43:19.635346 10619 net.cpp:408] drop4 -> drop4
I1012 09:43:19.635409 10619 net.cpp:150] Setting up drop4
I1012 09:43:19.635427 10619 net.cpp:157] Top shape: 100 192 4 4 (307200)
I1012 09:43:19.635429 10619 net.cpp:165] Memory required for data: 139662000
I1012 09:43:19.635432 10619 layer_factory.hpp:77] Creating layer elu6
I1012 09:43:19.635447 10619 net.cpp:100] Creating Layer elu6
I1012 09:43:19.635450 10619 net.cpp:434] elu6 <- drop4
I1012 09:43:19.635453 10619 net.cpp:395] elu6 -> drop4 (in-place)
I1012 09:43:19.635471 10619 net.cpp:150] Setting up elu6
I1012 09:43:19.635474 10619 net.cpp:157] Top shape: 100 192 4 4 (307200)
I1012 09:43:19.635476 10619 net.cpp:165] Memory required for data: 140890800
I1012 09:43:19.635478 10619 layer_factory.hpp:77] Creating layer conv7
I1012 09:43:19.635496 10619 net.cpp:100] Creating Layer conv7
I1012 09:43:19.635499 10619 net.cpp:434] conv7 <- drop4
I1012 09:43:19.635516 10619 net.cpp:408] conv7 -> conv7
I1012 09:43:19.638067 10619 net.cpp:150] Setting up conv7
I1012 09:43:19.638078 10619 net.cpp:157] Top shape: 100 192 2 2 (76800)
I1012 09:43:19.638080 10619 net.cpp:165] Memory required for data: 141198000
I1012 09:43:19.638084 10619 layer_factory.hpp:77] Creating layer elu7
I1012 09:43:19.638088 10619 net.cpp:100] Creating Layer elu7
I1012 09:43:19.638090 10619 net.cpp:434] elu7 <- conv7
I1012 09:43:19.638094 10619 net.cpp:395] elu7 -> conv7 (in-place)
I1012 09:43:19.638099 10619 net.cpp:150] Setting up elu7
I1012 09:43:19.638101 10619 net.cpp:157] Top shape: 100 192 2 2 (76800)
I1012 09:43:19.638103 10619 net.cpp:165] Memory required for data: 141505200
I1012 09:43:19.638105 10619 layer_factory.hpp:77] Creating layer conv8
I1012 09:43:19.638128 10619 net.cpp:100] Creating Layer conv8
I1012 09:43:19.638129 10619 net.cpp:434] conv8 <- conv7
I1012 09:43:19.638133 10619 net.cpp:408] conv8 -> conv8
I1012 09:43:19.639143 10619 net.cpp:150] Setting up conv8
I1012 09:43:19.639153 10619 net.cpp:157] Top shape: 100 192 2 2 (76800)
I1012 09:43:19.639155 10619 net.cpp:165] Memory required for data: 141812400
I1012 09:43:19.639160 10619 layer_factory.hpp:77] Creating layer elu8
I1012 09:43:19.639163 10619 net.cpp:100] Creating Layer elu8
I1012 09:43:19.639165 10619 net.cpp:434] elu8 <- conv8
I1012 09:43:19.639168 10619 net.cpp:395] elu8 -> conv8 (in-place)
I1012 09:43:19.639173 10619 net.cpp:150] Setting up elu8
I1012 09:43:19.639175 10619 net.cpp:157] Top shape: 100 192 2 2 (76800)
I1012 09:43:19.639178 10619 net.cpp:165] Memory required for data: 142119600
I1012 09:43:19.639179 10619 layer_factory.hpp:77] Creating layer conv9
I1012 09:43:19.639184 10619 net.cpp:100] Creating Layer conv9
I1012 09:43:19.639201 10619 net.cpp:434] conv9 <- conv8
I1012 09:43:19.639205 10619 net.cpp:408] conv9 -> conv9
I1012 09:43:19.640051 10619 net.cpp:150] Setting up conv9
I1012 09:43:19.640060 10619 net.cpp:157] Top shape: 100 10 2 2 (4000)
I1012 09:43:19.640063 10619 net.cpp:165] Memory required for data: 142135600
I1012 09:43:19.640066 10619 layer_factory.hpp:77] Creating layer elu9
I1012 09:43:19.640070 10619 net.cpp:100] Creating Layer elu9
I1012 09:43:19.640072 10619 net.cpp:434] elu9 <- conv9
I1012 09:43:19.640076 10619 net.cpp:395] elu9 -> conv9 (in-place)
I1012 09:43:19.640080 10619 net.cpp:150] Setting up elu9
I1012 09:43:19.640084 10619 net.cpp:157] Top shape: 100 10 2 2 (4000)
I1012 09:43:19.640085 10619 net.cpp:165] Memory required for data: 142151600
I1012 09:43:19.640087 10619 layer_factory.hpp:77] Creating layer pool
I1012 09:43:19.640090 10619 net.cpp:100] Creating Layer pool
I1012 09:43:19.640107 10619 net.cpp:434] pool <- conv9
I1012 09:43:19.640110 10619 net.cpp:408] pool -> pool
I1012 09:43:19.640400 10619 net.cpp:150] Setting up pool
I1012 09:43:19.640408 10619 net.cpp:157] Top shape: 100 10 1 1 (1000)
I1012 09:43:19.640419 10619 net.cpp:165] Memory required for data: 142155600
I1012 09:43:19.640421 10619 layer_factory.hpp:77] Creating layer flatten
I1012 09:43:19.640425 10619 net.cpp:100] Creating Layer flatten
I1012 09:43:19.640427 10619 net.cpp:434] flatten <- pool
I1012 09:43:19.640431 10619 net.cpp:408] flatten -> flatten
I1012 09:43:19.640466 10619 net.cpp:150] Setting up flatten
I1012 09:43:19.640471 10619 net.cpp:157] Top shape: 100 10 (1000)
I1012 09:43:19.640472 10619 net.cpp:165] Memory required for data: 142159600
I1012 09:43:19.640475 10619 layer_factory.hpp:77] Creating layer score
I1012 09:43:19.640494 10619 net.cpp:100] Creating Layer score
I1012 09:43:19.640497 10619 net.cpp:434] score <- flatten
I1012 09:43:19.640514 10619 net.cpp:408] score -> score
I1012 09:43:19.640646 10619 net.cpp:150] Setting up score
I1012 09:43:19.640652 10619 net.cpp:157] Top shape: 100 10 (1000)
I1012 09:43:19.640655 10619 net.cpp:165] Memory required for data: 142163600
I1012 09:43:19.640657 10619 layer_factory.hpp:77] Creating layer score_score_0_split
I1012 09:43:19.640661 10619 net.cpp:100] Creating Layer score_score_0_split
I1012 09:43:19.640663 10619 net.cpp:434] score_score_0_split <- score
I1012 09:43:19.640666 10619 net.cpp:408] score_score_0_split -> score_score_0_split_0
I1012 09:43:19.640671 10619 net.cpp:408] score_score_0_split -> score_score_0_split_1
I1012 09:43:19.640714 10619 net.cpp:150] Setting up score_score_0_split
I1012 09:43:19.640718 10619 net.cpp:157] Top shape: 100 10 (1000)
I1012 09:43:19.640720 10619 net.cpp:157] Top shape: 100 10 (1000)
I1012 09:43:19.640722 10619 net.cpp:165] Memory required for data: 142171600
I1012 09:43:19.640738 10619 layer_factory.hpp:77] Creating layer accuracy
I1012 09:43:19.640743 10619 net.cpp:100] Creating Layer accuracy
I1012 09:43:19.640745 10619 net.cpp:434] accuracy <- score_score_0_split_0
I1012 09:43:19.640761 10619 net.cpp:434] accuracy <- label_data_1_split_0
I1012 09:43:19.640764 10619 net.cpp:408] accuracy -> accuracy
…
