…
  stage: ""
}
type: "RMSProp"
I1012 04:14:46.845921  8422 solver.cpp:81] Creating training net from train_net file: /home/adam/Honours/Honours-Project/cifar-10_allcnn/relu/allcnn_relu_train.prototxt
I1012 04:14:46.846257  8422 net.cpp:58] Initializing net from parameters: 
state {
  phase: TRAIN
  level: 0
  stage: ""
}
layer {
  name: "data"
  type: "Data"
  top: "data"
  top: "label"
  transform_param {
    mean_file: "mean.binaryproto"
  }
  data_param {
    source: "../../../data/cifar-10/cifar10_train_lmdb"
    batch_size: 64
    backend: LMDB
  }
}
layer {
  name: "conv1"
  type: "Convolution"
  bottom: "data"
  top: "conv1"
  convolution_param {
    num_output: 96
    kernel_size: 3
    weight_filler {
      type: "xavier"
    }
  }
}
layer {
  name: "conv2"
  type: "Convolution"
  bottom: "conv1"
  top: "conv2"
  convolution_param {
    num_output: 96
    kernel_size: 3
    weight_filler {
      type: "xavier"
    }
  }
}
layer {
  name: "bn1"
  type: "BatchNorm"
  bottom: "conv2"
  top: "bn1"
}
layer {
  name: "conv3"
  type: "Convolution"
  bottom: "bn1"
  top: "conv3"
  convolution_param {
    num_output: 96
    kernel_size: 3
    stride: 2
    weight_filler {
      type: "xavier"
    }
  }
}
layer {
  name: "drop1"
  type: "Dropout"
  bottom: "conv3"
  top: "drop1"
  dropout_param {
    dropout_ratio: 0.5
  }
}
layer {
  name: "relu3"
  type: "ReLU"
  bottom: "drop1"
  top: "drop1"
}
layer {
  name: "conv4"
  type: "Convolution"
  bottom: "drop1"
  top: "conv4"
  convolution_param {
    num_output: 192
    kernel_size: 3
    weight_filler {
      type: "xavier"
    }
  }
}
layer {
  name: "conv5"
  type: "Convolution"
  bottom: "conv4"
  top: "conv5"
  convolution_param {
    num_output: 192
    kernel_size: 3
    weight_filler {
      type: "xavier"
    }
  }
}
layer {
  name: "bn2"
  type: "BatchNorm"
  bottom: "conv5"
  top: "bn2"
}
layer {
  name: "conv6"
  type: "Convolution"
  bottom: "bn2"
  top: "conv6"
  convolution_param {
    num_output: 192
    kernel_size: 3
    stride: 2
    weight_filler {
      type: "xavier"
    }
  }
}
layer {
  name: "drop4"
  type: "Dropout"
  bottom: "conv6"
  top: "drop4"
  dropout_param {
    dropout_ratio: 0.5
  }
}
layer {
  name: "relu6"
  type: "ReLU"
  bottom: "drop4"
  top: "drop4"
}
layer {
  name: "conv7"
  type: "Convolution"
  bottom: "drop4"
  top: "conv7"
  convolution_param {
    num_output: 192
    kernel_size: 3
    weight_filler {
      type: "xavier"
    }
  }
}
layer {
  name: "relu7"
  type: "ReLU"
  bottom: "conv7"
  top: "conv7"
}
layer {
  name: "conv8"
  type: "Convolution"
  bottom: "conv7"
  top: "conv8"
  convolution_param {
    num_output: 192
    kernel_size: 1
    weight_filler {
      type: "xavier"
    }
  }
}
layer {
  name: "relu8"
  type: "ReLU"
  bottom: "conv8"
  top: "conv8"
}
layer {
  name: "conv9"
  type: "Convolution"
  bottom: "conv8"
  top: "conv9"
  convolution_param {
    num_output: 10
    kernel_size: 1
    weight_filler {
      type: "xavier"
    }
  }
}
layer {
  name: "relu9"
  type: "ReLU"
  bottom: "conv9"
  top: "conv9"
}
layer {
  name: "pool"
  type: "Pooling"
  bottom: "conv9"
  top: "pool"
  pooling_param {
    pool: AVE
    global_pooling: true
  }
}
layer {
  name: "flatten"
  type: "Flatten"
  bottom: "pool"
  top: "flatten"
}
layer {
  name: "score"
  type: "InnerProduct"
  bottom: "flatten"
  top: "score"
  inner_product_param {
    num_output: 10
    weight_filler {
      type: "gaussian"
    }
  }
}
layer {
  name: "accuracy"
  type: "Accuracy"
  bottom: "score"
  bottom: "label"
  top: "accuracy"
}
layer {
  name: "loss"
  type: "SoftmaxWithLoss"
  bottom: "score"
  bottom: "label"
  top: "loss"
}
I1012 04:14:46.846410  8422 layer_factory.hpp:77] Creating layer data
I1012 04:14:46.846909  8422 net.cpp:100] Creating Layer data
I1012 04:14:46.846917  8422 net.cpp:408] data -> data
I1012 04:14:46.846948  8422 net.cpp:408] data -> label
I1012 04:14:46.846972  8422 data_transformer.cpp:25] Loading mean file from: mean.binaryproto
I1012 04:14:46.847600  8427 db_lmdb.cpp:35] Opened lmdb ../../../data/cifar-10/cifar10_train_lmdb
I1012 04:14:46.853843  8422 data_layer.cpp:41] output data size: 64,3,32,32
I1012 04:14:46.855408  8422 net.cpp:150] Setting up data
I1012 04:14:46.855438  8422 net.cpp:157] Top shape: 64 3 32 32 (196608)
I1012 04:14:46.855443  8422 net.cpp:157] Top shape: 64 (64)
I1012 04:14:46.855444  8422 net.cpp:165] Memory required for data: 786688
I1012 04:14:46.855466  8422 layer_factory.hpp:77] Creating layer label_data_1_split
I1012 04:14:46.855478  8422 net.cpp:100] Creating Layer label_data_1_split
I1012 04:14:46.855482  8422 net.cpp:434] label_data_1_split <- label
I1012 04:14:46.855492  8422 net.cpp:408] label_data_1_split -> label_data_1_split_0
I1012 04:14:46.855502  8422 net.cpp:408] label_data_1_split -> label_data_1_split_1
I1012 04:14:46.855589  8422 net.cpp:150] Setting up label_data_1_split
I1012 04:14:46.855594  8422 net.cpp:157] Top shape: 64 (64)
I1012 04:14:46.855597  8422 net.cpp:157] Top shape: 64 (64)
I1012 04:14:46.855598  8422 net.cpp:165] Memory required for data: 787200
I1012 04:14:46.855600  8422 layer_factory.hpp:77] Creating layer conv1
I1012 04:14:46.855640  8422 net.cpp:100] Creating Layer conv1
I1012 04:14:46.855643  8422 net.cpp:434] conv1 <- data
I1012 04:14:46.855648  8422 net.cpp:408] conv1 -> conv1
I1012 04:14:46.993486  8422 net.cpp:150] Setting up conv1
I1012 04:14:46.993511  8422 net.cpp:157] Top shape: 64 96 30 30 (5529600)
I1012 04:14:46.993515  8422 net.cpp:165] Memory required for data: 22905600
I1012 04:14:46.993531  8422 layer_factory.hpp:77] Creating layer conv2
I1012 04:14:46.993543  8422 net.cpp:100] Creating Layer conv2
I1012 04:14:46.993546  8422 net.cpp:434] conv2 <- conv1
I1012 04:14:46.993551  8422 net.cpp:408] conv2 -> conv2
I1012 04:14:46.994911  8422 net.cpp:150] Setting up conv2
I1012 04:14:46.994921  8422 net.cpp:157] Top shape: 64 96 28 28 (4816896)
I1012 04:14:46.994940  8422 net.cpp:165] Memory required for data: 42173184
I1012 04:14:46.994947  8422 layer_factory.hpp:77] Creating layer bn1
I1012 04:14:46.994954  8422 net.cpp:100] Creating Layer bn1
I1012 04:14:46.994956  8422 net.cpp:434] bn1 <- conv2
I1012 04:14:46.994974  8422 net.cpp:408] bn1 -> bn1
I1012 04:14:46.995167  8422 net.cpp:150] Setting up bn1
I1012 04:14:46.995172  8422 net.cpp:157] Top shape: 64 96 28 28 (4816896)
I1012 04:14:46.995174  8422 net.cpp:165] Memory required for data: 61440768
I1012 04:14:46.995180  8422 layer_factory.hpp:77] Creating layer conv3
I1012 04:14:46.995187  8422 net.cpp:100] Creating Layer conv3
I1012 04:14:46.995188  8422 net.cpp:434] conv3 <- bn1
I1012 04:14:46.995193  8422 net.cpp:408] conv3 -> conv3
I1012 04:14:46.996348  8422 net.cpp:150] Setting up conv3
I1012 04:14:46.996357  8422 net.cpp:157] Top shape: 64 96 13 13 (1038336)
I1012 04:14:46.996359  8422 net.cpp:165] Memory required for data: 65594112
I1012 04:14:46.996366  8422 layer_factory.hpp:77] Creating layer drop1
I1012 04:14:46.996371  8422 net.cpp:100] Creating Layer drop1
I1012 04:14:46.996372  8422 net.cpp:434] drop1 <- conv3
I1012 04:14:46.996376  8422 net.cpp:408] drop1 -> drop1
I1012 04:14:46.996438  8422 net.cpp:150] Setting up drop1
I1012 04:14:46.996455  8422 net.cpp:157] Top shape: 64 96 13 13 (1038336)
I1012 04:14:46.996456  8422 net.cpp:165] Memory required for data: 69747456
I1012 04:14:46.996459  8422 layer_factory.hpp:77] Creating layer relu3
I1012 04:14:46.996462  8422 net.cpp:100] Creating Layer relu3
I1012 04:14:46.996479  8422 net.cpp:434] relu3 <- drop1
I1012 04:14:46.996484  8422 net.cpp:395] relu3 -> drop1 (in-place)
I1012 04:14:46.996764  8422 net.cpp:150] Setting up relu3
I1012 04:14:46.996773  8422 net.cpp:157] Top shape: 64 96 13 13 (1038336)
I1012 04:14:46.996775  8422 net.cpp:165] Memory required for data: 73900800
I1012 04:14:46.996778  8422 layer_factory.hpp:77] Creating layer conv4
I1012 04:14:46.996784  8422 net.cpp:100] Creating Layer conv4
I1012 04:14:46.996786  8422 net.cpp:434] conv4 <- drop1
I1012 04:14:46.996791  8422 net.cpp:408] conv4 -> conv4
I1012 04:14:46.998613  8422 net.cpp:150] Setting up conv4
I1012 04:14:46.998625  8422 net.cpp:157] Top shape: 64 192 11 11 (1486848)
I1012 04:14:46.998626  8422 net.cpp:165] Memory required for data: 79848192
I1012 04:14:46.998631  8422 layer_factory.hpp:77] Creating layer conv5
I1012 04:14:46.998636  8422 net.cpp:100] Creating Layer conv5
I1012 04:14:46.998638  8422 net.cpp:434] conv5 <- conv4
I1012 04:14:46.998643  8422 net.cpp:408] conv5 -> conv5
I1012 04:14:47.001085  8422 net.cpp:150] Setting up conv5
I1012 04:14:47.001096  8422 net.cpp:157] Top shape: 64 192 9 9 (995328)
I1012 04:14:47.001097  8422 net.cpp:165] Memory required for data: 83829504
I1012 04:14:47.001102  8422 layer_factory.hpp:77] Creating layer bn2
I1012 04:14:47.001106  8422 net.cpp:100] Creating Layer bn2
I1012 04:14:47.001108  8422 net.cpp:434] bn2 <- conv5
I1012 04:14:47.001113  8422 net.cpp:408] bn2 -> bn2
I1012 04:14:47.001312  8422 net.cpp:150] Setting up bn2
I1012 04:14:47.001317  8422 net.cpp:157] Top shape: 64 192 9 9 (995328)
I1012 04:14:47.001319  8422 net.cpp:165] Memory required for data: 87810816
I1012 04:14:47.001323  8422 layer_factory.hpp:77] Creating layer conv6
I1012 04:14:47.001328  8422 net.cpp:100] Creating Layer conv6
I1012 04:14:47.001330  8422 net.cpp:434] conv6 <- bn2
I1012 04:14:47.001334  8422 net.cpp:408] conv6 -> conv6
I1012 04:14:47.003845  8422 net.cpp:150] Setting up conv6
I1012 04:14:47.003856  8422 net.cpp:157] Top shape: 64 192 4 4 (196608)
I1012 04:14:47.003859  8422 net.cpp:165] Memory required for data: 88597248
I1012 04:14:47.003865  8422 layer_factory.hpp:77] Creating layer drop4
I1012 04:14:47.003870  8422 net.cpp:100] Creating Layer drop4
I1012 04:14:47.003873  8422 net.cpp:434] drop4 <- conv6
I1012 04:14:47.003877  8422 net.cpp:408] drop4 -> drop4
I1012 04:14:47.003937  8422 net.cpp:150] Setting up drop4
I1012 04:14:47.003942  8422 net.cpp:157] Top shape: 64 192 4 4 (196608)
I1012 04:14:47.003944  8422 net.cpp:165] Memory required for data: 89383680
I1012 04:14:47.003947  8422 layer_factory.hpp:77] Creating layer relu6
I1012 04:14:47.003950  8422 net.cpp:100] Creating Layer relu6
I1012 04:14:47.003952  8422 net.cpp:434] relu6 <- drop4
I1012 04:14:47.003955  8422 net.cpp:395] relu6 -> drop4 (in-place)
I1012 04:14:47.004211  8422 net.cpp:150] Setting up relu6
I1012 04:14:47.004220  8422 net.cpp:157] Top shape: 64 192 4 4 (196608)
I1012 04:14:47.004235  8422 net.cpp:165] Memory required for data: 90170112
I1012 04:14:47.004237  8422 layer_factory.hpp:77] Creating layer conv7
I1012 04:14:47.004245  8422 net.cpp:100] Creating Layer conv7
I1012 04:14:47.004248  8422 net.cpp:434] conv7 <- drop4
I1012 04:14:47.004252  8422 net.cpp:408] conv7 -> conv7
I1012 04:14:47.007889  8422 net.cpp:150] Setting up conv7
I1012 04:14:47.007910  8422 net.cpp:157] Top shape: 64 192 2 2 (49152)
I1012 04:14:47.007912  8422 net.cpp:165] Memory required for data: 90366720
I1012 04:14:47.007917  8422 layer_factory.hpp:77] Creating layer relu7
I1012 04:14:47.007923  8422 net.cpp:100] Creating Layer relu7
I1012 04:14:47.007926  8422 net.cpp:434] relu7 <- conv7
I1012 04:14:47.007931  8422 net.cpp:395] relu7 -> conv7 (in-place)
I1012 04:14:47.008198  8422 net.cpp:150] Setting up relu7
I1012 04:14:47.008206  8422 net.cpp:157] Top shape: 64 192 2 2 (49152)
I1012 04:14:47.008208  8422 net.cpp:165] Memory required for data: 90563328
I1012 04:14:47.008210  8422 layer_factory.hpp:77] Creating layer conv8
I1012 04:14:47.008221  8422 net.cpp:100] Creating Layer conv8
I1012 04:14:47.008224  8422 net.cpp:434] conv8 <- conv7
I1012 04:14:47.008227  8422 net.cpp:408] conv8 -> conv8
I1012 04:14:47.009466  8422 net.cpp:150] Setting up conv8
I1012 04:14:47.009485  8422 net.cpp:157] Top shape: 64 192 2 2 (49152)
I1012 04:14:47.009487  8422 net.cpp:165] Memory required for data: 90759936
I1012 04:14:47.009491  8422 layer_factory.hpp:77] Creating layer relu8
I1012 04:14:47.009496  8422 net.cpp:100] Creating Layer relu8
I1012 04:14:47.009498  8422 net.cpp:434] relu8 <- conv8
I1012 04:14:47.009501  8422 net.cpp:395] relu8 -> conv8 (in-place)
I1012 04:14:47.009754  8422 net.cpp:150] Setting up relu8
I1012 04:14:47.009763  8422 net.cpp:157] Top shape: 64 192 2 2 (49152)
I1012 04:14:47.009764  8422 net.cpp:165] Memory required for data: 90956544
I1012 04:14:47.009768  8422 layer_factory.hpp:77] Creating layer conv9
I1012 04:14:47.009774  8422 net.cpp:100] Creating Layer conv9
I1012 04:14:47.009778  8422 net.cpp:434] conv9 <- conv8
I1012 04:14:47.009781  8422 net.cpp:408] conv9 -> conv9
I1012 04:14:47.010602  8422 net.cpp:150] Setting up conv9
I1012 04:14:47.010612  8422 net.cpp:157] Top shape: 64 10 2 2 (2560)
I1012 04:14:47.010614  8422 net.cpp:165] Memory required for data: 90966784
I1012 04:14:47.010618  8422 layer_factory.hpp:77] Creating layer relu9
I1012 04:14:47.010623  8422 net.cpp:100] Creating Layer relu9
I1012 04:14:47.010627  8422 net.cpp:434] relu9 <- conv9
I1012 04:14:47.010629  8422 net.cpp:395] relu9 -> conv9 (in-place)
I1012 04:14:47.010882  8422 net.cpp:150] Setting up relu9
I1012 04:14:47.010890  8422 net.cpp:157] Top shape: 64 10 2 2 (2560)
I1012 04:14:47.010892  8422 net.cpp:165] Memory required for data: 90977024
I1012 04:14:47.010895  8422 layer_factory.hpp:77] Creating layer pool
I1012 04:14:47.010900  8422 net.cpp:100] Creating Layer pool
I1012 04:14:47.010902  8422 net.cpp:434] pool <- conv9
I1012 04:14:47.010905  8422 net.cpp:408] pool -> pool
I1012 04:14:47.011101  8422 net.cpp:150] Setting up pool
I1012 04:14:47.011106  8422 net.cpp:157] Top shape: 64 10 1 1 (640)
I1012 04:14:47.011107  8422 net.cpp:165] Memory required for data: 90979584
I1012 04:14:47.011109  8422 layer_factory.hpp:77] Creating layer flatten
I1012 04:14:47.011113  8422 net.cpp:100] Creating Layer flatten
I1012 04:14:47.011116  8422 net.cpp:434] flatten <- pool
I1012 04:14:47.011119  8422 net.cpp:408] flatten -> flatten
I1012 04:14:47.011137  8422 net.cpp:150] Setting up flatten
I1012 04:14:47.011155  8422 net.cpp:157] Top shape: 64 10 (640)
I1012 04:14:47.011157  8422 net.cpp:165] Memory required for data: 90982144
I1012 04:14:47.011159  8422 layer_factory.hpp:77] Creating layer score
I1012 04:14:47.011164  8422 net.cpp:100] Creating Layer score
I1012 04:14:47.011167  8422 net.cpp:434] score <- flatten
I1012 04:14:47.011169  8422 net.cpp:408] score -> score
I1012 04:14:47.011315  8422 net.cpp:150] Setting up score
I1012 04:14:47.011320  8422 net.cpp:157] Top shape: 64 10 (640)
I1012 04:14:47.011322  8422 net.cpp:165] Memory required for data: 90984704
I1012 04:14:47.011327  8422 layer_factory.hpp:77] Creating layer score_score_0_split
I1012 04:14:47.011330  8422 net.cpp:100] Creating Layer score_score_0_split
I1012 04:14:47.011332  8422 net.cpp:434] score_score_0_split <- score
I1012 04:14:47.011335  8422 net.cpp:408] score_score_0_split -> score_score_0_split_0
I1012 04:14:47.011340  8422 net.cpp:408] score_score_0_split -> score_score_0_split_1
I1012 04:14:47.011381  8422 net.cpp:150] Setting up score_score_0_split
I1012 04:14:47.011399  8422 net.cpp:157] Top shape: 64 10 (640)
I1012 04:14:47.011402  8422 net.cpp:157] Top shape: 64 10 (640)
I1012 04:14:47.011404  8422 net.cpp:165] Memory required for data: 90989824
I1012 04:14:47.011405  8422 layer_factory.hpp:77] Creating layer accuracy
I1012 04:14:47.011411  8422 net.cpp:100] Creating Layer accuracy
I1012 04:14:47.011414  8422 net.cpp:434] accuracy <- score_score_0_split_0
I1012 04:14:47.011416  8422 net.cpp:434] accuracy <- label_data_1_split_0
I1012 04:14:47.011420  8422 net.cpp:408] accuracy -> accuracy
…
I1012 04:14:47.011989  8422 net.cpp:283] Network initialization done.
I1012 04:14:47.012197  8422 solver.cpp:181] Creating test net (#0) specified by test_net file: /home/adam/Honours/Honours-Project/cifar-10_allcnn/relu/allcnn_relu_test.prototxt
I1012 04:14:47.012358  8422 net.cpp:58] Initializing net from parameters: 
state {
  phase: TEST
}
layer {
  name: "data"
  type: "Data"
  top: "data"
  top: "label"
  transform_param {
    mean_file: "mean.binaryproto"
  }
  data_param {
    source: "../../../data/cifar-10/cifar10_test_lmdb"
    batch_size: 100
    backend: LMDB
  }
}
layer {
  name: "conv1"
  type: "Convolution"
  bottom: "data"
  top: "conv1"
  convolution_param {
    num_output: 96
    kernel_size: 3
    weight_filler {
      type: "xavier"
    }
  }
}
layer {
  name: "conv2"
  type: "Convolution"
  bottom: "conv1"
  top: "conv2"
  convolution_param {
    num_output: 96
    kernel_size: 3
    weight_filler {
      type: "xavier"
    }
  }
}
layer {
  name: "bn1"
  type: "BatchNorm"
  bottom: "conv2"
  top: "bn1"
}
layer {
  name: "conv3"
  type: "Convolution"
  bottom: "bn1"
  top: "conv3"
  convolution_param {
    num_output: 96
    kernel_size: 3
    stride: 2
    weight_filler {
      type: "xavier"
    }
  }
}
layer {
  name: "drop1"
  type: "Dropout"
  bottom: "conv3"
  top: "drop1"
  dropout_param {
    dropout_ratio: 0.5
  }
}
layer {
  name: "relu3"
  type: "ReLU"
  bottom: "drop1"
  top: "drop1"
}
layer {
  name: "conv4"
  type: "Convolution"
  bottom: "drop1"
  top: "conv4"
  convolution_param {
    num_output: 192
    kernel_size: 3
    weight_filler {
      type: "xavier"
    }
  }
}
layer {
  name: "conv5"
  type: "Convolution"
  bottom: "conv4"
  top: "conv5"
  convolution_param {
    num_output: 192
    kernel_size: 3
    weight_filler {
      type: "xavier"
    }
  }
}
layer {
  name: "bn2"
  type: "BatchNorm"
  bottom: "conv5"
  top: "bn2"
}
layer {
  name: "conv6"
  type: "Convolution"
  bottom: "bn2"
  top: "conv6"
  convolution_param {
    num_output: 192
    kernel_size: 3
    stride: 2
    weight_filler {
      type: "xavier"
    }
  }
}
layer {
  name: "drop4"
  type: "Dropout"
  bottom: "conv6"
  top: "drop4"
  dropout_param {
    dropout_ratio: 0.5
  }
}
layer {
  name: "relu6"
  type: "ReLU"
  bottom: "drop4"
  top: "drop4"
}
layer {
  name: "conv7"
  type: "Convolution"
  bottom: "drop4"
  top: "conv7"
  convolution_param {
    num_output: 192
    kernel_size: 3
    weight_filler {
      type: "xavier"
    }
  }
}
layer {
  name: "relu7"
  type: "ReLU"
  bottom: "conv7"
  top: "conv7"
}
layer {
  name: "conv8"
  type: "Convolution"
  bottom: "conv7"
  top: "conv8"
  convolution_param {
    num_output: 192
    kernel_size: 1
    weight_filler {
      type: "xavier"
    }
  }
}
layer {
  name: "relu8"
  type: "ReLU"
  bottom: "conv8"
  top: "conv8"
}
layer {
  name: "conv9"
  type: "Convolution"
  bottom: "conv8"
  top: "conv9"
  convolution_param {
    num_output: 10
    kernel_size: 1
    weight_filler {
      type: "xavier"
    }
  }
}
layer {
  name: "relu9"
  type: "ReLU"
  bottom: "conv9"
  top: "conv9"
}
layer {
  name: "pool"
  type: "Pooling"
  bottom: "conv9"
  top: "pool"
  pooling_param {
    pool: AVE
    global_pooling: true
  }
}
layer {
  name: "flatten"
  type: "Flatten"
  bottom: "pool"
  top: "flatten"
}
layer {
  name: "score"
  type: "InnerProduct"
  bottom: "flatten"
  top: "score"
  inner_product_param {
    num_output: 10
    weight_filler {
      type: "gaussian"
    }
  }
}
layer {
  name: "accuracy"
  type: "Accuracy"
  bottom: "score"
  bottom: "label"
  top: "accuracy"
}
layer {
  name: "loss"
  type: "SoftmaxWithLoss"
  bottom: "score"
  bottom: "label"
  top: "loss"
}
I1012 04:14:47.012485  8422 layer_factory.hpp:77] Creating layer data
I1012 04:14:47.012567  8422 net.cpp:100] Creating Layer data
I1012 04:14:47.012573  8422 net.cpp:408] data -> data
I1012 04:14:47.012579  8422 net.cpp:408] data -> label
I1012 04:14:47.012585  8422 data_transformer.cpp:25] Loading mean file from: mean.binaryproto
I1012 04:14:47.013283  8429 db_lmdb.cpp:35] Opened lmdb ../../../data/cifar-10/cifar10_test_lmdb
I1012 04:14:47.013442  8422 data_layer.cpp:41] output data size: 100,3,32,32
I1012 04:14:47.015389  8422 net.cpp:150] Setting up data
I1012 04:14:47.015442  8422 net.cpp:157] Top shape: 100 3 32 32 (307200)
I1012 04:14:47.015446  8422 net.cpp:157] Top shape: 100 (100)
I1012 04:14:47.015449  8422 net.cpp:165] Memory required for data: 1229200
I1012 04:14:47.015453  8422 layer_factory.hpp:77] Creating layer label_data_1_split
I1012 04:14:47.015476  8422 net.cpp:100] Creating Layer label_data_1_split
I1012 04:14:47.015480  8422 net.cpp:434] label_data_1_split <- label
I1012 04:14:47.015501  8422 net.cpp:408] label_data_1_split -> label_data_1_split_0
I1012 04:14:47.015522  8422 net.cpp:408] label_data_1_split -> label_data_1_split_1
I1012 04:14:47.015594  8422 net.cpp:150] Setting up label_data_1_split
I1012 04:14:47.015599  8422 net.cpp:157] Top shape: 100 (100)
I1012 04:14:47.015600  8422 net.cpp:157] Top shape: 100 (100)
I1012 04:14:47.015615  8422 net.cpp:165] Memory required for data: 1230000
I1012 04:14:47.015617  8422 layer_factory.hpp:77] Creating layer conv1
I1012 04:14:47.015626  8422 net.cpp:100] Creating Layer conv1
I1012 04:14:47.015628  8422 net.cpp:434] conv1 <- data
I1012 04:14:47.015632  8422 net.cpp:408] conv1 -> conv1
I1012 04:14:47.016769  8422 net.cpp:150] Setting up conv1
I1012 04:14:47.016779  8422 net.cpp:157] Top shape: 100 96 30 30 (8640000)
I1012 04:14:47.016782  8422 net.cpp:165] Memory required for data: 35790000
I1012 04:14:47.016804  8422 layer_factory.hpp:77] Creating layer conv2
I1012 04:14:47.016839  8422 net.cpp:100] Creating Layer conv2
I1012 04:14:47.016844  8422 net.cpp:434] conv2 <- conv1
I1012 04:14:47.016849  8422 net.cpp:408] conv2 -> conv2
I1012 04:14:47.018139  8422 net.cpp:150] Setting up conv2
I1012 04:14:47.018163  8422 net.cpp:157] Top shape: 100 96 28 28 (7526400)
I1012 04:14:47.018167  8422 net.cpp:165] Memory required for data: 65895600
I1012 04:14:47.018185  8422 layer_factory.hpp:77] Creating layer bn1
I1012 04:14:47.018193  8422 net.cpp:100] Creating Layer bn1
I1012 04:14:47.018198  8422 net.cpp:434] bn1 <- conv2
I1012 04:14:47.018203  8422 net.cpp:408] bn1 -> bn1
I1012 04:14:47.018435  8422 net.cpp:150] Setting up bn1
I1012 04:14:47.018441  8422 net.cpp:157] Top shape: 100 96 28 28 (7526400)
I1012 04:14:47.018443  8422 net.cpp:165] Memory required for data: 96001200
I1012 04:14:47.018465  8422 layer_factory.hpp:77] Creating layer conv3
I1012 04:14:47.018471  8422 net.cpp:100] Creating Layer conv3
I1012 04:14:47.018476  8422 net.cpp:434] conv3 <- bn1
I1012 04:14:47.018481  8422 net.cpp:408] conv3 -> conv3
I1012 04:14:47.019877  8422 net.cpp:150] Setting up conv3
I1012 04:14:47.019893  8422 net.cpp:157] Top shape: 100 96 13 13 (1622400)
I1012 04:14:47.019896  8422 net.cpp:165] Memory required for data: 102490800
I1012 04:14:47.019904  8422 layer_factory.hpp:77] Creating layer drop1
I1012 04:14:47.019922  8422 net.cpp:100] Creating Layer drop1
I1012 04:14:47.019928  8422 net.cpp:434] drop1 <- conv3
I1012 04:14:47.019933  8422 net.cpp:408] drop1 -> drop1
I1012 04:14:47.019973  8422 net.cpp:150] Setting up drop1
I1012 04:14:47.019980  8422 net.cpp:157] Top shape: 100 96 13 13 (1622400)
I1012 04:14:47.019982  8422 net.cpp:165] Memory required for data: 108980400
I1012 04:14:47.019985  8422 layer_factory.hpp:77] Creating layer relu3
I1012 04:14:47.019989  8422 net.cpp:100] Creating Layer relu3
I1012 04:14:47.019991  8422 net.cpp:434] relu3 <- drop1
I1012 04:14:47.019996  8422 net.cpp:395] relu3 -> drop1 (in-place)
I1012 04:14:47.020231  8422 net.cpp:150] Setting up relu3
I1012 04:14:47.020241  8422 net.cpp:157] Top shape: 100 96 13 13 (1622400)
I1012 04:14:47.020243  8422 net.cpp:165] Memory required for data: 115470000
I1012 04:14:47.020246  8422 layer_factory.hpp:77] Creating layer conv4
I1012 04:14:47.020253  8422 net.cpp:100] Creating Layer conv4
I1012 04:14:47.020256  8422 net.cpp:434] conv4 <- drop1
I1012 04:14:47.020262  8422 net.cpp:408] conv4 -> conv4
I1012 04:14:47.022158  8422 net.cpp:150] Setting up conv4
I1012 04:14:47.022182  8422 net.cpp:157] Top shape: 100 192 11 11 (2323200)
I1012 04:14:47.022186  8422 net.cpp:165] Memory required for data: 124762800
I1012 04:14:47.022192  8422 layer_factory.hpp:77] Creating layer conv5
I1012 04:14:47.022199  8422 net.cpp:100] Creating Layer conv5
I1012 04:14:47.022203  8422 net.cpp:434] conv5 <- conv4
I1012 04:14:47.022208  8422 net.cpp:408] conv5 -> conv5
I1012 04:14:47.025833  8422 net.cpp:150] Setting up conv5
I1012 04:14:47.025863  8422 net.cpp:157] Top shape: 100 192 9 9 (1555200)
I1012 04:14:47.025866  8422 net.cpp:165] Memory required for data: 130983600
I1012 04:14:47.025872  8422 layer_factory.hpp:77] Creating layer bn2
I1012 04:14:47.025881  8422 net.cpp:100] Creating Layer bn2
I1012 04:14:47.025882  8422 net.cpp:434] bn2 <- conv5
I1012 04:14:47.025887  8422 net.cpp:408] bn2 -> bn2
I1012 04:14:47.026113  8422 net.cpp:150] Setting up bn2
I1012 04:14:47.026118  8422 net.cpp:157] Top shape: 100 192 9 9 (1555200)
I1012 04:14:47.026134  8422 net.cpp:165] Memory required for data: 137204400
I1012 04:14:47.026139  8422 layer_factory.hpp:77] Creating layer conv6
I1012 04:14:47.026161  8422 net.cpp:100] Creating Layer conv6
I1012 04:14:47.026165  8422 net.cpp:434] conv6 <- bn2
I1012 04:14:47.026170  8422 net.cpp:408] conv6 -> conv6
I1012 04:14:47.028759  8422 net.cpp:150] Setting up conv6
I1012 04:14:47.028784  8422 net.cpp:157] Top shape: 100 192 4 4 (307200)
I1012 04:14:47.028785  8422 net.cpp:165] Memory required for data: 138433200
I1012 04:14:47.028795  8422 layer_factory.hpp:77] Creating layer drop4
I1012 04:14:47.028800  8422 net.cpp:100] Creating Layer drop4
I1012 04:14:47.028805  8422 net.cpp:434] drop4 <- conv6
I1012 04:14:47.028823  8422 net.cpp:408] drop4 -> drop4
I1012 04:14:47.028882  8422 net.cpp:150] Setting up drop4
I1012 04:14:47.028899  8422 net.cpp:157] Top shape: 100 192 4 4 (307200)
I1012 04:14:47.028903  8422 net.cpp:165] Memory required for data: 139662000
I1012 04:14:47.028904  8422 layer_factory.hpp:77] Creating layer relu6
I1012 04:14:47.028920  8422 net.cpp:100] Creating Layer relu6
I1012 04:14:47.028923  8422 net.cpp:434] relu6 <- drop4
I1012 04:14:47.028925  8422 net.cpp:395] relu6 -> drop4 (in-place)
I1012 04:14:47.029217  8422 net.cpp:150] Setting up relu6
I1012 04:14:47.029227  8422 net.cpp:157] Top shape: 100 192 4 4 (307200)
I1012 04:14:47.029229  8422 net.cpp:165] Memory required for data: 140890800
I1012 04:14:47.029247  8422 layer_factory.hpp:77] Creating layer conv7
I1012 04:14:47.029253  8422 net.cpp:100] Creating Layer conv7
I1012 04:14:47.029255  8422 net.cpp:434] conv7 <- drop4
I1012 04:14:47.029260  8422 net.cpp:408] conv7 -> conv7
I1012 04:14:47.031864  8422 net.cpp:150] Setting up conv7
I1012 04:14:47.031888  8422 net.cpp:157] Top shape: 100 192 2 2 (76800)
I1012 04:14:47.031891  8422 net.cpp:165] Memory required for data: 141198000
I1012 04:14:47.031908  8422 layer_factory.hpp:77] Creating layer relu7
I1012 04:14:47.031913  8422 net.cpp:100] Creating Layer relu7
I1012 04:14:47.031918  8422 net.cpp:434] relu7 <- conv7
I1012 04:14:47.031935  8422 net.cpp:395] relu7 -> conv7 (in-place)
I1012 04:14:47.032191  8422 net.cpp:150] Setting up relu7
I1012 04:14:47.032213  8422 net.cpp:157] Top shape: 100 192 2 2 (76800)
I1012 04:14:47.032217  8422 net.cpp:165] Memory required for data: 141505200
I1012 04:14:47.032218  8422 layer_factory.hpp:77] Creating layer conv8
I1012 04:14:47.032227  8422 net.cpp:100] Creating Layer conv8
I1012 04:14:47.032232  8422 net.cpp:434] conv8 <- conv7
I1012 04:14:47.032235  8422 net.cpp:408] conv8 -> conv8
I1012 04:14:47.033221  8422 net.cpp:150] Setting up conv8
I1012 04:14:47.033231  8422 net.cpp:157] Top shape: 100 192 2 2 (76800)
I1012 04:14:47.033232  8422 net.cpp:165] Memory required for data: 141812400
I1012 04:14:47.033236  8422 layer_factory.hpp:77] Creating layer relu8
I1012 04:14:47.033241  8422 net.cpp:100] Creating Layer relu8
I1012 04:14:47.033242  8422 net.cpp:434] relu8 <- conv8
I1012 04:14:47.033247  8422 net.cpp:395] relu8 -> conv8 (in-place)
I1012 04:14:47.033419  8422 net.cpp:150] Setting up relu8
I1012 04:14:47.033426  8422 net.cpp:157] Top shape: 100 192 2 2 (76800)
I1012 04:14:47.033427  8422 net.cpp:165] Memory required for data: 142119600
I1012 04:14:47.033429  8422 layer_factory.hpp:77] Creating layer conv9
I1012 04:14:47.033435  8422 net.cpp:100] Creating Layer conv9
I1012 04:14:47.033437  8422 net.cpp:434] conv9 <- conv8
I1012 04:14:47.033442  8422 net.cpp:408] conv9 -> conv9
I1012 04:14:47.034283  8422 net.cpp:150] Setting up conv9
I1012 04:14:47.034293  8422 net.cpp:157] Top shape: 100 10 2 2 (4000)
I1012 04:14:47.034296  8422 net.cpp:165] Memory required for data: 142135600
I1012 04:14:47.034299  8422 layer_factory.hpp:77] Creating layer relu9
I1012 04:14:47.034303  8422 net.cpp:100] Creating Layer relu9
I1012 04:14:47.034306  8422 net.cpp:434] relu9 <- conv9
I1012 04:14:47.034309  8422 net.cpp:395] relu9 -> conv9 (in-place)
I1012 04:14:47.034571  8422 net.cpp:150] Setting up relu9
I1012 04:14:47.034579  8422 net.cpp:157] Top shape: 100 10 2 2 (4000)
I1012 04:14:47.034581  8422 net.cpp:165] Memory required for data: 142151600
I1012 04:14:47.034584  8422 layer_factory.hpp:77] Creating layer pool
I1012 04:14:47.034589  8422 net.cpp:100] Creating Layer pool
I1012 04:14:47.034590  8422 net.cpp:434] pool <- conv9
I1012 04:14:47.034595  8422 net.cpp:408] pool -> pool
I1012 04:14:47.034790  8422 net.cpp:150] Setting up pool
I1012 04:14:47.034796  8422 net.cpp:157] Top shape: 100 10 1 1 (1000)
I1012 04:14:47.034798  8422 net.cpp:165] Memory required for data: 142155600
I1012 04:14:47.034801  8422 layer_factory.hpp:77] Creating layer flatten
I1012 04:14:47.034804  8422 net.cpp:100] Creating Layer flatten
I1012 04:14:47.034806  8422 net.cpp:434] flatten <- pool
I1012 04:14:47.034809  8422 net.cpp:408] flatten -> flatten
I1012 04:14:47.034844  8422 net.cpp:150] Setting up flatten
I1012 04:14:47.034847  8422 net.cpp:157] Top shape: 100 10 (1000)
I1012 04:14:47.034852  8422 net.cpp:165] Memory required for data: 142159600
I1012 04:14:47.034853  8422 layer_factory.hpp:77] Creating layer score
I1012 04:14:47.034858  8422 net.cpp:100] Creating Layer score
I1012 04:14:47.034862  8422 net.cpp:434] score <- flatten
I1012 04:14:47.034879  8422 net.cpp:408] score -> score
I1012 04:14:47.034997  8422 net.cpp:150] Setting up score
I1012 04:14:47.035001  8422 net.cpp:157] Top shape: 100 10 (1000)
I1012 04:14:47.035003  8422 net.cpp:165] Memory required for data: 142163600
I1012 04:14:47.035007  8422 layer_factory.hpp:77] Creating layer score_score_0_split
I1012 04:14:47.035010  8422 net.cpp:100] Creating Layer score_score_0_split
I1012 04:14:47.035012  8422 net.cpp:434] score_score_0_split <- score
I1012 04:14:47.035017  8422 net.cpp:408] score_score_0_split -> score_score_0_split_0
I1012 04:14:47.035022  8422 net.cpp:408] score_score_0_split -> score_score_0_split_1
I1012 04:14:47.035079  8422 net.cpp:150] Setting up score_score_0_split
I1012 04:14:47.035082  8422 net.cpp:157] Top shape: 100 10 (1000)
I1012 04:14:47.035099  8422 net.cpp:157] Top shape: 100 10 (1000)
I1012 04:14:47.035101  8422 net.cpp:165] Memory required for data: 142171600
I1012 04:14:47.035104  8422 layer_factory.hpp:77] Creating layer accuracy
I1012 04:14:47.035106  8422 net.cpp:100] Creating Layer accuracy
I1012 04:14:47.035109  8422 net.cpp:434] accuracy <- score_score_0_split_0
I1012 04:14:47.035111  8422 net.cpp:434] accuracy <- label_data_1_split_0
I1012 04:14:47.035116  8422 net.cpp:408] accuracy -> accuracy
…
