…
  stage: ""
}
type: "SGD"
I1013 08:31:18.622809 11670 solver.cpp:81] Creating training net from train_net file: /home/adam/Honours/Honours-Project/cifar-10_allcnn/elu/allcnn_elu_train.prototxt
I1013 08:31:18.623142 11670 net.cpp:58] Initializing net from parameters: 
state {
  phase: TRAIN
  level: 0
  stage: ""
}
layer {
  name: "data"
  type: "Data"
  top: "data"
  top: "label"
  transform_param {
    mean_file: "mean.binaryproto"
  }
  data_param {
    source: "../../../data/cifar-10/cifar10_train_lmdb"
    batch_size: 64
    backend: LMDB
  }
}
layer {
  name: "conv1"
  type: "Convolution"
  bottom: "data"
  top: "conv1"
  convolution_param {
    num_output: 96
    kernel_size: 3
    weight_filler {
      type: "xavier"
    }
  }
}
layer {
  name: "elu1"
  type: "ELU"
  bottom: "conv1"
  top: "conv1"
}
layer {
  name: "conv2"
  type: "Convolution"
  bottom: "conv1"
  top: "conv2"
  convolution_param {
    num_output: 96
    kernel_size: 3
    weight_filler {
      type: "xavier"
    }
  }
}
layer {
  name: "bn1"
  type: "BatchNorm"
  bottom: "conv2"
  top: "bn1"
}
layer {
  name: "elu2"
  type: "ELU"
  bottom: "bn1"
  top: "bn1"
}
layer {
  name: "conv3"
  type: "Convolution"
  bottom: "bn1"
  top: "conv3"
  convolution_param {
    num_output: 96
    kernel_size: 3
    stride: 2
    weight_filler {
      type: "xavier"
    }
  }
}
layer {
  name: "drop1"
  type: "Dropout"
  bottom: "conv3"
  top: "drop1"
  dropout_param {
    dropout_ratio: 0.5
  }
}
layer {
  name: "elu3"
  type: "ELU"
  bottom: "drop1"
  top: "drop1"
}
layer {
  name: "conv4"
  type: "Convolution"
  bottom: "drop1"
  top: "conv4"
  convolution_param {
    num_output: 192
    kernel_size: 3
    weight_filler {
      type: "xavier"
    }
  }
}
layer {
  name: "elu4"
  type: "ELU"
  bottom: "conv4"
  top: "conv4"
}
layer {
  name: "conv5"
  type: "Convolution"
  bottom: "conv4"
  top: "conv5"
  convolution_param {
    num_output: 192
    kernel_size: 3
    weight_filler {
      type: "xavier"
    }
  }
}
layer {
  name: "bn2"
  type: "BatchNorm"
  bottom: "conv5"
  top: "bn2"
}
layer {
  name: "elu5"
  type: "ELU"
  bottom: "bn2"
  top: "bn2"
}
layer {
  name: "conv6"
  type: "Convolution"
  bottom: "bn2"
  top: "conv6"
  convolution_param {
    num_output: 192
    kernel_size: 3
    stride: 2
    weight_filler {
      type: "xavier"
    }
  }
}
layer {
  name: "drop4"
  type: "Dropout"
  bottom: "conv6"
  top: "drop4"
  dropout_param {
    dropout_ratio: 0.5
  }
}
layer {
  name: "elu6"
  type: "ELU"
  bottom: "drop4"
  top: "drop4"
}
layer {
  name: "conv7"
  type: "Convolution"
  bottom: "drop4"
  top: "conv7"
  convolution_param {
    num_output: 192
    kernel_size: 3
    weight_filler {
      type: "xavier"
    }
  }
}
layer {
  name: "elu7"
  type: "ELU"
  bottom: "conv7"
  top: "conv7"
}
layer {
  name: "conv8"
  type: "Convolution"
  bottom: "conv7"
  top: "conv8"
  convolution_param {
    num_output: 192
    kernel_size: 1
    weight_filler {
      type: "xavier"
    }
  }
}
layer {
  name: "elu8"
  type: "ELU"
  bottom: "conv8"
  top: "conv8"
}
layer {
  name: "conv9"
  type: "Convolution"
  bottom: "conv8"
  top: "conv9"
  convolution_param {
    num_output: 10
    kernel_size: 1
    weight_filler {
      type: "xavier"
    }
  }
}
layer {
  name: "elu9"
  type: "ELU"
  bottom: "conv9"
  top: "conv9"
}
layer {
  name: "pool"
  type: "Pooling"
  bottom: "conv9"
  top: "pool"
  pooling_param {
    pool: AVE
    global_pooling: true
  }
}
layer {
  name: "flatten"
  type: "Flatten"
  bottom: "pool"
  top: "flatten"
}
layer {
  name: "score"
  type: "InnerProduct"
  bottom: "flatten"
  top: "score"
  inner_product_param {
    num_output: 10
    weight_filler {
      type: "gaussian"
    }
  }
}
layer {
  name: "accuracy"
  type: "Accuracy"
  bottom: "score"
  bottom: "label"
  top: "accuracy"
}
layer {
  name: "loss"
  type: "SoftmaxWithLoss"
  bottom: "score"
  bottom: "label"
  top: "loss"
}
I1013 08:31:18.623298 11670 layer_factory.hpp:77] Creating layer data
I1013 08:31:18.623733 11670 net.cpp:100] Creating Layer data
I1013 08:31:18.623740 11670 net.cpp:408] data -> data
I1013 08:31:18.623777 11670 net.cpp:408] data -> label
I1013 08:31:18.623787 11670 data_transformer.cpp:25] Loading mean file from: mean.binaryproto
I1013 08:31:18.625022 11676 db_lmdb.cpp:35] Opened lmdb ../../../data/cifar-10/cifar10_train_lmdb
I1013 08:31:18.630666 11670 data_layer.cpp:41] output data size: 64,3,32,32
I1013 08:31:18.632186 11670 net.cpp:150] Setting up data
I1013 08:31:18.632200 11670 net.cpp:157] Top shape: 64 3 32 32 (196608)
I1013 08:31:18.632203 11670 net.cpp:157] Top shape: 64 (64)
I1013 08:31:18.632205 11670 net.cpp:165] Memory required for data: 786688
I1013 08:31:18.632236 11670 layer_factory.hpp:77] Creating layer label_data_1_split
I1013 08:31:18.632247 11670 net.cpp:100] Creating Layer label_data_1_split
I1013 08:31:18.632251 11670 net.cpp:434] label_data_1_split <- label
I1013 08:31:18.632261 11670 net.cpp:408] label_data_1_split -> label_data_1_split_0
I1013 08:31:18.632283 11670 net.cpp:408] label_data_1_split -> label_data_1_split_1
I1013 08:31:18.632357 11670 net.cpp:150] Setting up label_data_1_split
I1013 08:31:18.632364 11670 net.cpp:157] Top shape: 64 (64)
I1013 08:31:18.632365 11670 net.cpp:157] Top shape: 64 (64)
I1013 08:31:18.632367 11670 net.cpp:165] Memory required for data: 787200
I1013 08:31:18.632369 11670 layer_factory.hpp:77] Creating layer conv1
I1013 08:31:18.632381 11670 net.cpp:100] Creating Layer conv1
I1013 08:31:18.632385 11670 net.cpp:434] conv1 <- data
I1013 08:31:18.632390 11670 net.cpp:408] conv1 -> conv1
I1013 08:31:18.769544 11670 net.cpp:150] Setting up conv1
I1013 08:31:18.769569 11670 net.cpp:157] Top shape: 64 96 30 30 (5529600)
I1013 08:31:18.769572 11670 net.cpp:165] Memory required for data: 22905600
I1013 08:31:18.769590 11670 layer_factory.hpp:77] Creating layer elu1
I1013 08:31:18.769598 11670 net.cpp:100] Creating Layer elu1
I1013 08:31:18.769600 11670 net.cpp:434] elu1 <- conv1
I1013 08:31:18.769604 11670 net.cpp:395] elu1 -> conv1 (in-place)
I1013 08:31:18.769626 11670 net.cpp:150] Setting up elu1
I1013 08:31:18.769629 11670 net.cpp:157] Top shape: 64 96 30 30 (5529600)
I1013 08:31:18.769631 11670 net.cpp:165] Memory required for data: 45024000
I1013 08:31:18.769634 11670 layer_factory.hpp:77] Creating layer conv2
I1013 08:31:18.769642 11670 net.cpp:100] Creating Layer conv2
I1013 08:31:18.769644 11670 net.cpp:434] conv2 <- conv1
I1013 08:31:18.769649 11670 net.cpp:408] conv2 -> conv2
I1013 08:31:18.770970 11670 net.cpp:150] Setting up conv2
I1013 08:31:18.770982 11670 net.cpp:157] Top shape: 64 96 28 28 (4816896)
I1013 08:31:18.770983 11670 net.cpp:165] Memory required for data: 64291584
I1013 08:31:18.770989 11670 layer_factory.hpp:77] Creating layer bn1
I1013 08:31:18.770994 11670 net.cpp:100] Creating Layer bn1
I1013 08:31:18.770997 11670 net.cpp:434] bn1 <- conv2
I1013 08:31:18.770999 11670 net.cpp:408] bn1 -> bn1
I1013 08:31:18.771167 11670 net.cpp:150] Setting up bn1
I1013 08:31:18.771172 11670 net.cpp:157] Top shape: 64 96 28 28 (4816896)
I1013 08:31:18.771173 11670 net.cpp:165] Memory required for data: 83559168
I1013 08:31:18.771179 11670 layer_factory.hpp:77] Creating layer elu2
I1013 08:31:18.771183 11670 net.cpp:100] Creating Layer elu2
I1013 08:31:18.771185 11670 net.cpp:434] elu2 <- bn1
I1013 08:31:18.771188 11670 net.cpp:395] elu2 -> bn1 (in-place)
I1013 08:31:18.771191 11670 net.cpp:150] Setting up elu2
I1013 08:31:18.771194 11670 net.cpp:157] Top shape: 64 96 28 28 (4816896)
I1013 08:31:18.771195 11670 net.cpp:165] Memory required for data: 102826752
I1013 08:31:18.771224 11670 layer_factory.hpp:77] Creating layer conv3
I1013 08:31:18.771229 11670 net.cpp:100] Creating Layer conv3
I1013 08:31:18.771232 11670 net.cpp:434] conv3 <- bn1
I1013 08:31:18.771235 11670 net.cpp:408] conv3 -> conv3
I1013 08:31:18.772394 11670 net.cpp:150] Setting up conv3
I1013 08:31:18.772403 11670 net.cpp:157] Top shape: 64 96 13 13 (1038336)
I1013 08:31:18.772405 11670 net.cpp:165] Memory required for data: 106980096
I1013 08:31:18.772411 11670 layer_factory.hpp:77] Creating layer drop1
I1013 08:31:18.772418 11670 net.cpp:100] Creating Layer drop1
I1013 08:31:18.772419 11670 net.cpp:434] drop1 <- conv3
I1013 08:31:18.772423 11670 net.cpp:408] drop1 -> drop1
I1013 08:31:18.772469 11670 net.cpp:150] Setting up drop1
I1013 08:31:18.772487 11670 net.cpp:157] Top shape: 64 96 13 13 (1038336)
I1013 08:31:18.772490 11670 net.cpp:165] Memory required for data: 111133440
I1013 08:31:18.772491 11670 layer_factory.hpp:77] Creating layer elu3
I1013 08:31:18.772507 11670 net.cpp:100] Creating Layer elu3
I1013 08:31:18.772510 11670 net.cpp:434] elu3 <- drop1
I1013 08:31:18.772511 11670 net.cpp:395] elu3 -> drop1 (in-place)
I1013 08:31:18.772529 11670 net.cpp:150] Setting up elu3
I1013 08:31:18.772532 11670 net.cpp:157] Top shape: 64 96 13 13 (1038336)
I1013 08:31:18.772534 11670 net.cpp:165] Memory required for data: 115286784
I1013 08:31:18.772536 11670 layer_factory.hpp:77] Creating layer conv4
I1013 08:31:18.772541 11670 net.cpp:100] Creating Layer conv4
I1013 08:31:18.772542 11670 net.cpp:434] conv4 <- drop1
I1013 08:31:18.772547 11670 net.cpp:408] conv4 -> conv4
I1013 08:31:18.774353 11670 net.cpp:150] Setting up conv4
I1013 08:31:18.774363 11670 net.cpp:157] Top shape: 64 192 11 11 (1486848)
I1013 08:31:18.774364 11670 net.cpp:165] Memory required for data: 121234176
I1013 08:31:18.774369 11670 layer_factory.hpp:77] Creating layer elu4
I1013 08:31:18.774372 11670 net.cpp:100] Creating Layer elu4
I1013 08:31:18.774374 11670 net.cpp:434] elu4 <- conv4
I1013 08:31:18.774377 11670 net.cpp:395] elu4 -> conv4 (in-place)
I1013 08:31:18.774381 11670 net.cpp:150] Setting up elu4
I1013 08:31:18.774384 11670 net.cpp:157] Top shape: 64 192 11 11 (1486848)
I1013 08:31:18.774386 11670 net.cpp:165] Memory required for data: 127181568
I1013 08:31:18.774389 11670 layer_factory.hpp:77] Creating layer conv5
I1013 08:31:18.774394 11670 net.cpp:100] Creating Layer conv5
I1013 08:31:18.774410 11670 net.cpp:434] conv5 <- conv4
I1013 08:31:18.774413 11670 net.cpp:408] conv5 -> conv5
I1013 08:31:18.776945 11670 net.cpp:150] Setting up conv5
I1013 08:31:18.776969 11670 net.cpp:157] Top shape: 64 192 9 9 (995328)
I1013 08:31:18.776971 11670 net.cpp:165] Memory required for data: 131162880
I1013 08:31:18.776976 11670 layer_factory.hpp:77] Creating layer bn2
I1013 08:31:18.776981 11670 net.cpp:100] Creating Layer bn2
I1013 08:31:18.776983 11670 net.cpp:434] bn2 <- conv5
I1013 08:31:18.776988 11670 net.cpp:408] bn2 -> bn2
I1013 08:31:18.777194 11670 net.cpp:150] Setting up bn2
I1013 08:31:18.777199 11670 net.cpp:157] Top shape: 64 192 9 9 (995328)
I1013 08:31:18.777200 11670 net.cpp:165] Memory required for data: 135144192
I1013 08:31:18.777205 11670 layer_factory.hpp:77] Creating layer elu5
I1013 08:31:18.777209 11670 net.cpp:100] Creating Layer elu5
I1013 08:31:18.777211 11670 net.cpp:434] elu5 <- bn2
I1013 08:31:18.777215 11670 net.cpp:395] elu5 -> bn2 (in-place)
I1013 08:31:18.777217 11670 net.cpp:150] Setting up elu5
I1013 08:31:18.777220 11670 net.cpp:157] Top shape: 64 192 9 9 (995328)
I1013 08:31:18.777221 11670 net.cpp:165] Memory required for data: 139125504
I1013 08:31:18.777223 11670 layer_factory.hpp:77] Creating layer conv6
I1013 08:31:18.777230 11670 net.cpp:100] Creating Layer conv6
I1013 08:31:18.777232 11670 net.cpp:434] conv6 <- bn2
I1013 08:31:18.777250 11670 net.cpp:408] conv6 -> conv6
I1013 08:31:18.779762 11670 net.cpp:150] Setting up conv6
I1013 08:31:18.779773 11670 net.cpp:157] Top shape: 64 192 4 4 (196608)
I1013 08:31:18.779775 11670 net.cpp:165] Memory required for data: 139911936
I1013 08:31:18.779793 11670 layer_factory.hpp:77] Creating layer drop4
I1013 08:31:18.779800 11670 net.cpp:100] Creating Layer drop4
I1013 08:31:18.779803 11670 net.cpp:434] drop4 <- conv6
I1013 08:31:18.779808 11670 net.cpp:408] drop4 -> drop4
I1013 08:31:18.779881 11670 net.cpp:150] Setting up drop4
I1013 08:31:18.779884 11670 net.cpp:157] Top shape: 64 192 4 4 (196608)
I1013 08:31:18.779886 11670 net.cpp:165] Memory required for data: 140698368
I1013 08:31:18.779888 11670 layer_factory.hpp:77] Creating layer elu6
I1013 08:31:18.779891 11670 net.cpp:100] Creating Layer elu6
I1013 08:31:18.779908 11670 net.cpp:434] elu6 <- drop4
I1013 08:31:18.779911 11670 net.cpp:395] elu6 -> drop4 (in-place)
I1013 08:31:18.779916 11670 net.cpp:150] Setting up elu6
I1013 08:31:18.779918 11670 net.cpp:157] Top shape: 64 192 4 4 (196608)
I1013 08:31:18.779919 11670 net.cpp:165] Memory required for data: 141484800
I1013 08:31:18.779922 11670 layer_factory.hpp:77] Creating layer conv7
I1013 08:31:18.779927 11670 net.cpp:100] Creating Layer conv7
I1013 08:31:18.779932 11670 net.cpp:434] conv7 <- drop4
I1013 08:31:18.779949 11670 net.cpp:408] conv7 -> conv7
I1013 08:31:18.782945 11670 net.cpp:150] Setting up conv7
I1013 08:31:18.782968 11670 net.cpp:157] Top shape: 64 192 2 2 (49152)
I1013 08:31:18.782971 11670 net.cpp:165] Memory required for data: 141681408
I1013 08:31:18.782989 11670 layer_factory.hpp:77] Creating layer elu7
I1013 08:31:18.783010 11670 net.cpp:100] Creating Layer elu7
I1013 08:31:18.783012 11670 net.cpp:434] elu7 <- conv7
I1013 08:31:18.783031 11670 net.cpp:395] elu7 -> conv7 (in-place)
I1013 08:31:18.783036 11670 net.cpp:150] Setting up elu7
I1013 08:31:18.783054 11670 net.cpp:157] Top shape: 64 192 2 2 (49152)
I1013 08:31:18.783056 11670 net.cpp:165] Memory required for data: 141878016
I1013 08:31:18.783058 11670 layer_factory.hpp:77] Creating layer conv8
I1013 08:31:18.783066 11670 net.cpp:100] Creating Layer conv8
I1013 08:31:18.783074 11670 net.cpp:434] conv8 <- conv7
I1013 08:31:18.783092 11670 net.cpp:408] conv8 -> conv8
I1013 08:31:18.784376 11670 net.cpp:150] Setting up conv8
I1013 08:31:18.784389 11670 net.cpp:157] Top shape: 64 192 2 2 (49152)
I1013 08:31:18.784390 11670 net.cpp:165] Memory required for data: 142074624
I1013 08:31:18.784394 11670 layer_factory.hpp:77] Creating layer elu8
I1013 08:31:18.784399 11670 net.cpp:100] Creating Layer elu8
I1013 08:31:18.784400 11670 net.cpp:434] elu8 <- conv8
I1013 08:31:18.784404 11670 net.cpp:395] elu8 -> conv8 (in-place)
I1013 08:31:18.784409 11670 net.cpp:150] Setting up elu8
I1013 08:31:18.784410 11670 net.cpp:157] Top shape: 64 192 2 2 (49152)
I1013 08:31:18.784412 11670 net.cpp:165] Memory required for data: 142271232
I1013 08:31:18.784415 11670 layer_factory.hpp:77] Creating layer conv9
I1013 08:31:18.784420 11670 net.cpp:100] Creating Layer conv9
I1013 08:31:18.784436 11670 net.cpp:434] conv9 <- conv8
I1013 08:31:18.784440 11670 net.cpp:408] conv9 -> conv9
I1013 08:31:18.785246 11670 net.cpp:150] Setting up conv9
I1013 08:31:18.785257 11670 net.cpp:157] Top shape: 64 10 2 2 (2560)
I1013 08:31:18.785259 11670 net.cpp:165] Memory required for data: 142281472
I1013 08:31:18.785264 11670 layer_factory.hpp:77] Creating layer elu9
I1013 08:31:18.785267 11670 net.cpp:100] Creating Layer elu9
I1013 08:31:18.785269 11670 net.cpp:434] elu9 <- conv9
I1013 08:31:18.785274 11670 net.cpp:395] elu9 -> conv9 (in-place)
I1013 08:31:18.785277 11670 net.cpp:150] Setting up elu9
I1013 08:31:18.785280 11670 net.cpp:157] Top shape: 64 10 2 2 (2560)
I1013 08:31:18.785282 11670 net.cpp:165] Memory required for data: 142291712
I1013 08:31:18.785284 11670 layer_factory.hpp:77] Creating layer pool
I1013 08:31:18.785289 11670 net.cpp:100] Creating Layer pool
I1013 08:31:18.785305 11670 net.cpp:434] pool <- conv9
I1013 08:31:18.785307 11670 net.cpp:408] pool -> pool
I1013 08:31:18.785667 11670 net.cpp:150] Setting up pool
I1013 08:31:18.785676 11670 net.cpp:157] Top shape: 64 10 1 1 (640)
I1013 08:31:18.785678 11670 net.cpp:165] Memory required for data: 142294272
I1013 08:31:18.785691 11670 layer_factory.hpp:77] Creating layer flatten
I1013 08:31:18.785694 11670 net.cpp:100] Creating Layer flatten
I1013 08:31:18.785696 11670 net.cpp:434] flatten <- pool
I1013 08:31:18.785701 11670 net.cpp:408] flatten -> flatten
I1013 08:31:18.785735 11670 net.cpp:150] Setting up flatten
I1013 08:31:18.785739 11670 net.cpp:157] Top shape: 64 10 (640)
I1013 08:31:18.785742 11670 net.cpp:165] Memory required for data: 142296832
I1013 08:31:18.785743 11670 layer_factory.hpp:77] Creating layer score
I1013 08:31:18.785763 11670 net.cpp:100] Creating Layer score
I1013 08:31:18.785764 11670 net.cpp:434] score <- flatten
I1013 08:31:18.785768 11670 net.cpp:408] score -> score
I1013 08:31:18.785970 11670 net.cpp:150] Setting up score
I1013 08:31:18.785974 11670 net.cpp:157] Top shape: 64 10 (640)
I1013 08:31:18.785976 11670 net.cpp:165] Memory required for data: 142299392
I1013 08:31:18.785980 11670 layer_factory.hpp:77] Creating layer score_score_0_split
I1013 08:31:18.785984 11670 net.cpp:100] Creating Layer score_score_0_split
I1013 08:31:18.785986 11670 net.cpp:434] score_score_0_split <- score
I1013 08:31:18.785990 11670 net.cpp:408] score_score_0_split -> score_score_0_split_0
I1013 08:31:18.785995 11670 net.cpp:408] score_score_0_split -> score_score_0_split_1
I1013 08:31:18.786036 11670 net.cpp:150] Setting up score_score_0_split
I1013 08:31:18.786039 11670 net.cpp:157] Top shape: 64 10 (640)
I1013 08:31:18.786042 11670 net.cpp:157] Top shape: 64 10 (640)
I1013 08:31:18.786043 11670 net.cpp:165] Memory required for data: 142304512
I1013 08:31:18.786046 11670 layer_factory.hpp:77] Creating layer accuracy
I1013 08:31:18.786063 11670 net.cpp:100] Creating Layer accuracy
I1013 08:31:18.786065 11670 net.cpp:434] accuracy <- score_score_0_split_0
I1013 08:31:18.786068 11670 net.cpp:434] accuracy <- label_data_1_split_0
I1013 08:31:18.786085 11670 net.cpp:408] accuracy -> accuracy
…
I1013 08:31:18.786626 11670 net.cpp:283] Network initialization done.
I1013 08:31:18.786862 11670 solver.cpp:181] Creating test net (#0) specified by test_net file: /home/adam/Honours/Honours-Project/cifar-10_allcnn/elu/allcnn_elu_test.prototxt
I1013 08:31:18.787010 11670 net.cpp:58] Initializing net from parameters: 
state {
  phase: TEST
}
layer {
  name: "data"
  type: "Data"
  top: "data"
  top: "label"
  transform_param {
    mean_file: "mean.binaryproto"
  }
  data_param {
    source: "../../../data/cifar-10/cifar10_test_lmdb"
    batch_size: 100
    backend: LMDB
  }
}
layer {
  name: "conv1"
  type: "Convolution"
  bottom: "data"
  top: "conv1"
  convolution_param {
    num_output: 96
    kernel_size: 3
    weight_filler {
      type: "xavier"
    }
  }
}
layer {
  name: "elu1"
  type: "ELU"
  bottom: "conv1"
  top: "conv1"
}
layer {
  name: "conv2"
  type: "Convolution"
  bottom: "conv1"
  top: "conv2"
  convolution_param {
    num_output: 96
    kernel_size: 3
    weight_filler {
      type: "xavier"
    }
  }
}
layer {
  name: "bn1"
  type: "BatchNorm"
  bottom: "conv2"
  top: "bn1"
}
layer {
  name: "elu2"
  type: "ELU"
  bottom: "bn1"
  top: "bn1"
}
layer {
  name: "conv3"
  type: "Convolution"
  bottom: "bn1"
  top: "conv3"
  convolution_param {
    num_output: 96
    kernel_size: 3
    stride: 2
    weight_filler {
      type: "xavier"
    }
  }
}
layer {
  name: "drop1"
  type: "Dropout"
  bottom: "conv3"
  top: "drop1"
  dropout_param {
    dropout_ratio: 0.5
  }
}
layer {
  name: "elu3"
  type: "ELU"
  bottom: "drop1"
  top: "drop1"
}
layer {
  name: "conv4"
  type: "Convolution"
  bottom: "drop1"
  top: "conv4"
  convolution_param {
    num_output: 192
    kernel_size: 3
    weight_filler {
      type: "xavier"
    }
  }
}
layer {
  name: "elu4"
  type: "ELU"
  bottom: "conv4"
  top: "conv4"
}
layer {
  name: "conv5"
  type: "Convolution"
  bottom: "conv4"
  top: "conv5"
  convolution_param {
    num_output: 192
    kernel_size: 3
    weight_filler {
      type: "xavier"
    }
  }
}
layer {
  name: "bn2"
  type: "BatchNorm"
  bottom: "conv5"
  top: "bn2"
}
layer {
  name: "elu5"
  type: "ELU"
  bottom: "bn2"
  top: "bn2"
}
layer {
  name: "conv6"
  type: "Convolution"
  bottom: "bn2"
  top: "conv6"
  convolution_param {
    num_output: 192
    kernel_size: 3
    stride: 2
    weight_filler {
      type: "xavier"
    }
  }
}
layer {
  name: "drop4"
  type: "Dropout"
  bottom: "conv6"
  top: "drop4"
  dropout_param {
    dropout_ratio: 0.5
  }
}
layer {
  name: "elu6"
  type: "ELU"
  bottom: "drop4"
  top: "drop4"
}
layer {
  name: "conv7"
  type: "Convolution"
  bottom: "drop4"
  top: "conv7"
  convolution_param {
    num_output: 192
    kernel_size: 3
    weight_filler {
      type: "xavier"
    }
  }
}
layer {
  name: "elu7"
  type: "ELU"
  bottom: "conv7"
  top: "conv7"
}
layer {
  name: "conv8"
  type: "Convolution"
  bottom: "conv7"
  top: "conv8"
  convolution_param {
    num_output: 192
    kernel_size: 1
    weight_filler {
      type: "xavier"
    }
  }
}
layer {
  name: "elu8"
  type: "ELU"
  bottom: "conv8"
  top: "conv8"
}
layer {
  name: "conv9"
  type: "Convolution"
  bottom: "conv8"
  top: "conv9"
  convolution_param {
    num_output: 10
    kernel_size: 1
    weight_filler {
      type: "xavier"
    }
  }
}
layer {
  name: "elu9"
  type: "ELU"
  bottom: "conv9"
  top: "conv9"
}
layer {
  name: "pool"
  type: "Pooling"
  bottom: "conv9"
  top: "pool"
  pooling_param {
    pool: AVE
    global_pooling: true
  }
}
layer {
  name: "flatten"
  type: "Flatten"
  bottom: "pool"
  top: "flatten"
}
layer {
  name: "score"
  type: "InnerProduct"
  bottom: "flatten"
  top: "score"
  inner_product_param {
    num_output: 10
    weight_filler {
      type: "gaussian"
    }
  }
}
layer {
  name: "accuracy"
  type: "Accuracy"
  bottom: "score"
  bottom: "label"
  top: "accuracy"
}
layer {
  name: "loss"
  type: "SoftmaxWithLoss"
  bottom: "score"
  bottom: "label"
  top: "loss"
}
I1013 08:31:18.787116 11670 layer_factory.hpp:77] Creating layer data
I1013 08:31:18.787219 11670 net.cpp:100] Creating Layer data
I1013 08:31:18.787258 11670 net.cpp:408] data -> data
I1013 08:31:18.787277 11670 net.cpp:408] data -> label
I1013 08:31:18.787283 11670 data_transformer.cpp:25] Loading mean file from: mean.binaryproto
I1013 08:31:18.787979 11678 db_lmdb.cpp:35] Opened lmdb ../../../data/cifar-10/cifar10_test_lmdb
I1013 08:31:18.788136 11670 data_layer.cpp:41] output data size: 100,3,32,32
I1013 08:31:18.790096 11670 net.cpp:150] Setting up data
I1013 08:31:18.790114 11670 net.cpp:157] Top shape: 100 3 32 32 (307200)
I1013 08:31:18.790118 11670 net.cpp:157] Top shape: 100 (100)
I1013 08:31:18.790119 11670 net.cpp:165] Memory required for data: 1229200
I1013 08:31:18.790123 11670 layer_factory.hpp:77] Creating layer label_data_1_split
I1013 08:31:18.790148 11670 net.cpp:100] Creating Layer label_data_1_split
I1013 08:31:18.790151 11670 net.cpp:434] label_data_1_split <- label
I1013 08:31:18.790156 11670 net.cpp:408] label_data_1_split -> label_data_1_split_0
I1013 08:31:18.790175 11670 net.cpp:408] label_data_1_split -> label_data_1_split_1
I1013 08:31:18.790277 11670 net.cpp:150] Setting up label_data_1_split
I1013 08:31:18.790282 11670 net.cpp:157] Top shape: 100 (100)
I1013 08:31:18.790285 11670 net.cpp:157] Top shape: 100 (100)
I1013 08:31:18.790287 11670 net.cpp:165] Memory required for data: 1230000
I1013 08:31:18.790302 11670 layer_factory.hpp:77] Creating layer conv1
I1013 08:31:18.790310 11670 net.cpp:100] Creating Layer conv1
I1013 08:31:18.790330 11670 net.cpp:434] conv1 <- data
I1013 08:31:18.790335 11670 net.cpp:408] conv1 -> conv1
I1013 08:31:18.791471 11670 net.cpp:150] Setting up conv1
I1013 08:31:18.791496 11670 net.cpp:157] Top shape: 100 96 30 30 (8640000)
I1013 08:31:18.791497 11670 net.cpp:165] Memory required for data: 35790000
I1013 08:31:18.791519 11670 layer_factory.hpp:77] Creating layer elu1
I1013 08:31:18.791540 11670 net.cpp:100] Creating Layer elu1
I1013 08:31:18.791544 11670 net.cpp:434] elu1 <- conv1
I1013 08:31:18.791548 11670 net.cpp:395] elu1 -> conv1 (in-place)
I1013 08:31:18.791553 11670 net.cpp:150] Setting up elu1
I1013 08:31:18.791558 11670 net.cpp:157] Top shape: 100 96 30 30 (8640000)
I1013 08:31:18.791560 11670 net.cpp:165] Memory required for data: 70350000
I1013 08:31:18.791563 11670 layer_factory.hpp:77] Creating layer conv2
I1013 08:31:18.791569 11670 net.cpp:100] Creating Layer conv2
I1013 08:31:18.791573 11670 net.cpp:434] conv2 <- conv1
I1013 08:31:18.791577 11670 net.cpp:408] conv2 -> conv2
I1013 08:31:18.792949 11670 net.cpp:150] Setting up conv2
I1013 08:31:18.792959 11670 net.cpp:157] Top shape: 100 96 28 28 (7526400)
I1013 08:31:18.792963 11670 net.cpp:165] Memory required for data: 100455600
I1013 08:31:18.792970 11670 layer_factory.hpp:77] Creating layer bn1
I1013 08:31:18.792975 11670 net.cpp:100] Creating Layer bn1
I1013 08:31:18.792978 11670 net.cpp:434] bn1 <- conv2
I1013 08:31:18.792981 11670 net.cpp:408] bn1 -> bn1
I1013 08:31:18.793169 11670 net.cpp:150] Setting up bn1
I1013 08:31:18.793184 11670 net.cpp:157] Top shape: 100 96 28 28 (7526400)
I1013 08:31:18.793187 11670 net.cpp:165] Memory required for data: 130561200
I1013 08:31:18.793193 11670 layer_factory.hpp:77] Creating layer elu2
I1013 08:31:18.793198 11670 net.cpp:100] Creating Layer elu2
I1013 08:31:18.793215 11670 net.cpp:434] elu2 <- bn1
I1013 08:31:18.793220 11670 net.cpp:395] elu2 -> bn1 (in-place)
I1013 08:31:18.793225 11670 net.cpp:150] Setting up elu2
I1013 08:31:18.793227 11670 net.cpp:157] Top shape: 100 96 28 28 (7526400)
I1013 08:31:18.793229 11670 net.cpp:165] Memory required for data: 160666800
I1013 08:31:18.793231 11670 layer_factory.hpp:77] Creating layer conv3
I1013 08:31:18.793237 11670 net.cpp:100] Creating Layer conv3
I1013 08:31:18.793241 11670 net.cpp:434] conv3 <- bn1
I1013 08:31:18.793243 11670 net.cpp:408] conv3 -> conv3
I1013 08:31:18.794476 11670 net.cpp:150] Setting up conv3
I1013 08:31:18.794486 11670 net.cpp:157] Top shape: 100 96 13 13 (1622400)
I1013 08:31:18.794487 11670 net.cpp:165] Memory required for data: 167156400
I1013 08:31:18.794495 11670 layer_factory.hpp:77] Creating layer drop1
I1013 08:31:18.794502 11670 net.cpp:100] Creating Layer drop1
I1013 08:31:18.794505 11670 net.cpp:434] drop1 <- conv3
I1013 08:31:18.794512 11670 net.cpp:408] drop1 -> drop1
I1013 08:31:18.794544 11670 net.cpp:150] Setting up drop1
I1013 08:31:18.794549 11670 net.cpp:157] Top shape: 100 96 13 13 (1622400)
I1013 08:31:18.794553 11670 net.cpp:165] Memory required for data: 173646000
I1013 08:31:18.794554 11670 layer_factory.hpp:77] Creating layer elu3
I1013 08:31:18.794559 11670 net.cpp:100] Creating Layer elu3
I1013 08:31:18.794561 11670 net.cpp:434] elu3 <- drop1
I1013 08:31:18.794564 11670 net.cpp:395] elu3 -> drop1 (in-place)
I1013 08:31:18.794569 11670 net.cpp:150] Setting up elu3
I1013 08:31:18.794571 11670 net.cpp:157] Top shape: 100 96 13 13 (1622400)
I1013 08:31:18.794574 11670 net.cpp:165] Memory required for data: 180135600
I1013 08:31:18.794575 11670 layer_factory.hpp:77] Creating layer conv4
I1013 08:31:18.794580 11670 net.cpp:100] Creating Layer conv4
I1013 08:31:18.794582 11670 net.cpp:434] conv4 <- drop1
I1013 08:31:18.794587 11670 net.cpp:408] conv4 -> conv4
I1013 08:31:18.796391 11670 net.cpp:150] Setting up conv4
I1013 08:31:18.796401 11670 net.cpp:157] Top shape: 100 192 11 11 (2323200)
I1013 08:31:18.796403 11670 net.cpp:165] Memory required for data: 189428400
I1013 08:31:18.796408 11670 layer_factory.hpp:77] Creating layer elu4
I1013 08:31:18.796412 11670 net.cpp:100] Creating Layer elu4
I1013 08:31:18.796416 11670 net.cpp:434] elu4 <- conv4
I1013 08:31:18.796418 11670 net.cpp:395] elu4 -> conv4 (in-place)
I1013 08:31:18.796424 11670 net.cpp:150] Setting up elu4
I1013 08:31:18.796427 11670 net.cpp:157] Top shape: 100 192 11 11 (2323200)
I1013 08:31:18.796429 11670 net.cpp:165] Memory required for data: 198721200
I1013 08:31:18.796432 11670 layer_factory.hpp:77] Creating layer conv5
I1013 08:31:18.796439 11670 net.cpp:100] Creating Layer conv5
I1013 08:31:18.796442 11670 net.cpp:434] conv5 <- conv4
I1013 08:31:18.796447 11670 net.cpp:408] conv5 -> conv5
I1013 08:31:18.800420 11670 net.cpp:150] Setting up conv5
I1013 08:31:18.800439 11670 net.cpp:157] Top shape: 100 192 9 9 (1555200)
I1013 08:31:18.800441 11670 net.cpp:165] Memory required for data: 204942000
I1013 08:31:18.800447 11670 layer_factory.hpp:77] Creating layer bn2
I1013 08:31:18.800453 11670 net.cpp:100] Creating Layer bn2
I1013 08:31:18.800457 11670 net.cpp:434] bn2 <- conv5
I1013 08:31:18.800462 11670 net.cpp:408] bn2 -> bn2
I1013 08:31:18.800683 11670 net.cpp:150] Setting up bn2
I1013 08:31:18.800688 11670 net.cpp:157] Top shape: 100 192 9 9 (1555200)
I1013 08:31:18.800704 11670 net.cpp:165] Memory required for data: 211162800
I1013 08:31:18.800709 11670 layer_factory.hpp:77] Creating layer elu5
I1013 08:31:18.800711 11670 net.cpp:100] Creating Layer elu5
I1013 08:31:18.800714 11670 net.cpp:434] elu5 <- bn2
I1013 08:31:18.800717 11670 net.cpp:395] elu5 -> bn2 (in-place)
I1013 08:31:18.800737 11670 net.cpp:150] Setting up elu5
I1013 08:31:18.800765 11670 net.cpp:157] Top shape: 100 192 9 9 (1555200)
I1013 08:31:18.800767 11670 net.cpp:165] Memory required for data: 217383600
I1013 08:31:18.800782 11670 layer_factory.hpp:77] Creating layer conv6
I1013 08:31:18.800789 11670 net.cpp:100] Creating Layer conv6
I1013 08:31:18.800806 11670 net.cpp:434] conv6 <- bn2
I1013 08:31:18.800808 11670 net.cpp:408] conv6 -> conv6
I1013 08:31:18.803541 11670 net.cpp:150] Setting up conv6
I1013 08:31:18.803557 11670 net.cpp:157] Top shape: 100 192 4 4 (307200)
I1013 08:31:18.803560 11670 net.cpp:165] Memory required for data: 218612400
I1013 08:31:18.803568 11670 layer_factory.hpp:77] Creating layer drop4
I1013 08:31:18.803576 11670 net.cpp:100] Creating Layer drop4
I1013 08:31:18.803580 11670 net.cpp:434] drop4 <- conv6
I1013 08:31:18.803584 11670 net.cpp:408] drop4 -> drop4
I1013 08:31:18.803674 11670 net.cpp:150] Setting up drop4
I1013 08:31:18.803678 11670 net.cpp:157] Top shape: 100 192 4 4 (307200)
I1013 08:31:18.803680 11670 net.cpp:165] Memory required for data: 219841200
I1013 08:31:18.803683 11670 layer_factory.hpp:77] Creating layer elu6
I1013 08:31:18.803700 11670 net.cpp:100] Creating Layer elu6
I1013 08:31:18.803702 11670 net.cpp:434] elu6 <- drop4
I1013 08:31:18.803706 11670 net.cpp:395] elu6 -> drop4 (in-place)
I1013 08:31:18.803710 11670 net.cpp:150] Setting up elu6
I1013 08:31:18.803712 11670 net.cpp:157] Top shape: 100 192 4 4 (307200)
I1013 08:31:18.803714 11670 net.cpp:165] Memory required for data: 221070000
I1013 08:31:18.803716 11670 layer_factory.hpp:77] Creating layer conv7
I1013 08:31:18.803736 11670 net.cpp:100] Creating Layer conv7
I1013 08:31:18.803740 11670 net.cpp:434] conv7 <- drop4
I1013 08:31:18.803743 11670 net.cpp:408] conv7 -> conv7
I1013 08:31:18.806319 11670 net.cpp:150] Setting up conv7
I1013 08:31:18.806330 11670 net.cpp:157] Top shape: 100 192 2 2 (76800)
I1013 08:31:18.806332 11670 net.cpp:165] Memory required for data: 221377200
I1013 08:31:18.806337 11670 layer_factory.hpp:77] Creating layer elu7
I1013 08:31:18.806340 11670 net.cpp:100] Creating Layer elu7
I1013 08:31:18.806344 11670 net.cpp:434] elu7 <- conv7
I1013 08:31:18.806346 11670 net.cpp:395] elu7 -> conv7 (in-place)
I1013 08:31:18.806351 11670 net.cpp:150] Setting up elu7
I1013 08:31:18.806354 11670 net.cpp:157] Top shape: 100 192 2 2 (76800)
I1013 08:31:18.806355 11670 net.cpp:165] Memory required for data: 221684400
I1013 08:31:18.806358 11670 layer_factory.hpp:77] Creating layer conv8
I1013 08:31:18.806363 11670 net.cpp:100] Creating Layer conv8
I1013 08:31:18.806380 11670 net.cpp:434] conv8 <- conv7
I1013 08:31:18.806383 11670 net.cpp:408] conv8 -> conv8
I1013 08:31:18.807376 11670 net.cpp:150] Setting up conv8
I1013 08:31:18.807385 11670 net.cpp:157] Top shape: 100 192 2 2 (76800)
I1013 08:31:18.807389 11670 net.cpp:165] Memory required for data: 221991600
I1013 08:31:18.807392 11670 layer_factory.hpp:77] Creating layer elu8
I1013 08:31:18.807395 11670 net.cpp:100] Creating Layer elu8
I1013 08:31:18.807397 11670 net.cpp:434] elu8 <- conv8
I1013 08:31:18.807401 11670 net.cpp:395] elu8 -> conv8 (in-place)
I1013 08:31:18.807405 11670 net.cpp:150] Setting up elu8
I1013 08:31:18.807409 11670 net.cpp:157] Top shape: 100 192 2 2 (76800)
I1013 08:31:18.807410 11670 net.cpp:165] Memory required for data: 222298800
I1013 08:31:18.807411 11670 layer_factory.hpp:77] Creating layer conv9
I1013 08:31:18.807417 11670 net.cpp:100] Creating Layer conv9
I1013 08:31:18.807420 11670 net.cpp:434] conv9 <- conv8
I1013 08:31:18.807436 11670 net.cpp:408] conv9 -> conv9
I1013 08:31:18.808254 11670 net.cpp:150] Setting up conv9
I1013 08:31:18.808264 11670 net.cpp:157] Top shape: 100 10 2 2 (4000)
I1013 08:31:18.808266 11670 net.cpp:165] Memory required for data: 222314800
I1013 08:31:18.808270 11670 layer_factory.hpp:77] Creating layer elu9
I1013 08:31:18.808274 11670 net.cpp:100] Creating Layer elu9
I1013 08:31:18.808276 11670 net.cpp:434] elu9 <- conv9
I1013 08:31:18.808279 11670 net.cpp:395] elu9 -> conv9 (in-place)
I1013 08:31:18.808284 11670 net.cpp:150] Setting up elu9
I1013 08:31:18.808311 11670 net.cpp:157] Top shape: 100 10 2 2 (4000)
I1013 08:31:18.808313 11670 net.cpp:165] Memory required for data: 222330800
I1013 08:31:18.808315 11670 layer_factory.hpp:77] Creating layer pool
I1013 08:31:18.808318 11670 net.cpp:100] Creating Layer pool
I1013 08:31:18.808320 11670 net.cpp:434] pool <- conv9
I1013 08:31:18.808323 11670 net.cpp:408] pool -> pool
I1013 08:31:18.808616 11670 net.cpp:150] Setting up pool
I1013 08:31:18.808624 11670 net.cpp:157] Top shape: 100 10 1 1 (1000)
I1013 08:31:18.808626 11670 net.cpp:165] Memory required for data: 222334800
I1013 08:31:18.808629 11670 layer_factory.hpp:77] Creating layer flatten
I1013 08:31:18.808632 11670 net.cpp:100] Creating Layer flatten
I1013 08:31:18.808634 11670 net.cpp:434] flatten <- pool
I1013 08:31:18.808639 11670 net.cpp:408] flatten -> flatten
I1013 08:31:18.808673 11670 net.cpp:150] Setting up flatten
I1013 08:31:18.808677 11670 net.cpp:157] Top shape: 100 10 (1000)
I1013 08:31:18.808679 11670 net.cpp:165] Memory required for data: 222338800
I1013 08:31:18.808681 11670 layer_factory.hpp:77] Creating layer score
I1013 08:31:18.808686 11670 net.cpp:100] Creating Layer score
I1013 08:31:18.808689 11670 net.cpp:434] score <- flatten
I1013 08:31:18.808707 11670 net.cpp:408] score -> score
I1013 08:31:18.808838 11670 net.cpp:150] Setting up score
I1013 08:31:18.808843 11670 net.cpp:157] Top shape: 100 10 (1000)
I1013 08:31:18.808845 11670 net.cpp:165] Memory required for data: 222342800
I1013 08:31:18.808848 11670 layer_factory.hpp:77] Creating layer score_score_0_split
I1013 08:31:18.808853 11670 net.cpp:100] Creating Layer score_score_0_split
I1013 08:31:18.808856 11670 net.cpp:434] score_score_0_split <- score
I1013 08:31:18.808858 11670 net.cpp:408] score_score_0_split -> score_score_0_split_0
I1013 08:31:18.808862 11670 net.cpp:408] score_score_0_split -> score_score_0_split_1
I1013 08:31:18.808905 11670 net.cpp:150] Setting up score_score_0_split
I1013 08:31:18.808924 11670 net.cpp:157] Top shape: 100 10 (1000)
I1013 08:31:18.808926 11670 net.cpp:157] Top shape: 100 10 (1000)
I1013 08:31:18.808928 11670 net.cpp:165] Memory required for data: 222350800
I1013 08:31:18.808930 11670 layer_factory.hpp:77] Creating layer accuracy
I1013 08:31:18.808946 11670 net.cpp:100] Creating Layer accuracy
I1013 08:31:18.808948 11670 net.cpp:434] accuracy <- score_score_0_split_0
I1013 08:31:18.808951 11670 net.cpp:434] accuracy <- label_data_1_split_0
I1013 08:31:18.808970 11670 net.cpp:408] accuracy -> accuracy
…
