…
  stage: ""
}
type: "SGD"
I1012 06:04:15.009785  9045 solver.cpp:81] Creating training net from train_net file: /home/adam/Honours/Honours-Project/cifar-10_allcnn/relu/allcnn_relu_train.prototxt
I1012 06:04:15.010097  9045 net.cpp:58] Initializing net from parameters: 
state {
  phase: TRAIN
  level: 0
  stage: ""
}
layer {
  name: "data"
  type: "Data"
  top: "data"
  top: "label"
  transform_param {
    mean_file: "mean.binaryproto"
  }
  data_param {
    source: "../../../data/cifar-10/cifar10_train_lmdb"
    batch_size: 64
    backend: LMDB
  }
}
layer {
  name: "conv1"
  type: "Convolution"
  bottom: "data"
  top: "conv1"
  convolution_param {
    num_output: 96
    kernel_size: 3
    weight_filler {
      type: "xavier"
    }
  }
}
layer {
  name: "conv2"
  type: "Convolution"
  bottom: "conv1"
  top: "conv2"
  convolution_param {
    num_output: 96
    kernel_size: 3
    weight_filler {
      type: "xavier"
    }
  }
}
layer {
  name: "bn1"
  type: "BatchNorm"
  bottom: "conv2"
  top: "bn1"
}
layer {
  name: "conv3"
  type: "Convolution"
  bottom: "bn1"
  top: "conv3"
  convolution_param {
    num_output: 96
    kernel_size: 3
    stride: 2
    weight_filler {
      type: "xavier"
    }
  }
}
layer {
  name: "drop1"
  type: "Dropout"
  bottom: "conv3"
  top: "drop1"
  dropout_param {
    dropout_ratio: 0.5
  }
}
layer {
  name: "relu3"
  type: "ReLU"
  bottom: "drop1"
  top: "drop1"
}
layer {
  name: "conv4"
  type: "Convolution"
  bottom: "drop1"
  top: "conv4"
  convolution_param {
    num_output: 192
    kernel_size: 3
    weight_filler {
      type: "xavier"
    }
  }
}
layer {
  name: "conv5"
  type: "Convolution"
  bottom: "conv4"
  top: "conv5"
  convolution_param {
    num_output: 192
    kernel_size: 3
    weight_filler {
      type: "xavier"
    }
  }
}
layer {
  name: "bn2"
  type: "BatchNorm"
  bottom: "conv5"
  top: "bn2"
}
layer {
  name: "conv6"
  type: "Convolution"
  bottom: "bn2"
  top: "conv6"
  convolution_param {
    num_output: 192
    kernel_size: 3
    stride: 2
    weight_filler {
      type: "xavier"
    }
  }
}
layer {
  name: "drop4"
  type: "Dropout"
  bottom: "conv6"
  top: "drop4"
  dropout_param {
    dropout_ratio: 0.5
  }
}
layer {
  name: "relu6"
  type: "ReLU"
  bottom: "drop4"
  top: "drop4"
}
layer {
  name: "conv7"
  type: "Convolution"
  bottom: "drop4"
  top: "conv7"
  convolution_param {
    num_output: 192
    kernel_size: 3
    weight_filler {
      type: "xavier"
    }
  }
}
layer {
  name: "relu7"
  type: "ReLU"
  bottom: "conv7"
  top: "conv7"
}
layer {
  name: "conv8"
  type: "Convolution"
  bottom: "conv7"
  top: "conv8"
  convolution_param {
    num_output: 192
    kernel_size: 1
    weight_filler {
      type: "xavier"
    }
  }
}
layer {
  name: "relu8"
  type: "ReLU"
  bottom: "conv8"
  top: "conv8"
}
layer {
  name: "conv9"
  type: "Convolution"
  bottom: "conv8"
  top: "conv9"
  convolution_param {
    num_output: 10
    kernel_size: 1
    weight_filler {
      type: "xavier"
    }
  }
}
layer {
  name: "relu9"
  type: "ReLU"
  bottom: "conv9"
  top: "conv9"
}
layer {
  name: "pool"
  type: "Pooling"
  bottom: "conv9"
  top: "pool"
  pooling_param {
    pool: AVE
    global_pooling: true
  }
}
layer {
  name: "flatten"
  type: "Flatten"
  bottom: "pool"
  top: "flatten"
}
layer {
  name: "score"
  type: "InnerProduct"
  bottom: "flatten"
  top: "score"
  inner_product_param {
    num_output: 10
    weight_filler {
      type: "gaussian"
    }
  }
}
layer {
  name: "accuracy"
  type: "Accuracy"
  bottom: "score"
  bottom: "label"
  top: "accuracy"
}
layer {
  name: "loss"
  type: "SoftmaxWithLoss"
  bottom: "score"
  bottom: "label"
  top: "loss"
}
I1012 06:04:15.010275  9045 layer_factory.hpp:77] Creating layer data
I1012 06:04:15.010735  9045 net.cpp:100] Creating Layer data
I1012 06:04:15.010742  9045 net.cpp:408] data -> data
I1012 06:04:15.010781  9045 net.cpp:408] data -> label
I1012 06:04:15.010790  9045 data_transformer.cpp:25] Loading mean file from: mean.binaryproto
I1012 06:04:15.011478  9050 db_lmdb.cpp:35] Opened lmdb ../../../data/cifar-10/cifar10_train_lmdb
I1012 06:04:15.017745  9045 data_layer.cpp:41] output data size: 64,3,32,32
I1012 06:04:15.019294  9045 net.cpp:150] Setting up data
I1012 06:04:15.019323  9045 net.cpp:157] Top shape: 64 3 32 32 (196608)
I1012 06:04:15.019326  9045 net.cpp:157] Top shape: 64 (64)
I1012 06:04:15.019328  9045 net.cpp:165] Memory required for data: 786688
I1012 06:04:15.019337  9045 layer_factory.hpp:77] Creating layer label_data_1_split
I1012 06:04:15.019362  9045 net.cpp:100] Creating Layer label_data_1_split
I1012 06:04:15.019381  9045 net.cpp:434] label_data_1_split <- label
I1012 06:04:15.019404  9045 net.cpp:408] label_data_1_split -> label_data_1_split_0
I1012 06:04:15.019426  9045 net.cpp:408] label_data_1_split -> label_data_1_split_1
I1012 06:04:15.019469  9045 net.cpp:150] Setting up label_data_1_split
I1012 06:04:15.019487  9045 net.cpp:157] Top shape: 64 (64)
I1012 06:04:15.019490  9045 net.cpp:157] Top shape: 64 (64)
I1012 06:04:15.019491  9045 net.cpp:165] Memory required for data: 787200
I1012 06:04:15.019495  9045 layer_factory.hpp:77] Creating layer conv1
I1012 06:04:15.019520  9045 net.cpp:100] Creating Layer conv1
I1012 06:04:15.019522  9045 net.cpp:434] conv1 <- data
I1012 06:04:15.019528  9045 net.cpp:408] conv1 -> conv1
I1012 06:04:15.155112  9045 net.cpp:150] Setting up conv1
I1012 06:04:15.155135  9045 net.cpp:157] Top shape: 64 96 30 30 (5529600)
I1012 06:04:15.155138  9045 net.cpp:165] Memory required for data: 22905600
I1012 06:04:15.155155  9045 layer_factory.hpp:77] Creating layer conv2
I1012 06:04:15.155166  9045 net.cpp:100] Creating Layer conv2
I1012 06:04:15.155169  9045 net.cpp:434] conv2 <- conv1
I1012 06:04:15.155189  9045 net.cpp:408] conv2 -> conv2
I1012 06:04:15.156496  9045 net.cpp:150] Setting up conv2
I1012 06:04:15.156505  9045 net.cpp:157] Top shape: 64 96 28 28 (4816896)
I1012 06:04:15.156507  9045 net.cpp:165] Memory required for data: 42173184
I1012 06:04:15.156513  9045 layer_factory.hpp:77] Creating layer bn1
I1012 06:04:15.156519  9045 net.cpp:100] Creating Layer bn1
I1012 06:04:15.156522  9045 net.cpp:434] bn1 <- conv2
I1012 06:04:15.156525  9045 net.cpp:408] bn1 -> bn1
I1012 06:04:15.156708  9045 net.cpp:150] Setting up bn1
I1012 06:04:15.156713  9045 net.cpp:157] Top shape: 64 96 28 28 (4816896)
I1012 06:04:15.156715  9045 net.cpp:165] Memory required for data: 61440768
I1012 06:04:15.156723  9045 layer_factory.hpp:77] Creating layer conv3
I1012 06:04:15.156728  9045 net.cpp:100] Creating Layer conv3
I1012 06:04:15.156729  9045 net.cpp:434] conv3 <- bn1
I1012 06:04:15.156733  9045 net.cpp:408] conv3 -> conv3
I1012 06:04:15.157888  9045 net.cpp:150] Setting up conv3
I1012 06:04:15.157897  9045 net.cpp:157] Top shape: 64 96 13 13 (1038336)
I1012 06:04:15.157899  9045 net.cpp:165] Memory required for data: 65594112
I1012 06:04:15.157905  9045 layer_factory.hpp:77] Creating layer drop1
I1012 06:04:15.157910  9045 net.cpp:100] Creating Layer drop1
I1012 06:04:15.157912  9045 net.cpp:434] drop1 <- conv3
I1012 06:04:15.157915  9045 net.cpp:408] drop1 -> drop1
I1012 06:04:15.157961  9045 net.cpp:150] Setting up drop1
I1012 06:04:15.157980  9045 net.cpp:157] Top shape: 64 96 13 13 (1038336)
I1012 06:04:15.157982  9045 net.cpp:165] Memory required for data: 69747456
I1012 06:04:15.157984  9045 layer_factory.hpp:77] Creating layer relu3
I1012 06:04:15.158001  9045 net.cpp:100] Creating Layer relu3
I1012 06:04:15.158004  9045 net.cpp:434] relu3 <- drop1
I1012 06:04:15.158006  9045 net.cpp:395] relu3 -> drop1 (in-place)
I1012 06:04:15.158344  9045 net.cpp:150] Setting up relu3
I1012 06:04:15.158352  9045 net.cpp:157] Top shape: 64 96 13 13 (1038336)
I1012 06:04:15.158354  9045 net.cpp:165] Memory required for data: 73900800
I1012 06:04:15.158356  9045 layer_factory.hpp:77] Creating layer conv4
I1012 06:04:15.158363  9045 net.cpp:100] Creating Layer conv4
I1012 06:04:15.158365  9045 net.cpp:434] conv4 <- drop1
I1012 06:04:15.158370  9045 net.cpp:408] conv4 -> conv4
I1012 06:04:15.160233  9045 net.cpp:150] Setting up conv4
I1012 06:04:15.160244  9045 net.cpp:157] Top shape: 64 192 11 11 (1486848)
I1012 06:04:15.160246  9045 net.cpp:165] Memory required for data: 79848192
I1012 06:04:15.160251  9045 layer_factory.hpp:77] Creating layer conv5
I1012 06:04:15.160257  9045 net.cpp:100] Creating Layer conv5
I1012 06:04:15.160260  9045 net.cpp:434] conv5 <- conv4
I1012 06:04:15.160264  9045 net.cpp:408] conv5 -> conv5
I1012 06:04:15.162760  9045 net.cpp:150] Setting up conv5
I1012 06:04:15.162784  9045 net.cpp:157] Top shape: 64 192 9 9 (995328)
I1012 06:04:15.162786  9045 net.cpp:165] Memory required for data: 83829504
I1012 06:04:15.162791  9045 layer_factory.hpp:77] Creating layer bn2
I1012 06:04:15.162796  9045 net.cpp:100] Creating Layer bn2
I1012 06:04:15.162799  9045 net.cpp:434] bn2 <- conv5
I1012 06:04:15.162802  9045 net.cpp:408] bn2 -> bn2
I1012 06:04:15.163012  9045 net.cpp:150] Setting up bn2
I1012 06:04:15.163017  9045 net.cpp:157] Top shape: 64 192 9 9 (995328)
I1012 06:04:15.163018  9045 net.cpp:165] Memory required for data: 87810816
I1012 06:04:15.163023  9045 layer_factory.hpp:77] Creating layer conv6
I1012 06:04:15.163028  9045 net.cpp:100] Creating Layer conv6
I1012 06:04:15.163030  9045 net.cpp:434] conv6 <- bn2
I1012 06:04:15.163033  9045 net.cpp:408] conv6 -> conv6
I1012 06:04:15.165546  9045 net.cpp:150] Setting up conv6
I1012 06:04:15.165572  9045 net.cpp:157] Top shape: 64 192 4 4 (196608)
I1012 06:04:15.165575  9045 net.cpp:165] Memory required for data: 88597248
I1012 06:04:15.165582  9045 layer_factory.hpp:77] Creating layer drop4
I1012 06:04:15.165588  9045 net.cpp:100] Creating Layer drop4
I1012 06:04:15.165592  9045 net.cpp:434] drop4 <- conv6
I1012 06:04:15.165609  9045 net.cpp:408] drop4 -> drop4
I1012 06:04:15.165653  9045 net.cpp:150] Setting up drop4
I1012 06:04:15.165659  9045 net.cpp:157] Top shape: 64 192 4 4 (196608)
I1012 06:04:15.165662  9045 net.cpp:165] Memory required for data: 89383680
I1012 06:04:15.165663  9045 layer_factory.hpp:77] Creating layer relu6
I1012 06:04:15.165668  9045 net.cpp:100] Creating Layer relu6
I1012 06:04:15.165669  9045 net.cpp:434] relu6 <- drop4
I1012 06:04:15.165686  9045 net.cpp:395] relu6 -> drop4 (in-place)
I1012 06:04:15.165931  9045 net.cpp:150] Setting up relu6
I1012 06:04:15.165953  9045 net.cpp:157] Top shape: 64 192 4 4 (196608)
I1012 06:04:15.165956  9045 net.cpp:165] Memory required for data: 90170112
I1012 06:04:15.165958  9045 layer_factory.hpp:77] Creating layer conv7
I1012 06:04:15.165964  9045 net.cpp:100] Creating Layer conv7
I1012 06:04:15.165968  9045 net.cpp:434] conv7 <- drop4
I1012 06:04:15.165972  9045 net.cpp:408] conv7 -> conv7
I1012 06:04:15.169250  9045 net.cpp:150] Setting up conv7
I1012 06:04:15.169282  9045 net.cpp:157] Top shape: 64 192 2 2 (49152)
I1012 06:04:15.169286  9045 net.cpp:165] Memory required for data: 90366720
I1012 06:04:15.169291  9045 layer_factory.hpp:77] Creating layer relu7
I1012 06:04:15.169299  9045 net.cpp:100] Creating Layer relu7
I1012 06:04:15.169302  9045 net.cpp:434] relu7 <- conv7
I1012 06:04:15.169306  9045 net.cpp:395] relu7 -> conv7 (in-place)
I1012 06:04:15.169592  9045 net.cpp:150] Setting up relu7
I1012 06:04:15.169615  9045 net.cpp:157] Top shape: 64 192 2 2 (49152)
I1012 06:04:15.169617  9045 net.cpp:165] Memory required for data: 90563328
I1012 06:04:15.169620  9045 layer_factory.hpp:77] Creating layer conv8
I1012 06:04:15.169631  9045 net.cpp:100] Creating Layer conv8
I1012 06:04:15.169633  9045 net.cpp:434] conv8 <- conv7
I1012 06:04:15.169637  9045 net.cpp:408] conv8 -> conv8
I1012 06:04:15.170920  9045 net.cpp:150] Setting up conv8
I1012 06:04:15.170953  9045 net.cpp:157] Top shape: 64 192 2 2 (49152)
I1012 06:04:15.170956  9045 net.cpp:165] Memory required for data: 90759936
I1012 06:04:15.170961  9045 layer_factory.hpp:77] Creating layer relu8
I1012 06:04:15.170965  9045 net.cpp:100] Creating Layer relu8
I1012 06:04:15.170967  9045 net.cpp:434] relu8 <- conv8
I1012 06:04:15.170971  9045 net.cpp:395] relu8 -> conv8 (in-place)
I1012 06:04:15.171253  9045 net.cpp:150] Setting up relu8
I1012 06:04:15.171275  9045 net.cpp:157] Top shape: 64 192 2 2 (49152)
I1012 06:04:15.171278  9045 net.cpp:165] Memory required for data: 90956544
I1012 06:04:15.171280  9045 layer_factory.hpp:77] Creating layer conv9
I1012 06:04:15.171286  9045 net.cpp:100] Creating Layer conv9
I1012 06:04:15.171289  9045 net.cpp:434] conv9 <- conv8
I1012 06:04:15.171293  9045 net.cpp:408] conv9 -> conv9
I1012 06:04:15.172137  9045 net.cpp:150] Setting up conv9
I1012 06:04:15.172160  9045 net.cpp:157] Top shape: 64 10 2 2 (2560)
I1012 06:04:15.172163  9045 net.cpp:165] Memory required for data: 90966784
I1012 06:04:15.172168  9045 layer_factory.hpp:77] Creating layer relu9
I1012 06:04:15.172173  9045 net.cpp:100] Creating Layer relu9
I1012 06:04:15.172174  9045 net.cpp:434] relu9 <- conv9
I1012 06:04:15.172178  9045 net.cpp:395] relu9 -> conv9 (in-place)
I1012 06:04:15.172446  9045 net.cpp:150] Setting up relu9
I1012 06:04:15.172468  9045 net.cpp:157] Top shape: 64 10 2 2 (2560)
I1012 06:04:15.172471  9045 net.cpp:165] Memory required for data: 90977024
I1012 06:04:15.172472  9045 layer_factory.hpp:77] Creating layer pool
I1012 06:04:15.172492  9045 net.cpp:100] Creating Layer pool
I1012 06:04:15.172493  9045 net.cpp:434] pool <- conv9
I1012 06:04:15.172497  9045 net.cpp:408] pool -> pool
I1012 06:04:15.172690  9045 net.cpp:150] Setting up pool
I1012 06:04:15.172696  9045 net.cpp:157] Top shape: 64 10 1 1 (640)
I1012 06:04:15.172713  9045 net.cpp:165] Memory required for data: 90979584
I1012 06:04:15.172715  9045 layer_factory.hpp:77] Creating layer flatten
I1012 06:04:15.172719  9045 net.cpp:100] Creating Layer flatten
I1012 06:04:15.172720  9045 net.cpp:434] flatten <- pool
I1012 06:04:15.172724  9045 net.cpp:408] flatten -> flatten
I1012 06:04:15.172772  9045 net.cpp:150] Setting up flatten
I1012 06:04:15.172777  9045 net.cpp:157] Top shape: 64 10 (640)
I1012 06:04:15.172780  9045 net.cpp:165] Memory required for data: 90982144
I1012 06:04:15.172781  9045 layer_factory.hpp:77] Creating layer score
I1012 06:04:15.172785  9045 net.cpp:100] Creating Layer score
I1012 06:04:15.172787  9045 net.cpp:434] score <- flatten
I1012 06:04:15.172804  9045 net.cpp:408] score -> score
I1012 06:04:15.172981  9045 net.cpp:150] Setting up score
I1012 06:04:15.172984  9045 net.cpp:157] Top shape: 64 10 (640)
I1012 06:04:15.173001  9045 net.cpp:165] Memory required for data: 90984704
I1012 06:04:15.173004  9045 layer_factory.hpp:77] Creating layer score_score_0_split
I1012 06:04:15.173009  9045 net.cpp:100] Creating Layer score_score_0_split
I1012 06:04:15.173012  9045 net.cpp:434] score_score_0_split <- score
I1012 06:04:15.173015  9045 net.cpp:408] score_score_0_split -> score_score_0_split_0
I1012 06:04:15.173020  9045 net.cpp:408] score_score_0_split -> score_score_0_split_1
I1012 06:04:15.173089  9045 net.cpp:150] Setting up score_score_0_split
I1012 06:04:15.173092  9045 net.cpp:157] Top shape: 64 10 (640)
I1012 06:04:15.173108  9045 net.cpp:157] Top shape: 64 10 (640)
I1012 06:04:15.173110  9045 net.cpp:165] Memory required for data: 90989824
I1012 06:04:15.173112  9045 layer_factory.hpp:77] Creating layer accuracy
I1012 06:04:15.173131  9045 net.cpp:100] Creating Layer accuracy
I1012 06:04:15.173133  9045 net.cpp:434] accuracy <- score_score_0_split_0
I1012 06:04:15.173136  9045 net.cpp:434] accuracy <- label_data_1_split_0
I1012 06:04:15.173154  9045 net.cpp:408] accuracy -> accuracy
…
I1012 06:04:15.173660  9045 net.cpp:283] Network initialization done.
I1012 06:04:15.173866  9045 solver.cpp:181] Creating test net (#0) specified by test_net file: /home/adam/Honours/Honours-Project/cifar-10_allcnn/relu/allcnn_relu_test.prototxt
I1012 06:04:15.174003  9045 net.cpp:58] Initializing net from parameters: 
state {
  phase: TEST
}
layer {
  name: "data"
  type: "Data"
  top: "data"
  top: "label"
  transform_param {
    mean_file: "mean.binaryproto"
  }
  data_param {
    source: "../../../data/cifar-10/cifar10_test_lmdb"
    batch_size: 100
    backend: LMDB
  }
}
layer {
  name: "conv1"
  type: "Convolution"
  bottom: "data"
  top: "conv1"
  convolution_param {
    num_output: 96
    kernel_size: 3
    weight_filler {
      type: "xavier"
    }
  }
}
layer {
  name: "conv2"
  type: "Convolution"
  bottom: "conv1"
  top: "conv2"
  convolution_param {
    num_output: 96
    kernel_size: 3
    weight_filler {
      type: "xavier"
    }
  }
}
layer {
  name: "bn1"
  type: "BatchNorm"
  bottom: "conv2"
  top: "bn1"
}
layer {
  name: "conv3"
  type: "Convolution"
  bottom: "bn1"
  top: "conv3"
  convolution_param {
    num_output: 96
    kernel_size: 3
    stride: 2
    weight_filler {
      type: "xavier"
    }
  }
}
layer {
  name: "drop1"
  type: "Dropout"
  bottom: "conv3"
  top: "drop1"
  dropout_param {
    dropout_ratio: 0.5
  }
}
layer {
  name: "relu3"
  type: "ReLU"
  bottom: "drop1"
  top: "drop1"
}
layer {
  name: "conv4"
  type: "Convolution"
  bottom: "drop1"
  top: "conv4"
  convolution_param {
    num_output: 192
    kernel_size: 3
    weight_filler {
      type: "xavier"
    }
  }
}
layer {
  name: "conv5"
  type: "Convolution"
  bottom: "conv4"
  top: "conv5"
  convolution_param {
    num_output: 192
    kernel_size: 3
    weight_filler {
      type: "xavier"
    }
  }
}
layer {
  name: "bn2"
  type: "BatchNorm"
  bottom: "conv5"
  top: "bn2"
}
layer {
  name: "conv6"
  type: "Convolution"
  bottom: "bn2"
  top: "conv6"
  convolution_param {
    num_output: 192
    kernel_size: 3
    stride: 2
    weight_filler {
      type: "xavier"
    }
  }
}
layer {
  name: "drop4"
  type: "Dropout"
  bottom: "conv6"
  top: "drop4"
  dropout_param {
    dropout_ratio: 0.5
  }
}
layer {
  name: "relu6"
  type: "ReLU"
  bottom: "drop4"
  top: "drop4"
}
layer {
  name: "conv7"
  type: "Convolution"
  bottom: "drop4"
  top: "conv7"
  convolution_param {
    num_output: 192
    kernel_size: 3
    weight_filler {
      type: "xavier"
    }
  }
}
layer {
  name: "relu7"
  type: "ReLU"
  bottom: "conv7"
  top: "conv7"
}
layer {
  name: "conv8"
  type: "Convolution"
  bottom: "conv7"
  top: "conv8"
  convolution_param {
    num_output: 192
    kernel_size: 1
    weight_filler {
      type: "xavier"
    }
  }
}
layer {
  name: "relu8"
  type: "ReLU"
  bottom: "conv8"
  top: "conv8"
}
layer {
  name: "conv9"
  type: "Convolution"
  bottom: "conv8"
  top: "conv9"
  convolution_param {
    num_output: 10
    kernel_size: 1
    weight_filler {
      type: "xavier"
    }
  }
}
layer {
  name: "relu9"
  type: "ReLU"
  bottom: "conv9"
  top: "conv9"
}
layer {
  name: "pool"
  type: "Pooling"
  bottom: "conv9"
  top: "pool"
  pooling_param {
    pool: AVE
    global_pooling: true
  }
}
layer {
  name: "flatten"
  type: "Flatten"
  bottom: "pool"
  top: "flatten"
}
layer {
  name: "score"
  type: "InnerProduct"
  bottom: "flatten"
  top: "score"
  inner_product_param {
    num_output: 10
    weight_filler {
      type: "gaussian"
    }
  }
}
layer {
  name: "accuracy"
  type: "Accuracy"
  bottom: "score"
  bottom: "label"
  top: "accuracy"
}
layer {
  name: "loss"
  type: "SoftmaxWithLoss"
  bottom: "score"
  bottom: "label"
  top: "loss"
}
I1012 06:04:15.174105  9045 layer_factory.hpp:77] Creating layer data
I1012 06:04:15.174203  9045 net.cpp:100] Creating Layer data
I1012 06:04:15.174211  9045 net.cpp:408] data -> data
I1012 06:04:15.174232  9045 net.cpp:408] data -> label
I1012 06:04:15.174250  9045 data_transformer.cpp:25] Loading mean file from: mean.binaryproto
I1012 06:04:15.174986  9054 db_lmdb.cpp:35] Opened lmdb ../../../data/cifar-10/cifar10_test_lmdb
I1012 06:04:15.175103  9045 data_layer.cpp:41] output data size: 100,3,32,32
I1012 06:04:15.177037  9045 net.cpp:150] Setting up data
I1012 06:04:15.177057  9045 net.cpp:157] Top shape: 100 3 32 32 (307200)
I1012 06:04:15.177059  9045 net.cpp:157] Top shape: 100 (100)
I1012 06:04:15.177062  9045 net.cpp:165] Memory required for data: 1229200
I1012 06:04:15.177065  9045 layer_factory.hpp:77] Creating layer label_data_1_split
I1012 06:04:15.177086  9045 net.cpp:100] Creating Layer label_data_1_split
I1012 06:04:15.177101  9045 net.cpp:434] label_data_1_split <- label
I1012 06:04:15.177108  9045 net.cpp:408] label_data_1_split -> label_data_1_split_0
I1012 06:04:15.177114  9045 net.cpp:408] label_data_1_split -> label_data_1_split_1
I1012 06:04:15.177220  9045 net.cpp:150] Setting up label_data_1_split
I1012 06:04:15.177227  9045 net.cpp:157] Top shape: 100 (100)
I1012 06:04:15.177230  9045 net.cpp:157] Top shape: 100 (100)
I1012 06:04:15.177232  9045 net.cpp:165] Memory required for data: 1230000
I1012 06:04:15.177234  9045 layer_factory.hpp:77] Creating layer conv1
I1012 06:04:15.177255  9045 net.cpp:100] Creating Layer conv1
I1012 06:04:15.177258  9045 net.cpp:434] conv1 <- data
I1012 06:04:15.177276  9045 net.cpp:408] conv1 -> conv1
I1012 06:04:15.178405  9045 net.cpp:150] Setting up conv1
I1012 06:04:15.178431  9045 net.cpp:157] Top shape: 100 96 30 30 (8640000)
I1012 06:04:15.178436  9045 net.cpp:165] Memory required for data: 35790000
I1012 06:04:15.178457  9045 layer_factory.hpp:77] Creating layer conv2
I1012 06:04:15.178463  9045 net.cpp:100] Creating Layer conv2
I1012 06:04:15.178467  9045 net.cpp:434] conv2 <- conv1
I1012 06:04:15.178470  9045 net.cpp:408] conv2 -> conv2
I1012 06:04:15.179733  9045 net.cpp:150] Setting up conv2
I1012 06:04:15.179744  9045 net.cpp:157] Top shape: 100 96 28 28 (7526400)
I1012 06:04:15.179761  9045 net.cpp:165] Memory required for data: 65895600
I1012 06:04:15.179769  9045 layer_factory.hpp:77] Creating layer bn1
I1012 06:04:15.179775  9045 net.cpp:100] Creating Layer bn1
I1012 06:04:15.179778  9045 net.cpp:434] bn1 <- conv2
I1012 06:04:15.179783  9045 net.cpp:408] bn1 -> bn1
I1012 06:04:15.179982  9045 net.cpp:150] Setting up bn1
I1012 06:04:15.179987  9045 net.cpp:157] Top shape: 100 96 28 28 (7526400)
I1012 06:04:15.180004  9045 net.cpp:165] Memory required for data: 96001200
I1012 06:04:15.180011  9045 layer_factory.hpp:77] Creating layer conv3
I1012 06:04:15.180018  9045 net.cpp:100] Creating Layer conv3
I1012 06:04:15.180021  9045 net.cpp:434] conv3 <- bn1
I1012 06:04:15.180024  9045 net.cpp:408] conv3 -> conv3
I1012 06:04:15.181259  9045 net.cpp:150] Setting up conv3
I1012 06:04:15.181270  9045 net.cpp:157] Top shape: 100 96 13 13 (1622400)
I1012 06:04:15.181273  9045 net.cpp:165] Memory required for data: 102490800
I1012 06:04:15.181279  9045 layer_factory.hpp:77] Creating layer drop1
I1012 06:04:15.181285  9045 net.cpp:100] Creating Layer drop1
I1012 06:04:15.181288  9045 net.cpp:434] drop1 <- conv3
I1012 06:04:15.181291  9045 net.cpp:408] drop1 -> drop1
I1012 06:04:15.181330  9045 net.cpp:150] Setting up drop1
I1012 06:04:15.181335  9045 net.cpp:157] Top shape: 100 96 13 13 (1622400)
I1012 06:04:15.181337  9045 net.cpp:165] Memory required for data: 108980400
I1012 06:04:15.181339  9045 layer_factory.hpp:77] Creating layer relu3
I1012 06:04:15.181344  9045 net.cpp:100] Creating Layer relu3
I1012 06:04:15.181347  9045 net.cpp:434] relu3 <- drop1
I1012 06:04:15.181351  9045 net.cpp:395] relu3 -> drop1 (in-place)
I1012 06:04:15.181581  9045 net.cpp:150] Setting up relu3
I1012 06:04:15.181591  9045 net.cpp:157] Top shape: 100 96 13 13 (1622400)
I1012 06:04:15.181593  9045 net.cpp:165] Memory required for data: 115470000
I1012 06:04:15.181596  9045 layer_factory.hpp:77] Creating layer conv4
I1012 06:04:15.181603  9045 net.cpp:100] Creating Layer conv4
I1012 06:04:15.181607  9045 net.cpp:434] conv4 <- drop1
I1012 06:04:15.181612  9045 net.cpp:408] conv4 -> conv4
I1012 06:04:15.184831  9045 net.cpp:150] Setting up conv4
I1012 06:04:15.184846  9045 net.cpp:157] Top shape: 100 192 11 11 (2323200)
I1012 06:04:15.184849  9045 net.cpp:165] Memory required for data: 124762800
I1012 06:04:15.184867  9045 layer_factory.hpp:77] Creating layer conv5
I1012 06:04:15.184890  9045 net.cpp:100] Creating Layer conv5
I1012 06:04:15.184895  9045 net.cpp:434] conv5 <- conv4
I1012 06:04:15.184900  9045 net.cpp:408] conv5 -> conv5
I1012 06:04:15.187609  9045 net.cpp:150] Setting up conv5
I1012 06:04:15.187638  9045 net.cpp:157] Top shape: 100 192 9 9 (1555200)
I1012 06:04:15.187640  9045 net.cpp:165] Memory required for data: 130983600
I1012 06:04:15.187645  9045 layer_factory.hpp:77] Creating layer bn2
I1012 06:04:15.187652  9045 net.cpp:100] Creating Layer bn2
I1012 06:04:15.187655  9045 net.cpp:434] bn2 <- conv5
I1012 06:04:15.187659  9045 net.cpp:408] bn2 -> bn2
I1012 06:04:15.187894  9045 net.cpp:150] Setting up bn2
I1012 06:04:15.187899  9045 net.cpp:157] Top shape: 100 192 9 9 (1555200)
I1012 06:04:15.187916  9045 net.cpp:165] Memory required for data: 137204400
I1012 06:04:15.187921  9045 layer_factory.hpp:77] Creating layer conv6
I1012 06:04:15.187925  9045 net.cpp:100] Creating Layer conv6
I1012 06:04:15.187928  9045 net.cpp:434] conv6 <- bn2
I1012 06:04:15.187932  9045 net.cpp:408] conv6 -> conv6
I1012 06:04:15.190557  9045 net.cpp:150] Setting up conv6
I1012 06:04:15.190580  9045 net.cpp:157] Top shape: 100 192 4 4 (307200)
I1012 06:04:15.190583  9045 net.cpp:165] Memory required for data: 138433200
I1012 06:04:15.190593  9045 layer_factory.hpp:77] Creating layer drop4
I1012 06:04:15.190598  9045 net.cpp:100] Creating Layer drop4
I1012 06:04:15.190601  9045 net.cpp:434] drop4 <- conv6
I1012 06:04:15.190620  9045 net.cpp:408] drop4 -> drop4
I1012 06:04:15.190680  9045 net.cpp:150] Setting up drop4
I1012 06:04:15.190685  9045 net.cpp:157] Top shape: 100 192 4 4 (307200)
I1012 06:04:15.190699  9045 net.cpp:165] Memory required for data: 139662000
I1012 06:04:15.190701  9045 layer_factory.hpp:77] Creating layer relu6
I1012 06:04:15.190706  9045 net.cpp:100] Creating Layer relu6
I1012 06:04:15.190707  9045 net.cpp:434] relu6 <- drop4
I1012 06:04:15.190724  9045 net.cpp:395] relu6 -> drop4 (in-place)
I1012 06:04:15.190996  9045 net.cpp:150] Setting up relu6
I1012 06:04:15.191020  9045 net.cpp:157] Top shape: 100 192 4 4 (307200)
I1012 06:04:15.191022  9045 net.cpp:165] Memory required for data: 140890800
I1012 06:04:15.191025  9045 layer_factory.hpp:77] Creating layer conv7
I1012 06:04:15.191030  9045 net.cpp:100] Creating Layer conv7
I1012 06:04:15.191032  9045 net.cpp:434] conv7 <- drop4
I1012 06:04:15.191038  9045 net.cpp:408] conv7 -> conv7
I1012 06:04:15.193619  9045 net.cpp:150] Setting up conv7
I1012 06:04:15.193645  9045 net.cpp:157] Top shape: 100 192 2 2 (76800)
I1012 06:04:15.193647  9045 net.cpp:165] Memory required for data: 141198000
I1012 06:04:15.193652  9045 layer_factory.hpp:77] Creating layer relu7
I1012 06:04:15.193670  9045 net.cpp:100] Creating Layer relu7
I1012 06:04:15.193671  9045 net.cpp:434] relu7 <- conv7
I1012 06:04:15.193691  9045 net.cpp:395] relu7 -> conv7 (in-place)
I1012 06:04:15.193958  9045 net.cpp:150] Setting up relu7
I1012 06:04:15.193980  9045 net.cpp:157] Top shape: 100 192 2 2 (76800)
I1012 06:04:15.193982  9045 net.cpp:165] Memory required for data: 141505200
I1012 06:04:15.193984  9045 layer_factory.hpp:77] Creating layer conv8
I1012 06:04:15.193992  9045 net.cpp:100] Creating Layer conv8
I1012 06:04:15.193996  9045 net.cpp:434] conv8 <- conv7
I1012 06:04:15.194015  9045 net.cpp:408] conv8 -> conv8
I1012 06:04:15.195030  9045 net.cpp:150] Setting up conv8
I1012 06:04:15.195055  9045 net.cpp:157] Top shape: 100 192 2 2 (76800)
I1012 06:04:15.195056  9045 net.cpp:165] Memory required for data: 141812400
I1012 06:04:15.195061  9045 layer_factory.hpp:77] Creating layer relu8
I1012 06:04:15.195065  9045 net.cpp:100] Creating Layer relu8
I1012 06:04:15.195067  9045 net.cpp:434] relu8 <- conv8
I1012 06:04:15.195072  9045 net.cpp:395] relu8 -> conv8 (in-place)
I1012 06:04:15.195266  9045 net.cpp:150] Setting up relu8
I1012 06:04:15.195272  9045 net.cpp:157] Top shape: 100 192 2 2 (76800)
I1012 06:04:15.195289  9045 net.cpp:165] Memory required for data: 142119600
I1012 06:04:15.195291  9045 layer_factory.hpp:77] Creating layer conv9
I1012 06:04:15.195297  9045 net.cpp:100] Creating Layer conv9
I1012 06:04:15.195299  9045 net.cpp:434] conv9 <- conv8
I1012 06:04:15.195303  9045 net.cpp:408] conv9 -> conv9
I1012 06:04:15.196154  9045 net.cpp:150] Setting up conv9
I1012 06:04:15.196177  9045 net.cpp:157] Top shape: 100 10 2 2 (4000)
I1012 06:04:15.196180  9045 net.cpp:165] Memory required for data: 142135600
I1012 06:04:15.196184  9045 layer_factory.hpp:77] Creating layer relu9
I1012 06:04:15.196202  9045 net.cpp:100] Creating Layer relu9
I1012 06:04:15.196203  9045 net.cpp:434] relu9 <- conv9
I1012 06:04:15.196208  9045 net.cpp:395] relu9 -> conv9 (in-place)
I1012 06:04:15.196461  9045 net.cpp:150] Setting up relu9
I1012 06:04:15.196485  9045 net.cpp:157] Top shape: 100 10 2 2 (4000)
I1012 06:04:15.196486  9045 net.cpp:165] Memory required for data: 142151600
I1012 06:04:15.196488  9045 layer_factory.hpp:77] Creating layer pool
I1012 06:04:15.196493  9045 net.cpp:100] Creating Layer pool
I1012 06:04:15.196498  9045 net.cpp:434] pool <- conv9
I1012 06:04:15.196501  9045 net.cpp:408] pool -> pool
I1012 06:04:15.196699  9045 net.cpp:150] Setting up pool
I1012 06:04:15.196722  9045 net.cpp:157] Top shape: 100 10 1 1 (1000)
I1012 06:04:15.196723  9045 net.cpp:165] Memory required for data: 142155600
I1012 06:04:15.196727  9045 layer_factory.hpp:77] Creating layer flatten
I1012 06:04:15.196729  9045 net.cpp:100] Creating Layer flatten
I1012 06:04:15.196732  9045 net.cpp:434] flatten <- pool
I1012 06:04:15.196735  9045 net.cpp:408] flatten -> flatten
I1012 06:04:15.196785  9045 net.cpp:150] Setting up flatten
I1012 06:04:15.196789  9045 net.cpp:157] Top shape: 100 10 (1000)
I1012 06:04:15.196791  9045 net.cpp:165] Memory required for data: 142159600
I1012 06:04:15.196792  9045 layer_factory.hpp:77] Creating layer score
I1012 06:04:15.196797  9045 net.cpp:100] Creating Layer score
I1012 06:04:15.196799  9045 net.cpp:434] score <- flatten
I1012 06:04:15.196815  9045 net.cpp:408] score -> score
I1012 06:04:15.196987  9045 net.cpp:150] Setting up score
I1012 06:04:15.196991  9045 net.cpp:157] Top shape: 100 10 (1000)
I1012 06:04:15.197006  9045 net.cpp:165] Memory required for data: 142163600
I1012 06:04:15.197011  9045 layer_factory.hpp:77] Creating layer score_score_0_split
I1012 06:04:15.197015  9045 net.cpp:100] Creating Layer score_score_0_split
I1012 06:04:15.197017  9045 net.cpp:434] score_score_0_split <- score
I1012 06:04:15.197036  9045 net.cpp:408] score_score_0_split -> score_score_0_split_0
I1012 06:04:15.197042  9045 net.cpp:408] score_score_0_split -> score_score_0_split_1
I1012 06:04:15.197111  9045 net.cpp:150] Setting up score_score_0_split
I1012 06:04:15.197115  9045 net.cpp:157] Top shape: 100 10 (1000)
I1012 06:04:15.197118  9045 net.cpp:157] Top shape: 100 10 (1000)
I1012 06:04:15.197120  9045 net.cpp:165] Memory required for data: 142171600
I1012 06:04:15.197124  9045 layer_factory.hpp:77] Creating layer accuracy
I1012 06:04:15.197126  9045 net.cpp:100] Creating Layer accuracy
I1012 06:04:15.197129  9045 net.cpp:434] accuracy <- score_score_0_split_0
I1012 06:04:15.197146  9045 net.cpp:434] accuracy <- label_data_1_split_0
I1012 06:04:15.197151  9045 net.cpp:408] accuracy -> accuracy
…
