…
  stage: ""
}
type: "AdaGrad"
I1011 22:46:17.271051  6113 solver.cpp:81] Creating training net from train_net file: /home/adam/Honours/Honours-Project/cifar-10_allcnn/relu/allcnn_relu_train.prototxt
I1011 22:46:17.271355  6113 net.cpp:58] Initializing net from parameters: 
state {
  phase: TRAIN
  level: 0
  stage: ""
}
layer {
  name: "data"
  type: "Data"
  top: "data"
  top: "label"
  transform_param {
    mean_file: "mean.binaryproto"
  }
  data_param {
    source: "../../../data/cifar-10/cifar10_train_lmdb"
    batch_size: 64
    backend: LMDB
  }
}
layer {
  name: "conv1"
  type: "Convolution"
  bottom: "data"
  top: "conv1"
  convolution_param {
    num_output: 96
    kernel_size: 3
    weight_filler {
      type: "xavier"
    }
  }
}
layer {
  name: "conv2"
  type: "Convolution"
  bottom: "conv1"
  top: "conv2"
  convolution_param {
    num_output: 96
    kernel_size: 3
    weight_filler {
      type: "xavier"
    }
  }
}
layer {
  name: "bn1"
  type: "BatchNorm"
  bottom: "conv2"
  top: "bn1"
}
layer {
  name: "conv3"
  type: "Convolution"
  bottom: "bn1"
  top: "conv3"
  convolution_param {
    num_output: 96
    kernel_size: 3
    stride: 2
    weight_filler {
      type: "xavier"
    }
  }
}
layer {
  name: "drop1"
  type: "Dropout"
  bottom: "conv3"
  top: "drop1"
  dropout_param {
    dropout_ratio: 0.5
  }
}
layer {
  name: "relu3"
  type: "ReLU"
  bottom: "drop1"
  top: "drop1"
}
layer {
  name: "conv4"
  type: "Convolution"
  bottom: "drop1"
  top: "conv4"
  convolution_param {
    num_output: 192
    kernel_size: 3
    weight_filler {
      type: "xavier"
    }
  }
}
layer {
  name: "conv5"
  type: "Convolution"
  bottom: "conv4"
  top: "conv5"
  convolution_param {
    num_output: 192
    kernel_size: 3
    weight_filler {
      type: "xavier"
    }
  }
}
layer {
  name: "bn2"
  type: "BatchNorm"
  bottom: "conv5"
  top: "bn2"
}
layer {
  name: "conv6"
  type: "Convolution"
  bottom: "bn2"
  top: "conv6"
  convolution_param {
    num_output: 192
    kernel_size: 3
    stride: 2
    weight_filler {
      type: "xavier"
    }
  }
}
layer {
  name: "drop4"
  type: "Dropout"
  bottom: "conv6"
  top: "drop4"
  dropout_param {
    dropout_ratio: 0.5
  }
}
layer {
  name: "relu6"
  type: "ReLU"
  bottom: "drop4"
  top: "drop4"
}
layer {
  name: "conv7"
  type: "Convolution"
  bottom: "drop4"
  top: "conv7"
  convolution_param {
    num_output: 192
    kernel_size: 3
    weight_filler {
      type: "xavier"
    }
  }
}
layer {
  name: "relu7"
  type: "ReLU"
  bottom: "conv7"
  top: "conv7"
}
layer {
  name: "conv8"
  type: "Convolution"
  bottom: "conv7"
  top: "conv8"
  convolution_param {
    num_output: 192
    kernel_size: 1
    weight_filler {
      type: "xavier"
    }
  }
}
layer {
  name: "relu8"
  type: "ReLU"
  bottom: "conv8"
  top: "conv8"
}
layer {
  name: "conv9"
  type: "Convolution"
  bottom: "conv8"
  top: "conv9"
  convolution_param {
    num_output: 10
    kernel_size: 1
    weight_filler {
      type: "xavier"
    }
  }
}
layer {
  name: "relu9"
  type: "ReLU"
  bottom: "conv9"
  top: "conv9"
}
layer {
  name: "pool"
  type: "Pooling"
  bottom: "conv9"
  top: "pool"
  pooling_param {
    pool: AVE
    global_pooling: true
  }
}
layer {
  name: "flatten"
  type: "Flatten"
  bottom: "pool"
  top: "flatten"
}
layer {
  name: "score"
  type: "InnerProduct"
  bottom: "flatten"
  top: "score"
  inner_product_param {
    num_output: 10
    weight_filler {
      type: "gaussian"
    }
  }
}
layer {
  name: "accuracy"
  type: "Accuracy"
  bottom: "score"
  bottom: "label"
  top: "accuracy"
}
layer {
  name: "loss"
  type: "SoftmaxWithLoss"
  bottom: "score"
  bottom: "label"
  top: "loss"
}
I1011 22:46:17.271481  6113 layer_factory.hpp:77] Creating layer data
I1011 22:46:17.271913  6113 net.cpp:100] Creating Layer data
I1011 22:46:17.271920  6113 net.cpp:408] data -> data
I1011 22:46:17.271960  6113 net.cpp:408] data -> label
I1011 22:46:17.271982  6113 data_transformer.cpp:25] Loading mean file from: mean.binaryproto
I1011 22:46:17.272637  6118 db_lmdb.cpp:35] Opened lmdb ../../../data/cifar-10/cifar10_train_lmdb
I1011 22:46:17.278894  6113 data_layer.cpp:41] output data size: 64,3,32,32
I1011 22:46:17.280436  6113 net.cpp:150] Setting up data
I1011 22:46:17.280465  6113 net.cpp:157] Top shape: 64 3 32 32 (196608)
I1011 22:46:17.280469  6113 net.cpp:157] Top shape: 64 (64)
I1011 22:46:17.280472  6113 net.cpp:165] Memory required for data: 786688
I1011 22:46:17.280478  6113 layer_factory.hpp:77] Creating layer label_data_1_split
I1011 22:46:17.280505  6113 net.cpp:100] Creating Layer label_data_1_split
I1011 22:46:17.280510  6113 net.cpp:434] label_data_1_split <- label
I1011 22:46:17.280534  6113 net.cpp:408] label_data_1_split -> label_data_1_split_0
I1011 22:46:17.280555  6113 net.cpp:408] label_data_1_split -> label_data_1_split_1
I1011 22:46:17.280585  6113 net.cpp:150] Setting up label_data_1_split
I1011 22:46:17.280606  6113 net.cpp:157] Top shape: 64 (64)
I1011 22:46:17.280607  6113 net.cpp:157] Top shape: 64 (64)
I1011 22:46:17.280609  6113 net.cpp:165] Memory required for data: 787200
I1011 22:46:17.280612  6113 layer_factory.hpp:77] Creating layer conv1
I1011 22:46:17.280625  6113 net.cpp:100] Creating Layer conv1
I1011 22:46:17.280628  6113 net.cpp:434] conv1 <- data
I1011 22:46:17.280632  6113 net.cpp:408] conv1 -> conv1
I1011 22:46:17.415091  6113 net.cpp:150] Setting up conv1
I1011 22:46:17.415115  6113 net.cpp:157] Top shape: 64 96 30 30 (5529600)
I1011 22:46:17.415117  6113 net.cpp:165] Memory required for data: 22905600
I1011 22:46:17.415134  6113 layer_factory.hpp:77] Creating layer conv2
I1011 22:46:17.415148  6113 net.cpp:100] Creating Layer conv2
I1011 22:46:17.415164  6113 net.cpp:434] conv2 <- conv1
I1011 22:46:17.415170  6113 net.cpp:408] conv2 -> conv2
I1011 22:46:17.416496  6113 net.cpp:150] Setting up conv2
I1011 22:46:17.416506  6113 net.cpp:157] Top shape: 64 96 28 28 (4816896)
I1011 22:46:17.416507  6113 net.cpp:165] Memory required for data: 42173184
I1011 22:46:17.416514  6113 layer_factory.hpp:77] Creating layer bn1
I1011 22:46:17.416520  6113 net.cpp:100] Creating Layer bn1
I1011 22:46:17.416522  6113 net.cpp:434] bn1 <- conv2
I1011 22:46:17.416527  6113 net.cpp:408] bn1 -> bn1
I1011 22:46:17.416712  6113 net.cpp:150] Setting up bn1
I1011 22:46:17.416718  6113 net.cpp:157] Top shape: 64 96 28 28 (4816896)
I1011 22:46:17.416719  6113 net.cpp:165] Memory required for data: 61440768
I1011 22:46:17.416725  6113 layer_factory.hpp:77] Creating layer conv3
I1011 22:46:17.416731  6113 net.cpp:100] Creating Layer conv3
I1011 22:46:17.416733  6113 net.cpp:434] conv3 <- bn1
I1011 22:46:17.416736  6113 net.cpp:408] conv3 -> conv3
I1011 22:46:17.417886  6113 net.cpp:150] Setting up conv3
I1011 22:46:17.417896  6113 net.cpp:157] Top shape: 64 96 13 13 (1038336)
I1011 22:46:17.417897  6113 net.cpp:165] Memory required for data: 65594112
I1011 22:46:17.417904  6113 layer_factory.hpp:77] Creating layer drop1
I1011 22:46:17.417908  6113 net.cpp:100] Creating Layer drop1
I1011 22:46:17.417912  6113 net.cpp:434] drop1 <- conv3
I1011 22:46:17.417914  6113 net.cpp:408] drop1 -> drop1
I1011 22:46:17.417960  6113 net.cpp:150] Setting up drop1
I1011 22:46:17.417979  6113 net.cpp:157] Top shape: 64 96 13 13 (1038336)
I1011 22:46:17.417984  6113 net.cpp:165] Memory required for data: 69747456
I1011 22:46:17.417985  6113 layer_factory.hpp:77] Creating layer relu3
I1011 22:46:17.418001  6113 net.cpp:100] Creating Layer relu3
I1011 22:46:17.418004  6113 net.cpp:434] relu3 <- drop1
I1011 22:46:17.418021  6113 net.cpp:395] relu3 -> drop1 (in-place)
I1011 22:46:17.418318  6113 net.cpp:150] Setting up relu3
I1011 22:46:17.418326  6113 net.cpp:157] Top shape: 64 96 13 13 (1038336)
I1011 22:46:17.418329  6113 net.cpp:165] Memory required for data: 73900800
I1011 22:46:17.418330  6113 layer_factory.hpp:77] Creating layer conv4
I1011 22:46:17.418337  6113 net.cpp:100] Creating Layer conv4
I1011 22:46:17.418339  6113 net.cpp:434] conv4 <- drop1
I1011 22:46:17.418342  6113 net.cpp:408] conv4 -> conv4
I1011 22:46:17.420123  6113 net.cpp:150] Setting up conv4
I1011 22:46:17.420133  6113 net.cpp:157] Top shape: 64 192 11 11 (1486848)
I1011 22:46:17.420135  6113 net.cpp:165] Memory required for data: 79848192
I1011 22:46:17.420140  6113 layer_factory.hpp:77] Creating layer conv5
I1011 22:46:17.420145  6113 net.cpp:100] Creating Layer conv5
I1011 22:46:17.420148  6113 net.cpp:434] conv5 <- conv4
I1011 22:46:17.420151  6113 net.cpp:408] conv5 -> conv5
I1011 22:46:17.422565  6113 net.cpp:150] Setting up conv5
I1011 22:46:17.422575  6113 net.cpp:157] Top shape: 64 192 9 9 (995328)
I1011 22:46:17.422577  6113 net.cpp:165] Memory required for data: 83829504
I1011 22:46:17.422582  6113 layer_factory.hpp:77] Creating layer bn2
I1011 22:46:17.422586  6113 net.cpp:100] Creating Layer bn2
I1011 22:46:17.422590  6113 net.cpp:434] bn2 <- conv5
I1011 22:46:17.422592  6113 net.cpp:408] bn2 -> bn2
I1011 22:46:17.422791  6113 net.cpp:150] Setting up bn2
I1011 22:46:17.422796  6113 net.cpp:157] Top shape: 64 192 9 9 (995328)
I1011 22:46:17.422798  6113 net.cpp:165] Memory required for data: 87810816
I1011 22:46:17.422803  6113 layer_factory.hpp:77] Creating layer conv6
I1011 22:46:17.422808  6113 net.cpp:100] Creating Layer conv6
I1011 22:46:17.422811  6113 net.cpp:434] conv6 <- bn2
I1011 22:46:17.422814  6113 net.cpp:408] conv6 -> conv6
I1011 22:46:17.425299  6113 net.cpp:150] Setting up conv6
I1011 22:46:17.425309  6113 net.cpp:157] Top shape: 64 192 4 4 (196608)
I1011 22:46:17.425312  6113 net.cpp:165] Memory required for data: 88597248
I1011 22:46:17.425319  6113 layer_factory.hpp:77] Creating layer drop4
I1011 22:46:17.425324  6113 net.cpp:100] Creating Layer drop4
I1011 22:46:17.425326  6113 net.cpp:434] drop4 <- conv6
I1011 22:46:17.425329  6113 net.cpp:408] drop4 -> drop4
I1011 22:46:17.425372  6113 net.cpp:150] Setting up drop4
I1011 22:46:17.425391  6113 net.cpp:157] Top shape: 64 192 4 4 (196608)
I1011 22:46:17.425393  6113 net.cpp:165] Memory required for data: 89383680
I1011 22:46:17.425395  6113 layer_factory.hpp:77] Creating layer relu6
I1011 22:46:17.425411  6113 net.cpp:100] Creating Layer relu6
I1011 22:46:17.425413  6113 net.cpp:434] relu6 <- drop4
I1011 22:46:17.425416  6113 net.cpp:395] relu6 -> drop4 (in-place)
I1011 22:46:17.425685  6113 net.cpp:150] Setting up relu6
I1011 22:46:17.425709  6113 net.cpp:157] Top shape: 64 192 4 4 (196608)
I1011 22:46:17.425710  6113 net.cpp:165] Memory required for data: 90170112
I1011 22:46:17.425714  6113 layer_factory.hpp:77] Creating layer conv7
I1011 22:46:17.425719  6113 net.cpp:100] Creating Layer conv7
I1011 22:46:17.425721  6113 net.cpp:434] conv7 <- drop4
I1011 22:46:17.425725  6113 net.cpp:408] conv7 -> conv7
I1011 22:46:17.429384  6113 net.cpp:150] Setting up conv7
I1011 22:46:17.429404  6113 net.cpp:157] Top shape: 64 192 2 2 (49152)
I1011 22:46:17.429405  6113 net.cpp:165] Memory required for data: 90366720
I1011 22:46:17.429412  6113 layer_factory.hpp:77] Creating layer relu7
I1011 22:46:17.429419  6113 net.cpp:100] Creating Layer relu7
I1011 22:46:17.429421  6113 net.cpp:434] relu7 <- conv7
I1011 22:46:17.429425  6113 net.cpp:395] relu7 -> conv7 (in-place)
I1011 22:46:17.429673  6113 net.cpp:150] Setting up relu7
I1011 22:46:17.429682  6113 net.cpp:157] Top shape: 64 192 2 2 (49152)
I1011 22:46:17.429683  6113 net.cpp:165] Memory required for data: 90563328
I1011 22:46:17.429685  6113 layer_factory.hpp:77] Creating layer conv8
I1011 22:46:17.429694  6113 net.cpp:100] Creating Layer conv8
I1011 22:46:17.429697  6113 net.cpp:434] conv8 <- conv7
I1011 22:46:17.429700  6113 net.cpp:408] conv8 -> conv8
I1011 22:46:17.430896  6113 net.cpp:150] Setting up conv8
I1011 22:46:17.430914  6113 net.cpp:157] Top shape: 64 192 2 2 (49152)
I1011 22:46:17.430917  6113 net.cpp:165] Memory required for data: 90759936
I1011 22:46:17.430922  6113 layer_factory.hpp:77] Creating layer relu8
I1011 22:46:17.430925  6113 net.cpp:100] Creating Layer relu8
I1011 22:46:17.430927  6113 net.cpp:434] relu8 <- conv8
I1011 22:46:17.430932  6113 net.cpp:395] relu8 -> conv8 (in-place)
I1011 22:46:17.431170  6113 net.cpp:150] Setting up relu8
I1011 22:46:17.431179  6113 net.cpp:157] Top shape: 64 192 2 2 (49152)
I1011 22:46:17.431180  6113 net.cpp:165] Memory required for data: 90956544
I1011 22:46:17.431183  6113 layer_factory.hpp:77] Creating layer conv9
I1011 22:46:17.431188  6113 net.cpp:100] Creating Layer conv9
I1011 22:46:17.431190  6113 net.cpp:434] conv9 <- conv8
I1011 22:46:17.431193  6113 net.cpp:408] conv9 -> conv9
I1011 22:46:17.431953  6113 net.cpp:150] Setting up conv9
I1011 22:46:17.431963  6113 net.cpp:157] Top shape: 64 10 2 2 (2560)
I1011 22:46:17.431965  6113 net.cpp:165] Memory required for data: 90966784
I1011 22:46:17.431969  6113 layer_factory.hpp:77] Creating layer relu9
I1011 22:46:17.431973  6113 net.cpp:100] Creating Layer relu9
I1011 22:46:17.431975  6113 net.cpp:434] relu9 <- conv9
I1011 22:46:17.431978  6113 net.cpp:395] relu9 -> conv9 (in-place)
I1011 22:46:17.432214  6113 net.cpp:150] Setting up relu9
I1011 22:46:17.432222  6113 net.cpp:157] Top shape: 64 10 2 2 (2560)
I1011 22:46:17.432224  6113 net.cpp:165] Memory required for data: 90977024
I1011 22:46:17.432226  6113 layer_factory.hpp:77] Creating layer pool
I1011 22:46:17.432230  6113 net.cpp:100] Creating Layer pool
I1011 22:46:17.432232  6113 net.cpp:434] pool <- conv9
I1011 22:46:17.432235  6113 net.cpp:408] pool -> pool
I1011 22:46:17.432412  6113 net.cpp:150] Setting up pool
I1011 22:46:17.432418  6113 net.cpp:157] Top shape: 64 10 1 1 (640)
I1011 22:46:17.432420  6113 net.cpp:165] Memory required for data: 90979584
I1011 22:46:17.432422  6113 layer_factory.hpp:77] Creating layer flatten
I1011 22:46:17.432426  6113 net.cpp:100] Creating Layer flatten
I1011 22:46:17.432428  6113 net.cpp:434] flatten <- pool
I1011 22:46:17.432431  6113 net.cpp:408] flatten -> flatten
I1011 22:46:17.432448  6113 net.cpp:150] Setting up flatten
I1011 22:46:17.432451  6113 net.cpp:157] Top shape: 64 10 (640)
I1011 22:46:17.432467  6113 net.cpp:165] Memory required for data: 90982144
I1011 22:46:17.432469  6113 layer_factory.hpp:77] Creating layer score
I1011 22:46:17.432473  6113 net.cpp:100] Creating Layer score
I1011 22:46:17.432476  6113 net.cpp:434] score <- flatten
I1011 22:46:17.432479  6113 net.cpp:408] score -> score
I1011 22:46:17.432620  6113 net.cpp:150] Setting up score
I1011 22:46:17.432624  6113 net.cpp:157] Top shape: 64 10 (640)
I1011 22:46:17.432626  6113 net.cpp:165] Memory required for data: 90984704
I1011 22:46:17.432631  6113 layer_factory.hpp:77] Creating layer score_score_0_split
I1011 22:46:17.432633  6113 net.cpp:100] Creating Layer score_score_0_split
I1011 22:46:17.432636  6113 net.cpp:434] score_score_0_split <- score
I1011 22:46:17.432638  6113 net.cpp:408] score_score_0_split -> score_score_0_split_0
I1011 22:46:17.432642  6113 net.cpp:408] score_score_0_split -> score_score_0_split_1
I1011 22:46:17.432682  6113 net.cpp:150] Setting up score_score_0_split
I1011 22:46:17.432685  6113 net.cpp:157] Top shape: 64 10 (640)
I1011 22:46:17.432688  6113 net.cpp:157] Top shape: 64 10 (640)
I1011 22:46:17.432689  6113 net.cpp:165] Memory required for data: 90989824
I1011 22:46:17.432692  6113 layer_factory.hpp:77] Creating layer accuracy
I1011 22:46:17.432695  6113 net.cpp:100] Creating Layer accuracy
I1011 22:46:17.432698  6113 net.cpp:434] accuracy <- score_score_0_split_0
I1011 22:46:17.432700  6113 net.cpp:434] accuracy <- label_data_1_split_0
I1011 22:46:17.432704  6113 net.cpp:408] accuracy -> accuracy
…
I1011 22:46:17.433289  6113 net.cpp:283] Network initialization done.
I1011 22:46:17.433527  6113 solver.cpp:181] Creating test net (#0) specified by test_net file: /home/adam/Honours/Honours-Project/cifar-10_allcnn/relu/allcnn_relu_test.prototxt
I1011 22:46:17.433678  6113 net.cpp:58] Initializing net from parameters: 
state {
  phase: TEST
}
layer {
  name: "data"
  type: "Data"
  top: "data"
  top: "label"
  transform_param {
    mean_file: "mean.binaryproto"
  }
  data_param {
    source: "../../../data/cifar-10/cifar10_test_lmdb"
    batch_size: 100
    backend: LMDB
  }
}
layer {
  name: "conv1"
  type: "Convolution"
  bottom: "data"
  top: "conv1"
  convolution_param {
    num_output: 96
    kernel_size: 3
    weight_filler {
      type: "xavier"
    }
  }
}
layer {
  name: "conv2"
  type: "Convolution"
  bottom: "conv1"
  top: "conv2"
  convolution_param {
    num_output: 96
    kernel_size: 3
    weight_filler {
      type: "xavier"
    }
  }
}
layer {
  name: "bn1"
  type: "BatchNorm"
  bottom: "conv2"
  top: "bn1"
}
layer {
  name: "conv3"
  type: "Convolution"
  bottom: "bn1"
  top: "conv3"
  convolution_param {
    num_output: 96
    kernel_size: 3
    stride: 2
    weight_filler {
      type: "xavier"
    }
  }
}
layer {
  name: "drop1"
  type: "Dropout"
  bottom: "conv3"
  top: "drop1"
  dropout_param {
    dropout_ratio: 0.5
  }
}
layer {
  name: "relu3"
  type: "ReLU"
  bottom: "drop1"
  top: "drop1"
}
layer {
  name: "conv4"
  type: "Convolution"
  bottom: "drop1"
  top: "conv4"
  convolution_param {
    num_output: 192
    kernel_size: 3
    weight_filler {
      type: "xavier"
    }
  }
}
layer {
  name: "conv5"
  type: "Convolution"
  bottom: "conv4"
  top: "conv5"
  convolution_param {
    num_output: 192
    kernel_size: 3
    weight_filler {
      type: "xavier"
    }
  }
}
layer {
  name: "bn2"
  type: "BatchNorm"
  bottom: "conv5"
  top: "bn2"
}
layer {
  name: "conv6"
  type: "Convolution"
  bottom: "bn2"
  top: "conv6"
  convolution_param {
    num_output: 192
    kernel_size: 3
    stride: 2
    weight_filler {
      type: "xavier"
    }
  }
}
layer {
  name: "drop4"
  type: "Dropout"
  bottom: "conv6"
  top: "drop4"
  dropout_param {
    dropout_ratio: 0.5
  }
}
layer {
  name: "relu6"
  type: "ReLU"
  bottom: "drop4"
  top: "drop4"
}
layer {
  name: "conv7"
  type: "Convolution"
  bottom: "drop4"
  top: "conv7"
  convolution_param {
    num_output: 192
    kernel_size: 3
    weight_filler {
      type: "xavier"
    }
  }
}
layer {
  name: "relu7"
  type: "ReLU"
  bottom: "conv7"
  top: "conv7"
}
layer {
  name: "conv8"
  type: "Convolution"
  bottom: "conv7"
  top: "conv8"
  convolution_param {
    num_output: 192
    kernel_size: 1
    weight_filler {
      type: "xavier"
    }
  }
}
layer {
  name: "relu8"
  type: "ReLU"
  bottom: "conv8"
  top: "conv8"
}
layer {
  name: "conv9"
  type: "Convolution"
  bottom: "conv8"
  top: "conv9"
  convolution_param {
    num_output: 10
    kernel_size: 1
    weight_filler {
      type: "xavier"
    }
  }
}
layer {
  name: "relu9"
  type: "ReLU"
  bottom: "conv9"
  top: "conv9"
}
layer {
  name: "pool"
  type: "Pooling"
  bottom: "conv9"
  top: "pool"
  pooling_param {
    pool: AVE
    global_pooling: true
  }
}
layer {
  name: "flatten"
  type: "Flatten"
  bottom: "pool"
  top: "flatten"
}
layer {
  name: "score"
  type: "InnerProduct"
  bottom: "flatten"
  top: "score"
  inner_product_param {
    num_output: 10
    weight_filler {
      type: "gaussian"
    }
  }
}
layer {
  name: "accuracy"
  type: "Accuracy"
  bottom: "score"
  bottom: "label"
  top: "accuracy"
}
layer {
  name: "loss"
  type: "SoftmaxWithLoss"
  bottom: "score"
  bottom: "label"
  top: "loss"
}
I1011 22:46:17.433787  6113 layer_factory.hpp:77] Creating layer data
I1011 22:46:17.433907  6113 net.cpp:100] Creating Layer data
I1011 22:46:17.433913  6113 net.cpp:408] data -> data
I1011 22:46:17.433930  6113 net.cpp:408] data -> label
I1011 22:46:17.433936  6113 data_transformer.cpp:25] Loading mean file from: mean.binaryproto
I1011 22:46:17.434674  6120 db_lmdb.cpp:35] Opened lmdb ../../../data/cifar-10/cifar10_test_lmdb
I1011 22:46:17.434851  6113 data_layer.cpp:41] output data size: 100,3,32,32
I1011 22:46:17.436826  6113 net.cpp:150] Setting up data
I1011 22:46:17.436846  6113 net.cpp:157] Top shape: 100 3 32 32 (307200)
I1011 22:46:17.436849  6113 net.cpp:157] Top shape: 100 (100)
I1011 22:46:17.436851  6113 net.cpp:165] Memory required for data: 1229200
I1011 22:46:17.436869  6113 layer_factory.hpp:77] Creating layer label_data_1_split
I1011 22:46:17.436877  6113 net.cpp:100] Creating Layer label_data_1_split
I1011 22:46:17.436880  6113 net.cpp:434] label_data_1_split <- label
I1011 22:46:17.436885  6113 net.cpp:408] label_data_1_split -> label_data_1_split_0
I1011 22:46:17.436892  6113 net.cpp:408] label_data_1_split -> label_data_1_split_1
I1011 22:46:17.437000  6113 net.cpp:150] Setting up label_data_1_split
I1011 22:46:17.437005  6113 net.cpp:157] Top shape: 100 (100)
I1011 22:46:17.437007  6113 net.cpp:157] Top shape: 100 (100)
I1011 22:46:17.437031  6113 net.cpp:165] Memory required for data: 1230000
I1011 22:46:17.437033  6113 layer_factory.hpp:77] Creating layer conv1
I1011 22:46:17.437054  6113 net.cpp:100] Creating Layer conv1
I1011 22:46:17.437057  6113 net.cpp:434] conv1 <- data
I1011 22:46:17.437060  6113 net.cpp:408] conv1 -> conv1
I1011 22:46:17.438033  6113 net.cpp:150] Setting up conv1
I1011 22:46:17.438057  6113 net.cpp:157] Top shape: 100 96 30 30 (8640000)
I1011 22:46:17.438061  6113 net.cpp:165] Memory required for data: 35790000
I1011 22:46:17.438091  6113 layer_factory.hpp:77] Creating layer conv2
I1011 22:46:17.438108  6113 net.cpp:100] Creating Layer conv2
I1011 22:46:17.438112  6113 net.cpp:434] conv2 <- conv1
I1011 22:46:17.438114  6113 net.cpp:408] conv2 -> conv2
I1011 22:46:17.439409  6113 net.cpp:150] Setting up conv2
I1011 22:46:17.439434  6113 net.cpp:157] Top shape: 100 96 28 28 (7526400)
I1011 22:46:17.439436  6113 net.cpp:165] Memory required for data: 65895600
I1011 22:46:17.439443  6113 layer_factory.hpp:77] Creating layer bn1
I1011 22:46:17.439462  6113 net.cpp:100] Creating Layer bn1
I1011 22:46:17.439465  6113 net.cpp:434] bn1 <- conv2
I1011 22:46:17.439469  6113 net.cpp:408] bn1 -> bn1
I1011 22:46:17.439676  6113 net.cpp:150] Setting up bn1
I1011 22:46:17.439682  6113 net.cpp:157] Top shape: 100 96 28 28 (7526400)
I1011 22:46:17.439685  6113 net.cpp:165] Memory required for data: 96001200
I1011 22:46:17.439707  6113 layer_factory.hpp:77] Creating layer conv3
I1011 22:46:17.439715  6113 net.cpp:100] Creating Layer conv3
I1011 22:46:17.439718  6113 net.cpp:434] conv3 <- bn1
I1011 22:46:17.439739  6113 net.cpp:408] conv3 -> conv3
I1011 22:46:17.441156  6113 net.cpp:150] Setting up conv3
I1011 22:46:17.441179  6113 net.cpp:157] Top shape: 100 96 13 13 (1622400)
I1011 22:46:17.441184  6113 net.cpp:165] Memory required for data: 102490800
I1011 22:46:17.441190  6113 layer_factory.hpp:77] Creating layer drop1
I1011 22:46:17.441195  6113 net.cpp:100] Creating Layer drop1
I1011 22:46:17.441197  6113 net.cpp:434] drop1 <- conv3
I1011 22:46:17.441205  6113 net.cpp:408] drop1 -> drop1
I1011 22:46:17.441242  6113 net.cpp:150] Setting up drop1
I1011 22:46:17.441248  6113 net.cpp:157] Top shape: 100 96 13 13 (1622400)
I1011 22:46:17.441251  6113 net.cpp:165] Memory required for data: 108980400
I1011 22:46:17.441252  6113 layer_factory.hpp:77] Creating layer relu3
I1011 22:46:17.441257  6113 net.cpp:100] Creating Layer relu3
I1011 22:46:17.441259  6113 net.cpp:434] relu3 <- drop1
I1011 22:46:17.441262  6113 net.cpp:395] relu3 -> drop1 (in-place)
I1011 22:46:17.441488  6113 net.cpp:150] Setting up relu3
I1011 22:46:17.441506  6113 net.cpp:157] Top shape: 100 96 13 13 (1622400)
I1011 22:46:17.441510  6113 net.cpp:165] Memory required for data: 115470000
I1011 22:46:17.441514  6113 layer_factory.hpp:77] Creating layer conv4
I1011 22:46:17.441524  6113 net.cpp:100] Creating Layer conv4
I1011 22:46:17.441527  6113 net.cpp:434] conv4 <- drop1
I1011 22:46:17.441531  6113 net.cpp:408] conv4 -> conv4
I1011 22:46:17.443450  6113 net.cpp:150] Setting up conv4
I1011 22:46:17.443462  6113 net.cpp:157] Top shape: 100 192 11 11 (2323200)
I1011 22:46:17.443464  6113 net.cpp:165] Memory required for data: 124762800
I1011 22:46:17.443485  6113 layer_factory.hpp:77] Creating layer conv5
I1011 22:46:17.443493  6113 net.cpp:100] Creating Layer conv5
I1011 22:46:17.443496  6113 net.cpp:434] conv5 <- conv4
I1011 22:46:17.443514  6113 net.cpp:408] conv5 -> conv5
I1011 22:46:17.446921  6113 net.cpp:150] Setting up conv5
I1011 22:46:17.446940  6113 net.cpp:157] Top shape: 100 192 9 9 (1555200)
I1011 22:46:17.446943  6113 net.cpp:165] Memory required for data: 130983600
I1011 22:46:17.446949  6113 layer_factory.hpp:77] Creating layer bn2
I1011 22:46:17.446954  6113 net.cpp:100] Creating Layer bn2
I1011 22:46:17.446955  6113 net.cpp:434] bn2 <- conv5
I1011 22:46:17.446960  6113 net.cpp:408] bn2 -> bn2
I1011 22:46:17.447196  6113 net.cpp:150] Setting up bn2
I1011 22:46:17.447203  6113 net.cpp:157] Top shape: 100 192 9 9 (1555200)
I1011 22:46:17.447206  6113 net.cpp:165] Memory required for data: 137204400
I1011 22:46:17.447211  6113 layer_factory.hpp:77] Creating layer conv6
I1011 22:46:17.447216  6113 net.cpp:100] Creating Layer conv6
I1011 22:46:17.447218  6113 net.cpp:434] conv6 <- bn2
I1011 22:46:17.447221  6113 net.cpp:408] conv6 -> conv6
I1011 22:46:17.449792  6113 net.cpp:150] Setting up conv6
I1011 22:46:17.449802  6113 net.cpp:157] Top shape: 100 192 4 4 (307200)
I1011 22:46:17.449805  6113 net.cpp:165] Memory required for data: 138433200
I1011 22:46:17.449812  6113 layer_factory.hpp:77] Creating layer drop4
I1011 22:46:17.449818  6113 net.cpp:100] Creating Layer drop4
I1011 22:46:17.449820  6113 net.cpp:434] drop4 <- conv6
I1011 22:46:17.449823  6113 net.cpp:408] drop4 -> drop4
I1011 22:46:17.449884  6113 net.cpp:150] Setting up drop4
I1011 22:46:17.449901  6113 net.cpp:157] Top shape: 100 192 4 4 (307200)
I1011 22:46:17.449903  6113 net.cpp:165] Memory required for data: 139662000
I1011 22:46:17.449905  6113 layer_factory.hpp:77] Creating layer relu6
I1011 22:46:17.449909  6113 net.cpp:100] Creating Layer relu6
I1011 22:46:17.449923  6113 net.cpp:434] relu6 <- drop4
I1011 22:46:17.449928  6113 net.cpp:395] relu6 -> drop4 (in-place)
I1011 22:46:17.450184  6113 net.cpp:150] Setting up relu6
I1011 22:46:17.450222  6113 net.cpp:157] Top shape: 100 192 4 4 (307200)
I1011 22:46:17.450224  6113 net.cpp:165] Memory required for data: 140890800
I1011 22:46:17.450227  6113 layer_factory.hpp:77] Creating layer conv7
I1011 22:46:17.450247  6113 net.cpp:100] Creating Layer conv7
I1011 22:46:17.450249  6113 net.cpp:434] conv7 <- drop4
I1011 22:46:17.450253  6113 net.cpp:408] conv7 -> conv7
I1011 22:46:17.452816  6113 net.cpp:150] Setting up conv7
I1011 22:46:17.452826  6113 net.cpp:157] Top shape: 100 192 2 2 (76800)
I1011 22:46:17.452829  6113 net.cpp:165] Memory required for data: 141198000
I1011 22:46:17.452833  6113 layer_factory.hpp:77] Creating layer relu7
I1011 22:46:17.452837  6113 net.cpp:100] Creating Layer relu7
I1011 22:46:17.452839  6113 net.cpp:434] relu7 <- conv7
I1011 22:46:17.452843  6113 net.cpp:395] relu7 -> conv7 (in-place)
I1011 22:46:17.453109  6113 net.cpp:150] Setting up relu7
I1011 22:46:17.453117  6113 net.cpp:157] Top shape: 100 192 2 2 (76800)
I1011 22:46:17.453119  6113 net.cpp:165] Memory required for data: 141505200
I1011 22:46:17.453121  6113 layer_factory.hpp:77] Creating layer conv8
I1011 22:46:17.453130  6113 net.cpp:100] Creating Layer conv8
I1011 22:46:17.453133  6113 net.cpp:434] conv8 <- conv7
I1011 22:46:17.453136  6113 net.cpp:408] conv8 -> conv8
I1011 22:46:17.454105  6113 net.cpp:150] Setting up conv8
I1011 22:46:17.454113  6113 net.cpp:157] Top shape: 100 192 2 2 (76800)
I1011 22:46:17.454115  6113 net.cpp:165] Memory required for data: 141812400
I1011 22:46:17.454120  6113 layer_factory.hpp:77] Creating layer relu8
I1011 22:46:17.454125  6113 net.cpp:100] Creating Layer relu8
I1011 22:46:17.454128  6113 net.cpp:434] relu8 <- conv8
I1011 22:46:17.454130  6113 net.cpp:395] relu8 -> conv8 (in-place)
I1011 22:46:17.454304  6113 net.cpp:150] Setting up relu8
I1011 22:46:17.454310  6113 net.cpp:157] Top shape: 100 192 2 2 (76800)
I1011 22:46:17.454313  6113 net.cpp:165] Memory required for data: 142119600
I1011 22:46:17.454314  6113 layer_factory.hpp:77] Creating layer conv9
I1011 22:46:17.454320  6113 net.cpp:100] Creating Layer conv9
I1011 22:46:17.454322  6113 net.cpp:434] conv9 <- conv8
I1011 22:46:17.454326  6113 net.cpp:408] conv9 -> conv9
I1011 22:46:17.455166  6113 net.cpp:150] Setting up conv9
I1011 22:46:17.455176  6113 net.cpp:157] Top shape: 100 10 2 2 (4000)
I1011 22:46:17.455178  6113 net.cpp:165] Memory required for data: 142135600
I1011 22:46:17.455183  6113 layer_factory.hpp:77] Creating layer relu9
I1011 22:46:17.455186  6113 net.cpp:100] Creating Layer relu9
I1011 22:46:17.455188  6113 net.cpp:434] relu9 <- conv9
I1011 22:46:17.455191  6113 net.cpp:395] relu9 -> conv9 (in-place)
I1011 22:46:17.455446  6113 net.cpp:150] Setting up relu9
I1011 22:46:17.455454  6113 net.cpp:157] Top shape: 100 10 2 2 (4000)
I1011 22:46:17.455456  6113 net.cpp:165] Memory required for data: 142151600
I1011 22:46:17.455458  6113 layer_factory.hpp:77] Creating layer pool
I1011 22:46:17.455463  6113 net.cpp:100] Creating Layer pool
I1011 22:46:17.455466  6113 net.cpp:434] pool <- conv9
I1011 22:46:17.455469  6113 net.cpp:408] pool -> pool
I1011 22:46:17.455663  6113 net.cpp:150] Setting up pool
I1011 22:46:17.455669  6113 net.cpp:157] Top shape: 100 10 1 1 (1000)
I1011 22:46:17.455672  6113 net.cpp:165] Memory required for data: 142155600
I1011 22:46:17.455673  6113 layer_factory.hpp:77] Creating layer flatten
I1011 22:46:17.455677  6113 net.cpp:100] Creating Layer flatten
I1011 22:46:17.455679  6113 net.cpp:434] flatten <- pool
I1011 22:46:17.455682  6113 net.cpp:408] flatten -> flatten
I1011 22:46:17.455703  6113 net.cpp:150] Setting up flatten
I1011 22:46:17.455719  6113 net.cpp:157] Top shape: 100 10 (1000)
I1011 22:46:17.455721  6113 net.cpp:165] Memory required for data: 142159600
I1011 22:46:17.455724  6113 layer_factory.hpp:77] Creating layer score
I1011 22:46:17.455729  6113 net.cpp:100] Creating Layer score
I1011 22:46:17.455732  6113 net.cpp:434] score <- flatten
I1011 22:46:17.455750  6113 net.cpp:408] score -> score
I1011 22:46:17.455868  6113 net.cpp:150] Setting up score
I1011 22:46:17.455873  6113 net.cpp:157] Top shape: 100 10 (1000)
I1011 22:46:17.455874  6113 net.cpp:165] Memory required for data: 142163600
I1011 22:46:17.455878  6113 layer_factory.hpp:77] Creating layer score_score_0_split
I1011 22:46:17.455883  6113 net.cpp:100] Creating Layer score_score_0_split
I1011 22:46:17.455884  6113 net.cpp:434] score_score_0_split <- score
I1011 22:46:17.455888  6113 net.cpp:408] score_score_0_split -> score_score_0_split_0
I1011 22:46:17.455893  6113 net.cpp:408] score_score_0_split -> score_score_0_split_1
I1011 22:46:17.455935  6113 net.cpp:150] Setting up score_score_0_split
I1011 22:46:17.455940  6113 net.cpp:157] Top shape: 100 10 (1000)
I1011 22:46:17.455955  6113 net.cpp:157] Top shape: 100 10 (1000)
I1011 22:46:17.455957  6113 net.cpp:165] Memory required for data: 142171600
I1011 22:46:17.455960  6113 layer_factory.hpp:77] Creating layer accuracy
I1011 22:46:17.455976  6113 net.cpp:100] Creating Layer accuracy
I1011 22:46:17.455978  6113 net.cpp:434] accuracy <- score_score_0_split_0
I1011 22:46:17.455981  6113 net.cpp:434] accuracy <- label_data_1_split_0
I1011 22:46:17.455984  6113 net.cpp:408] accuracy -> accuracy
…
