…
  stage: ""
}
type: "Adam"
I1012 11:32:47.836040 11274 solver.cpp:81] Creating training net from train_net file: /home/adam/Honours/Honours-Project/cifar-10_allcnn/elu/allcnn_elu_train.prototxt
I1012 11:32:47.836347 11274 net.cpp:58] Initializing net from parameters: 
state {
  phase: TRAIN
  level: 0
  stage: ""
}
layer {
  name: "data"
  type: "Data"
  top: "data"
  top: "label"
  transform_param {
    mean_file: "mean.binaryproto"
  }
  data_param {
    source: "../../../data/cifar-10/cifar10_train_lmdb"
    batch_size: 64
    backend: LMDB
  }
}
layer {
  name: "conv1"
  type: "Convolution"
  bottom: "data"
  top: "conv1"
  convolution_param {
    num_output: 96
    kernel_size: 3
    weight_filler {
      type: "xavier"
    }
  }
}
layer {
  name: "conv2"
  type: "Convolution"
  bottom: "conv1"
  top: "conv2"
  convolution_param {
    num_output: 96
    kernel_size: 3
    weight_filler {
      type: "xavier"
    }
  }
}
layer {
  name: "bn1"
  type: "BatchNorm"
  bottom: "conv2"
  top: "bn1"
}
layer {
  name: "conv3"
  type: "Convolution"
  bottom: "bn1"
  top: "conv3"
  convolution_param {
    num_output: 96
    kernel_size: 3
    stride: 2
    weight_filler {
      type: "xavier"
    }
  }
}
layer {
  name: "drop1"
  type: "Dropout"
  bottom: "conv3"
  top: "drop1"
  dropout_param {
    dropout_ratio: 0.5
  }
}
layer {
  name: "elu3"
  type: "ELU"
  bottom: "drop1"
  top: "drop1"
}
layer {
  name: "conv4"
  type: "Convolution"
  bottom: "drop1"
  top: "conv4"
  convolution_param {
    num_output: 192
    kernel_size: 3
    weight_filler {
      type: "xavier"
    }
  }
}
layer {
  name: "conv5"
  type: "Convolution"
  bottom: "conv4"
  top: "conv5"
  convolution_param {
    num_output: 192
    kernel_size: 3
    weight_filler {
      type: "xavier"
    }
  }
}
layer {
  name: "bn2"
  type: "BatchNorm"
  bottom: "conv5"
  top: "bn2"
}
layer {
  name: "conv6"
  type: "Convolution"
  bottom: "bn2"
  top: "conv6"
  convolution_param {
    num_output: 192
    kernel_size: 3
    stride: 2
    weight_filler {
      type: "xavier"
    }
  }
}
layer {
  name: "drop4"
  type: "Dropout"
  bottom: "conv6"
  top: "drop4"
  dropout_param {
    dropout_ratio: 0.5
  }
}
layer {
  name: "elu6"
  type: "ELU"
  bottom: "drop4"
  top: "drop4"
}
layer {
  name: "conv7"
  type: "Convolution"
  bottom: "drop4"
  top: "conv7"
  convolution_param {
    num_output: 192
    kernel_size: 3
    weight_filler {
      type: "xavier"
    }
  }
}
layer {
  name: "elu7"
  type: "ELU"
  bottom: "conv7"
  top: "conv7"
}
layer {
  name: "conv8"
  type: "Convolution"
  bottom: "conv7"
  top: "conv8"
  convolution_param {
    num_output: 192
    kernel_size: 1
    weight_filler {
      type: "xavier"
    }
  }
}
layer {
  name: "elu8"
  type: "ELU"
  bottom: "conv8"
  top: "conv8"
}
layer {
  name: "conv9"
  type: "Convolution"
  bottom: "conv8"
  top: "conv9"
  convolution_param {
    num_output: 10
    kernel_size: 1
    weight_filler {
      type: "xavier"
    }
  }
}
layer {
  name: "elu9"
  type: "ELU"
  bottom: "conv9"
  top: "conv9"
}
layer {
  name: "pool"
  type: "Pooling"
  bottom: "conv9"
  top: "pool"
  pooling_param {
    pool: AVE
    global_pooling: true
  }
}
layer {
  name: "flatten"
  type: "Flatten"
  bottom: "pool"
  top: "flatten"
}
layer {
  name: "score"
  type: "InnerProduct"
  bottom: "flatten"
  top: "score"
  inner_product_param {
    num_output: 10
    weight_filler {
      type: "gaussian"
    }
  }
}
layer {
  name: "accuracy"
  type: "Accuracy"
  bottom: "score"
  bottom: "label"
  top: "accuracy"
}
layer {
  name: "loss"
  type: "SoftmaxWithLoss"
  bottom: "score"
  bottom: "label"
  top: "loss"
}
I1012 11:32:47.836501 11274 layer_factory.hpp:77] Creating layer data
I1012 11:32:47.836953 11274 net.cpp:100] Creating Layer data
I1012 11:32:47.836961 11274 net.cpp:408] data -> data
I1012 11:32:47.837005 11274 net.cpp:408] data -> label
I1012 11:32:47.837016 11274 data_transformer.cpp:25] Loading mean file from: mean.binaryproto
I1012 11:32:47.837769 11279 db_lmdb.cpp:35] Opened lmdb ../../../data/cifar-10/cifar10_train_lmdb
I1012 11:32:47.844082 11274 data_layer.cpp:41] output data size: 64,3,32,32
I1012 11:32:47.845595 11274 net.cpp:150] Setting up data
I1012 11:32:47.845626 11274 net.cpp:157] Top shape: 64 3 32 32 (196608)
I1012 11:32:47.845630 11274 net.cpp:157] Top shape: 64 (64)
I1012 11:32:47.845633 11274 net.cpp:165] Memory required for data: 786688
I1012 11:32:47.845654 11274 layer_factory.hpp:77] Creating layer label_data_1_split
I1012 11:32:47.845665 11274 net.cpp:100] Creating Layer label_data_1_split
I1012 11:32:47.845670 11274 net.cpp:434] label_data_1_split <- label
I1012 11:32:47.845679 11274 net.cpp:408] label_data_1_split -> label_data_1_split_0
I1012 11:32:47.845686 11274 net.cpp:408] label_data_1_split -> label_data_1_split_1
I1012 11:32:47.845765 11274 net.cpp:150] Setting up label_data_1_split
I1012 11:32:47.845770 11274 net.cpp:157] Top shape: 64 (64)
I1012 11:32:47.845773 11274 net.cpp:157] Top shape: 64 (64)
I1012 11:32:47.845774 11274 net.cpp:165] Memory required for data: 787200
I1012 11:32:47.845777 11274 layer_factory.hpp:77] Creating layer conv1
I1012 11:32:47.845788 11274 net.cpp:100] Creating Layer conv1
I1012 11:32:47.845790 11274 net.cpp:434] conv1 <- data
I1012 11:32:47.845794 11274 net.cpp:408] conv1 -> conv1
I1012 11:32:47.981577 11274 net.cpp:150] Setting up conv1
I1012 11:32:47.981603 11274 net.cpp:157] Top shape: 64 96 30 30 (5529600)
I1012 11:32:47.981606 11274 net.cpp:165] Memory required for data: 22905600
I1012 11:32:47.981623 11274 layer_factory.hpp:77] Creating layer conv2
I1012 11:32:47.981634 11274 net.cpp:100] Creating Layer conv2
I1012 11:32:47.981637 11274 net.cpp:434] conv2 <- conv1
I1012 11:32:47.981642 11274 net.cpp:408] conv2 -> conv2
I1012 11:32:47.983036 11274 net.cpp:150] Setting up conv2
I1012 11:32:47.983045 11274 net.cpp:157] Top shape: 64 96 28 28 (4816896)
I1012 11:32:47.983048 11274 net.cpp:165] Memory required for data: 42173184
I1012 11:32:47.983055 11274 layer_factory.hpp:77] Creating layer bn1
I1012 11:32:47.983062 11274 net.cpp:100] Creating Layer bn1
I1012 11:32:47.983063 11274 net.cpp:434] bn1 <- conv2
I1012 11:32:47.983067 11274 net.cpp:408] bn1 -> bn1
I1012 11:32:47.983260 11274 net.cpp:150] Setting up bn1
I1012 11:32:47.983265 11274 net.cpp:157] Top shape: 64 96 28 28 (4816896)
I1012 11:32:47.983268 11274 net.cpp:165] Memory required for data: 61440768
I1012 11:32:47.983273 11274 layer_factory.hpp:77] Creating layer conv3
I1012 11:32:47.983280 11274 net.cpp:100] Creating Layer conv3
I1012 11:32:47.983283 11274 net.cpp:434] conv3 <- bn1
I1012 11:32:47.983286 11274 net.cpp:408] conv3 -> conv3
I1012 11:32:47.984494 11274 net.cpp:150] Setting up conv3
I1012 11:32:47.984504 11274 net.cpp:157] Top shape: 64 96 13 13 (1038336)
I1012 11:32:47.984506 11274 net.cpp:165] Memory required for data: 65594112
I1012 11:32:47.984513 11274 layer_factory.hpp:77] Creating layer drop1
I1012 11:32:47.984518 11274 net.cpp:100] Creating Layer drop1
I1012 11:32:47.984519 11274 net.cpp:434] drop1 <- conv3
I1012 11:32:47.984525 11274 net.cpp:408] drop1 -> drop1
I1012 11:32:47.984586 11274 net.cpp:150] Setting up drop1
I1012 11:32:47.984591 11274 net.cpp:157] Top shape: 64 96 13 13 (1038336)
I1012 11:32:47.984594 11274 net.cpp:165] Memory required for data: 69747456
I1012 11:32:47.984608 11274 layer_factory.hpp:77] Creating layer elu3
I1012 11:32:47.984611 11274 net.cpp:100] Creating Layer elu3
I1012 11:32:47.984613 11274 net.cpp:434] elu3 <- drop1
I1012 11:32:47.984630 11274 net.cpp:395] elu3 -> drop1 (in-place)
I1012 11:32:47.984634 11274 net.cpp:150] Setting up elu3
I1012 11:32:47.984648 11274 net.cpp:157] Top shape: 64 96 13 13 (1038336)
I1012 11:32:47.984650 11274 net.cpp:165] Memory required for data: 73900800
I1012 11:32:47.984652 11274 layer_factory.hpp:77] Creating layer conv4
I1012 11:32:47.984674 11274 net.cpp:100] Creating Layer conv4
I1012 11:32:47.984691 11274 net.cpp:434] conv4 <- drop1
I1012 11:32:47.984695 11274 net.cpp:408] conv4 -> conv4
I1012 11:32:47.986552 11274 net.cpp:150] Setting up conv4
I1012 11:32:47.986562 11274 net.cpp:157] Top shape: 64 192 11 11 (1486848)
I1012 11:32:47.986564 11274 net.cpp:165] Memory required for data: 79848192
I1012 11:32:47.986568 11274 layer_factory.hpp:77] Creating layer conv5
I1012 11:32:47.986574 11274 net.cpp:100] Creating Layer conv5
I1012 11:32:47.986577 11274 net.cpp:434] conv5 <- conv4
I1012 11:32:47.986580 11274 net.cpp:408] conv5 -> conv5
I1012 11:32:47.989104 11274 net.cpp:150] Setting up conv5
I1012 11:32:47.989114 11274 net.cpp:157] Top shape: 64 192 9 9 (995328)
I1012 11:32:47.989116 11274 net.cpp:165] Memory required for data: 83829504
I1012 11:32:47.989120 11274 layer_factory.hpp:77] Creating layer bn2
I1012 11:32:47.989125 11274 net.cpp:100] Creating Layer bn2
I1012 11:32:47.989126 11274 net.cpp:434] bn2 <- conv5
I1012 11:32:47.989130 11274 net.cpp:408] bn2 -> bn2
I1012 11:32:47.989326 11274 net.cpp:150] Setting up bn2
I1012 11:32:47.989331 11274 net.cpp:157] Top shape: 64 192 9 9 (995328)
I1012 11:32:47.989333 11274 net.cpp:165] Memory required for data: 87810816
I1012 11:32:47.989337 11274 layer_factory.hpp:77] Creating layer conv6
I1012 11:32:47.989344 11274 net.cpp:100] Creating Layer conv6
I1012 11:32:47.989346 11274 net.cpp:434] conv6 <- bn2
I1012 11:32:47.989349 11274 net.cpp:408] conv6 -> conv6
I1012 11:32:47.991894 11274 net.cpp:150] Setting up conv6
I1012 11:32:47.991904 11274 net.cpp:157] Top shape: 64 192 4 4 (196608)
I1012 11:32:47.991906 11274 net.cpp:165] Memory required for data: 88597248
I1012 11:32:47.991914 11274 layer_factory.hpp:77] Creating layer drop4
I1012 11:32:47.991919 11274 net.cpp:100] Creating Layer drop4
I1012 11:32:47.991921 11274 net.cpp:434] drop4 <- conv6
I1012 11:32:47.991925 11274 net.cpp:408] drop4 -> drop4
I1012 11:32:47.991971 11274 net.cpp:150] Setting up drop4
I1012 11:32:47.991991 11274 net.cpp:157] Top shape: 64 192 4 4 (196608)
I1012 11:32:47.991992 11274 net.cpp:165] Memory required for data: 89383680
I1012 11:32:47.991994 11274 layer_factory.hpp:77] Creating layer elu6
I1012 11:32:47.992010 11274 net.cpp:100] Creating Layer elu6
I1012 11:32:47.992012 11274 net.cpp:434] elu6 <- drop4
I1012 11:32:47.992014 11274 net.cpp:395] elu6 -> drop4 (in-place)
I1012 11:32:47.992033 11274 net.cpp:150] Setting up elu6
I1012 11:32:47.992035 11274 net.cpp:157] Top shape: 64 192 4 4 (196608)
I1012 11:32:47.992038 11274 net.cpp:165] Memory required for data: 90170112
I1012 11:32:47.992039 11274 layer_factory.hpp:77] Creating layer conv7
I1012 11:32:47.992044 11274 net.cpp:100] Creating Layer conv7
I1012 11:32:47.992046 11274 net.cpp:434] conv7 <- drop4
I1012 11:32:47.992051 11274 net.cpp:408] conv7 -> conv7
I1012 11:32:47.995790 11274 net.cpp:150] Setting up conv7
I1012 11:32:47.995810 11274 net.cpp:157] Top shape: 64 192 2 2 (49152)
I1012 11:32:47.995811 11274 net.cpp:165] Memory required for data: 90366720
I1012 11:32:47.995818 11274 layer_factory.hpp:77] Creating layer elu7
I1012 11:32:47.995823 11274 net.cpp:100] Creating Layer elu7
I1012 11:32:47.995826 11274 net.cpp:434] elu7 <- conv7
I1012 11:32:47.995829 11274 net.cpp:395] elu7 -> conv7 (in-place)
I1012 11:32:47.995834 11274 net.cpp:150] Setting up elu7
I1012 11:32:47.995837 11274 net.cpp:157] Top shape: 64 192 2 2 (49152)
I1012 11:32:47.995839 11274 net.cpp:165] Memory required for data: 90563328
I1012 11:32:47.995841 11274 layer_factory.hpp:77] Creating layer conv8
I1012 11:32:47.995865 11274 net.cpp:100] Creating Layer conv8
I1012 11:32:47.995867 11274 net.cpp:434] conv8 <- conv7
I1012 11:32:47.995870 11274 net.cpp:408] conv8 -> conv8
I1012 11:32:47.997131 11274 net.cpp:150] Setting up conv8
I1012 11:32:47.997150 11274 net.cpp:157] Top shape: 64 192 2 2 (49152)
I1012 11:32:47.997153 11274 net.cpp:165] Memory required for data: 90759936
I1012 11:32:47.997158 11274 layer_factory.hpp:77] Creating layer elu8
I1012 11:32:47.997160 11274 net.cpp:100] Creating Layer elu8
I1012 11:32:47.997162 11274 net.cpp:434] elu8 <- conv8
I1012 11:32:47.997166 11274 net.cpp:395] elu8 -> conv8 (in-place)
I1012 11:32:47.997170 11274 net.cpp:150] Setting up elu8
I1012 11:32:47.997174 11274 net.cpp:157] Top shape: 64 192 2 2 (49152)
I1012 11:32:47.997175 11274 net.cpp:165] Memory required for data: 90956544
I1012 11:32:47.997177 11274 layer_factory.hpp:77] Creating layer conv9
I1012 11:32:47.997196 11274 net.cpp:100] Creating Layer conv9
I1012 11:32:47.997198 11274 net.cpp:434] conv9 <- conv8
I1012 11:32:47.997203 11274 net.cpp:408] conv9 -> conv9
I1012 11:32:47.998018 11274 net.cpp:150] Setting up conv9
I1012 11:32:47.998028 11274 net.cpp:157] Top shape: 64 10 2 2 (2560)
I1012 11:32:47.998030 11274 net.cpp:165] Memory required for data: 90966784
I1012 11:32:47.998034 11274 layer_factory.hpp:77] Creating layer elu9
I1012 11:32:47.998039 11274 net.cpp:100] Creating Layer elu9
I1012 11:32:47.998040 11274 net.cpp:434] elu9 <- conv9
I1012 11:32:47.998044 11274 net.cpp:395] elu9 -> conv9 (in-place)
I1012 11:32:47.998047 11274 net.cpp:150] Setting up elu9
I1012 11:32:47.998050 11274 net.cpp:157] Top shape: 64 10 2 2 (2560)
I1012 11:32:47.998051 11274 net.cpp:165] Memory required for data: 90977024
I1012 11:32:47.998054 11274 layer_factory.hpp:77] Creating layer pool
I1012 11:32:47.998059 11274 net.cpp:100] Creating Layer pool
I1012 11:32:47.998075 11274 net.cpp:434] pool <- conv9
I1012 11:32:47.998078 11274 net.cpp:408] pool -> pool
I1012 11:32:47.998448 11274 net.cpp:150] Setting up pool
I1012 11:32:47.998457 11274 net.cpp:157] Top shape: 64 10 1 1 (640)
I1012 11:32:47.998459 11274 net.cpp:165] Memory required for data: 90979584
I1012 11:32:47.998461 11274 layer_factory.hpp:77] Creating layer flatten
I1012 11:32:47.998464 11274 net.cpp:100] Creating Layer flatten
I1012 11:32:47.998466 11274 net.cpp:434] flatten <- pool
I1012 11:32:47.998471 11274 net.cpp:408] flatten -> flatten
I1012 11:32:47.998507 11274 net.cpp:150] Setting up flatten
I1012 11:32:47.998509 11274 net.cpp:157] Top shape: 64 10 (640)
I1012 11:32:47.998512 11274 net.cpp:165] Memory required for data: 90982144
I1012 11:32:47.998513 11274 layer_factory.hpp:77] Creating layer score
I1012 11:32:47.998517 11274 net.cpp:100] Creating Layer score
I1012 11:32:47.998519 11274 net.cpp:434] score <- flatten
I1012 11:32:47.998523 11274 net.cpp:408] score -> score
I1012 11:32:47.998677 11274 net.cpp:150] Setting up score
I1012 11:32:47.998682 11274 net.cpp:157] Top shape: 64 10 (640)
I1012 11:32:47.998682 11274 net.cpp:165] Memory required for data: 90984704
I1012 11:32:47.998687 11274 layer_factory.hpp:77] Creating layer score_score_0_split
I1012 11:32:47.998690 11274 net.cpp:100] Creating Layer score_score_0_split
I1012 11:32:47.998692 11274 net.cpp:434] score_score_0_split <- score
I1012 11:32:47.998697 11274 net.cpp:408] score_score_0_split -> score_score_0_split_0
I1012 11:32:47.998700 11274 net.cpp:408] score_score_0_split -> score_score_0_split_1
I1012 11:32:47.998740 11274 net.cpp:150] Setting up score_score_0_split
I1012 11:32:47.998744 11274 net.cpp:157] Top shape: 64 10 (640)
I1012 11:32:47.998747 11274 net.cpp:157] Top shape: 64 10 (640)
I1012 11:32:47.998749 11274 net.cpp:165] Memory required for data: 90989824
I1012 11:32:47.998764 11274 layer_factory.hpp:77] Creating layer accuracy
I1012 11:32:47.998769 11274 net.cpp:100] Creating Layer accuracy
I1012 11:32:47.998770 11274 net.cpp:434] accuracy <- score_score_0_split_0
I1012 11:32:47.998786 11274 net.cpp:434] accuracy <- label_data_1_split_0
I1012 11:32:47.998790 11274 net.cpp:408] accuracy -> accuracy
…
I1012 11:32:47.999289 11274 net.cpp:283] Network initialization done.
I1012 11:32:47.999498 11274 solver.cpp:181] Creating test net (#0) specified by test_net file: /home/adam/Honours/Honours-Project/cifar-10_allcnn/elu/allcnn_elu_test.prototxt
I1012 11:32:47.999662 11274 net.cpp:58] Initializing net from parameters: 
state {
  phase: TEST
}
layer {
  name: "data"
  type: "Data"
  top: "data"
  top: "label"
  transform_param {
    mean_file: "mean.binaryproto"
  }
  data_param {
    source: "../../../data/cifar-10/cifar10_test_lmdb"
    batch_size: 100
    backend: LMDB
  }
}
layer {
  name: "conv1"
  type: "Convolution"
  bottom: "data"
  top: "conv1"
  convolution_param {
    num_output: 96
    kernel_size: 3
    weight_filler {
      type: "xavier"
    }
  }
}
layer {
  name: "conv2"
  type: "Convolution"
  bottom: "conv1"
  top: "conv2"
  convolution_param {
    num_output: 96
    kernel_size: 3
    weight_filler {
      type: "xavier"
    }
  }
}
layer {
  name: "bn1"
  type: "BatchNorm"
  bottom: "conv2"
  top: "bn1"
}
layer {
  name: "conv3"
  type: "Convolution"
  bottom: "bn1"
  top: "conv3"
  convolution_param {
    num_output: 96
    kernel_size: 3
    stride: 2
    weight_filler {
      type: "xavier"
    }
  }
}
layer {
  name: "drop1"
  type: "Dropout"
  bottom: "conv3"
  top: "drop1"
  dropout_param {
    dropout_ratio: 0.5
  }
}
layer {
  name: "elu3"
  type: "ELU"
  bottom: "drop1"
  top: "drop1"
}
layer {
  name: "conv4"
  type: "Convolution"
  bottom: "drop1"
  top: "conv4"
  convolution_param {
    num_output: 192
    kernel_size: 3
    weight_filler {
      type: "xavier"
    }
  }
}
layer {
  name: "conv5"
  type: "Convolution"
  bottom: "conv4"
  top: "conv5"
  convolution_param {
    num_output: 192
    kernel_size: 3
    weight_filler {
      type: "xavier"
    }
  }
}
layer {
  name: "bn2"
  type: "BatchNorm"
  bottom: "conv5"
  top: "bn2"
}
layer {
  name: "conv6"
  type: "Convolution"
  bottom: "bn2"
  top: "conv6"
  convolution_param {
    num_output: 192
    kernel_size: 3
    stride: 2
    weight_filler {
      type: "xavier"
    }
  }
}
layer {
  name: "drop4"
  type: "Dropout"
  bottom: "conv6"
  top: "drop4"
  dropout_param {
    dropout_ratio: 0.5
  }
}
layer {
  name: "elu6"
  type: "ELU"
  bottom: "drop4"
  top: "drop4"
}
layer {
  name: "conv7"
  type: "Convolution"
  bottom: "drop4"
  top: "conv7"
  convolution_param {
    num_output: 192
    kernel_size: 3
    weight_filler {
      type: "xavier"
    }
  }
}
layer {
  name: "elu7"
  type: "ELU"
  bottom: "conv7"
  top: "conv7"
}
layer {
  name: "conv8"
  type: "Convolution"
  bottom: "conv7"
  top: "conv8"
  convolution_param {
    num_output: 192
    kernel_size: 1
    weight_filler {
      type: "xavier"
    }
  }
}
layer {
  name: "elu8"
  type: "ELU"
  bottom: "conv8"
  top: "conv8"
}
layer {
  name: "conv9"
  type: "Convolution"
  bottom: "conv8"
  top: "conv9"
  convolution_param {
    num_output: 10
    kernel_size: 1
    weight_filler {
      type: "xavier"
    }
  }
}
layer {
  name: "elu9"
  type: "ELU"
  bottom: "conv9"
  top: "conv9"
}
layer {
  name: "pool"
  type: "Pooling"
  bottom: "conv9"
  top: "pool"
  pooling_param {
    pool: AVE
    global_pooling: true
  }
}
layer {
  name: "flatten"
  type: "Flatten"
  bottom: "pool"
  top: "flatten"
}
layer {
  name: "score"
  type: "InnerProduct"
  bottom: "flatten"
  top: "score"
  inner_product_param {
    num_output: 10
    weight_filler {
      type: "gaussian"
    }
  }
}
layer {
  name: "accuracy"
  type: "Accuracy"
  bottom: "score"
  bottom: "label"
  top: "accuracy"
}
layer {
  name: "loss"
  type: "SoftmaxWithLoss"
  bottom: "score"
  bottom: "label"
  top: "loss"
}
I1012 11:32:47.999790 11274 layer_factory.hpp:77] Creating layer data
I1012 11:32:47.999872 11274 net.cpp:100] Creating Layer data
I1012 11:32:47.999877 11274 net.cpp:408] data -> data
I1012 11:32:47.999883 11274 net.cpp:408] data -> label
I1012 11:32:47.999889 11274 data_transformer.cpp:25] Loading mean file from: mean.binaryproto
I1012 11:32:48.000648 11281 db_lmdb.cpp:35] Opened lmdb ../../../data/cifar-10/cifar10_test_lmdb
I1012 11:32:48.000777 11274 data_layer.cpp:41] output data size: 100,3,32,32
I1012 11:32:48.002764 11274 net.cpp:150] Setting up data
I1012 11:32:48.002799 11274 net.cpp:157] Top shape: 100 3 32 32 (307200)
I1012 11:32:48.002816 11274 net.cpp:157] Top shape: 100 (100)
I1012 11:32:48.002818 11274 net.cpp:165] Memory required for data: 1229200
I1012 11:32:48.002822 11274 layer_factory.hpp:77] Creating layer label_data_1_split
I1012 11:32:48.002843 11274 net.cpp:100] Creating Layer label_data_1_split
I1012 11:32:48.002847 11274 net.cpp:434] label_data_1_split <- label
I1012 11:32:48.002852 11274 net.cpp:408] label_data_1_split -> label_data_1_split_0
I1012 11:32:48.002859 11274 net.cpp:408] label_data_1_split -> label_data_1_split_1
I1012 11:32:48.002935 11274 net.cpp:150] Setting up label_data_1_split
I1012 11:32:48.002941 11274 net.cpp:157] Top shape: 100 (100)
I1012 11:32:48.002943 11274 net.cpp:157] Top shape: 100 (100)
I1012 11:32:48.002945 11274 net.cpp:165] Memory required for data: 1230000
I1012 11:32:48.002948 11274 layer_factory.hpp:77] Creating layer conv1
I1012 11:32:48.002955 11274 net.cpp:100] Creating Layer conv1
I1012 11:32:48.002957 11274 net.cpp:434] conv1 <- data
I1012 11:32:48.002961 11274 net.cpp:408] conv1 -> conv1
I1012 11:32:48.004068 11274 net.cpp:150] Setting up conv1
I1012 11:32:48.004106 11274 net.cpp:157] Top shape: 100 96 30 30 (8640000)
I1012 11:32:48.004107 11274 net.cpp:165] Memory required for data: 35790000
I1012 11:32:48.004115 11274 layer_factory.hpp:77] Creating layer conv2
I1012 11:32:48.004135 11274 net.cpp:100] Creating Layer conv2
I1012 11:32:48.004138 11274 net.cpp:434] conv2 <- conv1
I1012 11:32:48.004143 11274 net.cpp:408] conv2 -> conv2
I1012 11:32:48.005532 11274 net.cpp:150] Setting up conv2
I1012 11:32:48.005558 11274 net.cpp:157] Top shape: 100 96 28 28 (7526400)
I1012 11:32:48.005559 11274 net.cpp:165] Memory required for data: 65895600
I1012 11:32:48.005566 11274 layer_factory.hpp:77] Creating layer bn1
I1012 11:32:48.005573 11274 net.cpp:100] Creating Layer bn1
I1012 11:32:48.005575 11274 net.cpp:434] bn1 <- conv2
I1012 11:32:48.005579 11274 net.cpp:408] bn1 -> bn1
I1012 11:32:48.005761 11274 net.cpp:150] Setting up bn1
I1012 11:32:48.005766 11274 net.cpp:157] Top shape: 100 96 28 28 (7526400)
I1012 11:32:48.005784 11274 net.cpp:165] Memory required for data: 96001200
I1012 11:32:48.005790 11274 layer_factory.hpp:77] Creating layer conv3
I1012 11:32:48.005796 11274 net.cpp:100] Creating Layer conv3
I1012 11:32:48.005812 11274 net.cpp:434] conv3 <- bn1
I1012 11:32:48.005817 11274 net.cpp:408] conv3 -> conv3
I1012 11:32:48.007230 11274 net.cpp:150] Setting up conv3
I1012 11:32:48.007241 11274 net.cpp:157] Top shape: 100 96 13 13 (1622400)
I1012 11:32:48.007244 11274 net.cpp:165] Memory required for data: 102490800
I1012 11:32:48.007251 11274 layer_factory.hpp:77] Creating layer drop1
I1012 11:32:48.007257 11274 net.cpp:100] Creating Layer drop1
I1012 11:32:48.007261 11274 net.cpp:434] drop1 <- conv3
I1012 11:32:48.007266 11274 net.cpp:408] drop1 -> drop1
I1012 11:32:48.007299 11274 net.cpp:150] Setting up drop1
I1012 11:32:48.007305 11274 net.cpp:157] Top shape: 100 96 13 13 (1622400)
I1012 11:32:48.007308 11274 net.cpp:165] Memory required for data: 108980400
I1012 11:32:48.007310 11274 layer_factory.hpp:77] Creating layer elu3
I1012 11:32:48.007314 11274 net.cpp:100] Creating Layer elu3
I1012 11:32:48.007316 11274 net.cpp:434] elu3 <- drop1
I1012 11:32:48.007319 11274 net.cpp:395] elu3 -> drop1 (in-place)
I1012 11:32:48.007323 11274 net.cpp:150] Setting up elu3
I1012 11:32:48.007326 11274 net.cpp:157] Top shape: 100 96 13 13 (1622400)
I1012 11:32:48.007328 11274 net.cpp:165] Memory required for data: 115470000
I1012 11:32:48.007330 11274 layer_factory.hpp:77] Creating layer conv4
I1012 11:32:48.007338 11274 net.cpp:100] Creating Layer conv4
I1012 11:32:48.007340 11274 net.cpp:434] conv4 <- drop1
I1012 11:32:48.007344 11274 net.cpp:408] conv4 -> conv4
I1012 11:32:48.009131 11274 net.cpp:150] Setting up conv4
I1012 11:32:48.009145 11274 net.cpp:157] Top shape: 100 192 11 11 (2323200)
I1012 11:32:48.009147 11274 net.cpp:165] Memory required for data: 124762800
I1012 11:32:48.009152 11274 layer_factory.hpp:77] Creating layer conv5
I1012 11:32:48.009160 11274 net.cpp:100] Creating Layer conv5
I1012 11:32:48.009163 11274 net.cpp:434] conv5 <- conv4
I1012 11:32:48.009167 11274 net.cpp:408] conv5 -> conv5
I1012 11:32:48.012094 11274 net.cpp:150] Setting up conv5
I1012 11:32:48.012126 11274 net.cpp:157] Top shape: 100 192 9 9 (1555200)
I1012 11:32:48.012128 11274 net.cpp:165] Memory required for data: 130983600
I1012 11:32:48.012135 11274 layer_factory.hpp:77] Creating layer bn2
I1012 11:32:48.012142 11274 net.cpp:100] Creating Layer bn2
I1012 11:32:48.012145 11274 net.cpp:434] bn2 <- conv5
I1012 11:32:48.012150 11274 net.cpp:408] bn2 -> bn2
I1012 11:32:48.012336 11274 net.cpp:150] Setting up bn2
I1012 11:32:48.012341 11274 net.cpp:157] Top shape: 100 192 9 9 (1555200)
I1012 11:32:48.012342 11274 net.cpp:165] Memory required for data: 137204400
I1012 11:32:48.012346 11274 layer_factory.hpp:77] Creating layer conv6
I1012 11:32:48.012353 11274 net.cpp:100] Creating Layer conv6
I1012 11:32:48.012356 11274 net.cpp:434] conv6 <- bn2
I1012 11:32:48.012361 11274 net.cpp:408] conv6 -> conv6
I1012 11:32:48.014962 11274 net.cpp:150] Setting up conv6
I1012 11:32:48.014973 11274 net.cpp:157] Top shape: 100 192 4 4 (307200)
I1012 11:32:48.014986 11274 net.cpp:165] Memory required for data: 138433200
I1012 11:32:48.014994 11274 layer_factory.hpp:77] Creating layer drop4
I1012 11:32:48.014999 11274 net.cpp:100] Creating Layer drop4
I1012 11:32:48.015002 11274 net.cpp:434] drop4 <- conv6
I1012 11:32:48.015007 11274 net.cpp:408] drop4 -> drop4
I1012 11:32:48.015080 11274 net.cpp:150] Setting up drop4
I1012 11:32:48.015086 11274 net.cpp:157] Top shape: 100 192 4 4 (307200)
I1012 11:32:48.015102 11274 net.cpp:165] Memory required for data: 139662000
I1012 11:32:48.015105 11274 layer_factory.hpp:77] Creating layer elu6
I1012 11:32:48.015108 11274 net.cpp:100] Creating Layer elu6
I1012 11:32:48.015110 11274 net.cpp:434] elu6 <- drop4
I1012 11:32:48.015113 11274 net.cpp:395] elu6 -> drop4 (in-place)
I1012 11:32:48.015116 11274 net.cpp:150] Setting up elu6
I1012 11:32:48.015121 11274 net.cpp:157] Top shape: 100 192 4 4 (307200)
I1012 11:32:48.015123 11274 net.cpp:165] Memory required for data: 140890800
I1012 11:32:48.015125 11274 layer_factory.hpp:77] Creating layer conv7
I1012 11:32:48.015146 11274 net.cpp:100] Creating Layer conv7
I1012 11:32:48.015161 11274 net.cpp:434] conv7 <- drop4
I1012 11:32:48.015166 11274 net.cpp:408] conv7 -> conv7
I1012 11:32:48.017740 11274 net.cpp:150] Setting up conv7
I1012 11:32:48.017750 11274 net.cpp:157] Top shape: 100 192 2 2 (76800)
I1012 11:32:48.017751 11274 net.cpp:165] Memory required for data: 141198000
I1012 11:32:48.017755 11274 layer_factory.hpp:77] Creating layer elu7
I1012 11:32:48.017760 11274 net.cpp:100] Creating Layer elu7
I1012 11:32:48.017762 11274 net.cpp:434] elu7 <- conv7
I1012 11:32:48.017766 11274 net.cpp:395] elu7 -> conv7 (in-place)
I1012 11:32:48.017771 11274 net.cpp:150] Setting up elu7
I1012 11:32:48.017773 11274 net.cpp:157] Top shape: 100 192 2 2 (76800)
I1012 11:32:48.017776 11274 net.cpp:165] Memory required for data: 141505200
I1012 11:32:48.017776 11274 layer_factory.hpp:77] Creating layer conv8
I1012 11:32:48.017798 11274 net.cpp:100] Creating Layer conv8
I1012 11:32:48.017801 11274 net.cpp:434] conv8 <- conv7
I1012 11:32:48.017805 11274 net.cpp:408] conv8 -> conv8
I1012 11:32:48.018817 11274 net.cpp:150] Setting up conv8
I1012 11:32:48.018826 11274 net.cpp:157] Top shape: 100 192 2 2 (76800)
I1012 11:32:48.018829 11274 net.cpp:165] Memory required for data: 141812400
I1012 11:32:48.018833 11274 layer_factory.hpp:77] Creating layer elu8
I1012 11:32:48.018836 11274 net.cpp:100] Creating Layer elu8
I1012 11:32:48.018838 11274 net.cpp:434] elu8 <- conv8
I1012 11:32:48.018842 11274 net.cpp:395] elu8 -> conv8 (in-place)
I1012 11:32:48.018846 11274 net.cpp:150] Setting up elu8
I1012 11:32:48.018849 11274 net.cpp:157] Top shape: 100 192 2 2 (76800)
I1012 11:32:48.018851 11274 net.cpp:165] Memory required for data: 142119600
I1012 11:32:48.018853 11274 layer_factory.hpp:77] Creating layer conv9
I1012 11:32:48.018857 11274 net.cpp:100] Creating Layer conv9
I1012 11:32:48.018859 11274 net.cpp:434] conv9 <- conv8
I1012 11:32:48.018878 11274 net.cpp:408] conv9 -> conv9
I1012 11:32:48.019724 11274 net.cpp:150] Setting up conv9
I1012 11:32:48.019734 11274 net.cpp:157] Top shape: 100 10 2 2 (4000)
I1012 11:32:48.019737 11274 net.cpp:165] Memory required for data: 142135600
I1012 11:32:48.019740 11274 layer_factory.hpp:77] Creating layer elu9
I1012 11:32:48.019745 11274 net.cpp:100] Creating Layer elu9
I1012 11:32:48.019747 11274 net.cpp:434] elu9 <- conv9
I1012 11:32:48.019750 11274 net.cpp:395] elu9 -> conv9 (in-place)
I1012 11:32:48.019754 11274 net.cpp:150] Setting up elu9
I1012 11:32:48.019757 11274 net.cpp:157] Top shape: 100 10 2 2 (4000)
I1012 11:32:48.019758 11274 net.cpp:165] Memory required for data: 142151600
I1012 11:32:48.019762 11274 layer_factory.hpp:77] Creating layer pool
I1012 11:32:48.019765 11274 net.cpp:100] Creating Layer pool
I1012 11:32:48.019783 11274 net.cpp:434] pool <- conv9
I1012 11:32:48.019785 11274 net.cpp:408] pool -> pool
I1012 11:32:48.020076 11274 net.cpp:150] Setting up pool
I1012 11:32:48.020084 11274 net.cpp:157] Top shape: 100 10 1 1 (1000)
I1012 11:32:48.020097 11274 net.cpp:165] Memory required for data: 142155600
I1012 11:32:48.020098 11274 layer_factory.hpp:77] Creating layer flatten
I1012 11:32:48.020102 11274 net.cpp:100] Creating Layer flatten
I1012 11:32:48.020104 11274 net.cpp:434] flatten <- pool
I1012 11:32:48.020108 11274 net.cpp:408] flatten -> flatten
I1012 11:32:48.020146 11274 net.cpp:150] Setting up flatten
I1012 11:32:48.020150 11274 net.cpp:157] Top shape: 100 10 (1000)
I1012 11:32:48.020169 11274 net.cpp:165] Memory required for data: 142159600
I1012 11:32:48.020171 11274 layer_factory.hpp:77] Creating layer score
I1012 11:32:48.020175 11274 net.cpp:100] Creating Layer score
I1012 11:32:48.020191 11274 net.cpp:434] score <- flatten
I1012 11:32:48.020195 11274 net.cpp:408] score -> score
I1012 11:32:48.020335 11274 net.cpp:150] Setting up score
I1012 11:32:48.020340 11274 net.cpp:157] Top shape: 100 10 (1000)
I1012 11:32:48.020342 11274 net.cpp:165] Memory required for data: 142163600
I1012 11:32:48.020345 11274 layer_factory.hpp:77] Creating layer score_score_0_split
I1012 11:32:48.020349 11274 net.cpp:100] Creating Layer score_score_0_split
I1012 11:32:48.020351 11274 net.cpp:434] score_score_0_split <- score
I1012 11:32:48.020355 11274 net.cpp:408] score_score_0_split -> score_score_0_split_0
I1012 11:32:48.020359 11274 net.cpp:408] score_score_0_split -> score_score_0_split_1
I1012 11:32:48.020403 11274 net.cpp:150] Setting up score_score_0_split
I1012 11:32:48.020407 11274 net.cpp:157] Top shape: 100 10 (1000)
I1012 11:32:48.020409 11274 net.cpp:157] Top shape: 100 10 (1000)
I1012 11:32:48.020423 11274 net.cpp:165] Memory required for data: 142171600
I1012 11:32:48.020426 11274 layer_factory.hpp:77] Creating layer accuracy
I1012 11:32:48.020429 11274 net.cpp:100] Creating Layer accuracy
I1012 11:32:48.020431 11274 net.cpp:434] accuracy <- score_score_0_split_0
I1012 11:32:48.020447 11274 net.cpp:434] accuracy <- label_data_1_split_0
I1012 11:32:48.020452 11274 net.cpp:408] accuracy -> accuracy
…
