…
  stage: ""
}
type: "RMSProp"
I1011 16:27:41.185025  6782 solver.cpp:81] Creating training net from train_net file: /home/adam/Honours/Honours-Project/cifar-10_allcnn/elu/allcnn_elu_train.prototxt
I1011 16:27:41.185369  6782 net.cpp:58] Initializing net from parameters: 
state {
  phase: TRAIN
  level: 0
  stage: ""
}
layer {
  name: "data"
  type: "Data"
  top: "data"
  top: "label"
  transform_param {
    mean_file: "mean.binaryproto"
  }
  data_param {
    source: "../../../data/cifar-10/cifar10_train_lmdb"
    batch_size: 64
    backend: LMDB
  }
}
layer {
  name: "conv1"
  type: "Convolution"
  bottom: "data"
  top: "conv1"
  convolution_param {
    num_output: 96
    kernel_size: 3
    weight_filler {
      type: "xavier"
    }
  }
}
layer {
  name: "elu1"
  type: "ELU"
  bottom: "conv1"
  top: "conv1"
}
layer {
  name: "conv2"
  type: "Convolution"
  bottom: "conv1"
  top: "conv2"
  convolution_param {
    num_output: 96
    kernel_size: 3
    weight_filler {
      type: "xavier"
    }
  }
}
layer {
  name: "bn1"
  type: "BatchNorm"
  bottom: "conv2"
  top: "bn1"
}
layer {
  name: "elu2"
  type: "ELU"
  bottom: "bn1"
  top: "bn1"
}
layer {
  name: "drop1"
  type: "Dropout"
  bottom: "bn1"
  top: "drop1"
  dropout_param {
    dropout_ratio: 0.5
  }
}
layer {
  name: "conv3"
  type: "Convolution"
  bottom: "drop1"
  top: "conv3"
  convolution_param {
    num_output: 96
    kernel_size: 3
    stride: 2
    weight_filler {
      type: "xavier"
    }
  }
}
layer {
  name: "elu3"
  type: "ELU"
  bottom: "conv3"
  top: "conv3"
}
layer {
  name: "conv4"
  type: "Convolution"
  bottom: "conv3"
  top: "conv4"
  convolution_param {
    num_output: 192
    kernel_size: 3
    weight_filler {
      type: "xavier"
    }
  }
}
layer {
  name: "elu4"
  type: "ELU"
  bottom: "conv4"
  top: "conv4"
}
layer {
  name: "conv5"
  type: "Convolution"
  bottom: "conv4"
  top: "conv5"
  convolution_param {
    num_output: 192
    kernel_size: 3
    weight_filler {
      type: "xavier"
    }
  }
}
layer {
  name: "bn2"
  type: "BatchNorm"
  bottom: "conv5"
  top: "bn2"
}
layer {
  name: "elu5"
  type: "ELU"
  bottom: "bn2"
  top: "bn2"
}
layer {
  name: "drop4"
  type: "Dropout"
  bottom: "bn2"
  top: "drop4"
  dropout_param {
    dropout_ratio: 0.5
  }
}
layer {
  name: "conv6"
  type: "Convolution"
  bottom: "drop4"
  top: "conv6"
  convolution_param {
    num_output: 192
    kernel_size: 3
    stride: 2
    weight_filler {
      type: "xavier"
    }
  }
}
layer {
  name: "elu6"
  type: "ELU"
  bottom: "conv6"
  top: "conv6"
}
layer {
  name: "conv7"
  type: "Convolution"
  bottom: "conv6"
  top: "conv7"
  convolution_param {
    num_output: 192
    kernel_size: 3
    weight_filler {
      type: "xavier"
    }
  }
}
layer {
  name: "elu7"
  type: "ELU"
  bottom: "conv7"
  top: "conv7"
}
layer {
  name: "conv8"
  type: "Convolution"
  bottom: "conv7"
  top: "conv8"
  convolution_param {
    num_output: 192
    kernel_size: 1
    weight_filler {
      type: "xavier"
    }
  }
}
layer {
  name: "elu8"
  type: "ELU"
  bottom: "conv8"
  top: "conv8"
}
layer {
  name: "conv9"
  type: "Convolution"
  bottom: "conv8"
  top: "conv9"
  convolution_param {
    num_output: 10
    kernel_size: 1
    weight_filler {
      type: "xavier"
    }
  }
}
layer {
  name: "elu9"
  type: "ELU"
  bottom: "conv9"
  top: "conv9"
}
layer {
  name: "pool"
  type: "Pooling"
  bottom: "conv9"
  top: "pool"
  pooling_param {
    pool: AVE
    global_pooling: true
  }
}
layer {
  name: "flatten"
  type: "Flatten"
  bottom: "pool"
  top: "flatten"
}
layer {
  name: "score"
  type: "InnerProduct"
  bottom: "flatten"
  top: "score"
  inner_product_param {
    num_output: 10
    weight_filler {
      type: "gaussian"
    }
  }
}
layer {
  name: "accuracy"
  type: "Accuracy"
  bottom: "score"
  bottom: "label"
  top: "accuracy"
}
layer {
  name: "loss"
  type: "SoftmaxWithLoss"
  bottom: "score"
  bottom: "label"
  top: "loss"
}
I1011 16:27:41.185523  6782 layer_factory.hpp:77] Creating layer data
I1011 16:27:41.186007  6782 net.cpp:100] Creating Layer data
I1011 16:27:41.186036  6782 net.cpp:408] data -> data
I1011 16:27:41.186054  6782 net.cpp:408] data -> label
I1011 16:27:41.186066  6782 data_transformer.cpp:25] Loading mean file from: mean.binaryproto
I1011 16:27:41.186805  6787 db_lmdb.cpp:35] Opened lmdb ../../../data/cifar-10/cifar10_train_lmdb
I1011 16:27:41.193225  6782 data_layer.cpp:41] output data size: 64,3,32,32
I1011 16:27:41.194895  6782 net.cpp:150] Setting up data
I1011 16:27:41.194936  6782 net.cpp:157] Top shape: 64 3 32 32 (196608)
I1011 16:27:41.194939  6782 net.cpp:157] Top shape: 64 (64)
I1011 16:27:41.194941  6782 net.cpp:165] Memory required for data: 786688
I1011 16:27:41.194949  6782 layer_factory.hpp:77] Creating layer label_data_1_split
I1011 16:27:41.194958  6782 net.cpp:100] Creating Layer label_data_1_split
I1011 16:27:41.194977  6782 net.cpp:434] label_data_1_split <- label
I1011 16:27:41.195000  6782 net.cpp:408] label_data_1_split -> label_data_1_split_0
I1011 16:27:41.195025  6782 net.cpp:408] label_data_1_split -> label_data_1_split_1
I1011 16:27:41.195071  6782 net.cpp:150] Setting up label_data_1_split
I1011 16:27:41.195077  6782 net.cpp:157] Top shape: 64 (64)
I1011 16:27:41.195080  6782 net.cpp:157] Top shape: 64 (64)
I1011 16:27:41.195082  6782 net.cpp:165] Memory required for data: 787200
I1011 16:27:41.195085  6782 layer_factory.hpp:77] Creating layer conv1
I1011 16:27:41.195097  6782 net.cpp:100] Creating Layer conv1
I1011 16:27:41.195101  6782 net.cpp:434] conv1 <- data
I1011 16:27:41.195104  6782 net.cpp:408] conv1 -> conv1
I1011 16:27:41.330441  6782 net.cpp:150] Setting up conv1
I1011 16:27:41.330464  6782 net.cpp:157] Top shape: 64 96 30 30 (5529600)
I1011 16:27:41.330467  6782 net.cpp:165] Memory required for data: 22905600
I1011 16:27:41.330484  6782 layer_factory.hpp:77] Creating layer elu1
I1011 16:27:41.330492  6782 net.cpp:100] Creating Layer elu1
I1011 16:27:41.330494  6782 net.cpp:434] elu1 <- conv1
I1011 16:27:41.330498  6782 net.cpp:395] elu1 -> conv1 (in-place)
I1011 16:27:41.330519  6782 net.cpp:150] Setting up elu1
I1011 16:27:41.330523  6782 net.cpp:157] Top shape: 64 96 30 30 (5529600)
I1011 16:27:41.330538  6782 net.cpp:165] Memory required for data: 45024000
I1011 16:27:41.330539  6782 layer_factory.hpp:77] Creating layer conv2
I1011 16:27:41.330564  6782 net.cpp:100] Creating Layer conv2
I1011 16:27:41.330565  6782 net.cpp:434] conv2 <- conv1
I1011 16:27:41.330569  6782 net.cpp:408] conv2 -> conv2
I1011 16:27:41.332057  6782 net.cpp:150] Setting up conv2
I1011 16:27:41.332083  6782 net.cpp:157] Top shape: 64 96 28 28 (4816896)
I1011 16:27:41.332087  6782 net.cpp:165] Memory required for data: 64291584
I1011 16:27:41.332106  6782 layer_factory.hpp:77] Creating layer bn1
I1011 16:27:41.332111  6782 net.cpp:100] Creating Layer bn1
I1011 16:27:41.332128  6782 net.cpp:434] bn1 <- conv2
I1011 16:27:41.332132  6782 net.cpp:408] bn1 -> bn1
I1011 16:27:41.332319  6782 net.cpp:150] Setting up bn1
I1011 16:27:41.332325  6782 net.cpp:157] Top shape: 64 96 28 28 (4816896)
I1011 16:27:41.332327  6782 net.cpp:165] Memory required for data: 83559168
I1011 16:27:41.332334  6782 layer_factory.hpp:77] Creating layer elu2
I1011 16:27:41.332351  6782 net.cpp:100] Creating Layer elu2
I1011 16:27:41.332353  6782 net.cpp:434] elu2 <- bn1
I1011 16:27:41.332357  6782 net.cpp:395] elu2 -> bn1 (in-place)
I1011 16:27:41.332373  6782 net.cpp:150] Setting up elu2
I1011 16:27:41.332376  6782 net.cpp:157] Top shape: 64 96 28 28 (4816896)
I1011 16:27:41.332377  6782 net.cpp:165] Memory required for data: 102826752
I1011 16:27:41.332404  6782 layer_factory.hpp:77] Creating layer drop1
I1011 16:27:41.332425  6782 net.cpp:100] Creating Layer drop1
I1011 16:27:41.332427  6782 net.cpp:434] drop1 <- bn1
I1011 16:27:41.332430  6782 net.cpp:408] drop1 -> drop1
I1011 16:27:41.332471  6782 net.cpp:150] Setting up drop1
I1011 16:27:41.332476  6782 net.cpp:157] Top shape: 64 96 28 28 (4816896)
I1011 16:27:41.332479  6782 net.cpp:165] Memory required for data: 122094336
I1011 16:27:41.332480  6782 layer_factory.hpp:77] Creating layer conv3
I1011 16:27:41.332501  6782 net.cpp:100] Creating Layer conv3
I1011 16:27:41.332504  6782 net.cpp:434] conv3 <- drop1
I1011 16:27:41.332509  6782 net.cpp:408] conv3 -> conv3
I1011 16:27:41.333828  6782 net.cpp:150] Setting up conv3
I1011 16:27:41.333853  6782 net.cpp:157] Top shape: 64 96 13 13 (1038336)
I1011 16:27:41.333855  6782 net.cpp:165] Memory required for data: 126247680
I1011 16:27:41.333863  6782 layer_factory.hpp:77] Creating layer elu3
I1011 16:27:41.333866  6782 net.cpp:100] Creating Layer elu3
I1011 16:27:41.333869  6782 net.cpp:434] elu3 <- conv3
I1011 16:27:41.333873  6782 net.cpp:395] elu3 -> conv3 (in-place)
I1011 16:27:41.333896  6782 net.cpp:150] Setting up elu3
I1011 16:27:41.333899  6782 net.cpp:157] Top shape: 64 96 13 13 (1038336)
I1011 16:27:41.333914  6782 net.cpp:165] Memory required for data: 130401024
I1011 16:27:41.333916  6782 layer_factory.hpp:77] Creating layer conv4
I1011 16:27:41.333920  6782 net.cpp:100] Creating Layer conv4
I1011 16:27:41.333937  6782 net.cpp:434] conv4 <- conv3
I1011 16:27:41.333941  6782 net.cpp:408] conv4 -> conv4
I1011 16:27:41.335842  6782 net.cpp:150] Setting up conv4
I1011 16:27:41.335855  6782 net.cpp:157] Top shape: 64 192 11 11 (1486848)
I1011 16:27:41.335857  6782 net.cpp:165] Memory required for data: 136348416
I1011 16:27:41.335862  6782 layer_factory.hpp:77] Creating layer elu4
I1011 16:27:41.335866  6782 net.cpp:100] Creating Layer elu4
I1011 16:27:41.335868  6782 net.cpp:434] elu4 <- conv4
I1011 16:27:41.335872  6782 net.cpp:395] elu4 -> conv4 (in-place)
I1011 16:27:41.335876  6782 net.cpp:150] Setting up elu4
I1011 16:27:41.335880  6782 net.cpp:157] Top shape: 64 192 11 11 (1486848)
I1011 16:27:41.335881  6782 net.cpp:165] Memory required for data: 142295808
I1011 16:27:41.335882  6782 layer_factory.hpp:77] Creating layer conv5
I1011 16:27:41.335902  6782 net.cpp:100] Creating Layer conv5
I1011 16:27:41.335904  6782 net.cpp:434] conv5 <- conv4
I1011 16:27:41.335907  6782 net.cpp:408] conv5 -> conv5
I1011 16:27:41.338879  6782 net.cpp:150] Setting up conv5
I1011 16:27:41.338894  6782 net.cpp:157] Top shape: 64 192 9 9 (995328)
I1011 16:27:41.338897  6782 net.cpp:165] Memory required for data: 146277120
I1011 16:27:41.338902  6782 layer_factory.hpp:77] Creating layer bn2
I1011 16:27:41.338907  6782 net.cpp:100] Creating Layer bn2
I1011 16:27:41.338909  6782 net.cpp:434] bn2 <- conv5
I1011 16:27:41.338913  6782 net.cpp:408] bn2 -> bn2
I1011 16:27:41.339169  6782 net.cpp:150] Setting up bn2
I1011 16:27:41.339175  6782 net.cpp:157] Top shape: 64 192 9 9 (995328)
I1011 16:27:41.339191  6782 net.cpp:165] Memory required for data: 150258432
I1011 16:27:41.339196  6782 layer_factory.hpp:77] Creating layer elu5
I1011 16:27:41.339213  6782 net.cpp:100] Creating Layer elu5
I1011 16:27:41.339215  6782 net.cpp:434] elu5 <- bn2
I1011 16:27:41.339218  6782 net.cpp:395] elu5 -> bn2 (in-place)
I1011 16:27:41.339236  6782 net.cpp:150] Setting up elu5
I1011 16:27:41.339239  6782 net.cpp:157] Top shape: 64 192 9 9 (995328)
I1011 16:27:41.339243  6782 net.cpp:165] Memory required for data: 154239744
I1011 16:27:41.339246  6782 layer_factory.hpp:77] Creating layer drop4
I1011 16:27:41.339262  6782 net.cpp:100] Creating Layer drop4
I1011 16:27:41.339264  6782 net.cpp:434] drop4 <- bn2
I1011 16:27:41.339267  6782 net.cpp:408] drop4 -> drop4
I1011 16:27:41.339295  6782 net.cpp:150] Setting up drop4
I1011 16:27:41.339300  6782 net.cpp:157] Top shape: 64 192 9 9 (995328)
I1011 16:27:41.339303  6782 net.cpp:165] Memory required for data: 158221056
I1011 16:27:41.339314  6782 layer_factory.hpp:77] Creating layer conv6
I1011 16:27:41.339325  6782 net.cpp:100] Creating Layer conv6
I1011 16:27:41.339328  6782 net.cpp:434] conv6 <- drop4
I1011 16:27:41.339349  6782 net.cpp:408] conv6 -> conv6
I1011 16:27:41.342164  6782 net.cpp:150] Setting up conv6
I1011 16:27:41.342195  6782 net.cpp:157] Top shape: 64 192 4 4 (196608)
I1011 16:27:41.342198  6782 net.cpp:165] Memory required for data: 159007488
I1011 16:27:41.342223  6782 layer_factory.hpp:77] Creating layer elu6
I1011 16:27:41.342229  6782 net.cpp:100] Creating Layer elu6
I1011 16:27:41.342231  6782 net.cpp:434] elu6 <- conv6
I1011 16:27:41.342236  6782 net.cpp:395] elu6 -> conv6 (in-place)
I1011 16:27:41.342242  6782 net.cpp:150] Setting up elu6
I1011 16:27:41.342245  6782 net.cpp:157] Top shape: 64 192 4 4 (196608)
I1011 16:27:41.342247  6782 net.cpp:165] Memory required for data: 159793920
I1011 16:27:41.342272  6782 layer_factory.hpp:77] Creating layer conv7
I1011 16:27:41.342278  6782 net.cpp:100] Creating Layer conv7
I1011 16:27:41.342280  6782 net.cpp:434] conv7 <- conv6
I1011 16:27:41.342284  6782 net.cpp:408] conv7 -> conv7
I1011 16:27:41.344933  6782 net.cpp:150] Setting up conv7
I1011 16:27:41.344947  6782 net.cpp:157] Top shape: 64 192 2 2 (49152)
I1011 16:27:41.344949  6782 net.cpp:165] Memory required for data: 159990528
I1011 16:27:41.344954  6782 layer_factory.hpp:77] Creating layer elu7
I1011 16:27:41.344959  6782 net.cpp:100] Creating Layer elu7
I1011 16:27:41.344961  6782 net.cpp:434] elu7 <- conv7
I1011 16:27:41.344964  6782 net.cpp:395] elu7 -> conv7 (in-place)
I1011 16:27:41.344969  6782 net.cpp:150] Setting up elu7
I1011 16:27:41.344972  6782 net.cpp:157] Top shape: 64 192 2 2 (49152)
I1011 16:27:41.344974  6782 net.cpp:165] Memory required for data: 160187136
I1011 16:27:41.344975  6782 layer_factory.hpp:77] Creating layer conv8
I1011 16:27:41.344995  6782 net.cpp:100] Creating Layer conv8
I1011 16:27:41.344998  6782 net.cpp:434] conv8 <- conv7
I1011 16:27:41.345001  6782 net.cpp:408] conv8 -> conv8
I1011 16:27:41.346434  6782 net.cpp:150] Setting up conv8
I1011 16:27:41.346446  6782 net.cpp:157] Top shape: 64 192 2 2 (49152)
I1011 16:27:41.346449  6782 net.cpp:165] Memory required for data: 160383744
I1011 16:27:41.346454  6782 layer_factory.hpp:77] Creating layer elu8
I1011 16:27:41.346458  6782 net.cpp:100] Creating Layer elu8
I1011 16:27:41.346462  6782 net.cpp:434] elu8 <- conv8
I1011 16:27:41.346465  6782 net.cpp:395] elu8 -> conv8 (in-place)
I1011 16:27:41.346469  6782 net.cpp:150] Setting up elu8
I1011 16:27:41.346473  6782 net.cpp:157] Top shape: 64 192 2 2 (49152)
I1011 16:27:41.346475  6782 net.cpp:165] Memory required for data: 160580352
I1011 16:27:41.346477  6782 layer_factory.hpp:77] Creating layer conv9
I1011 16:27:41.346495  6782 net.cpp:100] Creating Layer conv9
I1011 16:27:41.346498  6782 net.cpp:434] conv9 <- conv8
I1011 16:27:41.346501  6782 net.cpp:408] conv9 -> conv9
I1011 16:27:41.347352  6782 net.cpp:150] Setting up conv9
I1011 16:27:41.347422  6782 net.cpp:157] Top shape: 64 10 2 2 (2560)
I1011 16:27:41.347426  6782 net.cpp:165] Memory required for data: 160590592
I1011 16:27:41.347446  6782 layer_factory.hpp:77] Creating layer elu9
I1011 16:27:41.347451  6782 net.cpp:100] Creating Layer elu9
I1011 16:27:41.347453  6782 net.cpp:434] elu9 <- conv9
I1011 16:27:41.347457  6782 net.cpp:395] elu9 -> conv9 (in-place)
I1011 16:27:41.347462  6782 net.cpp:150] Setting up elu9
I1011 16:27:41.347465  6782 net.cpp:157] Top shape: 64 10 2 2 (2560)
I1011 16:27:41.347467  6782 net.cpp:165] Memory required for data: 160600832
I1011 16:27:41.347470  6782 layer_factory.hpp:77] Creating layer pool
I1011 16:27:41.347473  6782 net.cpp:100] Creating Layer pool
I1011 16:27:41.347476  6782 net.cpp:434] pool <- conv9
I1011 16:27:41.347492  6782 net.cpp:408] pool -> pool
I1011 16:27:41.347885  6782 net.cpp:150] Setting up pool
I1011 16:27:41.347909  6782 net.cpp:157] Top shape: 64 10 1 1 (640)
I1011 16:27:41.347911  6782 net.cpp:165] Memory required for data: 160603392
I1011 16:27:41.347914  6782 layer_factory.hpp:77] Creating layer flatten
I1011 16:27:41.347929  6782 net.cpp:100] Creating Layer flatten
I1011 16:27:41.347930  6782 net.cpp:434] flatten <- pool
I1011 16:27:41.347949  6782 net.cpp:408] flatten -> flatten
I1011 16:27:41.347987  6782 net.cpp:150] Setting up flatten
I1011 16:27:41.347992  6782 net.cpp:157] Top shape: 64 10 (640)
I1011 16:27:41.347995  6782 net.cpp:165] Memory required for data: 160605952
I1011 16:27:41.347996  6782 layer_factory.hpp:77] Creating layer score
I1011 16:27:41.348001  6782 net.cpp:100] Creating Layer score
I1011 16:27:41.348002  6782 net.cpp:434] score <- flatten
I1011 16:27:41.348006  6782 net.cpp:408] score -> score
I1011 16:27:41.348158  6782 net.cpp:150] Setting up score
I1011 16:27:41.348163  6782 net.cpp:157] Top shape: 64 10 (640)
I1011 16:27:41.348165  6782 net.cpp:165] Memory required for data: 160608512
I1011 16:27:41.348183  6782 layer_factory.hpp:77] Creating layer score_score_0_split
I1011 16:27:41.348189  6782 net.cpp:100] Creating Layer score_score_0_split
I1011 16:27:41.348191  6782 net.cpp:434] score_score_0_split <- score
I1011 16:27:41.348196  6782 net.cpp:408] score_score_0_split -> score_score_0_split_0
I1011 16:27:41.348202  6782 net.cpp:408] score_score_0_split -> score_score_0_split_1
I1011 16:27:41.348230  6782 net.cpp:150] Setting up score_score_0_split
I1011 16:27:41.348234  6782 net.cpp:157] Top shape: 64 10 (640)
I1011 16:27:41.348237  6782 net.cpp:157] Top shape: 64 10 (640)
I1011 16:27:41.348238  6782 net.cpp:165] Memory required for data: 160613632
I1011 16:27:41.348253  6782 layer_factory.hpp:77] Creating layer accuracy
I1011 16:27:41.348258  6782 net.cpp:100] Creating Layer accuracy
I1011 16:27:41.348260  6782 net.cpp:434] accuracy <- score_score_0_split_0
I1011 16:27:41.348276  6782 net.cpp:434] accuracy <- label_data_1_split_0
I1011 16:27:41.348280  6782 net.cpp:408] accuracy -> accuracy
…
I1011 16:27:41.348731  6782 net.cpp:283] Network initialization done.
I1011 16:27:41.348911  6782 solver.cpp:181] Creating test net (#0) specified by test_net file: /home/adam/Honours/Honours-Project/cifar-10_allcnn/elu/allcnn_elu_test.prototxt
I1011 16:27:41.349045  6782 net.cpp:58] Initializing net from parameters: 
state {
  phase: TEST
}
layer {
  name: "data"
  type: "Data"
  top: "data"
  top: "label"
  transform_param {
    mean_file: "mean.binaryproto"
  }
  data_param {
    source: "../../../data/cifar-10/cifar10_test_lmdb"
    batch_size: 100
    backend: LMDB
  }
}
layer {
  name: "conv1"
  type: "Convolution"
  bottom: "data"
  top: "conv1"
  convolution_param {
    num_output: 96
    kernel_size: 3
    weight_filler {
      type: "xavier"
    }
  }
}
layer {
  name: "elu1"
  type: "ELU"
  bottom: "conv1"
  top: "conv1"
}
layer {
  name: "conv2"
  type: "Convolution"
  bottom: "conv1"
  top: "conv2"
  convolution_param {
    num_output: 96
    kernel_size: 3
    weight_filler {
      type: "xavier"
    }
  }
}
layer {
  name: "bn1"
  type: "BatchNorm"
  bottom: "conv2"
  top: "bn1"
}
layer {
  name: "elu2"
  type: "ELU"
  bottom: "bn1"
  top: "bn1"
}
layer {
  name: "drop1"
  type: "Dropout"
  bottom: "bn1"
  top: "drop1"
  dropout_param {
    dropout_ratio: 0.5
  }
}
layer {
  name: "conv3"
  type: "Convolution"
  bottom: "drop1"
  top: "conv3"
  convolution_param {
    num_output: 96
    kernel_size: 3
    stride: 2
    weight_filler {
      type: "xavier"
    }
  }
}
layer {
  name: "elu3"
  type: "ELU"
  bottom: "conv3"
  top: "conv3"
}
layer {
  name: "conv4"
  type: "Convolution"
  bottom: "conv3"
  top: "conv4"
  convolution_param {
    num_output: 192
    kernel_size: 3
    weight_filler {
      type: "xavier"
    }
  }
}
layer {
  name: "elu4"
  type: "ELU"
  bottom: "conv4"
  top: "conv4"
}
layer {
  name: "conv5"
  type: "Convolution"
  bottom: "conv4"
  top: "conv5"
  convolution_param {
    num_output: 192
    kernel_size: 3
    weight_filler {
      type: "xavier"
    }
  }
}
layer {
  name: "bn2"
  type: "BatchNorm"
  bottom: "conv5"
  top: "bn2"
}
layer {
  name: "elu5"
  type: "ELU"
  bottom: "bn2"
  top: "bn2"
}
layer {
  name: "drop4"
  type: "Dropout"
  bottom: "bn2"
  top: "drop4"
  dropout_param {
    dropout_ratio: 0.5
  }
}
layer {
  name: "conv6"
  type: "Convolution"
  bottom: "drop4"
  top: "conv6"
  convolution_param {
    num_output: 192
    kernel_size: 3
    stride: 2
    weight_filler {
      type: "xavier"
    }
  }
}
layer {
  name: "elu6"
  type: "ELU"
  bottom: "conv6"
  top: "conv6"
}
layer {
  name: "conv7"
  type: "Convolution"
  bottom: "conv6"
  top: "conv7"
  convolution_param {
    num_output: 192
    kernel_size: 3
    weight_filler {
      type: "xavier"
    }
  }
}
layer {
  name: "elu7"
  type: "ELU"
  bottom: "conv7"
  top: "conv7"
}
layer {
  name: "conv8"
  type: "Convolution"
  bottom: "conv7"
  top: "conv8"
  convolution_param {
    num_output: 192
    kernel_size: 1
    weight_filler {
      type: "xavier"
    }
  }
}
layer {
  name: "elu8"
  type: "ELU"
  bottom: "conv8"
  top: "conv8"
}
layer {
  name: "conv9"
  type: "Convolution"
  bottom: "conv8"
  top: "conv9"
  convolution_param {
    num_output: 10
    kernel_size: 1
    weight_filler {
      type: "xavier"
    }
  }
}
layer {
  name: "elu9"
  type: "ELU"
  bottom: "conv9"
  top: "conv9"
}
layer {
  name: "pool"
  type: "Pooling"
  bottom: "conv9"
  top: "pool"
  pooling_param {
    pool: AVE
    global_pooling: true
  }
}
layer {
  name: "flatten"
  type: "Flatten"
  bottom: "pool"
  top: "flatten"
}
layer {
  name: "score"
  type: "InnerProduct"
  bottom: "flatten"
  top: "score"
  inner_product_param {
    num_output: 10
    weight_filler {
      type: "gaussian"
    }
  }
}
layer {
  name: "accuracy"
  type: "Accuracy"
  bottom: "score"
  bottom: "label"
  top: "accuracy"
}
layer {
  name: "loss"
  type: "SoftmaxWithLoss"
  bottom: "score"
  bottom: "label"
  top: "loss"
}
I1011 16:27:41.349153  6782 layer_factory.hpp:77] Creating layer data
I1011 16:27:41.349238  6782 net.cpp:100] Creating Layer data
I1011 16:27:41.349244  6782 net.cpp:408] data -> data
I1011 16:27:41.349251  6782 net.cpp:408] data -> label
I1011 16:27:41.349257  6782 data_transformer.cpp:25] Loading mean file from: mean.binaryproto
I1011 16:27:41.349990  6789 db_lmdb.cpp:35] Opened lmdb ../../../data/cifar-10/cifar10_test_lmdb
I1011 16:27:41.350847  6782 data_layer.cpp:41] output data size: 100,3,32,32
I1011 16:27:41.352854  6782 net.cpp:150] Setting up data
I1011 16:27:41.352901  6782 net.cpp:157] Top shape: 100 3 32 32 (307200)
I1011 16:27:41.352905  6782 net.cpp:157] Top shape: 100 (100)
I1011 16:27:41.352907  6782 net.cpp:165] Memory required for data: 1229200
I1011 16:27:41.352926  6782 layer_factory.hpp:77] Creating layer label_data_1_split
I1011 16:27:41.352949  6782 net.cpp:100] Creating Layer label_data_1_split
I1011 16:27:41.352952  6782 net.cpp:434] label_data_1_split <- label
I1011 16:27:41.352958  6782 net.cpp:408] label_data_1_split -> label_data_1_split_0
I1011 16:27:41.352980  6782 net.cpp:408] label_data_1_split -> label_data_1_split_1
I1011 16:27:41.353041  6782 net.cpp:150] Setting up label_data_1_split
I1011 16:27:41.353046  6782 net.cpp:157] Top shape: 100 (100)
I1011 16:27:41.353049  6782 net.cpp:157] Top shape: 100 (100)
I1011 16:27:41.353050  6782 net.cpp:165] Memory required for data: 1230000
I1011 16:27:41.353054  6782 layer_factory.hpp:77] Creating layer conv1
I1011 16:27:41.353062  6782 net.cpp:100] Creating Layer conv1
I1011 16:27:41.353065  6782 net.cpp:434] conv1 <- data
I1011 16:27:41.353081  6782 net.cpp:408] conv1 -> conv1
I1011 16:27:41.354372  6782 net.cpp:150] Setting up conv1
I1011 16:27:41.354401  6782 net.cpp:157] Top shape: 100 96 30 30 (8640000)
I1011 16:27:41.354405  6782 net.cpp:165] Memory required for data: 35790000
I1011 16:27:41.354426  6782 layer_factory.hpp:77] Creating layer elu1
I1011 16:27:41.354446  6782 net.cpp:100] Creating Layer elu1
I1011 16:27:41.354449  6782 net.cpp:434] elu1 <- conv1
I1011 16:27:41.354451  6782 net.cpp:395] elu1 -> conv1 (in-place)
I1011 16:27:41.354456  6782 net.cpp:150] Setting up elu1
I1011 16:27:41.354460  6782 net.cpp:157] Top shape: 100 96 30 30 (8640000)
I1011 16:27:41.354462  6782 net.cpp:165] Memory required for data: 70350000
I1011 16:27:41.354465  6782 layer_factory.hpp:77] Creating layer conv2
I1011 16:27:41.354472  6782 net.cpp:100] Creating Layer conv2
I1011 16:27:41.354475  6782 net.cpp:434] conv2 <- conv1
I1011 16:27:41.354480  6782 net.cpp:408] conv2 -> conv2
I1011 16:27:41.356066  6782 net.cpp:150] Setting up conv2
I1011 16:27:41.356081  6782 net.cpp:157] Top shape: 100 96 28 28 (7526400)
I1011 16:27:41.356083  6782 net.cpp:165] Memory required for data: 100455600
I1011 16:27:41.356091  6782 layer_factory.hpp:77] Creating layer bn1
I1011 16:27:41.356096  6782 net.cpp:100] Creating Layer bn1
I1011 16:27:41.356097  6782 net.cpp:434] bn1 <- conv2
I1011 16:27:41.356102  6782 net.cpp:408] bn1 -> bn1
I1011 16:27:41.356281  6782 net.cpp:150] Setting up bn1
I1011 16:27:41.356290  6782 net.cpp:157] Top shape: 100 96 28 28 (7526400)
I1011 16:27:41.357831  6782 net.cpp:165] Memory required for data: 130561200
I1011 16:27:41.357843  6782 layer_factory.hpp:77] Creating layer elu2
I1011 16:27:41.357851  6782 net.cpp:100] Creating Layer elu2
I1011 16:27:41.357853  6782 net.cpp:434] elu2 <- bn1
I1011 16:27:41.357858  6782 net.cpp:395] elu2 -> bn1 (in-place)
I1011 16:27:41.357863  6782 net.cpp:150] Setting up elu2
I1011 16:27:41.357868  6782 net.cpp:157] Top shape: 100 96 28 28 (7526400)
I1011 16:27:41.357870  6782 net.cpp:165] Memory required for data: 160666800
I1011 16:27:41.357872  6782 layer_factory.hpp:77] Creating layer drop1
I1011 16:27:41.357877  6782 net.cpp:100] Creating Layer drop1
I1011 16:27:41.357878  6782 net.cpp:434] drop1 <- bn1
I1011 16:27:41.357882  6782 net.cpp:408] drop1 -> drop1
I1011 16:27:41.357934  6782 net.cpp:150] Setting up drop1
I1011 16:27:41.357939  6782 net.cpp:157] Top shape: 100 96 28 28 (7526400)
I1011 16:27:41.357941  6782 net.cpp:165] Memory required for data: 190772400
I1011 16:27:41.357944  6782 layer_factory.hpp:77] Creating layer conv3
I1011 16:27:41.357952  6782 net.cpp:100] Creating Layer conv3
I1011 16:27:41.357955  6782 net.cpp:434] conv3 <- drop1
I1011 16:27:41.357960  6782 net.cpp:408] conv3 -> conv3
I1011 16:27:41.359259  6782 net.cpp:150] Setting up conv3
I1011 16:27:41.359272  6782 net.cpp:157] Top shape: 100 96 13 13 (1622400)
I1011 16:27:41.359274  6782 net.cpp:165] Memory required for data: 197262000
I1011 16:27:41.359283  6782 layer_factory.hpp:77] Creating layer elu3
I1011 16:27:41.359289  6782 net.cpp:100] Creating Layer elu3
I1011 16:27:41.359292  6782 net.cpp:434] elu3 <- conv3
I1011 16:27:41.359310  6782 net.cpp:395] elu3 -> conv3 (in-place)
I1011 16:27:41.359315  6782 net.cpp:150] Setting up elu3
I1011 16:27:41.359318  6782 net.cpp:157] Top shape: 100 96 13 13 (1622400)
I1011 16:27:41.359320  6782 net.cpp:165] Memory required for data: 203751600
I1011 16:27:41.359323  6782 layer_factory.hpp:77] Creating layer conv4
I1011 16:27:41.359330  6782 net.cpp:100] Creating Layer conv4
I1011 16:27:41.359333  6782 net.cpp:434] conv4 <- conv3
I1011 16:27:41.359335  6782 net.cpp:408] conv4 -> conv4
I1011 16:27:41.361711  6782 net.cpp:150] Setting up conv4
I1011 16:27:41.361726  6782 net.cpp:157] Top shape: 100 192 11 11 (2323200)
I1011 16:27:41.361727  6782 net.cpp:165] Memory required for data: 213044400
I1011 16:27:41.361733  6782 layer_factory.hpp:77] Creating layer elu4
I1011 16:27:41.361737  6782 net.cpp:100] Creating Layer elu4
I1011 16:27:41.361740  6782 net.cpp:434] elu4 <- conv4
I1011 16:27:41.361744  6782 net.cpp:395] elu4 -> conv4 (in-place)
I1011 16:27:41.361749  6782 net.cpp:150] Setting up elu4
I1011 16:27:41.361752  6782 net.cpp:157] Top shape: 100 192 11 11 (2323200)
I1011 16:27:41.361754  6782 net.cpp:165] Memory required for data: 222337200
I1011 16:27:41.361757  6782 layer_factory.hpp:77] Creating layer conv5
I1011 16:27:41.361776  6782 net.cpp:100] Creating Layer conv5
I1011 16:27:41.361778  6782 net.cpp:434] conv5 <- conv4
I1011 16:27:41.361781  6782 net.cpp:408] conv5 -> conv5
I1011 16:27:41.364569  6782 net.cpp:150] Setting up conv5
I1011 16:27:41.364598  6782 net.cpp:157] Top shape: 100 192 9 9 (1555200)
I1011 16:27:41.364600  6782 net.cpp:165] Memory required for data: 228558000
I1011 16:27:41.364619  6782 layer_factory.hpp:77] Creating layer bn2
I1011 16:27:41.364625  6782 net.cpp:100] Creating Layer bn2
I1011 16:27:41.364645  6782 net.cpp:434] bn2 <- conv5
I1011 16:27:41.364648  6782 net.cpp:408] bn2 -> bn2
I1011 16:27:41.364847  6782 net.cpp:150] Setting up bn2
I1011 16:27:41.364852  6782 net.cpp:157] Top shape: 100 192 9 9 (1555200)
I1011 16:27:41.364867  6782 net.cpp:165] Memory required for data: 234778800
I1011 16:27:41.364872  6782 layer_factory.hpp:77] Creating layer elu5
I1011 16:27:41.364876  6782 net.cpp:100] Creating Layer elu5
I1011 16:27:41.364878  6782 net.cpp:434] elu5 <- bn2
I1011 16:27:41.364882  6782 net.cpp:395] elu5 -> bn2 (in-place)
I1011 16:27:41.364902  6782 net.cpp:150] Setting up elu5
I1011 16:27:41.364905  6782 net.cpp:157] Top shape: 100 192 9 9 (1555200)
I1011 16:27:41.364933  6782 net.cpp:165] Memory required for data: 240999600
I1011 16:27:41.364934  6782 layer_factory.hpp:77] Creating layer drop4
I1011 16:27:41.364951  6782 net.cpp:100] Creating Layer drop4
I1011 16:27:41.364953  6782 net.cpp:434] drop4 <- bn2
I1011 16:27:41.364958  6782 net.cpp:408] drop4 -> drop4
I1011 16:27:41.365016  6782 net.cpp:150] Setting up drop4
I1011 16:27:41.365021  6782 net.cpp:157] Top shape: 100 192 9 9 (1555200)
I1011 16:27:41.365023  6782 net.cpp:165] Memory required for data: 247220400
I1011 16:27:41.365025  6782 layer_factory.hpp:77] Creating layer conv6
I1011 16:27:41.365034  6782 net.cpp:100] Creating Layer conv6
I1011 16:27:41.365036  6782 net.cpp:434] conv6 <- drop4
I1011 16:27:41.365041  6782 net.cpp:408] conv6 -> conv6
I1011 16:27:41.368306  6782 net.cpp:150] Setting up conv6
I1011 16:27:41.368325  6782 net.cpp:157] Top shape: 100 192 4 4 (307200)
I1011 16:27:41.368329  6782 net.cpp:165] Memory required for data: 248449200
I1011 16:27:41.368355  6782 layer_factory.hpp:77] Creating layer elu6
I1011 16:27:41.368373  6782 net.cpp:100] Creating Layer elu6
I1011 16:27:41.368376  6782 net.cpp:434] elu6 <- conv6
I1011 16:27:41.368381  6782 net.cpp:395] elu6 -> conv6 (in-place)
I1011 16:27:41.368386  6782 net.cpp:150] Setting up elu6
I1011 16:27:41.368389  6782 net.cpp:157] Top shape: 100 192 4 4 (307200)
I1011 16:27:41.368391  6782 net.cpp:165] Memory required for data: 249678000
I1011 16:27:41.368393  6782 layer_factory.hpp:77] Creating layer conv7
I1011 16:27:41.368401  6782 net.cpp:100] Creating Layer conv7
I1011 16:27:41.368404  6782 net.cpp:434] conv7 <- conv6
I1011 16:27:41.368422  6782 net.cpp:408] conv7 -> conv7
I1011 16:27:41.371228  6782 net.cpp:150] Setting up conv7
I1011 16:27:41.371243  6782 net.cpp:157] Top shape: 100 192 2 2 (76800)
I1011 16:27:41.371245  6782 net.cpp:165] Memory required for data: 249985200
I1011 16:27:41.371250  6782 layer_factory.hpp:77] Creating layer elu7
I1011 16:27:41.371255  6782 net.cpp:100] Creating Layer elu7
I1011 16:27:41.371258  6782 net.cpp:434] elu7 <- conv7
I1011 16:27:41.371261  6782 net.cpp:395] elu7 -> conv7 (in-place)
I1011 16:27:41.371268  6782 net.cpp:150] Setting up elu7
I1011 16:27:41.371270  6782 net.cpp:157] Top shape: 100 192 2 2 (76800)
I1011 16:27:41.371273  6782 net.cpp:165] Memory required for data: 250292400
I1011 16:27:41.371273  6782 layer_factory.hpp:77] Creating layer conv8
I1011 16:27:41.371279  6782 net.cpp:100] Creating Layer conv8
I1011 16:27:41.371281  6782 net.cpp:434] conv8 <- conv7
I1011 16:27:41.371284  6782 net.cpp:408] conv8 -> conv8
I1011 16:27:41.372323  6782 net.cpp:150] Setting up conv8
I1011 16:27:41.372334  6782 net.cpp:157] Top shape: 100 192 2 2 (76800)
I1011 16:27:41.372335  6782 net.cpp:165] Memory required for data: 250599600
I1011 16:27:41.372339  6782 layer_factory.hpp:77] Creating layer elu8
I1011 16:27:41.372344  6782 net.cpp:100] Creating Layer elu8
I1011 16:27:41.372346  6782 net.cpp:434] elu8 <- conv8
I1011 16:27:41.372350  6782 net.cpp:395] elu8 -> conv8 (in-place)
I1011 16:27:41.372354  6782 net.cpp:150] Setting up elu8
I1011 16:27:41.372357  6782 net.cpp:157] Top shape: 100 192 2 2 (76800)
I1011 16:27:41.372359  6782 net.cpp:165] Memory required for data: 250906800
I1011 16:27:41.372361  6782 layer_factory.hpp:77] Creating layer conv9
I1011 16:27:41.372367  6782 net.cpp:100] Creating Layer conv9
I1011 16:27:41.372370  6782 net.cpp:434] conv9 <- conv8
I1011 16:27:41.372372  6782 net.cpp:408] conv9 -> conv9
I1011 16:27:41.373225  6782 net.cpp:150] Setting up conv9
I1011 16:27:41.373235  6782 net.cpp:157] Top shape: 100 10 2 2 (4000)
I1011 16:27:41.373237  6782 net.cpp:165] Memory required for data: 250922800
I1011 16:27:41.373242  6782 layer_factory.hpp:77] Creating layer elu9
I1011 16:27:41.373245  6782 net.cpp:100] Creating Layer elu9
I1011 16:27:41.373247  6782 net.cpp:434] elu9 <- conv9
I1011 16:27:41.373251  6782 net.cpp:395] elu9 -> conv9 (in-place)
I1011 16:27:41.373256  6782 net.cpp:150] Setting up elu9
I1011 16:27:41.373260  6782 net.cpp:157] Top shape: 100 10 2 2 (4000)
I1011 16:27:41.373271  6782 net.cpp:165] Memory required for data: 250938800
I1011 16:27:41.373273  6782 layer_factory.hpp:77] Creating layer pool
I1011 16:27:41.373278  6782 net.cpp:100] Creating Layer pool
I1011 16:27:41.373303  6782 net.cpp:434] pool <- conv9
I1011 16:27:41.373307  6782 net.cpp:408] pool -> pool
I1011 16:27:41.373616  6782 net.cpp:150] Setting up pool
I1011 16:27:41.373625  6782 net.cpp:157] Top shape: 100 10 1 1 (1000)
I1011 16:27:41.373627  6782 net.cpp:165] Memory required for data: 250942800
I1011 16:27:41.373630  6782 layer_factory.hpp:77] Creating layer flatten
I1011 16:27:41.373633  6782 net.cpp:100] Creating Layer flatten
I1011 16:27:41.373636  6782 net.cpp:434] flatten <- pool
I1011 16:27:41.373641  6782 net.cpp:408] flatten -> flatten
I1011 16:27:41.373677  6782 net.cpp:150] Setting up flatten
I1011 16:27:41.373682  6782 net.cpp:157] Top shape: 100 10 (1000)
I1011 16:27:41.373683  6782 net.cpp:165] Memory required for data: 250946800
I1011 16:27:41.373685  6782 layer_factory.hpp:77] Creating layer score
I1011 16:27:41.373690  6782 net.cpp:100] Creating Layer score
I1011 16:27:41.373694  6782 net.cpp:434] score <- flatten
I1011 16:27:41.373697  6782 net.cpp:408] score -> score
I1011 16:27:41.373807  6782 net.cpp:150] Setting up score
I1011 16:27:41.373812  6782 net.cpp:157] Top shape: 100 10 (1000)
I1011 16:27:41.373814  6782 net.cpp:165] Memory required for data: 250950800
I1011 16:27:41.373818  6782 layer_factory.hpp:77] Creating layer score_score_0_split
I1011 16:27:41.373822  6782 net.cpp:100] Creating Layer score_score_0_split
I1011 16:27:41.373824  6782 net.cpp:434] score_score_0_split <- score
I1011 16:27:41.373827  6782 net.cpp:408] score_score_0_split -> score_score_0_split_0
I1011 16:27:41.373831  6782 net.cpp:408] score_score_0_split -> score_score_0_split_1
I1011 16:27:41.373877  6782 net.cpp:150] Setting up score_score_0_split
I1011 16:27:41.373880  6782 net.cpp:157] Top shape: 100 10 (1000)
I1011 16:27:41.373883  6782 net.cpp:157] Top shape: 100 10 (1000)
I1011 16:27:41.373898  6782 net.cpp:165] Memory required for data: 250958800
I1011 16:27:41.373899  6782 layer_factory.hpp:77] Creating layer accuracy
I1011 16:27:41.373903  6782 net.cpp:100] Creating Layer accuracy
I1011 16:27:41.373920  6782 net.cpp:434] accuracy <- score_score_0_split_0
I1011 16:27:41.373924  6782 net.cpp:434] accuracy <- label_data_1_split_0
I1011 16:27:41.373927  6782 net.cpp:408] accuracy -> accuracy
…
