…
type: "AdaGrad"
I1011 17:51:51.040850  7492 solver.cpp:81] Creating training net from train_net file: /home/adam/Honours/Honours-Project/cifar-10_allcnn/leakyrelu/allcnn_leakyrelu_train.prototxt
I1011 17:51:51.041256  7492 net.cpp:58] Initializing net from parameters: 
state {
  phase: TRAIN
  level: 0
  stage: ""
}
layer {
  name: "data"
  type: "Data"
  top: "data"
  top: "label"
  transform_param {
    mean_file: "mean.binaryproto"
  }
  data_param {
    source: "../../../data/cifar-10/cifar10_train_lmdb"
    batch_size: 64
    backend: LMDB
  }
}
layer {
  name: "conv1"
  type: "Convolution"
  bottom: "data"
  top: "conv1"
  convolution_param {
    num_output: 96
    kernel_size: 3
    weight_filler {
      type: "xavier"
    }
  }
}
layer {
  name: "relu1"
  type: "ReLU"
  bottom: "conv1"
  top: "conv1"
  relu_param {
    negative_slope: 0.01
  }
}
layer {
  name: "conv2"
  type: "Convolution"
  bottom: "conv1"
  top: "conv2"
  convolution_param {
    num_output: 96
    kernel_size: 3
    weight_filler {
      type: "xavier"
    }
  }
}
layer {
  name: "bn1"
  type: "BatchNorm"
  bottom: "conv2"
  top: "bn1"
}
layer {
  name: "relu2"
  type: "ReLU"
  bottom: "bn1"
  top: "bn1"
  relu_param {
    negative_slope: 0.01
  }
}
layer {
  name: "drop1"
  type: "Dropout"
  bottom: "bn1"
  top: "drop1"
  dropout_param {
    dropout_ratio: 0.5
  }
}
layer {
  name: "conv3"
  type: "Convolution"
  bottom: "drop1"
  top: "conv3"
  convolution_param {
    num_output: 96
    kernel_size: 3
    stride: 2
    weight_filler {
      type: "xavier"
    }
  }
}
layer {
  name: "relu3"
  type: "ReLU"
  bottom: "conv3"
  top: "conv3"
  relu_param {
    negative_slope: 0.01
  }
}
layer {
  name: "conv4"
  type: "Convolution"
  bottom: "conv3"
  top: "conv4"
  convolution_param {
    num_output: 192
    kernel_size: 3
    weight_filler {
      type: "xavier"
    }
  }
}
layer {
  name: "relu4"
  type: "ReLU"
  bottom: "conv4"
  top: "conv4"
  relu_param {
    negative_slope: 0.01
  }
}
layer {
  name: "conv5"
  type: "Convolution"
  bottom: "conv4"
  top: "conv5"
  convolution_param {
    num_output: 192
    kernel_size: 3
    weight_filler {
      type: "xavier"
    }
  }
}
layer {
  name: "bn2"
  type: "BatchNorm"
  bottom: "conv5"
  top: "bn2"
}
layer {
  name: "relu5"
  type: "ReLU"
  bottom: "bn2"
  top: "bn2"
  relu_param {
    negative_slope: 0.01
  }
}
layer {
  name: "drop4"
  type: "Dropout"
  bottom: "bn2"
  top: "drop4"
  dropout_param {
    dropout_ratio: 0.5
  }
}
layer {
  name: "conv6"
  type: "Convolution"
  bottom: "drop4"
  top: "conv6"
  convolution_param {
    num_output: 192
    kernel_size: 3
    stride: 2
    weight_filler {
      type: "xavier"
    }
  }
}
layer {
  name: "relu6"
  type: "ReLU"
  bottom: "conv6"
  top: "conv6"
  relu_param {
    negative_slope: 0.01
  }
}
layer {
  name: "conv7"
  type: "Convolution"
  bottom: "conv6"
  top: "conv7"
  convolution_param {
    num_output: 192
    kernel_size: 3
    weight_filler {
      type: "xavier"
    }
  }
}
layer {
  name: "relu7"
  type: "ReLU"
  bottom: "conv7"
  top: "conv7"
  relu_param {
    negative_slope: 0.01
  }
}
layer {
  name: "conv8"
  type: "Convolution"
  bottom: "conv7"
  top: "conv8"
  convolution_param {
    num_output: 192
    kernel_size: 1
    weight_filler {
      type: "xavier"
    }
  }
}
layer {
  name: "relu8"
  type: "ReLU"
  bottom: "conv8"
  top: "conv8"
  relu_param {
    negative_slope: 0.01
  }
}
layer {
  name: "conv9"
  type: "Convolution"
  bottom: "conv8"
  top: "conv9"
  convolution_param {
    num_output: 10
    kernel_size: 1
    weight_filler {
      type: "xavier"
    }
  }
}
layer {
  name: "relu9"
  type: "ReLU"
  bottom: "conv9"
  top: "conv9"
  relu_param {
    negative_slope: 0.01
  }
}
layer {
  name: "pool"
  type: "Pooling"
  bottom: "conv9"
  top: "pool"
  pooling_param {
    pool: AVE
    global_pooling: true
  }
}
layer {
  name: "flatten"
  type: "Flatten"
  bottom: "pool"
  top: "flatten"
}
layer {
  name: "score"
  type: "InnerProduct"
  bottom: "flatten"
  top: "score"
  inner_product_param {
    num_output: 10
    weight_filler {
      type: "gaussian"
    }
  }
}
layer {
  name: "accuracy"
  type: "Accuracy"
  bottom: "score"
  bottom: "label"
  top: "accuracy"
}
layer {
  name: "loss"
  type: "SoftmaxWithLoss"
  bottom: "score"
  bottom: "label"
  top: "loss"
}
I1011 17:51:51.041385  7492 layer_factory.hpp:77] Creating layer data
I1011 17:51:51.041923  7492 net.cpp:100] Creating Layer data
I1011 17:51:51.041931  7492 net.cpp:408] data -> data
I1011 17:51:51.041971  7492 net.cpp:408] data -> label
I1011 17:51:51.041981  7492 data_transformer.cpp:25] Loading mean file from: mean.binaryproto
I1011 17:51:51.043982  7498 db_lmdb.cpp:35] Opened lmdb ../../../data/cifar-10/cifar10_train_lmdb
I1011 17:51:51.049157  7492 data_layer.cpp:41] output data size: 64,3,32,32
I1011 17:51:51.050678  7492 net.cpp:150] Setting up data
I1011 17:51:51.050709  7492 net.cpp:157] Top shape: 64 3 32 32 (196608)
I1011 17:51:51.050712  7492 net.cpp:157] Top shape: 64 (64)
I1011 17:51:51.050714  7492 net.cpp:165] Memory required for data: 786688
I1011 17:51:51.050722  7492 layer_factory.hpp:77] Creating layer label_data_1_split
I1011 17:51:51.050747  7492 net.cpp:100] Creating Layer label_data_1_split
I1011 17:51:51.050752  7492 net.cpp:434] label_data_1_split <- label
I1011 17:51:51.050776  7492 net.cpp:408] label_data_1_split -> label_data_1_split_0
I1011 17:51:51.050796  7492 net.cpp:408] label_data_1_split -> label_data_1_split_1
I1011 17:51:51.050873  7492 net.cpp:150] Setting up label_data_1_split
I1011 17:51:51.050879  7492 net.cpp:157] Top shape: 64 (64)
I1011 17:51:51.050882  7492 net.cpp:157] Top shape: 64 (64)
I1011 17:51:51.050884  7492 net.cpp:165] Memory required for data: 787200
I1011 17:51:51.050899  7492 layer_factory.hpp:77] Creating layer conv1
I1011 17:51:51.050925  7492 net.cpp:100] Creating Layer conv1
I1011 17:51:51.050928  7492 net.cpp:434] conv1 <- data
I1011 17:51:51.050933  7492 net.cpp:408] conv1 -> conv1
I1011 17:51:51.188416  7492 net.cpp:150] Setting up conv1
I1011 17:51:51.188441  7492 net.cpp:157] Top shape: 64 96 30 30 (5529600)
I1011 17:51:51.188443  7492 net.cpp:165] Memory required for data: 22905600
I1011 17:51:51.188460  7492 layer_factory.hpp:77] Creating layer relu1
I1011 17:51:51.188468  7492 net.cpp:100] Creating Layer relu1
I1011 17:51:51.188472  7492 net.cpp:434] relu1 <- conv1
I1011 17:51:51.188475  7492 net.cpp:395] relu1 -> conv1 (in-place)
I1011 17:51:51.188685  7492 net.cpp:150] Setting up relu1
I1011 17:51:51.188691  7492 net.cpp:157] Top shape: 64 96 30 30 (5529600)
I1011 17:51:51.188694  7492 net.cpp:165] Memory required for data: 45024000
I1011 17:51:51.188695  7492 layer_factory.hpp:77] Creating layer conv2
I1011 17:51:51.188705  7492 net.cpp:100] Creating Layer conv2
I1011 17:51:51.188707  7492 net.cpp:434] conv2 <- conv1
I1011 17:51:51.188711  7492 net.cpp:408] conv2 -> conv2
I1011 17:51:51.190130  7492 net.cpp:150] Setting up conv2
I1011 17:51:51.190140  7492 net.cpp:157] Top shape: 64 96 28 28 (4816896)
I1011 17:51:51.190142  7492 net.cpp:165] Memory required for data: 64291584
I1011 17:51:51.190148  7492 layer_factory.hpp:77] Creating layer bn1
I1011 17:51:51.190155  7492 net.cpp:100] Creating Layer bn1
I1011 17:51:51.190156  7492 net.cpp:434] bn1 <- conv2
I1011 17:51:51.190160  7492 net.cpp:408] bn1 -> bn1
I1011 17:51:51.190348  7492 net.cpp:150] Setting up bn1
I1011 17:51:51.190353  7492 net.cpp:157] Top shape: 64 96 28 28 (4816896)
I1011 17:51:51.190354  7492 net.cpp:165] Memory required for data: 83559168
I1011 17:51:51.190371  7492 layer_factory.hpp:77] Creating layer relu2
I1011 17:51:51.190376  7492 net.cpp:100] Creating Layer relu2
I1011 17:51:51.190377  7492 net.cpp:434] relu2 <- bn1
I1011 17:51:51.190382  7492 net.cpp:395] relu2 -> bn1 (in-place)
I1011 17:51:51.190559  7492 net.cpp:150] Setting up relu2
I1011 17:51:51.190565  7492 net.cpp:157] Top shape: 64 96 28 28 (4816896)
I1011 17:51:51.190567  7492 net.cpp:165] Memory required for data: 102826752
I1011 17:51:51.190569  7492 layer_factory.hpp:77] Creating layer drop1
I1011 17:51:51.190573  7492 net.cpp:100] Creating Layer drop1
I1011 17:51:51.190575  7492 net.cpp:434] drop1 <- bn1
I1011 17:51:51.190578  7492 net.cpp:408] drop1 -> drop1
I1011 17:51:51.190623  7492 net.cpp:150] Setting up drop1
I1011 17:51:51.190640  7492 net.cpp:157] Top shape: 64 96 28 28 (4816896)
I1011 17:51:51.190642  7492 net.cpp:165] Memory required for data: 122094336
I1011 17:51:51.190644  7492 layer_factory.hpp:77] Creating layer conv3
I1011 17:51:51.190652  7492 net.cpp:100] Creating Layer conv3
I1011 17:51:51.190654  7492 net.cpp:434] conv3 <- drop1
I1011 17:51:51.190659  7492 net.cpp:408] conv3 -> conv3
I1011 17:51:51.191856  7492 net.cpp:150] Setting up conv3
I1011 17:51:51.191866  7492 net.cpp:157] Top shape: 64 96 13 13 (1038336)
I1011 17:51:51.191869  7492 net.cpp:165] Memory required for data: 126247680
I1011 17:51:51.191874  7492 layer_factory.hpp:77] Creating layer relu3
I1011 17:51:51.191879  7492 net.cpp:100] Creating Layer relu3
I1011 17:51:51.191880  7492 net.cpp:434] relu3 <- conv3
I1011 17:51:51.191884  7492 net.cpp:395] relu3 -> conv3 (in-place)
I1011 17:51:51.192139  7492 net.cpp:150] Setting up relu3
I1011 17:51:51.192147  7492 net.cpp:157] Top shape: 64 96 13 13 (1038336)
I1011 17:51:51.192149  7492 net.cpp:165] Memory required for data: 130401024
I1011 17:51:51.192152  7492 layer_factory.hpp:77] Creating layer conv4
I1011 17:51:51.192157  7492 net.cpp:100] Creating Layer conv4
I1011 17:51:51.192159  7492 net.cpp:434] conv4 <- conv3
I1011 17:51:51.192163  7492 net.cpp:408] conv4 -> conv4
I1011 17:51:51.194015  7492 net.cpp:150] Setting up conv4
I1011 17:51:51.194025  7492 net.cpp:157] Top shape: 64 192 11 11 (1486848)
I1011 17:51:51.194027  7492 net.cpp:165] Memory required for data: 136348416
I1011 17:51:51.194032  7492 layer_factory.hpp:77] Creating layer relu4
I1011 17:51:51.194037  7492 net.cpp:100] Creating Layer relu4
I1011 17:51:51.194039  7492 net.cpp:434] relu4 <- conv4
I1011 17:51:51.194042  7492 net.cpp:395] relu4 -> conv4 (in-place)
I1011 17:51:51.194218  7492 net.cpp:150] Setting up relu4
I1011 17:51:51.194224  7492 net.cpp:157] Top shape: 64 192 11 11 (1486848)
I1011 17:51:51.194226  7492 net.cpp:165] Memory required for data: 142295808
I1011 17:51:51.194228  7492 layer_factory.hpp:77] Creating layer conv5
I1011 17:51:51.194234  7492 net.cpp:100] Creating Layer conv5
I1011 17:51:51.194236  7492 net.cpp:434] conv5 <- conv4
I1011 17:51:51.194241  7492 net.cpp:408] conv5 -> conv5
I1011 17:51:51.196765  7492 net.cpp:150] Setting up conv5
I1011 17:51:51.196776  7492 net.cpp:157] Top shape: 64 192 9 9 (995328)
I1011 17:51:51.196779  7492 net.cpp:165] Memory required for data: 146277120
I1011 17:51:51.196784  7492 layer_factory.hpp:77] Creating layer bn2
I1011 17:51:51.196787  7492 net.cpp:100] Creating Layer bn2
I1011 17:51:51.196789  7492 net.cpp:434] bn2 <- conv5
I1011 17:51:51.196794  7492 net.cpp:408] bn2 -> bn2
I1011 17:51:51.196991  7492 net.cpp:150] Setting up bn2
I1011 17:51:51.196997  7492 net.cpp:157] Top shape: 64 192 9 9 (995328)
I1011 17:51:51.197000  7492 net.cpp:165] Memory required for data: 150258432
I1011 17:51:51.197003  7492 layer_factory.hpp:77] Creating layer relu5
I1011 17:51:51.197007  7492 net.cpp:100] Creating Layer relu5
I1011 17:51:51.197010  7492 net.cpp:434] relu5 <- bn2
I1011 17:51:51.197011  7492 net.cpp:395] relu5 -> bn2 (in-place)
I1011 17:51:51.197181  7492 net.cpp:150] Setting up relu5
I1011 17:51:51.197187  7492 net.cpp:157] Top shape: 64 192 9 9 (995328)
I1011 17:51:51.197190  7492 net.cpp:165] Memory required for data: 154239744
I1011 17:51:51.197201  7492 layer_factory.hpp:77] Creating layer drop4
I1011 17:51:51.197204  7492 net.cpp:100] Creating Layer drop4
I1011 17:51:51.197206  7492 net.cpp:434] drop4 <- bn2
I1011 17:51:51.197211  7492 net.cpp:408] drop4 -> drop4
I1011 17:51:51.197254  7492 net.cpp:150] Setting up drop4
I1011 17:51:51.197273  7492 net.cpp:157] Top shape: 64 192 9 9 (995328)
I1011 17:51:51.197275  7492 net.cpp:165] Memory required for data: 158221056
I1011 17:51:51.197278  7492 layer_factory.hpp:77] Creating layer conv6
I1011 17:51:51.197298  7492 net.cpp:100] Creating Layer conv6
I1011 17:51:51.197299  7492 net.cpp:434] conv6 <- drop4
I1011 17:51:51.197317  7492 net.cpp:408] conv6 -> conv6
I1011 17:51:51.199885  7492 net.cpp:150] Setting up conv6
I1011 17:51:51.199913  7492 net.cpp:157] Top shape: 64 192 4 4 (196608)
I1011 17:51:51.199914  7492 net.cpp:165] Memory required for data: 159007488
I1011 17:51:51.199923  7492 layer_factory.hpp:77] Creating layer relu6
I1011 17:51:51.199928  7492 net.cpp:100] Creating Layer relu6
I1011 17:51:51.199931  7492 net.cpp:434] relu6 <- conv6
I1011 17:51:51.199949  7492 net.cpp:395] relu6 -> conv6 (in-place)
I1011 17:51:51.200206  7492 net.cpp:150] Setting up relu6
I1011 17:51:51.200213  7492 net.cpp:157] Top shape: 64 192 4 4 (196608)
I1011 17:51:51.200230  7492 net.cpp:165] Memory required for data: 159793920
I1011 17:51:51.200233  7492 layer_factory.hpp:77] Creating layer conv7
I1011 17:51:51.200253  7492 net.cpp:100] Creating Layer conv7
I1011 17:51:51.200255  7492 net.cpp:434] conv7 <- conv6
I1011 17:51:51.200274  7492 net.cpp:408] conv7 -> conv7
I1011 17:51:51.203693  7492 net.cpp:150] Setting up conv7
I1011 17:51:51.203712  7492 net.cpp:157] Top shape: 64 192 2 2 (49152)
I1011 17:51:51.203714  7492 net.cpp:165] Memory required for data: 159990528
I1011 17:51:51.203721  7492 layer_factory.hpp:77] Creating layer relu7
I1011 17:51:51.203727  7492 net.cpp:100] Creating Layer relu7
I1011 17:51:51.203729  7492 net.cpp:434] relu7 <- conv7
I1011 17:51:51.203733  7492 net.cpp:395] relu7 -> conv7 (in-place)
I1011 17:51:51.204012  7492 net.cpp:150] Setting up relu7
I1011 17:51:51.204021  7492 net.cpp:157] Top shape: 64 192 2 2 (49152)
I1011 17:51:51.204023  7492 net.cpp:165] Memory required for data: 160187136
I1011 17:51:51.204025  7492 layer_factory.hpp:77] Creating layer conv8
I1011 17:51:51.204031  7492 net.cpp:100] Creating Layer conv8
I1011 17:51:51.204033  7492 net.cpp:434] conv8 <- conv7
I1011 17:51:51.204038  7492 net.cpp:408] conv8 -> conv8
I1011 17:51:51.205286  7492 net.cpp:150] Setting up conv8
I1011 17:51:51.205296  7492 net.cpp:157] Top shape: 64 192 2 2 (49152)
I1011 17:51:51.205298  7492 net.cpp:165] Memory required for data: 160383744
I1011 17:51:51.205302  7492 layer_factory.hpp:77] Creating layer relu8
I1011 17:51:51.205307  7492 net.cpp:100] Creating Layer relu8
I1011 17:51:51.205308  7492 net.cpp:434] relu8 <- conv8
I1011 17:51:51.205312  7492 net.cpp:395] relu8 -> conv8 (in-place)
I1011 17:51:51.205489  7492 net.cpp:150] Setting up relu8
I1011 17:51:51.205495  7492 net.cpp:157] Top shape: 64 192 2 2 (49152)
I1011 17:51:51.205497  7492 net.cpp:165] Memory required for data: 160580352
I1011 17:51:51.205499  7492 layer_factory.hpp:77] Creating layer conv9
I1011 17:51:51.205505  7492 net.cpp:100] Creating Layer conv9
I1011 17:51:51.205507  7492 net.cpp:434] conv9 <- conv8
I1011 17:51:51.205510  7492 net.cpp:408] conv9 -> conv9
I1011 17:51:51.206337  7492 net.cpp:150] Setting up conv9
I1011 17:51:51.206346  7492 net.cpp:157] Top shape: 64 10 2 2 (2560)
I1011 17:51:51.206349  7492 net.cpp:165] Memory required for data: 160590592
I1011 17:51:51.206353  7492 layer_factory.hpp:77] Creating layer relu9
I1011 17:51:51.206357  7492 net.cpp:100] Creating Layer relu9
I1011 17:51:51.206359  7492 net.cpp:434] relu9 <- conv9
I1011 17:51:51.206363  7492 net.cpp:395] relu9 -> conv9 (in-place)
I1011 17:51:51.206616  7492 net.cpp:150] Setting up relu9
I1011 17:51:51.206624  7492 net.cpp:157] Top shape: 64 10 2 2 (2560)
I1011 17:51:51.206626  7492 net.cpp:165] Memory required for data: 160600832
I1011 17:51:51.206639  7492 layer_factory.hpp:77] Creating layer pool
I1011 17:51:51.206643  7492 net.cpp:100] Creating Layer pool
I1011 17:51:51.206645  7492 net.cpp:434] pool <- conv9
I1011 17:51:51.206650  7492 net.cpp:408] pool -> pool
I1011 17:51:51.206845  7492 net.cpp:150] Setting up pool
I1011 17:51:51.206852  7492 net.cpp:157] Top shape: 64 10 1 1 (640)
I1011 17:51:51.206854  7492 net.cpp:165] Memory required for data: 160603392
I1011 17:51:51.206856  7492 layer_factory.hpp:77] Creating layer flatten
I1011 17:51:51.206859  7492 net.cpp:100] Creating Layer flatten
I1011 17:51:51.206861  7492 net.cpp:434] flatten <- pool
I1011 17:51:51.206866  7492 net.cpp:408] flatten -> flatten
I1011 17:51:51.206883  7492 net.cpp:150] Setting up flatten
I1011 17:51:51.206887  7492 net.cpp:157] Top shape: 64 10 (640)
I1011 17:51:51.206903  7492 net.cpp:165] Memory required for data: 160605952
I1011 17:51:51.206904  7492 layer_factory.hpp:77] Creating layer score
I1011 17:51:51.206910  7492 net.cpp:100] Creating Layer score
I1011 17:51:51.206912  7492 net.cpp:434] score <- flatten
I1011 17:51:51.206917  7492 net.cpp:408] score -> score
I1011 17:51:51.207057  7492 net.cpp:150] Setting up score
I1011 17:51:51.207062  7492 net.cpp:157] Top shape: 64 10 (640)
I1011 17:51:51.207064  7492 net.cpp:165] Memory required for data: 160608512
I1011 17:51:51.207068  7492 layer_factory.hpp:77] Creating layer score_score_0_split
I1011 17:51:51.207072  7492 net.cpp:100] Creating Layer score_score_0_split
I1011 17:51:51.207073  7492 net.cpp:434] score_score_0_split <- score
I1011 17:51:51.207077  7492 net.cpp:408] score_score_0_split -> score_score_0_split_0
I1011 17:51:51.207082  7492 net.cpp:408] score_score_0_split -> score_score_0_split_1
I1011 17:51:51.207123  7492 net.cpp:150] Setting up score_score_0_split
I1011 17:51:51.207126  7492 net.cpp:157] Top shape: 64 10 (640)
I1011 17:51:51.207141  7492 net.cpp:157] Top shape: 64 10 (640)
I1011 17:51:51.207144  7492 net.cpp:165] Memory required for data: 160613632
I1011 17:51:51.207145  7492 layer_factory.hpp:77] Creating layer accuracy
I1011 17:51:51.207167  7492 net.cpp:100] Creating Layer accuracy
I1011 17:51:51.207170  7492 net.cpp:434] accuracy <- score_score_0_split_0
I1011 17:51:51.207172  7492 net.cpp:434] accuracy <- label_data_1_split_0
I1011 17:51:51.207175  7492 net.cpp:408] accuracy -> accuracy
…
I1011 17:51:51.207751  7492 net.cpp:283] Network initialization done.
I1011 17:51:51.207983  7492 solver.cpp:181] Creating test net (#0) specified by test_net file: /home/adam/Honours/Honours-Project/cifar-10_allcnn/leakyrelu/allcnn_leakyrelu_test.prototxt
I1011 17:51:51.208163  7492 net.cpp:58] Initializing net from parameters: 
state {
  phase: TEST
}
layer {
  name: "data"
  type: "Data"
  top: "data"
  top: "label"
  transform_param {
    mean_file: "mean.binaryproto"
  }
  data_param {
    source: "../../../data/cifar-10/cifar10_test_lmdb"
    batch_size: 100
    backend: LMDB
  }
}
layer {
  name: "conv1"
  type: "Convolution"
  bottom: "data"
  top: "conv1"
  convolution_param {
    num_output: 96
    kernel_size: 3
    weight_filler {
      type: "xavier"
    }
  }
}
layer {
  name: "relu1"
  type: "ReLU"
  bottom: "conv1"
  top: "conv1"
  relu_param {
    negative_slope: 0.01
  }
}
layer {
  name: "conv2"
  type: "Convolution"
  bottom: "conv1"
  top: "conv2"
  convolution_param {
    num_output: 96
    kernel_size: 3
    weight_filler {
      type: "xavier"
    }
  }
}
layer {
  name: "bn1"
  type: "BatchNorm"
  bottom: "conv2"
  top: "bn1"
}
layer {
  name: "relu2"
  type: "ReLU"
  bottom: "bn1"
  top: "bn1"
  relu_param {
    negative_slope: 0.01
  }
}
layer {
  name: "drop1"
  type: "Dropout"
  bottom: "bn1"
  top: "drop1"
  dropout_param {
    dropout_ratio: 0.5
  }
}
layer {
  name: "conv3"
  type: "Convolution"
  bottom: "drop1"
  top: "conv3"
  convolution_param {
    num_output: 96
    kernel_size: 3
    stride: 2
    weight_filler {
      type: "xavier"
    }
  }
}
layer {
  name: "relu3"
  type: "ReLU"
  bottom: "conv3"
  top: "conv3"
  relu_param {
    negative_slope: 0.01
  }
}
layer {
  name: "conv4"
  type: "Convolution"
  bottom: "conv3"
  top: "conv4"
  convolution_param {
    num_output: 192
    kernel_size: 3
    weight_filler {
      type: "xavier"
    }
  }
}
layer {
  name: "relu4"
  type: "ReLU"
  bottom: "conv4"
  top: "conv4"
  relu_param {
    negative_slope: 0.01
  }
}
layer {
  name: "conv5"
  type: "Convolution"
  bottom: "conv4"
  top: "conv5"
  convolution_param {
    num_output: 192
    kernel_size: 3
    weight_filler {
      type: "xavier"
    }
  }
}
layer {
  name: "bn2"
  type: "BatchNorm"
  bottom: "conv5"
  top: "bn2"
}
layer {
  name: "relu5"
  type: "ReLU"
  bottom: "bn2"
  top: "bn2"
  relu_param {
    negative_slope: 0.01
  }
}
layer {
  name: "drop4"
  type: "Dropout"
  bottom: "bn2"
  top: "drop4"
  dropout_param {
    dropout_ratio: 0.5
  }
}
layer {
  name: "conv6"
  type: "Convolution"
  bottom: "drop4"
  top: "conv6"
  convolution_param {
    num_output: 192
    kernel_size: 3
    stride: 2
    weight_filler {
      type: "xavier"
    }
  }
}
layer {
  name: "relu6"
  type: "ReLU"
  bottom: "conv6"
  top: "conv6"
  relu_param {
    negative_slope: 0.01
  }
}
layer {
  name: "conv7"
  type: "Convolution"
  bottom: "conv6"
  top: "conv7"
  convolution_param {
    num_output: 192
    kernel_size: 3
    weight_filler {
      type: "xavier"
    }
  }
}
layer {
  name: "relu7"
  type: "ReLU"
  bottom: "conv7"
  top: "conv7"
  relu_param {
    negative_slope: 0.01
  }
}
layer {
  name: "conv8"
  type: "Convolution"
  bottom: "conv7"
  top: "conv8"
  convolution_param {
    num_output: 192
    kernel_size: 1
    weight_filler {
      type: "xavier"
    }
  }
}
layer {
  name: "relu8"
  type: "ReLU"
  bottom: "conv8"
  top: "conv8"
  relu_param {
    negative_slope: 0.01
  }
}
layer {
  name: "conv9"
  type: "Convolution"
  bottom: "conv8"
  top: "conv9"
  convolution_param {
    num_output: 10
    kernel_size: 1
    weight_filler {
      type: "xavier"
    }
  }
}
layer {
  name: "relu9"
  type: "ReLU"
  bottom: "conv9"
  top: "conv9"
  relu_param {
    negative_slope: 0.01
  }
}
layer {
  name: "pool"
  type: "Pooling"
  bottom: "conv9"
  top: "pool"
  pooling_param {
    pool: AVE
    global_pooling: true
  }
}
layer {
  name: "flatten"
  type: "Flatten"
  bottom: "pool"
  top: "flatten"
}
layer {
  name: "score"
  type: "InnerProduct"
  bottom: "flatten"
  top: "score"
  inner_product_param {
    num_output: 10
    weight_filler {
      type: "gaussian"
    }
  }
}
layer {
  name: "accuracy"
  type: "Accuracy"
  bottom: "score"
  bottom: "label"
  top: "accuracy"
}
layer {
  name: "loss"
  type: "SoftmaxWithLoss"
  bottom: "score"
  bottom: "label"
  top: "loss"
}
I1011 17:51:51.208297  7492 layer_factory.hpp:77] Creating layer data
I1011 17:51:51.208379  7492 net.cpp:100] Creating Layer data
I1011 17:51:51.208385  7492 net.cpp:408] data -> data
I1011 17:51:51.208391  7492 net.cpp:408] data -> label
I1011 17:51:51.208396  7492 data_transformer.cpp:25] Loading mean file from: mean.binaryproto
I1011 17:51:51.209156  7500 db_lmdb.cpp:35] Opened lmdb ../../../data/cifar-10/cifar10_test_lmdb
I1011 17:51:51.209266  7492 data_layer.cpp:41] output data size: 100,3,32,32
I1011 17:51:51.211180  7492 net.cpp:150] Setting up data
I1011 17:51:51.211199  7492 net.cpp:157] Top shape: 100 3 32 32 (307200)
I1011 17:51:51.211201  7492 net.cpp:157] Top shape: 100 (100)
I1011 17:51:51.211204  7492 net.cpp:165] Memory required for data: 1229200
I1011 17:51:51.211207  7492 layer_factory.hpp:77] Creating layer label_data_1_split
I1011 17:51:51.211231  7492 net.cpp:100] Creating Layer label_data_1_split
I1011 17:51:51.211236  7492 net.cpp:434] label_data_1_split <- label
I1011 17:51:51.211252  7492 net.cpp:408] label_data_1_split -> label_data_1_split_0
I1011 17:51:51.211258  7492 net.cpp:408] label_data_1_split -> label_data_1_split_1
I1011 17:51:51.211380  7492 net.cpp:150] Setting up label_data_1_split
I1011 17:51:51.211398  7492 net.cpp:157] Top shape: 100 (100)
I1011 17:51:51.211401  7492 net.cpp:157] Top shape: 100 (100)
I1011 17:51:51.211402  7492 net.cpp:165] Memory required for data: 1230000
I1011 17:51:51.211405  7492 layer_factory.hpp:77] Creating layer conv1
I1011 17:51:51.211413  7492 net.cpp:100] Creating Layer conv1
I1011 17:51:51.211431  7492 net.cpp:434] conv1 <- data
I1011 17:51:51.211437  7492 net.cpp:408] conv1 -> conv1
I1011 17:51:51.212505  7492 net.cpp:150] Setting up conv1
I1011 17:51:51.212532  7492 net.cpp:157] Top shape: 100 96 30 30 (8640000)
I1011 17:51:51.212535  7492 net.cpp:165] Memory required for data: 35790000
I1011 17:51:51.212556  7492 layer_factory.hpp:77] Creating layer relu1
I1011 17:51:51.212563  7492 net.cpp:100] Creating Layer relu1
I1011 17:51:51.212579  7492 net.cpp:434] relu1 <- conv1
I1011 17:51:51.212584  7492 net.cpp:395] relu1 -> conv1 (in-place)
I1011 17:51:51.212754  7492 net.cpp:150] Setting up relu1
I1011 17:51:51.212769  7492 net.cpp:157] Top shape: 100 96 30 30 (8640000)
I1011 17:51:51.212785  7492 net.cpp:165] Memory required for data: 70350000
I1011 17:51:51.212787  7492 layer_factory.hpp:77] Creating layer conv2
I1011 17:51:51.212796  7492 net.cpp:100] Creating Layer conv2
I1011 17:51:51.212798  7492 net.cpp:434] conv2 <- conv1
I1011 17:51:51.212807  7492 net.cpp:408] conv2 -> conv2
I1011 17:51:51.214181  7492 net.cpp:150] Setting up conv2
I1011 17:51:51.214192  7492 net.cpp:157] Top shape: 100 96 28 28 (7526400)
I1011 17:51:51.214195  7492 net.cpp:165] Memory required for data: 100455600
I1011 17:51:51.214216  7492 layer_factory.hpp:77] Creating layer bn1
I1011 17:51:51.214247  7492 net.cpp:100] Creating Layer bn1
I1011 17:51:51.214253  7492 net.cpp:434] bn1 <- conv2
I1011 17:51:51.214257  7492 net.cpp:408] bn1 -> bn1
I1011 17:51:51.214468  7492 net.cpp:150] Setting up bn1
I1011 17:51:51.214473  7492 net.cpp:157] Top shape: 100 96 28 28 (7526400)
I1011 17:51:51.214475  7492 net.cpp:165] Memory required for data: 130561200
I1011 17:51:51.214483  7492 layer_factory.hpp:77] Creating layer relu2
I1011 17:51:51.214488  7492 net.cpp:100] Creating Layer relu2
I1011 17:51:51.214490  7492 net.cpp:434] relu2 <- bn1
I1011 17:51:51.214493  7492 net.cpp:395] relu2 -> bn1 (in-place)
I1011 17:51:51.214737  7492 net.cpp:150] Setting up relu2
I1011 17:51:51.214747  7492 net.cpp:157] Top shape: 100 96 28 28 (7526400)
I1011 17:51:51.214751  7492 net.cpp:165] Memory required for data: 160666800
I1011 17:51:51.214753  7492 layer_factory.hpp:77] Creating layer drop1
I1011 17:51:51.214758  7492 net.cpp:100] Creating Layer drop1
I1011 17:51:51.214761  7492 net.cpp:434] drop1 <- bn1
I1011 17:51:51.214764  7492 net.cpp:408] drop1 -> drop1
I1011 17:51:51.214803  7492 net.cpp:150] Setting up drop1
I1011 17:51:51.214808  7492 net.cpp:157] Top shape: 100 96 28 28 (7526400)
I1011 17:51:51.214810  7492 net.cpp:165] Memory required for data: 190772400
I1011 17:51:51.214812  7492 layer_factory.hpp:77] Creating layer conv3
I1011 17:51:51.214821  7492 net.cpp:100] Creating Layer conv3
I1011 17:51:51.214824  7492 net.cpp:434] conv3 <- drop1
I1011 17:51:51.214828  7492 net.cpp:408] conv3 -> conv3
I1011 17:51:51.215984  7492 net.cpp:150] Setting up conv3
I1011 17:51:51.215993  7492 net.cpp:157] Top shape: 100 96 13 13 (1622400)
I1011 17:51:51.215996  7492 net.cpp:165] Memory required for data: 197262000
I1011 17:51:51.216003  7492 layer_factory.hpp:77] Creating layer relu3
I1011 17:51:51.216009  7492 net.cpp:100] Creating Layer relu3
I1011 17:51:51.216012  7492 net.cpp:434] relu3 <- conv3
I1011 17:51:51.216017  7492 net.cpp:395] relu3 -> conv3 (in-place)
I1011 17:51:51.216249  7492 net.cpp:150] Setting up relu3
I1011 17:51:51.216259  7492 net.cpp:157] Top shape: 100 96 13 13 (1622400)
I1011 17:51:51.216261  7492 net.cpp:165] Memory required for data: 203751600
I1011 17:51:51.216264  7492 layer_factory.hpp:77] Creating layer conv4
I1011 17:51:51.216269  7492 net.cpp:100] Creating Layer conv4
I1011 17:51:51.216274  7492 net.cpp:434] conv4 <- conv3
I1011 17:51:51.216277  7492 net.cpp:408] conv4 -> conv4
I1011 17:51:51.219642  7492 net.cpp:150] Setting up conv4
I1011 17:51:51.219673  7492 net.cpp:157] Top shape: 100 192 11 11 (2323200)
I1011 17:51:51.219676  7492 net.cpp:165] Memory required for data: 213044400
I1011 17:51:51.219682  7492 layer_factory.hpp:77] Creating layer relu4
I1011 17:51:51.219688  7492 net.cpp:100] Creating Layer relu4
I1011 17:51:51.219691  7492 net.cpp:434] relu4 <- conv4
I1011 17:51:51.219694  7492 net.cpp:395] relu4 -> conv4 (in-place)
I1011 17:51:51.219955  7492 net.cpp:150] Setting up relu4
I1011 17:51:51.219961  7492 net.cpp:157] Top shape: 100 192 11 11 (2323200)
I1011 17:51:51.219976  7492 net.cpp:165] Memory required for data: 222337200
I1011 17:51:51.219979  7492 layer_factory.hpp:77] Creating layer conv5
I1011 17:51:51.219985  7492 net.cpp:100] Creating Layer conv5
I1011 17:51:51.219990  7492 net.cpp:434] conv5 <- conv4
I1011 17:51:51.219993  7492 net.cpp:408] conv5 -> conv5
I1011 17:51:51.222786  7492 net.cpp:150] Setting up conv5
I1011 17:51:51.222812  7492 net.cpp:157] Top shape: 100 192 9 9 (1555200)
I1011 17:51:51.222815  7492 net.cpp:165] Memory required for data: 228558000
I1011 17:51:51.222820  7492 layer_factory.hpp:77] Creating layer bn2
I1011 17:51:51.222826  7492 net.cpp:100] Creating Layer bn2
I1011 17:51:51.222828  7492 net.cpp:434] bn2 <- conv5
I1011 17:51:51.222832  7492 net.cpp:408] bn2 -> bn2
I1011 17:51:51.223045  7492 net.cpp:150] Setting up bn2
I1011 17:51:51.223050  7492 net.cpp:157] Top shape: 100 192 9 9 (1555200)
I1011 17:51:51.223052  7492 net.cpp:165] Memory required for data: 234778800
I1011 17:51:51.223057  7492 layer_factory.hpp:77] Creating layer relu5
I1011 17:51:51.223062  7492 net.cpp:100] Creating Layer relu5
I1011 17:51:51.223063  7492 net.cpp:434] relu5 <- bn2
I1011 17:51:51.223065  7492 net.cpp:395] relu5 -> bn2 (in-place)
I1011 17:51:51.223346  7492 net.cpp:150] Setting up relu5
I1011 17:51:51.223354  7492 net.cpp:157] Top shape: 100 192 9 9 (1555200)
I1011 17:51:51.223371  7492 net.cpp:165] Memory required for data: 240999600
I1011 17:51:51.223373  7492 layer_factory.hpp:77] Creating layer drop4
I1011 17:51:51.223377  7492 net.cpp:100] Creating Layer drop4
I1011 17:51:51.223379  7492 net.cpp:434] drop4 <- bn2
I1011 17:51:51.223383  7492 net.cpp:408] drop4 -> drop4
I1011 17:51:51.223461  7492 net.cpp:150] Setting up drop4
I1011 17:51:51.223466  7492 net.cpp:157] Top shape: 100 192 9 9 (1555200)
I1011 17:51:51.223482  7492 net.cpp:165] Memory required for data: 247220400
I1011 17:51:51.223484  7492 layer_factory.hpp:77] Creating layer conv6
I1011 17:51:51.223495  7492 net.cpp:100] Creating Layer conv6
I1011 17:51:51.223496  7492 net.cpp:434] conv6 <- drop4
I1011 17:51:51.223500  7492 net.cpp:408] conv6 -> conv6
I1011 17:51:51.226019  7492 net.cpp:150] Setting up conv6
I1011 17:51:51.226045  7492 net.cpp:157] Top shape: 100 192 4 4 (307200)
I1011 17:51:51.226047  7492 net.cpp:165] Memory required for data: 248449200
I1011 17:51:51.226056  7492 layer_factory.hpp:77] Creating layer relu6
I1011 17:51:51.226061  7492 net.cpp:100] Creating Layer relu6
I1011 17:51:51.226064  7492 net.cpp:434] relu6 <- conv6
I1011 17:51:51.226081  7492 net.cpp:395] relu6 -> conv6 (in-place)
I1011 17:51:51.226330  7492 net.cpp:150] Setting up relu6
I1011 17:51:51.226338  7492 net.cpp:157] Top shape: 100 192 4 4 (307200)
I1011 17:51:51.226341  7492 net.cpp:165] Memory required for data: 249678000
I1011 17:51:51.226342  7492 layer_factory.hpp:77] Creating layer conv7
I1011 17:51:51.226348  7492 net.cpp:100] Creating Layer conv7
I1011 17:51:51.226351  7492 net.cpp:434] conv7 <- conv6
I1011 17:51:51.226356  7492 net.cpp:408] conv7 -> conv7
I1011 17:51:51.228899  7492 net.cpp:150] Setting up conv7
I1011 17:51:51.228909  7492 net.cpp:157] Top shape: 100 192 2 2 (76800)
I1011 17:51:51.228912  7492 net.cpp:165] Memory required for data: 249985200
I1011 17:51:51.228916  7492 layer_factory.hpp:77] Creating layer relu7
I1011 17:51:51.228920  7492 net.cpp:100] Creating Layer relu7
I1011 17:51:51.228924  7492 net.cpp:434] relu7 <- conv7
I1011 17:51:51.228926  7492 net.cpp:395] relu7 -> conv7 (in-place)
I1011 17:51:51.229082  7492 net.cpp:150] Setting up relu7
I1011 17:51:51.229089  7492 net.cpp:157] Top shape: 100 192 2 2 (76800)
I1011 17:51:51.229089  7492 net.cpp:165] Memory required for data: 250292400
I1011 17:51:51.229092  7492 layer_factory.hpp:77] Creating layer conv8
I1011 17:51:51.229099  7492 net.cpp:100] Creating Layer conv8
I1011 17:51:51.229100  7492 net.cpp:434] conv8 <- conv7
I1011 17:51:51.229104  7492 net.cpp:408] conv8 -> conv8
I1011 17:51:51.230096  7492 net.cpp:150] Setting up conv8
I1011 17:51:51.230105  7492 net.cpp:157] Top shape: 100 192 2 2 (76800)
I1011 17:51:51.230108  7492 net.cpp:165] Memory required for data: 250599600
I1011 17:51:51.230111  7492 layer_factory.hpp:77] Creating layer relu8
I1011 17:51:51.230116  7492 net.cpp:100] Creating Layer relu8
I1011 17:51:51.230118  7492 net.cpp:434] relu8 <- conv8
I1011 17:51:51.230121  7492 net.cpp:395] relu8 -> conv8 (in-place)
I1011 17:51:51.230391  7492 net.cpp:150] Setting up relu8
I1011 17:51:51.230401  7492 net.cpp:157] Top shape: 100 192 2 2 (76800)
I1011 17:51:51.230402  7492 net.cpp:165] Memory required for data: 250906800
I1011 17:51:51.230404  7492 layer_factory.hpp:77] Creating layer conv9
I1011 17:51:51.230409  7492 net.cpp:100] Creating Layer conv9
I1011 17:51:51.230412  7492 net.cpp:434] conv9 <- conv8
I1011 17:51:51.230417  7492 net.cpp:408] conv9 -> conv9
I1011 17:51:51.231173  7492 net.cpp:150] Setting up conv9
I1011 17:51:51.231183  7492 net.cpp:157] Top shape: 100 10 2 2 (4000)
I1011 17:51:51.231184  7492 net.cpp:165] Memory required for data: 250922800
I1011 17:51:51.231189  7492 layer_factory.hpp:77] Creating layer relu9
I1011 17:51:51.231192  7492 net.cpp:100] Creating Layer relu9
I1011 17:51:51.231194  7492 net.cpp:434] relu9 <- conv9
I1011 17:51:51.231197  7492 net.cpp:395] relu9 -> conv9 (in-place)
I1011 17:51:51.231458  7492 net.cpp:150] Setting up relu9
I1011 17:51:51.231467  7492 net.cpp:157] Top shape: 100 10 2 2 (4000)
I1011 17:51:51.231468  7492 net.cpp:165] Memory required for data: 250938800
I1011 17:51:51.231470  7492 layer_factory.hpp:77] Creating layer pool
I1011 17:51:51.231474  7492 net.cpp:100] Creating Layer pool
I1011 17:51:51.231477  7492 net.cpp:434] pool <- conv9
I1011 17:51:51.231479  7492 net.cpp:408] pool -> pool
I1011 17:51:51.231681  7492 net.cpp:150] Setting up pool
I1011 17:51:51.231688  7492 net.cpp:157] Top shape: 100 10 1 1 (1000)
I1011 17:51:51.231689  7492 net.cpp:165] Memory required for data: 250942800
I1011 17:51:51.231691  7492 layer_factory.hpp:77] Creating layer flatten
I1011 17:51:51.231694  7492 net.cpp:100] Creating Layer flatten
I1011 17:51:51.231696  7492 net.cpp:434] flatten <- pool
I1011 17:51:51.231700  7492 net.cpp:408] flatten -> flatten
I1011 17:51:51.231735  7492 net.cpp:150] Setting up flatten
I1011 17:51:51.231739  7492 net.cpp:157] Top shape: 100 10 (1000)
I1011 17:51:51.231741  7492 net.cpp:165] Memory required for data: 250946800
I1011 17:51:51.231744  7492 layer_factory.hpp:77] Creating layer score
I1011 17:51:51.231748  7492 net.cpp:100] Creating Layer score
I1011 17:51:51.231751  7492 net.cpp:434] score <- flatten
I1011 17:51:51.231771  7492 net.cpp:408] score -> score
I1011 17:51:51.231892  7492 net.cpp:150] Setting up score
I1011 17:51:51.231896  7492 net.cpp:157] Top shape: 100 10 (1000)
I1011 17:51:51.231899  7492 net.cpp:165] Memory required for data: 250950800
I1011 17:51:51.231902  7492 layer_factory.hpp:77] Creating layer score_score_0_split
I1011 17:51:51.231905  7492 net.cpp:100] Creating Layer score_score_0_split
I1011 17:51:51.231907  7492 net.cpp:434] score_score_0_split <- score
I1011 17:51:51.231911  7492 net.cpp:408] score_score_0_split -> score_score_0_split_0
I1011 17:51:51.231915  7492 net.cpp:408] score_score_0_split -> score_score_0_split_1
I1011 17:51:51.231958  7492 net.cpp:150] Setting up score_score_0_split
I1011 17:51:51.231962  7492 net.cpp:157] Top shape: 100 10 (1000)
I1011 17:51:51.231966  7492 net.cpp:157] Top shape: 100 10 (1000)
I1011 17:51:51.231966  7492 net.cpp:165] Memory required for data: 250958800
I1011 17:51:51.231982  7492 layer_factory.hpp:77] Creating layer accuracy
I1011 17:51:51.231986  7492 net.cpp:100] Creating Layer accuracy
I1011 17:51:51.231988  7492 net.cpp:434] accuracy <- score_score_0_split_0
I1011 17:51:51.232003  7492 net.cpp:434] accuracy <- label_data_1_split_0
I1011 17:51:51.232007  7492 net.cpp:408] accuracy -> accuracy
…
