…
  stage: ""
}
type: "Nesterov"
I1012 02:25:23.551738  7376 solver.cpp:81] Creating training net from train_net file: /home/adam/Honours/Honours-Project/cifar-10_allcnn/relu/allcnn_relu_train.prototxt
I1012 02:25:23.552057  7376 net.cpp:58] Initializing net from parameters: 
state {
  phase: TRAIN
  level: 0
  stage: ""
}
layer {
  name: "data"
  type: "Data"
  top: "data"
  top: "label"
  transform_param {
    mean_file: "mean.binaryproto"
  }
  data_param {
    source: "../../../data/cifar-10/cifar10_train_lmdb"
    batch_size: 64
    backend: LMDB
  }
}
layer {
  name: "conv1"
  type: "Convolution"
  bottom: "data"
  top: "conv1"
  convolution_param {
    num_output: 96
    kernel_size: 3
    weight_filler {
      type: "xavier"
    }
  }
}
layer {
  name: "conv2"
  type: "Convolution"
  bottom: "conv1"
  top: "conv2"
  convolution_param {
    num_output: 96
    kernel_size: 3
    weight_filler {
      type: "xavier"
    }
  }
}
layer {
  name: "bn1"
  type: "BatchNorm"
  bottom: "conv2"
  top: "bn1"
}
layer {
  name: "conv3"
  type: "Convolution"
  bottom: "bn1"
  top: "conv3"
  convolution_param {
    num_output: 96
    kernel_size: 3
    stride: 2
    weight_filler {
      type: "xavier"
    }
  }
}
layer {
  name: "drop1"
  type: "Dropout"
  bottom: "conv3"
  top: "drop1"
  dropout_param {
    dropout_ratio: 0.5
  }
}
layer {
  name: "relu3"
  type: "ReLU"
  bottom: "drop1"
  top: "drop1"
}
layer {
  name: "conv4"
  type: "Convolution"
  bottom: "drop1"
  top: "conv4"
  convolution_param {
    num_output: 192
    kernel_size: 3
    weight_filler {
      type: "xavier"
    }
  }
}
layer {
  name: "conv5"
  type: "Convolution"
  bottom: "conv4"
  top: "conv5"
  convolution_param {
    num_output: 192
    kernel_size: 3
    weight_filler {
      type: "xavier"
    }
  }
}
layer {
  name: "bn2"
  type: "BatchNorm"
  bottom: "conv5"
  top: "bn2"
}
layer {
  name: "conv6"
  type: "Convolution"
  bottom: "bn2"
  top: "conv6"
  convolution_param {
    num_output: 192
    kernel_size: 3
    stride: 2
    weight_filler {
      type: "xavier"
    }
  }
}
layer {
  name: "drop4"
  type: "Dropout"
  bottom: "conv6"
  top: "drop4"
  dropout_param {
    dropout_ratio: 0.5
  }
}
layer {
  name: "relu6"
  type: "ReLU"
  bottom: "drop4"
  top: "drop4"
}
layer {
  name: "conv7"
  type: "Convolution"
  bottom: "drop4"
  top: "conv7"
  convolution_param {
    num_output: 192
    kernel_size: 3
    weight_filler {
      type: "xavier"
    }
  }
}
layer {
  name: "relu7"
  type: "ReLU"
  bottom: "conv7"
  top: "conv7"
}
layer {
  name: "conv8"
  type: "Convolution"
  bottom: "conv7"
  top: "conv8"
  convolution_param {
    num_output: 192
    kernel_size: 1
    weight_filler {
      type: "xavier"
    }
  }
}
layer {
  name: "relu8"
  type: "ReLU"
  bottom: "conv8"
  top: "conv8"
}
layer {
  name: "conv9"
  type: "Convolution"
  bottom: "conv8"
  top: "conv9"
  convolution_param {
    num_output: 10
    kernel_size: 1
    weight_filler {
      type: "xavier"
    }
  }
}
layer {
  name: "relu9"
  type: "ReLU"
  bottom: "conv9"
  top: "conv9"
}
layer {
  name: "pool"
  type: "Pooling"
  bottom: "conv9"
  top: "pool"
  pooling_param {
    pool: AVE
    global_pooling: true
  }
}
layer {
  name: "flatten"
  type: "Flatten"
  bottom: "pool"
  top: "flatten"
}
layer {
  name: "score"
  type: "InnerProduct"
  bottom: "flatten"
  top: "score"
  inner_product_param {
    num_output: 10
    weight_filler {
      type: "gaussian"
    }
  }
}
layer {
  name: "accuracy"
  type: "Accuracy"
  bottom: "score"
  bottom: "label"
  top: "accuracy"
}
layer {
  name: "loss"
  type: "SoftmaxWithLoss"
  bottom: "score"
  bottom: "label"
  top: "loss"
}
I1012 02:25:23.552201  7376 layer_factory.hpp:77] Creating layer data
I1012 02:25:23.552666  7376 net.cpp:100] Creating Layer data
I1012 02:25:23.552675  7376 net.cpp:408] data -> data
I1012 02:25:23.552713  7376 net.cpp:408] data -> label
I1012 02:25:23.552736  7376 data_transformer.cpp:25] Loading mean file from: mean.binaryproto
I1012 02:25:23.553383  7381 db_lmdb.cpp:35] Opened lmdb ../../../data/cifar-10/cifar10_train_lmdb
I1012 02:25:23.559694  7376 data_layer.cpp:41] output data size: 64,3,32,32
I1012 02:25:23.561208  7376 net.cpp:150] Setting up data
I1012 02:25:23.561221  7376 net.cpp:157] Top shape: 64 3 32 32 (196608)
I1012 02:25:23.561225  7376 net.cpp:157] Top shape: 64 (64)
I1012 02:25:23.561226  7376 net.cpp:165] Memory required for data: 786688
I1012 02:25:23.561257  7376 layer_factory.hpp:77] Creating layer label_data_1_split
I1012 02:25:23.561267  7376 net.cpp:100] Creating Layer label_data_1_split
I1012 02:25:23.561287  7376 net.cpp:434] label_data_1_split <- label
I1012 02:25:23.561298  7376 net.cpp:408] label_data_1_split -> label_data_1_split_0
I1012 02:25:23.561326  7376 net.cpp:408] label_data_1_split -> label_data_1_split_1
I1012 02:25:23.561393  7376 net.cpp:150] Setting up label_data_1_split
I1012 02:25:23.561404  7376 net.cpp:157] Top shape: 64 (64)
I1012 02:25:23.561408  7376 net.cpp:157] Top shape: 64 (64)
I1012 02:25:23.561409  7376 net.cpp:165] Memory required for data: 787200
I1012 02:25:23.561413  7376 layer_factory.hpp:77] Creating layer conv1
I1012 02:25:23.561424  7376 net.cpp:100] Creating Layer conv1
I1012 02:25:23.561446  7376 net.cpp:434] conv1 <- data
I1012 02:25:23.561451  7376 net.cpp:408] conv1 -> conv1
I1012 02:25:23.699012  7376 net.cpp:150] Setting up conv1
I1012 02:25:23.699034  7376 net.cpp:157] Top shape: 64 96 30 30 (5529600)
I1012 02:25:23.699038  7376 net.cpp:165] Memory required for data: 22905600
I1012 02:25:23.699054  7376 layer_factory.hpp:77] Creating layer conv2
I1012 02:25:23.699065  7376 net.cpp:100] Creating Layer conv2
I1012 02:25:23.699069  7376 net.cpp:434] conv2 <- conv1
I1012 02:25:23.699087  7376 net.cpp:408] conv2 -> conv2
I1012 02:25:23.700403  7376 net.cpp:150] Setting up conv2
I1012 02:25:23.700413  7376 net.cpp:157] Top shape: 64 96 28 28 (4816896)
I1012 02:25:23.700417  7376 net.cpp:165] Memory required for data: 42173184
I1012 02:25:23.700423  7376 layer_factory.hpp:77] Creating layer bn1
I1012 02:25:23.700429  7376 net.cpp:100] Creating Layer bn1
I1012 02:25:23.700431  7376 net.cpp:434] bn1 <- conv2
I1012 02:25:23.700434  7376 net.cpp:408] bn1 -> bn1
I1012 02:25:23.700630  7376 net.cpp:150] Setting up bn1
I1012 02:25:23.700635  7376 net.cpp:157] Top shape: 64 96 28 28 (4816896)
I1012 02:25:23.700637  7376 net.cpp:165] Memory required for data: 61440768
I1012 02:25:23.700644  7376 layer_factory.hpp:77] Creating layer conv3
I1012 02:25:23.700650  7376 net.cpp:100] Creating Layer conv3
I1012 02:25:23.700654  7376 net.cpp:434] conv3 <- bn1
I1012 02:25:23.700656  7376 net.cpp:408] conv3 -> conv3
I1012 02:25:23.701853  7376 net.cpp:150] Setting up conv3
I1012 02:25:23.701863  7376 net.cpp:157] Top shape: 64 96 13 13 (1038336)
I1012 02:25:23.701864  7376 net.cpp:165] Memory required for data: 65594112
I1012 02:25:23.701874  7376 layer_factory.hpp:77] Creating layer drop1
I1012 02:25:23.701877  7376 net.cpp:100] Creating Layer drop1
I1012 02:25:23.701880  7376 net.cpp:434] drop1 <- conv3
I1012 02:25:23.701884  7376 net.cpp:408] drop1 -> drop1
I1012 02:25:23.701930  7376 net.cpp:150] Setting up drop1
I1012 02:25:23.701951  7376 net.cpp:157] Top shape: 64 96 13 13 (1038336)
I1012 02:25:23.701952  7376 net.cpp:165] Memory required for data: 69747456
I1012 02:25:23.701967  7376 layer_factory.hpp:77] Creating layer relu3
I1012 02:25:23.701970  7376 net.cpp:100] Creating Layer relu3
I1012 02:25:23.701972  7376 net.cpp:434] relu3 <- drop1
I1012 02:25:23.701975  7376 net.cpp:395] relu3 -> drop1 (in-place)
I1012 02:25:23.702306  7376 net.cpp:150] Setting up relu3
I1012 02:25:23.702313  7376 net.cpp:157] Top shape: 64 96 13 13 (1038336)
I1012 02:25:23.702316  7376 net.cpp:165] Memory required for data: 73900800
I1012 02:25:23.702318  7376 layer_factory.hpp:77] Creating layer conv4
I1012 02:25:23.702325  7376 net.cpp:100] Creating Layer conv4
I1012 02:25:23.702327  7376 net.cpp:434] conv4 <- drop1
I1012 02:25:23.702332  7376 net.cpp:408] conv4 -> conv4
I1012 02:25:23.704152  7376 net.cpp:150] Setting up conv4
I1012 02:25:23.704162  7376 net.cpp:157] Top shape: 64 192 11 11 (1486848)
I1012 02:25:23.704164  7376 net.cpp:165] Memory required for data: 79848192
I1012 02:25:23.704169  7376 layer_factory.hpp:77] Creating layer conv5
I1012 02:25:23.704175  7376 net.cpp:100] Creating Layer conv5
I1012 02:25:23.704177  7376 net.cpp:434] conv5 <- conv4
I1012 02:25:23.704182  7376 net.cpp:408] conv5 -> conv5
I1012 02:25:23.706629  7376 net.cpp:150] Setting up conv5
I1012 02:25:23.706640  7376 net.cpp:157] Top shape: 64 192 9 9 (995328)
I1012 02:25:23.706642  7376 net.cpp:165] Memory required for data: 83829504
I1012 02:25:23.706646  7376 layer_factory.hpp:77] Creating layer bn2
I1012 02:25:23.706650  7376 net.cpp:100] Creating Layer bn2
I1012 02:25:23.706653  7376 net.cpp:434] bn2 <- conv5
I1012 02:25:23.706656  7376 net.cpp:408] bn2 -> bn2
I1012 02:25:23.706851  7376 net.cpp:150] Setting up bn2
I1012 02:25:23.706856  7376 net.cpp:157] Top shape: 64 192 9 9 (995328)
I1012 02:25:23.706858  7376 net.cpp:165] Memory required for data: 87810816
I1012 02:25:23.706862  7376 layer_factory.hpp:77] Creating layer conv6
I1012 02:25:23.706868  7376 net.cpp:100] Creating Layer conv6
I1012 02:25:23.706871  7376 net.cpp:434] conv6 <- bn2
I1012 02:25:23.706876  7376 net.cpp:408] conv6 -> conv6
I1012 02:25:23.709383  7376 net.cpp:150] Setting up conv6
I1012 02:25:23.709393  7376 net.cpp:157] Top shape: 64 192 4 4 (196608)
I1012 02:25:23.709395  7376 net.cpp:165] Memory required for data: 88597248
I1012 02:25:23.709403  7376 layer_factory.hpp:77] Creating layer drop4
I1012 02:25:23.709408  7376 net.cpp:100] Creating Layer drop4
I1012 02:25:23.709410  7376 net.cpp:434] drop4 <- conv6
I1012 02:25:23.709414  7376 net.cpp:408] drop4 -> drop4
I1012 02:25:23.709460  7376 net.cpp:150] Setting up drop4
I1012 02:25:23.709478  7376 net.cpp:157] Top shape: 64 192 4 4 (196608)
I1012 02:25:23.709481  7376 net.cpp:165] Memory required for data: 89383680
I1012 02:25:23.709482  7376 layer_factory.hpp:77] Creating layer relu6
I1012 02:25:23.709498  7376 net.cpp:100] Creating Layer relu6
I1012 02:25:23.709501  7376 net.cpp:434] relu6 <- drop4
I1012 02:25:23.709520  7376 net.cpp:395] relu6 -> drop4 (in-place)
I1012 02:25:23.709776  7376 net.cpp:150] Setting up relu6
I1012 02:25:23.709784  7376 net.cpp:157] Top shape: 64 192 4 4 (196608)
I1012 02:25:23.709786  7376 net.cpp:165] Memory required for data: 90170112
I1012 02:25:23.709789  7376 layer_factory.hpp:77] Creating layer conv7
I1012 02:25:23.709810  7376 net.cpp:100] Creating Layer conv7
I1012 02:25:23.709811  7376 net.cpp:434] conv7 <- drop4
I1012 02:25:23.709816  7376 net.cpp:408] conv7 -> conv7
I1012 02:25:23.713457  7376 net.cpp:150] Setting up conv7
I1012 02:25:23.713477  7376 net.cpp:157] Top shape: 64 192 2 2 (49152)
I1012 02:25:23.713480  7376 net.cpp:165] Memory required for data: 90366720
I1012 02:25:23.713486  7376 layer_factory.hpp:77] Creating layer relu7
I1012 02:25:23.713492  7376 net.cpp:100] Creating Layer relu7
I1012 02:25:23.713495  7376 net.cpp:434] relu7 <- conv7
I1012 02:25:23.713498  7376 net.cpp:395] relu7 -> conv7 (in-place)
I1012 02:25:23.713759  7376 net.cpp:150] Setting up relu7
I1012 02:25:23.713768  7376 net.cpp:157] Top shape: 64 192 2 2 (49152)
I1012 02:25:23.713770  7376 net.cpp:165] Memory required for data: 90563328
I1012 02:25:23.713773  7376 layer_factory.hpp:77] Creating layer conv8
I1012 02:25:23.713783  7376 net.cpp:100] Creating Layer conv8
I1012 02:25:23.713784  7376 net.cpp:434] conv8 <- conv7
I1012 02:25:23.713788  7376 net.cpp:408] conv8 -> conv8
I1012 02:25:23.715050  7376 net.cpp:150] Setting up conv8
I1012 02:25:23.715060  7376 net.cpp:157] Top shape: 64 192 2 2 (49152)
I1012 02:25:23.715062  7376 net.cpp:165] Memory required for data: 90759936
I1012 02:25:23.715067  7376 layer_factory.hpp:77] Creating layer relu8
I1012 02:25:23.715071  7376 net.cpp:100] Creating Layer relu8
I1012 02:25:23.715073  7376 net.cpp:434] relu8 <- conv8
I1012 02:25:23.715077  7376 net.cpp:395] relu8 -> conv8 (in-place)
I1012 02:25:23.715332  7376 net.cpp:150] Setting up relu8
I1012 02:25:23.715340  7376 net.cpp:157] Top shape: 64 192 2 2 (49152)
I1012 02:25:23.715342  7376 net.cpp:165] Memory required for data: 90956544
I1012 02:25:23.715344  7376 layer_factory.hpp:77] Creating layer conv9
I1012 02:25:23.715350  7376 net.cpp:100] Creating Layer conv9
I1012 02:25:23.715353  7376 net.cpp:434] conv9 <- conv8
I1012 02:25:23.715356  7376 net.cpp:408] conv9 -> conv9
I1012 02:25:23.716220  7376 net.cpp:150] Setting up conv9
I1012 02:25:23.716229  7376 net.cpp:157] Top shape: 64 10 2 2 (2560)
I1012 02:25:23.716233  7376 net.cpp:165] Memory required for data: 90966784
I1012 02:25:23.716236  7376 layer_factory.hpp:77] Creating layer relu9
I1012 02:25:23.716240  7376 net.cpp:100] Creating Layer relu9
I1012 02:25:23.716243  7376 net.cpp:434] relu9 <- conv9
I1012 02:25:23.716248  7376 net.cpp:395] relu9 -> conv9 (in-place)
I1012 02:25:23.716485  7376 net.cpp:150] Setting up relu9
I1012 02:25:23.716493  7376 net.cpp:157] Top shape: 64 10 2 2 (2560)
I1012 02:25:23.716495  7376 net.cpp:165] Memory required for data: 90977024
I1012 02:25:23.716497  7376 layer_factory.hpp:77] Creating layer pool
I1012 02:25:23.716501  7376 net.cpp:100] Creating Layer pool
I1012 02:25:23.716505  7376 net.cpp:434] pool <- conv9
I1012 02:25:23.716508  7376 net.cpp:408] pool -> pool
I1012 02:25:23.716686  7376 net.cpp:150] Setting up pool
I1012 02:25:23.716691  7376 net.cpp:157] Top shape: 64 10 1 1 (640)
I1012 02:25:23.716693  7376 net.cpp:165] Memory required for data: 90979584
I1012 02:25:23.716696  7376 layer_factory.hpp:77] Creating layer flatten
I1012 02:25:23.716699  7376 net.cpp:100] Creating Layer flatten
I1012 02:25:23.716702  7376 net.cpp:434] flatten <- pool
I1012 02:25:23.716706  7376 net.cpp:408] flatten -> flatten
I1012 02:25:23.716724  7376 net.cpp:150] Setting up flatten
I1012 02:25:23.716742  7376 net.cpp:157] Top shape: 64 10 (640)
I1012 02:25:23.716744  7376 net.cpp:165] Memory required for data: 90982144
I1012 02:25:23.716747  7376 layer_factory.hpp:77] Creating layer score
I1012 02:25:23.716763  7376 net.cpp:100] Creating Layer score
I1012 02:25:23.716764  7376 net.cpp:434] score <- flatten
I1012 02:25:23.716768  7376 net.cpp:408] score -> score
I1012 02:25:23.716902  7376 net.cpp:150] Setting up score
I1012 02:25:23.716907  7376 net.cpp:157] Top shape: 64 10 (640)
I1012 02:25:23.716908  7376 net.cpp:165] Memory required for data: 90984704
I1012 02:25:23.716912  7376 layer_factory.hpp:77] Creating layer score_score_0_split
I1012 02:25:23.716915  7376 net.cpp:100] Creating Layer score_score_0_split
I1012 02:25:23.716917  7376 net.cpp:434] score_score_0_split <- score
I1012 02:25:23.716922  7376 net.cpp:408] score_score_0_split -> score_score_0_split_0
I1012 02:25:23.716927  7376 net.cpp:408] score_score_0_split -> score_score_0_split_1
I1012 02:25:23.716980  7376 net.cpp:150] Setting up score_score_0_split
I1012 02:25:23.716985  7376 net.cpp:157] Top shape: 64 10 (640)
I1012 02:25:23.716987  7376 net.cpp:157] Top shape: 64 10 (640)
I1012 02:25:23.716989  7376 net.cpp:165] Memory required for data: 90989824
I1012 02:25:23.716991  7376 layer_factory.hpp:77] Creating layer accuracy
I1012 02:25:23.716995  7376 net.cpp:100] Creating Layer accuracy
I1012 02:25:23.716997  7376 net.cpp:434] accuracy <- score_score_0_split_0
I1012 02:25:23.717000  7376 net.cpp:434] accuracy <- label_data_1_split_0
I1012 02:25:23.717005  7376 net.cpp:408] accuracy -> accuracy
…
I1012 02:25:23.717581  7376 net.cpp:283] Network initialization done.
I1012 02:25:23.717762  7376 solver.cpp:181] Creating test net (#0) specified by test_net file: /home/adam/Honours/Honours-Project/cifar-10_allcnn/relu/allcnn_relu_test.prototxt
I1012 02:25:23.717926  7376 net.cpp:58] Initializing net from parameters: 
state {
  phase: TEST
}
layer {
  name: "data"
  type: "Data"
  top: "data"
  top: "label"
  transform_param {
    mean_file: "mean.binaryproto"
  }
  data_param {
    source: "../../../data/cifar-10/cifar10_test_lmdb"
    batch_size: 100
    backend: LMDB
  }
}
layer {
  name: "conv1"
  type: "Convolution"
  bottom: "data"
  top: "conv1"
  convolution_param {
    num_output: 96
    kernel_size: 3
    weight_filler {
      type: "xavier"
    }
  }
}
layer {
  name: "conv2"
  type: "Convolution"
  bottom: "conv1"
  top: "conv2"
  convolution_param {
    num_output: 96
    kernel_size: 3
    weight_filler {
      type: "xavier"
    }
  }
}
layer {
  name: "bn1"
  type: "BatchNorm"
  bottom: "conv2"
  top: "bn1"
}
layer {
  name: "conv3"
  type: "Convolution"
  bottom: "bn1"
  top: "conv3"
  convolution_param {
    num_output: 96
    kernel_size: 3
    stride: 2
    weight_filler {
      type: "xavier"
    }
  }
}
layer {
  name: "drop1"
  type: "Dropout"
  bottom: "conv3"
  top: "drop1"
  dropout_param {
    dropout_ratio: 0.5
  }
}
layer {
  name: "relu3"
  type: "ReLU"
  bottom: "drop1"
  top: "drop1"
}
layer {
  name: "conv4"
  type: "Convolution"
  bottom: "drop1"
  top: "conv4"
  convolution_param {
    num_output: 192
    kernel_size: 3
    weight_filler {
      type: "xavier"
    }
  }
}
layer {
  name: "conv5"
  type: "Convolution"
  bottom: "conv4"
  top: "conv5"
  convolution_param {
    num_output: 192
    kernel_size: 3
    weight_filler {
      type: "xavier"
    }
  }
}
layer {
  name: "bn2"
  type: "BatchNorm"
  bottom: "conv5"
  top: "bn2"
}
layer {
  name: "conv6"
  type: "Convolution"
  bottom: "bn2"
  top: "conv6"
  convolution_param {
    num_output: 192
    kernel_size: 3
    stride: 2
    weight_filler {
      type: "xavier"
    }
  }
}
layer {
  name: "drop4"
  type: "Dropout"
  bottom: "conv6"
  top: "drop4"
  dropout_param {
    dropout_ratio: 0.5
  }
}
layer {
  name: "relu6"
  type: "ReLU"
  bottom: "drop4"
  top: "drop4"
}
layer {
  name: "conv7"
  type: "Convolution"
  bottom: "drop4"
  top: "conv7"
  convolution_param {
    num_output: 192
    kernel_size: 3
    weight_filler {
      type: "xavier"
    }
  }
}
layer {
  name: "relu7"
  type: "ReLU"
  bottom: "conv7"
  top: "conv7"
}
layer {
  name: "conv8"
  type: "Convolution"
  bottom: "conv7"
  top: "conv8"
  convolution_param {
    num_output: 192
    kernel_size: 1
    weight_filler {
      type: "xavier"
    }
  }
}
layer {
  name: "relu8"
  type: "ReLU"
  bottom: "conv8"
  top: "conv8"
}
layer {
  name: "conv9"
  type: "Convolution"
  bottom: "conv8"
  top: "conv9"
  convolution_param {
    num_output: 10
    kernel_size: 1
    weight_filler {
      type: "xavier"
    }
  }
}
layer {
  name: "relu9"
  type: "ReLU"
  bottom: "conv9"
  top: "conv9"
}
layer {
  name: "pool"
  type: "Pooling"
  bottom: "conv9"
  top: "pool"
  pooling_param {
    pool: AVE
    global_pooling: true
  }
}
layer {
  name: "flatten"
  type: "Flatten"
  bottom: "pool"
  top: "flatten"
}
layer {
  name: "score"
  type: "InnerProduct"
  bottom: "flatten"
  top: "score"
  inner_product_param {
    num_output: 10
    weight_filler {
      type: "gaussian"
    }
  }
}
layer {
  name: "accuracy"
  type: "Accuracy"
  bottom: "score"
  bottom: "label"
  top: "accuracy"
}
layer {
  name: "loss"
  type: "SoftmaxWithLoss"
  bottom: "score"
  bottom: "label"
  top: "loss"
}
I1012 02:25:23.718027  7376 layer_factory.hpp:77] Creating layer data
I1012 02:25:23.718109  7376 net.cpp:100] Creating Layer data
I1012 02:25:23.718135  7376 net.cpp:408] data -> data
I1012 02:25:23.718142  7376 net.cpp:408] data -> label
I1012 02:25:23.718160  7376 data_transformer.cpp:25] Loading mean file from: mean.binaryproto
I1012 02:25:23.718842  7383 db_lmdb.cpp:35] Opened lmdb ../../../data/cifar-10/cifar10_test_lmdb
I1012 02:25:23.719024  7376 data_layer.cpp:41] output data size: 100,3,32,32
I1012 02:25:23.721012  7376 net.cpp:150] Setting up data
I1012 02:25:23.721035  7376 net.cpp:157] Top shape: 100 3 32 32 (307200)
I1012 02:25:23.721038  7376 net.cpp:157] Top shape: 100 (100)
I1012 02:25:23.721040  7376 net.cpp:165] Memory required for data: 1229200
I1012 02:25:23.721045  7376 layer_factory.hpp:77] Creating layer label_data_1_split
I1012 02:25:23.721070  7376 net.cpp:100] Creating Layer label_data_1_split
I1012 02:25:23.721072  7376 net.cpp:434] label_data_1_split <- label
I1012 02:25:23.721077  7376 net.cpp:408] label_data_1_split -> label_data_1_split_0
I1012 02:25:23.721086  7376 net.cpp:408] label_data_1_split -> label_data_1_split_1
I1012 02:25:23.721240  7376 net.cpp:150] Setting up label_data_1_split
I1012 02:25:23.721246  7376 net.cpp:157] Top shape: 100 (100)
I1012 02:25:23.721249  7376 net.cpp:157] Top shape: 100 (100)
I1012 02:25:23.721251  7376 net.cpp:165] Memory required for data: 1230000
I1012 02:25:23.721253  7376 layer_factory.hpp:77] Creating layer conv1
I1012 02:25:23.721276  7376 net.cpp:100] Creating Layer conv1
I1012 02:25:23.721279  7376 net.cpp:434] conv1 <- data
I1012 02:25:23.721284  7376 net.cpp:408] conv1 -> conv1
I1012 02:25:23.722457  7376 net.cpp:150] Setting up conv1
I1012 02:25:23.722483  7376 net.cpp:157] Top shape: 100 96 30 30 (8640000)
I1012 02:25:23.722486  7376 net.cpp:165] Memory required for data: 35790000
I1012 02:25:23.722493  7376 layer_factory.hpp:77] Creating layer conv2
I1012 02:25:23.722501  7376 net.cpp:100] Creating Layer conv2
I1012 02:25:23.722522  7376 net.cpp:434] conv2 <- conv1
I1012 02:25:23.722527  7376 net.cpp:408] conv2 -> conv2
I1012 02:25:23.723806  7376 net.cpp:150] Setting up conv2
I1012 02:25:23.723831  7376 net.cpp:157] Top shape: 100 96 28 28 (7526400)
I1012 02:25:23.723834  7376 net.cpp:165] Memory required for data: 65895600
I1012 02:25:23.723841  7376 layer_factory.hpp:77] Creating layer bn1
I1012 02:25:23.723847  7376 net.cpp:100] Creating Layer bn1
I1012 02:25:23.723850  7376 net.cpp:434] bn1 <- conv2
I1012 02:25:23.723855  7376 net.cpp:408] bn1 -> bn1
I1012 02:25:23.724055  7376 net.cpp:150] Setting up bn1
I1012 02:25:23.724059  7376 net.cpp:157] Top shape: 100 96 28 28 (7526400)
I1012 02:25:23.724076  7376 net.cpp:165] Memory required for data: 96001200
I1012 02:25:23.724083  7376 layer_factory.hpp:77] Creating layer conv3
I1012 02:25:23.724089  7376 net.cpp:100] Creating Layer conv3
I1012 02:25:23.724092  7376 net.cpp:434] conv3 <- bn1
I1012 02:25:23.724097  7376 net.cpp:408] conv3 -> conv3
I1012 02:25:23.725554  7376 net.cpp:150] Setting up conv3
I1012 02:25:23.725569  7376 net.cpp:157] Top shape: 100 96 13 13 (1622400)
I1012 02:25:23.725570  7376 net.cpp:165] Memory required for data: 102490800
I1012 02:25:23.725577  7376 layer_factory.hpp:77] Creating layer drop1
I1012 02:25:23.725584  7376 net.cpp:100] Creating Layer drop1
I1012 02:25:23.725589  7376 net.cpp:434] drop1 <- conv3
I1012 02:25:23.725594  7376 net.cpp:408] drop1 -> drop1
I1012 02:25:23.725630  7376 net.cpp:150] Setting up drop1
I1012 02:25:23.725636  7376 net.cpp:157] Top shape: 100 96 13 13 (1622400)
I1012 02:25:23.725638  7376 net.cpp:165] Memory required for data: 108980400
I1012 02:25:23.725641  7376 layer_factory.hpp:77] Creating layer relu3
I1012 02:25:23.725646  7376 net.cpp:100] Creating Layer relu3
I1012 02:25:23.725648  7376 net.cpp:434] relu3 <- drop1
I1012 02:25:23.725651  7376 net.cpp:395] relu3 -> drop1 (in-place)
I1012 02:25:23.725880  7376 net.cpp:150] Setting up relu3
I1012 02:25:23.725889  7376 net.cpp:157] Top shape: 100 96 13 13 (1622400)
I1012 02:25:23.725893  7376 net.cpp:165] Memory required for data: 115470000
I1012 02:25:23.725894  7376 layer_factory.hpp:77] Creating layer conv4
I1012 02:25:23.725903  7376 net.cpp:100] Creating Layer conv4
I1012 02:25:23.725906  7376 net.cpp:434] conv4 <- drop1
I1012 02:25:23.725910  7376 net.cpp:408] conv4 -> conv4
I1012 02:25:23.728961  7376 net.cpp:150] Setting up conv4
I1012 02:25:23.728977  7376 net.cpp:157] Top shape: 100 192 11 11 (2323200)
I1012 02:25:23.728979  7376 net.cpp:165] Memory required for data: 124762800
I1012 02:25:23.728984  7376 layer_factory.hpp:77] Creating layer conv5
I1012 02:25:23.729007  7376 net.cpp:100] Creating Layer conv5
I1012 02:25:23.729009  7376 net.cpp:434] conv5 <- conv4
I1012 02:25:23.729014  7376 net.cpp:408] conv5 -> conv5
I1012 02:25:23.731703  7376 net.cpp:150] Setting up conv5
I1012 02:25:23.731734  7376 net.cpp:157] Top shape: 100 192 9 9 (1555200)
I1012 02:25:23.731737  7376 net.cpp:165] Memory required for data: 130983600
I1012 02:25:23.731744  7376 layer_factory.hpp:77] Creating layer bn2
I1012 02:25:23.731748  7376 net.cpp:100] Creating Layer bn2
I1012 02:25:23.731751  7376 net.cpp:434] bn2 <- conv5
I1012 02:25:23.731756  7376 net.cpp:408] bn2 -> bn2
I1012 02:25:23.731964  7376 net.cpp:150] Setting up bn2
I1012 02:25:23.731984  7376 net.cpp:157] Top shape: 100 192 9 9 (1555200)
I1012 02:25:23.731986  7376 net.cpp:165] Memory required for data: 137204400
I1012 02:25:23.731992  7376 layer_factory.hpp:77] Creating layer conv6
I1012 02:25:23.731997  7376 net.cpp:100] Creating Layer conv6
I1012 02:25:23.732000  7376 net.cpp:434] conv6 <- bn2
I1012 02:25:23.732003  7376 net.cpp:408] conv6 -> conv6
I1012 02:25:23.734707  7376 net.cpp:150] Setting up conv6
I1012 02:25:23.734732  7376 net.cpp:157] Top shape: 100 192 4 4 (307200)
I1012 02:25:23.734735  7376 net.cpp:165] Memory required for data: 138433200
I1012 02:25:23.734743  7376 layer_factory.hpp:77] Creating layer drop4
I1012 02:25:23.734750  7376 net.cpp:100] Creating Layer drop4
I1012 02:25:23.734752  7376 net.cpp:434] drop4 <- conv6
I1012 02:25:23.734771  7376 net.cpp:408] drop4 -> drop4
I1012 02:25:23.734844  7376 net.cpp:150] Setting up drop4
I1012 02:25:23.734864  7376 net.cpp:157] Top shape: 100 192 4 4 (307200)
I1012 02:25:23.734866  7376 net.cpp:165] Memory required for data: 139662000
I1012 02:25:23.734869  7376 layer_factory.hpp:77] Creating layer relu6
I1012 02:25:23.734872  7376 net.cpp:100] Creating Layer relu6
I1012 02:25:23.734874  7376 net.cpp:434] relu6 <- drop4
I1012 02:25:23.734879  7376 net.cpp:395] relu6 -> drop4 (in-place)
I1012 02:25:23.735168  7376 net.cpp:150] Setting up relu6
I1012 02:25:23.735177  7376 net.cpp:157] Top shape: 100 192 4 4 (307200)
I1012 02:25:23.735178  7376 net.cpp:165] Memory required for data: 140890800
I1012 02:25:23.735182  7376 layer_factory.hpp:77] Creating layer conv7
I1012 02:25:23.735188  7376 net.cpp:100] Creating Layer conv7
I1012 02:25:23.735189  7376 net.cpp:434] conv7 <- drop4
I1012 02:25:23.735193  7376 net.cpp:408] conv7 -> conv7
I1012 02:25:23.737759  7376 net.cpp:150] Setting up conv7
I1012 02:25:23.737769  7376 net.cpp:157] Top shape: 100 192 2 2 (76800)
I1012 02:25:23.737772  7376 net.cpp:165] Memory required for data: 141198000
I1012 02:25:23.737776  7376 layer_factory.hpp:77] Creating layer relu7
I1012 02:25:23.737782  7376 net.cpp:100] Creating Layer relu7
I1012 02:25:23.737783  7376 net.cpp:434] relu7 <- conv7
I1012 02:25:23.737787  7376 net.cpp:395] relu7 -> conv7 (in-place)
I1012 02:25:23.738062  7376 net.cpp:150] Setting up relu7
I1012 02:25:23.738070  7376 net.cpp:157] Top shape: 100 192 2 2 (76800)
I1012 02:25:23.738073  7376 net.cpp:165] Memory required for data: 141505200
I1012 02:25:23.738076  7376 layer_factory.hpp:77] Creating layer conv8
I1012 02:25:23.738100  7376 net.cpp:100] Creating Layer conv8
I1012 02:25:23.738102  7376 net.cpp:434] conv8 <- conv7
I1012 02:25:23.738107  7376 net.cpp:408] conv8 -> conv8
I1012 02:25:23.739090  7376 net.cpp:150] Setting up conv8
I1012 02:25:23.739100  7376 net.cpp:157] Top shape: 100 192 2 2 (76800)
I1012 02:25:23.739102  7376 net.cpp:165] Memory required for data: 141812400
I1012 02:25:23.739106  7376 layer_factory.hpp:77] Creating layer relu8
I1012 02:25:23.739112  7376 net.cpp:100] Creating Layer relu8
I1012 02:25:23.739114  7376 net.cpp:434] relu8 <- conv8
I1012 02:25:23.739117  7376 net.cpp:395] relu8 -> conv8 (in-place)
I1012 02:25:23.739310  7376 net.cpp:150] Setting up relu8
I1012 02:25:23.739315  7376 net.cpp:157] Top shape: 100 192 2 2 (76800)
I1012 02:25:23.739317  7376 net.cpp:165] Memory required for data: 142119600
I1012 02:25:23.739320  7376 layer_factory.hpp:77] Creating layer conv9
I1012 02:25:23.739326  7376 net.cpp:100] Creating Layer conv9
I1012 02:25:23.739327  7376 net.cpp:434] conv9 <- conv8
I1012 02:25:23.739331  7376 net.cpp:408] conv9 -> conv9
I1012 02:25:23.740169  7376 net.cpp:150] Setting up conv9
I1012 02:25:23.740178  7376 net.cpp:157] Top shape: 100 10 2 2 (4000)
I1012 02:25:23.740180  7376 net.cpp:165] Memory required for data: 142135600
I1012 02:25:23.740185  7376 layer_factory.hpp:77] Creating layer relu9
I1012 02:25:23.740190  7376 net.cpp:100] Creating Layer relu9
I1012 02:25:23.740191  7376 net.cpp:434] relu9 <- conv9
I1012 02:25:23.740195  7376 net.cpp:395] relu9 -> conv9 (in-place)
I1012 02:25:23.740440  7376 net.cpp:150] Setting up relu9
I1012 02:25:23.740448  7376 net.cpp:157] Top shape: 100 10 2 2 (4000)
I1012 02:25:23.740450  7376 net.cpp:165] Memory required for data: 142151600
I1012 02:25:23.740453  7376 layer_factory.hpp:77] Creating layer pool
I1012 02:25:23.740458  7376 net.cpp:100] Creating Layer pool
I1012 02:25:23.740460  7376 net.cpp:434] pool <- conv9
I1012 02:25:23.740463  7376 net.cpp:408] pool -> pool
I1012 02:25:23.740686  7376 net.cpp:150] Setting up pool
I1012 02:25:23.740692  7376 net.cpp:157] Top shape: 100 10 1 1 (1000)
I1012 02:25:23.740694  7376 net.cpp:165] Memory required for data: 142155600
I1012 02:25:23.740696  7376 layer_factory.hpp:77] Creating layer flatten
I1012 02:25:23.740700  7376 net.cpp:100] Creating Layer flatten
I1012 02:25:23.740702  7376 net.cpp:434] flatten <- pool
I1012 02:25:23.740706  7376 net.cpp:408] flatten -> flatten
I1012 02:25:23.740741  7376 net.cpp:150] Setting up flatten
I1012 02:25:23.740746  7376 net.cpp:157] Top shape: 100 10 (1000)
I1012 02:25:23.740748  7376 net.cpp:165] Memory required for data: 142159600
I1012 02:25:23.740751  7376 layer_factory.hpp:77] Creating layer score
I1012 02:25:23.740756  7376 net.cpp:100] Creating Layer score
I1012 02:25:23.740758  7376 net.cpp:434] score <- flatten
I1012 02:25:23.740777  7376 net.cpp:408] score -> score
I1012 02:25:23.740924  7376 net.cpp:150] Setting up score
I1012 02:25:23.740929  7376 net.cpp:157] Top shape: 100 10 (1000)
I1012 02:25:23.740931  7376 net.cpp:165] Memory required for data: 142163600
I1012 02:25:23.740934  7376 layer_factory.hpp:77] Creating layer score_score_0_split
I1012 02:25:23.740938  7376 net.cpp:100] Creating Layer score_score_0_split
I1012 02:25:23.740941  7376 net.cpp:434] score_score_0_split <- score
I1012 02:25:23.740944  7376 net.cpp:408] score_score_0_split -> score_score_0_split_0
I1012 02:25:23.740948  7376 net.cpp:408] score_score_0_split -> score_score_0_split_1
I1012 02:25:23.740993  7376 net.cpp:150] Setting up score_score_0_split
I1012 02:25:23.741015  7376 net.cpp:157] Top shape: 100 10 (1000)
I1012 02:25:23.741019  7376 net.cpp:157] Top shape: 100 10 (1000)
I1012 02:25:23.741019  7376 net.cpp:165] Memory required for data: 142171600
I1012 02:25:23.741021  7376 layer_factory.hpp:77] Creating layer accuracy
I1012 02:25:23.741039  7376 net.cpp:100] Creating Layer accuracy
I1012 02:25:23.741041  7376 net.cpp:434] accuracy <- score_score_0_split_0
I1012 02:25:23.741044  7376 net.cpp:434] accuracy <- label_data_1_split_0
I1012 02:25:23.741050  7376 net.cpp:408] accuracy -> accuracy
…
