…
  stage: ""
}
type: "SGD"
I1011 20:18:45.176215  4818 solver.cpp:81] Creating training net from train_net file: /home/adam/Honours/Honours-Project/cifar-10_allcnn/relu/allcnn_relu_train.prototxt
I1011 20:18:45.176522  4818 net.cpp:58] Initializing net from parameters: 
state {
  phase: TRAIN
  level: 0
  stage: ""
}
layer {
  name: "data"
  type: "Data"
  top: "data"
  top: "label"
  transform_param {
    mean_file: "mean.binaryproto"
  }
  data_param {
    source: "../../../data/cifar-10/cifar10_train_lmdb"
    batch_size: 64
    backend: LMDB
  }
}
layer {
  name: "conv1"
  type: "Convolution"
  bottom: "data"
  top: "conv1"
  convolution_param {
    num_output: 96
    kernel_size: 3
    weight_filler {
      type: "xavier"
    }
  }
}
layer {
  name: "conv2"
  type: "Convolution"
  bottom: "conv1"
  top: "conv2"
  convolution_param {
    num_output: 96
    kernel_size: 3
    weight_filler {
      type: "xavier"
    }
  }
}
layer {
  name: "bn1"
  type: "BatchNorm"
  bottom: "conv2"
  top: "bn1"
}
layer {
  name: "conv3"
  type: "Convolution"
  bottom: "bn1"
  top: "conv3"
  convolution_param {
    num_output: 96
    kernel_size: 3
    stride: 2
    weight_filler {
      type: "xavier"
    }
  }
}
layer {
  name: "drop1"
  type: "Dropout"
  bottom: "conv3"
  top: "drop1"
  dropout_param {
    dropout_ratio: 0.5
  }
}
layer {
  name: "relu3"
  type: "ReLU"
  bottom: "drop1"
  top: "drop1"
}
layer {
  name: "conv4"
  type: "Convolution"
  bottom: "drop1"
  top: "conv4"
  convolution_param {
    num_output: 192
    kernel_size: 3
    weight_filler {
      type: "xavier"
    }
  }
}
layer {
  name: "conv5"
  type: "Convolution"
  bottom: "conv4"
  top: "conv5"
  convolution_param {
    num_output: 192
    kernel_size: 3
    weight_filler {
      type: "xavier"
    }
  }
}
layer {
  name: "bn2"
  type: "BatchNorm"
  bottom: "conv5"
  top: "bn2"
}
layer {
  name: "conv6"
  type: "Convolution"
  bottom: "bn2"
  top: "conv6"
  convolution_param {
    num_output: 192
    kernel_size: 3
    stride: 2
    weight_filler {
      type: "xavier"
    }
  }
}
layer {
  name: "drop4"
  type: "Dropout"
  bottom: "conv6"
  top: "drop4"
  dropout_param {
    dropout_ratio: 0.5
  }
}
layer {
  name: "relu6"
  type: "ReLU"
  bottom: "drop4"
  top: "drop4"
}
layer {
  name: "conv7"
  type: "Convolution"
  bottom: "drop4"
  top: "conv7"
  convolution_param {
    num_output: 192
    kernel_size: 3
    weight_filler {
      type: "xavier"
    }
  }
}
layer {
  name: "relu7"
  type: "ReLU"
  bottom: "conv7"
  top: "conv7"
}
layer {
  name: "conv8"
  type: "Convolution"
  bottom: "conv7"
  top: "conv8"
  convolution_param {
    num_output: 192
    kernel_size: 1
    weight_filler {
      type: "xavier"
    }
  }
}
layer {
  name: "relu8"
  type: "ReLU"
  bottom: "conv8"
  top: "conv8"
}
layer {
  name: "conv9"
  type: "Convolution"
  bottom: "conv8"
  top: "conv9"
  convolution_param {
    num_output: 10
    kernel_size: 1
    weight_filler {
      type: "xavier"
    }
  }
}
layer {
  name: "relu9"
  type: "ReLU"
  bottom: "conv9"
  top: "conv9"
}
layer {
  name: "pool"
  type: "Pooling"
  bottom: "conv9"
  top: "pool"
  pooling_param {
    pool: AVE
    global_pooling: true
  }
}
layer {
  name: "flatten"
  type: "Flatten"
  bottom: "pool"
  top: "flatten"
}
layer {
  name: "score"
  type: "InnerProduct"
  bottom: "flatten"
  top: "score"
  inner_product_param {
    num_output: 10
    weight_filler {
      type: "gaussian"
    }
  }
}
layer {
  name: "accuracy"
  type: "Accuracy"
  bottom: "score"
  bottom: "label"
  top: "accuracy"
}
layer {
  name: "loss"
  type: "SoftmaxWithLoss"
  bottom: "score"
  bottom: "label"
  top: "loss"
}
I1011 20:18:45.176658  4818 layer_factory.hpp:77] Creating layer data
I1011 20:18:45.177105  4818 net.cpp:100] Creating Layer data
I1011 20:18:45.177114  4818 net.cpp:408] data -> data
I1011 20:18:45.177144  4818 net.cpp:408] data -> label
I1011 20:18:45.177155  4818 data_transformer.cpp:25] Loading mean file from: mean.binaryproto
I1011 20:18:45.177798  4823 db_lmdb.cpp:35] Opened lmdb ../../../data/cifar-10/cifar10_train_lmdb
I1011 20:18:45.184121  4818 data_layer.cpp:41] output data size: 64,3,32,32
I1011 20:18:45.185644  4818 net.cpp:150] Setting up data
I1011 20:18:45.185658  4818 net.cpp:157] Top shape: 64 3 32 32 (196608)
I1011 20:18:45.185677  4818 net.cpp:157] Top shape: 64 (64)
I1011 20:18:45.185678  4818 net.cpp:165] Memory required for data: 786688
I1011 20:18:45.185686  4818 layer_factory.hpp:77] Creating layer label_data_1_split
I1011 20:18:45.185696  4818 net.cpp:100] Creating Layer label_data_1_split
I1011 20:18:45.185715  4818 net.cpp:434] label_data_1_split <- label
I1011 20:18:45.185740  4818 net.cpp:408] label_data_1_split -> label_data_1_split_0
I1011 20:18:45.185753  4818 net.cpp:408] label_data_1_split -> label_data_1_split_1
I1011 20:18:45.185866  4818 net.cpp:150] Setting up label_data_1_split
I1011 20:18:45.185873  4818 net.cpp:157] Top shape: 64 (64)
I1011 20:18:45.185889  4818 net.cpp:157] Top shape: 64 (64)
I1011 20:18:45.185891  4818 net.cpp:165] Memory required for data: 787200
I1011 20:18:45.185894  4818 layer_factory.hpp:77] Creating layer conv1
I1011 20:18:45.185905  4818 net.cpp:100] Creating Layer conv1
I1011 20:18:45.185909  4818 net.cpp:434] conv1 <- data
I1011 20:18:45.185928  4818 net.cpp:408] conv1 -> conv1
I1011 20:18:45.321280  4818 net.cpp:150] Setting up conv1
I1011 20:18:45.321305  4818 net.cpp:157] Top shape: 64 96 30 30 (5529600)
I1011 20:18:45.321308  4818 net.cpp:165] Memory required for data: 22905600
I1011 20:18:45.321326  4818 layer_factory.hpp:77] Creating layer conv2
I1011 20:18:45.321336  4818 net.cpp:100] Creating Layer conv2
I1011 20:18:45.321339  4818 net.cpp:434] conv2 <- conv1
I1011 20:18:45.321344  4818 net.cpp:408] conv2 -> conv2
I1011 20:18:45.322643  4818 net.cpp:150] Setting up conv2
I1011 20:18:45.322654  4818 net.cpp:157] Top shape: 64 96 28 28 (4816896)
I1011 20:18:45.322656  4818 net.cpp:165] Memory required for data: 42173184
I1011 20:18:45.322662  4818 layer_factory.hpp:77] Creating layer bn1
I1011 20:18:45.322669  4818 net.cpp:100] Creating Layer bn1
I1011 20:18:45.322670  4818 net.cpp:434] bn1 <- conv2
I1011 20:18:45.322674  4818 net.cpp:408] bn1 -> bn1
I1011 20:18:45.322844  4818 net.cpp:150] Setting up bn1
I1011 20:18:45.322849  4818 net.cpp:157] Top shape: 64 96 28 28 (4816896)
I1011 20:18:45.322850  4818 net.cpp:165] Memory required for data: 61440768
I1011 20:18:45.322856  4818 layer_factory.hpp:77] Creating layer conv3
I1011 20:18:45.322862  4818 net.cpp:100] Creating Layer conv3
I1011 20:18:45.322865  4818 net.cpp:434] conv3 <- bn1
I1011 20:18:45.322867  4818 net.cpp:408] conv3 -> conv3
I1011 20:18:45.324038  4818 net.cpp:150] Setting up conv3
I1011 20:18:45.324048  4818 net.cpp:157] Top shape: 64 96 13 13 (1038336)
I1011 20:18:45.324050  4818 net.cpp:165] Memory required for data: 65594112
I1011 20:18:45.324057  4818 layer_factory.hpp:77] Creating layer drop1
I1011 20:18:45.324061  4818 net.cpp:100] Creating Layer drop1
I1011 20:18:45.324064  4818 net.cpp:434] drop1 <- conv3
I1011 20:18:45.324067  4818 net.cpp:408] drop1 -> drop1
I1011 20:18:45.324115  4818 net.cpp:150] Setting up drop1
I1011 20:18:45.324133  4818 net.cpp:157] Top shape: 64 96 13 13 (1038336)
I1011 20:18:45.324136  4818 net.cpp:165] Memory required for data: 69747456
I1011 20:18:45.324136  4818 layer_factory.hpp:77] Creating layer relu3
I1011 20:18:45.324141  4818 net.cpp:100] Creating Layer relu3
I1011 20:18:45.324165  4818 net.cpp:434] relu3 <- drop1
I1011 20:18:45.324168  4818 net.cpp:395] relu3 -> drop1 (in-place)
I1011 20:18:45.324467  4818 net.cpp:150] Setting up relu3
I1011 20:18:45.324476  4818 net.cpp:157] Top shape: 64 96 13 13 (1038336)
I1011 20:18:45.324478  4818 net.cpp:165] Memory required for data: 73900800
I1011 20:18:45.324481  4818 layer_factory.hpp:77] Creating layer conv4
I1011 20:18:45.324487  4818 net.cpp:100] Creating Layer conv4
I1011 20:18:45.324489  4818 net.cpp:434] conv4 <- drop1
I1011 20:18:45.324494  4818 net.cpp:408] conv4 -> conv4
I1011 20:18:45.326345  4818 net.cpp:150] Setting up conv4
I1011 20:18:45.326356  4818 net.cpp:157] Top shape: 64 192 11 11 (1486848)
I1011 20:18:45.326359  4818 net.cpp:165] Memory required for data: 79848192
I1011 20:18:45.326378  4818 layer_factory.hpp:77] Creating layer conv5
I1011 20:18:45.326385  4818 net.cpp:100] Creating Layer conv5
I1011 20:18:45.326387  4818 net.cpp:434] conv5 <- conv4
I1011 20:18:45.326391  4818 net.cpp:408] conv5 -> conv5
I1011 20:18:45.328836  4818 net.cpp:150] Setting up conv5
I1011 20:18:45.328846  4818 net.cpp:157] Top shape: 64 192 9 9 (995328)
I1011 20:18:45.328850  4818 net.cpp:165] Memory required for data: 83829504
I1011 20:18:45.328853  4818 layer_factory.hpp:77] Creating layer bn2
I1011 20:18:45.328873  4818 net.cpp:100] Creating Layer bn2
I1011 20:18:45.328876  4818 net.cpp:434] bn2 <- conv5
I1011 20:18:45.328879  4818 net.cpp:408] bn2 -> bn2
I1011 20:18:45.329068  4818 net.cpp:150] Setting up bn2
I1011 20:18:45.329073  4818 net.cpp:157] Top shape: 64 192 9 9 (995328)
I1011 20:18:45.329076  4818 net.cpp:165] Memory required for data: 87810816
I1011 20:18:45.329079  4818 layer_factory.hpp:77] Creating layer conv6
I1011 20:18:45.329085  4818 net.cpp:100] Creating Layer conv6
I1011 20:18:45.329087  4818 net.cpp:434] conv6 <- bn2
I1011 20:18:45.329092  4818 net.cpp:408] conv6 -> conv6
I1011 20:18:45.331609  4818 net.cpp:150] Setting up conv6
I1011 20:18:45.331620  4818 net.cpp:157] Top shape: 64 192 4 4 (196608)
I1011 20:18:45.331624  4818 net.cpp:165] Memory required for data: 88597248
I1011 20:18:45.331630  4818 layer_factory.hpp:77] Creating layer drop4
I1011 20:18:45.331636  4818 net.cpp:100] Creating Layer drop4
I1011 20:18:45.331640  4818 net.cpp:434] drop4 <- conv6
I1011 20:18:45.331642  4818 net.cpp:408] drop4 -> drop4
I1011 20:18:45.331688  4818 net.cpp:150] Setting up drop4
I1011 20:18:45.331707  4818 net.cpp:157] Top shape: 64 192 4 4 (196608)
I1011 20:18:45.331709  4818 net.cpp:165] Memory required for data: 89383680
I1011 20:18:45.331712  4818 layer_factory.hpp:77] Creating layer relu6
I1011 20:18:45.331727  4818 net.cpp:100] Creating Layer relu6
I1011 20:18:45.331729  4818 net.cpp:434] relu6 <- drop4
I1011 20:18:45.331732  4818 net.cpp:395] relu6 -> drop4 (in-place)
I1011 20:18:45.332003  4818 net.cpp:150] Setting up relu6
I1011 20:18:45.332026  4818 net.cpp:157] Top shape: 64 192 4 4 (196608)
I1011 20:18:45.332028  4818 net.cpp:165] Memory required for data: 90170112
I1011 20:18:45.332031  4818 layer_factory.hpp:77] Creating layer conv7
I1011 20:18:45.332037  4818 net.cpp:100] Creating Layer conv7
I1011 20:18:45.332039  4818 net.cpp:434] conv7 <- drop4
I1011 20:18:45.332043  4818 net.cpp:408] conv7 -> conv7
I1011 20:18:45.335026  4818 net.cpp:150] Setting up conv7
I1011 20:18:45.335044  4818 net.cpp:157] Top shape: 64 192 2 2 (49152)
I1011 20:18:45.335047  4818 net.cpp:165] Memory required for data: 90366720
I1011 20:18:45.335052  4818 layer_factory.hpp:77] Creating layer relu7
I1011 20:18:45.335058  4818 net.cpp:100] Creating Layer relu7
I1011 20:18:45.335060  4818 net.cpp:434] relu7 <- conv7
I1011 20:18:45.335064  4818 net.cpp:395] relu7 -> conv7 (in-place)
I1011 20:18:45.335322  4818 net.cpp:150] Setting up relu7
I1011 20:18:45.335330  4818 net.cpp:157] Top shape: 64 192 2 2 (49152)
I1011 20:18:45.335332  4818 net.cpp:165] Memory required for data: 90563328
I1011 20:18:45.335335  4818 layer_factory.hpp:77] Creating layer conv8
I1011 20:18:45.335345  4818 net.cpp:100] Creating Layer conv8
I1011 20:18:45.335348  4818 net.cpp:434] conv8 <- conv7
I1011 20:18:45.335352  4818 net.cpp:408] conv8 -> conv8
I1011 20:18:45.336585  4818 net.cpp:150] Setting up conv8
I1011 20:18:45.336604  4818 net.cpp:157] Top shape: 64 192 2 2 (49152)
I1011 20:18:45.336606  4818 net.cpp:165] Memory required for data: 90759936
I1011 20:18:45.336611  4818 layer_factory.hpp:77] Creating layer relu8
I1011 20:18:45.336614  4818 net.cpp:100] Creating Layer relu8
I1011 20:18:45.336617  4818 net.cpp:434] relu8 <- conv8
I1011 20:18:45.336621  4818 net.cpp:395] relu8 -> conv8 (in-place)
I1011 20:18:45.336872  4818 net.cpp:150] Setting up relu8
I1011 20:18:45.336880  4818 net.cpp:157] Top shape: 64 192 2 2 (49152)
I1011 20:18:45.336882  4818 net.cpp:165] Memory required for data: 90956544
I1011 20:18:45.336884  4818 layer_factory.hpp:77] Creating layer conv9
I1011 20:18:45.336890  4818 net.cpp:100] Creating Layer conv9
I1011 20:18:45.336894  4818 net.cpp:434] conv9 <- conv8
I1011 20:18:45.336896  4818 net.cpp:408] conv9 -> conv9
I1011 20:18:45.337713  4818 net.cpp:150] Setting up conv9
I1011 20:18:45.337723  4818 net.cpp:157] Top shape: 64 10 2 2 (2560)
I1011 20:18:45.337724  4818 net.cpp:165] Memory required for data: 90966784
I1011 20:18:45.337728  4818 layer_factory.hpp:77] Creating layer relu9
I1011 20:18:45.337733  4818 net.cpp:100] Creating Layer relu9
I1011 20:18:45.337734  4818 net.cpp:434] relu9 <- conv9
I1011 20:18:45.337739  4818 net.cpp:395] relu9 -> conv9 (in-place)
I1011 20:18:45.337993  4818 net.cpp:150] Setting up relu9
I1011 20:18:45.338001  4818 net.cpp:157] Top shape: 64 10 2 2 (2560)
I1011 20:18:45.338003  4818 net.cpp:165] Memory required for data: 90977024
I1011 20:18:45.338006  4818 layer_factory.hpp:77] Creating layer pool
I1011 20:18:45.338011  4818 net.cpp:100] Creating Layer pool
I1011 20:18:45.338013  4818 net.cpp:434] pool <- conv9
I1011 20:18:45.338016  4818 net.cpp:408] pool -> pool
I1011 20:18:45.338213  4818 net.cpp:150] Setting up pool
I1011 20:18:45.338220  4818 net.cpp:157] Top shape: 64 10 1 1 (640)
I1011 20:18:45.338222  4818 net.cpp:165] Memory required for data: 90979584
I1011 20:18:45.338224  4818 layer_factory.hpp:77] Creating layer flatten
I1011 20:18:45.338228  4818 net.cpp:100] Creating Layer flatten
I1011 20:18:45.338230  4818 net.cpp:434] flatten <- pool
I1011 20:18:45.338234  4818 net.cpp:408] flatten -> flatten
I1011 20:18:45.338253  4818 net.cpp:150] Setting up flatten
I1011 20:18:45.338270  4818 net.cpp:157] Top shape: 64 10 (640)
I1011 20:18:45.338273  4818 net.cpp:165] Memory required for data: 90982144
I1011 20:18:45.338274  4818 layer_factory.hpp:77] Creating layer score
I1011 20:18:45.338292  4818 net.cpp:100] Creating Layer score
I1011 20:18:45.338294  4818 net.cpp:434] score <- flatten
I1011 20:18:45.338297  4818 net.cpp:408] score -> score
I1011 20:18:45.338431  4818 net.cpp:150] Setting up score
I1011 20:18:45.338436  4818 net.cpp:157] Top shape: 64 10 (640)
I1011 20:18:45.338438  4818 net.cpp:165] Memory required for data: 90984704
I1011 20:18:45.338443  4818 layer_factory.hpp:77] Creating layer score_score_0_split
I1011 20:18:45.338446  4818 net.cpp:100] Creating Layer score_score_0_split
I1011 20:18:45.338449  4818 net.cpp:434] score_score_0_split <- score
I1011 20:18:45.338451  4818 net.cpp:408] score_score_0_split -> score_score_0_split_0
I1011 20:18:45.338455  4818 net.cpp:408] score_score_0_split -> score_score_0_split_1
I1011 20:18:45.338496  4818 net.cpp:150] Setting up score_score_0_split
I1011 20:18:45.338516  4818 net.cpp:157] Top shape: 64 10 (640)
I1011 20:18:45.338518  4818 net.cpp:157] Top shape: 64 10 (640)
I1011 20:18:45.338521  4818 net.cpp:165] Memory required for data: 90989824
I1011 20:18:45.338522  4818 layer_factory.hpp:77] Creating layer accuracy
I1011 20:18:45.338543  4818 net.cpp:100] Creating Layer accuracy
I1011 20:18:45.338546  4818 net.cpp:434] accuracy <- score_score_0_split_0
I1011 20:18:45.338549  4818 net.cpp:434] accuracy <- label_data_1_split_0
I1011 20:18:45.338553  4818 net.cpp:408] accuracy -> accuracy
…
I1011 20:18:45.339226  4818 net.cpp:283] Network initialization done.
I1011 20:18:45.339433  4818 solver.cpp:181] Creating test net (#0) specified by test_net file: /home/adam/Honours/Honours-Project/cifar-10_allcnn/relu/allcnn_relu_test.prototxt
I1011 20:18:45.339560  4818 net.cpp:58] Initializing net from parameters: 
state {
  phase: TEST
}
layer {
  name: "data"
  type: "Data"
  top: "data"
  top: "label"
  transform_param {
    mean_file: "mean.binaryproto"
  }
  data_param {
    source: "../../../data/cifar-10/cifar10_test_lmdb"
    batch_size: 100
    backend: LMDB
  }
}
layer {
  name: "conv1"
  type: "Convolution"
  bottom: "data"
  top: "conv1"
  convolution_param {
    num_output: 96
    kernel_size: 3
    weight_filler {
      type: "xavier"
    }
  }
}
layer {
  name: "conv2"
  type: "Convolution"
  bottom: "conv1"
  top: "conv2"
  convolution_param {
    num_output: 96
    kernel_size: 3
    weight_filler {
      type: "xavier"
    }
  }
}
layer {
  name: "bn1"
  type: "BatchNorm"
  bottom: "conv2"
  top: "bn1"
}
layer {
  name: "conv3"
  type: "Convolution"
  bottom: "bn1"
  top: "conv3"
  convolution_param {
    num_output: 96
    kernel_size: 3
    stride: 2
    weight_filler {
      type: "xavier"
    }
  }
}
layer {
  name: "drop1"
  type: "Dropout"
  bottom: "conv3"
  top: "drop1"
  dropout_param {
    dropout_ratio: 0.5
  }
}
layer {
  name: "relu3"
  type: "ReLU"
  bottom: "drop1"
  top: "drop1"
}
layer {
  name: "conv4"
  type: "Convolution"
  bottom: "drop1"
  top: "conv4"
  convolution_param {
    num_output: 192
    kernel_size: 3
    weight_filler {
      type: "xavier"
    }
  }
}
layer {
  name: "conv5"
  type: "Convolution"
  bottom: "conv4"
  top: "conv5"
  convolution_param {
    num_output: 192
    kernel_size: 3
    weight_filler {
      type: "xavier"
    }
  }
}
layer {
  name: "bn2"
  type: "BatchNorm"
  bottom: "conv5"
  top: "bn2"
}
layer {
  name: "conv6"
  type: "Convolution"
  bottom: "bn2"
  top: "conv6"
  convolution_param {
    num_output: 192
    kernel_size: 3
    stride: 2
    weight_filler {
      type: "xavier"
    }
  }
}
layer {
  name: "drop4"
  type: "Dropout"
  bottom: "conv6"
  top: "drop4"
  dropout_param {
    dropout_ratio: 0.5
  }
}
layer {
  name: "relu6"
  type: "ReLU"
  bottom: "drop4"
  top: "drop4"
}
layer {
  name: "conv7"
  type: "Convolution"
  bottom: "drop4"
  top: "conv7"
  convolution_param {
    num_output: 192
    kernel_size: 3
    weight_filler {
      type: "xavier"
    }
  }
}
layer {
  name: "relu7"
  type: "ReLU"
  bottom: "conv7"
  top: "conv7"
}
layer {
  name: "conv8"
  type: "Convolution"
  bottom: "conv7"
  top: "conv8"
  convolution_param {
    num_output: 192
    kernel_size: 1
    weight_filler {
      type: "xavier"
    }
  }
}
layer {
  name: "relu8"
  type: "ReLU"
  bottom: "conv8"
  top: "conv8"
}
layer {
  name: "conv9"
  type: "Convolution"
  bottom: "conv8"
  top: "conv9"
  convolution_param {
    num_output: 10
    kernel_size: 1
    weight_filler {
      type: "xavier"
    }
  }
}
layer {
  name: "relu9"
  type: "ReLU"
  bottom: "conv9"
  top: "conv9"
}
layer {
  name: "pool"
  type: "Pooling"
  bottom: "conv9"
  top: "pool"
  pooling_param {
    pool: AVE
    global_pooling: true
  }
}
layer {
  name: "flatten"
  type: "Flatten"
  bottom: "pool"
  top: "flatten"
}
layer {
  name: "score"
  type: "InnerProduct"
  bottom: "flatten"
  top: "score"
  inner_product_param {
    num_output: 10
    weight_filler {
      type: "gaussian"
    }
  }
}
layer {
  name: "accuracy"
  type: "Accuracy"
  bottom: "score"
  bottom: "label"
  top: "accuracy"
}
layer {
  name: "loss"
  type: "SoftmaxWithLoss"
  bottom: "score"
  bottom: "label"
  top: "loss"
}
I1011 20:18:45.339660  4818 layer_factory.hpp:77] Creating layer data
I1011 20:18:45.339839  4818 net.cpp:100] Creating Layer data
I1011 20:18:45.339846  4818 net.cpp:408] data -> data
I1011 20:18:45.339859  4818 net.cpp:408] data -> label
I1011 20:18:45.339866  4818 data_transformer.cpp:25] Loading mean file from: mean.binaryproto
I1011 20:18:45.340576  4825 db_lmdb.cpp:35] Opened lmdb ../../../data/cifar-10/cifar10_test_lmdb
I1011 20:18:45.340729  4818 data_layer.cpp:41] output data size: 100,3,32,32
I1011 20:18:45.342679  4818 net.cpp:150] Setting up data
I1011 20:18:45.342696  4818 net.cpp:157] Top shape: 100 3 32 32 (307200)
I1011 20:18:45.342722  4818 net.cpp:157] Top shape: 100 (100)
I1011 20:18:45.342725  4818 net.cpp:165] Memory required for data: 1229200
I1011 20:18:45.342728  4818 layer_factory.hpp:77] Creating layer label_data_1_split
I1011 20:18:45.342737  4818 net.cpp:100] Creating Layer label_data_1_split
I1011 20:18:45.342741  4818 net.cpp:434] label_data_1_split <- label
I1011 20:18:45.342746  4818 net.cpp:408] label_data_1_split -> label_data_1_split_0
I1011 20:18:45.342768  4818 net.cpp:408] label_data_1_split -> label_data_1_split_1
I1011 20:18:45.342895  4818 net.cpp:150] Setting up label_data_1_split
I1011 20:18:45.342900  4818 net.cpp:157] Top shape: 100 (100)
I1011 20:18:45.342901  4818 net.cpp:157] Top shape: 100 (100)
I1011 20:18:45.342903  4818 net.cpp:165] Memory required for data: 1230000
I1011 20:18:45.342905  4818 layer_factory.hpp:77] Creating layer conv1
I1011 20:18:45.342936  4818 net.cpp:100] Creating Layer conv1
I1011 20:18:45.342938  4818 net.cpp:434] conv1 <- data
I1011 20:18:45.342942  4818 net.cpp:408] conv1 -> conv1
I1011 20:18:45.344054  4818 net.cpp:150] Setting up conv1
I1011 20:18:45.344079  4818 net.cpp:157] Top shape: 100 96 30 30 (8640000)
I1011 20:18:45.344082  4818 net.cpp:165] Memory required for data: 35790000
I1011 20:18:45.344105  4818 layer_factory.hpp:77] Creating layer conv2
I1011 20:18:45.344111  4818 net.cpp:100] Creating Layer conv2
I1011 20:18:45.344115  4818 net.cpp:434] conv2 <- conv1
I1011 20:18:45.344120  4818 net.cpp:408] conv2 -> conv2
I1011 20:18:45.345362  4818 net.cpp:150] Setting up conv2
I1011 20:18:45.345386  4818 net.cpp:157] Top shape: 100 96 28 28 (7526400)
I1011 20:18:45.345389  4818 net.cpp:165] Memory required for data: 65895600
I1011 20:18:45.345396  4818 layer_factory.hpp:77] Creating layer bn1
I1011 20:18:45.345415  4818 net.cpp:100] Creating Layer bn1
I1011 20:18:45.345417  4818 net.cpp:434] bn1 <- conv2
I1011 20:18:45.345422  4818 net.cpp:408] bn1 -> bn1
I1011 20:18:45.345608  4818 net.cpp:150] Setting up bn1
I1011 20:18:45.345615  4818 net.cpp:157] Top shape: 100 96 28 28 (7526400)
I1011 20:18:45.345633  4818 net.cpp:165] Memory required for data: 96001200
I1011 20:18:45.345639  4818 layer_factory.hpp:77] Creating layer conv3
I1011 20:18:45.345646  4818 net.cpp:100] Creating Layer conv3
I1011 20:18:45.345651  4818 net.cpp:434] conv3 <- bn1
I1011 20:18:45.345654  4818 net.cpp:408] conv3 -> conv3
I1011 20:18:45.347033  4818 net.cpp:150] Setting up conv3
I1011 20:18:45.347056  4818 net.cpp:157] Top shape: 100 96 13 13 (1622400)
I1011 20:18:45.347059  4818 net.cpp:165] Memory required for data: 102490800
I1011 20:18:45.347066  4818 layer_factory.hpp:77] Creating layer drop1
I1011 20:18:45.347072  4818 net.cpp:100] Creating Layer drop1
I1011 20:18:45.347076  4818 net.cpp:434] drop1 <- conv3
I1011 20:18:45.347093  4818 net.cpp:408] drop1 -> drop1
I1011 20:18:45.347129  4818 net.cpp:150] Setting up drop1
I1011 20:18:45.347134  4818 net.cpp:157] Top shape: 100 96 13 13 (1622400)
I1011 20:18:45.347136  4818 net.cpp:165] Memory required for data: 108980400
I1011 20:18:45.347138  4818 layer_factory.hpp:77] Creating layer relu3
I1011 20:18:45.347142  4818 net.cpp:100] Creating Layer relu3
I1011 20:18:45.347144  4818 net.cpp:434] relu3 <- drop1
I1011 20:18:45.347162  4818 net.cpp:395] relu3 -> drop1 (in-place)
I1011 20:18:45.347424  4818 net.cpp:150] Setting up relu3
I1011 20:18:45.347445  4818 net.cpp:157] Top shape: 100 96 13 13 (1622400)
I1011 20:18:45.347448  4818 net.cpp:165] Memory required for data: 115470000
I1011 20:18:45.347450  4818 layer_factory.hpp:77] Creating layer conv4
I1011 20:18:45.347458  4818 net.cpp:100] Creating Layer conv4
I1011 20:18:45.347461  4818 net.cpp:434] conv4 <- drop1
I1011 20:18:45.347465  4818 net.cpp:408] conv4 -> conv4
I1011 20:18:45.349669  4818 net.cpp:150] Setting up conv4
I1011 20:18:45.349684  4818 net.cpp:157] Top shape: 100 192 11 11 (2323200)
I1011 20:18:45.349689  4818 net.cpp:165] Memory required for data: 124762800
I1011 20:18:45.349694  4818 layer_factory.hpp:77] Creating layer conv5
I1011 20:18:45.349701  4818 net.cpp:100] Creating Layer conv5
I1011 20:18:45.349719  4818 net.cpp:434] conv5 <- conv4
I1011 20:18:45.349723  4818 net.cpp:408] conv5 -> conv5
I1011 20:18:45.352390  4818 net.cpp:150] Setting up conv5
I1011 20:18:45.352404  4818 net.cpp:157] Top shape: 100 192 9 9 (1555200)
I1011 20:18:45.352419  4818 net.cpp:165] Memory required for data: 130983600
I1011 20:18:45.352424  4818 layer_factory.hpp:77] Creating layer bn2
I1011 20:18:45.352447  4818 net.cpp:100] Creating Layer bn2
I1011 20:18:45.352449  4818 net.cpp:434] bn2 <- conv5
I1011 20:18:45.352453  4818 net.cpp:408] bn2 -> bn2
I1011 20:18:45.352649  4818 net.cpp:150] Setting up bn2
I1011 20:18:45.352654  4818 net.cpp:157] Top shape: 100 192 9 9 (1555200)
I1011 20:18:45.352656  4818 net.cpp:165] Memory required for data: 137204400
I1011 20:18:45.352660  4818 layer_factory.hpp:77] Creating layer conv6
I1011 20:18:45.352668  4818 net.cpp:100] Creating Layer conv6
I1011 20:18:45.352669  4818 net.cpp:434] conv6 <- bn2
I1011 20:18:45.352674  4818 net.cpp:408] conv6 -> conv6
I1011 20:18:45.355321  4818 net.cpp:150] Setting up conv6
I1011 20:18:45.355345  4818 net.cpp:157] Top shape: 100 192 4 4 (307200)
I1011 20:18:45.355348  4818 net.cpp:165] Memory required for data: 138433200
I1011 20:18:45.355357  4818 layer_factory.hpp:77] Creating layer drop4
I1011 20:18:45.355363  4818 net.cpp:100] Creating Layer drop4
I1011 20:18:45.355366  4818 net.cpp:434] drop4 <- conv6
I1011 20:18:45.355386  4818 net.cpp:408] drop4 -> drop4
I1011 20:18:45.355458  4818 net.cpp:150] Setting up drop4
I1011 20:18:45.355474  4818 net.cpp:157] Top shape: 100 192 4 4 (307200)
I1011 20:18:45.355476  4818 net.cpp:165] Memory required for data: 139662000
I1011 20:18:45.355479  4818 layer_factory.hpp:77] Creating layer relu6
I1011 20:18:45.355482  4818 net.cpp:100] Creating Layer relu6
I1011 20:18:45.355485  4818 net.cpp:434] relu6 <- drop4
I1011 20:18:45.355487  4818 net.cpp:395] relu6 -> drop4 (in-place)
I1011 20:18:45.355751  4818 net.cpp:150] Setting up relu6
I1011 20:18:45.355758  4818 net.cpp:157] Top shape: 100 192 4 4 (307200)
I1011 20:18:45.355762  4818 net.cpp:165] Memory required for data: 140890800
I1011 20:18:45.355763  4818 layer_factory.hpp:77] Creating layer conv7
I1011 20:18:45.355769  4818 net.cpp:100] Creating Layer conv7
I1011 20:18:45.355772  4818 net.cpp:434] conv7 <- drop4
I1011 20:18:45.355777  4818 net.cpp:408] conv7 -> conv7
I1011 20:18:45.358402  4818 net.cpp:150] Setting up conv7
I1011 20:18:45.358412  4818 net.cpp:157] Top shape: 100 192 2 2 (76800)
I1011 20:18:45.358415  4818 net.cpp:165] Memory required for data: 141198000
I1011 20:18:45.358419  4818 layer_factory.hpp:77] Creating layer relu7
I1011 20:18:45.358423  4818 net.cpp:100] Creating Layer relu7
I1011 20:18:45.358425  4818 net.cpp:434] relu7 <- conv7
I1011 20:18:45.358428  4818 net.cpp:395] relu7 -> conv7 (in-place)
I1011 20:18:45.358701  4818 net.cpp:150] Setting up relu7
I1011 20:18:45.358710  4818 net.cpp:157] Top shape: 100 192 2 2 (76800)
I1011 20:18:45.358711  4818 net.cpp:165] Memory required for data: 141505200
I1011 20:18:45.358713  4818 layer_factory.hpp:77] Creating layer conv8
I1011 20:18:45.358722  4818 net.cpp:100] Creating Layer conv8
I1011 20:18:45.358726  4818 net.cpp:434] conv8 <- conv7
I1011 20:18:45.358729  4818 net.cpp:408] conv8 -> conv8
I1011 20:18:45.359721  4818 net.cpp:150] Setting up conv8
I1011 20:18:45.359730  4818 net.cpp:157] Top shape: 100 192 2 2 (76800)
I1011 20:18:45.359732  4818 net.cpp:165] Memory required for data: 141812400
I1011 20:18:45.359737  4818 layer_factory.hpp:77] Creating layer relu8
I1011 20:18:45.359741  4818 net.cpp:100] Creating Layer relu8
I1011 20:18:45.359743  4818 net.cpp:434] relu8 <- conv8
I1011 20:18:45.359746  4818 net.cpp:395] relu8 -> conv8 (in-place)
I1011 20:18:45.359918  4818 net.cpp:150] Setting up relu8
I1011 20:18:45.359925  4818 net.cpp:157] Top shape: 100 192 2 2 (76800)
I1011 20:18:45.359927  4818 net.cpp:165] Memory required for data: 142119600
I1011 20:18:45.359930  4818 layer_factory.hpp:77] Creating layer conv9
I1011 20:18:45.359935  4818 net.cpp:100] Creating Layer conv9
I1011 20:18:45.359937  4818 net.cpp:434] conv9 <- conv8
I1011 20:18:45.359941  4818 net.cpp:408] conv9 -> conv9
I1011 20:18:45.360787  4818 net.cpp:150] Setting up conv9
I1011 20:18:45.360796  4818 net.cpp:157] Top shape: 100 10 2 2 (4000)
I1011 20:18:45.360798  4818 net.cpp:165] Memory required for data: 142135600
I1011 20:18:45.360803  4818 layer_factory.hpp:77] Creating layer relu9
I1011 20:18:45.360806  4818 net.cpp:100] Creating Layer relu9
I1011 20:18:45.360808  4818 net.cpp:434] relu9 <- conv9
I1011 20:18:45.360813  4818 net.cpp:395] relu9 -> conv9 (in-place)
I1011 20:18:45.361075  4818 net.cpp:150] Setting up relu9
I1011 20:18:45.361083  4818 net.cpp:157] Top shape: 100 10 2 2 (4000)
I1011 20:18:45.361085  4818 net.cpp:165] Memory required for data: 142151600
I1011 20:18:45.361088  4818 layer_factory.hpp:77] Creating layer pool
I1011 20:18:45.361093  4818 net.cpp:100] Creating Layer pool
I1011 20:18:45.361094  4818 net.cpp:434] pool <- conv9
I1011 20:18:45.361099  4818 net.cpp:408] pool -> pool
I1011 20:18:45.361295  4818 net.cpp:150] Setting up pool
I1011 20:18:45.361304  4818 net.cpp:157] Top shape: 100 10 1 1 (1000)
I1011 20:18:45.361305  4818 net.cpp:165] Memory required for data: 142155600
I1011 20:18:45.361307  4818 layer_factory.hpp:77] Creating layer flatten
I1011 20:18:45.361311  4818 net.cpp:100] Creating Layer flatten
I1011 20:18:45.361313  4818 net.cpp:434] flatten <- pool
I1011 20:18:45.361316  4818 net.cpp:408] flatten -> flatten
I1011 20:18:45.361352  4818 net.cpp:150] Setting up flatten
I1011 20:18:45.361356  4818 net.cpp:157] Top shape: 100 10 (1000)
I1011 20:18:45.361358  4818 net.cpp:165] Memory required for data: 142159600
I1011 20:18:45.361373  4818 layer_factory.hpp:77] Creating layer score
I1011 20:18:45.361378  4818 net.cpp:100] Creating Layer score
I1011 20:18:45.361380  4818 net.cpp:434] score <- flatten
I1011 20:18:45.361397  4818 net.cpp:408] score -> score
I1011 20:18:45.361544  4818 net.cpp:150] Setting up score
I1011 20:18:45.361549  4818 net.cpp:157] Top shape: 100 10 (1000)
I1011 20:18:45.361551  4818 net.cpp:165] Memory required for data: 142163600
I1011 20:18:45.361554  4818 layer_factory.hpp:77] Creating layer score_score_0_split
I1011 20:18:45.361559  4818 net.cpp:100] Creating Layer score_score_0_split
I1011 20:18:45.361562  4818 net.cpp:434] score_score_0_split <- score
I1011 20:18:45.361564  4818 net.cpp:408] score_score_0_split -> score_score_0_split_0
I1011 20:18:45.361569  4818 net.cpp:408] score_score_0_split -> score_score_0_split_1
I1011 20:18:45.361626  4818 net.cpp:150] Setting up score_score_0_split
I1011 20:18:45.361630  4818 net.cpp:157] Top shape: 100 10 (1000)
I1011 20:18:45.361652  4818 net.cpp:157] Top shape: 100 10 (1000)
I1011 20:18:45.361654  4818 net.cpp:165] Memory required for data: 142171600
I1011 20:18:45.361656  4818 layer_factory.hpp:77] Creating layer accuracy
I1011 20:18:45.361660  4818 net.cpp:100] Creating Layer accuracy
I1011 20:18:45.361662  4818 net.cpp:434] accuracy <- score_score_0_split_0
I1011 20:18:45.361680  4818 net.cpp:434] accuracy <- label_data_1_split_0
I1011 20:18:45.361685  4818 net.cpp:408] accuracy -> accuracy
…
