…
  stage: ""
}
type: "Adam"
I1012 00:35:44.078758  6753 solver.cpp:81] Creating training net from train_net file: /home/adam/Honours/Honours-Project/cifar-10_allcnn/relu/allcnn_relu_train.prototxt
I1012 00:35:44.079072  6753 net.cpp:58] Initializing net from parameters: 
state {
  phase: TRAIN
  level: 0
  stage: ""
}
layer {
  name: "data"
  type: "Data"
  top: "data"
  top: "label"
  transform_param {
    mean_file: "mean.binaryproto"
  }
  data_param {
    source: "../../../data/cifar-10/cifar10_train_lmdb"
    batch_size: 64
    backend: LMDB
  }
}
layer {
  name: "conv1"
  type: "Convolution"
  bottom: "data"
  top: "conv1"
  convolution_param {
    num_output: 96
    kernel_size: 3
    weight_filler {
      type: "xavier"
    }
  }
}
layer {
  name: "conv2"
  type: "Convolution"
  bottom: "conv1"
  top: "conv2"
  convolution_param {
    num_output: 96
    kernel_size: 3
    weight_filler {
      type: "xavier"
    }
  }
}
layer {
  name: "bn1"
  type: "BatchNorm"
  bottom: "conv2"
  top: "bn1"
}
layer {
  name: "conv3"
  type: "Convolution"
  bottom: "bn1"
  top: "conv3"
  convolution_param {
    num_output: 96
    kernel_size: 3
    stride: 2
    weight_filler {
      type: "xavier"
    }
  }
}
layer {
  name: "drop1"
  type: "Dropout"
  bottom: "conv3"
  top: "drop1"
  dropout_param {
    dropout_ratio: 0.5
  }
}
layer {
  name: "relu3"
  type: "ReLU"
  bottom: "drop1"
  top: "drop1"
}
layer {
  name: "conv4"
  type: "Convolution"
  bottom: "drop1"
  top: "conv4"
  convolution_param {
    num_output: 192
    kernel_size: 3
    weight_filler {
      type: "xavier"
    }
  }
}
layer {
  name: "conv5"
  type: "Convolution"
  bottom: "conv4"
  top: "conv5"
  convolution_param {
    num_output: 192
    kernel_size: 3
    weight_filler {
      type: "xavier"
    }
  }
}
layer {
  name: "bn2"
  type: "BatchNorm"
  bottom: "conv5"
  top: "bn2"
}
layer {
  name: "conv6"
  type: "Convolution"
  bottom: "bn2"
  top: "conv6"
  convolution_param {
    num_output: 192
    kernel_size: 3
    stride: 2
    weight_filler {
      type: "xavier"
    }
  }
}
layer {
  name: "drop4"
  type: "Dropout"
  bottom: "conv6"
  top: "drop4"
  dropout_param {
    dropout_ratio: 0.5
  }
}
layer {
  name: "relu6"
  type: "ReLU"
  bottom: "drop4"
  top: "drop4"
}
layer {
  name: "conv7"
  type: "Convolution"
  bottom: "drop4"
  top: "conv7"
  convolution_param {
    num_output: 192
    kernel_size: 3
    weight_filler {
      type: "xavier"
    }
  }
}
layer {
  name: "relu7"
  type: "ReLU"
  bottom: "conv7"
  top: "conv7"
}
layer {
  name: "conv8"
  type: "Convolution"
  bottom: "conv7"
  top: "conv8"
  convolution_param {
    num_output: 192
    kernel_size: 1
    weight_filler {
      type: "xavier"
    }
  }
}
layer {
  name: "relu8"
  type: "ReLU"
  bottom: "conv8"
  top: "conv8"
}
layer {
  name: "conv9"
  type: "Convolution"
  bottom: "conv8"
  top: "conv9"
  convolution_param {
    num_output: 10
    kernel_size: 1
    weight_filler {
      type: "xavier"
    }
  }
}
layer {
  name: "relu9"
  type: "ReLU"
  bottom: "conv9"
  top: "conv9"
}
layer {
  name: "pool"
  type: "Pooling"
  bottom: "conv9"
  top: "pool"
  pooling_param {
    pool: AVE
    global_pooling: true
  }
}
layer {
  name: "flatten"
  type: "Flatten"
  bottom: "pool"
  top: "flatten"
}
layer {
  name: "score"
  type: "InnerProduct"
  bottom: "flatten"
  top: "score"
  inner_product_param {
    num_output: 10
    weight_filler {
      type: "gaussian"
    }
  }
}
layer {
  name: "accuracy"
  type: "Accuracy"
  bottom: "score"
  bottom: "label"
  top: "accuracy"
}
layer {
  name: "loss"
  type: "SoftmaxWithLoss"
  bottom: "score"
  bottom: "label"
  top: "loss"
}
I1012 00:35:44.079210  6753 layer_factory.hpp:77] Creating layer data
I1012 00:35:44.079679  6753 net.cpp:100] Creating Layer data
I1012 00:35:44.079687  6753 net.cpp:408] data -> data
I1012 00:35:44.079725  6753 net.cpp:408] data -> label
I1012 00:35:44.079735  6753 data_transformer.cpp:25] Loading mean file from: mean.binaryproto
I1012 00:35:44.080443  6758 db_lmdb.cpp:35] Opened lmdb ../../../data/cifar-10/cifar10_train_lmdb
I1012 00:35:44.086719  6753 data_layer.cpp:41] output data size: 64,3,32,32
I1012 00:35:44.088223  6753 net.cpp:150] Setting up data
I1012 00:35:44.088238  6753 net.cpp:157] Top shape: 64 3 32 32 (196608)
I1012 00:35:44.088240  6753 net.cpp:157] Top shape: 64 (64)
I1012 00:35:44.088243  6753 net.cpp:165] Memory required for data: 786688
I1012 00:35:44.088273  6753 layer_factory.hpp:77] Creating layer label_data_1_split
I1012 00:35:44.088281  6753 net.cpp:100] Creating Layer label_data_1_split
I1012 00:35:44.088285  6753 net.cpp:434] label_data_1_split <- label
I1012 00:35:44.088311  6753 net.cpp:408] label_data_1_split -> label_data_1_split_0
I1012 00:35:44.088335  6753 net.cpp:408] label_data_1_split -> label_data_1_split_1
I1012 00:35:44.088371  6753 net.cpp:150] Setting up label_data_1_split
I1012 00:35:44.088387  6753 net.cpp:157] Top shape: 64 (64)
I1012 00:35:44.088389  6753 net.cpp:157] Top shape: 64 (64)
I1012 00:35:44.088392  6753 net.cpp:165] Memory required for data: 787200
I1012 00:35:44.088393  6753 layer_factory.hpp:77] Creating layer conv1
I1012 00:35:44.088433  6753 net.cpp:100] Creating Layer conv1
I1012 00:35:44.088436  6753 net.cpp:434] conv1 <- data
I1012 00:35:44.088441  6753 net.cpp:408] conv1 -> conv1
I1012 00:35:44.225024  6753 net.cpp:150] Setting up conv1
I1012 00:35:44.225045  6753 net.cpp:157] Top shape: 64 96 30 30 (5529600)
I1012 00:35:44.225049  6753 net.cpp:165] Memory required for data: 22905600
I1012 00:35:44.225065  6753 layer_factory.hpp:77] Creating layer conv2
I1012 00:35:44.225076  6753 net.cpp:100] Creating Layer conv2
I1012 00:35:44.225078  6753 net.cpp:434] conv2 <- conv1
I1012 00:35:44.225097  6753 net.cpp:408] conv2 -> conv2
I1012 00:35:44.226461  6753 net.cpp:150] Setting up conv2
I1012 00:35:44.226474  6753 net.cpp:157] Top shape: 64 96 28 28 (4816896)
I1012 00:35:44.226475  6753 net.cpp:165] Memory required for data: 42173184
I1012 00:35:44.226481  6753 layer_factory.hpp:77] Creating layer bn1
I1012 00:35:44.226487  6753 net.cpp:100] Creating Layer bn1
I1012 00:35:44.226490  6753 net.cpp:434] bn1 <- conv2
I1012 00:35:44.226492  6753 net.cpp:408] bn1 -> bn1
I1012 00:35:44.226686  6753 net.cpp:150] Setting up bn1
I1012 00:35:44.226691  6753 net.cpp:157] Top shape: 64 96 28 28 (4816896)
I1012 00:35:44.226693  6753 net.cpp:165] Memory required for data: 61440768
I1012 00:35:44.226701  6753 layer_factory.hpp:77] Creating layer conv3
I1012 00:35:44.226706  6753 net.cpp:100] Creating Layer conv3
I1012 00:35:44.226708  6753 net.cpp:434] conv3 <- bn1
I1012 00:35:44.226712  6753 net.cpp:408] conv3 -> conv3
I1012 00:35:44.227913  6753 net.cpp:150] Setting up conv3
I1012 00:35:44.227923  6753 net.cpp:157] Top shape: 64 96 13 13 (1038336)
I1012 00:35:44.227926  6753 net.cpp:165] Memory required for data: 65594112
I1012 00:35:44.227932  6753 layer_factory.hpp:77] Creating layer drop1
I1012 00:35:44.227936  6753 net.cpp:100] Creating Layer drop1
I1012 00:35:44.227938  6753 net.cpp:434] drop1 <- conv3
I1012 00:35:44.227943  6753 net.cpp:408] drop1 -> drop1
I1012 00:35:44.228005  6753 net.cpp:150] Setting up drop1
I1012 00:35:44.228010  6753 net.cpp:157] Top shape: 64 96 13 13 (1038336)
I1012 00:35:44.228025  6753 net.cpp:165] Memory required for data: 69747456
I1012 00:35:44.228027  6753 layer_factory.hpp:77] Creating layer relu3
I1012 00:35:44.228030  6753 net.cpp:100] Creating Layer relu3
I1012 00:35:44.228032  6753 net.cpp:434] relu3 <- drop1
I1012 00:35:44.228049  6753 net.cpp:395] relu3 -> drop1 (in-place)
I1012 00:35:44.228363  6753 net.cpp:150] Setting up relu3
I1012 00:35:44.228370  6753 net.cpp:157] Top shape: 64 96 13 13 (1038336)
I1012 00:35:44.228373  6753 net.cpp:165] Memory required for data: 73900800
I1012 00:35:44.228374  6753 layer_factory.hpp:77] Creating layer conv4
I1012 00:35:44.228381  6753 net.cpp:100] Creating Layer conv4
I1012 00:35:44.228384  6753 net.cpp:434] conv4 <- drop1
I1012 00:35:44.228389  6753 net.cpp:408] conv4 -> conv4
I1012 00:35:44.230234  6753 net.cpp:150] Setting up conv4
I1012 00:35:44.230243  6753 net.cpp:157] Top shape: 64 192 11 11 (1486848)
I1012 00:35:44.230247  6753 net.cpp:165] Memory required for data: 79848192
I1012 00:35:44.230250  6753 layer_factory.hpp:77] Creating layer conv5
I1012 00:35:44.230257  6753 net.cpp:100] Creating Layer conv5
I1012 00:35:44.230259  6753 net.cpp:434] conv5 <- conv4
I1012 00:35:44.230263  6753 net.cpp:408] conv5 -> conv5
I1012 00:35:44.232717  6753 net.cpp:150] Setting up conv5
I1012 00:35:44.232727  6753 net.cpp:157] Top shape: 64 192 9 9 (995328)
I1012 00:35:44.232729  6753 net.cpp:165] Memory required for data: 83829504
I1012 00:35:44.232733  6753 layer_factory.hpp:77] Creating layer bn2
I1012 00:35:44.232738  6753 net.cpp:100] Creating Layer bn2
I1012 00:35:44.232739  6753 net.cpp:434] bn2 <- conv5
I1012 00:35:44.232743  6753 net.cpp:408] bn2 -> bn2
I1012 00:35:44.232942  6753 net.cpp:150] Setting up bn2
I1012 00:35:44.232949  6753 net.cpp:157] Top shape: 64 192 9 9 (995328)
I1012 00:35:44.232950  6753 net.cpp:165] Memory required for data: 87810816
I1012 00:35:44.232954  6753 layer_factory.hpp:77] Creating layer conv6
I1012 00:35:44.232959  6753 net.cpp:100] Creating Layer conv6
I1012 00:35:44.232961  6753 net.cpp:434] conv6 <- bn2
I1012 00:35:44.232965  6753 net.cpp:408] conv6 -> conv6
I1012 00:35:44.235565  6753 net.cpp:150] Setting up conv6
I1012 00:35:44.235577  6753 net.cpp:157] Top shape: 64 192 4 4 (196608)
I1012 00:35:44.235579  6753 net.cpp:165] Memory required for data: 88597248
I1012 00:35:44.235589  6753 layer_factory.hpp:77] Creating layer drop4
I1012 00:35:44.235594  6753 net.cpp:100] Creating Layer drop4
I1012 00:35:44.235596  6753 net.cpp:434] drop4 <- conv6
I1012 00:35:44.235602  6753 net.cpp:408] drop4 -> drop4
I1012 00:35:44.235664  6753 net.cpp:150] Setting up drop4
I1012 00:35:44.235682  6753 net.cpp:157] Top shape: 64 192 4 4 (196608)
I1012 00:35:44.235684  6753 net.cpp:165] Memory required for data: 89383680
I1012 00:35:44.235687  6753 layer_factory.hpp:77] Creating layer relu6
I1012 00:35:44.235704  6753 net.cpp:100] Creating Layer relu6
I1012 00:35:44.235707  6753 net.cpp:434] relu6 <- drop4
I1012 00:35:44.235710  6753 net.cpp:395] relu6 -> drop4 (in-place)
I1012 00:35:44.235970  6753 net.cpp:150] Setting up relu6
I1012 00:35:44.235991  6753 net.cpp:157] Top shape: 64 192 4 4 (196608)
I1012 00:35:44.235993  6753 net.cpp:165] Memory required for data: 90170112
I1012 00:35:44.235996  6753 layer_factory.hpp:77] Creating layer conv7
I1012 00:35:44.236002  6753 net.cpp:100] Creating Layer conv7
I1012 00:35:44.236006  6753 net.cpp:434] conv7 <- drop4
I1012 00:35:44.236009  6753 net.cpp:408] conv7 -> conv7
I1012 00:35:44.239421  6753 net.cpp:150] Setting up conv7
I1012 00:35:44.239440  6753 net.cpp:157] Top shape: 64 192 2 2 (49152)
I1012 00:35:44.239444  6753 net.cpp:165] Memory required for data: 90366720
I1012 00:35:44.239449  6753 layer_factory.hpp:77] Creating layer relu7
I1012 00:35:44.239454  6753 net.cpp:100] Creating Layer relu7
I1012 00:35:44.239457  6753 net.cpp:434] relu7 <- conv7
I1012 00:35:44.239461  6753 net.cpp:395] relu7 -> conv7 (in-place)
I1012 00:35:44.239748  6753 net.cpp:150] Setting up relu7
I1012 00:35:44.239756  6753 net.cpp:157] Top shape: 64 192 2 2 (49152)
I1012 00:35:44.239758  6753 net.cpp:165] Memory required for data: 90563328
I1012 00:35:44.239760  6753 layer_factory.hpp:77] Creating layer conv8
I1012 00:35:44.239769  6753 net.cpp:100] Creating Layer conv8
I1012 00:35:44.239771  6753 net.cpp:434] conv8 <- conv7
I1012 00:35:44.239776  6753 net.cpp:408] conv8 -> conv8
I1012 00:35:44.241015  6753 net.cpp:150] Setting up conv8
I1012 00:35:44.241032  6753 net.cpp:157] Top shape: 64 192 2 2 (49152)
I1012 00:35:44.241035  6753 net.cpp:165] Memory required for data: 90759936
I1012 00:35:44.241039  6753 layer_factory.hpp:77] Creating layer relu8
I1012 00:35:44.241044  6753 net.cpp:100] Creating Layer relu8
I1012 00:35:44.241045  6753 net.cpp:434] relu8 <- conv8
I1012 00:35:44.241050  6753 net.cpp:395] relu8 -> conv8 (in-place)
I1012 00:35:44.241304  6753 net.cpp:150] Setting up relu8
I1012 00:35:44.241312  6753 net.cpp:157] Top shape: 64 192 2 2 (49152)
I1012 00:35:44.241314  6753 net.cpp:165] Memory required for data: 90956544
I1012 00:35:44.241317  6753 layer_factory.hpp:77] Creating layer conv9
I1012 00:35:44.241322  6753 net.cpp:100] Creating Layer conv9
I1012 00:35:44.241324  6753 net.cpp:434] conv9 <- conv8
I1012 00:35:44.241328  6753 net.cpp:408] conv9 -> conv9
I1012 00:35:44.242153  6753 net.cpp:150] Setting up conv9
I1012 00:35:44.242180  6753 net.cpp:157] Top shape: 64 10 2 2 (2560)
I1012 00:35:44.242182  6753 net.cpp:165] Memory required for data: 90966784
I1012 00:35:44.242202  6753 layer_factory.hpp:77] Creating layer relu9
I1012 00:35:44.242205  6753 net.cpp:100] Creating Layer relu9
I1012 00:35:44.242209  6753 net.cpp:434] relu9 <- conv9
I1012 00:35:44.242226  6753 net.cpp:395] relu9 -> conv9 (in-place)
I1012 00:35:44.242481  6753 net.cpp:150] Setting up relu9
I1012 00:35:44.242489  6753 net.cpp:157] Top shape: 64 10 2 2 (2560)
I1012 00:35:44.242491  6753 net.cpp:165] Memory required for data: 90977024
I1012 00:35:44.242493  6753 layer_factory.hpp:77] Creating layer pool
I1012 00:35:44.242497  6753 net.cpp:100] Creating Layer pool
I1012 00:35:44.242499  6753 net.cpp:434] pool <- conv9
I1012 00:35:44.242503  6753 net.cpp:408] pool -> pool
I1012 00:35:44.242696  6753 net.cpp:150] Setting up pool
I1012 00:35:44.242702  6753 net.cpp:157] Top shape: 64 10 1 1 (640)
I1012 00:35:44.242704  6753 net.cpp:165] Memory required for data: 90979584
I1012 00:35:44.242707  6753 layer_factory.hpp:77] Creating layer flatten
I1012 00:35:44.242709  6753 net.cpp:100] Creating Layer flatten
I1012 00:35:44.242712  6753 net.cpp:434] flatten <- pool
I1012 00:35:44.242714  6753 net.cpp:408] flatten -> flatten
I1012 00:35:44.242733  6753 net.cpp:150] Setting up flatten
I1012 00:35:44.242751  6753 net.cpp:157] Top shape: 64 10 (640)
I1012 00:35:44.242753  6753 net.cpp:165] Memory required for data: 90982144
I1012 00:35:44.242755  6753 layer_factory.hpp:77] Creating layer score
I1012 00:35:44.242760  6753 net.cpp:100] Creating Layer score
I1012 00:35:44.242763  6753 net.cpp:434] score <- flatten
I1012 00:35:44.242766  6753 net.cpp:408] score -> score
I1012 00:35:44.242913  6753 net.cpp:150] Setting up score
I1012 00:35:44.242916  6753 net.cpp:157] Top shape: 64 10 (640)
I1012 00:35:44.242918  6753 net.cpp:165] Memory required for data: 90984704
I1012 00:35:44.242923  6753 layer_factory.hpp:77] Creating layer score_score_0_split
I1012 00:35:44.242925  6753 net.cpp:100] Creating Layer score_score_0_split
I1012 00:35:44.242928  6753 net.cpp:434] score_score_0_split <- score
I1012 00:35:44.242931  6753 net.cpp:408] score_score_0_split -> score_score_0_split_0
I1012 00:35:44.242935  6753 net.cpp:408] score_score_0_split -> score_score_0_split_1
I1012 00:35:44.242991  6753 net.cpp:150] Setting up score_score_0_split
I1012 00:35:44.242995  6753 net.cpp:157] Top shape: 64 10 (640)
I1012 00:35:44.243011  6753 net.cpp:157] Top shape: 64 10 (640)
I1012 00:35:44.243013  6753 net.cpp:165] Memory required for data: 90989824
I1012 00:35:44.243016  6753 layer_factory.hpp:77] Creating layer accuracy
I1012 00:35:44.243019  6753 net.cpp:100] Creating Layer accuracy
I1012 00:35:44.243021  6753 net.cpp:434] accuracy <- score_score_0_split_0
I1012 00:35:44.243023  6753 net.cpp:434] accuracy <- label_data_1_split_0
I1012 00:35:44.243028  6753 net.cpp:408] accuracy -> accuracy
…
I1012 00:35:44.243624  6753 net.cpp:283] Network initialization done.
I1012 00:35:44.243830  6753 solver.cpp:181] Creating test net (#0) specified by test_net file: /home/adam/Honours/Honours-Project/cifar-10_allcnn/relu/allcnn_relu_test.prototxt
I1012 00:35:44.243995  6753 net.cpp:58] Initializing net from parameters: 
state {
  phase: TEST
}
layer {
  name: "data"
  type: "Data"
  top: "data"
  top: "label"
  transform_param {
    mean_file: "mean.binaryproto"
  }
  data_param {
    source: "../../../data/cifar-10/cifar10_test_lmdb"
    batch_size: 100
    backend: LMDB
  }
}
layer {
  name: "conv1"
  type: "Convolution"
  bottom: "data"
  top: "conv1"
  convolution_param {
    num_output: 96
    kernel_size: 3
    weight_filler {
      type: "xavier"
    }
  }
}
layer {
  name: "conv2"
  type: "Convolution"
  bottom: "conv1"
  top: "conv2"
  convolution_param {
    num_output: 96
    kernel_size: 3
    weight_filler {
      type: "xavier"
    }
  }
}
layer {
  name: "bn1"
  type: "BatchNorm"
  bottom: "conv2"
  top: "bn1"
}
layer {
  name: "conv3"
  type: "Convolution"
  bottom: "bn1"
  top: "conv3"
  convolution_param {
    num_output: 96
    kernel_size: 3
    stride: 2
    weight_filler {
      type: "xavier"
    }
  }
}
layer {
  name: "drop1"
  type: "Dropout"
  bottom: "conv3"
  top: "drop1"
  dropout_param {
    dropout_ratio: 0.5
  }
}
layer {
  name: "relu3"
  type: "ReLU"
  bottom: "drop1"
  top: "drop1"
}
layer {
  name: "conv4"
  type: "Convolution"
  bottom: "drop1"
  top: "conv4"
  convolution_param {
    num_output: 192
    kernel_size: 3
    weight_filler {
      type: "xavier"
    }
  }
}
layer {
  name: "conv5"
  type: "Convolution"
  bottom: "conv4"
  top: "conv5"
  convolution_param {
    num_output: 192
    kernel_size: 3
    weight_filler {
      type: "xavier"
    }
  }
}
layer {
  name: "bn2"
  type: "BatchNorm"
  bottom: "conv5"
  top: "bn2"
}
layer {
  name: "conv6"
  type: "Convolution"
  bottom: "bn2"
  top: "conv6"
  convolution_param {
    num_output: 192
    kernel_size: 3
    stride: 2
    weight_filler {
      type: "xavier"
    }
  }
}
layer {
  name: "drop4"
  type: "Dropout"
  bottom: "conv6"
  top: "drop4"
  dropout_param {
    dropout_ratio: 0.5
  }
}
layer {
  name: "relu6"
  type: "ReLU"
  bottom: "drop4"
  top: "drop4"
}
layer {
  name: "conv7"
  type: "Convolution"
  bottom: "drop4"
  top: "conv7"
  convolution_param {
    num_output: 192
    kernel_size: 3
    weight_filler {
      type: "xavier"
    }
  }
}
layer {
  name: "relu7"
  type: "ReLU"
  bottom: "conv7"
  top: "conv7"
}
layer {
  name: "conv8"
  type: "Convolution"
  bottom: "conv7"
  top: "conv8"
  convolution_param {
    num_output: 192
    kernel_size: 1
    weight_filler {
      type: "xavier"
    }
  }
}
layer {
  name: "relu8"
  type: "ReLU"
  bottom: "conv8"
  top: "conv8"
}
layer {
  name: "conv9"
  type: "Convolution"
  bottom: "conv8"
  top: "conv9"
  convolution_param {
    num_output: 10
    kernel_size: 1
    weight_filler {
      type: "xavier"
    }
  }
}
layer {
  name: "relu9"
  type: "ReLU"
  bottom: "conv9"
  top: "conv9"
}
layer {
  name: "pool"
  type: "Pooling"
  bottom: "conv9"
  top: "pool"
  pooling_param {
    pool: AVE
    global_pooling: true
  }
}
layer {
  name: "flatten"
  type: "Flatten"
  bottom: "pool"
  top: "flatten"
}
layer {
  name: "score"
  type: "InnerProduct"
  bottom: "flatten"
  top: "score"
  inner_product_param {
    num_output: 10
    weight_filler {
      type: "gaussian"
    }
  }
}
layer {
  name: "accuracy"
  type: "Accuracy"
  bottom: "score"
  bottom: "label"
  top: "accuracy"
}
layer {
  name: "loss"
  type: "SoftmaxWithLoss"
  bottom: "score"
  bottom: "label"
  top: "loss"
}
I1012 00:35:44.244122  6753 layer_factory.hpp:77] Creating layer data
I1012 00:35:44.244222  6753 net.cpp:100] Creating Layer data
I1012 00:35:44.244227  6753 net.cpp:408] data -> data
I1012 00:35:44.244233  6753 net.cpp:408] data -> label
I1012 00:35:44.244238  6753 data_transformer.cpp:25] Loading mean file from: mean.binaryproto
I1012 00:35:44.244905  6760 db_lmdb.cpp:35] Opened lmdb ../../../data/cifar-10/cifar10_test_lmdb
I1012 00:35:44.245007  6753 data_layer.cpp:41] output data size: 100,3,32,32
I1012 00:35:44.246901  6753 net.cpp:150] Setting up data
I1012 00:35:44.246942  6753 net.cpp:157] Top shape: 100 3 32 32 (307200)
I1012 00:35:44.246947  6753 net.cpp:157] Top shape: 100 (100)
I1012 00:35:44.246948  6753 net.cpp:165] Memory required for data: 1229200
I1012 00:35:44.246953  6753 layer_factory.hpp:77] Creating layer label_data_1_split
I1012 00:35:44.246963  6753 net.cpp:100] Creating Layer label_data_1_split
I1012 00:35:44.246964  6753 net.cpp:434] label_data_1_split <- label
I1012 00:35:44.246984  6753 net.cpp:408] label_data_1_split -> label_data_1_split_0
I1012 00:35:44.247005  6753 net.cpp:408] label_data_1_split -> label_data_1_split_1
I1012 00:35:44.247073  6753 net.cpp:150] Setting up label_data_1_split
I1012 00:35:44.247081  6753 net.cpp:157] Top shape: 100 (100)
I1012 00:35:44.247083  6753 net.cpp:157] Top shape: 100 (100)
I1012 00:35:44.247086  6753 net.cpp:165] Memory required for data: 1230000
I1012 00:35:44.247087  6753 layer_factory.hpp:77] Creating layer conv1
I1012 00:35:44.247095  6753 net.cpp:100] Creating Layer conv1
I1012 00:35:44.247097  6753 net.cpp:434] conv1 <- data
I1012 00:35:44.247102  6753 net.cpp:408] conv1 -> conv1
I1012 00:35:44.248260  6753 net.cpp:150] Setting up conv1
I1012 00:35:44.248282  6753 net.cpp:157] Top shape: 100 96 30 30 (8640000)
I1012 00:35:44.248286  6753 net.cpp:165] Memory required for data: 35790000
I1012 00:35:44.248309  6753 layer_factory.hpp:77] Creating layer conv2
I1012 00:35:44.248328  6753 net.cpp:100] Creating Layer conv2
I1012 00:35:44.248332  6753 net.cpp:434] conv2 <- conv1
I1012 00:35:44.248350  6753 net.cpp:408] conv2 -> conv2
I1012 00:35:44.249707  6753 net.cpp:150] Setting up conv2
I1012 00:35:44.249719  6753 net.cpp:157] Top shape: 100 96 28 28 (7526400)
I1012 00:35:44.249722  6753 net.cpp:165] Memory required for data: 65895600
I1012 00:35:44.249728  6753 layer_factory.hpp:77] Creating layer bn1
I1012 00:35:44.249735  6753 net.cpp:100] Creating Layer bn1
I1012 00:35:44.249739  6753 net.cpp:434] bn1 <- conv2
I1012 00:35:44.249743  6753 net.cpp:408] bn1 -> bn1
I1012 00:35:44.249928  6753 net.cpp:150] Setting up bn1
I1012 00:35:44.249933  6753 net.cpp:157] Top shape: 100 96 28 28 (7526400)
I1012 00:35:44.249936  6753 net.cpp:165] Memory required for data: 96001200
I1012 00:35:44.249956  6753 layer_factory.hpp:77] Creating layer conv3
I1012 00:35:44.249987  6753 net.cpp:100] Creating Layer conv3
I1012 00:35:44.249996  6753 net.cpp:434] conv3 <- bn1
I1012 00:35:44.250002  6753 net.cpp:408] conv3 -> conv3
I1012 00:35:44.251397  6753 net.cpp:150] Setting up conv3
I1012 00:35:44.251408  6753 net.cpp:157] Top shape: 100 96 13 13 (1622400)
I1012 00:35:44.251411  6753 net.cpp:165] Memory required for data: 102490800
I1012 00:35:44.251418  6753 layer_factory.hpp:77] Creating layer drop1
I1012 00:35:44.251425  6753 net.cpp:100] Creating Layer drop1
I1012 00:35:44.251426  6753 net.cpp:434] drop1 <- conv3
I1012 00:35:44.251431  6753 net.cpp:408] drop1 -> drop1
I1012 00:35:44.251466  6753 net.cpp:150] Setting up drop1
I1012 00:35:44.251471  6753 net.cpp:157] Top shape: 100 96 13 13 (1622400)
I1012 00:35:44.251472  6753 net.cpp:165] Memory required for data: 108980400
I1012 00:35:44.251476  6753 layer_factory.hpp:77] Creating layer relu3
I1012 00:35:44.251480  6753 net.cpp:100] Creating Layer relu3
I1012 00:35:44.251482  6753 net.cpp:434] relu3 <- drop1
I1012 00:35:44.251487  6753 net.cpp:395] relu3 -> drop1 (in-place)
I1012 00:35:44.251714  6753 net.cpp:150] Setting up relu3
I1012 00:35:44.251735  6753 net.cpp:157] Top shape: 100 96 13 13 (1622400)
I1012 00:35:44.251739  6753 net.cpp:165] Memory required for data: 115470000
I1012 00:35:44.251741  6753 layer_factory.hpp:77] Creating layer conv4
I1012 00:35:44.251749  6753 net.cpp:100] Creating Layer conv4
I1012 00:35:44.251760  6753 net.cpp:434] conv4 <- drop1
I1012 00:35:44.251772  6753 net.cpp:408] conv4 -> conv4
I1012 00:35:44.254854  6753 net.cpp:150] Setting up conv4
I1012 00:35:44.254869  6753 net.cpp:157] Top shape: 100 192 11 11 (2323200)
I1012 00:35:44.254873  6753 net.cpp:165] Memory required for data: 124762800
I1012 00:35:44.254892  6753 layer_factory.hpp:77] Creating layer conv5
I1012 00:35:44.254900  6753 net.cpp:100] Creating Layer conv5
I1012 00:35:44.254904  6753 net.cpp:434] conv5 <- conv4
I1012 00:35:44.254910  6753 net.cpp:408] conv5 -> conv5
I1012 00:35:44.257591  6753 net.cpp:150] Setting up conv5
I1012 00:35:44.257606  6753 net.cpp:157] Top shape: 100 192 9 9 (1555200)
I1012 00:35:44.257607  6753 net.cpp:165] Memory required for data: 130983600
I1012 00:35:44.257612  6753 layer_factory.hpp:77] Creating layer bn2
I1012 00:35:44.257617  6753 net.cpp:100] Creating Layer bn2
I1012 00:35:44.257619  6753 net.cpp:434] bn2 <- conv5
I1012 00:35:44.257624  6753 net.cpp:408] bn2 -> bn2
I1012 00:35:44.257848  6753 net.cpp:150] Setting up bn2
I1012 00:35:44.257853  6753 net.cpp:157] Top shape: 100 192 9 9 (1555200)
I1012 00:35:44.257869  6753 net.cpp:165] Memory required for data: 137204400
I1012 00:35:44.257874  6753 layer_factory.hpp:77] Creating layer conv6
I1012 00:35:44.257880  6753 net.cpp:100] Creating Layer conv6
I1012 00:35:44.257882  6753 net.cpp:434] conv6 <- bn2
I1012 00:35:44.257886  6753 net.cpp:408] conv6 -> conv6
I1012 00:35:44.260473  6753 net.cpp:150] Setting up conv6
I1012 00:35:44.260484  6753 net.cpp:157] Top shape: 100 192 4 4 (307200)
I1012 00:35:44.260486  6753 net.cpp:165] Memory required for data: 138433200
I1012 00:35:44.260494  6753 layer_factory.hpp:77] Creating layer drop4
I1012 00:35:44.260500  6753 net.cpp:100] Creating Layer drop4
I1012 00:35:44.260502  6753 net.cpp:434] drop4 <- conv6
I1012 00:35:44.260506  6753 net.cpp:408] drop4 -> drop4
I1012 00:35:44.260567  6753 net.cpp:150] Setting up drop4
I1012 00:35:44.260572  6753 net.cpp:157] Top shape: 100 192 4 4 (307200)
I1012 00:35:44.260574  6753 net.cpp:165] Memory required for data: 139662000
I1012 00:35:44.260576  6753 layer_factory.hpp:77] Creating layer relu6
I1012 00:35:44.260579  6753 net.cpp:100] Creating Layer relu6
I1012 00:35:44.260581  6753 net.cpp:434] relu6 <- drop4
I1012 00:35:44.260586  6753 net.cpp:395] relu6 -> drop4 (in-place)
I1012 00:35:44.260891  6753 net.cpp:150] Setting up relu6
I1012 00:35:44.260900  6753 net.cpp:157] Top shape: 100 192 4 4 (307200)
I1012 00:35:44.260901  6753 net.cpp:165] Memory required for data: 140890800
I1012 00:35:44.260905  6753 layer_factory.hpp:77] Creating layer conv7
I1012 00:35:44.260910  6753 net.cpp:100] Creating Layer conv7
I1012 00:35:44.260912  6753 net.cpp:434] conv7 <- drop4
I1012 00:35:44.260917  6753 net.cpp:408] conv7 -> conv7
I1012 00:35:44.263525  6753 net.cpp:150] Setting up conv7
I1012 00:35:44.263536  6753 net.cpp:157] Top shape: 100 192 2 2 (76800)
I1012 00:35:44.263538  6753 net.cpp:165] Memory required for data: 141198000
I1012 00:35:44.263542  6753 layer_factory.hpp:77] Creating layer relu7
I1012 00:35:44.263548  6753 net.cpp:100] Creating Layer relu7
I1012 00:35:44.263550  6753 net.cpp:434] relu7 <- conv7
I1012 00:35:44.263553  6753 net.cpp:395] relu7 -> conv7 (in-place)
I1012 00:35:44.263821  6753 net.cpp:150] Setting up relu7
I1012 00:35:44.263828  6753 net.cpp:157] Top shape: 100 192 2 2 (76800)
I1012 00:35:44.263830  6753 net.cpp:165] Memory required for data: 141505200
I1012 00:35:44.263833  6753 layer_factory.hpp:77] Creating layer conv8
I1012 00:35:44.263841  6753 net.cpp:100] Creating Layer conv8
I1012 00:35:44.263844  6753 net.cpp:434] conv8 <- conv7
I1012 00:35:44.263847  6753 net.cpp:408] conv8 -> conv8
I1012 00:35:44.264829  6753 net.cpp:150] Setting up conv8
I1012 00:35:44.264837  6753 net.cpp:157] Top shape: 100 192 2 2 (76800)
I1012 00:35:44.264840  6753 net.cpp:165] Memory required for data: 141812400
I1012 00:35:44.264844  6753 layer_factory.hpp:77] Creating layer relu8
I1012 00:35:44.264848  6753 net.cpp:100] Creating Layer relu8
I1012 00:35:44.264850  6753 net.cpp:434] relu8 <- conv8
I1012 00:35:44.264853  6753 net.cpp:395] relu8 -> conv8 (in-place)
I1012 00:35:44.265024  6753 net.cpp:150] Setting up relu8
I1012 00:35:44.265029  6753 net.cpp:157] Top shape: 100 192 2 2 (76800)
I1012 00:35:44.265031  6753 net.cpp:165] Memory required for data: 142119600
I1012 00:35:44.265033  6753 layer_factory.hpp:77] Creating layer conv9
I1012 00:35:44.265039  6753 net.cpp:100] Creating Layer conv9
I1012 00:35:44.265041  6753 net.cpp:434] conv9 <- conv8
I1012 00:35:44.265044  6753 net.cpp:408] conv9 -> conv9
I1012 00:35:44.265877  6753 net.cpp:150] Setting up conv9
I1012 00:35:44.265887  6753 net.cpp:157] Top shape: 100 10 2 2 (4000)
I1012 00:35:44.265889  6753 net.cpp:165] Memory required for data: 142135600
I1012 00:35:44.265893  6753 layer_factory.hpp:77] Creating layer relu9
I1012 00:35:44.265897  6753 net.cpp:100] Creating Layer relu9
I1012 00:35:44.265899  6753 net.cpp:434] relu9 <- conv9
I1012 00:35:44.265902  6753 net.cpp:395] relu9 -> conv9 (in-place)
I1012 00:35:44.266161  6753 net.cpp:150] Setting up relu9
I1012 00:35:44.266170  6753 net.cpp:157] Top shape: 100 10 2 2 (4000)
I1012 00:35:44.266176  6753 net.cpp:165] Memory required for data: 142151600
I1012 00:35:44.266178  6753 layer_factory.hpp:77] Creating layer pool
I1012 00:35:44.266198  6753 net.cpp:100] Creating Layer pool
I1012 00:35:44.266201  6753 net.cpp:434] pool <- conv9
I1012 00:35:44.266217  6753 net.cpp:408] pool -> pool
I1012 00:35:44.266435  6753 net.cpp:150] Setting up pool
I1012 00:35:44.266443  6753 net.cpp:157] Top shape: 100 10 1 1 (1000)
I1012 00:35:44.266444  6753 net.cpp:165] Memory required for data: 142155600
I1012 00:35:44.266446  6753 layer_factory.hpp:77] Creating layer flatten
I1012 00:35:44.266449  6753 net.cpp:100] Creating Layer flatten
I1012 00:35:44.266453  6753 net.cpp:434] flatten <- pool
I1012 00:35:44.266455  6753 net.cpp:408] flatten -> flatten
I1012 00:35:44.266490  6753 net.cpp:150] Setting up flatten
I1012 00:35:44.266494  6753 net.cpp:157] Top shape: 100 10 (1000)
I1012 00:35:44.266497  6753 net.cpp:165] Memory required for data: 142159600
I1012 00:35:44.266499  6753 layer_factory.hpp:77] Creating layer score
I1012 00:35:44.266504  6753 net.cpp:100] Creating Layer score
I1012 00:35:44.266506  6753 net.cpp:434] score <- flatten
I1012 00:35:44.266526  6753 net.cpp:408] score -> score
I1012 00:35:44.266657  6753 net.cpp:150] Setting up score
I1012 00:35:44.266661  6753 net.cpp:157] Top shape: 100 10 (1000)
I1012 00:35:44.266664  6753 net.cpp:165] Memory required for data: 142163600
I1012 00:35:44.266667  6753 layer_factory.hpp:77] Creating layer score_score_0_split
I1012 00:35:44.266670  6753 net.cpp:100] Creating Layer score_score_0_split
I1012 00:35:44.266672  6753 net.cpp:434] score_score_0_split <- score
I1012 00:35:44.266677  6753 net.cpp:408] score_score_0_split -> score_score_0_split_0
I1012 00:35:44.266681  6753 net.cpp:408] score_score_0_split -> score_score_0_split_1
I1012 00:35:44.266723  6753 net.cpp:150] Setting up score_score_0_split
I1012 00:35:44.266727  6753 net.cpp:157] Top shape: 100 10 (1000)
I1012 00:35:44.266731  6753 net.cpp:157] Top shape: 100 10 (1000)
I1012 00:35:44.266731  6753 net.cpp:165] Memory required for data: 142171600
I1012 00:35:44.266748  6753 layer_factory.hpp:77] Creating layer accuracy
I1012 00:35:44.266752  6753 net.cpp:100] Creating Layer accuracy
I1012 00:35:44.266754  6753 net.cpp:434] accuracy <- score_score_0_split_0
I1012 00:35:44.266770  6753 net.cpp:434] accuracy <- label_data_1_split_0
I1012 00:35:44.266774  6753 net.cpp:408] accuracy -> accuracy
…
