…
  stage: ""
}
type: "Adam"
I1011 15:33:54.050109  6398 solver.cpp:81] Creating training net from train_net file: /home/adam/Honours/Honours-Project/cifar-10_allcnn/elu/allcnn_elu_train.prototxt
I1011 15:33:54.050464  6398 net.cpp:58] Initializing net from parameters: 
state {
  phase: TRAIN
  level: 0
  stage: ""
}
layer {
  name: "data"
  type: "Data"
  top: "data"
  top: "label"
  transform_param {
    mean_file: "mean.binaryproto"
  }
  data_param {
    source: "../../../data/cifar-10/cifar10_train_lmdb"
    batch_size: 64
    backend: LMDB
  }
}
layer {
  name: "conv1"
  type: "Convolution"
  bottom: "data"
  top: "conv1"
  convolution_param {
    num_output: 96
    kernel_size: 3
    weight_filler {
      type: "xavier"
    }
  }
}
layer {
  name: "elu1"
  type: "ELU"
  bottom: "conv1"
  top: "conv1"
}
layer {
  name: "conv2"
  type: "Convolution"
  bottom: "conv1"
  top: "conv2"
  convolution_param {
    num_output: 96
    kernel_size: 3
    weight_filler {
      type: "xavier"
    }
  }
}
layer {
  name: "bn1"
  type: "BatchNorm"
  bottom: "conv2"
  top: "bn1"
}
layer {
  name: "elu2"
  type: "ELU"
  bottom: "bn1"
  top: "bn1"
}
layer {
  name: "drop1"
  type: "Dropout"
  bottom: "bn1"
  top: "drop1"
  dropout_param {
    dropout_ratio: 0.5
  }
}
layer {
  name: "conv3"
  type: "Convolution"
  bottom: "drop1"
  top: "conv3"
  convolution_param {
    num_output: 96
    kernel_size: 3
    stride: 2
    weight_filler {
      type: "xavier"
    }
  }
}
layer {
  name: "elu3"
  type: "ELU"
  bottom: "conv3"
  top: "conv3"
}
layer {
  name: "conv4"
  type: "Convolution"
  bottom: "conv3"
  top: "conv4"
  convolution_param {
    num_output: 192
    kernel_size: 3
    weight_filler {
      type: "xavier"
    }
  }
}
layer {
  name: "elu4"
  type: "ELU"
  bottom: "conv4"
  top: "conv4"
}
layer {
  name: "conv5"
  type: "Convolution"
  bottom: "conv4"
  top: "conv5"
  convolution_param {
    num_output: 192
    kernel_size: 3
    weight_filler {
      type: "xavier"
    }
  }
}
layer {
  name: "bn2"
  type: "BatchNorm"
  bottom: "conv5"
  top: "bn2"
}
layer {
  name: "elu5"
  type: "ELU"
  bottom: "bn2"
  top: "bn2"
}
layer {
  name: "drop4"
  type: "Dropout"
  bottom: "bn2"
  top: "drop4"
  dropout_param {
    dropout_ratio: 0.5
  }
}
layer {
  name: "conv6"
  type: "Convolution"
  bottom: "drop4"
  top: "conv6"
  convolution_param {
    num_output: 192
    kernel_size: 3
    stride: 2
    weight_filler {
      type: "xavier"
    }
  }
}
layer {
  name: "elu6"
  type: "ELU"
  bottom: "conv6"
  top: "conv6"
}
layer {
  name: "conv7"
  type: "Convolution"
  bottom: "conv6"
  top: "conv7"
  convolution_param {
    num_output: 192
    kernel_size: 3
    weight_filler {
      type: "xavier"
    }
  }
}
layer {
  name: "elu7"
  type: "ELU"
  bottom: "conv7"
  top: "conv7"
}
layer {
  name: "conv8"
  type: "Convolution"
  bottom: "conv7"
  top: "conv8"
  convolution_param {
    num_output: 192
    kernel_size: 1
    weight_filler {
      type: "xavier"
    }
  }
}
layer {
  name: "elu8"
  type: "ELU"
  bottom: "conv8"
  top: "conv8"
}
layer {
  name: "conv9"
  type: "Convolution"
  bottom: "conv8"
  top: "conv9"
  convolution_param {
    num_output: 10
    kernel_size: 1
    weight_filler {
      type: "xavier"
    }
  }
}
layer {
  name: "elu9"
  type: "ELU"
  bottom: "conv9"
  top: "conv9"
}
layer {
  name: "pool"
  type: "Pooling"
  bottom: "conv9"
  top: "pool"
  pooling_param {
    pool: AVE
    global_pooling: true
  }
}
layer {
  name: "flatten"
  type: "Flatten"
  bottom: "pool"
  top: "flatten"
}
layer {
  name: "score"
  type: "InnerProduct"
  bottom: "flatten"
  top: "score"
  inner_product_param {
    num_output: 10
    weight_filler {
      type: "gaussian"
    }
  }
}
layer {
  name: "accuracy"
  type: "Accuracy"
  bottom: "score"
  bottom: "label"
  top: "accuracy"
}
layer {
  name: "loss"
  type: "SoftmaxWithLoss"
  bottom: "score"
  bottom: "label"
  top: "loss"
}
I1011 15:33:54.050617  6398 layer_factory.hpp:77] Creating layer data
I1011 15:33:54.051129  6398 net.cpp:100] Creating Layer data
I1011 15:33:54.051151  6398 net.cpp:408] data -> data
I1011 15:33:54.051182  6398 net.cpp:408] data -> label
I1011 15:33:54.051209  6398 data_transformer.cpp:25] Loading mean file from: mean.binaryproto
I1011 15:33:54.052096  6403 db_lmdb.cpp:35] Opened lmdb ../../../data/cifar-10/cifar10_train_lmdb
I1011 15:33:54.058521  6398 data_layer.cpp:41] output data size: 64,3,32,32
I1011 15:33:54.060288  6398 net.cpp:150] Setting up data
I1011 15:33:54.060309  6398 net.cpp:157] Top shape: 64 3 32 32 (196608)
I1011 15:33:54.060313  6398 net.cpp:157] Top shape: 64 (64)
I1011 15:33:54.060329  6398 net.cpp:165] Memory required for data: 786688
I1011 15:33:54.060338  6398 layer_factory.hpp:77] Creating layer label_data_1_split
I1011 15:33:54.060346  6398 net.cpp:100] Creating Layer label_data_1_split
I1011 15:33:54.060364  6398 net.cpp:434] label_data_1_split <- label
I1011 15:33:54.060372  6398 net.cpp:408] label_data_1_split -> label_data_1_split_0
I1011 15:33:54.060380  6398 net.cpp:408] label_data_1_split -> label_data_1_split_1
I1011 15:33:54.060412  6398 net.cpp:150] Setting up label_data_1_split
I1011 15:33:54.060417  6398 net.cpp:157] Top shape: 64 (64)
I1011 15:33:54.060420  6398 net.cpp:157] Top shape: 64 (64)
I1011 15:33:54.060422  6398 net.cpp:165] Memory required for data: 787200
I1011 15:33:54.060425  6398 layer_factory.hpp:77] Creating layer conv1
I1011 15:33:54.060436  6398 net.cpp:100] Creating Layer conv1
I1011 15:33:54.060439  6398 net.cpp:434] conv1 <- data
I1011 15:33:54.060443  6398 net.cpp:408] conv1 -> conv1
I1011 15:33:54.201205  6398 net.cpp:150] Setting up conv1
I1011 15:33:54.201226  6398 net.cpp:157] Top shape: 64 96 30 30 (5529600)
I1011 15:33:54.201228  6398 net.cpp:165] Memory required for data: 22905600
I1011 15:33:54.201246  6398 layer_factory.hpp:77] Creating layer elu1
I1011 15:33:54.201252  6398 net.cpp:100] Creating Layer elu1
I1011 15:33:54.201256  6398 net.cpp:434] elu1 <- conv1
I1011 15:33:54.201258  6398 net.cpp:395] elu1 -> conv1 (in-place)
I1011 15:33:54.201266  6398 net.cpp:150] Setting up elu1
I1011 15:33:54.201282  6398 net.cpp:157] Top shape: 64 96 30 30 (5529600)
I1011 15:33:54.201284  6398 net.cpp:165] Memory required for data: 45024000
I1011 15:33:54.201287  6398 layer_factory.hpp:77] Creating layer conv2
I1011 15:33:54.201295  6398 net.cpp:100] Creating Layer conv2
I1011 15:33:54.201297  6398 net.cpp:434] conv2 <- conv1
I1011 15:33:54.201300  6398 net.cpp:408] conv2 -> conv2
I1011 15:33:54.202728  6398 net.cpp:150] Setting up conv2
I1011 15:33:54.202740  6398 net.cpp:157] Top shape: 64 96 28 28 (4816896)
I1011 15:33:54.202742  6398 net.cpp:165] Memory required for data: 64291584
I1011 15:33:54.202749  6398 layer_factory.hpp:77] Creating layer bn1
I1011 15:33:54.202754  6398 net.cpp:100] Creating Layer bn1
I1011 15:33:54.202756  6398 net.cpp:434] bn1 <- conv2
I1011 15:33:54.202760  6398 net.cpp:408] bn1 -> bn1
I1011 15:33:54.203040  6398 net.cpp:150] Setting up bn1
I1011 15:33:54.203045  6398 net.cpp:157] Top shape: 64 96 28 28 (4816896)
I1011 15:33:54.203063  6398 net.cpp:165] Memory required for data: 83559168
I1011 15:33:54.203069  6398 layer_factory.hpp:77] Creating layer elu2
I1011 15:33:54.203085  6398 net.cpp:100] Creating Layer elu2
I1011 15:33:54.203088  6398 net.cpp:434] elu2 <- bn1
I1011 15:33:54.203091  6398 net.cpp:395] elu2 -> bn1 (in-place)
I1011 15:33:54.203109  6398 net.cpp:150] Setting up elu2
I1011 15:33:54.203114  6398 net.cpp:157] Top shape: 64 96 28 28 (4816896)
I1011 15:33:54.203115  6398 net.cpp:165] Memory required for data: 102826752
I1011 15:33:54.203143  6398 layer_factory.hpp:77] Creating layer drop1
I1011 15:33:54.203147  6398 net.cpp:100] Creating Layer drop1
I1011 15:33:54.203150  6398 net.cpp:434] drop1 <- bn1
I1011 15:33:54.203152  6398 net.cpp:408] drop1 -> drop1
I1011 15:33:54.203181  6398 net.cpp:150] Setting up drop1
I1011 15:33:54.203186  6398 net.cpp:157] Top shape: 64 96 28 28 (4816896)
I1011 15:33:54.203187  6398 net.cpp:165] Memory required for data: 122094336
I1011 15:33:54.203202  6398 layer_factory.hpp:77] Creating layer conv3
I1011 15:33:54.203209  6398 net.cpp:100] Creating Layer conv3
I1011 15:33:54.203212  6398 net.cpp:434] conv3 <- drop1
I1011 15:33:54.203214  6398 net.cpp:408] conv3 -> conv3
I1011 15:33:54.204552  6398 net.cpp:150] Setting up conv3
I1011 15:33:54.204562  6398 net.cpp:157] Top shape: 64 96 13 13 (1038336)
I1011 15:33:54.204566  6398 net.cpp:165] Memory required for data: 126247680
I1011 15:33:54.204571  6398 layer_factory.hpp:77] Creating layer elu3
I1011 15:33:54.204576  6398 net.cpp:100] Creating Layer elu3
I1011 15:33:54.204577  6398 net.cpp:434] elu3 <- conv3
I1011 15:33:54.204581  6398 net.cpp:395] elu3 -> conv3 (in-place)
I1011 15:33:54.204584  6398 net.cpp:150] Setting up elu3
I1011 15:33:54.204587  6398 net.cpp:157] Top shape: 64 96 13 13 (1038336)
I1011 15:33:54.204589  6398 net.cpp:165] Memory required for data: 130401024
I1011 15:33:54.204591  6398 layer_factory.hpp:77] Creating layer conv4
I1011 15:33:54.204610  6398 net.cpp:100] Creating Layer conv4
I1011 15:33:54.204612  6398 net.cpp:434] conv4 <- conv3
I1011 15:33:54.204617  6398 net.cpp:408] conv4 -> conv4
I1011 15:33:54.206575  6398 net.cpp:150] Setting up conv4
I1011 15:33:54.206588  6398 net.cpp:157] Top shape: 64 192 11 11 (1486848)
I1011 15:33:54.206590  6398 net.cpp:165] Memory required for data: 136348416
I1011 15:33:54.206594  6398 layer_factory.hpp:77] Creating layer elu4
I1011 15:33:54.206598  6398 net.cpp:100] Creating Layer elu4
I1011 15:33:54.206601  6398 net.cpp:434] elu4 <- conv4
I1011 15:33:54.206604  6398 net.cpp:395] elu4 -> conv4 (in-place)
I1011 15:33:54.206609  6398 net.cpp:150] Setting up elu4
I1011 15:33:54.206612  6398 net.cpp:157] Top shape: 64 192 11 11 (1486848)
I1011 15:33:54.206614  6398 net.cpp:165] Memory required for data: 142295808
I1011 15:33:54.206616  6398 layer_factory.hpp:77] Creating layer conv5
I1011 15:33:54.206635  6398 net.cpp:100] Creating Layer conv5
I1011 15:33:54.206637  6398 net.cpp:434] conv5 <- conv4
I1011 15:33:54.206640  6398 net.cpp:408] conv5 -> conv5
I1011 15:33:54.209251  6398 net.cpp:150] Setting up conv5
I1011 15:33:54.209264  6398 net.cpp:157] Top shape: 64 192 9 9 (995328)
I1011 15:33:54.209266  6398 net.cpp:165] Memory required for data: 146277120
I1011 15:33:54.209270  6398 layer_factory.hpp:77] Creating layer bn2
I1011 15:33:54.209275  6398 net.cpp:100] Creating Layer bn2
I1011 15:33:54.209277  6398 net.cpp:434] bn2 <- conv5
I1011 15:33:54.209281  6398 net.cpp:408] bn2 -> bn2
I1011 15:33:54.209494  6398 net.cpp:150] Setting up bn2
I1011 15:33:54.209501  6398 net.cpp:157] Top shape: 64 192 9 9 (995328)
I1011 15:33:54.209517  6398 net.cpp:165] Memory required for data: 150258432
I1011 15:33:54.209522  6398 layer_factory.hpp:77] Creating layer elu5
I1011 15:33:54.209525  6398 net.cpp:100] Creating Layer elu5
I1011 15:33:54.209527  6398 net.cpp:434] elu5 <- bn2
I1011 15:33:54.209530  6398 net.cpp:395] elu5 -> bn2 (in-place)
I1011 15:33:54.209547  6398 net.cpp:150] Setting up elu5
I1011 15:33:54.209550  6398 net.cpp:157] Top shape: 64 192 9 9 (995328)
I1011 15:33:54.209554  6398 net.cpp:165] Memory required for data: 154239744
I1011 15:33:54.209570  6398 layer_factory.hpp:77] Creating layer drop4
I1011 15:33:54.209574  6398 net.cpp:100] Creating Layer drop4
I1011 15:33:54.209578  6398 net.cpp:434] drop4 <- bn2
I1011 15:33:54.209594  6398 net.cpp:408] drop4 -> drop4
I1011 15:33:54.209619  6398 net.cpp:150] Setting up drop4
I1011 15:33:54.209624  6398 net.cpp:157] Top shape: 64 192 9 9 (995328)
I1011 15:33:54.209625  6398 net.cpp:165] Memory required for data: 158221056
I1011 15:33:54.209637  6398 layer_factory.hpp:77] Creating layer conv6
I1011 15:33:54.209645  6398 net.cpp:100] Creating Layer conv6
I1011 15:33:54.209647  6398 net.cpp:434] conv6 <- drop4
I1011 15:33:54.209671  6398 net.cpp:408] conv6 -> conv6
I1011 15:33:54.212404  6398 net.cpp:150] Setting up conv6
I1011 15:33:54.212433  6398 net.cpp:157] Top shape: 64 192 4 4 (196608)
I1011 15:33:54.212435  6398 net.cpp:165] Memory required for data: 159007488
I1011 15:33:54.212458  6398 layer_factory.hpp:77] Creating layer elu6
I1011 15:33:54.212478  6398 net.cpp:100] Creating Layer elu6
I1011 15:33:54.212487  6398 net.cpp:434] elu6 <- conv6
I1011 15:33:54.212491  6398 net.cpp:395] elu6 -> conv6 (in-place)
I1011 15:33:54.212509  6398 net.cpp:150] Setting up elu6
I1011 15:33:54.212513  6398 net.cpp:157] Top shape: 64 192 4 4 (196608)
I1011 15:33:54.212517  6398 net.cpp:165] Memory required for data: 159793920
I1011 15:33:54.212519  6398 layer_factory.hpp:77] Creating layer conv7
I1011 15:33:54.212525  6398 net.cpp:100] Creating Layer conv7
I1011 15:33:54.212528  6398 net.cpp:434] conv7 <- conv6
I1011 15:33:54.212532  6398 net.cpp:408] conv7 -> conv7
I1011 15:33:54.215356  6398 net.cpp:150] Setting up conv7
I1011 15:33:54.215374  6398 net.cpp:157] Top shape: 64 192 2 2 (49152)
I1011 15:33:54.215376  6398 net.cpp:165] Memory required for data: 159990528
I1011 15:33:54.215382  6398 layer_factory.hpp:77] Creating layer elu7
I1011 15:33:54.215387  6398 net.cpp:100] Creating Layer elu7
I1011 15:33:54.215389  6398 net.cpp:434] elu7 <- conv7
I1011 15:33:54.215394  6398 net.cpp:395] elu7 -> conv7 (in-place)
I1011 15:33:54.215399  6398 net.cpp:150] Setting up elu7
I1011 15:33:54.215401  6398 net.cpp:157] Top shape: 64 192 2 2 (49152)
I1011 15:33:54.215402  6398 net.cpp:165] Memory required for data: 160187136
I1011 15:33:54.215404  6398 layer_factory.hpp:77] Creating layer conv8
I1011 15:33:54.215425  6398 net.cpp:100] Creating Layer conv8
I1011 15:33:54.215426  6398 net.cpp:434] conv8 <- conv7
I1011 15:33:54.215430  6398 net.cpp:408] conv8 -> conv8
I1011 15:33:54.216739  6398 net.cpp:150] Setting up conv8
I1011 15:33:54.216768  6398 net.cpp:157] Top shape: 64 192 2 2 (49152)
I1011 15:33:54.216769  6398 net.cpp:165] Memory required for data: 160383744
I1011 15:33:54.216789  6398 layer_factory.hpp:77] Creating layer elu8
I1011 15:33:54.216794  6398 net.cpp:100] Creating Layer elu8
I1011 15:33:54.216796  6398 net.cpp:434] elu8 <- conv8
I1011 15:33:54.216799  6398 net.cpp:395] elu8 -> conv8 (in-place)
I1011 15:33:54.216804  6398 net.cpp:150] Setting up elu8
I1011 15:33:54.216807  6398 net.cpp:157] Top shape: 64 192 2 2 (49152)
I1011 15:33:54.216821  6398 net.cpp:165] Memory required for data: 160580352
I1011 15:33:54.216823  6398 layer_factory.hpp:77] Creating layer conv9
I1011 15:33:54.216828  6398 net.cpp:100] Creating Layer conv9
I1011 15:33:54.216845  6398 net.cpp:434] conv9 <- conv8
I1011 15:33:54.216848  6398 net.cpp:408] conv9 -> conv9
I1011 15:33:54.217797  6398 net.cpp:150] Setting up conv9
I1011 15:33:54.217823  6398 net.cpp:157] Top shape: 64 10 2 2 (2560)
I1011 15:33:54.217825  6398 net.cpp:165] Memory required for data: 160590592
I1011 15:33:54.217830  6398 layer_factory.hpp:77] Creating layer elu9
I1011 15:33:54.217834  6398 net.cpp:100] Creating Layer elu9
I1011 15:33:54.217836  6398 net.cpp:434] elu9 <- conv9
I1011 15:33:54.217839  6398 net.cpp:395] elu9 -> conv9 (in-place)
I1011 15:33:54.217845  6398 net.cpp:150] Setting up elu9
I1011 15:33:54.217862  6398 net.cpp:157] Top shape: 64 10 2 2 (2560)
I1011 15:33:54.217864  6398 net.cpp:165] Memory required for data: 160600832
I1011 15:33:54.217866  6398 layer_factory.hpp:77] Creating layer pool
I1011 15:33:54.217883  6398 net.cpp:100] Creating Layer pool
I1011 15:33:54.217885  6398 net.cpp:434] pool <- conv9
I1011 15:33:54.217888  6398 net.cpp:408] pool -> pool
I1011 15:33:54.218286  6398 net.cpp:150] Setting up pool
I1011 15:33:54.218307  6398 net.cpp:157] Top shape: 64 10 1 1 (640)
I1011 15:33:54.218308  6398 net.cpp:165] Memory required for data: 160603392
I1011 15:33:54.218312  6398 layer_factory.hpp:77] Creating layer flatten
I1011 15:33:54.218354  6398 net.cpp:100] Creating Layer flatten
I1011 15:33:54.218358  6398 net.cpp:434] flatten <- pool
I1011 15:33:54.218374  6398 net.cpp:408] flatten -> flatten
I1011 15:33:54.218410  6398 net.cpp:150] Setting up flatten
I1011 15:33:54.218427  6398 net.cpp:157] Top shape: 64 10 (640)
I1011 15:33:54.218430  6398 net.cpp:165] Memory required for data: 160605952
I1011 15:33:54.218431  6398 layer_factory.hpp:77] Creating layer score
I1011 15:33:54.218449  6398 net.cpp:100] Creating Layer score
I1011 15:33:54.218452  6398 net.cpp:434] score <- flatten
I1011 15:33:54.218456  6398 net.cpp:408] score -> score
I1011 15:33:54.218592  6398 net.cpp:150] Setting up score
I1011 15:33:54.218610  6398 net.cpp:157] Top shape: 64 10 (640)
I1011 15:33:54.218611  6398 net.cpp:165] Memory required for data: 160608512
I1011 15:33:54.218616  6398 layer_factory.hpp:77] Creating layer score_score_0_split
I1011 15:33:54.218633  6398 net.cpp:100] Creating Layer score_score_0_split
I1011 15:33:54.218636  6398 net.cpp:434] score_score_0_split <- score
I1011 15:33:54.218652  6398 net.cpp:408] score_score_0_split -> score_score_0_split_0
I1011 15:33:54.218657  6398 net.cpp:408] score_score_0_split -> score_score_0_split_1
I1011 15:33:54.218699  6398 net.cpp:150] Setting up score_score_0_split
I1011 15:33:54.218704  6398 net.cpp:157] Top shape: 64 10 (640)
I1011 15:33:54.218706  6398 net.cpp:157] Top shape: 64 10 (640)
I1011 15:33:54.218708  6398 net.cpp:165] Memory required for data: 160613632
I1011 15:33:54.218710  6398 layer_factory.hpp:77] Creating layer accuracy
I1011 15:33:54.218714  6398 net.cpp:100] Creating Layer accuracy
I1011 15:33:54.218716  6398 net.cpp:434] accuracy <- score_score_0_split_0
I1011 15:33:54.218719  6398 net.cpp:434] accuracy <- label_data_1_split_0
I1011 15:33:54.218724  6398 net.cpp:408] accuracy -> accuracy
…
I1011 15:33:54.219214  6398 net.cpp:283] Network initialization done.
I1011 15:33:54.219421  6398 solver.cpp:181] Creating test net (#0) specified by test_net file: /home/adam/Honours/Honours-Project/cifar-10_allcnn/elu/allcnn_elu_test.prototxt
I1011 15:33:54.219554  6398 net.cpp:58] Initializing net from parameters: 
state {
  phase: TEST
}
layer {
  name: "data"
  type: "Data"
  top: "data"
  top: "label"
  transform_param {
    mean_file: "mean.binaryproto"
  }
  data_param {
    source: "../../../data/cifar-10/cifar10_test_lmdb"
    batch_size: 100
    backend: LMDB
  }
}
layer {
  name: "conv1"
  type: "Convolution"
  bottom: "data"
  top: "conv1"
  convolution_param {
    num_output: 96
    kernel_size: 3
    weight_filler {
      type: "xavier"
    }
  }
}
layer {
  name: "elu1"
  type: "ELU"
  bottom: "conv1"
  top: "conv1"
}
layer {
  name: "conv2"
  type: "Convolution"
  bottom: "conv1"
  top: "conv2"
  convolution_param {
    num_output: 96
    kernel_size: 3
    weight_filler {
      type: "xavier"
    }
  }
}
layer {
  name: "bn1"
  type: "BatchNorm"
  bottom: "conv2"
  top: "bn1"
}
layer {
  name: "elu2"
  type: "ELU"
  bottom: "bn1"
  top: "bn1"
}
layer {
  name: "drop1"
  type: "Dropout"
  bottom: "bn1"
  top: "drop1"
  dropout_param {
    dropout_ratio: 0.5
  }
}
layer {
  name: "conv3"
  type: "Convolution"
  bottom: "drop1"
  top: "conv3"
  convolution_param {
    num_output: 96
    kernel_size: 3
    stride: 2
    weight_filler {
      type: "xavier"
    }
  }
}
layer {
  name: "elu3"
  type: "ELU"
  bottom: "conv3"
  top: "conv3"
}
layer {
  name: "conv4"
  type: "Convolution"
  bottom: "conv3"
  top: "conv4"
  convolution_param {
    num_output: 192
    kernel_size: 3
    weight_filler {
      type: "xavier"
    }
  }
}
layer {
  name: "elu4"
  type: "ELU"
  bottom: "conv4"
  top: "conv4"
}
layer {
  name: "conv5"
  type: "Convolution"
  bottom: "conv4"
  top: "conv5"
  convolution_param {
    num_output: 192
    kernel_size: 3
    weight_filler {
      type: "xavier"
    }
  }
}
layer {
  name: "bn2"
  type: "BatchNorm"
  bottom: "conv5"
  top: "bn2"
}
layer {
  name: "elu5"
  type: "ELU"
  bottom: "bn2"
  top: "bn2"
}
layer {
  name: "drop4"
  type: "Dropout"
  bottom: "bn2"
  top: "drop4"
  dropout_param {
    dropout_ratio: 0.5
  }
}
layer {
  name: "conv6"
  type: "Convolution"
  bottom: "drop4"
  top: "conv6"
  convolution_param {
    num_output: 192
    kernel_size: 3
    stride: 2
    weight_filler {
      type: "xavier"
    }
  }
}
layer {
  name: "elu6"
  type: "ELU"
  bottom: "conv6"
  top: "conv6"
}
layer {
  name: "conv7"
  type: "Convolution"
  bottom: "conv6"
  top: "conv7"
  convolution_param {
    num_output: 192
    kernel_size: 3
    weight_filler {
      type: "xavier"
    }
  }
}
layer {
  name: "elu7"
  type: "ELU"
  bottom: "conv7"
  top: "conv7"
}
layer {
  name: "conv8"
  type: "Convolution"
  bottom: "conv7"
  top: "conv8"
  convolution_param {
    num_output: 192
    kernel_size: 1
    weight_filler {
      type: "xavier"
    }
  }
}
layer {
  name: "elu8"
  type: "ELU"
  bottom: "conv8"
  top: "conv8"
}
layer {
  name: "conv9"
  type: "Convolution"
  bottom: "conv8"
  top: "conv9"
  convolution_param {
    num_output: 10
    kernel_size: 1
    weight_filler {
      type: "xavier"
    }
  }
}
layer {
  name: "elu9"
  type: "ELU"
  bottom: "conv9"
  top: "conv9"
}
layer {
  name: "pool"
  type: "Pooling"
  bottom: "conv9"
  top: "pool"
  pooling_param {
    pool: AVE
    global_pooling: true
  }
}
layer {
  name: "flatten"
  type: "Flatten"
  bottom: "pool"
  top: "flatten"
}
layer {
  name: "score"
  type: "InnerProduct"
  bottom: "flatten"
  top: "score"
  inner_product_param {
    num_output: 10
    weight_filler {
      type: "gaussian"
    }
  }
}
layer {
  name: "accuracy"
  type: "Accuracy"
  bottom: "score"
  bottom: "label"
  top: "accuracy"
}
layer {
  name: "loss"
  type: "SoftmaxWithLoss"
  bottom: "score"
  bottom: "label"
  top: "loss"
}
I1011 15:33:54.219660  6398 layer_factory.hpp:77] Creating layer data
I1011 15:33:54.219744  6398 net.cpp:100] Creating Layer data
I1011 15:33:54.219750  6398 net.cpp:408] data -> data
I1011 15:33:54.219755  6398 net.cpp:408] data -> label
I1011 15:33:54.219761  6398 data_transformer.cpp:25] Loading mean file from: mean.binaryproto
I1011 15:33:54.220443  6405 db_lmdb.cpp:35] Opened lmdb ../../../data/cifar-10/cifar10_test_lmdb
I1011 15:33:54.220547  6398 data_layer.cpp:41] output data size: 100,3,32,32
I1011 15:33:54.222728  6398 net.cpp:150] Setting up data
I1011 15:33:54.222770  6398 net.cpp:157] Top shape: 100 3 32 32 (307200)
I1011 15:33:54.222774  6398 net.cpp:157] Top shape: 100 (100)
I1011 15:33:54.222789  6398 net.cpp:165] Memory required for data: 1229200
I1011 15:33:54.222793  6398 layer_factory.hpp:77] Creating layer label_data_1_split
I1011 15:33:54.222817  6398 net.cpp:100] Creating Layer label_data_1_split
I1011 15:33:54.222820  6398 net.cpp:434] label_data_1_split <- label
I1011 15:33:54.222826  6398 net.cpp:408] label_data_1_split -> label_data_1_split_0
I1011 15:33:54.222848  6398 net.cpp:408] label_data_1_split -> label_data_1_split_1
I1011 15:33:54.223028  6398 net.cpp:150] Setting up label_data_1_split
I1011 15:33:54.223034  6398 net.cpp:157] Top shape: 100 (100)
I1011 15:33:54.223049  6398 net.cpp:157] Top shape: 100 (100)
I1011 15:33:54.223052  6398 net.cpp:165] Memory required for data: 1230000
I1011 15:33:54.223053  6398 layer_factory.hpp:77] Creating layer conv1
I1011 15:33:54.223075  6398 net.cpp:100] Creating Layer conv1
I1011 15:33:54.223078  6398 net.cpp:434] conv1 <- data
I1011 15:33:54.223095  6398 net.cpp:408] conv1 -> conv1
I1011 15:33:54.224272  6398 net.cpp:150] Setting up conv1
I1011 15:33:54.224295  6398 net.cpp:157] Top shape: 100 96 30 30 (8640000)
I1011 15:33:54.224298  6398 net.cpp:165] Memory required for data: 35790000
I1011 15:33:54.224305  6398 layer_factory.hpp:77] Creating layer elu1
I1011 15:33:54.224311  6398 net.cpp:100] Creating Layer elu1
I1011 15:33:54.224313  6398 net.cpp:434] elu1 <- conv1
I1011 15:33:54.224318  6398 net.cpp:395] elu1 -> conv1 (in-place)
I1011 15:33:54.224323  6398 net.cpp:150] Setting up elu1
I1011 15:33:54.224325  6398 net.cpp:157] Top shape: 100 96 30 30 (8640000)
I1011 15:33:54.224328  6398 net.cpp:165] Memory required for data: 70350000
I1011 15:33:54.224329  6398 layer_factory.hpp:77] Creating layer conv2
I1011 15:33:54.224336  6398 net.cpp:100] Creating Layer conv2
I1011 15:33:54.224339  6398 net.cpp:434] conv2 <- conv1
I1011 15:33:54.224355  6398 net.cpp:408] conv2 -> conv2
I1011 15:33:54.225843  6398 net.cpp:150] Setting up conv2
I1011 15:33:54.225855  6398 net.cpp:157] Top shape: 100 96 28 28 (7526400)
I1011 15:33:54.225858  6398 net.cpp:165] Memory required for data: 100455600
I1011 15:33:54.225865  6398 layer_factory.hpp:77] Creating layer bn1
I1011 15:33:54.225872  6398 net.cpp:100] Creating Layer bn1
I1011 15:33:54.225873  6398 net.cpp:434] bn1 <- conv2
I1011 15:33:54.225878  6398 net.cpp:408] bn1 -> bn1
I1011 15:33:54.226052  6398 net.cpp:150] Setting up bn1
I1011 15:33:54.226058  6398 net.cpp:157] Top shape: 100 96 28 28 (7526400)
I1011 15:33:54.226070  6398 net.cpp:165] Memory required for data: 130561200
I1011 15:33:54.226076  6398 layer_factory.hpp:77] Creating layer elu2
I1011 15:33:54.226099  6398 net.cpp:100] Creating Layer elu2
I1011 15:33:54.226104  6398 net.cpp:434] elu2 <- bn1
I1011 15:33:54.226109  6398 net.cpp:395] elu2 -> bn1 (in-place)
I1011 15:33:54.226112  6398 net.cpp:150] Setting up elu2
I1011 15:33:54.226116  6398 net.cpp:157] Top shape: 100 96 28 28 (7526400)
I1011 15:33:54.226119  6398 net.cpp:165] Memory required for data: 160666800
I1011 15:33:54.226120  6398 layer_factory.hpp:77] Creating layer drop1
I1011 15:33:54.226125  6398 net.cpp:100] Creating Layer drop1
I1011 15:33:54.226126  6398 net.cpp:434] drop1 <- bn1
I1011 15:33:54.226130  6398 net.cpp:408] drop1 -> drop1
I1011 15:33:54.226167  6398 net.cpp:150] Setting up drop1
I1011 15:33:54.226181  6398 net.cpp:157] Top shape: 100 96 28 28 (7526400)
I1011 15:33:54.226191  6398 net.cpp:165] Memory required for data: 190772400
I1011 15:33:54.226199  6398 layer_factory.hpp:77] Creating layer conv3
I1011 15:33:54.226214  6398 net.cpp:100] Creating Layer conv3
I1011 15:33:54.226220  6398 net.cpp:434] conv3 <- drop1
I1011 15:33:54.226224  6398 net.cpp:408] conv3 -> conv3
I1011 15:33:54.227473  6398 net.cpp:150] Setting up conv3
I1011 15:33:54.227500  6398 net.cpp:157] Top shape: 100 96 13 13 (1622400)
I1011 15:33:54.227504  6398 net.cpp:165] Memory required for data: 197262000
I1011 15:33:54.227514  6398 layer_factory.hpp:77] Creating layer elu3
I1011 15:33:54.227519  6398 net.cpp:100] Creating Layer elu3
I1011 15:33:54.227521  6398 net.cpp:434] elu3 <- conv3
I1011 15:33:54.227524  6398 net.cpp:395] elu3 -> conv3 (in-place)
I1011 15:33:54.227530  6398 net.cpp:150] Setting up elu3
I1011 15:33:54.227535  6398 net.cpp:157] Top shape: 100 96 13 13 (1622400)
I1011 15:33:54.227536  6398 net.cpp:165] Memory required for data: 203751600
I1011 15:33:54.227555  6398 layer_factory.hpp:77] Creating layer conv4
I1011 15:33:54.227565  6398 net.cpp:100] Creating Layer conv4
I1011 15:33:54.227566  6398 net.cpp:434] conv4 <- conv3
I1011 15:33:54.227571  6398 net.cpp:408] conv4 -> conv4
I1011 15:33:54.229408  6398 net.cpp:150] Setting up conv4
I1011 15:33:54.229421  6398 net.cpp:157] Top shape: 100 192 11 11 (2323200)
I1011 15:33:54.229423  6398 net.cpp:165] Memory required for data: 213044400
I1011 15:33:54.229429  6398 layer_factory.hpp:77] Creating layer elu4
I1011 15:33:54.229434  6398 net.cpp:100] Creating Layer elu4
I1011 15:33:54.229437  6398 net.cpp:434] elu4 <- conv4
I1011 15:33:54.229440  6398 net.cpp:395] elu4 -> conv4 (in-place)
I1011 15:33:54.229445  6398 net.cpp:150] Setting up elu4
I1011 15:33:54.229449  6398 net.cpp:157] Top shape: 100 192 11 11 (2323200)
I1011 15:33:54.229451  6398 net.cpp:165] Memory required for data: 222337200
I1011 15:33:54.229454  6398 layer_factory.hpp:77] Creating layer conv5
I1011 15:33:54.229460  6398 net.cpp:100] Creating Layer conv5
I1011 15:33:54.229462  6398 net.cpp:434] conv5 <- conv4
I1011 15:33:54.229467  6398 net.cpp:408] conv5 -> conv5
I1011 15:33:54.232228  6398 net.cpp:150] Setting up conv5
I1011 15:33:54.232244  6398 net.cpp:157] Top shape: 100 192 9 9 (1555200)
I1011 15:33:54.232246  6398 net.cpp:165] Memory required for data: 228558000
I1011 15:33:54.232266  6398 layer_factory.hpp:77] Creating layer bn2
I1011 15:33:54.232271  6398 net.cpp:100] Creating Layer bn2
I1011 15:33:54.232275  6398 net.cpp:434] bn2 <- conv5
I1011 15:33:54.232280  6398 net.cpp:408] bn2 -> bn2
I1011 15:33:54.232481  6398 net.cpp:150] Setting up bn2
I1011 15:33:54.232486  6398 net.cpp:157] Top shape: 100 192 9 9 (1555200)
I1011 15:33:54.232488  6398 net.cpp:165] Memory required for data: 234778800
I1011 15:33:54.232509  6398 layer_factory.hpp:77] Creating layer elu5
I1011 15:33:54.232513  6398 net.cpp:100] Creating Layer elu5
I1011 15:33:54.232516  6398 net.cpp:434] elu5 <- bn2
I1011 15:33:54.232519  6398 net.cpp:395] elu5 -> bn2 (in-place)
I1011 15:33:54.232523  6398 net.cpp:150] Setting up elu5
I1011 15:33:54.232540  6398 net.cpp:157] Top shape: 100 192 9 9 (1555200)
I1011 15:33:54.232553  6398 net.cpp:165] Memory required for data: 240999600
I1011 15:33:54.232555  6398 layer_factory.hpp:77] Creating layer drop4
I1011 15:33:54.232563  6398 net.cpp:100] Creating Layer drop4
I1011 15:33:54.232565  6398 net.cpp:434] drop4 <- bn2
I1011 15:33:54.232568  6398 net.cpp:408] drop4 -> drop4
I1011 15:33:54.232601  6398 net.cpp:150] Setting up drop4
I1011 15:33:54.232606  6398 net.cpp:157] Top shape: 100 192 9 9 (1555200)
I1011 15:33:54.232609  6398 net.cpp:165] Memory required for data: 247220400
I1011 15:33:54.232610  6398 layer_factory.hpp:77] Creating layer conv6
I1011 15:33:54.232620  6398 net.cpp:100] Creating Layer conv6
I1011 15:33:54.232622  6398 net.cpp:434] conv6 <- drop4
I1011 15:33:54.232625  6398 net.cpp:408] conv6 -> conv6
I1011 15:33:54.235272  6398 net.cpp:150] Setting up conv6
I1011 15:33:54.235285  6398 net.cpp:157] Top shape: 100 192 4 4 (307200)
I1011 15:33:54.235288  6398 net.cpp:165] Memory required for data: 248449200
I1011 15:33:54.235296  6398 layer_factory.hpp:77] Creating layer elu6
I1011 15:33:54.235301  6398 net.cpp:100] Creating Layer elu6
I1011 15:33:54.235303  6398 net.cpp:434] elu6 <- conv6
I1011 15:33:54.235309  6398 net.cpp:395] elu6 -> conv6 (in-place)
I1011 15:33:54.235314  6398 net.cpp:150] Setting up elu6
I1011 15:33:54.235317  6398 net.cpp:157] Top shape: 100 192 4 4 (307200)
I1011 15:33:54.235319  6398 net.cpp:165] Memory required for data: 249678000
I1011 15:33:54.235333  6398 layer_factory.hpp:77] Creating layer conv7
I1011 15:33:54.235339  6398 net.cpp:100] Creating Layer conv7
I1011 15:33:54.235355  6398 net.cpp:434] conv7 <- conv6
I1011 15:33:54.235358  6398 net.cpp:408] conv7 -> conv7
I1011 15:33:54.238143  6398 net.cpp:150] Setting up conv7
I1011 15:33:54.238159  6398 net.cpp:157] Top shape: 100 192 2 2 (76800)
I1011 15:33:54.238162  6398 net.cpp:165] Memory required for data: 249985200
I1011 15:33:54.238167  6398 layer_factory.hpp:77] Creating layer elu7
I1011 15:33:54.238170  6398 net.cpp:100] Creating Layer elu7
I1011 15:33:54.238173  6398 net.cpp:434] elu7 <- conv7
I1011 15:33:54.238176  6398 net.cpp:395] elu7 -> conv7 (in-place)
I1011 15:33:54.238181  6398 net.cpp:150] Setting up elu7
I1011 15:33:54.238184  6398 net.cpp:157] Top shape: 100 192 2 2 (76800)
I1011 15:33:54.238186  6398 net.cpp:165] Memory required for data: 250292400
I1011 15:33:54.238188  6398 layer_factory.hpp:77] Creating layer conv8
I1011 15:33:54.238209  6398 net.cpp:100] Creating Layer conv8
I1011 15:33:54.238210  6398 net.cpp:434] conv8 <- conv7
I1011 15:33:54.238214  6398 net.cpp:408] conv8 -> conv8
I1011 15:33:54.239297  6398 net.cpp:150] Setting up conv8
I1011 15:33:54.239307  6398 net.cpp:157] Top shape: 100 192 2 2 (76800)
I1011 15:33:54.239310  6398 net.cpp:165] Memory required for data: 250599600
I1011 15:33:54.239315  6398 layer_factory.hpp:77] Creating layer elu8
I1011 15:33:54.239318  6398 net.cpp:100] Creating Layer elu8
I1011 15:33:54.239320  6398 net.cpp:434] elu8 <- conv8
I1011 15:33:54.239326  6398 net.cpp:395] elu8 -> conv8 (in-place)
I1011 15:33:54.239329  6398 net.cpp:150] Setting up elu8
I1011 15:33:54.239332  6398 net.cpp:157] Top shape: 100 192 2 2 (76800)
I1011 15:33:54.239334  6398 net.cpp:165] Memory required for data: 250906800
I1011 15:33:54.239336  6398 layer_factory.hpp:77] Creating layer conv9
I1011 15:33:54.239356  6398 net.cpp:100] Creating Layer conv9
I1011 15:33:54.239357  6398 net.cpp:434] conv9 <- conv8
I1011 15:33:54.239362  6398 net.cpp:408] conv9 -> conv9
I1011 15:33:54.240316  6398 net.cpp:150] Setting up conv9
I1011 15:33:54.240326  6398 net.cpp:157] Top shape: 100 10 2 2 (4000)
I1011 15:33:54.240329  6398 net.cpp:165] Memory required for data: 250922800
I1011 15:33:54.240334  6398 layer_factory.hpp:77] Creating layer elu9
I1011 15:33:54.240336  6398 net.cpp:100] Creating Layer elu9
I1011 15:33:54.240339  6398 net.cpp:434] elu9 <- conv9
I1011 15:33:54.240342  6398 net.cpp:395] elu9 -> conv9 (in-place)
I1011 15:33:54.240346  6398 net.cpp:150] Setting up elu9
I1011 15:33:54.240350  6398 net.cpp:157] Top shape: 100 10 2 2 (4000)
I1011 15:33:54.240375  6398 net.cpp:165] Memory required for data: 250938800
I1011 15:33:54.240377  6398 layer_factory.hpp:77] Creating layer pool
I1011 15:33:54.240382  6398 net.cpp:100] Creating Layer pool
I1011 15:33:54.240384  6398 net.cpp:434] pool <- conv9
I1011 15:33:54.240387  6398 net.cpp:408] pool -> pool
I1011 15:33:54.240715  6398 net.cpp:150] Setting up pool
I1011 15:33:54.240722  6398 net.cpp:157] Top shape: 100 10 1 1 (1000)
I1011 15:33:54.240737  6398 net.cpp:165] Memory required for data: 250942800
I1011 15:33:54.240741  6398 layer_factory.hpp:77] Creating layer flatten
I1011 15:33:54.240744  6398 net.cpp:100] Creating Layer flatten
I1011 15:33:54.240747  6398 net.cpp:434] flatten <- pool
I1011 15:33:54.240751  6398 net.cpp:408] flatten -> flatten
I1011 15:33:54.240800  6398 net.cpp:150] Setting up flatten
I1011 15:33:54.240805  6398 net.cpp:157] Top shape: 100 10 (1000)
I1011 15:33:54.240808  6398 net.cpp:165] Memory required for data: 250946800
I1011 15:33:54.240809  6398 layer_factory.hpp:77] Creating layer score
I1011 15:33:54.240828  6398 net.cpp:100] Creating Layer score
I1011 15:33:54.240829  6398 net.cpp:434] score <- flatten
I1011 15:33:54.240833  6398 net.cpp:408] score -> score
I1011 15:33:54.240945  6398 net.cpp:150] Setting up score
I1011 15:33:54.240949  6398 net.cpp:157] Top shape: 100 10 (1000)
I1011 15:33:54.240952  6398 net.cpp:165] Memory required for data: 250950800
I1011 15:33:54.240957  6398 layer_factory.hpp:77] Creating layer score_score_0_split
I1011 15:33:54.240960  6398 net.cpp:100] Creating Layer score_score_0_split
I1011 15:33:54.240977  6398 net.cpp:434] score_score_0_split <- score
I1011 15:33:54.240980  6398 net.cpp:408] score_score_0_split -> score_score_0_split_0
I1011 15:33:54.240985  6398 net.cpp:408] score_score_0_split -> score_score_0_split_1
I1011 15:33:54.241016  6398 net.cpp:150] Setting up score_score_0_split
I1011 15:33:54.241021  6398 net.cpp:157] Top shape: 100 10 (1000)
I1011 15:33:54.241024  6398 net.cpp:157] Top shape: 100 10 (1000)
I1011 15:33:54.241025  6398 net.cpp:165] Memory required for data: 250958800
I1011 15:33:54.241041  6398 layer_factory.hpp:77] Creating layer accuracy
I1011 15:33:54.241045  6398 net.cpp:100] Creating Layer accuracy
I1011 15:33:54.241049  6398 net.cpp:434] accuracy <- score_score_0_split_0
I1011 15:33:54.241051  6398 net.cpp:434] accuracy <- label_data_1_split_0
I1011 15:33:54.241055  6398 net.cpp:408] accuracy -> accuracy
…
