…
  stage: ""
}
type: "SGD"
I1010 14:51:48.503609  6066 solver.cpp:81] Creating training net from train_net file: /home/adam/Honours/Honours-Project/cifar-10_allcnn/relu/allcnn_relu_train.prototxt
I1010 14:51:48.503931  6066 net.cpp:58] Initializing net from parameters: 
state {
  phase: TRAIN
  level: 0
  stage: ""
}
layer {
  name: "data"
  type: "Data"
  top: "data"
  top: "label"
  transform_param {
    mean_file: "mean.binaryproto"
  }
  data_param {
    source: "../../../data/cifar-10/cifar10_train_lmdb"
    batch_size: 64
    backend: LMDB
  }
}
layer {
  name: "conv1"
  type: "Convolution"
  bottom: "data"
  top: "conv1"
  convolution_param {
    num_output: 96
    kernel_size: 3
    weight_filler {
      type: "xavier"
    }
  }
}
layer {
  name: "relu1"
  type: "ReLU"
  bottom: "conv1"
  top: "conv1"
}
layer {
  name: "conv2"
  type: "Convolution"
  bottom: "conv1"
  top: "conv2"
  convolution_param {
    num_output: 96
    kernel_size: 3
    weight_filler {
      type: "xavier"
    }
  }
}
layer {
  name: "bn1"
  type: "BatchNorm"
  bottom: "conv2"
  top: "bn1"
}
layer {
  name: "relu2"
  type: "ReLU"
  bottom: "bn1"
  top: "bn1"
}
layer {
  name: "drop1"
  type: "Dropout"
  bottom: "bn1"
  top: "drop1"
  dropout_param {
    dropout_ratio: 0.5
  }
}
layer {
  name: "conv3"
  type: "Convolution"
  bottom: "drop1"
  top: "conv3"
  convolution_param {
    num_output: 96
    kernel_size: 3
    stride: 2
    weight_filler {
      type: "xavier"
    }
  }
}
layer {
  name: "relu3"
  type: "ReLU"
  bottom: "conv3"
  top: "conv3"
}
layer {
  name: "conv4"
  type: "Convolution"
  bottom: "conv3"
  top: "conv4"
  convolution_param {
    num_output: 192
    kernel_size: 3
    weight_filler {
      type: "xavier"
    }
  }
}
layer {
  name: "relu4"
  type: "ReLU"
  bottom: "conv4"
  top: "conv4"
}
layer {
  name: "conv5"
  type: "Convolution"
  bottom: "conv4"
  top: "conv5"
  convolution_param {
    num_output: 192
    kernel_size: 3
    weight_filler {
      type: "xavier"
    }
  }
}
layer {
  name: "bn2"
  type: "BatchNorm"
  bottom: "conv5"
  top: "bn2"
}
layer {
  name: "relu5"
  type: "ReLU"
  bottom: "bn2"
  top: "bn2"
}
layer {
  name: "drop4"
  type: "Dropout"
  bottom: "bn2"
  top: "drop4"
  dropout_param {
    dropout_ratio: 0.5
  }
}
layer {
  name: "conv6"
  type: "Convolution"
  bottom: "drop4"
  top: "conv6"
  convolution_param {
    num_output: 192
    kernel_size: 3
    stride: 2
    weight_filler {
      type: "xavier"
    }
  }
}
layer {
  name: "relu6"
  type: "ReLU"
  bottom: "conv6"
  top: "conv6"
}
layer {
  name: "conv7"
  type: "Convolution"
  bottom: "conv6"
  top: "conv7"
  convolution_param {
    num_output: 192
    kernel_size: 3
    weight_filler {
      type: "xavier"
    }
  }
}
layer {
  name: "relu7"
  type: "ReLU"
  bottom: "conv7"
  top: "conv7"
}
layer {
  name: "conv8"
  type: "Convolution"
  bottom: "conv7"
  top: "conv8"
  convolution_param {
    num_output: 192
    kernel_size: 1
    weight_filler {
      type: "xavier"
    }
  }
}
layer {
  name: "relu8"
  type: "ReLU"
  bottom: "conv8"
  top: "conv8"
}
layer {
  name: "conv9"
  type: "Convolution"
  bottom: "conv8"
  top: "conv9"
  convolution_param {
    num_output: 10
    kernel_size: 1
    weight_filler {
      type: "xavier"
    }
  }
}
layer {
  name: "relu9"
  type: "ReLU"
  bottom: "conv9"
  top: "conv9"
}
layer {
  name: "pool"
  type: "Pooling"
  bottom: "conv9"
  top: "pool"
  pooling_param {
    pool: AVE
    global_pooling: true
  }
}
layer {
  name: "flatten"
  type: "Flatten"
  bottom: "pool"
  top: "flatten"
}
layer {
  name: "score"
  type: "InnerProduct"
  bottom: "flatten"
  top: "score"
  inner_product_param {
    num_output: 10
    weight_filler {
      type: "gaussian"
    }
  }
}
layer {
  name: "accuracy"
  type: "Accuracy"
  bottom: "score"
  bottom: "label"
  top: "accuracy"
}
layer {
  name: "loss"
  type: "SoftmaxWithLoss"
  bottom: "score"
  bottom: "label"
  top: "loss"
}
I1010 14:51:48.504086  6066 layer_factory.hpp:77] Creating layer data
I1010 14:51:48.504541  6066 net.cpp:100] Creating Layer data
I1010 14:51:48.504549  6066 net.cpp:408] data -> data
I1010 14:51:48.504587  6066 net.cpp:408] data -> label
I1010 14:51:48.504597  6066 data_transformer.cpp:25] Loading mean file from: mean.binaryproto
I1010 14:51:48.506094  6071 db_lmdb.cpp:35] Opened lmdb ../../../data/cifar-10/cifar10_train_lmdb
I1010 14:51:48.511803  6066 data_layer.cpp:41] output data size: 64,3,32,32
I1010 14:51:48.513403  6066 net.cpp:150] Setting up data
I1010 14:51:48.513419  6066 net.cpp:157] Top shape: 64 3 32 32 (196608)
I1010 14:51:48.513437  6066 net.cpp:157] Top shape: 64 (64)
I1010 14:51:48.513439  6066 net.cpp:165] Memory required for data: 786688
I1010 14:51:48.513460  6066 layer_factory.hpp:77] Creating layer label_data_1_split
I1010 14:51:48.513484  6066 net.cpp:100] Creating Layer label_data_1_split
I1010 14:51:48.513490  6066 net.cpp:434] label_data_1_split <- label
I1010 14:51:48.513514  6066 net.cpp:408] label_data_1_split -> label_data_1_split_0
I1010 14:51:48.513521  6066 net.cpp:408] label_data_1_split -> label_data_1_split_1
I1010 14:51:48.513552  6066 net.cpp:150] Setting up label_data_1_split
I1010 14:51:48.513556  6066 net.cpp:157] Top shape: 64 (64)
I1010 14:51:48.513559  6066 net.cpp:157] Top shape: 64 (64)
I1010 14:51:48.513561  6066 net.cpp:165] Memory required for data: 787200
I1010 14:51:48.513563  6066 layer_factory.hpp:77] Creating layer conv1
I1010 14:51:48.513589  6066 net.cpp:100] Creating Layer conv1
I1010 14:51:48.513592  6066 net.cpp:434] conv1 <- data
I1010 14:51:48.513613  6066 net.cpp:408] conv1 -> conv1
I1010 14:51:48.652772  6066 net.cpp:150] Setting up conv1
I1010 14:51:48.652796  6066 net.cpp:157] Top shape: 64 96 30 30 (5529600)
I1010 14:51:48.652799  6066 net.cpp:165] Memory required for data: 22905600
I1010 14:51:48.652815  6066 layer_factory.hpp:77] Creating layer relu1
I1010 14:51:48.652824  6066 net.cpp:100] Creating Layer relu1
I1010 14:51:48.652827  6066 net.cpp:434] relu1 <- conv1
I1010 14:51:48.652830  6066 net.cpp:395] relu1 -> conv1 (in-place)
I1010 14:51:48.653064  6066 net.cpp:150] Setting up relu1
I1010 14:51:48.653070  6066 net.cpp:157] Top shape: 64 96 30 30 (5529600)
I1010 14:51:48.653072  6066 net.cpp:165] Memory required for data: 45024000
I1010 14:51:48.653074  6066 layer_factory.hpp:77] Creating layer conv2
I1010 14:51:48.653084  6066 net.cpp:100] Creating Layer conv2
I1010 14:51:48.653086  6066 net.cpp:434] conv2 <- conv1
I1010 14:51:48.653090  6066 net.cpp:408] conv2 -> conv2
I1010 14:51:48.654500  6066 net.cpp:150] Setting up conv2
I1010 14:51:48.654510  6066 net.cpp:157] Top shape: 64 96 28 28 (4816896)
I1010 14:51:48.654512  6066 net.cpp:165] Memory required for data: 64291584
I1010 14:51:48.654518  6066 layer_factory.hpp:77] Creating layer bn1
I1010 14:51:48.654525  6066 net.cpp:100] Creating Layer bn1
I1010 14:51:48.654526  6066 net.cpp:434] bn1 <- conv2
I1010 14:51:48.654530  6066 net.cpp:408] bn1 -> bn1
I1010 14:51:48.654721  6066 net.cpp:150] Setting up bn1
I1010 14:51:48.654726  6066 net.cpp:157] Top shape: 64 96 28 28 (4816896)
I1010 14:51:48.654727  6066 net.cpp:165] Memory required for data: 83559168
I1010 14:51:48.654733  6066 layer_factory.hpp:77] Creating layer relu2
I1010 14:51:48.654736  6066 net.cpp:100] Creating Layer relu2
I1010 14:51:48.654738  6066 net.cpp:434] relu2 <- bn1
I1010 14:51:48.654742  6066 net.cpp:395] relu2 -> bn1 (in-place)
I1010 14:51:48.654911  6066 net.cpp:150] Setting up relu2
I1010 14:51:48.654917  6066 net.cpp:157] Top shape: 64 96 28 28 (4816896)
I1010 14:51:48.654929  6066 net.cpp:165] Memory required for data: 102826752
I1010 14:51:48.654932  6066 layer_factory.hpp:77] Creating layer drop1
I1010 14:51:48.654935  6066 net.cpp:100] Creating Layer drop1
I1010 14:51:48.654937  6066 net.cpp:434] drop1 <- bn1
I1010 14:51:48.654942  6066 net.cpp:408] drop1 -> drop1
I1010 14:51:48.655014  6066 net.cpp:150] Setting up drop1
I1010 14:51:48.655017  6066 net.cpp:157] Top shape: 64 96 28 28 (4816896)
I1010 14:51:48.655021  6066 net.cpp:165] Memory required for data: 122094336
I1010 14:51:48.655036  6066 layer_factory.hpp:77] Creating layer conv3
I1010 14:51:48.655042  6066 net.cpp:100] Creating Layer conv3
I1010 14:51:48.655059  6066 net.cpp:434] conv3 <- drop1
I1010 14:51:48.655063  6066 net.cpp:408] conv3 -> conv3
I1010 14:51:48.656267  6066 net.cpp:150] Setting up conv3
I1010 14:51:48.656276  6066 net.cpp:157] Top shape: 64 96 13 13 (1038336)
I1010 14:51:48.656278  6066 net.cpp:165] Memory required for data: 126247680
I1010 14:51:48.656286  6066 layer_factory.hpp:77] Creating layer relu3
I1010 14:51:48.656289  6066 net.cpp:100] Creating Layer relu3
I1010 14:51:48.656291  6066 net.cpp:434] relu3 <- conv3
I1010 14:51:48.656296  6066 net.cpp:395] relu3 -> conv3 (in-place)
I1010 14:51:48.656560  6066 net.cpp:150] Setting up relu3
I1010 14:51:48.656569  6066 net.cpp:157] Top shape: 64 96 13 13 (1038336)
I1010 14:51:48.656570  6066 net.cpp:165] Memory required for data: 130401024
I1010 14:51:48.656572  6066 layer_factory.hpp:77] Creating layer conv4
I1010 14:51:48.656579  6066 net.cpp:100] Creating Layer conv4
I1010 14:51:48.656580  6066 net.cpp:434] conv4 <- conv3
I1010 14:51:48.656584  6066 net.cpp:408] conv4 -> conv4
I1010 14:51:48.658432  6066 net.cpp:150] Setting up conv4
I1010 14:51:48.658443  6066 net.cpp:157] Top shape: 64 192 11 11 (1486848)
I1010 14:51:48.658445  6066 net.cpp:165] Memory required for data: 136348416
I1010 14:51:48.658449  6066 layer_factory.hpp:77] Creating layer relu4
I1010 14:51:48.658453  6066 net.cpp:100] Creating Layer relu4
I1010 14:51:48.658455  6066 net.cpp:434] relu4 <- conv4
I1010 14:51:48.658459  6066 net.cpp:395] relu4 -> conv4 (in-place)
I1010 14:51:48.658648  6066 net.cpp:150] Setting up relu4
I1010 14:51:48.658654  6066 net.cpp:157] Top shape: 64 192 11 11 (1486848)
I1010 14:51:48.658656  6066 net.cpp:165] Memory required for data: 142295808
I1010 14:51:48.658658  6066 layer_factory.hpp:77] Creating layer conv5
I1010 14:51:48.658664  6066 net.cpp:100] Creating Layer conv5
I1010 14:51:48.658666  6066 net.cpp:434] conv5 <- conv4
I1010 14:51:48.658670  6066 net.cpp:408] conv5 -> conv5
I1010 14:51:48.661214  6066 net.cpp:150] Setting up conv5
I1010 14:51:48.661226  6066 net.cpp:157] Top shape: 64 192 9 9 (995328)
I1010 14:51:48.661227  6066 net.cpp:165] Memory required for data: 146277120
I1010 14:51:48.661231  6066 layer_factory.hpp:77] Creating layer bn2
I1010 14:51:48.661237  6066 net.cpp:100] Creating Layer bn2
I1010 14:51:48.661238  6066 net.cpp:434] bn2 <- conv5
I1010 14:51:48.661242  6066 net.cpp:408] bn2 -> bn2
I1010 14:51:48.661448  6066 net.cpp:150] Setting up bn2
I1010 14:51:48.661453  6066 net.cpp:157] Top shape: 64 192 9 9 (995328)
I1010 14:51:48.661455  6066 net.cpp:165] Memory required for data: 150258432
I1010 14:51:48.661460  6066 layer_factory.hpp:77] Creating layer relu5
I1010 14:51:48.661463  6066 net.cpp:100] Creating Layer relu5
I1010 14:51:48.661465  6066 net.cpp:434] relu5 <- bn2
I1010 14:51:48.661468  6066 net.cpp:395] relu5 -> bn2 (in-place)
I1010 14:51:48.661653  6066 net.cpp:150] Setting up relu5
I1010 14:51:48.661659  6066 net.cpp:157] Top shape: 64 192 9 9 (995328)
I1010 14:51:48.661660  6066 net.cpp:165] Memory required for data: 154239744
I1010 14:51:48.661662  6066 layer_factory.hpp:77] Creating layer drop4
I1010 14:51:48.661666  6066 net.cpp:100] Creating Layer drop4
I1010 14:51:48.661669  6066 net.cpp:434] drop4 <- bn2
I1010 14:51:48.661672  6066 net.cpp:408] drop4 -> drop4
I1010 14:51:48.661700  6066 net.cpp:150] Setting up drop4
I1010 14:51:48.661720  6066 net.cpp:157] Top shape: 64 192 9 9 (995328)
I1010 14:51:48.661721  6066 net.cpp:165] Memory required for data: 158221056
I1010 14:51:48.661744  6066 layer_factory.hpp:77] Creating layer conv6
I1010 14:51:48.661770  6066 net.cpp:100] Creating Layer conv6
I1010 14:51:48.661784  6066 net.cpp:434] conv6 <- drop4
I1010 14:51:48.661788  6066 net.cpp:408] conv6 -> conv6
I1010 14:51:48.664312  6066 net.cpp:150] Setting up conv6
I1010 14:51:48.664340  6066 net.cpp:157] Top shape: 64 192 4 4 (196608)
I1010 14:51:48.664341  6066 net.cpp:165] Memory required for data: 159007488
I1010 14:51:48.664350  6066 layer_factory.hpp:77] Creating layer relu6
I1010 14:51:48.664356  6066 net.cpp:100] Creating Layer relu6
I1010 14:51:48.664360  6066 net.cpp:434] relu6 <- conv6
I1010 14:51:48.664376  6066 net.cpp:395] relu6 -> conv6 (in-place)
I1010 14:51:48.664616  6066 net.cpp:150] Setting up relu6
I1010 14:51:48.664638  6066 net.cpp:157] Top shape: 64 192 4 4 (196608)
I1010 14:51:48.664639  6066 net.cpp:165] Memory required for data: 159793920
I1010 14:51:48.664643  6066 layer_factory.hpp:77] Creating layer conv7
I1010 14:51:48.664649  6066 net.cpp:100] Creating Layer conv7
I1010 14:51:48.664651  6066 net.cpp:434] conv7 <- conv6
I1010 14:51:48.664670  6066 net.cpp:408] conv7 -> conv7
I1010 14:51:48.668437  6066 net.cpp:150] Setting up conv7
I1010 14:51:48.668454  6066 net.cpp:157] Top shape: 64 192 2 2 (49152)
I1010 14:51:48.668457  6066 net.cpp:165] Memory required for data: 159990528
I1010 14:51:48.668462  6066 layer_factory.hpp:77] Creating layer relu7
I1010 14:51:48.668468  6066 net.cpp:100] Creating Layer relu7
I1010 14:51:48.668472  6066 net.cpp:434] relu7 <- conv7
I1010 14:51:48.668475  6066 net.cpp:395] relu7 -> conv7 (in-place)
I1010 14:51:48.668758  6066 net.cpp:150] Setting up relu7
I1010 14:51:48.668766  6066 net.cpp:157] Top shape: 64 192 2 2 (49152)
I1010 14:51:48.668768  6066 net.cpp:165] Memory required for data: 160187136
I1010 14:51:48.668771  6066 layer_factory.hpp:77] Creating layer conv8
I1010 14:51:48.668778  6066 net.cpp:100] Creating Layer conv8
I1010 14:51:48.668781  6066 net.cpp:434] conv8 <- conv7
I1010 14:51:48.668784  6066 net.cpp:408] conv8 -> conv8
I1010 14:51:48.670056  6066 net.cpp:150] Setting up conv8
I1010 14:51:48.670066  6066 net.cpp:157] Top shape: 64 192 2 2 (49152)
I1010 14:51:48.670069  6066 net.cpp:165] Memory required for data: 160383744
I1010 14:51:48.670073  6066 layer_factory.hpp:77] Creating layer relu8
I1010 14:51:48.670078  6066 net.cpp:100] Creating Layer relu8
I1010 14:51:48.670079  6066 net.cpp:434] relu8 <- conv8
I1010 14:51:48.670083  6066 net.cpp:395] relu8 -> conv8 (in-place)
I1010 14:51:48.670250  6066 net.cpp:150] Setting up relu8
I1010 14:51:48.670256  6066 net.cpp:157] Top shape: 64 192 2 2 (49152)
I1010 14:51:48.670258  6066 net.cpp:165] Memory required for data: 160580352
I1010 14:51:48.670260  6066 layer_factory.hpp:77] Creating layer conv9
I1010 14:51:48.670266  6066 net.cpp:100] Creating Layer conv9
I1010 14:51:48.670269  6066 net.cpp:434] conv9 <- conv8
I1010 14:51:48.670271  6066 net.cpp:408] conv9 -> conv9
I1010 14:51:48.671070  6066 net.cpp:150] Setting up conv9
I1010 14:51:48.671079  6066 net.cpp:157] Top shape: 64 10 2 2 (2560)
I1010 14:51:48.671082  6066 net.cpp:165] Memory required for data: 160590592
I1010 14:51:48.671085  6066 layer_factory.hpp:77] Creating layer relu9
I1010 14:51:48.671090  6066 net.cpp:100] Creating Layer relu9
I1010 14:51:48.671092  6066 net.cpp:434] relu9 <- conv9
I1010 14:51:48.671095  6066 net.cpp:395] relu9 -> conv9 (in-place)
I1010 14:51:48.671344  6066 net.cpp:150] Setting up relu9
I1010 14:51:48.671351  6066 net.cpp:157] Top shape: 64 10 2 2 (2560)
I1010 14:51:48.671353  6066 net.cpp:165] Memory required for data: 160600832
I1010 14:51:48.671355  6066 layer_factory.hpp:77] Creating layer pool
I1010 14:51:48.671360  6066 net.cpp:100] Creating Layer pool
I1010 14:51:48.671362  6066 net.cpp:434] pool <- conv9
I1010 14:51:48.671366  6066 net.cpp:408] pool -> pool
I1010 14:51:48.671560  6066 net.cpp:150] Setting up pool
I1010 14:51:48.671564  6066 net.cpp:157] Top shape: 64 10 1 1 (640)
I1010 14:51:48.671566  6066 net.cpp:165] Memory required for data: 160603392
I1010 14:51:48.671577  6066 layer_factory.hpp:77] Creating layer flatten
I1010 14:51:48.671581  6066 net.cpp:100] Creating Layer flatten
I1010 14:51:48.671584  6066 net.cpp:434] flatten <- pool
I1010 14:51:48.671587  6066 net.cpp:408] flatten -> flatten
I1010 14:51:48.671622  6066 net.cpp:150] Setting up flatten
I1010 14:51:48.671627  6066 net.cpp:157] Top shape: 64 10 (640)
I1010 14:51:48.671628  6066 net.cpp:165] Memory required for data: 160605952
I1010 14:51:48.671630  6066 layer_factory.hpp:77] Creating layer score
I1010 14:51:48.671634  6066 net.cpp:100] Creating Layer score
I1010 14:51:48.671653  6066 net.cpp:434] score <- flatten
I1010 14:51:48.671655  6066 net.cpp:408] score -> score
I1010 14:51:48.671800  6066 net.cpp:150] Setting up score
I1010 14:51:48.671804  6066 net.cpp:157] Top shape: 64 10 (640)
I1010 14:51:48.671807  6066 net.cpp:165] Memory required for data: 160608512
I1010 14:51:48.671810  6066 layer_factory.hpp:77] Creating layer score_score_0_split
I1010 14:51:48.671814  6066 net.cpp:100] Creating Layer score_score_0_split
I1010 14:51:48.671816  6066 net.cpp:434] score_score_0_split <- score
I1010 14:51:48.671819  6066 net.cpp:408] score_score_0_split -> score_score_0_split_0
I1010 14:51:48.671824  6066 net.cpp:408] score_score_0_split -> score_score_0_split_1
I1010 14:51:48.671865  6066 net.cpp:150] Setting up score_score_0_split
I1010 14:51:48.671869  6066 net.cpp:157] Top shape: 64 10 (640)
I1010 14:51:48.671871  6066 net.cpp:157] Top shape: 64 10 (640)
I1010 14:51:48.671886  6066 net.cpp:165] Memory required for data: 160613632
I1010 14:51:48.671888  6066 layer_factory.hpp:77] Creating layer accuracy
I1010 14:51:48.671893  6066 net.cpp:100] Creating Layer accuracy
I1010 14:51:48.671908  6066 net.cpp:434] accuracy <- score_score_0_split_0
I1010 14:51:48.671911  6066 net.cpp:434] accuracy <- label_data_1_split_0
I1010 14:51:48.671914  6066 net.cpp:408] accuracy -> accuracy
…
I1010 14:51:48.672492  6066 net.cpp:283] Network initialization done.
I1010 14:51:48.672708  6066 solver.cpp:181] Creating test net (#0) specified by test_net file: /home/adam/Honours/Honours-Project/cifar-10_allcnn/relu/allcnn_relu_test.prototxt
I1010 14:51:48.672879  6066 net.cpp:58] Initializing net from parameters: 
state {
  phase: TEST
}
layer {
  name: "data"
  type: "Data"
  top: "data"
  top: "label"
  transform_param {
    mean_file: "mean.binaryproto"
  }
  data_param {
    source: "../../../data/cifar-10/cifar10_test_lmdb"
    batch_size: 100
    backend: LMDB
  }
}
layer {
  name: "conv1"
  type: "Convolution"
  bottom: "data"
  top: "conv1"
  convolution_param {
    num_output: 96
    kernel_size: 3
    weight_filler {
      type: "xavier"
    }
  }
}
layer {
  name: "relu1"
  type: "ReLU"
  bottom: "conv1"
  top: "conv1"
}
layer {
  name: "conv2"
  type: "Convolution"
  bottom: "conv1"
  top: "conv2"
  convolution_param {
    num_output: 96
    kernel_size: 3
    weight_filler {
      type: "xavier"
    }
  }
}
layer {
  name: "bn1"
  type: "BatchNorm"
  bottom: "conv2"
  top: "bn1"
}
layer {
  name: "relu2"
  type: "ReLU"
  bottom: "bn1"
  top: "bn1"
}
layer {
  name: "drop1"
  type: "Dropout"
  bottom: "bn1"
  top: "drop1"
  dropout_param {
    dropout_ratio: 0.5
  }
}
layer {
  name: "conv3"
  type: "Convolution"
  bottom: "drop1"
  top: "conv3"
  convolution_param {
    num_output: 96
    kernel_size: 3
    stride: 2
    weight_filler {
      type: "xavier"
    }
  }
}
layer {
  name: "relu3"
  type: "ReLU"
  bottom: "conv3"
  top: "conv3"
}
layer {
  name: "conv4"
  type: "Convolution"
  bottom: "conv3"
  top: "conv4"
  convolution_param {
    num_output: 192
    kernel_size: 3
    weight_filler {
      type: "xavier"
    }
  }
}
layer {
  name: "relu4"
  type: "ReLU"
  bottom: "conv4"
  top: "conv4"
}
layer {
  name: "conv5"
  type: "Convolution"
  bottom: "conv4"
  top: "conv5"
  convolution_param {
    num_output: 192
    kernel_size: 3
    weight_filler {
      type: "xavier"
    }
  }
}
layer {
  name: "bn2"
  type: "BatchNorm"
  bottom: "conv5"
  top: "bn2"
}
layer {
  name: "relu5"
  type: "ReLU"
  bottom: "bn2"
  top: "bn2"
}
layer {
  name: "drop4"
  type: "Dropout"
  bottom: "bn2"
  top: "drop4"
  dropout_param {
    dropout_ratio: 0.5
  }
}
layer {
  name: "conv6"
  type: "Convolution"
  bottom: "drop4"
  top: "conv6"
  convolution_param {
    num_output: 192
    kernel_size: 3
    stride: 2
    weight_filler {
      type: "xavier"
    }
  }
}
layer {
  name: "relu6"
  type: "ReLU"
  bottom: "conv6"
  top: "conv6"
}
layer {
  name: "conv7"
  type: "Convolution"
  bottom: "conv6"
  top: "conv7"
  convolution_param {
    num_output: 192
    kernel_size: 3
    weight_filler {
      type: "xavier"
    }
  }
}
layer {
  name: "relu7"
  type: "ReLU"
  bottom: "conv7"
  top: "conv7"
}
layer {
  name: "conv8"
  type: "Convolution"
  bottom: "conv7"
  top: "conv8"
  convolution_param {
    num_output: 192
    kernel_size: 1
    weight_filler {
      type: "xavier"
    }
  }
}
layer {
  name: "relu8"
  type: "ReLU"
  bottom: "conv8"
  top: "conv8"
}
layer {
  name: "conv9"
  type: "Convolution"
  bottom: "conv8"
  top: "conv9"
  convolution_param {
    num_output: 10
    kernel_size: 1
    weight_filler {
      type: "xavier"
    }
  }
}
layer {
  name: "relu9"
  type: "ReLU"
  bottom: "conv9"
  top: "conv9"
}
layer {
  name: "pool"
  type: "Pooling"
  bottom: "conv9"
  top: "pool"
  pooling_param {
    pool: AVE
    global_pooling: true
  }
}
layer {
  name: "flatten"
  type: "Flatten"
  bottom: "pool"
  top: "flatten"
}
layer {
  name: "score"
  type: "InnerProduct"
  bottom: "flatten"
  top: "score"
  inner_product_param {
    num_output: 10
    weight_filler {
      type: "gaussian"
    }
  }
}
layer {
  name: "accuracy"
  type: "Accuracy"
  bottom: "score"
  bottom: "label"
  top: "accuracy"
}
layer {
  name: "loss"
  type: "SoftmaxWithLoss"
  bottom: "score"
  bottom: "label"
  top: "loss"
}
I1010 14:51:48.672991  6066 layer_factory.hpp:77] Creating layer data
I1010 14:51:48.673099  6066 net.cpp:100] Creating Layer data
I1010 14:51:48.673105  6066 net.cpp:408] data -> data
I1010 14:51:48.673111  6066 net.cpp:408] data -> label
I1010 14:51:48.673117  6066 data_transformer.cpp:25] Loading mean file from: mean.binaryproto
I1010 14:51:48.673882  6073 db_lmdb.cpp:35] Opened lmdb ../../../data/cifar-10/cifar10_test_lmdb
I1010 14:51:48.674064  6066 data_layer.cpp:41] output data size: 100,3,32,32
I1010 14:51:48.675953  6066 net.cpp:150] Setting up data
I1010 14:51:48.675972  6066 net.cpp:157] Top shape: 100 3 32 32 (307200)
I1010 14:51:48.675976  6066 net.cpp:157] Top shape: 100 (100)
I1010 14:51:48.675977  6066 net.cpp:165] Memory required for data: 1229200
I1010 14:51:48.675995  6066 layer_factory.hpp:77] Creating layer label_data_1_split
I1010 14:51:48.676018  6066 net.cpp:100] Creating Layer label_data_1_split
I1010 14:51:48.676021  6066 net.cpp:434] label_data_1_split <- label
I1010 14:51:48.676025  6066 net.cpp:408] label_data_1_split -> label_data_1_split_0
I1010 14:51:48.676034  6066 net.cpp:408] label_data_1_split -> label_data_1_split_1
I1010 14:51:48.676095  6066 net.cpp:150] Setting up label_data_1_split
I1010 14:51:48.676107  6066 net.cpp:157] Top shape: 100 (100)
I1010 14:51:48.676110  6066 net.cpp:157] Top shape: 100 (100)
I1010 14:51:48.676112  6066 net.cpp:165] Memory required for data: 1230000
I1010 14:51:48.676115  6066 layer_factory.hpp:77] Creating layer conv1
I1010 14:51:48.676125  6066 net.cpp:100] Creating Layer conv1
I1010 14:51:48.676127  6066 net.cpp:434] conv1 <- data
I1010 14:51:48.676132  6066 net.cpp:408] conv1 -> conv1
I1010 14:51:48.677073  6066 net.cpp:150] Setting up conv1
I1010 14:51:48.677083  6066 net.cpp:157] Top shape: 100 96 30 30 (8640000)
I1010 14:51:48.677084  6066 net.cpp:165] Memory required for data: 35790000
I1010 14:51:48.677093  6066 layer_factory.hpp:77] Creating layer relu1
I1010 14:51:48.677098  6066 net.cpp:100] Creating Layer relu1
I1010 14:51:48.677099  6066 net.cpp:434] relu1 <- conv1
I1010 14:51:48.677103  6066 net.cpp:395] relu1 -> conv1 (in-place)
I1010 14:51:48.677279  6066 net.cpp:150] Setting up relu1
I1010 14:51:48.677286  6066 net.cpp:157] Top shape: 100 96 30 30 (8640000)
I1010 14:51:48.677289  6066 net.cpp:165] Memory required for data: 70350000
I1010 14:51:48.677290  6066 layer_factory.hpp:77] Creating layer conv2
I1010 14:51:48.677296  6066 net.cpp:100] Creating Layer conv2
I1010 14:51:48.677299  6066 net.cpp:434] conv2 <- conv1
I1010 14:51:48.677304  6066 net.cpp:408] conv2 -> conv2
I1010 14:51:48.678478  6066 net.cpp:150] Setting up conv2
I1010 14:51:48.678486  6066 net.cpp:157] Top shape: 100 96 28 28 (7526400)
I1010 14:51:48.678489  6066 net.cpp:165] Memory required for data: 100455600
I1010 14:51:48.678494  6066 layer_factory.hpp:77] Creating layer bn1
I1010 14:51:48.678499  6066 net.cpp:100] Creating Layer bn1
I1010 14:51:48.678503  6066 net.cpp:434] bn1 <- conv2
I1010 14:51:48.678505  6066 net.cpp:408] bn1 -> bn1
I1010 14:51:48.678724  6066 net.cpp:150] Setting up bn1
I1010 14:51:48.678728  6066 net.cpp:157] Top shape: 100 96 28 28 (7526400)
I1010 14:51:48.678730  6066 net.cpp:165] Memory required for data: 130561200
I1010 14:51:48.678736  6066 layer_factory.hpp:77] Creating layer relu2
I1010 14:51:48.678740  6066 net.cpp:100] Creating Layer relu2
I1010 14:51:48.678742  6066 net.cpp:434] relu2 <- bn1
I1010 14:51:48.678745  6066 net.cpp:395] relu2 -> bn1 (in-place)
I1010 14:51:48.679008  6066 net.cpp:150] Setting up relu2
I1010 14:51:48.679018  6066 net.cpp:157] Top shape: 100 96 28 28 (7526400)
I1010 14:51:48.679019  6066 net.cpp:165] Memory required for data: 160666800
I1010 14:51:48.679021  6066 layer_factory.hpp:77] Creating layer drop1
I1010 14:51:48.679025  6066 net.cpp:100] Creating Layer drop1
I1010 14:51:48.679028  6066 net.cpp:434] drop1 <- bn1
I1010 14:51:48.679031  6066 net.cpp:408] drop1 -> drop1
I1010 14:51:48.679122  6066 net.cpp:150] Setting up drop1
I1010 14:51:48.679127  6066 net.cpp:157] Top shape: 100 96 28 28 (7526400)
I1010 14:51:48.679143  6066 net.cpp:165] Memory required for data: 190772400
I1010 14:51:48.679146  6066 layer_factory.hpp:77] Creating layer conv3
I1010 14:51:48.679152  6066 net.cpp:100] Creating Layer conv3
I1010 14:51:48.679155  6066 net.cpp:434] conv3 <- drop1
I1010 14:51:48.679158  6066 net.cpp:408] conv3 -> conv3
I1010 14:51:48.680264  6066 net.cpp:150] Setting up conv3
I1010 14:51:48.680289  6066 net.cpp:157] Top shape: 100 96 13 13 (1622400)
I1010 14:51:48.680292  6066 net.cpp:165] Memory required for data: 197262000
I1010 14:51:48.680299  6066 layer_factory.hpp:77] Creating layer relu3
I1010 14:51:48.680302  6066 net.cpp:100] Creating Layer relu3
I1010 14:51:48.680306  6066 net.cpp:434] relu3 <- conv3
I1010 14:51:48.680325  6066 net.cpp:395] relu3 -> conv3 (in-place)
I1010 14:51:48.680578  6066 net.cpp:150] Setting up relu3
I1010 14:51:48.680600  6066 net.cpp:157] Top shape: 100 96 13 13 (1622400)
I1010 14:51:48.680603  6066 net.cpp:165] Memory required for data: 203751600
I1010 14:51:48.680605  6066 layer_factory.hpp:77] Creating layer conv4
I1010 14:51:48.680611  6066 net.cpp:100] Creating Layer conv4
I1010 14:51:48.680613  6066 net.cpp:434] conv4 <- conv3
I1010 14:51:48.680618  6066 net.cpp:408] conv4 -> conv4
I1010 14:51:48.683925  6066 net.cpp:150] Setting up conv4
I1010 14:51:48.683972  6066 net.cpp:157] Top shape: 100 192 11 11 (2323200)
I1010 14:51:48.683975  6066 net.cpp:165] Memory required for data: 213044400
I1010 14:51:48.683984  6066 layer_factory.hpp:77] Creating layer relu4
I1010 14:51:48.684002  6066 net.cpp:100] Creating Layer relu4
I1010 14:51:48.684005  6066 net.cpp:434] relu4 <- conv4
I1010 14:51:48.684010  6066 net.cpp:395] relu4 -> conv4 (in-place)
I1010 14:51:48.684170  6066 net.cpp:150] Setting up relu4
I1010 14:51:48.684177  6066 net.cpp:157] Top shape: 100 192 11 11 (2323200)
I1010 14:51:48.684195  6066 net.cpp:165] Memory required for data: 222337200
I1010 14:51:48.684196  6066 layer_factory.hpp:77] Creating layer conv5
I1010 14:51:48.684217  6066 net.cpp:100] Creating Layer conv5
I1010 14:51:48.684219  6066 net.cpp:434] conv5 <- conv4
I1010 14:51:48.684224  6066 net.cpp:408] conv5 -> conv5
I1010 14:51:48.687433  6066 net.cpp:150] Setting up conv5
I1010 14:51:48.687465  6066 net.cpp:157] Top shape: 100 192 9 9 (1555200)
I1010 14:51:48.687469  6066 net.cpp:165] Memory required for data: 228558000
I1010 14:51:48.687474  6066 layer_factory.hpp:77] Creating layer bn2
I1010 14:51:48.687481  6066 net.cpp:100] Creating Layer bn2
I1010 14:51:48.687484  6066 net.cpp:434] bn2 <- conv5
I1010 14:51:48.687489  6066 net.cpp:408] bn2 -> bn2
I1010 14:51:48.687729  6066 net.cpp:150] Setting up bn2
I1010 14:51:48.687736  6066 net.cpp:157] Top shape: 100 192 9 9 (1555200)
I1010 14:51:48.687739  6066 net.cpp:165] Memory required for data: 234778800
I1010 14:51:48.687744  6066 layer_factory.hpp:77] Creating layer relu5
I1010 14:51:48.687748  6066 net.cpp:100] Creating Layer relu5
I1010 14:51:48.687750  6066 net.cpp:434] relu5 <- bn2
I1010 14:51:48.687768  6066 net.cpp:395] relu5 -> bn2 (in-place)
I1010 14:51:48.688037  6066 net.cpp:150] Setting up relu5
I1010 14:51:48.688047  6066 net.cpp:157] Top shape: 100 192 9 9 (1555200)
I1010 14:51:48.688051  6066 net.cpp:165] Memory required for data: 240999600
I1010 14:51:48.688055  6066 layer_factory.hpp:77] Creating layer drop4
I1010 14:51:48.688060  6066 net.cpp:100] Creating Layer drop4
I1010 14:51:48.688061  6066 net.cpp:434] drop4 <- bn2
I1010 14:51:48.688066  6066 net.cpp:408] drop4 -> drop4
I1010 14:51:48.688103  6066 net.cpp:150] Setting up drop4
I1010 14:51:48.688110  6066 net.cpp:157] Top shape: 100 192 9 9 (1555200)
I1010 14:51:48.688114  6066 net.cpp:165] Memory required for data: 247220400
I1010 14:51:48.688117  6066 layer_factory.hpp:77] Creating layer conv6
I1010 14:51:48.688125  6066 net.cpp:100] Creating Layer conv6
I1010 14:51:48.688127  6066 net.cpp:434] conv6 <- drop4
I1010 14:51:48.688132  6066 net.cpp:408] conv6 -> conv6
I1010 14:51:48.690731  6066 net.cpp:150] Setting up conv6
I1010 14:51:48.690754  6066 net.cpp:157] Top shape: 100 192 4 4 (307200)
I1010 14:51:48.690757  6066 net.cpp:165] Memory required for data: 248449200
I1010 14:51:48.690767  6066 layer_factory.hpp:77] Creating layer relu6
I1010 14:51:48.690773  6066 net.cpp:100] Creating Layer relu6
I1010 14:51:48.690775  6066 net.cpp:434] relu6 <- conv6
I1010 14:51:48.690779  6066 net.cpp:395] relu6 -> conv6 (in-place)
I1010 14:51:48.691028  6066 net.cpp:150] Setting up relu6
I1010 14:51:48.691049  6066 net.cpp:157] Top shape: 100 192 4 4 (307200)
I1010 14:51:48.691051  6066 net.cpp:165] Memory required for data: 249678000
I1010 14:51:48.691053  6066 layer_factory.hpp:77] Creating layer conv7
I1010 14:51:48.691061  6066 net.cpp:100] Creating Layer conv7
I1010 14:51:48.691063  6066 net.cpp:434] conv7 <- conv6
I1010 14:51:48.691068  6066 net.cpp:408] conv7 -> conv7
I1010 14:51:48.693732  6066 net.cpp:150] Setting up conv7
I1010 14:51:48.693743  6066 net.cpp:157] Top shape: 100 192 2 2 (76800)
I1010 14:51:48.693745  6066 net.cpp:165] Memory required for data: 249985200
I1010 14:51:48.693750  6066 layer_factory.hpp:77] Creating layer relu7
I1010 14:51:48.693754  6066 net.cpp:100] Creating Layer relu7
I1010 14:51:48.693756  6066 net.cpp:434] relu7 <- conv7
I1010 14:51:48.693760  6066 net.cpp:395] relu7 -> conv7 (in-place)
I1010 14:51:48.693935  6066 net.cpp:150] Setting up relu7
I1010 14:51:48.693941  6066 net.cpp:157] Top shape: 100 192 2 2 (76800)
I1010 14:51:48.693943  6066 net.cpp:165] Memory required for data: 250292400
I1010 14:51:48.693945  6066 layer_factory.hpp:77] Creating layer conv8
I1010 14:51:48.693951  6066 net.cpp:100] Creating Layer conv8
I1010 14:51:48.693953  6066 net.cpp:434] conv8 <- conv7
I1010 14:51:48.693958  6066 net.cpp:408] conv8 -> conv8
I1010 14:51:48.694941  6066 net.cpp:150] Setting up conv8
I1010 14:51:48.694949  6066 net.cpp:157] Top shape: 100 192 2 2 (76800)
I1010 14:51:48.694952  6066 net.cpp:165] Memory required for data: 250599600
I1010 14:51:48.694955  6066 layer_factory.hpp:77] Creating layer relu8
I1010 14:51:48.694959  6066 net.cpp:100] Creating Layer relu8
I1010 14:51:48.694962  6066 net.cpp:434] relu8 <- conv8
I1010 14:51:48.694965  6066 net.cpp:395] relu8 -> conv8 (in-place)
I1010 14:51:48.695224  6066 net.cpp:150] Setting up relu8
I1010 14:51:48.695231  6066 net.cpp:157] Top shape: 100 192 2 2 (76800)
I1010 14:51:48.695233  6066 net.cpp:165] Memory required for data: 250906800
I1010 14:51:48.695235  6066 layer_factory.hpp:77] Creating layer conv9
I1010 14:51:48.695240  6066 net.cpp:100] Creating Layer conv9
I1010 14:51:48.695243  6066 net.cpp:434] conv9 <- conv8
I1010 14:51:48.695247  6066 net.cpp:408] conv9 -> conv9
I1010 14:51:48.696004  6066 net.cpp:150] Setting up conv9
I1010 14:51:48.696013  6066 net.cpp:157] Top shape: 100 10 2 2 (4000)
I1010 14:51:48.696015  6066 net.cpp:165] Memory required for data: 250922800
I1010 14:51:48.696019  6066 layer_factory.hpp:77] Creating layer relu9
I1010 14:51:48.696023  6066 net.cpp:100] Creating Layer relu9
I1010 14:51:48.696025  6066 net.cpp:434] relu9 <- conv9
I1010 14:51:48.696038  6066 net.cpp:395] relu9 -> conv9 (in-place)
I1010 14:51:48.696300  6066 net.cpp:150] Setting up relu9
I1010 14:51:48.696306  6066 net.cpp:157] Top shape: 100 10 2 2 (4000)
I1010 14:51:48.696308  6066 net.cpp:165] Memory required for data: 250938800
I1010 14:51:48.696310  6066 layer_factory.hpp:77] Creating layer pool
I1010 14:51:48.696316  6066 net.cpp:100] Creating Layer pool
I1010 14:51:48.696318  6066 net.cpp:434] pool <- conv9
I1010 14:51:48.696321  6066 net.cpp:408] pool -> pool
I1010 14:51:48.696508  6066 net.cpp:150] Setting up pool
I1010 14:51:48.696514  6066 net.cpp:157] Top shape: 100 10 1 1 (1000)
I1010 14:51:48.696516  6066 net.cpp:165] Memory required for data: 250942800
I1010 14:51:48.696517  6066 layer_factory.hpp:77] Creating layer flatten
I1010 14:51:48.696521  6066 net.cpp:100] Creating Layer flatten
I1010 14:51:48.696523  6066 net.cpp:434] flatten <- pool
I1010 14:51:48.696527  6066 net.cpp:408] flatten -> flatten
I1010 14:51:48.696563  6066 net.cpp:150] Setting up flatten
I1010 14:51:48.696566  6066 net.cpp:157] Top shape: 100 10 (1000)
I1010 14:51:48.696568  6066 net.cpp:165] Memory required for data: 250946800
I1010 14:51:48.696570  6066 layer_factory.hpp:77] Creating layer score
I1010 14:51:48.696575  6066 net.cpp:100] Creating Layer score
I1010 14:51:48.696578  6066 net.cpp:434] score <- flatten
I1010 14:51:48.696595  6066 net.cpp:408] score -> score
I1010 14:51:48.696754  6066 net.cpp:150] Setting up score
I1010 14:51:48.696759  6066 net.cpp:157] Top shape: 100 10 (1000)
I1010 14:51:48.696763  6066 net.cpp:165] Memory required for data: 250950800
I1010 14:51:48.696766  6066 layer_factory.hpp:77] Creating layer score_score_0_split
I1010 14:51:48.696771  6066 net.cpp:100] Creating Layer score_score_0_split
I1010 14:51:48.696774  6066 net.cpp:434] score_score_0_split <- score
I1010 14:51:48.696777  6066 net.cpp:408] score_score_0_split -> score_score_0_split_0
I1010 14:51:48.696784  6066 net.cpp:408] score_score_0_split -> score_score_0_split_1
I1010 14:51:48.696815  6066 net.cpp:150] Setting up score_score_0_split
I1010 14:51:48.696818  6066 net.cpp:157] Top shape: 100 10 (1000)
I1010 14:51:48.696821  6066 net.cpp:157] Top shape: 100 10 (1000)
I1010 14:51:48.696823  6066 net.cpp:165] Memory required for data: 250958800
I1010 14:51:48.696825  6066 layer_factory.hpp:77] Creating layer accuracy
I1010 14:51:48.696830  6066 net.cpp:100] Creating Layer accuracy
I1010 14:51:48.696833  6066 net.cpp:434] accuracy <- score_score_0_split_0
I1010 14:51:48.696836  6066 net.cpp:434] accuracy <- label_data_1_split_0
I1010 14:51:48.696841  6066 net.cpp:408] accuracy -> accuracy
…
