…
}
type: "SGD"
I1013 17:37:56.796850 16222 solver.cpp:81] Creating training net from train_net file: /home/adam/Honours/Honours-Project/cifar-10_allcnn/leakyrelu/allcnn_leakyrelu_train.prototxt
I1013 17:37:56.797200 16222 net.cpp:58] Initializing net from parameters: 
state {
  phase: TRAIN
  level: 0
  stage: ""
}
layer {
  name: "data"
  type: "Data"
  top: "data"
  top: "label"
  transform_param {
    mean_file: "mean.binaryproto"
  }
  data_param {
    source: "../../../data/cifar-10/cifar10_train_lmdb"
    batch_size: 64
    backend: LMDB
  }
}
layer {
  name: "conv1"
  type: "Convolution"
  bottom: "data"
  top: "conv1"
  convolution_param {
    num_output: 96
    kernel_size: 3
    weight_filler {
      type: "xavier"
    }
  }
}
layer {
  name: "relu1"
  type: "ReLU"
  bottom: "conv1"
  top: "conv1"
  relu_param {
    negative_slope: 0.01
  }
}
layer {
  name: "conv2"
  type: "Convolution"
  bottom: "conv1"
  top: "conv2"
  convolution_param {
    num_output: 96
    kernel_size: 3
    weight_filler {
      type: "xavier"
    }
  }
}
layer {
  name: "bn1"
  type: "BatchNorm"
  bottom: "conv2"
  top: "bn1"
}
layer {
  name: "relu2"
  type: "ReLU"
  bottom: "bn1"
  top: "bn1"
  relu_param {
    negative_slope: 0.01
  }
}
layer {
  name: "conv3"
  type: "Convolution"
  bottom: "bn1"
  top: "conv3"
  convolution_param {
    num_output: 96
    kernel_size: 3
    stride: 2
    weight_filler {
      type: "xavier"
    }
  }
}
layer {
  name: "drop1"
  type: "Dropout"
  bottom: "conv3"
  top: "drop1"
  dropout_param {
    dropout_ratio: 0.5
  }
}
layer {
  name: "relu3"
  type: "ReLU"
  bottom: "drop1"
  top: "drop1"
  relu_param {
    negative_slope: 0.01
  }
}
layer {
  name: "conv4"
  type: "Convolution"
  bottom: "drop1"
  top: "conv4"
  convolution_param {
    num_output: 192
    kernel_size: 3
    weight_filler {
      type: "xavier"
    }
  }
}
layer {
  name: "relu4"
  type: "ReLU"
  bottom: "conv4"
  top: "conv4"
  relu_param {
    negative_slope: 0.01
  }
}
layer {
  name: "conv5"
  type: "Convolution"
  bottom: "conv4"
  top: "conv5"
  convolution_param {
    num_output: 192
    kernel_size: 3
    weight_filler {
      type: "xavier"
    }
  }
}
layer {
  name: "bn2"
  type: "BatchNorm"
  bottom: "conv5"
  top: "bn2"
}
layer {
  name: "relu5"
  type: "ReLU"
  bottom: "bn2"
  top: "bn2"
  relu_param {
    negative_slope: 0.01
  }
}
layer {
  name: "conv6"
  type: "Convolution"
  bottom: "bn2"
  top: "conv6"
  convolution_param {
    num_output: 192
    kernel_size: 3
    stride: 2
    weight_filler {
      type: "xavier"
    }
  }
}
layer {
  name: "drop4"
  type: "Dropout"
  bottom: "conv6"
  top: "drop4"
  dropout_param {
    dropout_ratio: 0.5
  }
}
layer {
  name: "relu6"
  type: "ReLU"
  bottom: "drop4"
  top: "drop4"
  relu_param {
    negative_slope: 0.01
  }
}
layer {
  name: "conv7"
  type: "Convolution"
  bottom: "drop4"
  top: "conv7"
  convolution_param {
    num_output: 192
    kernel_size: 3
    weight_filler {
      type: "xavier"
    }
  }
}
layer {
  name: "relu7"
  type: "ReLU"
  bottom: "conv7"
  top: "conv7"
  relu_param {
    negative_slope: 0.01
  }
}
layer {
  name: "conv8"
  type: "Convolution"
  bottom: "conv7"
  top: "conv8"
  convolution_param {
    num_output: 192
    kernel_size: 1
    weight_filler {
      type: "xavier"
    }
  }
}
layer {
  name: "relu8"
  type: "ReLU"
  bottom: "conv8"
  top: "conv8"
  relu_param {
    negative_slope: 0.01
  }
}
layer {
  name: "conv9"
  type: "Convolution"
  bottom: "conv8"
  top: "conv9"
  convolution_param {
    num_output: 10
    kernel_size: 1
    weight_filler {
      type: "xavier"
    }
  }
}
layer {
  name: "relu9"
  type: "ReLU"
  bottom: "conv9"
  top: "conv9"
  relu_param {
    negative_slope: 0.01
  }
}
layer {
  name: "pool"
  type: "Pooling"
  bottom: "conv9"
  top: "pool"
  pooling_param {
    pool: AVE
    global_pooling: true
  }
}
layer {
  name: "flatten"
  type: "Flatten"
  bottom: "pool"
  top: "flatten"
}
layer {
  name: "score"
  type: "InnerProduct"
  bottom: "flatten"
  top: "score"
  inner_product_param {
    num_output: 10
    weight_filler {
      type: "gaussian"
    }
  }
}
layer {
  name: "accuracy"
  type: "Accuracy"
  bottom: "score"
  bottom: "label"
  top: "accuracy"
}
layer {
  name: "loss"
  type: "SoftmaxWithLoss"
  bottom: "score"
  bottom: "label"
  top: "loss"
}
I1013 17:37:56.797344 16222 layer_factory.hpp:77] Creating layer data
I1013 17:37:56.797883 16222 net.cpp:100] Creating Layer data
I1013 17:37:56.797890 16222 net.cpp:408] data -> data
I1013 17:37:56.797930 16222 net.cpp:408] data -> label
I1013 17:37:56.797940 16222 data_transformer.cpp:25] Loading mean file from: mean.binaryproto
I1013 17:37:56.798671 16228 db_lmdb.cpp:35] Opened lmdb ../../../data/cifar-10/cifar10_train_lmdb
I1013 17:37:56.804898 16222 data_layer.cpp:41] output data size: 64,3,32,32
I1013 17:37:56.806408 16222 net.cpp:150] Setting up data
I1013 17:37:56.806429 16222 net.cpp:157] Top shape: 64 3 32 32 (196608)
I1013 17:37:56.806432 16222 net.cpp:157] Top shape: 64 (64)
I1013 17:37:56.806434 16222 net.cpp:165] Memory required for data: 786688
I1013 17:37:56.806459 16222 layer_factory.hpp:77] Creating layer label_data_1_split
I1013 17:37:56.806469 16222 net.cpp:100] Creating Layer label_data_1_split
I1013 17:37:56.806474 16222 net.cpp:434] label_data_1_split <- label
I1013 17:37:56.806488 16222 net.cpp:408] label_data_1_split -> label_data_1_split_0
I1013 17:37:56.806498 16222 net.cpp:408] label_data_1_split -> label_data_1_split_1
I1013 17:37:56.806624 16222 net.cpp:150] Setting up label_data_1_split
I1013 17:37:56.806650 16222 net.cpp:157] Top shape: 64 (64)
I1013 17:37:56.806653 16222 net.cpp:157] Top shape: 64 (64)
I1013 17:37:56.806655 16222 net.cpp:165] Memory required for data: 787200
I1013 17:37:56.806658 16222 layer_factory.hpp:77] Creating layer conv1
I1013 17:37:56.806686 16222 net.cpp:100] Creating Layer conv1
I1013 17:37:56.806690 16222 net.cpp:434] conv1 <- data
I1013 17:37:56.806706 16222 net.cpp:408] conv1 -> conv1
I1013 17:37:56.941692 16222 net.cpp:150] Setting up conv1
I1013 17:37:56.941717 16222 net.cpp:157] Top shape: 64 96 30 30 (5529600)
I1013 17:37:56.941720 16222 net.cpp:165] Memory required for data: 22905600
I1013 17:37:56.941737 16222 layer_factory.hpp:77] Creating layer relu1
I1013 17:37:56.941745 16222 net.cpp:100] Creating Layer relu1
I1013 17:37:56.941748 16222 net.cpp:434] relu1 <- conv1
I1013 17:37:56.941752 16222 net.cpp:395] relu1 -> conv1 (in-place)
I1013 17:37:56.941928 16222 net.cpp:150] Setting up relu1
I1013 17:37:56.941936 16222 net.cpp:157] Top shape: 64 96 30 30 (5529600)
I1013 17:37:56.941936 16222 net.cpp:165] Memory required for data: 45024000
I1013 17:37:56.941939 16222 layer_factory.hpp:77] Creating layer conv2
I1013 17:37:56.941947 16222 net.cpp:100] Creating Layer conv2
I1013 17:37:56.941949 16222 net.cpp:434] conv2 <- conv1
I1013 17:37:56.941952 16222 net.cpp:408] conv2 -> conv2
I1013 17:37:56.943337 16222 net.cpp:150] Setting up conv2
I1013 17:37:56.943346 16222 net.cpp:157] Top shape: 64 96 28 28 (4816896)
I1013 17:37:56.943349 16222 net.cpp:165] Memory required for data: 64291584
I1013 17:37:56.943356 16222 layer_factory.hpp:77] Creating layer bn1
I1013 17:37:56.943359 16222 net.cpp:100] Creating Layer bn1
I1013 17:37:56.943362 16222 net.cpp:434] bn1 <- conv2
I1013 17:37:56.943366 16222 net.cpp:408] bn1 -> bn1
I1013 17:37:56.943547 16222 net.cpp:150] Setting up bn1
I1013 17:37:56.943552 16222 net.cpp:157] Top shape: 64 96 28 28 (4816896)
I1013 17:37:56.943554 16222 net.cpp:165] Memory required for data: 83559168
I1013 17:37:56.943572 16222 layer_factory.hpp:77] Creating layer relu2
I1013 17:37:56.943577 16222 net.cpp:100] Creating Layer relu2
I1013 17:37:56.943578 16222 net.cpp:434] relu2 <- bn1
I1013 17:37:56.943581 16222 net.cpp:395] relu2 -> bn1 (in-place)
I1013 17:37:56.943759 16222 net.cpp:150] Setting up relu2
I1013 17:37:56.943765 16222 net.cpp:157] Top shape: 64 96 28 28 (4816896)
I1013 17:37:56.943768 16222 net.cpp:165] Memory required for data: 102826752
I1013 17:37:56.943769 16222 layer_factory.hpp:77] Creating layer conv3
I1013 17:37:56.943774 16222 net.cpp:100] Creating Layer conv3
I1013 17:37:56.943776 16222 net.cpp:434] conv3 <- bn1
I1013 17:37:56.943780 16222 net.cpp:408] conv3 -> conv3
I1013 17:37:56.944960 16222 net.cpp:150] Setting up conv3
I1013 17:37:56.944969 16222 net.cpp:157] Top shape: 64 96 13 13 (1038336)
I1013 17:37:56.944972 16222 net.cpp:165] Memory required for data: 106980096
I1013 17:37:56.944978 16222 layer_factory.hpp:77] Creating layer drop1
I1013 17:37:56.944984 16222 net.cpp:100] Creating Layer drop1
I1013 17:37:56.944988 16222 net.cpp:434] drop1 <- conv3
I1013 17:37:56.944990 16222 net.cpp:408] drop1 -> drop1
I1013 17:37:56.945050 16222 net.cpp:150] Setting up drop1
I1013 17:37:56.945055 16222 net.cpp:157] Top shape: 64 96 13 13 (1038336)
I1013 17:37:56.945056 16222 net.cpp:165] Memory required for data: 111133440
I1013 17:37:56.945058 16222 layer_factory.hpp:77] Creating layer relu3
I1013 17:37:56.945061 16222 net.cpp:100] Creating Layer relu3
I1013 17:37:56.945063 16222 net.cpp:434] relu3 <- drop1
I1013 17:37:56.945068 16222 net.cpp:395] relu3 -> drop1 (in-place)
I1013 17:37:56.945319 16222 net.cpp:150] Setting up relu3
I1013 17:37:56.945327 16222 net.cpp:157] Top shape: 64 96 13 13 (1038336)
I1013 17:37:56.945328 16222 net.cpp:165] Memory required for data: 115286784
I1013 17:37:56.945330 16222 layer_factory.hpp:77] Creating layer conv4
I1013 17:37:56.945336 16222 net.cpp:100] Creating Layer conv4
I1013 17:37:56.945338 16222 net.cpp:434] conv4 <- drop1
I1013 17:37:56.945343 16222 net.cpp:408] conv4 -> conv4
I1013 17:37:56.947178 16222 net.cpp:150] Setting up conv4
I1013 17:37:56.947188 16222 net.cpp:157] Top shape: 64 192 11 11 (1486848)
I1013 17:37:56.947190 16222 net.cpp:165] Memory required for data: 121234176
I1013 17:37:56.947194 16222 layer_factory.hpp:77] Creating layer relu4
I1013 17:37:56.947199 16222 net.cpp:100] Creating Layer relu4
I1013 17:37:56.947201 16222 net.cpp:434] relu4 <- conv4
I1013 17:37:56.947204 16222 net.cpp:395] relu4 -> conv4 (in-place)
I1013 17:37:56.947381 16222 net.cpp:150] Setting up relu4
I1013 17:37:56.947387 16222 net.cpp:157] Top shape: 64 192 11 11 (1486848)
I1013 17:37:56.947389 16222 net.cpp:165] Memory required for data: 127181568
I1013 17:37:56.947391 16222 layer_factory.hpp:77] Creating layer conv5
I1013 17:37:56.947397 16222 net.cpp:100] Creating Layer conv5
I1013 17:37:56.947399 16222 net.cpp:434] conv5 <- conv4
I1013 17:37:56.947403 16222 net.cpp:408] conv5 -> conv5
I1013 17:37:56.949939 16222 net.cpp:150] Setting up conv5
I1013 17:37:56.949949 16222 net.cpp:157] Top shape: 64 192 9 9 (995328)
I1013 17:37:56.949950 16222 net.cpp:165] Memory required for data: 131162880
I1013 17:37:56.949955 16222 layer_factory.hpp:77] Creating layer bn2
I1013 17:37:56.949959 16222 net.cpp:100] Creating Layer bn2
I1013 17:37:56.949961 16222 net.cpp:434] bn2 <- conv5
I1013 17:37:56.949965 16222 net.cpp:408] bn2 -> bn2
I1013 17:37:56.950160 16222 net.cpp:150] Setting up bn2
I1013 17:37:56.950165 16222 net.cpp:157] Top shape: 64 192 9 9 (995328)
I1013 17:37:56.950167 16222 net.cpp:165] Memory required for data: 135144192
I1013 17:37:56.950171 16222 layer_factory.hpp:77] Creating layer relu5
I1013 17:37:56.950176 16222 net.cpp:100] Creating Layer relu5
I1013 17:37:56.950178 16222 net.cpp:434] relu5 <- bn2
I1013 17:37:56.950181 16222 net.cpp:395] relu5 -> bn2 (in-place)
I1013 17:37:56.950351 16222 net.cpp:150] Setting up relu5
I1013 17:37:56.950357 16222 net.cpp:157] Top shape: 64 192 9 9 (995328)
I1013 17:37:56.950373 16222 net.cpp:165] Memory required for data: 139125504
I1013 17:37:56.950384 16222 layer_factory.hpp:77] Creating layer conv6
I1013 17:37:56.950390 16222 net.cpp:100] Creating Layer conv6
I1013 17:37:56.950392 16222 net.cpp:434] conv6 <- bn2
I1013 17:37:56.950397 16222 net.cpp:408] conv6 -> conv6
I1013 17:37:56.952936 16222 net.cpp:150] Setting up conv6
I1013 17:37:56.952963 16222 net.cpp:157] Top shape: 64 192 4 4 (196608)
I1013 17:37:56.952965 16222 net.cpp:165] Memory required for data: 139911936
I1013 17:37:56.952977 16222 layer_factory.hpp:77] Creating layer drop4
I1013 17:37:56.952986 16222 net.cpp:100] Creating Layer drop4
I1013 17:37:56.953006 16222 net.cpp:434] drop4 <- conv6
I1013 17:37:56.953009 16222 net.cpp:408] drop4 -> drop4
I1013 17:37:56.953093 16222 net.cpp:150] Setting up drop4
I1013 17:37:56.953097 16222 net.cpp:157] Top shape: 64 192 4 4 (196608)
I1013 17:37:56.953099 16222 net.cpp:165] Memory required for data: 140698368
I1013 17:37:56.953115 16222 layer_factory.hpp:77] Creating layer relu6
I1013 17:37:56.953119 16222 net.cpp:100] Creating Layer relu6
I1013 17:37:56.953121 16222 net.cpp:434] relu6 <- drop4
I1013 17:37:56.953137 16222 net.cpp:395] relu6 -> drop4 (in-place)
I1013 17:37:56.953400 16222 net.cpp:150] Setting up relu6
I1013 17:37:56.953408 16222 net.cpp:157] Top shape: 64 192 4 4 (196608)
I1013 17:37:56.953425 16222 net.cpp:165] Memory required for data: 141484800
I1013 17:37:56.953428 16222 layer_factory.hpp:77] Creating layer conv7
I1013 17:37:56.953433 16222 net.cpp:100] Creating Layer conv7
I1013 17:37:56.953436 16222 net.cpp:434] conv7 <- drop4
I1013 17:37:56.953440 16222 net.cpp:408] conv7 -> conv7
I1013 17:37:56.955973 16222 net.cpp:150] Setting up conv7
I1013 17:37:56.955983 16222 net.cpp:157] Top shape: 64 192 2 2 (49152)
I1013 17:37:56.955999 16222 net.cpp:165] Memory required for data: 141681408
I1013 17:37:56.956004 16222 layer_factory.hpp:77] Creating layer relu7
I1013 17:37:56.956009 16222 net.cpp:100] Creating Layer relu7
I1013 17:37:56.956012 16222 net.cpp:434] relu7 <- conv7
I1013 17:37:56.956015 16222 net.cpp:395] relu7 -> conv7 (in-place)
I1013 17:37:56.956254 16222 net.cpp:150] Setting up relu7
I1013 17:37:56.956262 16222 net.cpp:157] Top shape: 64 192 2 2 (49152)
I1013 17:37:56.956264 16222 net.cpp:165] Memory required for data: 141878016
I1013 17:37:56.956266 16222 layer_factory.hpp:77] Creating layer conv8
I1013 17:37:56.956271 16222 net.cpp:100] Creating Layer conv8
I1013 17:37:56.956274 16222 net.cpp:434] conv8 <- conv7
I1013 17:37:56.956279 16222 net.cpp:408] conv8 -> conv8
I1013 17:37:56.957502 16222 net.cpp:150] Setting up conv8
I1013 17:37:56.957511 16222 net.cpp:157] Top shape: 64 192 2 2 (49152)
I1013 17:37:56.957515 16222 net.cpp:165] Memory required for data: 142074624
I1013 17:37:56.957518 16222 layer_factory.hpp:77] Creating layer relu8
I1013 17:37:56.957523 16222 net.cpp:100] Creating Layer relu8
I1013 17:37:56.957525 16222 net.cpp:434] relu8 <- conv8
I1013 17:37:56.957528 16222 net.cpp:395] relu8 -> conv8 (in-place)
I1013 17:37:56.957710 16222 net.cpp:150] Setting up relu8
I1013 17:37:56.957716 16222 net.cpp:157] Top shape: 64 192 2 2 (49152)
I1013 17:37:56.957718 16222 net.cpp:165] Memory required for data: 142271232
I1013 17:37:56.957720 16222 layer_factory.hpp:77] Creating layer conv9
I1013 17:37:56.957726 16222 net.cpp:100] Creating Layer conv9
I1013 17:37:56.957728 16222 net.cpp:434] conv9 <- conv8
I1013 17:37:56.957731 16222 net.cpp:408] conv9 -> conv9
I1013 17:37:56.958545 16222 net.cpp:150] Setting up conv9
I1013 17:37:56.958554 16222 net.cpp:157] Top shape: 64 10 2 2 (2560)
I1013 17:37:56.958557 16222 net.cpp:165] Memory required for data: 142281472
I1013 17:37:56.958561 16222 layer_factory.hpp:77] Creating layer relu9
I1013 17:37:56.958565 16222 net.cpp:100] Creating Layer relu9
I1013 17:37:56.958567 16222 net.cpp:434] relu9 <- conv9
I1013 17:37:56.958571 16222 net.cpp:395] relu9 -> conv9 (in-place)
I1013 17:37:56.958825 16222 net.cpp:150] Setting up relu9
I1013 17:37:56.958833 16222 net.cpp:157] Top shape: 64 10 2 2 (2560)
I1013 17:37:56.958835 16222 net.cpp:165] Memory required for data: 142291712
I1013 17:37:56.958847 16222 layer_factory.hpp:77] Creating layer pool
I1013 17:37:56.958853 16222 net.cpp:100] Creating Layer pool
I1013 17:37:56.958854 16222 net.cpp:434] pool <- conv9
I1013 17:37:56.958858 16222 net.cpp:408] pool -> pool
I1013 17:37:56.959079 16222 net.cpp:150] Setting up pool
I1013 17:37:56.959085 16222 net.cpp:157] Top shape: 64 10 1 1 (640)
I1013 17:37:56.959087 16222 net.cpp:165] Memory required for data: 142294272
I1013 17:37:56.959089 16222 layer_factory.hpp:77] Creating layer flatten
I1013 17:37:56.959092 16222 net.cpp:100] Creating Layer flatten
I1013 17:37:56.959095 16222 net.cpp:434] flatten <- pool
I1013 17:37:56.959098 16222 net.cpp:408] flatten -> flatten
I1013 17:37:56.959116 16222 net.cpp:150] Setting up flatten
I1013 17:37:56.959133 16222 net.cpp:157] Top shape: 64 10 (640)
I1013 17:37:56.959136 16222 net.cpp:165] Memory required for data: 142296832
I1013 17:37:56.959137 16222 layer_factory.hpp:77] Creating layer score
I1013 17:37:56.959142 16222 net.cpp:100] Creating Layer score
I1013 17:37:56.959151 16222 net.cpp:434] score <- flatten
I1013 17:37:56.959167 16222 net.cpp:408] score -> score
I1013 17:37:56.959298 16222 net.cpp:150] Setting up score
I1013 17:37:56.959303 16222 net.cpp:157] Top shape: 64 10 (640)
I1013 17:37:56.959306 16222 net.cpp:165] Memory required for data: 142299392
I1013 17:37:56.959309 16222 layer_factory.hpp:77] Creating layer score_score_0_split
I1013 17:37:56.959313 16222 net.cpp:100] Creating Layer score_score_0_split
I1013 17:37:56.959316 16222 net.cpp:434] score_score_0_split <- score
I1013 17:37:56.959318 16222 net.cpp:408] score_score_0_split -> score_score_0_split_0
I1013 17:37:56.959323 16222 net.cpp:408] score_score_0_split -> score_score_0_split_1
I1013 17:37:56.959363 16222 net.cpp:150] Setting up score_score_0_split
I1013 17:37:56.959367 16222 net.cpp:157] Top shape: 64 10 (640)
I1013 17:37:56.959369 16222 net.cpp:157] Top shape: 64 10 (640)
I1013 17:37:56.959370 16222 net.cpp:165] Memory required for data: 142304512
I1013 17:37:56.959388 16222 layer_factory.hpp:77] Creating layer accuracy
I1013 17:37:56.959393 16222 net.cpp:100] Creating Layer accuracy
I1013 17:37:56.959408 16222 net.cpp:434] accuracy <- score_score_0_split_0
I1013 17:37:56.959410 16222 net.cpp:434] accuracy <- label_data_1_split_0
I1013 17:37:56.959414 16222 net.cpp:408] accuracy -> accuracy
…
I1013 17:37:56.960003 16222 net.cpp:283] Network initialization done.
I1013 17:37:56.960252 16222 solver.cpp:181] Creating test net (#0) specified by test_net file: /home/adam/Honours/Honours-Project/cifar-10_allcnn/leakyrelu/allcnn_leakyrelu_test.prototxt
I1013 17:37:56.960408 16222 net.cpp:58] Initializing net from parameters: 
state {
  phase: TEST
}
layer {
  name: "data"
  type: "Data"
  top: "data"
  top: "label"
  transform_param {
    mean_file: "mean.binaryproto"
  }
  data_param {
    source: "../../../data/cifar-10/cifar10_test_lmdb"
    batch_size: 100
    backend: LMDB
  }
}
layer {
  name: "conv1"
  type: "Convolution"
  bottom: "data"
  top: "conv1"
  convolution_param {
    num_output: 96
    kernel_size: 3
    weight_filler {
      type: "xavier"
    }
  }
}
layer {
  name: "relu1"
  type: "ReLU"
  bottom: "conv1"
  top: "conv1"
  relu_param {
    negative_slope: 0.01
  }
}
layer {
  name: "conv2"
  type: "Convolution"
  bottom: "conv1"
  top: "conv2"
  convolution_param {
    num_output: 96
    kernel_size: 3
    weight_filler {
      type: "xavier"
    }
  }
}
layer {
  name: "bn1"
  type: "BatchNorm"
  bottom: "conv2"
  top: "bn1"
}
layer {
  name: "relu2"
  type: "ReLU"
  bottom: "bn1"
  top: "bn1"
  relu_param {
    negative_slope: 0.01
  }
}
layer {
  name: "conv3"
  type: "Convolution"
  bottom: "bn1"
  top: "conv3"
  convolution_param {
    num_output: 96
    kernel_size: 3
    stride: 2
    weight_filler {
      type: "xavier"
    }
  }
}
layer {
  name: "drop1"
  type: "Dropout"
  bottom: "conv3"
  top: "drop1"
  dropout_param {
    dropout_ratio: 0.5
  }
}
layer {
  name: "relu3"
  type: "ReLU"
  bottom: "drop1"
  top: "drop1"
  relu_param {
    negative_slope: 0.01
  }
}
layer {
  name: "conv4"
  type: "Convolution"
  bottom: "drop1"
  top: "conv4"
  convolution_param {
    num_output: 192
    kernel_size: 3
    weight_filler {
      type: "xavier"
    }
  }
}
layer {
  name: "relu4"
  type: "ReLU"
  bottom: "conv4"
  top: "conv4"
  relu_param {
    negative_slope: 0.01
  }
}
layer {
  name: "conv5"
  type: "Convolution"
  bottom: "conv4"
  top: "conv5"
  convolution_param {
    num_output: 192
    kernel_size: 3
    weight_filler {
      type: "xavier"
    }
  }
}
layer {
  name: "bn2"
  type: "BatchNorm"
  bottom: "conv5"
  top: "bn2"
}
layer {
  name: "relu5"
  type: "ReLU"
  bottom: "bn2"
  top: "bn2"
  relu_param {
    negative_slope: 0.01
  }
}
layer {
  name: "conv6"
  type: "Convolution"
  bottom: "bn2"
  top: "conv6"
  convolution_param {
    num_output: 192
    kernel_size: 3
    stride: 2
    weight_filler {
      type: "xavier"
    }
  }
}
layer {
  name: "drop4"
  type: "Dropout"
  bottom: "conv6"
  top: "drop4"
  dropout_param {
    dropout_ratio: 0.5
  }
}
layer {
  name: "relu6"
  type: "ReLU"
  bottom: "drop4"
  top: "drop4"
  relu_param {
    negative_slope: 0.01
  }
}
layer {
  name: "conv7"
  type: "Convolution"
  bottom: "drop4"
  top: "conv7"
  convolution_param {
    num_output: 192
    kernel_size: 3
    weight_filler {
      type: "xavier"
    }
  }
}
layer {
  name: "relu7"
  type: "ReLU"
  bottom: "conv7"
  top: "conv7"
  relu_param {
    negative_slope: 0.01
  }
}
layer {
  name: "conv8"
  type: "Convolution"
  bottom: "conv7"
  top: "conv8"
  convolution_param {
    num_output: 192
    kernel_size: 1
    weight_filler {
      type: "xavier"
    }
  }
}
layer {
  name: "relu8"
  type: "ReLU"
  bottom: "conv8"
  top: "conv8"
  relu_param {
    negative_slope: 0.01
  }
}
layer {
  name: "conv9"
  type: "Convolution"
  bottom: "conv8"
  top: "conv9"
  convolution_param {
    num_output: 10
    kernel_size: 1
    weight_filler {
      type: "xavier"
    }
  }
}
layer {
  name: "relu9"
  type: "ReLU"
  bottom: "conv9"
  top: "conv9"
  relu_param {
    negative_slope: 0.01
  }
}
layer {
  name: "pool"
  type: "Pooling"
  bottom: "conv9"
  top: "pool"
  pooling_param {
    pool: AVE
    global_pooling: true
  }
}
layer {
  name: "flatten"
  type: "Flatten"
  bottom: "pool"
  top: "flatten"
}
layer {
  name: "score"
  type: "InnerProduct"
  bottom: "flatten"
  top: "score"
  inner_product_param {
    num_output: 10
    weight_filler {
      type: "gaussian"
    }
  }
}
layer {
  name: "accuracy"
  type: "Accuracy"
  bottom: "score"
  bottom: "label"
  top: "accuracy"
}
layer {
  name: "loss"
  type: "SoftmaxWithLoss"
  bottom: "score"
  bottom: "label"
  top: "loss"
}
I1013 17:37:56.960512 16222 layer_factory.hpp:77] Creating layer data
I1013 17:37:56.960609 16222 net.cpp:100] Creating Layer data
I1013 17:37:56.960618 16222 net.cpp:408] data -> data
I1013 17:37:56.960624 16222 net.cpp:408] data -> label
I1013 17:37:56.960629 16222 data_transformer.cpp:25] Loading mean file from: mean.binaryproto
I1013 17:37:56.961354 16230 db_lmdb.cpp:35] Opened lmdb ../../../data/cifar-10/cifar10_test_lmdb
I1013 17:37:56.961469 16222 data_layer.cpp:41] output data size: 100,3,32,32
I1013 17:37:56.963383 16222 net.cpp:150] Setting up data
I1013 17:37:56.963400 16222 net.cpp:157] Top shape: 100 3 32 32 (307200)
I1013 17:37:56.963426 16222 net.cpp:157] Top shape: 100 (100)
I1013 17:37:56.963429 16222 net.cpp:165] Memory required for data: 1229200
I1013 17:37:56.963433 16222 layer_factory.hpp:77] Creating layer label_data_1_split
I1013 17:37:56.963455 16222 net.cpp:100] Creating Layer label_data_1_split
I1013 17:37:56.963459 16222 net.cpp:434] label_data_1_split <- label
I1013 17:37:56.963477 16222 net.cpp:408] label_data_1_split -> label_data_1_split_0
I1013 17:37:56.963486 16222 net.cpp:408] label_data_1_split -> label_data_1_split_1
I1013 17:37:56.963551 16222 net.cpp:150] Setting up label_data_1_split
I1013 17:37:56.963557 16222 net.cpp:157] Top shape: 100 (100)
I1013 17:37:56.963558 16222 net.cpp:157] Top shape: 100 (100)
I1013 17:37:56.963560 16222 net.cpp:165] Memory required for data: 1230000
I1013 17:37:56.963562 16222 layer_factory.hpp:77] Creating layer conv1
I1013 17:37:56.963585 16222 net.cpp:100] Creating Layer conv1
I1013 17:37:56.963588 16222 net.cpp:434] conv1 <- data
I1013 17:37:56.963593 16222 net.cpp:408] conv1 -> conv1
I1013 17:37:56.964803 16222 net.cpp:150] Setting up conv1
I1013 17:37:56.964828 16222 net.cpp:157] Top shape: 100 96 30 30 (8640000)
I1013 17:37:56.964829 16222 net.cpp:165] Memory required for data: 35790000
I1013 17:37:56.964838 16222 layer_factory.hpp:77] Creating layer relu1
I1013 17:37:56.964859 16222 net.cpp:100] Creating Layer relu1
I1013 17:37:56.964861 16222 net.cpp:434] relu1 <- conv1
I1013 17:37:56.964877 16222 net.cpp:395] relu1 -> conv1 (in-place)
I1013 17:37:56.965095 16222 net.cpp:150] Setting up relu1
I1013 17:37:56.965111 16222 net.cpp:157] Top shape: 100 96 30 30 (8640000)
I1013 17:37:56.965112 16222 net.cpp:165] Memory required for data: 70350000
I1013 17:37:56.965131 16222 layer_factory.hpp:77] Creating layer conv2
I1013 17:37:56.965138 16222 net.cpp:100] Creating Layer conv2
I1013 17:37:56.965144 16222 net.cpp:434] conv2 <- conv1
I1013 17:37:56.965148 16222 net.cpp:408] conv2 -> conv2
I1013 17:37:56.966522 16222 net.cpp:150] Setting up conv2
I1013 17:37:56.966533 16222 net.cpp:157] Top shape: 100 96 28 28 (7526400)
I1013 17:37:56.966536 16222 net.cpp:165] Memory required for data: 100455600
I1013 17:37:56.966542 16222 layer_factory.hpp:77] Creating layer bn1
I1013 17:37:56.966547 16222 net.cpp:100] Creating Layer bn1
I1013 17:37:56.966562 16222 net.cpp:434] bn1 <- conv2
I1013 17:37:56.966569 16222 net.cpp:408] bn1 -> bn1
I1013 17:37:56.966754 16222 net.cpp:150] Setting up bn1
I1013 17:37:56.966760 16222 net.cpp:157] Top shape: 100 96 28 28 (7526400)
I1013 17:37:56.966763 16222 net.cpp:165] Memory required for data: 130561200
I1013 17:37:56.966770 16222 layer_factory.hpp:77] Creating layer relu2
I1013 17:37:56.966776 16222 net.cpp:100] Creating Layer relu2
I1013 17:37:56.966778 16222 net.cpp:434] relu2 <- bn1
I1013 17:37:56.966781 16222 net.cpp:395] relu2 -> bn1 (in-place)
I1013 17:37:56.967056 16222 net.cpp:150] Setting up relu2
I1013 17:37:56.967064 16222 net.cpp:157] Top shape: 100 96 28 28 (7526400)
I1013 17:37:56.967082 16222 net.cpp:165] Memory required for data: 160666800
I1013 17:37:56.967084 16222 layer_factory.hpp:77] Creating layer conv3
I1013 17:37:56.967090 16222 net.cpp:100] Creating Layer conv3
I1013 17:37:56.967093 16222 net.cpp:434] conv3 <- bn1
I1013 17:37:56.967098 16222 net.cpp:408] conv3 -> conv3
I1013 17:37:56.968374 16222 net.cpp:150] Setting up conv3
I1013 17:37:56.968382 16222 net.cpp:157] Top shape: 100 96 13 13 (1622400)
I1013 17:37:56.968384 16222 net.cpp:165] Memory required for data: 167156400
I1013 17:37:56.968390 16222 layer_factory.hpp:77] Creating layer drop1
I1013 17:37:56.968413 16222 net.cpp:100] Creating Layer drop1
I1013 17:37:56.968416 16222 net.cpp:434] drop1 <- conv3
I1013 17:37:56.968420 16222 net.cpp:408] drop1 -> drop1
I1013 17:37:56.968482 16222 net.cpp:150] Setting up drop1
I1013 17:37:56.968499 16222 net.cpp:157] Top shape: 100 96 13 13 (1622400)
I1013 17:37:56.968502 16222 net.cpp:165] Memory required for data: 173646000
I1013 17:37:56.968504 16222 layer_factory.hpp:77] Creating layer relu3
I1013 17:37:56.968524 16222 net.cpp:100] Creating Layer relu3
I1013 17:37:56.968526 16222 net.cpp:434] relu3 <- drop1
I1013 17:37:56.968530 16222 net.cpp:395] relu3 -> drop1 (in-place)
I1013 17:37:56.968768 16222 net.cpp:150] Setting up relu3
I1013 17:37:56.968776 16222 net.cpp:157] Top shape: 100 96 13 13 (1622400)
I1013 17:37:56.968793 16222 net.cpp:165] Memory required for data: 180135600
I1013 17:37:56.968796 16222 layer_factory.hpp:77] Creating layer conv4
I1013 17:37:56.968816 16222 net.cpp:100] Creating Layer conv4
I1013 17:37:56.968818 16222 net.cpp:434] conv4 <- drop1
I1013 17:37:56.968823 16222 net.cpp:408] conv4 -> conv4
I1013 17:37:56.970790 16222 net.cpp:150] Setting up conv4
I1013 17:37:56.970818 16222 net.cpp:157] Top shape: 100 192 11 11 (2323200)
I1013 17:37:56.970821 16222 net.cpp:165] Memory required for data: 189428400
I1013 17:37:56.970826 16222 layer_factory.hpp:77] Creating layer relu4
I1013 17:37:56.970831 16222 net.cpp:100] Creating Layer relu4
I1013 17:37:56.970834 16222 net.cpp:434] relu4 <- conv4
I1013 17:37:56.970837 16222 net.cpp:395] relu4 -> conv4 (in-place)
I1013 17:37:56.972228 16222 net.cpp:150] Setting up relu4
I1013 17:37:56.972234 16222 net.cpp:157] Top shape: 100 192 11 11 (2323200)
I1013 17:37:56.972249 16222 net.cpp:165] Memory required for data: 198721200
I1013 17:37:56.972251 16222 layer_factory.hpp:77] Creating layer conv5
I1013 17:37:56.972271 16222 net.cpp:100] Creating Layer conv5
I1013 17:37:56.972273 16222 net.cpp:434] conv5 <- conv4
I1013 17:37:56.972277 16222 net.cpp:408] conv5 -> conv5
I1013 17:37:56.975021 16222 net.cpp:150] Setting up conv5
I1013 17:37:56.975031 16222 net.cpp:157] Top shape: 100 192 9 9 (1555200)
I1013 17:37:56.975034 16222 net.cpp:165] Memory required for data: 204942000
I1013 17:37:56.975039 16222 layer_factory.hpp:77] Creating layer bn2
I1013 17:37:56.975044 16222 net.cpp:100] Creating Layer bn2
I1013 17:37:56.975046 16222 net.cpp:434] bn2 <- conv5
I1013 17:37:56.975049 16222 net.cpp:408] bn2 -> bn2
I1013 17:37:56.975253 16222 net.cpp:150] Setting up bn2
I1013 17:37:56.975258 16222 net.cpp:157] Top shape: 100 192 9 9 (1555200)
I1013 17:37:56.975260 16222 net.cpp:165] Memory required for data: 211162800
I1013 17:37:56.975265 16222 layer_factory.hpp:77] Creating layer relu5
I1013 17:37:56.975268 16222 net.cpp:100] Creating Layer relu5
I1013 17:37:56.975270 16222 net.cpp:434] relu5 <- bn2
I1013 17:37:56.975273 16222 net.cpp:395] relu5 -> bn2 (in-place)
I1013 17:37:56.975549 16222 net.cpp:150] Setting up relu5
I1013 17:37:56.975558 16222 net.cpp:157] Top shape: 100 192 9 9 (1555200)
I1013 17:37:56.975559 16222 net.cpp:165] Memory required for data: 217383600
I1013 17:37:56.975561 16222 layer_factory.hpp:77] Creating layer conv6
I1013 17:37:56.975567 16222 net.cpp:100] Creating Layer conv6
I1013 17:37:56.975569 16222 net.cpp:434] conv6 <- bn2
I1013 17:37:56.975574 16222 net.cpp:408] conv6 -> conv6
I1013 17:37:56.978049 16222 net.cpp:150] Setting up conv6
I1013 17:37:56.978058 16222 net.cpp:157] Top shape: 100 192 4 4 (307200)
I1013 17:37:56.978060 16222 net.cpp:165] Memory required for data: 218612400
I1013 17:37:56.978068 16222 layer_factory.hpp:77] Creating layer drop4
I1013 17:37:56.978076 16222 net.cpp:100] Creating Layer drop4
I1013 17:37:56.978078 16222 net.cpp:434] drop4 <- conv6
I1013 17:37:56.978082 16222 net.cpp:408] drop4 -> drop4
I1013 17:37:56.978143 16222 net.cpp:150] Setting up drop4
I1013 17:37:56.978148 16222 net.cpp:157] Top shape: 100 192 4 4 (307200)
I1013 17:37:56.978163 16222 net.cpp:165] Memory required for data: 219841200
I1013 17:37:56.978166 16222 layer_factory.hpp:77] Creating layer relu6
I1013 17:37:56.978185 16222 net.cpp:100] Creating Layer relu6
I1013 17:37:56.978188 16222 net.cpp:434] relu6 <- drop4
I1013 17:37:56.978191 16222 net.cpp:395] relu6 -> drop4 (in-place)
I1013 17:37:56.978462 16222 net.cpp:150] Setting up relu6
I1013 17:37:56.978471 16222 net.cpp:157] Top shape: 100 192 4 4 (307200)
I1013 17:37:56.978472 16222 net.cpp:165] Memory required for data: 221070000
I1013 17:37:56.978474 16222 layer_factory.hpp:77] Creating layer conv7
I1013 17:37:56.978480 16222 net.cpp:100] Creating Layer conv7
I1013 17:37:56.978482 16222 net.cpp:434] conv7 <- drop4
I1013 17:37:56.978487 16222 net.cpp:408] conv7 -> conv7
I1013 17:37:56.981040 16222 net.cpp:150] Setting up conv7
I1013 17:37:56.981048 16222 net.cpp:157] Top shape: 100 192 2 2 (76800)
I1013 17:37:56.981050 16222 net.cpp:165] Memory required for data: 221377200
I1013 17:37:56.981055 16222 layer_factory.hpp:77] Creating layer relu7
I1013 17:37:56.981060 16222 net.cpp:100] Creating Layer relu7
I1013 17:37:56.981061 16222 net.cpp:434] relu7 <- conv7
I1013 17:37:56.981065 16222 net.cpp:395] relu7 -> conv7 (in-place)
I1013 17:37:56.981235 16222 net.cpp:150] Setting up relu7
I1013 17:37:56.981241 16222 net.cpp:157] Top shape: 100 192 2 2 (76800)
I1013 17:37:56.981243 16222 net.cpp:165] Memory required for data: 221684400
I1013 17:37:56.981245 16222 layer_factory.hpp:77] Creating layer conv8
I1013 17:37:56.981251 16222 net.cpp:100] Creating Layer conv8
I1013 17:37:56.981252 16222 net.cpp:434] conv8 <- conv7
I1013 17:37:56.981257 16222 net.cpp:408] conv8 -> conv8
I1013 17:37:56.982237 16222 net.cpp:150] Setting up conv8
I1013 17:37:56.982246 16222 net.cpp:157] Top shape: 100 192 2 2 (76800)
I1013 17:37:56.982249 16222 net.cpp:165] Memory required for data: 221991600
I1013 17:37:56.982252 16222 layer_factory.hpp:77] Creating layer relu8
I1013 17:37:56.982257 16222 net.cpp:100] Creating Layer relu8
I1013 17:37:56.982259 16222 net.cpp:434] relu8 <- conv8
I1013 17:37:56.982262 16222 net.cpp:395] relu8 -> conv8 (in-place)
I1013 17:37:56.982556 16222 net.cpp:150] Setting up relu8
I1013 17:37:56.982564 16222 net.cpp:157] Top shape: 100 192 2 2 (76800)
I1013 17:37:56.982566 16222 net.cpp:165] Memory required for data: 222298800
I1013 17:37:56.982568 16222 layer_factory.hpp:77] Creating layer conv9
I1013 17:37:56.982574 16222 net.cpp:100] Creating Layer conv9
I1013 17:37:56.982576 16222 net.cpp:434] conv9 <- conv8
I1013 17:37:56.982580 16222 net.cpp:408] conv9 -> conv9
I1013 17:37:56.983330 16222 net.cpp:150] Setting up conv9
I1013 17:37:56.983340 16222 net.cpp:157] Top shape: 100 10 2 2 (4000)
I1013 17:37:56.983341 16222 net.cpp:165] Memory required for data: 222314800
I1013 17:37:56.983345 16222 layer_factory.hpp:77] Creating layer relu9
I1013 17:37:56.983350 16222 net.cpp:100] Creating Layer relu9
I1013 17:37:56.983352 16222 net.cpp:434] relu9 <- conv9
I1013 17:37:56.983355 16222 net.cpp:395] relu9 -> conv9 (in-place)
I1013 17:37:56.983613 16222 net.cpp:150] Setting up relu9
I1013 17:37:56.983621 16222 net.cpp:157] Top shape: 100 10 2 2 (4000)
I1013 17:37:56.983623 16222 net.cpp:165] Memory required for data: 222330800
I1013 17:37:56.983625 16222 layer_factory.hpp:77] Creating layer pool
I1013 17:37:56.983630 16222 net.cpp:100] Creating Layer pool
I1013 17:37:56.983633 16222 net.cpp:434] pool <- conv9
I1013 17:37:56.983635 16222 net.cpp:408] pool -> pool
I1013 17:37:56.983835 16222 net.cpp:150] Setting up pool
I1013 17:37:56.983841 16222 net.cpp:157] Top shape: 100 10 1 1 (1000)
I1013 17:37:56.983844 16222 net.cpp:165] Memory required for data: 222334800
I1013 17:37:56.983845 16222 layer_factory.hpp:77] Creating layer flatten
I1013 17:37:56.983850 16222 net.cpp:100] Creating Layer flatten
I1013 17:37:56.983851 16222 net.cpp:434] flatten <- pool
I1013 17:37:56.983855 16222 net.cpp:408] flatten -> flatten
I1013 17:37:56.983875 16222 net.cpp:150] Setting up flatten
I1013 17:37:56.983892 16222 net.cpp:157] Top shape: 100 10 (1000)
I1013 17:37:56.983894 16222 net.cpp:165] Memory required for data: 222338800
I1013 17:37:56.983896 16222 layer_factory.hpp:77] Creating layer score
I1013 17:37:56.983913 16222 net.cpp:100] Creating Layer score
I1013 17:37:56.983937 16222 net.cpp:434] score <- flatten
I1013 17:37:56.983942 16222 net.cpp:408] score -> score
I1013 17:37:56.984087 16222 net.cpp:150] Setting up score
I1013 17:37:56.984091 16222 net.cpp:157] Top shape: 100 10 (1000)
I1013 17:37:56.984093 16222 net.cpp:165] Memory required for data: 222342800
I1013 17:37:56.984097 16222 layer_factory.hpp:77] Creating layer score_score_0_split
I1013 17:37:56.984102 16222 net.cpp:100] Creating Layer score_score_0_split
I1013 17:37:56.984103 16222 net.cpp:434] score_score_0_split <- score
I1013 17:37:56.984107 16222 net.cpp:408] score_score_0_split -> score_score_0_split_0
I1013 17:37:56.984110 16222 net.cpp:408] score_score_0_split -> score_score_0_split_1
I1013 17:37:56.984153 16222 net.cpp:150] Setting up score_score_0_split
I1013 17:37:56.984158 16222 net.cpp:157] Top shape: 100 10 (1000)
I1013 17:37:56.984159 16222 net.cpp:157] Top shape: 100 10 (1000)
I1013 17:37:56.984161 16222 net.cpp:165] Memory required for data: 222350800
I1013 17:37:56.984177 16222 layer_factory.hpp:77] Creating layer accuracy
I1013 17:37:56.984181 16222 net.cpp:100] Creating Layer accuracy
I1013 17:37:56.984184 16222 net.cpp:434] accuracy <- score_score_0_split_0
I1013 17:37:56.984200 16222 net.cpp:434] accuracy <- label_data_1_split_0
I1013 17:37:56.984202 16222 net.cpp:408] accuracy -> accuracy
…
