…
  stage: ""
}
type: "Adam"
I1010 14:39:24.087522  5890 solver.cpp:81] Creating training net from train_net file: /home/adam/Honours/Honours-Project/cifar-10_allcnn/relu/allcnn_relu_train.prototxt
I1010 14:39:24.087846  5890 net.cpp:58] Initializing net from parameters: 
state {
  phase: TRAIN
  level: 0
  stage: ""
}
layer {
  name: "data"
  type: "Data"
  top: "data"
  top: "label"
  transform_param {
    mean_file: "mean.binaryproto"
  }
  data_param {
    source: "../../../data/cifar-10/cifar10_train_lmdb"
    batch_size: 64
    backend: LMDB
  }
}
layer {
  name: "conv1"
  type: "Convolution"
  bottom: "data"
  top: "conv1"
  convolution_param {
    num_output: 96
    kernel_size: 3
    weight_filler {
      type: "xavier"
    }
  }
}
layer {
  name: "relu1"
  type: "ReLU"
  bottom: "conv1"
  top: "conv1"
}
layer {
  name: "conv2"
  type: "Convolution"
  bottom: "conv1"
  top: "conv2"
  convolution_param {
    num_output: 96
    kernel_size: 3
    weight_filler {
      type: "xavier"
    }
  }
}
layer {
  name: "bn1"
  type: "BatchNorm"
  bottom: "conv2"
  top: "bn1"
}
layer {
  name: "relu2"
  type: "ReLU"
  bottom: "bn1"
  top: "bn1"
}
layer {
  name: "drop1"
  type: "Dropout"
  bottom: "bn1"
  top: "drop1"
  dropout_param {
    dropout_ratio: 0.5
  }
}
layer {
  name: "conv3"
  type: "Convolution"
  bottom: "drop1"
  top: "conv3"
  convolution_param {
    num_output: 96
    kernel_size: 3
    stride: 2
    weight_filler {
      type: "xavier"
    }
  }
}
layer {
  name: "relu3"
  type: "ReLU"
  bottom: "conv3"
  top: "conv3"
}
layer {
  name: "conv4"
  type: "Convolution"
  bottom: "conv3"
  top: "conv4"
  convolution_param {
    num_output: 192
    kernel_size: 3
    weight_filler {
      type: "xavier"
    }
  }
}
layer {
  name: "relu4"
  type: "ReLU"
  bottom: "conv4"
  top: "conv4"
}
layer {
  name: "conv5"
  type: "Convolution"
  bottom: "conv4"
  top: "conv5"
  convolution_param {
    num_output: 192
    kernel_size: 3
    weight_filler {
      type: "xavier"
    }
  }
}
layer {
  name: "bn2"
  type: "BatchNorm"
  bottom: "conv5"
  top: "bn2"
}
layer {
  name: "relu5"
  type: "ReLU"
  bottom: "bn2"
  top: "bn2"
}
layer {
  name: "drop4"
  type: "Dropout"
  bottom: "bn2"
  top: "drop4"
  dropout_param {
    dropout_ratio: 0.5
  }
}
layer {
  name: "conv6"
  type: "Convolution"
  bottom: "drop4"
  top: "conv6"
  convolution_param {
    num_output: 192
    kernel_size: 3
    stride: 2
    weight_filler {
      type: "xavier"
    }
  }
}
layer {
  name: "relu6"
  type: "ReLU"
  bottom: "conv6"
  top: "conv6"
}
layer {
  name: "conv7"
  type: "Convolution"
  bottom: "conv6"
  top: "conv7"
  convolution_param {
    num_output: 192
    kernel_size: 3
    weight_filler {
      type: "xavier"
    }
  }
}
layer {
  name: "relu7"
  type: "ReLU"
  bottom: "conv7"
  top: "conv7"
}
layer {
  name: "conv8"
  type: "Convolution"
  bottom: "conv7"
  top: "conv8"
  convolution_param {
    num_output: 192
    kernel_size: 1
    weight_filler {
      type: "xavier"
    }
  }
}
layer {
  name: "relu8"
  type: "ReLU"
  bottom: "conv8"
  top: "conv8"
}
layer {
  name: "conv9"
  type: "Convolution"
  bottom: "conv8"
  top: "conv9"
  convolution_param {
    num_output: 10
    kernel_size: 1
    weight_filler {
      type: "xavier"
    }
  }
}
layer {
  name: "relu9"
  type: "ReLU"
  bottom: "conv9"
  top: "conv9"
}
layer {
  name: "pool"
  type: "Pooling"
  bottom: "conv9"
  top: "pool"
  pooling_param {
    pool: AVE
    global_pooling: true
  }
}
layer {
  name: "flatten"
  type: "Flatten"
  bottom: "pool"
  top: "flatten"
}
layer {
  name: "score"
  type: "InnerProduct"
  bottom: "flatten"
  top: "score"
  inner_product_param {
    num_output: 10
    weight_filler {
      type: "gaussian"
    }
  }
}
layer {
  name: "accuracy"
  type: "Accuracy"
  bottom: "score"
  bottom: "label"
  top: "accuracy"
}
layer {
  name: "loss"
  type: "SoftmaxWithLoss"
  bottom: "score"
  bottom: "label"
  top: "loss"
}
I1010 14:39:24.088006  5890 layer_factory.hpp:77] Creating layer data
I1010 14:39:24.088449  5890 net.cpp:100] Creating Layer data
I1010 14:39:24.088457  5890 net.cpp:408] data -> data
I1010 14:39:24.088487  5890 net.cpp:408] data -> label
I1010 14:39:24.088510  5890 data_transformer.cpp:25] Loading mean file from: mean.binaryproto
I1010 14:39:24.091410  5895 db_lmdb.cpp:35] Opened lmdb ../../../data/cifar-10/cifar10_train_lmdb
I1010 14:39:24.096065  5890 data_layer.cpp:41] output data size: 64,3,32,32
I1010 14:39:24.097704  5890 net.cpp:150] Setting up data
I1010 14:39:24.097723  5890 net.cpp:157] Top shape: 64 3 32 32 (196608)
I1010 14:39:24.097726  5890 net.cpp:157] Top shape: 64 (64)
I1010 14:39:24.097728  5890 net.cpp:165] Memory required for data: 786688
I1010 14:39:24.097749  5890 layer_factory.hpp:77] Creating layer label_data_1_split
I1010 14:39:24.097774  5890 net.cpp:100] Creating Layer label_data_1_split
I1010 14:39:24.097779  5890 net.cpp:434] label_data_1_split <- label
I1010 14:39:24.097786  5890 net.cpp:408] label_data_1_split -> label_data_1_split_0
I1010 14:39:24.097796  5890 net.cpp:408] label_data_1_split -> label_data_1_split_1
I1010 14:39:24.097843  5890 net.cpp:150] Setting up label_data_1_split
I1010 14:39:24.097848  5890 net.cpp:157] Top shape: 64 (64)
I1010 14:39:24.097851  5890 net.cpp:157] Top shape: 64 (64)
I1010 14:39:24.097852  5890 net.cpp:165] Memory required for data: 787200
I1010 14:39:24.097854  5890 layer_factory.hpp:77] Creating layer conv1
I1010 14:39:24.097888  5890 net.cpp:100] Creating Layer conv1
I1010 14:39:24.097890  5890 net.cpp:434] conv1 <- data
I1010 14:39:24.097909  5890 net.cpp:408] conv1 -> conv1
I1010 14:39:24.236614  5890 net.cpp:150] Setting up conv1
I1010 14:39:24.236637  5890 net.cpp:157] Top shape: 64 96 30 30 (5529600)
I1010 14:39:24.236640  5890 net.cpp:165] Memory required for data: 22905600
I1010 14:39:24.236657  5890 layer_factory.hpp:77] Creating layer relu1
I1010 14:39:24.236665  5890 net.cpp:100] Creating Layer relu1
I1010 14:39:24.236668  5890 net.cpp:434] relu1 <- conv1
I1010 14:39:24.236671  5890 net.cpp:395] relu1 -> conv1 (in-place)
I1010 14:39:24.236865  5890 net.cpp:150] Setting up relu1
I1010 14:39:24.236871  5890 net.cpp:157] Top shape: 64 96 30 30 (5529600)
I1010 14:39:24.236886  5890 net.cpp:165] Memory required for data: 45024000
I1010 14:39:24.236889  5890 layer_factory.hpp:77] Creating layer conv2
I1010 14:39:24.236897  5890 net.cpp:100] Creating Layer conv2
I1010 14:39:24.236899  5890 net.cpp:434] conv2 <- conv1
I1010 14:39:24.236903  5890 net.cpp:408] conv2 -> conv2
I1010 14:39:24.238303  5890 net.cpp:150] Setting up conv2
I1010 14:39:24.238312  5890 net.cpp:157] Top shape: 64 96 28 28 (4816896)
I1010 14:39:24.238315  5890 net.cpp:165] Memory required for data: 64291584
I1010 14:39:24.238322  5890 layer_factory.hpp:77] Creating layer bn1
I1010 14:39:24.238327  5890 net.cpp:100] Creating Layer bn1
I1010 14:39:24.238328  5890 net.cpp:434] bn1 <- conv2
I1010 14:39:24.238332  5890 net.cpp:408] bn1 -> bn1
I1010 14:39:24.238513  5890 net.cpp:150] Setting up bn1
I1010 14:39:24.238518  5890 net.cpp:157] Top shape: 64 96 28 28 (4816896)
I1010 14:39:24.238520  5890 net.cpp:165] Memory required for data: 83559168
I1010 14:39:24.238528  5890 layer_factory.hpp:77] Creating layer relu2
I1010 14:39:24.238530  5890 net.cpp:100] Creating Layer relu2
I1010 14:39:24.238533  5890 net.cpp:434] relu2 <- bn1
I1010 14:39:24.238535  5890 net.cpp:395] relu2 -> bn1 (in-place)
I1010 14:39:24.238701  5890 net.cpp:150] Setting up relu2
I1010 14:39:24.238708  5890 net.cpp:157] Top shape: 64 96 28 28 (4816896)
I1010 14:39:24.238709  5890 net.cpp:165] Memory required for data: 102826752
I1010 14:39:24.238723  5890 layer_factory.hpp:77] Creating layer drop1
I1010 14:39:24.238726  5890 net.cpp:100] Creating Layer drop1
I1010 14:39:24.238729  5890 net.cpp:434] drop1 <- bn1
I1010 14:39:24.238731  5890 net.cpp:408] drop1 -> drop1
I1010 14:39:24.238790  5890 net.cpp:150] Setting up drop1
I1010 14:39:24.238793  5890 net.cpp:157] Top shape: 64 96 28 28 (4816896)
I1010 14:39:24.238795  5890 net.cpp:165] Memory required for data: 122094336
I1010 14:39:24.238811  5890 layer_factory.hpp:77] Creating layer conv3
I1010 14:39:24.238816  5890 net.cpp:100] Creating Layer conv3
I1010 14:39:24.238818  5890 net.cpp:434] conv3 <- drop1
I1010 14:39:24.238837  5890 net.cpp:408] conv3 -> conv3
I1010 14:39:24.240018  5890 net.cpp:150] Setting up conv3
I1010 14:39:24.240027  5890 net.cpp:157] Top shape: 64 96 13 13 (1038336)
I1010 14:39:24.240030  5890 net.cpp:165] Memory required for data: 126247680
I1010 14:39:24.240036  5890 layer_factory.hpp:77] Creating layer relu3
I1010 14:39:24.240041  5890 net.cpp:100] Creating Layer relu3
I1010 14:39:24.240042  5890 net.cpp:434] relu3 <- conv3
I1010 14:39:24.240046  5890 net.cpp:395] relu3 -> conv3 (in-place)
I1010 14:39:24.240298  5890 net.cpp:150] Setting up relu3
I1010 14:39:24.240305  5890 net.cpp:157] Top shape: 64 96 13 13 (1038336)
I1010 14:39:24.240308  5890 net.cpp:165] Memory required for data: 130401024
I1010 14:39:24.240310  5890 layer_factory.hpp:77] Creating layer conv4
I1010 14:39:24.240315  5890 net.cpp:100] Creating Layer conv4
I1010 14:39:24.240317  5890 net.cpp:434] conv4 <- conv3
I1010 14:39:24.240324  5890 net.cpp:408] conv4 -> conv4
I1010 14:39:24.242164  5890 net.cpp:150] Setting up conv4
I1010 14:39:24.242174  5890 net.cpp:157] Top shape: 64 192 11 11 (1486848)
I1010 14:39:24.242177  5890 net.cpp:165] Memory required for data: 136348416
I1010 14:39:24.242182  5890 layer_factory.hpp:77] Creating layer relu4
I1010 14:39:24.242185  5890 net.cpp:100] Creating Layer relu4
I1010 14:39:24.242187  5890 net.cpp:434] relu4 <- conv4
I1010 14:39:24.242192  5890 net.cpp:395] relu4 -> conv4 (in-place)
I1010 14:39:24.242367  5890 net.cpp:150] Setting up relu4
I1010 14:39:24.242373  5890 net.cpp:157] Top shape: 64 192 11 11 (1486848)
I1010 14:39:24.242375  5890 net.cpp:165] Memory required for data: 142295808
I1010 14:39:24.242377  5890 layer_factory.hpp:77] Creating layer conv5
I1010 14:39:24.242383  5890 net.cpp:100] Creating Layer conv5
I1010 14:39:24.242385  5890 net.cpp:434] conv5 <- conv4
I1010 14:39:24.242389  5890 net.cpp:408] conv5 -> conv5
I1010 14:39:24.244911  5890 net.cpp:150] Setting up conv5
I1010 14:39:24.244921  5890 net.cpp:157] Top shape: 64 192 9 9 (995328)
I1010 14:39:24.244923  5890 net.cpp:165] Memory required for data: 146277120
I1010 14:39:24.244931  5890 layer_factory.hpp:77] Creating layer bn2
I1010 14:39:24.244937  5890 net.cpp:100] Creating Layer bn2
I1010 14:39:24.244940  5890 net.cpp:434] bn2 <- conv5
I1010 14:39:24.244943  5890 net.cpp:408] bn2 -> bn2
I1010 14:39:24.245177  5890 net.cpp:150] Setting up bn2
I1010 14:39:24.245182  5890 net.cpp:157] Top shape: 64 192 9 9 (995328)
I1010 14:39:24.245183  5890 net.cpp:165] Memory required for data: 150258432
I1010 14:39:24.245187  5890 layer_factory.hpp:77] Creating layer relu5
I1010 14:39:24.245192  5890 net.cpp:100] Creating Layer relu5
I1010 14:39:24.245193  5890 net.cpp:434] relu5 <- bn2
I1010 14:39:24.245196  5890 net.cpp:395] relu5 -> bn2 (in-place)
I1010 14:39:24.245354  5890 net.cpp:150] Setting up relu5
I1010 14:39:24.245360  5890 net.cpp:157] Top shape: 64 192 9 9 (995328)
I1010 14:39:24.245362  5890 net.cpp:165] Memory required for data: 154239744
I1010 14:39:24.245364  5890 layer_factory.hpp:77] Creating layer drop4
I1010 14:39:24.245368  5890 net.cpp:100] Creating Layer drop4
I1010 14:39:24.245370  5890 net.cpp:434] drop4 <- bn2
I1010 14:39:24.245373  5890 net.cpp:408] drop4 -> drop4
I1010 14:39:24.245415  5890 net.cpp:150] Setting up drop4
I1010 14:39:24.245435  5890 net.cpp:157] Top shape: 64 192 9 9 (995328)
I1010 14:39:24.245437  5890 net.cpp:165] Memory required for data: 158221056
I1010 14:39:24.245462  5890 layer_factory.hpp:77] Creating layer conv6
I1010 14:39:24.245471  5890 net.cpp:100] Creating Layer conv6
I1010 14:39:24.245474  5890 net.cpp:434] conv6 <- drop4
I1010 14:39:24.245478  5890 net.cpp:408] conv6 -> conv6
I1010 14:39:24.247988  5890 net.cpp:150] Setting up conv6
I1010 14:39:24.248014  5890 net.cpp:157] Top shape: 64 192 4 4 (196608)
I1010 14:39:24.248016  5890 net.cpp:165] Memory required for data: 159007488
I1010 14:39:24.248025  5890 layer_factory.hpp:77] Creating layer relu6
I1010 14:39:24.248030  5890 net.cpp:100] Creating Layer relu6
I1010 14:39:24.248034  5890 net.cpp:434] relu6 <- conv6
I1010 14:39:24.248051  5890 net.cpp:395] relu6 -> conv6 (in-place)
I1010 14:39:24.248311  5890 net.cpp:150] Setting up relu6
I1010 14:39:24.248320  5890 net.cpp:157] Top shape: 64 192 4 4 (196608)
I1010 14:39:24.248322  5890 net.cpp:165] Memory required for data: 159793920
I1010 14:39:24.248325  5890 layer_factory.hpp:77] Creating layer conv7
I1010 14:39:24.248345  5890 net.cpp:100] Creating Layer conv7
I1010 14:39:24.248347  5890 net.cpp:434] conv7 <- conv6
I1010 14:39:24.248353  5890 net.cpp:408] conv7 -> conv7
I1010 14:39:24.251649  5890 net.cpp:150] Setting up conv7
I1010 14:39:24.251667  5890 net.cpp:157] Top shape: 64 192 2 2 (49152)
I1010 14:39:24.251670  5890 net.cpp:165] Memory required for data: 159990528
I1010 14:39:24.251675  5890 layer_factory.hpp:77] Creating layer relu7
I1010 14:39:24.251680  5890 net.cpp:100] Creating Layer relu7
I1010 14:39:24.251683  5890 net.cpp:434] relu7 <- conv7
I1010 14:39:24.251687  5890 net.cpp:395] relu7 -> conv7 (in-place)
I1010 14:39:24.251943  5890 net.cpp:150] Setting up relu7
I1010 14:39:24.251951  5890 net.cpp:157] Top shape: 64 192 2 2 (49152)
I1010 14:39:24.251952  5890 net.cpp:165] Memory required for data: 160187136
I1010 14:39:24.251955  5890 layer_factory.hpp:77] Creating layer conv8
I1010 14:39:24.251961  5890 net.cpp:100] Creating Layer conv8
I1010 14:39:24.251963  5890 net.cpp:434] conv8 <- conv7
I1010 14:39:24.251967  5890 net.cpp:408] conv8 -> conv8
I1010 14:39:24.253229  5890 net.cpp:150] Setting up conv8
I1010 14:39:24.253238  5890 net.cpp:157] Top shape: 64 192 2 2 (49152)
I1010 14:39:24.253240  5890 net.cpp:165] Memory required for data: 160383744
I1010 14:39:24.253245  5890 layer_factory.hpp:77] Creating layer relu8
I1010 14:39:24.253249  5890 net.cpp:100] Creating Layer relu8
I1010 14:39:24.253252  5890 net.cpp:434] relu8 <- conv8
I1010 14:39:24.253255  5890 net.cpp:395] relu8 -> conv8 (in-place)
I1010 14:39:24.253437  5890 net.cpp:150] Setting up relu8
I1010 14:39:24.253444  5890 net.cpp:157] Top shape: 64 192 2 2 (49152)
I1010 14:39:24.253446  5890 net.cpp:165] Memory required for data: 160580352
I1010 14:39:24.253448  5890 layer_factory.hpp:77] Creating layer conv9
I1010 14:39:24.253453  5890 net.cpp:100] Creating Layer conv9
I1010 14:39:24.253455  5890 net.cpp:434] conv9 <- conv8
I1010 14:39:24.253459  5890 net.cpp:408] conv9 -> conv9
I1010 14:39:24.254266  5890 net.cpp:150] Setting up conv9
I1010 14:39:24.254276  5890 net.cpp:157] Top shape: 64 10 2 2 (2560)
I1010 14:39:24.254278  5890 net.cpp:165] Memory required for data: 160590592
I1010 14:39:24.254282  5890 layer_factory.hpp:77] Creating layer relu9
I1010 14:39:24.254287  5890 net.cpp:100] Creating Layer relu9
I1010 14:39:24.254288  5890 net.cpp:434] relu9 <- conv9
I1010 14:39:24.254292  5890 net.cpp:395] relu9 -> conv9 (in-place)
I1010 14:39:24.254545  5890 net.cpp:150] Setting up relu9
I1010 14:39:24.254554  5890 net.cpp:157] Top shape: 64 10 2 2 (2560)
I1010 14:39:24.254555  5890 net.cpp:165] Memory required for data: 160600832
I1010 14:39:24.254557  5890 layer_factory.hpp:77] Creating layer pool
I1010 14:39:24.254561  5890 net.cpp:100] Creating Layer pool
I1010 14:39:24.254564  5890 net.cpp:434] pool <- conv9
I1010 14:39:24.254570  5890 net.cpp:408] pool -> pool
I1010 14:39:24.254762  5890 net.cpp:150] Setting up pool
I1010 14:39:24.254768  5890 net.cpp:157] Top shape: 64 10 1 1 (640)
I1010 14:39:24.254770  5890 net.cpp:165] Memory required for data: 160603392
I1010 14:39:24.254781  5890 layer_factory.hpp:77] Creating layer flatten
I1010 14:39:24.254786  5890 net.cpp:100] Creating Layer flatten
I1010 14:39:24.254787  5890 net.cpp:434] flatten <- pool
I1010 14:39:24.254791  5890 net.cpp:408] flatten -> flatten
I1010 14:39:24.254840  5890 net.cpp:150] Setting up flatten
I1010 14:39:24.254844  5890 net.cpp:157] Top shape: 64 10 (640)
I1010 14:39:24.254847  5890 net.cpp:165] Memory required for data: 160605952
I1010 14:39:24.254863  5890 layer_factory.hpp:77] Creating layer score
I1010 14:39:24.254868  5890 net.cpp:100] Creating Layer score
I1010 14:39:24.254871  5890 net.cpp:434] score <- flatten
I1010 14:39:24.254887  5890 net.cpp:408] score -> score
I1010 14:39:24.255023  5890 net.cpp:150] Setting up score
I1010 14:39:24.255026  5890 net.cpp:157] Top shape: 64 10 (640)
I1010 14:39:24.255028  5890 net.cpp:165] Memory required for data: 160608512
I1010 14:39:24.255033  5890 layer_factory.hpp:77] Creating layer score_score_0_split
I1010 14:39:24.255035  5890 net.cpp:100] Creating Layer score_score_0_split
I1010 14:39:24.255038  5890 net.cpp:434] score_score_0_split <- score
I1010 14:39:24.255041  5890 net.cpp:408] score_score_0_split -> score_score_0_split_0
I1010 14:39:24.255045  5890 net.cpp:408] score_score_0_split -> score_score_0_split_1
I1010 14:39:24.255087  5890 net.cpp:150] Setting up score_score_0_split
I1010 14:39:24.255091  5890 net.cpp:157] Top shape: 64 10 (640)
I1010 14:39:24.255094  5890 net.cpp:157] Top shape: 64 10 (640)
I1010 14:39:24.255110  5890 net.cpp:165] Memory required for data: 160613632
I1010 14:39:24.255111  5890 layer_factory.hpp:77] Creating layer accuracy
I1010 14:39:24.255115  5890 net.cpp:100] Creating Layer accuracy
I1010 14:39:24.255117  5890 net.cpp:434] accuracy <- score_score_0_split_0
I1010 14:39:24.255132  5890 net.cpp:434] accuracy <- label_data_1_split_0
I1010 14:39:24.255136  5890 net.cpp:408] accuracy -> accuracy
…
I1010 14:39:24.255780  5890 net.cpp:283] Network initialization done.
I1010 14:39:24.256023  5890 solver.cpp:181] Creating test net (#0) specified by test_net file: /home/adam/Honours/Honours-Project/cifar-10_allcnn/relu/allcnn_relu_test.prototxt
I1010 14:39:24.256167  5890 net.cpp:58] Initializing net from parameters: 
state {
  phase: TEST
}
layer {
  name: "data"
  type: "Data"
  top: "data"
  top: "label"
  transform_param {
    mean_file: "mean.binaryproto"
  }
  data_param {
    source: "../../../data/cifar-10/cifar10_test_lmdb"
    batch_size: 100
    backend: LMDB
  }
}
layer {
  name: "conv1"
  type: "Convolution"
  bottom: "data"
  top: "conv1"
  convolution_param {
    num_output: 96
    kernel_size: 3
    weight_filler {
      type: "xavier"
    }
  }
}
layer {
  name: "relu1"
  type: "ReLU"
  bottom: "conv1"
  top: "conv1"
}
layer {
  name: "conv2"
  type: "Convolution"
  bottom: "conv1"
  top: "conv2"
  convolution_param {
    num_output: 96
    kernel_size: 3
    weight_filler {
      type: "xavier"
    }
  }
}
layer {
  name: "bn1"
  type: "BatchNorm"
  bottom: "conv2"
  top: "bn1"
}
layer {
  name: "relu2"
  type: "ReLU"
  bottom: "bn1"
  top: "bn1"
}
layer {
  name: "drop1"
  type: "Dropout"
  bottom: "bn1"
  top: "drop1"
  dropout_param {
    dropout_ratio: 0.5
  }
}
layer {
  name: "conv3"
  type: "Convolution"
  bottom: "drop1"
  top: "conv3"
  convolution_param {
    num_output: 96
    kernel_size: 3
    stride: 2
    weight_filler {
      type: "xavier"
    }
  }
}
layer {
  name: "relu3"
  type: "ReLU"
  bottom: "conv3"
  top: "conv3"
}
layer {
  name: "conv4"
  type: "Convolution"
  bottom: "conv3"
  top: "conv4"
  convolution_param {
    num_output: 192
    kernel_size: 3
    weight_filler {
      type: "xavier"
    }
  }
}
layer {
  name: "relu4"
  type: "ReLU"
  bottom: "conv4"
  top: "conv4"
}
layer {
  name: "conv5"
  type: "Convolution"
  bottom: "conv4"
  top: "conv5"
  convolution_param {
    num_output: 192
    kernel_size: 3
    weight_filler {
      type: "xavier"
    }
  }
}
layer {
  name: "bn2"
  type: "BatchNorm"
  bottom: "conv5"
  top: "bn2"
}
layer {
  name: "relu5"
  type: "ReLU"
  bottom: "bn2"
  top: "bn2"
}
layer {
  name: "drop4"
  type: "Dropout"
  bottom: "bn2"
  top: "drop4"
  dropout_param {
    dropout_ratio: 0.5
  }
}
layer {
  name: "conv6"
  type: "Convolution"
  bottom: "drop4"
  top: "conv6"
  convolution_param {
    num_output: 192
    kernel_size: 3
    stride: 2
    weight_filler {
      type: "xavier"
    }
  }
}
layer {
  name: "relu6"
  type: "ReLU"
  bottom: "conv6"
  top: "conv6"
}
layer {
  name: "conv7"
  type: "Convolution"
  bottom: "conv6"
  top: "conv7"
  convolution_param {
    num_output: 192
    kernel_size: 3
    weight_filler {
      type: "xavier"
    }
  }
}
layer {
  name: "relu7"
  type: "ReLU"
  bottom: "conv7"
  top: "conv7"
}
layer {
  name: "conv8"
  type: "Convolution"
  bottom: "conv7"
  top: "conv8"
  convolution_param {
    num_output: 192
    kernel_size: 1
    weight_filler {
      type: "xavier"
    }
  }
}
layer {
  name: "relu8"
  type: "ReLU"
  bottom: "conv8"
  top: "conv8"
}
layer {
  name: "conv9"
  type: "Convolution"
  bottom: "conv8"
  top: "conv9"
  convolution_param {
    num_output: 10
    kernel_size: 1
    weight_filler {
      type: "xavier"
    }
  }
}
layer {
  name: "relu9"
  type: "ReLU"
  bottom: "conv9"
  top: "conv9"
}
layer {
  name: "pool"
  type: "Pooling"
  bottom: "conv9"
  top: "pool"
  pooling_param {
    pool: AVE
    global_pooling: true
  }
}
layer {
  name: "flatten"
  type: "Flatten"
  bottom: "pool"
  top: "flatten"
}
layer {
  name: "score"
  type: "InnerProduct"
  bottom: "flatten"
  top: "score"
  inner_product_param {
    num_output: 10
    weight_filler {
      type: "gaussian"
    }
  }
}
layer {
  name: "accuracy"
  type: "Accuracy"
  bottom: "score"
  bottom: "label"
  top: "accuracy"
}
layer {
  name: "loss"
  type: "SoftmaxWithLoss"
  bottom: "score"
  bottom: "label"
  top: "loss"
}
I1010 14:39:24.256270  5890 layer_factory.hpp:77] Creating layer data
I1010 14:39:24.256366  5890 net.cpp:100] Creating Layer data
I1010 14:39:24.256371  5890 net.cpp:408] data -> data
I1010 14:39:24.256377  5890 net.cpp:408] data -> label
I1010 14:39:24.256382  5890 data_transformer.cpp:25] Loading mean file from: mean.binaryproto
I1010 14:39:24.257112  5897 db_lmdb.cpp:35] Opened lmdb ../../../data/cifar-10/cifar10_test_lmdb
I1010 14:39:24.257225  5890 data_layer.cpp:41] output data size: 100,3,32,32
I1010 14:39:24.259263  5890 net.cpp:150] Setting up data
I1010 14:39:24.259284  5890 net.cpp:157] Top shape: 100 3 32 32 (307200)
I1010 14:39:24.259289  5890 net.cpp:157] Top shape: 100 (100)
I1010 14:39:24.259290  5890 net.cpp:165] Memory required for data: 1229200
I1010 14:39:24.259308  5890 layer_factory.hpp:77] Creating layer label_data_1_split
I1010 14:39:24.259328  5890 net.cpp:100] Creating Layer label_data_1_split
I1010 14:39:24.259331  5890 net.cpp:434] label_data_1_split <- label
I1010 14:39:24.259337  5890 net.cpp:408] label_data_1_split -> label_data_1_split_0
I1010 14:39:24.259346  5890 net.cpp:408] label_data_1_split -> label_data_1_split_1
I1010 14:39:24.259418  5890 net.cpp:150] Setting up label_data_1_split
I1010 14:39:24.259423  5890 net.cpp:157] Top shape: 100 (100)
I1010 14:39:24.259438  5890 net.cpp:157] Top shape: 100 (100)
I1010 14:39:24.259440  5890 net.cpp:165] Memory required for data: 1230000
I1010 14:39:24.259443  5890 layer_factory.hpp:77] Creating layer conv1
I1010 14:39:24.259449  5890 net.cpp:100] Creating Layer conv1
I1010 14:39:24.259452  5890 net.cpp:434] conv1 <- data
I1010 14:39:24.259471  5890 net.cpp:408] conv1 -> conv1
I1010 14:39:24.260664  5890 net.cpp:150] Setting up conv1
I1010 14:39:24.260690  5890 net.cpp:157] Top shape: 100 96 30 30 (8640000)
I1010 14:39:24.260692  5890 net.cpp:165] Memory required for data: 35790000
I1010 14:39:24.260715  5890 layer_factory.hpp:77] Creating layer relu1
I1010 14:39:24.260720  5890 net.cpp:100] Creating Layer relu1
I1010 14:39:24.260721  5890 net.cpp:434] relu1 <- conv1
I1010 14:39:24.260725  5890 net.cpp:395] relu1 -> conv1 (in-place)
I1010 14:39:24.260897  5890 net.cpp:150] Setting up relu1
I1010 14:39:24.260905  5890 net.cpp:157] Top shape: 100 96 30 30 (8640000)
I1010 14:39:24.260906  5890 net.cpp:165] Memory required for data: 70350000
I1010 14:39:24.260924  5890 layer_factory.hpp:77] Creating layer conv2
I1010 14:39:24.260937  5890 net.cpp:100] Creating Layer conv2
I1010 14:39:24.260954  5890 net.cpp:434] conv2 <- conv1
I1010 14:39:24.260958  5890 net.cpp:408] conv2 -> conv2
I1010 14:39:24.262372  5890 net.cpp:150] Setting up conv2
I1010 14:39:24.262383  5890 net.cpp:157] Top shape: 100 96 28 28 (7526400)
I1010 14:39:24.262399  5890 net.cpp:165] Memory required for data: 100455600
I1010 14:39:24.262409  5890 layer_factory.hpp:77] Creating layer bn1
I1010 14:39:24.262415  5890 net.cpp:100] Creating Layer bn1
I1010 14:39:24.262418  5890 net.cpp:434] bn1 <- conv2
I1010 14:39:24.262423  5890 net.cpp:408] bn1 -> bn1
I1010 14:39:24.262617  5890 net.cpp:150] Setting up bn1
I1010 14:39:24.262624  5890 net.cpp:157] Top shape: 100 96 28 28 (7526400)
I1010 14:39:24.262625  5890 net.cpp:165] Memory required for data: 130561200
I1010 14:39:24.262632  5890 layer_factory.hpp:77] Creating layer relu2
I1010 14:39:24.262637  5890 net.cpp:100] Creating Layer relu2
I1010 14:39:24.262641  5890 net.cpp:434] relu2 <- bn1
I1010 14:39:24.262645  5890 net.cpp:395] relu2 -> bn1 (in-place)
I1010 14:39:24.262917  5890 net.cpp:150] Setting up relu2
I1010 14:39:24.262924  5890 net.cpp:157] Top shape: 100 96 28 28 (7526400)
I1010 14:39:24.262928  5890 net.cpp:165] Memory required for data: 160666800
I1010 14:39:24.262930  5890 layer_factory.hpp:77] Creating layer drop1
I1010 14:39:24.262934  5890 net.cpp:100] Creating Layer drop1
I1010 14:39:24.262938  5890 net.cpp:434] drop1 <- bn1
I1010 14:39:24.262941  5890 net.cpp:408] drop1 -> drop1
I1010 14:39:24.262979  5890 net.cpp:150] Setting up drop1
I1010 14:39:24.262984  5890 net.cpp:157] Top shape: 100 96 28 28 (7526400)
I1010 14:39:24.262985  5890 net.cpp:165] Memory required for data: 190772400
I1010 14:39:24.262987  5890 layer_factory.hpp:77] Creating layer conv3
I1010 14:39:24.262995  5890 net.cpp:100] Creating Layer conv3
I1010 14:39:24.262997  5890 net.cpp:434] conv3 <- drop1
I1010 14:39:24.263000  5890 net.cpp:408] conv3 -> conv3
I1010 14:39:24.264155  5890 net.cpp:150] Setting up conv3
I1010 14:39:24.264164  5890 net.cpp:157] Top shape: 100 96 13 13 (1622400)
I1010 14:39:24.264166  5890 net.cpp:165] Memory required for data: 197262000
I1010 14:39:24.264173  5890 layer_factory.hpp:77] Creating layer relu3
I1010 14:39:24.264178  5890 net.cpp:100] Creating Layer relu3
I1010 14:39:24.264180  5890 net.cpp:434] relu3 <- conv3
I1010 14:39:24.264184  5890 net.cpp:395] relu3 -> conv3 (in-place)
I1010 14:39:24.264413  5890 net.cpp:150] Setting up relu3
I1010 14:39:24.264422  5890 net.cpp:157] Top shape: 100 96 13 13 (1622400)
I1010 14:39:24.264425  5890 net.cpp:165] Memory required for data: 203751600
I1010 14:39:24.264426  5890 layer_factory.hpp:77] Creating layer conv4
I1010 14:39:24.264432  5890 net.cpp:100] Creating Layer conv4
I1010 14:39:24.264436  5890 net.cpp:434] conv4 <- conv3
I1010 14:39:24.264438  5890 net.cpp:408] conv4 -> conv4
I1010 14:39:24.267118  5890 net.cpp:150] Setting up conv4
I1010 14:39:24.267133  5890 net.cpp:157] Top shape: 100 192 11 11 (2323200)
I1010 14:39:24.267135  5890 net.cpp:165] Memory required for data: 213044400
I1010 14:39:24.267141  5890 layer_factory.hpp:77] Creating layer relu4
I1010 14:39:24.267159  5890 net.cpp:100] Creating Layer relu4
I1010 14:39:24.267163  5890 net.cpp:434] relu4 <- conv4
I1010 14:39:24.267166  5890 net.cpp:395] relu4 -> conv4 (in-place)
I1010 14:39:24.267333  5890 net.cpp:150] Setting up relu4
I1010 14:39:24.267339  5890 net.cpp:157] Top shape: 100 192 11 11 (2323200)
I1010 14:39:24.267341  5890 net.cpp:165] Memory required for data: 222337200
I1010 14:39:24.267344  5890 layer_factory.hpp:77] Creating layer conv5
I1010 14:39:24.267351  5890 net.cpp:100] Creating Layer conv5
I1010 14:39:24.267366  5890 net.cpp:434] conv5 <- conv4
I1010 14:39:24.267371  5890 net.cpp:408] conv5 -> conv5
I1010 14:39:24.270148  5890 net.cpp:150] Setting up conv5
I1010 14:39:24.270161  5890 net.cpp:157] Top shape: 100 192 9 9 (1555200)
I1010 14:39:24.270164  5890 net.cpp:165] Memory required for data: 228558000
I1010 14:39:24.270169  5890 layer_factory.hpp:77] Creating layer bn2
I1010 14:39:24.270174  5890 net.cpp:100] Creating Layer bn2
I1010 14:39:24.270175  5890 net.cpp:434] bn2 <- conv5
I1010 14:39:24.270179  5890 net.cpp:408] bn2 -> bn2
I1010 14:39:24.270391  5890 net.cpp:150] Setting up bn2
I1010 14:39:24.270396  5890 net.cpp:157] Top shape: 100 192 9 9 (1555200)
I1010 14:39:24.270398  5890 net.cpp:165] Memory required for data: 234778800
I1010 14:39:24.270403  5890 layer_factory.hpp:77] Creating layer relu5
I1010 14:39:24.270408  5890 net.cpp:100] Creating Layer relu5
I1010 14:39:24.270411  5890 net.cpp:434] relu5 <- bn2
I1010 14:39:24.270412  5890 net.cpp:395] relu5 -> bn2 (in-place)
I1010 14:39:24.270714  5890 net.cpp:150] Setting up relu5
I1010 14:39:24.270722  5890 net.cpp:157] Top shape: 100 192 9 9 (1555200)
I1010 14:39:24.270725  5890 net.cpp:165] Memory required for data: 240999600
I1010 14:39:24.270726  5890 layer_factory.hpp:77] Creating layer drop4
I1010 14:39:24.270730  5890 net.cpp:100] Creating Layer drop4
I1010 14:39:24.270732  5890 net.cpp:434] drop4 <- bn2
I1010 14:39:24.270735  5890 net.cpp:408] drop4 -> drop4
I1010 14:39:24.270802  5890 net.cpp:150] Setting up drop4
I1010 14:39:24.270805  5890 net.cpp:157] Top shape: 100 192 9 9 (1555200)
I1010 14:39:24.270807  5890 net.cpp:165] Memory required for data: 247220400
I1010 14:39:24.270809  5890 layer_factory.hpp:77] Creating layer conv6
I1010 14:39:24.270833  5890 net.cpp:100] Creating Layer conv6
I1010 14:39:24.270834  5890 net.cpp:434] conv6 <- drop4
I1010 14:39:24.270838  5890 net.cpp:408] conv6 -> conv6
I1010 14:39:24.273391  5890 net.cpp:150] Setting up conv6
I1010 14:39:24.273401  5890 net.cpp:157] Top shape: 100 192 4 4 (307200)
I1010 14:39:24.273402  5890 net.cpp:165] Memory required for data: 248449200
I1010 14:39:24.273409  5890 layer_factory.hpp:77] Creating layer relu6
I1010 14:39:24.273414  5890 net.cpp:100] Creating Layer relu6
I1010 14:39:24.273417  5890 net.cpp:434] relu6 <- conv6
I1010 14:39:24.273421  5890 net.cpp:395] relu6 -> conv6 (in-place)
I1010 14:39:24.273680  5890 net.cpp:150] Setting up relu6
I1010 14:39:24.273689  5890 net.cpp:157] Top shape: 100 192 4 4 (307200)
I1010 14:39:24.273690  5890 net.cpp:165] Memory required for data: 249678000
I1010 14:39:24.273692  5890 layer_factory.hpp:77] Creating layer conv7
I1010 14:39:24.273699  5890 net.cpp:100] Creating Layer conv7
I1010 14:39:24.273700  5890 net.cpp:434] conv7 <- conv6
I1010 14:39:24.273705  5890 net.cpp:408] conv7 -> conv7
I1010 14:39:24.276278  5890 net.cpp:150] Setting up conv7
I1010 14:39:24.276289  5890 net.cpp:157] Top shape: 100 192 2 2 (76800)
I1010 14:39:24.276291  5890 net.cpp:165] Memory required for data: 249985200
I1010 14:39:24.276296  5890 layer_factory.hpp:77] Creating layer relu7
I1010 14:39:24.276300  5890 net.cpp:100] Creating Layer relu7
I1010 14:39:24.276302  5890 net.cpp:434] relu7 <- conv7
I1010 14:39:24.276305  5890 net.cpp:395] relu7 -> conv7 (in-place)
I1010 14:39:24.276494  5890 net.cpp:150] Setting up relu7
I1010 14:39:24.276501  5890 net.cpp:157] Top shape: 100 192 2 2 (76800)
I1010 14:39:24.276504  5890 net.cpp:165] Memory required for data: 250292400
I1010 14:39:24.276506  5890 layer_factory.hpp:77] Creating layer conv8
I1010 14:39:24.276513  5890 net.cpp:100] Creating Layer conv8
I1010 14:39:24.276530  5890 net.cpp:434] conv8 <- conv7
I1010 14:39:24.276533  5890 net.cpp:408] conv8 -> conv8
I1010 14:39:24.277537  5890 net.cpp:150] Setting up conv8
I1010 14:39:24.277547  5890 net.cpp:157] Top shape: 100 192 2 2 (76800)
I1010 14:39:24.277549  5890 net.cpp:165] Memory required for data: 250599600
I1010 14:39:24.277554  5890 layer_factory.hpp:77] Creating layer relu8
I1010 14:39:24.277557  5890 net.cpp:100] Creating Layer relu8
I1010 14:39:24.277559  5890 net.cpp:434] relu8 <- conv8
I1010 14:39:24.277562  5890 net.cpp:395] relu8 -> conv8 (in-place)
I1010 14:39:24.277822  5890 net.cpp:150] Setting up relu8
I1010 14:39:24.277829  5890 net.cpp:157] Top shape: 100 192 2 2 (76800)
I1010 14:39:24.277832  5890 net.cpp:165] Memory required for data: 250906800
I1010 14:39:24.277833  5890 layer_factory.hpp:77] Creating layer conv9
I1010 14:39:24.277839  5890 net.cpp:100] Creating Layer conv9
I1010 14:39:24.277842  5890 net.cpp:434] conv9 <- conv8
I1010 14:39:24.277845  5890 net.cpp:408] conv9 -> conv9
I1010 14:39:24.278605  5890 net.cpp:150] Setting up conv9
I1010 14:39:24.278615  5890 net.cpp:157] Top shape: 100 10 2 2 (4000)
I1010 14:39:24.278617  5890 net.cpp:165] Memory required for data: 250922800
I1010 14:39:24.278621  5890 layer_factory.hpp:77] Creating layer relu9
I1010 14:39:24.278625  5890 net.cpp:100] Creating Layer relu9
I1010 14:39:24.278627  5890 net.cpp:434] relu9 <- conv9
I1010 14:39:24.278640  5890 net.cpp:395] relu9 -> conv9 (in-place)
I1010 14:39:24.278899  5890 net.cpp:150] Setting up relu9
I1010 14:39:24.278908  5890 net.cpp:157] Top shape: 100 10 2 2 (4000)
I1010 14:39:24.278909  5890 net.cpp:165] Memory required for data: 250938800
I1010 14:39:24.278911  5890 layer_factory.hpp:77] Creating layer pool
I1010 14:39:24.278915  5890 net.cpp:100] Creating Layer pool
I1010 14:39:24.278918  5890 net.cpp:434] pool <- conv9
I1010 14:39:24.278921  5890 net.cpp:408] pool -> pool
I1010 14:39:24.279109  5890 net.cpp:150] Setting up pool
I1010 14:39:24.279115  5890 net.cpp:157] Top shape: 100 10 1 1 (1000)
I1010 14:39:24.279117  5890 net.cpp:165] Memory required for data: 250942800
I1010 14:39:24.279119  5890 layer_factory.hpp:77] Creating layer flatten
I1010 14:39:24.279124  5890 net.cpp:100] Creating Layer flatten
I1010 14:39:24.279125  5890 net.cpp:434] flatten <- pool
I1010 14:39:24.279129  5890 net.cpp:408] flatten -> flatten
I1010 14:39:24.279148  5890 net.cpp:150] Setting up flatten
I1010 14:39:24.279165  5890 net.cpp:157] Top shape: 100 10 (1000)
I1010 14:39:24.279167  5890 net.cpp:165] Memory required for data: 250946800
I1010 14:39:24.279170  5890 layer_factory.hpp:77] Creating layer score
I1010 14:39:24.279173  5890 net.cpp:100] Creating Layer score
I1010 14:39:24.279176  5890 net.cpp:434] score <- flatten
I1010 14:39:24.279181  5890 net.cpp:408] score -> score
I1010 14:39:24.279340  5890 net.cpp:150] Setting up score
I1010 14:39:24.279345  5890 net.cpp:157] Top shape: 100 10 (1000)
I1010 14:39:24.279346  5890 net.cpp:165] Memory required for data: 250950800
I1010 14:39:24.279350  5890 layer_factory.hpp:77] Creating layer score_score_0_split
I1010 14:39:24.279355  5890 net.cpp:100] Creating Layer score_score_0_split
I1010 14:39:24.279356  5890 net.cpp:434] score_score_0_split <- score
I1010 14:39:24.279359  5890 net.cpp:408] score_score_0_split -> score_score_0_split_0
I1010 14:39:24.279363  5890 net.cpp:408] score_score_0_split -> score_score_0_split_1
I1010 14:39:24.279422  5890 net.cpp:150] Setting up score_score_0_split
I1010 14:39:24.279427  5890 net.cpp:157] Top shape: 100 10 (1000)
I1010 14:39:24.279428  5890 net.cpp:157] Top shape: 100 10 (1000)
I1010 14:39:24.279430  5890 net.cpp:165] Memory required for data: 250958800
I1010 14:39:24.279433  5890 layer_factory.hpp:77] Creating layer accuracy
I1010 14:39:24.279435  5890 net.cpp:100] Creating Layer accuracy
I1010 14:39:24.279438  5890 net.cpp:434] accuracy <- score_score_0_split_0
I1010 14:39:24.279440  5890 net.cpp:434] accuracy <- label_data_1_split_0
I1010 14:39:24.279444  5890 net.cpp:408] accuracy -> accuracy
…
