…
  stage: ""
}
type: "RMSProp"
I1010 14:47:40.500759  6022 solver.cpp:81] Creating training net from train_net file: /home/adam/Honours/Honours-Project/cifar-10_allcnn/relu/allcnn_relu_train.prototxt
I1010 14:47:40.501109  6022 net.cpp:58] Initializing net from parameters: 
state {
  phase: TRAIN
  level: 0
  stage: ""
}
layer {
  name: "data"
  type: "Data"
  top: "data"
  top: "label"
  transform_param {
    mean_file: "mean.binaryproto"
  }
  data_param {
    source: "../../../data/cifar-10/cifar10_train_lmdb"
    batch_size: 64
    backend: LMDB
  }
}
layer {
  name: "conv1"
  type: "Convolution"
  bottom: "data"
  top: "conv1"
  convolution_param {
    num_output: 96
    kernel_size: 3
    weight_filler {
      type: "xavier"
    }
  }
}
layer {
  name: "relu1"
  type: "ReLU"
  bottom: "conv1"
  top: "conv1"
}
layer {
  name: "conv2"
  type: "Convolution"
  bottom: "conv1"
  top: "conv2"
  convolution_param {
    num_output: 96
    kernel_size: 3
    weight_filler {
      type: "xavier"
    }
  }
}
layer {
  name: "bn1"
  type: "BatchNorm"
  bottom: "conv2"
  top: "bn1"
}
layer {
  name: "relu2"
  type: "ReLU"
  bottom: "bn1"
  top: "bn1"
}
layer {
  name: "drop1"
  type: "Dropout"
  bottom: "bn1"
  top: "drop1"
  dropout_param {
    dropout_ratio: 0.5
  }
}
layer {
  name: "conv3"
  type: "Convolution"
  bottom: "drop1"
  top: "conv3"
  convolution_param {
    num_output: 96
    kernel_size: 3
    stride: 2
    weight_filler {
      type: "xavier"
    }
  }
}
layer {
  name: "relu3"
  type: "ReLU"
  bottom: "conv3"
  top: "conv3"
}
layer {
  name: "conv4"
  type: "Convolution"
  bottom: "conv3"
  top: "conv4"
  convolution_param {
    num_output: 192
    kernel_size: 3
    weight_filler {
      type: "xavier"
    }
  }
}
layer {
  name: "relu4"
  type: "ReLU"
  bottom: "conv4"
  top: "conv4"
}
layer {
  name: "conv5"
  type: "Convolution"
  bottom: "conv4"
  top: "conv5"
  convolution_param {
    num_output: 192
    kernel_size: 3
    weight_filler {
      type: "xavier"
    }
  }
}
layer {
  name: "bn2"
  type: "BatchNorm"
  bottom: "conv5"
  top: "bn2"
}
layer {
  name: "relu5"
  type: "ReLU"
  bottom: "bn2"
  top: "bn2"
}
layer {
  name: "drop4"
  type: "Dropout"
  bottom: "bn2"
  top: "drop4"
  dropout_param {
    dropout_ratio: 0.5
  }
}
layer {
  name: "conv6"
  type: "Convolution"
  bottom: "drop4"
  top: "conv6"
  convolution_param {
    num_output: 192
    kernel_size: 3
    stride: 2
    weight_filler {
      type: "xavier"
    }
  }
}
layer {
  name: "relu6"
  type: "ReLU"
  bottom: "conv6"
  top: "conv6"
}
layer {
  name: "conv7"
  type: "Convolution"
  bottom: "conv6"
  top: "conv7"
  convolution_param {
    num_output: 192
    kernel_size: 3
    weight_filler {
      type: "xavier"
    }
  }
}
layer {
  name: "relu7"
  type: "ReLU"
  bottom: "conv7"
  top: "conv7"
}
layer {
  name: "conv8"
  type: "Convolution"
  bottom: "conv7"
  top: "conv8"
  convolution_param {
    num_output: 192
    kernel_size: 1
    weight_filler {
      type: "xavier"
    }
  }
}
layer {
  name: "relu8"
  type: "ReLU"
  bottom: "conv8"
  top: "conv8"
}
layer {
  name: "conv9"
  type: "Convolution"
  bottom: "conv8"
  top: "conv9"
  convolution_param {
    num_output: 10
    kernel_size: 1
    weight_filler {
      type: "xavier"
    }
  }
}
layer {
  name: "relu9"
  type: "ReLU"
  bottom: "conv9"
  top: "conv9"
}
layer {
  name: "pool"
  type: "Pooling"
  bottom: "conv9"
  top: "pool"
  pooling_param {
    pool: AVE
    global_pooling: true
  }
}
layer {
  name: "flatten"
  type: "Flatten"
  bottom: "pool"
  top: "flatten"
}
layer {
  name: "score"
  type: "InnerProduct"
  bottom: "flatten"
  top: "score"
  inner_product_param {
    num_output: 10
    weight_filler {
      type: "gaussian"
    }
  }
}
layer {
  name: "accuracy"
  type: "Accuracy"
  bottom: "score"
  bottom: "label"
  top: "accuracy"
}
layer {
  name: "loss"
  type: "SoftmaxWithLoss"
  bottom: "score"
  bottom: "label"
  top: "loss"
}
I1010 14:47:40.501271  6022 layer_factory.hpp:77] Creating layer data
I1010 14:47:40.501802  6022 net.cpp:100] Creating Layer data
I1010 14:47:40.501818  6022 net.cpp:408] data -> data
I1010 14:47:40.501865  6022 net.cpp:408] data -> label
I1010 14:47:40.501879  6022 data_transformer.cpp:25] Loading mean file from: mean.binaryproto
I1010 14:47:40.504199  6027 db_lmdb.cpp:35] Opened lmdb ../../../data/cifar-10/cifar10_train_lmdb
I1010 14:47:40.509625  6022 data_layer.cpp:41] output data size: 64,3,32,32
I1010 14:47:40.511260  6022 net.cpp:150] Setting up data
I1010 14:47:40.511297  6022 net.cpp:157] Top shape: 64 3 32 32 (196608)
I1010 14:47:40.511301  6022 net.cpp:157] Top shape: 64 (64)
I1010 14:47:40.511303  6022 net.cpp:165] Memory required for data: 786688
I1010 14:47:40.511312  6022 layer_factory.hpp:77] Creating layer label_data_1_split
I1010 14:47:40.511320  6022 net.cpp:100] Creating Layer label_data_1_split
I1010 14:47:40.511325  6022 net.cpp:434] label_data_1_split <- label
I1010 14:47:40.511334  6022 net.cpp:408] label_data_1_split -> label_data_1_split_0
I1010 14:47:40.511343  6022 net.cpp:408] label_data_1_split -> label_data_1_split_1
I1010 14:47:40.511395  6022 net.cpp:150] Setting up label_data_1_split
I1010 14:47:40.511400  6022 net.cpp:157] Top shape: 64 (64)
I1010 14:47:40.511404  6022 net.cpp:157] Top shape: 64 (64)
I1010 14:47:40.511404  6022 net.cpp:165] Memory required for data: 787200
I1010 14:47:40.511407  6022 layer_factory.hpp:77] Creating layer conv1
I1010 14:47:40.511420  6022 net.cpp:100] Creating Layer conv1
I1010 14:47:40.511422  6022 net.cpp:434] conv1 <- data
I1010 14:47:40.511426  6022 net.cpp:408] conv1 -> conv1
I1010 14:47:40.648190  6022 net.cpp:150] Setting up conv1
I1010 14:47:40.648210  6022 net.cpp:157] Top shape: 64 96 30 30 (5529600)
I1010 14:47:40.648212  6022 net.cpp:165] Memory required for data: 22905600
I1010 14:47:40.648229  6022 layer_factory.hpp:77] Creating layer relu1
I1010 14:47:40.648236  6022 net.cpp:100] Creating Layer relu1
I1010 14:47:40.648239  6022 net.cpp:434] relu1 <- conv1
I1010 14:47:40.648243  6022 net.cpp:395] relu1 -> conv1 (in-place)
I1010 14:47:40.648430  6022 net.cpp:150] Setting up relu1
I1010 14:47:40.648437  6022 net.cpp:157] Top shape: 64 96 30 30 (5529600)
I1010 14:47:40.648439  6022 net.cpp:165] Memory required for data: 45024000
I1010 14:47:40.648442  6022 layer_factory.hpp:77] Creating layer conv2
I1010 14:47:40.648449  6022 net.cpp:100] Creating Layer conv2
I1010 14:47:40.648452  6022 net.cpp:434] conv2 <- conv1
I1010 14:47:40.648455  6022 net.cpp:408] conv2 -> conv2
I1010 14:47:40.649863  6022 net.cpp:150] Setting up conv2
I1010 14:47:40.649873  6022 net.cpp:157] Top shape: 64 96 28 28 (4816896)
I1010 14:47:40.649875  6022 net.cpp:165] Memory required for data: 64291584
I1010 14:47:40.649883  6022 layer_factory.hpp:77] Creating layer bn1
I1010 14:47:40.649886  6022 net.cpp:100] Creating Layer bn1
I1010 14:47:40.649888  6022 net.cpp:434] bn1 <- conv2
I1010 14:47:40.649891  6022 net.cpp:408] bn1 -> bn1
I1010 14:47:40.650074  6022 net.cpp:150] Setting up bn1
I1010 14:47:40.650079  6022 net.cpp:157] Top shape: 64 96 28 28 (4816896)
I1010 14:47:40.650081  6022 net.cpp:165] Memory required for data: 83559168
I1010 14:47:40.650089  6022 layer_factory.hpp:77] Creating layer relu2
I1010 14:47:40.650091  6022 net.cpp:100] Creating Layer relu2
I1010 14:47:40.650094  6022 net.cpp:434] relu2 <- bn1
I1010 14:47:40.650096  6022 net.cpp:395] relu2 -> bn1 (in-place)
I1010 14:47:40.650261  6022 net.cpp:150] Setting up relu2
I1010 14:47:40.650267  6022 net.cpp:157] Top shape: 64 96 28 28 (4816896)
I1010 14:47:40.650269  6022 net.cpp:165] Memory required for data: 102826752
I1010 14:47:40.650281  6022 layer_factory.hpp:77] Creating layer drop1
I1010 14:47:40.650285  6022 net.cpp:100] Creating Layer drop1
I1010 14:47:40.650288  6022 net.cpp:434] drop1 <- bn1
I1010 14:47:40.650291  6022 net.cpp:408] drop1 -> drop1
I1010 14:47:40.650347  6022 net.cpp:150] Setting up drop1
I1010 14:47:40.650367  6022 net.cpp:157] Top shape: 64 96 28 28 (4816896)
I1010 14:47:40.650368  6022 net.cpp:165] Memory required for data: 122094336
I1010 14:47:40.650370  6022 layer_factory.hpp:77] Creating layer conv3
I1010 14:47:40.650389  6022 net.cpp:100] Creating Layer conv3
I1010 14:47:40.650391  6022 net.cpp:434] conv3 <- drop1
I1010 14:47:40.650408  6022 net.cpp:408] conv3 -> conv3
I1010 14:47:40.651563  6022 net.cpp:150] Setting up conv3
I1010 14:47:40.651572  6022 net.cpp:157] Top shape: 64 96 13 13 (1038336)
I1010 14:47:40.651574  6022 net.cpp:165] Memory required for data: 126247680
I1010 14:47:40.651582  6022 layer_factory.hpp:77] Creating layer relu3
I1010 14:47:40.651584  6022 net.cpp:100] Creating Layer relu3
I1010 14:47:40.651587  6022 net.cpp:434] relu3 <- conv3
I1010 14:47:40.651590  6022 net.cpp:395] relu3 -> conv3 (in-place)
I1010 14:47:40.651831  6022 net.cpp:150] Setting up relu3
I1010 14:47:40.651839  6022 net.cpp:157] Top shape: 64 96 13 13 (1038336)
I1010 14:47:40.651841  6022 net.cpp:165] Memory required for data: 130401024
I1010 14:47:40.651844  6022 layer_factory.hpp:77] Creating layer conv4
I1010 14:47:40.651849  6022 net.cpp:100] Creating Layer conv4
I1010 14:47:40.651850  6022 net.cpp:434] conv4 <- conv3
I1010 14:47:40.651854  6022 net.cpp:408] conv4 -> conv4
I1010 14:47:40.653725  6022 net.cpp:150] Setting up conv4
I1010 14:47:40.653735  6022 net.cpp:157] Top shape: 64 192 11 11 (1486848)
I1010 14:47:40.653738  6022 net.cpp:165] Memory required for data: 136348416
I1010 14:47:40.653743  6022 layer_factory.hpp:77] Creating layer relu4
I1010 14:47:40.653746  6022 net.cpp:100] Creating Layer relu4
I1010 14:47:40.653748  6022 net.cpp:434] relu4 <- conv4
I1010 14:47:40.653751  6022 net.cpp:395] relu4 -> conv4 (in-place)
I1010 14:47:40.653914  6022 net.cpp:150] Setting up relu4
I1010 14:47:40.653920  6022 net.cpp:157] Top shape: 64 192 11 11 (1486848)
I1010 14:47:40.653923  6022 net.cpp:165] Memory required for data: 142295808
I1010 14:47:40.653924  6022 layer_factory.hpp:77] Creating layer conv5
I1010 14:47:40.653929  6022 net.cpp:100] Creating Layer conv5
I1010 14:47:40.653931  6022 net.cpp:434] conv5 <- conv4
I1010 14:47:40.653934  6022 net.cpp:408] conv5 -> conv5
I1010 14:47:40.656404  6022 net.cpp:150] Setting up conv5
I1010 14:47:40.656414  6022 net.cpp:157] Top shape: 64 192 9 9 (995328)
I1010 14:47:40.656416  6022 net.cpp:165] Memory required for data: 146277120
I1010 14:47:40.656420  6022 layer_factory.hpp:77] Creating layer bn2
I1010 14:47:40.656425  6022 net.cpp:100] Creating Layer bn2
I1010 14:47:40.656427  6022 net.cpp:434] bn2 <- conv5
I1010 14:47:40.656430  6022 net.cpp:408] bn2 -> bn2
I1010 14:47:40.656617  6022 net.cpp:150] Setting up bn2
I1010 14:47:40.656622  6022 net.cpp:157] Top shape: 64 192 9 9 (995328)
I1010 14:47:40.656625  6022 net.cpp:165] Memory required for data: 150258432
I1010 14:47:40.656630  6022 layer_factory.hpp:77] Creating layer relu5
I1010 14:47:40.656632  6022 net.cpp:100] Creating Layer relu5
I1010 14:47:40.656635  6022 net.cpp:434] relu5 <- bn2
I1010 14:47:40.656637  6022 net.cpp:395] relu5 -> bn2 (in-place)
I1010 14:47:40.656805  6022 net.cpp:150] Setting up relu5
I1010 14:47:40.656811  6022 net.cpp:157] Top shape: 64 192 9 9 (995328)
I1010 14:47:40.656826  6022 net.cpp:165] Memory required for data: 154239744
I1010 14:47:40.656828  6022 layer_factory.hpp:77] Creating layer drop4
I1010 14:47:40.656831  6022 net.cpp:100] Creating Layer drop4
I1010 14:47:40.656834  6022 net.cpp:434] drop4 <- bn2
I1010 14:47:40.656837  6022 net.cpp:408] drop4 -> drop4
I1010 14:47:40.656879  6022 net.cpp:150] Setting up drop4
I1010 14:47:40.656884  6022 net.cpp:157] Top shape: 64 192 9 9 (995328)
I1010 14:47:40.656886  6022 net.cpp:165] Memory required for data: 158221056
I1010 14:47:40.656898  6022 layer_factory.hpp:77] Creating layer conv6
I1010 14:47:40.656905  6022 net.cpp:100] Creating Layer conv6
I1010 14:47:40.656909  6022 net.cpp:434] conv6 <- drop4
I1010 14:47:40.656913  6022 net.cpp:408] conv6 -> conv6
I1010 14:47:40.659422  6022 net.cpp:150] Setting up conv6
I1010 14:47:40.659448  6022 net.cpp:157] Top shape: 64 192 4 4 (196608)
I1010 14:47:40.659451  6022 net.cpp:165] Memory required for data: 159007488
I1010 14:47:40.659459  6022 layer_factory.hpp:77] Creating layer relu6
I1010 14:47:40.659464  6022 net.cpp:100] Creating Layer relu6
I1010 14:47:40.659487  6022 net.cpp:434] relu6 <- conv6
I1010 14:47:40.659492  6022 net.cpp:395] relu6 -> conv6 (in-place)
I1010 14:47:40.659713  6022 net.cpp:150] Setting up relu6
I1010 14:47:40.659721  6022 net.cpp:157] Top shape: 64 192 4 4 (196608)
I1010 14:47:40.659737  6022 net.cpp:165] Memory required for data: 159793920
I1010 14:47:40.659740  6022 layer_factory.hpp:77] Creating layer conv7
I1010 14:47:40.659746  6022 net.cpp:100] Creating Layer conv7
I1010 14:47:40.659749  6022 net.cpp:434] conv7 <- conv6
I1010 14:47:40.659752  6022 net.cpp:408] conv7 -> conv7
I1010 14:47:40.662448  6022 net.cpp:150] Setting up conv7
I1010 14:47:40.662477  6022 net.cpp:157] Top shape: 64 192 2 2 (49152)
I1010 14:47:40.662479  6022 net.cpp:165] Memory required for data: 159990528
I1010 14:47:40.662485  6022 layer_factory.hpp:77] Creating layer relu7
I1010 14:47:40.662490  6022 net.cpp:100] Creating Layer relu7
I1010 14:47:40.662493  6022 net.cpp:434] relu7 <- conv7
I1010 14:47:40.662497  6022 net.cpp:395] relu7 -> conv7 (in-place)
I1010 14:47:40.662753  6022 net.cpp:150] Setting up relu7
I1010 14:47:40.662775  6022 net.cpp:157] Top shape: 64 192 2 2 (49152)
I1010 14:47:40.662778  6022 net.cpp:165] Memory required for data: 160187136
I1010 14:47:40.662781  6022 layer_factory.hpp:77] Creating layer conv8
I1010 14:47:40.662787  6022 net.cpp:100] Creating Layer conv8
I1010 14:47:40.662789  6022 net.cpp:434] conv8 <- conv7
I1010 14:47:40.662793  6022 net.cpp:408] conv8 -> conv8
I1010 14:47:40.664055  6022 net.cpp:150] Setting up conv8
I1010 14:47:40.664064  6022 net.cpp:157] Top shape: 64 192 2 2 (49152)
I1010 14:47:40.664067  6022 net.cpp:165] Memory required for data: 160383744
I1010 14:47:40.664072  6022 layer_factory.hpp:77] Creating layer relu8
I1010 14:47:40.664075  6022 net.cpp:100] Creating Layer relu8
I1010 14:47:40.664077  6022 net.cpp:434] relu8 <- conv8
I1010 14:47:40.664080  6022 net.cpp:395] relu8 -> conv8 (in-place)
I1010 14:47:40.664233  6022 net.cpp:150] Setting up relu8
I1010 14:47:40.664239  6022 net.cpp:157] Top shape: 64 192 2 2 (49152)
I1010 14:47:40.664242  6022 net.cpp:165] Memory required for data: 160580352
I1010 14:47:40.664243  6022 layer_factory.hpp:77] Creating layer conv9
I1010 14:47:40.664248  6022 net.cpp:100] Creating Layer conv9
I1010 14:47:40.664250  6022 net.cpp:434] conv9 <- conv8
I1010 14:47:40.664253  6022 net.cpp:408] conv9 -> conv9
I1010 14:47:40.664988  6022 net.cpp:150] Setting up conv9
I1010 14:47:40.664995  6022 net.cpp:157] Top shape: 64 10 2 2 (2560)
I1010 14:47:40.664999  6022 net.cpp:165] Memory required for data: 160590592
I1010 14:47:40.665002  6022 layer_factory.hpp:77] Creating layer relu9
I1010 14:47:40.665005  6022 net.cpp:100] Creating Layer relu9
I1010 14:47:40.665007  6022 net.cpp:434] relu9 <- conv9
I1010 14:47:40.665010  6022 net.cpp:395] relu9 -> conv9 (in-place)
I1010 14:47:40.665233  6022 net.cpp:150] Setting up relu9
I1010 14:47:40.665241  6022 net.cpp:157] Top shape: 64 10 2 2 (2560)
I1010 14:47:40.665242  6022 net.cpp:165] Memory required for data: 160600832
I1010 14:47:40.665244  6022 layer_factory.hpp:77] Creating layer pool
I1010 14:47:40.665249  6022 net.cpp:100] Creating Layer pool
I1010 14:47:40.665251  6022 net.cpp:434] pool <- conv9
I1010 14:47:40.665254  6022 net.cpp:408] pool -> pool
I1010 14:47:40.665418  6022 net.cpp:150] Setting up pool
I1010 14:47:40.665424  6022 net.cpp:157] Top shape: 64 10 1 1 (640)
I1010 14:47:40.665426  6022 net.cpp:165] Memory required for data: 160603392
I1010 14:47:40.665438  6022 layer_factory.hpp:77] Creating layer flatten
I1010 14:47:40.665442  6022 net.cpp:100] Creating Layer flatten
I1010 14:47:40.665446  6022 net.cpp:434] flatten <- pool
I1010 14:47:40.665448  6022 net.cpp:408] flatten -> flatten
I1010 14:47:40.665482  6022 net.cpp:150] Setting up flatten
I1010 14:47:40.665485  6022 net.cpp:157] Top shape: 64 10 (640)
I1010 14:47:40.665488  6022 net.cpp:165] Memory required for data: 160605952
I1010 14:47:40.665489  6022 layer_factory.hpp:77] Creating layer score
I1010 14:47:40.665493  6022 net.cpp:100] Creating Layer score
I1010 14:47:40.665509  6022 net.cpp:434] score <- flatten
I1010 14:47:40.665513  6022 net.cpp:408] score -> score
I1010 14:47:40.665654  6022 net.cpp:150] Setting up score
I1010 14:47:40.665658  6022 net.cpp:157] Top shape: 64 10 (640)
I1010 14:47:40.665660  6022 net.cpp:165] Memory required for data: 160608512
I1010 14:47:40.665664  6022 layer_factory.hpp:77] Creating layer score_score_0_split
I1010 14:47:40.665668  6022 net.cpp:100] Creating Layer score_score_0_split
I1010 14:47:40.665669  6022 net.cpp:434] score_score_0_split <- score
I1010 14:47:40.665673  6022 net.cpp:408] score_score_0_split -> score_score_0_split_0
I1010 14:47:40.665676  6022 net.cpp:408] score_score_0_split -> score_score_0_split_1
I1010 14:47:40.665714  6022 net.cpp:150] Setting up score_score_0_split
I1010 14:47:40.665719  6022 net.cpp:157] Top shape: 64 10 (640)
I1010 14:47:40.665721  6022 net.cpp:157] Top shape: 64 10 (640)
I1010 14:47:40.665724  6022 net.cpp:165] Memory required for data: 160613632
I1010 14:47:40.665725  6022 layer_factory.hpp:77] Creating layer accuracy
I1010 14:47:40.665729  6022 net.cpp:100] Creating Layer accuracy
I1010 14:47:40.665745  6022 net.cpp:434] accuracy <- score_score_0_split_0
I1010 14:47:40.665747  6022 net.cpp:434] accuracy <- label_data_1_split_0
I1010 14:47:40.665751  6022 net.cpp:408] accuracy -> accuracy
…
I1010 14:47:40.666301  6022 net.cpp:283] Network initialization done.
I1010 14:47:40.666522  6022 solver.cpp:181] Creating test net (#0) specified by test_net file: /home/adam/Honours/Honours-Project/cifar-10_allcnn/relu/allcnn_relu_test.prototxt
I1010 14:47:40.666694  6022 net.cpp:58] Initializing net from parameters: 
state {
  phase: TEST
}
layer {
  name: "data"
  type: "Data"
  top: "data"
  top: "label"
  transform_param {
    mean_file: "mean.binaryproto"
  }
  data_param {
    source: "../../../data/cifar-10/cifar10_test_lmdb"
    batch_size: 100
    backend: LMDB
  }
}
layer {
  name: "conv1"
  type: "Convolution"
  bottom: "data"
  top: "conv1"
  convolution_param {
    num_output: 96
    kernel_size: 3
    weight_filler {
      type: "xavier"
    }
  }
}
layer {
  name: "relu1"
  type: "ReLU"
  bottom: "conv1"
  top: "conv1"
}
layer {
  name: "conv2"
  type: "Convolution"
  bottom: "conv1"
  top: "conv2"
  convolution_param {
    num_output: 96
    kernel_size: 3
    weight_filler {
      type: "xavier"
    }
  }
}
layer {
  name: "bn1"
  type: "BatchNorm"
  bottom: "conv2"
  top: "bn1"
}
layer {
  name: "relu2"
  type: "ReLU"
  bottom: "bn1"
  top: "bn1"
}
layer {
  name: "drop1"
  type: "Dropout"
  bottom: "bn1"
  top: "drop1"
  dropout_param {
    dropout_ratio: 0.5
  }
}
layer {
  name: "conv3"
  type: "Convolution"
  bottom: "drop1"
  top: "conv3"
  convolution_param {
    num_output: 96
    kernel_size: 3
    stride: 2
    weight_filler {
      type: "xavier"
    }
  }
}
layer {
  name: "relu3"
  type: "ReLU"
  bottom: "conv3"
  top: "conv3"
}
layer {
  name: "conv4"
  type: "Convolution"
  bottom: "conv3"
  top: "conv4"
  convolution_param {
    num_output: 192
    kernel_size: 3
    weight_filler {
      type: "xavier"
    }
  }
}
layer {
  name: "relu4"
  type: "ReLU"
  bottom: "conv4"
  top: "conv4"
}
layer {
  name: "conv5"
  type: "Convolution"
  bottom: "conv4"
  top: "conv5"
  convolution_param {
    num_output: 192
    kernel_size: 3
    weight_filler {
      type: "xavier"
    }
  }
}
layer {
  name: "bn2"
  type: "BatchNorm"
  bottom: "conv5"
  top: "bn2"
}
layer {
  name: "relu5"
  type: "ReLU"
  bottom: "bn2"
  top: "bn2"
}
layer {
  name: "drop4"
  type: "Dropout"
  bottom: "bn2"
  top: "drop4"
  dropout_param {
    dropout_ratio: 0.5
  }
}
layer {
  name: "conv6"
  type: "Convolution"
  bottom: "drop4"
  top: "conv6"
  convolution_param {
    num_output: 192
    kernel_size: 3
    stride: 2
    weight_filler {
      type: "xavier"
    }
  }
}
layer {
  name: "relu6"
  type: "ReLU"
  bottom: "conv6"
  top: "conv6"
}
layer {
  name: "conv7"
  type: "Convolution"
  bottom: "conv6"
  top: "conv7"
  convolution_param {
    num_output: 192
    kernel_size: 3
    weight_filler {
      type: "xavier"
    }
  }
}
layer {
  name: "relu7"
  type: "ReLU"
  bottom: "conv7"
  top: "conv7"
}
layer {
  name: "conv8"
  type: "Convolution"
  bottom: "conv7"
  top: "conv8"
  convolution_param {
    num_output: 192
    kernel_size: 1
    weight_filler {
      type: "xavier"
    }
  }
}
layer {
  name: "relu8"
  type: "ReLU"
  bottom: "conv8"
  top: "conv8"
}
layer {
  name: "conv9"
  type: "Convolution"
  bottom: "conv8"
  top: "conv9"
  convolution_param {
    num_output: 10
    kernel_size: 1
    weight_filler {
      type: "xavier"
    }
  }
}
layer {
  name: "relu9"
  type: "ReLU"
  bottom: "conv9"
  top: "conv9"
}
layer {
  name: "pool"
  type: "Pooling"
  bottom: "conv9"
  top: "pool"
  pooling_param {
    pool: AVE
    global_pooling: true
  }
}
layer {
  name: "flatten"
  type: "Flatten"
  bottom: "pool"
  top: "flatten"
}
layer {
  name: "score"
  type: "InnerProduct"
  bottom: "flatten"
  top: "score"
  inner_product_param {
    num_output: 10
    weight_filler {
      type: "gaussian"
    }
  }
}
layer {
  name: "accuracy"
  type: "Accuracy"
  bottom: "score"
  bottom: "label"
  top: "accuracy"
}
layer {
  name: "loss"
  type: "SoftmaxWithLoss"
  bottom: "score"
  bottom: "label"
  top: "loss"
}
I1010 14:47:40.666807  6022 layer_factory.hpp:77] Creating layer data
I1010 14:47:40.666887  6022 net.cpp:100] Creating Layer data
I1010 14:47:40.666892  6022 net.cpp:408] data -> data
I1010 14:47:40.666896  6022 net.cpp:408] data -> label
I1010 14:47:40.666903  6022 data_transformer.cpp:25] Loading mean file from: mean.binaryproto
I1010 14:47:40.667608  6029 db_lmdb.cpp:35] Opened lmdb ../../../data/cifar-10/cifar10_test_lmdb
I1010 14:47:40.667727  6022 data_layer.cpp:41] output data size: 100,3,32,32
I1010 14:47:40.669736  6022 net.cpp:150] Setting up data
I1010 14:47:40.669770  6022 net.cpp:157] Top shape: 100 3 32 32 (307200)
I1010 14:47:40.669788  6022 net.cpp:157] Top shape: 100 (100)
I1010 14:47:40.669790  6022 net.cpp:165] Memory required for data: 1229200
I1010 14:47:40.669795  6022 layer_factory.hpp:77] Creating layer label_data_1_split
I1010 14:47:40.669817  6022 net.cpp:100] Creating Layer label_data_1_split
I1010 14:47:40.669821  6022 net.cpp:434] label_data_1_split <- label
I1010 14:47:40.669824  6022 net.cpp:408] label_data_1_split -> label_data_1_split_0
I1010 14:47:40.669832  6022 net.cpp:408] label_data_1_split -> label_data_1_split_1
I1010 14:47:40.669903  6022 net.cpp:150] Setting up label_data_1_split
I1010 14:47:40.669922  6022 net.cpp:157] Top shape: 100 (100)
I1010 14:47:40.669929  6022 net.cpp:157] Top shape: 100 (100)
I1010 14:47:40.669944  6022 net.cpp:165] Memory required for data: 1230000
I1010 14:47:40.669948  6022 layer_factory.hpp:77] Creating layer conv1
I1010 14:47:40.669957  6022 net.cpp:100] Creating Layer conv1
I1010 14:47:40.669960  6022 net.cpp:434] conv1 <- data
I1010 14:47:40.669965  6022 net.cpp:408] conv1 -> conv1
I1010 14:47:40.671100  6022 net.cpp:150] Setting up conv1
I1010 14:47:40.671124  6022 net.cpp:157] Top shape: 100 96 30 30 (8640000)
I1010 14:47:40.671126  6022 net.cpp:165] Memory required for data: 35790000
I1010 14:47:40.671135  6022 layer_factory.hpp:77] Creating layer relu1
I1010 14:47:40.671139  6022 net.cpp:100] Creating Layer relu1
I1010 14:47:40.671144  6022 net.cpp:434] relu1 <- conv1
I1010 14:47:40.671161  6022 net.cpp:395] relu1 -> conv1 (in-place)
I1010 14:47:40.671483  6022 net.cpp:150] Setting up relu1
I1010 14:47:40.671494  6022 net.cpp:157] Top shape: 100 96 30 30 (8640000)
I1010 14:47:40.671497  6022 net.cpp:165] Memory required for data: 70350000
I1010 14:47:40.671500  6022 layer_factory.hpp:77] Creating layer conv2
I1010 14:47:40.671520  6022 net.cpp:100] Creating Layer conv2
I1010 14:47:40.671522  6022 net.cpp:434] conv2 <- conv1
I1010 14:47:40.671530  6022 net.cpp:408] conv2 -> conv2
I1010 14:47:40.672837  6022 net.cpp:150] Setting up conv2
I1010 14:47:40.672847  6022 net.cpp:157] Top shape: 100 96 28 28 (7526400)
I1010 14:47:40.672852  6022 net.cpp:165] Memory required for data: 100455600
I1010 14:47:40.672859  6022 layer_factory.hpp:77] Creating layer bn1
I1010 14:47:40.672864  6022 net.cpp:100] Creating Layer bn1
I1010 14:47:40.672866  6022 net.cpp:434] bn1 <- conv2
I1010 14:47:40.672870  6022 net.cpp:408] bn1 -> bn1
I1010 14:47:40.673056  6022 net.cpp:150] Setting up bn1
I1010 14:47:40.673063  6022 net.cpp:157] Top shape: 100 96 28 28 (7526400)
I1010 14:47:40.673064  6022 net.cpp:165] Memory required for data: 130561200
I1010 14:47:40.673071  6022 layer_factory.hpp:77] Creating layer relu2
I1010 14:47:40.673075  6022 net.cpp:100] Creating Layer relu2
I1010 14:47:40.673077  6022 net.cpp:434] relu2 <- bn1
I1010 14:47:40.673082  6022 net.cpp:395] relu2 -> bn1 (in-place)
I1010 14:47:40.673302  6022 net.cpp:150] Setting up relu2
I1010 14:47:40.673313  6022 net.cpp:157] Top shape: 100 96 28 28 (7526400)
I1010 14:47:40.673316  6022 net.cpp:165] Memory required for data: 160666800
I1010 14:47:40.673318  6022 layer_factory.hpp:77] Creating layer drop1
I1010 14:47:40.673323  6022 net.cpp:100] Creating Layer drop1
I1010 14:47:40.673327  6022 net.cpp:434] drop1 <- bn1
I1010 14:47:40.673331  6022 net.cpp:408] drop1 -> drop1
I1010 14:47:40.673365  6022 net.cpp:150] Setting up drop1
I1010 14:47:40.673370  6022 net.cpp:157] Top shape: 100 96 28 28 (7526400)
I1010 14:47:40.673372  6022 net.cpp:165] Memory required for data: 190772400
I1010 14:47:40.673375  6022 layer_factory.hpp:77] Creating layer conv3
I1010 14:47:40.673382  6022 net.cpp:100] Creating Layer conv3
I1010 14:47:40.673384  6022 net.cpp:434] conv3 <- drop1
I1010 14:47:40.673388  6022 net.cpp:408] conv3 -> conv3
I1010 14:47:40.674444  6022 net.cpp:150] Setting up conv3
I1010 14:47:40.674454  6022 net.cpp:157] Top shape: 100 96 13 13 (1622400)
I1010 14:47:40.674456  6022 net.cpp:165] Memory required for data: 197262000
I1010 14:47:40.674463  6022 layer_factory.hpp:77] Creating layer relu3
I1010 14:47:40.674469  6022 net.cpp:100] Creating Layer relu3
I1010 14:47:40.674471  6022 net.cpp:434] relu3 <- conv3
I1010 14:47:40.674474  6022 net.cpp:395] relu3 -> conv3 (in-place)
I1010 14:47:40.674685  6022 net.cpp:150] Setting up relu3
I1010 14:47:40.674695  6022 net.cpp:157] Top shape: 100 96 13 13 (1622400)
I1010 14:47:40.674697  6022 net.cpp:165] Memory required for data: 203751600
I1010 14:47:40.674700  6022 layer_factory.hpp:77] Creating layer conv4
I1010 14:47:40.674705  6022 net.cpp:100] Creating Layer conv4
I1010 14:47:40.674708  6022 net.cpp:434] conv4 <- conv3
I1010 14:47:40.674712  6022 net.cpp:408] conv4 -> conv4
I1010 14:47:40.676533  6022 net.cpp:150] Setting up conv4
I1010 14:47:40.676543  6022 net.cpp:157] Top shape: 100 192 11 11 (2323200)
I1010 14:47:40.676545  6022 net.cpp:165] Memory required for data: 213044400
I1010 14:47:40.676550  6022 layer_factory.hpp:77] Creating layer relu4
I1010 14:47:40.676554  6022 net.cpp:100] Creating Layer relu4
I1010 14:47:40.676556  6022 net.cpp:434] relu4 <- conv4
I1010 14:47:40.676559  6022 net.cpp:395] relu4 -> conv4 (in-place)
I1010 14:47:40.676692  6022 net.cpp:150] Setting up relu4
I1010 14:47:40.676699  6022 net.cpp:157] Top shape: 100 192 11 11 (2323200)
I1010 14:47:40.676702  6022 net.cpp:165] Memory required for data: 222337200
I1010 14:47:40.676703  6022 layer_factory.hpp:77] Creating layer conv5
I1010 14:47:40.676709  6022 net.cpp:100] Creating Layer conv5
I1010 14:47:40.676712  6022 net.cpp:434] conv5 <- conv4
I1010 14:47:40.676715  6022 net.cpp:408] conv5 -> conv5
I1010 14:47:40.679718  6022 net.cpp:150] Setting up conv5
I1010 14:47:40.679746  6022 net.cpp:157] Top shape: 100 192 9 9 (1555200)
I1010 14:47:40.679749  6022 net.cpp:165] Memory required for data: 228558000
I1010 14:47:40.679754  6022 layer_factory.hpp:77] Creating layer bn2
I1010 14:47:40.679760  6022 net.cpp:100] Creating Layer bn2
I1010 14:47:40.679764  6022 net.cpp:434] bn2 <- conv5
I1010 14:47:40.679767  6022 net.cpp:408] bn2 -> bn2
I1010 14:47:40.679980  6022 net.cpp:150] Setting up bn2
I1010 14:47:40.679985  6022 net.cpp:157] Top shape: 100 192 9 9 (1555200)
I1010 14:47:40.679986  6022 net.cpp:165] Memory required for data: 234778800
I1010 14:47:40.679991  6022 layer_factory.hpp:77] Creating layer relu5
I1010 14:47:40.679994  6022 net.cpp:100] Creating Layer relu5
I1010 14:47:40.679996  6022 net.cpp:434] relu5 <- bn2
I1010 14:47:40.679999  6022 net.cpp:395] relu5 -> bn2 (in-place)
I1010 14:47:40.680266  6022 net.cpp:150] Setting up relu5
I1010 14:47:40.680274  6022 net.cpp:157] Top shape: 100 192 9 9 (1555200)
I1010 14:47:40.680277  6022 net.cpp:165] Memory required for data: 240999600
I1010 14:47:40.680279  6022 layer_factory.hpp:77] Creating layer drop4
I1010 14:47:40.680284  6022 net.cpp:100] Creating Layer drop4
I1010 14:47:40.680285  6022 net.cpp:434] drop4 <- bn2
I1010 14:47:40.680289  6022 net.cpp:408] drop4 -> drop4
I1010 14:47:40.680335  6022 net.cpp:150] Setting up drop4
I1010 14:47:40.680358  6022 net.cpp:157] Top shape: 100 192 9 9 (1555200)
I1010 14:47:40.680359  6022 net.cpp:165] Memory required for data: 247220400
I1010 14:47:40.680361  6022 layer_factory.hpp:77] Creating layer conv6
I1010 14:47:40.680382  6022 net.cpp:100] Creating Layer conv6
I1010 14:47:40.680402  6022 net.cpp:434] conv6 <- drop4
I1010 14:47:40.680405  6022 net.cpp:408] conv6 -> conv6
I1010 14:47:40.682876  6022 net.cpp:150] Setting up conv6
I1010 14:47:40.682886  6022 net.cpp:157] Top shape: 100 192 4 4 (307200)
I1010 14:47:40.682888  6022 net.cpp:165] Memory required for data: 248449200
I1010 14:47:40.682896  6022 layer_factory.hpp:77] Creating layer relu6
I1010 14:47:40.682900  6022 net.cpp:100] Creating Layer relu6
I1010 14:47:40.682903  6022 net.cpp:434] relu6 <- conv6
I1010 14:47:40.682905  6022 net.cpp:395] relu6 -> conv6 (in-place)
I1010 14:47:40.683135  6022 net.cpp:150] Setting up relu6
I1010 14:47:40.683143  6022 net.cpp:157] Top shape: 100 192 4 4 (307200)
I1010 14:47:40.683145  6022 net.cpp:165] Memory required for data: 249678000
I1010 14:47:40.683147  6022 layer_factory.hpp:77] Creating layer conv7
I1010 14:47:40.683153  6022 net.cpp:100] Creating Layer conv7
I1010 14:47:40.683156  6022 net.cpp:434] conv7 <- conv6
I1010 14:47:40.683158  6022 net.cpp:408] conv7 -> conv7
I1010 14:47:40.685744  6022 net.cpp:150] Setting up conv7
I1010 14:47:40.685770  6022 net.cpp:157] Top shape: 100 192 2 2 (76800)
I1010 14:47:40.685772  6022 net.cpp:165] Memory required for data: 249985200
I1010 14:47:40.685777  6022 layer_factory.hpp:77] Creating layer relu7
I1010 14:47:40.685782  6022 net.cpp:100] Creating Layer relu7
I1010 14:47:40.685784  6022 net.cpp:434] relu7 <- conv7
I1010 14:47:40.685787  6022 net.cpp:395] relu7 -> conv7 (in-place)
I1010 14:47:40.685968  6022 net.cpp:150] Setting up relu7
I1010 14:47:40.685974  6022 net.cpp:157] Top shape: 100 192 2 2 (76800)
I1010 14:47:40.685976  6022 net.cpp:165] Memory required for data: 250292400
I1010 14:47:40.685978  6022 layer_factory.hpp:77] Creating layer conv8
I1010 14:47:40.685984  6022 net.cpp:100] Creating Layer conv8
I1010 14:47:40.685986  6022 net.cpp:434] conv8 <- conv7
I1010 14:47:40.685989  6022 net.cpp:408] conv8 -> conv8
I1010 14:47:40.687033  6022 net.cpp:150] Setting up conv8
I1010 14:47:40.687057  6022 net.cpp:157] Top shape: 100 192 2 2 (76800)
I1010 14:47:40.687060  6022 net.cpp:165] Memory required for data: 250599600
I1010 14:47:40.687065  6022 layer_factory.hpp:77] Creating layer relu8
I1010 14:47:40.687083  6022 net.cpp:100] Creating Layer relu8
I1010 14:47:40.687084  6022 net.cpp:434] relu8 <- conv8
I1010 14:47:40.687088  6022 net.cpp:395] relu8 -> conv8 (in-place)
I1010 14:47:40.687438  6022 net.cpp:150] Setting up relu8
I1010 14:47:40.687448  6022 net.cpp:157] Top shape: 100 192 2 2 (76800)
I1010 14:47:40.687450  6022 net.cpp:165] Memory required for data: 250906800
I1010 14:47:40.687453  6022 layer_factory.hpp:77] Creating layer conv9
I1010 14:47:40.687460  6022 net.cpp:100] Creating Layer conv9
I1010 14:47:40.687463  6022 net.cpp:434] conv9 <- conv8
I1010 14:47:40.687466  6022 net.cpp:408] conv9 -> conv9
I1010 14:47:40.688457  6022 net.cpp:150] Setting up conv9
I1010 14:47:40.688468  6022 net.cpp:157] Top shape: 100 10 2 2 (4000)
I1010 14:47:40.688472  6022 net.cpp:165] Memory required for data: 250922800
I1010 14:47:40.688477  6022 layer_factory.hpp:77] Creating layer relu9
I1010 14:47:40.688482  6022 net.cpp:100] Creating Layer relu9
I1010 14:47:40.688483  6022 net.cpp:434] relu9 <- conv9
I1010 14:47:40.688498  6022 net.cpp:395] relu9 -> conv9 (in-place)
I1010 14:47:40.689014  6022 net.cpp:150] Setting up relu9
I1010 14:47:40.689028  6022 net.cpp:157] Top shape: 100 10 2 2 (4000)
I1010 14:47:40.689029  6022 net.cpp:165] Memory required for data: 250938800
I1010 14:47:40.689033  6022 layer_factory.hpp:77] Creating layer pool
I1010 14:47:40.689038  6022 net.cpp:100] Creating Layer pool
I1010 14:47:40.689040  6022 net.cpp:434] pool <- conv9
I1010 14:47:40.689044  6022 net.cpp:408] pool -> pool
I1010 14:47:40.689193  6022 net.cpp:150] Setting up pool
I1010 14:47:40.689198  6022 net.cpp:157] Top shape: 100 10 1 1 (1000)
I1010 14:47:40.689201  6022 net.cpp:165] Memory required for data: 250942800
I1010 14:47:40.689203  6022 layer_factory.hpp:77] Creating layer flatten
I1010 14:47:40.689208  6022 net.cpp:100] Creating Layer flatten
I1010 14:47:40.689209  6022 net.cpp:434] flatten <- pool
I1010 14:47:40.689213  6022 net.cpp:408] flatten -> flatten
I1010 14:47:40.689234  6022 net.cpp:150] Setting up flatten
I1010 14:47:40.689239  6022 net.cpp:157] Top shape: 100 10 (1000)
I1010 14:47:40.689241  6022 net.cpp:165] Memory required for data: 250946800
I1010 14:47:40.689244  6022 layer_factory.hpp:77] Creating layer score
I1010 14:47:40.689249  6022 net.cpp:100] Creating Layer score
I1010 14:47:40.689251  6022 net.cpp:434] score <- flatten
I1010 14:47:40.689254  6022 net.cpp:408] score -> score
I1010 14:47:40.689348  6022 net.cpp:150] Setting up score
I1010 14:47:40.689353  6022 net.cpp:157] Top shape: 100 10 (1000)
I1010 14:47:40.689355  6022 net.cpp:165] Memory required for data: 250950800
I1010 14:47:40.689360  6022 layer_factory.hpp:77] Creating layer score_score_0_split
I1010 14:47:40.689363  6022 net.cpp:100] Creating Layer score_score_0_split
I1010 14:47:40.689365  6022 net.cpp:434] score_score_0_split <- score
I1010 14:47:40.689369  6022 net.cpp:408] score_score_0_split -> score_score_0_split_0
I1010 14:47:40.689373  6022 net.cpp:408] score_score_0_split -> score_score_0_split_1
I1010 14:47:40.689401  6022 net.cpp:150] Setting up score_score_0_split
I1010 14:47:40.689404  6022 net.cpp:157] Top shape: 100 10 (1000)
I1010 14:47:40.689407  6022 net.cpp:157] Top shape: 100 10 (1000)
I1010 14:47:40.689409  6022 net.cpp:165] Memory required for data: 250958800
I1010 14:47:40.689411  6022 layer_factory.hpp:77] Creating layer accuracy
I1010 14:47:40.689417  6022 net.cpp:100] Creating Layer accuracy
I1010 14:47:40.689419  6022 net.cpp:434] accuracy <- score_score_0_split_0
I1010 14:47:40.689422  6022 net.cpp:434] accuracy <- label_data_1_split_0
I1010 14:47:40.689426  6022 net.cpp:408] accuracy -> accuracy
…
