…
type: "AdaGrad"
I1013 11:33:49.194834 12843 solver.cpp:81] Creating training net from train_net file: /home/adam/Honours/Honours-Project/cifar-10_allcnn/leakyrelu/allcnn_leakyrelu_train.prototxt
I1013 11:33:49.195169 12843 net.cpp:58] Initializing net from parameters: 
state {
  phase: TRAIN
  level: 0
  stage: ""
}
layer {
  name: "data"
  type: "Data"
  top: "data"
  top: "label"
  transform_param {
    mean_file: "mean.binaryproto"
  }
  data_param {
    source: "../../../data/cifar-10/cifar10_train_lmdb"
    batch_size: 64
    backend: LMDB
  }
}
layer {
  name: "conv1"
  type: "Convolution"
  bottom: "data"
  top: "conv1"
  convolution_param {
    num_output: 96
    kernel_size: 3
    weight_filler {
      type: "xavier"
    }
  }
}
layer {
  name: "relu1"
  type: "ReLU"
  bottom: "conv1"
  top: "conv1"
  relu_param {
    negative_slope: 0.01
  }
}
layer {
  name: "conv2"
  type: "Convolution"
  bottom: "conv1"
  top: "conv2"
  convolution_param {
    num_output: 96
    kernel_size: 3
    weight_filler {
      type: "xavier"
    }
  }
}
layer {
  name: "bn1"
  type: "BatchNorm"
  bottom: "conv2"
  top: "bn1"
}
layer {
  name: "relu2"
  type: "ReLU"
  bottom: "bn1"
  top: "bn1"
  relu_param {
    negative_slope: 0.01
  }
}
layer {
  name: "conv3"
  type: "Convolution"
  bottom: "bn1"
  top: "conv3"
  convolution_param {
    num_output: 96
    kernel_size: 3
    stride: 2
    weight_filler {
      type: "xavier"
    }
  }
}
layer {
  name: "drop1"
  type: "Dropout"
  bottom: "conv3"
  top: "drop1"
  dropout_param {
    dropout_ratio: 0.5
  }
}
layer {
  name: "relu3"
  type: "ReLU"
  bottom: "drop1"
  top: "drop1"
  relu_param {
    negative_slope: 0.01
  }
}
layer {
  name: "conv4"
  type: "Convolution"
  bottom: "drop1"
  top: "conv4"
  convolution_param {
    num_output: 192
    kernel_size: 3
    weight_filler {
      type: "xavier"
    }
  }
}
layer {
  name: "relu4"
  type: "ReLU"
  bottom: "conv4"
  top: "conv4"
  relu_param {
    negative_slope: 0.01
  }
}
layer {
  name: "conv5"
  type: "Convolution"
  bottom: "conv4"
  top: "conv5"
  convolution_param {
    num_output: 192
    kernel_size: 3
    weight_filler {
      type: "xavier"
    }
  }
}
layer {
  name: "bn2"
  type: "BatchNorm"
  bottom: "conv5"
  top: "bn2"
}
layer {
  name: "relu5"
  type: "ReLU"
  bottom: "bn2"
  top: "bn2"
  relu_param {
    negative_slope: 0.01
  }
}
layer {
  name: "conv6"
  type: "Convolution"
  bottom: "bn2"
  top: "conv6"
  convolution_param {
    num_output: 192
    kernel_size: 3
    stride: 2
    weight_filler {
      type: "xavier"
    }
  }
}
layer {
  name: "drop4"
  type: "Dropout"
  bottom: "conv6"
  top: "drop4"
  dropout_param {
    dropout_ratio: 0.5
  }
}
layer {
  name: "relu6"
  type: "ReLU"
  bottom: "drop4"
  top: "drop4"
  relu_param {
    negative_slope: 0.01
  }
}
layer {
  name: "conv7"
  type: "Convolution"
  bottom: "drop4"
  top: "conv7"
  convolution_param {
    num_output: 192
    kernel_size: 3
    weight_filler {
      type: "xavier"
    }
  }
}
layer {
  name: "relu7"
  type: "ReLU"
  bottom: "conv7"
  top: "conv7"
  relu_param {
    negative_slope: 0.01
  }
}
layer {
  name: "conv8"
  type: "Convolution"
  bottom: "conv7"
  top: "conv8"
  convolution_param {
    num_output: 192
    kernel_size: 1
    weight_filler {
      type: "xavier"
    }
  }
}
layer {
  name: "relu8"
  type: "ReLU"
  bottom: "conv8"
  top: "conv8"
  relu_param {
    negative_slope: 0.01
  }
}
layer {
  name: "conv9"
  type: "Convolution"
  bottom: "conv8"
  top: "conv9"
  convolution_param {
    num_output: 10
    kernel_size: 1
    weight_filler {
      type: "xavier"
    }
  }
}
layer {
  name: "relu9"
  type: "ReLU"
  bottom: "conv9"
  top: "conv9"
  relu_param {
    negative_slope: 0.01
  }
}
layer {
  name: "pool"
  type: "Pooling"
  bottom: "conv9"
  top: "pool"
  pooling_param {
    pool: AVE
    global_pooling: true
  }
}
layer {
  name: "flatten"
  type: "Flatten"
  bottom: "pool"
  top: "flatten"
}
layer {
  name: "score"
  type: "InnerProduct"
  bottom: "flatten"
  top: "score"
  inner_product_param {
    num_output: 10
    weight_filler {
      type: "gaussian"
    }
  }
}
layer {
  name: "accuracy"
  type: "Accuracy"
  bottom: "score"
  bottom: "label"
  top: "accuracy"
}
layer {
  name: "loss"
  type: "SoftmaxWithLoss"
  bottom: "score"
  bottom: "label"
  top: "loss"
}
I1013 11:33:49.195327 12843 layer_factory.hpp:77] Creating layer data
I1013 11:33:49.195778 12843 net.cpp:100] Creating Layer data
I1013 11:33:49.195786 12843 net.cpp:408] data -> data
I1013 11:33:49.195823 12843 net.cpp:408] data -> label
I1013 11:33:49.195835 12843 data_transformer.cpp:25] Loading mean file from: mean.binaryproto
I1013 11:33:49.196491 12848 db_lmdb.cpp:35] Opened lmdb ../../../data/cifar-10/cifar10_train_lmdb
I1013 11:33:49.202865 12843 data_layer.cpp:41] output data size: 64,3,32,32
I1013 11:33:49.204424 12843 net.cpp:150] Setting up data
I1013 11:33:49.204439 12843 net.cpp:157] Top shape: 64 3 32 32 (196608)
I1013 11:33:49.204466 12843 net.cpp:157] Top shape: 64 (64)
I1013 11:33:49.204468 12843 net.cpp:165] Memory required for data: 786688
I1013 11:33:49.204476 12843 layer_factory.hpp:77] Creating layer label_data_1_split
I1013 11:33:49.204486 12843 net.cpp:100] Creating Layer label_data_1_split
I1013 11:33:49.204510 12843 net.cpp:434] label_data_1_split <- label
I1013 11:33:49.204535 12843 net.cpp:408] label_data_1_split -> label_data_1_split_0
I1013 11:33:49.204542 12843 net.cpp:408] label_data_1_split -> label_data_1_split_1
I1013 11:33:49.204628 12843 net.cpp:150] Setting up label_data_1_split
I1013 11:33:49.204646 12843 net.cpp:157] Top shape: 64 (64)
I1013 11:33:49.204649 12843 net.cpp:157] Top shape: 64 (64)
I1013 11:33:49.204650 12843 net.cpp:165] Memory required for data: 787200
I1013 11:33:49.204653 12843 layer_factory.hpp:77] Creating layer conv1
I1013 11:33:49.204689 12843 net.cpp:100] Creating Layer conv1
I1013 11:33:49.204691 12843 net.cpp:434] conv1 <- data
I1013 11:33:49.204696 12843 net.cpp:408] conv1 -> conv1
I1013 11:33:49.340896 12843 net.cpp:150] Setting up conv1
I1013 11:33:49.340919 12843 net.cpp:157] Top shape: 64 96 30 30 (5529600)
I1013 11:33:49.340921 12843 net.cpp:165] Memory required for data: 22905600
I1013 11:33:49.340939 12843 layer_factory.hpp:77] Creating layer relu1
I1013 11:33:49.340947 12843 net.cpp:100] Creating Layer relu1
I1013 11:33:49.340950 12843 net.cpp:434] relu1 <- conv1
I1013 11:33:49.340955 12843 net.cpp:395] relu1 -> conv1 (in-place)
I1013 11:33:49.341158 12843 net.cpp:150] Setting up relu1
I1013 11:33:49.341164 12843 net.cpp:157] Top shape: 64 96 30 30 (5529600)
I1013 11:33:49.341166 12843 net.cpp:165] Memory required for data: 45024000
I1013 11:33:49.341168 12843 layer_factory.hpp:77] Creating layer conv2
I1013 11:33:49.341177 12843 net.cpp:100] Creating Layer conv2
I1013 11:33:49.341179 12843 net.cpp:434] conv2 <- conv1
I1013 11:33:49.341182 12843 net.cpp:408] conv2 -> conv2
I1013 11:33:49.342604 12843 net.cpp:150] Setting up conv2
I1013 11:33:49.342615 12843 net.cpp:157] Top shape: 64 96 28 28 (4816896)
I1013 11:33:49.342617 12843 net.cpp:165] Memory required for data: 64291584
I1013 11:33:49.342623 12843 layer_factory.hpp:77] Creating layer bn1
I1013 11:33:49.342628 12843 net.cpp:100] Creating Layer bn1
I1013 11:33:49.342630 12843 net.cpp:434] bn1 <- conv2
I1013 11:33:49.342635 12843 net.cpp:408] bn1 -> bn1
I1013 11:33:49.342825 12843 net.cpp:150] Setting up bn1
I1013 11:33:49.342830 12843 net.cpp:157] Top shape: 64 96 28 28 (4816896)
I1013 11:33:49.342833 12843 net.cpp:165] Memory required for data: 83559168
I1013 11:33:49.342849 12843 layer_factory.hpp:77] Creating layer relu2
I1013 11:33:49.342854 12843 net.cpp:100] Creating Layer relu2
I1013 11:33:49.342856 12843 net.cpp:434] relu2 <- bn1
I1013 11:33:49.342860 12843 net.cpp:395] relu2 -> bn1 (in-place)
I1013 11:33:49.343035 12843 net.cpp:150] Setting up relu2
I1013 11:33:49.343042 12843 net.cpp:157] Top shape: 64 96 28 28 (4816896)
I1013 11:33:49.343044 12843 net.cpp:165] Memory required for data: 102826752
I1013 11:33:49.343046 12843 layer_factory.hpp:77] Creating layer conv3
I1013 11:33:49.343051 12843 net.cpp:100] Creating Layer conv3
I1013 11:33:49.343053 12843 net.cpp:434] conv3 <- bn1
I1013 11:33:49.343057 12843 net.cpp:408] conv3 -> conv3
I1013 11:33:49.344256 12843 net.cpp:150] Setting up conv3
I1013 11:33:49.344265 12843 net.cpp:157] Top shape: 64 96 13 13 (1038336)
I1013 11:33:49.344267 12843 net.cpp:165] Memory required for data: 106980096
I1013 11:33:49.344274 12843 layer_factory.hpp:77] Creating layer drop1
I1013 11:33:49.344280 12843 net.cpp:100] Creating Layer drop1
I1013 11:33:49.344282 12843 net.cpp:434] drop1 <- conv3
I1013 11:33:49.344287 12843 net.cpp:408] drop1 -> drop1
I1013 11:33:49.344347 12843 net.cpp:150] Setting up drop1
I1013 11:33:49.344353 12843 net.cpp:157] Top shape: 64 96 13 13 (1038336)
I1013 11:33:49.344355 12843 net.cpp:165] Memory required for data: 111133440
I1013 11:33:49.344357 12843 layer_factory.hpp:77] Creating layer relu3
I1013 11:33:49.344360 12843 net.cpp:100] Creating Layer relu3
I1013 11:33:49.344362 12843 net.cpp:434] relu3 <- drop1
I1013 11:33:49.344365 12843 net.cpp:395] relu3 -> drop1 (in-place)
I1013 11:33:49.344619 12843 net.cpp:150] Setting up relu3
I1013 11:33:49.344627 12843 net.cpp:157] Top shape: 64 96 13 13 (1038336)
I1013 11:33:49.344630 12843 net.cpp:165] Memory required for data: 115286784
I1013 11:33:49.344631 12843 layer_factory.hpp:77] Creating layer conv4
I1013 11:33:49.344636 12843 net.cpp:100] Creating Layer conv4
I1013 11:33:49.344638 12843 net.cpp:434] conv4 <- drop1
I1013 11:33:49.344643 12843 net.cpp:408] conv4 -> conv4
I1013 11:33:49.346488 12843 net.cpp:150] Setting up conv4
I1013 11:33:49.346498 12843 net.cpp:157] Top shape: 64 192 11 11 (1486848)
I1013 11:33:49.346500 12843 net.cpp:165] Memory required for data: 121234176
I1013 11:33:49.346505 12843 layer_factory.hpp:77] Creating layer relu4
I1013 11:33:49.346509 12843 net.cpp:100] Creating Layer relu4
I1013 11:33:49.346511 12843 net.cpp:434] relu4 <- conv4
I1013 11:33:49.346515 12843 net.cpp:395] relu4 -> conv4 (in-place)
I1013 11:33:49.346688 12843 net.cpp:150] Setting up relu4
I1013 11:33:49.346695 12843 net.cpp:157] Top shape: 64 192 11 11 (1486848)
I1013 11:33:49.346698 12843 net.cpp:165] Memory required for data: 127181568
I1013 11:33:49.346699 12843 layer_factory.hpp:77] Creating layer conv5
I1013 11:33:49.346704 12843 net.cpp:100] Creating Layer conv5
I1013 11:33:49.346706 12843 net.cpp:434] conv5 <- conv4
I1013 11:33:49.346711 12843 net.cpp:408] conv5 -> conv5
I1013 11:33:49.349237 12843 net.cpp:150] Setting up conv5
I1013 11:33:49.349247 12843 net.cpp:157] Top shape: 64 192 9 9 (995328)
I1013 11:33:49.349249 12843 net.cpp:165] Memory required for data: 131162880
I1013 11:33:49.349254 12843 layer_factory.hpp:77] Creating layer bn2
I1013 11:33:49.349259 12843 net.cpp:100] Creating Layer bn2
I1013 11:33:49.349261 12843 net.cpp:434] bn2 <- conv5
I1013 11:33:49.349266 12843 net.cpp:408] bn2 -> bn2
I1013 11:33:49.349463 12843 net.cpp:150] Setting up bn2
I1013 11:33:49.349468 12843 net.cpp:157] Top shape: 64 192 9 9 (995328)
I1013 11:33:49.349470 12843 net.cpp:165] Memory required for data: 135144192
I1013 11:33:49.349475 12843 layer_factory.hpp:77] Creating layer relu5
I1013 11:33:49.349478 12843 net.cpp:100] Creating Layer relu5
I1013 11:33:49.349480 12843 net.cpp:434] relu5 <- bn2
I1013 11:33:49.349484 12843 net.cpp:395] relu5 -> bn2 (in-place)
I1013 11:33:49.349654 12843 net.cpp:150] Setting up relu5
I1013 11:33:49.349660 12843 net.cpp:157] Top shape: 64 192 9 9 (995328)
I1013 11:33:49.349663 12843 net.cpp:165] Memory required for data: 139125504
I1013 11:33:49.349673 12843 layer_factory.hpp:77] Creating layer conv6
I1013 11:33:49.349678 12843 net.cpp:100] Creating Layer conv6
I1013 11:33:49.349680 12843 net.cpp:434] conv6 <- bn2
I1013 11:33:49.349685 12843 net.cpp:408] conv6 -> conv6
I1013 11:33:49.352210 12843 net.cpp:150] Setting up conv6
I1013 11:33:49.352234 12843 net.cpp:157] Top shape: 64 192 4 4 (196608)
I1013 11:33:49.352236 12843 net.cpp:165] Memory required for data: 139911936
I1013 11:33:49.352248 12843 layer_factory.hpp:77] Creating layer drop4
I1013 11:33:49.352275 12843 net.cpp:100] Creating Layer drop4
I1013 11:33:49.352278 12843 net.cpp:434] drop4 <- conv6
I1013 11:33:49.352283 12843 net.cpp:408] drop4 -> drop4
I1013 11:33:49.352366 12843 net.cpp:150] Setting up drop4
I1013 11:33:49.352371 12843 net.cpp:157] Top shape: 64 192 4 4 (196608)
I1013 11:33:49.352387 12843 net.cpp:165] Memory required for data: 140698368
I1013 11:33:49.352390 12843 layer_factory.hpp:77] Creating layer relu6
I1013 11:33:49.352394 12843 net.cpp:100] Creating Layer relu6
I1013 11:33:49.352396 12843 net.cpp:434] relu6 <- drop4
I1013 11:33:49.352412 12843 net.cpp:395] relu6 -> drop4 (in-place)
I1013 11:33:49.352684 12843 net.cpp:150] Setting up relu6
I1013 11:33:49.352691 12843 net.cpp:157] Top shape: 64 192 4 4 (196608)
I1013 11:33:49.352707 12843 net.cpp:165] Memory required for data: 141484800
I1013 11:33:49.352710 12843 layer_factory.hpp:77] Creating layer conv7
I1013 11:33:49.352716 12843 net.cpp:100] Creating Layer conv7
I1013 11:33:49.352718 12843 net.cpp:434] conv7 <- drop4
I1013 11:33:49.352722 12843 net.cpp:408] conv7 -> conv7
I1013 11:33:49.356307 12843 net.cpp:150] Setting up conv7
I1013 11:33:49.356325 12843 net.cpp:157] Top shape: 64 192 2 2 (49152)
I1013 11:33:49.356328 12843 net.cpp:165] Memory required for data: 141681408
I1013 11:33:49.356333 12843 layer_factory.hpp:77] Creating layer relu7
I1013 11:33:49.356339 12843 net.cpp:100] Creating Layer relu7
I1013 11:33:49.356341 12843 net.cpp:434] relu7 <- conv7
I1013 11:33:49.356346 12843 net.cpp:395] relu7 -> conv7 (in-place)
I1013 11:33:49.356602 12843 net.cpp:150] Setting up relu7
I1013 11:33:49.356611 12843 net.cpp:157] Top shape: 64 192 2 2 (49152)
I1013 11:33:49.356612 12843 net.cpp:165] Memory required for data: 141878016
I1013 11:33:49.356614 12843 layer_factory.hpp:77] Creating layer conv8
I1013 11:33:49.356622 12843 net.cpp:100] Creating Layer conv8
I1013 11:33:49.356624 12843 net.cpp:434] conv8 <- conv7
I1013 11:33:49.356628 12843 net.cpp:408] conv8 -> conv8
I1013 11:33:49.357885 12843 net.cpp:150] Setting up conv8
I1013 11:33:49.357894 12843 net.cpp:157] Top shape: 64 192 2 2 (49152)
I1013 11:33:49.357897 12843 net.cpp:165] Memory required for data: 142074624
I1013 11:33:49.357900 12843 layer_factory.hpp:77] Creating layer relu8
I1013 11:33:49.357904 12843 net.cpp:100] Creating Layer relu8
I1013 11:33:49.357906 12843 net.cpp:434] relu8 <- conv8
I1013 11:33:49.357911 12843 net.cpp:395] relu8 -> conv8 (in-place)
I1013 11:33:49.358083 12843 net.cpp:150] Setting up relu8
I1013 11:33:49.358089 12843 net.cpp:157] Top shape: 64 192 2 2 (49152)
I1013 11:33:49.358091 12843 net.cpp:165] Memory required for data: 142271232
I1013 11:33:49.358093 12843 layer_factory.hpp:77] Creating layer conv9
I1013 11:33:49.358098 12843 net.cpp:100] Creating Layer conv9
I1013 11:33:49.358100 12843 net.cpp:434] conv9 <- conv8
I1013 11:33:49.358104 12843 net.cpp:408] conv9 -> conv9
I1013 11:33:49.358933 12843 net.cpp:150] Setting up conv9
I1013 11:33:49.358942 12843 net.cpp:157] Top shape: 64 10 2 2 (2560)
I1013 11:33:49.358944 12843 net.cpp:165] Memory required for data: 142281472
I1013 11:33:49.358949 12843 layer_factory.hpp:77] Creating layer relu9
I1013 11:33:49.358953 12843 net.cpp:100] Creating Layer relu9
I1013 11:33:49.358955 12843 net.cpp:434] relu9 <- conv9
I1013 11:33:49.358959 12843 net.cpp:395] relu9 -> conv9 (in-place)
I1013 11:33:49.359212 12843 net.cpp:150] Setting up relu9
I1013 11:33:49.359220 12843 net.cpp:157] Top shape: 64 10 2 2 (2560)
I1013 11:33:49.359221 12843 net.cpp:165] Memory required for data: 142291712
I1013 11:33:49.359233 12843 layer_factory.hpp:77] Creating layer pool
I1013 11:33:49.359238 12843 net.cpp:100] Creating Layer pool
I1013 11:33:49.359241 12843 net.cpp:434] pool <- conv9
I1013 11:33:49.359244 12843 net.cpp:408] pool -> pool
I1013 11:33:49.359438 12843 net.cpp:150] Setting up pool
I1013 11:33:49.359444 12843 net.cpp:157] Top shape: 64 10 1 1 (640)
I1013 11:33:49.359447 12843 net.cpp:165] Memory required for data: 142294272
I1013 11:33:49.359448 12843 layer_factory.hpp:77] Creating layer flatten
I1013 11:33:49.359452 12843 net.cpp:100] Creating Layer flatten
I1013 11:33:49.359454 12843 net.cpp:434] flatten <- pool
I1013 11:33:49.359457 12843 net.cpp:408] flatten -> flatten
I1013 11:33:49.359478 12843 net.cpp:150] Setting up flatten
I1013 11:33:49.359496 12843 net.cpp:157] Top shape: 64 10 (640)
I1013 11:33:49.359498 12843 net.cpp:165] Memory required for data: 142296832
I1013 11:33:49.359500 12843 layer_factory.hpp:77] Creating layer score
I1013 11:33:49.359504 12843 net.cpp:100] Creating Layer score
I1013 11:33:49.359508 12843 net.cpp:434] score <- flatten
I1013 11:33:49.359510 12843 net.cpp:408] score -> score
I1013 11:33:49.359690 12843 net.cpp:150] Setting up score
I1013 11:33:49.359695 12843 net.cpp:157] Top shape: 64 10 (640)
I1013 11:33:49.359696 12843 net.cpp:165] Memory required for data: 142299392
I1013 11:33:49.359700 12843 layer_factory.hpp:77] Creating layer score_score_0_split
I1013 11:33:49.359704 12843 net.cpp:100] Creating Layer score_score_0_split
I1013 11:33:49.359706 12843 net.cpp:434] score_score_0_split <- score
I1013 11:33:49.359710 12843 net.cpp:408] score_score_0_split -> score_score_0_split_0
I1013 11:33:49.359714 12843 net.cpp:408] score_score_0_split -> score_score_0_split_1
I1013 11:33:49.359769 12843 net.cpp:150] Setting up score_score_0_split
I1013 11:33:49.359773 12843 net.cpp:157] Top shape: 64 10 (640)
I1013 11:33:49.359776 12843 net.cpp:157] Top shape: 64 10 (640)
I1013 11:33:49.359791 12843 net.cpp:165] Memory required for data: 142304512
I1013 11:33:49.359793 12843 layer_factory.hpp:77] Creating layer accuracy
I1013 11:33:49.359797 12843 net.cpp:100] Creating Layer accuracy
I1013 11:33:49.359799 12843 net.cpp:434] accuracy <- score_score_0_split_0
I1013 11:33:49.359802 12843 net.cpp:434] accuracy <- label_data_1_split_0
I1013 11:33:49.359807 12843 net.cpp:408] accuracy -> accuracy
…
I1013 11:33:49.360399 12843 net.cpp:283] Network initialization done.
I1013 11:33:49.360638 12843 solver.cpp:181] Creating test net (#0) specified by test_net file: /home/adam/Honours/Honours-Project/cifar-10_allcnn/leakyrelu/allcnn_leakyrelu_test.prototxt
I1013 11:33:49.360818 12843 net.cpp:58] Initializing net from parameters: 
state {
  phase: TEST
}
layer {
  name: "data"
  type: "Data"
  top: "data"
  top: "label"
  transform_param {
    mean_file: "mean.binaryproto"
  }
  data_param {
    source: "../../../data/cifar-10/cifar10_test_lmdb"
    batch_size: 100
    backend: LMDB
  }
}
layer {
  name: "conv1"
  type: "Convolution"
  bottom: "data"
  top: "conv1"
  convolution_param {
    num_output: 96
    kernel_size: 3
    weight_filler {
      type: "xavier"
    }
  }
}
layer {
  name: "relu1"
  type: "ReLU"
  bottom: "conv1"
  top: "conv1"
  relu_param {
    negative_slope: 0.01
  }
}
layer {
  name: "conv2"
  type: "Convolution"
  bottom: "conv1"
  top: "conv2"
  convolution_param {
    num_output: 96
    kernel_size: 3
    weight_filler {
      type: "xavier"
    }
  }
}
layer {
  name: "bn1"
  type: "BatchNorm"
  bottom: "conv2"
  top: "bn1"
}
layer {
  name: "relu2"
  type: "ReLU"
  bottom: "bn1"
  top: "bn1"
  relu_param {
    negative_slope: 0.01
  }
}
layer {
  name: "conv3"
  type: "Convolution"
  bottom: "bn1"
  top: "conv3"
  convolution_param {
    num_output: 96
    kernel_size: 3
    stride: 2
    weight_filler {
      type: "xavier"
    }
  }
}
layer {
  name: "drop1"
  type: "Dropout"
  bottom: "conv3"
  top: "drop1"
  dropout_param {
    dropout_ratio: 0.5
  }
}
layer {
  name: "relu3"
  type: "ReLU"
  bottom: "drop1"
  top: "drop1"
  relu_param {
    negative_slope: 0.01
  }
}
layer {
  name: "conv4"
  type: "Convolution"
  bottom: "drop1"
  top: "conv4"
  convolution_param {
    num_output: 192
    kernel_size: 3
    weight_filler {
      type: "xavier"
    }
  }
}
layer {
  name: "relu4"
  type: "ReLU"
  bottom: "conv4"
  top: "conv4"
  relu_param {
    negative_slope: 0.01
  }
}
layer {
  name: "conv5"
  type: "Convolution"
  bottom: "conv4"
  top: "conv5"
  convolution_param {
    num_output: 192
    kernel_size: 3
    weight_filler {
      type: "xavier"
    }
  }
}
layer {
  name: "bn2"
  type: "BatchNorm"
  bottom: "conv5"
  top: "bn2"
}
layer {
  name: "relu5"
  type: "ReLU"
  bottom: "bn2"
  top: "bn2"
  relu_param {
    negative_slope: 0.01
  }
}
layer {
  name: "conv6"
  type: "Convolution"
  bottom: "bn2"
  top: "conv6"
  convolution_param {
    num_output: 192
    kernel_size: 3
    stride: 2
    weight_filler {
      type: "xavier"
    }
  }
}
layer {
  name: "drop4"
  type: "Dropout"
  bottom: "conv6"
  top: "drop4"
  dropout_param {
    dropout_ratio: 0.5
  }
}
layer {
  name: "relu6"
  type: "ReLU"
  bottom: "drop4"
  top: "drop4"
  relu_param {
    negative_slope: 0.01
  }
}
layer {
  name: "conv7"
  type: "Convolution"
  bottom: "drop4"
  top: "conv7"
  convolution_param {
    num_output: 192
    kernel_size: 3
    weight_filler {
      type: "xavier"
    }
  }
}
layer {
  name: "relu7"
  type: "ReLU"
  bottom: "conv7"
  top: "conv7"
  relu_param {
    negative_slope: 0.01
  }
}
layer {
  name: "conv8"
  type: "Convolution"
  bottom: "conv7"
  top: "conv8"
  convolution_param {
    num_output: 192
    kernel_size: 1
    weight_filler {
      type: "xavier"
    }
  }
}
layer {
  name: "relu8"
  type: "ReLU"
  bottom: "conv8"
  top: "conv8"
  relu_param {
    negative_slope: 0.01
  }
}
layer {
  name: "conv9"
  type: "Convolution"
  bottom: "conv8"
  top: "conv9"
  convolution_param {
    num_output: 10
    kernel_size: 1
    weight_filler {
      type: "xavier"
    }
  }
}
layer {
  name: "relu9"
  type: "ReLU"
  bottom: "conv9"
  top: "conv9"
  relu_param {
    negative_slope: 0.01
  }
}
layer {
  name: "pool"
  type: "Pooling"
  bottom: "conv9"
  top: "pool"
  pooling_param {
    pool: AVE
    global_pooling: true
  }
}
layer {
  name: "flatten"
  type: "Flatten"
  bottom: "pool"
  top: "flatten"
}
layer {
  name: "score"
  type: "InnerProduct"
  bottom: "flatten"
  top: "score"
  inner_product_param {
    num_output: 10
    weight_filler {
      type: "gaussian"
    }
  }
}
layer {
  name: "accuracy"
  type: "Accuracy"
  bottom: "score"
  bottom: "label"
  top: "accuracy"
}
layer {
  name: "loss"
  type: "SoftmaxWithLoss"
  bottom: "score"
  bottom: "label"
  top: "loss"
}
I1013 11:33:49.360939 12843 layer_factory.hpp:77] Creating layer data
I1013 11:33:49.361022 12843 net.cpp:100] Creating Layer data
I1013 11:33:49.361032 12843 net.cpp:408] data -> data
I1013 11:33:49.361037 12843 net.cpp:408] data -> label
I1013 11:33:49.361042 12843 data_transformer.cpp:25] Loading mean file from: mean.binaryproto
I1013 11:33:49.361740 12850 db_lmdb.cpp:35] Opened lmdb ../../../data/cifar-10/cifar10_test_lmdb
I1013 11:33:49.361870 12843 data_layer.cpp:41] output data size: 100,3,32,32
I1013 11:33:49.363806 12843 net.cpp:150] Setting up data
I1013 11:33:49.363847 12843 net.cpp:157] Top shape: 100 3 32 32 (307200)
I1013 11:33:49.363849 12843 net.cpp:157] Top shape: 100 (100)
I1013 11:33:49.363852 12843 net.cpp:165] Memory required for data: 1229200
I1013 11:33:49.363868 12843 layer_factory.hpp:77] Creating layer label_data_1_split
I1013 11:33:49.363875 12843 net.cpp:100] Creating Layer label_data_1_split
I1013 11:33:49.363893 12843 net.cpp:434] label_data_1_split <- label
I1013 11:33:49.363898 12843 net.cpp:408] label_data_1_split -> label_data_1_split_0
I1013 11:33:49.363905 12843 net.cpp:408] label_data_1_split -> label_data_1_split_1
I1013 11:33:49.363967 12843 net.cpp:150] Setting up label_data_1_split
I1013 11:33:49.363972 12843 net.cpp:157] Top shape: 100 (100)
I1013 11:33:49.363976 12843 net.cpp:157] Top shape: 100 (100)
I1013 11:33:49.363976 12843 net.cpp:165] Memory required for data: 1230000
I1013 11:33:49.363999 12843 layer_factory.hpp:77] Creating layer conv1
I1013 11:33:49.364008 12843 net.cpp:100] Creating Layer conv1
I1013 11:33:49.364024 12843 net.cpp:434] conv1 <- data
I1013 11:33:49.364028 12843 net.cpp:408] conv1 -> conv1
I1013 11:33:49.365028 12843 net.cpp:150] Setting up conv1
I1013 11:33:49.365056 12843 net.cpp:157] Top shape: 100 96 30 30 (8640000)
I1013 11:33:49.365057 12843 net.cpp:165] Memory required for data: 35790000
I1013 11:33:49.365077 12843 layer_factory.hpp:77] Creating layer relu1
I1013 11:33:49.365082 12843 net.cpp:100] Creating Layer relu1
I1013 11:33:49.365101 12843 net.cpp:434] relu1 <- conv1
I1013 11:33:49.365106 12843 net.cpp:395] relu1 -> conv1 (in-place)
I1013 11:33:49.365409 12843 net.cpp:150] Setting up relu1
I1013 11:33:49.365438 12843 net.cpp:157] Top shape: 100 96 30 30 (8640000)
I1013 11:33:49.365442 12843 net.cpp:165] Memory required for data: 70350000
I1013 11:33:49.365443 12843 layer_factory.hpp:77] Creating layer conv2
I1013 11:33:49.365466 12843 net.cpp:100] Creating Layer conv2
I1013 11:33:49.365469 12843 net.cpp:434] conv2 <- conv1
I1013 11:33:49.365485 12843 net.cpp:408] conv2 -> conv2
I1013 11:33:49.367044 12843 net.cpp:150] Setting up conv2
I1013 11:33:49.367070 12843 net.cpp:157] Top shape: 100 96 28 28 (7526400)
I1013 11:33:49.367072 12843 net.cpp:165] Memory required for data: 100455600
I1013 11:33:49.367079 12843 layer_factory.hpp:77] Creating layer bn1
I1013 11:33:49.367084 12843 net.cpp:100] Creating Layer bn1
I1013 11:33:49.367086 12843 net.cpp:434] bn1 <- conv2
I1013 11:33:49.367091 12843 net.cpp:408] bn1 -> bn1
I1013 11:33:49.367280 12843 net.cpp:150] Setting up bn1
I1013 11:33:49.367301 12843 net.cpp:157] Top shape: 100 96 28 28 (7526400)
I1013 11:33:49.367305 12843 net.cpp:165] Memory required for data: 130561200
I1013 11:33:49.367311 12843 layer_factory.hpp:77] Creating layer relu2
I1013 11:33:49.367316 12843 net.cpp:100] Creating Layer relu2
I1013 11:33:49.367317 12843 net.cpp:434] relu2 <- bn1
I1013 11:33:49.367321 12843 net.cpp:395] relu2 -> bn1 (in-place)
I1013 11:33:49.367579 12843 net.cpp:150] Setting up relu2
I1013 11:33:49.367601 12843 net.cpp:157] Top shape: 100 96 28 28 (7526400)
I1013 11:33:49.367604 12843 net.cpp:165] Memory required for data: 160666800
I1013 11:33:49.367606 12843 layer_factory.hpp:77] Creating layer conv3
I1013 11:33:49.367614 12843 net.cpp:100] Creating Layer conv3
I1013 11:33:49.367615 12843 net.cpp:434] conv3 <- bn1
I1013 11:33:49.367620 12843 net.cpp:408] conv3 -> conv3
I1013 11:33:49.368770 12843 net.cpp:150] Setting up conv3
I1013 11:33:49.368794 12843 net.cpp:157] Top shape: 100 96 13 13 (1622400)
I1013 11:33:49.368798 12843 net.cpp:165] Memory required for data: 167156400
I1013 11:33:49.368803 12843 layer_factory.hpp:77] Creating layer drop1
I1013 11:33:49.368810 12843 net.cpp:100] Creating Layer drop1
I1013 11:33:49.368827 12843 net.cpp:434] drop1 <- conv3
I1013 11:33:49.368831 12843 net.cpp:408] drop1 -> drop1
I1013 11:33:49.368891 12843 net.cpp:150] Setting up drop1
I1013 11:33:49.368896 12843 net.cpp:157] Top shape: 100 96 13 13 (1622400)
I1013 11:33:49.368913 12843 net.cpp:165] Memory required for data: 173646000
I1013 11:33:49.368916 12843 layer_factory.hpp:77] Creating layer relu3
I1013 11:33:49.368919 12843 net.cpp:100] Creating Layer relu3
I1013 11:33:49.368921 12843 net.cpp:434] relu3 <- drop1
I1013 11:33:49.368938 12843 net.cpp:395] relu3 -> drop1 (in-place)
I1013 11:33:49.369179 12843 net.cpp:150] Setting up relu3
I1013 11:33:49.369200 12843 net.cpp:157] Top shape: 100 96 13 13 (1622400)
I1013 11:33:49.369202 12843 net.cpp:165] Memory required for data: 180135600
I1013 11:33:49.369204 12843 layer_factory.hpp:77] Creating layer conv4
I1013 11:33:49.369211 12843 net.cpp:100] Creating Layer conv4
I1013 11:33:49.369215 12843 net.cpp:434] conv4 <- drop1
I1013 11:33:49.369218 12843 net.cpp:408] conv4 -> conv4
I1013 11:33:49.371667 12843 net.cpp:150] Setting up conv4
I1013 11:33:49.371695 12843 net.cpp:157] Top shape: 100 192 11 11 (2323200)
I1013 11:33:49.371711 12843 net.cpp:165] Memory required for data: 189428400
I1013 11:33:49.371717 12843 layer_factory.hpp:77] Creating layer relu4
I1013 11:33:49.371722 12843 net.cpp:100] Creating Layer relu4
I1013 11:33:49.371726 12843 net.cpp:434] relu4 <- conv4
I1013 11:33:49.371731 12843 net.cpp:395] relu4 -> conv4 (in-place)
I1013 11:33:49.371894 12843 net.cpp:150] Setting up relu4
I1013 11:33:49.371901 12843 net.cpp:157] Top shape: 100 192 11 11 (2323200)
I1013 11:33:49.371917 12843 net.cpp:165] Memory required for data: 198721200
I1013 11:33:49.371919 12843 layer_factory.hpp:77] Creating layer conv5
I1013 11:33:49.371927 12843 net.cpp:100] Creating Layer conv5
I1013 11:33:49.371929 12843 net.cpp:434] conv5 <- conv4
I1013 11:33:49.371933 12843 net.cpp:408] conv5 -> conv5
I1013 11:33:49.374783 12843 net.cpp:150] Setting up conv5
I1013 11:33:49.374820 12843 net.cpp:157] Top shape: 100 192 9 9 (1555200)
I1013 11:33:49.374824 12843 net.cpp:165] Memory required for data: 204942000
I1013 11:33:49.374828 12843 layer_factory.hpp:77] Creating layer bn2
I1013 11:33:49.374835 12843 net.cpp:100] Creating Layer bn2
I1013 11:33:49.374836 12843 net.cpp:434] bn2 <- conv5
I1013 11:33:49.374841 12843 net.cpp:408] bn2 -> bn2
I1013 11:33:49.375072 12843 net.cpp:150] Setting up bn2
I1013 11:33:49.375077 12843 net.cpp:157] Top shape: 100 192 9 9 (1555200)
I1013 11:33:49.375078 12843 net.cpp:165] Memory required for data: 211162800
I1013 11:33:49.375083 12843 layer_factory.hpp:77] Creating layer relu5
I1013 11:33:49.375087 12843 net.cpp:100] Creating Layer relu5
I1013 11:33:49.375088 12843 net.cpp:434] relu5 <- bn2
I1013 11:33:49.375092 12843 net.cpp:395] relu5 -> bn2 (in-place)
I1013 11:33:49.375371 12843 net.cpp:150] Setting up relu5
I1013 11:33:49.375380 12843 net.cpp:157] Top shape: 100 192 9 9 (1555200)
I1013 11:33:49.375382 12843 net.cpp:165] Memory required for data: 217383600
I1013 11:33:49.375385 12843 layer_factory.hpp:77] Creating layer conv6
I1013 11:33:49.375391 12843 net.cpp:100] Creating Layer conv6
I1013 11:33:49.375392 12843 net.cpp:434] conv6 <- bn2
I1013 11:33:49.375396 12843 net.cpp:408] conv6 -> conv6
I1013 11:33:49.377894 12843 net.cpp:150] Setting up conv6
I1013 11:33:49.377904 12843 net.cpp:157] Top shape: 100 192 4 4 (307200)
I1013 11:33:49.377907 12843 net.cpp:165] Memory required for data: 218612400
I1013 11:33:49.377915 12843 layer_factory.hpp:77] Creating layer drop4
I1013 11:33:49.377923 12843 net.cpp:100] Creating Layer drop4
I1013 11:33:49.377925 12843 net.cpp:434] drop4 <- conv6
I1013 11:33:49.377929 12843 net.cpp:408] drop4 -> drop4
I1013 11:33:49.377992 12843 net.cpp:150] Setting up drop4
I1013 11:33:49.378010 12843 net.cpp:157] Top shape: 100 192 4 4 (307200)
I1013 11:33:49.378012 12843 net.cpp:165] Memory required for data: 219841200
I1013 11:33:49.378015 12843 layer_factory.hpp:77] Creating layer relu6
I1013 11:33:49.378017 12843 net.cpp:100] Creating Layer relu6
I1013 11:33:49.378033 12843 net.cpp:434] relu6 <- drop4
I1013 11:33:49.378037 12843 net.cpp:395] relu6 -> drop4 (in-place)
I1013 11:33:49.378315 12843 net.cpp:150] Setting up relu6
I1013 11:33:49.378324 12843 net.cpp:157] Top shape: 100 192 4 4 (307200)
I1013 11:33:49.378325 12843 net.cpp:165] Memory required for data: 221070000
I1013 11:33:49.378327 12843 layer_factory.hpp:77] Creating layer conv7
I1013 11:33:49.378334 12843 net.cpp:100] Creating Layer conv7
I1013 11:33:49.378335 12843 net.cpp:434] conv7 <- drop4
I1013 11:33:49.378340 12843 net.cpp:408] conv7 -> conv7
I1013 11:33:49.380944 12843 net.cpp:150] Setting up conv7
I1013 11:33:49.380954 12843 net.cpp:157] Top shape: 100 192 2 2 (76800)
I1013 11:33:49.380956 12843 net.cpp:165] Memory required for data: 221377200
I1013 11:33:49.380960 12843 layer_factory.hpp:77] Creating layer relu7
I1013 11:33:49.380965 12843 net.cpp:100] Creating Layer relu7
I1013 11:33:49.380967 12843 net.cpp:434] relu7 <- conv7
I1013 11:33:49.380971 12843 net.cpp:395] relu7 -> conv7 (in-place)
I1013 11:33:49.381144 12843 net.cpp:150] Setting up relu7
I1013 11:33:49.381150 12843 net.cpp:157] Top shape: 100 192 2 2 (76800)
I1013 11:33:49.381152 12843 net.cpp:165] Memory required for data: 221684400
I1013 11:33:49.381155 12843 layer_factory.hpp:77] Creating layer conv8
I1013 11:33:49.381160 12843 net.cpp:100] Creating Layer conv8
I1013 11:33:49.381162 12843 net.cpp:434] conv8 <- conv7
I1013 11:33:49.381166 12843 net.cpp:408] conv8 -> conv8
I1013 11:33:49.382167 12843 net.cpp:150] Setting up conv8
I1013 11:33:49.382175 12843 net.cpp:157] Top shape: 100 192 2 2 (76800)
I1013 11:33:49.382177 12843 net.cpp:165] Memory required for data: 221991600
I1013 11:33:49.382181 12843 layer_factory.hpp:77] Creating layer relu8
I1013 11:33:49.382185 12843 net.cpp:100] Creating Layer relu8
I1013 11:33:49.382187 12843 net.cpp:434] relu8 <- conv8
I1013 11:33:49.382191 12843 net.cpp:395] relu8 -> conv8 (in-place)
I1013 11:33:49.382480 12843 net.cpp:150] Setting up relu8
I1013 11:33:49.382488 12843 net.cpp:157] Top shape: 100 192 2 2 (76800)
I1013 11:33:49.382490 12843 net.cpp:165] Memory required for data: 222298800
I1013 11:33:49.382493 12843 layer_factory.hpp:77] Creating layer conv9
I1013 11:33:49.382498 12843 net.cpp:100] Creating Layer conv9
I1013 11:33:49.382501 12843 net.cpp:434] conv9 <- conv8
I1013 11:33:49.382504 12843 net.cpp:408] conv9 -> conv9
I1013 11:33:49.383265 12843 net.cpp:150] Setting up conv9
I1013 11:33:49.383275 12843 net.cpp:157] Top shape: 100 10 2 2 (4000)
I1013 11:33:49.383276 12843 net.cpp:165] Memory required for data: 222314800
I1013 11:33:49.383280 12843 layer_factory.hpp:77] Creating layer relu9
I1013 11:33:49.383285 12843 net.cpp:100] Creating Layer relu9
I1013 11:33:49.383287 12843 net.cpp:434] relu9 <- conv9
I1013 11:33:49.383291 12843 net.cpp:395] relu9 -> conv9 (in-place)
I1013 11:33:49.383550 12843 net.cpp:150] Setting up relu9
I1013 11:33:49.383558 12843 net.cpp:157] Top shape: 100 10 2 2 (4000)
I1013 11:33:49.383560 12843 net.cpp:165] Memory required for data: 222330800
I1013 11:33:49.383563 12843 layer_factory.hpp:77] Creating layer pool
I1013 11:33:49.383568 12843 net.cpp:100] Creating Layer pool
I1013 11:33:49.383569 12843 net.cpp:434] pool <- conv9
I1013 11:33:49.383826 12843 net.cpp:408] pool -> pool
I1013 11:33:49.384050 12843 net.cpp:150] Setting up pool
I1013 11:33:49.384057 12843 net.cpp:157] Top shape: 100 10 1 1 (1000)
I1013 11:33:49.384059 12843 net.cpp:165] Memory required for data: 222334800
I1013 11:33:49.384062 12843 layer_factory.hpp:77] Creating layer flatten
I1013 11:33:49.384065 12843 net.cpp:100] Creating Layer flatten
I1013 11:33:49.384068 12843 net.cpp:434] flatten <- pool
I1013 11:33:49.384070 12843 net.cpp:408] flatten -> flatten
I1013 11:33:49.384106 12843 net.cpp:150] Setting up flatten
I1013 11:33:49.384111 12843 net.cpp:157] Top shape: 100 10 (1000)
I1013 11:33:49.384114 12843 net.cpp:165] Memory required for data: 222338800
I1013 11:33:49.384115 12843 layer_factory.hpp:77] Creating layer score
I1013 11:33:49.384119 12843 net.cpp:100] Creating Layer score
I1013 11:33:49.384122 12843 net.cpp:434] score <- flatten
I1013 11:33:49.384140 12843 net.cpp:408] score -> score
I1013 11:33:49.384263 12843 net.cpp:150] Setting up score
I1013 11:33:49.384268 12843 net.cpp:157] Top shape: 100 10 (1000)
I1013 11:33:49.384268 12843 net.cpp:165] Memory required for data: 222342800
I1013 11:33:49.384273 12843 layer_factory.hpp:77] Creating layer score_score_0_split
I1013 11:33:49.384277 12843 net.cpp:100] Creating Layer score_score_0_split
I1013 11:33:49.384279 12843 net.cpp:434] score_score_0_split <- score
I1013 11:33:49.384282 12843 net.cpp:408] score_score_0_split -> score_score_0_split_0
I1013 11:33:49.384287 12843 net.cpp:408] score_score_0_split -> score_score_0_split_1
I1013 11:33:49.384330 12843 net.cpp:150] Setting up score_score_0_split
I1013 11:33:49.384335 12843 net.cpp:157] Top shape: 100 10 (1000)
I1013 11:33:49.384336 12843 net.cpp:157] Top shape: 100 10 (1000)
I1013 11:33:49.384352 12843 net.cpp:165] Memory required for data: 222350800
I1013 11:33:49.384354 12843 layer_factory.hpp:77] Creating layer accuracy
I1013 11:33:49.384359 12843 net.cpp:100] Creating Layer accuracy
I1013 11:33:49.384374 12843 net.cpp:434] accuracy <- score_score_0_split_0
I1013 11:33:49.384377 12843 net.cpp:434] accuracy <- label_data_1_split_0
I1013 11:33:49.384380 12843 net.cpp:408] accuracy -> accuracy
…
