…
  stage: ""
}
type: "Nesterov"
I1013 05:28:31.353974 10349 solver.cpp:81] Creating training net from train_net file: /home/adam/Honours/Honours-Project/cifar-10_allcnn/elu/allcnn_elu_train.prototxt
I1013 05:28:31.354295 10349 net.cpp:58] Initializing net from parameters: 
state {
  phase: TRAIN
  level: 0
  stage: ""
}
layer {
  name: "data"
  type: "Data"
  top: "data"
  top: "label"
  transform_param {
    mean_file: "mean.binaryproto"
  }
  data_param {
    source: "../../../data/cifar-10/cifar10_train_lmdb"
    batch_size: 64
    backend: LMDB
  }
}
layer {
  name: "conv1"
  type: "Convolution"
  bottom: "data"
  top: "conv1"
  convolution_param {
    num_output: 96
    kernel_size: 3
    weight_filler {
      type: "xavier"
    }
  }
}
layer {
  name: "elu1"
  type: "ELU"
  bottom: "conv1"
  top: "conv1"
}
layer {
  name: "conv2"
  type: "Convolution"
  bottom: "conv1"
  top: "conv2"
  convolution_param {
    num_output: 96
    kernel_size: 3
    weight_filler {
      type: "xavier"
    }
  }
}
layer {
  name: "bn1"
  type: "BatchNorm"
  bottom: "conv2"
  top: "bn1"
}
layer {
  name: "elu2"
  type: "ELU"
  bottom: "bn1"
  top: "bn1"
}
layer {
  name: "conv3"
  type: "Convolution"
  bottom: "bn1"
  top: "conv3"
  convolution_param {
    num_output: 96
    kernel_size: 3
    stride: 2
    weight_filler {
      type: "xavier"
    }
  }
}
layer {
  name: "drop1"
  type: "Dropout"
  bottom: "conv3"
  top: "drop1"
  dropout_param {
    dropout_ratio: 0.5
  }
}
layer {
  name: "elu3"
  type: "ELU"
  bottom: "drop1"
  top: "drop1"
}
layer {
  name: "conv4"
  type: "Convolution"
  bottom: "drop1"
  top: "conv4"
  convolution_param {
    num_output: 192
    kernel_size: 3
    weight_filler {
      type: "xavier"
    }
  }
}
layer {
  name: "elu4"
  type: "ELU"
  bottom: "conv4"
  top: "conv4"
}
layer {
  name: "conv5"
  type: "Convolution"
  bottom: "conv4"
  top: "conv5"
  convolution_param {
    num_output: 192
    kernel_size: 3
    weight_filler {
      type: "xavier"
    }
  }
}
layer {
  name: "bn2"
  type: "BatchNorm"
  bottom: "conv5"
  top: "bn2"
}
layer {
  name: "elu5"
  type: "ELU"
  bottom: "bn2"
  top: "bn2"
}
layer {
  name: "conv6"
  type: "Convolution"
  bottom: "bn2"
  top: "conv6"
  convolution_param {
    num_output: 192
    kernel_size: 3
    stride: 2
    weight_filler {
      type: "xavier"
    }
  }
}
layer {
  name: "drop4"
  type: "Dropout"
  bottom: "conv6"
  top: "drop4"
  dropout_param {
    dropout_ratio: 0.5
  }
}
layer {
  name: "elu6"
  type: "ELU"
  bottom: "drop4"
  top: "drop4"
}
layer {
  name: "conv7"
  type: "Convolution"
  bottom: "drop4"
  top: "conv7"
  convolution_param {
    num_output: 192
    kernel_size: 3
    weight_filler {
      type: "xavier"
    }
  }
}
layer {
  name: "elu7"
  type: "ELU"
  bottom: "conv7"
  top: "conv7"
}
layer {
  name: "conv8"
  type: "Convolution"
  bottom: "conv7"
  top: "conv8"
  convolution_param {
    num_output: 192
    kernel_size: 1
    weight_filler {
      type: "xavier"
    }
  }
}
layer {
  name: "elu8"
  type: "ELU"
  bottom: "conv8"
  top: "conv8"
}
layer {
  name: "conv9"
  type: "Convolution"
  bottom: "conv8"
  top: "conv9"
  convolution_param {
    num_output: 10
    kernel_size: 1
    weight_filler {
      type: "xavier"
    }
  }
}
layer {
  name: "elu9"
  type: "ELU"
  bottom: "conv9"
  top: "conv9"
}
layer {
  name: "pool"
  type: "Pooling"
  bottom: "conv9"
  top: "pool"
  pooling_param {
    pool: AVE
    global_pooling: true
  }
}
layer {
  name: "flatten"
  type: "Flatten"
  bottom: "pool"
  top: "flatten"
}
layer {
  name: "score"
  type: "InnerProduct"
  bottom: "flatten"
  top: "score"
  inner_product_param {
    num_output: 10
    weight_filler {
      type: "gaussian"
    }
  }
}
layer {
  name: "accuracy"
  type: "Accuracy"
  bottom: "score"
  bottom: "label"
  top: "accuracy"
}
layer {
  name: "loss"
  type: "SoftmaxWithLoss"
  bottom: "score"
  bottom: "label"
  top: "loss"
}
I1013 05:28:31.354476 10349 layer_factory.hpp:77] Creating layer data
I1013 05:28:31.354936 10349 net.cpp:100] Creating Layer data
I1013 05:28:31.354944 10349 net.cpp:408] data -> data
I1013 05:28:31.354981 10349 net.cpp:408] data -> label
I1013 05:28:31.354996 10349 data_transformer.cpp:25] Loading mean file from: mean.binaryproto
I1013 05:28:31.355674 10354 db_lmdb.cpp:35] Opened lmdb ../../../data/cifar-10/cifar10_train_lmdb
I1013 05:28:31.361980 10349 data_layer.cpp:41] output data size: 64,3,32,32
I1013 05:28:31.363569 10349 net.cpp:150] Setting up data
I1013 05:28:31.363598 10349 net.cpp:157] Top shape: 64 3 32 32 (196608)
I1013 05:28:31.363601 10349 net.cpp:157] Top shape: 64 (64)
I1013 05:28:31.363603 10349 net.cpp:165] Memory required for data: 786688
I1013 05:28:31.363611 10349 layer_factory.hpp:77] Creating layer label_data_1_split
I1013 05:28:31.363621 10349 net.cpp:100] Creating Layer label_data_1_split
I1013 05:28:31.363641 10349 net.cpp:434] label_data_1_split <- label
I1013 05:28:31.363662 10349 net.cpp:408] label_data_1_split -> label_data_1_split_0
I1013 05:28:31.363684 10349 net.cpp:408] label_data_1_split -> label_data_1_split_1
I1013 05:28:31.363731 10349 net.cpp:150] Setting up label_data_1_split
I1013 05:28:31.363735 10349 net.cpp:157] Top shape: 64 (64)
I1013 05:28:31.363739 10349 net.cpp:157] Top shape: 64 (64)
I1013 05:28:31.363739 10349 net.cpp:165] Memory required for data: 787200
I1013 05:28:31.363741 10349 layer_factory.hpp:77] Creating layer conv1
I1013 05:28:31.363754 10349 net.cpp:100] Creating Layer conv1
I1013 05:28:31.363755 10349 net.cpp:434] conv1 <- data
I1013 05:28:31.363761 10349 net.cpp:408] conv1 -> conv1
I1013 05:28:31.502133 10349 net.cpp:150] Setting up conv1
I1013 05:28:31.502158 10349 net.cpp:157] Top shape: 64 96 30 30 (5529600)
I1013 05:28:31.502161 10349 net.cpp:165] Memory required for data: 22905600
I1013 05:28:31.502197 10349 layer_factory.hpp:77] Creating layer elu1
I1013 05:28:31.502204 10349 net.cpp:100] Creating Layer elu1
I1013 05:28:31.502207 10349 net.cpp:434] elu1 <- conv1
I1013 05:28:31.502225 10349 net.cpp:395] elu1 -> conv1 (in-place)
I1013 05:28:31.502246 10349 net.cpp:150] Setting up elu1
I1013 05:28:31.502250 10349 net.cpp:157] Top shape: 64 96 30 30 (5529600)
I1013 05:28:31.502252 10349 net.cpp:165] Memory required for data: 45024000
I1013 05:28:31.502254 10349 layer_factory.hpp:77] Creating layer conv2
I1013 05:28:31.502264 10349 net.cpp:100] Creating Layer conv2
I1013 05:28:31.502266 10349 net.cpp:434] conv2 <- conv1
I1013 05:28:31.502269 10349 net.cpp:408] conv2 -> conv2
I1013 05:28:31.503562 10349 net.cpp:150] Setting up conv2
I1013 05:28:31.503572 10349 net.cpp:157] Top shape: 64 96 28 28 (4816896)
I1013 05:28:31.503576 10349 net.cpp:165] Memory required for data: 64291584
I1013 05:28:31.503582 10349 layer_factory.hpp:77] Creating layer bn1
I1013 05:28:31.503585 10349 net.cpp:100] Creating Layer bn1
I1013 05:28:31.503588 10349 net.cpp:434] bn1 <- conv2
I1013 05:28:31.503592 10349 net.cpp:408] bn1 -> bn1
I1013 05:28:31.503773 10349 net.cpp:150] Setting up bn1
I1013 05:28:31.503778 10349 net.cpp:157] Top shape: 64 96 28 28 (4816896)
I1013 05:28:31.503780 10349 net.cpp:165] Memory required for data: 83559168
I1013 05:28:31.503787 10349 layer_factory.hpp:77] Creating layer elu2
I1013 05:28:31.503789 10349 net.cpp:100] Creating Layer elu2
I1013 05:28:31.503792 10349 net.cpp:434] elu2 <- bn1
I1013 05:28:31.503794 10349 net.cpp:395] elu2 -> bn1 (in-place)
I1013 05:28:31.503798 10349 net.cpp:150] Setting up elu2
I1013 05:28:31.503800 10349 net.cpp:157] Top shape: 64 96 28 28 (4816896)
I1013 05:28:31.503803 10349 net.cpp:165] Memory required for data: 102826752
I1013 05:28:31.503830 10349 layer_factory.hpp:77] Creating layer conv3
I1013 05:28:31.503835 10349 net.cpp:100] Creating Layer conv3
I1013 05:28:31.503837 10349 net.cpp:434] conv3 <- bn1
I1013 05:28:31.503841 10349 net.cpp:408] conv3 -> conv3
I1013 05:28:31.504990 10349 net.cpp:150] Setting up conv3
I1013 05:28:31.504999 10349 net.cpp:157] Top shape: 64 96 13 13 (1038336)
I1013 05:28:31.505002 10349 net.cpp:165] Memory required for data: 106980096
I1013 05:28:31.505008 10349 layer_factory.hpp:77] Creating layer drop1
I1013 05:28:31.505013 10349 net.cpp:100] Creating Layer drop1
I1013 05:28:31.505015 10349 net.cpp:434] drop1 <- conv3
I1013 05:28:31.505018 10349 net.cpp:408] drop1 -> drop1
I1013 05:28:31.505064 10349 net.cpp:150] Setting up drop1
I1013 05:28:31.505082 10349 net.cpp:157] Top shape: 64 96 13 13 (1038336)
I1013 05:28:31.505084 10349 net.cpp:165] Memory required for data: 111133440
I1013 05:28:31.505086 10349 layer_factory.hpp:77] Creating layer elu3
I1013 05:28:31.505102 10349 net.cpp:100] Creating Layer elu3
I1013 05:28:31.505105 10349 net.cpp:434] elu3 <- drop1
I1013 05:28:31.505107 10349 net.cpp:395] elu3 -> drop1 (in-place)
I1013 05:28:31.505110 10349 net.cpp:150] Setting up elu3
I1013 05:28:31.505127 10349 net.cpp:157] Top shape: 64 96 13 13 (1038336)
I1013 05:28:31.505129 10349 net.cpp:165] Memory required for data: 115286784
I1013 05:28:31.505131 10349 layer_factory.hpp:77] Creating layer conv4
I1013 05:28:31.505148 10349 net.cpp:100] Creating Layer conv4
I1013 05:28:31.505151 10349 net.cpp:434] conv4 <- drop1
I1013 05:28:31.505153 10349 net.cpp:408] conv4 -> conv4
I1013 05:28:31.506960 10349 net.cpp:150] Setting up conv4
I1013 05:28:31.506970 10349 net.cpp:157] Top shape: 64 192 11 11 (1486848)
I1013 05:28:31.506973 10349 net.cpp:165] Memory required for data: 121234176
I1013 05:28:31.506978 10349 layer_factory.hpp:77] Creating layer elu4
I1013 05:28:31.506980 10349 net.cpp:100] Creating Layer elu4
I1013 05:28:31.506983 10349 net.cpp:434] elu4 <- conv4
I1013 05:28:31.506986 10349 net.cpp:395] elu4 -> conv4 (in-place)
I1013 05:28:31.506991 10349 net.cpp:150] Setting up elu4
I1013 05:28:31.506994 10349 net.cpp:157] Top shape: 64 192 11 11 (1486848)
I1013 05:28:31.506995 10349 net.cpp:165] Memory required for data: 127181568
I1013 05:28:31.506997 10349 layer_factory.hpp:77] Creating layer conv5
I1013 05:28:31.507002 10349 net.cpp:100] Creating Layer conv5
I1013 05:28:31.507019 10349 net.cpp:434] conv5 <- conv4
I1013 05:28:31.507022 10349 net.cpp:408] conv5 -> conv5
I1013 05:28:31.509513 10349 net.cpp:150] Setting up conv5
I1013 05:28:31.509522 10349 net.cpp:157] Top shape: 64 192 9 9 (995328)
I1013 05:28:31.509524 10349 net.cpp:165] Memory required for data: 131162880
I1013 05:28:31.509529 10349 layer_factory.hpp:77] Creating layer bn2
I1013 05:28:31.509533 10349 net.cpp:100] Creating Layer bn2
I1013 05:28:31.509536 10349 net.cpp:434] bn2 <- conv5
I1013 05:28:31.509539 10349 net.cpp:408] bn2 -> bn2
I1013 05:28:31.509714 10349 net.cpp:150] Setting up bn2
I1013 05:28:31.509718 10349 net.cpp:157] Top shape: 64 192 9 9 (995328)
I1013 05:28:31.509721 10349 net.cpp:165] Memory required for data: 135144192
I1013 05:28:31.509726 10349 layer_factory.hpp:77] Creating layer elu5
I1013 05:28:31.509727 10349 net.cpp:100] Creating Layer elu5
I1013 05:28:31.509729 10349 net.cpp:434] elu5 <- bn2
I1013 05:28:31.509732 10349 net.cpp:395] elu5 -> bn2 (in-place)
I1013 05:28:31.509737 10349 net.cpp:150] Setting up elu5
I1013 05:28:31.509738 10349 net.cpp:157] Top shape: 64 192 9 9 (995328)
I1013 05:28:31.509740 10349 net.cpp:165] Memory required for data: 139125504
I1013 05:28:31.509742 10349 layer_factory.hpp:77] Creating layer conv6
I1013 05:28:31.509747 10349 net.cpp:100] Creating Layer conv6
I1013 05:28:31.509748 10349 net.cpp:434] conv6 <- bn2
I1013 05:28:31.509766 10349 net.cpp:408] conv6 -> conv6
I1013 05:28:31.512282 10349 net.cpp:150] Setting up conv6
I1013 05:28:31.512293 10349 net.cpp:157] Top shape: 64 192 4 4 (196608)
I1013 05:28:31.512295 10349 net.cpp:165] Memory required for data: 139911936
I1013 05:28:31.512313 10349 layer_factory.hpp:77] Creating layer drop4
I1013 05:28:31.512321 10349 net.cpp:100] Creating Layer drop4
I1013 05:28:31.512323 10349 net.cpp:434] drop4 <- conv6
I1013 05:28:31.512341 10349 net.cpp:408] drop4 -> drop4
I1013 05:28:31.512399 10349 net.cpp:150] Setting up drop4
I1013 05:28:31.512404 10349 net.cpp:157] Top shape: 64 192 4 4 (196608)
I1013 05:28:31.512420 10349 net.cpp:165] Memory required for data: 140698368
I1013 05:28:31.512423 10349 layer_factory.hpp:77] Creating layer elu6
I1013 05:28:31.512426 10349 net.cpp:100] Creating Layer elu6
I1013 05:28:31.512428 10349 net.cpp:434] elu6 <- drop4
I1013 05:28:31.512430 10349 net.cpp:395] elu6 -> drop4 (in-place)
I1013 05:28:31.512434 10349 net.cpp:150] Setting up elu6
I1013 05:28:31.512437 10349 net.cpp:157] Top shape: 64 192 4 4 (196608)
I1013 05:28:31.512440 10349 net.cpp:165] Memory required for data: 141484800
I1013 05:28:31.512442 10349 layer_factory.hpp:77] Creating layer conv7
I1013 05:28:31.512461 10349 net.cpp:100] Creating Layer conv7
I1013 05:28:31.512465 10349 net.cpp:434] conv7 <- drop4
I1013 05:28:31.512468 10349 net.cpp:408] conv7 -> conv7
I1013 05:28:31.516404 10349 net.cpp:150] Setting up conv7
I1013 05:28:31.516423 10349 net.cpp:157] Top shape: 64 192 2 2 (49152)
I1013 05:28:31.516427 10349 net.cpp:165] Memory required for data: 141681408
I1013 05:28:31.516433 10349 layer_factory.hpp:77] Creating layer elu7
I1013 05:28:31.516438 10349 net.cpp:100] Creating Layer elu7
I1013 05:28:31.516441 10349 net.cpp:434] elu7 <- conv7
I1013 05:28:31.516444 10349 net.cpp:395] elu7 -> conv7 (in-place)
I1013 05:28:31.516451 10349 net.cpp:150] Setting up elu7
I1013 05:28:31.516454 10349 net.cpp:157] Top shape: 64 192 2 2 (49152)
I1013 05:28:31.516456 10349 net.cpp:165] Memory required for data: 141878016
I1013 05:28:31.516472 10349 layer_factory.hpp:77] Creating layer conv8
I1013 05:28:31.516479 10349 net.cpp:100] Creating Layer conv8
I1013 05:28:31.516481 10349 net.cpp:434] conv8 <- conv7
I1013 05:28:31.516486 10349 net.cpp:408] conv8 -> conv8
I1013 05:28:31.517719 10349 net.cpp:150] Setting up conv8
I1013 05:28:31.517729 10349 net.cpp:157] Top shape: 64 192 2 2 (49152)
I1013 05:28:31.517730 10349 net.cpp:165] Memory required for data: 142074624
I1013 05:28:31.517735 10349 layer_factory.hpp:77] Creating layer elu8
I1013 05:28:31.517740 10349 net.cpp:100] Creating Layer elu8
I1013 05:28:31.517741 10349 net.cpp:434] elu8 <- conv8
I1013 05:28:31.517745 10349 net.cpp:395] elu8 -> conv8 (in-place)
I1013 05:28:31.517748 10349 net.cpp:150] Setting up elu8
I1013 05:28:31.517751 10349 net.cpp:157] Top shape: 64 192 2 2 (49152)
I1013 05:28:31.517753 10349 net.cpp:165] Memory required for data: 142271232
I1013 05:28:31.517755 10349 layer_factory.hpp:77] Creating layer conv9
I1013 05:28:31.517760 10349 net.cpp:100] Creating Layer conv9
I1013 05:28:31.517776 10349 net.cpp:434] conv9 <- conv8
I1013 05:28:31.517779 10349 net.cpp:408] conv9 -> conv9
I1013 05:28:31.518604 10349 net.cpp:150] Setting up conv9
I1013 05:28:31.518613 10349 net.cpp:157] Top shape: 64 10 2 2 (2560)
I1013 05:28:31.518615 10349 net.cpp:165] Memory required for data: 142281472
I1013 05:28:31.518620 10349 layer_factory.hpp:77] Creating layer elu9
I1013 05:28:31.518623 10349 net.cpp:100] Creating Layer elu9
I1013 05:28:31.518626 10349 net.cpp:434] elu9 <- conv9
I1013 05:28:31.518630 10349 net.cpp:395] elu9 -> conv9 (in-place)
I1013 05:28:31.518632 10349 net.cpp:150] Setting up elu9
I1013 05:28:31.518635 10349 net.cpp:157] Top shape: 64 10 2 2 (2560)
I1013 05:28:31.518637 10349 net.cpp:165] Memory required for data: 142291712
I1013 05:28:31.518640 10349 layer_factory.hpp:77] Creating layer pool
I1013 05:28:31.518645 10349 net.cpp:100] Creating Layer pool
I1013 05:28:31.518646 10349 net.cpp:434] pool <- conv9
I1013 05:28:31.518648 10349 net.cpp:408] pool -> pool
I1013 05:28:31.519008 10349 net.cpp:150] Setting up pool
I1013 05:28:31.519016 10349 net.cpp:157] Top shape: 64 10 1 1 (640)
I1013 05:28:31.519018 10349 net.cpp:165] Memory required for data: 142294272
I1013 05:28:31.519032 10349 layer_factory.hpp:77] Creating layer flatten
I1013 05:28:31.519035 10349 net.cpp:100] Creating Layer flatten
I1013 05:28:31.519037 10349 net.cpp:434] flatten <- pool
I1013 05:28:31.519042 10349 net.cpp:408] flatten -> flatten
I1013 05:28:31.519075 10349 net.cpp:150] Setting up flatten
I1013 05:28:31.519080 10349 net.cpp:157] Top shape: 64 10 (640)
I1013 05:28:31.519083 10349 net.cpp:165] Memory required for data: 142296832
I1013 05:28:31.519083 10349 layer_factory.hpp:77] Creating layer score
I1013 05:28:31.519088 10349 net.cpp:100] Creating Layer score
I1013 05:28:31.519089 10349 net.cpp:434] score <- flatten
I1013 05:28:31.519107 10349 net.cpp:408] score -> score
I1013 05:28:31.519248 10349 net.cpp:150] Setting up score
I1013 05:28:31.519253 10349 net.cpp:157] Top shape: 64 10 (640)
I1013 05:28:31.519254 10349 net.cpp:165] Memory required for data: 142299392
I1013 05:28:31.519258 10349 layer_factory.hpp:77] Creating layer score_score_0_split
I1013 05:28:31.519263 10349 net.cpp:100] Creating Layer score_score_0_split
I1013 05:28:31.519264 10349 net.cpp:434] score_score_0_split <- score
I1013 05:28:31.519268 10349 net.cpp:408] score_score_0_split -> score_score_0_split_0
I1013 05:28:31.519273 10349 net.cpp:408] score_score_0_split -> score_score_0_split_1
I1013 05:28:31.519311 10349 net.cpp:150] Setting up score_score_0_split
I1013 05:28:31.519316 10349 net.cpp:157] Top shape: 64 10 (640)
I1013 05:28:31.519331 10349 net.cpp:157] Top shape: 64 10 (640)
I1013 05:28:31.519332 10349 net.cpp:165] Memory required for data: 142304512
I1013 05:28:31.519335 10349 layer_factory.hpp:77] Creating layer accuracy
I1013 05:28:31.519338 10349 net.cpp:100] Creating Layer accuracy
I1013 05:28:31.519357 10349 net.cpp:434] accuracy <- score_score_0_split_0
I1013 05:28:31.519359 10349 net.cpp:434] accuracy <- label_data_1_split_0
I1013 05:28:31.519363 10349 net.cpp:408] accuracy -> accuracy
…
I1013 05:28:31.519920 10349 net.cpp:283] Network initialization done.
I1013 05:28:31.520179 10349 solver.cpp:181] Creating test net (#0) specified by test_net file: /home/adam/Honours/Honours-Project/cifar-10_allcnn/elu/allcnn_elu_test.prototxt
I1013 05:28:31.520337 10349 net.cpp:58] Initializing net from parameters: 
state {
  phase: TEST
}
layer {
  name: "data"
  type: "Data"
  top: "data"
  top: "label"
  transform_param {
    mean_file: "mean.binaryproto"
  }
  data_param {
    source: "../../../data/cifar-10/cifar10_test_lmdb"
    batch_size: 100
    backend: LMDB
  }
}
layer {
  name: "conv1"
  type: "Convolution"
  bottom: "data"
  top: "conv1"
  convolution_param {
    num_output: 96
    kernel_size: 3
    weight_filler {
      type: "xavier"
    }
  }
}
layer {
  name: "elu1"
  type: "ELU"
  bottom: "conv1"
  top: "conv1"
}
layer {
  name: "conv2"
  type: "Convolution"
  bottom: "conv1"
  top: "conv2"
  convolution_param {
    num_output: 96
    kernel_size: 3
    weight_filler {
      type: "xavier"
    }
  }
}
layer {
  name: "bn1"
  type: "BatchNorm"
  bottom: "conv2"
  top: "bn1"
}
layer {
  name: "elu2"
  type: "ELU"
  bottom: "bn1"
  top: "bn1"
}
layer {
  name: "conv3"
  type: "Convolution"
  bottom: "bn1"
  top: "conv3"
  convolution_param {
    num_output: 96
    kernel_size: 3
    stride: 2
    weight_filler {
      type: "xavier"
    }
  }
}
layer {
  name: "drop1"
  type: "Dropout"
  bottom: "conv3"
  top: "drop1"
  dropout_param {
    dropout_ratio: 0.5
  }
}
layer {
  name: "elu3"
  type: "ELU"
  bottom: "drop1"
  top: "drop1"
}
layer {
  name: "conv4"
  type: "Convolution"
  bottom: "drop1"
  top: "conv4"
  convolution_param {
    num_output: 192
    kernel_size: 3
    weight_filler {
      type: "xavier"
    }
  }
}
layer {
  name: "elu4"
  type: "ELU"
  bottom: "conv4"
  top: "conv4"
}
layer {
  name: "conv5"
  type: "Convolution"
  bottom: "conv4"
  top: "conv5"
  convolution_param {
    num_output: 192
    kernel_size: 3
    weight_filler {
      type: "xavier"
    }
  }
}
layer {
  name: "bn2"
  type: "BatchNorm"
  bottom: "conv5"
  top: "bn2"
}
layer {
  name: "elu5"
  type: "ELU"
  bottom: "bn2"
  top: "bn2"
}
layer {
  name: "conv6"
  type: "Convolution"
  bottom: "bn2"
  top: "conv6"
  convolution_param {
    num_output: 192
    kernel_size: 3
    stride: 2
    weight_filler {
      type: "xavier"
    }
  }
}
layer {
  name: "drop4"
  type: "Dropout"
  bottom: "conv6"
  top: "drop4"
  dropout_param {
    dropout_ratio: 0.5
  }
}
layer {
  name: "elu6"
  type: "ELU"
  bottom: "drop4"
  top: "drop4"
}
layer {
  name: "conv7"
  type: "Convolution"
  bottom: "drop4"
  top: "conv7"
  convolution_param {
    num_output: 192
    kernel_size: 3
    weight_filler {
      type: "xavier"
    }
  }
}
layer {
  name: "elu7"
  type: "ELU"
  bottom: "conv7"
  top: "conv7"
}
layer {
  name: "conv8"
  type: "Convolution"
  bottom: "conv7"
  top: "conv8"
  convolution_param {
    num_output: 192
    kernel_size: 1
    weight_filler {
      type: "xavier"
    }
  }
}
layer {
  name: "elu8"
  type: "ELU"
  bottom: "conv8"
  top: "conv8"
}
layer {
  name: "conv9"
  type: "Convolution"
  bottom: "conv8"
  top: "conv9"
  convolution_param {
    num_output: 10
    kernel_size: 1
    weight_filler {
      type: "xavier"
    }
  }
}
layer {
  name: "elu9"
  type: "ELU"
  bottom: "conv9"
  top: "conv9"
}
layer {
  name: "pool"
  type: "Pooling"
  bottom: "conv9"
  top: "pool"
  pooling_param {
    pool: AVE
    global_pooling: true
  }
}
layer {
  name: "flatten"
  type: "Flatten"
  bottom: "pool"
  top: "flatten"
}
layer {
  name: "score"
  type: "InnerProduct"
  bottom: "flatten"
  top: "score"
  inner_product_param {
    num_output: 10
    weight_filler {
      type: "gaussian"
    }
  }
}
layer {
  name: "accuracy"
  type: "Accuracy"
  bottom: "score"
  bottom: "label"
  top: "accuracy"
}
layer {
  name: "loss"
  type: "SoftmaxWithLoss"
  bottom: "score"
  bottom: "label"
  top: "loss"
}
I1013 05:28:31.520426 10349 layer_factory.hpp:77] Creating layer data
I1013 05:28:31.520642 10349 net.cpp:100] Creating Layer data
I1013 05:28:31.520648 10349 net.cpp:408] data -> data
I1013 05:28:31.520654 10349 net.cpp:408] data -> label
I1013 05:28:31.520659 10349 data_transformer.cpp:25] Loading mean file from: mean.binaryproto
I1013 05:28:31.521432 10357 db_lmdb.cpp:35] Opened lmdb ../../../data/cifar-10/cifar10_test_lmdb
I1013 05:28:31.521575 10349 data_layer.cpp:41] output data size: 100,3,32,32
I1013 05:28:31.523432 10349 net.cpp:150] Setting up data
I1013 05:28:31.523473 10349 net.cpp:157] Top shape: 100 3 32 32 (307200)
I1013 05:28:31.523475 10349 net.cpp:157] Top shape: 100 (100)
I1013 05:28:31.523478 10349 net.cpp:165] Memory required for data: 1229200
I1013 05:28:31.523483 10349 layer_factory.hpp:77] Creating layer label_data_1_split
I1013 05:28:31.523489 10349 net.cpp:100] Creating Layer label_data_1_split
I1013 05:28:31.523493 10349 net.cpp:434] label_data_1_split <- label
I1013 05:28:31.523497 10349 net.cpp:408] label_data_1_split -> label_data_1_split_0
I1013 05:28:31.523520 10349 net.cpp:408] label_data_1_split -> label_data_1_split_1
I1013 05:28:31.523708 10349 net.cpp:150] Setting up label_data_1_split
I1013 05:28:31.523732 10349 net.cpp:157] Top shape: 100 (100)
I1013 05:28:31.523736 10349 net.cpp:157] Top shape: 100 (100)
I1013 05:28:31.523738 10349 net.cpp:165] Memory required for data: 1230000
I1013 05:28:31.523756 10349 layer_factory.hpp:77] Creating layer conv1
I1013 05:28:31.523778 10349 net.cpp:100] Creating Layer conv1
I1013 05:28:31.523782 10349 net.cpp:434] conv1 <- data
I1013 05:28:31.523799 10349 net.cpp:408] conv1 -> conv1
I1013 05:28:31.525110 10349 net.cpp:150] Setting up conv1
I1013 05:28:31.525125 10349 net.cpp:157] Top shape: 100 96 30 30 (8640000)
I1013 05:28:31.525130 10349 net.cpp:165] Memory required for data: 35790000
I1013 05:28:31.525159 10349 layer_factory.hpp:77] Creating layer elu1
I1013 05:28:31.525164 10349 net.cpp:100] Creating Layer elu1
I1013 05:28:31.525167 10349 net.cpp:434] elu1 <- conv1
I1013 05:28:31.525171 10349 net.cpp:395] elu1 -> conv1 (in-place)
I1013 05:28:31.525177 10349 net.cpp:150] Setting up elu1
I1013 05:28:31.525180 10349 net.cpp:157] Top shape: 100 96 30 30 (8640000)
I1013 05:28:31.525182 10349 net.cpp:165] Memory required for data: 70350000
I1013 05:28:31.525184 10349 layer_factory.hpp:77] Creating layer conv2
I1013 05:28:31.525192 10349 net.cpp:100] Creating Layer conv2
I1013 05:28:31.525194 10349 net.cpp:434] conv2 <- conv1
I1013 05:28:31.525198 10349 net.cpp:408] conv2 -> conv2
I1013 05:28:31.526607 10349 net.cpp:150] Setting up conv2
I1013 05:28:31.526618 10349 net.cpp:157] Top shape: 100 96 28 28 (7526400)
I1013 05:28:31.526620 10349 net.cpp:165] Memory required for data: 100455600
I1013 05:28:31.526628 10349 layer_factory.hpp:77] Creating layer bn1
I1013 05:28:31.526633 10349 net.cpp:100] Creating Layer bn1
I1013 05:28:31.526634 10349 net.cpp:434] bn1 <- conv2
I1013 05:28:31.526639 10349 net.cpp:408] bn1 -> bn1
I1013 05:28:31.526821 10349 net.cpp:150] Setting up bn1
I1013 05:28:31.526851 10349 net.cpp:157] Top shape: 100 96 28 28 (7526400)
I1013 05:28:31.526854 10349 net.cpp:165] Memory required for data: 130561200
I1013 05:28:31.526861 10349 layer_factory.hpp:77] Creating layer elu2
I1013 05:28:31.526866 10349 net.cpp:100] Creating Layer elu2
I1013 05:28:31.526868 10349 net.cpp:434] elu2 <- bn1
I1013 05:28:31.526872 10349 net.cpp:395] elu2 -> bn1 (in-place)
I1013 05:28:31.526876 10349 net.cpp:150] Setting up elu2
I1013 05:28:31.526878 10349 net.cpp:157] Top shape: 100 96 28 28 (7526400)
I1013 05:28:31.526880 10349 net.cpp:165] Memory required for data: 160666800
I1013 05:28:31.526882 10349 layer_factory.hpp:77] Creating layer conv3
I1013 05:28:31.526887 10349 net.cpp:100] Creating Layer conv3
I1013 05:28:31.526903 10349 net.cpp:434] conv3 <- bn1
I1013 05:28:31.526908 10349 net.cpp:408] conv3 -> conv3
I1013 05:28:31.528164 10349 net.cpp:150] Setting up conv3
I1013 05:28:31.528174 10349 net.cpp:157] Top shape: 100 96 13 13 (1622400)
I1013 05:28:31.528178 10349 net.cpp:165] Memory required for data: 167156400
I1013 05:28:31.528184 10349 layer_factory.hpp:77] Creating layer drop1
I1013 05:28:31.528192 10349 net.cpp:100] Creating Layer drop1
I1013 05:28:31.528194 10349 net.cpp:434] drop1 <- conv3
I1013 05:28:31.528198 10349 net.cpp:408] drop1 -> drop1
I1013 05:28:31.528233 10349 net.cpp:150] Setting up drop1
I1013 05:28:31.528236 10349 net.cpp:157] Top shape: 100 96 13 13 (1622400)
I1013 05:28:31.528239 10349 net.cpp:165] Memory required for data: 173646000
I1013 05:28:31.528240 10349 layer_factory.hpp:77] Creating layer elu3
I1013 05:28:31.528244 10349 net.cpp:100] Creating Layer elu3
I1013 05:28:31.528246 10349 net.cpp:434] elu3 <- drop1
I1013 05:28:31.528249 10349 net.cpp:395] elu3 -> drop1 (in-place)
I1013 05:28:31.528254 10349 net.cpp:150] Setting up elu3
I1013 05:28:31.528256 10349 net.cpp:157] Top shape: 100 96 13 13 (1622400)
I1013 05:28:31.528257 10349 net.cpp:165] Memory required for data: 180135600
I1013 05:28:31.528259 10349 layer_factory.hpp:77] Creating layer conv4
I1013 05:28:31.528265 10349 net.cpp:100] Creating Layer conv4
I1013 05:28:31.528268 10349 net.cpp:434] conv4 <- drop1
I1013 05:28:31.528271 10349 net.cpp:408] conv4 -> conv4
I1013 05:28:31.530069 10349 net.cpp:150] Setting up conv4
I1013 05:28:31.530079 10349 net.cpp:157] Top shape: 100 192 11 11 (2323200)
I1013 05:28:31.530081 10349 net.cpp:165] Memory required for data: 189428400
I1013 05:28:31.530086 10349 layer_factory.hpp:77] Creating layer elu4
I1013 05:28:31.530091 10349 net.cpp:100] Creating Layer elu4
I1013 05:28:31.530093 10349 net.cpp:434] elu4 <- conv4
I1013 05:28:31.530097 10349 net.cpp:395] elu4 -> conv4 (in-place)
I1013 05:28:31.530102 10349 net.cpp:150] Setting up elu4
I1013 05:28:31.530104 10349 net.cpp:157] Top shape: 100 192 11 11 (2323200)
I1013 05:28:31.530107 10349 net.cpp:165] Memory required for data: 198721200
I1013 05:28:31.530108 10349 layer_factory.hpp:77] Creating layer conv5
I1013 05:28:31.530114 10349 net.cpp:100] Creating Layer conv5
I1013 05:28:31.530117 10349 net.cpp:434] conv5 <- conv4
I1013 05:28:31.530119 10349 net.cpp:408] conv5 -> conv5
I1013 05:28:31.532979 10349 net.cpp:150] Setting up conv5
I1013 05:28:31.533012 10349 net.cpp:157] Top shape: 100 192 9 9 (1555200)
I1013 05:28:31.533015 10349 net.cpp:165] Memory required for data: 204942000
I1013 05:28:31.533021 10349 layer_factory.hpp:77] Creating layer bn2
I1013 05:28:31.533028 10349 net.cpp:100] Creating Layer bn2
I1013 05:28:31.533030 10349 net.cpp:434] bn2 <- conv5
I1013 05:28:31.533035 10349 net.cpp:408] bn2 -> bn2
I1013 05:28:31.533298 10349 net.cpp:150] Setting up bn2
I1013 05:28:31.533303 10349 net.cpp:157] Top shape: 100 192 9 9 (1555200)
I1013 05:28:31.533305 10349 net.cpp:165] Memory required for data: 211162800
I1013 05:28:31.533324 10349 layer_factory.hpp:77] Creating layer elu5
I1013 05:28:31.533329 10349 net.cpp:100] Creating Layer elu5
I1013 05:28:31.533331 10349 net.cpp:434] elu5 <- bn2
I1013 05:28:31.533354 10349 net.cpp:395] elu5 -> bn2 (in-place)
I1013 05:28:31.533357 10349 net.cpp:150] Setting up elu5
I1013 05:28:31.533398 10349 net.cpp:157] Top shape: 100 192 9 9 (1555200)
I1013 05:28:31.533401 10349 net.cpp:165] Memory required for data: 217383600
I1013 05:28:31.533402 10349 layer_factory.hpp:77] Creating layer conv6
I1013 05:28:31.533422 10349 net.cpp:100] Creating Layer conv6
I1013 05:28:31.533426 10349 net.cpp:434] conv6 <- bn2
I1013 05:28:31.533428 10349 net.cpp:408] conv6 -> conv6
I1013 05:28:31.536051 10349 net.cpp:150] Setting up conv6
I1013 05:28:31.536062 10349 net.cpp:157] Top shape: 100 192 4 4 (307200)
I1013 05:28:31.536064 10349 net.cpp:165] Memory required for data: 218612400
I1013 05:28:31.536073 10349 layer_factory.hpp:77] Creating layer drop4
I1013 05:28:31.536082 10349 net.cpp:100] Creating Layer drop4
I1013 05:28:31.536083 10349 net.cpp:434] drop4 <- conv6
I1013 05:28:31.536087 10349 net.cpp:408] drop4 -> drop4
I1013 05:28:31.536146 10349 net.cpp:150] Setting up drop4
I1013 05:28:31.536165 10349 net.cpp:157] Top shape: 100 192 4 4 (307200)
I1013 05:28:31.536167 10349 net.cpp:165] Memory required for data: 219841200
I1013 05:28:31.536170 10349 layer_factory.hpp:77] Creating layer elu6
I1013 05:28:31.536172 10349 net.cpp:100] Creating Layer elu6
I1013 05:28:31.536188 10349 net.cpp:434] elu6 <- drop4
I1013 05:28:31.536190 10349 net.cpp:395] elu6 -> drop4 (in-place)
I1013 05:28:31.536195 10349 net.cpp:150] Setting up elu6
I1013 05:28:31.536197 10349 net.cpp:157] Top shape: 100 192 4 4 (307200)
I1013 05:28:31.536200 10349 net.cpp:165] Memory required for data: 221070000
I1013 05:28:31.536201 10349 layer_factory.hpp:77] Creating layer conv7
I1013 05:28:31.536206 10349 net.cpp:100] Creating Layer conv7
I1013 05:28:31.536212 10349 net.cpp:434] conv7 <- drop4
I1013 05:28:31.536231 10349 net.cpp:408] conv7 -> conv7
I1013 05:28:31.538806 10349 net.cpp:150] Setting up conv7
I1013 05:28:31.538816 10349 net.cpp:157] Top shape: 100 192 2 2 (76800)
I1013 05:28:31.538818 10349 net.cpp:165] Memory required for data: 221377200
I1013 05:28:31.538823 10349 layer_factory.hpp:77] Creating layer elu7
I1013 05:28:31.538828 10349 net.cpp:100] Creating Layer elu7
I1013 05:28:31.538830 10349 net.cpp:434] elu7 <- conv7
I1013 05:28:31.538833 10349 net.cpp:395] elu7 -> conv7 (in-place)
I1013 05:28:31.538838 10349 net.cpp:150] Setting up elu7
I1013 05:28:31.538841 10349 net.cpp:157] Top shape: 100 192 2 2 (76800)
I1013 05:28:31.538842 10349 net.cpp:165] Memory required for data: 221684400
I1013 05:28:31.538844 10349 layer_factory.hpp:77] Creating layer conv8
I1013 05:28:31.538849 10349 net.cpp:100] Creating Layer conv8
I1013 05:28:31.538851 10349 net.cpp:434] conv8 <- conv7
I1013 05:28:31.538869 10349 net.cpp:408] conv8 -> conv8
I1013 05:28:31.539816 10349 net.cpp:150] Setting up conv8
I1013 05:28:31.539826 10349 net.cpp:157] Top shape: 100 192 2 2 (76800)
I1013 05:28:31.539829 10349 net.cpp:165] Memory required for data: 221991600
I1013 05:28:31.539834 10349 layer_factory.hpp:77] Creating layer elu8
I1013 05:28:31.539836 10349 net.cpp:100] Creating Layer elu8
I1013 05:28:31.539839 10349 net.cpp:434] elu8 <- conv8
I1013 05:28:31.539841 10349 net.cpp:395] elu8 -> conv8 (in-place)
I1013 05:28:31.539845 10349 net.cpp:150] Setting up elu8
I1013 05:28:31.539849 10349 net.cpp:157] Top shape: 100 192 2 2 (76800)
I1013 05:28:31.539850 10349 net.cpp:165] Memory required for data: 222298800
I1013 05:28:31.539851 10349 layer_factory.hpp:77] Creating layer conv9
I1013 05:28:31.539856 10349 net.cpp:100] Creating Layer conv9
I1013 05:28:31.539858 10349 net.cpp:434] conv9 <- conv8
I1013 05:28:31.539877 10349 net.cpp:408] conv9 -> conv9
I1013 05:28:31.540679 10349 net.cpp:150] Setting up conv9
I1013 05:28:31.540688 10349 net.cpp:157] Top shape: 100 10 2 2 (4000)
I1013 05:28:31.540690 10349 net.cpp:165] Memory required for data: 222314800
I1013 05:28:31.540694 10349 layer_factory.hpp:77] Creating layer elu9
I1013 05:28:31.540699 10349 net.cpp:100] Creating Layer elu9
I1013 05:28:31.540701 10349 net.cpp:434] elu9 <- conv9
I1013 05:28:31.540704 10349 net.cpp:395] elu9 -> conv9 (in-place)
I1013 05:28:31.540707 10349 net.cpp:150] Setting up elu9
I1013 05:28:31.540719 10349 net.cpp:157] Top shape: 100 10 2 2 (4000)
I1013 05:28:31.540720 10349 net.cpp:165] Memory required for data: 222330800
I1013 05:28:31.540722 10349 layer_factory.hpp:77] Creating layer pool
I1013 05:28:31.540740 10349 net.cpp:100] Creating Layer pool
I1013 05:28:31.540742 10349 net.cpp:434] pool <- conv9
I1013 05:28:31.540748 10349 net.cpp:408] pool -> pool
I1013 05:28:31.541039 10349 net.cpp:150] Setting up pool
I1013 05:28:31.541049 10349 net.cpp:157] Top shape: 100 10 1 1 (1000)
I1013 05:28:31.541050 10349 net.cpp:165] Memory required for data: 222334800
I1013 05:28:31.541052 10349 layer_factory.hpp:77] Creating layer flatten
I1013 05:28:31.541056 10349 net.cpp:100] Creating Layer flatten
I1013 05:28:31.541059 10349 net.cpp:434] flatten <- pool
I1013 05:28:31.541062 10349 net.cpp:408] flatten -> flatten
I1013 05:28:31.541082 10349 net.cpp:150] Setting up flatten
I1013 05:28:31.541100 10349 net.cpp:157] Top shape: 100 10 (1000)
I1013 05:28:31.541101 10349 net.cpp:165] Memory required for data: 222338800
I1013 05:28:31.541103 10349 layer_factory.hpp:77] Creating layer score
I1013 05:28:31.541108 10349 net.cpp:100] Creating Layer score
I1013 05:28:31.541110 10349 net.cpp:434] score <- flatten
I1013 05:28:31.541115 10349 net.cpp:408] score -> score
I1013 05:28:31.541239 10349 net.cpp:150] Setting up score
I1013 05:28:31.541242 10349 net.cpp:157] Top shape: 100 10 (1000)
I1013 05:28:31.541244 10349 net.cpp:165] Memory required for data: 222342800
I1013 05:28:31.541249 10349 layer_factory.hpp:77] Creating layer score_score_0_split
I1013 05:28:31.541251 10349 net.cpp:100] Creating Layer score_score_0_split
I1013 05:28:31.541254 10349 net.cpp:434] score_score_0_split <- score
I1013 05:28:31.541257 10349 net.cpp:408] score_score_0_split -> score_score_0_split_0
I1013 05:28:31.541261 10349 net.cpp:408] score_score_0_split -> score_score_0_split_1
I1013 05:28:31.541317 10349 net.cpp:150] Setting up score_score_0_split
I1013 05:28:31.541321 10349 net.cpp:157] Top shape: 100 10 (1000)
I1013 05:28:31.541324 10349 net.cpp:157] Top shape: 100 10 (1000)
I1013 05:28:31.541326 10349 net.cpp:165] Memory required for data: 222350800
I1013 05:28:31.541327 10349 layer_factory.hpp:77] Creating layer accuracy
I1013 05:28:31.541332 10349 net.cpp:100] Creating Layer accuracy
I1013 05:28:31.541334 10349 net.cpp:434] accuracy <- score_score_0_split_0
I1013 05:28:31.541337 10349 net.cpp:434] accuracy <- label_data_1_split_0
I1013 05:28:31.541340 10349 net.cpp:408] accuracy -> accuracy
…
