…
type: "AdaDelta"
I1013 10:02:42.525847 12268 solver.cpp:81] Creating training net from train_net file: /home/adam/Honours/Honours-Project/cifar-10_allcnn/leakyrelu/allcnn_leakyrelu_train.prototxt
I1013 10:02:42.526221 12268 net.cpp:58] Initializing net from parameters: 
state {
  phase: TRAIN
  level: 0
  stage: ""
}
layer {
  name: "data"
  type: "Data"
  top: "data"
  top: "label"
  transform_param {
    mean_file: "mean.binaryproto"
  }
  data_param {
    source: "../../../data/cifar-10/cifar10_train_lmdb"
    batch_size: 64
    backend: LMDB
  }
}
layer {
  name: "conv1"
  type: "Convolution"
  bottom: "data"
  top: "conv1"
  convolution_param {
    num_output: 96
    kernel_size: 3
    weight_filler {
      type: "xavier"
    }
  }
}
layer {
  name: "relu1"
  type: "ReLU"
  bottom: "conv1"
  top: "conv1"
  relu_param {
    negative_slope: 0.01
  }
}
layer {
  name: "conv2"
  type: "Convolution"
  bottom: "conv1"
  top: "conv2"
  convolution_param {
    num_output: 96
    kernel_size: 3
    weight_filler {
      type: "xavier"
    }
  }
}
layer {
  name: "bn1"
  type: "BatchNorm"
  bottom: "conv2"
  top: "bn1"
}
layer {
  name: "relu2"
  type: "ReLU"
  bottom: "bn1"
  top: "bn1"
  relu_param {
    negative_slope: 0.01
  }
}
layer {
  name: "conv3"
  type: "Convolution"
  bottom: "bn1"
  top: "conv3"
  convolution_param {
    num_output: 96
    kernel_size: 3
    stride: 2
    weight_filler {
      type: "xavier"
    }
  }
}
layer {
  name: "drop1"
  type: "Dropout"
  bottom: "conv3"
  top: "drop1"
  dropout_param {
    dropout_ratio: 0.5
  }
}
layer {
  name: "relu3"
  type: "ReLU"
  bottom: "drop1"
  top: "drop1"
  relu_param {
    negative_slope: 0.01
  }
}
layer {
  name: "conv4"
  type: "Convolution"
  bottom: "drop1"
  top: "conv4"
  convolution_param {
    num_output: 192
    kernel_size: 3
    weight_filler {
      type: "xavier"
    }
  }
}
layer {
  name: "relu4"
  type: "ReLU"
  bottom: "conv4"
  top: "conv4"
  relu_param {
    negative_slope: 0.01
  }
}
layer {
  name: "conv5"
  type: "Convolution"
  bottom: "conv4"
  top: "conv5"
  convolution_param {
    num_output: 192
    kernel_size: 3
    weight_filler {
      type: "xavier"
    }
  }
}
layer {
  name: "bn2"
  type: "BatchNorm"
  bottom: "conv5"
  top: "bn2"
}
layer {
  name: "relu5"
  type: "ReLU"
  bottom: "bn2"
  top: "bn2"
  relu_param {
    negative_slope: 0.01
  }
}
layer {
  name: "conv6"
  type: "Convolution"
  bottom: "bn2"
  top: "conv6"
  convolution_param {
    num_output: 192
    kernel_size: 3
    stride: 2
    weight_filler {
      type: "xavier"
    }
  }
}
layer {
  name: "drop4"
  type: "Dropout"
  bottom: "conv6"
  top: "drop4"
  dropout_param {
    dropout_ratio: 0.5
  }
}
layer {
  name: "relu6"
  type: "ReLU"
  bottom: "drop4"
  top: "drop4"
  relu_param {
    negative_slope: 0.01
  }
}
layer {
  name: "conv7"
  type: "Convolution"
  bottom: "drop4"
  top: "conv7"
  convolution_param {
    num_output: 192
    kernel_size: 3
    weight_filler {
      type: "xavier"
    }
  }
}
layer {
  name: "relu7"
  type: "ReLU"
  bottom: "conv7"
  top: "conv7"
  relu_param {
    negative_slope: 0.01
  }
}
layer {
  name: "conv8"
  type: "Convolution"
  bottom: "conv7"
  top: "conv8"
  convolution_param {
    num_output: 192
    kernel_size: 1
    weight_filler {
      type: "xavier"
    }
  }
}
layer {
  name: "relu8"
  type: "ReLU"
  bottom: "conv8"
  top: "conv8"
  relu_param {
    negative_slope: 0.01
  }
}
layer {
  name: "conv9"
  type: "Convolution"
  bottom: "conv8"
  top: "conv9"
  convolution_param {
    num_output: 10
    kernel_size: 1
    weight_filler {
      type: "xavier"
    }
  }
}
layer {
  name: "relu9"
  type: "ReLU"
  bottom: "conv9"
  top: "conv9"
  relu_param {
    negative_slope: 0.01
  }
}
layer {
  name: "pool"
  type: "Pooling"
  bottom: "conv9"
  top: "pool"
  pooling_param {
    pool: AVE
    global_pooling: true
  }
}
layer {
  name: "flatten"
  type: "Flatten"
  bottom: "pool"
  top: "flatten"
}
layer {
  name: "score"
  type: "InnerProduct"
  bottom: "flatten"
  top: "score"
  inner_product_param {
    num_output: 10
    weight_filler {
      type: "gaussian"
    }
  }
}
layer {
  name: "accuracy"
  type: "Accuracy"
  bottom: "score"
  bottom: "label"
  top: "accuracy"
}
layer {
  name: "loss"
  type: "SoftmaxWithLoss"
  bottom: "score"
  bottom: "label"
  top: "loss"
}
I1013 10:02:42.526379 12268 layer_factory.hpp:77] Creating layer data
I1013 10:02:42.526845 12268 net.cpp:100] Creating Layer data
I1013 10:02:42.526854 12268 net.cpp:408] data -> data
I1013 10:02:42.526883 12268 net.cpp:408] data -> label
I1013 10:02:42.526908 12268 data_transformer.cpp:25] Loading mean file from: mean.binaryproto
I1013 10:02:42.527547 12273 db_lmdb.cpp:35] Opened lmdb ../../../data/cifar-10/cifar10_train_lmdb
I1013 10:02:42.533960 12268 data_layer.cpp:41] output data size: 64,3,32,32
I1013 10:02:42.535454 12268 net.cpp:150] Setting up data
I1013 10:02:42.535468 12268 net.cpp:157] Top shape: 64 3 32 32 (196608)
I1013 10:02:42.535471 12268 net.cpp:157] Top shape: 64 (64)
I1013 10:02:42.535473 12268 net.cpp:165] Memory required for data: 786688
I1013 10:02:42.535504 12268 layer_factory.hpp:77] Creating layer label_data_1_split
I1013 10:02:42.535526 12268 net.cpp:100] Creating Layer label_data_1_split
I1013 10:02:42.535531 12268 net.cpp:434] label_data_1_split <- label
I1013 10:02:42.535557 12268 net.cpp:408] label_data_1_split -> label_data_1_split_0
I1013 10:02:42.535567 12268 net.cpp:408] label_data_1_split -> label_data_1_split_1
I1013 10:02:42.535647 12268 net.cpp:150] Setting up label_data_1_split
I1013 10:02:42.535653 12268 net.cpp:157] Top shape: 64 (64)
I1013 10:02:42.535656 12268 net.cpp:157] Top shape: 64 (64)
I1013 10:02:42.535657 12268 net.cpp:165] Memory required for data: 787200
I1013 10:02:42.535683 12268 layer_factory.hpp:77] Creating layer conv1
I1013 10:02:42.535693 12268 net.cpp:100] Creating Layer conv1
I1013 10:02:42.535697 12268 net.cpp:434] conv1 <- data
I1013 10:02:42.535703 12268 net.cpp:408] conv1 -> conv1
I1013 10:02:42.671283 12268 net.cpp:150] Setting up conv1
I1013 10:02:42.671306 12268 net.cpp:157] Top shape: 64 96 30 30 (5529600)
I1013 10:02:42.671308 12268 net.cpp:165] Memory required for data: 22905600
I1013 10:02:42.671326 12268 layer_factory.hpp:77] Creating layer relu1
I1013 10:02:42.671335 12268 net.cpp:100] Creating Layer relu1
I1013 10:02:42.671337 12268 net.cpp:434] relu1 <- conv1
I1013 10:02:42.671342 12268 net.cpp:395] relu1 -> conv1 (in-place)
I1013 10:02:42.671545 12268 net.cpp:150] Setting up relu1
I1013 10:02:42.671552 12268 net.cpp:157] Top shape: 64 96 30 30 (5529600)
I1013 10:02:42.671555 12268 net.cpp:165] Memory required for data: 45024000
I1013 10:02:42.671556 12268 layer_factory.hpp:77] Creating layer conv2
I1013 10:02:42.671564 12268 net.cpp:100] Creating Layer conv2
I1013 10:02:42.671566 12268 net.cpp:434] conv2 <- conv1
I1013 10:02:42.671569 12268 net.cpp:408] conv2 -> conv2
I1013 10:02:42.672947 12268 net.cpp:150] Setting up conv2
I1013 10:02:42.672957 12268 net.cpp:157] Top shape: 64 96 28 28 (4816896)
I1013 10:02:42.672960 12268 net.cpp:165] Memory required for data: 64291584
I1013 10:02:42.672966 12268 layer_factory.hpp:77] Creating layer bn1
I1013 10:02:42.672971 12268 net.cpp:100] Creating Layer bn1
I1013 10:02:42.672972 12268 net.cpp:434] bn1 <- conv2
I1013 10:02:42.672976 12268 net.cpp:408] bn1 -> bn1
I1013 10:02:42.673158 12268 net.cpp:150] Setting up bn1
I1013 10:02:42.673163 12268 net.cpp:157] Top shape: 64 96 28 28 (4816896)
I1013 10:02:42.673166 12268 net.cpp:165] Memory required for data: 83559168
I1013 10:02:42.673182 12268 layer_factory.hpp:77] Creating layer relu2
I1013 10:02:42.673187 12268 net.cpp:100] Creating Layer relu2
I1013 10:02:42.673189 12268 net.cpp:434] relu2 <- bn1
I1013 10:02:42.673192 12268 net.cpp:395] relu2 -> bn1 (in-place)
I1013 10:02:42.673362 12268 net.cpp:150] Setting up relu2
I1013 10:02:42.673367 12268 net.cpp:157] Top shape: 64 96 28 28 (4816896)
I1013 10:02:42.673369 12268 net.cpp:165] Memory required for data: 102826752
I1013 10:02:42.673372 12268 layer_factory.hpp:77] Creating layer conv3
I1013 10:02:42.673377 12268 net.cpp:100] Creating Layer conv3
I1013 10:02:42.673379 12268 net.cpp:434] conv3 <- bn1
I1013 10:02:42.673382 12268 net.cpp:408] conv3 -> conv3
I1013 10:02:42.674545 12268 net.cpp:150] Setting up conv3
I1013 10:02:42.674553 12268 net.cpp:157] Top shape: 64 96 13 13 (1038336)
I1013 10:02:42.674556 12268 net.cpp:165] Memory required for data: 106980096
I1013 10:02:42.674562 12268 layer_factory.hpp:77] Creating layer drop1
I1013 10:02:42.674567 12268 net.cpp:100] Creating Layer drop1
I1013 10:02:42.674571 12268 net.cpp:434] drop1 <- conv3
I1013 10:02:42.674573 12268 net.cpp:408] drop1 -> drop1
I1013 10:02:42.674619 12268 net.cpp:150] Setting up drop1
I1013 10:02:42.674638 12268 net.cpp:157] Top shape: 64 96 13 13 (1038336)
I1013 10:02:42.674640 12268 net.cpp:165] Memory required for data: 111133440
I1013 10:02:42.674643 12268 layer_factory.hpp:77] Creating layer relu3
I1013 10:02:42.674659 12268 net.cpp:100] Creating Layer relu3
I1013 10:02:42.674660 12268 net.cpp:434] relu3 <- drop1
I1013 10:02:42.674664 12268 net.cpp:395] relu3 -> drop1 (in-place)
I1013 10:02:42.674938 12268 net.cpp:150] Setting up relu3
I1013 10:02:42.674947 12268 net.cpp:157] Top shape: 64 96 13 13 (1038336)
I1013 10:02:42.674948 12268 net.cpp:165] Memory required for data: 115286784
I1013 10:02:42.674950 12268 layer_factory.hpp:77] Creating layer conv4
I1013 10:02:42.674957 12268 net.cpp:100] Creating Layer conv4
I1013 10:02:42.674958 12268 net.cpp:434] conv4 <- drop1
I1013 10:02:42.674962 12268 net.cpp:408] conv4 -> conv4
I1013 10:02:42.676751 12268 net.cpp:150] Setting up conv4
I1013 10:02:42.676760 12268 net.cpp:157] Top shape: 64 192 11 11 (1486848)
I1013 10:02:42.676764 12268 net.cpp:165] Memory required for data: 121234176
I1013 10:02:42.676767 12268 layer_factory.hpp:77] Creating layer relu4
I1013 10:02:42.676771 12268 net.cpp:100] Creating Layer relu4
I1013 10:02:42.676774 12268 net.cpp:434] relu4 <- conv4
I1013 10:02:42.676777 12268 net.cpp:395] relu4 -> conv4 (in-place)
I1013 10:02:42.676944 12268 net.cpp:150] Setting up relu4
I1013 10:02:42.676950 12268 net.cpp:157] Top shape: 64 192 11 11 (1486848)
I1013 10:02:42.676952 12268 net.cpp:165] Memory required for data: 127181568
I1013 10:02:42.676954 12268 layer_factory.hpp:77] Creating layer conv5
I1013 10:02:42.676959 12268 net.cpp:100] Creating Layer conv5
I1013 10:02:42.676961 12268 net.cpp:434] conv5 <- conv4
I1013 10:02:42.676964 12268 net.cpp:408] conv5 -> conv5
I1013 10:02:42.679452 12268 net.cpp:150] Setting up conv5
I1013 10:02:42.679462 12268 net.cpp:157] Top shape: 64 192 9 9 (995328)
I1013 10:02:42.679466 12268 net.cpp:165] Memory required for data: 131162880
I1013 10:02:42.679469 12268 layer_factory.hpp:77] Creating layer bn2
I1013 10:02:42.679473 12268 net.cpp:100] Creating Layer bn2
I1013 10:02:42.679476 12268 net.cpp:434] bn2 <- conv5
I1013 10:02:42.679479 12268 net.cpp:408] bn2 -> bn2
I1013 10:02:42.679682 12268 net.cpp:150] Setting up bn2
I1013 10:02:42.679687 12268 net.cpp:157] Top shape: 64 192 9 9 (995328)
I1013 10:02:42.679689 12268 net.cpp:165] Memory required for data: 135144192
I1013 10:02:42.679694 12268 layer_factory.hpp:77] Creating layer relu5
I1013 10:02:42.679697 12268 net.cpp:100] Creating Layer relu5
I1013 10:02:42.679699 12268 net.cpp:434] relu5 <- bn2
I1013 10:02:42.679702 12268 net.cpp:395] relu5 -> bn2 (in-place)
I1013 10:02:42.679878 12268 net.cpp:150] Setting up relu5
I1013 10:02:42.679883 12268 net.cpp:157] Top shape: 64 192 9 9 (995328)
I1013 10:02:42.679885 12268 net.cpp:165] Memory required for data: 139125504
I1013 10:02:42.679896 12268 layer_factory.hpp:77] Creating layer conv6
I1013 10:02:42.679903 12268 net.cpp:100] Creating Layer conv6
I1013 10:02:42.679904 12268 net.cpp:434] conv6 <- bn2
I1013 10:02:42.679908 12268 net.cpp:408] conv6 -> conv6
I1013 10:02:42.682389 12268 net.cpp:150] Setting up conv6
I1013 10:02:42.682413 12268 net.cpp:157] Top shape: 64 192 4 4 (196608)
I1013 10:02:42.682420 12268 net.cpp:165] Memory required for data: 139911936
I1013 10:02:42.682430 12268 layer_factory.hpp:77] Creating layer drop4
I1013 10:02:42.682435 12268 net.cpp:100] Creating Layer drop4
I1013 10:02:42.682438 12268 net.cpp:434] drop4 <- conv6
I1013 10:02:42.682442 12268 net.cpp:408] drop4 -> drop4
I1013 10:02:42.682515 12268 net.cpp:150] Setting up drop4
I1013 10:02:42.682531 12268 net.cpp:157] Top shape: 64 192 4 4 (196608)
I1013 10:02:42.682533 12268 net.cpp:165] Memory required for data: 140698368
I1013 10:02:42.682535 12268 layer_factory.hpp:77] Creating layer relu6
I1013 10:02:42.682554 12268 net.cpp:100] Creating Layer relu6
I1013 10:02:42.682555 12268 net.cpp:434] relu6 <- drop4
I1013 10:02:42.682559 12268 net.cpp:395] relu6 -> drop4 (in-place)
I1013 10:02:42.682826 12268 net.cpp:150] Setting up relu6
I1013 10:02:42.682849 12268 net.cpp:157] Top shape: 64 192 4 4 (196608)
I1013 10:02:42.682852 12268 net.cpp:165] Memory required for data: 141484800
I1013 10:02:42.682853 12268 layer_factory.hpp:77] Creating layer conv7
I1013 10:02:42.682859 12268 net.cpp:100] Creating Layer conv7
I1013 10:02:42.682862 12268 net.cpp:434] conv7 <- drop4
I1013 10:02:42.682867 12268 net.cpp:408] conv7 -> conv7
I1013 10:02:42.686100 12268 net.cpp:150] Setting up conv7
I1013 10:02:42.686116 12268 net.cpp:157] Top shape: 64 192 2 2 (49152)
I1013 10:02:42.686120 12268 net.cpp:165] Memory required for data: 141681408
I1013 10:02:42.686125 12268 layer_factory.hpp:77] Creating layer relu7
I1013 10:02:42.686131 12268 net.cpp:100] Creating Layer relu7
I1013 10:02:42.686132 12268 net.cpp:434] relu7 <- conv7
I1013 10:02:42.686137 12268 net.cpp:395] relu7 -> conv7 (in-place)
I1013 10:02:42.686393 12268 net.cpp:150] Setting up relu7
I1013 10:02:42.686401 12268 net.cpp:157] Top shape: 64 192 2 2 (49152)
I1013 10:02:42.686403 12268 net.cpp:165] Memory required for data: 141878016
I1013 10:02:42.686405 12268 layer_factory.hpp:77] Creating layer conv8
I1013 10:02:42.686414 12268 net.cpp:100] Creating Layer conv8
I1013 10:02:42.686421 12268 net.cpp:434] conv8 <- conv7
I1013 10:02:42.686426 12268 net.cpp:408] conv8 -> conv8
I1013 10:02:42.687671 12268 net.cpp:150] Setting up conv8
I1013 10:02:42.687681 12268 net.cpp:157] Top shape: 64 192 2 2 (49152)
I1013 10:02:42.687685 12268 net.cpp:165] Memory required for data: 142074624
I1013 10:02:42.687688 12268 layer_factory.hpp:77] Creating layer relu8
I1013 10:02:42.687692 12268 net.cpp:100] Creating Layer relu8
I1013 10:02:42.687695 12268 net.cpp:434] relu8 <- conv8
I1013 10:02:42.687697 12268 net.cpp:395] relu8 -> conv8 (in-place)
I1013 10:02:42.687866 12268 net.cpp:150] Setting up relu8
I1013 10:02:42.687872 12268 net.cpp:157] Top shape: 64 192 2 2 (49152)
I1013 10:02:42.687875 12268 net.cpp:165] Memory required for data: 142271232
I1013 10:02:42.687876 12268 layer_factory.hpp:77] Creating layer conv9
I1013 10:02:42.687882 12268 net.cpp:100] Creating Layer conv9
I1013 10:02:42.687885 12268 net.cpp:434] conv9 <- conv8
I1013 10:02:42.687888 12268 net.cpp:408] conv9 -> conv9
I1013 10:02:42.688706 12268 net.cpp:150] Setting up conv9
I1013 10:02:42.688715 12268 net.cpp:157] Top shape: 64 10 2 2 (2560)
I1013 10:02:42.688719 12268 net.cpp:165] Memory required for data: 142281472
I1013 10:02:42.688722 12268 layer_factory.hpp:77] Creating layer relu9
I1013 10:02:42.688727 12268 net.cpp:100] Creating Layer relu9
I1013 10:02:42.688730 12268 net.cpp:434] relu9 <- conv9
I1013 10:02:42.688732 12268 net.cpp:395] relu9 -> conv9 (in-place)
I1013 10:02:42.688982 12268 net.cpp:150] Setting up relu9
I1013 10:02:42.688989 12268 net.cpp:157] Top shape: 64 10 2 2 (2560)
I1013 10:02:42.688992 12268 net.cpp:165] Memory required for data: 142291712
I1013 10:02:42.689003 12268 layer_factory.hpp:77] Creating layer pool
I1013 10:02:42.689009 12268 net.cpp:100] Creating Layer pool
I1013 10:02:42.689012 12268 net.cpp:434] pool <- conv9
I1013 10:02:42.689014 12268 net.cpp:408] pool -> pool
I1013 10:02:42.689210 12268 net.cpp:150] Setting up pool
I1013 10:02:42.689216 12268 net.cpp:157] Top shape: 64 10 1 1 (640)
I1013 10:02:42.689218 12268 net.cpp:165] Memory required for data: 142294272
I1013 10:02:42.689220 12268 layer_factory.hpp:77] Creating layer flatten
I1013 10:02:42.689224 12268 net.cpp:100] Creating Layer flatten
I1013 10:02:42.689226 12268 net.cpp:434] flatten <- pool
I1013 10:02:42.689229 12268 net.cpp:408] flatten -> flatten
I1013 10:02:42.689249 12268 net.cpp:150] Setting up flatten
I1013 10:02:42.689266 12268 net.cpp:157] Top shape: 64 10 (640)
I1013 10:02:42.689268 12268 net.cpp:165] Memory required for data: 142296832
I1013 10:02:42.689270 12268 layer_factory.hpp:77] Creating layer score
I1013 10:02:42.689275 12268 net.cpp:100] Creating Layer score
I1013 10:02:42.689277 12268 net.cpp:434] score <- flatten
I1013 10:02:42.689280 12268 net.cpp:408] score -> score
I1013 10:02:42.689424 12268 net.cpp:150] Setting up score
I1013 10:02:42.689427 12268 net.cpp:157] Top shape: 64 10 (640)
I1013 10:02:42.689429 12268 net.cpp:165] Memory required for data: 142299392
I1013 10:02:42.689434 12268 layer_factory.hpp:77] Creating layer score_score_0_split
I1013 10:02:42.689438 12268 net.cpp:100] Creating Layer score_score_0_split
I1013 10:02:42.689440 12268 net.cpp:434] score_score_0_split <- score
I1013 10:02:42.689443 12268 net.cpp:408] score_score_0_split -> score_score_0_split_0
I1013 10:02:42.689448 12268 net.cpp:408] score_score_0_split -> score_score_0_split_1
I1013 10:02:42.689488 12268 net.cpp:150] Setting up score_score_0_split
I1013 10:02:42.689492 12268 net.cpp:157] Top shape: 64 10 (640)
I1013 10:02:42.689496 12268 net.cpp:157] Top shape: 64 10 (640)
I1013 10:02:42.689496 12268 net.cpp:165] Memory required for data: 142304512
I1013 10:02:42.689499 12268 layer_factory.hpp:77] Creating layer accuracy
I1013 10:02:42.689518 12268 net.cpp:100] Creating Layer accuracy
I1013 10:02:42.689520 12268 net.cpp:434] accuracy <- score_score_0_split_0
I1013 10:02:42.689537 12268 net.cpp:434] accuracy <- label_data_1_split_0
I1013 10:02:42.689539 12268 net.cpp:408] accuracy -> accuracy
…
I1013 10:02:42.690119 12268 net.cpp:283] Network initialization done.
I1013 10:02:42.690311 12268 solver.cpp:181] Creating test net (#0) specified by test_net file: /home/adam/Honours/Honours-Project/cifar-10_allcnn/leakyrelu/allcnn_leakyrelu_test.prototxt
I1013 10:02:42.690538 12268 net.cpp:58] Initializing net from parameters: 
state {
  phase: TEST
}
layer {
  name: "data"
  type: "Data"
  top: "data"
  top: "label"
  transform_param {
    mean_file: "mean.binaryproto"
  }
  data_param {
    source: "../../../data/cifar-10/cifar10_test_lmdb"
    batch_size: 100
    backend: LMDB
  }
}
layer {
  name: "conv1"
  type: "Convolution"
  bottom: "data"
  top: "conv1"
  convolution_param {
    num_output: 96
    kernel_size: 3
    weight_filler {
      type: "xavier"
    }
  }
}
layer {
  name: "relu1"
  type: "ReLU"
  bottom: "conv1"
  top: "conv1"
  relu_param {
    negative_slope: 0.01
  }
}
layer {
  name: "conv2"
  type: "Convolution"
  bottom: "conv1"
  top: "conv2"
  convolution_param {
    num_output: 96
    kernel_size: 3
    weight_filler {
      type: "xavier"
    }
  }
}
layer {
  name: "bn1"
  type: "BatchNorm"
  bottom: "conv2"
  top: "bn1"
}
layer {
  name: "relu2"
  type: "ReLU"
  bottom: "bn1"
  top: "bn1"
  relu_param {
    negative_slope: 0.01
  }
}
layer {
  name: "conv3"
  type: "Convolution"
  bottom: "bn1"
  top: "conv3"
  convolution_param {
    num_output: 96
    kernel_size: 3
    stride: 2
    weight_filler {
      type: "xavier"
    }
  }
}
layer {
  name: "drop1"
  type: "Dropout"
  bottom: "conv3"
  top: "drop1"
  dropout_param {
    dropout_ratio: 0.5
  }
}
layer {
  name: "relu3"
  type: "ReLU"
  bottom: "drop1"
  top: "drop1"
  relu_param {
    negative_slope: 0.01
  }
}
layer {
  name: "conv4"
  type: "Convolution"
  bottom: "drop1"
  top: "conv4"
  convolution_param {
    num_output: 192
    kernel_size: 3
    weight_filler {
      type: "xavier"
    }
  }
}
layer {
  name: "relu4"
  type: "ReLU"
  bottom: "conv4"
  top: "conv4"
  relu_param {
    negative_slope: 0.01
  }
}
layer {
  name: "conv5"
  type: "Convolution"
  bottom: "conv4"
  top: "conv5"
  convolution_param {
    num_output: 192
    kernel_size: 3
    weight_filler {
      type: "xavier"
    }
  }
}
layer {
  name: "bn2"
  type: "BatchNorm"
  bottom: "conv5"
  top: "bn2"
}
layer {
  name: "relu5"
  type: "ReLU"
  bottom: "bn2"
  top: "bn2"
  relu_param {
    negative_slope: 0.01
  }
}
layer {
  name: "conv6"
  type: "Convolution"
  bottom: "bn2"
  top: "conv6"
  convolution_param {
    num_output: 192
    kernel_size: 3
    stride: 2
    weight_filler {
      type: "xavier"
    }
  }
}
layer {
  name: "drop4"
  type: "Dropout"
  bottom: "conv6"
  top: "drop4"
  dropout_param {
    dropout_ratio: 0.5
  }
}
layer {
  name: "relu6"
  type: "ReLU"
  bottom: "drop4"
  top: "drop4"
  relu_param {
    negative_slope: 0.01
  }
}
layer {
  name: "conv7"
  type: "Convolution"
  bottom: "drop4"
  top: "conv7"
  convolution_param {
    num_output: 192
    kernel_size: 3
    weight_filler {
      type: "xavier"
    }
  }
}
layer {
  name: "relu7"
  type: "ReLU"
  bottom: "conv7"
  top: "conv7"
  relu_param {
    negative_slope: 0.01
  }
}
layer {
  name: "conv8"
  type: "Convolution"
  bottom: "conv7"
  top: "conv8"
  convolution_param {
    num_output: 192
    kernel_size: 1
    weight_filler {
      type: "xavier"
    }
  }
}
layer {
  name: "relu8"
  type: "ReLU"
  bottom: "conv8"
  top: "conv8"
  relu_param {
    negative_slope: 0.01
  }
}
layer {
  name: "conv9"
  type: "Convolution"
  bottom: "conv8"
  top: "conv9"
  convolution_param {
    num_output: 10
    kernel_size: 1
    weight_filler {
      type: "xavier"
    }
  }
}
layer {
  name: "relu9"
  type: "ReLU"
  bottom: "conv9"
  top: "conv9"
  relu_param {
    negative_slope: 0.01
  }
}
layer {
  name: "pool"
  type: "Pooling"
  bottom: "conv9"
  top: "pool"
  pooling_param {
    pool: AVE
    global_pooling: true
  }
}
layer {
  name: "flatten"
  type: "Flatten"
  bottom: "pool"
  top: "flatten"
}
layer {
  name: "score"
  type: "InnerProduct"
  bottom: "flatten"
  top: "score"
  inner_product_param {
    num_output: 10
    weight_filler {
      type: "gaussian"
    }
  }
}
layer {
  name: "accuracy"
  type: "Accuracy"
  bottom: "score"
  bottom: "label"
  top: "accuracy"
}
layer {
  name: "loss"
  type: "SoftmaxWithLoss"
  bottom: "score"
  bottom: "label"
  top: "loss"
}
I1013 10:02:42.690672 12268 layer_factory.hpp:77] Creating layer data
I1013 10:02:42.690755 12268 net.cpp:100] Creating Layer data
I1013 10:02:42.690769 12268 net.cpp:408] data -> data
I1013 10:02:42.690778 12268 net.cpp:408] data -> label
I1013 10:02:42.690783 12268 data_transformer.cpp:25] Loading mean file from: mean.binaryproto
I1013 10:02:42.691426 12275 db_lmdb.cpp:35] Opened lmdb ../../../data/cifar-10/cifar10_test_lmdb
I1013 10:02:42.691586 12268 data_layer.cpp:41] output data size: 100,3,32,32
I1013 10:02:42.693482 12268 net.cpp:150] Setting up data
I1013 10:02:42.693501 12268 net.cpp:157] Top shape: 100 3 32 32 (307200)
I1013 10:02:42.693506 12268 net.cpp:157] Top shape: 100 (100)
I1013 10:02:42.693507 12268 net.cpp:165] Memory required for data: 1229200
I1013 10:02:42.693511 12268 layer_factory.hpp:77] Creating layer label_data_1_split
I1013 10:02:42.693534 12268 net.cpp:100] Creating Layer label_data_1_split
I1013 10:02:42.693537 12268 net.cpp:434] label_data_1_split <- label
I1013 10:02:42.693557 12268 net.cpp:408] label_data_1_split -> label_data_1_split_0
I1013 10:02:42.693564 12268 net.cpp:408] label_data_1_split -> label_data_1_split_1
I1013 10:02:42.693681 12268 net.cpp:150] Setting up label_data_1_split
I1013 10:02:42.693686 12268 net.cpp:157] Top shape: 100 (100)
I1013 10:02:42.693688 12268 net.cpp:157] Top shape: 100 (100)
I1013 10:02:42.693691 12268 net.cpp:165] Memory required for data: 1230000
I1013 10:02:42.693692 12268 layer_factory.hpp:77] Creating layer conv1
I1013 10:02:42.693716 12268 net.cpp:100] Creating Layer conv1
I1013 10:02:42.693718 12268 net.cpp:434] conv1 <- data
I1013 10:02:42.693735 12268 net.cpp:408] conv1 -> conv1
I1013 10:02:42.694983 12268 net.cpp:150] Setting up conv1
I1013 10:02:42.694994 12268 net.cpp:157] Top shape: 100 96 30 30 (8640000)
I1013 10:02:42.694996 12268 net.cpp:165] Memory required for data: 35790000
I1013 10:02:42.695005 12268 layer_factory.hpp:77] Creating layer relu1
I1013 10:02:42.695013 12268 net.cpp:100] Creating Layer relu1
I1013 10:02:42.695016 12268 net.cpp:434] relu1 <- conv1
I1013 10:02:42.695024 12268 net.cpp:395] relu1 -> conv1 (in-place)
I1013 10:02:42.695189 12268 net.cpp:150] Setting up relu1
I1013 10:02:42.695205 12268 net.cpp:157] Top shape: 100 96 30 30 (8640000)
I1013 10:02:42.695225 12268 net.cpp:165] Memory required for data: 70350000
I1013 10:02:42.695227 12268 layer_factory.hpp:77] Creating layer conv2
I1013 10:02:42.695235 12268 net.cpp:100] Creating Layer conv2
I1013 10:02:42.695240 12268 net.cpp:434] conv2 <- conv1
I1013 10:02:42.695243 12268 net.cpp:408] conv2 -> conv2
I1013 10:02:42.696497 12268 net.cpp:150] Setting up conv2
I1013 10:02:42.696522 12268 net.cpp:157] Top shape: 100 96 28 28 (7526400)
I1013 10:02:42.696524 12268 net.cpp:165] Memory required for data: 100455600
I1013 10:02:42.696532 12268 layer_factory.hpp:77] Creating layer bn1
I1013 10:02:42.696537 12268 net.cpp:100] Creating Layer bn1
I1013 10:02:42.696542 12268 net.cpp:434] bn1 <- conv2
I1013 10:02:42.696560 12268 net.cpp:408] bn1 -> bn1
I1013 10:02:42.696769 12268 net.cpp:150] Setting up bn1
I1013 10:02:42.696774 12268 net.cpp:157] Top shape: 100 96 28 28 (7526400)
I1013 10:02:42.696790 12268 net.cpp:165] Memory required for data: 130561200
I1013 10:02:42.696796 12268 layer_factory.hpp:77] Creating layer relu2
I1013 10:02:42.696813 12268 net.cpp:100] Creating Layer relu2
I1013 10:02:42.696816 12268 net.cpp:434] relu2 <- bn1
I1013 10:02:42.696820 12268 net.cpp:395] relu2 -> bn1 (in-place)
I1013 10:02:42.697182 12268 net.cpp:150] Setting up relu2
I1013 10:02:42.697204 12268 net.cpp:157] Top shape: 100 96 28 28 (7526400)
I1013 10:02:42.697206 12268 net.cpp:165] Memory required for data: 160666800
I1013 10:02:42.697208 12268 layer_factory.hpp:77] Creating layer conv3
I1013 10:02:42.697216 12268 net.cpp:100] Creating Layer conv3
I1013 10:02:42.697218 12268 net.cpp:434] conv3 <- bn1
I1013 10:02:42.697222 12268 net.cpp:408] conv3 -> conv3
I1013 10:02:42.698371 12268 net.cpp:150] Setting up conv3
I1013 10:02:42.698379 12268 net.cpp:157] Top shape: 100 96 13 13 (1622400)
I1013 10:02:42.698382 12268 net.cpp:165] Memory required for data: 167156400
I1013 10:02:42.698388 12268 layer_factory.hpp:77] Creating layer drop1
I1013 10:02:42.698395 12268 net.cpp:100] Creating Layer drop1
I1013 10:02:42.698397 12268 net.cpp:434] drop1 <- conv3
I1013 10:02:42.698401 12268 net.cpp:408] drop1 -> drop1
I1013 10:02:42.698441 12268 net.cpp:150] Setting up drop1
I1013 10:02:42.698446 12268 net.cpp:157] Top shape: 100 96 13 13 (1622400)
I1013 10:02:42.698448 12268 net.cpp:165] Memory required for data: 173646000
I1013 10:02:42.698451 12268 layer_factory.hpp:77] Creating layer relu3
I1013 10:02:42.698454 12268 net.cpp:100] Creating Layer relu3
I1013 10:02:42.698457 12268 net.cpp:434] relu3 <- drop1
I1013 10:02:42.698460 12268 net.cpp:395] relu3 -> drop1 (in-place)
I1013 10:02:42.698684 12268 net.cpp:150] Setting up relu3
I1013 10:02:42.698691 12268 net.cpp:157] Top shape: 100 96 13 13 (1622400)
I1013 10:02:42.698693 12268 net.cpp:165] Memory required for data: 180135600
I1013 10:02:42.698695 12268 layer_factory.hpp:77] Creating layer conv4
I1013 10:02:42.698701 12268 net.cpp:100] Creating Layer conv4
I1013 10:02:42.698704 12268 net.cpp:434] conv4 <- drop1
I1013 10:02:42.698709 12268 net.cpp:408] conv4 -> conv4
I1013 10:02:42.701544 12268 net.cpp:150] Setting up conv4
I1013 10:02:42.701573 12268 net.cpp:157] Top shape: 100 192 11 11 (2323200)
I1013 10:02:42.701575 12268 net.cpp:165] Memory required for data: 189428400
I1013 10:02:42.701581 12268 layer_factory.hpp:77] Creating layer relu4
I1013 10:02:42.701588 12268 net.cpp:100] Creating Layer relu4
I1013 10:02:42.701591 12268 net.cpp:434] relu4 <- conv4
I1013 10:02:42.701594 12268 net.cpp:395] relu4 -> conv4 (in-place)
I1013 10:02:42.701786 12268 net.cpp:150] Setting up relu4
I1013 10:02:42.701792 12268 net.cpp:157] Top shape: 100 192 11 11 (2323200)
I1013 10:02:42.701808 12268 net.cpp:165] Memory required for data: 198721200
I1013 10:02:42.701810 12268 layer_factory.hpp:77] Creating layer conv5
I1013 10:02:42.701830 12268 net.cpp:100] Creating Layer conv5
I1013 10:02:42.701833 12268 net.cpp:434] conv5 <- conv4
I1013 10:02:42.701835 12268 net.cpp:408] conv5 -> conv5
I1013 10:02:42.704586 12268 net.cpp:150] Setting up conv5
I1013 10:02:42.704596 12268 net.cpp:157] Top shape: 100 192 9 9 (1555200)
I1013 10:02:42.704599 12268 net.cpp:165] Memory required for data: 204942000
I1013 10:02:42.704603 12268 layer_factory.hpp:77] Creating layer bn2
I1013 10:02:42.704608 12268 net.cpp:100] Creating Layer bn2
I1013 10:02:42.704612 12268 net.cpp:434] bn2 <- conv5
I1013 10:02:42.704614 12268 net.cpp:408] bn2 -> bn2
I1013 10:02:42.704828 12268 net.cpp:150] Setting up bn2
I1013 10:02:42.704833 12268 net.cpp:157] Top shape: 100 192 9 9 (1555200)
I1013 10:02:42.704834 12268 net.cpp:165] Memory required for data: 211162800
I1013 10:02:42.704839 12268 layer_factory.hpp:77] Creating layer relu5
I1013 10:02:42.704843 12268 net.cpp:100] Creating Layer relu5
I1013 10:02:42.704845 12268 net.cpp:434] relu5 <- bn2
I1013 10:02:42.704849 12268 net.cpp:395] relu5 -> bn2 (in-place)
I1013 10:02:42.705122 12268 net.cpp:150] Setting up relu5
I1013 10:02:42.705130 12268 net.cpp:157] Top shape: 100 192 9 9 (1555200)
I1013 10:02:42.705133 12268 net.cpp:165] Memory required for data: 217383600
I1013 10:02:42.705135 12268 layer_factory.hpp:77] Creating layer conv6
I1013 10:02:42.705142 12268 net.cpp:100] Creating Layer conv6
I1013 10:02:42.705143 12268 net.cpp:434] conv6 <- bn2
I1013 10:02:42.705147 12268 net.cpp:408] conv6 -> conv6
I1013 10:02:42.707655 12268 net.cpp:150] Setting up conv6
I1013 10:02:42.707666 12268 net.cpp:157] Top shape: 100 192 4 4 (307200)
I1013 10:02:42.707669 12268 net.cpp:165] Memory required for data: 218612400
I1013 10:02:42.707676 12268 layer_factory.hpp:77] Creating layer drop4
I1013 10:02:42.707684 12268 net.cpp:100] Creating Layer drop4
I1013 10:02:42.707686 12268 net.cpp:434] drop4 <- conv6
I1013 10:02:42.707690 12268 net.cpp:408] drop4 -> drop4
I1013 10:02:42.707751 12268 net.cpp:150] Setting up drop4
I1013 10:02:42.707768 12268 net.cpp:157] Top shape: 100 192 4 4 (307200)
I1013 10:02:42.707770 12268 net.cpp:165] Memory required for data: 219841200
I1013 10:02:42.707772 12268 layer_factory.hpp:77] Creating layer relu6
I1013 10:02:42.707777 12268 net.cpp:100] Creating Layer relu6
I1013 10:02:42.707792 12268 net.cpp:434] relu6 <- drop4
I1013 10:02:42.707795 12268 net.cpp:395] relu6 -> drop4 (in-place)
I1013 10:02:42.708068 12268 net.cpp:150] Setting up relu6
I1013 10:02:42.708076 12268 net.cpp:157] Top shape: 100 192 4 4 (307200)
I1013 10:02:42.708078 12268 net.cpp:165] Memory required for data: 221070000
I1013 10:02:42.708081 12268 layer_factory.hpp:77] Creating layer conv7
I1013 10:02:42.708086 12268 net.cpp:100] Creating Layer conv7
I1013 10:02:42.708088 12268 net.cpp:434] conv7 <- drop4
I1013 10:02:42.708093 12268 net.cpp:408] conv7 -> conv7
I1013 10:02:42.710650 12268 net.cpp:150] Setting up conv7
I1013 10:02:42.710660 12268 net.cpp:157] Top shape: 100 192 2 2 (76800)
I1013 10:02:42.710662 12268 net.cpp:165] Memory required for data: 221377200
I1013 10:02:42.710667 12268 layer_factory.hpp:77] Creating layer relu7
I1013 10:02:42.710671 12268 net.cpp:100] Creating Layer relu7
I1013 10:02:42.710675 12268 net.cpp:434] relu7 <- conv7
I1013 10:02:42.710677 12268 net.cpp:395] relu7 -> conv7 (in-place)
I1013 10:02:42.710849 12268 net.cpp:150] Setting up relu7
I1013 10:02:42.710855 12268 net.cpp:157] Top shape: 100 192 2 2 (76800)
I1013 10:02:42.710856 12268 net.cpp:165] Memory required for data: 221684400
I1013 10:02:42.710858 12268 layer_factory.hpp:77] Creating layer conv8
I1013 10:02:42.710865 12268 net.cpp:100] Creating Layer conv8
I1013 10:02:42.710867 12268 net.cpp:434] conv8 <- conv7
I1013 10:02:42.710870 12268 net.cpp:408] conv8 -> conv8
I1013 10:02:42.711848 12268 net.cpp:150] Setting up conv8
I1013 10:02:42.711855 12268 net.cpp:157] Top shape: 100 192 2 2 (76800)
I1013 10:02:42.711858 12268 net.cpp:165] Memory required for data: 221991600
I1013 10:02:42.711863 12268 layer_factory.hpp:77] Creating layer relu8
I1013 10:02:42.711866 12268 net.cpp:100] Creating Layer relu8
I1013 10:02:42.711869 12268 net.cpp:434] relu8 <- conv8
I1013 10:02:42.711872 12268 net.cpp:395] relu8 -> conv8 (in-place)
I1013 10:02:42.712143 12268 net.cpp:150] Setting up relu8
I1013 10:02:42.712152 12268 net.cpp:157] Top shape: 100 192 2 2 (76800)
I1013 10:02:42.712153 12268 net.cpp:165] Memory required for data: 222298800
I1013 10:02:42.712155 12268 layer_factory.hpp:77] Creating layer conv9
I1013 10:02:42.712162 12268 net.cpp:100] Creating Layer conv9
I1013 10:02:42.712163 12268 net.cpp:434] conv9 <- conv8
I1013 10:02:42.712168 12268 net.cpp:408] conv9 -> conv9
I1013 10:02:42.712924 12268 net.cpp:150] Setting up conv9
I1013 10:02:42.712932 12268 net.cpp:157] Top shape: 100 10 2 2 (4000)
I1013 10:02:42.712935 12268 net.cpp:165] Memory required for data: 222314800
I1013 10:02:42.712939 12268 layer_factory.hpp:77] Creating layer relu9
I1013 10:02:42.712944 12268 net.cpp:100] Creating Layer relu9
I1013 10:02:42.712946 12268 net.cpp:434] relu9 <- conv9
I1013 10:02:42.712949 12268 net.cpp:395] relu9 -> conv9 (in-place)
I1013 10:02:42.713222 12268 net.cpp:150] Setting up relu9
I1013 10:02:42.713229 12268 net.cpp:157] Top shape: 100 10 2 2 (4000)
I1013 10:02:42.713232 12268 net.cpp:165] Memory required for data: 222330800
I1013 10:02:42.713233 12268 layer_factory.hpp:77] Creating layer pool
I1013 10:02:42.713238 12268 net.cpp:100] Creating Layer pool
I1013 10:02:42.713240 12268 net.cpp:434] pool <- conv9
I1013 10:02:42.713243 12268 net.cpp:408] pool -> pool
I1013 10:02:42.713428 12268 net.cpp:150] Setting up pool
I1013 10:02:42.713433 12268 net.cpp:157] Top shape: 100 10 1 1 (1000)
I1013 10:02:42.713435 12268 net.cpp:165] Memory required for data: 222334800
I1013 10:02:42.713438 12268 layer_factory.hpp:77] Creating layer flatten
I1013 10:02:42.713440 12268 net.cpp:100] Creating Layer flatten
I1013 10:02:42.713443 12268 net.cpp:434] flatten <- pool
I1013 10:02:42.713446 12268 net.cpp:408] flatten -> flatten
I1013 10:02:42.713466 12268 net.cpp:150] Setting up flatten
I1013 10:02:42.713482 12268 net.cpp:157] Top shape: 100 10 (1000)
I1013 10:02:42.713485 12268 net.cpp:165] Memory required for data: 222338800
I1013 10:02:42.713486 12268 layer_factory.hpp:77] Creating layer score
I1013 10:02:42.713491 12268 net.cpp:100] Creating Layer score
I1013 10:02:42.713495 12268 net.cpp:434] score <- flatten
I1013 10:02:42.713515 12268 net.cpp:408] score -> score
I1013 10:02:42.713659 12268 net.cpp:150] Setting up score
I1013 10:02:42.713663 12268 net.cpp:157] Top shape: 100 10 (1000)
I1013 10:02:42.713680 12268 net.cpp:165] Memory required for data: 222342800
I1013 10:02:42.713683 12268 layer_factory.hpp:77] Creating layer score_score_0_split
I1013 10:02:42.713687 12268 net.cpp:100] Creating Layer score_score_0_split
I1013 10:02:42.713690 12268 net.cpp:434] score_score_0_split <- score
I1013 10:02:42.713693 12268 net.cpp:408] score_score_0_split -> score_score_0_split_0
I1013 10:02:42.713699 12268 net.cpp:408] score_score_0_split -> score_score_0_split_1
I1013 10:02:42.713768 12268 net.cpp:150] Setting up score_score_0_split
I1013 10:02:42.713773 12268 net.cpp:157] Top shape: 100 10 (1000)
I1013 10:02:42.713788 12268 net.cpp:157] Top shape: 100 10 (1000)
I1013 10:02:42.713789 12268 net.cpp:165] Memory required for data: 222350800
I1013 10:02:42.713791 12268 layer_factory.hpp:77] Creating layer accuracy
I1013 10:02:42.713809 12268 net.cpp:100] Creating Layer accuracy
I1013 10:02:42.713811 12268 net.cpp:434] accuracy <- score_score_0_split_0
I1013 10:02:42.713814 12268 net.cpp:434] accuracy <- label_data_1_split_0
I1013 10:02:42.713817 12268 net.cpp:408] accuracy -> accuracy
…
