…
  stage: ""
}
type: "AdaGrad"
I1010 14:35:16.445966  5852 solver.cpp:81] Creating training net from train_net file: /home/adam/Honours/Honours-Project/cifar-10_allcnn/relu/allcnn_relu_train.prototxt
I1010 14:35:16.446283  5852 net.cpp:58] Initializing net from parameters: 
state {
  phase: TRAIN
  level: 0
  stage: ""
}
layer {
  name: "data"
  type: "Data"
  top: "data"
  top: "label"
  transform_param {
    mean_file: "mean.binaryproto"
  }
  data_param {
    source: "../../../data/cifar-10/cifar10_train_lmdb"
    batch_size: 64
    backend: LMDB
  }
}
layer {
  name: "conv1"
  type: "Convolution"
  bottom: "data"
  top: "conv1"
  convolution_param {
    num_output: 96
    kernel_size: 3
    weight_filler {
      type: "xavier"
    }
  }
}
layer {
  name: "relu1"
  type: "ReLU"
  bottom: "conv1"
  top: "conv1"
}
layer {
  name: "conv2"
  type: "Convolution"
  bottom: "conv1"
  top: "conv2"
  convolution_param {
    num_output: 96
    kernel_size: 3
    weight_filler {
      type: "xavier"
    }
  }
}
layer {
  name: "bn1"
  type: "BatchNorm"
  bottom: "conv2"
  top: "bn1"
}
layer {
  name: "relu2"
  type: "ReLU"
  bottom: "bn1"
  top: "bn1"
}
layer {
  name: "drop1"
  type: "Dropout"
  bottom: "bn1"
  top: "drop1"
  dropout_param {
    dropout_ratio: 0.5
  }
}
layer {
  name: "conv3"
  type: "Convolution"
  bottom: "drop1"
  top: "conv3"
  convolution_param {
    num_output: 96
    kernel_size: 3
    stride: 2
    weight_filler {
      type: "xavier"
    }
  }
}
layer {
  name: "relu3"
  type: "ReLU"
  bottom: "conv3"
  top: "conv3"
}
layer {
  name: "conv4"
  type: "Convolution"
  bottom: "conv3"
  top: "conv4"
  convolution_param {
    num_output: 192
    kernel_size: 3
    weight_filler {
      type: "xavier"
    }
  }
}
layer {
  name: "relu4"
  type: "ReLU"
  bottom: "conv4"
  top: "conv4"
}
layer {
  name: "conv5"
  type: "Convolution"
  bottom: "conv4"
  top: "conv5"
  convolution_param {
    num_output: 192
    kernel_size: 3
    weight_filler {
      type: "xavier"
    }
  }
}
layer {
  name: "bn2"
  type: "BatchNorm"
  bottom: "conv5"
  top: "bn2"
}
layer {
  name: "relu5"
  type: "ReLU"
  bottom: "bn2"
  top: "bn2"
}
layer {
  name: "drop4"
  type: "Dropout"
  bottom: "bn2"
  top: "drop4"
  dropout_param {
    dropout_ratio: 0.5
  }
}
layer {
  name: "conv6"
  type: "Convolution"
  bottom: "drop4"
  top: "conv6"
  convolution_param {
    num_output: 192
    kernel_size: 3
    stride: 2
    weight_filler {
      type: "xavier"
    }
  }
}
layer {
  name: "relu6"
  type: "ReLU"
  bottom: "conv6"
  top: "conv6"
}
layer {
  name: "conv7"
  type: "Convolution"
  bottom: "conv6"
  top: "conv7"
  convolution_param {
    num_output: 192
    kernel_size: 3
    weight_filler {
      type: "xavier"
    }
  }
}
layer {
  name: "relu7"
  type: "ReLU"
  bottom: "conv7"
  top: "conv7"
}
layer {
  name: "conv8"
  type: "Convolution"
  bottom: "conv7"
  top: "conv8"
  convolution_param {
    num_output: 192
    kernel_size: 1
    weight_filler {
      type: "xavier"
    }
  }
}
layer {
  name: "relu8"
  type: "ReLU"
  bottom: "conv8"
  top: "conv8"
}
layer {
  name: "conv9"
  type: "Convolution"
  bottom: "conv8"
  top: "conv9"
  convolution_param {
    num_output: 10
    kernel_size: 1
    weight_filler {
      type: "xavier"
    }
  }
}
layer {
  name: "relu9"
  type: "ReLU"
  bottom: "conv9"
  top: "conv9"
}
layer {
  name: "pool"
  type: "Pooling"
  bottom: "conv9"
  top: "pool"
  pooling_param {
    pool: AVE
    global_pooling: true
  }
}
layer {
  name: "flatten"
  type: "Flatten"
  bottom: "pool"
  top: "flatten"
}
layer {
  name: "score"
  type: "InnerProduct"
  bottom: "flatten"
  top: "score"
  inner_product_param {
    num_output: 10
    weight_filler {
      type: "gaussian"
    }
  }
}
layer {
  name: "accuracy"
  type: "Accuracy"
  bottom: "score"
  bottom: "label"
  top: "accuracy"
}
layer {
  name: "loss"
  type: "SoftmaxWithLoss"
  bottom: "score"
  bottom: "label"
  top: "loss"
}
I1010 14:35:16.446442  5852 layer_factory.hpp:77] Creating layer data
I1010 14:35:16.446877  5852 net.cpp:100] Creating Layer data
I1010 14:35:16.446899  5852 net.cpp:408] data -> data
I1010 14:35:16.446929  5852 net.cpp:408] data -> label
I1010 14:35:16.446954  5852 data_transformer.cpp:25] Loading mean file from: mean.binaryproto
I1010 14:35:16.447600  5857 db_lmdb.cpp:35] Opened lmdb ../../../data/cifar-10/cifar10_train_lmdb
I1010 14:35:16.454064  5852 data_layer.cpp:41] output data size: 64,3,32,32
I1010 14:35:16.455708  5852 net.cpp:150] Setting up data
I1010 14:35:16.455726  5852 net.cpp:157] Top shape: 64 3 32 32 (196608)
I1010 14:35:16.455730  5852 net.cpp:157] Top shape: 64 (64)
I1010 14:35:16.455732  5852 net.cpp:165] Memory required for data: 786688
I1010 14:35:16.455754  5852 layer_factory.hpp:77] Creating layer label_data_1_split
I1010 14:35:16.455776  5852 net.cpp:100] Creating Layer label_data_1_split
I1010 14:35:16.455780  5852 net.cpp:434] label_data_1_split <- label
I1010 14:35:16.455803  5852 net.cpp:408] label_data_1_split -> label_data_1_split_0
I1010 14:35:16.455811  5852 net.cpp:408] label_data_1_split -> label_data_1_split_1
I1010 14:35:16.455862  5852 net.cpp:150] Setting up label_data_1_split
I1010 14:35:16.455868  5852 net.cpp:157] Top shape: 64 (64)
I1010 14:35:16.455870  5852 net.cpp:157] Top shape: 64 (64)
I1010 14:35:16.455871  5852 net.cpp:165] Memory required for data: 787200
I1010 14:35:16.455873  5852 layer_factory.hpp:77] Creating layer conv1
I1010 14:35:16.455885  5852 net.cpp:100] Creating Layer conv1
I1010 14:35:16.455888  5852 net.cpp:434] conv1 <- data
I1010 14:35:16.455891  5852 net.cpp:408] conv1 -> conv1
I1010 14:35:16.591433  5852 net.cpp:150] Setting up conv1
I1010 14:35:16.591456  5852 net.cpp:157] Top shape: 64 96 30 30 (5529600)
I1010 14:35:16.591459  5852 net.cpp:165] Memory required for data: 22905600
I1010 14:35:16.591476  5852 layer_factory.hpp:77] Creating layer relu1
I1010 14:35:16.591485  5852 net.cpp:100] Creating Layer relu1
I1010 14:35:16.591487  5852 net.cpp:434] relu1 <- conv1
I1010 14:35:16.591490  5852 net.cpp:395] relu1 -> conv1 (in-place)
I1010 14:35:16.591666  5852 net.cpp:150] Setting up relu1
I1010 14:35:16.591672  5852 net.cpp:157] Top shape: 64 96 30 30 (5529600)
I1010 14:35:16.591675  5852 net.cpp:165] Memory required for data: 45024000
I1010 14:35:16.591676  5852 layer_factory.hpp:77] Creating layer conv2
I1010 14:35:16.591686  5852 net.cpp:100] Creating Layer conv2
I1010 14:35:16.591687  5852 net.cpp:434] conv2 <- conv1
I1010 14:35:16.591691  5852 net.cpp:408] conv2 -> conv2
I1010 14:35:16.593096  5852 net.cpp:150] Setting up conv2
I1010 14:35:16.593106  5852 net.cpp:157] Top shape: 64 96 28 28 (4816896)
I1010 14:35:16.593107  5852 net.cpp:165] Memory required for data: 64291584
I1010 14:35:16.593114  5852 layer_factory.hpp:77] Creating layer bn1
I1010 14:35:16.593118  5852 net.cpp:100] Creating Layer bn1
I1010 14:35:16.593121  5852 net.cpp:434] bn1 <- conv2
I1010 14:35:16.593124  5852 net.cpp:408] bn1 -> bn1
I1010 14:35:16.593319  5852 net.cpp:150] Setting up bn1
I1010 14:35:16.593325  5852 net.cpp:157] Top shape: 64 96 28 28 (4816896)
I1010 14:35:16.593327  5852 net.cpp:165] Memory required for data: 83559168
I1010 14:35:16.593333  5852 layer_factory.hpp:77] Creating layer relu2
I1010 14:35:16.593338  5852 net.cpp:100] Creating Layer relu2
I1010 14:35:16.593339  5852 net.cpp:434] relu2 <- bn1
I1010 14:35:16.593341  5852 net.cpp:395] relu2 -> bn1 (in-place)
I1010 14:35:16.593518  5852 net.cpp:150] Setting up relu2
I1010 14:35:16.593523  5852 net.cpp:157] Top shape: 64 96 28 28 (4816896)
I1010 14:35:16.593525  5852 net.cpp:165] Memory required for data: 102826752
I1010 14:35:16.593538  5852 layer_factory.hpp:77] Creating layer drop1
I1010 14:35:16.593542  5852 net.cpp:100] Creating Layer drop1
I1010 14:35:16.593544  5852 net.cpp:434] drop1 <- bn1
I1010 14:35:16.593547  5852 net.cpp:408] drop1 -> drop1
I1010 14:35:16.593590  5852 net.cpp:150] Setting up drop1
I1010 14:35:16.593595  5852 net.cpp:157] Top shape: 64 96 28 28 (4816896)
I1010 14:35:16.593596  5852 net.cpp:165] Memory required for data: 122094336
I1010 14:35:16.593612  5852 layer_factory.hpp:77] Creating layer conv3
I1010 14:35:16.593619  5852 net.cpp:100] Creating Layer conv3
I1010 14:35:16.593634  5852 net.cpp:434] conv3 <- drop1
I1010 14:35:16.593637  5852 net.cpp:408] conv3 -> conv3
I1010 14:35:16.594817  5852 net.cpp:150] Setting up conv3
I1010 14:35:16.594827  5852 net.cpp:157] Top shape: 64 96 13 13 (1038336)
I1010 14:35:16.594830  5852 net.cpp:165] Memory required for data: 126247680
I1010 14:35:16.594835  5852 layer_factory.hpp:77] Creating layer relu3
I1010 14:35:16.594840  5852 net.cpp:100] Creating Layer relu3
I1010 14:35:16.594841  5852 net.cpp:434] relu3 <- conv3
I1010 14:35:16.594844  5852 net.cpp:395] relu3 -> conv3 (in-place)
I1010 14:35:16.595104  5852 net.cpp:150] Setting up relu3
I1010 14:35:16.595113  5852 net.cpp:157] Top shape: 64 96 13 13 (1038336)
I1010 14:35:16.595115  5852 net.cpp:165] Memory required for data: 130401024
I1010 14:35:16.595118  5852 layer_factory.hpp:77] Creating layer conv4
I1010 14:35:16.595122  5852 net.cpp:100] Creating Layer conv4
I1010 14:35:16.595124  5852 net.cpp:434] conv4 <- conv3
I1010 14:35:16.595129  5852 net.cpp:408] conv4 -> conv4
I1010 14:35:16.596943  5852 net.cpp:150] Setting up conv4
I1010 14:35:16.596953  5852 net.cpp:157] Top shape: 64 192 11 11 (1486848)
I1010 14:35:16.596956  5852 net.cpp:165] Memory required for data: 136348416
I1010 14:35:16.596976  5852 layer_factory.hpp:77] Creating layer relu4
I1010 14:35:16.596978  5852 net.cpp:100] Creating Layer relu4
I1010 14:35:16.596982  5852 net.cpp:434] relu4 <- conv4
I1010 14:35:16.596997  5852 net.cpp:395] relu4 -> conv4 (in-place)
I1010 14:35:16.597163  5852 net.cpp:150] Setting up relu4
I1010 14:35:16.597169  5852 net.cpp:157] Top shape: 64 192 11 11 (1486848)
I1010 14:35:16.597172  5852 net.cpp:165] Memory required for data: 142295808
I1010 14:35:16.597174  5852 layer_factory.hpp:77] Creating layer conv5
I1010 14:35:16.597179  5852 net.cpp:100] Creating Layer conv5
I1010 14:35:16.597182  5852 net.cpp:434] conv5 <- conv4
I1010 14:35:16.597184  5852 net.cpp:408] conv5 -> conv5
I1010 14:35:16.599706  5852 net.cpp:150] Setting up conv5
I1010 14:35:16.599717  5852 net.cpp:157] Top shape: 64 192 9 9 (995328)
I1010 14:35:16.599720  5852 net.cpp:165] Memory required for data: 146277120
I1010 14:35:16.599723  5852 layer_factory.hpp:77] Creating layer bn2
I1010 14:35:16.599728  5852 net.cpp:100] Creating Layer bn2
I1010 14:35:16.599731  5852 net.cpp:434] bn2 <- conv5
I1010 14:35:16.599735  5852 net.cpp:408] bn2 -> bn2
I1010 14:35:16.599947  5852 net.cpp:150] Setting up bn2
I1010 14:35:16.599953  5852 net.cpp:157] Top shape: 64 192 9 9 (995328)
I1010 14:35:16.599956  5852 net.cpp:165] Memory required for data: 150258432
I1010 14:35:16.599959  5852 layer_factory.hpp:77] Creating layer relu5
I1010 14:35:16.599963  5852 net.cpp:100] Creating Layer relu5
I1010 14:35:16.599966  5852 net.cpp:434] relu5 <- bn2
I1010 14:35:16.599968  5852 net.cpp:395] relu5 -> bn2 (in-place)
I1010 14:35:16.600153  5852 net.cpp:150] Setting up relu5
I1010 14:35:16.600159  5852 net.cpp:157] Top shape: 64 192 9 9 (995328)
I1010 14:35:16.600162  5852 net.cpp:165] Memory required for data: 154239744
I1010 14:35:16.600163  5852 layer_factory.hpp:77] Creating layer drop4
I1010 14:35:16.600167  5852 net.cpp:100] Creating Layer drop4
I1010 14:35:16.600169  5852 net.cpp:434] drop4 <- bn2
I1010 14:35:16.600173  5852 net.cpp:408] drop4 -> drop4
I1010 14:35:16.600217  5852 net.cpp:150] Setting up drop4
I1010 14:35:16.600222  5852 net.cpp:157] Top shape: 64 192 9 9 (995328)
I1010 14:35:16.600236  5852 net.cpp:165] Memory required for data: 158221056
I1010 14:35:16.600263  5852 layer_factory.hpp:77] Creating layer conv6
I1010 14:35:16.600286  5852 net.cpp:100] Creating Layer conv6
I1010 14:35:16.600287  5852 net.cpp:434] conv6 <- drop4
I1010 14:35:16.600291  5852 net.cpp:408] conv6 -> conv6
I1010 14:35:16.602859  5852 net.cpp:150] Setting up conv6
I1010 14:35:16.602885  5852 net.cpp:157] Top shape: 64 192 4 4 (196608)
I1010 14:35:16.602888  5852 net.cpp:165] Memory required for data: 159007488
I1010 14:35:16.602897  5852 layer_factory.hpp:77] Creating layer relu6
I1010 14:35:16.602902  5852 net.cpp:100] Creating Layer relu6
I1010 14:35:16.602906  5852 net.cpp:434] relu6 <- conv6
I1010 14:35:16.602924  5852 net.cpp:395] relu6 -> conv6 (in-place)
I1010 14:35:16.603179  5852 net.cpp:150] Setting up relu6
I1010 14:35:16.603188  5852 net.cpp:157] Top shape: 64 192 4 4 (196608)
I1010 14:35:16.603190  5852 net.cpp:165] Memory required for data: 159793920
I1010 14:35:16.603193  5852 layer_factory.hpp:77] Creating layer conv7
I1010 14:35:16.603212  5852 net.cpp:100] Creating Layer conv7
I1010 14:35:16.603214  5852 net.cpp:434] conv7 <- conv6
I1010 14:35:16.603220  5852 net.cpp:408] conv7 -> conv7
I1010 14:35:16.606362  5852 net.cpp:150] Setting up conv7
I1010 14:35:16.606380  5852 net.cpp:157] Top shape: 64 192 2 2 (49152)
I1010 14:35:16.606384  5852 net.cpp:165] Memory required for data: 159990528
I1010 14:35:16.606389  5852 layer_factory.hpp:77] Creating layer relu7
I1010 14:35:16.606395  5852 net.cpp:100] Creating Layer relu7
I1010 14:35:16.606397  5852 net.cpp:434] relu7 <- conv7
I1010 14:35:16.606400  5852 net.cpp:395] relu7 -> conv7 (in-place)
I1010 14:35:16.606657  5852 net.cpp:150] Setting up relu7
I1010 14:35:16.606665  5852 net.cpp:157] Top shape: 64 192 2 2 (49152)
I1010 14:35:16.606668  5852 net.cpp:165] Memory required for data: 160187136
I1010 14:35:16.606670  5852 layer_factory.hpp:77] Creating layer conv8
I1010 14:35:16.606678  5852 net.cpp:100] Creating Layer conv8
I1010 14:35:16.606679  5852 net.cpp:434] conv8 <- conv7
I1010 14:35:16.606683  5852 net.cpp:408] conv8 -> conv8
I1010 14:35:16.607941  5852 net.cpp:150] Setting up conv8
I1010 14:35:16.607951  5852 net.cpp:157] Top shape: 64 192 2 2 (49152)
I1010 14:35:16.607954  5852 net.cpp:165] Memory required for data: 160383744
I1010 14:35:16.607957  5852 layer_factory.hpp:77] Creating layer relu8
I1010 14:35:16.607961  5852 net.cpp:100] Creating Layer relu8
I1010 14:35:16.607964  5852 net.cpp:434] relu8 <- conv8
I1010 14:35:16.607969  5852 net.cpp:395] relu8 -> conv8 (in-place)
I1010 14:35:16.608137  5852 net.cpp:150] Setting up relu8
I1010 14:35:16.608144  5852 net.cpp:157] Top shape: 64 192 2 2 (49152)
I1010 14:35:16.608146  5852 net.cpp:165] Memory required for data: 160580352
I1010 14:35:16.608147  5852 layer_factory.hpp:77] Creating layer conv9
I1010 14:35:16.608153  5852 net.cpp:100] Creating Layer conv9
I1010 14:35:16.608155  5852 net.cpp:434] conv9 <- conv8
I1010 14:35:16.608160  5852 net.cpp:408] conv9 -> conv9
I1010 14:35:16.608976  5852 net.cpp:150] Setting up conv9
I1010 14:35:16.608988  5852 net.cpp:157] Top shape: 64 10 2 2 (2560)
I1010 14:35:16.608989  5852 net.cpp:165] Memory required for data: 160590592
I1010 14:35:16.608994  5852 layer_factory.hpp:77] Creating layer relu9
I1010 14:35:16.608997  5852 net.cpp:100] Creating Layer relu9
I1010 14:35:16.608999  5852 net.cpp:434] relu9 <- conv9
I1010 14:35:16.609002  5852 net.cpp:395] relu9 -> conv9 (in-place)
I1010 14:35:16.609253  5852 net.cpp:150] Setting up relu9
I1010 14:35:16.609262  5852 net.cpp:157] Top shape: 64 10 2 2 (2560)
I1010 14:35:16.609264  5852 net.cpp:165] Memory required for data: 160600832
I1010 14:35:16.609266  5852 layer_factory.hpp:77] Creating layer pool
I1010 14:35:16.609272  5852 net.cpp:100] Creating Layer pool
I1010 14:35:16.609273  5852 net.cpp:434] pool <- conv9
I1010 14:35:16.609277  5852 net.cpp:408] pool -> pool
I1010 14:35:16.609485  5852 net.cpp:150] Setting up pool
I1010 14:35:16.609491  5852 net.cpp:157] Top shape: 64 10 1 1 (640)
I1010 14:35:16.609493  5852 net.cpp:165] Memory required for data: 160603392
I1010 14:35:16.609504  5852 layer_factory.hpp:77] Creating layer flatten
I1010 14:35:16.609508  5852 net.cpp:100] Creating Layer flatten
I1010 14:35:16.609510  5852 net.cpp:434] flatten <- pool
I1010 14:35:16.609514  5852 net.cpp:408] flatten -> flatten
I1010 14:35:16.609549  5852 net.cpp:150] Setting up flatten
I1010 14:35:16.609555  5852 net.cpp:157] Top shape: 64 10 (640)
I1010 14:35:16.609555  5852 net.cpp:165] Memory required for data: 160605952
I1010 14:35:16.609557  5852 layer_factory.hpp:77] Creating layer score
I1010 14:35:16.609562  5852 net.cpp:100] Creating Layer score
I1010 14:35:16.609565  5852 net.cpp:434] score <- flatten
I1010 14:35:16.609585  5852 net.cpp:408] score -> score
I1010 14:35:16.609732  5852 net.cpp:150] Setting up score
I1010 14:35:16.609737  5852 net.cpp:157] Top shape: 64 10 (640)
I1010 14:35:16.609740  5852 net.cpp:165] Memory required for data: 160608512
I1010 14:35:16.609743  5852 layer_factory.hpp:77] Creating layer score_score_0_split
I1010 14:35:16.609746  5852 net.cpp:100] Creating Layer score_score_0_split
I1010 14:35:16.609748  5852 net.cpp:434] score_score_0_split <- score
I1010 14:35:16.609752  5852 net.cpp:408] score_score_0_split -> score_score_0_split_0
I1010 14:35:16.609756  5852 net.cpp:408] score_score_0_split -> score_score_0_split_1
I1010 14:35:16.609797  5852 net.cpp:150] Setting up score_score_0_split
I1010 14:35:16.609815  5852 net.cpp:157] Top shape: 64 10 (640)
I1010 14:35:16.609817  5852 net.cpp:157] Top shape: 64 10 (640)
I1010 14:35:16.609819  5852 net.cpp:165] Memory required for data: 160613632
I1010 14:35:16.609822  5852 layer_factory.hpp:77] Creating layer accuracy
I1010 14:35:16.609841  5852 net.cpp:100] Creating Layer accuracy
I1010 14:35:16.609843  5852 net.cpp:434] accuracy <- score_score_0_split_0
I1010 14:35:16.609846  5852 net.cpp:434] accuracy <- label_data_1_split_0
I1010 14:35:16.609849  5852 net.cpp:408] accuracy -> accuracy
…
I1010 14:35:16.610467  5852 net.cpp:283] Network initialization done.
I1010 14:35:16.610718  5852 solver.cpp:181] Creating test net (#0) specified by test_net file: /home/adam/Honours/Honours-Project/cifar-10_allcnn/relu/allcnn_relu_test.prototxt
I1010 14:35:16.610874  5852 net.cpp:58] Initializing net from parameters: 
state {
  phase: TEST
}
layer {
  name: "data"
  type: "Data"
  top: "data"
  top: "label"
  transform_param {
    mean_file: "mean.binaryproto"
  }
  data_param {
    source: "../../../data/cifar-10/cifar10_test_lmdb"
    batch_size: 100
    backend: LMDB
  }
}
layer {
  name: "conv1"
  type: "Convolution"
  bottom: "data"
  top: "conv1"
  convolution_param {
    num_output: 96
    kernel_size: 3
    weight_filler {
      type: "xavier"
    }
  }
}
layer {
  name: "relu1"
  type: "ReLU"
  bottom: "conv1"
  top: "conv1"
}
layer {
  name: "conv2"
  type: "Convolution"
  bottom: "conv1"
  top: "conv2"
  convolution_param {
    num_output: 96
    kernel_size: 3
    weight_filler {
      type: "xavier"
    }
  }
}
layer {
  name: "bn1"
  type: "BatchNorm"
  bottom: "conv2"
  top: "bn1"
}
layer {
  name: "relu2"
  type: "ReLU"
  bottom: "bn1"
  top: "bn1"
}
layer {
  name: "drop1"
  type: "Dropout"
  bottom: "bn1"
  top: "drop1"
  dropout_param {
    dropout_ratio: 0.5
  }
}
layer {
  name: "conv3"
  type: "Convolution"
  bottom: "drop1"
  top: "conv3"
  convolution_param {
    num_output: 96
    kernel_size: 3
    stride: 2
    weight_filler {
      type: "xavier"
    }
  }
}
layer {
  name: "relu3"
  type: "ReLU"
  bottom: "conv3"
  top: "conv3"
}
layer {
  name: "conv4"
  type: "Convolution"
  bottom: "conv3"
  top: "conv4"
  convolution_param {
    num_output: 192
    kernel_size: 3
    weight_filler {
      type: "xavier"
    }
  }
}
layer {
  name: "relu4"
  type: "ReLU"
  bottom: "conv4"
  top: "conv4"
}
layer {
  name: "conv5"
  type: "Convolution"
  bottom: "conv4"
  top: "conv5"
  convolution_param {
    num_output: 192
    kernel_size: 3
    weight_filler {
      type: "xavier"
    }
  }
}
layer {
  name: "bn2"
  type: "BatchNorm"
  bottom: "conv5"
  top: "bn2"
}
layer {
  name: "relu5"
  type: "ReLU"
  bottom: "bn2"
  top: "bn2"
}
layer {
  name: "drop4"
  type: "Dropout"
  bottom: "bn2"
  top: "drop4"
  dropout_param {
    dropout_ratio: 0.5
  }
}
layer {
  name: "conv6"
  type: "Convolution"
  bottom: "drop4"
  top: "conv6"
  convolution_param {
    num_output: 192
    kernel_size: 3
    stride: 2
    weight_filler {
      type: "xavier"
    }
  }
}
layer {
  name: "relu6"
  type: "ReLU"
  bottom: "conv6"
  top: "conv6"
}
layer {
  name: "conv7"
  type: "Convolution"
  bottom: "conv6"
  top: "conv7"
  convolution_param {
    num_output: 192
    kernel_size: 3
    weight_filler {
      type: "xavier"
    }
  }
}
layer {
  name: "relu7"
  type: "ReLU"
  bottom: "conv7"
  top: "conv7"
}
layer {
  name: "conv8"
  type: "Convolution"
  bottom: "conv7"
  top: "conv8"
  convolution_param {
    num_output: 192
    kernel_size: 1
    weight_filler {
      type: "xavier"
    }
  }
}
layer {
  name: "relu8"
  type: "ReLU"
  bottom: "conv8"
  top: "conv8"
}
layer {
  name: "conv9"
  type: "Convolution"
  bottom: "conv8"
  top: "conv9"
  convolution_param {
    num_output: 10
    kernel_size: 1
    weight_filler {
      type: "xavier"
    }
  }
}
layer {
  name: "relu9"
  type: "ReLU"
  bottom: "conv9"
  top: "conv9"
}
layer {
  name: "pool"
  type: "Pooling"
  bottom: "conv9"
  top: "pool"
  pooling_param {
    pool: AVE
    global_pooling: true
  }
}
layer {
  name: "flatten"
  type: "Flatten"
  bottom: "pool"
  top: "flatten"
}
layer {
  name: "score"
  type: "InnerProduct"
  bottom: "flatten"
  top: "score"
  inner_product_param {
    num_output: 10
    weight_filler {
      type: "gaussian"
    }
  }
}
layer {
  name: "accuracy"
  type: "Accuracy"
  bottom: "score"
  bottom: "label"
  top: "accuracy"
}
layer {
  name: "loss"
  type: "SoftmaxWithLoss"
  bottom: "score"
  bottom: "label"
  top: "loss"
}
I1010 14:35:16.610977  5852 layer_factory.hpp:77] Creating layer data
I1010 14:35:16.611114  5852 net.cpp:100] Creating Layer data
I1010 14:35:16.611121  5852 net.cpp:408] data -> data
I1010 14:35:16.611141  5852 net.cpp:408] data -> label
I1010 14:35:16.611148  5852 data_transformer.cpp:25] Loading mean file from: mean.binaryproto
I1010 14:35:16.611891  5859 db_lmdb.cpp:35] Opened lmdb ../../../data/cifar-10/cifar10_test_lmdb
I1010 14:35:16.612025  5852 data_layer.cpp:41] output data size: 100,3,32,32
I1010 14:35:16.613945  5852 net.cpp:150] Setting up data
I1010 14:35:16.613962  5852 net.cpp:157] Top shape: 100 3 32 32 (307200)
I1010 14:35:16.613965  5852 net.cpp:157] Top shape: 100 (100)
I1010 14:35:16.613967  5852 net.cpp:165] Memory required for data: 1229200
I1010 14:35:16.613984  5852 layer_factory.hpp:77] Creating layer label_data_1_split
I1010 14:35:16.613992  5852 net.cpp:100] Creating Layer label_data_1_split
I1010 14:35:16.613996  5852 net.cpp:434] label_data_1_split <- label
I1010 14:35:16.614001  5852 net.cpp:408] label_data_1_split -> label_data_1_split_0
I1010 14:35:16.614007  5852 net.cpp:408] label_data_1_split -> label_data_1_split_1
I1010 14:35:16.614140  5852 net.cpp:150] Setting up label_data_1_split
I1010 14:35:16.614145  5852 net.cpp:157] Top shape: 100 (100)
I1010 14:35:16.614164  5852 net.cpp:157] Top shape: 100 (100)
I1010 14:35:16.614166  5852 net.cpp:165] Memory required for data: 1230000
I1010 14:35:16.614168  5852 layer_factory.hpp:77] Creating layer conv1
I1010 14:35:16.614177  5852 net.cpp:100] Creating Layer conv1
I1010 14:35:16.614181  5852 net.cpp:434] conv1 <- data
I1010 14:35:16.614183  5852 net.cpp:408] conv1 -> conv1
I1010 14:35:16.615262  5852 net.cpp:150] Setting up conv1
I1010 14:35:16.615284  5852 net.cpp:157] Top shape: 100 96 30 30 (8640000)
I1010 14:35:16.615288  5852 net.cpp:165] Memory required for data: 35790000
I1010 14:35:16.615309  5852 layer_factory.hpp:77] Creating layer relu1
I1010 14:35:16.615315  5852 net.cpp:100] Creating Layer relu1
I1010 14:35:16.615317  5852 net.cpp:434] relu1 <- conv1
I1010 14:35:16.615321  5852 net.cpp:395] relu1 -> conv1 (in-place)
I1010 14:35:16.615505  5852 net.cpp:150] Setting up relu1
I1010 14:35:16.615514  5852 net.cpp:157] Top shape: 100 96 30 30 (8640000)
I1010 14:35:16.615530  5852 net.cpp:165] Memory required for data: 70350000
I1010 14:35:16.615532  5852 layer_factory.hpp:77] Creating layer conv2
I1010 14:35:16.615540  5852 net.cpp:100] Creating Layer conv2
I1010 14:35:16.615542  5852 net.cpp:434] conv2 <- conv1
I1010 14:35:16.615561  5852 net.cpp:408] conv2 -> conv2
I1010 14:35:16.617015  5852 net.cpp:150] Setting up conv2
I1010 14:35:16.617027  5852 net.cpp:157] Top shape: 100 96 28 28 (7526400)
I1010 14:35:16.617028  5852 net.cpp:165] Memory required for data: 100455600
I1010 14:35:16.617036  5852 layer_factory.hpp:77] Creating layer bn1
I1010 14:35:16.617040  5852 net.cpp:100] Creating Layer bn1
I1010 14:35:16.617043  5852 net.cpp:434] bn1 <- conv2
I1010 14:35:16.617046  5852 net.cpp:408] bn1 -> bn1
I1010 14:35:16.617239  5852 net.cpp:150] Setting up bn1
I1010 14:35:16.617246  5852 net.cpp:157] Top shape: 100 96 28 28 (7526400)
I1010 14:35:16.617249  5852 net.cpp:165] Memory required for data: 130561200
I1010 14:35:16.617255  5852 layer_factory.hpp:77] Creating layer relu2
I1010 14:35:16.617262  5852 net.cpp:100] Creating Layer relu2
I1010 14:35:16.617264  5852 net.cpp:434] relu2 <- bn1
I1010 14:35:16.617267  5852 net.cpp:395] relu2 -> bn1 (in-place)
I1010 14:35:16.617509  5852 net.cpp:150] Setting up relu2
I1010 14:35:16.617522  5852 net.cpp:157] Top shape: 100 96 28 28 (7526400)
I1010 14:35:16.617524  5852 net.cpp:165] Memory required for data: 160666800
I1010 14:35:16.617527  5852 layer_factory.hpp:77] Creating layer drop1
I1010 14:35:16.617532  5852 net.cpp:100] Creating Layer drop1
I1010 14:35:16.617533  5852 net.cpp:434] drop1 <- bn1
I1010 14:35:16.617538  5852 net.cpp:408] drop1 -> drop1
I1010 14:35:16.617576  5852 net.cpp:150] Setting up drop1
I1010 14:35:16.617581  5852 net.cpp:157] Top shape: 100 96 28 28 (7526400)
I1010 14:35:16.617583  5852 net.cpp:165] Memory required for data: 190772400
I1010 14:35:16.617585  5852 layer_factory.hpp:77] Creating layer conv3
I1010 14:35:16.617594  5852 net.cpp:100] Creating Layer conv3
I1010 14:35:16.617597  5852 net.cpp:434] conv3 <- drop1
I1010 14:35:16.617601  5852 net.cpp:408] conv3 -> conv3
I1010 14:35:16.618801  5852 net.cpp:150] Setting up conv3
I1010 14:35:16.618810  5852 net.cpp:157] Top shape: 100 96 13 13 (1622400)
I1010 14:35:16.618813  5852 net.cpp:165] Memory required for data: 197262000
I1010 14:35:16.618820  5852 layer_factory.hpp:77] Creating layer relu3
I1010 14:35:16.618825  5852 net.cpp:100] Creating Layer relu3
I1010 14:35:16.618829  5852 net.cpp:434] relu3 <- conv3
I1010 14:35:16.618832  5852 net.cpp:395] relu3 -> conv3 (in-place)
I1010 14:35:16.619063  5852 net.cpp:150] Setting up relu3
I1010 14:35:16.619073  5852 net.cpp:157] Top shape: 100 96 13 13 (1622400)
I1010 14:35:16.619076  5852 net.cpp:165] Memory required for data: 203751600
I1010 14:35:16.619078  5852 layer_factory.hpp:77] Creating layer conv4
I1010 14:35:16.619084  5852 net.cpp:100] Creating Layer conv4
I1010 14:35:16.619087  5852 net.cpp:434] conv4 <- conv3
I1010 14:35:16.619092  5852 net.cpp:408] conv4 -> conv4
I1010 14:35:16.621716  5852 net.cpp:150] Setting up conv4
I1010 14:35:16.621731  5852 net.cpp:157] Top shape: 100 192 11 11 (2323200)
I1010 14:35:16.621734  5852 net.cpp:165] Memory required for data: 213044400
I1010 14:35:16.621739  5852 layer_factory.hpp:77] Creating layer relu4
I1010 14:35:16.621745  5852 net.cpp:100] Creating Layer relu4
I1010 14:35:16.621748  5852 net.cpp:434] relu4 <- conv4
I1010 14:35:16.621752  5852 net.cpp:395] relu4 -> conv4 (in-place)
I1010 14:35:16.621960  5852 net.cpp:150] Setting up relu4
I1010 14:35:16.621966  5852 net.cpp:157] Top shape: 100 192 11 11 (2323200)
I1010 14:35:16.621968  5852 net.cpp:165] Memory required for data: 222337200
I1010 14:35:16.621971  5852 layer_factory.hpp:77] Creating layer conv5
I1010 14:35:16.621991  5852 net.cpp:100] Creating Layer conv5
I1010 14:35:16.621994  5852 net.cpp:434] conv5 <- conv4
I1010 14:35:16.621997  5852 net.cpp:408] conv5 -> conv5
I1010 14:35:16.624987  5852 net.cpp:150] Setting up conv5
I1010 14:35:16.625001  5852 net.cpp:157] Top shape: 100 192 9 9 (1555200)
I1010 14:35:16.625003  5852 net.cpp:165] Memory required for data: 228558000
I1010 14:35:16.625010  5852 layer_factory.hpp:77] Creating layer bn2
I1010 14:35:16.625013  5852 net.cpp:100] Creating Layer bn2
I1010 14:35:16.625015  5852 net.cpp:434] bn2 <- conv5
I1010 14:35:16.625020  5852 net.cpp:408] bn2 -> bn2
I1010 14:35:16.625233  5852 net.cpp:150] Setting up bn2
I1010 14:35:16.625238  5852 net.cpp:157] Top shape: 100 192 9 9 (1555200)
I1010 14:35:16.625241  5852 net.cpp:165] Memory required for data: 234778800
I1010 14:35:16.625246  5852 layer_factory.hpp:77] Creating layer relu5
I1010 14:35:16.625250  5852 net.cpp:100] Creating Layer relu5
I1010 14:35:16.625252  5852 net.cpp:434] relu5 <- bn2
I1010 14:35:16.625255  5852 net.cpp:395] relu5 -> bn2 (in-place)
I1010 14:35:16.625542  5852 net.cpp:150] Setting up relu5
I1010 14:35:16.625551  5852 net.cpp:157] Top shape: 100 192 9 9 (1555200)
I1010 14:35:16.625553  5852 net.cpp:165] Memory required for data: 240999600
I1010 14:35:16.625555  5852 layer_factory.hpp:77] Creating layer drop4
I1010 14:35:16.625560  5852 net.cpp:100] Creating Layer drop4
I1010 14:35:16.625561  5852 net.cpp:434] drop4 <- bn2
I1010 14:35:16.625566  5852 net.cpp:408] drop4 -> drop4
I1010 14:35:16.625614  5852 net.cpp:150] Setting up drop4
I1010 14:35:16.625633  5852 net.cpp:157] Top shape: 100 192 9 9 (1555200)
I1010 14:35:16.625635  5852 net.cpp:165] Memory required for data: 247220400
I1010 14:35:16.625638  5852 layer_factory.hpp:77] Creating layer conv6
I1010 14:35:16.625659  5852 net.cpp:100] Creating Layer conv6
I1010 14:35:16.625661  5852 net.cpp:434] conv6 <- drop4
I1010 14:35:16.625679  5852 net.cpp:408] conv6 -> conv6
I1010 14:35:16.628348  5852 net.cpp:150] Setting up conv6
I1010 14:35:16.628358  5852 net.cpp:157] Top shape: 100 192 4 4 (307200)
I1010 14:35:16.628360  5852 net.cpp:165] Memory required for data: 248449200
I1010 14:35:16.628368  5852 layer_factory.hpp:77] Creating layer relu6
I1010 14:35:16.628374  5852 net.cpp:100] Creating Layer relu6
I1010 14:35:16.628376  5852 net.cpp:434] relu6 <- conv6
I1010 14:35:16.628379  5852 net.cpp:395] relu6 -> conv6 (in-place)
I1010 14:35:16.628648  5852 net.cpp:150] Setting up relu6
I1010 14:35:16.628656  5852 net.cpp:157] Top shape: 100 192 4 4 (307200)
I1010 14:35:16.628659  5852 net.cpp:165] Memory required for data: 249678000
I1010 14:35:16.628662  5852 layer_factory.hpp:77] Creating layer conv7
I1010 14:35:16.628669  5852 net.cpp:100] Creating Layer conv7
I1010 14:35:16.628685  5852 net.cpp:434] conv7 <- conv6
I1010 14:35:16.628690  5852 net.cpp:408] conv7 -> conv7
I1010 14:35:16.631453  5852 net.cpp:150] Setting up conv7
I1010 14:35:16.631464  5852 net.cpp:157] Top shape: 100 192 2 2 (76800)
I1010 14:35:16.631466  5852 net.cpp:165] Memory required for data: 249985200
I1010 14:35:16.631471  5852 layer_factory.hpp:77] Creating layer relu7
I1010 14:35:16.631474  5852 net.cpp:100] Creating Layer relu7
I1010 14:35:16.631477  5852 net.cpp:434] relu7 <- conv7
I1010 14:35:16.631480  5852 net.cpp:395] relu7 -> conv7 (in-place)
I1010 14:35:16.631654  5852 net.cpp:150] Setting up relu7
I1010 14:35:16.631660  5852 net.cpp:157] Top shape: 100 192 2 2 (76800)
I1010 14:35:16.631662  5852 net.cpp:165] Memory required for data: 250292400
I1010 14:35:16.631664  5852 layer_factory.hpp:77] Creating layer conv8
I1010 14:35:16.631672  5852 net.cpp:100] Creating Layer conv8
I1010 14:35:16.631675  5852 net.cpp:434] conv8 <- conv7
I1010 14:35:16.631677  5852 net.cpp:408] conv8 -> conv8
I1010 14:35:16.632688  5852 net.cpp:150] Setting up conv8
I1010 14:35:16.632696  5852 net.cpp:157] Top shape: 100 192 2 2 (76800)
I1010 14:35:16.632699  5852 net.cpp:165] Memory required for data: 250599600
I1010 14:35:16.632702  5852 layer_factory.hpp:77] Creating layer relu8
I1010 14:35:16.632707  5852 net.cpp:100] Creating Layer relu8
I1010 14:35:16.632709  5852 net.cpp:434] relu8 <- conv8
I1010 14:35:16.632712  5852 net.cpp:395] relu8 -> conv8 (in-place)
I1010 14:35:16.632995  5852 net.cpp:150] Setting up relu8
I1010 14:35:16.633004  5852 net.cpp:157] Top shape: 100 192 2 2 (76800)
I1010 14:35:16.633007  5852 net.cpp:165] Memory required for data: 250906800
I1010 14:35:16.633008  5852 layer_factory.hpp:77] Creating layer conv9
I1010 14:35:16.633014  5852 net.cpp:100] Creating Layer conv9
I1010 14:35:16.633016  5852 net.cpp:434] conv9 <- conv8
I1010 14:35:16.633020  5852 net.cpp:408] conv9 -> conv9
I1010 14:35:16.633790  5852 net.cpp:150] Setting up conv9
I1010 14:35:16.633800  5852 net.cpp:157] Top shape: 100 10 2 2 (4000)
I1010 14:35:16.633803  5852 net.cpp:165] Memory required for data: 250922800
I1010 14:35:16.633806  5852 layer_factory.hpp:77] Creating layer relu9
I1010 14:35:16.633810  5852 net.cpp:100] Creating Layer relu9
I1010 14:35:16.633812  5852 net.cpp:434] relu9 <- conv9
I1010 14:35:16.633824  5852 net.cpp:395] relu9 -> conv9 (in-place)
I1010 14:35:16.634088  5852 net.cpp:150] Setting up relu9
I1010 14:35:16.634097  5852 net.cpp:157] Top shape: 100 10 2 2 (4000)
I1010 14:35:16.634099  5852 net.cpp:165] Memory required for data: 250938800
I1010 14:35:16.634101  5852 layer_factory.hpp:77] Creating layer pool
I1010 14:35:16.634107  5852 net.cpp:100] Creating Layer pool
I1010 14:35:16.634109  5852 net.cpp:434] pool <- conv9
I1010 14:35:16.634114  5852 net.cpp:408] pool -> pool
I1010 14:35:16.634301  5852 net.cpp:150] Setting up pool
I1010 14:35:16.634307  5852 net.cpp:157] Top shape: 100 10 1 1 (1000)
I1010 14:35:16.634310  5852 net.cpp:165] Memory required for data: 250942800
I1010 14:35:16.634311  5852 layer_factory.hpp:77] Creating layer flatten
I1010 14:35:16.634315  5852 net.cpp:100] Creating Layer flatten
I1010 14:35:16.634317  5852 net.cpp:434] flatten <- pool
I1010 14:35:16.634320  5852 net.cpp:408] flatten -> flatten
I1010 14:35:16.634356  5852 net.cpp:150] Setting up flatten
I1010 14:35:16.634361  5852 net.cpp:157] Top shape: 100 10 (1000)
I1010 14:35:16.634363  5852 net.cpp:165] Memory required for data: 250946800
I1010 14:35:16.634366  5852 layer_factory.hpp:77] Creating layer score
I1010 14:35:16.634369  5852 net.cpp:100] Creating Layer score
I1010 14:35:16.634371  5852 net.cpp:434] score <- flatten
I1010 14:35:16.634389  5852 net.cpp:408] score -> score
I1010 14:35:16.634536  5852 net.cpp:150] Setting up score
I1010 14:35:16.634541  5852 net.cpp:157] Top shape: 100 10 (1000)
I1010 14:35:16.634542  5852 net.cpp:165] Memory required for data: 250950800
I1010 14:35:16.634546  5852 layer_factory.hpp:77] Creating layer score_score_0_split
I1010 14:35:16.634549  5852 net.cpp:100] Creating Layer score_score_0_split
I1010 14:35:16.634552  5852 net.cpp:434] score_score_0_split <- score
I1010 14:35:16.634555  5852 net.cpp:408] score_score_0_split -> score_score_0_split_0
I1010 14:35:16.634559  5852 net.cpp:408] score_score_0_split -> score_score_0_split_1
I1010 14:35:16.634601  5852 net.cpp:150] Setting up score_score_0_split
I1010 14:35:16.634619  5852 net.cpp:157] Top shape: 100 10 (1000)
I1010 14:35:16.634623  5852 net.cpp:157] Top shape: 100 10 (1000)
I1010 14:35:16.634624  5852 net.cpp:165] Memory required for data: 250958800
I1010 14:35:16.634625  5852 layer_factory.hpp:77] Creating layer accuracy
I1010 14:35:16.634642  5852 net.cpp:100] Creating Layer accuracy
I1010 14:35:16.634645  5852 net.cpp:434] accuracy <- score_score_0_split_0
I1010 14:35:16.634647  5852 net.cpp:434] accuracy <- label_data_1_split_0
I1010 14:35:16.634665  5852 net.cpp:408] accuracy -> accuracy
…
