…
  stage: ""
}
type: "AdaGrad"
I1010 18:27:39.538076  5322 solver.cpp:81] Creating training net from train_net file: /home/adam/Honours/Honours-Project/cifar-10_allcnn/relu/allcnn_relu_train.prototxt
I1010 18:27:39.538466  5322 net.cpp:58] Initializing net from parameters: 
state {
  phase: TRAIN
  level: 0
  stage: ""
}
layer {
  name: "data"
  type: "Data"
  top: "data"
  top: "label"
  transform_param {
    mean_file: "mean.binaryproto"
  }
  data_param {
    source: "../../../data/cifar-10/cifar10_train_lmdb"
    batch_size: 64
    backend: LMDB
  }
}
layer {
  name: "conv1"
  type: "Convolution"
  bottom: "data"
  top: "conv1"
  convolution_param {
    num_output: 96
    kernel_size: 3
    weight_filler {
      type: "xavier"
    }
  }
}
layer {
  name: "relu1"
  type: "ReLU"
  bottom: "conv1"
  top: "conv1"
}
layer {
  name: "conv2"
  type: "Convolution"
  bottom: "conv1"
  top: "conv2"
  convolution_param {
    num_output: 96
    kernel_size: 3
    weight_filler {
      type: "xavier"
    }
  }
}
layer {
  name: "bn1"
  type: "BatchNorm"
  bottom: "conv2"
  top: "bn1"
}
layer {
  name: "relu2"
  type: "ReLU"
  bottom: "bn1"
  top: "bn1"
}
layer {
  name: "drop1"
  type: "Dropout"
  bottom: "bn1"
  top: "drop1"
  dropout_param {
    dropout_ratio: 0.5
  }
}
layer {
  name: "conv3"
  type: "Convolution"
  bottom: "drop1"
  top: "conv3"
  convolution_param {
    num_output: 96
    kernel_size: 3
    stride: 2
    weight_filler {
      type: "xavier"
    }
  }
}
layer {
  name: "relu3"
  type: "ReLU"
  bottom: "conv3"
  top: "conv3"
}
layer {
  name: "conv4"
  type: "Convolution"
  bottom: "conv3"
  top: "conv4"
  convolution_param {
    num_output: 192
    kernel_size: 3
    weight_filler {
      type: "xavier"
    }
  }
}
layer {
  name: "relu4"
  type: "ReLU"
  bottom: "conv4"
  top: "conv4"
}
layer {
  name: "conv5"
  type: "Convolution"
  bottom: "conv4"
  top: "conv5"
  convolution_param {
    num_output: 192
    kernel_size: 3
    weight_filler {
      type: "xavier"
    }
  }
}
layer {
  name: "bn2"
  type: "BatchNorm"
  bottom: "conv5"
  top: "bn2"
}
layer {
  name: "relu5"
  type: "ReLU"
  bottom: "bn2"
  top: "bn2"
}
layer {
  name: "drop4"
  type: "Dropout"
  bottom: "bn2"
  top: "drop4"
  dropout_param {
    dropout_ratio: 0.5
  }
}
layer {
  name: "conv6"
  type: "Convolution"
  bottom: "drop4"
  top: "conv6"
  convolution_param {
    num_output: 192
    kernel_size: 3
    stride: 2
    weight_filler {
      type: "xavier"
    }
  }
}
layer {
  name: "relu6"
  type: "ReLU"
  bottom: "conv6"
  top: "conv6"
}
layer {
  name: "conv7"
  type: "Convolution"
  bottom: "conv6"
  top: "conv7"
  convolution_param {
    num_output: 192
    kernel_size: 3
    weight_filler {
      type: "xavier"
    }
  }
}
layer {
  name: "relu7"
  type: "ReLU"
  bottom: "conv7"
  top: "conv7"
}
layer {
  name: "conv8"
  type: "Convolution"
  bottom: "conv7"
  top: "conv8"
  convolution_param {
    num_output: 192
    kernel_size: 1
    weight_filler {
      type: "xavier"
    }
  }
}
layer {
  name: "relu8"
  type: "ReLU"
  bottom: "conv8"
  top: "conv8"
}
layer {
  name: "conv9"
  type: "Convolution"
  bottom: "conv8"
  top: "conv9"
  convolution_param {
    num_output: 10
    kernel_size: 1
    weight_filler {
      type: "xavier"
    }
  }
}
layer {
  name: "relu9"
  type: "ReLU"
  bottom: "conv9"
  top: "conv9"
}
layer {
  name: "pool"
  type: "Pooling"
  bottom: "conv9"
  top: "pool"
  pooling_param {
    pool: AVE
    global_pooling: true
  }
}
layer {
  name: "flatten"
  type: "Flatten"
  bottom: "pool"
  top: "flatten"
}
layer {
  name: "score"
  type: "InnerProduct"
  bottom: "flatten"
  top: "score"
  inner_product_param {
    num_output: 10
    weight_filler {
      type: "gaussian"
    }
  }
}
layer {
  name: "accuracy"
  type: "Accuracy"
  bottom: "score"
  bottom: "label"
  top: "accuracy"
}
layer {
  name: "loss"
  type: "SoftmaxWithLoss"
  bottom: "score"
  bottom: "label"
  top: "loss"
}
I1010 18:27:39.538626  5322 layer_factory.hpp:77] Creating layer data
I1010 18:27:39.539050  5322 net.cpp:100] Creating Layer data
I1010 18:27:39.539058  5322 net.cpp:408] data -> data
I1010 18:27:39.539116  5322 net.cpp:408] data -> label
I1010 18:27:39.539144  5322 data_transformer.cpp:25] Loading mean file from: mean.binaryproto
I1010 18:27:39.539803  5329 db_lmdb.cpp:35] Opened lmdb ../../../data/cifar-10/cifar10_train_lmdb
I1010 18:27:39.546061  5322 data_layer.cpp:41] output data size: 64,3,32,32
I1010 18:27:39.547641  5322 net.cpp:150] Setting up data
I1010 18:27:39.547655  5322 net.cpp:157] Top shape: 64 3 32 32 (196608)
I1010 18:27:39.547658  5322 net.cpp:157] Top shape: 64 (64)
I1010 18:27:39.547683  5322 net.cpp:165] Memory required for data: 786688
I1010 18:27:39.547693  5322 layer_factory.hpp:77] Creating layer label_data_1_split
I1010 18:27:39.547701  5322 net.cpp:100] Creating Layer label_data_1_split
I1010 18:27:39.547722  5322 net.cpp:434] label_data_1_split <- label
I1010 18:27:39.547745  5322 net.cpp:408] label_data_1_split -> label_data_1_split_0
I1010 18:27:39.547770  5322 net.cpp:408] label_data_1_split -> label_data_1_split_1
I1010 18:27:39.547819  5322 net.cpp:150] Setting up label_data_1_split
I1010 18:27:39.547824  5322 net.cpp:157] Top shape: 64 (64)
I1010 18:27:39.547828  5322 net.cpp:157] Top shape: 64 (64)
I1010 18:27:39.547830  5322 net.cpp:165] Memory required for data: 787200
I1010 18:27:39.547857  5322 layer_factory.hpp:77] Creating layer conv1
I1010 18:27:39.547870  5322 net.cpp:100] Creating Layer conv1
I1010 18:27:39.547874  5322 net.cpp:434] conv1 <- data
I1010 18:27:39.547878  5322 net.cpp:408] conv1 -> conv1
I1010 18:27:39.684078  5322 net.cpp:150] Setting up conv1
I1010 18:27:39.684101  5322 net.cpp:157] Top shape: 64 96 30 30 (5529600)
I1010 18:27:39.684104  5322 net.cpp:165] Memory required for data: 22905600
I1010 18:27:39.684121  5322 layer_factory.hpp:77] Creating layer relu1
I1010 18:27:39.684130  5322 net.cpp:100] Creating Layer relu1
I1010 18:27:39.684134  5322 net.cpp:434] relu1 <- conv1
I1010 18:27:39.684151  5322 net.cpp:395] relu1 -> conv1 (in-place)
I1010 18:27:39.684329  5322 net.cpp:150] Setting up relu1
I1010 18:27:39.684335  5322 net.cpp:157] Top shape: 64 96 30 30 (5529600)
I1010 18:27:39.684337  5322 net.cpp:165] Memory required for data: 45024000
I1010 18:27:39.684340  5322 layer_factory.hpp:77] Creating layer conv2
I1010 18:27:39.684348  5322 net.cpp:100] Creating Layer conv2
I1010 18:27:39.684350  5322 net.cpp:434] conv2 <- conv1
I1010 18:27:39.684353  5322 net.cpp:408] conv2 -> conv2
I1010 18:27:39.685710  5322 net.cpp:150] Setting up conv2
I1010 18:27:39.685720  5322 net.cpp:157] Top shape: 64 96 28 28 (4816896)
I1010 18:27:39.685722  5322 net.cpp:165] Memory required for data: 64291584
I1010 18:27:39.685729  5322 layer_factory.hpp:77] Creating layer bn1
I1010 18:27:39.685734  5322 net.cpp:100] Creating Layer bn1
I1010 18:27:39.685735  5322 net.cpp:434] bn1 <- conv2
I1010 18:27:39.685739  5322 net.cpp:408] bn1 -> bn1
I1010 18:27:39.685909  5322 net.cpp:150] Setting up bn1
I1010 18:27:39.685914  5322 net.cpp:157] Top shape: 64 96 28 28 (4816896)
I1010 18:27:39.685915  5322 net.cpp:165] Memory required for data: 83559168
I1010 18:27:39.685921  5322 layer_factory.hpp:77] Creating layer relu2
I1010 18:27:39.685925  5322 net.cpp:100] Creating Layer relu2
I1010 18:27:39.685927  5322 net.cpp:434] relu2 <- bn1
I1010 18:27:39.685930  5322 net.cpp:395] relu2 -> bn1 (in-place)
I1010 18:27:39.686079  5322 net.cpp:150] Setting up relu2
I1010 18:27:39.686084  5322 net.cpp:157] Top shape: 64 96 28 28 (4816896)
I1010 18:27:39.686086  5322 net.cpp:165] Memory required for data: 102826752
I1010 18:27:39.686100  5322 layer_factory.hpp:77] Creating layer drop1
I1010 18:27:39.686105  5322 net.cpp:100] Creating Layer drop1
I1010 18:27:39.686107  5322 net.cpp:434] drop1 <- bn1
I1010 18:27:39.686110  5322 net.cpp:408] drop1 -> drop1
I1010 18:27:39.686168  5322 net.cpp:150] Setting up drop1
I1010 18:27:39.686173  5322 net.cpp:157] Top shape: 64 96 28 28 (4816896)
I1010 18:27:39.686188  5322 net.cpp:165] Memory required for data: 122094336
I1010 18:27:39.686190  5322 layer_factory.hpp:77] Creating layer conv3
I1010 18:27:39.686197  5322 net.cpp:100] Creating Layer conv3
I1010 18:27:39.686213  5322 net.cpp:434] conv3 <- drop1
I1010 18:27:39.686218  5322 net.cpp:408] conv3 -> conv3
I1010 18:27:39.687402  5322 net.cpp:150] Setting up conv3
I1010 18:27:39.687412  5322 net.cpp:157] Top shape: 64 96 13 13 (1038336)
I1010 18:27:39.687413  5322 net.cpp:165] Memory required for data: 126247680
I1010 18:27:39.687420  5322 layer_factory.hpp:77] Creating layer relu3
I1010 18:27:39.687424  5322 net.cpp:100] Creating Layer relu3
I1010 18:27:39.687427  5322 net.cpp:434] relu3 <- conv3
I1010 18:27:39.687429  5322 net.cpp:395] relu3 -> conv3 (in-place)
I1010 18:27:39.687671  5322 net.cpp:150] Setting up relu3
I1010 18:27:39.687680  5322 net.cpp:157] Top shape: 64 96 13 13 (1038336)
I1010 18:27:39.687681  5322 net.cpp:165] Memory required for data: 130401024
I1010 18:27:39.687683  5322 layer_factory.hpp:77] Creating layer conv4
I1010 18:27:39.687690  5322 net.cpp:100] Creating Layer conv4
I1010 18:27:39.687691  5322 net.cpp:434] conv4 <- conv3
I1010 18:27:39.687695  5322 net.cpp:408] conv4 -> conv4
I1010 18:27:39.689481  5322 net.cpp:150] Setting up conv4
I1010 18:27:39.689491  5322 net.cpp:157] Top shape: 64 192 11 11 (1486848)
I1010 18:27:39.689493  5322 net.cpp:165] Memory required for data: 136348416
I1010 18:27:39.689498  5322 layer_factory.hpp:77] Creating layer relu4
I1010 18:27:39.689502  5322 net.cpp:100] Creating Layer relu4
I1010 18:27:39.689504  5322 net.cpp:434] relu4 <- conv4
I1010 18:27:39.689507  5322 net.cpp:395] relu4 -> conv4 (in-place)
I1010 18:27:39.689676  5322 net.cpp:150] Setting up relu4
I1010 18:27:39.689682  5322 net.cpp:157] Top shape: 64 192 11 11 (1486848)
I1010 18:27:39.689683  5322 net.cpp:165] Memory required for data: 142295808
I1010 18:27:39.689684  5322 layer_factory.hpp:77] Creating layer conv5
I1010 18:27:39.689689  5322 net.cpp:100] Creating Layer conv5
I1010 18:27:39.689692  5322 net.cpp:434] conv5 <- conv4
I1010 18:27:39.689695  5322 net.cpp:408] conv5 -> conv5
I1010 18:27:39.692173  5322 net.cpp:150] Setting up conv5
I1010 18:27:39.692183  5322 net.cpp:157] Top shape: 64 192 9 9 (995328)
I1010 18:27:39.692185  5322 net.cpp:165] Memory required for data: 146277120
I1010 18:27:39.692189  5322 layer_factory.hpp:77] Creating layer bn2
I1010 18:27:39.692194  5322 net.cpp:100] Creating Layer bn2
I1010 18:27:39.692196  5322 net.cpp:434] bn2 <- conv5
I1010 18:27:39.692200  5322 net.cpp:408] bn2 -> bn2
I1010 18:27:39.692385  5322 net.cpp:150] Setting up bn2
I1010 18:27:39.692389  5322 net.cpp:157] Top shape: 64 192 9 9 (995328)
I1010 18:27:39.692391  5322 net.cpp:165] Memory required for data: 150258432
I1010 18:27:39.692396  5322 layer_factory.hpp:77] Creating layer relu5
I1010 18:27:39.692399  5322 net.cpp:100] Creating Layer relu5
I1010 18:27:39.692401  5322 net.cpp:434] relu5 <- bn2
I1010 18:27:39.692404  5322 net.cpp:395] relu5 -> bn2 (in-place)
I1010 18:27:39.692564  5322 net.cpp:150] Setting up relu5
I1010 18:27:39.692570  5322 net.cpp:157] Top shape: 64 192 9 9 (995328)
I1010 18:27:39.692572  5322 net.cpp:165] Memory required for data: 154239744
I1010 18:27:39.692574  5322 layer_factory.hpp:77] Creating layer drop4
I1010 18:27:39.692577  5322 net.cpp:100] Creating Layer drop4
I1010 18:27:39.692579  5322 net.cpp:434] drop4 <- bn2
I1010 18:27:39.692582  5322 net.cpp:408] drop4 -> drop4
I1010 18:27:39.692622  5322 net.cpp:150] Setting up drop4
I1010 18:27:39.692626  5322 net.cpp:157] Top shape: 64 192 9 9 (995328)
I1010 18:27:39.692628  5322 net.cpp:165] Memory required for data: 158221056
I1010 18:27:39.692654  5322 layer_factory.hpp:77] Creating layer conv6
I1010 18:27:39.692673  5322 net.cpp:100] Creating Layer conv6
I1010 18:27:39.692677  5322 net.cpp:434] conv6 <- drop4
I1010 18:27:39.692680  5322 net.cpp:408] conv6 -> conv6
I1010 18:27:39.695204  5322 net.cpp:150] Setting up conv6
I1010 18:27:39.695228  5322 net.cpp:157] Top shape: 64 192 4 4 (196608)
I1010 18:27:39.695230  5322 net.cpp:165] Memory required for data: 159007488
I1010 18:27:39.695251  5322 layer_factory.hpp:77] Creating layer relu6
I1010 18:27:39.695256  5322 net.cpp:100] Creating Layer relu6
I1010 18:27:39.695258  5322 net.cpp:434] relu6 <- conv6
I1010 18:27:39.695278  5322 net.cpp:395] relu6 -> conv6 (in-place)
I1010 18:27:39.695515  5322 net.cpp:150] Setting up relu6
I1010 18:27:39.695538  5322 net.cpp:157] Top shape: 64 192 4 4 (196608)
I1010 18:27:39.695540  5322 net.cpp:165] Memory required for data: 159793920
I1010 18:27:39.695543  5322 layer_factory.hpp:77] Creating layer conv7
I1010 18:27:39.695562  5322 net.cpp:100] Creating Layer conv7
I1010 18:27:39.695564  5322 net.cpp:434] conv7 <- conv6
I1010 18:27:39.695567  5322 net.cpp:408] conv7 -> conv7
I1010 18:27:39.698048  5322 net.cpp:150] Setting up conv7
I1010 18:27:39.698058  5322 net.cpp:157] Top shape: 64 192 2 2 (49152)
I1010 18:27:39.698061  5322 net.cpp:165] Memory required for data: 159990528
I1010 18:27:39.698065  5322 layer_factory.hpp:77] Creating layer relu7
I1010 18:27:39.698070  5322 net.cpp:100] Creating Layer relu7
I1010 18:27:39.698071  5322 net.cpp:434] relu7 <- conv7
I1010 18:27:39.698076  5322 net.cpp:395] relu7 -> conv7 (in-place)
I1010 18:27:39.698325  5322 net.cpp:150] Setting up relu7
I1010 18:27:39.698333  5322 net.cpp:157] Top shape: 64 192 2 2 (49152)
I1010 18:27:39.698335  5322 net.cpp:165] Memory required for data: 160187136
I1010 18:27:39.698338  5322 layer_factory.hpp:77] Creating layer conv8
I1010 18:27:39.698343  5322 net.cpp:100] Creating Layer conv8
I1010 18:27:39.698345  5322 net.cpp:434] conv8 <- conv7
I1010 18:27:39.698348  5322 net.cpp:408] conv8 -> conv8
I1010 18:27:39.699532  5322 net.cpp:150] Setting up conv8
I1010 18:27:39.699542  5322 net.cpp:157] Top shape: 64 192 2 2 (49152)
I1010 18:27:39.699544  5322 net.cpp:165] Memory required for data: 160383744
I1010 18:27:39.699549  5322 layer_factory.hpp:77] Creating layer relu8
I1010 18:27:39.699553  5322 net.cpp:100] Creating Layer relu8
I1010 18:27:39.699555  5322 net.cpp:434] relu8 <- conv8
I1010 18:27:39.699558  5322 net.cpp:395] relu8 -> conv8 (in-place)
I1010 18:27:39.699712  5322 net.cpp:150] Setting up relu8
I1010 18:27:39.699717  5322 net.cpp:157] Top shape: 64 192 2 2 (49152)
I1010 18:27:39.699719  5322 net.cpp:165] Memory required for data: 160580352
I1010 18:27:39.699722  5322 layer_factory.hpp:77] Creating layer conv9
I1010 18:27:39.699728  5322 net.cpp:100] Creating Layer conv9
I1010 18:27:39.699729  5322 net.cpp:434] conv9 <- conv8
I1010 18:27:39.699733  5322 net.cpp:408] conv9 -> conv9
I1010 18:27:39.700475  5322 net.cpp:150] Setting up conv9
I1010 18:27:39.700484  5322 net.cpp:157] Top shape: 64 10 2 2 (2560)
I1010 18:27:39.700486  5322 net.cpp:165] Memory required for data: 160590592
I1010 18:27:39.700490  5322 layer_factory.hpp:77] Creating layer relu9
I1010 18:27:39.700495  5322 net.cpp:100] Creating Layer relu9
I1010 18:27:39.700496  5322 net.cpp:434] relu9 <- conv9
I1010 18:27:39.700500  5322 net.cpp:395] relu9 -> conv9 (in-place)
I1010 18:27:39.700736  5322 net.cpp:150] Setting up relu9
I1010 18:27:39.700743  5322 net.cpp:157] Top shape: 64 10 2 2 (2560)
I1010 18:27:39.700745  5322 net.cpp:165] Memory required for data: 160600832
I1010 18:27:39.700747  5322 layer_factory.hpp:77] Creating layer pool
I1010 18:27:39.700752  5322 net.cpp:100] Creating Layer pool
I1010 18:27:39.700753  5322 net.cpp:434] pool <- conv9
I1010 18:27:39.700757  5322 net.cpp:408] pool -> pool
I1010 18:27:39.700933  5322 net.cpp:150] Setting up pool
I1010 18:27:39.700939  5322 net.cpp:157] Top shape: 64 10 1 1 (640)
I1010 18:27:39.700942  5322 net.cpp:165] Memory required for data: 160603392
I1010 18:27:39.700953  5322 layer_factory.hpp:77] Creating layer flatten
I1010 18:27:39.700958  5322 net.cpp:100] Creating Layer flatten
I1010 18:27:39.700959  5322 net.cpp:434] flatten <- pool
I1010 18:27:39.700963  5322 net.cpp:408] flatten -> flatten
I1010 18:27:39.700996  5322 net.cpp:150] Setting up flatten
I1010 18:27:39.701000  5322 net.cpp:157] Top shape: 64 10 (640)
I1010 18:27:39.701002  5322 net.cpp:165] Memory required for data: 160605952
I1010 18:27:39.701004  5322 layer_factory.hpp:77] Creating layer score
I1010 18:27:39.701022  5322 net.cpp:100] Creating Layer score
I1010 18:27:39.701025  5322 net.cpp:434] score <- flatten
I1010 18:27:39.701028  5322 net.cpp:408] score -> score
I1010 18:27:39.701164  5322 net.cpp:150] Setting up score
I1010 18:27:39.701169  5322 net.cpp:157] Top shape: 64 10 (640)
I1010 18:27:39.701170  5322 net.cpp:165] Memory required for data: 160608512
I1010 18:27:39.701174  5322 layer_factory.hpp:77] Creating layer score_score_0_split
I1010 18:27:39.701179  5322 net.cpp:100] Creating Layer score_score_0_split
I1010 18:27:39.701180  5322 net.cpp:434] score_score_0_split <- score
I1010 18:27:39.701184  5322 net.cpp:408] score_score_0_split -> score_score_0_split_0
I1010 18:27:39.701187  5322 net.cpp:408] score_score_0_split -> score_score_0_split_1
I1010 18:27:39.701225  5322 net.cpp:150] Setting up score_score_0_split
I1010 18:27:39.701228  5322 net.cpp:157] Top shape: 64 10 (640)
I1010 18:27:39.701231  5322 net.cpp:157] Top shape: 64 10 (640)
I1010 18:27:39.701232  5322 net.cpp:165] Memory required for data: 160613632
I1010 18:27:39.701234  5322 layer_factory.hpp:77] Creating layer accuracy
I1010 18:27:39.701252  5322 net.cpp:100] Creating Layer accuracy
I1010 18:27:39.701254  5322 net.cpp:434] accuracy <- score_score_0_split_0
I1010 18:27:39.701257  5322 net.cpp:434] accuracy <- label_data_1_split_0
I1010 18:27:39.701274  5322 net.cpp:408] accuracy -> accuracy
…
I1010 18:27:39.701855  5322 net.cpp:283] Network initialization done.
I1010 18:27:39.702080  5322 solver.cpp:181] Creating test net (#0) specified by test_net file: /home/adam/Honours/Honours-Project/cifar-10_allcnn/relu/allcnn_relu_test.prototxt
I1010 18:27:39.702263  5322 net.cpp:58] Initializing net from parameters: 
state {
  phase: TEST
}
layer {
  name: "data"
  type: "Data"
  top: "data"
  top: "label"
  transform_param {
    mean_file: "mean.binaryproto"
  }
  data_param {
    source: "../../../data/cifar-10/cifar10_test_lmdb"
    batch_size: 100
    backend: LMDB
  }
}
layer {
  name: "conv1"
  type: "Convolution"
  bottom: "data"
  top: "conv1"
  convolution_param {
    num_output: 96
    kernel_size: 3
    weight_filler {
      type: "xavier"
    }
  }
}
layer {
  name: "relu1"
  type: "ReLU"
  bottom: "conv1"
  top: "conv1"
}
layer {
  name: "conv2"
  type: "Convolution"
  bottom: "conv1"
  top: "conv2"
  convolution_param {
    num_output: 96
    kernel_size: 3
    weight_filler {
      type: "xavier"
    }
  }
}
layer {
  name: "bn1"
  type: "BatchNorm"
  bottom: "conv2"
  top: "bn1"
}
layer {
  name: "relu2"
  type: "ReLU"
  bottom: "bn1"
  top: "bn1"
}
layer {
  name: "drop1"
  type: "Dropout"
  bottom: "bn1"
  top: "drop1"
  dropout_param {
    dropout_ratio: 0.5
  }
}
layer {
  name: "conv3"
  type: "Convolution"
  bottom: "drop1"
  top: "conv3"
  convolution_param {
    num_output: 96
    kernel_size: 3
    stride: 2
    weight_filler {
      type: "xavier"
    }
  }
}
layer {
  name: "relu3"
  type: "ReLU"
  bottom: "conv3"
  top: "conv3"
}
layer {
  name: "conv4"
  type: "Convolution"
  bottom: "conv3"
  top: "conv4"
  convolution_param {
    num_output: 192
    kernel_size: 3
    weight_filler {
      type: "xavier"
    }
  }
}
layer {
  name: "relu4"
  type: "ReLU"
  bottom: "conv4"
  top: "conv4"
}
layer {
  name: "conv5"
  type: "Convolution"
  bottom: "conv4"
  top: "conv5"
  convolution_param {
    num_output: 192
    kernel_size: 3
    weight_filler {
      type: "xavier"
    }
  }
}
layer {
  name: "bn2"
  type: "BatchNorm"
  bottom: "conv5"
  top: "bn2"
}
layer {
  name: "relu5"
  type: "ReLU"
  bottom: "bn2"
  top: "bn2"
}
layer {
  name: "drop4"
  type: "Dropout"
  bottom: "bn2"
  top: "drop4"
  dropout_param {
    dropout_ratio: 0.5
  }
}
layer {
  name: "conv6"
  type: "Convolution"
  bottom: "drop4"
  top: "conv6"
  convolution_param {
    num_output: 192
    kernel_size: 3
    stride: 2
    weight_filler {
      type: "xavier"
    }
  }
}
layer {
  name: "relu6"
  type: "ReLU"
  bottom: "conv6"
  top: "conv6"
}
layer {
  name: "conv7"
  type: "Convolution"
  bottom: "conv6"
  top: "conv7"
  convolution_param {
    num_output: 192
    kernel_size: 3
    weight_filler {
      type: "xavier"
    }
  }
}
layer {
  name: "relu7"
  type: "ReLU"
  bottom: "conv7"
  top: "conv7"
}
layer {
  name: "conv8"
  type: "Convolution"
  bottom: "conv7"
  top: "conv8"
  convolution_param {
    num_output: 192
    kernel_size: 1
    weight_filler {
      type: "xavier"
    }
  }
}
layer {
  name: "relu8"
  type: "ReLU"
  bottom: "conv8"
  top: "conv8"
}
layer {
  name: "conv9"
  type: "Convolution"
  bottom: "conv8"
  top: "conv9"
  convolution_param {
    num_output: 10
    kernel_size: 1
    weight_filler {
      type: "xavier"
    }
  }
}
layer {
  name: "relu9"
  type: "ReLU"
  bottom: "conv9"
  top: "conv9"
}
layer {
  name: "pool"
  type: "Pooling"
  bottom: "conv9"
  top: "pool"
  pooling_param {
    pool: AVE
    global_pooling: true
  }
}
layer {
  name: "flatten"
  type: "Flatten"
  bottom: "pool"
  top: "flatten"
}
layer {
  name: "score"
  type: "InnerProduct"
  bottom: "flatten"
  top: "score"
  inner_product_param {
    num_output: 10
    weight_filler {
      type: "gaussian"
    }
  }
}
layer {
  name: "accuracy"
  type: "Accuracy"
  bottom: "score"
  bottom: "label"
  top: "accuracy"
}
layer {
  name: "loss"
  type: "SoftmaxWithLoss"
  bottom: "score"
  bottom: "label"
  top: "loss"
}
I1010 18:27:39.702391  5322 layer_factory.hpp:77] Creating layer data
I1010 18:27:39.702472  5322 net.cpp:100] Creating Layer data
I1010 18:27:39.702479  5322 net.cpp:408] data -> data
I1010 18:27:39.702484  5322 net.cpp:408] data -> label
I1010 18:27:39.702491  5322 data_transformer.cpp:25] Loading mean file from: mean.binaryproto
I1010 18:27:39.703194  5331 db_lmdb.cpp:35] Opened lmdb ../../../data/cifar-10/cifar10_test_lmdb
I1010 18:27:39.703269  5322 data_layer.cpp:41] output data size: 100,3,32,32
I1010 18:27:39.705245  5322 net.cpp:150] Setting up data
I1010 18:27:39.705278  5322 net.cpp:157] Top shape: 100 3 32 32 (307200)
I1010 18:27:39.705281  5322 net.cpp:157] Top shape: 100 (100)
I1010 18:27:39.705283  5322 net.cpp:165] Memory required for data: 1229200
I1010 18:27:39.705302  5322 layer_factory.hpp:77] Creating layer label_data_1_split
I1010 18:27:39.705312  5322 net.cpp:100] Creating Layer label_data_1_split
I1010 18:27:39.705317  5322 net.cpp:434] label_data_1_split <- label
I1010 18:27:39.705322  5322 net.cpp:408] label_data_1_split -> label_data_1_split_0
I1010 18:27:39.705343  5322 net.cpp:408] label_data_1_split -> label_data_1_split_1
I1010 18:27:39.705380  5322 net.cpp:150] Setting up label_data_1_split
I1010 18:27:39.705385  5322 net.cpp:157] Top shape: 100 (100)
I1010 18:27:39.705387  5322 net.cpp:157] Top shape: 100 (100)
I1010 18:27:39.705389  5322 net.cpp:165] Memory required for data: 1230000
I1010 18:27:39.705391  5322 layer_factory.hpp:77] Creating layer conv1
I1010 18:27:39.705399  5322 net.cpp:100] Creating Layer conv1
I1010 18:27:39.705416  5322 net.cpp:434] conv1 <- data
I1010 18:27:39.705420  5322 net.cpp:408] conv1 -> conv1
I1010 18:27:39.706543  5322 net.cpp:150] Setting up conv1
I1010 18:27:39.706570  5322 net.cpp:157] Top shape: 100 96 30 30 (8640000)
I1010 18:27:39.706573  5322 net.cpp:165] Memory required for data: 35790000
I1010 18:27:39.706596  5322 layer_factory.hpp:77] Creating layer relu1
I1010 18:27:39.706601  5322 net.cpp:100] Creating Layer relu1
I1010 18:27:39.706604  5322 net.cpp:434] relu1 <- conv1
I1010 18:27:39.706609  5322 net.cpp:395] relu1 -> conv1 (in-place)
I1010 18:27:39.706745  5322 net.cpp:150] Setting up relu1
I1010 18:27:39.706753  5322 net.cpp:157] Top shape: 100 96 30 30 (8640000)
I1010 18:27:39.706768  5322 net.cpp:165] Memory required for data: 70350000
I1010 18:27:39.706771  5322 layer_factory.hpp:77] Creating layer conv2
I1010 18:27:39.706779  5322 net.cpp:100] Creating Layer conv2
I1010 18:27:39.706780  5322 net.cpp:434] conv2 <- conv1
I1010 18:27:39.706797  5322 net.cpp:408] conv2 -> conv2
I1010 18:27:39.708227  5322 net.cpp:150] Setting up conv2
I1010 18:27:39.708252  5322 net.cpp:157] Top shape: 100 96 28 28 (7526400)
I1010 18:27:39.708254  5322 net.cpp:165] Memory required for data: 100455600
I1010 18:27:39.708262  5322 layer_factory.hpp:77] Creating layer bn1
I1010 18:27:39.708267  5322 net.cpp:100] Creating Layer bn1
I1010 18:27:39.708269  5322 net.cpp:434] bn1 <- conv2
I1010 18:27:39.708273  5322 net.cpp:408] bn1 -> bn1
I1010 18:27:39.708513  5322 net.cpp:150] Setting up bn1
I1010 18:27:39.708518  5322 net.cpp:157] Top shape: 100 96 28 28 (7526400)
I1010 18:27:39.708534  5322 net.cpp:165] Memory required for data: 130561200
I1010 18:27:39.708541  5322 layer_factory.hpp:77] Creating layer relu2
I1010 18:27:39.708559  5322 net.cpp:100] Creating Layer relu2
I1010 18:27:39.708560  5322 net.cpp:434] relu2 <- bn1
I1010 18:27:39.708564  5322 net.cpp:395] relu2 -> bn1 (in-place)
I1010 18:27:39.708789  5322 net.cpp:150] Setting up relu2
I1010 18:27:39.708798  5322 net.cpp:157] Top shape: 100 96 28 28 (7526400)
I1010 18:27:39.708816  5322 net.cpp:165] Memory required for data: 160666800
I1010 18:27:39.708817  5322 layer_factory.hpp:77] Creating layer drop1
I1010 18:27:39.708824  5322 net.cpp:100] Creating Layer drop1
I1010 18:27:39.708827  5322 net.cpp:434] drop1 <- bn1
I1010 18:27:39.708830  5322 net.cpp:408] drop1 -> drop1
I1010 18:27:39.708875  5322 net.cpp:150] Setting up drop1
I1010 18:27:39.708879  5322 net.cpp:157] Top shape: 100 96 28 28 (7526400)
I1010 18:27:39.708897  5322 net.cpp:165] Memory required for data: 190772400
I1010 18:27:39.708900  5322 layer_factory.hpp:77] Creating layer conv3
I1010 18:27:39.708907  5322 net.cpp:100] Creating Layer conv3
I1010 18:27:39.708909  5322 net.cpp:434] conv3 <- drop1
I1010 18:27:39.708912  5322 net.cpp:408] conv3 -> conv3
I1010 18:27:39.709944  5322 net.cpp:150] Setting up conv3
I1010 18:27:39.709966  5322 net.cpp:157] Top shape: 100 96 13 13 (1622400)
I1010 18:27:39.709969  5322 net.cpp:165] Memory required for data: 197262000
I1010 18:27:39.709976  5322 layer_factory.hpp:77] Creating layer relu3
I1010 18:27:39.709980  5322 net.cpp:100] Creating Layer relu3
I1010 18:27:39.709982  5322 net.cpp:434] relu3 <- conv3
I1010 18:27:39.709986  5322 net.cpp:395] relu3 -> conv3 (in-place)
I1010 18:27:39.710212  5322 net.cpp:150] Setting up relu3
I1010 18:27:39.710221  5322 net.cpp:157] Top shape: 100 96 13 13 (1622400)
I1010 18:27:39.710237  5322 net.cpp:165] Memory required for data: 203751600
I1010 18:27:39.710239  5322 layer_factory.hpp:77] Creating layer conv4
I1010 18:27:39.710245  5322 net.cpp:100] Creating Layer conv4
I1010 18:27:39.710247  5322 net.cpp:434] conv4 <- conv3
I1010 18:27:39.710252  5322 net.cpp:408] conv4 -> conv4
I1010 18:27:39.712081  5322 net.cpp:150] Setting up conv4
I1010 18:27:39.712106  5322 net.cpp:157] Top shape: 100 192 11 11 (2323200)
I1010 18:27:39.712110  5322 net.cpp:165] Memory required for data: 213044400
I1010 18:27:39.712115  5322 layer_factory.hpp:77] Creating layer relu4
I1010 18:27:39.712118  5322 net.cpp:100] Creating Layer relu4
I1010 18:27:39.712121  5322 net.cpp:434] relu4 <- conv4
I1010 18:27:39.712124  5322 net.cpp:395] relu4 -> conv4 (in-place)
I1010 18:27:39.712270  5322 net.cpp:150] Setting up relu4
I1010 18:27:39.712275  5322 net.cpp:157] Top shape: 100 192 11 11 (2323200)
I1010 18:27:39.712291  5322 net.cpp:165] Memory required for data: 222337200
I1010 18:27:39.712293  5322 layer_factory.hpp:77] Creating layer conv5
I1010 18:27:39.712298  5322 net.cpp:100] Creating Layer conv5
I1010 18:27:39.712301  5322 net.cpp:434] conv5 <- conv4
I1010 18:27:39.712304  5322 net.cpp:408] conv5 -> conv5
I1010 18:27:39.715127  5322 net.cpp:150] Setting up conv5
I1010 18:27:39.715152  5322 net.cpp:157] Top shape: 100 192 9 9 (1555200)
I1010 18:27:39.715154  5322 net.cpp:165] Memory required for data: 228558000
I1010 18:27:39.715160  5322 layer_factory.hpp:77] Creating layer bn2
I1010 18:27:39.715164  5322 net.cpp:100] Creating Layer bn2
I1010 18:27:39.715167  5322 net.cpp:434] bn2 <- conv5
I1010 18:27:39.715172  5322 net.cpp:408] bn2 -> bn2
I1010 18:27:39.715421  5322 net.cpp:150] Setting up bn2
I1010 18:27:39.715426  5322 net.cpp:157] Top shape: 100 192 9 9 (1555200)
I1010 18:27:39.715443  5322 net.cpp:165] Memory required for data: 234778800
I1010 18:27:39.715448  5322 layer_factory.hpp:77] Creating layer relu5
I1010 18:27:39.715452  5322 net.cpp:100] Creating Layer relu5
I1010 18:27:39.715454  5322 net.cpp:434] relu5 <- bn2
I1010 18:27:39.715482  5322 net.cpp:395] relu5 -> bn2 (in-place)
I1010 18:27:39.715739  5322 net.cpp:150] Setting up relu5
I1010 18:27:39.715745  5322 net.cpp:157] Top shape: 100 192 9 9 (1555200)
I1010 18:27:39.715747  5322 net.cpp:165] Memory required for data: 240999600
I1010 18:27:39.715749  5322 layer_factory.hpp:77] Creating layer drop4
I1010 18:27:39.715754  5322 net.cpp:100] Creating Layer drop4
I1010 18:27:39.715756  5322 net.cpp:434] drop4 <- bn2
I1010 18:27:39.715759  5322 net.cpp:408] drop4 -> drop4
I1010 18:27:39.715806  5322 net.cpp:150] Setting up drop4
I1010 18:27:39.715809  5322 net.cpp:157] Top shape: 100 192 9 9 (1555200)
I1010 18:27:39.715826  5322 net.cpp:165] Memory required for data: 247220400
I1010 18:27:39.715827  5322 layer_factory.hpp:77] Creating layer conv6
I1010 18:27:39.715848  5322 net.cpp:100] Creating Layer conv6
I1010 18:27:39.715850  5322 net.cpp:434] conv6 <- drop4
I1010 18:27:39.715853  5322 net.cpp:408] conv6 -> conv6
I1010 18:27:39.718286  5322 net.cpp:150] Setting up conv6
I1010 18:27:39.718296  5322 net.cpp:157] Top shape: 100 192 4 4 (307200)
I1010 18:27:39.718298  5322 net.cpp:165] Memory required for data: 248449200
I1010 18:27:39.718305  5322 layer_factory.hpp:77] Creating layer relu6
I1010 18:27:39.718309  5322 net.cpp:100] Creating Layer relu6
I1010 18:27:39.718312  5322 net.cpp:434] relu6 <- conv6
I1010 18:27:39.718314  5322 net.cpp:395] relu6 -> conv6 (in-place)
I1010 18:27:39.718555  5322 net.cpp:150] Setting up relu6
I1010 18:27:39.718562  5322 net.cpp:157] Top shape: 100 192 4 4 (307200)
I1010 18:27:39.718564  5322 net.cpp:165] Memory required for data: 249678000
I1010 18:27:39.718566  5322 layer_factory.hpp:77] Creating layer conv7
I1010 18:27:39.718572  5322 net.cpp:100] Creating Layer conv7
I1010 18:27:39.718575  5322 net.cpp:434] conv7 <- conv6
I1010 18:27:39.718577  5322 net.cpp:408] conv7 -> conv7
I1010 18:27:39.721089  5322 net.cpp:150] Setting up conv7
I1010 18:27:39.721114  5322 net.cpp:157] Top shape: 100 192 2 2 (76800)
I1010 18:27:39.721117  5322 net.cpp:165] Memory required for data: 249985200
I1010 18:27:39.721122  5322 layer_factory.hpp:77] Creating layer relu7
I1010 18:27:39.721138  5322 net.cpp:100] Creating Layer relu7
I1010 18:27:39.721141  5322 net.cpp:434] relu7 <- conv7
I1010 18:27:39.721144  5322 net.cpp:395] relu7 -> conv7 (in-place)
I1010 18:27:39.721300  5322 net.cpp:150] Setting up relu7
I1010 18:27:39.721307  5322 net.cpp:157] Top shape: 100 192 2 2 (76800)
I1010 18:27:39.721308  5322 net.cpp:165] Memory required for data: 250292400
I1010 18:27:39.721310  5322 layer_factory.hpp:77] Creating layer conv8
I1010 18:27:39.721315  5322 net.cpp:100] Creating Layer conv8
I1010 18:27:39.721318  5322 net.cpp:434] conv8 <- conv7
I1010 18:27:39.721320  5322 net.cpp:408] conv8 -> conv8
I1010 18:27:39.722220  5322 net.cpp:150] Setting up conv8
I1010 18:27:39.722229  5322 net.cpp:157] Top shape: 100 192 2 2 (76800)
I1010 18:27:39.722231  5322 net.cpp:165] Memory required for data: 250599600
I1010 18:27:39.722235  5322 layer_factory.hpp:77] Creating layer relu8
I1010 18:27:39.722239  5322 net.cpp:100] Creating Layer relu8
I1010 18:27:39.722241  5322 net.cpp:434] relu8 <- conv8
I1010 18:27:39.722244  5322 net.cpp:395] relu8 -> conv8 (in-place)
I1010 18:27:39.722482  5322 net.cpp:150] Setting up relu8
I1010 18:27:39.722489  5322 net.cpp:157] Top shape: 100 192 2 2 (76800)
I1010 18:27:39.722491  5322 net.cpp:165] Memory required for data: 250906800
I1010 18:27:39.722494  5322 layer_factory.hpp:77] Creating layer conv9
I1010 18:27:39.722499  5322 net.cpp:100] Creating Layer conv9
I1010 18:27:39.722501  5322 net.cpp:434] conv9 <- conv8
I1010 18:27:39.722504  5322 net.cpp:408] conv9 -> conv9
I1010 18:27:39.723182  5322 net.cpp:150] Setting up conv9
I1010 18:27:39.723191  5322 net.cpp:157] Top shape: 100 10 2 2 (4000)
I1010 18:27:39.723193  5322 net.cpp:165] Memory required for data: 250922800
I1010 18:27:39.723197  5322 layer_factory.hpp:77] Creating layer relu9
I1010 18:27:39.723201  5322 net.cpp:100] Creating Layer relu9
I1010 18:27:39.723203  5322 net.cpp:434] relu9 <- conv9
I1010 18:27:39.723215  5322 net.cpp:395] relu9 -> conv9 (in-place)
I1010 18:27:39.723477  5322 net.cpp:150] Setting up relu9
I1010 18:27:39.723484  5322 net.cpp:157] Top shape: 100 10 2 2 (4000)
I1010 18:27:39.723486  5322 net.cpp:165] Memory required for data: 250938800
I1010 18:27:39.723489  5322 layer_factory.hpp:77] Creating layer pool
I1010 18:27:39.723493  5322 net.cpp:100] Creating Layer pool
I1010 18:27:39.723495  5322 net.cpp:434] pool <- conv9
I1010 18:27:39.723498  5322 net.cpp:408] pool -> pool
I1010 18:27:39.723667  5322 net.cpp:150] Setting up pool
I1010 18:27:39.723673  5322 net.cpp:157] Top shape: 100 10 1 1 (1000)
I1010 18:27:39.723675  5322 net.cpp:165] Memory required for data: 250942800
I1010 18:27:39.723677  5322 layer_factory.hpp:77] Creating layer flatten
I1010 18:27:39.723681  5322 net.cpp:100] Creating Layer flatten
I1010 18:27:39.723683  5322 net.cpp:434] flatten <- pool
I1010 18:27:39.723686  5322 net.cpp:408] flatten -> flatten
I1010 18:27:39.723704  5322 net.cpp:150] Setting up flatten
I1010 18:27:39.723722  5322 net.cpp:157] Top shape: 100 10 (1000)
I1010 18:27:39.723724  5322 net.cpp:165] Memory required for data: 250946800
I1010 18:27:39.723726  5322 layer_factory.hpp:77] Creating layer score
I1010 18:27:39.723731  5322 net.cpp:100] Creating Layer score
I1010 18:27:39.723732  5322 net.cpp:434] score <- flatten
I1010 18:27:39.723736  5322 net.cpp:408] score -> score
I1010 18:27:39.723860  5322 net.cpp:150] Setting up score
I1010 18:27:39.723863  5322 net.cpp:157] Top shape: 100 10 (1000)
I1010 18:27:39.723865  5322 net.cpp:165] Memory required for data: 250950800
I1010 18:27:39.723870  5322 layer_factory.hpp:77] Creating layer score_score_0_split
I1010 18:27:39.723872  5322 net.cpp:100] Creating Layer score_score_0_split
I1010 18:27:39.723875  5322 net.cpp:434] score_score_0_split <- score
I1010 18:27:39.723878  5322 net.cpp:408] score_score_0_split -> score_score_0_split_0
I1010 18:27:39.723882  5322 net.cpp:408] score_score_0_split -> score_score_0_split_1
I1010 18:27:39.723923  5322 net.cpp:150] Setting up score_score_0_split
I1010 18:27:39.723927  5322 net.cpp:157] Top shape: 100 10 (1000)
I1010 18:27:39.723929  5322 net.cpp:157] Top shape: 100 10 (1000)
I1010 18:27:39.723932  5322 net.cpp:165] Memory required for data: 250958800
I1010 18:27:39.723948  5322 layer_factory.hpp:77] Creating layer accuracy
I1010 18:27:39.723950  5322 net.cpp:100] Creating Layer accuracy
I1010 18:27:39.723953  5322 net.cpp:434] accuracy <- score_score_0_split_0
I1010 18:27:39.723968  5322 net.cpp:434] accuracy <- label_data_1_split_0
I1010 18:27:39.723971  5322 net.cpp:408] accuracy -> accuracy
…
