…
}
type: "SGD"
I1011 19:38:56.110301  8504 solver.cpp:81] Creating training net from train_net file: /home/adam/Honours/Honours-Project/cifar-10_allcnn/leakyrelu/allcnn_leakyrelu_train.prototxt
I1011 19:38:56.110637  8504 net.cpp:58] Initializing net from parameters: 
state {
  phase: TRAIN
  level: 0
  stage: ""
}
layer {
  name: "data"
  type: "Data"
  top: "data"
  top: "label"
  transform_param {
    mean_file: "mean.binaryproto"
  }
  data_param {
    source: "../../../data/cifar-10/cifar10_train_lmdb"
    batch_size: 64
    backend: LMDB
  }
}
layer {
  name: "conv1"
  type: "Convolution"
  bottom: "data"
  top: "conv1"
  convolution_param {
    num_output: 96
    kernel_size: 3
    weight_filler {
      type: "xavier"
    }
  }
}
layer {
  name: "relu1"
  type: "ReLU"
  bottom: "conv1"
  top: "conv1"
  relu_param {
    negative_slope: 0.01
  }
}
layer {
  name: "conv2"
  type: "Convolution"
  bottom: "conv1"
  top: "conv2"
  convolution_param {
    num_output: 96
    kernel_size: 3
    weight_filler {
      type: "xavier"
    }
  }
}
layer {
  name: "bn1"
  type: "BatchNorm"
  bottom: "conv2"
  top: "bn1"
}
layer {
  name: "relu2"
  type: "ReLU"
  bottom: "bn1"
  top: "bn1"
  relu_param {
    negative_slope: 0.01
  }
}
layer {
  name: "drop1"
  type: "Dropout"
  bottom: "bn1"
  top: "drop1"
  dropout_param {
    dropout_ratio: 0.5
  }
}
layer {
  name: "conv3"
  type: "Convolution"
  bottom: "drop1"
  top: "conv3"
  convolution_param {
    num_output: 96
    kernel_size: 3
    stride: 2
    weight_filler {
      type: "xavier"
    }
  }
}
layer {
  name: "relu3"
  type: "ReLU"
  bottom: "conv3"
  top: "conv3"
  relu_param {
    negative_slope: 0.01
  }
}
layer {
  name: "conv4"
  type: "Convolution"
  bottom: "conv3"
  top: "conv4"
  convolution_param {
    num_output: 192
    kernel_size: 3
    weight_filler {
      type: "xavier"
    }
  }
}
layer {
  name: "relu4"
  type: "ReLU"
  bottom: "conv4"
  top: "conv4"
  relu_param {
    negative_slope: 0.01
  }
}
layer {
  name: "conv5"
  type: "Convolution"
  bottom: "conv4"
  top: "conv5"
  convolution_param {
    num_output: 192
    kernel_size: 3
    weight_filler {
      type: "xavier"
    }
  }
}
layer {
  name: "bn2"
  type: "BatchNorm"
  bottom: "conv5"
  top: "bn2"
}
layer {
  name: "relu5"
  type: "ReLU"
  bottom: "bn2"
  top: "bn2"
  relu_param {
    negative_slope: 0.01
  }
}
layer {
  name: "drop4"
  type: "Dropout"
  bottom: "bn2"
  top: "drop4"
  dropout_param {
    dropout_ratio: 0.5
  }
}
layer {
  name: "conv6"
  type: "Convolution"
  bottom: "drop4"
  top: "conv6"
  convolution_param {
    num_output: 192
    kernel_size: 3
    stride: 2
    weight_filler {
      type: "xavier"
    }
  }
}
layer {
  name: "relu6"
  type: "ReLU"
  bottom: "conv6"
  top: "conv6"
  relu_param {
    negative_slope: 0.01
  }
}
layer {
  name: "conv7"
  type: "Convolution"
  bottom: "conv6"
  top: "conv7"
  convolution_param {
    num_output: 192
    kernel_size: 3
    weight_filler {
      type: "xavier"
    }
  }
}
layer {
  name: "relu7"
  type: "ReLU"
  bottom: "conv7"
  top: "conv7"
  relu_param {
    negative_slope: 0.01
  }
}
layer {
  name: "conv8"
  type: "Convolution"
  bottom: "conv7"
  top: "conv8"
  convolution_param {
    num_output: 192
    kernel_size: 1
    weight_filler {
      type: "xavier"
    }
  }
}
layer {
  name: "relu8"
  type: "ReLU"
  bottom: "conv8"
  top: "conv8"
  relu_param {
    negative_slope: 0.01
  }
}
layer {
  name: "conv9"
  type: "Convolution"
  bottom: "conv8"
  top: "conv9"
  convolution_param {
    num_output: 10
    kernel_size: 1
    weight_filler {
      type: "xavier"
    }
  }
}
layer {
  name: "relu9"
  type: "ReLU"
  bottom: "conv9"
  top: "conv9"
  relu_param {
    negative_slope: 0.01
  }
}
layer {
  name: "pool"
  type: "Pooling"
  bottom: "conv9"
  top: "pool"
  pooling_param {
    pool: AVE
    global_pooling: true
  }
}
layer {
  name: "flatten"
  type: "Flatten"
  bottom: "pool"
  top: "flatten"
}
layer {
  name: "score"
  type: "InnerProduct"
  bottom: "flatten"
  top: "score"
  inner_product_param {
    num_output: 10
    weight_filler {
      type: "gaussian"
    }
  }
}
layer {
  name: "accuracy"
  type: "Accuracy"
  bottom: "score"
  bottom: "label"
  top: "accuracy"
}
layer {
  name: "loss"
  type: "SoftmaxWithLoss"
  bottom: "score"
  bottom: "label"
  top: "loss"
}
I1011 19:38:56.110780  8504 layer_factory.hpp:77] Creating layer data
I1011 19:38:56.111238  8504 net.cpp:100] Creating Layer data
I1011 19:38:56.111245  8504 net.cpp:408] data -> data
I1011 19:38:56.111277  8504 net.cpp:408] data -> label
I1011 19:38:56.111300  8504 data_transformer.cpp:25] Loading mean file from: mean.binaryproto
I1011 19:38:56.111922  8509 db_lmdb.cpp:35] Opened lmdb ../../../data/cifar-10/cifar10_train_lmdb
I1011 19:38:56.118263  8504 data_layer.cpp:41] output data size: 64,3,32,32
I1011 19:38:56.119760  8504 net.cpp:150] Setting up data
I1011 19:38:56.119776  8504 net.cpp:157] Top shape: 64 3 32 32 (196608)
I1011 19:38:56.119801  8504 net.cpp:157] Top shape: 64 (64)
I1011 19:38:56.119803  8504 net.cpp:165] Memory required for data: 786688
I1011 19:38:56.119812  8504 layer_factory.hpp:77] Creating layer label_data_1_split
I1011 19:38:56.119822  8504 net.cpp:100] Creating Layer label_data_1_split
I1011 19:38:56.119827  8504 net.cpp:434] label_data_1_split <- label
I1011 19:38:56.119851  8504 net.cpp:408] label_data_1_split -> label_data_1_split_0
I1011 19:38:56.119874  8504 net.cpp:408] label_data_1_split -> label_data_1_split_1
I1011 19:38:56.119988  8504 net.cpp:150] Setting up label_data_1_split
I1011 19:38:56.120007  8504 net.cpp:157] Top shape: 64 (64)
I1011 19:38:56.120009  8504 net.cpp:157] Top shape: 64 (64)
I1011 19:38:56.120010  8504 net.cpp:165] Memory required for data: 787200
I1011 19:38:56.120025  8504 layer_factory.hpp:77] Creating layer conv1
I1011 19:38:56.120054  8504 net.cpp:100] Creating Layer conv1
I1011 19:38:56.120056  8504 net.cpp:434] conv1 <- data
I1011 19:38:56.120074  8504 net.cpp:408] conv1 -> conv1
I1011 19:38:56.257318  8504 net.cpp:150] Setting up conv1
I1011 19:38:56.257341  8504 net.cpp:157] Top shape: 64 96 30 30 (5529600)
I1011 19:38:56.257344  8504 net.cpp:165] Memory required for data: 22905600
I1011 19:38:56.257362  8504 layer_factory.hpp:77] Creating layer relu1
I1011 19:38:56.257370  8504 net.cpp:100] Creating Layer relu1
I1011 19:38:56.257374  8504 net.cpp:434] relu1 <- conv1
I1011 19:38:56.257377  8504 net.cpp:395] relu1 -> conv1 (in-place)
I1011 19:38:56.257588  8504 net.cpp:150] Setting up relu1
I1011 19:38:56.257596  8504 net.cpp:157] Top shape: 64 96 30 30 (5529600)
I1011 19:38:56.257597  8504 net.cpp:165] Memory required for data: 45024000
I1011 19:38:56.257599  8504 layer_factory.hpp:77] Creating layer conv2
I1011 19:38:56.257607  8504 net.cpp:100] Creating Layer conv2
I1011 19:38:56.257609  8504 net.cpp:434] conv2 <- conv1
I1011 19:38:56.257613  8504 net.cpp:408] conv2 -> conv2
I1011 19:38:56.258980  8504 net.cpp:150] Setting up conv2
I1011 19:38:56.258990  8504 net.cpp:157] Top shape: 64 96 28 28 (4816896)
I1011 19:38:56.258991  8504 net.cpp:165] Memory required for data: 64291584
I1011 19:38:56.258998  8504 layer_factory.hpp:77] Creating layer bn1
I1011 19:38:56.259002  8504 net.cpp:100] Creating Layer bn1
I1011 19:38:56.259004  8504 net.cpp:434] bn1 <- conv2
I1011 19:38:56.259008  8504 net.cpp:408] bn1 -> bn1
I1011 19:38:56.259178  8504 net.cpp:150] Setting up bn1
I1011 19:38:56.259183  8504 net.cpp:157] Top shape: 64 96 28 28 (4816896)
I1011 19:38:56.259186  8504 net.cpp:165] Memory required for data: 83559168
I1011 19:38:56.259202  8504 layer_factory.hpp:77] Creating layer relu2
I1011 19:38:56.259207  8504 net.cpp:100] Creating Layer relu2
I1011 19:38:56.259208  8504 net.cpp:434] relu2 <- bn1
I1011 19:38:56.259212  8504 net.cpp:395] relu2 -> bn1 (in-place)
I1011 19:38:56.259376  8504 net.cpp:150] Setting up relu2
I1011 19:38:56.259382  8504 net.cpp:157] Top shape: 64 96 28 28 (4816896)
I1011 19:38:56.259383  8504 net.cpp:165] Memory required for data: 102826752
I1011 19:38:56.259385  8504 layer_factory.hpp:77] Creating layer drop1
I1011 19:38:56.259389  8504 net.cpp:100] Creating Layer drop1
I1011 19:38:56.259392  8504 net.cpp:434] drop1 <- bn1
I1011 19:38:56.259394  8504 net.cpp:408] drop1 -> drop1
I1011 19:38:56.259438  8504 net.cpp:150] Setting up drop1
I1011 19:38:56.259441  8504 net.cpp:157] Top shape: 64 96 28 28 (4816896)
I1011 19:38:56.259443  8504 net.cpp:165] Memory required for data: 122094336
I1011 19:38:56.259445  8504 layer_factory.hpp:77] Creating layer conv3
I1011 19:38:56.259466  8504 net.cpp:100] Creating Layer conv3
I1011 19:38:56.259469  8504 net.cpp:434] conv3 <- drop1
I1011 19:38:56.259471  8504 net.cpp:408] conv3 -> conv3
I1011 19:38:56.260658  8504 net.cpp:150] Setting up conv3
I1011 19:38:56.260668  8504 net.cpp:157] Top shape: 64 96 13 13 (1038336)
I1011 19:38:56.260669  8504 net.cpp:165] Memory required for data: 126247680
I1011 19:38:56.260676  8504 layer_factory.hpp:77] Creating layer relu3
I1011 19:38:56.260680  8504 net.cpp:100] Creating Layer relu3
I1011 19:38:56.260682  8504 net.cpp:434] relu3 <- conv3
I1011 19:38:56.260685  8504 net.cpp:395] relu3 -> conv3 (in-place)
I1011 19:38:56.260929  8504 net.cpp:150] Setting up relu3
I1011 19:38:56.260937  8504 net.cpp:157] Top shape: 64 96 13 13 (1038336)
I1011 19:38:56.260939  8504 net.cpp:165] Memory required for data: 130401024
I1011 19:38:56.260941  8504 layer_factory.hpp:77] Creating layer conv4
I1011 19:38:56.260946  8504 net.cpp:100] Creating Layer conv4
I1011 19:38:56.260948  8504 net.cpp:434] conv4 <- conv3
I1011 19:38:56.260952  8504 net.cpp:408] conv4 -> conv4
I1011 19:38:56.262739  8504 net.cpp:150] Setting up conv4
I1011 19:38:56.262749  8504 net.cpp:157] Top shape: 64 192 11 11 (1486848)
I1011 19:38:56.262751  8504 net.cpp:165] Memory required for data: 136348416
I1011 19:38:56.262756  8504 layer_factory.hpp:77] Creating layer relu4
I1011 19:38:56.262759  8504 net.cpp:100] Creating Layer relu4
I1011 19:38:56.262763  8504 net.cpp:434] relu4 <- conv4
I1011 19:38:56.262765  8504 net.cpp:395] relu4 -> conv4 (in-place)
I1011 19:38:56.262928  8504 net.cpp:150] Setting up relu4
I1011 19:38:56.262934  8504 net.cpp:157] Top shape: 64 192 11 11 (1486848)
I1011 19:38:56.262936  8504 net.cpp:165] Memory required for data: 142295808
I1011 19:38:56.262938  8504 layer_factory.hpp:77] Creating layer conv5
I1011 19:38:56.262943  8504 net.cpp:100] Creating Layer conv5
I1011 19:38:56.262945  8504 net.cpp:434] conv5 <- conv4
I1011 19:38:56.262948  8504 net.cpp:408] conv5 -> conv5
I1011 19:38:56.265496  8504 net.cpp:150] Setting up conv5
I1011 19:38:56.265506  8504 net.cpp:157] Top shape: 64 192 9 9 (995328)
I1011 19:38:56.265508  8504 net.cpp:165] Memory required for data: 146277120
I1011 19:38:56.265513  8504 layer_factory.hpp:77] Creating layer bn2
I1011 19:38:56.265517  8504 net.cpp:100] Creating Layer bn2
I1011 19:38:56.265519  8504 net.cpp:434] bn2 <- conv5
I1011 19:38:56.265523  8504 net.cpp:408] bn2 -> bn2
I1011 19:38:56.265719  8504 net.cpp:150] Setting up bn2
I1011 19:38:56.265724  8504 net.cpp:157] Top shape: 64 192 9 9 (995328)
I1011 19:38:56.265727  8504 net.cpp:165] Memory required for data: 150258432
I1011 19:38:56.265730  8504 layer_factory.hpp:77] Creating layer relu5
I1011 19:38:56.265734  8504 net.cpp:100] Creating Layer relu5
I1011 19:38:56.265736  8504 net.cpp:434] relu5 <- bn2
I1011 19:38:56.265739  8504 net.cpp:395] relu5 -> bn2 (in-place)
I1011 19:38:56.265909  8504 net.cpp:150] Setting up relu5
I1011 19:38:56.265915  8504 net.cpp:157] Top shape: 64 192 9 9 (995328)
I1011 19:38:56.265918  8504 net.cpp:165] Memory required for data: 154239744
I1011 19:38:56.265928  8504 layer_factory.hpp:77] Creating layer drop4
I1011 19:38:56.265933  8504 net.cpp:100] Creating Layer drop4
I1011 19:38:56.265935  8504 net.cpp:434] drop4 <- bn2
I1011 19:38:56.265939  8504 net.cpp:408] drop4 -> drop4
I1011 19:38:56.265982  8504 net.cpp:150] Setting up drop4
I1011 19:38:56.266001  8504 net.cpp:157] Top shape: 64 192 9 9 (995328)
I1011 19:38:56.266003  8504 net.cpp:165] Memory required for data: 158221056
I1011 19:38:56.266005  8504 layer_factory.hpp:77] Creating layer conv6
I1011 19:38:56.266026  8504 net.cpp:100] Creating Layer conv6
I1011 19:38:56.266027  8504 net.cpp:434] conv6 <- drop4
I1011 19:38:56.266047  8504 net.cpp:408] conv6 -> conv6
I1011 19:38:56.268571  8504 net.cpp:150] Setting up conv6
I1011 19:38:56.268597  8504 net.cpp:157] Top shape: 64 192 4 4 (196608)
I1011 19:38:56.268599  8504 net.cpp:165] Memory required for data: 159007488
I1011 19:38:56.268609  8504 layer_factory.hpp:77] Creating layer relu6
I1011 19:38:56.268615  8504 net.cpp:100] Creating Layer relu6
I1011 19:38:56.268617  8504 net.cpp:434] relu6 <- conv6
I1011 19:38:56.268635  8504 net.cpp:395] relu6 -> conv6 (in-place)
I1011 19:38:56.268889  8504 net.cpp:150] Setting up relu6
I1011 19:38:56.268911  8504 net.cpp:157] Top shape: 64 192 4 4 (196608)
I1011 19:38:56.268913  8504 net.cpp:165] Memory required for data: 159793920
I1011 19:38:56.268916  8504 layer_factory.hpp:77] Creating layer conv7
I1011 19:38:56.268935  8504 net.cpp:100] Creating Layer conv7
I1011 19:38:56.268939  8504 net.cpp:434] conv7 <- conv6
I1011 19:38:56.268959  8504 net.cpp:408] conv7 -> conv7
I1011 19:38:56.271495  8504 net.cpp:150] Setting up conv7
I1011 19:38:56.271505  8504 net.cpp:157] Top shape: 64 192 2 2 (49152)
I1011 19:38:56.271508  8504 net.cpp:165] Memory required for data: 159990528
I1011 19:38:56.271512  8504 layer_factory.hpp:77] Creating layer relu7
I1011 19:38:56.271517  8504 net.cpp:100] Creating Layer relu7
I1011 19:38:56.271518  8504 net.cpp:434] relu7 <- conv7
I1011 19:38:56.271522  8504 net.cpp:395] relu7 -> conv7 (in-place)
I1011 19:38:56.271786  8504 net.cpp:150] Setting up relu7
I1011 19:38:56.271795  8504 net.cpp:157] Top shape: 64 192 2 2 (49152)
I1011 19:38:56.271796  8504 net.cpp:165] Memory required for data: 160187136
I1011 19:38:56.271798  8504 layer_factory.hpp:77] Creating layer conv8
I1011 19:38:56.271805  8504 net.cpp:100] Creating Layer conv8
I1011 19:38:56.271807  8504 net.cpp:434] conv8 <- conv7
I1011 19:38:56.271811  8504 net.cpp:408] conv8 -> conv8
I1011 19:38:56.273044  8504 net.cpp:150] Setting up conv8
I1011 19:38:56.273054  8504 net.cpp:157] Top shape: 64 192 2 2 (49152)
I1011 19:38:56.273056  8504 net.cpp:165] Memory required for data: 160383744
I1011 19:38:56.273061  8504 layer_factory.hpp:77] Creating layer relu8
I1011 19:38:56.273064  8504 net.cpp:100] Creating Layer relu8
I1011 19:38:56.273067  8504 net.cpp:434] relu8 <- conv8
I1011 19:38:56.273071  8504 net.cpp:395] relu8 -> conv8 (in-place)
I1011 19:38:56.273237  8504 net.cpp:150] Setting up relu8
I1011 19:38:56.273243  8504 net.cpp:157] Top shape: 64 192 2 2 (49152)
I1011 19:38:56.273246  8504 net.cpp:165] Memory required for data: 160580352
I1011 19:38:56.273262  8504 layer_factory.hpp:77] Creating layer conv9
I1011 19:38:56.273267  8504 net.cpp:100] Creating Layer conv9
I1011 19:38:56.273269  8504 net.cpp:434] conv9 <- conv8
I1011 19:38:56.273273  8504 net.cpp:408] conv9 -> conv9
I1011 19:38:56.274087  8504 net.cpp:150] Setting up conv9
I1011 19:38:56.274096  8504 net.cpp:157] Top shape: 64 10 2 2 (2560)
I1011 19:38:56.274099  8504 net.cpp:165] Memory required for data: 160590592
I1011 19:38:56.274104  8504 layer_factory.hpp:77] Creating layer relu9
I1011 19:38:56.274108  8504 net.cpp:100] Creating Layer relu9
I1011 19:38:56.274111  8504 net.cpp:434] relu9 <- conv9
I1011 19:38:56.274113  8504 net.cpp:395] relu9 -> conv9 (in-place)
I1011 19:38:56.274368  8504 net.cpp:150] Setting up relu9
I1011 19:38:56.274376  8504 net.cpp:157] Top shape: 64 10 2 2 (2560)
I1011 19:38:56.274379  8504 net.cpp:165] Memory required for data: 160600832
I1011 19:38:56.274389  8504 layer_factory.hpp:77] Creating layer pool
I1011 19:38:56.274394  8504 net.cpp:100] Creating Layer pool
I1011 19:38:56.274396  8504 net.cpp:434] pool <- conv9
I1011 19:38:56.274399  8504 net.cpp:408] pool -> pool
I1011 19:38:56.274593  8504 net.cpp:150] Setting up pool
I1011 19:38:56.274598  8504 net.cpp:157] Top shape: 64 10 1 1 (640)
I1011 19:38:56.274600  8504 net.cpp:165] Memory required for data: 160603392
I1011 19:38:56.274602  8504 layer_factory.hpp:77] Creating layer flatten
I1011 19:38:56.274606  8504 net.cpp:100] Creating Layer flatten
I1011 19:38:56.274608  8504 net.cpp:434] flatten <- pool
I1011 19:38:56.274612  8504 net.cpp:408] flatten -> flatten
I1011 19:38:56.274631  8504 net.cpp:150] Setting up flatten
I1011 19:38:56.274649  8504 net.cpp:157] Top shape: 64 10 (640)
I1011 19:38:56.274652  8504 net.cpp:165] Memory required for data: 160605952
I1011 19:38:56.274653  8504 layer_factory.hpp:77] Creating layer score
I1011 19:38:56.274657  8504 net.cpp:100] Creating Layer score
I1011 19:38:56.274659  8504 net.cpp:434] score <- flatten
I1011 19:38:56.274662  8504 net.cpp:408] score -> score
I1011 19:38:56.274809  8504 net.cpp:150] Setting up score
I1011 19:38:56.274814  8504 net.cpp:157] Top shape: 64 10 (640)
I1011 19:38:56.274816  8504 net.cpp:165] Memory required for data: 160608512
I1011 19:38:56.274821  8504 layer_factory.hpp:77] Creating layer score_score_0_split
I1011 19:38:56.274824  8504 net.cpp:100] Creating Layer score_score_0_split
I1011 19:38:56.274827  8504 net.cpp:434] score_score_0_split <- score
I1011 19:38:56.274830  8504 net.cpp:408] score_score_0_split -> score_score_0_split_0
I1011 19:38:56.274834  8504 net.cpp:408] score_score_0_split -> score_score_0_split_1
I1011 19:38:56.274875  8504 net.cpp:150] Setting up score_score_0_split
I1011 19:38:56.274880  8504 net.cpp:157] Top shape: 64 10 (640)
I1011 19:38:56.274883  8504 net.cpp:157] Top shape: 64 10 (640)
I1011 19:38:56.274884  8504 net.cpp:165] Memory required for data: 160613632
I1011 19:38:56.274899  8504 layer_factory.hpp:77] Creating layer accuracy
I1011 19:38:56.274904  8504 net.cpp:100] Creating Layer accuracy
I1011 19:38:56.274906  8504 net.cpp:434] accuracy <- score_score_0_split_0
I1011 19:38:56.274921  8504 net.cpp:434] accuracy <- label_data_1_split_0
I1011 19:38:56.274924  8504 net.cpp:408] accuracy -> accuracy
…
I1011 19:38:56.275564  8504 net.cpp:283] Network initialization done.
I1011 19:38:56.275784  8504 solver.cpp:181] Creating test net (#0) specified by test_net file: /home/adam/Honours/Honours-Project/cifar-10_allcnn/leakyrelu/allcnn_leakyrelu_test.prototxt
I1011 19:38:56.275952  8504 net.cpp:58] Initializing net from parameters: 
state {
  phase: TEST
}
layer {
  name: "data"
  type: "Data"
  top: "data"
  top: "label"
  transform_param {
    mean_file: "mean.binaryproto"
  }
  data_param {
    source: "../../../data/cifar-10/cifar10_test_lmdb"
    batch_size: 100
    backend: LMDB
  }
}
layer {
  name: "conv1"
  type: "Convolution"
  bottom: "data"
  top: "conv1"
  convolution_param {
    num_output: 96
    kernel_size: 3
    weight_filler {
      type: "xavier"
    }
  }
}
layer {
  name: "relu1"
  type: "ReLU"
  bottom: "conv1"
  top: "conv1"
  relu_param {
    negative_slope: 0.01
  }
}
layer {
  name: "conv2"
  type: "Convolution"
  bottom: "conv1"
  top: "conv2"
  convolution_param {
    num_output: 96
    kernel_size: 3
    weight_filler {
      type: "xavier"
    }
  }
}
layer {
  name: "bn1"
  type: "BatchNorm"
  bottom: "conv2"
  top: "bn1"
}
layer {
  name: "relu2"
  type: "ReLU"
  bottom: "bn1"
  top: "bn1"
  relu_param {
    negative_slope: 0.01
  }
}
layer {
  name: "drop1"
  type: "Dropout"
  bottom: "bn1"
  top: "drop1"
  dropout_param {
    dropout_ratio: 0.5
  }
}
layer {
  name: "conv3"
  type: "Convolution"
  bottom: "drop1"
  top: "conv3"
  convolution_param {
    num_output: 96
    kernel_size: 3
    stride: 2
    weight_filler {
      type: "xavier"
    }
  }
}
layer {
  name: "relu3"
  type: "ReLU"
  bottom: "conv3"
  top: "conv3"
  relu_param {
    negative_slope: 0.01
  }
}
layer {
  name: "conv4"
  type: "Convolution"
  bottom: "conv3"
  top: "conv4"
  convolution_param {
    num_output: 192
    kernel_size: 3
    weight_filler {
      type: "xavier"
    }
  }
}
layer {
  name: "relu4"
  type: "ReLU"
  bottom: "conv4"
  top: "conv4"
  relu_param {
    negative_slope: 0.01
  }
}
layer {
  name: "conv5"
  type: "Convolution"
  bottom: "conv4"
  top: "conv5"
  convolution_param {
    num_output: 192
    kernel_size: 3
    weight_filler {
      type: "xavier"
    }
  }
}
layer {
  name: "bn2"
  type: "BatchNorm"
  bottom: "conv5"
  top: "bn2"
}
layer {
  name: "relu5"
  type: "ReLU"
  bottom: "bn2"
  top: "bn2"
  relu_param {
    negative_slope: 0.01
  }
}
layer {
  name: "drop4"
  type: "Dropout"
  bottom: "bn2"
  top: "drop4"
  dropout_param {
    dropout_ratio: 0.5
  }
}
layer {
  name: "conv6"
  type: "Convolution"
  bottom: "drop4"
  top: "conv6"
  convolution_param {
    num_output: 192
    kernel_size: 3
    stride: 2
    weight_filler {
      type: "xavier"
    }
  }
}
layer {
  name: "relu6"
  type: "ReLU"
  bottom: "conv6"
  top: "conv6"
  relu_param {
    negative_slope: 0.01
  }
}
layer {
  name: "conv7"
  type: "Convolution"
  bottom: "conv6"
  top: "conv7"
  convolution_param {
    num_output: 192
    kernel_size: 3
    weight_filler {
      type: "xavier"
    }
  }
}
layer {
  name: "relu7"
  type: "ReLU"
  bottom: "conv7"
  top: "conv7"
  relu_param {
    negative_slope: 0.01
  }
}
layer {
  name: "conv8"
  type: "Convolution"
  bottom: "conv7"
  top: "conv8"
  convolution_param {
    num_output: 192
    kernel_size: 1
    weight_filler {
      type: "xavier"
    }
  }
}
layer {
  name: "relu8"
  type: "ReLU"
  bottom: "conv8"
  top: "conv8"
  relu_param {
    negative_slope: 0.01
  }
}
layer {
  name: "conv9"
  type: "Convolution"
  bottom: "conv8"
  top: "conv9"
  convolution_param {
    num_output: 10
    kernel_size: 1
    weight_filler {
      type: "xavier"
    }
  }
}
layer {
  name: "relu9"
  type: "ReLU"
  bottom: "conv9"
  top: "conv9"
  relu_param {
    negative_slope: 0.01
  }
}
layer {
  name: "pool"
  type: "Pooling"
  bottom: "conv9"
  top: "pool"
  pooling_param {
    pool: AVE
    global_pooling: true
  }
}
layer {
  name: "flatten"
  type: "Flatten"
  bottom: "pool"
  top: "flatten"
}
layer {
  name: "score"
  type: "InnerProduct"
  bottom: "flatten"
  top: "score"
  inner_product_param {
    num_output: 10
    weight_filler {
      type: "gaussian"
    }
  }
}
layer {
  name: "accuracy"
  type: "Accuracy"
  bottom: "score"
  bottom: "label"
  top: "accuracy"
}
layer {
  name: "loss"
  type: "SoftmaxWithLoss"
  bottom: "score"
  bottom: "label"
  top: "loss"
}
I1011 19:38:56.276054  8504 layer_factory.hpp:77] Creating layer data
I1011 19:38:56.276165  8504 net.cpp:100] Creating Layer data
I1011 19:38:56.276170  8504 net.cpp:408] data -> data
I1011 19:38:56.276176  8504 net.cpp:408] data -> label
I1011 19:38:56.276181  8504 data_transformer.cpp:25] Loading mean file from: mean.binaryproto
I1011 19:38:56.276918  8511 db_lmdb.cpp:35] Opened lmdb ../../../data/cifar-10/cifar10_test_lmdb
I1011 19:38:56.277081  8504 data_layer.cpp:41] output data size: 100,3,32,32
I1011 19:38:56.279131  8504 net.cpp:150] Setting up data
I1011 19:38:56.279165  8504 net.cpp:157] Top shape: 100 3 32 32 (307200)
I1011 19:38:56.279168  8504 net.cpp:157] Top shape: 100 (100)
I1011 19:38:56.279170  8504 net.cpp:165] Memory required for data: 1229200
I1011 19:38:56.279175  8504 layer_factory.hpp:77] Creating layer label_data_1_split
I1011 19:38:56.279181  8504 net.cpp:100] Creating Layer label_data_1_split
I1011 19:38:56.279184  8504 net.cpp:434] label_data_1_split <- label
I1011 19:38:56.279188  8504 net.cpp:408] label_data_1_split -> label_data_1_split_0
I1011 19:38:56.279211  8504 net.cpp:408] label_data_1_split -> label_data_1_split_1
I1011 19:38:56.279294  8504 net.cpp:150] Setting up label_data_1_split
I1011 19:38:56.279312  8504 net.cpp:157] Top shape: 100 (100)
I1011 19:38:56.279314  8504 net.cpp:157] Top shape: 100 (100)
I1011 19:38:56.279316  8504 net.cpp:165] Memory required for data: 1230000
I1011 19:38:56.279331  8504 layer_factory.hpp:77] Creating layer conv1
I1011 19:38:56.279353  8504 net.cpp:100] Creating Layer conv1
I1011 19:38:56.279356  8504 net.cpp:434] conv1 <- data
I1011 19:38:56.279359  8504 net.cpp:408] conv1 -> conv1
I1011 19:38:56.280699  8504 net.cpp:150] Setting up conv1
I1011 19:38:56.280712  8504 net.cpp:157] Top shape: 100 96 30 30 (8640000)
I1011 19:38:56.280714  8504 net.cpp:165] Memory required for data: 35790000
I1011 19:38:56.280724  8504 layer_factory.hpp:77] Creating layer relu1
I1011 19:38:56.280730  8504 net.cpp:100] Creating Layer relu1
I1011 19:38:56.280733  8504 net.cpp:434] relu1 <- conv1
I1011 19:38:56.280736  8504 net.cpp:395] relu1 -> conv1 (in-place)
I1011 19:38:56.280881  8504 net.cpp:150] Setting up relu1
I1011 19:38:56.280900  8504 net.cpp:157] Top shape: 100 96 30 30 (8640000)
I1011 19:38:56.280902  8504 net.cpp:165] Memory required for data: 70350000
I1011 19:38:56.280905  8504 layer_factory.hpp:77] Creating layer conv2
I1011 19:38:56.280913  8504 net.cpp:100] Creating Layer conv2
I1011 19:38:56.280915  8504 net.cpp:434] conv2 <- conv1
I1011 19:38:56.280920  8504 net.cpp:408] conv2 -> conv2
I1011 19:38:56.282191  8504 net.cpp:150] Setting up conv2
I1011 19:38:56.282214  8504 net.cpp:157] Top shape: 100 96 28 28 (7526400)
I1011 19:38:56.282217  8504 net.cpp:165] Memory required for data: 100455600
I1011 19:38:56.282238  8504 layer_factory.hpp:77] Creating layer bn1
I1011 19:38:56.282244  8504 net.cpp:100] Creating Layer bn1
I1011 19:38:56.282246  8504 net.cpp:434] bn1 <- conv2
I1011 19:38:56.282250  8504 net.cpp:408] bn1 -> bn1
I1011 19:38:56.282498  8504 net.cpp:150] Setting up bn1
I1011 19:38:56.282503  8504 net.cpp:157] Top shape: 100 96 28 28 (7526400)
I1011 19:38:56.282505  8504 net.cpp:165] Memory required for data: 130561200
I1011 19:38:56.282519  8504 layer_factory.hpp:77] Creating layer relu2
I1011 19:38:56.282538  8504 net.cpp:100] Creating Layer relu2
I1011 19:38:56.282541  8504 net.cpp:434] relu2 <- bn1
I1011 19:38:56.282544  8504 net.cpp:395] relu2 -> bn1 (in-place)
I1011 19:38:56.282980  8504 net.cpp:150] Setting up relu2
I1011 19:38:56.282989  8504 net.cpp:157] Top shape: 100 96 28 28 (7526400)
I1011 19:38:56.283005  8504 net.cpp:165] Memory required for data: 160666800
I1011 19:38:56.283007  8504 layer_factory.hpp:77] Creating layer drop1
I1011 19:38:56.283013  8504 net.cpp:100] Creating Layer drop1
I1011 19:38:56.283030  8504 net.cpp:434] drop1 <- bn1
I1011 19:38:56.283035  8504 net.cpp:408] drop1 -> drop1
I1011 19:38:56.283071  8504 net.cpp:150] Setting up drop1
I1011 19:38:56.283077  8504 net.cpp:157] Top shape: 100 96 28 28 (7526400)
I1011 19:38:56.283078  8504 net.cpp:165] Memory required for data: 190772400
I1011 19:38:56.283080  8504 layer_factory.hpp:77] Creating layer conv3
I1011 19:38:56.283088  8504 net.cpp:100] Creating Layer conv3
I1011 19:38:56.283090  8504 net.cpp:434] conv3 <- drop1
I1011 19:38:56.283095  8504 net.cpp:408] conv3 -> conv3
I1011 19:38:56.284250  8504 net.cpp:150] Setting up conv3
I1011 19:38:56.284260  8504 net.cpp:157] Top shape: 100 96 13 13 (1622400)
I1011 19:38:56.284262  8504 net.cpp:165] Memory required for data: 197262000
I1011 19:38:56.284270  8504 layer_factory.hpp:77] Creating layer relu3
I1011 19:38:56.284276  8504 net.cpp:100] Creating Layer relu3
I1011 19:38:56.284278  8504 net.cpp:434] relu3 <- conv3
I1011 19:38:56.284282  8504 net.cpp:395] relu3 -> conv3 (in-place)
I1011 19:38:56.284510  8504 net.cpp:150] Setting up relu3
I1011 19:38:56.284520  8504 net.cpp:157] Top shape: 100 96 13 13 (1622400)
I1011 19:38:56.284523  8504 net.cpp:165] Memory required for data: 203751600
I1011 19:38:56.284525  8504 layer_factory.hpp:77] Creating layer conv4
I1011 19:38:56.284530  8504 net.cpp:100] Creating Layer conv4
I1011 19:38:56.284533  8504 net.cpp:434] conv4 <- conv3
I1011 19:38:56.284538  8504 net.cpp:408] conv4 -> conv4
I1011 19:38:56.286437  8504 net.cpp:150] Setting up conv4
I1011 19:38:56.286449  8504 net.cpp:157] Top shape: 100 192 11 11 (2323200)
I1011 19:38:56.286453  8504 net.cpp:165] Memory required for data: 213044400
I1011 19:38:56.286458  8504 layer_factory.hpp:77] Creating layer relu4
I1011 19:38:56.286463  8504 net.cpp:100] Creating Layer relu4
I1011 19:38:56.286466  8504 net.cpp:434] relu4 <- conv4
I1011 19:38:56.286470  8504 net.cpp:395] relu4 -> conv4 (in-place)
I1011 19:38:56.286620  8504 net.cpp:150] Setting up relu4
I1011 19:38:56.286626  8504 net.cpp:157] Top shape: 100 192 11 11 (2323200)
I1011 19:38:56.286641  8504 net.cpp:165] Memory required for data: 222337200
I1011 19:38:56.286644  8504 layer_factory.hpp:77] Creating layer conv5
I1011 19:38:56.286650  8504 net.cpp:100] Creating Layer conv5
I1011 19:38:56.286653  8504 net.cpp:434] conv5 <- conv4
I1011 19:38:56.286658  8504 net.cpp:408] conv5 -> conv5
I1011 19:38:56.289544  8504 net.cpp:150] Setting up conv5
I1011 19:38:56.289571  8504 net.cpp:157] Top shape: 100 192 9 9 (1555200)
I1011 19:38:56.289573  8504 net.cpp:165] Memory required for data: 228558000
I1011 19:38:56.289578  8504 layer_factory.hpp:77] Creating layer bn2
I1011 19:38:56.289583  8504 net.cpp:100] Creating Layer bn2
I1011 19:38:56.289587  8504 net.cpp:434] bn2 <- conv5
I1011 19:38:56.289590  8504 net.cpp:408] bn2 -> bn2
I1011 19:38:56.289801  8504 net.cpp:150] Setting up bn2
I1011 19:38:56.289806  8504 net.cpp:157] Top shape: 100 192 9 9 (1555200)
I1011 19:38:56.289808  8504 net.cpp:165] Memory required for data: 234778800
I1011 19:38:56.289813  8504 layer_factory.hpp:77] Creating layer relu5
I1011 19:38:56.289819  8504 net.cpp:100] Creating Layer relu5
I1011 19:38:56.289821  8504 net.cpp:434] relu5 <- bn2
I1011 19:38:56.289824  8504 net.cpp:395] relu5 -> bn2 (in-place)
I1011 19:38:56.290102  8504 net.cpp:150] Setting up relu5
I1011 19:38:56.290110  8504 net.cpp:157] Top shape: 100 192 9 9 (1555200)
I1011 19:38:56.290112  8504 net.cpp:165] Memory required for data: 240999600
I1011 19:38:56.290114  8504 layer_factory.hpp:77] Creating layer drop4
I1011 19:38:56.290118  8504 net.cpp:100] Creating Layer drop4
I1011 19:38:56.290120  8504 net.cpp:434] drop4 <- bn2
I1011 19:38:56.290124  8504 net.cpp:408] drop4 -> drop4
I1011 19:38:56.290174  8504 net.cpp:150] Setting up drop4
I1011 19:38:56.290192  8504 net.cpp:157] Top shape: 100 192 9 9 (1555200)
I1011 19:38:56.290194  8504 net.cpp:165] Memory required for data: 247220400
I1011 19:38:56.290196  8504 layer_factory.hpp:77] Creating layer conv6
I1011 19:38:56.290217  8504 net.cpp:100] Creating Layer conv6
I1011 19:38:56.290220  8504 net.cpp:434] conv6 <- drop4
I1011 19:38:56.290237  8504 net.cpp:408] conv6 -> conv6
I1011 19:38:56.292727  8504 net.cpp:150] Setting up conv6
I1011 19:38:56.292737  8504 net.cpp:157] Top shape: 100 192 4 4 (307200)
I1011 19:38:56.292739  8504 net.cpp:165] Memory required for data: 248449200
I1011 19:38:56.292747  8504 layer_factory.hpp:77] Creating layer relu6
I1011 19:38:56.292752  8504 net.cpp:100] Creating Layer relu6
I1011 19:38:56.292755  8504 net.cpp:434] relu6 <- conv6
I1011 19:38:56.292758  8504 net.cpp:395] relu6 -> conv6 (in-place)
I1011 19:38:56.293016  8504 net.cpp:150] Setting up relu6
I1011 19:38:56.293025  8504 net.cpp:157] Top shape: 100 192 4 4 (307200)
I1011 19:38:56.293026  8504 net.cpp:165] Memory required for data: 249678000
I1011 19:38:56.293028  8504 layer_factory.hpp:77] Creating layer conv7
I1011 19:38:56.293035  8504 net.cpp:100] Creating Layer conv7
I1011 19:38:56.293036  8504 net.cpp:434] conv7 <- conv6
I1011 19:38:56.293041  8504 net.cpp:408] conv7 -> conv7
I1011 19:38:56.295637  8504 net.cpp:150] Setting up conv7
I1011 19:38:56.295647  8504 net.cpp:157] Top shape: 100 192 2 2 (76800)
I1011 19:38:56.295650  8504 net.cpp:165] Memory required for data: 249985200
I1011 19:38:56.295653  8504 layer_factory.hpp:77] Creating layer relu7
I1011 19:38:56.295658  8504 net.cpp:100] Creating Layer relu7
I1011 19:38:56.295660  8504 net.cpp:434] relu7 <- conv7
I1011 19:38:56.295665  8504 net.cpp:395] relu7 -> conv7 (in-place)
I1011 19:38:56.295835  8504 net.cpp:150] Setting up relu7
I1011 19:38:56.295840  8504 net.cpp:157] Top shape: 100 192 2 2 (76800)
I1011 19:38:56.295842  8504 net.cpp:165] Memory required for data: 250292400
I1011 19:38:56.295845  8504 layer_factory.hpp:77] Creating layer conv8
I1011 19:38:56.295851  8504 net.cpp:100] Creating Layer conv8
I1011 19:38:56.295853  8504 net.cpp:434] conv8 <- conv7
I1011 19:38:56.295857  8504 net.cpp:408] conv8 -> conv8
I1011 19:38:56.296849  8504 net.cpp:150] Setting up conv8
I1011 19:38:56.296859  8504 net.cpp:157] Top shape: 100 192 2 2 (76800)
I1011 19:38:56.296860  8504 net.cpp:165] Memory required for data: 250599600
I1011 19:38:56.296864  8504 layer_factory.hpp:77] Creating layer relu8
I1011 19:38:56.296869  8504 net.cpp:100] Creating Layer relu8
I1011 19:38:56.296871  8504 net.cpp:434] relu8 <- conv8
I1011 19:38:56.296875  8504 net.cpp:395] relu8 -> conv8 (in-place)
I1011 19:38:56.297145  8504 net.cpp:150] Setting up relu8
I1011 19:38:56.297153  8504 net.cpp:157] Top shape: 100 192 2 2 (76800)
I1011 19:38:56.297155  8504 net.cpp:165] Memory required for data: 250906800
I1011 19:38:56.297158  8504 layer_factory.hpp:77] Creating layer conv9
I1011 19:38:56.297163  8504 net.cpp:100] Creating Layer conv9
I1011 19:38:56.297165  8504 net.cpp:434] conv9 <- conv8
I1011 19:38:56.297170  8504 net.cpp:408] conv9 -> conv9
I1011 19:38:56.297960  8504 net.cpp:150] Setting up conv9
I1011 19:38:56.297969  8504 net.cpp:157] Top shape: 100 10 2 2 (4000)
I1011 19:38:56.297971  8504 net.cpp:165] Memory required for data: 250922800
I1011 19:38:56.297976  8504 layer_factory.hpp:77] Creating layer relu9
I1011 19:38:56.297979  8504 net.cpp:100] Creating Layer relu9
I1011 19:38:56.297981  8504 net.cpp:434] relu9 <- conv9
I1011 19:38:56.297986  8504 net.cpp:395] relu9 -> conv9 (in-place)
I1011 19:38:56.298207  8504 net.cpp:150] Setting up relu9
I1011 19:38:56.298215  8504 net.cpp:157] Top shape: 100 10 2 2 (4000)
I1011 19:38:56.298218  8504 net.cpp:165] Memory required for data: 250938800
I1011 19:38:56.298220  8504 layer_factory.hpp:77] Creating layer pool
I1011 19:38:56.298225  8504 net.cpp:100] Creating Layer pool
I1011 19:38:56.298228  8504 net.cpp:434] pool <- conv9
I1011 19:38:56.298231  8504 net.cpp:408] pool -> pool
I1011 19:38:56.298379  8504 net.cpp:150] Setting up pool
I1011 19:38:56.298385  8504 net.cpp:157] Top shape: 100 10 1 1 (1000)
I1011 19:38:56.298388  8504 net.cpp:165] Memory required for data: 250942800
I1011 19:38:56.298389  8504 layer_factory.hpp:77] Creating layer flatten
I1011 19:38:56.298393  8504 net.cpp:100] Creating Layer flatten
I1011 19:38:56.298396  8504 net.cpp:434] flatten <- pool
I1011 19:38:56.298399  8504 net.cpp:408] flatten -> flatten
I1011 19:38:56.298421  8504 net.cpp:150] Setting up flatten
I1011 19:38:56.298425  8504 net.cpp:157] Top shape: 100 10 (1000)
I1011 19:38:56.298427  8504 net.cpp:165] Memory required for data: 250946800
I1011 19:38:56.298429  8504 layer_factory.hpp:77] Creating layer score
I1011 19:38:56.298434  8504 net.cpp:100] Creating Layer score
I1011 19:38:56.298435  8504 net.cpp:434] score <- flatten
I1011 19:38:56.298439  8504 net.cpp:408] score -> score
I1011 19:38:56.298562  8504 net.cpp:150] Setting up score
I1011 19:38:56.298565  8504 net.cpp:157] Top shape: 100 10 (1000)
I1011 19:38:56.298568  8504 net.cpp:165] Memory required for data: 250950800
I1011 19:38:56.298571  8504 layer_factory.hpp:77] Creating layer score_score_0_split
I1011 19:38:56.298575  8504 net.cpp:100] Creating Layer score_score_0_split
I1011 19:38:56.298578  8504 net.cpp:434] score_score_0_split <- score
I1011 19:38:56.298581  8504 net.cpp:408] score_score_0_split -> score_score_0_split_0
I1011 19:38:56.298585  8504 net.cpp:408] score_score_0_split -> score_score_0_split_1
I1011 19:38:56.298614  8504 net.cpp:150] Setting up score_score_0_split
I1011 19:38:56.298619  8504 net.cpp:157] Top shape: 100 10 (1000)
I1011 19:38:56.298620  8504 net.cpp:157] Top shape: 100 10 (1000)
I1011 19:38:56.298622  8504 net.cpp:165] Memory required for data: 250958800
I1011 19:38:56.298624  8504 layer_factory.hpp:77] Creating layer accuracy
I1011 19:38:56.298629  8504 net.cpp:100] Creating Layer accuracy
I1011 19:38:56.298631  8504 net.cpp:434] accuracy <- score_score_0_split_0
I1011 19:38:56.298635  8504 net.cpp:434] accuracy <- label_data_1_split_0
I1011 19:38:56.298638  8504 net.cpp:408] accuracy -> accuracy
…
