…
  stage: ""
}
type: "Nesterov"
I1012 20:20:38.361963  7147 solver.cpp:81] Creating training net from train_net file: /home/adam/Honours/Honours-Project/cifar-10_allcnn/relu/allcnn_relu_train.prototxt
I1012 20:20:38.362293  7147 net.cpp:58] Initializing net from parameters: 
state {
  phase: TRAIN
  level: 0
  stage: ""
}
layer {
  name: "data"
  type: "Data"
  top: "data"
  top: "label"
  transform_param {
    mean_file: "mean.binaryproto"
  }
  data_param {
    source: "../../../data/cifar-10/cifar10_train_lmdb"
    batch_size: 64
    backend: LMDB
  }
}
layer {
  name: "conv1"
  type: "Convolution"
  bottom: "data"
  top: "conv1"
  convolution_param {
    num_output: 96
    kernel_size: 3
    weight_filler {
      type: "xavier"
    }
  }
}
layer {
  name: "relu1"
  type: "ReLU"
  bottom: "conv1"
  top: "conv1"
}
layer {
  name: "conv2"
  type: "Convolution"
  bottom: "conv1"
  top: "conv2"
  convolution_param {
    num_output: 96
    kernel_size: 3
    weight_filler {
      type: "xavier"
    }
  }
}
layer {
  name: "bn1"
  type: "BatchNorm"
  bottom: "conv2"
  top: "bn1"
}
layer {
  name: "relu2"
  type: "ReLU"
  bottom: "bn1"
  top: "bn1"
}
layer {
  name: "conv3"
  type: "Convolution"
  bottom: "bn1"
  top: "conv3"
  convolution_param {
    num_output: 96
    kernel_size: 3
    stride: 2
    weight_filler {
      type: "xavier"
    }
  }
}
layer {
  name: "drop1"
  type: "Dropout"
  bottom: "conv3"
  top: "drop1"
  dropout_param {
    dropout_ratio: 0.5
  }
}
layer {
  name: "relu3"
  type: "ReLU"
  bottom: "drop1"
  top: "drop1"
}
layer {
  name: "conv4"
  type: "Convolution"
  bottom: "drop1"
  top: "conv4"
  convolution_param {
    num_output: 192
    kernel_size: 3
    weight_filler {
      type: "xavier"
    }
  }
}
layer {
  name: "relu4"
  type: "ReLU"
  bottom: "conv4"
  top: "conv4"
}
layer {
  name: "conv5"
  type: "Convolution"
  bottom: "conv4"
  top: "conv5"
  convolution_param {
    num_output: 192
    kernel_size: 3
    weight_filler {
      type: "xavier"
    }
  }
}
layer {
  name: "bn2"
  type: "BatchNorm"
  bottom: "conv5"
  top: "bn2"
}
layer {
  name: "relu5"
  type: "ReLU"
  bottom: "bn2"
  top: "bn2"
}
layer {
  name: "conv6"
  type: "Convolution"
  bottom: "bn2"
  top: "conv6"
  convolution_param {
    num_output: 192
    kernel_size: 3
    stride: 2
    weight_filler {
      type: "xavier"
    }
  }
}
layer {
  name: "drop4"
  type: "Dropout"
  bottom: "conv6"
  top: "drop4"
  dropout_param {
    dropout_ratio: 0.5
  }
}
layer {
  name: "relu6"
  type: "ReLU"
  bottom: "drop4"
  top: "drop4"
}
layer {
  name: "conv7"
  type: "Convolution"
  bottom: "drop4"
  top: "conv7"
  convolution_param {
    num_output: 192
    kernel_size: 3
    weight_filler {
      type: "xavier"
    }
  }
}
layer {
  name: "relu7"
  type: "ReLU"
  bottom: "conv7"
  top: "conv7"
}
layer {
  name: "conv8"
  type: "Convolution"
  bottom: "conv7"
  top: "conv8"
  convolution_param {
    num_output: 192
    kernel_size: 1
    weight_filler {
      type: "xavier"
    }
  }
}
layer {
  name: "relu8"
  type: "ReLU"
  bottom: "conv8"
  top: "conv8"
}
layer {
  name: "conv9"
  type: "Convolution"
  bottom: "conv8"
  top: "conv9"
  convolution_param {
    num_output: 10
    kernel_size: 1
    weight_filler {
      type: "xavier"
    }
  }
}
layer {
  name: "relu9"
  type: "ReLU"
  bottom: "conv9"
  top: "conv9"
}
layer {
  name: "pool"
  type: "Pooling"
  bottom: "conv9"
  top: "pool"
  pooling_param {
    pool: AVE
    global_pooling: true
  }
}
layer {
  name: "flatten"
  type: "Flatten"
  bottom: "pool"
  top: "flatten"
}
layer {
  name: "score"
  type: "InnerProduct"
  bottom: "flatten"
  top: "score"
  inner_product_param {
    num_output: 10
    weight_filler {
      type: "gaussian"
    }
  }
}
layer {
  name: "accuracy"
  type: "Accuracy"
  bottom: "score"
  bottom: "label"
  top: "accuracy"
}
layer {
  name: "loss"
  type: "SoftmaxWithLoss"
  bottom: "score"
  bottom: "label"
  top: "loss"
}
I1012 20:20:38.362473  7147 layer_factory.hpp:77] Creating layer data
I1012 20:20:38.362932  7147 net.cpp:100] Creating Layer data
I1012 20:20:38.362941  7147 net.cpp:408] data -> data
I1012 20:20:38.362957  7147 net.cpp:408] data -> label
I1012 20:20:38.362996  7147 data_transformer.cpp:25] Loading mean file from: mean.binaryproto
I1012 20:20:38.363611  7152 db_lmdb.cpp:35] Opened lmdb ../../../data/cifar-10/cifar10_train_lmdb
I1012 20:20:38.370029  7147 data_layer.cpp:41] output data size: 64,3,32,32
I1012 20:20:38.371528  7147 net.cpp:150] Setting up data
I1012 20:20:38.371543  7147 net.cpp:157] Top shape: 64 3 32 32 (196608)
I1012 20:20:38.371547  7147 net.cpp:157] Top shape: 64 (64)
I1012 20:20:38.371572  7147 net.cpp:165] Memory required for data: 786688
I1012 20:20:38.371579  7147 layer_factory.hpp:77] Creating layer label_data_1_split
I1012 20:20:38.371589  7147 net.cpp:100] Creating Layer label_data_1_split
I1012 20:20:38.371594  7147 net.cpp:434] label_data_1_split <- label
I1012 20:20:38.371619  7147 net.cpp:408] label_data_1_split -> label_data_1_split_0
I1012 20:20:38.371640  7147 net.cpp:408] label_data_1_split -> label_data_1_split_1
I1012 20:20:38.371716  7147 net.cpp:150] Setting up label_data_1_split
I1012 20:20:38.371721  7147 net.cpp:157] Top shape: 64 (64)
I1012 20:20:38.371724  7147 net.cpp:157] Top shape: 64 (64)
I1012 20:20:38.371726  7147 net.cpp:165] Memory required for data: 787200
I1012 20:20:38.371728  7147 layer_factory.hpp:77] Creating layer conv1
I1012 20:20:38.371739  7147 net.cpp:100] Creating Layer conv1
I1012 20:20:38.371742  7147 net.cpp:434] conv1 <- data
I1012 20:20:38.371747  7147 net.cpp:408] conv1 -> conv1
I1012 20:20:38.508844  7147 net.cpp:150] Setting up conv1
I1012 20:20:38.508868  7147 net.cpp:157] Top shape: 64 96 30 30 (5529600)
I1012 20:20:38.508872  7147 net.cpp:165] Memory required for data: 22905600
I1012 20:20:38.508888  7147 layer_factory.hpp:77] Creating layer relu1
I1012 20:20:38.508896  7147 net.cpp:100] Creating Layer relu1
I1012 20:20:38.508899  7147 net.cpp:434] relu1 <- conv1
I1012 20:20:38.508903  7147 net.cpp:395] relu1 -> conv1 (in-place)
I1012 20:20:38.509107  7147 net.cpp:150] Setting up relu1
I1012 20:20:38.509114  7147 net.cpp:157] Top shape: 64 96 30 30 (5529600)
I1012 20:20:38.509116  7147 net.cpp:165] Memory required for data: 45024000
I1012 20:20:38.509119  7147 layer_factory.hpp:77] Creating layer conv2
I1012 20:20:38.509126  7147 net.cpp:100] Creating Layer conv2
I1012 20:20:38.509129  7147 net.cpp:434] conv2 <- conv1
I1012 20:20:38.509132  7147 net.cpp:408] conv2 -> conv2
I1012 20:20:38.510511  7147 net.cpp:150] Setting up conv2
I1012 20:20:38.510521  7147 net.cpp:157] Top shape: 64 96 28 28 (4816896)
I1012 20:20:38.510524  7147 net.cpp:165] Memory required for data: 64291584
I1012 20:20:38.510529  7147 layer_factory.hpp:77] Creating layer bn1
I1012 20:20:38.510535  7147 net.cpp:100] Creating Layer bn1
I1012 20:20:38.510536  7147 net.cpp:434] bn1 <- conv2
I1012 20:20:38.510540  7147 net.cpp:408] bn1 -> bn1
I1012 20:20:38.510751  7147 net.cpp:150] Setting up bn1
I1012 20:20:38.510756  7147 net.cpp:157] Top shape: 64 96 28 28 (4816896)
I1012 20:20:38.510757  7147 net.cpp:165] Memory required for data: 83559168
I1012 20:20:38.510763  7147 layer_factory.hpp:77] Creating layer relu2
I1012 20:20:38.510766  7147 net.cpp:100] Creating Layer relu2
I1012 20:20:38.510768  7147 net.cpp:434] relu2 <- bn1
I1012 20:20:38.510771  7147 net.cpp:395] relu2 -> bn1 (in-place)
I1012 20:20:38.510936  7147 net.cpp:150] Setting up relu2
I1012 20:20:38.510941  7147 net.cpp:157] Top shape: 64 96 28 28 (4816896)
I1012 20:20:38.510954  7147 net.cpp:165] Memory required for data: 102826752
I1012 20:20:38.510957  7147 layer_factory.hpp:77] Creating layer conv3
I1012 20:20:38.510962  7147 net.cpp:100] Creating Layer conv3
I1012 20:20:38.510964  7147 net.cpp:434] conv3 <- bn1
I1012 20:20:38.510967  7147 net.cpp:408] conv3 -> conv3
I1012 20:20:38.512121  7147 net.cpp:150] Setting up conv3
I1012 20:20:38.512131  7147 net.cpp:157] Top shape: 64 96 13 13 (1038336)
I1012 20:20:38.512133  7147 net.cpp:165] Memory required for data: 106980096
I1012 20:20:38.512140  7147 layer_factory.hpp:77] Creating layer drop1
I1012 20:20:38.512145  7147 net.cpp:100] Creating Layer drop1
I1012 20:20:38.512147  7147 net.cpp:434] drop1 <- conv3
I1012 20:20:38.512151  7147 net.cpp:408] drop1 -> drop1
I1012 20:20:38.512197  7147 net.cpp:150] Setting up drop1
I1012 20:20:38.512215  7147 net.cpp:157] Top shape: 64 96 13 13 (1038336)
I1012 20:20:38.512217  7147 net.cpp:165] Memory required for data: 111133440
I1012 20:20:38.512219  7147 layer_factory.hpp:77] Creating layer relu3
I1012 20:20:38.512235  7147 net.cpp:100] Creating Layer relu3
I1012 20:20:38.512238  7147 net.cpp:434] relu3 <- drop1
I1012 20:20:38.512240  7147 net.cpp:395] relu3 -> drop1 (in-place)
I1012 20:20:38.512521  7147 net.cpp:150] Setting up relu3
I1012 20:20:38.512531  7147 net.cpp:157] Top shape: 64 96 13 13 (1038336)
I1012 20:20:38.512532  7147 net.cpp:165] Memory required for data: 115286784
I1012 20:20:38.512536  7147 layer_factory.hpp:77] Creating layer conv4
I1012 20:20:38.512540  7147 net.cpp:100] Creating Layer conv4
I1012 20:20:38.512543  7147 net.cpp:434] conv4 <- drop1
I1012 20:20:38.512547  7147 net.cpp:408] conv4 -> conv4
I1012 20:20:38.514370  7147 net.cpp:150] Setting up conv4
I1012 20:20:38.514380  7147 net.cpp:157] Top shape: 64 192 11 11 (1486848)
I1012 20:20:38.514382  7147 net.cpp:165] Memory required for data: 121234176
I1012 20:20:38.514386  7147 layer_factory.hpp:77] Creating layer relu4
I1012 20:20:38.514390  7147 net.cpp:100] Creating Layer relu4
I1012 20:20:38.514392  7147 net.cpp:434] relu4 <- conv4
I1012 20:20:38.514396  7147 net.cpp:395] relu4 -> conv4 (in-place)
I1012 20:20:38.514590  7147 net.cpp:150] Setting up relu4
I1012 20:20:38.514598  7147 net.cpp:157] Top shape: 64 192 11 11 (1486848)
I1012 20:20:38.514600  7147 net.cpp:165] Memory required for data: 127181568
I1012 20:20:38.514602  7147 layer_factory.hpp:77] Creating layer conv5
I1012 20:20:38.514608  7147 net.cpp:100] Creating Layer conv5
I1012 20:20:38.514611  7147 net.cpp:434] conv5 <- conv4
I1012 20:20:38.514614  7147 net.cpp:408] conv5 -> conv5
I1012 20:20:38.517122  7147 net.cpp:150] Setting up conv5
I1012 20:20:38.517132  7147 net.cpp:157] Top shape: 64 192 9 9 (995328)
I1012 20:20:38.517133  7147 net.cpp:165] Memory required for data: 131162880
I1012 20:20:38.517138  7147 layer_factory.hpp:77] Creating layer bn2
I1012 20:20:38.517143  7147 net.cpp:100] Creating Layer bn2
I1012 20:20:38.517145  7147 net.cpp:434] bn2 <- conv5
I1012 20:20:38.517149  7147 net.cpp:408] bn2 -> bn2
I1012 20:20:38.517325  7147 net.cpp:150] Setting up bn2
I1012 20:20:38.517330  7147 net.cpp:157] Top shape: 64 192 9 9 (995328)
I1012 20:20:38.517333  7147 net.cpp:165] Memory required for data: 135144192
I1012 20:20:38.517336  7147 layer_factory.hpp:77] Creating layer relu5
I1012 20:20:38.517339  7147 net.cpp:100] Creating Layer relu5
I1012 20:20:38.517341  7147 net.cpp:434] relu5 <- bn2
I1012 20:20:38.517345  7147 net.cpp:395] relu5 -> bn2 (in-place)
I1012 20:20:38.517515  7147 net.cpp:150] Setting up relu5
I1012 20:20:38.517523  7147 net.cpp:157] Top shape: 64 192 9 9 (995328)
I1012 20:20:38.517524  7147 net.cpp:165] Memory required for data: 139125504
I1012 20:20:38.517526  7147 layer_factory.hpp:77] Creating layer conv6
I1012 20:20:38.517531  7147 net.cpp:100] Creating Layer conv6
I1012 20:20:38.517534  7147 net.cpp:434] conv6 <- bn2
I1012 20:20:38.517537  7147 net.cpp:408] conv6 -> conv6
I1012 20:20:38.520038  7147 net.cpp:150] Setting up conv6
I1012 20:20:38.520066  7147 net.cpp:157] Top shape: 64 192 4 4 (196608)
I1012 20:20:38.520078  7147 net.cpp:165] Memory required for data: 139911936
I1012 20:20:38.520088  7147 layer_factory.hpp:77] Creating layer drop4
I1012 20:20:38.520112  7147 net.cpp:100] Creating Layer drop4
I1012 20:20:38.520129  7147 net.cpp:434] drop4 <- conv6
I1012 20:20:38.520133  7147 net.cpp:408] drop4 -> drop4
I1012 20:20:38.520166  7147 net.cpp:150] Setting up drop4
I1012 20:20:38.520171  7147 net.cpp:157] Top shape: 64 192 4 4 (196608)
I1012 20:20:38.520174  7147 net.cpp:165] Memory required for data: 140698368
I1012 20:20:38.520175  7147 layer_factory.hpp:77] Creating layer relu6
I1012 20:20:38.520179  7147 net.cpp:100] Creating Layer relu6
I1012 20:20:38.520180  7147 net.cpp:434] relu6 <- drop4
I1012 20:20:38.520184  7147 net.cpp:395] relu6 -> drop4 (in-place)
I1012 20:20:38.520462  7147 net.cpp:150] Setting up relu6
I1012 20:20:38.520483  7147 net.cpp:157] Top shape: 64 192 4 4 (196608)
I1012 20:20:38.520486  7147 net.cpp:165] Memory required for data: 141484800
I1012 20:20:38.520488  7147 layer_factory.hpp:77] Creating layer conv7
I1012 20:20:38.520494  7147 net.cpp:100] Creating Layer conv7
I1012 20:20:38.520498  7147 net.cpp:434] conv7 <- drop4
I1012 20:20:38.520500  7147 net.cpp:408] conv7 -> conv7
I1012 20:20:38.523701  7147 net.cpp:150] Setting up conv7
I1012 20:20:38.523720  7147 net.cpp:157] Top shape: 64 192 2 2 (49152)
I1012 20:20:38.523723  7147 net.cpp:165] Memory required for data: 141681408
I1012 20:20:38.523730  7147 layer_factory.hpp:77] Creating layer relu7
I1012 20:20:38.523735  7147 net.cpp:100] Creating Layer relu7
I1012 20:20:38.523737  7147 net.cpp:434] relu7 <- conv7
I1012 20:20:38.523741  7147 net.cpp:395] relu7 -> conv7 (in-place)
I1012 20:20:38.523995  7147 net.cpp:150] Setting up relu7
I1012 20:20:38.524003  7147 net.cpp:157] Top shape: 64 192 2 2 (49152)
I1012 20:20:38.524005  7147 net.cpp:165] Memory required for data: 141878016
I1012 20:20:38.524008  7147 layer_factory.hpp:77] Creating layer conv8
I1012 20:20:38.524015  7147 net.cpp:100] Creating Layer conv8
I1012 20:20:38.524019  7147 net.cpp:434] conv8 <- conv7
I1012 20:20:38.524021  7147 net.cpp:408] conv8 -> conv8
I1012 20:20:38.525269  7147 net.cpp:150] Setting up conv8
I1012 20:20:38.525279  7147 net.cpp:157] Top shape: 64 192 2 2 (49152)
I1012 20:20:38.525281  7147 net.cpp:165] Memory required for data: 142074624
I1012 20:20:38.525285  7147 layer_factory.hpp:77] Creating layer relu8
I1012 20:20:38.525290  7147 net.cpp:100] Creating Layer relu8
I1012 20:20:38.525291  7147 net.cpp:434] relu8 <- conv8
I1012 20:20:38.525296  7147 net.cpp:395] relu8 -> conv8 (in-place)
I1012 20:20:38.525465  7147 net.cpp:150] Setting up relu8
I1012 20:20:38.525471  7147 net.cpp:157] Top shape: 64 192 2 2 (49152)
I1012 20:20:38.525473  7147 net.cpp:165] Memory required for data: 142271232
I1012 20:20:38.525475  7147 layer_factory.hpp:77] Creating layer conv9
I1012 20:20:38.525480  7147 net.cpp:100] Creating Layer conv9
I1012 20:20:38.525482  7147 net.cpp:434] conv9 <- conv8
I1012 20:20:38.525486  7147 net.cpp:408] conv9 -> conv9
I1012 20:20:38.526285  7147 net.cpp:150] Setting up conv9
I1012 20:20:38.526294  7147 net.cpp:157] Top shape: 64 10 2 2 (2560)
I1012 20:20:38.526296  7147 net.cpp:165] Memory required for data: 142281472
I1012 20:20:38.526300  7147 layer_factory.hpp:77] Creating layer relu9
I1012 20:20:38.526304  7147 net.cpp:100] Creating Layer relu9
I1012 20:20:38.526306  7147 net.cpp:434] relu9 <- conv9
I1012 20:20:38.526310  7147 net.cpp:395] relu9 -> conv9 (in-place)
I1012 20:20:38.526579  7147 net.cpp:150] Setting up relu9
I1012 20:20:38.526587  7147 net.cpp:157] Top shape: 64 10 2 2 (2560)
I1012 20:20:38.526589  7147 net.cpp:165] Memory required for data: 142291712
I1012 20:20:38.526592  7147 layer_factory.hpp:77] Creating layer pool
I1012 20:20:38.526595  7147 net.cpp:100] Creating Layer pool
I1012 20:20:38.526597  7147 net.cpp:434] pool <- conv9
I1012 20:20:38.526602  7147 net.cpp:408] pool -> pool
I1012 20:20:38.526793  7147 net.cpp:150] Setting up pool
I1012 20:20:38.526798  7147 net.cpp:157] Top shape: 64 10 1 1 (640)
I1012 20:20:38.526809  7147 net.cpp:165] Memory required for data: 142294272
I1012 20:20:38.526813  7147 layer_factory.hpp:77] Creating layer flatten
I1012 20:20:38.526816  7147 net.cpp:100] Creating Layer flatten
I1012 20:20:38.526818  7147 net.cpp:434] flatten <- pool
I1012 20:20:38.526823  7147 net.cpp:408] flatten -> flatten
I1012 20:20:38.526870  7147 net.cpp:150] Setting up flatten
I1012 20:20:38.526873  7147 net.cpp:157] Top shape: 64 10 (640)
I1012 20:20:38.526875  7147 net.cpp:165] Memory required for data: 142296832
I1012 20:20:38.526891  7147 layer_factory.hpp:77] Creating layer score
I1012 20:20:38.526895  7147 net.cpp:100] Creating Layer score
I1012 20:20:38.526897  7147 net.cpp:434] score <- flatten
I1012 20:20:38.526914  7147 net.cpp:408] score -> score
I1012 20:20:38.527052  7147 net.cpp:150] Setting up score
I1012 20:20:38.527057  7147 net.cpp:157] Top shape: 64 10 (640)
I1012 20:20:38.527060  7147 net.cpp:165] Memory required for data: 142299392
I1012 20:20:38.527062  7147 layer_factory.hpp:77] Creating layer score_score_0_split
I1012 20:20:38.527067  7147 net.cpp:100] Creating Layer score_score_0_split
I1012 20:20:38.527070  7147 net.cpp:434] score_score_0_split <- score
I1012 20:20:38.527072  7147 net.cpp:408] score_score_0_split -> score_score_0_split_0
I1012 20:20:38.527076  7147 net.cpp:408] score_score_0_split -> score_score_0_split_1
I1012 20:20:38.527117  7147 net.cpp:150] Setting up score_score_0_split
I1012 20:20:38.527122  7147 net.cpp:157] Top shape: 64 10 (640)
I1012 20:20:38.527123  7147 net.cpp:157] Top shape: 64 10 (640)
I1012 20:20:38.527125  7147 net.cpp:165] Memory required for data: 142304512
I1012 20:20:38.527127  7147 layer_factory.hpp:77] Creating layer accuracy
I1012 20:20:38.527145  7147 net.cpp:100] Creating Layer accuracy
I1012 20:20:38.527148  7147 net.cpp:434] accuracy <- score_score_0_split_0
I1012 20:20:38.527150  7147 net.cpp:434] accuracy <- label_data_1_split_0
I1012 20:20:38.527168  7147 net.cpp:408] accuracy -> accuracy
…
I1012 20:20:38.527745  7147 net.cpp:283] Network initialization done.
I1012 20:20:38.527957  7147 solver.cpp:181] Creating test net (#0) specified by test_net file: /home/adam/Honours/Honours-Project/cifar-10_allcnn/relu/allcnn_relu_test.prototxt
I1012 20:20:38.528128  7147 net.cpp:58] Initializing net from parameters: 
state {
  phase: TEST
}
layer {
  name: "data"
  type: "Data"
  top: "data"
  top: "label"
  transform_param {
    mean_file: "mean.binaryproto"
  }
  data_param {
    source: "../../../data/cifar-10/cifar10_test_lmdb"
    batch_size: 100
    backend: LMDB
  }
}
layer {
  name: "conv1"
  type: "Convolution"
  bottom: "data"
  top: "conv1"
  convolution_param {
    num_output: 96
    kernel_size: 3
    weight_filler {
      type: "xavier"
    }
  }
}
layer {
  name: "relu1"
  type: "ReLU"
  bottom: "conv1"
  top: "conv1"
}
layer {
  name: "conv2"
  type: "Convolution"
  bottom: "conv1"
  top: "conv2"
  convolution_param {
    num_output: 96
    kernel_size: 3
    weight_filler {
      type: "xavier"
    }
  }
}
layer {
  name: "bn1"
  type: "BatchNorm"
  bottom: "conv2"
  top: "bn1"
}
layer {
  name: "relu2"
  type: "ReLU"
  bottom: "bn1"
  top: "bn1"
}
layer {
  name: "conv3"
  type: "Convolution"
  bottom: "bn1"
  top: "conv3"
  convolution_param {
    num_output: 96
    kernel_size: 3
    stride: 2
    weight_filler {
      type: "xavier"
    }
  }
}
layer {
  name: "drop1"
  type: "Dropout"
  bottom: "conv3"
  top: "drop1"
  dropout_param {
    dropout_ratio: 0.5
  }
}
layer {
  name: "relu3"
  type: "ReLU"
  bottom: "drop1"
  top: "drop1"
}
layer {
  name: "conv4"
  type: "Convolution"
  bottom: "drop1"
  top: "conv4"
  convolution_param {
    num_output: 192
    kernel_size: 3
    weight_filler {
      type: "xavier"
    }
  }
}
layer {
  name: "relu4"
  type: "ReLU"
  bottom: "conv4"
  top: "conv4"
}
layer {
  name: "conv5"
  type: "Convolution"
  bottom: "conv4"
  top: "conv5"
  convolution_param {
    num_output: 192
    kernel_size: 3
    weight_filler {
      type: "xavier"
    }
  }
}
layer {
  name: "bn2"
  type: "BatchNorm"
  bottom: "conv5"
  top: "bn2"
}
layer {
  name: "relu5"
  type: "ReLU"
  bottom: "bn2"
  top: "bn2"
}
layer {
  name: "conv6"
  type: "Convolution"
  bottom: "bn2"
  top: "conv6"
  convolution_param {
    num_output: 192
    kernel_size: 3
    stride: 2
    weight_filler {
      type: "xavier"
    }
  }
}
layer {
  name: "drop4"
  type: "Dropout"
  bottom: "conv6"
  top: "drop4"
  dropout_param {
    dropout_ratio: 0.5
  }
}
layer {
  name: "relu6"
  type: "ReLU"
  bottom: "drop4"
  top: "drop4"
}
layer {
  name: "conv7"
  type: "Convolution"
  bottom: "drop4"
  top: "conv7"
  convolution_param {
    num_output: 192
    kernel_size: 3
    weight_filler {
      type: "xavier"
    }
  }
}
layer {
  name: "relu7"
  type: "ReLU"
  bottom: "conv7"
  top: "conv7"
}
layer {
  name: "conv8"
  type: "Convolution"
  bottom: "conv7"
  top: "conv8"
  convolution_param {
    num_output: 192
    kernel_size: 1
    weight_filler {
      type: "xavier"
    }
  }
}
layer {
  name: "relu8"
  type: "ReLU"
  bottom: "conv8"
  top: "conv8"
}
layer {
  name: "conv9"
  type: "Convolution"
  bottom: "conv8"
  top: "conv9"
  convolution_param {
    num_output: 10
    kernel_size: 1
    weight_filler {
      type: "xavier"
    }
  }
}
layer {
  name: "relu9"
  type: "ReLU"
  bottom: "conv9"
  top: "conv9"
}
layer {
  name: "pool"
  type: "Pooling"
  bottom: "conv9"
  top: "pool"
  pooling_param {
    pool: AVE
    global_pooling: true
  }
}
layer {
  name: "flatten"
  type: "Flatten"
  bottom: "pool"
  top: "flatten"
}
layer {
  name: "score"
  type: "InnerProduct"
  bottom: "flatten"
  top: "score"
  inner_product_param {
    num_output: 10
    weight_filler {
      type: "gaussian"
    }
  }
}
layer {
  name: "accuracy"
  type: "Accuracy"
  bottom: "score"
  bottom: "label"
  top: "accuracy"
}
layer {
  name: "loss"
  type: "SoftmaxWithLoss"
  bottom: "score"
  bottom: "label"
  top: "loss"
}
I1012 20:20:38.528259  7147 layer_factory.hpp:77] Creating layer data
I1012 20:20:38.528342  7147 net.cpp:100] Creating Layer data
I1012 20:20:38.528348  7147 net.cpp:408] data -> data
I1012 20:20:38.528354  7147 net.cpp:408] data -> label
I1012 20:20:38.528359  7147 data_transformer.cpp:25] Loading mean file from: mean.binaryproto
I1012 20:20:38.529065  7154 db_lmdb.cpp:35] Opened lmdb ../../../data/cifar-10/cifar10_test_lmdb
I1012 20:20:38.529167  7147 data_layer.cpp:41] output data size: 100,3,32,32
I1012 20:20:38.531076  7147 net.cpp:150] Setting up data
I1012 20:20:38.531117  7147 net.cpp:157] Top shape: 100 3 32 32 (307200)
I1012 20:20:38.531121  7147 net.cpp:157] Top shape: 100 (100)
I1012 20:20:38.531122  7147 net.cpp:165] Memory required for data: 1229200
I1012 20:20:38.531127  7147 layer_factory.hpp:77] Creating layer label_data_1_split
I1012 20:20:38.531136  7147 net.cpp:100] Creating Layer label_data_1_split
I1012 20:20:38.531137  7147 net.cpp:434] label_data_1_split <- label
I1012 20:20:38.531143  7147 net.cpp:408] label_data_1_split -> label_data_1_split_0
I1012 20:20:38.531165  7147 net.cpp:408] label_data_1_split -> label_data_1_split_1
I1012 20:20:38.531297  7147 net.cpp:150] Setting up label_data_1_split
I1012 20:20:38.531303  7147 net.cpp:157] Top shape: 100 (100)
I1012 20:20:38.531318  7147 net.cpp:157] Top shape: 100 (100)
I1012 20:20:38.531321  7147 net.cpp:165] Memory required for data: 1230000
I1012 20:20:38.531322  7147 layer_factory.hpp:77] Creating layer conv1
I1012 20:20:38.531344  7147 net.cpp:100] Creating Layer conv1
I1012 20:20:38.531347  7147 net.cpp:434] conv1 <- data
I1012 20:20:38.531350  7147 net.cpp:408] conv1 -> conv1
I1012 20:20:38.532486  7147 net.cpp:150] Setting up conv1
I1012 20:20:38.532497  7147 net.cpp:157] Top shape: 100 96 30 30 (8640000)
I1012 20:20:38.532500  7147 net.cpp:165] Memory required for data: 35790000
I1012 20:20:38.532524  7147 layer_factory.hpp:77] Creating layer relu1
I1012 20:20:38.532528  7147 net.cpp:100] Creating Layer relu1
I1012 20:20:38.532531  7147 net.cpp:434] relu1 <- conv1
I1012 20:20:38.532536  7147 net.cpp:395] relu1 -> conv1 (in-place)
I1012 20:20:38.532691  7147 net.cpp:150] Setting up relu1
I1012 20:20:38.532697  7147 net.cpp:157] Top shape: 100 96 30 30 (8640000)
I1012 20:20:38.532714  7147 net.cpp:165] Memory required for data: 70350000
I1012 20:20:38.532716  7147 layer_factory.hpp:77] Creating layer conv2
I1012 20:20:38.532726  7147 net.cpp:100] Creating Layer conv2
I1012 20:20:38.532727  7147 net.cpp:434] conv2 <- conv1
I1012 20:20:38.532745  7147 net.cpp:408] conv2 -> conv2
I1012 20:20:38.534117  7147 net.cpp:150] Setting up conv2
I1012 20:20:38.534129  7147 net.cpp:157] Top shape: 100 96 28 28 (7526400)
I1012 20:20:38.534132  7147 net.cpp:165] Memory required for data: 100455600
I1012 20:20:38.534138  7147 layer_factory.hpp:77] Creating layer bn1
I1012 20:20:38.534144  7147 net.cpp:100] Creating Layer bn1
I1012 20:20:38.534147  7147 net.cpp:434] bn1 <- conv2
I1012 20:20:38.534162  7147 net.cpp:408] bn1 -> bn1
I1012 20:20:38.534337  7147 net.cpp:150] Setting up bn1
I1012 20:20:38.534343  7147 net.cpp:157] Top shape: 100 96 28 28 (7526400)
I1012 20:20:38.534346  7147 net.cpp:165] Memory required for data: 130561200
I1012 20:20:38.534353  7147 layer_factory.hpp:77] Creating layer relu2
I1012 20:20:38.534358  7147 net.cpp:100] Creating Layer relu2
I1012 20:20:38.534359  7147 net.cpp:434] relu2 <- bn1
I1012 20:20:38.534363  7147 net.cpp:395] relu2 -> bn1 (in-place)
I1012 20:20:38.534612  7147 net.cpp:150] Setting up relu2
I1012 20:20:38.534622  7147 net.cpp:157] Top shape: 100 96 28 28 (7526400)
I1012 20:20:38.534626  7147 net.cpp:165] Memory required for data: 160666800
I1012 20:20:38.534627  7147 layer_factory.hpp:77] Creating layer conv3
I1012 20:20:38.534634  7147 net.cpp:100] Creating Layer conv3
I1012 20:20:38.534637  7147 net.cpp:434] conv3 <- bn1
I1012 20:20:38.534641  7147 net.cpp:408] conv3 -> conv3
I1012 20:20:38.535775  7147 net.cpp:150] Setting up conv3
I1012 20:20:38.535787  7147 net.cpp:157] Top shape: 100 96 13 13 (1622400)
I1012 20:20:38.535789  7147 net.cpp:165] Memory required for data: 167156400
I1012 20:20:38.535796  7147 layer_factory.hpp:77] Creating layer drop1
I1012 20:20:38.535806  7147 net.cpp:100] Creating Layer drop1
I1012 20:20:38.535821  7147 net.cpp:434] drop1 <- conv3
I1012 20:20:38.535828  7147 net.cpp:408] drop1 -> drop1
I1012 20:20:38.535871  7147 net.cpp:150] Setting up drop1
I1012 20:20:38.535876  7147 net.cpp:157] Top shape: 100 96 13 13 (1622400)
I1012 20:20:38.535877  7147 net.cpp:165] Memory required for data: 173646000
I1012 20:20:38.535879  7147 layer_factory.hpp:77] Creating layer relu3
I1012 20:20:38.535882  7147 net.cpp:100] Creating Layer relu3
I1012 20:20:38.535884  7147 net.cpp:434] relu3 <- drop1
I1012 20:20:38.535888  7147 net.cpp:395] relu3 -> drop1 (in-place)
I1012 20:20:38.536123  7147 net.cpp:150] Setting up relu3
I1012 20:20:38.536131  7147 net.cpp:157] Top shape: 100 96 13 13 (1622400)
I1012 20:20:38.536134  7147 net.cpp:165] Memory required for data: 180135600
I1012 20:20:38.536137  7147 layer_factory.hpp:77] Creating layer conv4
I1012 20:20:38.536144  7147 net.cpp:100] Creating Layer conv4
I1012 20:20:38.536147  7147 net.cpp:434] conv4 <- drop1
I1012 20:20:38.536150  7147 net.cpp:408] conv4 -> conv4
I1012 20:20:38.538033  7147 net.cpp:150] Setting up conv4
I1012 20:20:38.538045  7147 net.cpp:157] Top shape: 100 192 11 11 (2323200)
I1012 20:20:38.538048  7147 net.cpp:165] Memory required for data: 189428400
I1012 20:20:38.538067  7147 layer_factory.hpp:77] Creating layer relu4
I1012 20:20:38.538071  7147 net.cpp:100] Creating Layer relu4
I1012 20:20:38.538075  7147 net.cpp:434] relu4 <- conv4
I1012 20:20:38.538080  7147 net.cpp:395] relu4 -> conv4 (in-place)
I1012 20:20:38.538246  7147 net.cpp:150] Setting up relu4
I1012 20:20:38.538254  7147 net.cpp:157] Top shape: 100 192 11 11 (2323200)
I1012 20:20:38.538255  7147 net.cpp:165] Memory required for data: 198721200
I1012 20:20:38.538259  7147 layer_factory.hpp:77] Creating layer conv5
I1012 20:20:38.538264  7147 net.cpp:100] Creating Layer conv5
I1012 20:20:38.538267  7147 net.cpp:434] conv5 <- conv4
I1012 20:20:38.538272  7147 net.cpp:408] conv5 -> conv5
I1012 20:20:38.541872  7147 net.cpp:150] Setting up conv5
I1012 20:20:38.541901  7147 net.cpp:157] Top shape: 100 192 9 9 (1555200)
I1012 20:20:38.541904  7147 net.cpp:165] Memory required for data: 204942000
I1012 20:20:38.541910  7147 layer_factory.hpp:77] Creating layer bn2
I1012 20:20:38.541916  7147 net.cpp:100] Creating Layer bn2
I1012 20:20:38.541918  7147 net.cpp:434] bn2 <- conv5
I1012 20:20:38.541924  7147 net.cpp:408] bn2 -> bn2
I1012 20:20:38.542140  7147 net.cpp:150] Setting up bn2
I1012 20:20:38.542147  7147 net.cpp:157] Top shape: 100 192 9 9 (1555200)
I1012 20:20:38.542150  7147 net.cpp:165] Memory required for data: 211162800
I1012 20:20:38.542155  7147 layer_factory.hpp:77] Creating layer relu5
I1012 20:20:38.542157  7147 net.cpp:100] Creating Layer relu5
I1012 20:20:38.542160  7147 net.cpp:434] relu5 <- bn2
I1012 20:20:38.542172  7147 net.cpp:395] relu5 -> bn2 (in-place)
I1012 20:20:38.542474  7147 net.cpp:150] Setting up relu5
I1012 20:20:38.542484  7147 net.cpp:157] Top shape: 100 192 9 9 (1555200)
I1012 20:20:38.542485  7147 net.cpp:165] Memory required for data: 217383600
I1012 20:20:38.542487  7147 layer_factory.hpp:77] Creating layer conv6
I1012 20:20:38.542493  7147 net.cpp:100] Creating Layer conv6
I1012 20:20:38.542496  7147 net.cpp:434] conv6 <- bn2
I1012 20:20:38.542500  7147 net.cpp:408] conv6 -> conv6
I1012 20:20:38.544986  7147 net.cpp:150] Setting up conv6
I1012 20:20:38.544996  7147 net.cpp:157] Top shape: 100 192 4 4 (307200)
I1012 20:20:38.544999  7147 net.cpp:165] Memory required for data: 218612400
I1012 20:20:38.545007  7147 layer_factory.hpp:77] Creating layer drop4
I1012 20:20:38.545014  7147 net.cpp:100] Creating Layer drop4
I1012 20:20:38.545017  7147 net.cpp:434] drop4 <- conv6
I1012 20:20:38.545020  7147 net.cpp:408] drop4 -> drop4
I1012 20:20:38.545083  7147 net.cpp:150] Setting up drop4
I1012 20:20:38.545101  7147 net.cpp:157] Top shape: 100 192 4 4 (307200)
I1012 20:20:38.545104  7147 net.cpp:165] Memory required for data: 219841200
I1012 20:20:38.545105  7147 layer_factory.hpp:77] Creating layer relu6
I1012 20:20:38.545122  7147 net.cpp:100] Creating Layer relu6
I1012 20:20:38.545125  7147 net.cpp:434] relu6 <- drop4
I1012 20:20:38.545128  7147 net.cpp:395] relu6 -> drop4 (in-place)
I1012 20:20:38.545400  7147 net.cpp:150] Setting up relu6
I1012 20:20:38.545408  7147 net.cpp:157] Top shape: 100 192 4 4 (307200)
I1012 20:20:38.545410  7147 net.cpp:165] Memory required for data: 221070000
I1012 20:20:38.545413  7147 layer_factory.hpp:77] Creating layer conv7
I1012 20:20:38.545418  7147 net.cpp:100] Creating Layer conv7
I1012 20:20:38.545420  7147 net.cpp:434] conv7 <- drop4
I1012 20:20:38.545424  7147 net.cpp:408] conv7 -> conv7
I1012 20:20:38.548279  7147 net.cpp:150] Setting up conv7
I1012 20:20:38.548290  7147 net.cpp:157] Top shape: 100 192 2 2 (76800)
I1012 20:20:38.548291  7147 net.cpp:165] Memory required for data: 221377200
I1012 20:20:38.548296  7147 layer_factory.hpp:77] Creating layer relu7
I1012 20:20:38.548300  7147 net.cpp:100] Creating Layer relu7
I1012 20:20:38.548302  7147 net.cpp:434] relu7 <- conv7
I1012 20:20:38.548305  7147 net.cpp:395] relu7 -> conv7 (in-place)
I1012 20:20:38.548504  7147 net.cpp:150] Setting up relu7
I1012 20:20:38.548511  7147 net.cpp:157] Top shape: 100 192 2 2 (76800)
I1012 20:20:38.548512  7147 net.cpp:165] Memory required for data: 221684400
I1012 20:20:38.548514  7147 layer_factory.hpp:77] Creating layer conv8
I1012 20:20:38.548521  7147 net.cpp:100] Creating Layer conv8
I1012 20:20:38.548522  7147 net.cpp:434] conv8 <- conv7
I1012 20:20:38.548527  7147 net.cpp:408] conv8 -> conv8
I1012 20:20:38.549506  7147 net.cpp:150] Setting up conv8
I1012 20:20:38.549515  7147 net.cpp:157] Top shape: 100 192 2 2 (76800)
I1012 20:20:38.549518  7147 net.cpp:165] Memory required for data: 221991600
I1012 20:20:38.549522  7147 layer_factory.hpp:77] Creating layer relu8
I1012 20:20:38.549526  7147 net.cpp:100] Creating Layer relu8
I1012 20:20:38.549528  7147 net.cpp:434] relu8 <- conv8
I1012 20:20:38.549532  7147 net.cpp:395] relu8 -> conv8 (in-place)
I1012 20:20:38.549790  7147 net.cpp:150] Setting up relu8
I1012 20:20:38.549799  7147 net.cpp:157] Top shape: 100 192 2 2 (76800)
I1012 20:20:38.549801  7147 net.cpp:165] Memory required for data: 222298800
I1012 20:20:38.549803  7147 layer_factory.hpp:77] Creating layer conv9
I1012 20:20:38.549808  7147 net.cpp:100] Creating Layer conv9
I1012 20:20:38.549811  7147 net.cpp:434] conv9 <- conv8
I1012 20:20:38.549814  7147 net.cpp:408] conv9 -> conv9
I1012 20:20:38.550621  7147 net.cpp:150] Setting up conv9
I1012 20:20:38.550631  7147 net.cpp:157] Top shape: 100 10 2 2 (4000)
I1012 20:20:38.550632  7147 net.cpp:165] Memory required for data: 222314800
I1012 20:20:38.550637  7147 layer_factory.hpp:77] Creating layer relu9
I1012 20:20:38.550640  7147 net.cpp:100] Creating Layer relu9
I1012 20:20:38.550642  7147 net.cpp:434] relu9 <- conv9
I1012 20:20:38.550655  7147 net.cpp:395] relu9 -> conv9 (in-place)
I1012 20:20:38.550917  7147 net.cpp:150] Setting up relu9
I1012 20:20:38.550926  7147 net.cpp:157] Top shape: 100 10 2 2 (4000)
I1012 20:20:38.550928  7147 net.cpp:165] Memory required for data: 222330800
I1012 20:20:38.550930  7147 layer_factory.hpp:77] Creating layer pool
I1012 20:20:38.550935  7147 net.cpp:100] Creating Layer pool
I1012 20:20:38.550937  7147 net.cpp:434] pool <- conv9
I1012 20:20:38.550941  7147 net.cpp:408] pool -> pool
I1012 20:20:38.551128  7147 net.cpp:150] Setting up pool
I1012 20:20:38.551136  7147 net.cpp:157] Top shape: 100 10 1 1 (1000)
I1012 20:20:38.551137  7147 net.cpp:165] Memory required for data: 222334800
I1012 20:20:38.551139  7147 layer_factory.hpp:77] Creating layer flatten
I1012 20:20:38.551143  7147 net.cpp:100] Creating Layer flatten
I1012 20:20:38.551146  7147 net.cpp:434] flatten <- pool
I1012 20:20:38.551148  7147 net.cpp:408] flatten -> flatten
I1012 20:20:38.551168  7147 net.cpp:150] Setting up flatten
I1012 20:20:38.551187  7147 net.cpp:157] Top shape: 100 10 (1000)
I1012 20:20:38.551188  7147 net.cpp:165] Memory required for data: 222338800
I1012 20:20:38.551190  7147 layer_factory.hpp:77] Creating layer score
I1012 20:20:38.551208  7147 net.cpp:100] Creating Layer score
I1012 20:20:38.551213  7147 net.cpp:434] score <- flatten
I1012 20:20:38.551231  7147 net.cpp:408] score -> score
I1012 20:20:38.551374  7147 net.cpp:150] Setting up score
I1012 20:20:38.551378  7147 net.cpp:157] Top shape: 100 10 (1000)
I1012 20:20:38.551380  7147 net.cpp:165] Memory required for data: 222342800
I1012 20:20:38.551384  7147 layer_factory.hpp:77] Creating layer score_score_0_split
I1012 20:20:38.551388  7147 net.cpp:100] Creating Layer score_score_0_split
I1012 20:20:38.551389  7147 net.cpp:434] score_score_0_split <- score
I1012 20:20:38.551393  7147 net.cpp:408] score_score_0_split -> score_score_0_split_0
I1012 20:20:38.551398  7147 net.cpp:408] score_score_0_split -> score_score_0_split_1
I1012 20:20:38.551441  7147 net.cpp:150] Setting up score_score_0_split
I1012 20:20:38.551460  7147 net.cpp:157] Top shape: 100 10 (1000)
I1012 20:20:38.551462  7147 net.cpp:157] Top shape: 100 10 (1000)
I1012 20:20:38.551463  7147 net.cpp:165] Memory required for data: 222350800
I1012 20:20:38.551465  7147 layer_factory.hpp:77] Creating layer accuracy
I1012 20:20:38.551482  7147 net.cpp:100] Creating Layer accuracy
I1012 20:20:38.551484  7147 net.cpp:434] accuracy <- score_score_0_split_0
I1012 20:20:38.551486  7147 net.cpp:434] accuracy <- label_data_1_split_0
I1012 20:20:38.551506  7147 net.cpp:408] accuracy -> accuracy
…
