…
  stage: ""
}
type: "Nesterov"
I1011 14:35:19.603044  5247 solver.cpp:81] Creating training net from train_net file: /home/adam/Honours/Honours-Project/cifar-10_allcnn/elu/allcnn_elu_train.prototxt
I1011 14:35:19.603389  5247 net.cpp:58] Initializing net from parameters: 
state {
  phase: TRAIN
  level: 0
  stage: ""
}
layer {
  name: "data"
  type: "Data"
  top: "data"
  top: "label"
  transform_param {
    mean_file: "mean.binaryproto"
  }
  data_param {
    source: "../../../data/cifar-10/cifar10_train_lmdb"
    batch_size: 64
    backend: LMDB
  }
}
layer {
  name: "conv1"
  type: "Convolution"
  bottom: "data"
  top: "conv1"
  convolution_param {
    num_output: 96
    kernel_size: 3
    weight_filler {
      type: "xavier"
    }
  }
}
layer {
  name: "elu1"
  type: "ELU"
  bottom: "conv1"
  top: "conv1"
}
layer {
  name: "conv2"
  type: "Convolution"
  bottom: "conv1"
  top: "conv2"
  convolution_param {
    num_output: 96
    kernel_size: 3
    weight_filler {
      type: "xavier"
    }
  }
}
layer {
  name: "bn1"
  type: "BatchNorm"
  bottom: "conv2"
  top: "bn1"
}
layer {
  name: "elu2"
  type: "ELU"
  bottom: "bn1"
  top: "bn1"
}
layer {
  name: "drop1"
  type: "Dropout"
  bottom: "bn1"
  top: "drop1"
  dropout_param {
    dropout_ratio: 0.5
  }
}
layer {
  name: "conv3"
  type: "Convolution"
  bottom: "drop1"
  top: "conv3"
  convolution_param {
    num_output: 96
    kernel_size: 3
    stride: 2
    weight_filler {
      type: "xavier"
    }
  }
}
layer {
  name: "elu3"
  type: "ELU"
  bottom: "conv3"
  top: "conv3"
}
layer {
  name: "conv4"
  type: "Convolution"
  bottom: "conv3"
  top: "conv4"
  convolution_param {
    num_output: 192
    kernel_size: 3
    weight_filler {
      type: "xavier"
    }
  }
}
layer {
  name: "elu4"
  type: "ELU"
  bottom: "conv4"
  top: "conv4"
}
layer {
  name: "conv5"
  type: "Convolution"
  bottom: "conv4"
  top: "conv5"
  convolution_param {
    num_output: 192
    kernel_size: 3
    weight_filler {
      type: "xavier"
    }
  }
}
layer {
  name: "bn2"
  type: "BatchNorm"
  bottom: "conv5"
  top: "bn2"
}
layer {
  name: "elu5"
  type: "ELU"
  bottom: "bn2"
  top: "bn2"
}
layer {
  name: "drop4"
  type: "Dropout"
  bottom: "bn2"
  top: "drop4"
  dropout_param {
    dropout_ratio: 0.5
  }
}
layer {
  name: "conv6"
  type: "Convolution"
  bottom: "drop4"
  top: "conv6"
  convolution_param {
    num_output: 192
    kernel_size: 3
    stride: 2
    weight_filler {
      type: "xavier"
    }
  }
}
layer {
  name: "elu6"
  type: "ELU"
  bottom: "conv6"
  top: "conv6"
}
layer {
  name: "conv7"
  type: "Convolution"
  bottom: "conv6"
  top: "conv7"
  convolution_param {
    num_output: 192
    kernel_size: 3
    weight_filler {
      type: "xavier"
    }
  }
}
layer {
  name: "elu7"
  type: "ELU"
  bottom: "conv7"
  top: "conv7"
}
layer {
  name: "conv8"
  type: "Convolution"
  bottom: "conv7"
  top: "conv8"
  convolution_param {
    num_output: 192
    kernel_size: 1
    weight_filler {
      type: "xavier"
    }
  }
}
layer {
  name: "elu8"
  type: "ELU"
  bottom: "conv8"
  top: "conv8"
}
layer {
  name: "conv9"
  type: "Convolution"
  bottom: "conv8"
  top: "conv9"
  convolution_param {
    num_output: 10
    kernel_size: 1
    weight_filler {
      type: "xavier"
    }
  }
}
layer {
  name: "elu9"
  type: "ELU"
  bottom: "conv9"
  top: "conv9"
}
layer {
  name: "pool"
  type: "Pooling"
  bottom: "conv9"
  top: "pool"
  pooling_param {
    pool: AVE
    global_pooling: true
  }
}
layer {
  name: "flatten"
  type: "Flatten"
  bottom: "pool"
  top: "flatten"
}
layer {
  name: "score"
  type: "InnerProduct"
  bottom: "flatten"
  top: "score"
  inner_product_param {
    num_output: 10
    weight_filler {
      type: "gaussian"
    }
  }
}
layer {
  name: "accuracy"
  type: "Accuracy"
  bottom: "score"
  bottom: "label"
  top: "accuracy"
}
layer {
  name: "loss"
  type: "SoftmaxWithLoss"
  bottom: "score"
  bottom: "label"
  top: "loss"
}
I1011 14:35:19.603534  5247 layer_factory.hpp:77] Creating layer data
I1011 14:35:19.603989  5247 net.cpp:100] Creating Layer data
I1011 14:35:19.603997  5247 net.cpp:408] data -> data
I1011 14:35:19.604035  5247 net.cpp:408] data -> label
I1011 14:35:19.604048  5247 data_transformer.cpp:25] Loading mean file from: mean.binaryproto
I1011 14:35:19.604714  5252 db_lmdb.cpp:35] Opened lmdb ../../../data/cifar-10/cifar10_train_lmdb
I1011 14:35:19.611034  5247 data_layer.cpp:41] output data size: 64,3,32,32
I1011 14:35:19.612617  5247 net.cpp:150] Setting up data
I1011 14:35:19.612637  5247 net.cpp:157] Top shape: 64 3 32 32 (196608)
I1011 14:35:19.612661  5247 net.cpp:157] Top shape: 64 (64)
I1011 14:35:19.612663  5247 net.cpp:165] Memory required for data: 786688
I1011 14:35:19.612684  5247 layer_factory.hpp:77] Creating layer label_data_1_split
I1011 14:35:19.612694  5247 net.cpp:100] Creating Layer label_data_1_split
I1011 14:35:19.612699  5247 net.cpp:434] label_data_1_split <- label
I1011 14:35:19.612722  5247 net.cpp:408] label_data_1_split -> label_data_1_split_0
I1011 14:35:19.612746  5247 net.cpp:408] label_data_1_split -> label_data_1_split_1
I1011 14:35:19.612823  5247 net.cpp:150] Setting up label_data_1_split
I1011 14:35:19.612829  5247 net.cpp:157] Top shape: 64 (64)
I1011 14:35:19.612854  5247 net.cpp:157] Top shape: 64 (64)
I1011 14:35:19.612855  5247 net.cpp:165] Memory required for data: 787200
I1011 14:35:19.612859  5247 layer_factory.hpp:77] Creating layer conv1
I1011 14:35:19.612872  5247 net.cpp:100] Creating Layer conv1
I1011 14:35:19.612875  5247 net.cpp:434] conv1 <- data
I1011 14:35:19.612895  5247 net.cpp:408] conv1 -> conv1
I1011 14:35:19.748741  5247 net.cpp:150] Setting up conv1
I1011 14:35:19.748764  5247 net.cpp:157] Top shape: 64 96 30 30 (5529600)
I1011 14:35:19.748766  5247 net.cpp:165] Memory required for data: 22905600
I1011 14:35:19.748782  5247 layer_factory.hpp:77] Creating layer elu1
I1011 14:35:19.748790  5247 net.cpp:100] Creating Layer elu1
I1011 14:35:19.748792  5247 net.cpp:434] elu1 <- conv1
I1011 14:35:19.748796  5247 net.cpp:395] elu1 -> conv1 (in-place)
I1011 14:35:19.748816  5247 net.cpp:150] Setting up elu1
I1011 14:35:19.748819  5247 net.cpp:157] Top shape: 64 96 30 30 (5529600)
I1011 14:35:19.748821  5247 net.cpp:165] Memory required for data: 45024000
I1011 14:35:19.748823  5247 layer_factory.hpp:77] Creating layer conv2
I1011 14:35:19.748831  5247 net.cpp:100] Creating Layer conv2
I1011 14:35:19.748833  5247 net.cpp:434] conv2 <- conv1
I1011 14:35:19.748837  5247 net.cpp:408] conv2 -> conv2
I1011 14:35:19.750164  5247 net.cpp:150] Setting up conv2
I1011 14:35:19.750174  5247 net.cpp:157] Top shape: 64 96 28 28 (4816896)
I1011 14:35:19.750176  5247 net.cpp:165] Memory required for data: 64291584
I1011 14:35:19.750182  5247 layer_factory.hpp:77] Creating layer bn1
I1011 14:35:19.750187  5247 net.cpp:100] Creating Layer bn1
I1011 14:35:19.750190  5247 net.cpp:434] bn1 <- conv2
I1011 14:35:19.750192  5247 net.cpp:408] bn1 -> bn1
I1011 14:35:19.750377  5247 net.cpp:150] Setting up bn1
I1011 14:35:19.750382  5247 net.cpp:157] Top shape: 64 96 28 28 (4816896)
I1011 14:35:19.750385  5247 net.cpp:165] Memory required for data: 83559168
I1011 14:35:19.750391  5247 layer_factory.hpp:77] Creating layer elu2
I1011 14:35:19.750393  5247 net.cpp:100] Creating Layer elu2
I1011 14:35:19.750396  5247 net.cpp:434] elu2 <- bn1
I1011 14:35:19.750398  5247 net.cpp:395] elu2 -> bn1 (in-place)
I1011 14:35:19.750401  5247 net.cpp:150] Setting up elu2
I1011 14:35:19.750404  5247 net.cpp:157] Top shape: 64 96 28 28 (4816896)
I1011 14:35:19.750432  5247 net.cpp:165] Memory required for data: 102826752
I1011 14:35:19.750433  5247 layer_factory.hpp:77] Creating layer drop1
I1011 14:35:19.750437  5247 net.cpp:100] Creating Layer drop1
I1011 14:35:19.750439  5247 net.cpp:434] drop1 <- bn1
I1011 14:35:19.750442  5247 net.cpp:408] drop1 -> drop1
I1011 14:35:19.750510  5247 net.cpp:150] Setting up drop1
I1011 14:35:19.750514  5247 net.cpp:157] Top shape: 64 96 28 28 (4816896)
I1011 14:35:19.750516  5247 net.cpp:165] Memory required for data: 122094336
I1011 14:35:19.750519  5247 layer_factory.hpp:77] Creating layer conv3
I1011 14:35:19.750525  5247 net.cpp:100] Creating Layer conv3
I1011 14:35:19.750527  5247 net.cpp:434] conv3 <- drop1
I1011 14:35:19.750530  5247 net.cpp:408] conv3 -> conv3
I1011 14:35:19.751729  5247 net.cpp:150] Setting up conv3
I1011 14:35:19.751737  5247 net.cpp:157] Top shape: 64 96 13 13 (1038336)
I1011 14:35:19.751740  5247 net.cpp:165] Memory required for data: 126247680
I1011 14:35:19.751746  5247 layer_factory.hpp:77] Creating layer elu3
I1011 14:35:19.751749  5247 net.cpp:100] Creating Layer elu3
I1011 14:35:19.751752  5247 net.cpp:434] elu3 <- conv3
I1011 14:35:19.751755  5247 net.cpp:395] elu3 -> conv3 (in-place)
I1011 14:35:19.751760  5247 net.cpp:150] Setting up elu3
I1011 14:35:19.751761  5247 net.cpp:157] Top shape: 64 96 13 13 (1038336)
I1011 14:35:19.751765  5247 net.cpp:165] Memory required for data: 130401024
I1011 14:35:19.751765  5247 layer_factory.hpp:77] Creating layer conv4
I1011 14:35:19.751785  5247 net.cpp:100] Creating Layer conv4
I1011 14:35:19.751786  5247 net.cpp:434] conv4 <- conv3
I1011 14:35:19.751791  5247 net.cpp:408] conv4 -> conv4
I1011 14:35:19.753592  5247 net.cpp:150] Setting up conv4
I1011 14:35:19.753602  5247 net.cpp:157] Top shape: 64 192 11 11 (1486848)
I1011 14:35:19.753603  5247 net.cpp:165] Memory required for data: 136348416
I1011 14:35:19.753608  5247 layer_factory.hpp:77] Creating layer elu4
I1011 14:35:19.753612  5247 net.cpp:100] Creating Layer elu4
I1011 14:35:19.753614  5247 net.cpp:434] elu4 <- conv4
I1011 14:35:19.753618  5247 net.cpp:395] elu4 -> conv4 (in-place)
I1011 14:35:19.753621  5247 net.cpp:150] Setting up elu4
I1011 14:35:19.753623  5247 net.cpp:157] Top shape: 64 192 11 11 (1486848)
I1011 14:35:19.753625  5247 net.cpp:165] Memory required for data: 142295808
I1011 14:35:19.753628  5247 layer_factory.hpp:77] Creating layer conv5
I1011 14:35:19.753633  5247 net.cpp:100] Creating Layer conv5
I1011 14:35:19.753648  5247 net.cpp:434] conv5 <- conv4
I1011 14:35:19.753651  5247 net.cpp:408] conv5 -> conv5
I1011 14:35:19.756125  5247 net.cpp:150] Setting up conv5
I1011 14:35:19.756135  5247 net.cpp:157] Top shape: 64 192 9 9 (995328)
I1011 14:35:19.756137  5247 net.cpp:165] Memory required for data: 146277120
I1011 14:35:19.756142  5247 layer_factory.hpp:77] Creating layer bn2
I1011 14:35:19.756146  5247 net.cpp:100] Creating Layer bn2
I1011 14:35:19.756148  5247 net.cpp:434] bn2 <- conv5
I1011 14:35:19.756151  5247 net.cpp:408] bn2 -> bn2
I1011 14:35:19.756336  5247 net.cpp:150] Setting up bn2
I1011 14:35:19.756341  5247 net.cpp:157] Top shape: 64 192 9 9 (995328)
I1011 14:35:19.756343  5247 net.cpp:165] Memory required for data: 150258432
I1011 14:35:19.756348  5247 layer_factory.hpp:77] Creating layer elu5
I1011 14:35:19.756351  5247 net.cpp:100] Creating Layer elu5
I1011 14:35:19.756353  5247 net.cpp:434] elu5 <- bn2
I1011 14:35:19.756356  5247 net.cpp:395] elu5 -> bn2 (in-place)
I1011 14:35:19.756359  5247 net.cpp:150] Setting up elu5
I1011 14:35:19.756362  5247 net.cpp:157] Top shape: 64 192 9 9 (995328)
I1011 14:35:19.756363  5247 net.cpp:165] Memory required for data: 154239744
I1011 14:35:19.756366  5247 layer_factory.hpp:77] Creating layer drop4
I1011 14:35:19.756368  5247 net.cpp:100] Creating Layer drop4
I1011 14:35:19.756371  5247 net.cpp:434] drop4 <- bn2
I1011 14:35:19.756373  5247 net.cpp:408] drop4 -> drop4
I1011 14:35:19.756427  5247 net.cpp:150] Setting up drop4
I1011 14:35:19.756430  5247 net.cpp:157] Top shape: 64 192 9 9 (995328)
I1011 14:35:19.756445  5247 net.cpp:165] Memory required for data: 158221056
I1011 14:35:19.756470  5247 layer_factory.hpp:77] Creating layer conv6
I1011 14:35:19.756479  5247 net.cpp:100] Creating Layer conv6
I1011 14:35:19.756480  5247 net.cpp:434] conv6 <- drop4
I1011 14:35:19.756484  5247 net.cpp:408] conv6 -> conv6
I1011 14:35:19.758973  5247 net.cpp:150] Setting up conv6
I1011 14:35:19.758983  5247 net.cpp:157] Top shape: 64 192 4 4 (196608)
I1011 14:35:19.758985  5247 net.cpp:165] Memory required for data: 159007488
I1011 14:35:19.758993  5247 layer_factory.hpp:77] Creating layer elu6
I1011 14:35:19.758997  5247 net.cpp:100] Creating Layer elu6
I1011 14:35:19.758999  5247 net.cpp:434] elu6 <- conv6
I1011 14:35:19.759002  5247 net.cpp:395] elu6 -> conv6 (in-place)
I1011 14:35:19.759006  5247 net.cpp:150] Setting up elu6
I1011 14:35:19.759008  5247 net.cpp:157] Top shape: 64 192 4 4 (196608)
I1011 14:35:19.759011  5247 net.cpp:165] Memory required for data: 159793920
I1011 14:35:19.759012  5247 layer_factory.hpp:77] Creating layer conv7
I1011 14:35:19.759017  5247 net.cpp:100] Creating Layer conv7
I1011 14:35:19.759019  5247 net.cpp:434] conv7 <- conv6
I1011 14:35:19.759037  5247 net.cpp:408] conv7 -> conv7
I1011 14:35:19.761970  5247 net.cpp:150] Setting up conv7
I1011 14:35:19.761988  5247 net.cpp:157] Top shape: 64 192 2 2 (49152)
I1011 14:35:19.761991  5247 net.cpp:165] Memory required for data: 159990528
I1011 14:35:19.761997  5247 layer_factory.hpp:77] Creating layer elu7
I1011 14:35:19.762002  5247 net.cpp:100] Creating Layer elu7
I1011 14:35:19.762004  5247 net.cpp:434] elu7 <- conv7
I1011 14:35:19.762008  5247 net.cpp:395] elu7 -> conv7 (in-place)
I1011 14:35:19.762013  5247 net.cpp:150] Setting up elu7
I1011 14:35:19.762017  5247 net.cpp:157] Top shape: 64 192 2 2 (49152)
I1011 14:35:19.762018  5247 net.cpp:165] Memory required for data: 160187136
I1011 14:35:19.762020  5247 layer_factory.hpp:77] Creating layer conv8
I1011 14:35:19.762040  5247 net.cpp:100] Creating Layer conv8
I1011 14:35:19.762042  5247 net.cpp:434] conv8 <- conv7
I1011 14:35:19.762045  5247 net.cpp:408] conv8 -> conv8
I1011 14:35:19.763231  5247 net.cpp:150] Setting up conv8
I1011 14:35:19.763240  5247 net.cpp:157] Top shape: 64 192 2 2 (49152)
I1011 14:35:19.763242  5247 net.cpp:165] Memory required for data: 160383744
I1011 14:35:19.763247  5247 layer_factory.hpp:77] Creating layer elu8
I1011 14:35:19.763250  5247 net.cpp:100] Creating Layer elu8
I1011 14:35:19.763252  5247 net.cpp:434] elu8 <- conv8
I1011 14:35:19.763257  5247 net.cpp:395] elu8 -> conv8 (in-place)
I1011 14:35:19.763260  5247 net.cpp:150] Setting up elu8
I1011 14:35:19.763262  5247 net.cpp:157] Top shape: 64 192 2 2 (49152)
I1011 14:35:19.763264  5247 net.cpp:165] Memory required for data: 160580352
I1011 14:35:19.763267  5247 layer_factory.hpp:77] Creating layer conv9
I1011 14:35:19.763272  5247 net.cpp:100] Creating Layer conv9
I1011 14:35:19.763288  5247 net.cpp:434] conv9 <- conv8
I1011 14:35:19.763291  5247 net.cpp:408] conv9 -> conv9
I1011 14:35:19.764039  5247 net.cpp:150] Setting up conv9
I1011 14:35:19.764048  5247 net.cpp:157] Top shape: 64 10 2 2 (2560)
I1011 14:35:19.764050  5247 net.cpp:165] Memory required for data: 160590592
I1011 14:35:19.764055  5247 layer_factory.hpp:77] Creating layer elu9
I1011 14:35:19.764058  5247 net.cpp:100] Creating Layer elu9
I1011 14:35:19.764060  5247 net.cpp:434] elu9 <- conv9
I1011 14:35:19.764063  5247 net.cpp:395] elu9 -> conv9 (in-place)
I1011 14:35:19.764067  5247 net.cpp:150] Setting up elu9
I1011 14:35:19.764070  5247 net.cpp:157] Top shape: 64 10 2 2 (2560)
I1011 14:35:19.764071  5247 net.cpp:165] Memory required for data: 160600832
I1011 14:35:19.764073  5247 layer_factory.hpp:77] Creating layer pool
I1011 14:35:19.764077  5247 net.cpp:100] Creating Layer pool
I1011 14:35:19.764080  5247 net.cpp:434] pool <- conv9
I1011 14:35:19.764096  5247 net.cpp:408] pool -> pool
I1011 14:35:19.764443  5247 net.cpp:150] Setting up pool
I1011 14:35:19.764451  5247 net.cpp:157] Top shape: 64 10 1 1 (640)
I1011 14:35:19.764453  5247 net.cpp:165] Memory required for data: 160603392
I1011 14:35:19.764466  5247 layer_factory.hpp:77] Creating layer flatten
I1011 14:35:19.764469  5247 net.cpp:100] Creating Layer flatten
I1011 14:35:19.764472  5247 net.cpp:434] flatten <- pool
I1011 14:35:19.764474  5247 net.cpp:408] flatten -> flatten
I1011 14:35:19.764508  5247 net.cpp:150] Setting up flatten
I1011 14:35:19.764513  5247 net.cpp:157] Top shape: 64 10 (640)
I1011 14:35:19.764514  5247 net.cpp:165] Memory required for data: 160605952
I1011 14:35:19.764516  5247 layer_factory.hpp:77] Creating layer score
I1011 14:35:19.764534  5247 net.cpp:100] Creating Layer score
I1011 14:35:19.764536  5247 net.cpp:434] score <- flatten
I1011 14:35:19.764540  5247 net.cpp:408] score -> score
I1011 14:35:19.764663  5247 net.cpp:150] Setting up score
I1011 14:35:19.764680  5247 net.cpp:157] Top shape: 64 10 (640)
I1011 14:35:19.764683  5247 net.cpp:165] Memory required for data: 160608512
I1011 14:35:19.764686  5247 layer_factory.hpp:77] Creating layer score_score_0_split
I1011 14:35:19.764689  5247 net.cpp:100] Creating Layer score_score_0_split
I1011 14:35:19.764691  5247 net.cpp:434] score_score_0_split <- score
I1011 14:35:19.764694  5247 net.cpp:408] score_score_0_split -> score_score_0_split_0
I1011 14:35:19.764698  5247 net.cpp:408] score_score_0_split -> score_score_0_split_1
I1011 14:35:19.764735  5247 net.cpp:150] Setting up score_score_0_split
I1011 14:35:19.764739  5247 net.cpp:157] Top shape: 64 10 (640)
I1011 14:35:19.764741  5247 net.cpp:157] Top shape: 64 10 (640)
I1011 14:35:19.764744  5247 net.cpp:165] Memory required for data: 160613632
I1011 14:35:19.764745  5247 layer_factory.hpp:77] Creating layer accuracy
I1011 14:35:19.764763  5247 net.cpp:100] Creating Layer accuracy
I1011 14:35:19.764765  5247 net.cpp:434] accuracy <- score_score_0_split_0
I1011 14:35:19.764768  5247 net.cpp:434] accuracy <- label_data_1_split_0
I1011 14:35:19.764785  5247 net.cpp:408] accuracy -> accuracy
…
