…
  stage: ""
}
type: "Nesterov"
I1011 01:03:02.830466 10391 solver.cpp:81] Creating training net from train_net file: /home/adam/Honours/Honours-Project/cifar-10_allcnn/relu/allcnn_relu_train.prototxt
I1011 01:03:02.830760 10391 net.cpp:58] Initializing net from parameters: 
state {
  phase: TRAIN
  level: 0
  stage: ""
}
layer {
  name: "data"
  type: "Data"
  top: "data"
  top: "label"
  transform_param {
    mean_file: "mean.binaryproto"
  }
  data_param {
    source: "../../../data/cifar-10/cifar10_train_lmdb"
    batch_size: 64
    backend: LMDB
  }
}
layer {
  name: "conv1"
  type: "Convolution"
  bottom: "data"
  top: "conv1"
  convolution_param {
    num_output: 96
    kernel_size: 3
    weight_filler {
      type: "xavier"
    }
  }
}
layer {
  name: "relu1"
  type: "ReLU"
  bottom: "conv1"
  top: "conv1"
}
layer {
  name: "conv2"
  type: "Convolution"
  bottom: "conv1"
  top: "conv2"
  convolution_param {
    num_output: 96
    kernel_size: 3
    weight_filler {
      type: "xavier"
    }
  }
}
layer {
  name: "bn1"
  type: "BatchNorm"
  bottom: "conv2"
  top: "bn1"
}
layer {
  name: "relu2"
  type: "ReLU"
  bottom: "bn1"
  top: "bn1"
}
layer {
  name: "drop1"
  type: "Dropout"
  bottom: "bn1"
  top: "drop1"
  dropout_param {
    dropout_ratio: 0.5
  }
}
layer {
  name: "conv3"
  type: "Convolution"
  bottom: "drop1"
  top: "conv3"
  convolution_param {
    num_output: 96
    kernel_size: 3
    stride: 2
    weight_filler {
      type: "xavier"
    }
  }
}
layer {
  name: "relu3"
  type: "ReLU"
  bottom: "conv3"
  top: "conv3"
}
layer {
  name: "conv4"
  type: "Convolution"
  bottom: "conv3"
  top: "conv4"
  convolution_param {
    num_output: 192
    kernel_size: 3
    weight_filler {
      type: "xavier"
    }
  }
}
layer {
  name: "relu4"
  type: "ReLU"
  bottom: "conv4"
  top: "conv4"
}
layer {
  name: "conv5"
  type: "Convolution"
  bottom: "conv4"
  top: "conv5"
  convolution_param {
    num_output: 192
    kernel_size: 3
    weight_filler {
      type: "xavier"
    }
  }
}
layer {
  name: "bn2"
  type: "BatchNorm"
  bottom: "conv5"
  top: "bn2"
}
layer {
  name: "relu5"
  type: "ReLU"
  bottom: "bn2"
  top: "bn2"
}
layer {
  name: "drop4"
  type: "Dropout"
  bottom: "bn2"
  top: "drop4"
  dropout_param {
    dropout_ratio: 0.5
  }
}
layer {
  name: "conv6"
  type: "Convolution"
  bottom: "drop4"
  top: "conv6"
  convolution_param {
    num_output: 192
    kernel_size: 3
    stride: 2
    weight_filler {
      type: "xavier"
    }
  }
}
layer {
  name: "relu6"
  type: "ReLU"
  bottom: "conv6"
  top: "conv6"
}
layer {
  name: "conv7"
  type: "Convolution"
  bottom: "conv6"
  top: "conv7"
  convolution_param {
    num_output: 192
    kernel_size: 3
    weight_filler {
      type: "xavier"
    }
  }
}
layer {
  name: "relu7"
  type: "ReLU"
  bottom: "conv7"
  top: "conv7"
}
layer {
  name: "conv8"
  type: "Convolution"
  bottom: "conv7"
  top: "conv8"
  convolution_param {
    num_output: 192
    kernel_size: 1
    weight_filler {
      type: "xavier"
    }
  }
}
layer {
  name: "relu8"
  type: "ReLU"
  bottom: "conv8"
  top: "conv8"
}
layer {
  name: "conv9"
  type: "Convolution"
  bottom: "conv8"
  top: "conv9"
  convolution_param {
    num_output: 10
    kernel_size: 1
    weight_filler {
      type: "xavier"
    }
  }
}
layer {
  name: "relu9"
  type: "ReLU"
  bottom: "conv9"
  top: "conv9"
}
layer {
  name: "pool"
  type: "Pooling"
  bottom: "conv9"
  top: "pool"
  pooling_param {
    pool: AVE
    global_pooling: true
  }
}
layer {
  name: "flatten"
  type: "Flatten"
  bottom: "pool"
  top: "flatten"
}
layer {
  name: "score"
  type: "InnerProduct"
  bottom: "flatten"
  top: "score"
  inner_product_param {
    num_output: 10
    weight_filler {
      type: "gaussian"
    }
  }
}
layer {
  name: "accuracy"
  type: "Accuracy"
  bottom: "score"
  bottom: "label"
  top: "accuracy"
}
layer {
  name: "loss"
  type: "SoftmaxWithLoss"
  bottom: "score"
  bottom: "label"
  top: "loss"
}
I1011 01:03:02.831042 10391 layer_factory.hpp:77] Creating layer data
I1011 01:03:02.831559 10391 net.cpp:100] Creating Layer data
I1011 01:03:02.831593 10391 net.cpp:408] data -> data
I1011 01:03:02.831619 10391 net.cpp:408] data -> label
I1011 01:03:02.831640 10391 data_transformer.cpp:25] Loading mean file from: mean.binaryproto
I1011 01:03:02.832593 10396 db_lmdb.cpp:35] Opened lmdb ../../../data/cifar-10/cifar10_train_lmdb
I1011 01:03:02.839140 10391 data_layer.cpp:41] output data size: 64,3,32,32
I1011 01:03:02.840764 10391 net.cpp:150] Setting up data
I1011 01:03:02.840828 10391 net.cpp:157] Top shape: 64 3 32 32 (196608)
I1011 01:03:02.840840 10391 net.cpp:157] Top shape: 64 (64)
I1011 01:03:02.840849 10391 net.cpp:165] Memory required for data: 786688
I1011 01:03:02.840864 10391 layer_factory.hpp:77] Creating layer label_data_1_split
I1011 01:03:02.840883 10391 net.cpp:100] Creating Layer label_data_1_split
I1011 01:03:02.840894 10391 net.cpp:434] label_data_1_split <- label
I1011 01:03:02.840911 10391 net.cpp:408] label_data_1_split -> label_data_1_split_0
I1011 01:03:02.840927 10391 net.cpp:408] label_data_1_split -> label_data_1_split_1
I1011 01:03:02.840972 10391 net.cpp:150] Setting up label_data_1_split
I1011 01:03:02.840984 10391 net.cpp:157] Top shape: 64 (64)
I1011 01:03:02.840993 10391 net.cpp:157] Top shape: 64 (64)
I1011 01:03:02.841001 10391 net.cpp:165] Memory required for data: 787200
I1011 01:03:02.841009 10391 layer_factory.hpp:77] Creating layer conv1
I1011 01:03:02.841029 10391 net.cpp:100] Creating Layer conv1
I1011 01:03:02.841038 10391 net.cpp:434] conv1 <- data
I1011 01:03:02.841051 10391 net.cpp:408] conv1 -> conv1
I1011 01:03:02.981742 10391 net.cpp:150] Setting up conv1
I1011 01:03:02.981767 10391 net.cpp:157] Top shape: 64 96 30 30 (5529600)
I1011 01:03:02.981770 10391 net.cpp:165] Memory required for data: 22905600
I1011 01:03:02.981788 10391 layer_factory.hpp:77] Creating layer relu1
I1011 01:03:02.981796 10391 net.cpp:100] Creating Layer relu1
I1011 01:03:02.981798 10391 net.cpp:434] relu1 <- conv1
I1011 01:03:02.981802 10391 net.cpp:395] relu1 -> conv1 (in-place)
I1011 01:03:02.982029 10391 net.cpp:150] Setting up relu1
I1011 01:03:02.982036 10391 net.cpp:157] Top shape: 64 96 30 30 (5529600)
I1011 01:03:02.982053 10391 net.cpp:165] Memory required for data: 45024000
I1011 01:03:02.982054 10391 layer_factory.hpp:77] Creating layer conv2
I1011 01:03:02.982064 10391 net.cpp:100] Creating Layer conv2
I1011 01:03:02.982067 10391 net.cpp:434] conv2 <- conv1
I1011 01:03:02.982071 10391 net.cpp:408] conv2 -> conv2
I1011 01:03:02.983650 10391 net.cpp:150] Setting up conv2
I1011 01:03:02.983664 10391 net.cpp:157] Top shape: 64 96 28 28 (4816896)
I1011 01:03:02.983665 10391 net.cpp:165] Memory required for data: 64291584
I1011 01:03:02.983672 10391 layer_factory.hpp:77] Creating layer bn1
I1011 01:03:02.983677 10391 net.cpp:100] Creating Layer bn1
I1011 01:03:02.983680 10391 net.cpp:434] bn1 <- conv2
I1011 01:03:02.983683 10391 net.cpp:408] bn1 -> bn1
I1011 01:03:02.983937 10391 net.cpp:150] Setting up bn1
I1011 01:03:02.983942 10391 net.cpp:157] Top shape: 64 96 28 28 (4816896)
I1011 01:03:02.983959 10391 net.cpp:165] Memory required for data: 83559168
I1011 01:03:02.983966 10391 layer_factory.hpp:77] Creating layer relu2
I1011 01:03:02.983983 10391 net.cpp:100] Creating Layer relu2
I1011 01:03:02.983985 10391 net.cpp:434] relu2 <- bn1
I1011 01:03:02.983989 10391 net.cpp:395] relu2 -> bn1 (in-place)
I1011 01:03:02.984153 10391 net.cpp:150] Setting up relu2
I1011 01:03:02.984159 10391 net.cpp:157] Top shape: 64 96 28 28 (4816896)
I1011 01:03:02.984200 10391 net.cpp:165] Memory required for data: 102826752
I1011 01:03:02.984203 10391 layer_factory.hpp:77] Creating layer drop1
I1011 01:03:02.984222 10391 net.cpp:100] Creating Layer drop1
I1011 01:03:02.984225 10391 net.cpp:434] drop1 <- bn1
I1011 01:03:02.984228 10391 net.cpp:408] drop1 -> drop1
I1011 01:03:02.984284 10391 net.cpp:150] Setting up drop1
I1011 01:03:02.984288 10391 net.cpp:157] Top shape: 64 96 28 28 (4816896)
I1011 01:03:02.984290 10391 net.cpp:165] Memory required for data: 122094336
I1011 01:03:02.984293 10391 layer_factory.hpp:77] Creating layer conv3
I1011 01:03:02.984300 10391 net.cpp:100] Creating Layer conv3
I1011 01:03:02.984303 10391 net.cpp:434] conv3 <- drop1
I1011 01:03:02.984323 10391 net.cpp:408] conv3 -> conv3
I1011 01:03:02.985838 10391 net.cpp:150] Setting up conv3
I1011 01:03:02.985849 10391 net.cpp:157] Top shape: 64 96 13 13 (1038336)
I1011 01:03:02.985852 10391 net.cpp:165] Memory required for data: 126247680
I1011 01:03:02.985858 10391 layer_factory.hpp:77] Creating layer relu3
I1011 01:03:02.985862 10391 net.cpp:100] Creating Layer relu3
I1011 01:03:02.985864 10391 net.cpp:434] relu3 <- conv3
I1011 01:03:02.985868 10391 net.cpp:395] relu3 -> conv3 (in-place)
I1011 01:03:02.986172 10391 net.cpp:150] Setting up relu3
I1011 01:03:02.986181 10391 net.cpp:157] Top shape: 64 96 13 13 (1038336)
I1011 01:03:02.986197 10391 net.cpp:165] Memory required for data: 130401024
I1011 01:03:02.986201 10391 layer_factory.hpp:77] Creating layer conv4
I1011 01:03:02.986207 10391 net.cpp:100] Creating Layer conv4
I1011 01:03:02.986209 10391 net.cpp:434] conv4 <- conv3
I1011 01:03:02.986212 10391 net.cpp:408] conv4 -> conv4
I1011 01:03:02.988219 10391 net.cpp:150] Setting up conv4
I1011 01:03:02.988231 10391 net.cpp:157] Top shape: 64 192 11 11 (1486848)
I1011 01:03:02.988234 10391 net.cpp:165] Memory required for data: 136348416
I1011 01:03:02.988240 10391 layer_factory.hpp:77] Creating layer relu4
I1011 01:03:02.988243 10391 net.cpp:100] Creating Layer relu4
I1011 01:03:02.988245 10391 net.cpp:434] relu4 <- conv4
I1011 01:03:02.988248 10391 net.cpp:395] relu4 -> conv4 (in-place)
I1011 01:03:02.988456 10391 net.cpp:150] Setting up relu4
I1011 01:03:02.988463 10391 net.cpp:157] Top shape: 64 192 11 11 (1486848)
I1011 01:03:02.988479 10391 net.cpp:165] Memory required for data: 142295808
I1011 01:03:02.988481 10391 layer_factory.hpp:77] Creating layer conv5
I1011 01:03:02.988487 10391 net.cpp:100] Creating Layer conv5
I1011 01:03:02.988489 10391 net.cpp:434] conv5 <- conv4
I1011 01:03:02.988493 10391 net.cpp:408] conv5 -> conv5
I1011 01:03:02.991153 10391 net.cpp:150] Setting up conv5
I1011 01:03:02.991165 10391 net.cpp:157] Top shape: 64 192 9 9 (995328)
I1011 01:03:02.991168 10391 net.cpp:165] Memory required for data: 146277120
I1011 01:03:02.991173 10391 layer_factory.hpp:77] Creating layer bn2
I1011 01:03:02.991178 10391 net.cpp:100] Creating Layer bn2
I1011 01:03:02.991179 10391 net.cpp:434] bn2 <- conv5
I1011 01:03:02.991183 10391 net.cpp:408] bn2 -> bn2
I1011 01:03:02.991436 10391 net.cpp:150] Setting up bn2
I1011 01:03:02.991442 10391 net.cpp:157] Top shape: 64 192 9 9 (995328)
I1011 01:03:02.991458 10391 net.cpp:165] Memory required for data: 150258432
I1011 01:03:02.991463 10391 layer_factory.hpp:77] Creating layer relu5
I1011 01:03:02.991467 10391 net.cpp:100] Creating Layer relu5
I1011 01:03:02.991469 10391 net.cpp:434] relu5 <- bn2
I1011 01:03:02.991472 10391 net.cpp:395] relu5 -> bn2 (in-place)
I1011 01:03:02.991660 10391 net.cpp:150] Setting up relu5
I1011 01:03:02.991667 10391 net.cpp:157] Top shape: 64 192 9 9 (995328)
I1011 01:03:02.991683 10391 net.cpp:165] Memory required for data: 154239744
I1011 01:03:02.991685 10391 layer_factory.hpp:77] Creating layer drop4
I1011 01:03:02.991689 10391 net.cpp:100] Creating Layer drop4
I1011 01:03:02.991691 10391 net.cpp:434] drop4 <- bn2
I1011 01:03:02.991694 10391 net.cpp:408] drop4 -> drop4
I1011 01:03:02.991750 10391 net.cpp:150] Setting up drop4
I1011 01:03:02.991755 10391 net.cpp:157] Top shape: 64 192 9 9 (995328)
I1011 01:03:02.991793 10391 net.cpp:165] Memory required for data: 158221056
I1011 01:03:02.991796 10391 layer_factory.hpp:77] Creating layer conv6
I1011 01:03:02.991817 10391 net.cpp:100] Creating Layer conv6
I1011 01:03:02.991819 10391 net.cpp:434] conv6 <- drop4
I1011 01:03:02.991837 10391 net.cpp:408] conv6 -> conv6
I1011 01:03:02.994787 10391 net.cpp:150] Setting up conv6
I1011 01:03:02.994807 10391 net.cpp:157] Top shape: 64 192 4 4 (196608)
I1011 01:03:02.994809 10391 net.cpp:165] Memory required for data: 159007488
I1011 01:03:02.994818 10391 layer_factory.hpp:77] Creating layer relu6
I1011 01:03:02.994824 10391 net.cpp:100] Creating Layer relu6
I1011 01:03:02.994827 10391 net.cpp:434] relu6 <- conv6
I1011 01:03:02.994830 10391 net.cpp:395] relu6 -> conv6 (in-place)
I1011 01:03:02.995162 10391 net.cpp:150] Setting up relu6
I1011 01:03:02.995172 10391 net.cpp:157] Top shape: 64 192 4 4 (196608)
I1011 01:03:02.995174 10391 net.cpp:165] Memory required for data: 159793920
I1011 01:03:02.995177 10391 layer_factory.hpp:77] Creating layer conv7
I1011 01:03:02.995185 10391 net.cpp:100] Creating Layer conv7
I1011 01:03:02.995187 10391 net.cpp:434] conv7 <- conv6
I1011 01:03:02.995193 10391 net.cpp:408] conv7 -> conv7
I1011 01:03:02.998193 10391 net.cpp:150] Setting up conv7
I1011 01:03:02.998209 10391 net.cpp:157] Top shape: 64 192 2 2 (49152)
I1011 01:03:02.998212 10391 net.cpp:165] Memory required for data: 159990528
I1011 01:03:02.998219 10391 layer_factory.hpp:77] Creating layer relu7
I1011 01:03:02.998224 10391 net.cpp:100] Creating Layer relu7
I1011 01:03:02.998225 10391 net.cpp:434] relu7 <- conv7
I1011 01:03:02.998229 10391 net.cpp:395] relu7 -> conv7 (in-place)
I1011 01:03:02.998499 10391 net.cpp:150] Setting up relu7
I1011 01:03:02.998507 10391 net.cpp:157] Top shape: 64 192 2 2 (49152)
I1011 01:03:02.998523 10391 net.cpp:165] Memory required for data: 160187136
I1011 01:03:02.998525 10391 layer_factory.hpp:77] Creating layer conv8
I1011 01:03:02.998533 10391 net.cpp:100] Creating Layer conv8
I1011 01:03:02.998534 10391 net.cpp:434] conv8 <- conv7
I1011 01:03:02.998538 10391 net.cpp:408] conv8 -> conv8
I1011 01:03:02.999958 10391 net.cpp:150] Setting up conv8
I1011 01:03:02.999970 10391 net.cpp:157] Top shape: 64 192 2 2 (49152)
I1011 01:03:02.999974 10391 net.cpp:165] Memory required for data: 160383744
I1011 01:03:02.999979 10391 layer_factory.hpp:77] Creating layer relu8
I1011 01:03:02.999982 10391 net.cpp:100] Creating Layer relu8
I1011 01:03:02.999985 10391 net.cpp:434] relu8 <- conv8
I1011 01:03:02.999989 10391 net.cpp:395] relu8 -> conv8 (in-place)
I1011 01:03:03.000190 10391 net.cpp:150] Setting up relu8
I1011 01:03:03.000196 10391 net.cpp:157] Top shape: 64 192 2 2 (49152)
I1011 01:03:03.000213 10391 net.cpp:165] Memory required for data: 160580352
I1011 01:03:03.000216 10391 layer_factory.hpp:77] Creating layer conv9
I1011 01:03:03.000221 10391 net.cpp:100] Creating Layer conv9
I1011 01:03:03.000223 10391 net.cpp:434] conv9 <- conv8
I1011 01:03:03.000226 10391 net.cpp:408] conv9 -> conv9
I1011 01:03:03.001171 10391 net.cpp:150] Setting up conv9
I1011 01:03:03.001181 10391 net.cpp:157] Top shape: 64 10 2 2 (2560)
I1011 01:03:03.001183 10391 net.cpp:165] Memory required for data: 160590592
I1011 01:03:03.001188 10391 layer_factory.hpp:77] Creating layer relu9
I1011 01:03:03.001191 10391 net.cpp:100] Creating Layer relu9
I1011 01:03:03.001194 10391 net.cpp:434] relu9 <- conv9
I1011 01:03:03.001197 10391 net.cpp:395] relu9 -> conv9 (in-place)
I1011 01:03:03.001477 10391 net.cpp:150] Setting up relu9
I1011 01:03:03.001484 10391 net.cpp:157] Top shape: 64 10 2 2 (2560)
I1011 01:03:03.001499 10391 net.cpp:165] Memory required for data: 160600832
I1011 01:03:03.001502 10391 layer_factory.hpp:77] Creating layer pool
I1011 01:03:03.001507 10391 net.cpp:100] Creating Layer pool
I1011 01:03:03.001509 10391 net.cpp:434] pool <- conv9
I1011 01:03:03.001513 10391 net.cpp:408] pool -> pool
I1011 01:03:03.001790 10391 net.cpp:150] Setting up pool
I1011 01:03:03.001796 10391 net.cpp:157] Top shape: 64 10 1 1 (640)
I1011 01:03:03.001821 10391 net.cpp:165] Memory required for data: 160603392
I1011 01:03:03.001823 10391 layer_factory.hpp:77] Creating layer flatten
I1011 01:03:03.001840 10391 net.cpp:100] Creating Layer flatten
I1011 01:03:03.001843 10391 net.cpp:434] flatten <- pool
I1011 01:03:03.001847 10391 net.cpp:408] flatten -> flatten
I1011 01:03:03.001879 10391 net.cpp:150] Setting up flatten
I1011 01:03:03.001884 10391 net.cpp:157] Top shape: 64 10 (640)
I1011 01:03:03.001886 10391 net.cpp:165] Memory required for data: 160605952
I1011 01:03:03.001901 10391 layer_factory.hpp:77] Creating layer score
I1011 01:03:03.001905 10391 net.cpp:100] Creating Layer score
I1011 01:03:03.001909 10391 net.cpp:434] score <- flatten
I1011 01:03:03.001925 10391 net.cpp:408] score -> score
I1011 01:03:03.002032 10391 net.cpp:150] Setting up score
I1011 01:03:03.002038 10391 net.cpp:157] Top shape: 64 10 (640)
I1011 01:03:03.002039 10391 net.cpp:165] Memory required for data: 160608512
I1011 01:03:03.002043 10391 layer_factory.hpp:77] Creating layer score_score_0_split
I1011 01:03:03.002048 10391 net.cpp:100] Creating Layer score_score_0_split
I1011 01:03:03.002050 10391 net.cpp:434] score_score_0_split <- score
I1011 01:03:03.002053 10391 net.cpp:408] score_score_0_split -> score_score_0_split_0
I1011 01:03:03.002058 10391 net.cpp:408] score_score_0_split -> score_score_0_split_1
I1011 01:03:03.002085 10391 net.cpp:150] Setting up score_score_0_split
I1011 01:03:03.002102 10391 net.cpp:157] Top shape: 64 10 (640)
I1011 01:03:03.002106 10391 net.cpp:157] Top shape: 64 10 (640)
I1011 01:03:03.002109 10391 net.cpp:165] Memory required for data: 160613632
I1011 01:03:03.002111 10391 layer_factory.hpp:77] Creating layer accuracy
I1011 01:03:03.002115 10391 net.cpp:100] Creating Layer accuracy
I1011 01:03:03.002118 10391 net.cpp:434] accuracy <- score_score_0_split_0
I1011 01:03:03.002121 10391 net.cpp:434] accuracy <- label_data_1_split_0
I1011 01:03:03.002125 10391 net.cpp:408] accuracy -> accuracy
…
I1011 01:03:03.002590 10391 net.cpp:283] Network initialization done.
I1011 01:03:03.002794 10391 solver.cpp:181] Creating test net (#0) specified by test_net file: /home/adam/Honours/Honours-Project/cifar-10_allcnn/relu/allcnn_relu_test.prototxt
I1011 01:03:03.002940 10391 net.cpp:58] Initializing net from parameters: 
state {
  phase: TEST
}
layer {
  name: "data"
  type: "Data"
  top: "data"
  top: "label"
  transform_param {
    mean_file: "mean.binaryproto"
  }
  data_param {
    source: "../../../data/cifar-10/cifar10_test_lmdb"
    batch_size: 100
    backend: LMDB
  }
}
layer {
  name: "conv1"
  type: "Convolution"
  bottom: "data"
  top: "conv1"
  convolution_param {
    num_output: 96
    kernel_size: 3
    weight_filler {
      type: "xavier"
    }
  }
}
layer {
  name: "relu1"
  type: "ReLU"
  bottom: "conv1"
  top: "conv1"
}
layer {
  name: "conv2"
  type: "Convolution"
  bottom: "conv1"
  top: "conv2"
  convolution_param {
    num_output: 96
    kernel_size: 3
    weight_filler {
      type: "xavier"
    }
  }
}
layer {
  name: "bn1"
  type: "BatchNorm"
  bottom: "conv2"
  top: "bn1"
}
layer {
  name: "relu2"
  type: "ReLU"
  bottom: "bn1"
  top: "bn1"
}
layer {
  name: "drop1"
  type: "Dropout"
  bottom: "bn1"
  top: "drop1"
  dropout_param {
    dropout_ratio: 0.5
  }
}
layer {
  name: "conv3"
  type: "Convolution"
  bottom: "drop1"
  top: "conv3"
  convolution_param {
    num_output: 96
    kernel_size: 3
    stride: 2
    weight_filler {
      type: "xavier"
    }
  }
}
layer {
  name: "relu3"
  type: "ReLU"
  bottom: "conv3"
  top: "conv3"
}
layer {
  name: "conv4"
  type: "Convolution"
  bottom: "conv3"
  top: "conv4"
  convolution_param {
    num_output: 192
    kernel_size: 3
    weight_filler {
      type: "xavier"
    }
  }
}
layer {
  name: "relu4"
  type: "ReLU"
  bottom: "conv4"
  top: "conv4"
}
layer {
  name: "conv5"
  type: "Convolution"
  bottom: "conv4"
  top: "conv5"
  convolution_param {
    num_output: 192
    kernel_size: 3
    weight_filler {
      type: "xavier"
    }
  }
}
layer {
  name: "bn2"
  type: "BatchNorm"
  bottom: "conv5"
  top: "bn2"
}
layer {
  name: "relu5"
  type: "ReLU"
  bottom: "bn2"
  top: "bn2"
}
layer {
  name: "drop4"
  type: "Dropout"
  bottom: "bn2"
  top: "drop4"
  dropout_param {
    dropout_ratio: 0.5
  }
}
layer {
  name: "conv6"
  type: "Convolution"
  bottom: "drop4"
  top: "conv6"
  convolution_param {
    num_output: 192
    kernel_size: 3
    stride: 2
    weight_filler {
      type: "xavier"
    }
  }
}
layer {
  name: "relu6"
  type: "ReLU"
  bottom: "conv6"
  top: "conv6"
}
layer {
  name: "conv7"
  type: "Convolution"
  bottom: "conv6"
  top: "conv7"
  convolution_param {
    num_output: 192
    kernel_size: 3
    weight_filler {
      type: "xavier"
    }
  }
}
layer {
  name: "relu7"
  type: "ReLU"
  bottom: "conv7"
  top: "conv7"
}
layer {
  name: "conv8"
  type: "Convolution"
  bottom: "conv7"
  top: "conv8"
  convolution_param {
    num_output: 192
    kernel_size: 1
    weight_filler {
      type: "xavier"
    }
  }
}
layer {
  name: "relu8"
  type: "ReLU"
  bottom: "conv8"
  top: "conv8"
}
layer {
  name: "conv9"
  type: "Convolution"
  bottom: "conv8"
  top: "conv9"
  convolution_param {
    num_output: 10
    kernel_size: 1
    weight_filler {
      type: "xavier"
    }
  }
}
layer {
  name: "relu9"
  type: "ReLU"
  bottom: "conv9"
  top: "conv9"
}
layer {
  name: "pool"
  type: "Pooling"
  bottom: "conv9"
  top: "pool"
  pooling_param {
    pool: AVE
    global_pooling: true
  }
}
layer {
  name: "flatten"
  type: "Flatten"
  bottom: "pool"
  top: "flatten"
}
layer {
  name: "score"
  type: "InnerProduct"
  bottom: "flatten"
  top: "score"
  inner_product_param {
    num_output: 10
    weight_filler {
      type: "gaussian"
    }
  }
}
layer {
  name: "accuracy"
  type: "Accuracy"
  bottom: "score"
  bottom: "label"
  top: "accuracy"
}
layer {
  name: "loss"
  type: "SoftmaxWithLoss"
  bottom: "score"
  bottom: "label"
  top: "loss"
}
I1011 01:03:03.003041 10391 layer_factory.hpp:77] Creating layer data
I1011 01:03:03.003116 10391 net.cpp:100] Creating Layer data
I1011 01:03:03.003123 10391 net.cpp:408] data -> data
I1011 01:03:03.003129 10391 net.cpp:408] data -> label
I1011 01:03:03.003147 10391 data_transformer.cpp:25] Loading mean file from: mean.binaryproto
I1011 01:03:03.003852 10400 db_lmdb.cpp:35] Opened lmdb ../../../data/cifar-10/cifar10_test_lmdb
I1011 01:03:03.003960 10391 data_layer.cpp:41] output data size: 100,3,32,32
I1011 01:03:03.005973 10391 net.cpp:150] Setting up data
I1011 01:03:03.006012 10391 net.cpp:157] Top shape: 100 3 32 32 (307200)
I1011 01:03:03.006016 10391 net.cpp:157] Top shape: 100 (100)
I1011 01:03:03.006018 10391 net.cpp:165] Memory required for data: 1229200
I1011 01:03:03.006036 10391 layer_factory.hpp:77] Creating layer label_data_1_split
I1011 01:03:03.006043 10391 net.cpp:100] Creating Layer label_data_1_split
I1011 01:03:03.006059 10391 net.cpp:434] label_data_1_split <- label
I1011 01:03:03.006064 10391 net.cpp:408] label_data_1_split -> label_data_1_split_0
I1011 01:03:03.006070 10391 net.cpp:408] label_data_1_split -> label_data_1_split_1
I1011 01:03:03.006206 10391 net.cpp:150] Setting up label_data_1_split
I1011 01:03:03.006219 10391 net.cpp:157] Top shape: 100 (100)
I1011 01:03:03.006229 10391 net.cpp:157] Top shape: 100 (100)
I1011 01:03:03.006237 10391 net.cpp:165] Memory required for data: 1230000
I1011 01:03:03.006260 10391 layer_factory.hpp:77] Creating layer conv1
I1011 01:03:03.006275 10391 net.cpp:100] Creating Layer conv1
I1011 01:03:03.006279 10391 net.cpp:434] conv1 <- data
I1011 01:03:03.006283 10391 net.cpp:408] conv1 -> conv1
I1011 01:03:03.007385 10391 net.cpp:150] Setting up conv1
I1011 01:03:03.007411 10391 net.cpp:157] Top shape: 100 96 30 30 (8640000)
I1011 01:03:03.007413 10391 net.cpp:165] Memory required for data: 35790000
I1011 01:03:03.007437 10391 layer_factory.hpp:77] Creating layer relu1
I1011 01:03:03.007455 10391 net.cpp:100] Creating Layer relu1
I1011 01:03:03.007457 10391 net.cpp:434] relu1 <- conv1
I1011 01:03:03.007462 10391 net.cpp:395] relu1 -> conv1 (in-place)
I1011 01:03:03.007629 10391 net.cpp:150] Setting up relu1
I1011 01:03:03.007647 10391 net.cpp:157] Top shape: 100 96 30 30 (8640000)
I1011 01:03:03.007657 10391 net.cpp:165] Memory required for data: 70350000
I1011 01:03:03.007665 10391 layer_factory.hpp:77] Creating layer conv2
I1011 01:03:03.007679 10391 net.cpp:100] Creating Layer conv2
I1011 01:03:03.007688 10391 net.cpp:434] conv2 <- conv1
I1011 01:03:03.007699 10391 net.cpp:408] conv2 -> conv2
I1011 01:03:03.008982 10391 net.cpp:150] Setting up conv2
I1011 01:03:03.008996 10391 net.cpp:157] Top shape: 100 96 28 28 (7526400)
I1011 01:03:03.008999 10391 net.cpp:165] Memory required for data: 100455600
I1011 01:03:03.009006 10391 layer_factory.hpp:77] Creating layer bn1
I1011 01:03:03.009024 10391 net.cpp:100] Creating Layer bn1
I1011 01:03:03.009040 10391 net.cpp:434] bn1 <- conv2
I1011 01:03:03.009058 10391 net.cpp:408] bn1 -> bn1
I1011 01:03:03.009249 10391 net.cpp:150] Setting up bn1
I1011 01:03:03.009263 10391 net.cpp:157] Top shape: 100 96 28 28 (7526400)
I1011 01:03:03.009269 10391 net.cpp:165] Memory required for data: 130561200
I1011 01:03:03.009282 10391 layer_factory.hpp:77] Creating layer relu2
I1011 01:03:03.009292 10391 net.cpp:100] Creating Layer relu2
I1011 01:03:03.009300 10391 net.cpp:434] relu2 <- bn1
I1011 01:03:03.009310 10391 net.cpp:395] relu2 -> bn1 (in-place)
I1011 01:03:03.009699 10391 net.cpp:150] Setting up relu2
I1011 01:03:03.009717 10391 net.cpp:157] Top shape: 100 96 28 28 (7526400)
I1011 01:03:03.009721 10391 net.cpp:165] Memory required for data: 160666800
I1011 01:03:03.009724 10391 layer_factory.hpp:77] Creating layer drop1
I1011 01:03:03.009729 10391 net.cpp:100] Creating Layer drop1
I1011 01:03:03.009732 10391 net.cpp:434] drop1 <- bn1
I1011 01:03:03.009737 10391 net.cpp:408] drop1 -> drop1
I1011 01:03:03.009775 10391 net.cpp:150] Setting up drop1
I1011 01:03:03.009788 10391 net.cpp:157] Top shape: 100 96 28 28 (7526400)
I1011 01:03:03.009793 10391 net.cpp:165] Memory required for data: 190772400
I1011 01:03:03.009794 10391 layer_factory.hpp:77] Creating layer conv3
I1011 01:03:03.009804 10391 net.cpp:100] Creating Layer conv3
I1011 01:03:03.009812 10391 net.cpp:434] conv3 <- drop1
I1011 01:03:03.009819 10391 net.cpp:408] conv3 -> conv3
I1011 01:03:03.010951 10391 net.cpp:150] Setting up conv3
I1011 01:03:03.010965 10391 net.cpp:157] Top shape: 100 96 13 13 (1622400)
I1011 01:03:03.010968 10391 net.cpp:165] Memory required for data: 197262000
I1011 01:03:03.010977 10391 layer_factory.hpp:77] Creating layer relu3
I1011 01:03:03.010982 10391 net.cpp:100] Creating Layer relu3
I1011 01:03:03.010985 10391 net.cpp:434] relu3 <- conv3
I1011 01:03:03.010988 10391 net.cpp:395] relu3 -> conv3 (in-place)
I1011 01:03:03.012253 10391 net.cpp:150] Setting up relu3
I1011 01:03:03.012277 10391 net.cpp:157] Top shape: 100 96 13 13 (1622400)
I1011 01:03:03.012279 10391 net.cpp:165] Memory required for data: 203751600
I1011 01:03:03.012281 10391 layer_factory.hpp:77] Creating layer conv4
I1011 01:03:03.012290 10391 net.cpp:100] Creating Layer conv4
I1011 01:03:03.012292 10391 net.cpp:434] conv4 <- conv3
I1011 01:03:03.012297 10391 net.cpp:408] conv4 -> conv4
I1011 01:03:03.014564 10391 net.cpp:150] Setting up conv4
I1011 01:03:03.014580 10391 net.cpp:157] Top shape: 100 192 11 11 (2323200)
I1011 01:03:03.014583 10391 net.cpp:165] Memory required for data: 213044400
I1011 01:03:03.014603 10391 layer_factory.hpp:77] Creating layer relu4
I1011 01:03:03.014610 10391 net.cpp:100] Creating Layer relu4
I1011 01:03:03.014612 10391 net.cpp:434] relu4 <- conv4
I1011 01:03:03.014616 10391 net.cpp:395] relu4 -> conv4 (in-place)
I1011 01:03:03.014781 10391 net.cpp:150] Setting up relu4
I1011 01:03:03.014787 10391 net.cpp:157] Top shape: 100 192 11 11 (2323200)
I1011 01:03:03.014791 10391 net.cpp:165] Memory required for data: 222337200
I1011 01:03:03.014806 10391 layer_factory.hpp:77] Creating layer conv5
I1011 01:03:03.014812 10391 net.cpp:100] Creating Layer conv5
I1011 01:03:03.014816 10391 net.cpp:434] conv5 <- conv4
I1011 01:03:03.014819 10391 net.cpp:408] conv5 -> conv5
I1011 01:03:03.017520 10391 net.cpp:150] Setting up conv5
I1011 01:03:03.017534 10391 net.cpp:157] Top shape: 100 192 9 9 (1555200)
I1011 01:03:03.017536 10391 net.cpp:165] Memory required for data: 228558000
I1011 01:03:03.017541 10391 layer_factory.hpp:77] Creating layer bn2
I1011 01:03:03.017546 10391 net.cpp:100] Creating Layer bn2
I1011 01:03:03.017549 10391 net.cpp:434] bn2 <- conv5
I1011 01:03:03.017552 10391 net.cpp:408] bn2 -> bn2
I1011 01:03:03.017776 10391 net.cpp:150] Setting up bn2
I1011 01:03:03.017781 10391 net.cpp:157] Top shape: 100 192 9 9 (1555200)
I1011 01:03:03.017782 10391 net.cpp:165] Memory required for data: 234778800
I1011 01:03:03.017787 10391 layer_factory.hpp:77] Creating layer relu5
I1011 01:03:03.017791 10391 net.cpp:100] Creating Layer relu5
I1011 01:03:03.017793 10391 net.cpp:434] relu5 <- bn2
I1011 01:03:03.017807 10391 net.cpp:395] relu5 -> bn2 (in-place)
I1011 01:03:03.018077 10391 net.cpp:150] Setting up relu5
I1011 01:03:03.018085 10391 net.cpp:157] Top shape: 100 192 9 9 (1555200)
I1011 01:03:03.018087 10391 net.cpp:165] Memory required for data: 240999600
I1011 01:03:03.018090 10391 layer_factory.hpp:77] Creating layer drop4
I1011 01:03:03.018095 10391 net.cpp:100] Creating Layer drop4
I1011 01:03:03.018097 10391 net.cpp:434] drop4 <- bn2
I1011 01:03:03.018100 10391 net.cpp:408] drop4 -> drop4
I1011 01:03:03.018174 10391 net.cpp:150] Setting up drop4
I1011 01:03:03.018179 10391 net.cpp:157] Top shape: 100 192 9 9 (1555200)
I1011 01:03:03.018182 10391 net.cpp:165] Memory required for data: 247220400
I1011 01:03:03.018183 10391 layer_factory.hpp:77] Creating layer conv6
I1011 01:03:03.018191 10391 net.cpp:100] Creating Layer conv6
I1011 01:03:03.018193 10391 net.cpp:434] conv6 <- drop4
I1011 01:03:03.018196 10391 net.cpp:408] conv6 -> conv6
I1011 01:03:03.020746 10391 net.cpp:150] Setting up conv6
I1011 01:03:03.020759 10391 net.cpp:157] Top shape: 100 192 4 4 (307200)
I1011 01:03:03.020762 10391 net.cpp:165] Memory required for data: 248449200
I1011 01:03:03.020771 10391 layer_factory.hpp:77] Creating layer relu6
I1011 01:03:03.020774 10391 net.cpp:100] Creating Layer relu6
I1011 01:03:03.020777 10391 net.cpp:434] relu6 <- conv6
I1011 01:03:03.020781 10391 net.cpp:395] relu6 -> conv6 (in-place)
I1011 01:03:03.021071 10391 net.cpp:150] Setting up relu6
I1011 01:03:03.021080 10391 net.cpp:157] Top shape: 100 192 4 4 (307200)
I1011 01:03:03.021096 10391 net.cpp:165] Memory required for data: 249678000
I1011 01:03:03.021098 10391 layer_factory.hpp:77] Creating layer conv7
I1011 01:03:03.021106 10391 net.cpp:100] Creating Layer conv7
I1011 01:03:03.021107 10391 net.cpp:434] conv7 <- conv6
I1011 01:03:03.021111 10391 net.cpp:408] conv7 -> conv7
I1011 01:03:03.023869 10391 net.cpp:150] Setting up conv7
I1011 01:03:03.023883 10391 net.cpp:157] Top shape: 100 192 2 2 (76800)
I1011 01:03:03.023886 10391 net.cpp:165] Memory required for data: 249985200
I1011 01:03:03.023891 10391 layer_factory.hpp:77] Creating layer relu7
I1011 01:03:03.023895 10391 net.cpp:100] Creating Layer relu7
I1011 01:03:03.023898 10391 net.cpp:434] relu7 <- conv7
I1011 01:03:03.023901 10391 net.cpp:395] relu7 -> conv7 (in-place)
I1011 01:03:03.024102 10391 net.cpp:150] Setting up relu7
I1011 01:03:03.024109 10391 net.cpp:157] Top shape: 100 192 2 2 (76800)
I1011 01:03:03.024125 10391 net.cpp:165] Memory required for data: 250292400
I1011 01:03:03.024127 10391 layer_factory.hpp:77] Creating layer conv8
I1011 01:03:03.024134 10391 net.cpp:100] Creating Layer conv8
I1011 01:03:03.024137 10391 net.cpp:434] conv8 <- conv7
I1011 01:03:03.024140 10391 net.cpp:408] conv8 -> conv8
I1011 01:03:03.025270 10391 net.cpp:150] Setting up conv8
I1011 01:03:03.025280 10391 net.cpp:157] Top shape: 100 192 2 2 (76800)
I1011 01:03:03.025284 10391 net.cpp:165] Memory required for data: 250599600
I1011 01:03:03.025287 10391 layer_factory.hpp:77] Creating layer relu8
I1011 01:03:03.025291 10391 net.cpp:100] Creating Layer relu8
I1011 01:03:03.025293 10391 net.cpp:434] relu8 <- conv8
I1011 01:03:03.025296 10391 net.cpp:395] relu8 -> conv8 (in-place)
I1011 01:03:03.025642 10391 net.cpp:150] Setting up relu8
I1011 01:03:03.025650 10391 net.cpp:157] Top shape: 100 192 2 2 (76800)
I1011 01:03:03.025665 10391 net.cpp:165] Memory required for data: 250906800
I1011 01:03:03.025668 10391 layer_factory.hpp:77] Creating layer conv9
I1011 01:03:03.025686 10391 net.cpp:100] Creating Layer conv9
I1011 01:03:03.025689 10391 net.cpp:434] conv9 <- conv8
I1011 01:03:03.025692 10391 net.cpp:408] conv9 -> conv9
I1011 01:03:03.026496 10391 net.cpp:150] Setting up conv9
I1011 01:03:03.026505 10391 net.cpp:157] Top shape: 100 10 2 2 (4000)
I1011 01:03:03.026507 10391 net.cpp:165] Memory required for data: 250922800
I1011 01:03:03.026512 10391 layer_factory.hpp:77] Creating layer relu9
I1011 01:03:03.026515 10391 net.cpp:100] Creating Layer relu9
I1011 01:03:03.026517 10391 net.cpp:434] relu9 <- conv9
I1011 01:03:03.026530 10391 net.cpp:395] relu9 -> conv9 (in-place)
I1011 01:03:03.026818 10391 net.cpp:150] Setting up relu9
I1011 01:03:03.026839 10391 net.cpp:157] Top shape: 100 10 2 2 (4000)
I1011 01:03:03.026841 10391 net.cpp:165] Memory required for data: 250938800
I1011 01:03:03.026844 10391 layer_factory.hpp:77] Creating layer pool
I1011 01:03:03.026849 10391 net.cpp:100] Creating Layer pool
I1011 01:03:03.026851 10391 net.cpp:434] pool <- conv9
I1011 01:03:03.026855 10391 net.cpp:408] pool -> pool
I1011 01:03:03.027093 10391 net.cpp:150] Setting up pool
I1011 01:03:03.027101 10391 net.cpp:157] Top shape: 100 10 1 1 (1000)
I1011 01:03:03.027102 10391 net.cpp:165] Memory required for data: 250942800
I1011 01:03:03.027104 10391 layer_factory.hpp:77] Creating layer flatten
I1011 01:03:03.027108 10391 net.cpp:100] Creating Layer flatten
I1011 01:03:03.027110 10391 net.cpp:434] flatten <- pool
I1011 01:03:03.027114 10391 net.cpp:408] flatten -> flatten
I1011 01:03:03.027134 10391 net.cpp:150] Setting up flatten
I1011 01:03:03.027151 10391 net.cpp:157] Top shape: 100 10 (1000)
I1011 01:03:03.027153 10391 net.cpp:165] Memory required for data: 250946800
I1011 01:03:03.027155 10391 layer_factory.hpp:77] Creating layer score
I1011 01:03:03.027173 10391 net.cpp:100] Creating Layer score
I1011 01:03:03.027175 10391 net.cpp:434] score <- flatten
I1011 01:03:03.027179 10391 net.cpp:408] score -> score
I1011 01:03:03.027298 10391 net.cpp:150] Setting up score
I1011 01:03:03.027302 10391 net.cpp:157] Top shape: 100 10 (1000)
I1011 01:03:03.027304 10391 net.cpp:165] Memory required for data: 250950800
I1011 01:03:03.027309 10391 layer_factory.hpp:77] Creating layer score_score_0_split
I1011 01:03:03.027312 10391 net.cpp:100] Creating Layer score_score_0_split
I1011 01:03:03.027315 10391 net.cpp:434] score_score_0_split <- score
I1011 01:03:03.027318 10391 net.cpp:408] score_score_0_split -> score_score_0_split_0
I1011 01:03:03.027323 10391 net.cpp:408] score_score_0_split -> score_score_0_split_1
I1011 01:03:03.027370 10391 net.cpp:150] Setting up score_score_0_split
I1011 01:03:03.027375 10391 net.cpp:157] Top shape: 100 10 (1000)
I1011 01:03:03.027379 10391 net.cpp:157] Top shape: 100 10 (1000)
I1011 01:03:03.027379 10391 net.cpp:165] Memory required for data: 250958800
I1011 01:03:03.027382 10391 layer_factory.hpp:77] Creating layer accuracy
I1011 01:03:03.027385 10391 net.cpp:100] Creating Layer accuracy
I1011 01:03:03.027401 10391 net.cpp:434] accuracy <- score_score_0_split_0
I1011 01:03:03.027405 10391 net.cpp:434] accuracy <- label_data_1_split_0
I1011 01:03:03.027408 10391 net.cpp:408] accuracy -> accuracy
…
