…
train_state {
  level: 0
  stage: ""
}
type: "AdaDelta"
I1018 17:15:56.888111  3632 solver.cpp:81] Creating training net from train_net file: /home/adam/Honours/Honours-Project/mnist_allcnn/elu/allcnn_elu_train.prototxt
I1018 17:15:56.888362  3632 net.cpp:58] Initializing net from parameters: 
state {
  phase: TRAIN
  level: 0
  stage: ""
}
layer {
  name: "data"
  type: "Data"
  top: "data"
  top: "label"
  transform_param {
    scale: 0.0039215689
  }
  data_param {
    source: "../../../data/mnist/mnist_train_lmdb"
    batch_size: 64
    backend: LMDB
  }
}
layer {
  name: "conv1"
  type: "Convolution"
  bottom: "data"
  top: "conv1"
  convolution_param {
    num_output: 96
    kernel_size: 3
    weight_filler {
      type: "xavier"
    }
  }
}
layer {
  name: "elu1"
  type: "ELU"
  bottom: "conv1"
  top: "conv1"
}
layer {
  name: "conv2"
  type: "Convolution"
  bottom: "conv1"
  top: "conv2"
  convolution_param {
    num_output: 96
    kernel_size: 3
    weight_filler {
      type: "xavier"
    }
  }
}
layer {
  name: "bn1"
  type: "BatchNorm"
  bottom: "conv2"
  top: "bn1"
}
layer {
  name: "elu2"
  type: "ELU"
  bottom: "bn1"
  top: "bn1"
}
layer {
  name: "conv3"
  type: "Convolution"
  bottom: "bn1"
  top: "conv3"
  convolution_param {
    num_output: 96
    kernel_size: 3
    stride: 2
    weight_filler {
      type: "xavier"
    }
  }
}
layer {
  name: "drop1"
  type: "Dropout"
  bottom: "conv3"
  top: "drop1"
  dropout_param {
    dropout_ratio: 0.5
  }
}
layer {
  name: "elu3"
  type: "ELU"
  bottom: "drop1"
  top: "drop1"
}
layer {
  name: "conv4"
  type: "Convolution"
  bottom: "drop1"
  top: "conv4"
  convolution_param {
    num_output: 192
    kernel_size: 3
    weight_filler {
      type: "xavier"
    }
  }
}
layer {
  name: "elu4"
  type: "ELU"
  bottom: "conv4"
  top: "conv4"
}
layer {
  name: "conv5"
  type: "Convolution"
  bottom: "conv4"
  top: "conv5"
  convolution_param {
    num_output: 192
    kernel_size: 3
    weight_filler {
      type: "xavier"
    }
  }
}
layer {
  name: "bn2"
  type: "BatchNorm"
  bottom: "conv5"
  top: "bn2"
}
layer {
  name: "elu5"
  type: "ELU"
  bottom: "bn2"
  top: "bn2"
}
layer {
  name: "conv6"
  type: "Convolution"
  bottom: "bn2"
  top: "conv6"
  convolution_param {
    num_output: 192
    kernel_size: 3
    stride: 2
    weight_filler {
      type: "xavier"
    }
  }
}
layer {
  name: "drop4"
  type: "Dropout"
  bottom: "conv6"
  top: "drop4"
  dropout_param {
    dropout_ratio: 0.5
  }
}
layer {
  name: "elu6"
  type: "ELU"
  bottom: "drop4"
  top: "drop4"
}
layer {
  name: "conv7"
  type: "Convolution"
  bottom: "drop4"
  top: "conv7"
  convolution_param {
    num_output: 192
    kernel_size: 3
    weight_filler {
      type: "xavier"
    }
  }
}
layer {
  name: "elu7"
  type: "ELU"
  bottom: "conv7"
  top: "conv7"
}
layer {
  name: "conv8"
  type: "Convolution"
  bottom: "conv7"
  top: "conv8"
  convolution_param {
    num_output: 192
    kernel_size: 1
    weight_filler {
      type: "xavier"
    }
  }
}
layer {
  name: "elu8"
  type: "ELU"
  bottom: "conv8"
  top: "conv8"
}
layer {
  name: "conv9"
  type: "Convolution"
  bottom: "conv8"
  top: "conv9"
  convolution_param {
    num_output: 10
    kernel_size: 1
    weight_filler {
      type: "xavier"
    }
  }
}
layer {
  name: "elu9"
  type: "ELU"
  bottom: "conv9"
  top: "conv9"
}
layer {
  name: "pool"
  type: "Pooling"
  bottom: "conv9"
  top: "pool"
  pooling_param {
    pool: AVE
    global_pooling: true
  }
}
layer {
  name: "flatten"
  type: "Flatten"
  bottom: "pool"
  top: "flatten"
}
layer {
  name: "score"
  type: "InnerProduct"
  bottom: "flatten"
  top: "score"
  inner_product_param {
    num_output: 10
    weight_filler {
      type: "gaussian"
    }
  }
}
layer {
  name: "accuracy"
  type: "Accuracy"
  bottom: "score"
  bottom: "label"
  top: "accuracy"
}
layer {
  name: "loss"
  type: "SoftmaxWithLoss"
  bottom: "score"
  bottom: "label"
  top: "loss"
}
I1018 17:15:56.889046  3632 layer_factory.hpp:77] Creating layer data
I1018 17:15:56.889489  3632 net.cpp:100] Creating Layer data
I1018 17:15:56.889499  3632 net.cpp:408] data -> data
I1018 17:15:56.889518  3632 net.cpp:408] data -> label
I1018 17:15:56.925523  3637 db_lmdb.cpp:35] Opened lmdb ../../../data/mnist/mnist_train_lmdb
I1018 17:15:57.069893  3632 data_layer.cpp:41] output data size: 64,1,28,28
I1018 17:15:57.071897  3632 net.cpp:150] Setting up data
I1018 17:15:57.071985  3632 net.cpp:157] Top shape: 64 1 28 28 (50176)
I1018 17:15:57.072002  3632 net.cpp:157] Top shape: 64 (64)
I1018 17:15:57.072013  3632 net.cpp:165] Memory required for data: 200960
I1018 17:15:57.072036  3632 layer_factory.hpp:77] Creating layer label_data_1_split
I1018 17:15:57.072062  3632 net.cpp:100] Creating Layer label_data_1_split
I1018 17:15:57.072075  3632 net.cpp:434] label_data_1_split <- label
I1018 17:15:57.072130  3632 net.cpp:408] label_data_1_split -> label_data_1_split_0
I1018 17:15:57.072159  3632 net.cpp:408] label_data_1_split -> label_data_1_split_1
I1018 17:15:57.072434  3632 net.cpp:150] Setting up label_data_1_split
I1018 17:15:57.072482  3632 net.cpp:157] Top shape: 64 (64)
I1018 17:15:57.072496  3632 net.cpp:157] Top shape: 64 (64)
I1018 17:15:57.072504  3632 net.cpp:165] Memory required for data: 201472
I1018 17:15:57.072515  3632 layer_factory.hpp:77] Creating layer conv1
I1018 17:15:57.072558  3632 net.cpp:100] Creating Layer conv1
I1018 17:15:57.072576  3632 net.cpp:434] conv1 <- data
I1018 17:15:57.072593  3632 net.cpp:408] conv1 -> conv1
I1018 17:15:58.417090  3632 net.cpp:150] Setting up conv1
I1018 17:15:58.417124  3632 net.cpp:157] Top shape: 64 96 26 26 (4153344)
I1018 17:15:58.417127  3632 net.cpp:165] Memory required for data: 16814848
I1018 17:15:58.417150  3632 layer_factory.hpp:77] Creating layer elu1
I1018 17:15:58.417161  3632 net.cpp:100] Creating Layer elu1
I1018 17:15:58.417165  3632 net.cpp:434] elu1 <- conv1
I1018 17:15:58.417172  3632 net.cpp:395] elu1 -> conv1 (in-place)
I1018 17:15:58.417186  3632 net.cpp:150] Setting up elu1
I1018 17:15:58.417192  3632 net.cpp:157] Top shape: 64 96 26 26 (4153344)
I1018 17:15:58.417194  3632 net.cpp:165] Memory required for data: 33428224
I1018 17:15:58.417197  3632 layer_factory.hpp:77] Creating layer conv2
I1018 17:15:58.417209  3632 net.cpp:100] Creating Layer conv2
I1018 17:15:58.417213  3632 net.cpp:434] conv2 <- conv1
I1018 17:15:58.417217  3632 net.cpp:408] conv2 -> conv2
I1018 17:15:58.422183  3632 net.cpp:150] Setting up conv2
I1018 17:15:58.422215  3632 net.cpp:157] Top shape: 64 96 24 24 (3538944)
I1018 17:15:58.422219  3632 net.cpp:165] Memory required for data: 47584000
I1018 17:15:58.422230  3632 layer_factory.hpp:77] Creating layer bn1
I1018 17:15:58.422240  3632 net.cpp:100] Creating Layer bn1
I1018 17:15:58.422242  3632 net.cpp:434] bn1 <- conv2
I1018 17:15:58.422247  3632 net.cpp:408] bn1 -> bn1
I1018 17:15:58.422451  3632 net.cpp:150] Setting up bn1
I1018 17:15:58.422461  3632 net.cpp:157] Top shape: 64 96 24 24 (3538944)
I1018 17:15:58.422462  3632 net.cpp:165] Memory required for data: 61739776
I1018 17:15:58.422471  3632 layer_factory.hpp:77] Creating layer elu2
I1018 17:15:58.422475  3632 net.cpp:100] Creating Layer elu2
I1018 17:15:58.422477  3632 net.cpp:434] elu2 <- bn1
I1018 17:15:58.422482  3632 net.cpp:395] elu2 -> bn1 (in-place)
I1018 17:15:58.422487  3632 net.cpp:150] Setting up elu2
I1018 17:15:58.422490  3632 net.cpp:157] Top shape: 64 96 24 24 (3538944)
I1018 17:15:58.422510  3632 net.cpp:165] Memory required for data: 75895552
I1018 17:15:58.422513  3632 layer_factory.hpp:77] Creating layer conv3
I1018 17:15:58.422521  3632 net.cpp:100] Creating Layer conv3
I1018 17:15:58.422524  3632 net.cpp:434] conv3 <- bn1
I1018 17:15:58.422530  3632 net.cpp:408] conv3 -> conv3
I1018 17:15:58.423920  3632 net.cpp:150] Setting up conv3
I1018 17:15:58.423935  3632 net.cpp:157] Top shape: 64 96 11 11 (743424)
I1018 17:15:58.423938  3632 net.cpp:165] Memory required for data: 78869248
I1018 17:15:58.423948  3632 layer_factory.hpp:77] Creating layer drop1
I1018 17:15:58.423955  3632 net.cpp:100] Creating Layer drop1
I1018 17:15:58.423959  3632 net.cpp:434] drop1 <- conv3
I1018 17:15:58.423964  3632 net.cpp:408] drop1 -> drop1
I1018 17:15:58.424006  3632 net.cpp:150] Setting up drop1
I1018 17:15:58.424011  3632 net.cpp:157] Top shape: 64 96 11 11 (743424)
I1018 17:15:58.424013  3632 net.cpp:165] Memory required for data: 81842944
I1018 17:15:58.424015  3632 layer_factory.hpp:77] Creating layer elu3
I1018 17:15:58.424021  3632 net.cpp:100] Creating Layer elu3
I1018 17:15:58.424022  3632 net.cpp:434] elu3 <- drop1
I1018 17:15:58.424026  3632 net.cpp:395] elu3 -> drop1 (in-place)
I1018 17:15:58.424029  3632 net.cpp:150] Setting up elu3
I1018 17:15:58.424032  3632 net.cpp:157] Top shape: 64 96 11 11 (743424)
I1018 17:15:58.424034  3632 net.cpp:165] Memory required for data: 84816640
I1018 17:15:58.424036  3632 layer_factory.hpp:77] Creating layer conv4
I1018 17:15:58.424042  3632 net.cpp:100] Creating Layer conv4
I1018 17:15:58.424046  3632 net.cpp:434] conv4 <- drop1
I1018 17:15:58.424049  3632 net.cpp:408] conv4 -> conv4
I1018 17:15:58.425943  3632 net.cpp:150] Setting up conv4
I1018 17:15:58.425954  3632 net.cpp:157] Top shape: 64 192 9 9 (995328)
I1018 17:15:58.425957  3632 net.cpp:165] Memory required for data: 88797952
I1018 17:15:58.425961  3632 layer_factory.hpp:77] Creating layer elu4
I1018 17:15:58.425966  3632 net.cpp:100] Creating Layer elu4
I1018 17:15:58.425967  3632 net.cpp:434] elu4 <- conv4
I1018 17:15:58.425971  3632 net.cpp:395] elu4 -> conv4 (in-place)
I1018 17:15:58.425976  3632 net.cpp:150] Setting up elu4
I1018 17:15:58.425979  3632 net.cpp:157] Top shape: 64 192 9 9 (995328)
I1018 17:15:58.425981  3632 net.cpp:165] Memory required for data: 92779264
I1018 17:15:58.425984  3632 layer_factory.hpp:77] Creating layer conv5
I1018 17:15:58.425990  3632 net.cpp:100] Creating Layer conv5
I1018 17:15:58.425992  3632 net.cpp:434] conv5 <- conv4
I1018 17:15:58.425997  3632 net.cpp:408] conv5 -> conv5
I1018 17:15:58.428627  3632 net.cpp:150] Setting up conv5
I1018 17:15:58.428637  3632 net.cpp:157] Top shape: 64 192 7 7 (602112)
I1018 17:15:58.428639  3632 net.cpp:165] Memory required for data: 95187712
I1018 17:15:58.428644  3632 layer_factory.hpp:77] Creating layer bn2
I1018 17:15:58.428650  3632 net.cpp:100] Creating Layer bn2
I1018 17:15:58.428653  3632 net.cpp:434] bn2 <- conv5
I1018 17:15:58.428656  3632 net.cpp:408] bn2 -> bn2
I1018 17:15:58.428810  3632 net.cpp:150] Setting up bn2
I1018 17:15:58.428817  3632 net.cpp:157] Top shape: 64 192 7 7 (602112)
I1018 17:15:58.428818  3632 net.cpp:165] Memory required for data: 97596160
I1018 17:15:58.428822  3632 layer_factory.hpp:77] Creating layer elu5
I1018 17:15:58.428827  3632 net.cpp:100] Creating Layer elu5
I1018 17:15:58.428828  3632 net.cpp:434] elu5 <- bn2
I1018 17:15:58.428831  3632 net.cpp:395] elu5 -> bn2 (in-place)
I1018 17:15:58.428835  3632 net.cpp:150] Setting up elu5
I1018 17:15:58.428838  3632 net.cpp:157] Top shape: 64 192 7 7 (602112)
I1018 17:15:58.428840  3632 net.cpp:165] Memory required for data: 100004608
I1018 17:15:58.428843  3632 layer_factory.hpp:77] Creating layer conv6
I1018 17:15:58.428849  3632 net.cpp:100] Creating Layer conv6
I1018 17:15:58.428851  3632 net.cpp:434] conv6 <- bn2
I1018 17:15:58.428855  3632 net.cpp:408] conv6 -> conv6
I1018 17:15:58.431785  3632 net.cpp:150] Setting up conv6
I1018 17:15:58.431804  3632 net.cpp:157] Top shape: 64 192 3 3 (110592)
I1018 17:15:58.431821  3632 net.cpp:165] Memory required for data: 100446976
I1018 17:15:58.431833  3632 layer_factory.hpp:77] Creating layer drop4
I1018 17:15:58.431843  3632 net.cpp:100] Creating Layer drop4
I1018 17:15:58.431844  3632 net.cpp:434] drop4 <- conv6
I1018 17:15:58.431849  3632 net.cpp:408] drop4 -> drop4
I1018 17:15:58.431882  3632 net.cpp:150] Setting up drop4
I1018 17:15:58.431888  3632 net.cpp:157] Top shape: 64 192 3 3 (110592)
I1018 17:15:58.431890  3632 net.cpp:165] Memory required for data: 100889344
I1018 17:15:58.431892  3632 layer_factory.hpp:77] Creating layer elu6
I1018 17:15:58.431896  3632 net.cpp:100] Creating Layer elu6
I1018 17:15:58.431898  3632 net.cpp:434] elu6 <- drop4
I1018 17:15:58.431903  3632 net.cpp:395] elu6 -> drop4 (in-place)
I1018 17:15:58.431906  3632 net.cpp:150] Setting up elu6
I1018 17:15:58.431910  3632 net.cpp:157] Top shape: 64 192 3 3 (110592)
I1018 17:15:58.431912  3632 net.cpp:165] Memory required for data: 101331712
I1018 17:15:58.431915  3632 layer_factory.hpp:77] Creating layer conv7
I1018 17:15:58.431921  3632 net.cpp:100] Creating Layer conv7
I1018 17:15:58.431922  3632 net.cpp:434] conv7 <- drop4
I1018 17:15:58.431926  3632 net.cpp:408] conv7 -> conv7
I1018 17:15:58.435178  3632 net.cpp:150] Setting up conv7
I1018 17:15:58.435192  3632 net.cpp:157] Top shape: 64 192 1 1 (12288)
I1018 17:15:58.435195  3632 net.cpp:165] Memory required for data: 101380864
I1018 17:15:58.435201  3632 layer_factory.hpp:77] Creating layer elu7
I1018 17:15:58.435206  3632 net.cpp:100] Creating Layer elu7
I1018 17:15:58.435210  3632 net.cpp:434] elu7 <- conv7
I1018 17:15:58.435216  3632 net.cpp:395] elu7 -> conv7 (in-place)
I1018 17:15:58.435223  3632 net.cpp:150] Setting up elu7
I1018 17:15:58.435226  3632 net.cpp:157] Top shape: 64 192 1 1 (12288)
I1018 17:15:58.435230  3632 net.cpp:165] Memory required for data: 101430016
I1018 17:15:58.435232  3632 layer_factory.hpp:77] Creating layer conv8
I1018 17:15:58.435238  3632 net.cpp:100] Creating Layer conv8
I1018 17:15:58.435241  3632 net.cpp:434] conv8 <- conv7
I1018 17:15:58.435247  3632 net.cpp:408] conv8 -> conv8
I1018 17:15:58.436254  3632 net.cpp:150] Setting up conv8
I1018 17:15:58.436264  3632 net.cpp:157] Top shape: 64 192 1 1 (12288)
I1018 17:15:58.436267  3632 net.cpp:165] Memory required for data: 101479168
I1018 17:15:58.436271  3632 layer_factory.hpp:77] Creating layer elu8
I1018 17:15:58.436277  3632 net.cpp:100] Creating Layer elu8
I1018 17:15:58.436280  3632 net.cpp:434] elu8 <- conv8
I1018 17:15:58.436283  3632 net.cpp:395] elu8 -> conv8 (in-place)
I1018 17:15:58.436290  3632 net.cpp:150] Setting up elu8
I1018 17:15:58.436293  3632 net.cpp:157] Top shape: 64 192 1 1 (12288)
I1018 17:15:58.436296  3632 net.cpp:165] Memory required for data: 101528320
I1018 17:15:58.436298  3632 layer_factory.hpp:77] Creating layer conv9
I1018 17:15:58.436305  3632 net.cpp:100] Creating Layer conv9
I1018 17:15:58.436308  3632 net.cpp:434] conv9 <- conv8
I1018 17:15:58.436312  3632 net.cpp:408] conv9 -> conv9
I1018 17:15:58.437398  3632 net.cpp:150] Setting up conv9
I1018 17:15:58.437407  3632 net.cpp:157] Top shape: 64 10 1 1 (640)
I1018 17:15:58.437410  3632 net.cpp:165] Memory required for data: 101530880
I1018 17:15:58.437415  3632 layer_factory.hpp:77] Creating layer elu9
I1018 17:15:58.437419  3632 net.cpp:100] Creating Layer elu9
I1018 17:15:58.437422  3632 net.cpp:434] elu9 <- conv9
I1018 17:15:58.437427  3632 net.cpp:395] elu9 -> conv9 (in-place)
I1018 17:15:58.437430  3632 net.cpp:150] Setting up elu9
I1018 17:15:58.437433  3632 net.cpp:157] Top shape: 64 10 1 1 (640)
I1018 17:15:58.437435  3632 net.cpp:165] Memory required for data: 101533440
I1018 17:15:58.437438  3632 layer_factory.hpp:77] Creating layer pool
I1018 17:15:58.437443  3632 net.cpp:100] Creating Layer pool
I1018 17:15:58.437445  3632 net.cpp:434] pool <- conv9
I1018 17:15:58.437448  3632 net.cpp:408] pool -> pool
I1018 17:15:58.437786  3632 net.cpp:150] Setting up pool
I1018 17:15:58.437795  3632 net.cpp:157] Top shape: 64 10 1 1 (640)
I1018 17:15:58.437808  3632 net.cpp:165] Memory required for data: 101536000
I1018 17:15:58.437810  3632 layer_factory.hpp:77] Creating layer flatten
I1018 17:15:58.437815  3632 net.cpp:100] Creating Layer flatten
I1018 17:15:58.437818  3632 net.cpp:434] flatten <- pool
I1018 17:15:58.437821  3632 net.cpp:408] flatten -> flatten
I1018 17:15:58.437841  3632 net.cpp:150] Setting up flatten
I1018 17:15:58.437847  3632 net.cpp:157] Top shape: 64 10 (640)
I1018 17:15:58.437849  3632 net.cpp:165] Memory required for data: 101538560
I1018 17:15:58.437851  3632 layer_factory.hpp:77] Creating layer score
I1018 17:15:58.437856  3632 net.cpp:100] Creating Layer score
I1018 17:15:58.437860  3632 net.cpp:434] score <- flatten
I1018 17:15:58.437865  3632 net.cpp:408] score -> score
I1018 17:15:58.437958  3632 net.cpp:150] Setting up score
I1018 17:15:58.437963  3632 net.cpp:157] Top shape: 64 10 (640)
I1018 17:15:58.437965  3632 net.cpp:165] Memory required for data: 101541120
I1018 17:15:58.437969  3632 layer_factory.hpp:77] Creating layer score_score_0_split
I1018 17:15:58.437975  3632 net.cpp:100] Creating Layer score_score_0_split
I1018 17:15:58.437978  3632 net.cpp:434] score_score_0_split <- score
I1018 17:15:58.437983  3632 net.cpp:408] score_score_0_split -> score_score_0_split_0
I1018 17:15:58.437988  3632 net.cpp:408] score_score_0_split -> score_score_0_split_1
I1018 17:15:58.438014  3632 net.cpp:150] Setting up score_score_0_split
I1018 17:15:58.438019  3632 net.cpp:157] Top shape: 64 10 (640)
I1018 17:15:58.438021  3632 net.cpp:157] Top shape: 64 10 (640)
I1018 17:15:58.438024  3632 net.cpp:165] Memory required for data: 101546240
I1018 17:15:58.438025  3632 layer_factory.hpp:77] Creating layer accuracy
I1018 17:15:58.438030  3632 net.cpp:100] Creating Layer accuracy
I1018 17:15:58.438031  3632 net.cpp:434] accuracy <- score_score_0_split_0
I1018 17:15:58.438035  3632 net.cpp:434] accuracy <- label_data_1_split_0
I1018 17:15:58.438038  3632 net.cpp:408] accuracy -> accuracy
…
I1018 17:15:58.438416  3632 net.cpp:283] Network initialization done.
I1018 17:15:58.438771  3632 solver.cpp:181] Creating test net (#0) specified by test_net file: /home/adam/Honours/Honours-Project/mnist_allcnn/relu/allcnn_relu_test.prototxt
I1018 17:15:58.438890  3632 net.cpp:58] Initializing net from parameters: 
state {
  phase: TEST
}
layer {
  name: "data"
  type: "Data"
  top: "data"
  top: "label"
  transform_param {
    scale: 0.0039215689
  }
  data_param {
    source: "../../../data/mnist/mnist_train_lmdb"
    batch_size: 100
    backend: LMDB
  }
}
layer {
  name: "conv1"
  type: "Convolution"
  bottom: "data"
  top: "conv1"
  convolution_param {
    num_output: 96
    kernel_size: 3
    weight_filler {
      type: "xavier"
    }
  }
}
layer {
  name: "relu1"
  type: "ReLU"
  bottom: "conv1"
  top: "conv1"
}
layer {
  name: "conv2"
  type: "Convolution"
  bottom: "conv1"
  top: "conv2"
  convolution_param {
    num_output: 96
    kernel_size: 3
    weight_filler {
      type: "xavier"
    }
  }
}
layer {
  name: "bn1"
  type: "BatchNorm"
  bottom: "conv2"
  top: "bn1"
}
layer {
  name: "relu2"
  type: "ReLU"
  bottom: "bn1"
  top: "bn1"
}
layer {
  name: "conv3"
  type: "Convolution"
  bottom: "bn1"
  top: "conv3"
  convolution_param {
    num_output: 96
    kernel_size: 3
    stride: 2
    weight_filler {
      type: "xavier"
    }
  }
}
layer {
  name: "drop1"
  type: "Dropout"
  bottom: "conv3"
  top: "drop1"
  dropout_param {
    dropout_ratio: 0.5
  }
}
layer {
  name: "relu3"
  type: "ReLU"
  bottom: "drop1"
  top: "drop1"
}
layer {
  name: "conv4"
  type: "Convolution"
  bottom: "drop1"
  top: "conv4"
  convolution_param {
    num_output: 192
    kernel_size: 3
    weight_filler {
      type: "xavier"
    }
  }
}
layer {
  name: "relu4"
  type: "ReLU"
  bottom: "conv4"
  top: "conv4"
}
layer {
  name: "conv5"
  type: "Convolution"
  bottom: "conv4"
  top: "conv5"
  convolution_param {
    num_output: 192
    kernel_size: 3
    weight_filler {
      type: "xavier"
    }
  }
}
layer {
  name: "bn2"
  type: "BatchNorm"
  bottom: "conv5"
  top: "bn2"
}
layer {
  name: "relu5"
  type: "ReLU"
  bottom: "bn2"
  top: "bn2"
}
layer {
  name: "conv6"
  type: "Convolution"
  bottom: "bn2"
  top: "conv6"
  convolution_param {
    num_output: 192
    kernel_size: 3
    stride: 2
    weight_filler {
      type: "xavier"
    }
  }
}
layer {
  name: "drop4"
  type: "Dropout"
  bottom: "conv6"
  top: "drop4"
  dropout_param {
    dropout_ratio: 0.5
  }
}
layer {
  name: "relu6"
  type: "ReLU"
  bottom: "drop4"
  top: "drop4"
}
layer {
  name: "conv7"
  type: "Convolution"
  bottom: "drop4"
  top: "conv7"
  convolution_param {
    num_output: 192
    kernel_size: 3
    weight_filler {
      type: "xavier"
    }
  }
}
layer {
  name: "relu7"
  type: "ReLU"
  bottom: "conv7"
  top: "conv7"
}
layer {
  name: "conv8"
  type: "Convolution"
  bottom: "conv7"
  top: "conv8"
  convolution_param {
    num_output: 192
    kernel_size: 1
    weight_filler {
      type: "xavier"
    }
  }
}
layer {
  name: "relu8"
  type: "ReLU"
  bottom: "conv8"
  top: "conv8"
}
layer {
  name: "conv9"
  type: "Convolution"
  bottom: "conv8"
  top: "conv9"
  convolution_param {
    num_output: 10
    kernel_size: 1
    weight_filler {
      type: "xavier"
    }
  }
}
layer {
  name: "relu9"
  type: "ReLU"
  bottom: "conv9"
  top: "conv9"
}
layer {
  name: "pool"
  type: "Pooling"
  bottom: "conv9"
  top: "pool"
  pooling_param {
    pool: AVE
    global_pooling: true
  }
}
layer {
  name: "flatten"
  type: "Flatten"
  bottom: "pool"
  top: "flatten"
}
layer {
  name: "score"
  type: "InnerProduct"
  bottom: "flatten"
  top: "score"
  inner_product_param {
    num_output: 10
    weight_filler {
      type: "gaussian"
    }
  }
}
layer {
  name: "accuracy"
  type: "Accuracy"
  bottom: "score"
  bottom: "label"
  top: "accuracy"
}
layer {
  name: "loss"
  type: "SoftmaxWithLoss"
  bottom: "score"
  bottom: "label"
  top: "loss"
}
I1018 17:15:58.438973  3632 layer_factory.hpp:77] Creating layer data
I1018 17:15:58.439039  3632 net.cpp:100] Creating Layer data
I1018 17:15:58.439043  3632 net.cpp:408] data -> data
I1018 17:15:58.439050  3632 net.cpp:408] data -> label
