…
  stage: ""
}
type: "RMSProp"
I1011 14:35:19.956501  5256 solver.cpp:81] Creating training net from train_net file: /home/adam/Honours/Honours-Project/cifar-10_allcnn/elu/allcnn_elu_train.prototxt
I1011 14:35:19.956807  5256 net.cpp:58] Initializing net from parameters: 
state {
  phase: TRAIN
  level: 0
  stage: ""
}
layer {
  name: "data"
  type: "Data"
  top: "data"
  top: "label"
  transform_param {
    mean_file: "mean.binaryproto"
  }
  data_param {
    source: "../../../data/cifar-10/cifar10_train_lmdb"
    batch_size: 64
    backend: LMDB
  }
}
layer {
  name: "conv1"
  type: "Convolution"
  bottom: "data"
  top: "conv1"
  convolution_param {
    num_output: 96
    kernel_size: 3
    weight_filler {
      type: "xavier"
    }
  }
}
layer {
  name: "elu1"
  type: "ELU"
  bottom: "conv1"
  top: "conv1"
}
layer {
  name: "conv2"
  type: "Convolution"
  bottom: "conv1"
  top: "conv2"
  convolution_param {
    num_output: 96
    kernel_size: 3
    weight_filler {
      type: "xavier"
    }
  }
}
layer {
  name: "bn1"
  type: "BatchNorm"
  bottom: "conv2"
  top: "bn1"
}
layer {
  name: "elu2"
  type: "ELU"
  bottom: "bn1"
  top: "bn1"
}
layer {
  name: "drop1"
  type: "Dropout"
  bottom: "bn1"
  top: "drop1"
  dropout_param {
    dropout_ratio: 0.5
  }
}
layer {
  name: "conv3"
  type: "Convolution"
  bottom: "drop1"
  top: "conv3"
  convolution_param {
    num_output: 96
    kernel_size: 3
    stride: 2
    weight_filler {
      type: "xavier"
    }
  }
}
layer {
  name: "elu3"
  type: "ELU"
  bottom: "conv3"
  top: "conv3"
}
layer {
  name: "conv4"
  type: "Convolution"
  bottom: "conv3"
  top: "conv4"
  convolution_param {
    num_output: 192
    kernel_size: 3
    weight_filler {
      type: "xavier"
    }
  }
}
layer {
  name: "elu4"
  type: "ELU"
  bottom: "conv4"
  top: "conv4"
}
layer {
  name: "conv5"
  type: "Convolution"
  bottom: "conv4"
  top: "conv5"
  convolution_param {
    num_output: 192
    kernel_size: 3
    weight_filler {
      type: "xavier"
    }
  }
}
layer {
  name: "bn2"
  type: "BatchNorm"
  bottom: "conv5"
  top: "bn2"
}
layer {
  name: "elu5"
  type: "ELU"
  bottom: "bn2"
  top: "bn2"
}
layer {
  name: "drop4"
  type: "Dropout"
  bottom: "bn2"
  top: "drop4"
  dropout_param {
    dropout_ratio: 0.5
  }
}
layer {
  name: "conv6"
  type: "Convolution"
  bottom: "drop4"
  top: "conv6"
  convolution_param {
    num_output: 192
    kernel_size: 3
    stride: 2
    weight_filler {
      type: "xavier"
    }
  }
}
layer {
  name: "elu6"
  type: "ELU"
  bottom: "conv6"
  top: "conv6"
}
layer {
  name: "conv7"
  type: "Convolution"
  bottom: "conv6"
  top: "conv7"
  convolution_param {
    num_output: 192
    kernel_size: 3
    weight_filler {
      type: "xavier"
    }
  }
}
layer {
  name: "elu7"
  type: "ELU"
  bottom: "conv7"
  top: "conv7"
}
layer {
  name: "conv8"
  type: "Convolution"
  bottom: "conv7"
  top: "conv8"
  convolution_param {
    num_output: 192
    kernel_size: 1
    weight_filler {
      type: "xavier"
    }
  }
}
layer {
  name: "elu8"
  type: "ELU"
  bottom: "conv8"
  top: "conv8"
}
layer {
  name: "conv9"
  type: "Convolution"
  bottom: "conv8"
  top: "conv9"
  convolution_param {
    num_output: 10
    kernel_size: 1
    weight_filler {
      type: "xavier"
    }
  }
}
layer {
  name: "elu9"
  type: "ELU"
  bottom: "conv9"
  top: "conv9"
}
layer {
  name: "pool"
  type: "Pooling"
  bottom: "conv9"
  top: "pool"
  pooling_param {
    pool: AVE
    global_pooling: true
  }
}
layer {
  name: "flatten"
  type: "Flatten"
  bottom: "pool"
  top: "flatten"
}
layer {
  name: "score"
  type: "InnerProduct"
  bottom: "flatten"
  top: "score"
  inner_product_param {
    num_output: 10
    weight_filler {
      type: "gaussian"
    }
  }
}
layer {
  name: "accuracy"
  type: "Accuracy"
  bottom: "score"
  bottom: "label"
  top: "accuracy"
}
layer {
  name: "loss"
  type: "SoftmaxWithLoss"
  bottom: "score"
  bottom: "label"
  top: "loss"
}
I1011 14:35:19.956962  5256 layer_factory.hpp:77] Creating layer data
I1011 14:35:19.957403  5256 net.cpp:100] Creating Layer data
I1011 14:35:19.957412  5256 net.cpp:408] data -> data
I1011 14:35:19.957442  5256 net.cpp:408] data -> label
I1011 14:35:19.957465  5256 data_transformer.cpp:25] Loading mean file from: mean.binaryproto
I1011 14:35:19.958078  5261 db_lmdb.cpp:35] Opened lmdb ../../../data/cifar-10/cifar10_train_lmdb
I1011 14:35:19.964387  5256 data_layer.cpp:41] output data size: 64,3,32,32
I1011 14:35:19.965984  5256 net.cpp:150] Setting up data
I1011 14:35:19.966001  5256 net.cpp:157] Top shape: 64 3 32 32 (196608)
I1011 14:35:19.966004  5256 net.cpp:157] Top shape: 64 (64)
I1011 14:35:19.966006  5256 net.cpp:165] Memory required for data: 786688
I1011 14:35:19.966027  5256 layer_factory.hpp:77] Creating layer label_data_1_split
I1011 14:35:19.966049  5256 net.cpp:100] Creating Layer label_data_1_split
I1011 14:35:19.966053  5256 net.cpp:434] label_data_1_split <- label
I1011 14:35:19.966078  5256 net.cpp:408] label_data_1_split -> label_data_1_split_0
I1011 14:35:19.966099  5256 net.cpp:408] label_data_1_split -> label_data_1_split_1
I1011 14:35:19.966181  5256 net.cpp:150] Setting up label_data_1_split
I1011 14:35:19.966186  5256 net.cpp:157] Top shape: 64 (64)
I1011 14:35:19.966188  5256 net.cpp:157] Top shape: 64 (64)
I1011 14:35:19.966189  5256 net.cpp:165] Memory required for data: 787200
I1011 14:35:19.966192  5256 layer_factory.hpp:77] Creating layer conv1
I1011 14:35:19.966226  5256 net.cpp:100] Creating Layer conv1
I1011 14:35:19.966228  5256 net.cpp:434] conv1 <- data
I1011 14:35:19.966233  5256 net.cpp:408] conv1 -> conv1
I1011 14:35:20.100921  5256 net.cpp:150] Setting up conv1
I1011 14:35:20.100945  5256 net.cpp:157] Top shape: 64 96 30 30 (5529600)
I1011 14:35:20.100949  5256 net.cpp:165] Memory required for data: 22905600
I1011 14:35:20.100965  5256 layer_factory.hpp:77] Creating layer elu1
I1011 14:35:20.100972  5256 net.cpp:100] Creating Layer elu1
I1011 14:35:20.100975  5256 net.cpp:434] elu1 <- conv1
I1011 14:35:20.100980  5256 net.cpp:395] elu1 -> conv1 (in-place)
I1011 14:35:20.100986  5256 net.cpp:150] Setting up elu1
I1011 14:35:20.100988  5256 net.cpp:157] Top shape: 64 96 30 30 (5529600)
I1011 14:35:20.100991  5256 net.cpp:165] Memory required for data: 45024000
I1011 14:35:20.100992  5256 layer_factory.hpp:77] Creating layer conv2
I1011 14:35:20.101016  5256 net.cpp:100] Creating Layer conv2
I1011 14:35:20.101032  5256 net.cpp:434] conv2 <- conv1
I1011 14:35:20.101034  5256 net.cpp:408] conv2 -> conv2
I1011 14:35:20.102335  5256 net.cpp:150] Setting up conv2
I1011 14:35:20.102346  5256 net.cpp:157] Top shape: 64 96 28 28 (4816896)
I1011 14:35:20.102349  5256 net.cpp:165] Memory required for data: 64291584
I1011 14:35:20.102355  5256 layer_factory.hpp:77] Creating layer bn1
I1011 14:35:20.102360  5256 net.cpp:100] Creating Layer bn1
I1011 14:35:20.102361  5256 net.cpp:434] bn1 <- conv2
I1011 14:35:20.102365  5256 net.cpp:408] bn1 -> bn1
I1011 14:35:20.102546  5256 net.cpp:150] Setting up bn1
I1011 14:35:20.102552  5256 net.cpp:157] Top shape: 64 96 28 28 (4816896)
I1011 14:35:20.102553  5256 net.cpp:165] Memory required for data: 83559168
I1011 14:35:20.102560  5256 layer_factory.hpp:77] Creating layer elu2
I1011 14:35:20.102565  5256 net.cpp:100] Creating Layer elu2
I1011 14:35:20.102566  5256 net.cpp:434] elu2 <- bn1
I1011 14:35:20.102569  5256 net.cpp:395] elu2 -> bn1 (in-place)
I1011 14:35:20.102573  5256 net.cpp:150] Setting up elu2
I1011 14:35:20.102576  5256 net.cpp:157] Top shape: 64 96 28 28 (4816896)
I1011 14:35:20.102577  5256 net.cpp:165] Memory required for data: 102826752
I1011 14:35:20.102589  5256 layer_factory.hpp:77] Creating layer drop1
I1011 14:35:20.102608  5256 net.cpp:100] Creating Layer drop1
I1011 14:35:20.102612  5256 net.cpp:434] drop1 <- bn1
I1011 14:35:20.102617  5256 net.cpp:408] drop1 -> drop1
I1011 14:35:20.102672  5256 net.cpp:150] Setting up drop1
I1011 14:35:20.102694  5256 net.cpp:157] Top shape: 64 96 28 28 (4816896)
I1011 14:35:20.102695  5256 net.cpp:165] Memory required for data: 122094336
I1011 14:35:20.102697  5256 layer_factory.hpp:77] Creating layer conv3
I1011 14:35:20.102716  5256 net.cpp:100] Creating Layer conv3
I1011 14:35:20.102718  5256 net.cpp:434] conv3 <- drop1
I1011 14:35:20.102722  5256 net.cpp:408] conv3 -> conv3
I1011 14:35:20.103920  5256 net.cpp:150] Setting up conv3
I1011 14:35:20.103930  5256 net.cpp:157] Top shape: 64 96 13 13 (1038336)
I1011 14:35:20.103932  5256 net.cpp:165] Memory required for data: 126247680
I1011 14:35:20.103938  5256 layer_factory.hpp:77] Creating layer elu3
I1011 14:35:20.103942  5256 net.cpp:100] Creating Layer elu3
I1011 14:35:20.103945  5256 net.cpp:434] elu3 <- conv3
I1011 14:35:20.103948  5256 net.cpp:395] elu3 -> conv3 (in-place)
I1011 14:35:20.103952  5256 net.cpp:150] Setting up elu3
I1011 14:35:20.103955  5256 net.cpp:157] Top shape: 64 96 13 13 (1038336)
I1011 14:35:20.103956  5256 net.cpp:165] Memory required for data: 130401024
I1011 14:35:20.103960  5256 layer_factory.hpp:77] Creating layer conv4
I1011 14:35:20.103965  5256 net.cpp:100] Creating Layer conv4
I1011 14:35:20.103966  5256 net.cpp:434] conv4 <- conv3
I1011 14:35:20.103970  5256 net.cpp:408] conv4 -> conv4
I1011 14:35:20.105806  5256 net.cpp:150] Setting up conv4
I1011 14:35:20.105816  5256 net.cpp:157] Top shape: 64 192 11 11 (1486848)
I1011 14:35:20.105818  5256 net.cpp:165] Memory required for data: 136348416
I1011 14:35:20.105823  5256 layer_factory.hpp:77] Creating layer elu4
I1011 14:35:20.105828  5256 net.cpp:100] Creating Layer elu4
I1011 14:35:20.105829  5256 net.cpp:434] elu4 <- conv4
I1011 14:35:20.105834  5256 net.cpp:395] elu4 -> conv4 (in-place)
I1011 14:35:20.105837  5256 net.cpp:150] Setting up elu4
I1011 14:35:20.105840  5256 net.cpp:157] Top shape: 64 192 11 11 (1486848)
I1011 14:35:20.105841  5256 net.cpp:165] Memory required for data: 142295808
I1011 14:35:20.105844  5256 layer_factory.hpp:77] Creating layer conv5
I1011 14:35:20.105849  5256 net.cpp:100] Creating Layer conv5
I1011 14:35:20.105851  5256 net.cpp:434] conv5 <- conv4
I1011 14:35:20.105854  5256 net.cpp:408] conv5 -> conv5
I1011 14:35:20.108376  5256 net.cpp:150] Setting up conv5
I1011 14:35:20.108386  5256 net.cpp:157] Top shape: 64 192 9 9 (995328)
I1011 14:35:20.108388  5256 net.cpp:165] Memory required for data: 146277120
I1011 14:35:20.108392  5256 layer_factory.hpp:77] Creating layer bn2
I1011 14:35:20.108397  5256 net.cpp:100] Creating Layer bn2
I1011 14:35:20.108399  5256 net.cpp:434] bn2 <- conv5
I1011 14:35:20.108403  5256 net.cpp:408] bn2 -> bn2
I1011 14:35:20.108580  5256 net.cpp:150] Setting up bn2
I1011 14:35:20.108587  5256 net.cpp:157] Top shape: 64 192 9 9 (995328)
I1011 14:35:20.108588  5256 net.cpp:165] Memory required for data: 150258432
I1011 14:35:20.108593  5256 layer_factory.hpp:77] Creating layer elu5
I1011 14:35:20.108597  5256 net.cpp:100] Creating Layer elu5
I1011 14:35:20.108598  5256 net.cpp:434] elu5 <- bn2
I1011 14:35:20.108600  5256 net.cpp:395] elu5 -> bn2 (in-place)
I1011 14:35:20.108604  5256 net.cpp:150] Setting up elu5
I1011 14:35:20.108606  5256 net.cpp:157] Top shape: 64 192 9 9 (995328)
I1011 14:35:20.108608  5256 net.cpp:165] Memory required for data: 154239744
I1011 14:35:20.108610  5256 layer_factory.hpp:77] Creating layer drop4
I1011 14:35:20.108613  5256 net.cpp:100] Creating Layer drop4
I1011 14:35:20.108615  5256 net.cpp:434] drop4 <- bn2
I1011 14:35:20.108618  5256 net.cpp:408] drop4 -> drop4
I1011 14:35:20.108659  5256 net.cpp:150] Setting up drop4
I1011 14:35:20.108676  5256 net.cpp:157] Top shape: 64 192 9 9 (995328)
I1011 14:35:20.108678  5256 net.cpp:165] Memory required for data: 158221056
I1011 14:35:20.108701  5256 layer_factory.hpp:77] Creating layer conv6
I1011 14:35:20.108724  5256 net.cpp:100] Creating Layer conv6
I1011 14:35:20.108726  5256 net.cpp:434] conv6 <- drop4
I1011 14:35:20.108731  5256 net.cpp:408] conv6 -> conv6
I1011 14:35:20.111259  5256 net.cpp:150] Setting up conv6
I1011 14:35:20.111269  5256 net.cpp:157] Top shape: 64 192 4 4 (196608)
I1011 14:35:20.111271  5256 net.cpp:165] Memory required for data: 159007488
I1011 14:35:20.111279  5256 layer_factory.hpp:77] Creating layer elu6
I1011 14:35:20.111284  5256 net.cpp:100] Creating Layer elu6
I1011 14:35:20.111285  5256 net.cpp:434] elu6 <- conv6
I1011 14:35:20.111289  5256 net.cpp:395] elu6 -> conv6 (in-place)
I1011 14:35:20.111294  5256 net.cpp:150] Setting up elu6
I1011 14:35:20.111296  5256 net.cpp:157] Top shape: 64 192 4 4 (196608)
I1011 14:35:20.111299  5256 net.cpp:165] Memory required for data: 159793920
I1011 14:35:20.111300  5256 layer_factory.hpp:77] Creating layer conv7
I1011 14:35:20.111305  5256 net.cpp:100] Creating Layer conv7
I1011 14:35:20.111307  5256 net.cpp:434] conv7 <- conv6
I1011 14:35:20.111325  5256 net.cpp:408] conv7 -> conv7
I1011 14:35:20.114270  5256 net.cpp:150] Setting up conv7
I1011 14:35:20.114290  5256 net.cpp:157] Top shape: 64 192 2 2 (49152)
I1011 14:35:20.114292  5256 net.cpp:165] Memory required for data: 159990528
I1011 14:35:20.114298  5256 layer_factory.hpp:77] Creating layer elu7
I1011 14:35:20.114305  5256 net.cpp:100] Creating Layer elu7
I1011 14:35:20.114306  5256 net.cpp:434] elu7 <- conv7
I1011 14:35:20.114310  5256 net.cpp:395] elu7 -> conv7 (in-place)
I1011 14:35:20.114316  5256 net.cpp:150] Setting up elu7
I1011 14:35:20.114320  5256 net.cpp:157] Top shape: 64 192 2 2 (49152)
I1011 14:35:20.114320  5256 net.cpp:165] Memory required for data: 160187136
I1011 14:35:20.114322  5256 layer_factory.hpp:77] Creating layer conv8
I1011 14:35:20.114343  5256 net.cpp:100] Creating Layer conv8
I1011 14:35:20.114346  5256 net.cpp:434] conv8 <- conv7
I1011 14:35:20.114349  5256 net.cpp:408] conv8 -> conv8
I1011 14:35:20.115623  5256 net.cpp:150] Setting up conv8
I1011 14:35:20.115633  5256 net.cpp:157] Top shape: 64 192 2 2 (49152)
I1011 14:35:20.115636  5256 net.cpp:165] Memory required for data: 160383744
I1011 14:35:20.115641  5256 layer_factory.hpp:77] Creating layer elu8
I1011 14:35:20.115660  5256 net.cpp:100] Creating Layer elu8
I1011 14:35:20.115663  5256 net.cpp:434] elu8 <- conv8
I1011 14:35:20.115680  5256 net.cpp:395] elu8 -> conv8 (in-place)
I1011 14:35:20.115684  5256 net.cpp:150] Setting up elu8
I1011 14:35:20.115701  5256 net.cpp:157] Top shape: 64 192 2 2 (49152)
I1011 14:35:20.115703  5256 net.cpp:165] Memory required for data: 160580352
I1011 14:35:20.115705  5256 layer_factory.hpp:77] Creating layer conv9
I1011 14:35:20.115711  5256 net.cpp:100] Creating Layer conv9
I1011 14:35:20.115715  5256 net.cpp:434] conv9 <- conv8
I1011 14:35:20.115717  5256 net.cpp:408] conv9 -> conv9
I1011 14:35:20.116520  5256 net.cpp:150] Setting up conv9
I1011 14:35:20.116529  5256 net.cpp:157] Top shape: 64 10 2 2 (2560)
I1011 14:35:20.116533  5256 net.cpp:165] Memory required for data: 160590592
I1011 14:35:20.116536  5256 layer_factory.hpp:77] Creating layer elu9
I1011 14:35:20.116540  5256 net.cpp:100] Creating Layer elu9
I1011 14:35:20.116542  5256 net.cpp:434] elu9 <- conv9
I1011 14:35:20.116545  5256 net.cpp:395] elu9 -> conv9 (in-place)
I1011 14:35:20.116549  5256 net.cpp:150] Setting up elu9
I1011 14:35:20.116552  5256 net.cpp:157] Top shape: 64 10 2 2 (2560)
I1011 14:35:20.116554  5256 net.cpp:165] Memory required for data: 160600832
I1011 14:35:20.116556  5256 layer_factory.hpp:77] Creating layer pool
I1011 14:35:20.116559  5256 net.cpp:100] Creating Layer pool
I1011 14:35:20.116562  5256 net.cpp:434] pool <- conv9
I1011 14:35:20.116580  5256 net.cpp:408] pool -> pool
I1011 14:35:20.116958  5256 net.cpp:150] Setting up pool
I1011 14:35:20.116966  5256 net.cpp:157] Top shape: 64 10 1 1 (640)
I1011 14:35:20.116969  5256 net.cpp:165] Memory required for data: 160603392
I1011 14:35:20.116996  5256 layer_factory.hpp:77] Creating layer flatten
I1011 14:35:20.117000  5256 net.cpp:100] Creating Layer flatten
I1011 14:35:20.117003  5256 net.cpp:434] flatten <- pool
I1011 14:35:20.117007  5256 net.cpp:408] flatten -> flatten
I1011 14:35:20.117055  5256 net.cpp:150] Setting up flatten
I1011 14:35:20.117060  5256 net.cpp:157] Top shape: 64 10 (640)
I1011 14:35:20.117063  5256 net.cpp:165] Memory required for data: 160605952
I1011 14:35:20.117079  5256 layer_factory.hpp:77] Creating layer score
I1011 14:35:20.117082  5256 net.cpp:100] Creating Layer score
I1011 14:35:20.117085  5256 net.cpp:434] score <- flatten
I1011 14:35:20.117089  5256 net.cpp:408] score -> score
I1011 14:35:20.117247  5256 net.cpp:150] Setting up score
I1011 14:35:20.117251  5256 net.cpp:157] Top shape: 64 10 (640)
I1011 14:35:20.117254  5256 net.cpp:165] Memory required for data: 160608512
I1011 14:35:20.117257  5256 layer_factory.hpp:77] Creating layer score_score_0_split
I1011 14:35:20.117262  5256 net.cpp:100] Creating Layer score_score_0_split
I1011 14:35:20.117280  5256 net.cpp:434] score_score_0_split <- score
I1011 14:35:20.117283  5256 net.cpp:408] score_score_0_split -> score_score_0_split_0
I1011 14:35:20.117288  5256 net.cpp:408] score_score_0_split -> score_score_0_split_1
I1011 14:35:20.117344  5256 net.cpp:150] Setting up score_score_0_split
I1011 14:35:20.117363  5256 net.cpp:157] Top shape: 64 10 (640)
I1011 14:35:20.117367  5256 net.cpp:157] Top shape: 64 10 (640)
I1011 14:35:20.117367  5256 net.cpp:165] Memory required for data: 160613632
I1011 14:35:20.117369  5256 layer_factory.hpp:77] Creating layer accuracy
I1011 14:35:20.117388  5256 net.cpp:100] Creating Layer accuracy
I1011 14:35:20.117390  5256 net.cpp:434] accuracy <- score_score_0_split_0
I1011 14:35:20.117393  5256 net.cpp:434] accuracy <- label_data_1_split_0
I1011 14:35:20.117401  5256 net.cpp:408] accuracy -> accuracy
…
