…
  stage: ""
}
type: "AdaDelta"
I1010 15:10:09.322903  4482 solver.cpp:81] Creating training net from train_net file: /home/adam/Honours/Honours-Project/cifar-10_allcnn/relu/allcnn_relu_train.prototxt
I1010 15:10:09.323220  4482 net.cpp:58] Initializing net from parameters: 
state {
  phase: TRAIN
  level: 0
  stage: ""
}
layer {
  name: "data"
  type: "Data"
  top: "data"
  top: "label"
  transform_param {
    mean_file: "mean.binaryproto"
  }
  data_param {
    source: "../../../data/cifar-10/cifar10_train_lmdb"
    batch_size: 64
    backend: LMDB
  }
}
layer {
  name: "conv1"
  type: "Convolution"
  bottom: "data"
  top: "conv1"
  convolution_param {
    num_output: 96
    kernel_size: 3
    weight_filler {
      type: "xavier"
    }
  }
}
layer {
  name: "relu1"
  type: "ReLU"
  bottom: "conv1"
  top: "conv1"
}
layer {
  name: "conv2"
  type: "Convolution"
  bottom: "conv1"
  top: "conv2"
  convolution_param {
    num_output: 96
    kernel_size: 3
    weight_filler {
      type: "xavier"
    }
  }
}
layer {
  name: "bn1"
  type: "BatchNorm"
  bottom: "conv2"
  top: "bn1"
}
layer {
  name: "relu2"
  type: "ReLU"
  bottom: "bn1"
  top: "bn1"
}
layer {
  name: "drop1"
  type: "Dropout"
  bottom: "bn1"
  top: "drop1"
  dropout_param {
    dropout_ratio: 0.5
  }
}
layer {
  name: "conv3"
  type: "Convolution"
  bottom: "drop1"
  top: "conv3"
  convolution_param {
    num_output: 96
    kernel_size: 3
    stride: 2
    weight_filler {
      type: "xavier"
    }
  }
}
layer {
  name: "relu3"
  type: "ReLU"
  bottom: "conv3"
  top: "conv3"
}
layer {
  name: "conv4"
  type: "Convolution"
  bottom: "conv3"
  top: "conv4"
  convolution_param {
    num_output: 192
    kernel_size: 3
    weight_filler {
      type: "xavier"
    }
  }
}
layer {
  name: "relu4"
  type: "ReLU"
  bottom: "conv4"
  top: "conv4"
}
layer {
  name: "conv5"
  type: "Convolution"
  bottom: "conv4"
  top: "conv5"
  convolution_param {
    num_output: 192
    kernel_size: 3
    weight_filler {
      type: "xavier"
    }
  }
}
layer {
  name: "bn2"
  type: "BatchNorm"
  bottom: "conv5"
  top: "bn2"
}
layer {
  name: "relu5"
  type: "ReLU"
  bottom: "bn2"
  top: "bn2"
}
layer {
  name: "drop4"
  type: "Dropout"
  bottom: "bn2"
  top: "drop4"
  dropout_param {
    dropout_ratio: 0.5
  }
}
layer {
  name: "conv6"
  type: "Convolution"
  bottom: "drop4"
  top: "conv6"
  convolution_param {
    num_output: 192
    kernel_size: 3
    stride: 2
    weight_filler {
      type: "xavier"
    }
  }
}
layer {
  name: "relu6"
  type: "ReLU"
  bottom: "conv6"
  top: "conv6"
}
layer {
  name: "conv7"
  type: "Convolution"
  bottom: "conv6"
  top: "conv7"
  convolution_param {
    num_output: 192
    kernel_size: 3
    weight_filler {
      type: "xavier"
    }
  }
}
layer {
  name: "relu7"
  type: "ReLU"
  bottom: "conv7"
  top: "conv7"
}
layer {
  name: "conv8"
  type: "Convolution"
  bottom: "conv7"
  top: "conv8"
  convolution_param {
    num_output: 192
    kernel_size: 1
    weight_filler {
      type: "xavier"
    }
  }
}
layer {
  name: "relu8"
  type: "ReLU"
  bottom: "conv8"
  top: "conv8"
}
layer {
  name: "conv9"
  type: "Convolution"
  bottom: "conv8"
  top: "conv9"
  convolution_param {
    num_output: 10
    kernel_size: 1
    weight_filler {
      type: "xavier"
    }
  }
}
layer {
  name: "relu9"
  type: "ReLU"
  bottom: "conv9"
  top: "conv9"
}
layer {
  name: "pool"
  type: "Pooling"
  bottom: "conv9"
  top: "pool"
  pooling_param {
    pool: AVE
    global_pooling: true
  }
}
layer {
  name: "flatten"
  type: "Flatten"
  bottom: "pool"
  top: "flatten"
}
layer {
  name: "score"
  type: "InnerProduct"
  bottom: "flatten"
  top: "score"
  inner_product_param {
    num_output: 10
    weight_filler {
      type: "gaussian"
    }
  }
}
layer {
  name: "accuracy"
  type: "Accuracy"
  bottom: "score"
  bottom: "label"
  top: "accuracy"
}
layer {
  name: "loss"
  type: "SoftmaxWithLoss"
  bottom: "score"
  bottom: "label"
  top: "loss"
}
I1010 15:10:09.323393  4482 layer_factory.hpp:77] Creating layer data
I1010 15:10:09.323863  4482 net.cpp:100] Creating Layer data
I1010 15:10:09.323871  4482 net.cpp:408] data -> data
I1010 15:10:09.323887  4482 net.cpp:408] data -> label
I1010 15:10:09.323927  4482 data_transformer.cpp:25] Loading mean file from: mean.binaryproto
I1010 15:10:09.451766  4487 db_lmdb.cpp:35] Opened lmdb ../../../data/cifar-10/cifar10_train_lmdb
I1010 15:10:09.538406  4482 data_layer.cpp:41] output data size: 64,3,32,32
I1010 15:10:09.543088  4482 net.cpp:150] Setting up data
I1010 15:10:09.543143  4482 net.cpp:157] Top shape: 64 3 32 32 (196608)
I1010 15:10:09.543159  4482 net.cpp:157] Top shape: 64 (64)
I1010 15:10:09.543167  4482 net.cpp:165] Memory required for data: 786688
I1010 15:10:09.543189  4482 layer_factory.hpp:77] Creating layer label_data_1_split
I1010 15:10:09.543217  4482 net.cpp:100] Creating Layer label_data_1_split
I1010 15:10:09.543238  4482 net.cpp:434] label_data_1_split <- label
I1010 15:10:09.543268  4482 net.cpp:408] label_data_1_split -> label_data_1_split_0
I1010 15:10:09.543292  4482 net.cpp:408] label_data_1_split -> label_data_1_split_1
I1010 15:10:09.543586  4482 net.cpp:150] Setting up label_data_1_split
I1010 15:10:09.543638  4482 net.cpp:157] Top shape: 64 (64)
I1010 15:10:09.543650  4482 net.cpp:157] Top shape: 64 (64)
I1010 15:10:09.543658  4482 net.cpp:165] Memory required for data: 787200
I1010 15:10:09.543668  4482 layer_factory.hpp:77] Creating layer conv1
I1010 15:10:09.543705  4482 net.cpp:100] Creating Layer conv1
I1010 15:10:09.543720  4482 net.cpp:434] conv1 <- data
I1010 15:10:09.543745  4482 net.cpp:408] conv1 -> conv1
I1010 15:10:10.631124  4482 net.cpp:150] Setting up conv1
I1010 15:10:10.631152  4482 net.cpp:157] Top shape: 64 96 30 30 (5529600)
I1010 15:10:10.631156  4482 net.cpp:165] Memory required for data: 22905600
I1010 15:10:10.631177  4482 layer_factory.hpp:77] Creating layer relu1
I1010 15:10:10.631187  4482 net.cpp:100] Creating Layer relu1
I1010 15:10:10.631191  4482 net.cpp:434] relu1 <- conv1
I1010 15:10:10.631196  4482 net.cpp:395] relu1 -> conv1 (in-place)
I1010 15:10:10.631381  4482 net.cpp:150] Setting up relu1
I1010 15:10:10.631392  4482 net.cpp:157] Top shape: 64 96 30 30 (5529600)
I1010 15:10:10.631394  4482 net.cpp:165] Memory required for data: 45024000
I1010 15:10:10.631397  4482 layer_factory.hpp:77] Creating layer conv2
I1010 15:10:10.631407  4482 net.cpp:100] Creating Layer conv2
I1010 15:10:10.631412  4482 net.cpp:434] conv2 <- conv1
I1010 15:10:10.631415  4482 net.cpp:408] conv2 -> conv2
I1010 15:10:10.643070  4482 net.cpp:150] Setting up conv2
I1010 15:10:10.643102  4482 net.cpp:157] Top shape: 64 96 28 28 (4816896)
I1010 15:10:10.643110  4482 net.cpp:165] Memory required for data: 64291584
I1010 15:10:10.643129  4482 layer_factory.hpp:77] Creating layer bn1
I1010 15:10:10.643142  4482 net.cpp:100] Creating Layer bn1
I1010 15:10:10.643149  4482 net.cpp:434] bn1 <- conv2
I1010 15:10:10.643159  4482 net.cpp:408] bn1 -> bn1
I1010 15:10:10.643605  4482 net.cpp:150] Setting up bn1
I1010 15:10:10.643621  4482 net.cpp:157] Top shape: 64 96 28 28 (4816896)
I1010 15:10:10.643626  4482 net.cpp:165] Memory required for data: 83559168
I1010 15:10:10.643645  4482 layer_factory.hpp:77] Creating layer relu2
I1010 15:10:10.643654  4482 net.cpp:100] Creating Layer relu2
I1010 15:10:10.643661  4482 net.cpp:434] relu2 <- bn1
I1010 15:10:10.643669  4482 net.cpp:395] relu2 -> bn1 (in-place)
I1010 15:10:10.644027  4482 net.cpp:150] Setting up relu2
I1010 15:10:10.644043  4482 net.cpp:157] Top shape: 64 96 28 28 (4816896)
I1010 15:10:10.644074  4482 net.cpp:165] Memory required for data: 102826752
I1010 15:10:10.644083  4482 layer_factory.hpp:77] Creating layer drop1
I1010 15:10:10.644093  4482 net.cpp:100] Creating Layer drop1
I1010 15:10:10.644099  4482 net.cpp:434] drop1 <- bn1
I1010 15:10:10.644109  4482 net.cpp:408] drop1 -> drop1
I1010 15:10:10.644186  4482 net.cpp:150] Setting up drop1
I1010 15:10:10.644199  4482 net.cpp:157] Top shape: 64 96 28 28 (4816896)
I1010 15:10:10.644204  4482 net.cpp:165] Memory required for data: 122094336
I1010 15:10:10.644209  4482 layer_factory.hpp:77] Creating layer conv3
I1010 15:10:10.644227  4482 net.cpp:100] Creating Layer conv3
I1010 15:10:10.644234  4482 net.cpp:434] conv3 <- drop1
I1010 15:10:10.644243  4482 net.cpp:408] conv3 -> conv3
I1010 15:10:10.647203  4482 net.cpp:150] Setting up conv3
I1010 15:10:10.647230  4482 net.cpp:157] Top shape: 64 96 13 13 (1038336)
I1010 15:10:10.647236  4482 net.cpp:165] Memory required for data: 126247680
I1010 15:10:10.647255  4482 layer_factory.hpp:77] Creating layer relu3
I1010 15:10:10.647267  4482 net.cpp:100] Creating Layer relu3
I1010 15:10:10.647274  4482 net.cpp:434] relu3 <- conv3
I1010 15:10:10.647282  4482 net.cpp:395] relu3 -> conv3 (in-place)
I1010 15:10:10.647794  4482 net.cpp:150] Setting up relu3
I1010 15:10:10.647814  4482 net.cpp:157] Top shape: 64 96 13 13 (1038336)
I1010 15:10:10.647820  4482 net.cpp:165] Memory required for data: 130401024
I1010 15:10:10.647826  4482 layer_factory.hpp:77] Creating layer conv4
I1010 15:10:10.647841  4482 net.cpp:100] Creating Layer conv4
I1010 15:10:10.647848  4482 net.cpp:434] conv4 <- conv3
I1010 15:10:10.647857  4482 net.cpp:408] conv4 -> conv4
I1010 15:10:10.652137  4482 net.cpp:150] Setting up conv4
I1010 15:10:10.652158  4482 net.cpp:157] Top shape: 64 192 11 11 (1486848)
I1010 15:10:10.652163  4482 net.cpp:165] Memory required for data: 136348416
I1010 15:10:10.652173  4482 layer_factory.hpp:77] Creating layer relu4
I1010 15:10:10.652180  4482 net.cpp:100] Creating Layer relu4
I1010 15:10:10.652184  4482 net.cpp:434] relu4 <- conv4
I1010 15:10:10.652191  4482 net.cpp:395] relu4 -> conv4 (in-place)
I1010 15:10:10.652444  4482 net.cpp:150] Setting up relu4
I1010 15:10:10.652456  4482 net.cpp:157] Top shape: 64 192 11 11 (1486848)
I1010 15:10:10.652461  4482 net.cpp:165] Memory required for data: 142295808
I1010 15:10:10.652464  4482 layer_factory.hpp:77] Creating layer conv5
I1010 15:10:10.652475  4482 net.cpp:100] Creating Layer conv5
I1010 15:10:10.652479  4482 net.cpp:434] conv5 <- conv4
I1010 15:10:10.652485  4482 net.cpp:408] conv5 -> conv5
I1010 15:10:10.657171  4482 net.cpp:150] Setting up conv5
I1010 15:10:10.657187  4482 net.cpp:157] Top shape: 64 192 9 9 (995328)
I1010 15:10:10.657191  4482 net.cpp:165] Memory required for data: 146277120
I1010 15:10:10.657198  4482 layer_factory.hpp:77] Creating layer bn2
I1010 15:10:10.657207  4482 net.cpp:100] Creating Layer bn2
I1010 15:10:10.657209  4482 net.cpp:434] bn2 <- conv5
I1010 15:10:10.657215  4482 net.cpp:408] bn2 -> bn2
I1010 15:10:10.657464  4482 net.cpp:150] Setting up bn2
I1010 15:10:10.657474  4482 net.cpp:157] Top shape: 64 192 9 9 (995328)
I1010 15:10:10.657476  4482 net.cpp:165] Memory required for data: 150258432
I1010 15:10:10.657485  4482 layer_factory.hpp:77] Creating layer relu5
I1010 15:10:10.657490  4482 net.cpp:100] Creating Layer relu5
I1010 15:10:10.657493  4482 net.cpp:434] relu5 <- bn2
I1010 15:10:10.657498  4482 net.cpp:395] relu5 -> bn2 (in-place)
I1010 15:10:10.657708  4482 net.cpp:150] Setting up relu5
I1010 15:10:10.657719  4482 net.cpp:157] Top shape: 64 192 9 9 (995328)
I1010 15:10:10.657722  4482 net.cpp:165] Memory required for data: 154239744
I1010 15:10:10.657726  4482 layer_factory.hpp:77] Creating layer drop4
I1010 15:10:10.657732  4482 net.cpp:100] Creating Layer drop4
I1010 15:10:10.657735  4482 net.cpp:434] drop4 <- bn2
I1010 15:10:10.657740  4482 net.cpp:408] drop4 -> drop4
I1010 15:10:10.657789  4482 net.cpp:150] Setting up drop4
I1010 15:10:10.657796  4482 net.cpp:157] Top shape: 64 192 9 9 (995328)
I1010 15:10:10.657814  4482 net.cpp:165] Memory required for data: 158221056
I1010 15:10:10.657819  4482 layer_factory.hpp:77] Creating layer conv6
I1010 15:10:10.657831  4482 net.cpp:100] Creating Layer conv6
I1010 15:10:10.657836  4482 net.cpp:434] conv6 <- drop4
I1010 15:10:10.657843  4482 net.cpp:408] conv6 -> conv6
I1010 15:10:10.661815  4482 net.cpp:150] Setting up conv6
I1010 15:10:10.661835  4482 net.cpp:157] Top shape: 64 192 4 4 (196608)
I1010 15:10:10.661839  4482 net.cpp:165] Memory required for data: 159007488
I1010 15:10:10.661851  4482 layer_factory.hpp:77] Creating layer relu6
I1010 15:10:10.661859  4482 net.cpp:100] Creating Layer relu6
I1010 15:10:10.661864  4482 net.cpp:434] relu6 <- conv6
I1010 15:10:10.661870  4482 net.cpp:395] relu6 -> conv6 (in-place)
I1010 15:10:10.662153  4482 net.cpp:150] Setting up relu6
I1010 15:10:10.662163  4482 net.cpp:157] Top shape: 64 192 4 4 (196608)
I1010 15:10:10.662166  4482 net.cpp:165] Memory required for data: 159793920
I1010 15:10:10.662169  4482 layer_factory.hpp:77] Creating layer conv7
I1010 15:10:10.662178  4482 net.cpp:100] Creating Layer conv7
I1010 15:10:10.662181  4482 net.cpp:434] conv7 <- conv6
I1010 15:10:10.662186  4482 net.cpp:408] conv7 -> conv7
I1010 15:10:10.665565  4482 net.cpp:150] Setting up conv7
I1010 15:10:10.665580  4482 net.cpp:157] Top shape: 64 192 2 2 (49152)
I1010 15:10:10.665583  4482 net.cpp:165] Memory required for data: 159990528
I1010 15:10:10.665588  4482 layer_factory.hpp:77] Creating layer relu7
I1010 15:10:10.665593  4482 net.cpp:100] Creating Layer relu7
I1010 15:10:10.665596  4482 net.cpp:434] relu7 <- conv7
I1010 15:10:10.665602  4482 net.cpp:395] relu7 -> conv7 (in-place)
I1010 15:10:10.665876  4482 net.cpp:150] Setting up relu7
I1010 15:10:10.665886  4482 net.cpp:157] Top shape: 64 192 2 2 (49152)
I1010 15:10:10.665889  4482 net.cpp:165] Memory required for data: 160187136
I1010 15:10:10.665892  4482 layer_factory.hpp:77] Creating layer conv8
I1010 15:10:10.665900  4482 net.cpp:100] Creating Layer conv8
I1010 15:10:10.665904  4482 net.cpp:434] conv8 <- conv7
I1010 15:10:10.665909  4482 net.cpp:408] conv8 -> conv8
I1010 15:10:10.667322  4482 net.cpp:150] Setting up conv8
I1010 15:10:10.667338  4482 net.cpp:157] Top shape: 64 192 2 2 (49152)
I1010 15:10:10.667341  4482 net.cpp:165] Memory required for data: 160383744
I1010 15:10:10.667346  4482 layer_factory.hpp:77] Creating layer relu8
I1010 15:10:10.667351  4482 net.cpp:100] Creating Layer relu8
I1010 15:10:10.667353  4482 net.cpp:434] relu8 <- conv8
I1010 15:10:10.667358  4482 net.cpp:395] relu8 -> conv8 (in-place)
I1010 15:10:10.667508  4482 net.cpp:150] Setting up relu8
I1010 15:10:10.667516  4482 net.cpp:157] Top shape: 64 192 2 2 (49152)
I1010 15:10:10.667518  4482 net.cpp:165] Memory required for data: 160580352
I1010 15:10:10.667520  4482 layer_factory.hpp:77] Creating layer conv9
I1010 15:10:10.667526  4482 net.cpp:100] Creating Layer conv9
I1010 15:10:10.667529  4482 net.cpp:434] conv9 <- conv8
I1010 15:10:10.667534  4482 net.cpp:408] conv9 -> conv9
I1010 15:10:10.668418  4482 net.cpp:150] Setting up conv9
I1010 15:10:10.668429  4482 net.cpp:157] Top shape: 64 10 2 2 (2560)
I1010 15:10:10.668431  4482 net.cpp:165] Memory required for data: 160590592
I1010 15:10:10.668437  4482 layer_factory.hpp:77] Creating layer relu9
I1010 15:10:10.668442  4482 net.cpp:100] Creating Layer relu9
I1010 15:10:10.668443  4482 net.cpp:434] relu9 <- conv9
I1010 15:10:10.668447  4482 net.cpp:395] relu9 -> conv9 (in-place)
I1010 15:10:10.668685  4482 net.cpp:150] Setting up relu9
I1010 15:10:10.668694  4482 net.cpp:157] Top shape: 64 10 2 2 (2560)
I1010 15:10:10.668697  4482 net.cpp:165] Memory required for data: 160600832
I1010 15:10:10.668699  4482 layer_factory.hpp:77] Creating layer pool
I1010 15:10:10.668704  4482 net.cpp:100] Creating Layer pool
I1010 15:10:10.668707  4482 net.cpp:434] pool <- conv9
I1010 15:10:10.668712  4482 net.cpp:408] pool -> pool
I1010 15:10:10.668887  4482 net.cpp:150] Setting up pool
I1010 15:10:10.668895  4482 net.cpp:157] Top shape: 64 10 1 1 (640)
I1010 15:10:10.668907  4482 net.cpp:165] Memory required for data: 160603392
I1010 15:10:10.668910  4482 layer_factory.hpp:77] Creating layer flatten
I1010 15:10:10.668915  4482 net.cpp:100] Creating Layer flatten
I1010 15:10:10.668918  4482 net.cpp:434] flatten <- pool
I1010 15:10:10.668921  4482 net.cpp:408] flatten -> flatten
I1010 15:10:10.668946  4482 net.cpp:150] Setting up flatten
I1010 15:10:10.668951  4482 net.cpp:157] Top shape: 64 10 (640)
I1010 15:10:10.668952  4482 net.cpp:165] Memory required for data: 160605952
I1010 15:10:10.668954  4482 layer_factory.hpp:77] Creating layer score
I1010 15:10:10.668959  4482 net.cpp:100] Creating Layer score
I1010 15:10:10.668962  4482 net.cpp:434] score <- flatten
I1010 15:10:10.668967  4482 net.cpp:408] score -> score
I1010 15:10:10.669070  4482 net.cpp:150] Setting up score
I1010 15:10:10.669075  4482 net.cpp:157] Top shape: 64 10 (640)
I1010 15:10:10.669077  4482 net.cpp:165] Memory required for data: 160608512
I1010 15:10:10.669082  4482 layer_factory.hpp:77] Creating layer score_score_0_split
I1010 15:10:10.669086  4482 net.cpp:100] Creating Layer score_score_0_split
I1010 15:10:10.669088  4482 net.cpp:434] score_score_0_split <- score
I1010 15:10:10.669093  4482 net.cpp:408] score_score_0_split -> score_score_0_split_0
I1010 15:10:10.669098  4482 net.cpp:408] score_score_0_split -> score_score_0_split_1
I1010 15:10:10.669128  4482 net.cpp:150] Setting up score_score_0_split
I1010 15:10:10.669133  4482 net.cpp:157] Top shape: 64 10 (640)
I1010 15:10:10.669136  4482 net.cpp:157] Top shape: 64 10 (640)
I1010 15:10:10.669137  4482 net.cpp:165] Memory required for data: 160613632
I1010 15:10:10.669139  4482 layer_factory.hpp:77] Creating layer accuracy
I1010 15:10:10.669144  4482 net.cpp:100] Creating Layer accuracy
I1010 15:10:10.669147  4482 net.cpp:434] accuracy <- score_score_0_split_0
I1010 15:10:10.669149  4482 net.cpp:434] accuracy <- label_data_1_split_0
I1010 15:10:10.669155  4482 net.cpp:408] accuracy -> accuracy
…
I1010 15:10:10.669664  4482 net.cpp:283] Network initialization done.
I1010 15:10:10.669852  4482 solver.cpp:181] Creating test net (#0) specified by test_net file: /home/adam/Honours/Honours-Project/cifar-10_allcnn/relu/allcnn_relu_test.prototxt
I1010 15:10:10.669971  4482 net.cpp:58] Initializing net from parameters: 
state {
  phase: TEST
}
layer {
  name: "data"
  type: "Data"
  top: "data"
  top: "label"
  transform_param {
    mean_file: "mean.binaryproto"
  }
  data_param {
    source: "../../../data/cifar-10/cifar10_test_lmdb"
    batch_size: 100
    backend: LMDB
  }
}
layer {
  name: "conv1"
  type: "Convolution"
  bottom: "data"
  top: "conv1"
  convolution_param {
    num_output: 96
    kernel_size: 3
    weight_filler {
      type: "xavier"
    }
  }
}
layer {
  name: "relu1"
  type: "ReLU"
  bottom: "conv1"
  top: "conv1"
}
layer {
  name: "conv2"
  type: "Convolution"
  bottom: "conv1"
  top: "conv2"
  convolution_param {
    num_output: 96
    kernel_size: 3
    weight_filler {
      type: "xavier"
    }
  }
}
layer {
  name: "bn1"
  type: "BatchNorm"
  bottom: "conv2"
  top: "bn1"
}
layer {
  name: "relu2"
  type: "ReLU"
  bottom: "bn1"
  top: "bn1"
}
layer {
  name: "drop1"
  type: "Dropout"
  bottom: "bn1"
  top: "drop1"
  dropout_param {
    dropout_ratio: 0.5
  }
}
layer {
  name: "conv3"
  type: "Convolution"
  bottom: "drop1"
  top: "conv3"
  convolution_param {
    num_output: 96
    kernel_size: 3
    stride: 2
    weight_filler {
      type: "xavier"
    }
  }
}
layer {
  name: "relu3"
  type: "ReLU"
  bottom: "conv3"
  top: "conv3"
}
layer {
  name: "conv4"
  type: "Convolution"
  bottom: "conv3"
  top: "conv4"
  convolution_param {
    num_output: 192
    kernel_size: 3
    weight_filler {
      type: "xavier"
    }
  }
}
layer {
  name: "relu4"
  type: "ReLU"
  bottom: "conv4"
  top: "conv4"
}
layer {
  name: "conv5"
  type: "Convolution"
  bottom: "conv4"
  top: "conv5"
  convolution_param {
    num_output: 192
    kernel_size: 3
    weight_filler {
      type: "xavier"
    }
  }
}
layer {
  name: "bn2"
  type: "BatchNorm"
  bottom: "conv5"
  top: "bn2"
}
layer {
  name: "relu5"
  type: "ReLU"
  bottom: "bn2"
  top: "bn2"
}
layer {
  name: "drop4"
  type: "Dropout"
  bottom: "bn2"
  top: "drop4"
  dropout_param {
    dropout_ratio: 0.5
  }
}
layer {
  name: "conv6"
  type: "Convolution"
  bottom: "drop4"
  top: "conv6"
  convolution_param {
    num_output: 192
    kernel_size: 3
    stride: 2
    weight_filler {
      type: "xavier"
    }
  }
}
layer {
  name: "relu6"
  type: "ReLU"
  bottom: "conv6"
  top: "conv6"
}
layer {
  name: "conv7"
  type: "Convolution"
  bottom: "conv6"
  top: "conv7"
  convolution_param {
    num_output: 192
    kernel_size: 3
    weight_filler {
      type: "xavier"
    }
  }
}
layer {
  name: "relu7"
  type: "ReLU"
  bottom: "conv7"
  top: "conv7"
}
layer {
  name: "conv8"
  type: "Convolution"
  bottom: "conv7"
  top: "conv8"
  convolution_param {
    num_output: 192
    kernel_size: 1
    weight_filler {
      type: "xavier"
    }
  }
}
layer {
  name: "relu8"
  type: "ReLU"
  bottom: "conv8"
  top: "conv8"
}
layer {
  name: "conv9"
  type: "Convolution"
  bottom: "conv8"
  top: "conv9"
  convolution_param {
    num_output: 10
    kernel_size: 1
    weight_filler {
      type: "xavier"
    }
  }
}
layer {
  name: "relu9"
  type: "ReLU"
  bottom: "conv9"
  top: "conv9"
}
layer {
  name: "pool"
  type: "Pooling"
  bottom: "conv9"
  top: "pool"
  pooling_param {
    pool: AVE
    global_pooling: true
  }
}
layer {
  name: "flatten"
  type: "Flatten"
  bottom: "pool"
  top: "flatten"
}
layer {
  name: "score"
  type: "InnerProduct"
  bottom: "flatten"
  top: "score"
  inner_product_param {
    num_output: 10
    weight_filler {
      type: "gaussian"
    }
  }
}
layer {
  name: "accuracy"
  type: "Accuracy"
  bottom: "score"
  bottom: "label"
  top: "accuracy"
}
layer {
  name: "loss"
  type: "SoftmaxWithLoss"
  bottom: "score"
  bottom: "label"
  top: "loss"
}
I1010 15:10:10.670056  4482 layer_factory.hpp:77] Creating layer data
I1010 15:10:10.670145  4482 net.cpp:100] Creating Layer data
I1010 15:10:10.670151  4482 net.cpp:408] data -> data
I1010 15:10:10.670158  4482 net.cpp:408] data -> label
I1010 15:10:10.670164  4482 data_transformer.cpp:25] Loading mean file from: mean.binaryproto
I1010 15:10:10.727242  4489 db_lmdb.cpp:35] Opened lmdb ../../../data/cifar-10/cifar10_test_lmdb
I1010 15:10:10.732820  4482 data_layer.cpp:41] output data size: 100,3,32,32
I1010 15:10:10.738255  4482 net.cpp:150] Setting up data
I1010 15:10:10.738318  4482 net.cpp:157] Top shape: 100 3 32 32 (307200)
I1010 15:10:10.738333  4482 net.cpp:157] Top shape: 100 (100)
I1010 15:10:10.738340  4482 net.cpp:165] Memory required for data: 1229200
I1010 15:10:10.738355  4482 layer_factory.hpp:77] Creating layer label_data_1_split
I1010 15:10:10.738391  4482 net.cpp:100] Creating Layer label_data_1_split
I1010 15:10:10.738402  4482 net.cpp:434] label_data_1_split <- label
I1010 15:10:10.738420  4482 net.cpp:408] label_data_1_split -> label_data_1_split_0
I1010 15:10:10.738442  4482 net.cpp:408] label_data_1_split -> label_data_1_split_1
I1010 15:10:10.738665  4482 net.cpp:150] Setting up label_data_1_split
I1010 15:10:10.738744  4482 net.cpp:157] Top shape: 100 (100)
I1010 15:10:10.738783  4482 net.cpp:157] Top shape: 100 (100)
I1010 15:10:10.738813  4482 net.cpp:165] Memory required for data: 1230000
I1010 15:10:10.738845  4482 layer_factory.hpp:77] Creating layer conv1
I1010 15:10:10.738903  4482 net.cpp:100] Creating Layer conv1
I1010 15:10:10.738940  4482 net.cpp:434] conv1 <- data
I1010 15:10:10.738988  4482 net.cpp:408] conv1 -> conv1
I1010 15:10:10.743085  4482 net.cpp:150] Setting up conv1
I1010 15:10:10.743150  4482 net.cpp:157] Top shape: 100 96 30 30 (8640000)
I1010 15:10:10.743162  4482 net.cpp:165] Memory required for data: 35790000
I1010 15:10:10.743194  4482 layer_factory.hpp:77] Creating layer relu1
I1010 15:10:10.743214  4482 net.cpp:100] Creating Layer relu1
I1010 15:10:10.743228  4482 net.cpp:434] relu1 <- conv1
I1010 15:10:10.743247  4482 net.cpp:395] relu1 -> conv1 (in-place)
I1010 15:10:10.743937  4482 net.cpp:150] Setting up relu1
I1010 15:10:10.743968  4482 net.cpp:157] Top shape: 100 96 30 30 (8640000)
I1010 15:10:10.743976  4482 net.cpp:165] Memory required for data: 70350000
I1010 15:10:10.743985  4482 layer_factory.hpp:77] Creating layer conv2
I1010 15:10:10.744016  4482 net.cpp:100] Creating Layer conv2
I1010 15:10:10.744025  4482 net.cpp:434] conv2 <- conv1
I1010 15:10:10.744056  4482 net.cpp:408] conv2 -> conv2
I1010 15:10:10.748404  4482 net.cpp:150] Setting up conv2
I1010 15:10:10.748430  4482 net.cpp:157] Top shape: 100 96 28 28 (7526400)
I1010 15:10:10.748432  4482 net.cpp:165] Memory required for data: 100455600
I1010 15:10:10.748440  4482 layer_factory.hpp:77] Creating layer bn1
I1010 15:10:10.748445  4482 net.cpp:100] Creating Layer bn1
I1010 15:10:10.748447  4482 net.cpp:434] bn1 <- conv2
I1010 15:10:10.748463  4482 net.cpp:408] bn1 -> bn1
I1010 15:10:10.748770  4482 net.cpp:150] Setting up bn1
I1010 15:10:10.748775  4482 net.cpp:157] Top shape: 100 96 28 28 (7526400)
I1010 15:10:10.748782  4482 net.cpp:165] Memory required for data: 130561200
I1010 15:10:10.748805  4482 layer_factory.hpp:77] Creating layer relu2
I1010 15:10:10.748809  4482 net.cpp:100] Creating Layer relu2
I1010 15:10:10.748824  4482 net.cpp:434] relu2 <- bn1
I1010 15:10:10.748827  4482 net.cpp:395] relu2 -> bn1 (in-place)
I1010 15:10:10.749236  4482 net.cpp:150] Setting up relu2
I1010 15:10:10.749264  4482 net.cpp:157] Top shape: 100 96 28 28 (7526400)
I1010 15:10:10.749266  4482 net.cpp:165] Memory required for data: 160666800
I1010 15:10:10.749269  4482 layer_factory.hpp:77] Creating layer drop1
I1010 15:10:10.749289  4482 net.cpp:100] Creating Layer drop1
I1010 15:10:10.749290  4482 net.cpp:434] drop1 <- bn1
I1010 15:10:10.749295  4482 net.cpp:408] drop1 -> drop1
I1010 15:10:10.749361  4482 net.cpp:150] Setting up drop1
I1010 15:10:10.749367  4482 net.cpp:157] Top shape: 100 96 28 28 (7526400)
I1010 15:10:10.749384  4482 net.cpp:165] Memory required for data: 190772400
I1010 15:10:10.749387  4482 layer_factory.hpp:77] Creating layer conv3
I1010 15:10:10.749397  4482 net.cpp:100] Creating Layer conv3
I1010 15:10:10.749399  4482 net.cpp:434] conv3 <- drop1
I1010 15:10:10.749403  4482 net.cpp:408] conv3 -> conv3
I1010 15:10:10.750551  4482 net.cpp:150] Setting up conv3
I1010 15:10:10.750576  4482 net.cpp:157] Top shape: 100 96 13 13 (1622400)
I1010 15:10:10.750579  4482 net.cpp:165] Memory required for data: 197262000
I1010 15:10:10.750586  4482 layer_factory.hpp:77] Creating layer relu3
I1010 15:10:10.750604  4482 net.cpp:100] Creating Layer relu3
I1010 15:10:10.750612  4482 net.cpp:434] relu3 <- conv3
I1010 15:10:10.750614  4482 net.cpp:395] relu3 -> conv3 (in-place)
I1010 15:10:10.750845  4482 net.cpp:150] Setting up relu3
I1010 15:10:10.750854  4482 net.cpp:157] Top shape: 100 96 13 13 (1622400)
I1010 15:10:10.750855  4482 net.cpp:165] Memory required for data: 203751600
I1010 15:10:10.750857  4482 layer_factory.hpp:77] Creating layer conv4
I1010 15:10:10.750879  4482 net.cpp:100] Creating Layer conv4
I1010 15:10:10.750880  4482 net.cpp:434] conv4 <- conv3
I1010 15:10:10.750885  4482 net.cpp:408] conv4 -> conv4
I1010 15:10:10.752748  4482 net.cpp:150] Setting up conv4
I1010 15:10:10.752758  4482 net.cpp:157] Top shape: 100 192 11 11 (2323200)
I1010 15:10:10.752759  4482 net.cpp:165] Memory required for data: 213044400
I1010 15:10:10.752764  4482 layer_factory.hpp:77] Creating layer relu4
I1010 15:10:10.752768  4482 net.cpp:100] Creating Layer relu4
I1010 15:10:10.752770  4482 net.cpp:434] relu4 <- conv4
I1010 15:10:10.752774  4482 net.cpp:395] relu4 -> conv4 (in-place)
I1010 15:10:10.752933  4482 net.cpp:150] Setting up relu4
I1010 15:10:10.752938  4482 net.cpp:157] Top shape: 100 192 11 11 (2323200)
I1010 15:10:10.752940  4482 net.cpp:165] Memory required for data: 222337200
I1010 15:10:10.752943  4482 layer_factory.hpp:77] Creating layer conv5
I1010 15:10:10.752948  4482 net.cpp:100] Creating Layer conv5
I1010 15:10:10.752950  4482 net.cpp:434] conv5 <- conv4
I1010 15:10:10.752954  4482 net.cpp:408] conv5 -> conv5
I1010 15:10:10.755821  4482 net.cpp:150] Setting up conv5
I1010 15:10:10.755853  4482 net.cpp:157] Top shape: 100 192 9 9 (1555200)
I1010 15:10:10.755856  4482 net.cpp:165] Memory required for data: 228558000
I1010 15:10:10.755874  4482 layer_factory.hpp:77] Creating layer bn2
I1010 15:10:10.755880  4482 net.cpp:100] Creating Layer bn2
I1010 15:10:10.755897  4482 net.cpp:434] bn2 <- conv5
I1010 15:10:10.755903  4482 net.cpp:408] bn2 -> bn2
I1010 15:10:10.756125  4482 net.cpp:150] Setting up bn2
I1010 15:10:10.756147  4482 net.cpp:157] Top shape: 100 192 9 9 (1555200)
I1010 15:10:10.756150  4482 net.cpp:165] Memory required for data: 234778800
I1010 15:10:10.756155  4482 layer_factory.hpp:77] Creating layer relu5
I1010 15:10:10.756171  4482 net.cpp:100] Creating Layer relu5
I1010 15:10:10.756173  4482 net.cpp:434] relu5 <- bn2
I1010 15:10:10.756202  4482 net.cpp:395] relu5 -> bn2 (in-place)
I1010 15:10:10.756569  4482 net.cpp:150] Setting up relu5
I1010 15:10:10.756578  4482 net.cpp:157] Top shape: 100 192 9 9 (1555200)
I1010 15:10:10.756580  4482 net.cpp:165] Memory required for data: 240999600
I1010 15:10:10.756583  4482 layer_factory.hpp:77] Creating layer drop4
I1010 15:10:10.756588  4482 net.cpp:100] Creating Layer drop4
I1010 15:10:10.756604  4482 net.cpp:434] drop4 <- bn2
I1010 15:10:10.756608  4482 net.cpp:408] drop4 -> drop4
I1010 15:10:10.756670  4482 net.cpp:150] Setting up drop4
I1010 15:10:10.756675  4482 net.cpp:157] Top shape: 100 192 9 9 (1555200)
I1010 15:10:10.756690  4482 net.cpp:165] Memory required for data: 247220400
I1010 15:10:10.756691  4482 layer_factory.hpp:77] Creating layer conv6
I1010 15:10:10.756716  4482 net.cpp:100] Creating Layer conv6
I1010 15:10:10.756718  4482 net.cpp:434] conv6 <- drop4
I1010 15:10:10.756734  4482 net.cpp:408] conv6 -> conv6
I1010 15:10:10.759295  4482 net.cpp:150] Setting up conv6
I1010 15:10:10.759306  4482 net.cpp:157] Top shape: 100 192 4 4 (307200)
I1010 15:10:10.759308  4482 net.cpp:165] Memory required for data: 248449200
I1010 15:10:10.759316  4482 layer_factory.hpp:77] Creating layer relu6
I1010 15:10:10.759321  4482 net.cpp:100] Creating Layer relu6
I1010 15:10:10.759325  4482 net.cpp:434] relu6 <- conv6
I1010 15:10:10.759352  4482 net.cpp:395] relu6 -> conv6 (in-place)
I1010 15:10:10.759627  4482 net.cpp:150] Setting up relu6
I1010 15:10:10.759634  4482 net.cpp:157] Top shape: 100 192 4 4 (307200)
I1010 15:10:10.759636  4482 net.cpp:165] Memory required for data: 249678000
I1010 15:10:10.759639  4482 layer_factory.hpp:77] Creating layer conv7
I1010 15:10:10.759647  4482 net.cpp:100] Creating Layer conv7
I1010 15:10:10.759649  4482 net.cpp:434] conv7 <- conv6
I1010 15:10:10.759654  4482 net.cpp:408] conv7 -> conv7
I1010 15:10:10.762197  4482 net.cpp:150] Setting up conv7
I1010 15:10:10.762207  4482 net.cpp:157] Top shape: 100 192 2 2 (76800)
I1010 15:10:10.762209  4482 net.cpp:165] Memory required for data: 249985200
I1010 15:10:10.762213  4482 layer_factory.hpp:77] Creating layer relu7
I1010 15:10:10.762217  4482 net.cpp:100] Creating Layer relu7
I1010 15:10:10.762219  4482 net.cpp:434] relu7 <- conv7
I1010 15:10:10.762223  4482 net.cpp:395] relu7 -> conv7 (in-place)
I1010 15:10:10.762395  4482 net.cpp:150] Setting up relu7
I1010 15:10:10.762401  4482 net.cpp:157] Top shape: 100 192 2 2 (76800)
I1010 15:10:10.762403  4482 net.cpp:165] Memory required for data: 250292400
I1010 15:10:10.762405  4482 layer_factory.hpp:77] Creating layer conv8
I1010 15:10:10.762411  4482 net.cpp:100] Creating Layer conv8
I1010 15:10:10.762413  4482 net.cpp:434] conv8 <- conv7
I1010 15:10:10.762418  4482 net.cpp:408] conv8 -> conv8
I1010 15:10:10.763393  4482 net.cpp:150] Setting up conv8
I1010 15:10:10.763403  4482 net.cpp:157] Top shape: 100 192 2 2 (76800)
I1010 15:10:10.763406  4482 net.cpp:165] Memory required for data: 250599600
I1010 15:10:10.763411  4482 layer_factory.hpp:77] Creating layer relu8
I1010 15:10:10.763413  4482 net.cpp:100] Creating Layer relu8
I1010 15:10:10.763416  4482 net.cpp:434] relu8 <- conv8
I1010 15:10:10.763418  4482 net.cpp:395] relu8 -> conv8 (in-place)
I1010 15:10:10.763665  4482 net.cpp:150] Setting up relu8
I1010 15:10:10.763674  4482 net.cpp:157] Top shape: 100 192 2 2 (76800)
I1010 15:10:10.763675  4482 net.cpp:165] Memory required for data: 250906800
I1010 15:10:10.763677  4482 layer_factory.hpp:77] Creating layer conv9
I1010 15:10:10.763685  4482 net.cpp:100] Creating Layer conv9
I1010 15:10:10.763687  4482 net.cpp:434] conv9 <- conv8
I1010 15:10:10.763691  4482 net.cpp:408] conv9 -> conv9
I1010 15:10:10.764437  4482 net.cpp:150] Setting up conv9
I1010 15:10:10.764446  4482 net.cpp:157] Top shape: 100 10 2 2 (4000)
I1010 15:10:10.764448  4482 net.cpp:165] Memory required for data: 250922800
I1010 15:10:10.764452  4482 layer_factory.hpp:77] Creating layer relu9
I1010 15:10:10.764456  4482 net.cpp:100] Creating Layer relu9
I1010 15:10:10.764458  4482 net.cpp:434] relu9 <- conv9
I1010 15:10:10.764472  4482 net.cpp:395] relu9 -> conv9 (in-place)
I1010 15:10:10.764732  4482 net.cpp:150] Setting up relu9
I1010 15:10:10.764740  4482 net.cpp:157] Top shape: 100 10 2 2 (4000)
I1010 15:10:10.764742  4482 net.cpp:165] Memory required for data: 250938800
I1010 15:10:10.764744  4482 layer_factory.hpp:77] Creating layer pool
I1010 15:10:10.764749  4482 net.cpp:100] Creating Layer pool
I1010 15:10:10.764750  4482 net.cpp:434] pool <- conv9
I1010 15:10:10.764755  4482 net.cpp:408] pool -> pool
I1010 15:10:10.764940  4482 net.cpp:150] Setting up pool
I1010 15:10:10.764946  4482 net.cpp:157] Top shape: 100 10 1 1 (1000)
I1010 15:10:10.764948  4482 net.cpp:165] Memory required for data: 250942800
I1010 15:10:10.764950  4482 layer_factory.hpp:77] Creating layer flatten
I1010 15:10:10.764955  4482 net.cpp:100] Creating Layer flatten
I1010 15:10:10.764956  4482 net.cpp:434] flatten <- pool
I1010 15:10:10.764960  4482 net.cpp:408] flatten -> flatten
I1010 15:10:10.764994  4482 net.cpp:150] Setting up flatten
I1010 15:10:10.764997  4482 net.cpp:157] Top shape: 100 10 (1000)
I1010 15:10:10.765000  4482 net.cpp:165] Memory required for data: 250946800
I1010 15:10:10.765002  4482 layer_factory.hpp:77] Creating layer score
I1010 15:10:10.765007  4482 net.cpp:100] Creating Layer score
I1010 15:10:10.765010  4482 net.cpp:434] score <- flatten
I1010 15:10:10.765029  4482 net.cpp:408] score -> score
I1010 15:10:10.765149  4482 net.cpp:150] Setting up score
I1010 15:10:10.765153  4482 net.cpp:157] Top shape: 100 10 (1000)
I1010 15:10:10.765156  4482 net.cpp:165] Memory required for data: 250950800
I1010 15:10:10.765159  4482 layer_factory.hpp:77] Creating layer score_score_0_split
I1010 15:10:10.765163  4482 net.cpp:100] Creating Layer score_score_0_split
I1010 15:10:10.765166  4482 net.cpp:434] score_score_0_split <- score
I1010 15:10:10.765171  4482 net.cpp:408] score_score_0_split -> score_score_0_split_0
I1010 15:10:10.765174  4482 net.cpp:408] score_score_0_split -> score_score_0_split_1
I1010 15:10:10.765218  4482 net.cpp:150] Setting up score_score_0_split
I1010 15:10:10.765235  4482 net.cpp:157] Top shape: 100 10 (1000)
I1010 15:10:10.765239  4482 net.cpp:157] Top shape: 100 10 (1000)
I1010 15:10:10.765240  4482 net.cpp:165] Memory required for data: 250958800
I1010 15:10:10.765242  4482 layer_factory.hpp:77] Creating layer accuracy
I1010 15:10:10.765259  4482 net.cpp:100] Creating Layer accuracy
I1010 15:10:10.765260  4482 net.cpp:434] accuracy <- score_score_0_split_0
I1010 15:10:10.765264  4482 net.cpp:434] accuracy <- label_data_1_split_0
I1010 15:10:10.765281  4482 net.cpp:408] accuracy -> accuracy
…
