…
  level: 0
  stage: ""
}
type: "AdaDelta"
I1018 21:17:17.039888  6299 solver.cpp:81] Creating training net from train_net file: /home/adam/Honours/Honours-Project/mnist_allcnn/relu/allcnn_relu_train.prototxt
I1018 21:17:17.040118  6299 net.cpp:58] Initializing net from parameters: 
state {
  phase: TRAIN
  level: 0
  stage: ""
}
layer {
  name: "data"
  type: "Data"
  top: "data"
  top: "label"
  transform_param {
    scale: 0.0039215689
  }
  data_param {
    source: "../../../data/mnist/mnist_train_lmdb"
    batch_size: 64
    backend: LMDB
  }
}
layer {
  name: "conv1"
  type: "Convolution"
  bottom: "data"
  top: "conv1"
  convolution_param {
    num_output: 96
    kernel_size: 3
    weight_filler {
      type: "xavier"
    }
  }
}
layer {
  name: "relu1"
  type: "ReLU"
  bottom: "conv1"
  top: "conv1"
}
layer {
  name: "conv2"
  type: "Convolution"
  bottom: "conv1"
  top: "conv2"
  convolution_param {
    num_output: 96
    kernel_size: 3
    weight_filler {
      type: "xavier"
    }
  }
}
layer {
  name: "bn1"
  type: "BatchNorm"
  bottom: "conv2"
  top: "bn1"
}
layer {
  name: "relu2"
  type: "ReLU"
  bottom: "bn1"
  top: "bn1"
}
layer {
  name: "conv3"
  type: "Convolution"
  bottom: "bn1"
  top: "conv3"
  convolution_param {
    num_output: 96
    kernel_size: 3
    stride: 2
    weight_filler {
      type: "xavier"
    }
  }
}
layer {
  name: "drop1"
  type: "Dropout"
  bottom: "conv3"
  top: "drop1"
  dropout_param {
    dropout_ratio: 0.5
  }
}
layer {
  name: "relu3"
  type: "ReLU"
  bottom: "drop1"
  top: "drop1"
}
layer {
  name: "conv4"
  type: "Convolution"
  bottom: "drop1"
  top: "conv4"
  convolution_param {
    num_output: 192
    kernel_size: 3
    weight_filler {
      type: "xavier"
    }
  }
}
layer {
  name: "relu4"
  type: "ReLU"
  bottom: "conv4"
  top: "conv4"
}
layer {
  name: "conv5"
  type: "Convolution"
  bottom: "conv4"
  top: "conv5"
  convolution_param {
    num_output: 192
    kernel_size: 3
    weight_filler {
      type: "xavier"
    }
  }
}
layer {
  name: "bn2"
  type: "BatchNorm"
  bottom: "conv5"
  top: "bn2"
}
layer {
  name: "relu5"
  type: "ReLU"
  bottom: "bn2"
  top: "bn2"
}
layer {
  name: "conv6"
  type: "Convolution"
  bottom: "bn2"
  top: "conv6"
  convolution_param {
    num_output: 192
    kernel_size: 3
    stride: 2
    weight_filler {
      type: "xavier"
    }
  }
}
layer {
  name: "drop4"
  type: "Dropout"
  bottom: "conv6"
  top: "drop4"
  dropout_param {
    dropout_ratio: 0.5
  }
}
layer {
  name: "relu6"
  type: "ReLU"
  bottom: "drop4"
  top: "drop4"
}
layer {
  name: "conv7"
  type: "Convolution"
  bottom: "drop4"
  top: "conv7"
  convolution_param {
    num_output: 192
    kernel_size: 3
    weight_filler {
      type: "xavier"
    }
  }
}
layer {
  name: "relu7"
  type: "ReLU"
  bottom: "conv7"
  top: "conv7"
}
layer {
  name: "conv8"
  type: "Convolution"
  bottom: "conv7"
  top: "conv8"
  convolution_param {
    num_output: 192
    kernel_size: 1
    weight_filler {
      type: "xavier"
    }
  }
}
layer {
  name: "relu8"
  type: "ReLU"
  bottom: "conv8"
  top: "conv8"
}
layer {
  name: "conv9"
  type: "Convolution"
  bottom: "conv8"
  top: "conv9"
  convolution_param {
    num_output: 10
    kernel_size: 1
    weight_filler {
      type: "xavier"
    }
  }
}
layer {
  name: "relu9"
  type: "ReLU"
  bottom: "conv9"
  top: "conv9"
}
layer {
  name: "pool"
  type: "Pooling"
  bottom: "conv9"
  top: "pool"
  pooling_param {
    pool: AVE
    global_pooling: true
  }
}
layer {
  name: "flatten"
  type: "Flatten"
  bottom: "pool"
  top: "flatten"
}
layer {
  name: "score"
  type: "InnerProduct"
  bottom: "flatten"
  top: "score"
  inner_product_param {
    num_output: 10
    weight_filler {
      type: "gaussian"
    }
  }
}
layer {
  name: "accuracy"
  type: "Accuracy"
  bottom: "score"
  bottom: "label"
  top: "accuracy"
}
layer {
  name: "loss"
  type: "SoftmaxWithLoss"
  bottom: "score"
  bottom: "label"
  top: "loss"
}
I1018 21:17:17.040210  6299 layer_factory.hpp:77] Creating layer data
I1018 21:17:17.040583  6299 net.cpp:100] Creating Layer data
I1018 21:17:17.040591  6299 net.cpp:408] data -> data
I1018 21:17:17.040606  6299 net.cpp:408] data -> label
I1018 21:17:17.041172  6305 db_lmdb.cpp:35] Opened lmdb ../../../data/mnist/mnist_train_lmdb
I1018 21:17:17.046568  6299 data_layer.cpp:41] output data size: 64,1,28,28
I1018 21:17:17.047134  6299 net.cpp:150] Setting up data
I1018 21:17:17.047145  6299 net.cpp:157] Top shape: 64 1 28 28 (50176)
I1018 21:17:17.047148  6299 net.cpp:157] Top shape: 64 (64)
I1018 21:17:17.047150  6299 net.cpp:165] Memory required for data: 200960
I1018 21:17:17.047157  6299 layer_factory.hpp:77] Creating layer label_data_1_split
I1018 21:17:17.047165  6299 net.cpp:100] Creating Layer label_data_1_split
I1018 21:17:17.047170  6299 net.cpp:434] label_data_1_split <- label
I1018 21:17:17.047180  6299 net.cpp:408] label_data_1_split -> label_data_1_split_0
I1018 21:17:17.047186  6299 net.cpp:408] label_data_1_split -> label_data_1_split_1
I1018 21:17:17.047214  6299 net.cpp:150] Setting up label_data_1_split
I1018 21:17:17.047221  6299 net.cpp:157] Top shape: 64 (64)
I1018 21:17:17.047225  6299 net.cpp:157] Top shape: 64 (64)
I1018 21:17:17.047227  6299 net.cpp:165] Memory required for data: 201472
I1018 21:17:17.047230  6299 layer_factory.hpp:77] Creating layer conv1
I1018 21:17:17.047243  6299 net.cpp:100] Creating Layer conv1
I1018 21:17:17.047246  6299 net.cpp:434] conv1 <- data
I1018 21:17:17.047250  6299 net.cpp:408] conv1 -> conv1
I1018 21:17:17.164322  6299 net.cpp:150] Setting up conv1
I1018 21:17:17.164350  6299 net.cpp:157] Top shape: 64 96 26 26 (4153344)
I1018 21:17:17.164351  6299 net.cpp:165] Memory required for data: 16814848
I1018 21:17:17.164368  6299 layer_factory.hpp:77] Creating layer relu1
I1018 21:17:17.164376  6299 net.cpp:100] Creating Layer relu1
I1018 21:17:17.164379  6299 net.cpp:434] relu1 <- conv1
I1018 21:17:17.164383  6299 net.cpp:395] relu1 -> conv1 (in-place)
I1018 21:17:17.164499  6299 net.cpp:150] Setting up relu1
I1018 21:17:17.164505  6299 net.cpp:157] Top shape: 64 96 26 26 (4153344)
I1018 21:17:17.164508  6299 net.cpp:165] Memory required for data: 33428224
I1018 21:17:17.164510  6299 layer_factory.hpp:77] Creating layer conv2
I1018 21:17:17.164517  6299 net.cpp:100] Creating Layer conv2
I1018 21:17:17.164520  6299 net.cpp:434] conv2 <- conv1
I1018 21:17:17.164523  6299 net.cpp:408] conv2 -> conv2
I1018 21:17:17.165673  6299 net.cpp:150] Setting up conv2
I1018 21:17:17.165680  6299 net.cpp:157] Top shape: 64 96 24 24 (3538944)
I1018 21:17:17.165683  6299 net.cpp:165] Memory required for data: 47584000
I1018 21:17:17.165688  6299 layer_factory.hpp:77] Creating layer bn1
I1018 21:17:17.165693  6299 net.cpp:100] Creating Layer bn1
I1018 21:17:17.165694  6299 net.cpp:434] bn1 <- conv2
I1018 21:17:17.165698  6299 net.cpp:408] bn1 -> bn1
I1018 21:17:17.165827  6299 net.cpp:150] Setting up bn1
I1018 21:17:17.165833  6299 net.cpp:157] Top shape: 64 96 24 24 (3538944)
I1018 21:17:17.165835  6299 net.cpp:165] Memory required for data: 61739776
I1018 21:17:17.165840  6299 layer_factory.hpp:77] Creating layer relu2
I1018 21:17:17.165844  6299 net.cpp:100] Creating Layer relu2
I1018 21:17:17.165846  6299 net.cpp:434] relu2 <- bn1
I1018 21:17:17.165849  6299 net.cpp:395] relu2 -> bn1 (in-place)
I1018 21:17:17.165964  6299 net.cpp:150] Setting up relu2
I1018 21:17:17.165971  6299 net.cpp:157] Top shape: 64 96 24 24 (3538944)
I1018 21:17:17.165972  6299 net.cpp:165] Memory required for data: 75895552
I1018 21:17:17.165974  6299 layer_factory.hpp:77] Creating layer conv3
I1018 21:17:17.165992  6299 net.cpp:100] Creating Layer conv3
I1018 21:17:17.165994  6299 net.cpp:434] conv3 <- bn1
I1018 21:17:17.165999  6299 net.cpp:408] conv3 -> conv3
I1018 21:17:17.166968  6299 net.cpp:150] Setting up conv3
I1018 21:17:17.166976  6299 net.cpp:157] Top shape: 64 96 11 11 (743424)
I1018 21:17:17.166980  6299 net.cpp:165] Memory required for data: 78869248
I1018 21:17:17.166985  6299 layer_factory.hpp:77] Creating layer drop1
I1018 21:17:17.166990  6299 net.cpp:100] Creating Layer drop1
I1018 21:17:17.166992  6299 net.cpp:434] drop1 <- conv3
I1018 21:17:17.166996  6299 net.cpp:408] drop1 -> drop1
I1018 21:17:17.167023  6299 net.cpp:150] Setting up drop1
I1018 21:17:17.167027  6299 net.cpp:157] Top shape: 64 96 11 11 (743424)
I1018 21:17:17.167029  6299 net.cpp:165] Memory required for data: 81842944
I1018 21:17:17.167032  6299 layer_factory.hpp:77] Creating layer relu3
I1018 21:17:17.167034  6299 net.cpp:100] Creating Layer relu3
I1018 21:17:17.167037  6299 net.cpp:434] relu3 <- drop1
I1018 21:17:17.167040  6299 net.cpp:395] relu3 -> drop1 (in-place)
I1018 21:17:17.167232  6299 net.cpp:150] Setting up relu3
I1018 21:17:17.167239  6299 net.cpp:157] Top shape: 64 96 11 11 (743424)
I1018 21:17:17.167242  6299 net.cpp:165] Memory required for data: 84816640
I1018 21:17:17.167243  6299 layer_factory.hpp:77] Creating layer conv4
I1018 21:17:17.167249  6299 net.cpp:100] Creating Layer conv4
I1018 21:17:17.167251  6299 net.cpp:434] conv4 <- drop1
I1018 21:17:17.167254  6299 net.cpp:408] conv4 -> conv4
I1018 21:17:17.168778  6299 net.cpp:150] Setting up conv4
I1018 21:17:17.168787  6299 net.cpp:157] Top shape: 64 192 9 9 (995328)
I1018 21:17:17.168789  6299 net.cpp:165] Memory required for data: 88797952
I1018 21:17:17.168793  6299 layer_factory.hpp:77] Creating layer relu4
I1018 21:17:17.168797  6299 net.cpp:100] Creating Layer relu4
I1018 21:17:17.168798  6299 net.cpp:434] relu4 <- conv4
I1018 21:17:17.168802  6299 net.cpp:395] relu4 -> conv4 (in-place)
I1018 21:17:17.168918  6299 net.cpp:150] Setting up relu4
I1018 21:17:17.168925  6299 net.cpp:157] Top shape: 64 192 9 9 (995328)
I1018 21:17:17.168926  6299 net.cpp:165] Memory required for data: 92779264
I1018 21:17:17.168928  6299 layer_factory.hpp:77] Creating layer conv5
I1018 21:17:17.168933  6299 net.cpp:100] Creating Layer conv5
I1018 21:17:17.168936  6299 net.cpp:434] conv5 <- conv4
I1018 21:17:17.168939  6299 net.cpp:408] conv5 -> conv5
I1018 21:17:17.171022  6299 net.cpp:150] Setting up conv5
I1018 21:17:17.171030  6299 net.cpp:157] Top shape: 64 192 7 7 (602112)
I1018 21:17:17.171032  6299 net.cpp:165] Memory required for data: 95187712
I1018 21:17:17.171036  6299 layer_factory.hpp:77] Creating layer bn2
I1018 21:17:17.171041  6299 net.cpp:100] Creating Layer bn2
I1018 21:17:17.171042  6299 net.cpp:434] bn2 <- conv5
I1018 21:17:17.171046  6299 net.cpp:408] bn2 -> bn2
I1018 21:17:17.171175  6299 net.cpp:150] Setting up bn2
I1018 21:17:17.171181  6299 net.cpp:157] Top shape: 64 192 7 7 (602112)
I1018 21:17:17.171182  6299 net.cpp:165] Memory required for data: 97596160
I1018 21:17:17.171186  6299 layer_factory.hpp:77] Creating layer relu5
I1018 21:17:17.171190  6299 net.cpp:100] Creating Layer relu5
I1018 21:17:17.171191  6299 net.cpp:434] relu5 <- bn2
I1018 21:17:17.171193  6299 net.cpp:395] relu5 -> bn2 (in-place)
I1018 21:17:17.171304  6299 net.cpp:150] Setting up relu5
I1018 21:17:17.171310  6299 net.cpp:157] Top shape: 64 192 7 7 (602112)
I1018 21:17:17.171313  6299 net.cpp:165] Memory required for data: 100004608
I1018 21:17:17.171314  6299 layer_factory.hpp:77] Creating layer conv6
I1018 21:17:17.171320  6299 net.cpp:100] Creating Layer conv6
I1018 21:17:17.171321  6299 net.cpp:434] conv6 <- bn2
I1018 21:17:17.171325  6299 net.cpp:408] conv6 -> conv6
I1018 21:17:17.173571  6299 net.cpp:150] Setting up conv6
I1018 21:17:17.173580  6299 net.cpp:157] Top shape: 64 192 3 3 (110592)
I1018 21:17:17.173583  6299 net.cpp:165] Memory required for data: 100446976
I1018 21:17:17.173589  6299 layer_factory.hpp:77] Creating layer drop4
I1018 21:17:17.173604  6299 net.cpp:100] Creating Layer drop4
I1018 21:17:17.173606  6299 net.cpp:434] drop4 <- conv6
I1018 21:17:17.173609  6299 net.cpp:408] drop4 -> drop4
I1018 21:17:17.173635  6299 net.cpp:150] Setting up drop4
I1018 21:17:17.173640  6299 net.cpp:157] Top shape: 64 192 3 3 (110592)
I1018 21:17:17.173641  6299 net.cpp:165] Memory required for data: 100889344
I1018 21:17:17.173643  6299 layer_factory.hpp:77] Creating layer relu6
I1018 21:17:17.173648  6299 net.cpp:100] Creating Layer relu6
I1018 21:17:17.173651  6299 net.cpp:434] relu6 <- drop4
I1018 21:17:17.173656  6299 net.cpp:395] relu6 -> drop4 (in-place)
I1018 21:17:17.173844  6299 net.cpp:150] Setting up relu6
I1018 21:17:17.173851  6299 net.cpp:157] Top shape: 64 192 3 3 (110592)
I1018 21:17:17.173854  6299 net.cpp:165] Memory required for data: 101331712
I1018 21:17:17.173856  6299 layer_factory.hpp:77] Creating layer conv7
I1018 21:17:17.173861  6299 net.cpp:100] Creating Layer conv7
I1018 21:17:17.173863  6299 net.cpp:434] conv7 <- drop4
I1018 21:17:17.173866  6299 net.cpp:408] conv7 -> conv7
I1018 21:17:17.176472  6299 net.cpp:150] Setting up conv7
I1018 21:17:17.176484  6299 net.cpp:157] Top shape: 64 192 1 1 (12288)
I1018 21:17:17.176486  6299 net.cpp:165] Memory required for data: 101380864
I1018 21:17:17.176491  6299 layer_factory.hpp:77] Creating layer relu7
I1018 21:17:17.176496  6299 net.cpp:100] Creating Layer relu7
I1018 21:17:17.176497  6299 net.cpp:434] relu7 <- conv7
I1018 21:17:17.176501  6299 net.cpp:395] relu7 -> conv7 (in-place)
I1018 21:17:17.176717  6299 net.cpp:150] Setting up relu7
I1018 21:17:17.176723  6299 net.cpp:157] Top shape: 64 192 1 1 (12288)
I1018 21:17:17.176725  6299 net.cpp:165] Memory required for data: 101430016
I1018 21:17:17.176728  6299 layer_factory.hpp:77] Creating layer conv8
I1018 21:17:17.176734  6299 net.cpp:100] Creating Layer conv8
I1018 21:17:17.176736  6299 net.cpp:434] conv8 <- conv7
I1018 21:17:17.176740  6299 net.cpp:408] conv8 -> conv8
I1018 21:17:17.177534  6299 net.cpp:150] Setting up conv8
I1018 21:17:17.177546  6299 net.cpp:157] Top shape: 64 192 1 1 (12288)
I1018 21:17:17.177548  6299 net.cpp:165] Memory required for data: 101479168
I1018 21:17:17.177553  6299 layer_factory.hpp:77] Creating layer relu8
I1018 21:17:17.177556  6299 net.cpp:100] Creating Layer relu8
I1018 21:17:17.177559  6299 net.cpp:434] relu8 <- conv8
I1018 21:17:17.177562  6299 net.cpp:395] relu8 -> conv8 (in-place)
I1018 21:17:17.177678  6299 net.cpp:150] Setting up relu8
I1018 21:17:17.177685  6299 net.cpp:157] Top shape: 64 192 1 1 (12288)
I1018 21:17:17.177688  6299 net.cpp:165] Memory required for data: 101528320
I1018 21:17:17.177690  6299 layer_factory.hpp:77] Creating layer conv9
I1018 21:17:17.177695  6299 net.cpp:100] Creating Layer conv9
I1018 21:17:17.177696  6299 net.cpp:434] conv9 <- conv8
I1018 21:17:17.177700  6299 net.cpp:408] conv9 -> conv9
I1018 21:17:17.178586  6299 net.cpp:150] Setting up conv9
I1018 21:17:17.178593  6299 net.cpp:157] Top shape: 64 10 1 1 (640)
I1018 21:17:17.178596  6299 net.cpp:165] Memory required for data: 101530880
I1018 21:17:17.178601  6299 layer_factory.hpp:77] Creating layer relu9
I1018 21:17:17.178606  6299 net.cpp:100] Creating Layer relu9
I1018 21:17:17.178607  6299 net.cpp:434] relu9 <- conv9
I1018 21:17:17.178611  6299 net.cpp:395] relu9 -> conv9 (in-place)
I1018 21:17:17.178800  6299 net.cpp:150] Setting up relu9
I1018 21:17:17.178807  6299 net.cpp:157] Top shape: 64 10 1 1 (640)
I1018 21:17:17.178809  6299 net.cpp:165] Memory required for data: 101533440
I1018 21:17:17.178812  6299 layer_factory.hpp:77] Creating layer pool
I1018 21:17:17.178817  6299 net.cpp:100] Creating Layer pool
I1018 21:17:17.178820  6299 net.cpp:434] pool <- conv9
I1018 21:17:17.178824  6299 net.cpp:408] pool -> pool
I1018 21:17:17.178957  6299 net.cpp:150] Setting up pool
I1018 21:17:17.178963  6299 net.cpp:157] Top shape: 64 10 1 1 (640)
I1018 21:17:17.178966  6299 net.cpp:165] Memory required for data: 101536000
I1018 21:17:17.178967  6299 layer_factory.hpp:77] Creating layer flatten
I1018 21:17:17.178982  6299 net.cpp:100] Creating Layer flatten
I1018 21:17:17.178984  6299 net.cpp:434] flatten <- pool
I1018 21:17:17.178988  6299 net.cpp:408] flatten -> flatten
I1018 21:17:17.179010  6299 net.cpp:150] Setting up flatten
I1018 21:17:17.179015  6299 net.cpp:157] Top shape: 64 10 (640)
I1018 21:17:17.179018  6299 net.cpp:165] Memory required for data: 101538560
I1018 21:17:17.179019  6299 layer_factory.hpp:77] Creating layer score
I1018 21:17:17.179023  6299 net.cpp:100] Creating Layer score
I1018 21:17:17.179026  6299 net.cpp:434] score <- flatten
I1018 21:17:17.179030  6299 net.cpp:408] score -> score
I1018 21:17:17.179113  6299 net.cpp:150] Setting up score
I1018 21:17:17.179118  6299 net.cpp:157] Top shape: 64 10 (640)
I1018 21:17:17.179119  6299 net.cpp:165] Memory required for data: 101541120
I1018 21:17:17.179124  6299 layer_factory.hpp:77] Creating layer score_score_0_split
I1018 21:17:17.179128  6299 net.cpp:100] Creating Layer score_score_0_split
I1018 21:17:17.179131  6299 net.cpp:434] score_score_0_split <- score
I1018 21:17:17.179134  6299 net.cpp:408] score_score_0_split -> score_score_0_split_0
I1018 21:17:17.179139  6299 net.cpp:408] score_score_0_split -> score_score_0_split_1
I1018 21:17:17.179167  6299 net.cpp:150] Setting up score_score_0_split
I1018 21:17:17.179172  6299 net.cpp:157] Top shape: 64 10 (640)
I1018 21:17:17.179173  6299 net.cpp:157] Top shape: 64 10 (640)
I1018 21:17:17.179175  6299 net.cpp:165] Memory required for data: 101546240
I1018 21:17:17.179177  6299 layer_factory.hpp:77] Creating layer accuracy
I1018 21:17:17.179183  6299 net.cpp:100] Creating Layer accuracy
I1018 21:17:17.179184  6299 net.cpp:434] accuracy <- score_score_0_split_0
I1018 21:17:17.179188  6299 net.cpp:434] accuracy <- label_data_1_split_0
I1018 21:17:17.179191  6299 net.cpp:408] accuracy -> accuracy
…
I1018 21:17:17.179641  6299 net.cpp:283] Network initialization done.
I1018 21:17:17.179795  6299 solver.cpp:181] Creating test net (#0) specified by test_net file: /home/adam/Honours/Honours-Project/mnist_allcnn/relu/allcnn_relu_test.prototxt
I1018 21:17:17.179889  6299 net.cpp:58] Initializing net from parameters: 
state {
  phase: TEST
}
layer {
  name: "data"
  type: "Data"
  top: "data"
  top: "label"
  transform_param {
    scale: 0.0039215689
  }
  data_param {
    source: "../../../data/mnist/mnist_train_lmdb"
    batch_size: 100
    backend: LMDB
  }
}
layer {
  name: "conv1"
  type: "Convolution"
  bottom: "data"
  top: "conv1"
  convolution_param {
    num_output: 96
    kernel_size: 3
    weight_filler {
      type: "xavier"
    }
  }
}
layer {
  name: "relu1"
  type: "ReLU"
  bottom: "conv1"
  top: "conv1"
}
layer {
  name: "conv2"
  type: "Convolution"
  bottom: "conv1"
  top: "conv2"
  convolution_param {
    num_output: 96
    kernel_size: 3
    weight_filler {
      type: "xavier"
    }
  }
}
layer {
  name: "bn1"
  type: "BatchNorm"
  bottom: "conv2"
  top: "bn1"
}
layer {
  name: "relu2"
  type: "ReLU"
  bottom: "bn1"
  top: "bn1"
}
layer {
  name: "conv3"
  type: "Convolution"
  bottom: "bn1"
  top: "conv3"
  convolution_param {
    num_output: 96
    kernel_size: 3
    stride: 2
    weight_filler {
      type: "xavier"
    }
  }
}
layer {
  name: "drop1"
  type: "Dropout"
  bottom: "conv3"
  top: "drop1"
  dropout_param {
    dropout_ratio: 0.5
  }
}
layer {
  name: "relu3"
  type: "ReLU"
  bottom: "drop1"
  top: "drop1"
}
layer {
  name: "conv4"
  type: "Convolution"
  bottom: "drop1"
  top: "conv4"
  convolution_param {
    num_output: 192
    kernel_size: 3
    weight_filler {
      type: "xavier"
    }
  }
}
layer {
  name: "relu4"
  type: "ReLU"
  bottom: "conv4"
  top: "conv4"
}
layer {
  name: "conv5"
  type: "Convolution"
  bottom: "conv4"
  top: "conv5"
  convolution_param {
    num_output: 192
    kernel_size: 3
    weight_filler {
      type: "xavier"
    }
  }
}
layer {
  name: "bn2"
  type: "BatchNorm"
  bottom: "conv5"
  top: "bn2"
}
layer {
  name: "relu5"
  type: "ReLU"
  bottom: "bn2"
  top: "bn2"
}
layer {
  name: "conv6"
  type: "Convolution"
  bottom: "bn2"
  top: "conv6"
  convolution_param {
    num_output: 192
    kernel_size: 3
    stride: 2
    weight_filler {
      type: "xavier"
    }
  }
}
layer {
  name: "drop4"
  type: "Dropout"
  bottom: "conv6"
  top: "drop4"
  dropout_param {
    dropout_ratio: 0.5
  }
}
layer {
  name: "relu6"
  type: "ReLU"
  bottom: "drop4"
  top: "drop4"
}
layer {
  name: "conv7"
  type: "Convolution"
  bottom: "drop4"
  top: "conv7"
  convolution_param {
    num_output: 192
    kernel_size: 3
    weight_filler {
      type: "xavier"
    }
  }
}
layer {
  name: "relu7"
  type: "ReLU"
  bottom: "conv7"
  top: "conv7"
}
layer {
  name: "conv8"
  type: "Convolution"
  bottom: "conv7"
  top: "conv8"
  convolution_param {
    num_output: 192
    kernel_size: 1
    weight_filler {
      type: "xavier"
    }
  }
}
layer {
  name: "relu8"
  type: "ReLU"
  bottom: "conv8"
  top: "conv8"
}
layer {
  name: "conv9"
  type: "Convolution"
  bottom: "conv8"
  top: "conv9"
  convolution_param {
    num_output: 10
    kernel_size: 1
    weight_filler {
      type: "xavier"
    }
  }
}
layer {
  name: "relu9"
  type: "ReLU"
  bottom: "conv9"
  top: "conv9"
}
layer {
  name: "pool"
  type: "Pooling"
  bottom: "conv9"
  top: "pool"
  pooling_param {
    pool: AVE
    global_pooling: true
  }
}
layer {
  name: "flatten"
  type: "Flatten"
  bottom: "pool"
  top: "flatten"
}
layer {
  name: "score"
  type: "InnerProduct"
  bottom: "flatten"
  top: "score"
  inner_product_param {
    num_output: 10
    weight_filler {
      type: "gaussian"
    }
  }
}
layer {
  name: "accuracy"
  type: "Accuracy"
  bottom: "score"
  bottom: "label"
  top: "accuracy"
}
layer {
  name: "loss"
  type: "SoftmaxWithLoss"
  bottom: "score"
  bottom: "label"
  top: "loss"
}
I1018 21:17:17.179975  6299 layer_factory.hpp:77] Creating layer data
I1018 21:17:17.180030  6299 net.cpp:100] Creating Layer data
I1018 21:17:17.180035  6299 net.cpp:408] data -> data
I1018 21:17:17.180043  6299 net.cpp:408] data -> label
