…
  stage: ""
}
type: "SGD"
I1011 07:37:26.703866 13347 solver.cpp:81] Creating training net from train_net file: /home/adam/Honours/Honours-Project/cifar-10_allcnn/relu/allcnn_relu_train.prototxt
I1011 07:37:26.704257 13347 net.cpp:58] Initializing net from parameters: 
state {
  phase: TRAIN
  level: 0
  stage: ""
}
layer {
  name: "data"
  type: "Data"
  top: "data"
  top: "label"
  transform_param {
    mean_file: "mean.binaryproto"
  }
  data_param {
    source: "../../../data/cifar-10/cifar10_train_lmdb"
    batch_size: 64
    backend: LMDB
  }
}
layer {
  name: "conv1"
  type: "Convolution"
  bottom: "data"
  top: "conv1"
  convolution_param {
    num_output: 96
    kernel_size: 3
    weight_filler {
      type: "xavier"
    }
  }
}
layer {
  name: "relu1"
  type: "ReLU"
  bottom: "conv1"
  top: "conv1"
}
layer {
  name: "conv2"
  type: "Convolution"
  bottom: "conv1"
  top: "conv2"
  convolution_param {
    num_output: 96
    kernel_size: 3
    weight_filler {
      type: "xavier"
    }
  }
}
layer {
  name: "bn1"
  type: "BatchNorm"
  bottom: "conv2"
  top: "bn1"
}
layer {
  name: "relu2"
  type: "ReLU"
  bottom: "bn1"
  top: "bn1"
}
layer {
  name: "drop1"
  type: "Dropout"
  bottom: "bn1"
  top: "drop1"
  dropout_param {
    dropout_ratio: 0.5
  }
}
layer {
  name: "conv3"
  type: "Convolution"
  bottom: "drop1"
  top: "conv3"
  convolution_param {
    num_output: 96
    kernel_size: 3
    stride: 2
    weight_filler {
      type: "xavier"
    }
  }
}
layer {
  name: "relu3"
  type: "ReLU"
  bottom: "conv3"
  top: "conv3"
}
layer {
  name: "conv4"
  type: "Convolution"
  bottom: "conv3"
  top: "conv4"
  convolution_param {
    num_output: 192
    kernel_size: 3
    weight_filler {
      type: "xavier"
    }
  }
}
layer {
  name: "relu4"
  type: "ReLU"
  bottom: "conv4"
  top: "conv4"
}
layer {
  name: "conv5"
  type: "Convolution"
  bottom: "conv4"
  top: "conv5"
  convolution_param {
    num_output: 192
    kernel_size: 3
    weight_filler {
      type: "xavier"
    }
  }
}
layer {
  name: "bn2"
  type: "BatchNorm"
  bottom: "conv5"
  top: "bn2"
}
layer {
  name: "relu5"
  type: "ReLU"
  bottom: "bn2"
  top: "bn2"
}
layer {
  name: "drop4"
  type: "Dropout"
  bottom: "bn2"
  top: "drop4"
  dropout_param {
    dropout_ratio: 0.5
  }
}
layer {
  name: "conv6"
  type: "Convolution"
  bottom: "drop4"
  top: "conv6"
  convolution_param {
    num_output: 192
    kernel_size: 3
    stride: 2
    weight_filler {
      type: "xavier"
    }
  }
}
layer {
  name: "relu6"
  type: "ReLU"
  bottom: "conv6"
  top: "conv6"
}
layer {
  name: "conv7"
  type: "Convolution"
  bottom: "conv6"
  top: "conv7"
  convolution_param {
    num_output: 192
    kernel_size: 3
    weight_filler {
      type: "xavier"
    }
  }
}
layer {
  name: "relu7"
  type: "ReLU"
  bottom: "conv7"
  top: "conv7"
}
layer {
  name: "conv8"
  type: "Convolution"
  bottom: "conv7"
  top: "conv8"
  convolution_param {
    num_output: 192
    kernel_size: 1
    weight_filler {
      type: "xavier"
    }
  }
}
layer {
  name: "relu8"
  type: "ReLU"
  bottom: "conv8"
  top: "conv8"
}
layer {
  name: "conv9"
  type: "Convolution"
  bottom: "conv8"
  top: "conv9"
  convolution_param {
    num_output: 10
    kernel_size: 1
    weight_filler {
      type: "xavier"
    }
  }
}
layer {
  name: "relu9"
  type: "ReLU"
  bottom: "conv9"
  top: "conv9"
}
layer {
  name: "pool"
  type: "Pooling"
  bottom: "conv9"
  top: "pool"
  pooling_param {
    pool: AVE
    global_pooling: true
  }
}
layer {
  name: "flatten"
  type: "Flatten"
  bottom: "pool"
  top: "flatten"
}
layer {
  name: "score"
  type: "InnerProduct"
  bottom: "flatten"
  top: "score"
  inner_product_param {
    num_output: 10
    weight_filler {
      type: "gaussian"
    }
  }
}
layer {
  name: "accuracy"
  type: "Accuracy"
  bottom: "score"
  bottom: "label"
  top: "accuracy"
}
layer {
  name: "loss"
  type: "SoftmaxWithLoss"
  bottom: "score"
  bottom: "label"
  top: "loss"
}
I1011 07:37:26.704416 13347 layer_factory.hpp:77] Creating layer data
I1011 07:37:26.704892 13347 net.cpp:100] Creating Layer data
I1011 07:37:26.704915 13347 net.cpp:408] data -> data
I1011 07:37:26.704959 13347 net.cpp:408] data -> label
I1011 07:37:26.704972 13347 data_transformer.cpp:25] Loading mean file from: mean.binaryproto
I1011 07:37:26.705672 13352 db_lmdb.cpp:35] Opened lmdb ../../../data/cifar-10/cifar10_train_lmdb
I1011 07:37:26.712008 13347 data_layer.cpp:41] output data size: 64,3,32,32
I1011 07:37:26.713646 13347 net.cpp:150] Setting up data
I1011 07:37:26.713691 13347 net.cpp:157] Top shape: 64 3 32 32 (196608)
I1011 07:37:26.713696 13347 net.cpp:157] Top shape: 64 (64)
I1011 07:37:26.713697 13347 net.cpp:165] Memory required for data: 786688
I1011 07:37:26.713706 13347 layer_factory.hpp:77] Creating layer label_data_1_split
I1011 07:37:26.713728 13347 net.cpp:100] Creating Layer label_data_1_split
I1011 07:37:26.713734 13347 net.cpp:434] label_data_1_split <- label
I1011 07:37:26.713757 13347 net.cpp:408] label_data_1_split -> label_data_1_split_0
I1011 07:37:26.713778 13347 net.cpp:408] label_data_1_split -> label_data_1_split_1
I1011 07:37:26.713811 13347 net.cpp:150] Setting up label_data_1_split
I1011 07:37:26.713817 13347 net.cpp:157] Top shape: 64 (64)
I1011 07:37:26.713820 13347 net.cpp:157] Top shape: 64 (64)
I1011 07:37:26.713822 13347 net.cpp:165] Memory required for data: 787200
I1011 07:37:26.713824 13347 layer_factory.hpp:77] Creating layer conv1
I1011 07:37:26.713836 13347 net.cpp:100] Creating Layer conv1
I1011 07:37:26.713838 13347 net.cpp:434] conv1 <- data
I1011 07:37:26.713858 13347 net.cpp:408] conv1 -> conv1
I1011 07:37:26.853971 13347 net.cpp:150] Setting up conv1
I1011 07:37:26.853996 13347 net.cpp:157] Top shape: 64 96 30 30 (5529600)
I1011 07:37:26.853998 13347 net.cpp:165] Memory required for data: 22905600
I1011 07:37:26.854015 13347 layer_factory.hpp:77] Creating layer relu1
I1011 07:37:26.854023 13347 net.cpp:100] Creating Layer relu1
I1011 07:37:26.854027 13347 net.cpp:434] relu1 <- conv1
I1011 07:37:26.854030 13347 net.cpp:395] relu1 -> conv1 (in-place)
I1011 07:37:26.854254 13347 net.cpp:150] Setting up relu1
I1011 07:37:26.854259 13347 net.cpp:157] Top shape: 64 96 30 30 (5529600)
I1011 07:37:26.854276 13347 net.cpp:165] Memory required for data: 45024000
I1011 07:37:26.854279 13347 layer_factory.hpp:77] Creating layer conv2
I1011 07:37:26.854300 13347 net.cpp:100] Creating Layer conv2
I1011 07:37:26.854303 13347 net.cpp:434] conv2 <- conv1
I1011 07:37:26.854321 13347 net.cpp:408] conv2 -> conv2
I1011 07:37:26.855877 13347 net.cpp:150] Setting up conv2
I1011 07:37:26.855890 13347 net.cpp:157] Top shape: 64 96 28 28 (4816896)
I1011 07:37:26.855892 13347 net.cpp:165] Memory required for data: 64291584
I1011 07:37:26.855900 13347 layer_factory.hpp:77] Creating layer bn1
I1011 07:37:26.855904 13347 net.cpp:100] Creating Layer bn1
I1011 07:37:26.855906 13347 net.cpp:434] bn1 <- conv2
I1011 07:37:26.855911 13347 net.cpp:408] bn1 -> bn1
I1011 07:37:26.856153 13347 net.cpp:150] Setting up bn1
I1011 07:37:26.856158 13347 net.cpp:157] Top shape: 64 96 28 28 (4816896)
I1011 07:37:26.856173 13347 net.cpp:165] Memory required for data: 83559168
I1011 07:37:26.856180 13347 layer_factory.hpp:77] Creating layer relu2
I1011 07:37:26.856184 13347 net.cpp:100] Creating Layer relu2
I1011 07:37:26.856186 13347 net.cpp:434] relu2 <- bn1
I1011 07:37:26.856189 13347 net.cpp:395] relu2 -> bn1 (in-place)
I1011 07:37:26.856384 13347 net.cpp:150] Setting up relu2
I1011 07:37:26.856390 13347 net.cpp:157] Top shape: 64 96 28 28 (4816896)
I1011 07:37:26.856418 13347 net.cpp:165] Memory required for data: 102826752
I1011 07:37:26.856421 13347 layer_factory.hpp:77] Creating layer drop1
I1011 07:37:26.856439 13347 net.cpp:100] Creating Layer drop1
I1011 07:37:26.856444 13347 net.cpp:434] drop1 <- bn1
I1011 07:37:26.856447 13347 net.cpp:408] drop1 -> drop1
I1011 07:37:26.856509 13347 net.cpp:150] Setting up drop1
I1011 07:37:26.856513 13347 net.cpp:157] Top shape: 64 96 28 28 (4816896)
I1011 07:37:26.856515 13347 net.cpp:165] Memory required for data: 122094336
I1011 07:37:26.856529 13347 layer_factory.hpp:77] Creating layer conv3
I1011 07:37:26.856536 13347 net.cpp:100] Creating Layer conv3
I1011 07:37:26.856539 13347 net.cpp:434] conv3 <- drop1
I1011 07:37:26.856555 13347 net.cpp:408] conv3 -> conv3
I1011 07:37:26.857918 13347 net.cpp:150] Setting up conv3
I1011 07:37:26.857928 13347 net.cpp:157] Top shape: 64 96 13 13 (1038336)
I1011 07:37:26.857929 13347 net.cpp:165] Memory required for data: 126247680
I1011 07:37:26.857936 13347 layer_factory.hpp:77] Creating layer relu3
I1011 07:37:26.857940 13347 net.cpp:100] Creating Layer relu3
I1011 07:37:26.857942 13347 net.cpp:434] relu3 <- conv3
I1011 07:37:26.857945 13347 net.cpp:395] relu3 -> conv3 (in-place)
I1011 07:37:26.858250 13347 net.cpp:150] Setting up relu3
I1011 07:37:26.858273 13347 net.cpp:157] Top shape: 64 96 13 13 (1038336)
I1011 07:37:26.858275 13347 net.cpp:165] Memory required for data: 130401024
I1011 07:37:26.858278 13347 layer_factory.hpp:77] Creating layer conv4
I1011 07:37:26.858283 13347 net.cpp:100] Creating Layer conv4
I1011 07:37:26.858285 13347 net.cpp:434] conv4 <- conv3
I1011 07:37:26.858289 13347 net.cpp:408] conv4 -> conv4
I1011 07:37:26.860309 13347 net.cpp:150] Setting up conv4
I1011 07:37:26.860321 13347 net.cpp:157] Top shape: 64 192 11 11 (1486848)
I1011 07:37:26.860324 13347 net.cpp:165] Memory required for data: 136348416
I1011 07:37:26.860329 13347 layer_factory.hpp:77] Creating layer relu4
I1011 07:37:26.860333 13347 net.cpp:100] Creating Layer relu4
I1011 07:37:26.860335 13347 net.cpp:434] relu4 <- conv4
I1011 07:37:26.860338 13347 net.cpp:395] relu4 -> conv4 (in-place)
I1011 07:37:26.860584 13347 net.cpp:150] Setting up relu4
I1011 07:37:26.860591 13347 net.cpp:157] Top shape: 64 192 11 11 (1486848)
I1011 07:37:26.860607 13347 net.cpp:165] Memory required for data: 142295808
I1011 07:37:26.860610 13347 layer_factory.hpp:77] Creating layer conv5
I1011 07:37:26.860630 13347 net.cpp:100] Creating Layer conv5
I1011 07:37:26.860631 13347 net.cpp:434] conv5 <- conv4
I1011 07:37:26.860635 13347 net.cpp:408] conv5 -> conv5
I1011 07:37:26.863397 13347 net.cpp:150] Setting up conv5
I1011 07:37:26.863411 13347 net.cpp:157] Top shape: 64 192 9 9 (995328)
I1011 07:37:26.863415 13347 net.cpp:165] Memory required for data: 146277120
I1011 07:37:26.863420 13347 layer_factory.hpp:77] Creating layer bn2
I1011 07:37:26.863425 13347 net.cpp:100] Creating Layer bn2
I1011 07:37:26.863427 13347 net.cpp:434] bn2 <- conv5
I1011 07:37:26.863431 13347 net.cpp:408] bn2 -> bn2
I1011 07:37:26.863673 13347 net.cpp:150] Setting up bn2
I1011 07:37:26.863679 13347 net.cpp:157] Top shape: 64 192 9 9 (995328)
I1011 07:37:26.863695 13347 net.cpp:165] Memory required for data: 150258432
I1011 07:37:26.863700 13347 layer_factory.hpp:77] Creating layer relu5
I1011 07:37:26.863704 13347 net.cpp:100] Creating Layer relu5
I1011 07:37:26.863706 13347 net.cpp:434] relu5 <- bn2
I1011 07:37:26.863710 13347 net.cpp:395] relu5 -> bn2 (in-place)
I1011 07:37:26.863909 13347 net.cpp:150] Setting up relu5
I1011 07:37:26.863915 13347 net.cpp:157] Top shape: 64 192 9 9 (995328)
I1011 07:37:26.863931 13347 net.cpp:165] Memory required for data: 154239744
I1011 07:37:26.863934 13347 layer_factory.hpp:77] Creating layer drop4
I1011 07:37:26.863939 13347 net.cpp:100] Creating Layer drop4
I1011 07:37:26.863940 13347 net.cpp:434] drop4 <- bn2
I1011 07:37:26.863945 13347 net.cpp:408] drop4 -> drop4
I1011 07:37:26.864018 13347 net.cpp:150] Setting up drop4
I1011 07:37:26.864037 13347 net.cpp:157] Top shape: 64 192 9 9 (995328)
I1011 07:37:26.864038 13347 net.cpp:165] Memory required for data: 158221056
I1011 07:37:26.864063 13347 layer_factory.hpp:77] Creating layer conv6
I1011 07:37:26.864095 13347 net.cpp:100] Creating Layer conv6
I1011 07:37:26.864097 13347 net.cpp:434] conv6 <- drop4
I1011 07:37:26.864101 13347 net.cpp:408] conv6 -> conv6
I1011 07:37:26.866976 13347 net.cpp:150] Setting up conv6
I1011 07:37:26.866996 13347 net.cpp:157] Top shape: 64 192 4 4 (196608)
I1011 07:37:26.866997 13347 net.cpp:165] Memory required for data: 159007488
I1011 07:37:26.867023 13347 layer_factory.hpp:77] Creating layer relu6
I1011 07:37:26.867029 13347 net.cpp:100] Creating Layer relu6
I1011 07:37:26.867033 13347 net.cpp:434] relu6 <- conv6
I1011 07:37:26.867053 13347 net.cpp:395] relu6 -> conv6 (in-place)
I1011 07:37:26.867338 13347 net.cpp:150] Setting up relu6
I1011 07:37:26.867350 13347 net.cpp:157] Top shape: 64 192 4 4 (196608)
I1011 07:37:26.867352 13347 net.cpp:165] Memory required for data: 159793920
I1011 07:37:26.867355 13347 layer_factory.hpp:77] Creating layer conv7
I1011 07:37:26.867362 13347 net.cpp:100] Creating Layer conv7
I1011 07:37:26.867365 13347 net.cpp:434] conv7 <- conv6
I1011 07:37:26.867372 13347 net.cpp:408] conv7 -> conv7
I1011 07:37:26.870101 13347 net.cpp:150] Setting up conv7
I1011 07:37:26.870121 13347 net.cpp:157] Top shape: 64 192 2 2 (49152)
I1011 07:37:26.870122 13347 net.cpp:165] Memory required for data: 159990528
I1011 07:37:26.870128 13347 layer_factory.hpp:77] Creating layer relu7
I1011 07:37:26.870134 13347 net.cpp:100] Creating Layer relu7
I1011 07:37:26.870136 13347 net.cpp:434] relu7 <- conv7
I1011 07:37:26.870141 13347 net.cpp:395] relu7 -> conv7 (in-place)
I1011 07:37:26.870440 13347 net.cpp:150] Setting up relu7
I1011 07:37:26.870461 13347 net.cpp:157] Top shape: 64 192 2 2 (49152)
I1011 07:37:26.870463 13347 net.cpp:165] Memory required for data: 160187136
I1011 07:37:26.870466 13347 layer_factory.hpp:77] Creating layer conv8
I1011 07:37:26.870476 13347 net.cpp:100] Creating Layer conv8
I1011 07:37:26.870478 13347 net.cpp:434] conv8 <- conv7
I1011 07:37:26.870496 13347 net.cpp:408] conv8 -> conv8
I1011 07:37:26.871969 13347 net.cpp:150] Setting up conv8
I1011 07:37:26.871981 13347 net.cpp:157] Top shape: 64 192 2 2 (49152)
I1011 07:37:26.871984 13347 net.cpp:165] Memory required for data: 160383744
I1011 07:37:26.871989 13347 layer_factory.hpp:77] Creating layer relu8
I1011 07:37:26.871992 13347 net.cpp:100] Creating Layer relu8
I1011 07:37:26.871994 13347 net.cpp:434] relu8 <- conv8
I1011 07:37:26.871999 13347 net.cpp:395] relu8 -> conv8 (in-place)
I1011 07:37:26.872211 13347 net.cpp:150] Setting up relu8
I1011 07:37:26.872218 13347 net.cpp:157] Top shape: 64 192 2 2 (49152)
I1011 07:37:26.872234 13347 net.cpp:165] Memory required for data: 160580352
I1011 07:37:26.872236 13347 layer_factory.hpp:77] Creating layer conv9
I1011 07:37:26.872243 13347 net.cpp:100] Creating Layer conv9
I1011 07:37:26.872246 13347 net.cpp:434] conv9 <- conv8
I1011 07:37:26.872251 13347 net.cpp:408] conv9 -> conv9
I1011 07:37:26.873210 13347 net.cpp:150] Setting up conv9
I1011 07:37:26.873221 13347 net.cpp:157] Top shape: 64 10 2 2 (2560)
I1011 07:37:26.873224 13347 net.cpp:165] Memory required for data: 160590592
I1011 07:37:26.873227 13347 layer_factory.hpp:77] Creating layer relu9
I1011 07:37:26.873231 13347 net.cpp:100] Creating Layer relu9
I1011 07:37:26.873234 13347 net.cpp:434] relu9 <- conv9
I1011 07:37:26.873236 13347 net.cpp:395] relu9 -> conv9 (in-place)
I1011 07:37:26.873548 13347 net.cpp:150] Setting up relu9
I1011 07:37:26.873571 13347 net.cpp:157] Top shape: 64 10 2 2 (2560)
I1011 07:37:26.873574 13347 net.cpp:165] Memory required for data: 160600832
I1011 07:37:26.873575 13347 layer_factory.hpp:77] Creating layer pool
I1011 07:37:26.873580 13347 net.cpp:100] Creating Layer pool
I1011 07:37:26.873582 13347 net.cpp:434] pool <- conv9
I1011 07:37:26.873586 13347 net.cpp:408] pool -> pool
I1011 07:37:26.873867 13347 net.cpp:150] Setting up pool
I1011 07:37:26.873874 13347 net.cpp:157] Top shape: 64 10 1 1 (640)
I1011 07:37:26.873888 13347 net.cpp:165] Memory required for data: 160603392
I1011 07:37:26.873901 13347 layer_factory.hpp:77] Creating layer flatten
I1011 07:37:26.873919 13347 net.cpp:100] Creating Layer flatten
I1011 07:37:26.873922 13347 net.cpp:434] flatten <- pool
I1011 07:37:26.873942 13347 net.cpp:408] flatten -> flatten
I1011 07:37:26.873978 13347 net.cpp:150] Setting up flatten
I1011 07:37:26.873996 13347 net.cpp:157] Top shape: 64 10 (640)
I1011 07:37:26.873998 13347 net.cpp:165] Memory required for data: 160605952
I1011 07:37:26.874001 13347 layer_factory.hpp:77] Creating layer score
I1011 07:37:26.874004 13347 net.cpp:100] Creating Layer score
I1011 07:37:26.874034 13347 net.cpp:434] score <- flatten
I1011 07:37:26.874042 13347 net.cpp:408] score -> score
I1011 07:37:26.874178 13347 net.cpp:150] Setting up score
I1011 07:37:26.874183 13347 net.cpp:157] Top shape: 64 10 (640)
I1011 07:37:26.874186 13347 net.cpp:165] Memory required for data: 160608512
I1011 07:37:26.874191 13347 layer_factory.hpp:77] Creating layer score_score_0_split
I1011 07:37:26.874194 13347 net.cpp:100] Creating Layer score_score_0_split
I1011 07:37:26.874197 13347 net.cpp:434] score_score_0_split <- score
I1011 07:37:26.874202 13347 net.cpp:408] score_score_0_split -> score_score_0_split_0
I1011 07:37:26.874207 13347 net.cpp:408] score_score_0_split -> score_score_0_split_1
I1011 07:37:26.874248 13347 net.cpp:150] Setting up score_score_0_split
I1011 07:37:26.874254 13347 net.cpp:157] Top shape: 64 10 (640)
I1011 07:37:26.874258 13347 net.cpp:157] Top shape: 64 10 (640)
I1011 07:37:26.874259 13347 net.cpp:165] Memory required for data: 160613632
I1011 07:37:26.874261 13347 layer_factory.hpp:77] Creating layer accuracy
I1011 07:37:26.874266 13347 net.cpp:100] Creating Layer accuracy
I1011 07:37:26.874269 13347 net.cpp:434] accuracy <- score_score_0_split_0
I1011 07:37:26.874272 13347 net.cpp:434] accuracy <- label_data_1_split_0
I1011 07:37:26.874275 13347 net.cpp:408] accuracy -> accuracy
…
I1011 07:37:26.874809 13347 net.cpp:283] Network initialization done.
I1011 07:37:26.875000 13347 solver.cpp:181] Creating test net (#0) specified by test_net file: /home/adam/Honours/Honours-Project/cifar-10_allcnn/relu/allcnn_relu_test.prototxt
I1011 07:37:26.875109 13347 net.cpp:58] Initializing net from parameters: 
state {
  phase: TEST
}
layer {
  name: "data"
  type: "Data"
  top: "data"
  top: "label"
  transform_param {
    mean_file: "mean.binaryproto"
  }
  data_param {
    source: "../../../data/cifar-10/cifar10_test_lmdb"
    batch_size: 100
    backend: LMDB
  }
}
layer {
  name: "conv1"
  type: "Convolution"
  bottom: "data"
  top: "conv1"
  convolution_param {
    num_output: 96
    kernel_size: 3
    weight_filler {
      type: "xavier"
    }
  }
}
layer {
  name: "relu1"
  type: "ReLU"
  bottom: "conv1"
  top: "conv1"
}
layer {
  name: "conv2"
  type: "Convolution"
  bottom: "conv1"
  top: "conv2"
  convolution_param {
    num_output: 96
    kernel_size: 3
    weight_filler {
      type: "xavier"
    }
  }
}
layer {
  name: "bn1"
  type: "BatchNorm"
  bottom: "conv2"
  top: "bn1"
}
layer {
  name: "relu2"
  type: "ReLU"
  bottom: "bn1"
  top: "bn1"
}
layer {
  name: "drop1"
  type: "Dropout"
  bottom: "bn1"
  top: "drop1"
  dropout_param {
    dropout_ratio: 0.5
  }
}
layer {
  name: "conv3"
  type: "Convolution"
  bottom: "drop1"
  top: "conv3"
  convolution_param {
    num_output: 96
    kernel_size: 3
    stride: 2
    weight_filler {
      type: "xavier"
    }
  }
}
layer {
  name: "relu3"
  type: "ReLU"
  bottom: "conv3"
  top: "conv3"
}
layer {
  name: "conv4"
  type: "Convolution"
  bottom: "conv3"
  top: "conv4"
  convolution_param {
    num_output: 192
    kernel_size: 3
    weight_filler {
      type: "xavier"
    }
  }
}
layer {
  name: "relu4"
  type: "ReLU"
  bottom: "conv4"
  top: "conv4"
}
layer {
  name: "conv5"
  type: "Convolution"
  bottom: "conv4"
  top: "conv5"
  convolution_param {
    num_output: 192
    kernel_size: 3
    weight_filler {
      type: "xavier"
    }
  }
}
layer {
  name: "bn2"
  type: "BatchNorm"
  bottom: "conv5"
  top: "bn2"
}
layer {
  name: "relu5"
  type: "ReLU"
  bottom: "bn2"
  top: "bn2"
}
layer {
  name: "drop4"
  type: "Dropout"
  bottom: "bn2"
  top: "drop4"
  dropout_param {
    dropout_ratio: 0.5
  }
}
layer {
  name: "conv6"
  type: "Convolution"
  bottom: "drop4"
  top: "conv6"
  convolution_param {
    num_output: 192
    kernel_size: 3
    stride: 2
    weight_filler {
      type: "xavier"
    }
  }
}
layer {
  name: "relu6"
  type: "ReLU"
  bottom: "conv6"
  top: "conv6"
}
layer {
  name: "conv7"
  type: "Convolution"
  bottom: "conv6"
  top: "conv7"
  convolution_param {
    num_output: 192
    kernel_size: 3
    weight_filler {
      type: "xavier"
    }
  }
}
layer {
  name: "relu7"
  type: "ReLU"
  bottom: "conv7"
  top: "conv7"
}
layer {
  name: "conv8"
  type: "Convolution"
  bottom: "conv7"
  top: "conv8"
  convolution_param {
    num_output: 192
    kernel_size: 1
    weight_filler {
      type: "xavier"
    }
  }
}
layer {
  name: "relu8"
  type: "ReLU"
  bottom: "conv8"
  top: "conv8"
}
layer {
  name: "conv9"
  type: "Convolution"
  bottom: "conv8"
  top: "conv9"
  convolution_param {
    num_output: 10
    kernel_size: 1
    weight_filler {
      type: "xavier"
    }
  }
}
layer {
  name: "relu9"
  type: "ReLU"
  bottom: "conv9"
  top: "conv9"
}
layer {
  name: "pool"
  type: "Pooling"
  bottom: "conv9"
  top: "pool"
  pooling_param {
    pool: AVE
    global_pooling: true
  }
}
layer {
  name: "flatten"
  type: "Flatten"
  bottom: "pool"
  top: "flatten"
}
layer {
  name: "score"
  type: "InnerProduct"
  bottom: "flatten"
  top: "score"
  inner_product_param {
    num_output: 10
    weight_filler {
      type: "gaussian"
    }
  }
}
layer {
  name: "accuracy"
  type: "Accuracy"
  bottom: "score"
  bottom: "label"
  top: "accuracy"
}
layer {
  name: "loss"
  type: "SoftmaxWithLoss"
  bottom: "score"
  bottom: "label"
  top: "loss"
}
I1011 07:37:26.875201 13347 layer_factory.hpp:77] Creating layer data
I1011 07:37:26.875286 13347 net.cpp:100] Creating Layer data
I1011 07:37:26.875291 13347 net.cpp:408] data -> data
I1011 07:37:26.875298 13347 net.cpp:408] data -> label
I1011 07:37:26.875303 13347 data_transformer.cpp:25] Loading mean file from: mean.binaryproto
I1011 07:37:26.876092 13354 db_lmdb.cpp:35] Opened lmdb ../../../data/cifar-10/cifar10_test_lmdb
I1011 07:37:26.876274 13347 data_layer.cpp:41] output data size: 100,3,32,32
I1011 07:37:26.878397 13347 net.cpp:150] Setting up data
I1011 07:37:26.878419 13347 net.cpp:157] Top shape: 100 3 32 32 (307200)
I1011 07:37:26.878437 13347 net.cpp:157] Top shape: 100 (100)
I1011 07:37:26.878439 13347 net.cpp:165] Memory required for data: 1229200
I1011 07:37:26.878458 13347 layer_factory.hpp:77] Creating layer label_data_1_split
I1011 07:37:26.878468 13347 net.cpp:100] Creating Layer label_data_1_split
I1011 07:37:26.878470 13347 net.cpp:434] label_data_1_split <- label
I1011 07:37:26.878476 13347 net.cpp:408] label_data_1_split -> label_data_1_split_0
I1011 07:37:26.878484 13347 net.cpp:408] label_data_1_split -> label_data_1_split_1
I1011 07:37:26.878553 13347 net.cpp:150] Setting up label_data_1_split
I1011 07:37:26.878561 13347 net.cpp:157] Top shape: 100 (100)
I1011 07:37:26.878563 13347 net.cpp:157] Top shape: 100 (100)
I1011 07:37:26.878564 13347 net.cpp:165] Memory required for data: 1230000
I1011 07:37:26.878567 13347 layer_factory.hpp:77] Creating layer conv1
I1011 07:37:26.878590 13347 net.cpp:100] Creating Layer conv1
I1011 07:37:26.878592 13347 net.cpp:434] conv1 <- data
I1011 07:37:26.878597 13347 net.cpp:408] conv1 -> conv1
I1011 07:37:26.879803 13347 net.cpp:150] Setting up conv1
I1011 07:37:26.879817 13347 net.cpp:157] Top shape: 100 96 30 30 (8640000)
I1011 07:37:26.879819 13347 net.cpp:165] Memory required for data: 35790000
I1011 07:37:26.879828 13347 layer_factory.hpp:77] Creating layer relu1
I1011 07:37:26.879834 13347 net.cpp:100] Creating Layer relu1
I1011 07:37:26.879838 13347 net.cpp:434] relu1 <- conv1
I1011 07:37:26.879842 13347 net.cpp:395] relu1 -> conv1 (in-place)
I1011 07:37:26.879993 13347 net.cpp:150] Setting up relu1
I1011 07:37:26.880000 13347 net.cpp:157] Top shape: 100 96 30 30 (8640000)
I1011 07:37:26.880002 13347 net.cpp:165] Memory required for data: 70350000
I1011 07:37:26.880004 13347 layer_factory.hpp:77] Creating layer conv2
I1011 07:37:26.880012 13347 net.cpp:100] Creating Layer conv2
I1011 07:37:26.880015 13347 net.cpp:434] conv2 <- conv1
I1011 07:37:26.880020 13347 net.cpp:408] conv2 -> conv2
I1011 07:37:26.881314 13347 net.cpp:150] Setting up conv2
I1011 07:37:26.881342 13347 net.cpp:157] Top shape: 100 96 28 28 (7526400)
I1011 07:37:26.881347 13347 net.cpp:165] Memory required for data: 100455600
I1011 07:37:26.881358 13347 layer_factory.hpp:77] Creating layer bn1
I1011 07:37:26.881364 13347 net.cpp:100] Creating Layer bn1
I1011 07:37:26.881366 13347 net.cpp:434] bn1 <- conv2
I1011 07:37:26.881392 13347 net.cpp:408] bn1 -> bn1
I1011 07:37:26.881598 13347 net.cpp:150] Setting up bn1
I1011 07:37:26.881604 13347 net.cpp:157] Top shape: 100 96 28 28 (7526400)
I1011 07:37:26.881606 13347 net.cpp:165] Memory required for data: 130561200
I1011 07:37:26.881613 13347 layer_factory.hpp:77] Creating layer relu2
I1011 07:37:26.881619 13347 net.cpp:100] Creating Layer relu2
I1011 07:37:26.881623 13347 net.cpp:434] relu2 <- bn1
I1011 07:37:26.881625 13347 net.cpp:395] relu2 -> bn1 (in-place)
I1011 07:37:26.881963 13347 net.cpp:150] Setting up relu2
I1011 07:37:26.881973 13347 net.cpp:157] Top shape: 100 96 28 28 (7526400)
I1011 07:37:26.881976 13347 net.cpp:165] Memory required for data: 160666800
I1011 07:37:26.881978 13347 layer_factory.hpp:77] Creating layer drop1
I1011 07:37:26.881984 13347 net.cpp:100] Creating Layer drop1
I1011 07:37:26.881986 13347 net.cpp:434] drop1 <- bn1
I1011 07:37:26.881991 13347 net.cpp:408] drop1 -> drop1
I1011 07:37:26.882026 13347 net.cpp:150] Setting up drop1
I1011 07:37:26.882033 13347 net.cpp:157] Top shape: 100 96 28 28 (7526400)
I1011 07:37:26.882035 13347 net.cpp:165] Memory required for data: 190772400
I1011 07:37:26.882037 13347 layer_factory.hpp:77] Creating layer conv3
I1011 07:37:26.882046 13347 net.cpp:100] Creating Layer conv3
I1011 07:37:26.882048 13347 net.cpp:434] conv3 <- drop1
I1011 07:37:26.882052 13347 net.cpp:408] conv3 -> conv3
I1011 07:37:26.883200 13347 net.cpp:150] Setting up conv3
I1011 07:37:26.883210 13347 net.cpp:157] Top shape: 100 96 13 13 (1622400)
I1011 07:37:26.883213 13347 net.cpp:165] Memory required for data: 197262000
I1011 07:37:26.883220 13347 layer_factory.hpp:77] Creating layer relu3
I1011 07:37:26.883225 13347 net.cpp:100] Creating Layer relu3
I1011 07:37:26.883229 13347 net.cpp:434] relu3 <- conv3
I1011 07:37:26.883234 13347 net.cpp:395] relu3 -> conv3 (in-place)
I1011 07:37:26.883472 13347 net.cpp:150] Setting up relu3
I1011 07:37:26.883496 13347 net.cpp:157] Top shape: 100 96 13 13 (1622400)
I1011 07:37:26.883500 13347 net.cpp:165] Memory required for data: 203751600
I1011 07:37:26.883503 13347 layer_factory.hpp:77] Creating layer conv4
I1011 07:37:26.883509 13347 net.cpp:100] Creating Layer conv4
I1011 07:37:26.883512 13347 net.cpp:434] conv4 <- conv3
I1011 07:37:26.883517 13347 net.cpp:408] conv4 -> conv4
I1011 07:37:26.885556 13347 net.cpp:150] Setting up conv4
I1011 07:37:26.885576 13347 net.cpp:157] Top shape: 100 192 11 11 (2323200)
I1011 07:37:26.885578 13347 net.cpp:165] Memory required for data: 213044400
I1011 07:37:26.885598 13347 layer_factory.hpp:77] Creating layer relu4
I1011 07:37:26.885604 13347 net.cpp:100] Creating Layer relu4
I1011 07:37:26.885622 13347 net.cpp:434] relu4 <- conv4
I1011 07:37:26.885627 13347 net.cpp:395] relu4 -> conv4 (in-place)
I1011 07:37:26.885784 13347 net.cpp:150] Setting up relu4
I1011 07:37:26.885792 13347 net.cpp:157] Top shape: 100 192 11 11 (2323200)
I1011 07:37:26.885794 13347 net.cpp:165] Memory required for data: 222337200
I1011 07:37:26.885797 13347 layer_factory.hpp:77] Creating layer conv5
I1011 07:37:26.885804 13347 net.cpp:100] Creating Layer conv5
I1011 07:37:26.885821 13347 net.cpp:434] conv5 <- conv4
I1011 07:37:26.885825 13347 net.cpp:408] conv5 -> conv5
I1011 07:37:26.888784 13347 net.cpp:150] Setting up conv5
I1011 07:37:26.888803 13347 net.cpp:157] Top shape: 100 192 9 9 (1555200)
I1011 07:37:26.888805 13347 net.cpp:165] Memory required for data: 228558000
I1011 07:37:26.888810 13347 layer_factory.hpp:77] Creating layer bn2
I1011 07:37:26.888815 13347 net.cpp:100] Creating Layer bn2
I1011 07:37:26.888818 13347 net.cpp:434] bn2 <- conv5
I1011 07:37:26.888821 13347 net.cpp:408] bn2 -> bn2
I1011 07:37:26.889063 13347 net.cpp:150] Setting up bn2
I1011 07:37:26.889070 13347 net.cpp:157] Top shape: 100 192 9 9 (1555200)
I1011 07:37:26.889071 13347 net.cpp:165] Memory required for data: 234778800
I1011 07:37:26.889076 13347 layer_factory.hpp:77] Creating layer relu5
I1011 07:37:26.889081 13347 net.cpp:100] Creating Layer relu5
I1011 07:37:26.889084 13347 net.cpp:434] relu5 <- bn2
I1011 07:37:26.889097 13347 net.cpp:395] relu5 -> bn2 (in-place)
I1011 07:37:26.889379 13347 net.cpp:150] Setting up relu5
I1011 07:37:26.889387 13347 net.cpp:157] Top shape: 100 192 9 9 (1555200)
I1011 07:37:26.889389 13347 net.cpp:165] Memory required for data: 240999600
I1011 07:37:26.889391 13347 layer_factory.hpp:77] Creating layer drop4
I1011 07:37:26.889396 13347 net.cpp:100] Creating Layer drop4
I1011 07:37:26.889399 13347 net.cpp:434] drop4 <- bn2
I1011 07:37:26.889402 13347 net.cpp:408] drop4 -> drop4
I1011 07:37:26.889467 13347 net.cpp:150] Setting up drop4
I1011 07:37:26.889472 13347 net.cpp:157] Top shape: 100 192 9 9 (1555200)
I1011 07:37:26.889487 13347 net.cpp:165] Memory required for data: 247220400
I1011 07:37:26.889489 13347 layer_factory.hpp:77] Creating layer conv6
I1011 07:37:26.889499 13347 net.cpp:100] Creating Layer conv6
I1011 07:37:26.889502 13347 net.cpp:434] conv6 <- drop4
I1011 07:37:26.889505 13347 net.cpp:408] conv6 -> conv6
I1011 07:37:26.892256 13347 net.cpp:150] Setting up conv6
I1011 07:37:26.892267 13347 net.cpp:157] Top shape: 100 192 4 4 (307200)
I1011 07:37:26.892271 13347 net.cpp:165] Memory required for data: 248449200
I1011 07:37:26.892278 13347 layer_factory.hpp:77] Creating layer relu6
I1011 07:37:26.892283 13347 net.cpp:100] Creating Layer relu6
I1011 07:37:26.892287 13347 net.cpp:434] relu6 <- conv6
I1011 07:37:26.892289 13347 net.cpp:395] relu6 -> conv6 (in-place)
I1011 07:37:26.892627 13347 net.cpp:150] Setting up relu6
I1011 07:37:26.892650 13347 net.cpp:157] Top shape: 100 192 4 4 (307200)
I1011 07:37:26.892652 13347 net.cpp:165] Memory required for data: 249678000
I1011 07:37:26.892655 13347 layer_factory.hpp:77] Creating layer conv7
I1011 07:37:26.892663 13347 net.cpp:100] Creating Layer conv7
I1011 07:37:26.892664 13347 net.cpp:434] conv7 <- conv6
I1011 07:37:26.892669 13347 net.cpp:408] conv7 -> conv7
I1011 07:37:26.895515 13347 net.cpp:150] Setting up conv7
I1011 07:37:26.895527 13347 net.cpp:157] Top shape: 100 192 2 2 (76800)
I1011 07:37:26.895530 13347 net.cpp:165] Memory required for data: 249985200
I1011 07:37:26.895535 13347 layer_factory.hpp:77] Creating layer relu7
I1011 07:37:26.895540 13347 net.cpp:100] Creating Layer relu7
I1011 07:37:26.895542 13347 net.cpp:434] relu7 <- conv7
I1011 07:37:26.895545 13347 net.cpp:395] relu7 -> conv7 (in-place)
I1011 07:37:26.895762 13347 net.cpp:150] Setting up relu7
I1011 07:37:26.895769 13347 net.cpp:157] Top shape: 100 192 2 2 (76800)
I1011 07:37:26.895786 13347 net.cpp:165] Memory required for data: 250292400
I1011 07:37:26.895787 13347 layer_factory.hpp:77] Creating layer conv8
I1011 07:37:26.895797 13347 net.cpp:100] Creating Layer conv8
I1011 07:37:26.895798 13347 net.cpp:434] conv8 <- conv7
I1011 07:37:26.895802 13347 net.cpp:408] conv8 -> conv8
I1011 07:37:26.896962 13347 net.cpp:150] Setting up conv8
I1011 07:37:26.896972 13347 net.cpp:157] Top shape: 100 192 2 2 (76800)
I1011 07:37:26.896975 13347 net.cpp:165] Memory required for data: 250599600
I1011 07:37:26.896978 13347 layer_factory.hpp:77] Creating layer relu8
I1011 07:37:26.896983 13347 net.cpp:100] Creating Layer relu8
I1011 07:37:26.896986 13347 net.cpp:434] relu8 <- conv8
I1011 07:37:26.896988 13347 net.cpp:395] relu8 -> conv8 (in-place)
I1011 07:37:26.897307 13347 net.cpp:150] Setting up relu8
I1011 07:37:26.897330 13347 net.cpp:157] Top shape: 100 192 2 2 (76800)
I1011 07:37:26.897333 13347 net.cpp:165] Memory required for data: 250906800
I1011 07:37:26.897336 13347 layer_factory.hpp:77] Creating layer conv9
I1011 07:37:26.897341 13347 net.cpp:100] Creating Layer conv9
I1011 07:37:26.897344 13347 net.cpp:434] conv9 <- conv8
I1011 07:37:26.897349 13347 net.cpp:408] conv9 -> conv9
I1011 07:37:26.898257 13347 net.cpp:150] Setting up conv9
I1011 07:37:26.898267 13347 net.cpp:157] Top shape: 100 10 2 2 (4000)
I1011 07:37:26.898270 13347 net.cpp:165] Memory required for data: 250922800
I1011 07:37:26.898274 13347 layer_factory.hpp:77] Creating layer relu9
I1011 07:37:26.898278 13347 net.cpp:100] Creating Layer relu9
I1011 07:37:26.898280 13347 net.cpp:434] relu9 <- conv9
I1011 07:37:26.898293 13347 net.cpp:395] relu9 -> conv9 (in-place)
I1011 07:37:26.898598 13347 net.cpp:150] Setting up relu9
I1011 07:37:26.898622 13347 net.cpp:157] Top shape: 100 10 2 2 (4000)
I1011 07:37:26.898623 13347 net.cpp:165] Memory required for data: 250938800
I1011 07:37:26.898627 13347 layer_factory.hpp:77] Creating layer pool
I1011 07:37:26.898644 13347 net.cpp:100] Creating Layer pool
I1011 07:37:26.898646 13347 net.cpp:434] pool <- conv9
I1011 07:37:26.898651 13347 net.cpp:408] pool -> pool
I1011 07:37:26.898881 13347 net.cpp:150] Setting up pool
I1011 07:37:26.898887 13347 net.cpp:157] Top shape: 100 10 1 1 (1000)
I1011 07:37:26.898902 13347 net.cpp:165] Memory required for data: 250942800
I1011 07:37:26.898905 13347 layer_factory.hpp:77] Creating layer flatten
I1011 07:37:26.898910 13347 net.cpp:100] Creating Layer flatten
I1011 07:37:26.898924 13347 net.cpp:434] flatten <- pool
I1011 07:37:26.898927 13347 net.cpp:408] flatten -> flatten
I1011 07:37:26.898964 13347 net.cpp:150] Setting up flatten
I1011 07:37:26.898969 13347 net.cpp:157] Top shape: 100 10 (1000)
I1011 07:37:26.898972 13347 net.cpp:165] Memory required for data: 250946800
I1011 07:37:26.898973 13347 layer_factory.hpp:77] Creating layer score
I1011 07:37:26.898977 13347 net.cpp:100] Creating Layer score
I1011 07:37:26.898980 13347 net.cpp:434] score <- flatten
I1011 07:37:26.898984 13347 net.cpp:408] score -> score
I1011 07:37:26.899106 13347 net.cpp:150] Setting up score
I1011 07:37:26.899111 13347 net.cpp:157] Top shape: 100 10 (1000)
I1011 07:37:26.899113 13347 net.cpp:165] Memory required for data: 250950800
I1011 07:37:26.899117 13347 layer_factory.hpp:77] Creating layer score_score_0_split
I1011 07:37:26.899121 13347 net.cpp:100] Creating Layer score_score_0_split
I1011 07:37:26.899125 13347 net.cpp:434] score_score_0_split <- score
I1011 07:37:26.899129 13347 net.cpp:408] score_score_0_split -> score_score_0_split_0
I1011 07:37:26.899135 13347 net.cpp:408] score_score_0_split -> score_score_0_split_1
I1011 07:37:26.899179 13347 net.cpp:150] Setting up score_score_0_split
I1011 07:37:26.899184 13347 net.cpp:157] Top shape: 100 10 (1000)
I1011 07:37:26.899186 13347 net.cpp:157] Top shape: 100 10 (1000)
I1011 07:37:26.899188 13347 net.cpp:165] Memory required for data: 250958800
I1011 07:37:26.899190 13347 layer_factory.hpp:77] Creating layer accuracy
I1011 07:37:26.899195 13347 net.cpp:100] Creating Layer accuracy
I1011 07:37:26.899199 13347 net.cpp:434] accuracy <- score_score_0_split_0
I1011 07:37:26.899201 13347 net.cpp:434] accuracy <- label_data_1_split_0
I1011 07:37:26.899206 13347 net.cpp:408] accuracy -> accuracy
…
