…
  stage: ""
}
type: "RMSProp"
I1011 04:20:11.632478 11978 solver.cpp:81] Creating training net from train_net file: /home/adam/Honours/Honours-Project/cifar-10_allcnn/relu/allcnn_relu_train.prototxt
I1011 04:20:11.632804 11978 net.cpp:58] Initializing net from parameters: 
state {
  phase: TRAIN
  level: 0
  stage: ""
}
layer {
  name: "data"
  type: "Data"
  top: "data"
  top: "label"
  transform_param {
    mean_file: "mean.binaryproto"
  }
  data_param {
    source: "../../../data/cifar-10/cifar10_train_lmdb"
    batch_size: 64
    backend: LMDB
  }
}
layer {
  name: "conv1"
  type: "Convolution"
  bottom: "data"
  top: "conv1"
  convolution_param {
    num_output: 96
    kernel_size: 3
    weight_filler {
      type: "xavier"
    }
  }
}
layer {
  name: "relu1"
  type: "ReLU"
  bottom: "conv1"
  top: "conv1"
}
layer {
  name: "conv2"
  type: "Convolution"
  bottom: "conv1"
  top: "conv2"
  convolution_param {
    num_output: 96
    kernel_size: 3
    weight_filler {
      type: "xavier"
    }
  }
}
layer {
  name: "bn1"
  type: "BatchNorm"
  bottom: "conv2"
  top: "bn1"
}
layer {
  name: "relu2"
  type: "ReLU"
  bottom: "bn1"
  top: "bn1"
}
layer {
  name: "drop1"
  type: "Dropout"
  bottom: "bn1"
  top: "drop1"
  dropout_param {
    dropout_ratio: 0.5
  }
}
layer {
  name: "conv3"
  type: "Convolution"
  bottom: "drop1"
  top: "conv3"
  convolution_param {
    num_output: 96
    kernel_size: 3
    stride: 2
    weight_filler {
      type: "xavier"
    }
  }
}
layer {
  name: "relu3"
  type: "ReLU"
  bottom: "conv3"
  top: "conv3"
}
layer {
  name: "conv4"
  type: "Convolution"
  bottom: "conv3"
  top: "conv4"
  convolution_param {
    num_output: 192
    kernel_size: 3
    weight_filler {
      type: "xavier"
    }
  }
}
layer {
  name: "relu4"
  type: "ReLU"
  bottom: "conv4"
  top: "conv4"
}
layer {
  name: "conv5"
  type: "Convolution"
  bottom: "conv4"
  top: "conv5"
  convolution_param {
    num_output: 192
    kernel_size: 3
    weight_filler {
      type: "xavier"
    }
  }
}
layer {
  name: "bn2"
  type: "BatchNorm"
  bottom: "conv5"
  top: "bn2"
}
layer {
  name: "relu5"
  type: "ReLU"
  bottom: "bn2"
  top: "bn2"
}
layer {
  name: "drop4"
  type: "Dropout"
  bottom: "bn2"
  top: "drop4"
  dropout_param {
    dropout_ratio: 0.5
  }
}
layer {
  name: "conv6"
  type: "Convolution"
  bottom: "drop4"
  top: "conv6"
  convolution_param {
    num_output: 192
    kernel_size: 3
    stride: 2
    weight_filler {
      type: "xavier"
    }
  }
}
layer {
  name: "relu6"
  type: "ReLU"
  bottom: "conv6"
  top: "conv6"
}
layer {
  name: "conv7"
  type: "Convolution"
  bottom: "conv6"
  top: "conv7"
  convolution_param {
    num_output: 192
    kernel_size: 3
    weight_filler {
      type: "xavier"
    }
  }
}
layer {
  name: "relu7"
  type: "ReLU"
  bottom: "conv7"
  top: "conv7"
}
layer {
  name: "conv8"
  type: "Convolution"
  bottom: "conv7"
  top: "conv8"
  convolution_param {
    num_output: 192
    kernel_size: 1
    weight_filler {
      type: "xavier"
    }
  }
}
layer {
  name: "relu8"
  type: "ReLU"
  bottom: "conv8"
  top: "conv8"
}
layer {
  name: "conv9"
  type: "Convolution"
  bottom: "conv8"
  top: "conv9"
  convolution_param {
    num_output: 10
    kernel_size: 1
    weight_filler {
      type: "xavier"
    }
  }
}
layer {
  name: "relu9"
  type: "ReLU"
  bottom: "conv9"
  top: "conv9"
}
layer {
  name: "pool"
  type: "Pooling"
  bottom: "conv9"
  top: "pool"
  pooling_param {
    pool: AVE
    global_pooling: true
  }
}
layer {
  name: "flatten"
  type: "Flatten"
  bottom: "pool"
  top: "flatten"
}
layer {
  name: "score"
  type: "InnerProduct"
  bottom: "flatten"
  top: "score"
  inner_product_param {
    num_output: 10
    weight_filler {
      type: "gaussian"
    }
  }
}
layer {
  name: "accuracy"
  type: "Accuracy"
  bottom: "score"
  bottom: "label"
  top: "accuracy"
}
layer {
  name: "loss"
  type: "SoftmaxWithLoss"
  bottom: "score"
  bottom: "label"
  top: "loss"
}
I1011 04:20:11.632967 11978 layer_factory.hpp:77] Creating layer data
I1011 04:20:11.633419 11978 net.cpp:100] Creating Layer data
I1011 04:20:11.633427 11978 net.cpp:408] data -> data
I1011 04:20:11.633458 11978 net.cpp:408] data -> label
I1011 04:20:11.633481 11978 data_transformer.cpp:25] Loading mean file from: mean.binaryproto
I1011 04:20:11.635599 11983 db_lmdb.cpp:35] Opened lmdb ../../../data/cifar-10/cifar10_train_lmdb
I1011 04:20:11.640689 11978 data_layer.cpp:41] output data size: 64,3,32,32
I1011 04:20:11.642330 11978 net.cpp:150] Setting up data
I1011 04:20:11.642349 11978 net.cpp:157] Top shape: 64 3 32 32 (196608)
I1011 04:20:11.642374 11978 net.cpp:157] Top shape: 64 (64)
I1011 04:20:11.642376 11978 net.cpp:165] Memory required for data: 786688
I1011 04:20:11.642385 11978 layer_factory.hpp:77] Creating layer label_data_1_split
I1011 04:20:11.642395 11978 net.cpp:100] Creating Layer label_data_1_split
I1011 04:20:11.642398 11978 net.cpp:434] label_data_1_split <- label
I1011 04:20:11.642422 11978 net.cpp:408] label_data_1_split -> label_data_1_split_0
I1011 04:20:11.642446 11978 net.cpp:408] label_data_1_split -> label_data_1_split_1
I1011 04:20:11.642987 11978 net.cpp:150] Setting up label_data_1_split
I1011 04:20:11.643002 11978 net.cpp:157] Top shape: 64 (64)
I1011 04:20:11.643004 11978 net.cpp:157] Top shape: 64 (64)
I1011 04:20:11.643007 11978 net.cpp:165] Memory required for data: 787200
I1011 04:20:11.643009 11978 layer_factory.hpp:77] Creating layer conv1
I1011 04:20:11.643023 11978 net.cpp:100] Creating Layer conv1
I1011 04:20:11.643025 11978 net.cpp:434] conv1 <- data
I1011 04:20:11.643029 11978 net.cpp:408] conv1 -> conv1
I1011 04:20:11.779429 11978 net.cpp:150] Setting up conv1
I1011 04:20:11.779450 11978 net.cpp:157] Top shape: 64 96 30 30 (5529600)
I1011 04:20:11.779453 11978 net.cpp:165] Memory required for data: 22905600
I1011 04:20:11.779470 11978 layer_factory.hpp:77] Creating layer relu1
I1011 04:20:11.779479 11978 net.cpp:100] Creating Layer relu1
I1011 04:20:11.779481 11978 net.cpp:434] relu1 <- conv1
I1011 04:20:11.779485 11978 net.cpp:395] relu1 -> conv1 (in-place)
I1011 04:20:11.779731 11978 net.cpp:150] Setting up relu1
I1011 04:20:11.779737 11978 net.cpp:157] Top shape: 64 96 30 30 (5529600)
I1011 04:20:11.779753 11978 net.cpp:165] Memory required for data: 45024000
I1011 04:20:11.779757 11978 layer_factory.hpp:77] Creating layer conv2
I1011 04:20:11.779765 11978 net.cpp:100] Creating Layer conv2
I1011 04:20:11.779767 11978 net.cpp:434] conv2 <- conv1
I1011 04:20:11.779772 11978 net.cpp:408] conv2 -> conv2
I1011 04:20:11.781345 11978 net.cpp:150] Setting up conv2
I1011 04:20:11.781357 11978 net.cpp:157] Top shape: 64 96 28 28 (4816896)
I1011 04:20:11.781358 11978 net.cpp:165] Memory required for data: 64291584
I1011 04:20:11.781366 11978 layer_factory.hpp:77] Creating layer bn1
I1011 04:20:11.781371 11978 net.cpp:100] Creating Layer bn1
I1011 04:20:11.781374 11978 net.cpp:434] bn1 <- conv2
I1011 04:20:11.781378 11978 net.cpp:408] bn1 -> bn1
I1011 04:20:11.781638 11978 net.cpp:150] Setting up bn1
I1011 04:20:11.781644 11978 net.cpp:157] Top shape: 64 96 28 28 (4816896)
I1011 04:20:11.781661 11978 net.cpp:165] Memory required for data: 83559168
I1011 04:20:11.781666 11978 layer_factory.hpp:77] Creating layer relu2
I1011 04:20:11.781671 11978 net.cpp:100] Creating Layer relu2
I1011 04:20:11.781673 11978 net.cpp:434] relu2 <- bn1
I1011 04:20:11.781677 11978 net.cpp:395] relu2 -> bn1 (in-place)
I1011 04:20:11.781894 11978 net.cpp:150] Setting up relu2
I1011 04:20:11.781916 11978 net.cpp:157] Top shape: 64 96 28 28 (4816896)
I1011 04:20:11.781919 11978 net.cpp:165] Memory required for data: 102826752
I1011 04:20:11.781960 11978 layer_factory.hpp:77] Creating layer drop1
I1011 04:20:11.781967 11978 net.cpp:100] Creating Layer drop1
I1011 04:20:11.781983 11978 net.cpp:434] drop1 <- bn1
I1011 04:20:11.781987 11978 net.cpp:408] drop1 -> drop1
I1011 04:20:11.782047 11978 net.cpp:150] Setting up drop1
I1011 04:20:11.782052 11978 net.cpp:157] Top shape: 64 96 28 28 (4816896)
I1011 04:20:11.782068 11978 net.cpp:165] Memory required for data: 122094336
I1011 04:20:11.782070 11978 layer_factory.hpp:77] Creating layer conv3
I1011 04:20:11.782079 11978 net.cpp:100] Creating Layer conv3
I1011 04:20:11.782081 11978 net.cpp:434] conv3 <- drop1
I1011 04:20:11.782100 11978 net.cpp:408] conv3 -> conv3
I1011 04:20:11.783435 11978 net.cpp:150] Setting up conv3
I1011 04:20:11.783462 11978 net.cpp:157] Top shape: 64 96 13 13 (1038336)
I1011 04:20:11.783464 11978 net.cpp:165] Memory required for data: 126247680
I1011 04:20:11.783471 11978 layer_factory.hpp:77] Creating layer relu3
I1011 04:20:11.783478 11978 net.cpp:100] Creating Layer relu3
I1011 04:20:11.783479 11978 net.cpp:434] relu3 <- conv3
I1011 04:20:11.783483 11978 net.cpp:395] relu3 -> conv3 (in-place)
I1011 04:20:11.783766 11978 net.cpp:150] Setting up relu3
I1011 04:20:11.783789 11978 net.cpp:157] Top shape: 64 96 13 13 (1038336)
I1011 04:20:11.783792 11978 net.cpp:165] Memory required for data: 130401024
I1011 04:20:11.783795 11978 layer_factory.hpp:77] Creating layer conv4
I1011 04:20:11.783803 11978 net.cpp:100] Creating Layer conv4
I1011 04:20:11.783807 11978 net.cpp:434] conv4 <- conv3
I1011 04:20:11.783812 11978 net.cpp:408] conv4 -> conv4
I1011 04:20:11.785732 11978 net.cpp:150] Setting up conv4
I1011 04:20:11.785744 11978 net.cpp:157] Top shape: 64 192 11 11 (1486848)
I1011 04:20:11.785747 11978 net.cpp:165] Memory required for data: 136348416
I1011 04:20:11.785753 11978 layer_factory.hpp:77] Creating layer relu4
I1011 04:20:11.785756 11978 net.cpp:100] Creating Layer relu4
I1011 04:20:11.785758 11978 net.cpp:434] relu4 <- conv4
I1011 04:20:11.785763 11978 net.cpp:395] relu4 -> conv4 (in-place)
I1011 04:20:11.786000 11978 net.cpp:150] Setting up relu4
I1011 04:20:11.786006 11978 net.cpp:157] Top shape: 64 192 11 11 (1486848)
I1011 04:20:11.786022 11978 net.cpp:165] Memory required for data: 142295808
I1011 04:20:11.786025 11978 layer_factory.hpp:77] Creating layer conv5
I1011 04:20:11.786044 11978 net.cpp:100] Creating Layer conv5
I1011 04:20:11.786046 11978 net.cpp:434] conv5 <- conv4
I1011 04:20:11.786051 11978 net.cpp:408] conv5 -> conv5
I1011 04:20:11.788801 11978 net.cpp:150] Setting up conv5
I1011 04:20:11.788815 11978 net.cpp:157] Top shape: 64 192 9 9 (995328)
I1011 04:20:11.788817 11978 net.cpp:165] Memory required for data: 146277120
I1011 04:20:11.788822 11978 layer_factory.hpp:77] Creating layer bn2
I1011 04:20:11.788828 11978 net.cpp:100] Creating Layer bn2
I1011 04:20:11.788830 11978 net.cpp:434] bn2 <- conv5
I1011 04:20:11.788835 11978 net.cpp:408] bn2 -> bn2
I1011 04:20:11.789078 11978 net.cpp:150] Setting up bn2
I1011 04:20:11.789083 11978 net.cpp:157] Top shape: 64 192 9 9 (995328)
I1011 04:20:11.789099 11978 net.cpp:165] Memory required for data: 150258432
I1011 04:20:11.789104 11978 layer_factory.hpp:77] Creating layer relu5
I1011 04:20:11.789121 11978 net.cpp:100] Creating Layer relu5
I1011 04:20:11.789124 11978 net.cpp:434] relu5 <- bn2
I1011 04:20:11.789127 11978 net.cpp:395] relu5 -> bn2 (in-place)
I1011 04:20:11.789300 11978 net.cpp:150] Setting up relu5
I1011 04:20:11.789306 11978 net.cpp:157] Top shape: 64 192 9 9 (995328)
I1011 04:20:11.789322 11978 net.cpp:165] Memory required for data: 154239744
I1011 04:20:11.789324 11978 layer_factory.hpp:77] Creating layer drop4
I1011 04:20:11.789330 11978 net.cpp:100] Creating Layer drop4
I1011 04:20:11.789332 11978 net.cpp:434] drop4 <- bn2
I1011 04:20:11.789335 11978 net.cpp:408] drop4 -> drop4
I1011 04:20:11.789394 11978 net.cpp:150] Setting up drop4
I1011 04:20:11.789399 11978 net.cpp:157] Top shape: 64 192 9 9 (995328)
I1011 04:20:11.789402 11978 net.cpp:165] Memory required for data: 158221056
I1011 04:20:11.789430 11978 layer_factory.hpp:77] Creating layer conv6
I1011 04:20:11.789453 11978 net.cpp:100] Creating Layer conv6
I1011 04:20:11.789455 11978 net.cpp:434] conv6 <- drop4
I1011 04:20:11.789458 11978 net.cpp:408] conv6 -> conv6
I1011 04:20:11.793411 11978 net.cpp:150] Setting up conv6
I1011 04:20:11.793431 11978 net.cpp:157] Top shape: 64 192 4 4 (196608)
I1011 04:20:11.793432 11978 net.cpp:165] Memory required for data: 159007488
I1011 04:20:11.793458 11978 layer_factory.hpp:77] Creating layer relu6
I1011 04:20:11.793478 11978 net.cpp:100] Creating Layer relu6
I1011 04:20:11.793481 11978 net.cpp:434] relu6 <- conv6
I1011 04:20:11.793500 11978 net.cpp:395] relu6 -> conv6 (in-place)
I1011 04:20:11.793750 11978 net.cpp:150] Setting up relu6
I1011 04:20:11.793773 11978 net.cpp:157] Top shape: 64 192 4 4 (196608)
I1011 04:20:11.793776 11978 net.cpp:165] Memory required for data: 159793920
I1011 04:20:11.793778 11978 layer_factory.hpp:77] Creating layer conv7
I1011 04:20:11.793786 11978 net.cpp:100] Creating Layer conv7
I1011 04:20:11.793787 11978 net.cpp:434] conv7 <- conv6
I1011 04:20:11.793792 11978 net.cpp:408] conv7 -> conv7
I1011 04:20:11.796700 11978 net.cpp:150] Setting up conv7
I1011 04:20:11.796712 11978 net.cpp:157] Top shape: 64 192 2 2 (49152)
I1011 04:20:11.796715 11978 net.cpp:165] Memory required for data: 159990528
I1011 04:20:11.796720 11978 layer_factory.hpp:77] Creating layer relu7
I1011 04:20:11.796725 11978 net.cpp:100] Creating Layer relu7
I1011 04:20:11.796727 11978 net.cpp:434] relu7 <- conv7
I1011 04:20:11.796731 11978 net.cpp:395] relu7 -> conv7 (in-place)
I1011 04:20:11.797004 11978 net.cpp:150] Setting up relu7
I1011 04:20:11.797013 11978 net.cpp:157] Top shape: 64 192 2 2 (49152)
I1011 04:20:11.797029 11978 net.cpp:165] Memory required for data: 160187136
I1011 04:20:11.797031 11978 layer_factory.hpp:77] Creating layer conv8
I1011 04:20:11.797039 11978 net.cpp:100] Creating Layer conv8
I1011 04:20:11.797040 11978 net.cpp:434] conv8 <- conv7
I1011 04:20:11.797044 11978 net.cpp:408] conv8 -> conv8
I1011 04:20:11.798463 11978 net.cpp:150] Setting up conv8
I1011 04:20:11.798475 11978 net.cpp:157] Top shape: 64 192 2 2 (49152)
I1011 04:20:11.798476 11978 net.cpp:165] Memory required for data: 160383744
I1011 04:20:11.798481 11978 layer_factory.hpp:77] Creating layer relu8
I1011 04:20:11.798485 11978 net.cpp:100] Creating Layer relu8
I1011 04:20:11.798488 11978 net.cpp:434] relu8 <- conv8
I1011 04:20:11.798492 11978 net.cpp:395] relu8 -> conv8 (in-place)
I1011 04:20:11.798715 11978 net.cpp:150] Setting up relu8
I1011 04:20:11.798722 11978 net.cpp:157] Top shape: 64 192 2 2 (49152)
I1011 04:20:11.798738 11978 net.cpp:165] Memory required for data: 160580352
I1011 04:20:11.798740 11978 layer_factory.hpp:77] Creating layer conv9
I1011 04:20:11.798746 11978 net.cpp:100] Creating Layer conv9
I1011 04:20:11.798748 11978 net.cpp:434] conv9 <- conv8
I1011 04:20:11.798753 11978 net.cpp:408] conv9 -> conv9
I1011 04:20:11.799787 11978 net.cpp:150] Setting up conv9
I1011 04:20:11.799798 11978 net.cpp:157] Top shape: 64 10 2 2 (2560)
I1011 04:20:11.799800 11978 net.cpp:165] Memory required for data: 160590592
I1011 04:20:11.799805 11978 layer_factory.hpp:77] Creating layer relu9
I1011 04:20:11.799809 11978 net.cpp:100] Creating Layer relu9
I1011 04:20:11.799813 11978 net.cpp:434] relu9 <- conv9
I1011 04:20:11.799815 11978 net.cpp:395] relu9 -> conv9 (in-place)
I1011 04:20:11.800115 11978 net.cpp:150] Setting up relu9
I1011 04:20:11.800138 11978 net.cpp:157] Top shape: 64 10 2 2 (2560)
I1011 04:20:11.800140 11978 net.cpp:165] Memory required for data: 160600832
I1011 04:20:11.800143 11978 layer_factory.hpp:77] Creating layer pool
I1011 04:20:11.800148 11978 net.cpp:100] Creating Layer pool
I1011 04:20:11.800150 11978 net.cpp:434] pool <- conv9
I1011 04:20:11.800154 11978 net.cpp:408] pool -> pool
I1011 04:20:11.800431 11978 net.cpp:150] Setting up pool
I1011 04:20:11.800438 11978 net.cpp:157] Top shape: 64 10 1 1 (640)
I1011 04:20:11.800441 11978 net.cpp:165] Memory required for data: 160603392
I1011 04:20:11.800452 11978 layer_factory.hpp:77] Creating layer flatten
I1011 04:20:11.800472 11978 net.cpp:100] Creating Layer flatten
I1011 04:20:11.800475 11978 net.cpp:434] flatten <- pool
I1011 04:20:11.800493 11978 net.cpp:408] flatten -> flatten
I1011 04:20:11.800518 11978 net.cpp:150] Setting up flatten
I1011 04:20:11.800523 11978 net.cpp:157] Top shape: 64 10 (640)
I1011 04:20:11.800524 11978 net.cpp:165] Memory required for data: 160605952
I1011 04:20:11.800526 11978 layer_factory.hpp:77] Creating layer score
I1011 04:20:11.800530 11978 net.cpp:100] Creating Layer score
I1011 04:20:11.800532 11978 net.cpp:434] score <- flatten
I1011 04:20:11.800536 11978 net.cpp:408] score -> score
I1011 04:20:11.800715 11978 net.cpp:150] Setting up score
I1011 04:20:11.800719 11978 net.cpp:157] Top shape: 64 10 (640)
I1011 04:20:11.800734 11978 net.cpp:165] Memory required for data: 160608512
I1011 04:20:11.800739 11978 layer_factory.hpp:77] Creating layer score_score_0_split
I1011 04:20:11.800742 11978 net.cpp:100] Creating Layer score_score_0_split
I1011 04:20:11.800746 11978 net.cpp:434] score_score_0_split <- score
I1011 04:20:11.800750 11978 net.cpp:408] score_score_0_split -> score_score_0_split_0
I1011 04:20:11.800770 11978 net.cpp:408] score_score_0_split -> score_score_0_split_1
I1011 04:20:11.800846 11978 net.cpp:150] Setting up score_score_0_split
I1011 04:20:11.800853 11978 net.cpp:157] Top shape: 64 10 (640)
I1011 04:20:11.800869 11978 net.cpp:157] Top shape: 64 10 (640)
I1011 04:20:11.800870 11978 net.cpp:165] Memory required for data: 160613632
I1011 04:20:11.800873 11978 layer_factory.hpp:77] Creating layer accuracy
I1011 04:20:11.800891 11978 net.cpp:100] Creating Layer accuracy
I1011 04:20:11.800894 11978 net.cpp:434] accuracy <- score_score_0_split_0
I1011 04:20:11.800896 11978 net.cpp:434] accuracy <- label_data_1_split_0
I1011 04:20:11.800900 11978 net.cpp:408] accuracy -> accuracy
…
I1011 04:20:11.801509 11978 net.cpp:283] Network initialization done.
I1011 04:20:11.801684 11978 solver.cpp:181] Creating test net (#0) specified by test_net file: /home/adam/Honours/Honours-Project/cifar-10_allcnn/relu/allcnn_relu_test.prototxt
I1011 04:20:11.801820 11978 net.cpp:58] Initializing net from parameters: 
state {
  phase: TEST
}
layer {
  name: "data"
  type: "Data"
  top: "data"
  top: "label"
  transform_param {
    mean_file: "mean.binaryproto"
  }
  data_param {
    source: "../../../data/cifar-10/cifar10_test_lmdb"
    batch_size: 100
    backend: LMDB
  }
}
layer {
  name: "conv1"
  type: "Convolution"
  bottom: "data"
  top: "conv1"
  convolution_param {
    num_output: 96
    kernel_size: 3
    weight_filler {
      type: "xavier"
    }
  }
}
layer {
  name: "relu1"
  type: "ReLU"
  bottom: "conv1"
  top: "conv1"
}
layer {
  name: "conv2"
  type: "Convolution"
  bottom: "conv1"
  top: "conv2"
  convolution_param {
    num_output: 96
    kernel_size: 3
    weight_filler {
      type: "xavier"
    }
  }
}
layer {
  name: "bn1"
  type: "BatchNorm"
  bottom: "conv2"
  top: "bn1"
}
layer {
  name: "relu2"
  type: "ReLU"
  bottom: "bn1"
  top: "bn1"
}
layer {
  name: "drop1"
  type: "Dropout"
  bottom: "bn1"
  top: "drop1"
  dropout_param {
    dropout_ratio: 0.5
  }
}
layer {
  name: "conv3"
  type: "Convolution"
  bottom: "drop1"
  top: "conv3"
  convolution_param {
    num_output: 96
    kernel_size: 3
    stride: 2
    weight_filler {
      type: "xavier"
    }
  }
}
layer {
  name: "relu3"
  type: "ReLU"
  bottom: "conv3"
  top: "conv3"
}
layer {
  name: "conv4"
  type: "Convolution"
  bottom: "conv3"
  top: "conv4"
  convolution_param {
    num_output: 192
    kernel_size: 3
    weight_filler {
      type: "xavier"
    }
  }
}
layer {
  name: "relu4"
  type: "ReLU"
  bottom: "conv4"
  top: "conv4"
}
layer {
  name: "conv5"
  type: "Convolution"
  bottom: "conv4"
  top: "conv5"
  convolution_param {
    num_output: 192
    kernel_size: 3
    weight_filler {
      type: "xavier"
    }
  }
}
layer {
  name: "bn2"
  type: "BatchNorm"
  bottom: "conv5"
  top: "bn2"
}
layer {
  name: "relu5"
  type: "ReLU"
  bottom: "bn2"
  top: "bn2"
}
layer {
  name: "drop4"
  type: "Dropout"
  bottom: "bn2"
  top: "drop4"
  dropout_param {
    dropout_ratio: 0.5
  }
}
layer {
  name: "conv6"
  type: "Convolution"
  bottom: "drop4"
  top: "conv6"
  convolution_param {
    num_output: 192
    kernel_size: 3
    stride: 2
    weight_filler {
      type: "xavier"
    }
  }
}
layer {
  name: "relu6"
  type: "ReLU"
  bottom: "conv6"
  top: "conv6"
}
layer {
  name: "conv7"
  type: "Convolution"
  bottom: "conv6"
  top: "conv7"
  convolution_param {
    num_output: 192
    kernel_size: 3
    weight_filler {
      type: "xavier"
    }
  }
}
layer {
  name: "relu7"
  type: "ReLU"
  bottom: "conv7"
  top: "conv7"
}
layer {
  name: "conv8"
  type: "Convolution"
  bottom: "conv7"
  top: "conv8"
  convolution_param {
    num_output: 192
    kernel_size: 1
    weight_filler {
      type: "xavier"
    }
  }
}
layer {
  name: "relu8"
  type: "ReLU"
  bottom: "conv8"
  top: "conv8"
}
layer {
  name: "conv9"
  type: "Convolution"
  bottom: "conv8"
  top: "conv9"
  convolution_param {
    num_output: 10
    kernel_size: 1
    weight_filler {
      type: "xavier"
    }
  }
}
layer {
  name: "relu9"
  type: "ReLU"
  bottom: "conv9"
  top: "conv9"
}
layer {
  name: "pool"
  type: "Pooling"
  bottom: "conv9"
  top: "pool"
  pooling_param {
    pool: AVE
    global_pooling: true
  }
}
layer {
  name: "flatten"
  type: "Flatten"
  bottom: "pool"
  top: "flatten"
}
layer {
  name: "score"
  type: "InnerProduct"
  bottom: "flatten"
  top: "score"
  inner_product_param {
    num_output: 10
    weight_filler {
      type: "gaussian"
    }
  }
}
layer {
  name: "accuracy"
  type: "Accuracy"
  bottom: "score"
  bottom: "label"
  top: "accuracy"
}
layer {
  name: "loss"
  type: "SoftmaxWithLoss"
  bottom: "score"
  bottom: "label"
  top: "loss"
}
I1011 04:20:11.801911 11978 layer_factory.hpp:77] Creating layer data
I1011 04:20:11.801996 11978 net.cpp:100] Creating Layer data
I1011 04:20:11.802003 11978 net.cpp:408] data -> data
I1011 04:20:11.802011 11978 net.cpp:408] data -> label
I1011 04:20:11.802016 11978 data_transformer.cpp:25] Loading mean file from: mean.binaryproto
I1011 04:20:11.802728 11985 db_lmdb.cpp:35] Opened lmdb ../../../data/cifar-10/cifar10_test_lmdb
I1011 04:20:11.802908 11978 data_layer.cpp:41] output data size: 100,3,32,32
I1011 04:20:11.804967 11978 net.cpp:150] Setting up data
I1011 04:20:11.804988 11978 net.cpp:157] Top shape: 100 3 32 32 (307200)
I1011 04:20:11.804992 11978 net.cpp:157] Top shape: 100 (100)
I1011 04:20:11.804994 11978 net.cpp:165] Memory required for data: 1229200
I1011 04:20:11.804998 11978 layer_factory.hpp:77] Creating layer label_data_1_split
I1011 04:20:11.805023 11978 net.cpp:100] Creating Layer label_data_1_split
I1011 04:20:11.805027 11978 net.cpp:434] label_data_1_split <- label
I1011 04:20:11.805047 11978 net.cpp:408] label_data_1_split -> label_data_1_split_0
I1011 04:20:11.805053 11978 net.cpp:408] label_data_1_split -> label_data_1_split_1
I1011 04:20:11.805168 11978 net.cpp:150] Setting up label_data_1_split
I1011 04:20:11.805188 11978 net.cpp:157] Top shape: 100 (100)
I1011 04:20:11.805205 11978 net.cpp:157] Top shape: 100 (100)
I1011 04:20:11.805207 11978 net.cpp:165] Memory required for data: 1230000
I1011 04:20:11.805210 11978 layer_factory.hpp:77] Creating layer conv1
I1011 04:20:11.805219 11978 net.cpp:100] Creating Layer conv1
I1011 04:20:11.805222 11978 net.cpp:434] conv1 <- data
I1011 04:20:11.805240 11978 net.cpp:408] conv1 -> conv1
I1011 04:20:11.806429 11978 net.cpp:150] Setting up conv1
I1011 04:20:11.806442 11978 net.cpp:157] Top shape: 100 96 30 30 (8640000)
I1011 04:20:11.806445 11978 net.cpp:165] Memory required for data: 35790000
I1011 04:20:11.806473 11978 layer_factory.hpp:77] Creating layer relu1
I1011 04:20:11.806493 11978 net.cpp:100] Creating Layer relu1
I1011 04:20:11.806494 11978 net.cpp:434] relu1 <- conv1
I1011 04:20:11.806499 11978 net.cpp:395] relu1 -> conv1 (in-place)
I1011 04:20:11.806679 11978 net.cpp:150] Setting up relu1
I1011 04:20:11.806687 11978 net.cpp:157] Top shape: 100 96 30 30 (8640000)
I1011 04:20:11.806689 11978 net.cpp:165] Memory required for data: 70350000
I1011 04:20:11.806691 11978 layer_factory.hpp:77] Creating layer conv2
I1011 04:20:11.806700 11978 net.cpp:100] Creating Layer conv2
I1011 04:20:11.806702 11978 net.cpp:434] conv2 <- conv1
I1011 04:20:11.806707 11978 net.cpp:408] conv2 -> conv2
I1011 04:20:11.809332 11978 net.cpp:150] Setting up conv2
I1011 04:20:11.809350 11978 net.cpp:157] Top shape: 100 96 28 28 (7526400)
I1011 04:20:11.809353 11978 net.cpp:165] Memory required for data: 100455600
I1011 04:20:11.809365 11978 layer_factory.hpp:77] Creating layer bn1
I1011 04:20:11.809371 11978 net.cpp:100] Creating Layer bn1
I1011 04:20:11.809376 11978 net.cpp:434] bn1 <- conv2
I1011 04:20:11.809381 11978 net.cpp:408] bn1 -> bn1
I1011 04:20:11.809587 11978 net.cpp:150] Setting up bn1
I1011 04:20:11.809593 11978 net.cpp:157] Top shape: 100 96 28 28 (7526400)
I1011 04:20:11.809595 11978 net.cpp:165] Memory required for data: 130561200
I1011 04:20:11.809602 11978 layer_factory.hpp:77] Creating layer relu2
I1011 04:20:11.809609 11978 net.cpp:100] Creating Layer relu2
I1011 04:20:11.809612 11978 net.cpp:434] relu2 <- bn1
I1011 04:20:11.809615 11978 net.cpp:395] relu2 -> bn1 (in-place)
I1011 04:20:11.809906 11978 net.cpp:150] Setting up relu2
I1011 04:20:11.809916 11978 net.cpp:157] Top shape: 100 96 28 28 (7526400)
I1011 04:20:11.809918 11978 net.cpp:165] Memory required for data: 160666800
I1011 04:20:11.809921 11978 layer_factory.hpp:77] Creating layer drop1
I1011 04:20:11.809926 11978 net.cpp:100] Creating Layer drop1
I1011 04:20:11.809928 11978 net.cpp:434] drop1 <- bn1
I1011 04:20:11.809933 11978 net.cpp:408] drop1 -> drop1
I1011 04:20:11.809994 11978 net.cpp:150] Setting up drop1
I1011 04:20:11.810000 11978 net.cpp:157] Top shape: 100 96 28 28 (7526400)
I1011 04:20:11.810004 11978 net.cpp:165] Memory required for data: 190772400
I1011 04:20:11.810006 11978 layer_factory.hpp:77] Creating layer conv3
I1011 04:20:11.810014 11978 net.cpp:100] Creating Layer conv3
I1011 04:20:11.810019 11978 net.cpp:434] conv3 <- drop1
I1011 04:20:11.810035 11978 net.cpp:408] conv3 -> conv3
I1011 04:20:11.811779 11978 net.cpp:150] Setting up conv3
I1011 04:20:11.811794 11978 net.cpp:157] Top shape: 100 96 13 13 (1622400)
I1011 04:20:11.811797 11978 net.cpp:165] Memory required for data: 197262000
I1011 04:20:11.811806 11978 layer_factory.hpp:77] Creating layer relu3
I1011 04:20:11.811827 11978 net.cpp:100] Creating Layer relu3
I1011 04:20:11.811830 11978 net.cpp:434] relu3 <- conv3
I1011 04:20:11.811835 11978 net.cpp:395] relu3 -> conv3 (in-place)
I1011 04:20:11.812085 11978 net.cpp:150] Setting up relu3
I1011 04:20:11.812095 11978 net.cpp:157] Top shape: 100 96 13 13 (1622400)
I1011 04:20:11.812098 11978 net.cpp:165] Memory required for data: 203751600
I1011 04:20:11.812100 11978 layer_factory.hpp:77] Creating layer conv4
I1011 04:20:11.812120 11978 net.cpp:100] Creating Layer conv4
I1011 04:20:11.812122 11978 net.cpp:434] conv4 <- conv3
I1011 04:20:11.812129 11978 net.cpp:408] conv4 -> conv4
I1011 04:20:11.814085 11978 net.cpp:150] Setting up conv4
I1011 04:20:11.814100 11978 net.cpp:157] Top shape: 100 192 11 11 (2323200)
I1011 04:20:11.814101 11978 net.cpp:165] Memory required for data: 213044400
I1011 04:20:11.814107 11978 layer_factory.hpp:77] Creating layer relu4
I1011 04:20:11.814112 11978 net.cpp:100] Creating Layer relu4
I1011 04:20:11.814116 11978 net.cpp:434] relu4 <- conv4
I1011 04:20:11.814119 11978 net.cpp:395] relu4 -> conv4 (in-place)
I1011 04:20:11.814267 11978 net.cpp:150] Setting up relu4
I1011 04:20:11.814273 11978 net.cpp:157] Top shape: 100 192 11 11 (2323200)
I1011 04:20:11.814291 11978 net.cpp:165] Memory required for data: 222337200
I1011 04:20:11.814292 11978 layer_factory.hpp:77] Creating layer conv5
I1011 04:20:11.814299 11978 net.cpp:100] Creating Layer conv5
I1011 04:20:11.814303 11978 net.cpp:434] conv5 <- conv4
I1011 04:20:11.814321 11978 net.cpp:408] conv5 -> conv5
I1011 04:20:11.817196 11978 net.cpp:150] Setting up conv5
I1011 04:20:11.817209 11978 net.cpp:157] Top shape: 100 192 9 9 (1555200)
I1011 04:20:11.817211 11978 net.cpp:165] Memory required for data: 228558000
I1011 04:20:11.817216 11978 layer_factory.hpp:77] Creating layer bn2
I1011 04:20:11.817220 11978 net.cpp:100] Creating Layer bn2
I1011 04:20:11.817224 11978 net.cpp:434] bn2 <- conv5
I1011 04:20:11.817226 11978 net.cpp:408] bn2 -> bn2
I1011 04:20:11.817492 11978 net.cpp:150] Setting up bn2
I1011 04:20:11.817497 11978 net.cpp:157] Top shape: 100 192 9 9 (1555200)
I1011 04:20:11.817512 11978 net.cpp:165] Memory required for data: 234778800
I1011 04:20:11.817517 11978 layer_factory.hpp:77] Creating layer relu5
I1011 04:20:11.817523 11978 net.cpp:100] Creating Layer relu5
I1011 04:20:11.817526 11978 net.cpp:434] relu5 <- bn2
I1011 04:20:11.817553 11978 net.cpp:395] relu5 -> bn2 (in-place)
I1011 04:20:11.817914 11978 net.cpp:150] Setting up relu5
I1011 04:20:11.817924 11978 net.cpp:157] Top shape: 100 192 9 9 (1555200)
I1011 04:20:11.817939 11978 net.cpp:165] Memory required for data: 240999600
I1011 04:20:11.817941 11978 layer_factory.hpp:77] Creating layer drop4
I1011 04:20:11.817945 11978 net.cpp:100] Creating Layer drop4
I1011 04:20:11.817950 11978 net.cpp:434] drop4 <- bn2
I1011 04:20:11.817953 11978 net.cpp:408] drop4 -> drop4
I1011 04:20:11.818018 11978 net.cpp:150] Setting up drop4
I1011 04:20:11.818037 11978 net.cpp:157] Top shape: 100 192 9 9 (1555200)
I1011 04:20:11.818038 11978 net.cpp:165] Memory required for data: 247220400
I1011 04:20:11.818040 11978 layer_factory.hpp:77] Creating layer conv6
I1011 04:20:11.818064 11978 net.cpp:100] Creating Layer conv6
I1011 04:20:11.818080 11978 net.cpp:434] conv6 <- drop4
I1011 04:20:11.818084 11978 net.cpp:408] conv6 -> conv6
I1011 04:20:11.820713 11978 net.cpp:150] Setting up conv6
I1011 04:20:11.820724 11978 net.cpp:157] Top shape: 100 192 4 4 (307200)
I1011 04:20:11.820726 11978 net.cpp:165] Memory required for data: 248449200
I1011 04:20:11.820734 11978 layer_factory.hpp:77] Creating layer relu6
I1011 04:20:11.820739 11978 net.cpp:100] Creating Layer relu6
I1011 04:20:11.820741 11978 net.cpp:434] relu6 <- conv6
I1011 04:20:11.820745 11978 net.cpp:395] relu6 -> conv6 (in-place)
I1011 04:20:11.821074 11978 net.cpp:150] Setting up relu6
I1011 04:20:11.821095 11978 net.cpp:157] Top shape: 100 192 4 4 (307200)
I1011 04:20:11.821099 11978 net.cpp:165] Memory required for data: 249678000
I1011 04:20:11.821100 11978 layer_factory.hpp:77] Creating layer conv7
I1011 04:20:11.821107 11978 net.cpp:100] Creating Layer conv7
I1011 04:20:11.821110 11978 net.cpp:434] conv7 <- conv6
I1011 04:20:11.821115 11978 net.cpp:408] conv7 -> conv7
I1011 04:20:11.823945 11978 net.cpp:150] Setting up conv7
I1011 04:20:11.823958 11978 net.cpp:157] Top shape: 100 192 2 2 (76800)
I1011 04:20:11.823961 11978 net.cpp:165] Memory required for data: 249985200
I1011 04:20:11.823966 11978 layer_factory.hpp:77] Creating layer relu7
I1011 04:20:11.823971 11978 net.cpp:100] Creating Layer relu7
I1011 04:20:11.823972 11978 net.cpp:434] relu7 <- conv7
I1011 04:20:11.823976 11978 net.cpp:395] relu7 -> conv7 (in-place)
I1011 04:20:11.824164 11978 net.cpp:150] Setting up relu7
I1011 04:20:11.824172 11978 net.cpp:157] Top shape: 100 192 2 2 (76800)
I1011 04:20:11.824188 11978 net.cpp:165] Memory required for data: 250292400
I1011 04:20:11.824190 11978 layer_factory.hpp:77] Creating layer conv8
I1011 04:20:11.824198 11978 net.cpp:100] Creating Layer conv8
I1011 04:20:11.824200 11978 net.cpp:434] conv8 <- conv7
I1011 04:20:11.824203 11978 net.cpp:408] conv8 -> conv8
I1011 04:20:11.825328 11978 net.cpp:150] Setting up conv8
I1011 04:20:11.825337 11978 net.cpp:157] Top shape: 100 192 2 2 (76800)
I1011 04:20:11.825340 11978 net.cpp:165] Memory required for data: 250599600
I1011 04:20:11.825345 11978 layer_factory.hpp:77] Creating layer relu8
I1011 04:20:11.825350 11978 net.cpp:100] Creating Layer relu8
I1011 04:20:11.825351 11978 net.cpp:434] relu8 <- conv8
I1011 04:20:11.825354 11978 net.cpp:395] relu8 -> conv8 (in-place)
I1011 04:20:11.825670 11978 net.cpp:150] Setting up relu8
I1011 04:20:11.825691 11978 net.cpp:157] Top shape: 100 192 2 2 (76800)
I1011 04:20:11.825693 11978 net.cpp:165] Memory required for data: 250906800
I1011 04:20:11.825695 11978 layer_factory.hpp:77] Creating layer conv9
I1011 04:20:11.825702 11978 net.cpp:100] Creating Layer conv9
I1011 04:20:11.825706 11978 net.cpp:434] conv9 <- conv8
I1011 04:20:11.825723 11978 net.cpp:408] conv9 -> conv9
I1011 04:20:11.826608 11978 net.cpp:150] Setting up conv9
I1011 04:20:11.826618 11978 net.cpp:157] Top shape: 100 10 2 2 (4000)
I1011 04:20:11.826620 11978 net.cpp:165] Memory required for data: 250922800
I1011 04:20:11.826624 11978 layer_factory.hpp:77] Creating layer relu9
I1011 04:20:11.826628 11978 net.cpp:100] Creating Layer relu9
I1011 04:20:11.826630 11978 net.cpp:434] relu9 <- conv9
I1011 04:20:11.826659 11978 net.cpp:395] relu9 -> conv9 (in-place)
I1011 04:20:11.826962 11978 net.cpp:150] Setting up relu9
I1011 04:20:11.826970 11978 net.cpp:157] Top shape: 100 10 2 2 (4000)
I1011 04:20:11.826972 11978 net.cpp:165] Memory required for data: 250938800
I1011 04:20:11.826975 11978 layer_factory.hpp:77] Creating layer pool
I1011 04:20:11.826980 11978 net.cpp:100] Creating Layer pool
I1011 04:20:11.826982 11978 net.cpp:434] pool <- conv9
I1011 04:20:11.826987 11978 net.cpp:408] pool -> pool
I1011 04:20:11.827163 11978 net.cpp:150] Setting up pool
I1011 04:20:11.827170 11978 net.cpp:157] Top shape: 100 10 1 1 (1000)
I1011 04:20:11.827172 11978 net.cpp:165] Memory required for data: 250942800
I1011 04:20:11.827174 11978 layer_factory.hpp:77] Creating layer flatten
I1011 04:20:11.827179 11978 net.cpp:100] Creating Layer flatten
I1011 04:20:11.827195 11978 net.cpp:434] flatten <- pool
I1011 04:20:11.827199 11978 net.cpp:408] flatten -> flatten
I1011 04:20:11.827221 11978 net.cpp:150] Setting up flatten
I1011 04:20:11.827225 11978 net.cpp:157] Top shape: 100 10 (1000)
I1011 04:20:11.827227 11978 net.cpp:165] Memory required for data: 250946800
I1011 04:20:11.827229 11978 layer_factory.hpp:77] Creating layer score
I1011 04:20:11.827234 11978 net.cpp:100] Creating Layer score
I1011 04:20:11.827235 11978 net.cpp:434] score <- flatten
I1011 04:20:11.827239 11978 net.cpp:408] score -> score
I1011 04:20:11.827386 11978 net.cpp:150] Setting up score
I1011 04:20:11.827391 11978 net.cpp:157] Top shape: 100 10 (1000)
I1011 04:20:11.827394 11978 net.cpp:165] Memory required for data: 250950800
I1011 04:20:11.827412 11978 layer_factory.hpp:77] Creating layer score_score_0_split
I1011 04:20:11.827416 11978 net.cpp:100] Creating Layer score_score_0_split
I1011 04:20:11.827419 11978 net.cpp:434] score_score_0_split <- score
I1011 04:20:11.827422 11978 net.cpp:408] score_score_0_split -> score_score_0_split_0
I1011 04:20:11.827427 11978 net.cpp:408] score_score_0_split -> score_score_0_split_1
I1011 04:20:11.827471 11978 net.cpp:150] Setting up score_score_0_split
I1011 04:20:11.827476 11978 net.cpp:157] Top shape: 100 10 (1000)
I1011 04:20:11.827478 11978 net.cpp:157] Top shape: 100 10 (1000)
I1011 04:20:11.827481 11978 net.cpp:165] Memory required for data: 250958800
I1011 04:20:11.827482 11978 layer_factory.hpp:77] Creating layer accuracy
I1011 04:20:11.827487 11978 net.cpp:100] Creating Layer accuracy
I1011 04:20:11.827489 11978 net.cpp:434] accuracy <- score_score_0_split_0
I1011 04:20:11.827492 11978 net.cpp:434] accuracy <- label_data_1_split_0
I1011 04:20:11.827497 11978 net.cpp:408] accuracy -> accuracy
…
