…
  stage: ""
}
type: "SGD"
I1011 14:35:20.307574  5265 solver.cpp:81] Creating training net from train_net file: /home/adam/Honours/Honours-Project/cifar-10_allcnn/elu/allcnn_elu_train.prototxt
I1011 14:35:20.307893  5265 net.cpp:58] Initializing net from parameters: 
state {
  phase: TRAIN
  level: 0
  stage: ""
}
layer {
  name: "data"
  type: "Data"
  top: "data"
  top: "label"
  transform_param {
    mean_file: "mean.binaryproto"
  }
  data_param {
    source: "../../../data/cifar-10/cifar10_train_lmdb"
    batch_size: 64
    backend: LMDB
  }
}
layer {
  name: "conv1"
  type: "Convolution"
  bottom: "data"
  top: "conv1"
  convolution_param {
    num_output: 96
    kernel_size: 3
    weight_filler {
      type: "xavier"
    }
  }
}
layer {
  name: "elu1"
  type: "ELU"
  bottom: "conv1"
  top: "conv1"
}
layer {
  name: "conv2"
  type: "Convolution"
  bottom: "conv1"
  top: "conv2"
  convolution_param {
    num_output: 96
    kernel_size: 3
    weight_filler {
      type: "xavier"
    }
  }
}
layer {
  name: "bn1"
  type: "BatchNorm"
  bottom: "conv2"
  top: "bn1"
}
layer {
  name: "elu2"
  type: "ELU"
  bottom: "bn1"
  top: "bn1"
}
layer {
  name: "drop1"
  type: "Dropout"
  bottom: "bn1"
  top: "drop1"
  dropout_param {
    dropout_ratio: 0.5
  }
}
layer {
  name: "conv3"
  type: "Convolution"
  bottom: "drop1"
  top: "conv3"
  convolution_param {
    num_output: 96
    kernel_size: 3
    stride: 2
    weight_filler {
      type: "xavier"
    }
  }
}
layer {
  name: "elu3"
  type: "ELU"
  bottom: "conv3"
  top: "conv3"
}
layer {
  name: "conv4"
  type: "Convolution"
  bottom: "conv3"
  top: "conv4"
  convolution_param {
    num_output: 192
    kernel_size: 3
    weight_filler {
      type: "xavier"
    }
  }
}
layer {
  name: "elu4"
  type: "ELU"
  bottom: "conv4"
  top: "conv4"
}
layer {
  name: "conv5"
  type: "Convolution"
  bottom: "conv4"
  top: "conv5"
  convolution_param {
    num_output: 192
    kernel_size: 3
    weight_filler {
      type: "xavier"
    }
  }
}
layer {
  name: "bn2"
  type: "BatchNorm"
  bottom: "conv5"
  top: "bn2"
}
layer {
  name: "elu5"
  type: "ELU"
  bottom: "bn2"
  top: "bn2"
}
layer {
  name: "drop4"
  type: "Dropout"
  bottom: "bn2"
  top: "drop4"
  dropout_param {
    dropout_ratio: 0.5
  }
}
layer {
  name: "conv6"
  type: "Convolution"
  bottom: "drop4"
  top: "conv6"
  convolution_param {
    num_output: 192
    kernel_size: 3
    stride: 2
    weight_filler {
      type: "xavier"
    }
  }
}
layer {
  name: "elu6"
  type: "ELU"
  bottom: "conv6"
  top: "conv6"
}
layer {
  name: "conv7"
  type: "Convolution"
  bottom: "conv6"
  top: "conv7"
  convolution_param {
    num_output: 192
    kernel_size: 3
    weight_filler {
      type: "xavier"
    }
  }
}
layer {
  name: "elu7"
  type: "ELU"
  bottom: "conv7"
  top: "conv7"
}
layer {
  name: "conv8"
  type: "Convolution"
  bottom: "conv7"
  top: "conv8"
  convolution_param {
    num_output: 192
    kernel_size: 1
    weight_filler {
      type: "xavier"
    }
  }
}
layer {
  name: "elu8"
  type: "ELU"
  bottom: "conv8"
  top: "conv8"
}
layer {
  name: "conv9"
  type: "Convolution"
  bottom: "conv8"
  top: "conv9"
  convolution_param {
    num_output: 10
    kernel_size: 1
    weight_filler {
      type: "xavier"
    }
  }
}
layer {
  name: "elu9"
  type: "ELU"
  bottom: "conv9"
  top: "conv9"
}
layer {
  name: "pool"
  type: "Pooling"
  bottom: "conv9"
  top: "pool"
  pooling_param {
    pool: AVE
    global_pooling: true
  }
}
layer {
  name: "flatten"
  type: "Flatten"
  bottom: "pool"
  top: "flatten"
}
layer {
  name: "score"
  type: "InnerProduct"
  bottom: "flatten"
  top: "score"
  inner_product_param {
    num_output: 10
    weight_filler {
      type: "gaussian"
    }
  }
}
layer {
  name: "accuracy"
  type: "Accuracy"
  bottom: "score"
  bottom: "label"
  top: "accuracy"
}
layer {
  name: "loss"
  type: "SoftmaxWithLoss"
  bottom: "score"
  bottom: "label"
  top: "loss"
}
I1011 14:35:20.308053  5265 layer_factory.hpp:77] Creating layer data
I1011 14:35:20.308482  5265 net.cpp:100] Creating Layer data
I1011 14:35:20.308490  5265 net.cpp:408] data -> data
I1011 14:35:20.308527  5265 net.cpp:408] data -> label
I1011 14:35:20.308537  5265 data_transformer.cpp:25] Loading mean file from: mean.binaryproto
I1011 14:35:20.309221  5270 db_lmdb.cpp:35] Opened lmdb ../../../data/cifar-10/cifar10_train_lmdb
I1011 14:35:20.315563  5265 data_layer.cpp:41] output data size: 64,3,32,32
I1011 14:35:20.317132  5265 net.cpp:150] Setting up data
I1011 14:35:20.317147  5265 net.cpp:157] Top shape: 64 3 32 32 (196608)
I1011 14:35:20.317165  5265 net.cpp:157] Top shape: 64 (64)
I1011 14:35:20.317167  5265 net.cpp:165] Memory required for data: 786688
I1011 14:35:20.317175  5265 layer_factory.hpp:77] Creating layer label_data_1_split
I1011 14:35:20.317186  5265 net.cpp:100] Creating Layer label_data_1_split
I1011 14:35:20.317206  5265 net.cpp:434] label_data_1_split <- label
I1011 14:35:20.317229  5265 net.cpp:408] label_data_1_split -> label_data_1_split_0
I1011 14:35:20.317242  5265 net.cpp:408] label_data_1_split -> label_data_1_split_1
I1011 14:35:20.317287  5265 net.cpp:150] Setting up label_data_1_split
I1011 14:35:20.317293  5265 net.cpp:157] Top shape: 64 (64)
I1011 14:35:20.317296  5265 net.cpp:157] Top shape: 64 (64)
I1011 14:35:20.317297  5265 net.cpp:165] Memory required for data: 787200
I1011 14:35:20.317299  5265 layer_factory.hpp:77] Creating layer conv1
I1011 14:35:20.317311  5265 net.cpp:100] Creating Layer conv1
I1011 14:35:20.317312  5265 net.cpp:434] conv1 <- data
I1011 14:35:20.317318  5265 net.cpp:408] conv1 -> conv1
I1011 14:35:20.452515  5265 net.cpp:150] Setting up conv1
I1011 14:35:20.452539  5265 net.cpp:157] Top shape: 64 96 30 30 (5529600)
I1011 14:35:20.452543  5265 net.cpp:165] Memory required for data: 22905600
I1011 14:35:20.452561  5265 layer_factory.hpp:77] Creating layer elu1
I1011 14:35:20.452569  5265 net.cpp:100] Creating Layer elu1
I1011 14:35:20.452572  5265 net.cpp:434] elu1 <- conv1
I1011 14:35:20.452590  5265 net.cpp:395] elu1 -> conv1 (in-place)
I1011 14:35:20.452611  5265 net.cpp:150] Setting up elu1
I1011 14:35:20.452615  5265 net.cpp:157] Top shape: 64 96 30 30 (5529600)
I1011 14:35:20.452615  5265 net.cpp:165] Memory required for data: 45024000
I1011 14:35:20.452617  5265 layer_factory.hpp:77] Creating layer conv2
I1011 14:35:20.452641  5265 net.cpp:100] Creating Layer conv2
I1011 14:35:20.452642  5265 net.cpp:434] conv2 <- conv1
I1011 14:35:20.452646  5265 net.cpp:408] conv2 -> conv2
I1011 14:35:20.453963  5265 net.cpp:150] Setting up conv2
I1011 14:35:20.453974  5265 net.cpp:157] Top shape: 64 96 28 28 (4816896)
I1011 14:35:20.453976  5265 net.cpp:165] Memory required for data: 64291584
I1011 14:35:20.453984  5265 layer_factory.hpp:77] Creating layer bn1
I1011 14:35:20.453987  5265 net.cpp:100] Creating Layer bn1
I1011 14:35:20.453989  5265 net.cpp:434] bn1 <- conv2
I1011 14:35:20.453994  5265 net.cpp:408] bn1 -> bn1
I1011 14:35:20.454180  5265 net.cpp:150] Setting up bn1
I1011 14:35:20.454185  5265 net.cpp:157] Top shape: 64 96 28 28 (4816896)
I1011 14:35:20.454187  5265 net.cpp:165] Memory required for data: 83559168
I1011 14:35:20.454193  5265 layer_factory.hpp:77] Creating layer elu2
I1011 14:35:20.454197  5265 net.cpp:100] Creating Layer elu2
I1011 14:35:20.454200  5265 net.cpp:434] elu2 <- bn1
I1011 14:35:20.454202  5265 net.cpp:395] elu2 -> bn1 (in-place)
I1011 14:35:20.454206  5265 net.cpp:150] Setting up elu2
I1011 14:35:20.454208  5265 net.cpp:157] Top shape: 64 96 28 28 (4816896)
I1011 14:35:20.454210  5265 net.cpp:165] Memory required for data: 102826752
I1011 14:35:20.454239  5265 layer_factory.hpp:77] Creating layer drop1
I1011 14:35:20.454244  5265 net.cpp:100] Creating Layer drop1
I1011 14:35:20.454248  5265 net.cpp:434] drop1 <- bn1
I1011 14:35:20.454252  5265 net.cpp:408] drop1 -> drop1
I1011 14:35:20.454320  5265 net.cpp:150] Setting up drop1
I1011 14:35:20.454325  5265 net.cpp:157] Top shape: 64 96 28 28 (4816896)
I1011 14:35:20.454327  5265 net.cpp:165] Memory required for data: 122094336
I1011 14:35:20.454329  5265 layer_factory.hpp:77] Creating layer conv3
I1011 14:35:20.454335  5265 net.cpp:100] Creating Layer conv3
I1011 14:35:20.454337  5265 net.cpp:434] conv3 <- drop1
I1011 14:35:20.454340  5265 net.cpp:408] conv3 -> conv3
I1011 14:35:20.455494  5265 net.cpp:150] Setting up conv3
I1011 14:35:20.455503  5265 net.cpp:157] Top shape: 64 96 13 13 (1038336)
I1011 14:35:20.455507  5265 net.cpp:165] Memory required for data: 126247680
I1011 14:35:20.455513  5265 layer_factory.hpp:77] Creating layer elu3
I1011 14:35:20.455516  5265 net.cpp:100] Creating Layer elu3
I1011 14:35:20.455518  5265 net.cpp:434] elu3 <- conv3
I1011 14:35:20.455521  5265 net.cpp:395] elu3 -> conv3 (in-place)
I1011 14:35:20.455525  5265 net.cpp:150] Setting up elu3
I1011 14:35:20.455528  5265 net.cpp:157] Top shape: 64 96 13 13 (1038336)
I1011 14:35:20.455530  5265 net.cpp:165] Memory required for data: 130401024
I1011 14:35:20.455533  5265 layer_factory.hpp:77] Creating layer conv4
I1011 14:35:20.455538  5265 net.cpp:100] Creating Layer conv4
I1011 14:35:20.455554  5265 net.cpp:434] conv4 <- conv3
I1011 14:35:20.455557  5265 net.cpp:408] conv4 -> conv4
I1011 14:35:20.457319  5265 net.cpp:150] Setting up conv4
I1011 14:35:20.457329  5265 net.cpp:157] Top shape: 64 192 11 11 (1486848)
I1011 14:35:20.457332  5265 net.cpp:165] Memory required for data: 136348416
I1011 14:35:20.457336  5265 layer_factory.hpp:77] Creating layer elu4
I1011 14:35:20.457340  5265 net.cpp:100] Creating Layer elu4
I1011 14:35:20.457342  5265 net.cpp:434] elu4 <- conv4
I1011 14:35:20.457345  5265 net.cpp:395] elu4 -> conv4 (in-place)
I1011 14:35:20.457350  5265 net.cpp:150] Setting up elu4
I1011 14:35:20.457352  5265 net.cpp:157] Top shape: 64 192 11 11 (1486848)
I1011 14:35:20.457355  5265 net.cpp:165] Memory required for data: 142295808
I1011 14:35:20.457356  5265 layer_factory.hpp:77] Creating layer conv5
I1011 14:35:20.457360  5265 net.cpp:100] Creating Layer conv5
I1011 14:35:20.457377  5265 net.cpp:434] conv5 <- conv4
I1011 14:35:20.457381  5265 net.cpp:408] conv5 -> conv5
I1011 14:35:20.459854  5265 net.cpp:150] Setting up conv5
I1011 14:35:20.459864  5265 net.cpp:157] Top shape: 64 192 9 9 (995328)
I1011 14:35:20.459867  5265 net.cpp:165] Memory required for data: 146277120
I1011 14:35:20.459872  5265 layer_factory.hpp:77] Creating layer bn2
I1011 14:35:20.459877  5265 net.cpp:100] Creating Layer bn2
I1011 14:35:20.459878  5265 net.cpp:434] bn2 <- conv5
I1011 14:35:20.459882  5265 net.cpp:408] bn2 -> bn2
I1011 14:35:20.460072  5265 net.cpp:150] Setting up bn2
I1011 14:35:20.460078  5265 net.cpp:157] Top shape: 64 192 9 9 (995328)
I1011 14:35:20.460079  5265 net.cpp:165] Memory required for data: 150258432
I1011 14:35:20.460083  5265 layer_factory.hpp:77] Creating layer elu5
I1011 14:35:20.460088  5265 net.cpp:100] Creating Layer elu5
I1011 14:35:20.460089  5265 net.cpp:434] elu5 <- bn2
I1011 14:35:20.460093  5265 net.cpp:395] elu5 -> bn2 (in-place)
I1011 14:35:20.460096  5265 net.cpp:150] Setting up elu5
I1011 14:35:20.460098  5265 net.cpp:157] Top shape: 64 192 9 9 (995328)
I1011 14:35:20.460100  5265 net.cpp:165] Memory required for data: 154239744
I1011 14:35:20.460103  5265 layer_factory.hpp:77] Creating layer drop4
I1011 14:35:20.460106  5265 net.cpp:100] Creating Layer drop4
I1011 14:35:20.460108  5265 net.cpp:434] drop4 <- bn2
I1011 14:35:20.460125  5265 net.cpp:408] drop4 -> drop4
I1011 14:35:20.460165  5265 net.cpp:150] Setting up drop4
I1011 14:35:20.460181  5265 net.cpp:157] Top shape: 64 192 9 9 (995328)
I1011 14:35:20.460183  5265 net.cpp:165] Memory required for data: 158221056
I1011 14:35:20.460209  5265 layer_factory.hpp:77] Creating layer conv6
I1011 14:35:20.460229  5265 net.cpp:100] Creating Layer conv6
I1011 14:35:20.460232  5265 net.cpp:434] conv6 <- drop4
I1011 14:35:20.460235  5265 net.cpp:408] conv6 -> conv6
I1011 14:35:20.462782  5265 net.cpp:150] Setting up conv6
I1011 14:35:20.462793  5265 net.cpp:157] Top shape: 64 192 4 4 (196608)
I1011 14:35:20.462796  5265 net.cpp:165] Memory required for data: 159007488
I1011 14:35:20.462805  5265 layer_factory.hpp:77] Creating layer elu6
I1011 14:35:20.462808  5265 net.cpp:100] Creating Layer elu6
I1011 14:35:20.462810  5265 net.cpp:434] elu6 <- conv6
I1011 14:35:20.462815  5265 net.cpp:395] elu6 -> conv6 (in-place)
I1011 14:35:20.462818  5265 net.cpp:150] Setting up elu6
I1011 14:35:20.462821  5265 net.cpp:157] Top shape: 64 192 4 4 (196608)
I1011 14:35:20.462823  5265 net.cpp:165] Memory required for data: 159793920
I1011 14:35:20.462824  5265 layer_factory.hpp:77] Creating layer conv7
I1011 14:35:20.462844  5265 net.cpp:100] Creating Layer conv7
I1011 14:35:20.462846  5265 net.cpp:434] conv7 <- conv6
I1011 14:35:20.462852  5265 net.cpp:408] conv7 -> conv7
I1011 14:35:20.465850  5265 net.cpp:150] Setting up conv7
I1011 14:35:20.465872  5265 net.cpp:157] Top shape: 64 192 2 2 (49152)
I1011 14:35:20.465873  5265 net.cpp:165] Memory required for data: 159990528
I1011 14:35:20.465879  5265 layer_factory.hpp:77] Creating layer elu7
I1011 14:35:20.465885  5265 net.cpp:100] Creating Layer elu7
I1011 14:35:20.465888  5265 net.cpp:434] elu7 <- conv7
I1011 14:35:20.465893  5265 net.cpp:395] elu7 -> conv7 (in-place)
I1011 14:35:20.465898  5265 net.cpp:150] Setting up elu7
I1011 14:35:20.465900  5265 net.cpp:157] Top shape: 64 192 2 2 (49152)
I1011 14:35:20.465903  5265 net.cpp:165] Memory required for data: 160187136
I1011 14:35:20.465904  5265 layer_factory.hpp:77] Creating layer conv8
I1011 14:35:20.465925  5265 net.cpp:100] Creating Layer conv8
I1011 14:35:20.465927  5265 net.cpp:434] conv8 <- conv7
I1011 14:35:20.465931  5265 net.cpp:408] conv8 -> conv8
I1011 14:35:20.467170  5265 net.cpp:150] Setting up conv8
I1011 14:35:20.467178  5265 net.cpp:157] Top shape: 64 192 2 2 (49152)
I1011 14:35:20.467181  5265 net.cpp:165] Memory required for data: 160383744
I1011 14:35:20.467185  5265 layer_factory.hpp:77] Creating layer elu8
I1011 14:35:20.467190  5265 net.cpp:100] Creating Layer elu8
I1011 14:35:20.467191  5265 net.cpp:434] elu8 <- conv8
I1011 14:35:20.467195  5265 net.cpp:395] elu8 -> conv8 (in-place)
I1011 14:35:20.467200  5265 net.cpp:150] Setting up elu8
I1011 14:35:20.467203  5265 net.cpp:157] Top shape: 64 192 2 2 (49152)
I1011 14:35:20.467205  5265 net.cpp:165] Memory required for data: 160580352
I1011 14:35:20.467206  5265 layer_factory.hpp:77] Creating layer conv9
I1011 14:35:20.467211  5265 net.cpp:100] Creating Layer conv9
I1011 14:35:20.467228  5265 net.cpp:434] conv9 <- conv8
I1011 14:35:20.467231  5265 net.cpp:408] conv9 -> conv9
I1011 14:35:20.468050  5265 net.cpp:150] Setting up conv9
I1011 14:35:20.468060  5265 net.cpp:157] Top shape: 64 10 2 2 (2560)
I1011 14:35:20.468061  5265 net.cpp:165] Memory required for data: 160590592
I1011 14:35:20.468065  5265 layer_factory.hpp:77] Creating layer elu9
I1011 14:35:20.468070  5265 net.cpp:100] Creating Layer elu9
I1011 14:35:20.468072  5265 net.cpp:434] elu9 <- conv9
I1011 14:35:20.468075  5265 net.cpp:395] elu9 -> conv9 (in-place)
I1011 14:35:20.468080  5265 net.cpp:150] Setting up elu9
I1011 14:35:20.468082  5265 net.cpp:157] Top shape: 64 10 2 2 (2560)
I1011 14:35:20.468085  5265 net.cpp:165] Memory required for data: 160600832
I1011 14:35:20.468086  5265 layer_factory.hpp:77] Creating layer pool
I1011 14:35:20.468091  5265 net.cpp:100] Creating Layer pool
I1011 14:35:20.468106  5265 net.cpp:434] pool <- conv9
I1011 14:35:20.468111  5265 net.cpp:408] pool -> pool
I1011 14:35:20.468497  5265 net.cpp:150] Setting up pool
I1011 14:35:20.468504  5265 net.cpp:157] Top shape: 64 10 1 1 (640)
I1011 14:35:20.468507  5265 net.cpp:165] Memory required for data: 160603392
I1011 14:35:20.468519  5265 layer_factory.hpp:77] Creating layer flatten
I1011 14:35:20.468523  5265 net.cpp:100] Creating Layer flatten
I1011 14:35:20.468526  5265 net.cpp:434] flatten <- pool
I1011 14:35:20.468530  5265 net.cpp:408] flatten -> flatten
I1011 14:35:20.468565  5265 net.cpp:150] Setting up flatten
I1011 14:35:20.468571  5265 net.cpp:157] Top shape: 64 10 (640)
I1011 14:35:20.468587  5265 net.cpp:165] Memory required for data: 160605952
I1011 14:35:20.468590  5265 layer_factory.hpp:77] Creating layer score
I1011 14:35:20.468593  5265 net.cpp:100] Creating Layer score
I1011 14:35:20.468608  5265 net.cpp:434] score <- flatten
I1011 14:35:20.468611  5265 net.cpp:408] score -> score
I1011 14:35:20.468775  5265 net.cpp:150] Setting up score
I1011 14:35:20.468780  5265 net.cpp:157] Top shape: 64 10 (640)
I1011 14:35:20.468781  5265 net.cpp:165] Memory required for data: 160608512
I1011 14:35:20.468786  5265 layer_factory.hpp:77] Creating layer score_score_0_split
I1011 14:35:20.468791  5265 net.cpp:100] Creating Layer score_score_0_split
I1011 14:35:20.468792  5265 net.cpp:434] score_score_0_split <- score
I1011 14:35:20.468796  5265 net.cpp:408] score_score_0_split -> score_score_0_split_0
I1011 14:35:20.468801  5265 net.cpp:408] score_score_0_split -> score_score_0_split_1
I1011 14:35:20.468840  5265 net.cpp:150] Setting up score_score_0_split
I1011 14:35:20.468847  5265 net.cpp:157] Top shape: 64 10 (640)
I1011 14:35:20.468848  5265 net.cpp:157] Top shape: 64 10 (640)
I1011 14:35:20.468864  5265 net.cpp:165] Memory required for data: 160613632
I1011 14:35:20.468866  5265 layer_factory.hpp:77] Creating layer accuracy
I1011 14:35:20.468870  5265 net.cpp:100] Creating Layer accuracy
I1011 14:35:20.468873  5265 net.cpp:434] accuracy <- score_score_0_split_0
I1011 14:35:20.468888  5265 net.cpp:434] accuracy <- label_data_1_split_0
I1011 14:35:20.468891  5265 net.cpp:408] accuracy -> accuracy
…
