…
solver_mode: GPU
device_id: 0
train_state {
  level: 0
  stage: ""
}
type: "RMSProp"
I1017 19:27:39.618779  4103 solver.cpp:81] Creating training net from train_net file: /home/adam/Honours/Honours-Project/cifar-10_pooling/max/elu/poolcnn_elu_train.prototxt
I1017 19:27:39.619071  4103 net.cpp:58] Initializing net from parameters: 
state {
  phase: TRAIN
  level: 0
  stage: ""
}
layer {
  name: "data"
  type: "Data"
  top: "data"
  top: "label"
  data_param {
    source: "../../../../data/cifar-10/cifar10_train_lmdb"
    batch_size: 64
    backend: LMDB
  }
}
layer {
  name: "conv1"
  type: "Convolution"
  bottom: "data"
  top: "conv1"
  convolution_param {
    num_output: 192
    kernel_size: 5
    weight_filler {
      type: "xavier"
    }
  }
}
layer {
  name: "pool1"
  type: "Pooling"
  bottom: "conv1"
  top: "pool1"
  pooling_param {
    pool: MAX
    kernel_size: 2
    stride: 2
  }
}
layer {
  name: "drop1"
  type: "Dropout"
  bottom: "pool1"
  top: "drop1"
  dropout_param {
    dropout_ratio: 0
  }
}
layer {
  name: "elu1"
  type: "ELU"
  bottom: "drop1"
  top: "elu1"
}
layer {
  name: "conv2"
  type: "Convolution"
  bottom: "elu1"
  top: "conv2"
  convolution_param {
    num_output: 192
    kernel_size: 1
    weight_filler {
      type: "xavier"
    }
  }
}
layer {
  name: "conv3"
  type: "Convolution"
  bottom: "conv2"
  top: "conv3"
  convolution_param {
    num_output: 240
    kernel_size: 3
    weight_filler {
      type: "xavier"
    }
  }
}
layer {
  name: "pool2"
  type: "Pooling"
  bottom: "conv3"
  top: "pool2"
  pooling_param {
    pool: MAX
    kernel_size: 2
    stride: 2
  }
}
layer {
  name: "drop2"
  type: "Dropout"
  bottom: "pool2"
  top: "drop2"
  dropout_param {
    dropout_ratio: 0.1
  }
}
layer {
  name: "elu2"
  type: "ELU"
  bottom: "drop2"
  top: "elu2"
}
layer {
  name: "conv4"
  type: "Convolution"
  bottom: "elu2"
  top: "conv4"
  convolution_param {
    num_output: 240
    kernel_size: 1
    weight_filler {
      type: "xavier"
    }
  }
}
layer {
  name: "conv5"
  type: "Convolution"
  bottom: "conv4"
  top: "conv5"
  convolution_param {
    num_output: 260
    kernel_size: 2
    weight_filler {
      type: "xavier"
    }
  }
}
layer {
  name: "pool3"
  type: "Pooling"
  bottom: "conv5"
  top: "pool3"
  pooling_param {
    pool: MAX
    kernel_size: 2
    stride: 2
  }
}
layer {
  name: "drop3"
  type: "Dropout"
  bottom: "pool3"
  top: "drop3"
  dropout_param {
    dropout_ratio: 0.2
  }
}
layer {
  name: "elu3"
  type: "ELU"
  bottom: "drop3"
  top: "elu3"
}
layer {
  name: "conv6"
  type: "Convolution"
  bottom: "elu3"
  top: "conv6"
  convolution_param {
    num_output: 260
    kernel_size: 1
    weight_filler {
      type: "xavier"
    }
  }
}
layer {
  name: "conv7"
  type: "Convolution"
  bottom: "conv6"
  top: "conv7"
  convolution_param {
    num_output: 280
    kernel_size: 2
    weight_filler {
      type: "xavier"
    }
  }
}
layer {
  name: "pool4"
  type: "Pooling"
  bottom: "conv7"
  top: "pool4"
  pooling_param {
    pool: MAX
    kernel_size: 2
    stride: 2
  }
}
layer {
  name: "drop4"
  type: "Dropout"
  bottom: "pool4"
  top: "drop4"
  dropout_param {
    dropout_ratio: 0.3
  }
}
layer {
  name: "elu4"
  type: "ELU"
  bottom: "drop4"
  top: "elu4"
}
layer {
  name: "conv8"
  type: "Convolution"
  bottom: "elu4"
  top: "conv8"
  convolution_param {
    num_output: 280
    kernel_size: 1
    weight_filler {
      type: "xavier"
    }
  }
}
layer {
  name: "pool5"
  type: "Pooling"
  bottom: "conv8"
  top: "pool5"
  pooling_param {
    pool: MAX
    kernel_size: 2
    stride: 2
  }
}
layer {
  name: "drop5"
  type: "Dropout"
  bottom: "pool5"
  top: "drop5"
  dropout_param {
    dropout_ratio: 0.4
  }
}
layer {
  name: "elu5"
  type: "ELU"
  bottom: "drop5"
  top: "elu5"
}
layer {
  name: "conv10"
  type: "Convolution"
  bottom: "elu5"
  top: "conv10"
  convolution_param {
    num_output: 300
    kernel_size: 1
    weight_filler {
      type: "xavier"
    }
  }
}
layer {
  name: "pool6"
  type: "Pooling"
  bottom: "conv10"
  top: "pool6"
  pooling_param {
    pool: MAX
    kernel_size: 2
    stride: 2
  }
}
layer {
  name: "drop6"
  type: "Dropout"
  bottom: "pool6"
  top: "drop6"
  dropout_param {
    dropout_ratio: 0.5
  }
}
layer {
  name: "elu6"
  type: "ELU"
  bottom: "drop6"
  top: "elu6"
}
layer {
  name: "conv11"
  type: "Convolution"
  bottom: "elu6"
  top: "conv11"
  convolution_param {
    num_output: 100
    kernel_size: 1
    weight_filler {
      type: "xavier"
    }
  }
}
layer {
  name: "pool7"
  type: "Pooling"
  bottom: "conv11"
  top: "pool7"
  pooling_param {
    pool: MAX
    kernel_size: 2
    stride: 2
  }
}
layer {
  name: "drop7"
  type: "Dropout"
  bottom: "pool7"
  top: "drop7"
  dropout_param {
    dropout_ratio: 0
  }
}
layer {
  name: "elu7"
  type: "ELU"
  bottom: "drop7"
  top: "elu7"
}
layer {
  name: "pool"
  type: "Pooling"
  bottom: "elu7"
  top: "pool"
  pooling_param {
    pool: AVE
    global_pooling: true
  }
}
layer {
  name: "flatten"
  type: "Flatten"
  bottom: "pool"
  top: "flatten"
}
layer {
  name: "score"
  type: "InnerProduct"
  bottom: "flatten"
  top: "score"
  inner_product_param {
    num_output: 10
    weight_filler {
      type: "gaussian"
    }
  }
}
layer {
  name: "accuracy"
  type: "Accuracy"
  bottom: "score"
  bottom: "label"
  top: "accuracy"
}
layer {
  name: "loss"
  type: "SoftmaxWithLoss"
  bottom: "score"
  bottom: "label"
  top: "loss"
}
I1017 19:27:39.619175  4103 layer_factory.hpp:77] Creating layer data
I1017 19:27:39.619552  4103 net.cpp:100] Creating Layer data
I1017 19:27:39.619560  4103 net.cpp:408] data -> data
I1017 19:27:39.619573  4103 net.cpp:408] data -> label
I1017 19:27:39.620121  4120 db_lmdb.cpp:35] Opened lmdb ../../../../data/cifar-10/cifar10_train_lmdb
I1017 19:27:39.625510  4103 data_layer.cpp:41] output data size: 64,3,32,32
I1017 19:27:39.626881  4103 net.cpp:150] Setting up data
I1017 19:27:39.626894  4103 net.cpp:157] Top shape: 64 3 32 32 (196608)
I1017 19:27:39.626898  4103 net.cpp:157] Top shape: 64 (64)
I1017 19:27:39.626899  4103 net.cpp:165] Memory required for data: 786688
I1017 19:27:39.626909  4103 layer_factory.hpp:77] Creating layer label_data_1_split
I1017 19:27:39.626917  4103 net.cpp:100] Creating Layer label_data_1_split
I1017 19:27:39.626921  4103 net.cpp:434] label_data_1_split <- label
I1017 19:27:39.626932  4103 net.cpp:408] label_data_1_split -> label_data_1_split_0
I1017 19:27:39.626940  4103 net.cpp:408] label_data_1_split -> label_data_1_split_1
I1017 19:27:39.626965  4103 net.cpp:150] Setting up label_data_1_split
I1017 19:27:39.626971  4103 net.cpp:157] Top shape: 64 (64)
I1017 19:27:39.626972  4103 net.cpp:157] Top shape: 64 (64)
I1017 19:27:39.626973  4103 net.cpp:165] Memory required for data: 787200
I1017 19:27:39.626976  4103 layer_factory.hpp:77] Creating layer conv1
I1017 19:27:39.626987  4103 net.cpp:100] Creating Layer conv1
I1017 19:27:39.626989  4103 net.cpp:434] conv1 <- data
I1017 19:27:39.626993  4103 net.cpp:408] conv1 -> conv1
I1017 19:27:39.747298  4103 net.cpp:150] Setting up conv1
I1017 19:27:39.747325  4103 net.cpp:157] Top shape: 64 192 28 28 (9633792)
I1017 19:27:39.747328  4103 net.cpp:165] Memory required for data: 39322368
I1017 19:27:39.747349  4103 layer_factory.hpp:77] Creating layer pool1
I1017 19:27:39.747357  4103 net.cpp:100] Creating Layer pool1
I1017 19:27:39.747360  4103 net.cpp:434] pool1 <- conv1
I1017 19:27:39.747365  4103 net.cpp:408] pool1 -> pool1
I1017 19:27:39.747403  4103 net.cpp:150] Setting up pool1
I1017 19:27:39.747407  4103 net.cpp:157] Top shape: 64 192 14 14 (2408448)
I1017 19:27:39.747409  4103 net.cpp:165] Memory required for data: 48956160
I1017 19:27:39.747424  4103 layer_factory.hpp:77] Creating layer drop1
I1017 19:27:39.747431  4103 net.cpp:100] Creating Layer drop1
I1017 19:27:39.747433  4103 net.cpp:434] drop1 <- pool1
I1017 19:27:39.747437  4103 net.cpp:408] drop1 -> drop1
I1017 19:27:39.747462  4103 net.cpp:150] Setting up drop1
I1017 19:27:39.747467  4103 net.cpp:157] Top shape: 64 192 14 14 (2408448)
I1017 19:27:39.747468  4103 net.cpp:165] Memory required for data: 58589952
I1017 19:27:39.747470  4103 layer_factory.hpp:77] Creating layer elu1
I1017 19:27:39.747473  4103 net.cpp:100] Creating Layer elu1
I1017 19:27:39.747476  4103 net.cpp:434] elu1 <- drop1
I1017 19:27:39.747479  4103 net.cpp:408] elu1 -> elu1
I1017 19:27:39.747491  4103 net.cpp:150] Setting up elu1
I1017 19:27:39.747495  4103 net.cpp:157] Top shape: 64 192 14 14 (2408448)
I1017 19:27:39.747496  4103 net.cpp:165] Memory required for data: 68223744
I1017 19:27:39.747498  4103 layer_factory.hpp:77] Creating layer conv2
I1017 19:27:39.747505  4103 net.cpp:100] Creating Layer conv2
I1017 19:27:39.747506  4103 net.cpp:434] conv2 <- elu1
I1017 19:27:39.747510  4103 net.cpp:408] conv2 -> conv2
I1017 19:27:39.748468  4103 net.cpp:150] Setting up conv2
I1017 19:27:39.748476  4103 net.cpp:157] Top shape: 64 192 14 14 (2408448)
I1017 19:27:39.748478  4103 net.cpp:165] Memory required for data: 77857536
I1017 19:27:39.748483  4103 layer_factory.hpp:77] Creating layer conv3
I1017 19:27:39.748488  4103 net.cpp:100] Creating Layer conv3
I1017 19:27:39.748491  4103 net.cpp:434] conv3 <- conv2
I1017 19:27:39.748493  4103 net.cpp:408] conv3 -> conv3
I1017 19:27:39.750954  4103 net.cpp:150] Setting up conv3
I1017 19:27:39.750962  4103 net.cpp:157] Top shape: 64 240 12 12 (2211840)
I1017 19:27:39.750964  4103 net.cpp:165] Memory required for data: 86704896
I1017 19:27:39.750969  4103 layer_factory.hpp:77] Creating layer pool2
I1017 19:27:39.750973  4103 net.cpp:100] Creating Layer pool2
I1017 19:27:39.750975  4103 net.cpp:434] pool2 <- conv3
I1017 19:27:39.750979  4103 net.cpp:408] pool2 -> pool2
I1017 19:27:39.751003  4103 net.cpp:150] Setting up pool2
I1017 19:27:39.751006  4103 net.cpp:157] Top shape: 64 240 6 6 (552960)
I1017 19:27:39.751008  4103 net.cpp:165] Memory required for data: 88916736
I1017 19:27:39.751010  4103 layer_factory.hpp:77] Creating layer drop2
I1017 19:27:39.751013  4103 net.cpp:100] Creating Layer drop2
I1017 19:27:39.751014  4103 net.cpp:434] drop2 <- pool2
I1017 19:27:39.751018  4103 net.cpp:408] drop2 -> drop2
I1017 19:27:39.751037  4103 net.cpp:150] Setting up drop2
I1017 19:27:39.751040  4103 net.cpp:157] Top shape: 64 240 6 6 (552960)
I1017 19:27:39.751042  4103 net.cpp:165] Memory required for data: 91128576
I1017 19:27:39.751044  4103 layer_factory.hpp:77] Creating layer elu2
I1017 19:27:39.751046  4103 net.cpp:100] Creating Layer elu2
I1017 19:27:39.751049  4103 net.cpp:434] elu2 <- drop2
I1017 19:27:39.751051  4103 net.cpp:408] elu2 -> elu2
I1017 19:27:39.751062  4103 net.cpp:150] Setting up elu2
I1017 19:27:39.751066  4103 net.cpp:157] Top shape: 64 240 6 6 (552960)
I1017 19:27:39.751068  4103 net.cpp:165] Memory required for data: 93340416
I1017 19:27:39.751070  4103 layer_factory.hpp:77] Creating layer conv4
I1017 19:27:39.751075  4103 net.cpp:100] Creating Layer conv4
I1017 19:27:39.751076  4103 net.cpp:434] conv4 <- elu2
I1017 19:27:39.751080  4103 net.cpp:408] conv4 -> conv4
I1017 19:27:39.751863  4103 net.cpp:150] Setting up conv4
I1017 19:27:39.751869  4103 net.cpp:157] Top shape: 64 240 6 6 (552960)
I1017 19:27:39.751871  4103 net.cpp:165] Memory required for data: 95552256
I1017 19:27:39.751875  4103 layer_factory.hpp:77] Creating layer conv5
I1017 19:27:39.751880  4103 net.cpp:100] Creating Layer conv5
I1017 19:27:39.751881  4103 net.cpp:434] conv5 <- conv4
I1017 19:27:39.751885  4103 net.cpp:408] conv5 -> conv5
I1017 19:27:39.753597  4103 net.cpp:150] Setting up conv5
I1017 19:27:39.753603  4103 net.cpp:157] Top shape: 64 260 5 5 (416000)
I1017 19:27:39.753605  4103 net.cpp:165] Memory required for data: 97216256
I1017 19:27:39.753618  4103 layer_factory.hpp:77] Creating layer pool3
I1017 19:27:39.753623  4103 net.cpp:100] Creating Layer pool3
I1017 19:27:39.753625  4103 net.cpp:434] pool3 <- conv5
I1017 19:27:39.753628  4103 net.cpp:408] pool3 -> pool3
I1017 19:27:39.753651  4103 net.cpp:150] Setting up pool3
I1017 19:27:39.753655  4103 net.cpp:157] Top shape: 64 260 3 3 (149760)
I1017 19:27:39.753657  4103 net.cpp:165] Memory required for data: 97815296
I1017 19:27:39.753659  4103 layer_factory.hpp:77] Creating layer drop3
I1017 19:27:39.753662  4103 net.cpp:100] Creating Layer drop3
I1017 19:27:39.753664  4103 net.cpp:434] drop3 <- pool3
I1017 19:27:39.753670  4103 net.cpp:408] drop3 -> drop3
I1017 19:27:39.753692  4103 net.cpp:150] Setting up drop3
I1017 19:27:39.753696  4103 net.cpp:157] Top shape: 64 260 3 3 (149760)
I1017 19:27:39.753697  4103 net.cpp:165] Memory required for data: 98414336
I1017 19:27:39.753700  4103 layer_factory.hpp:77] Creating layer elu3
I1017 19:27:39.753701  4103 net.cpp:100] Creating Layer elu3
I1017 19:27:39.753703  4103 net.cpp:434] elu3 <- drop3
I1017 19:27:39.753706  4103 net.cpp:408] elu3 -> elu3
I1017 19:27:39.753718  4103 net.cpp:150] Setting up elu3
I1017 19:27:39.753722  4103 net.cpp:157] Top shape: 64 260 3 3 (149760)
I1017 19:27:39.753725  4103 net.cpp:165] Memory required for data: 99013376
I1017 19:27:39.753726  4103 layer_factory.hpp:77] Creating layer conv6
I1017 19:27:39.753731  4103 net.cpp:100] Creating Layer conv6
I1017 19:27:39.753732  4103 net.cpp:434] conv6 <- elu3
I1017 19:27:39.753736  4103 net.cpp:408] conv6 -> conv6
I1017 19:27:39.754804  4103 net.cpp:150] Setting up conv6
I1017 19:27:39.754812  4103 net.cpp:157] Top shape: 64 260 3 3 (149760)
I1017 19:27:39.754813  4103 net.cpp:165] Memory required for data: 99612416
I1017 19:27:39.754818  4103 layer_factory.hpp:77] Creating layer conv7
I1017 19:27:39.754824  4103 net.cpp:100] Creating Layer conv7
I1017 19:27:39.754827  4103 net.cpp:434] conv7 <- conv6
I1017 19:27:39.754830  4103 net.cpp:408] conv7 -> conv7
I1017 19:27:39.756631  4103 net.cpp:150] Setting up conv7
I1017 19:27:39.756639  4103 net.cpp:157] Top shape: 64 280 2 2 (71680)
I1017 19:27:39.756642  4103 net.cpp:165] Memory required for data: 99899136
I1017 19:27:39.756645  4103 layer_factory.hpp:77] Creating layer pool4
I1017 19:27:39.756650  4103 net.cpp:100] Creating Layer pool4
I1017 19:27:39.756654  4103 net.cpp:434] pool4 <- conv7
I1017 19:27:39.756656  4103 net.cpp:408] pool4 -> pool4
I1017 19:27:39.756678  4103 net.cpp:150] Setting up pool4
I1017 19:27:39.756683  4103 net.cpp:157] Top shape: 64 280 1 1 (17920)
I1017 19:27:39.756685  4103 net.cpp:165] Memory required for data: 99970816
I1017 19:27:39.756687  4103 layer_factory.hpp:77] Creating layer drop4
I1017 19:27:39.756690  4103 net.cpp:100] Creating Layer drop4
I1017 19:27:39.756693  4103 net.cpp:434] drop4 <- pool4
I1017 19:27:39.756695  4103 net.cpp:408] drop4 -> drop4
I1017 19:27:39.756716  4103 net.cpp:150] Setting up drop4
I1017 19:27:39.756721  4103 net.cpp:157] Top shape: 64 280 1 1 (17920)
I1017 19:27:39.756722  4103 net.cpp:165] Memory required for data: 100042496
I1017 19:27:39.756724  4103 layer_factory.hpp:77] Creating layer elu4
I1017 19:27:39.756727  4103 net.cpp:100] Creating Layer elu4
I1017 19:27:39.756729  4103 net.cpp:434] elu4 <- drop4
I1017 19:27:39.756732  4103 net.cpp:408] elu4 -> elu4
I1017 19:27:39.756743  4103 net.cpp:150] Setting up elu4
I1017 19:27:39.756747  4103 net.cpp:157] Top shape: 64 280 1 1 (17920)
I1017 19:27:39.756749  4103 net.cpp:165] Memory required for data: 100114176
I1017 19:27:39.756752  4103 layer_factory.hpp:77] Creating layer conv8
I1017 19:27:39.756755  4103 net.cpp:100] Creating Layer conv8
I1017 19:27:39.756758  4103 net.cpp:434] conv8 <- elu4
I1017 19:27:39.756762  4103 net.cpp:408] conv8 -> conv8
I1017 19:27:39.757627  4103 net.cpp:150] Setting up conv8
I1017 19:27:39.757633  4103 net.cpp:157] Top shape: 64 280 1 1 (17920)
I1017 19:27:39.757637  4103 net.cpp:165] Memory required for data: 100185856
I1017 19:27:39.757639  4103 layer_factory.hpp:77] Creating layer pool5
I1017 19:27:39.757650  4103 net.cpp:100] Creating Layer pool5
I1017 19:27:39.757653  4103 net.cpp:434] pool5 <- conv8
I1017 19:27:39.757657  4103 net.cpp:408] pool5 -> pool5
I1017 19:27:39.757684  4103 net.cpp:150] Setting up pool5
I1017 19:27:39.757689  4103 net.cpp:157] Top shape: 64 280 1 1 (17920)
I1017 19:27:39.757691  4103 net.cpp:165] Memory required for data: 100257536
I1017 19:27:39.757694  4103 layer_factory.hpp:77] Creating layer drop5
I1017 19:27:39.757695  4103 net.cpp:100] Creating Layer drop5
I1017 19:27:39.757699  4103 net.cpp:434] drop5 <- pool5
I1017 19:27:39.757701  4103 net.cpp:408] drop5 -> drop5
I1017 19:27:39.757722  4103 net.cpp:150] Setting up drop5
I1017 19:27:39.757726  4103 net.cpp:157] Top shape: 64 280 1 1 (17920)
I1017 19:27:39.757728  4103 net.cpp:165] Memory required for data: 100329216
I1017 19:27:39.757730  4103 layer_factory.hpp:77] Creating layer elu5
I1017 19:27:39.757735  4103 net.cpp:100] Creating Layer elu5
I1017 19:27:39.757735  4103 net.cpp:434] elu5 <- drop5
I1017 19:27:39.757740  4103 net.cpp:408] elu5 -> elu5
I1017 19:27:39.757751  4103 net.cpp:150] Setting up elu5
I1017 19:27:39.757755  4103 net.cpp:157] Top shape: 64 280 1 1 (17920)
I1017 19:27:39.757757  4103 net.cpp:165] Memory required for data: 100400896
I1017 19:27:39.757760  4103 layer_factory.hpp:77] Creating layer conv10
I1017 19:27:39.757763  4103 net.cpp:100] Creating Layer conv10
I1017 19:27:39.757766  4103 net.cpp:434] conv10 <- elu5
I1017 19:27:39.757768  4103 net.cpp:408] conv10 -> conv10
I1017 19:27:39.758667  4103 net.cpp:150] Setting up conv10
I1017 19:27:39.758674  4103 net.cpp:157] Top shape: 64 300 1 1 (19200)
I1017 19:27:39.758677  4103 net.cpp:165] Memory required for data: 100477696
I1017 19:27:39.758684  4103 layer_factory.hpp:77] Creating layer pool6
I1017 19:27:39.758689  4103 net.cpp:100] Creating Layer pool6
I1017 19:27:39.758692  4103 net.cpp:434] pool6 <- conv10
I1017 19:27:39.758695  4103 net.cpp:408] pool6 -> pool6
I1017 19:27:39.758720  4103 net.cpp:150] Setting up pool6
I1017 19:27:39.758724  4103 net.cpp:157] Top shape: 64 300 1 1 (19200)
I1017 19:27:39.758726  4103 net.cpp:165] Memory required for data: 100554496
I1017 19:27:39.758728  4103 layer_factory.hpp:77] Creating layer drop6
I1017 19:27:39.758731  4103 net.cpp:100] Creating Layer drop6
I1017 19:27:39.758734  4103 net.cpp:434] drop6 <- pool6
I1017 19:27:39.758738  4103 net.cpp:408] drop6 -> drop6
I1017 19:27:39.758759  4103 net.cpp:150] Setting up drop6
I1017 19:27:39.758761  4103 net.cpp:157] Top shape: 64 300 1 1 (19200)
I1017 19:27:39.758764  4103 net.cpp:165] Memory required for data: 100631296
I1017 19:27:39.758766  4103 layer_factory.hpp:77] Creating layer elu6
I1017 19:27:39.758769  4103 net.cpp:100] Creating Layer elu6
I1017 19:27:39.758771  4103 net.cpp:434] elu6 <- drop6
I1017 19:27:39.758774  4103 net.cpp:408] elu6 -> elu6
I1017 19:27:39.758786  4103 net.cpp:150] Setting up elu6
I1017 19:27:39.758790  4103 net.cpp:157] Top shape: 64 300 1 1 (19200)
I1017 19:27:39.758791  4103 net.cpp:165] Memory required for data: 100708096
I1017 19:27:39.758793  4103 layer_factory.hpp:77] Creating layer conv11
I1017 19:27:39.758798  4103 net.cpp:100] Creating Layer conv11
I1017 19:27:39.758801  4103 net.cpp:434] conv11 <- elu6
I1017 19:27:39.758805  4103 net.cpp:408] conv11 -> conv11
I1017 19:27:39.759624  4103 net.cpp:150] Setting up conv11
I1017 19:27:39.759632  4103 net.cpp:157] Top shape: 64 100 1 1 (6400)
I1017 19:27:39.759634  4103 net.cpp:165] Memory required for data: 100733696
I1017 19:27:39.759637  4103 layer_factory.hpp:77] Creating layer pool7
I1017 19:27:39.759642  4103 net.cpp:100] Creating Layer pool7
I1017 19:27:39.759645  4103 net.cpp:434] pool7 <- conv11
I1017 19:27:39.759649  4103 net.cpp:408] pool7 -> pool7
I1017 19:27:39.759675  4103 net.cpp:150] Setting up pool7
I1017 19:27:39.759680  4103 net.cpp:157] Top shape: 64 100 1 1 (6400)
I1017 19:27:39.759681  4103 net.cpp:165] Memory required for data: 100759296
I1017 19:27:39.759682  4103 layer_factory.hpp:77] Creating layer drop7
I1017 19:27:39.759686  4103 net.cpp:100] Creating Layer drop7
I1017 19:27:39.759697  4103 net.cpp:434] drop7 <- pool7
I1017 19:27:39.759701  4103 net.cpp:408] drop7 -> drop7
I1017 19:27:39.759721  4103 net.cpp:150] Setting up drop7
I1017 19:27:39.759726  4103 net.cpp:157] Top shape: 64 100 1 1 (6400)
I1017 19:27:39.759727  4103 net.cpp:165] Memory required for data: 100784896
I1017 19:27:39.759729  4103 layer_factory.hpp:77] Creating layer elu7
I1017 19:27:39.759734  4103 net.cpp:100] Creating Layer elu7
I1017 19:27:39.759738  4103 net.cpp:434] elu7 <- drop7
I1017 19:27:39.759743  4103 net.cpp:408] elu7 -> elu7
I1017 19:27:39.759760  4103 net.cpp:150] Setting up elu7
I1017 19:27:39.759768  4103 net.cpp:157] Top shape: 64 100 1 1 (6400)
I1017 19:27:39.759773  4103 net.cpp:165] Memory required for data: 100810496
I1017 19:27:39.759776  4103 layer_factory.hpp:77] Creating layer pool
I1017 19:27:39.759783  4103 net.cpp:100] Creating Layer pool
I1017 19:27:39.759785  4103 net.cpp:434] pool <- elu7
I1017 19:27:39.759790  4103 net.cpp:408] pool -> pool
I1017 19:27:39.759915  4103 net.cpp:150] Setting up pool
I1017 19:27:39.759922  4103 net.cpp:157] Top shape: 64 100 1 1 (6400)
I1017 19:27:39.759924  4103 net.cpp:165] Memory required for data: 100836096
I1017 19:27:39.759927  4103 layer_factory.hpp:77] Creating layer flatten
I1017 19:27:39.759932  4103 net.cpp:100] Creating Layer flatten
I1017 19:27:39.759937  4103 net.cpp:434] flatten <- pool
I1017 19:27:39.759940  4103 net.cpp:408] flatten -> flatten
I1017 19:27:39.759958  4103 net.cpp:150] Setting up flatten
I1017 19:27:39.759963  4103 net.cpp:157] Top shape: 64 100 (6400)
I1017 19:27:39.759965  4103 net.cpp:165] Memory required for data: 100861696
I1017 19:27:39.759968  4103 layer_factory.hpp:77] Creating layer score
I1017 19:27:39.759974  4103 net.cpp:100] Creating Layer score
I1017 19:27:39.759979  4103 net.cpp:434] score <- flatten
I1017 19:27:39.759984  4103 net.cpp:408] score -> score
I1017 19:27:39.760078  4103 net.cpp:150] Setting up score
I1017 19:27:39.760083  4103 net.cpp:157] Top shape: 64 10 (640)
I1017 19:27:39.760087  4103 net.cpp:165] Memory required for data: 100864256
I1017 19:27:39.760092  4103 layer_factory.hpp:77] Creating layer score_score_0_split
I1017 19:27:39.760098  4103 net.cpp:100] Creating Layer score_score_0_split
I1017 19:27:39.760102  4103 net.cpp:434] score_score_0_split <- score
I1017 19:27:39.760107  4103 net.cpp:408] score_score_0_split -> score_score_0_split_0
I1017 19:27:39.760113  4103 net.cpp:408] score_score_0_split -> score_score_0_split_1
I1017 19:27:39.760139  4103 net.cpp:150] Setting up score_score_0_split
I1017 19:27:39.760144  4103 net.cpp:157] Top shape: 64 10 (640)
I1017 19:27:39.760149  4103 net.cpp:157] Top shape: 64 10 (640)
I1017 19:27:39.760150  4103 net.cpp:165] Memory required for data: 100869376
I1017 19:27:39.760154  4103 layer_factory.hpp:77] Creating layer accuracy
I1017 19:27:39.760159  4103 net.cpp:100] Creating Layer accuracy
I1017 19:27:39.760162  4103 net.cpp:434] accuracy <- score_score_0_split_0
I1017 19:27:39.760166  4103 net.cpp:434] accuracy <- label_data_1_split_0
I1017 19:27:39.760171  4103 net.cpp:408] accuracy -> accuracy
…
I1017 19:27:39.760670  4103 net.cpp:270] This network produces output loss
I1017 19:27:39.760689  4103 net.cpp:283] Network initialization done.
I1017 19:27:39.760869  4103 solver.cpp:181] Creating test net (#0) specified by test_net file: /home/adam/Honours/Honours-Project/cifar-10_pooling/max/elu/poolcnn_elu_test.prototxt
I1017 19:27:39.760983  4103 net.cpp:58] Initializing net from parameters: 
state {
  phase: TEST
}
layer {
  name: "data"
  type: "Data"
  top: "data"
  top: "label"
  data_param {
    source: "../../../../data/cifar-10/cifar10_test_lmdb"
    batch_size: 100
    backend: LMDB
  }
}
layer {
  name: "conv1"
  type: "Convolution"
  bottom: "data"
  top: "conv1"
  convolution_param {
    num_output: 192
    kernel_size: 5
    weight_filler {
      type: "xavier"
    }
  }
}
layer {
  name: "pool1"
  type: "Pooling"
  bottom: "conv1"
  top: "pool1"
  pooling_param {
    pool: MAX
    kernel_size: 2
    stride: 2
  }
}
layer {
  name: "drop1"
  type: "Dropout"
  bottom: "pool1"
  top: "drop1"
  dropout_param {
    dropout_ratio: 0
  }
}
layer {
  name: "elu1"
  type: "ELU"
  bottom: "drop1"
  top: "elu1"
}
layer {
  name: "conv2"
  type: "Convolution"
  bottom: "elu1"
  top: "conv2"
  convolution_param {
    num_output: 192
    kernel_size: 1
    weight_filler {
      type: "xavier"
    }
  }
}
layer {
  name: "conv3"
  type: "Convolution"
  bottom: "conv2"
  top: "conv3"
  convolution_param {
    num_output: 240
    kernel_size: 3
    weight_filler {
      type: "xavier"
    }
  }
}
layer {
  name: "pool2"
  type: "Pooling"
  bottom: "conv3"
  top: "pool2"
  pooling_param {
    pool: MAX
    kernel_size: 2
    stride: 2
  }
}
layer {
  name: "drop2"
  type: "Dropout"
  bottom: "pool2"
  top: "drop2"
  dropout_param {
    dropout_ratio: 0.1
  }
}
layer {
  name: "elu2"
  type: "ELU"
  bottom: "drop2"
  top: "elu2"
}
layer {
  name: "conv4"
  type: "Convolution"
  bottom: "elu2"
  top: "conv4"
  convolution_param {
    num_output: 240
    kernel_size: 1
    weight_filler {
      type: "xavier"
    }
  }
}
layer {
  name: "conv5"
  type: "Convolution"
  bottom: "conv4"
  top: "conv5"
  convolution_param {
    num_output: 260
    kernel_size: 2
    weight_filler {
      type: "xavier"
    }
  }
}
layer {
  name: "pool3"
  type: "Pooling"
  bottom: "conv5"
  top: "pool3"
  pooling_param {
    pool: MAX
    kernel_size: 2
    stride: 2
  }
}
layer {
  name: "drop3"
  type: "Dropout"
  bottom: "pool3"
  top: "drop3"
  dropout_param {
    dropout_ratio: 0.2
  }
}
layer {
  name: "elu3"
  type: "ELU"
  bottom: "drop3"
  top: "elu3"
}
layer {
  name: "conv6"
  type: "Convolution"
  bottom: "elu3"
  top: "conv6"
  convolution_param {
    num_output: 260
    kernel_size: 1
    weight_filler {
      type: "xavier"
    }
  }
}
layer {
  name: "conv7"
  type: "Convolution"
  bottom: "conv6"
  top: "conv7"
  convolution_param {
    num_output: 280
    kernel_size: 2
    weight_filler {
      type: "xavier"
    }
  }
}
layer {
  name: "pool4"
  type: "Pooling"
  bottom: "conv7"
  top: "pool4"
  pooling_param {
    pool: MAX
    kernel_size: 2
    stride: 2
  }
}
layer {
  name: "drop4"
  type: "Dropout"
  bottom: "pool4"
  top: "drop4"
  dropout_param {
    dropout_ratio: 0.3
  }
}
layer {
  name: "elu4"
  type: "ELU"
  bottom: "drop4"
  top: "elu4"
}
layer {
  name: "conv8"
  type: "Convolution"
  bottom: "elu4"
  top: "conv8"
  convolution_param {
    num_output: 280
    kernel_size: 1
    weight_filler {
      type: "xavier"
    }
  }
}
layer {
  name: "pool5"
  type: "Pooling"
  bottom: "conv8"
  top: "pool5"
  pooling_param {
    pool: MAX
    kernel_size: 2
    stride: 2
  }
}
layer {
  name: "drop5"
  type: "Dropout"
  bottom: "pool5"
  top: "drop5"
  dropout_param {
    dropout_ratio: 0.4
  }
}
layer {
  name: "elu5"
  type: "ELU"
  bottom: "drop5"
  top: "elu5"
}
layer {
  name: "conv10"
  type: "Convolution"
  bottom: "elu5"
  top: "conv10"
  convolution_param {
    num_output: 300
    kernel_size: 1
    weight_filler {
      type: "xavier"
    }
  }
}
layer {
  name: "pool6"
  type: "Pooling"
  bottom: "conv10"
  top: "pool6"
  pooling_param {
    pool: MAX
    kernel_size: 2
    stride: 2
  }
}
layer {
  name: "drop6"
  type: "Dropout"
  bottom: "pool6"
  top: "drop6"
  dropout_param {
    dropout_ratio: 0.5
  }
}
layer {
  name: "elu6"
  type: "ELU"
  bottom: "drop6"
  top: "elu6"
}
layer {
  name: "conv11"
  type: "Convolution"
  bottom: "elu6"
  top: "conv11"
  convolution_param {
    num_output: 100
    kernel_size: 1
    weight_filler {
      type: "xavier"
    }
  }
}
layer {
  name: "pool7"
  type: "Pooling"
  bottom: "conv11"
  top: "pool7"
  pooling_param {
    pool: MAX
    kernel_size: 2
    stride: 2
  }
}
layer {
  name: "drop7"
  type: "Dropout"
  bottom: "pool7"
  top: "drop7"
  dropout_param {
    dropout_ratio: 0
  }
}
layer {
  name: "elu7"
  type: "ELU"
  bottom: "drop7"
  top: "elu7"
}
layer {
  name: "pool"
  type: "Pooling"
  bottom: "elu7"
  top: "pool"
  pooling_param {
    pool: AVE
    global_pooling: true
  }
}
layer {
  name: "flatten"
  type: "Flatten"
  bottom: "pool"
  top: "flatten"
}
layer {
  name: "score"
  type: "InnerProduct"
  bottom: "flatten"
  top: "score"
  inner_product_param {
    num_output: 10
    weight_filler {
      type: "gaussian"
    }
  }
}
layer {
  name: "accuracy"
  type: "Accuracy"
  bottom: "score"
  bottom: "label"
  top: "accuracy"
}
layer {
  name: "loss"
  type: "SoftmaxWithLoss"
  bottom: "score"
  bottom: "label"
  top: "loss"
}
I1017 19:27:39.761077  4103 layer_factory.hpp:77] Creating layer data
I1017 19:27:39.761164  4103 net.cpp:100] Creating Layer data
I1017 19:27:39.761169  4103 net.cpp:408] data -> data
I1017 19:27:39.761174  4103 net.cpp:408] data -> label
I1017 19:27:39.761826  4122 db_lmdb.cpp:35] Opened lmdb ../../../../data/cifar-10/cifar10_test_lmdb
I1017 19:27:39.761898  4103 data_layer.cpp:41] output data size: 100,3,32,32
I1017 19:27:39.763588  4103 net.cpp:150] Setting up data
I1017 19:27:39.763604  4103 net.cpp:157] Top shape: 100 3 32 32 (307200)
I1017 19:27:39.763608  4103 net.cpp:157] Top shape: 100 (100)
I1017 19:27:39.763612  4103 net.cpp:165] Memory required for data: 1229200
I1017 19:27:39.763617  4103 layer_factory.hpp:77] Creating layer label_data_1_split
I1017 19:27:39.763628  4103 net.cpp:100] Creating Layer label_data_1_split
I1017 19:27:39.763631  4103 net.cpp:434] label_data_1_split <- label
I1017 19:27:39.763638  4103 net.cpp:408] label_data_1_split -> label_data_1_split_0
I1017 19:27:39.763648  4103 net.cpp:408] label_data_1_split -> label_data_1_split_1
I1017 19:27:39.763689  4103 net.cpp:150] Setting up label_data_1_split
I1017 19:27:39.763694  4103 net.cpp:157] Top shape: 100 (100)
I1017 19:27:39.763698  4103 net.cpp:157] Top shape: 100 (100)
I1017 19:27:39.763700  4103 net.cpp:165] Memory required for data: 1230000
I1017 19:27:39.763703  4103 layer_factory.hpp:77] Creating layer conv1
I1017 19:27:39.763713  4103 net.cpp:100] Creating Layer conv1
I1017 19:27:39.763716  4103 net.cpp:434] conv1 <- data
I1017 19:27:39.763721  4103 net.cpp:408] conv1 -> conv1
I1017 19:27:39.764457  4103 net.cpp:150] Setting up conv1
I1017 19:27:39.764467  4103 net.cpp:157] Top shape: 100 192 28 28 (15052800)
I1017 19:27:39.764470  4103 net.cpp:165] Memory required for data: 61441200
I1017 19:27:39.764480  4103 layer_factory.hpp:77] Creating layer pool1
I1017 19:27:39.764487  4103 net.cpp:100] Creating Layer pool1
I1017 19:27:39.764492  4103 net.cpp:434] pool1 <- conv1
I1017 19:27:39.764497  4103 net.cpp:408] pool1 -> pool1
I1017 19:27:39.764601  4103 net.cpp:150] Setting up pool1
I1017 19:27:39.764607  4103 net.cpp:157] Top shape: 100 192 14 14 (3763200)
I1017 19:27:39.764611  4103 net.cpp:165] Memory required for data: 76494000
I1017 19:27:39.764614  4103 layer_factory.hpp:77] Creating layer drop1
I1017 19:27:39.764621  4103 net.cpp:100] Creating Layer drop1
I1017 19:27:39.764624  4103 net.cpp:434] drop1 <- pool1
I1017 19:27:39.764632  4103 net.cpp:408] drop1 -> drop1
I1017 19:27:39.764658  4103 net.cpp:150] Setting up drop1
I1017 19:27:39.764664  4103 net.cpp:157] Top shape: 100 192 14 14 (3763200)
I1017 19:27:39.764667  4103 net.cpp:165] Memory required for data: 91546800
I1017 19:27:39.764669  4103 layer_factory.hpp:77] Creating layer elu1
I1017 19:27:39.764677  4103 net.cpp:100] Creating Layer elu1
I1017 19:27:39.764679  4103 net.cpp:434] elu1 <- drop1
I1017 19:27:39.764686  4103 net.cpp:408] elu1 -> elu1
I1017 19:27:39.764703  4103 net.cpp:150] Setting up elu1
I1017 19:27:39.764708  4103 net.cpp:157] Top shape: 100 192 14 14 (3763200)
I1017 19:27:39.764711  4103 net.cpp:165] Memory required for data: 106599600
I1017 19:27:39.764714  4103 layer_factory.hpp:77] Creating layer conv2
I1017 19:27:39.764720  4103 net.cpp:100] Creating Layer conv2
I1017 19:27:39.764724  4103 net.cpp:434] conv2 <- elu1
I1017 19:27:39.764729  4103 net.cpp:408] conv2 -> conv2
I1017 19:27:39.765477  4103 net.cpp:150] Setting up conv2
I1017 19:27:39.765486  4103 net.cpp:157] Top shape: 100 192 14 14 (3763200)
I1017 19:27:39.765488  4103 net.cpp:165] Memory required for data: 121652400
I1017 19:27:39.765496  4103 layer_factory.hpp:77] Creating layer conv3
I1017 19:27:39.765503  4103 net.cpp:100] Creating Layer conv3
I1017 19:27:39.765507  4103 net.cpp:434] conv3 <- conv2
I1017 19:27:39.765528  4103 net.cpp:408] conv3 -> conv3
I1017 19:27:39.767925  4103 net.cpp:150] Setting up conv3
I1017 19:27:39.767935  4103 net.cpp:157] Top shape: 100 240 12 12 (3456000)
I1017 19:27:39.767938  4103 net.cpp:165] Memory required for data: 135476400
I1017 19:27:39.767947  4103 layer_factory.hpp:77] Creating layer pool2
I1017 19:27:39.767954  4103 net.cpp:100] Creating Layer pool2
I1017 19:27:39.767958  4103 net.cpp:434] pool2 <- conv3
I1017 19:27:39.767963  4103 net.cpp:408] pool2 -> pool2
I1017 19:27:39.767992  4103 net.cpp:150] Setting up pool2
I1017 19:27:39.767997  4103 net.cpp:157] Top shape: 100 240 6 6 (864000)
I1017 19:27:39.768000  4103 net.cpp:165] Memory required for data: 138932400
I1017 19:27:39.768003  4103 layer_factory.hpp:77] Creating layer drop2
I1017 19:27:39.768012  4103 net.cpp:100] Creating Layer drop2
I1017 19:27:39.768015  4103 net.cpp:434] drop2 <- pool2
I1017 19:27:39.768020  4103 net.cpp:408] drop2 -> drop2
I1017 19:27:39.768046  4103 net.cpp:150] Setting up drop2
I1017 19:27:39.768051  4103 net.cpp:157] Top shape: 100 240 6 6 (864000)
I1017 19:27:39.768054  4103 net.cpp:165] Memory required for data: 142388400
I1017 19:27:39.768057  4103 layer_factory.hpp:77] Creating layer elu2
I1017 19:27:39.768062  4103 net.cpp:100] Creating Layer elu2
I1017 19:27:39.768067  4103 net.cpp:434] elu2 <- drop2
I1017 19:27:39.768072  4103 net.cpp:408] elu2 -> elu2
I1017 19:27:39.768090  4103 net.cpp:150] Setting up elu2
I1017 19:27:39.768093  4103 net.cpp:157] Top shape: 100 240 6 6 (864000)
I1017 19:27:39.768098  4103 net.cpp:165] Memory required for data: 145844400
I1017 19:27:39.768101  4103 layer_factory.hpp:77] Creating layer conv4
I1017 19:27:39.768110  4103 net.cpp:100] Creating Layer conv4
I1017 19:27:39.768112  4103 net.cpp:434] conv4 <- elu2
I1017 19:27:39.768117  4103 net.cpp:408] conv4 -> conv4
I1017 19:27:39.768941  4103 net.cpp:150] Setting up conv4
I1017 19:27:39.768949  4103 net.cpp:157] Top shape: 100 240 6 6 (864000)
I1017 19:27:39.768952  4103 net.cpp:165] Memory required for data: 149300400
I1017 19:27:39.768959  4103 layer_factory.hpp:77] Creating layer conv5
I1017 19:27:39.768966  4103 net.cpp:100] Creating Layer conv5
I1017 19:27:39.768970  4103 net.cpp:434] conv5 <- conv4
I1017 19:27:39.768975  4103 net.cpp:408] conv5 -> conv5
I1017 19:27:39.770710  4103 net.cpp:150] Setting up conv5
I1017 19:27:39.770720  4103 net.cpp:157] Top shape: 100 260 5 5 (650000)
I1017 19:27:39.770722  4103 net.cpp:165] Memory required for data: 151900400
I1017 19:27:39.770730  4103 layer_factory.hpp:77] Creating layer pool3
I1017 19:27:39.770736  4103 net.cpp:100] Creating Layer pool3
I1017 19:27:39.770740  4103 net.cpp:434] pool3 <- conv5
I1017 19:27:39.770745  4103 net.cpp:408] pool3 -> pool3
I1017 19:27:39.770773  4103 net.cpp:150] Setting up pool3
I1017 19:27:39.770778  4103 net.cpp:157] Top shape: 100 260 3 3 (234000)
I1017 19:27:39.770781  4103 net.cpp:165] Memory required for data: 152836400
I1017 19:27:39.770784  4103 layer_factory.hpp:77] Creating layer drop3
I1017 19:27:39.770790  4103 net.cpp:100] Creating Layer drop3
I1017 19:27:39.770794  4103 net.cpp:434] drop3 <- pool3
I1017 19:27:39.770799  4103 net.cpp:408] drop3 -> drop3
I1017 19:27:39.770824  4103 net.cpp:150] Setting up drop3
I1017 19:27:39.770830  4103 net.cpp:157] Top shape: 100 260 3 3 (234000)
I1017 19:27:39.770834  4103 net.cpp:165] Memory required for data: 153772400
I1017 19:27:39.770838  4103 layer_factory.hpp:77] Creating layer elu3
I1017 19:27:39.770841  4103 net.cpp:100] Creating Layer elu3
I1017 19:27:39.770845  4103 net.cpp:434] elu3 <- drop3
I1017 19:27:39.770850  4103 net.cpp:408] elu3 -> elu3
I1017 19:27:39.770866  4103 net.cpp:150] Setting up elu3
I1017 19:27:39.770871  4103 net.cpp:157] Top shape: 100 260 3 3 (234000)
I1017 19:27:39.770874  4103 net.cpp:165] Memory required for data: 154708400
I1017 19:27:39.770879  4103 layer_factory.hpp:77] Creating layer conv6
I1017 19:27:39.770885  4103 net.cpp:100] Creating Layer conv6
I1017 19:27:39.770889  4103 net.cpp:434] conv6 <- elu3
I1017 19:27:39.770894  4103 net.cpp:408] conv6 -> conv6
I1017 19:27:39.771986  4103 net.cpp:150] Setting up conv6
I1017 19:27:39.771994  4103 net.cpp:157] Top shape: 100 260 3 3 (234000)
I1017 19:27:39.771997  4103 net.cpp:165] Memory required for data: 155644400
I1017 19:27:39.772003  4103 layer_factory.hpp:77] Creating layer conv7
I1017 19:27:39.772011  4103 net.cpp:100] Creating Layer conv7
I1017 19:27:39.772014  4103 net.cpp:434] conv7 <- conv6
I1017 19:27:39.772019  4103 net.cpp:408] conv7 -> conv7
I1017 19:27:39.773919  4103 net.cpp:150] Setting up conv7
I1017 19:27:39.773928  4103 net.cpp:157] Top shape: 100 280 2 2 (112000)
I1017 19:27:39.773931  4103 net.cpp:165] Memory required for data: 156092400
I1017 19:27:39.773937  4103 layer_factory.hpp:77] Creating layer pool4
I1017 19:27:39.773943  4103 net.cpp:100] Creating Layer pool4
I1017 19:27:39.773948  4103 net.cpp:434] pool4 <- conv7
I1017 19:27:39.773953  4103 net.cpp:408] pool4 -> pool4
I1017 19:27:39.773982  4103 net.cpp:150] Setting up pool4
I1017 19:27:39.773988  4103 net.cpp:157] Top shape: 100 280 1 1 (28000)
I1017 19:27:39.773991  4103 net.cpp:165] Memory required for data: 156204400
I1017 19:27:39.773994  4103 layer_factory.hpp:77] Creating layer drop4
I1017 19:27:39.773998  4103 net.cpp:100] Creating Layer drop4
I1017 19:27:39.774003  4103 net.cpp:434] drop4 <- pool4
I1017 19:27:39.774008  4103 net.cpp:408] drop4 -> drop4
I1017 19:27:39.774032  4103 net.cpp:150] Setting up drop4
I1017 19:27:39.774037  4103 net.cpp:157] Top shape: 100 280 1 1 (28000)
I1017 19:27:39.774040  4103 net.cpp:165] Memory required for data: 156316400
I1017 19:27:39.774044  4103 layer_factory.hpp:77] Creating layer elu4
I1017 19:27:39.774049  4103 net.cpp:100] Creating Layer elu4
I1017 19:27:39.774054  4103 net.cpp:434] elu4 <- drop4
I1017 19:27:39.774057  4103 net.cpp:408] elu4 -> elu4
I1017 19:27:39.774075  4103 net.cpp:150] Setting up elu4
I1017 19:27:39.774080  4103 net.cpp:157] Top shape: 100 280 1 1 (28000)
I1017 19:27:39.774082  4103 net.cpp:165] Memory required for data: 156428400
I1017 19:27:39.774085  4103 layer_factory.hpp:77] Creating layer conv8
I1017 19:27:39.774093  4103 net.cpp:100] Creating Layer conv8
I1017 19:27:39.774096  4103 net.cpp:434] conv8 <- elu4
I1017 19:27:39.774101  4103 net.cpp:408] conv8 -> conv8
I1017 19:27:39.774933  4103 net.cpp:150] Setting up conv8
I1017 19:27:39.774942  4103 net.cpp:157] Top shape: 100 280 1 1 (28000)
I1017 19:27:39.774945  4103 net.cpp:165] Memory required for data: 156540400
I1017 19:27:39.774951  4103 layer_factory.hpp:77] Creating layer pool5
I1017 19:27:39.774957  4103 net.cpp:100] Creating Layer pool5
I1017 19:27:39.774961  4103 net.cpp:434] pool5 <- conv8
I1017 19:27:39.774966  4103 net.cpp:408] pool5 -> pool5
I1017 19:27:39.774993  4103 net.cpp:150] Setting up pool5
I1017 19:27:39.774998  4103 net.cpp:157] Top shape: 100 280 1 1 (28000)
I1017 19:27:39.775002  4103 net.cpp:165] Memory required for data: 156652400
I1017 19:27:39.775005  4103 layer_factory.hpp:77] Creating layer drop5
I1017 19:27:39.775010  4103 net.cpp:100] Creating Layer drop5
I1017 19:27:39.775013  4103 net.cpp:434] drop5 <- pool5
I1017 19:27:39.775018  4103 net.cpp:408] drop5 -> drop5
I1017 19:27:39.775043  4103 net.cpp:150] Setting up drop5
I1017 19:27:39.775048  4103 net.cpp:157] Top shape: 100 280 1 1 (28000)
I1017 19:27:39.775050  4103 net.cpp:165] Memory required for data: 156764400
I1017 19:27:39.775054  4103 layer_factory.hpp:77] Creating layer elu5
I1017 19:27:39.775059  4103 net.cpp:100] Creating Layer elu5
I1017 19:27:39.775063  4103 net.cpp:434] elu5 <- drop5
I1017 19:27:39.775066  4103 net.cpp:408] elu5 -> elu5
I1017 19:27:39.775084  4103 net.cpp:150] Setting up elu5
I1017 19:27:39.775089  4103 net.cpp:157] Top shape: 100 280 1 1 (28000)
I1017 19:27:39.775091  4103 net.cpp:165] Memory required for data: 156876400
I1017 19:27:39.775094  4103 layer_factory.hpp:77] Creating layer conv10
I1017 19:27:39.775102  4103 net.cpp:100] Creating Layer conv10
I1017 19:27:39.775105  4103 net.cpp:434] conv10 <- elu5
I1017 19:27:39.775110  4103 net.cpp:408] conv10 -> conv10
I1017 19:27:39.777592  4103 net.cpp:150] Setting up conv10
I1017 19:27:39.777603  4103 net.cpp:157] Top shape: 100 300 1 1 (30000)
I1017 19:27:39.777606  4103 net.cpp:165] Memory required for data: 156996400
I1017 19:27:39.777617  4103 layer_factory.hpp:77] Creating layer pool6
I1017 19:27:39.777623  4103 net.cpp:100] Creating Layer pool6
I1017 19:27:39.777628  4103 net.cpp:434] pool6 <- conv10
I1017 19:27:39.777633  4103 net.cpp:408] pool6 -> pool6
I1017 19:27:39.777663  4103 net.cpp:150] Setting up pool6
I1017 19:27:39.777673  4103 net.cpp:157] Top shape: 100 300 1 1 (30000)
I1017 19:27:39.777676  4103 net.cpp:165] Memory required for data: 157116400
I1017 19:27:39.777679  4103 layer_factory.hpp:77] Creating layer drop6
I1017 19:27:39.777684  4103 net.cpp:100] Creating Layer drop6
I1017 19:27:39.777688  4103 net.cpp:434] drop6 <- pool6
I1017 19:27:39.777693  4103 net.cpp:408] drop6 -> drop6
I1017 19:27:39.777719  4103 net.cpp:150] Setting up drop6
I1017 19:27:39.777724  4103 net.cpp:157] Top shape: 100 300 1 1 (30000)
I1017 19:27:39.777727  4103 net.cpp:165] Memory required for data: 157236400
I1017 19:27:39.777731  4103 layer_factory.hpp:77] Creating layer elu6
I1017 19:27:39.777736  4103 net.cpp:100] Creating Layer elu6
I1017 19:27:39.777740  4103 net.cpp:434] elu6 <- drop6
I1017 19:27:39.777745  4103 net.cpp:408] elu6 -> elu6
I1017 19:27:39.777761  4103 net.cpp:150] Setting up elu6
I1017 19:27:39.777766  4103 net.cpp:157] Top shape: 100 300 1 1 (30000)
I1017 19:27:39.777768  4103 net.cpp:165] Memory required for data: 157356400
I1017 19:27:39.777771  4103 layer_factory.hpp:77] Creating layer conv11
I1017 19:27:39.777779  4103 net.cpp:100] Creating Layer conv11
I1017 19:27:39.777782  4103 net.cpp:434] conv11 <- elu6
I1017 19:27:39.777787  4103 net.cpp:408] conv11 -> conv11
I1017 19:27:39.778976  4103 net.cpp:150] Setting up conv11
I1017 19:27:39.778988  4103 net.cpp:157] Top shape: 100 100 1 1 (10000)
I1017 19:27:39.778991  4103 net.cpp:165] Memory required for data: 157396400
I1017 19:27:39.778997  4103 layer_factory.hpp:77] Creating layer pool7
I1017 19:27:39.779005  4103 net.cpp:100] Creating Layer pool7
I1017 19:27:39.779008  4103 net.cpp:434] pool7 <- conv11
I1017 19:27:39.779014  4103 net.cpp:408] pool7 -> pool7
I1017 19:27:39.779047  4103 net.cpp:150] Setting up pool7
I1017 19:27:39.779052  4103 net.cpp:157] Top shape: 100 100 1 1 (10000)
I1017 19:27:39.779057  4103 net.cpp:165] Memory required for data: 157436400
I1017 19:27:39.779060  4103 layer_factory.hpp:77] Creating layer drop7
I1017 19:27:39.779065  4103 net.cpp:100] Creating Layer drop7
I1017 19:27:39.779068  4103 net.cpp:434] drop7 <- pool7
I1017 19:27:39.779073  4103 net.cpp:408] drop7 -> drop7
I1017 19:27:39.779100  4103 net.cpp:150] Setting up drop7
I1017 19:27:39.779105  4103 net.cpp:157] Top shape: 100 100 1 1 (10000)
I1017 19:27:39.779109  4103 net.cpp:165] Memory required for data: 157476400
I1017 19:27:39.779112  4103 layer_factory.hpp:77] Creating layer elu7
I1017 19:27:39.779119  4103 net.cpp:100] Creating Layer elu7
I1017 19:27:39.779122  4103 net.cpp:434] elu7 <- drop7
I1017 19:27:39.779127  4103 net.cpp:408] elu7 -> elu7
I1017 19:27:39.779145  4103 net.cpp:150] Setting up elu7
I1017 19:27:39.779150  4103 net.cpp:157] Top shape: 100 100 1 1 (10000)
I1017 19:27:39.779152  4103 net.cpp:165] Memory required for data: 157516400
I1017 19:27:39.779155  4103 layer_factory.hpp:77] Creating layer pool
I1017 19:27:39.779160  4103 net.cpp:100] Creating Layer pool
I1017 19:27:39.779165  4103 net.cpp:434] pool <- elu7
I1017 19:27:39.779170  4103 net.cpp:408] pool -> pool
I1017 19:27:39.779286  4103 net.cpp:150] Setting up pool
I1017 19:27:39.779294  4103 net.cpp:157] Top shape: 100 100 1 1 (10000)
I1017 19:27:39.779296  4103 net.cpp:165] Memory required for data: 157556400
I1017 19:27:39.779299  4103 layer_factory.hpp:77] Creating layer flatten
I1017 19:27:39.779304  4103 net.cpp:100] Creating Layer flatten
I1017 19:27:39.779309  4103 net.cpp:434] flatten <- pool
I1017 19:27:39.779314  4103 net.cpp:408] flatten -> flatten
I1017 19:27:39.779333  4103 net.cpp:150] Setting up flatten
I1017 19:27:39.779347  4103 net.cpp:157] Top shape: 100 100 (10000)
I1017 19:27:39.779351  4103 net.cpp:165] Memory required for data: 157596400
I1017 19:27:39.779356  4103 layer_factory.hpp:77] Creating layer score
I1017 19:27:39.779361  4103 net.cpp:100] Creating Layer score
I1017 19:27:39.779364  4103 net.cpp:434] score <- flatten
I1017 19:27:39.779368  4103 net.cpp:408] score -> score
I1017 19:27:39.779471  4103 net.cpp:150] Setting up score
I1017 19:27:39.779476  4103 net.cpp:157] Top shape: 100 10 (1000)
I1017 19:27:39.779479  4103 net.cpp:165] Memory required for data: 157600400
I1017 19:27:39.779485  4103 layer_factory.hpp:77] Creating layer score_score_0_split
I1017 19:27:39.779491  4103 net.cpp:100] Creating Layer score_score_0_split
I1017 19:27:39.779495  4103 net.cpp:434] score_score_0_split <- score
I1017 19:27:39.779500  4103 net.cpp:408] score_score_0_split -> score_score_0_split_0
I1017 19:27:39.779505  4103 net.cpp:408] score_score_0_split -> score_score_0_split_1
I1017 19:27:39.779532  4103 net.cpp:150] Setting up score_score_0_split
I1017 19:27:39.779537  4103 net.cpp:157] Top shape: 100 10 (1000)
I1017 19:27:39.779541  4103 net.cpp:157] Top shape: 100 10 (1000)
I1017 19:27:39.779544  4103 net.cpp:165] Memory required for data: 157608400
I1017 19:27:39.779547  4103 layer_factory.hpp:77] Creating layer accuracy
I1017 19:27:39.779553  4103 net.cpp:100] Creating Layer accuracy
I1017 19:27:39.779556  4103 net.cpp:434] accuracy <- score_score_0_split_0
I1017 19:27:39.779561  4103 net.cpp:434] accuracy <- label_data_1_split_0
I1017 19:27:39.779567  4103 net.cpp:408] accuracy -> accuracy
…
