…
device_id: 0
train_state {
  level: 0
  stage: ""
}
type: "RMSProp"
I1017 12:19:16.993789  9010 solver.cpp:81] Creating training net from train_net file: /home/adam/Honours/Honours-Project/cifar-10_pooling/max/leakyrelu/poolcnn_leakyrelu_train.prototxt
I1017 12:19:16.994087  9010 net.cpp:58] Initializing net from parameters: 
state {
  phase: TRAIN
  level: 0
  stage: ""
}
layer {
  name: "data"
  type: "Data"
  top: "data"
  top: "label"
  data_param {
    source: "../../../../data/cifar-10/cifar10_train_lmdb"
    batch_size: 64
    backend: LMDB
  }
}
layer {
  name: "conv1"
  type: "Convolution"
  bottom: "data"
  top: "conv1"
  convolution_param {
    num_output: 192
    kernel_size: 5
    weight_filler {
      type: "xavier"
    }
  }
}
layer {
  name: "pool1"
  type: "Pooling"
  bottom: "conv1"
  top: "pool1"
  pooling_param {
    pool: MAX
    kernel_size: 2
    stride: 2
  }
}
layer {
  name: "drop1"
  type: "Dropout"
  bottom: "pool1"
  top: "drop1"
  dropout_param {
    dropout_ratio: 0
  }
}
layer {
  name: "relu1"
  type: "ReLU"
  bottom: "drop1"
  top: "relu1"
  relu_param {
    negative_slope: 0.01
  }
}
layer {
  name: "conv2"
  type: "Convolution"
  bottom: "relu1"
  top: "conv2"
  convolution_param {
    num_output: 192
    kernel_size: 1
    weight_filler {
      type: "xavier"
    }
  }
}
layer {
  name: "conv3"
  type: "Convolution"
  bottom: "conv2"
  top: "conv3"
  convolution_param {
    num_output: 240
    kernel_size: 3
    weight_filler {
      type: "xavier"
    }
  }
}
layer {
  name: "pool2"
  type: "Pooling"
  bottom: "conv3"
  top: "pool2"
  pooling_param {
    pool: MAX
    kernel_size: 2
    stride: 2
  }
}
layer {
  name: "drop2"
  type: "Dropout"
  bottom: "pool2"
  top: "drop2"
  dropout_param {
    dropout_ratio: 0.1
  }
}
layer {
  name: "relu2"
  type: "ReLU"
  bottom: "drop2"
  top: "relu2"
  relu_param {
    negative_slope: 0.01
  }
}
layer {
  name: "conv4"
  type: "Convolution"
  bottom: "relu2"
  top: "conv4"
  convolution_param {
    num_output: 240
    kernel_size: 1
    weight_filler {
      type: "xavier"
    }
  }
}
layer {
  name: "conv5"
  type: "Convolution"
  bottom: "conv4"
  top: "conv5"
  convolution_param {
    num_output: 260
    kernel_size: 2
    weight_filler {
      type: "xavier"
    }
  }
}
layer {
  name: "pool3"
  type: "Pooling"
  bottom: "conv5"
  top: "pool3"
  pooling_param {
    pool: MAX
    kernel_size: 2
    stride: 2
  }
}
layer {
  name: "drop3"
  type: "Dropout"
  bottom: "pool3"
  top: "drop3"
  dropout_param {
    dropout_ratio: 0.2
  }
}
layer {
  name: "relu3"
  type: "ReLU"
  bottom: "drop3"
  top: "relu3"
  relu_param {
    negative_slope: 0.01
  }
}
layer {
  name: "conv6"
  type: "Convolution"
  bottom: "relu3"
  top: "conv6"
  convolution_param {
    num_output: 260
    kernel_size: 1
    weight_filler {
      type: "xavier"
    }
  }
}
layer {
  name: "conv7"
  type: "Convolution"
  bottom: "conv6"
  top: "conv7"
  convolution_param {
    num_output: 280
    kernel_size: 2
    weight_filler {
      type: "xavier"
    }
  }
}
layer {
  name: "pool4"
  type: "Pooling"
  bottom: "conv7"
  top: "pool4"
  pooling_param {
    pool: MAX
    kernel_size: 2
    stride: 2
  }
}
layer {
  name: "drop4"
  type: "Dropout"
  bottom: "pool4"
  top: "drop4"
  dropout_param {
    dropout_ratio: 0.3
  }
}
layer {
  name: "relu4"
  type: "ReLU"
  bottom: "drop4"
  top: "relu4"
  relu_param {
    negative_slope: 0.01
  }
}
layer {
  name: "conv8"
  type: "Convolution"
  bottom: "relu4"
  top: "conv8"
  convolution_param {
    num_output: 280
    kernel_size: 1
    weight_filler {
      type: "xavier"
    }
  }
}
layer {
  name: "pool5"
  type: "Pooling"
  bottom: "conv8"
  top: "pool5"
  pooling_param {
    pool: MAX
    kernel_size: 2
    stride: 2
  }
}
layer {
  name: "drop5"
  type: "Dropout"
  bottom: "pool5"
  top: "drop5"
  dropout_param {
    dropout_ratio: 0.4
  }
}
layer {
  name: "relu5"
  type: "ReLU"
  bottom: "drop5"
  top: "relu5"
  relu_param {
    negative_slope: 0.01
  }
}
layer {
  name: "conv10"
  type: "Convolution"
  bottom: "relu5"
  top: "conv10"
  convolution_param {
    num_output: 300
    kernel_size: 1
    weight_filler {
      type: "xavier"
    }
  }
}
layer {
  name: "pool6"
  type: "Pooling"
  bottom: "conv10"
  top: "pool6"
  pooling_param {
    pool: MAX
    kernel_size: 2
    stride: 2
  }
}
layer {
  name: "drop6"
  type: "Dropout"
  bottom: "pool6"
  top: "drop6"
  dropout_param {
    dropout_ratio: 0.5
  }
}
layer {
  name: "relu6"
  type: "ReLU"
  bottom: "drop6"
  top: "relu6"
  relu_param {
    negative_slope: 0.01
  }
}
layer {
  name: "conv11"
  type: "Convolution"
  bottom: "relu6"
  top: "conv11"
  convolution_param {
    num_output: 100
    kernel_size: 1
    weight_filler {
      type: "xavier"
    }
  }
}
layer {
  name: "pool7"
  type: "Pooling"
  bottom: "conv11"
  top: "pool7"
  pooling_param {
    pool: MAX
    kernel_size: 2
    stride: 2
  }
}
layer {
  name: "drop7"
  type: "Dropout"
  bottom: "pool7"
  top: "drop7"
  dropout_param {
    dropout_ratio: 0
  }
}
layer {
  name: "relu7"
  type: "ReLU"
  bottom: "drop7"
  top: "relu7"
  relu_param {
    negative_slope: 0.01
  }
}
layer {
  name: "pool"
  type: "Pooling"
  bottom: "relu7"
  top: "pool"
  pooling_param {
    pool: AVE
    global_pooling: true
  }
}
layer {
  name: "flatten"
  type: "Flatten"
  bottom: "pool"
  top: "flatten"
}
layer {
  name: "score"
  type: "InnerProduct"
  bottom: "flatten"
  top: "score"
  inner_product_param {
    num_output: 10
    weight_filler {
      type: "gaussian"
    }
  }
}
layer {
  name: "accuracy"
  type: "Accuracy"
  bottom: "score"
  bottom: "label"
  top: "accuracy"
}
layer {
  name: "loss"
  type: "SoftmaxWithLoss"
  bottom: "score"
  bottom: "label"
  top: "loss"
}
I1017 12:19:16.994200  9010 layer_factory.hpp:77] Creating layer data
I1017 12:19:16.994590  9010 net.cpp:100] Creating Layer data
I1017 12:19:16.994597  9010 net.cpp:408] data -> data
I1017 12:19:16.994611  9010 net.cpp:408] data -> label
I1017 12:19:16.995187  9015 db_lmdb.cpp:35] Opened lmdb ../../../../data/cifar-10/cifar10_train_lmdb
I1017 12:19:17.000695  9010 data_layer.cpp:41] output data size: 64,3,32,32
I1017 12:19:17.002053  9010 net.cpp:150] Setting up data
I1017 12:19:17.002068  9010 net.cpp:157] Top shape: 64 3 32 32 (196608)
I1017 12:19:17.002070  9010 net.cpp:157] Top shape: 64 (64)
I1017 12:19:17.002073  9010 net.cpp:165] Memory required for data: 786688
I1017 12:19:17.002079  9010 layer_factory.hpp:77] Creating layer label_data_1_split
I1017 12:19:17.002090  9010 net.cpp:100] Creating Layer label_data_1_split
I1017 12:19:17.002094  9010 net.cpp:434] label_data_1_split <- label
I1017 12:19:17.002105  9010 net.cpp:408] label_data_1_split -> label_data_1_split_0
I1017 12:19:17.002113  9010 net.cpp:408] label_data_1_split -> label_data_1_split_1
I1017 12:19:17.002138  9010 net.cpp:150] Setting up label_data_1_split
I1017 12:19:17.002142  9010 net.cpp:157] Top shape: 64 (64)
I1017 12:19:17.002145  9010 net.cpp:157] Top shape: 64 (64)
I1017 12:19:17.002146  9010 net.cpp:165] Memory required for data: 787200
I1017 12:19:17.002147  9010 layer_factory.hpp:77] Creating layer conv1
I1017 12:19:17.002158  9010 net.cpp:100] Creating Layer conv1
I1017 12:19:17.002161  9010 net.cpp:434] conv1 <- data
I1017 12:19:17.002164  9010 net.cpp:408] conv1 -> conv1
I1017 12:19:17.118525  9010 net.cpp:150] Setting up conv1
I1017 12:19:17.118551  9010 net.cpp:157] Top shape: 64 192 28 28 (9633792)
I1017 12:19:17.118554  9010 net.cpp:165] Memory required for data: 39322368
I1017 12:19:17.118571  9010 layer_factory.hpp:77] Creating layer pool1
I1017 12:19:17.118602  9010 net.cpp:100] Creating Layer pool1
I1017 12:19:17.118607  9010 net.cpp:434] pool1 <- conv1
I1017 12:19:17.118614  9010 net.cpp:408] pool1 -> pool1
I1017 12:19:17.118657  9010 net.cpp:150] Setting up pool1
I1017 12:19:17.118664  9010 net.cpp:157] Top shape: 64 192 14 14 (2408448)
I1017 12:19:17.118665  9010 net.cpp:165] Memory required for data: 48956160
I1017 12:19:17.118667  9010 layer_factory.hpp:77] Creating layer drop1
I1017 12:19:17.118674  9010 net.cpp:100] Creating Layer drop1
I1017 12:19:17.118675  9010 net.cpp:434] drop1 <- pool1
I1017 12:19:17.118679  9010 net.cpp:408] drop1 -> drop1
I1017 12:19:17.118705  9010 net.cpp:150] Setting up drop1
I1017 12:19:17.118710  9010 net.cpp:157] Top shape: 64 192 14 14 (2408448)
I1017 12:19:17.118710  9010 net.cpp:165] Memory required for data: 58589952
I1017 12:19:17.118712  9010 layer_factory.hpp:77] Creating layer relu1
I1017 12:19:17.118716  9010 net.cpp:100] Creating Layer relu1
I1017 12:19:17.118718  9010 net.cpp:434] relu1 <- drop1
I1017 12:19:17.118721  9010 net.cpp:408] relu1 -> relu1
I1017 12:19:17.118849  9010 net.cpp:150] Setting up relu1
I1017 12:19:17.118855  9010 net.cpp:157] Top shape: 64 192 14 14 (2408448)
I1017 12:19:17.118857  9010 net.cpp:165] Memory required for data: 68223744
I1017 12:19:17.118858  9010 layer_factory.hpp:77] Creating layer conv2
I1017 12:19:17.118865  9010 net.cpp:100] Creating Layer conv2
I1017 12:19:17.118867  9010 net.cpp:434] conv2 <- relu1
I1017 12:19:17.118871  9010 net.cpp:408] conv2 -> conv2
I1017 12:19:17.119920  9010 net.cpp:150] Setting up conv2
I1017 12:19:17.119927  9010 net.cpp:157] Top shape: 64 192 14 14 (2408448)
I1017 12:19:17.119930  9010 net.cpp:165] Memory required for data: 77857536
I1017 12:19:17.119935  9010 layer_factory.hpp:77] Creating layer conv3
I1017 12:19:17.119940  9010 net.cpp:100] Creating Layer conv3
I1017 12:19:17.119942  9010 net.cpp:434] conv3 <- conv2
I1017 12:19:17.119947  9010 net.cpp:408] conv3 -> conv3
I1017 12:19:17.122375  9010 net.cpp:150] Setting up conv3
I1017 12:19:17.122382  9010 net.cpp:157] Top shape: 64 240 12 12 (2211840)
I1017 12:19:17.122385  9010 net.cpp:165] Memory required for data: 86704896
I1017 12:19:17.122390  9010 layer_factory.hpp:77] Creating layer pool2
I1017 12:19:17.122395  9010 net.cpp:100] Creating Layer pool2
I1017 12:19:17.122397  9010 net.cpp:434] pool2 <- conv3
I1017 12:19:17.122401  9010 net.cpp:408] pool2 -> pool2
I1017 12:19:17.122429  9010 net.cpp:150] Setting up pool2
I1017 12:19:17.122433  9010 net.cpp:157] Top shape: 64 240 6 6 (552960)
I1017 12:19:17.122436  9010 net.cpp:165] Memory required for data: 88916736
I1017 12:19:17.122438  9010 layer_factory.hpp:77] Creating layer drop2
I1017 12:19:17.122449  9010 net.cpp:100] Creating Layer drop2
I1017 12:19:17.122452  9010 net.cpp:434] drop2 <- pool2
I1017 12:19:17.122455  9010 net.cpp:408] drop2 -> drop2
I1017 12:19:17.122480  9010 net.cpp:150] Setting up drop2
I1017 12:19:17.122485  9010 net.cpp:157] Top shape: 64 240 6 6 (552960)
I1017 12:19:17.122486  9010 net.cpp:165] Memory required for data: 91128576
I1017 12:19:17.122488  9010 layer_factory.hpp:77] Creating layer relu2
I1017 12:19:17.122491  9010 net.cpp:100] Creating Layer relu2
I1017 12:19:17.122493  9010 net.cpp:434] relu2 <- drop2
I1017 12:19:17.122496  9010 net.cpp:408] relu2 -> relu2
I1017 12:19:17.122608  9010 net.cpp:150] Setting up relu2
I1017 12:19:17.122614  9010 net.cpp:157] Top shape: 64 240 6 6 (552960)
I1017 12:19:17.122617  9010 net.cpp:165] Memory required for data: 93340416
I1017 12:19:17.122617  9010 layer_factory.hpp:77] Creating layer conv4
I1017 12:19:17.122622  9010 net.cpp:100] Creating Layer conv4
I1017 12:19:17.122624  9010 net.cpp:434] conv4 <- relu2
I1017 12:19:17.122628  9010 net.cpp:408] conv4 -> conv4
I1017 12:19:17.123447  9010 net.cpp:150] Setting up conv4
I1017 12:19:17.123455  9010 net.cpp:157] Top shape: 64 240 6 6 (552960)
I1017 12:19:17.123456  9010 net.cpp:165] Memory required for data: 95552256
I1017 12:19:17.123461  9010 layer_factory.hpp:77] Creating layer conv5
I1017 12:19:17.123473  9010 net.cpp:100] Creating Layer conv5
I1017 12:19:17.123476  9010 net.cpp:434] conv5 <- conv4
I1017 12:19:17.123478  9010 net.cpp:408] conv5 -> conv5
I1017 12:19:17.125216  9010 net.cpp:150] Setting up conv5
I1017 12:19:17.125223  9010 net.cpp:157] Top shape: 64 260 5 5 (416000)
I1017 12:19:17.125226  9010 net.cpp:165] Memory required for data: 97216256
I1017 12:19:17.125231  9010 layer_factory.hpp:77] Creating layer pool3
I1017 12:19:17.125236  9010 net.cpp:100] Creating Layer pool3
I1017 12:19:17.125237  9010 net.cpp:434] pool3 <- conv5
I1017 12:19:17.125241  9010 net.cpp:408] pool3 -> pool3
I1017 12:19:17.125268  9010 net.cpp:150] Setting up pool3
I1017 12:19:17.125273  9010 net.cpp:157] Top shape: 64 260 3 3 (149760)
I1017 12:19:17.125274  9010 net.cpp:165] Memory required for data: 97815296
I1017 12:19:17.125277  9010 layer_factory.hpp:77] Creating layer drop3
I1017 12:19:17.125279  9010 net.cpp:100] Creating Layer drop3
I1017 12:19:17.125282  9010 net.cpp:434] drop3 <- pool3
I1017 12:19:17.125284  9010 net.cpp:408] drop3 -> drop3
I1017 12:19:17.125306  9010 net.cpp:150] Setting up drop3
I1017 12:19:17.125310  9010 net.cpp:157] Top shape: 64 260 3 3 (149760)
I1017 12:19:17.125313  9010 net.cpp:165] Memory required for data: 98414336
I1017 12:19:17.125313  9010 layer_factory.hpp:77] Creating layer relu3
I1017 12:19:17.125316  9010 net.cpp:100] Creating Layer relu3
I1017 12:19:17.125319  9010 net.cpp:434] relu3 <- drop3
I1017 12:19:17.125324  9010 net.cpp:408] relu3 -> relu3
I1017 12:19:17.125433  9010 net.cpp:150] Setting up relu3
I1017 12:19:17.125438  9010 net.cpp:157] Top shape: 64 260 3 3 (149760)
I1017 12:19:17.125440  9010 net.cpp:165] Memory required for data: 99013376
I1017 12:19:17.125442  9010 layer_factory.hpp:77] Creating layer conv6
I1017 12:19:17.125449  9010 net.cpp:100] Creating Layer conv6
I1017 12:19:17.125452  9010 net.cpp:434] conv6 <- relu3
I1017 12:19:17.125454  9010 net.cpp:408] conv6 -> conv6
I1017 12:19:17.126555  9010 net.cpp:150] Setting up conv6
I1017 12:19:17.126564  9010 net.cpp:157] Top shape: 64 260 3 3 (149760)
I1017 12:19:17.126564  9010 net.cpp:165] Memory required for data: 99612416
I1017 12:19:17.126569  9010 layer_factory.hpp:77] Creating layer conv7
I1017 12:19:17.126574  9010 net.cpp:100] Creating Layer conv7
I1017 12:19:17.126576  9010 net.cpp:434] conv7 <- conv6
I1017 12:19:17.126580  9010 net.cpp:408] conv7 -> conv7
I1017 12:19:17.128598  9010 net.cpp:150] Setting up conv7
I1017 12:19:17.128607  9010 net.cpp:157] Top shape: 64 280 2 2 (71680)
I1017 12:19:17.128608  9010 net.cpp:165] Memory required for data: 99899136
I1017 12:19:17.128612  9010 layer_factory.hpp:77] Creating layer pool4
I1017 12:19:17.128617  9010 net.cpp:100] Creating Layer pool4
I1017 12:19:17.128619  9010 net.cpp:434] pool4 <- conv7
I1017 12:19:17.128623  9010 net.cpp:408] pool4 -> pool4
I1017 12:19:17.128649  9010 net.cpp:150] Setting up pool4
I1017 12:19:17.128654  9010 net.cpp:157] Top shape: 64 280 1 1 (17920)
I1017 12:19:17.128656  9010 net.cpp:165] Memory required for data: 99970816
I1017 12:19:17.128657  9010 layer_factory.hpp:77] Creating layer drop4
I1017 12:19:17.128660  9010 net.cpp:100] Creating Layer drop4
I1017 12:19:17.128662  9010 net.cpp:434] drop4 <- pool4
I1017 12:19:17.128666  9010 net.cpp:408] drop4 -> drop4
I1017 12:19:17.128686  9010 net.cpp:150] Setting up drop4
I1017 12:19:17.128690  9010 net.cpp:157] Top shape: 64 280 1 1 (17920)
I1017 12:19:17.128692  9010 net.cpp:165] Memory required for data: 100042496
I1017 12:19:17.128695  9010 layer_factory.hpp:77] Creating layer relu4
I1017 12:19:17.128697  9010 net.cpp:100] Creating Layer relu4
I1017 12:19:17.128698  9010 net.cpp:434] relu4 <- drop4
I1017 12:19:17.128701  9010 net.cpp:408] relu4 -> relu4
I1017 12:19:17.128891  9010 net.cpp:150] Setting up relu4
I1017 12:19:17.128901  9010 net.cpp:157] Top shape: 64 280 1 1 (17920)
I1017 12:19:17.128901  9010 net.cpp:165] Memory required for data: 100114176
I1017 12:19:17.128903  9010 layer_factory.hpp:77] Creating layer conv8
I1017 12:19:17.128909  9010 net.cpp:100] Creating Layer conv8
I1017 12:19:17.128918  9010 net.cpp:434] conv8 <- relu4
I1017 12:19:17.128922  9010 net.cpp:408] conv8 -> conv8
I1017 12:19:17.129756  9010 net.cpp:150] Setting up conv8
I1017 12:19:17.129765  9010 net.cpp:157] Top shape: 64 280 1 1 (17920)
I1017 12:19:17.129767  9010 net.cpp:165] Memory required for data: 100185856
I1017 12:19:17.129770  9010 layer_factory.hpp:77] Creating layer pool5
I1017 12:19:17.129775  9010 net.cpp:100] Creating Layer pool5
I1017 12:19:17.129776  9010 net.cpp:434] pool5 <- conv8
I1017 12:19:17.129779  9010 net.cpp:408] pool5 -> pool5
I1017 12:19:17.129806  9010 net.cpp:150] Setting up pool5
I1017 12:19:17.129811  9010 net.cpp:157] Top shape: 64 280 1 1 (17920)
I1017 12:19:17.129812  9010 net.cpp:165] Memory required for data: 100257536
I1017 12:19:17.129813  9010 layer_factory.hpp:77] Creating layer drop5
I1017 12:19:17.129817  9010 net.cpp:100] Creating Layer drop5
I1017 12:19:17.129818  9010 net.cpp:434] drop5 <- pool5
I1017 12:19:17.129822  9010 net.cpp:408] drop5 -> drop5
I1017 12:19:17.129843  9010 net.cpp:150] Setting up drop5
I1017 12:19:17.129848  9010 net.cpp:157] Top shape: 64 280 1 1 (17920)
I1017 12:19:17.129849  9010 net.cpp:165] Memory required for data: 100329216
I1017 12:19:17.129851  9010 layer_factory.hpp:77] Creating layer relu5
I1017 12:19:17.129853  9010 net.cpp:100] Creating Layer relu5
I1017 12:19:17.129855  9010 net.cpp:434] relu5 <- drop5
I1017 12:19:17.129858  9010 net.cpp:408] relu5 -> relu5
I1017 12:19:17.130125  9010 net.cpp:150] Setting up relu5
I1017 12:19:17.130132  9010 net.cpp:157] Top shape: 64 280 1 1 (17920)
I1017 12:19:17.130134  9010 net.cpp:165] Memory required for data: 100400896
I1017 12:19:17.130136  9010 layer_factory.hpp:77] Creating layer conv10
I1017 12:19:17.130141  9010 net.cpp:100] Creating Layer conv10
I1017 12:19:17.130143  9010 net.cpp:434] conv10 <- relu5
I1017 12:19:17.130146  9010 net.cpp:408] conv10 -> conv10
I1017 12:19:17.131083  9010 net.cpp:150] Setting up conv10
I1017 12:19:17.131091  9010 net.cpp:157] Top shape: 64 300 1 1 (19200)
I1017 12:19:17.131093  9010 net.cpp:165] Memory required for data: 100477696
I1017 12:19:17.131099  9010 layer_factory.hpp:77] Creating layer pool6
I1017 12:19:17.131104  9010 net.cpp:100] Creating Layer pool6
I1017 12:19:17.131106  9010 net.cpp:434] pool6 <- conv10
I1017 12:19:17.131109  9010 net.cpp:408] pool6 -> pool6
I1017 12:19:17.131137  9010 net.cpp:150] Setting up pool6
I1017 12:19:17.131142  9010 net.cpp:157] Top shape: 64 300 1 1 (19200)
I1017 12:19:17.131145  9010 net.cpp:165] Memory required for data: 100554496
I1017 12:19:17.131145  9010 layer_factory.hpp:77] Creating layer drop6
I1017 12:19:17.131148  9010 net.cpp:100] Creating Layer drop6
I1017 12:19:17.131150  9010 net.cpp:434] drop6 <- pool6
I1017 12:19:17.131155  9010 net.cpp:408] drop6 -> drop6
I1017 12:19:17.131176  9010 net.cpp:150] Setting up drop6
I1017 12:19:17.131180  9010 net.cpp:157] Top shape: 64 300 1 1 (19200)
I1017 12:19:17.131181  9010 net.cpp:165] Memory required for data: 100631296
I1017 12:19:17.131182  9010 layer_factory.hpp:77] Creating layer relu6
I1017 12:19:17.131186  9010 net.cpp:100] Creating Layer relu6
I1017 12:19:17.131188  9010 net.cpp:434] relu6 <- drop6
I1017 12:19:17.131191  9010 net.cpp:408] relu6 -> relu6
I1017 12:19:17.131307  9010 net.cpp:150] Setting up relu6
I1017 12:19:17.131312  9010 net.cpp:157] Top shape: 64 300 1 1 (19200)
I1017 12:19:17.131314  9010 net.cpp:165] Memory required for data: 100708096
I1017 12:19:17.131315  9010 layer_factory.hpp:77] Creating layer conv11
I1017 12:19:17.131320  9010 net.cpp:100] Creating Layer conv11
I1017 12:19:17.131322  9010 net.cpp:434] conv11 <- relu6
I1017 12:19:17.131325  9010 net.cpp:408] conv11 -> conv11
I1017 12:19:17.132052  9010 net.cpp:150] Setting up conv11
I1017 12:19:17.132061  9010 net.cpp:157] Top shape: 64 100 1 1 (6400)
I1017 12:19:17.132062  9010 net.cpp:165] Memory required for data: 100733696
I1017 12:19:17.132066  9010 layer_factory.hpp:77] Creating layer pool7
I1017 12:19:17.132069  9010 net.cpp:100] Creating Layer pool7
I1017 12:19:17.132078  9010 net.cpp:434] pool7 <- conv11
I1017 12:19:17.132082  9010 net.cpp:408] pool7 -> pool7
I1017 12:19:17.132112  9010 net.cpp:150] Setting up pool7
I1017 12:19:17.132117  9010 net.cpp:157] Top shape: 64 100 1 1 (6400)
I1017 12:19:17.132118  9010 net.cpp:165] Memory required for data: 100759296
I1017 12:19:17.132120  9010 layer_factory.hpp:77] Creating layer drop7
I1017 12:19:17.132123  9010 net.cpp:100] Creating Layer drop7
I1017 12:19:17.132125  9010 net.cpp:434] drop7 <- pool7
I1017 12:19:17.132128  9010 net.cpp:408] drop7 -> drop7
I1017 12:19:17.132150  9010 net.cpp:150] Setting up drop7
I1017 12:19:17.132153  9010 net.cpp:157] Top shape: 64 100 1 1 (6400)
I1017 12:19:17.132155  9010 net.cpp:165] Memory required for data: 100784896
I1017 12:19:17.132158  9010 layer_factory.hpp:77] Creating layer relu7
I1017 12:19:17.132165  9010 net.cpp:100] Creating Layer relu7
I1017 12:19:17.132169  9010 net.cpp:434] relu7 <- drop7
I1017 12:19:17.132171  9010 net.cpp:408] relu7 -> relu7
I1017 12:19:17.132364  9010 net.cpp:150] Setting up relu7
I1017 12:19:17.132371  9010 net.cpp:157] Top shape: 64 100 1 1 (6400)
I1017 12:19:17.132372  9010 net.cpp:165] Memory required for data: 100810496
I1017 12:19:17.132375  9010 layer_factory.hpp:77] Creating layer pool
I1017 12:19:17.132378  9010 net.cpp:100] Creating Layer pool
I1017 12:19:17.132380  9010 net.cpp:434] pool <- relu7
I1017 12:19:17.132383  9010 net.cpp:408] pool -> pool
I1017 12:19:17.132506  9010 net.cpp:150] Setting up pool
I1017 12:19:17.132513  9010 net.cpp:157] Top shape: 64 100 1 1 (6400)
I1017 12:19:17.132514  9010 net.cpp:165] Memory required for data: 100836096
I1017 12:19:17.132516  9010 layer_factory.hpp:77] Creating layer flatten
I1017 12:19:17.132519  9010 net.cpp:100] Creating Layer flatten
I1017 12:19:17.132521  9010 net.cpp:434] flatten <- pool
I1017 12:19:17.132524  9010 net.cpp:408] flatten -> flatten
I1017 12:19:17.132539  9010 net.cpp:150] Setting up flatten
I1017 12:19:17.132542  9010 net.cpp:157] Top shape: 64 100 (6400)
I1017 12:19:17.132544  9010 net.cpp:165] Memory required for data: 100861696
I1017 12:19:17.132545  9010 layer_factory.hpp:77] Creating layer score
I1017 12:19:17.132550  9010 net.cpp:100] Creating Layer score
I1017 12:19:17.132555  9010 net.cpp:434] score <- flatten
I1017 12:19:17.132560  9010 net.cpp:408] score -> score
I1017 12:19:17.132658  9010 net.cpp:150] Setting up score
I1017 12:19:17.132663  9010 net.cpp:157] Top shape: 64 10 (640)
I1017 12:19:17.132664  9010 net.cpp:165] Memory required for data: 100864256
I1017 12:19:17.132668  9010 layer_factory.hpp:77] Creating layer score_score_0_split
I1017 12:19:17.132671  9010 net.cpp:100] Creating Layer score_score_0_split
I1017 12:19:17.132673  9010 net.cpp:434] score_score_0_split <- score
I1017 12:19:17.132678  9010 net.cpp:408] score_score_0_split -> score_score_0_split_0
I1017 12:19:17.132681  9010 net.cpp:408] score_score_0_split -> score_score_0_split_1
I1017 12:19:17.132705  9010 net.cpp:150] Setting up score_score_0_split
I1017 12:19:17.132709  9010 net.cpp:157] Top shape: 64 10 (640)
I1017 12:19:17.132711  9010 net.cpp:157] Top shape: 64 10 (640)
I1017 12:19:17.132714  9010 net.cpp:165] Memory required for data: 100869376
I1017 12:19:17.132714  9010 layer_factory.hpp:77] Creating layer accuracy
I1017 12:19:17.132719  9010 net.cpp:100] Creating Layer accuracy
I1017 12:19:17.132720  9010 net.cpp:434] accuracy <- score_score_0_split_0
I1017 12:19:17.132722  9010 net.cpp:434] accuracy <- label_data_1_split_0
I1017 12:19:17.132726  9010 net.cpp:408] accuracy -> accuracy
…
I1017 12:19:17.133139  9010 net.cpp:270] This network produces output loss
I1017 12:19:17.133157  9010 net.cpp:283] Network initialization done.
I1017 12:19:17.133343  9010 solver.cpp:181] Creating test net (#0) specified by test_net file: /home/adam/Honours/Honours-Project/cifar-10_pooling/max/leakyrelu/poolcnn_leakyrelu_test.prototxt
I1017 12:19:17.133458  9010 net.cpp:58] Initializing net from parameters: 
state {
  phase: TEST
}
layer {
  name: "data"
  type: "Data"
  top: "data"
  top: "label"
  data_param {
    source: "../../../../data/cifar-10/cifar10_test_lmdb"
    batch_size: 100
    backend: LMDB
  }
}
layer {
  name: "conv1"
  type: "Convolution"
  bottom: "data"
  top: "conv1"
  convolution_param {
    num_output: 192
    kernel_size: 5
    weight_filler {
      type: "xavier"
    }
  }
}
layer {
  name: "pool1"
  type: "Pooling"
  bottom: "conv1"
  top: "pool1"
  pooling_param {
    pool: MAX
    kernel_size: 2
    stride: 2
  }
}
layer {
  name: "drop1"
  type: "Dropout"
  bottom: "pool1"
  top: "drop1"
  dropout_param {
    dropout_ratio: 0
  }
}
layer {
  name: "relu1"
  type: "ReLU"
  bottom: "drop1"
  top: "relu1"
  relu_param {
    negative_slope: 0.01
  }
}
layer {
  name: "conv2"
  type: "Convolution"
  bottom: "relu1"
  top: "conv2"
  convolution_param {
    num_output: 192
    kernel_size: 1
    weight_filler {
      type: "xavier"
    }
  }
}
layer {
  name: "conv3"
  type: "Convolution"
  bottom: "conv2"
  top: "conv3"
  convolution_param {
    num_output: 240
    kernel_size: 3
    weight_filler {
      type: "xavier"
    }
  }
}
layer {
  name: "pool2"
  type: "Pooling"
  bottom: "conv3"
  top: "pool2"
  pooling_param {
    pool: MAX
    kernel_size: 2
    stride: 2
  }
}
layer {
  name: "drop2"
  type: "Dropout"
  bottom: "pool2"
  top: "drop2"
  dropout_param {
    dropout_ratio: 0.1
  }
}
layer {
  name: "relu2"
  type: "ReLU"
  bottom: "drop2"
  top: "relu2"
  relu_param {
    negative_slope: 0.01
  }
}
layer {
  name: "conv4"
  type: "Convolution"
  bottom: "relu2"
  top: "conv4"
  convolution_param {
    num_output: 240
    kernel_size: 1
    weight_filler {
      type: "xavier"
    }
  }
}
layer {
  name: "conv5"
  type: "Convolution"
  bottom: "conv4"
  top: "conv5"
  convolution_param {
    num_output: 260
    kernel_size: 2
    weight_filler {
      type: "xavier"
    }
  }
}
layer {
  name: "pool3"
  type: "Pooling"
  bottom: "conv5"
  top: "pool3"
  pooling_param {
    pool: MAX
    kernel_size: 2
    stride: 2
  }
}
layer {
  name: "drop3"
  type: "Dropout"
  bottom: "pool3"
  top: "drop3"
  dropout_param {
    dropout_ratio: 0.2
  }
}
layer {
  name: "relu3"
  type: "ReLU"
  bottom: "drop3"
  top: "relu3"
  relu_param {
    negative_slope: 0.01
  }
}
layer {
  name: "conv6"
  type: "Convolution"
  bottom: "relu3"
  top: "conv6"
  convolution_param {
    num_output: 260
    kernel_size: 1
    weight_filler {
      type: "xavier"
    }
  }
}
layer {
  name: "conv7"
  type: "Convolution"
  bottom: "conv6"
  top: "conv7"
  convolution_param {
    num_output: 280
    kernel_size: 2
    weight_filler {
      type: "xavier"
    }
  }
}
layer {
  name: "pool4"
  type: "Pooling"
  bottom: "conv7"
  top: "pool4"
  pooling_param {
    pool: MAX
    kernel_size: 2
    stride: 2
  }
}
layer {
  name: "drop4"
  type: "Dropout"
  bottom: "pool4"
  top: "drop4"
  dropout_param {
    dropout_ratio: 0.3
  }
}
layer {
  name: "relu4"
  type: "ReLU"
  bottom: "drop4"
  top: "relu4"
  relu_param {
    negative_slope: 0.01
  }
}
layer {
  name: "conv8"
  type: "Convolution"
  bottom: "relu4"
  top: "conv8"
  convolution_param {
    num_output: 280
    kernel_size: 1
    weight_filler {
      type: "xavier"
    }
  }
}
layer {
  name: "pool5"
  type: "Pooling"
  bottom: "conv8"
  top: "pool5"
  pooling_param {
    pool: MAX
    kernel_size: 2
    stride: 2
  }
}
layer {
  name: "drop5"
  type: "Dropout"
  bottom: "pool5"
  top: "drop5"
  dropout_param {
    dropout_ratio: 0.4
  }
}
layer {
  name: "relu5"
  type: "ReLU"
  bottom: "drop5"
  top: "relu5"
  relu_param {
    negative_slope: 0.01
  }
}
layer {
  name: "conv10"
  type: "Convolution"
  bottom: "relu5"
  top: "conv10"
  convolution_param {
    num_output: 300
    kernel_size: 1
    weight_filler {
      type: "xavier"
    }
  }
}
layer {
  name: "pool6"
  type: "Pooling"
  bottom: "conv10"
  top: "pool6"
  pooling_param {
    pool: MAX
    kernel_size: 2
    stride: 2
  }
}
layer {
  name: "drop6"
  type: "Dropout"
  bottom: "pool6"
  top: "drop6"
  dropout_param {
    dropout_ratio: 0.5
  }
}
layer {
  name: "relu6"
  type: "ReLU"
  bottom: "drop6"
  top: "relu6"
  relu_param {
    negative_slope: 0.01
  }
}
layer {
  name: "conv11"
  type: "Convolution"
  bottom: "relu6"
  top: "conv11"
  convolution_param {
    num_output: 100
    kernel_size: 1
    weight_filler {
      type: "xavier"
    }
  }
}
layer {
  name: "pool7"
  type: "Pooling"
  bottom: "conv11"
  top: "pool7"
  pooling_param {
    pool: MAX
    kernel_size: 2
    stride: 2
  }
}
layer {
  name: "drop7"
  type: "Dropout"
  bottom: "pool7"
  top: "drop7"
  dropout_param {
    dropout_ratio: 0
  }
}
layer {
  name: "relu7"
  type: "ReLU"
  bottom: "drop7"
  top: "relu7"
  relu_param {
    negative_slope: 0.01
  }
}
layer {
  name: "pool"
  type: "Pooling"
  bottom: "relu7"
  top: "pool"
  pooling_param {
    pool: AVE
    global_pooling: true
  }
}
layer {
  name: "flatten"
  type: "Flatten"
  bottom: "pool"
  top: "flatten"
}
layer {
  name: "score"
  type: "InnerProduct"
  bottom: "flatten"
  top: "score"
  inner_product_param {
    num_output: 10
    weight_filler {
      type: "gaussian"
    }
  }
}
layer {
  name: "accuracy"
  type: "Accuracy"
  bottom: "score"
  bottom: "label"
  top: "accuracy"
}
layer {
  name: "loss"
  type: "SoftmaxWithLoss"
  bottom: "score"
  bottom: "label"
  top: "loss"
}
I1017 12:19:17.133558  9010 layer_factory.hpp:77] Creating layer data
I1017 12:19:17.133744  9010 net.cpp:100] Creating Layer data
I1017 12:19:17.133749  9010 net.cpp:408] data -> data
I1017 12:19:17.133756  9010 net.cpp:408] data -> label
I1017 12:19:17.134333  9017 db_lmdb.cpp:35] Opened lmdb ../../../../data/cifar-10/cifar10_test_lmdb
I1017 12:19:17.134413  9010 data_layer.cpp:41] output data size: 100,3,32,32
I1017 12:19:17.136123  9010 net.cpp:150] Setting up data
I1017 12:19:17.136137  9010 net.cpp:157] Top shape: 100 3 32 32 (307200)
I1017 12:19:17.136140  9010 net.cpp:157] Top shape: 100 (100)
I1017 12:19:17.136142  9010 net.cpp:165] Memory required for data: 1229200
I1017 12:19:17.136145  9010 layer_factory.hpp:77] Creating layer label_data_1_split
I1017 12:19:17.136158  9010 net.cpp:100] Creating Layer label_data_1_split
I1017 12:19:17.136162  9010 net.cpp:434] label_data_1_split <- label
I1017 12:19:17.136168  9010 net.cpp:408] label_data_1_split -> label_data_1_split_0
I1017 12:19:17.136178  9010 net.cpp:408] label_data_1_split -> label_data_1_split_1
I1017 12:19:17.136224  9010 net.cpp:150] Setting up label_data_1_split
I1017 12:19:17.136229  9010 net.cpp:157] Top shape: 100 (100)
I1017 12:19:17.136231  9010 net.cpp:157] Top shape: 100 (100)
I1017 12:19:17.136234  9010 net.cpp:165] Memory required for data: 1230000
I1017 12:19:17.136235  9010 layer_factory.hpp:77] Creating layer conv1
I1017 12:19:17.136241  9010 net.cpp:100] Creating Layer conv1
I1017 12:19:17.136242  9010 net.cpp:434] conv1 <- data
I1017 12:19:17.136246  9010 net.cpp:408] conv1 -> conv1
I1017 12:19:17.136983  9010 net.cpp:150] Setting up conv1
I1017 12:19:17.136991  9010 net.cpp:157] Top shape: 100 192 28 28 (15052800)
I1017 12:19:17.136992  9010 net.cpp:165] Memory required for data: 61441200
I1017 12:19:17.136999  9010 layer_factory.hpp:77] Creating layer pool1
I1017 12:19:17.137003  9010 net.cpp:100] Creating Layer pool1
I1017 12:19:17.137006  9010 net.cpp:434] pool1 <- conv1
I1017 12:19:17.137008  9010 net.cpp:408] pool1 -> pool1
I1017 12:19:17.137037  9010 net.cpp:150] Setting up pool1
I1017 12:19:17.137042  9010 net.cpp:157] Top shape: 100 192 14 14 (3763200)
I1017 12:19:17.137043  9010 net.cpp:165] Memory required for data: 76494000
I1017 12:19:17.137045  9010 layer_factory.hpp:77] Creating layer drop1
I1017 12:19:17.137049  9010 net.cpp:100] Creating Layer drop1
I1017 12:19:17.137051  9010 net.cpp:434] drop1 <- pool1
I1017 12:19:17.137055  9010 net.cpp:408] drop1 -> drop1
I1017 12:19:17.137079  9010 net.cpp:150] Setting up drop1
I1017 12:19:17.137084  9010 net.cpp:157] Top shape: 100 192 14 14 (3763200)
I1017 12:19:17.137086  9010 net.cpp:165] Memory required for data: 91546800
I1017 12:19:17.137089  9010 layer_factory.hpp:77] Creating layer relu1
I1017 12:19:17.137094  9010 net.cpp:100] Creating Layer relu1
I1017 12:19:17.137095  9010 net.cpp:434] relu1 <- drop1
I1017 12:19:17.137099  9010 net.cpp:408] relu1 -> relu1
I1017 12:19:17.137428  9010 net.cpp:150] Setting up relu1
I1017 12:19:17.137444  9010 net.cpp:157] Top shape: 100 192 14 14 (3763200)
I1017 12:19:17.137445  9010 net.cpp:165] Memory required for data: 106599600
I1017 12:19:17.137447  9010 layer_factory.hpp:77] Creating layer conv2
I1017 12:19:17.137452  9010 net.cpp:100] Creating Layer conv2
I1017 12:19:17.137454  9010 net.cpp:434] conv2 <- relu1
I1017 12:19:17.137459  9010 net.cpp:408] conv2 -> conv2
I1017 12:19:17.138253  9010 net.cpp:150] Setting up conv2
I1017 12:19:17.138260  9010 net.cpp:157] Top shape: 100 192 14 14 (3763200)
I1017 12:19:17.138262  9010 net.cpp:165] Memory required for data: 121652400
I1017 12:19:17.138267  9010 layer_factory.hpp:77] Creating layer conv3
I1017 12:19:17.138274  9010 net.cpp:100] Creating Layer conv3
I1017 12:19:17.138276  9010 net.cpp:434] conv3 <- conv2
I1017 12:19:17.138279  9010 net.cpp:408] conv3 -> conv3
I1017 12:19:17.140784  9010 net.cpp:150] Setting up conv3
I1017 12:19:17.140796  9010 net.cpp:157] Top shape: 100 240 12 12 (3456000)
I1017 12:19:17.140799  9010 net.cpp:165] Memory required for data: 135476400
I1017 12:19:17.140804  9010 layer_factory.hpp:77] Creating layer pool2
I1017 12:19:17.140811  9010 net.cpp:100] Creating Layer pool2
I1017 12:19:17.140813  9010 net.cpp:434] pool2 <- conv3
I1017 12:19:17.140816  9010 net.cpp:408] pool2 -> pool2
I1017 12:19:17.140849  9010 net.cpp:150] Setting up pool2
I1017 12:19:17.140854  9010 net.cpp:157] Top shape: 100 240 6 6 (864000)
I1017 12:19:17.140856  9010 net.cpp:165] Memory required for data: 138932400
I1017 12:19:17.140857  9010 layer_factory.hpp:77] Creating layer drop2
I1017 12:19:17.140861  9010 net.cpp:100] Creating Layer drop2
I1017 12:19:17.140863  9010 net.cpp:434] drop2 <- pool2
I1017 12:19:17.140868  9010 net.cpp:408] drop2 -> drop2
I1017 12:19:17.140892  9010 net.cpp:150] Setting up drop2
I1017 12:19:17.140895  9010 net.cpp:157] Top shape: 100 240 6 6 (864000)
I1017 12:19:17.140897  9010 net.cpp:165] Memory required for data: 142388400
I1017 12:19:17.140899  9010 layer_factory.hpp:77] Creating layer relu2
I1017 12:19:17.140903  9010 net.cpp:100] Creating Layer relu2
I1017 12:19:17.140907  9010 net.cpp:434] relu2 <- drop2
I1017 12:19:17.140913  9010 net.cpp:408] relu2 -> relu2
I1017 12:19:17.141032  9010 net.cpp:150] Setting up relu2
I1017 12:19:17.141038  9010 net.cpp:157] Top shape: 100 240 6 6 (864000)
I1017 12:19:17.141041  9010 net.cpp:165] Memory required for data: 145844400
I1017 12:19:17.141042  9010 layer_factory.hpp:77] Creating layer conv4
I1017 12:19:17.141047  9010 net.cpp:100] Creating Layer conv4
I1017 12:19:17.141049  9010 net.cpp:434] conv4 <- relu2
I1017 12:19:17.141052  9010 net.cpp:408] conv4 -> conv4
I1017 12:19:17.141911  9010 net.cpp:150] Setting up conv4
I1017 12:19:17.141919  9010 net.cpp:157] Top shape: 100 240 6 6 (864000)
I1017 12:19:17.141923  9010 net.cpp:165] Memory required for data: 149300400
I1017 12:19:17.141929  9010 layer_factory.hpp:77] Creating layer conv5
I1017 12:19:17.141937  9010 net.cpp:100] Creating Layer conv5
I1017 12:19:17.141938  9010 net.cpp:434] conv5 <- conv4
I1017 12:19:17.141942  9010 net.cpp:408] conv5 -> conv5
I1017 12:19:17.143723  9010 net.cpp:150] Setting up conv5
I1017 12:19:17.143731  9010 net.cpp:157] Top shape: 100 260 5 5 (650000)
I1017 12:19:17.143733  9010 net.cpp:165] Memory required for data: 151900400
I1017 12:19:17.143739  9010 layer_factory.hpp:77] Creating layer pool3
I1017 12:19:17.143743  9010 net.cpp:100] Creating Layer pool3
I1017 12:19:17.143745  9010 net.cpp:434] pool3 <- conv5
I1017 12:19:17.143748  9010 net.cpp:408] pool3 -> pool3
I1017 12:19:17.143777  9010 net.cpp:150] Setting up pool3
I1017 12:19:17.143782  9010 net.cpp:157] Top shape: 100 260 3 3 (234000)
I1017 12:19:17.143784  9010 net.cpp:165] Memory required for data: 152836400
I1017 12:19:17.143786  9010 layer_factory.hpp:77] Creating layer drop3
I1017 12:19:17.143790  9010 net.cpp:100] Creating Layer drop3
I1017 12:19:17.143792  9010 net.cpp:434] drop3 <- pool3
I1017 12:19:17.143795  9010 net.cpp:408] drop3 -> drop3
I1017 12:19:17.143820  9010 net.cpp:150] Setting up drop3
I1017 12:19:17.143832  9010 net.cpp:157] Top shape: 100 260 3 3 (234000)
I1017 12:19:17.143837  9010 net.cpp:165] Memory required for data: 153772400
I1017 12:19:17.143841  9010 layer_factory.hpp:77] Creating layer relu3
I1017 12:19:17.143846  9010 net.cpp:100] Creating Layer relu3
I1017 12:19:17.143847  9010 net.cpp:434] relu3 <- drop3
I1017 12:19:17.143851  9010 net.cpp:408] relu3 -> relu3
I1017 12:19:17.143973  9010 net.cpp:150] Setting up relu3
I1017 12:19:17.143978  9010 net.cpp:157] Top shape: 100 260 3 3 (234000)
I1017 12:19:17.143980  9010 net.cpp:165] Memory required for data: 154708400
I1017 12:19:17.143982  9010 layer_factory.hpp:77] Creating layer conv6
I1017 12:19:17.143990  9010 net.cpp:100] Creating Layer conv6
I1017 12:19:17.143991  9010 net.cpp:434] conv6 <- relu3
I1017 12:19:17.143995  9010 net.cpp:408] conv6 -> conv6
I1017 12:19:17.145228  9010 net.cpp:150] Setting up conv6
I1017 12:19:17.145236  9010 net.cpp:157] Top shape: 100 260 3 3 (234000)
I1017 12:19:17.145238  9010 net.cpp:165] Memory required for data: 155644400
I1017 12:19:17.145242  9010 layer_factory.hpp:77] Creating layer conv7
I1017 12:19:17.145247  9010 net.cpp:100] Creating Layer conv7
I1017 12:19:17.145251  9010 net.cpp:434] conv7 <- conv6
I1017 12:19:17.145256  9010 net.cpp:408] conv7 -> conv7
I1017 12:19:17.147406  9010 net.cpp:150] Setting up conv7
I1017 12:19:17.147415  9010 net.cpp:157] Top shape: 100 280 2 2 (112000)
I1017 12:19:17.147418  9010 net.cpp:165] Memory required for data: 156092400
I1017 12:19:17.147421  9010 layer_factory.hpp:77] Creating layer pool4
I1017 12:19:17.147425  9010 net.cpp:100] Creating Layer pool4
I1017 12:19:17.147428  9010 net.cpp:434] pool4 <- conv7
I1017 12:19:17.147431  9010 net.cpp:408] pool4 -> pool4
I1017 12:19:17.147462  9010 net.cpp:150] Setting up pool4
I1017 12:19:17.147467  9010 net.cpp:157] Top shape: 100 280 1 1 (28000)
I1017 12:19:17.147469  9010 net.cpp:165] Memory required for data: 156204400
I1017 12:19:17.147471  9010 layer_factory.hpp:77] Creating layer drop4
I1017 12:19:17.147475  9010 net.cpp:100] Creating Layer drop4
I1017 12:19:17.147476  9010 net.cpp:434] drop4 <- pool4
I1017 12:19:17.147478  9010 net.cpp:408] drop4 -> drop4
I1017 12:19:17.147503  9010 net.cpp:150] Setting up drop4
I1017 12:19:17.147506  9010 net.cpp:157] Top shape: 100 280 1 1 (28000)
I1017 12:19:17.147508  9010 net.cpp:165] Memory required for data: 156316400
I1017 12:19:17.147510  9010 layer_factory.hpp:77] Creating layer relu4
I1017 12:19:17.147513  9010 net.cpp:100] Creating Layer relu4
I1017 12:19:17.147516  9010 net.cpp:434] relu4 <- drop4
I1017 12:19:17.147521  9010 net.cpp:408] relu4 -> relu4
I1017 12:19:17.147641  9010 net.cpp:150] Setting up relu4
I1017 12:19:17.147647  9010 net.cpp:157] Top shape: 100 280 1 1 (28000)
I1017 12:19:17.147650  9010 net.cpp:165] Memory required for data: 156428400
I1017 12:19:17.147650  9010 layer_factory.hpp:77] Creating layer conv8
I1017 12:19:17.147655  9010 net.cpp:100] Creating Layer conv8
I1017 12:19:17.147658  9010 net.cpp:434] conv8 <- relu4
I1017 12:19:17.147661  9010 net.cpp:408] conv8 -> conv8
I1017 12:19:17.148603  9010 net.cpp:150] Setting up conv8
I1017 12:19:17.148610  9010 net.cpp:157] Top shape: 100 280 1 1 (28000)
I1017 12:19:17.148612  9010 net.cpp:165] Memory required for data: 156540400
I1017 12:19:17.148617  9010 layer_factory.hpp:77] Creating layer pool5
I1017 12:19:17.148619  9010 net.cpp:100] Creating Layer pool5
I1017 12:19:17.148622  9010 net.cpp:434] pool5 <- conv8
I1017 12:19:17.148625  9010 net.cpp:408] pool5 -> pool5
I1017 12:19:17.148655  9010 net.cpp:150] Setting up pool5
I1017 12:19:17.148660  9010 net.cpp:157] Top shape: 100 280 1 1 (28000)
I1017 12:19:17.148663  9010 net.cpp:165] Memory required for data: 156652400
I1017 12:19:17.148664  9010 layer_factory.hpp:77] Creating layer drop5
I1017 12:19:17.148668  9010 net.cpp:100] Creating Layer drop5
I1017 12:19:17.148669  9010 net.cpp:434] drop5 <- pool5
I1017 12:19:17.148671  9010 net.cpp:408] drop5 -> drop5
I1017 12:19:17.148696  9010 net.cpp:150] Setting up drop5
I1017 12:19:17.148699  9010 net.cpp:157] Top shape: 100 280 1 1 (28000)
I1017 12:19:17.148710  9010 net.cpp:165] Memory required for data: 156764400
I1017 12:19:17.148712  9010 layer_factory.hpp:77] Creating layer relu5
I1017 12:19:17.148716  9010 net.cpp:100] Creating Layer relu5
I1017 12:19:17.148720  9010 net.cpp:434] relu5 <- drop5
I1017 12:19:17.148725  9010 net.cpp:408] relu5 -> relu5
I1017 12:19:17.148921  9010 net.cpp:150] Setting up relu5
I1017 12:19:17.148928  9010 net.cpp:157] Top shape: 100 280 1 1 (28000)
I1017 12:19:17.148931  9010 net.cpp:165] Memory required for data: 156876400
I1017 12:19:17.148932  9010 layer_factory.hpp:77] Creating layer conv10
I1017 12:19:17.148936  9010 net.cpp:100] Creating Layer conv10
I1017 12:19:17.148939  9010 net.cpp:434] conv10 <- relu5
I1017 12:19:17.148943  9010 net.cpp:408] conv10 -> conv10
I1017 12:19:17.149902  9010 net.cpp:150] Setting up conv10
I1017 12:19:17.149909  9010 net.cpp:157] Top shape: 100 300 1 1 (30000)
I1017 12:19:17.149911  9010 net.cpp:165] Memory required for data: 156996400
I1017 12:19:17.149919  9010 layer_factory.hpp:77] Creating layer pool6
I1017 12:19:17.149922  9010 net.cpp:100] Creating Layer pool6
I1017 12:19:17.149924  9010 net.cpp:434] pool6 <- conv10
I1017 12:19:17.149929  9010 net.cpp:408] pool6 -> pool6
I1017 12:19:17.149958  9010 net.cpp:150] Setting up pool6
I1017 12:19:17.149962  9010 net.cpp:157] Top shape: 100 300 1 1 (30000)
I1017 12:19:17.149963  9010 net.cpp:165] Memory required for data: 157116400
I1017 12:19:17.149966  9010 layer_factory.hpp:77] Creating layer drop6
I1017 12:19:17.149971  9010 net.cpp:100] Creating Layer drop6
I1017 12:19:17.149972  9010 net.cpp:434] drop6 <- pool6
I1017 12:19:17.149976  9010 net.cpp:408] drop6 -> drop6
I1017 12:19:17.149999  9010 net.cpp:150] Setting up drop6
I1017 12:19:17.150002  9010 net.cpp:157] Top shape: 100 300 1 1 (30000)
I1017 12:19:17.150004  9010 net.cpp:165] Memory required for data: 157236400
I1017 12:19:17.150007  9010 layer_factory.hpp:77] Creating layer relu6
I1017 12:19:17.150012  9010 net.cpp:100] Creating Layer relu6
I1017 12:19:17.150014  9010 net.cpp:434] relu6 <- drop6
I1017 12:19:17.150019  9010 net.cpp:408] relu6 -> relu6
I1017 12:19:17.150136  9010 net.cpp:150] Setting up relu6
I1017 12:19:17.150142  9010 net.cpp:157] Top shape: 100 300 1 1 (30000)
I1017 12:19:17.150144  9010 net.cpp:165] Memory required for data: 157356400
I1017 12:19:17.150146  9010 layer_factory.hpp:77] Creating layer conv11
I1017 12:19:17.150151  9010 net.cpp:100] Creating Layer conv11
I1017 12:19:17.150152  9010 net.cpp:434] conv11 <- relu6
I1017 12:19:17.150156  9010 net.cpp:408] conv11 -> conv11
I1017 12:19:17.150924  9010 net.cpp:150] Setting up conv11
I1017 12:19:17.150933  9010 net.cpp:157] Top shape: 100 100 1 1 (10000)
I1017 12:19:17.150935  9010 net.cpp:165] Memory required for data: 157396400
I1017 12:19:17.150939  9010 layer_factory.hpp:77] Creating layer pool7
I1017 12:19:17.150943  9010 net.cpp:100] Creating Layer pool7
I1017 12:19:17.150944  9010 net.cpp:434] pool7 <- conv11
I1017 12:19:17.150948  9010 net.cpp:408] pool7 -> pool7
I1017 12:19:17.150979  9010 net.cpp:150] Setting up pool7
I1017 12:19:17.150985  9010 net.cpp:157] Top shape: 100 100 1 1 (10000)
I1017 12:19:17.150985  9010 net.cpp:165] Memory required for data: 157436400
I1017 12:19:17.150987  9010 layer_factory.hpp:77] Creating layer drop7
I1017 12:19:17.150990  9010 net.cpp:100] Creating Layer drop7
I1017 12:19:17.150992  9010 net.cpp:434] drop7 <- pool7
I1017 12:19:17.150996  9010 net.cpp:408] drop7 -> drop7
I1017 12:19:17.151020  9010 net.cpp:150] Setting up drop7
I1017 12:19:17.151023  9010 net.cpp:157] Top shape: 100 100 1 1 (10000)
I1017 12:19:17.151026  9010 net.cpp:165] Memory required for data: 157476400
I1017 12:19:17.151026  9010 layer_factory.hpp:77] Creating layer relu7
I1017 12:19:17.151036  9010 net.cpp:100] Creating Layer relu7
I1017 12:19:17.151038  9010 net.cpp:434] relu7 <- drop7
I1017 12:19:17.151041  9010 net.cpp:408] relu7 -> relu7
I1017 12:19:17.151162  9010 net.cpp:150] Setting up relu7
I1017 12:19:17.151168  9010 net.cpp:157] Top shape: 100 100 1 1 (10000)
I1017 12:19:17.151176  9010 net.cpp:165] Memory required for data: 157516400
I1017 12:19:17.151178  9010 layer_factory.hpp:77] Creating layer pool
I1017 12:19:17.151181  9010 net.cpp:100] Creating Layer pool
I1017 12:19:17.151185  9010 net.cpp:434] pool <- relu7
I1017 12:19:17.151187  9010 net.cpp:408] pool -> pool
I1017 12:19:17.151387  9010 net.cpp:150] Setting up pool
I1017 12:19:17.151394  9010 net.cpp:157] Top shape: 100 100 1 1 (10000)
I1017 12:19:17.151396  9010 net.cpp:165] Memory required for data: 157556400
I1017 12:19:17.151397  9010 layer_factory.hpp:77] Creating layer flatten
I1017 12:19:17.151401  9010 net.cpp:100] Creating Layer flatten
I1017 12:19:17.151402  9010 net.cpp:434] flatten <- pool
I1017 12:19:17.151407  9010 net.cpp:408] flatten -> flatten
I1017 12:19:17.151424  9010 net.cpp:150] Setting up flatten
I1017 12:19:17.151429  9010 net.cpp:157] Top shape: 100 100 (10000)
I1017 12:19:17.151432  9010 net.cpp:165] Memory required for data: 157596400
I1017 12:19:17.151437  9010 layer_factory.hpp:77] Creating layer score
I1017 12:19:17.151443  9010 net.cpp:100] Creating Layer score
I1017 12:19:17.151445  9010 net.cpp:434] score <- flatten
I1017 12:19:17.151449  9010 net.cpp:408] score -> score
I1017 12:19:17.151541  9010 net.cpp:150] Setting up score
I1017 12:19:17.151546  9010 net.cpp:157] Top shape: 100 10 (1000)
I1017 12:19:17.151547  9010 net.cpp:165] Memory required for data: 157600400
I1017 12:19:17.151551  9010 layer_factory.hpp:77] Creating layer score_score_0_split
I1017 12:19:17.151556  9010 net.cpp:100] Creating Layer score_score_0_split
I1017 12:19:17.151557  9010 net.cpp:434] score_score_0_split <- score
I1017 12:19:17.151561  9010 net.cpp:408] score_score_0_split -> score_score_0_split_0
I1017 12:19:17.151563  9010 net.cpp:408] score_score_0_split -> score_score_0_split_1
I1017 12:19:17.151590  9010 net.cpp:150] Setting up score_score_0_split
I1017 12:19:17.151594  9010 net.cpp:157] Top shape: 100 10 (1000)
I1017 12:19:17.151597  9010 net.cpp:157] Top shape: 100 10 (1000)
I1017 12:19:17.151597  9010 net.cpp:165] Memory required for data: 157608400
I1017 12:19:17.151599  9010 layer_factory.hpp:77] Creating layer accuracy
I1017 12:19:17.151603  9010 net.cpp:100] Creating Layer accuracy
I1017 12:19:17.151604  9010 net.cpp:434] accuracy <- score_score_0_split_0
I1017 12:19:17.151607  9010 net.cpp:434] accuracy <- label_data_1_split_0
I1017 12:19:17.151610  9010 net.cpp:408] accuracy -> accuracy
…
