…
device_id: 0
train_state {
  level: 0
  stage: ""
}
type: "Nesterov"
I1017 12:00:13.313412  8939 solver.cpp:81] Creating training net from train_net file: /home/adam/Honours/Honours-Project/cifar-10_pooling/max/leakyrelu/poolcnn_leakyrelu_train.prototxt
I1017 12:00:13.313704  8939 net.cpp:58] Initializing net from parameters: 
state {
  phase: TRAIN
  level: 0
  stage: ""
}
layer {
  name: "data"
  type: "Data"
  top: "data"
  top: "label"
  data_param {
    source: "../../../../data/cifar-10/cifar10_train_lmdb"
    batch_size: 64
    backend: LMDB
  }
}
layer {
  name: "conv1"
  type: "Convolution"
  bottom: "data"
  top: "conv1"
  convolution_param {
    num_output: 192
    kernel_size: 5
    weight_filler {
      type: "xavier"
    }
  }
}
layer {
  name: "pool1"
  type: "Pooling"
  bottom: "conv1"
  top: "pool1"
  pooling_param {
    pool: MAX
    kernel_size: 2
    stride: 2
  }
}
layer {
  name: "drop1"
  type: "Dropout"
  bottom: "pool1"
  top: "drop1"
  dropout_param {
    dropout_ratio: 0
  }
}
layer {
  name: "relu1"
  type: "ReLU"
  bottom: "drop1"
  top: "relu1"
  relu_param {
    negative_slope: 0.01
  }
}
layer {
  name: "conv2"
  type: "Convolution"
  bottom: "relu1"
  top: "conv2"
  convolution_param {
    num_output: 192
    kernel_size: 1
    weight_filler {
      type: "xavier"
    }
  }
}
layer {
  name: "conv3"
  type: "Convolution"
  bottom: "conv2"
  top: "conv3"
  convolution_param {
    num_output: 240
    kernel_size: 3
    weight_filler {
      type: "xavier"
    }
  }
}
layer {
  name: "pool2"
  type: "Pooling"
  bottom: "conv3"
  top: "pool2"
  pooling_param {
    pool: MAX
    kernel_size: 2
    stride: 2
  }
}
layer {
  name: "drop2"
  type: "Dropout"
  bottom: "pool2"
  top: "drop2"
  dropout_param {
    dropout_ratio: 0.1
  }
}
layer {
  name: "relu2"
  type: "ReLU"
  bottom: "drop2"
  top: "relu2"
  relu_param {
    negative_slope: 0.01
  }
}
layer {
  name: "conv4"
  type: "Convolution"
  bottom: "relu2"
  top: "conv4"
  convolution_param {
    num_output: 240
    kernel_size: 1
    weight_filler {
      type: "xavier"
    }
  }
}
layer {
  name: "conv5"
  type: "Convolution"
  bottom: "conv4"
  top: "conv5"
  convolution_param {
    num_output: 260
    kernel_size: 2
    weight_filler {
      type: "xavier"
    }
  }
}
layer {
  name: "pool3"
  type: "Pooling"
  bottom: "conv5"
  top: "pool3"
  pooling_param {
    pool: MAX
    kernel_size: 2
    stride: 2
  }
}
layer {
  name: "drop3"
  type: "Dropout"
  bottom: "pool3"
  top: "drop3"
  dropout_param {
    dropout_ratio: 0.2
  }
}
layer {
  name: "relu3"
  type: "ReLU"
  bottom: "drop3"
  top: "relu3"
  relu_param {
    negative_slope: 0.01
  }
}
layer {
  name: "conv6"
  type: "Convolution"
  bottom: "relu3"
  top: "conv6"
  convolution_param {
    num_output: 260
    kernel_size: 1
    weight_filler {
      type: "xavier"
    }
  }
}
layer {
  name: "conv7"
  type: "Convolution"
  bottom: "conv6"
  top: "conv7"
  convolution_param {
    num_output: 280
    kernel_size: 2
    weight_filler {
      type: "xavier"
    }
  }
}
layer {
  name: "pool4"
  type: "Pooling"
  bottom: "conv7"
  top: "pool4"
  pooling_param {
    pool: MAX
    kernel_size: 2
    stride: 2
  }
}
layer {
  name: "drop4"
  type: "Dropout"
  bottom: "pool4"
  top: "drop4"
  dropout_param {
    dropout_ratio: 0.3
  }
}
layer {
  name: "relu4"
  type: "ReLU"
  bottom: "drop4"
  top: "relu4"
  relu_param {
    negative_slope: 0.01
  }
}
layer {
  name: "conv8"
  type: "Convolution"
  bottom: "relu4"
  top: "conv8"
  convolution_param {
    num_output: 280
    kernel_size: 1
    weight_filler {
      type: "xavier"
    }
  }
}
layer {
  name: "pool5"
  type: "Pooling"
  bottom: "conv8"
  top: "pool5"
  pooling_param {
    pool: MAX
    kernel_size: 2
    stride: 2
  }
}
layer {
  name: "drop5"
  type: "Dropout"
  bottom: "pool5"
  top: "drop5"
  dropout_param {
    dropout_ratio: 0.4
  }
}
layer {
  name: "relu5"
  type: "ReLU"
  bottom: "drop5"
  top: "relu5"
  relu_param {
    negative_slope: 0.01
  }
}
layer {
  name: "conv10"
  type: "Convolution"
  bottom: "relu5"
  top: "conv10"
  convolution_param {
    num_output: 300
    kernel_size: 1
    weight_filler {
      type: "xavier"
    }
  }
}
layer {
  name: "pool6"
  type: "Pooling"
  bottom: "conv10"
  top: "pool6"
  pooling_param {
    pool: MAX
    kernel_size: 2
    stride: 2
  }
}
layer {
  name: "drop6"
  type: "Dropout"
  bottom: "pool6"
  top: "drop6"
  dropout_param {
    dropout_ratio: 0.5
  }
}
layer {
  name: "relu6"
  type: "ReLU"
  bottom: "drop6"
  top: "relu6"
  relu_param {
    negative_slope: 0.01
  }
}
layer {
  name: "conv11"
  type: "Convolution"
  bottom: "relu6"
  top: "conv11"
  convolution_param {
    num_output: 100
    kernel_size: 1
    weight_filler {
      type: "xavier"
    }
  }
}
layer {
  name: "pool7"
  type: "Pooling"
  bottom: "conv11"
  top: "pool7"
  pooling_param {
    pool: MAX
    kernel_size: 2
    stride: 2
  }
}
layer {
  name: "drop7"
  type: "Dropout"
  bottom: "pool7"
  top: "drop7"
  dropout_param {
    dropout_ratio: 0
  }
}
layer {
  name: "relu7"
  type: "ReLU"
  bottom: "drop7"
  top: "relu7"
  relu_param {
    negative_slope: 0.01
  }
}
layer {
  name: "pool"
  type: "Pooling"
  bottom: "relu7"
  top: "pool"
  pooling_param {
    pool: AVE
    global_pooling: true
  }
}
layer {
  name: "flatten"
  type: "Flatten"
  bottom: "pool"
  top: "flatten"
}
layer {
  name: "score"
  type: "InnerProduct"
  bottom: "flatten"
  top: "score"
  inner_product_param {
    num_output: 10
    weight_filler {
      type: "gaussian"
    }
  }
}
layer {
  name: "accuracy"
  type: "Accuracy"
  bottom: "score"
  bottom: "label"
  top: "accuracy"
}
layer {
  name: "loss"
  type: "SoftmaxWithLoss"
  bottom: "score"
  bottom: "label"
  top: "loss"
}
I1017 12:00:13.313802  8939 layer_factory.hpp:77] Creating layer data
I1017 12:00:13.314180  8939 net.cpp:100] Creating Layer data
I1017 12:00:13.314188  8939 net.cpp:408] data -> data
I1017 12:00:13.314200  8939 net.cpp:408] data -> label
I1017 12:00:13.314784  8945 db_lmdb.cpp:35] Opened lmdb ../../../../data/cifar-10/cifar10_train_lmdb
I1017 12:00:13.320351  8939 data_layer.cpp:41] output data size: 64,3,32,32
I1017 12:00:13.321722  8939 net.cpp:150] Setting up data
I1017 12:00:13.321735  8939 net.cpp:157] Top shape: 64 3 32 32 (196608)
I1017 12:00:13.321738  8939 net.cpp:157] Top shape: 64 (64)
I1017 12:00:13.321739  8939 net.cpp:165] Memory required for data: 786688
I1017 12:00:13.321748  8939 layer_factory.hpp:77] Creating layer label_data_1_split
I1017 12:00:13.321758  8939 net.cpp:100] Creating Layer label_data_1_split
I1017 12:00:13.321763  8939 net.cpp:434] label_data_1_split <- label
I1017 12:00:13.321773  8939 net.cpp:408] label_data_1_split -> label_data_1_split_0
I1017 12:00:13.321779  8939 net.cpp:408] label_data_1_split -> label_data_1_split_1
I1017 12:00:13.321805  8939 net.cpp:150] Setting up label_data_1_split
I1017 12:00:13.321810  8939 net.cpp:157] Top shape: 64 (64)
I1017 12:00:13.321811  8939 net.cpp:157] Top shape: 64 (64)
I1017 12:00:13.321813  8939 net.cpp:165] Memory required for data: 787200
I1017 12:00:13.321815  8939 layer_factory.hpp:77] Creating layer conv1
I1017 12:00:13.321826  8939 net.cpp:100] Creating Layer conv1
I1017 12:00:13.321828  8939 net.cpp:434] conv1 <- data
I1017 12:00:13.321831  8939 net.cpp:408] conv1 -> conv1
I1017 12:00:13.438882  8939 net.cpp:150] Setting up conv1
I1017 12:00:13.438907  8939 net.cpp:157] Top shape: 64 192 28 28 (9633792)
I1017 12:00:13.438910  8939 net.cpp:165] Memory required for data: 39322368
I1017 12:00:13.438927  8939 layer_factory.hpp:77] Creating layer pool1
I1017 12:00:13.438956  8939 net.cpp:100] Creating Layer pool1
I1017 12:00:13.438959  8939 net.cpp:434] pool1 <- conv1
I1017 12:00:13.438963  8939 net.cpp:408] pool1 -> pool1
I1017 12:00:13.439002  8939 net.cpp:150] Setting up pool1
I1017 12:00:13.439007  8939 net.cpp:157] Top shape: 64 192 14 14 (2408448)
I1017 12:00:13.439009  8939 net.cpp:165] Memory required for data: 48956160
I1017 12:00:13.439012  8939 layer_factory.hpp:77] Creating layer drop1
I1017 12:00:13.439016  8939 net.cpp:100] Creating Layer drop1
I1017 12:00:13.439018  8939 net.cpp:434] drop1 <- pool1
I1017 12:00:13.439023  8939 net.cpp:408] drop1 -> drop1
I1017 12:00:13.439046  8939 net.cpp:150] Setting up drop1
I1017 12:00:13.439050  8939 net.cpp:157] Top shape: 64 192 14 14 (2408448)
I1017 12:00:13.439052  8939 net.cpp:165] Memory required for data: 58589952
I1017 12:00:13.439054  8939 layer_factory.hpp:77] Creating layer relu1
I1017 12:00:13.439057  8939 net.cpp:100] Creating Layer relu1
I1017 12:00:13.439060  8939 net.cpp:434] relu1 <- drop1
I1017 12:00:13.439064  8939 net.cpp:408] relu1 -> relu1
I1017 12:00:13.439182  8939 net.cpp:150] Setting up relu1
I1017 12:00:13.439188  8939 net.cpp:157] Top shape: 64 192 14 14 (2408448)
I1017 12:00:13.439189  8939 net.cpp:165] Memory required for data: 68223744
I1017 12:00:13.439191  8939 layer_factory.hpp:77] Creating layer conv2
I1017 12:00:13.439198  8939 net.cpp:100] Creating Layer conv2
I1017 12:00:13.439200  8939 net.cpp:434] conv2 <- relu1
I1017 12:00:13.439203  8939 net.cpp:408] conv2 -> conv2
I1017 12:00:13.440230  8939 net.cpp:150] Setting up conv2
I1017 12:00:13.440239  8939 net.cpp:157] Top shape: 64 192 14 14 (2408448)
I1017 12:00:13.440243  8939 net.cpp:165] Memory required for data: 77857536
I1017 12:00:13.440248  8939 layer_factory.hpp:77] Creating layer conv3
I1017 12:00:13.440253  8939 net.cpp:100] Creating Layer conv3
I1017 12:00:13.440256  8939 net.cpp:434] conv3 <- conv2
I1017 12:00:13.440259  8939 net.cpp:408] conv3 -> conv3
I1017 12:00:13.442688  8939 net.cpp:150] Setting up conv3
I1017 12:00:13.442698  8939 net.cpp:157] Top shape: 64 240 12 12 (2211840)
I1017 12:00:13.442701  8939 net.cpp:165] Memory required for data: 86704896
I1017 12:00:13.442708  8939 layer_factory.hpp:77] Creating layer pool2
I1017 12:00:13.442713  8939 net.cpp:100] Creating Layer pool2
I1017 12:00:13.442715  8939 net.cpp:434] pool2 <- conv3
I1017 12:00:13.442718  8939 net.cpp:408] pool2 -> pool2
I1017 12:00:13.442744  8939 net.cpp:150] Setting up pool2
I1017 12:00:13.442749  8939 net.cpp:157] Top shape: 64 240 6 6 (552960)
I1017 12:00:13.442750  8939 net.cpp:165] Memory required for data: 88916736
I1017 12:00:13.442752  8939 layer_factory.hpp:77] Creating layer drop2
I1017 12:00:13.442756  8939 net.cpp:100] Creating Layer drop2
I1017 12:00:13.442759  8939 net.cpp:434] drop2 <- pool2
I1017 12:00:13.442761  8939 net.cpp:408] drop2 -> drop2
I1017 12:00:13.442782  8939 net.cpp:150] Setting up drop2
I1017 12:00:13.442786  8939 net.cpp:157] Top shape: 64 240 6 6 (552960)
I1017 12:00:13.442787  8939 net.cpp:165] Memory required for data: 91128576
I1017 12:00:13.442790  8939 layer_factory.hpp:77] Creating layer relu2
I1017 12:00:13.442793  8939 net.cpp:100] Creating Layer relu2
I1017 12:00:13.442795  8939 net.cpp:434] relu2 <- drop2
I1017 12:00:13.442797  8939 net.cpp:408] relu2 -> relu2
I1017 12:00:13.442908  8939 net.cpp:150] Setting up relu2
I1017 12:00:13.442914  8939 net.cpp:157] Top shape: 64 240 6 6 (552960)
I1017 12:00:13.442916  8939 net.cpp:165] Memory required for data: 93340416
I1017 12:00:13.442917  8939 layer_factory.hpp:77] Creating layer conv4
I1017 12:00:13.442922  8939 net.cpp:100] Creating Layer conv4
I1017 12:00:13.442925  8939 net.cpp:434] conv4 <- relu2
I1017 12:00:13.442929  8939 net.cpp:408] conv4 -> conv4
I1017 12:00:13.443748  8939 net.cpp:150] Setting up conv4
I1017 12:00:13.443756  8939 net.cpp:157] Top shape: 64 240 6 6 (552960)
I1017 12:00:13.443759  8939 net.cpp:165] Memory required for data: 95552256
I1017 12:00:13.443763  8939 layer_factory.hpp:77] Creating layer conv5
I1017 12:00:13.443775  8939 net.cpp:100] Creating Layer conv5
I1017 12:00:13.443778  8939 net.cpp:434] conv5 <- conv4
I1017 12:00:13.443783  8939 net.cpp:408] conv5 -> conv5
I1017 12:00:13.445523  8939 net.cpp:150] Setting up conv5
I1017 12:00:13.445533  8939 net.cpp:157] Top shape: 64 260 5 5 (416000)
I1017 12:00:13.445534  8939 net.cpp:165] Memory required for data: 97216256
I1017 12:00:13.445540  8939 layer_factory.hpp:77] Creating layer pool3
I1017 12:00:13.445545  8939 net.cpp:100] Creating Layer pool3
I1017 12:00:13.445547  8939 net.cpp:434] pool3 <- conv5
I1017 12:00:13.445551  8939 net.cpp:408] pool3 -> pool3
I1017 12:00:13.445576  8939 net.cpp:150] Setting up pool3
I1017 12:00:13.445580  8939 net.cpp:157] Top shape: 64 260 3 3 (149760)
I1017 12:00:13.445582  8939 net.cpp:165] Memory required for data: 97815296
I1017 12:00:13.445585  8939 layer_factory.hpp:77] Creating layer drop3
I1017 12:00:13.445590  8939 net.cpp:100] Creating Layer drop3
I1017 12:00:13.445592  8939 net.cpp:434] drop3 <- pool3
I1017 12:00:13.445595  8939 net.cpp:408] drop3 -> drop3
I1017 12:00:13.445617  8939 net.cpp:150] Setting up drop3
I1017 12:00:13.445623  8939 net.cpp:157] Top shape: 64 260 3 3 (149760)
I1017 12:00:13.445626  8939 net.cpp:165] Memory required for data: 98414336
I1017 12:00:13.445627  8939 layer_factory.hpp:77] Creating layer relu3
I1017 12:00:13.445631  8939 net.cpp:100] Creating Layer relu3
I1017 12:00:13.445633  8939 net.cpp:434] relu3 <- drop3
I1017 12:00:13.445636  8939 net.cpp:408] relu3 -> relu3
I1017 12:00:13.445746  8939 net.cpp:150] Setting up relu3
I1017 12:00:13.445752  8939 net.cpp:157] Top shape: 64 260 3 3 (149760)
I1017 12:00:13.445755  8939 net.cpp:165] Memory required for data: 99013376
I1017 12:00:13.445756  8939 layer_factory.hpp:77] Creating layer conv6
I1017 12:00:13.445763  8939 net.cpp:100] Creating Layer conv6
I1017 12:00:13.445766  8939 net.cpp:434] conv6 <- relu3
I1017 12:00:13.445770  8939 net.cpp:408] conv6 -> conv6
I1017 12:00:13.446882  8939 net.cpp:150] Setting up conv6
I1017 12:00:13.446892  8939 net.cpp:157] Top shape: 64 260 3 3 (149760)
I1017 12:00:13.446893  8939 net.cpp:165] Memory required for data: 99612416
I1017 12:00:13.446897  8939 layer_factory.hpp:77] Creating layer conv7
I1017 12:00:13.446903  8939 net.cpp:100] Creating Layer conv7
I1017 12:00:13.446905  8939 net.cpp:434] conv7 <- conv6
I1017 12:00:13.446909  8939 net.cpp:408] conv7 -> conv7
I1017 12:00:13.448819  8939 net.cpp:150] Setting up conv7
I1017 12:00:13.448827  8939 net.cpp:157] Top shape: 64 280 2 2 (71680)
I1017 12:00:13.448829  8939 net.cpp:165] Memory required for data: 99899136
I1017 12:00:13.448832  8939 layer_factory.hpp:77] Creating layer pool4
I1017 12:00:13.448837  8939 net.cpp:100] Creating Layer pool4
I1017 12:00:13.448839  8939 net.cpp:434] pool4 <- conv7
I1017 12:00:13.448843  8939 net.cpp:408] pool4 -> pool4
I1017 12:00:13.448868  8939 net.cpp:150] Setting up pool4
I1017 12:00:13.448873  8939 net.cpp:157] Top shape: 64 280 1 1 (17920)
I1017 12:00:13.448874  8939 net.cpp:165] Memory required for data: 99970816
I1017 12:00:13.448876  8939 layer_factory.hpp:77] Creating layer drop4
I1017 12:00:13.448880  8939 net.cpp:100] Creating Layer drop4
I1017 12:00:13.448884  8939 net.cpp:434] drop4 <- pool4
I1017 12:00:13.448885  8939 net.cpp:408] drop4 -> drop4
I1017 12:00:13.448906  8939 net.cpp:150] Setting up drop4
I1017 12:00:13.448910  8939 net.cpp:157] Top shape: 64 280 1 1 (17920)
I1017 12:00:13.448914  8939 net.cpp:165] Memory required for data: 100042496
I1017 12:00:13.448915  8939 layer_factory.hpp:77] Creating layer relu4
I1017 12:00:13.448918  8939 net.cpp:100] Creating Layer relu4
I1017 12:00:13.448921  8939 net.cpp:434] relu4 <- drop4
I1017 12:00:13.448925  8939 net.cpp:408] relu4 -> relu4
I1017 12:00:13.449112  8939 net.cpp:150] Setting up relu4
I1017 12:00:13.449120  8939 net.cpp:157] Top shape: 64 280 1 1 (17920)
I1017 12:00:13.449121  8939 net.cpp:165] Memory required for data: 100114176
I1017 12:00:13.449125  8939 layer_factory.hpp:77] Creating layer conv8
I1017 12:00:13.449137  8939 net.cpp:100] Creating Layer conv8
I1017 12:00:13.449141  8939 net.cpp:434] conv8 <- relu4
I1017 12:00:13.449144  8939 net.cpp:408] conv8 -> conv8
I1017 12:00:13.449978  8939 net.cpp:150] Setting up conv8
I1017 12:00:13.449986  8939 net.cpp:157] Top shape: 64 280 1 1 (17920)
I1017 12:00:13.449988  8939 net.cpp:165] Memory required for data: 100185856
I1017 12:00:13.449991  8939 layer_factory.hpp:77] Creating layer pool5
I1017 12:00:13.449996  8939 net.cpp:100] Creating Layer pool5
I1017 12:00:13.450000  8939 net.cpp:434] pool5 <- conv8
I1017 12:00:13.450004  8939 net.cpp:408] pool5 -> pool5
I1017 12:00:13.450028  8939 net.cpp:150] Setting up pool5
I1017 12:00:13.450032  8939 net.cpp:157] Top shape: 64 280 1 1 (17920)
I1017 12:00:13.450034  8939 net.cpp:165] Memory required for data: 100257536
I1017 12:00:13.450037  8939 layer_factory.hpp:77] Creating layer drop5
I1017 12:00:13.450040  8939 net.cpp:100] Creating Layer drop5
I1017 12:00:13.450043  8939 net.cpp:434] drop5 <- pool5
I1017 12:00:13.450047  8939 net.cpp:408] drop5 -> drop5
I1017 12:00:13.450067  8939 net.cpp:150] Setting up drop5
I1017 12:00:13.450072  8939 net.cpp:157] Top shape: 64 280 1 1 (17920)
I1017 12:00:13.450074  8939 net.cpp:165] Memory required for data: 100329216
I1017 12:00:13.450075  8939 layer_factory.hpp:77] Creating layer relu5
I1017 12:00:13.450079  8939 net.cpp:100] Creating Layer relu5
I1017 12:00:13.450081  8939 net.cpp:434] relu5 <- drop5
I1017 12:00:13.450084  8939 net.cpp:408] relu5 -> relu5
I1017 12:00:13.450346  8939 net.cpp:150] Setting up relu5
I1017 12:00:13.450353  8939 net.cpp:157] Top shape: 64 280 1 1 (17920)
I1017 12:00:13.450356  8939 net.cpp:165] Memory required for data: 100400896
I1017 12:00:13.450358  8939 layer_factory.hpp:77] Creating layer conv10
I1017 12:00:13.450364  8939 net.cpp:100] Creating Layer conv10
I1017 12:00:13.450366  8939 net.cpp:434] conv10 <- relu5
I1017 12:00:13.450371  8939 net.cpp:408] conv10 -> conv10
I1017 12:00:13.451315  8939 net.cpp:150] Setting up conv10
I1017 12:00:13.451323  8939 net.cpp:157] Top shape: 64 300 1 1 (19200)
I1017 12:00:13.451325  8939 net.cpp:165] Memory required for data: 100477696
I1017 12:00:13.451333  8939 layer_factory.hpp:77] Creating layer pool6
I1017 12:00:13.451337  8939 net.cpp:100] Creating Layer pool6
I1017 12:00:13.451339  8939 net.cpp:434] pool6 <- conv10
I1017 12:00:13.451344  8939 net.cpp:408] pool6 -> pool6
I1017 12:00:13.451370  8939 net.cpp:150] Setting up pool6
I1017 12:00:13.451375  8939 net.cpp:157] Top shape: 64 300 1 1 (19200)
I1017 12:00:13.451376  8939 net.cpp:165] Memory required for data: 100554496
I1017 12:00:13.451377  8939 layer_factory.hpp:77] Creating layer drop6
I1017 12:00:13.451381  8939 net.cpp:100] Creating Layer drop6
I1017 12:00:13.451385  8939 net.cpp:434] drop6 <- pool6
I1017 12:00:13.451386  8939 net.cpp:408] drop6 -> drop6
I1017 12:00:13.451409  8939 net.cpp:150] Setting up drop6
I1017 12:00:13.451413  8939 net.cpp:157] Top shape: 64 300 1 1 (19200)
I1017 12:00:13.451416  8939 net.cpp:165] Memory required for data: 100631296
I1017 12:00:13.451418  8939 layer_factory.hpp:77] Creating layer relu6
I1017 12:00:13.451421  8939 net.cpp:100] Creating Layer relu6
I1017 12:00:13.451422  8939 net.cpp:434] relu6 <- drop6
I1017 12:00:13.451426  8939 net.cpp:408] relu6 -> relu6
I1017 12:00:13.451539  8939 net.cpp:150] Setting up relu6
I1017 12:00:13.451545  8939 net.cpp:157] Top shape: 64 300 1 1 (19200)
I1017 12:00:13.451546  8939 net.cpp:165] Memory required for data: 100708096
I1017 12:00:13.451550  8939 layer_factory.hpp:77] Creating layer conv11
I1017 12:00:13.451553  8939 net.cpp:100] Creating Layer conv11
I1017 12:00:13.451555  8939 net.cpp:434] conv11 <- relu6
I1017 12:00:13.451560  8939 net.cpp:408] conv11 -> conv11
I1017 12:00:13.452287  8939 net.cpp:150] Setting up conv11
I1017 12:00:13.452296  8939 net.cpp:157] Top shape: 64 100 1 1 (6400)
I1017 12:00:13.452298  8939 net.cpp:165] Memory required for data: 100733696
I1017 12:00:13.452302  8939 layer_factory.hpp:77] Creating layer pool7
I1017 12:00:13.452306  8939 net.cpp:100] Creating Layer pool7
I1017 12:00:13.452316  8939 net.cpp:434] pool7 <- conv11
I1017 12:00:13.452319  8939 net.cpp:408] pool7 -> pool7
I1017 12:00:13.452347  8939 net.cpp:150] Setting up pool7
I1017 12:00:13.452353  8939 net.cpp:157] Top shape: 64 100 1 1 (6400)
I1017 12:00:13.452354  8939 net.cpp:165] Memory required for data: 100759296
I1017 12:00:13.452356  8939 layer_factory.hpp:77] Creating layer drop7
I1017 12:00:13.452360  8939 net.cpp:100] Creating Layer drop7
I1017 12:00:13.452363  8939 net.cpp:434] drop7 <- pool7
I1017 12:00:13.452365  8939 net.cpp:408] drop7 -> drop7
I1017 12:00:13.452386  8939 net.cpp:150] Setting up drop7
I1017 12:00:13.452390  8939 net.cpp:157] Top shape: 64 100 1 1 (6400)
I1017 12:00:13.452394  8939 net.cpp:165] Memory required for data: 100784896
I1017 12:00:13.452395  8939 layer_factory.hpp:77] Creating layer relu7
I1017 12:00:13.452399  8939 net.cpp:100] Creating Layer relu7
I1017 12:00:13.452402  8939 net.cpp:434] relu7 <- drop7
I1017 12:00:13.452405  8939 net.cpp:408] relu7 -> relu7
I1017 12:00:13.452594  8939 net.cpp:150] Setting up relu7
I1017 12:00:13.452601  8939 net.cpp:157] Top shape: 64 100 1 1 (6400)
I1017 12:00:13.452605  8939 net.cpp:165] Memory required for data: 100810496
I1017 12:00:13.452606  8939 layer_factory.hpp:77] Creating layer pool
I1017 12:00:13.452610  8939 net.cpp:100] Creating Layer pool
I1017 12:00:13.452612  8939 net.cpp:434] pool <- relu7
I1017 12:00:13.452615  8939 net.cpp:408] pool -> pool
I1017 12:00:13.452739  8939 net.cpp:150] Setting up pool
I1017 12:00:13.452744  8939 net.cpp:157] Top shape: 64 100 1 1 (6400)
I1017 12:00:13.452746  8939 net.cpp:165] Memory required for data: 100836096
I1017 12:00:13.452749  8939 layer_factory.hpp:77] Creating layer flatten
I1017 12:00:13.452752  8939 net.cpp:100] Creating Layer flatten
I1017 12:00:13.452754  8939 net.cpp:434] flatten <- pool
I1017 12:00:13.452757  8939 net.cpp:408] flatten -> flatten
I1017 12:00:13.452772  8939 net.cpp:150] Setting up flatten
I1017 12:00:13.452777  8939 net.cpp:157] Top shape: 64 100 (6400)
I1017 12:00:13.452780  8939 net.cpp:165] Memory required for data: 100861696
I1017 12:00:13.452780  8939 layer_factory.hpp:77] Creating layer score
I1017 12:00:13.452785  8939 net.cpp:100] Creating Layer score
I1017 12:00:13.452787  8939 net.cpp:434] score <- flatten
I1017 12:00:13.452790  8939 net.cpp:408] score -> score
I1017 12:00:13.452884  8939 net.cpp:150] Setting up score
I1017 12:00:13.452888  8939 net.cpp:157] Top shape: 64 10 (640)
I1017 12:00:13.452890  8939 net.cpp:165] Memory required for data: 100864256
I1017 12:00:13.452893  8939 layer_factory.hpp:77] Creating layer score_score_0_split
I1017 12:00:13.452898  8939 net.cpp:100] Creating Layer score_score_0_split
I1017 12:00:13.452901  8939 net.cpp:434] score_score_0_split <- score
I1017 12:00:13.452905  8939 net.cpp:408] score_score_0_split -> score_score_0_split_0
I1017 12:00:13.452909  8939 net.cpp:408] score_score_0_split -> score_score_0_split_1
I1017 12:00:13.452931  8939 net.cpp:150] Setting up score_score_0_split
I1017 12:00:13.452935  8939 net.cpp:157] Top shape: 64 10 (640)
I1017 12:00:13.452939  8939 net.cpp:157] Top shape: 64 10 (640)
I1017 12:00:13.452939  8939 net.cpp:165] Memory required for data: 100869376
I1017 12:00:13.452940  8939 layer_factory.hpp:77] Creating layer accuracy
I1017 12:00:13.452944  8939 net.cpp:100] Creating Layer accuracy
I1017 12:00:13.452947  8939 net.cpp:434] accuracy <- score_score_0_split_0
I1017 12:00:13.452950  8939 net.cpp:434] accuracy <- label_data_1_split_0
I1017 12:00:13.452952  8939 net.cpp:408] accuracy -> accuracy
…
I1017 12:00:13.453341  8939 net.cpp:270] This network produces output loss
I1017 12:00:13.453356  8939 net.cpp:283] Network initialization done.
I1017 12:00:13.453544  8939 solver.cpp:181] Creating test net (#0) specified by test_net file: /home/adam/Honours/Honours-Project/cifar-10_pooling/max/leakyrelu/poolcnn_leakyrelu_test.prototxt
I1017 12:00:13.453661  8939 net.cpp:58] Initializing net from parameters: 
state {
  phase: TEST
}
layer {
  name: "data"
  type: "Data"
  top: "data"
  top: "label"
  data_param {
    source: "../../../../data/cifar-10/cifar10_test_lmdb"
    batch_size: 100
    backend: LMDB
  }
}
layer {
  name: "conv1"
  type: "Convolution"
  bottom: "data"
  top: "conv1"
  convolution_param {
    num_output: 192
    kernel_size: 5
    weight_filler {
      type: "xavier"
    }
  }
}
layer {
  name: "pool1"
  type: "Pooling"
  bottom: "conv1"
  top: "pool1"
  pooling_param {
    pool: MAX
    kernel_size: 2
    stride: 2
  }
}
layer {
  name: "drop1"
  type: "Dropout"
  bottom: "pool1"
  top: "drop1"
  dropout_param {
    dropout_ratio: 0
  }
}
layer {
  name: "relu1"
  type: "ReLU"
  bottom: "drop1"
  top: "relu1"
  relu_param {
    negative_slope: 0.01
  }
}
layer {
  name: "conv2"
  type: "Convolution"
  bottom: "relu1"
  top: "conv2"
  convolution_param {
    num_output: 192
    kernel_size: 1
    weight_filler {
      type: "xavier"
    }
  }
}
layer {
  name: "conv3"
  type: "Convolution"
  bottom: "conv2"
  top: "conv3"
  convolution_param {
    num_output: 240
    kernel_size: 3
    weight_filler {
      type: "xavier"
    }
  }
}
layer {
  name: "pool2"
  type: "Pooling"
  bottom: "conv3"
  top: "pool2"
  pooling_param {
    pool: MAX
    kernel_size: 2
    stride: 2
  }
}
layer {
  name: "drop2"
  type: "Dropout"
  bottom: "pool2"
  top: "drop2"
  dropout_param {
    dropout_ratio: 0.1
  }
}
layer {
  name: "relu2"
  type: "ReLU"
  bottom: "drop2"
  top: "relu2"
  relu_param {
    negative_slope: 0.01
  }
}
layer {
  name: "conv4"
  type: "Convolution"
  bottom: "relu2"
  top: "conv4"
  convolution_param {
    num_output: 240
    kernel_size: 1
    weight_filler {
      type: "xavier"
    }
  }
}
layer {
  name: "conv5"
  type: "Convolution"
  bottom: "conv4"
  top: "conv5"
  convolution_param {
    num_output: 260
    kernel_size: 2
    weight_filler {
      type: "xavier"
    }
  }
}
layer {
  name: "pool3"
  type: "Pooling"
  bottom: "conv5"
  top: "pool3"
  pooling_param {
    pool: MAX
    kernel_size: 2
    stride: 2
  }
}
layer {
  name: "drop3"
  type: "Dropout"
  bottom: "pool3"
  top: "drop3"
  dropout_param {
    dropout_ratio: 0.2
  }
}
layer {
  name: "relu3"
  type: "ReLU"
  bottom: "drop3"
  top: "relu3"
  relu_param {
    negative_slope: 0.01
  }
}
layer {
  name: "conv6"
  type: "Convolution"
  bottom: "relu3"
  top: "conv6"
  convolution_param {
    num_output: 260
    kernel_size: 1
    weight_filler {
      type: "xavier"
    }
  }
}
layer {
  name: "conv7"
  type: "Convolution"
  bottom: "conv6"
  top: "conv7"
  convolution_param {
    num_output: 280
    kernel_size: 2
    weight_filler {
      type: "xavier"
    }
  }
}
layer {
  name: "pool4"
  type: "Pooling"
  bottom: "conv7"
  top: "pool4"
  pooling_param {
    pool: MAX
    kernel_size: 2
    stride: 2
  }
}
layer {
  name: "drop4"
  type: "Dropout"
  bottom: "pool4"
  top: "drop4"
  dropout_param {
    dropout_ratio: 0.3
  }
}
layer {
  name: "relu4"
  type: "ReLU"
  bottom: "drop4"
  top: "relu4"
  relu_param {
    negative_slope: 0.01
  }
}
layer {
  name: "conv8"
  type: "Convolution"
  bottom: "relu4"
  top: "conv8"
  convolution_param {
    num_output: 280
    kernel_size: 1
    weight_filler {
      type: "xavier"
    }
  }
}
layer {
  name: "pool5"
  type: "Pooling"
  bottom: "conv8"
  top: "pool5"
  pooling_param {
    pool: MAX
    kernel_size: 2
    stride: 2
  }
}
layer {
  name: "drop5"
  type: "Dropout"
  bottom: "pool5"
  top: "drop5"
  dropout_param {
    dropout_ratio: 0.4
  }
}
layer {
  name: "relu5"
  type: "ReLU"
  bottom: "drop5"
  top: "relu5"
  relu_param {
    negative_slope: 0.01
  }
}
layer {
  name: "conv10"
  type: "Convolution"
  bottom: "relu5"
  top: "conv10"
  convolution_param {
    num_output: 300
    kernel_size: 1
    weight_filler {
      type: "xavier"
    }
  }
}
layer {
  name: "pool6"
  type: "Pooling"
  bottom: "conv10"
  top: "pool6"
  pooling_param {
    pool: MAX
    kernel_size: 2
    stride: 2
  }
}
layer {
  name: "drop6"
  type: "Dropout"
  bottom: "pool6"
  top: "drop6"
  dropout_param {
    dropout_ratio: 0.5
  }
}
layer {
  name: "relu6"
  type: "ReLU"
  bottom: "drop6"
  top: "relu6"
  relu_param {
    negative_slope: 0.01
  }
}
layer {
  name: "conv11"
  type: "Convolution"
  bottom: "relu6"
  top: "conv11"
  convolution_param {
    num_output: 100
    kernel_size: 1
    weight_filler {
      type: "xavier"
    }
  }
}
layer {
  name: "pool7"
  type: "Pooling"
  bottom: "conv11"
  top: "pool7"
  pooling_param {
    pool: MAX
    kernel_size: 2
    stride: 2
  }
}
layer {
  name: "drop7"
  type: "Dropout"
  bottom: "pool7"
  top: "drop7"
  dropout_param {
    dropout_ratio: 0
  }
}
layer {
  name: "relu7"
  type: "ReLU"
  bottom: "drop7"
  top: "relu7"
  relu_param {
    negative_slope: 0.01
  }
}
layer {
  name: "pool"
  type: "Pooling"
  bottom: "relu7"
  top: "pool"
  pooling_param {
    pool: AVE
    global_pooling: true
  }
}
layer {
  name: "flatten"
  type: "Flatten"
  bottom: "pool"
  top: "flatten"
}
layer {
  name: "score"
  type: "InnerProduct"
  bottom: "flatten"
  top: "score"
  inner_product_param {
    num_output: 10
    weight_filler {
      type: "gaussian"
    }
  }
}
layer {
  name: "accuracy"
  type: "Accuracy"
  bottom: "score"
  bottom: "label"
  top: "accuracy"
}
layer {
  name: "loss"
  type: "SoftmaxWithLoss"
  bottom: "score"
  bottom: "label"
  top: "loss"
}
I1017 12:00:13.453739  8939 layer_factory.hpp:77] Creating layer data
I1017 12:00:13.453919  8939 net.cpp:100] Creating Layer data
I1017 12:00:13.453932  8939 net.cpp:408] data -> data
I1017 12:00:13.453936  8939 net.cpp:408] data -> label
I1017 12:00:13.454495  8947 db_lmdb.cpp:35] Opened lmdb ../../../../data/cifar-10/cifar10_test_lmdb
I1017 12:00:13.454612  8939 data_layer.cpp:41] output data size: 100,3,32,32
I1017 12:00:13.456300  8939 net.cpp:150] Setting up data
I1017 12:00:13.456315  8939 net.cpp:157] Top shape: 100 3 32 32 (307200)
I1017 12:00:13.456317  8939 net.cpp:157] Top shape: 100 (100)
I1017 12:00:13.456318  8939 net.cpp:165] Memory required for data: 1229200
I1017 12:00:13.456321  8939 layer_factory.hpp:77] Creating layer label_data_1_split
I1017 12:00:13.456327  8939 net.cpp:100] Creating Layer label_data_1_split
I1017 12:00:13.456336  8939 net.cpp:434] label_data_1_split <- label
I1017 12:00:13.456339  8939 net.cpp:408] label_data_1_split -> label_data_1_split_0
I1017 12:00:13.456346  8939 net.cpp:408] label_data_1_split -> label_data_1_split_1
I1017 12:00:13.456398  8939 net.cpp:150] Setting up label_data_1_split
I1017 12:00:13.456401  8939 net.cpp:157] Top shape: 100 (100)
I1017 12:00:13.456403  8939 net.cpp:157] Top shape: 100 (100)
I1017 12:00:13.456404  8939 net.cpp:165] Memory required for data: 1230000
I1017 12:00:13.456406  8939 layer_factory.hpp:77] Creating layer conv1
I1017 12:00:13.456414  8939 net.cpp:100] Creating Layer conv1
I1017 12:00:13.456416  8939 net.cpp:434] conv1 <- data
I1017 12:00:13.456419  8939 net.cpp:408] conv1 -> conv1
I1017 12:00:13.457263  8939 net.cpp:150] Setting up conv1
I1017 12:00:13.457273  8939 net.cpp:157] Top shape: 100 192 28 28 (15052800)
I1017 12:00:13.457276  8939 net.cpp:165] Memory required for data: 61441200
I1017 12:00:13.457283  8939 layer_factory.hpp:77] Creating layer pool1
I1017 12:00:13.457288  8939 net.cpp:100] Creating Layer pool1
I1017 12:00:13.457289  8939 net.cpp:434] pool1 <- conv1
I1017 12:00:13.457293  8939 net.cpp:408] pool1 -> pool1
I1017 12:00:13.457320  8939 net.cpp:150] Setting up pool1
I1017 12:00:13.457324  8939 net.cpp:157] Top shape: 100 192 14 14 (3763200)
I1017 12:00:13.457325  8939 net.cpp:165] Memory required for data: 76494000
I1017 12:00:13.457327  8939 layer_factory.hpp:77] Creating layer drop1
I1017 12:00:13.457332  8939 net.cpp:100] Creating Layer drop1
I1017 12:00:13.457334  8939 net.cpp:434] drop1 <- pool1
I1017 12:00:13.457336  8939 net.cpp:408] drop1 -> drop1
I1017 12:00:13.457360  8939 net.cpp:150] Setting up drop1
I1017 12:00:13.457363  8939 net.cpp:157] Top shape: 100 192 14 14 (3763200)
I1017 12:00:13.457365  8939 net.cpp:165] Memory required for data: 91546800
I1017 12:00:13.457366  8939 layer_factory.hpp:77] Creating layer relu1
I1017 12:00:13.457371  8939 net.cpp:100] Creating Layer relu1
I1017 12:00:13.457375  8939 net.cpp:434] relu1 <- drop1
I1017 12:00:13.457377  8939 net.cpp:408] relu1 -> relu1
I1017 12:00:13.457578  8939 net.cpp:150] Setting up relu1
I1017 12:00:13.457593  8939 net.cpp:157] Top shape: 100 192 14 14 (3763200)
I1017 12:00:13.457595  8939 net.cpp:165] Memory required for data: 106599600
I1017 12:00:13.457597  8939 layer_factory.hpp:77] Creating layer conv2
I1017 12:00:13.457604  8939 net.cpp:100] Creating Layer conv2
I1017 12:00:13.457607  8939 net.cpp:434] conv2 <- relu1
I1017 12:00:13.457610  8939 net.cpp:408] conv2 -> conv2
I1017 12:00:13.458565  8939 net.cpp:150] Setting up conv2
I1017 12:00:13.458573  8939 net.cpp:157] Top shape: 100 192 14 14 (3763200)
I1017 12:00:13.458575  8939 net.cpp:165] Memory required for data: 121652400
I1017 12:00:13.458580  8939 layer_factory.hpp:77] Creating layer conv3
I1017 12:00:13.458585  8939 net.cpp:100] Creating Layer conv3
I1017 12:00:13.458587  8939 net.cpp:434] conv3 <- conv2
I1017 12:00:13.458592  8939 net.cpp:408] conv3 -> conv3
I1017 12:00:13.461078  8939 net.cpp:150] Setting up conv3
I1017 12:00:13.461086  8939 net.cpp:157] Top shape: 100 240 12 12 (3456000)
I1017 12:00:13.461088  8939 net.cpp:165] Memory required for data: 135476400
I1017 12:00:13.461094  8939 layer_factory.hpp:77] Creating layer pool2
I1017 12:00:13.461099  8939 net.cpp:100] Creating Layer pool2
I1017 12:00:13.461102  8939 net.cpp:434] pool2 <- conv3
I1017 12:00:13.461105  8939 net.cpp:408] pool2 -> pool2
I1017 12:00:13.461133  8939 net.cpp:150] Setting up pool2
I1017 12:00:13.461136  8939 net.cpp:157] Top shape: 100 240 6 6 (864000)
I1017 12:00:13.461138  8939 net.cpp:165] Memory required for data: 138932400
I1017 12:00:13.461139  8939 layer_factory.hpp:77] Creating layer drop2
I1017 12:00:13.461145  8939 net.cpp:100] Creating Layer drop2
I1017 12:00:13.461148  8939 net.cpp:434] drop2 <- pool2
I1017 12:00:13.461149  8939 net.cpp:408] drop2 -> drop2
I1017 12:00:13.461172  8939 net.cpp:150] Setting up drop2
I1017 12:00:13.461176  8939 net.cpp:157] Top shape: 100 240 6 6 (864000)
I1017 12:00:13.461177  8939 net.cpp:165] Memory required for data: 142388400
I1017 12:00:13.461179  8939 layer_factory.hpp:77] Creating layer relu2
I1017 12:00:13.461182  8939 net.cpp:100] Creating Layer relu2
I1017 12:00:13.461184  8939 net.cpp:434] relu2 <- drop2
I1017 12:00:13.461187  8939 net.cpp:408] relu2 -> relu2
I1017 12:00:13.461307  8939 net.cpp:150] Setting up relu2
I1017 12:00:13.461313  8939 net.cpp:157] Top shape: 100 240 6 6 (864000)
I1017 12:00:13.461314  8939 net.cpp:165] Memory required for data: 145844400
I1017 12:00:13.461315  8939 layer_factory.hpp:77] Creating layer conv4
I1017 12:00:13.461320  8939 net.cpp:100] Creating Layer conv4
I1017 12:00:13.461323  8939 net.cpp:434] conv4 <- relu2
I1017 12:00:13.461326  8939 net.cpp:408] conv4 -> conv4
I1017 12:00:13.462184  8939 net.cpp:150] Setting up conv4
I1017 12:00:13.462193  8939 net.cpp:157] Top shape: 100 240 6 6 (864000)
I1017 12:00:13.462193  8939 net.cpp:165] Memory required for data: 149300400
I1017 12:00:13.462198  8939 layer_factory.hpp:77] Creating layer conv5
I1017 12:00:13.462203  8939 net.cpp:100] Creating Layer conv5
I1017 12:00:13.462204  8939 net.cpp:434] conv5 <- conv4
I1017 12:00:13.462208  8939 net.cpp:408] conv5 -> conv5
I1017 12:00:13.463989  8939 net.cpp:150] Setting up conv5
I1017 12:00:13.463996  8939 net.cpp:157] Top shape: 100 260 5 5 (650000)
I1017 12:00:13.463999  8939 net.cpp:165] Memory required for data: 151900400
I1017 12:00:13.464004  8939 layer_factory.hpp:77] Creating layer pool3
I1017 12:00:13.464009  8939 net.cpp:100] Creating Layer pool3
I1017 12:00:13.464010  8939 net.cpp:434] pool3 <- conv5
I1017 12:00:13.464013  8939 net.cpp:408] pool3 -> pool3
I1017 12:00:13.464040  8939 net.cpp:150] Setting up pool3
I1017 12:00:13.464046  8939 net.cpp:157] Top shape: 100 260 3 3 (234000)
I1017 12:00:13.464046  8939 net.cpp:165] Memory required for data: 152836400
I1017 12:00:13.464048  8939 layer_factory.hpp:77] Creating layer drop3
I1017 12:00:13.464051  8939 net.cpp:100] Creating Layer drop3
I1017 12:00:13.464053  8939 net.cpp:434] drop3 <- pool3
I1017 12:00:13.464056  8939 net.cpp:408] drop3 -> drop3
I1017 12:00:13.464081  8939 net.cpp:150] Setting up drop3
I1017 12:00:13.464092  8939 net.cpp:157] Top shape: 100 260 3 3 (234000)
I1017 12:00:13.464095  8939 net.cpp:165] Memory required for data: 153772400
I1017 12:00:13.464097  8939 layer_factory.hpp:77] Creating layer relu3
I1017 12:00:13.464099  8939 net.cpp:100] Creating Layer relu3
I1017 12:00:13.464102  8939 net.cpp:434] relu3 <- drop3
I1017 12:00:13.464105  8939 net.cpp:408] relu3 -> relu3
I1017 12:00:13.464224  8939 net.cpp:150] Setting up relu3
I1017 12:00:13.464229  8939 net.cpp:157] Top shape: 100 260 3 3 (234000)
I1017 12:00:13.464231  8939 net.cpp:165] Memory required for data: 154708400
I1017 12:00:13.464233  8939 layer_factory.hpp:77] Creating layer conv6
I1017 12:00:13.464239  8939 net.cpp:100] Creating Layer conv6
I1017 12:00:13.464241  8939 net.cpp:434] conv6 <- relu3
I1017 12:00:13.464244  8939 net.cpp:408] conv6 -> conv6
I1017 12:00:13.465477  8939 net.cpp:150] Setting up conv6
I1017 12:00:13.465487  8939 net.cpp:157] Top shape: 100 260 3 3 (234000)
I1017 12:00:13.465488  8939 net.cpp:165] Memory required for data: 155644400
I1017 12:00:13.465492  8939 layer_factory.hpp:77] Creating layer conv7
I1017 12:00:13.465497  8939 net.cpp:100] Creating Layer conv7
I1017 12:00:13.465499  8939 net.cpp:434] conv7 <- conv6
I1017 12:00:13.465502  8939 net.cpp:408] conv7 -> conv7
I1017 12:00:13.467501  8939 net.cpp:150] Setting up conv7
I1017 12:00:13.467511  8939 net.cpp:157] Top shape: 100 280 2 2 (112000)
I1017 12:00:13.467514  8939 net.cpp:165] Memory required for data: 156092400
I1017 12:00:13.467517  8939 layer_factory.hpp:77] Creating layer pool4
I1017 12:00:13.467521  8939 net.cpp:100] Creating Layer pool4
I1017 12:00:13.467525  8939 net.cpp:434] pool4 <- conv7
I1017 12:00:13.467527  8939 net.cpp:408] pool4 -> pool4
I1017 12:00:13.467555  8939 net.cpp:150] Setting up pool4
I1017 12:00:13.467559  8939 net.cpp:157] Top shape: 100 280 1 1 (28000)
I1017 12:00:13.467561  8939 net.cpp:165] Memory required for data: 156204400
I1017 12:00:13.467563  8939 layer_factory.hpp:77] Creating layer drop4
I1017 12:00:13.467566  8939 net.cpp:100] Creating Layer drop4
I1017 12:00:13.467567  8939 net.cpp:434] drop4 <- pool4
I1017 12:00:13.467571  8939 net.cpp:408] drop4 -> drop4
I1017 12:00:13.467594  8939 net.cpp:150] Setting up drop4
I1017 12:00:13.467598  8939 net.cpp:157] Top shape: 100 280 1 1 (28000)
I1017 12:00:13.467599  8939 net.cpp:165] Memory required for data: 156316400
I1017 12:00:13.467602  8939 layer_factory.hpp:77] Creating layer relu4
I1017 12:00:13.467604  8939 net.cpp:100] Creating Layer relu4
I1017 12:00:13.467607  8939 net.cpp:434] relu4 <- drop4
I1017 12:00:13.467610  8939 net.cpp:408] relu4 -> relu4
I1017 12:00:13.467727  8939 net.cpp:150] Setting up relu4
I1017 12:00:13.467732  8939 net.cpp:157] Top shape: 100 280 1 1 (28000)
I1017 12:00:13.467735  8939 net.cpp:165] Memory required for data: 156428400
I1017 12:00:13.467736  8939 layer_factory.hpp:77] Creating layer conv8
I1017 12:00:13.467741  8939 net.cpp:100] Creating Layer conv8
I1017 12:00:13.467743  8939 net.cpp:434] conv8 <- relu4
I1017 12:00:13.467746  8939 net.cpp:408] conv8 -> conv8
I1017 12:00:13.468689  8939 net.cpp:150] Setting up conv8
I1017 12:00:13.468700  8939 net.cpp:157] Top shape: 100 280 1 1 (28000)
I1017 12:00:13.468703  8939 net.cpp:165] Memory required for data: 156540400
I1017 12:00:13.468705  8939 layer_factory.hpp:77] Creating layer pool5
I1017 12:00:13.468709  8939 net.cpp:100] Creating Layer pool5
I1017 12:00:13.468711  8939 net.cpp:434] pool5 <- conv8
I1017 12:00:13.468714  8939 net.cpp:408] pool5 -> pool5
I1017 12:00:13.468741  8939 net.cpp:150] Setting up pool5
I1017 12:00:13.468745  8939 net.cpp:157] Top shape: 100 280 1 1 (28000)
I1017 12:00:13.468747  8939 net.cpp:165] Memory required for data: 156652400
I1017 12:00:13.468750  8939 layer_factory.hpp:77] Creating layer drop5
I1017 12:00:13.468752  8939 net.cpp:100] Creating Layer drop5
I1017 12:00:13.468753  8939 net.cpp:434] drop5 <- pool5
I1017 12:00:13.468757  8939 net.cpp:408] drop5 -> drop5
I1017 12:00:13.468780  8939 net.cpp:150] Setting up drop5
I1017 12:00:13.468785  8939 net.cpp:157] Top shape: 100 280 1 1 (28000)
I1017 12:00:13.468794  8939 net.cpp:165] Memory required for data: 156764400
I1017 12:00:13.468797  8939 layer_factory.hpp:77] Creating layer relu5
I1017 12:00:13.468801  8939 net.cpp:100] Creating Layer relu5
I1017 12:00:13.468802  8939 net.cpp:434] relu5 <- drop5
I1017 12:00:13.468806  8939 net.cpp:408] relu5 -> relu5
I1017 12:00:13.469003  8939 net.cpp:150] Setting up relu5
I1017 12:00:13.469010  8939 net.cpp:157] Top shape: 100 280 1 1 (28000)
I1017 12:00:13.469012  8939 net.cpp:165] Memory required for data: 156876400
I1017 12:00:13.469013  8939 layer_factory.hpp:77] Creating layer conv10
I1017 12:00:13.469019  8939 net.cpp:100] Creating Layer conv10
I1017 12:00:13.469022  8939 net.cpp:434] conv10 <- relu5
I1017 12:00:13.469024  8939 net.cpp:408] conv10 -> conv10
I1017 12:00:13.469988  8939 net.cpp:150] Setting up conv10
I1017 12:00:13.469996  8939 net.cpp:157] Top shape: 100 300 1 1 (30000)
I1017 12:00:13.469998  8939 net.cpp:165] Memory required for data: 156996400
I1017 12:00:13.470005  8939 layer_factory.hpp:77] Creating layer pool6
I1017 12:00:13.470008  8939 net.cpp:100] Creating Layer pool6
I1017 12:00:13.470010  8939 net.cpp:434] pool6 <- conv10
I1017 12:00:13.470013  8939 net.cpp:408] pool6 -> pool6
I1017 12:00:13.470041  8939 net.cpp:150] Setting up pool6
I1017 12:00:13.470046  8939 net.cpp:157] Top shape: 100 300 1 1 (30000)
I1017 12:00:13.470048  8939 net.cpp:165] Memory required for data: 157116400
I1017 12:00:13.470049  8939 layer_factory.hpp:77] Creating layer drop6
I1017 12:00:13.470052  8939 net.cpp:100] Creating Layer drop6
I1017 12:00:13.470054  8939 net.cpp:434] drop6 <- pool6
I1017 12:00:13.470058  8939 net.cpp:408] drop6 -> drop6
I1017 12:00:13.470082  8939 net.cpp:150] Setting up drop6
I1017 12:00:13.470085  8939 net.cpp:157] Top shape: 100 300 1 1 (30000)
I1017 12:00:13.470088  8939 net.cpp:165] Memory required for data: 157236400
I1017 12:00:13.470089  8939 layer_factory.hpp:77] Creating layer relu6
I1017 12:00:13.470091  8939 net.cpp:100] Creating Layer relu6
I1017 12:00:13.470093  8939 net.cpp:434] relu6 <- drop6
I1017 12:00:13.470096  8939 net.cpp:408] relu6 -> relu6
I1017 12:00:13.470216  8939 net.cpp:150] Setting up relu6
I1017 12:00:13.470221  8939 net.cpp:157] Top shape: 100 300 1 1 (30000)
I1017 12:00:13.470222  8939 net.cpp:165] Memory required for data: 157356400
I1017 12:00:13.470224  8939 layer_factory.hpp:77] Creating layer conv11
I1017 12:00:13.470229  8939 net.cpp:100] Creating Layer conv11
I1017 12:00:13.470232  8939 net.cpp:434] conv11 <- relu6
I1017 12:00:13.470234  8939 net.cpp:408] conv11 -> conv11
I1017 12:00:13.471017  8939 net.cpp:150] Setting up conv11
I1017 12:00:13.471025  8939 net.cpp:157] Top shape: 100 100 1 1 (10000)
I1017 12:00:13.471027  8939 net.cpp:165] Memory required for data: 157396400
I1017 12:00:13.471031  8939 layer_factory.hpp:77] Creating layer pool7
I1017 12:00:13.471035  8939 net.cpp:100] Creating Layer pool7
I1017 12:00:13.471036  8939 net.cpp:434] pool7 <- conv11
I1017 12:00:13.471040  8939 net.cpp:408] pool7 -> pool7
I1017 12:00:13.471068  8939 net.cpp:150] Setting up pool7
I1017 12:00:13.471073  8939 net.cpp:157] Top shape: 100 100 1 1 (10000)
I1017 12:00:13.471076  8939 net.cpp:165] Memory required for data: 157436400
I1017 12:00:13.471077  8939 layer_factory.hpp:77] Creating layer drop7
I1017 12:00:13.471081  8939 net.cpp:100] Creating Layer drop7
I1017 12:00:13.471081  8939 net.cpp:434] drop7 <- pool7
I1017 12:00:13.471084  8939 net.cpp:408] drop7 -> drop7
I1017 12:00:13.471108  8939 net.cpp:150] Setting up drop7
I1017 12:00:13.471112  8939 net.cpp:157] Top shape: 100 100 1 1 (10000)
I1017 12:00:13.471113  8939 net.cpp:165] Memory required for data: 157476400
I1017 12:00:13.471114  8939 layer_factory.hpp:77] Creating layer relu7
I1017 12:00:13.471120  8939 net.cpp:100] Creating Layer relu7
I1017 12:00:13.471122  8939 net.cpp:434] relu7 <- drop7
I1017 12:00:13.471124  8939 net.cpp:408] relu7 -> relu7
I1017 12:00:13.471242  8939 net.cpp:150] Setting up relu7
I1017 12:00:13.471247  8939 net.cpp:157] Top shape: 100 100 1 1 (10000)
I1017 12:00:13.471256  8939 net.cpp:165] Memory required for data: 157516400
I1017 12:00:13.471257  8939 layer_factory.hpp:77] Creating layer pool
I1017 12:00:13.471262  8939 net.cpp:100] Creating Layer pool
I1017 12:00:13.471264  8939 net.cpp:434] pool <- relu7
I1017 12:00:13.471267  8939 net.cpp:408] pool -> pool
I1017 12:00:13.471467  8939 net.cpp:150] Setting up pool
I1017 12:00:13.471474  8939 net.cpp:157] Top shape: 100 100 1 1 (10000)
I1017 12:00:13.471477  8939 net.cpp:165] Memory required for data: 157556400
I1017 12:00:13.471478  8939 layer_factory.hpp:77] Creating layer flatten
I1017 12:00:13.471482  8939 net.cpp:100] Creating Layer flatten
I1017 12:00:13.471483  8939 net.cpp:434] flatten <- pool
I1017 12:00:13.471487  8939 net.cpp:408] flatten -> flatten
I1017 12:00:13.471504  8939 net.cpp:150] Setting up flatten
I1017 12:00:13.471506  8939 net.cpp:157] Top shape: 100 100 (10000)
I1017 12:00:13.471508  8939 net.cpp:165] Memory required for data: 157596400
I1017 12:00:13.471510  8939 layer_factory.hpp:77] Creating layer score
I1017 12:00:13.471515  8939 net.cpp:100] Creating Layer score
I1017 12:00:13.471518  8939 net.cpp:434] score <- flatten
I1017 12:00:13.471521  8939 net.cpp:408] score -> score
I1017 12:00:13.471606  8939 net.cpp:150] Setting up score
I1017 12:00:13.471611  8939 net.cpp:157] Top shape: 100 10 (1000)
I1017 12:00:13.471611  8939 net.cpp:165] Memory required for data: 157600400
I1017 12:00:13.471614  8939 layer_factory.hpp:77] Creating layer score_score_0_split
I1017 12:00:13.471619  8939 net.cpp:100] Creating Layer score_score_0_split
I1017 12:00:13.471621  8939 net.cpp:434] score_score_0_split <- score
I1017 12:00:13.471623  8939 net.cpp:408] score_score_0_split -> score_score_0_split_0
I1017 12:00:13.471627  8939 net.cpp:408] score_score_0_split -> score_score_0_split_1
I1017 12:00:13.471652  8939 net.cpp:150] Setting up score_score_0_split
I1017 12:00:13.471654  8939 net.cpp:157] Top shape: 100 10 (1000)
I1017 12:00:13.471657  8939 net.cpp:157] Top shape: 100 10 (1000)
I1017 12:00:13.471658  8939 net.cpp:165] Memory required for data: 157608400
I1017 12:00:13.471660  8939 layer_factory.hpp:77] Creating layer accuracy
I1017 12:00:13.471664  8939 net.cpp:100] Creating Layer accuracy
I1017 12:00:13.471667  8939 net.cpp:434] accuracy <- score_score_0_split_0
I1017 12:00:13.471669  8939 net.cpp:434] accuracy <- label_data_1_split_0
I1017 12:00:13.471673  8939 net.cpp:408] accuracy -> accuracy
…
