…
type: "AdaGrad"
I1020 01:11:54.983042  8613 solver.cpp:81] Creating training net from train_net file: /home/adam/Honours/Honours-Project/cifar-10_pooling/max/relu/poolcnn_relu_train.prototxt
I1020 01:11:54.983335  8613 net.cpp:58] Initializing net from parameters: 
state {
  phase: TRAIN
  level: 0
  stage: ""
}
layer {
  name: "data"
  type: "Data"
  top: "data"
  top: "label"
  transform_param {
    mean_file: "mean.binaryproto"
  }
  data_param {
    source: "../../../../data/cifar-10/cifar10_train_lmdb"
    batch_size: 64
    backend: LMDB
  }
}
layer {
  name: "conv1"
  type: "Convolution"
  bottom: "data"
  top: "conv1"
  convolution_param {
    num_output: 192
    kernel_size: 5
    weight_filler {
      type: "xavier"
    }
  }
}
layer {
  name: "relu1"
  type: "ReLU"
  bottom: "conv1"
  top: "relu1"
}
layer {
  name: "drop1"
  type: "Dropout"
  bottom: "relu1"
  top: "drop1"
  dropout_param {
    dropout_ratio: 0
  }
}
layer {
  name: "pool1"
  type: "Pooling"
  bottom: "drop1"
  top: "pool1"
  pooling_param {
    pool: MAX
    kernel_size: 2
    stride: 2
  }
}
layer {
  name: "conv2"
  type: "Convolution"
  bottom: "pool1"
  top: "conv2"
  convolution_param {
    num_output: 192
    kernel_size: 1
    weight_filler {
      type: "xavier"
    }
  }
}
layer {
  name: "relu2"
  type: "ReLU"
  bottom: "conv2"
  top: "relu2"
}
layer {
  name: "conv3"
  type: "Convolution"
  bottom: "relu2"
  top: "conv3"
  convolution_param {
    num_output: 240
    kernel_size: 3
    weight_filler {
      type: "xavier"
    }
  }
}
layer {
  name: "relu3"
  type: "ReLU"
  bottom: "conv3"
  top: "relu3"
}
layer {
  name: "drop2"
  type: "Dropout"
  bottom: "relu3"
  top: "drop2"
  dropout_param {
    dropout_ratio: 0.1
  }
}
layer {
  name: "pool2"
  type: "Pooling"
  bottom: "drop2"
  top: "pool2"
  pooling_param {
    pool: MAX
    kernel_size: 2
    stride: 2
  }
}
layer {
  name: "conv4"
  type: "Convolution"
  bottom: "pool2"
  top: "conv4"
  convolution_param {
    num_output: 240
    kernel_size: 1
    weight_filler {
      type: "xavier"
    }
  }
}
layer {
  name: "relu4"
  type: "ReLU"
  bottom: "conv4"
  top: "relu4"
}
layer {
  name: "conv5"
  type: "Convolution"
  bottom: "relu4"
  top: "conv5"
  convolution_param {
    num_output: 260
    kernel_size: 2
    weight_filler {
      type: "xavier"
    }
  }
}
layer {
  name: "relu5"
  type: "ReLU"
  bottom: "conv5"
  top: "relu5"
}
layer {
  name: "drop3"
  type: "Dropout"
  bottom: "relu5"
  top: "drop3"
  dropout_param {
    dropout_ratio: 0.2
  }
}
layer {
  name: "pool3"
  type: "Pooling"
  bottom: "drop3"
  top: "pool3"
  pooling_param {
    pool: MAX
    kernel_size: 2
    stride: 2
  }
}
layer {
  name: "conv6"
  type: "Convolution"
  bottom: "pool3"
  top: "conv6"
  convolution_param {
    num_output: 260
    kernel_size: 1
    weight_filler {
      type: "xavier"
    }
  }
}
layer {
  name: "relu6"
  type: "ReLU"
  bottom: "conv6"
  top: "relu6"
}
layer {
  name: "conv7"
  type: "Convolution"
  bottom: "relu6"
  top: "conv7"
  convolution_param {
    num_output: 280
    kernel_size: 2
    weight_filler {
      type: "xavier"
    }
  }
}
layer {
  name: "relu7"
  type: "ReLU"
  bottom: "conv7"
  top: "relu7"
}
layer {
  name: "drop4"
  type: "Dropout"
  bottom: "relu7"
  top: "drop4"
  dropout_param {
    dropout_ratio: 0.3
  }
}
layer {
  name: "pool4"
  type: "Pooling"
  bottom: "drop4"
  top: "pool4"
  pooling_param {
    pool: MAX
    kernel_size: 2
    stride: 2
  }
}
layer {
  name: "conv8"
  type: "Convolution"
  bottom: "pool4"
  top: "conv8"
  convolution_param {
    num_output: 280
    kernel_size: 1
    weight_filler {
      type: "xavier"
    }
  }
}
layer {
  name: "relu8"
  type: "ReLU"
  bottom: "conv8"
  top: "relu8"
}
layer {
  name: "drop5"
  type: "Dropout"
  bottom: "relu8"
  top: "drop5"
  dropout_param {
    dropout_ratio: 0.4
  }
}
layer {
  name: "pool5"
  type: "Pooling"
  bottom: "drop5"
  top: "pool5"
  pooling_param {
    pool: MAX
    kernel_size: 2
    stride: 2
  }
}
layer {
  name: "conv10"
  type: "Convolution"
  bottom: "pool5"
  top: "conv10"
  convolution_param {
    num_output: 300
    kernel_size: 1
    weight_filler {
      type: "xavier"
    }
  }
}
layer {
  name: "relu10"
  type: "ReLU"
  bottom: "conv10"
  top: "relu10"
}
layer {
  name: "drop6"
  type: "Dropout"
  bottom: "relu10"
  top: "drop6"
  dropout_param {
    dropout_ratio: 0.5
  }
}
layer {
  name: "pool6"
  type: "Pooling"
  bottom: "drop6"
  top: "pool6"
  pooling_param {
    pool: MAX
    kernel_size: 2
    stride: 2
  }
}
layer {
  name: "conv11"
  type: "Convolution"
  bottom: "pool6"
  top: "conv11"
  convolution_param {
    num_output: 100
    kernel_size: 1
    weight_filler {
      type: "xavier"
    }
  }
}
layer {
  name: "relu11"
  type: "ReLU"
  bottom: "conv11"
  top: "relu11"
}
layer {
  name: "drop7"
  type: "Dropout"
  bottom: "relu11"
  top: "drop7"
  dropout_param {
    dropout_ratio: 0
  }
}
layer {
  name: "pool7"
  type: "Pooling"
  bottom: "drop7"
  top: "pool7"
  pooling_param {
    pool: MAX
    kernel_size: 2
    stride: 2
  }
}
layer {
  name: "score"
  type: "InnerProduct"
  bottom: "pool7"
  top: "score"
  inner_product_param {
    num_output: 10
    weight_filler {
      type: "gaussian"
    }
  }
}
layer {
  name: "accuracy"
  type: "Accuracy"
  bottom: "score"
  bottom: "label"
  top: "accuracy"
}
layer {
  name: "loss"
  type: "SoftmaxWithLoss"
  bottom: "score"
  bottom: "label"
  top: "loss"
}
I1020 01:11:54.983445  8613 layer_factory.hpp:77] Creating layer data
I1020 01:11:54.983830  8613 net.cpp:100] Creating Layer data
I1020 01:11:54.983837  8613 net.cpp:408] data -> data
I1020 01:11:54.983855  8613 net.cpp:408] data -> label
I1020 01:11:54.983875  8613 data_transformer.cpp:25] Loading mean file from: mean.binaryproto
I1020 01:11:54.984702  8618 db_lmdb.cpp:35] Opened lmdb ../../../../data/cifar-10/cifar10_train_lmdb
I1020 01:11:54.989974  8613 data_layer.cpp:41] output data size: 64,3,32,32
I1020 01:11:54.991426  8613 net.cpp:150] Setting up data
I1020 01:11:54.991446  8613 net.cpp:157] Top shape: 64 3 32 32 (196608)
I1020 01:11:54.991449  8613 net.cpp:157] Top shape: 64 (64)
I1020 01:11:54.991451  8613 net.cpp:165] Memory required for data: 786688
I1020 01:11:54.991458  8613 layer_factory.hpp:77] Creating layer label_data_1_split
I1020 01:11:54.991468  8613 net.cpp:100] Creating Layer label_data_1_split
I1020 01:11:54.991473  8613 net.cpp:434] label_data_1_split <- label
I1020 01:11:54.991484  8613 net.cpp:408] label_data_1_split -> label_data_1_split_0
I1020 01:11:54.991503  8613 net.cpp:408] label_data_1_split -> label_data_1_split_1
I1020 01:11:54.991528  8613 net.cpp:150] Setting up label_data_1_split
I1020 01:11:54.991535  8613 net.cpp:157] Top shape: 64 (64)
I1020 01:11:54.991539  8613 net.cpp:157] Top shape: 64 (64)
I1020 01:11:54.991540  8613 net.cpp:165] Memory required for data: 787200
I1020 01:11:54.991544  8613 layer_factory.hpp:77] Creating layer conv1
I1020 01:11:54.991559  8613 net.cpp:100] Creating Layer conv1
I1020 01:11:54.991562  8613 net.cpp:434] conv1 <- data
I1020 01:11:54.991567  8613 net.cpp:408] conv1 -> conv1
I1020 01:11:55.113230  8613 net.cpp:150] Setting up conv1
I1020 01:11:55.113257  8613 net.cpp:157] Top shape: 64 192 28 28 (9633792)
I1020 01:11:55.113260  8613 net.cpp:165] Memory required for data: 39322368
I1020 01:11:55.113282  8613 layer_factory.hpp:77] Creating layer relu1
I1020 01:11:55.113293  8613 net.cpp:100] Creating Layer relu1
I1020 01:11:55.113298  8613 net.cpp:434] relu1 <- conv1
I1020 01:11:55.113306  8613 net.cpp:408] relu1 -> relu1
I1020 01:11:55.113442  8613 net.cpp:150] Setting up relu1
I1020 01:11:55.113450  8613 net.cpp:157] Top shape: 64 192 28 28 (9633792)
I1020 01:11:55.113453  8613 net.cpp:165] Memory required for data: 77857536
I1020 01:11:55.113456  8613 layer_factory.hpp:77] Creating layer drop1
I1020 01:11:55.113464  8613 net.cpp:100] Creating Layer drop1
I1020 01:11:55.113467  8613 net.cpp:434] drop1 <- relu1
I1020 01:11:55.113472  8613 net.cpp:408] drop1 -> drop1
I1020 01:11:55.113499  8613 net.cpp:150] Setting up drop1
I1020 01:11:55.113504  8613 net.cpp:157] Top shape: 64 192 28 28 (9633792)
I1020 01:11:55.113507  8613 net.cpp:165] Memory required for data: 116392704
I1020 01:11:55.113512  8613 layer_factory.hpp:77] Creating layer pool1
I1020 01:11:55.113517  8613 net.cpp:100] Creating Layer pool1
I1020 01:11:55.113520  8613 net.cpp:434] pool1 <- drop1
I1020 01:11:55.113524  8613 net.cpp:408] pool1 -> pool1
I1020 01:11:55.113555  8613 net.cpp:150] Setting up pool1
I1020 01:11:55.113560  8613 net.cpp:157] Top shape: 64 192 14 14 (2408448)
I1020 01:11:55.113564  8613 net.cpp:165] Memory required for data: 126026496
I1020 01:11:55.113569  8613 layer_factory.hpp:77] Creating layer conv2
I1020 01:11:55.113577  8613 net.cpp:100] Creating Layer conv2
I1020 01:11:55.113580  8613 net.cpp:434] conv2 <- pool1
I1020 01:11:55.113584  8613 net.cpp:408] conv2 -> conv2
I1020 01:11:55.114625  8613 net.cpp:150] Setting up conv2
I1020 01:11:55.114634  8613 net.cpp:157] Top shape: 64 192 14 14 (2408448)
I1020 01:11:55.114639  8613 net.cpp:165] Memory required for data: 135660288
I1020 01:11:55.114646  8613 layer_factory.hpp:77] Creating layer relu2
I1020 01:11:55.114651  8613 net.cpp:100] Creating Layer relu2
I1020 01:11:55.114655  8613 net.cpp:434] relu2 <- conv2
I1020 01:11:55.114661  8613 net.cpp:408] relu2 -> relu2
I1020 01:11:55.114780  8613 net.cpp:150] Setting up relu2
I1020 01:11:55.114786  8613 net.cpp:157] Top shape: 64 192 14 14 (2408448)
I1020 01:11:55.114790  8613 net.cpp:165] Memory required for data: 145294080
I1020 01:11:55.114794  8613 layer_factory.hpp:77] Creating layer conv3
I1020 01:11:55.114804  8613 net.cpp:100] Creating Layer conv3
I1020 01:11:55.114806  8613 net.cpp:434] conv3 <- relu2
I1020 01:11:55.114810  8613 net.cpp:408] conv3 -> conv3
I1020 01:11:55.117380  8613 net.cpp:150] Setting up conv3
I1020 01:11:55.117395  8613 net.cpp:157] Top shape: 64 240 12 12 (2211840)
I1020 01:11:55.117398  8613 net.cpp:165] Memory required for data: 154141440
I1020 01:11:55.117409  8613 layer_factory.hpp:77] Creating layer relu3
I1020 01:11:55.117416  8613 net.cpp:100] Creating Layer relu3
I1020 01:11:55.117420  8613 net.cpp:434] relu3 <- conv3
I1020 01:11:55.117426  8613 net.cpp:408] relu3 -> relu3
I1020 01:11:55.117617  8613 net.cpp:150] Setting up relu3
I1020 01:11:55.117626  8613 net.cpp:157] Top shape: 64 240 12 12 (2211840)
I1020 01:11:55.117630  8613 net.cpp:165] Memory required for data: 162988800
I1020 01:11:55.117632  8613 layer_factory.hpp:77] Creating layer drop2
I1020 01:11:55.117638  8613 net.cpp:100] Creating Layer drop2
I1020 01:11:55.117642  8613 net.cpp:434] drop2 <- relu3
I1020 01:11:55.117646  8613 net.cpp:408] drop2 -> drop2
I1020 01:11:55.117671  8613 net.cpp:150] Setting up drop2
I1020 01:11:55.117676  8613 net.cpp:157] Top shape: 64 240 12 12 (2211840)
I1020 01:11:55.117679  8613 net.cpp:165] Memory required for data: 171836160
I1020 01:11:55.117682  8613 layer_factory.hpp:77] Creating layer pool2
I1020 01:11:55.117687  8613 net.cpp:100] Creating Layer pool2
I1020 01:11:55.117691  8613 net.cpp:434] pool2 <- drop2
I1020 01:11:55.117697  8613 net.cpp:408] pool2 -> pool2
I1020 01:11:55.117719  8613 net.cpp:150] Setting up pool2
I1020 01:11:55.117724  8613 net.cpp:157] Top shape: 64 240 6 6 (552960)
I1020 01:11:55.117728  8613 net.cpp:165] Memory required for data: 174048000
I1020 01:11:55.117733  8613 layer_factory.hpp:77] Creating layer conv4
I1020 01:11:55.117739  8613 net.cpp:100] Creating Layer conv4
I1020 01:11:55.117743  8613 net.cpp:434] conv4 <- pool2
I1020 01:11:55.117748  8613 net.cpp:408] conv4 -> conv4
I1020 01:11:55.118568  8613 net.cpp:150] Setting up conv4
I1020 01:11:55.118577  8613 net.cpp:157] Top shape: 64 240 6 6 (552960)
I1020 01:11:55.118580  8613 net.cpp:165] Memory required for data: 176259840
I1020 01:11:55.118587  8613 layer_factory.hpp:77] Creating layer relu4
I1020 01:11:55.118592  8613 net.cpp:100] Creating Layer relu4
I1020 01:11:55.118595  8613 net.cpp:434] relu4 <- conv4
I1020 01:11:55.118602  8613 net.cpp:408] relu4 -> relu4
I1020 01:11:55.118711  8613 net.cpp:150] Setting up relu4
I1020 01:11:55.118718  8613 net.cpp:157] Top shape: 64 240 6 6 (552960)
I1020 01:11:55.118721  8613 net.cpp:165] Memory required for data: 178471680
I1020 01:11:55.118724  8613 layer_factory.hpp:77] Creating layer conv5
I1020 01:11:55.118732  8613 net.cpp:100] Creating Layer conv5
I1020 01:11:55.118736  8613 net.cpp:434] conv5 <- relu4
I1020 01:11:55.118741  8613 net.cpp:408] conv5 -> conv5
I1020 01:11:55.120519  8613 net.cpp:150] Setting up conv5
I1020 01:11:55.120532  8613 net.cpp:157] Top shape: 64 260 5 5 (416000)
I1020 01:11:55.120534  8613 net.cpp:165] Memory required for data: 180135680
I1020 01:11:55.120544  8613 layer_factory.hpp:77] Creating layer relu5
I1020 01:11:55.120550  8613 net.cpp:100] Creating Layer relu5
I1020 01:11:55.120554  8613 net.cpp:434] relu5 <- conv5
I1020 01:11:55.120560  8613 net.cpp:408] relu5 -> relu5
I1020 01:11:55.120671  8613 net.cpp:150] Setting up relu5
I1020 01:11:55.120676  8613 net.cpp:157] Top shape: 64 260 5 5 (416000)
I1020 01:11:55.120679  8613 net.cpp:165] Memory required for data: 181799680
I1020 01:11:55.120684  8613 layer_factory.hpp:77] Creating layer drop3
I1020 01:11:55.120692  8613 net.cpp:100] Creating Layer drop3
I1020 01:11:55.120695  8613 net.cpp:434] drop3 <- relu5
I1020 01:11:55.120700  8613 net.cpp:408] drop3 -> drop3
I1020 01:11:55.120725  8613 net.cpp:150] Setting up drop3
I1020 01:11:55.120730  8613 net.cpp:157] Top shape: 64 260 5 5 (416000)
I1020 01:11:55.120733  8613 net.cpp:165] Memory required for data: 183463680
I1020 01:11:55.120738  8613 layer_factory.hpp:77] Creating layer pool3
I1020 01:11:55.120743  8613 net.cpp:100] Creating Layer pool3
I1020 01:11:55.120746  8613 net.cpp:434] pool3 <- drop3
I1020 01:11:55.120750  8613 net.cpp:408] pool3 -> pool3
I1020 01:11:55.120774  8613 net.cpp:150] Setting up pool3
I1020 01:11:55.120779  8613 net.cpp:157] Top shape: 64 260 3 3 (149760)
I1020 01:11:55.120782  8613 net.cpp:165] Memory required for data: 184062720
I1020 01:11:55.120785  8613 layer_factory.hpp:77] Creating layer conv6
I1020 01:11:55.120792  8613 net.cpp:100] Creating Layer conv6
I1020 01:11:55.120795  8613 net.cpp:434] conv6 <- pool3
I1020 01:11:55.120800  8613 net.cpp:408] conv6 -> conv6
I1020 01:11:55.121899  8613 net.cpp:150] Setting up conv6
I1020 01:11:55.121907  8613 net.cpp:157] Top shape: 64 260 3 3 (149760)
I1020 01:11:55.121912  8613 net.cpp:165] Memory required for data: 184661760
I1020 01:11:55.121917  8613 layer_factory.hpp:77] Creating layer relu6
I1020 01:11:55.121923  8613 net.cpp:100] Creating Layer relu6
I1020 01:11:55.121927  8613 net.cpp:434] relu6 <- conv6
I1020 01:11:55.121933  8613 net.cpp:408] relu6 -> relu6
I1020 01:11:55.122128  8613 net.cpp:150] Setting up relu6
I1020 01:11:55.122136  8613 net.cpp:157] Top shape: 64 260 3 3 (149760)
I1020 01:11:55.122139  8613 net.cpp:165] Memory required for data: 185260800
I1020 01:11:55.122144  8613 layer_factory.hpp:77] Creating layer conv7
I1020 01:11:55.122151  8613 net.cpp:100] Creating Layer conv7
I1020 01:11:55.122155  8613 net.cpp:434] conv7 <- relu6
I1020 01:11:55.122160  8613 net.cpp:408] conv7 -> conv7
I1020 01:11:55.124086  8613 net.cpp:150] Setting up conv7
I1020 01:11:55.124094  8613 net.cpp:157] Top shape: 64 280 2 2 (71680)
I1020 01:11:55.124097  8613 net.cpp:165] Memory required for data: 185547520
I1020 01:11:55.124104  8613 layer_factory.hpp:77] Creating layer relu7
I1020 01:11:55.124109  8613 net.cpp:100] Creating Layer relu7
I1020 01:11:55.124114  8613 net.cpp:434] relu7 <- conv7
I1020 01:11:55.124119  8613 net.cpp:408] relu7 -> relu7
I1020 01:11:55.124245  8613 net.cpp:150] Setting up relu7
I1020 01:11:55.124253  8613 net.cpp:157] Top shape: 64 280 2 2 (71680)
I1020 01:11:55.124255  8613 net.cpp:165] Memory required for data: 185834240
I1020 01:11:55.124258  8613 layer_factory.hpp:77] Creating layer drop4
I1020 01:11:55.124265  8613 net.cpp:100] Creating Layer drop4
I1020 01:11:55.124269  8613 net.cpp:434] drop4 <- relu7
I1020 01:11:55.124274  8613 net.cpp:408] drop4 -> drop4
I1020 01:11:55.124311  8613 net.cpp:150] Setting up drop4
I1020 01:11:55.124317  8613 net.cpp:157] Top shape: 64 280 2 2 (71680)
I1020 01:11:55.124321  8613 net.cpp:165] Memory required for data: 186120960
I1020 01:11:55.124325  8613 layer_factory.hpp:77] Creating layer pool4
I1020 01:11:55.124330  8613 net.cpp:100] Creating Layer pool4
I1020 01:11:55.124332  8613 net.cpp:434] pool4 <- drop4
I1020 01:11:55.124338  8613 net.cpp:408] pool4 -> pool4
I1020 01:11:55.124364  8613 net.cpp:150] Setting up pool4
I1020 01:11:55.124369  8613 net.cpp:157] Top shape: 64 280 1 1 (17920)
I1020 01:11:55.124373  8613 net.cpp:165] Memory required for data: 186192640
I1020 01:11:55.124377  8613 layer_factory.hpp:77] Creating layer conv8
I1020 01:11:55.124384  8613 net.cpp:100] Creating Layer conv8
I1020 01:11:55.124388  8613 net.cpp:434] conv8 <- pool4
I1020 01:11:55.124393  8613 net.cpp:408] conv8 -> conv8
I1020 01:11:55.125499  8613 net.cpp:150] Setting up conv8
I1020 01:11:55.125507  8613 net.cpp:157] Top shape: 64 280 1 1 (17920)
I1020 01:11:55.125510  8613 net.cpp:165] Memory required for data: 186264320
I1020 01:11:55.125516  8613 layer_factory.hpp:77] Creating layer relu8
I1020 01:11:55.125524  8613 net.cpp:100] Creating Layer relu8
I1020 01:11:55.125527  8613 net.cpp:434] relu8 <- conv8
I1020 01:11:55.125533  8613 net.cpp:408] relu8 -> relu8
I1020 01:11:55.125653  8613 net.cpp:150] Setting up relu8
I1020 01:11:55.125659  8613 net.cpp:157] Top shape: 64 280 1 1 (17920)
I1020 01:11:55.125663  8613 net.cpp:165] Memory required for data: 186336000
I1020 01:11:55.125666  8613 layer_factory.hpp:77] Creating layer drop5
I1020 01:11:55.125671  8613 net.cpp:100] Creating Layer drop5
I1020 01:11:55.125675  8613 net.cpp:434] drop5 <- relu8
I1020 01:11:55.125681  8613 net.cpp:408] drop5 -> drop5
I1020 01:11:55.125707  8613 net.cpp:150] Setting up drop5
I1020 01:11:55.125715  8613 net.cpp:157] Top shape: 64 280 1 1 (17920)
I1020 01:11:55.125718  8613 net.cpp:165] Memory required for data: 186407680
I1020 01:11:55.125720  8613 layer_factory.hpp:77] Creating layer pool5
I1020 01:11:55.125725  8613 net.cpp:100] Creating Layer pool5
I1020 01:11:55.125728  8613 net.cpp:434] pool5 <- drop5
I1020 01:11:55.125735  8613 net.cpp:408] pool5 -> pool5
I1020 01:11:55.125761  8613 net.cpp:150] Setting up pool5
I1020 01:11:55.125766  8613 net.cpp:157] Top shape: 64 280 1 1 (17920)
I1020 01:11:55.125771  8613 net.cpp:165] Memory required for data: 186479360
I1020 01:11:55.125773  8613 layer_factory.hpp:77] Creating layer conv10
I1020 01:11:55.125780  8613 net.cpp:100] Creating Layer conv10
I1020 01:11:55.125783  8613 net.cpp:434] conv10 <- pool5
I1020 01:11:55.125789  8613 net.cpp:408] conv10 -> conv10
I1020 01:11:55.126718  8613 net.cpp:150] Setting up conv10
I1020 01:11:55.126725  8613 net.cpp:157] Top shape: 64 300 1 1 (19200)
I1020 01:11:55.126730  8613 net.cpp:165] Memory required for data: 186556160
I1020 01:11:55.126739  8613 layer_factory.hpp:77] Creating layer relu10
I1020 01:11:55.126744  8613 net.cpp:100] Creating Layer relu10
I1020 01:11:55.126749  8613 net.cpp:434] relu10 <- conv10
I1020 01:11:55.126754  8613 net.cpp:408] relu10 -> relu10
I1020 01:11:55.126950  8613 net.cpp:150] Setting up relu10
I1020 01:11:55.126957  8613 net.cpp:157] Top shape: 64 300 1 1 (19200)
I1020 01:11:55.126960  8613 net.cpp:165] Memory required for data: 186632960
I1020 01:11:55.126963  8613 layer_factory.hpp:77] Creating layer drop6
I1020 01:11:55.126968  8613 net.cpp:100] Creating Layer drop6
I1020 01:11:55.126972  8613 net.cpp:434] drop6 <- relu10
I1020 01:11:55.126978  8613 net.cpp:408] drop6 -> drop6
I1020 01:11:55.127009  8613 net.cpp:150] Setting up drop6
I1020 01:11:55.127022  8613 net.cpp:157] Top shape: 64 300 1 1 (19200)
I1020 01:11:55.127025  8613 net.cpp:165] Memory required for data: 186709760
I1020 01:11:55.127028  8613 layer_factory.hpp:77] Creating layer pool6
I1020 01:11:55.127034  8613 net.cpp:100] Creating Layer pool6
I1020 01:11:55.127038  8613 net.cpp:434] pool6 <- drop6
I1020 01:11:55.127043  8613 net.cpp:408] pool6 -> pool6
I1020 01:11:55.127070  8613 net.cpp:150] Setting up pool6
I1020 01:11:55.127075  8613 net.cpp:157] Top shape: 64 300 1 1 (19200)
I1020 01:11:55.127079  8613 net.cpp:165] Memory required for data: 186786560
I1020 01:11:55.127084  8613 layer_factory.hpp:77] Creating layer conv11
I1020 01:11:55.127095  8613 net.cpp:100] Creating Layer conv11
I1020 01:11:55.127099  8613 net.cpp:434] conv11 <- pool6
I1020 01:11:55.127104  8613 net.cpp:408] conv11 -> conv11
I1020 01:11:55.127838  8613 net.cpp:150] Setting up conv11
I1020 01:11:55.127846  8613 net.cpp:157] Top shape: 64 100 1 1 (6400)
I1020 01:11:55.127849  8613 net.cpp:165] Memory required for data: 186812160
I1020 01:11:55.127856  8613 layer_factory.hpp:77] Creating layer relu11
I1020 01:11:55.127861  8613 net.cpp:100] Creating Layer relu11
I1020 01:11:55.127866  8613 net.cpp:434] relu11 <- conv11
I1020 01:11:55.127871  8613 net.cpp:408] relu11 -> relu11
I1020 01:11:55.127987  8613 net.cpp:150] Setting up relu11
I1020 01:11:55.127995  8613 net.cpp:157] Top shape: 64 100 1 1 (6400)
I1020 01:11:55.127997  8613 net.cpp:165] Memory required for data: 186837760
I1020 01:11:55.128000  8613 layer_factory.hpp:77] Creating layer drop7
I1020 01:11:55.128006  8613 net.cpp:100] Creating Layer drop7
I1020 01:11:55.128010  8613 net.cpp:434] drop7 <- relu11
I1020 01:11:55.128015  8613 net.cpp:408] drop7 -> drop7
I1020 01:11:55.128043  8613 net.cpp:150] Setting up drop7
I1020 01:11:55.128048  8613 net.cpp:157] Top shape: 64 100 1 1 (6400)
I1020 01:11:55.128052  8613 net.cpp:165] Memory required for data: 186863360
I1020 01:11:55.128056  8613 layer_factory.hpp:77] Creating layer pool7
I1020 01:11:55.128059  8613 net.cpp:100] Creating Layer pool7
I1020 01:11:55.128063  8613 net.cpp:434] pool7 <- drop7
I1020 01:11:55.128069  8613 net.cpp:408] pool7 -> pool7
I1020 01:11:55.128094  8613 net.cpp:150] Setting up pool7
I1020 01:11:55.128100  8613 net.cpp:157] Top shape: 64 100 1 1 (6400)
I1020 01:11:55.128104  8613 net.cpp:165] Memory required for data: 186888960
I1020 01:11:55.128108  8613 layer_factory.hpp:77] Creating layer score
I1020 01:11:55.128113  8613 net.cpp:100] Creating Layer score
I1020 01:11:55.128118  8613 net.cpp:434] score <- pool7
I1020 01:11:55.128123  8613 net.cpp:408] score -> score
I1020 01:11:55.128221  8613 net.cpp:150] Setting up score
I1020 01:11:55.128226  8613 net.cpp:157] Top shape: 64 10 (640)
I1020 01:11:55.128228  8613 net.cpp:165] Memory required for data: 186891520
I1020 01:11:55.128233  8613 layer_factory.hpp:77] Creating layer score_score_0_split
I1020 01:11:55.128240  8613 net.cpp:100] Creating Layer score_score_0_split
I1020 01:11:55.128244  8613 net.cpp:434] score_score_0_split <- score
I1020 01:11:55.128249  8613 net.cpp:408] score_score_0_split -> score_score_0_split_0
I1020 01:11:55.128255  8613 net.cpp:408] score_score_0_split -> score_score_0_split_1
I1020 01:11:55.128280  8613 net.cpp:150] Setting up score_score_0_split
I1020 01:11:55.128286  8613 net.cpp:157] Top shape: 64 10 (640)
I1020 01:11:55.128294  8613 net.cpp:157] Top shape: 64 10 (640)
I1020 01:11:55.128298  8613 net.cpp:165] Memory required for data: 186896640
I1020 01:11:55.128300  8613 layer_factory.hpp:77] Creating layer accuracy
I1020 01:11:55.128306  8613 net.cpp:100] Creating Layer accuracy
I1020 01:11:55.128310  8613 net.cpp:434] accuracy <- score_score_0_split_0
I1020 01:11:55.128314  8613 net.cpp:434] accuracy <- label_data_1_split_0
I1020 01:11:55.128319  8613 net.cpp:408] accuracy -> accuracy
…
I1020 01:11:55.128829  8613 net.cpp:283] Network initialization done.
I1020 01:11:55.129036  8613 solver.cpp:181] Creating test net (#0) specified by test_net file: /home/adam/Honours/Honours-Project/cifar-10_pooling/max/relu/poolcnn_relu_test.prototxt
I1020 01:11:55.129159  8613 net.cpp:58] Initializing net from parameters: 
state {
  phase: TEST
}
layer {
  name: "data"
  type: "Data"
  top: "data"
  top: "label"
  transform_param {
    mean_file: "mean.binaryproto"
  }
  data_param {
    source: "../../../../data/cifar-10/cifar10_test_lmdb"
    batch_size: 100
    backend: LMDB
  }
}
layer {
  name: "conv1"
  type: "Convolution"
  bottom: "data"
  top: "conv1"
  convolution_param {
    num_output: 192
    kernel_size: 5
    weight_filler {
      type: "xavier"
    }
  }
}
layer {
  name: "relu1"
  type: "ReLU"
  bottom: "conv1"
  top: "relu1"
}
layer {
  name: "drop1"
  type: "Dropout"
  bottom: "relu1"
  top: "drop1"
  dropout_param {
    dropout_ratio: 0
  }
}
layer {
  name: "pool1"
  type: "Pooling"
  bottom: "drop1"
  top: "pool1"
  pooling_param {
    pool: MAX
    kernel_size: 2
    stride: 2
  }
}
layer {
  name: "conv2"
  type: "Convolution"
  bottom: "pool1"
  top: "conv2"
  convolution_param {
    num_output: 192
    kernel_size: 1
    weight_filler {
      type: "xavier"
    }
  }
}
layer {
  name: "relu2"
  type: "ReLU"
  bottom: "conv2"
  top: "relu2"
}
layer {
  name: "conv3"
  type: "Convolution"
  bottom: "relu2"
  top: "conv3"
  convolution_param {
    num_output: 240
    kernel_size: 3
    weight_filler {
      type: "xavier"
    }
  }
}
layer {
  name: "relu3"
  type: "ReLU"
  bottom: "conv3"
  top: "relu3"
}
layer {
  name: "drop2"
  type: "Dropout"
  bottom: "relu3"
  top: "drop2"
  dropout_param {
    dropout_ratio: 0.1
  }
}
layer {
  name: "pool2"
  type: "Pooling"
  bottom: "drop2"
  top: "pool2"
  pooling_param {
    pool: MAX
    kernel_size: 2
    stride: 2
  }
}
layer {
  name: "conv4"
  type: "Convolution"
  bottom: "pool2"
  top: "conv4"
  convolution_param {
    num_output: 240
    kernel_size: 1
    weight_filler {
      type: "xavier"
    }
  }
}
layer {
  name: "relu4"
  type: "ReLU"
  bottom: "conv4"
  top: "relu4"
}
layer {
  name: "conv5"
  type: "Convolution"
  bottom: "relu4"
  top: "conv5"
  convolution_param {
    num_output: 260
    kernel_size: 2
    weight_filler {
      type: "xavier"
    }
  }
}
layer {
  name: "relu5"
  type: "ReLU"
  bottom: "conv5"
  top: "relu5"
}
layer {
  name: "drop3"
  type: "Dropout"
  bottom: "relu5"
  top: "drop3"
  dropout_param {
    dropout_ratio: 0.2
  }
}
layer {
  name: "pool3"
  type: "Pooling"
  bottom: "drop3"
  top: "pool3"
  pooling_param {
    pool: MAX
    kernel_size: 2
    stride: 2
  }
}
layer {
  name: "conv6"
  type: "Convolution"
  bottom: "pool3"
  top: "conv6"
  convolution_param {
    num_output: 260
    kernel_size: 1
    weight_filler {
      type: "xavier"
    }
  }
}
layer {
  name: "relu6"
  type: "ReLU"
  bottom: "conv6"
  top: "relu6"
}
layer {
  name: "conv7"
  type: "Convolution"
  bottom: "relu6"
  top: "conv7"
  convolution_param {
    num_output: 280
    kernel_size: 2
    weight_filler {
      type: "xavier"
    }
  }
}
layer {
  name: "relu7"
  type: "ReLU"
  bottom: "conv7"
  top: "relu7"
}
layer {
  name: "drop4"
  type: "Dropout"
  bottom: "relu7"
  top: "drop4"
  dropout_param {
    dropout_ratio: 0.3
  }
}
layer {
  name: "pool4"
  type: "Pooling"
  bottom: "drop4"
  top: "pool4"
  pooling_param {
    pool: MAX
    kernel_size: 2
    stride: 2
  }
}
layer {
  name: "conv8"
  type: "Convolution"
  bottom: "pool4"
  top: "conv8"
  convolution_param {
    num_output: 280
    kernel_size: 1
    weight_filler {
      type: "xavier"
    }
  }
}
layer {
  name: "relu8"
  type: "ReLU"
  bottom: "conv8"
  top: "relu8"
}
layer {
  name: "drop5"
  type: "Dropout"
  bottom: "relu8"
  top: "drop5"
  dropout_param {
    dropout_ratio: 0.4
  }
}
layer {
  name: "pool5"
  type: "Pooling"
  bottom: "drop5"
  top: "pool5"
  pooling_param {
    pool: MAX
    kernel_size: 2
    stride: 2
  }
}
layer {
  name: "conv10"
  type: "Convolution"
  bottom: "pool5"
  top: "conv10"
  convolution_param {
    num_output: 300
    kernel_size: 1
    weight_filler {
      type: "xavier"
    }
  }
}
layer {
  name: "relu10"
  type: "ReLU"
  bottom: "conv10"
  top: "relu10"
}
layer {
  name: "drop6"
  type: "Dropout"
  bottom: "relu10"
  top: "drop6"
  dropout_param {
    dropout_ratio: 0.5
  }
}
layer {
  name: "pool6"
  type: "Pooling"
  bottom: "drop6"
  top: "pool6"
  pooling_param {
    pool: MAX
    kernel_size: 2
    stride: 2
  }
}
layer {
  name: "conv11"
  type: "Convolution"
  bottom: "pool6"
  top: "conv11"
  convolution_param {
    num_output: 100
    kernel_size: 1
    weight_filler {
      type: "xavier"
    }
  }
}
layer {
  name: "relu11"
  type: "ReLU"
  bottom: "conv11"
  top: "relu11"
}
layer {
  name: "drop7"
  type: "Dropout"
  bottom: "relu11"
  top: "drop7"
  dropout_param {
    dropout_ratio: 0
  }
}
layer {
  name: "pool7"
  type: "Pooling"
  bottom: "drop7"
  top: "pool7"
  pooling_param {
    pool: MAX
    kernel_size: 2
    stride: 2
  }
}
layer {
  name: "score"
  type: "InnerProduct"
  bottom: "pool7"
  top: "score"
  inner_product_param {
    num_output: 10
    weight_filler {
      type: "gaussian"
    }
  }
}
layer {
  name: "accuracy"
  type: "Accuracy"
  bottom: "score"
  bottom: "label"
  top: "accuracy"
}
layer {
  name: "loss"
  type: "SoftmaxWithLoss"
  bottom: "score"
  bottom: "label"
  top: "loss"
}
I1020 01:11:55.129258  8613 layer_factory.hpp:77] Creating layer data
I1020 01:11:55.129452  8613 net.cpp:100] Creating Layer data
I1020 01:11:55.129461  8613 net.cpp:408] data -> data
I1020 01:11:55.129467  8613 net.cpp:408] data -> label
I1020 01:11:55.129472  8613 data_transformer.cpp:25] Loading mean file from: mean.binaryproto
I1020 01:11:55.130054  8620 db_lmdb.cpp:35] Opened lmdb ../../../../data/cifar-10/cifar10_test_lmdb
I1020 01:11:55.130120  8613 data_layer.cpp:41] output data size: 100,3,32,32
I1020 01:11:55.131824  8613 net.cpp:150] Setting up data
I1020 01:11:55.131839  8613 net.cpp:157] Top shape: 100 3 32 32 (307200)
I1020 01:11:55.131841  8613 net.cpp:157] Top shape: 100 (100)
I1020 01:11:55.131842  8613 net.cpp:165] Memory required for data: 1229200
I1020 01:11:55.131846  8613 layer_factory.hpp:77] Creating layer label_data_1_split
I1020 01:11:55.131852  8613 net.cpp:100] Creating Layer label_data_1_split
I1020 01:11:55.131855  8613 net.cpp:434] label_data_1_split <- label
I1020 01:11:55.131860  8613 net.cpp:408] label_data_1_split -> label_data_1_split_0
I1020 01:11:55.131865  8613 net.cpp:408] label_data_1_split -> label_data_1_split_1
I1020 01:11:55.131902  8613 net.cpp:150] Setting up label_data_1_split
I1020 01:11:55.131906  8613 net.cpp:157] Top shape: 100 (100)
I1020 01:11:55.131908  8613 net.cpp:157] Top shape: 100 (100)
I1020 01:11:55.131911  8613 net.cpp:165] Memory required for data: 1230000
I1020 01:11:55.131911  8613 layer_factory.hpp:77] Creating layer conv1
I1020 01:11:55.131918  8613 net.cpp:100] Creating Layer conv1
I1020 01:11:55.131920  8613 net.cpp:434] conv1 <- data
I1020 01:11:55.131923  8613 net.cpp:408] conv1 -> conv1
I1020 01:11:55.132856  8613 net.cpp:150] Setting up conv1
I1020 01:11:55.132865  8613 net.cpp:157] Top shape: 100 192 28 28 (15052800)
I1020 01:11:55.132869  8613 net.cpp:165] Memory required for data: 61441200
I1020 01:11:55.132877  8613 layer_factory.hpp:77] Creating layer relu1
I1020 01:11:55.132882  8613 net.cpp:100] Creating Layer relu1
I1020 01:11:55.132884  8613 net.cpp:434] relu1 <- conv1
I1020 01:11:55.132887  8613 net.cpp:408] relu1 -> relu1
I1020 01:11:55.133010  8613 net.cpp:150] Setting up relu1
I1020 01:11:55.133015  8613 net.cpp:157] Top shape: 100 192 28 28 (15052800)
I1020 01:11:55.133018  8613 net.cpp:165] Memory required for data: 121652400
I1020 01:11:55.133019  8613 layer_factory.hpp:77] Creating layer drop1
I1020 01:11:55.133024  8613 net.cpp:100] Creating Layer drop1
I1020 01:11:55.133025  8613 net.cpp:434] drop1 <- relu1
I1020 01:11:55.133030  8613 net.cpp:408] drop1 -> drop1
I1020 01:11:55.133056  8613 net.cpp:150] Setting up drop1
I1020 01:11:55.133062  8613 net.cpp:157] Top shape: 100 192 28 28 (15052800)
I1020 01:11:55.133064  8613 net.cpp:165] Memory required for data: 181863600
I1020 01:11:55.133065  8613 layer_factory.hpp:77] Creating layer pool1
I1020 01:11:55.133079  8613 net.cpp:100] Creating Layer pool1
I1020 01:11:55.133081  8613 net.cpp:434] pool1 <- drop1
I1020 01:11:55.133086  8613 net.cpp:408] pool1 -> pool1
I1020 01:11:55.133111  8613 net.cpp:150] Setting up pool1
I1020 01:11:55.133116  8613 net.cpp:157] Top shape: 100 192 14 14 (3763200)
I1020 01:11:55.133117  8613 net.cpp:165] Memory required for data: 196916400
I1020 01:11:55.133118  8613 layer_factory.hpp:77] Creating layer conv2
I1020 01:11:55.133123  8613 net.cpp:100] Creating Layer conv2
I1020 01:11:55.133126  8613 net.cpp:434] conv2 <- pool1
I1020 01:11:55.133129  8613 net.cpp:408] conv2 -> conv2
I1020 01:11:55.134116  8613 net.cpp:150] Setting up conv2
I1020 01:11:55.134130  8613 net.cpp:157] Top shape: 100 192 14 14 (3763200)
I1020 01:11:55.134135  8613 net.cpp:165] Memory required for data: 211969200
I1020 01:11:55.134142  8613 layer_factory.hpp:77] Creating layer relu2
I1020 01:11:55.134150  8613 net.cpp:100] Creating Layer relu2
I1020 01:11:55.134152  8613 net.cpp:434] relu2 <- conv2
I1020 01:11:55.134161  8613 net.cpp:408] relu2 -> relu2
I1020 01:11:55.134300  8613 net.cpp:150] Setting up relu2
I1020 01:11:55.134306  8613 net.cpp:157] Top shape: 100 192 14 14 (3763200)
I1020 01:11:55.134310  8613 net.cpp:165] Memory required for data: 227022000
I1020 01:11:55.134312  8613 layer_factory.hpp:77] Creating layer conv3
I1020 01:11:55.134321  8613 net.cpp:100] Creating Layer conv3
I1020 01:11:55.134325  8613 net.cpp:434] conv3 <- relu2
I1020 01:11:55.134331  8613 net.cpp:408] conv3 -> conv3
I1020 01:11:55.137053  8613 net.cpp:150] Setting up conv3
I1020 01:11:55.137066  8613 net.cpp:157] Top shape: 100 240 12 12 (3456000)
I1020 01:11:55.137069  8613 net.cpp:165] Memory required for data: 240846000
I1020 01:11:55.137080  8613 layer_factory.hpp:77] Creating layer relu3
I1020 01:11:55.137089  8613 net.cpp:100] Creating Layer relu3
I1020 01:11:55.137094  8613 net.cpp:434] relu3 <- conv3
I1020 01:11:55.137099  8613 net.cpp:408] relu3 -> relu3
I1020 01:11:55.137305  8613 net.cpp:150] Setting up relu3
I1020 01:11:55.137313  8613 net.cpp:157] Top shape: 100 240 12 12 (3456000)
I1020 01:11:55.137316  8613 net.cpp:165] Memory required for data: 254670000
I1020 01:11:55.137320  8613 layer_factory.hpp:77] Creating layer drop2
I1020 01:11:55.137328  8613 net.cpp:100] Creating Layer drop2
I1020 01:11:55.137332  8613 net.cpp:434] drop2 <- relu3
I1020 01:11:55.137336  8613 net.cpp:408] drop2 -> drop2
I1020 01:11:55.137367  8613 net.cpp:150] Setting up drop2
I1020 01:11:55.137372  8613 net.cpp:157] Top shape: 100 240 12 12 (3456000)
I1020 01:11:55.137377  8613 net.cpp:165] Memory required for data: 268494000
I1020 01:11:55.137379  8613 layer_factory.hpp:77] Creating layer pool2
I1020 01:11:55.137385  8613 net.cpp:100] Creating Layer pool2
I1020 01:11:55.137389  8613 net.cpp:434] pool2 <- drop2
I1020 01:11:55.137395  8613 net.cpp:408] pool2 -> pool2
I1020 01:11:55.137423  8613 net.cpp:150] Setting up pool2
I1020 01:11:55.137430  8613 net.cpp:157] Top shape: 100 240 6 6 (864000)
I1020 01:11:55.137434  8613 net.cpp:165] Memory required for data: 271950000
I1020 01:11:55.137437  8613 layer_factory.hpp:77] Creating layer conv4
I1020 01:11:55.137444  8613 net.cpp:100] Creating Layer conv4
I1020 01:11:55.137446  8613 net.cpp:434] conv4 <- pool2
I1020 01:11:55.137452  8613 net.cpp:408] conv4 -> conv4
I1020 01:11:55.138319  8613 net.cpp:150] Setting up conv4
I1020 01:11:55.138327  8613 net.cpp:157] Top shape: 100 240 6 6 (864000)
I1020 01:11:55.138330  8613 net.cpp:165] Memory required for data: 275406000
I1020 01:11:55.138336  8613 layer_factory.hpp:77] Creating layer relu4
I1020 01:11:55.138345  8613 net.cpp:100] Creating Layer relu4
I1020 01:11:55.138348  8613 net.cpp:434] relu4 <- conv4
I1020 01:11:55.138352  8613 net.cpp:408] relu4 -> relu4
I1020 01:11:55.138478  8613 net.cpp:150] Setting up relu4
I1020 01:11:55.138485  8613 net.cpp:157] Top shape: 100 240 6 6 (864000)
I1020 01:11:55.138489  8613 net.cpp:165] Memory required for data: 278862000
I1020 01:11:55.138494  8613 layer_factory.hpp:77] Creating layer conv5
I1020 01:11:55.138509  8613 net.cpp:100] Creating Layer conv5
I1020 01:11:55.138512  8613 net.cpp:434] conv5 <- relu4
I1020 01:11:55.138519  8613 net.cpp:408] conv5 -> conv5
I1020 01:11:55.140410  8613 net.cpp:150] Setting up conv5
I1020 01:11:55.140420  8613 net.cpp:157] Top shape: 100 260 5 5 (650000)
I1020 01:11:55.140424  8613 net.cpp:165] Memory required for data: 281462000
I1020 01:11:55.140432  8613 layer_factory.hpp:77] Creating layer relu5
I1020 01:11:55.140439  8613 net.cpp:100] Creating Layer relu5
I1020 01:11:55.140444  8613 net.cpp:434] relu5 <- conv5
I1020 01:11:55.140450  8613 net.cpp:408] relu5 -> relu5
I1020 01:11:55.140574  8613 net.cpp:150] Setting up relu5
I1020 01:11:55.140583  8613 net.cpp:157] Top shape: 100 260 5 5 (650000)
I1020 01:11:55.140586  8613 net.cpp:165] Memory required for data: 284062000
I1020 01:11:55.140590  8613 layer_factory.hpp:77] Creating layer drop3
I1020 01:11:55.140599  8613 net.cpp:100] Creating Layer drop3
I1020 01:11:55.140601  8613 net.cpp:434] drop3 <- relu5
I1020 01:11:55.140606  8613 net.cpp:408] drop3 -> drop3
I1020 01:11:55.140637  8613 net.cpp:150] Setting up drop3
I1020 01:11:55.140645  8613 net.cpp:157] Top shape: 100 260 5 5 (650000)
I1020 01:11:55.140647  8613 net.cpp:165] Memory required for data: 286662000
I1020 01:11:55.140650  8613 layer_factory.hpp:77] Creating layer pool3
I1020 01:11:55.140655  8613 net.cpp:100] Creating Layer pool3
I1020 01:11:55.140658  8613 net.cpp:434] pool3 <- drop3
I1020 01:11:55.140663  8613 net.cpp:408] pool3 -> pool3
I1020 01:11:55.140692  8613 net.cpp:150] Setting up pool3
I1020 01:11:55.140697  8613 net.cpp:157] Top shape: 100 260 3 3 (234000)
I1020 01:11:55.140700  8613 net.cpp:165] Memory required for data: 287598000
I1020 01:11:55.140703  8613 layer_factory.hpp:77] Creating layer conv6
I1020 01:11:55.140710  8613 net.cpp:100] Creating Layer conv6
I1020 01:11:55.140714  8613 net.cpp:434] conv6 <- pool3
I1020 01:11:55.140720  8613 net.cpp:408] conv6 -> conv6
I1020 01:11:55.142302  8613 net.cpp:150] Setting up conv6
I1020 01:11:55.142312  8613 net.cpp:157] Top shape: 100 260 3 3 (234000)
I1020 01:11:55.142314  8613 net.cpp:165] Memory required for data: 288534000
I1020 01:11:55.142320  8613 layer_factory.hpp:77] Creating layer relu6
I1020 01:11:55.142328  8613 net.cpp:100] Creating Layer relu6
I1020 01:11:55.142331  8613 net.cpp:434] relu6 <- conv6
I1020 01:11:55.142338  8613 net.cpp:408] relu6 -> relu6
I1020 01:11:55.142545  8613 net.cpp:150] Setting up relu6
I1020 01:11:55.142554  8613 net.cpp:157] Top shape: 100 260 3 3 (234000)
I1020 01:11:55.142556  8613 net.cpp:165] Memory required for data: 289470000
I1020 01:11:55.142560  8613 layer_factory.hpp:77] Creating layer conv7
I1020 01:11:55.142567  8613 net.cpp:100] Creating Layer conv7
I1020 01:11:55.142571  8613 net.cpp:434] conv7 <- relu6
I1020 01:11:55.142577  8613 net.cpp:408] conv7 -> conv7
I1020 01:11:55.144562  8613 net.cpp:150] Setting up conv7
I1020 01:11:55.144572  8613 net.cpp:157] Top shape: 100 280 2 2 (112000)
I1020 01:11:55.144574  8613 net.cpp:165] Memory required for data: 289918000
I1020 01:11:55.144580  8613 layer_factory.hpp:77] Creating layer relu7
I1020 01:11:55.144650  8613 net.cpp:100] Creating Layer relu7
I1020 01:11:55.144655  8613 net.cpp:434] relu7 <- conv7
I1020 01:11:55.144661  8613 net.cpp:408] relu7 -> relu7
I1020 01:11:55.144793  8613 net.cpp:150] Setting up relu7
I1020 01:11:55.144799  8613 net.cpp:157] Top shape: 100 280 2 2 (112000)
I1020 01:11:55.144803  8613 net.cpp:165] Memory required for data: 290366000
I1020 01:11:55.144805  8613 layer_factory.hpp:77] Creating layer drop4
I1020 01:11:55.144812  8613 net.cpp:100] Creating Layer drop4
I1020 01:11:55.144816  8613 net.cpp:434] drop4 <- relu7
I1020 01:11:55.144821  8613 net.cpp:408] drop4 -> drop4
I1020 01:11:55.144852  8613 net.cpp:150] Setting up drop4
I1020 01:11:55.144857  8613 net.cpp:157] Top shape: 100 280 2 2 (112000)
I1020 01:11:55.144860  8613 net.cpp:165] Memory required for data: 290814000
I1020 01:11:55.144863  8613 layer_factory.hpp:77] Creating layer pool4
I1020 01:11:55.144868  8613 net.cpp:100] Creating Layer pool4
I1020 01:11:55.144879  8613 net.cpp:434] pool4 <- drop4
I1020 01:11:55.144886  8613 net.cpp:408] pool4 -> pool4
I1020 01:11:55.144917  8613 net.cpp:150] Setting up pool4
I1020 01:11:55.144922  8613 net.cpp:157] Top shape: 100 280 1 1 (28000)
I1020 01:11:55.144924  8613 net.cpp:165] Memory required for data: 290926000
I1020 01:11:55.144928  8613 layer_factory.hpp:77] Creating layer conv8
I1020 01:11:55.144937  8613 net.cpp:100] Creating Layer conv8
I1020 01:11:55.144939  8613 net.cpp:434] conv8 <- pool4
I1020 01:11:55.144943  8613 net.cpp:408] conv8 -> conv8
I1020 01:11:55.145903  8613 net.cpp:150] Setting up conv8
I1020 01:11:55.145912  8613 net.cpp:157] Top shape: 100 280 1 1 (28000)
I1020 01:11:55.145915  8613 net.cpp:165] Memory required for data: 291038000
I1020 01:11:55.145920  8613 layer_factory.hpp:77] Creating layer relu8
I1020 01:11:55.145927  8613 net.cpp:100] Creating Layer relu8
I1020 01:11:55.145931  8613 net.cpp:434] relu8 <- conv8
I1020 01:11:55.145937  8613 net.cpp:408] relu8 -> relu8
I1020 01:11:55.146062  8613 net.cpp:150] Setting up relu8
I1020 01:11:55.146070  8613 net.cpp:157] Top shape: 100 280 1 1 (28000)
I1020 01:11:55.146072  8613 net.cpp:165] Memory required for data: 291150000
I1020 01:11:55.146075  8613 layer_factory.hpp:77] Creating layer drop5
I1020 01:11:55.146080  8613 net.cpp:100] Creating Layer drop5
I1020 01:11:55.146085  8613 net.cpp:434] drop5 <- relu8
I1020 01:11:55.146090  8613 net.cpp:408] drop5 -> drop5
I1020 01:11:55.146118  8613 net.cpp:150] Setting up drop5
I1020 01:11:55.146123  8613 net.cpp:157] Top shape: 100 280 1 1 (28000)
I1020 01:11:55.146127  8613 net.cpp:165] Memory required for data: 291262000
I1020 01:11:55.146131  8613 layer_factory.hpp:77] Creating layer pool5
I1020 01:11:55.146136  8613 net.cpp:100] Creating Layer pool5
I1020 01:11:55.146139  8613 net.cpp:434] pool5 <- drop5
I1020 01:11:55.146145  8613 net.cpp:408] pool5 -> pool5
I1020 01:11:55.146174  8613 net.cpp:150] Setting up pool5
I1020 01:11:55.146179  8613 net.cpp:157] Top shape: 100 280 1 1 (28000)
I1020 01:11:55.146183  8613 net.cpp:165] Memory required for data: 291374000
I1020 01:11:55.146186  8613 layer_factory.hpp:77] Creating layer conv10
I1020 01:11:55.146194  8613 net.cpp:100] Creating Layer conv10
I1020 01:11:55.146198  8613 net.cpp:434] conv10 <- pool5
I1020 01:11:55.146201  8613 net.cpp:408] conv10 -> conv10
I1020 01:11:55.147168  8613 net.cpp:150] Setting up conv10
I1020 01:11:55.147178  8613 net.cpp:157] Top shape: 100 300 1 1 (30000)
I1020 01:11:55.147181  8613 net.cpp:165] Memory required for data: 291494000
I1020 01:11:55.147191  8613 layer_factory.hpp:77] Creating layer relu10
I1020 01:11:55.147197  8613 net.cpp:100] Creating Layer relu10
I1020 01:11:55.147202  8613 net.cpp:434] relu10 <- conv10
I1020 01:11:55.147205  8613 net.cpp:408] relu10 -> relu10
I1020 01:11:55.147408  8613 net.cpp:150] Setting up relu10
I1020 01:11:55.147416  8613 net.cpp:157] Top shape: 100 300 1 1 (30000)
I1020 01:11:55.147419  8613 net.cpp:165] Memory required for data: 291614000
I1020 01:11:55.147423  8613 layer_factory.hpp:77] Creating layer drop6
I1020 01:11:55.147428  8613 net.cpp:100] Creating Layer drop6
I1020 01:11:55.147431  8613 net.cpp:434] drop6 <- relu10
I1020 01:11:55.147439  8613 net.cpp:408] drop6 -> drop6
I1020 01:11:55.147470  8613 net.cpp:150] Setting up drop6
I1020 01:11:55.147476  8613 net.cpp:157] Top shape: 100 300 1 1 (30000)
I1020 01:11:55.147480  8613 net.cpp:165] Memory required for data: 291734000
I1020 01:11:55.147483  8613 layer_factory.hpp:77] Creating layer pool6
I1020 01:11:55.147488  8613 net.cpp:100] Creating Layer pool6
I1020 01:11:55.147491  8613 net.cpp:434] pool6 <- drop6
I1020 01:11:55.147497  8613 net.cpp:408] pool6 -> pool6
I1020 01:11:55.147526  8613 net.cpp:150] Setting up pool6
I1020 01:11:55.147531  8613 net.cpp:157] Top shape: 100 300 1 1 (30000)
I1020 01:11:55.147534  8613 net.cpp:165] Memory required for data: 291854000
I1020 01:11:55.147537  8613 layer_factory.hpp:77] Creating layer conv11
I1020 01:11:55.147549  8613 net.cpp:100] Creating Layer conv11
I1020 01:11:55.147558  8613 net.cpp:434] conv11 <- pool6
I1020 01:11:55.147563  8613 net.cpp:408] conv11 -> conv11
I1020 01:11:55.148341  8613 net.cpp:150] Setting up conv11
I1020 01:11:55.148350  8613 net.cpp:157] Top shape: 100 100 1 1 (10000)
I1020 01:11:55.148353  8613 net.cpp:165] Memory required for data: 291894000
I1020 01:11:55.148360  8613 layer_factory.hpp:77] Creating layer relu11
I1020 01:11:55.148365  8613 net.cpp:100] Creating Layer relu11
I1020 01:11:55.148370  8613 net.cpp:434] relu11 <- conv11
I1020 01:11:55.148375  8613 net.cpp:408] relu11 -> relu11
I1020 01:11:55.148500  8613 net.cpp:150] Setting up relu11
I1020 01:11:55.148509  8613 net.cpp:157] Top shape: 100 100 1 1 (10000)
I1020 01:11:55.148511  8613 net.cpp:165] Memory required for data: 291934000
I1020 01:11:55.148514  8613 layer_factory.hpp:77] Creating layer drop7
I1020 01:11:55.148519  8613 net.cpp:100] Creating Layer drop7
I1020 01:11:55.148524  8613 net.cpp:434] drop7 <- relu11
I1020 01:11:55.148528  8613 net.cpp:408] drop7 -> drop7
I1020 01:11:55.148560  8613 net.cpp:150] Setting up drop7
I1020 01:11:55.148564  8613 net.cpp:157] Top shape: 100 100 1 1 (10000)
I1020 01:11:55.148568  8613 net.cpp:165] Memory required for data: 291974000
I1020 01:11:55.148571  8613 layer_factory.hpp:77] Creating layer pool7
I1020 01:11:55.148576  8613 net.cpp:100] Creating Layer pool7
I1020 01:11:55.148579  8613 net.cpp:434] pool7 <- drop7
I1020 01:11:55.148586  8613 net.cpp:408] pool7 -> pool7
I1020 01:11:55.148615  8613 net.cpp:150] Setting up pool7
I1020 01:11:55.148620  8613 net.cpp:157] Top shape: 100 100 1 1 (10000)
I1020 01:11:55.148623  8613 net.cpp:165] Memory required for data: 292014000
I1020 01:11:55.148627  8613 layer_factory.hpp:77] Creating layer score
I1020 01:11:55.148633  8613 net.cpp:100] Creating Layer score
I1020 01:11:55.148636  8613 net.cpp:434] score <- pool7
I1020 01:11:55.148643  8613 net.cpp:408] score -> score
I1020 01:11:55.148746  8613 net.cpp:150] Setting up score
I1020 01:11:55.148752  8613 net.cpp:157] Top shape: 100 10 (1000)
I1020 01:11:55.148754  8613 net.cpp:165] Memory required for data: 292018000
I1020 01:11:55.148759  8613 layer_factory.hpp:77] Creating layer score_score_0_split
I1020 01:11:55.148766  8613 net.cpp:100] Creating Layer score_score_0_split
I1020 01:11:55.148769  8613 net.cpp:434] score_score_0_split <- score
I1020 01:11:55.148775  8613 net.cpp:408] score_score_0_split -> score_score_0_split_0
I1020 01:11:55.148782  8613 net.cpp:408] score_score_0_split -> score_score_0_split_1
I1020 01:11:55.148809  8613 net.cpp:150] Setting up score_score_0_split
I1020 01:11:55.148814  8613 net.cpp:157] Top shape: 100 10 (1000)
I1020 01:11:55.148818  8613 net.cpp:157] Top shape: 100 10 (1000)
I1020 01:11:55.148820  8613 net.cpp:165] Memory required for data: 292026000
I1020 01:11:55.148824  8613 layer_factory.hpp:77] Creating layer accuracy
I1020 01:11:55.148831  8613 net.cpp:100] Creating Layer accuracy
I1020 01:11:55.148834  8613 net.cpp:434] accuracy <- score_score_0_split_0
I1020 01:11:55.148838  8613 net.cpp:434] accuracy <- label_data_1_split_0
I1020 01:11:55.148844  8613 net.cpp:408] accuracy -> accuracy
…
