…
solver_mode: GPU
device_id: 0
train_state {
  level: 0
  stage: ""
}
type: "AdaDelta"
I1017 18:10:44.422987  3202 solver.cpp:81] Creating training net from train_net file: /home/adam/Honours/Honours-Project/cifar-10_pooling/max/elu/poolcnn_elu_train.prototxt
I1017 18:10:44.424479  3202 net.cpp:58] Initializing net from parameters: 
state {
  phase: TRAIN
  level: 0
  stage: ""
}
layer {
  name: "data"
  type: "Data"
  top: "data"
  top: "label"
  data_param {
    source: "../../../../data/cifar-10/cifar10_train_lmdb"
    batch_size: 64
    backend: LMDB
  }
}
layer {
  name: "conv1"
  type: "Convolution"
  bottom: "data"
  top: "conv1"
  convolution_param {
    num_output: 192
    kernel_size: 5
    weight_filler {
      type: "xavier"
    }
  }
}
layer {
  name: "pool1"
  type: "Pooling"
  bottom: "conv1"
  top: "pool1"
  pooling_param {
    pool: MAX
    kernel_size: 2
    stride: 2
  }
}
layer {
  name: "drop1"
  type: "Dropout"
  bottom: "pool1"
  top: "drop1"
  dropout_param {
    dropout_ratio: 0
  }
}
layer {
  name: "elu1"
  type: "ELU"
  bottom: "drop1"
  top: "elu1"
}
layer {
  name: "conv2"
  type: "Convolution"
  bottom: "elu1"
  top: "conv2"
  convolution_param {
    num_output: 192
    kernel_size: 1
    weight_filler {
      type: "xavier"
    }
  }
}
layer {
  name: "conv3"
  type: "Convolution"
  bottom: "conv2"
  top: "conv3"
  convolution_param {
    num_output: 240
    kernel_size: 3
    weight_filler {
      type: "xavier"
    }
  }
}
layer {
  name: "pool2"
  type: "Pooling"
  bottom: "conv3"
  top: "pool2"
  pooling_param {
    pool: MAX
    kernel_size: 2
    stride: 2
  }
}
layer {
  name: "drop2"
  type: "Dropout"
  bottom: "pool2"
  top: "drop2"
  dropout_param {
    dropout_ratio: 0.1
  }
}
layer {
  name: "elu2"
  type: "ELU"
  bottom: "drop2"
  top: "elu2"
}
layer {
  name: "conv4"
  type: "Convolution"
  bottom: "elu2"
  top: "conv4"
  convolution_param {
    num_output: 240
    kernel_size: 1
    weight_filler {
      type: "xavier"
    }
  }
}
layer {
  name: "conv5"
  type: "Convolution"
  bottom: "conv4"
  top: "conv5"
  convolution_param {
    num_output: 260
    kernel_size: 2
    weight_filler {
      type: "xavier"
    }
  }
}
layer {
  name: "pool3"
  type: "Pooling"
  bottom: "conv5"
  top: "pool3"
  pooling_param {
    pool: MAX
    kernel_size: 2
    stride: 2
  }
}
layer {
  name: "drop3"
  type: "Dropout"
  bottom: "pool3"
  top: "drop3"
  dropout_param {
    dropout_ratio: 0.2
  }
}
layer {
  name: "elu3"
  type: "ELU"
  bottom: "drop3"
  top: "elu3"
}
layer {
  name: "conv6"
  type: "Convolution"
  bottom: "elu3"
  top: "conv6"
  convolution_param {
    num_output: 260
    kernel_size: 1
    weight_filler {
      type: "xavier"
    }
  }
}
layer {
  name: "conv7"
  type: "Convolution"
  bottom: "conv6"
  top: "conv7"
  convolution_param {
    num_output: 280
    kernel_size: 2
    weight_filler {
      type: "xavier"
    }
  }
}
layer {
  name: "pool4"
  type: "Pooling"
  bottom: "conv7"
  top: "pool4"
  pooling_param {
    pool: MAX
    kernel_size: 2
    stride: 2
  }
}
layer {
  name: "drop4"
  type: "Dropout"
  bottom: "pool4"
  top: "drop4"
  dropout_param {
    dropout_ratio: 0.3
  }
}
layer {
  name: "elu4"
  type: "ELU"
  bottom: "drop4"
  top: "elu4"
}
layer {
  name: "conv8"
  type: "Convolution"
  bottom: "elu4"
  top: "conv8"
  convolution_param {
    num_output: 280
    kernel_size: 1
    weight_filler {
      type: "xavier"
    }
  }
}
layer {
  name: "pool5"
  type: "Pooling"
  bottom: "conv8"
  top: "pool5"
  pooling_param {
    pool: MAX
    kernel_size: 2
    stride: 2
  }
}
layer {
  name: "drop5"
  type: "Dropout"
  bottom: "pool5"
  top: "drop5"
  dropout_param {
    dropout_ratio: 0.4
  }
}
layer {
  name: "elu5"
  type: "ELU"
  bottom: "drop5"
  top: "elu5"
}
layer {
  name: "conv10"
  type: "Convolution"
  bottom: "elu5"
  top: "conv10"
  convolution_param {
    num_output: 300
    kernel_size: 1
    weight_filler {
      type: "xavier"
    }
  }
}
layer {
  name: "pool6"
  type: "Pooling"
  bottom: "conv10"
  top: "pool6"
  pooling_param {
    pool: MAX
    kernel_size: 2
    stride: 2
  }
}
layer {
  name: "drop6"
  type: "Dropout"
  bottom: "pool6"
  top: "drop6"
  dropout_param {
    dropout_ratio: 0.5
  }
}
layer {
  name: "elu6"
  type: "ELU"
  bottom: "drop6"
  top: "elu6"
}
layer {
  name: "conv11"
  type: "Convolution"
  bottom: "elu6"
  top: "conv11"
  convolution_param {
    num_output: 100
    kernel_size: 1
    weight_filler {
      type: "xavier"
    }
  }
}
layer {
  name: "pool7"
  type: "Pooling"
  bottom: "conv11"
  top: "pool7"
  pooling_param {
    pool: MAX
    kernel_size: 2
    stride: 2
  }
}
layer {
  name: "drop7"
  type: "Dropout"
  bottom: "pool7"
  top: "drop7"
  dropout_param {
    dropout_ratio: 0
  }
}
layer {
  name: "elu7"
  type: "ELU"
  bottom: "drop7"
  top: "elu7"
}
layer {
  name: "pool"
  type: "Pooling"
  bottom: "elu7"
  top: "pool"
  pooling_param {
    pool: AVE
    global_pooling: true
  }
}
layer {
  name: "flatten"
  type: "Flatten"
  bottom: "pool"
  top: "flatten"
}
layer {
  name: "score"
  type: "InnerProduct"
  bottom: "flatten"
  top: "score"
  inner_product_param {
    num_output: 10
    weight_filler {
      type: "gaussian"
    }
  }
}
layer {
  name: "accuracy"
  type: "Accuracy"
  bottom: "score"
  bottom: "label"
  top: "accuracy"
}
layer {
  name: "loss"
  type: "SoftmaxWithLoss"
  bottom: "score"
  bottom: "label"
  top: "loss"
}
I1017 18:10:44.446671  3202 layer_factory.hpp:77] Creating layer data
I1017 18:10:44.453440  3202 net.cpp:100] Creating Layer data
I1017 18:10:44.453483  3202 net.cpp:408] data -> data
I1017 18:10:44.453533  3202 net.cpp:408] data -> label
I1017 18:10:44.516005  3208 db_lmdb.cpp:35] Opened lmdb ../../../../data/cifar-10/cifar10_train_lmdb
I1017 18:10:44.711959  3202 data_layer.cpp:41] output data size: 64,3,32,32
I1017 18:10:44.716709  3202 net.cpp:150] Setting up data
I1017 18:10:44.716771  3202 net.cpp:157] Top shape: 64 3 32 32 (196608)
I1017 18:10:44.716786  3202 net.cpp:157] Top shape: 64 (64)
I1017 18:10:44.716795  3202 net.cpp:165] Memory required for data: 786688
I1017 18:10:44.716820  3202 layer_factory.hpp:77] Creating layer label_data_1_split
I1017 18:10:44.716845  3202 net.cpp:100] Creating Layer label_data_1_split
I1017 18:10:44.716868  3202 net.cpp:434] label_data_1_split <- label
I1017 18:10:44.716917  3202 net.cpp:408] label_data_1_split -> label_data_1_split_0
I1017 18:10:44.716967  3202 net.cpp:408] label_data_1_split -> label_data_1_split_1
I1017 18:10:44.717128  3202 net.cpp:150] Setting up label_data_1_split
I1017 18:10:44.717154  3202 net.cpp:157] Top shape: 64 (64)
I1017 18:10:44.717164  3202 net.cpp:157] Top shape: 64 (64)
I1017 18:10:44.717172  3202 net.cpp:165] Memory required for data: 787200
I1017 18:10:44.717181  3202 layer_factory.hpp:77] Creating layer conv1
I1017 18:10:44.717226  3202 net.cpp:100] Creating Layer conv1
I1017 18:10:44.717242  3202 net.cpp:434] conv1 <- data
I1017 18:10:44.717272  3202 net.cpp:408] conv1 -> conv1
I1017 18:10:46.265812  3202 net.cpp:150] Setting up conv1
I1017 18:10:46.265882  3202 net.cpp:157] Top shape: 64 192 28 28 (9633792)
I1017 18:10:46.265893  3202 net.cpp:165] Memory required for data: 39322368
I1017 18:10:46.265951  3202 layer_factory.hpp:77] Creating layer pool1
I1017 18:10:46.265977  3202 net.cpp:100] Creating Layer pool1
I1017 18:10:46.265993  3202 net.cpp:434] pool1 <- conv1
I1017 18:10:46.266010  3202 net.cpp:408] pool1 -> pool1
I1017 18:10:46.266201  3202 net.cpp:150] Setting up pool1
I1017 18:10:46.266223  3202 net.cpp:157] Top shape: 64 192 14 14 (2408448)
I1017 18:10:46.266232  3202 net.cpp:165] Memory required for data: 48956160
I1017 18:10:46.266285  3202 layer_factory.hpp:77] Creating layer drop1
I1017 18:10:46.266312  3202 net.cpp:100] Creating Layer drop1
I1017 18:10:46.266330  3202 net.cpp:434] drop1 <- pool1
I1017 18:10:46.266345  3202 net.cpp:408] drop1 -> drop1
I1017 18:10:46.266479  3202 net.cpp:150] Setting up drop1
I1017 18:10:46.266504  3202 net.cpp:157] Top shape: 64 192 14 14 (2408448)
I1017 18:10:46.266511  3202 net.cpp:165] Memory required for data: 58589952
I1017 18:10:46.266520  3202 layer_factory.hpp:77] Creating layer elu1
I1017 18:10:46.266532  3202 net.cpp:100] Creating Layer elu1
I1017 18:10:46.266544  3202 net.cpp:434] elu1 <- drop1
I1017 18:10:46.266556  3202 net.cpp:408] elu1 -> elu1
I1017 18:10:46.266615  3202 net.cpp:150] Setting up elu1
I1017 18:10:46.266633  3202 net.cpp:157] Top shape: 64 192 14 14 (2408448)
I1017 18:10:46.266644  3202 net.cpp:165] Memory required for data: 68223744
I1017 18:10:46.266651  3202 layer_factory.hpp:77] Creating layer conv2
I1017 18:10:46.266677  3202 net.cpp:100] Creating Layer conv2
I1017 18:10:46.266690  3202 net.cpp:434] conv2 <- elu1
I1017 18:10:46.266705  3202 net.cpp:408] conv2 -> conv2
I1017 18:10:46.271332  3202 net.cpp:150] Setting up conv2
I1017 18:10:46.271373  3202 net.cpp:157] Top shape: 64 192 14 14 (2408448)
I1017 18:10:46.271384  3202 net.cpp:165] Memory required for data: 77857536
I1017 18:10:46.271414  3202 layer_factory.hpp:77] Creating layer conv3
I1017 18:10:46.271441  3202 net.cpp:100] Creating Layer conv3
I1017 18:10:46.271453  3202 net.cpp:434] conv3 <- conv2
I1017 18:10:46.271473  3202 net.cpp:408] conv3 -> conv3
I1017 18:10:46.283658  3202 net.cpp:150] Setting up conv3
I1017 18:10:46.283712  3202 net.cpp:157] Top shape: 64 240 12 12 (2211840)
I1017 18:10:46.283722  3202 net.cpp:165] Memory required for data: 86704896
I1017 18:10:46.283759  3202 layer_factory.hpp:77] Creating layer pool2
I1017 18:10:46.283793  3202 net.cpp:100] Creating Layer pool2
I1017 18:10:46.283805  3202 net.cpp:434] pool2 <- conv3
I1017 18:10:46.283821  3202 net.cpp:408] pool2 -> pool2
I1017 18:10:46.283972  3202 net.cpp:150] Setting up pool2
I1017 18:10:46.283998  3202 net.cpp:157] Top shape: 64 240 6 6 (552960)
I1017 18:10:46.284008  3202 net.cpp:165] Memory required for data: 88916736
I1017 18:10:46.284015  3202 layer_factory.hpp:77] Creating layer drop2
I1017 18:10:46.284030  3202 net.cpp:100] Creating Layer drop2
I1017 18:10:46.284042  3202 net.cpp:434] drop2 <- pool2
I1017 18:10:46.284055  3202 net.cpp:408] drop2 -> drop2
I1017 18:10:46.284165  3202 net.cpp:150] Setting up drop2
I1017 18:10:46.284185  3202 net.cpp:157] Top shape: 64 240 6 6 (552960)
I1017 18:10:46.284195  3202 net.cpp:165] Memory required for data: 91128576
I1017 18:10:46.284204  3202 layer_factory.hpp:77] Creating layer elu2
I1017 18:10:46.284216  3202 net.cpp:100] Creating Layer elu2
I1017 18:10:46.284224  3202 net.cpp:434] elu2 <- drop2
I1017 18:10:46.284241  3202 net.cpp:408] elu2 -> elu2
I1017 18:10:46.284308  3202 net.cpp:150] Setting up elu2
I1017 18:10:46.284328  3202 net.cpp:157] Top shape: 64 240 6 6 (552960)
I1017 18:10:46.284337  3202 net.cpp:165] Memory required for data: 93340416
I1017 18:10:46.284346  3202 layer_factory.hpp:77] Creating layer conv4
I1017 18:10:46.284371  3202 net.cpp:100] Creating Layer conv4
I1017 18:10:46.284384  3202 net.cpp:434] conv4 <- elu2
I1017 18:10:46.284399  3202 net.cpp:408] conv4 -> conv4
I1017 18:10:46.288300  3202 net.cpp:150] Setting up conv4
I1017 18:10:46.288339  3202 net.cpp:157] Top shape: 64 240 6 6 (552960)
I1017 18:10:46.288352  3202 net.cpp:165] Memory required for data: 95552256
I1017 18:10:46.288372  3202 layer_factory.hpp:77] Creating layer conv5
I1017 18:10:46.288398  3202 net.cpp:100] Creating Layer conv5
I1017 18:10:46.288408  3202 net.cpp:434] conv5 <- conv4
I1017 18:10:46.288429  3202 net.cpp:408] conv5 -> conv5
I1017 18:10:46.294602  3202 net.cpp:150] Setting up conv5
I1017 18:10:46.294638  3202 net.cpp:157] Top shape: 64 260 5 5 (416000)
I1017 18:10:46.294652  3202 net.cpp:165] Memory required for data: 97216256
I1017 18:10:46.294713  3202 layer_factory.hpp:77] Creating layer pool3
I1017 18:10:46.294736  3202 net.cpp:100] Creating Layer pool3
I1017 18:10:46.294752  3202 net.cpp:434] pool3 <- conv5
I1017 18:10:46.294775  3202 net.cpp:408] pool3 -> pool3
I1017 18:10:46.294900  3202 net.cpp:150] Setting up pool3
I1017 18:10:46.294927  3202 net.cpp:157] Top shape: 64 260 3 3 (149760)
I1017 18:10:46.294942  3202 net.cpp:165] Memory required for data: 97815296
I1017 18:10:46.294952  3202 layer_factory.hpp:77] Creating layer drop3
I1017 18:10:46.294970  3202 net.cpp:100] Creating Layer drop3
I1017 18:10:46.294982  3202 net.cpp:434] drop3 <- pool3
I1017 18:10:46.295001  3202 net.cpp:408] drop3 -> drop3
I1017 18:10:46.295115  3202 net.cpp:150] Setting up drop3
I1017 18:10:46.295136  3202 net.cpp:157] Top shape: 64 260 3 3 (149760)
I1017 18:10:46.295147  3202 net.cpp:165] Memory required for data: 98414336
I1017 18:10:46.295161  3202 layer_factory.hpp:77] Creating layer elu3
I1017 18:10:46.295195  3202 net.cpp:100] Creating Layer elu3
I1017 18:10:46.295204  3202 net.cpp:434] elu3 <- drop3
I1017 18:10:46.295214  3202 net.cpp:408] elu3 -> elu3
I1017 18:10:46.295263  3202 net.cpp:150] Setting up elu3
I1017 18:10:46.295276  3202 net.cpp:157] Top shape: 64 260 3 3 (149760)
I1017 18:10:46.295285  3202 net.cpp:165] Memory required for data: 99013376
I1017 18:10:46.295292  3202 layer_factory.hpp:77] Creating layer conv6
I1017 18:10:46.295316  3202 net.cpp:100] Creating Layer conv6
I1017 18:10:46.295326  3202 net.cpp:434] conv6 <- elu3
I1017 18:10:46.295341  3202 net.cpp:408] conv6 -> conv6
I1017 18:10:46.298182  3202 net.cpp:150] Setting up conv6
I1017 18:10:46.298207  3202 net.cpp:157] Top shape: 64 260 3 3 (149760)
I1017 18:10:46.298213  3202 net.cpp:165] Memory required for data: 99612416
I1017 18:10:46.298223  3202 layer_factory.hpp:77] Creating layer conv7
I1017 18:10:46.298238  3202 net.cpp:100] Creating Layer conv7
I1017 18:10:46.298245  3202 net.cpp:434] conv7 <- conv6
I1017 18:10:46.298254  3202 net.cpp:408] conv7 -> conv7
I1017 18:10:46.302244  3202 net.cpp:150] Setting up conv7
I1017 18:10:46.302261  3202 net.cpp:157] Top shape: 64 280 2 2 (71680)
I1017 18:10:46.302268  3202 net.cpp:165] Memory required for data: 99899136
I1017 18:10:46.302275  3202 layer_factory.hpp:77] Creating layer pool4
I1017 18:10:46.302284  3202 net.cpp:100] Creating Layer pool4
I1017 18:10:46.302289  3202 net.cpp:434] pool4 <- conv7
I1017 18:10:46.302296  3202 net.cpp:408] pool4 -> pool4
I1017 18:10:46.302347  3202 net.cpp:150] Setting up pool4
I1017 18:10:46.302356  3202 net.cpp:157] Top shape: 64 280 1 1 (17920)
I1017 18:10:46.302358  3202 net.cpp:165] Memory required for data: 99970816
I1017 18:10:46.302363  3202 layer_factory.hpp:77] Creating layer drop4
I1017 18:10:46.302369  3202 net.cpp:100] Creating Layer drop4
I1017 18:10:46.302373  3202 net.cpp:434] drop4 <- pool4
I1017 18:10:46.302379  3202 net.cpp:408] drop4 -> drop4
I1017 18:10:46.302423  3202 net.cpp:150] Setting up drop4
I1017 18:10:46.302431  3202 net.cpp:157] Top shape: 64 280 1 1 (17920)
I1017 18:10:46.302436  3202 net.cpp:165] Memory required for data: 100042496
I1017 18:10:46.302439  3202 layer_factory.hpp:77] Creating layer elu4
I1017 18:10:46.302445  3202 net.cpp:100] Creating Layer elu4
I1017 18:10:46.302449  3202 net.cpp:434] elu4 <- drop4
I1017 18:10:46.302454  3202 net.cpp:408] elu4 -> elu4
I1017 18:10:46.302482  3202 net.cpp:150] Setting up elu4
I1017 18:10:46.302491  3202 net.cpp:157] Top shape: 64 280 1 1 (17920)
I1017 18:10:46.302495  3202 net.cpp:165] Memory required for data: 100114176
I1017 18:10:46.302497  3202 layer_factory.hpp:77] Creating layer conv8
I1017 18:10:46.302507  3202 net.cpp:100] Creating Layer conv8
I1017 18:10:46.302513  3202 net.cpp:434] conv8 <- elu4
I1017 18:10:46.302520  3202 net.cpp:408] conv8 -> conv8
I1017 18:10:46.304250  3202 net.cpp:150] Setting up conv8
I1017 18:10:46.304265  3202 net.cpp:157] Top shape: 64 280 1 1 (17920)
I1017 18:10:46.304271  3202 net.cpp:165] Memory required for data: 100185856
I1017 18:10:46.304278  3202 layer_factory.hpp:77] Creating layer pool5
I1017 18:10:46.304301  3202 net.cpp:100] Creating Layer pool5
I1017 18:10:46.304306  3202 net.cpp:434] pool5 <- conv8
I1017 18:10:46.304314  3202 net.cpp:408] pool5 -> pool5
I1017 18:10:46.304363  3202 net.cpp:150] Setting up pool5
I1017 18:10:46.304371  3202 net.cpp:157] Top shape: 64 280 1 1 (17920)
I1017 18:10:46.304374  3202 net.cpp:165] Memory required for data: 100257536
I1017 18:10:46.304378  3202 layer_factory.hpp:77] Creating layer drop5
I1017 18:10:46.304385  3202 net.cpp:100] Creating Layer drop5
I1017 18:10:46.304390  3202 net.cpp:434] drop5 <- pool5
I1017 18:10:46.304395  3202 net.cpp:408] drop5 -> drop5
I1017 18:10:46.304443  3202 net.cpp:150] Setting up drop5
I1017 18:10:46.304452  3202 net.cpp:157] Top shape: 64 280 1 1 (17920)
I1017 18:10:46.304455  3202 net.cpp:165] Memory required for data: 100329216
I1017 18:10:46.304458  3202 layer_factory.hpp:77] Creating layer elu5
I1017 18:10:46.304464  3202 net.cpp:100] Creating Layer elu5
I1017 18:10:46.304468  3202 net.cpp:434] elu5 <- drop5
I1017 18:10:46.304474  3202 net.cpp:408] elu5 -> elu5
I1017 18:10:46.304502  3202 net.cpp:150] Setting up elu5
I1017 18:10:46.304512  3202 net.cpp:157] Top shape: 64 280 1 1 (17920)
I1017 18:10:46.304517  3202 net.cpp:165] Memory required for data: 100400896
I1017 18:10:46.304520  3202 layer_factory.hpp:77] Creating layer conv10
I1017 18:10:46.304527  3202 net.cpp:100] Creating Layer conv10
I1017 18:10:46.304533  3202 net.cpp:434] conv10 <- elu5
I1017 18:10:46.304540  3202 net.cpp:408] conv10 -> conv10
I1017 18:10:46.306162  3202 net.cpp:150] Setting up conv10
I1017 18:10:46.306176  3202 net.cpp:157] Top shape: 64 300 1 1 (19200)
I1017 18:10:46.306181  3202 net.cpp:165] Memory required for data: 100477696
I1017 18:10:46.306191  3202 layer_factory.hpp:77] Creating layer pool6
I1017 18:10:46.306200  3202 net.cpp:100] Creating Layer pool6
I1017 18:10:46.306205  3202 net.cpp:434] pool6 <- conv10
I1017 18:10:46.306210  3202 net.cpp:408] pool6 -> pool6
I1017 18:10:46.306254  3202 net.cpp:150] Setting up pool6
I1017 18:10:46.306260  3202 net.cpp:157] Top shape: 64 300 1 1 (19200)
I1017 18:10:46.306263  3202 net.cpp:165] Memory required for data: 100554496
I1017 18:10:46.306267  3202 layer_factory.hpp:77] Creating layer drop6
I1017 18:10:46.306272  3202 net.cpp:100] Creating Layer drop6
I1017 18:10:46.306274  3202 net.cpp:434] drop6 <- pool6
I1017 18:10:46.306280  3202 net.cpp:408] drop6 -> drop6
I1017 18:10:46.306315  3202 net.cpp:150] Setting up drop6
I1017 18:10:46.306324  3202 net.cpp:157] Top shape: 64 300 1 1 (19200)
I1017 18:10:46.306326  3202 net.cpp:165] Memory required for data: 100631296
I1017 18:10:46.306329  3202 layer_factory.hpp:77] Creating layer elu6
I1017 18:10:46.306334  3202 net.cpp:100] Creating Layer elu6
I1017 18:10:46.306337  3202 net.cpp:434] elu6 <- drop6
I1017 18:10:46.306341  3202 net.cpp:408] elu6 -> elu6
I1017 18:10:46.306361  3202 net.cpp:150] Setting up elu6
I1017 18:10:46.306368  3202 net.cpp:157] Top shape: 64 300 1 1 (19200)
I1017 18:10:46.306371  3202 net.cpp:165] Memory required for data: 100708096
I1017 18:10:46.306373  3202 layer_factory.hpp:77] Creating layer conv11
I1017 18:10:46.306381  3202 net.cpp:100] Creating Layer conv11
I1017 18:10:46.306385  3202 net.cpp:434] conv11 <- elu6
I1017 18:10:46.306391  3202 net.cpp:408] conv11 -> conv11
I1017 18:10:46.307659  3202 net.cpp:150] Setting up conv11
I1017 18:10:46.307672  3202 net.cpp:157] Top shape: 64 100 1 1 (6400)
I1017 18:10:46.307677  3202 net.cpp:165] Memory required for data: 100733696
I1017 18:10:46.307682  3202 layer_factory.hpp:77] Creating layer pool7
I1017 18:10:46.307687  3202 net.cpp:100] Creating Layer pool7
I1017 18:10:46.307693  3202 net.cpp:434] pool7 <- conv11
I1017 18:10:46.307699  3202 net.cpp:408] pool7 -> pool7
I1017 18:10:46.307742  3202 net.cpp:150] Setting up pool7
I1017 18:10:46.307750  3202 net.cpp:157] Top shape: 64 100 1 1 (6400)
I1017 18:10:46.307754  3202 net.cpp:165] Memory required for data: 100759296
I1017 18:10:46.307759  3202 layer_factory.hpp:77] Creating layer drop7
I1017 18:10:46.307775  3202 net.cpp:100] Creating Layer drop7
I1017 18:10:46.307778  3202 net.cpp:434] drop7 <- pool7
I1017 18:10:46.307783  3202 net.cpp:408] drop7 -> drop7
I1017 18:10:46.307821  3202 net.cpp:150] Setting up drop7
I1017 18:10:46.307828  3202 net.cpp:157] Top shape: 64 100 1 1 (6400)
I1017 18:10:46.307831  3202 net.cpp:165] Memory required for data: 100784896
I1017 18:10:46.307833  3202 layer_factory.hpp:77] Creating layer elu7
I1017 18:10:46.307843  3202 net.cpp:100] Creating Layer elu7
I1017 18:10:46.307848  3202 net.cpp:434] elu7 <- drop7
I1017 18:10:46.307852  3202 net.cpp:408] elu7 -> elu7
I1017 18:10:46.307873  3202 net.cpp:150] Setting up elu7
I1017 18:10:46.307880  3202 net.cpp:157] Top shape: 64 100 1 1 (6400)
I1017 18:10:46.307883  3202 net.cpp:165] Memory required for data: 100810496
I1017 18:10:46.307885  3202 layer_factory.hpp:77] Creating layer pool
I1017 18:10:46.307891  3202 net.cpp:100] Creating Layer pool
I1017 18:10:46.307895  3202 net.cpp:434] pool <- elu7
I1017 18:10:46.307899  3202 net.cpp:408] pool -> pool
I1017 18:10:46.308096  3202 net.cpp:150] Setting up pool
I1017 18:10:46.308105  3202 net.cpp:157] Top shape: 64 100 1 1 (6400)
I1017 18:10:46.308109  3202 net.cpp:165] Memory required for data: 100836096
I1017 18:10:46.308112  3202 layer_factory.hpp:77] Creating layer flatten
I1017 18:10:46.308117  3202 net.cpp:100] Creating Layer flatten
I1017 18:10:46.308120  3202 net.cpp:434] flatten <- pool
I1017 18:10:46.308126  3202 net.cpp:408] flatten -> flatten
I1017 18:10:46.308151  3202 net.cpp:150] Setting up flatten
I1017 18:10:46.308157  3202 net.cpp:157] Top shape: 64 100 (6400)
I1017 18:10:46.308161  3202 net.cpp:165] Memory required for data: 100861696
I1017 18:10:46.308163  3202 layer_factory.hpp:77] Creating layer score
I1017 18:10:46.308171  3202 net.cpp:100] Creating Layer score
I1017 18:10:46.308174  3202 net.cpp:434] score <- flatten
I1017 18:10:46.308181  3202 net.cpp:408] score -> score
I1017 18:10:46.308323  3202 net.cpp:150] Setting up score
I1017 18:10:46.308329  3202 net.cpp:157] Top shape: 64 10 (640)
I1017 18:10:46.308332  3202 net.cpp:165] Memory required for data: 100864256
I1017 18:10:46.308338  3202 layer_factory.hpp:77] Creating layer score_score_0_split
I1017 18:10:46.308346  3202 net.cpp:100] Creating Layer score_score_0_split
I1017 18:10:46.308349  3202 net.cpp:434] score_score_0_split <- score
I1017 18:10:46.308357  3202 net.cpp:408] score_score_0_split -> score_score_0_split_0
I1017 18:10:46.308363  3202 net.cpp:408] score_score_0_split -> score_score_0_split_1
I1017 18:10:46.308403  3202 net.cpp:150] Setting up score_score_0_split
I1017 18:10:46.308408  3202 net.cpp:157] Top shape: 64 10 (640)
I1017 18:10:46.308411  3202 net.cpp:157] Top shape: 64 10 (640)
I1017 18:10:46.308413  3202 net.cpp:165] Memory required for data: 100869376
I1017 18:10:46.308418  3202 layer_factory.hpp:77] Creating layer accuracy
I1017 18:10:46.308424  3202 net.cpp:100] Creating Layer accuracy
I1017 18:10:46.308429  3202 net.cpp:434] accuracy <- score_score_0_split_0
I1017 18:10:46.308432  3202 net.cpp:434] accuracy <- label_data_1_split_0
I1017 18:10:46.308439  3202 net.cpp:408] accuracy -> accuracy
…
I1017 18:10:46.309051  3202 net.cpp:270] This network produces output loss
I1017 18:10:46.309078  3202 net.cpp:283] Network initialization done.
I1017 18:10:46.309353  3202 solver.cpp:181] Creating test net (#0) specified by test_net file: /home/adam/Honours/Honours-Project/cifar-10_pooling/max/elu/poolcnn_elu_test.prototxt
I1017 18:10:46.309530  3202 net.cpp:58] Initializing net from parameters: 
state {
  phase: TEST
}
layer {
  name: "data"
  type: "Data"
  top: "data"
  top: "label"
  data_param {
    source: "../../../../data/cifar-10/cifar10_test_lmdb"
    batch_size: 100
    backend: LMDB
  }
}
layer {
  name: "conv1"
  type: "Convolution"
  bottom: "data"
  top: "conv1"
  convolution_param {
    num_output: 192
    kernel_size: 5
    weight_filler {
      type: "xavier"
    }
  }
}
layer {
  name: "pool1"
  type: "Pooling"
  bottom: "conv1"
  top: "pool1"
  pooling_param {
    pool: MAX
    kernel_size: 2
    stride: 2
  }
}
layer {
  name: "drop1"
  type: "Dropout"
  bottom: "pool1"
  top: "drop1"
  dropout_param {
    dropout_ratio: 0
  }
}
layer {
  name: "elu1"
  type: "ELU"
  bottom: "drop1"
  top: "elu1"
}
layer {
  name: "conv2"
  type: "Convolution"
  bottom: "elu1"
  top: "conv2"
  convolution_param {
    num_output: 192
    kernel_size: 1
    weight_filler {
      type: "xavier"
    }
  }
}
layer {
  name: "conv3"
  type: "Convolution"
  bottom: "conv2"
  top: "conv3"
  convolution_param {
    num_output: 240
    kernel_size: 3
    weight_filler {
      type: "xavier"
    }
  }
}
layer {
  name: "pool2"
  type: "Pooling"
  bottom: "conv3"
  top: "pool2"
  pooling_param {
    pool: MAX
    kernel_size: 2
    stride: 2
  }
}
layer {
  name: "drop2"
  type: "Dropout"
  bottom: "pool2"
  top: "drop2"
  dropout_param {
    dropout_ratio: 0.1
  }
}
layer {
  name: "elu2"
  type: "ELU"
  bottom: "drop2"
  top: "elu2"
}
layer {
  name: "conv4"
  type: "Convolution"
  bottom: "elu2"
  top: "conv4"
  convolution_param {
    num_output: 240
    kernel_size: 1
    weight_filler {
      type: "xavier"
    }
  }
}
layer {
  name: "conv5"
  type: "Convolution"
  bottom: "conv4"
  top: "conv5"
  convolution_param {
    num_output: 260
    kernel_size: 2
    weight_filler {
      type: "xavier"
    }
  }
}
layer {
  name: "pool3"
  type: "Pooling"
  bottom: "conv5"
  top: "pool3"
  pooling_param {
    pool: MAX
    kernel_size: 2
    stride: 2
  }
}
layer {
  name: "drop3"
  type: "Dropout"
  bottom: "pool3"
  top: "drop3"
  dropout_param {
    dropout_ratio: 0.2
  }
}
layer {
  name: "elu3"
  type: "ELU"
  bottom: "drop3"
  top: "elu3"
}
layer {
  name: "conv6"
  type: "Convolution"
  bottom: "elu3"
  top: "conv6"
  convolution_param {
    num_output: 260
    kernel_size: 1
    weight_filler {
      type: "xavier"
    }
  }
}
layer {
  name: "conv7"
  type: "Convolution"
  bottom: "conv6"
  top: "conv7"
  convolution_param {
    num_output: 280
    kernel_size: 2
    weight_filler {
      type: "xavier"
    }
  }
}
layer {
  name: "pool4"
  type: "Pooling"
  bottom: "conv7"
  top: "pool4"
  pooling_param {
    pool: MAX
    kernel_size: 2
    stride: 2
  }
}
layer {
  name: "drop4"
  type: "Dropout"
  bottom: "pool4"
  top: "drop4"
  dropout_param {
    dropout_ratio: 0.3
  }
}
layer {
  name: "elu4"
  type: "ELU"
  bottom: "drop4"
  top: "elu4"
}
layer {
  name: "conv8"
  type: "Convolution"
  bottom: "elu4"
  top: "conv8"
  convolution_param {
    num_output: 280
    kernel_size: 1
    weight_filler {
      type: "xavier"
    }
  }
}
layer {
  name: "pool5"
  type: "Pooling"
  bottom: "conv8"
  top: "pool5"
  pooling_param {
    pool: MAX
    kernel_size: 2
    stride: 2
  }
}
layer {
  name: "drop5"
  type: "Dropout"
  bottom: "pool5"
  top: "drop5"
  dropout_param {
    dropout_ratio: 0.4
  }
}
layer {
  name: "elu5"
  type: "ELU"
  bottom: "drop5"
  top: "elu5"
}
layer {
  name: "conv10"
  type: "Convolution"
  bottom: "elu5"
  top: "conv10"
  convolution_param {
    num_output: 300
    kernel_size: 1
    weight_filler {
      type: "xavier"
    }
  }
}
layer {
  name: "pool6"
  type: "Pooling"
  bottom: "conv10"
  top: "pool6"
  pooling_param {
    pool: MAX
    kernel_size: 2
    stride: 2
  }
}
layer {
  name: "drop6"
  type: "Dropout"
  bottom: "pool6"
  top: "drop6"
  dropout_param {
    dropout_ratio: 0.5
  }
}
layer {
  name: "elu6"
  type: "ELU"
  bottom: "drop6"
  top: "elu6"
}
layer {
  name: "conv11"
  type: "Convolution"
  bottom: "elu6"
  top: "conv11"
  convolution_param {
    num_output: 100
    kernel_size: 1
    weight_filler {
      type: "xavier"
    }
  }
}
layer {
  name: "pool7"
  type: "Pooling"
  bottom: "conv11"
  top: "pool7"
  pooling_param {
    pool: MAX
    kernel_size: 2
    stride: 2
  }
}
layer {
  name: "drop7"
  type: "Dropout"
  bottom: "pool7"
  top: "drop7"
  dropout_param {
    dropout_ratio: 0
  }
}
layer {
  name: "elu7"
  type: "ELU"
  bottom: "drop7"
  top: "elu7"
}
layer {
  name: "pool"
  type: "Pooling"
  bottom: "elu7"
  top: "pool"
  pooling_param {
    pool: AVE
    global_pooling: true
  }
}
layer {
  name: "flatten"
  type: "Flatten"
  bottom: "pool"
  top: "flatten"
}
layer {
  name: "score"
  type: "InnerProduct"
  bottom: "flatten"
  top: "score"
  inner_product_param {
    num_output: 10
    weight_filler {
      type: "gaussian"
    }
  }
}
layer {
  name: "accuracy"
  type: "Accuracy"
  bottom: "score"
  bottom: "label"
  top: "accuracy"
}
layer {
  name: "loss"
  type: "SoftmaxWithLoss"
  bottom: "score"
  bottom: "label"
  top: "loss"
}
I1017 18:10:46.309653  3202 layer_factory.hpp:77] Creating layer data
I1017 18:10:46.309787  3202 net.cpp:100] Creating Layer data
I1017 18:10:46.309798  3202 net.cpp:408] data -> data
I1017 18:10:46.309805  3202 net.cpp:408] data -> label
I1017 18:10:46.355417  3210 db_lmdb.cpp:35] Opened lmdb ../../../../data/cifar-10/cifar10_test_lmdb
I1017 18:10:46.361685  3202 data_layer.cpp:41] output data size: 100,3,32,32
I1017 18:10:46.364763  3202 net.cpp:150] Setting up data
I1017 18:10:46.364792  3202 net.cpp:157] Top shape: 100 3 32 32 (307200)
I1017 18:10:46.364799  3202 net.cpp:157] Top shape: 100 (100)
I1017 18:10:46.364805  3202 net.cpp:165] Memory required for data: 1229200
I1017 18:10:46.364814  3202 layer_factory.hpp:77] Creating layer label_data_1_split
I1017 18:10:46.364830  3202 net.cpp:100] Creating Layer label_data_1_split
I1017 18:10:46.364835  3202 net.cpp:434] label_data_1_split <- label
I1017 18:10:46.364848  3202 net.cpp:408] label_data_1_split -> label_data_1_split_0
I1017 18:10:46.364862  3202 net.cpp:408] label_data_1_split -> label_data_1_split_1
I1017 18:10:46.365066  3202 net.cpp:150] Setting up label_data_1_split
I1017 18:10:46.365088  3202 net.cpp:157] Top shape: 100 (100)
I1017 18:10:46.365094  3202 net.cpp:157] Top shape: 100 (100)
I1017 18:10:46.365098  3202 net.cpp:165] Memory required for data: 1230000
I1017 18:10:46.365103  3202 layer_factory.hpp:77] Creating layer conv1
I1017 18:10:46.365123  3202 net.cpp:100] Creating Layer conv1
I1017 18:10:46.365128  3202 net.cpp:434] conv1 <- data
I1017 18:10:46.365136  3202 net.cpp:408] conv1 -> conv1
I1017 18:10:46.367483  3202 net.cpp:150] Setting up conv1
I1017 18:10:46.367512  3202 net.cpp:157] Top shape: 100 192 28 28 (15052800)
I1017 18:10:46.367524  3202 net.cpp:165] Memory required for data: 61441200
I1017 18:10:46.367545  3202 layer_factory.hpp:77] Creating layer pool1
I1017 18:10:46.367560  3202 net.cpp:100] Creating Layer pool1
I1017 18:10:46.367571  3202 net.cpp:434] pool1 <- conv1
I1017 18:10:46.367583  3202 net.cpp:408] pool1 -> pool1
I1017 18:10:46.367662  3202 net.cpp:150] Setting up pool1
I1017 18:10:46.367676  3202 net.cpp:157] Top shape: 100 192 14 14 (3763200)
I1017 18:10:46.367697  3202 net.cpp:165] Memory required for data: 76494000
I1017 18:10:46.367702  3202 layer_factory.hpp:77] Creating layer drop1
I1017 18:10:46.367719  3202 net.cpp:100] Creating Layer drop1
I1017 18:10:46.367725  3202 net.cpp:434] drop1 <- pool1
I1017 18:10:46.367738  3202 net.cpp:408] drop1 -> drop1
I1017 18:10:46.367808  3202 net.cpp:150] Setting up drop1
I1017 18:10:46.367821  3202 net.cpp:157] Top shape: 100 192 14 14 (3763200)
I1017 18:10:46.367827  3202 net.cpp:165] Memory required for data: 91546800
I1017 18:10:46.367832  3202 layer_factory.hpp:77] Creating layer elu1
I1017 18:10:46.367841  3202 net.cpp:100] Creating Layer elu1
I1017 18:10:46.367846  3202 net.cpp:434] elu1 <- drop1
I1017 18:10:46.367854  3202 net.cpp:408] elu1 -> elu1
I1017 18:10:46.367892  3202 net.cpp:150] Setting up elu1
I1017 18:10:46.367903  3202 net.cpp:157] Top shape: 100 192 14 14 (3763200)
I1017 18:10:46.367908  3202 net.cpp:165] Memory required for data: 106599600
I1017 18:10:46.367925  3202 layer_factory.hpp:77] Creating layer conv2
I1017 18:10:46.367941  3202 net.cpp:100] Creating Layer conv2
I1017 18:10:46.367947  3202 net.cpp:434] conv2 <- elu1
I1017 18:10:46.367959  3202 net.cpp:408] conv2 -> conv2
I1017 18:10:46.370082  3202 net.cpp:150] Setting up conv2
I1017 18:10:46.370093  3211 blocking_queue.cpp:50] Waiting for data
I1017 18:10:46.370105  3202 net.cpp:157] Top shape: 100 192 14 14 (3763200)
I1017 18:10:46.370126  3202 net.cpp:165] Memory required for data: 121652400
I1017 18:10:46.370142  3202 layer_factory.hpp:77] Creating layer conv3
I1017 18:10:46.370158  3202 net.cpp:100] Creating Layer conv3
I1017 18:10:46.370187  3202 net.cpp:434] conv3 <- conv2
I1017 18:10:46.370198  3202 net.cpp:408] conv3 -> conv3
I1017 18:10:46.372674  3202 net.cpp:150] Setting up conv3
I1017 18:10:46.372684  3202 net.cpp:157] Top shape: 100 240 12 12 (3456000)
I1017 18:10:46.372685  3202 net.cpp:165] Memory required for data: 135476400
I1017 18:10:46.372690  3202 layer_factory.hpp:77] Creating layer pool2
I1017 18:10:46.372696  3202 net.cpp:100] Creating Layer pool2
I1017 18:10:46.372699  3202 net.cpp:434] pool2 <- conv3
I1017 18:10:46.372701  3202 net.cpp:408] pool2 -> pool2
I1017 18:10:46.372728  3202 net.cpp:150] Setting up pool2
I1017 18:10:46.372733  3202 net.cpp:157] Top shape: 100 240 6 6 (864000)
I1017 18:10:46.372735  3202 net.cpp:165] Memory required for data: 138932400
I1017 18:10:46.372736  3202 layer_factory.hpp:77] Creating layer drop2
I1017 18:10:46.372740  3202 net.cpp:100] Creating Layer drop2
I1017 18:10:46.372742  3202 net.cpp:434] drop2 <- pool2
I1017 18:10:46.372745  3202 net.cpp:408] drop2 -> drop2
I1017 18:10:46.372767  3202 net.cpp:150] Setting up drop2
I1017 18:10:46.372771  3202 net.cpp:157] Top shape: 100 240 6 6 (864000)
I1017 18:10:46.372772  3202 net.cpp:165] Memory required for data: 142388400
I1017 18:10:46.372773  3202 layer_factory.hpp:77] Creating layer elu2
I1017 18:10:46.372777  3202 net.cpp:100] Creating Layer elu2
I1017 18:10:46.372778  3202 net.cpp:434] elu2 <- drop2
I1017 18:10:46.372782  3202 net.cpp:408] elu2 -> elu2
I1017 18:10:46.372794  3202 net.cpp:150] Setting up elu2
I1017 18:10:46.372798  3202 net.cpp:157] Top shape: 100 240 6 6 (864000)
I1017 18:10:46.372800  3202 net.cpp:165] Memory required for data: 145844400
I1017 18:10:46.372802  3202 layer_factory.hpp:77] Creating layer conv4
I1017 18:10:46.372807  3202 net.cpp:100] Creating Layer conv4
I1017 18:10:46.372808  3202 net.cpp:434] conv4 <- elu2
I1017 18:10:46.372810  3202 net.cpp:408] conv4 -> conv4
I1017 18:10:46.373668  3202 net.cpp:150] Setting up conv4
I1017 18:10:46.373677  3202 net.cpp:157] Top shape: 100 240 6 6 (864000)
I1017 18:10:46.373678  3202 net.cpp:165] Memory required for data: 149300400
I1017 18:10:46.373682  3202 layer_factory.hpp:77] Creating layer conv5
I1017 18:10:46.373689  3202 net.cpp:100] Creating Layer conv5
I1017 18:10:46.373692  3202 net.cpp:434] conv5 <- conv4
I1017 18:10:46.373695  3202 net.cpp:408] conv5 -> conv5
I1017 18:10:46.375488  3202 net.cpp:150] Setting up conv5
I1017 18:10:46.375497  3202 net.cpp:157] Top shape: 100 260 5 5 (650000)
I1017 18:10:46.375499  3202 net.cpp:165] Memory required for data: 151900400
I1017 18:10:46.375505  3202 layer_factory.hpp:77] Creating layer pool3
I1017 18:10:46.375510  3202 net.cpp:100] Creating Layer pool3
I1017 18:10:46.375514  3202 net.cpp:434] pool3 <- conv5
I1017 18:10:46.375517  3202 net.cpp:408] pool3 -> pool3
I1017 18:10:46.375545  3202 net.cpp:150] Setting up pool3
I1017 18:10:46.375550  3202 net.cpp:157] Top shape: 100 260 3 3 (234000)
I1017 18:10:46.375552  3202 net.cpp:165] Memory required for data: 152836400
I1017 18:10:46.375553  3202 layer_factory.hpp:77] Creating layer drop3
I1017 18:10:46.375557  3202 net.cpp:100] Creating Layer drop3
I1017 18:10:46.375560  3202 net.cpp:434] drop3 <- pool3
I1017 18:10:46.375562  3202 net.cpp:408] drop3 -> drop3
I1017 18:10:46.375586  3202 net.cpp:150] Setting up drop3
I1017 18:10:46.375591  3202 net.cpp:157] Top shape: 100 260 3 3 (234000)
I1017 18:10:46.375592  3202 net.cpp:165] Memory required for data: 153772400
I1017 18:10:46.375594  3202 layer_factory.hpp:77] Creating layer elu3
I1017 18:10:46.375598  3202 net.cpp:100] Creating Layer elu3
I1017 18:10:46.375600  3202 net.cpp:434] elu3 <- drop3
I1017 18:10:46.375602  3202 net.cpp:408] elu3 -> elu3
I1017 18:10:46.375617  3202 net.cpp:150] Setting up elu3
I1017 18:10:46.375620  3202 net.cpp:157] Top shape: 100 260 3 3 (234000)
I1017 18:10:46.375622  3202 net.cpp:165] Memory required for data: 154708400
I1017 18:10:46.375623  3202 layer_factory.hpp:77] Creating layer conv6
I1017 18:10:46.375630  3202 net.cpp:100] Creating Layer conv6
I1017 18:10:46.375640  3202 net.cpp:434] conv6 <- elu3
I1017 18:10:46.375643  3202 net.cpp:408] conv6 -> conv6
I1017 18:10:46.376780  3202 net.cpp:150] Setting up conv6
I1017 18:10:46.376788  3202 net.cpp:157] Top shape: 100 260 3 3 (234000)
I1017 18:10:46.376791  3202 net.cpp:165] Memory required for data: 155644400
I1017 18:10:46.376794  3202 layer_factory.hpp:77] Creating layer conv7
I1017 18:10:46.376801  3202 net.cpp:100] Creating Layer conv7
I1017 18:10:46.376803  3202 net.cpp:434] conv7 <- conv6
I1017 18:10:46.376807  3202 net.cpp:408] conv7 -> conv7
I1017 18:10:46.378775  3202 net.cpp:150] Setting up conv7
I1017 18:10:46.378784  3202 net.cpp:157] Top shape: 100 280 2 2 (112000)
I1017 18:10:46.378787  3202 net.cpp:165] Memory required for data: 156092400
I1017 18:10:46.378790  3202 layer_factory.hpp:77] Creating layer pool4
I1017 18:10:46.378795  3202 net.cpp:100] Creating Layer pool4
I1017 18:10:46.378798  3202 net.cpp:434] pool4 <- conv7
I1017 18:10:46.378800  3202 net.cpp:408] pool4 -> pool4
I1017 18:10:46.378829  3202 net.cpp:150] Setting up pool4
I1017 18:10:46.378834  3202 net.cpp:157] Top shape: 100 280 1 1 (28000)
I1017 18:10:46.378834  3202 net.cpp:165] Memory required for data: 156204400
I1017 18:10:46.378836  3202 layer_factory.hpp:77] Creating layer drop4
I1017 18:10:46.378840  3202 net.cpp:100] Creating Layer drop4
I1017 18:10:46.378844  3202 net.cpp:434] drop4 <- pool4
I1017 18:10:46.378846  3202 net.cpp:408] drop4 -> drop4
I1017 18:10:46.378868  3202 net.cpp:150] Setting up drop4
I1017 18:10:46.378873  3202 net.cpp:157] Top shape: 100 280 1 1 (28000)
I1017 18:10:46.378875  3202 net.cpp:165] Memory required for data: 156316400
I1017 18:10:46.378876  3202 layer_factory.hpp:77] Creating layer elu4
I1017 18:10:46.378880  3202 net.cpp:100] Creating Layer elu4
I1017 18:10:46.378881  3202 net.cpp:434] elu4 <- drop4
I1017 18:10:46.378885  3202 net.cpp:408] elu4 -> elu4
I1017 18:10:46.378898  3202 net.cpp:150] Setting up elu4
I1017 18:10:46.378902  3202 net.cpp:157] Top shape: 100 280 1 1 (28000)
I1017 18:10:46.378906  3202 net.cpp:165] Memory required for data: 156428400
I1017 18:10:46.378906  3202 layer_factory.hpp:77] Creating layer conv8
I1017 18:10:46.378911  3202 net.cpp:100] Creating Layer conv8
I1017 18:10:46.378914  3202 net.cpp:434] conv8 <- elu4
I1017 18:10:46.378918  3202 net.cpp:408] conv8 -> conv8
I1017 18:10:46.379783  3202 net.cpp:150] Setting up conv8
I1017 18:10:46.379791  3202 net.cpp:157] Top shape: 100 280 1 1 (28000)
I1017 18:10:46.379793  3202 net.cpp:165] Memory required for data: 156540400
I1017 18:10:46.379798  3202 layer_factory.hpp:77] Creating layer pool5
I1017 18:10:46.379803  3202 net.cpp:100] Creating Layer pool5
I1017 18:10:46.379806  3202 net.cpp:434] pool5 <- conv8
I1017 18:10:46.379809  3202 net.cpp:408] pool5 -> pool5
I1017 18:10:46.379837  3202 net.cpp:150] Setting up pool5
I1017 18:10:46.379840  3202 net.cpp:157] Top shape: 100 280 1 1 (28000)
I1017 18:10:46.379842  3202 net.cpp:165] Memory required for data: 156652400
I1017 18:10:46.379843  3202 layer_factory.hpp:77] Creating layer drop5
I1017 18:10:46.379847  3202 net.cpp:100] Creating Layer drop5
I1017 18:10:46.379848  3202 net.cpp:434] drop5 <- pool5
I1017 18:10:46.379853  3202 net.cpp:408] drop5 -> drop5
I1017 18:10:46.379874  3202 net.cpp:150] Setting up drop5
I1017 18:10:46.379879  3202 net.cpp:157] Top shape: 100 280 1 1 (28000)
I1017 18:10:46.379881  3202 net.cpp:165] Memory required for data: 156764400
I1017 18:10:46.379884  3202 layer_factory.hpp:77] Creating layer elu5
I1017 18:10:46.379885  3202 net.cpp:100] Creating Layer elu5
I1017 18:10:46.379889  3202 net.cpp:434] elu5 <- drop5
I1017 18:10:46.379890  3202 net.cpp:408] elu5 -> elu5
I1017 18:10:46.379904  3202 net.cpp:150] Setting up elu5
I1017 18:10:46.379909  3202 net.cpp:157] Top shape: 100 280 1 1 (28000)
I1017 18:10:46.379911  3202 net.cpp:165] Memory required for data: 156876400
I1017 18:10:46.379914  3202 layer_factory.hpp:77] Creating layer conv10
I1017 18:10:46.379917  3202 net.cpp:100] Creating Layer conv10
I1017 18:10:46.379920  3202 net.cpp:434] conv10 <- elu5
I1017 18:10:46.379933  3202 net.cpp:408] conv10 -> conv10
I1017 18:10:46.380980  3202 net.cpp:150] Setting up conv10
I1017 18:10:46.380987  3202 net.cpp:157] Top shape: 100 300 1 1 (30000)
I1017 18:10:46.380990  3202 net.cpp:165] Memory required for data: 156996400
I1017 18:10:46.380997  3202 layer_factory.hpp:77] Creating layer pool6
I1017 18:10:46.381002  3202 net.cpp:100] Creating Layer pool6
I1017 18:10:46.381005  3202 net.cpp:434] pool6 <- conv10
I1017 18:10:46.381008  3202 net.cpp:408] pool6 -> pool6
I1017 18:10:46.381036  3202 net.cpp:150] Setting up pool6
I1017 18:10:46.381047  3202 net.cpp:157] Top shape: 100 300 1 1 (30000)
I1017 18:10:46.381050  3202 net.cpp:165] Memory required for data: 157116400
I1017 18:10:46.381052  3202 layer_factory.hpp:77] Creating layer drop6
I1017 18:10:46.381057  3202 net.cpp:100] Creating Layer drop6
I1017 18:10:46.381058  3202 net.cpp:434] drop6 <- pool6
I1017 18:10:46.381062  3202 net.cpp:408] drop6 -> drop6
I1017 18:10:46.381086  3202 net.cpp:150] Setting up drop6
I1017 18:10:46.381090  3202 net.cpp:157] Top shape: 100 300 1 1 (30000)
I1017 18:10:46.381093  3202 net.cpp:165] Memory required for data: 157236400
I1017 18:10:46.381094  3202 layer_factory.hpp:77] Creating layer elu6
I1017 18:10:46.381096  3202 net.cpp:100] Creating Layer elu6
I1017 18:10:46.381098  3202 net.cpp:434] elu6 <- drop6
I1017 18:10:46.381103  3202 net.cpp:408] elu6 -> elu6
I1017 18:10:46.381116  3202 net.cpp:150] Setting up elu6
I1017 18:10:46.381120  3202 net.cpp:157] Top shape: 100 300 1 1 (30000)
I1017 18:10:46.381124  3202 net.cpp:165] Memory required for data: 157356400
I1017 18:10:46.381125  3202 layer_factory.hpp:77] Creating layer conv11
I1017 18:10:46.381129  3202 net.cpp:100] Creating Layer conv11
I1017 18:10:46.381131  3202 net.cpp:434] conv11 <- elu6
I1017 18:10:46.381135  3202 net.cpp:408] conv11 -> conv11
I1017 18:10:46.381901  3202 net.cpp:150] Setting up conv11
I1017 18:10:46.381909  3202 net.cpp:157] Top shape: 100 100 1 1 (10000)
I1017 18:10:46.381911  3202 net.cpp:165] Memory required for data: 157396400
I1017 18:10:46.381916  3202 layer_factory.hpp:77] Creating layer pool7
I1017 18:10:46.381919  3202 net.cpp:100] Creating Layer pool7
I1017 18:10:46.381922  3202 net.cpp:434] pool7 <- conv11
I1017 18:10:46.381925  3202 net.cpp:408] pool7 -> pool7
I1017 18:10:46.381955  3202 net.cpp:150] Setting up pool7
I1017 18:10:46.381960  3202 net.cpp:157] Top shape: 100 100 1 1 (10000)
I1017 18:10:46.381963  3202 net.cpp:165] Memory required for data: 157436400
I1017 18:10:46.381964  3202 layer_factory.hpp:77] Creating layer drop7
I1017 18:10:46.381968  3202 net.cpp:100] Creating Layer drop7
I1017 18:10:46.381969  3202 net.cpp:434] drop7 <- pool7
I1017 18:10:46.381973  3202 net.cpp:408] drop7 -> drop7
I1017 18:10:46.382004  3202 net.cpp:150] Setting up drop7
I1017 18:10:46.382010  3202 net.cpp:157] Top shape: 100 100 1 1 (10000)
I1017 18:10:46.382012  3202 net.cpp:165] Memory required for data: 157476400
I1017 18:10:46.382014  3202 layer_factory.hpp:77] Creating layer elu7
I1017 18:10:46.382019  3202 net.cpp:100] Creating Layer elu7
I1017 18:10:46.382022  3202 net.cpp:434] elu7 <- drop7
I1017 18:10:46.382025  3202 net.cpp:408] elu7 -> elu7
I1017 18:10:46.382040  3202 net.cpp:150] Setting up elu7
I1017 18:10:46.382043  3202 net.cpp:157] Top shape: 100 100 1 1 (10000)
I1017 18:10:46.382045  3202 net.cpp:165] Memory required for data: 157516400
I1017 18:10:46.382047  3202 layer_factory.hpp:77] Creating layer pool
I1017 18:10:46.382050  3202 net.cpp:100] Creating Layer pool
I1017 18:10:46.382052  3202 net.cpp:434] pool <- elu7
I1017 18:10:46.382056  3202 net.cpp:408] pool -> pool
I1017 18:10:46.382174  3202 net.cpp:150] Setting up pool
I1017 18:10:46.382179  3202 net.cpp:157] Top shape: 100 100 1 1 (10000)
I1017 18:10:46.382181  3202 net.cpp:165] Memory required for data: 157556400
I1017 18:10:46.382184  3202 layer_factory.hpp:77] Creating layer flatten
I1017 18:10:46.382186  3202 net.cpp:100] Creating Layer flatten
I1017 18:10:46.382189  3202 net.cpp:434] flatten <- pool
I1017 18:10:46.382199  3202 net.cpp:408] flatten -> flatten
I1017 18:10:46.382215  3202 net.cpp:150] Setting up flatten
I1017 18:10:46.382220  3202 net.cpp:157] Top shape: 100 100 (10000)
I1017 18:10:46.382221  3202 net.cpp:165] Memory required for data: 157596400
I1017 18:10:46.382222  3202 layer_factory.hpp:77] Creating layer score
I1017 18:10:46.382227  3202 net.cpp:100] Creating Layer score
I1017 18:10:46.382230  3202 net.cpp:434] score <- flatten
I1017 18:10:46.382232  3202 net.cpp:408] score -> score
I1017 18:10:46.382318  3202 net.cpp:150] Setting up score
I1017 18:10:46.382323  3202 net.cpp:157] Top shape: 100 10 (1000)
I1017 18:10:46.382324  3202 net.cpp:165] Memory required for data: 157600400
I1017 18:10:46.382328  3202 layer_factory.hpp:77] Creating layer score_score_0_split
I1017 18:10:46.382333  3202 net.cpp:100] Creating Layer score_score_0_split
I1017 18:10:46.382336  3202 net.cpp:434] score_score_0_split <- score
I1017 18:10:46.382339  3202 net.cpp:408] score_score_0_split -> score_score_0_split_0
I1017 18:10:46.382342  3202 net.cpp:408] score_score_0_split -> score_score_0_split_1
I1017 18:10:46.382367  3202 net.cpp:150] Setting up score_score_0_split
I1017 18:10:46.382371  3202 net.cpp:157] Top shape: 100 10 (1000)
I1017 18:10:46.382374  3202 net.cpp:157] Top shape: 100 10 (1000)
I1017 18:10:46.382375  3202 net.cpp:165] Memory required for data: 157608400
I1017 18:10:46.382376  3202 layer_factory.hpp:77] Creating layer accuracy
I1017 18:10:46.382380  3202 net.cpp:100] Creating Layer accuracy
I1017 18:10:46.382382  3202 net.cpp:434] accuracy <- score_score_0_split_0
I1017 18:10:46.382385  3202 net.cpp:434] accuracy <- label_data_1_split_0
I1017 18:10:46.382388  3202 net.cpp:408] accuracy -> accuracy
…
