…
solver_mode: GPU
device_id: 0
train_state {
  level: 0
  stage: ""
}
type: "AdaGrad"
I1017 18:30:01.455338  3478 solver.cpp:81] Creating training net from train_net file: /home/adam/Honours/Honours-Project/cifar-10_pooling/max/elu/poolcnn_elu_train.prototxt
I1017 18:30:01.455633  3478 net.cpp:58] Initializing net from parameters: 
state {
  phase: TRAIN
  level: 0
  stage: ""
}
layer {
  name: "data"
  type: "Data"
  top: "data"
  top: "label"
  data_param {
    source: "../../../../data/cifar-10/cifar10_train_lmdb"
    batch_size: 64
    backend: LMDB
  }
}
layer {
  name: "conv1"
  type: "Convolution"
  bottom: "data"
  top: "conv1"
  convolution_param {
    num_output: 192
    kernel_size: 5
    weight_filler {
      type: "xavier"
    }
  }
}
layer {
  name: "pool1"
  type: "Pooling"
  bottom: "conv1"
  top: "pool1"
  pooling_param {
    pool: MAX
    kernel_size: 2
    stride: 2
  }
}
layer {
  name: "drop1"
  type: "Dropout"
  bottom: "pool1"
  top: "drop1"
  dropout_param {
    dropout_ratio: 0
  }
}
layer {
  name: "elu1"
  type: "ELU"
  bottom: "drop1"
  top: "elu1"
}
layer {
  name: "conv2"
  type: "Convolution"
  bottom: "elu1"
  top: "conv2"
  convolution_param {
    num_output: 192
    kernel_size: 1
    weight_filler {
      type: "xavier"
    }
  }
}
layer {
  name: "conv3"
  type: "Convolution"
  bottom: "conv2"
  top: "conv3"
  convolution_param {
    num_output: 240
    kernel_size: 3
    weight_filler {
      type: "xavier"
    }
  }
}
layer {
  name: "pool2"
  type: "Pooling"
  bottom: "conv3"
  top: "pool2"
  pooling_param {
    pool: MAX
    kernel_size: 2
    stride: 2
  }
}
layer {
  name: "drop2"
  type: "Dropout"
  bottom: "pool2"
  top: "drop2"
  dropout_param {
    dropout_ratio: 0.1
  }
}
layer {
  name: "elu2"
  type: "ELU"
  bottom: "drop2"
  top: "elu2"
}
layer {
  name: "conv4"
  type: "Convolution"
  bottom: "elu2"
  top: "conv4"
  convolution_param {
    num_output: 240
    kernel_size: 1
    weight_filler {
      type: "xavier"
    }
  }
}
layer {
  name: "conv5"
  type: "Convolution"
  bottom: "conv4"
  top: "conv5"
  convolution_param {
    num_output: 260
    kernel_size: 2
    weight_filler {
      type: "xavier"
    }
  }
}
layer {
  name: "pool3"
  type: "Pooling"
  bottom: "conv5"
  top: "pool3"
  pooling_param {
    pool: MAX
    kernel_size: 2
    stride: 2
  }
}
layer {
  name: "drop3"
  type: "Dropout"
  bottom: "pool3"
  top: "drop3"
  dropout_param {
    dropout_ratio: 0.2
  }
}
layer {
  name: "elu3"
  type: "ELU"
  bottom: "drop3"
  top: "elu3"
}
layer {
  name: "conv6"
  type: "Convolution"
  bottom: "elu3"
  top: "conv6"
  convolution_param {
    num_output: 260
    kernel_size: 1
    weight_filler {
      type: "xavier"
    }
  }
}
layer {
  name: "conv7"
  type: "Convolution"
  bottom: "conv6"
  top: "conv7"
  convolution_param {
    num_output: 280
    kernel_size: 2
    weight_filler {
      type: "xavier"
    }
  }
}
layer {
  name: "pool4"
  type: "Pooling"
  bottom: "conv7"
  top: "pool4"
  pooling_param {
    pool: MAX
    kernel_size: 2
    stride: 2
  }
}
layer {
  name: "drop4"
  type: "Dropout"
  bottom: "pool4"
  top: "drop4"
  dropout_param {
    dropout_ratio: 0.3
  }
}
layer {
  name: "elu4"
  type: "ELU"
  bottom: "drop4"
  top: "elu4"
}
layer {
  name: "conv8"
  type: "Convolution"
  bottom: "elu4"
  top: "conv8"
  convolution_param {
    num_output: 280
    kernel_size: 1
    weight_filler {
      type: "xavier"
    }
  }
}
layer {
  name: "pool5"
  type: "Pooling"
  bottom: "conv8"
  top: "pool5"
  pooling_param {
    pool: MAX
    kernel_size: 2
    stride: 2
  }
}
layer {
  name: "drop5"
  type: "Dropout"
  bottom: "pool5"
  top: "drop5"
  dropout_param {
    dropout_ratio: 0.4
  }
}
layer {
  name: "elu5"
  type: "ELU"
  bottom: "drop5"
  top: "elu5"
}
layer {
  name: "conv10"
  type: "Convolution"
  bottom: "elu5"
  top: "conv10"
  convolution_param {
    num_output: 300
    kernel_size: 1
    weight_filler {
      type: "xavier"
    }
  }
}
layer {
  name: "pool6"
  type: "Pooling"
  bottom: "conv10"
  top: "pool6"
  pooling_param {
    pool: MAX
    kernel_size: 2
    stride: 2
  }
}
layer {
  name: "drop6"
  type: "Dropout"
  bottom: "pool6"
  top: "drop6"
  dropout_param {
    dropout_ratio: 0.5
  }
}
layer {
  name: "elu6"
  type: "ELU"
  bottom: "drop6"
  top: "elu6"
}
layer {
  name: "conv11"
  type: "Convolution"
  bottom: "elu6"
  top: "conv11"
  convolution_param {
    num_output: 100
    kernel_size: 1
    weight_filler {
      type: "xavier"
    }
  }
}
layer {
  name: "pool7"
  type: "Pooling"
  bottom: "conv11"
  top: "pool7"
  pooling_param {
    pool: MAX
    kernel_size: 2
    stride: 2
  }
}
layer {
  name: "drop7"
  type: "Dropout"
  bottom: "pool7"
  top: "drop7"
  dropout_param {
    dropout_ratio: 0
  }
}
layer {
  name: "elu7"
  type: "ELU"
  bottom: "drop7"
  top: "elu7"
}
layer {
  name: "pool"
  type: "Pooling"
  bottom: "elu7"
  top: "pool"
  pooling_param {
    pool: AVE
    global_pooling: true
  }
}
layer {
  name: "flatten"
  type: "Flatten"
  bottom: "pool"
  top: "flatten"
}
layer {
  name: "score"
  type: "InnerProduct"
  bottom: "flatten"
  top: "score"
  inner_product_param {
    num_output: 10
    weight_filler {
      type: "gaussian"
    }
  }
}
layer {
  name: "accuracy"
  type: "Accuracy"
  bottom: "score"
  bottom: "label"
  top: "accuracy"
}
layer {
  name: "loss"
  type: "SoftmaxWithLoss"
  bottom: "score"
  bottom: "label"
  top: "loss"
}
I1017 18:30:01.455735  3478 layer_factory.hpp:77] Creating layer data
I1017 18:30:01.456115  3478 net.cpp:100] Creating Layer data
I1017 18:30:01.456121  3478 net.cpp:408] data -> data
I1017 18:30:01.456133  3478 net.cpp:408] data -> label
I1017 18:30:01.456715  3483 db_lmdb.cpp:35] Opened lmdb ../../../../data/cifar-10/cifar10_train_lmdb
I1017 18:30:01.462221  3478 data_layer.cpp:41] output data size: 64,3,32,32
I1017 18:30:01.463582  3478 net.cpp:150] Setting up data
I1017 18:30:01.463594  3478 net.cpp:157] Top shape: 64 3 32 32 (196608)
I1017 18:30:01.463598  3478 net.cpp:157] Top shape: 64 (64)
I1017 18:30:01.463599  3478 net.cpp:165] Memory required for data: 786688
I1017 18:30:01.463606  3478 layer_factory.hpp:77] Creating layer label_data_1_split
I1017 18:30:01.463616  3478 net.cpp:100] Creating Layer label_data_1_split
I1017 18:30:01.463621  3478 net.cpp:434] label_data_1_split <- label
I1017 18:30:01.463631  3478 net.cpp:408] label_data_1_split -> label_data_1_split_0
I1017 18:30:01.463639  3478 net.cpp:408] label_data_1_split -> label_data_1_split_1
I1017 18:30:01.463665  3478 net.cpp:150] Setting up label_data_1_split
I1017 18:30:01.463670  3478 net.cpp:157] Top shape: 64 (64)
I1017 18:30:01.463671  3478 net.cpp:157] Top shape: 64 (64)
I1017 18:30:01.463673  3478 net.cpp:165] Memory required for data: 787200
I1017 18:30:01.463675  3478 layer_factory.hpp:77] Creating layer conv1
I1017 18:30:01.463686  3478 net.cpp:100] Creating Layer conv1
I1017 18:30:01.463688  3478 net.cpp:434] conv1 <- data
I1017 18:30:01.463693  3478 net.cpp:408] conv1 -> conv1
I1017 18:30:01.581435  3478 net.cpp:150] Setting up conv1
I1017 18:30:01.581461  3478 net.cpp:157] Top shape: 64 192 28 28 (9633792)
I1017 18:30:01.581465  3478 net.cpp:165] Memory required for data: 39322368
I1017 18:30:01.581481  3478 layer_factory.hpp:77] Creating layer pool1
I1017 18:30:01.581490  3478 net.cpp:100] Creating Layer pool1
I1017 18:30:01.581492  3478 net.cpp:434] pool1 <- conv1
I1017 18:30:01.581497  3478 net.cpp:408] pool1 -> pool1
I1017 18:30:01.581534  3478 net.cpp:150] Setting up pool1
I1017 18:30:01.581538  3478 net.cpp:157] Top shape: 64 192 14 14 (2408448)
I1017 18:30:01.581540  3478 net.cpp:165] Memory required for data: 48956160
I1017 18:30:01.581555  3478 layer_factory.hpp:77] Creating layer drop1
I1017 18:30:01.581562  3478 net.cpp:100] Creating Layer drop1
I1017 18:30:01.581565  3478 net.cpp:434] drop1 <- pool1
I1017 18:30:01.581568  3478 net.cpp:408] drop1 -> drop1
I1017 18:30:01.581593  3478 net.cpp:150] Setting up drop1
I1017 18:30:01.581596  3478 net.cpp:157] Top shape: 64 192 14 14 (2408448)
I1017 18:30:01.581599  3478 net.cpp:165] Memory required for data: 58589952
I1017 18:30:01.581600  3478 layer_factory.hpp:77] Creating layer elu1
I1017 18:30:01.581604  3478 net.cpp:100] Creating Layer elu1
I1017 18:30:01.581607  3478 net.cpp:434] elu1 <- drop1
I1017 18:30:01.581609  3478 net.cpp:408] elu1 -> elu1
I1017 18:30:01.581621  3478 net.cpp:150] Setting up elu1
I1017 18:30:01.581625  3478 net.cpp:157] Top shape: 64 192 14 14 (2408448)
I1017 18:30:01.581627  3478 net.cpp:165] Memory required for data: 68223744
I1017 18:30:01.581629  3478 layer_factory.hpp:77] Creating layer conv2
I1017 18:30:01.581635  3478 net.cpp:100] Creating Layer conv2
I1017 18:30:01.581639  3478 net.cpp:434] conv2 <- elu1
I1017 18:30:01.581641  3478 net.cpp:408] conv2 -> conv2
I1017 18:30:01.582612  3478 net.cpp:150] Setting up conv2
I1017 18:30:01.582619  3478 net.cpp:157] Top shape: 64 192 14 14 (2408448)
I1017 18:30:01.582623  3478 net.cpp:165] Memory required for data: 77857536
I1017 18:30:01.582628  3478 layer_factory.hpp:77] Creating layer conv3
I1017 18:30:01.582633  3478 net.cpp:100] Creating Layer conv3
I1017 18:30:01.582636  3478 net.cpp:434] conv3 <- conv2
I1017 18:30:01.582641  3478 net.cpp:408] conv3 -> conv3
I1017 18:30:01.585108  3478 net.cpp:150] Setting up conv3
I1017 18:30:01.585116  3478 net.cpp:157] Top shape: 64 240 12 12 (2211840)
I1017 18:30:01.585119  3478 net.cpp:165] Memory required for data: 86704896
I1017 18:30:01.585125  3478 layer_factory.hpp:77] Creating layer pool2
I1017 18:30:01.585130  3478 net.cpp:100] Creating Layer pool2
I1017 18:30:01.585134  3478 net.cpp:434] pool2 <- conv3
I1017 18:30:01.585137  3478 net.cpp:408] pool2 -> pool2
I1017 18:30:01.585161  3478 net.cpp:150] Setting up pool2
I1017 18:30:01.585165  3478 net.cpp:157] Top shape: 64 240 6 6 (552960)
I1017 18:30:01.585167  3478 net.cpp:165] Memory required for data: 88916736
I1017 18:30:01.585170  3478 layer_factory.hpp:77] Creating layer drop2
I1017 18:30:01.585173  3478 net.cpp:100] Creating Layer drop2
I1017 18:30:01.585175  3478 net.cpp:434] drop2 <- pool2
I1017 18:30:01.585178  3478 net.cpp:408] drop2 -> drop2
I1017 18:30:01.585197  3478 net.cpp:150] Setting up drop2
I1017 18:30:01.585202  3478 net.cpp:157] Top shape: 64 240 6 6 (552960)
I1017 18:30:01.585204  3478 net.cpp:165] Memory required for data: 91128576
I1017 18:30:01.585206  3478 layer_factory.hpp:77] Creating layer elu2
I1017 18:30:01.585208  3478 net.cpp:100] Creating Layer elu2
I1017 18:30:01.585211  3478 net.cpp:434] elu2 <- drop2
I1017 18:30:01.585214  3478 net.cpp:408] elu2 -> elu2
I1017 18:30:01.585225  3478 net.cpp:150] Setting up elu2
I1017 18:30:01.585229  3478 net.cpp:157] Top shape: 64 240 6 6 (552960)
I1017 18:30:01.585232  3478 net.cpp:165] Memory required for data: 93340416
I1017 18:30:01.585233  3478 layer_factory.hpp:77] Creating layer conv4
I1017 18:30:01.585237  3478 net.cpp:100] Creating Layer conv4
I1017 18:30:01.585240  3478 net.cpp:434] conv4 <- elu2
I1017 18:30:01.585243  3478 net.cpp:408] conv4 -> conv4
I1017 18:30:01.586032  3478 net.cpp:150] Setting up conv4
I1017 18:30:01.586040  3478 net.cpp:157] Top shape: 64 240 6 6 (552960)
I1017 18:30:01.586042  3478 net.cpp:165] Memory required for data: 95552256
I1017 18:30:01.586046  3478 layer_factory.hpp:77] Creating layer conv5
I1017 18:30:01.586051  3478 net.cpp:100] Creating Layer conv5
I1017 18:30:01.586055  3478 net.cpp:434] conv5 <- conv4
I1017 18:30:01.586057  3478 net.cpp:408] conv5 -> conv5
I1017 18:30:01.587770  3478 net.cpp:150] Setting up conv5
I1017 18:30:01.587779  3478 net.cpp:157] Top shape: 64 260 5 5 (416000)
I1017 18:30:01.587780  3478 net.cpp:165] Memory required for data: 97216256
I1017 18:30:01.587795  3478 layer_factory.hpp:77] Creating layer pool3
I1017 18:30:01.587800  3478 net.cpp:100] Creating Layer pool3
I1017 18:30:01.587802  3478 net.cpp:434] pool3 <- conv5
I1017 18:30:01.587805  3478 net.cpp:408] pool3 -> pool3
I1017 18:30:01.587831  3478 net.cpp:150] Setting up pool3
I1017 18:30:01.587833  3478 net.cpp:157] Top shape: 64 260 3 3 (149760)
I1017 18:30:01.587836  3478 net.cpp:165] Memory required for data: 97815296
I1017 18:30:01.587836  3478 layer_factory.hpp:77] Creating layer drop3
I1017 18:30:01.587841  3478 net.cpp:100] Creating Layer drop3
I1017 18:30:01.587842  3478 net.cpp:434] drop3 <- pool3
I1017 18:30:01.587844  3478 net.cpp:408] drop3 -> drop3
I1017 18:30:01.587865  3478 net.cpp:150] Setting up drop3
I1017 18:30:01.587869  3478 net.cpp:157] Top shape: 64 260 3 3 (149760)
I1017 18:30:01.587872  3478 net.cpp:165] Memory required for data: 98414336
I1017 18:30:01.587873  3478 layer_factory.hpp:77] Creating layer elu3
I1017 18:30:01.587875  3478 net.cpp:100] Creating Layer elu3
I1017 18:30:01.587877  3478 net.cpp:434] elu3 <- drop3
I1017 18:30:01.587880  3478 net.cpp:408] elu3 -> elu3
I1017 18:30:01.587891  3478 net.cpp:150] Setting up elu3
I1017 18:30:01.587894  3478 net.cpp:157] Top shape: 64 260 3 3 (149760)
I1017 18:30:01.587895  3478 net.cpp:165] Memory required for data: 99013376
I1017 18:30:01.587898  3478 layer_factory.hpp:77] Creating layer conv6
I1017 18:30:01.587903  3478 net.cpp:100] Creating Layer conv6
I1017 18:30:01.587905  3478 net.cpp:434] conv6 <- elu3
I1017 18:30:01.587908  3478 net.cpp:408] conv6 -> conv6
I1017 18:30:01.588976  3478 net.cpp:150] Setting up conv6
I1017 18:30:01.588984  3478 net.cpp:157] Top shape: 64 260 3 3 (149760)
I1017 18:30:01.588985  3478 net.cpp:165] Memory required for data: 99612416
I1017 18:30:01.588989  3478 layer_factory.hpp:77] Creating layer conv7
I1017 18:30:01.588994  3478 net.cpp:100] Creating Layer conv7
I1017 18:30:01.588996  3478 net.cpp:434] conv7 <- conv6
I1017 18:30:01.589000  3478 net.cpp:408] conv7 -> conv7
I1017 18:30:01.590813  3478 net.cpp:150] Setting up conv7
I1017 18:30:01.590822  3478 net.cpp:157] Top shape: 64 280 2 2 (71680)
I1017 18:30:01.590824  3478 net.cpp:165] Memory required for data: 99899136
I1017 18:30:01.590828  3478 layer_factory.hpp:77] Creating layer pool4
I1017 18:30:01.590831  3478 net.cpp:100] Creating Layer pool4
I1017 18:30:01.590834  3478 net.cpp:434] pool4 <- conv7
I1017 18:30:01.590837  3478 net.cpp:408] pool4 -> pool4
I1017 18:30:01.590860  3478 net.cpp:150] Setting up pool4
I1017 18:30:01.590864  3478 net.cpp:157] Top shape: 64 280 1 1 (17920)
I1017 18:30:01.590867  3478 net.cpp:165] Memory required for data: 99970816
I1017 18:30:01.590868  3478 layer_factory.hpp:77] Creating layer drop4
I1017 18:30:01.590872  3478 net.cpp:100] Creating Layer drop4
I1017 18:30:01.590873  3478 net.cpp:434] drop4 <- pool4
I1017 18:30:01.590878  3478 net.cpp:408] drop4 -> drop4
I1017 18:30:01.590898  3478 net.cpp:150] Setting up drop4
I1017 18:30:01.590903  3478 net.cpp:157] Top shape: 64 280 1 1 (17920)
I1017 18:30:01.590903  3478 net.cpp:165] Memory required for data: 100042496
I1017 18:30:01.590905  3478 layer_factory.hpp:77] Creating layer elu4
I1017 18:30:01.590909  3478 net.cpp:100] Creating Layer elu4
I1017 18:30:01.590910  3478 net.cpp:434] elu4 <- drop4
I1017 18:30:01.590912  3478 net.cpp:408] elu4 -> elu4
I1017 18:30:01.590924  3478 net.cpp:150] Setting up elu4
I1017 18:30:01.590929  3478 net.cpp:157] Top shape: 64 280 1 1 (17920)
I1017 18:30:01.590929  3478 net.cpp:165] Memory required for data: 100114176
I1017 18:30:01.590931  3478 layer_factory.hpp:77] Creating layer conv8
I1017 18:30:01.590935  3478 net.cpp:100] Creating Layer conv8
I1017 18:30:01.590937  3478 net.cpp:434] conv8 <- elu4
I1017 18:30:01.590939  3478 net.cpp:408] conv8 -> conv8
I1017 18:30:01.591846  3478 net.cpp:150] Setting up conv8
I1017 18:30:01.591853  3478 net.cpp:157] Top shape: 64 280 1 1 (17920)
I1017 18:30:01.591856  3478 net.cpp:165] Memory required for data: 100185856
I1017 18:30:01.591859  3478 layer_factory.hpp:77] Creating layer pool5
I1017 18:30:01.591871  3478 net.cpp:100] Creating Layer pool5
I1017 18:30:01.591873  3478 net.cpp:434] pool5 <- conv8
I1017 18:30:01.591876  3478 net.cpp:408] pool5 -> pool5
I1017 18:30:01.591900  3478 net.cpp:150] Setting up pool5
I1017 18:30:01.591904  3478 net.cpp:157] Top shape: 64 280 1 1 (17920)
I1017 18:30:01.591907  3478 net.cpp:165] Memory required for data: 100257536
I1017 18:30:01.591908  3478 layer_factory.hpp:77] Creating layer drop5
I1017 18:30:01.591912  3478 net.cpp:100] Creating Layer drop5
I1017 18:30:01.591913  3478 net.cpp:434] drop5 <- pool5
I1017 18:30:01.591917  3478 net.cpp:408] drop5 -> drop5
I1017 18:30:01.591939  3478 net.cpp:150] Setting up drop5
I1017 18:30:01.591943  3478 net.cpp:157] Top shape: 64 280 1 1 (17920)
I1017 18:30:01.591944  3478 net.cpp:165] Memory required for data: 100329216
I1017 18:30:01.591946  3478 layer_factory.hpp:77] Creating layer elu5
I1017 18:30:01.591948  3478 net.cpp:100] Creating Layer elu5
I1017 18:30:01.591950  3478 net.cpp:434] elu5 <- drop5
I1017 18:30:01.591953  3478 net.cpp:408] elu5 -> elu5
I1017 18:30:01.591965  3478 net.cpp:150] Setting up elu5
I1017 18:30:01.591969  3478 net.cpp:157] Top shape: 64 280 1 1 (17920)
I1017 18:30:01.591970  3478 net.cpp:165] Memory required for data: 100400896
I1017 18:30:01.591972  3478 layer_factory.hpp:77] Creating layer conv10
I1017 18:30:01.591977  3478 net.cpp:100] Creating Layer conv10
I1017 18:30:01.591979  3478 net.cpp:434] conv10 <- elu5
I1017 18:30:01.591982  3478 net.cpp:408] conv10 -> conv10
I1017 18:30:01.592911  3478 net.cpp:150] Setting up conv10
I1017 18:30:01.592919  3478 net.cpp:157] Top shape: 64 300 1 1 (19200)
I1017 18:30:01.592921  3478 net.cpp:165] Memory required for data: 100477696
I1017 18:30:01.592927  3478 layer_factory.hpp:77] Creating layer pool6
I1017 18:30:01.592931  3478 net.cpp:100] Creating Layer pool6
I1017 18:30:01.592934  3478 net.cpp:434] pool6 <- conv10
I1017 18:30:01.592937  3478 net.cpp:408] pool6 -> pool6
I1017 18:30:01.592962  3478 net.cpp:150] Setting up pool6
I1017 18:30:01.592965  3478 net.cpp:157] Top shape: 64 300 1 1 (19200)
I1017 18:30:01.592968  3478 net.cpp:165] Memory required for data: 100554496
I1017 18:30:01.592969  3478 layer_factory.hpp:77] Creating layer drop6
I1017 18:30:01.592973  3478 net.cpp:100] Creating Layer drop6
I1017 18:30:01.592975  3478 net.cpp:434] drop6 <- pool6
I1017 18:30:01.592978  3478 net.cpp:408] drop6 -> drop6
I1017 18:30:01.592999  3478 net.cpp:150] Setting up drop6
I1017 18:30:01.593003  3478 net.cpp:157] Top shape: 64 300 1 1 (19200)
I1017 18:30:01.593004  3478 net.cpp:165] Memory required for data: 100631296
I1017 18:30:01.593005  3478 layer_factory.hpp:77] Creating layer elu6
I1017 18:30:01.593008  3478 net.cpp:100] Creating Layer elu6
I1017 18:30:01.593011  3478 net.cpp:434] elu6 <- drop6
I1017 18:30:01.593014  3478 net.cpp:408] elu6 -> elu6
I1017 18:30:01.593029  3478 net.cpp:150] Setting up elu6
I1017 18:30:01.593031  3478 net.cpp:157] Top shape: 64 300 1 1 (19200)
I1017 18:30:01.593034  3478 net.cpp:165] Memory required for data: 100708096
I1017 18:30:01.593034  3478 layer_factory.hpp:77] Creating layer conv11
I1017 18:30:01.593039  3478 net.cpp:100] Creating Layer conv11
I1017 18:30:01.593041  3478 net.cpp:434] conv11 <- elu6
I1017 18:30:01.593044  3478 net.cpp:408] conv11 -> conv11
I1017 18:30:01.593855  3478 net.cpp:150] Setting up conv11
I1017 18:30:01.593863  3478 net.cpp:157] Top shape: 64 100 1 1 (6400)
I1017 18:30:01.593865  3478 net.cpp:165] Memory required for data: 100733696
I1017 18:30:01.593869  3478 layer_factory.hpp:77] Creating layer pool7
I1017 18:30:01.593873  3478 net.cpp:100] Creating Layer pool7
I1017 18:30:01.593875  3478 net.cpp:434] pool7 <- conv11
I1017 18:30:01.593878  3478 net.cpp:408] pool7 -> pool7
I1017 18:30:01.593906  3478 net.cpp:150] Setting up pool7
I1017 18:30:01.593910  3478 net.cpp:157] Top shape: 64 100 1 1 (6400)
I1017 18:30:01.593914  3478 net.cpp:165] Memory required for data: 100759296
I1017 18:30:01.593915  3478 layer_factory.hpp:77] Creating layer drop7
I1017 18:30:01.593919  3478 net.cpp:100] Creating Layer drop7
I1017 18:30:01.593927  3478 net.cpp:434] drop7 <- pool7
I1017 18:30:01.593931  3478 net.cpp:408] drop7 -> drop7
I1017 18:30:01.593956  3478 net.cpp:150] Setting up drop7
I1017 18:30:01.593960  3478 net.cpp:157] Top shape: 64 100 1 1 (6400)
I1017 18:30:01.593961  3478 net.cpp:165] Memory required for data: 100784896
I1017 18:30:01.593964  3478 layer_factory.hpp:77] Creating layer elu7
I1017 18:30:01.593969  3478 net.cpp:100] Creating Layer elu7
I1017 18:30:01.593972  3478 net.cpp:434] elu7 <- drop7
I1017 18:30:01.593974  3478 net.cpp:408] elu7 -> elu7
I1017 18:30:01.593988  3478 net.cpp:150] Setting up elu7
I1017 18:30:01.593992  3478 net.cpp:157] Top shape: 64 100 1 1 (6400)
I1017 18:30:01.593993  3478 net.cpp:165] Memory required for data: 100810496
I1017 18:30:01.593996  3478 layer_factory.hpp:77] Creating layer pool
I1017 18:30:01.593999  3478 net.cpp:100] Creating Layer pool
I1017 18:30:01.594002  3478 net.cpp:434] pool <- elu7
I1017 18:30:01.594004  3478 net.cpp:408] pool -> pool
I1017 18:30:01.594128  3478 net.cpp:150] Setting up pool
I1017 18:30:01.594133  3478 net.cpp:157] Top shape: 64 100 1 1 (6400)
I1017 18:30:01.594136  3478 net.cpp:165] Memory required for data: 100836096
I1017 18:30:01.594138  3478 layer_factory.hpp:77] Creating layer flatten
I1017 18:30:01.594141  3478 net.cpp:100] Creating Layer flatten
I1017 18:30:01.594144  3478 net.cpp:434] flatten <- pool
I1017 18:30:01.594148  3478 net.cpp:408] flatten -> flatten
I1017 18:30:01.594163  3478 net.cpp:150] Setting up flatten
I1017 18:30:01.594167  3478 net.cpp:157] Top shape: 64 100 (6400)
I1017 18:30:01.594169  3478 net.cpp:165] Memory required for data: 100861696
I1017 18:30:01.594172  3478 layer_factory.hpp:77] Creating layer score
I1017 18:30:01.594177  3478 net.cpp:100] Creating Layer score
I1017 18:30:01.594178  3478 net.cpp:434] score <- flatten
I1017 18:30:01.594182  3478 net.cpp:408] score -> score
I1017 18:30:01.594274  3478 net.cpp:150] Setting up score
I1017 18:30:01.594279  3478 net.cpp:157] Top shape: 64 10 (640)
I1017 18:30:01.594281  3478 net.cpp:165] Memory required for data: 100864256
I1017 18:30:01.594285  3478 layer_factory.hpp:77] Creating layer score_score_0_split
I1017 18:30:01.594290  3478 net.cpp:100] Creating Layer score_score_0_split
I1017 18:30:01.594291  3478 net.cpp:434] score_score_0_split <- score
I1017 18:30:01.594295  3478 net.cpp:408] score_score_0_split -> score_score_0_split_0
I1017 18:30:01.594300  3478 net.cpp:408] score_score_0_split -> score_score_0_split_1
I1017 18:30:01.594322  3478 net.cpp:150] Setting up score_score_0_split
I1017 18:30:01.594326  3478 net.cpp:157] Top shape: 64 10 (640)
I1017 18:30:01.594328  3478 net.cpp:157] Top shape: 64 10 (640)
I1017 18:30:01.594331  3478 net.cpp:165] Memory required for data: 100869376
I1017 18:30:01.594331  3478 layer_factory.hpp:77] Creating layer accuracy
I1017 18:30:01.594336  3478 net.cpp:100] Creating Layer accuracy
I1017 18:30:01.594338  3478 net.cpp:434] accuracy <- score_score_0_split_0
I1017 18:30:01.594341  3478 net.cpp:434] accuracy <- label_data_1_split_0
I1017 18:30:01.594344  3478 net.cpp:408] accuracy -> accuracy
…
I1017 18:30:01.594732  3478 net.cpp:270] This network produces output loss
I1017 18:30:01.594749  3478 net.cpp:283] Network initialization done.
I1017 18:30:01.594929  3478 solver.cpp:181] Creating test net (#0) specified by test_net file: /home/adam/Honours/Honours-Project/cifar-10_pooling/max/elu/poolcnn_elu_test.prototxt
I1017 18:30:01.595042  3478 net.cpp:58] Initializing net from parameters: 
state {
  phase: TEST
}
layer {
  name: "data"
  type: "Data"
  top: "data"
  top: "label"
  data_param {
    source: "../../../../data/cifar-10/cifar10_test_lmdb"
    batch_size: 100
    backend: LMDB
  }
}
layer {
  name: "conv1"
  type: "Convolution"
  bottom: "data"
  top: "conv1"
  convolution_param {
    num_output: 192
    kernel_size: 5
    weight_filler {
      type: "xavier"
    }
  }
}
layer {
  name: "pool1"
  type: "Pooling"
  bottom: "conv1"
  top: "pool1"
  pooling_param {
    pool: MAX
    kernel_size: 2
    stride: 2
  }
}
layer {
  name: "drop1"
  type: "Dropout"
  bottom: "pool1"
  top: "drop1"
  dropout_param {
    dropout_ratio: 0
  }
}
layer {
  name: "elu1"
  type: "ELU"
  bottom: "drop1"
  top: "elu1"
}
layer {
  name: "conv2"
  type: "Convolution"
  bottom: "elu1"
  top: "conv2"
  convolution_param {
    num_output: 192
    kernel_size: 1
    weight_filler {
      type: "xavier"
    }
  }
}
layer {
  name: "conv3"
  type: "Convolution"
  bottom: "conv2"
  top: "conv3"
  convolution_param {
    num_output: 240
    kernel_size: 3
    weight_filler {
      type: "xavier"
    }
  }
}
layer {
  name: "pool2"
  type: "Pooling"
  bottom: "conv3"
  top: "pool2"
  pooling_param {
    pool: MAX
    kernel_size: 2
    stride: 2
  }
}
layer {
  name: "drop2"
  type: "Dropout"
  bottom: "pool2"
  top: "drop2"
  dropout_param {
    dropout_ratio: 0.1
  }
}
layer {
  name: "elu2"
  type: "ELU"
  bottom: "drop2"
  top: "elu2"
}
layer {
  name: "conv4"
  type: "Convolution"
  bottom: "elu2"
  top: "conv4"
  convolution_param {
    num_output: 240
    kernel_size: 1
    weight_filler {
      type: "xavier"
    }
  }
}
layer {
  name: "conv5"
  type: "Convolution"
  bottom: "conv4"
  top: "conv5"
  convolution_param {
    num_output: 260
    kernel_size: 2
    weight_filler {
      type: "xavier"
    }
  }
}
layer {
  name: "pool3"
  type: "Pooling"
  bottom: "conv5"
  top: "pool3"
  pooling_param {
    pool: MAX
    kernel_size: 2
    stride: 2
  }
}
layer {
  name: "drop3"
  type: "Dropout"
  bottom: "pool3"
  top: "drop3"
  dropout_param {
    dropout_ratio: 0.2
  }
}
layer {
  name: "elu3"
  type: "ELU"
  bottom: "drop3"
  top: "elu3"
}
layer {
  name: "conv6"
  type: "Convolution"
  bottom: "elu3"
  top: "conv6"
  convolution_param {
    num_output: 260
    kernel_size: 1
    weight_filler {
      type: "xavier"
    }
  }
}
layer {
  name: "conv7"
  type: "Convolution"
  bottom: "conv6"
  top: "conv7"
  convolution_param {
    num_output: 280
    kernel_size: 2
    weight_filler {
      type: "xavier"
    }
  }
}
layer {
  name: "pool4"
  type: "Pooling"
  bottom: "conv7"
  top: "pool4"
  pooling_param {
    pool: MAX
    kernel_size: 2
    stride: 2
  }
}
layer {
  name: "drop4"
  type: "Dropout"
  bottom: "pool4"
  top: "drop4"
  dropout_param {
    dropout_ratio: 0.3
  }
}
layer {
  name: "elu4"
  type: "ELU"
  bottom: "drop4"
  top: "elu4"
}
layer {
  name: "conv8"
  type: "Convolution"
  bottom: "elu4"
  top: "conv8"
  convolution_param {
    num_output: 280
    kernel_size: 1
    weight_filler {
      type: "xavier"
    }
  }
}
layer {
  name: "pool5"
  type: "Pooling"
  bottom: "conv8"
  top: "pool5"
  pooling_param {
    pool: MAX
    kernel_size: 2
    stride: 2
  }
}
layer {
  name: "drop5"
  type: "Dropout"
  bottom: "pool5"
  top: "drop5"
  dropout_param {
    dropout_ratio: 0.4
  }
}
layer {
  name: "elu5"
  type: "ELU"
  bottom: "drop5"
  top: "elu5"
}
layer {
  name: "conv10"
  type: "Convolution"
  bottom: "elu5"
  top: "conv10"
  convolution_param {
    num_output: 300
    kernel_size: 1
    weight_filler {
      type: "xavier"
    }
  }
}
layer {
  name: "pool6"
  type: "Pooling"
  bottom: "conv10"
  top: "pool6"
  pooling_param {
    pool: MAX
    kernel_size: 2
    stride: 2
  }
}
layer {
  name: "drop6"
  type: "Dropout"
  bottom: "pool6"
  top: "drop6"
  dropout_param {
    dropout_ratio: 0.5
  }
}
layer {
  name: "elu6"
  type: "ELU"
  bottom: "drop6"
  top: "elu6"
}
layer {
  name: "conv11"
  type: "Convolution"
  bottom: "elu6"
  top: "conv11"
  convolution_param {
    num_output: 100
    kernel_size: 1
    weight_filler {
      type: "xavier"
    }
  }
}
layer {
  name: "pool7"
  type: "Pooling"
  bottom: "conv11"
  top: "pool7"
  pooling_param {
    pool: MAX
    kernel_size: 2
    stride: 2
  }
}
layer {
  name: "drop7"
  type: "Dropout"
  bottom: "pool7"
  top: "drop7"
  dropout_param {
    dropout_ratio: 0
  }
}
layer {
  name: "elu7"
  type: "ELU"
  bottom: "drop7"
  top: "elu7"
}
layer {
  name: "pool"
  type: "Pooling"
  bottom: "elu7"
  top: "pool"
  pooling_param {
    pool: AVE
    global_pooling: true
  }
}
layer {
  name: "flatten"
  type: "Flatten"
  bottom: "pool"
  top: "flatten"
}
layer {
  name: "score"
  type: "InnerProduct"
  bottom: "flatten"
  top: "score"
  inner_product_param {
    num_output: 10
    weight_filler {
      type: "gaussian"
    }
  }
}
layer {
  name: "accuracy"
  type: "Accuracy"
  bottom: "score"
  bottom: "label"
  top: "accuracy"
}
layer {
  name: "loss"
  type: "SoftmaxWithLoss"
  bottom: "score"
  bottom: "label"
  top: "loss"
}
I1017 18:30:01.595119  3478 layer_factory.hpp:77] Creating layer data
I1017 18:30:01.595300  3478 net.cpp:100] Creating Layer data
I1017 18:30:01.595307  3478 net.cpp:408] data -> data
I1017 18:30:01.595314  3478 net.cpp:408] data -> label
I1017 18:30:01.595873  3485 db_lmdb.cpp:35] Opened lmdb ../../../../data/cifar-10/cifar10_test_lmdb
I1017 18:30:01.595952  3478 data_layer.cpp:41] output data size: 100,3,32,32
I1017 18:30:01.597614  3478 net.cpp:150] Setting up data
I1017 18:30:01.597626  3478 net.cpp:157] Top shape: 100 3 32 32 (307200)
I1017 18:30:01.597630  3478 net.cpp:157] Top shape: 100 (100)
I1017 18:30:01.597631  3478 net.cpp:165] Memory required for data: 1229200
I1017 18:30:01.597635  3478 layer_factory.hpp:77] Creating layer label_data_1_split
I1017 18:30:01.597640  3478 net.cpp:100] Creating Layer label_data_1_split
I1017 18:30:01.597643  3478 net.cpp:434] label_data_1_split <- label
I1017 18:30:01.597648  3478 net.cpp:408] label_data_1_split -> label_data_1_split_0
I1017 18:30:01.597654  3478 net.cpp:408] label_data_1_split -> label_data_1_split_1
I1017 18:30:01.597729  3478 net.cpp:150] Setting up label_data_1_split
I1017 18:30:01.597735  3478 net.cpp:157] Top shape: 100 (100)
I1017 18:30:01.597738  3478 net.cpp:157] Top shape: 100 (100)
I1017 18:30:01.597739  3478 net.cpp:165] Memory required for data: 1230000
I1017 18:30:01.597741  3478 layer_factory.hpp:77] Creating layer conv1
I1017 18:30:01.597748  3478 net.cpp:100] Creating Layer conv1
I1017 18:30:01.597750  3478 net.cpp:434] conv1 <- data
I1017 18:30:01.597754  3478 net.cpp:408] conv1 -> conv1
I1017 18:30:01.598654  3478 net.cpp:150] Setting up conv1
I1017 18:30:01.598662  3478 net.cpp:157] Top shape: 100 192 28 28 (15052800)
I1017 18:30:01.598665  3478 net.cpp:165] Memory required for data: 61441200
I1017 18:30:01.598672  3478 layer_factory.hpp:77] Creating layer pool1
I1017 18:30:01.598680  3478 net.cpp:100] Creating Layer pool1
I1017 18:30:01.598685  3478 net.cpp:434] pool1 <- conv1
I1017 18:30:01.598690  3478 net.cpp:408] pool1 -> pool1
I1017 18:30:01.598716  3478 net.cpp:150] Setting up pool1
I1017 18:30:01.598721  3478 net.cpp:157] Top shape: 100 192 14 14 (3763200)
I1017 18:30:01.598722  3478 net.cpp:165] Memory required for data: 76494000
I1017 18:30:01.598724  3478 layer_factory.hpp:77] Creating layer drop1
I1017 18:30:01.598729  3478 net.cpp:100] Creating Layer drop1
I1017 18:30:01.598731  3478 net.cpp:434] drop1 <- pool1
I1017 18:30:01.598733  3478 net.cpp:408] drop1 -> drop1
I1017 18:30:01.598757  3478 net.cpp:150] Setting up drop1
I1017 18:30:01.598762  3478 net.cpp:157] Top shape: 100 192 14 14 (3763200)
I1017 18:30:01.598763  3478 net.cpp:165] Memory required for data: 91546800
I1017 18:30:01.598764  3478 layer_factory.hpp:77] Creating layer elu1
I1017 18:30:01.598768  3478 net.cpp:100] Creating Layer elu1
I1017 18:30:01.598770  3478 net.cpp:434] elu1 <- drop1
I1017 18:30:01.598773  3478 net.cpp:408] elu1 -> elu1
I1017 18:30:01.598785  3478 net.cpp:150] Setting up elu1
I1017 18:30:01.598789  3478 net.cpp:157] Top shape: 100 192 14 14 (3763200)
I1017 18:30:01.598790  3478 net.cpp:165] Memory required for data: 106599600
I1017 18:30:01.598793  3478 layer_factory.hpp:77] Creating layer conv2
I1017 18:30:01.598796  3478 net.cpp:100] Creating Layer conv2
I1017 18:30:01.598799  3478 net.cpp:434] conv2 <- elu1
I1017 18:30:01.598803  3478 net.cpp:408] conv2 -> conv2
I1017 18:30:01.599752  3478 net.cpp:150] Setting up conv2
I1017 18:30:01.599761  3478 net.cpp:157] Top shape: 100 192 14 14 (3763200)
I1017 18:30:01.599764  3478 net.cpp:165] Memory required for data: 121652400
I1017 18:30:01.599771  3478 layer_factory.hpp:77] Creating layer conv3
I1017 18:30:01.599776  3478 net.cpp:100] Creating Layer conv3
I1017 18:30:01.599778  3478 net.cpp:434] conv3 <- conv2
I1017 18:30:01.599792  3478 net.cpp:408] conv3 -> conv3
I1017 18:30:01.602196  3478 net.cpp:150] Setting up conv3
I1017 18:30:01.602205  3478 net.cpp:157] Top shape: 100 240 12 12 (3456000)
I1017 18:30:01.602207  3478 net.cpp:165] Memory required for data: 135476400
I1017 18:30:01.602213  3478 layer_factory.hpp:77] Creating layer pool2
I1017 18:30:01.602218  3478 net.cpp:100] Creating Layer pool2
I1017 18:30:01.602221  3478 net.cpp:434] pool2 <- conv3
I1017 18:30:01.602224  3478 net.cpp:408] pool2 -> pool2
I1017 18:30:01.602252  3478 net.cpp:150] Setting up pool2
I1017 18:30:01.602257  3478 net.cpp:157] Top shape: 100 240 6 6 (864000)
I1017 18:30:01.602257  3478 net.cpp:165] Memory required for data: 138932400
I1017 18:30:01.602259  3478 layer_factory.hpp:77] Creating layer drop2
I1017 18:30:01.602263  3478 net.cpp:100] Creating Layer drop2
I1017 18:30:01.602265  3478 net.cpp:434] drop2 <- pool2
I1017 18:30:01.602267  3478 net.cpp:408] drop2 -> drop2
I1017 18:30:01.602290  3478 net.cpp:150] Setting up drop2
I1017 18:30:01.602296  3478 net.cpp:157] Top shape: 100 240 6 6 (864000)
I1017 18:30:01.602298  3478 net.cpp:165] Memory required for data: 142388400
I1017 18:30:01.602299  3478 layer_factory.hpp:77] Creating layer elu2
I1017 18:30:01.602303  3478 net.cpp:100] Creating Layer elu2
I1017 18:30:01.602305  3478 net.cpp:434] elu2 <- drop2
I1017 18:30:01.602308  3478 net.cpp:408] elu2 -> elu2
I1017 18:30:01.602321  3478 net.cpp:150] Setting up elu2
I1017 18:30:01.602325  3478 net.cpp:157] Top shape: 100 240 6 6 (864000)
I1017 18:30:01.602329  3478 net.cpp:165] Memory required for data: 145844400
I1017 18:30:01.602330  3478 layer_factory.hpp:77] Creating layer conv4
I1017 18:30:01.602334  3478 net.cpp:100] Creating Layer conv4
I1017 18:30:01.602336  3478 net.cpp:434] conv4 <- elu2
I1017 18:30:01.602340  3478 net.cpp:408] conv4 -> conv4
I1017 18:30:01.603193  3478 net.cpp:150] Setting up conv4
I1017 18:30:01.603200  3478 net.cpp:157] Top shape: 100 240 6 6 (864000)
I1017 18:30:01.603202  3478 net.cpp:165] Memory required for data: 149300400
I1017 18:30:01.603207  3478 layer_factory.hpp:77] Creating layer conv5
I1017 18:30:01.603214  3478 net.cpp:100] Creating Layer conv5
I1017 18:30:01.603216  3478 net.cpp:434] conv5 <- conv4
I1017 18:30:01.603220  3478 net.cpp:408] conv5 -> conv5
I1017 18:30:01.604991  3478 net.cpp:150] Setting up conv5
I1017 18:30:01.604998  3478 net.cpp:157] Top shape: 100 260 5 5 (650000)
I1017 18:30:01.605001  3478 net.cpp:165] Memory required for data: 151900400
I1017 18:30:01.605008  3478 layer_factory.hpp:77] Creating layer pool3
I1017 18:30:01.605013  3478 net.cpp:100] Creating Layer pool3
I1017 18:30:01.605015  3478 net.cpp:434] pool3 <- conv5
I1017 18:30:01.605020  3478 net.cpp:408] pool3 -> pool3
I1017 18:30:01.605046  3478 net.cpp:150] Setting up pool3
I1017 18:30:01.605051  3478 net.cpp:157] Top shape: 100 260 3 3 (234000)
I1017 18:30:01.605052  3478 net.cpp:165] Memory required for data: 152836400
I1017 18:30:01.605053  3478 layer_factory.hpp:77] Creating layer drop3
I1017 18:30:01.605057  3478 net.cpp:100] Creating Layer drop3
I1017 18:30:01.605059  3478 net.cpp:434] drop3 <- pool3
I1017 18:30:01.605062  3478 net.cpp:408] drop3 -> drop3
I1017 18:30:01.605087  3478 net.cpp:150] Setting up drop3
I1017 18:30:01.605090  3478 net.cpp:157] Top shape: 100 260 3 3 (234000)
I1017 18:30:01.605093  3478 net.cpp:165] Memory required for data: 153772400
I1017 18:30:01.605094  3478 layer_factory.hpp:77] Creating layer elu3
I1017 18:30:01.605098  3478 net.cpp:100] Creating Layer elu3
I1017 18:30:01.605099  3478 net.cpp:434] elu3 <- drop3
I1017 18:30:01.605103  3478 net.cpp:408] elu3 -> elu3
I1017 18:30:01.605118  3478 net.cpp:150] Setting up elu3
I1017 18:30:01.605120  3478 net.cpp:157] Top shape: 100 260 3 3 (234000)
I1017 18:30:01.605123  3478 net.cpp:165] Memory required for data: 154708400
I1017 18:30:01.605124  3478 layer_factory.hpp:77] Creating layer conv6
I1017 18:30:01.605130  3478 net.cpp:100] Creating Layer conv6
I1017 18:30:01.605132  3478 net.cpp:434] conv6 <- elu3
I1017 18:30:01.605136  3478 net.cpp:408] conv6 -> conv6
I1017 18:30:01.606287  3478 net.cpp:150] Setting up conv6
I1017 18:30:01.606295  3478 net.cpp:157] Top shape: 100 260 3 3 (234000)
I1017 18:30:01.606297  3478 net.cpp:165] Memory required for data: 155644400
I1017 18:30:01.606302  3478 layer_factory.hpp:77] Creating layer conv7
I1017 18:30:01.606307  3478 net.cpp:100] Creating Layer conv7
I1017 18:30:01.606310  3478 net.cpp:434] conv7 <- conv6
I1017 18:30:01.606314  3478 net.cpp:408] conv7 -> conv7
I1017 18:30:01.608259  3478 net.cpp:150] Setting up conv7
I1017 18:30:01.608268  3478 net.cpp:157] Top shape: 100 280 2 2 (112000)
I1017 18:30:01.608269  3478 net.cpp:165] Memory required for data: 156092400
I1017 18:30:01.608273  3478 layer_factory.hpp:77] Creating layer pool4
I1017 18:30:01.608278  3478 net.cpp:100] Creating Layer pool4
I1017 18:30:01.608280  3478 net.cpp:434] pool4 <- conv7
I1017 18:30:01.608284  3478 net.cpp:408] pool4 -> pool4
I1017 18:30:01.608310  3478 net.cpp:150] Setting up pool4
I1017 18:30:01.608314  3478 net.cpp:157] Top shape: 100 280 1 1 (28000)
I1017 18:30:01.608316  3478 net.cpp:165] Memory required for data: 156204400
I1017 18:30:01.608317  3478 layer_factory.hpp:77] Creating layer drop4
I1017 18:30:01.608322  3478 net.cpp:100] Creating Layer drop4
I1017 18:30:01.608324  3478 net.cpp:434] drop4 <- pool4
I1017 18:30:01.608327  3478 net.cpp:408] drop4 -> drop4
I1017 18:30:01.608351  3478 net.cpp:150] Setting up drop4
I1017 18:30:01.608355  3478 net.cpp:157] Top shape: 100 280 1 1 (28000)
I1017 18:30:01.608356  3478 net.cpp:165] Memory required for data: 156316400
I1017 18:30:01.608358  3478 layer_factory.hpp:77] Creating layer elu4
I1017 18:30:01.608361  3478 net.cpp:100] Creating Layer elu4
I1017 18:30:01.608366  3478 net.cpp:434] elu4 <- drop4
I1017 18:30:01.608368  3478 net.cpp:408] elu4 -> elu4
I1017 18:30:01.608382  3478 net.cpp:150] Setting up elu4
I1017 18:30:01.608386  3478 net.cpp:157] Top shape: 100 280 1 1 (28000)
I1017 18:30:01.608388  3478 net.cpp:165] Memory required for data: 156428400
I1017 18:30:01.608389  3478 layer_factory.hpp:77] Creating layer conv8
I1017 18:30:01.608394  3478 net.cpp:100] Creating Layer conv8
I1017 18:30:01.608397  3478 net.cpp:434] conv8 <- elu4
I1017 18:30:01.608400  3478 net.cpp:408] conv8 -> conv8
I1017 18:30:01.609267  3478 net.cpp:150] Setting up conv8
I1017 18:30:01.609275  3478 net.cpp:157] Top shape: 100 280 1 1 (28000)
I1017 18:30:01.609277  3478 net.cpp:165] Memory required for data: 156540400
I1017 18:30:01.609282  3478 layer_factory.hpp:77] Creating layer pool5
I1017 18:30:01.609285  3478 net.cpp:100] Creating Layer pool5
I1017 18:30:01.609288  3478 net.cpp:434] pool5 <- conv8
I1017 18:30:01.609292  3478 net.cpp:408] pool5 -> pool5
I1017 18:30:01.609318  3478 net.cpp:150] Setting up pool5
I1017 18:30:01.609321  3478 net.cpp:157] Top shape: 100 280 1 1 (28000)
I1017 18:30:01.609324  3478 net.cpp:165] Memory required for data: 156652400
I1017 18:30:01.609326  3478 layer_factory.hpp:77] Creating layer drop5
I1017 18:30:01.609329  3478 net.cpp:100] Creating Layer drop5
I1017 18:30:01.609331  3478 net.cpp:434] drop5 <- pool5
I1017 18:30:01.609334  3478 net.cpp:408] drop5 -> drop5
I1017 18:30:01.609357  3478 net.cpp:150] Setting up drop5
I1017 18:30:01.609361  3478 net.cpp:157] Top shape: 100 280 1 1 (28000)
I1017 18:30:01.609364  3478 net.cpp:165] Memory required for data: 156764400
I1017 18:30:01.609365  3478 layer_factory.hpp:77] Creating layer elu5
I1017 18:30:01.609367  3478 net.cpp:100] Creating Layer elu5
I1017 18:30:01.609369  3478 net.cpp:434] elu5 <- drop5
I1017 18:30:01.609372  3478 net.cpp:408] elu5 -> elu5
I1017 18:30:01.609387  3478 net.cpp:150] Setting up elu5
I1017 18:30:01.609392  3478 net.cpp:157] Top shape: 100 280 1 1 (28000)
I1017 18:30:01.609395  3478 net.cpp:165] Memory required for data: 156876400
I1017 18:30:01.609396  3478 layer_factory.hpp:77] Creating layer conv10
I1017 18:30:01.609400  3478 net.cpp:100] Creating Layer conv10
I1017 18:30:01.609402  3478 net.cpp:434] conv10 <- elu5
I1017 18:30:01.609406  3478 net.cpp:408] conv10 -> conv10
I1017 18:30:01.611600  3478 net.cpp:150] Setting up conv10
I1017 18:30:01.611613  3478 net.cpp:157] Top shape: 100 300 1 1 (30000)
I1017 18:30:01.611614  3478 net.cpp:165] Memory required for data: 156996400
I1017 18:30:01.611623  3478 layer_factory.hpp:77] Creating layer pool6
I1017 18:30:01.611629  3478 net.cpp:100] Creating Layer pool6
I1017 18:30:01.611631  3478 net.cpp:434] pool6 <- conv10
I1017 18:30:01.611635  3478 net.cpp:408] pool6 -> pool6
I1017 18:30:01.611662  3478 net.cpp:150] Setting up pool6
I1017 18:30:01.611667  3478 net.cpp:157] Top shape: 100 300 1 1 (30000)
I1017 18:30:01.611670  3478 net.cpp:165] Memory required for data: 157116400
I1017 18:30:01.611671  3478 layer_factory.hpp:77] Creating layer drop6
I1017 18:30:01.611675  3478 net.cpp:100] Creating Layer drop6
I1017 18:30:01.611677  3478 net.cpp:434] drop6 <- pool6
I1017 18:30:01.611680  3478 net.cpp:408] drop6 -> drop6
I1017 18:30:01.611706  3478 net.cpp:150] Setting up drop6
I1017 18:30:01.611708  3478 net.cpp:157] Top shape: 100 300 1 1 (30000)
I1017 18:30:01.611711  3478 net.cpp:165] Memory required for data: 157236400
I1017 18:30:01.611712  3478 layer_factory.hpp:77] Creating layer elu6
I1017 18:30:01.611716  3478 net.cpp:100] Creating Layer elu6
I1017 18:30:01.611717  3478 net.cpp:434] elu6 <- drop6
I1017 18:30:01.611721  3478 net.cpp:408] elu6 -> elu6
I1017 18:30:01.611735  3478 net.cpp:150] Setting up elu6
I1017 18:30:01.611738  3478 net.cpp:157] Top shape: 100 300 1 1 (30000)
I1017 18:30:01.611740  3478 net.cpp:165] Memory required for data: 157356400
I1017 18:30:01.611742  3478 layer_factory.hpp:77] Creating layer conv11
I1017 18:30:01.611747  3478 net.cpp:100] Creating Layer conv11
I1017 18:30:01.611750  3478 net.cpp:434] conv11 <- elu6
I1017 18:30:01.611753  3478 net.cpp:408] conv11 -> conv11
I1017 18:30:01.612532  3478 net.cpp:150] Setting up conv11
I1017 18:30:01.612540  3478 net.cpp:157] Top shape: 100 100 1 1 (10000)
I1017 18:30:01.612542  3478 net.cpp:165] Memory required for data: 157396400
I1017 18:30:01.612545  3478 layer_factory.hpp:77] Creating layer pool7
I1017 18:30:01.612550  3478 net.cpp:100] Creating Layer pool7
I1017 18:30:01.612552  3478 net.cpp:434] pool7 <- conv11
I1017 18:30:01.612556  3478 net.cpp:408] pool7 -> pool7
I1017 18:30:01.612586  3478 net.cpp:150] Setting up pool7
I1017 18:30:01.612591  3478 net.cpp:157] Top shape: 100 100 1 1 (10000)
I1017 18:30:01.612593  3478 net.cpp:165] Memory required for data: 157436400
I1017 18:30:01.612596  3478 layer_factory.hpp:77] Creating layer drop7
I1017 18:30:01.612598  3478 net.cpp:100] Creating Layer drop7
I1017 18:30:01.612601  3478 net.cpp:434] drop7 <- pool7
I1017 18:30:01.612604  3478 net.cpp:408] drop7 -> drop7
I1017 18:30:01.612629  3478 net.cpp:150] Setting up drop7
I1017 18:30:01.612633  3478 net.cpp:157] Top shape: 100 100 1 1 (10000)
I1017 18:30:01.612635  3478 net.cpp:165] Memory required for data: 157476400
I1017 18:30:01.612637  3478 layer_factory.hpp:77] Creating layer elu7
I1017 18:30:01.612643  3478 net.cpp:100] Creating Layer elu7
I1017 18:30:01.612645  3478 net.cpp:434] elu7 <- drop7
I1017 18:30:01.612648  3478 net.cpp:408] elu7 -> elu7
I1017 18:30:01.612663  3478 net.cpp:150] Setting up elu7
I1017 18:30:01.612666  3478 net.cpp:157] Top shape: 100 100 1 1 (10000)
I1017 18:30:01.612668  3478 net.cpp:165] Memory required for data: 157516400
I1017 18:30:01.612669  3478 layer_factory.hpp:77] Creating layer pool
I1017 18:30:01.612674  3478 net.cpp:100] Creating Layer pool
I1017 18:30:01.612676  3478 net.cpp:434] pool <- elu7
I1017 18:30:01.612679  3478 net.cpp:408] pool -> pool
I1017 18:30:01.612797  3478 net.cpp:150] Setting up pool
I1017 18:30:01.612802  3478 net.cpp:157] Top shape: 100 100 1 1 (10000)
I1017 18:30:01.612803  3478 net.cpp:165] Memory required for data: 157556400
I1017 18:30:01.612805  3478 layer_factory.hpp:77] Creating layer flatten
I1017 18:30:01.612808  3478 net.cpp:100] Creating Layer flatten
I1017 18:30:01.612812  3478 net.cpp:434] flatten <- pool
I1017 18:30:01.612814  3478 net.cpp:408] flatten -> flatten
I1017 18:30:01.612829  3478 net.cpp:150] Setting up flatten
I1017 18:30:01.612839  3478 net.cpp:157] Top shape: 100 100 (10000)
I1017 18:30:01.612843  3478 net.cpp:165] Memory required for data: 157596400
I1017 18:30:01.612844  3478 layer_factory.hpp:77] Creating layer score
I1017 18:30:01.612849  3478 net.cpp:100] Creating Layer score
I1017 18:30:01.612853  3478 net.cpp:434] score <- flatten
I1017 18:30:01.612855  3478 net.cpp:408] score -> score
I1017 18:30:01.612942  3478 net.cpp:150] Setting up score
I1017 18:30:01.612947  3478 net.cpp:157] Top shape: 100 10 (1000)
I1017 18:30:01.612949  3478 net.cpp:165] Memory required for data: 157600400
I1017 18:30:01.612953  3478 layer_factory.hpp:77] Creating layer score_score_0_split
I1017 18:30:01.612957  3478 net.cpp:100] Creating Layer score_score_0_split
I1017 18:30:01.612959  3478 net.cpp:434] score_score_0_split <- score
I1017 18:30:01.612962  3478 net.cpp:408] score_score_0_split -> score_score_0_split_0
I1017 18:30:01.612967  3478 net.cpp:408] score_score_0_split -> score_score_0_split_1
I1017 18:30:01.612992  3478 net.cpp:150] Setting up score_score_0_split
I1017 18:30:01.612994  3478 net.cpp:157] Top shape: 100 10 (1000)
I1017 18:30:01.612996  3478 net.cpp:157] Top shape: 100 10 (1000)
I1017 18:30:01.612998  3478 net.cpp:165] Memory required for data: 157608400
I1017 18:30:01.613000  3478 layer_factory.hpp:77] Creating layer accuracy
I1017 18:30:01.613004  3478 net.cpp:100] Creating Layer accuracy
I1017 18:30:01.613008  3478 net.cpp:434] accuracy <- score_score_0_split_0
I1017 18:30:01.613010  3478 net.cpp:434] accuracy <- label_data_1_split_0
I1017 18:30:01.613013  3478 net.cpp:408] accuracy -> accuracy
…
