…
device_id: 0
train_state {
  level: 0
  stage: ""
}
type: "AdaGrad"
I1017 11:22:00.673475  8481 solver.cpp:81] Creating training net from train_net file: /home/adam/Honours/Honours-Project/cifar-10_pooling/max/leakyrelu/poolcnn_leakyrelu_train.prototxt
I1017 11:22:00.673776  8481 net.cpp:58] Initializing net from parameters: 
state {
  phase: TRAIN
  level: 0
  stage: ""
}
layer {
  name: "data"
  type: "Data"
  top: "data"
  top: "label"
  data_param {
    source: "../../../../data/cifar-10/cifar10_train_lmdb"
    batch_size: 64
    backend: LMDB
  }
}
layer {
  name: "conv1"
  type: "Convolution"
  bottom: "data"
  top: "conv1"
  convolution_param {
    num_output: 192
    kernel_size: 5
    weight_filler {
      type: "xavier"
    }
  }
}
layer {
  name: "pool1"
  type: "Pooling"
  bottom: "conv1"
  top: "pool1"
  pooling_param {
    pool: MAX
    kernel_size: 2
    stride: 2
  }
}
layer {
  name: "drop1"
  type: "Dropout"
  bottom: "pool1"
  top: "drop1"
  dropout_param {
    dropout_ratio: 0
  }
}
layer {
  name: "relu1"
  type: "ReLU"
  bottom: "drop1"
  top: "relu1"
  relu_param {
    negative_slope: 0.01
  }
}
layer {
  name: "conv2"
  type: "Convolution"
  bottom: "relu1"
  top: "conv2"
  convolution_param {
    num_output: 192
    kernel_size: 1
    weight_filler {
      type: "xavier"
    }
  }
}
layer {
  name: "conv3"
  type: "Convolution"
  bottom: "conv2"
  top: "conv3"
  convolution_param {
    num_output: 240
    kernel_size: 3
    weight_filler {
      type: "xavier"
    }
  }
}
layer {
  name: "pool2"
  type: "Pooling"
  bottom: "conv3"
  top: "pool2"
  pooling_param {
    pool: MAX
    kernel_size: 2
    stride: 2
  }
}
layer {
  name: "drop2"
  type: "Dropout"
  bottom: "pool2"
  top: "drop2"
  dropout_param {
    dropout_ratio: 0.1
  }
}
layer {
  name: "relu2"
  type: "ReLU"
  bottom: "drop2"
  top: "relu2"
  relu_param {
    negative_slope: 0.01
  }
}
layer {
  name: "conv4"
  type: "Convolution"
  bottom: "relu2"
  top: "conv4"
  convolution_param {
    num_output: 240
    kernel_size: 1
    weight_filler {
      type: "xavier"
    }
  }
}
layer {
  name: "conv5"
  type: "Convolution"
  bottom: "conv4"
  top: "conv5"
  convolution_param {
    num_output: 260
    kernel_size: 2
    weight_filler {
      type: "xavier"
    }
  }
}
layer {
  name: "pool3"
  type: "Pooling"
  bottom: "conv5"
  top: "pool3"
  pooling_param {
    pool: MAX
    kernel_size: 2
    stride: 2
  }
}
layer {
  name: "drop3"
  type: "Dropout"
  bottom: "pool3"
  top: "drop3"
  dropout_param {
    dropout_ratio: 0.2
  }
}
layer {
  name: "relu3"
  type: "ReLU"
  bottom: "drop3"
  top: "relu3"
  relu_param {
    negative_slope: 0.01
  }
}
layer {
  name: "conv6"
  type: "Convolution"
  bottom: "relu3"
  top: "conv6"
  convolution_param {
    num_output: 260
    kernel_size: 1
    weight_filler {
      type: "xavier"
    }
  }
}
layer {
  name: "conv7"
  type: "Convolution"
  bottom: "conv6"
  top: "conv7"
  convolution_param {
    num_output: 280
    kernel_size: 2
    weight_filler {
      type: "xavier"
    }
  }
}
layer {
  name: "pool4"
  type: "Pooling"
  bottom: "conv7"
  top: "pool4"
  pooling_param {
    pool: MAX
    kernel_size: 2
    stride: 2
  }
}
layer {
  name: "drop4"
  type: "Dropout"
  bottom: "pool4"
  top: "drop4"
  dropout_param {
    dropout_ratio: 0.3
  }
}
layer {
  name: "relu4"
  type: "ReLU"
  bottom: "drop4"
  top: "relu4"
  relu_param {
    negative_slope: 0.01
  }
}
layer {
  name: "conv8"
  type: "Convolution"
  bottom: "relu4"
  top: "conv8"
  convolution_param {
    num_output: 280
    kernel_size: 1
    weight_filler {
      type: "xavier"
    }
  }
}
layer {
  name: "pool5"
  type: "Pooling"
  bottom: "conv8"
  top: "pool5"
  pooling_param {
    pool: MAX
    kernel_size: 2
    stride: 2
  }
}
layer {
  name: "drop5"
  type: "Dropout"
  bottom: "pool5"
  top: "drop5"
  dropout_param {
    dropout_ratio: 0.4
  }
}
layer {
  name: "relu5"
  type: "ReLU"
  bottom: "drop5"
  top: "relu5"
  relu_param {
    negative_slope: 0.01
  }
}
layer {
  name: "conv10"
  type: "Convolution"
  bottom: "relu5"
  top: "conv10"
  convolution_param {
    num_output: 300
    kernel_size: 1
    weight_filler {
      type: "xavier"
    }
  }
}
layer {
  name: "pool6"
  type: "Pooling"
  bottom: "conv10"
  top: "pool6"
  pooling_param {
    pool: MAX
    kernel_size: 2
    stride: 2
  }
}
layer {
  name: "drop6"
  type: "Dropout"
  bottom: "pool6"
  top: "drop6"
  dropout_param {
    dropout_ratio: 0.5
  }
}
layer {
  name: "relu6"
  type: "ReLU"
  bottom: "drop6"
  top: "relu6"
  relu_param {
    negative_slope: 0.01
  }
}
layer {
  name: "conv11"
  type: "Convolution"
  bottom: "relu6"
  top: "conv11"
  convolution_param {
    num_output: 100
    kernel_size: 1
    weight_filler {
      type: "xavier"
    }
  }
}
layer {
  name: "pool7"
  type: "Pooling"
  bottom: "conv11"
  top: "pool7"
  pooling_param {
    pool: MAX
    kernel_size: 2
    stride: 2
  }
}
layer {
  name: "drop7"
  type: "Dropout"
  bottom: "pool7"
  top: "drop7"
  dropout_param {
    dropout_ratio: 0
  }
}
layer {
  name: "relu7"
  type: "ReLU"
  bottom: "drop7"
  top: "relu7"
  relu_param {
    negative_slope: 0.01
  }
}
layer {
  name: "pool"
  type: "Pooling"
  bottom: "relu7"
  top: "pool"
  pooling_param {
    pool: AVE
    global_pooling: true
  }
}
layer {
  name: "flatten"
  type: "Flatten"
  bottom: "pool"
  top: "flatten"
}
layer {
  name: "score"
  type: "InnerProduct"
  bottom: "flatten"
  top: "score"
  inner_product_param {
    num_output: 10
    weight_filler {
      type: "gaussian"
    }
  }
}
layer {
  name: "accuracy"
  type: "Accuracy"
  bottom: "score"
  bottom: "label"
  top: "accuracy"
}
layer {
  name: "loss"
  type: "SoftmaxWithLoss"
  bottom: "score"
  bottom: "label"
  top: "loss"
}
I1017 11:22:00.673877  8481 layer_factory.hpp:77] Creating layer data
I1017 11:22:00.674257  8481 net.cpp:100] Creating Layer data
I1017 11:22:00.674265  8481 net.cpp:408] data -> data
I1017 11:22:00.674279  8481 net.cpp:408] data -> label
I1017 11:22:00.674880  8487 db_lmdb.cpp:35] Opened lmdb ../../../../data/cifar-10/cifar10_train_lmdb
I1017 11:22:00.680321  8481 data_layer.cpp:41] output data size: 64,3,32,32
I1017 11:22:00.681780  8481 net.cpp:150] Setting up data
I1017 11:22:00.681797  8481 net.cpp:157] Top shape: 64 3 32 32 (196608)
I1017 11:22:00.681800  8481 net.cpp:157] Top shape: 64 (64)
I1017 11:22:00.681802  8481 net.cpp:165] Memory required for data: 786688
I1017 11:22:00.681810  8481 layer_factory.hpp:77] Creating layer label_data_1_split
I1017 11:22:00.681821  8481 net.cpp:100] Creating Layer label_data_1_split
I1017 11:22:00.681826  8481 net.cpp:434] label_data_1_split <- label
I1017 11:22:00.681838  8481 net.cpp:408] label_data_1_split -> label_data_1_split_0
I1017 11:22:00.681846  8481 net.cpp:408] label_data_1_split -> label_data_1_split_1
I1017 11:22:00.681872  8481 net.cpp:150] Setting up label_data_1_split
I1017 11:22:00.681876  8481 net.cpp:157] Top shape: 64 (64)
I1017 11:22:00.681879  8481 net.cpp:157] Top shape: 64 (64)
I1017 11:22:00.681880  8481 net.cpp:165] Memory required for data: 787200
I1017 11:22:00.681881  8481 layer_factory.hpp:77] Creating layer conv1
I1017 11:22:00.681893  8481 net.cpp:100] Creating Layer conv1
I1017 11:22:00.681895  8481 net.cpp:434] conv1 <- data
I1017 11:22:00.681898  8481 net.cpp:408] conv1 -> conv1
I1017 11:22:00.800549  8481 net.cpp:150] Setting up conv1
I1017 11:22:00.800575  8481 net.cpp:157] Top shape: 64 192 28 28 (9633792)
I1017 11:22:00.800576  8481 net.cpp:165] Memory required for data: 39322368
I1017 11:22:00.800595  8481 layer_factory.hpp:77] Creating layer pool1
I1017 11:22:00.800621  8481 net.cpp:100] Creating Layer pool1
I1017 11:22:00.800626  8481 net.cpp:434] pool1 <- conv1
I1017 11:22:00.800629  8481 net.cpp:408] pool1 -> pool1
I1017 11:22:00.800667  8481 net.cpp:150] Setting up pool1
I1017 11:22:00.800671  8481 net.cpp:157] Top shape: 64 192 14 14 (2408448)
I1017 11:22:00.800673  8481 net.cpp:165] Memory required for data: 48956160
I1017 11:22:00.800675  8481 layer_factory.hpp:77] Creating layer drop1
I1017 11:22:00.800680  8481 net.cpp:100] Creating Layer drop1
I1017 11:22:00.800683  8481 net.cpp:434] drop1 <- pool1
I1017 11:22:00.800685  8481 net.cpp:408] drop1 -> drop1
I1017 11:22:00.800709  8481 net.cpp:150] Setting up drop1
I1017 11:22:00.800711  8481 net.cpp:157] Top shape: 64 192 14 14 (2408448)
I1017 11:22:00.800714  8481 net.cpp:165] Memory required for data: 58589952
I1017 11:22:00.800715  8481 layer_factory.hpp:77] Creating layer relu1
I1017 11:22:00.800719  8481 net.cpp:100] Creating Layer relu1
I1017 11:22:00.800720  8481 net.cpp:434] relu1 <- drop1
I1017 11:22:00.800722  8481 net.cpp:408] relu1 -> relu1
I1017 11:22:00.800848  8481 net.cpp:150] Setting up relu1
I1017 11:22:00.800853  8481 net.cpp:157] Top shape: 64 192 14 14 (2408448)
I1017 11:22:00.800855  8481 net.cpp:165] Memory required for data: 68223744
I1017 11:22:00.800856  8481 layer_factory.hpp:77] Creating layer conv2
I1017 11:22:00.800863  8481 net.cpp:100] Creating Layer conv2
I1017 11:22:00.800865  8481 net.cpp:434] conv2 <- relu1
I1017 11:22:00.800869  8481 net.cpp:408] conv2 -> conv2
I1017 11:22:00.801916  8481 net.cpp:150] Setting up conv2
I1017 11:22:00.801925  8481 net.cpp:157] Top shape: 64 192 14 14 (2408448)
I1017 11:22:00.801928  8481 net.cpp:165] Memory required for data: 77857536
I1017 11:22:00.801933  8481 layer_factory.hpp:77] Creating layer conv3
I1017 11:22:00.801937  8481 net.cpp:100] Creating Layer conv3
I1017 11:22:00.801940  8481 net.cpp:434] conv3 <- conv2
I1017 11:22:00.801944  8481 net.cpp:408] conv3 -> conv3
I1017 11:22:00.804383  8481 net.cpp:150] Setting up conv3
I1017 11:22:00.804390  8481 net.cpp:157] Top shape: 64 240 12 12 (2211840)
I1017 11:22:00.804394  8481 net.cpp:165] Memory required for data: 86704896
I1017 11:22:00.804399  8481 layer_factory.hpp:77] Creating layer pool2
I1017 11:22:00.804404  8481 net.cpp:100] Creating Layer pool2
I1017 11:22:00.804405  8481 net.cpp:434] pool2 <- conv3
I1017 11:22:00.804409  8481 net.cpp:408] pool2 -> pool2
I1017 11:22:00.804433  8481 net.cpp:150] Setting up pool2
I1017 11:22:00.804437  8481 net.cpp:157] Top shape: 64 240 6 6 (552960)
I1017 11:22:00.804440  8481 net.cpp:165] Memory required for data: 88916736
I1017 11:22:00.804441  8481 layer_factory.hpp:77] Creating layer drop2
I1017 11:22:00.804443  8481 net.cpp:100] Creating Layer drop2
I1017 11:22:00.804446  8481 net.cpp:434] drop2 <- pool2
I1017 11:22:00.804450  8481 net.cpp:408] drop2 -> drop2
I1017 11:22:00.804469  8481 net.cpp:150] Setting up drop2
I1017 11:22:00.804473  8481 net.cpp:157] Top shape: 64 240 6 6 (552960)
I1017 11:22:00.804474  8481 net.cpp:165] Memory required for data: 91128576
I1017 11:22:00.804476  8481 layer_factory.hpp:77] Creating layer relu2
I1017 11:22:00.804479  8481 net.cpp:100] Creating Layer relu2
I1017 11:22:00.804481  8481 net.cpp:434] relu2 <- drop2
I1017 11:22:00.804483  8481 net.cpp:408] relu2 -> relu2
I1017 11:22:00.804595  8481 net.cpp:150] Setting up relu2
I1017 11:22:00.804601  8481 net.cpp:157] Top shape: 64 240 6 6 (552960)
I1017 11:22:00.804602  8481 net.cpp:165] Memory required for data: 93340416
I1017 11:22:00.804605  8481 layer_factory.hpp:77] Creating layer conv4
I1017 11:22:00.804610  8481 net.cpp:100] Creating Layer conv4
I1017 11:22:00.804611  8481 net.cpp:434] conv4 <- relu2
I1017 11:22:00.804615  8481 net.cpp:408] conv4 -> conv4
I1017 11:22:00.805428  8481 net.cpp:150] Setting up conv4
I1017 11:22:00.805435  8481 net.cpp:157] Top shape: 64 240 6 6 (552960)
I1017 11:22:00.805438  8481 net.cpp:165] Memory required for data: 95552256
I1017 11:22:00.805441  8481 layer_factory.hpp:77] Creating layer conv5
I1017 11:22:00.805454  8481 net.cpp:100] Creating Layer conv5
I1017 11:22:00.805455  8481 net.cpp:434] conv5 <- conv4
I1017 11:22:00.805459  8481 net.cpp:408] conv5 -> conv5
I1017 11:22:00.807193  8481 net.cpp:150] Setting up conv5
I1017 11:22:00.807201  8481 net.cpp:157] Top shape: 64 260 5 5 (416000)
I1017 11:22:00.807204  8481 net.cpp:165] Memory required for data: 97216256
I1017 11:22:00.807209  8481 layer_factory.hpp:77] Creating layer pool3
I1017 11:22:00.807214  8481 net.cpp:100] Creating Layer pool3
I1017 11:22:00.807215  8481 net.cpp:434] pool3 <- conv5
I1017 11:22:00.807219  8481 net.cpp:408] pool3 -> pool3
I1017 11:22:00.807243  8481 net.cpp:150] Setting up pool3
I1017 11:22:00.807247  8481 net.cpp:157] Top shape: 64 260 3 3 (149760)
I1017 11:22:00.807248  8481 net.cpp:165] Memory required for data: 97815296
I1017 11:22:00.807250  8481 layer_factory.hpp:77] Creating layer drop3
I1017 11:22:00.807253  8481 net.cpp:100] Creating Layer drop3
I1017 11:22:00.807255  8481 net.cpp:434] drop3 <- pool3
I1017 11:22:00.807258  8481 net.cpp:408] drop3 -> drop3
I1017 11:22:00.807279  8481 net.cpp:150] Setting up drop3
I1017 11:22:00.807284  8481 net.cpp:157] Top shape: 64 260 3 3 (149760)
I1017 11:22:00.807286  8481 net.cpp:165] Memory required for data: 98414336
I1017 11:22:00.807287  8481 layer_factory.hpp:77] Creating layer relu3
I1017 11:22:00.807289  8481 net.cpp:100] Creating Layer relu3
I1017 11:22:00.807291  8481 net.cpp:434] relu3 <- drop3
I1017 11:22:00.807296  8481 net.cpp:408] relu3 -> relu3
I1017 11:22:00.807404  8481 net.cpp:150] Setting up relu3
I1017 11:22:00.807409  8481 net.cpp:157] Top shape: 64 260 3 3 (149760)
I1017 11:22:00.807410  8481 net.cpp:165] Memory required for data: 99013376
I1017 11:22:00.807412  8481 layer_factory.hpp:77] Creating layer conv6
I1017 11:22:00.807418  8481 net.cpp:100] Creating Layer conv6
I1017 11:22:00.807420  8481 net.cpp:434] conv6 <- relu3
I1017 11:22:00.807423  8481 net.cpp:408] conv6 -> conv6
I1017 11:22:00.808514  8481 net.cpp:150] Setting up conv6
I1017 11:22:00.808522  8481 net.cpp:157] Top shape: 64 260 3 3 (149760)
I1017 11:22:00.808524  8481 net.cpp:165] Memory required for data: 99612416
I1017 11:22:00.808528  8481 layer_factory.hpp:77] Creating layer conv7
I1017 11:22:00.808534  8481 net.cpp:100] Creating Layer conv7
I1017 11:22:00.808537  8481 net.cpp:434] conv7 <- conv6
I1017 11:22:00.808540  8481 net.cpp:408] conv7 -> conv7
I1017 11:22:00.810443  8481 net.cpp:150] Setting up conv7
I1017 11:22:00.810456  8481 net.cpp:157] Top shape: 64 280 2 2 (71680)
I1017 11:22:00.810457  8481 net.cpp:165] Memory required for data: 99899136
I1017 11:22:00.810461  8481 layer_factory.hpp:77] Creating layer pool4
I1017 11:22:00.810467  8481 net.cpp:100] Creating Layer pool4
I1017 11:22:00.810469  8481 net.cpp:434] pool4 <- conv7
I1017 11:22:00.810472  8481 net.cpp:408] pool4 -> pool4
I1017 11:22:00.810497  8481 net.cpp:150] Setting up pool4
I1017 11:22:00.810502  8481 net.cpp:157] Top shape: 64 280 1 1 (17920)
I1017 11:22:00.810503  8481 net.cpp:165] Memory required for data: 99970816
I1017 11:22:00.810504  8481 layer_factory.hpp:77] Creating layer drop4
I1017 11:22:00.810508  8481 net.cpp:100] Creating Layer drop4
I1017 11:22:00.810509  8481 net.cpp:434] drop4 <- pool4
I1017 11:22:00.810513  8481 net.cpp:408] drop4 -> drop4
I1017 11:22:00.810533  8481 net.cpp:150] Setting up drop4
I1017 11:22:00.810535  8481 net.cpp:157] Top shape: 64 280 1 1 (17920)
I1017 11:22:00.810537  8481 net.cpp:165] Memory required for data: 100042496
I1017 11:22:00.810539  8481 layer_factory.hpp:77] Creating layer relu4
I1017 11:22:00.810542  8481 net.cpp:100] Creating Layer relu4
I1017 11:22:00.810544  8481 net.cpp:434] relu4 <- drop4
I1017 11:22:00.810546  8481 net.cpp:408] relu4 -> relu4
I1017 11:22:00.810737  8481 net.cpp:150] Setting up relu4
I1017 11:22:00.810745  8481 net.cpp:157] Top shape: 64 280 1 1 (17920)
I1017 11:22:00.810746  8481 net.cpp:165] Memory required for data: 100114176
I1017 11:22:00.810748  8481 layer_factory.hpp:77] Creating layer conv8
I1017 11:22:00.810752  8481 net.cpp:100] Creating Layer conv8
I1017 11:22:00.810762  8481 net.cpp:434] conv8 <- relu4
I1017 11:22:00.810766  8481 net.cpp:408] conv8 -> conv8
I1017 11:22:00.811599  8481 net.cpp:150] Setting up conv8
I1017 11:22:00.811605  8481 net.cpp:157] Top shape: 64 280 1 1 (17920)
I1017 11:22:00.811607  8481 net.cpp:165] Memory required for data: 100185856
I1017 11:22:00.811610  8481 layer_factory.hpp:77] Creating layer pool5
I1017 11:22:00.811615  8481 net.cpp:100] Creating Layer pool5
I1017 11:22:00.811617  8481 net.cpp:434] pool5 <- conv8
I1017 11:22:00.811620  8481 net.cpp:408] pool5 -> pool5
I1017 11:22:00.811643  8481 net.cpp:150] Setting up pool5
I1017 11:22:00.811648  8481 net.cpp:157] Top shape: 64 280 1 1 (17920)
I1017 11:22:00.811650  8481 net.cpp:165] Memory required for data: 100257536
I1017 11:22:00.811651  8481 layer_factory.hpp:77] Creating layer drop5
I1017 11:22:00.811655  8481 net.cpp:100] Creating Layer drop5
I1017 11:22:00.811656  8481 net.cpp:434] drop5 <- pool5
I1017 11:22:00.811660  8481 net.cpp:408] drop5 -> drop5
I1017 11:22:00.811681  8481 net.cpp:150] Setting up drop5
I1017 11:22:00.811684  8481 net.cpp:157] Top shape: 64 280 1 1 (17920)
I1017 11:22:00.811686  8481 net.cpp:165] Memory required for data: 100329216
I1017 11:22:00.811687  8481 layer_factory.hpp:77] Creating layer relu5
I1017 11:22:00.811691  8481 net.cpp:100] Creating Layer relu5
I1017 11:22:00.811691  8481 net.cpp:434] relu5 <- drop5
I1017 11:22:00.811694  8481 net.cpp:408] relu5 -> relu5
I1017 11:22:00.811959  8481 net.cpp:150] Setting up relu5
I1017 11:22:00.811965  8481 net.cpp:157] Top shape: 64 280 1 1 (17920)
I1017 11:22:00.811967  8481 net.cpp:165] Memory required for data: 100400896
I1017 11:22:00.811969  8481 layer_factory.hpp:77] Creating layer conv10
I1017 11:22:00.811974  8481 net.cpp:100] Creating Layer conv10
I1017 11:22:00.811975  8481 net.cpp:434] conv10 <- relu5
I1017 11:22:00.811980  8481 net.cpp:408] conv10 -> conv10
I1017 11:22:00.812909  8481 net.cpp:150] Setting up conv10
I1017 11:22:00.812917  8481 net.cpp:157] Top shape: 64 300 1 1 (19200)
I1017 11:22:00.812918  8481 net.cpp:165] Memory required for data: 100477696
I1017 11:22:00.812925  8481 layer_factory.hpp:77] Creating layer pool6
I1017 11:22:00.812930  8481 net.cpp:100] Creating Layer pool6
I1017 11:22:00.812932  8481 net.cpp:434] pool6 <- conv10
I1017 11:22:00.812935  8481 net.cpp:408] pool6 -> pool6
I1017 11:22:00.812959  8481 net.cpp:150] Setting up pool6
I1017 11:22:00.812964  8481 net.cpp:157] Top shape: 64 300 1 1 (19200)
I1017 11:22:00.812966  8481 net.cpp:165] Memory required for data: 100554496
I1017 11:22:00.812968  8481 layer_factory.hpp:77] Creating layer drop6
I1017 11:22:00.812970  8481 net.cpp:100] Creating Layer drop6
I1017 11:22:00.812973  8481 net.cpp:434] drop6 <- pool6
I1017 11:22:00.812976  8481 net.cpp:408] drop6 -> drop6
I1017 11:22:00.812997  8481 net.cpp:150] Setting up drop6
I1017 11:22:00.813000  8481 net.cpp:157] Top shape: 64 300 1 1 (19200)
I1017 11:22:00.813002  8481 net.cpp:165] Memory required for data: 100631296
I1017 11:22:00.813004  8481 layer_factory.hpp:77] Creating layer relu6
I1017 11:22:00.813006  8481 net.cpp:100] Creating Layer relu6
I1017 11:22:00.813009  8481 net.cpp:434] relu6 <- drop6
I1017 11:22:00.813011  8481 net.cpp:408] relu6 -> relu6
I1017 11:22:00.813122  8481 net.cpp:150] Setting up relu6
I1017 11:22:00.813127  8481 net.cpp:157] Top shape: 64 300 1 1 (19200)
I1017 11:22:00.813129  8481 net.cpp:165] Memory required for data: 100708096
I1017 11:22:00.813132  8481 layer_factory.hpp:77] Creating layer conv11
I1017 11:22:00.813135  8481 net.cpp:100] Creating Layer conv11
I1017 11:22:00.813138  8481 net.cpp:434] conv11 <- relu6
I1017 11:22:00.813140  8481 net.cpp:408] conv11 -> conv11
I1017 11:22:00.813871  8481 net.cpp:150] Setting up conv11
I1017 11:22:00.813879  8481 net.cpp:157] Top shape: 64 100 1 1 (6400)
I1017 11:22:00.813880  8481 net.cpp:165] Memory required for data: 100733696
I1017 11:22:00.813884  8481 layer_factory.hpp:77] Creating layer pool7
I1017 11:22:00.813887  8481 net.cpp:100] Creating Layer pool7
I1017 11:22:00.813895  8481 net.cpp:434] pool7 <- conv11
I1017 11:22:00.813899  8481 net.cpp:408] pool7 -> pool7
I1017 11:22:00.813925  8481 net.cpp:150] Setting up pool7
I1017 11:22:00.813930  8481 net.cpp:157] Top shape: 64 100 1 1 (6400)
I1017 11:22:00.813932  8481 net.cpp:165] Memory required for data: 100759296
I1017 11:22:00.813933  8481 layer_factory.hpp:77] Creating layer drop7
I1017 11:22:00.813937  8481 net.cpp:100] Creating Layer drop7
I1017 11:22:00.813940  8481 net.cpp:434] drop7 <- pool7
I1017 11:22:00.813941  8481 net.cpp:408] drop7 -> drop7
I1017 11:22:00.813963  8481 net.cpp:150] Setting up drop7
I1017 11:22:00.813967  8481 net.cpp:157] Top shape: 64 100 1 1 (6400)
I1017 11:22:00.813969  8481 net.cpp:165] Memory required for data: 100784896
I1017 11:22:00.813971  8481 layer_factory.hpp:77] Creating layer relu7
I1017 11:22:00.813977  8481 net.cpp:100] Creating Layer relu7
I1017 11:22:00.813979  8481 net.cpp:434] relu7 <- drop7
I1017 11:22:00.813982  8481 net.cpp:408] relu7 -> relu7
I1017 11:22:00.814170  8481 net.cpp:150] Setting up relu7
I1017 11:22:00.814177  8481 net.cpp:157] Top shape: 64 100 1 1 (6400)
I1017 11:22:00.814179  8481 net.cpp:165] Memory required for data: 100810496
I1017 11:22:00.814182  8481 layer_factory.hpp:77] Creating layer pool
I1017 11:22:00.814184  8481 net.cpp:100] Creating Layer pool
I1017 11:22:00.814187  8481 net.cpp:434] pool <- relu7
I1017 11:22:00.814189  8481 net.cpp:408] pool -> pool
I1017 11:22:00.814311  8481 net.cpp:150] Setting up pool
I1017 11:22:00.814316  8481 net.cpp:157] Top shape: 64 100 1 1 (6400)
I1017 11:22:00.814317  8481 net.cpp:165] Memory required for data: 100836096
I1017 11:22:00.814319  8481 layer_factory.hpp:77] Creating layer flatten
I1017 11:22:00.814322  8481 net.cpp:100] Creating Layer flatten
I1017 11:22:00.814326  8481 net.cpp:434] flatten <- pool
I1017 11:22:00.814327  8481 net.cpp:408] flatten -> flatten
I1017 11:22:00.814342  8481 net.cpp:150] Setting up flatten
I1017 11:22:00.814345  8481 net.cpp:157] Top shape: 64 100 (6400)
I1017 11:22:00.814347  8481 net.cpp:165] Memory required for data: 100861696
I1017 11:22:00.814348  8481 layer_factory.hpp:77] Creating layer score
I1017 11:22:00.814352  8481 net.cpp:100] Creating Layer score
I1017 11:22:00.814354  8481 net.cpp:434] score <- flatten
I1017 11:22:00.814358  8481 net.cpp:408] score -> score
I1017 11:22:00.814460  8481 net.cpp:150] Setting up score
I1017 11:22:00.814463  8481 net.cpp:157] Top shape: 64 10 (640)
I1017 11:22:00.814465  8481 net.cpp:165] Memory required for data: 100864256
I1017 11:22:00.814468  8481 layer_factory.hpp:77] Creating layer score_score_0_split
I1017 11:22:00.814472  8481 net.cpp:100] Creating Layer score_score_0_split
I1017 11:22:00.814474  8481 net.cpp:434] score_score_0_split <- score
I1017 11:22:00.814477  8481 net.cpp:408] score_score_0_split -> score_score_0_split_0
I1017 11:22:00.814481  8481 net.cpp:408] score_score_0_split -> score_score_0_split_1
I1017 11:22:00.814503  8481 net.cpp:150] Setting up score_score_0_split
I1017 11:22:00.814505  8481 net.cpp:157] Top shape: 64 10 (640)
I1017 11:22:00.814507  8481 net.cpp:157] Top shape: 64 10 (640)
I1017 11:22:00.814509  8481 net.cpp:165] Memory required for data: 100869376
I1017 11:22:00.814512  8481 layer_factory.hpp:77] Creating layer accuracy
I1017 11:22:00.814517  8481 net.cpp:100] Creating Layer accuracy
I1017 11:22:00.814519  8481 net.cpp:434] accuracy <- score_score_0_split_0
I1017 11:22:00.814522  8481 net.cpp:434] accuracy <- label_data_1_split_0
I1017 11:22:00.814525  8481 net.cpp:408] accuracy -> accuracy
…
I1017 11:22:00.814908  8481 net.cpp:270] This network produces output loss
I1017 11:22:00.814925  8481 net.cpp:283] Network initialization done.
I1017 11:22:00.815111  8481 solver.cpp:181] Creating test net (#0) specified by test_net file: /home/adam/Honours/Honours-Project/cifar-10_pooling/max/leakyrelu/poolcnn_leakyrelu_test.prototxt
I1017 11:22:00.815227  8481 net.cpp:58] Initializing net from parameters: 
state {
  phase: TEST
}
layer {
  name: "data"
  type: "Data"
  top: "data"
  top: "label"
  data_param {
    source: "../../../../data/cifar-10/cifar10_test_lmdb"
    batch_size: 100
    backend: LMDB
  }
}
layer {
  name: "conv1"
  type: "Convolution"
  bottom: "data"
  top: "conv1"
  convolution_param {
    num_output: 192
    kernel_size: 5
    weight_filler {
      type: "xavier"
    }
  }
}
layer {
  name: "pool1"
  type: "Pooling"
  bottom: "conv1"
  top: "pool1"
  pooling_param {
    pool: MAX
    kernel_size: 2
    stride: 2
  }
}
layer {
  name: "drop1"
  type: "Dropout"
  bottom: "pool1"
  top: "drop1"
  dropout_param {
    dropout_ratio: 0
  }
}
layer {
  name: "relu1"
  type: "ReLU"
  bottom: "drop1"
  top: "relu1"
  relu_param {
    negative_slope: 0.01
  }
}
layer {
  name: "conv2"
  type: "Convolution"
  bottom: "relu1"
  top: "conv2"
  convolution_param {
    num_output: 192
    kernel_size: 1
    weight_filler {
      type: "xavier"
    }
  }
}
layer {
  name: "conv3"
  type: "Convolution"
  bottom: "conv2"
  top: "conv3"
  convolution_param {
    num_output: 240
    kernel_size: 3
    weight_filler {
      type: "xavier"
    }
  }
}
layer {
  name: "pool2"
  type: "Pooling"
  bottom: "conv3"
  top: "pool2"
  pooling_param {
    pool: MAX
    kernel_size: 2
    stride: 2
  }
}
layer {
  name: "drop2"
  type: "Dropout"
  bottom: "pool2"
  top: "drop2"
  dropout_param {
    dropout_ratio: 0.1
  }
}
layer {
  name: "relu2"
  type: "ReLU"
  bottom: "drop2"
  top: "relu2"
  relu_param {
    negative_slope: 0.01
  }
}
layer {
  name: "conv4"
  type: "Convolution"
  bottom: "relu2"
  top: "conv4"
  convolution_param {
    num_output: 240
    kernel_size: 1
    weight_filler {
      type: "xavier"
    }
  }
}
layer {
  name: "conv5"
  type: "Convolution"
  bottom: "conv4"
  top: "conv5"
  convolution_param {
    num_output: 260
    kernel_size: 2
    weight_filler {
      type: "xavier"
    }
  }
}
layer {
  name: "pool3"
  type: "Pooling"
  bottom: "conv5"
  top: "pool3"
  pooling_param {
    pool: MAX
    kernel_size: 2
    stride: 2
  }
}
layer {
  name: "drop3"
  type: "Dropout"
  bottom: "pool3"
  top: "drop3"
  dropout_param {
    dropout_ratio: 0.2
  }
}
layer {
  name: "relu3"
  type: "ReLU"
  bottom: "drop3"
  top: "relu3"
  relu_param {
    negative_slope: 0.01
  }
}
layer {
  name: "conv6"
  type: "Convolution"
  bottom: "relu3"
  top: "conv6"
  convolution_param {
    num_output: 260
    kernel_size: 1
    weight_filler {
      type: "xavier"
    }
  }
}
layer {
  name: "conv7"
  type: "Convolution"
  bottom: "conv6"
  top: "conv7"
  convolution_param {
    num_output: 280
    kernel_size: 2
    weight_filler {
      type: "xavier"
    }
  }
}
layer {
  name: "pool4"
  type: "Pooling"
  bottom: "conv7"
  top: "pool4"
  pooling_param {
    pool: MAX
    kernel_size: 2
    stride: 2
  }
}
layer {
  name: "drop4"
  type: "Dropout"
  bottom: "pool4"
  top: "drop4"
  dropout_param {
    dropout_ratio: 0.3
  }
}
layer {
  name: "relu4"
  type: "ReLU"
  bottom: "drop4"
  top: "relu4"
  relu_param {
    negative_slope: 0.01
  }
}
layer {
  name: "conv8"
  type: "Convolution"
  bottom: "relu4"
  top: "conv8"
  convolution_param {
    num_output: 280
    kernel_size: 1
    weight_filler {
      type: "xavier"
    }
  }
}
layer {
  name: "pool5"
  type: "Pooling"
  bottom: "conv8"
  top: "pool5"
  pooling_param {
    pool: MAX
    kernel_size: 2
    stride: 2
  }
}
layer {
  name: "drop5"
  type: "Dropout"
  bottom: "pool5"
  top: "drop5"
  dropout_param {
    dropout_ratio: 0.4
  }
}
layer {
  name: "relu5"
  type: "ReLU"
  bottom: "drop5"
  top: "relu5"
  relu_param {
    negative_slope: 0.01
  }
}
layer {
  name: "conv10"
  type: "Convolution"
  bottom: "relu5"
  top: "conv10"
  convolution_param {
    num_output: 300
    kernel_size: 1
    weight_filler {
      type: "xavier"
    }
  }
}
layer {
  name: "pool6"
  type: "Pooling"
  bottom: "conv10"
  top: "pool6"
  pooling_param {
    pool: MAX
    kernel_size: 2
    stride: 2
  }
}
layer {
  name: "drop6"
  type: "Dropout"
  bottom: "pool6"
  top: "drop6"
  dropout_param {
    dropout_ratio: 0.5
  }
}
layer {
  name: "relu6"
  type: "ReLU"
  bottom: "drop6"
  top: "relu6"
  relu_param {
    negative_slope: 0.01
  }
}
layer {
  name: "conv11"
  type: "Convolution"
  bottom: "relu6"
  top: "conv11"
  convolution_param {
    num_output: 100
    kernel_size: 1
    weight_filler {
      type: "xavier"
    }
  }
}
layer {
  name: "pool7"
  type: "Pooling"
  bottom: "conv11"
  top: "pool7"
  pooling_param {
    pool: MAX
    kernel_size: 2
    stride: 2
  }
}
layer {
  name: "drop7"
  type: "Dropout"
  bottom: "pool7"
  top: "drop7"
  dropout_param {
    dropout_ratio: 0
  }
}
layer {
  name: "relu7"
  type: "ReLU"
  bottom: "drop7"
  top: "relu7"
  relu_param {
    negative_slope: 0.01
  }
}
layer {
  name: "pool"
  type: "Pooling"
  bottom: "relu7"
  top: "pool"
  pooling_param {
    pool: AVE
    global_pooling: true
  }
}
layer {
  name: "flatten"
  type: "Flatten"
  bottom: "pool"
  top: "flatten"
}
layer {
  name: "score"
  type: "InnerProduct"
  bottom: "flatten"
  top: "score"
  inner_product_param {
    num_output: 10
    weight_filler {
      type: "gaussian"
    }
  }
}
layer {
  name: "accuracy"
  type: "Accuracy"
  bottom: "score"
  bottom: "label"
  top: "accuracy"
}
layer {
  name: "loss"
  type: "SoftmaxWithLoss"
  bottom: "score"
  bottom: "label"
  top: "loss"
}
I1017 11:22:00.815301  8481 layer_factory.hpp:77] Creating layer data
I1017 11:22:00.815381  8481 net.cpp:100] Creating Layer data
I1017 11:22:00.815385  8481 net.cpp:408] data -> data
I1017 11:22:00.815392  8481 net.cpp:408] data -> label
I1017 11:22:00.815973  8489 db_lmdb.cpp:35] Opened lmdb ../../../../data/cifar-10/cifar10_test_lmdb
I1017 11:22:00.816051  8481 data_layer.cpp:41] output data size: 100,3,32,32
I1017 11:22:00.817759  8481 net.cpp:150] Setting up data
I1017 11:22:00.817773  8481 net.cpp:157] Top shape: 100 3 32 32 (307200)
I1017 11:22:00.817776  8481 net.cpp:157] Top shape: 100 (100)
I1017 11:22:00.817777  8481 net.cpp:165] Memory required for data: 1229200
I1017 11:22:00.817780  8481 layer_factory.hpp:77] Creating layer label_data_1_split
I1017 11:22:00.817786  8481 net.cpp:100] Creating Layer label_data_1_split
I1017 11:22:00.817788  8481 net.cpp:434] label_data_1_split <- label
I1017 11:22:00.817792  8481 net.cpp:408] label_data_1_split -> label_data_1_split_0
I1017 11:22:00.817798  8481 net.cpp:408] label_data_1_split -> label_data_1_split_1
I1017 11:22:00.817854  8481 net.cpp:150] Setting up label_data_1_split
I1017 11:22:00.817858  8481 net.cpp:157] Top shape: 100 (100)
I1017 11:22:00.817860  8481 net.cpp:157] Top shape: 100 (100)
I1017 11:22:00.817862  8481 net.cpp:165] Memory required for data: 1230000
I1017 11:22:00.817863  8481 layer_factory.hpp:77] Creating layer conv1
I1017 11:22:00.817869  8481 net.cpp:100] Creating Layer conv1
I1017 11:22:00.817872  8481 net.cpp:434] conv1 <- data
I1017 11:22:00.817875  8481 net.cpp:408] conv1 -> conv1
I1017 11:22:00.818600  8481 net.cpp:150] Setting up conv1
I1017 11:22:00.818608  8481 net.cpp:157] Top shape: 100 192 28 28 (15052800)
I1017 11:22:00.818610  8481 net.cpp:165] Memory required for data: 61441200
I1017 11:22:00.818617  8481 layer_factory.hpp:77] Creating layer pool1
I1017 11:22:00.818622  8481 net.cpp:100] Creating Layer pool1
I1017 11:22:00.818624  8481 net.cpp:434] pool1 <- conv1
I1017 11:22:00.818627  8481 net.cpp:408] pool1 -> pool1
I1017 11:22:00.818737  8481 net.cpp:150] Setting up pool1
I1017 11:22:00.818743  8481 net.cpp:157] Top shape: 100 192 14 14 (3763200)
I1017 11:22:00.818744  8481 net.cpp:165] Memory required for data: 76494000
I1017 11:22:00.818747  8481 layer_factory.hpp:77] Creating layer drop1
I1017 11:22:00.818750  8481 net.cpp:100] Creating Layer drop1
I1017 11:22:00.818753  8481 net.cpp:434] drop1 <- pool1
I1017 11:22:00.818754  8481 net.cpp:408] drop1 -> drop1
I1017 11:22:00.818790  8481 net.cpp:150] Setting up drop1
I1017 11:22:00.818794  8481 net.cpp:157] Top shape: 100 192 14 14 (3763200)
I1017 11:22:00.818796  8481 net.cpp:165] Memory required for data: 91546800
I1017 11:22:00.818799  8481 layer_factory.hpp:77] Creating layer relu1
I1017 11:22:00.818801  8481 net.cpp:100] Creating Layer relu1
I1017 11:22:00.818804  8481 net.cpp:434] relu1 <- drop1
I1017 11:22:00.818807  8481 net.cpp:408] relu1 -> relu1
I1017 11:22:00.819007  8481 net.cpp:150] Setting up relu1
I1017 11:22:00.819023  8481 net.cpp:157] Top shape: 100 192 14 14 (3763200)
I1017 11:22:00.819025  8481 net.cpp:165] Memory required for data: 106599600
I1017 11:22:00.819028  8481 layer_factory.hpp:77] Creating layer conv2
I1017 11:22:00.819034  8481 net.cpp:100] Creating Layer conv2
I1017 11:22:00.819036  8481 net.cpp:434] conv2 <- relu1
I1017 11:22:00.819041  8481 net.cpp:408] conv2 -> conv2
I1017 11:22:00.819864  8481 net.cpp:150] Setting up conv2
I1017 11:22:00.819872  8481 net.cpp:157] Top shape: 100 192 14 14 (3763200)
I1017 11:22:00.819875  8481 net.cpp:165] Memory required for data: 121652400
I1017 11:22:00.819880  8481 layer_factory.hpp:77] Creating layer conv3
I1017 11:22:00.819885  8481 net.cpp:100] Creating Layer conv3
I1017 11:22:00.819886  8481 net.cpp:434] conv3 <- conv2
I1017 11:22:00.819890  8481 net.cpp:408] conv3 -> conv3
I1017 11:22:00.822484  8481 net.cpp:150] Setting up conv3
I1017 11:22:00.822494  8481 net.cpp:157] Top shape: 100 240 12 12 (3456000)
I1017 11:22:00.822495  8481 net.cpp:165] Memory required for data: 135476400
I1017 11:22:00.822501  8481 layer_factory.hpp:77] Creating layer pool2
I1017 11:22:00.822506  8481 net.cpp:100] Creating Layer pool2
I1017 11:22:00.822510  8481 net.cpp:434] pool2 <- conv3
I1017 11:22:00.822512  8481 net.cpp:408] pool2 -> pool2
I1017 11:22:00.822540  8481 net.cpp:150] Setting up pool2
I1017 11:22:00.822545  8481 net.cpp:157] Top shape: 100 240 6 6 (864000)
I1017 11:22:00.822546  8481 net.cpp:165] Memory required for data: 138932400
I1017 11:22:00.822547  8481 layer_factory.hpp:77] Creating layer drop2
I1017 11:22:00.822551  8481 net.cpp:100] Creating Layer drop2
I1017 11:22:00.822552  8481 net.cpp:434] drop2 <- pool2
I1017 11:22:00.822556  8481 net.cpp:408] drop2 -> drop2
I1017 11:22:00.822579  8481 net.cpp:150] Setting up drop2
I1017 11:22:00.822583  8481 net.cpp:157] Top shape: 100 240 6 6 (864000)
I1017 11:22:00.822584  8481 net.cpp:165] Memory required for data: 142388400
I1017 11:22:00.822587  8481 layer_factory.hpp:77] Creating layer relu2
I1017 11:22:00.822590  8481 net.cpp:100] Creating Layer relu2
I1017 11:22:00.822593  8481 net.cpp:434] relu2 <- drop2
I1017 11:22:00.822595  8481 net.cpp:408] relu2 -> relu2
I1017 11:22:00.822715  8481 net.cpp:150] Setting up relu2
I1017 11:22:00.822721  8481 net.cpp:157] Top shape: 100 240 6 6 (864000)
I1017 11:22:00.822722  8481 net.cpp:165] Memory required for data: 145844400
I1017 11:22:00.822723  8481 layer_factory.hpp:77] Creating layer conv4
I1017 11:22:00.822728  8481 net.cpp:100] Creating Layer conv4
I1017 11:22:00.822731  8481 net.cpp:434] conv4 <- relu2
I1017 11:22:00.822733  8481 net.cpp:408] conv4 -> conv4
I1017 11:22:00.823591  8481 net.cpp:150] Setting up conv4
I1017 11:22:00.823599  8481 net.cpp:157] Top shape: 100 240 6 6 (864000)
I1017 11:22:00.823601  8481 net.cpp:165] Memory required for data: 149300400
I1017 11:22:00.823604  8481 layer_factory.hpp:77] Creating layer conv5
I1017 11:22:00.823609  8481 net.cpp:100] Creating Layer conv5
I1017 11:22:00.823612  8481 net.cpp:434] conv5 <- conv4
I1017 11:22:00.823616  8481 net.cpp:408] conv5 -> conv5
I1017 11:22:00.825381  8481 net.cpp:150] Setting up conv5
I1017 11:22:00.825390  8481 net.cpp:157] Top shape: 100 260 5 5 (650000)
I1017 11:22:00.825392  8481 net.cpp:165] Memory required for data: 151900400
I1017 11:22:00.825398  8481 layer_factory.hpp:77] Creating layer pool3
I1017 11:22:00.825402  8481 net.cpp:100] Creating Layer pool3
I1017 11:22:00.825404  8481 net.cpp:434] pool3 <- conv5
I1017 11:22:00.825407  8481 net.cpp:408] pool3 -> pool3
I1017 11:22:00.825433  8481 net.cpp:150] Setting up pool3
I1017 11:22:00.825438  8481 net.cpp:157] Top shape: 100 260 3 3 (234000)
I1017 11:22:00.825439  8481 net.cpp:165] Memory required for data: 152836400
I1017 11:22:00.825441  8481 layer_factory.hpp:77] Creating layer drop3
I1017 11:22:00.825445  8481 net.cpp:100] Creating Layer drop3
I1017 11:22:00.825446  8481 net.cpp:434] drop3 <- pool3
I1017 11:22:00.825449  8481 net.cpp:408] drop3 -> drop3
I1017 11:22:00.825474  8481 net.cpp:150] Setting up drop3
I1017 11:22:00.825485  8481 net.cpp:157] Top shape: 100 260 3 3 (234000)
I1017 11:22:00.825486  8481 net.cpp:165] Memory required for data: 153772400
I1017 11:22:00.825489  8481 layer_factory.hpp:77] Creating layer relu3
I1017 11:22:00.825491  8481 net.cpp:100] Creating Layer relu3
I1017 11:22:00.825494  8481 net.cpp:434] relu3 <- drop3
I1017 11:22:00.825496  8481 net.cpp:408] relu3 -> relu3
I1017 11:22:00.825614  8481 net.cpp:150] Setting up relu3
I1017 11:22:00.825620  8481 net.cpp:157] Top shape: 100 260 3 3 (234000)
I1017 11:22:00.825623  8481 net.cpp:165] Memory required for data: 154708400
I1017 11:22:00.825624  8481 layer_factory.hpp:77] Creating layer conv6
I1017 11:22:00.825630  8481 net.cpp:100] Creating Layer conv6
I1017 11:22:00.825633  8481 net.cpp:434] conv6 <- relu3
I1017 11:22:00.825635  8481 net.cpp:408] conv6 -> conv6
I1017 11:22:00.826854  8481 net.cpp:150] Setting up conv6
I1017 11:22:00.826863  8481 net.cpp:157] Top shape: 100 260 3 3 (234000)
I1017 11:22:00.826864  8481 net.cpp:165] Memory required for data: 155644400
I1017 11:22:00.826869  8481 layer_factory.hpp:77] Creating layer conv7
I1017 11:22:00.826874  8481 net.cpp:100] Creating Layer conv7
I1017 11:22:00.826875  8481 net.cpp:434] conv7 <- conv6
I1017 11:22:00.826879  8481 net.cpp:408] conv7 -> conv7
I1017 11:22:00.829130  8481 net.cpp:150] Setting up conv7
I1017 11:22:00.829140  8481 net.cpp:157] Top shape: 100 280 2 2 (112000)
I1017 11:22:00.829141  8481 net.cpp:165] Memory required for data: 156092400
I1017 11:22:00.829146  8481 layer_factory.hpp:77] Creating layer pool4
I1017 11:22:00.829150  8481 net.cpp:100] Creating Layer pool4
I1017 11:22:00.829151  8481 net.cpp:434] pool4 <- conv7
I1017 11:22:00.829155  8481 net.cpp:408] pool4 -> pool4
I1017 11:22:00.829182  8481 net.cpp:150] Setting up pool4
I1017 11:22:00.829187  8481 net.cpp:157] Top shape: 100 280 1 1 (28000)
I1017 11:22:00.829190  8481 net.cpp:165] Memory required for data: 156204400
I1017 11:22:00.829190  8481 layer_factory.hpp:77] Creating layer drop4
I1017 11:22:00.829195  8481 net.cpp:100] Creating Layer drop4
I1017 11:22:00.829196  8481 net.cpp:434] drop4 <- pool4
I1017 11:22:00.829198  8481 net.cpp:408] drop4 -> drop4
I1017 11:22:00.829222  8481 net.cpp:150] Setting up drop4
I1017 11:22:00.829226  8481 net.cpp:157] Top shape: 100 280 1 1 (28000)
I1017 11:22:00.829228  8481 net.cpp:165] Memory required for data: 156316400
I1017 11:22:00.829229  8481 layer_factory.hpp:77] Creating layer relu4
I1017 11:22:00.829232  8481 net.cpp:100] Creating Layer relu4
I1017 11:22:00.829234  8481 net.cpp:434] relu4 <- drop4
I1017 11:22:00.829237  8481 net.cpp:408] relu4 -> relu4
I1017 11:22:00.829358  8481 net.cpp:150] Setting up relu4
I1017 11:22:00.829365  8481 net.cpp:157] Top shape: 100 280 1 1 (28000)
I1017 11:22:00.829366  8481 net.cpp:165] Memory required for data: 156428400
I1017 11:22:00.829368  8481 layer_factory.hpp:77] Creating layer conv8
I1017 11:22:00.829373  8481 net.cpp:100] Creating Layer conv8
I1017 11:22:00.829375  8481 net.cpp:434] conv8 <- relu4
I1017 11:22:00.829378  8481 net.cpp:408] conv8 -> conv8
I1017 11:22:00.830325  8481 net.cpp:150] Setting up conv8
I1017 11:22:00.830333  8481 net.cpp:157] Top shape: 100 280 1 1 (28000)
I1017 11:22:00.830334  8481 net.cpp:165] Memory required for data: 156540400
I1017 11:22:00.830338  8481 layer_factory.hpp:77] Creating layer pool5
I1017 11:22:00.830343  8481 net.cpp:100] Creating Layer pool5
I1017 11:22:00.830343  8481 net.cpp:434] pool5 <- conv8
I1017 11:22:00.830348  8481 net.cpp:408] pool5 -> pool5
I1017 11:22:00.830374  8481 net.cpp:150] Setting up pool5
I1017 11:22:00.830379  8481 net.cpp:157] Top shape: 100 280 1 1 (28000)
I1017 11:22:00.830380  8481 net.cpp:165] Memory required for data: 156652400
I1017 11:22:00.830382  8481 layer_factory.hpp:77] Creating layer drop5
I1017 11:22:00.830385  8481 net.cpp:100] Creating Layer drop5
I1017 11:22:00.830387  8481 net.cpp:434] drop5 <- pool5
I1017 11:22:00.830390  8481 net.cpp:408] drop5 -> drop5
I1017 11:22:00.830415  8481 net.cpp:150] Setting up drop5
I1017 11:22:00.830418  8481 net.cpp:157] Top shape: 100 280 1 1 (28000)
I1017 11:22:00.830430  8481 net.cpp:165] Memory required for data: 156764400
I1017 11:22:00.830430  8481 layer_factory.hpp:77] Creating layer relu5
I1017 11:22:00.830435  8481 net.cpp:100] Creating Layer relu5
I1017 11:22:00.830436  8481 net.cpp:434] relu5 <- drop5
I1017 11:22:00.830441  8481 net.cpp:408] relu5 -> relu5
I1017 11:22:00.830646  8481 net.cpp:150] Setting up relu5
I1017 11:22:00.830652  8481 net.cpp:157] Top shape: 100 280 1 1 (28000)
I1017 11:22:00.830654  8481 net.cpp:165] Memory required for data: 156876400
I1017 11:22:00.830657  8481 layer_factory.hpp:77] Creating layer conv10
I1017 11:22:00.830663  8481 net.cpp:100] Creating Layer conv10
I1017 11:22:00.830665  8481 net.cpp:434] conv10 <- relu5
I1017 11:22:00.830670  8481 net.cpp:408] conv10 -> conv10
I1017 11:22:00.831636  8481 net.cpp:150] Setting up conv10
I1017 11:22:00.831643  8481 net.cpp:157] Top shape: 100 300 1 1 (30000)
I1017 11:22:00.831646  8481 net.cpp:165] Memory required for data: 156996400
I1017 11:22:00.831653  8481 layer_factory.hpp:77] Creating layer pool6
I1017 11:22:00.831658  8481 net.cpp:100] Creating Layer pool6
I1017 11:22:00.831660  8481 net.cpp:434] pool6 <- conv10
I1017 11:22:00.831665  8481 net.cpp:408] pool6 -> pool6
I1017 11:22:00.831693  8481 net.cpp:150] Setting up pool6
I1017 11:22:00.831698  8481 net.cpp:157] Top shape: 100 300 1 1 (30000)
I1017 11:22:00.831701  8481 net.cpp:165] Memory required for data: 157116400
I1017 11:22:00.831702  8481 layer_factory.hpp:77] Creating layer drop6
I1017 11:22:00.831706  8481 net.cpp:100] Creating Layer drop6
I1017 11:22:00.831708  8481 net.cpp:434] drop6 <- pool6
I1017 11:22:00.831712  8481 net.cpp:408] drop6 -> drop6
I1017 11:22:00.831735  8481 net.cpp:150] Setting up drop6
I1017 11:22:00.831739  8481 net.cpp:157] Top shape: 100 300 1 1 (30000)
I1017 11:22:00.831743  8481 net.cpp:165] Memory required for data: 157236400
I1017 11:22:00.831744  8481 layer_factory.hpp:77] Creating layer relu6
I1017 11:22:00.831746  8481 net.cpp:100] Creating Layer relu6
I1017 11:22:00.831748  8481 net.cpp:434] relu6 <- drop6
I1017 11:22:00.831753  8481 net.cpp:408] relu6 -> relu6
I1017 11:22:00.831871  8481 net.cpp:150] Setting up relu6
I1017 11:22:00.831876  8481 net.cpp:157] Top shape: 100 300 1 1 (30000)
I1017 11:22:00.831878  8481 net.cpp:165] Memory required for data: 157356400
I1017 11:22:00.831881  8481 layer_factory.hpp:77] Creating layer conv11
I1017 11:22:00.831884  8481 net.cpp:100] Creating Layer conv11
I1017 11:22:00.831887  8481 net.cpp:434] conv11 <- relu6
I1017 11:22:00.831892  8481 net.cpp:408] conv11 -> conv11
I1017 11:22:00.832664  8481 net.cpp:150] Setting up conv11
I1017 11:22:00.832672  8481 net.cpp:157] Top shape: 100 100 1 1 (10000)
I1017 11:22:00.832674  8481 net.cpp:165] Memory required for data: 157396400
I1017 11:22:00.832679  8481 layer_factory.hpp:77] Creating layer pool7
I1017 11:22:00.832682  8481 net.cpp:100] Creating Layer pool7
I1017 11:22:00.832685  8481 net.cpp:434] pool7 <- conv11
I1017 11:22:00.832689  8481 net.cpp:408] pool7 -> pool7
I1017 11:22:00.832718  8481 net.cpp:150] Setting up pool7
I1017 11:22:00.832722  8481 net.cpp:157] Top shape: 100 100 1 1 (10000)
I1017 11:22:00.832726  8481 net.cpp:165] Memory required for data: 157436400
I1017 11:22:00.832726  8481 layer_factory.hpp:77] Creating layer drop7
I1017 11:22:00.832729  8481 net.cpp:100] Creating Layer drop7
I1017 11:22:00.832732  8481 net.cpp:434] drop7 <- pool7
I1017 11:22:00.832736  8481 net.cpp:408] drop7 -> drop7
I1017 11:22:00.832759  8481 net.cpp:150] Setting up drop7
I1017 11:22:00.832764  8481 net.cpp:157] Top shape: 100 100 1 1 (10000)
I1017 11:22:00.832767  8481 net.cpp:165] Memory required for data: 157476400
I1017 11:22:00.832768  8481 layer_factory.hpp:77] Creating layer relu7
I1017 11:22:00.832773  8481 net.cpp:100] Creating Layer relu7
I1017 11:22:00.832777  8481 net.cpp:434] relu7 <- drop7
I1017 11:22:00.832779  8481 net.cpp:408] relu7 -> relu7
I1017 11:22:00.832898  8481 net.cpp:150] Setting up relu7
I1017 11:22:00.832906  8481 net.cpp:157] Top shape: 100 100 1 1 (10000)
I1017 11:22:00.832913  8481 net.cpp:165] Memory required for data: 157516400
I1017 11:22:00.832916  8481 layer_factory.hpp:77] Creating layer pool
I1017 11:22:00.832919  8481 net.cpp:100] Creating Layer pool
I1017 11:22:00.832921  8481 net.cpp:434] pool <- relu7
I1017 11:22:00.832926  8481 net.cpp:408] pool -> pool
I1017 11:22:00.833124  8481 net.cpp:150] Setting up pool
I1017 11:22:00.833132  8481 net.cpp:157] Top shape: 100 100 1 1 (10000)
I1017 11:22:00.833133  8481 net.cpp:165] Memory required for data: 157556400
I1017 11:22:00.833135  8481 layer_factory.hpp:77] Creating layer flatten
I1017 11:22:00.833139  8481 net.cpp:100] Creating Layer flatten
I1017 11:22:00.833142  8481 net.cpp:434] flatten <- pool
I1017 11:22:00.833145  8481 net.cpp:408] flatten -> flatten
I1017 11:22:00.833163  8481 net.cpp:150] Setting up flatten
I1017 11:22:00.833166  8481 net.cpp:157] Top shape: 100 100 (10000)
I1017 11:22:00.833169  8481 net.cpp:165] Memory required for data: 157596400
I1017 11:22:00.833170  8481 layer_factory.hpp:77] Creating layer score
I1017 11:22:00.833174  8481 net.cpp:100] Creating Layer score
I1017 11:22:00.833178  8481 net.cpp:434] score <- flatten
I1017 11:22:00.833179  8481 net.cpp:408] score -> score
I1017 11:22:00.833266  8481 net.cpp:150] Setting up score
I1017 11:22:00.833269  8481 net.cpp:157] Top shape: 100 10 (1000)
I1017 11:22:00.833272  8481 net.cpp:165] Memory required for data: 157600400
I1017 11:22:00.833276  8481 layer_factory.hpp:77] Creating layer score_score_0_split
I1017 11:22:00.833281  8481 net.cpp:100] Creating Layer score_score_0_split
I1017 11:22:00.833283  8481 net.cpp:434] score_score_0_split <- score
I1017 11:22:00.833287  8481 net.cpp:408] score_score_0_split -> score_score_0_split_0
I1017 11:22:00.833292  8481 net.cpp:408] score_score_0_split -> score_score_0_split_1
I1017 11:22:00.833315  8481 net.cpp:150] Setting up score_score_0_split
I1017 11:22:00.833318  8481 net.cpp:157] Top shape: 100 10 (1000)
I1017 11:22:00.833322  8481 net.cpp:157] Top shape: 100 10 (1000)
I1017 11:22:00.833323  8481 net.cpp:165] Memory required for data: 157608400
I1017 11:22:00.833324  8481 layer_factory.hpp:77] Creating layer accuracy
I1017 11:22:00.833328  8481 net.cpp:100] Creating Layer accuracy
I1017 11:22:00.833331  8481 net.cpp:434] accuracy <- score_score_0_split_0
I1017 11:22:00.833334  8481 net.cpp:434] accuracy <- label_data_1_split_0
I1017 11:22:00.833336  8481 net.cpp:408] accuracy -> accuracy
…
