…
}
type: "Adam"
I1020 01:25:48.239575  8718 solver.cpp:81] Creating training net from train_net file: /home/adam/Honours/Honours-Project/cifar-10_pooling/max/relu/poolcnn_relu_train.prototxt
I1020 01:25:48.239864  8718 net.cpp:58] Initializing net from parameters: 
state {
  phase: TRAIN
  level: 0
  stage: ""
}
layer {
  name: "data"
  type: "Data"
  top: "data"
  top: "label"
  transform_param {
    mean_file: "mean.binaryproto"
  }
  data_param {
    source: "../../../../data/cifar-10/cifar10_train_lmdb"
    batch_size: 64
    backend: LMDB
  }
}
layer {
  name: "conv1"
  type: "Convolution"
  bottom: "data"
  top: "conv1"
  convolution_param {
    num_output: 192
    kernel_size: 5
    weight_filler {
      type: "xavier"
    }
  }
}
layer {
  name: "relu1"
  type: "ReLU"
  bottom: "conv1"
  top: "relu1"
}
layer {
  name: "drop1"
  type: "Dropout"
  bottom: "relu1"
  top: "drop1"
  dropout_param {
    dropout_ratio: 0
  }
}
layer {
  name: "pool1"
  type: "Pooling"
  bottom: "drop1"
  top: "pool1"
  pooling_param {
    pool: MAX
    kernel_size: 2
    stride: 2
  }
}
layer {
  name: "conv2"
  type: "Convolution"
  bottom: "pool1"
  top: "conv2"
  convolution_param {
    num_output: 192
    kernel_size: 1
    weight_filler {
      type: "xavier"
    }
  }
}
layer {
  name: "relu2"
  type: "ReLU"
  bottom: "conv2"
  top: "relu2"
}
layer {
  name: "conv3"
  type: "Convolution"
  bottom: "relu2"
  top: "conv3"
  convolution_param {
    num_output: 240
    kernel_size: 3
    weight_filler {
      type: "xavier"
    }
  }
}
layer {
  name: "relu3"
  type: "ReLU"
  bottom: "conv3"
  top: "relu3"
}
layer {
  name: "drop2"
  type: "Dropout"
  bottom: "relu3"
  top: "drop2"
  dropout_param {
    dropout_ratio: 0.1
  }
}
layer {
  name: "pool2"
  type: "Pooling"
  bottom: "drop2"
  top: "pool2"
  pooling_param {
    pool: MAX
    kernel_size: 2
    stride: 2
  }
}
layer {
  name: "conv4"
  type: "Convolution"
  bottom: "pool2"
  top: "conv4"
  convolution_param {
    num_output: 240
    kernel_size: 1
    weight_filler {
      type: "xavier"
    }
  }
}
layer {
  name: "relu4"
  type: "ReLU"
  bottom: "conv4"
  top: "relu4"
}
layer {
  name: "conv5"
  type: "Convolution"
  bottom: "relu4"
  top: "conv5"
  convolution_param {
    num_output: 260
    kernel_size: 2
    weight_filler {
      type: "xavier"
    }
  }
}
layer {
  name: "relu5"
  type: "ReLU"
  bottom: "conv5"
  top: "relu5"
}
layer {
  name: "drop3"
  type: "Dropout"
  bottom: "relu5"
  top: "drop3"
  dropout_param {
    dropout_ratio: 0.2
  }
}
layer {
  name: "pool3"
  type: "Pooling"
  bottom: "drop3"
  top: "pool3"
  pooling_param {
    pool: MAX
    kernel_size: 2
    stride: 2
  }
}
layer {
  name: "conv6"
  type: "Convolution"
  bottom: "pool3"
  top: "conv6"
  convolution_param {
    num_output: 260
    kernel_size: 1
    weight_filler {
      type: "xavier"
    }
  }
}
layer {
  name: "relu6"
  type: "ReLU"
  bottom: "conv6"
  top: "relu6"
}
layer {
  name: "conv7"
  type: "Convolution"
  bottom: "relu6"
  top: "conv7"
  convolution_param {
    num_output: 280
    kernel_size: 2
    weight_filler {
      type: "xavier"
    }
  }
}
layer {
  name: "relu7"
  type: "ReLU"
  bottom: "conv7"
  top: "relu7"
}
layer {
  name: "drop4"
  type: "Dropout"
  bottom: "relu7"
  top: "drop4"
  dropout_param {
    dropout_ratio: 0.3
  }
}
layer {
  name: "pool4"
  type: "Pooling"
  bottom: "drop4"
  top: "pool4"
  pooling_param {
    pool: MAX
    kernel_size: 2
    stride: 2
  }
}
layer {
  name: "conv8"
  type: "Convolution"
  bottom: "pool4"
  top: "conv8"
  convolution_param {
    num_output: 280
    kernel_size: 1
    weight_filler {
      type: "xavier"
    }
  }
}
layer {
  name: "relu8"
  type: "ReLU"
  bottom: "conv8"
  top: "relu8"
}
layer {
  name: "drop5"
  type: "Dropout"
  bottom: "relu8"
  top: "drop5"
  dropout_param {
    dropout_ratio: 0.4
  }
}
layer {
  name: "pool5"
  type: "Pooling"
  bottom: "drop5"
  top: "pool5"
  pooling_param {
    pool: MAX
    kernel_size: 2
    stride: 2
  }
}
layer {
  name: "conv10"
  type: "Convolution"
  bottom: "pool5"
  top: "conv10"
  convolution_param {
    num_output: 300
    kernel_size: 1
    weight_filler {
      type: "xavier"
    }
  }
}
layer {
  name: "relu10"
  type: "ReLU"
  bottom: "conv10"
  top: "relu10"
}
layer {
  name: "drop6"
  type: "Dropout"
  bottom: "relu10"
  top: "drop6"
  dropout_param {
    dropout_ratio: 0.5
  }
}
layer {
  name: "pool6"
  type: "Pooling"
  bottom: "drop6"
  top: "pool6"
  pooling_param {
    pool: MAX
    kernel_size: 2
    stride: 2
  }
}
layer {
  name: "conv11"
  type: "Convolution"
  bottom: "pool6"
  top: "conv11"
  convolution_param {
    num_output: 100
    kernel_size: 1
    weight_filler {
      type: "xavier"
    }
  }
}
layer {
  name: "relu11"
  type: "ReLU"
  bottom: "conv11"
  top: "relu11"
}
layer {
  name: "drop7"
  type: "Dropout"
  bottom: "relu11"
  top: "drop7"
  dropout_param {
    dropout_ratio: 0
  }
}
layer {
  name: "pool7"
  type: "Pooling"
  bottom: "drop7"
  top: "pool7"
  pooling_param {
    pool: MAX
    kernel_size: 2
    stride: 2
  }
}
layer {
  name: "score"
  type: "InnerProduct"
  bottom: "pool7"
  top: "score"
  inner_product_param {
    num_output: 10
    weight_filler {
      type: "gaussian"
    }
  }
}
layer {
  name: "accuracy"
  type: "Accuracy"
  bottom: "score"
  bottom: "label"
  top: "accuracy"
}
layer {
  name: "loss"
  type: "SoftmaxWithLoss"
  bottom: "score"
  bottom: "label"
  top: "loss"
}
I1020 01:25:48.239995  8718 layer_factory.hpp:77] Creating layer data
I1020 01:25:48.240388  8718 net.cpp:100] Creating Layer data
I1020 01:25:48.240396  8718 net.cpp:408] data -> data
I1020 01:25:48.240413  8718 net.cpp:408] data -> label
I1020 01:25:48.240432  8718 data_transformer.cpp:25] Loading mean file from: mean.binaryproto
I1020 01:25:48.241000  8724 db_lmdb.cpp:35] Opened lmdb ../../../../data/cifar-10/cifar10_train_lmdb
I1020 01:25:48.246359  8718 data_layer.cpp:41] output data size: 64,3,32,32
I1020 01:25:48.247932  8718 net.cpp:150] Setting up data
I1020 01:25:48.247952  8718 net.cpp:157] Top shape: 64 3 32 32 (196608)
I1020 01:25:48.247957  8718 net.cpp:157] Top shape: 64 (64)
I1020 01:25:48.247959  8718 net.cpp:165] Memory required for data: 786688
I1020 01:25:48.247982  8718 layer_factory.hpp:77] Creating layer label_data_1_split
I1020 01:25:48.247997  8718 net.cpp:100] Creating Layer label_data_1_split
I1020 01:25:48.248003  8718 net.cpp:434] label_data_1_split <- label
I1020 01:25:48.248016  8718 net.cpp:408] label_data_1_split -> label_data_1_split_0
I1020 01:25:48.248025  8718 net.cpp:408] label_data_1_split -> label_data_1_split_1
I1020 01:25:48.248056  8718 net.cpp:150] Setting up label_data_1_split
I1020 01:25:48.248061  8718 net.cpp:157] Top shape: 64 (64)
I1020 01:25:48.248064  8718 net.cpp:157] Top shape: 64 (64)
I1020 01:25:48.248067  8718 net.cpp:165] Memory required for data: 787200
I1020 01:25:48.248070  8718 layer_factory.hpp:77] Creating layer conv1
I1020 01:25:48.248086  8718 net.cpp:100] Creating Layer conv1
I1020 01:25:48.248090  8718 net.cpp:434] conv1 <- data
I1020 01:25:48.248096  8718 net.cpp:408] conv1 -> conv1
I1020 01:25:48.369199  8718 net.cpp:150] Setting up conv1
I1020 01:25:48.369227  8718 net.cpp:157] Top shape: 64 192 28 28 (9633792)
I1020 01:25:48.369230  8718 net.cpp:165] Memory required for data: 39322368
I1020 01:25:48.369254  8718 layer_factory.hpp:77] Creating layer relu1
I1020 01:25:48.369263  8718 net.cpp:100] Creating Layer relu1
I1020 01:25:48.369268  8718 net.cpp:434] relu1 <- conv1
I1020 01:25:48.369274  8718 net.cpp:408] relu1 -> relu1
I1020 01:25:48.369410  8718 net.cpp:150] Setting up relu1
I1020 01:25:48.369416  8718 net.cpp:157] Top shape: 64 192 28 28 (9633792)
I1020 01:25:48.369420  8718 net.cpp:165] Memory required for data: 77857536
I1020 01:25:48.369424  8718 layer_factory.hpp:77] Creating layer drop1
I1020 01:25:48.369432  8718 net.cpp:100] Creating Layer drop1
I1020 01:25:48.369436  8718 net.cpp:434] drop1 <- relu1
I1020 01:25:48.369439  8718 net.cpp:408] drop1 -> drop1
I1020 01:25:48.369467  8718 net.cpp:150] Setting up drop1
I1020 01:25:48.369472  8718 net.cpp:157] Top shape: 64 192 28 28 (9633792)
I1020 01:25:48.369474  8718 net.cpp:165] Memory required for data: 116392704
I1020 01:25:48.369478  8718 layer_factory.hpp:77] Creating layer pool1
I1020 01:25:48.369484  8718 net.cpp:100] Creating Layer pool1
I1020 01:25:48.369488  8718 net.cpp:434] pool1 <- drop1
I1020 01:25:48.369493  8718 net.cpp:408] pool1 -> pool1
I1020 01:25:48.369524  8718 net.cpp:150] Setting up pool1
I1020 01:25:48.369529  8718 net.cpp:157] Top shape: 64 192 14 14 (2408448)
I1020 01:25:48.369534  8718 net.cpp:165] Memory required for data: 126026496
I1020 01:25:48.369536  8718 layer_factory.hpp:77] Creating layer conv2
I1020 01:25:48.369545  8718 net.cpp:100] Creating Layer conv2
I1020 01:25:48.369549  8718 net.cpp:434] conv2 <- pool1
I1020 01:25:48.369554  8718 net.cpp:408] conv2 -> conv2
I1020 01:25:48.370586  8718 net.cpp:150] Setting up conv2
I1020 01:25:48.370595  8718 net.cpp:157] Top shape: 64 192 14 14 (2408448)
I1020 01:25:48.370599  8718 net.cpp:165] Memory required for data: 135660288
I1020 01:25:48.370607  8718 layer_factory.hpp:77] Creating layer relu2
I1020 01:25:48.370612  8718 net.cpp:100] Creating Layer relu2
I1020 01:25:48.370616  8718 net.cpp:434] relu2 <- conv2
I1020 01:25:48.370622  8718 net.cpp:408] relu2 -> relu2
I1020 01:25:48.370741  8718 net.cpp:150] Setting up relu2
I1020 01:25:48.370748  8718 net.cpp:157] Top shape: 64 192 14 14 (2408448)
I1020 01:25:48.370751  8718 net.cpp:165] Memory required for data: 145294080
I1020 01:25:48.370755  8718 layer_factory.hpp:77] Creating layer conv3
I1020 01:25:48.370764  8718 net.cpp:100] Creating Layer conv3
I1020 01:25:48.370767  8718 net.cpp:434] conv3 <- relu2
I1020 01:25:48.370771  8718 net.cpp:408] conv3 -> conv3
I1020 01:25:48.373167  8718 net.cpp:150] Setting up conv3
I1020 01:25:48.373175  8718 net.cpp:157] Top shape: 64 240 12 12 (2211840)
I1020 01:25:48.373179  8718 net.cpp:165] Memory required for data: 154141440
I1020 01:25:48.373188  8718 layer_factory.hpp:77] Creating layer relu3
I1020 01:25:48.373193  8718 net.cpp:100] Creating Layer relu3
I1020 01:25:48.373196  8718 net.cpp:434] relu3 <- conv3
I1020 01:25:48.373201  8718 net.cpp:408] relu3 -> relu3
I1020 01:25:48.373390  8718 net.cpp:150] Setting up relu3
I1020 01:25:48.373399  8718 net.cpp:157] Top shape: 64 240 12 12 (2211840)
I1020 01:25:48.373401  8718 net.cpp:165] Memory required for data: 162988800
I1020 01:25:48.373406  8718 layer_factory.hpp:77] Creating layer drop2
I1020 01:25:48.373412  8718 net.cpp:100] Creating Layer drop2
I1020 01:25:48.373416  8718 net.cpp:434] drop2 <- relu3
I1020 01:25:48.373420  8718 net.cpp:408] drop2 -> drop2
I1020 01:25:48.373447  8718 net.cpp:150] Setting up drop2
I1020 01:25:48.373452  8718 net.cpp:157] Top shape: 64 240 12 12 (2211840)
I1020 01:25:48.373456  8718 net.cpp:165] Memory required for data: 171836160
I1020 01:25:48.373459  8718 layer_factory.hpp:77] Creating layer pool2
I1020 01:25:48.373466  8718 net.cpp:100] Creating Layer pool2
I1020 01:25:48.373468  8718 net.cpp:434] pool2 <- drop2
I1020 01:25:48.373473  8718 net.cpp:408] pool2 -> pool2
I1020 01:25:48.373497  8718 net.cpp:150] Setting up pool2
I1020 01:25:48.373502  8718 net.cpp:157] Top shape: 64 240 6 6 (552960)
I1020 01:25:48.373505  8718 net.cpp:165] Memory required for data: 174048000
I1020 01:25:48.373509  8718 layer_factory.hpp:77] Creating layer conv4
I1020 01:25:48.373515  8718 net.cpp:100] Creating Layer conv4
I1020 01:25:48.373519  8718 net.cpp:434] conv4 <- pool2
I1020 01:25:48.373523  8718 net.cpp:408] conv4 -> conv4
I1020 01:25:48.374445  8718 net.cpp:150] Setting up conv4
I1020 01:25:48.374455  8718 net.cpp:157] Top shape: 64 240 6 6 (552960)
I1020 01:25:48.374459  8718 net.cpp:165] Memory required for data: 176259840
I1020 01:25:48.374465  8718 layer_factory.hpp:77] Creating layer relu4
I1020 01:25:48.374470  8718 net.cpp:100] Creating Layer relu4
I1020 01:25:48.374475  8718 net.cpp:434] relu4 <- conv4
I1020 01:25:48.374480  8718 net.cpp:408] relu4 -> relu4
I1020 01:25:48.374599  8718 net.cpp:150] Setting up relu4
I1020 01:25:48.374606  8718 net.cpp:157] Top shape: 64 240 6 6 (552960)
I1020 01:25:48.374609  8718 net.cpp:165] Memory required for data: 178471680
I1020 01:25:48.374614  8718 layer_factory.hpp:77] Creating layer conv5
I1020 01:25:48.374621  8718 net.cpp:100] Creating Layer conv5
I1020 01:25:48.374624  8718 net.cpp:434] conv5 <- relu4
I1020 01:25:48.374629  8718 net.cpp:408] conv5 -> conv5
I1020 01:25:48.376387  8718 net.cpp:150] Setting up conv5
I1020 01:25:48.376396  8718 net.cpp:157] Top shape: 64 260 5 5 (416000)
I1020 01:25:48.376400  8718 net.cpp:165] Memory required for data: 180135680
I1020 01:25:48.376410  8718 layer_factory.hpp:77] Creating layer relu5
I1020 01:25:48.376415  8718 net.cpp:100] Creating Layer relu5
I1020 01:25:48.376418  8718 net.cpp:434] relu5 <- conv5
I1020 01:25:48.376423  8718 net.cpp:408] relu5 -> relu5
I1020 01:25:48.376540  8718 net.cpp:150] Setting up relu5
I1020 01:25:48.376548  8718 net.cpp:157] Top shape: 64 260 5 5 (416000)
I1020 01:25:48.376550  8718 net.cpp:165] Memory required for data: 181799680
I1020 01:25:48.376554  8718 layer_factory.hpp:77] Creating layer drop3
I1020 01:25:48.376561  8718 net.cpp:100] Creating Layer drop3
I1020 01:25:48.376565  8718 net.cpp:434] drop3 <- relu5
I1020 01:25:48.376570  8718 net.cpp:408] drop3 -> drop3
I1020 01:25:48.376596  8718 net.cpp:150] Setting up drop3
I1020 01:25:48.376601  8718 net.cpp:157] Top shape: 64 260 5 5 (416000)
I1020 01:25:48.376605  8718 net.cpp:165] Memory required for data: 183463680
I1020 01:25:48.376607  8718 layer_factory.hpp:77] Creating layer pool3
I1020 01:25:48.376613  8718 net.cpp:100] Creating Layer pool3
I1020 01:25:48.376616  8718 net.cpp:434] pool3 <- drop3
I1020 01:25:48.376623  8718 net.cpp:408] pool3 -> pool3
I1020 01:25:48.376647  8718 net.cpp:150] Setting up pool3
I1020 01:25:48.376653  8718 net.cpp:157] Top shape: 64 260 3 3 (149760)
I1020 01:25:48.376657  8718 net.cpp:165] Memory required for data: 184062720
I1020 01:25:48.376660  8718 layer_factory.hpp:77] Creating layer conv6
I1020 01:25:48.376667  8718 net.cpp:100] Creating Layer conv6
I1020 01:25:48.376669  8718 net.cpp:434] conv6 <- pool3
I1020 01:25:48.376675  8718 net.cpp:408] conv6 -> conv6
I1020 01:25:48.377785  8718 net.cpp:150] Setting up conv6
I1020 01:25:48.377794  8718 net.cpp:157] Top shape: 64 260 3 3 (149760)
I1020 01:25:48.377797  8718 net.cpp:165] Memory required for data: 184661760
I1020 01:25:48.377804  8718 layer_factory.hpp:77] Creating layer relu6
I1020 01:25:48.377810  8718 net.cpp:100] Creating Layer relu6
I1020 01:25:48.377813  8718 net.cpp:434] relu6 <- conv6
I1020 01:25:48.377820  8718 net.cpp:408] relu6 -> relu6
I1020 01:25:48.378013  8718 net.cpp:150] Setting up relu6
I1020 01:25:48.378022  8718 net.cpp:157] Top shape: 64 260 3 3 (149760)
I1020 01:25:48.378026  8718 net.cpp:165] Memory required for data: 185260800
I1020 01:25:48.378028  8718 layer_factory.hpp:77] Creating layer conv7
I1020 01:25:48.378036  8718 net.cpp:100] Creating Layer conv7
I1020 01:25:48.378039  8718 net.cpp:434] conv7 <- relu6
I1020 01:25:48.378046  8718 net.cpp:408] conv7 -> conv7
I1020 01:25:48.379961  8718 net.cpp:150] Setting up conv7
I1020 01:25:48.379968  8718 net.cpp:157] Top shape: 64 280 2 2 (71680)
I1020 01:25:48.379972  8718 net.cpp:165] Memory required for data: 185547520
I1020 01:25:48.379978  8718 layer_factory.hpp:77] Creating layer relu7
I1020 01:25:48.379986  8718 net.cpp:100] Creating Layer relu7
I1020 01:25:48.379988  8718 net.cpp:434] relu7 <- conv7
I1020 01:25:48.379995  8718 net.cpp:408] relu7 -> relu7
I1020 01:25:48.380125  8718 net.cpp:150] Setting up relu7
I1020 01:25:48.380131  8718 net.cpp:157] Top shape: 64 280 2 2 (71680)
I1020 01:25:48.380134  8718 net.cpp:165] Memory required for data: 185834240
I1020 01:25:48.380138  8718 layer_factory.hpp:77] Creating layer drop4
I1020 01:25:48.380144  8718 net.cpp:100] Creating Layer drop4
I1020 01:25:48.380147  8718 net.cpp:434] drop4 <- relu7
I1020 01:25:48.380153  8718 net.cpp:408] drop4 -> drop4
I1020 01:25:48.380179  8718 net.cpp:150] Setting up drop4
I1020 01:25:48.380185  8718 net.cpp:157] Top shape: 64 280 2 2 (71680)
I1020 01:25:48.380187  8718 net.cpp:165] Memory required for data: 186120960
I1020 01:25:48.380190  8718 layer_factory.hpp:77] Creating layer pool4
I1020 01:25:48.380198  8718 net.cpp:100] Creating Layer pool4
I1020 01:25:48.380201  8718 net.cpp:434] pool4 <- drop4
I1020 01:25:48.380205  8718 net.cpp:408] pool4 -> pool4
I1020 01:25:48.380231  8718 net.cpp:150] Setting up pool4
I1020 01:25:48.380237  8718 net.cpp:157] Top shape: 64 280 1 1 (17920)
I1020 01:25:48.380240  8718 net.cpp:165] Memory required for data: 186192640
I1020 01:25:48.380244  8718 layer_factory.hpp:77] Creating layer conv8
I1020 01:25:48.380250  8718 net.cpp:100] Creating Layer conv8
I1020 01:25:48.380254  8718 net.cpp:434] conv8 <- pool4
I1020 01:25:48.380259  8718 net.cpp:408] conv8 -> conv8
I1020 01:25:48.381259  8718 net.cpp:150] Setting up conv8
I1020 01:25:48.381268  8718 net.cpp:157] Top shape: 64 280 1 1 (17920)
I1020 01:25:48.381271  8718 net.cpp:165] Memory required for data: 186264320
I1020 01:25:48.381278  8718 layer_factory.hpp:77] Creating layer relu8
I1020 01:25:48.381284  8718 net.cpp:100] Creating Layer relu8
I1020 01:25:48.381289  8718 net.cpp:434] relu8 <- conv8
I1020 01:25:48.381292  8718 net.cpp:408] relu8 -> relu8
I1020 01:25:48.381412  8718 net.cpp:150] Setting up relu8
I1020 01:25:48.381419  8718 net.cpp:157] Top shape: 64 280 1 1 (17920)
I1020 01:25:48.381422  8718 net.cpp:165] Memory required for data: 186336000
I1020 01:25:48.381427  8718 layer_factory.hpp:77] Creating layer drop5
I1020 01:25:48.381431  8718 net.cpp:100] Creating Layer drop5
I1020 01:25:48.381435  8718 net.cpp:434] drop5 <- relu8
I1020 01:25:48.381439  8718 net.cpp:408] drop5 -> drop5
I1020 01:25:48.381467  8718 net.cpp:150] Setting up drop5
I1020 01:25:48.381472  8718 net.cpp:157] Top shape: 64 280 1 1 (17920)
I1020 01:25:48.381475  8718 net.cpp:165] Memory required for data: 186407680
I1020 01:25:48.381479  8718 layer_factory.hpp:77] Creating layer pool5
I1020 01:25:48.381484  8718 net.cpp:100] Creating Layer pool5
I1020 01:25:48.381487  8718 net.cpp:434] pool5 <- drop5
I1020 01:25:48.381492  8718 net.cpp:408] pool5 -> pool5
I1020 01:25:48.381518  8718 net.cpp:150] Setting up pool5
I1020 01:25:48.381523  8718 net.cpp:157] Top shape: 64 280 1 1 (17920)
I1020 01:25:48.381527  8718 net.cpp:165] Memory required for data: 186479360
I1020 01:25:48.381531  8718 layer_factory.hpp:77] Creating layer conv10
I1020 01:25:48.381537  8718 net.cpp:100] Creating Layer conv10
I1020 01:25:48.381541  8718 net.cpp:434] conv10 <- pool5
I1020 01:25:48.381546  8718 net.cpp:408] conv10 -> conv10
I1020 01:25:48.382475  8718 net.cpp:150] Setting up conv10
I1020 01:25:48.382483  8718 net.cpp:157] Top shape: 64 300 1 1 (19200)
I1020 01:25:48.382486  8718 net.cpp:165] Memory required for data: 186556160
I1020 01:25:48.382498  8718 layer_factory.hpp:77] Creating layer relu10
I1020 01:25:48.382503  8718 net.cpp:100] Creating Layer relu10
I1020 01:25:48.382506  8718 net.cpp:434] relu10 <- conv10
I1020 01:25:48.382511  8718 net.cpp:408] relu10 -> relu10
I1020 01:25:48.382706  8718 net.cpp:150] Setting up relu10
I1020 01:25:48.382714  8718 net.cpp:157] Top shape: 64 300 1 1 (19200)
I1020 01:25:48.382716  8718 net.cpp:165] Memory required for data: 186632960
I1020 01:25:48.382719  8718 layer_factory.hpp:77] Creating layer drop6
I1020 01:25:48.382726  8718 net.cpp:100] Creating Layer drop6
I1020 01:25:48.382730  8718 net.cpp:434] drop6 <- relu10
I1020 01:25:48.382735  8718 net.cpp:408] drop6 -> drop6
I1020 01:25:48.382766  8718 net.cpp:150] Setting up drop6
I1020 01:25:48.382778  8718 net.cpp:157] Top shape: 64 300 1 1 (19200)
I1020 01:25:48.382781  8718 net.cpp:165] Memory required for data: 186709760
I1020 01:25:48.382784  8718 layer_factory.hpp:77] Creating layer pool6
I1020 01:25:48.382789  8718 net.cpp:100] Creating Layer pool6
I1020 01:25:48.382793  8718 net.cpp:434] pool6 <- drop6
I1020 01:25:48.382799  8718 net.cpp:408] pool6 -> pool6
I1020 01:25:48.382827  8718 net.cpp:150] Setting up pool6
I1020 01:25:48.382832  8718 net.cpp:157] Top shape: 64 300 1 1 (19200)
I1020 01:25:48.382834  8718 net.cpp:165] Memory required for data: 186786560
I1020 01:25:48.382838  8718 layer_factory.hpp:77] Creating layer conv11
I1020 01:25:48.382849  8718 net.cpp:100] Creating Layer conv11
I1020 01:25:48.382853  8718 net.cpp:434] conv11 <- pool6
I1020 01:25:48.382856  8718 net.cpp:408] conv11 -> conv11
I1020 01:25:48.383673  8718 net.cpp:150] Setting up conv11
I1020 01:25:48.383683  8718 net.cpp:157] Top shape: 64 100 1 1 (6400)
I1020 01:25:48.383687  8718 net.cpp:165] Memory required for data: 186812160
I1020 01:25:48.383692  8718 layer_factory.hpp:77] Creating layer relu11
I1020 01:25:48.383698  8718 net.cpp:100] Creating Layer relu11
I1020 01:25:48.383702  8718 net.cpp:434] relu11 <- conv11
I1020 01:25:48.383708  8718 net.cpp:408] relu11 -> relu11
I1020 01:25:48.383831  8718 net.cpp:150] Setting up relu11
I1020 01:25:48.383837  8718 net.cpp:157] Top shape: 64 100 1 1 (6400)
I1020 01:25:48.383841  8718 net.cpp:165] Memory required for data: 186837760
I1020 01:25:48.383843  8718 layer_factory.hpp:77] Creating layer drop7
I1020 01:25:48.383847  8718 net.cpp:100] Creating Layer drop7
I1020 01:25:48.383852  8718 net.cpp:434] drop7 <- relu11
I1020 01:25:48.383858  8718 net.cpp:408] drop7 -> drop7
I1020 01:25:48.383885  8718 net.cpp:150] Setting up drop7
I1020 01:25:48.383890  8718 net.cpp:157] Top shape: 64 100 1 1 (6400)
I1020 01:25:48.383894  8718 net.cpp:165] Memory required for data: 186863360
I1020 01:25:48.383898  8718 layer_factory.hpp:77] Creating layer pool7
I1020 01:25:48.383903  8718 net.cpp:100] Creating Layer pool7
I1020 01:25:48.383906  8718 net.cpp:434] pool7 <- drop7
I1020 01:25:48.383911  8718 net.cpp:408] pool7 -> pool7
I1020 01:25:48.383939  8718 net.cpp:150] Setting up pool7
I1020 01:25:48.383944  8718 net.cpp:157] Top shape: 64 100 1 1 (6400)
I1020 01:25:48.383946  8718 net.cpp:165] Memory required for data: 186888960
I1020 01:25:48.383950  8718 layer_factory.hpp:77] Creating layer score
I1020 01:25:48.383957  8718 net.cpp:100] Creating Layer score
I1020 01:25:48.383960  8718 net.cpp:434] score <- pool7
I1020 01:25:48.383965  8718 net.cpp:408] score -> score
I1020 01:25:48.384064  8718 net.cpp:150] Setting up score
I1020 01:25:48.384069  8718 net.cpp:157] Top shape: 64 10 (640)
I1020 01:25:48.384073  8718 net.cpp:165] Memory required for data: 186891520
I1020 01:25:48.384078  8718 layer_factory.hpp:77] Creating layer score_score_0_split
I1020 01:25:48.384083  8718 net.cpp:100] Creating Layer score_score_0_split
I1020 01:25:48.384088  8718 net.cpp:434] score_score_0_split <- score
I1020 01:25:48.384093  8718 net.cpp:408] score_score_0_split -> score_score_0_split_0
I1020 01:25:48.384099  8718 net.cpp:408] score_score_0_split -> score_score_0_split_1
I1020 01:25:48.384125  8718 net.cpp:150] Setting up score_score_0_split
I1020 01:25:48.384130  8718 net.cpp:157] Top shape: 64 10 (640)
I1020 01:25:48.384133  8718 net.cpp:157] Top shape: 64 10 (640)
I1020 01:25:48.384135  8718 net.cpp:165] Memory required for data: 186896640
I1020 01:25:48.384140  8718 layer_factory.hpp:77] Creating layer accuracy
I1020 01:25:48.384145  8718 net.cpp:100] Creating Layer accuracy
I1020 01:25:48.384148  8718 net.cpp:434] accuracy <- score_score_0_split_0
I1020 01:25:48.384152  8718 net.cpp:434] accuracy <- label_data_1_split_0
I1020 01:25:48.384157  8718 net.cpp:408] accuracy -> accuracy
…
I1020 01:25:48.384667  8718 net.cpp:283] Network initialization done.
I1020 01:25:48.384853  8718 solver.cpp:181] Creating test net (#0) specified by test_net file: /home/adam/Honours/Honours-Project/cifar-10_pooling/max/relu/poolcnn_relu_test.prototxt
I1020 01:25:48.384975  8718 net.cpp:58] Initializing net from parameters: 
state {
  phase: TEST
}
layer {
  name: "data"
  type: "Data"
  top: "data"
  top: "label"
  transform_param {
    mean_file: "mean.binaryproto"
  }
  data_param {
    source: "../../../../data/cifar-10/cifar10_test_lmdb"
    batch_size: 100
    backend: LMDB
  }
}
layer {
  name: "conv1"
  type: "Convolution"
  bottom: "data"
  top: "conv1"
  convolution_param {
    num_output: 192
    kernel_size: 5
    weight_filler {
      type: "xavier"
    }
  }
}
layer {
  name: "relu1"
  type: "ReLU"
  bottom: "conv1"
  top: "relu1"
}
layer {
  name: "drop1"
  type: "Dropout"
  bottom: "relu1"
  top: "drop1"
  dropout_param {
    dropout_ratio: 0
  }
}
layer {
  name: "pool1"
  type: "Pooling"
  bottom: "drop1"
  top: "pool1"
  pooling_param {
    pool: MAX
    kernel_size: 2
    stride: 2
  }
}
layer {
  name: "conv2"
  type: "Convolution"
  bottom: "pool1"
  top: "conv2"
  convolution_param {
    num_output: 192
    kernel_size: 1
    weight_filler {
      type: "xavier"
    }
  }
}
layer {
  name: "relu2"
  type: "ReLU"
  bottom: "conv2"
  top: "relu2"
}
layer {
  name: "conv3"
  type: "Convolution"
  bottom: "relu2"
  top: "conv3"
  convolution_param {
    num_output: 240
    kernel_size: 3
    weight_filler {
      type: "xavier"
    }
  }
}
layer {
  name: "relu3"
  type: "ReLU"
  bottom: "conv3"
  top: "relu3"
}
layer {
  name: "drop2"
  type: "Dropout"
  bottom: "relu3"
  top: "drop2"
  dropout_param {
    dropout_ratio: 0.1
  }
}
layer {
  name: "pool2"
  type: "Pooling"
  bottom: "drop2"
  top: "pool2"
  pooling_param {
    pool: MAX
    kernel_size: 2
    stride: 2
  }
}
layer {
  name: "conv4"
  type: "Convolution"
  bottom: "pool2"
  top: "conv4"
  convolution_param {
    num_output: 240
    kernel_size: 1
    weight_filler {
      type: "xavier"
    }
  }
}
layer {
  name: "relu4"
  type: "ReLU"
  bottom: "conv4"
  top: "relu4"
}
layer {
  name: "conv5"
  type: "Convolution"
  bottom: "relu4"
  top: "conv5"
  convolution_param {
    num_output: 260
    kernel_size: 2
    weight_filler {
      type: "xavier"
    }
  }
}
layer {
  name: "relu5"
  type: "ReLU"
  bottom: "conv5"
  top: "relu5"
}
layer {
  name: "drop3"
  type: "Dropout"
  bottom: "relu5"
  top: "drop3"
  dropout_param {
    dropout_ratio: 0.2
  }
}
layer {
  name: "pool3"
  type: "Pooling"
  bottom: "drop3"
  top: "pool3"
  pooling_param {
    pool: MAX
    kernel_size: 2
    stride: 2
  }
}
layer {
  name: "conv6"
  type: "Convolution"
  bottom: "pool3"
  top: "conv6"
  convolution_param {
    num_output: 260
    kernel_size: 1
    weight_filler {
      type: "xavier"
    }
  }
}
layer {
  name: "relu6"
  type: "ReLU"
  bottom: "conv6"
  top: "relu6"
}
layer {
  name: "conv7"
  type: "Convolution"
  bottom: "relu6"
  top: "conv7"
  convolution_param {
    num_output: 280
    kernel_size: 2
    weight_filler {
      type: "xavier"
    }
  }
}
layer {
  name: "relu7"
  type: "ReLU"
  bottom: "conv7"
  top: "relu7"
}
layer {
  name: "drop4"
  type: "Dropout"
  bottom: "relu7"
  top: "drop4"
  dropout_param {
    dropout_ratio: 0.3
  }
}
layer {
  name: "pool4"
  type: "Pooling"
  bottom: "drop4"
  top: "pool4"
  pooling_param {
    pool: MAX
    kernel_size: 2
    stride: 2
  }
}
layer {
  name: "conv8"
  type: "Convolution"
  bottom: "pool4"
  top: "conv8"
  convolution_param {
    num_output: 280
    kernel_size: 1
    weight_filler {
      type: "xavier"
    }
  }
}
layer {
  name: "relu8"
  type: "ReLU"
  bottom: "conv8"
  top: "relu8"
}
layer {
  name: "drop5"
  type: "Dropout"
  bottom: "relu8"
  top: "drop5"
  dropout_param {
    dropout_ratio: 0.4
  }
}
layer {
  name: "pool5"
  type: "Pooling"
  bottom: "drop5"
  top: "pool5"
  pooling_param {
    pool: MAX
    kernel_size: 2
    stride: 2
  }
}
layer {
  name: "conv10"
  type: "Convolution"
  bottom: "pool5"
  top: "conv10"
  convolution_param {
    num_output: 300
    kernel_size: 1
    weight_filler {
      type: "xavier"
    }
  }
}
layer {
  name: "relu10"
  type: "ReLU"
  bottom: "conv10"
  top: "relu10"
}
layer {
  name: "drop6"
  type: "Dropout"
  bottom: "relu10"
  top: "drop6"
  dropout_param {
    dropout_ratio: 0.5
  }
}
layer {
  name: "pool6"
  type: "Pooling"
  bottom: "drop6"
  top: "pool6"
  pooling_param {
    pool: MAX
    kernel_size: 2
    stride: 2
  }
}
layer {
  name: "conv11"
  type: "Convolution"
  bottom: "pool6"
  top: "conv11"
  convolution_param {
    num_output: 100
    kernel_size: 1
    weight_filler {
      type: "xavier"
    }
  }
}
layer {
  name: "relu11"
  type: "ReLU"
  bottom: "conv11"
  top: "relu11"
}
layer {
  name: "drop7"
  type: "Dropout"
  bottom: "relu11"
  top: "drop7"
  dropout_param {
    dropout_ratio: 0
  }
}
layer {
  name: "pool7"
  type: "Pooling"
  bottom: "drop7"
  top: "pool7"
  pooling_param {
    pool: MAX
    kernel_size: 2
    stride: 2
  }
}
layer {
  name: "score"
  type: "InnerProduct"
  bottom: "pool7"
  top: "score"
  inner_product_param {
    num_output: 10
    weight_filler {
      type: "gaussian"
    }
  }
}
layer {
  name: "accuracy"
  type: "Accuracy"
  bottom: "score"
  bottom: "label"
  top: "accuracy"
}
layer {
  name: "loss"
  type: "SoftmaxWithLoss"
  bottom: "score"
  bottom: "label"
  top: "loss"
}
I1020 01:25:48.385074  8718 layer_factory.hpp:77] Creating layer data
I1020 01:25:48.385164  8718 net.cpp:100] Creating Layer data
I1020 01:25:48.385170  8718 net.cpp:408] data -> data
I1020 01:25:48.385176  8718 net.cpp:408] data -> label
I1020 01:25:48.385182  8718 data_transformer.cpp:25] Loading mean file from: mean.binaryproto
I1020 01:25:48.385823  8726 db_lmdb.cpp:35] Opened lmdb ../../../../data/cifar-10/cifar10_test_lmdb
I1020 01:25:48.385885  8718 data_layer.cpp:41] output data size: 100,3,32,32
I1020 01:25:48.387560  8718 net.cpp:150] Setting up data
I1020 01:25:48.387573  8718 net.cpp:157] Top shape: 100 3 32 32 (307200)
I1020 01:25:48.387578  8718 net.cpp:157] Top shape: 100 (100)
I1020 01:25:48.387580  8718 net.cpp:165] Memory required for data: 1229200
I1020 01:25:48.387584  8718 layer_factory.hpp:77] Creating layer label_data_1_split
I1020 01:25:48.387598  8718 net.cpp:100] Creating Layer label_data_1_split
I1020 01:25:48.387603  8718 net.cpp:434] label_data_1_split <- label
I1020 01:25:48.387609  8718 net.cpp:408] label_data_1_split -> label_data_1_split_0
I1020 01:25:48.387619  8718 net.cpp:408] label_data_1_split -> label_data_1_split_1
I1020 01:25:48.387665  8718 net.cpp:150] Setting up label_data_1_split
I1020 01:25:48.387670  8718 net.cpp:157] Top shape: 100 (100)
I1020 01:25:48.387673  8718 net.cpp:157] Top shape: 100 (100)
I1020 01:25:48.387676  8718 net.cpp:165] Memory required for data: 1230000
I1020 01:25:48.387678  8718 layer_factory.hpp:77] Creating layer conv1
I1020 01:25:48.387689  8718 net.cpp:100] Creating Layer conv1
I1020 01:25:48.387692  8718 net.cpp:434] conv1 <- data
I1020 01:25:48.387699  8718 net.cpp:408] conv1 -> conv1
I1020 01:25:48.388629  8718 net.cpp:150] Setting up conv1
I1020 01:25:48.388640  8718 net.cpp:157] Top shape: 100 192 28 28 (15052800)
I1020 01:25:48.388643  8718 net.cpp:165] Memory required for data: 61441200
I1020 01:25:48.388654  8718 layer_factory.hpp:77] Creating layer relu1
I1020 01:25:48.388660  8718 net.cpp:100] Creating Layer relu1
I1020 01:25:48.388664  8718 net.cpp:434] relu1 <- conv1
I1020 01:25:48.388671  8718 net.cpp:408] relu1 -> relu1
I1020 01:25:48.388802  8718 net.cpp:150] Setting up relu1
I1020 01:25:48.388808  8718 net.cpp:157] Top shape: 100 192 28 28 (15052800)
I1020 01:25:48.388811  8718 net.cpp:165] Memory required for data: 121652400
I1020 01:25:48.388814  8718 layer_factory.hpp:77] Creating layer drop1
I1020 01:25:48.388823  8718 net.cpp:100] Creating Layer drop1
I1020 01:25:48.388825  8718 net.cpp:434] drop1 <- relu1
I1020 01:25:48.388831  8718 net.cpp:408] drop1 -> drop1
I1020 01:25:48.388860  8718 net.cpp:150] Setting up drop1
I1020 01:25:48.388866  8718 net.cpp:157] Top shape: 100 192 28 28 (15052800)
I1020 01:25:48.388870  8718 net.cpp:165] Memory required for data: 181863600
I1020 01:25:48.388873  8718 layer_factory.hpp:77] Creating layer pool1
I1020 01:25:48.388890  8718 net.cpp:100] Creating Layer pool1
I1020 01:25:48.388895  8718 net.cpp:434] pool1 <- drop1
I1020 01:25:48.388900  8718 net.cpp:408] pool1 -> pool1
I1020 01:25:48.388928  8718 net.cpp:150] Setting up pool1
I1020 01:25:48.388934  8718 net.cpp:157] Top shape: 100 192 14 14 (3763200)
I1020 01:25:48.388937  8718 net.cpp:165] Memory required for data: 196916400
I1020 01:25:48.388941  8718 layer_factory.hpp:77] Creating layer conv2
I1020 01:25:48.388949  8718 net.cpp:100] Creating Layer conv2
I1020 01:25:48.388952  8718 net.cpp:434] conv2 <- pool1
I1020 01:25:48.388958  8718 net.cpp:408] conv2 -> conv2
I1020 01:25:48.389951  8718 net.cpp:150] Setting up conv2
I1020 01:25:48.389962  8718 net.cpp:157] Top shape: 100 192 14 14 (3763200)
I1020 01:25:48.389967  8718 net.cpp:165] Memory required for data: 211969200
I1020 01:25:48.389976  8718 layer_factory.hpp:77] Creating layer relu2
I1020 01:25:48.389983  8718 net.cpp:100] Creating Layer relu2
I1020 01:25:48.389987  8718 net.cpp:434] relu2 <- conv2
I1020 01:25:48.389994  8718 net.cpp:408] relu2 -> relu2
I1020 01:25:48.390139  8718 net.cpp:150] Setting up relu2
I1020 01:25:48.390147  8718 net.cpp:157] Top shape: 100 192 14 14 (3763200)
I1020 01:25:48.390151  8718 net.cpp:165] Memory required for data: 227022000
I1020 01:25:48.390153  8718 layer_factory.hpp:77] Creating layer conv3
I1020 01:25:48.390164  8718 net.cpp:100] Creating Layer conv3
I1020 01:25:48.390167  8718 net.cpp:434] conv3 <- relu2
I1020 01:25:48.390173  8718 net.cpp:408] conv3 -> conv3
I1020 01:25:48.392681  8718 net.cpp:150] Setting up conv3
I1020 01:25:48.392691  8718 net.cpp:157] Top shape: 100 240 12 12 (3456000)
I1020 01:25:48.392694  8718 net.cpp:165] Memory required for data: 240846000
I1020 01:25:48.392702  8718 layer_factory.hpp:77] Creating layer relu3
I1020 01:25:48.392709  8718 net.cpp:100] Creating Layer relu3
I1020 01:25:48.392711  8718 net.cpp:434] relu3 <- conv3
I1020 01:25:48.392717  8718 net.cpp:408] relu3 -> relu3
I1020 01:25:48.392921  8718 net.cpp:150] Setting up relu3
I1020 01:25:48.392930  8718 net.cpp:157] Top shape: 100 240 12 12 (3456000)
I1020 01:25:48.392932  8718 net.cpp:165] Memory required for data: 254670000
I1020 01:25:48.392935  8718 layer_factory.hpp:77] Creating layer drop2
I1020 01:25:48.392940  8718 net.cpp:100] Creating Layer drop2
I1020 01:25:48.392946  8718 net.cpp:434] drop2 <- relu3
I1020 01:25:48.392951  8718 net.cpp:408] drop2 -> drop2
I1020 01:25:48.392982  8718 net.cpp:150] Setting up drop2
I1020 01:25:48.392987  8718 net.cpp:157] Top shape: 100 240 12 12 (3456000)
I1020 01:25:48.392992  8718 net.cpp:165] Memory required for data: 268494000
I1020 01:25:48.392994  8718 layer_factory.hpp:77] Creating layer pool2
I1020 01:25:48.392999  8718 net.cpp:100] Creating Layer pool2
I1020 01:25:48.393003  8718 net.cpp:434] pool2 <- drop2
I1020 01:25:48.393008  8718 net.cpp:408] pool2 -> pool2
I1020 01:25:48.393038  8718 net.cpp:150] Setting up pool2
I1020 01:25:48.393043  8718 net.cpp:157] Top shape: 100 240 6 6 (864000)
I1020 01:25:48.393045  8718 net.cpp:165] Memory required for data: 271950000
I1020 01:25:48.393049  8718 layer_factory.hpp:77] Creating layer conv4
I1020 01:25:48.393056  8718 net.cpp:100] Creating Layer conv4
I1020 01:25:48.393059  8718 net.cpp:434] conv4 <- pool2
I1020 01:25:48.393065  8718 net.cpp:408] conv4 -> conv4
I1020 01:25:48.394011  8718 net.cpp:150] Setting up conv4
I1020 01:25:48.394019  8718 net.cpp:157] Top shape: 100 240 6 6 (864000)
I1020 01:25:48.394022  8718 net.cpp:165] Memory required for data: 275406000
I1020 01:25:48.394028  8718 layer_factory.hpp:77] Creating layer relu4
I1020 01:25:48.394034  8718 net.cpp:100] Creating Layer relu4
I1020 01:25:48.394038  8718 net.cpp:434] relu4 <- conv4
I1020 01:25:48.394044  8718 net.cpp:408] relu4 -> relu4
I1020 01:25:48.394170  8718 net.cpp:150] Setting up relu4
I1020 01:25:48.394176  8718 net.cpp:157] Top shape: 100 240 6 6 (864000)
I1020 01:25:48.394179  8718 net.cpp:165] Memory required for data: 278862000
I1020 01:25:48.394183  8718 layer_factory.hpp:77] Creating layer conv5
I1020 01:25:48.394201  8718 net.cpp:100] Creating Layer conv5
I1020 01:25:48.394204  8718 net.cpp:434] conv5 <- relu4
I1020 01:25:48.394212  8718 net.cpp:408] conv5 -> conv5
I1020 01:25:48.396101  8718 net.cpp:150] Setting up conv5
I1020 01:25:48.396111  8718 net.cpp:157] Top shape: 100 260 5 5 (650000)
I1020 01:25:48.396116  8718 net.cpp:165] Memory required for data: 281462000
I1020 01:25:48.396123  8718 layer_factory.hpp:77] Creating layer relu5
I1020 01:25:48.396129  8718 net.cpp:100] Creating Layer relu5
I1020 01:25:48.396132  8718 net.cpp:434] relu5 <- conv5
I1020 01:25:48.396139  8718 net.cpp:408] relu5 -> relu5
I1020 01:25:48.396266  8718 net.cpp:150] Setting up relu5
I1020 01:25:48.396273  8718 net.cpp:157] Top shape: 100 260 5 5 (650000)
I1020 01:25:48.396276  8718 net.cpp:165] Memory required for data: 284062000
I1020 01:25:48.396280  8718 layer_factory.hpp:77] Creating layer drop3
I1020 01:25:48.396286  8718 net.cpp:100] Creating Layer drop3
I1020 01:25:48.396296  8718 net.cpp:434] drop3 <- relu5
I1020 01:25:48.396302  8718 net.cpp:408] drop3 -> drop3
I1020 01:25:48.396332  8718 net.cpp:150] Setting up drop3
I1020 01:25:48.396337  8718 net.cpp:157] Top shape: 100 260 5 5 (650000)
I1020 01:25:48.396340  8718 net.cpp:165] Memory required for data: 286662000
I1020 01:25:48.396343  8718 layer_factory.hpp:77] Creating layer pool3
I1020 01:25:48.396349  8718 net.cpp:100] Creating Layer pool3
I1020 01:25:48.396353  8718 net.cpp:434] pool3 <- drop3
I1020 01:25:48.396358  8718 net.cpp:408] pool3 -> pool3
I1020 01:25:48.396386  8718 net.cpp:150] Setting up pool3
I1020 01:25:48.396391  8718 net.cpp:157] Top shape: 100 260 3 3 (234000)
I1020 01:25:48.396394  8718 net.cpp:165] Memory required for data: 287598000
I1020 01:25:48.396397  8718 layer_factory.hpp:77] Creating layer conv6
I1020 01:25:48.396405  8718 net.cpp:100] Creating Layer conv6
I1020 01:25:48.396409  8718 net.cpp:434] conv6 <- pool3
I1020 01:25:48.396414  8718 net.cpp:408] conv6 -> conv6
I1020 01:25:48.397557  8718 net.cpp:150] Setting up conv6
I1020 01:25:48.397567  8718 net.cpp:157] Top shape: 100 260 3 3 (234000)
I1020 01:25:48.397569  8718 net.cpp:165] Memory required for data: 288534000
I1020 01:25:48.397574  8718 layer_factory.hpp:77] Creating layer relu6
I1020 01:25:48.397580  8718 net.cpp:100] Creating Layer relu6
I1020 01:25:48.397585  8718 net.cpp:434] relu6 <- conv6
I1020 01:25:48.397591  8718 net.cpp:408] relu6 -> relu6
I1020 01:25:48.397796  8718 net.cpp:150] Setting up relu6
I1020 01:25:48.397804  8718 net.cpp:157] Top shape: 100 260 3 3 (234000)
I1020 01:25:48.397809  8718 net.cpp:165] Memory required for data: 289470000
I1020 01:25:48.397812  8718 layer_factory.hpp:77] Creating layer conv7
I1020 01:25:48.397820  8718 net.cpp:100] Creating Layer conv7
I1020 01:25:48.397824  8718 net.cpp:434] conv7 <- relu6
I1020 01:25:48.397831  8718 net.cpp:408] conv7 -> conv7
I1020 01:25:48.399792  8718 net.cpp:150] Setting up conv7
I1020 01:25:48.399802  8718 net.cpp:157] Top shape: 100 280 2 2 (112000)
I1020 01:25:48.399806  8718 net.cpp:165] Memory required for data: 289918000
I1020 01:25:48.399812  8718 layer_factory.hpp:77] Creating layer relu7
I1020 01:25:48.399818  8718 net.cpp:100] Creating Layer relu7
I1020 01:25:48.399821  8718 net.cpp:434] relu7 <- conv7
I1020 01:25:48.399827  8718 net.cpp:408] relu7 -> relu7
I1020 01:25:48.399953  8718 net.cpp:150] Setting up relu7
I1020 01:25:48.399960  8718 net.cpp:157] Top shape: 100 280 2 2 (112000)
I1020 01:25:48.399962  8718 net.cpp:165] Memory required for data: 290366000
I1020 01:25:48.399966  8718 layer_factory.hpp:77] Creating layer drop4
I1020 01:25:48.399971  8718 net.cpp:100] Creating Layer drop4
I1020 01:25:48.399976  8718 net.cpp:434] drop4 <- relu7
I1020 01:25:48.399981  8718 net.cpp:408] drop4 -> drop4
I1020 01:25:48.400009  8718 net.cpp:150] Setting up drop4
I1020 01:25:48.400015  8718 net.cpp:157] Top shape: 100 280 2 2 (112000)
I1020 01:25:48.400018  8718 net.cpp:165] Memory required for data: 290814000
I1020 01:25:48.400022  8718 layer_factory.hpp:77] Creating layer pool4
I1020 01:25:48.400027  8718 net.cpp:100] Creating Layer pool4
I1020 01:25:48.400038  8718 net.cpp:434] pool4 <- drop4
I1020 01:25:48.400043  8718 net.cpp:408] pool4 -> pool4
I1020 01:25:48.400073  8718 net.cpp:150] Setting up pool4
I1020 01:25:48.400077  8718 net.cpp:157] Top shape: 100 280 1 1 (28000)
I1020 01:25:48.400081  8718 net.cpp:165] Memory required for data: 290926000
I1020 01:25:48.400084  8718 layer_factory.hpp:77] Creating layer conv8
I1020 01:25:48.400091  8718 net.cpp:100] Creating Layer conv8
I1020 01:25:48.400094  8718 net.cpp:434] conv8 <- pool4
I1020 01:25:48.400100  8718 net.cpp:408] conv8 -> conv8
I1020 01:25:48.401057  8718 net.cpp:150] Setting up conv8
I1020 01:25:48.401067  8718 net.cpp:157] Top shape: 100 280 1 1 (28000)
I1020 01:25:48.401070  8718 net.cpp:165] Memory required for data: 291038000
I1020 01:25:48.401077  8718 layer_factory.hpp:77] Creating layer relu8
I1020 01:25:48.401082  8718 net.cpp:100] Creating Layer relu8
I1020 01:25:48.401087  8718 net.cpp:434] relu8 <- conv8
I1020 01:25:48.401090  8718 net.cpp:408] relu8 -> relu8
I1020 01:25:48.401214  8718 net.cpp:150] Setting up relu8
I1020 01:25:48.401221  8718 net.cpp:157] Top shape: 100 280 1 1 (28000)
I1020 01:25:48.401223  8718 net.cpp:165] Memory required for data: 291150000
I1020 01:25:48.401226  8718 layer_factory.hpp:77] Creating layer drop5
I1020 01:25:48.401232  8718 net.cpp:100] Creating Layer drop5
I1020 01:25:48.401235  8718 net.cpp:434] drop5 <- relu8
I1020 01:25:48.401240  8718 net.cpp:408] drop5 -> drop5
I1020 01:25:48.401269  8718 net.cpp:150] Setting up drop5
I1020 01:25:48.401278  8718 net.cpp:157] Top shape: 100 280 1 1 (28000)
I1020 01:25:48.401280  8718 net.cpp:165] Memory required for data: 291262000
I1020 01:25:48.401283  8718 layer_factory.hpp:77] Creating layer pool5
I1020 01:25:48.401288  8718 net.cpp:100] Creating Layer pool5
I1020 01:25:48.401291  8718 net.cpp:434] pool5 <- drop5
I1020 01:25:48.401296  8718 net.cpp:408] pool5 -> pool5
I1020 01:25:48.401324  8718 net.cpp:150] Setting up pool5
I1020 01:25:48.401329  8718 net.cpp:157] Top shape: 100 280 1 1 (28000)
I1020 01:25:48.401335  8718 net.cpp:165] Memory required for data: 291374000
I1020 01:25:48.401336  8718 layer_factory.hpp:77] Creating layer conv10
I1020 01:25:48.401343  8718 net.cpp:100] Creating Layer conv10
I1020 01:25:48.401346  8718 net.cpp:434] conv10 <- pool5
I1020 01:25:48.401353  8718 net.cpp:408] conv10 -> conv10
I1020 01:25:48.402323  8718 net.cpp:150] Setting up conv10
I1020 01:25:48.402330  8718 net.cpp:157] Top shape: 100 300 1 1 (30000)
I1020 01:25:48.402333  8718 net.cpp:165] Memory required for data: 291494000
I1020 01:25:48.402343  8718 layer_factory.hpp:77] Creating layer relu10
I1020 01:25:48.402348  8718 net.cpp:100] Creating Layer relu10
I1020 01:25:48.402353  8718 net.cpp:434] relu10 <- conv10
I1020 01:25:48.402359  8718 net.cpp:408] relu10 -> relu10
I1020 01:25:48.402561  8718 net.cpp:150] Setting up relu10
I1020 01:25:48.402570  8718 net.cpp:157] Top shape: 100 300 1 1 (30000)
I1020 01:25:48.402572  8718 net.cpp:165] Memory required for data: 291614000
I1020 01:25:48.402575  8718 layer_factory.hpp:77] Creating layer drop6
I1020 01:25:48.402581  8718 net.cpp:100] Creating Layer drop6
I1020 01:25:48.402585  8718 net.cpp:434] drop6 <- relu10
I1020 01:25:48.402590  8718 net.cpp:408] drop6 -> drop6
I1020 01:25:48.402622  8718 net.cpp:150] Setting up drop6
I1020 01:25:48.402628  8718 net.cpp:157] Top shape: 100 300 1 1 (30000)
I1020 01:25:48.402631  8718 net.cpp:165] Memory required for data: 291734000
I1020 01:25:48.402634  8718 layer_factory.hpp:77] Creating layer pool6
I1020 01:25:48.402640  8718 net.cpp:100] Creating Layer pool6
I1020 01:25:48.402644  8718 net.cpp:434] pool6 <- drop6
I1020 01:25:48.402648  8718 net.cpp:408] pool6 -> pool6
I1020 01:25:48.402678  8718 net.cpp:150] Setting up pool6
I1020 01:25:48.402683  8718 net.cpp:157] Top shape: 100 300 1 1 (30000)
I1020 01:25:48.402686  8718 net.cpp:165] Memory required for data: 291854000
I1020 01:25:48.402689  8718 layer_factory.hpp:77] Creating layer conv11
I1020 01:25:48.402699  8718 net.cpp:100] Creating Layer conv11
I1020 01:25:48.402709  8718 net.cpp:434] conv11 <- pool6
I1020 01:25:48.402714  8718 net.cpp:408] conv11 -> conv11
I1020 01:25:48.403604  8718 net.cpp:150] Setting up conv11
I1020 01:25:48.403614  8718 net.cpp:157] Top shape: 100 100 1 1 (10000)
I1020 01:25:48.403616  8718 net.cpp:165] Memory required for data: 291894000
I1020 01:25:48.403622  8718 layer_factory.hpp:77] Creating layer relu11
I1020 01:25:48.403628  8718 net.cpp:100] Creating Layer relu11
I1020 01:25:48.403631  8718 net.cpp:434] relu11 <- conv11
I1020 01:25:48.403638  8718 net.cpp:408] relu11 -> relu11
I1020 01:25:48.403764  8718 net.cpp:150] Setting up relu11
I1020 01:25:48.403769  8718 net.cpp:157] Top shape: 100 100 1 1 (10000)
I1020 01:25:48.403772  8718 net.cpp:165] Memory required for data: 291934000
I1020 01:25:48.403775  8718 layer_factory.hpp:77] Creating layer drop7
I1020 01:25:48.403782  8718 net.cpp:100] Creating Layer drop7
I1020 01:25:48.403785  8718 net.cpp:434] drop7 <- relu11
I1020 01:25:48.403790  8718 net.cpp:408] drop7 -> drop7
I1020 01:25:48.403820  8718 net.cpp:150] Setting up drop7
I1020 01:25:48.403826  8718 net.cpp:157] Top shape: 100 100 1 1 (10000)
I1020 01:25:48.403828  8718 net.cpp:165] Memory required for data: 291974000
I1020 01:25:48.403831  8718 layer_factory.hpp:77] Creating layer pool7
I1020 01:25:48.403836  8718 net.cpp:100] Creating Layer pool7
I1020 01:25:48.403841  8718 net.cpp:434] pool7 <- drop7
I1020 01:25:48.403846  8718 net.cpp:408] pool7 -> pool7
I1020 01:25:48.403875  8718 net.cpp:150] Setting up pool7
I1020 01:25:48.403880  8718 net.cpp:157] Top shape: 100 100 1 1 (10000)
I1020 01:25:48.403883  8718 net.cpp:165] Memory required for data: 292014000
I1020 01:25:48.403887  8718 layer_factory.hpp:77] Creating layer score
I1020 01:25:48.403893  8718 net.cpp:100] Creating Layer score
I1020 01:25:48.403897  8718 net.cpp:434] score <- pool7
I1020 01:25:48.403901  8718 net.cpp:408] score -> score
I1020 01:25:48.404006  8718 net.cpp:150] Setting up score
I1020 01:25:48.404012  8718 net.cpp:157] Top shape: 100 10 (1000)
I1020 01:25:48.404016  8718 net.cpp:165] Memory required for data: 292018000
I1020 01:25:48.404021  8718 layer_factory.hpp:77] Creating layer score_score_0_split
I1020 01:25:48.404027  8718 net.cpp:100] Creating Layer score_score_0_split
I1020 01:25:48.404031  8718 net.cpp:434] score_score_0_split <- score
I1020 01:25:48.404036  8718 net.cpp:408] score_score_0_split -> score_score_0_split_0
I1020 01:25:48.404042  8718 net.cpp:408] score_score_0_split -> score_score_0_split_1
I1020 01:25:48.404070  8718 net.cpp:150] Setting up score_score_0_split
I1020 01:25:48.404075  8718 net.cpp:157] Top shape: 100 10 (1000)
I1020 01:25:48.404079  8718 net.cpp:157] Top shape: 100 10 (1000)
I1020 01:25:48.404083  8718 net.cpp:165] Memory required for data: 292026000
I1020 01:25:48.404085  8718 layer_factory.hpp:77] Creating layer accuracy
I1020 01:25:48.404093  8718 net.cpp:100] Creating Layer accuracy
I1020 01:25:48.404095  8718 net.cpp:434] accuracy <- score_score_0_split_0
I1020 01:25:48.404100  8718 net.cpp:434] accuracy <- label_data_1_split_0
I1020 01:25:48.404105  8718 net.cpp:408] accuracy -> accuracy
…
