…
solver_mode: GPU
device_id: 0
train_state {
  level: 0
  stage: ""
}
type: "Adam"
I1017 18:49:08.008086  3629 solver.cpp:81] Creating training net from train_net file: /home/adam/Honours/Honours-Project/cifar-10_pooling/max/elu/poolcnn_elu_train.prototxt
I1017 18:49:08.008375  3629 net.cpp:58] Initializing net from parameters: 
state {
  phase: TRAIN
  level: 0
  stage: ""
}
layer {
  name: "data"
  type: "Data"
  top: "data"
  top: "label"
  data_param {
    source: "../../../../data/cifar-10/cifar10_train_lmdb"
    batch_size: 64
    backend: LMDB
  }
}
layer {
  name: "conv1"
  type: "Convolution"
  bottom: "data"
  top: "conv1"
  convolution_param {
    num_output: 192
    kernel_size: 5
    weight_filler {
      type: "xavier"
    }
  }
}
layer {
  name: "pool1"
  type: "Pooling"
  bottom: "conv1"
  top: "pool1"
  pooling_param {
    pool: MAX
    kernel_size: 2
    stride: 2
  }
}
layer {
  name: "drop1"
  type: "Dropout"
  bottom: "pool1"
  top: "drop1"
  dropout_param {
    dropout_ratio: 0
  }
}
layer {
  name: "elu1"
  type: "ELU"
  bottom: "drop1"
  top: "elu1"
}
layer {
  name: "conv2"
  type: "Convolution"
  bottom: "elu1"
  top: "conv2"
  convolution_param {
    num_output: 192
    kernel_size: 1
    weight_filler {
      type: "xavier"
    }
  }
}
layer {
  name: "conv3"
  type: "Convolution"
  bottom: "conv2"
  top: "conv3"
  convolution_param {
    num_output: 240
    kernel_size: 3
    weight_filler {
      type: "xavier"
    }
  }
}
layer {
  name: "pool2"
  type: "Pooling"
  bottom: "conv3"
  top: "pool2"
  pooling_param {
    pool: MAX
    kernel_size: 2
    stride: 2
  }
}
layer {
  name: "drop2"
  type: "Dropout"
  bottom: "pool2"
  top: "drop2"
  dropout_param {
    dropout_ratio: 0.1
  }
}
layer {
  name: "elu2"
  type: "ELU"
  bottom: "drop2"
  top: "elu2"
}
layer {
  name: "conv4"
  type: "Convolution"
  bottom: "elu2"
  top: "conv4"
  convolution_param {
    num_output: 240
    kernel_size: 1
    weight_filler {
      type: "xavier"
    }
  }
}
layer {
  name: "conv5"
  type: "Convolution"
  bottom: "conv4"
  top: "conv5"
  convolution_param {
    num_output: 260
    kernel_size: 2
    weight_filler {
      type: "xavier"
    }
  }
}
layer {
  name: "pool3"
  type: "Pooling"
  bottom: "conv5"
  top: "pool3"
  pooling_param {
    pool: MAX
    kernel_size: 2
    stride: 2
  }
}
layer {
  name: "drop3"
  type: "Dropout"
  bottom: "pool3"
  top: "drop3"
  dropout_param {
    dropout_ratio: 0.2
  }
}
layer {
  name: "elu3"
  type: "ELU"
  bottom: "drop3"
  top: "elu3"
}
layer {
  name: "conv6"
  type: "Convolution"
  bottom: "elu3"
  top: "conv6"
  convolution_param {
    num_output: 260
    kernel_size: 1
    weight_filler {
      type: "xavier"
    }
  }
}
layer {
  name: "conv7"
  type: "Convolution"
  bottom: "conv6"
  top: "conv7"
  convolution_param {
    num_output: 280
    kernel_size: 2
    weight_filler {
      type: "xavier"
    }
  }
}
layer {
  name: "pool4"
  type: "Pooling"
  bottom: "conv7"
  top: "pool4"
  pooling_param {
    pool: MAX
    kernel_size: 2
    stride: 2
  }
}
layer {
  name: "drop4"
  type: "Dropout"
  bottom: "pool4"
  top: "drop4"
  dropout_param {
    dropout_ratio: 0.3
  }
}
layer {
  name: "elu4"
  type: "ELU"
  bottom: "drop4"
  top: "elu4"
}
layer {
  name: "conv8"
  type: "Convolution"
  bottom: "elu4"
  top: "conv8"
  convolution_param {
    num_output: 280
    kernel_size: 1
    weight_filler {
      type: "xavier"
    }
  }
}
layer {
  name: "pool5"
  type: "Pooling"
  bottom: "conv8"
  top: "pool5"
  pooling_param {
    pool: MAX
    kernel_size: 2
    stride: 2
  }
}
layer {
  name: "drop5"
  type: "Dropout"
  bottom: "pool5"
  top: "drop5"
  dropout_param {
    dropout_ratio: 0.4
  }
}
layer {
  name: "elu5"
  type: "ELU"
  bottom: "drop5"
  top: "elu5"
}
layer {
  name: "conv10"
  type: "Convolution"
  bottom: "elu5"
  top: "conv10"
  convolution_param {
    num_output: 300
    kernel_size: 1
    weight_filler {
      type: "xavier"
    }
  }
}
layer {
  name: "pool6"
  type: "Pooling"
  bottom: "conv10"
  top: "pool6"
  pooling_param {
    pool: MAX
    kernel_size: 2
    stride: 2
  }
}
layer {
  name: "drop6"
  type: "Dropout"
  bottom: "pool6"
  top: "drop6"
  dropout_param {
    dropout_ratio: 0.5
  }
}
layer {
  name: "elu6"
  type: "ELU"
  bottom: "drop6"
  top: "elu6"
}
layer {
  name: "conv11"
  type: "Convolution"
  bottom: "elu6"
  top: "conv11"
  convolution_param {
    num_output: 100
    kernel_size: 1
    weight_filler {
      type: "xavier"
    }
  }
}
layer {
  name: "pool7"
  type: "Pooling"
  bottom: "conv11"
  top: "pool7"
  pooling_param {
    pool: MAX
    kernel_size: 2
    stride: 2
  }
}
layer {
  name: "drop7"
  type: "Dropout"
  bottom: "pool7"
  top: "drop7"
  dropout_param {
    dropout_ratio: 0
  }
}
layer {
  name: "elu7"
  type: "ELU"
  bottom: "drop7"
  top: "elu7"
}
layer {
  name: "pool"
  type: "Pooling"
  bottom: "elu7"
  top: "pool"
  pooling_param {
    pool: AVE
    global_pooling: true
  }
}
layer {
  name: "flatten"
  type: "Flatten"
  bottom: "pool"
  top: "flatten"
}
layer {
  name: "score"
  type: "InnerProduct"
  bottom: "flatten"
  top: "score"
  inner_product_param {
    num_output: 10
    weight_filler {
      type: "gaussian"
    }
  }
}
layer {
  name: "accuracy"
  type: "Accuracy"
  bottom: "score"
  bottom: "label"
  top: "accuracy"
}
layer {
  name: "loss"
  type: "SoftmaxWithLoss"
  bottom: "score"
  bottom: "label"
  top: "loss"
}
I1017 18:49:08.008504  3629 layer_factory.hpp:77] Creating layer data
I1017 18:49:08.008893  3629 net.cpp:100] Creating Layer data
I1017 18:49:08.008901  3629 net.cpp:408] data -> data
I1017 18:49:08.008919  3629 net.cpp:408] data -> label
I1017 18:49:08.009516  3641 db_lmdb.cpp:35] Opened lmdb ../../../../data/cifar-10/cifar10_train_lmdb
I1017 18:49:08.015135  3629 data_layer.cpp:41] output data size: 64,3,32,32
I1017 18:49:08.016598  3629 net.cpp:150] Setting up data
I1017 18:49:08.016618  3629 net.cpp:157] Top shape: 64 3 32 32 (196608)
I1017 18:49:08.016623  3629 net.cpp:157] Top shape: 64 (64)
I1017 18:49:08.016625  3629 net.cpp:165] Memory required for data: 786688
I1017 18:49:08.016639  3629 layer_factory.hpp:77] Creating layer label_data_1_split
I1017 18:49:08.016661  3629 net.cpp:100] Creating Layer label_data_1_split
I1017 18:49:08.016669  3629 net.cpp:434] label_data_1_split <- label
I1017 18:49:08.016683  3629 net.cpp:408] label_data_1_split -> label_data_1_split_0
I1017 18:49:08.016692  3629 net.cpp:408] label_data_1_split -> label_data_1_split_1
I1017 18:49:08.016726  3629 net.cpp:150] Setting up label_data_1_split
I1017 18:49:08.016731  3629 net.cpp:157] Top shape: 64 (64)
I1017 18:49:08.016736  3629 net.cpp:157] Top shape: 64 (64)
I1017 18:49:08.016738  3629 net.cpp:165] Memory required for data: 787200
I1017 18:49:08.016742  3629 layer_factory.hpp:77] Creating layer conv1
I1017 18:49:08.016757  3629 net.cpp:100] Creating Layer conv1
I1017 18:49:08.016760  3629 net.cpp:434] conv1 <- data
I1017 18:49:08.016767  3629 net.cpp:408] conv1 -> conv1
I1017 18:49:08.141100  3629 net.cpp:150] Setting up conv1
I1017 18:49:08.141129  3629 net.cpp:157] Top shape: 64 192 28 28 (9633792)
I1017 18:49:08.141131  3629 net.cpp:165] Memory required for data: 39322368
I1017 18:49:08.141154  3629 layer_factory.hpp:77] Creating layer pool1
I1017 18:49:08.141165  3629 net.cpp:100] Creating Layer pool1
I1017 18:49:08.141170  3629 net.cpp:434] pool1 <- conv1
I1017 18:49:08.141177  3629 net.cpp:408] pool1 -> pool1
I1017 18:49:08.141221  3629 net.cpp:150] Setting up pool1
I1017 18:49:08.141227  3629 net.cpp:157] Top shape: 64 192 14 14 (2408448)
I1017 18:49:08.141229  3629 net.cpp:165] Memory required for data: 48956160
I1017 18:49:08.141243  3629 layer_factory.hpp:77] Creating layer drop1
I1017 18:49:08.141252  3629 net.cpp:100] Creating Layer drop1
I1017 18:49:08.141255  3629 net.cpp:434] drop1 <- pool1
I1017 18:49:08.141259  3629 net.cpp:408] drop1 -> drop1
I1017 18:49:08.141288  3629 net.cpp:150] Setting up drop1
I1017 18:49:08.141293  3629 net.cpp:157] Top shape: 64 192 14 14 (2408448)
I1017 18:49:08.141295  3629 net.cpp:165] Memory required for data: 58589952
I1017 18:49:08.141299  3629 layer_factory.hpp:77] Creating layer elu1
I1017 18:49:08.141304  3629 net.cpp:100] Creating Layer elu1
I1017 18:49:08.141307  3629 net.cpp:434] elu1 <- drop1
I1017 18:49:08.141311  3629 net.cpp:408] elu1 -> elu1
I1017 18:49:08.141327  3629 net.cpp:150] Setting up elu1
I1017 18:49:08.141332  3629 net.cpp:157] Top shape: 64 192 14 14 (2408448)
I1017 18:49:08.141335  3629 net.cpp:165] Memory required for data: 68223744
I1017 18:49:08.141338  3629 layer_factory.hpp:77] Creating layer conv2
I1017 18:49:08.141347  3629 net.cpp:100] Creating Layer conv2
I1017 18:49:08.141350  3629 net.cpp:434] conv2 <- elu1
I1017 18:49:08.141355  3629 net.cpp:408] conv2 -> conv2
I1017 18:49:08.142340  3629 net.cpp:150] Setting up conv2
I1017 18:49:08.142350  3629 net.cpp:157] Top shape: 64 192 14 14 (2408448)
I1017 18:49:08.142354  3629 net.cpp:165] Memory required for data: 77857536
I1017 18:49:08.142362  3629 layer_factory.hpp:77] Creating layer conv3
I1017 18:49:08.142370  3629 net.cpp:100] Creating Layer conv3
I1017 18:49:08.142374  3629 net.cpp:434] conv3 <- conv2
I1017 18:49:08.142379  3629 net.cpp:408] conv3 -> conv3
I1017 18:49:08.144804  3629 net.cpp:150] Setting up conv3
I1017 18:49:08.144817  3629 net.cpp:157] Top shape: 64 240 12 12 (2211840)
I1017 18:49:08.144820  3629 net.cpp:165] Memory required for data: 86704896
I1017 18:49:08.144829  3629 layer_factory.hpp:77] Creating layer pool2
I1017 18:49:08.144840  3629 net.cpp:100] Creating Layer pool2
I1017 18:49:08.144842  3629 net.cpp:434] pool2 <- conv3
I1017 18:49:08.144848  3629 net.cpp:408] pool2 -> pool2
I1017 18:49:08.144879  3629 net.cpp:150] Setting up pool2
I1017 18:49:08.144884  3629 net.cpp:157] Top shape: 64 240 6 6 (552960)
I1017 18:49:08.144887  3629 net.cpp:165] Memory required for data: 88916736
I1017 18:49:08.144891  3629 layer_factory.hpp:77] Creating layer drop2
I1017 18:49:08.144897  3629 net.cpp:100] Creating Layer drop2
I1017 18:49:08.144901  3629 net.cpp:434] drop2 <- pool2
I1017 18:49:08.144906  3629 net.cpp:408] drop2 -> drop2
I1017 18:49:08.144930  3629 net.cpp:150] Setting up drop2
I1017 18:49:08.144935  3629 net.cpp:157] Top shape: 64 240 6 6 (552960)
I1017 18:49:08.144938  3629 net.cpp:165] Memory required for data: 91128576
I1017 18:49:08.144942  3629 layer_factory.hpp:77] Creating layer elu2
I1017 18:49:08.144945  3629 net.cpp:100] Creating Layer elu2
I1017 18:49:08.144949  3629 net.cpp:434] elu2 <- drop2
I1017 18:49:08.144953  3629 net.cpp:408] elu2 -> elu2
I1017 18:49:08.144969  3629 net.cpp:150] Setting up elu2
I1017 18:49:08.144974  3629 net.cpp:157] Top shape: 64 240 6 6 (552960)
I1017 18:49:08.144979  3629 net.cpp:165] Memory required for data: 93340416
I1017 18:49:08.144981  3629 layer_factory.hpp:77] Creating layer conv4
I1017 18:49:08.144989  3629 net.cpp:100] Creating Layer conv4
I1017 18:49:08.144991  3629 net.cpp:434] conv4 <- elu2
I1017 18:49:08.144996  3629 net.cpp:408] conv4 -> conv4
I1017 18:49:08.145813  3629 net.cpp:150] Setting up conv4
I1017 18:49:08.145823  3629 net.cpp:157] Top shape: 64 240 6 6 (552960)
I1017 18:49:08.145825  3629 net.cpp:165] Memory required for data: 95552256
I1017 18:49:08.145831  3629 layer_factory.hpp:77] Creating layer conv5
I1017 18:49:08.145839  3629 net.cpp:100] Creating Layer conv5
I1017 18:49:08.145843  3629 net.cpp:434] conv5 <- conv4
I1017 18:49:08.145849  3629 net.cpp:408] conv5 -> conv5
I1017 18:49:08.147603  3629 net.cpp:150] Setting up conv5
I1017 18:49:08.147613  3629 net.cpp:157] Top shape: 64 260 5 5 (416000)
I1017 18:49:08.147615  3629 net.cpp:165] Memory required for data: 97216256
I1017 18:49:08.147640  3629 layer_factory.hpp:77] Creating layer pool3
I1017 18:49:08.147647  3629 net.cpp:100] Creating Layer pool3
I1017 18:49:08.147651  3629 net.cpp:434] pool3 <- conv5
I1017 18:49:08.147656  3629 net.cpp:408] pool3 -> pool3
I1017 18:49:08.147686  3629 net.cpp:150] Setting up pool3
I1017 18:49:08.147692  3629 net.cpp:157] Top shape: 64 260 3 3 (149760)
I1017 18:49:08.147694  3629 net.cpp:165] Memory required for data: 97815296
I1017 18:49:08.147697  3629 layer_factory.hpp:77] Creating layer drop3
I1017 18:49:08.147702  3629 net.cpp:100] Creating Layer drop3
I1017 18:49:08.147706  3629 net.cpp:434] drop3 <- pool3
I1017 18:49:08.147711  3629 net.cpp:408] drop3 -> drop3
I1017 18:49:08.147737  3629 net.cpp:150] Setting up drop3
I1017 18:49:08.147742  3629 net.cpp:157] Top shape: 64 260 3 3 (149760)
I1017 18:49:08.147745  3629 net.cpp:165] Memory required for data: 98414336
I1017 18:49:08.147748  3629 layer_factory.hpp:77] Creating layer elu3
I1017 18:49:08.147753  3629 net.cpp:100] Creating Layer elu3
I1017 18:49:08.147756  3629 net.cpp:434] elu3 <- drop3
I1017 18:49:08.147761  3629 net.cpp:408] elu3 -> elu3
I1017 18:49:08.147778  3629 net.cpp:150] Setting up elu3
I1017 18:49:08.147783  3629 net.cpp:157] Top shape: 64 260 3 3 (149760)
I1017 18:49:08.147784  3629 net.cpp:165] Memory required for data: 99013376
I1017 18:49:08.147789  3629 layer_factory.hpp:77] Creating layer conv6
I1017 18:49:08.147796  3629 net.cpp:100] Creating Layer conv6
I1017 18:49:08.147799  3629 net.cpp:434] conv6 <- elu3
I1017 18:49:08.147804  3629 net.cpp:408] conv6 -> conv6
I1017 18:49:08.148900  3629 net.cpp:150] Setting up conv6
I1017 18:49:08.148908  3629 net.cpp:157] Top shape: 64 260 3 3 (149760)
I1017 18:49:08.148912  3629 net.cpp:165] Memory required for data: 99612416
I1017 18:49:08.148918  3629 layer_factory.hpp:77] Creating layer conv7
I1017 18:49:08.148927  3629 net.cpp:100] Creating Layer conv7
I1017 18:49:08.148931  3629 net.cpp:434] conv7 <- conv6
I1017 18:49:08.148936  3629 net.cpp:408] conv7 -> conv7
I1017 18:49:08.150794  3629 net.cpp:150] Setting up conv7
I1017 18:49:08.150805  3629 net.cpp:157] Top shape: 64 280 2 2 (71680)
I1017 18:49:08.150809  3629 net.cpp:165] Memory required for data: 99899136
I1017 18:49:08.150815  3629 layer_factory.hpp:77] Creating layer pool4
I1017 18:49:08.150823  3629 net.cpp:100] Creating Layer pool4
I1017 18:49:08.150827  3629 net.cpp:434] pool4 <- conv7
I1017 18:49:08.150833  3629 net.cpp:408] pool4 -> pool4
I1017 18:49:08.150861  3629 net.cpp:150] Setting up pool4
I1017 18:49:08.150867  3629 net.cpp:157] Top shape: 64 280 1 1 (17920)
I1017 18:49:08.150871  3629 net.cpp:165] Memory required for data: 99970816
I1017 18:49:08.150874  3629 layer_factory.hpp:77] Creating layer drop4
I1017 18:49:08.150879  3629 net.cpp:100] Creating Layer drop4
I1017 18:49:08.150883  3629 net.cpp:434] drop4 <- pool4
I1017 18:49:08.150888  3629 net.cpp:408] drop4 -> drop4
I1017 18:49:08.150913  3629 net.cpp:150] Setting up drop4
I1017 18:49:08.150918  3629 net.cpp:157] Top shape: 64 280 1 1 (17920)
I1017 18:49:08.150919  3629 net.cpp:165] Memory required for data: 100042496
I1017 18:49:08.150923  3629 layer_factory.hpp:77] Creating layer elu4
I1017 18:49:08.150928  3629 net.cpp:100] Creating Layer elu4
I1017 18:49:08.150931  3629 net.cpp:434] elu4 <- drop4
I1017 18:49:08.150936  3629 net.cpp:408] elu4 -> elu4
I1017 18:49:08.150952  3629 net.cpp:150] Setting up elu4
I1017 18:49:08.150957  3629 net.cpp:157] Top shape: 64 280 1 1 (17920)
I1017 18:49:08.150960  3629 net.cpp:165] Memory required for data: 100114176
I1017 18:49:08.150962  3629 layer_factory.hpp:77] Creating layer conv8
I1017 18:49:08.150970  3629 net.cpp:100] Creating Layer conv8
I1017 18:49:08.150974  3629 net.cpp:434] conv8 <- elu4
I1017 18:49:08.150979  3629 net.cpp:408] conv8 -> conv8
I1017 18:49:08.151897  3629 net.cpp:150] Setting up conv8
I1017 18:49:08.151907  3629 net.cpp:157] Top shape: 64 280 1 1 (17920)
I1017 18:49:08.151911  3629 net.cpp:165] Memory required for data: 100185856
I1017 18:49:08.151916  3629 layer_factory.hpp:77] Creating layer pool5
I1017 18:49:08.151932  3629 net.cpp:100] Creating Layer pool5
I1017 18:49:08.151937  3629 net.cpp:434] pool5 <- conv8
I1017 18:49:08.151942  3629 net.cpp:408] pool5 -> pool5
I1017 18:49:08.151970  3629 net.cpp:150] Setting up pool5
I1017 18:49:08.151976  3629 net.cpp:157] Top shape: 64 280 1 1 (17920)
I1017 18:49:08.151980  3629 net.cpp:165] Memory required for data: 100257536
I1017 18:49:08.151983  3629 layer_factory.hpp:77] Creating layer drop5
I1017 18:49:08.151989  3629 net.cpp:100] Creating Layer drop5
I1017 18:49:08.151993  3629 net.cpp:434] drop5 <- pool5
I1017 18:49:08.151998  3629 net.cpp:408] drop5 -> drop5
I1017 18:49:08.152025  3629 net.cpp:150] Setting up drop5
I1017 18:49:08.152030  3629 net.cpp:157] Top shape: 64 280 1 1 (17920)
I1017 18:49:08.152034  3629 net.cpp:165] Memory required for data: 100329216
I1017 18:49:08.152037  3629 layer_factory.hpp:77] Creating layer elu5
I1017 18:49:08.152041  3629 net.cpp:100] Creating Layer elu5
I1017 18:49:08.152045  3629 net.cpp:434] elu5 <- drop5
I1017 18:49:08.152050  3629 net.cpp:408] elu5 -> elu5
I1017 18:49:08.152066  3629 net.cpp:150] Setting up elu5
I1017 18:49:08.152071  3629 net.cpp:157] Top shape: 64 280 1 1 (17920)
I1017 18:49:08.152075  3629 net.cpp:165] Memory required for data: 100400896
I1017 18:49:08.152077  3629 layer_factory.hpp:77] Creating layer conv10
I1017 18:49:08.152086  3629 net.cpp:100] Creating Layer conv10
I1017 18:49:08.152091  3629 net.cpp:434] conv10 <- elu5
I1017 18:49:08.152094  3629 net.cpp:408] conv10 -> conv10
I1017 18:49:08.153048  3629 net.cpp:150] Setting up conv10
I1017 18:49:08.153060  3629 net.cpp:157] Top shape: 64 300 1 1 (19200)
I1017 18:49:08.153064  3629 net.cpp:165] Memory required for data: 100477696
I1017 18:49:08.153074  3629 layer_factory.hpp:77] Creating layer pool6
I1017 18:49:08.153081  3629 net.cpp:100] Creating Layer pool6
I1017 18:49:08.153085  3629 net.cpp:434] pool6 <- conv10
I1017 18:49:08.153090  3629 net.cpp:408] pool6 -> pool6
I1017 18:49:08.153122  3629 net.cpp:150] Setting up pool6
I1017 18:49:08.153128  3629 net.cpp:157] Top shape: 64 300 1 1 (19200)
I1017 18:49:08.153132  3629 net.cpp:165] Memory required for data: 100554496
I1017 18:49:08.153136  3629 layer_factory.hpp:77] Creating layer drop6
I1017 18:49:08.153141  3629 net.cpp:100] Creating Layer drop6
I1017 18:49:08.153144  3629 net.cpp:434] drop6 <- pool6
I1017 18:49:08.153151  3629 net.cpp:408] drop6 -> drop6
I1017 18:49:08.153175  3629 net.cpp:150] Setting up drop6
I1017 18:49:08.153182  3629 net.cpp:157] Top shape: 64 300 1 1 (19200)
I1017 18:49:08.153185  3629 net.cpp:165] Memory required for data: 100631296
I1017 18:49:08.153188  3629 layer_factory.hpp:77] Creating layer elu6
I1017 18:49:08.153193  3629 net.cpp:100] Creating Layer elu6
I1017 18:49:08.153198  3629 net.cpp:434] elu6 <- drop6
I1017 18:49:08.153201  3629 net.cpp:408] elu6 -> elu6
I1017 18:49:08.153219  3629 net.cpp:150] Setting up elu6
I1017 18:49:08.153224  3629 net.cpp:157] Top shape: 64 300 1 1 (19200)
I1017 18:49:08.153228  3629 net.cpp:165] Memory required for data: 100708096
I1017 18:49:08.153230  3629 layer_factory.hpp:77] Creating layer conv11
I1017 18:49:08.153239  3629 net.cpp:100] Creating Layer conv11
I1017 18:49:08.153241  3629 net.cpp:434] conv11 <- elu6
I1017 18:49:08.153247  3629 net.cpp:408] conv11 -> conv11
I1017 18:49:08.154084  3629 net.cpp:150] Setting up conv11
I1017 18:49:08.154094  3629 net.cpp:157] Top shape: 64 100 1 1 (6400)
I1017 18:49:08.154098  3629 net.cpp:165] Memory required for data: 100733696
I1017 18:49:08.154103  3629 layer_factory.hpp:77] Creating layer pool7
I1017 18:49:08.154111  3629 net.cpp:100] Creating Layer pool7
I1017 18:49:08.154115  3629 net.cpp:434] pool7 <- conv11
I1017 18:49:08.154120  3629 net.cpp:408] pool7 -> pool7
I1017 18:49:08.154153  3629 net.cpp:150] Setting up pool7
I1017 18:49:08.154160  3629 net.cpp:157] Top shape: 64 100 1 1 (6400)
I1017 18:49:08.154163  3629 net.cpp:165] Memory required for data: 100759296
I1017 18:49:08.154166  3629 layer_factory.hpp:77] Creating layer drop7
I1017 18:49:08.154171  3629 net.cpp:100] Creating Layer drop7
I1017 18:49:08.154183  3629 net.cpp:434] drop7 <- pool7
I1017 18:49:08.154191  3629 net.cpp:408] drop7 -> drop7
I1017 18:49:08.154216  3629 net.cpp:150] Setting up drop7
I1017 18:49:08.154220  3629 net.cpp:157] Top shape: 64 100 1 1 (6400)
I1017 18:49:08.154223  3629 net.cpp:165] Memory required for data: 100784896
I1017 18:49:08.154227  3629 layer_factory.hpp:77] Creating layer elu7
I1017 18:49:08.154235  3629 net.cpp:100] Creating Layer elu7
I1017 18:49:08.154238  3629 net.cpp:434] elu7 <- drop7
I1017 18:49:08.154243  3629 net.cpp:408] elu7 -> elu7
I1017 18:49:08.154260  3629 net.cpp:150] Setting up elu7
I1017 18:49:08.154268  3629 net.cpp:157] Top shape: 64 100 1 1 (6400)
I1017 18:49:08.154270  3629 net.cpp:165] Memory required for data: 100810496
I1017 18:49:08.154273  3629 layer_factory.hpp:77] Creating layer pool
I1017 18:49:08.154278  3629 net.cpp:100] Creating Layer pool
I1017 18:49:08.154283  3629 net.cpp:434] pool <- elu7
I1017 18:49:08.154286  3629 net.cpp:408] pool -> pool
I1017 18:49:08.154415  3629 net.cpp:150] Setting up pool
I1017 18:49:08.154422  3629 net.cpp:157] Top shape: 64 100 1 1 (6400)
I1017 18:49:08.154425  3629 net.cpp:165] Memory required for data: 100836096
I1017 18:49:08.154428  3629 layer_factory.hpp:77] Creating layer flatten
I1017 18:49:08.154433  3629 net.cpp:100] Creating Layer flatten
I1017 18:49:08.154438  3629 net.cpp:434] flatten <- pool
I1017 18:49:08.154443  3629 net.cpp:408] flatten -> flatten
I1017 18:49:08.154461  3629 net.cpp:150] Setting up flatten
I1017 18:49:08.154466  3629 net.cpp:157] Top shape: 64 100 (6400)
I1017 18:49:08.154469  3629 net.cpp:165] Memory required for data: 100861696
I1017 18:49:08.154472  3629 layer_factory.hpp:77] Creating layer score
I1017 18:49:08.154477  3629 net.cpp:100] Creating Layer score
I1017 18:49:08.154481  3629 net.cpp:434] score <- flatten
I1017 18:49:08.154487  3629 net.cpp:408] score -> score
I1017 18:49:08.154588  3629 net.cpp:150] Setting up score
I1017 18:49:08.154593  3629 net.cpp:157] Top shape: 64 10 (640)
I1017 18:49:08.154597  3629 net.cpp:165] Memory required for data: 100864256
I1017 18:49:08.154603  3629 layer_factory.hpp:77] Creating layer score_score_0_split
I1017 18:49:08.154608  3629 net.cpp:100] Creating Layer score_score_0_split
I1017 18:49:08.154611  3629 net.cpp:434] score_score_0_split <- score
I1017 18:49:08.154618  3629 net.cpp:408] score_score_0_split -> score_score_0_split_0
I1017 18:49:08.154624  3629 net.cpp:408] score_score_0_split -> score_score_0_split_1
I1017 18:49:08.154650  3629 net.cpp:150] Setting up score_score_0_split
I1017 18:49:08.154656  3629 net.cpp:157] Top shape: 64 10 (640)
I1017 18:49:08.154659  3629 net.cpp:157] Top shape: 64 10 (640)
I1017 18:49:08.154664  3629 net.cpp:165] Memory required for data: 100869376
I1017 18:49:08.154666  3629 layer_factory.hpp:77] Creating layer accuracy
I1017 18:49:08.154671  3629 net.cpp:100] Creating Layer accuracy
I1017 18:49:08.154675  3629 net.cpp:434] accuracy <- score_score_0_split_0
I1017 18:49:08.154680  3629 net.cpp:434] accuracy <- label_data_1_split_0
I1017 18:49:08.154685  3629 net.cpp:408] accuracy -> accuracy
…
I1017 18:49:08.155129  3629 net.cpp:270] This network produces output loss
I1017 18:49:08.155150  3629 net.cpp:283] Network initialization done.
I1017 18:49:08.155352  3629 solver.cpp:181] Creating test net (#0) specified by test_net file: /home/adam/Honours/Honours-Project/cifar-10_pooling/max/elu/poolcnn_elu_test.prototxt
I1017 18:49:08.155468  3629 net.cpp:58] Initializing net from parameters: 
state {
  phase: TEST
}
layer {
  name: "data"
  type: "Data"
  top: "data"
  top: "label"
  data_param {
    source: "../../../../data/cifar-10/cifar10_test_lmdb"
    batch_size: 100
    backend: LMDB
  }
}
layer {
  name: "conv1"
  type: "Convolution"
  bottom: "data"
  top: "conv1"
  convolution_param {
    num_output: 192
    kernel_size: 5
    weight_filler {
      type: "xavier"
    }
  }
}
layer {
  name: "pool1"
  type: "Pooling"
  bottom: "conv1"
  top: "pool1"
  pooling_param {
    pool: MAX
    kernel_size: 2
    stride: 2
  }
}
layer {
  name: "drop1"
  type: "Dropout"
  bottom: "pool1"
  top: "drop1"
  dropout_param {
    dropout_ratio: 0
  }
}
layer {
  name: "elu1"
  type: "ELU"
  bottom: "drop1"
  top: "elu1"
}
layer {
  name: "conv2"
  type: "Convolution"
  bottom: "elu1"
  top: "conv2"
  convolution_param {
    num_output: 192
    kernel_size: 1
    weight_filler {
      type: "xavier"
    }
  }
}
layer {
  name: "conv3"
  type: "Convolution"
  bottom: "conv2"
  top: "conv3"
  convolution_param {
    num_output: 240
    kernel_size: 3
    weight_filler {
      type: "xavier"
    }
  }
}
layer {
  name: "pool2"
  type: "Pooling"
  bottom: "conv3"
  top: "pool2"
  pooling_param {
    pool: MAX
    kernel_size: 2
    stride: 2
  }
}
layer {
  name: "drop2"
  type: "Dropout"
  bottom: "pool2"
  top: "drop2"
  dropout_param {
    dropout_ratio: 0.1
  }
}
layer {
  name: "elu2"
  type: "ELU"
  bottom: "drop2"
  top: "elu2"
}
layer {
  name: "conv4"
  type: "Convolution"
  bottom: "elu2"
  top: "conv4"
  convolution_param {
    num_output: 240
    kernel_size: 1
    weight_filler {
      type: "xavier"
    }
  }
}
layer {
  name: "conv5"
  type: "Convolution"
  bottom: "conv4"
  top: "conv5"
  convolution_param {
    num_output: 260
    kernel_size: 2
    weight_filler {
      type: "xavier"
    }
  }
}
layer {
  name: "pool3"
  type: "Pooling"
  bottom: "conv5"
  top: "pool3"
  pooling_param {
    pool: MAX
    kernel_size: 2
    stride: 2
  }
}
layer {
  name: "drop3"
  type: "Dropout"
  bottom: "pool3"
  top: "drop3"
  dropout_param {
    dropout_ratio: 0.2
  }
}
layer {
  name: "elu3"
  type: "ELU"
  bottom: "drop3"
  top: "elu3"
}
layer {
  name: "conv6"
  type: "Convolution"
  bottom: "elu3"
  top: "conv6"
  convolution_param {
    num_output: 260
    kernel_size: 1
    weight_filler {
      type: "xavier"
    }
  }
}
layer {
  name: "conv7"
  type: "Convolution"
  bottom: "conv6"
  top: "conv7"
  convolution_param {
    num_output: 280
    kernel_size: 2
    weight_filler {
      type: "xavier"
    }
  }
}
layer {
  name: "pool4"
  type: "Pooling"
  bottom: "conv7"
  top: "pool4"
  pooling_param {
    pool: MAX
    kernel_size: 2
    stride: 2
  }
}
layer {
  name: "drop4"
  type: "Dropout"
  bottom: "pool4"
  top: "drop4"
  dropout_param {
    dropout_ratio: 0.3
  }
}
layer {
  name: "elu4"
  type: "ELU"
  bottom: "drop4"
  top: "elu4"
}
layer {
  name: "conv8"
  type: "Convolution"
  bottom: "elu4"
  top: "conv8"
  convolution_param {
    num_output: 280
    kernel_size: 1
    weight_filler {
      type: "xavier"
    }
  }
}
layer {
  name: "pool5"
  type: "Pooling"
  bottom: "conv8"
  top: "pool5"
  pooling_param {
    pool: MAX
    kernel_size: 2
    stride: 2
  }
}
layer {
  name: "drop5"
  type: "Dropout"
  bottom: "pool5"
  top: "drop5"
  dropout_param {
    dropout_ratio: 0.4
  }
}
layer {
  name: "elu5"
  type: "ELU"
  bottom: "drop5"
  top: "elu5"
}
layer {
  name: "conv10"
  type: "Convolution"
  bottom: "elu5"
  top: "conv10"
  convolution_param {
    num_output: 300
    kernel_size: 1
    weight_filler {
      type: "xavier"
    }
  }
}
layer {
  name: "pool6"
  type: "Pooling"
  bottom: "conv10"
  top: "pool6"
  pooling_param {
    pool: MAX
    kernel_size: 2
    stride: 2
  }
}
layer {
  name: "drop6"
  type: "Dropout"
  bottom: "pool6"
  top: "drop6"
  dropout_param {
    dropout_ratio: 0.5
  }
}
layer {
  name: "elu6"
  type: "ELU"
  bottom: "drop6"
  top: "elu6"
}
layer {
  name: "conv11"
  type: "Convolution"
  bottom: "elu6"
  top: "conv11"
  convolution_param {
    num_output: 100
    kernel_size: 1
    weight_filler {
      type: "xavier"
    }
  }
}
layer {
  name: "pool7"
  type: "Pooling"
  bottom: "conv11"
  top: "pool7"
  pooling_param {
    pool: MAX
    kernel_size: 2
    stride: 2
  }
}
layer {
  name: "drop7"
  type: "Dropout"
  bottom: "pool7"
  top: "drop7"
  dropout_param {
    dropout_ratio: 0
  }
}
layer {
  name: "elu7"
  type: "ELU"
  bottom: "drop7"
  top: "elu7"
}
layer {
  name: "pool"
  type: "Pooling"
  bottom: "elu7"
  top: "pool"
  pooling_param {
    pool: AVE
    global_pooling: true
  }
}
layer {
  name: "flatten"
  type: "Flatten"
  bottom: "pool"
  top: "flatten"
}
layer {
  name: "score"
  type: "InnerProduct"
  bottom: "flatten"
  top: "score"
  inner_product_param {
    num_output: 10
    weight_filler {
      type: "gaussian"
    }
  }
}
layer {
  name: "accuracy"
  type: "Accuracy"
  bottom: "score"
  bottom: "label"
  top: "accuracy"
}
layer {
  name: "loss"
  type: "SoftmaxWithLoss"
  bottom: "score"
  bottom: "label"
  top: "loss"
}
I1017 18:49:08.155573  3629 layer_factory.hpp:77] Creating layer data
I1017 18:49:08.155663  3629 net.cpp:100] Creating Layer data
I1017 18:49:08.155669  3629 net.cpp:408] data -> data
I1017 18:49:08.155674  3629 net.cpp:408] data -> label
I1017 18:49:08.156386  3661 db_lmdb.cpp:35] Opened lmdb ../../../../data/cifar-10/cifar10_test_lmdb
I1017 18:49:08.156492  3629 data_layer.cpp:41] output data size: 100,3,32,32
I1017 18:49:08.158385  3629 net.cpp:150] Setting up data
I1017 18:49:08.158411  3629 net.cpp:157] Top shape: 100 3 32 32 (307200)
I1017 18:49:08.158414  3629 net.cpp:157] Top shape: 100 (100)
I1017 18:49:08.158416  3629 net.cpp:165] Memory required for data: 1229200
I1017 18:49:08.158423  3629 layer_factory.hpp:77] Creating layer label_data_1_split
I1017 18:49:08.158434  3629 net.cpp:100] Creating Layer label_data_1_split
I1017 18:49:08.158449  3629 net.cpp:434] label_data_1_split <- label
I1017 18:49:08.158464  3629 net.cpp:408] label_data_1_split -> label_data_1_split_0
I1017 18:49:08.158480  3629 net.cpp:408] label_data_1_split -> label_data_1_split_1
I1017 18:49:08.158535  3629 net.cpp:150] Setting up label_data_1_split
I1017 18:49:08.158540  3629 net.cpp:157] Top shape: 100 (100)
I1017 18:49:08.158545  3629 net.cpp:157] Top shape: 100 (100)
I1017 18:49:08.158547  3629 net.cpp:165] Memory required for data: 1230000
I1017 18:49:08.158558  3629 layer_factory.hpp:77] Creating layer conv1
I1017 18:49:08.158577  3629 net.cpp:100] Creating Layer conv1
I1017 18:49:08.158582  3629 net.cpp:434] conv1 <- data
I1017 18:49:08.158588  3629 net.cpp:408] conv1 -> conv1
I1017 18:49:08.159548  3629 net.cpp:150] Setting up conv1
I1017 18:49:08.159559  3629 net.cpp:157] Top shape: 100 192 28 28 (15052800)
I1017 18:49:08.159564  3629 net.cpp:165] Memory required for data: 61441200
I1017 18:49:08.159574  3629 layer_factory.hpp:77] Creating layer pool1
I1017 18:49:08.159590  3629 net.cpp:100] Creating Layer pool1
I1017 18:49:08.159600  3629 net.cpp:434] pool1 <- conv1
I1017 18:49:08.159615  3629 net.cpp:408] pool1 -> pool1
I1017 18:49:08.159656  3629 net.cpp:150] Setting up pool1
I1017 18:49:08.159662  3629 net.cpp:157] Top shape: 100 192 14 14 (3763200)
I1017 18:49:08.159664  3629 net.cpp:165] Memory required for data: 76494000
I1017 18:49:08.159668  3629 layer_factory.hpp:77] Creating layer drop1
I1017 18:49:08.159684  3629 net.cpp:100] Creating Layer drop1
I1017 18:49:08.159694  3629 net.cpp:434] drop1 <- pool1
I1017 18:49:08.159708  3629 net.cpp:408] drop1 -> drop1
I1017 18:49:08.159744  3629 net.cpp:150] Setting up drop1
I1017 18:49:08.159751  3629 net.cpp:157] Top shape: 100 192 14 14 (3763200)
I1017 18:49:08.159755  3629 net.cpp:165] Memory required for data: 91546800
I1017 18:49:08.159759  3629 layer_factory.hpp:77] Creating layer elu1
I1017 18:49:08.159770  3629 net.cpp:100] Creating Layer elu1
I1017 18:49:08.159780  3629 net.cpp:434] elu1 <- drop1
I1017 18:49:08.159793  3629 net.cpp:408] elu1 -> elu1
I1017 18:49:08.159826  3629 net.cpp:150] Setting up elu1
I1017 18:49:08.159833  3629 net.cpp:157] Top shape: 100 192 14 14 (3763200)
I1017 18:49:08.159837  3629 net.cpp:165] Memory required for data: 106599600
I1017 18:49:08.159839  3629 layer_factory.hpp:77] Creating layer conv2
I1017 18:49:08.159854  3629 net.cpp:100] Creating Layer conv2
I1017 18:49:08.159868  3629 net.cpp:434] conv2 <- elu1
I1017 18:49:08.159880  3629 net.cpp:408] conv2 -> conv2
I1017 18:49:08.160720  3629 net.cpp:150] Setting up conv2
I1017 18:49:08.160729  3629 net.cpp:157] Top shape: 100 192 14 14 (3763200)
I1017 18:49:08.160733  3629 net.cpp:165] Memory required for data: 121652400
I1017 18:49:08.160742  3629 layer_factory.hpp:77] Creating layer conv3
I1017 18:49:08.160760  3629 net.cpp:100] Creating Layer conv3
I1017 18:49:08.160779  3629 net.cpp:434] conv3 <- conv2
I1017 18:49:08.160796  3629 net.cpp:408] conv3 -> conv3
I1017 18:49:08.163405  3629 net.cpp:150] Setting up conv3
I1017 18:49:08.163427  3629 net.cpp:157] Top shape: 100 240 12 12 (3456000)
I1017 18:49:08.163431  3629 net.cpp:165] Memory required for data: 135476400
I1017 18:49:08.163442  3629 layer_factory.hpp:77] Creating layer pool2
I1017 18:49:08.163455  3629 net.cpp:100] Creating Layer pool2
I1017 18:49:08.163471  3629 net.cpp:434] pool2 <- conv3
I1017 18:49:08.163485  3629 net.cpp:408] pool2 -> pool2
I1017 18:49:08.163537  3629 net.cpp:150] Setting up pool2
I1017 18:49:08.163543  3629 net.cpp:157] Top shape: 100 240 6 6 (864000)
I1017 18:49:08.163547  3629 net.cpp:165] Memory required for data: 138932400
I1017 18:49:08.163549  3629 layer_factory.hpp:77] Creating layer drop2
I1017 18:49:08.163563  3629 net.cpp:100] Creating Layer drop2
I1017 18:49:08.163574  3629 net.cpp:434] drop2 <- pool2
I1017 18:49:08.163588  3629 net.cpp:408] drop2 -> drop2
I1017 18:49:08.163622  3629 net.cpp:150] Setting up drop2
I1017 18:49:08.163628  3629 net.cpp:157] Top shape: 100 240 6 6 (864000)
I1017 18:49:08.163632  3629 net.cpp:165] Memory required for data: 142388400
I1017 18:49:08.163643  3629 layer_factory.hpp:77] Creating layer elu2
I1017 18:49:08.163651  3629 net.cpp:100] Creating Layer elu2
I1017 18:49:08.163655  3629 net.cpp:434] elu2 <- drop2
I1017 18:49:08.163661  3629 net.cpp:408] elu2 -> elu2
I1017 18:49:08.163682  3629 net.cpp:150] Setting up elu2
I1017 18:49:08.163687  3629 net.cpp:157] Top shape: 100 240 6 6 (864000)
I1017 18:49:08.163689  3629 net.cpp:165] Memory required for data: 145844400
I1017 18:49:08.163693  3629 layer_factory.hpp:77] Creating layer conv4
I1017 18:49:08.163702  3629 net.cpp:100] Creating Layer conv4
I1017 18:49:08.163707  3629 net.cpp:434] conv4 <- elu2
I1017 18:49:08.163710  3629 net.cpp:408] conv4 -> conv4
I1017 18:49:08.164615  3629 net.cpp:150] Setting up conv4
I1017 18:49:08.164624  3629 net.cpp:157] Top shape: 100 240 6 6 (864000)
I1017 18:49:08.164628  3629 net.cpp:165] Memory required for data: 149300400
I1017 18:49:08.164634  3629 layer_factory.hpp:77] Creating layer conv5
I1017 18:49:08.164645  3629 net.cpp:100] Creating Layer conv5
I1017 18:49:08.164650  3629 net.cpp:434] conv5 <- conv4
I1017 18:49:08.164655  3629 net.cpp:408] conv5 -> conv5
I1017 18:49:08.166491  3629 net.cpp:150] Setting up conv5
I1017 18:49:08.166503  3629 net.cpp:157] Top shape: 100 260 5 5 (650000)
I1017 18:49:08.166506  3629 net.cpp:165] Memory required for data: 151900400
I1017 18:49:08.166513  3629 layer_factory.hpp:77] Creating layer pool3
I1017 18:49:08.166520  3629 net.cpp:100] Creating Layer pool3
I1017 18:49:08.166524  3629 net.cpp:434] pool3 <- conv5
I1017 18:49:08.166532  3629 net.cpp:408] pool3 -> pool3
I1017 18:49:08.166568  3629 net.cpp:150] Setting up pool3
I1017 18:49:08.166573  3629 net.cpp:157] Top shape: 100 260 3 3 (234000)
I1017 18:49:08.166576  3629 net.cpp:165] Memory required for data: 152836400
I1017 18:49:08.166579  3629 layer_factory.hpp:77] Creating layer drop3
I1017 18:49:08.166586  3629 net.cpp:100] Creating Layer drop3
I1017 18:49:08.166591  3629 net.cpp:434] drop3 <- pool3
I1017 18:49:08.166599  3629 net.cpp:408] drop3 -> drop3
I1017 18:49:08.166630  3629 net.cpp:150] Setting up drop3
I1017 18:49:08.166636  3629 net.cpp:157] Top shape: 100 260 3 3 (234000)
I1017 18:49:08.166640  3629 net.cpp:165] Memory required for data: 153772400
I1017 18:49:08.166645  3629 layer_factory.hpp:77] Creating layer elu3
I1017 18:49:08.166649  3629 net.cpp:100] Creating Layer elu3
I1017 18:49:08.166653  3629 net.cpp:434] elu3 <- drop3
I1017 18:49:08.166659  3629 net.cpp:408] elu3 -> elu3
I1017 18:49:08.166681  3629 net.cpp:150] Setting up elu3
I1017 18:49:08.166685  3629 net.cpp:157] Top shape: 100 260 3 3 (234000)
I1017 18:49:08.166688  3629 net.cpp:165] Memory required for data: 154708400
I1017 18:49:08.166692  3629 layer_factory.hpp:77] Creating layer conv6
I1017 18:49:08.166703  3629 net.cpp:100] Creating Layer conv6
I1017 18:49:08.166707  3629 net.cpp:434] conv6 <- elu3
I1017 18:49:08.166712  3629 net.cpp:408] conv6 -> conv6
I1017 18:49:08.167927  3629 net.cpp:150] Setting up conv6
I1017 18:49:08.167942  3629 net.cpp:157] Top shape: 100 260 3 3 (234000)
I1017 18:49:08.167945  3629 net.cpp:165] Memory required for data: 155644400
I1017 18:49:08.167951  3629 layer_factory.hpp:77] Creating layer conv7
I1017 18:49:08.167959  3629 net.cpp:100] Creating Layer conv7
I1017 18:49:08.167964  3629 net.cpp:434] conv7 <- conv6
I1017 18:49:08.167970  3629 net.cpp:408] conv7 -> conv7
I1017 18:49:08.171283  3629 net.cpp:150] Setting up conv7
I1017 18:49:08.171305  3629 net.cpp:157] Top shape: 100 280 2 2 (112000)
I1017 18:49:08.171308  3629 net.cpp:165] Memory required for data: 156092400
I1017 18:49:08.171314  3629 layer_factory.hpp:77] Creating layer pool4
I1017 18:49:08.171324  3629 net.cpp:100] Creating Layer pool4
I1017 18:49:08.171326  3629 net.cpp:434] pool4 <- conv7
I1017 18:49:08.171331  3629 net.cpp:408] pool4 -> pool4
I1017 18:49:08.171360  3629 net.cpp:150] Setting up pool4
I1017 18:49:08.171365  3629 net.cpp:157] Top shape: 100 280 1 1 (28000)
I1017 18:49:08.171365  3629 net.cpp:165] Memory required for data: 156204400
I1017 18:49:08.171367  3629 layer_factory.hpp:77] Creating layer drop4
I1017 18:49:08.171371  3629 net.cpp:100] Creating Layer drop4
I1017 18:49:08.171373  3629 net.cpp:434] drop4 <- pool4
I1017 18:49:08.171377  3629 net.cpp:408] drop4 -> drop4
I1017 18:49:08.171401  3629 net.cpp:150] Setting up drop4
I1017 18:49:08.171406  3629 net.cpp:157] Top shape: 100 280 1 1 (28000)
I1017 18:49:08.171408  3629 net.cpp:165] Memory required for data: 156316400
I1017 18:49:08.171409  3629 layer_factory.hpp:77] Creating layer elu4
I1017 18:49:08.171413  3629 net.cpp:100] Creating Layer elu4
I1017 18:49:08.171414  3629 net.cpp:434] elu4 <- drop4
I1017 18:49:08.171417  3629 net.cpp:408] elu4 -> elu4
I1017 18:49:08.171432  3629 net.cpp:150] Setting up elu4
I1017 18:49:08.171437  3629 net.cpp:157] Top shape: 100 280 1 1 (28000)
I1017 18:49:08.171437  3629 net.cpp:165] Memory required for data: 156428400
I1017 18:49:08.171439  3629 layer_factory.hpp:77] Creating layer conv8
I1017 18:49:08.171444  3629 net.cpp:100] Creating Layer conv8
I1017 18:49:08.171447  3629 net.cpp:434] conv8 <- elu4
I1017 18:49:08.171452  3629 net.cpp:408] conv8 -> conv8
I1017 18:49:08.173151  3629 net.cpp:150] Setting up conv8
I1017 18:49:08.173162  3629 net.cpp:157] Top shape: 100 280 1 1 (28000)
I1017 18:49:08.173166  3629 net.cpp:165] Memory required for data: 156540400
I1017 18:49:08.173171  3629 layer_factory.hpp:77] Creating layer pool5
I1017 18:49:08.173178  3629 net.cpp:100] Creating Layer pool5
I1017 18:49:08.173182  3629 net.cpp:434] pool5 <- conv8
I1017 18:49:08.173190  3629 net.cpp:408] pool5 -> pool5
I1017 18:49:08.173225  3629 net.cpp:150] Setting up pool5
I1017 18:49:08.173230  3629 net.cpp:157] Top shape: 100 280 1 1 (28000)
I1017 18:49:08.173233  3629 net.cpp:165] Memory required for data: 156652400
I1017 18:49:08.173238  3629 layer_factory.hpp:77] Creating layer drop5
I1017 18:49:08.173243  3629 net.cpp:100] Creating Layer drop5
I1017 18:49:08.173249  3629 net.cpp:434] drop5 <- pool5
I1017 18:49:08.173254  3629 net.cpp:408] drop5 -> drop5
I1017 18:49:08.173287  3629 net.cpp:150] Setting up drop5
I1017 18:49:08.173292  3629 net.cpp:157] Top shape: 100 280 1 1 (28000)
I1017 18:49:08.173295  3629 net.cpp:165] Memory required for data: 156764400
I1017 18:49:08.173298  3629 layer_factory.hpp:77] Creating layer elu5
I1017 18:49:08.173305  3629 net.cpp:100] Creating Layer elu5
I1017 18:49:08.173310  3629 net.cpp:434] elu5 <- drop5
I1017 18:49:08.173315  3629 net.cpp:408] elu5 -> elu5
I1017 18:49:08.173337  3629 net.cpp:150] Setting up elu5
I1017 18:49:08.173343  3629 net.cpp:157] Top shape: 100 280 1 1 (28000)
I1017 18:49:08.173346  3629 net.cpp:165] Memory required for data: 156876400
I1017 18:49:08.173349  3629 layer_factory.hpp:77] Creating layer conv10
I1017 18:49:08.173358  3629 net.cpp:100] Creating Layer conv10
I1017 18:49:08.173363  3629 net.cpp:434] conv10 <- elu5
I1017 18:49:08.173369  3629 net.cpp:408] conv10 -> conv10
I1017 18:49:08.174546  3629 net.cpp:150] Setting up conv10
I1017 18:49:08.174561  3629 net.cpp:157] Top shape: 100 300 1 1 (30000)
I1017 18:49:08.174564  3629 net.cpp:165] Memory required for data: 156996400
I1017 18:49:08.174576  3629 layer_factory.hpp:77] Creating layer pool6
I1017 18:49:08.174587  3629 net.cpp:100] Creating Layer pool6
I1017 18:49:08.174589  3629 net.cpp:434] pool6 <- conv10
I1017 18:49:08.174593  3629 net.cpp:408] pool6 -> pool6
I1017 18:49:08.174628  3629 net.cpp:150] Setting up pool6
I1017 18:49:08.174633  3629 net.cpp:157] Top shape: 100 300 1 1 (30000)
I1017 18:49:08.174636  3629 net.cpp:165] Memory required for data: 157116400
I1017 18:49:08.174638  3629 layer_factory.hpp:77] Creating layer drop6
I1017 18:49:08.174641  3629 net.cpp:100] Creating Layer drop6
I1017 18:49:08.174643  3629 net.cpp:434] drop6 <- pool6
I1017 18:49:08.174648  3629 net.cpp:408] drop6 -> drop6
I1017 18:49:08.174672  3629 net.cpp:150] Setting up drop6
I1017 18:49:08.174677  3629 net.cpp:157] Top shape: 100 300 1 1 (30000)
I1017 18:49:08.174679  3629 net.cpp:165] Memory required for data: 157236400
I1017 18:49:08.174682  3629 layer_factory.hpp:77] Creating layer elu6
I1017 18:49:08.174687  3629 net.cpp:100] Creating Layer elu6
I1017 18:49:08.174692  3629 net.cpp:434] elu6 <- drop6
I1017 18:49:08.174697  3629 net.cpp:408] elu6 -> elu6
I1017 18:49:08.174720  3629 net.cpp:150] Setting up elu6
I1017 18:49:08.174724  3629 net.cpp:157] Top shape: 100 300 1 1 (30000)
I1017 18:49:08.174726  3629 net.cpp:165] Memory required for data: 157356400
I1017 18:49:08.174728  3629 layer_factory.hpp:77] Creating layer conv11
I1017 18:49:08.174737  3629 net.cpp:100] Creating Layer conv11
I1017 18:49:08.174741  3629 net.cpp:434] conv11 <- elu6
I1017 18:49:08.174746  3629 net.cpp:408] conv11 -> conv11
I1017 18:49:08.175619  3629 net.cpp:150] Setting up conv11
I1017 18:49:08.175631  3629 net.cpp:157] Top shape: 100 100 1 1 (10000)
I1017 18:49:08.175632  3629 net.cpp:165] Memory required for data: 157396400
I1017 18:49:08.175639  3629 layer_factory.hpp:77] Creating layer pool7
I1017 18:49:08.175647  3629 net.cpp:100] Creating Layer pool7
I1017 18:49:08.175652  3629 net.cpp:434] pool7 <- conv11
I1017 18:49:08.175659  3629 net.cpp:408] pool7 -> pool7
I1017 18:49:08.175698  3629 net.cpp:150] Setting up pool7
I1017 18:49:08.175704  3629 net.cpp:157] Top shape: 100 100 1 1 (10000)
I1017 18:49:08.175707  3629 net.cpp:165] Memory required for data: 157436400
I1017 18:49:08.175711  3629 layer_factory.hpp:77] Creating layer drop7
I1017 18:49:08.175717  3629 net.cpp:100] Creating Layer drop7
I1017 18:49:08.175722  3629 net.cpp:434] drop7 <- pool7
I1017 18:49:08.175729  3629 net.cpp:408] drop7 -> drop7
I1017 18:49:08.175760  3629 net.cpp:150] Setting up drop7
I1017 18:49:08.175765  3629 net.cpp:157] Top shape: 100 100 1 1 (10000)
I1017 18:49:08.175768  3629 net.cpp:165] Memory required for data: 157476400
I1017 18:49:08.175770  3629 layer_factory.hpp:77] Creating layer elu7
I1017 18:49:08.175781  3629 net.cpp:100] Creating Layer elu7
I1017 18:49:08.175786  3629 net.cpp:434] elu7 <- drop7
I1017 18:49:08.175791  3629 net.cpp:408] elu7 -> elu7
I1017 18:49:08.175812  3629 net.cpp:150] Setting up elu7
I1017 18:49:08.175817  3629 net.cpp:157] Top shape: 100 100 1 1 (10000)
I1017 18:49:08.175820  3629 net.cpp:165] Memory required for data: 157516400
I1017 18:49:08.175823  3629 layer_factory.hpp:77] Creating layer pool
I1017 18:49:08.175828  3629 net.cpp:100] Creating Layer pool
I1017 18:49:08.175833  3629 net.cpp:434] pool <- elu7
I1017 18:49:08.175839  3629 net.cpp:408] pool -> pool
I1017 18:49:08.175967  3629 net.cpp:150] Setting up pool
I1017 18:49:08.175973  3629 net.cpp:157] Top shape: 100 100 1 1 (10000)
I1017 18:49:08.175976  3629 net.cpp:165] Memory required for data: 157556400
I1017 18:49:08.175979  3629 layer_factory.hpp:77] Creating layer flatten
I1017 18:49:08.175986  3629 net.cpp:100] Creating Layer flatten
I1017 18:49:08.175989  3629 net.cpp:434] flatten <- pool
I1017 18:49:08.175997  3629 net.cpp:408] flatten -> flatten
I1017 18:49:08.176020  3629 net.cpp:150] Setting up flatten
I1017 18:49:08.176033  3629 net.cpp:157] Top shape: 100 100 (10000)
I1017 18:49:08.176036  3629 net.cpp:165] Memory required for data: 157596400
I1017 18:49:08.176040  3629 layer_factory.hpp:77] Creating layer score
I1017 18:49:08.176048  3629 net.cpp:100] Creating Layer score
I1017 18:49:08.176053  3629 net.cpp:434] score <- flatten
I1017 18:49:08.176059  3629 net.cpp:408] score -> score
I1017 18:49:08.176163  3629 net.cpp:150] Setting up score
I1017 18:49:08.176168  3629 net.cpp:157] Top shape: 100 10 (1000)
I1017 18:49:08.176170  3629 net.cpp:165] Memory required for data: 157600400
I1017 18:49:08.176175  3629 layer_factory.hpp:77] Creating layer score_score_0_split
I1017 18:49:08.176182  3629 net.cpp:100] Creating Layer score_score_0_split
I1017 18:49:08.176187  3629 net.cpp:434] score_score_0_split <- score
I1017 18:49:08.176193  3629 net.cpp:408] score_score_0_split -> score_score_0_split_0
I1017 18:49:08.176200  3629 net.cpp:408] score_score_0_split -> score_score_0_split_1
I1017 18:49:08.176232  3629 net.cpp:150] Setting up score_score_0_split
I1017 18:49:08.176236  3629 net.cpp:157] Top shape: 100 10 (1000)
I1017 18:49:08.176239  3629 net.cpp:157] Top shape: 100 10 (1000)
I1017 18:49:08.176242  3629 net.cpp:165] Memory required for data: 157608400
I1017 18:49:08.176247  3629 layer_factory.hpp:77] Creating layer accuracy
I1017 18:49:08.176254  3629 net.cpp:100] Creating Layer accuracy
I1017 18:49:08.176257  3629 net.cpp:434] accuracy <- score_score_0_split_0
I1017 18:49:08.176262  3629 net.cpp:434] accuracy <- label_data_1_split_0
I1017 18:49:08.176270  3629 net.cpp:408] accuracy -> accuracy
…
