…
device_id: 0
train_state {
  level: 0
  stage: ""
}
type: "Adam"
I1017 11:41:05.773937  8580 solver.cpp:81] Creating training net from train_net file: /home/adam/Honours/Honours-Project/cifar-10_pooling/max/leakyrelu/poolcnn_leakyrelu_train.prototxt
I1017 11:41:05.774232  8580 net.cpp:58] Initializing net from parameters: 
state {
  phase: TRAIN
  level: 0
  stage: ""
}
layer {
  name: "data"
  type: "Data"
  top: "data"
  top: "label"
  data_param {
    source: "../../../../data/cifar-10/cifar10_train_lmdb"
    batch_size: 64
    backend: LMDB
  }
}
layer {
  name: "conv1"
  type: "Convolution"
  bottom: "data"
  top: "conv1"
  convolution_param {
    num_output: 192
    kernel_size: 5
    weight_filler {
      type: "xavier"
    }
  }
}
layer {
  name: "pool1"
  type: "Pooling"
  bottom: "conv1"
  top: "pool1"
  pooling_param {
    pool: MAX
    kernel_size: 2
    stride: 2
  }
}
layer {
  name: "drop1"
  type: "Dropout"
  bottom: "pool1"
  top: "drop1"
  dropout_param {
    dropout_ratio: 0
  }
}
layer {
  name: "relu1"
  type: "ReLU"
  bottom: "drop1"
  top: "relu1"
  relu_param {
    negative_slope: 0.01
  }
}
layer {
  name: "conv2"
  type: "Convolution"
  bottom: "relu1"
  top: "conv2"
  convolution_param {
    num_output: 192
    kernel_size: 1
    weight_filler {
      type: "xavier"
    }
  }
}
layer {
  name: "conv3"
  type: "Convolution"
  bottom: "conv2"
  top: "conv3"
  convolution_param {
    num_output: 240
    kernel_size: 3
    weight_filler {
      type: "xavier"
    }
  }
}
layer {
  name: "pool2"
  type: "Pooling"
  bottom: "conv3"
  top: "pool2"
  pooling_param {
    pool: MAX
    kernel_size: 2
    stride: 2
  }
}
layer {
  name: "drop2"
  type: "Dropout"
  bottom: "pool2"
  top: "drop2"
  dropout_param {
    dropout_ratio: 0.1
  }
}
layer {
  name: "relu2"
  type: "ReLU"
  bottom: "drop2"
  top: "relu2"
  relu_param {
    negative_slope: 0.01
  }
}
layer {
  name: "conv4"
  type: "Convolution"
  bottom: "relu2"
  top: "conv4"
  convolution_param {
    num_output: 240
    kernel_size: 1
    weight_filler {
      type: "xavier"
    }
  }
}
layer {
  name: "conv5"
  type: "Convolution"
  bottom: "conv4"
  top: "conv5"
  convolution_param {
    num_output: 260
    kernel_size: 2
    weight_filler {
      type: "xavier"
    }
  }
}
layer {
  name: "pool3"
  type: "Pooling"
  bottom: "conv5"
  top: "pool3"
  pooling_param {
    pool: MAX
    kernel_size: 2
    stride: 2
  }
}
layer {
  name: "drop3"
  type: "Dropout"
  bottom: "pool3"
  top: "drop3"
  dropout_param {
    dropout_ratio: 0.2
  }
}
layer {
  name: "relu3"
  type: "ReLU"
  bottom: "drop3"
  top: "relu3"
  relu_param {
    negative_slope: 0.01
  }
}
layer {
  name: "conv6"
  type: "Convolution"
  bottom: "relu3"
  top: "conv6"
  convolution_param {
    num_output: 260
    kernel_size: 1
    weight_filler {
      type: "xavier"
    }
  }
}
layer {
  name: "conv7"
  type: "Convolution"
  bottom: "conv6"
  top: "conv7"
  convolution_param {
    num_output: 280
    kernel_size: 2
    weight_filler {
      type: "xavier"
    }
  }
}
layer {
  name: "pool4"
  type: "Pooling"
  bottom: "conv7"
  top: "pool4"
  pooling_param {
    pool: MAX
    kernel_size: 2
    stride: 2
  }
}
layer {
  name: "drop4"
  type: "Dropout"
  bottom: "pool4"
  top: "drop4"
  dropout_param {
    dropout_ratio: 0.3
  }
}
layer {
  name: "relu4"
  type: "ReLU"
  bottom: "drop4"
  top: "relu4"
  relu_param {
    negative_slope: 0.01
  }
}
layer {
  name: "conv8"
  type: "Convolution"
  bottom: "relu4"
  top: "conv8"
  convolution_param {
    num_output: 280
    kernel_size: 1
    weight_filler {
      type: "xavier"
    }
  }
}
layer {
  name: "pool5"
  type: "Pooling"
  bottom: "conv8"
  top: "pool5"
  pooling_param {
    pool: MAX
    kernel_size: 2
    stride: 2
  }
}
layer {
  name: "drop5"
  type: "Dropout"
  bottom: "pool5"
  top: "drop5"
  dropout_param {
    dropout_ratio: 0.4
  }
}
layer {
  name: "relu5"
  type: "ReLU"
  bottom: "drop5"
  top: "relu5"
  relu_param {
    negative_slope: 0.01
  }
}
layer {
  name: "conv10"
  type: "Convolution"
  bottom: "relu5"
  top: "conv10"
  convolution_param {
    num_output: 300
    kernel_size: 1
    weight_filler {
      type: "xavier"
    }
  }
}
layer {
  name: "pool6"
  type: "Pooling"
  bottom: "conv10"
  top: "pool6"
  pooling_param {
    pool: MAX
    kernel_size: 2
    stride: 2
  }
}
layer {
  name: "drop6"
  type: "Dropout"
  bottom: "pool6"
  top: "drop6"
  dropout_param {
    dropout_ratio: 0.5
  }
}
layer {
  name: "relu6"
  type: "ReLU"
  bottom: "drop6"
  top: "relu6"
  relu_param {
    negative_slope: 0.01
  }
}
layer {
  name: "conv11"
  type: "Convolution"
  bottom: "relu6"
  top: "conv11"
  convolution_param {
    num_output: 100
    kernel_size: 1
    weight_filler {
      type: "xavier"
    }
  }
}
layer {
  name: "pool7"
  type: "Pooling"
  bottom: "conv11"
  top: "pool7"
  pooling_param {
    pool: MAX
    kernel_size: 2
    stride: 2
  }
}
layer {
  name: "drop7"
  type: "Dropout"
  bottom: "pool7"
  top: "drop7"
  dropout_param {
    dropout_ratio: 0
  }
}
layer {
  name: "relu7"
  type: "ReLU"
  bottom: "drop7"
  top: "relu7"
  relu_param {
    negative_slope: 0.01
  }
}
layer {
  name: "pool"
  type: "Pooling"
  bottom: "relu7"
  top: "pool"
  pooling_param {
    pool: AVE
    global_pooling: true
  }
}
layer {
  name: "flatten"
  type: "Flatten"
  bottom: "pool"
  top: "flatten"
}
layer {
  name: "score"
  type: "InnerProduct"
  bottom: "flatten"
  top: "score"
  inner_product_param {
    num_output: 10
    weight_filler {
      type: "gaussian"
    }
  }
}
layer {
  name: "accuracy"
  type: "Accuracy"
  bottom: "score"
  bottom: "label"
  top: "accuracy"
}
layer {
  name: "loss"
  type: "SoftmaxWithLoss"
  bottom: "score"
  bottom: "label"
  top: "loss"
}
I1017 11:41:05.774339  8580 layer_factory.hpp:77] Creating layer data
I1017 11:41:05.774727  8580 net.cpp:100] Creating Layer data
I1017 11:41:05.774735  8580 net.cpp:408] data -> data
I1017 11:41:05.774749  8580 net.cpp:408] data -> label
I1017 11:41:05.775336  8585 db_lmdb.cpp:35] Opened lmdb ../../../../data/cifar-10/cifar10_train_lmdb
I1017 11:41:05.780793  8580 data_layer.cpp:41] output data size: 64,3,32,32
I1017 11:41:05.782155  8580 net.cpp:150] Setting up data
I1017 11:41:05.782169  8580 net.cpp:157] Top shape: 64 3 32 32 (196608)
I1017 11:41:05.782172  8580 net.cpp:157] Top shape: 64 (64)
I1017 11:41:05.782174  8580 net.cpp:165] Memory required for data: 786688
I1017 11:41:05.782182  8580 layer_factory.hpp:77] Creating layer label_data_1_split
I1017 11:41:05.782192  8580 net.cpp:100] Creating Layer label_data_1_split
I1017 11:41:05.782197  8580 net.cpp:434] label_data_1_split <- label
I1017 11:41:05.782208  8580 net.cpp:408] label_data_1_split -> label_data_1_split_0
I1017 11:41:05.782217  8580 net.cpp:408] label_data_1_split -> label_data_1_split_1
I1017 11:41:05.782240  8580 net.cpp:150] Setting up label_data_1_split
I1017 11:41:05.782244  8580 net.cpp:157] Top shape: 64 (64)
I1017 11:41:05.782246  8580 net.cpp:157] Top shape: 64 (64)
I1017 11:41:05.782248  8580 net.cpp:165] Memory required for data: 787200
I1017 11:41:05.782249  8580 layer_factory.hpp:77] Creating layer conv1
I1017 11:41:05.782259  8580 net.cpp:100] Creating Layer conv1
I1017 11:41:05.782263  8580 net.cpp:434] conv1 <- data
I1017 11:41:05.782266  8580 net.cpp:408] conv1 -> conv1
I1017 11:41:05.899874  8580 net.cpp:150] Setting up conv1
I1017 11:41:05.899901  8580 net.cpp:157] Top shape: 64 192 28 28 (9633792)
I1017 11:41:05.899904  8580 net.cpp:165] Memory required for data: 39322368
I1017 11:41:05.899920  8580 layer_factory.hpp:77] Creating layer pool1
I1017 11:41:05.899948  8580 net.cpp:100] Creating Layer pool1
I1017 11:41:05.899951  8580 net.cpp:434] pool1 <- conv1
I1017 11:41:05.899956  8580 net.cpp:408] pool1 -> pool1
I1017 11:41:05.899991  8580 net.cpp:150] Setting up pool1
I1017 11:41:05.899996  8580 net.cpp:157] Top shape: 64 192 14 14 (2408448)
I1017 11:41:05.899997  8580 net.cpp:165] Memory required for data: 48956160
I1017 11:41:05.899999  8580 layer_factory.hpp:77] Creating layer drop1
I1017 11:41:05.900005  8580 net.cpp:100] Creating Layer drop1
I1017 11:41:05.900007  8580 net.cpp:434] drop1 <- pool1
I1017 11:41:05.900010  8580 net.cpp:408] drop1 -> drop1
I1017 11:41:05.900033  8580 net.cpp:150] Setting up drop1
I1017 11:41:05.900038  8580 net.cpp:157] Top shape: 64 192 14 14 (2408448)
I1017 11:41:05.900039  8580 net.cpp:165] Memory required for data: 58589952
I1017 11:41:05.900040  8580 layer_factory.hpp:77] Creating layer relu1
I1017 11:41:05.900044  8580 net.cpp:100] Creating Layer relu1
I1017 11:41:05.900046  8580 net.cpp:434] relu1 <- drop1
I1017 11:41:05.900049  8580 net.cpp:408] relu1 -> relu1
I1017 11:41:05.900164  8580 net.cpp:150] Setting up relu1
I1017 11:41:05.900169  8580 net.cpp:157] Top shape: 64 192 14 14 (2408448)
I1017 11:41:05.900171  8580 net.cpp:165] Memory required for data: 68223744
I1017 11:41:05.900173  8580 layer_factory.hpp:77] Creating layer conv2
I1017 11:41:05.900179  8580 net.cpp:100] Creating Layer conv2
I1017 11:41:05.900182  8580 net.cpp:434] conv2 <- relu1
I1017 11:41:05.900184  8580 net.cpp:408] conv2 -> conv2
I1017 11:41:05.901206  8580 net.cpp:150] Setting up conv2
I1017 11:41:05.901216  8580 net.cpp:157] Top shape: 64 192 14 14 (2408448)
I1017 11:41:05.901217  8580 net.cpp:165] Memory required for data: 77857536
I1017 11:41:05.901223  8580 layer_factory.hpp:77] Creating layer conv3
I1017 11:41:05.901227  8580 net.cpp:100] Creating Layer conv3
I1017 11:41:05.901229  8580 net.cpp:434] conv3 <- conv2
I1017 11:41:05.901233  8580 net.cpp:408] conv3 -> conv3
I1017 11:41:05.903640  8580 net.cpp:150] Setting up conv3
I1017 11:41:05.903648  8580 net.cpp:157] Top shape: 64 240 12 12 (2211840)
I1017 11:41:05.903650  8580 net.cpp:165] Memory required for data: 86704896
I1017 11:41:05.903656  8580 layer_factory.hpp:77] Creating layer pool2
I1017 11:41:05.903661  8580 net.cpp:100] Creating Layer pool2
I1017 11:41:05.903662  8580 net.cpp:434] pool2 <- conv3
I1017 11:41:05.903666  8580 net.cpp:408] pool2 -> pool2
I1017 11:41:05.903689  8580 net.cpp:150] Setting up pool2
I1017 11:41:05.903693  8580 net.cpp:157] Top shape: 64 240 6 6 (552960)
I1017 11:41:05.903695  8580 net.cpp:165] Memory required for data: 88916736
I1017 11:41:05.903697  8580 layer_factory.hpp:77] Creating layer drop2
I1017 11:41:05.903700  8580 net.cpp:100] Creating Layer drop2
I1017 11:41:05.903702  8580 net.cpp:434] drop2 <- pool2
I1017 11:41:05.903704  8580 net.cpp:408] drop2 -> drop2
I1017 11:41:05.903724  8580 net.cpp:150] Setting up drop2
I1017 11:41:05.903728  8580 net.cpp:157] Top shape: 64 240 6 6 (552960)
I1017 11:41:05.903729  8580 net.cpp:165] Memory required for data: 91128576
I1017 11:41:05.903730  8580 layer_factory.hpp:77] Creating layer relu2
I1017 11:41:05.903733  8580 net.cpp:100] Creating Layer relu2
I1017 11:41:05.903735  8580 net.cpp:434] relu2 <- drop2
I1017 11:41:05.903738  8580 net.cpp:408] relu2 -> relu2
I1017 11:41:05.903841  8580 net.cpp:150] Setting up relu2
I1017 11:41:05.903846  8580 net.cpp:157] Top shape: 64 240 6 6 (552960)
I1017 11:41:05.903847  8580 net.cpp:165] Memory required for data: 93340416
I1017 11:41:05.903849  8580 layer_factory.hpp:77] Creating layer conv4
I1017 11:41:05.903853  8580 net.cpp:100] Creating Layer conv4
I1017 11:41:05.903856  8580 net.cpp:434] conv4 <- relu2
I1017 11:41:05.903858  8580 net.cpp:408] conv4 -> conv4
I1017 11:41:05.904644  8580 net.cpp:150] Setting up conv4
I1017 11:41:05.904650  8580 net.cpp:157] Top shape: 64 240 6 6 (552960)
I1017 11:41:05.904652  8580 net.cpp:165] Memory required for data: 95552256
I1017 11:41:05.904656  8580 layer_factory.hpp:77] Creating layer conv5
I1017 11:41:05.904669  8580 net.cpp:100] Creating Layer conv5
I1017 11:41:05.904671  8580 net.cpp:434] conv5 <- conv4
I1017 11:41:05.904675  8580 net.cpp:408] conv5 -> conv5
I1017 11:41:05.906388  8580 net.cpp:150] Setting up conv5
I1017 11:41:05.906395  8580 net.cpp:157] Top shape: 64 260 5 5 (416000)
I1017 11:41:05.906397  8580 net.cpp:165] Memory required for data: 97216256
I1017 11:41:05.906402  8580 layer_factory.hpp:77] Creating layer pool3
I1017 11:41:05.906407  8580 net.cpp:100] Creating Layer pool3
I1017 11:41:05.906409  8580 net.cpp:434] pool3 <- conv5
I1017 11:41:05.906412  8580 net.cpp:408] pool3 -> pool3
I1017 11:41:05.906435  8580 net.cpp:150] Setting up pool3
I1017 11:41:05.906440  8580 net.cpp:157] Top shape: 64 260 3 3 (149760)
I1017 11:41:05.906442  8580 net.cpp:165] Memory required for data: 97815296
I1017 11:41:05.906461  8580 layer_factory.hpp:77] Creating layer drop3
I1017 11:41:05.906466  8580 net.cpp:100] Creating Layer drop3
I1017 11:41:05.906467  8580 net.cpp:434] drop3 <- pool3
I1017 11:41:05.906471  8580 net.cpp:408] drop3 -> drop3
I1017 11:41:05.906493  8580 net.cpp:150] Setting up drop3
I1017 11:41:05.906497  8580 net.cpp:157] Top shape: 64 260 3 3 (149760)
I1017 11:41:05.906499  8580 net.cpp:165] Memory required for data: 98414336
I1017 11:41:05.906500  8580 layer_factory.hpp:77] Creating layer relu3
I1017 11:41:05.906503  8580 net.cpp:100] Creating Layer relu3
I1017 11:41:05.906505  8580 net.cpp:434] relu3 <- drop3
I1017 11:41:05.906508  8580 net.cpp:408] relu3 -> relu3
I1017 11:41:05.906613  8580 net.cpp:150] Setting up relu3
I1017 11:41:05.906618  8580 net.cpp:157] Top shape: 64 260 3 3 (149760)
I1017 11:41:05.906620  8580 net.cpp:165] Memory required for data: 99013376
I1017 11:41:05.906622  8580 layer_factory.hpp:77] Creating layer conv6
I1017 11:41:05.906627  8580 net.cpp:100] Creating Layer conv6
I1017 11:41:05.906630  8580 net.cpp:434] conv6 <- relu3
I1017 11:41:05.906632  8580 net.cpp:408] conv6 -> conv6
I1017 11:41:05.907706  8580 net.cpp:150] Setting up conv6
I1017 11:41:05.907713  8580 net.cpp:157] Top shape: 64 260 3 3 (149760)
I1017 11:41:05.907716  8580 net.cpp:165] Memory required for data: 99612416
I1017 11:41:05.907718  8580 layer_factory.hpp:77] Creating layer conv7
I1017 11:41:05.907723  8580 net.cpp:100] Creating Layer conv7
I1017 11:41:05.907726  8580 net.cpp:434] conv7 <- conv6
I1017 11:41:05.907728  8580 net.cpp:408] conv7 -> conv7
I1017 11:41:05.909651  8580 net.cpp:150] Setting up conv7
I1017 11:41:05.909658  8580 net.cpp:157] Top shape: 64 280 2 2 (71680)
I1017 11:41:05.909660  8580 net.cpp:165] Memory required for data: 99899136
I1017 11:41:05.909663  8580 layer_factory.hpp:77] Creating layer pool4
I1017 11:41:05.909667  8580 net.cpp:100] Creating Layer pool4
I1017 11:41:05.909670  8580 net.cpp:434] pool4 <- conv7
I1017 11:41:05.909673  8580 net.cpp:408] pool4 -> pool4
I1017 11:41:05.909698  8580 net.cpp:150] Setting up pool4
I1017 11:41:05.909701  8580 net.cpp:157] Top shape: 64 280 1 1 (17920)
I1017 11:41:05.909703  8580 net.cpp:165] Memory required for data: 99970816
I1017 11:41:05.909705  8580 layer_factory.hpp:77] Creating layer drop4
I1017 11:41:05.909708  8580 net.cpp:100] Creating Layer drop4
I1017 11:41:05.909709  8580 net.cpp:434] drop4 <- pool4
I1017 11:41:05.909713  8580 net.cpp:408] drop4 -> drop4
I1017 11:41:05.909734  8580 net.cpp:150] Setting up drop4
I1017 11:41:05.909739  8580 net.cpp:157] Top shape: 64 280 1 1 (17920)
I1017 11:41:05.909739  8580 net.cpp:165] Memory required for data: 100042496
I1017 11:41:05.909741  8580 layer_factory.hpp:77] Creating layer relu4
I1017 11:41:05.909744  8580 net.cpp:100] Creating Layer relu4
I1017 11:41:05.909746  8580 net.cpp:434] relu4 <- drop4
I1017 11:41:05.909749  8580 net.cpp:408] relu4 -> relu4
I1017 11:41:05.909935  8580 net.cpp:150] Setting up relu4
I1017 11:41:05.909942  8580 net.cpp:157] Top shape: 64 280 1 1 (17920)
I1017 11:41:05.909945  8580 net.cpp:165] Memory required for data: 100114176
I1017 11:41:05.909946  8580 layer_factory.hpp:77] Creating layer conv8
I1017 11:41:05.909951  8580 net.cpp:100] Creating Layer conv8
I1017 11:41:05.909961  8580 net.cpp:434] conv8 <- relu4
I1017 11:41:05.909965  8580 net.cpp:408] conv8 -> conv8
I1017 11:41:05.910809  8580 net.cpp:150] Setting up conv8
I1017 11:41:05.910817  8580 net.cpp:157] Top shape: 64 280 1 1 (17920)
I1017 11:41:05.910820  8580 net.cpp:165] Memory required for data: 100185856
I1017 11:41:05.910823  8580 layer_factory.hpp:77] Creating layer pool5
I1017 11:41:05.910827  8580 net.cpp:100] Creating Layer pool5
I1017 11:41:05.910830  8580 net.cpp:434] pool5 <- conv8
I1017 11:41:05.910832  8580 net.cpp:408] pool5 -> pool5
I1017 11:41:05.910856  8580 net.cpp:150] Setting up pool5
I1017 11:41:05.910861  8580 net.cpp:157] Top shape: 64 280 1 1 (17920)
I1017 11:41:05.910862  8580 net.cpp:165] Memory required for data: 100257536
I1017 11:41:05.910863  8580 layer_factory.hpp:77] Creating layer drop5
I1017 11:41:05.910866  8580 net.cpp:100] Creating Layer drop5
I1017 11:41:05.910868  8580 net.cpp:434] drop5 <- pool5
I1017 11:41:05.910871  8580 net.cpp:408] drop5 -> drop5
I1017 11:41:05.910892  8580 net.cpp:150] Setting up drop5
I1017 11:41:05.910897  8580 net.cpp:157] Top shape: 64 280 1 1 (17920)
I1017 11:41:05.910897  8580 net.cpp:165] Memory required for data: 100329216
I1017 11:41:05.910899  8580 layer_factory.hpp:77] Creating layer relu5
I1017 11:41:05.910902  8580 net.cpp:100] Creating Layer relu5
I1017 11:41:05.910904  8580 net.cpp:434] relu5 <- drop5
I1017 11:41:05.910907  8580 net.cpp:408] relu5 -> relu5
I1017 11:41:05.911170  8580 net.cpp:150] Setting up relu5
I1017 11:41:05.911177  8580 net.cpp:157] Top shape: 64 280 1 1 (17920)
I1017 11:41:05.911178  8580 net.cpp:165] Memory required for data: 100400896
I1017 11:41:05.911180  8580 layer_factory.hpp:77] Creating layer conv10
I1017 11:41:05.911185  8580 net.cpp:100] Creating Layer conv10
I1017 11:41:05.911186  8580 net.cpp:434] conv10 <- relu5
I1017 11:41:05.911190  8580 net.cpp:408] conv10 -> conv10
I1017 11:41:05.912118  8580 net.cpp:150] Setting up conv10
I1017 11:41:05.912127  8580 net.cpp:157] Top shape: 64 300 1 1 (19200)
I1017 11:41:05.912128  8580 net.cpp:165] Memory required for data: 100477696
I1017 11:41:05.912134  8580 layer_factory.hpp:77] Creating layer pool6
I1017 11:41:05.912138  8580 net.cpp:100] Creating Layer pool6
I1017 11:41:05.912142  8580 net.cpp:434] pool6 <- conv10
I1017 11:41:05.912144  8580 net.cpp:408] pool6 -> pool6
I1017 11:41:05.912169  8580 net.cpp:150] Setting up pool6
I1017 11:41:05.912173  8580 net.cpp:157] Top shape: 64 300 1 1 (19200)
I1017 11:41:05.912175  8580 net.cpp:165] Memory required for data: 100554496
I1017 11:41:05.912178  8580 layer_factory.hpp:77] Creating layer drop6
I1017 11:41:05.912180  8580 net.cpp:100] Creating Layer drop6
I1017 11:41:05.912181  8580 net.cpp:434] drop6 <- pool6
I1017 11:41:05.912185  8580 net.cpp:408] drop6 -> drop6
I1017 11:41:05.912206  8580 net.cpp:150] Setting up drop6
I1017 11:41:05.912209  8580 net.cpp:157] Top shape: 64 300 1 1 (19200)
I1017 11:41:05.912210  8580 net.cpp:165] Memory required for data: 100631296
I1017 11:41:05.912212  8580 layer_factory.hpp:77] Creating layer relu6
I1017 11:41:05.912215  8580 net.cpp:100] Creating Layer relu6
I1017 11:41:05.912217  8580 net.cpp:434] relu6 <- drop6
I1017 11:41:05.912220  8580 net.cpp:408] relu6 -> relu6
I1017 11:41:05.912330  8580 net.cpp:150] Setting up relu6
I1017 11:41:05.912335  8580 net.cpp:157] Top shape: 64 300 1 1 (19200)
I1017 11:41:05.912336  8580 net.cpp:165] Memory required for data: 100708096
I1017 11:41:05.912338  8580 layer_factory.hpp:77] Creating layer conv11
I1017 11:41:05.912343  8580 net.cpp:100] Creating Layer conv11
I1017 11:41:05.912345  8580 net.cpp:434] conv11 <- relu6
I1017 11:41:05.912348  8580 net.cpp:408] conv11 -> conv11
I1017 11:41:05.913069  8580 net.cpp:150] Setting up conv11
I1017 11:41:05.913076  8580 net.cpp:157] Top shape: 64 100 1 1 (6400)
I1017 11:41:05.913079  8580 net.cpp:165] Memory required for data: 100733696
I1017 11:41:05.913081  8580 layer_factory.hpp:77] Creating layer pool7
I1017 11:41:05.913085  8580 net.cpp:100] Creating Layer pool7
I1017 11:41:05.913094  8580 net.cpp:434] pool7 <- conv11
I1017 11:41:05.913100  8580 net.cpp:408] pool7 -> pool7
I1017 11:41:05.913125  8580 net.cpp:150] Setting up pool7
I1017 11:41:05.913130  8580 net.cpp:157] Top shape: 64 100 1 1 (6400)
I1017 11:41:05.913132  8580 net.cpp:165] Memory required for data: 100759296
I1017 11:41:05.913135  8580 layer_factory.hpp:77] Creating layer drop7
I1017 11:41:05.913137  8580 net.cpp:100] Creating Layer drop7
I1017 11:41:05.913138  8580 net.cpp:434] drop7 <- pool7
I1017 11:41:05.913141  8580 net.cpp:408] drop7 -> drop7
I1017 11:41:05.913163  8580 net.cpp:150] Setting up drop7
I1017 11:41:05.913166  8580 net.cpp:157] Top shape: 64 100 1 1 (6400)
I1017 11:41:05.913167  8580 net.cpp:165] Memory required for data: 100784896
I1017 11:41:05.913170  8580 layer_factory.hpp:77] Creating layer relu7
I1017 11:41:05.913175  8580 net.cpp:100] Creating Layer relu7
I1017 11:41:05.913177  8580 net.cpp:434] relu7 <- drop7
I1017 11:41:05.913180  8580 net.cpp:408] relu7 -> relu7
I1017 11:41:05.913367  8580 net.cpp:150] Setting up relu7
I1017 11:41:05.913374  8580 net.cpp:157] Top shape: 64 100 1 1 (6400)
I1017 11:41:05.913375  8580 net.cpp:165] Memory required for data: 100810496
I1017 11:41:05.913378  8580 layer_factory.hpp:77] Creating layer pool
I1017 11:41:05.913381  8580 net.cpp:100] Creating Layer pool
I1017 11:41:05.913383  8580 net.cpp:434] pool <- relu7
I1017 11:41:05.913386  8580 net.cpp:408] pool -> pool
I1017 11:41:05.913506  8580 net.cpp:150] Setting up pool
I1017 11:41:05.913511  8580 net.cpp:157] Top shape: 64 100 1 1 (6400)
I1017 11:41:05.913512  8580 net.cpp:165] Memory required for data: 100836096
I1017 11:41:05.913514  8580 layer_factory.hpp:77] Creating layer flatten
I1017 11:41:05.913517  8580 net.cpp:100] Creating Layer flatten
I1017 11:41:05.913521  8580 net.cpp:434] flatten <- pool
I1017 11:41:05.913522  8580 net.cpp:408] flatten -> flatten
I1017 11:41:05.913538  8580 net.cpp:150] Setting up flatten
I1017 11:41:05.913542  8580 net.cpp:157] Top shape: 64 100 (6400)
I1017 11:41:05.913543  8580 net.cpp:165] Memory required for data: 100861696
I1017 11:41:05.913544  8580 layer_factory.hpp:77] Creating layer score
I1017 11:41:05.913548  8580 net.cpp:100] Creating Layer score
I1017 11:41:05.913549  8580 net.cpp:434] score <- flatten
I1017 11:41:05.913555  8580 net.cpp:408] score -> score
I1017 11:41:05.913645  8580 net.cpp:150] Setting up score
I1017 11:41:05.913650  8580 net.cpp:157] Top shape: 64 10 (640)
I1017 11:41:05.913650  8580 net.cpp:165] Memory required for data: 100864256
I1017 11:41:05.913655  8580 layer_factory.hpp:77] Creating layer score_score_0_split
I1017 11:41:05.913657  8580 net.cpp:100] Creating Layer score_score_0_split
I1017 11:41:05.913660  8580 net.cpp:434] score_score_0_split <- score
I1017 11:41:05.913662  8580 net.cpp:408] score_score_0_split -> score_score_0_split_0
I1017 11:41:05.913666  8580 net.cpp:408] score_score_0_split -> score_score_0_split_1
I1017 11:41:05.913689  8580 net.cpp:150] Setting up score_score_0_split
I1017 11:41:05.913693  8580 net.cpp:157] Top shape: 64 10 (640)
I1017 11:41:05.913694  8580 net.cpp:157] Top shape: 64 10 (640)
I1017 11:41:05.913697  8580 net.cpp:165] Memory required for data: 100869376
I1017 11:41:05.913698  8580 layer_factory.hpp:77] Creating layer accuracy
I1017 11:41:05.913702  8580 net.cpp:100] Creating Layer accuracy
I1017 11:41:05.913704  8580 net.cpp:434] accuracy <- score_score_0_split_0
I1017 11:41:05.913708  8580 net.cpp:434] accuracy <- label_data_1_split_0
I1017 11:41:05.913712  8580 net.cpp:408] accuracy -> accuracy
…
I1017 11:41:05.914088  8580 net.cpp:270] This network produces output loss
I1017 11:41:05.914105  8580 net.cpp:283] Network initialization done.
I1017 11:41:05.914288  8580 solver.cpp:181] Creating test net (#0) specified by test_net file: /home/adam/Honours/Honours-Project/cifar-10_pooling/max/leakyrelu/poolcnn_leakyrelu_test.prototxt
I1017 11:41:05.914403  8580 net.cpp:58] Initializing net from parameters: 
state {
  phase: TEST
}
layer {
  name: "data"
  type: "Data"
  top: "data"
  top: "label"
  data_param {
    source: "../../../../data/cifar-10/cifar10_test_lmdb"
    batch_size: 100
    backend: LMDB
  }
}
layer {
  name: "conv1"
  type: "Convolution"
  bottom: "data"
  top: "conv1"
  convolution_param {
    num_output: 192
    kernel_size: 5
    weight_filler {
      type: "xavier"
    }
  }
}
layer {
  name: "pool1"
  type: "Pooling"
  bottom: "conv1"
  top: "pool1"
  pooling_param {
    pool: MAX
    kernel_size: 2
    stride: 2
  }
}
layer {
  name: "drop1"
  type: "Dropout"
  bottom: "pool1"
  top: "drop1"
  dropout_param {
    dropout_ratio: 0
  }
}
layer {
  name: "relu1"
  type: "ReLU"
  bottom: "drop1"
  top: "relu1"
  relu_param {
    negative_slope: 0.01
  }
}
layer {
  name: "conv2"
  type: "Convolution"
  bottom: "relu1"
  top: "conv2"
  convolution_param {
    num_output: 192
    kernel_size: 1
    weight_filler {
      type: "xavier"
    }
  }
}
layer {
  name: "conv3"
  type: "Convolution"
  bottom: "conv2"
  top: "conv3"
  convolution_param {
    num_output: 240
    kernel_size: 3
    weight_filler {
      type: "xavier"
    }
  }
}
layer {
  name: "pool2"
  type: "Pooling"
  bottom: "conv3"
  top: "pool2"
  pooling_param {
    pool: MAX
    kernel_size: 2
    stride: 2
  }
}
layer {
  name: "drop2"
  type: "Dropout"
  bottom: "pool2"
  top: "drop2"
  dropout_param {
    dropout_ratio: 0.1
  }
}
layer {
  name: "relu2"
  type: "ReLU"
  bottom: "drop2"
  top: "relu2"
  relu_param {
    negative_slope: 0.01
  }
}
layer {
  name: "conv4"
  type: "Convolution"
  bottom: "relu2"
  top: "conv4"
  convolution_param {
    num_output: 240
    kernel_size: 1
    weight_filler {
      type: "xavier"
    }
  }
}
layer {
  name: "conv5"
  type: "Convolution"
  bottom: "conv4"
  top: "conv5"
  convolution_param {
    num_output: 260
    kernel_size: 2
    weight_filler {
      type: "xavier"
    }
  }
}
layer {
  name: "pool3"
  type: "Pooling"
  bottom: "conv5"
  top: "pool3"
  pooling_param {
    pool: MAX
    kernel_size: 2
    stride: 2
  }
}
layer {
  name: "drop3"
  type: "Dropout"
  bottom: "pool3"
  top: "drop3"
  dropout_param {
    dropout_ratio: 0.2
  }
}
layer {
  name: "relu3"
  type: "ReLU"
  bottom: "drop3"
  top: "relu3"
  relu_param {
    negative_slope: 0.01
  }
}
layer {
  name: "conv6"
  type: "Convolution"
  bottom: "relu3"
  top: "conv6"
  convolution_param {
    num_output: 260
    kernel_size: 1
    weight_filler {
      type: "xavier"
    }
  }
}
layer {
  name: "conv7"
  type: "Convolution"
  bottom: "conv6"
  top: "conv7"
  convolution_param {
    num_output: 280
    kernel_size: 2
    weight_filler {
      type: "xavier"
    }
  }
}
layer {
  name: "pool4"
  type: "Pooling"
  bottom: "conv7"
  top: "pool4"
  pooling_param {
    pool: MAX
    kernel_size: 2
    stride: 2
  }
}
layer {
  name: "drop4"
  type: "Dropout"
  bottom: "pool4"
  top: "drop4"
  dropout_param {
    dropout_ratio: 0.3
  }
}
layer {
  name: "relu4"
  type: "ReLU"
  bottom: "drop4"
  top: "relu4"
  relu_param {
    negative_slope: 0.01
  }
}
layer {
  name: "conv8"
  type: "Convolution"
  bottom: "relu4"
  top: "conv8"
  convolution_param {
    num_output: 280
    kernel_size: 1
    weight_filler {
      type: "xavier"
    }
  }
}
layer {
  name: "pool5"
  type: "Pooling"
  bottom: "conv8"
  top: "pool5"
  pooling_param {
    pool: MAX
    kernel_size: 2
    stride: 2
  }
}
layer {
  name: "drop5"
  type: "Dropout"
  bottom: "pool5"
  top: "drop5"
  dropout_param {
    dropout_ratio: 0.4
  }
}
layer {
  name: "relu5"
  type: "ReLU"
  bottom: "drop5"
  top: "relu5"
  relu_param {
    negative_slope: 0.01
  }
}
layer {
  name: "conv10"
  type: "Convolution"
  bottom: "relu5"
  top: "conv10"
  convolution_param {
    num_output: 300
    kernel_size: 1
    weight_filler {
      type: "xavier"
    }
  }
}
layer {
  name: "pool6"
  type: "Pooling"
  bottom: "conv10"
  top: "pool6"
  pooling_param {
    pool: MAX
    kernel_size: 2
    stride: 2
  }
}
layer {
  name: "drop6"
  type: "Dropout"
  bottom: "pool6"
  top: "drop6"
  dropout_param {
    dropout_ratio: 0.5
  }
}
layer {
  name: "relu6"
  type: "ReLU"
  bottom: "drop6"
  top: "relu6"
  relu_param {
    negative_slope: 0.01
  }
}
layer {
  name: "conv11"
  type: "Convolution"
  bottom: "relu6"
  top: "conv11"
  convolution_param {
    num_output: 100
    kernel_size: 1
    weight_filler {
      type: "xavier"
    }
  }
}
layer {
  name: "pool7"
  type: "Pooling"
  bottom: "conv11"
  top: "pool7"
  pooling_param {
    pool: MAX
    kernel_size: 2
    stride: 2
  }
}
layer {
  name: "drop7"
  type: "Dropout"
  bottom: "pool7"
  top: "drop7"
  dropout_param {
    dropout_ratio: 0
  }
}
layer {
  name: "relu7"
  type: "ReLU"
  bottom: "drop7"
  top: "relu7"
  relu_param {
    negative_slope: 0.01
  }
}
layer {
  name: "pool"
  type: "Pooling"
  bottom: "relu7"
  top: "pool"
  pooling_param {
    pool: AVE
    global_pooling: true
  }
}
layer {
  name: "flatten"
  type: "Flatten"
  bottom: "pool"
  top: "flatten"
}
layer {
  name: "score"
  type: "InnerProduct"
  bottom: "flatten"
  top: "score"
  inner_product_param {
    num_output: 10
    weight_filler {
      type: "gaussian"
    }
  }
}
layer {
  name: "accuracy"
  type: "Accuracy"
  bottom: "score"
  bottom: "label"
  top: "accuracy"
}
layer {
  name: "loss"
  type: "SoftmaxWithLoss"
  bottom: "score"
  bottom: "label"
  top: "loss"
}
I1017 11:41:05.914485  8580 layer_factory.hpp:77] Creating layer data
I1017 11:41:05.914563  8580 net.cpp:100] Creating Layer data
I1017 11:41:05.914567  8580 net.cpp:408] data -> data
I1017 11:41:05.914572  8580 net.cpp:408] data -> label
I1017 11:41:05.915143  8587 db_lmdb.cpp:35] Opened lmdb ../../../../data/cifar-10/cifar10_test_lmdb
I1017 11:41:05.915220  8580 data_layer.cpp:41] output data size: 100,3,32,32
I1017 11:41:05.916889  8580 net.cpp:150] Setting up data
I1017 11:41:05.916903  8580 net.cpp:157] Top shape: 100 3 32 32 (307200)
I1017 11:41:05.916906  8580 net.cpp:157] Top shape: 100 (100)
I1017 11:41:05.916908  8580 net.cpp:165] Memory required for data: 1229200
I1017 11:41:05.916911  8580 layer_factory.hpp:77] Creating layer label_data_1_split
I1017 11:41:05.916918  8580 net.cpp:100] Creating Layer label_data_1_split
I1017 11:41:05.916919  8580 net.cpp:434] label_data_1_split <- label
I1017 11:41:05.916924  8580 net.cpp:408] label_data_1_split -> label_data_1_split_0
I1017 11:41:05.916931  8580 net.cpp:408] label_data_1_split -> label_data_1_split_1
I1017 11:41:05.916987  8580 net.cpp:150] Setting up label_data_1_split
I1017 11:41:05.916991  8580 net.cpp:157] Top shape: 100 (100)
I1017 11:41:05.916993  8580 net.cpp:157] Top shape: 100 (100)
I1017 11:41:05.916996  8580 net.cpp:165] Memory required for data: 1230000
I1017 11:41:05.916997  8580 layer_factory.hpp:77] Creating layer conv1
I1017 11:41:05.917003  8580 net.cpp:100] Creating Layer conv1
I1017 11:41:05.917006  8580 net.cpp:434] conv1 <- data
I1017 11:41:05.917009  8580 net.cpp:408] conv1 -> conv1
I1017 11:41:05.917827  8580 net.cpp:150] Setting up conv1
I1017 11:41:05.917835  8580 net.cpp:157] Top shape: 100 192 28 28 (15052800)
I1017 11:41:05.917839  8580 net.cpp:165] Memory required for data: 61441200
I1017 11:41:05.917845  8580 layer_factory.hpp:77] Creating layer pool1
I1017 11:41:05.917850  8580 net.cpp:100] Creating Layer pool1
I1017 11:41:05.917851  8580 net.cpp:434] pool1 <- conv1
I1017 11:41:05.917855  8580 net.cpp:408] pool1 -> pool1
I1017 11:41:05.917881  8580 net.cpp:150] Setting up pool1
I1017 11:41:05.917886  8580 net.cpp:157] Top shape: 100 192 14 14 (3763200)
I1017 11:41:05.917887  8580 net.cpp:165] Memory required for data: 76494000
I1017 11:41:05.917889  8580 layer_factory.hpp:77] Creating layer drop1
I1017 11:41:05.917894  8580 net.cpp:100] Creating Layer drop1
I1017 11:41:05.917896  8580 net.cpp:434] drop1 <- pool1
I1017 11:41:05.917901  8580 net.cpp:408] drop1 -> drop1
I1017 11:41:05.917923  8580 net.cpp:150] Setting up drop1
I1017 11:41:05.917927  8580 net.cpp:157] Top shape: 100 192 14 14 (3763200)
I1017 11:41:05.917929  8580 net.cpp:165] Memory required for data: 91546800
I1017 11:41:05.917930  8580 layer_factory.hpp:77] Creating layer relu1
I1017 11:41:05.917935  8580 net.cpp:100] Creating Layer relu1
I1017 11:41:05.917937  8580 net.cpp:434] relu1 <- drop1
I1017 11:41:05.917939  8580 net.cpp:408] relu1 -> relu1
I1017 11:41:05.918135  8580 net.cpp:150] Setting up relu1
I1017 11:41:05.918150  8580 net.cpp:157] Top shape: 100 192 14 14 (3763200)
I1017 11:41:05.918153  8580 net.cpp:165] Memory required for data: 106599600
I1017 11:41:05.918154  8580 layer_factory.hpp:77] Creating layer conv2
I1017 11:41:05.918159  8580 net.cpp:100] Creating Layer conv2
I1017 11:41:05.918161  8580 net.cpp:434] conv2 <- relu1
I1017 11:41:05.918164  8580 net.cpp:408] conv2 -> conv2
I1017 11:41:05.919090  8580 net.cpp:150] Setting up conv2
I1017 11:41:05.919100  8580 net.cpp:157] Top shape: 100 192 14 14 (3763200)
I1017 11:41:05.919101  8580 net.cpp:165] Memory required for data: 121652400
I1017 11:41:05.919107  8580 layer_factory.hpp:77] Creating layer conv3
I1017 11:41:05.919112  8580 net.cpp:100] Creating Layer conv3
I1017 11:41:05.919114  8580 net.cpp:434] conv3 <- conv2
I1017 11:41:05.919118  8580 net.cpp:408] conv3 -> conv3
I1017 11:41:05.921573  8580 net.cpp:150] Setting up conv3
I1017 11:41:05.921581  8580 net.cpp:157] Top shape: 100 240 12 12 (3456000)
I1017 11:41:05.921583  8580 net.cpp:165] Memory required for data: 135476400
I1017 11:41:05.921588  8580 layer_factory.hpp:77] Creating layer pool2
I1017 11:41:05.921594  8580 net.cpp:100] Creating Layer pool2
I1017 11:41:05.921597  8580 net.cpp:434] pool2 <- conv3
I1017 11:41:05.921599  8580 net.cpp:408] pool2 -> pool2
I1017 11:41:05.921625  8580 net.cpp:150] Setting up pool2
I1017 11:41:05.921629  8580 net.cpp:157] Top shape: 100 240 6 6 (864000)
I1017 11:41:05.921632  8580 net.cpp:165] Memory required for data: 138932400
I1017 11:41:05.921633  8580 layer_factory.hpp:77] Creating layer drop2
I1017 11:41:05.921638  8580 net.cpp:100] Creating Layer drop2
I1017 11:41:05.921638  8580 net.cpp:434] drop2 <- pool2
I1017 11:41:05.921643  8580 net.cpp:408] drop2 -> drop2
I1017 11:41:05.921665  8580 net.cpp:150] Setting up drop2
I1017 11:41:05.921669  8580 net.cpp:157] Top shape: 100 240 6 6 (864000)
I1017 11:41:05.921671  8580 net.cpp:165] Memory required for data: 142388400
I1017 11:41:05.921672  8580 layer_factory.hpp:77] Creating layer relu2
I1017 11:41:05.921676  8580 net.cpp:100] Creating Layer relu2
I1017 11:41:05.921679  8580 net.cpp:434] relu2 <- drop2
I1017 11:41:05.921681  8580 net.cpp:408] relu2 -> relu2
I1017 11:41:05.921795  8580 net.cpp:150] Setting up relu2
I1017 11:41:05.921800  8580 net.cpp:157] Top shape: 100 240 6 6 (864000)
I1017 11:41:05.921802  8580 net.cpp:165] Memory required for data: 145844400
I1017 11:41:05.921804  8580 layer_factory.hpp:77] Creating layer conv4
I1017 11:41:05.921809  8580 net.cpp:100] Creating Layer conv4
I1017 11:41:05.921811  8580 net.cpp:434] conv4 <- relu2
I1017 11:41:05.921814  8580 net.cpp:408] conv4 -> conv4
I1017 11:41:05.922673  8580 net.cpp:150] Setting up conv4
I1017 11:41:05.922682  8580 net.cpp:157] Top shape: 100 240 6 6 (864000)
I1017 11:41:05.922683  8580 net.cpp:165] Memory required for data: 149300400
I1017 11:41:05.922688  8580 layer_factory.hpp:77] Creating layer conv5
I1017 11:41:05.922691  8580 net.cpp:100] Creating Layer conv5
I1017 11:41:05.922693  8580 net.cpp:434] conv5 <- conv4
I1017 11:41:05.922698  8580 net.cpp:408] conv5 -> conv5
I1017 11:41:05.924450  8580 net.cpp:150] Setting up conv5
I1017 11:41:05.924458  8580 net.cpp:157] Top shape: 100 260 5 5 (650000)
I1017 11:41:05.924460  8580 net.cpp:165] Memory required for data: 151900400
I1017 11:41:05.924466  8580 layer_factory.hpp:77] Creating layer pool3
I1017 11:41:05.924470  8580 net.cpp:100] Creating Layer pool3
I1017 11:41:05.924473  8580 net.cpp:434] pool3 <- conv5
I1017 11:41:05.924476  8580 net.cpp:408] pool3 -> pool3
I1017 11:41:05.924502  8580 net.cpp:150] Setting up pool3
I1017 11:41:05.924509  8580 net.cpp:157] Top shape: 100 260 3 3 (234000)
I1017 11:41:05.924510  8580 net.cpp:165] Memory required for data: 152836400
I1017 11:41:05.924511  8580 layer_factory.hpp:77] Creating layer drop3
I1017 11:41:05.924515  8580 net.cpp:100] Creating Layer drop3
I1017 11:41:05.924516  8580 net.cpp:434] drop3 <- pool3
I1017 11:41:05.924520  8580 net.cpp:408] drop3 -> drop3
I1017 11:41:05.924543  8580 net.cpp:150] Setting up drop3
I1017 11:41:05.924547  8580 net.cpp:157] Top shape: 100 260 3 3 (234000)
I1017 11:41:05.924556  8580 net.cpp:165] Memory required for data: 153772400
I1017 11:41:05.924561  8580 layer_factory.hpp:77] Creating layer relu3
I1017 11:41:05.924564  8580 net.cpp:100] Creating Layer relu3
I1017 11:41:05.924566  8580 net.cpp:434] relu3 <- drop3
I1017 11:41:05.924569  8580 net.cpp:408] relu3 -> relu3
I1017 11:41:05.924686  8580 net.cpp:150] Setting up relu3
I1017 11:41:05.924691  8580 net.cpp:157] Top shape: 100 260 3 3 (234000)
I1017 11:41:05.924693  8580 net.cpp:165] Memory required for data: 154708400
I1017 11:41:05.924695  8580 layer_factory.hpp:77] Creating layer conv6
I1017 11:41:05.924701  8580 net.cpp:100] Creating Layer conv6
I1017 11:41:05.924702  8580 net.cpp:434] conv6 <- relu3
I1017 11:41:05.924706  8580 net.cpp:408] conv6 -> conv6
I1017 11:41:05.925916  8580 net.cpp:150] Setting up conv6
I1017 11:41:05.925925  8580 net.cpp:157] Top shape: 100 260 3 3 (234000)
I1017 11:41:05.925926  8580 net.cpp:165] Memory required for data: 155644400
I1017 11:41:05.925930  8580 layer_factory.hpp:77] Creating layer conv7
I1017 11:41:05.925936  8580 net.cpp:100] Creating Layer conv7
I1017 11:41:05.925938  8580 net.cpp:434] conv7 <- conv6
I1017 11:41:05.925942  8580 net.cpp:408] conv7 -> conv7
I1017 11:41:05.927898  8580 net.cpp:150] Setting up conv7
I1017 11:41:05.927909  8580 net.cpp:157] Top shape: 100 280 2 2 (112000)
I1017 11:41:05.927911  8580 net.cpp:165] Memory required for data: 156092400
I1017 11:41:05.927916  8580 layer_factory.hpp:77] Creating layer pool4
I1017 11:41:05.927920  8580 net.cpp:100] Creating Layer pool4
I1017 11:41:05.927923  8580 net.cpp:434] pool4 <- conv7
I1017 11:41:05.927927  8580 net.cpp:408] pool4 -> pool4
I1017 11:41:05.927955  8580 net.cpp:150] Setting up pool4
I1017 11:41:05.927959  8580 net.cpp:157] Top shape: 100 280 1 1 (28000)
I1017 11:41:05.927961  8580 net.cpp:165] Memory required for data: 156204400
I1017 11:41:05.927963  8580 layer_factory.hpp:77] Creating layer drop4
I1017 11:41:05.927968  8580 net.cpp:100] Creating Layer drop4
I1017 11:41:05.927971  8580 net.cpp:434] drop4 <- pool4
I1017 11:41:05.927974  8580 net.cpp:408] drop4 -> drop4
I1017 11:41:05.928001  8580 net.cpp:150] Setting up drop4
I1017 11:41:05.928005  8580 net.cpp:157] Top shape: 100 280 1 1 (28000)
I1017 11:41:05.928007  8580 net.cpp:165] Memory required for data: 156316400
I1017 11:41:05.928009  8580 layer_factory.hpp:77] Creating layer relu4
I1017 11:41:05.928014  8580 net.cpp:100] Creating Layer relu4
I1017 11:41:05.928015  8580 net.cpp:434] relu4 <- drop4
I1017 11:41:05.928020  8580 net.cpp:408] relu4 -> relu4
I1017 11:41:05.928133  8580 net.cpp:150] Setting up relu4
I1017 11:41:05.928139  8580 net.cpp:157] Top shape: 100 280 1 1 (28000)
I1017 11:41:05.928141  8580 net.cpp:165] Memory required for data: 156428400
I1017 11:41:05.928143  8580 layer_factory.hpp:77] Creating layer conv8
I1017 11:41:05.928148  8580 net.cpp:100] Creating Layer conv8
I1017 11:41:05.928150  8580 net.cpp:434] conv8 <- relu4
I1017 11:41:05.928154  8580 net.cpp:408] conv8 -> conv8
I1017 11:41:05.929090  8580 net.cpp:150] Setting up conv8
I1017 11:41:05.929097  8580 net.cpp:157] Top shape: 100 280 1 1 (28000)
I1017 11:41:05.929100  8580 net.cpp:165] Memory required for data: 156540400
I1017 11:41:05.929103  8580 layer_factory.hpp:77] Creating layer pool5
I1017 11:41:05.929107  8580 net.cpp:100] Creating Layer pool5
I1017 11:41:05.929111  8580 net.cpp:434] pool5 <- conv8
I1017 11:41:05.929114  8580 net.cpp:408] pool5 -> pool5
I1017 11:41:05.929141  8580 net.cpp:150] Setting up pool5
I1017 11:41:05.929146  8580 net.cpp:157] Top shape: 100 280 1 1 (28000)
I1017 11:41:05.929147  8580 net.cpp:165] Memory required for data: 156652400
I1017 11:41:05.929149  8580 layer_factory.hpp:77] Creating layer drop5
I1017 11:41:05.929153  8580 net.cpp:100] Creating Layer drop5
I1017 11:41:05.929155  8580 net.cpp:434] drop5 <- pool5
I1017 11:41:05.929159  8580 net.cpp:408] drop5 -> drop5
I1017 11:41:05.929183  8580 net.cpp:150] Setting up drop5
I1017 11:41:05.929186  8580 net.cpp:157] Top shape: 100 280 1 1 (28000)
I1017 11:41:05.929196  8580 net.cpp:165] Memory required for data: 156764400
I1017 11:41:05.929199  8580 layer_factory.hpp:77] Creating layer relu5
I1017 11:41:05.929203  8580 net.cpp:100] Creating Layer relu5
I1017 11:41:05.929203  8580 net.cpp:434] relu5 <- drop5
I1017 11:41:05.929208  8580 net.cpp:408] relu5 -> relu5
I1017 11:41:05.929404  8580 net.cpp:150] Setting up relu5
I1017 11:41:05.929411  8580 net.cpp:157] Top shape: 100 280 1 1 (28000)
I1017 11:41:05.929414  8580 net.cpp:165] Memory required for data: 156876400
I1017 11:41:05.929415  8580 layer_factory.hpp:77] Creating layer conv10
I1017 11:41:05.929421  8580 net.cpp:100] Creating Layer conv10
I1017 11:41:05.929425  8580 net.cpp:434] conv10 <- relu5
I1017 11:41:05.929427  8580 net.cpp:408] conv10 -> conv10
I1017 11:41:05.930384  8580 net.cpp:150] Setting up conv10
I1017 11:41:05.930392  8580 net.cpp:157] Top shape: 100 300 1 1 (30000)
I1017 11:41:05.930394  8580 net.cpp:165] Memory required for data: 156996400
I1017 11:41:05.930402  8580 layer_factory.hpp:77] Creating layer pool6
I1017 11:41:05.930407  8580 net.cpp:100] Creating Layer pool6
I1017 11:41:05.930408  8580 net.cpp:434] pool6 <- conv10
I1017 11:41:05.930413  8580 net.cpp:408] pool6 -> pool6
I1017 11:41:05.930440  8580 net.cpp:150] Setting up pool6
I1017 11:41:05.930449  8580 net.cpp:157] Top shape: 100 300 1 1 (30000)
I1017 11:41:05.930451  8580 net.cpp:165] Memory required for data: 157116400
I1017 11:41:05.930454  8580 layer_factory.hpp:77] Creating layer drop6
I1017 11:41:05.930456  8580 net.cpp:100] Creating Layer drop6
I1017 11:41:05.930459  8580 net.cpp:434] drop6 <- pool6
I1017 11:41:05.930461  8580 net.cpp:408] drop6 -> drop6
I1017 11:41:05.930486  8580 net.cpp:150] Setting up drop6
I1017 11:41:05.930490  8580 net.cpp:157] Top shape: 100 300 1 1 (30000)
I1017 11:41:05.930492  8580 net.cpp:165] Memory required for data: 157236400
I1017 11:41:05.930495  8580 layer_factory.hpp:77] Creating layer relu6
I1017 11:41:05.930497  8580 net.cpp:100] Creating Layer relu6
I1017 11:41:05.930500  8580 net.cpp:434] relu6 <- drop6
I1017 11:41:05.930503  8580 net.cpp:408] relu6 -> relu6
I1017 11:41:05.930616  8580 net.cpp:150] Setting up relu6
I1017 11:41:05.930622  8580 net.cpp:157] Top shape: 100 300 1 1 (30000)
I1017 11:41:05.930624  8580 net.cpp:165] Memory required for data: 157356400
I1017 11:41:05.930626  8580 layer_factory.hpp:77] Creating layer conv11
I1017 11:41:05.930631  8580 net.cpp:100] Creating Layer conv11
I1017 11:41:05.930634  8580 net.cpp:434] conv11 <- relu6
I1017 11:41:05.930637  8580 net.cpp:408] conv11 -> conv11
I1017 11:41:05.931393  8580 net.cpp:150] Setting up conv11
I1017 11:41:05.931402  8580 net.cpp:157] Top shape: 100 100 1 1 (10000)
I1017 11:41:05.931404  8580 net.cpp:165] Memory required for data: 157396400
I1017 11:41:05.931408  8580 layer_factory.hpp:77] Creating layer pool7
I1017 11:41:05.931412  8580 net.cpp:100] Creating Layer pool7
I1017 11:41:05.931416  8580 net.cpp:434] pool7 <- conv11
I1017 11:41:05.931418  8580 net.cpp:408] pool7 -> pool7
I1017 11:41:05.931448  8580 net.cpp:150] Setting up pool7
I1017 11:41:05.931452  8580 net.cpp:157] Top shape: 100 100 1 1 (10000)
I1017 11:41:05.931455  8580 net.cpp:165] Memory required for data: 157436400
I1017 11:41:05.931457  8580 layer_factory.hpp:77] Creating layer drop7
I1017 11:41:05.931459  8580 net.cpp:100] Creating Layer drop7
I1017 11:41:05.931463  8580 net.cpp:434] drop7 <- pool7
I1017 11:41:05.931465  8580 net.cpp:408] drop7 -> drop7
I1017 11:41:05.931489  8580 net.cpp:150] Setting up drop7
I1017 11:41:05.931493  8580 net.cpp:157] Top shape: 100 100 1 1 (10000)
I1017 11:41:05.931496  8580 net.cpp:165] Memory required for data: 157476400
I1017 11:41:05.931499  8580 layer_factory.hpp:77] Creating layer relu7
I1017 11:41:05.931504  8580 net.cpp:100] Creating Layer relu7
I1017 11:41:05.931506  8580 net.cpp:434] relu7 <- drop7
I1017 11:41:05.931509  8580 net.cpp:408] relu7 -> relu7
I1017 11:41:05.931623  8580 net.cpp:150] Setting up relu7
I1017 11:41:05.931628  8580 net.cpp:157] Top shape: 100 100 1 1 (10000)
I1017 11:41:05.931638  8580 net.cpp:165] Memory required for data: 157516400
I1017 11:41:05.931639  8580 layer_factory.hpp:77] Creating layer pool
I1017 11:41:05.931644  8580 net.cpp:100] Creating Layer pool
I1017 11:41:05.931646  8580 net.cpp:434] pool <- relu7
I1017 11:41:05.931649  8580 net.cpp:408] pool -> pool
I1017 11:41:05.931844  8580 net.cpp:150] Setting up pool
I1017 11:41:05.931851  8580 net.cpp:157] Top shape: 100 100 1 1 (10000)
I1017 11:41:05.931854  8580 net.cpp:165] Memory required for data: 157556400
I1017 11:41:05.931856  8580 layer_factory.hpp:77] Creating layer flatten
I1017 11:41:05.931859  8580 net.cpp:100] Creating Layer flatten
I1017 11:41:05.931862  8580 net.cpp:434] flatten <- pool
I1017 11:41:05.931865  8580 net.cpp:408] flatten -> flatten
I1017 11:41:05.931882  8580 net.cpp:150] Setting up flatten
I1017 11:41:05.931886  8580 net.cpp:157] Top shape: 100 100 (10000)
I1017 11:41:05.931888  8580 net.cpp:165] Memory required for data: 157596400
I1017 11:41:05.931890  8580 layer_factory.hpp:77] Creating layer score
I1017 11:41:05.931895  8580 net.cpp:100] Creating Layer score
I1017 11:41:05.931897  8580 net.cpp:434] score <- flatten
I1017 11:41:05.931900  8580 net.cpp:408] score -> score
I1017 11:41:05.931988  8580 net.cpp:150] Setting up score
I1017 11:41:05.931993  8580 net.cpp:157] Top shape: 100 10 (1000)
I1017 11:41:05.931994  8580 net.cpp:165] Memory required for data: 157600400
I1017 11:41:05.931998  8580 layer_factory.hpp:77] Creating layer score_score_0_split
I1017 11:41:05.932001  8580 net.cpp:100] Creating Layer score_score_0_split
I1017 11:41:05.932004  8580 net.cpp:434] score_score_0_split <- score
I1017 11:41:05.932006  8580 net.cpp:408] score_score_0_split -> score_score_0_split_0
I1017 11:41:05.932013  8580 net.cpp:408] score_score_0_split -> score_score_0_split_1
I1017 11:41:05.932035  8580 net.cpp:150] Setting up score_score_0_split
I1017 11:41:05.932039  8580 net.cpp:157] Top shape: 100 10 (1000)
I1017 11:41:05.932041  8580 net.cpp:157] Top shape: 100 10 (1000)
I1017 11:41:05.932044  8580 net.cpp:165] Memory required for data: 157608400
I1017 11:41:05.932045  8580 layer_factory.hpp:77] Creating layer accuracy
I1017 11:41:05.932049  8580 net.cpp:100] Creating Layer accuracy
I1017 11:41:05.932051  8580 net.cpp:434] accuracy <- score_score_0_split_0
I1017 11:41:05.932054  8580 net.cpp:434] accuracy <- label_data_1_split_0
I1017 11:41:05.932059  8580 net.cpp:408] accuracy -> accuracy
…
