…
type: "Nesterov"
I1020 01:40:13.349200  8813 solver.cpp:81] Creating training net from train_net file: /home/adam/Honours/Honours-Project/cifar-10_pooling/max/relu/poolcnn_relu_train.prototxt
I1020 01:40:13.349484  8813 net.cpp:58] Initializing net from parameters: 
state {
  phase: TRAIN
  level: 0
  stage: ""
}
layer {
  name: "data"
  type: "Data"
  top: "data"
  top: "label"
  transform_param {
    mean_file: "mean.binaryproto"
  }
  data_param {
    source: "../../../../data/cifar-10/cifar10_train_lmdb"
    batch_size: 64
    backend: LMDB
  }
}
layer {
  name: "conv1"
  type: "Convolution"
  bottom: "data"
  top: "conv1"
  convolution_param {
    num_output: 192
    kernel_size: 5
    weight_filler {
      type: "xavier"
    }
  }
}
layer {
  name: "relu1"
  type: "ReLU"
  bottom: "conv1"
  top: "relu1"
}
layer {
  name: "drop1"
  type: "Dropout"
  bottom: "relu1"
  top: "drop1"
  dropout_param {
    dropout_ratio: 0
  }
}
layer {
  name: "pool1"
  type: "Pooling"
  bottom: "drop1"
  top: "pool1"
  pooling_param {
    pool: MAX
    kernel_size: 2
    stride: 2
  }
}
layer {
  name: "conv2"
  type: "Convolution"
  bottom: "pool1"
  top: "conv2"
  convolution_param {
    num_output: 192
    kernel_size: 1
    weight_filler {
      type: "xavier"
    }
  }
}
layer {
  name: "relu2"
  type: "ReLU"
  bottom: "conv2"
  top: "relu2"
}
layer {
  name: "conv3"
  type: "Convolution"
  bottom: "relu2"
  top: "conv3"
  convolution_param {
    num_output: 240
    kernel_size: 3
    weight_filler {
      type: "xavier"
    }
  }
}
layer {
  name: "relu3"
  type: "ReLU"
  bottom: "conv3"
  top: "relu3"
}
layer {
  name: "drop2"
  type: "Dropout"
  bottom: "relu3"
  top: "drop2"
  dropout_param {
    dropout_ratio: 0.1
  }
}
layer {
  name: "pool2"
  type: "Pooling"
  bottom: "drop2"
  top: "pool2"
  pooling_param {
    pool: MAX
    kernel_size: 2
    stride: 2
  }
}
layer {
  name: "conv4"
  type: "Convolution"
  bottom: "pool2"
  top: "conv4"
  convolution_param {
    num_output: 240
    kernel_size: 1
    weight_filler {
      type: "xavier"
    }
  }
}
layer {
  name: "relu4"
  type: "ReLU"
  bottom: "conv4"
  top: "relu4"
}
layer {
  name: "conv5"
  type: "Convolution"
  bottom: "relu4"
  top: "conv5"
  convolution_param {
    num_output: 260
    kernel_size: 2
    weight_filler {
      type: "xavier"
    }
  }
}
layer {
  name: "relu5"
  type: "ReLU"
  bottom: "conv5"
  top: "relu5"
}
layer {
  name: "drop3"
  type: "Dropout"
  bottom: "relu5"
  top: "drop3"
  dropout_param {
    dropout_ratio: 0.2
  }
}
layer {
  name: "pool3"
  type: "Pooling"
  bottom: "drop3"
  top: "pool3"
  pooling_param {
    pool: MAX
    kernel_size: 2
    stride: 2
  }
}
layer {
  name: "conv6"
  type: "Convolution"
  bottom: "pool3"
  top: "conv6"
  convolution_param {
    num_output: 260
    kernel_size: 1
    weight_filler {
      type: "xavier"
    }
  }
}
layer {
  name: "relu6"
  type: "ReLU"
  bottom: "conv6"
  top: "relu6"
}
layer {
  name: "conv7"
  type: "Convolution"
  bottom: "relu6"
  top: "conv7"
  convolution_param {
    num_output: 280
    kernel_size: 2
    weight_filler {
      type: "xavier"
    }
  }
}
layer {
  name: "relu7"
  type: "ReLU"
  bottom: "conv7"
  top: "relu7"
}
layer {
  name: "drop4"
  type: "Dropout"
  bottom: "relu7"
  top: "drop4"
  dropout_param {
    dropout_ratio: 0.3
  }
}
layer {
  name: "pool4"
  type: "Pooling"
  bottom: "drop4"
  top: "pool4"
  pooling_param {
    pool: MAX
    kernel_size: 2
    stride: 2
  }
}
layer {
  name: "conv8"
  type: "Convolution"
  bottom: "pool4"
  top: "conv8"
  convolution_param {
    num_output: 280
    kernel_size: 1
    weight_filler {
      type: "xavier"
    }
  }
}
layer {
  name: "relu8"
  type: "ReLU"
  bottom: "conv8"
  top: "relu8"
}
layer {
  name: "drop5"
  type: "Dropout"
  bottom: "relu8"
  top: "drop5"
  dropout_param {
    dropout_ratio: 0.4
  }
}
layer {
  name: "pool5"
  type: "Pooling"
  bottom: "drop5"
  top: "pool5"
  pooling_param {
    pool: MAX
    kernel_size: 2
    stride: 2
  }
}
layer {
  name: "conv10"
  type: "Convolution"
  bottom: "pool5"
  top: "conv10"
  convolution_param {
    num_output: 300
    kernel_size: 1
    weight_filler {
      type: "xavier"
    }
  }
}
layer {
  name: "relu10"
  type: "ReLU"
  bottom: "conv10"
  top: "relu10"
}
layer {
  name: "drop6"
  type: "Dropout"
  bottom: "relu10"
  top: "drop6"
  dropout_param {
    dropout_ratio: 0.5
  }
}
layer {
  name: "pool6"
  type: "Pooling"
  bottom: "drop6"
  top: "pool6"
  pooling_param {
    pool: MAX
    kernel_size: 2
    stride: 2
  }
}
layer {
  name: "conv11"
  type: "Convolution"
  bottom: "pool6"
  top: "conv11"
  convolution_param {
    num_output: 100
    kernel_size: 1
    weight_filler {
      type: "xavier"
    }
  }
}
layer {
  name: "relu11"
  type: "ReLU"
  bottom: "conv11"
  top: "relu11"
}
layer {
  name: "drop7"
  type: "Dropout"
  bottom: "relu11"
  top: "drop7"
  dropout_param {
    dropout_ratio: 0
  }
}
layer {
  name: "pool7"
  type: "Pooling"
  bottom: "drop7"
  top: "pool7"
  pooling_param {
    pool: MAX
    kernel_size: 2
    stride: 2
  }
}
layer {
  name: "score"
  type: "InnerProduct"
  bottom: "pool7"
  top: "score"
  inner_product_param {
    num_output: 10
    weight_filler {
      type: "gaussian"
    }
  }
}
layer {
  name: "accuracy"
  type: "Accuracy"
  bottom: "score"
  bottom: "label"
  top: "accuracy"
}
layer {
  name: "loss"
  type: "SoftmaxWithLoss"
  bottom: "score"
  bottom: "label"
  top: "loss"
}
I1020 01:40:13.350106  8813 layer_factory.hpp:77] Creating layer data
I1020 01:40:13.350582  8813 net.cpp:100] Creating Layer data
I1020 01:40:13.350590  8813 net.cpp:408] data -> data
I1020 01:40:13.350610  8813 net.cpp:408] data -> label
I1020 01:40:13.350625  8813 data_transformer.cpp:25] Loading mean file from: mean.binaryproto
I1020 01:40:13.351243  8818 db_lmdb.cpp:35] Opened lmdb ../../../../data/cifar-10/cifar10_train_lmdb
I1020 01:40:13.356586  8813 data_layer.cpp:41] output data size: 64,3,32,32
I1020 01:40:13.358089  8813 net.cpp:150] Setting up data
I1020 01:40:13.358108  8813 net.cpp:157] Top shape: 64 3 32 32 (196608)
I1020 01:40:13.358113  8813 net.cpp:157] Top shape: 64 (64)
I1020 01:40:13.358115  8813 net.cpp:165] Memory required for data: 786688
I1020 01:40:13.358125  8813 layer_factory.hpp:77] Creating layer label_data_1_split
I1020 01:40:13.358140  8813 net.cpp:100] Creating Layer label_data_1_split
I1020 01:40:13.358147  8813 net.cpp:434] label_data_1_split <- label
I1020 01:40:13.358161  8813 net.cpp:408] label_data_1_split -> label_data_1_split_0
I1020 01:40:13.358171  8813 net.cpp:408] label_data_1_split -> label_data_1_split_1
I1020 01:40:13.358204  8813 net.cpp:150] Setting up label_data_1_split
I1020 01:40:13.358209  8813 net.cpp:157] Top shape: 64 (64)
I1020 01:40:13.358213  8813 net.cpp:157] Top shape: 64 (64)
I1020 01:40:13.358217  8813 net.cpp:165] Memory required for data: 787200
I1020 01:40:13.358219  8813 layer_factory.hpp:77] Creating layer conv1
I1020 01:40:13.358234  8813 net.cpp:100] Creating Layer conv1
I1020 01:40:13.358238  8813 net.cpp:434] conv1 <- data
I1020 01:40:13.358245  8813 net.cpp:408] conv1 -> conv1
I1020 01:40:13.480792  8813 net.cpp:150] Setting up conv1
I1020 01:40:13.480815  8813 net.cpp:157] Top shape: 64 192 28 28 (9633792)
I1020 01:40:13.480818  8813 net.cpp:165] Memory required for data: 39322368
I1020 01:40:13.480835  8813 layer_factory.hpp:77] Creating layer relu1
I1020 01:40:13.480844  8813 net.cpp:100] Creating Layer relu1
I1020 01:40:13.480846  8813 net.cpp:434] relu1 <- conv1
I1020 01:40:13.480866  8813 net.cpp:408] relu1 -> relu1
I1020 01:40:13.480985  8813 net.cpp:150] Setting up relu1
I1020 01:40:13.480990  8813 net.cpp:157] Top shape: 64 192 28 28 (9633792)
I1020 01:40:13.480993  8813 net.cpp:165] Memory required for data: 77857536
I1020 01:40:13.480994  8813 layer_factory.hpp:77] Creating layer drop1
I1020 01:40:13.481000  8813 net.cpp:100] Creating Layer drop1
I1020 01:40:13.481003  8813 net.cpp:434] drop1 <- relu1
I1020 01:40:13.481004  8813 net.cpp:408] drop1 -> drop1
I1020 01:40:13.481027  8813 net.cpp:150] Setting up drop1
I1020 01:40:13.481031  8813 net.cpp:157] Top shape: 64 192 28 28 (9633792)
I1020 01:40:13.481034  8813 net.cpp:165] Memory required for data: 116392704
I1020 01:40:13.481034  8813 layer_factory.hpp:77] Creating layer pool1
I1020 01:40:13.481039  8813 net.cpp:100] Creating Layer pool1
I1020 01:40:13.481041  8813 net.cpp:434] pool1 <- drop1
I1020 01:40:13.481043  8813 net.cpp:408] pool1 -> pool1
I1020 01:40:13.481070  8813 net.cpp:150] Setting up pool1
I1020 01:40:13.481075  8813 net.cpp:157] Top shape: 64 192 14 14 (2408448)
I1020 01:40:13.481076  8813 net.cpp:165] Memory required for data: 126026496
I1020 01:40:13.481078  8813 layer_factory.hpp:77] Creating layer conv2
I1020 01:40:13.481083  8813 net.cpp:100] Creating Layer conv2
I1020 01:40:13.481086  8813 net.cpp:434] conv2 <- pool1
I1020 01:40:13.481088  8813 net.cpp:408] conv2 -> conv2
I1020 01:40:13.482094  8813 net.cpp:150] Setting up conv2
I1020 01:40:13.482101  8813 net.cpp:157] Top shape: 64 192 14 14 (2408448)
I1020 01:40:13.482103  8813 net.cpp:165] Memory required for data: 135660288
I1020 01:40:13.482108  8813 layer_factory.hpp:77] Creating layer relu2
I1020 01:40:13.482112  8813 net.cpp:100] Creating Layer relu2
I1020 01:40:13.482113  8813 net.cpp:434] relu2 <- conv2
I1020 01:40:13.482116  8813 net.cpp:408] relu2 -> relu2
I1020 01:40:13.482229  8813 net.cpp:150] Setting up relu2
I1020 01:40:13.482234  8813 net.cpp:157] Top shape: 64 192 14 14 (2408448)
I1020 01:40:13.482236  8813 net.cpp:165] Memory required for data: 145294080
I1020 01:40:13.482237  8813 layer_factory.hpp:77] Creating layer conv3
I1020 01:40:13.482244  8813 net.cpp:100] Creating Layer conv3
I1020 01:40:13.482245  8813 net.cpp:434] conv3 <- relu2
I1020 01:40:13.482249  8813 net.cpp:408] conv3 -> conv3
I1020 01:40:13.484627  8813 net.cpp:150] Setting up conv3
I1020 01:40:13.484637  8813 net.cpp:157] Top shape: 64 240 12 12 (2211840)
I1020 01:40:13.484639  8813 net.cpp:165] Memory required for data: 154141440
I1020 01:40:13.484645  8813 layer_factory.hpp:77] Creating layer relu3
I1020 01:40:13.484649  8813 net.cpp:100] Creating Layer relu3
I1020 01:40:13.484652  8813 net.cpp:434] relu3 <- conv3
I1020 01:40:13.484654  8813 net.cpp:408] relu3 -> relu3
I1020 01:40:13.484830  8813 net.cpp:150] Setting up relu3
I1020 01:40:13.484836  8813 net.cpp:157] Top shape: 64 240 12 12 (2211840)
I1020 01:40:13.484839  8813 net.cpp:165] Memory required for data: 162988800
I1020 01:40:13.484841  8813 layer_factory.hpp:77] Creating layer drop2
I1020 01:40:13.484844  8813 net.cpp:100] Creating Layer drop2
I1020 01:40:13.484846  8813 net.cpp:434] drop2 <- relu3
I1020 01:40:13.484849  8813 net.cpp:408] drop2 -> drop2
I1020 01:40:13.484869  8813 net.cpp:150] Setting up drop2
I1020 01:40:13.484874  8813 net.cpp:157] Top shape: 64 240 12 12 (2211840)
I1020 01:40:13.484875  8813 net.cpp:165] Memory required for data: 171836160
I1020 01:40:13.484879  8813 layer_factory.hpp:77] Creating layer pool2
I1020 01:40:13.484881  8813 net.cpp:100] Creating Layer pool2
I1020 01:40:13.484884  8813 net.cpp:434] pool2 <- drop2
I1020 01:40:13.484886  8813 net.cpp:408] pool2 -> pool2
I1020 01:40:13.484906  8813 net.cpp:150] Setting up pool2
I1020 01:40:13.484910  8813 net.cpp:157] Top shape: 64 240 6 6 (552960)
I1020 01:40:13.484911  8813 net.cpp:165] Memory required for data: 174048000
I1020 01:40:13.484913  8813 layer_factory.hpp:77] Creating layer conv4
I1020 01:40:13.484917  8813 net.cpp:100] Creating Layer conv4
I1020 01:40:13.484920  8813 net.cpp:434] conv4 <- pool2
I1020 01:40:13.484931  8813 net.cpp:408] conv4 -> conv4
I1020 01:40:13.485707  8813 net.cpp:150] Setting up conv4
I1020 01:40:13.485714  8813 net.cpp:157] Top shape: 64 240 6 6 (552960)
I1020 01:40:13.485715  8813 net.cpp:165] Memory required for data: 176259840
I1020 01:40:13.485719  8813 layer_factory.hpp:77] Creating layer relu4
I1020 01:40:13.485723  8813 net.cpp:100] Creating Layer relu4
I1020 01:40:13.485724  8813 net.cpp:434] relu4 <- conv4
I1020 01:40:13.485728  8813 net.cpp:408] relu4 -> relu4
I1020 01:40:13.485828  8813 net.cpp:150] Setting up relu4
I1020 01:40:13.485833  8813 net.cpp:157] Top shape: 64 240 6 6 (552960)
I1020 01:40:13.485836  8813 net.cpp:165] Memory required for data: 178471680
I1020 01:40:13.485837  8813 layer_factory.hpp:77] Creating layer conv5
I1020 01:40:13.485842  8813 net.cpp:100] Creating Layer conv5
I1020 01:40:13.485843  8813 net.cpp:434] conv5 <- relu4
I1020 01:40:13.485847  8813 net.cpp:408] conv5 -> conv5
I1020 01:40:13.487543  8813 net.cpp:150] Setting up conv5
I1020 01:40:13.487551  8813 net.cpp:157] Top shape: 64 260 5 5 (416000)
I1020 01:40:13.487553  8813 net.cpp:165] Memory required for data: 180135680
I1020 01:40:13.487560  8813 layer_factory.hpp:77] Creating layer relu5
I1020 01:40:13.487562  8813 net.cpp:100] Creating Layer relu5
I1020 01:40:13.487563  8813 net.cpp:434] relu5 <- conv5
I1020 01:40:13.487566  8813 net.cpp:408] relu5 -> relu5
I1020 01:40:13.487668  8813 net.cpp:150] Setting up relu5
I1020 01:40:13.487673  8813 net.cpp:157] Top shape: 64 260 5 5 (416000)
I1020 01:40:13.487675  8813 net.cpp:165] Memory required for data: 181799680
I1020 01:40:13.487678  8813 layer_factory.hpp:77] Creating layer drop3
I1020 01:40:13.487681  8813 net.cpp:100] Creating Layer drop3
I1020 01:40:13.487684  8813 net.cpp:434] drop3 <- relu5
I1020 01:40:13.487686  8813 net.cpp:408] drop3 -> drop3
I1020 01:40:13.487706  8813 net.cpp:150] Setting up drop3
I1020 01:40:13.487710  8813 net.cpp:157] Top shape: 64 260 5 5 (416000)
I1020 01:40:13.487712  8813 net.cpp:165] Memory required for data: 183463680
I1020 01:40:13.487715  8813 layer_factory.hpp:77] Creating layer pool3
I1020 01:40:13.487717  8813 net.cpp:100] Creating Layer pool3
I1020 01:40:13.487720  8813 net.cpp:434] pool3 <- drop3
I1020 01:40:13.487722  8813 net.cpp:408] pool3 -> pool3
I1020 01:40:13.487741  8813 net.cpp:150] Setting up pool3
I1020 01:40:13.487746  8813 net.cpp:157] Top shape: 64 260 3 3 (149760)
I1020 01:40:13.487747  8813 net.cpp:165] Memory required for data: 184062720
I1020 01:40:13.487748  8813 layer_factory.hpp:77] Creating layer conv6
I1020 01:40:13.487752  8813 net.cpp:100] Creating Layer conv6
I1020 01:40:13.487754  8813 net.cpp:434] conv6 <- pool3
I1020 01:40:13.487757  8813 net.cpp:408] conv6 -> conv6
I1020 01:40:13.488832  8813 net.cpp:150] Setting up conv6
I1020 01:40:13.488840  8813 net.cpp:157] Top shape: 64 260 3 3 (149760)
I1020 01:40:13.488842  8813 net.cpp:165] Memory required for data: 184661760
I1020 01:40:13.488847  8813 layer_factory.hpp:77] Creating layer relu6
I1020 01:40:13.488850  8813 net.cpp:100] Creating Layer relu6
I1020 01:40:13.488853  8813 net.cpp:434] relu6 <- conv6
I1020 01:40:13.488857  8813 net.cpp:408] relu6 -> relu6
I1020 01:40:13.489037  8813 net.cpp:150] Setting up relu6
I1020 01:40:13.489044  8813 net.cpp:157] Top shape: 64 260 3 3 (149760)
I1020 01:40:13.489047  8813 net.cpp:165] Memory required for data: 185260800
I1020 01:40:13.489048  8813 layer_factory.hpp:77] Creating layer conv7
I1020 01:40:13.489053  8813 net.cpp:100] Creating Layer conv7
I1020 01:40:13.489055  8813 net.cpp:434] conv7 <- relu6
I1020 01:40:13.489058  8813 net.cpp:408] conv7 -> conv7
I1020 01:40:13.490929  8813 net.cpp:150] Setting up conv7
I1020 01:40:13.490937  8813 net.cpp:157] Top shape: 64 280 2 2 (71680)
I1020 01:40:13.490941  8813 net.cpp:165] Memory required for data: 185547520
I1020 01:40:13.490943  8813 layer_factory.hpp:77] Creating layer relu7
I1020 01:40:13.490947  8813 net.cpp:100] Creating Layer relu7
I1020 01:40:13.490949  8813 net.cpp:434] relu7 <- conv7
I1020 01:40:13.490953  8813 net.cpp:408] relu7 -> relu7
I1020 01:40:13.491068  8813 net.cpp:150] Setting up relu7
I1020 01:40:13.491075  8813 net.cpp:157] Top shape: 64 280 2 2 (71680)
I1020 01:40:13.491076  8813 net.cpp:165] Memory required for data: 185834240
I1020 01:40:13.491078  8813 layer_factory.hpp:77] Creating layer drop4
I1020 01:40:13.491082  8813 net.cpp:100] Creating Layer drop4
I1020 01:40:13.491084  8813 net.cpp:434] drop4 <- relu7
I1020 01:40:13.491087  8813 net.cpp:408] drop4 -> drop4
I1020 01:40:13.491108  8813 net.cpp:150] Setting up drop4
I1020 01:40:13.491113  8813 net.cpp:157] Top shape: 64 280 2 2 (71680)
I1020 01:40:13.491114  8813 net.cpp:165] Memory required for data: 186120960
I1020 01:40:13.491117  8813 layer_factory.hpp:77] Creating layer pool4
I1020 01:40:13.491119  8813 net.cpp:100] Creating Layer pool4
I1020 01:40:13.491122  8813 net.cpp:434] pool4 <- drop4
I1020 01:40:13.491124  8813 net.cpp:408] pool4 -> pool4
I1020 01:40:13.491143  8813 net.cpp:150] Setting up pool4
I1020 01:40:13.491147  8813 net.cpp:157] Top shape: 64 280 1 1 (17920)
I1020 01:40:13.491148  8813 net.cpp:165] Memory required for data: 186192640
I1020 01:40:13.491150  8813 layer_factory.hpp:77] Creating layer conv8
I1020 01:40:13.491154  8813 net.cpp:100] Creating Layer conv8
I1020 01:40:13.491156  8813 net.cpp:434] conv8 <- pool4
I1020 01:40:13.491159  8813 net.cpp:408] conv8 -> conv8
I1020 01:40:13.492321  8813 net.cpp:150] Setting up conv8
I1020 01:40:13.492333  8813 net.cpp:157] Top shape: 64 280 1 1 (17920)
I1020 01:40:13.492336  8813 net.cpp:165] Memory required for data: 186264320
I1020 01:40:13.492341  8813 layer_factory.hpp:77] Creating layer relu8
I1020 01:40:13.492346  8813 net.cpp:100] Creating Layer relu8
I1020 01:40:13.492347  8813 net.cpp:434] relu8 <- conv8
I1020 01:40:13.492352  8813 net.cpp:408] relu8 -> relu8
I1020 01:40:13.492460  8813 net.cpp:150] Setting up relu8
I1020 01:40:13.492465  8813 net.cpp:157] Top shape: 64 280 1 1 (17920)
I1020 01:40:13.492466  8813 net.cpp:165] Memory required for data: 186336000
I1020 01:40:13.492470  8813 layer_factory.hpp:77] Creating layer drop5
I1020 01:40:13.492473  8813 net.cpp:100] Creating Layer drop5
I1020 01:40:13.492476  8813 net.cpp:434] drop5 <- relu8
I1020 01:40:13.492480  8813 net.cpp:408] drop5 -> drop5
I1020 01:40:13.492501  8813 net.cpp:150] Setting up drop5
I1020 01:40:13.492506  8813 net.cpp:157] Top shape: 64 280 1 1 (17920)
I1020 01:40:13.492507  8813 net.cpp:165] Memory required for data: 186407680
I1020 01:40:13.492509  8813 layer_factory.hpp:77] Creating layer pool5
I1020 01:40:13.492512  8813 net.cpp:100] Creating Layer pool5
I1020 01:40:13.492514  8813 net.cpp:434] pool5 <- drop5
I1020 01:40:13.492517  8813 net.cpp:408] pool5 -> pool5
I1020 01:40:13.492538  8813 net.cpp:150] Setting up pool5
I1020 01:40:13.492542  8813 net.cpp:157] Top shape: 64 280 1 1 (17920)
I1020 01:40:13.492544  8813 net.cpp:165] Memory required for data: 186479360
I1020 01:40:13.492545  8813 layer_factory.hpp:77] Creating layer conv10
I1020 01:40:13.492550  8813 net.cpp:100] Creating Layer conv10
I1020 01:40:13.492553  8813 net.cpp:434] conv10 <- pool5
I1020 01:40:13.492555  8813 net.cpp:408] conv10 -> conv10
I1020 01:40:13.493490  8813 net.cpp:150] Setting up conv10
I1020 01:40:13.493499  8813 net.cpp:157] Top shape: 64 300 1 1 (19200)
I1020 01:40:13.493500  8813 net.cpp:165] Memory required for data: 186556160
I1020 01:40:13.493507  8813 layer_factory.hpp:77] Creating layer relu10
I1020 01:40:13.493510  8813 net.cpp:100] Creating Layer relu10
I1020 01:40:13.493512  8813 net.cpp:434] relu10 <- conv10
I1020 01:40:13.493516  8813 net.cpp:408] relu10 -> relu10
I1020 01:40:13.493697  8813 net.cpp:150] Setting up relu10
I1020 01:40:13.493703  8813 net.cpp:157] Top shape: 64 300 1 1 (19200)
I1020 01:40:13.493705  8813 net.cpp:165] Memory required for data: 186632960
I1020 01:40:13.493707  8813 layer_factory.hpp:77] Creating layer drop6
I1020 01:40:13.493711  8813 net.cpp:100] Creating Layer drop6
I1020 01:40:13.493712  8813 net.cpp:434] drop6 <- relu10
I1020 01:40:13.493716  8813 net.cpp:408] drop6 -> drop6
I1020 01:40:13.493752  8813 net.cpp:150] Setting up drop6
I1020 01:40:13.493757  8813 net.cpp:157] Top shape: 64 300 1 1 (19200)
I1020 01:40:13.493758  8813 net.cpp:165] Memory required for data: 186709760
I1020 01:40:13.493759  8813 layer_factory.hpp:77] Creating layer pool6
I1020 01:40:13.493763  8813 net.cpp:100] Creating Layer pool6
I1020 01:40:13.493765  8813 net.cpp:434] pool6 <- drop6
I1020 01:40:13.493767  8813 net.cpp:408] pool6 -> pool6
I1020 01:40:13.493789  8813 net.cpp:150] Setting up pool6
I1020 01:40:13.493793  8813 net.cpp:157] Top shape: 64 300 1 1 (19200)
I1020 01:40:13.493794  8813 net.cpp:165] Memory required for data: 186786560
I1020 01:40:13.493796  8813 layer_factory.hpp:77] Creating layer conv11
I1020 01:40:13.493803  8813 net.cpp:100] Creating Layer conv11
I1020 01:40:13.493804  8813 net.cpp:434] conv11 <- pool6
I1020 01:40:13.493808  8813 net.cpp:408] conv11 -> conv11
I1020 01:40:13.494503  8813 net.cpp:150] Setting up conv11
I1020 01:40:13.494509  8813 net.cpp:157] Top shape: 64 100 1 1 (6400)
I1020 01:40:13.494513  8813 net.cpp:165] Memory required for data: 186812160
I1020 01:40:13.494515  8813 layer_factory.hpp:77] Creating layer relu11
I1020 01:40:13.494518  8813 net.cpp:100] Creating Layer relu11
I1020 01:40:13.494520  8813 net.cpp:434] relu11 <- conv11
I1020 01:40:13.494524  8813 net.cpp:408] relu11 -> relu11
I1020 01:40:13.494631  8813 net.cpp:150] Setting up relu11
I1020 01:40:13.494635  8813 net.cpp:157] Top shape: 64 100 1 1 (6400)
I1020 01:40:13.494637  8813 net.cpp:165] Memory required for data: 186837760
I1020 01:40:13.494639  8813 layer_factory.hpp:77] Creating layer drop7
I1020 01:40:13.494642  8813 net.cpp:100] Creating Layer drop7
I1020 01:40:13.494643  8813 net.cpp:434] drop7 <- relu11
I1020 01:40:13.494647  8813 net.cpp:408] drop7 -> drop7
I1020 01:40:13.494669  8813 net.cpp:150] Setting up drop7
I1020 01:40:13.494673  8813 net.cpp:157] Top shape: 64 100 1 1 (6400)
I1020 01:40:13.494674  8813 net.cpp:165] Memory required for data: 186863360
I1020 01:40:13.494675  8813 layer_factory.hpp:77] Creating layer pool7
I1020 01:40:13.494678  8813 net.cpp:100] Creating Layer pool7
I1020 01:40:13.494680  8813 net.cpp:434] pool7 <- drop7
I1020 01:40:13.494683  8813 net.cpp:408] pool7 -> pool7
I1020 01:40:13.494704  8813 net.cpp:150] Setting up pool7
I1020 01:40:13.494707  8813 net.cpp:157] Top shape: 64 100 1 1 (6400)
I1020 01:40:13.494709  8813 net.cpp:165] Memory required for data: 186888960
I1020 01:40:13.494710  8813 layer_factory.hpp:77] Creating layer score
I1020 01:40:13.494714  8813 net.cpp:100] Creating Layer score
I1020 01:40:13.494716  8813 net.cpp:434] score <- pool7
I1020 01:40:13.494719  8813 net.cpp:408] score -> score
I1020 01:40:13.494812  8813 net.cpp:150] Setting up score
I1020 01:40:13.494815  8813 net.cpp:157] Top shape: 64 10 (640)
I1020 01:40:13.494817  8813 net.cpp:165] Memory required for data: 186891520
I1020 01:40:13.494822  8813 layer_factory.hpp:77] Creating layer score_score_0_split
I1020 01:40:13.494825  8813 net.cpp:100] Creating Layer score_score_0_split
I1020 01:40:13.494827  8813 net.cpp:434] score_score_0_split <- score
I1020 01:40:13.494830  8813 net.cpp:408] score_score_0_split -> score_score_0_split_0
I1020 01:40:13.494834  8813 net.cpp:408] score_score_0_split -> score_score_0_split_1
I1020 01:40:13.494855  8813 net.cpp:150] Setting up score_score_0_split
I1020 01:40:13.494859  8813 net.cpp:157] Top shape: 64 10 (640)
I1020 01:40:13.494863  8813 net.cpp:157] Top shape: 64 10 (640)
I1020 01:40:13.494864  8813 net.cpp:165] Memory required for data: 186896640
I1020 01:40:13.494866  8813 layer_factory.hpp:77] Creating layer accuracy
I1020 01:40:13.494869  8813 net.cpp:100] Creating Layer accuracy
I1020 01:40:13.494873  8813 net.cpp:434] accuracy <- score_score_0_split_0
I1020 01:40:13.494875  8813 net.cpp:434] accuracy <- label_data_1_split_0
I1020 01:40:13.494879  8813 net.cpp:408] accuracy -> accuracy
…
I1020 01:40:13.495281  8813 net.cpp:283] Network initialization done.
I1020 01:40:13.495462  8813 solver.cpp:181] Creating test net (#0) specified by test_net file: /home/adam/Honours/Honours-Project/cifar-10_pooling/max/relu/poolcnn_relu_test.prototxt
I1020 01:40:13.495581  8813 net.cpp:58] Initializing net from parameters: 
state {
  phase: TEST
}
layer {
  name: "data"
  type: "Data"
  top: "data"
  top: "label"
  transform_param {
    mean_file: "mean.binaryproto"
  }
  data_param {
    source: "../../../../data/cifar-10/cifar10_test_lmdb"
    batch_size: 100
    backend: LMDB
  }
}
layer {
  name: "conv1"
  type: "Convolution"
  bottom: "data"
  top: "conv1"
  convolution_param {
    num_output: 192
    kernel_size: 5
    weight_filler {
      type: "xavier"
    }
  }
}
layer {
  name: "relu1"
  type: "ReLU"
  bottom: "conv1"
  top: "relu1"
}
layer {
  name: "drop1"
  type: "Dropout"
  bottom: "relu1"
  top: "drop1"
  dropout_param {
    dropout_ratio: 0
  }
}
layer {
  name: "pool1"
  type: "Pooling"
  bottom: "drop1"
  top: "pool1"
  pooling_param {
    pool: MAX
    kernel_size: 2
    stride: 2
  }
}
layer {
  name: "conv2"
  type: "Convolution"
  bottom: "pool1"
  top: "conv2"
  convolution_param {
    num_output: 192
    kernel_size: 1
    weight_filler {
      type: "xavier"
    }
  }
}
layer {
  name: "relu2"
  type: "ReLU"
  bottom: "conv2"
  top: "relu2"
}
layer {
  name: "conv3"
  type: "Convolution"
  bottom: "relu2"
  top: "conv3"
  convolution_param {
    num_output: 240
    kernel_size: 3
    weight_filler {
      type: "xavier"
    }
  }
}
layer {
  name: "relu3"
  type: "ReLU"
  bottom: "conv3"
  top: "relu3"
}
layer {
  name: "drop2"
  type: "Dropout"
  bottom: "relu3"
  top: "drop2"
  dropout_param {
    dropout_ratio: 0.1
  }
}
layer {
  name: "pool2"
  type: "Pooling"
  bottom: "drop2"
  top: "pool2"
  pooling_param {
    pool: MAX
    kernel_size: 2
    stride: 2
  }
}
layer {
  name: "conv4"
  type: "Convolution"
  bottom: "pool2"
  top: "conv4"
  convolution_param {
    num_output: 240
    kernel_size: 1
    weight_filler {
      type: "xavier"
    }
  }
}
layer {
  name: "relu4"
  type: "ReLU"
  bottom: "conv4"
  top: "relu4"
}
layer {
  name: "conv5"
  type: "Convolution"
  bottom: "relu4"
  top: "conv5"
  convolution_param {
    num_output: 260
    kernel_size: 2
    weight_filler {
      type: "xavier"
    }
  }
}
layer {
  name: "relu5"
  type: "ReLU"
  bottom: "conv5"
  top: "relu5"
}
layer {
  name: "drop3"
  type: "Dropout"
  bottom: "relu5"
  top: "drop3"
  dropout_param {
    dropout_ratio: 0.2
  }
}
layer {
  name: "pool3"
  type: "Pooling"
  bottom: "drop3"
  top: "pool3"
  pooling_param {
    pool: MAX
    kernel_size: 2
    stride: 2
  }
}
layer {
  name: "conv6"
  type: "Convolution"
  bottom: "pool3"
  top: "conv6"
  convolution_param {
    num_output: 260
    kernel_size: 1
    weight_filler {
      type: "xavier"
    }
  }
}
layer {
  name: "relu6"
  type: "ReLU"
  bottom: "conv6"
  top: "relu6"
}
layer {
  name: "conv7"
  type: "Convolution"
  bottom: "relu6"
  top: "conv7"
  convolution_param {
    num_output: 280
    kernel_size: 2
    weight_filler {
      type: "xavier"
    }
  }
}
layer {
  name: "relu7"
  type: "ReLU"
  bottom: "conv7"
  top: "relu7"
}
layer {
  name: "drop4"
  type: "Dropout"
  bottom: "relu7"
  top: "drop4"
  dropout_param {
    dropout_ratio: 0.3
  }
}
layer {
  name: "pool4"
  type: "Pooling"
  bottom: "drop4"
  top: "pool4"
  pooling_param {
    pool: MAX
    kernel_size: 2
    stride: 2
  }
}
layer {
  name: "conv8"
  type: "Convolution"
  bottom: "pool4"
  top: "conv8"
  convolution_param {
    num_output: 280
    kernel_size: 1
    weight_filler {
      type: "xavier"
    }
  }
}
layer {
  name: "relu8"
  type: "ReLU"
  bottom: "conv8"
  top: "relu8"
}
layer {
  name: "drop5"
  type: "Dropout"
  bottom: "relu8"
  top: "drop5"
  dropout_param {
    dropout_ratio: 0.4
  }
}
layer {
  name: "pool5"
  type: "Pooling"
  bottom: "drop5"
  top: "pool5"
  pooling_param {
    pool: MAX
    kernel_size: 2
    stride: 2
  }
}
layer {
  name: "conv10"
  type: "Convolution"
  bottom: "pool5"
  top: "conv10"
  convolution_param {
    num_output: 300
    kernel_size: 1
    weight_filler {
      type: "xavier"
    }
  }
}
layer {
  name: "relu10"
  type: "ReLU"
  bottom: "conv10"
  top: "relu10"
}
layer {
  name: "drop6"
  type: "Dropout"
  bottom: "relu10"
  top: "drop6"
  dropout_param {
    dropout_ratio: 0.5
  }
}
layer {
  name: "pool6"
  type: "Pooling"
  bottom: "drop6"
  top: "pool6"
  pooling_param {
    pool: MAX
    kernel_size: 2
    stride: 2
  }
}
layer {
  name: "conv11"
  type: "Convolution"
  bottom: "pool6"
  top: "conv11"
  convolution_param {
    num_output: 100
    kernel_size: 1
    weight_filler {
      type: "xavier"
    }
  }
}
layer {
  name: "relu11"
  type: "ReLU"
  bottom: "conv11"
  top: "relu11"
}
layer {
  name: "drop7"
  type: "Dropout"
  bottom: "relu11"
  top: "drop7"
  dropout_param {
    dropout_ratio: 0
  }
}
layer {
  name: "pool7"
  type: "Pooling"
  bottom: "drop7"
  top: "pool7"
  pooling_param {
    pool: MAX
    kernel_size: 2
    stride: 2
  }
}
layer {
  name: "score"
  type: "InnerProduct"
  bottom: "pool7"
  top: "score"
  inner_product_param {
    num_output: 10
    weight_filler {
      type: "gaussian"
    }
  }
}
layer {
  name: "accuracy"
  type: "Accuracy"
  bottom: "score"
  bottom: "label"
  top: "accuracy"
}
layer {
  name: "loss"
  type: "SoftmaxWithLoss"
  bottom: "score"
  bottom: "label"
  top: "loss"
}
I1020 01:40:13.495649  8813 layer_factory.hpp:77] Creating layer data
I1020 01:40:13.495724  8813 net.cpp:100] Creating Layer data
I1020 01:40:13.495729  8813 net.cpp:408] data -> data
I1020 01:40:13.495734  8813 net.cpp:408] data -> label
I1020 01:40:13.495740  8813 data_transformer.cpp:25] Loading mean file from: mean.binaryproto
I1020 01:40:13.496345  8820 db_lmdb.cpp:35] Opened lmdb ../../../../data/cifar-10/cifar10_test_lmdb
I1020 01:40:13.496413  8813 data_layer.cpp:41] output data size: 100,3,32,32
I1020 01:40:13.498100  8813 net.cpp:150] Setting up data
I1020 01:40:13.498113  8813 net.cpp:157] Top shape: 100 3 32 32 (307200)
I1020 01:40:13.498116  8813 net.cpp:157] Top shape: 100 (100)
I1020 01:40:13.498117  8813 net.cpp:165] Memory required for data: 1229200
I1020 01:40:13.498121  8813 layer_factory.hpp:77] Creating layer label_data_1_split
I1020 01:40:13.498129  8813 net.cpp:100] Creating Layer label_data_1_split
I1020 01:40:13.498131  8813 net.cpp:434] label_data_1_split <- label
I1020 01:40:13.498136  8813 net.cpp:408] label_data_1_split -> label_data_1_split_0
I1020 01:40:13.498142  8813 net.cpp:408] label_data_1_split -> label_data_1_split_1
I1020 01:40:13.498193  8813 net.cpp:150] Setting up label_data_1_split
I1020 01:40:13.498196  8813 net.cpp:157] Top shape: 100 (100)
I1020 01:40:13.498198  8813 net.cpp:157] Top shape: 100 (100)
I1020 01:40:13.498200  8813 net.cpp:165] Memory required for data: 1230000
I1020 01:40:13.498203  8813 layer_factory.hpp:77] Creating layer conv1
I1020 01:40:13.498209  8813 net.cpp:100] Creating Layer conv1
I1020 01:40:13.498211  8813 net.cpp:434] conv1 <- data
I1020 01:40:13.498214  8813 net.cpp:408] conv1 -> conv1
I1020 01:40:13.498975  8813 net.cpp:150] Setting up conv1
I1020 01:40:13.498983  8813 net.cpp:157] Top shape: 100 192 28 28 (15052800)
I1020 01:40:13.498986  8813 net.cpp:165] Memory required for data: 61441200
I1020 01:40:13.498992  8813 layer_factory.hpp:77] Creating layer relu1
I1020 01:40:13.498997  8813 net.cpp:100] Creating Layer relu1
I1020 01:40:13.498999  8813 net.cpp:434] relu1 <- conv1
I1020 01:40:13.499002  8813 net.cpp:408] relu1 -> relu1
I1020 01:40:13.499215  8813 net.cpp:150] Setting up relu1
I1020 01:40:13.499220  8813 net.cpp:157] Top shape: 100 192 28 28 (15052800)
I1020 01:40:13.499222  8813 net.cpp:165] Memory required for data: 121652400
I1020 01:40:13.499224  8813 layer_factory.hpp:77] Creating layer drop1
I1020 01:40:13.499229  8813 net.cpp:100] Creating Layer drop1
I1020 01:40:13.499233  8813 net.cpp:434] drop1 <- relu1
I1020 01:40:13.499235  8813 net.cpp:408] drop1 -> drop1
I1020 01:40:13.499259  8813 net.cpp:150] Setting up drop1
I1020 01:40:13.499264  8813 net.cpp:157] Top shape: 100 192 28 28 (15052800)
I1020 01:40:13.499266  8813 net.cpp:165] Memory required for data: 181863600
I1020 01:40:13.499267  8813 layer_factory.hpp:77] Creating layer pool1
I1020 01:40:13.499282  8813 net.cpp:100] Creating Layer pool1
I1020 01:40:13.499285  8813 net.cpp:434] pool1 <- drop1
I1020 01:40:13.499289  8813 net.cpp:408] pool1 -> pool1
I1020 01:40:13.499311  8813 net.cpp:150] Setting up pool1
I1020 01:40:13.499315  8813 net.cpp:157] Top shape: 100 192 14 14 (3763200)
I1020 01:40:13.499317  8813 net.cpp:165] Memory required for data: 196916400
I1020 01:40:13.499325  8813 layer_factory.hpp:77] Creating layer conv2
I1020 01:40:13.499330  8813 net.cpp:100] Creating Layer conv2
I1020 01:40:13.499333  8813 net.cpp:434] conv2 <- pool1
I1020 01:40:13.499338  8813 net.cpp:408] conv2 -> conv2
I1020 01:40:13.500144  8813 net.cpp:150] Setting up conv2
I1020 01:40:13.500152  8813 net.cpp:157] Top shape: 100 192 14 14 (3763200)
I1020 01:40:13.500155  8813 net.cpp:165] Memory required for data: 211969200
I1020 01:40:13.500164  8813 layer_factory.hpp:77] Creating layer relu2
I1020 01:40:13.500169  8813 net.cpp:100] Creating Layer relu2
I1020 01:40:13.500172  8813 net.cpp:434] relu2 <- conv2
I1020 01:40:13.500177  8813 net.cpp:408] relu2 -> relu2
I1020 01:40:13.500428  8813 net.cpp:150] Setting up relu2
I1020 01:40:13.500437  8813 net.cpp:157] Top shape: 100 192 14 14 (3763200)
I1020 01:40:13.500439  8813 net.cpp:165] Memory required for data: 227022000
I1020 01:40:13.500442  8813 layer_factory.hpp:77] Creating layer conv3
I1020 01:40:13.500452  8813 net.cpp:100] Creating Layer conv3
I1020 01:40:13.500454  8813 net.cpp:434] conv3 <- relu2
I1020 01:40:13.500459  8813 net.cpp:408] conv3 -> conv3
I1020 01:40:13.502898  8813 net.cpp:150] Setting up conv3
I1020 01:40:13.502908  8813 net.cpp:157] Top shape: 100 240 12 12 (3456000)
I1020 01:40:13.502912  8813 net.cpp:165] Memory required for data: 240846000
I1020 01:40:13.502919  8813 layer_factory.hpp:77] Creating layer relu3
I1020 01:40:13.502925  8813 net.cpp:100] Creating Layer relu3
I1020 01:40:13.502929  8813 net.cpp:434] relu3 <- conv3
I1020 01:40:13.502934  8813 net.cpp:408] relu3 -> relu3
I1020 01:40:13.503129  8813 net.cpp:150] Setting up relu3
I1020 01:40:13.503135  8813 net.cpp:157] Top shape: 100 240 12 12 (3456000)
I1020 01:40:13.503139  8813 net.cpp:165] Memory required for data: 254670000
I1020 01:40:13.503142  8813 layer_factory.hpp:77] Creating layer drop2
I1020 01:40:13.503149  8813 net.cpp:100] Creating Layer drop2
I1020 01:40:13.503151  8813 net.cpp:434] drop2 <- relu3
I1020 01:40:13.503157  8813 net.cpp:408] drop2 -> drop2
I1020 01:40:13.503185  8813 net.cpp:150] Setting up drop2
I1020 01:40:13.503190  8813 net.cpp:157] Top shape: 100 240 12 12 (3456000)
I1020 01:40:13.503191  8813 net.cpp:165] Memory required for data: 268494000
I1020 01:40:13.503196  8813 layer_factory.hpp:77] Creating layer pool2
I1020 01:40:13.503201  8813 net.cpp:100] Creating Layer pool2
I1020 01:40:13.503204  8813 net.cpp:434] pool2 <- drop2
I1020 01:40:13.503208  8813 net.cpp:408] pool2 -> pool2
I1020 01:40:13.503235  8813 net.cpp:150] Setting up pool2
I1020 01:40:13.503240  8813 net.cpp:157] Top shape: 100 240 6 6 (864000)
I1020 01:40:13.503242  8813 net.cpp:165] Memory required for data: 271950000
I1020 01:40:13.503245  8813 layer_factory.hpp:77] Creating layer conv4
I1020 01:40:13.503252  8813 net.cpp:100] Creating Layer conv4
I1020 01:40:13.503257  8813 net.cpp:434] conv4 <- pool2
I1020 01:40:13.503260  8813 net.cpp:408] conv4 -> conv4
I1020 01:40:13.504086  8813 net.cpp:150] Setting up conv4
I1020 01:40:13.504093  8813 net.cpp:157] Top shape: 100 240 6 6 (864000)
I1020 01:40:13.504096  8813 net.cpp:165] Memory required for data: 275406000
I1020 01:40:13.504102  8813 layer_factory.hpp:77] Creating layer relu4
I1020 01:40:13.504108  8813 net.cpp:100] Creating Layer relu4
I1020 01:40:13.504113  8813 net.cpp:434] relu4 <- conv4
I1020 01:40:13.504118  8813 net.cpp:408] relu4 -> relu4
I1020 01:40:13.504231  8813 net.cpp:150] Setting up relu4
I1020 01:40:13.504238  8813 net.cpp:157] Top shape: 100 240 6 6 (864000)
I1020 01:40:13.504241  8813 net.cpp:165] Memory required for data: 278862000
I1020 01:40:13.504245  8813 layer_factory.hpp:77] Creating layer conv5
I1020 01:40:13.504259  8813 net.cpp:100] Creating Layer conv5
I1020 01:40:13.504263  8813 net.cpp:434] conv5 <- relu4
I1020 01:40:13.504268  8813 net.cpp:408] conv5 -> conv5
I1020 01:40:13.506108  8813 net.cpp:150] Setting up conv5
I1020 01:40:13.506117  8813 net.cpp:157] Top shape: 100 260 5 5 (650000)
I1020 01:40:13.506120  8813 net.cpp:165] Memory required for data: 281462000
I1020 01:40:13.506130  8813 layer_factory.hpp:77] Creating layer relu5
I1020 01:40:13.506135  8813 net.cpp:100] Creating Layer relu5
I1020 01:40:13.506139  8813 net.cpp:434] relu5 <- conv5
I1020 01:40:13.506145  8813 net.cpp:408] relu5 -> relu5
I1020 01:40:13.506259  8813 net.cpp:150] Setting up relu5
I1020 01:40:13.506266  8813 net.cpp:157] Top shape: 100 260 5 5 (650000)
I1020 01:40:13.506268  8813 net.cpp:165] Memory required for data: 284062000
I1020 01:40:13.506271  8813 layer_factory.hpp:77] Creating layer drop3
I1020 01:40:13.506280  8813 net.cpp:100] Creating Layer drop3
I1020 01:40:13.506283  8813 net.cpp:434] drop3 <- relu5
I1020 01:40:13.506289  8813 net.cpp:408] drop3 -> drop3
I1020 01:40:13.506314  8813 net.cpp:150] Setting up drop3
I1020 01:40:13.506320  8813 net.cpp:157] Top shape: 100 260 5 5 (650000)
I1020 01:40:13.506322  8813 net.cpp:165] Memory required for data: 286662000
I1020 01:40:13.506325  8813 layer_factory.hpp:77] Creating layer pool3
I1020 01:40:13.506330  8813 net.cpp:100] Creating Layer pool3
I1020 01:40:13.506335  8813 net.cpp:434] pool3 <- drop3
I1020 01:40:13.506338  8813 net.cpp:408] pool3 -> pool3
I1020 01:40:13.506364  8813 net.cpp:150] Setting up pool3
I1020 01:40:13.506369  8813 net.cpp:157] Top shape: 100 260 3 3 (234000)
I1020 01:40:13.506373  8813 net.cpp:165] Memory required for data: 287598000
I1020 01:40:13.506376  8813 layer_factory.hpp:77] Creating layer conv6
I1020 01:40:13.506382  8813 net.cpp:100] Creating Layer conv6
I1020 01:40:13.506386  8813 net.cpp:434] conv6 <- pool3
I1020 01:40:13.506391  8813 net.cpp:408] conv6 -> conv6
I1020 01:40:13.507540  8813 net.cpp:150] Setting up conv6
I1020 01:40:13.507555  8813 net.cpp:157] Top shape: 100 260 3 3 (234000)
I1020 01:40:13.507557  8813 net.cpp:165] Memory required for data: 288534000
I1020 01:40:13.507565  8813 layer_factory.hpp:77] Creating layer relu6
I1020 01:40:13.507570  8813 net.cpp:100] Creating Layer relu6
I1020 01:40:13.507572  8813 net.cpp:434] relu6 <- conv6
I1020 01:40:13.507576  8813 net.cpp:408] relu6 -> relu6
I1020 01:40:13.507803  8813 net.cpp:150] Setting up relu6
I1020 01:40:13.507812  8813 net.cpp:157] Top shape: 100 260 3 3 (234000)
I1020 01:40:13.507813  8813 net.cpp:165] Memory required for data: 289470000
I1020 01:40:13.507815  8813 layer_factory.hpp:77] Creating layer conv7
I1020 01:40:13.507822  8813 net.cpp:100] Creating Layer conv7
I1020 01:40:13.507823  8813 net.cpp:434] conv7 <- relu6
I1020 01:40:13.507827  8813 net.cpp:408] conv7 -> conv7
I1020 01:40:13.509865  8813 net.cpp:150] Setting up conv7
I1020 01:40:13.509877  8813 net.cpp:157] Top shape: 100 280 2 2 (112000)
I1020 01:40:13.509879  8813 net.cpp:165] Memory required for data: 289918000
I1020 01:40:13.509886  8813 layer_factory.hpp:77] Creating layer relu7
I1020 01:40:13.509891  8813 net.cpp:100] Creating Layer relu7
I1020 01:40:13.509893  8813 net.cpp:434] relu7 <- conv7
I1020 01:40:13.509896  8813 net.cpp:408] relu7 -> relu7
I1020 01:40:13.510010  8813 net.cpp:150] Setting up relu7
I1020 01:40:13.510015  8813 net.cpp:157] Top shape: 100 280 2 2 (112000)
I1020 01:40:13.510017  8813 net.cpp:165] Memory required for data: 290366000
I1020 01:40:13.510020  8813 layer_factory.hpp:77] Creating layer drop4
I1020 01:40:13.510022  8813 net.cpp:100] Creating Layer drop4
I1020 01:40:13.510025  8813 net.cpp:434] drop4 <- relu7
I1020 01:40:13.510028  8813 net.cpp:408] drop4 -> drop4
I1020 01:40:13.510052  8813 net.cpp:150] Setting up drop4
I1020 01:40:13.510056  8813 net.cpp:157] Top shape: 100 280 2 2 (112000)
I1020 01:40:13.510057  8813 net.cpp:165] Memory required for data: 290814000
I1020 01:40:13.510059  8813 layer_factory.hpp:77] Creating layer pool4
I1020 01:40:13.510073  8813 net.cpp:100] Creating Layer pool4
I1020 01:40:13.510076  8813 net.cpp:434] pool4 <- drop4
I1020 01:40:13.510078  8813 net.cpp:408] pool4 -> pool4
I1020 01:40:13.510102  8813 net.cpp:150] Setting up pool4
I1020 01:40:13.510105  8813 net.cpp:157] Top shape: 100 280 1 1 (28000)
I1020 01:40:13.510107  8813 net.cpp:165] Memory required for data: 290926000
I1020 01:40:13.510109  8813 layer_factory.hpp:77] Creating layer conv8
I1020 01:40:13.510114  8813 net.cpp:100] Creating Layer conv8
I1020 01:40:13.510115  8813 net.cpp:434] conv8 <- pool4
I1020 01:40:13.510118  8813 net.cpp:408] conv8 -> conv8
I1020 01:40:13.511018  8813 net.cpp:150] Setting up conv8
I1020 01:40:13.511028  8813 net.cpp:157] Top shape: 100 280 1 1 (28000)
I1020 01:40:13.511030  8813 net.cpp:165] Memory required for data: 291038000
I1020 01:40:13.511036  8813 layer_factory.hpp:77] Creating layer relu8
I1020 01:40:13.511054  8813 net.cpp:100] Creating Layer relu8
I1020 01:40:13.511061  8813 net.cpp:434] relu8 <- conv8
I1020 01:40:13.511066  8813 net.cpp:408] relu8 -> relu8
I1020 01:40:13.511193  8813 net.cpp:150] Setting up relu8
I1020 01:40:13.511200  8813 net.cpp:157] Top shape: 100 280 1 1 (28000)
I1020 01:40:13.511204  8813 net.cpp:165] Memory required for data: 291150000
I1020 01:40:13.511207  8813 layer_factory.hpp:77] Creating layer drop5
I1020 01:40:13.511212  8813 net.cpp:100] Creating Layer drop5
I1020 01:40:13.511215  8813 net.cpp:434] drop5 <- relu8
I1020 01:40:13.511220  8813 net.cpp:408] drop5 -> drop5
I1020 01:40:13.511250  8813 net.cpp:150] Setting up drop5
I1020 01:40:13.511255  8813 net.cpp:157] Top shape: 100 280 1 1 (28000)
I1020 01:40:13.511258  8813 net.cpp:165] Memory required for data: 291262000
I1020 01:40:13.511260  8813 layer_factory.hpp:77] Creating layer pool5
I1020 01:40:13.511266  8813 net.cpp:100] Creating Layer pool5
I1020 01:40:13.511270  8813 net.cpp:434] pool5 <- drop5
I1020 01:40:13.511274  8813 net.cpp:408] pool5 -> pool5
I1020 01:40:13.511301  8813 net.cpp:150] Setting up pool5
I1020 01:40:13.511307  8813 net.cpp:157] Top shape: 100 280 1 1 (28000)
I1020 01:40:13.511309  8813 net.cpp:165] Memory required for data: 291374000
I1020 01:40:13.511312  8813 layer_factory.hpp:77] Creating layer conv10
I1020 01:40:13.511318  8813 net.cpp:100] Creating Layer conv10
I1020 01:40:13.511322  8813 net.cpp:434] conv10 <- pool5
I1020 01:40:13.511327  8813 net.cpp:408] conv10 -> conv10
I1020 01:40:13.512281  8813 net.cpp:150] Setting up conv10
I1020 01:40:13.512300  8813 net.cpp:157] Top shape: 100 300 1 1 (30000)
I1020 01:40:13.512305  8813 net.cpp:165] Memory required for data: 291494000
I1020 01:40:13.512315  8813 layer_factory.hpp:77] Creating layer relu10
I1020 01:40:13.512320  8813 net.cpp:100] Creating Layer relu10
I1020 01:40:13.512325  8813 net.cpp:434] relu10 <- conv10
I1020 01:40:13.512329  8813 net.cpp:408] relu10 -> relu10
I1020 01:40:13.512519  8813 net.cpp:150] Setting up relu10
I1020 01:40:13.512526  8813 net.cpp:157] Top shape: 100 300 1 1 (30000)
I1020 01:40:13.512529  8813 net.cpp:165] Memory required for data: 291614000
I1020 01:40:13.512533  8813 layer_factory.hpp:77] Creating layer drop6
I1020 01:40:13.512538  8813 net.cpp:100] Creating Layer drop6
I1020 01:40:13.512542  8813 net.cpp:434] drop6 <- relu10
I1020 01:40:13.512547  8813 net.cpp:408] drop6 -> drop6
I1020 01:40:13.512576  8813 net.cpp:150] Setting up drop6
I1020 01:40:13.512583  8813 net.cpp:157] Top shape: 100 300 1 1 (30000)
I1020 01:40:13.512585  8813 net.cpp:165] Memory required for data: 291734000
I1020 01:40:13.512588  8813 layer_factory.hpp:77] Creating layer pool6
I1020 01:40:13.512593  8813 net.cpp:100] Creating Layer pool6
I1020 01:40:13.512598  8813 net.cpp:434] pool6 <- drop6
I1020 01:40:13.512601  8813 net.cpp:408] pool6 -> pool6
I1020 01:40:13.512627  8813 net.cpp:150] Setting up pool6
I1020 01:40:13.512634  8813 net.cpp:157] Top shape: 100 300 1 1 (30000)
I1020 01:40:13.512635  8813 net.cpp:165] Memory required for data: 291854000
I1020 01:40:13.512639  8813 layer_factory.hpp:77] Creating layer conv11
I1020 01:40:13.512658  8813 net.cpp:100] Creating Layer conv11
I1020 01:40:13.512662  8813 net.cpp:434] conv11 <- pool6
I1020 01:40:13.512667  8813 net.cpp:408] conv11 -> conv11
I1020 01:40:13.513393  8813 net.cpp:150] Setting up conv11
I1020 01:40:13.513402  8813 net.cpp:157] Top shape: 100 100 1 1 (10000)
I1020 01:40:13.513406  8813 net.cpp:165] Memory required for data: 291894000
I1020 01:40:13.513411  8813 layer_factory.hpp:77] Creating layer relu11
I1020 01:40:13.513417  8813 net.cpp:100] Creating Layer relu11
I1020 01:40:13.513420  8813 net.cpp:434] relu11 <- conv11
I1020 01:40:13.513427  8813 net.cpp:408] relu11 -> relu11
I1020 01:40:13.513540  8813 net.cpp:150] Setting up relu11
I1020 01:40:13.513545  8813 net.cpp:157] Top shape: 100 100 1 1 (10000)
I1020 01:40:13.513548  8813 net.cpp:165] Memory required for data: 291934000
I1020 01:40:13.513551  8813 layer_factory.hpp:77] Creating layer drop7
I1020 01:40:13.513556  8813 net.cpp:100] Creating Layer drop7
I1020 01:40:13.513559  8813 net.cpp:434] drop7 <- relu11
I1020 01:40:13.513563  8813 net.cpp:408] drop7 -> drop7
I1020 01:40:13.513592  8813 net.cpp:150] Setting up drop7
I1020 01:40:13.513597  8813 net.cpp:157] Top shape: 100 100 1 1 (10000)
I1020 01:40:13.513600  8813 net.cpp:165] Memory required for data: 291974000
I1020 01:40:13.513602  8813 layer_factory.hpp:77] Creating layer pool7
I1020 01:40:13.513608  8813 net.cpp:100] Creating Layer pool7
I1020 01:40:13.513612  8813 net.cpp:434] pool7 <- drop7
I1020 01:40:13.513617  8813 net.cpp:408] pool7 -> pool7
I1020 01:40:13.513643  8813 net.cpp:150] Setting up pool7
I1020 01:40:13.513648  8813 net.cpp:157] Top shape: 100 100 1 1 (10000)
I1020 01:40:13.513651  8813 net.cpp:165] Memory required for data: 292014000
I1020 01:40:13.513653  8813 layer_factory.hpp:77] Creating layer score
I1020 01:40:13.513659  8813 net.cpp:100] Creating Layer score
I1020 01:40:13.513664  8813 net.cpp:434] score <- pool7
I1020 01:40:13.513667  8813 net.cpp:408] score -> score
I1020 01:40:13.513764  8813 net.cpp:150] Setting up score
I1020 01:40:13.513769  8813 net.cpp:157] Top shape: 100 10 (1000)
I1020 01:40:13.513772  8813 net.cpp:165] Memory required for data: 292018000
I1020 01:40:13.513778  8813 layer_factory.hpp:77] Creating layer score_score_0_split
I1020 01:40:13.513784  8813 net.cpp:100] Creating Layer score_score_0_split
I1020 01:40:13.513787  8813 net.cpp:434] score_score_0_split <- score
I1020 01:40:13.513792  8813 net.cpp:408] score_score_0_split -> score_score_0_split_0
I1020 01:40:13.513798  8813 net.cpp:408] score_score_0_split -> score_score_0_split_1
I1020 01:40:13.513825  8813 net.cpp:150] Setting up score_score_0_split
I1020 01:40:13.513829  8813 net.cpp:157] Top shape: 100 10 (1000)
I1020 01:40:13.513833  8813 net.cpp:157] Top shape: 100 10 (1000)
I1020 01:40:13.513837  8813 net.cpp:165] Memory required for data: 292026000
I1020 01:40:13.513840  8813 layer_factory.hpp:77] Creating layer accuracy
I1020 01:40:13.513845  8813 net.cpp:100] Creating Layer accuracy
I1020 01:40:13.513849  8813 net.cpp:434] accuracy <- score_score_0_split_0
I1020 01:40:13.513854  8813 net.cpp:434] accuracy <- label_data_1_split_0
I1020 01:40:13.513859  8813 net.cpp:408] accuracy -> accuracy
…
