…
solver_mode: GPU
device_id: 0
train_state {
  level: 0
  stage: ""
}
type: "Nesterov"
I1017 19:08:28.538734  3886 solver.cpp:81] Creating training net from train_net file: /home/adam/Honours/Honours-Project/cifar-10_pooling/max/elu/poolcnn_elu_train.prototxt
I1017 19:08:28.539077  3886 net.cpp:58] Initializing net from parameters: 
state {
  phase: TRAIN
  level: 0
  stage: ""
}
layer {
  name: "data"
  type: "Data"
  top: "data"
  top: "label"
  data_param {
    source: "../../../../data/cifar-10/cifar10_train_lmdb"
    batch_size: 64
    backend: LMDB
  }
}
layer {
  name: "conv1"
  type: "Convolution"
  bottom: "data"
  top: "conv1"
  convolution_param {
    num_output: 192
    kernel_size: 5
    weight_filler {
      type: "xavier"
    }
  }
}
layer {
  name: "pool1"
  type: "Pooling"
  bottom: "conv1"
  top: "pool1"
  pooling_param {
    pool: MAX
    kernel_size: 2
    stride: 2
  }
}
layer {
  name: "drop1"
  type: "Dropout"
  bottom: "pool1"
  top: "drop1"
  dropout_param {
    dropout_ratio: 0
  }
}
layer {
  name: "elu1"
  type: "ELU"
  bottom: "drop1"
  top: "elu1"
}
layer {
  name: "conv2"
  type: "Convolution"
  bottom: "elu1"
  top: "conv2"
  convolution_param {
    num_output: 192
    kernel_size: 1
    weight_filler {
      type: "xavier"
    }
  }
}
layer {
  name: "conv3"
  type: "Convolution"
  bottom: "conv2"
  top: "conv3"
  convolution_param {
    num_output: 240
    kernel_size: 3
    weight_filler {
      type: "xavier"
    }
  }
}
layer {
  name: "pool2"
  type: "Pooling"
  bottom: "conv3"
  top: "pool2"
  pooling_param {
    pool: MAX
    kernel_size: 2
    stride: 2
  }
}
layer {
  name: "drop2"
  type: "Dropout"
  bottom: "pool2"
  top: "drop2"
  dropout_param {
    dropout_ratio: 0.1
  }
}
layer {
  name: "elu2"
  type: "ELU"
  bottom: "drop2"
  top: "elu2"
}
layer {
  name: "conv4"
  type: "Convolution"
  bottom: "elu2"
  top: "conv4"
  convolution_param {
    num_output: 240
    kernel_size: 1
    weight_filler {
      type: "xavier"
    }
  }
}
layer {
  name: "conv5"
  type: "Convolution"
  bottom: "conv4"
  top: "conv5"
  convolution_param {
    num_output: 260
    kernel_size: 2
    weight_filler {
      type: "xavier"
    }
  }
}
layer {
  name: "pool3"
  type: "Pooling"
  bottom: "conv5"
  top: "pool3"
  pooling_param {
    pool: MAX
    kernel_size: 2
    stride: 2
  }
}
layer {
  name: "drop3"
  type: "Dropout"
  bottom: "pool3"
  top: "drop3"
  dropout_param {
    dropout_ratio: 0.2
  }
}
layer {
  name: "elu3"
  type: "ELU"
  bottom: "drop3"
  top: "elu3"
}
layer {
  name: "conv6"
  type: "Convolution"
  bottom: "elu3"
  top: "conv6"
  convolution_param {
    num_output: 260
    kernel_size: 1
    weight_filler {
      type: "xavier"
    }
  }
}
layer {
  name: "conv7"
  type: "Convolution"
  bottom: "conv6"
  top: "conv7"
  convolution_param {
    num_output: 280
    kernel_size: 2
    weight_filler {
      type: "xavier"
    }
  }
}
layer {
  name: "pool4"
  type: "Pooling"
  bottom: "conv7"
  top: "pool4"
  pooling_param {
    pool: MAX
    kernel_size: 2
    stride: 2
  }
}
layer {
  name: "drop4"
  type: "Dropout"
  bottom: "pool4"
  top: "drop4"
  dropout_param {
    dropout_ratio: 0.3
  }
}
layer {
  name: "elu4"
  type: "ELU"
  bottom: "drop4"
  top: "elu4"
}
layer {
  name: "conv8"
  type: "Convolution"
  bottom: "elu4"
  top: "conv8"
  convolution_param {
    num_output: 280
    kernel_size: 1
    weight_filler {
      type: "xavier"
    }
  }
}
layer {
  name: "pool5"
  type: "Pooling"
  bottom: "conv8"
  top: "pool5"
  pooling_param {
    pool: MAX
    kernel_size: 2
    stride: 2
  }
}
layer {
  name: "drop5"
  type: "Dropout"
  bottom: "pool5"
  top: "drop5"
  dropout_param {
    dropout_ratio: 0.4
  }
}
layer {
  name: "elu5"
  type: "ELU"
  bottom: "drop5"
  top: "elu5"
}
layer {
  name: "conv10"
  type: "Convolution"
  bottom: "elu5"
  top: "conv10"
  convolution_param {
    num_output: 300
    kernel_size: 1
    weight_filler {
      type: "xavier"
    }
  }
}
layer {
  name: "pool6"
  type: "Pooling"
  bottom: "conv10"
  top: "pool6"
  pooling_param {
    pool: MAX
    kernel_size: 2
    stride: 2
  }
}
layer {
  name: "drop6"
  type: "Dropout"
  bottom: "pool6"
  top: "drop6"
  dropout_param {
    dropout_ratio: 0.5
  }
}
layer {
  name: "elu6"
  type: "ELU"
  bottom: "drop6"
  top: "elu6"
}
layer {
  name: "conv11"
  type: "Convolution"
  bottom: "elu6"
  top: "conv11"
  convolution_param {
    num_output: 100
    kernel_size: 1
    weight_filler {
      type: "xavier"
    }
  }
}
layer {
  name: "pool7"
  type: "Pooling"
  bottom: "conv11"
  top: "pool7"
  pooling_param {
    pool: MAX
    kernel_size: 2
    stride: 2
  }
}
layer {
  name: "drop7"
  type: "Dropout"
  bottom: "pool7"
  top: "drop7"
  dropout_param {
    dropout_ratio: 0
  }
}
layer {
  name: "elu7"
  type: "ELU"
  bottom: "drop7"
  top: "elu7"
}
layer {
  name: "pool"
  type: "Pooling"
  bottom: "elu7"
  top: "pool"
  pooling_param {
    pool: AVE
    global_pooling: true
  }
}
layer {
  name: "flatten"
  type: "Flatten"
  bottom: "pool"
  top: "flatten"
}
layer {
  name: "score"
  type: "InnerProduct"
  bottom: "flatten"
  top: "score"
  inner_product_param {
    num_output: 10
    weight_filler {
      type: "gaussian"
    }
  }
}
layer {
  name: "accuracy"
  type: "Accuracy"
  bottom: "score"
  bottom: "label"
  top: "accuracy"
}
layer {
  name: "loss"
  type: "SoftmaxWithLoss"
  bottom: "score"
  bottom: "label"
  top: "loss"
}
I1017 19:08:28.539192  3886 layer_factory.hpp:77] Creating layer data
I1017 19:08:28.539579  3886 net.cpp:100] Creating Layer data
I1017 19:08:28.539585  3886 net.cpp:408] data -> data
I1017 19:08:28.539599  3886 net.cpp:408] data -> label
I1017 19:08:28.540184  3891 db_lmdb.cpp:35] Opened lmdb ../../../../data/cifar-10/cifar10_train_lmdb
I1017 19:08:28.545857  3886 data_layer.cpp:41] output data size: 64,3,32,32
I1017 19:08:28.547219  3886 net.cpp:150] Setting up data
I1017 19:08:28.547232  3886 net.cpp:157] Top shape: 64 3 32 32 (196608)
I1017 19:08:28.547236  3886 net.cpp:157] Top shape: 64 (64)
I1017 19:08:28.547237  3886 net.cpp:165] Memory required for data: 786688
I1017 19:08:28.547245  3886 layer_factory.hpp:77] Creating layer label_data_1_split
I1017 19:08:28.547255  3886 net.cpp:100] Creating Layer label_data_1_split
I1017 19:08:28.547260  3886 net.cpp:434] label_data_1_split <- label
I1017 19:08:28.547271  3886 net.cpp:408] label_data_1_split -> label_data_1_split_0
I1017 19:08:28.547281  3886 net.cpp:408] label_data_1_split -> label_data_1_split_1
I1017 19:08:28.547307  3886 net.cpp:150] Setting up label_data_1_split
I1017 19:08:28.547312  3886 net.cpp:157] Top shape: 64 (64)
I1017 19:08:28.547313  3886 net.cpp:157] Top shape: 64 (64)
I1017 19:08:28.547315  3886 net.cpp:165] Memory required for data: 787200
I1017 19:08:28.547317  3886 layer_factory.hpp:77] Creating layer conv1
I1017 19:08:28.547329  3886 net.cpp:100] Creating Layer conv1
I1017 19:08:28.547332  3886 net.cpp:434] conv1 <- data
I1017 19:08:28.547334  3886 net.cpp:408] conv1 -> conv1
I1017 19:08:28.663118  3886 net.cpp:150] Setting up conv1
I1017 19:08:28.663144  3886 net.cpp:157] Top shape: 64 192 28 28 (9633792)
I1017 19:08:28.663146  3886 net.cpp:165] Memory required for data: 39322368
I1017 19:08:28.663163  3886 layer_factory.hpp:77] Creating layer pool1
I1017 19:08:28.663172  3886 net.cpp:100] Creating Layer pool1
I1017 19:08:28.663177  3886 net.cpp:434] pool1 <- conv1
I1017 19:08:28.663180  3886 net.cpp:408] pool1 -> pool1
I1017 19:08:28.663218  3886 net.cpp:150] Setting up pool1
I1017 19:08:28.663223  3886 net.cpp:157] Top shape: 64 192 14 14 (2408448)
I1017 19:08:28.663224  3886 net.cpp:165] Memory required for data: 48956160
I1017 19:08:28.663239  3886 layer_factory.hpp:77] Creating layer drop1
I1017 19:08:28.663246  3886 net.cpp:100] Creating Layer drop1
I1017 19:08:28.663249  3886 net.cpp:434] drop1 <- pool1
I1017 19:08:28.663251  3886 net.cpp:408] drop1 -> drop1
I1017 19:08:28.663276  3886 net.cpp:150] Setting up drop1
I1017 19:08:28.663280  3886 net.cpp:157] Top shape: 64 192 14 14 (2408448)
I1017 19:08:28.663281  3886 net.cpp:165] Memory required for data: 58589952
I1017 19:08:28.663283  3886 layer_factory.hpp:77] Creating layer elu1
I1017 19:08:28.663287  3886 net.cpp:100] Creating Layer elu1
I1017 19:08:28.663288  3886 net.cpp:434] elu1 <- drop1
I1017 19:08:28.663291  3886 net.cpp:408] elu1 -> elu1
I1017 19:08:28.663302  3886 net.cpp:150] Setting up elu1
I1017 19:08:28.663305  3886 net.cpp:157] Top shape: 64 192 14 14 (2408448)
I1017 19:08:28.663306  3886 net.cpp:165] Memory required for data: 68223744
I1017 19:08:28.663308  3886 layer_factory.hpp:77] Creating layer conv2
I1017 19:08:28.663314  3886 net.cpp:100] Creating Layer conv2
I1017 19:08:28.663316  3886 net.cpp:434] conv2 <- elu1
I1017 19:08:28.663319  3886 net.cpp:408] conv2 -> conv2
I1017 19:08:28.664278  3886 net.cpp:150] Setting up conv2
I1017 19:08:28.664285  3886 net.cpp:157] Top shape: 64 192 14 14 (2408448)
I1017 19:08:28.664288  3886 net.cpp:165] Memory required for data: 77857536
I1017 19:08:28.664293  3886 layer_factory.hpp:77] Creating layer conv3
I1017 19:08:28.664297  3886 net.cpp:100] Creating Layer conv3
I1017 19:08:28.664299  3886 net.cpp:434] conv3 <- conv2
I1017 19:08:28.664304  3886 net.cpp:408] conv3 -> conv3
I1017 19:08:28.666687  3886 net.cpp:150] Setting up conv3
I1017 19:08:28.666698  3886 net.cpp:157] Top shape: 64 240 12 12 (2211840)
I1017 19:08:28.666702  3886 net.cpp:165] Memory required for data: 86704896
I1017 19:08:28.666707  3886 layer_factory.hpp:77] Creating layer pool2
I1017 19:08:28.666712  3886 net.cpp:100] Creating Layer pool2
I1017 19:08:28.666713  3886 net.cpp:434] pool2 <- conv3
I1017 19:08:28.666716  3886 net.cpp:408] pool2 -> pool2
I1017 19:08:28.666743  3886 net.cpp:150] Setting up pool2
I1017 19:08:28.666746  3886 net.cpp:157] Top shape: 64 240 6 6 (552960)
I1017 19:08:28.666749  3886 net.cpp:165] Memory required for data: 88916736
I1017 19:08:28.666750  3886 layer_factory.hpp:77] Creating layer drop2
I1017 19:08:28.666754  3886 net.cpp:100] Creating Layer drop2
I1017 19:08:28.666755  3886 net.cpp:434] drop2 <- pool2
I1017 19:08:28.666757  3886 net.cpp:408] drop2 -> drop2
I1017 19:08:28.666777  3886 net.cpp:150] Setting up drop2
I1017 19:08:28.666780  3886 net.cpp:157] Top shape: 64 240 6 6 (552960)
I1017 19:08:28.666782  3886 net.cpp:165] Memory required for data: 91128576
I1017 19:08:28.666784  3886 layer_factory.hpp:77] Creating layer elu2
I1017 19:08:28.666786  3886 net.cpp:100] Creating Layer elu2
I1017 19:08:28.666788  3886 net.cpp:434] elu2 <- drop2
I1017 19:08:28.666790  3886 net.cpp:408] elu2 -> elu2
I1017 19:08:28.666802  3886 net.cpp:150] Setting up elu2
I1017 19:08:28.666807  3886 net.cpp:157] Top shape: 64 240 6 6 (552960)
I1017 19:08:28.666810  3886 net.cpp:165] Memory required for data: 93340416
I1017 19:08:28.666811  3886 layer_factory.hpp:77] Creating layer conv4
I1017 19:08:28.666816  3886 net.cpp:100] Creating Layer conv4
I1017 19:08:28.666821  3886 net.cpp:434] conv4 <- elu2
I1017 19:08:28.666823  3886 net.cpp:408] conv4 -> conv4
I1017 19:08:28.667678  3886 net.cpp:150] Setting up conv4
I1017 19:08:28.667685  3886 net.cpp:157] Top shape: 64 240 6 6 (552960)
I1017 19:08:28.667687  3886 net.cpp:165] Memory required for data: 95552256
I1017 19:08:28.667691  3886 layer_factory.hpp:77] Creating layer conv5
I1017 19:08:28.667696  3886 net.cpp:100] Creating Layer conv5
I1017 19:08:28.667698  3886 net.cpp:434] conv5 <- conv4
I1017 19:08:28.667701  3886 net.cpp:408] conv5 -> conv5
I1017 19:08:28.669440  3886 net.cpp:150] Setting up conv5
I1017 19:08:28.669447  3886 net.cpp:157] Top shape: 64 260 5 5 (416000)
I1017 19:08:28.669450  3886 net.cpp:165] Memory required for data: 97216256
I1017 19:08:28.669463  3886 layer_factory.hpp:77] Creating layer pool3
I1017 19:08:28.669467  3886 net.cpp:100] Creating Layer pool3
I1017 19:08:28.669469  3886 net.cpp:434] pool3 <- conv5
I1017 19:08:28.669472  3886 net.cpp:408] pool3 -> pool3
I1017 19:08:28.669502  3886 net.cpp:150] Setting up pool3
I1017 19:08:28.669505  3886 net.cpp:157] Top shape: 64 260 3 3 (149760)
I1017 19:08:28.669509  3886 net.cpp:165] Memory required for data: 97815296
I1017 19:08:28.669512  3886 layer_factory.hpp:77] Creating layer drop3
I1017 19:08:28.669517  3886 net.cpp:100] Creating Layer drop3
I1017 19:08:28.669519  3886 net.cpp:434] drop3 <- pool3
I1017 19:08:28.669523  3886 net.cpp:408] drop3 -> drop3
I1017 19:08:28.669549  3886 net.cpp:150] Setting up drop3
I1017 19:08:28.669554  3886 net.cpp:157] Top shape: 64 260 3 3 (149760)
I1017 19:08:28.669559  3886 net.cpp:165] Memory required for data: 98414336
I1017 19:08:28.669560  3886 layer_factory.hpp:77] Creating layer elu3
I1017 19:08:28.669565  3886 net.cpp:100] Creating Layer elu3
I1017 19:08:28.669569  3886 net.cpp:434] elu3 <- drop3
I1017 19:08:28.669574  3886 net.cpp:408] elu3 -> elu3
I1017 19:08:28.669589  3886 net.cpp:150] Setting up elu3
I1017 19:08:28.669592  3886 net.cpp:157] Top shape: 64 260 3 3 (149760)
I1017 19:08:28.669596  3886 net.cpp:165] Memory required for data: 99013376
I1017 19:08:28.669600  3886 layer_factory.hpp:77] Creating layer conv6
I1017 19:08:28.669608  3886 net.cpp:100] Creating Layer conv6
I1017 19:08:28.669611  3886 net.cpp:434] conv6 <- elu3
I1017 19:08:28.669615  3886 net.cpp:408] conv6 -> conv6
I1017 19:08:28.670714  3886 net.cpp:150] Setting up conv6
I1017 19:08:28.670723  3886 net.cpp:157] Top shape: 64 260 3 3 (149760)
I1017 19:08:28.670727  3886 net.cpp:165] Memory required for data: 99612416
I1017 19:08:28.670730  3886 layer_factory.hpp:77] Creating layer conv7
I1017 19:08:28.670734  3886 net.cpp:100] Creating Layer conv7
I1017 19:08:28.670737  3886 net.cpp:434] conv7 <- conv6
I1017 19:08:28.670740  3886 net.cpp:408] conv7 -> conv7
I1017 19:08:28.672561  3886 net.cpp:150] Setting up conv7
I1017 19:08:28.672569  3886 net.cpp:157] Top shape: 64 280 2 2 (71680)
I1017 19:08:28.672570  3886 net.cpp:165] Memory required for data: 99899136
I1017 19:08:28.672574  3886 layer_factory.hpp:77] Creating layer pool4
I1017 19:08:28.672579  3886 net.cpp:100] Creating Layer pool4
I1017 19:08:28.672581  3886 net.cpp:434] pool4 <- conv7
I1017 19:08:28.672585  3886 net.cpp:408] pool4 -> pool4
I1017 19:08:28.672611  3886 net.cpp:150] Setting up pool4
I1017 19:08:28.672616  3886 net.cpp:157] Top shape: 64 280 1 1 (17920)
I1017 19:08:28.672621  3886 net.cpp:165] Memory required for data: 99970816
I1017 19:08:28.672622  3886 layer_factory.hpp:77] Creating layer drop4
I1017 19:08:28.672629  3886 net.cpp:100] Creating Layer drop4
I1017 19:08:28.672633  3886 net.cpp:434] drop4 <- pool4
I1017 19:08:28.672637  3886 net.cpp:408] drop4 -> drop4
I1017 19:08:28.672659  3886 net.cpp:150] Setting up drop4
I1017 19:08:28.672663  3886 net.cpp:157] Top shape: 64 280 1 1 (17920)
I1017 19:08:28.672667  3886 net.cpp:165] Memory required for data: 100042496
I1017 19:08:28.672667  3886 layer_factory.hpp:77] Creating layer elu4
I1017 19:08:28.672672  3886 net.cpp:100] Creating Layer elu4
I1017 19:08:28.672673  3886 net.cpp:434] elu4 <- drop4
I1017 19:08:28.672677  3886 net.cpp:408] elu4 -> elu4
I1017 19:08:28.672688  3886 net.cpp:150] Setting up elu4
I1017 19:08:28.672693  3886 net.cpp:157] Top shape: 64 280 1 1 (17920)
I1017 19:08:28.672694  3886 net.cpp:165] Memory required for data: 100114176
I1017 19:08:28.672696  3886 layer_factory.hpp:77] Creating layer conv8
I1017 19:08:28.672700  3886 net.cpp:100] Creating Layer conv8
I1017 19:08:28.672703  3886 net.cpp:434] conv8 <- elu4
I1017 19:08:28.672705  3886 net.cpp:408] conv8 -> conv8
I1017 19:08:28.673588  3886 net.cpp:150] Setting up conv8
I1017 19:08:28.673595  3886 net.cpp:157] Top shape: 64 280 1 1 (17920)
I1017 19:08:28.673598  3886 net.cpp:165] Memory required for data: 100185856
I1017 19:08:28.673601  3886 layer_factory.hpp:77] Creating layer pool5
I1017 19:08:28.673614  3886 net.cpp:100] Creating Layer pool5
I1017 19:08:28.673617  3886 net.cpp:434] pool5 <- conv8
I1017 19:08:28.673620  3886 net.cpp:408] pool5 -> pool5
I1017 19:08:28.673645  3886 net.cpp:150] Setting up pool5
I1017 19:08:28.673650  3886 net.cpp:157] Top shape: 64 280 1 1 (17920)
I1017 19:08:28.673651  3886 net.cpp:165] Memory required for data: 100257536
I1017 19:08:28.673652  3886 layer_factory.hpp:77] Creating layer drop5
I1017 19:08:28.673655  3886 net.cpp:100] Creating Layer drop5
I1017 19:08:28.673657  3886 net.cpp:434] drop5 <- pool5
I1017 19:08:28.673661  3886 net.cpp:408] drop5 -> drop5
I1017 19:08:28.673696  3886 net.cpp:150] Setting up drop5
I1017 19:08:28.673701  3886 net.cpp:157] Top shape: 64 280 1 1 (17920)
I1017 19:08:28.673703  3886 net.cpp:165] Memory required for data: 100329216
I1017 19:08:28.673704  3886 layer_factory.hpp:77] Creating layer elu5
I1017 19:08:28.673707  3886 net.cpp:100] Creating Layer elu5
I1017 19:08:28.673709  3886 net.cpp:434] elu5 <- drop5
I1017 19:08:28.673712  3886 net.cpp:408] elu5 -> elu5
I1017 19:08:28.673724  3886 net.cpp:150] Setting up elu5
I1017 19:08:28.673728  3886 net.cpp:157] Top shape: 64 280 1 1 (17920)
I1017 19:08:28.673730  3886 net.cpp:165] Memory required for data: 100400896
I1017 19:08:28.673732  3886 layer_factory.hpp:77] Creating layer conv10
I1017 19:08:28.673738  3886 net.cpp:100] Creating Layer conv10
I1017 19:08:28.673739  3886 net.cpp:434] conv10 <- elu5
I1017 19:08:28.673743  3886 net.cpp:408] conv10 -> conv10
I1017 19:08:28.674667  3886 net.cpp:150] Setting up conv10
I1017 19:08:28.674674  3886 net.cpp:157] Top shape: 64 300 1 1 (19200)
I1017 19:08:28.674676  3886 net.cpp:165] Memory required for data: 100477696
I1017 19:08:28.674684  3886 layer_factory.hpp:77] Creating layer pool6
I1017 19:08:28.674687  3886 net.cpp:100] Creating Layer pool6
I1017 19:08:28.674690  3886 net.cpp:434] pool6 <- conv10
I1017 19:08:28.674695  3886 net.cpp:408] pool6 -> pool6
I1017 19:08:28.674720  3886 net.cpp:150] Setting up pool6
I1017 19:08:28.674726  3886 net.cpp:157] Top shape: 64 300 1 1 (19200)
I1017 19:08:28.674727  3886 net.cpp:165] Memory required for data: 100554496
I1017 19:08:28.674729  3886 layer_factory.hpp:77] Creating layer drop6
I1017 19:08:28.674732  3886 net.cpp:100] Creating Layer drop6
I1017 19:08:28.674734  3886 net.cpp:434] drop6 <- pool6
I1017 19:08:28.674736  3886 net.cpp:408] drop6 -> drop6
I1017 19:08:28.674758  3886 net.cpp:150] Setting up drop6
I1017 19:08:28.674762  3886 net.cpp:157] Top shape: 64 300 1 1 (19200)
I1017 19:08:28.674764  3886 net.cpp:165] Memory required for data: 100631296
I1017 19:08:28.674767  3886 layer_factory.hpp:77] Creating layer elu6
I1017 19:08:28.674769  3886 net.cpp:100] Creating Layer elu6
I1017 19:08:28.674772  3886 net.cpp:434] elu6 <- drop6
I1017 19:08:28.674774  3886 net.cpp:408] elu6 -> elu6
I1017 19:08:28.674787  3886 net.cpp:150] Setting up elu6
I1017 19:08:28.674790  3886 net.cpp:157] Top shape: 64 300 1 1 (19200)
I1017 19:08:28.674793  3886 net.cpp:165] Memory required for data: 100708096
I1017 19:08:28.674794  3886 layer_factory.hpp:77] Creating layer conv11
I1017 19:08:28.674799  3886 net.cpp:100] Creating Layer conv11
I1017 19:08:28.674801  3886 net.cpp:434] conv11 <- elu6
I1017 19:08:28.674804  3886 net.cpp:408] conv11 -> conv11
I1017 19:08:28.675652  3886 net.cpp:150] Setting up conv11
I1017 19:08:28.675659  3886 net.cpp:157] Top shape: 64 100 1 1 (6400)
I1017 19:08:28.675662  3886 net.cpp:165] Memory required for data: 100733696
I1017 19:08:28.675665  3886 layer_factory.hpp:77] Creating layer pool7
I1017 19:08:28.675670  3886 net.cpp:100] Creating Layer pool7
I1017 19:08:28.675673  3886 net.cpp:434] pool7 <- conv11
I1017 19:08:28.675676  3886 net.cpp:408] pool7 -> pool7
I1017 19:08:28.675705  3886 net.cpp:150] Setting up pool7
I1017 19:08:28.675710  3886 net.cpp:157] Top shape: 64 100 1 1 (6400)
I1017 19:08:28.675711  3886 net.cpp:165] Memory required for data: 100759296
I1017 19:08:28.675714  3886 layer_factory.hpp:77] Creating layer drop7
I1017 19:08:28.675725  3886 net.cpp:100] Creating Layer drop7
I1017 19:08:28.675729  3886 net.cpp:434] drop7 <- pool7
I1017 19:08:28.675732  3886 net.cpp:408] drop7 -> drop7
I1017 19:08:28.675755  3886 net.cpp:150] Setting up drop7
I1017 19:08:28.675760  3886 net.cpp:157] Top shape: 64 100 1 1 (6400)
I1017 19:08:28.675762  3886 net.cpp:165] Memory required for data: 100784896
I1017 19:08:28.675765  3886 layer_factory.hpp:77] Creating layer elu7
I1017 19:08:28.675770  3886 net.cpp:100] Creating Layer elu7
I1017 19:08:28.675772  3886 net.cpp:434] elu7 <- drop7
I1017 19:08:28.675776  3886 net.cpp:408] elu7 -> elu7
I1017 19:08:28.675788  3886 net.cpp:150] Setting up elu7
I1017 19:08:28.675792  3886 net.cpp:157] Top shape: 64 100 1 1 (6400)
I1017 19:08:28.675793  3886 net.cpp:165] Memory required for data: 100810496
I1017 19:08:28.675796  3886 layer_factory.hpp:77] Creating layer pool
I1017 19:08:28.675799  3886 net.cpp:100] Creating Layer pool
I1017 19:08:28.675801  3886 net.cpp:434] pool <- elu7
I1017 19:08:28.675803  3886 net.cpp:408] pool -> pool
I1017 19:08:28.675925  3886 net.cpp:150] Setting up pool
I1017 19:08:28.675930  3886 net.cpp:157] Top shape: 64 100 1 1 (6400)
I1017 19:08:28.675932  3886 net.cpp:165] Memory required for data: 100836096
I1017 19:08:28.675935  3886 layer_factory.hpp:77] Creating layer flatten
I1017 19:08:28.675937  3886 net.cpp:100] Creating Layer flatten
I1017 19:08:28.675940  3886 net.cpp:434] flatten <- pool
I1017 19:08:28.675942  3886 net.cpp:408] flatten -> flatten
I1017 19:08:28.675956  3886 net.cpp:150] Setting up flatten
I1017 19:08:28.675961  3886 net.cpp:157] Top shape: 64 100 (6400)
I1017 19:08:28.675962  3886 net.cpp:165] Memory required for data: 100861696
I1017 19:08:28.675964  3886 layer_factory.hpp:77] Creating layer score
I1017 19:08:28.675969  3886 net.cpp:100] Creating Layer score
I1017 19:08:28.675972  3886 net.cpp:434] score <- flatten
I1017 19:08:28.675974  3886 net.cpp:408] score -> score
I1017 19:08:28.676069  3886 net.cpp:150] Setting up score
I1017 19:08:28.676072  3886 net.cpp:157] Top shape: 64 10 (640)
I1017 19:08:28.676074  3886 net.cpp:165] Memory required for data: 100864256
I1017 19:08:28.676079  3886 layer_factory.hpp:77] Creating layer score_score_0_split
I1017 19:08:28.676082  3886 net.cpp:100] Creating Layer score_score_0_split
I1017 19:08:28.676085  3886 net.cpp:434] score_score_0_split <- score
I1017 19:08:28.676089  3886 net.cpp:408] score_score_0_split -> score_score_0_split_0
I1017 19:08:28.676092  3886 net.cpp:408] score_score_0_split -> score_score_0_split_1
I1017 19:08:28.676115  3886 net.cpp:150] Setting up score_score_0_split
I1017 19:08:28.676118  3886 net.cpp:157] Top shape: 64 10 (640)
I1017 19:08:28.676121  3886 net.cpp:157] Top shape: 64 10 (640)
I1017 19:08:28.676122  3886 net.cpp:165] Memory required for data: 100869376
I1017 19:08:28.676125  3886 layer_factory.hpp:77] Creating layer accuracy
I1017 19:08:28.676129  3886 net.cpp:100] Creating Layer accuracy
I1017 19:08:28.676161  3886 net.cpp:434] accuracy <- score_score_0_split_0
I1017 19:08:28.676163  3886 net.cpp:434] accuracy <- label_data_1_split_0
I1017 19:08:28.676168  3886 net.cpp:408] accuracy -> accuracy
…
I1017 19:08:28.676564  3886 net.cpp:270] This network produces output loss
I1017 19:08:28.676584  3886 net.cpp:283] Network initialization done.
I1017 19:08:28.676765  3886 solver.cpp:181] Creating test net (#0) specified by test_net file: /home/adam/Honours/Honours-Project/cifar-10_pooling/max/elu/poolcnn_elu_test.prototxt
I1017 19:08:28.676873  3886 net.cpp:58] Initializing net from parameters: 
state {
  phase: TEST
}
layer {
  name: "data"
  type: "Data"
  top: "data"
  top: "label"
  data_param {
    source: "../../../../data/cifar-10/cifar10_test_lmdb"
    batch_size: 100
    backend: LMDB
  }
}
layer {
  name: "conv1"
  type: "Convolution"
  bottom: "data"
  top: "conv1"
  convolution_param {
    num_output: 192
    kernel_size: 5
    weight_filler {
      type: "xavier"
    }
  }
}
layer {
  name: "pool1"
  type: "Pooling"
  bottom: "conv1"
  top: "pool1"
  pooling_param {
    pool: MAX
    kernel_size: 2
    stride: 2
  }
}
layer {
  name: "drop1"
  type: "Dropout"
  bottom: "pool1"
  top: "drop1"
  dropout_param {
    dropout_ratio: 0
  }
}
layer {
  name: "elu1"
  type: "ELU"
  bottom: "drop1"
  top: "elu1"
}
layer {
  name: "conv2"
  type: "Convolution"
  bottom: "elu1"
  top: "conv2"
  convolution_param {
    num_output: 192
    kernel_size: 1
    weight_filler {
      type: "xavier"
    }
  }
}
layer {
  name: "conv3"
  type: "Convolution"
  bottom: "conv2"
  top: "conv3"
  convolution_param {
    num_output: 240
    kernel_size: 3
    weight_filler {
      type: "xavier"
    }
  }
}
layer {
  name: "pool2"
  type: "Pooling"
  bottom: "conv3"
  top: "pool2"
  pooling_param {
    pool: MAX
    kernel_size: 2
    stride: 2
  }
}
layer {
  name: "drop2"
  type: "Dropout"
  bottom: "pool2"
  top: "drop2"
  dropout_param {
    dropout_ratio: 0.1
  }
}
layer {
  name: "elu2"
  type: "ELU"
  bottom: "drop2"
  top: "elu2"
}
layer {
  name: "conv4"
  type: "Convolution"
  bottom: "elu2"
  top: "conv4"
  convolution_param {
    num_output: 240
    kernel_size: 1
    weight_filler {
      type: "xavier"
    }
  }
}
layer {
  name: "conv5"
  type: "Convolution"
  bottom: "conv4"
  top: "conv5"
  convolution_param {
    num_output: 260
    kernel_size: 2
    weight_filler {
      type: "xavier"
    }
  }
}
layer {
  name: "pool3"
  type: "Pooling"
  bottom: "conv5"
  top: "pool3"
  pooling_param {
    pool: MAX
    kernel_size: 2
    stride: 2
  }
}
layer {
  name: "drop3"
  type: "Dropout"
  bottom: "pool3"
  top: "drop3"
  dropout_param {
    dropout_ratio: 0.2
  }
}
layer {
  name: "elu3"
  type: "ELU"
  bottom: "drop3"
  top: "elu3"
}
layer {
  name: "conv6"
  type: "Convolution"
  bottom: "elu3"
  top: "conv6"
  convolution_param {
    num_output: 260
    kernel_size: 1
    weight_filler {
      type: "xavier"
    }
  }
}
layer {
  name: "conv7"
  type: "Convolution"
  bottom: "conv6"
  top: "conv7"
  convolution_param {
    num_output: 280
    kernel_size: 2
    weight_filler {
      type: "xavier"
    }
  }
}
layer {
  name: "pool4"
  type: "Pooling"
  bottom: "conv7"
  top: "pool4"
  pooling_param {
    pool: MAX
    kernel_size: 2
    stride: 2
  }
}
layer {
  name: "drop4"
  type: "Dropout"
  bottom: "pool4"
  top: "drop4"
  dropout_param {
    dropout_ratio: 0.3
  }
}
layer {
  name: "elu4"
  type: "ELU"
  bottom: "drop4"
  top: "elu4"
}
layer {
  name: "conv8"
  type: "Convolution"
  bottom: "elu4"
  top: "conv8"
  convolution_param {
    num_output: 280
    kernel_size: 1
    weight_filler {
      type: "xavier"
    }
  }
}
layer {
  name: "pool5"
  type: "Pooling"
  bottom: "conv8"
  top: "pool5"
  pooling_param {
    pool: MAX
    kernel_size: 2
    stride: 2
  }
}
layer {
  name: "drop5"
  type: "Dropout"
  bottom: "pool5"
  top: "drop5"
  dropout_param {
    dropout_ratio: 0.4
  }
}
layer {
  name: "elu5"
  type: "ELU"
  bottom: "drop5"
  top: "elu5"
}
layer {
  name: "conv10"
  type: "Convolution"
  bottom: "elu5"
  top: "conv10"
  convolution_param {
    num_output: 300
    kernel_size: 1
    weight_filler {
      type: "xavier"
    }
  }
}
layer {
  name: "pool6"
  type: "Pooling"
  bottom: "conv10"
  top: "pool6"
  pooling_param {
    pool: MAX
    kernel_size: 2
    stride: 2
  }
}
layer {
  name: "drop6"
  type: "Dropout"
  bottom: "pool6"
  top: "drop6"
  dropout_param {
    dropout_ratio: 0.5
  }
}
layer {
  name: "elu6"
  type: "ELU"
  bottom: "drop6"
  top: "elu6"
}
layer {
  name: "conv11"
  type: "Convolution"
  bottom: "elu6"
  top: "conv11"
  convolution_param {
    num_output: 100
    kernel_size: 1
    weight_filler {
      type: "xavier"
    }
  }
}
layer {
  name: "pool7"
  type: "Pooling"
  bottom: "conv11"
  top: "pool7"
  pooling_param {
    pool: MAX
    kernel_size: 2
    stride: 2
  }
}
layer {
  name: "drop7"
  type: "Dropout"
  bottom: "pool7"
  top: "drop7"
  dropout_param {
    dropout_ratio: 0
  }
}
layer {
  name: "elu7"
  type: "ELU"
  bottom: "drop7"
  top: "elu7"
}
layer {
  name: "pool"
  type: "Pooling"
  bottom: "elu7"
  top: "pool"
  pooling_param {
    pool: AVE
    global_pooling: true
  }
}
layer {
  name: "flatten"
  type: "Flatten"
  bottom: "pool"
  top: "flatten"
}
layer {
  name: "score"
  type: "InnerProduct"
  bottom: "flatten"
  top: "score"
  inner_product_param {
    num_output: 10
    weight_filler {
      type: "gaussian"
    }
  }
}
layer {
  name: "accuracy"
  type: "Accuracy"
  bottom: "score"
  bottom: "label"
  top: "accuracy"
}
layer {
  name: "loss"
  type: "SoftmaxWithLoss"
  bottom: "score"
  bottom: "label"
  top: "loss"
}
I1017 19:08:28.676961  3886 layer_factory.hpp:77] Creating layer data
I1017 19:08:28.677042  3886 net.cpp:100] Creating Layer data
I1017 19:08:28.677047  3886 net.cpp:408] data -> data
I1017 19:08:28.677053  3886 net.cpp:408] data -> label
I1017 19:08:28.677628  3893 db_lmdb.cpp:35] Opened lmdb ../../../../data/cifar-10/cifar10_test_lmdb
I1017 19:08:28.677716  3886 data_layer.cpp:41] output data size: 100,3,32,32
I1017 19:08:28.679404  3886 net.cpp:150] Setting up data
I1017 19:08:28.679419  3886 net.cpp:157] Top shape: 100 3 32 32 (307200)
I1017 19:08:28.679422  3886 net.cpp:157] Top shape: 100 (100)
I1017 19:08:28.679424  3886 net.cpp:165] Memory required for data: 1229200
I1017 19:08:28.679426  3886 layer_factory.hpp:77] Creating layer label_data_1_split
I1017 19:08:28.679432  3886 net.cpp:100] Creating Layer label_data_1_split
I1017 19:08:28.679435  3886 net.cpp:434] label_data_1_split <- label
I1017 19:08:28.679446  3886 net.cpp:408] label_data_1_split -> label_data_1_split_0
I1017 19:08:28.679455  3886 net.cpp:408] label_data_1_split -> label_data_1_split_1
I1017 19:08:28.679505  3886 net.cpp:150] Setting up label_data_1_split
I1017 19:08:28.679510  3886 net.cpp:157] Top shape: 100 (100)
I1017 19:08:28.679512  3886 net.cpp:157] Top shape: 100 (100)
I1017 19:08:28.679513  3886 net.cpp:165] Memory required for data: 1230000
I1017 19:08:28.679515  3886 layer_factory.hpp:77] Creating layer conv1
I1017 19:08:28.679523  3886 net.cpp:100] Creating Layer conv1
I1017 19:08:28.679525  3886 net.cpp:434] conv1 <- data
I1017 19:08:28.679528  3886 net.cpp:408] conv1 -> conv1
I1017 19:08:28.680301  3886 net.cpp:150] Setting up conv1
I1017 19:08:28.680312  3886 net.cpp:157] Top shape: 100 192 28 28 (15052800)
I1017 19:08:28.680315  3886 net.cpp:165] Memory required for data: 61441200
I1017 19:08:28.680321  3886 layer_factory.hpp:77] Creating layer pool1
I1017 19:08:28.680325  3886 net.cpp:100] Creating Layer pool1
I1017 19:08:28.680327  3886 net.cpp:434] pool1 <- conv1
I1017 19:08:28.680331  3886 net.cpp:408] pool1 -> pool1
I1017 19:08:28.680445  3886 net.cpp:150] Setting up pool1
I1017 19:08:28.680452  3886 net.cpp:157] Top shape: 100 192 14 14 (3763200)
I1017 19:08:28.680454  3886 net.cpp:165] Memory required for data: 76494000
I1017 19:08:28.680456  3886 layer_factory.hpp:77] Creating layer drop1
I1017 19:08:28.680460  3886 net.cpp:100] Creating Layer drop1
I1017 19:08:28.680462  3886 net.cpp:434] drop1 <- pool1
I1017 19:08:28.680466  3886 net.cpp:408] drop1 -> drop1
I1017 19:08:28.680491  3886 net.cpp:150] Setting up drop1
I1017 19:08:28.680496  3886 net.cpp:157] Top shape: 100 192 14 14 (3763200)
I1017 19:08:28.680497  3886 net.cpp:165] Memory required for data: 91546800
I1017 19:08:28.680500  3886 layer_factory.hpp:77] Creating layer elu1
I1017 19:08:28.680503  3886 net.cpp:100] Creating Layer elu1
I1017 19:08:28.680505  3886 net.cpp:434] elu1 <- drop1
I1017 19:08:28.680507  3886 net.cpp:408] elu1 -> elu1
I1017 19:08:28.680521  3886 net.cpp:150] Setting up elu1
I1017 19:08:28.680524  3886 net.cpp:157] Top shape: 100 192 14 14 (3763200)
I1017 19:08:28.680526  3886 net.cpp:165] Memory required for data: 106599600
I1017 19:08:28.680528  3886 layer_factory.hpp:77] Creating layer conv2
I1017 19:08:28.680533  3886 net.cpp:100] Creating Layer conv2
I1017 19:08:28.680534  3886 net.cpp:434] conv2 <- elu1
I1017 19:08:28.680537  3886 net.cpp:408] conv2 -> conv2
I1017 19:08:28.681325  3886 net.cpp:150] Setting up conv2
I1017 19:08:28.681334  3886 net.cpp:157] Top shape: 100 192 14 14 (3763200)
I1017 19:08:28.681335  3886 net.cpp:165] Memory required for data: 121652400
I1017 19:08:28.681340  3886 layer_factory.hpp:77] Creating layer conv3
I1017 19:08:28.681347  3886 net.cpp:100] Creating Layer conv3
I1017 19:08:28.681349  3886 net.cpp:434] conv3 <- conv2
I1017 19:08:28.681375  3886 net.cpp:408] conv3 -> conv3
I1017 19:08:28.683779  3886 net.cpp:150] Setting up conv3
I1017 19:08:28.683790  3886 net.cpp:157] Top shape: 100 240 12 12 (3456000)
I1017 19:08:28.683792  3886 net.cpp:165] Memory required for data: 135476400
I1017 19:08:28.683799  3886 layer_factory.hpp:77] Creating layer pool2
I1017 19:08:28.683804  3886 net.cpp:100] Creating Layer pool2
I1017 19:08:28.683806  3886 net.cpp:434] pool2 <- conv3
I1017 19:08:28.683810  3886 net.cpp:408] pool2 -> pool2
I1017 19:08:28.683840  3886 net.cpp:150] Setting up pool2
I1017 19:08:28.683843  3886 net.cpp:157] Top shape: 100 240 6 6 (864000)
I1017 19:08:28.683845  3886 net.cpp:165] Memory required for data: 138932400
I1017 19:08:28.683847  3886 layer_factory.hpp:77] Creating layer drop2
I1017 19:08:28.683851  3886 net.cpp:100] Creating Layer drop2
I1017 19:08:28.683853  3886 net.cpp:434] drop2 <- pool2
I1017 19:08:28.683857  3886 net.cpp:408] drop2 -> drop2
I1017 19:08:28.683879  3886 net.cpp:150] Setting up drop2
I1017 19:08:28.683882  3886 net.cpp:157] Top shape: 100 240 6 6 (864000)
I1017 19:08:28.683883  3886 net.cpp:165] Memory required for data: 142388400
I1017 19:08:28.683886  3886 layer_factory.hpp:77] Creating layer elu2
I1017 19:08:28.683890  3886 net.cpp:100] Creating Layer elu2
I1017 19:08:28.683897  3886 net.cpp:434] elu2 <- drop2
I1017 19:08:28.683902  3886 net.cpp:408] elu2 -> elu2
I1017 19:08:28.683918  3886 net.cpp:150] Setting up elu2
I1017 19:08:28.683923  3886 net.cpp:157] Top shape: 100 240 6 6 (864000)
I1017 19:08:28.683924  3886 net.cpp:165] Memory required for data: 145844400
I1017 19:08:28.683926  3886 layer_factory.hpp:77] Creating layer conv4
I1017 19:08:28.683931  3886 net.cpp:100] Creating Layer conv4
I1017 19:08:28.683933  3886 net.cpp:434] conv4 <- elu2
I1017 19:08:28.683936  3886 net.cpp:408] conv4 -> conv4
I1017 19:08:28.684775  3886 net.cpp:150] Setting up conv4
I1017 19:08:28.684784  3886 net.cpp:157] Top shape: 100 240 6 6 (864000)
I1017 19:08:28.684787  3886 net.cpp:165] Memory required for data: 149300400
I1017 19:08:28.684790  3886 layer_factory.hpp:77] Creating layer conv5
I1017 19:08:28.684795  3886 net.cpp:100] Creating Layer conv5
I1017 19:08:28.684798  3886 net.cpp:434] conv5 <- conv4
I1017 19:08:28.684800  3886 net.cpp:408] conv5 -> conv5
I1017 19:08:28.686566  3886 net.cpp:150] Setting up conv5
I1017 19:08:28.686575  3886 net.cpp:157] Top shape: 100 260 5 5 (650000)
I1017 19:08:28.686578  3886 net.cpp:165] Memory required for data: 151900400
I1017 19:08:28.686583  3886 layer_factory.hpp:77] Creating layer pool3
I1017 19:08:28.686586  3886 net.cpp:100] Creating Layer pool3
I1017 19:08:28.686589  3886 net.cpp:434] pool3 <- conv5
I1017 19:08:28.686592  3886 net.cpp:408] pool3 -> pool3
I1017 19:08:28.686620  3886 net.cpp:150] Setting up pool3
I1017 19:08:28.686625  3886 net.cpp:157] Top shape: 100 260 3 3 (234000)
I1017 19:08:28.686626  3886 net.cpp:165] Memory required for data: 152836400
I1017 19:08:28.686628  3886 layer_factory.hpp:77] Creating layer drop3
I1017 19:08:28.686633  3886 net.cpp:100] Creating Layer drop3
I1017 19:08:28.686635  3886 net.cpp:434] drop3 <- pool3
I1017 19:08:28.686637  3886 net.cpp:408] drop3 -> drop3
I1017 19:08:28.686662  3886 net.cpp:150] Setting up drop3
I1017 19:08:28.686667  3886 net.cpp:157] Top shape: 100 260 3 3 (234000)
I1017 19:08:28.686671  3886 net.cpp:165] Memory required for data: 153772400
I1017 19:08:28.686673  3886 layer_factory.hpp:77] Creating layer elu3
I1017 19:08:28.686679  3886 net.cpp:100] Creating Layer elu3
I1017 19:08:28.686683  3886 net.cpp:434] elu3 <- drop3
I1017 19:08:28.686686  3886 net.cpp:408] elu3 -> elu3
I1017 19:08:28.686702  3886 net.cpp:150] Setting up elu3
I1017 19:08:28.686707  3886 net.cpp:157] Top shape: 100 260 3 3 (234000)
I1017 19:08:28.686708  3886 net.cpp:165] Memory required for data: 154708400
I1017 19:08:28.686710  3886 layer_factory.hpp:77] Creating layer conv6
I1017 19:08:28.686717  3886 net.cpp:100] Creating Layer conv6
I1017 19:08:28.686718  3886 net.cpp:434] conv6 <- elu3
I1017 19:08:28.686729  3886 net.cpp:408] conv6 -> conv6
I1017 19:08:28.687841  3886 net.cpp:150] Setting up conv6
I1017 19:08:28.687850  3886 net.cpp:157] Top shape: 100 260 3 3 (234000)
I1017 19:08:28.687854  3886 net.cpp:165] Memory required for data: 155644400
I1017 19:08:28.687858  3886 layer_factory.hpp:77] Creating layer conv7
I1017 19:08:28.687866  3886 net.cpp:100] Creating Layer conv7
I1017 19:08:28.687870  3886 net.cpp:434] conv7 <- conv6
I1017 19:08:28.687875  3886 net.cpp:408] conv7 -> conv7
I1017 19:08:28.689810  3886 net.cpp:150] Setting up conv7
I1017 19:08:28.689817  3886 net.cpp:157] Top shape: 100 280 2 2 (112000)
I1017 19:08:28.689821  3886 net.cpp:165] Memory required for data: 156092400
I1017 19:08:28.689826  3886 layer_factory.hpp:77] Creating layer pool4
I1017 19:08:28.689832  3886 net.cpp:100] Creating Layer pool4
I1017 19:08:28.689834  3886 net.cpp:434] pool4 <- conv7
I1017 19:08:28.689838  3886 net.cpp:408] pool4 -> pool4
I1017 19:08:28.689868  3886 net.cpp:150] Setting up pool4
I1017 19:08:28.689872  3886 net.cpp:157] Top shape: 100 280 1 1 (28000)
I1017 19:08:28.689877  3886 net.cpp:165] Memory required for data: 156204400
I1017 19:08:28.689878  3886 layer_factory.hpp:77] Creating layer drop4
I1017 19:08:28.689883  3886 net.cpp:100] Creating Layer drop4
I1017 19:08:28.689888  3886 net.cpp:434] drop4 <- pool4
I1017 19:08:28.689893  3886 net.cpp:408] drop4 -> drop4
I1017 19:08:28.689918  3886 net.cpp:150] Setting up drop4
I1017 19:08:28.689924  3886 net.cpp:157] Top shape: 100 280 1 1 (28000)
I1017 19:08:28.689926  3886 net.cpp:165] Memory required for data: 156316400
I1017 19:08:28.689929  3886 layer_factory.hpp:77] Creating layer elu4
I1017 19:08:28.689932  3886 net.cpp:100] Creating Layer elu4
I1017 19:08:28.689936  3886 net.cpp:434] elu4 <- drop4
I1017 19:08:28.689940  3886 net.cpp:408] elu4 -> elu4
I1017 19:08:28.689957  3886 net.cpp:150] Setting up elu4
I1017 19:08:28.689961  3886 net.cpp:157] Top shape: 100 280 1 1 (28000)
I1017 19:08:28.689965  3886 net.cpp:165] Memory required for data: 156428400
I1017 19:08:28.689967  3886 layer_factory.hpp:77] Creating layer conv8
I1017 19:08:28.689975  3886 net.cpp:100] Creating Layer conv8
I1017 19:08:28.689977  3886 net.cpp:434] conv8 <- elu4
I1017 19:08:28.689982  3886 net.cpp:408] conv8 -> conv8
I1017 19:08:28.690834  3886 net.cpp:150] Setting up conv8
I1017 19:08:28.690842  3886 net.cpp:157] Top shape: 100 280 1 1 (28000)
I1017 19:08:28.690846  3886 net.cpp:165] Memory required for data: 156540400
I1017 19:08:28.690851  3886 layer_factory.hpp:77] Creating layer pool5
I1017 19:08:28.690856  3886 net.cpp:100] Creating Layer pool5
I1017 19:08:28.690860  3886 net.cpp:434] pool5 <- conv8
I1017 19:08:28.690865  3886 net.cpp:408] pool5 -> pool5
I1017 19:08:28.690892  3886 net.cpp:150] Setting up pool5
I1017 19:08:28.690897  3886 net.cpp:157] Top shape: 100 280 1 1 (28000)
I1017 19:08:28.690901  3886 net.cpp:165] Memory required for data: 156652400
I1017 19:08:28.690903  3886 layer_factory.hpp:77] Creating layer drop5
I1017 19:08:28.690909  3886 net.cpp:100] Creating Layer drop5
I1017 19:08:28.690913  3886 net.cpp:434] drop5 <- pool5
I1017 19:08:28.690917  3886 net.cpp:408] drop5 -> drop5
I1017 19:08:28.690943  3886 net.cpp:150] Setting up drop5
I1017 19:08:28.690948  3886 net.cpp:157] Top shape: 100 280 1 1 (28000)
I1017 19:08:28.690951  3886 net.cpp:165] Memory required for data: 156764400
I1017 19:08:28.690953  3886 layer_factory.hpp:77] Creating layer elu5
I1017 19:08:28.690958  3886 net.cpp:100] Creating Layer elu5
I1017 19:08:28.690960  3886 net.cpp:434] elu5 <- drop5
I1017 19:08:28.690965  3886 net.cpp:408] elu5 -> elu5
I1017 19:08:28.690984  3886 net.cpp:150] Setting up elu5
I1017 19:08:28.690987  3886 net.cpp:157] Top shape: 100 280 1 1 (28000)
I1017 19:08:28.690990  3886 net.cpp:165] Memory required for data: 156876400
I1017 19:08:28.690994  3886 layer_factory.hpp:77] Creating layer conv10
I1017 19:08:28.691000  3886 net.cpp:100] Creating Layer conv10
I1017 19:08:28.691004  3886 net.cpp:434] conv10 <- elu5
I1017 19:08:28.691007  3886 net.cpp:408] conv10 -> conv10
I1017 19:08:28.693390  3886 net.cpp:150] Setting up conv10
I1017 19:08:28.693399  3886 net.cpp:157] Top shape: 100 300 1 1 (30000)
I1017 19:08:28.693403  3886 net.cpp:165] Memory required for data: 156996400
I1017 19:08:28.693413  3886 layer_factory.hpp:77] Creating layer pool6
I1017 19:08:28.693419  3886 net.cpp:100] Creating Layer pool6
I1017 19:08:28.693423  3886 net.cpp:434] pool6 <- conv10
I1017 19:08:28.693426  3886 net.cpp:408] pool6 -> pool6
I1017 19:08:28.693456  3886 net.cpp:150] Setting up pool6
I1017 19:08:28.693461  3886 net.cpp:157] Top shape: 100 300 1 1 (30000)
I1017 19:08:28.693465  3886 net.cpp:165] Memory required for data: 157116400
I1017 19:08:28.693467  3886 layer_factory.hpp:77] Creating layer drop6
I1017 19:08:28.693472  3886 net.cpp:100] Creating Layer drop6
I1017 19:08:28.693476  3886 net.cpp:434] drop6 <- pool6
I1017 19:08:28.693481  3886 net.cpp:408] drop6 -> drop6
I1017 19:08:28.693507  3886 net.cpp:150] Setting up drop6
I1017 19:08:28.693512  3886 net.cpp:157] Top shape: 100 300 1 1 (30000)
I1017 19:08:28.693516  3886 net.cpp:165] Memory required for data: 157236400
I1017 19:08:28.693519  3886 layer_factory.hpp:77] Creating layer elu6
I1017 19:08:28.693523  3886 net.cpp:100] Creating Layer elu6
I1017 19:08:28.693527  3886 net.cpp:434] elu6 <- drop6
I1017 19:08:28.693532  3886 net.cpp:408] elu6 -> elu6
I1017 19:08:28.693549  3886 net.cpp:150] Setting up elu6
I1017 19:08:28.693553  3886 net.cpp:157] Top shape: 100 300 1 1 (30000)
I1017 19:08:28.693557  3886 net.cpp:165] Memory required for data: 157356400
I1017 19:08:28.693559  3886 layer_factory.hpp:77] Creating layer conv11
I1017 19:08:28.693567  3886 net.cpp:100] Creating Layer conv11
I1017 19:08:28.693569  3886 net.cpp:434] conv11 <- elu6
I1017 19:08:28.693574  3886 net.cpp:408] conv11 -> conv11
I1017 19:08:28.694751  3886 net.cpp:150] Setting up conv11
I1017 19:08:28.694763  3886 net.cpp:157] Top shape: 100 100 1 1 (10000)
I1017 19:08:28.694767  3886 net.cpp:165] Memory required for data: 157396400
I1017 19:08:28.694775  3886 layer_factory.hpp:77] Creating layer pool7
I1017 19:08:28.694783  3886 net.cpp:100] Creating Layer pool7
I1017 19:08:28.694788  3886 net.cpp:434] pool7 <- conv11
I1017 19:08:28.694794  3886 net.cpp:408] pool7 -> pool7
I1017 19:08:28.694840  3886 net.cpp:150] Setting up pool7
I1017 19:08:28.694850  3886 net.cpp:157] Top shape: 100 100 1 1 (10000)
I1017 19:08:28.694854  3886 net.cpp:165] Memory required for data: 157436400
I1017 19:08:28.694859  3886 layer_factory.hpp:77] Creating layer drop7
I1017 19:08:28.694864  3886 net.cpp:100] Creating Layer drop7
I1017 19:08:28.694869  3886 net.cpp:434] drop7 <- pool7
I1017 19:08:28.694876  3886 net.cpp:408] drop7 -> drop7
I1017 19:08:28.694914  3886 net.cpp:150] Setting up drop7
I1017 19:08:28.694921  3886 net.cpp:157] Top shape: 100 100 1 1 (10000)
I1017 19:08:28.694926  3886 net.cpp:165] Memory required for data: 157476400
I1017 19:08:28.694931  3886 layer_factory.hpp:77] Creating layer elu7
I1017 19:08:28.694941  3886 net.cpp:100] Creating Layer elu7
I1017 19:08:28.694947  3886 net.cpp:434] elu7 <- drop7
I1017 19:08:28.694953  3886 net.cpp:408] elu7 -> elu7
I1017 19:08:28.694977  3886 net.cpp:150] Setting up elu7
I1017 19:08:28.694983  3886 net.cpp:157] Top shape: 100 100 1 1 (10000)
I1017 19:08:28.694988  3886 net.cpp:165] Memory required for data: 157516400
I1017 19:08:28.694991  3886 layer_factory.hpp:77] Creating layer pool
I1017 19:08:28.694998  3886 net.cpp:100] Creating Layer pool
I1017 19:08:28.695003  3886 net.cpp:434] pool <- elu7
I1017 19:08:28.695009  3886 net.cpp:408] pool -> pool
I1017 19:08:28.695190  3886 net.cpp:150] Setting up pool
I1017 19:08:28.695199  3886 net.cpp:157] Top shape: 100 100 1 1 (10000)
I1017 19:08:28.695204  3886 net.cpp:165] Memory required for data: 157556400
I1017 19:08:28.695206  3886 layer_factory.hpp:77] Creating layer flatten
I1017 19:08:28.695214  3886 net.cpp:100] Creating Layer flatten
I1017 19:08:28.695219  3886 net.cpp:434] flatten <- pool
I1017 19:08:28.695225  3886 net.cpp:408] flatten -> flatten
I1017 19:08:28.695266  3886 net.cpp:150] Setting up flatten
I1017 19:08:28.695272  3886 net.cpp:157] Top shape: 100 100 (10000)
I1017 19:08:28.695276  3886 net.cpp:165] Memory required for data: 157596400
I1017 19:08:28.695279  3886 layer_factory.hpp:77] Creating layer score
I1017 19:08:28.695286  3886 net.cpp:100] Creating Layer score
I1017 19:08:28.695291  3886 net.cpp:434] score <- flatten
I1017 19:08:28.695298  3886 net.cpp:408] score -> score
I1017 19:08:28.695437  3886 net.cpp:150] Setting up score
I1017 19:08:28.695446  3886 net.cpp:157] Top shape: 100 10 (1000)
I1017 19:08:28.695449  3886 net.cpp:165] Memory required for data: 157600400
I1017 19:08:28.695456  3886 layer_factory.hpp:77] Creating layer score_score_0_split
I1017 19:08:28.695462  3886 net.cpp:100] Creating Layer score_score_0_split
I1017 19:08:28.695467  3886 net.cpp:434] score_score_0_split <- score
I1017 19:08:28.695474  3886 net.cpp:408] score_score_0_split -> score_score_0_split_0
I1017 19:08:28.695482  3886 net.cpp:408] score_score_0_split -> score_score_0_split_1
I1017 19:08:28.695520  3886 net.cpp:150] Setting up score_score_0_split
I1017 19:08:28.695526  3886 net.cpp:157] Top shape: 100 10 (1000)
I1017 19:08:28.695533  3886 net.cpp:157] Top shape: 100 10 (1000)
I1017 19:08:28.695535  3886 net.cpp:165] Memory required for data: 157608400
I1017 19:08:28.695538  3886 layer_factory.hpp:77] Creating layer accuracy
I1017 19:08:28.695545  3886 net.cpp:100] Creating Layer accuracy
I1017 19:08:28.695550  3886 net.cpp:434] accuracy <- score_score_0_split_0
I1017 19:08:28.695555  3886 net.cpp:434] accuracy <- label_data_1_split_0
I1017 19:08:28.695562  3886 net.cpp:408] accuracy -> accuracy
…
