…
solver_mode: GPU
device_id: 0
train_state {
  level: 0
  stage: ""
}
type: "SGD"
I1017 19:46:54.173686  4440 solver.cpp:81] Creating training net from train_net file: /home/adam/Honours/Honours-Project/cifar-10_pooling/max/elu/poolcnn_elu_train.prototxt
I1017 19:46:54.173990  4440 net.cpp:58] Initializing net from parameters: 
state {
  phase: TRAIN
  level: 0
  stage: ""
}
layer {
  name: "data"
  type: "Data"
  top: "data"
  top: "label"
  data_param {
    source: "../../../../data/cifar-10/cifar10_train_lmdb"
    batch_size: 64
    backend: LMDB
  }
}
layer {
  name: "conv1"
  type: "Convolution"
  bottom: "data"
  top: "conv1"
  convolution_param {
    num_output: 192
    kernel_size: 5
    weight_filler {
      type: "xavier"
    }
  }
}
layer {
  name: "pool1"
  type: "Pooling"
  bottom: "conv1"
  top: "pool1"
  pooling_param {
    pool: MAX
    kernel_size: 2
    stride: 2
  }
}
layer {
  name: "drop1"
  type: "Dropout"
  bottom: "pool1"
  top: "drop1"
  dropout_param {
    dropout_ratio: 0
  }
}
layer {
  name: "elu1"
  type: "ELU"
  bottom: "drop1"
  top: "elu1"
}
layer {
  name: "conv2"
  type: "Convolution"
  bottom: "elu1"
  top: "conv2"
  convolution_param {
    num_output: 192
    kernel_size: 1
    weight_filler {
      type: "xavier"
    }
  }
}
layer {
  name: "conv3"
  type: "Convolution"
  bottom: "conv2"
  top: "conv3"
  convolution_param {
    num_output: 240
    kernel_size: 3
    weight_filler {
      type: "xavier"
    }
  }
}
layer {
  name: "pool2"
  type: "Pooling"
  bottom: "conv3"
  top: "pool2"
  pooling_param {
    pool: MAX
    kernel_size: 2
    stride: 2
  }
}
layer {
  name: "drop2"
  type: "Dropout"
  bottom: "pool2"
  top: "drop2"
  dropout_param {
    dropout_ratio: 0.1
  }
}
layer {
  name: "elu2"
  type: "ELU"
  bottom: "drop2"
  top: "elu2"
}
layer {
  name: "conv4"
  type: "Convolution"
  bottom: "elu2"
  top: "conv4"
  convolution_param {
    num_output: 240
    kernel_size: 1
    weight_filler {
      type: "xavier"
    }
  }
}
layer {
  name: "conv5"
  type: "Convolution"
  bottom: "conv4"
  top: "conv5"
  convolution_param {
    num_output: 260
    kernel_size: 2
    weight_filler {
      type: "xavier"
    }
  }
}
layer {
  name: "pool3"
  type: "Pooling"
  bottom: "conv5"
  top: "pool3"
  pooling_param {
    pool: MAX
    kernel_size: 2
    stride: 2
  }
}
layer {
  name: "drop3"
  type: "Dropout"
  bottom: "pool3"
  top: "drop3"
  dropout_param {
    dropout_ratio: 0.2
  }
}
layer {
  name: "elu3"
  type: "ELU"
  bottom: "drop3"
  top: "elu3"
}
layer {
  name: "conv6"
  type: "Convolution"
  bottom: "elu3"
  top: "conv6"
  convolution_param {
    num_output: 260
    kernel_size: 1
    weight_filler {
      type: "xavier"
    }
  }
}
layer {
  name: "conv7"
  type: "Convolution"
  bottom: "conv6"
  top: "conv7"
  convolution_param {
    num_output: 280
    kernel_size: 2
    weight_filler {
      type: "xavier"
    }
  }
}
layer {
  name: "pool4"
  type: "Pooling"
  bottom: "conv7"
  top: "pool4"
  pooling_param {
    pool: MAX
    kernel_size: 2
    stride: 2
  }
}
layer {
  name: "drop4"
  type: "Dropout"
  bottom: "pool4"
  top: "drop4"
  dropout_param {
    dropout_ratio: 0.3
  }
}
layer {
  name: "elu4"
  type: "ELU"
  bottom: "drop4"
  top: "elu4"
}
layer {
  name: "conv8"
  type: "Convolution"
  bottom: "elu4"
  top: "conv8"
  convolution_param {
    num_output: 280
    kernel_size: 1
    weight_filler {
      type: "xavier"
    }
  }
}
layer {
  name: "pool5"
  type: "Pooling"
  bottom: "conv8"
  top: "pool5"
  pooling_param {
    pool: MAX
    kernel_size: 2
    stride: 2
  }
}
layer {
  name: "drop5"
  type: "Dropout"
  bottom: "pool5"
  top: "drop5"
  dropout_param {
    dropout_ratio: 0.4
  }
}
layer {
  name: "elu5"
  type: "ELU"
  bottom: "drop5"
  top: "elu5"
}
layer {
  name: "conv10"
  type: "Convolution"
  bottom: "elu5"
  top: "conv10"
  convolution_param {
    num_output: 300
    kernel_size: 1
    weight_filler {
      type: "xavier"
    }
  }
}
layer {
  name: "pool6"
  type: "Pooling"
  bottom: "conv10"
  top: "pool6"
  pooling_param {
    pool: MAX
    kernel_size: 2
    stride: 2
  }
}
layer {
  name: "drop6"
  type: "Dropout"
  bottom: "pool6"
  top: "drop6"
  dropout_param {
    dropout_ratio: 0.5
  }
}
layer {
  name: "elu6"
  type: "ELU"
  bottom: "drop6"
  top: "elu6"
}
layer {
  name: "conv11"
  type: "Convolution"
  bottom: "elu6"
  top: "conv11"
  convolution_param {
    num_output: 100
    kernel_size: 1
    weight_filler {
      type: "xavier"
    }
  }
}
layer {
  name: "pool7"
  type: "Pooling"
  bottom: "conv11"
  top: "pool7"
  pooling_param {
    pool: MAX
    kernel_size: 2
    stride: 2
  }
}
layer {
  name: "drop7"
  type: "Dropout"
  bottom: "pool7"
  top: "drop7"
  dropout_param {
    dropout_ratio: 0
  }
}
layer {
  name: "elu7"
  type: "ELU"
  bottom: "drop7"
  top: "elu7"
}
layer {
  name: "pool"
  type: "Pooling"
  bottom: "elu7"
  top: "pool"
  pooling_param {
    pool: AVE
    global_pooling: true
  }
}
layer {
  name: "flatten"
  type: "Flatten"
  bottom: "pool"
  top: "flatten"
}
layer {
  name: "score"
  type: "InnerProduct"
  bottom: "flatten"
  top: "score"
  inner_product_param {
    num_output: 10
    weight_filler {
      type: "gaussian"
    }
  }
}
layer {
  name: "accuracy"
  type: "Accuracy"
  bottom: "score"
  bottom: "label"
  top: "accuracy"
}
layer {
  name: "loss"
  type: "SoftmaxWithLoss"
  bottom: "score"
  bottom: "label"
  top: "loss"
}
I1017 19:46:54.174098  4440 layer_factory.hpp:77] Creating layer data
I1017 19:46:54.174484  4440 net.cpp:100] Creating Layer data
I1017 19:46:54.174491  4440 net.cpp:408] data -> data
I1017 19:46:54.174505  4440 net.cpp:408] data -> label
I1017 19:46:54.175087  4445 db_lmdb.cpp:35] Opened lmdb ../../../../data/cifar-10/cifar10_train_lmdb
I1017 19:46:54.180897  4440 data_layer.cpp:41] output data size: 64,3,32,32
I1017 19:46:54.182271  4440 net.cpp:150] Setting up data
I1017 19:46:54.182286  4440 net.cpp:157] Top shape: 64 3 32 32 (196608)
I1017 19:46:54.182289  4440 net.cpp:157] Top shape: 64 (64)
I1017 19:46:54.182291  4440 net.cpp:165] Memory required for data: 786688
I1017 19:46:54.182298  4440 layer_factory.hpp:77] Creating layer label_data_1_split
I1017 19:46:54.182309  4440 net.cpp:100] Creating Layer label_data_1_split
I1017 19:46:54.182314  4440 net.cpp:434] label_data_1_split <- label
I1017 19:46:54.182324  4440 net.cpp:408] label_data_1_split -> label_data_1_split_0
I1017 19:46:54.182332  4440 net.cpp:408] label_data_1_split -> label_data_1_split_1
I1017 19:46:54.182358  4440 net.cpp:150] Setting up label_data_1_split
I1017 19:46:54.182360  4440 net.cpp:157] Top shape: 64 (64)
I1017 19:46:54.182363  4440 net.cpp:157] Top shape: 64 (64)
I1017 19:46:54.182364  4440 net.cpp:165] Memory required for data: 787200
I1017 19:46:54.182365  4440 layer_factory.hpp:77] Creating layer conv1
I1017 19:46:54.182379  4440 net.cpp:100] Creating Layer conv1
I1017 19:46:54.182380  4440 net.cpp:434] conv1 <- data
I1017 19:46:54.182385  4440 net.cpp:408] conv1 -> conv1
I1017 19:46:54.300679  4440 net.cpp:150] Setting up conv1
I1017 19:46:54.300705  4440 net.cpp:157] Top shape: 64 192 28 28 (9633792)
I1017 19:46:54.300709  4440 net.cpp:165] Memory required for data: 39322368
I1017 19:46:54.300725  4440 layer_factory.hpp:77] Creating layer pool1
I1017 19:46:54.300734  4440 net.cpp:100] Creating Layer pool1
I1017 19:46:54.300737  4440 net.cpp:434] pool1 <- conv1
I1017 19:46:54.300741  4440 net.cpp:408] pool1 -> pool1
I1017 19:46:54.300778  4440 net.cpp:150] Setting up pool1
I1017 19:46:54.300782  4440 net.cpp:157] Top shape: 64 192 14 14 (2408448)
I1017 19:46:54.300786  4440 net.cpp:165] Memory required for data: 48956160
I1017 19:46:54.300798  4440 layer_factory.hpp:77] Creating layer drop1
I1017 19:46:54.300803  4440 net.cpp:100] Creating Layer drop1
I1017 19:46:54.300806  4440 net.cpp:434] drop1 <- pool1
I1017 19:46:54.300808  4440 net.cpp:408] drop1 -> drop1
I1017 19:46:54.300832  4440 net.cpp:150] Setting up drop1
I1017 19:46:54.300837  4440 net.cpp:157] Top shape: 64 192 14 14 (2408448)
I1017 19:46:54.300838  4440 net.cpp:165] Memory required for data: 58589952
I1017 19:46:54.300840  4440 layer_factory.hpp:77] Creating layer elu1
I1017 19:46:54.300843  4440 net.cpp:100] Creating Layer elu1
I1017 19:46:54.300845  4440 net.cpp:434] elu1 <- drop1
I1017 19:46:54.300848  4440 net.cpp:408] elu1 -> elu1
I1017 19:46:54.300859  4440 net.cpp:150] Setting up elu1
I1017 19:46:54.300863  4440 net.cpp:157] Top shape: 64 192 14 14 (2408448)
I1017 19:46:54.300864  4440 net.cpp:165] Memory required for data: 68223744
I1017 19:46:54.300866  4440 layer_factory.hpp:77] Creating layer conv2
I1017 19:46:54.300873  4440 net.cpp:100] Creating Layer conv2
I1017 19:46:54.300875  4440 net.cpp:434] conv2 <- elu1
I1017 19:46:54.300879  4440 net.cpp:408] conv2 -> conv2
I1017 19:46:54.301868  4440 net.cpp:150] Setting up conv2
I1017 19:46:54.301877  4440 net.cpp:157] Top shape: 64 192 14 14 (2408448)
I1017 19:46:54.301879  4440 net.cpp:165] Memory required for data: 77857536
I1017 19:46:54.301885  4440 layer_factory.hpp:77] Creating layer conv3
I1017 19:46:54.301892  4440 net.cpp:100] Creating Layer conv3
I1017 19:46:54.301893  4440 net.cpp:434] conv3 <- conv2
I1017 19:46:54.301898  4440 net.cpp:408] conv3 -> conv3
I1017 19:46:54.304318  4440 net.cpp:150] Setting up conv3
I1017 19:46:54.304327  4440 net.cpp:157] Top shape: 64 240 12 12 (2211840)
I1017 19:46:54.304328  4440 net.cpp:165] Memory required for data: 86704896
I1017 19:46:54.304333  4440 layer_factory.hpp:77] Creating layer pool2
I1017 19:46:54.304339  4440 net.cpp:100] Creating Layer pool2
I1017 19:46:54.304342  4440 net.cpp:434] pool2 <- conv3
I1017 19:46:54.304344  4440 net.cpp:408] pool2 -> pool2
I1017 19:46:54.304369  4440 net.cpp:150] Setting up pool2
I1017 19:46:54.304373  4440 net.cpp:157] Top shape: 64 240 6 6 (552960)
I1017 19:46:54.304375  4440 net.cpp:165] Memory required for data: 88916736
I1017 19:46:54.304378  4440 layer_factory.hpp:77] Creating layer drop2
I1017 19:46:54.304380  4440 net.cpp:100] Creating Layer drop2
I1017 19:46:54.304383  4440 net.cpp:434] drop2 <- pool2
I1017 19:46:54.304385  4440 net.cpp:408] drop2 -> drop2
I1017 19:46:54.304406  4440 net.cpp:150] Setting up drop2
I1017 19:46:54.304410  4440 net.cpp:157] Top shape: 64 240 6 6 (552960)
I1017 19:46:54.304412  4440 net.cpp:165] Memory required for data: 91128576
I1017 19:46:54.304414  4440 layer_factory.hpp:77] Creating layer elu2
I1017 19:46:54.304416  4440 net.cpp:100] Creating Layer elu2
I1017 19:46:54.304419  4440 net.cpp:434] elu2 <- drop2
I1017 19:46:54.304420  4440 net.cpp:408] elu2 -> elu2
I1017 19:46:54.304432  4440 net.cpp:150] Setting up elu2
I1017 19:46:54.304436  4440 net.cpp:157] Top shape: 64 240 6 6 (552960)
I1017 19:46:54.304437  4440 net.cpp:165] Memory required for data: 93340416
I1017 19:46:54.304440  4440 layer_factory.hpp:77] Creating layer conv4
I1017 19:46:54.304445  4440 net.cpp:100] Creating Layer conv4
I1017 19:46:54.304447  4440 net.cpp:434] conv4 <- elu2
I1017 19:46:54.304450  4440 net.cpp:408] conv4 -> conv4
I1017 19:46:54.305259  4440 net.cpp:150] Setting up conv4
I1017 19:46:54.305268  4440 net.cpp:157] Top shape: 64 240 6 6 (552960)
I1017 19:46:54.305270  4440 net.cpp:165] Memory required for data: 95552256
I1017 19:46:54.305274  4440 layer_factory.hpp:77] Creating layer conv5
I1017 19:46:54.305279  4440 net.cpp:100] Creating Layer conv5
I1017 19:46:54.305281  4440 net.cpp:434] conv5 <- conv4
I1017 19:46:54.305284  4440 net.cpp:408] conv5 -> conv5
I1017 19:46:54.307024  4440 net.cpp:150] Setting up conv5
I1017 19:46:54.307031  4440 net.cpp:157] Top shape: 64 260 5 5 (416000)
I1017 19:46:54.307034  4440 net.cpp:165] Memory required for data: 97216256
I1017 19:46:54.307049  4440 layer_factory.hpp:77] Creating layer pool3
I1017 19:46:54.307054  4440 net.cpp:100] Creating Layer pool3
I1017 19:46:54.307055  4440 net.cpp:434] pool3 <- conv5
I1017 19:46:54.307059  4440 net.cpp:408] pool3 -> pool3
I1017 19:46:54.307085  4440 net.cpp:150] Setting up pool3
I1017 19:46:54.307088  4440 net.cpp:157] Top shape: 64 260 3 3 (149760)
I1017 19:46:54.307090  4440 net.cpp:165] Memory required for data: 97815296
I1017 19:46:54.307091  4440 layer_factory.hpp:77] Creating layer drop3
I1017 19:46:54.307095  4440 net.cpp:100] Creating Layer drop3
I1017 19:46:54.307096  4440 net.cpp:434] drop3 <- pool3
I1017 19:46:54.307099  4440 net.cpp:408] drop3 -> drop3
I1017 19:46:54.307122  4440 net.cpp:150] Setting up drop3
I1017 19:46:54.307126  4440 net.cpp:157] Top shape: 64 260 3 3 (149760)
I1017 19:46:54.307127  4440 net.cpp:165] Memory required for data: 98414336
I1017 19:46:54.307128  4440 layer_factory.hpp:77] Creating layer elu3
I1017 19:46:54.307132  4440 net.cpp:100] Creating Layer elu3
I1017 19:46:54.307133  4440 net.cpp:434] elu3 <- drop3
I1017 19:46:54.307137  4440 net.cpp:408] elu3 -> elu3
I1017 19:46:54.307148  4440 net.cpp:150] Setting up elu3
I1017 19:46:54.307152  4440 net.cpp:157] Top shape: 64 260 3 3 (149760)
I1017 19:46:54.307154  4440 net.cpp:165] Memory required for data: 99013376
I1017 19:46:54.307157  4440 layer_factory.hpp:77] Creating layer conv6
I1017 19:46:54.307162  4440 net.cpp:100] Creating Layer conv6
I1017 19:46:54.307163  4440 net.cpp:434] conv6 <- elu3
I1017 19:46:54.307168  4440 net.cpp:408] conv6 -> conv6
I1017 19:46:54.308248  4440 net.cpp:150] Setting up conv6
I1017 19:46:54.308257  4440 net.cpp:157] Top shape: 64 260 3 3 (149760)
I1017 19:46:54.308259  4440 net.cpp:165] Memory required for data: 99612416
I1017 19:46:54.308264  4440 layer_factory.hpp:77] Creating layer conv7
I1017 19:46:54.308269  4440 net.cpp:100] Creating Layer conv7
I1017 19:46:54.308270  4440 net.cpp:434] conv7 <- conv6
I1017 19:46:54.308274  4440 net.cpp:408] conv7 -> conv7
I1017 19:46:54.310098  4440 net.cpp:150] Setting up conv7
I1017 19:46:54.310106  4440 net.cpp:157] Top shape: 64 280 2 2 (71680)
I1017 19:46:54.310108  4440 net.cpp:165] Memory required for data: 99899136
I1017 19:46:54.310112  4440 layer_factory.hpp:77] Creating layer pool4
I1017 19:46:54.310117  4440 net.cpp:100] Creating Layer pool4
I1017 19:46:54.310119  4440 net.cpp:434] pool4 <- conv7
I1017 19:46:54.310122  4440 net.cpp:408] pool4 -> pool4
I1017 19:46:54.310145  4440 net.cpp:150] Setting up pool4
I1017 19:46:54.310150  4440 net.cpp:157] Top shape: 64 280 1 1 (17920)
I1017 19:46:54.310151  4440 net.cpp:165] Memory required for data: 99970816
I1017 19:46:54.310153  4440 layer_factory.hpp:77] Creating layer drop4
I1017 19:46:54.310156  4440 net.cpp:100] Creating Layer drop4
I1017 19:46:54.310158  4440 net.cpp:434] drop4 <- pool4
I1017 19:46:54.310160  4440 net.cpp:408] drop4 -> drop4
I1017 19:46:54.310181  4440 net.cpp:150] Setting up drop4
I1017 19:46:54.310184  4440 net.cpp:157] Top shape: 64 280 1 1 (17920)
I1017 19:46:54.310186  4440 net.cpp:165] Memory required for data: 100042496
I1017 19:46:54.310189  4440 layer_factory.hpp:77] Creating layer elu4
I1017 19:46:54.310190  4440 net.cpp:100] Creating Layer elu4
I1017 19:46:54.310192  4440 net.cpp:434] elu4 <- drop4
I1017 19:46:54.310195  4440 net.cpp:408] elu4 -> elu4
I1017 19:46:54.310209  4440 net.cpp:150] Setting up elu4
I1017 19:46:54.310212  4440 net.cpp:157] Top shape: 64 280 1 1 (17920)
I1017 19:46:54.310214  4440 net.cpp:165] Memory required for data: 100114176
I1017 19:46:54.310215  4440 layer_factory.hpp:77] Creating layer conv8
I1017 19:46:54.310220  4440 net.cpp:100] Creating Layer conv8
I1017 19:46:54.310223  4440 net.cpp:434] conv8 <- elu4
I1017 19:46:54.310226  4440 net.cpp:408] conv8 -> conv8
I1017 19:46:54.311115  4440 net.cpp:150] Setting up conv8
I1017 19:46:54.311122  4440 net.cpp:157] Top shape: 64 280 1 1 (17920)
I1017 19:46:54.311125  4440 net.cpp:165] Memory required for data: 100185856
I1017 19:46:54.311130  4440 layer_factory.hpp:77] Creating layer pool5
I1017 19:46:54.311142  4440 net.cpp:100] Creating Layer pool5
I1017 19:46:54.311146  4440 net.cpp:434] pool5 <- conv8
I1017 19:46:54.311148  4440 net.cpp:408] pool5 -> pool5
I1017 19:46:54.311173  4440 net.cpp:150] Setting up pool5
I1017 19:46:54.311177  4440 net.cpp:157] Top shape: 64 280 1 1 (17920)
I1017 19:46:54.311179  4440 net.cpp:165] Memory required for data: 100257536
I1017 19:46:54.311182  4440 layer_factory.hpp:77] Creating layer drop5
I1017 19:46:54.311183  4440 net.cpp:100] Creating Layer drop5
I1017 19:46:54.311187  4440 net.cpp:434] drop5 <- pool5
I1017 19:46:54.311189  4440 net.cpp:408] drop5 -> drop5
I1017 19:46:54.311210  4440 net.cpp:150] Setting up drop5
I1017 19:46:54.311215  4440 net.cpp:157] Top shape: 64 280 1 1 (17920)
I1017 19:46:54.311218  4440 net.cpp:165] Memory required for data: 100329216
I1017 19:46:54.311219  4440 layer_factory.hpp:77] Creating layer elu5
I1017 19:46:54.311221  4440 net.cpp:100] Creating Layer elu5
I1017 19:46:54.311223  4440 net.cpp:434] elu5 <- drop5
I1017 19:46:54.311226  4440 net.cpp:408] elu5 -> elu5
I1017 19:46:54.311239  4440 net.cpp:150] Setting up elu5
I1017 19:46:54.311242  4440 net.cpp:157] Top shape: 64 280 1 1 (17920)
I1017 19:46:54.311244  4440 net.cpp:165] Memory required for data: 100400896
I1017 19:46:54.311246  4440 layer_factory.hpp:77] Creating layer conv10
I1017 19:46:54.311251  4440 net.cpp:100] Creating Layer conv10
I1017 19:46:54.311254  4440 net.cpp:434] conv10 <- elu5
I1017 19:46:54.311257  4440 net.cpp:408] conv10 -> conv10
I1017 19:46:54.312180  4440 net.cpp:150] Setting up conv10
I1017 19:46:54.312188  4440 net.cpp:157] Top shape: 64 300 1 1 (19200)
I1017 19:46:54.312191  4440 net.cpp:165] Memory required for data: 100477696
I1017 19:46:54.312198  4440 layer_factory.hpp:77] Creating layer pool6
I1017 19:46:54.312202  4440 net.cpp:100] Creating Layer pool6
I1017 19:46:54.312206  4440 net.cpp:434] pool6 <- conv10
I1017 19:46:54.312209  4440 net.cpp:408] pool6 -> pool6
I1017 19:46:54.312234  4440 net.cpp:150] Setting up pool6
I1017 19:46:54.312238  4440 net.cpp:157] Top shape: 64 300 1 1 (19200)
I1017 19:46:54.312242  4440 net.cpp:165] Memory required for data: 100554496
I1017 19:46:54.312243  4440 layer_factory.hpp:77] Creating layer drop6
I1017 19:46:54.312247  4440 net.cpp:100] Creating Layer drop6
I1017 19:46:54.312249  4440 net.cpp:434] drop6 <- pool6
I1017 19:46:54.312252  4440 net.cpp:408] drop6 -> drop6
I1017 19:46:54.312274  4440 net.cpp:150] Setting up drop6
I1017 19:46:54.312278  4440 net.cpp:157] Top shape: 64 300 1 1 (19200)
I1017 19:46:54.312280  4440 net.cpp:165] Memory required for data: 100631296
I1017 19:46:54.312283  4440 layer_factory.hpp:77] Creating layer elu6
I1017 19:46:54.312284  4440 net.cpp:100] Creating Layer elu6
I1017 19:46:54.312286  4440 net.cpp:434] elu6 <- drop6
I1017 19:46:54.312291  4440 net.cpp:408] elu6 -> elu6
I1017 19:46:54.312304  4440 net.cpp:150] Setting up elu6
I1017 19:46:54.312306  4440 net.cpp:157] Top shape: 64 300 1 1 (19200)
I1017 19:46:54.312307  4440 net.cpp:165] Memory required for data: 100708096
I1017 19:46:54.312309  4440 layer_factory.hpp:77] Creating layer conv11
I1017 19:46:54.312314  4440 net.cpp:100] Creating Layer conv11
I1017 19:46:54.312317  4440 net.cpp:434] conv11 <- elu6
I1017 19:46:54.312319  4440 net.cpp:408] conv11 -> conv11
I1017 19:46:54.313138  4440 net.cpp:150] Setting up conv11
I1017 19:46:54.313145  4440 net.cpp:157] Top shape: 64 100 1 1 (6400)
I1017 19:46:54.313148  4440 net.cpp:165] Memory required for data: 100733696
I1017 19:46:54.313151  4440 layer_factory.hpp:77] Creating layer pool7
I1017 19:46:54.313155  4440 net.cpp:100] Creating Layer pool7
I1017 19:46:54.313158  4440 net.cpp:434] pool7 <- conv11
I1017 19:46:54.313161  4440 net.cpp:408] pool7 -> pool7
I1017 19:46:54.313187  4440 net.cpp:150] Setting up pool7
I1017 19:46:54.313191  4440 net.cpp:157] Top shape: 64 100 1 1 (6400)
I1017 19:46:54.313194  4440 net.cpp:165] Memory required for data: 100759296
I1017 19:46:54.313195  4440 layer_factory.hpp:77] Creating layer drop7
I1017 19:46:54.313207  4440 net.cpp:100] Creating Layer drop7
I1017 19:46:54.313210  4440 net.cpp:434] drop7 <- pool7
I1017 19:46:54.313212  4440 net.cpp:408] drop7 -> drop7
I1017 19:46:54.313235  4440 net.cpp:150] Setting up drop7
I1017 19:46:54.313238  4440 net.cpp:157] Top shape: 64 100 1 1 (6400)
I1017 19:46:54.313241  4440 net.cpp:165] Memory required for data: 100784896
I1017 19:46:54.313242  4440 layer_factory.hpp:77] Creating layer elu7
I1017 19:46:54.313247  4440 net.cpp:100] Creating Layer elu7
I1017 19:46:54.313251  4440 net.cpp:434] elu7 <- drop7
I1017 19:46:54.313254  4440 net.cpp:408] elu7 -> elu7
I1017 19:46:54.313267  4440 net.cpp:150] Setting up elu7
I1017 19:46:54.313271  4440 net.cpp:157] Top shape: 64 100 1 1 (6400)
I1017 19:46:54.313273  4440 net.cpp:165] Memory required for data: 100810496
I1017 19:46:54.313274  4440 layer_factory.hpp:77] Creating layer pool
I1017 19:46:54.313277  4440 net.cpp:100] Creating Layer pool
I1017 19:46:54.313279  4440 net.cpp:434] pool <- elu7
I1017 19:46:54.313283  4440 net.cpp:408] pool -> pool
I1017 19:46:54.313874  4440 net.cpp:150] Setting up pool
I1017 19:46:54.313880  4440 net.cpp:157] Top shape: 64 100 1 1 (6400)
I1017 19:46:54.313882  4440 net.cpp:165] Memory required for data: 100836096
I1017 19:46:54.313884  4440 layer_factory.hpp:77] Creating layer flatten
I1017 19:46:54.313887  4440 net.cpp:100] Creating Layer flatten
I1017 19:46:54.313889  4440 net.cpp:434] flatten <- pool
I1017 19:46:54.313892  4440 net.cpp:408] flatten -> flatten
I1017 19:46:54.313907  4440 net.cpp:150] Setting up flatten
I1017 19:46:54.313910  4440 net.cpp:157] Top shape: 64 100 (6400)
I1017 19:46:54.313912  4440 net.cpp:165] Memory required for data: 100861696
I1017 19:46:54.313913  4440 layer_factory.hpp:77] Creating layer score
I1017 19:46:54.313920  4440 net.cpp:100] Creating Layer score
I1017 19:46:54.313921  4440 net.cpp:434] score <- flatten
I1017 19:46:54.313925  4440 net.cpp:408] score -> score
I1017 19:46:54.314020  4440 net.cpp:150] Setting up score
I1017 19:46:54.314024  4440 net.cpp:157] Top shape: 64 10 (640)
I1017 19:46:54.314026  4440 net.cpp:165] Memory required for data: 100864256
I1017 19:46:54.314029  4440 layer_factory.hpp:77] Creating layer score_score_0_split
I1017 19:46:54.314033  4440 net.cpp:100] Creating Layer score_score_0_split
I1017 19:46:54.314036  4440 net.cpp:434] score_score_0_split <- score
I1017 19:46:54.314038  4440 net.cpp:408] score_score_0_split -> score_score_0_split_0
I1017 19:46:54.314043  4440 net.cpp:408] score_score_0_split -> score_score_0_split_1
I1017 19:46:54.314064  4440 net.cpp:150] Setting up score_score_0_split
I1017 19:46:54.314069  4440 net.cpp:157] Top shape: 64 10 (640)
I1017 19:46:54.314070  4440 net.cpp:157] Top shape: 64 10 (640)
I1017 19:46:54.314072  4440 net.cpp:165] Memory required for data: 100869376
I1017 19:46:54.314074  4440 layer_factory.hpp:77] Creating layer accuracy
I1017 19:46:54.314079  4440 net.cpp:100] Creating Layer accuracy
I1017 19:46:54.314080  4440 net.cpp:434] accuracy <- score_score_0_split_0
I1017 19:46:54.314083  4440 net.cpp:434] accuracy <- label_data_1_split_0
I1017 19:46:54.314087  4440 net.cpp:408] accuracy -> accuracy
…
I1017 19:46:54.314476  4440 net.cpp:270] This network produces output loss
I1017 19:46:54.314494  4440 net.cpp:283] Network initialization done.
I1017 19:46:54.314678  4440 solver.cpp:181] Creating test net (#0) specified by test_net file: /home/adam/Honours/Honours-Project/cifar-10_pooling/max/elu/poolcnn_elu_test.prototxt
I1017 19:46:54.314791  4440 net.cpp:58] Initializing net from parameters: 
state {
  phase: TEST
}
layer {
  name: "data"
  type: "Data"
  top: "data"
  top: "label"
  data_param {
    source: "../../../../data/cifar-10/cifar10_test_lmdb"
    batch_size: 100
    backend: LMDB
  }
}
layer {
  name: "conv1"
  type: "Convolution"
  bottom: "data"
  top: "conv1"
  convolution_param {
    num_output: 192
    kernel_size: 5
    weight_filler {
      type: "xavier"
    }
  }
}
layer {
  name: "pool1"
  type: "Pooling"
  bottom: "conv1"
  top: "pool1"
  pooling_param {
    pool: MAX
    kernel_size: 2
    stride: 2
  }
}
layer {
  name: "drop1"
  type: "Dropout"
  bottom: "pool1"
  top: "drop1"
  dropout_param {
    dropout_ratio: 0
  }
}
layer {
  name: "elu1"
  type: "ELU"
  bottom: "drop1"
  top: "elu1"
}
layer {
  name: "conv2"
  type: "Convolution"
  bottom: "elu1"
  top: "conv2"
  convolution_param {
    num_output: 192
    kernel_size: 1
    weight_filler {
      type: "xavier"
    }
  }
}
layer {
  name: "conv3"
  type: "Convolution"
  bottom: "conv2"
  top: "conv3"
  convolution_param {
    num_output: 240
    kernel_size: 3
    weight_filler {
      type: "xavier"
    }
  }
}
layer {
  name: "pool2"
  type: "Pooling"
  bottom: "conv3"
  top: "pool2"
  pooling_param {
    pool: MAX
    kernel_size: 2
    stride: 2
  }
}
layer {
  name: "drop2"
  type: "Dropout"
  bottom: "pool2"
  top: "drop2"
  dropout_param {
    dropout_ratio: 0.1
  }
}
layer {
  name: "elu2"
  type: "ELU"
  bottom: "drop2"
  top: "elu2"
}
layer {
  name: "conv4"
  type: "Convolution"
  bottom: "elu2"
  top: "conv4"
  convolution_param {
    num_output: 240
    kernel_size: 1
    weight_filler {
      type: "xavier"
    }
  }
}
layer {
  name: "conv5"
  type: "Convolution"
  bottom: "conv4"
  top: "conv5"
  convolution_param {
    num_output: 260
    kernel_size: 2
    weight_filler {
      type: "xavier"
    }
  }
}
layer {
  name: "pool3"
  type: "Pooling"
  bottom: "conv5"
  top: "pool3"
  pooling_param {
    pool: MAX
    kernel_size: 2
    stride: 2
  }
}
layer {
  name: "drop3"
  type: "Dropout"
  bottom: "pool3"
  top: "drop3"
  dropout_param {
    dropout_ratio: 0.2
  }
}
layer {
  name: "elu3"
  type: "ELU"
  bottom: "drop3"
  top: "elu3"
}
layer {
  name: "conv6"
  type: "Convolution"
  bottom: "elu3"
  top: "conv6"
  convolution_param {
    num_output: 260
    kernel_size: 1
    weight_filler {
      type: "xavier"
    }
  }
}
layer {
  name: "conv7"
  type: "Convolution"
  bottom: "conv6"
  top: "conv7"
  convolution_param {
    num_output: 280
    kernel_size: 2
    weight_filler {
      type: "xavier"
    }
  }
}
layer {
  name: "pool4"
  type: "Pooling"
  bottom: "conv7"
  top: "pool4"
  pooling_param {
    pool: MAX
    kernel_size: 2
    stride: 2
  }
}
layer {
  name: "drop4"
  type: "Dropout"
  bottom: "pool4"
  top: "drop4"
  dropout_param {
    dropout_ratio: 0.3
  }
}
layer {
  name: "elu4"
  type: "ELU"
  bottom: "drop4"
  top: "elu4"
}
layer {
  name: "conv8"
  type: "Convolution"
  bottom: "elu4"
  top: "conv8"
  convolution_param {
    num_output: 280
    kernel_size: 1
    weight_filler {
      type: "xavier"
    }
  }
}
layer {
  name: "pool5"
  type: "Pooling"
  bottom: "conv8"
  top: "pool5"
  pooling_param {
    pool: MAX
    kernel_size: 2
    stride: 2
  }
}
layer {
  name: "drop5"
  type: "Dropout"
  bottom: "pool5"
  top: "drop5"
  dropout_param {
    dropout_ratio: 0.4
  }
}
layer {
  name: "elu5"
  type: "ELU"
  bottom: "drop5"
  top: "elu5"
}
layer {
  name: "conv10"
  type: "Convolution"
  bottom: "elu5"
  top: "conv10"
  convolution_param {
    num_output: 300
    kernel_size: 1
    weight_filler {
      type: "xavier"
    }
  }
}
layer {
  name: "pool6"
  type: "Pooling"
  bottom: "conv10"
  top: "pool6"
  pooling_param {
    pool: MAX
    kernel_size: 2
    stride: 2
  }
}
layer {
  name: "drop6"
  type: "Dropout"
  bottom: "pool6"
  top: "drop6"
  dropout_param {
    dropout_ratio: 0.5
  }
}
layer {
  name: "elu6"
  type: "ELU"
  bottom: "drop6"
  top: "elu6"
}
layer {
  name: "conv11"
  type: "Convolution"
  bottom: "elu6"
  top: "conv11"
  convolution_param {
    num_output: 100
    kernel_size: 1
    weight_filler {
      type: "xavier"
    }
  }
}
layer {
  name: "pool7"
  type: "Pooling"
  bottom: "conv11"
  top: "pool7"
  pooling_param {
    pool: MAX
    kernel_size: 2
    stride: 2
  }
}
layer {
  name: "drop7"
  type: "Dropout"
  bottom: "pool7"
  top: "drop7"
  dropout_param {
    dropout_ratio: 0
  }
}
layer {
  name: "elu7"
  type: "ELU"
  bottom: "drop7"
  top: "elu7"
}
layer {
  name: "pool"
  type: "Pooling"
  bottom: "elu7"
  top: "pool"
  pooling_param {
    pool: AVE
    global_pooling: true
  }
}
layer {
  name: "flatten"
  type: "Flatten"
  bottom: "pool"
  top: "flatten"
}
layer {
  name: "score"
  type: "InnerProduct"
  bottom: "flatten"
  top: "score"
  inner_product_param {
    num_output: 10
    weight_filler {
      type: "gaussian"
    }
  }
}
layer {
  name: "accuracy"
  type: "Accuracy"
  bottom: "score"
  bottom: "label"
  top: "accuracy"
}
layer {
  name: "loss"
  type: "SoftmaxWithLoss"
  bottom: "score"
  bottom: "label"
  top: "loss"
}
I1017 19:46:54.314869  4440 layer_factory.hpp:77] Creating layer data
I1017 19:46:54.314949  4440 net.cpp:100] Creating Layer data
I1017 19:46:54.314961  4440 net.cpp:408] data -> data
I1017 19:46:54.314966  4440 net.cpp:408] data -> label
I1017 19:46:54.315518  4447 db_lmdb.cpp:35] Opened lmdb ../../../../data/cifar-10/cifar10_test_lmdb
I1017 19:46:54.315594  4440 data_layer.cpp:41] output data size: 100,3,32,32
I1017 19:46:54.317258  4440 net.cpp:150] Setting up data
I1017 19:46:54.317271  4440 net.cpp:157] Top shape: 100 3 32 32 (307200)
I1017 19:46:54.317275  4440 net.cpp:157] Top shape: 100 (100)
I1017 19:46:54.317276  4440 net.cpp:165] Memory required for data: 1229200
I1017 19:46:54.317279  4440 layer_factory.hpp:77] Creating layer label_data_1_split
I1017 19:46:54.317286  4440 net.cpp:100] Creating Layer label_data_1_split
I1017 19:46:54.317289  4440 net.cpp:434] label_data_1_split <- label
I1017 19:46:54.317294  4440 net.cpp:408] label_data_1_split -> label_data_1_split_0
I1017 19:46:54.317299  4440 net.cpp:408] label_data_1_split -> label_data_1_split_1
I1017 19:46:54.317332  4440 net.cpp:150] Setting up label_data_1_split
I1017 19:46:54.317337  4440 net.cpp:157] Top shape: 100 (100)
I1017 19:46:54.317338  4440 net.cpp:157] Top shape: 100 (100)
I1017 19:46:54.317339  4440 net.cpp:165] Memory required for data: 1230000
I1017 19:46:54.317342  4440 layer_factory.hpp:77] Creating layer conv1
I1017 19:46:54.317348  4440 net.cpp:100] Creating Layer conv1
I1017 19:46:54.317351  4440 net.cpp:434] conv1 <- data
I1017 19:46:54.317354  4440 net.cpp:408] conv1 -> conv1
I1017 19:46:54.318251  4440 net.cpp:150] Setting up conv1
I1017 19:46:54.318260  4440 net.cpp:157] Top shape: 100 192 28 28 (15052800)
I1017 19:46:54.318262  4440 net.cpp:165] Memory required for data: 61441200
I1017 19:46:54.318270  4440 layer_factory.hpp:77] Creating layer pool1
I1017 19:46:54.318277  4440 net.cpp:100] Creating Layer pool1
I1017 19:46:54.318280  4440 net.cpp:434] pool1 <- conv1
I1017 19:46:54.318287  4440 net.cpp:408] pool1 -> pool1
I1017 19:46:54.318315  4440 net.cpp:150] Setting up pool1
I1017 19:46:54.318320  4440 net.cpp:157] Top shape: 100 192 14 14 (3763200)
I1017 19:46:54.318321  4440 net.cpp:165] Memory required for data: 76494000
I1017 19:46:54.318323  4440 layer_factory.hpp:77] Creating layer drop1
I1017 19:46:54.318328  4440 net.cpp:100] Creating Layer drop1
I1017 19:46:54.318331  4440 net.cpp:434] drop1 <- pool1
I1017 19:46:54.318334  4440 net.cpp:408] drop1 -> drop1
I1017 19:46:54.318358  4440 net.cpp:150] Setting up drop1
I1017 19:46:54.318362  4440 net.cpp:157] Top shape: 100 192 14 14 (3763200)
I1017 19:46:54.318366  4440 net.cpp:165] Memory required for data: 91546800
I1017 19:46:54.318367  4440 layer_factory.hpp:77] Creating layer elu1
I1017 19:46:54.318370  4440 net.cpp:100] Creating Layer elu1
I1017 19:46:54.318372  4440 net.cpp:434] elu1 <- drop1
I1017 19:46:54.318375  4440 net.cpp:408] elu1 -> elu1
I1017 19:46:54.318388  4440 net.cpp:150] Setting up elu1
I1017 19:46:54.318392  4440 net.cpp:157] Top shape: 100 192 14 14 (3763200)
I1017 19:46:54.318394  4440 net.cpp:165] Memory required for data: 106599600
I1017 19:46:54.318395  4440 layer_factory.hpp:77] Creating layer conv2
I1017 19:46:54.318400  4440 net.cpp:100] Creating Layer conv2
I1017 19:46:54.318403  4440 net.cpp:434] conv2 <- elu1
I1017 19:46:54.318408  4440 net.cpp:408] conv2 -> conv2
I1017 19:46:54.319325  4440 net.cpp:150] Setting up conv2
I1017 19:46:54.319334  4440 net.cpp:157] Top shape: 100 192 14 14 (3763200)
I1017 19:46:54.319337  4440 net.cpp:165] Memory required for data: 121652400
I1017 19:46:54.319342  4440 layer_factory.hpp:77] Creating layer conv3
I1017 19:46:54.319349  4440 net.cpp:100] Creating Layer conv3
I1017 19:46:54.319351  4440 net.cpp:434] conv3 <- conv2
I1017 19:46:54.319365  4440 net.cpp:408] conv3 -> conv3
I1017 19:46:54.321754  4440 net.cpp:150] Setting up conv3
I1017 19:46:54.321763  4440 net.cpp:157] Top shape: 100 240 12 12 (3456000)
I1017 19:46:54.321765  4440 net.cpp:165] Memory required for data: 135476400
I1017 19:46:54.321770  4440 layer_factory.hpp:77] Creating layer pool2
I1017 19:46:54.321776  4440 net.cpp:100] Creating Layer pool2
I1017 19:46:54.321779  4440 net.cpp:434] pool2 <- conv3
I1017 19:46:54.321784  4440 net.cpp:408] pool2 -> pool2
I1017 19:46:54.321810  4440 net.cpp:150] Setting up pool2
I1017 19:46:54.321815  4440 net.cpp:157] Top shape: 100 240 6 6 (864000)
I1017 19:46:54.321816  4440 net.cpp:165] Memory required for data: 138932400
I1017 19:46:54.321818  4440 layer_factory.hpp:77] Creating layer drop2
I1017 19:46:54.321822  4440 net.cpp:100] Creating Layer drop2
I1017 19:46:54.321825  4440 net.cpp:434] drop2 <- pool2
I1017 19:46:54.321827  4440 net.cpp:408] drop2 -> drop2
I1017 19:46:54.321851  4440 net.cpp:150] Setting up drop2
I1017 19:46:54.321853  4440 net.cpp:157] Top shape: 100 240 6 6 (864000)
I1017 19:46:54.321856  4440 net.cpp:165] Memory required for data: 142388400
I1017 19:46:54.321857  4440 layer_factory.hpp:77] Creating layer elu2
I1017 19:46:54.321861  4440 net.cpp:100] Creating Layer elu2
I1017 19:46:54.321861  4440 net.cpp:434] elu2 <- drop2
I1017 19:46:54.321866  4440 net.cpp:408] elu2 -> elu2
I1017 19:46:54.321878  4440 net.cpp:150] Setting up elu2
I1017 19:46:54.321883  4440 net.cpp:157] Top shape: 100 240 6 6 (864000)
I1017 19:46:54.321887  4440 net.cpp:165] Memory required for data: 145844400
I1017 19:46:54.321887  4440 layer_factory.hpp:77] Creating layer conv4
I1017 19:46:54.321892  4440 net.cpp:100] Creating Layer conv4
I1017 19:46:54.321894  4440 net.cpp:434] conv4 <- elu2
I1017 19:46:54.321897  4440 net.cpp:408] conv4 -> conv4
I1017 19:46:54.322738  4440 net.cpp:150] Setting up conv4
I1017 19:46:54.322746  4440 net.cpp:157] Top shape: 100 240 6 6 (864000)
I1017 19:46:54.322749  4440 net.cpp:165] Memory required for data: 149300400
I1017 19:46:54.322753  4440 layer_factory.hpp:77] Creating layer conv5
I1017 19:46:54.322759  4440 net.cpp:100] Creating Layer conv5
I1017 19:46:54.322762  4440 net.cpp:434] conv5 <- conv4
I1017 19:46:54.322767  4440 net.cpp:408] conv5 -> conv5
I1017 19:46:54.324524  4440 net.cpp:150] Setting up conv5
I1017 19:46:54.324532  4440 net.cpp:157] Top shape: 100 260 5 5 (650000)
I1017 19:46:54.324534  4440 net.cpp:165] Memory required for data: 151900400
I1017 19:46:54.324539  4440 layer_factory.hpp:77] Creating layer pool3
I1017 19:46:54.324545  4440 net.cpp:100] Creating Layer pool3
I1017 19:46:54.324548  4440 net.cpp:434] pool3 <- conv5
I1017 19:46:54.324551  4440 net.cpp:408] pool3 -> pool3
I1017 19:46:54.324579  4440 net.cpp:150] Setting up pool3
I1017 19:46:54.324582  4440 net.cpp:157] Top shape: 100 260 3 3 (234000)
I1017 19:46:54.324584  4440 net.cpp:165] Memory required for data: 152836400
I1017 19:46:54.324585  4440 layer_factory.hpp:77] Creating layer drop3
I1017 19:46:54.324589  4440 net.cpp:100] Creating Layer drop3
I1017 19:46:54.324592  4440 net.cpp:434] drop3 <- pool3
I1017 19:46:54.324595  4440 net.cpp:408] drop3 -> drop3
I1017 19:46:54.324620  4440 net.cpp:150] Setting up drop3
I1017 19:46:54.324625  4440 net.cpp:157] Top shape: 100 260 3 3 (234000)
I1017 19:46:54.324626  4440 net.cpp:165] Memory required for data: 153772400
I1017 19:46:54.324627  4440 layer_factory.hpp:77] Creating layer elu3
I1017 19:46:54.324630  4440 net.cpp:100] Creating Layer elu3
I1017 19:46:54.324632  4440 net.cpp:434] elu3 <- drop3
I1017 19:46:54.324635  4440 net.cpp:408] elu3 -> elu3
I1017 19:46:54.324650  4440 net.cpp:150] Setting up elu3
I1017 19:46:54.324652  4440 net.cpp:157] Top shape: 100 260 3 3 (234000)
I1017 19:46:54.324656  4440 net.cpp:165] Memory required for data: 154708400
I1017 19:46:54.324657  4440 layer_factory.hpp:77] Creating layer conv6
I1017 19:46:54.324663  4440 net.cpp:100] Creating Layer conv6
I1017 19:46:54.324666  4440 net.cpp:434] conv6 <- elu3
I1017 19:46:54.324678  4440 net.cpp:408] conv6 -> conv6
I1017 19:46:54.325795  4440 net.cpp:150] Setting up conv6
I1017 19:46:54.325803  4440 net.cpp:157] Top shape: 100 260 3 3 (234000)
I1017 19:46:54.325805  4440 net.cpp:165] Memory required for data: 155644400
I1017 19:46:54.325809  4440 layer_factory.hpp:77] Creating layer conv7
I1017 19:46:54.325814  4440 net.cpp:100] Creating Layer conv7
I1017 19:46:54.325817  4440 net.cpp:434] conv7 <- conv6
I1017 19:46:54.325821  4440 net.cpp:408] conv7 -> conv7
I1017 19:46:54.327746  4440 net.cpp:150] Setting up conv7
I1017 19:46:54.327754  4440 net.cpp:157] Top shape: 100 280 2 2 (112000)
I1017 19:46:54.327756  4440 net.cpp:165] Memory required for data: 156092400
I1017 19:46:54.327760  4440 layer_factory.hpp:77] Creating layer pool4
I1017 19:46:54.327765  4440 net.cpp:100] Creating Layer pool4
I1017 19:46:54.327769  4440 net.cpp:434] pool4 <- conv7
I1017 19:46:54.327771  4440 net.cpp:408] pool4 -> pool4
I1017 19:46:54.327798  4440 net.cpp:150] Setting up pool4
I1017 19:46:54.327803  4440 net.cpp:157] Top shape: 100 280 1 1 (28000)
I1017 19:46:54.327805  4440 net.cpp:165] Memory required for data: 156204400
I1017 19:46:54.327806  4440 layer_factory.hpp:77] Creating layer drop4
I1017 19:46:54.327811  4440 net.cpp:100] Creating Layer drop4
I1017 19:46:54.327813  4440 net.cpp:434] drop4 <- pool4
I1017 19:46:54.327816  4440 net.cpp:408] drop4 -> drop4
I1017 19:46:54.327839  4440 net.cpp:150] Setting up drop4
I1017 19:46:54.327843  4440 net.cpp:157] Top shape: 100 280 1 1 (28000)
I1017 19:46:54.327846  4440 net.cpp:165] Memory required for data: 156316400
I1017 19:46:54.327847  4440 layer_factory.hpp:77] Creating layer elu4
I1017 19:46:54.327850  4440 net.cpp:100] Creating Layer elu4
I1017 19:46:54.327852  4440 net.cpp:434] elu4 <- drop4
I1017 19:46:54.327857  4440 net.cpp:408] elu4 -> elu4
I1017 19:46:54.327869  4440 net.cpp:150] Setting up elu4
I1017 19:46:54.327873  4440 net.cpp:157] Top shape: 100 280 1 1 (28000)
I1017 19:46:54.327874  4440 net.cpp:165] Memory required for data: 156428400
I1017 19:46:54.327877  4440 layer_factory.hpp:77] Creating layer conv8
I1017 19:46:54.327883  4440 net.cpp:100] Creating Layer conv8
I1017 19:46:54.327884  4440 net.cpp:434] conv8 <- elu4
I1017 19:46:54.327888  4440 net.cpp:408] conv8 -> conv8
I1017 19:46:54.328738  4440 net.cpp:150] Setting up conv8
I1017 19:46:54.328745  4440 net.cpp:157] Top shape: 100 280 1 1 (28000)
I1017 19:46:54.328747  4440 net.cpp:165] Memory required for data: 156540400
I1017 19:46:54.328752  4440 layer_factory.hpp:77] Creating layer pool5
I1017 19:46:54.328755  4440 net.cpp:100] Creating Layer pool5
I1017 19:46:54.328758  4440 net.cpp:434] pool5 <- conv8
I1017 19:46:54.328761  4440 net.cpp:408] pool5 -> pool5
I1017 19:46:54.328788  4440 net.cpp:150] Setting up pool5
I1017 19:46:54.328791  4440 net.cpp:157] Top shape: 100 280 1 1 (28000)
I1017 19:46:54.328794  4440 net.cpp:165] Memory required for data: 156652400
I1017 19:46:54.328794  4440 layer_factory.hpp:77] Creating layer drop5
I1017 19:46:54.328799  4440 net.cpp:100] Creating Layer drop5
I1017 19:46:54.328801  4440 net.cpp:434] drop5 <- pool5
I1017 19:46:54.328804  4440 net.cpp:408] drop5 -> drop5
I1017 19:46:54.328827  4440 net.cpp:150] Setting up drop5
I1017 19:46:54.328831  4440 net.cpp:157] Top shape: 100 280 1 1 (28000)
I1017 19:46:54.328833  4440 net.cpp:165] Memory required for data: 156764400
I1017 19:46:54.328835  4440 layer_factory.hpp:77] Creating layer elu5
I1017 19:46:54.328837  4440 net.cpp:100] Creating Layer elu5
I1017 19:46:54.328840  4440 net.cpp:434] elu5 <- drop5
I1017 19:46:54.328842  4440 net.cpp:408] elu5 -> elu5
I1017 19:46:54.328855  4440 net.cpp:150] Setting up elu5
I1017 19:46:54.328860  4440 net.cpp:157] Top shape: 100 280 1 1 (28000)
I1017 19:46:54.328860  4440 net.cpp:165] Memory required for data: 156876400
I1017 19:46:54.328862  4440 layer_factory.hpp:77] Creating layer conv10
I1017 19:46:54.328868  4440 net.cpp:100] Creating Layer conv10
I1017 19:46:54.328871  4440 net.cpp:434] conv10 <- elu5
I1017 19:46:54.328876  4440 net.cpp:408] conv10 -> conv10
I1017 19:46:54.331364  4440 net.cpp:150] Setting up conv10
I1017 19:46:54.331379  4440 net.cpp:157] Top shape: 100 300 1 1 (30000)
I1017 19:46:54.331382  4440 net.cpp:165] Memory required for data: 156996400
I1017 19:46:54.331392  4440 layer_factory.hpp:77] Creating layer pool6
I1017 19:46:54.331398  4440 net.cpp:100] Creating Layer pool6
I1017 19:46:54.331401  4440 net.cpp:434] pool6 <- conv10
I1017 19:46:54.331408  4440 net.cpp:408] pool6 -> pool6
I1017 19:46:54.331439  4440 net.cpp:150] Setting up pool6
I1017 19:46:54.331444  4440 net.cpp:157] Top shape: 100 300 1 1 (30000)
I1017 19:46:54.331445  4440 net.cpp:165] Memory required for data: 157116400
I1017 19:46:54.331446  4440 layer_factory.hpp:77] Creating layer drop6
I1017 19:46:54.331450  4440 net.cpp:100] Creating Layer drop6
I1017 19:46:54.331454  4440 net.cpp:434] drop6 <- pool6
I1017 19:46:54.331456  4440 net.cpp:408] drop6 -> drop6
I1017 19:46:54.331481  4440 net.cpp:150] Setting up drop6
I1017 19:46:54.331485  4440 net.cpp:157] Top shape: 100 300 1 1 (30000)
I1017 19:46:54.331488  4440 net.cpp:165] Memory required for data: 157236400
I1017 19:46:54.331490  4440 layer_factory.hpp:77] Creating layer elu6
I1017 19:46:54.331492  4440 net.cpp:100] Creating Layer elu6
I1017 19:46:54.331495  4440 net.cpp:434] elu6 <- drop6
I1017 19:46:54.331497  4440 net.cpp:408] elu6 -> elu6
I1017 19:46:54.331511  4440 net.cpp:150] Setting up elu6
I1017 19:46:54.331516  4440 net.cpp:157] Top shape: 100 300 1 1 (30000)
I1017 19:46:54.331517  4440 net.cpp:165] Memory required for data: 157356400
I1017 19:46:54.331519  4440 layer_factory.hpp:77] Creating layer conv11
I1017 19:46:54.331526  4440 net.cpp:100] Creating Layer conv11
I1017 19:46:54.331528  4440 net.cpp:434] conv11 <- elu6
I1017 19:46:54.331532  4440 net.cpp:408] conv11 -> conv11
I1017 19:46:54.332940  4440 net.cpp:150] Setting up conv11
I1017 19:46:54.332950  4440 net.cpp:157] Top shape: 100 100 1 1 (10000)
I1017 19:46:54.332952  4440 net.cpp:165] Memory required for data: 157396400
I1017 19:46:54.332957  4440 layer_factory.hpp:77] Creating layer pool7
I1017 19:46:54.332962  4440 net.cpp:100] Creating Layer pool7
I1017 19:46:54.332964  4440 net.cpp:434] pool7 <- conv11
I1017 19:46:54.332969  4440 net.cpp:408] pool7 -> pool7
I1017 19:46:54.333001  4440 net.cpp:150] Setting up pool7
I1017 19:46:54.333008  4440 net.cpp:157] Top shape: 100 100 1 1 (10000)
I1017 19:46:54.333009  4440 net.cpp:165] Memory required for data: 157436400
I1017 19:46:54.333010  4440 layer_factory.hpp:77] Creating layer drop7
I1017 19:46:54.333014  4440 net.cpp:100] Creating Layer drop7
I1017 19:46:54.333017  4440 net.cpp:434] drop7 <- pool7
I1017 19:46:54.333020  4440 net.cpp:408] drop7 -> drop7
I1017 19:46:54.333045  4440 net.cpp:150] Setting up drop7
I1017 19:46:54.333048  4440 net.cpp:157] Top shape: 100 100 1 1 (10000)
I1017 19:46:54.333050  4440 net.cpp:165] Memory required for data: 157476400
I1017 19:46:54.333052  4440 layer_factory.hpp:77] Creating layer elu7
I1017 19:46:54.333058  4440 net.cpp:100] Creating Layer elu7
I1017 19:46:54.333061  4440 net.cpp:434] elu7 <- drop7
I1017 19:46:54.333065  4440 net.cpp:408] elu7 -> elu7
I1017 19:46:54.333078  4440 net.cpp:150] Setting up elu7
I1017 19:46:54.333081  4440 net.cpp:157] Top shape: 100 100 1 1 (10000)
I1017 19:46:54.333083  4440 net.cpp:165] Memory required for data: 157516400
I1017 19:46:54.333086  4440 layer_factory.hpp:77] Creating layer pool
I1017 19:46:54.333089  4440 net.cpp:100] Creating Layer pool
I1017 19:46:54.333091  4440 net.cpp:434] pool <- elu7
I1017 19:46:54.333094  4440 net.cpp:408] pool -> pool
I1017 19:46:54.333217  4440 net.cpp:150] Setting up pool
I1017 19:46:54.333222  4440 net.cpp:157] Top shape: 100 100 1 1 (10000)
I1017 19:46:54.333225  4440 net.cpp:165] Memory required for data: 157556400
I1017 19:46:54.333226  4440 layer_factory.hpp:77] Creating layer flatten
I1017 19:46:54.333230  4440 net.cpp:100] Creating Layer flatten
I1017 19:46:54.333232  4440 net.cpp:434] flatten <- pool
I1017 19:46:54.333236  4440 net.cpp:408] flatten -> flatten
I1017 19:46:54.333252  4440 net.cpp:150] Setting up flatten
I1017 19:46:54.333266  4440 net.cpp:157] Top shape: 100 100 (10000)
I1017 19:46:54.333268  4440 net.cpp:165] Memory required for data: 157596400
I1017 19:46:54.333271  4440 layer_factory.hpp:77] Creating layer score
I1017 19:46:54.333276  4440 net.cpp:100] Creating Layer score
I1017 19:46:54.333278  4440 net.cpp:434] score <- flatten
I1017 19:46:54.333281  4440 net.cpp:408] score -> score
I1017 19:46:54.333374  4440 net.cpp:150] Setting up score
I1017 19:46:54.333379  4440 net.cpp:157] Top shape: 100 10 (1000)
I1017 19:46:54.333381  4440 net.cpp:165] Memory required for data: 157600400
I1017 19:46:54.333385  4440 layer_factory.hpp:77] Creating layer score_score_0_split
I1017 19:46:54.333389  4440 net.cpp:100] Creating Layer score_score_0_split
I1017 19:46:54.333390  4440 net.cpp:434] score_score_0_split <- score
I1017 19:46:54.333395  4440 net.cpp:408] score_score_0_split -> score_score_0_split_0
I1017 19:46:54.333397  4440 net.cpp:408] score_score_0_split -> score_score_0_split_1
I1017 19:46:54.333422  4440 net.cpp:150] Setting up score_score_0_split
I1017 19:46:54.333426  4440 net.cpp:157] Top shape: 100 10 (1000)
I1017 19:46:54.333428  4440 net.cpp:157] Top shape: 100 10 (1000)
I1017 19:46:54.333431  4440 net.cpp:165] Memory required for data: 157608400
I1017 19:46:54.333432  4440 layer_factory.hpp:77] Creating layer accuracy
I1017 19:46:54.333436  4440 net.cpp:100] Creating Layer accuracy
I1017 19:46:54.333439  4440 net.cpp:434] accuracy <- score_score_0_split_0
I1017 19:46:54.333442  4440 net.cpp:434] accuracy <- label_data_1_split_0
I1017 19:46:54.333444  4440 net.cpp:408] accuracy -> accuracy
…
