…
device_id: 0
train_state {
  level: 0
  stage: ""
}
type: "AdaDelta"
I1017 11:02:47.711779  8400 solver.cpp:81] Creating training net from train_net file: /home/adam/Honours/Honours-Project/cifar-10_pooling/max/leakyrelu/poolcnn_leakyrelu_train.prototxt
I1017 11:02:47.712079  8400 net.cpp:58] Initializing net from parameters: 
state {
  phase: TRAIN
  level: 0
  stage: ""
}
layer {
  name: "data"
  type: "Data"
  top: "data"
  top: "label"
  data_param {
    source: "../../../../data/cifar-10/cifar10_train_lmdb"
    batch_size: 64
    backend: LMDB
  }
}
layer {
  name: "conv1"
  type: "Convolution"
  bottom: "data"
  top: "conv1"
  convolution_param {
    num_output: 192
    kernel_size: 5
    weight_filler {
      type: "xavier"
    }
  }
}
layer {
  name: "pool1"
  type: "Pooling"
  bottom: "conv1"
  top: "pool1"
  pooling_param {
    pool: MAX
    kernel_size: 2
    stride: 2
  }
}
layer {
  name: "drop1"
  type: "Dropout"
  bottom: "pool1"
  top: "drop1"
  dropout_param {
    dropout_ratio: 0
  }
}
layer {
  name: "relu1"
  type: "ReLU"
  bottom: "drop1"
  top: "relu1"
  relu_param {
    negative_slope: 0.01
  }
}
layer {
  name: "conv2"
  type: "Convolution"
  bottom: "relu1"
  top: "conv2"
  convolution_param {
    num_output: 192
    kernel_size: 1
    weight_filler {
      type: "xavier"
    }
  }
}
layer {
  name: "conv3"
  type: "Convolution"
  bottom: "conv2"
  top: "conv3"
  convolution_param {
    num_output: 240
    kernel_size: 3
    weight_filler {
      type: "xavier"
    }
  }
}
layer {
  name: "pool2"
  type: "Pooling"
  bottom: "conv3"
  top: "pool2"
  pooling_param {
    pool: MAX
    kernel_size: 2
    stride: 2
  }
}
layer {
  name: "drop2"
  type: "Dropout"
  bottom: "pool2"
  top: "drop2"
  dropout_param {
    dropout_ratio: 0.1
  }
}
layer {
  name: "relu2"
  type: "ReLU"
  bottom: "drop2"
  top: "relu2"
  relu_param {
    negative_slope: 0.01
  }
}
layer {
  name: "conv4"
  type: "Convolution"
  bottom: "relu2"
  top: "conv4"
  convolution_param {
    num_output: 240
    kernel_size: 1
    weight_filler {
      type: "xavier"
    }
  }
}
layer {
  name: "conv5"
  type: "Convolution"
  bottom: "conv4"
  top: "conv5"
  convolution_param {
    num_output: 260
    kernel_size: 2
    weight_filler {
      type: "xavier"
    }
  }
}
layer {
  name: "pool3"
  type: "Pooling"
  bottom: "conv5"
  top: "pool3"
  pooling_param {
    pool: MAX
    kernel_size: 2
    stride: 2
  }
}
layer {
  name: "drop3"
  type: "Dropout"
  bottom: "pool3"
  top: "drop3"
  dropout_param {
    dropout_ratio: 0.2
  }
}
layer {
  name: "relu3"
  type: "ReLU"
  bottom: "drop3"
  top: "relu3"
  relu_param {
    negative_slope: 0.01
  }
}
layer {
  name: "conv6"
  type: "Convolution"
  bottom: "relu3"
  top: "conv6"
  convolution_param {
    num_output: 260
    kernel_size: 1
    weight_filler {
      type: "xavier"
    }
  }
}
layer {
  name: "conv7"
  type: "Convolution"
  bottom: "conv6"
  top: "conv7"
  convolution_param {
    num_output: 280
    kernel_size: 2
    weight_filler {
      type: "xavier"
    }
  }
}
layer {
  name: "pool4"
  type: "Pooling"
  bottom: "conv7"
  top: "pool4"
  pooling_param {
    pool: MAX
    kernel_size: 2
    stride: 2
  }
}
layer {
  name: "drop4"
  type: "Dropout"
  bottom: "pool4"
  top: "drop4"
  dropout_param {
    dropout_ratio: 0.3
  }
}
layer {
  name: "relu4"
  type: "ReLU"
  bottom: "drop4"
  top: "relu4"
  relu_param {
    negative_slope: 0.01
  }
}
layer {
  name: "conv8"
  type: "Convolution"
  bottom: "relu4"
  top: "conv8"
  convolution_param {
    num_output: 280
    kernel_size: 1
    weight_filler {
      type: "xavier"
    }
  }
}
layer {
  name: "pool5"
  type: "Pooling"
  bottom: "conv8"
  top: "pool5"
  pooling_param {
    pool: MAX
    kernel_size: 2
    stride: 2
  }
}
layer {
  name: "drop5"
  type: "Dropout"
  bottom: "pool5"
  top: "drop5"
  dropout_param {
    dropout_ratio: 0.4
  }
}
layer {
  name: "relu5"
  type: "ReLU"
  bottom: "drop5"
  top: "relu5"
  relu_param {
    negative_slope: 0.01
  }
}
layer {
  name: "conv10"
  type: "Convolution"
  bottom: "relu5"
  top: "conv10"
  convolution_param {
    num_output: 300
    kernel_size: 1
    weight_filler {
      type: "xavier"
    }
  }
}
layer {
  name: "pool6"
  type: "Pooling"
  bottom: "conv10"
  top: "pool6"
  pooling_param {
    pool: MAX
    kernel_size: 2
    stride: 2
  }
}
layer {
  name: "drop6"
  type: "Dropout"
  bottom: "pool6"
  top: "drop6"
  dropout_param {
    dropout_ratio: 0.5
  }
}
layer {
  name: "relu6"
  type: "ReLU"
  bottom: "drop6"
  top: "relu6"
  relu_param {
    negative_slope: 0.01
  }
}
layer {
  name: "conv11"
  type: "Convolution"
  bottom: "relu6"
  top: "conv11"
  convolution_param {
    num_output: 100
    kernel_size: 1
    weight_filler {
      type: "xavier"
    }
  }
}
layer {
  name: "pool7"
  type: "Pooling"
  bottom: "conv11"
  top: "pool7"
  pooling_param {
    pool: MAX
    kernel_size: 2
    stride: 2
  }
}
layer {
  name: "drop7"
  type: "Dropout"
  bottom: "pool7"
  top: "drop7"
  dropout_param {
    dropout_ratio: 0
  }
}
layer {
  name: "relu7"
  type: "ReLU"
  bottom: "drop7"
  top: "relu7"
  relu_param {
    negative_slope: 0.01
  }
}
layer {
  name: "pool"
  type: "Pooling"
  bottom: "relu7"
  top: "pool"
  pooling_param {
    pool: AVE
    global_pooling: true
  }
}
layer {
  name: "flatten"
  type: "Flatten"
  bottom: "pool"
  top: "flatten"
}
layer {
  name: "score"
  type: "InnerProduct"
  bottom: "flatten"
  top: "score"
  inner_product_param {
    num_output: 10
    weight_filler {
      type: "gaussian"
    }
  }
}
layer {
  name: "accuracy"
  type: "Accuracy"
  bottom: "score"
  bottom: "label"
  top: "accuracy"
}
layer {
  name: "loss"
  type: "SoftmaxWithLoss"
  bottom: "score"
  bottom: "label"
  top: "loss"
}
I1017 11:02:47.712180  8400 layer_factory.hpp:77] Creating layer data
I1017 11:02:47.712556  8400 net.cpp:100] Creating Layer data
I1017 11:02:47.712563  8400 net.cpp:408] data -> data
I1017 11:02:47.712577  8400 net.cpp:408] data -> label
I1017 11:02:47.713203  8405 db_lmdb.cpp:35] Opened lmdb ../../../../data/cifar-10/cifar10_train_lmdb
I1017 11:02:47.718708  8400 data_layer.cpp:41] output data size: 64,3,32,32
I1017 11:02:47.720170  8400 net.cpp:150] Setting up data
I1017 11:02:47.720190  8400 net.cpp:157] Top shape: 64 3 32 32 (196608)
I1017 11:02:47.720192  8400 net.cpp:157] Top shape: 64 (64)
I1017 11:02:47.720194  8400 net.cpp:165] Memory required for data: 786688
I1017 11:02:47.720201  8400 layer_factory.hpp:77] Creating layer label_data_1_split
I1017 11:02:47.720212  8400 net.cpp:100] Creating Layer label_data_1_split
I1017 11:02:47.720217  8400 net.cpp:434] label_data_1_split <- label
I1017 11:02:47.720228  8400 net.cpp:408] label_data_1_split -> label_data_1_split_0
I1017 11:02:47.720237  8400 net.cpp:408] label_data_1_split -> label_data_1_split_1
I1017 11:02:47.720263  8400 net.cpp:150] Setting up label_data_1_split
I1017 11:02:47.720268  8400 net.cpp:157] Top shape: 64 (64)
I1017 11:02:47.720269  8400 net.cpp:157] Top shape: 64 (64)
I1017 11:02:47.720270  8400 net.cpp:165] Memory required for data: 787200
I1017 11:02:47.720273  8400 layer_factory.hpp:77] Creating layer conv1
I1017 11:02:47.720283  8400 net.cpp:100] Creating Layer conv1
I1017 11:02:47.720285  8400 net.cpp:434] conv1 <- data
I1017 11:02:47.720288  8400 net.cpp:408] conv1 -> conv1
I1017 11:02:47.838102  8400 net.cpp:150] Setting up conv1
I1017 11:02:47.838127  8400 net.cpp:157] Top shape: 64 192 28 28 (9633792)
I1017 11:02:47.838130  8400 net.cpp:165] Memory required for data: 39322368
I1017 11:02:47.838146  8400 layer_factory.hpp:77] Creating layer pool1
I1017 11:02:47.838173  8400 net.cpp:100] Creating Layer pool1
I1017 11:02:47.838177  8400 net.cpp:434] pool1 <- conv1
I1017 11:02:47.838182  8400 net.cpp:408] pool1 -> pool1
I1017 11:02:47.838219  8400 net.cpp:150] Setting up pool1
I1017 11:02:47.838225  8400 net.cpp:157] Top shape: 64 192 14 14 (2408448)
I1017 11:02:47.838227  8400 net.cpp:165] Memory required for data: 48956160
I1017 11:02:47.838229  8400 layer_factory.hpp:77] Creating layer drop1
I1017 11:02:47.838234  8400 net.cpp:100] Creating Layer drop1
I1017 11:02:47.838235  8400 net.cpp:434] drop1 <- pool1
I1017 11:02:47.838239  8400 net.cpp:408] drop1 -> drop1
I1017 11:02:47.838263  8400 net.cpp:150] Setting up drop1
I1017 11:02:47.838265  8400 net.cpp:157] Top shape: 64 192 14 14 (2408448)
I1017 11:02:47.838268  8400 net.cpp:165] Memory required for data: 58589952
I1017 11:02:47.838269  8400 layer_factory.hpp:77] Creating layer relu1
I1017 11:02:47.838274  8400 net.cpp:100] Creating Layer relu1
I1017 11:02:47.838276  8400 net.cpp:434] relu1 <- drop1
I1017 11:02:47.838279  8400 net.cpp:408] relu1 -> relu1
I1017 11:02:47.838397  8400 net.cpp:150] Setting up relu1
I1017 11:02:47.838402  8400 net.cpp:157] Top shape: 64 192 14 14 (2408448)
I1017 11:02:47.838404  8400 net.cpp:165] Memory required for data: 68223744
I1017 11:02:47.838405  8400 layer_factory.hpp:77] Creating layer conv2
I1017 11:02:47.838413  8400 net.cpp:100] Creating Layer conv2
I1017 11:02:47.838415  8400 net.cpp:434] conv2 <- relu1
I1017 11:02:47.838418  8400 net.cpp:408] conv2 -> conv2
I1017 11:02:47.839457  8400 net.cpp:150] Setting up conv2
I1017 11:02:47.839465  8400 net.cpp:157] Top shape: 64 192 14 14 (2408448)
I1017 11:02:47.839468  8400 net.cpp:165] Memory required for data: 77857536
I1017 11:02:47.839473  8400 layer_factory.hpp:77] Creating layer conv3
I1017 11:02:47.839479  8400 net.cpp:100] Creating Layer conv3
I1017 11:02:47.839483  8400 net.cpp:434] conv3 <- conv2
I1017 11:02:47.839486  8400 net.cpp:408] conv3 -> conv3
I1017 11:02:47.841892  8400 net.cpp:150] Setting up conv3
I1017 11:02:47.841899  8400 net.cpp:157] Top shape: 64 240 12 12 (2211840)
I1017 11:02:47.841902  8400 net.cpp:165] Memory required for data: 86704896
I1017 11:02:47.841907  8400 layer_factory.hpp:77] Creating layer pool2
I1017 11:02:47.841913  8400 net.cpp:100] Creating Layer pool2
I1017 11:02:47.841917  8400 net.cpp:434] pool2 <- conv3
I1017 11:02:47.841922  8400 net.cpp:408] pool2 -> pool2
I1017 11:02:47.841945  8400 net.cpp:150] Setting up pool2
I1017 11:02:47.841950  8400 net.cpp:157] Top shape: 64 240 6 6 (552960)
I1017 11:02:47.841953  8400 net.cpp:165] Memory required for data: 88916736
I1017 11:02:47.841954  8400 layer_factory.hpp:77] Creating layer drop2
I1017 11:02:47.841958  8400 net.cpp:100] Creating Layer drop2
I1017 11:02:47.841960  8400 net.cpp:434] drop2 <- pool2
I1017 11:02:47.841964  8400 net.cpp:408] drop2 -> drop2
I1017 11:02:47.841984  8400 net.cpp:150] Setting up drop2
I1017 11:02:47.841989  8400 net.cpp:157] Top shape: 64 240 6 6 (552960)
I1017 11:02:47.841991  8400 net.cpp:165] Memory required for data: 91128576
I1017 11:02:47.841992  8400 layer_factory.hpp:77] Creating layer relu2
I1017 11:02:47.841996  8400 net.cpp:100] Creating Layer relu2
I1017 11:02:47.841997  8400 net.cpp:434] relu2 <- drop2
I1017 11:02:47.842000  8400 net.cpp:408] relu2 -> relu2
I1017 11:02:47.842111  8400 net.cpp:150] Setting up relu2
I1017 11:02:47.842116  8400 net.cpp:157] Top shape: 64 240 6 6 (552960)
I1017 11:02:47.842119  8400 net.cpp:165] Memory required for data: 93340416
I1017 11:02:47.842121  8400 layer_factory.hpp:77] Creating layer conv4
I1017 11:02:47.842126  8400 net.cpp:100] Creating Layer conv4
I1017 11:02:47.842129  8400 net.cpp:434] conv4 <- relu2
I1017 11:02:47.842133  8400 net.cpp:408] conv4 -> conv4
I1017 11:02:47.842950  8400 net.cpp:150] Setting up conv4
I1017 11:02:47.842958  8400 net.cpp:157] Top shape: 64 240 6 6 (552960)
I1017 11:02:47.842962  8400 net.cpp:165] Memory required for data: 95552256
I1017 11:02:47.842965  8400 layer_factory.hpp:77] Creating layer conv5
I1017 11:02:47.842978  8400 net.cpp:100] Creating Layer conv5
I1017 11:02:47.842980  8400 net.cpp:434] conv5 <- conv4
I1017 11:02:47.842986  8400 net.cpp:408] conv5 -> conv5
I1017 11:02:47.844712  8400 net.cpp:150] Setting up conv5
I1017 11:02:47.844719  8400 net.cpp:157] Top shape: 64 260 5 5 (416000)
I1017 11:02:47.844722  8400 net.cpp:165] Memory required for data: 97216256
I1017 11:02:47.844728  8400 layer_factory.hpp:77] Creating layer pool3
I1017 11:02:47.844732  8400 net.cpp:100] Creating Layer pool3
I1017 11:02:47.844735  8400 net.cpp:434] pool3 <- conv5
I1017 11:02:47.844739  8400 net.cpp:408] pool3 -> pool3
I1017 11:02:47.844764  8400 net.cpp:150] Setting up pool3
I1017 11:02:47.844769  8400 net.cpp:157] Top shape: 64 260 3 3 (149760)
I1017 11:02:47.844771  8400 net.cpp:165] Memory required for data: 97815296
I1017 11:02:47.844774  8400 layer_factory.hpp:77] Creating layer drop3
I1017 11:02:47.844776  8400 net.cpp:100] Creating Layer drop3
I1017 11:02:47.844779  8400 net.cpp:434] drop3 <- pool3
I1017 11:02:47.844781  8400 net.cpp:408] drop3 -> drop3
I1017 11:02:47.844805  8400 net.cpp:150] Setting up drop3
I1017 11:02:47.844811  8400 net.cpp:157] Top shape: 64 260 3 3 (149760)
I1017 11:02:47.844813  8400 net.cpp:165] Memory required for data: 98414336
I1017 11:02:47.844815  8400 layer_factory.hpp:77] Creating layer relu3
I1017 11:02:47.844818  8400 net.cpp:100] Creating Layer relu3
I1017 11:02:47.844820  8400 net.cpp:434] relu3 <- drop3
I1017 11:02:47.844823  8400 net.cpp:408] relu3 -> relu3
I1017 11:02:47.844935  8400 net.cpp:150] Setting up relu3
I1017 11:02:47.844940  8400 net.cpp:157] Top shape: 64 260 3 3 (149760)
I1017 11:02:47.844944  8400 net.cpp:165] Memory required for data: 99013376
I1017 11:02:47.844945  8400 layer_factory.hpp:77] Creating layer conv6
I1017 11:02:47.844951  8400 net.cpp:100] Creating Layer conv6
I1017 11:02:47.844954  8400 net.cpp:434] conv6 <- relu3
I1017 11:02:47.844959  8400 net.cpp:408] conv6 -> conv6
I1017 11:02:47.846055  8400 net.cpp:150] Setting up conv6
I1017 11:02:47.846062  8400 net.cpp:157] Top shape: 64 260 3 3 (149760)
I1017 11:02:47.846065  8400 net.cpp:165] Memory required for data: 99612416
I1017 11:02:47.846070  8400 layer_factory.hpp:77] Creating layer conv7
I1017 11:02:47.846074  8400 net.cpp:100] Creating Layer conv7
I1017 11:02:47.846077  8400 net.cpp:434] conv7 <- conv6
I1017 11:02:47.846081  8400 net.cpp:408] conv7 -> conv7
I1017 11:02:47.847985  8400 net.cpp:150] Setting up conv7
I1017 11:02:47.847993  8400 net.cpp:157] Top shape: 64 280 2 2 (71680)
I1017 11:02:47.847995  8400 net.cpp:165] Memory required for data: 99899136
I1017 11:02:47.847998  8400 layer_factory.hpp:77] Creating layer pool4
I1017 11:02:47.848003  8400 net.cpp:100] Creating Layer pool4
I1017 11:02:47.848007  8400 net.cpp:434] pool4 <- conv7
I1017 11:02:47.848011  8400 net.cpp:408] pool4 -> pool4
I1017 11:02:47.848034  8400 net.cpp:150] Setting up pool4
I1017 11:02:47.848039  8400 net.cpp:157] Top shape: 64 280 1 1 (17920)
I1017 11:02:47.848040  8400 net.cpp:165] Memory required for data: 99970816
I1017 11:02:47.848042  8400 layer_factory.hpp:77] Creating layer drop4
I1017 11:02:47.848047  8400 net.cpp:100] Creating Layer drop4
I1017 11:02:47.848048  8400 net.cpp:434] drop4 <- pool4
I1017 11:02:47.848052  8400 net.cpp:408] drop4 -> drop4
I1017 11:02:47.848073  8400 net.cpp:150] Setting up drop4
I1017 11:02:47.848076  8400 net.cpp:157] Top shape: 64 280 1 1 (17920)
I1017 11:02:47.848079  8400 net.cpp:165] Memory required for data: 100042496
I1017 11:02:47.848081  8400 layer_factory.hpp:77] Creating layer relu4
I1017 11:02:47.848084  8400 net.cpp:100] Creating Layer relu4
I1017 11:02:47.848086  8400 net.cpp:434] relu4 <- drop4
I1017 11:02:47.848089  8400 net.cpp:408] relu4 -> relu4
I1017 11:02:47.848278  8400 net.cpp:150] Setting up relu4
I1017 11:02:47.848284  8400 net.cpp:157] Top shape: 64 280 1 1 (17920)
I1017 11:02:47.848287  8400 net.cpp:165] Memory required for data: 100114176
I1017 11:02:47.848289  8400 layer_factory.hpp:77] Creating layer conv8
I1017 11:02:47.848304  8400 net.cpp:100] Creating Layer conv8
I1017 11:02:47.848306  8400 net.cpp:434] conv8 <- relu4
I1017 11:02:47.848310  8400 net.cpp:408] conv8 -> conv8
I1017 11:02:47.849143  8400 net.cpp:150] Setting up conv8
I1017 11:02:47.849150  8400 net.cpp:157] Top shape: 64 280 1 1 (17920)
I1017 11:02:47.849153  8400 net.cpp:165] Memory required for data: 100185856
I1017 11:02:47.849156  8400 layer_factory.hpp:77] Creating layer pool5
I1017 11:02:47.849161  8400 net.cpp:100] Creating Layer pool5
I1017 11:02:47.849164  8400 net.cpp:434] pool5 <- conv8
I1017 11:02:47.849167  8400 net.cpp:408] pool5 -> pool5
I1017 11:02:47.849191  8400 net.cpp:150] Setting up pool5
I1017 11:02:47.849195  8400 net.cpp:157] Top shape: 64 280 1 1 (17920)
I1017 11:02:47.849197  8400 net.cpp:165] Memory required for data: 100257536
I1017 11:02:47.849200  8400 layer_factory.hpp:77] Creating layer drop5
I1017 11:02:47.849203  8400 net.cpp:100] Creating Layer drop5
I1017 11:02:47.849205  8400 net.cpp:434] drop5 <- pool5
I1017 11:02:47.849210  8400 net.cpp:408] drop5 -> drop5
I1017 11:02:47.849231  8400 net.cpp:150] Setting up drop5
I1017 11:02:47.849234  8400 net.cpp:157] Top shape: 64 280 1 1 (17920)
I1017 11:02:47.849236  8400 net.cpp:165] Memory required for data: 100329216
I1017 11:02:47.849238  8400 layer_factory.hpp:77] Creating layer relu5
I1017 11:02:47.849242  8400 net.cpp:100] Creating Layer relu5
I1017 11:02:47.849244  8400 net.cpp:434] relu5 <- drop5
I1017 11:02:47.849247  8400 net.cpp:408] relu5 -> relu5
I1017 11:02:47.849550  8400 net.cpp:150] Setting up relu5
I1017 11:02:47.849556  8400 net.cpp:157] Top shape: 64 280 1 1 (17920)
I1017 11:02:47.849558  8400 net.cpp:165] Memory required for data: 100400896
I1017 11:02:47.849561  8400 layer_factory.hpp:77] Creating layer conv10
I1017 11:02:47.849566  8400 net.cpp:100] Creating Layer conv10
I1017 11:02:47.849570  8400 net.cpp:434] conv10 <- relu5
I1017 11:02:47.849573  8400 net.cpp:408] conv10 -> conv10
I1017 11:02:47.850564  8400 net.cpp:150] Setting up conv10
I1017 11:02:47.850574  8400 net.cpp:157] Top shape: 64 300 1 1 (19200)
I1017 11:02:47.850575  8400 net.cpp:165] Memory required for data: 100477696
I1017 11:02:47.850584  8400 layer_factory.hpp:77] Creating layer pool6
I1017 11:02:47.850589  8400 net.cpp:100] Creating Layer pool6
I1017 11:02:47.850592  8400 net.cpp:434] pool6 <- conv10
I1017 11:02:47.850596  8400 net.cpp:408] pool6 -> pool6
I1017 11:02:47.850622  8400 net.cpp:150] Setting up pool6
I1017 11:02:47.850628  8400 net.cpp:157] Top shape: 64 300 1 1 (19200)
I1017 11:02:47.850631  8400 net.cpp:165] Memory required for data: 100554496
I1017 11:02:47.850632  8400 layer_factory.hpp:77] Creating layer drop6
I1017 11:02:47.850636  8400 net.cpp:100] Creating Layer drop6
I1017 11:02:47.850638  8400 net.cpp:434] drop6 <- pool6
I1017 11:02:47.850641  8400 net.cpp:408] drop6 -> drop6
I1017 11:02:47.850662  8400 net.cpp:150] Setting up drop6
I1017 11:02:47.850666  8400 net.cpp:157] Top shape: 64 300 1 1 (19200)
I1017 11:02:47.850669  8400 net.cpp:165] Memory required for data: 100631296
I1017 11:02:47.850670  8400 layer_factory.hpp:77] Creating layer relu6
I1017 11:02:47.850673  8400 net.cpp:100] Creating Layer relu6
I1017 11:02:47.850675  8400 net.cpp:434] relu6 <- drop6
I1017 11:02:47.850679  8400 net.cpp:408] relu6 -> relu6
I1017 11:02:47.850791  8400 net.cpp:150] Setting up relu6
I1017 11:02:47.850796  8400 net.cpp:157] Top shape: 64 300 1 1 (19200)
I1017 11:02:47.850800  8400 net.cpp:165] Memory required for data: 100708096
I1017 11:02:47.850801  8400 layer_factory.hpp:77] Creating layer conv11
I1017 11:02:47.850806  8400 net.cpp:100] Creating Layer conv11
I1017 11:02:47.850808  8400 net.cpp:434] conv11 <- relu6
I1017 11:02:47.850811  8400 net.cpp:408] conv11 -> conv11
I1017 11:02:47.851541  8400 net.cpp:150] Setting up conv11
I1017 11:02:47.851549  8400 net.cpp:157] Top shape: 64 100 1 1 (6400)
I1017 11:02:47.851552  8400 net.cpp:165] Memory required for data: 100733696
I1017 11:02:47.851555  8400 layer_factory.hpp:77] Creating layer pool7
I1017 11:02:47.851559  8400 net.cpp:100] Creating Layer pool7
I1017 11:02:47.851570  8400 net.cpp:434] pool7 <- conv11
I1017 11:02:47.851574  8400 net.cpp:408] pool7 -> pool7
I1017 11:02:47.851603  8400 net.cpp:150] Setting up pool7
I1017 11:02:47.851608  8400 net.cpp:157] Top shape: 64 100 1 1 (6400)
I1017 11:02:47.851609  8400 net.cpp:165] Memory required for data: 100759296
I1017 11:02:47.851611  8400 layer_factory.hpp:77] Creating layer drop7
I1017 11:02:47.851614  8400 net.cpp:100] Creating Layer drop7
I1017 11:02:47.851616  8400 net.cpp:434] drop7 <- pool7
I1017 11:02:47.851619  8400 net.cpp:408] drop7 -> drop7
I1017 11:02:47.851640  8400 net.cpp:150] Setting up drop7
I1017 11:02:47.851645  8400 net.cpp:157] Top shape: 64 100 1 1 (6400)
I1017 11:02:47.851649  8400 net.cpp:165] Memory required for data: 100784896
I1017 11:02:47.851649  8400 layer_factory.hpp:77] Creating layer relu7
I1017 11:02:47.851655  8400 net.cpp:100] Creating Layer relu7
I1017 11:02:47.851657  8400 net.cpp:434] relu7 <- drop7
I1017 11:02:47.851660  8400 net.cpp:408] relu7 -> relu7
I1017 11:02:47.851850  8400 net.cpp:150] Setting up relu7
I1017 11:02:47.851856  8400 net.cpp:157] Top shape: 64 100 1 1 (6400)
I1017 11:02:47.851860  8400 net.cpp:165] Memory required for data: 100810496
I1017 11:02:47.851861  8400 layer_factory.hpp:77] Creating layer pool
I1017 11:02:47.851864  8400 net.cpp:100] Creating Layer pool
I1017 11:02:47.851866  8400 net.cpp:434] pool <- relu7
I1017 11:02:47.851869  8400 net.cpp:408] pool -> pool
I1017 11:02:47.851994  8400 net.cpp:150] Setting up pool
I1017 11:02:47.851999  8400 net.cpp:157] Top shape: 64 100 1 1 (6400)
I1017 11:02:47.852000  8400 net.cpp:165] Memory required for data: 100836096
I1017 11:02:47.852002  8400 layer_factory.hpp:77] Creating layer flatten
I1017 11:02:47.852006  8400 net.cpp:100] Creating Layer flatten
I1017 11:02:47.852008  8400 net.cpp:434] flatten <- pool
I1017 11:02:47.852012  8400 net.cpp:408] flatten -> flatten
I1017 11:02:47.852027  8400 net.cpp:150] Setting up flatten
I1017 11:02:47.852031  8400 net.cpp:157] Top shape: 64 100 (6400)
I1017 11:02:47.852032  8400 net.cpp:165] Memory required for data: 100861696
I1017 11:02:47.852035  8400 layer_factory.hpp:77] Creating layer score
I1017 11:02:47.852038  8400 net.cpp:100] Creating Layer score
I1017 11:02:47.852041  8400 net.cpp:434] score <- flatten
I1017 11:02:47.852046  8400 net.cpp:408] score -> score
I1017 11:02:47.852139  8400 net.cpp:150] Setting up score
I1017 11:02:47.852144  8400 net.cpp:157] Top shape: 64 10 (640)
I1017 11:02:47.852145  8400 net.cpp:165] Memory required for data: 100864256
I1017 11:02:47.852149  8400 layer_factory.hpp:77] Creating layer score_score_0_split
I1017 11:02:47.852154  8400 net.cpp:100] Creating Layer score_score_0_split
I1017 11:02:47.852155  8400 net.cpp:434] score_score_0_split <- score
I1017 11:02:47.852159  8400 net.cpp:408] score_score_0_split -> score_score_0_split_0
I1017 11:02:47.852164  8400 net.cpp:408] score_score_0_split -> score_score_0_split_1
I1017 11:02:47.852185  8400 net.cpp:150] Setting up score_score_0_split
I1017 11:02:47.852190  8400 net.cpp:157] Top shape: 64 10 (640)
I1017 11:02:47.852191  8400 net.cpp:157] Top shape: 64 10 (640)
I1017 11:02:47.852192  8400 net.cpp:165] Memory required for data: 100869376
I1017 11:02:47.852195  8400 layer_factory.hpp:77] Creating layer accuracy
I1017 11:02:47.852200  8400 net.cpp:100] Creating Layer accuracy
I1017 11:02:47.852201  8400 net.cpp:434] accuracy <- score_score_0_split_0
I1017 11:02:47.852203  8400 net.cpp:434] accuracy <- label_data_1_split_0
I1017 11:02:47.852206  8400 net.cpp:408] accuracy -> accuracy
…
I1017 11:02:47.852597  8400 net.cpp:270] This network produces output loss
I1017 11:02:47.852615  8400 net.cpp:283] Network initialization done.
I1017 11:02:47.852808  8400 solver.cpp:181] Creating test net (#0) specified by test_net file: /home/adam/Honours/Honours-Project/cifar-10_pooling/max/leakyrelu/poolcnn_leakyrelu_test.prototxt
I1017 11:02:47.852926  8400 net.cpp:58] Initializing net from parameters: 
state {
  phase: TEST
}
layer {
  name: "data"
  type: "Data"
  top: "data"
  top: "label"
  data_param {
    source: "../../../../data/cifar-10/cifar10_test_lmdb"
    batch_size: 100
    backend: LMDB
  }
}
layer {
  name: "conv1"
  type: "Convolution"
  bottom: "data"
  top: "conv1"
  convolution_param {
    num_output: 192
    kernel_size: 5
    weight_filler {
      type: "xavier"
    }
  }
}
layer {
  name: "pool1"
  type: "Pooling"
  bottom: "conv1"
  top: "pool1"
  pooling_param {
    pool: MAX
    kernel_size: 2
    stride: 2
  }
}
layer {
  name: "drop1"
  type: "Dropout"
  bottom: "pool1"
  top: "drop1"
  dropout_param {
    dropout_ratio: 0
  }
}
layer {
  name: "relu1"
  type: "ReLU"
  bottom: "drop1"
  top: "relu1"
  relu_param {
    negative_slope: 0.01
  }
}
layer {
  name: "conv2"
  type: "Convolution"
  bottom: "relu1"
  top: "conv2"
  convolution_param {
    num_output: 192
    kernel_size: 1
    weight_filler {
      type: "xavier"
    }
  }
}
layer {
  name: "conv3"
  type: "Convolution"
  bottom: "conv2"
  top: "conv3"
  convolution_param {
    num_output: 240
    kernel_size: 3
    weight_filler {
      type: "xavier"
    }
  }
}
layer {
  name: "pool2"
  type: "Pooling"
  bottom: "conv3"
  top: "pool2"
  pooling_param {
    pool: MAX
    kernel_size: 2
    stride: 2
  }
}
layer {
  name: "drop2"
  type: "Dropout"
  bottom: "pool2"
  top: "drop2"
  dropout_param {
    dropout_ratio: 0.1
  }
}
layer {
  name: "relu2"
  type: "ReLU"
  bottom: "drop2"
  top: "relu2"
  relu_param {
    negative_slope: 0.01
  }
}
layer {
  name: "conv4"
  type: "Convolution"
  bottom: "relu2"
  top: "conv4"
  convolution_param {
    num_output: 240
    kernel_size: 1
    weight_filler {
      type: "xavier"
    }
  }
}
layer {
  name: "conv5"
  type: "Convolution"
  bottom: "conv4"
  top: "conv5"
  convolution_param {
    num_output: 260
    kernel_size: 2
    weight_filler {
      type: "xavier"
    }
  }
}
layer {
  name: "pool3"
  type: "Pooling"
  bottom: "conv5"
  top: "pool3"
  pooling_param {
    pool: MAX
    kernel_size: 2
    stride: 2
  }
}
layer {
  name: "drop3"
  type: "Dropout"
  bottom: "pool3"
  top: "drop3"
  dropout_param {
    dropout_ratio: 0.2
  }
}
layer {
  name: "relu3"
  type: "ReLU"
  bottom: "drop3"
  top: "relu3"
  relu_param {
    negative_slope: 0.01
  }
}
layer {
  name: "conv6"
  type: "Convolution"
  bottom: "relu3"
  top: "conv6"
  convolution_param {
    num_output: 260
    kernel_size: 1
    weight_filler {
      type: "xavier"
    }
  }
}
layer {
  name: "conv7"
  type: "Convolution"
  bottom: "conv6"
  top: "conv7"
  convolution_param {
    num_output: 280
    kernel_size: 2
    weight_filler {
      type: "xavier"
    }
  }
}
layer {
  name: "pool4"
  type: "Pooling"
  bottom: "conv7"
  top: "pool4"
  pooling_param {
    pool: MAX
    kernel_size: 2
    stride: 2
  }
}
layer {
  name: "drop4"
  type: "Dropout"
  bottom: "pool4"
  top: "drop4"
  dropout_param {
    dropout_ratio: 0.3
  }
}
layer {
  name: "relu4"
  type: "ReLU"
  bottom: "drop4"
  top: "relu4"
  relu_param {
    negative_slope: 0.01
  }
}
layer {
  name: "conv8"
  type: "Convolution"
  bottom: "relu4"
  top: "conv8"
  convolution_param {
    num_output: 280
    kernel_size: 1
    weight_filler {
      type: "xavier"
    }
  }
}
layer {
  name: "pool5"
  type: "Pooling"
  bottom: "conv8"
  top: "pool5"
  pooling_param {
    pool: MAX
    kernel_size: 2
    stride: 2
  }
}
layer {
  name: "drop5"
  type: "Dropout"
  bottom: "pool5"
  top: "drop5"
  dropout_param {
    dropout_ratio: 0.4
  }
}
layer {
  name: "relu5"
  type: "ReLU"
  bottom: "drop5"
  top: "relu5"
  relu_param {
    negative_slope: 0.01
  }
}
layer {
  name: "conv10"
  type: "Convolution"
  bottom: "relu5"
  top: "conv10"
  convolution_param {
    num_output: 300
    kernel_size: 1
    weight_filler {
      type: "xavier"
    }
  }
}
layer {
  name: "pool6"
  type: "Pooling"
  bottom: "conv10"
  top: "pool6"
  pooling_param {
    pool: MAX
    kernel_size: 2
    stride: 2
  }
}
layer {
  name: "drop6"
  type: "Dropout"
  bottom: "pool6"
  top: "drop6"
  dropout_param {
    dropout_ratio: 0.5
  }
}
layer {
  name: "relu6"
  type: "ReLU"
  bottom: "drop6"
  top: "relu6"
  relu_param {
    negative_slope: 0.01
  }
}
layer {
  name: "conv11"
  type: "Convolution"
  bottom: "relu6"
  top: "conv11"
  convolution_param {
    num_output: 100
    kernel_size: 1
    weight_filler {
      type: "xavier"
    }
  }
}
layer {
  name: "pool7"
  type: "Pooling"
  bottom: "conv11"
  top: "pool7"
  pooling_param {
    pool: MAX
    kernel_size: 2
    stride: 2
  }
}
layer {
  name: "drop7"
  type: "Dropout"
  bottom: "pool7"
  top: "drop7"
  dropout_param {
    dropout_ratio: 0
  }
}
layer {
  name: "relu7"
  type: "ReLU"
  bottom: "drop7"
  top: "relu7"
  relu_param {
    negative_slope: 0.01
  }
}
layer {
  name: "pool"
  type: "Pooling"
  bottom: "relu7"
  top: "pool"
  pooling_param {
    pool: AVE
    global_pooling: true
  }
}
layer {
  name: "flatten"
  type: "Flatten"
  bottom: "pool"
  top: "flatten"
}
layer {
  name: "score"
  type: "InnerProduct"
  bottom: "flatten"
  top: "score"
  inner_product_param {
    num_output: 10
    weight_filler {
      type: "gaussian"
    }
  }
}
layer {
  name: "accuracy"
  type: "Accuracy"
  bottom: "score"
  bottom: "label"
  top: "accuracy"
}
layer {
  name: "loss"
  type: "SoftmaxWithLoss"
  bottom: "score"
  bottom: "label"
  top: "loss"
}
I1017 11:02:47.853003  8400 layer_factory.hpp:77] Creating layer data
I1017 11:02:47.853078  8400 net.cpp:100] Creating Layer data
I1017 11:02:47.853088  8400 net.cpp:408] data -> data
I1017 11:02:47.853094  8400 net.cpp:408] data -> label
I1017 11:02:47.853647  8407 db_lmdb.cpp:35] Opened lmdb ../../../../data/cifar-10/cifar10_test_lmdb
I1017 11:02:47.853723  8400 data_layer.cpp:41] output data size: 100,3,32,32
I1017 11:02:47.855398  8400 net.cpp:150] Setting up data
I1017 11:02:47.855413  8400 net.cpp:157] Top shape: 100 3 32 32 (307200)
I1017 11:02:47.855417  8400 net.cpp:157] Top shape: 100 (100)
I1017 11:02:47.855417  8400 net.cpp:165] Memory required for data: 1229200
I1017 11:02:47.855422  8400 layer_factory.hpp:77] Creating layer label_data_1_split
I1017 11:02:47.855429  8400 net.cpp:100] Creating Layer label_data_1_split
I1017 11:02:47.855433  8400 net.cpp:434] label_data_1_split <- label
I1017 11:02:47.855437  8400 net.cpp:408] label_data_1_split -> label_data_1_split_0
I1017 11:02:47.855443  8400 net.cpp:408] label_data_1_split -> label_data_1_split_1
I1017 11:02:47.855476  8400 net.cpp:150] Setting up label_data_1_split
I1017 11:02:47.855480  8400 net.cpp:157] Top shape: 100 (100)
I1017 11:02:47.855482  8400 net.cpp:157] Top shape: 100 (100)
I1017 11:02:47.855484  8400 net.cpp:165] Memory required for data: 1230000
I1017 11:02:47.855485  8400 layer_factory.hpp:77] Creating layer conv1
I1017 11:02:47.855494  8400 net.cpp:100] Creating Layer conv1
I1017 11:02:47.855495  8400 net.cpp:434] conv1 <- data
I1017 11:02:47.855499  8400 net.cpp:408] conv1 -> conv1
I1017 11:02:47.856348  8400 net.cpp:150] Setting up conv1
I1017 11:02:47.856356  8400 net.cpp:157] Top shape: 100 192 28 28 (15052800)
I1017 11:02:47.856359  8400 net.cpp:165] Memory required for data: 61441200
I1017 11:02:47.856364  8400 layer_factory.hpp:77] Creating layer pool1
I1017 11:02:47.856369  8400 net.cpp:100] Creating Layer pool1
I1017 11:02:47.856372  8400 net.cpp:434] pool1 <- conv1
I1017 11:02:47.856375  8400 net.cpp:408] pool1 -> pool1
I1017 11:02:47.856401  8400 net.cpp:150] Setting up pool1
I1017 11:02:47.856405  8400 net.cpp:157] Top shape: 100 192 14 14 (3763200)
I1017 11:02:47.856407  8400 net.cpp:165] Memory required for data: 76494000
I1017 11:02:47.856410  8400 layer_factory.hpp:77] Creating layer drop1
I1017 11:02:47.856415  8400 net.cpp:100] Creating Layer drop1
I1017 11:02:47.856416  8400 net.cpp:434] drop1 <- pool1
I1017 11:02:47.856420  8400 net.cpp:408] drop1 -> drop1
I1017 11:02:47.856441  8400 net.cpp:150] Setting up drop1
I1017 11:02:47.856447  8400 net.cpp:157] Top shape: 100 192 14 14 (3763200)
I1017 11:02:47.856449  8400 net.cpp:165] Memory required for data: 91546800
I1017 11:02:47.856456  8400 layer_factory.hpp:77] Creating layer relu1
I1017 11:02:47.856459  8400 net.cpp:100] Creating Layer relu1
I1017 11:02:47.856462  8400 net.cpp:434] relu1 <- drop1
I1017 11:02:47.856465  8400 net.cpp:408] relu1 -> relu1
I1017 11:02:47.856669  8400 net.cpp:150] Setting up relu1
I1017 11:02:47.856684  8400 net.cpp:157] Top shape: 100 192 14 14 (3763200)
I1017 11:02:47.856686  8400 net.cpp:165] Memory required for data: 106599600
I1017 11:02:47.856688  8400 layer_factory.hpp:77] Creating layer conv2
I1017 11:02:47.856693  8400 net.cpp:100] Creating Layer conv2
I1017 11:02:47.856695  8400 net.cpp:434] conv2 <- relu1
I1017 11:02:47.856700  8400 net.cpp:408] conv2 -> conv2
I1017 11:02:47.857631  8400 net.cpp:150] Setting up conv2
I1017 11:02:47.857640  8400 net.cpp:157] Top shape: 100 192 14 14 (3763200)
I1017 11:02:47.857645  8400 net.cpp:165] Memory required for data: 121652400
I1017 11:02:47.857650  8400 layer_factory.hpp:77] Creating layer conv3
I1017 11:02:47.857656  8400 net.cpp:100] Creating Layer conv3
I1017 11:02:47.857657  8400 net.cpp:434] conv3 <- conv2
I1017 11:02:47.857661  8400 net.cpp:408] conv3 -> conv3
I1017 11:02:47.860118  8400 net.cpp:150] Setting up conv3
I1017 11:02:47.860126  8400 net.cpp:157] Top shape: 100 240 12 12 (3456000)
I1017 11:02:47.860128  8400 net.cpp:165] Memory required for data: 135476400
I1017 11:02:47.860133  8400 layer_factory.hpp:77] Creating layer pool2
I1017 11:02:47.860139  8400 net.cpp:100] Creating Layer pool2
I1017 11:02:47.860141  8400 net.cpp:434] pool2 <- conv3
I1017 11:02:47.860144  8400 net.cpp:408] pool2 -> pool2
I1017 11:02:47.860172  8400 net.cpp:150] Setting up pool2
I1017 11:02:47.860177  8400 net.cpp:157] Top shape: 100 240 6 6 (864000)
I1017 11:02:47.860178  8400 net.cpp:165] Memory required for data: 138932400
I1017 11:02:47.860180  8400 layer_factory.hpp:77] Creating layer drop2
I1017 11:02:47.860183  8400 net.cpp:100] Creating Layer drop2
I1017 11:02:47.860184  8400 net.cpp:434] drop2 <- pool2
I1017 11:02:47.860188  8400 net.cpp:408] drop2 -> drop2
I1017 11:02:47.860210  8400 net.cpp:150] Setting up drop2
I1017 11:02:47.860213  8400 net.cpp:157] Top shape: 100 240 6 6 (864000)
I1017 11:02:47.860215  8400 net.cpp:165] Memory required for data: 142388400
I1017 11:02:47.860216  8400 layer_factory.hpp:77] Creating layer relu2
I1017 11:02:47.860220  8400 net.cpp:100] Creating Layer relu2
I1017 11:02:47.860221  8400 net.cpp:434] relu2 <- drop2
I1017 11:02:47.860224  8400 net.cpp:408] relu2 -> relu2
I1017 11:02:47.860342  8400 net.cpp:150] Setting up relu2
I1017 11:02:47.860347  8400 net.cpp:157] Top shape: 100 240 6 6 (864000)
I1017 11:02:47.860348  8400 net.cpp:165] Memory required for data: 145844400
I1017 11:02:47.860350  8400 layer_factory.hpp:77] Creating layer conv4
I1017 11:02:47.860355  8400 net.cpp:100] Creating Layer conv4
I1017 11:02:47.860357  8400 net.cpp:434] conv4 <- relu2
I1017 11:02:47.860361  8400 net.cpp:408] conv4 -> conv4
I1017 11:02:47.861213  8400 net.cpp:150] Setting up conv4
I1017 11:02:47.861220  8400 net.cpp:157] Top shape: 100 240 6 6 (864000)
I1017 11:02:47.861222  8400 net.cpp:165] Memory required for data: 149300400
I1017 11:02:47.861227  8400 layer_factory.hpp:77] Creating layer conv5
I1017 11:02:47.861232  8400 net.cpp:100] Creating Layer conv5
I1017 11:02:47.861233  8400 net.cpp:434] conv5 <- conv4
I1017 11:02:47.861237  8400 net.cpp:408] conv5 -> conv5
I1017 11:02:47.862998  8400 net.cpp:150] Setting up conv5
I1017 11:02:47.863006  8400 net.cpp:157] Top shape: 100 260 5 5 (650000)
I1017 11:02:47.863008  8400 net.cpp:165] Memory required for data: 151900400
I1017 11:02:47.863014  8400 layer_factory.hpp:77] Creating layer pool3
I1017 11:02:47.863018  8400 net.cpp:100] Creating Layer pool3
I1017 11:02:47.863020  8400 net.cpp:434] pool3 <- conv5
I1017 11:02:47.863023  8400 net.cpp:408] pool3 -> pool3
I1017 11:02:47.863050  8400 net.cpp:150] Setting up pool3
I1017 11:02:47.863054  8400 net.cpp:157] Top shape: 100 260 3 3 (234000)
I1017 11:02:47.863056  8400 net.cpp:165] Memory required for data: 152836400
I1017 11:02:47.863057  8400 layer_factory.hpp:77] Creating layer drop3
I1017 11:02:47.863060  8400 net.cpp:100] Creating Layer drop3
I1017 11:02:47.863062  8400 net.cpp:434] drop3 <- pool3
I1017 11:02:47.863065  8400 net.cpp:408] drop3 -> drop3
I1017 11:02:47.863088  8400 net.cpp:150] Setting up drop3
I1017 11:02:47.863101  8400 net.cpp:157] Top shape: 100 260 3 3 (234000)
I1017 11:02:47.863103  8400 net.cpp:165] Memory required for data: 153772400
I1017 11:02:47.863104  8400 layer_factory.hpp:77] Creating layer relu3
I1017 11:02:47.863107  8400 net.cpp:100] Creating Layer relu3
I1017 11:02:47.863109  8400 net.cpp:434] relu3 <- drop3
I1017 11:02:47.863113  8400 net.cpp:408] relu3 -> relu3
I1017 11:02:47.863229  8400 net.cpp:150] Setting up relu3
I1017 11:02:47.863234  8400 net.cpp:157] Top shape: 100 260 3 3 (234000)
I1017 11:02:47.863236  8400 net.cpp:165] Memory required for data: 154708400
I1017 11:02:47.863239  8400 layer_factory.hpp:77] Creating layer conv6
I1017 11:02:47.863245  8400 net.cpp:100] Creating Layer conv6
I1017 11:02:47.863246  8400 net.cpp:434] conv6 <- relu3
I1017 11:02:47.863250  8400 net.cpp:408] conv6 -> conv6
I1017 11:02:47.864469  8400 net.cpp:150] Setting up conv6
I1017 11:02:47.864477  8400 net.cpp:157] Top shape: 100 260 3 3 (234000)
I1017 11:02:47.864480  8400 net.cpp:165] Memory required for data: 155644400
I1017 11:02:47.864483  8400 layer_factory.hpp:77] Creating layer conv7
I1017 11:02:47.864487  8400 net.cpp:100] Creating Layer conv7
I1017 11:02:47.864490  8400 net.cpp:434] conv7 <- conv6
I1017 11:02:47.864495  8400 net.cpp:408] conv7 -> conv7
I1017 11:02:47.866430  8400 net.cpp:150] Setting up conv7
I1017 11:02:47.866439  8400 net.cpp:157] Top shape: 100 280 2 2 (112000)
I1017 11:02:47.866441  8400 net.cpp:165] Memory required for data: 156092400
I1017 11:02:47.866451  8400 layer_factory.hpp:77] Creating layer pool4
I1017 11:02:47.866456  8400 net.cpp:100] Creating Layer pool4
I1017 11:02:47.866458  8400 net.cpp:434] pool4 <- conv7
I1017 11:02:47.866461  8400 net.cpp:408] pool4 -> pool4
I1017 11:02:47.866490  8400 net.cpp:150] Setting up pool4
I1017 11:02:47.866494  8400 net.cpp:157] Top shape: 100 280 1 1 (28000)
I1017 11:02:47.866497  8400 net.cpp:165] Memory required for data: 156204400
I1017 11:02:47.866498  8400 layer_factory.hpp:77] Creating layer drop4
I1017 11:02:47.866503  8400 net.cpp:100] Creating Layer drop4
I1017 11:02:47.866504  8400 net.cpp:434] drop4 <- pool4
I1017 11:02:47.866508  8400 net.cpp:408] drop4 -> drop4
I1017 11:02:47.866530  8400 net.cpp:150] Setting up drop4
I1017 11:02:47.866534  8400 net.cpp:157] Top shape: 100 280 1 1 (28000)
I1017 11:02:47.866536  8400 net.cpp:165] Memory required for data: 156316400
I1017 11:02:47.866539  8400 layer_factory.hpp:77] Creating layer relu4
I1017 11:02:47.866542  8400 net.cpp:100] Creating Layer relu4
I1017 11:02:47.866545  8400 net.cpp:434] relu4 <- drop4
I1017 11:02:47.866549  8400 net.cpp:408] relu4 -> relu4
I1017 11:02:47.866838  8400 net.cpp:150] Setting up relu4
I1017 11:02:47.866843  8400 net.cpp:157] Top shape: 100 280 1 1 (28000)
I1017 11:02:47.866845  8400 net.cpp:165] Memory required for data: 156428400
I1017 11:02:47.866883  8400 layer_factory.hpp:77] Creating layer conv8
I1017 11:02:47.866889  8400 net.cpp:100] Creating Layer conv8
I1017 11:02:47.866891  8400 net.cpp:434] conv8 <- relu4
I1017 11:02:47.866895  8400 net.cpp:408] conv8 -> conv8
I1017 11:02:47.867900  8400 net.cpp:150] Setting up conv8
I1017 11:02:47.867908  8400 net.cpp:157] Top shape: 100 280 1 1 (28000)
I1017 11:02:47.867910  8400 net.cpp:165] Memory required for data: 156540400
I1017 11:02:47.867914  8400 layer_factory.hpp:77] Creating layer pool5
I1017 11:02:47.867919  8400 net.cpp:100] Creating Layer pool5
I1017 11:02:47.867923  8400 net.cpp:434] pool5 <- conv8
I1017 11:02:47.867925  8400 net.cpp:408] pool5 -> pool5
I1017 11:02:47.867952  8400 net.cpp:150] Setting up pool5
I1017 11:02:47.867957  8400 net.cpp:157] Top shape: 100 280 1 1 (28000)
I1017 11:02:47.867959  8400 net.cpp:165] Memory required for data: 156652400
I1017 11:02:47.867960  8400 layer_factory.hpp:77] Creating layer drop5
I1017 11:02:47.867964  8400 net.cpp:100] Creating Layer drop5
I1017 11:02:47.867965  8400 net.cpp:434] drop5 <- pool5
I1017 11:02:47.867969  8400 net.cpp:408] drop5 -> drop5
I1017 11:02:47.867990  8400 net.cpp:150] Setting up drop5
I1017 11:02:47.867995  8400 net.cpp:157] Top shape: 100 280 1 1 (28000)
I1017 11:02:47.868006  8400 net.cpp:165] Memory required for data: 156764400
I1017 11:02:47.868008  8400 layer_factory.hpp:77] Creating layer relu5
I1017 11:02:47.868011  8400 net.cpp:100] Creating Layer relu5
I1017 11:02:47.868015  8400 net.cpp:434] relu5 <- drop5
I1017 11:02:47.868017  8400 net.cpp:408] relu5 -> relu5
I1017 11:02:47.868216  8400 net.cpp:150] Setting up relu5
I1017 11:02:47.868222  8400 net.cpp:157] Top shape: 100 280 1 1 (28000)
I1017 11:02:47.868224  8400 net.cpp:165] Memory required for data: 156876400
I1017 11:02:47.868227  8400 layer_factory.hpp:77] Creating layer conv10
I1017 11:02:47.868232  8400 net.cpp:100] Creating Layer conv10
I1017 11:02:47.868234  8400 net.cpp:434] conv10 <- relu5
I1017 11:02:47.868239  8400 net.cpp:408] conv10 -> conv10
I1017 11:02:47.869201  8400 net.cpp:150] Setting up conv10
I1017 11:02:47.869209  8400 net.cpp:157] Top shape: 100 300 1 1 (30000)
I1017 11:02:47.869211  8400 net.cpp:165] Memory required for data: 156996400
I1017 11:02:47.869218  8400 layer_factory.hpp:77] Creating layer pool6
I1017 11:02:47.869223  8400 net.cpp:100] Creating Layer pool6
I1017 11:02:47.869226  8400 net.cpp:434] pool6 <- conv10
I1017 11:02:47.869230  8400 net.cpp:408] pool6 -> pool6
I1017 11:02:47.869258  8400 net.cpp:150] Setting up pool6
I1017 11:02:47.869263  8400 net.cpp:157] Top shape: 100 300 1 1 (30000)
I1017 11:02:47.869266  8400 net.cpp:165] Memory required for data: 157116400
I1017 11:02:47.869267  8400 layer_factory.hpp:77] Creating layer drop6
I1017 11:02:47.869271  8400 net.cpp:100] Creating Layer drop6
I1017 11:02:47.869272  8400 net.cpp:434] drop6 <- pool6
I1017 11:02:47.869277  8400 net.cpp:408] drop6 -> drop6
I1017 11:02:47.869299  8400 net.cpp:150] Setting up drop6
I1017 11:02:47.869303  8400 net.cpp:157] Top shape: 100 300 1 1 (30000)
I1017 11:02:47.869307  8400 net.cpp:165] Memory required for data: 157236400
I1017 11:02:47.869307  8400 layer_factory.hpp:77] Creating layer relu6
I1017 11:02:47.869312  8400 net.cpp:100] Creating Layer relu6
I1017 11:02:47.869313  8400 net.cpp:434] relu6 <- drop6
I1017 11:02:47.869318  8400 net.cpp:408] relu6 -> relu6
I1017 11:02:47.869433  8400 net.cpp:150] Setting up relu6
I1017 11:02:47.869438  8400 net.cpp:157] Top shape: 100 300 1 1 (30000)
I1017 11:02:47.869441  8400 net.cpp:165] Memory required for data: 157356400
I1017 11:02:47.869443  8400 layer_factory.hpp:77] Creating layer conv11
I1017 11:02:47.869448  8400 net.cpp:100] Creating Layer conv11
I1017 11:02:47.869451  8400 net.cpp:434] conv11 <- relu6
I1017 11:02:47.869454  8400 net.cpp:408] conv11 -> conv11
I1017 11:02:47.870216  8400 net.cpp:150] Setting up conv11
I1017 11:02:47.870224  8400 net.cpp:157] Top shape: 100 100 1 1 (10000)
I1017 11:02:47.870226  8400 net.cpp:165] Memory required for data: 157396400
I1017 11:02:47.870230  8400 layer_factory.hpp:77] Creating layer pool7
I1017 11:02:47.870234  8400 net.cpp:100] Creating Layer pool7
I1017 11:02:47.870237  8400 net.cpp:434] pool7 <- conv11
I1017 11:02:47.870240  8400 net.cpp:408] pool7 -> pool7
I1017 11:02:47.870270  8400 net.cpp:150] Setting up pool7
I1017 11:02:47.870275  8400 net.cpp:157] Top shape: 100 100 1 1 (10000)
I1017 11:02:47.870277  8400 net.cpp:165] Memory required for data: 157436400
I1017 11:02:47.870280  8400 layer_factory.hpp:77] Creating layer drop7
I1017 11:02:47.870282  8400 net.cpp:100] Creating Layer drop7
I1017 11:02:47.870285  8400 net.cpp:434] drop7 <- pool7
I1017 11:02:47.870288  8400 net.cpp:408] drop7 -> drop7
I1017 11:02:47.870311  8400 net.cpp:150] Setting up drop7
I1017 11:02:47.870316  8400 net.cpp:157] Top shape: 100 100 1 1 (10000)
I1017 11:02:47.870318  8400 net.cpp:165] Memory required for data: 157476400
I1017 11:02:47.870321  8400 layer_factory.hpp:77] Creating layer relu7
I1017 11:02:47.870326  8400 net.cpp:100] Creating Layer relu7
I1017 11:02:47.870328  8400 net.cpp:434] relu7 <- drop7
I1017 11:02:47.870332  8400 net.cpp:408] relu7 -> relu7
I1017 11:02:47.870455  8400 net.cpp:150] Setting up relu7
I1017 11:02:47.870460  8400 net.cpp:157] Top shape: 100 100 1 1 (10000)
I1017 11:02:47.870470  8400 net.cpp:165] Memory required for data: 157516400
I1017 11:02:47.870472  8400 layer_factory.hpp:77] Creating layer pool
I1017 11:02:47.870476  8400 net.cpp:100] Creating Layer pool
I1017 11:02:47.870477  8400 net.cpp:434] pool <- relu7
I1017 11:02:47.870481  8400 net.cpp:408] pool -> pool
I1017 11:02:47.870682  8400 net.cpp:150] Setting up pool
I1017 11:02:47.870689  8400 net.cpp:157] Top shape: 100 100 1 1 (10000)
I1017 11:02:47.870692  8400 net.cpp:165] Memory required for data: 157556400
I1017 11:02:47.870693  8400 layer_factory.hpp:77] Creating layer flatten
I1017 11:02:47.870698  8400 net.cpp:100] Creating Layer flatten
I1017 11:02:47.870700  8400 net.cpp:434] flatten <- pool
I1017 11:02:47.870703  8400 net.cpp:408] flatten -> flatten
I1017 11:02:47.870720  8400 net.cpp:150] Setting up flatten
I1017 11:02:47.870724  8400 net.cpp:157] Top shape: 100 100 (10000)
I1017 11:02:47.870726  8400 net.cpp:165] Memory required for data: 157596400
I1017 11:02:47.870728  8400 layer_factory.hpp:77] Creating layer score
I1017 11:02:47.870731  8400 net.cpp:100] Creating Layer score
I1017 11:02:47.870734  8400 net.cpp:434] score <- flatten
I1017 11:02:47.870738  8400 net.cpp:408] score -> score
I1017 11:02:47.870823  8400 net.cpp:150] Setting up score
I1017 11:02:47.870827  8400 net.cpp:157] Top shape: 100 10 (1000)
I1017 11:02:47.870831  8400 net.cpp:165] Memory required for data: 157600400
I1017 11:02:47.870833  8400 layer_factory.hpp:77] Creating layer score_score_0_split
I1017 11:02:47.870837  8400 net.cpp:100] Creating Layer score_score_0_split
I1017 11:02:47.870839  8400 net.cpp:434] score_score_0_split <- score
I1017 11:02:47.870843  8400 net.cpp:408] score_score_0_split -> score_score_0_split_0
I1017 11:02:47.870847  8400 net.cpp:408] score_score_0_split -> score_score_0_split_1
I1017 11:02:47.870872  8400 net.cpp:150] Setting up score_score_0_split
I1017 11:02:47.870875  8400 net.cpp:157] Top shape: 100 10 (1000)
I1017 11:02:47.870878  8400 net.cpp:157] Top shape: 100 10 (1000)
I1017 11:02:47.870879  8400 net.cpp:165] Memory required for data: 157608400
I1017 11:02:47.870882  8400 layer_factory.hpp:77] Creating layer accuracy
I1017 11:02:47.870885  8400 net.cpp:100] Creating Layer accuracy
I1017 11:02:47.870888  8400 net.cpp:434] accuracy <- score_score_0_split_0
I1017 11:02:47.870890  8400 net.cpp:434] accuracy <- label_data_1_split_0
I1017 11:02:47.870894  8400 net.cpp:408] accuracy -> accuracy
…
