…
device_id: 0
train_state {
  level: 0
  stage: ""
}
type: "SGD"
I1017 12:38:23.018638  9098 solver.cpp:81] Creating training net from train_net file: /home/adam/Honours/Honours-Project/cifar-10_pooling/max/leakyrelu/poolcnn_leakyrelu_train.prototxt
I1017 12:38:23.018944  9098 net.cpp:58] Initializing net from parameters: 
state {
  phase: TRAIN
  level: 0
  stage: ""
}
layer {
  name: "data"
  type: "Data"
  top: "data"
  top: "label"
  data_param {
    source: "../../../../data/cifar-10/cifar10_train_lmdb"
    batch_size: 64
    backend: LMDB
  }
}
layer {
  name: "conv1"
  type: "Convolution"
  bottom: "data"
  top: "conv1"
  convolution_param {
    num_output: 192
    kernel_size: 5
    weight_filler {
      type: "xavier"
    }
  }
}
layer {
  name: "pool1"
  type: "Pooling"
  bottom: "conv1"
  top: "pool1"
  pooling_param {
    pool: MAX
    kernel_size: 2
    stride: 2
  }
}
layer {
  name: "drop1"
  type: "Dropout"
  bottom: "pool1"
  top: "drop1"
  dropout_param {
    dropout_ratio: 0
  }
}
layer {
  name: "relu1"
  type: "ReLU"
  bottom: "drop1"
  top: "relu1"
  relu_param {
    negative_slope: 0.01
  }
}
layer {
  name: "conv2"
  type: "Convolution"
  bottom: "relu1"
  top: "conv2"
  convolution_param {
    num_output: 192
    kernel_size: 1
    weight_filler {
      type: "xavier"
    }
  }
}
layer {
  name: "conv3"
  type: "Convolution"
  bottom: "conv2"
  top: "conv3"
  convolution_param {
    num_output: 240
    kernel_size: 3
    weight_filler {
      type: "xavier"
    }
  }
}
layer {
  name: "pool2"
  type: "Pooling"
  bottom: "conv3"
  top: "pool2"
  pooling_param {
    pool: MAX
    kernel_size: 2
    stride: 2
  }
}
layer {
  name: "drop2"
  type: "Dropout"
  bottom: "pool2"
  top: "drop2"
  dropout_param {
    dropout_ratio: 0.1
  }
}
layer {
  name: "relu2"
  type: "ReLU"
  bottom: "drop2"
  top: "relu2"
  relu_param {
    negative_slope: 0.01
  }
}
layer {
  name: "conv4"
  type: "Convolution"
  bottom: "relu2"
  top: "conv4"
  convolution_param {
    num_output: 240
    kernel_size: 1
    weight_filler {
      type: "xavier"
    }
  }
}
layer {
  name: "conv5"
  type: "Convolution"
  bottom: "conv4"
  top: "conv5"
  convolution_param {
    num_output: 260
    kernel_size: 2
    weight_filler {
      type: "xavier"
    }
  }
}
layer {
  name: "pool3"
  type: "Pooling"
  bottom: "conv5"
  top: "pool3"
  pooling_param {
    pool: MAX
    kernel_size: 2
    stride: 2
  }
}
layer {
  name: "drop3"
  type: "Dropout"
  bottom: "pool3"
  top: "drop3"
  dropout_param {
    dropout_ratio: 0.2
  }
}
layer {
  name: "relu3"
  type: "ReLU"
  bottom: "drop3"
  top: "relu3"
  relu_param {
    negative_slope: 0.01
  }
}
layer {
  name: "conv6"
  type: "Convolution"
  bottom: "relu3"
  top: "conv6"
  convolution_param {
    num_output: 260
    kernel_size: 1
    weight_filler {
      type: "xavier"
    }
  }
}
layer {
  name: "conv7"
  type: "Convolution"
  bottom: "conv6"
  top: "conv7"
  convolution_param {
    num_output: 280
    kernel_size: 2
    weight_filler {
      type: "xavier"
    }
  }
}
layer {
  name: "pool4"
  type: "Pooling"
  bottom: "conv7"
  top: "pool4"
  pooling_param {
    pool: MAX
    kernel_size: 2
    stride: 2
  }
}
layer {
  name: "drop4"
  type: "Dropout"
  bottom: "pool4"
  top: "drop4"
  dropout_param {
    dropout_ratio: 0.3
  }
}
layer {
  name: "relu4"
  type: "ReLU"
  bottom: "drop4"
  top: "relu4"
  relu_param {
    negative_slope: 0.01
  }
}
layer {
  name: "conv8"
  type: "Convolution"
  bottom: "relu4"
  top: "conv8"
  convolution_param {
    num_output: 280
    kernel_size: 1
    weight_filler {
      type: "xavier"
    }
  }
}
layer {
  name: "pool5"
  type: "Pooling"
  bottom: "conv8"
  top: "pool5"
  pooling_param {
    pool: MAX
    kernel_size: 2
    stride: 2
  }
}
layer {
  name: "drop5"
  type: "Dropout"
  bottom: "pool5"
  top: "drop5"
  dropout_param {
    dropout_ratio: 0.4
  }
}
layer {
  name: "relu5"
  type: "ReLU"
  bottom: "drop5"
  top: "relu5"
  relu_param {
    negative_slope: 0.01
  }
}
layer {
  name: "conv10"
  type: "Convolution"
  bottom: "relu5"
  top: "conv10"
  convolution_param {
    num_output: 300
    kernel_size: 1
    weight_filler {
      type: "xavier"
    }
  }
}
layer {
  name: "pool6"
  type: "Pooling"
  bottom: "conv10"
  top: "pool6"
  pooling_param {
    pool: MAX
    kernel_size: 2
    stride: 2
  }
}
layer {
  name: "drop6"
  type: "Dropout"
  bottom: "pool6"
  top: "drop6"
  dropout_param {
    dropout_ratio: 0.5
  }
}
layer {
  name: "relu6"
  type: "ReLU"
  bottom: "drop6"
  top: "relu6"
  relu_param {
    negative_slope: 0.01
  }
}
layer {
  name: "conv11"
  type: "Convolution"
  bottom: "relu6"
  top: "conv11"
  convolution_param {
    num_output: 100
    kernel_size: 1
    weight_filler {
      type: "xavier"
    }
  }
}
layer {
  name: "pool7"
  type: "Pooling"
  bottom: "conv11"
  top: "pool7"
  pooling_param {
    pool: MAX
    kernel_size: 2
    stride: 2
  }
}
layer {
  name: "drop7"
  type: "Dropout"
  bottom: "pool7"
  top: "drop7"
  dropout_param {
    dropout_ratio: 0
  }
}
layer {
  name: "relu7"
  type: "ReLU"
  bottom: "drop7"
  top: "relu7"
  relu_param {
    negative_slope: 0.01
  }
}
layer {
  name: "pool"
  type: "Pooling"
  bottom: "relu7"
  top: "pool"
  pooling_param {
    pool: AVE
    global_pooling: true
  }
}
layer {
  name: "flatten"
  type: "Flatten"
  bottom: "pool"
  top: "flatten"
}
layer {
  name: "score"
  type: "InnerProduct"
  bottom: "flatten"
  top: "score"
  inner_product_param {
    num_output: 10
    weight_filler {
      type: "gaussian"
    }
  }
}
layer {
  name: "accuracy"
  type: "Accuracy"
  bottom: "score"
  bottom: "label"
  top: "accuracy"
}
layer {
  name: "loss"
  type: "SoftmaxWithLoss"
  bottom: "score"
  bottom: "label"
  top: "loss"
}
I1017 12:38:23.019063  9098 layer_factory.hpp:77] Creating layer data
I1017 12:38:23.019460  9098 net.cpp:100] Creating Layer data
I1017 12:38:23.019467  9098 net.cpp:408] data -> data
I1017 12:38:23.019480  9098 net.cpp:408] data -> label
I1017 12:38:23.020068  9103 db_lmdb.cpp:35] Opened lmdb ../../../../data/cifar-10/cifar10_train_lmdb
I1017 12:38:23.025620  9098 data_layer.cpp:41] output data size: 64,3,32,32
I1017 12:38:23.027012  9098 net.cpp:150] Setting up data
I1017 12:38:23.027027  9098 net.cpp:157] Top shape: 64 3 32 32 (196608)
I1017 12:38:23.027030  9098 net.cpp:157] Top shape: 64 (64)
I1017 12:38:23.027032  9098 net.cpp:165] Memory required for data: 786688
I1017 12:38:23.027041  9098 layer_factory.hpp:77] Creating layer label_data_1_split
I1017 12:38:23.027052  9098 net.cpp:100] Creating Layer label_data_1_split
I1017 12:38:23.027056  9098 net.cpp:434] label_data_1_split <- label
I1017 12:38:23.027068  9098 net.cpp:408] label_data_1_split -> label_data_1_split_0
I1017 12:38:23.027078  9098 net.cpp:408] label_data_1_split -> label_data_1_split_1
I1017 12:38:23.027108  9098 net.cpp:150] Setting up label_data_1_split
I1017 12:38:23.027112  9098 net.cpp:157] Top shape: 64 (64)
I1017 12:38:23.027114  9098 net.cpp:157] Top shape: 64 (64)
I1017 12:38:23.027117  9098 net.cpp:165] Memory required for data: 787200
I1017 12:38:23.027117  9098 layer_factory.hpp:77] Creating layer conv1
I1017 12:38:23.027128  9098 net.cpp:100] Creating Layer conv1
I1017 12:38:23.027132  9098 net.cpp:434] conv1 <- data
I1017 12:38:23.027135  9098 net.cpp:408] conv1 -> conv1
I1017 12:38:23.146951  9098 net.cpp:150] Setting up conv1
I1017 12:38:23.146980  9098 net.cpp:157] Top shape: 64 192 28 28 (9633792)
I1017 12:38:23.146983  9098 net.cpp:165] Memory required for data: 39322368
I1017 12:38:23.147001  9098 layer_factory.hpp:77] Creating layer pool1
I1017 12:38:23.147034  9098 net.cpp:100] Creating Layer pool1
I1017 12:38:23.147039  9098 net.cpp:434] pool1 <- conv1
I1017 12:38:23.147047  9098 net.cpp:408] pool1 -> pool1
I1017 12:38:23.147089  9098 net.cpp:150] Setting up pool1
I1017 12:38:23.147094  9098 net.cpp:157] Top shape: 64 192 14 14 (2408448)
I1017 12:38:23.147094  9098 net.cpp:165] Memory required for data: 48956160
I1017 12:38:23.147096  9098 layer_factory.hpp:77] Creating layer drop1
I1017 12:38:23.147104  9098 net.cpp:100] Creating Layer drop1
I1017 12:38:23.147105  9098 net.cpp:434] drop1 <- pool1
I1017 12:38:23.147107  9098 net.cpp:408] drop1 -> drop1
I1017 12:38:23.147133  9098 net.cpp:150] Setting up drop1
I1017 12:38:23.147137  9098 net.cpp:157] Top shape: 64 192 14 14 (2408448)
I1017 12:38:23.147140  9098 net.cpp:165] Memory required for data: 58589952
I1017 12:38:23.147140  9098 layer_factory.hpp:77] Creating layer relu1
I1017 12:38:23.147146  9098 net.cpp:100] Creating Layer relu1
I1017 12:38:23.147148  9098 net.cpp:434] relu1 <- drop1
I1017 12:38:23.147153  9098 net.cpp:408] relu1 -> relu1
I1017 12:38:23.147275  9098 net.cpp:150] Setting up relu1
I1017 12:38:23.147282  9098 net.cpp:157] Top shape: 64 192 14 14 (2408448)
I1017 12:38:23.147284  9098 net.cpp:165] Memory required for data: 68223744
I1017 12:38:23.147285  9098 layer_factory.hpp:77] Creating layer conv2
I1017 12:38:23.147291  9098 net.cpp:100] Creating Layer conv2
I1017 12:38:23.147294  9098 net.cpp:434] conv2 <- relu1
I1017 12:38:23.147296  9098 net.cpp:408] conv2 -> conv2
I1017 12:38:23.148355  9098 net.cpp:150] Setting up conv2
I1017 12:38:23.148362  9098 net.cpp:157] Top shape: 64 192 14 14 (2408448)
I1017 12:38:23.148365  9098 net.cpp:165] Memory required for data: 77857536
I1017 12:38:23.148370  9098 layer_factory.hpp:77] Creating layer conv3
I1017 12:38:23.148375  9098 net.cpp:100] Creating Layer conv3
I1017 12:38:23.148377  9098 net.cpp:434] conv3 <- conv2
I1017 12:38:23.148380  9098 net.cpp:408] conv3 -> conv3
I1017 12:38:23.150811  9098 net.cpp:150] Setting up conv3
I1017 12:38:23.150822  9098 net.cpp:157] Top shape: 64 240 12 12 (2211840)
I1017 12:38:23.150825  9098 net.cpp:165] Memory required for data: 86704896
I1017 12:38:23.150830  9098 layer_factory.hpp:77] Creating layer pool2
I1017 12:38:23.150836  9098 net.cpp:100] Creating Layer pool2
I1017 12:38:23.150838  9098 net.cpp:434] pool2 <- conv3
I1017 12:38:23.150842  9098 net.cpp:408] pool2 -> pool2
I1017 12:38:23.150867  9098 net.cpp:150] Setting up pool2
I1017 12:38:23.150873  9098 net.cpp:157] Top shape: 64 240 6 6 (552960)
I1017 12:38:23.150876  9098 net.cpp:165] Memory required for data: 88916736
I1017 12:38:23.150878  9098 layer_factory.hpp:77] Creating layer drop2
I1017 12:38:23.150882  9098 net.cpp:100] Creating Layer drop2
I1017 12:38:23.150885  9098 net.cpp:434] drop2 <- pool2
I1017 12:38:23.150887  9098 net.cpp:408] drop2 -> drop2
I1017 12:38:23.150908  9098 net.cpp:150] Setting up drop2
I1017 12:38:23.150913  9098 net.cpp:157] Top shape: 64 240 6 6 (552960)
I1017 12:38:23.150914  9098 net.cpp:165] Memory required for data: 91128576
I1017 12:38:23.150915  9098 layer_factory.hpp:77] Creating layer relu2
I1017 12:38:23.150918  9098 net.cpp:100] Creating Layer relu2
I1017 12:38:23.150920  9098 net.cpp:434] relu2 <- drop2
I1017 12:38:23.150923  9098 net.cpp:408] relu2 -> relu2
I1017 12:38:23.151028  9098 net.cpp:150] Setting up relu2
I1017 12:38:23.151033  9098 net.cpp:157] Top shape: 64 240 6 6 (552960)
I1017 12:38:23.151034  9098 net.cpp:165] Memory required for data: 93340416
I1017 12:38:23.151036  9098 layer_factory.hpp:77] Creating layer conv4
I1017 12:38:23.151041  9098 net.cpp:100] Creating Layer conv4
I1017 12:38:23.151042  9098 net.cpp:434] conv4 <- relu2
I1017 12:38:23.151046  9098 net.cpp:408] conv4 -> conv4
I1017 12:38:23.151842  9098 net.cpp:150] Setting up conv4
I1017 12:38:23.151849  9098 net.cpp:157] Top shape: 64 240 6 6 (552960)
I1017 12:38:23.151851  9098 net.cpp:165] Memory required for data: 95552256
I1017 12:38:23.151855  9098 layer_factory.hpp:77] Creating layer conv5
I1017 12:38:23.151870  9098 net.cpp:100] Creating Layer conv5
I1017 12:38:23.151872  9098 net.cpp:434] conv5 <- conv4
I1017 12:38:23.151875  9098 net.cpp:408] conv5 -> conv5
I1017 12:38:23.153633  9098 net.cpp:150] Setting up conv5
I1017 12:38:23.153645  9098 net.cpp:157] Top shape: 64 260 5 5 (416000)
I1017 12:38:23.153645  9098 net.cpp:165] Memory required for data: 97216256
I1017 12:38:23.153653  9098 layer_factory.hpp:77] Creating layer pool3
I1017 12:38:23.153657  9098 net.cpp:100] Creating Layer pool3
I1017 12:38:23.153659  9098 net.cpp:434] pool3 <- conv5
I1017 12:38:23.153663  9098 net.cpp:408] pool3 -> pool3
I1017 12:38:23.153688  9098 net.cpp:150] Setting up pool3
I1017 12:38:23.153694  9098 net.cpp:157] Top shape: 64 260 3 3 (149760)
I1017 12:38:23.153697  9098 net.cpp:165] Memory required for data: 97815296
I1017 12:38:23.153699  9098 layer_factory.hpp:77] Creating layer drop3
I1017 12:38:23.153703  9098 net.cpp:100] Creating Layer drop3
I1017 12:38:23.153707  9098 net.cpp:434] drop3 <- pool3
I1017 12:38:23.153712  9098 net.cpp:408] drop3 -> drop3
I1017 12:38:23.153740  9098 net.cpp:150] Setting up drop3
I1017 12:38:23.153745  9098 net.cpp:157] Top shape: 64 260 3 3 (149760)
I1017 12:38:23.153748  9098 net.cpp:165] Memory required for data: 98414336
I1017 12:38:23.153751  9098 layer_factory.hpp:77] Creating layer relu3
I1017 12:38:23.153756  9098 net.cpp:100] Creating Layer relu3
I1017 12:38:23.153761  9098 net.cpp:434] relu3 <- drop3
I1017 12:38:23.153765  9098 net.cpp:408] relu3 -> relu3
I1017 12:38:23.153885  9098 net.cpp:150] Setting up relu3
I1017 12:38:23.153892  9098 net.cpp:157] Top shape: 64 260 3 3 (149760)
I1017 12:38:23.153895  9098 net.cpp:165] Memory required for data: 99013376
I1017 12:38:23.153898  9098 layer_factory.hpp:77] Creating layer conv6
I1017 12:38:23.153908  9098 net.cpp:100] Creating Layer conv6
I1017 12:38:23.153911  9098 net.cpp:434] conv6 <- relu3
I1017 12:38:23.153915  9098 net.cpp:408] conv6 -> conv6
I1017 12:38:23.155051  9098 net.cpp:150] Setting up conv6
I1017 12:38:23.155062  9098 net.cpp:157] Top shape: 64 260 3 3 (149760)
I1017 12:38:23.155066  9098 net.cpp:165] Memory required for data: 99612416
I1017 12:38:23.155071  9098 layer_factory.hpp:77] Creating layer conv7
I1017 12:38:23.155081  9098 net.cpp:100] Creating Layer conv7
I1017 12:38:23.155083  9098 net.cpp:434] conv7 <- conv6
I1017 12:38:23.155088  9098 net.cpp:408] conv7 -> conv7
I1017 12:38:23.157042  9098 net.cpp:150] Setting up conv7
I1017 12:38:23.157054  9098 net.cpp:157] Top shape: 64 280 2 2 (71680)
I1017 12:38:23.157058  9098 net.cpp:165] Memory required for data: 99899136
I1017 12:38:23.157064  9098 layer_factory.hpp:77] Creating layer pool4
I1017 12:38:23.157073  9098 net.cpp:100] Creating Layer pool4
I1017 12:38:23.157076  9098 net.cpp:434] pool4 <- conv7
I1017 12:38:23.157083  9098 net.cpp:408] pool4 -> pool4
I1017 12:38:23.157112  9098 net.cpp:150] Setting up pool4
I1017 12:38:23.157119  9098 net.cpp:157] Top shape: 64 280 1 1 (17920)
I1017 12:38:23.157120  9098 net.cpp:165] Memory required for data: 99970816
I1017 12:38:23.157124  9098 layer_factory.hpp:77] Creating layer drop4
I1017 12:38:23.157130  9098 net.cpp:100] Creating Layer drop4
I1017 12:38:23.157135  9098 net.cpp:434] drop4 <- pool4
I1017 12:38:23.157138  9098 net.cpp:408] drop4 -> drop4
I1017 12:38:23.157166  9098 net.cpp:150] Setting up drop4
I1017 12:38:23.157171  9098 net.cpp:157] Top shape: 64 280 1 1 (17920)
I1017 12:38:23.157173  9098 net.cpp:165] Memory required for data: 100042496
I1017 12:38:23.157176  9098 layer_factory.hpp:77] Creating layer relu4
I1017 12:38:23.157181  9098 net.cpp:100] Creating Layer relu4
I1017 12:38:23.157184  9098 net.cpp:434] relu4 <- drop4
I1017 12:38:23.157189  9098 net.cpp:408] relu4 -> relu4
I1017 12:38:23.157390  9098 net.cpp:150] Setting up relu4
I1017 12:38:23.157398  9098 net.cpp:157] Top shape: 64 280 1 1 (17920)
I1017 12:38:23.157402  9098 net.cpp:165] Memory required for data: 100114176
I1017 12:38:23.157404  9098 layer_factory.hpp:77] Creating layer conv8
I1017 12:38:23.157413  9098 net.cpp:100] Creating Layer conv8
I1017 12:38:23.157424  9098 net.cpp:434] conv8 <- relu4
I1017 12:38:23.157430  9098 net.cpp:408] conv8 -> conv8
I1017 12:38:23.158287  9098 net.cpp:150] Setting up conv8
I1017 12:38:23.158296  9098 net.cpp:157] Top shape: 64 280 1 1 (17920)
I1017 12:38:23.158299  9098 net.cpp:165] Memory required for data: 100185856
I1017 12:38:23.158305  9098 layer_factory.hpp:77] Creating layer pool5
I1017 12:38:23.158313  9098 net.cpp:100] Creating Layer pool5
I1017 12:38:23.158316  9098 net.cpp:434] pool5 <- conv8
I1017 12:38:23.158320  9098 net.cpp:408] pool5 -> pool5
I1017 12:38:23.158350  9098 net.cpp:150] Setting up pool5
I1017 12:38:23.158355  9098 net.cpp:157] Top shape: 64 280 1 1 (17920)
I1017 12:38:23.158359  9098 net.cpp:165] Memory required for data: 100257536
I1017 12:38:23.158360  9098 layer_factory.hpp:77] Creating layer drop5
I1017 12:38:23.158367  9098 net.cpp:100] Creating Layer drop5
I1017 12:38:23.158371  9098 net.cpp:434] drop5 <- pool5
I1017 12:38:23.158375  9098 net.cpp:408] drop5 -> drop5
I1017 12:38:23.158401  9098 net.cpp:150] Setting up drop5
I1017 12:38:23.158406  9098 net.cpp:157] Top shape: 64 280 1 1 (17920)
I1017 12:38:23.158409  9098 net.cpp:165] Memory required for data: 100329216
I1017 12:38:23.158411  9098 layer_factory.hpp:77] Creating layer relu5
I1017 12:38:23.158416  9098 net.cpp:100] Creating Layer relu5
I1017 12:38:23.158421  9098 net.cpp:434] relu5 <- drop5
I1017 12:38:23.158426  9098 net.cpp:408] relu5 -> relu5
I1017 12:38:23.158709  9098 net.cpp:150] Setting up relu5
I1017 12:38:23.158716  9098 net.cpp:157] Top shape: 64 280 1 1 (17920)
I1017 12:38:23.158720  9098 net.cpp:165] Memory required for data: 100400896
I1017 12:38:23.158723  9098 layer_factory.hpp:77] Creating layer conv10
I1017 12:38:23.158731  9098 net.cpp:100] Creating Layer conv10
I1017 12:38:23.158735  9098 net.cpp:434] conv10 <- relu5
I1017 12:38:23.158740  9098 net.cpp:408] conv10 -> conv10
I1017 12:38:23.159760  9098 net.cpp:150] Setting up conv10
I1017 12:38:23.159772  9098 net.cpp:157] Top shape: 64 300 1 1 (19200)
I1017 12:38:23.159775  9098 net.cpp:165] Memory required for data: 100477696
I1017 12:38:23.159787  9098 layer_factory.hpp:77] Creating layer pool6
I1017 12:38:23.159795  9098 net.cpp:100] Creating Layer pool6
I1017 12:38:23.159798  9098 net.cpp:434] pool6 <- conv10
I1017 12:38:23.159803  9098 net.cpp:408] pool6 -> pool6
I1017 12:38:23.159837  9098 net.cpp:150] Setting up pool6
I1017 12:38:23.159842  9098 net.cpp:157] Top shape: 64 300 1 1 (19200)
I1017 12:38:23.159845  9098 net.cpp:165] Memory required for data: 100554496
I1017 12:38:23.159848  9098 layer_factory.hpp:77] Creating layer drop6
I1017 12:38:23.159867  9098 net.cpp:100] Creating Layer drop6
I1017 12:38:23.159870  9098 net.cpp:434] drop6 <- pool6
I1017 12:38:23.159876  9098 net.cpp:408] drop6 -> drop6
I1017 12:38:23.159914  9098 net.cpp:150] Setting up drop6
I1017 12:38:23.159920  9098 net.cpp:157] Top shape: 64 300 1 1 (19200)
I1017 12:38:23.159924  9098 net.cpp:165] Memory required for data: 100631296
I1017 12:38:23.159927  9098 layer_factory.hpp:77] Creating layer relu6
I1017 12:38:23.159932  9098 net.cpp:100] Creating Layer relu6
I1017 12:38:23.159936  9098 net.cpp:434] relu6 <- drop6
I1017 12:38:23.159941  9098 net.cpp:408] relu6 -> relu6
I1017 12:38:23.160065  9098 net.cpp:150] Setting up relu6
I1017 12:38:23.160071  9098 net.cpp:157] Top shape: 64 300 1 1 (19200)
I1017 12:38:23.160074  9098 net.cpp:165] Memory required for data: 100708096
I1017 12:38:23.160079  9098 layer_factory.hpp:77] Creating layer conv11
I1017 12:38:23.160085  9098 net.cpp:100] Creating Layer conv11
I1017 12:38:23.160089  9098 net.cpp:434] conv11 <- relu6
I1017 12:38:23.160094  9098 net.cpp:408] conv11 -> conv11
I1017 12:38:23.160889  9098 net.cpp:150] Setting up conv11
I1017 12:38:23.160898  9098 net.cpp:157] Top shape: 64 100 1 1 (6400)
I1017 12:38:23.160902  9098 net.cpp:165] Memory required for data: 100733696
I1017 12:38:23.160907  9098 layer_factory.hpp:77] Creating layer pool7
I1017 12:38:23.160914  9098 net.cpp:100] Creating Layer pool7
I1017 12:38:23.160926  9098 net.cpp:434] pool7 <- conv11
I1017 12:38:23.160931  9098 net.cpp:408] pool7 -> pool7
I1017 12:38:23.160964  9098 net.cpp:150] Setting up pool7
I1017 12:38:23.160970  9098 net.cpp:157] Top shape: 64 100 1 1 (6400)
I1017 12:38:23.160974  9098 net.cpp:165] Memory required for data: 100759296
I1017 12:38:23.160977  9098 layer_factory.hpp:77] Creating layer drop7
I1017 12:38:23.160982  9098 net.cpp:100] Creating Layer drop7
I1017 12:38:23.160986  9098 net.cpp:434] drop7 <- pool7
I1017 12:38:23.160992  9098 net.cpp:408] drop7 -> drop7
I1017 12:38:23.161017  9098 net.cpp:150] Setting up drop7
I1017 12:38:23.161021  9098 net.cpp:157] Top shape: 64 100 1 1 (6400)
I1017 12:38:23.161026  9098 net.cpp:165] Memory required for data: 100784896
I1017 12:38:23.161028  9098 layer_factory.hpp:77] Creating layer relu7
I1017 12:38:23.161036  9098 net.cpp:100] Creating Layer relu7
I1017 12:38:23.161039  9098 net.cpp:434] relu7 <- drop7
I1017 12:38:23.161044  9098 net.cpp:408] relu7 -> relu7
I1017 12:38:23.161243  9098 net.cpp:150] Setting up relu7
I1017 12:38:23.161252  9098 net.cpp:157] Top shape: 64 100 1 1 (6400)
I1017 12:38:23.161254  9098 net.cpp:165] Memory required for data: 100810496
I1017 12:38:23.161257  9098 layer_factory.hpp:77] Creating layer pool
I1017 12:38:23.161264  9098 net.cpp:100] Creating Layer pool
I1017 12:38:23.161268  9098 net.cpp:434] pool <- relu7
I1017 12:38:23.161273  9098 net.cpp:408] pool -> pool
I1017 12:38:23.161402  9098 net.cpp:150] Setting up pool
I1017 12:38:23.161409  9098 net.cpp:157] Top shape: 64 100 1 1 (6400)
I1017 12:38:23.161412  9098 net.cpp:165] Memory required for data: 100836096
I1017 12:38:23.161415  9098 layer_factory.hpp:77] Creating layer flatten
I1017 12:38:23.161420  9098 net.cpp:100] Creating Layer flatten
I1017 12:38:23.161423  9098 net.cpp:434] flatten <- pool
I1017 12:38:23.161428  9098 net.cpp:408] flatten -> flatten
I1017 12:38:23.161448  9098 net.cpp:150] Setting up flatten
I1017 12:38:23.161453  9098 net.cpp:157] Top shape: 64 100 (6400)
I1017 12:38:23.161455  9098 net.cpp:165] Memory required for data: 100861696
I1017 12:38:23.161458  9098 layer_factory.hpp:77] Creating layer score
I1017 12:38:23.161465  9098 net.cpp:100] Creating Layer score
I1017 12:38:23.161469  9098 net.cpp:434] score <- flatten
I1017 12:38:23.161473  9098 net.cpp:408] score -> score
I1017 12:38:23.161573  9098 net.cpp:150] Setting up score
I1017 12:38:23.161578  9098 net.cpp:157] Top shape: 64 10 (640)
I1017 12:38:23.161581  9098 net.cpp:165] Memory required for data: 100864256
I1017 12:38:23.161587  9098 layer_factory.hpp:77] Creating layer score_score_0_split
I1017 12:38:23.161593  9098 net.cpp:100] Creating Layer score_score_0_split
I1017 12:38:23.161597  9098 net.cpp:434] score_score_0_split <- score
I1017 12:38:23.161602  9098 net.cpp:408] score_score_0_split -> score_score_0_split_0
I1017 12:38:23.161608  9098 net.cpp:408] score_score_0_split -> score_score_0_split_1
I1017 12:38:23.161636  9098 net.cpp:150] Setting up score_score_0_split
I1017 12:38:23.161640  9098 net.cpp:157] Top shape: 64 10 (640)
I1017 12:38:23.161644  9098 net.cpp:157] Top shape: 64 10 (640)
I1017 12:38:23.161648  9098 net.cpp:165] Memory required for data: 100869376
I1017 12:38:23.161649  9098 layer_factory.hpp:77] Creating layer accuracy
I1017 12:38:23.161656  9098 net.cpp:100] Creating Layer accuracy
I1017 12:38:23.161660  9098 net.cpp:434] accuracy <- score_score_0_split_0
I1017 12:38:23.161664  9098 net.cpp:434] accuracy <- label_data_1_split_0
I1017 12:38:23.161669  9098 net.cpp:408] accuracy -> accuracy
…
I1017 12:38:23.162139  9098 net.cpp:270] This network produces output loss
I1017 12:38:23.162158  9098 net.cpp:283] Network initialization done.
I1017 12:38:23.162338  9098 solver.cpp:181] Creating test net (#0) specified by test_net file: /home/adam/Honours/Honours-Project/cifar-10_pooling/max/leakyrelu/poolcnn_leakyrelu_test.prototxt
I1017 12:38:23.162462  9098 net.cpp:58] Initializing net from parameters: 
state {
  phase: TEST
}
layer {
  name: "data"
  type: "Data"
  top: "data"
  top: "label"
  data_param {
    source: "../../../../data/cifar-10/cifar10_test_lmdb"
    batch_size: 100
    backend: LMDB
  }
}
layer {
  name: "conv1"
  type: "Convolution"
  bottom: "data"
  top: "conv1"
  convolution_param {
    num_output: 192
    kernel_size: 5
    weight_filler {
      type: "xavier"
    }
  }
}
layer {
  name: "pool1"
  type: "Pooling"
  bottom: "conv1"
  top: "pool1"
  pooling_param {
    pool: MAX
    kernel_size: 2
    stride: 2
  }
}
layer {
  name: "drop1"
  type: "Dropout"
  bottom: "pool1"
  top: "drop1"
  dropout_param {
    dropout_ratio: 0
  }
}
layer {
  name: "relu1"
  type: "ReLU"
  bottom: "drop1"
  top: "relu1"
  relu_param {
    negative_slope: 0.01
  }
}
layer {
  name: "conv2"
  type: "Convolution"
  bottom: "relu1"
  top: "conv2"
  convolution_param {
    num_output: 192
    kernel_size: 1
    weight_filler {
      type: "xavier"
    }
  }
}
layer {
  name: "conv3"
  type: "Convolution"
  bottom: "conv2"
  top: "conv3"
  convolution_param {
    num_output: 240
    kernel_size: 3
    weight_filler {
      type: "xavier"
    }
  }
}
layer {
  name: "pool2"
  type: "Pooling"
  bottom: "conv3"
  top: "pool2"
  pooling_param {
    pool: MAX
    kernel_size: 2
    stride: 2
  }
}
layer {
  name: "drop2"
  type: "Dropout"
  bottom: "pool2"
  top: "drop2"
  dropout_param {
    dropout_ratio: 0.1
  }
}
layer {
  name: "relu2"
  type: "ReLU"
  bottom: "drop2"
  top: "relu2"
  relu_param {
    negative_slope: 0.01
  }
}
layer {
  name: "conv4"
  type: "Convolution"
  bottom: "relu2"
  top: "conv4"
  convolution_param {
    num_output: 240
    kernel_size: 1
    weight_filler {
      type: "xavier"
    }
  }
}
layer {
  name: "conv5"
  type: "Convolution"
  bottom: "conv4"
  top: "conv5"
  convolution_param {
    num_output: 260
    kernel_size: 2
    weight_filler {
      type: "xavier"
    }
  }
}
layer {
  name: "pool3"
  type: "Pooling"
  bottom: "conv5"
  top: "pool3"
  pooling_param {
    pool: MAX
    kernel_size: 2
    stride: 2
  }
}
layer {
  name: "drop3"
  type: "Dropout"
  bottom: "pool3"
  top: "drop3"
  dropout_param {
    dropout_ratio: 0.2
  }
}
layer {
  name: "relu3"
  type: "ReLU"
  bottom: "drop3"
  top: "relu3"
  relu_param {
    negative_slope: 0.01
  }
}
layer {
  name: "conv6"
  type: "Convolution"
  bottom: "relu3"
  top: "conv6"
  convolution_param {
    num_output: 260
    kernel_size: 1
    weight_filler {
      type: "xavier"
    }
  }
}
layer {
  name: "conv7"
  type: "Convolution"
  bottom: "conv6"
  top: "conv7"
  convolution_param {
    num_output: 280
    kernel_size: 2
    weight_filler {
      type: "xavier"
    }
  }
}
layer {
  name: "pool4"
  type: "Pooling"
  bottom: "conv7"
  top: "pool4"
  pooling_param {
    pool: MAX
    kernel_size: 2
    stride: 2
  }
}
layer {
  name: "drop4"
  type: "Dropout"
  bottom: "pool4"
  top: "drop4"
  dropout_param {
    dropout_ratio: 0.3
  }
}
layer {
  name: "relu4"
  type: "ReLU"
  bottom: "drop4"
  top: "relu4"
  relu_param {
    negative_slope: 0.01
  }
}
layer {
  name: "conv8"
  type: "Convolution"
  bottom: "relu4"
  top: "conv8"
  convolution_param {
    num_output: 280
    kernel_size: 1
    weight_filler {
      type: "xavier"
    }
  }
}
layer {
  name: "pool5"
  type: "Pooling"
  bottom: "conv8"
  top: "pool5"
  pooling_param {
    pool: MAX
    kernel_size: 2
    stride: 2
  }
}
layer {
  name: "drop5"
  type: "Dropout"
  bottom: "pool5"
  top: "drop5"
  dropout_param {
    dropout_ratio: 0.4
  }
}
layer {
  name: "relu5"
  type: "ReLU"
  bottom: "drop5"
  top: "relu5"
  relu_param {
    negative_slope: 0.01
  }
}
layer {
  name: "conv10"
  type: "Convolution"
  bottom: "relu5"
  top: "conv10"
  convolution_param {
    num_output: 300
    kernel_size: 1
    weight_filler {
      type: "xavier"
    }
  }
}
layer {
  name: "pool6"
  type: "Pooling"
  bottom: "conv10"
  top: "pool6"
  pooling_param {
    pool: MAX
    kernel_size: 2
    stride: 2
  }
}
layer {
  name: "drop6"
  type: "Dropout"
  bottom: "pool6"
  top: "drop6"
  dropout_param {
    dropout_ratio: 0.5
  }
}
layer {
  name: "relu6"
  type: "ReLU"
  bottom: "drop6"
  top: "relu6"
  relu_param {
    negative_slope: 0.01
  }
}
layer {
  name: "conv11"
  type: "Convolution"
  bottom: "relu6"
  top: "conv11"
  convolution_param {
    num_output: 100
    kernel_size: 1
    weight_filler {
      type: "xavier"
    }
  }
}
layer {
  name: "pool7"
  type: "Pooling"
  bottom: "conv11"
  top: "pool7"
  pooling_param {
    pool: MAX
    kernel_size: 2
    stride: 2
  }
}
layer {
  name: "drop7"
  type: "Dropout"
  bottom: "pool7"
  top: "drop7"
  dropout_param {
    dropout_ratio: 0
  }
}
layer {
  name: "relu7"
  type: "ReLU"
  bottom: "drop7"
  top: "relu7"
  relu_param {
    negative_slope: 0.01
  }
}
layer {
  name: "pool"
  type: "Pooling"
  bottom: "relu7"
  top: "pool"
  pooling_param {
    pool: AVE
    global_pooling: true
  }
}
layer {
  name: "flatten"
  type: "Flatten"
  bottom: "pool"
  top: "flatten"
}
layer {
  name: "score"
  type: "InnerProduct"
  bottom: "flatten"
  top: "score"
  inner_product_param {
    num_output: 10
    weight_filler {
      type: "gaussian"
    }
  }
}
layer {
  name: "accuracy"
  type: "Accuracy"
  bottom: "score"
  bottom: "label"
  top: "accuracy"
}
layer {
  name: "loss"
  type: "SoftmaxWithLoss"
  bottom: "score"
  bottom: "label"
  top: "loss"
}
I1017 12:38:23.162565  9098 layer_factory.hpp:77] Creating layer data
I1017 12:38:23.162655  9098 net.cpp:100] Creating Layer data
I1017 12:38:23.162663  9098 net.cpp:408] data -> data
I1017 12:38:23.162670  9098 net.cpp:408] data -> label
I1017 12:38:23.163244  9105 db_lmdb.cpp:35] Opened lmdb ../../../../data/cifar-10/cifar10_test_lmdb
I1017 12:38:23.163322  9098 data_layer.cpp:41] output data size: 100,3,32,32
I1017 12:38:23.165073  9098 net.cpp:150] Setting up data
I1017 12:38:23.165093  9098 net.cpp:157] Top shape: 100 3 32 32 (307200)
I1017 12:38:23.165098  9098 net.cpp:157] Top shape: 100 (100)
I1017 12:38:23.165101  9098 net.cpp:165] Memory required for data: 1229200
I1017 12:38:23.165107  9098 layer_factory.hpp:77] Creating layer label_data_1_split
I1017 12:38:23.165117  9098 net.cpp:100] Creating Layer label_data_1_split
I1017 12:38:23.165122  9098 net.cpp:434] label_data_1_split <- label
I1017 12:38:23.165129  9098 net.cpp:408] label_data_1_split -> label_data_1_split_0
I1017 12:38:23.165139  9098 net.cpp:408] label_data_1_split -> label_data_1_split_1
I1017 12:38:23.165184  9098 net.cpp:150] Setting up label_data_1_split
I1017 12:38:23.165190  9098 net.cpp:157] Top shape: 100 (100)
I1017 12:38:23.165194  9098 net.cpp:157] Top shape: 100 (100)
I1017 12:38:23.165195  9098 net.cpp:165] Memory required for data: 1230000
I1017 12:38:23.165199  9098 layer_factory.hpp:77] Creating layer conv1
I1017 12:38:23.165210  9098 net.cpp:100] Creating Layer conv1
I1017 12:38:23.165213  9098 net.cpp:434] conv1 <- data
I1017 12:38:23.165218  9098 net.cpp:408] conv1 -> conv1
I1017 12:38:23.166059  9098 net.cpp:150] Setting up conv1
I1017 12:38:23.166067  9098 net.cpp:157] Top shape: 100 192 28 28 (15052800)
I1017 12:38:23.166070  9098 net.cpp:165] Memory required for data: 61441200
I1017 12:38:23.166080  9098 layer_factory.hpp:77] Creating layer pool1
I1017 12:38:23.166088  9098 net.cpp:100] Creating Layer pool1
I1017 12:38:23.166092  9098 net.cpp:434] pool1 <- conv1
I1017 12:38:23.166097  9098 net.cpp:408] pool1 -> pool1
I1017 12:38:23.166128  9098 net.cpp:150] Setting up pool1
I1017 12:38:23.166134  9098 net.cpp:157] Top shape: 100 192 14 14 (3763200)
I1017 12:38:23.166138  9098 net.cpp:165] Memory required for data: 76494000
I1017 12:38:23.166142  9098 layer_factory.hpp:77] Creating layer drop1
I1017 12:38:23.166148  9098 net.cpp:100] Creating Layer drop1
I1017 12:38:23.166153  9098 net.cpp:434] drop1 <- pool1
I1017 12:38:23.166160  9098 net.cpp:408] drop1 -> drop1
I1017 12:38:23.166187  9098 net.cpp:150] Setting up drop1
I1017 12:38:23.166193  9098 net.cpp:157] Top shape: 100 192 14 14 (3763200)
I1017 12:38:23.166198  9098 net.cpp:165] Memory required for data: 91546800
I1017 12:38:23.166201  9098 layer_factory.hpp:77] Creating layer relu1
I1017 12:38:23.166208  9098 net.cpp:100] Creating Layer relu1
I1017 12:38:23.166210  9098 net.cpp:434] relu1 <- drop1
I1017 12:38:23.166214  9098 net.cpp:408] relu1 -> relu1
I1017 12:38:23.166429  9098 net.cpp:150] Setting up relu1
I1017 12:38:23.166443  9098 net.cpp:157] Top shape: 100 192 14 14 (3763200)
I1017 12:38:23.166463  9098 net.cpp:165] Memory required for data: 106599600
I1017 12:38:23.166467  9098 layer_factory.hpp:77] Creating layer conv2
I1017 12:38:23.166477  9098 net.cpp:100] Creating Layer conv2
I1017 12:38:23.166481  9098 net.cpp:434] conv2 <- relu1
I1017 12:38:23.166488  9098 net.cpp:408] conv2 -> conv2
I1017 12:38:23.167453  9098 net.cpp:150] Setting up conv2
I1017 12:38:23.167461  9098 net.cpp:157] Top shape: 100 192 14 14 (3763200)
I1017 12:38:23.167464  9098 net.cpp:165] Memory required for data: 121652400
I1017 12:38:23.167474  9098 layer_factory.hpp:77] Creating layer conv3
I1017 12:38:23.167482  9098 net.cpp:100] Creating Layer conv3
I1017 12:38:23.167485  9098 net.cpp:434] conv3 <- conv2
I1017 12:38:23.167492  9098 net.cpp:408] conv3 -> conv3
I1017 12:38:23.170053  9098 net.cpp:150] Setting up conv3
I1017 12:38:23.170065  9098 net.cpp:157] Top shape: 100 240 12 12 (3456000)
I1017 12:38:23.170068  9098 net.cpp:165] Memory required for data: 135476400
I1017 12:38:23.170078  9098 layer_factory.hpp:77] Creating layer pool2
I1017 12:38:23.170090  9098 net.cpp:100] Creating Layer pool2
I1017 12:38:23.170094  9098 net.cpp:434] pool2 <- conv3
I1017 12:38:23.170099  9098 net.cpp:408] pool2 -> pool2
I1017 12:38:23.170131  9098 net.cpp:150] Setting up pool2
I1017 12:38:23.170137  9098 net.cpp:157] Top shape: 100 240 6 6 (864000)
I1017 12:38:23.170140  9098 net.cpp:165] Memory required for data: 138932400
I1017 12:38:23.170142  9098 layer_factory.hpp:77] Creating layer drop2
I1017 12:38:23.170148  9098 net.cpp:100] Creating Layer drop2
I1017 12:38:23.170152  9098 net.cpp:434] drop2 <- pool2
I1017 12:38:23.170159  9098 net.cpp:408] drop2 -> drop2
I1017 12:38:23.170187  9098 net.cpp:150] Setting up drop2
I1017 12:38:23.170193  9098 net.cpp:157] Top shape: 100 240 6 6 (864000)
I1017 12:38:23.170197  9098 net.cpp:165] Memory required for data: 142388400
I1017 12:38:23.170200  9098 layer_factory.hpp:77] Creating layer relu2
I1017 12:38:23.170205  9098 net.cpp:100] Creating Layer relu2
I1017 12:38:23.170208  9098 net.cpp:434] relu2 <- drop2
I1017 12:38:23.170214  9098 net.cpp:408] relu2 -> relu2
I1017 12:38:23.170338  9098 net.cpp:150] Setting up relu2
I1017 12:38:23.170344  9098 net.cpp:157] Top shape: 100 240 6 6 (864000)
I1017 12:38:23.170347  9098 net.cpp:165] Memory required for data: 145844400
I1017 12:38:23.170351  9098 layer_factory.hpp:77] Creating layer conv4
I1017 12:38:23.170358  9098 net.cpp:100] Creating Layer conv4
I1017 12:38:23.170361  9098 net.cpp:434] conv4 <- relu2
I1017 12:38:23.170367  9098 net.cpp:408] conv4 -> conv4
I1017 12:38:23.171255  9098 net.cpp:150] Setting up conv4
I1017 12:38:23.171265  9098 net.cpp:157] Top shape: 100 240 6 6 (864000)
I1017 12:38:23.171269  9098 net.cpp:165] Memory required for data: 149300400
I1017 12:38:23.171274  9098 layer_factory.hpp:77] Creating layer conv5
I1017 12:38:23.171283  9098 net.cpp:100] Creating Layer conv5
I1017 12:38:23.171288  9098 net.cpp:434] conv5 <- conv4
I1017 12:38:23.171293  9098 net.cpp:408] conv5 -> conv5
I1017 12:38:23.173105  9098 net.cpp:150] Setting up conv5
I1017 12:38:23.173116  9098 net.cpp:157] Top shape: 100 260 5 5 (650000)
I1017 12:38:23.173120  9098 net.cpp:165] Memory required for data: 151900400
I1017 12:38:23.173127  9098 layer_factory.hpp:77] Creating layer pool3
I1017 12:38:23.173135  9098 net.cpp:100] Creating Layer pool3
I1017 12:38:23.173140  9098 net.cpp:434] pool3 <- conv5
I1017 12:38:23.173146  9098 net.cpp:408] pool3 -> pool3
I1017 12:38:23.173177  9098 net.cpp:150] Setting up pool3
I1017 12:38:23.173183  9098 net.cpp:157] Top shape: 100 260 3 3 (234000)
I1017 12:38:23.173187  9098 net.cpp:165] Memory required for data: 152836400
I1017 12:38:23.173189  9098 layer_factory.hpp:77] Creating layer drop3
I1017 12:38:23.173194  9098 net.cpp:100] Creating Layer drop3
I1017 12:38:23.173198  9098 net.cpp:434] drop3 <- pool3
I1017 12:38:23.173204  9098 net.cpp:408] drop3 -> drop3
I1017 12:38:23.173235  9098 net.cpp:150] Setting up drop3
I1017 12:38:23.173250  9098 net.cpp:157] Top shape: 100 260 3 3 (234000)
I1017 12:38:23.173254  9098 net.cpp:165] Memory required for data: 153772400
I1017 12:38:23.173257  9098 layer_factory.hpp:77] Creating layer relu3
I1017 12:38:23.173261  9098 net.cpp:100] Creating Layer relu3
I1017 12:38:23.173265  9098 net.cpp:434] relu3 <- drop3
I1017 12:38:23.173271  9098 net.cpp:408] relu3 -> relu3
I1017 12:38:23.173395  9098 net.cpp:150] Setting up relu3
I1017 12:38:23.173401  9098 net.cpp:157] Top shape: 100 260 3 3 (234000)
I1017 12:38:23.173404  9098 net.cpp:165] Memory required for data: 154708400
I1017 12:38:23.173408  9098 layer_factory.hpp:77] Creating layer conv6
I1017 12:38:23.173418  9098 net.cpp:100] Creating Layer conv6
I1017 12:38:23.173420  9098 net.cpp:434] conv6 <- relu3
I1017 12:38:23.173424  9098 net.cpp:408] conv6 -> conv6
I1017 12:38:23.174703  9098 net.cpp:150] Setting up conv6
I1017 12:38:23.174716  9098 net.cpp:157] Top shape: 100 260 3 3 (234000)
I1017 12:38:23.174720  9098 net.cpp:165] Memory required for data: 155644400
I1017 12:38:23.174724  9098 layer_factory.hpp:77] Creating layer conv7
I1017 12:38:23.174733  9098 net.cpp:100] Creating Layer conv7
I1017 12:38:23.174737  9098 net.cpp:434] conv7 <- conv6
I1017 12:38:23.174743  9098 net.cpp:408] conv7 -> conv7
I1017 12:38:23.176865  9098 net.cpp:150] Setting up conv7
I1017 12:38:23.176884  9098 net.cpp:157] Top shape: 100 280 2 2 (112000)
I1017 12:38:23.176887  9098 net.cpp:165] Memory required for data: 156092400
I1017 12:38:23.176894  9098 layer_factory.hpp:77] Creating layer pool4
I1017 12:38:23.176903  9098 net.cpp:100] Creating Layer pool4
I1017 12:38:23.176908  9098 net.cpp:434] pool4 <- conv7
I1017 12:38:23.176914  9098 net.cpp:408] pool4 -> pool4
I1017 12:38:23.176949  9098 net.cpp:150] Setting up pool4
I1017 12:38:23.176955  9098 net.cpp:157] Top shape: 100 280 1 1 (28000)
I1017 12:38:23.176959  9098 net.cpp:165] Memory required for data: 156204400
I1017 12:38:23.176961  9098 layer_factory.hpp:77] Creating layer drop4
I1017 12:38:23.176967  9098 net.cpp:100] Creating Layer drop4
I1017 12:38:23.176970  9098 net.cpp:434] drop4 <- pool4
I1017 12:38:23.176976  9098 net.cpp:408] drop4 -> drop4
I1017 12:38:23.177006  9098 net.cpp:150] Setting up drop4
I1017 12:38:23.177011  9098 net.cpp:157] Top shape: 100 280 1 1 (28000)
I1017 12:38:23.177013  9098 net.cpp:165] Memory required for data: 156316400
I1017 12:38:23.177016  9098 layer_factory.hpp:77] Creating layer relu4
I1017 12:38:23.177023  9098 net.cpp:100] Creating Layer relu4
I1017 12:38:23.177026  9098 net.cpp:434] relu4 <- drop4
I1017 12:38:23.177031  9098 net.cpp:408] relu4 -> relu4
I1017 12:38:23.177189  9098 net.cpp:150] Setting up relu4
I1017 12:38:23.177197  9098 net.cpp:157] Top shape: 100 280 1 1 (28000)
I1017 12:38:23.177201  9098 net.cpp:165] Memory required for data: 156428400
I1017 12:38:23.177203  9098 layer_factory.hpp:77] Creating layer conv8
I1017 12:38:23.177211  9098 net.cpp:100] Creating Layer conv8
I1017 12:38:23.177215  9098 net.cpp:434] conv8 <- relu4
I1017 12:38:23.177220  9098 net.cpp:408] conv8 -> conv8
I1017 12:38:23.178207  9098 net.cpp:150] Setting up conv8
I1017 12:38:23.178216  9098 net.cpp:157] Top shape: 100 280 1 1 (28000)
I1017 12:38:23.178220  9098 net.cpp:165] Memory required for data: 156540400
I1017 12:38:23.178225  9098 layer_factory.hpp:77] Creating layer pool5
I1017 12:38:23.178233  9098 net.cpp:100] Creating Layer pool5
I1017 12:38:23.178236  9098 net.cpp:434] pool5 <- conv8
I1017 12:38:23.178242  9098 net.cpp:408] pool5 -> pool5
I1017 12:38:23.178273  9098 net.cpp:150] Setting up pool5
I1017 12:38:23.178278  9098 net.cpp:157] Top shape: 100 280 1 1 (28000)
I1017 12:38:23.178282  9098 net.cpp:165] Memory required for data: 156652400
I1017 12:38:23.178285  9098 layer_factory.hpp:77] Creating layer drop5
I1017 12:38:23.178289  9098 net.cpp:100] Creating Layer drop5
I1017 12:38:23.178293  9098 net.cpp:434] drop5 <- pool5
I1017 12:38:23.178298  9098 net.cpp:408] drop5 -> drop5
I1017 12:38:23.178328  9098 net.cpp:150] Setting up drop5
I1017 12:38:23.178333  9098 net.cpp:157] Top shape: 100 280 1 1 (28000)
I1017 12:38:23.178344  9098 net.cpp:165] Memory required for data: 156764400
I1017 12:38:23.178346  9098 layer_factory.hpp:77] Creating layer relu5
I1017 12:38:23.178354  9098 net.cpp:100] Creating Layer relu5
I1017 12:38:23.178357  9098 net.cpp:434] relu5 <- drop5
I1017 12:38:23.178361  9098 net.cpp:408] relu5 -> relu5
I1017 12:38:23.178572  9098 net.cpp:150] Setting up relu5
I1017 12:38:23.178581  9098 net.cpp:157] Top shape: 100 280 1 1 (28000)
I1017 12:38:23.178584  9098 net.cpp:165] Memory required for data: 156876400
I1017 12:38:23.178587  9098 layer_factory.hpp:77] Creating layer conv10
I1017 12:38:23.178593  9098 net.cpp:100] Creating Layer conv10
I1017 12:38:23.178597  9098 net.cpp:434] conv10 <- relu5
I1017 12:38:23.178604  9098 net.cpp:408] conv10 -> conv10
I1017 12:38:23.179594  9098 net.cpp:150] Setting up conv10
I1017 12:38:23.179603  9098 net.cpp:157] Top shape: 100 300 1 1 (30000)
I1017 12:38:23.179606  9098 net.cpp:165] Memory required for data: 156996400
I1017 12:38:23.179617  9098 layer_factory.hpp:77] Creating layer pool6
I1017 12:38:23.179623  9098 net.cpp:100] Creating Layer pool6
I1017 12:38:23.179626  9098 net.cpp:434] pool6 <- conv10
I1017 12:38:23.179632  9098 net.cpp:408] pool6 -> pool6
I1017 12:38:23.179664  9098 net.cpp:150] Setting up pool6
I1017 12:38:23.179669  9098 net.cpp:157] Top shape: 100 300 1 1 (30000)
I1017 12:38:23.179672  9098 net.cpp:165] Memory required for data: 157116400
I1017 12:38:23.179675  9098 layer_factory.hpp:77] Creating layer drop6
I1017 12:38:23.179682  9098 net.cpp:100] Creating Layer drop6
I1017 12:38:23.179687  9098 net.cpp:434] drop6 <- pool6
I1017 12:38:23.179692  9098 net.cpp:408] drop6 -> drop6
I1017 12:38:23.179719  9098 net.cpp:150] Setting up drop6
I1017 12:38:23.179725  9098 net.cpp:157] Top shape: 100 300 1 1 (30000)
I1017 12:38:23.179728  9098 net.cpp:165] Memory required for data: 157236400
I1017 12:38:23.179730  9098 layer_factory.hpp:77] Creating layer relu6
I1017 12:38:23.179736  9098 net.cpp:100] Creating Layer relu6
I1017 12:38:23.179740  9098 net.cpp:434] relu6 <- drop6
I1017 12:38:23.179744  9098 net.cpp:408] relu6 -> relu6
I1017 12:38:23.179867  9098 net.cpp:150] Setting up relu6
I1017 12:38:23.179873  9098 net.cpp:157] Top shape: 100 300 1 1 (30000)
I1017 12:38:23.179877  9098 net.cpp:165] Memory required for data: 157356400
I1017 12:38:23.179880  9098 layer_factory.hpp:77] Creating layer conv11
I1017 12:38:23.179886  9098 net.cpp:100] Creating Layer conv11
I1017 12:38:23.179890  9098 net.cpp:434] conv11 <- relu6
I1017 12:38:23.179895  9098 net.cpp:408] conv11 -> conv11
I1017 12:38:23.180682  9098 net.cpp:150] Setting up conv11
I1017 12:38:23.180691  9098 net.cpp:157] Top shape: 100 100 1 1 (10000)
I1017 12:38:23.180693  9098 net.cpp:165] Memory required for data: 157396400
I1017 12:38:23.180699  9098 layer_factory.hpp:77] Creating layer pool7
I1017 12:38:23.180706  9098 net.cpp:100] Creating Layer pool7
I1017 12:38:23.180709  9098 net.cpp:434] pool7 <- conv11
I1017 12:38:23.180714  9098 net.cpp:408] pool7 -> pool7
I1017 12:38:23.180748  9098 net.cpp:150] Setting up pool7
I1017 12:38:23.180754  9098 net.cpp:157] Top shape: 100 100 1 1 (10000)
I1017 12:38:23.180757  9098 net.cpp:165] Memory required for data: 157436400
I1017 12:38:23.180760  9098 layer_factory.hpp:77] Creating layer drop7
I1017 12:38:23.180765  9098 net.cpp:100] Creating Layer drop7
I1017 12:38:23.180769  9098 net.cpp:434] drop7 <- pool7
I1017 12:38:23.180774  9098 net.cpp:408] drop7 -> drop7
I1017 12:38:23.180801  9098 net.cpp:150] Setting up drop7
I1017 12:38:23.180806  9098 net.cpp:157] Top shape: 100 100 1 1 (10000)
I1017 12:38:23.180809  9098 net.cpp:165] Memory required for data: 157476400
I1017 12:38:23.180812  9098 layer_factory.hpp:77] Creating layer relu7
I1017 12:38:23.180821  9098 net.cpp:100] Creating Layer relu7
I1017 12:38:23.180824  9098 net.cpp:434] relu7 <- drop7
I1017 12:38:23.180829  9098 net.cpp:408] relu7 -> relu7
I1017 12:38:23.180953  9098 net.cpp:150] Setting up relu7
I1017 12:38:23.180959  9098 net.cpp:157] Top shape: 100 100 1 1 (10000)
I1017 12:38:23.180969  9098 net.cpp:165] Memory required for data: 157516400
I1017 12:38:23.180974  9098 layer_factory.hpp:77] Creating layer pool
I1017 12:38:23.180980  9098 net.cpp:100] Creating Layer pool
I1017 12:38:23.180984  9098 net.cpp:434] pool <- relu7
I1017 12:38:23.180987  9098 net.cpp:408] pool -> pool
I1017 12:38:23.181195  9098 net.cpp:150] Setting up pool
I1017 12:38:23.181201  9098 net.cpp:157] Top shape: 100 100 1 1 (10000)
I1017 12:38:23.181205  9098 net.cpp:165] Memory required for data: 157556400
I1017 12:38:23.181207  9098 layer_factory.hpp:77] Creating layer flatten
I1017 12:38:23.181213  9098 net.cpp:100] Creating Layer flatten
I1017 12:38:23.181216  9098 net.cpp:434] flatten <- pool
I1017 12:38:23.181221  9098 net.cpp:408] flatten -> flatten
I1017 12:38:23.181243  9098 net.cpp:150] Setting up flatten
I1017 12:38:23.181248  9098 net.cpp:157] Top shape: 100 100 (10000)
I1017 12:38:23.181251  9098 net.cpp:165] Memory required for data: 157596400
I1017 12:38:23.181253  9098 layer_factory.hpp:77] Creating layer score
I1017 12:38:23.181259  9098 net.cpp:100] Creating Layer score
I1017 12:38:23.181263  9098 net.cpp:434] score <- flatten
I1017 12:38:23.181268  9098 net.cpp:408] score -> score
I1017 12:38:23.181371  9098 net.cpp:150] Setting up score
I1017 12:38:23.181376  9098 net.cpp:157] Top shape: 100 10 (1000)
I1017 12:38:23.181380  9098 net.cpp:165] Memory required for data: 157600400
I1017 12:38:23.181385  9098 layer_factory.hpp:77] Creating layer score_score_0_split
I1017 12:38:23.181391  9098 net.cpp:100] Creating Layer score_score_0_split
I1017 12:38:23.181394  9098 net.cpp:434] score_score_0_split <- score
I1017 12:38:23.181401  9098 net.cpp:408] score_score_0_split -> score_score_0_split_0
I1017 12:38:23.181407  9098 net.cpp:408] score_score_0_split -> score_score_0_split_1
I1017 12:38:23.181437  9098 net.cpp:150] Setting up score_score_0_split
I1017 12:38:23.181440  9098 net.cpp:157] Top shape: 100 10 (1000)
I1017 12:38:23.181444  9098 net.cpp:157] Top shape: 100 10 (1000)
I1017 12:38:23.181447  9098 net.cpp:165] Memory required for data: 157608400
I1017 12:38:23.181449  9098 layer_factory.hpp:77] Creating layer accuracy
I1017 12:38:23.181454  9098 net.cpp:100] Creating Layer accuracy
I1017 12:38:23.181458  9098 net.cpp:434] accuracy <- score_score_0_split_0
I1017 12:38:23.181463  9098 net.cpp:434] accuracy <- label_data_1_split_0
I1017 12:38:23.181468  9098 net.cpp:408] accuracy -> accuracy
…
