…
type: "RMSProp"
I1020 01:54:49.401304  8878 solver.cpp:81] Creating training net from train_net file: /home/adam/Honours/Honours-Project/cifar-10_pooling/max/relu/poolcnn_relu_train.prototxt
I1020 01:54:49.401599  8878 net.cpp:58] Initializing net from parameters: 
state {
  phase: TRAIN
  level: 0
  stage: ""
}
layer {
  name: "data"
  type: "Data"
  top: "data"
  top: "label"
  transform_param {
    mean_file: "mean.binaryproto"
  }
  data_param {
    source: "../../../../data/cifar-10/cifar10_train_lmdb"
    batch_size: 64
    backend: LMDB
  }
}
layer {
  name: "conv1"
  type: "Convolution"
  bottom: "data"
  top: "conv1"
  convolution_param {
    num_output: 192
    kernel_size: 5
    weight_filler {
      type: "xavier"
    }
  }
}
layer {
  name: "relu1"
  type: "ReLU"
  bottom: "conv1"
  top: "relu1"
}
layer {
  name: "drop1"
  type: "Dropout"
  bottom: "relu1"
  top: "drop1"
  dropout_param {
    dropout_ratio: 0
  }
}
layer {
  name: "pool1"
  type: "Pooling"
  bottom: "drop1"
  top: "pool1"
  pooling_param {
    pool: MAX
    kernel_size: 2
    stride: 2
  }
}
layer {
  name: "conv2"
  type: "Convolution"
  bottom: "pool1"
  top: "conv2"
  convolution_param {
    num_output: 192
    kernel_size: 1
    weight_filler {
      type: "xavier"
    }
  }
}
layer {
  name: "relu2"
  type: "ReLU"
  bottom: "conv2"
  top: "relu2"
}
layer {
  name: "conv3"
  type: "Convolution"
  bottom: "relu2"
  top: "conv3"
  convolution_param {
    num_output: 240
    kernel_size: 3
    weight_filler {
      type: "xavier"
    }
  }
}
layer {
  name: "relu3"
  type: "ReLU"
  bottom: "conv3"
  top: "relu3"
}
layer {
  name: "drop2"
  type: "Dropout"
  bottom: "relu3"
  top: "drop2"
  dropout_param {
    dropout_ratio: 0.1
  }
}
layer {
  name: "pool2"
  type: "Pooling"
  bottom: "drop2"
  top: "pool2"
  pooling_param {
    pool: MAX
    kernel_size: 2
    stride: 2
  }
}
layer {
  name: "conv4"
  type: "Convolution"
  bottom: "pool2"
  top: "conv4"
  convolution_param {
    num_output: 240
    kernel_size: 1
    weight_filler {
      type: "xavier"
    }
  }
}
layer {
  name: "relu4"
  type: "ReLU"
  bottom: "conv4"
  top: "relu4"
}
layer {
  name: "conv5"
  type: "Convolution"
  bottom: "relu4"
  top: "conv5"
  convolution_param {
    num_output: 260
    kernel_size: 2
    weight_filler {
      type: "xavier"
    }
  }
}
layer {
  name: "relu5"
  type: "ReLU"
  bottom: "conv5"
  top: "relu5"
}
layer {
  name: "drop3"
  type: "Dropout"
  bottom: "relu5"
  top: "drop3"
  dropout_param {
    dropout_ratio: 0.2
  }
}
layer {
  name: "pool3"
  type: "Pooling"
  bottom: "drop3"
  top: "pool3"
  pooling_param {
    pool: MAX
    kernel_size: 2
    stride: 2
  }
}
layer {
  name: "conv6"
  type: "Convolution"
  bottom: "pool3"
  top: "conv6"
  convolution_param {
    num_output: 260
    kernel_size: 1
    weight_filler {
      type: "xavier"
    }
  }
}
layer {
  name: "relu6"
  type: "ReLU"
  bottom: "conv6"
  top: "relu6"
}
layer {
  name: "conv7"
  type: "Convolution"
  bottom: "relu6"
  top: "conv7"
  convolution_param {
    num_output: 280
    kernel_size: 2
    weight_filler {
      type: "xavier"
    }
  }
}
layer {
  name: "relu7"
  type: "ReLU"
  bottom: "conv7"
  top: "relu7"
}
layer {
  name: "drop4"
  type: "Dropout"
  bottom: "relu7"
  top: "drop4"
  dropout_param {
    dropout_ratio: 0.3
  }
}
layer {
  name: "pool4"
  type: "Pooling"
  bottom: "drop4"
  top: "pool4"
  pooling_param {
    pool: MAX
    kernel_size: 2
    stride: 2
  }
}
layer {
  name: "conv8"
  type: "Convolution"
  bottom: "pool4"
  top: "conv8"
  convolution_param {
    num_output: 280
    kernel_size: 1
    weight_filler {
      type: "xavier"
    }
  }
}
layer {
  name: "relu8"
  type: "ReLU"
  bottom: "conv8"
  top: "relu8"
}
layer {
  name: "drop5"
  type: "Dropout"
  bottom: "relu8"
  top: "drop5"
  dropout_param {
    dropout_ratio: 0.4
  }
}
layer {
  name: "pool5"
  type: "Pooling"
  bottom: "drop5"
  top: "pool5"
  pooling_param {
    pool: MAX
    kernel_size: 2
    stride: 2
  }
}
layer {
  name: "conv10"
  type: "Convolution"
  bottom: "pool5"
  top: "conv10"
  convolution_param {
    num_output: 300
    kernel_size: 1
    weight_filler {
      type: "xavier"
    }
  }
}
layer {
  name: "relu10"
  type: "ReLU"
  bottom: "conv10"
  top: "relu10"
}
layer {
  name: "drop6"
  type: "Dropout"
  bottom: "relu10"
  top: "drop6"
  dropout_param {
    dropout_ratio: 0.5
  }
}
layer {
  name: "pool6"
  type: "Pooling"
  bottom: "drop6"
  top: "pool6"
  pooling_param {
    pool: MAX
    kernel_size: 2
    stride: 2
  }
}
layer {
  name: "conv11"
  type: "Convolution"
  bottom: "pool6"
  top: "conv11"
  convolution_param {
    num_output: 100
    kernel_size: 1
    weight_filler {
      type: "xavier"
    }
  }
}
layer {
  name: "relu11"
  type: "ReLU"
  bottom: "conv11"
  top: "relu11"
}
layer {
  name: "drop7"
  type: "Dropout"
  bottom: "relu11"
  top: "drop7"
  dropout_param {
    dropout_ratio: 0
  }
}
layer {
  name: "pool7"
  type: "Pooling"
  bottom: "drop7"
  top: "pool7"
  pooling_param {
    pool: MAX
    kernel_size: 2
    stride: 2
  }
}
layer {
  name: "score"
  type: "InnerProduct"
  bottom: "pool7"
  top: "score"
  inner_product_param {
    num_output: 10
    weight_filler {
      type: "gaussian"
    }
  }
}
layer {
  name: "accuracy"
  type: "Accuracy"
  bottom: "score"
  bottom: "label"
  top: "accuracy"
}
layer {
  name: "loss"
  type: "SoftmaxWithLoss"
  bottom: "score"
  bottom: "label"
  top: "loss"
}
I1020 01:54:49.401702  8878 layer_factory.hpp:77] Creating layer data
I1020 01:54:49.402088  8878 net.cpp:100] Creating Layer data
I1020 01:54:49.402096  8878 net.cpp:408] data -> data
I1020 01:54:49.402110  8878 net.cpp:408] data -> label
I1020 01:54:49.402124  8878 data_transformer.cpp:25] Loading mean file from: mean.binaryproto
I1020 01:54:49.403625  8883 db_lmdb.cpp:35] Opened lmdb ../../../../data/cifar-10/cifar10_train_lmdb
I1020 01:54:49.408061  8878 data_layer.cpp:41] output data size: 64,3,32,32
I1020 01:54:49.409560  8878 net.cpp:150] Setting up data
I1020 01:54:49.409579  8878 net.cpp:157] Top shape: 64 3 32 32 (196608)
I1020 01:54:49.409581  8878 net.cpp:157] Top shape: 64 (64)
I1020 01:54:49.409584  8878 net.cpp:165] Memory required for data: 786688
I1020 01:54:49.409590  8878 layer_factory.hpp:77] Creating layer label_data_1_split
I1020 01:54:49.409600  8878 net.cpp:100] Creating Layer label_data_1_split
I1020 01:54:49.409605  8878 net.cpp:434] label_data_1_split <- label
I1020 01:54:49.409615  8878 net.cpp:408] label_data_1_split -> label_data_1_split_0
I1020 01:54:49.409623  8878 net.cpp:408] label_data_1_split -> label_data_1_split_1
I1020 01:54:49.409648  8878 net.cpp:150] Setting up label_data_1_split
I1020 01:54:49.409653  8878 net.cpp:157] Top shape: 64 (64)
I1020 01:54:49.409656  8878 net.cpp:157] Top shape: 64 (64)
I1020 01:54:49.409657  8878 net.cpp:165] Memory required for data: 787200
I1020 01:54:49.409659  8878 layer_factory.hpp:77] Creating layer conv1
I1020 01:54:49.409670  8878 net.cpp:100] Creating Layer conv1
I1020 01:54:49.409673  8878 net.cpp:434] conv1 <- data
I1020 01:54:49.409677  8878 net.cpp:408] conv1 -> conv1
I1020 01:54:49.529592  8878 net.cpp:150] Setting up conv1
I1020 01:54:49.529618  8878 net.cpp:157] Top shape: 64 192 28 28 (9633792)
I1020 01:54:49.529621  8878 net.cpp:165] Memory required for data: 39322368
I1020 01:54:49.529639  8878 layer_factory.hpp:77] Creating layer relu1
I1020 01:54:49.529647  8878 net.cpp:100] Creating Layer relu1
I1020 01:54:49.529650  8878 net.cpp:434] relu1 <- conv1
I1020 01:54:49.529654  8878 net.cpp:408] relu1 -> relu1
I1020 01:54:49.529798  8878 net.cpp:150] Setting up relu1
I1020 01:54:49.529804  8878 net.cpp:157] Top shape: 64 192 28 28 (9633792)
I1020 01:54:49.529806  8878 net.cpp:165] Memory required for data: 77857536
I1020 01:54:49.529808  8878 layer_factory.hpp:77] Creating layer drop1
I1020 01:54:49.529814  8878 net.cpp:100] Creating Layer drop1
I1020 01:54:49.529816  8878 net.cpp:434] drop1 <- relu1
I1020 01:54:49.529819  8878 net.cpp:408] drop1 -> drop1
I1020 01:54:49.529841  8878 net.cpp:150] Setting up drop1
I1020 01:54:49.529845  8878 net.cpp:157] Top shape: 64 192 28 28 (9633792)
I1020 01:54:49.529848  8878 net.cpp:165] Memory required for data: 116392704
I1020 01:54:49.529850  8878 layer_factory.hpp:77] Creating layer pool1
I1020 01:54:49.529853  8878 net.cpp:100] Creating Layer pool1
I1020 01:54:49.529856  8878 net.cpp:434] pool1 <- drop1
I1020 01:54:49.529860  8878 net.cpp:408] pool1 -> pool1
I1020 01:54:49.529886  8878 net.cpp:150] Setting up pool1
I1020 01:54:49.529889  8878 net.cpp:157] Top shape: 64 192 14 14 (2408448)
I1020 01:54:49.529891  8878 net.cpp:165] Memory required for data: 126026496
I1020 01:54:49.529893  8878 layer_factory.hpp:77] Creating layer conv2
I1020 01:54:49.529899  8878 net.cpp:100] Creating Layer conv2
I1020 01:54:49.529901  8878 net.cpp:434] conv2 <- pool1
I1020 01:54:49.529903  8878 net.cpp:408] conv2 -> conv2
I1020 01:54:49.530935  8878 net.cpp:150] Setting up conv2
I1020 01:54:49.530942  8878 net.cpp:157] Top shape: 64 192 14 14 (2408448)
I1020 01:54:49.530946  8878 net.cpp:165] Memory required for data: 135660288
I1020 01:54:49.530951  8878 layer_factory.hpp:77] Creating layer relu2
I1020 01:54:49.530956  8878 net.cpp:100] Creating Layer relu2
I1020 01:54:49.530957  8878 net.cpp:434] relu2 <- conv2
I1020 01:54:49.530961  8878 net.cpp:408] relu2 -> relu2
I1020 01:54:49.531076  8878 net.cpp:150] Setting up relu2
I1020 01:54:49.531082  8878 net.cpp:157] Top shape: 64 192 14 14 (2408448)
I1020 01:54:49.531085  8878 net.cpp:165] Memory required for data: 145294080
I1020 01:54:49.531086  8878 layer_factory.hpp:77] Creating layer conv3
I1020 01:54:49.531091  8878 net.cpp:100] Creating Layer conv3
I1020 01:54:49.531093  8878 net.cpp:434] conv3 <- relu2
I1020 01:54:49.531096  8878 net.cpp:408] conv3 -> conv3
I1020 01:54:49.533494  8878 net.cpp:150] Setting up conv3
I1020 01:54:49.533502  8878 net.cpp:157] Top shape: 64 240 12 12 (2211840)
I1020 01:54:49.533505  8878 net.cpp:165] Memory required for data: 154141440
I1020 01:54:49.533510  8878 layer_factory.hpp:77] Creating layer relu3
I1020 01:54:49.533514  8878 net.cpp:100] Creating Layer relu3
I1020 01:54:49.533515  8878 net.cpp:434] relu3 <- conv3
I1020 01:54:49.533519  8878 net.cpp:408] relu3 -> relu3
I1020 01:54:49.533699  8878 net.cpp:150] Setting up relu3
I1020 01:54:49.533705  8878 net.cpp:157] Top shape: 64 240 12 12 (2211840)
I1020 01:54:49.533707  8878 net.cpp:165] Memory required for data: 162988800
I1020 01:54:49.533710  8878 layer_factory.hpp:77] Creating layer drop2
I1020 01:54:49.533712  8878 net.cpp:100] Creating Layer drop2
I1020 01:54:49.533715  8878 net.cpp:434] drop2 <- relu3
I1020 01:54:49.533717  8878 net.cpp:408] drop2 -> drop2
I1020 01:54:49.533740  8878 net.cpp:150] Setting up drop2
I1020 01:54:49.533743  8878 net.cpp:157] Top shape: 64 240 12 12 (2211840)
I1020 01:54:49.533746  8878 net.cpp:165] Memory required for data: 171836160
I1020 01:54:49.533747  8878 layer_factory.hpp:77] Creating layer pool2
I1020 01:54:49.533751  8878 net.cpp:100] Creating Layer pool2
I1020 01:54:49.533753  8878 net.cpp:434] pool2 <- drop2
I1020 01:54:49.533756  8878 net.cpp:408] pool2 -> pool2
I1020 01:54:49.533776  8878 net.cpp:150] Setting up pool2
I1020 01:54:49.533779  8878 net.cpp:157] Top shape: 64 240 6 6 (552960)
I1020 01:54:49.533782  8878 net.cpp:165] Memory required for data: 174048000
I1020 01:54:49.533782  8878 layer_factory.hpp:77] Creating layer conv4
I1020 01:54:49.533787  8878 net.cpp:100] Creating Layer conv4
I1020 01:54:49.533788  8878 net.cpp:434] conv4 <- pool2
I1020 01:54:49.533792  8878 net.cpp:408] conv4 -> conv4
I1020 01:54:49.534591  8878 net.cpp:150] Setting up conv4
I1020 01:54:49.534598  8878 net.cpp:157] Top shape: 64 240 6 6 (552960)
I1020 01:54:49.534601  8878 net.cpp:165] Memory required for data: 176259840
I1020 01:54:49.534605  8878 layer_factory.hpp:77] Creating layer relu4
I1020 01:54:49.534608  8878 net.cpp:100] Creating Layer relu4
I1020 01:54:49.534610  8878 net.cpp:434] relu4 <- conv4
I1020 01:54:49.534613  8878 net.cpp:408] relu4 -> relu4
I1020 01:54:49.534716  8878 net.cpp:150] Setting up relu4
I1020 01:54:49.534723  8878 net.cpp:157] Top shape: 64 240 6 6 (552960)
I1020 01:54:49.534723  8878 net.cpp:165] Memory required for data: 178471680
I1020 01:54:49.534725  8878 layer_factory.hpp:77] Creating layer conv5
I1020 01:54:49.534729  8878 net.cpp:100] Creating Layer conv5
I1020 01:54:49.534731  8878 net.cpp:434] conv5 <- relu4
I1020 01:54:49.534734  8878 net.cpp:408] conv5 -> conv5
I1020 01:54:49.536461  8878 net.cpp:150] Setting up conv5
I1020 01:54:49.536470  8878 net.cpp:157] Top shape: 64 260 5 5 (416000)
I1020 01:54:49.536473  8878 net.cpp:165] Memory required for data: 180135680
I1020 01:54:49.536478  8878 layer_factory.hpp:77] Creating layer relu5
I1020 01:54:49.536481  8878 net.cpp:100] Creating Layer relu5
I1020 01:54:49.536484  8878 net.cpp:434] relu5 <- conv5
I1020 01:54:49.536486  8878 net.cpp:408] relu5 -> relu5
I1020 01:54:49.536590  8878 net.cpp:150] Setting up relu5
I1020 01:54:49.536597  8878 net.cpp:157] Top shape: 64 260 5 5 (416000)
I1020 01:54:49.536598  8878 net.cpp:165] Memory required for data: 181799680
I1020 01:54:49.536600  8878 layer_factory.hpp:77] Creating layer drop3
I1020 01:54:49.536604  8878 net.cpp:100] Creating Layer drop3
I1020 01:54:49.536607  8878 net.cpp:434] drop3 <- relu5
I1020 01:54:49.536609  8878 net.cpp:408] drop3 -> drop3
I1020 01:54:49.536629  8878 net.cpp:150] Setting up drop3
I1020 01:54:49.536633  8878 net.cpp:157] Top shape: 64 260 5 5 (416000)
I1020 01:54:49.536636  8878 net.cpp:165] Memory required for data: 183463680
I1020 01:54:49.536638  8878 layer_factory.hpp:77] Creating layer pool3
I1020 01:54:49.536640  8878 net.cpp:100] Creating Layer pool3
I1020 01:54:49.536643  8878 net.cpp:434] pool3 <- drop3
I1020 01:54:49.536646  8878 net.cpp:408] pool3 -> pool3
I1020 01:54:49.536666  8878 net.cpp:150] Setting up pool3
I1020 01:54:49.536670  8878 net.cpp:157] Top shape: 64 260 3 3 (149760)
I1020 01:54:49.536671  8878 net.cpp:165] Memory required for data: 184062720
I1020 01:54:49.536674  8878 layer_factory.hpp:77] Creating layer conv6
I1020 01:54:49.536677  8878 net.cpp:100] Creating Layer conv6
I1020 01:54:49.536679  8878 net.cpp:434] conv6 <- pool3
I1020 01:54:49.536682  8878 net.cpp:408] conv6 -> conv6
I1020 01:54:49.537778  8878 net.cpp:150] Setting up conv6
I1020 01:54:49.537787  8878 net.cpp:157] Top shape: 64 260 3 3 (149760)
I1020 01:54:49.537789  8878 net.cpp:165] Memory required for data: 184661760
I1020 01:54:49.537792  8878 layer_factory.hpp:77] Creating layer relu6
I1020 01:54:49.537796  8878 net.cpp:100] Creating Layer relu6
I1020 01:54:49.537798  8878 net.cpp:434] relu6 <- conv6
I1020 01:54:49.537801  8878 net.cpp:408] relu6 -> relu6
I1020 01:54:49.537988  8878 net.cpp:150] Setting up relu6
I1020 01:54:49.537997  8878 net.cpp:157] Top shape: 64 260 3 3 (149760)
I1020 01:54:49.537998  8878 net.cpp:165] Memory required for data: 185260800
I1020 01:54:49.537999  8878 layer_factory.hpp:77] Creating layer conv7
I1020 01:54:49.538004  8878 net.cpp:100] Creating Layer conv7
I1020 01:54:49.538007  8878 net.cpp:434] conv7 <- relu6
I1020 01:54:49.538009  8878 net.cpp:408] conv7 -> conv7
I1020 01:54:49.539928  8878 net.cpp:150] Setting up conv7
I1020 01:54:49.539937  8878 net.cpp:157] Top shape: 64 280 2 2 (71680)
I1020 01:54:49.539939  8878 net.cpp:165] Memory required for data: 185547520
I1020 01:54:49.539942  8878 layer_factory.hpp:77] Creating layer relu7
I1020 01:54:49.539945  8878 net.cpp:100] Creating Layer relu7
I1020 01:54:49.539947  8878 net.cpp:434] relu7 <- conv7
I1020 01:54:49.539950  8878 net.cpp:408] relu7 -> relu7
I1020 01:54:49.540076  8878 net.cpp:150] Setting up relu7
I1020 01:54:49.540082  8878 net.cpp:157] Top shape: 64 280 2 2 (71680)
I1020 01:54:49.540083  8878 net.cpp:165] Memory required for data: 185834240
I1020 01:54:49.540086  8878 layer_factory.hpp:77] Creating layer drop4
I1020 01:54:49.540088  8878 net.cpp:100] Creating Layer drop4
I1020 01:54:49.540091  8878 net.cpp:434] drop4 <- relu7
I1020 01:54:49.540093  8878 net.cpp:408] drop4 -> drop4
I1020 01:54:49.540117  8878 net.cpp:150] Setting up drop4
I1020 01:54:49.540122  8878 net.cpp:157] Top shape: 64 280 2 2 (71680)
I1020 01:54:49.540123  8878 net.cpp:165] Memory required for data: 186120960
I1020 01:54:49.540125  8878 layer_factory.hpp:77] Creating layer pool4
I1020 01:54:49.540128  8878 net.cpp:100] Creating Layer pool4
I1020 01:54:49.540130  8878 net.cpp:434] pool4 <- drop4
I1020 01:54:49.540133  8878 net.cpp:408] pool4 -> pool4
I1020 01:54:49.540154  8878 net.cpp:150] Setting up pool4
I1020 01:54:49.540158  8878 net.cpp:157] Top shape: 64 280 1 1 (17920)
I1020 01:54:49.540160  8878 net.cpp:165] Memory required for data: 186192640
I1020 01:54:49.540161  8878 layer_factory.hpp:77] Creating layer conv8
I1020 01:54:49.540166  8878 net.cpp:100] Creating Layer conv8
I1020 01:54:49.540169  8878 net.cpp:434] conv8 <- pool4
I1020 01:54:49.540171  8878 net.cpp:408] conv8 -> conv8
I1020 01:54:49.541169  8878 net.cpp:150] Setting up conv8
I1020 01:54:49.541177  8878 net.cpp:157] Top shape: 64 280 1 1 (17920)
I1020 01:54:49.541180  8878 net.cpp:165] Memory required for data: 186264320
I1020 01:54:49.541183  8878 layer_factory.hpp:77] Creating layer relu8
I1020 01:54:49.541187  8878 net.cpp:100] Creating Layer relu8
I1020 01:54:49.541188  8878 net.cpp:434] relu8 <- conv8
I1020 01:54:49.541191  8878 net.cpp:408] relu8 -> relu8
I1020 01:54:49.541306  8878 net.cpp:150] Setting up relu8
I1020 01:54:49.541311  8878 net.cpp:157] Top shape: 64 280 1 1 (17920)
I1020 01:54:49.541313  8878 net.cpp:165] Memory required for data: 186336000
I1020 01:54:49.541316  8878 layer_factory.hpp:77] Creating layer drop5
I1020 01:54:49.541318  8878 net.cpp:100] Creating Layer drop5
I1020 01:54:49.541319  8878 net.cpp:434] drop5 <- relu8
I1020 01:54:49.541323  8878 net.cpp:408] drop5 -> drop5
I1020 01:54:49.541345  8878 net.cpp:150] Setting up drop5
I1020 01:54:49.541352  8878 net.cpp:157] Top shape: 64 280 1 1 (17920)
I1020 01:54:49.541352  8878 net.cpp:165] Memory required for data: 186407680
I1020 01:54:49.541354  8878 layer_factory.hpp:77] Creating layer pool5
I1020 01:54:49.541357  8878 net.cpp:100] Creating Layer pool5
I1020 01:54:49.541359  8878 net.cpp:434] pool5 <- drop5
I1020 01:54:49.541362  8878 net.cpp:408] pool5 -> pool5
I1020 01:54:49.541383  8878 net.cpp:150] Setting up pool5
I1020 01:54:49.541386  8878 net.cpp:157] Top shape: 64 280 1 1 (17920)
I1020 01:54:49.541388  8878 net.cpp:165] Memory required for data: 186479360
I1020 01:54:49.541389  8878 layer_factory.hpp:77] Creating layer conv10
I1020 01:54:49.541394  8878 net.cpp:100] Creating Layer conv10
I1020 01:54:49.541398  8878 net.cpp:434] conv10 <- pool5
I1020 01:54:49.541400  8878 net.cpp:408] conv10 -> conv10
I1020 01:54:49.542325  8878 net.cpp:150] Setting up conv10
I1020 01:54:49.542333  8878 net.cpp:157] Top shape: 64 300 1 1 (19200)
I1020 01:54:49.542336  8878 net.cpp:165] Memory required for data: 186556160
I1020 01:54:49.542342  8878 layer_factory.hpp:77] Creating layer relu10
I1020 01:54:49.542346  8878 net.cpp:100] Creating Layer relu10
I1020 01:54:49.542348  8878 net.cpp:434] relu10 <- conv10
I1020 01:54:49.542352  8878 net.cpp:408] relu10 -> relu10
I1020 01:54:49.542546  8878 net.cpp:150] Setting up relu10
I1020 01:54:49.542552  8878 net.cpp:157] Top shape: 64 300 1 1 (19200)
I1020 01:54:49.542554  8878 net.cpp:165] Memory required for data: 186632960
I1020 01:54:49.542557  8878 layer_factory.hpp:77] Creating layer drop6
I1020 01:54:49.542559  8878 net.cpp:100] Creating Layer drop6
I1020 01:54:49.542562  8878 net.cpp:434] drop6 <- relu10
I1020 01:54:49.542567  8878 net.cpp:408] drop6 -> drop6
I1020 01:54:49.542593  8878 net.cpp:150] Setting up drop6
I1020 01:54:49.542603  8878 net.cpp:157] Top shape: 64 300 1 1 (19200)
I1020 01:54:49.542605  8878 net.cpp:165] Memory required for data: 186709760
I1020 01:54:49.542606  8878 layer_factory.hpp:77] Creating layer pool6
I1020 01:54:49.542611  8878 net.cpp:100] Creating Layer pool6
I1020 01:54:49.542613  8878 net.cpp:434] pool6 <- drop6
I1020 01:54:49.542615  8878 net.cpp:408] pool6 -> pool6
I1020 01:54:49.542640  8878 net.cpp:150] Setting up pool6
I1020 01:54:49.542645  8878 net.cpp:157] Top shape: 64 300 1 1 (19200)
I1020 01:54:49.542646  8878 net.cpp:165] Memory required for data: 186786560
I1020 01:54:49.542649  8878 layer_factory.hpp:77] Creating layer conv11
I1020 01:54:49.542655  8878 net.cpp:100] Creating Layer conv11
I1020 01:54:49.542659  8878 net.cpp:434] conv11 <- pool6
I1020 01:54:49.542661  8878 net.cpp:408] conv11 -> conv11
I1020 01:54:49.543396  8878 net.cpp:150] Setting up conv11
I1020 01:54:49.543404  8878 net.cpp:157] Top shape: 64 100 1 1 (6400)
I1020 01:54:49.543407  8878 net.cpp:165] Memory required for data: 186812160
I1020 01:54:49.543411  8878 layer_factory.hpp:77] Creating layer relu11
I1020 01:54:49.543416  8878 net.cpp:100] Creating Layer relu11
I1020 01:54:49.543417  8878 net.cpp:434] relu11 <- conv11
I1020 01:54:49.543421  8878 net.cpp:408] relu11 -> relu11
I1020 01:54:49.543536  8878 net.cpp:150] Setting up relu11
I1020 01:54:49.543541  8878 net.cpp:157] Top shape: 64 100 1 1 (6400)
I1020 01:54:49.543545  8878 net.cpp:165] Memory required for data: 186837760
I1020 01:54:49.543547  8878 layer_factory.hpp:77] Creating layer drop7
I1020 01:54:49.543552  8878 net.cpp:100] Creating Layer drop7
I1020 01:54:49.543555  8878 net.cpp:434] drop7 <- relu11
I1020 01:54:49.543557  8878 net.cpp:408] drop7 -> drop7
I1020 01:54:49.543581  8878 net.cpp:150] Setting up drop7
I1020 01:54:49.543586  8878 net.cpp:157] Top shape: 64 100 1 1 (6400)
I1020 01:54:49.543586  8878 net.cpp:165] Memory required for data: 186863360
I1020 01:54:49.543588  8878 layer_factory.hpp:77] Creating layer pool7
I1020 01:54:49.543591  8878 net.cpp:100] Creating Layer pool7
I1020 01:54:49.543593  8878 net.cpp:434] pool7 <- drop7
I1020 01:54:49.543596  8878 net.cpp:408] pool7 -> pool7
I1020 01:54:49.543618  8878 net.cpp:150] Setting up pool7
I1020 01:54:49.543622  8878 net.cpp:157] Top shape: 64 100 1 1 (6400)
I1020 01:54:49.543624  8878 net.cpp:165] Memory required for data: 186888960
I1020 01:54:49.543625  8878 layer_factory.hpp:77] Creating layer score
I1020 01:54:49.543630  8878 net.cpp:100] Creating Layer score
I1020 01:54:49.543633  8878 net.cpp:434] score <- pool7
I1020 01:54:49.543635  8878 net.cpp:408] score -> score
I1020 01:54:49.543731  8878 net.cpp:150] Setting up score
I1020 01:54:49.543736  8878 net.cpp:157] Top shape: 64 10 (640)
I1020 01:54:49.543738  8878 net.cpp:165] Memory required for data: 186891520
I1020 01:54:49.543742  8878 layer_factory.hpp:77] Creating layer score_score_0_split
I1020 01:54:49.543745  8878 net.cpp:100] Creating Layer score_score_0_split
I1020 01:54:49.543747  8878 net.cpp:434] score_score_0_split <- score
I1020 01:54:49.543751  8878 net.cpp:408] score_score_0_split -> score_score_0_split_0
I1020 01:54:49.543754  8878 net.cpp:408] score_score_0_split -> score_score_0_split_1
I1020 01:54:49.543777  8878 net.cpp:150] Setting up score_score_0_split
I1020 01:54:49.543781  8878 net.cpp:157] Top shape: 64 10 (640)
I1020 01:54:49.543783  8878 net.cpp:157] Top shape: 64 10 (640)
I1020 01:54:49.543786  8878 net.cpp:165] Memory required for data: 186896640
I1020 01:54:49.543787  8878 layer_factory.hpp:77] Creating layer accuracy
I1020 01:54:49.543792  8878 net.cpp:100] Creating Layer accuracy
I1020 01:54:49.543793  8878 net.cpp:434] accuracy <- score_score_0_split_0
I1020 01:54:49.543797  8878 net.cpp:434] accuracy <- label_data_1_split_0
I1020 01:54:49.543798  8878 net.cpp:408] accuracy -> accuracy
…
I1020 01:54:49.544203  8878 net.cpp:283] Network initialization done.
I1020 01:54:49.544389  8878 solver.cpp:181] Creating test net (#0) specified by test_net file: /home/adam/Honours/Honours-Project/cifar-10_pooling/max/relu/poolcnn_relu_test.prototxt
I1020 01:54:49.544507  8878 net.cpp:58] Initializing net from parameters: 
state {
  phase: TEST
}
layer {
  name: "data"
  type: "Data"
  top: "data"
  top: "label"
  transform_param {
    mean_file: "mean.binaryproto"
  }
  data_param {
    source: "../../../../data/cifar-10/cifar10_test_lmdb"
    batch_size: 100
    backend: LMDB
  }
}
layer {
  name: "conv1"
  type: "Convolution"
  bottom: "data"
  top: "conv1"
  convolution_param {
    num_output: 192
    kernel_size: 5
    weight_filler {
      type: "xavier"
    }
  }
}
layer {
  name: "relu1"
  type: "ReLU"
  bottom: "conv1"
  top: "relu1"
}
layer {
  name: "drop1"
  type: "Dropout"
  bottom: "relu1"
  top: "drop1"
  dropout_param {
    dropout_ratio: 0
  }
}
layer {
  name: "pool1"
  type: "Pooling"
  bottom: "drop1"
  top: "pool1"
  pooling_param {
    pool: MAX
    kernel_size: 2
    stride: 2
  }
}
layer {
  name: "conv2"
  type: "Convolution"
  bottom: "pool1"
  top: "conv2"
  convolution_param {
    num_output: 192
    kernel_size: 1
    weight_filler {
      type: "xavier"
    }
  }
}
layer {
  name: "relu2"
  type: "ReLU"
  bottom: "conv2"
  top: "relu2"
}
layer {
  name: "conv3"
  type: "Convolution"
  bottom: "relu2"
  top: "conv3"
  convolution_param {
    num_output: 240
    kernel_size: 3
    weight_filler {
      type: "xavier"
    }
  }
}
layer {
  name: "relu3"
  type: "ReLU"
  bottom: "conv3"
  top: "relu3"
}
layer {
  name: "drop2"
  type: "Dropout"
  bottom: "relu3"
  top: "drop2"
  dropout_param {
    dropout_ratio: 0.1
  }
}
layer {
  name: "pool2"
  type: "Pooling"
  bottom: "drop2"
  top: "pool2"
  pooling_param {
    pool: MAX
    kernel_size: 2
    stride: 2
  }
}
layer {
  name: "conv4"
  type: "Convolution"
  bottom: "pool2"
  top: "conv4"
  convolution_param {
    num_output: 240
    kernel_size: 1
    weight_filler {
      type: "xavier"
    }
  }
}
layer {
  name: "relu4"
  type: "ReLU"
  bottom: "conv4"
  top: "relu4"
}
layer {
  name: "conv5"
  type: "Convolution"
  bottom: "relu4"
  top: "conv5"
  convolution_param {
    num_output: 260
    kernel_size: 2
    weight_filler {
      type: "xavier"
    }
  }
}
layer {
  name: "relu5"
  type: "ReLU"
  bottom: "conv5"
  top: "relu5"
}
layer {
  name: "drop3"
  type: "Dropout"
  bottom: "relu5"
  top: "drop3"
  dropout_param {
    dropout_ratio: 0.2
  }
}
layer {
  name: "pool3"
  type: "Pooling"
  bottom: "drop3"
  top: "pool3"
  pooling_param {
    pool: MAX
    kernel_size: 2
    stride: 2
  }
}
layer {
  name: "conv6"
  type: "Convolution"
  bottom: "pool3"
  top: "conv6"
  convolution_param {
    num_output: 260
    kernel_size: 1
    weight_filler {
      type: "xavier"
    }
  }
}
layer {
  name: "relu6"
  type: "ReLU"
  bottom: "conv6"
  top: "relu6"
}
layer {
  name: "conv7"
  type: "Convolution"
  bottom: "relu6"
  top: "conv7"
  convolution_param {
    num_output: 280
    kernel_size: 2
    weight_filler {
      type: "xavier"
    }
  }
}
layer {
  name: "relu7"
  type: "ReLU"
  bottom: "conv7"
  top: "relu7"
}
layer {
  name: "drop4"
  type: "Dropout"
  bottom: "relu7"
  top: "drop4"
  dropout_param {
    dropout_ratio: 0.3
  }
}
layer {
  name: "pool4"
  type: "Pooling"
  bottom: "drop4"
  top: "pool4"
  pooling_param {
    pool: MAX
    kernel_size: 2
    stride: 2
  }
}
layer {
  name: "conv8"
  type: "Convolution"
  bottom: "pool4"
  top: "conv8"
  convolution_param {
    num_output: 280
    kernel_size: 1
    weight_filler {
      type: "xavier"
    }
  }
}
layer {
  name: "relu8"
  type: "ReLU"
  bottom: "conv8"
  top: "relu8"
}
layer {
  name: "drop5"
  type: "Dropout"
  bottom: "relu8"
  top: "drop5"
  dropout_param {
    dropout_ratio: 0.4
  }
}
layer {
  name: "pool5"
  type: "Pooling"
  bottom: "drop5"
  top: "pool5"
  pooling_param {
    pool: MAX
    kernel_size: 2
    stride: 2
  }
}
layer {
  name: "conv10"
  type: "Convolution"
  bottom: "pool5"
  top: "conv10"
  convolution_param {
    num_output: 300
    kernel_size: 1
    weight_filler {
      type: "xavier"
    }
  }
}
layer {
  name: "relu10"
  type: "ReLU"
  bottom: "conv10"
  top: "relu10"
}
layer {
  name: "drop6"
  type: "Dropout"
  bottom: "relu10"
  top: "drop6"
  dropout_param {
    dropout_ratio: 0.5
  }
}
layer {
  name: "pool6"
  type: "Pooling"
  bottom: "drop6"
  top: "pool6"
  pooling_param {
    pool: MAX
    kernel_size: 2
    stride: 2
  }
}
layer {
  name: "conv11"
  type: "Convolution"
  bottom: "pool6"
  top: "conv11"
  convolution_param {
    num_output: 100
    kernel_size: 1
    weight_filler {
      type: "xavier"
    }
  }
}
layer {
  name: "relu11"
  type: "ReLU"
  bottom: "conv11"
  top: "relu11"
}
layer {
  name: "drop7"
  type: "Dropout"
  bottom: "relu11"
  top: "drop7"
  dropout_param {
    dropout_ratio: 0
  }
}
layer {
  name: "pool7"
  type: "Pooling"
  bottom: "drop7"
  top: "pool7"
  pooling_param {
    pool: MAX
    kernel_size: 2
    stride: 2
  }
}
layer {
  name: "score"
  type: "InnerProduct"
  bottom: "pool7"
  top: "score"
  inner_product_param {
    num_output: 10
    weight_filler {
      type: "gaussian"
    }
  }
}
layer {
  name: "accuracy"
  type: "Accuracy"
  bottom: "score"
  bottom: "label"
  top: "accuracy"
}
layer {
  name: "loss"
  type: "SoftmaxWithLoss"
  bottom: "score"
  bottom: "label"
  top: "loss"
}
I1020 01:54:49.544581  8878 layer_factory.hpp:77] Creating layer data
I1020 01:54:49.544661  8878 net.cpp:100] Creating Layer data
I1020 01:54:49.544667  8878 net.cpp:408] data -> data
I1020 01:54:49.544672  8878 net.cpp:408] data -> label
I1020 01:54:49.544678  8878 data_transformer.cpp:25] Loading mean file from: mean.binaryproto
I1020 01:54:49.545254  8885 db_lmdb.cpp:35] Opened lmdb ../../../../data/cifar-10/cifar10_test_lmdb
I1020 01:54:49.545318  8878 data_layer.cpp:41] output data size: 100,3,32,32
I1020 01:54:49.546982  8878 net.cpp:150] Setting up data
I1020 01:54:49.546995  8878 net.cpp:157] Top shape: 100 3 32 32 (307200)
I1020 01:54:49.546998  8878 net.cpp:157] Top shape: 100 (100)
I1020 01:54:49.547000  8878 net.cpp:165] Memory required for data: 1229200
I1020 01:54:49.547004  8878 layer_factory.hpp:77] Creating layer label_data_1_split
I1020 01:54:49.547010  8878 net.cpp:100] Creating Layer label_data_1_split
I1020 01:54:49.547013  8878 net.cpp:434] label_data_1_split <- label
I1020 01:54:49.547019  8878 net.cpp:408] label_data_1_split -> label_data_1_split_0
I1020 01:54:49.547024  8878 net.cpp:408] label_data_1_split -> label_data_1_split_1
I1020 01:54:49.547111  8878 net.cpp:150] Setting up label_data_1_split
I1020 01:54:49.547116  8878 net.cpp:157] Top shape: 100 (100)
I1020 01:54:49.547118  8878 net.cpp:157] Top shape: 100 (100)
I1020 01:54:49.547119  8878 net.cpp:165] Memory required for data: 1230000
I1020 01:54:49.547122  8878 layer_factory.hpp:77] Creating layer conv1
I1020 01:54:49.547128  8878 net.cpp:100] Creating Layer conv1
I1020 01:54:49.547130  8878 net.cpp:434] conv1 <- data
I1020 01:54:49.547134  8878 net.cpp:408] conv1 -> conv1
I1020 01:54:49.548041  8878 net.cpp:150] Setting up conv1
I1020 01:54:49.548049  8878 net.cpp:157] Top shape: 100 192 28 28 (15052800)
I1020 01:54:49.548051  8878 net.cpp:165] Memory required for data: 61441200
I1020 01:54:49.548058  8878 layer_factory.hpp:77] Creating layer relu1
I1020 01:54:49.548061  8878 net.cpp:100] Creating Layer relu1
I1020 01:54:49.548063  8878 net.cpp:434] relu1 <- conv1
I1020 01:54:49.548066  8878 net.cpp:408] relu1 -> relu1
I1020 01:54:49.548188  8878 net.cpp:150] Setting up relu1
I1020 01:54:49.548194  8878 net.cpp:157] Top shape: 100 192 28 28 (15052800)
I1020 01:54:49.548197  8878 net.cpp:165] Memory required for data: 121652400
I1020 01:54:49.548198  8878 layer_factory.hpp:77] Creating layer drop1
I1020 01:54:49.548203  8878 net.cpp:100] Creating Layer drop1
I1020 01:54:49.548205  8878 net.cpp:434] drop1 <- relu1
I1020 01:54:49.548210  8878 net.cpp:408] drop1 -> drop1
I1020 01:54:49.548236  8878 net.cpp:150] Setting up drop1
I1020 01:54:49.548243  8878 net.cpp:157] Top shape: 100 192 28 28 (15052800)
I1020 01:54:49.548244  8878 net.cpp:165] Memory required for data: 181863600
I1020 01:54:49.548246  8878 layer_factory.hpp:77] Creating layer pool1
I1020 01:54:49.548259  8878 net.cpp:100] Creating Layer pool1
I1020 01:54:49.548264  8878 net.cpp:434] pool1 <- drop1
I1020 01:54:49.548265  8878 net.cpp:408] pool1 -> pool1
I1020 01:54:49.548305  8878 net.cpp:150] Setting up pool1
I1020 01:54:49.548310  8878 net.cpp:157] Top shape: 100 192 14 14 (3763200)
I1020 01:54:49.548311  8878 net.cpp:165] Memory required for data: 196916400
I1020 01:54:49.548313  8878 layer_factory.hpp:77] Creating layer conv2
I1020 01:54:49.548317  8878 net.cpp:100] Creating Layer conv2
I1020 01:54:49.548321  8878 net.cpp:434] conv2 <- pool1
I1020 01:54:49.548324  8878 net.cpp:408] conv2 -> conv2
I1020 01:54:49.549296  8878 net.cpp:150] Setting up conv2
I1020 01:54:49.549309  8878 net.cpp:157] Top shape: 100 192 14 14 (3763200)
I1020 01:54:49.549311  8878 net.cpp:165] Memory required for data: 211969200
I1020 01:54:49.549322  8878 layer_factory.hpp:77] Creating layer relu2
I1020 01:54:49.549327  8878 net.cpp:100] Creating Layer relu2
I1020 01:54:49.549329  8878 net.cpp:434] relu2 <- conv2
I1020 01:54:49.549334  8878 net.cpp:408] relu2 -> relu2
I1020 01:54:49.549463  8878 net.cpp:150] Setting up relu2
I1020 01:54:49.549469  8878 net.cpp:157] Top shape: 100 192 14 14 (3763200)
I1020 01:54:49.549471  8878 net.cpp:165] Memory required for data: 227022000
I1020 01:54:49.549474  8878 layer_factory.hpp:77] Creating layer conv3
I1020 01:54:49.549480  8878 net.cpp:100] Creating Layer conv3
I1020 01:54:49.549482  8878 net.cpp:434] conv3 <- relu2
I1020 01:54:49.549485  8878 net.cpp:408] conv3 -> conv3
I1020 01:54:49.551981  8878 net.cpp:150] Setting up conv3
I1020 01:54:49.551990  8878 net.cpp:157] Top shape: 100 240 12 12 (3456000)
I1020 01:54:49.551992  8878 net.cpp:165] Memory required for data: 240846000
I1020 01:54:49.551998  8878 layer_factory.hpp:77] Creating layer relu3
I1020 01:54:49.552002  8878 net.cpp:100] Creating Layer relu3
I1020 01:54:49.552004  8878 net.cpp:434] relu3 <- conv3
I1020 01:54:49.552008  8878 net.cpp:408] relu3 -> relu3
I1020 01:54:49.552207  8878 net.cpp:150] Setting up relu3
I1020 01:54:49.552215  8878 net.cpp:157] Top shape: 100 240 12 12 (3456000)
I1020 01:54:49.552218  8878 net.cpp:165] Memory required for data: 254670000
I1020 01:54:49.552220  8878 layer_factory.hpp:77] Creating layer drop2
I1020 01:54:49.552223  8878 net.cpp:100] Creating Layer drop2
I1020 01:54:49.552224  8878 net.cpp:434] drop2 <- relu3
I1020 01:54:49.552228  8878 net.cpp:408] drop2 -> drop2
I1020 01:54:49.552253  8878 net.cpp:150] Setting up drop2
I1020 01:54:49.552258  8878 net.cpp:157] Top shape: 100 240 12 12 (3456000)
I1020 01:54:49.552261  8878 net.cpp:165] Memory required for data: 268494000
I1020 01:54:49.552263  8878 layer_factory.hpp:77] Creating layer pool2
I1020 01:54:49.552266  8878 net.cpp:100] Creating Layer pool2
I1020 01:54:49.552268  8878 net.cpp:434] pool2 <- drop2
I1020 01:54:49.552270  8878 net.cpp:408] pool2 -> pool2
I1020 01:54:49.552304  8878 net.cpp:150] Setting up pool2
I1020 01:54:49.552309  8878 net.cpp:157] Top shape: 100 240 6 6 (864000)
I1020 01:54:49.552311  8878 net.cpp:165] Memory required for data: 271950000
I1020 01:54:49.552312  8878 layer_factory.hpp:77] Creating layer conv4
I1020 01:54:49.552317  8878 net.cpp:100] Creating Layer conv4
I1020 01:54:49.552320  8878 net.cpp:434] conv4 <- pool2
I1020 01:54:49.552323  8878 net.cpp:408] conv4 -> conv4
I1020 01:54:49.553182  8878 net.cpp:150] Setting up conv4
I1020 01:54:49.553190  8878 net.cpp:157] Top shape: 100 240 6 6 (864000)
I1020 01:54:49.553192  8878 net.cpp:165] Memory required for data: 275406000
I1020 01:54:49.553196  8878 layer_factory.hpp:77] Creating layer relu4
I1020 01:54:49.553200  8878 net.cpp:100] Creating Layer relu4
I1020 01:54:49.553202  8878 net.cpp:434] relu4 <- conv4
I1020 01:54:49.553205  8878 net.cpp:408] relu4 -> relu4
I1020 01:54:49.553324  8878 net.cpp:150] Setting up relu4
I1020 01:54:49.553329  8878 net.cpp:157] Top shape: 100 240 6 6 (864000)
I1020 01:54:49.553333  8878 net.cpp:165] Memory required for data: 278862000
I1020 01:54:49.553333  8878 layer_factory.hpp:77] Creating layer conv5
I1020 01:54:49.553349  8878 net.cpp:100] Creating Layer conv5
I1020 01:54:49.553351  8878 net.cpp:434] conv5 <- relu4
I1020 01:54:49.553355  8878 net.cpp:408] conv5 -> conv5
I1020 01:54:49.555233  8878 net.cpp:150] Setting up conv5
I1020 01:54:49.555241  8878 net.cpp:157] Top shape: 100 260 5 5 (650000)
I1020 01:54:49.555244  8878 net.cpp:165] Memory required for data: 281462000
I1020 01:54:49.555250  8878 layer_factory.hpp:77] Creating layer relu5
I1020 01:54:49.555254  8878 net.cpp:100] Creating Layer relu5
I1020 01:54:49.555258  8878 net.cpp:434] relu5 <- conv5
I1020 01:54:49.555261  8878 net.cpp:408] relu5 -> relu5
I1020 01:54:49.555382  8878 net.cpp:150] Setting up relu5
I1020 01:54:49.555387  8878 net.cpp:157] Top shape: 100 260 5 5 (650000)
I1020 01:54:49.555388  8878 net.cpp:165] Memory required for data: 284062000
I1020 01:54:49.555390  8878 layer_factory.hpp:77] Creating layer drop3
I1020 01:54:49.555397  8878 net.cpp:100] Creating Layer drop3
I1020 01:54:49.555398  8878 net.cpp:434] drop3 <- relu5
I1020 01:54:49.555402  8878 net.cpp:408] drop3 -> drop3
I1020 01:54:49.555428  8878 net.cpp:150] Setting up drop3
I1020 01:54:49.555433  8878 net.cpp:157] Top shape: 100 260 5 5 (650000)
I1020 01:54:49.555433  8878 net.cpp:165] Memory required for data: 286662000
I1020 01:54:49.555435  8878 layer_factory.hpp:77] Creating layer pool3
I1020 01:54:49.555438  8878 net.cpp:100] Creating Layer pool3
I1020 01:54:49.555441  8878 net.cpp:434] pool3 <- drop3
I1020 01:54:49.555444  8878 net.cpp:408] pool3 -> pool3
I1020 01:54:49.555467  8878 net.cpp:150] Setting up pool3
I1020 01:54:49.555471  8878 net.cpp:157] Top shape: 100 260 3 3 (234000)
I1020 01:54:49.555474  8878 net.cpp:165] Memory required for data: 287598000
I1020 01:54:49.555476  8878 layer_factory.hpp:77] Creating layer conv6
I1020 01:54:49.555480  8878 net.cpp:100] Creating Layer conv6
I1020 01:54:49.555482  8878 net.cpp:434] conv6 <- pool3
I1020 01:54:49.555486  8878 net.cpp:408] conv6 -> conv6
I1020 01:54:49.556634  8878 net.cpp:150] Setting up conv6
I1020 01:54:49.556643  8878 net.cpp:157] Top shape: 100 260 3 3 (234000)
I1020 01:54:49.556645  8878 net.cpp:165] Memory required for data: 288534000
I1020 01:54:49.556649  8878 layer_factory.hpp:77] Creating layer relu6
I1020 01:54:49.556653  8878 net.cpp:100] Creating Layer relu6
I1020 01:54:49.556654  8878 net.cpp:434] relu6 <- conv6
I1020 01:54:49.556658  8878 net.cpp:408] relu6 -> relu6
I1020 01:54:49.556857  8878 net.cpp:150] Setting up relu6
I1020 01:54:49.556864  8878 net.cpp:157] Top shape: 100 260 3 3 (234000)
I1020 01:54:49.556866  8878 net.cpp:165] Memory required for data: 289470000
I1020 01:54:49.556869  8878 layer_factory.hpp:77] Creating layer conv7
I1020 01:54:49.556874  8878 net.cpp:100] Creating Layer conv7
I1020 01:54:49.556876  8878 net.cpp:434] conv7 <- relu6
I1020 01:54:49.556880  8878 net.cpp:408] conv7 -> conv7
I1020 01:54:49.558851  8878 net.cpp:150] Setting up conv7
I1020 01:54:49.558859  8878 net.cpp:157] Top shape: 100 280 2 2 (112000)
I1020 01:54:49.558861  8878 net.cpp:165] Memory required for data: 289918000
I1020 01:54:49.558866  8878 layer_factory.hpp:77] Creating layer relu7
I1020 01:54:49.558868  8878 net.cpp:100] Creating Layer relu7
I1020 01:54:49.558871  8878 net.cpp:434] relu7 <- conv7
I1020 01:54:49.558873  8878 net.cpp:408] relu7 -> relu7
I1020 01:54:49.558993  8878 net.cpp:150] Setting up relu7
I1020 01:54:49.558998  8878 net.cpp:157] Top shape: 100 280 2 2 (112000)
I1020 01:54:49.559000  8878 net.cpp:165] Memory required for data: 290366000
I1020 01:54:49.559002  8878 layer_factory.hpp:77] Creating layer drop4
I1020 01:54:49.559006  8878 net.cpp:100] Creating Layer drop4
I1020 01:54:49.559007  8878 net.cpp:434] drop4 <- relu7
I1020 01:54:49.559011  8878 net.cpp:408] drop4 -> drop4
I1020 01:54:49.559037  8878 net.cpp:150] Setting up drop4
I1020 01:54:49.559042  8878 net.cpp:157] Top shape: 100 280 2 2 (112000)
I1020 01:54:49.559044  8878 net.cpp:165] Memory required for data: 290814000
I1020 01:54:49.559046  8878 layer_factory.hpp:77] Creating layer pool4
I1020 01:54:49.559048  8878 net.cpp:100] Creating Layer pool4
I1020 01:54:49.559061  8878 net.cpp:434] pool4 <- drop4
I1020 01:54:49.559063  8878 net.cpp:408] pool4 -> pool4
I1020 01:54:49.559088  8878 net.cpp:150] Setting up pool4
I1020 01:54:49.559092  8878 net.cpp:157] Top shape: 100 280 1 1 (28000)
I1020 01:54:49.559094  8878 net.cpp:165] Memory required for data: 290926000
I1020 01:54:49.559095  8878 layer_factory.hpp:77] Creating layer conv8
I1020 01:54:49.559100  8878 net.cpp:100] Creating Layer conv8
I1020 01:54:49.559103  8878 net.cpp:434] conv8 <- pool4
I1020 01:54:49.559106  8878 net.cpp:408] conv8 -> conv8
I1020 01:54:49.560039  8878 net.cpp:150] Setting up conv8
I1020 01:54:49.560047  8878 net.cpp:157] Top shape: 100 280 1 1 (28000)
I1020 01:54:49.560050  8878 net.cpp:165] Memory required for data: 291038000
I1020 01:54:49.560053  8878 layer_factory.hpp:77] Creating layer relu8
I1020 01:54:49.560057  8878 net.cpp:100] Creating Layer relu8
I1020 01:54:49.560060  8878 net.cpp:434] relu8 <- conv8
I1020 01:54:49.560063  8878 net.cpp:408] relu8 -> relu8
I1020 01:54:49.560184  8878 net.cpp:150] Setting up relu8
I1020 01:54:49.560189  8878 net.cpp:157] Top shape: 100 280 1 1 (28000)
I1020 01:54:49.560192  8878 net.cpp:165] Memory required for data: 291150000
I1020 01:54:49.560194  8878 layer_factory.hpp:77] Creating layer drop5
I1020 01:54:49.560197  8878 net.cpp:100] Creating Layer drop5
I1020 01:54:49.560199  8878 net.cpp:434] drop5 <- relu8
I1020 01:54:49.560204  8878 net.cpp:408] drop5 -> drop5
I1020 01:54:49.560228  8878 net.cpp:150] Setting up drop5
I1020 01:54:49.560233  8878 net.cpp:157] Top shape: 100 280 1 1 (28000)
I1020 01:54:49.560235  8878 net.cpp:165] Memory required for data: 291262000
I1020 01:54:49.560237  8878 layer_factory.hpp:77] Creating layer pool5
I1020 01:54:49.560240  8878 net.cpp:100] Creating Layer pool5
I1020 01:54:49.560241  8878 net.cpp:434] pool5 <- drop5
I1020 01:54:49.560245  8878 net.cpp:408] pool5 -> pool5
I1020 01:54:49.560269  8878 net.cpp:150] Setting up pool5
I1020 01:54:49.560273  8878 net.cpp:157] Top shape: 100 280 1 1 (28000)
I1020 01:54:49.560274  8878 net.cpp:165] Memory required for data: 291374000
I1020 01:54:49.560276  8878 layer_factory.hpp:77] Creating layer conv10
I1020 01:54:49.560281  8878 net.cpp:100] Creating Layer conv10
I1020 01:54:49.560283  8878 net.cpp:434] conv10 <- pool5
I1020 01:54:49.560291  8878 net.cpp:408] conv10 -> conv10
I1020 01:54:49.561249  8878 net.cpp:150] Setting up conv10
I1020 01:54:49.561257  8878 net.cpp:157] Top shape: 100 300 1 1 (30000)
I1020 01:54:49.561259  8878 net.cpp:165] Memory required for data: 291494000
I1020 01:54:49.561266  8878 layer_factory.hpp:77] Creating layer relu10
I1020 01:54:49.561270  8878 net.cpp:100] Creating Layer relu10
I1020 01:54:49.561274  8878 net.cpp:434] relu10 <- conv10
I1020 01:54:49.561276  8878 net.cpp:408] relu10 -> relu10
I1020 01:54:49.561473  8878 net.cpp:150] Setting up relu10
I1020 01:54:49.561480  8878 net.cpp:157] Top shape: 100 300 1 1 (30000)
I1020 01:54:49.561483  8878 net.cpp:165] Memory required for data: 291614000
I1020 01:54:49.561486  8878 layer_factory.hpp:77] Creating layer drop6
I1020 01:54:49.561488  8878 net.cpp:100] Creating Layer drop6
I1020 01:54:49.561491  8878 net.cpp:434] drop6 <- relu10
I1020 01:54:49.561494  8878 net.cpp:408] drop6 -> drop6
I1020 01:54:49.561523  8878 net.cpp:150] Setting up drop6
I1020 01:54:49.561527  8878 net.cpp:157] Top shape: 100 300 1 1 (30000)
I1020 01:54:49.561529  8878 net.cpp:165] Memory required for data: 291734000
I1020 01:54:49.561532  8878 layer_factory.hpp:77] Creating layer pool6
I1020 01:54:49.561535  8878 net.cpp:100] Creating Layer pool6
I1020 01:54:49.561537  8878 net.cpp:434] pool6 <- drop6
I1020 01:54:49.561540  8878 net.cpp:408] pool6 -> pool6
I1020 01:54:49.561564  8878 net.cpp:150] Setting up pool6
I1020 01:54:49.561568  8878 net.cpp:157] Top shape: 100 300 1 1 (30000)
I1020 01:54:49.561570  8878 net.cpp:165] Memory required for data: 291854000
I1020 01:54:49.561571  8878 layer_factory.hpp:77] Creating layer conv11
I1020 01:54:49.561580  8878 net.cpp:100] Creating Layer conv11
I1020 01:54:49.561590  8878 net.cpp:434] conv11 <- pool6
I1020 01:54:49.561594  8878 net.cpp:408] conv11 -> conv11
I1020 01:54:49.562355  8878 net.cpp:150] Setting up conv11
I1020 01:54:49.562362  8878 net.cpp:157] Top shape: 100 100 1 1 (10000)
I1020 01:54:49.562366  8878 net.cpp:165] Memory required for data: 291894000
I1020 01:54:49.562368  8878 layer_factory.hpp:77] Creating layer relu11
I1020 01:54:49.562371  8878 net.cpp:100] Creating Layer relu11
I1020 01:54:49.562374  8878 net.cpp:434] relu11 <- conv11
I1020 01:54:49.562379  8878 net.cpp:408] relu11 -> relu11
I1020 01:54:49.562497  8878 net.cpp:150] Setting up relu11
I1020 01:54:49.562502  8878 net.cpp:157] Top shape: 100 100 1 1 (10000)
I1020 01:54:49.562505  8878 net.cpp:165] Memory required for data: 291934000
I1020 01:54:49.562507  8878 layer_factory.hpp:77] Creating layer drop7
I1020 01:54:49.562510  8878 net.cpp:100] Creating Layer drop7
I1020 01:54:49.562512  8878 net.cpp:434] drop7 <- relu11
I1020 01:54:49.562515  8878 net.cpp:408] drop7 -> drop7
I1020 01:54:49.562541  8878 net.cpp:150] Setting up drop7
I1020 01:54:49.562546  8878 net.cpp:157] Top shape: 100 100 1 1 (10000)
I1020 01:54:49.562546  8878 net.cpp:165] Memory required for data: 291974000
I1020 01:54:49.562548  8878 layer_factory.hpp:77] Creating layer pool7
I1020 01:54:49.562551  8878 net.cpp:100] Creating Layer pool7
I1020 01:54:49.562553  8878 net.cpp:434] pool7 <- drop7
I1020 01:54:49.562556  8878 net.cpp:408] pool7 -> pool7
I1020 01:54:49.562580  8878 net.cpp:150] Setting up pool7
I1020 01:54:49.562584  8878 net.cpp:157] Top shape: 100 100 1 1 (10000)
I1020 01:54:49.562587  8878 net.cpp:165] Memory required for data: 292014000
I1020 01:54:49.562588  8878 layer_factory.hpp:77] Creating layer score
I1020 01:54:49.562592  8878 net.cpp:100] Creating Layer score
I1020 01:54:49.562593  8878 net.cpp:434] score <- pool7
I1020 01:54:49.562597  8878 net.cpp:408] score -> score
I1020 01:54:49.562680  8878 net.cpp:150] Setting up score
I1020 01:54:49.562685  8878 net.cpp:157] Top shape: 100 10 (1000)
I1020 01:54:49.562686  8878 net.cpp:165] Memory required for data: 292018000
I1020 01:54:49.562690  8878 layer_factory.hpp:77] Creating layer score_score_0_split
I1020 01:54:49.562693  8878 net.cpp:100] Creating Layer score_score_0_split
I1020 01:54:49.562695  8878 net.cpp:434] score_score_0_split <- score
I1020 01:54:49.562698  8878 net.cpp:408] score_score_0_split -> score_score_0_split_0
I1020 01:54:49.562701  8878 net.cpp:408] score_score_0_split -> score_score_0_split_1
I1020 01:54:49.562727  8878 net.cpp:150] Setting up score_score_0_split
I1020 01:54:49.562731  8878 net.cpp:157] Top shape: 100 10 (1000)
I1020 01:54:49.562733  8878 net.cpp:157] Top shape: 100 10 (1000)
I1020 01:54:49.562734  8878 net.cpp:165] Memory required for data: 292026000
I1020 01:54:49.562736  8878 layer_factory.hpp:77] Creating layer accuracy
I1020 01:54:49.562741  8878 net.cpp:100] Creating Layer accuracy
I1020 01:54:49.562742  8878 net.cpp:434] accuracy <- score_score_0_split_0
I1020 01:54:49.562744  8878 net.cpp:434] accuracy <- label_data_1_split_0
I1020 01:54:49.562747  8878 net.cpp:408] accuracy -> accuracy
…
