…
  stage: ""
}
type: "SGD"
I1020 02:08:46.496376  8954 solver.cpp:81] Creating training net from train_net file: /home/adam/Honours/Honours-Project/cifar-10_pooling/max/relu/poolcnn_relu_train.prototxt
I1020 02:08:46.496668  8954 net.cpp:58] Initializing net from parameters: 
state {
  phase: TRAIN
  level: 0
  stage: ""
}
layer {
  name: "data"
  type: "Data"
  top: "data"
  top: "label"
  transform_param {
    mean_file: "mean.binaryproto"
  }
  data_param {
    source: "../../../../data/cifar-10/cifar10_train_lmdb"
    batch_size: 64
    backend: LMDB
  }
}
layer {
  name: "conv1"
  type: "Convolution"
  bottom: "data"
  top: "conv1"
  convolution_param {
    num_output: 192
    kernel_size: 5
    weight_filler {
      type: "xavier"
    }
  }
}
layer {
  name: "relu1"
  type: "ReLU"
  bottom: "conv1"
  top: "relu1"
}
layer {
  name: "drop1"
  type: "Dropout"
  bottom: "relu1"
  top: "drop1"
  dropout_param {
    dropout_ratio: 0
  }
}
layer {
  name: "pool1"
  type: "Pooling"
  bottom: "drop1"
  top: "pool1"
  pooling_param {
    pool: MAX
    kernel_size: 2
    stride: 2
  }
}
layer {
  name: "conv2"
  type: "Convolution"
  bottom: "pool1"
  top: "conv2"
  convolution_param {
    num_output: 192
    kernel_size: 1
    weight_filler {
      type: "xavier"
    }
  }
}
layer {
  name: "relu2"
  type: "ReLU"
  bottom: "conv2"
  top: "relu2"
}
layer {
  name: "conv3"
  type: "Convolution"
  bottom: "relu2"
  top: "conv3"
  convolution_param {
    num_output: 240
    kernel_size: 3
    weight_filler {
      type: "xavier"
    }
  }
}
layer {
  name: "relu3"
  type: "ReLU"
  bottom: "conv3"
  top: "relu3"
}
layer {
  name: "drop2"
  type: "Dropout"
  bottom: "relu3"
  top: "drop2"
  dropout_param {
    dropout_ratio: 0.1
  }
}
layer {
  name: "pool2"
  type: "Pooling"
  bottom: "drop2"
  top: "pool2"
  pooling_param {
    pool: MAX
    kernel_size: 2
    stride: 2
  }
}
layer {
  name: "conv4"
  type: "Convolution"
  bottom: "pool2"
  top: "conv4"
  convolution_param {
    num_output: 240
    kernel_size: 1
    weight_filler {
      type: "xavier"
    }
  }
}
layer {
  name: "relu4"
  type: "ReLU"
  bottom: "conv4"
  top: "relu4"
}
layer {
  name: "conv5"
  type: "Convolution"
  bottom: "relu4"
  top: "conv5"
  convolution_param {
    num_output: 260
    kernel_size: 2
    weight_filler {
      type: "xavier"
    }
  }
}
layer {
  name: "relu5"
  type: "ReLU"
  bottom: "conv5"
  top: "relu5"
}
layer {
  name: "drop3"
  type: "Dropout"
  bottom: "relu5"
  top: "drop3"
  dropout_param {
    dropout_ratio: 0.2
  }
}
layer {
  name: "pool3"
  type: "Pooling"
  bottom: "drop3"
  top: "pool3"
  pooling_param {
    pool: MAX
    kernel_size: 2
    stride: 2
  }
}
layer {
  name: "conv6"
  type: "Convolution"
  bottom: "pool3"
  top: "conv6"
  convolution_param {
    num_output: 260
    kernel_size: 1
    weight_filler {
      type: "xavier"
    }
  }
}
layer {
  name: "relu6"
  type: "ReLU"
  bottom: "conv6"
  top: "relu6"
}
layer {
  name: "conv7"
  type: "Convolution"
  bottom: "relu6"
  top: "conv7"
  convolution_param {
    num_output: 280
    kernel_size: 2
    weight_filler {
      type: "xavier"
    }
  }
}
layer {
  name: "relu7"
  type: "ReLU"
  bottom: "conv7"
  top: "relu7"
}
layer {
  name: "drop4"
  type: "Dropout"
  bottom: "relu7"
  top: "drop4"
  dropout_param {
    dropout_ratio: 0.3
  }
}
layer {
  name: "pool4"
  type: "Pooling"
  bottom: "drop4"
  top: "pool4"
  pooling_param {
    pool: MAX
    kernel_size: 2
    stride: 2
  }
}
layer {
  name: "conv8"
  type: "Convolution"
  bottom: "pool4"
  top: "conv8"
  convolution_param {
    num_output: 280
    kernel_size: 1
    weight_filler {
      type: "xavier"
    }
  }
}
layer {
  name: "relu8"
  type: "ReLU"
  bottom: "conv8"
  top: "relu8"
}
layer {
  name: "drop5"
  type: "Dropout"
  bottom: "relu8"
  top: "drop5"
  dropout_param {
    dropout_ratio: 0.4
  }
}
layer {
  name: "pool5"
  type: "Pooling"
  bottom: "drop5"
  top: "pool5"
  pooling_param {
    pool: MAX
    kernel_size: 2
    stride: 2
  }
}
layer {
  name: "conv10"
  type: "Convolution"
  bottom: "pool5"
  top: "conv10"
  convolution_param {
    num_output: 300
    kernel_size: 1
    weight_filler {
      type: "xavier"
    }
  }
}
layer {
  name: "relu10"
  type: "ReLU"
  bottom: "conv10"
  top: "relu10"
}
layer {
  name: "drop6"
  type: "Dropout"
  bottom: "relu10"
  top: "drop6"
  dropout_param {
    dropout_ratio: 0.5
  }
}
layer {
  name: "pool6"
  type: "Pooling"
  bottom: "drop6"
  top: "pool6"
  pooling_param {
    pool: MAX
    kernel_size: 2
    stride: 2
  }
}
layer {
  name: "conv11"
  type: "Convolution"
  bottom: "pool6"
  top: "conv11"
  convolution_param {
    num_output: 100
    kernel_size: 1
    weight_filler {
      type: "xavier"
    }
  }
}
layer {
  name: "relu11"
  type: "ReLU"
  bottom: "conv11"
  top: "relu11"
}
layer {
  name: "drop7"
  type: "Dropout"
  bottom: "relu11"
  top: "drop7"
  dropout_param {
    dropout_ratio: 0
  }
}
layer {
  name: "pool7"
  type: "Pooling"
  bottom: "drop7"
  top: "pool7"
  pooling_param {
    pool: MAX
    kernel_size: 2
    stride: 2
  }
}
layer {
  name: "score"
  type: "InnerProduct"
  bottom: "pool7"
  top: "score"
  inner_product_param {
    num_output: 10
    weight_filler {
      type: "gaussian"
    }
  }
}
layer {
  name: "accuracy"
  type: "Accuracy"
  bottom: "score"
  bottom: "label"
  top: "accuracy"
}
layer {
  name: "loss"
  type: "SoftmaxWithLoss"
  bottom: "score"
  bottom: "label"
  top: "loss"
}
I1020 02:08:46.496779  8954 layer_factory.hpp:77] Creating layer data
I1020 02:08:46.497169  8954 net.cpp:100] Creating Layer data
I1020 02:08:46.497175  8954 net.cpp:408] data -> data
I1020 02:08:46.497189  8954 net.cpp:408] data -> label
I1020 02:08:46.497203  8954 data_transformer.cpp:25] Loading mean file from: mean.binaryproto
I1020 02:08:46.497778  8959 db_lmdb.cpp:35] Opened lmdb ../../../../data/cifar-10/cifar10_train_lmdb
I1020 02:08:46.503026  8954 data_layer.cpp:41] output data size: 64,3,32,32
I1020 02:08:46.504431  8954 net.cpp:150] Setting up data
I1020 02:08:46.504446  8954 net.cpp:157] Top shape: 64 3 32 32 (196608)
I1020 02:08:46.504449  8954 net.cpp:157] Top shape: 64 (64)
I1020 02:08:46.504451  8954 net.cpp:165] Memory required for data: 786688
I1020 02:08:46.504457  8954 layer_factory.hpp:77] Creating layer label_data_1_split
I1020 02:08:46.504467  8954 net.cpp:100] Creating Layer label_data_1_split
I1020 02:08:46.504472  8954 net.cpp:434] label_data_1_split <- label
I1020 02:08:46.504483  8954 net.cpp:408] label_data_1_split -> label_data_1_split_0
I1020 02:08:46.504489  8954 net.cpp:408] label_data_1_split -> label_data_1_split_1
I1020 02:08:46.504519  8954 net.cpp:150] Setting up label_data_1_split
I1020 02:08:46.504525  8954 net.cpp:157] Top shape: 64 (64)
I1020 02:08:46.504528  8954 net.cpp:157] Top shape: 64 (64)
I1020 02:08:46.504531  8954 net.cpp:165] Memory required for data: 787200
I1020 02:08:46.504534  8954 layer_factory.hpp:77] Creating layer conv1
I1020 02:08:46.504546  8954 net.cpp:100] Creating Layer conv1
I1020 02:08:46.504549  8954 net.cpp:434] conv1 <- data
I1020 02:08:46.504552  8954 net.cpp:408] conv1 -> conv1
I1020 02:08:46.625696  8954 net.cpp:150] Setting up conv1
I1020 02:08:46.625721  8954 net.cpp:157] Top shape: 64 192 28 28 (9633792)
I1020 02:08:46.625723  8954 net.cpp:165] Memory required for data: 39322368
I1020 02:08:46.625747  8954 layer_factory.hpp:77] Creating layer relu1
I1020 02:08:46.625761  8954 net.cpp:100] Creating Layer relu1
I1020 02:08:46.625764  8954 net.cpp:434] relu1 <- conv1
I1020 02:08:46.625771  8954 net.cpp:408] relu1 -> relu1
I1020 02:08:46.625911  8954 net.cpp:150] Setting up relu1
I1020 02:08:46.625919  8954 net.cpp:157] Top shape: 64 192 28 28 (9633792)
I1020 02:08:46.625922  8954 net.cpp:165] Memory required for data: 77857536
I1020 02:08:46.625926  8954 layer_factory.hpp:77] Creating layer drop1
I1020 02:08:46.625933  8954 net.cpp:100] Creating Layer drop1
I1020 02:08:46.625937  8954 net.cpp:434] drop1 <- relu1
I1020 02:08:46.625941  8954 net.cpp:408] drop1 -> drop1
I1020 02:08:46.625967  8954 net.cpp:150] Setting up drop1
I1020 02:08:46.625969  8954 net.cpp:157] Top shape: 64 192 28 28 (9633792)
I1020 02:08:46.625972  8954 net.cpp:165] Memory required for data: 116392704
I1020 02:08:46.625972  8954 layer_factory.hpp:77] Creating layer pool1
I1020 02:08:46.625977  8954 net.cpp:100] Creating Layer pool1
I1020 02:08:46.625978  8954 net.cpp:434] pool1 <- drop1
I1020 02:08:46.625983  8954 net.cpp:408] pool1 -> pool1
I1020 02:08:46.626014  8954 net.cpp:150] Setting up pool1
I1020 02:08:46.626019  8954 net.cpp:157] Top shape: 64 192 14 14 (2408448)
I1020 02:08:46.626021  8954 net.cpp:165] Memory required for data: 126026496
I1020 02:08:46.626024  8954 layer_factory.hpp:77] Creating layer conv2
I1020 02:08:46.626031  8954 net.cpp:100] Creating Layer conv2
I1020 02:08:46.626035  8954 net.cpp:434] conv2 <- pool1
I1020 02:08:46.626040  8954 net.cpp:408] conv2 -> conv2
I1020 02:08:46.627082  8954 net.cpp:150] Setting up conv2
I1020 02:08:46.627091  8954 net.cpp:157] Top shape: 64 192 14 14 (2408448)
I1020 02:08:46.627094  8954 net.cpp:165] Memory required for data: 135660288
I1020 02:08:46.627102  8954 layer_factory.hpp:77] Creating layer relu2
I1020 02:08:46.627110  8954 net.cpp:100] Creating Layer relu2
I1020 02:08:46.627113  8954 net.cpp:434] relu2 <- conv2
I1020 02:08:46.627120  8954 net.cpp:408] relu2 -> relu2
I1020 02:08:46.627241  8954 net.cpp:150] Setting up relu2
I1020 02:08:46.627249  8954 net.cpp:157] Top shape: 64 192 14 14 (2408448)
I1020 02:08:46.627251  8954 net.cpp:165] Memory required for data: 145294080
I1020 02:08:46.627254  8954 layer_factory.hpp:77] Creating layer conv3
I1020 02:08:46.627262  8954 net.cpp:100] Creating Layer conv3
I1020 02:08:46.627267  8954 net.cpp:434] conv3 <- relu2
I1020 02:08:46.627272  8954 net.cpp:408] conv3 -> conv3
I1020 02:08:46.629679  8954 net.cpp:150] Setting up conv3
I1020 02:08:46.629688  8954 net.cpp:157] Top shape: 64 240 12 12 (2211840)
I1020 02:08:46.629693  8954 net.cpp:165] Memory required for data: 154141440
I1020 02:08:46.629700  8954 layer_factory.hpp:77] Creating layer relu3
I1020 02:08:46.629708  8954 net.cpp:100] Creating Layer relu3
I1020 02:08:46.629711  8954 net.cpp:434] relu3 <- conv3
I1020 02:08:46.629719  8954 net.cpp:408] relu3 -> relu3
I1020 02:08:46.629906  8954 net.cpp:150] Setting up relu3
I1020 02:08:46.629914  8954 net.cpp:157] Top shape: 64 240 12 12 (2211840)
I1020 02:08:46.629919  8954 net.cpp:165] Memory required for data: 162988800
I1020 02:08:46.629922  8954 layer_factory.hpp:77] Creating layer drop2
I1020 02:08:46.629928  8954 net.cpp:100] Creating Layer drop2
I1020 02:08:46.629932  8954 net.cpp:434] drop2 <- relu3
I1020 02:08:46.629938  8954 net.cpp:408] drop2 -> drop2
I1020 02:08:46.629967  8954 net.cpp:150] Setting up drop2
I1020 02:08:46.629972  8954 net.cpp:157] Top shape: 64 240 12 12 (2211840)
I1020 02:08:46.629974  8954 net.cpp:165] Memory required for data: 171836160
I1020 02:08:46.629977  8954 layer_factory.hpp:77] Creating layer pool2
I1020 02:08:46.629983  8954 net.cpp:100] Creating Layer pool2
I1020 02:08:46.629987  8954 net.cpp:434] pool2 <- drop2
I1020 02:08:46.629993  8954 net.cpp:408] pool2 -> pool2
I1020 02:08:46.630019  8954 net.cpp:150] Setting up pool2
I1020 02:08:46.630024  8954 net.cpp:157] Top shape: 64 240 6 6 (552960)
I1020 02:08:46.630026  8954 net.cpp:165] Memory required for data: 174048000
I1020 02:08:46.630030  8954 layer_factory.hpp:77] Creating layer conv4
I1020 02:08:46.630036  8954 net.cpp:100] Creating Layer conv4
I1020 02:08:46.630040  8954 net.cpp:434] conv4 <- pool2
I1020 02:08:46.630046  8954 net.cpp:408] conv4 -> conv4
I1020 02:08:46.630849  8954 net.cpp:150] Setting up conv4
I1020 02:08:46.630857  8954 net.cpp:157] Top shape: 64 240 6 6 (552960)
I1020 02:08:46.630861  8954 net.cpp:165] Memory required for data: 176259840
I1020 02:08:46.630867  8954 layer_factory.hpp:77] Creating layer relu4
I1020 02:08:46.630873  8954 net.cpp:100] Creating Layer relu4
I1020 02:08:46.630877  8954 net.cpp:434] relu4 <- conv4
I1020 02:08:46.630883  8954 net.cpp:408] relu4 -> relu4
I1020 02:08:46.630995  8954 net.cpp:150] Setting up relu4
I1020 02:08:46.631000  8954 net.cpp:157] Top shape: 64 240 6 6 (552960)
I1020 02:08:46.631003  8954 net.cpp:165] Memory required for data: 178471680
I1020 02:08:46.631008  8954 layer_factory.hpp:77] Creating layer conv5
I1020 02:08:46.631014  8954 net.cpp:100] Creating Layer conv5
I1020 02:08:46.631018  8954 net.cpp:434] conv5 <- relu4
I1020 02:08:46.631024  8954 net.cpp:408] conv5 -> conv5
I1020 02:08:46.632761  8954 net.cpp:150] Setting up conv5
I1020 02:08:46.632769  8954 net.cpp:157] Top shape: 64 260 5 5 (416000)
I1020 02:08:46.632771  8954 net.cpp:165] Memory required for data: 180135680
I1020 02:08:46.632779  8954 layer_factory.hpp:77] Creating layer relu5
I1020 02:08:46.632786  8954 net.cpp:100] Creating Layer relu5
I1020 02:08:46.632791  8954 net.cpp:434] relu5 <- conv5
I1020 02:08:46.632797  8954 net.cpp:408] relu5 -> relu5
I1020 02:08:46.632917  8954 net.cpp:150] Setting up relu5
I1020 02:08:46.632925  8954 net.cpp:157] Top shape: 64 260 5 5 (416000)
I1020 02:08:46.632928  8954 net.cpp:165] Memory required for data: 181799680
I1020 02:08:46.632932  8954 layer_factory.hpp:77] Creating layer drop3
I1020 02:08:46.632941  8954 net.cpp:100] Creating Layer drop3
I1020 02:08:46.632944  8954 net.cpp:434] drop3 <- relu5
I1020 02:08:46.632951  8954 net.cpp:408] drop3 -> drop3
I1020 02:08:46.632979  8954 net.cpp:150] Setting up drop3
I1020 02:08:46.632984  8954 net.cpp:157] Top shape: 64 260 5 5 (416000)
I1020 02:08:46.632987  8954 net.cpp:165] Memory required for data: 183463680
I1020 02:08:46.632990  8954 layer_factory.hpp:77] Creating layer pool3
I1020 02:08:46.632997  8954 net.cpp:100] Creating Layer pool3
I1020 02:08:46.633000  8954 net.cpp:434] pool3 <- drop3
I1020 02:08:46.633007  8954 net.cpp:408] pool3 -> pool3
I1020 02:08:46.633036  8954 net.cpp:150] Setting up pool3
I1020 02:08:46.633040  8954 net.cpp:157] Top shape: 64 260 3 3 (149760)
I1020 02:08:46.633043  8954 net.cpp:165] Memory required for data: 184062720
I1020 02:08:46.633045  8954 layer_factory.hpp:77] Creating layer conv6
I1020 02:08:46.633054  8954 net.cpp:100] Creating Layer conv6
I1020 02:08:46.633057  8954 net.cpp:434] conv6 <- pool3
I1020 02:08:46.633064  8954 net.cpp:408] conv6 -> conv6
I1020 02:08:46.634199  8954 net.cpp:150] Setting up conv6
I1020 02:08:46.634208  8954 net.cpp:157] Top shape: 64 260 3 3 (149760)
I1020 02:08:46.634212  8954 net.cpp:165] Memory required for data: 184661760
I1020 02:08:46.634217  8954 layer_factory.hpp:77] Creating layer relu6
I1020 02:08:46.634222  8954 net.cpp:100] Creating Layer relu6
I1020 02:08:46.634227  8954 net.cpp:434] relu6 <- conv6
I1020 02:08:46.634232  8954 net.cpp:408] relu6 -> relu6
I1020 02:08:46.634439  8954 net.cpp:150] Setting up relu6
I1020 02:08:46.634448  8954 net.cpp:157] Top shape: 64 260 3 3 (149760)
I1020 02:08:46.634451  8954 net.cpp:165] Memory required for data: 185260800
I1020 02:08:46.634455  8954 layer_factory.hpp:77] Creating layer conv7
I1020 02:08:46.634464  8954 net.cpp:100] Creating Layer conv7
I1020 02:08:46.634467  8954 net.cpp:434] conv7 <- relu6
I1020 02:08:46.634474  8954 net.cpp:408] conv7 -> conv7
I1020 02:08:46.636420  8954 net.cpp:150] Setting up conv7
I1020 02:08:46.636427  8954 net.cpp:157] Top shape: 64 280 2 2 (71680)
I1020 02:08:46.636430  8954 net.cpp:165] Memory required for data: 185547520
I1020 02:08:46.636435  8954 layer_factory.hpp:77] Creating layer relu7
I1020 02:08:46.636441  8954 net.cpp:100] Creating Layer relu7
I1020 02:08:46.636445  8954 net.cpp:434] relu7 <- conv7
I1020 02:08:46.636451  8954 net.cpp:408] relu7 -> relu7
I1020 02:08:46.636615  8954 net.cpp:150] Setting up relu7
I1020 02:08:46.636622  8954 net.cpp:157] Top shape: 64 280 2 2 (71680)
I1020 02:08:46.636626  8954 net.cpp:165] Memory required for data: 185834240
I1020 02:08:46.636629  8954 layer_factory.hpp:77] Creating layer drop4
I1020 02:08:46.636636  8954 net.cpp:100] Creating Layer drop4
I1020 02:08:46.636638  8954 net.cpp:434] drop4 <- relu7
I1020 02:08:46.636644  8954 net.cpp:408] drop4 -> drop4
I1020 02:08:46.636674  8954 net.cpp:150] Setting up drop4
I1020 02:08:46.636682  8954 net.cpp:157] Top shape: 64 280 2 2 (71680)
I1020 02:08:46.636685  8954 net.cpp:165] Memory required for data: 186120960
I1020 02:08:46.636687  8954 layer_factory.hpp:77] Creating layer pool4
I1020 02:08:46.636693  8954 net.cpp:100] Creating Layer pool4
I1020 02:08:46.636696  8954 net.cpp:434] pool4 <- drop4
I1020 02:08:46.636703  8954 net.cpp:408] pool4 -> pool4
I1020 02:08:46.636731  8954 net.cpp:150] Setting up pool4
I1020 02:08:46.636737  8954 net.cpp:157] Top shape: 64 280 1 1 (17920)
I1020 02:08:46.636742  8954 net.cpp:165] Memory required for data: 186192640
I1020 02:08:46.636744  8954 layer_factory.hpp:77] Creating layer conv8
I1020 02:08:46.636751  8954 net.cpp:100] Creating Layer conv8
I1020 02:08:46.636754  8954 net.cpp:434] conv8 <- pool4
I1020 02:08:46.636761  8954 net.cpp:408] conv8 -> conv8
I1020 02:08:46.638016  8954 net.cpp:150] Setting up conv8
I1020 02:08:46.638025  8954 net.cpp:157] Top shape: 64 280 1 1 (17920)
I1020 02:08:46.638028  8954 net.cpp:165] Memory required for data: 186264320
I1020 02:08:46.638036  8954 layer_factory.hpp:77] Creating layer relu8
I1020 02:08:46.638042  8954 net.cpp:100] Creating Layer relu8
I1020 02:08:46.638046  8954 net.cpp:434] relu8 <- conv8
I1020 02:08:46.638053  8954 net.cpp:408] relu8 -> relu8
I1020 02:08:46.638175  8954 net.cpp:150] Setting up relu8
I1020 02:08:46.638181  8954 net.cpp:157] Top shape: 64 280 1 1 (17920)
I1020 02:08:46.638185  8954 net.cpp:165] Memory required for data: 186336000
I1020 02:08:46.638188  8954 layer_factory.hpp:77] Creating layer drop5
I1020 02:08:46.638193  8954 net.cpp:100] Creating Layer drop5
I1020 02:08:46.638200  8954 net.cpp:434] drop5 <- relu8
I1020 02:08:46.638205  8954 net.cpp:408] drop5 -> drop5
I1020 02:08:46.638236  8954 net.cpp:150] Setting up drop5
I1020 02:08:46.638242  8954 net.cpp:157] Top shape: 64 280 1 1 (17920)
I1020 02:08:46.638243  8954 net.cpp:165] Memory required for data: 186407680
I1020 02:08:46.638247  8954 layer_factory.hpp:77] Creating layer pool5
I1020 02:08:46.638252  8954 net.cpp:100] Creating Layer pool5
I1020 02:08:46.638257  8954 net.cpp:434] pool5 <- drop5
I1020 02:08:46.638263  8954 net.cpp:408] pool5 -> pool5
I1020 02:08:46.638293  8954 net.cpp:150] Setting up pool5
I1020 02:08:46.638298  8954 net.cpp:157] Top shape: 64 280 1 1 (17920)
I1020 02:08:46.638300  8954 net.cpp:165] Memory required for data: 186479360
I1020 02:08:46.638304  8954 layer_factory.hpp:77] Creating layer conv10
I1020 02:08:46.638312  8954 net.cpp:100] Creating Layer conv10
I1020 02:08:46.638316  8954 net.cpp:434] conv10 <- pool5
I1020 02:08:46.638324  8954 net.cpp:408] conv10 -> conv10
I1020 02:08:46.639261  8954 net.cpp:150] Setting up conv10
I1020 02:08:46.639269  8954 net.cpp:157] Top shape: 64 300 1 1 (19200)
I1020 02:08:46.639272  8954 net.cpp:165] Memory required for data: 186556160
I1020 02:08:46.639282  8954 layer_factory.hpp:77] Creating layer relu10
I1020 02:08:46.639288  8954 net.cpp:100] Creating Layer relu10
I1020 02:08:46.639293  8954 net.cpp:434] relu10 <- conv10
I1020 02:08:46.639300  8954 net.cpp:408] relu10 -> relu10
I1020 02:08:46.639500  8954 net.cpp:150] Setting up relu10
I1020 02:08:46.639508  8954 net.cpp:157] Top shape: 64 300 1 1 (19200)
I1020 02:08:46.639510  8954 net.cpp:165] Memory required for data: 186632960
I1020 02:08:46.639513  8954 layer_factory.hpp:77] Creating layer drop6
I1020 02:08:46.639519  8954 net.cpp:100] Creating Layer drop6
I1020 02:08:46.639523  8954 net.cpp:434] drop6 <- relu10
I1020 02:08:46.639531  8954 net.cpp:408] drop6 -> drop6
I1020 02:08:46.639564  8954 net.cpp:150] Setting up drop6
I1020 02:08:46.639577  8954 net.cpp:157] Top shape: 64 300 1 1 (19200)
I1020 02:08:46.639581  8954 net.cpp:165] Memory required for data: 186709760
I1020 02:08:46.639585  8954 layer_factory.hpp:77] Creating layer pool6
I1020 02:08:46.639590  8954 net.cpp:100] Creating Layer pool6
I1020 02:08:46.639593  8954 net.cpp:434] pool6 <- drop6
I1020 02:08:46.639600  8954 net.cpp:408] pool6 -> pool6
I1020 02:08:46.639631  8954 net.cpp:150] Setting up pool6
I1020 02:08:46.639636  8954 net.cpp:157] Top shape: 64 300 1 1 (19200)
I1020 02:08:46.639638  8954 net.cpp:165] Memory required for data: 186786560
I1020 02:08:46.639642  8954 layer_factory.hpp:77] Creating layer conv11
I1020 02:08:46.639652  8954 net.cpp:100] Creating Layer conv11
I1020 02:08:46.639657  8954 net.cpp:434] conv11 <- pool6
I1020 02:08:46.639662  8954 net.cpp:408] conv11 -> conv11
I1020 02:08:46.640409  8954 net.cpp:150] Setting up conv11
I1020 02:08:46.640417  8954 net.cpp:157] Top shape: 64 100 1 1 (6400)
I1020 02:08:46.640420  8954 net.cpp:165] Memory required for data: 186812160
I1020 02:08:46.640427  8954 layer_factory.hpp:77] Creating layer relu11
I1020 02:08:46.640434  8954 net.cpp:100] Creating Layer relu11
I1020 02:08:46.640437  8954 net.cpp:434] relu11 <- conv11
I1020 02:08:46.640444  8954 net.cpp:408] relu11 -> relu11
I1020 02:08:46.640570  8954 net.cpp:150] Setting up relu11
I1020 02:08:46.640578  8954 net.cpp:157] Top shape: 64 100 1 1 (6400)
I1020 02:08:46.640580  8954 net.cpp:165] Memory required for data: 186837760
I1020 02:08:46.640583  8954 layer_factory.hpp:77] Creating layer drop7
I1020 02:08:46.640589  8954 net.cpp:100] Creating Layer drop7
I1020 02:08:46.640594  8954 net.cpp:434] drop7 <- relu11
I1020 02:08:46.640599  8954 net.cpp:408] drop7 -> drop7
I1020 02:08:46.640631  8954 net.cpp:150] Setting up drop7
I1020 02:08:46.640636  8954 net.cpp:157] Top shape: 64 100 1 1 (6400)
I1020 02:08:46.640638  8954 net.cpp:165] Memory required for data: 186863360
I1020 02:08:46.640641  8954 layer_factory.hpp:77] Creating layer pool7
I1020 02:08:46.640646  8954 net.cpp:100] Creating Layer pool7
I1020 02:08:46.640651  8954 net.cpp:434] pool7 <- drop7
I1020 02:08:46.640658  8954 net.cpp:408] pool7 -> pool7
I1020 02:08:46.640688  8954 net.cpp:150] Setting up pool7
I1020 02:08:46.640692  8954 net.cpp:157] Top shape: 64 100 1 1 (6400)
I1020 02:08:46.640697  8954 net.cpp:165] Memory required for data: 186888960
I1020 02:08:46.640699  8954 layer_factory.hpp:77] Creating layer score
I1020 02:08:46.640707  8954 net.cpp:100] Creating Layer score
I1020 02:08:46.640710  8954 net.cpp:434] score <- pool7
I1020 02:08:46.640717  8954 net.cpp:408] score -> score
I1020 02:08:46.640821  8954 net.cpp:150] Setting up score
I1020 02:08:46.640826  8954 net.cpp:157] Top shape: 64 10 (640)
I1020 02:08:46.640830  8954 net.cpp:165] Memory required for data: 186891520
I1020 02:08:46.640836  8954 layer_factory.hpp:77] Creating layer score_score_0_split
I1020 02:08:46.640841  8954 net.cpp:100] Creating Layer score_score_0_split
I1020 02:08:46.640846  8954 net.cpp:434] score_score_0_split <- score
I1020 02:08:46.640851  8954 net.cpp:408] score_score_0_split -> score_score_0_split_0
I1020 02:08:46.640861  8954 net.cpp:408] score_score_0_split -> score_score_0_split_1
I1020 02:08:46.640889  8954 net.cpp:150] Setting up score_score_0_split
I1020 02:08:46.640893  8954 net.cpp:157] Top shape: 64 10 (640)
I1020 02:08:46.640895  8954 net.cpp:157] Top shape: 64 10 (640)
I1020 02:08:46.640899  8954 net.cpp:165] Memory required for data: 186896640
I1020 02:08:46.640902  8954 layer_factory.hpp:77] Creating layer accuracy
I1020 02:08:46.640909  8954 net.cpp:100] Creating Layer accuracy
I1020 02:08:46.640913  8954 net.cpp:434] accuracy <- score_score_0_split_0
I1020 02:08:46.640919  8954 net.cpp:434] accuracy <- label_data_1_split_0
I1020 02:08:46.640925  8954 net.cpp:408] accuracy -> accuracy
…
I1020 02:08:46.641456  8954 net.cpp:283] Network initialization done.
I1020 02:08:46.641644  8954 solver.cpp:181] Creating test net (#0) specified by test_net file: /home/adam/Honours/Honours-Project/cifar-10_pooling/max/relu/poolcnn_relu_test.prototxt
I1020 02:08:46.641767  8954 net.cpp:58] Initializing net from parameters: 
state {
  phase: TEST
}
layer {
  name: "data"
  type: "Data"
  top: "data"
  top: "label"
  transform_param {
    mean_file: "mean.binaryproto"
  }
  data_param {
    source: "../../../../data/cifar-10/cifar10_test_lmdb"
    batch_size: 100
    backend: LMDB
  }
}
layer {
  name: "conv1"
  type: "Convolution"
  bottom: "data"
  top: "conv1"
  convolution_param {
    num_output: 192
    kernel_size: 5
    weight_filler {
      type: "xavier"
    }
  }
}
layer {
  name: "relu1"
  type: "ReLU"
  bottom: "conv1"
  top: "relu1"
}
layer {
  name: "drop1"
  type: "Dropout"
  bottom: "relu1"
  top: "drop1"
  dropout_param {
    dropout_ratio: 0
  }
}
layer {
  name: "pool1"
  type: "Pooling"
  bottom: "drop1"
  top: "pool1"
  pooling_param {
    pool: MAX
    kernel_size: 2
    stride: 2
  }
}
layer {
  name: "conv2"
  type: "Convolution"
  bottom: "pool1"
  top: "conv2"
  convolution_param {
    num_output: 192
    kernel_size: 1
    weight_filler {
      type: "xavier"
    }
  }
}
layer {
  name: "relu2"
  type: "ReLU"
  bottom: "conv2"
  top: "relu2"
}
layer {
  name: "conv3"
  type: "Convolution"
  bottom: "relu2"
  top: "conv3"
  convolution_param {
    num_output: 240
    kernel_size: 3
    weight_filler {
      type: "xavier"
    }
  }
}
layer {
  name: "relu3"
  type: "ReLU"
  bottom: "conv3"
  top: "relu3"
}
layer {
  name: "drop2"
  type: "Dropout"
  bottom: "relu3"
  top: "drop2"
  dropout_param {
    dropout_ratio: 0.1
  }
}
layer {
  name: "pool2"
  type: "Pooling"
  bottom: "drop2"
  top: "pool2"
  pooling_param {
    pool: MAX
    kernel_size: 2
    stride: 2
  }
}
layer {
  name: "conv4"
  type: "Convolution"
  bottom: "pool2"
  top: "conv4"
  convolution_param {
    num_output: 240
    kernel_size: 1
    weight_filler {
      type: "xavier"
    }
  }
}
layer {
  name: "relu4"
  type: "ReLU"
  bottom: "conv4"
  top: "relu4"
}
layer {
  name: "conv5"
  type: "Convolution"
  bottom: "relu4"
  top: "conv5"
  convolution_param {
    num_output: 260
    kernel_size: 2
    weight_filler {
      type: "xavier"
    }
  }
}
layer {
  name: "relu5"
  type: "ReLU"
  bottom: "conv5"
  top: "relu5"
}
layer {
  name: "drop3"
  type: "Dropout"
  bottom: "relu5"
  top: "drop3"
  dropout_param {
    dropout_ratio: 0.2
  }
}
layer {
  name: "pool3"
  type: "Pooling"
  bottom: "drop3"
  top: "pool3"
  pooling_param {
    pool: MAX
    kernel_size: 2
    stride: 2
  }
}
layer {
  name: "conv6"
  type: "Convolution"
  bottom: "pool3"
  top: "conv6"
  convolution_param {
    num_output: 260
    kernel_size: 1
    weight_filler {
      type: "xavier"
    }
  }
}
layer {
  name: "relu6"
  type: "ReLU"
  bottom: "conv6"
  top: "relu6"
}
layer {
  name: "conv7"
  type: "Convolution"
  bottom: "relu6"
  top: "conv7"
  convolution_param {
    num_output: 280
    kernel_size: 2
    weight_filler {
      type: "xavier"
    }
  }
}
layer {
  name: "relu7"
  type: "ReLU"
  bottom: "conv7"
  top: "relu7"
}
layer {
  name: "drop4"
  type: "Dropout"
  bottom: "relu7"
  top: "drop4"
  dropout_param {
    dropout_ratio: 0.3
  }
}
layer {
  name: "pool4"
  type: "Pooling"
  bottom: "drop4"
  top: "pool4"
  pooling_param {
    pool: MAX
    kernel_size: 2
    stride: 2
  }
}
layer {
  name: "conv8"
  type: "Convolution"
  bottom: "pool4"
  top: "conv8"
  convolution_param {
    num_output: 280
    kernel_size: 1
    weight_filler {
      type: "xavier"
    }
  }
}
layer {
  name: "relu8"
  type: "ReLU"
  bottom: "conv8"
  top: "relu8"
}
layer {
  name: "drop5"
  type: "Dropout"
  bottom: "relu8"
  top: "drop5"
  dropout_param {
    dropout_ratio: 0.4
  }
}
layer {
  name: "pool5"
  type: "Pooling"
  bottom: "drop5"
  top: "pool5"
  pooling_param {
    pool: MAX
    kernel_size: 2
    stride: 2
  }
}
layer {
  name: "conv10"
  type: "Convolution"
  bottom: "pool5"
  top: "conv10"
  convolution_param {
    num_output: 300
    kernel_size: 1
    weight_filler {
      type: "xavier"
    }
  }
}
layer {
  name: "relu10"
  type: "ReLU"
  bottom: "conv10"
  top: "relu10"
}
layer {
  name: "drop6"
  type: "Dropout"
  bottom: "relu10"
  top: "drop6"
  dropout_param {
    dropout_ratio: 0.5
  }
}
layer {
  name: "pool6"
  type: "Pooling"
  bottom: "drop6"
  top: "pool6"
  pooling_param {
    pool: MAX
    kernel_size: 2
    stride: 2
  }
}
layer {
  name: "conv11"
  type: "Convolution"
  bottom: "pool6"
  top: "conv11"
  convolution_param {
    num_output: 100
    kernel_size: 1
    weight_filler {
      type: "xavier"
    }
  }
}
layer {
  name: "relu11"
  type: "ReLU"
  bottom: "conv11"
  top: "relu11"
}
layer {
  name: "drop7"
  type: "Dropout"
  bottom: "relu11"
  top: "drop7"
  dropout_param {
    dropout_ratio: 0
  }
}
layer {
  name: "pool7"
  type: "Pooling"
  bottom: "drop7"
  top: "pool7"
  pooling_param {
    pool: MAX
    kernel_size: 2
    stride: 2
  }
}
layer {
  name: "score"
  type: "InnerProduct"
  bottom: "pool7"
  top: "score"
  inner_product_param {
    num_output: 10
    weight_filler {
      type: "gaussian"
    }
  }
}
layer {
  name: "accuracy"
  type: "Accuracy"
  bottom: "score"
  bottom: "label"
  top: "accuracy"
}
layer {
  name: "loss"
  type: "SoftmaxWithLoss"
  bottom: "score"
  bottom: "label"
  top: "loss"
}
I1020 02:08:46.641868  8954 layer_factory.hpp:77] Creating layer data
I1020 02:08:46.641954  8954 net.cpp:100] Creating Layer data
I1020 02:08:46.641960  8954 net.cpp:408] data -> data
I1020 02:08:46.641968  8954 net.cpp:408] data -> label
I1020 02:08:46.641976  8954 data_transformer.cpp:25] Loading mean file from: mean.binaryproto
I1020 02:08:46.642616  8961 db_lmdb.cpp:35] Opened lmdb ../../../../data/cifar-10/cifar10_test_lmdb
I1020 02:08:46.642683  8954 data_layer.cpp:41] output data size: 100,3,32,32
I1020 02:08:46.644394  8954 net.cpp:150] Setting up data
I1020 02:08:46.644409  8954 net.cpp:157] Top shape: 100 3 32 32 (307200)
I1020 02:08:46.644412  8954 net.cpp:157] Top shape: 100 (100)
I1020 02:08:46.644413  8954 net.cpp:165] Memory required for data: 1229200
I1020 02:08:46.644418  8954 layer_factory.hpp:77] Creating layer label_data_1_split
I1020 02:08:46.644428  8954 net.cpp:100] Creating Layer label_data_1_split
I1020 02:08:46.644431  8954 net.cpp:434] label_data_1_split <- label
I1020 02:08:46.644438  8954 net.cpp:408] label_data_1_split -> label_data_1_split_0
I1020 02:08:46.644448  8954 net.cpp:408] label_data_1_split -> label_data_1_split_1
I1020 02:08:46.644491  8954 net.cpp:150] Setting up label_data_1_split
I1020 02:08:46.644496  8954 net.cpp:157] Top shape: 100 (100)
I1020 02:08:46.644500  8954 net.cpp:157] Top shape: 100 (100)
I1020 02:08:46.644501  8954 net.cpp:165] Memory required for data: 1230000
I1020 02:08:46.644505  8954 layer_factory.hpp:77] Creating layer conv1
I1020 02:08:46.644516  8954 net.cpp:100] Creating Layer conv1
I1020 02:08:46.644520  8954 net.cpp:434] conv1 <- data
I1020 02:08:46.644526  8954 net.cpp:408] conv1 -> conv1
I1020 02:08:46.645433  8954 net.cpp:150] Setting up conv1
I1020 02:08:46.645440  8954 net.cpp:157] Top shape: 100 192 28 28 (15052800)
I1020 02:08:46.645442  8954 net.cpp:165] Memory required for data: 61441200
I1020 02:08:46.645452  8954 layer_factory.hpp:77] Creating layer relu1
I1020 02:08:46.645459  8954 net.cpp:100] Creating Layer relu1
I1020 02:08:46.645464  8954 net.cpp:434] relu1 <- conv1
I1020 02:08:46.645470  8954 net.cpp:408] relu1 -> relu1
I1020 02:08:46.645601  8954 net.cpp:150] Setting up relu1
I1020 02:08:46.645609  8954 net.cpp:157] Top shape: 100 192 28 28 (15052800)
I1020 02:08:46.645612  8954 net.cpp:165] Memory required for data: 121652400
I1020 02:08:46.645617  8954 layer_factory.hpp:77] Creating layer drop1
I1020 02:08:46.645624  8954 net.cpp:100] Creating Layer drop1
I1020 02:08:46.645629  8954 net.cpp:434] drop1 <- relu1
I1020 02:08:46.645635  8954 net.cpp:408] drop1 -> drop1
I1020 02:08:46.645668  8954 net.cpp:150] Setting up drop1
I1020 02:08:46.645673  8954 net.cpp:157] Top shape: 100 192 28 28 (15052800)
I1020 02:08:46.645678  8954 net.cpp:165] Memory required for data: 181863600
I1020 02:08:46.645680  8954 layer_factory.hpp:77] Creating layer pool1
I1020 02:08:46.645695  8954 net.cpp:100] Creating Layer pool1
I1020 02:08:46.645699  8954 net.cpp:434] pool1 <- drop1
I1020 02:08:46.645705  8954 net.cpp:408] pool1 -> pool1
I1020 02:08:46.645737  8954 net.cpp:150] Setting up pool1
I1020 02:08:46.645742  8954 net.cpp:157] Top shape: 100 192 14 14 (3763200)
I1020 02:08:46.645745  8954 net.cpp:165] Memory required for data: 196916400
I1020 02:08:46.645748  8954 layer_factory.hpp:77] Creating layer conv2
I1020 02:08:46.645757  8954 net.cpp:100] Creating Layer conv2
I1020 02:08:46.645762  8954 net.cpp:434] conv2 <- pool1
I1020 02:08:46.645768  8954 net.cpp:408] conv2 -> conv2
I1020 02:08:46.646713  8954 net.cpp:150] Setting up conv2
I1020 02:08:46.646720  8954 net.cpp:157] Top shape: 100 192 14 14 (3763200)
I1020 02:08:46.646723  8954 net.cpp:165] Memory required for data: 211969200
I1020 02:08:46.646731  8954 layer_factory.hpp:77] Creating layer relu2
I1020 02:08:46.646739  8954 net.cpp:100] Creating Layer relu2
I1020 02:08:46.646742  8954 net.cpp:434] relu2 <- conv2
I1020 02:08:46.646749  8954 net.cpp:408] relu2 -> relu2
I1020 02:08:46.646880  8954 net.cpp:150] Setting up relu2
I1020 02:08:46.646888  8954 net.cpp:157] Top shape: 100 192 14 14 (3763200)
I1020 02:08:46.646891  8954 net.cpp:165] Memory required for data: 227022000
I1020 02:08:46.646896  8954 layer_factory.hpp:77] Creating layer conv3
I1020 02:08:46.646905  8954 net.cpp:100] Creating Layer conv3
I1020 02:08:46.646910  8954 net.cpp:434] conv3 <- relu2
I1020 02:08:46.646916  8954 net.cpp:408] conv3 -> conv3
I1020 02:08:46.649415  8954 net.cpp:150] Setting up conv3
I1020 02:08:46.649423  8954 net.cpp:157] Top shape: 100 240 12 12 (3456000)
I1020 02:08:46.649426  8954 net.cpp:165] Memory required for data: 240846000
I1020 02:08:46.649433  8954 layer_factory.hpp:77] Creating layer relu3
I1020 02:08:46.649441  8954 net.cpp:100] Creating Layer relu3
I1020 02:08:46.649446  8954 net.cpp:434] relu3 <- conv3
I1020 02:08:46.649451  8954 net.cpp:408] relu3 -> relu3
I1020 02:08:46.649657  8954 net.cpp:150] Setting up relu3
I1020 02:08:46.649663  8954 net.cpp:157] Top shape: 100 240 12 12 (3456000)
I1020 02:08:46.649667  8954 net.cpp:165] Memory required for data: 254670000
I1020 02:08:46.649672  8954 layer_factory.hpp:77] Creating layer drop2
I1020 02:08:46.649678  8954 net.cpp:100] Creating Layer drop2
I1020 02:08:46.649682  8954 net.cpp:434] drop2 <- relu3
I1020 02:08:46.649688  8954 net.cpp:408] drop2 -> drop2
I1020 02:08:46.649722  8954 net.cpp:150] Setting up drop2
I1020 02:08:46.649727  8954 net.cpp:157] Top shape: 100 240 12 12 (3456000)
I1020 02:08:46.649729  8954 net.cpp:165] Memory required for data: 268494000
I1020 02:08:46.649732  8954 layer_factory.hpp:77] Creating layer pool2
I1020 02:08:46.649739  8954 net.cpp:100] Creating Layer pool2
I1020 02:08:46.649742  8954 net.cpp:434] pool2 <- drop2
I1020 02:08:46.649749  8954 net.cpp:408] pool2 -> pool2
I1020 02:08:46.649780  8954 net.cpp:150] Setting up pool2
I1020 02:08:46.649785  8954 net.cpp:157] Top shape: 100 240 6 6 (864000)
I1020 02:08:46.649787  8954 net.cpp:165] Memory required for data: 271950000
I1020 02:08:46.649791  8954 layer_factory.hpp:77] Creating layer conv4
I1020 02:08:46.649797  8954 net.cpp:100] Creating Layer conv4
I1020 02:08:46.649802  8954 net.cpp:434] conv4 <- pool2
I1020 02:08:46.649808  8954 net.cpp:408] conv4 -> conv4
I1020 02:08:46.650679  8954 net.cpp:150] Setting up conv4
I1020 02:08:46.650687  8954 net.cpp:157] Top shape: 100 240 6 6 (864000)
I1020 02:08:46.650691  8954 net.cpp:165] Memory required for data: 275406000
I1020 02:08:46.650696  8954 layer_factory.hpp:77] Creating layer relu4
I1020 02:08:46.650702  8954 net.cpp:100] Creating Layer relu4
I1020 02:08:46.650707  8954 net.cpp:434] relu4 <- conv4
I1020 02:08:46.650714  8954 net.cpp:408] relu4 -> relu4
I1020 02:08:46.650841  8954 net.cpp:150] Setting up relu4
I1020 02:08:46.650848  8954 net.cpp:157] Top shape: 100 240 6 6 (864000)
I1020 02:08:46.650851  8954 net.cpp:165] Memory required for data: 278862000
I1020 02:08:46.650856  8954 layer_factory.hpp:77] Creating layer conv5
I1020 02:08:46.650871  8954 net.cpp:100] Creating Layer conv5
I1020 02:08:46.650877  8954 net.cpp:434] conv5 <- relu4
I1020 02:08:46.650884  8954 net.cpp:408] conv5 -> conv5
I1020 02:08:46.653126  8954 net.cpp:150] Setting up conv5
I1020 02:08:46.653137  8954 net.cpp:157] Top shape: 100 260 5 5 (650000)
I1020 02:08:46.653141  8954 net.cpp:165] Memory required for data: 281462000
I1020 02:08:46.653149  8954 layer_factory.hpp:77] Creating layer relu5
I1020 02:08:46.653157  8954 net.cpp:100] Creating Layer relu5
I1020 02:08:46.653162  8954 net.cpp:434] relu5 <- conv5
I1020 02:08:46.653167  8954 net.cpp:408] relu5 -> relu5
I1020 02:08:46.653331  8954 net.cpp:150] Setting up relu5
I1020 02:08:46.653339  8954 net.cpp:157] Top shape: 100 260 5 5 (650000)
I1020 02:08:46.653343  8954 net.cpp:165] Memory required for data: 284062000
I1020 02:08:46.653347  8954 layer_factory.hpp:77] Creating layer drop3
I1020 02:08:46.653354  8954 net.cpp:100] Creating Layer drop3
I1020 02:08:46.653358  8954 net.cpp:434] drop3 <- relu5
I1020 02:08:46.653363  8954 net.cpp:408] drop3 -> drop3
I1020 02:08:46.653398  8954 net.cpp:150] Setting up drop3
I1020 02:08:46.653403  8954 net.cpp:157] Top shape: 100 260 5 5 (650000)
I1020 02:08:46.653408  8954 net.cpp:165] Memory required for data: 286662000
I1020 02:08:46.653410  8954 layer_factory.hpp:77] Creating layer pool3
I1020 02:08:46.653415  8954 net.cpp:100] Creating Layer pool3
I1020 02:08:46.653419  8954 net.cpp:434] pool3 <- drop3
I1020 02:08:46.653424  8954 net.cpp:408] pool3 -> pool3
I1020 02:08:46.653457  8954 net.cpp:150] Setting up pool3
I1020 02:08:46.653463  8954 net.cpp:157] Top shape: 100 260 3 3 (234000)
I1020 02:08:46.653466  8954 net.cpp:165] Memory required for data: 287598000
I1020 02:08:46.653470  8954 layer_factory.hpp:77] Creating layer conv6
I1020 02:08:46.653477  8954 net.cpp:100] Creating Layer conv6
I1020 02:08:46.653481  8954 net.cpp:434] conv6 <- pool3
I1020 02:08:46.653486  8954 net.cpp:408] conv6 -> conv6
I1020 02:08:46.655381  8954 net.cpp:150] Setting up conv6
I1020 02:08:46.655391  8954 net.cpp:157] Top shape: 100 260 3 3 (234000)
I1020 02:08:46.655393  8954 net.cpp:165] Memory required for data: 288534000
I1020 02:08:46.655397  8954 layer_factory.hpp:77] Creating layer relu6
I1020 02:08:46.655405  8954 net.cpp:100] Creating Layer relu6
I1020 02:08:46.655408  8954 net.cpp:434] relu6 <- conv6
I1020 02:08:46.655417  8954 net.cpp:408] relu6 -> relu6
I1020 02:08:46.655628  8954 net.cpp:150] Setting up relu6
I1020 02:08:46.655637  8954 net.cpp:157] Top shape: 100 260 3 3 (234000)
I1020 02:08:46.655640  8954 net.cpp:165] Memory required for data: 289470000
I1020 02:08:46.655643  8954 layer_factory.hpp:77] Creating layer conv7
I1020 02:08:46.655653  8954 net.cpp:100] Creating Layer conv7
I1020 02:08:46.655658  8954 net.cpp:434] conv7 <- relu6
I1020 02:08:46.655663  8954 net.cpp:408] conv7 -> conv7
I1020 02:08:46.657649  8954 net.cpp:150] Setting up conv7
I1020 02:08:46.657657  8954 net.cpp:157] Top shape: 100 280 2 2 (112000)
I1020 02:08:46.657660  8954 net.cpp:165] Memory required for data: 289918000
I1020 02:08:46.657665  8954 layer_factory.hpp:77] Creating layer relu7
I1020 02:08:46.657670  8954 net.cpp:100] Creating Layer relu7
I1020 02:08:46.657675  8954 net.cpp:434] relu7 <- conv7
I1020 02:08:46.657682  8954 net.cpp:408] relu7 -> relu7
I1020 02:08:46.657811  8954 net.cpp:150] Setting up relu7
I1020 02:08:46.657817  8954 net.cpp:157] Top shape: 100 280 2 2 (112000)
I1020 02:08:46.657820  8954 net.cpp:165] Memory required for data: 290366000
I1020 02:08:46.657825  8954 layer_factory.hpp:77] Creating layer drop4
I1020 02:08:46.657831  8954 net.cpp:100] Creating Layer drop4
I1020 02:08:46.657835  8954 net.cpp:434] drop4 <- relu7
I1020 02:08:46.657840  8954 net.cpp:408] drop4 -> drop4
I1020 02:08:46.657873  8954 net.cpp:150] Setting up drop4
I1020 02:08:46.657877  8954 net.cpp:157] Top shape: 100 280 2 2 (112000)
I1020 02:08:46.657879  8954 net.cpp:165] Memory required for data: 290814000
I1020 02:08:46.657881  8954 layer_factory.hpp:77] Creating layer pool4
I1020 02:08:46.657899  8954 net.cpp:100] Creating Layer pool4
I1020 02:08:46.657904  8954 net.cpp:434] pool4 <- drop4
I1020 02:08:46.657912  8954 net.cpp:408] pool4 -> pool4
I1020 02:08:46.657943  8954 net.cpp:150] Setting up pool4
I1020 02:08:46.657950  8954 net.cpp:157] Top shape: 100 280 1 1 (28000)
I1020 02:08:46.657953  8954 net.cpp:165] Memory required for data: 290926000
I1020 02:08:46.657956  8954 layer_factory.hpp:77] Creating layer conv8
I1020 02:08:46.657963  8954 net.cpp:100] Creating Layer conv8
I1020 02:08:46.657968  8954 net.cpp:434] conv8 <- pool4
I1020 02:08:46.657974  8954 net.cpp:408] conv8 -> conv8
I1020 02:08:46.658923  8954 net.cpp:150] Setting up conv8
I1020 02:08:46.658931  8954 net.cpp:157] Top shape: 100 280 1 1 (28000)
I1020 02:08:46.658936  8954 net.cpp:165] Memory required for data: 291038000
I1020 02:08:46.658941  8954 layer_factory.hpp:77] Creating layer relu8
I1020 02:08:46.658946  8954 net.cpp:100] Creating Layer relu8
I1020 02:08:46.658951  8954 net.cpp:434] relu8 <- conv8
I1020 02:08:46.658957  8954 net.cpp:408] relu8 -> relu8
I1020 02:08:46.659087  8954 net.cpp:150] Setting up relu8
I1020 02:08:46.659093  8954 net.cpp:157] Top shape: 100 280 1 1 (28000)
I1020 02:08:46.659096  8954 net.cpp:165] Memory required for data: 291150000
I1020 02:08:46.659101  8954 layer_factory.hpp:77] Creating layer drop5
I1020 02:08:46.659107  8954 net.cpp:100] Creating Layer drop5
I1020 02:08:46.659111  8954 net.cpp:434] drop5 <- relu8
I1020 02:08:46.659117  8954 net.cpp:408] drop5 -> drop5
I1020 02:08:46.659150  8954 net.cpp:150] Setting up drop5
I1020 02:08:46.659155  8954 net.cpp:157] Top shape: 100 280 1 1 (28000)
I1020 02:08:46.659157  8954 net.cpp:165] Memory required for data: 291262000
I1020 02:08:46.659159  8954 layer_factory.hpp:77] Creating layer pool5
I1020 02:08:46.659165  8954 net.cpp:100] Creating Layer pool5
I1020 02:08:46.659169  8954 net.cpp:434] pool5 <- drop5
I1020 02:08:46.659178  8954 net.cpp:408] pool5 -> pool5
I1020 02:08:46.659210  8954 net.cpp:150] Setting up pool5
I1020 02:08:46.659216  8954 net.cpp:157] Top shape: 100 280 1 1 (28000)
I1020 02:08:46.659219  8954 net.cpp:165] Memory required for data: 291374000
I1020 02:08:46.659222  8954 layer_factory.hpp:77] Creating layer conv10
I1020 02:08:46.659229  8954 net.cpp:100] Creating Layer conv10
I1020 02:08:46.659234  8954 net.cpp:434] conv10 <- pool5
I1020 02:08:46.659240  8954 net.cpp:408] conv10 -> conv10
I1020 02:08:46.660215  8954 net.cpp:150] Setting up conv10
I1020 02:08:46.660223  8954 net.cpp:157] Top shape: 100 300 1 1 (30000)
I1020 02:08:46.660228  8954 net.cpp:165] Memory required for data: 291494000
I1020 02:08:46.660236  8954 layer_factory.hpp:77] Creating layer relu10
I1020 02:08:46.660243  8954 net.cpp:100] Creating Layer relu10
I1020 02:08:46.660248  8954 net.cpp:434] relu10 <- conv10
I1020 02:08:46.660254  8954 net.cpp:408] relu10 -> relu10
I1020 02:08:46.660466  8954 net.cpp:150] Setting up relu10
I1020 02:08:46.660473  8954 net.cpp:157] Top shape: 100 300 1 1 (30000)
I1020 02:08:46.660476  8954 net.cpp:165] Memory required for data: 291614000
I1020 02:08:46.660481  8954 layer_factory.hpp:77] Creating layer drop6
I1020 02:08:46.660488  8954 net.cpp:100] Creating Layer drop6
I1020 02:08:46.660492  8954 net.cpp:434] drop6 <- relu10
I1020 02:08:46.660498  8954 net.cpp:408] drop6 -> drop6
I1020 02:08:46.660534  8954 net.cpp:150] Setting up drop6
I1020 02:08:46.660539  8954 net.cpp:157] Top shape: 100 300 1 1 (30000)
I1020 02:08:46.660542  8954 net.cpp:165] Memory required for data: 291734000
I1020 02:08:46.660545  8954 layer_factory.hpp:77] Creating layer pool6
I1020 02:08:46.660552  8954 net.cpp:100] Creating Layer pool6
I1020 02:08:46.660557  8954 net.cpp:434] pool6 <- drop6
I1020 02:08:46.660562  8954 net.cpp:408] pool6 -> pool6
I1020 02:08:46.660594  8954 net.cpp:150] Setting up pool6
I1020 02:08:46.660598  8954 net.cpp:157] Top shape: 100 300 1 1 (30000)
I1020 02:08:46.660600  8954 net.cpp:165] Memory required for data: 291854000
I1020 02:08:46.660604  8954 layer_factory.hpp:77] Creating layer conv11
I1020 02:08:46.660614  8954 net.cpp:100] Creating Layer conv11
I1020 02:08:46.660625  8954 net.cpp:434] conv11 <- pool6
I1020 02:08:46.660630  8954 net.cpp:408] conv11 -> conv11
I1020 02:08:46.661412  8954 net.cpp:150] Setting up conv11
I1020 02:08:46.661420  8954 net.cpp:157] Top shape: 100 100 1 1 (10000)
I1020 02:08:46.661423  8954 net.cpp:165] Memory required for data: 291894000
I1020 02:08:46.661430  8954 layer_factory.hpp:77] Creating layer relu11
I1020 02:08:46.661437  8954 net.cpp:100] Creating Layer relu11
I1020 02:08:46.661440  8954 net.cpp:434] relu11 <- conv11
I1020 02:08:46.661447  8954 net.cpp:408] relu11 -> relu11
I1020 02:08:46.661578  8954 net.cpp:150] Setting up relu11
I1020 02:08:46.661586  8954 net.cpp:157] Top shape: 100 100 1 1 (10000)
I1020 02:08:46.661588  8954 net.cpp:165] Memory required for data: 291934000
I1020 02:08:46.661592  8954 layer_factory.hpp:77] Creating layer drop7
I1020 02:08:46.661597  8954 net.cpp:100] Creating Layer drop7
I1020 02:08:46.661602  8954 net.cpp:434] drop7 <- relu11
I1020 02:08:46.661607  8954 net.cpp:408] drop7 -> drop7
I1020 02:08:46.661641  8954 net.cpp:150] Setting up drop7
I1020 02:08:46.661648  8954 net.cpp:157] Top shape: 100 100 1 1 (10000)
I1020 02:08:46.661649  8954 net.cpp:165] Memory required for data: 291974000
I1020 02:08:46.661651  8954 layer_factory.hpp:77] Creating layer pool7
I1020 02:08:46.661656  8954 net.cpp:100] Creating Layer pool7
I1020 02:08:46.661662  8954 net.cpp:434] pool7 <- drop7
I1020 02:08:46.661669  8954 net.cpp:408] pool7 -> pool7
I1020 02:08:46.661700  8954 net.cpp:150] Setting up pool7
I1020 02:08:46.661705  8954 net.cpp:157] Top shape: 100 100 1 1 (10000)
I1020 02:08:46.661708  8954 net.cpp:165] Memory required for data: 292014000
I1020 02:08:46.661710  8954 layer_factory.hpp:77] Creating layer score
I1020 02:08:46.661716  8954 net.cpp:100] Creating Layer score
I1020 02:08:46.661720  8954 net.cpp:434] score <- pool7
I1020 02:08:46.661727  8954 net.cpp:408] score -> score
I1020 02:08:46.661820  8954 net.cpp:150] Setting up score
I1020 02:08:46.661825  8954 net.cpp:157] Top shape: 100 10 (1000)
I1020 02:08:46.661826  8954 net.cpp:165] Memory required for data: 292018000
I1020 02:08:46.661833  8954 layer_factory.hpp:77] Creating layer score_score_0_split
I1020 02:08:46.661839  8954 net.cpp:100] Creating Layer score_score_0_split
I1020 02:08:46.661844  8954 net.cpp:434] score_score_0_split <- score
I1020 02:08:46.661849  8954 net.cpp:408] score_score_0_split -> score_score_0_split_0
I1020 02:08:46.661855  8954 net.cpp:408] score_score_0_split -> score_score_0_split_1
I1020 02:08:46.661886  8954 net.cpp:150] Setting up score_score_0_split
I1020 02:08:46.661891  8954 net.cpp:157] Top shape: 100 10 (1000)
I1020 02:08:46.661893  8954 net.cpp:157] Top shape: 100 10 (1000)
I1020 02:08:46.661896  8954 net.cpp:165] Memory required for data: 292026000
I1020 02:08:46.661900  8954 layer_factory.hpp:77] Creating layer accuracy
I1020 02:08:46.661906  8954 net.cpp:100] Creating Layer accuracy
I1020 02:08:46.661909  8954 net.cpp:434] accuracy <- score_score_0_split_0
I1020 02:08:46.661916  8954 net.cpp:434] accuracy <- label_data_1_split_0
I1020 02:08:46.661921  8954 net.cpp:408] accuracy -> accuracy
…
