…
type: "AdaDelta"
I1020 00:57:58.369452  8382 solver.cpp:81] Creating training net from train_net file: /home/adam/Honours/Honours-Project/cifar-10_pooling/max/relu/poolcnn_relu_train.prototxt
I1020 00:57:58.369796  8382 net.cpp:58] Initializing net from parameters: 
state {
  phase: TRAIN
  level: 0
  stage: ""
}
layer {
  name: "data"
  type: "Data"
  top: "data"
  top: "label"
  transform_param {
    mean_file: "mean.binaryproto"
  }
  data_param {
    source: "../../../../data/cifar-10/cifar10_train_lmdb"
    batch_size: 64
    backend: LMDB
  }
}
layer {
  name: "conv1"
  type: "Convolution"
  bottom: "data"
  top: "conv1"
  convolution_param {
    num_output: 192
    kernel_size: 5
    weight_filler {
      type: "xavier"
    }
  }
}
layer {
  name: "relu1"
  type: "ReLU"
  bottom: "conv1"
  top: "relu1"
}
layer {
  name: "drop1"
  type: "Dropout"
  bottom: "relu1"
  top: "drop1"
  dropout_param {
    dropout_ratio: 0
  }
}
layer {
  name: "pool1"
  type: "Pooling"
  bottom: "drop1"
  top: "pool1"
  pooling_param {
    pool: MAX
    kernel_size: 2
    stride: 2
  }
}
layer {
  name: "conv2"
  type: "Convolution"
  bottom: "pool1"
  top: "conv2"
  convolution_param {
    num_output: 192
    kernel_size: 1
    weight_filler {
      type: "xavier"
    }
  }
}
layer {
  name: "relu2"
  type: "ReLU"
  bottom: "conv2"
  top: "relu2"
}
layer {
  name: "conv3"
  type: "Convolution"
  bottom: "relu2"
  top: "conv3"
  convolution_param {
    num_output: 240
    kernel_size: 3
    weight_filler {
      type: "xavier"
    }
  }
}
layer {
  name: "relu3"
  type: "ReLU"
  bottom: "conv3"
  top: "relu3"
}
layer {
  name: "drop2"
  type: "Dropout"
  bottom: "relu3"
  top: "drop2"
  dropout_param {
    dropout_ratio: 0.1
  }
}
layer {
  name: "pool2"
  type: "Pooling"
  bottom: "drop2"
  top: "pool2"
  pooling_param {
    pool: MAX
    kernel_size: 2
    stride: 2
  }
}
layer {
  name: "conv4"
  type: "Convolution"
  bottom: "pool2"
  top: "conv4"
  convolution_param {
    num_output: 240
    kernel_size: 1
    weight_filler {
      type: "xavier"
    }
  }
}
layer {
  name: "relu4"
  type: "ReLU"
  bottom: "conv4"
  top: "relu4"
}
layer {
  name: "conv5"
  type: "Convolution"
  bottom: "relu4"
  top: "conv5"
  convolution_param {
    num_output: 260
    kernel_size: 2
    weight_filler {
      type: "xavier"
    }
  }
}
layer {
  name: "relu5"
  type: "ReLU"
  bottom: "conv5"
  top: "relu5"
}
layer {
  name: "drop3"
  type: "Dropout"
  bottom: "relu5"
  top: "drop3"
  dropout_param {
    dropout_ratio: 0.2
  }
}
layer {
  name: "pool3"
  type: "Pooling"
  bottom: "drop3"
  top: "pool3"
  pooling_param {
    pool: MAX
    kernel_size: 2
    stride: 2
  }
}
layer {
  name: "conv6"
  type: "Convolution"
  bottom: "pool3"
  top: "conv6"
  convolution_param {
    num_output: 260
    kernel_size: 1
    weight_filler {
      type: "xavier"
    }
  }
}
layer {
  name: "relu6"
  type: "ReLU"
  bottom: "conv6"
  top: "relu6"
}
layer {
  name: "conv7"
  type: "Convolution"
  bottom: "relu6"
  top: "conv7"
  convolution_param {
    num_output: 280
    kernel_size: 2
    weight_filler {
      type: "xavier"
    }
  }
}
layer {
  name: "relu7"
  type: "ReLU"
  bottom: "conv7"
  top: "relu7"
}
layer {
  name: "drop4"
  type: "Dropout"
  bottom: "relu7"
  top: "drop4"
  dropout_param {
    dropout_ratio: 0.3
  }
}
layer {
  name: "pool4"
  type: "Pooling"
  bottom: "drop4"
  top: "pool4"
  pooling_param {
    pool: MAX
    kernel_size: 2
    stride: 2
  }
}
layer {
  name: "conv8"
  type: "Convolution"
  bottom: "pool4"
  top: "conv8"
  convolution_param {
    num_output: 280
    kernel_size: 1
    weight_filler {
      type: "xavier"
    }
  }
}
layer {
  name: "relu8"
  type: "ReLU"
  bottom: "conv8"
  top: "relu8"
}
layer {
  name: "drop5"
  type: "Dropout"
  bottom: "relu8"
  top: "drop5"
  dropout_param {
    dropout_ratio: 0.4
  }
}
layer {
  name: "pool5"
  type: "Pooling"
  bottom: "drop5"
  top: "pool5"
  pooling_param {
    pool: MAX
    kernel_size: 2
    stride: 2
  }
}
layer {
  name: "conv10"
  type: "Convolution"
  bottom: "pool5"
  top: "conv10"
  convolution_param {
    num_output: 300
    kernel_size: 1
    weight_filler {
      type: "xavier"
    }
  }
}
layer {
  name: "relu10"
  type: "ReLU"
  bottom: "conv10"
  top: "relu10"
}
layer {
  name: "drop6"
  type: "Dropout"
  bottom: "relu10"
  top: "drop6"
  dropout_param {
    dropout_ratio: 0.5
  }
}
layer {
  name: "pool6"
  type: "Pooling"
  bottom: "drop6"
  top: "pool6"
  pooling_param {
    pool: MAX
    kernel_size: 2
    stride: 2
  }
}
layer {
  name: "conv11"
  type: "Convolution"
  bottom: "pool6"
  top: "conv11"
  convolution_param {
    num_output: 100
    kernel_size: 1
    weight_filler {
      type: "xavier"
    }
  }
}
layer {
  name: "relu11"
  type: "ReLU"
  bottom: "conv11"
  top: "relu11"
}
layer {
  name: "drop7"
  type: "Dropout"
  bottom: "relu11"
  top: "drop7"
  dropout_param {
    dropout_ratio: 0
  }
}
layer {
  name: "pool7"
  type: "Pooling"
  bottom: "drop7"
  top: "pool7"
  pooling_param {
    pool: MAX
    kernel_size: 2
    stride: 2
  }
}
layer {
  name: "score"
  type: "InnerProduct"
  bottom: "pool7"
  top: "score"
  inner_product_param {
    num_output: 10
    weight_filler {
      type: "gaussian"
    }
  }
}
layer {
  name: "accuracy"
  type: "Accuracy"
  bottom: "score"
  bottom: "label"
  top: "accuracy"
}
layer {
  name: "loss"
  type: "SoftmaxWithLoss"
  bottom: "score"
  bottom: "label"
  top: "loss"
}
I1020 00:57:58.369901  8382 layer_factory.hpp:77] Creating layer data
I1020 00:57:58.370280  8382 net.cpp:100] Creating Layer data
I1020 00:57:58.370287  8382 net.cpp:408] data -> data
I1020 00:57:58.370302  8382 net.cpp:408] data -> label
I1020 00:57:58.370328  8382 data_transformer.cpp:25] Loading mean file from: mean.binaryproto
I1020 00:57:58.370900  8387 db_lmdb.cpp:35] Opened lmdb ../../../../data/cifar-10/cifar10_train_lmdb
I1020 00:57:58.376162  8382 data_layer.cpp:41] output data size: 64,3,32,32
I1020 00:57:58.377755  8382 net.cpp:150] Setting up data
I1020 00:57:58.377774  8382 net.cpp:157] Top shape: 64 3 32 32 (196608)
I1020 00:57:58.377776  8382 net.cpp:157] Top shape: 64 (64)
I1020 00:57:58.377779  8382 net.cpp:165] Memory required for data: 786688
I1020 00:57:58.377786  8382 layer_factory.hpp:77] Creating layer label_data_1_split
I1020 00:57:58.377796  8382 net.cpp:100] Creating Layer label_data_1_split
I1020 00:57:58.377800  8382 net.cpp:434] label_data_1_split <- label
I1020 00:57:58.377811  8382 net.cpp:408] label_data_1_split -> label_data_1_split_0
I1020 00:57:58.377820  8382 net.cpp:408] label_data_1_split -> label_data_1_split_1
I1020 00:57:58.377862  8382 net.cpp:150] Setting up label_data_1_split
I1020 00:57:58.377866  8382 net.cpp:157] Top shape: 64 (64)
I1020 00:57:58.377868  8382 net.cpp:157] Top shape: 64 (64)
I1020 00:57:58.377871  8382 net.cpp:165] Memory required for data: 787200
I1020 00:57:58.377872  8382 layer_factory.hpp:77] Creating layer conv1
I1020 00:57:58.377884  8382 net.cpp:100] Creating Layer conv1
I1020 00:57:58.377887  8382 net.cpp:434] conv1 <- data
I1020 00:57:58.377889  8382 net.cpp:408] conv1 -> conv1
I1020 00:57:58.499677  8382 net.cpp:150] Setting up conv1
I1020 00:57:58.499703  8382 net.cpp:157] Top shape: 64 192 28 28 (9633792)
I1020 00:57:58.499706  8382 net.cpp:165] Memory required for data: 39322368
I1020 00:57:58.499722  8382 layer_factory.hpp:77] Creating layer relu1
I1020 00:57:58.499732  8382 net.cpp:100] Creating Layer relu1
I1020 00:57:58.499734  8382 net.cpp:434] relu1 <- conv1
I1020 00:57:58.499758  8382 net.cpp:408] relu1 -> relu1
I1020 00:57:58.499886  8382 net.cpp:150] Setting up relu1
I1020 00:57:58.499892  8382 net.cpp:157] Top shape: 64 192 28 28 (9633792)
I1020 00:57:58.499894  8382 net.cpp:165] Memory required for data: 77857536
I1020 00:57:58.499896  8382 layer_factory.hpp:77] Creating layer drop1
I1020 00:57:58.499902  8382 net.cpp:100] Creating Layer drop1
I1020 00:57:58.499903  8382 net.cpp:434] drop1 <- relu1
I1020 00:57:58.499907  8382 net.cpp:408] drop1 -> drop1
I1020 00:57:58.499929  8382 net.cpp:150] Setting up drop1
I1020 00:57:58.499933  8382 net.cpp:157] Top shape: 64 192 28 28 (9633792)
I1020 00:57:58.499935  8382 net.cpp:165] Memory required for data: 116392704
I1020 00:57:58.499938  8382 layer_factory.hpp:77] Creating layer pool1
I1020 00:57:58.499941  8382 net.cpp:100] Creating Layer pool1
I1020 00:57:58.499943  8382 net.cpp:434] pool1 <- drop1
I1020 00:57:58.499946  8382 net.cpp:408] pool1 -> pool1
I1020 00:57:58.499974  8382 net.cpp:150] Setting up pool1
I1020 00:57:58.499979  8382 net.cpp:157] Top shape: 64 192 14 14 (2408448)
I1020 00:57:58.499980  8382 net.cpp:165] Memory required for data: 126026496
I1020 00:57:58.499982  8382 layer_factory.hpp:77] Creating layer conv2
I1020 00:57:58.499989  8382 net.cpp:100] Creating Layer conv2
I1020 00:57:58.499989  8382 net.cpp:434] conv2 <- pool1
I1020 00:57:58.499992  8382 net.cpp:408] conv2 -> conv2
I1020 00:57:58.501044  8382 net.cpp:150] Setting up conv2
I1020 00:57:58.501054  8382 net.cpp:157] Top shape: 64 192 14 14 (2408448)
I1020 00:57:58.501055  8382 net.cpp:165] Memory required for data: 135660288
I1020 00:57:58.501060  8382 layer_factory.hpp:77] Creating layer relu2
I1020 00:57:58.501065  8382 net.cpp:100] Creating Layer relu2
I1020 00:57:58.501066  8382 net.cpp:434] relu2 <- conv2
I1020 00:57:58.501070  8382 net.cpp:408] relu2 -> relu2
I1020 00:57:58.501186  8382 net.cpp:150] Setting up relu2
I1020 00:57:58.501193  8382 net.cpp:157] Top shape: 64 192 14 14 (2408448)
I1020 00:57:58.501194  8382 net.cpp:165] Memory required for data: 145294080
I1020 00:57:58.501195  8382 layer_factory.hpp:77] Creating layer conv3
I1020 00:57:58.501200  8382 net.cpp:100] Creating Layer conv3
I1020 00:57:58.501204  8382 net.cpp:434] conv3 <- relu2
I1020 00:57:58.501206  8382 net.cpp:408] conv3 -> conv3
I1020 00:57:58.503602  8382 net.cpp:150] Setting up conv3
I1020 00:57:58.503609  8382 net.cpp:157] Top shape: 64 240 12 12 (2211840)
I1020 00:57:58.503612  8382 net.cpp:165] Memory required for data: 154141440
I1020 00:57:58.503618  8382 layer_factory.hpp:77] Creating layer relu3
I1020 00:57:58.503620  8382 net.cpp:100] Creating Layer relu3
I1020 00:57:58.503623  8382 net.cpp:434] relu3 <- conv3
I1020 00:57:58.503625  8382 net.cpp:408] relu3 -> relu3
I1020 00:57:58.503806  8382 net.cpp:150] Setting up relu3
I1020 00:57:58.503813  8382 net.cpp:157] Top shape: 64 240 12 12 (2211840)
I1020 00:57:58.503815  8382 net.cpp:165] Memory required for data: 162988800
I1020 00:57:58.503818  8382 layer_factory.hpp:77] Creating layer drop2
I1020 00:57:58.503821  8382 net.cpp:100] Creating Layer drop2
I1020 00:57:58.503823  8382 net.cpp:434] drop2 <- relu3
I1020 00:57:58.503825  8382 net.cpp:408] drop2 -> drop2
I1020 00:57:58.503846  8382 net.cpp:150] Setting up drop2
I1020 00:57:58.503849  8382 net.cpp:157] Top shape: 64 240 12 12 (2211840)
I1020 00:57:58.503852  8382 net.cpp:165] Memory required for data: 171836160
I1020 00:57:58.503854  8382 layer_factory.hpp:77] Creating layer pool2
I1020 00:57:58.503859  8382 net.cpp:100] Creating Layer pool2
I1020 00:57:58.503860  8382 net.cpp:434] pool2 <- drop2
I1020 00:57:58.503864  8382 net.cpp:408] pool2 -> pool2
I1020 00:57:58.503882  8382 net.cpp:150] Setting up pool2
I1020 00:57:58.503886  8382 net.cpp:157] Top shape: 64 240 6 6 (552960)
I1020 00:57:58.503888  8382 net.cpp:165] Memory required for data: 174048000
I1020 00:57:58.503890  8382 layer_factory.hpp:77] Creating layer conv4
I1020 00:57:58.503893  8382 net.cpp:100] Creating Layer conv4
I1020 00:57:58.503895  8382 net.cpp:434] conv4 <- pool2
I1020 00:57:58.503907  8382 net.cpp:408] conv4 -> conv4
I1020 00:57:58.504709  8382 net.cpp:150] Setting up conv4
I1020 00:57:58.504716  8382 net.cpp:157] Top shape: 64 240 6 6 (552960)
I1020 00:57:58.504719  8382 net.cpp:165] Memory required for data: 176259840
I1020 00:57:58.504722  8382 layer_factory.hpp:77] Creating layer relu4
I1020 00:57:58.504725  8382 net.cpp:100] Creating Layer relu4
I1020 00:57:58.504727  8382 net.cpp:434] relu4 <- conv4
I1020 00:57:58.504731  8382 net.cpp:408] relu4 -> relu4
I1020 00:57:58.504834  8382 net.cpp:150] Setting up relu4
I1020 00:57:58.504839  8382 net.cpp:157] Top shape: 64 240 6 6 (552960)
I1020 00:57:58.504842  8382 net.cpp:165] Memory required for data: 178471680
I1020 00:57:58.504843  8382 layer_factory.hpp:77] Creating layer conv5
I1020 00:57:58.504848  8382 net.cpp:100] Creating Layer conv5
I1020 00:57:58.504849  8382 net.cpp:434] conv5 <- relu4
I1020 00:57:58.504853  8382 net.cpp:408] conv5 -> conv5
I1020 00:57:58.506569  8382 net.cpp:150] Setting up conv5
I1020 00:57:58.506577  8382 net.cpp:157] Top shape: 64 260 5 5 (416000)
I1020 00:57:58.506579  8382 net.cpp:165] Memory required for data: 180135680
I1020 00:57:58.506584  8382 layer_factory.hpp:77] Creating layer relu5
I1020 00:57:58.506588  8382 net.cpp:100] Creating Layer relu5
I1020 00:57:58.506590  8382 net.cpp:434] relu5 <- conv5
I1020 00:57:58.506593  8382 net.cpp:408] relu5 -> relu5
I1020 00:57:58.506695  8382 net.cpp:150] Setting up relu5
I1020 00:57:58.506701  8382 net.cpp:157] Top shape: 64 260 5 5 (416000)
I1020 00:57:58.506702  8382 net.cpp:165] Memory required for data: 181799680
I1020 00:57:58.506705  8382 layer_factory.hpp:77] Creating layer drop3
I1020 00:57:58.506708  8382 net.cpp:100] Creating Layer drop3
I1020 00:57:58.506711  8382 net.cpp:434] drop3 <- relu5
I1020 00:57:58.506714  8382 net.cpp:408] drop3 -> drop3
I1020 00:57:58.506734  8382 net.cpp:150] Setting up drop3
I1020 00:57:58.506737  8382 net.cpp:157] Top shape: 64 260 5 5 (416000)
I1020 00:57:58.506741  8382 net.cpp:165] Memory required for data: 183463680
I1020 00:57:58.506742  8382 layer_factory.hpp:77] Creating layer pool3
I1020 00:57:58.506745  8382 net.cpp:100] Creating Layer pool3
I1020 00:57:58.506747  8382 net.cpp:434] pool3 <- drop3
I1020 00:57:58.506750  8382 net.cpp:408] pool3 -> pool3
I1020 00:57:58.506769  8382 net.cpp:150] Setting up pool3
I1020 00:57:58.506773  8382 net.cpp:157] Top shape: 64 260 3 3 (149760)
I1020 00:57:58.506774  8382 net.cpp:165] Memory required for data: 184062720
I1020 00:57:58.506777  8382 layer_factory.hpp:77] Creating layer conv6
I1020 00:57:58.506780  8382 net.cpp:100] Creating Layer conv6
I1020 00:57:58.506783  8382 net.cpp:434] conv6 <- pool3
I1020 00:57:58.506785  8382 net.cpp:408] conv6 -> conv6
I1020 00:57:58.507865  8382 net.cpp:150] Setting up conv6
I1020 00:57:58.507872  8382 net.cpp:157] Top shape: 64 260 3 3 (149760)
I1020 00:57:58.507875  8382 net.cpp:165] Memory required for data: 184661760
I1020 00:57:58.507879  8382 layer_factory.hpp:77] Creating layer relu6
I1020 00:57:58.507884  8382 net.cpp:100] Creating Layer relu6
I1020 00:57:58.507885  8382 net.cpp:434] relu6 <- conv6
I1020 00:57:58.507889  8382 net.cpp:408] relu6 -> relu6
I1020 00:57:58.508065  8382 net.cpp:150] Setting up relu6
I1020 00:57:58.508072  8382 net.cpp:157] Top shape: 64 260 3 3 (149760)
I1020 00:57:58.508074  8382 net.cpp:165] Memory required for data: 185260800
I1020 00:57:58.508076  8382 layer_factory.hpp:77] Creating layer conv7
I1020 00:57:58.508081  8382 net.cpp:100] Creating Layer conv7
I1020 00:57:58.508085  8382 net.cpp:434] conv7 <- relu6
I1020 00:57:58.508087  8382 net.cpp:408] conv7 -> conv7
I1020 00:57:58.509976  8382 net.cpp:150] Setting up conv7
I1020 00:57:58.509984  8382 net.cpp:157] Top shape: 64 280 2 2 (71680)
I1020 00:57:58.509987  8382 net.cpp:165] Memory required for data: 185547520
I1020 00:57:58.509991  8382 layer_factory.hpp:77] Creating layer relu7
I1020 00:57:58.509995  8382 net.cpp:100] Creating Layer relu7
I1020 00:57:58.509999  8382 net.cpp:434] relu7 <- conv7
I1020 00:57:58.510001  8382 net.cpp:408] relu7 -> relu7
I1020 00:57:58.510114  8382 net.cpp:150] Setting up relu7
I1020 00:57:58.510119  8382 net.cpp:157] Top shape: 64 280 2 2 (71680)
I1020 00:57:58.510121  8382 net.cpp:165] Memory required for data: 185834240
I1020 00:57:58.510124  8382 layer_factory.hpp:77] Creating layer drop4
I1020 00:57:58.510128  8382 net.cpp:100] Creating Layer drop4
I1020 00:57:58.510130  8382 net.cpp:434] drop4 <- relu7
I1020 00:57:58.510133  8382 net.cpp:408] drop4 -> drop4
I1020 00:57:58.510154  8382 net.cpp:150] Setting up drop4
I1020 00:57:58.510157  8382 net.cpp:157] Top shape: 64 280 2 2 (71680)
I1020 00:57:58.510159  8382 net.cpp:165] Memory required for data: 186120960
I1020 00:57:58.510160  8382 layer_factory.hpp:77] Creating layer pool4
I1020 00:57:58.510164  8382 net.cpp:100] Creating Layer pool4
I1020 00:57:58.510166  8382 net.cpp:434] pool4 <- drop4
I1020 00:57:58.510169  8382 net.cpp:408] pool4 -> pool4
I1020 00:57:58.510190  8382 net.cpp:150] Setting up pool4
I1020 00:57:58.510193  8382 net.cpp:157] Top shape: 64 280 1 1 (17920)
I1020 00:57:58.510195  8382 net.cpp:165] Memory required for data: 186192640
I1020 00:57:58.510196  8382 layer_factory.hpp:77] Creating layer conv8
I1020 00:57:58.510200  8382 net.cpp:100] Creating Layer conv8
I1020 00:57:58.510203  8382 net.cpp:434] conv8 <- pool4
I1020 00:57:58.510205  8382 net.cpp:408] conv8 -> conv8
I1020 00:57:58.511176  8382 net.cpp:150] Setting up conv8
I1020 00:57:58.511185  8382 net.cpp:157] Top shape: 64 280 1 1 (17920)
I1020 00:57:58.511188  8382 net.cpp:165] Memory required for data: 186264320
I1020 00:57:58.511193  8382 layer_factory.hpp:77] Creating layer relu8
I1020 00:57:58.511196  8382 net.cpp:100] Creating Layer relu8
I1020 00:57:58.511198  8382 net.cpp:434] relu8 <- conv8
I1020 00:57:58.511203  8382 net.cpp:408] relu8 -> relu8
I1020 00:57:58.511312  8382 net.cpp:150] Setting up relu8
I1020 00:57:58.511318  8382 net.cpp:157] Top shape: 64 280 1 1 (17920)
I1020 00:57:58.511319  8382 net.cpp:165] Memory required for data: 186336000
I1020 00:57:58.511322  8382 layer_factory.hpp:77] Creating layer drop5
I1020 00:57:58.511325  8382 net.cpp:100] Creating Layer drop5
I1020 00:57:58.511327  8382 net.cpp:434] drop5 <- relu8
I1020 00:57:58.511330  8382 net.cpp:408] drop5 -> drop5
I1020 00:57:58.511353  8382 net.cpp:150] Setting up drop5
I1020 00:57:58.511356  8382 net.cpp:157] Top shape: 64 280 1 1 (17920)
I1020 00:57:58.511358  8382 net.cpp:165] Memory required for data: 186407680
I1020 00:57:58.511359  8382 layer_factory.hpp:77] Creating layer pool5
I1020 00:57:58.511363  8382 net.cpp:100] Creating Layer pool5
I1020 00:57:58.511365  8382 net.cpp:434] pool5 <- drop5
I1020 00:57:58.511368  8382 net.cpp:408] pool5 -> pool5
I1020 00:57:58.511389  8382 net.cpp:150] Setting up pool5
I1020 00:57:58.511392  8382 net.cpp:157] Top shape: 64 280 1 1 (17920)
I1020 00:57:58.511394  8382 net.cpp:165] Memory required for data: 186479360
I1020 00:57:58.511395  8382 layer_factory.hpp:77] Creating layer conv10
I1020 00:57:58.511399  8382 net.cpp:100] Creating Layer conv10
I1020 00:57:58.511402  8382 net.cpp:434] conv10 <- pool5
I1020 00:57:58.511404  8382 net.cpp:408] conv10 -> conv10
I1020 00:57:58.512436  8382 net.cpp:150] Setting up conv10
I1020 00:57:58.512445  8382 net.cpp:157] Top shape: 64 300 1 1 (19200)
I1020 00:57:58.512447  8382 net.cpp:165] Memory required for data: 186556160
I1020 00:57:58.512454  8382 layer_factory.hpp:77] Creating layer relu10
I1020 00:57:58.512459  8382 net.cpp:100] Creating Layer relu10
I1020 00:57:58.512461  8382 net.cpp:434] relu10 <- conv10
I1020 00:57:58.512465  8382 net.cpp:408] relu10 -> relu10
I1020 00:57:58.512656  8382 net.cpp:150] Setting up relu10
I1020 00:57:58.512665  8382 net.cpp:157] Top shape: 64 300 1 1 (19200)
I1020 00:57:58.512666  8382 net.cpp:165] Memory required for data: 186632960
I1020 00:57:58.512668  8382 layer_factory.hpp:77] Creating layer drop6
I1020 00:57:58.512672  8382 net.cpp:100] Creating Layer drop6
I1020 00:57:58.512673  8382 net.cpp:434] drop6 <- relu10
I1020 00:57:58.512676  8382 net.cpp:408] drop6 -> drop6
I1020 00:57:58.512712  8382 net.cpp:150] Setting up drop6
I1020 00:57:58.512717  8382 net.cpp:157] Top shape: 64 300 1 1 (19200)
I1020 00:57:58.512718  8382 net.cpp:165] Memory required for data: 186709760
I1020 00:57:58.512720  8382 layer_factory.hpp:77] Creating layer pool6
I1020 00:57:58.512723  8382 net.cpp:100] Creating Layer pool6
I1020 00:57:58.512727  8382 net.cpp:434] pool6 <- drop6
I1020 00:57:58.512729  8382 net.cpp:408] pool6 -> pool6
I1020 00:57:58.512753  8382 net.cpp:150] Setting up pool6
I1020 00:57:58.512756  8382 net.cpp:157] Top shape: 64 300 1 1 (19200)
I1020 00:57:58.512758  8382 net.cpp:165] Memory required for data: 186786560
I1020 00:57:58.512759  8382 layer_factory.hpp:77] Creating layer conv11
I1020 00:57:58.512768  8382 net.cpp:100] Creating Layer conv11
I1020 00:57:58.512769  8382 net.cpp:434] conv11 <- pool6
I1020 00:57:58.512773  8382 net.cpp:408] conv11 -> conv11
I1020 00:57:58.513501  8382 net.cpp:150] Setting up conv11
I1020 00:57:58.513509  8382 net.cpp:157] Top shape: 64 100 1 1 (6400)
I1020 00:57:58.513512  8382 net.cpp:165] Memory required for data: 186812160
I1020 00:57:58.513515  8382 layer_factory.hpp:77] Creating layer relu11
I1020 00:57:58.513519  8382 net.cpp:100] Creating Layer relu11
I1020 00:57:58.513521  8382 net.cpp:434] relu11 <- conv11
I1020 00:57:58.513525  8382 net.cpp:408] relu11 -> relu11
I1020 00:57:58.513639  8382 net.cpp:150] Setting up relu11
I1020 00:57:58.513645  8382 net.cpp:157] Top shape: 64 100 1 1 (6400)
I1020 00:57:58.513648  8382 net.cpp:165] Memory required for data: 186837760
I1020 00:57:58.513649  8382 layer_factory.hpp:77] Creating layer drop7
I1020 00:57:58.513653  8382 net.cpp:100] Creating Layer drop7
I1020 00:57:58.513654  8382 net.cpp:434] drop7 <- relu11
I1020 00:57:58.513659  8382 net.cpp:408] drop7 -> drop7
I1020 00:57:58.513681  8382 net.cpp:150] Setting up drop7
I1020 00:57:58.513686  8382 net.cpp:157] Top shape: 64 100 1 1 (6400)
I1020 00:57:58.513689  8382 net.cpp:165] Memory required for data: 186863360
I1020 00:57:58.513689  8382 layer_factory.hpp:77] Creating layer pool7
I1020 00:57:58.513692  8382 net.cpp:100] Creating Layer pool7
I1020 00:57:58.513695  8382 net.cpp:434] pool7 <- drop7
I1020 00:57:58.513697  8382 net.cpp:408] pool7 -> pool7
I1020 00:57:58.513720  8382 net.cpp:150] Setting up pool7
I1020 00:57:58.513723  8382 net.cpp:157] Top shape: 64 100 1 1 (6400)
I1020 00:57:58.513725  8382 net.cpp:165] Memory required for data: 186888960
I1020 00:57:58.513726  8382 layer_factory.hpp:77] Creating layer score
I1020 00:57:58.513731  8382 net.cpp:100] Creating Layer score
I1020 00:57:58.513733  8382 net.cpp:434] score <- pool7
I1020 00:57:58.513736  8382 net.cpp:408] score -> score
I1020 00:57:58.513833  8382 net.cpp:150] Setting up score
I1020 00:57:58.513837  8382 net.cpp:157] Top shape: 64 10 (640)
I1020 00:57:58.513839  8382 net.cpp:165] Memory required for data: 186891520
I1020 00:57:58.513842  8382 layer_factory.hpp:77] Creating layer score_score_0_split
I1020 00:57:58.513846  8382 net.cpp:100] Creating Layer score_score_0_split
I1020 00:57:58.513849  8382 net.cpp:434] score_score_0_split <- score
I1020 00:57:58.513851  8382 net.cpp:408] score_score_0_split -> score_score_0_split_0
I1020 00:57:58.513855  8382 net.cpp:408] score_score_0_split -> score_score_0_split_1
I1020 00:57:58.513878  8382 net.cpp:150] Setting up score_score_0_split
I1020 00:57:58.513882  8382 net.cpp:157] Top shape: 64 10 (640)
I1020 00:57:58.513885  8382 net.cpp:157] Top shape: 64 10 (640)
I1020 00:57:58.513886  8382 net.cpp:165] Memory required for data: 186896640
I1020 00:57:58.513888  8382 layer_factory.hpp:77] Creating layer accuracy
I1020 00:57:58.513892  8382 net.cpp:100] Creating Layer accuracy
I1020 00:57:58.513895  8382 net.cpp:434] accuracy <- score_score_0_split_0
I1020 00:57:58.513896  8382 net.cpp:434] accuracy <- label_data_1_split_0
I1020 00:57:58.513900  8382 net.cpp:408] accuracy -> accuracy
…
I1020 00:57:58.514315  8382 net.cpp:283] Network initialization done.
I1020 00:57:58.514497  8382 solver.cpp:181] Creating test net (#0) specified by test_net file: /home/adam/Honours/Honours-Project/cifar-10_pooling/max/relu/poolcnn_relu_test.prototxt
I1020 00:57:58.514613  8382 net.cpp:58] Initializing net from parameters: 
state {
  phase: TEST
}
layer {
  name: "data"
  type: "Data"
  top: "data"
  top: "label"
  transform_param {
    mean_file: "mean.binaryproto"
  }
  data_param {
    source: "../../../../data/cifar-10/cifar10_test_lmdb"
    batch_size: 100
    backend: LMDB
  }
}
layer {
  name: "conv1"
  type: "Convolution"
  bottom: "data"
  top: "conv1"
  convolution_param {
    num_output: 192
    kernel_size: 5
    weight_filler {
      type: "xavier"
    }
  }
}
layer {
  name: "relu1"
  type: "ReLU"
  bottom: "conv1"
  top: "relu1"
}
layer {
  name: "drop1"
  type: "Dropout"
  bottom: "relu1"
  top: "drop1"
  dropout_param {
    dropout_ratio: 0
  }
}
layer {
  name: "pool1"
  type: "Pooling"
  bottom: "drop1"
  top: "pool1"
  pooling_param {
    pool: MAX
    kernel_size: 2
    stride: 2
  }
}
layer {
  name: "conv2"
  type: "Convolution"
  bottom: "pool1"
  top: "conv2"
  convolution_param {
    num_output: 192
    kernel_size: 1
    weight_filler {
      type: "xavier"
    }
  }
}
layer {
  name: "relu2"
  type: "ReLU"
  bottom: "conv2"
  top: "relu2"
}
layer {
  name: "conv3"
  type: "Convolution"
  bottom: "relu2"
  top: "conv3"
  convolution_param {
    num_output: 240
    kernel_size: 3
    weight_filler {
      type: "xavier"
    }
  }
}
layer {
  name: "relu3"
  type: "ReLU"
  bottom: "conv3"
  top: "relu3"
}
layer {
  name: "drop2"
  type: "Dropout"
  bottom: "relu3"
  top: "drop2"
  dropout_param {
    dropout_ratio: 0.1
  }
}
layer {
  name: "pool2"
  type: "Pooling"
  bottom: "drop2"
  top: "pool2"
  pooling_param {
    pool: MAX
    kernel_size: 2
    stride: 2
  }
}
layer {
  name: "conv4"
  type: "Convolution"
  bottom: "pool2"
  top: "conv4"
  convolution_param {
    num_output: 240
    kernel_size: 1
    weight_filler {
      type: "xavier"
    }
  }
}
layer {
  name: "relu4"
  type: "ReLU"
  bottom: "conv4"
  top: "relu4"
}
layer {
  name: "conv5"
  type: "Convolution"
  bottom: "relu4"
  top: "conv5"
  convolution_param {
    num_output: 260
    kernel_size: 2
    weight_filler {
      type: "xavier"
    }
  }
}
layer {
  name: "relu5"
  type: "ReLU"
  bottom: "conv5"
  top: "relu5"
}
layer {
  name: "drop3"
  type: "Dropout"
  bottom: "relu5"
  top: "drop3"
  dropout_param {
    dropout_ratio: 0.2
  }
}
layer {
  name: "pool3"
  type: "Pooling"
  bottom: "drop3"
  top: "pool3"
  pooling_param {
    pool: MAX
    kernel_size: 2
    stride: 2
  }
}
layer {
  name: "conv6"
  type: "Convolution"
  bottom: "pool3"
  top: "conv6"
  convolution_param {
    num_output: 260
    kernel_size: 1
    weight_filler {
      type: "xavier"
    }
  }
}
layer {
  name: "relu6"
  type: "ReLU"
  bottom: "conv6"
  top: "relu6"
}
layer {
  name: "conv7"
  type: "Convolution"
  bottom: "relu6"
  top: "conv7"
  convolution_param {
    num_output: 280
    kernel_size: 2
    weight_filler {
      type: "xavier"
    }
  }
}
layer {
  name: "relu7"
  type: "ReLU"
  bottom: "conv7"
  top: "relu7"
}
layer {
  name: "drop4"
  type: "Dropout"
  bottom: "relu7"
  top: "drop4"
  dropout_param {
    dropout_ratio: 0.3
  }
}
layer {
  name: "pool4"
  type: "Pooling"
  bottom: "drop4"
  top: "pool4"
  pooling_param {
    pool: MAX
    kernel_size: 2
    stride: 2
  }
}
layer {
  name: "conv8"
  type: "Convolution"
  bottom: "pool4"
  top: "conv8"
  convolution_param {
    num_output: 280
    kernel_size: 1
    weight_filler {
      type: "xavier"
    }
  }
}
layer {
  name: "relu8"
  type: "ReLU"
  bottom: "conv8"
  top: "relu8"
}
layer {
  name: "drop5"
  type: "Dropout"
  bottom: "relu8"
  top: "drop5"
  dropout_param {
    dropout_ratio: 0.4
  }
}
layer {
  name: "pool5"
  type: "Pooling"
  bottom: "drop5"
  top: "pool5"
  pooling_param {
    pool: MAX
    kernel_size: 2
    stride: 2
  }
}
layer {
  name: "conv10"
  type: "Convolution"
  bottom: "pool5"
  top: "conv10"
  convolution_param {
    num_output: 300
    kernel_size: 1
    weight_filler {
      type: "xavier"
    }
  }
}
layer {
  name: "relu10"
  type: "ReLU"
  bottom: "conv10"
  top: "relu10"
}
layer {
  name: "drop6"
  type: "Dropout"
  bottom: "relu10"
  top: "drop6"
  dropout_param {
    dropout_ratio: 0.5
  }
}
layer {
  name: "pool6"
  type: "Pooling"
  bottom: "drop6"
  top: "pool6"
  pooling_param {
    pool: MAX
    kernel_size: 2
    stride: 2
  }
}
layer {
  name: "conv11"
  type: "Convolution"
  bottom: "pool6"
  top: "conv11"
  convolution_param {
    num_output: 100
    kernel_size: 1
    weight_filler {
      type: "xavier"
    }
  }
}
layer {
  name: "relu11"
  type: "ReLU"
  bottom: "conv11"
  top: "relu11"
}
layer {
  name: "drop7"
  type: "Dropout"
  bottom: "relu11"
  top: "drop7"
  dropout_param {
    dropout_ratio: 0
  }
}
layer {
  name: "pool7"
  type: "Pooling"
  bottom: "drop7"
  top: "pool7"
  pooling_param {
    pool: MAX
    kernel_size: 2
    stride: 2
  }
}
layer {
  name: "score"
  type: "InnerProduct"
  bottom: "pool7"
  top: "score"
  inner_product_param {
    num_output: 10
    weight_filler {
      type: "gaussian"
    }
  }
}
layer {
  name: "accuracy"
  type: "Accuracy"
  bottom: "score"
  bottom: "label"
  top: "accuracy"
}
layer {
  name: "loss"
  type: "SoftmaxWithLoss"
  bottom: "score"
  bottom: "label"
  top: "loss"
}
I1020 00:57:58.514688  8382 layer_factory.hpp:77] Creating layer data
I1020 00:57:58.514762  8382 net.cpp:100] Creating Layer data
I1020 00:57:58.514775  8382 net.cpp:408] data -> data
I1020 00:57:58.514781  8382 net.cpp:408] data -> label
I1020 00:57:58.514787  8382 data_transformer.cpp:25] Loading mean file from: mean.binaryproto
I1020 00:57:58.515362  8389 db_lmdb.cpp:35] Opened lmdb ../../../../data/cifar-10/cifar10_test_lmdb
I1020 00:57:58.515426  8382 data_layer.cpp:41] output data size: 100,3,32,32
I1020 00:57:58.517118  8382 net.cpp:150] Setting up data
I1020 00:57:58.517133  8382 net.cpp:157] Top shape: 100 3 32 32 (307200)
I1020 00:57:58.517135  8382 net.cpp:157] Top shape: 100 (100)
I1020 00:57:58.517138  8382 net.cpp:165] Memory required for data: 1229200
I1020 00:57:58.517140  8382 layer_factory.hpp:77] Creating layer label_data_1_split
I1020 00:57:58.517148  8382 net.cpp:100] Creating Layer label_data_1_split
I1020 00:57:58.517150  8382 net.cpp:434] label_data_1_split <- label
I1020 00:57:58.517153  8382 net.cpp:408] label_data_1_split -> label_data_1_split_0
I1020 00:57:58.517160  8382 net.cpp:408] label_data_1_split -> label_data_1_split_1
I1020 00:57:58.517208  8382 net.cpp:150] Setting up label_data_1_split
I1020 00:57:58.517212  8382 net.cpp:157] Top shape: 100 (100)
I1020 00:57:58.517215  8382 net.cpp:157] Top shape: 100 (100)
I1020 00:57:58.517216  8382 net.cpp:165] Memory required for data: 1230000
I1020 00:57:58.517217  8382 layer_factory.hpp:77] Creating layer conv1
I1020 00:57:58.517225  8382 net.cpp:100] Creating Layer conv1
I1020 00:57:58.517226  8382 net.cpp:434] conv1 <- data
I1020 00:57:58.517231  8382 net.cpp:408] conv1 -> conv1
I1020 00:57:58.518126  8382 net.cpp:150] Setting up conv1
I1020 00:57:58.518134  8382 net.cpp:157] Top shape: 100 192 28 28 (15052800)
I1020 00:57:58.518136  8382 net.cpp:165] Memory required for data: 61441200
I1020 00:57:58.518143  8382 layer_factory.hpp:77] Creating layer relu1
I1020 00:57:58.518147  8382 net.cpp:100] Creating Layer relu1
I1020 00:57:58.518149  8382 net.cpp:434] relu1 <- conv1
I1020 00:57:58.518152  8382 net.cpp:408] relu1 -> relu1
I1020 00:57:58.518275  8382 net.cpp:150] Setting up relu1
I1020 00:57:58.518280  8382 net.cpp:157] Top shape: 100 192 28 28 (15052800)
I1020 00:57:58.518282  8382 net.cpp:165] Memory required for data: 121652400
I1020 00:57:58.518285  8382 layer_factory.hpp:77] Creating layer drop1
I1020 00:57:58.518290  8382 net.cpp:100] Creating Layer drop1
I1020 00:57:58.518292  8382 net.cpp:434] drop1 <- relu1
I1020 00:57:58.518296  8382 net.cpp:408] drop1 -> drop1
I1020 00:57:58.518326  8382 net.cpp:150] Setting up drop1
I1020 00:57:58.518329  8382 net.cpp:157] Top shape: 100 192 28 28 (15052800)
I1020 00:57:58.518332  8382 net.cpp:165] Memory required for data: 181863600
I1020 00:57:58.518334  8382 layer_factory.hpp:77] Creating layer pool1
I1020 00:57:58.518347  8382 net.cpp:100] Creating Layer pool1
I1020 00:57:58.518353  8382 net.cpp:434] pool1 <- drop1
I1020 00:57:58.518357  8382 net.cpp:408] pool1 -> pool1
I1020 00:57:58.518381  8382 net.cpp:150] Setting up pool1
I1020 00:57:58.518385  8382 net.cpp:157] Top shape: 100 192 14 14 (3763200)
I1020 00:57:58.518388  8382 net.cpp:165] Memory required for data: 196916400
I1020 00:57:58.518389  8382 layer_factory.hpp:77] Creating layer conv2
I1020 00:57:58.518393  8382 net.cpp:100] Creating Layer conv2
I1020 00:57:58.518395  8382 net.cpp:434] conv2 <- pool1
I1020 00:57:58.518399  8382 net.cpp:408] conv2 -> conv2
I1020 00:57:58.519322  8382 net.cpp:150] Setting up conv2
I1020 00:57:58.519333  8382 net.cpp:157] Top shape: 100 192 14 14 (3763200)
I1020 00:57:58.519336  8382 net.cpp:165] Memory required for data: 211969200
I1020 00:57:58.519345  8382 layer_factory.hpp:77] Creating layer relu2
I1020 00:57:58.519351  8382 net.cpp:100] Creating Layer relu2
I1020 00:57:58.519356  8382 net.cpp:434] relu2 <- conv2
I1020 00:57:58.519361  8382 net.cpp:408] relu2 -> relu2
I1020 00:57:58.519493  8382 net.cpp:150] Setting up relu2
I1020 00:57:58.519502  8382 net.cpp:157] Top shape: 100 192 14 14 (3763200)
I1020 00:57:58.519505  8382 net.cpp:165] Memory required for data: 227022000
I1020 00:57:58.519508  8382 layer_factory.hpp:77] Creating layer conv3
I1020 00:57:58.519520  8382 net.cpp:100] Creating Layer conv3
I1020 00:57:58.519523  8382 net.cpp:434] conv3 <- relu2
I1020 00:57:58.519531  8382 net.cpp:408] conv3 -> conv3
I1020 00:57:58.522068  8382 net.cpp:150] Setting up conv3
I1020 00:57:58.522078  8382 net.cpp:157] Top shape: 100 240 12 12 (3456000)
I1020 00:57:58.522081  8382 net.cpp:165] Memory required for data: 240846000
I1020 00:57:58.522089  8382 layer_factory.hpp:77] Creating layer relu3
I1020 00:57:58.522095  8382 net.cpp:100] Creating Layer relu3
I1020 00:57:58.522099  8382 net.cpp:434] relu3 <- conv3
I1020 00:57:58.522106  8382 net.cpp:408] relu3 -> relu3
I1020 00:57:58.522312  8382 net.cpp:150] Setting up relu3
I1020 00:57:58.522320  8382 net.cpp:157] Top shape: 100 240 12 12 (3456000)
I1020 00:57:58.522323  8382 net.cpp:165] Memory required for data: 254670000
I1020 00:57:58.522327  8382 layer_factory.hpp:77] Creating layer drop2
I1020 00:57:58.522332  8382 net.cpp:100] Creating Layer drop2
I1020 00:57:58.522336  8382 net.cpp:434] drop2 <- relu3
I1020 00:57:58.522341  8382 net.cpp:408] drop2 -> drop2
I1020 00:57:58.522370  8382 net.cpp:150] Setting up drop2
I1020 00:57:58.522377  8382 net.cpp:157] Top shape: 100 240 12 12 (3456000)
I1020 00:57:58.522380  8382 net.cpp:165] Memory required for data: 268494000
I1020 00:57:58.522382  8382 layer_factory.hpp:77] Creating layer pool2
I1020 00:57:58.522388  8382 net.cpp:100] Creating Layer pool2
I1020 00:57:58.522392  8382 net.cpp:434] pool2 <- drop2
I1020 00:57:58.522397  8382 net.cpp:408] pool2 -> pool2
I1020 00:57:58.522424  8382 net.cpp:150] Setting up pool2
I1020 00:57:58.522430  8382 net.cpp:157] Top shape: 100 240 6 6 (864000)
I1020 00:57:58.522433  8382 net.cpp:165] Memory required for data: 271950000
I1020 00:57:58.522435  8382 layer_factory.hpp:77] Creating layer conv4
I1020 00:57:58.522442  8382 net.cpp:100] Creating Layer conv4
I1020 00:57:58.522446  8382 net.cpp:434] conv4 <- pool2
I1020 00:57:58.522451  8382 net.cpp:408] conv4 -> conv4
I1020 00:57:58.523316  8382 net.cpp:150] Setting up conv4
I1020 00:57:58.523325  8382 net.cpp:157] Top shape: 100 240 6 6 (864000)
I1020 00:57:58.523329  8382 net.cpp:165] Memory required for data: 275406000
I1020 00:57:58.523335  8382 layer_factory.hpp:77] Creating layer relu4
I1020 00:57:58.523340  8382 net.cpp:100] Creating Layer relu4
I1020 00:57:58.523344  8382 net.cpp:434] relu4 <- conv4
I1020 00:57:58.523351  8382 net.cpp:408] relu4 -> relu4
I1020 00:57:58.523475  8382 net.cpp:150] Setting up relu4
I1020 00:57:58.523483  8382 net.cpp:157] Top shape: 100 240 6 6 (864000)
I1020 00:57:58.523484  8382 net.cpp:165] Memory required for data: 278862000
I1020 00:57:58.523488  8382 layer_factory.hpp:77] Creating layer conv5
I1020 00:57:58.523504  8382 net.cpp:100] Creating Layer conv5
I1020 00:57:58.523507  8382 net.cpp:434] conv5 <- relu4
I1020 00:57:58.523514  8382 net.cpp:408] conv5 -> conv5
I1020 00:57:58.525413  8382 net.cpp:150] Setting up conv5
I1020 00:57:58.525424  8382 net.cpp:157] Top shape: 100 260 5 5 (650000)
I1020 00:57:58.525427  8382 net.cpp:165] Memory required for data: 281462000
I1020 00:57:58.525436  8382 layer_factory.hpp:77] Creating layer relu5
I1020 00:57:58.525442  8382 net.cpp:100] Creating Layer relu5
I1020 00:57:58.525447  8382 net.cpp:434] relu5 <- conv5
I1020 00:57:58.525454  8382 net.cpp:408] relu5 -> relu5
I1020 00:57:58.525580  8382 net.cpp:150] Setting up relu5
I1020 00:57:58.525588  8382 net.cpp:157] Top shape: 100 260 5 5 (650000)
I1020 00:57:58.525590  8382 net.cpp:165] Memory required for data: 284062000
I1020 00:57:58.525593  8382 layer_factory.hpp:77] Creating layer drop3
I1020 00:57:58.525601  8382 net.cpp:100] Creating Layer drop3
I1020 00:57:58.525604  8382 net.cpp:434] drop3 <- relu5
I1020 00:57:58.525609  8382 net.cpp:408] drop3 -> drop3
I1020 00:57:58.525638  8382 net.cpp:150] Setting up drop3
I1020 00:57:58.525643  8382 net.cpp:157] Top shape: 100 260 5 5 (650000)
I1020 00:57:58.525646  8382 net.cpp:165] Memory required for data: 286662000
I1020 00:57:58.525650  8382 layer_factory.hpp:77] Creating layer pool3
I1020 00:57:58.525656  8382 net.cpp:100] Creating Layer pool3
I1020 00:57:58.525660  8382 net.cpp:434] pool3 <- drop3
I1020 00:57:58.525663  8382 net.cpp:408] pool3 -> pool3
I1020 00:57:58.525693  8382 net.cpp:150] Setting up pool3
I1020 00:57:58.525698  8382 net.cpp:157] Top shape: 100 260 3 3 (234000)
I1020 00:57:58.525701  8382 net.cpp:165] Memory required for data: 287598000
I1020 00:57:58.525703  8382 layer_factory.hpp:77] Creating layer conv6
I1020 00:57:58.525712  8382 net.cpp:100] Creating Layer conv6
I1020 00:57:58.525715  8382 net.cpp:434] conv6 <- pool3
I1020 00:57:58.525719  8382 net.cpp:408] conv6 -> conv6
I1020 00:57:58.526875  8382 net.cpp:150] Setting up conv6
I1020 00:57:58.526885  8382 net.cpp:157] Top shape: 100 260 3 3 (234000)
I1020 00:57:58.526887  8382 net.cpp:165] Memory required for data: 288534000
I1020 00:57:58.526893  8382 layer_factory.hpp:77] Creating layer relu6
I1020 00:57:58.526901  8382 net.cpp:100] Creating Layer relu6
I1020 00:57:58.526904  8382 net.cpp:434] relu6 <- conv6
I1020 00:57:58.526911  8382 net.cpp:408] relu6 -> relu6
I1020 00:57:58.527115  8382 net.cpp:150] Setting up relu6
I1020 00:57:58.527123  8382 net.cpp:157] Top shape: 100 260 3 3 (234000)
I1020 00:57:58.527127  8382 net.cpp:165] Memory required for data: 289470000
I1020 00:57:58.527129  8382 layer_factory.hpp:77] Creating layer conv7
I1020 00:57:58.527137  8382 net.cpp:100] Creating Layer conv7
I1020 00:57:58.527140  8382 net.cpp:434] conv7 <- relu6
I1020 00:57:58.527146  8382 net.cpp:408] conv7 -> conv7
I1020 00:57:58.529192  8382 net.cpp:150] Setting up conv7
I1020 00:57:58.529208  8382 net.cpp:157] Top shape: 100 280 2 2 (112000)
I1020 00:57:58.529211  8382 net.cpp:165] Memory required for data: 289918000
I1020 00:57:58.529218  8382 layer_factory.hpp:77] Creating layer relu7
I1020 00:57:58.529225  8382 net.cpp:100] Creating Layer relu7
I1020 00:57:58.529229  8382 net.cpp:434] relu7 <- conv7
I1020 00:57:58.529234  8382 net.cpp:408] relu7 -> relu7
I1020 00:57:58.529366  8382 net.cpp:150] Setting up relu7
I1020 00:57:58.529372  8382 net.cpp:157] Top shape: 100 280 2 2 (112000)
I1020 00:57:58.529376  8382 net.cpp:165] Memory required for data: 290366000
I1020 00:57:58.529378  8382 layer_factory.hpp:77] Creating layer drop4
I1020 00:57:58.529384  8382 net.cpp:100] Creating Layer drop4
I1020 00:57:58.529387  8382 net.cpp:434] drop4 <- relu7
I1020 00:57:58.529393  8382 net.cpp:408] drop4 -> drop4
I1020 00:57:58.529422  8382 net.cpp:150] Setting up drop4
I1020 00:57:58.529429  8382 net.cpp:157] Top shape: 100 280 2 2 (112000)
I1020 00:57:58.529433  8382 net.cpp:165] Memory required for data: 290814000
I1020 00:57:58.529435  8382 layer_factory.hpp:77] Creating layer pool4
I1020 00:57:58.529450  8382 net.cpp:100] Creating Layer pool4
I1020 00:57:58.529455  8382 net.cpp:434] pool4 <- drop4
I1020 00:57:58.529460  8382 net.cpp:408] pool4 -> pool4
I1020 00:57:58.529489  8382 net.cpp:150] Setting up pool4
I1020 00:57:58.529495  8382 net.cpp:157] Top shape: 100 280 1 1 (28000)
I1020 00:57:58.529498  8382 net.cpp:165] Memory required for data: 290926000
I1020 00:57:58.529501  8382 layer_factory.hpp:77] Creating layer conv8
I1020 00:57:58.529510  8382 net.cpp:100] Creating Layer conv8
I1020 00:57:58.529512  8382 net.cpp:434] conv8 <- pool4
I1020 00:57:58.529518  8382 net.cpp:408] conv8 -> conv8
I1020 00:57:58.530486  8382 net.cpp:150] Setting up conv8
I1020 00:57:58.530494  8382 net.cpp:157] Top shape: 100 280 1 1 (28000)
I1020 00:57:58.530498  8382 net.cpp:165] Memory required for data: 291038000
I1020 00:57:58.530504  8382 layer_factory.hpp:77] Creating layer relu8
I1020 00:57:58.530509  8382 net.cpp:100] Creating Layer relu8
I1020 00:57:58.530514  8382 net.cpp:434] relu8 <- conv8
I1020 00:57:58.530519  8382 net.cpp:408] relu8 -> relu8
I1020 00:57:58.530644  8382 net.cpp:150] Setting up relu8
I1020 00:57:58.530652  8382 net.cpp:157] Top shape: 100 280 1 1 (28000)
I1020 00:57:58.530654  8382 net.cpp:165] Memory required for data: 291150000
I1020 00:57:58.530658  8382 layer_factory.hpp:77] Creating layer drop5
I1020 00:57:58.530663  8382 net.cpp:100] Creating Layer drop5
I1020 00:57:58.530666  8382 net.cpp:434] drop5 <- relu8
I1020 00:57:58.530671  8382 net.cpp:408] drop5 -> drop5
I1020 00:57:58.530701  8382 net.cpp:150] Setting up drop5
I1020 00:57:58.530709  8382 net.cpp:157] Top shape: 100 280 1 1 (28000)
I1020 00:57:58.530711  8382 net.cpp:165] Memory required for data: 291262000
I1020 00:57:58.530714  8382 layer_factory.hpp:77] Creating layer pool5
I1020 00:57:58.530719  8382 net.cpp:100] Creating Layer pool5
I1020 00:57:58.530724  8382 net.cpp:434] pool5 <- drop5
I1020 00:57:58.530728  8382 net.cpp:408] pool5 -> pool5
I1020 00:57:58.530758  8382 net.cpp:150] Setting up pool5
I1020 00:57:58.530763  8382 net.cpp:157] Top shape: 100 280 1 1 (28000)
I1020 00:57:58.530767  8382 net.cpp:165] Memory required for data: 291374000
I1020 00:57:58.530771  8382 layer_factory.hpp:77] Creating layer conv10
I1020 00:57:58.530777  8382 net.cpp:100] Creating Layer conv10
I1020 00:57:58.530781  8382 net.cpp:434] conv10 <- pool5
I1020 00:57:58.530786  8382 net.cpp:408] conv10 -> conv10
I1020 00:57:58.531754  8382 net.cpp:150] Setting up conv10
I1020 00:57:58.531761  8382 net.cpp:157] Top shape: 100 300 1 1 (30000)
I1020 00:57:58.531764  8382 net.cpp:165] Memory required for data: 291494000
I1020 00:57:58.531775  8382 layer_factory.hpp:77] Creating layer relu10
I1020 00:57:58.531780  8382 net.cpp:100] Creating Layer relu10
I1020 00:57:58.531785  8382 net.cpp:434] relu10 <- conv10
I1020 00:57:58.531790  8382 net.cpp:408] relu10 -> relu10
I1020 00:57:58.531993  8382 net.cpp:150] Setting up relu10
I1020 00:57:58.532001  8382 net.cpp:157] Top shape: 100 300 1 1 (30000)
I1020 00:57:58.532003  8382 net.cpp:165] Memory required for data: 291614000
I1020 00:57:58.532006  8382 layer_factory.hpp:77] Creating layer drop6
I1020 00:57:58.532012  8382 net.cpp:100] Creating Layer drop6
I1020 00:57:58.532016  8382 net.cpp:434] drop6 <- relu10
I1020 00:57:58.532021  8382 net.cpp:408] drop6 -> drop6
I1020 00:57:58.532053  8382 net.cpp:150] Setting up drop6
I1020 00:57:58.532059  8382 net.cpp:157] Top shape: 100 300 1 1 (30000)
I1020 00:57:58.532063  8382 net.cpp:165] Memory required for data: 291734000
I1020 00:57:58.532065  8382 layer_factory.hpp:77] Creating layer pool6
I1020 00:57:58.532071  8382 net.cpp:100] Creating Layer pool6
I1020 00:57:58.532075  8382 net.cpp:434] pool6 <- drop6
I1020 00:57:58.532079  8382 net.cpp:408] pool6 -> pool6
I1020 00:57:58.532109  8382 net.cpp:150] Setting up pool6
I1020 00:57:58.532114  8382 net.cpp:157] Top shape: 100 300 1 1 (30000)
I1020 00:57:58.532117  8382 net.cpp:165] Memory required for data: 291854000
I1020 00:57:58.532120  8382 layer_factory.hpp:77] Creating layer conv11
I1020 00:57:58.532138  8382 net.cpp:100] Creating Layer conv11
I1020 00:57:58.532142  8382 net.cpp:434] conv11 <- pool6
I1020 00:57:58.532147  8382 net.cpp:408] conv11 -> conv11
I1020 00:57:58.532930  8382 net.cpp:150] Setting up conv11
I1020 00:57:58.532939  8382 net.cpp:157] Top shape: 100 100 1 1 (10000)
I1020 00:57:58.532943  8382 net.cpp:165] Memory required for data: 291894000
I1020 00:57:58.532949  8382 layer_factory.hpp:77] Creating layer relu11
I1020 00:57:58.532954  8382 net.cpp:100] Creating Layer relu11
I1020 00:57:58.532958  8382 net.cpp:434] relu11 <- conv11
I1020 00:57:58.532964  8382 net.cpp:408] relu11 -> relu11
I1020 00:57:58.533092  8382 net.cpp:150] Setting up relu11
I1020 00:57:58.533098  8382 net.cpp:157] Top shape: 100 100 1 1 (10000)
I1020 00:57:58.533102  8382 net.cpp:165] Memory required for data: 291934000
I1020 00:57:58.533104  8382 layer_factory.hpp:77] Creating layer drop7
I1020 00:57:58.533110  8382 net.cpp:100] Creating Layer drop7
I1020 00:57:58.533114  8382 net.cpp:434] drop7 <- relu11
I1020 00:57:58.533118  8382 net.cpp:408] drop7 -> drop7
I1020 00:57:58.533149  8382 net.cpp:150] Setting up drop7
I1020 00:57:58.533154  8382 net.cpp:157] Top shape: 100 100 1 1 (10000)
I1020 00:57:58.533156  8382 net.cpp:165] Memory required for data: 291974000
I1020 00:57:58.533159  8382 layer_factory.hpp:77] Creating layer pool7
I1020 00:57:58.533164  8382 net.cpp:100] Creating Layer pool7
I1020 00:57:58.533169  8382 net.cpp:434] pool7 <- drop7
I1020 00:57:58.533174  8382 net.cpp:408] pool7 -> pool7
I1020 00:57:58.533201  8382 net.cpp:150] Setting up pool7
I1020 00:57:58.533207  8382 net.cpp:157] Top shape: 100 100 1 1 (10000)
I1020 00:57:58.533211  8382 net.cpp:165] Memory required for data: 292014000
I1020 00:57:58.533213  8382 layer_factory.hpp:77] Creating layer score
I1020 00:57:58.533219  8382 net.cpp:100] Creating Layer score
I1020 00:57:58.533222  8382 net.cpp:434] score <- pool7
I1020 00:57:58.533227  8382 net.cpp:408] score -> score
I1020 00:57:58.533316  8382 net.cpp:150] Setting up score
I1020 00:57:58.533321  8382 net.cpp:157] Top shape: 100 10 (1000)
I1020 00:57:58.533324  8382 net.cpp:165] Memory required for data: 292018000
I1020 00:57:58.533329  8382 layer_factory.hpp:77] Creating layer score_score_0_split
I1020 00:57:58.533336  8382 net.cpp:100] Creating Layer score_score_0_split
I1020 00:57:58.533339  8382 net.cpp:434] score_score_0_split <- score
I1020 00:57:58.533344  8382 net.cpp:408] score_score_0_split -> score_score_0_split_0
I1020 00:57:58.533351  8382 net.cpp:408] score_score_0_split -> score_score_0_split_1
I1020 00:57:58.533380  8382 net.cpp:150] Setting up score_score_0_split
I1020 00:57:58.533385  8382 net.cpp:157] Top shape: 100 10 (1000)
I1020 00:57:58.533388  8382 net.cpp:157] Top shape: 100 10 (1000)
I1020 00:57:58.533392  8382 net.cpp:165] Memory required for data: 292026000
I1020 00:57:58.533396  8382 layer_factory.hpp:77] Creating layer accuracy
I1020 00:57:58.533401  8382 net.cpp:100] Creating Layer accuracy
I1020 00:57:58.533403  8382 net.cpp:434] accuracy <- score_score_0_split_0
I1020 00:57:58.533408  8382 net.cpp:434] accuracy <- label_data_1_split_0
I1020 00:57:58.533413  8382 net.cpp:408] accuracy -> accuracy
…
