…
  level: 0
  stage: ""
}
type: "Adam"
I1020 04:37:57.288496 10450 solver.cpp:81] Creating training net from train_net file: /home/adam/Honours/Honours-Project/mnist_pooling/max/elu/poolcnn_elu_train.prototxt
I1020 04:37:57.288787 10450 net.cpp:58] Initializing net from parameters: 
state {
  phase: TRAIN
  level: 0
  stage: ""
}
layer {
  name: "data"
  type: "Data"
  top: "data"
  top: "label"
  transform_param {
    scale: 0.0039215689
  }
  data_param {
    source: "../../../../data/mnist/mnist_train_lmdb"
    batch_size: 64
    backend: LMDB
  }
}
layer {
  name: "conv1"
  type: "Convolution"
  bottom: "data"
  top: "conv1"
  convolution_param {
    num_output: 192
    kernel_size: 5
    weight_filler {
      type: "xavier"
    }
  }
}
layer {
  name: "elu1"
  type: "ELU"
  bottom: "conv1"
  top: "elu1"
}
layer {
  name: "drop1"
  type: "Dropout"
  bottom: "elu1"
  top: "drop1"
  dropout_param {
    dropout_ratio: 0
  }
}
layer {
  name: "pool1"
  type: "Pooling"
  bottom: "drop1"
  top: "pool1"
  pooling_param {
    pool: MAX
    kernel_size: 2
    stride: 2
  }
}
layer {
  name: "conv2"
  type: "Convolution"
  bottom: "pool1"
  top: "conv2"
  convolution_param {
    num_output: 192
    kernel_size: 1
    weight_filler {
      type: "xavier"
    }
  }
}
layer {
  name: "elu2"
  type: "ELU"
  bottom: "conv2"
  top: "elu2"
}
layer {
  name: "conv3"
  type: "Convolution"
  bottom: "elu2"
  top: "conv3"
  convolution_param {
    num_output: 240
    kernel_size: 3
    weight_filler {
      type: "xavier"
    }
  }
}
layer {
  name: "elu3"
  type: "ELU"
  bottom: "conv3"
  top: "elu3"
}
layer {
  name: "drop2"
  type: "Dropout"
  bottom: "elu3"
  top: "drop2"
  dropout_param {
    dropout_ratio: 0.1
  }
}
layer {
  name: "pool2"
  type: "Pooling"
  bottom: "drop2"
  top: "pool2"
  pooling_param {
    pool: MAX
    kernel_size: 2
    stride: 2
  }
}
layer {
  name: "conv4"
  type: "Convolution"
  bottom: "pool2"
  top: "conv4"
  convolution_param {
    num_output: 240
    kernel_size: 1
    weight_filler {
      type: "xavier"
    }
  }
}
layer {
  name: "elu4"
  type: "ELU"
  bottom: "conv4"
  top: "elu4"
}
layer {
  name: "conv5"
  type: "Convolution"
  bottom: "elu4"
  top: "conv5"
  convolution_param {
    num_output: 260
    kernel_size: 2
    weight_filler {
      type: "xavier"
    }
  }
}
layer {
  name: "elu5"
  type: "ELU"
  bottom: "conv5"
  top: "elu5"
}
layer {
  name: "drop3"
  type: "Dropout"
  bottom: "elu5"
  top: "drop3"
  dropout_param {
    dropout_ratio: 0.2
  }
}
layer {
  name: "pool3"
  type: "Pooling"
  bottom: "drop3"
  top: "pool3"
  pooling_param {
    pool: MAX
    kernel_size: 2
    stride: 2
  }
}
layer {
  name: "conv6"
  type: "Convolution"
  bottom: "pool3"
  top: "conv6"
  convolution_param {
    num_output: 260
    kernel_size: 1
    weight_filler {
      type: "xavier"
    }
  }
}
layer {
  name: "elu6"
  type: "ELU"
  bottom: "conv6"
  top: "elu6"
}
layer {
  name: "conv7"
  type: "Convolution"
  bottom: "elu6"
  top: "conv7"
  convolution_param {
    num_output: 280
    kernel_size: 2
    weight_filler {
      type: "xavier"
    }
  }
}
layer {
  name: "elu7"
  type: "ELU"
  bottom: "conv7"
  top: "elu7"
}
layer {
  name: "drop4"
  type: "Dropout"
  bottom: "elu7"
  top: "drop4"
  dropout_param {
    dropout_ratio: 0.3
  }
}
layer {
  name: "pool4"
  type: "Pooling"
  bottom: "drop4"
  top: "pool4"
  pooling_param {
    pool: MAX
    kernel_size: 2
    stride: 2
  }
}
layer {
  name: "conv8"
  type: "Convolution"
  bottom: "pool4"
  top: "conv8"
  convolution_param {
    num_output: 280
    kernel_size: 1
    weight_filler {
      type: "xavier"
    }
  }
}
layer {
  name: "elu8"
  type: "ELU"
  bottom: "conv8"
  top: "elu8"
}
layer {
  name: "drop5"
  type: "Dropout"
  bottom: "elu8"
  top: "drop5"
  dropout_param {
    dropout_ratio: 0.4
  }
}
layer {
  name: "pool5"
  type: "Pooling"
  bottom: "drop5"
  top: "pool5"
  pooling_param {
    pool: MAX
    kernel_size: 2
    stride: 2
  }
}
layer {
  name: "conv10"
  type: "Convolution"
  bottom: "pool5"
  top: "conv10"
  convolution_param {
    num_output: 300
    kernel_size: 1
    weight_filler {
      type: "xavier"
    }
  }
}
layer {
  name: "elu10"
  type: "ELU"
  bottom: "conv10"
  top: "elu10"
}
layer {
  name: "drop6"
  type: "Dropout"
  bottom: "elu10"
  top: "drop6"
  dropout_param {
    dropout_ratio: 0.5
  }
}
layer {
  name: "pool6"
  type: "Pooling"
  bottom: "drop6"
  top: "pool6"
  pooling_param {
    pool: MAX
    kernel_size: 2
    stride: 2
  }
}
layer {
  name: "conv11"
  type: "Convolution"
  bottom: "pool6"
  top: "conv11"
  convolution_param {
    num_output: 100
    kernel_size: 1
    weight_filler {
      type: "xavier"
    }
  }
}
layer {
  name: "elu11"
  type: "ELU"
  bottom: "conv11"
  top: "elu11"
}
layer {
  name: "drop7"
  type: "Dropout"
  bottom: "elu11"
  top: "drop7"
  dropout_param {
    dropout_ratio: 0
  }
}
layer {
  name: "pool7"
  type: "Pooling"
  bottom: "drop7"
  top: "pool7"
  pooling_param {
    pool: MAX
    kernel_size: 2
    stride: 2
  }
}
layer {
  name: "score"
  type: "InnerProduct"
  bottom: "pool7"
  top: "score"
  inner_product_param {
    num_output: 10
    weight_filler {
      type: "gaussian"
    }
  }
}
layer {
  name: "accuracy"
  type: "Accuracy"
  bottom: "score"
  bottom: "label"
  top: "accuracy"
}
layer {
  name: "loss"
  type: "SoftmaxWithLoss"
  bottom: "score"
  bottom: "label"
  top: "loss"
}
I1020 04:37:57.288918 10450 layer_factory.hpp:77] Creating layer data
I1020 04:37:57.289300 10450 net.cpp:100] Creating Layer data
I1020 04:37:57.289307 10450 net.cpp:408] data -> data
I1020 04:37:57.289325 10450 net.cpp:408] data -> label
I1020 04:37:57.289896 10456 db_lmdb.cpp:35] Opened lmdb ../../../../data/mnist/mnist_train_lmdb
I1020 04:37:57.295420 10450 data_layer.cpp:41] output data size: 64,1,28,28
I1020 04:37:57.295994 10450 net.cpp:150] Setting up data
I1020 04:37:57.296010 10450 net.cpp:157] Top shape: 64 1 28 28 (50176)
I1020 04:37:57.296015 10450 net.cpp:157] Top shape: 64 (64)
I1020 04:37:57.296018 10450 net.cpp:165] Memory required for data: 200960
I1020 04:37:57.296028 10450 layer_factory.hpp:77] Creating layer label_data_1_split
I1020 04:37:57.296041 10450 net.cpp:100] Creating Layer label_data_1_split
I1020 04:37:57.296046 10450 net.cpp:434] label_data_1_split <- label
I1020 04:37:57.296058 10450 net.cpp:408] label_data_1_split -> label_data_1_split_0
I1020 04:37:57.296066 10450 net.cpp:408] label_data_1_split -> label_data_1_split_1
I1020 04:37:57.296095 10450 net.cpp:150] Setting up label_data_1_split
I1020 04:37:57.296102 10450 net.cpp:157] Top shape: 64 (64)
I1020 04:37:57.296106 10450 net.cpp:157] Top shape: 64 (64)
I1020 04:37:57.296109 10450 net.cpp:165] Memory required for data: 201472
I1020 04:37:57.296113 10450 layer_factory.hpp:77] Creating layer conv1
I1020 04:37:57.296126 10450 net.cpp:100] Creating Layer conv1
I1020 04:37:57.296130 10450 net.cpp:434] conv1 <- data
I1020 04:37:57.296135 10450 net.cpp:408] conv1 -> conv1
I1020 04:37:57.418110 10450 net.cpp:150] Setting up conv1
I1020 04:37:57.418136 10450 net.cpp:157] Top shape: 64 192 24 24 (7077888)
I1020 04:37:57.418140 10450 net.cpp:165] Memory required for data: 28513024
I1020 04:37:57.418164 10450 layer_factory.hpp:77] Creating layer elu1
I1020 04:37:57.418174 10450 net.cpp:100] Creating Layer elu1
I1020 04:37:57.418179 10450 net.cpp:434] elu1 <- conv1
I1020 04:37:57.418185 10450 net.cpp:408] elu1 -> elu1
I1020 04:37:57.418207 10450 net.cpp:150] Setting up elu1
I1020 04:37:57.418212 10450 net.cpp:157] Top shape: 64 192 24 24 (7077888)
I1020 04:37:57.418215 10450 net.cpp:165] Memory required for data: 56824576
I1020 04:37:57.418228 10450 layer_factory.hpp:77] Creating layer drop1
I1020 04:37:57.418236 10450 net.cpp:100] Creating Layer drop1
I1020 04:37:57.418239 10450 net.cpp:434] drop1 <- elu1
I1020 04:37:57.418243 10450 net.cpp:408] drop1 -> drop1
I1020 04:37:57.418272 10450 net.cpp:150] Setting up drop1
I1020 04:37:57.418277 10450 net.cpp:157] Top shape: 64 192 24 24 (7077888)
I1020 04:37:57.418279 10450 net.cpp:165] Memory required for data: 85136128
I1020 04:37:57.418282 10450 layer_factory.hpp:77] Creating layer pool1
I1020 04:37:57.418288 10450 net.cpp:100] Creating Layer pool1
I1020 04:37:57.418292 10450 net.cpp:434] pool1 <- drop1
I1020 04:37:57.418296 10450 net.cpp:408] pool1 -> pool1
I1020 04:37:57.418325 10450 net.cpp:150] Setting up pool1
I1020 04:37:57.418331 10450 net.cpp:157] Top shape: 64 192 12 12 (1769472)
I1020 04:37:57.418335 10450 net.cpp:165] Memory required for data: 92214016
I1020 04:37:57.418339 10450 layer_factory.hpp:77] Creating layer conv2
I1020 04:37:57.418347 10450 net.cpp:100] Creating Layer conv2
I1020 04:37:57.418350 10450 net.cpp:434] conv2 <- pool1
I1020 04:37:57.418355 10450 net.cpp:408] conv2 -> conv2
I1020 04:37:57.419075 10450 net.cpp:150] Setting up conv2
I1020 04:37:57.419083 10450 net.cpp:157] Top shape: 64 192 12 12 (1769472)
I1020 04:37:57.419087 10450 net.cpp:165] Memory required for data: 99291904
I1020 04:37:57.419095 10450 layer_factory.hpp:77] Creating layer elu2
I1020 04:37:57.419100 10450 net.cpp:100] Creating Layer elu2
I1020 04:37:57.419104 10450 net.cpp:434] elu2 <- conv2
I1020 04:37:57.419109 10450 net.cpp:408] elu2 -> elu2
I1020 04:37:57.419126 10450 net.cpp:150] Setting up elu2
I1020 04:37:57.419131 10450 net.cpp:157] Top shape: 64 192 12 12 (1769472)
I1020 04:37:57.419136 10450 net.cpp:165] Memory required for data: 106369792
I1020 04:37:57.419139 10450 layer_factory.hpp:77] Creating layer conv3
I1020 04:37:57.419147 10450 net.cpp:100] Creating Layer conv3
I1020 04:37:57.419149 10450 net.cpp:434] conv3 <- elu2
I1020 04:37:57.419154 10450 net.cpp:408] conv3 -> conv3
I1020 04:37:57.421558 10450 net.cpp:150] Setting up conv3
I1020 04:37:57.421567 10450 net.cpp:157] Top shape: 64 240 10 10 (1536000)
I1020 04:37:57.421571 10450 net.cpp:165] Memory required for data: 112513792
I1020 04:37:57.421578 10450 layer_factory.hpp:77] Creating layer elu3
I1020 04:37:57.421584 10450 net.cpp:100] Creating Layer elu3
I1020 04:37:57.421588 10450 net.cpp:434] elu3 <- conv3
I1020 04:37:57.421593 10450 net.cpp:408] elu3 -> elu3
I1020 04:37:57.421610 10450 net.cpp:150] Setting up elu3
I1020 04:37:57.421617 10450 net.cpp:157] Top shape: 64 240 10 10 (1536000)
I1020 04:37:57.421620 10450 net.cpp:165] Memory required for data: 118657792
I1020 04:37:57.421623 10450 layer_factory.hpp:77] Creating layer drop2
I1020 04:37:57.421627 10450 net.cpp:100] Creating Layer drop2
I1020 04:37:57.421632 10450 net.cpp:434] drop2 <- elu3
I1020 04:37:57.421636 10450 net.cpp:408] drop2 -> drop2
I1020 04:37:57.421658 10450 net.cpp:150] Setting up drop2
I1020 04:37:57.421663 10450 net.cpp:157] Top shape: 64 240 10 10 (1536000)
I1020 04:37:57.421667 10450 net.cpp:165] Memory required for data: 124801792
I1020 04:37:57.421670 10450 layer_factory.hpp:77] Creating layer pool2
I1020 04:37:57.421675 10450 net.cpp:100] Creating Layer pool2
I1020 04:37:57.421679 10450 net.cpp:434] pool2 <- drop2
I1020 04:37:57.421684 10450 net.cpp:408] pool2 -> pool2
I1020 04:37:57.421707 10450 net.cpp:150] Setting up pool2
I1020 04:37:57.421712 10450 net.cpp:157] Top shape: 64 240 5 5 (384000)
I1020 04:37:57.421715 10450 net.cpp:165] Memory required for data: 126337792
I1020 04:37:57.421720 10450 layer_factory.hpp:77] Creating layer conv4
I1020 04:37:57.421726 10450 net.cpp:100] Creating Layer conv4
I1020 04:37:57.421730 10450 net.cpp:434] conv4 <- pool2
I1020 04:37:57.421733 10450 net.cpp:408] conv4 -> conv4
I1020 04:37:57.422538 10450 net.cpp:150] Setting up conv4
I1020 04:37:57.422546 10450 net.cpp:157] Top shape: 64 240 5 5 (384000)
I1020 04:37:57.422551 10450 net.cpp:165] Memory required for data: 127873792
I1020 04:37:57.422564 10450 layer_factory.hpp:77] Creating layer elu4
I1020 04:37:57.422570 10450 net.cpp:100] Creating Layer elu4
I1020 04:37:57.422574 10450 net.cpp:434] elu4 <- conv4
I1020 04:37:57.422580 10450 net.cpp:408] elu4 -> elu4
I1020 04:37:57.422597 10450 net.cpp:150] Setting up elu4
I1020 04:37:57.422603 10450 net.cpp:157] Top shape: 64 240 5 5 (384000)
I1020 04:37:57.422606 10450 net.cpp:165] Memory required for data: 129409792
I1020 04:37:57.422610 10450 layer_factory.hpp:77] Creating layer conv5
I1020 04:37:57.422618 10450 net.cpp:100] Creating Layer conv5
I1020 04:37:57.422622 10450 net.cpp:434] conv5 <- elu4
I1020 04:37:57.422626 10450 net.cpp:408] conv5 -> conv5
I1020 04:37:57.424372 10450 net.cpp:150] Setting up conv5
I1020 04:37:57.424384 10450 net.cpp:157] Top shape: 64 260 4 4 (266240)
I1020 04:37:57.424389 10450 net.cpp:165] Memory required for data: 130474752
I1020 04:37:57.424397 10450 layer_factory.hpp:77] Creating layer elu5
I1020 04:37:57.424402 10450 net.cpp:100] Creating Layer elu5
I1020 04:37:57.424407 10450 net.cpp:434] elu5 <- conv5
I1020 04:37:57.424414 10450 net.cpp:408] elu5 -> elu5
I1020 04:37:57.424432 10450 net.cpp:150] Setting up elu5
I1020 04:37:57.424437 10450 net.cpp:157] Top shape: 64 260 4 4 (266240)
I1020 04:37:57.424440 10450 net.cpp:165] Memory required for data: 131539712
I1020 04:37:57.424443 10450 layer_factory.hpp:77] Creating layer drop3
I1020 04:37:57.424453 10450 net.cpp:100] Creating Layer drop3
I1020 04:37:57.424455 10450 net.cpp:434] drop3 <- elu5
I1020 04:37:57.424460 10450 net.cpp:408] drop3 -> drop3
I1020 04:37:57.424484 10450 net.cpp:150] Setting up drop3
I1020 04:37:57.424489 10450 net.cpp:157] Top shape: 64 260 4 4 (266240)
I1020 04:37:57.424494 10450 net.cpp:165] Memory required for data: 132604672
I1020 04:37:57.424497 10450 layer_factory.hpp:77] Creating layer pool3
I1020 04:37:57.424504 10450 net.cpp:100] Creating Layer pool3
I1020 04:37:57.424506 10450 net.cpp:434] pool3 <- drop3
I1020 04:37:57.424510 10450 net.cpp:408] pool3 -> pool3
I1020 04:37:57.424536 10450 net.cpp:150] Setting up pool3
I1020 04:37:57.424541 10450 net.cpp:157] Top shape: 64 260 2 2 (66560)
I1020 04:37:57.424546 10450 net.cpp:165] Memory required for data: 132870912
I1020 04:37:57.424548 10450 layer_factory.hpp:77] Creating layer conv6
I1020 04:37:57.424556 10450 net.cpp:100] Creating Layer conv6
I1020 04:37:57.424558 10450 net.cpp:434] conv6 <- pool3
I1020 04:37:57.424564 10450 net.cpp:408] conv6 -> conv6
I1020 04:37:57.425676 10450 net.cpp:150] Setting up conv6
I1020 04:37:57.425686 10450 net.cpp:157] Top shape: 64 260 2 2 (66560)
I1020 04:37:57.425690 10450 net.cpp:165] Memory required for data: 133137152
I1020 04:37:57.425696 10450 layer_factory.hpp:77] Creating layer elu6
I1020 04:37:57.425701 10450 net.cpp:100] Creating Layer elu6
I1020 04:37:57.425705 10450 net.cpp:434] elu6 <- conv6
I1020 04:37:57.425711 10450 net.cpp:408] elu6 -> elu6
I1020 04:37:57.425729 10450 net.cpp:150] Setting up elu6
I1020 04:37:57.425735 10450 net.cpp:157] Top shape: 64 260 2 2 (66560)
I1020 04:37:57.425739 10450 net.cpp:165] Memory required for data: 133403392
I1020 04:37:57.425742 10450 layer_factory.hpp:77] Creating layer conv7
I1020 04:37:57.425750 10450 net.cpp:100] Creating Layer conv7
I1020 04:37:57.425753 10450 net.cpp:434] conv7 <- elu6
I1020 04:37:57.425758 10450 net.cpp:408] conv7 -> conv7
I1020 04:37:57.427604 10450 net.cpp:150] Setting up conv7
I1020 04:37:57.427616 10450 net.cpp:157] Top shape: 64 280 1 1 (17920)
I1020 04:37:57.427620 10450 net.cpp:165] Memory required for data: 133475072
I1020 04:37:57.427626 10450 layer_factory.hpp:77] Creating layer elu7
I1020 04:37:57.427631 10450 net.cpp:100] Creating Layer elu7
I1020 04:37:57.427635 10450 net.cpp:434] elu7 <- conv7
I1020 04:37:57.427640 10450 net.cpp:408] elu7 -> elu7
I1020 04:37:57.427659 10450 net.cpp:150] Setting up elu7
I1020 04:37:57.427664 10450 net.cpp:157] Top shape: 64 280 1 1 (17920)
I1020 04:37:57.427669 10450 net.cpp:165] Memory required for data: 133546752
I1020 04:37:57.427671 10450 layer_factory.hpp:77] Creating layer drop4
I1020 04:37:57.427686 10450 net.cpp:100] Creating Layer drop4
I1020 04:37:57.427690 10450 net.cpp:434] drop4 <- elu7
I1020 04:37:57.427695 10450 net.cpp:408] drop4 -> drop4
I1020 04:37:57.427721 10450 net.cpp:150] Setting up drop4
I1020 04:37:57.427726 10450 net.cpp:157] Top shape: 64 280 1 1 (17920)
I1020 04:37:57.427731 10450 net.cpp:165] Memory required for data: 133618432
I1020 04:37:57.427733 10450 layer_factory.hpp:77] Creating layer pool4
I1020 04:37:57.427737 10450 net.cpp:100] Creating Layer pool4
I1020 04:37:57.427742 10450 net.cpp:434] pool4 <- drop4
I1020 04:37:57.427747 10450 net.cpp:408] pool4 -> pool4
I1020 04:37:57.427772 10450 net.cpp:150] Setting up pool4
I1020 04:37:57.427779 10450 net.cpp:157] Top shape: 64 280 1 1 (17920)
I1020 04:37:57.427783 10450 net.cpp:165] Memory required for data: 133690112
I1020 04:37:57.427785 10450 layer_factory.hpp:77] Creating layer conv8
I1020 04:37:57.427791 10450 net.cpp:100] Creating Layer conv8
I1020 04:37:57.427794 10450 net.cpp:434] conv8 <- pool4
I1020 04:37:57.427800 10450 net.cpp:408] conv8 -> conv8
I1020 04:37:57.428710 10450 net.cpp:150] Setting up conv8
I1020 04:37:57.428719 10450 net.cpp:157] Top shape: 64 280 1 1 (17920)
I1020 04:37:57.428722 10450 net.cpp:165] Memory required for data: 133761792
I1020 04:37:57.428728 10450 layer_factory.hpp:77] Creating layer elu8
I1020 04:37:57.428735 10450 net.cpp:100] Creating Layer elu8
I1020 04:37:57.428738 10450 net.cpp:434] elu8 <- conv8
I1020 04:37:57.428745 10450 net.cpp:408] elu8 -> elu8
I1020 04:37:57.428762 10450 net.cpp:150] Setting up elu8
I1020 04:37:57.428769 10450 net.cpp:157] Top shape: 64 280 1 1 (17920)
I1020 04:37:57.428772 10450 net.cpp:165] Memory required for data: 133833472
I1020 04:37:57.428776 10450 layer_factory.hpp:77] Creating layer drop5
I1020 04:37:57.428781 10450 net.cpp:100] Creating Layer drop5
I1020 04:37:57.428783 10450 net.cpp:434] drop5 <- elu8
I1020 04:37:57.428789 10450 net.cpp:408] drop5 -> drop5
I1020 04:37:57.428815 10450 net.cpp:150] Setting up drop5
I1020 04:37:57.428820 10450 net.cpp:157] Top shape: 64 280 1 1 (17920)
I1020 04:37:57.428823 10450 net.cpp:165] Memory required for data: 133905152
I1020 04:37:57.428828 10450 layer_factory.hpp:77] Creating layer pool5
I1020 04:37:57.428833 10450 net.cpp:100] Creating Layer pool5
I1020 04:37:57.428836 10450 net.cpp:434] pool5 <- drop5
I1020 04:37:57.428840 10450 net.cpp:408] pool5 -> pool5
I1020 04:37:57.428866 10450 net.cpp:150] Setting up pool5
I1020 04:37:57.428871 10450 net.cpp:157] Top shape: 64 280 1 1 (17920)
I1020 04:37:57.428875 10450 net.cpp:165] Memory required for data: 133976832
I1020 04:37:57.428879 10450 layer_factory.hpp:77] Creating layer conv10
I1020 04:37:57.428886 10450 net.cpp:100] Creating Layer conv10
I1020 04:37:57.428889 10450 net.cpp:434] conv10 <- pool5
I1020 04:37:57.428894 10450 net.cpp:408] conv10 -> conv10
I1020 04:37:57.429831 10450 net.cpp:150] Setting up conv10
I1020 04:37:57.429839 10450 net.cpp:157] Top shape: 64 300 1 1 (19200)
I1020 04:37:57.429842 10450 net.cpp:165] Memory required for data: 134053632
I1020 04:37:57.429853 10450 layer_factory.hpp:77] Creating layer elu10
I1020 04:37:57.429859 10450 net.cpp:100] Creating Layer elu10
I1020 04:37:57.429863 10450 net.cpp:434] elu10 <- conv10
I1020 04:37:57.429868 10450 net.cpp:408] elu10 -> elu10
I1020 04:37:57.429888 10450 net.cpp:150] Setting up elu10
I1020 04:37:57.429893 10450 net.cpp:157] Top shape: 64 300 1 1 (19200)
I1020 04:37:57.429898 10450 net.cpp:165] Memory required for data: 134130432
I1020 04:37:57.429900 10450 layer_factory.hpp:77] Creating layer drop6
I1020 04:37:57.429904 10450 net.cpp:100] Creating Layer drop6
I1020 04:37:57.429909 10450 net.cpp:434] drop6 <- elu10
I1020 04:37:57.429914 10450 net.cpp:408] drop6 -> drop6
I1020 04:37:57.429944 10450 net.cpp:150] Setting up drop6
I1020 04:37:57.429949 10450 net.cpp:157] Top shape: 64 300 1 1 (19200)
I1020 04:37:57.429951 10450 net.cpp:165] Memory required for data: 134207232
I1020 04:37:57.429955 10450 layer_factory.hpp:77] Creating layer pool6
I1020 04:37:57.429970 10450 net.cpp:100] Creating Layer pool6
I1020 04:37:57.429972 10450 net.cpp:434] pool6 <- drop6
I1020 04:37:57.429977 10450 net.cpp:408] pool6 -> pool6
I1020 04:37:57.430006 10450 net.cpp:150] Setting up pool6
I1020 04:37:57.430011 10450 net.cpp:157] Top shape: 64 300 1 1 (19200)
I1020 04:37:57.430014 10450 net.cpp:165] Memory required for data: 134284032
I1020 04:37:57.430018 10450 layer_factory.hpp:77] Creating layer conv11
I1020 04:37:57.430032 10450 net.cpp:100] Creating Layer conv11
I1020 04:37:57.430037 10450 net.cpp:434] conv11 <- pool6
I1020 04:37:57.430040 10450 net.cpp:408] conv11 -> conv11
I1020 04:37:57.431121 10450 net.cpp:150] Setting up conv11
I1020 04:37:57.431130 10450 net.cpp:157] Top shape: 64 100 1 1 (6400)
I1020 04:37:57.431134 10450 net.cpp:165] Memory required for data: 134309632
I1020 04:37:57.431140 10450 layer_factory.hpp:77] Creating layer elu11
I1020 04:37:57.431145 10450 net.cpp:100] Creating Layer elu11
I1020 04:37:57.431149 10450 net.cpp:434] elu11 <- conv11
I1020 04:37:57.431155 10450 net.cpp:408] elu11 -> elu11
I1020 04:37:57.431174 10450 net.cpp:150] Setting up elu11
I1020 04:37:57.431180 10450 net.cpp:157] Top shape: 64 100 1 1 (6400)
I1020 04:37:57.431185 10450 net.cpp:165] Memory required for data: 134335232
I1020 04:37:57.431187 10450 layer_factory.hpp:77] Creating layer drop7
I1020 04:37:57.431191 10450 net.cpp:100] Creating Layer drop7
I1020 04:37:57.431195 10450 net.cpp:434] drop7 <- elu11
I1020 04:37:57.431200 10450 net.cpp:408] drop7 -> drop7
I1020 04:37:57.431226 10450 net.cpp:150] Setting up drop7
I1020 04:37:57.431231 10450 net.cpp:157] Top shape: 64 100 1 1 (6400)
I1020 04:37:57.431234 10450 net.cpp:165] Memory required for data: 134360832
I1020 04:37:57.431238 10450 layer_factory.hpp:77] Creating layer pool7
I1020 04:37:57.431242 10450 net.cpp:100] Creating Layer pool7
I1020 04:37:57.431246 10450 net.cpp:434] pool7 <- drop7
I1020 04:37:57.431252 10450 net.cpp:408] pool7 -> pool7
I1020 04:37:57.431278 10450 net.cpp:150] Setting up pool7
I1020 04:37:57.431283 10450 net.cpp:157] Top shape: 64 100 1 1 (6400)
I1020 04:37:57.431288 10450 net.cpp:165] Memory required for data: 134386432
I1020 04:37:57.431289 10450 layer_factory.hpp:77] Creating layer score
I1020 04:37:57.431298 10450 net.cpp:100] Creating Layer score
I1020 04:37:57.431301 10450 net.cpp:434] score <- pool7
I1020 04:37:57.431308 10450 net.cpp:408] score -> score
I1020 04:37:57.431409 10450 net.cpp:150] Setting up score
I1020 04:37:57.431414 10450 net.cpp:157] Top shape: 64 10 (640)
I1020 04:37:57.431418 10450 net.cpp:165] Memory required for data: 134388992
I1020 04:37:57.431423 10450 layer_factory.hpp:77] Creating layer score_score_0_split
I1020 04:37:57.431429 10450 net.cpp:100] Creating Layer score_score_0_split
I1020 04:37:57.431432 10450 net.cpp:434] score_score_0_split <- score
I1020 04:37:57.431439 10450 net.cpp:408] score_score_0_split -> score_score_0_split_0
I1020 04:37:57.431447 10450 net.cpp:408] score_score_0_split -> score_score_0_split_1
I1020 04:37:57.431470 10450 net.cpp:150] Setting up score_score_0_split
I1020 04:37:57.431474 10450 net.cpp:157] Top shape: 64 10 (640)
I1020 04:37:57.431479 10450 net.cpp:157] Top shape: 64 10 (640)
I1020 04:37:57.431483 10450 net.cpp:165] Memory required for data: 134394112
I1020 04:37:57.431485 10450 layer_factory.hpp:77] Creating layer accuracy
I1020 04:37:57.431493 10450 net.cpp:100] Creating Layer accuracy
I1020 04:37:57.431495 10450 net.cpp:434] accuracy <- score_score_0_split_0
I1020 04:37:57.431499 10450 net.cpp:434] accuracy <- label_data_1_split_0
I1020 04:37:57.431504 10450 net.cpp:408] accuracy -> accuracy
…
I1020 04:37:57.431931 10450 net.cpp:283] Network initialization done.
I1020 04:37:57.432121 10450 solver.cpp:181] Creating test net (#0) specified by test_net file: /home/adam/Honours/Honours-Project/mnist_pooling/max/elu/poolcnn_elu_test.prototxt
I1020 04:37:57.432236 10450 net.cpp:58] Initializing net from parameters: 
state {
  phase: TEST
}
layer {
  name: "data"
  type: "Data"
  top: "data"
  top: "label"
  transform_param {
    scale: 0.0039215689
  }
  data_param {
    source: "../../../../data/mnist/mnist_test_lmdb"
    batch_size: 100
    backend: LMDB
  }
}
layer {
  name: "conv1"
  type: "Convolution"
  bottom: "data"
  top: "conv1"
  convolution_param {
    num_output: 192
    kernel_size: 5
    weight_filler {
      type: "xavier"
    }
  }
}
layer {
  name: "elu1"
  type: "ELU"
  bottom: "conv1"
  top: "elu1"
}
layer {
  name: "drop1"
  type: "Dropout"
  bottom: "elu1"
  top: "drop1"
  dropout_param {
    dropout_ratio: 0
  }
}
layer {
  name: "pool1"
  type: "Pooling"
  bottom: "drop1"
  top: "pool1"
  pooling_param {
    pool: MAX
    kernel_size: 2
    stride: 2
  }
}
layer {
  name: "conv2"
  type: "Convolution"
  bottom: "pool1"
  top: "conv2"
  convolution_param {
    num_output: 192
    kernel_size: 1
    weight_filler {
      type: "xavier"
    }
  }
}
layer {
  name: "elu2"
  type: "ELU"
  bottom: "conv2"
  top: "elu2"
}
layer {
  name: "conv3"
  type: "Convolution"
  bottom: "elu2"
  top: "conv3"
  convolution_param {
    num_output: 240
    kernel_size: 3
    weight_filler {
      type: "xavier"
    }
  }
}
layer {
  name: "elu3"
  type: "ELU"
  bottom: "conv3"
  top: "elu3"
}
layer {
  name: "drop2"
  type: "Dropout"
  bottom: "elu3"
  top: "drop2"
  dropout_param {
    dropout_ratio: 0.1
  }
}
layer {
  name: "pool2"
  type: "Pooling"
  bottom: "drop2"
  top: "pool2"
  pooling_param {
    pool: MAX
    kernel_size: 2
    stride: 2
  }
}
layer {
  name: "conv4"
  type: "Convolution"
  bottom: "pool2"
  top: "conv4"
  convolution_param {
    num_output: 240
    kernel_size: 1
    weight_filler {
      type: "xavier"
    }
  }
}
layer {
  name: "elu4"
  type: "ELU"
  bottom: "conv4"
  top: "elu4"
}
layer {
  name: "conv5"
  type: "Convolution"
  bottom: "elu4"
  top: "conv5"
  convolution_param {
    num_output: 260
    kernel_size: 2
    weight_filler {
      type: "xavier"
    }
  }
}
layer {
  name: "elu5"
  type: "ELU"
  bottom: "conv5"
  top: "elu5"
}
layer {
  name: "drop3"
  type: "Dropout"
  bottom: "elu5"
  top: "drop3"
  dropout_param {
    dropout_ratio: 0.2
  }
}
layer {
  name: "pool3"
  type: "Pooling"
  bottom: "drop3"
  top: "pool3"
  pooling_param {
    pool: MAX
    kernel_size: 2
    stride: 2
  }
}
layer {
  name: "conv6"
  type: "Convolution"
  bottom: "pool3"
  top: "conv6"
  convolution_param {
    num_output: 260
    kernel_size: 1
    weight_filler {
      type: "xavier"
    }
  }
}
layer {
  name: "elu6"
  type: "ELU"
  bottom: "conv6"
  top: "elu6"
}
layer {
  name: "conv7"
  type: "Convolution"
  bottom: "elu6"
  top: "conv7"
  convolution_param {
    num_output: 280
    kernel_size: 2
    weight_filler {
      type: "xavier"
    }
  }
}
layer {
  name: "elu7"
  type: "ELU"
  bottom: "conv7"
  top: "elu7"
}
layer {
  name: "drop4"
  type: "Dropout"
  bottom: "elu7"
  top: "drop4"
  dropout_param {
    dropout_ratio: 0.3
  }
}
layer {
  name: "pool4"
  type: "Pooling"
  bottom: "drop4"
  top: "pool4"
  pooling_param {
    pool: MAX
    kernel_size: 2
    stride: 2
  }
}
layer {
  name: "conv8"
  type: "Convolution"
  bottom: "pool4"
  top: "conv8"
  convolution_param {
    num_output: 280
    kernel_size: 1
    weight_filler {
      type: "xavier"
    }
  }
}
layer {
  name: "elu8"
  type: "ELU"
  bottom: "conv8"
  top: "elu8"
}
layer {
  name: "drop5"
  type: "Dropout"
  bottom: "elu8"
  top: "drop5"
  dropout_param {
    dropout_ratio: 0.4
  }
}
layer {
  name: "pool5"
  type: "Pooling"
  bottom: "drop5"
  top: "pool5"
  pooling_param {
    pool: MAX
    kernel_size: 2
    stride: 2
  }
}
layer {
  name: "conv10"
  type: "Convolution"
  bottom: "pool5"
  top: "conv10"
  convolution_param {
    num_output: 300
    kernel_size: 1
    weight_filler {
      type: "xavier"
    }
  }
}
layer {
  name: "elu10"
  type: "ELU"
  bottom: "conv10"
  top: "elu10"
}
layer {
  name: "drop6"
  type: "Dropout"
  bottom: "elu10"
  top: "drop6"
  dropout_param {
    dropout_ratio: 0.5
  }
}
layer {
  name: "pool6"
  type: "Pooling"
  bottom: "drop6"
  top: "pool6"
  pooling_param {
    pool: MAX
    kernel_size: 2
    stride: 2
  }
}
layer {
  name: "conv11"
  type: "Convolution"
  bottom: "pool6"
  top: "conv11"
  convolution_param {
    num_output: 100
    kernel_size: 1
    weight_filler {
      type: "xavier"
    }
  }
}
layer {
  name: "elu11"
  type: "ELU"
  bottom: "conv11"
  top: "elu11"
}
layer {
  name: "drop7"
  type: "Dropout"
  bottom: "elu11"
  top: "drop7"
  dropout_param {
    dropout_ratio: 0
  }
}
layer {
  name: "pool7"
  type: "Pooling"
  bottom: "drop7"
  top: "pool7"
  pooling_param {
    pool: MAX
    kernel_size: 2
    stride: 2
  }
}
layer {
  name: "score"
  type: "InnerProduct"
  bottom: "pool7"
  top: "score"
  inner_product_param {
    num_output: 10
    weight_filler {
      type: "gaussian"
    }
  }
}
layer {
  name: "accuracy"
  type: "Accuracy"
  bottom: "score"
  bottom: "label"
  top: "accuracy"
}
layer {
  name: "loss"
  type: "SoftmaxWithLoss"
  bottom: "score"
  bottom: "label"
  top: "loss"
}
I1020 04:37:57.432343 10450 layer_factory.hpp:77] Creating layer data
I1020 04:37:57.432437 10450 net.cpp:100] Creating Layer data
I1020 04:37:57.432451 10450 net.cpp:408] data -> data
I1020 04:37:57.432458 10450 net.cpp:408] data -> label
I1020 04:37:57.433006 10458 db_lmdb.cpp:35] Opened lmdb ../../../../data/mnist/mnist_test_lmdb
I1020 04:37:57.433081 10450 data_layer.cpp:41] output data size: 100,1,28,28
I1020 04:37:57.433717 10450 net.cpp:150] Setting up data
I1020 04:37:57.433727 10450 net.cpp:157] Top shape: 100 1 28 28 (78400)
I1020 04:37:57.433732 10450 net.cpp:157] Top shape: 100 (100)
I1020 04:37:57.433734 10450 net.cpp:165] Memory required for data: 314000
I1020 04:37:57.433737 10450 layer_factory.hpp:77] Creating layer label_data_1_split
I1020 04:37:57.433745 10450 net.cpp:100] Creating Layer label_data_1_split
I1020 04:37:57.433749 10450 net.cpp:434] label_data_1_split <- label
I1020 04:37:57.433754 10450 net.cpp:408] label_data_1_split -> label_data_1_split_0
I1020 04:37:57.433763 10450 net.cpp:408] label_data_1_split -> label_data_1_split_1
I1020 04:37:57.433794 10450 net.cpp:150] Setting up label_data_1_split
I1020 04:37:57.433799 10450 net.cpp:157] Top shape: 100 (100)
I1020 04:37:57.433801 10450 net.cpp:157] Top shape: 100 (100)
I1020 04:37:57.433804 10450 net.cpp:165] Memory required for data: 314800
I1020 04:37:57.433807 10450 layer_factory.hpp:77] Creating layer conv1
I1020 04:37:57.433815 10450 net.cpp:100] Creating Layer conv1
I1020 04:37:57.433820 10450 net.cpp:434] conv1 <- data
I1020 04:37:57.433825 10450 net.cpp:408] conv1 -> conv1
I1020 04:37:57.434664 10450 net.cpp:150] Setting up conv1
I1020 04:37:57.434674 10450 net.cpp:157] Top shape: 100 192 24 24 (11059200)
I1020 04:37:57.434679 10450 net.cpp:165] Memory required for data: 44551600
I1020 04:37:57.434687 10450 layer_factory.hpp:77] Creating layer elu1
I1020 04:37:57.434695 10450 net.cpp:100] Creating Layer elu1
I1020 04:37:57.434700 10450 net.cpp:434] elu1 <- conv1
I1020 04:37:57.434706 10450 net.cpp:408] elu1 -> elu1
I1020 04:37:57.434726 10450 net.cpp:150] Setting up elu1
I1020 04:37:57.434732 10450 net.cpp:157] Top shape: 100 192 24 24 (11059200)
I1020 04:37:57.434739 10450 net.cpp:165] Memory required for data: 88788400
I1020 04:37:57.434741 10450 layer_factory.hpp:77] Creating layer drop1
I1020 04:37:57.434748 10450 net.cpp:100] Creating Layer drop1
I1020 04:37:57.434752 10450 net.cpp:434] drop1 <- elu1
I1020 04:37:57.434757 10450 net.cpp:408] drop1 -> drop1
I1020 04:37:57.434787 10450 net.cpp:150] Setting up drop1
I1020 04:37:57.434793 10450 net.cpp:157] Top shape: 100 192 24 24 (11059200)
I1020 04:37:57.434798 10450 net.cpp:165] Memory required for data: 133025200
I1020 04:37:57.434803 10450 layer_factory.hpp:77] Creating layer pool1
I1020 04:37:57.434806 10450 net.cpp:100] Creating Layer pool1
I1020 04:37:57.434810 10450 net.cpp:434] pool1 <- drop1
I1020 04:37:57.434818 10450 net.cpp:408] pool1 -> pool1
I1020 04:37:57.434846 10450 net.cpp:150] Setting up pool1
I1020 04:37:57.434851 10450 net.cpp:157] Top shape: 100 192 12 12 (2764800)
I1020 04:37:57.434856 10450 net.cpp:165] Memory required for data: 144084400
I1020 04:37:57.434859 10450 layer_factory.hpp:77] Creating layer conv2
I1020 04:37:57.434873 10450 net.cpp:100] Creating Layer conv2
I1020 04:37:57.434878 10450 net.cpp:434] conv2 <- pool1
I1020 04:37:57.434882 10450 net.cpp:408] conv2 -> conv2
I1020 04:37:57.435745 10450 net.cpp:150] Setting up conv2
I1020 04:37:57.435755 10450 net.cpp:157] Top shape: 100 192 12 12 (2764800)
I1020 04:37:57.435757 10450 net.cpp:165] Memory required for data: 155143600
I1020 04:37:57.435765 10450 layer_factory.hpp:77] Creating layer elu2
I1020 04:37:57.435771 10450 net.cpp:100] Creating Layer elu2
I1020 04:37:57.435775 10450 net.cpp:434] elu2 <- conv2
I1020 04:37:57.435781 10450 net.cpp:408] elu2 -> elu2
I1020 04:37:57.435801 10450 net.cpp:150] Setting up elu2
I1020 04:37:57.435808 10450 net.cpp:157] Top shape: 100 192 12 12 (2764800)
I1020 04:37:57.435812 10450 net.cpp:165] Memory required for data: 166202800
I1020 04:37:57.435817 10450 layer_factory.hpp:77] Creating layer conv3
I1020 04:37:57.435824 10450 net.cpp:100] Creating Layer conv3
I1020 04:37:57.435828 10450 net.cpp:434] conv3 <- elu2
I1020 04:37:57.435833 10450 net.cpp:408] conv3 -> conv3
I1020 04:37:57.438307 10450 net.cpp:150] Setting up conv3
I1020 04:37:57.438318 10450 net.cpp:157] Top shape: 100 240 10 10 (2400000)
I1020 04:37:57.438321 10450 net.cpp:165] Memory required for data: 175802800
I1020 04:37:57.438328 10450 layer_factory.hpp:77] Creating layer elu3
I1020 04:37:57.438334 10450 net.cpp:100] Creating Layer elu3
I1020 04:37:57.438338 10450 net.cpp:434] elu3 <- conv3
I1020 04:37:57.438345 10450 net.cpp:408] elu3 -> elu3
I1020 04:37:57.438364 10450 net.cpp:150] Setting up elu3
I1020 04:37:57.438369 10450 net.cpp:157] Top shape: 100 240 10 10 (2400000)
I1020 04:37:57.438372 10450 net.cpp:165] Memory required for data: 185402800
I1020 04:37:57.438376 10450 layer_factory.hpp:77] Creating layer drop2
I1020 04:37:57.438382 10450 net.cpp:100] Creating Layer drop2
I1020 04:37:57.438385 10450 net.cpp:434] drop2 <- elu3
I1020 04:37:57.438390 10450 net.cpp:408] drop2 -> drop2
I1020 04:37:57.438417 10450 net.cpp:150] Setting up drop2
I1020 04:37:57.438422 10450 net.cpp:157] Top shape: 100 240 10 10 (2400000)
I1020 04:37:57.438426 10450 net.cpp:165] Memory required for data: 195002800
I1020 04:37:57.438428 10450 layer_factory.hpp:77] Creating layer pool2
I1020 04:37:57.438436 10450 net.cpp:100] Creating Layer pool2
I1020 04:37:57.438438 10450 net.cpp:434] pool2 <- drop2
I1020 04:37:57.438443 10450 net.cpp:408] pool2 -> pool2
I1020 04:37:57.438470 10450 net.cpp:150] Setting up pool2
I1020 04:37:57.438475 10450 net.cpp:157] Top shape: 100 240 5 5 (600000)
I1020 04:37:57.438478 10450 net.cpp:165] Memory required for data: 197402800
I1020 04:37:57.438482 10450 layer_factory.hpp:77] Creating layer conv4
I1020 04:37:57.438488 10450 net.cpp:100] Creating Layer conv4
I1020 04:37:57.438491 10450 net.cpp:434] conv4 <- pool2
I1020 04:37:57.438496 10450 net.cpp:408] conv4 -> conv4
I1020 04:37:57.439342 10450 net.cpp:150] Setting up conv4
I1020 04:37:57.439350 10450 net.cpp:157] Top shape: 100 240 5 5 (600000)
I1020 04:37:57.439354 10450 net.cpp:165] Memory required for data: 199802800
I1020 04:37:57.439360 10450 layer_factory.hpp:77] Creating layer elu4
I1020 04:37:57.439365 10450 net.cpp:100] Creating Layer elu4
I1020 04:37:57.439369 10450 net.cpp:434] elu4 <- conv4
I1020 04:37:57.439375 10450 net.cpp:408] elu4 -> elu4
I1020 04:37:57.439398 10450 net.cpp:150] Setting up elu4
I1020 04:37:57.439404 10450 net.cpp:157] Top shape: 100 240 5 5 (600000)
I1020 04:37:57.439406 10450 net.cpp:165] Memory required for data: 202202800
I1020 04:37:57.439410 10450 layer_factory.hpp:77] Creating layer conv5
I1020 04:37:57.439417 10450 net.cpp:100] Creating Layer conv5
I1020 04:37:57.439420 10450 net.cpp:434] conv5 <- elu4
I1020 04:37:57.439426 10450 net.cpp:408] conv5 -> conv5
I1020 04:37:57.441140 10450 net.cpp:150] Setting up conv5
I1020 04:37:57.441150 10450 net.cpp:157] Top shape: 100 260 4 4 (416000)
I1020 04:37:57.441154 10450 net.cpp:165] Memory required for data: 203866800
I1020 04:37:57.441161 10450 layer_factory.hpp:77] Creating layer elu5
I1020 04:37:57.441175 10450 net.cpp:100] Creating Layer elu5
I1020 04:37:57.441179 10450 net.cpp:434] elu5 <- conv5
I1020 04:37:57.441185 10450 net.cpp:408] elu5 -> elu5
I1020 04:37:57.441205 10450 net.cpp:150] Setting up elu5
I1020 04:37:57.441211 10450 net.cpp:157] Top shape: 100 260 4 4 (416000)
I1020 04:37:57.441215 10450 net.cpp:165] Memory required for data: 205530800
I1020 04:37:57.441217 10450 layer_factory.hpp:77] Creating layer drop3
I1020 04:37:57.441225 10450 net.cpp:100] Creating Layer drop3
I1020 04:37:57.441228 10450 net.cpp:434] drop3 <- elu5
I1020 04:37:57.441232 10450 net.cpp:408] drop3 -> drop3
I1020 04:37:57.441260 10450 net.cpp:150] Setting up drop3
I1020 04:37:57.441265 10450 net.cpp:157] Top shape: 100 260 4 4 (416000)
I1020 04:37:57.441269 10450 net.cpp:165] Memory required for data: 207194800
I1020 04:37:57.441272 10450 layer_factory.hpp:77] Creating layer pool3
I1020 04:37:57.441277 10450 net.cpp:100] Creating Layer pool3
I1020 04:37:57.441280 10450 net.cpp:434] pool3 <- drop3
I1020 04:37:57.441287 10450 net.cpp:408] pool3 -> pool3
I1020 04:37:57.441313 10450 net.cpp:150] Setting up pool3
I1020 04:37:57.441320 10450 net.cpp:157] Top shape: 100 260 2 2 (104000)
I1020 04:37:57.441323 10450 net.cpp:165] Memory required for data: 207610800
I1020 04:37:57.441328 10450 layer_factory.hpp:77] Creating layer conv6
I1020 04:37:57.441332 10450 net.cpp:100] Creating Layer conv6
I1020 04:37:57.441336 10450 net.cpp:434] conv6 <- pool3
I1020 04:37:57.441341 10450 net.cpp:408] conv6 -> conv6
I1020 04:37:57.442474 10450 net.cpp:150] Setting up conv6
I1020 04:37:57.442484 10450 net.cpp:157] Top shape: 100 260 2 2 (104000)
I1020 04:37:57.442488 10450 net.cpp:165] Memory required for data: 208026800
I1020 04:37:57.442493 10450 layer_factory.hpp:77] Creating layer elu6
I1020 04:37:57.442499 10450 net.cpp:100] Creating Layer elu6
I1020 04:37:57.442503 10450 net.cpp:434] elu6 <- conv6
I1020 04:37:57.442508 10450 net.cpp:408] elu6 -> elu6
I1020 04:37:57.442528 10450 net.cpp:150] Setting up elu6
I1020 04:37:57.442534 10450 net.cpp:157] Top shape: 100 260 2 2 (104000)
I1020 04:37:57.442538 10450 net.cpp:165] Memory required for data: 208442800
I1020 04:37:57.442539 10450 layer_factory.hpp:77] Creating layer conv7
I1020 04:37:57.442548 10450 net.cpp:100] Creating Layer conv7
I1020 04:37:57.442553 10450 net.cpp:434] conv7 <- elu6
I1020 04:37:57.442558 10450 net.cpp:408] conv7 -> conv7
I1020 04:37:57.444736 10450 net.cpp:150] Setting up conv7
I1020 04:37:57.444749 10450 net.cpp:157] Top shape: 100 280 1 1 (28000)
I1020 04:37:57.444752 10450 net.cpp:165] Memory required for data: 208554800
I1020 04:37:57.444759 10450 layer_factory.hpp:77] Creating layer elu7
I1020 04:37:57.444766 10450 net.cpp:100] Creating Layer elu7
I1020 04:37:57.444769 10450 net.cpp:434] elu7 <- conv7
I1020 04:37:57.444777 10450 net.cpp:408] elu7 -> elu7
I1020 04:37:57.444797 10450 net.cpp:150] Setting up elu7
I1020 04:37:57.444803 10450 net.cpp:157] Top shape: 100 280 1 1 (28000)
I1020 04:37:57.444805 10450 net.cpp:165] Memory required for data: 208666800
I1020 04:37:57.444809 10450 layer_factory.hpp:77] Creating layer drop4
I1020 04:37:57.444816 10450 net.cpp:100] Creating Layer drop4
I1020 04:37:57.444819 10450 net.cpp:434] drop4 <- elu7
I1020 04:37:57.444824 10450 net.cpp:408] drop4 -> drop4
I1020 04:37:57.444854 10450 net.cpp:150] Setting up drop4
I1020 04:37:57.444859 10450 net.cpp:157] Top shape: 100 280 1 1 (28000)
I1020 04:37:57.444861 10450 net.cpp:165] Memory required for data: 208778800
I1020 04:37:57.444865 10450 layer_factory.hpp:77] Creating layer pool4
I1020 04:37:57.444872 10450 net.cpp:100] Creating Layer pool4
I1020 04:37:57.444876 10450 net.cpp:434] pool4 <- drop4
I1020 04:37:57.444881 10450 net.cpp:408] pool4 -> pool4
I1020 04:37:57.444910 10450 net.cpp:150] Setting up pool4
I1020 04:37:57.444916 10450 net.cpp:157] Top shape: 100 280 1 1 (28000)
I1020 04:37:57.444918 10450 net.cpp:165] Memory required for data: 208890800
I1020 04:37:57.444921 10450 layer_factory.hpp:77] Creating layer conv8
I1020 04:37:57.444928 10450 net.cpp:100] Creating Layer conv8
I1020 04:37:57.444941 10450 net.cpp:434] conv8 <- pool4
I1020 04:37:57.444947 10450 net.cpp:408] conv8 -> conv8
I1020 04:37:57.445909 10450 net.cpp:150] Setting up conv8
I1020 04:37:57.445917 10450 net.cpp:157] Top shape: 100 280 1 1 (28000)
I1020 04:37:57.445920 10450 net.cpp:165] Memory required for data: 209002800
I1020 04:37:57.445927 10450 layer_factory.hpp:77] Creating layer elu8
I1020 04:37:57.445932 10450 net.cpp:100] Creating Layer elu8
I1020 04:37:57.445936 10450 net.cpp:434] elu8 <- conv8
I1020 04:37:57.445943 10450 net.cpp:408] elu8 -> elu8
I1020 04:37:57.445965 10450 net.cpp:150] Setting up elu8
I1020 04:37:57.445971 10450 net.cpp:157] Top shape: 100 280 1 1 (28000)
I1020 04:37:57.445973 10450 net.cpp:165] Memory required for data: 209114800
I1020 04:37:57.445977 10450 layer_factory.hpp:77] Creating layer drop5
I1020 04:37:57.445983 10450 net.cpp:100] Creating Layer drop5
I1020 04:37:57.445986 10450 net.cpp:434] drop5 <- elu8
I1020 04:37:57.445991 10450 net.cpp:408] drop5 -> drop5
I1020 04:37:57.446020 10450 net.cpp:150] Setting up drop5
I1020 04:37:57.446025 10450 net.cpp:157] Top shape: 100 280 1 1 (28000)
I1020 04:37:57.446028 10450 net.cpp:165] Memory required for data: 209226800
I1020 04:37:57.446032 10450 layer_factory.hpp:77] Creating layer pool5
I1020 04:37:57.446039 10450 net.cpp:100] Creating Layer pool5
I1020 04:37:57.446043 10450 net.cpp:434] pool5 <- drop5
I1020 04:37:57.446046 10450 net.cpp:408] pool5 -> pool5
I1020 04:37:57.446075 10450 net.cpp:150] Setting up pool5
I1020 04:37:57.446081 10450 net.cpp:157] Top shape: 100 280 1 1 (28000)
I1020 04:37:57.446084 10450 net.cpp:165] Memory required for data: 209338800
I1020 04:37:57.446087 10450 layer_factory.hpp:77] Creating layer conv10
I1020 04:37:57.446095 10450 net.cpp:100] Creating Layer conv10
I1020 04:37:57.446099 10450 net.cpp:434] conv10 <- pool5
I1020 04:37:57.446105 10450 net.cpp:408] conv10 -> conv10
I1020 04:37:57.447211 10450 net.cpp:150] Setting up conv10
I1020 04:37:57.447221 10450 net.cpp:157] Top shape: 100 300 1 1 (30000)
I1020 04:37:57.447223 10450 net.cpp:165] Memory required for data: 209458800
I1020 04:37:57.447235 10450 layer_factory.hpp:77] Creating layer elu10
I1020 04:37:57.447242 10450 net.cpp:100] Creating Layer elu10
I1020 04:37:57.447245 10450 net.cpp:434] elu10 <- conv10
I1020 04:37:57.447252 10450 net.cpp:408] elu10 -> elu10
I1020 04:37:57.447271 10450 net.cpp:150] Setting up elu10
I1020 04:37:57.447278 10450 net.cpp:157] Top shape: 100 300 1 1 (30000)
I1020 04:37:57.447279 10450 net.cpp:165] Memory required for data: 209578800
I1020 04:37:57.447283 10450 layer_factory.hpp:77] Creating layer drop6
I1020 04:37:57.447288 10450 net.cpp:100] Creating Layer drop6
I1020 04:37:57.447293 10450 net.cpp:434] drop6 <- elu10
I1020 04:37:57.447299 10450 net.cpp:408] drop6 -> drop6
I1020 04:37:57.447329 10450 net.cpp:150] Setting up drop6
I1020 04:37:57.447336 10450 net.cpp:157] Top shape: 100 300 1 1 (30000)
I1020 04:37:57.447340 10450 net.cpp:165] Memory required for data: 209698800
I1020 04:37:57.447342 10450 layer_factory.hpp:77] Creating layer pool6
I1020 04:37:57.447347 10450 net.cpp:100] Creating Layer pool6
I1020 04:37:57.447351 10450 net.cpp:434] pool6 <- drop6
I1020 04:37:57.447356 10450 net.cpp:408] pool6 -> pool6
I1020 04:37:57.447386 10450 net.cpp:150] Setting up pool6
I1020 04:37:57.447391 10450 net.cpp:157] Top shape: 100 300 1 1 (30000)
I1020 04:37:57.447393 10450 net.cpp:165] Memory required for data: 209818800
I1020 04:37:57.447396 10450 layer_factory.hpp:77] Creating layer conv11
I1020 04:37:57.447407 10450 net.cpp:100] Creating Layer conv11
I1020 04:37:57.447410 10450 net.cpp:434] conv11 <- pool6
I1020 04:37:57.447415 10450 net.cpp:408] conv11 -> conv11
I1020 04:37:57.448360 10450 net.cpp:150] Setting up conv11
I1020 04:37:57.448369 10450 net.cpp:157] Top shape: 100 100 1 1 (10000)
I1020 04:37:57.448372 10450 net.cpp:165] Memory required for data: 209858800
I1020 04:37:57.448379 10450 layer_factory.hpp:77] Creating layer elu11
I1020 04:37:57.448386 10450 net.cpp:100] Creating Layer elu11
I1020 04:37:57.448400 10450 net.cpp:434] elu11 <- conv11
I1020 04:37:57.448405 10450 net.cpp:408] elu11 -> elu11
I1020 04:37:57.448426 10450 net.cpp:150] Setting up elu11
I1020 04:37:57.448432 10450 net.cpp:157] Top shape: 100 100 1 1 (10000)
I1020 04:37:57.448436 10450 net.cpp:165] Memory required for data: 209898800
I1020 04:37:57.448439 10450 layer_factory.hpp:77] Creating layer drop7
I1020 04:37:57.448444 10450 net.cpp:100] Creating Layer drop7
I1020 04:37:57.448448 10450 net.cpp:434] drop7 <- elu11
I1020 04:37:57.448456 10450 net.cpp:408] drop7 -> drop7
I1020 04:37:57.448483 10450 net.cpp:150] Setting up drop7
I1020 04:37:57.448489 10450 net.cpp:157] Top shape: 100 100 1 1 (10000)
I1020 04:37:57.448493 10450 net.cpp:165] Memory required for data: 209938800
I1020 04:37:57.448496 10450 layer_factory.hpp:77] Creating layer pool7
I1020 04:37:57.448503 10450 net.cpp:100] Creating Layer pool7
I1020 04:37:57.448506 10450 net.cpp:434] pool7 <- drop7
I1020 04:37:57.448511 10450 net.cpp:408] pool7 -> pool7
I1020 04:37:57.448540 10450 net.cpp:150] Setting up pool7
I1020 04:37:57.448545 10450 net.cpp:157] Top shape: 100 100 1 1 (10000)
I1020 04:37:57.448549 10450 net.cpp:165] Memory required for data: 209978800
I1020 04:37:57.448552 10450 layer_factory.hpp:77] Creating layer score
I1020 04:37:57.448559 10450 net.cpp:100] Creating Layer score
I1020 04:37:57.448562 10450 net.cpp:434] score <- pool7
I1020 04:37:57.448567 10450 net.cpp:408] score -> score
I1020 04:37:57.448659 10450 net.cpp:150] Setting up score
I1020 04:37:57.448664 10450 net.cpp:157] Top shape: 100 10 (1000)
I1020 04:37:57.448668 10450 net.cpp:165] Memory required for data: 209982800
I1020 04:37:57.448673 10450 layer_factory.hpp:77] Creating layer score_score_0_split
I1020 04:37:57.448680 10450 net.cpp:100] Creating Layer score_score_0_split
I1020 04:37:57.448683 10450 net.cpp:434] score_score_0_split <- score
I1020 04:37:57.448688 10450 net.cpp:408] score_score_0_split -> score_score_0_split_0
I1020 04:37:57.448694 10450 net.cpp:408] score_score_0_split -> score_score_0_split_1
I1020 04:37:57.448722 10450 net.cpp:150] Setting up score_score_0_split
I1020 04:37:57.448727 10450 net.cpp:157] Top shape: 100 10 (1000)
I1020 04:37:57.448731 10450 net.cpp:157] Top shape: 100 10 (1000)
I1020 04:37:57.448734 10450 net.cpp:165] Memory required for data: 209990800
I1020 04:37:57.448737 10450 layer_factory.hpp:77] Creating layer accuracy
I1020 04:37:57.448743 10450 net.cpp:100] Creating Layer accuracy
I1020 04:37:57.448746 10450 net.cpp:434] accuracy <- score_score_0_split_0
I1020 04:37:57.448750 10450 net.cpp:434] accuracy <- label_data_1_split_0
I1020 04:37:57.448756 10450 net.cpp:408] accuracy -> accuracy
…
