…
  level: 0
  stage: ""
}
type: "Nesterov"
I1018 17:43:00.080821  3886 solver.cpp:81] Creating training net from train_net file: /home/adam/Honours/Honours-Project/mnist_pooling/max/elu/poolcnn_elu_train.prototxt
I1018 17:43:00.081130  3886 net.cpp:58] Initializing net from parameters: 
state {
  phase: TRAIN
  level: 0
  stage: ""
}
layer {
  name: "data"
  type: "Data"
  top: "data"
  top: "label"
  transform_param {
    scale: 0.0039215689
  }
  data_param {
    source: "../../../../data/mnist/mnist_train_lmdb"
    batch_size: 64
    backend: LMDB
  }
}
layer {
  name: "conv1"
  type: "Convolution"
  bottom: "data"
  top: "conv1"
  convolution_param {
    num_output: 192
    kernel_size: 5
    weight_filler {
      type: "xavier"
    }
  }
}
layer {
  name: "pool1"
  type: "Pooling"
  bottom: "conv1"
  top: "pool1"
  pooling_param {
    pool: MAX
    kernel_size: 2
    stride: 2
  }
}
layer {
  name: "drop1"
  type: "Dropout"
  bottom: "pool1"
  top: "drop1"
  dropout_param {
    dropout_ratio: 0
  }
}
layer {
  name: "elu1"
  type: "ELU"
  bottom: "drop1"
  top: "elu1"
}
layer {
  name: "conv2"
  type: "Convolution"
  bottom: "elu1"
  top: "conv2"
  convolution_param {
    num_output: 192
    kernel_size: 1
    weight_filler {
      type: "xavier"
    }
  }
}
layer {
  name: "conv3"
  type: "Convolution"
  bottom: "conv2"
  top: "conv3"
  convolution_param {
    num_output: 240
    kernel_size: 3
    weight_filler {
      type: "xavier"
    }
  }
}
layer {
  name: "pool2"
  type: "Pooling"
  bottom: "conv3"
  top: "pool2"
  pooling_param {
    pool: MAX
    kernel_size: 2
    stride: 2
  }
}
layer {
  name: "drop2"
  type: "Dropout"
  bottom: "pool2"
  top: "drop2"
  dropout_param {
    dropout_ratio: 0.1
  }
}
layer {
  name: "elu2"
  type: "ELU"
  bottom: "drop2"
  top: "elu2"
}
layer {
  name: "conv4"
  type: "Convolution"
  bottom: "elu2"
  top: "conv4"
  convolution_param {
    num_output: 240
    kernel_size: 1
    weight_filler {
      type: "xavier"
    }
  }
}
layer {
  name: "conv5"
  type: "Convolution"
  bottom: "conv4"
  top: "conv5"
  convolution_param {
    num_output: 260
    kernel_size: 2
    weight_filler {
      type: "xavier"
    }
  }
}
layer {
  name: "pool3"
  type: "Pooling"
  bottom: "conv5"
  top: "pool3"
  pooling_param {
    pool: MAX
    kernel_size: 2
    stride: 2
  }
}
layer {
  name: "drop3"
  type: "Dropout"
  bottom: "pool3"
  top: "drop3"
  dropout_param {
    dropout_ratio: 0.2
  }
}
layer {
  name: "elu3"
  type: "ELU"
  bottom: "drop3"
  top: "elu3"
}
layer {
  name: "conv6"
  type: "Convolution"
  bottom: "elu3"
  top: "conv6"
  convolution_param {
    num_output: 260
    kernel_size: 1
    weight_filler {
      type: "xavier"
    }
  }
}
layer {
  name: "conv7"
  type: "Convolution"
  bottom: "conv6"
  top: "conv7"
  convolution_param {
    num_output: 280
    kernel_size: 2
    weight_filler {
      type: "xavier"
    }
  }
}
layer {
  name: "pool4"
  type: "Pooling"
  bottom: "conv7"
  top: "pool4"
  pooling_param {
    pool: MAX
    kernel_size: 2
    stride: 2
  }
}
layer {
  name: "drop4"
  type: "Dropout"
  bottom: "pool4"
  top: "drop4"
  dropout_param {
    dropout_ratio: 0.3
  }
}
layer {
  name: "elu4"
  type: "ELU"
  bottom: "drop4"
  top: "elu4"
}
layer {
  name: "conv8"
  type: "Convolution"
  bottom: "elu4"
  top: "conv8"
  convolution_param {
    num_output: 280
    kernel_size: 1
    weight_filler {
      type: "xavier"
    }
  }
}
layer {
  name: "pool5"
  type: "Pooling"
  bottom: "conv8"
  top: "pool5"
  pooling_param {
    pool: MAX
    kernel_size: 2
    stride: 2
  }
}
layer {
  name: "drop5"
  type: "Dropout"
  bottom: "pool5"
  top: "drop5"
  dropout_param {
    dropout_ratio: 0.4
  }
}
layer {
  name: "elu5"
  type: "ELU"
  bottom: "drop5"
  top: "elu5"
}
layer {
  name: "conv10"
  type: "Convolution"
  bottom: "elu5"
  top: "conv10"
  convolution_param {
    num_output: 300
    kernel_size: 1
    weight_filler {
      type: "xavier"
    }
  }
}
layer {
  name: "pool6"
  type: "Pooling"
  bottom: "conv10"
  top: "pool6"
  pooling_param {
    pool: MAX
    kernel_size: 2
    stride: 2
  }
}
layer {
  name: "drop6"
  type: "Dropout"
  bottom: "pool6"
  top: "drop6"
  dropout_param {
    dropout_ratio: 0.5
  }
}
layer {
  name: "elu6"
  type: "ELU"
  bottom: "drop6"
  top: "elu6"
}
layer {
  name: "conv11"
  type: "Convolution"
  bottom: "elu6"
  top: "conv11"
  convolution_param {
    num_output: 100
    kernel_size: 1
    weight_filler {
      type: "xavier"
    }
  }
}
layer {
  name: "pool7"
  type: "Pooling"
  bottom: "conv11"
  top: "pool7"
  pooling_param {
    pool: MAX
    kernel_size: 2
    stride: 2
  }
}
layer {
  name: "drop7"
  type: "Dropout"
  bottom: "pool7"
  top: "drop7"
  dropout_param {
    dropout_ratio: 0
  }
}
layer {
  name: "elu7"
  type: "ELU"
  bottom: "drop7"
  top: "elu7"
}
layer {
  name: "pool"
  type: "Pooling"
  bottom: "elu7"
  top: "pool"
  pooling_param {
    pool: AVE
    global_pooling: true
  }
}
layer {
  name: "flatten"
  type: "Flatten"
  bottom: "pool"
  top: "flatten"
}
layer {
  name: "score"
  type: "InnerProduct"
  bottom: "flatten"
  top: "score"
  inner_product_param {
    num_output: 10
    weight_filler {
      type: "gaussian"
    }
  }
}
layer {
  name: "accuracy"
  type: "Accuracy"
  bottom: "score"
  bottom: "label"
  top: "accuracy"
}
layer {
  name: "loss"
  type: "SoftmaxWithLoss"
  bottom: "score"
  bottom: "label"
  top: "loss"
}
I1018 17:43:00.081259  3886 layer_factory.hpp:77] Creating layer data
I1018 17:43:00.081647  3886 net.cpp:100] Creating Layer data
I1018 17:43:00.081655  3886 net.cpp:408] data -> data
I1018 17:43:00.081676  3886 net.cpp:408] data -> label
I1018 17:43:00.082216  3893 db_lmdb.cpp:35] Opened lmdb ../../../../data/mnist/mnist_train_lmdb
I1018 17:43:00.087743  3886 data_layer.cpp:41] output data size: 64,1,28,28
I1018 17:43:00.088328  3886 net.cpp:150] Setting up data
I1018 17:43:00.088343  3886 net.cpp:157] Top shape: 64 1 28 28 (50176)
I1018 17:43:00.088349  3886 net.cpp:157] Top shape: 64 (64)
I1018 17:43:00.088352  3886 net.cpp:165] Memory required for data: 200960
I1018 17:43:00.088364  3886 layer_factory.hpp:77] Creating layer label_data_1_split
I1018 17:43:00.088376  3886 net.cpp:100] Creating Layer label_data_1_split
I1018 17:43:00.088382  3886 net.cpp:434] label_data_1_split <- label
I1018 17:43:00.088395  3886 net.cpp:408] label_data_1_split -> label_data_1_split_0
I1018 17:43:00.088407  3886 net.cpp:408] label_data_1_split -> label_data_1_split_1
I1018 17:43:00.088433  3886 net.cpp:150] Setting up label_data_1_split
I1018 17:43:00.088438  3886 net.cpp:157] Top shape: 64 (64)
I1018 17:43:00.088441  3886 net.cpp:157] Top shape: 64 (64)
I1018 17:43:00.088444  3886 net.cpp:165] Memory required for data: 201472
I1018 17:43:00.088448  3886 layer_factory.hpp:77] Creating layer conv1
I1018 17:43:00.088461  3886 net.cpp:100] Creating Layer conv1
I1018 17:43:00.088465  3886 net.cpp:434] conv1 <- data
I1018 17:43:00.088471  3886 net.cpp:408] conv1 -> conv1
I1018 17:43:00.215034  3886 net.cpp:150] Setting up conv1
I1018 17:43:00.215065  3886 net.cpp:157] Top shape: 64 192 24 24 (7077888)
I1018 17:43:00.215068  3886 net.cpp:165] Memory required for data: 28513024
I1018 17:43:00.215093  3886 layer_factory.hpp:77] Creating layer pool1
I1018 17:43:00.215107  3886 net.cpp:100] Creating Layer pool1
I1018 17:43:00.215112  3886 net.cpp:434] pool1 <- conv1
I1018 17:43:00.215118  3886 net.cpp:408] pool1 -> pool1
I1018 17:43:00.215167  3886 net.cpp:150] Setting up pool1
I1018 17:43:00.215171  3886 net.cpp:157] Top shape: 64 192 12 12 (1769472)
I1018 17:43:00.215184  3886 net.cpp:165] Memory required for data: 35590912
I1018 17:43:00.215188  3886 layer_factory.hpp:77] Creating layer drop1
I1018 17:43:00.215198  3886 net.cpp:100] Creating Layer drop1
I1018 17:43:00.215201  3886 net.cpp:434] drop1 <- pool1
I1018 17:43:00.215206  3886 net.cpp:408] drop1 -> drop1
I1018 17:43:00.215234  3886 net.cpp:150] Setting up drop1
I1018 17:43:00.215240  3886 net.cpp:157] Top shape: 64 192 12 12 (1769472)
I1018 17:43:00.215242  3886 net.cpp:165] Memory required for data: 42668800
I1018 17:43:00.215245  3886 layer_factory.hpp:77] Creating layer elu1
I1018 17:43:00.215250  3886 net.cpp:100] Creating Layer elu1
I1018 17:43:00.215253  3886 net.cpp:434] elu1 <- drop1
I1018 17:43:00.215257  3886 net.cpp:408] elu1 -> elu1
I1018 17:43:00.215272  3886 net.cpp:150] Setting up elu1
I1018 17:43:00.215277  3886 net.cpp:157] Top shape: 64 192 12 12 (1769472)
I1018 17:43:00.215281  3886 net.cpp:165] Memory required for data: 49746688
I1018 17:43:00.215284  3886 layer_factory.hpp:77] Creating layer conv2
I1018 17:43:00.215292  3886 net.cpp:100] Creating Layer conv2
I1018 17:43:00.215296  3886 net.cpp:434] conv2 <- elu1
I1018 17:43:00.215301  3886 net.cpp:408] conv2 -> conv2
I1018 17:43:00.216045  3886 net.cpp:150] Setting up conv2
I1018 17:43:00.216055  3886 net.cpp:157] Top shape: 64 192 12 12 (1769472)
I1018 17:43:00.216058  3886 net.cpp:165] Memory required for data: 56824576
I1018 17:43:00.216066  3886 layer_factory.hpp:77] Creating layer conv3
I1018 17:43:00.216074  3886 net.cpp:100] Creating Layer conv3
I1018 17:43:00.216078  3886 net.cpp:434] conv3 <- conv2
I1018 17:43:00.216084  3886 net.cpp:408] conv3 -> conv3
I1018 17:43:00.218538  3886 net.cpp:150] Setting up conv3
I1018 17:43:00.218550  3886 net.cpp:157] Top shape: 64 240 10 10 (1536000)
I1018 17:43:00.218554  3886 net.cpp:165] Memory required for data: 62968576
I1018 17:43:00.218561  3886 layer_factory.hpp:77] Creating layer pool2
I1018 17:43:00.218570  3886 net.cpp:100] Creating Layer pool2
I1018 17:43:00.218574  3886 net.cpp:434] pool2 <- conv3
I1018 17:43:00.218580  3886 net.cpp:408] pool2 -> pool2
I1018 17:43:00.218608  3886 net.cpp:150] Setting up pool2
I1018 17:43:00.218614  3886 net.cpp:157] Top shape: 64 240 5 5 (384000)
I1018 17:43:00.218617  3886 net.cpp:165] Memory required for data: 64504576
I1018 17:43:00.218621  3886 layer_factory.hpp:77] Creating layer drop2
I1018 17:43:00.218626  3886 net.cpp:100] Creating Layer drop2
I1018 17:43:00.218631  3886 net.cpp:434] drop2 <- pool2
I1018 17:43:00.218634  3886 net.cpp:408] drop2 -> drop2
I1018 17:43:00.218659  3886 net.cpp:150] Setting up drop2
I1018 17:43:00.218664  3886 net.cpp:157] Top shape: 64 240 5 5 (384000)
I1018 17:43:00.218668  3886 net.cpp:165] Memory required for data: 66040576
I1018 17:43:00.218672  3886 layer_factory.hpp:77] Creating layer elu2
I1018 17:43:00.218675  3886 net.cpp:100] Creating Layer elu2
I1018 17:43:00.218678  3886 net.cpp:434] elu2 <- drop2
I1018 17:43:00.218684  3886 net.cpp:408] elu2 -> elu2
I1018 17:43:00.218699  3886 net.cpp:150] Setting up elu2
I1018 17:43:00.218704  3886 net.cpp:157] Top shape: 64 240 5 5 (384000)
I1018 17:43:00.218708  3886 net.cpp:165] Memory required for data: 67576576
I1018 17:43:00.218711  3886 layer_factory.hpp:77] Creating layer conv4
I1018 17:43:00.218719  3886 net.cpp:100] Creating Layer conv4
I1018 17:43:00.218722  3886 net.cpp:434] conv4 <- elu2
I1018 17:43:00.218727  3886 net.cpp:408] conv4 -> conv4
I1018 17:43:00.219564  3886 net.cpp:150] Setting up conv4
I1018 17:43:00.219573  3886 net.cpp:157] Top shape: 64 240 5 5 (384000)
I1018 17:43:00.219576  3886 net.cpp:165] Memory required for data: 69112576
I1018 17:43:00.219581  3886 layer_factory.hpp:77] Creating layer conv5
I1018 17:43:00.219590  3886 net.cpp:100] Creating Layer conv5
I1018 17:43:00.219594  3886 net.cpp:434] conv5 <- conv4
I1018 17:43:00.219600  3886 net.cpp:408] conv5 -> conv5
I1018 17:43:00.221375  3886 net.cpp:150] Setting up conv5
I1018 17:43:00.221387  3886 net.cpp:157] Top shape: 64 260 4 4 (266240)
I1018 17:43:00.221390  3886 net.cpp:165] Memory required for data: 70177536
I1018 17:43:00.221411  3886 layer_factory.hpp:77] Creating layer pool3
I1018 17:43:00.221420  3886 net.cpp:100] Creating Layer pool3
I1018 17:43:00.221423  3886 net.cpp:434] pool3 <- conv5
I1018 17:43:00.221429  3886 net.cpp:408] pool3 -> pool3
I1018 17:43:00.221458  3886 net.cpp:150] Setting up pool3
I1018 17:43:00.221463  3886 net.cpp:157] Top shape: 64 260 2 2 (66560)
I1018 17:43:00.221467  3886 net.cpp:165] Memory required for data: 70443776
I1018 17:43:00.221472  3886 layer_factory.hpp:77] Creating layer drop3
I1018 17:43:00.221478  3886 net.cpp:100] Creating Layer drop3
I1018 17:43:00.221482  3886 net.cpp:434] drop3 <- pool3
I1018 17:43:00.221487  3886 net.cpp:408] drop3 -> drop3
I1018 17:43:00.221515  3886 net.cpp:150] Setting up drop3
I1018 17:43:00.221523  3886 net.cpp:157] Top shape: 64 260 2 2 (66560)
I1018 17:43:00.221525  3886 net.cpp:165] Memory required for data: 70710016
I1018 17:43:00.221529  3886 layer_factory.hpp:77] Creating layer elu3
I1018 17:43:00.221534  3886 net.cpp:100] Creating Layer elu3
I1018 17:43:00.221539  3886 net.cpp:434] elu3 <- drop3
I1018 17:43:00.221542  3886 net.cpp:408] elu3 -> elu3
I1018 17:43:00.221560  3886 net.cpp:150] Setting up elu3
I1018 17:43:00.221565  3886 net.cpp:157] Top shape: 64 260 2 2 (66560)
I1018 17:43:00.221566  3886 net.cpp:165] Memory required for data: 70976256
I1018 17:43:00.221570  3886 layer_factory.hpp:77] Creating layer conv6
I1018 17:43:00.221580  3886 net.cpp:100] Creating Layer conv6
I1018 17:43:00.221583  3886 net.cpp:434] conv6 <- elu3
I1018 17:43:00.221588  3886 net.cpp:408] conv6 -> conv6
I1018 17:43:00.222733  3886 net.cpp:150] Setting up conv6
I1018 17:43:00.222743  3886 net.cpp:157] Top shape: 64 260 2 2 (66560)
I1018 17:43:00.222746  3886 net.cpp:165] Memory required for data: 71242496
I1018 17:43:00.222753  3886 layer_factory.hpp:77] Creating layer conv7
I1018 17:43:00.222761  3886 net.cpp:100] Creating Layer conv7
I1018 17:43:00.222765  3886 net.cpp:434] conv7 <- conv6
I1018 17:43:00.222771  3886 net.cpp:408] conv7 -> conv7
I1018 17:43:00.224714  3886 net.cpp:150] Setting up conv7
I1018 17:43:00.224728  3886 net.cpp:157] Top shape: 64 280 1 1 (17920)
I1018 17:43:00.224731  3886 net.cpp:165] Memory required for data: 71314176
I1018 17:43:00.224738  3886 layer_factory.hpp:77] Creating layer pool4
I1018 17:43:00.224747  3886 net.cpp:100] Creating Layer pool4
I1018 17:43:00.224751  3886 net.cpp:434] pool4 <- conv7
I1018 17:43:00.224759  3886 net.cpp:408] pool4 -> pool4
I1018 17:43:00.224788  3886 net.cpp:150] Setting up pool4
I1018 17:43:00.224793  3886 net.cpp:157] Top shape: 64 280 1 1 (17920)
I1018 17:43:00.224797  3886 net.cpp:165] Memory required for data: 71385856
I1018 17:43:00.224800  3886 layer_factory.hpp:77] Creating layer drop4
I1018 17:43:00.224807  3886 net.cpp:100] Creating Layer drop4
I1018 17:43:00.224810  3886 net.cpp:434] drop4 <- pool4
I1018 17:43:00.224814  3886 net.cpp:408] drop4 -> drop4
I1018 17:43:00.224841  3886 net.cpp:150] Setting up drop4
I1018 17:43:00.224846  3886 net.cpp:157] Top shape: 64 280 1 1 (17920)
I1018 17:43:00.224849  3886 net.cpp:165] Memory required for data: 71457536
I1018 17:43:00.224851  3886 layer_factory.hpp:77] Creating layer elu4
I1018 17:43:00.224858  3886 net.cpp:100] Creating Layer elu4
I1018 17:43:00.224860  3886 net.cpp:434] elu4 <- drop4
I1018 17:43:00.224865  3886 net.cpp:408] elu4 -> elu4
I1018 17:43:00.224882  3886 net.cpp:150] Setting up elu4
I1018 17:43:00.224887  3886 net.cpp:157] Top shape: 64 280 1 1 (17920)
I1018 17:43:00.224890  3886 net.cpp:165] Memory required for data: 71529216
I1018 17:43:00.224894  3886 layer_factory.hpp:77] Creating layer conv8
I1018 17:43:00.224900  3886 net.cpp:100] Creating Layer conv8
I1018 17:43:00.224905  3886 net.cpp:434] conv8 <- elu4
I1018 17:43:00.224910  3886 net.cpp:408] conv8 -> conv8
I1018 17:43:00.225846  3886 net.cpp:150] Setting up conv8
I1018 17:43:00.225853  3886 net.cpp:157] Top shape: 64 280 1 1 (17920)
I1018 17:43:00.225857  3886 net.cpp:165] Memory required for data: 71600896
I1018 17:43:00.225875  3886 layer_factory.hpp:77] Creating layer pool5
I1018 17:43:00.225881  3886 net.cpp:100] Creating Layer pool5
I1018 17:43:00.225885  3886 net.cpp:434] pool5 <- conv8
I1018 17:43:00.225893  3886 net.cpp:408] pool5 -> pool5
I1018 17:43:00.225920  3886 net.cpp:150] Setting up pool5
I1018 17:43:00.225925  3886 net.cpp:157] Top shape: 64 280 1 1 (17920)
I1018 17:43:00.225929  3886 net.cpp:165] Memory required for data: 71672576
I1018 17:43:00.225931  3886 layer_factory.hpp:77] Creating layer drop5
I1018 17:43:00.225939  3886 net.cpp:100] Creating Layer drop5
I1018 17:43:00.225941  3886 net.cpp:434] drop5 <- pool5
I1018 17:43:00.225946  3886 net.cpp:408] drop5 -> drop5
I1018 17:43:00.225973  3886 net.cpp:150] Setting up drop5
I1018 17:43:00.225978  3886 net.cpp:157] Top shape: 64 280 1 1 (17920)
I1018 17:43:00.225981  3886 net.cpp:165] Memory required for data: 71744256
I1018 17:43:00.225985  3886 layer_factory.hpp:77] Creating layer elu5
I1018 17:43:00.225989  3886 net.cpp:100] Creating Layer elu5
I1018 17:43:00.225993  3886 net.cpp:434] elu5 <- drop5
I1018 17:43:00.225998  3886 net.cpp:408] elu5 -> elu5
I1018 17:43:00.226014  3886 net.cpp:150] Setting up elu5
I1018 17:43:00.226021  3886 net.cpp:157] Top shape: 64 280 1 1 (17920)
I1018 17:43:00.226022  3886 net.cpp:165] Memory required for data: 71815936
I1018 17:43:00.226025  3886 layer_factory.hpp:77] Creating layer conv10
I1018 17:43:00.226034  3886 net.cpp:100] Creating Layer conv10
I1018 17:43:00.226038  3886 net.cpp:434] conv10 <- elu5
I1018 17:43:00.226043  3886 net.cpp:408] conv10 -> conv10
I1018 17:43:00.226999  3886 net.cpp:150] Setting up conv10
I1018 17:43:00.227008  3886 net.cpp:157] Top shape: 64 300 1 1 (19200)
I1018 17:43:00.227012  3886 net.cpp:165] Memory required for data: 71892736
I1018 17:43:00.227023  3886 layer_factory.hpp:77] Creating layer pool6
I1018 17:43:00.227030  3886 net.cpp:100] Creating Layer pool6
I1018 17:43:00.227036  3886 net.cpp:434] pool6 <- conv10
I1018 17:43:00.227041  3886 net.cpp:408] pool6 -> pool6
I1018 17:43:00.227075  3886 net.cpp:150] Setting up pool6
I1018 17:43:00.227082  3886 net.cpp:157] Top shape: 64 300 1 1 (19200)
I1018 17:43:00.227082  3886 net.cpp:165] Memory required for data: 71969536
I1018 17:43:00.227085  3886 layer_factory.hpp:77] Creating layer drop6
I1018 17:43:00.227090  3886 net.cpp:100] Creating Layer drop6
I1018 17:43:00.227094  3886 net.cpp:434] drop6 <- pool6
I1018 17:43:00.227100  3886 net.cpp:408] drop6 -> drop6
I1018 17:43:00.227128  3886 net.cpp:150] Setting up drop6
I1018 17:43:00.227133  3886 net.cpp:157] Top shape: 64 300 1 1 (19200)
I1018 17:43:00.227135  3886 net.cpp:165] Memory required for data: 72046336
I1018 17:43:00.227138  3886 layer_factory.hpp:77] Creating layer elu6
I1018 17:43:00.227144  3886 net.cpp:100] Creating Layer elu6
I1018 17:43:00.227149  3886 net.cpp:434] elu6 <- drop6
I1018 17:43:00.227154  3886 net.cpp:408] elu6 -> elu6
I1018 17:43:00.227174  3886 net.cpp:150] Setting up elu6
I1018 17:43:00.227179  3886 net.cpp:157] Top shape: 64 300 1 1 (19200)
I1018 17:43:00.227180  3886 net.cpp:165] Memory required for data: 72123136
I1018 17:43:00.227181  3886 layer_factory.hpp:77] Creating layer conv11
I1018 17:43:00.227188  3886 net.cpp:100] Creating Layer conv11
I1018 17:43:00.227193  3886 net.cpp:434] conv11 <- elu6
I1018 17:43:00.227201  3886 net.cpp:408] conv11 -> conv11
I1018 17:43:00.228387  3886 net.cpp:150] Setting up conv11
I1018 17:43:00.228401  3886 net.cpp:157] Top shape: 64 100 1 1 (6400)
I1018 17:43:00.228404  3886 net.cpp:165] Memory required for data: 72148736
I1018 17:43:00.228410  3886 layer_factory.hpp:77] Creating layer pool7
I1018 17:43:00.228415  3886 net.cpp:100] Creating Layer pool7
I1018 17:43:00.228420  3886 net.cpp:434] pool7 <- conv11
I1018 17:43:00.228427  3886 net.cpp:408] pool7 -> pool7
I1018 17:43:00.228466  3886 net.cpp:150] Setting up pool7
I1018 17:43:00.228472  3886 net.cpp:157] Top shape: 64 100 1 1 (6400)
I1018 17:43:00.228477  3886 net.cpp:165] Memory required for data: 72174336
I1018 17:43:00.228479  3886 layer_factory.hpp:77] Creating layer drop7
I1018 17:43:00.228495  3886 net.cpp:100] Creating Layer drop7
I1018 17:43:00.228499  3886 net.cpp:434] drop7 <- pool7
I1018 17:43:00.228504  3886 net.cpp:408] drop7 -> drop7
I1018 17:43:00.228538  3886 net.cpp:150] Setting up drop7
I1018 17:43:00.228543  3886 net.cpp:157] Top shape: 64 100 1 1 (6400)
I1018 17:43:00.228544  3886 net.cpp:165] Memory required for data: 72199936
I1018 17:43:00.228549  3886 layer_factory.hpp:77] Creating layer elu7
I1018 17:43:00.228559  3886 net.cpp:100] Creating Layer elu7
I1018 17:43:00.228564  3886 net.cpp:434] elu7 <- drop7
I1018 17:43:00.228569  3886 net.cpp:408] elu7 -> elu7
I1018 17:43:00.228588  3886 net.cpp:150] Setting up elu7
I1018 17:43:00.228593  3886 net.cpp:157] Top shape: 64 100 1 1 (6400)
I1018 17:43:00.228595  3886 net.cpp:165] Memory required for data: 72225536
I1018 17:43:00.228598  3886 layer_factory.hpp:77] Creating layer pool
I1018 17:43:00.228605  3886 net.cpp:100] Creating Layer pool
I1018 17:43:00.228610  3886 net.cpp:434] pool <- elu7
I1018 17:43:00.228615  3886 net.cpp:408] pool -> pool
I1018 17:43:00.228996  3886 net.cpp:150] Setting up pool
I1018 17:43:00.229001  3886 net.cpp:157] Top shape: 64 100 1 1 (6400)
I1018 17:43:00.229004  3886 net.cpp:165] Memory required for data: 72251136
I1018 17:43:00.229007  3886 layer_factory.hpp:77] Creating layer flatten
I1018 17:43:00.229010  3886 net.cpp:100] Creating Layer flatten
I1018 17:43:00.229014  3886 net.cpp:434] flatten <- pool
I1018 17:43:00.229022  3886 net.cpp:408] flatten -> flatten
I1018 17:43:00.229044  3886 net.cpp:150] Setting up flatten
I1018 17:43:00.229048  3886 net.cpp:157] Top shape: 64 100 (6400)
I1018 17:43:00.229049  3886 net.cpp:165] Memory required for data: 72276736
I1018 17:43:00.229053  3886 layer_factory.hpp:77] Creating layer score
I1018 17:43:00.229060  3886 net.cpp:100] Creating Layer score
I1018 17:43:00.229064  3886 net.cpp:434] score <- flatten
I1018 17:43:00.229068  3886 net.cpp:408] score -> score
I1018 17:43:00.229182  3886 net.cpp:150] Setting up score
I1018 17:43:00.229187  3886 net.cpp:157] Top shape: 64 10 (640)
I1018 17:43:00.229187  3886 net.cpp:165] Memory required for data: 72279296
I1018 17:43:00.229192  3886 layer_factory.hpp:77] Creating layer score_score_0_split
I1018 17:43:00.229199  3886 net.cpp:100] Creating Layer score_score_0_split
I1018 17:43:00.229203  3886 net.cpp:434] score_score_0_split <- score
I1018 17:43:00.229209  3886 net.cpp:408] score_score_0_split -> score_score_0_split_0
I1018 17:43:00.229216  3886 net.cpp:408] score_score_0_split -> score_score_0_split_1
I1018 17:43:00.229246  3886 net.cpp:150] Setting up score_score_0_split
I1018 17:43:00.229250  3886 net.cpp:157] Top shape: 64 10 (640)
I1018 17:43:00.229252  3886 net.cpp:157] Top shape: 64 10 (640)
I1018 17:43:00.229255  3886 net.cpp:165] Memory required for data: 72284416
I1018 17:43:00.229259  3886 layer_factory.hpp:77] Creating layer accuracy
I1018 17:43:00.229266  3886 net.cpp:100] Creating Layer accuracy
I1018 17:43:00.229270  3886 net.cpp:434] accuracy <- score_score_0_split_0
I1018 17:43:00.229275  3886 net.cpp:434] accuracy <- label_data_1_split_0
I1018 17:43:00.229281  3886 net.cpp:408] accuracy -> accuracy
…
I1018 17:43:00.229957  3886 net.cpp:283] Network initialization done.
I1018 17:43:00.230155  3886 solver.cpp:181] Creating test net (#0) specified by test_net file: /home/adam/Honours/Honours-Project/mnist_pooling/max/elu/poolcnn_elu_test.prototxt
I1018 17:43:00.230276  3886 net.cpp:58] Initializing net from parameters: 
state {
  phase: TEST
}
layer {
  name: "data"
  type: "Data"
  top: "data"
  top: "label"
  transform_param {
    scale: 0.0039215689
  }
  data_param {
    source: "../../../../data/mnist/mnist_test_lmdb"
    batch_size: 100
    backend: LMDB
  }
}
layer {
  name: "conv1"
  type: "Convolution"
  bottom: "data"
  top: "conv1"
  convolution_param {
    num_output: 192
    kernel_size: 5
    weight_filler {
      type: "xavier"
    }
  }
}
layer {
  name: "pool1"
  type: "Pooling"
  bottom: "conv1"
  top: "pool1"
  pooling_param {
    pool: MAX
    kernel_size: 2
    stride: 2
  }
}
layer {
  name: "drop1"
  type: "Dropout"
  bottom: "pool1"
  top: "drop1"
  dropout_param {
    dropout_ratio: 0
  }
}
layer {
  name: "elu1"
  type: "ELU"
  bottom: "drop1"
  top: "elu1"
}
layer {
  name: "conv2"
  type: "Convolution"
  bottom: "elu1"
  top: "conv2"
  convolution_param {
    num_output: 192
    kernel_size: 1
    weight_filler {
      type: "xavier"
    }
  }
}
layer {
  name: "conv3"
  type: "Convolution"
  bottom: "conv2"
  top: "conv3"
  convolution_param {
    num_output: 240
    kernel_size: 3
    weight_filler {
      type: "xavier"
    }
  }
}
layer {
  name: "pool2"
  type: "Pooling"
  bottom: "conv3"
  top: "pool2"
  pooling_param {
    pool: MAX
    kernel_size: 2
    stride: 2
  }
}
layer {
  name: "drop2"
  type: "Dropout"
  bottom: "pool2"
  top: "drop2"
  dropout_param {
    dropout_ratio: 0.1
  }
}
layer {
  name: "elu2"
  type: "ELU"
  bottom: "drop2"
  top: "elu2"
}
layer {
  name: "conv4"
  type: "Convolution"
  bottom: "elu2"
  top: "conv4"
  convolution_param {
    num_output: 240
    kernel_size: 1
    weight_filler {
      type: "xavier"
    }
  }
}
layer {
  name: "conv5"
  type: "Convolution"
  bottom: "conv4"
  top: "conv5"
  convolution_param {
    num_output: 260
    kernel_size: 2
    weight_filler {
      type: "xavier"
    }
  }
}
layer {
  name: "pool3"
  type: "Pooling"
  bottom: "conv5"
  top: "pool3"
  pooling_param {
    pool: MAX
    kernel_size: 2
    stride: 2
  }
}
layer {
  name: "drop3"
  type: "Dropout"
  bottom: "pool3"
  top: "drop3"
  dropout_param {
    dropout_ratio: 0.2
  }
}
layer {
  name: "elu3"
  type: "ELU"
  bottom: "drop3"
  top: "elu3"
}
layer {
  name: "conv6"
  type: "Convolution"
  bottom: "elu3"
  top: "conv6"
  convolution_param {
    num_output: 260
    kernel_size: 1
    weight_filler {
      type: "xavier"
    }
  }
}
layer {
  name: "conv7"
  type: "Convolution"
  bottom: "conv6"
  top: "conv7"
  convolution_param {
    num_output: 280
    kernel_size: 2
    weight_filler {
      type: "xavier"
    }
  }
}
layer {
  name: "pool4"
  type: "Pooling"
  bottom: "conv7"
  top: "pool4"
  pooling_param {
    pool: MAX
    kernel_size: 2
    stride: 2
  }
}
layer {
  name: "drop4"
  type: "Dropout"
  bottom: "pool4"
  top: "drop4"
  dropout_param {
    dropout_ratio: 0.3
  }
}
layer {
  name: "elu4"
  type: "ELU"
  bottom: "drop4"
  top: "elu4"
}
layer {
  name: "conv8"
  type: "Convolution"
  bottom: "elu4"
  top: "conv8"
  convolution_param {
    num_output: 280
    kernel_size: 1
    weight_filler {
      type: "xavier"
    }
  }
}
layer {
  name: "pool5"
  type: "Pooling"
  bottom: "conv8"
  top: "pool5"
  pooling_param {
    pool: MAX
    kernel_size: 2
    stride: 2
  }
}
layer {
  name: "drop5"
  type: "Dropout"
  bottom: "pool5"
  top: "drop5"
  dropout_param {
    dropout_ratio: 0.4
  }
}
layer {
  name: "elu5"
  type: "ELU"
  bottom: "drop5"
  top: "elu5"
}
layer {
  name: "conv10"
  type: "Convolution"
  bottom: "elu5"
  top: "conv10"
  convolution_param {
    num_output: 300
    kernel_size: 1
    weight_filler {
      type: "xavier"
    }
  }
}
layer {
  name: "pool6"
  type: "Pooling"
  bottom: "conv10"
  top: "pool6"
  pooling_param {
    pool: MAX
    kernel_size: 2
    stride: 2
  }
}
layer {
  name: "drop6"
  type: "Dropout"
  bottom: "pool6"
  top: "drop6"
  dropout_param {
    dropout_ratio: 0.5
  }
}
layer {
  name: "elu6"
  type: "ELU"
  bottom: "drop6"
  top: "elu6"
}
layer {
  name: "conv11"
  type: "Convolution"
  bottom: "elu6"
  top: "conv11"
  convolution_param {
    num_output: 100
    kernel_size: 1
    weight_filler {
      type: "xavier"
    }
  }
}
layer {
  name: "pool7"
  type: "Pooling"
  bottom: "conv11"
  top: "pool7"
  pooling_param {
    pool: MAX
    kernel_size: 2
    stride: 2
  }
}
layer {
  name: "drop7"
  type: "Dropout"
  bottom: "pool7"
  top: "drop7"
  dropout_param {
    dropout_ratio: 0
  }
}
layer {
  name: "elu7"
  type: "ELU"
  bottom: "drop7"
  top: "elu7"
}
layer {
  name: "pool"
  type: "Pooling"
  bottom: "elu7"
  top: "pool"
  pooling_param {
    pool: AVE
    global_pooling: true
  }
}
layer {
  name: "flatten"
  type: "Flatten"
  bottom: "pool"
  top: "flatten"
}
layer {
  name: "score"
  type: "InnerProduct"
  bottom: "flatten"
  top: "score"
  inner_product_param {
    num_output: 10
    weight_filler {
      type: "gaussian"
    }
  }
}
layer {
  name: "accuracy"
  type: "Accuracy"
  bottom: "score"
  bottom: "label"
  top: "accuracy"
}
layer {
  name: "loss"
  type: "SoftmaxWithLoss"
  bottom: "score"
  bottom: "label"
  top: "loss"
}
I1018 17:43:00.230377  3886 layer_factory.hpp:77] Creating layer data
I1018 17:43:00.230464  3886 net.cpp:100] Creating Layer data
I1018 17:43:00.230479  3886 net.cpp:408] data -> data
I1018 17:43:00.230487  3886 net.cpp:408] data -> label
I1018 17:43:00.231053  3895 db_lmdb.cpp:35] Opened lmdb ../../../../data/mnist/mnist_test_lmdb
I1018 17:43:00.231129  3886 data_layer.cpp:41] output data size: 100,1,28,28
I1018 17:43:00.231802  3886 net.cpp:150] Setting up data
I1018 17:43:00.231811  3886 net.cpp:157] Top shape: 100 1 28 28 (78400)
I1018 17:43:00.231813  3886 net.cpp:157] Top shape: 100 (100)
I1018 17:43:00.231814  3886 net.cpp:165] Memory required for data: 314000
I1018 17:43:00.231817  3886 layer_factory.hpp:77] Creating layer label_data_1_split
I1018 17:43:00.231822  3886 net.cpp:100] Creating Layer label_data_1_split
I1018 17:43:00.231825  3886 net.cpp:434] label_data_1_split <- label
I1018 17:43:00.231829  3886 net.cpp:408] label_data_1_split -> label_data_1_split_0
I1018 17:43:00.231837  3886 net.cpp:408] label_data_1_split -> label_data_1_split_1
I1018 17:43:00.231871  3886 net.cpp:150] Setting up label_data_1_split
I1018 17:43:00.231876  3886 net.cpp:157] Top shape: 100 (100)
I1018 17:43:00.231879  3886 net.cpp:157] Top shape: 100 (100)
I1018 17:43:00.231881  3886 net.cpp:165] Memory required for data: 314800
I1018 17:43:00.231884  3886 layer_factory.hpp:77] Creating layer conv1
I1018 17:43:00.231892  3886 net.cpp:100] Creating Layer conv1
I1018 17:43:00.231895  3886 net.cpp:434] conv1 <- data
I1018 17:43:00.231901  3886 net.cpp:408] conv1 -> conv1
I1018 17:43:00.232729  3886 net.cpp:150] Setting up conv1
I1018 17:43:00.232739  3886 net.cpp:157] Top shape: 100 192 24 24 (11059200)
I1018 17:43:00.232741  3886 net.cpp:165] Memory required for data: 44551600
I1018 17:43:00.232750  3886 layer_factory.hpp:77] Creating layer pool1
I1018 17:43:00.232758  3886 net.cpp:100] Creating Layer pool1
I1018 17:43:00.232763  3886 net.cpp:434] pool1 <- conv1
I1018 17:43:00.232769  3886 net.cpp:408] pool1 -> pool1
I1018 17:43:00.232802  3886 net.cpp:150] Setting up pool1
I1018 17:43:00.232808  3886 net.cpp:157] Top shape: 100 192 12 12 (2764800)
I1018 17:43:00.232813  3886 net.cpp:165] Memory required for data: 55610800
I1018 17:43:00.232816  3886 layer_factory.hpp:77] Creating layer drop1
I1018 17:43:00.232823  3886 net.cpp:100] Creating Layer drop1
I1018 17:43:00.232827  3886 net.cpp:434] drop1 <- pool1
I1018 17:43:00.232834  3886 net.cpp:408] drop1 -> drop1
I1018 17:43:00.232864  3886 net.cpp:150] Setting up drop1
I1018 17:43:00.232870  3886 net.cpp:157] Top shape: 100 192 12 12 (2764800)
I1018 17:43:00.232873  3886 net.cpp:165] Memory required for data: 66670000
I1018 17:43:00.232878  3886 layer_factory.hpp:77] Creating layer elu1
I1018 17:43:00.232884  3886 net.cpp:100] Creating Layer elu1
I1018 17:43:00.232889  3886 net.cpp:434] elu1 <- drop1
I1018 17:43:00.232900  3886 net.cpp:408] elu1 -> elu1
I1018 17:43:00.232920  3886 net.cpp:150] Setting up elu1
I1018 17:43:00.232928  3886 net.cpp:157] Top shape: 100 192 12 12 (2764800)
I1018 17:43:00.232933  3886 net.cpp:165] Memory required for data: 77729200
I1018 17:43:00.232935  3886 layer_factory.hpp:77] Creating layer conv2
I1018 17:43:00.232942  3886 net.cpp:100] Creating Layer conv2
I1018 17:43:00.232947  3886 net.cpp:434] conv2 <- elu1
I1018 17:43:00.232956  3886 net.cpp:408] conv2 -> conv2
I1018 17:43:00.233819  3886 net.cpp:150] Setting up conv2
I1018 17:43:00.233827  3886 net.cpp:157] Top shape: 100 192 12 12 (2764800)
I1018 17:43:00.233830  3886 net.cpp:165] Memory required for data: 88788400
I1018 17:43:00.233839  3886 layer_factory.hpp:77] Creating layer conv3
I1018 17:43:00.233849  3886 net.cpp:100] Creating Layer conv3
I1018 17:43:00.233862  3886 net.cpp:434] conv3 <- conv2
I1018 17:43:00.233870  3886 net.cpp:408] conv3 -> conv3
I1018 17:43:00.236338  3886 net.cpp:150] Setting up conv3
I1018 17:43:00.236351  3886 net.cpp:157] Top shape: 100 240 10 10 (2400000)
I1018 17:43:00.236353  3886 net.cpp:165] Memory required for data: 98388400
I1018 17:43:00.236361  3886 layer_factory.hpp:77] Creating layer pool2
I1018 17:43:00.236372  3886 net.cpp:100] Creating Layer pool2
I1018 17:43:00.236377  3886 net.cpp:434] pool2 <- conv3
I1018 17:43:00.236382  3886 net.cpp:408] pool2 -> pool2
I1018 17:43:00.236418  3886 net.cpp:150] Setting up pool2
I1018 17:43:00.236423  3886 net.cpp:157] Top shape: 100 240 5 5 (600000)
I1018 17:43:00.236428  3886 net.cpp:165] Memory required for data: 100788400
I1018 17:43:00.236430  3886 layer_factory.hpp:77] Creating layer drop2
I1018 17:43:00.236436  3886 net.cpp:100] Creating Layer drop2
I1018 17:43:00.236440  3886 net.cpp:434] drop2 <- pool2
I1018 17:43:00.236446  3886 net.cpp:408] drop2 -> drop2
I1018 17:43:00.236477  3886 net.cpp:150] Setting up drop2
I1018 17:43:00.236481  3886 net.cpp:157] Top shape: 100 240 5 5 (600000)
I1018 17:43:00.236485  3886 net.cpp:165] Memory required for data: 103188400
I1018 17:43:00.236488  3886 layer_factory.hpp:77] Creating layer elu2
I1018 17:43:00.236493  3886 net.cpp:100] Creating Layer elu2
I1018 17:43:00.236497  3886 net.cpp:434] elu2 <- drop2
I1018 17:43:00.236503  3886 net.cpp:408] elu2 -> elu2
I1018 17:43:00.236522  3886 net.cpp:150] Setting up elu2
I1018 17:43:00.236527  3886 net.cpp:157] Top shape: 100 240 5 5 (600000)
I1018 17:43:00.236529  3886 net.cpp:165] Memory required for data: 105588400
I1018 17:43:00.236531  3886 layer_factory.hpp:77] Creating layer conv4
I1018 17:43:00.236541  3886 net.cpp:100] Creating Layer conv4
I1018 17:43:00.236546  3886 net.cpp:434] conv4 <- elu2
I1018 17:43:00.236548  3886 net.cpp:408] conv4 -> conv4
I1018 17:43:00.237429  3886 net.cpp:150] Setting up conv4
I1018 17:43:00.237438  3886 net.cpp:157] Top shape: 100 240 5 5 (600000)
I1018 17:43:00.237440  3886 net.cpp:165] Memory required for data: 107988400
I1018 17:43:00.237445  3886 layer_factory.hpp:77] Creating layer conv5
I1018 17:43:00.237453  3886 net.cpp:100] Creating Layer conv5
I1018 17:43:00.237457  3886 net.cpp:434] conv5 <- conv4
I1018 17:43:00.237465  3886 net.cpp:408] conv5 -> conv5
I1018 17:43:00.239281  3886 net.cpp:150] Setting up conv5
I1018 17:43:00.239291  3886 net.cpp:157] Top shape: 100 260 4 4 (416000)
I1018 17:43:00.239294  3886 net.cpp:165] Memory required for data: 109652400
I1018 17:43:00.239301  3886 layer_factory.hpp:77] Creating layer pool3
I1018 17:43:00.239308  3886 net.cpp:100] Creating Layer pool3
I1018 17:43:00.239313  3886 net.cpp:434] pool3 <- conv5
I1018 17:43:00.239320  3886 net.cpp:408] pool3 -> pool3
I1018 17:43:00.239356  3886 net.cpp:150] Setting up pool3
I1018 17:43:00.239361  3886 net.cpp:157] Top shape: 100 260 2 2 (104000)
I1018 17:43:00.239364  3886 net.cpp:165] Memory required for data: 110068400
I1018 17:43:00.239367  3886 layer_factory.hpp:77] Creating layer drop3
I1018 17:43:00.239372  3886 net.cpp:100] Creating Layer drop3
I1018 17:43:00.239375  3886 net.cpp:434] drop3 <- pool3
I1018 17:43:00.239382  3886 net.cpp:408] drop3 -> drop3
I1018 17:43:00.239413  3886 net.cpp:150] Setting up drop3
I1018 17:43:00.239419  3886 net.cpp:157] Top shape: 100 260 2 2 (104000)
I1018 17:43:00.239423  3886 net.cpp:165] Memory required for data: 110484400
I1018 17:43:00.239428  3886 layer_factory.hpp:77] Creating layer elu3
I1018 17:43:00.239434  3886 net.cpp:100] Creating Layer elu3
I1018 17:43:00.239436  3886 net.cpp:434] elu3 <- drop3
I1018 17:43:00.239442  3886 net.cpp:408] elu3 -> elu3
I1018 17:43:00.239464  3886 net.cpp:150] Setting up elu3
I1018 17:43:00.239469  3886 net.cpp:157] Top shape: 100 260 2 2 (104000)
I1018 17:43:00.239470  3886 net.cpp:165] Memory required for data: 110900400
I1018 17:43:00.239472  3886 layer_factory.hpp:77] Creating layer conv6
I1018 17:43:00.239511  3886 net.cpp:100] Creating Layer conv6
I1018 17:43:00.239516  3886 net.cpp:434] conv6 <- elu3
I1018 17:43:00.239531  3886 net.cpp:408] conv6 -> conv6
I1018 17:43:00.240717  3886 net.cpp:150] Setting up conv6
I1018 17:43:00.240727  3886 net.cpp:157] Top shape: 100 260 2 2 (104000)
I1018 17:43:00.240730  3886 net.cpp:165] Memory required for data: 111316400
I1018 17:43:00.240734  3886 layer_factory.hpp:77] Creating layer conv7
I1018 17:43:00.240741  3886 net.cpp:100] Creating Layer conv7
I1018 17:43:00.240746  3886 net.cpp:434] conv7 <- conv6
I1018 17:43:00.240753  3886 net.cpp:408] conv7 -> conv7
I1018 17:43:00.243238  3886 net.cpp:150] Setting up conv7
I1018 17:43:00.243250  3886 net.cpp:157] Top shape: 100 280 1 1 (28000)
I1018 17:43:00.243254  3886 net.cpp:165] Memory required for data: 111428400
I1018 17:43:00.243260  3886 layer_factory.hpp:77] Creating layer pool4
I1018 17:43:00.243268  3886 net.cpp:100] Creating Layer pool4
I1018 17:43:00.243271  3886 net.cpp:434] pool4 <- conv7
I1018 17:43:00.243278  3886 net.cpp:408] pool4 -> pool4
I1018 17:43:00.243315  3886 net.cpp:150] Setting up pool4
I1018 17:43:00.243320  3886 net.cpp:157] Top shape: 100 280 1 1 (28000)
I1018 17:43:00.243324  3886 net.cpp:165] Memory required for data: 111540400
I1018 17:43:00.243327  3886 layer_factory.hpp:77] Creating layer drop4
I1018 17:43:00.243332  3886 net.cpp:100] Creating Layer drop4
I1018 17:43:00.243336  3886 net.cpp:434] drop4 <- pool4
I1018 17:43:00.243340  3886 net.cpp:408] drop4 -> drop4
I1018 17:43:00.243372  3886 net.cpp:150] Setting up drop4
I1018 17:43:00.243379  3886 net.cpp:157] Top shape: 100 280 1 1 (28000)
I1018 17:43:00.243382  3886 net.cpp:165] Memory required for data: 111652400
I1018 17:43:00.243386  3886 layer_factory.hpp:77] Creating layer elu4
I1018 17:43:00.243391  3886 net.cpp:100] Creating Layer elu4
I1018 17:43:00.243394  3886 net.cpp:434] elu4 <- drop4
I1018 17:43:00.243398  3886 net.cpp:408] elu4 -> elu4
I1018 17:43:00.243418  3886 net.cpp:150] Setting up elu4
I1018 17:43:00.243424  3886 net.cpp:157] Top shape: 100 280 1 1 (28000)
I1018 17:43:00.243427  3886 net.cpp:165] Memory required for data: 111764400
I1018 17:43:00.243430  3886 layer_factory.hpp:77] Creating layer conv8
I1018 17:43:00.243438  3886 net.cpp:100] Creating Layer conv8
I1018 17:43:00.243441  3886 net.cpp:434] conv8 <- elu4
I1018 17:43:00.243446  3886 net.cpp:408] conv8 -> conv8
I1018 17:43:00.244817  3886 net.cpp:150] Setting up conv8
I1018 17:43:00.244829  3886 net.cpp:157] Top shape: 100 280 1 1 (28000)
I1018 17:43:00.244833  3886 net.cpp:165] Memory required for data: 111876400
I1018 17:43:00.244839  3886 layer_factory.hpp:77] Creating layer pool5
I1018 17:43:00.244845  3886 net.cpp:100] Creating Layer pool5
I1018 17:43:00.244848  3886 net.cpp:434] pool5 <- conv8
I1018 17:43:00.244855  3886 net.cpp:408] pool5 -> pool5
I1018 17:43:00.244892  3886 net.cpp:150] Setting up pool5
I1018 17:43:00.244899  3886 net.cpp:157] Top shape: 100 280 1 1 (28000)
I1018 17:43:00.244902  3886 net.cpp:165] Memory required for data: 111988400
I1018 17:43:00.244905  3886 layer_factory.hpp:77] Creating layer drop5
I1018 17:43:00.244910  3886 net.cpp:100] Creating Layer drop5
I1018 17:43:00.244912  3886 net.cpp:434] drop5 <- pool5
I1018 17:43:00.244916  3886 net.cpp:408] drop5 -> drop5
I1018 17:43:00.244949  3886 net.cpp:150] Setting up drop5
I1018 17:43:00.244956  3886 net.cpp:157] Top shape: 100 280 1 1 (28000)
I1018 17:43:00.244958  3886 net.cpp:165] Memory required for data: 112100400
I1018 17:43:00.244961  3886 layer_factory.hpp:77] Creating layer elu5
I1018 17:43:00.244966  3886 net.cpp:100] Creating Layer elu5
I1018 17:43:00.244969  3886 net.cpp:434] elu5 <- drop5
I1018 17:43:00.244973  3886 net.cpp:408] elu5 -> elu5
I1018 17:43:00.244994  3886 net.cpp:150] Setting up elu5
I1018 17:43:00.245000  3886 net.cpp:157] Top shape: 100 280 1 1 (28000)
I1018 17:43:00.245004  3886 net.cpp:165] Memory required for data: 112212400
I1018 17:43:00.245007  3886 layer_factory.hpp:77] Creating layer conv10
I1018 17:43:00.245017  3886 net.cpp:100] Creating Layer conv10
I1018 17:43:00.245019  3886 net.cpp:434] conv10 <- elu5
I1018 17:43:00.245035  3886 net.cpp:408] conv10 -> conv10
I1018 17:43:00.247828  3886 net.cpp:150] Setting up conv10
I1018 17:43:00.247839  3886 net.cpp:157] Top shape: 100 300 1 1 (30000)
I1018 17:43:00.247841  3886 net.cpp:165] Memory required for data: 112332400
I1018 17:43:00.247851  3886 layer_factory.hpp:77] Creating layer pool6
I1018 17:43:00.247856  3886 net.cpp:100] Creating Layer pool6
I1018 17:43:00.247859  3886 net.cpp:434] pool6 <- conv10
I1018 17:43:00.247861  3886 net.cpp:408] pool6 -> pool6
I1018 17:43:00.247895  3886 net.cpp:150] Setting up pool6
I1018 17:43:00.247902  3886 net.cpp:157] Top shape: 100 300 1 1 (30000)
I1018 17:43:00.247905  3886 net.cpp:165] Memory required for data: 112452400
I1018 17:43:00.247907  3886 layer_factory.hpp:77] Creating layer drop6
I1018 17:43:00.247912  3886 net.cpp:100] Creating Layer drop6
I1018 17:43:00.247916  3886 net.cpp:434] drop6 <- pool6
I1018 17:43:00.247925  3886 net.cpp:408] drop6 -> drop6
I1018 17:43:00.247956  3886 net.cpp:150] Setting up drop6
I1018 17:43:00.247961  3886 net.cpp:157] Top shape: 100 300 1 1 (30000)
I1018 17:43:00.247962  3886 net.cpp:165] Memory required for data: 112572400
I1018 17:43:00.247967  3886 layer_factory.hpp:77] Creating layer elu6
I1018 17:43:00.247972  3886 net.cpp:100] Creating Layer elu6
I1018 17:43:00.247977  3886 net.cpp:434] elu6 <- drop6
I1018 17:43:00.247982  3886 net.cpp:408] elu6 -> elu6
I1018 17:43:00.248003  3886 net.cpp:150] Setting up elu6
I1018 17:43:00.248008  3886 net.cpp:157] Top shape: 100 300 1 1 (30000)
I1018 17:43:00.248009  3886 net.cpp:165] Memory required for data: 112692400
I1018 17:43:00.248013  3886 layer_factory.hpp:77] Creating layer conv11
I1018 17:43:00.248021  3886 net.cpp:100] Creating Layer conv11
I1018 17:43:00.248025  3886 net.cpp:434] conv11 <- elu6
I1018 17:43:00.248033  3886 net.cpp:408] conv11 -> conv11
I1018 17:43:00.249387  3886 net.cpp:150] Setting up conv11
I1018 17:43:00.249397  3886 net.cpp:157] Top shape: 100 100 1 1 (10000)
I1018 17:43:00.249398  3886 net.cpp:165] Memory required for data: 112732400
I1018 17:43:00.249402  3886 layer_factory.hpp:77] Creating layer pool7
I1018 17:43:00.249409  3886 net.cpp:100] Creating Layer pool7
I1018 17:43:00.249414  3886 net.cpp:434] pool7 <- conv11
I1018 17:43:00.249419  3886 net.cpp:408] pool7 -> pool7
I1018 17:43:00.249456  3886 net.cpp:150] Setting up pool7
I1018 17:43:00.249462  3886 net.cpp:157] Top shape: 100 100 1 1 (10000)
I1018 17:43:00.249465  3886 net.cpp:165] Memory required for data: 112772400
I1018 17:43:00.249469  3886 layer_factory.hpp:77] Creating layer drop7
I1018 17:43:00.249472  3886 net.cpp:100] Creating Layer drop7
I1018 17:43:00.249476  3886 net.cpp:434] drop7 <- pool7
I1018 17:43:00.249482  3886 net.cpp:408] drop7 -> drop7
I1018 17:43:00.249516  3886 net.cpp:150] Setting up drop7
I1018 17:43:00.249521  3886 net.cpp:157] Top shape: 100 100 1 1 (10000)
I1018 17:43:00.249522  3886 net.cpp:165] Memory required for data: 112812400
I1018 17:43:00.249526  3886 layer_factory.hpp:77] Creating layer elu7
I1018 17:43:00.249536  3886 net.cpp:100] Creating Layer elu7
I1018 17:43:00.249541  3886 net.cpp:434] elu7 <- drop7
I1018 17:43:00.249543  3886 net.cpp:408] elu7 -> elu7
I1018 17:43:00.249564  3886 net.cpp:150] Setting up elu7
I1018 17:43:00.249568  3886 net.cpp:157] Top shape: 100 100 1 1 (10000)
I1018 17:43:00.249570  3886 net.cpp:165] Memory required for data: 112852400
I1018 17:43:00.249573  3886 layer_factory.hpp:77] Creating layer pool
I1018 17:43:00.249580  3886 net.cpp:100] Creating Layer pool
I1018 17:43:00.249584  3886 net.cpp:434] pool <- elu7
I1018 17:43:00.249591  3886 net.cpp:408] pool -> pool
I1018 17:43:00.249717  3886 net.cpp:150] Setting up pool
I1018 17:43:00.249724  3886 net.cpp:157] Top shape: 100 100 1 1 (10000)
I1018 17:43:00.249725  3886 net.cpp:165] Memory required for data: 112892400
I1018 17:43:00.249728  3886 layer_factory.hpp:77] Creating layer flatten
I1018 17:43:00.249735  3886 net.cpp:100] Creating Layer flatten
I1018 17:43:00.249740  3886 net.cpp:434] flatten <- pool
I1018 17:43:00.249745  3886 net.cpp:408] flatten -> flatten
I1018 17:43:00.249781  3886 net.cpp:150] Setting up flatten
I1018 17:43:00.249785  3886 net.cpp:157] Top shape: 100 100 (10000)
I1018 17:43:00.249788  3886 net.cpp:165] Memory required for data: 112932400
I1018 17:43:00.249791  3886 layer_factory.hpp:77] Creating layer score
I1018 17:43:00.249797  3886 net.cpp:100] Creating Layer score
I1018 17:43:00.249801  3886 net.cpp:434] score <- flatten
I1018 17:43:00.249809  3886 net.cpp:408] score -> score
I1018 17:43:00.249903  3886 net.cpp:150] Setting up score
I1018 17:43:00.249908  3886 net.cpp:157] Top shape: 100 10 (1000)
I1018 17:43:00.249910  3886 net.cpp:165] Memory required for data: 112936400
I1018 17:43:00.249915  3886 layer_factory.hpp:77] Creating layer score_score_0_split
I1018 17:43:00.249922  3886 net.cpp:100] Creating Layer score_score_0_split
I1018 17:43:00.249925  3886 net.cpp:434] score_score_0_split <- score
I1018 17:43:00.249933  3886 net.cpp:408] score_score_0_split -> score_score_0_split_0
I1018 17:43:00.249940  3886 net.cpp:408] score_score_0_split -> score_score_0_split_1
I1018 17:43:00.249971  3886 net.cpp:150] Setting up score_score_0_split
I1018 17:43:00.249975  3886 net.cpp:157] Top shape: 100 10 (1000)
I1018 17:43:00.249977  3886 net.cpp:157] Top shape: 100 10 (1000)
I1018 17:43:00.249981  3886 net.cpp:165] Memory required for data: 112944400
I1018 17:43:00.249984  3886 layer_factory.hpp:77] Creating layer accuracy
I1018 17:43:00.249991  3886 net.cpp:100] Creating Layer accuracy
I1018 17:43:00.249995  3886 net.cpp:434] accuracy <- score_score_0_split_0
I1018 17:43:00.250000  3886 net.cpp:434] accuracy <- label_data_1_split_0
I1018 17:43:00.250007  3886 net.cpp:408] accuracy -> accuracy
…
