…
  level: 0
  stage: ""
}
type: "Adam"
I1018 20:06:28.254734  5726 solver.cpp:81] Creating training net from train_net file: /home/adam/Honours/Honours-Project/mnist_pooling/max/relu/poolcnn_relu_train.prototxt
I1018 20:06:28.255038  5726 net.cpp:58] Initializing net from parameters: 
state {
  phase: TRAIN
  level: 0
  stage: ""
}
layer {
  name: "data"
  type: "Data"
  top: "data"
  top: "label"
  transform_param {
    scale: 0.0039215689
  }
  data_param {
    source: "../../../../data/mnist/mnist_train_lmdb"
    batch_size: 64
    backend: LMDB
  }
}
layer {
  name: "conv1"
  type: "Convolution"
  bottom: "data"
  top: "conv1"
  convolution_param {
    num_output: 192
    kernel_size: 5
    weight_filler {
      type: "xavier"
    }
  }
}
layer {
  name: "pool1"
  type: "Pooling"
  bottom: "conv1"
  top: "pool1"
  pooling_param {
    pool: MAX
    kernel_size: 2
    stride: 2
  }
}
layer {
  name: "drop1"
  type: "Dropout"
  bottom: "pool1"
  top: "drop1"
  dropout_param {
    dropout_ratio: 0
  }
}
layer {
  name: "relu1"
  type: "ReLU"
  bottom: "drop1"
  top: "relu1"
}
layer {
  name: "conv2"
  type: "Convolution"
  bottom: "relu1"
  top: "conv2"
  convolution_param {
    num_output: 192
    kernel_size: 1
    weight_filler {
      type: "xavier"
    }
  }
}
layer {
  name: "conv3"
  type: "Convolution"
  bottom: "conv2"
  top: "conv3"
  convolution_param {
    num_output: 240
    kernel_size: 3
    weight_filler {
      type: "xavier"
    }
  }
}
layer {
  name: "pool2"
  type: "Pooling"
  bottom: "conv3"
  top: "pool2"
  pooling_param {
    pool: MAX
    kernel_size: 2
    stride: 2
  }
}
layer {
  name: "drop2"
  type: "Dropout"
  bottom: "pool2"
  top: "drop2"
  dropout_param {
    dropout_ratio: 0.1
  }
}
layer {
  name: "relu2"
  type: "ReLU"
  bottom: "drop2"
  top: "relu2"
}
layer {
  name: "conv4"
  type: "Convolution"
  bottom: "relu2"
  top: "conv4"
  convolution_param {
    num_output: 240
    kernel_size: 1
    weight_filler {
      type: "xavier"
    }
  }
}
layer {
  name: "conv5"
  type: "Convolution"
  bottom: "conv4"
  top: "conv5"
  convolution_param {
    num_output: 260
    kernel_size: 2
    weight_filler {
      type: "xavier"
    }
  }
}
layer {
  name: "pool3"
  type: "Pooling"
  bottom: "conv5"
  top: "pool3"
  pooling_param {
    pool: MAX
    kernel_size: 2
    stride: 2
  }
}
layer {
  name: "drop3"
  type: "Dropout"
  bottom: "pool3"
  top: "drop3"
  dropout_param {
    dropout_ratio: 0.2
  }
}
layer {
  name: "relu3"
  type: "ReLU"
  bottom: "drop3"
  top: "relu3"
}
layer {
  name: "conv6"
  type: "Convolution"
  bottom: "relu3"
  top: "conv6"
  convolution_param {
    num_output: 260
    kernel_size: 1
    weight_filler {
      type: "xavier"
    }
  }
}
layer {
  name: "conv7"
  type: "Convolution"
  bottom: "conv6"
  top: "conv7"
  convolution_param {
    num_output: 280
    kernel_size: 2
    weight_filler {
      type: "xavier"
    }
  }
}
layer {
  name: "pool4"
  type: "Pooling"
  bottom: "conv7"
  top: "pool4"
  pooling_param {
    pool: MAX
    kernel_size: 2
    stride: 2
  }
}
layer {
  name: "drop4"
  type: "Dropout"
  bottom: "pool4"
  top: "drop4"
  dropout_param {
    dropout_ratio: 0.3
  }
}
layer {
  name: "relu4"
  type: "ReLU"
  bottom: "drop4"
  top: "relu4"
}
layer {
  name: "conv8"
  type: "Convolution"
  bottom: "relu4"
  top: "conv8"
  convolution_param {
    num_output: 280
    kernel_size: 1
    weight_filler {
      type: "xavier"
    }
  }
}
layer {
  name: "pool5"
  type: "Pooling"
  bottom: "conv8"
  top: "pool5"
  pooling_param {
    pool: MAX
    kernel_size: 2
    stride: 2
  }
}
layer {
  name: "drop5"
  type: "Dropout"
  bottom: "pool5"
  top: "drop5"
  dropout_param {
    dropout_ratio: 0.4
  }
}
layer {
  name: "relu5"
  type: "ReLU"
  bottom: "drop5"
  top: "relu5"
}
layer {
  name: "conv10"
  type: "Convolution"
  bottom: "relu5"
  top: "conv10"
  convolution_param {
    num_output: 300
    kernel_size: 1
    weight_filler {
      type: "xavier"
    }
  }
}
layer {
  name: "pool6"
  type: "Pooling"
  bottom: "conv10"
  top: "pool6"
  pooling_param {
    pool: MAX
    kernel_size: 2
    stride: 2
  }
}
layer {
  name: "drop6"
  type: "Dropout"
  bottom: "pool6"
  top: "drop6"
  dropout_param {
    dropout_ratio: 0.5
  }
}
layer {
  name: "relu6"
  type: "ReLU"
  bottom: "drop6"
  top: "relu6"
}
layer {
  name: "conv11"
  type: "Convolution"
  bottom: "relu6"
  top: "conv11"
  convolution_param {
    num_output: 100
    kernel_size: 1
    weight_filler {
      type: "xavier"
    }
  }
}
layer {
  name: "pool7"
  type: "Pooling"
  bottom: "conv11"
  top: "pool7"
  pooling_param {
    pool: MAX
    kernel_size: 2
    stride: 2
  }
}
layer {
  name: "drop7"
  type: "Dropout"
  bottom: "pool7"
  top: "drop7"
  dropout_param {
    dropout_ratio: 0
  }
}
layer {
  name: "relu7"
  type: "ReLU"
  bottom: "drop7"
  top: "relu7"
}
layer {
  name: "pool"
  type: "Pooling"
  bottom: "relu7"
  top: "pool"
  pooling_param {
    pool: AVE
    global_pooling: true
  }
}
layer {
  name: "flatten"
  type: "Flatten"
  bottom: "pool"
  top: "flatten"
}
layer {
  name: "score"
  type: "InnerProduct"
  bottom: "flatten"
  top: "score"
  inner_product_param {
    num_output: 10
    weight_filler {
      type: "gaussian"
    }
  }
}
layer {
  name: "accuracy"
  type: "Accuracy"
  bottom: "score"
  bottom: "label"
  top: "accuracy"
}
layer {
  name: "loss"
  type: "SoftmaxWithLoss"
  bottom: "score"
  bottom: "label"
  top: "loss"
}
I1018 20:06:28.255169  5726 layer_factory.hpp:77] Creating layer data
I1018 20:06:28.255568  5726 net.cpp:100] Creating Layer data
I1018 20:06:28.255575  5726 net.cpp:408] data -> data
I1018 20:06:28.255591  5726 net.cpp:408] data -> label
I1018 20:06:28.256165  5732 db_lmdb.cpp:35] Opened lmdb ../../../../data/mnist/mnist_train_lmdb
I1018 20:06:28.261883  5726 data_layer.cpp:41] output data size: 64,1,28,28
I1018 20:06:28.262454  5726 net.cpp:150] Setting up data
I1018 20:06:28.262466  5726 net.cpp:157] Top shape: 64 1 28 28 (50176)
I1018 20:06:28.262470  5726 net.cpp:157] Top shape: 64 (64)
I1018 20:06:28.262471  5726 net.cpp:165] Memory required for data: 200960
I1018 20:06:28.262478  5726 layer_factory.hpp:77] Creating layer label_data_1_split
I1018 20:06:28.262488  5726 net.cpp:100] Creating Layer label_data_1_split
I1018 20:06:28.262492  5726 net.cpp:434] label_data_1_split <- label
I1018 20:06:28.262503  5726 net.cpp:408] label_data_1_split -> label_data_1_split_0
I1018 20:06:28.262514  5726 net.cpp:408] label_data_1_split -> label_data_1_split_1
I1018 20:06:28.262564  5726 net.cpp:150] Setting up label_data_1_split
I1018 20:06:28.262569  5726 net.cpp:157] Top shape: 64 (64)
I1018 20:06:28.262572  5726 net.cpp:157] Top shape: 64 (64)
I1018 20:06:28.262573  5726 net.cpp:165] Memory required for data: 201472
I1018 20:06:28.262575  5726 layer_factory.hpp:77] Creating layer conv1
I1018 20:06:28.262588  5726 net.cpp:100] Creating Layer conv1
I1018 20:06:28.262589  5726 net.cpp:434] conv1 <- data
I1018 20:06:28.262593  5726 net.cpp:408] conv1 -> conv1
I1018 20:06:28.387220  5726 net.cpp:150] Setting up conv1
I1018 20:06:28.387244  5726 net.cpp:157] Top shape: 64 192 24 24 (7077888)
I1018 20:06:28.387246  5726 net.cpp:165] Memory required for data: 28513024
I1018 20:06:28.387264  5726 layer_factory.hpp:77] Creating layer pool1
I1018 20:06:28.387274  5726 net.cpp:100] Creating Layer pool1
I1018 20:06:28.387276  5726 net.cpp:434] pool1 <- conv1
I1018 20:06:28.387281  5726 net.cpp:408] pool1 -> pool1
I1018 20:06:28.387320  5726 net.cpp:150] Setting up pool1
I1018 20:06:28.387326  5726 net.cpp:157] Top shape: 64 192 12 12 (1769472)
I1018 20:06:28.387346  5726 net.cpp:165] Memory required for data: 35590912
I1018 20:06:28.387349  5726 layer_factory.hpp:77] Creating layer drop1
I1018 20:06:28.387357  5726 net.cpp:100] Creating Layer drop1
I1018 20:06:28.387359  5726 net.cpp:434] drop1 <- pool1
I1018 20:06:28.387362  5726 net.cpp:408] drop1 -> drop1
I1018 20:06:28.387387  5726 net.cpp:150] Setting up drop1
I1018 20:06:28.387392  5726 net.cpp:157] Top shape: 64 192 12 12 (1769472)
I1018 20:06:28.387394  5726 net.cpp:165] Memory required for data: 42668800
I1018 20:06:28.387397  5726 layer_factory.hpp:77] Creating layer relu1
I1018 20:06:28.387401  5726 net.cpp:100] Creating Layer relu1
I1018 20:06:28.387404  5726 net.cpp:434] relu1 <- drop1
I1018 20:06:28.387408  5726 net.cpp:408] relu1 -> relu1
I1018 20:06:28.387537  5726 net.cpp:150] Setting up relu1
I1018 20:06:28.387543  5726 net.cpp:157] Top shape: 64 192 12 12 (1769472)
I1018 20:06:28.387545  5726 net.cpp:165] Memory required for data: 49746688
I1018 20:06:28.387547  5726 layer_factory.hpp:77] Creating layer conv2
I1018 20:06:28.387554  5726 net.cpp:100] Creating Layer conv2
I1018 20:06:28.387557  5726 net.cpp:434] conv2 <- relu1
I1018 20:06:28.387559  5726 net.cpp:408] conv2 -> conv2
I1018 20:06:28.388347  5726 net.cpp:150] Setting up conv2
I1018 20:06:28.388355  5726 net.cpp:157] Top shape: 64 192 12 12 (1769472)
I1018 20:06:28.388357  5726 net.cpp:165] Memory required for data: 56824576
I1018 20:06:28.388363  5726 layer_factory.hpp:77] Creating layer conv3
I1018 20:06:28.388368  5726 net.cpp:100] Creating Layer conv3
I1018 20:06:28.388370  5726 net.cpp:434] conv3 <- conv2
I1018 20:06:28.388373  5726 net.cpp:408] conv3 -> conv3
I1018 20:06:28.390811  5726 net.cpp:150] Setting up conv3
I1018 20:06:28.390820  5726 net.cpp:157] Top shape: 64 240 10 10 (1536000)
I1018 20:06:28.390821  5726 net.cpp:165] Memory required for data: 62968576
I1018 20:06:28.390827  5726 layer_factory.hpp:77] Creating layer pool2
I1018 20:06:28.390832  5726 net.cpp:100] Creating Layer pool2
I1018 20:06:28.390835  5726 net.cpp:434] pool2 <- conv3
I1018 20:06:28.390837  5726 net.cpp:408] pool2 -> pool2
I1018 20:06:28.390861  5726 net.cpp:150] Setting up pool2
I1018 20:06:28.390866  5726 net.cpp:157] Top shape: 64 240 5 5 (384000)
I1018 20:06:28.390866  5726 net.cpp:165] Memory required for data: 64504576
I1018 20:06:28.390868  5726 layer_factory.hpp:77] Creating layer drop2
I1018 20:06:28.390872  5726 net.cpp:100] Creating Layer drop2
I1018 20:06:28.390873  5726 net.cpp:434] drop2 <- pool2
I1018 20:06:28.390875  5726 net.cpp:408] drop2 -> drop2
I1018 20:06:28.390900  5726 net.cpp:150] Setting up drop2
I1018 20:06:28.390904  5726 net.cpp:157] Top shape: 64 240 5 5 (384000)
I1018 20:06:28.390907  5726 net.cpp:165] Memory required for data: 66040576
I1018 20:06:28.390908  5726 layer_factory.hpp:77] Creating layer relu2
I1018 20:06:28.390911  5726 net.cpp:100] Creating Layer relu2
I1018 20:06:28.390913  5726 net.cpp:434] relu2 <- drop2
I1018 20:06:28.390915  5726 net.cpp:408] relu2 -> relu2
I1018 20:06:28.391026  5726 net.cpp:150] Setting up relu2
I1018 20:06:28.391031  5726 net.cpp:157] Top shape: 64 240 5 5 (384000)
I1018 20:06:28.391033  5726 net.cpp:165] Memory required for data: 67576576
I1018 20:06:28.391036  5726 layer_factory.hpp:77] Creating layer conv4
I1018 20:06:28.391041  5726 net.cpp:100] Creating Layer conv4
I1018 20:06:28.391042  5726 net.cpp:434] conv4 <- relu2
I1018 20:06:28.391046  5726 net.cpp:408] conv4 -> conv4
I1018 20:06:28.391847  5726 net.cpp:150] Setting up conv4
I1018 20:06:28.391855  5726 net.cpp:157] Top shape: 64 240 5 5 (384000)
I1018 20:06:28.391857  5726 net.cpp:165] Memory required for data: 69112576
I1018 20:06:28.391861  5726 layer_factory.hpp:77] Creating layer conv5
I1018 20:06:28.391865  5726 net.cpp:100] Creating Layer conv5
I1018 20:06:28.391867  5726 net.cpp:434] conv5 <- conv4
I1018 20:06:28.391870  5726 net.cpp:408] conv5 -> conv5
I1018 20:06:28.393584  5726 net.cpp:150] Setting up conv5
I1018 20:06:28.393594  5726 net.cpp:157] Top shape: 64 260 4 4 (266240)
I1018 20:06:28.393604  5726 net.cpp:165] Memory required for data: 70177536
I1018 20:06:28.393610  5726 layer_factory.hpp:77] Creating layer pool3
I1018 20:06:28.393613  5726 net.cpp:100] Creating Layer pool3
I1018 20:06:28.393615  5726 net.cpp:434] pool3 <- conv5
I1018 20:06:28.393618  5726 net.cpp:408] pool3 -> pool3
I1018 20:06:28.393640  5726 net.cpp:150] Setting up pool3
I1018 20:06:28.393645  5726 net.cpp:157] Top shape: 64 260 2 2 (66560)
I1018 20:06:28.393647  5726 net.cpp:165] Memory required for data: 70443776
I1018 20:06:28.393648  5726 layer_factory.hpp:77] Creating layer drop3
I1018 20:06:28.393651  5726 net.cpp:100] Creating Layer drop3
I1018 20:06:28.393653  5726 net.cpp:434] drop3 <- pool3
I1018 20:06:28.393656  5726 net.cpp:408] drop3 -> drop3
I1018 20:06:28.393682  5726 net.cpp:150] Setting up drop3
I1018 20:06:28.393687  5726 net.cpp:157] Top shape: 64 260 2 2 (66560)
I1018 20:06:28.393688  5726 net.cpp:165] Memory required for data: 70710016
I1018 20:06:28.393690  5726 layer_factory.hpp:77] Creating layer relu3
I1018 20:06:28.393693  5726 net.cpp:100] Creating Layer relu3
I1018 20:06:28.393697  5726 net.cpp:434] relu3 <- drop3
I1018 20:06:28.393699  5726 net.cpp:408] relu3 -> relu3
I1018 20:06:28.393812  5726 net.cpp:150] Setting up relu3
I1018 20:06:28.393818  5726 net.cpp:157] Top shape: 64 260 2 2 (66560)
I1018 20:06:28.393821  5726 net.cpp:165] Memory required for data: 70976256
I1018 20:06:28.393821  5726 layer_factory.hpp:77] Creating layer conv6
I1018 20:06:28.393827  5726 net.cpp:100] Creating Layer conv6
I1018 20:06:28.393829  5726 net.cpp:434] conv6 <- relu3
I1018 20:06:28.393832  5726 net.cpp:408] conv6 -> conv6
I1018 20:06:28.394899  5726 net.cpp:150] Setting up conv6
I1018 20:06:28.394908  5726 net.cpp:157] Top shape: 64 260 2 2 (66560)
I1018 20:06:28.394911  5726 net.cpp:165] Memory required for data: 71242496
I1018 20:06:28.394914  5726 layer_factory.hpp:77] Creating layer conv7
I1018 20:06:28.394919  5726 net.cpp:100] Creating Layer conv7
I1018 20:06:28.394922  5726 net.cpp:434] conv7 <- conv6
I1018 20:06:28.394924  5726 net.cpp:408] conv7 -> conv7
I1018 20:06:28.396864  5726 net.cpp:150] Setting up conv7
I1018 20:06:28.396877  5726 net.cpp:157] Top shape: 64 280 1 1 (17920)
I1018 20:06:28.396879  5726 net.cpp:165] Memory required for data: 71314176
I1018 20:06:28.396884  5726 layer_factory.hpp:77] Creating layer pool4
I1018 20:06:28.396889  5726 net.cpp:100] Creating Layer pool4
I1018 20:06:28.396891  5726 net.cpp:434] pool4 <- conv7
I1018 20:06:28.396895  5726 net.cpp:408] pool4 -> pool4
I1018 20:06:28.396924  5726 net.cpp:150] Setting up pool4
I1018 20:06:28.396929  5726 net.cpp:157] Top shape: 64 280 1 1 (17920)
I1018 20:06:28.396929  5726 net.cpp:165] Memory required for data: 71385856
I1018 20:06:28.396932  5726 layer_factory.hpp:77] Creating layer drop4
I1018 20:06:28.396935  5726 net.cpp:100] Creating Layer drop4
I1018 20:06:28.396936  5726 net.cpp:434] drop4 <- pool4
I1018 20:06:28.396939  5726 net.cpp:408] drop4 -> drop4
I1018 20:06:28.396965  5726 net.cpp:150] Setting up drop4
I1018 20:06:28.396970  5726 net.cpp:157] Top shape: 64 280 1 1 (17920)
I1018 20:06:28.396971  5726 net.cpp:165] Memory required for data: 71457536
I1018 20:06:28.396973  5726 layer_factory.hpp:77] Creating layer relu4
I1018 20:06:28.396976  5726 net.cpp:100] Creating Layer relu4
I1018 20:06:28.396978  5726 net.cpp:434] relu4 <- drop4
I1018 20:06:28.396981  5726 net.cpp:408] relu4 -> relu4
I1018 20:06:28.397171  5726 net.cpp:150] Setting up relu4
I1018 20:06:28.397179  5726 net.cpp:157] Top shape: 64 280 1 1 (17920)
I1018 20:06:28.397181  5726 net.cpp:165] Memory required for data: 71529216
I1018 20:06:28.397182  5726 layer_factory.hpp:77] Creating layer conv8
I1018 20:06:28.397187  5726 net.cpp:100] Creating Layer conv8
I1018 20:06:28.397191  5726 net.cpp:434] conv8 <- relu4
I1018 20:06:28.397193  5726 net.cpp:408] conv8 -> conv8
I1018 20:06:28.397992  5726 net.cpp:150] Setting up conv8
I1018 20:06:28.398000  5726 net.cpp:157] Top shape: 64 280 1 1 (17920)
I1018 20:06:28.398002  5726 net.cpp:165] Memory required for data: 71600896
I1018 20:06:28.398016  5726 layer_factory.hpp:77] Creating layer pool5
I1018 20:06:28.398020  5726 net.cpp:100] Creating Layer pool5
I1018 20:06:28.398022  5726 net.cpp:434] pool5 <- conv8
I1018 20:06:28.398025  5726 net.cpp:408] pool5 -> pool5
I1018 20:06:28.398049  5726 net.cpp:150] Setting up pool5
I1018 20:06:28.398053  5726 net.cpp:157] Top shape: 64 280 1 1 (17920)
I1018 20:06:28.398054  5726 net.cpp:165] Memory required for data: 71672576
I1018 20:06:28.398058  5726 layer_factory.hpp:77] Creating layer drop5
I1018 20:06:28.398062  5726 net.cpp:100] Creating Layer drop5
I1018 20:06:28.398064  5726 net.cpp:434] drop5 <- pool5
I1018 20:06:28.398068  5726 net.cpp:408] drop5 -> drop5
I1018 20:06:28.398097  5726 net.cpp:150] Setting up drop5
I1018 20:06:28.398102  5726 net.cpp:157] Top shape: 64 280 1 1 (17920)
I1018 20:06:28.398103  5726 net.cpp:165] Memory required for data: 71744256
I1018 20:06:28.398107  5726 layer_factory.hpp:77] Creating layer relu5
I1018 20:06:28.398110  5726 net.cpp:100] Creating Layer relu5
I1018 20:06:28.398113  5726 net.cpp:434] relu5 <- drop5
I1018 20:06:28.398116  5726 net.cpp:408] relu5 -> relu5
I1018 20:06:28.398433  5726 net.cpp:150] Setting up relu5
I1018 20:06:28.398442  5726 net.cpp:157] Top shape: 64 280 1 1 (17920)
I1018 20:06:28.398445  5726 net.cpp:165] Memory required for data: 71815936
I1018 20:06:28.398448  5726 layer_factory.hpp:77] Creating layer conv10
I1018 20:06:28.398454  5726 net.cpp:100] Creating Layer conv10
I1018 20:06:28.398458  5726 net.cpp:434] conv10 <- relu5
I1018 20:06:28.398463  5726 net.cpp:408] conv10 -> conv10
I1018 20:06:28.399703  5726 net.cpp:150] Setting up conv10
I1018 20:06:28.399713  5726 net.cpp:157] Top shape: 64 300 1 1 (19200)
I1018 20:06:28.399716  5726 net.cpp:165] Memory required for data: 71892736
I1018 20:06:28.399724  5726 layer_factory.hpp:77] Creating layer pool6
I1018 20:06:28.399729  5726 net.cpp:100] Creating Layer pool6
I1018 20:06:28.399731  5726 net.cpp:434] pool6 <- conv10
I1018 20:06:28.399735  5726 net.cpp:408] pool6 -> pool6
I1018 20:06:28.399765  5726 net.cpp:150] Setting up pool6
I1018 20:06:28.399770  5726 net.cpp:157] Top shape: 64 300 1 1 (19200)
I1018 20:06:28.399772  5726 net.cpp:165] Memory required for data: 71969536
I1018 20:06:28.399775  5726 layer_factory.hpp:77] Creating layer drop6
I1018 20:06:28.399778  5726 net.cpp:100] Creating Layer drop6
I1018 20:06:28.399780  5726 net.cpp:434] drop6 <- pool6
I1018 20:06:28.399783  5726 net.cpp:408] drop6 -> drop6
I1018 20:06:28.399806  5726 net.cpp:150] Setting up drop6
I1018 20:06:28.399812  5726 net.cpp:157] Top shape: 64 300 1 1 (19200)
I1018 20:06:28.399816  5726 net.cpp:165] Memory required for data: 72046336
I1018 20:06:28.399818  5726 layer_factory.hpp:77] Creating layer relu6
I1018 20:06:28.399823  5726 net.cpp:100] Creating Layer relu6
I1018 20:06:28.399826  5726 net.cpp:434] relu6 <- drop6
I1018 20:06:28.399827  5726 net.cpp:408] relu6 -> relu6
I1018 20:06:28.399940  5726 net.cpp:150] Setting up relu6
I1018 20:06:28.399947  5726 net.cpp:157] Top shape: 64 300 1 1 (19200)
I1018 20:06:28.399950  5726 net.cpp:165] Memory required for data: 72123136
I1018 20:06:28.399950  5726 layer_factory.hpp:77] Creating layer conv11
I1018 20:06:28.399955  5726 net.cpp:100] Creating Layer conv11
I1018 20:06:28.399958  5726 net.cpp:434] conv11 <- relu6
I1018 20:06:28.399961  5726 net.cpp:408] conv11 -> conv11
I1018 20:06:28.400944  5726 net.cpp:150] Setting up conv11
I1018 20:06:28.400955  5726 net.cpp:157] Top shape: 64 100 1 1 (6400)
I1018 20:06:28.400959  5726 net.cpp:165] Memory required for data: 72148736
I1018 20:06:28.400964  5726 layer_factory.hpp:77] Creating layer pool7
I1018 20:06:28.400967  5726 net.cpp:100] Creating Layer pool7
I1018 20:06:28.400970  5726 net.cpp:434] pool7 <- conv11
I1018 20:06:28.400976  5726 net.cpp:408] pool7 -> pool7
I1018 20:06:28.401012  5726 net.cpp:150] Setting up pool7
I1018 20:06:28.401017  5726 net.cpp:157] Top shape: 64 100 1 1 (6400)
I1018 20:06:28.401020  5726 net.cpp:165] Memory required for data: 72174336
I1018 20:06:28.401036  5726 layer_factory.hpp:77] Creating layer drop7
I1018 20:06:28.401042  5726 net.cpp:100] Creating Layer drop7
I1018 20:06:28.401046  5726 net.cpp:434] drop7 <- pool7
I1018 20:06:28.401049  5726 net.cpp:408] drop7 -> drop7
I1018 20:06:28.401079  5726 net.cpp:150] Setting up drop7
I1018 20:06:28.401083  5726 net.cpp:157] Top shape: 64 100 1 1 (6400)
I1018 20:06:28.401085  5726 net.cpp:165] Memory required for data: 72199936
I1018 20:06:28.401087  5726 layer_factory.hpp:77] Creating layer relu7
I1018 20:06:28.401098  5726 net.cpp:100] Creating Layer relu7
I1018 20:06:28.401103  5726 net.cpp:434] relu7 <- drop7
I1018 20:06:28.401106  5726 net.cpp:408] relu7 -> relu7
I1018 20:06:28.401310  5726 net.cpp:150] Setting up relu7
I1018 20:06:28.401317  5726 net.cpp:157] Top shape: 64 100 1 1 (6400)
I1018 20:06:28.401319  5726 net.cpp:165] Memory required for data: 72225536
I1018 20:06:28.401322  5726 layer_factory.hpp:77] Creating layer pool
I1018 20:06:28.401329  5726 net.cpp:100] Creating Layer pool
I1018 20:06:28.401334  5726 net.cpp:434] pool <- relu7
I1018 20:06:28.401338  5726 net.cpp:408] pool -> pool
I1018 20:06:28.401459  5726 net.cpp:150] Setting up pool
I1018 20:06:28.401465  5726 net.cpp:157] Top shape: 64 100 1 1 (6400)
I1018 20:06:28.401468  5726 net.cpp:165] Memory required for data: 72251136
I1018 20:06:28.401470  5726 layer_factory.hpp:77] Creating layer flatten
I1018 20:06:28.401475  5726 net.cpp:100] Creating Layer flatten
I1018 20:06:28.401479  5726 net.cpp:434] flatten <- pool
I1018 20:06:28.401484  5726 net.cpp:408] flatten -> flatten
I1018 20:06:28.401506  5726 net.cpp:150] Setting up flatten
I1018 20:06:28.401510  5726 net.cpp:157] Top shape: 64 100 (6400)
I1018 20:06:28.401512  5726 net.cpp:165] Memory required for data: 72276736
I1018 20:06:28.401515  5726 layer_factory.hpp:77] Creating layer score
I1018 20:06:28.401521  5726 net.cpp:100] Creating Layer score
I1018 20:06:28.401525  5726 net.cpp:434] score <- flatten
I1018 20:06:28.401530  5726 net.cpp:408] score -> score
I1018 20:06:28.401636  5726 net.cpp:150] Setting up score
I1018 20:06:28.401641  5726 net.cpp:157] Top shape: 64 10 (640)
I1018 20:06:28.401643  5726 net.cpp:165] Memory required for data: 72279296
I1018 20:06:28.401648  5726 layer_factory.hpp:77] Creating layer score_score_0_split
I1018 20:06:28.401651  5726 net.cpp:100] Creating Layer score_score_0_split
I1018 20:06:28.401654  5726 net.cpp:434] score_score_0_split <- score
I1018 20:06:28.401659  5726 net.cpp:408] score_score_0_split -> score_score_0_split_0
I1018 20:06:28.401664  5726 net.cpp:408] score_score_0_split -> score_score_0_split_1
I1018 20:06:28.401691  5726 net.cpp:150] Setting up score_score_0_split
I1018 20:06:28.401695  5726 net.cpp:157] Top shape: 64 10 (640)
I1018 20:06:28.401697  5726 net.cpp:157] Top shape: 64 10 (640)
I1018 20:06:28.401698  5726 net.cpp:165] Memory required for data: 72284416
I1018 20:06:28.401700  5726 layer_factory.hpp:77] Creating layer accuracy
I1018 20:06:28.401705  5726 net.cpp:100] Creating Layer accuracy
I1018 20:06:28.401706  5726 net.cpp:434] accuracy <- score_score_0_split_0
I1018 20:06:28.401710  5726 net.cpp:434] accuracy <- label_data_1_split_0
I1018 20:06:28.401712  5726 net.cpp:408] accuracy -> accuracy
…
I1018 20:06:28.402210  5726 net.cpp:283] Network initialization done.
I1018 20:06:28.402444  5726 solver.cpp:181] Creating test net (#0) specified by test_net file: /home/adam/Honours/Honours-Project/mnist_pooling/max/relu/poolcnn_relu_test.prototxt
I1018 20:06:28.402562  5726 net.cpp:58] Initializing net from parameters: 
state {
  phase: TEST
}
layer {
  name: "data"
  type: "Data"
  top: "data"
  top: "label"
  transform_param {
    scale: 0.0039215689
  }
  data_param {
    source: "../../../../data/mnist/mnist_test_lmdb"
    batch_size: 100
    backend: LMDB
  }
}
layer {
  name: "conv1"
  type: "Convolution"
  bottom: "data"
  top: "conv1"
  convolution_param {
    num_output: 192
    kernel_size: 5
    weight_filler {
      type: "xavier"
    }
  }
}
layer {
  name: "pool1"
  type: "Pooling"
  bottom: "conv1"
  top: "pool1"
  pooling_param {
    pool: MAX
    kernel_size: 2
    stride: 2
  }
}
layer {
  name: "drop1"
  type: "Dropout"
  bottom: "pool1"
  top: "drop1"
  dropout_param {
    dropout_ratio: 0
  }
}
layer {
  name: "relu1"
  type: "ReLU"
  bottom: "drop1"
  top: "relu1"
}
layer {
  name: "conv2"
  type: "Convolution"
  bottom: "relu1"
  top: "conv2"
  convolution_param {
    num_output: 192
    kernel_size: 1
    weight_filler {
      type: "xavier"
    }
  }
}
layer {
  name: "conv3"
  type: "Convolution"
  bottom: "conv2"
  top: "conv3"
  convolution_param {
    num_output: 240
    kernel_size: 3
    weight_filler {
      type: "xavier"
    }
  }
}
layer {
  name: "pool2"
  type: "Pooling"
  bottom: "conv3"
  top: "pool2"
  pooling_param {
    pool: MAX
    kernel_size: 2
    stride: 2
  }
}
layer {
  name: "drop2"
  type: "Dropout"
  bottom: "pool2"
  top: "drop2"
  dropout_param {
    dropout_ratio: 0.1
  }
}
layer {
  name: "relu2"
  type: "ReLU"
  bottom: "drop2"
  top: "relu2"
}
layer {
  name: "conv4"
  type: "Convolution"
  bottom: "relu2"
  top: "conv4"
  convolution_param {
    num_output: 240
    kernel_size: 1
    weight_filler {
      type: "xavier"
    }
  }
}
layer {
  name: "conv5"
  type: "Convolution"
  bottom: "conv4"
  top: "conv5"
  convolution_param {
    num_output: 260
    kernel_size: 2
    weight_filler {
      type: "xavier"
    }
  }
}
layer {
  name: "pool3"
  type: "Pooling"
  bottom: "conv5"
  top: "pool3"
  pooling_param {
    pool: MAX
    kernel_size: 2
    stride: 2
  }
}
layer {
  name: "drop3"
  type: "Dropout"
  bottom: "pool3"
  top: "drop3"
  dropout_param {
    dropout_ratio: 0.2
  }
}
layer {
  name: "relu3"
  type: "ReLU"
  bottom: "drop3"
  top: "relu3"
}
layer {
  name: "conv6"
  type: "Convolution"
  bottom: "relu3"
  top: "conv6"
  convolution_param {
    num_output: 260
    kernel_size: 1
    weight_filler {
      type: "xavier"
    }
  }
}
layer {
  name: "conv7"
  type: "Convolution"
  bottom: "conv6"
  top: "conv7"
  convolution_param {
    num_output: 280
    kernel_size: 2
    weight_filler {
      type: "xavier"
    }
  }
}
layer {
  name: "pool4"
  type: "Pooling"
  bottom: "conv7"
  top: "pool4"
  pooling_param {
    pool: MAX
    kernel_size: 2
    stride: 2
  }
}
layer {
  name: "drop4"
  type: "Dropout"
  bottom: "pool4"
  top: "drop4"
  dropout_param {
    dropout_ratio: 0.3
  }
}
layer {
  name: "relu4"
  type: "ReLU"
  bottom: "drop4"
  top: "relu4"
}
layer {
  name: "conv8"
  type: "Convolution"
  bottom: "relu4"
  top: "conv8"
  convolution_param {
    num_output: 280
    kernel_size: 1
    weight_filler {
      type: "xavier"
    }
  }
}
layer {
  name: "pool5"
  type: "Pooling"
  bottom: "conv8"
  top: "pool5"
  pooling_param {
    pool: MAX
    kernel_size: 2
    stride: 2
  }
}
layer {
  name: "drop5"
  type: "Dropout"
  bottom: "pool5"
  top: "drop5"
  dropout_param {
    dropout_ratio: 0.4
  }
}
layer {
  name: "relu5"
  type: "ReLU"
  bottom: "drop5"
  top: "relu5"
}
layer {
  name: "conv10"
  type: "Convolution"
  bottom: "relu5"
  top: "conv10"
  convolution_param {
    num_output: 300
    kernel_size: 1
    weight_filler {
      type: "xavier"
    }
  }
}
layer {
  name: "pool6"
  type: "Pooling"
  bottom: "conv10"
  top: "pool6"
  pooling_param {
    pool: MAX
    kernel_size: 2
    stride: 2
  }
}
layer {
  name: "drop6"
  type: "Dropout"
  bottom: "pool6"
  top: "drop6"
  dropout_param {
    dropout_ratio: 0.5
  }
}
layer {
  name: "relu6"
  type: "ReLU"
  bottom: "drop6"
  top: "relu6"
}
layer {
  name: "conv11"
  type: "Convolution"
  bottom: "relu6"
  top: "conv11"
  convolution_param {
    num_output: 100
    kernel_size: 1
    weight_filler {
      type: "xavier"
    }
  }
}
layer {
  name: "pool7"
  type: "Pooling"
  bottom: "conv11"
  top: "pool7"
  pooling_param {
    pool: MAX
    kernel_size: 2
    stride: 2
  }
}
layer {
  name: "drop7"
  type: "Dropout"
  bottom: "pool7"
  top: "drop7"
  dropout_param {
    dropout_ratio: 0
  }
}
layer {
  name: "relu7"
  type: "ReLU"
  bottom: "drop7"
  top: "relu7"
}
layer {
  name: "pool"
  type: "Pooling"
  bottom: "relu7"
  top: "pool"
  pooling_param {
    pool: AVE
    global_pooling: true
  }
}
layer {
  name: "flatten"
  type: "Flatten"
  bottom: "pool"
  top: "flatten"
}
layer {
  name: "score"
  type: "InnerProduct"
  bottom: "flatten"
  top: "score"
  inner_product_param {
    num_output: 10
    weight_filler {
      type: "gaussian"
    }
  }
}
layer {
  name: "accuracy"
  type: "Accuracy"
  bottom: "score"
  bottom: "label"
  top: "accuracy"
}
layer {
  name: "loss"
  type: "SoftmaxWithLoss"
  bottom: "score"
  bottom: "label"
  top: "loss"
}
I1018 20:06:28.402658  5726 layer_factory.hpp:77] Creating layer data
I1018 20:06:28.402750  5726 net.cpp:100] Creating Layer data
I1018 20:06:28.402755  5726 net.cpp:408] data -> data
I1018 20:06:28.402761  5726 net.cpp:408] data -> label
I1018 20:06:28.403399  5734 db_lmdb.cpp:35] Opened lmdb ../../../../data/mnist/mnist_test_lmdb
I1018 20:06:28.403473  5726 data_layer.cpp:41] output data size: 100,1,28,28
I1018 20:06:28.404170  5726 net.cpp:150] Setting up data
I1018 20:06:28.404178  5726 net.cpp:157] Top shape: 100 1 28 28 (78400)
I1018 20:06:28.404182  5726 net.cpp:157] Top shape: 100 (100)
I1018 20:06:28.404186  5726 net.cpp:165] Memory required for data: 314000
I1018 20:06:28.404189  5726 layer_factory.hpp:77] Creating layer label_data_1_split
I1018 20:06:28.404197  5726 net.cpp:100] Creating Layer label_data_1_split
I1018 20:06:28.404201  5726 net.cpp:434] label_data_1_split <- label
I1018 20:06:28.404206  5726 net.cpp:408] label_data_1_split -> label_data_1_split_0
I1018 20:06:28.404214  5726 net.cpp:408] label_data_1_split -> label_data_1_split_1
I1018 20:06:28.404247  5726 net.cpp:150] Setting up label_data_1_split
I1018 20:06:28.404252  5726 net.cpp:157] Top shape: 100 (100)
I1018 20:06:28.404255  5726 net.cpp:157] Top shape: 100 (100)
I1018 20:06:28.404258  5726 net.cpp:165] Memory required for data: 314800
I1018 20:06:28.404261  5726 layer_factory.hpp:77] Creating layer conv1
I1018 20:06:28.404269  5726 net.cpp:100] Creating Layer conv1
I1018 20:06:28.404273  5726 net.cpp:434] conv1 <- data
I1018 20:06:28.404278  5726 net.cpp:408] conv1 -> conv1
I1018 20:06:28.404877  5726 net.cpp:150] Setting up conv1
I1018 20:06:28.404886  5726 net.cpp:157] Top shape: 100 192 24 24 (11059200)
I1018 20:06:28.404891  5726 net.cpp:165] Memory required for data: 44551600
I1018 20:06:28.404899  5726 layer_factory.hpp:77] Creating layer pool1
I1018 20:06:28.404906  5726 net.cpp:100] Creating Layer pool1
I1018 20:06:28.404909  5726 net.cpp:434] pool1 <- conv1
I1018 20:06:28.404914  5726 net.cpp:408] pool1 -> pool1
I1018 20:06:28.404948  5726 net.cpp:150] Setting up pool1
I1018 20:06:28.404954  5726 net.cpp:157] Top shape: 100 192 12 12 (2764800)
I1018 20:06:28.404959  5726 net.cpp:165] Memory required for data: 55610800
I1018 20:06:28.404964  5726 layer_factory.hpp:77] Creating layer drop1
I1018 20:06:28.404971  5726 net.cpp:100] Creating Layer drop1
I1018 20:06:28.404974  5726 net.cpp:434] drop1 <- pool1
I1018 20:06:28.404979  5726 net.cpp:408] drop1 -> drop1
I1018 20:06:28.405004  5726 net.cpp:150] Setting up drop1
I1018 20:06:28.405010  5726 net.cpp:157] Top shape: 100 192 12 12 (2764800)
I1018 20:06:28.405014  5726 net.cpp:165] Memory required for data: 66670000
I1018 20:06:28.405017  5726 layer_factory.hpp:77] Creating layer relu1
I1018 20:06:28.405022  5726 net.cpp:100] Creating Layer relu1
I1018 20:06:28.405025  5726 net.cpp:434] relu1 <- drop1
I1018 20:06:28.405030  5726 net.cpp:408] relu1 -> relu1
I1018 20:06:28.405221  5726 net.cpp:150] Setting up relu1
I1018 20:06:28.405230  5726 net.cpp:157] Top shape: 100 192 12 12 (2764800)
I1018 20:06:28.405233  5726 net.cpp:165] Memory required for data: 77729200
I1018 20:06:28.405237  5726 layer_factory.hpp:77] Creating layer conv2
I1018 20:06:28.405244  5726 net.cpp:100] Creating Layer conv2
I1018 20:06:28.405248  5726 net.cpp:434] conv2 <- relu1
I1018 20:06:28.405256  5726 net.cpp:408] conv2 -> conv2
I1018 20:06:28.406067  5726 net.cpp:150] Setting up conv2
I1018 20:06:28.406076  5726 net.cpp:157] Top shape: 100 192 12 12 (2764800)
I1018 20:06:28.406080  5726 net.cpp:165] Memory required for data: 88788400
I1018 20:06:28.406090  5726 layer_factory.hpp:77] Creating layer conv3
I1018 20:06:28.406105  5726 net.cpp:100] Creating Layer conv3
I1018 20:06:28.406108  5726 net.cpp:434] conv3 <- conv2
I1018 20:06:28.406114  5726 net.cpp:408] conv3 -> conv3
I1018 20:06:28.408560  5726 net.cpp:150] Setting up conv3
I1018 20:06:28.408570  5726 net.cpp:157] Top shape: 100 240 10 10 (2400000)
I1018 20:06:28.408573  5726 net.cpp:165] Memory required for data: 98388400
I1018 20:06:28.408581  5726 layer_factory.hpp:77] Creating layer pool2
I1018 20:06:28.408589  5726 net.cpp:100] Creating Layer pool2
I1018 20:06:28.408593  5726 net.cpp:434] pool2 <- conv3
I1018 20:06:28.408601  5726 net.cpp:408] pool2 -> pool2
I1018 20:06:28.408629  5726 net.cpp:150] Setting up pool2
I1018 20:06:28.408634  5726 net.cpp:157] Top shape: 100 240 5 5 (600000)
I1018 20:06:28.408638  5726 net.cpp:165] Memory required for data: 100788400
I1018 20:06:28.408641  5726 layer_factory.hpp:77] Creating layer drop2
I1018 20:06:28.408645  5726 net.cpp:100] Creating Layer drop2
I1018 20:06:28.408649  5726 net.cpp:434] drop2 <- pool2
I1018 20:06:28.408653  5726 net.cpp:408] drop2 -> drop2
I1018 20:06:28.408679  5726 net.cpp:150] Setting up drop2
I1018 20:06:28.408684  5726 net.cpp:157] Top shape: 100 240 5 5 (600000)
I1018 20:06:28.408686  5726 net.cpp:165] Memory required for data: 103188400
I1018 20:06:28.408689  5726 layer_factory.hpp:77] Creating layer relu2
I1018 20:06:28.408694  5726 net.cpp:100] Creating Layer relu2
I1018 20:06:28.408697  5726 net.cpp:434] relu2 <- drop2
I1018 20:06:28.408701  5726 net.cpp:408] relu2 -> relu2
I1018 20:06:28.408812  5726 net.cpp:150] Setting up relu2
I1018 20:06:28.408818  5726 net.cpp:157] Top shape: 100 240 5 5 (600000)
I1018 20:06:28.408821  5726 net.cpp:165] Memory required for data: 105588400
I1018 20:06:28.408823  5726 layer_factory.hpp:77] Creating layer conv4
I1018 20:06:28.408830  5726 net.cpp:100] Creating Layer conv4
I1018 20:06:28.408833  5726 net.cpp:434] conv4 <- relu2
I1018 20:06:28.408838  5726 net.cpp:408] conv4 -> conv4
I1018 20:06:28.409637  5726 net.cpp:150] Setting up conv4
I1018 20:06:28.409646  5726 net.cpp:157] Top shape: 100 240 5 5 (600000)
I1018 20:06:28.409649  5726 net.cpp:165] Memory required for data: 107988400
I1018 20:06:28.409656  5726 layer_factory.hpp:77] Creating layer conv5
I1018 20:06:28.409662  5726 net.cpp:100] Creating Layer conv5
I1018 20:06:28.409667  5726 net.cpp:434] conv5 <- conv4
I1018 20:06:28.409672  5726 net.cpp:408] conv5 -> conv5
I1018 20:06:28.411392  5726 net.cpp:150] Setting up conv5
I1018 20:06:28.411401  5726 net.cpp:157] Top shape: 100 260 4 4 (416000)
I1018 20:06:28.411404  5726 net.cpp:165] Memory required for data: 109652400
I1018 20:06:28.411413  5726 layer_factory.hpp:77] Creating layer pool3
I1018 20:06:28.411419  5726 net.cpp:100] Creating Layer pool3
I1018 20:06:28.411423  5726 net.cpp:434] pool3 <- conv5
I1018 20:06:28.411428  5726 net.cpp:408] pool3 -> pool3
I1018 20:06:28.411456  5726 net.cpp:150] Setting up pool3
I1018 20:06:28.411461  5726 net.cpp:157] Top shape: 100 260 2 2 (104000)
I1018 20:06:28.411464  5726 net.cpp:165] Memory required for data: 110068400
I1018 20:06:28.411468  5726 layer_factory.hpp:77] Creating layer drop3
I1018 20:06:28.411473  5726 net.cpp:100] Creating Layer drop3
I1018 20:06:28.411481  5726 net.cpp:434] drop3 <- pool3
I1018 20:06:28.411486  5726 net.cpp:408] drop3 -> drop3
I1018 20:06:28.411514  5726 net.cpp:150] Setting up drop3
I1018 20:06:28.411519  5726 net.cpp:157] Top shape: 100 260 2 2 (104000)
I1018 20:06:28.411521  5726 net.cpp:165] Memory required for data: 110484400
I1018 20:06:28.411525  5726 layer_factory.hpp:77] Creating layer relu3
I1018 20:06:28.411530  5726 net.cpp:100] Creating Layer relu3
I1018 20:06:28.411533  5726 net.cpp:434] relu3 <- drop3
I1018 20:06:28.411537  5726 net.cpp:408] relu3 -> relu3
I1018 20:06:28.411648  5726 net.cpp:150] Setting up relu3
I1018 20:06:28.411653  5726 net.cpp:157] Top shape: 100 260 2 2 (104000)
I1018 20:06:28.411658  5726 net.cpp:165] Memory required for data: 110900400
I1018 20:06:28.411660  5726 layer_factory.hpp:77] Creating layer conv6
I1018 20:06:28.411675  5726 net.cpp:100] Creating Layer conv6
I1018 20:06:28.411679  5726 net.cpp:434] conv6 <- relu3
I1018 20:06:28.411684  5726 net.cpp:408] conv6 -> conv6
I1018 20:06:28.412847  5726 net.cpp:150] Setting up conv6
I1018 20:06:28.412856  5726 net.cpp:157] Top shape: 100 260 2 2 (104000)
I1018 20:06:28.412860  5726 net.cpp:165] Memory required for data: 111316400
I1018 20:06:28.412866  5726 layer_factory.hpp:77] Creating layer conv7
I1018 20:06:28.412874  5726 net.cpp:100] Creating Layer conv7
I1018 20:06:28.412878  5726 net.cpp:434] conv7 <- conv6
I1018 20:06:28.412883  5726 net.cpp:408] conv7 -> conv7
I1018 20:06:28.414862  5726 net.cpp:150] Setting up conv7
I1018 20:06:28.414872  5726 net.cpp:157] Top shape: 100 280 1 1 (28000)
I1018 20:06:28.414875  5726 net.cpp:165] Memory required for data: 111428400
I1018 20:06:28.414882  5726 layer_factory.hpp:77] Creating layer pool4
I1018 20:06:28.414890  5726 net.cpp:100] Creating Layer pool4
I1018 20:06:28.414893  5726 net.cpp:434] pool4 <- conv7
I1018 20:06:28.414899  5726 net.cpp:408] pool4 -> pool4
I1018 20:06:28.414929  5726 net.cpp:150] Setting up pool4
I1018 20:06:28.414934  5726 net.cpp:157] Top shape: 100 280 1 1 (28000)
I1018 20:06:28.414937  5726 net.cpp:165] Memory required for data: 111540400
I1018 20:06:28.414940  5726 layer_factory.hpp:77] Creating layer drop4
I1018 20:06:28.414947  5726 net.cpp:100] Creating Layer drop4
I1018 20:06:28.414950  5726 net.cpp:434] drop4 <- pool4
I1018 20:06:28.414954  5726 net.cpp:408] drop4 -> drop4
I1018 20:06:28.414980  5726 net.cpp:150] Setting up drop4
I1018 20:06:28.414985  5726 net.cpp:157] Top shape: 100 280 1 1 (28000)
I1018 20:06:28.414989  5726 net.cpp:165] Memory required for data: 111652400
I1018 20:06:28.414991  5726 layer_factory.hpp:77] Creating layer relu4
I1018 20:06:28.414996  5726 net.cpp:100] Creating Layer relu4
I1018 20:06:28.414999  5726 net.cpp:434] relu4 <- drop4
I1018 20:06:28.415004  5726 net.cpp:408] relu4 -> relu4
I1018 20:06:28.415113  5726 net.cpp:150] Setting up relu4
I1018 20:06:28.415120  5726 net.cpp:157] Top shape: 100 280 1 1 (28000)
I1018 20:06:28.415123  5726 net.cpp:165] Memory required for data: 111764400
I1018 20:06:28.415127  5726 layer_factory.hpp:77] Creating layer conv8
I1018 20:06:28.415134  5726 net.cpp:100] Creating Layer conv8
I1018 20:06:28.415138  5726 net.cpp:434] conv8 <- relu4
I1018 20:06:28.415141  5726 net.cpp:408] conv8 -> conv8
I1018 20:06:28.416033  5726 net.cpp:150] Setting up conv8
I1018 20:06:28.416041  5726 net.cpp:157] Top shape: 100 280 1 1 (28000)
I1018 20:06:28.416044  5726 net.cpp:165] Memory required for data: 111876400
I1018 20:06:28.416050  5726 layer_factory.hpp:77] Creating layer pool5
I1018 20:06:28.416056  5726 net.cpp:100] Creating Layer pool5
I1018 20:06:28.416060  5726 net.cpp:434] pool5 <- conv8
I1018 20:06:28.416065  5726 net.cpp:408] pool5 -> pool5
I1018 20:06:28.416092  5726 net.cpp:150] Setting up pool5
I1018 20:06:28.416098  5726 net.cpp:157] Top shape: 100 280 1 1 (28000)
I1018 20:06:28.416101  5726 net.cpp:165] Memory required for data: 111988400
I1018 20:06:28.416105  5726 layer_factory.hpp:77] Creating layer drop5
I1018 20:06:28.416110  5726 net.cpp:100] Creating Layer drop5
I1018 20:06:28.416113  5726 net.cpp:434] drop5 <- pool5
I1018 20:06:28.416117  5726 net.cpp:408] drop5 -> drop5
I1018 20:06:28.416142  5726 net.cpp:150] Setting up drop5
I1018 20:06:28.416147  5726 net.cpp:157] Top shape: 100 280 1 1 (28000)
I1018 20:06:28.416152  5726 net.cpp:165] Memory required for data: 112100400
I1018 20:06:28.416154  5726 layer_factory.hpp:77] Creating layer relu5
I1018 20:06:28.416158  5726 net.cpp:100] Creating Layer relu5
I1018 20:06:28.416162  5726 net.cpp:434] relu5 <- drop5
I1018 20:06:28.416167  5726 net.cpp:408] relu5 -> relu5
I1018 20:06:28.416354  5726 net.cpp:150] Setting up relu5
I1018 20:06:28.416362  5726 net.cpp:157] Top shape: 100 280 1 1 (28000)
I1018 20:06:28.416364  5726 net.cpp:165] Memory required for data: 112212400
I1018 20:06:28.416368  5726 layer_factory.hpp:77] Creating layer conv10
I1018 20:06:28.416383  5726 net.cpp:100] Creating Layer conv10
I1018 20:06:28.416388  5726 net.cpp:434] conv10 <- relu5
I1018 20:06:28.416393  5726 net.cpp:408] conv10 -> conv10
I1018 20:06:28.417309  5726 net.cpp:150] Setting up conv10
I1018 20:06:28.417316  5726 net.cpp:157] Top shape: 100 300 1 1 (30000)
I1018 20:06:28.417320  5726 net.cpp:165] Memory required for data: 112332400
I1018 20:06:28.417330  5726 layer_factory.hpp:77] Creating layer pool6
I1018 20:06:28.417335  5726 net.cpp:100] Creating Layer pool6
I1018 20:06:28.417340  5726 net.cpp:434] pool6 <- conv10
I1018 20:06:28.417345  5726 net.cpp:408] pool6 -> pool6
I1018 20:06:28.417371  5726 net.cpp:150] Setting up pool6
I1018 20:06:28.417376  5726 net.cpp:157] Top shape: 100 300 1 1 (30000)
I1018 20:06:28.417382  5726 net.cpp:165] Memory required for data: 112452400
I1018 20:06:28.417384  5726 layer_factory.hpp:77] Creating layer drop6
I1018 20:06:28.417388  5726 net.cpp:100] Creating Layer drop6
I1018 20:06:28.417392  5726 net.cpp:434] drop6 <- pool6
I1018 20:06:28.417397  5726 net.cpp:408] drop6 -> drop6
I1018 20:06:28.417421  5726 net.cpp:150] Setting up drop6
I1018 20:06:28.417426  5726 net.cpp:157] Top shape: 100 300 1 1 (30000)
I1018 20:06:28.417429  5726 net.cpp:165] Memory required for data: 112572400
I1018 20:06:28.417433  5726 layer_factory.hpp:77] Creating layer relu6
I1018 20:06:28.417438  5726 net.cpp:100] Creating Layer relu6
I1018 20:06:28.417440  5726 net.cpp:434] relu6 <- drop6
I1018 20:06:28.417445  5726 net.cpp:408] relu6 -> relu6
I1018 20:06:28.417552  5726 net.cpp:150] Setting up relu6
I1018 20:06:28.417558  5726 net.cpp:157] Top shape: 100 300 1 1 (30000)
I1018 20:06:28.417562  5726 net.cpp:165] Memory required for data: 112692400
I1018 20:06:28.417564  5726 layer_factory.hpp:77] Creating layer conv11
I1018 20:06:28.417572  5726 net.cpp:100] Creating Layer conv11
I1018 20:06:28.417574  5726 net.cpp:434] conv11 <- relu6
I1018 20:06:28.417579  5726 net.cpp:408] conv11 -> conv11
I1018 20:06:28.418283  5726 net.cpp:150] Setting up conv11
I1018 20:06:28.418292  5726 net.cpp:157] Top shape: 100 100 1 1 (10000)
I1018 20:06:28.418295  5726 net.cpp:165] Memory required for data: 112732400
I1018 20:06:28.418301  5726 layer_factory.hpp:77] Creating layer pool7
I1018 20:06:28.418306  5726 net.cpp:100] Creating Layer pool7
I1018 20:06:28.418311  5726 net.cpp:434] pool7 <- conv11
I1018 20:06:28.418315  5726 net.cpp:408] pool7 -> pool7
I1018 20:06:28.418345  5726 net.cpp:150] Setting up pool7
I1018 20:06:28.418350  5726 net.cpp:157] Top shape: 100 100 1 1 (10000)
I1018 20:06:28.418354  5726 net.cpp:165] Memory required for data: 112772400
I1018 20:06:28.418357  5726 layer_factory.hpp:77] Creating layer drop7
I1018 20:06:28.418361  5726 net.cpp:100] Creating Layer drop7
I1018 20:06:28.418365  5726 net.cpp:434] drop7 <- pool7
I1018 20:06:28.418370  5726 net.cpp:408] drop7 -> drop7
I1018 20:06:28.418395  5726 net.cpp:150] Setting up drop7
I1018 20:06:28.418401  5726 net.cpp:157] Top shape: 100 100 1 1 (10000)
I1018 20:06:28.418403  5726 net.cpp:165] Memory required for data: 112812400
I1018 20:06:28.418406  5726 layer_factory.hpp:77] Creating layer relu7
I1018 20:06:28.418413  5726 net.cpp:100] Creating Layer relu7
I1018 20:06:28.418416  5726 net.cpp:434] relu7 <- drop7
I1018 20:06:28.418421  5726 net.cpp:408] relu7 -> relu7
I1018 20:06:28.418531  5726 net.cpp:150] Setting up relu7
I1018 20:06:28.418537  5726 net.cpp:157] Top shape: 100 100 1 1 (10000)
I1018 20:06:28.418540  5726 net.cpp:165] Memory required for data: 112852400
I1018 20:06:28.418543  5726 layer_factory.hpp:77] Creating layer pool
I1018 20:06:28.418548  5726 net.cpp:100] Creating Layer pool
I1018 20:06:28.418551  5726 net.cpp:434] pool <- relu7
I1018 20:06:28.418556  5726 net.cpp:408] pool -> pool
I1018 20:06:28.418740  5726 net.cpp:150] Setting up pool
I1018 20:06:28.418748  5726 net.cpp:157] Top shape: 100 100 1 1 (10000)
I1018 20:06:28.418751  5726 net.cpp:165] Memory required for data: 112892400
I1018 20:06:28.418754  5726 layer_factory.hpp:77] Creating layer flatten
I1018 20:06:28.418766  5726 net.cpp:100] Creating Layer flatten
I1018 20:06:28.418771  5726 net.cpp:434] flatten <- pool
I1018 20:06:28.418776  5726 net.cpp:408] flatten -> flatten
I1018 20:06:28.418794  5726 net.cpp:150] Setting up flatten
I1018 20:06:28.418799  5726 net.cpp:157] Top shape: 100 100 (10000)
I1018 20:06:28.418803  5726 net.cpp:165] Memory required for data: 112932400
I1018 20:06:28.418807  5726 layer_factory.hpp:77] Creating layer score
I1018 20:06:28.418812  5726 net.cpp:100] Creating Layer score
I1018 20:06:28.418815  5726 net.cpp:434] score <- flatten
I1018 20:06:28.418820  5726 net.cpp:408] score -> score
I1018 20:06:28.418912  5726 net.cpp:150] Setting up score
I1018 20:06:28.418918  5726 net.cpp:157] Top shape: 100 10 (1000)
I1018 20:06:28.418920  5726 net.cpp:165] Memory required for data: 112936400
I1018 20:06:28.418926  5726 layer_factory.hpp:77] Creating layer score_score_0_split
I1018 20:06:28.418932  5726 net.cpp:100] Creating Layer score_score_0_split
I1018 20:06:28.418936  5726 net.cpp:434] score_score_0_split <- score
I1018 20:06:28.418941  5726 net.cpp:408] score_score_0_split -> score_score_0_split_0
I1018 20:06:28.418946  5726 net.cpp:408] score_score_0_split -> score_score_0_split_1
I1018 20:06:28.418972  5726 net.cpp:150] Setting up score_score_0_split
I1018 20:06:28.418977  5726 net.cpp:157] Top shape: 100 10 (1000)
I1018 20:06:28.418980  5726 net.cpp:157] Top shape: 100 10 (1000)
I1018 20:06:28.418984  5726 net.cpp:165] Memory required for data: 112944400
I1018 20:06:28.418987  5726 layer_factory.hpp:77] Creating layer accuracy
I1018 20:06:28.418992  5726 net.cpp:100] Creating Layer accuracy
I1018 20:06:28.418995  5726 net.cpp:434] accuracy <- score_score_0_split_0
I1018 20:06:28.418999  5726 net.cpp:434] accuracy <- label_data_1_split_0
I1018 20:06:28.419004  5726 net.cpp:408] accuracy -> accuracy
…
