…
  stage: ""
}
type: "Nesterov"
I1018 19:25:29.519680  4977 solver.cpp:81] Creating training net from train_net file: /home/adam/Honours/Honours-Project/mnist_pooling/max/leakyrelu/poolcnn_leakyrelu_train.prototxt
I1018 19:25:29.520012  4977 net.cpp:58] Initializing net from parameters: 
state {
  phase: TRAIN
  level: 0
  stage: ""
}
layer {
  name: "data"
  type: "Data"
  top: "data"
  top: "label"
  transform_param {
    scale: 0.0039215689
  }
  data_param {
    source: "../../../../data/mnist/mnist_train_lmdb"
    batch_size: 64
    backend: LMDB
  }
}
layer {
  name: "conv1"
  type: "Convolution"
  bottom: "data"
  top: "conv1"
  convolution_param {
    num_output: 192
    kernel_size: 5
    weight_filler {
      type: "xavier"
    }
  }
}
layer {
  name: "pool1"
  type: "Pooling"
  bottom: "conv1"
  top: "pool1"
  pooling_param {
    pool: MAX
    kernel_size: 2
    stride: 2
  }
}
layer {
  name: "drop1"
  type: "Dropout"
  bottom: "pool1"
  top: "drop1"
  dropout_param {
    dropout_ratio: 0
  }
}
layer {
  name: "relu1"
  type: "ReLU"
  bottom: "drop1"
  top: "relu1"
  relu_param {
    negative_slope: 0.01
  }
}
layer {
  name: "conv2"
  type: "Convolution"
  bottom: "relu1"
  top: "conv2"
  convolution_param {
    num_output: 192
    kernel_size: 1
    weight_filler {
      type: "xavier"
    }
  }
}
layer {
  name: "conv3"
  type: "Convolution"
  bottom: "conv2"
  top: "conv3"
  convolution_param {
    num_output: 240
    kernel_size: 3
    weight_filler {
      type: "xavier"
    }
  }
}
layer {
  name: "pool2"
  type: "Pooling"
  bottom: "conv3"
  top: "pool2"
  pooling_param {
    pool: MAX
    kernel_size: 2
    stride: 2
  }
}
layer {
  name: "drop2"
  type: "Dropout"
  bottom: "pool2"
  top: "drop2"
  dropout_param {
    dropout_ratio: 0.1
  }
}
layer {
  name: "relu2"
  type: "ReLU"
  bottom: "drop2"
  top: "relu2"
  relu_param {
    negative_slope: 0.01
  }
}
layer {
  name: "conv4"
  type: "Convolution"
  bottom: "relu2"
  top: "conv4"
  convolution_param {
    num_output: 240
    kernel_size: 1
    weight_filler {
      type: "xavier"
    }
  }
}
layer {
  name: "conv5"
  type: "Convolution"
  bottom: "conv4"
  top: "conv5"
  convolution_param {
    num_output: 260
    kernel_size: 2
    weight_filler {
      type: "xavier"
    }
  }
}
layer {
  name: "pool3"
  type: "Pooling"
  bottom: "conv5"
  top: "pool3"
  pooling_param {
    pool: MAX
    kernel_size: 2
    stride: 2
  }
}
layer {
  name: "drop3"
  type: "Dropout"
  bottom: "pool3"
  top: "drop3"
  dropout_param {
    dropout_ratio: 0.2
  }
}
layer {
  name: "relu3"
  type: "ReLU"
  bottom: "drop3"
  top: "relu3"
  relu_param {
    negative_slope: 0.01
  }
}
layer {
  name: "conv6"
  type: "Convolution"
  bottom: "relu3"
  top: "conv6"
  convolution_param {
    num_output: 260
    kernel_size: 1
    weight_filler {
      type: "xavier"
    }
  }
}
layer {
  name: "conv7"
  type: "Convolution"
  bottom: "conv6"
  top: "conv7"
  convolution_param {
    num_output: 280
    kernel_size: 2
    weight_filler {
      type: "xavier"
    }
  }
}
layer {
  name: "pool4"
  type: "Pooling"
  bottom: "conv7"
  top: "pool4"
  pooling_param {
    pool: MAX
    kernel_size: 2
    stride: 2
  }
}
layer {
  name: "drop4"
  type: "Dropout"
  bottom: "pool4"
  top: "drop4"
  dropout_param {
    dropout_ratio: 0.3
  }
}
layer {
  name: "relu4"
  type: "ReLU"
  bottom: "drop4"
  top: "relu4"
  relu_param {
    negative_slope: 0.01
  }
}
layer {
  name: "conv8"
  type: "Convolution"
  bottom: "relu4"
  top: "conv8"
  convolution_param {
    num_output: 280
    kernel_size: 1
    weight_filler {
      type: "xavier"
    }
  }
}
layer {
  name: "pool5"
  type: "Pooling"
  bottom: "conv8"
  top: "pool5"
  pooling_param {
    pool: MAX
    kernel_size: 2
    stride: 2
  }
}
layer {
  name: "drop5"
  type: "Dropout"
  bottom: "pool5"
  top: "drop5"
  dropout_param {
    dropout_ratio: 0.4
  }
}
layer {
  name: "relu5"
  type: "ReLU"
  bottom: "drop5"
  top: "relu5"
  relu_param {
    negative_slope: 0.01
  }
}
layer {
  name: "conv10"
  type: "Convolution"
  bottom: "relu5"
  top: "conv10"
  convolution_param {
    num_output: 300
    kernel_size: 1
    weight_filler {
      type: "xavier"
    }
  }
}
layer {
  name: "pool6"
  type: "Pooling"
  bottom: "conv10"
  top: "pool6"
  pooling_param {
    pool: MAX
    kernel_size: 2
    stride: 2
  }
}
layer {
  name: "drop6"
  type: "Dropout"
  bottom: "pool6"
  top: "drop6"
  dropout_param {
    dropout_ratio: 0.5
  }
}
layer {
  name: "relu6"
  type: "ReLU"
  bottom: "drop6"
  top: "relu6"
  relu_param {
    negative_slope: 0.01
  }
}
layer {
  name: "conv11"
  type: "Convolution"
  bottom: "relu6"
  top: "conv11"
  convolution_param {
    num_output: 100
    kernel_size: 1
    weight_filler {
      type: "xavier"
    }
  }
}
layer {
  name: "pool7"
  type: "Pooling"
  bottom: "conv11"
  top: "pool7"
  pooling_param {
    pool: MAX
    kernel_size: 2
    stride: 2
  }
}
layer {
  name: "drop7"
  type: "Dropout"
  bottom: "pool7"
  top: "drop7"
  dropout_param {
    dropout_ratio: 0
  }
}
layer {
  name: "relu7"
  type: "ReLU"
  bottom: "drop7"
  top: "relu7"
  relu_param {
    negative_slope: 0.01
  }
}
layer {
  name: "pool"
  type: "Pooling"
  bottom: "relu7"
  top: "pool"
  pooling_param {
    pool: AVE
    global_pooling: true
  }
}
layer {
  name: "flatten"
  type: "Flatten"
  bottom: "pool"
  top: "flatten"
}
layer {
  name: "score"
  type: "InnerProduct"
  bottom: "flatten"
  top: "score"
  inner_product_param {
    num_output: 10
    weight_filler {
      type: "gaussian"
    }
  }
}
layer {
  name: "accuracy"
  type: "Accuracy"
  bottom: "score"
  bottom: "label"
  top: "accuracy"
}
layer {
  name: "loss"
  type: "SoftmaxWithLoss"
  bottom: "score"
  bottom: "label"
  top: "loss"
}
I1018 19:25:29.520143  4977 layer_factory.hpp:77] Creating layer data
I1018 19:25:29.520526  4977 net.cpp:100] Creating Layer data
I1018 19:25:29.520534  4977 net.cpp:408] data -> data
I1018 19:25:29.520551  4977 net.cpp:408] data -> label
I1018 19:25:29.521111  4983 db_lmdb.cpp:35] Opened lmdb ../../../../data/mnist/mnist_train_lmdb
I1018 19:25:29.526569  4977 data_layer.cpp:41] output data size: 64,1,28,28
I1018 19:25:29.527133  4977 net.cpp:150] Setting up data
I1018 19:25:29.527148  4977 net.cpp:157] Top shape: 64 1 28 28 (50176)
I1018 19:25:29.527153  4977 net.cpp:157] Top shape: 64 (64)
I1018 19:25:29.527158  4977 net.cpp:165] Memory required for data: 200960
I1018 19:25:29.527168  4977 layer_factory.hpp:77] Creating layer label_data_1_split
I1018 19:25:29.527179  4977 net.cpp:100] Creating Layer label_data_1_split
I1018 19:25:29.527185  4977 net.cpp:434] label_data_1_split <- label
I1018 19:25:29.527199  4977 net.cpp:408] label_data_1_split -> label_data_1_split_0
I1018 19:25:29.527207  4977 net.cpp:408] label_data_1_split -> label_data_1_split_1
I1018 19:25:29.527233  4977 net.cpp:150] Setting up label_data_1_split
I1018 19:25:29.527238  4977 net.cpp:157] Top shape: 64 (64)
I1018 19:25:29.527243  4977 net.cpp:157] Top shape: 64 (64)
I1018 19:25:29.527247  4977 net.cpp:165] Memory required for data: 201472
I1018 19:25:29.527251  4977 layer_factory.hpp:77] Creating layer conv1
I1018 19:25:29.527263  4977 net.cpp:100] Creating Layer conv1
I1018 19:25:29.527267  4977 net.cpp:434] conv1 <- data
I1018 19:25:29.527274  4977 net.cpp:408] conv1 -> conv1
I1018 19:25:29.646405  4977 net.cpp:150] Setting up conv1
I1018 19:25:29.646433  4977 net.cpp:157] Top shape: 64 192 24 24 (7077888)
I1018 19:25:29.646435  4977 net.cpp:165] Memory required for data: 28513024
I1018 19:25:29.646479  4977 layer_factory.hpp:77] Creating layer pool1
I1018 19:25:29.646492  4977 net.cpp:100] Creating Layer pool1
I1018 19:25:29.646497  4977 net.cpp:434] pool1 <- conv1
I1018 19:25:29.646504  4977 net.cpp:408] pool1 -> pool1
I1018 19:25:29.646548  4977 net.cpp:150] Setting up pool1
I1018 19:25:29.646553  4977 net.cpp:157] Top shape: 64 192 12 12 (1769472)
I1018 19:25:29.646556  4977 net.cpp:165] Memory required for data: 35590912
I1018 19:25:29.646559  4977 layer_factory.hpp:77] Creating layer drop1
I1018 19:25:29.646569  4977 net.cpp:100] Creating Layer drop1
I1018 19:25:29.646572  4977 net.cpp:434] drop1 <- pool1
I1018 19:25:29.646576  4977 net.cpp:408] drop1 -> drop1
I1018 19:25:29.646606  4977 net.cpp:150] Setting up drop1
I1018 19:25:29.646611  4977 net.cpp:157] Top shape: 64 192 12 12 (1769472)
I1018 19:25:29.646615  4977 net.cpp:165] Memory required for data: 42668800
I1018 19:25:29.646617  4977 layer_factory.hpp:77] Creating layer relu1
I1018 19:25:29.646623  4977 net.cpp:100] Creating Layer relu1
I1018 19:25:29.646626  4977 net.cpp:434] relu1 <- drop1
I1018 19:25:29.646631  4977 net.cpp:408] relu1 -> relu1
I1018 19:25:29.646754  4977 net.cpp:150] Setting up relu1
I1018 19:25:29.646761  4977 net.cpp:157] Top shape: 64 192 12 12 (1769472)
I1018 19:25:29.646764  4977 net.cpp:165] Memory required for data: 49746688
I1018 19:25:29.646769  4977 layer_factory.hpp:77] Creating layer conv2
I1018 19:25:29.646777  4977 net.cpp:100] Creating Layer conv2
I1018 19:25:29.646780  4977 net.cpp:434] conv2 <- relu1
I1018 19:25:29.646788  4977 net.cpp:408] conv2 -> conv2
I1018 19:25:29.647619  4977 net.cpp:150] Setting up conv2
I1018 19:25:29.647629  4977 net.cpp:157] Top shape: 64 192 12 12 (1769472)
I1018 19:25:29.647631  4977 net.cpp:165] Memory required for data: 56824576
I1018 19:25:29.647640  4977 layer_factory.hpp:77] Creating layer conv3
I1018 19:25:29.647649  4977 net.cpp:100] Creating Layer conv3
I1018 19:25:29.647652  4977 net.cpp:434] conv3 <- conv2
I1018 19:25:29.647658  4977 net.cpp:408] conv3 -> conv3
I1018 19:25:29.650084  4977 net.cpp:150] Setting up conv3
I1018 19:25:29.650094  4977 net.cpp:157] Top shape: 64 240 10 10 (1536000)
I1018 19:25:29.650097  4977 net.cpp:165] Memory required for data: 62968576
I1018 19:25:29.650105  4977 layer_factory.hpp:77] Creating layer pool2
I1018 19:25:29.650112  4977 net.cpp:100] Creating Layer pool2
I1018 19:25:29.650116  4977 net.cpp:434] pool2 <- conv3
I1018 19:25:29.650122  4977 net.cpp:408] pool2 -> pool2
I1018 19:25:29.650151  4977 net.cpp:150] Setting up pool2
I1018 19:25:29.650157  4977 net.cpp:157] Top shape: 64 240 5 5 (384000)
I1018 19:25:29.650161  4977 net.cpp:165] Memory required for data: 64504576
I1018 19:25:29.650164  4977 layer_factory.hpp:77] Creating layer drop2
I1018 19:25:29.650171  4977 net.cpp:100] Creating Layer drop2
I1018 19:25:29.650173  4977 net.cpp:434] drop2 <- pool2
I1018 19:25:29.650178  4977 net.cpp:408] drop2 -> drop2
I1018 19:25:29.650202  4977 net.cpp:150] Setting up drop2
I1018 19:25:29.650207  4977 net.cpp:157] Top shape: 64 240 5 5 (384000)
I1018 19:25:29.650210  4977 net.cpp:165] Memory required for data: 66040576
I1018 19:25:29.650213  4977 layer_factory.hpp:77] Creating layer relu2
I1018 19:25:29.650219  4977 net.cpp:100] Creating Layer relu2
I1018 19:25:29.650223  4977 net.cpp:434] relu2 <- drop2
I1018 19:25:29.650229  4977 net.cpp:408] relu2 -> relu2
I1018 19:25:29.650339  4977 net.cpp:150] Setting up relu2
I1018 19:25:29.650347  4977 net.cpp:157] Top shape: 64 240 5 5 (384000)
I1018 19:25:29.650351  4977 net.cpp:165] Memory required for data: 67576576
I1018 19:25:29.650354  4977 layer_factory.hpp:77] Creating layer conv4
I1018 19:25:29.650362  4977 net.cpp:100] Creating Layer conv4
I1018 19:25:29.650364  4977 net.cpp:434] conv4 <- relu2
I1018 19:25:29.650370  4977 net.cpp:408] conv4 -> conv4
I1018 19:25:29.651196  4977 net.cpp:150] Setting up conv4
I1018 19:25:29.651204  4977 net.cpp:157] Top shape: 64 240 5 5 (384000)
I1018 19:25:29.651207  4977 net.cpp:165] Memory required for data: 69112576
I1018 19:25:29.651221  4977 layer_factory.hpp:77] Creating layer conv5
I1018 19:25:29.651231  4977 net.cpp:100] Creating Layer conv5
I1018 19:25:29.651234  4977 net.cpp:434] conv5 <- conv4
I1018 19:25:29.651240  4977 net.cpp:408] conv5 -> conv5
I1018 19:25:29.652984  4977 net.cpp:150] Setting up conv5
I1018 19:25:29.652994  4977 net.cpp:157] Top shape: 64 260 4 4 (266240)
I1018 19:25:29.652997  4977 net.cpp:165] Memory required for data: 70177536
I1018 19:25:29.653005  4977 layer_factory.hpp:77] Creating layer pool3
I1018 19:25:29.653012  4977 net.cpp:100] Creating Layer pool3
I1018 19:25:29.653017  4977 net.cpp:434] pool3 <- conv5
I1018 19:25:29.653023  4977 net.cpp:408] pool3 -> pool3
I1018 19:25:29.653049  4977 net.cpp:150] Setting up pool3
I1018 19:25:29.653054  4977 net.cpp:157] Top shape: 64 260 2 2 (66560)
I1018 19:25:29.653059  4977 net.cpp:165] Memory required for data: 70443776
I1018 19:25:29.653062  4977 layer_factory.hpp:77] Creating layer drop3
I1018 19:25:29.653069  4977 net.cpp:100] Creating Layer drop3
I1018 19:25:29.653071  4977 net.cpp:434] drop3 <- pool3
I1018 19:25:29.653077  4977 net.cpp:408] drop3 -> drop3
I1018 19:25:29.653102  4977 net.cpp:150] Setting up drop3
I1018 19:25:29.653107  4977 net.cpp:157] Top shape: 64 260 2 2 (66560)
I1018 19:25:29.653110  4977 net.cpp:165] Memory required for data: 70710016
I1018 19:25:29.653115  4977 layer_factory.hpp:77] Creating layer relu3
I1018 19:25:29.653120  4977 net.cpp:100] Creating Layer relu3
I1018 19:25:29.653123  4977 net.cpp:434] relu3 <- drop3
I1018 19:25:29.653128  4977 net.cpp:408] relu3 -> relu3
I1018 19:25:29.653242  4977 net.cpp:150] Setting up relu3
I1018 19:25:29.653251  4977 net.cpp:157] Top shape: 64 260 2 2 (66560)
I1018 19:25:29.653254  4977 net.cpp:165] Memory required for data: 70976256
I1018 19:25:29.653257  4977 layer_factory.hpp:77] Creating layer conv6
I1018 19:25:29.653266  4977 net.cpp:100] Creating Layer conv6
I1018 19:25:29.653270  4977 net.cpp:434] conv6 <- relu3
I1018 19:25:29.653275  4977 net.cpp:408] conv6 -> conv6
I1018 19:25:29.654374  4977 net.cpp:150] Setting up conv6
I1018 19:25:29.654384  4977 net.cpp:157] Top shape: 64 260 2 2 (66560)
I1018 19:25:29.654387  4977 net.cpp:165] Memory required for data: 71242496
I1018 19:25:29.654394  4977 layer_factory.hpp:77] Creating layer conv7
I1018 19:25:29.654400  4977 net.cpp:100] Creating Layer conv7
I1018 19:25:29.654404  4977 net.cpp:434] conv7 <- conv6
I1018 19:25:29.654412  4977 net.cpp:408] conv7 -> conv7
I1018 19:25:29.656335  4977 net.cpp:150] Setting up conv7
I1018 19:25:29.656345  4977 net.cpp:157] Top shape: 64 280 1 1 (17920)
I1018 19:25:29.656349  4977 net.cpp:165] Memory required for data: 71314176
I1018 19:25:29.656357  4977 layer_factory.hpp:77] Creating layer pool4
I1018 19:25:29.656363  4977 net.cpp:100] Creating Layer pool4
I1018 19:25:29.656366  4977 net.cpp:434] pool4 <- conv7
I1018 19:25:29.656373  4977 net.cpp:408] pool4 -> pool4
I1018 19:25:29.656399  4977 net.cpp:150] Setting up pool4
I1018 19:25:29.656405  4977 net.cpp:157] Top shape: 64 280 1 1 (17920)
I1018 19:25:29.656409  4977 net.cpp:165] Memory required for data: 71385856
I1018 19:25:29.656412  4977 layer_factory.hpp:77] Creating layer drop4
I1018 19:25:29.656419  4977 net.cpp:100] Creating Layer drop4
I1018 19:25:29.656422  4977 net.cpp:434] drop4 <- pool4
I1018 19:25:29.656426  4977 net.cpp:408] drop4 -> drop4
I1018 19:25:29.656451  4977 net.cpp:150] Setting up drop4
I1018 19:25:29.656456  4977 net.cpp:157] Top shape: 64 280 1 1 (17920)
I1018 19:25:29.656461  4977 net.cpp:165] Memory required for data: 71457536
I1018 19:25:29.656463  4977 layer_factory.hpp:77] Creating layer relu4
I1018 19:25:29.656469  4977 net.cpp:100] Creating Layer relu4
I1018 19:25:29.656472  4977 net.cpp:434] relu4 <- drop4
I1018 19:25:29.656479  4977 net.cpp:408] relu4 -> relu4
I1018 19:25:29.656667  4977 net.cpp:150] Setting up relu4
I1018 19:25:29.656675  4977 net.cpp:157] Top shape: 64 280 1 1 (17920)
I1018 19:25:29.656678  4977 net.cpp:165] Memory required for data: 71529216
I1018 19:25:29.656682  4977 layer_factory.hpp:77] Creating layer conv8
I1018 19:25:29.656698  4977 net.cpp:100] Creating Layer conv8
I1018 19:25:29.656702  4977 net.cpp:434] conv8 <- relu4
I1018 19:25:29.656708  4977 net.cpp:408] conv8 -> conv8
I1018 19:25:29.657536  4977 net.cpp:150] Setting up conv8
I1018 19:25:29.657546  4977 net.cpp:157] Top shape: 64 280 1 1 (17920)
I1018 19:25:29.657552  4977 net.cpp:165] Memory required for data: 71600896
I1018 19:25:29.657558  4977 layer_factory.hpp:77] Creating layer pool5
I1018 19:25:29.657563  4977 net.cpp:100] Creating Layer pool5
I1018 19:25:29.657567  4977 net.cpp:434] pool5 <- conv8
I1018 19:25:29.657573  4977 net.cpp:408] pool5 -> pool5
I1018 19:25:29.657599  4977 net.cpp:150] Setting up pool5
I1018 19:25:29.657605  4977 net.cpp:157] Top shape: 64 280 1 1 (17920)
I1018 19:25:29.657608  4977 net.cpp:165] Memory required for data: 71672576
I1018 19:25:29.657613  4977 layer_factory.hpp:77] Creating layer drop5
I1018 19:25:29.657619  4977 net.cpp:100] Creating Layer drop5
I1018 19:25:29.657622  4977 net.cpp:434] drop5 <- pool5
I1018 19:25:29.657626  4977 net.cpp:408] drop5 -> drop5
I1018 19:25:29.657651  4977 net.cpp:150] Setting up drop5
I1018 19:25:29.657656  4977 net.cpp:157] Top shape: 64 280 1 1 (17920)
I1018 19:25:29.657660  4977 net.cpp:165] Memory required for data: 71744256
I1018 19:25:29.657663  4977 layer_factory.hpp:77] Creating layer relu5
I1018 19:25:29.657668  4977 net.cpp:100] Creating Layer relu5
I1018 19:25:29.657672  4977 net.cpp:434] relu5 <- drop5
I1018 19:25:29.657678  4977 net.cpp:408] relu5 -> relu5
I1018 19:25:29.657943  4977 net.cpp:150] Setting up relu5
I1018 19:25:29.657950  4977 net.cpp:157] Top shape: 64 280 1 1 (17920)
I1018 19:25:29.657953  4977 net.cpp:165] Memory required for data: 71815936
I1018 19:25:29.657958  4977 layer_factory.hpp:77] Creating layer conv10
I1018 19:25:29.657965  4977 net.cpp:100] Creating Layer conv10
I1018 19:25:29.657969  4977 net.cpp:434] conv10 <- relu5
I1018 19:25:29.657974  4977 net.cpp:408] conv10 -> conv10
I1018 19:25:29.658911  4977 net.cpp:150] Setting up conv10
I1018 19:25:29.658920  4977 net.cpp:157] Top shape: 64 300 1 1 (19200)
I1018 19:25:29.658923  4977 net.cpp:165] Memory required for data: 71892736
I1018 19:25:29.658932  4977 layer_factory.hpp:77] Creating layer pool6
I1018 19:25:29.658939  4977 net.cpp:100] Creating Layer pool6
I1018 19:25:29.658943  4977 net.cpp:434] pool6 <- conv10
I1018 19:25:29.658949  4977 net.cpp:408] pool6 -> pool6
I1018 19:25:29.658978  4977 net.cpp:150] Setting up pool6
I1018 19:25:29.658983  4977 net.cpp:157] Top shape: 64 300 1 1 (19200)
I1018 19:25:29.658987  4977 net.cpp:165] Memory required for data: 71969536
I1018 19:25:29.658990  4977 layer_factory.hpp:77] Creating layer drop6
I1018 19:25:29.658995  4977 net.cpp:100] Creating Layer drop6
I1018 19:25:29.659000  4977 net.cpp:434] drop6 <- pool6
I1018 19:25:29.659005  4977 net.cpp:408] drop6 -> drop6
I1018 19:25:29.659030  4977 net.cpp:150] Setting up drop6
I1018 19:25:29.659037  4977 net.cpp:157] Top shape: 64 300 1 1 (19200)
I1018 19:25:29.659041  4977 net.cpp:165] Memory required for data: 72046336
I1018 19:25:29.659044  4977 layer_factory.hpp:77] Creating layer relu6
I1018 19:25:29.659049  4977 net.cpp:100] Creating Layer relu6
I1018 19:25:29.659054  4977 net.cpp:434] relu6 <- drop6
I1018 19:25:29.659057  4977 net.cpp:408] relu6 -> relu6
I1018 19:25:29.659173  4977 net.cpp:150] Setting up relu6
I1018 19:25:29.659180  4977 net.cpp:157] Top shape: 64 300 1 1 (19200)
I1018 19:25:29.659183  4977 net.cpp:165] Memory required for data: 72123136
I1018 19:25:29.659186  4977 layer_factory.hpp:77] Creating layer conv11
I1018 19:25:29.659194  4977 net.cpp:100] Creating Layer conv11
I1018 19:25:29.659198  4977 net.cpp:434] conv11 <- relu6
I1018 19:25:29.659204  4977 net.cpp:408] conv11 -> conv11
I1018 19:25:29.660192  4977 net.cpp:150] Setting up conv11
I1018 19:25:29.660200  4977 net.cpp:157] Top shape: 64 100 1 1 (6400)
I1018 19:25:29.660203  4977 net.cpp:165] Memory required for data: 72148736
I1018 19:25:29.660210  4977 layer_factory.hpp:77] Creating layer pool7
I1018 19:25:29.660217  4977 net.cpp:100] Creating Layer pool7
I1018 19:25:29.660228  4977 net.cpp:434] pool7 <- conv11
I1018 19:25:29.660234  4977 net.cpp:408] pool7 -> pool7
I1018 19:25:29.660266  4977 net.cpp:150] Setting up pool7
I1018 19:25:29.660272  4977 net.cpp:157] Top shape: 64 100 1 1 (6400)
I1018 19:25:29.660275  4977 net.cpp:165] Memory required for data: 72174336
I1018 19:25:29.660279  4977 layer_factory.hpp:77] Creating layer drop7
I1018 19:25:29.660284  4977 net.cpp:100] Creating Layer drop7
I1018 19:25:29.660287  4977 net.cpp:434] drop7 <- pool7
I1018 19:25:29.660292  4977 net.cpp:408] drop7 -> drop7
I1018 19:25:29.660320  4977 net.cpp:150] Setting up drop7
I1018 19:25:29.660325  4977 net.cpp:157] Top shape: 64 100 1 1 (6400)
I1018 19:25:29.660327  4977 net.cpp:165] Memory required for data: 72199936
I1018 19:25:29.660331  4977 layer_factory.hpp:77] Creating layer relu7
I1018 19:25:29.660341  4977 net.cpp:100] Creating Layer relu7
I1018 19:25:29.660343  4977 net.cpp:434] relu7 <- drop7
I1018 19:25:29.660348  4977 net.cpp:408] relu7 -> relu7
I1018 19:25:29.660545  4977 net.cpp:150] Setting up relu7
I1018 19:25:29.660553  4977 net.cpp:157] Top shape: 64 100 1 1 (6400)
I1018 19:25:29.660557  4977 net.cpp:165] Memory required for data: 72225536
I1018 19:25:29.660559  4977 layer_factory.hpp:77] Creating layer pool
I1018 19:25:29.660563  4977 net.cpp:100] Creating Layer pool
I1018 19:25:29.660569  4977 net.cpp:434] pool <- relu7
I1018 19:25:29.660573  4977 net.cpp:408] pool -> pool
I1018 19:25:29.660701  4977 net.cpp:150] Setting up pool
I1018 19:25:29.660707  4977 net.cpp:157] Top shape: 64 100 1 1 (6400)
I1018 19:25:29.660712  4977 net.cpp:165] Memory required for data: 72251136
I1018 19:25:29.660714  4977 layer_factory.hpp:77] Creating layer flatten
I1018 19:25:29.660719  4977 net.cpp:100] Creating Layer flatten
I1018 19:25:29.660723  4977 net.cpp:434] flatten <- pool
I1018 19:25:29.660728  4977 net.cpp:408] flatten -> flatten
I1018 19:25:29.660748  4977 net.cpp:150] Setting up flatten
I1018 19:25:29.660753  4977 net.cpp:157] Top shape: 64 100 (6400)
I1018 19:25:29.660754  4977 net.cpp:165] Memory required for data: 72276736
I1018 19:25:29.660758  4977 layer_factory.hpp:77] Creating layer score
I1018 19:25:29.660765  4977 net.cpp:100] Creating Layer score
I1018 19:25:29.660768  4977 net.cpp:434] score <- flatten
I1018 19:25:29.660773  4977 net.cpp:408] score -> score
I1018 19:25:29.660871  4977 net.cpp:150] Setting up score
I1018 19:25:29.660876  4977 net.cpp:157] Top shape: 64 10 (640)
I1018 19:25:29.660879  4977 net.cpp:165] Memory required for data: 72279296
I1018 19:25:29.660884  4977 layer_factory.hpp:77] Creating layer score_score_0_split
I1018 19:25:29.660890  4977 net.cpp:100] Creating Layer score_score_0_split
I1018 19:25:29.660894  4977 net.cpp:434] score_score_0_split <- score
I1018 19:25:29.660900  4977 net.cpp:408] score_score_0_split -> score_score_0_split_0
I1018 19:25:29.660907  4977 net.cpp:408] score_score_0_split -> score_score_0_split_1
I1018 19:25:29.660933  4977 net.cpp:150] Setting up score_score_0_split
I1018 19:25:29.660938  4977 net.cpp:157] Top shape: 64 10 (640)
I1018 19:25:29.660940  4977 net.cpp:157] Top shape: 64 10 (640)
I1018 19:25:29.660943  4977 net.cpp:165] Memory required for data: 72284416
I1018 19:25:29.660948  4977 layer_factory.hpp:77] Creating layer accuracy
I1018 19:25:29.660953  4977 net.cpp:100] Creating Layer accuracy
I1018 19:25:29.660956  4977 net.cpp:434] accuracy <- score_score_0_split_0
I1018 19:25:29.660960  4977 net.cpp:434] accuracy <- label_data_1_split_0
I1018 19:25:29.660967  4977 net.cpp:408] accuracy -> accuracy
…
I1018 19:25:29.661466  4977 net.cpp:283] Network initialization done.
I1018 19:25:29.661655  4977 solver.cpp:181] Creating test net (#0) specified by test_net file: /home/adam/Honours/Honours-Project/mnist_pooling/max/leakyrelu/poolcnn_leakyrelu_test.prototxt
I1018 19:25:29.661777  4977 net.cpp:58] Initializing net from parameters: 
state {
  phase: TEST
}
layer {
  name: "data"
  type: "Data"
  top: "data"
  top: "label"
  transform_param {
    scale: 0.0039215689
  }
  data_param {
    source: "../../../../data/mnist/mnist_test_lmdb"
    batch_size: 100
    backend: LMDB
  }
}
layer {
  name: "conv1"
  type: "Convolution"
  bottom: "data"
  top: "conv1"
  convolution_param {
    num_output: 192
    kernel_size: 5
    weight_filler {
      type: "xavier"
    }
  }
}
layer {
  name: "pool1"
  type: "Pooling"
  bottom: "conv1"
  top: "pool1"
  pooling_param {
    pool: MAX
    kernel_size: 2
    stride: 2
  }
}
layer {
  name: "drop1"
  type: "Dropout"
  bottom: "pool1"
  top: "drop1"
  dropout_param {
    dropout_ratio: 0
  }
}
layer {
  name: "relu1"
  type: "ReLU"
  bottom: "drop1"
  top: "relu1"
  relu_param {
    negative_slope: 0.01
  }
}
layer {
  name: "conv2"
  type: "Convolution"
  bottom: "relu1"
  top: "conv2"
  convolution_param {
    num_output: 192
    kernel_size: 1
    weight_filler {
      type: "xavier"
    }
  }
}
layer {
  name: "conv3"
  type: "Convolution"
  bottom: "conv2"
  top: "conv3"
  convolution_param {
    num_output: 240
    kernel_size: 3
    weight_filler {
      type: "xavier"
    }
  }
}
layer {
  name: "pool2"
  type: "Pooling"
  bottom: "conv3"
  top: "pool2"
  pooling_param {
    pool: MAX
    kernel_size: 2
    stride: 2
  }
}
layer {
  name: "drop2"
  type: "Dropout"
  bottom: "pool2"
  top: "drop2"
  dropout_param {
    dropout_ratio: 0.1
  }
}
layer {
  name: "relu2"
  type: "ReLU"
  bottom: "drop2"
  top: "relu2"
  relu_param {
    negative_slope: 0.01
  }
}
layer {
  name: "conv4"
  type: "Convolution"
  bottom: "relu2"
  top: "conv4"
  convolution_param {
    num_output: 240
    kernel_size: 1
    weight_filler {
      type: "xavier"
    }
  }
}
layer {
  name: "conv5"
  type: "Convolution"
  bottom: "conv4"
  top: "conv5"
  convolution_param {
    num_output: 260
    kernel_size: 2
    weight_filler {
      type: "xavier"
    }
  }
}
layer {
  name: "pool3"
  type: "Pooling"
  bottom: "conv5"
  top: "pool3"
  pooling_param {
    pool: MAX
    kernel_size: 2
    stride: 2
  }
}
layer {
  name: "drop3"
  type: "Dropout"
  bottom: "pool3"
  top: "drop3"
  dropout_param {
    dropout_ratio: 0.2
  }
}
layer {
  name: "relu3"
  type: "ReLU"
  bottom: "drop3"
  top: "relu3"
  relu_param {
    negative_slope: 0.01
  }
}
layer {
  name: "conv6"
  type: "Convolution"
  bottom: "relu3"
  top: "conv6"
  convolution_param {
    num_output: 260
    kernel_size: 1
    weight_filler {
      type: "xavier"
    }
  }
}
layer {
  name: "conv7"
  type: "Convolution"
  bottom: "conv6"
  top: "conv7"
  convolution_param {
    num_output: 280
    kernel_size: 2
    weight_filler {
      type: "xavier"
    }
  }
}
layer {
  name: "pool4"
  type: "Pooling"
  bottom: "conv7"
  top: "pool4"
  pooling_param {
    pool: MAX
    kernel_size: 2
    stride: 2
  }
}
layer {
  name: "drop4"
  type: "Dropout"
  bottom: "pool4"
  top: "drop4"
  dropout_param {
    dropout_ratio: 0.3
  }
}
layer {
  name: "relu4"
  type: "ReLU"
  bottom: "drop4"
  top: "relu4"
  relu_param {
    negative_slope: 0.01
  }
}
layer {
  name: "conv8"
  type: "Convolution"
  bottom: "relu4"
  top: "conv8"
  convolution_param {
    num_output: 280
    kernel_size: 1
    weight_filler {
      type: "xavier"
    }
  }
}
layer {
  name: "pool5"
  type: "Pooling"
  bottom: "conv8"
  top: "pool5"
  pooling_param {
    pool: MAX
    kernel_size: 2
    stride: 2
  }
}
layer {
  name: "drop5"
  type: "Dropout"
  bottom: "pool5"
  top: "drop5"
  dropout_param {
    dropout_ratio: 0.4
  }
}
layer {
  name: "relu5"
  type: "ReLU"
  bottom: "drop5"
  top: "relu5"
  relu_param {
    negative_slope: 0.01
  }
}
layer {
  name: "conv10"
  type: "Convolution"
  bottom: "relu5"
  top: "conv10"
  convolution_param {
    num_output: 300
    kernel_size: 1
    weight_filler {
      type: "xavier"
    }
  }
}
layer {
  name: "pool6"
  type: "Pooling"
  bottom: "conv10"
  top: "pool6"
  pooling_param {
    pool: MAX
    kernel_size: 2
    stride: 2
  }
}
layer {
  name: "drop6"
  type: "Dropout"
  bottom: "pool6"
  top: "drop6"
  dropout_param {
    dropout_ratio: 0.5
  }
}
layer {
  name: "relu6"
  type: "ReLU"
  bottom: "drop6"
  top: "relu6"
  relu_param {
    negative_slope: 0.01
  }
}
layer {
  name: "conv11"
  type: "Convolution"
  bottom: "relu6"
  top: "conv11"
  convolution_param {
    num_output: 100
    kernel_size: 1
    weight_filler {
      type: "xavier"
    }
  }
}
layer {
  name: "pool7"
  type: "Pooling"
  bottom: "conv11"
  top: "pool7"
  pooling_param {
    pool: MAX
    kernel_size: 2
    stride: 2
  }
}
layer {
  name: "drop7"
  type: "Dropout"
  bottom: "pool7"
  top: "drop7"
  dropout_param {
    dropout_ratio: 0
  }
}
layer {
  name: "relu7"
  type: "ReLU"
  bottom: "drop7"
  top: "relu7"
  relu_param {
    negative_slope: 0.01
  }
}
layer {
  name: "pool"
  type: "Pooling"
  bottom: "relu7"
  top: "pool"
  pooling_param {
    pool: AVE
    global_pooling: true
  }
}
layer {
  name: "flatten"
  type: "Flatten"
  bottom: "pool"
  top: "flatten"
}
layer {
  name: "score"
  type: "InnerProduct"
  bottom: "flatten"
  top: "score"
  inner_product_param {
    num_output: 10
    weight_filler {
      type: "gaussian"
    }
  }
}
layer {
  name: "accuracy"
  type: "Accuracy"
  bottom: "score"
  bottom: "label"
  top: "accuracy"
}
layer {
  name: "loss"
  type: "SoftmaxWithLoss"
  bottom: "score"
  bottom: "label"
  top: "loss"
}
I1018 19:25:29.661878  4977 layer_factory.hpp:77] Creating layer data
I1018 19:25:29.661968  4977 net.cpp:100] Creating Layer data
I1018 19:25:29.661974  4977 net.cpp:408] data -> data
I1018 19:25:29.661981  4977 net.cpp:408] data -> label
I1018 19:25:29.662580  4985 db_lmdb.cpp:35] Opened lmdb ../../../../data/mnist/mnist_test_lmdb
I1018 19:25:29.662685  4977 data_layer.cpp:41] output data size: 100,1,28,28
I1018 19:25:29.663314  4977 net.cpp:150] Setting up data
I1018 19:25:29.663322  4977 net.cpp:157] Top shape: 100 1 28 28 (78400)
I1018 19:25:29.663327  4977 net.cpp:157] Top shape: 100 (100)
I1018 19:25:29.663331  4977 net.cpp:165] Memory required for data: 314000
I1018 19:25:29.663336  4977 layer_factory.hpp:77] Creating layer label_data_1_split
I1018 19:25:29.663344  4977 net.cpp:100] Creating Layer label_data_1_split
I1018 19:25:29.663347  4977 net.cpp:434] label_data_1_split <- label
I1018 19:25:29.663353  4977 net.cpp:408] label_data_1_split -> label_data_1_split_0
I1018 19:25:29.663360  4977 net.cpp:408] label_data_1_split -> label_data_1_split_1
I1018 19:25:29.663401  4977 net.cpp:150] Setting up label_data_1_split
I1018 19:25:29.663408  4977 net.cpp:157] Top shape: 100 (100)
I1018 19:25:29.663411  4977 net.cpp:157] Top shape: 100 (100)
I1018 19:25:29.663414  4977 net.cpp:165] Memory required for data: 314800
I1018 19:25:29.663417  4977 layer_factory.hpp:77] Creating layer conv1
I1018 19:25:29.663426  4977 net.cpp:100] Creating Layer conv1
I1018 19:25:29.663429  4977 net.cpp:434] conv1 <- data
I1018 19:25:29.663437  4977 net.cpp:408] conv1 -> conv1
I1018 19:25:29.664149  4977 net.cpp:150] Setting up conv1
I1018 19:25:29.664160  4977 net.cpp:157] Top shape: 100 192 24 24 (11059200)
I1018 19:25:29.664165  4977 net.cpp:165] Memory required for data: 44551600
I1018 19:25:29.664175  4977 layer_factory.hpp:77] Creating layer pool1
I1018 19:25:29.664181  4977 net.cpp:100] Creating Layer pool1
I1018 19:25:29.664186  4977 net.cpp:434] pool1 <- conv1
I1018 19:25:29.664192  4977 net.cpp:408] pool1 -> pool1
I1018 19:25:29.664222  4977 net.cpp:150] Setting up pool1
I1018 19:25:29.664228  4977 net.cpp:157] Top shape: 100 192 12 12 (2764800)
I1018 19:25:29.664232  4977 net.cpp:165] Memory required for data: 55610800
I1018 19:25:29.664237  4977 layer_factory.hpp:77] Creating layer drop1
I1018 19:25:29.664247  4977 net.cpp:100] Creating Layer drop1
I1018 19:25:29.664249  4977 net.cpp:434] drop1 <- pool1
I1018 19:25:29.664254  4977 net.cpp:408] drop1 -> drop1
I1018 19:25:29.664280  4977 net.cpp:150] Setting up drop1
I1018 19:25:29.664288  4977 net.cpp:157] Top shape: 100 192 12 12 (2764800)
I1018 19:25:29.664290  4977 net.cpp:165] Memory required for data: 66670000
I1018 19:25:29.664294  4977 layer_factory.hpp:77] Creating layer relu1
I1018 19:25:29.664300  4977 net.cpp:100] Creating Layer relu1
I1018 19:25:29.664304  4977 net.cpp:434] relu1 <- drop1
I1018 19:25:29.664309  4977 net.cpp:408] relu1 -> relu1
I1018 19:25:29.664535  4977 net.cpp:150] Setting up relu1
I1018 19:25:29.664542  4977 net.cpp:157] Top shape: 100 192 12 12 (2764800)
I1018 19:25:29.664546  4977 net.cpp:165] Memory required for data: 77729200
I1018 19:25:29.664548  4977 layer_factory.hpp:77] Creating layer conv2
I1018 19:25:29.664557  4977 net.cpp:100] Creating Layer conv2
I1018 19:25:29.664561  4977 net.cpp:434] conv2 <- relu1
I1018 19:25:29.664566  4977 net.cpp:408] conv2 -> conv2
I1018 19:25:29.665421  4977 net.cpp:150] Setting up conv2
I1018 19:25:29.665431  4977 net.cpp:157] Top shape: 100 192 12 12 (2764800)
I1018 19:25:29.665433  4977 net.cpp:165] Memory required for data: 88788400
I1018 19:25:29.665446  4977 layer_factory.hpp:77] Creating layer conv3
I1018 19:25:29.665453  4977 net.cpp:100] Creating Layer conv3
I1018 19:25:29.665457  4977 net.cpp:434] conv3 <- conv2
I1018 19:25:29.665463  4977 net.cpp:408] conv3 -> conv3
I1018 19:25:29.667937  4977 net.cpp:150] Setting up conv3
I1018 19:25:29.667946  4977 net.cpp:157] Top shape: 100 240 10 10 (2400000)
I1018 19:25:29.667949  4977 net.cpp:165] Memory required for data: 98388400
I1018 19:25:29.667958  4977 layer_factory.hpp:77] Creating layer pool2
I1018 19:25:29.667965  4977 net.cpp:100] Creating Layer pool2
I1018 19:25:29.667969  4977 net.cpp:434] pool2 <- conv3
I1018 19:25:29.667976  4977 net.cpp:408] pool2 -> pool2
I1018 19:25:29.668006  4977 net.cpp:150] Setting up pool2
I1018 19:25:29.668012  4977 net.cpp:157] Top shape: 100 240 5 5 (600000)
I1018 19:25:29.668015  4977 net.cpp:165] Memory required for data: 100788400
I1018 19:25:29.668020  4977 layer_factory.hpp:77] Creating layer drop2
I1018 19:25:29.668025  4977 net.cpp:100] Creating Layer drop2
I1018 19:25:29.668030  4977 net.cpp:434] drop2 <- pool2
I1018 19:25:29.668033  4977 net.cpp:408] drop2 -> drop2
I1018 19:25:29.668061  4977 net.cpp:150] Setting up drop2
I1018 19:25:29.668066  4977 net.cpp:157] Top shape: 100 240 5 5 (600000)
I1018 19:25:29.668071  4977 net.cpp:165] Memory required for data: 103188400
I1018 19:25:29.668073  4977 layer_factory.hpp:77] Creating layer relu2
I1018 19:25:29.668079  4977 net.cpp:100] Creating Layer relu2
I1018 19:25:29.668082  4977 net.cpp:434] relu2 <- drop2
I1018 19:25:29.668087  4977 net.cpp:408] relu2 -> relu2
I1018 19:25:29.668208  4977 net.cpp:150] Setting up relu2
I1018 19:25:29.668215  4977 net.cpp:157] Top shape: 100 240 5 5 (600000)
I1018 19:25:29.668218  4977 net.cpp:165] Memory required for data: 105588400
I1018 19:25:29.668222  4977 layer_factory.hpp:77] Creating layer conv4
I1018 19:25:29.668229  4977 net.cpp:100] Creating Layer conv4
I1018 19:25:29.668233  4977 net.cpp:434] conv4 <- relu2
I1018 19:25:29.668239  4977 net.cpp:408] conv4 -> conv4
I1018 19:25:29.669091  4977 net.cpp:150] Setting up conv4
I1018 19:25:29.669100  4977 net.cpp:157] Top shape: 100 240 5 5 (600000)
I1018 19:25:29.669102  4977 net.cpp:165] Memory required for data: 107988400
I1018 19:25:29.669108  4977 layer_factory.hpp:77] Creating layer conv5
I1018 19:25:29.669116  4977 net.cpp:100] Creating Layer conv5
I1018 19:25:29.669119  4977 net.cpp:434] conv5 <- conv4
I1018 19:25:29.669126  4977 net.cpp:408] conv5 -> conv5
I1018 19:25:29.670904  4977 net.cpp:150] Setting up conv5
I1018 19:25:29.670913  4977 net.cpp:157] Top shape: 100 260 4 4 (416000)
I1018 19:25:29.670917  4977 net.cpp:165] Memory required for data: 109652400
I1018 19:25:29.670924  4977 layer_factory.hpp:77] Creating layer pool3
I1018 19:25:29.670931  4977 net.cpp:100] Creating Layer pool3
I1018 19:25:29.670935  4977 net.cpp:434] pool3 <- conv5
I1018 19:25:29.670940  4977 net.cpp:408] pool3 -> pool3
I1018 19:25:29.670971  4977 net.cpp:150] Setting up pool3
I1018 19:25:29.670977  4977 net.cpp:157] Top shape: 100 260 2 2 (104000)
I1018 19:25:29.670980  4977 net.cpp:165] Memory required for data: 110068400
I1018 19:25:29.670984  4977 layer_factory.hpp:77] Creating layer drop3
I1018 19:25:29.670989  4977 net.cpp:100] Creating Layer drop3
I1018 19:25:29.670994  4977 net.cpp:434] drop3 <- pool3
I1018 19:25:29.670999  4977 net.cpp:408] drop3 -> drop3
I1018 19:25:29.671027  4977 net.cpp:150] Setting up drop3
I1018 19:25:29.671041  4977 net.cpp:157] Top shape: 100 260 2 2 (104000)
I1018 19:25:29.671044  4977 net.cpp:165] Memory required for data: 110484400
I1018 19:25:29.671046  4977 layer_factory.hpp:77] Creating layer relu3
I1018 19:25:29.671051  4977 net.cpp:100] Creating Layer relu3
I1018 19:25:29.671056  4977 net.cpp:434] relu3 <- drop3
I1018 19:25:29.671061  4977 net.cpp:408] relu3 -> relu3
I1018 19:25:29.671182  4977 net.cpp:150] Setting up relu3
I1018 19:25:29.671188  4977 net.cpp:157] Top shape: 100 260 2 2 (104000)
I1018 19:25:29.671191  4977 net.cpp:165] Memory required for data: 110900400
I1018 19:25:29.671195  4977 layer_factory.hpp:77] Creating layer conv6
I1018 19:25:29.671205  4977 net.cpp:100] Creating Layer conv6
I1018 19:25:29.671207  4977 net.cpp:434] conv6 <- relu3
I1018 19:25:29.671213  4977 net.cpp:408] conv6 -> conv6
I1018 19:25:29.672443  4977 net.cpp:150] Setting up conv6
I1018 19:25:29.672453  4977 net.cpp:157] Top shape: 100 260 2 2 (104000)
I1018 19:25:29.672456  4977 net.cpp:165] Memory required for data: 111316400
I1018 19:25:29.672462  4977 layer_factory.hpp:77] Creating layer conv7
I1018 19:25:29.672471  4977 net.cpp:100] Creating Layer conv7
I1018 19:25:29.672474  4977 net.cpp:434] conv7 <- conv6
I1018 19:25:29.672482  4977 net.cpp:408] conv7 -> conv7
I1018 19:25:29.674434  4977 net.cpp:150] Setting up conv7
I1018 19:25:29.674443  4977 net.cpp:157] Top shape: 100 280 1 1 (28000)
I1018 19:25:29.674446  4977 net.cpp:165] Memory required for data: 111428400
I1018 19:25:29.674453  4977 layer_factory.hpp:77] Creating layer pool4
I1018 19:25:29.674460  4977 net.cpp:100] Creating Layer pool4
I1018 19:25:29.674464  4977 net.cpp:434] pool4 <- conv7
I1018 19:25:29.674469  4977 net.cpp:408] pool4 -> pool4
I1018 19:25:29.674502  4977 net.cpp:150] Setting up pool4
I1018 19:25:29.674509  4977 net.cpp:157] Top shape: 100 280 1 1 (28000)
I1018 19:25:29.674511  4977 net.cpp:165] Memory required for data: 111540400
I1018 19:25:29.674515  4977 layer_factory.hpp:77] Creating layer drop4
I1018 19:25:29.674520  4977 net.cpp:100] Creating Layer drop4
I1018 19:25:29.674523  4977 net.cpp:434] drop4 <- pool4
I1018 19:25:29.674530  4977 net.cpp:408] drop4 -> drop4
I1018 19:25:29.674556  4977 net.cpp:150] Setting up drop4
I1018 19:25:29.674562  4977 net.cpp:157] Top shape: 100 280 1 1 (28000)
I1018 19:25:29.674566  4977 net.cpp:165] Memory required for data: 111652400
I1018 19:25:29.674569  4977 layer_factory.hpp:77] Creating layer relu4
I1018 19:25:29.674574  4977 net.cpp:100] Creating Layer relu4
I1018 19:25:29.674577  4977 net.cpp:434] relu4 <- drop4
I1018 19:25:29.674582  4977 net.cpp:408] relu4 -> relu4
I1018 19:25:29.674703  4977 net.cpp:150] Setting up relu4
I1018 19:25:29.674710  4977 net.cpp:157] Top shape: 100 280 1 1 (28000)
I1018 19:25:29.674712  4977 net.cpp:165] Memory required for data: 111764400
I1018 19:25:29.674715  4977 layer_factory.hpp:77] Creating layer conv8
I1018 19:25:29.674723  4977 net.cpp:100] Creating Layer conv8
I1018 19:25:29.674727  4977 net.cpp:434] conv8 <- relu4
I1018 19:25:29.674731  4977 net.cpp:408] conv8 -> conv8
I1018 19:25:29.676717  4977 net.cpp:150] Setting up conv8
I1018 19:25:29.676728  4977 net.cpp:157] Top shape: 100 280 1 1 (28000)
I1018 19:25:29.676730  4977 net.cpp:165] Memory required for data: 111876400
I1018 19:25:29.676736  4977 layer_factory.hpp:77] Creating layer pool5
I1018 19:25:29.676743  4977 net.cpp:100] Creating Layer pool5
I1018 19:25:29.676748  4977 net.cpp:434] pool5 <- conv8
I1018 19:25:29.676753  4977 net.cpp:408] pool5 -> pool5
I1018 19:25:29.676785  4977 net.cpp:150] Setting up pool5
I1018 19:25:29.676791  4977 net.cpp:157] Top shape: 100 280 1 1 (28000)
I1018 19:25:29.676795  4977 net.cpp:165] Memory required for data: 111988400
I1018 19:25:29.676798  4977 layer_factory.hpp:77] Creating layer drop5
I1018 19:25:29.676803  4977 net.cpp:100] Creating Layer drop5
I1018 19:25:29.676806  4977 net.cpp:434] drop5 <- pool5
I1018 19:25:29.676813  4977 net.cpp:408] drop5 -> drop5
I1018 19:25:29.676841  4977 net.cpp:150] Setting up drop5
I1018 19:25:29.676853  4977 net.cpp:157] Top shape: 100 280 1 1 (28000)
I1018 19:25:29.676857  4977 net.cpp:165] Memory required for data: 112100400
I1018 19:25:29.676862  4977 layer_factory.hpp:77] Creating layer relu5
I1018 19:25:29.676867  4977 net.cpp:100] Creating Layer relu5
I1018 19:25:29.676869  4977 net.cpp:434] relu5 <- drop5
I1018 19:25:29.676873  4977 net.cpp:408] relu5 -> relu5
I1018 19:25:29.677076  4977 net.cpp:150] Setting up relu5
I1018 19:25:29.677085  4977 net.cpp:157] Top shape: 100 280 1 1 (28000)
I1018 19:25:29.677089  4977 net.cpp:165] Memory required for data: 112212400
I1018 19:25:29.677093  4977 layer_factory.hpp:77] Creating layer conv10
I1018 19:25:29.677101  4977 net.cpp:100] Creating Layer conv10
I1018 19:25:29.677104  4977 net.cpp:434] conv10 <- relu5
I1018 19:25:29.677109  4977 net.cpp:408] conv10 -> conv10
I1018 19:25:29.678066  4977 net.cpp:150] Setting up conv10
I1018 19:25:29.678076  4977 net.cpp:157] Top shape: 100 300 1 1 (30000)
I1018 19:25:29.678081  4977 net.cpp:165] Memory required for data: 112332400
I1018 19:25:29.678091  4977 layer_factory.hpp:77] Creating layer pool6
I1018 19:25:29.678097  4977 net.cpp:100] Creating Layer pool6
I1018 19:25:29.678100  4977 net.cpp:434] pool6 <- conv10
I1018 19:25:29.678107  4977 net.cpp:408] pool6 -> pool6
I1018 19:25:29.678138  4977 net.cpp:150] Setting up pool6
I1018 19:25:29.678143  4977 net.cpp:157] Top shape: 100 300 1 1 (30000)
I1018 19:25:29.678148  4977 net.cpp:165] Memory required for data: 112452400
I1018 19:25:29.678150  4977 layer_factory.hpp:77] Creating layer drop6
I1018 19:25:29.678155  4977 net.cpp:100] Creating Layer drop6
I1018 19:25:29.678159  4977 net.cpp:434] drop6 <- pool6
I1018 19:25:29.678165  4977 net.cpp:408] drop6 -> drop6
I1018 19:25:29.678194  4977 net.cpp:150] Setting up drop6
I1018 19:25:29.678198  4977 net.cpp:157] Top shape: 100 300 1 1 (30000)
I1018 19:25:29.678200  4977 net.cpp:165] Memory required for data: 112572400
I1018 19:25:29.678203  4977 layer_factory.hpp:77] Creating layer relu6
I1018 19:25:29.678210  4977 net.cpp:100] Creating Layer relu6
I1018 19:25:29.678213  4977 net.cpp:434] relu6 <- drop6
I1018 19:25:29.678218  4977 net.cpp:408] relu6 -> relu6
I1018 19:25:29.678339  4977 net.cpp:150] Setting up relu6
I1018 19:25:29.678346  4977 net.cpp:157] Top shape: 100 300 1 1 (30000)
I1018 19:25:29.678349  4977 net.cpp:165] Memory required for data: 112692400
I1018 19:25:29.678352  4977 layer_factory.hpp:77] Creating layer conv11
I1018 19:25:29.678360  4977 net.cpp:100] Creating Layer conv11
I1018 19:25:29.678364  4977 net.cpp:434] conv11 <- relu6
I1018 19:25:29.678369  4977 net.cpp:408] conv11 -> conv11
I1018 19:25:29.679129  4977 net.cpp:150] Setting up conv11
I1018 19:25:29.679137  4977 net.cpp:157] Top shape: 100 100 1 1 (10000)
I1018 19:25:29.679141  4977 net.cpp:165] Memory required for data: 112732400
I1018 19:25:29.679147  4977 layer_factory.hpp:77] Creating layer pool7
I1018 19:25:29.679152  4977 net.cpp:100] Creating Layer pool7
I1018 19:25:29.679157  4977 net.cpp:434] pool7 <- conv11
I1018 19:25:29.679163  4977 net.cpp:408] pool7 -> pool7
I1018 19:25:29.679195  4977 net.cpp:150] Setting up pool7
I1018 19:25:29.679201  4977 net.cpp:157] Top shape: 100 100 1 1 (10000)
I1018 19:25:29.679205  4977 net.cpp:165] Memory required for data: 112772400
I1018 19:25:29.679208  4977 layer_factory.hpp:77] Creating layer drop7
I1018 19:25:29.679214  4977 net.cpp:100] Creating Layer drop7
I1018 19:25:29.679219  4977 net.cpp:434] drop7 <- pool7
I1018 19:25:29.679222  4977 net.cpp:408] drop7 -> drop7
I1018 19:25:29.679250  4977 net.cpp:150] Setting up drop7
I1018 19:25:29.679255  4977 net.cpp:157] Top shape: 100 100 1 1 (10000)
I1018 19:25:29.679260  4977 net.cpp:165] Memory required for data: 112812400
I1018 19:25:29.679261  4977 layer_factory.hpp:77] Creating layer relu7
I1018 19:25:29.679271  4977 net.cpp:100] Creating Layer relu7
I1018 19:25:29.679275  4977 net.cpp:434] relu7 <- drop7
I1018 19:25:29.679278  4977 net.cpp:408] relu7 -> relu7
I1018 19:25:29.679400  4977 net.cpp:150] Setting up relu7
I1018 19:25:29.679414  4977 net.cpp:157] Top shape: 100 100 1 1 (10000)
I1018 19:25:29.679416  4977 net.cpp:165] Memory required for data: 112852400
I1018 19:25:29.679420  4977 layer_factory.hpp:77] Creating layer pool
I1018 19:25:29.679426  4977 net.cpp:100] Creating Layer pool
I1018 19:25:29.679430  4977 net.cpp:434] pool <- relu7
I1018 19:25:29.679435  4977 net.cpp:408] pool -> pool
I1018 19:25:29.679642  4977 net.cpp:150] Setting up pool
I1018 19:25:29.679651  4977 net.cpp:157] Top shape: 100 100 1 1 (10000)
I1018 19:25:29.679653  4977 net.cpp:165] Memory required for data: 112892400
I1018 19:25:29.679657  4977 layer_factory.hpp:77] Creating layer flatten
I1018 19:25:29.679663  4977 net.cpp:100] Creating Layer flatten
I1018 19:25:29.679666  4977 net.cpp:434] flatten <- pool
I1018 19:25:29.679672  4977 net.cpp:408] flatten -> flatten
I1018 19:25:29.679692  4977 net.cpp:150] Setting up flatten
I1018 19:25:29.679697  4977 net.cpp:157] Top shape: 100 100 (10000)
I1018 19:25:29.679699  4977 net.cpp:165] Memory required for data: 112932400
I1018 19:25:29.679702  4977 layer_factory.hpp:77] Creating layer score
I1018 19:25:29.679709  4977 net.cpp:100] Creating Layer score
I1018 19:25:29.679713  4977 net.cpp:434] score <- flatten
I1018 19:25:29.679718  4977 net.cpp:408] score -> score
I1018 19:25:29.679821  4977 net.cpp:150] Setting up score
I1018 19:25:29.679826  4977 net.cpp:157] Top shape: 100 10 (1000)
I1018 19:25:29.679828  4977 net.cpp:165] Memory required for data: 112936400
I1018 19:25:29.679834  4977 layer_factory.hpp:77] Creating layer score_score_0_split
I1018 19:25:29.679839  4977 net.cpp:100] Creating Layer score_score_0_split
I1018 19:25:29.679843  4977 net.cpp:434] score_score_0_split <- score
I1018 19:25:29.679849  4977 net.cpp:408] score_score_0_split -> score_score_0_split_0
I1018 19:25:29.679855  4977 net.cpp:408] score_score_0_split -> score_score_0_split_1
I1018 19:25:29.679883  4977 net.cpp:150] Setting up score_score_0_split
I1018 19:25:29.679888  4977 net.cpp:157] Top shape: 100 10 (1000)
I1018 19:25:29.679893  4977 net.cpp:157] Top shape: 100 10 (1000)
I1018 19:25:29.679895  4977 net.cpp:165] Memory required for data: 112944400
I1018 19:25:29.679898  4977 layer_factory.hpp:77] Creating layer accuracy
I1018 19:25:29.679904  4977 net.cpp:100] Creating Layer accuracy
I1018 19:25:29.679908  4977 net.cpp:434] accuracy <- score_score_0_split_0
I1018 19:25:29.679913  4977 net.cpp:434] accuracy <- label_data_1_split_0
I1018 19:25:29.679919  4977 net.cpp:408] accuracy -> accuracy
…
