…
  stage: ""
}
type: "SGD"
I1018 19:41:17.066766  5147 solver.cpp:81] Creating training net from train_net file: /home/adam/Honours/Honours-Project/mnist_pooling/max/leakyrelu/poolcnn_leakyrelu_train.prototxt
I1018 19:41:17.067101  5147 net.cpp:58] Initializing net from parameters: 
state {
  phase: TRAIN
  level: 0
  stage: ""
}
layer {
  name: "data"
  type: "Data"
  top: "data"
  top: "label"
  transform_param {
    scale: 0.0039215689
  }
  data_param {
    source: "../../../../data/mnist/mnist_train_lmdb"
    batch_size: 64
    backend: LMDB
  }
}
layer {
  name: "conv1"
  type: "Convolution"
  bottom: "data"
  top: "conv1"
  convolution_param {
    num_output: 192
    kernel_size: 5
    weight_filler {
      type: "xavier"
    }
  }
}
layer {
  name: "pool1"
  type: "Pooling"
  bottom: "conv1"
  top: "pool1"
  pooling_param {
    pool: MAX
    kernel_size: 2
    stride: 2
  }
}
layer {
  name: "drop1"
  type: "Dropout"
  bottom: "pool1"
  top: "drop1"
  dropout_param {
    dropout_ratio: 0
  }
}
layer {
  name: "relu1"
  type: "ReLU"
  bottom: "drop1"
  top: "relu1"
  relu_param {
    negative_slope: 0.01
  }
}
layer {
  name: "conv2"
  type: "Convolution"
  bottom: "relu1"
  top: "conv2"
  convolution_param {
    num_output: 192
    kernel_size: 1
    weight_filler {
      type: "xavier"
    }
  }
}
layer {
  name: "conv3"
  type: "Convolution"
  bottom: "conv2"
  top: "conv3"
  convolution_param {
    num_output: 240
    kernel_size: 3
    weight_filler {
      type: "xavier"
    }
  }
}
layer {
  name: "pool2"
  type: "Pooling"
  bottom: "conv3"
  top: "pool2"
  pooling_param {
    pool: MAX
    kernel_size: 2
    stride: 2
  }
}
layer {
  name: "drop2"
  type: "Dropout"
  bottom: "pool2"
  top: "drop2"
  dropout_param {
    dropout_ratio: 0.1
  }
}
layer {
  name: "relu2"
  type: "ReLU"
  bottom: "drop2"
  top: "relu2"
  relu_param {
    negative_slope: 0.01
  }
}
layer {
  name: "conv4"
  type: "Convolution"
  bottom: "relu2"
  top: "conv4"
  convolution_param {
    num_output: 240
    kernel_size: 1
    weight_filler {
      type: "xavier"
    }
  }
}
layer {
  name: "conv5"
  type: "Convolution"
  bottom: "conv4"
  top: "conv5"
  convolution_param {
    num_output: 260
    kernel_size: 2
    weight_filler {
      type: "xavier"
    }
  }
}
layer {
  name: "pool3"
  type: "Pooling"
  bottom: "conv5"
  top: "pool3"
  pooling_param {
    pool: MAX
    kernel_size: 2
    stride: 2
  }
}
layer {
  name: "drop3"
  type: "Dropout"
  bottom: "pool3"
  top: "drop3"
  dropout_param {
    dropout_ratio: 0.2
  }
}
layer {
  name: "relu3"
  type: "ReLU"
  bottom: "drop3"
  top: "relu3"
  relu_param {
    negative_slope: 0.01
  }
}
layer {
  name: "conv6"
  type: "Convolution"
  bottom: "relu3"
  top: "conv6"
  convolution_param {
    num_output: 260
    kernel_size: 1
    weight_filler {
      type: "xavier"
    }
  }
}
layer {
  name: "conv7"
  type: "Convolution"
  bottom: "conv6"
  top: "conv7"
  convolution_param {
    num_output: 280
    kernel_size: 2
    weight_filler {
      type: "xavier"
    }
  }
}
layer {
  name: "pool4"
  type: "Pooling"
  bottom: "conv7"
  top: "pool4"
  pooling_param {
    pool: MAX
    kernel_size: 2
    stride: 2
  }
}
layer {
  name: "drop4"
  type: "Dropout"
  bottom: "pool4"
  top: "drop4"
  dropout_param {
    dropout_ratio: 0.3
  }
}
layer {
  name: "relu4"
  type: "ReLU"
  bottom: "drop4"
  top: "relu4"
  relu_param {
    negative_slope: 0.01
  }
}
layer {
  name: "conv8"
  type: "Convolution"
  bottom: "relu4"
  top: "conv8"
  convolution_param {
    num_output: 280
    kernel_size: 1
    weight_filler {
      type: "xavier"
    }
  }
}
layer {
  name: "pool5"
  type: "Pooling"
  bottom: "conv8"
  top: "pool5"
  pooling_param {
    pool: MAX
    kernel_size: 2
    stride: 2
  }
}
layer {
  name: "drop5"
  type: "Dropout"
  bottom: "pool5"
  top: "drop5"
  dropout_param {
    dropout_ratio: 0.4
  }
}
layer {
  name: "relu5"
  type: "ReLU"
  bottom: "drop5"
  top: "relu5"
  relu_param {
    negative_slope: 0.01
  }
}
layer {
  name: "conv10"
  type: "Convolution"
  bottom: "relu5"
  top: "conv10"
  convolution_param {
    num_output: 300
    kernel_size: 1
    weight_filler {
      type: "xavier"
    }
  }
}
layer {
  name: "pool6"
  type: "Pooling"
  bottom: "conv10"
  top: "pool6"
  pooling_param {
    pool: MAX
    kernel_size: 2
    stride: 2
  }
}
layer {
  name: "drop6"
  type: "Dropout"
  bottom: "pool6"
  top: "drop6"
  dropout_param {
    dropout_ratio: 0.5
  }
}
layer {
  name: "relu6"
  type: "ReLU"
  bottom: "drop6"
  top: "relu6"
  relu_param {
    negative_slope: 0.01
  }
}
layer {
  name: "conv11"
  type: "Convolution"
  bottom: "relu6"
  top: "conv11"
  convolution_param {
    num_output: 100
    kernel_size: 1
    weight_filler {
      type: "xavier"
    }
  }
}
layer {
  name: "pool7"
  type: "Pooling"
  bottom: "conv11"
  top: "pool7"
  pooling_param {
    pool: MAX
    kernel_size: 2
    stride: 2
  }
}
layer {
  name: "drop7"
  type: "Dropout"
  bottom: "pool7"
  top: "drop7"
  dropout_param {
    dropout_ratio: 0
  }
}
layer {
  name: "relu7"
  type: "ReLU"
  bottom: "drop7"
  top: "relu7"
  relu_param {
    negative_slope: 0.01
  }
}
layer {
  name: "pool"
  type: "Pooling"
  bottom: "relu7"
  top: "pool"
  pooling_param {
    pool: AVE
    global_pooling: true
  }
}
layer {
  name: "flatten"
  type: "Flatten"
  bottom: "pool"
  top: "flatten"
}
layer {
  name: "score"
  type: "InnerProduct"
  bottom: "flatten"
  top: "score"
  inner_product_param {
    num_output: 10
    weight_filler {
      type: "gaussian"
    }
  }
}
layer {
  name: "accuracy"
  type: "Accuracy"
  bottom: "score"
  bottom: "label"
  top: "accuracy"
}
layer {
  name: "loss"
  type: "SoftmaxWithLoss"
  bottom: "score"
  bottom: "label"
  top: "loss"
}
I1018 19:41:17.067232  5147 layer_factory.hpp:77] Creating layer data
I1018 19:41:17.067625  5147 net.cpp:100] Creating Layer data
I1018 19:41:17.067633  5147 net.cpp:408] data -> data
I1018 19:41:17.067651  5147 net.cpp:408] data -> label
I1018 19:41:17.068212  5153 db_lmdb.cpp:35] Opened lmdb ../../../../data/mnist/mnist_train_lmdb
I1018 19:41:17.073658  5147 data_layer.cpp:41] output data size: 64,1,28,28
I1018 19:41:17.074220  5147 net.cpp:150] Setting up data
I1018 19:41:17.074231  5147 net.cpp:157] Top shape: 64 1 28 28 (50176)
I1018 19:41:17.074239  5147 net.cpp:157] Top shape: 64 (64)
I1018 19:41:17.074241  5147 net.cpp:165] Memory required for data: 200960
I1018 19:41:17.074251  5147 layer_factory.hpp:77] Creating layer label_data_1_split
I1018 19:41:17.074264  5147 net.cpp:100] Creating Layer label_data_1_split
I1018 19:41:17.074270  5147 net.cpp:434] label_data_1_split <- label
I1018 19:41:17.074283  5147 net.cpp:408] label_data_1_split -> label_data_1_split_0
I1018 19:41:17.074292  5147 net.cpp:408] label_data_1_split -> label_data_1_split_1
I1018 19:41:17.074322  5147 net.cpp:150] Setting up label_data_1_split
I1018 19:41:17.074328  5147 net.cpp:157] Top shape: 64 (64)
I1018 19:41:17.074331  5147 net.cpp:157] Top shape: 64 (64)
I1018 19:41:17.074336  5147 net.cpp:165] Memory required for data: 201472
I1018 19:41:17.074338  5147 layer_factory.hpp:77] Creating layer conv1
I1018 19:41:17.074352  5147 net.cpp:100] Creating Layer conv1
I1018 19:41:17.074357  5147 net.cpp:434] conv1 <- data
I1018 19:41:17.074362  5147 net.cpp:408] conv1 -> conv1
I1018 19:41:17.194314  5147 net.cpp:150] Setting up conv1
I1018 19:41:17.194339  5147 net.cpp:157] Top shape: 64 192 24 24 (7077888)
I1018 19:41:17.194342  5147 net.cpp:165] Memory required for data: 28513024
I1018 19:41:17.194385  5147 layer_factory.hpp:77] Creating layer pool1
I1018 19:41:17.194396  5147 net.cpp:100] Creating Layer pool1
I1018 19:41:17.194399  5147 net.cpp:434] pool1 <- conv1
I1018 19:41:17.194406  5147 net.cpp:408] pool1 -> pool1
I1018 19:41:17.194448  5147 net.cpp:150] Setting up pool1
I1018 19:41:17.194454  5147 net.cpp:157] Top shape: 64 192 12 12 (1769472)
I1018 19:41:17.194458  5147 net.cpp:165] Memory required for data: 35590912
I1018 19:41:17.194461  5147 layer_factory.hpp:77] Creating layer drop1
I1018 19:41:17.194469  5147 net.cpp:100] Creating Layer drop1
I1018 19:41:17.194473  5147 net.cpp:434] drop1 <- pool1
I1018 19:41:17.194478  5147 net.cpp:408] drop1 -> drop1
I1018 19:41:17.194502  5147 net.cpp:150] Setting up drop1
I1018 19:41:17.194507  5147 net.cpp:157] Top shape: 64 192 12 12 (1769472)
I1018 19:41:17.194511  5147 net.cpp:165] Memory required for data: 42668800
I1018 19:41:17.194515  5147 layer_factory.hpp:77] Creating layer relu1
I1018 19:41:17.194520  5147 net.cpp:100] Creating Layer relu1
I1018 19:41:17.194525  5147 net.cpp:434] relu1 <- drop1
I1018 19:41:17.194528  5147 net.cpp:408] relu1 -> relu1
I1018 19:41:17.194650  5147 net.cpp:150] Setting up relu1
I1018 19:41:17.194658  5147 net.cpp:157] Top shape: 64 192 12 12 (1769472)
I1018 19:41:17.194660  5147 net.cpp:165] Memory required for data: 49746688
I1018 19:41:17.194664  5147 layer_factory.hpp:77] Creating layer conv2
I1018 19:41:17.194672  5147 net.cpp:100] Creating Layer conv2
I1018 19:41:17.194675  5147 net.cpp:434] conv2 <- relu1
I1018 19:41:17.194681  5147 net.cpp:408] conv2 -> conv2
I1018 19:41:17.195473  5147 net.cpp:150] Setting up conv2
I1018 19:41:17.195492  5147 net.cpp:157] Top shape: 64 192 12 12 (1769472)
I1018 19:41:17.195495  5147 net.cpp:165] Memory required for data: 56824576
I1018 19:41:17.195500  5147 layer_factory.hpp:77] Creating layer conv3
I1018 19:41:17.195505  5147 net.cpp:100] Creating Layer conv3
I1018 19:41:17.195508  5147 net.cpp:434] conv3 <- conv2
I1018 19:41:17.195511  5147 net.cpp:408] conv3 -> conv3
I1018 19:41:17.197904  5147 net.cpp:150] Setting up conv3
I1018 19:41:17.197913  5147 net.cpp:157] Top shape: 64 240 10 10 (1536000)
I1018 19:41:17.197916  5147 net.cpp:165] Memory required for data: 62968576
I1018 19:41:17.197921  5147 layer_factory.hpp:77] Creating layer pool2
I1018 19:41:17.197926  5147 net.cpp:100] Creating Layer pool2
I1018 19:41:17.197927  5147 net.cpp:434] pool2 <- conv3
I1018 19:41:17.197931  5147 net.cpp:408] pool2 -> pool2
I1018 19:41:17.197953  5147 net.cpp:150] Setting up pool2
I1018 19:41:17.197957  5147 net.cpp:157] Top shape: 64 240 5 5 (384000)
I1018 19:41:17.197959  5147 net.cpp:165] Memory required for data: 64504576
I1018 19:41:17.197962  5147 layer_factory.hpp:77] Creating layer drop2
I1018 19:41:17.197964  5147 net.cpp:100] Creating Layer drop2
I1018 19:41:17.197966  5147 net.cpp:434] drop2 <- pool2
I1018 19:41:17.197968  5147 net.cpp:408] drop2 -> drop2
I1018 19:41:17.197986  5147 net.cpp:150] Setting up drop2
I1018 19:41:17.197990  5147 net.cpp:157] Top shape: 64 240 5 5 (384000)
I1018 19:41:17.197991  5147 net.cpp:165] Memory required for data: 66040576
I1018 19:41:17.197993  5147 layer_factory.hpp:77] Creating layer relu2
I1018 19:41:17.197995  5147 net.cpp:100] Creating Layer relu2
I1018 19:41:17.197998  5147 net.cpp:434] relu2 <- drop2
I1018 19:41:17.198000  5147 net.cpp:408] relu2 -> relu2
I1018 19:41:17.198103  5147 net.cpp:150] Setting up relu2
I1018 19:41:17.198108  5147 net.cpp:157] Top shape: 64 240 5 5 (384000)
I1018 19:41:17.198110  5147 net.cpp:165] Memory required for data: 67576576
I1018 19:41:17.198112  5147 layer_factory.hpp:77] Creating layer conv4
I1018 19:41:17.198117  5147 net.cpp:100] Creating Layer conv4
I1018 19:41:17.198118  5147 net.cpp:434] conv4 <- relu2
I1018 19:41:17.198122  5147 net.cpp:408] conv4 -> conv4
I1018 19:41:17.198909  5147 net.cpp:150] Setting up conv4
I1018 19:41:17.198916  5147 net.cpp:157] Top shape: 64 240 5 5 (384000)
I1018 19:41:17.198918  5147 net.cpp:165] Memory required for data: 69112576
I1018 19:41:17.198922  5147 layer_factory.hpp:77] Creating layer conv5
I1018 19:41:17.198935  5147 net.cpp:100] Creating Layer conv5
I1018 19:41:17.198937  5147 net.cpp:434] conv5 <- conv4
I1018 19:41:17.198940  5147 net.cpp:408] conv5 -> conv5
I1018 19:41:17.200654  5147 net.cpp:150] Setting up conv5
I1018 19:41:17.200661  5147 net.cpp:157] Top shape: 64 260 4 4 (266240)
I1018 19:41:17.200664  5147 net.cpp:165] Memory required for data: 70177536
I1018 19:41:17.200670  5147 layer_factory.hpp:77] Creating layer pool3
I1018 19:41:17.200673  5147 net.cpp:100] Creating Layer pool3
I1018 19:41:17.200675  5147 net.cpp:434] pool3 <- conv5
I1018 19:41:17.200678  5147 net.cpp:408] pool3 -> pool3
I1018 19:41:17.200700  5147 net.cpp:150] Setting up pool3
I1018 19:41:17.200705  5147 net.cpp:157] Top shape: 64 260 2 2 (66560)
I1018 19:41:17.200706  5147 net.cpp:165] Memory required for data: 70443776
I1018 19:41:17.200707  5147 layer_factory.hpp:77] Creating layer drop3
I1018 19:41:17.200711  5147 net.cpp:100] Creating Layer drop3
I1018 19:41:17.200713  5147 net.cpp:434] drop3 <- pool3
I1018 19:41:17.200716  5147 net.cpp:408] drop3 -> drop3
I1018 19:41:17.200736  5147 net.cpp:150] Setting up drop3
I1018 19:41:17.200738  5147 net.cpp:157] Top shape: 64 260 2 2 (66560)
I1018 19:41:17.200740  5147 net.cpp:165] Memory required for data: 70710016
I1018 19:41:17.200742  5147 layer_factory.hpp:77] Creating layer relu3
I1018 19:41:17.200745  5147 net.cpp:100] Creating Layer relu3
I1018 19:41:17.200747  5147 net.cpp:434] relu3 <- drop3
I1018 19:41:17.200749  5147 net.cpp:408] relu3 -> relu3
I1018 19:41:17.200855  5147 net.cpp:150] Setting up relu3
I1018 19:41:17.200860  5147 net.cpp:157] Top shape: 64 260 2 2 (66560)
I1018 19:41:17.200861  5147 net.cpp:165] Memory required for data: 70976256
I1018 19:41:17.200865  5147 layer_factory.hpp:77] Creating layer conv6
I1018 19:41:17.200870  5147 net.cpp:100] Creating Layer conv6
I1018 19:41:17.200871  5147 net.cpp:434] conv6 <- relu3
I1018 19:41:17.200875  5147 net.cpp:408] conv6 -> conv6
I1018 19:41:17.201956  5147 net.cpp:150] Setting up conv6
I1018 19:41:17.201964  5147 net.cpp:157] Top shape: 64 260 2 2 (66560)
I1018 19:41:17.201967  5147 net.cpp:165] Memory required for data: 71242496
I1018 19:41:17.201969  5147 layer_factory.hpp:77] Creating layer conv7
I1018 19:41:17.201975  5147 net.cpp:100] Creating Layer conv7
I1018 19:41:17.201977  5147 net.cpp:434] conv7 <- conv6
I1018 19:41:17.201980  5147 net.cpp:408] conv7 -> conv7
I1018 19:41:17.203898  5147 net.cpp:150] Setting up conv7
I1018 19:41:17.203907  5147 net.cpp:157] Top shape: 64 280 1 1 (17920)
I1018 19:41:17.203908  5147 net.cpp:165] Memory required for data: 71314176
I1018 19:41:17.203912  5147 layer_factory.hpp:77] Creating layer pool4
I1018 19:41:17.203915  5147 net.cpp:100] Creating Layer pool4
I1018 19:41:17.203918  5147 net.cpp:434] pool4 <- conv7
I1018 19:41:17.203922  5147 net.cpp:408] pool4 -> pool4
I1018 19:41:17.203945  5147 net.cpp:150] Setting up pool4
I1018 19:41:17.203949  5147 net.cpp:157] Top shape: 64 280 1 1 (17920)
I1018 19:41:17.203951  5147 net.cpp:165] Memory required for data: 71385856
I1018 19:41:17.203953  5147 layer_factory.hpp:77] Creating layer drop4
I1018 19:41:17.203956  5147 net.cpp:100] Creating Layer drop4
I1018 19:41:17.203958  5147 net.cpp:434] drop4 <- pool4
I1018 19:41:17.203960  5147 net.cpp:408] drop4 -> drop4
I1018 19:41:17.203981  5147 net.cpp:150] Setting up drop4
I1018 19:41:17.203984  5147 net.cpp:157] Top shape: 64 280 1 1 (17920)
I1018 19:41:17.203985  5147 net.cpp:165] Memory required for data: 71457536
I1018 19:41:17.203987  5147 layer_factory.hpp:77] Creating layer relu4
I1018 19:41:17.203991  5147 net.cpp:100] Creating Layer relu4
I1018 19:41:17.203994  5147 net.cpp:434] relu4 <- drop4
I1018 19:41:17.203996  5147 net.cpp:408] relu4 -> relu4
I1018 19:41:17.204181  5147 net.cpp:150] Setting up relu4
I1018 19:41:17.204188  5147 net.cpp:157] Top shape: 64 280 1 1 (17920)
I1018 19:41:17.204190  5147 net.cpp:165] Memory required for data: 71529216
I1018 19:41:17.204192  5147 layer_factory.hpp:77] Creating layer conv8
I1018 19:41:17.204205  5147 net.cpp:100] Creating Layer conv8
I1018 19:41:17.204207  5147 net.cpp:434] conv8 <- relu4
I1018 19:41:17.204211  5147 net.cpp:408] conv8 -> conv8
I1018 19:41:17.205040  5147 net.cpp:150] Setting up conv8
I1018 19:41:17.205049  5147 net.cpp:157] Top shape: 64 280 1 1 (17920)
I1018 19:41:17.205050  5147 net.cpp:165] Memory required for data: 71600896
I1018 19:41:17.205054  5147 layer_factory.hpp:77] Creating layer pool5
I1018 19:41:17.205057  5147 net.cpp:100] Creating Layer pool5
I1018 19:41:17.205060  5147 net.cpp:434] pool5 <- conv8
I1018 19:41:17.205062  5147 net.cpp:408] pool5 -> pool5
I1018 19:41:17.205087  5147 net.cpp:150] Setting up pool5
I1018 19:41:17.205091  5147 net.cpp:157] Top shape: 64 280 1 1 (17920)
I1018 19:41:17.205093  5147 net.cpp:165] Memory required for data: 71672576
I1018 19:41:17.205094  5147 layer_factory.hpp:77] Creating layer drop5
I1018 19:41:17.205097  5147 net.cpp:100] Creating Layer drop5
I1018 19:41:17.205099  5147 net.cpp:434] drop5 <- pool5
I1018 19:41:17.205102  5147 net.cpp:408] drop5 -> drop5
I1018 19:41:17.205122  5147 net.cpp:150] Setting up drop5
I1018 19:41:17.205126  5147 net.cpp:157] Top shape: 64 280 1 1 (17920)
I1018 19:41:17.205127  5147 net.cpp:165] Memory required for data: 71744256
I1018 19:41:17.205129  5147 layer_factory.hpp:77] Creating layer relu5
I1018 19:41:17.205132  5147 net.cpp:100] Creating Layer relu5
I1018 19:41:17.205134  5147 net.cpp:434] relu5 <- drop5
I1018 19:41:17.205137  5147 net.cpp:408] relu5 -> relu5
I1018 19:41:17.205404  5147 net.cpp:150] Setting up relu5
I1018 19:41:17.205410  5147 net.cpp:157] Top shape: 64 280 1 1 (17920)
I1018 19:41:17.205411  5147 net.cpp:165] Memory required for data: 71815936
I1018 19:41:17.205413  5147 layer_factory.hpp:77] Creating layer conv10
I1018 19:41:17.205420  5147 net.cpp:100] Creating Layer conv10
I1018 19:41:17.205421  5147 net.cpp:434] conv10 <- relu5
I1018 19:41:17.205425  5147 net.cpp:408] conv10 -> conv10
I1018 19:41:17.206360  5147 net.cpp:150] Setting up conv10
I1018 19:41:17.206368  5147 net.cpp:157] Top shape: 64 300 1 1 (19200)
I1018 19:41:17.206370  5147 net.cpp:165] Memory required for data: 71892736
I1018 19:41:17.206377  5147 layer_factory.hpp:77] Creating layer pool6
I1018 19:41:17.206380  5147 net.cpp:100] Creating Layer pool6
I1018 19:41:17.206383  5147 net.cpp:434] pool6 <- conv10
I1018 19:41:17.206387  5147 net.cpp:408] pool6 -> pool6
I1018 19:41:17.206410  5147 net.cpp:150] Setting up pool6
I1018 19:41:17.206415  5147 net.cpp:157] Top shape: 64 300 1 1 (19200)
I1018 19:41:17.206418  5147 net.cpp:165] Memory required for data: 71969536
I1018 19:41:17.206419  5147 layer_factory.hpp:77] Creating layer drop6
I1018 19:41:17.206423  5147 net.cpp:100] Creating Layer drop6
I1018 19:41:17.206423  5147 net.cpp:434] drop6 <- pool6
I1018 19:41:17.206426  5147 net.cpp:408] drop6 -> drop6
I1018 19:41:17.206447  5147 net.cpp:150] Setting up drop6
I1018 19:41:17.206450  5147 net.cpp:157] Top shape: 64 300 1 1 (19200)
I1018 19:41:17.206452  5147 net.cpp:165] Memory required for data: 72046336
I1018 19:41:17.206454  5147 layer_factory.hpp:77] Creating layer relu6
I1018 19:41:17.206456  5147 net.cpp:100] Creating Layer relu6
I1018 19:41:17.206459  5147 net.cpp:434] relu6 <- drop6
I1018 19:41:17.206461  5147 net.cpp:408] relu6 -> relu6
I1018 19:41:17.206573  5147 net.cpp:150] Setting up relu6
I1018 19:41:17.206578  5147 net.cpp:157] Top shape: 64 300 1 1 (19200)
I1018 19:41:17.206580  5147 net.cpp:165] Memory required for data: 72123136
I1018 19:41:17.206581  5147 layer_factory.hpp:77] Creating layer conv11
I1018 19:41:17.206588  5147 net.cpp:100] Creating Layer conv11
I1018 19:41:17.206589  5147 net.cpp:434] conv11 <- relu6
I1018 19:41:17.206593  5147 net.cpp:408] conv11 -> conv11
I1018 19:41:17.207572  5147 net.cpp:150] Setting up conv11
I1018 19:41:17.207581  5147 net.cpp:157] Top shape: 64 100 1 1 (6400)
I1018 19:41:17.207583  5147 net.cpp:165] Memory required for data: 72148736
I1018 19:41:17.207587  5147 layer_factory.hpp:77] Creating layer pool7
I1018 19:41:17.207590  5147 net.cpp:100] Creating Layer pool7
I1018 19:41:17.207599  5147 net.cpp:434] pool7 <- conv11
I1018 19:41:17.207603  5147 net.cpp:408] pool7 -> pool7
I1018 19:41:17.207630  5147 net.cpp:150] Setting up pool7
I1018 19:41:17.207635  5147 net.cpp:157] Top shape: 64 100 1 1 (6400)
I1018 19:41:17.207638  5147 net.cpp:165] Memory required for data: 72174336
I1018 19:41:17.207639  5147 layer_factory.hpp:77] Creating layer drop7
I1018 19:41:17.207643  5147 net.cpp:100] Creating Layer drop7
I1018 19:41:17.207643  5147 net.cpp:434] drop7 <- pool7
I1018 19:41:17.207648  5147 net.cpp:408] drop7 -> drop7
I1018 19:41:17.207669  5147 net.cpp:150] Setting up drop7
I1018 19:41:17.207674  5147 net.cpp:157] Top shape: 64 100 1 1 (6400)
I1018 19:41:17.207676  5147 net.cpp:165] Memory required for data: 72199936
I1018 19:41:17.207679  5147 layer_factory.hpp:77] Creating layer relu7
I1018 19:41:17.207684  5147 net.cpp:100] Creating Layer relu7
I1018 19:41:17.207686  5147 net.cpp:434] relu7 <- drop7
I1018 19:41:17.207690  5147 net.cpp:408] relu7 -> relu7
I1018 19:41:17.207881  5147 net.cpp:150] Setting up relu7
I1018 19:41:17.207888  5147 net.cpp:157] Top shape: 64 100 1 1 (6400)
I1018 19:41:17.207890  5147 net.cpp:165] Memory required for data: 72225536
I1018 19:41:17.207892  5147 layer_factory.hpp:77] Creating layer pool
I1018 19:41:17.207896  5147 net.cpp:100] Creating Layer pool
I1018 19:41:17.207897  5147 net.cpp:434] pool <- relu7
I1018 19:41:17.207901  5147 net.cpp:408] pool -> pool
I1018 19:41:17.208024  5147 net.cpp:150] Setting up pool
I1018 19:41:17.208029  5147 net.cpp:157] Top shape: 64 100 1 1 (6400)
I1018 19:41:17.208030  5147 net.cpp:165] Memory required for data: 72251136
I1018 19:41:17.208032  5147 layer_factory.hpp:77] Creating layer flatten
I1018 19:41:17.208035  5147 net.cpp:100] Creating Layer flatten
I1018 19:41:17.208037  5147 net.cpp:434] flatten <- pool
I1018 19:41:17.208041  5147 net.cpp:408] flatten -> flatten
I1018 19:41:17.208055  5147 net.cpp:150] Setting up flatten
I1018 19:41:17.208060  5147 net.cpp:157] Top shape: 64 100 (6400)
I1018 19:41:17.208062  5147 net.cpp:165] Memory required for data: 72276736
I1018 19:41:17.208063  5147 layer_factory.hpp:77] Creating layer score
I1018 19:41:17.208067  5147 net.cpp:100] Creating Layer score
I1018 19:41:17.208070  5147 net.cpp:434] score <- flatten
I1018 19:41:17.208073  5147 net.cpp:408] score -> score
I1018 19:41:17.208165  5147 net.cpp:150] Setting up score
I1018 19:41:17.208169  5147 net.cpp:157] Top shape: 64 10 (640)
I1018 19:41:17.208170  5147 net.cpp:165] Memory required for data: 72279296
I1018 19:41:17.208174  5147 layer_factory.hpp:77] Creating layer score_score_0_split
I1018 19:41:17.208179  5147 net.cpp:100] Creating Layer score_score_0_split
I1018 19:41:17.208181  5147 net.cpp:434] score_score_0_split <- score
I1018 19:41:17.208184  5147 net.cpp:408] score_score_0_split -> score_score_0_split_0
I1018 19:41:17.208189  5147 net.cpp:408] score_score_0_split -> score_score_0_split_1
I1018 19:41:17.208211  5147 net.cpp:150] Setting up score_score_0_split
I1018 19:41:17.208215  5147 net.cpp:157] Top shape: 64 10 (640)
I1018 19:41:17.208217  5147 net.cpp:157] Top shape: 64 10 (640)
I1018 19:41:17.208220  5147 net.cpp:165] Memory required for data: 72284416
I1018 19:41:17.208221  5147 layer_factory.hpp:77] Creating layer accuracy
I1018 19:41:17.208225  5147 net.cpp:100] Creating Layer accuracy
I1018 19:41:17.208227  5147 net.cpp:434] accuracy <- score_score_0_split_0
I1018 19:41:17.208230  5147 net.cpp:434] accuracy <- label_data_1_split_0
I1018 19:41:17.208233  5147 net.cpp:408] accuracy -> accuracy
…
I1018 19:41:17.208653  5147 net.cpp:283] Network initialization done.
I1018 19:41:17.208843  5147 solver.cpp:181] Creating test net (#0) specified by test_net file: /home/adam/Honours/Honours-Project/mnist_pooling/max/leakyrelu/poolcnn_leakyrelu_test.prototxt
I1018 19:41:17.208961  5147 net.cpp:58] Initializing net from parameters: 
state {
  phase: TEST
}
layer {
  name: "data"
  type: "Data"
  top: "data"
  top: "label"
  transform_param {
    scale: 0.0039215689
  }
  data_param {
    source: "../../../../data/mnist/mnist_test_lmdb"
    batch_size: 100
    backend: LMDB
  }
}
layer {
  name: "conv1"
  type: "Convolution"
  bottom: "data"
  top: "conv1"
  convolution_param {
    num_output: 192
    kernel_size: 5
    weight_filler {
      type: "xavier"
    }
  }
}
layer {
  name: "pool1"
  type: "Pooling"
  bottom: "conv1"
  top: "pool1"
  pooling_param {
    pool: MAX
    kernel_size: 2
    stride: 2
  }
}
layer {
  name: "drop1"
  type: "Dropout"
  bottom: "pool1"
  top: "drop1"
  dropout_param {
    dropout_ratio: 0
  }
}
layer {
  name: "relu1"
  type: "ReLU"
  bottom: "drop1"
  top: "relu1"
  relu_param {
    negative_slope: 0.01
  }
}
layer {
  name: "conv2"
  type: "Convolution"
  bottom: "relu1"
  top: "conv2"
  convolution_param {
    num_output: 192
    kernel_size: 1
    weight_filler {
      type: "xavier"
    }
  }
}
layer {
  name: "conv3"
  type: "Convolution"
  bottom: "conv2"
  top: "conv3"
  convolution_param {
    num_output: 240
    kernel_size: 3
    weight_filler {
      type: "xavier"
    }
  }
}
layer {
  name: "pool2"
  type: "Pooling"
  bottom: "conv3"
  top: "pool2"
  pooling_param {
    pool: MAX
    kernel_size: 2
    stride: 2
  }
}
layer {
  name: "drop2"
  type: "Dropout"
  bottom: "pool2"
  top: "drop2"
  dropout_param {
    dropout_ratio: 0.1
  }
}
layer {
  name: "relu2"
  type: "ReLU"
  bottom: "drop2"
  top: "relu2"
  relu_param {
    negative_slope: 0.01
  }
}
layer {
  name: "conv4"
  type: "Convolution"
  bottom: "relu2"
  top: "conv4"
  convolution_param {
    num_output: 240
    kernel_size: 1
    weight_filler {
      type: "xavier"
    }
  }
}
layer {
  name: "conv5"
  type: "Convolution"
  bottom: "conv4"
  top: "conv5"
  convolution_param {
    num_output: 260
    kernel_size: 2
    weight_filler {
      type: "xavier"
    }
  }
}
layer {
  name: "pool3"
  type: "Pooling"
  bottom: "conv5"
  top: "pool3"
  pooling_param {
    pool: MAX
    kernel_size: 2
    stride: 2
  }
}
layer {
  name: "drop3"
  type: "Dropout"
  bottom: "pool3"
  top: "drop3"
  dropout_param {
    dropout_ratio: 0.2
  }
}
layer {
  name: "relu3"
  type: "ReLU"
  bottom: "drop3"
  top: "relu3"
  relu_param {
    negative_slope: 0.01
  }
}
layer {
  name: "conv6"
  type: "Convolution"
  bottom: "relu3"
  top: "conv6"
  convolution_param {
    num_output: 260
    kernel_size: 1
    weight_filler {
      type: "xavier"
    }
  }
}
layer {
  name: "conv7"
  type: "Convolution"
  bottom: "conv6"
  top: "conv7"
  convolution_param {
    num_output: 280
    kernel_size: 2
    weight_filler {
      type: "xavier"
    }
  }
}
layer {
  name: "pool4"
  type: "Pooling"
  bottom: "conv7"
  top: "pool4"
  pooling_param {
    pool: MAX
    kernel_size: 2
    stride: 2
  }
}
layer {
  name: "drop4"
  type: "Dropout"
  bottom: "pool4"
  top: "drop4"
  dropout_param {
    dropout_ratio: 0.3
  }
}
layer {
  name: "relu4"
  type: "ReLU"
  bottom: "drop4"
  top: "relu4"
  relu_param {
    negative_slope: 0.01
  }
}
layer {
  name: "conv8"
  type: "Convolution"
  bottom: "relu4"
  top: "conv8"
  convolution_param {
    num_output: 280
    kernel_size: 1
    weight_filler {
      type: "xavier"
    }
  }
}
layer {
  name: "pool5"
  type: "Pooling"
  bottom: "conv8"
  top: "pool5"
  pooling_param {
    pool: MAX
    kernel_size: 2
    stride: 2
  }
}
layer {
  name: "drop5"
  type: "Dropout"
  bottom: "pool5"
  top: "drop5"
  dropout_param {
    dropout_ratio: 0.4
  }
}
layer {
  name: "relu5"
  type: "ReLU"
  bottom: "drop5"
  top: "relu5"
  relu_param {
    negative_slope: 0.01
  }
}
layer {
  name: "conv10"
  type: "Convolution"
  bottom: "relu5"
  top: "conv10"
  convolution_param {
    num_output: 300
    kernel_size: 1
    weight_filler {
      type: "xavier"
    }
  }
}
layer {
  name: "pool6"
  type: "Pooling"
  bottom: "conv10"
  top: "pool6"
  pooling_param {
    pool: MAX
    kernel_size: 2
    stride: 2
  }
}
layer {
  name: "drop6"
  type: "Dropout"
  bottom: "pool6"
  top: "drop6"
  dropout_param {
    dropout_ratio: 0.5
  }
}
layer {
  name: "relu6"
  type: "ReLU"
  bottom: "drop6"
  top: "relu6"
  relu_param {
    negative_slope: 0.01
  }
}
layer {
  name: "conv11"
  type: "Convolution"
  bottom: "relu6"
  top: "conv11"
  convolution_param {
    num_output: 100
    kernel_size: 1
    weight_filler {
      type: "xavier"
    }
  }
}
layer {
  name: "pool7"
  type: "Pooling"
  bottom: "conv11"
  top: "pool7"
  pooling_param {
    pool: MAX
    kernel_size: 2
    stride: 2
  }
}
layer {
  name: "drop7"
  type: "Dropout"
  bottom: "pool7"
  top: "drop7"
  dropout_param {
    dropout_ratio: 0
  }
}
layer {
  name: "relu7"
  type: "ReLU"
  bottom: "drop7"
  top: "relu7"
  relu_param {
    negative_slope: 0.01
  }
}
layer {
  name: "pool"
  type: "Pooling"
  bottom: "relu7"
  top: "pool"
  pooling_param {
    pool: AVE
    global_pooling: true
  }
}
layer {
  name: "flatten"
  type: "Flatten"
  bottom: "pool"
  top: "flatten"
}
layer {
  name: "score"
  type: "InnerProduct"
  bottom: "flatten"
  top: "score"
  inner_product_param {
    num_output: 10
    weight_filler {
      type: "gaussian"
    }
  }
}
layer {
  name: "accuracy"
  type: "Accuracy"
  bottom: "score"
  bottom: "label"
  top: "accuracy"
}
layer {
  name: "loss"
  type: "SoftmaxWithLoss"
  bottom: "score"
  bottom: "label"
  top: "loss"
}
I1018 19:41:17.209039  5147 layer_factory.hpp:77] Creating layer data
I1018 19:41:17.209118  5147 net.cpp:100] Creating Layer data
I1018 19:41:17.209122  5147 net.cpp:408] data -> data
I1018 19:41:17.209126  5147 net.cpp:408] data -> label
I1018 19:41:17.209760  5155 db_lmdb.cpp:35] Opened lmdb ../../../../data/mnist/mnist_test_lmdb
I1018 19:41:17.209834  5147 data_layer.cpp:41] output data size: 100,1,28,28
I1018 19:41:17.210456  5147 net.cpp:150] Setting up data
I1018 19:41:17.210464  5147 net.cpp:157] Top shape: 100 1 28 28 (78400)
I1018 19:41:17.210466  5147 net.cpp:157] Top shape: 100 (100)
I1018 19:41:17.210469  5147 net.cpp:165] Memory required for data: 314000
I1018 19:41:17.210470  5147 layer_factory.hpp:77] Creating layer label_data_1_split
I1018 19:41:17.210475  5147 net.cpp:100] Creating Layer label_data_1_split
I1018 19:41:17.210477  5147 net.cpp:434] label_data_1_split <- label
I1018 19:41:17.210481  5147 net.cpp:408] label_data_1_split -> label_data_1_split_0
I1018 19:41:17.210485  5147 net.cpp:408] label_data_1_split -> label_data_1_split_1
I1018 19:41:17.210544  5147 net.cpp:150] Setting up label_data_1_split
I1018 19:41:17.210548  5147 net.cpp:157] Top shape: 100 (100)
I1018 19:41:17.210551  5147 net.cpp:157] Top shape: 100 (100)
I1018 19:41:17.210552  5147 net.cpp:165] Memory required for data: 314800
I1018 19:41:17.210553  5147 layer_factory.hpp:77] Creating layer conv1
I1018 19:41:17.210559  5147 net.cpp:100] Creating Layer conv1
I1018 19:41:17.210561  5147 net.cpp:434] conv1 <- data
I1018 19:41:17.210564  5147 net.cpp:408] conv1 -> conv1
I1018 19:41:17.211210  5147 net.cpp:150] Setting up conv1
I1018 19:41:17.211217  5147 net.cpp:157] Top shape: 100 192 24 24 (11059200)
I1018 19:41:17.211220  5147 net.cpp:165] Memory required for data: 44551600
I1018 19:41:17.211226  5147 layer_factory.hpp:77] Creating layer pool1
I1018 19:41:17.211231  5147 net.cpp:100] Creating Layer pool1
I1018 19:41:17.211233  5147 net.cpp:434] pool1 <- conv1
I1018 19:41:17.211236  5147 net.cpp:408] pool1 -> pool1
I1018 19:41:17.211277  5147 net.cpp:150] Setting up pool1
I1018 19:41:17.211282  5147 net.cpp:157] Top shape: 100 192 12 12 (2764800)
I1018 19:41:17.211284  5147 net.cpp:165] Memory required for data: 55610800
I1018 19:41:17.211287  5147 layer_factory.hpp:77] Creating layer drop1
I1018 19:41:17.211290  5147 net.cpp:100] Creating Layer drop1
I1018 19:41:17.211292  5147 net.cpp:434] drop1 <- pool1
I1018 19:41:17.211295  5147 net.cpp:408] drop1 -> drop1
I1018 19:41:17.211318  5147 net.cpp:150] Setting up drop1
I1018 19:41:17.211323  5147 net.cpp:157] Top shape: 100 192 12 12 (2764800)
I1018 19:41:17.211324  5147 net.cpp:165] Memory required for data: 66670000
I1018 19:41:17.211326  5147 layer_factory.hpp:77] Creating layer relu1
I1018 19:41:17.211331  5147 net.cpp:100] Creating Layer relu1
I1018 19:41:17.211335  5147 net.cpp:434] relu1 <- drop1
I1018 19:41:17.211338  5147 net.cpp:408] relu1 -> relu1
I1018 19:41:17.211575  5147 net.cpp:150] Setting up relu1
I1018 19:41:17.211596  5147 net.cpp:157] Top shape: 100 192 12 12 (2764800)
I1018 19:41:17.211601  5147 net.cpp:165] Memory required for data: 77729200
I1018 19:41:17.211603  5147 layer_factory.hpp:77] Creating layer conv2
I1018 19:41:17.211609  5147 net.cpp:100] Creating Layer conv2
I1018 19:41:17.211614  5147 net.cpp:434] conv2 <- relu1
I1018 19:41:17.211618  5147 net.cpp:408] conv2 -> conv2
I1018 19:41:17.212659  5147 net.cpp:150] Setting up conv2
I1018 19:41:17.212667  5147 net.cpp:157] Top shape: 100 192 12 12 (2764800)
I1018 19:41:17.212668  5147 net.cpp:165] Memory required for data: 88788400
I1018 19:41:17.212677  5147 layer_factory.hpp:77] Creating layer conv3
I1018 19:41:17.212684  5147 net.cpp:100] Creating Layer conv3
I1018 19:41:17.212689  5147 net.cpp:434] conv3 <- conv2
I1018 19:41:17.212694  5147 net.cpp:408] conv3 -> conv3
I1018 19:41:17.215328  5147 net.cpp:150] Setting up conv3
I1018 19:41:17.215340  5147 net.cpp:157] Top shape: 100 240 10 10 (2400000)
I1018 19:41:17.215342  5147 net.cpp:165] Memory required for data: 98388400
I1018 19:41:17.215350  5147 layer_factory.hpp:77] Creating layer pool2
I1018 19:41:17.215358  5147 net.cpp:100] Creating Layer pool2
I1018 19:41:17.215360  5147 net.cpp:434] pool2 <- conv3
I1018 19:41:17.215363  5147 net.cpp:408] pool2 -> pool2
I1018 19:41:17.215394  5147 net.cpp:150] Setting up pool2
I1018 19:41:17.215399  5147 net.cpp:157] Top shape: 100 240 5 5 (600000)
I1018 19:41:17.215400  5147 net.cpp:165] Memory required for data: 100788400
I1018 19:41:17.215401  5147 layer_factory.hpp:77] Creating layer drop2
I1018 19:41:17.215405  5147 net.cpp:100] Creating Layer drop2
I1018 19:41:17.215407  5147 net.cpp:434] drop2 <- pool2
I1018 19:41:17.215410  5147 net.cpp:408] drop2 -> drop2
I1018 19:41:17.215433  5147 net.cpp:150] Setting up drop2
I1018 19:41:17.215436  5147 net.cpp:157] Top shape: 100 240 5 5 (600000)
I1018 19:41:17.215438  5147 net.cpp:165] Memory required for data: 103188400
I1018 19:41:17.215441  5147 layer_factory.hpp:77] Creating layer relu2
I1018 19:41:17.215445  5147 net.cpp:100] Creating Layer relu2
I1018 19:41:17.215445  5147 net.cpp:434] relu2 <- drop2
I1018 19:41:17.215450  5147 net.cpp:408] relu2 -> relu2
I1018 19:41:17.215582  5147 net.cpp:150] Setting up relu2
I1018 19:41:17.215590  5147 net.cpp:157] Top shape: 100 240 5 5 (600000)
I1018 19:41:17.215590  5147 net.cpp:165] Memory required for data: 105588400
I1018 19:41:17.215593  5147 layer_factory.hpp:77] Creating layer conv4
I1018 19:41:17.215600  5147 net.cpp:100] Creating Layer conv4
I1018 19:41:17.215601  5147 net.cpp:434] conv4 <- relu2
I1018 19:41:17.215605  5147 net.cpp:408] conv4 -> conv4
I1018 19:41:17.216462  5147 net.cpp:150] Setting up conv4
I1018 19:41:17.216470  5147 net.cpp:157] Top shape: 100 240 5 5 (600000)
I1018 19:41:17.216472  5147 net.cpp:165] Memory required for data: 107988400
I1018 19:41:17.216475  5147 layer_factory.hpp:77] Creating layer conv5
I1018 19:41:17.216481  5147 net.cpp:100] Creating Layer conv5
I1018 19:41:17.216483  5147 net.cpp:434] conv5 <- conv4
I1018 19:41:17.216486  5147 net.cpp:408] conv5 -> conv5
I1018 19:41:17.218273  5147 net.cpp:150] Setting up conv5
I1018 19:41:17.218282  5147 net.cpp:157] Top shape: 100 260 4 4 (416000)
I1018 19:41:17.218284  5147 net.cpp:165] Memory required for data: 109652400
I1018 19:41:17.218289  5147 layer_factory.hpp:77] Creating layer pool3
I1018 19:41:17.218292  5147 net.cpp:100] Creating Layer pool3
I1018 19:41:17.218296  5147 net.cpp:434] pool3 <- conv5
I1018 19:41:17.218299  5147 net.cpp:408] pool3 -> pool3
I1018 19:41:17.218325  5147 net.cpp:150] Setting up pool3
I1018 19:41:17.218329  5147 net.cpp:157] Top shape: 100 260 2 2 (104000)
I1018 19:41:17.218332  5147 net.cpp:165] Memory required for data: 110068400
I1018 19:41:17.218333  5147 layer_factory.hpp:77] Creating layer drop3
I1018 19:41:17.218338  5147 net.cpp:100] Creating Layer drop3
I1018 19:41:17.218339  5147 net.cpp:434] drop3 <- pool3
I1018 19:41:17.218343  5147 net.cpp:408] drop3 -> drop3
I1018 19:41:17.218366  5147 net.cpp:150] Setting up drop3
I1018 19:41:17.218379  5147 net.cpp:157] Top shape: 100 260 2 2 (104000)
I1018 19:41:17.218381  5147 net.cpp:165] Memory required for data: 110484400
I1018 19:41:17.218384  5147 layer_factory.hpp:77] Creating layer relu3
I1018 19:41:17.218386  5147 net.cpp:100] Creating Layer relu3
I1018 19:41:17.218389  5147 net.cpp:434] relu3 <- drop3
I1018 19:41:17.218394  5147 net.cpp:408] relu3 -> relu3
I1018 19:41:17.218511  5147 net.cpp:150] Setting up relu3
I1018 19:41:17.218516  5147 net.cpp:157] Top shape: 100 260 2 2 (104000)
I1018 19:41:17.218518  5147 net.cpp:165] Memory required for data: 110900400
I1018 19:41:17.218519  5147 layer_factory.hpp:77] Creating layer conv6
I1018 19:41:17.218526  5147 net.cpp:100] Creating Layer conv6
I1018 19:41:17.218528  5147 net.cpp:434] conv6 <- relu3
I1018 19:41:17.218531  5147 net.cpp:408] conv6 -> conv6
I1018 19:41:17.219763  5147 net.cpp:150] Setting up conv6
I1018 19:41:17.219772  5147 net.cpp:157] Top shape: 100 260 2 2 (104000)
I1018 19:41:17.219774  5147 net.cpp:165] Memory required for data: 111316400
I1018 19:41:17.219779  5147 layer_factory.hpp:77] Creating layer conv7
I1018 19:41:17.219784  5147 net.cpp:100] Creating Layer conv7
I1018 19:41:17.219785  5147 net.cpp:434] conv7 <- conv6
I1018 19:41:17.219790  5147 net.cpp:408] conv7 -> conv7
I1018 19:41:17.221732  5147 net.cpp:150] Setting up conv7
I1018 19:41:17.221740  5147 net.cpp:157] Top shape: 100 280 1 1 (28000)
I1018 19:41:17.221742  5147 net.cpp:165] Memory required for data: 111428400
I1018 19:41:17.221746  5147 layer_factory.hpp:77] Creating layer pool4
I1018 19:41:17.221750  5147 net.cpp:100] Creating Layer pool4
I1018 19:41:17.221752  5147 net.cpp:434] pool4 <- conv7
I1018 19:41:17.221756  5147 net.cpp:408] pool4 -> pool4
I1018 19:41:17.221783  5147 net.cpp:150] Setting up pool4
I1018 19:41:17.221787  5147 net.cpp:157] Top shape: 100 280 1 1 (28000)
I1018 19:41:17.221789  5147 net.cpp:165] Memory required for data: 111540400
I1018 19:41:17.221791  5147 layer_factory.hpp:77] Creating layer drop4
I1018 19:41:17.221794  5147 net.cpp:100] Creating Layer drop4
I1018 19:41:17.221796  5147 net.cpp:434] drop4 <- pool4
I1018 19:41:17.221799  5147 net.cpp:408] drop4 -> drop4
I1018 19:41:17.221823  5147 net.cpp:150] Setting up drop4
I1018 19:41:17.221827  5147 net.cpp:157] Top shape: 100 280 1 1 (28000)
I1018 19:41:17.221828  5147 net.cpp:165] Memory required for data: 111652400
I1018 19:41:17.221830  5147 layer_factory.hpp:77] Creating layer relu4
I1018 19:41:17.221834  5147 net.cpp:100] Creating Layer relu4
I1018 19:41:17.221837  5147 net.cpp:434] relu4 <- drop4
I1018 19:41:17.221839  5147 net.cpp:408] relu4 -> relu4
I1018 19:41:17.221957  5147 net.cpp:150] Setting up relu4
I1018 19:41:17.221964  5147 net.cpp:157] Top shape: 100 280 1 1 (28000)
I1018 19:41:17.221966  5147 net.cpp:165] Memory required for data: 111764400
I1018 19:41:17.221967  5147 layer_factory.hpp:77] Creating layer conv8
I1018 19:41:17.221972  5147 net.cpp:100] Creating Layer conv8
I1018 19:41:17.221974  5147 net.cpp:434] conv8 <- relu4
I1018 19:41:17.221977  5147 net.cpp:408] conv8 -> conv8
I1018 19:41:17.222913  5147 net.cpp:150] Setting up conv8
I1018 19:41:17.222921  5147 net.cpp:157] Top shape: 100 280 1 1 (28000)
I1018 19:41:17.222924  5147 net.cpp:165] Memory required for data: 111876400
I1018 19:41:17.222928  5147 layer_factory.hpp:77] Creating layer pool5
I1018 19:41:17.222932  5147 net.cpp:100] Creating Layer pool5
I1018 19:41:17.222934  5147 net.cpp:434] pool5 <- conv8
I1018 19:41:17.222937  5147 net.cpp:408] pool5 -> pool5
I1018 19:41:17.222965  5147 net.cpp:150] Setting up pool5
I1018 19:41:17.222970  5147 net.cpp:157] Top shape: 100 280 1 1 (28000)
I1018 19:41:17.222970  5147 net.cpp:165] Memory required for data: 111988400
I1018 19:41:17.222972  5147 layer_factory.hpp:77] Creating layer drop5
I1018 19:41:17.222975  5147 net.cpp:100] Creating Layer drop5
I1018 19:41:17.222977  5147 net.cpp:434] drop5 <- pool5
I1018 19:41:17.222981  5147 net.cpp:408] drop5 -> drop5
I1018 19:41:17.223006  5147 net.cpp:150] Setting up drop5
I1018 19:41:17.223017  5147 net.cpp:157] Top shape: 100 280 1 1 (28000)
I1018 19:41:17.223019  5147 net.cpp:165] Memory required for data: 112100400
I1018 19:41:17.223021  5147 layer_factory.hpp:77] Creating layer relu5
I1018 19:41:17.223026  5147 net.cpp:100] Creating Layer relu5
I1018 19:41:17.223027  5147 net.cpp:434] relu5 <- drop5
I1018 19:41:17.223029  5147 net.cpp:408] relu5 -> relu5
I1018 19:41:17.223227  5147 net.cpp:150] Setting up relu5
I1018 19:41:17.223235  5147 net.cpp:157] Top shape: 100 280 1 1 (28000)
I1018 19:41:17.223237  5147 net.cpp:165] Memory required for data: 112212400
I1018 19:41:17.223239  5147 layer_factory.hpp:77] Creating layer conv10
I1018 19:41:17.223243  5147 net.cpp:100] Creating Layer conv10
I1018 19:41:17.223245  5147 net.cpp:434] conv10 <- relu5
I1018 19:41:17.223250  5147 net.cpp:408] conv10 -> conv10
I1018 19:41:17.225189  5147 net.cpp:150] Setting up conv10
I1018 19:41:17.225198  5147 net.cpp:157] Top shape: 100 300 1 1 (30000)
I1018 19:41:17.225203  5147 net.cpp:165] Memory required for data: 112332400
I1018 19:41:17.225210  5147 layer_factory.hpp:77] Creating layer pool6
I1018 19:41:17.225215  5147 net.cpp:100] Creating Layer pool6
I1018 19:41:17.225219  5147 net.cpp:434] pool6 <- conv10
I1018 19:41:17.225225  5147 net.cpp:408] pool6 -> pool6
I1018 19:41:17.225255  5147 net.cpp:150] Setting up pool6
I1018 19:41:17.225260  5147 net.cpp:157] Top shape: 100 300 1 1 (30000)
I1018 19:41:17.225261  5147 net.cpp:165] Memory required for data: 112452400
I1018 19:41:17.225265  5147 layer_factory.hpp:77] Creating layer drop6
I1018 19:41:17.225270  5147 net.cpp:100] Creating Layer drop6
I1018 19:41:17.225272  5147 net.cpp:434] drop6 <- pool6
I1018 19:41:17.225277  5147 net.cpp:408] drop6 -> drop6
I1018 19:41:17.225302  5147 net.cpp:150] Setting up drop6
I1018 19:41:17.225306  5147 net.cpp:157] Top shape: 100 300 1 1 (30000)
I1018 19:41:17.225308  5147 net.cpp:165] Memory required for data: 112572400
I1018 19:41:17.225311  5147 layer_factory.hpp:77] Creating layer relu6
I1018 19:41:17.225314  5147 net.cpp:100] Creating Layer relu6
I1018 19:41:17.225317  5147 net.cpp:434] relu6 <- drop6
I1018 19:41:17.225318  5147 net.cpp:408] relu6 -> relu6
I1018 19:41:17.225438  5147 net.cpp:150] Setting up relu6
I1018 19:41:17.225443  5147 net.cpp:157] Top shape: 100 300 1 1 (30000)
I1018 19:41:17.225445  5147 net.cpp:165] Memory required for data: 112692400
I1018 19:41:17.225446  5147 layer_factory.hpp:77] Creating layer conv11
I1018 19:41:17.225451  5147 net.cpp:100] Creating Layer conv11
I1018 19:41:17.225453  5147 net.cpp:434] conv11 <- relu6
I1018 19:41:17.225456  5147 net.cpp:408] conv11 -> conv11
I1018 19:41:17.226227  5147 net.cpp:150] Setting up conv11
I1018 19:41:17.226235  5147 net.cpp:157] Top shape: 100 100 1 1 (10000)
I1018 19:41:17.226238  5147 net.cpp:165] Memory required for data: 112732400
I1018 19:41:17.226241  5147 layer_factory.hpp:77] Creating layer pool7
I1018 19:41:17.226245  5147 net.cpp:100] Creating Layer pool7
I1018 19:41:17.226248  5147 net.cpp:434] pool7 <- conv11
I1018 19:41:17.226253  5147 net.cpp:408] pool7 -> pool7
I1018 19:41:17.226282  5147 net.cpp:150] Setting up pool7
I1018 19:41:17.226286  5147 net.cpp:157] Top shape: 100 100 1 1 (10000)
I1018 19:41:17.226289  5147 net.cpp:165] Memory required for data: 112772400
I1018 19:41:17.226290  5147 layer_factory.hpp:77] Creating layer drop7
I1018 19:41:17.226294  5147 net.cpp:100] Creating Layer drop7
I1018 19:41:17.226297  5147 net.cpp:434] drop7 <- pool7
I1018 19:41:17.226300  5147 net.cpp:408] drop7 -> drop7
I1018 19:41:17.226325  5147 net.cpp:150] Setting up drop7
I1018 19:41:17.226328  5147 net.cpp:157] Top shape: 100 100 1 1 (10000)
I1018 19:41:17.226330  5147 net.cpp:165] Memory required for data: 112812400
I1018 19:41:17.226331  5147 layer_factory.hpp:77] Creating layer relu7
I1018 19:41:17.226338  5147 net.cpp:100] Creating Layer relu7
I1018 19:41:17.226341  5147 net.cpp:434] relu7 <- drop7
I1018 19:41:17.226343  5147 net.cpp:408] relu7 -> relu7
I1018 19:41:17.226462  5147 net.cpp:150] Setting up relu7
I1018 19:41:17.226475  5147 net.cpp:157] Top shape: 100 100 1 1 (10000)
I1018 19:41:17.226478  5147 net.cpp:165] Memory required for data: 112852400
I1018 19:41:17.226480  5147 layer_factory.hpp:77] Creating layer pool
I1018 19:41:17.226483  5147 net.cpp:100] Creating Layer pool
I1018 19:41:17.226486  5147 net.cpp:434] pool <- relu7
I1018 19:41:17.226490  5147 net.cpp:408] pool -> pool
I1018 19:41:17.226687  5147 net.cpp:150] Setting up pool
I1018 19:41:17.226693  5147 net.cpp:157] Top shape: 100 100 1 1 (10000)
I1018 19:41:17.226696  5147 net.cpp:165] Memory required for data: 112892400
I1018 19:41:17.226698  5147 layer_factory.hpp:77] Creating layer flatten
I1018 19:41:17.226703  5147 net.cpp:100] Creating Layer flatten
I1018 19:41:17.226706  5147 net.cpp:434] flatten <- pool
I1018 19:41:17.226711  5147 net.cpp:408] flatten -> flatten
I1018 19:41:17.226728  5147 net.cpp:150] Setting up flatten
I1018 19:41:17.226732  5147 net.cpp:157] Top shape: 100 100 (10000)
I1018 19:41:17.226733  5147 net.cpp:165] Memory required for data: 112932400
I1018 19:41:17.226737  5147 layer_factory.hpp:77] Creating layer score
I1018 19:41:17.226740  5147 net.cpp:100] Creating Layer score
I1018 19:41:17.226742  5147 net.cpp:434] score <- flatten
I1018 19:41:17.226745  5147 net.cpp:408] score -> score
I1018 19:41:17.226845  5147 net.cpp:150] Setting up score
I1018 19:41:17.226850  5147 net.cpp:157] Top shape: 100 10 (1000)
I1018 19:41:17.226850  5147 net.cpp:165] Memory required for data: 112936400
I1018 19:41:17.226855  5147 layer_factory.hpp:77] Creating layer score_score_0_split
I1018 19:41:17.226858  5147 net.cpp:100] Creating Layer score_score_0_split
I1018 19:41:17.226861  5147 net.cpp:434] score_score_0_split <- score
I1018 19:41:17.226866  5147 net.cpp:408] score_score_0_split -> score_score_0_split_0
I1018 19:41:17.226869  5147 net.cpp:408] score_score_0_split -> score_score_0_split_1
I1018 19:41:17.226894  5147 net.cpp:150] Setting up score_score_0_split
I1018 19:41:17.226898  5147 net.cpp:157] Top shape: 100 10 (1000)
I1018 19:41:17.226900  5147 net.cpp:157] Top shape: 100 10 (1000)
I1018 19:41:17.226902  5147 net.cpp:165] Memory required for data: 112944400
I1018 19:41:17.226903  5147 layer_factory.hpp:77] Creating layer accuracy
I1018 19:41:17.226907  5147 net.cpp:100] Creating Layer accuracy
I1018 19:41:17.226910  5147 net.cpp:434] accuracy <- score_score_0_split_0
I1018 19:41:17.226912  5147 net.cpp:434] accuracy <- label_data_1_split_0
I1018 19:41:17.226917  5147 net.cpp:408] accuracy -> accuracy
…
