…
  stage: ""
}
type: "Nesterov"
I1020 05:48:33.259002 11102 solver.cpp:81] Creating training net from train_net file: /home/adam/Honours/Honours-Project/mnist_pooling/max/leakyrelu/poolcnn_leakyrelu_train.prototxt
I1020 05:48:33.259301 11102 net.cpp:58] Initializing net from parameters: 
state {
  phase: TRAIN
  level: 0
  stage: ""
}
layer {
  name: "data"
  type: "Data"
  top: "data"
  top: "label"
  transform_param {
    scale: 0.0039215689
  }
  data_param {
    source: "../../../../data/mnist/mnist_train_lmdb"
    batch_size: 64
    backend: LMDB
  }
}
layer {
  name: "conv1"
  type: "Convolution"
  bottom: "data"
  top: "conv1"
  convolution_param {
    num_output: 192
    kernel_size: 5
    weight_filler {
      type: "xavier"
    }
  }
}
layer {
  name: "relu1"
  type: "ReLU"
  bottom: "conv1"
  top: "relu1"
  relu_param {
    negative_slope: 0.1
  }
}
layer {
  name: "drop1"
  type: "Dropout"
  bottom: "relu1"
  top: "drop1"
  dropout_param {
    dropout_ratio: 0
  }
}
layer {
  name: "pool1"
  type: "Pooling"
  bottom: "drop1"
  top: "pool1"
  pooling_param {
    pool: MAX
    kernel_size: 2
    stride: 2
  }
}
layer {
  name: "conv2"
  type: "Convolution"
  bottom: "pool1"
  top: "conv2"
  convolution_param {
    num_output: 192
    kernel_size: 1
    weight_filler {
      type: "xavier"
    }
  }
}
layer {
  name: "relu2"
  type: "ReLU"
  bottom: "conv2"
  top: "relu2"
  relu_param {
    negative_slope: 0.1
  }
}
layer {
  name: "conv3"
  type: "Convolution"
  bottom: "relu2"
  top: "conv3"
  convolution_param {
    num_output: 240
    kernel_size: 3
    weight_filler {
      type: "xavier"
    }
  }
}
layer {
  name: "relu3"
  type: "ReLU"
  bottom: "conv3"
  top: "relu3"
  relu_param {
    negative_slope: 0.1
  }
}
layer {
  name: "drop2"
  type: "Dropout"
  bottom: "relu3"
  top: "drop2"
  dropout_param {
    dropout_ratio: 0.1
  }
}
layer {
  name: "pool2"
  type: "Pooling"
  bottom: "drop2"
  top: "pool2"
  pooling_param {
    pool: MAX
    kernel_size: 2
    stride: 2
  }
}
layer {
  name: "conv4"
  type: "Convolution"
  bottom: "pool2"
  top: "conv4"
  convolution_param {
    num_output: 240
    kernel_size: 1
    weight_filler {
      type: "xavier"
    }
  }
}
layer {
  name: "relu4"
  type: "ReLU"
  bottom: "conv4"
  top: "relu4"
  relu_param {
    negative_slope: 0.1
  }
}
layer {
  name: "conv5"
  type: "Convolution"
  bottom: "relu4"
  top: "conv5"
  convolution_param {
    num_output: 260
    kernel_size: 2
    weight_filler {
      type: "xavier"
    }
  }
}
layer {
  name: "relu5"
  type: "ReLU"
  bottom: "conv5"
  top: "relu5"
  relu_param {
    negative_slope: 0.1
  }
}
layer {
  name: "drop3"
  type: "Dropout"
  bottom: "relu5"
  top: "drop3"
  dropout_param {
    dropout_ratio: 0.2
  }
}
layer {
  name: "pool3"
  type: "Pooling"
  bottom: "drop3"
  top: "pool3"
  pooling_param {
    pool: MAX
    kernel_size: 2
    stride: 2
  }
}
layer {
  name: "conv6"
  type: "Convolution"
  bottom: "pool3"
  top: "conv6"
  convolution_param {
    num_output: 260
    kernel_size: 1
    weight_filler {
      type: "xavier"
    }
  }
}
layer {
  name: "relu6"
  type: "ReLU"
  bottom: "conv6"
  top: "relu6"
  relu_param {
    negative_slope: 0.1
  }
}
layer {
  name: "conv7"
  type: "Convolution"
  bottom: "relu6"
  top: "conv7"
  convolution_param {
    num_output: 280
    kernel_size: 2
    weight_filler {
      type: "xavier"
    }
  }
}
layer {
  name: "relu7"
  type: "ReLU"
  bottom: "conv7"
  top: "relu7"
  relu_param {
    negative_slope: 0.1
  }
}
layer {
  name: "drop4"
  type: "Dropout"
  bottom: "relu7"
  top: "drop4"
  dropout_param {
    dropout_ratio: 0.3
  }
}
layer {
  name: "pool4"
  type: "Pooling"
  bottom: "drop4"
  top: "pool4"
  pooling_param {
    pool: MAX
    kernel_size: 2
    stride: 2
  }
}
layer {
  name: "conv8"
  type: "Convolution"
  bottom: "pool4"
  top: "conv8"
  convolution_param {
    num_output: 280
    kernel_size: 1
    weight_filler {
      type: "xavier"
    }
  }
}
layer {
  name: "relu8"
  type: "ReLU"
  bottom: "conv8"
  top: "relu8"
  relu_param {
    negative_slope: 0.1
  }
}
layer {
  name: "drop5"
  type: "Dropout"
  bottom: "relu8"
  top: "drop5"
  dropout_param {
    dropout_ratio: 0.4
  }
}
layer {
  name: "pool5"
  type: "Pooling"
  bottom: "drop5"
  top: "pool5"
  pooling_param {
    pool: MAX
    kernel_size: 2
    stride: 2
  }
}
layer {
  name: "conv10"
  type: "Convolution"
  bottom: "pool5"
  top: "conv10"
  convolution_param {
    num_output: 300
    kernel_size: 1
    weight_filler {
      type: "xavier"
    }
  }
}
layer {
  name: "relu10"
  type: "ReLU"
  bottom: "conv10"
  top: "relu10"
  relu_param {
    negative_slope: 0.1
  }
}
layer {
  name: "drop6"
  type: "Dropout"
  bottom: "relu10"
  top: "drop6"
  dropout_param {
    dropout_ratio: 0.5
  }
}
layer {
  name: "pool6"
  type: "Pooling"
  bottom: "drop6"
  top: "pool6"
  pooling_param {
    pool: MAX
    kernel_size: 2
    stride: 2
  }
}
layer {
  name: "conv11"
  type: "Convolution"
  bottom: "pool6"
  top: "conv11"
  convolution_param {
    num_output: 100
    kernel_size: 1
    weight_filler {
      type: "xavier"
    }
  }
}
layer {
  name: "relu11"
  type: "ReLU"
  bottom: "conv11"
  top: "relu11"
  relu_param {
    negative_slope: 0.1
  }
}
layer {
  name: "drop7"
  type: "Dropout"
  bottom: "relu11"
  top: "drop7"
  dropout_param {
    dropout_ratio: 0
  }
}
layer {
  name: "pool7"
  type: "Pooling"
  bottom: "drop7"
  top: "pool7"
  pooling_param {
    pool: MAX
    kernel_size: 2
    stride: 2
  }
}
layer {
  name: "score"
  type: "InnerProduct"
  bottom: "pool7"
  top: "score"
  inner_product_param {
    num_output: 10
    weight_filler {
      type: "gaussian"
    }
  }
}
layer {
  name: "accuracy"
  type: "Accuracy"
  bottom: "score"
  bottom: "label"
  top: "accuracy"
}
layer {
  name: "loss"
  type: "SoftmaxWithLoss"
  bottom: "score"
  bottom: "label"
  top: "loss"
}
I1020 05:48:33.259404 11102 layer_factory.hpp:77] Creating layer data
I1020 05:48:33.259780 11102 net.cpp:100] Creating Layer data
I1020 05:48:33.259788 11102 net.cpp:408] data -> data
I1020 05:48:33.259802 11102 net.cpp:408] data -> label
I1020 05:48:33.260387 11107 db_lmdb.cpp:35] Opened lmdb ../../../../data/mnist/mnist_train_lmdb
I1020 05:48:33.265919 11102 data_layer.cpp:41] output data size: 64,1,28,28
I1020 05:48:33.266484 11102 net.cpp:150] Setting up data
I1020 05:48:33.266496 11102 net.cpp:157] Top shape: 64 1 28 28 (50176)
I1020 05:48:33.266499 11102 net.cpp:157] Top shape: 64 (64)
I1020 05:48:33.266500 11102 net.cpp:165] Memory required for data: 200960
I1020 05:48:33.266507 11102 layer_factory.hpp:77] Creating layer label_data_1_split
I1020 05:48:33.266516 11102 net.cpp:100] Creating Layer label_data_1_split
I1020 05:48:33.266520 11102 net.cpp:434] label_data_1_split <- label
I1020 05:48:33.266530 11102 net.cpp:408] label_data_1_split -> label_data_1_split_0
I1020 05:48:33.266538 11102 net.cpp:408] label_data_1_split -> label_data_1_split_1
I1020 05:48:33.266566 11102 net.cpp:150] Setting up label_data_1_split
I1020 05:48:33.266568 11102 net.cpp:157] Top shape: 64 (64)
I1020 05:48:33.266571 11102 net.cpp:157] Top shape: 64 (64)
I1020 05:48:33.266572 11102 net.cpp:165] Memory required for data: 201472
I1020 05:48:33.266574 11102 layer_factory.hpp:77] Creating layer conv1
I1020 05:48:33.266587 11102 net.cpp:100] Creating Layer conv1
I1020 05:48:33.266588 11102 net.cpp:434] conv1 <- data
I1020 05:48:33.266592 11102 net.cpp:408] conv1 -> conv1
I1020 05:48:33.388401 11102 net.cpp:150] Setting up conv1
I1020 05:48:33.388438 11102 net.cpp:157] Top shape: 64 192 24 24 (7077888)
I1020 05:48:33.388440 11102 net.cpp:165] Memory required for data: 28513024
I1020 05:48:33.388458 11102 layer_factory.hpp:77] Creating layer relu1
I1020 05:48:33.388466 11102 net.cpp:100] Creating Layer relu1
I1020 05:48:33.388469 11102 net.cpp:434] relu1 <- conv1
I1020 05:48:33.388473 11102 net.cpp:408] relu1 -> relu1
I1020 05:48:33.388594 11102 net.cpp:150] Setting up relu1
I1020 05:48:33.388600 11102 net.cpp:157] Top shape: 64 192 24 24 (7077888)
I1020 05:48:33.388602 11102 net.cpp:165] Memory required for data: 56824576
I1020 05:48:33.388603 11102 layer_factory.hpp:77] Creating layer drop1
I1020 05:48:33.388609 11102 net.cpp:100] Creating Layer drop1
I1020 05:48:33.388612 11102 net.cpp:434] drop1 <- relu1
I1020 05:48:33.388613 11102 net.cpp:408] drop1 -> drop1
I1020 05:48:33.388638 11102 net.cpp:150] Setting up drop1
I1020 05:48:33.388641 11102 net.cpp:157] Top shape: 64 192 24 24 (7077888)
I1020 05:48:33.388643 11102 net.cpp:165] Memory required for data: 85136128
I1020 05:48:33.388644 11102 layer_factory.hpp:77] Creating layer pool1
I1020 05:48:33.388648 11102 net.cpp:100] Creating Layer pool1
I1020 05:48:33.388651 11102 net.cpp:434] pool1 <- drop1
I1020 05:48:33.388653 11102 net.cpp:408] pool1 -> pool1
I1020 05:48:33.388682 11102 net.cpp:150] Setting up pool1
I1020 05:48:33.388686 11102 net.cpp:157] Top shape: 64 192 12 12 (1769472)
I1020 05:48:33.388689 11102 net.cpp:165] Memory required for data: 92214016
I1020 05:48:33.388689 11102 layer_factory.hpp:77] Creating layer conv2
I1020 05:48:33.388695 11102 net.cpp:100] Creating Layer conv2
I1020 05:48:33.388697 11102 net.cpp:434] conv2 <- pool1
I1020 05:48:33.388701 11102 net.cpp:408] conv2 -> conv2
I1020 05:48:33.389508 11102 net.cpp:150] Setting up conv2
I1020 05:48:33.389515 11102 net.cpp:157] Top shape: 64 192 12 12 (1769472)
I1020 05:48:33.389518 11102 net.cpp:165] Memory required for data: 99291904
I1020 05:48:33.389523 11102 layer_factory.hpp:77] Creating layer relu2
I1020 05:48:33.389526 11102 net.cpp:100] Creating Layer relu2
I1020 05:48:33.389528 11102 net.cpp:434] relu2 <- conv2
I1020 05:48:33.389531 11102 net.cpp:408] relu2 -> relu2
I1020 05:48:33.389647 11102 net.cpp:150] Setting up relu2
I1020 05:48:33.389652 11102 net.cpp:157] Top shape: 64 192 12 12 (1769472)
I1020 05:48:33.389653 11102 net.cpp:165] Memory required for data: 106369792
I1020 05:48:33.389655 11102 layer_factory.hpp:77] Creating layer conv3
I1020 05:48:33.389662 11102 net.cpp:100] Creating Layer conv3
I1020 05:48:33.389663 11102 net.cpp:434] conv3 <- relu2
I1020 05:48:33.389667 11102 net.cpp:408] conv3 -> conv3
I1020 05:48:33.392073 11102 net.cpp:150] Setting up conv3
I1020 05:48:33.392082 11102 net.cpp:157] Top shape: 64 240 10 10 (1536000)
I1020 05:48:33.392084 11102 net.cpp:165] Memory required for data: 112513792
I1020 05:48:33.392089 11102 layer_factory.hpp:77] Creating layer relu3
I1020 05:48:33.392092 11102 net.cpp:100] Creating Layer relu3
I1020 05:48:33.392096 11102 net.cpp:434] relu3 <- conv3
I1020 05:48:33.392098 11102 net.cpp:408] relu3 -> relu3
I1020 05:48:33.392287 11102 net.cpp:150] Setting up relu3
I1020 05:48:33.392300 11102 net.cpp:157] Top shape: 64 240 10 10 (1536000)
I1020 05:48:33.392304 11102 net.cpp:165] Memory required for data: 118657792
I1020 05:48:33.392307 11102 layer_factory.hpp:77] Creating layer drop2
I1020 05:48:33.392309 11102 net.cpp:100] Creating Layer drop2
I1020 05:48:33.392312 11102 net.cpp:434] drop2 <- relu3
I1020 05:48:33.392315 11102 net.cpp:408] drop2 -> drop2
I1020 05:48:33.392338 11102 net.cpp:150] Setting up drop2
I1020 05:48:33.392343 11102 net.cpp:157] Top shape: 64 240 10 10 (1536000)
I1020 05:48:33.392343 11102 net.cpp:165] Memory required for data: 124801792
I1020 05:48:33.392346 11102 layer_factory.hpp:77] Creating layer pool2
I1020 05:48:33.392349 11102 net.cpp:100] Creating Layer pool2
I1020 05:48:33.392352 11102 net.cpp:434] pool2 <- drop2
I1020 05:48:33.392354 11102 net.cpp:408] pool2 -> pool2
I1020 05:48:33.392377 11102 net.cpp:150] Setting up pool2
I1020 05:48:33.392387 11102 net.cpp:157] Top shape: 64 240 5 5 (384000)
I1020 05:48:33.392390 11102 net.cpp:165] Memory required for data: 126337792
I1020 05:48:33.392390 11102 layer_factory.hpp:77] Creating layer conv4
I1020 05:48:33.392395 11102 net.cpp:100] Creating Layer conv4
I1020 05:48:33.392397 11102 net.cpp:434] conv4 <- pool2
I1020 05:48:33.392400 11102 net.cpp:408] conv4 -> conv4
I1020 05:48:33.393218 11102 net.cpp:150] Setting up conv4
I1020 05:48:33.393225 11102 net.cpp:157] Top shape: 64 240 5 5 (384000)
I1020 05:48:33.393227 11102 net.cpp:165] Memory required for data: 127873792
I1020 05:48:33.393231 11102 layer_factory.hpp:77] Creating layer relu4
I1020 05:48:33.393234 11102 net.cpp:100] Creating Layer relu4
I1020 05:48:33.393236 11102 net.cpp:434] relu4 <- conv4
I1020 05:48:33.393239 11102 net.cpp:408] relu4 -> relu4
I1020 05:48:33.393350 11102 net.cpp:150] Setting up relu4
I1020 05:48:33.393355 11102 net.cpp:157] Top shape: 64 240 5 5 (384000)
I1020 05:48:33.393357 11102 net.cpp:165] Memory required for data: 129409792
I1020 05:48:33.393358 11102 layer_factory.hpp:77] Creating layer conv5
I1020 05:48:33.393363 11102 net.cpp:100] Creating Layer conv5
I1020 05:48:33.393365 11102 net.cpp:434] conv5 <- relu4
I1020 05:48:33.393369 11102 net.cpp:408] conv5 -> conv5
I1020 05:48:33.395110 11102 net.cpp:150] Setting up conv5
I1020 05:48:33.395118 11102 net.cpp:157] Top shape: 64 260 4 4 (266240)
I1020 05:48:33.395120 11102 net.cpp:165] Memory required for data: 130474752
I1020 05:48:33.395126 11102 layer_factory.hpp:77] Creating layer relu5
I1020 05:48:33.395130 11102 net.cpp:100] Creating Layer relu5
I1020 05:48:33.395133 11102 net.cpp:434] relu5 <- conv5
I1020 05:48:33.395135 11102 net.cpp:408] relu5 -> relu5
I1020 05:48:33.395244 11102 net.cpp:150] Setting up relu5
I1020 05:48:33.395251 11102 net.cpp:157] Top shape: 64 260 4 4 (266240)
I1020 05:48:33.395251 11102 net.cpp:165] Memory required for data: 131539712
I1020 05:48:33.395253 11102 layer_factory.hpp:77] Creating layer drop3
I1020 05:48:33.395258 11102 net.cpp:100] Creating Layer drop3
I1020 05:48:33.395261 11102 net.cpp:434] drop3 <- relu5
I1020 05:48:33.395263 11102 net.cpp:408] drop3 -> drop3
I1020 05:48:33.395283 11102 net.cpp:150] Setting up drop3
I1020 05:48:33.395288 11102 net.cpp:157] Top shape: 64 260 4 4 (266240)
I1020 05:48:33.395289 11102 net.cpp:165] Memory required for data: 132604672
I1020 05:48:33.395292 11102 layer_factory.hpp:77] Creating layer pool3
I1020 05:48:33.395293 11102 net.cpp:100] Creating Layer pool3
I1020 05:48:33.395297 11102 net.cpp:434] pool3 <- drop3
I1020 05:48:33.395299 11102 net.cpp:408] pool3 -> pool3
I1020 05:48:33.395320 11102 net.cpp:150] Setting up pool3
I1020 05:48:33.395323 11102 net.cpp:157] Top shape: 64 260 2 2 (66560)
I1020 05:48:33.395325 11102 net.cpp:165] Memory required for data: 132870912
I1020 05:48:33.395328 11102 layer_factory.hpp:77] Creating layer conv6
I1020 05:48:33.395333 11102 net.cpp:100] Creating Layer conv6
I1020 05:48:33.395334 11102 net.cpp:434] conv6 <- pool3
I1020 05:48:33.395339 11102 net.cpp:408] conv6 -> conv6
I1020 05:48:33.396441 11102 net.cpp:150] Setting up conv6
I1020 05:48:33.396450 11102 net.cpp:157] Top shape: 64 260 2 2 (66560)
I1020 05:48:33.396451 11102 net.cpp:165] Memory required for data: 133137152
I1020 05:48:33.396456 11102 layer_factory.hpp:77] Creating layer relu6
I1020 05:48:33.396459 11102 net.cpp:100] Creating Layer relu6
I1020 05:48:33.396461 11102 net.cpp:434] relu6 <- conv6
I1020 05:48:33.396466 11102 net.cpp:408] relu6 -> relu6
I1020 05:48:33.396652 11102 net.cpp:150] Setting up relu6
I1020 05:48:33.396659 11102 net.cpp:157] Top shape: 64 260 2 2 (66560)
I1020 05:48:33.396661 11102 net.cpp:165] Memory required for data: 133403392
I1020 05:48:33.396662 11102 layer_factory.hpp:77] Creating layer conv7
I1020 05:48:33.396667 11102 net.cpp:100] Creating Layer conv7
I1020 05:48:33.396669 11102 net.cpp:434] conv7 <- relu6
I1020 05:48:33.396672 11102 net.cpp:408] conv7 -> conv7
I1020 05:48:33.398581 11102 net.cpp:150] Setting up conv7
I1020 05:48:33.398588 11102 net.cpp:157] Top shape: 64 280 1 1 (17920)
I1020 05:48:33.398598 11102 net.cpp:165] Memory required for data: 133475072
I1020 05:48:33.398603 11102 layer_factory.hpp:77] Creating layer relu7
I1020 05:48:33.398607 11102 net.cpp:100] Creating Layer relu7
I1020 05:48:33.398608 11102 net.cpp:434] relu7 <- conv7
I1020 05:48:33.398612 11102 net.cpp:408] relu7 -> relu7
I1020 05:48:33.398723 11102 net.cpp:150] Setting up relu7
I1020 05:48:33.398730 11102 net.cpp:157] Top shape: 64 280 1 1 (17920)
I1020 05:48:33.398731 11102 net.cpp:165] Memory required for data: 133546752
I1020 05:48:33.398732 11102 layer_factory.hpp:77] Creating layer drop4
I1020 05:48:33.398736 11102 net.cpp:100] Creating Layer drop4
I1020 05:48:33.398738 11102 net.cpp:434] drop4 <- relu7
I1020 05:48:33.398741 11102 net.cpp:408] drop4 -> drop4
I1020 05:48:33.398764 11102 net.cpp:150] Setting up drop4
I1020 05:48:33.398767 11102 net.cpp:157] Top shape: 64 280 1 1 (17920)
I1020 05:48:33.398769 11102 net.cpp:165] Memory required for data: 133618432
I1020 05:48:33.398772 11102 layer_factory.hpp:77] Creating layer pool4
I1020 05:48:33.398774 11102 net.cpp:100] Creating Layer pool4
I1020 05:48:33.398777 11102 net.cpp:434] pool4 <- drop4
I1020 05:48:33.398779 11102 net.cpp:408] pool4 -> pool4
I1020 05:48:33.398802 11102 net.cpp:150] Setting up pool4
I1020 05:48:33.398805 11102 net.cpp:157] Top shape: 64 280 1 1 (17920)
I1020 05:48:33.398807 11102 net.cpp:165] Memory required for data: 133690112
I1020 05:48:33.398808 11102 layer_factory.hpp:77] Creating layer conv8
I1020 05:48:33.398813 11102 net.cpp:100] Creating Layer conv8
I1020 05:48:33.398815 11102 net.cpp:434] conv8 <- pool4
I1020 05:48:33.398818 11102 net.cpp:408] conv8 -> conv8
I1020 05:48:33.399806 11102 net.cpp:150] Setting up conv8
I1020 05:48:33.399816 11102 net.cpp:157] Top shape: 64 280 1 1 (17920)
I1020 05:48:33.399817 11102 net.cpp:165] Memory required for data: 133761792
I1020 05:48:33.399821 11102 layer_factory.hpp:77] Creating layer relu8
I1020 05:48:33.399824 11102 net.cpp:100] Creating Layer relu8
I1020 05:48:33.399827 11102 net.cpp:434] relu8 <- conv8
I1020 05:48:33.399832 11102 net.cpp:408] relu8 -> relu8
I1020 05:48:33.399971 11102 net.cpp:150] Setting up relu8
I1020 05:48:33.399977 11102 net.cpp:157] Top shape: 64 280 1 1 (17920)
I1020 05:48:33.399979 11102 net.cpp:165] Memory required for data: 133833472
I1020 05:48:33.399981 11102 layer_factory.hpp:77] Creating layer drop5
I1020 05:48:33.399986 11102 net.cpp:100] Creating Layer drop5
I1020 05:48:33.399987 11102 net.cpp:434] drop5 <- relu8
I1020 05:48:33.399991 11102 net.cpp:408] drop5 -> drop5
I1020 05:48:33.400014 11102 net.cpp:150] Setting up drop5
I1020 05:48:33.400017 11102 net.cpp:157] Top shape: 64 280 1 1 (17920)
I1020 05:48:33.400019 11102 net.cpp:165] Memory required for data: 133905152
I1020 05:48:33.400022 11102 layer_factory.hpp:77] Creating layer pool5
I1020 05:48:33.400024 11102 net.cpp:100] Creating Layer pool5
I1020 05:48:33.400027 11102 net.cpp:434] pool5 <- drop5
I1020 05:48:33.400029 11102 net.cpp:408] pool5 -> pool5
I1020 05:48:33.400053 11102 net.cpp:150] Setting up pool5
I1020 05:48:33.400056 11102 net.cpp:157] Top shape: 64 280 1 1 (17920)
I1020 05:48:33.400058 11102 net.cpp:165] Memory required for data: 133976832
I1020 05:48:33.400059 11102 layer_factory.hpp:77] Creating layer conv10
I1020 05:48:33.400064 11102 net.cpp:100] Creating Layer conv10
I1020 05:48:33.400065 11102 net.cpp:434] conv10 <- pool5
I1020 05:48:33.400069 11102 net.cpp:408] conv10 -> conv10
I1020 05:48:33.401070 11102 net.cpp:150] Setting up conv10
I1020 05:48:33.401082 11102 net.cpp:157] Top shape: 64 300 1 1 (19200)
I1020 05:48:33.401083 11102 net.cpp:165] Memory required for data: 134053632
I1020 05:48:33.401090 11102 layer_factory.hpp:77] Creating layer relu10
I1020 05:48:33.401093 11102 net.cpp:100] Creating Layer relu10
I1020 05:48:33.401096 11102 net.cpp:434] relu10 <- conv10
I1020 05:48:33.401099 11102 net.cpp:408] relu10 -> relu10
I1020 05:48:33.401721 11102 net.cpp:150] Setting up relu10
I1020 05:48:33.401728 11102 net.cpp:157] Top shape: 64 300 1 1 (19200)
I1020 05:48:33.401741 11102 net.cpp:165] Memory required for data: 134130432
I1020 05:48:33.401743 11102 layer_factory.hpp:77] Creating layer drop6
I1020 05:48:33.401747 11102 net.cpp:100] Creating Layer drop6
I1020 05:48:33.401749 11102 net.cpp:434] drop6 <- relu10
I1020 05:48:33.401753 11102 net.cpp:408] drop6 -> drop6
I1020 05:48:33.401779 11102 net.cpp:150] Setting up drop6
I1020 05:48:33.401783 11102 net.cpp:157] Top shape: 64 300 1 1 (19200)
I1020 05:48:33.401785 11102 net.cpp:165] Memory required for data: 134207232
I1020 05:48:33.401787 11102 layer_factory.hpp:77] Creating layer pool6
I1020 05:48:33.401790 11102 net.cpp:100] Creating Layer pool6
I1020 05:48:33.401793 11102 net.cpp:434] pool6 <- drop6
I1020 05:48:33.401795 11102 net.cpp:408] pool6 -> pool6
I1020 05:48:33.401818 11102 net.cpp:150] Setting up pool6
I1020 05:48:33.401821 11102 net.cpp:157] Top shape: 64 300 1 1 (19200)
I1020 05:48:33.401823 11102 net.cpp:165] Memory required for data: 134284032
I1020 05:48:33.401823 11102 layer_factory.hpp:77] Creating layer conv11
I1020 05:48:33.401832 11102 net.cpp:100] Creating Layer conv11
I1020 05:48:33.401835 11102 net.cpp:434] conv11 <- pool6
I1020 05:48:33.401839 11102 net.cpp:408] conv11 -> conv11
I1020 05:48:33.402835 11102 net.cpp:150] Setting up conv11
I1020 05:48:33.402843 11102 net.cpp:157] Top shape: 64 100 1 1 (6400)
I1020 05:48:33.402845 11102 net.cpp:165] Memory required for data: 134309632
I1020 05:48:33.402849 11102 layer_factory.hpp:77] Creating layer relu11
I1020 05:48:33.402853 11102 net.cpp:100] Creating Layer relu11
I1020 05:48:33.402854 11102 net.cpp:434] relu11 <- conv11
I1020 05:48:33.402858 11102 net.cpp:408] relu11 -> relu11
I1020 05:48:33.402968 11102 net.cpp:150] Setting up relu11
I1020 05:48:33.402976 11102 net.cpp:157] Top shape: 64 100 1 1 (6400)
I1020 05:48:33.402977 11102 net.cpp:165] Memory required for data: 134335232
I1020 05:48:33.402978 11102 layer_factory.hpp:77] Creating layer drop7
I1020 05:48:33.402981 11102 net.cpp:100] Creating Layer drop7
I1020 05:48:33.402983 11102 net.cpp:434] drop7 <- relu11
I1020 05:48:33.402987 11102 net.cpp:408] drop7 -> drop7
I1020 05:48:33.403010 11102 net.cpp:150] Setting up drop7
I1020 05:48:33.403013 11102 net.cpp:157] Top shape: 64 100 1 1 (6400)
I1020 05:48:33.403015 11102 net.cpp:165] Memory required for data: 134360832
I1020 05:48:33.403017 11102 layer_factory.hpp:77] Creating layer pool7
I1020 05:48:33.403020 11102 net.cpp:100] Creating Layer pool7
I1020 05:48:33.403022 11102 net.cpp:434] pool7 <- drop7
I1020 05:48:33.403026 11102 net.cpp:408] pool7 -> pool7
I1020 05:48:33.403049 11102 net.cpp:150] Setting up pool7
I1020 05:48:33.403053 11102 net.cpp:157] Top shape: 64 100 1 1 (6400)
I1020 05:48:33.403054 11102 net.cpp:165] Memory required for data: 134386432
I1020 05:48:33.403056 11102 layer_factory.hpp:77] Creating layer score
I1020 05:48:33.403061 11102 net.cpp:100] Creating Layer score
I1020 05:48:33.403064 11102 net.cpp:434] score <- pool7
I1020 05:48:33.403067 11102 net.cpp:408] score -> score
I1020 05:48:33.403167 11102 net.cpp:150] Setting up score
I1020 05:48:33.403172 11102 net.cpp:157] Top shape: 64 10 (640)
I1020 05:48:33.403173 11102 net.cpp:165] Memory required for data: 134388992
I1020 05:48:33.403177 11102 layer_factory.hpp:77] Creating layer score_score_0_split
I1020 05:48:33.403180 11102 net.cpp:100] Creating Layer score_score_0_split
I1020 05:48:33.403182 11102 net.cpp:434] score_score_0_split <- score
I1020 05:48:33.403187 11102 net.cpp:408] score_score_0_split -> score_score_0_split_0
I1020 05:48:33.403192 11102 net.cpp:408] score_score_0_split -> score_score_0_split_1
I1020 05:48:33.403211 11102 net.cpp:150] Setting up score_score_0_split
I1020 05:48:33.403215 11102 net.cpp:157] Top shape: 64 10 (640)
I1020 05:48:33.403218 11102 net.cpp:157] Top shape: 64 10 (640)
I1020 05:48:33.403219 11102 net.cpp:165] Memory required for data: 134394112
I1020 05:48:33.403220 11102 layer_factory.hpp:77] Creating layer accuracy
I1020 05:48:33.403226 11102 net.cpp:100] Creating Layer accuracy
I1020 05:48:33.403228 11102 net.cpp:434] accuracy <- score_score_0_split_0
I1020 05:48:33.403237 11102 net.cpp:434] accuracy <- label_data_1_split_0
I1020 05:48:33.403241 11102 net.cpp:408] accuracy -> accuracy
…
I1020 05:48:33.403647 11102 net.cpp:283] Network initialization done.
I1020 05:48:33.403838 11102 solver.cpp:181] Creating test net (#0) specified by test_net file: /home/adam/Honours/Honours-Project/mnist_pooling/max/leakyrelu/poolcnn_leakyrelu_test.prototxt
I1020 05:48:33.403957 11102 net.cpp:58] Initializing net from parameters: 
state {
  phase: TEST
}
layer {
  name: "data"
  type: "Data"
  top: "data"
  top: "label"
  transform_param {
    scale: 0.0039215689
  }
  data_param {
    source: "../../../../data/mnist/mnist_test_lmdb"
    batch_size: 100
    backend: LMDB
  }
}
layer {
  name: "conv1"
  type: "Convolution"
  bottom: "data"
  top: "conv1"
  convolution_param {
    num_output: 192
    kernel_size: 5
    weight_filler {
      type: "xavier"
    }
  }
}
layer {
  name: "relu1"
  type: "ReLU"
  bottom: "conv1"
  top: "relu1"
  relu_param {
    negative_slope: 0.1
  }
}
layer {
  name: "drop1"
  type: "Dropout"
  bottom: "relu1"
  top: "drop1"
  dropout_param {
    dropout_ratio: 0
  }
}
layer {
  name: "pool1"
  type: "Pooling"
  bottom: "drop1"
  top: "pool1"
  pooling_param {
    pool: MAX
    kernel_size: 2
    stride: 2
  }
}
layer {
  name: "conv2"
  type: "Convolution"
  bottom: "pool1"
  top: "conv2"
  convolution_param {
    num_output: 192
    kernel_size: 1
    weight_filler {
      type: "xavier"
    }
  }
}
layer {
  name: "relu2"
  type: "ReLU"
  bottom: "conv2"
  top: "relu2"
  relu_param {
    negative_slope: 0.1
  }
}
layer {
  name: "conv3"
  type: "Convolution"
  bottom: "relu2"
  top: "conv3"
  convolution_param {
    num_output: 240
    kernel_size: 3
    weight_filler {
      type: "xavier"
    }
  }
}
layer {
  name: "relu3"
  type: "ReLU"
  bottom: "conv3"
  top: "relu3"
  relu_param {
    negative_slope: 0.1
  }
}
layer {
  name: "drop2"
  type: "Dropout"
  bottom: "relu3"
  top: "drop2"
  dropout_param {
    dropout_ratio: 0.1
  }
}
layer {
  name: "pool2"
  type: "Pooling"
  bottom: "drop2"
  top: "pool2"
  pooling_param {
    pool: MAX
    kernel_size: 2
    stride: 2
  }
}
layer {
  name: "conv4"
  type: "Convolution"
  bottom: "pool2"
  top: "conv4"
  convolution_param {
    num_output: 240
    kernel_size: 1
    weight_filler {
      type: "xavier"
    }
  }
}
layer {
  name: "relu4"
  type: "ReLU"
  bottom: "conv4"
  top: "relu4"
  relu_param {
    negative_slope: 0.1
  }
}
layer {
  name: "conv5"
  type: "Convolution"
  bottom: "relu4"
  top: "conv5"
  convolution_param {
    num_output: 260
    kernel_size: 2
    weight_filler {
      type: "xavier"
    }
  }
}
layer {
  name: "relu5"
  type: "ReLU"
  bottom: "conv5"
  top: "relu5"
  relu_param {
    negative_slope: 0.1
  }
}
layer {
  name: "drop3"
  type: "Dropout"
  bottom: "relu5"
  top: "drop3"
  dropout_param {
    dropout_ratio: 0.2
  }
}
layer {
  name: "pool3"
  type: "Pooling"
  bottom: "drop3"
  top: "pool3"
  pooling_param {
    pool: MAX
    kernel_size: 2
    stride: 2
  }
}
layer {
  name: "conv6"
  type: "Convolution"
  bottom: "pool3"
  top: "conv6"
  convolution_param {
    num_output: 260
    kernel_size: 1
    weight_filler {
      type: "xavier"
    }
  }
}
layer {
  name: "relu6"
  type: "ReLU"
  bottom: "conv6"
  top: "relu6"
  relu_param {
    negative_slope: 0.1
  }
}
layer {
  name: "conv7"
  type: "Convolution"
  bottom: "relu6"
  top: "conv7"
  convolution_param {
    num_output: 280
    kernel_size: 2
    weight_filler {
      type: "xavier"
    }
  }
}
layer {
  name: "relu7"
  type: "ReLU"
  bottom: "conv7"
  top: "relu7"
  relu_param {
    negative_slope: 0.1
  }
}
layer {
  name: "drop4"
  type: "Dropout"
  bottom: "relu7"
  top: "drop4"
  dropout_param {
    dropout_ratio: 0.3
  }
}
layer {
  name: "pool4"
  type: "Pooling"
  bottom: "drop4"
  top: "pool4"
  pooling_param {
    pool: MAX
    kernel_size: 2
    stride: 2
  }
}
layer {
  name: "conv8"
  type: "Convolution"
  bottom: "pool4"
  top: "conv8"
  convolution_param {
    num_output: 280
    kernel_size: 1
    weight_filler {
      type: "xavier"
    }
  }
}
layer {
  name: "relu8"
  type: "ReLU"
  bottom: "conv8"
  top: "relu8"
  relu_param {
    negative_slope: 0.1
  }
}
layer {
  name: "drop5"
  type: "Dropout"
  bottom: "relu8"
  top: "drop5"
  dropout_param {
    dropout_ratio: 0.4
  }
}
layer {
  name: "pool5"
  type: "Pooling"
  bottom: "drop5"
  top: "pool5"
  pooling_param {
    pool: MAX
    kernel_size: 2
    stride: 2
  }
}
layer {
  name: "conv10"
  type: "Convolution"
  bottom: "pool5"
  top: "conv10"
  convolution_param {
    num_output: 300
    kernel_size: 1
    weight_filler {
      type: "xavier"
    }
  }
}
layer {
  name: "relu10"
  type: "ReLU"
  bottom: "conv10"
  top: "relu10"
  relu_param {
    negative_slope: 0.1
  }
}
layer {
  name: "drop6"
  type: "Dropout"
  bottom: "relu10"
  top: "drop6"
  dropout_param {
    dropout_ratio: 0.5
  }
}
layer {
  name: "pool6"
  type: "Pooling"
  bottom: "drop6"
  top: "pool6"
  pooling_param {
    pool: MAX
    kernel_size: 2
    stride: 2
  }
}
layer {
  name: "conv11"
  type: "Convolution"
  bottom: "pool6"
  top: "conv11"
  convolution_param {
    num_output: 100
    kernel_size: 1
    weight_filler {
      type: "xavier"
    }
  }
}
layer {
  name: "relu11"
  type: "ReLU"
  bottom: "conv11"
  top: "relu11"
  relu_param {
    negative_slope: 0.1
  }
}
layer {
  name: "drop7"
  type: "Dropout"
  bottom: "relu11"
  top: "drop7"
  dropout_param {
    dropout_ratio: 0
  }
}
layer {
  name: "pool7"
  type: "Pooling"
  bottom: "drop7"
  top: "pool7"
  pooling_param {
    pool: MAX
    kernel_size: 2
    stride: 2
  }
}
layer {
  name: "score"
  type: "InnerProduct"
  bottom: "pool7"
  top: "score"
  inner_product_param {
    num_output: 10
    weight_filler {
      type: "gaussian"
    }
  }
}
layer {
  name: "accuracy"
  type: "Accuracy"
  bottom: "score"
  bottom: "label"
  top: "accuracy"
}
layer {
  name: "loss"
  type: "SoftmaxWithLoss"
  bottom: "score"
  bottom: "label"
  top: "loss"
}
I1020 05:48:33.404033 11102 layer_factory.hpp:77] Creating layer data
I1020 05:48:33.404111 11102 net.cpp:100] Creating Layer data
I1020 05:48:33.404116 11102 net.cpp:408] data -> data
I1020 05:48:33.404132 11102 net.cpp:408] data -> label
I1020 05:48:33.404691 11109 db_lmdb.cpp:35] Opened lmdb ../../../../data/mnist/mnist_test_lmdb
I1020 05:48:33.404806 11102 data_layer.cpp:41] output data size: 100,1,28,28
I1020 05:48:33.405531 11102 net.cpp:150] Setting up data
I1020 05:48:33.405540 11102 net.cpp:157] Top shape: 100 1 28 28 (78400)
I1020 05:48:33.405544 11102 net.cpp:157] Top shape: 100 (100)
I1020 05:48:33.405544 11102 net.cpp:165] Memory required for data: 314000
I1020 05:48:33.405547 11102 layer_factory.hpp:77] Creating layer label_data_1_split
I1020 05:48:33.405552 11102 net.cpp:100] Creating Layer label_data_1_split
I1020 05:48:33.405555 11102 net.cpp:434] label_data_1_split <- label
I1020 05:48:33.405558 11102 net.cpp:408] label_data_1_split -> label_data_1_split_0
I1020 05:48:33.405565 11102 net.cpp:408] label_data_1_split -> label_data_1_split_1
I1020 05:48:33.405601 11102 net.cpp:150] Setting up label_data_1_split
I1020 05:48:33.405606 11102 net.cpp:157] Top shape: 100 (100)
I1020 05:48:33.405608 11102 net.cpp:157] Top shape: 100 (100)
I1020 05:48:33.405611 11102 net.cpp:165] Memory required for data: 314800
I1020 05:48:33.405611 11102 layer_factory.hpp:77] Creating layer conv1
I1020 05:48:33.405618 11102 net.cpp:100] Creating Layer conv1
I1020 05:48:33.405619 11102 net.cpp:434] conv1 <- data
I1020 05:48:33.405623 11102 net.cpp:408] conv1 -> conv1
I1020 05:48:33.406424 11102 net.cpp:150] Setting up conv1
I1020 05:48:33.406433 11102 net.cpp:157] Top shape: 100 192 24 24 (11059200)
I1020 05:48:33.406435 11102 net.cpp:165] Memory required for data: 44551600
I1020 05:48:33.406442 11102 layer_factory.hpp:77] Creating layer relu1
I1020 05:48:33.406447 11102 net.cpp:100] Creating Layer relu1
I1020 05:48:33.406450 11102 net.cpp:434] relu1 <- conv1
I1020 05:48:33.406452 11102 net.cpp:408] relu1 -> relu1
I1020 05:48:33.406637 11102 net.cpp:150] Setting up relu1
I1020 05:48:33.406652 11102 net.cpp:157] Top shape: 100 192 24 24 (11059200)
I1020 05:48:33.406654 11102 net.cpp:165] Memory required for data: 88788400
I1020 05:48:33.406657 11102 layer_factory.hpp:77] Creating layer drop1
I1020 05:48:33.406662 11102 net.cpp:100] Creating Layer drop1
I1020 05:48:33.406664 11102 net.cpp:434] drop1 <- relu1
I1020 05:48:33.406669 11102 net.cpp:408] drop1 -> drop1
I1020 05:48:33.406694 11102 net.cpp:150] Setting up drop1
I1020 05:48:33.406698 11102 net.cpp:157] Top shape: 100 192 24 24 (11059200)
I1020 05:48:33.406700 11102 net.cpp:165] Memory required for data: 133025200
I1020 05:48:33.406702 11102 layer_factory.hpp:77] Creating layer pool1
I1020 05:48:33.406705 11102 net.cpp:100] Creating Layer pool1
I1020 05:48:33.406708 11102 net.cpp:434] pool1 <- drop1
I1020 05:48:33.406710 11102 net.cpp:408] pool1 -> pool1
I1020 05:48:33.406734 11102 net.cpp:150] Setting up pool1
I1020 05:48:33.406738 11102 net.cpp:157] Top shape: 100 192 12 12 (2764800)
I1020 05:48:33.406740 11102 net.cpp:165] Memory required for data: 144084400
I1020 05:48:33.406741 11102 layer_factory.hpp:77] Creating layer conv2
I1020 05:48:33.406746 11102 net.cpp:100] Creating Layer conv2
I1020 05:48:33.406752 11102 net.cpp:434] conv2 <- pool1
I1020 05:48:33.406756 11102 net.cpp:408] conv2 -> conv2
I1020 05:48:33.407595 11102 net.cpp:150] Setting up conv2
I1020 05:48:33.407606 11102 net.cpp:157] Top shape: 100 192 12 12 (2764800)
I1020 05:48:33.407610 11102 net.cpp:165] Memory required for data: 155143600
I1020 05:48:33.407616 11102 layer_factory.hpp:77] Creating layer relu2
I1020 05:48:33.407620 11102 net.cpp:100] Creating Layer relu2
I1020 05:48:33.407622 11102 net.cpp:434] relu2 <- conv2
I1020 05:48:33.407625 11102 net.cpp:408] relu2 -> relu2
I1020 05:48:33.407745 11102 net.cpp:150] Setting up relu2
I1020 05:48:33.407752 11102 net.cpp:157] Top shape: 100 192 12 12 (2764800)
I1020 05:48:33.407753 11102 net.cpp:165] Memory required for data: 166202800
I1020 05:48:33.407755 11102 layer_factory.hpp:77] Creating layer conv3
I1020 05:48:33.407763 11102 net.cpp:100] Creating Layer conv3
I1020 05:48:33.407764 11102 net.cpp:434] conv3 <- relu2
I1020 05:48:33.407773 11102 net.cpp:408] conv3 -> conv3
I1020 05:48:33.410260 11102 net.cpp:150] Setting up conv3
I1020 05:48:33.410269 11102 net.cpp:157] Top shape: 100 240 10 10 (2400000)
I1020 05:48:33.410271 11102 net.cpp:165] Memory required for data: 175802800
I1020 05:48:33.410277 11102 layer_factory.hpp:77] Creating layer relu3
I1020 05:48:33.410281 11102 net.cpp:100] Creating Layer relu3
I1020 05:48:33.410284 11102 net.cpp:434] relu3 <- conv3
I1020 05:48:33.410287 11102 net.cpp:408] relu3 -> relu3
I1020 05:48:33.410480 11102 net.cpp:150] Setting up relu3
I1020 05:48:33.410487 11102 net.cpp:157] Top shape: 100 240 10 10 (2400000)
I1020 05:48:33.410490 11102 net.cpp:165] Memory required for data: 185402800
I1020 05:48:33.410491 11102 layer_factory.hpp:77] Creating layer drop2
I1020 05:48:33.410495 11102 net.cpp:100] Creating Layer drop2
I1020 05:48:33.410497 11102 net.cpp:434] drop2 <- relu3
I1020 05:48:33.410501 11102 net.cpp:408] drop2 -> drop2
I1020 05:48:33.410524 11102 net.cpp:150] Setting up drop2
I1020 05:48:33.410528 11102 net.cpp:157] Top shape: 100 240 10 10 (2400000)
I1020 05:48:33.410531 11102 net.cpp:165] Memory required for data: 195002800
I1020 05:48:33.410532 11102 layer_factory.hpp:77] Creating layer pool2
I1020 05:48:33.410534 11102 net.cpp:100] Creating Layer pool2
I1020 05:48:33.410537 11102 net.cpp:434] pool2 <- drop2
I1020 05:48:33.410539 11102 net.cpp:408] pool2 -> pool2
I1020 05:48:33.410563 11102 net.cpp:150] Setting up pool2
I1020 05:48:33.410567 11102 net.cpp:157] Top shape: 100 240 5 5 (600000)
I1020 05:48:33.410567 11102 net.cpp:165] Memory required for data: 197402800
I1020 05:48:33.410569 11102 layer_factory.hpp:77] Creating layer conv4
I1020 05:48:33.410575 11102 net.cpp:100] Creating Layer conv4
I1020 05:48:33.410576 11102 net.cpp:434] conv4 <- pool2
I1020 05:48:33.410579 11102 net.cpp:408] conv4 -> conv4
I1020 05:48:33.411419 11102 net.cpp:150] Setting up conv4
I1020 05:48:33.411434 11102 net.cpp:157] Top shape: 100 240 5 5 (600000)
I1020 05:48:33.411437 11102 net.cpp:165] Memory required for data: 199802800
I1020 05:48:33.411439 11102 layer_factory.hpp:77] Creating layer relu4
I1020 05:48:33.411443 11102 net.cpp:100] Creating Layer relu4
I1020 05:48:33.411447 11102 net.cpp:434] relu4 <- conv4
I1020 05:48:33.411448 11102 net.cpp:408] relu4 -> relu4
I1020 05:48:33.411568 11102 net.cpp:150] Setting up relu4
I1020 05:48:33.411574 11102 net.cpp:157] Top shape: 100 240 5 5 (600000)
I1020 05:48:33.411576 11102 net.cpp:165] Memory required for data: 202202800
I1020 05:48:33.411578 11102 layer_factory.hpp:77] Creating layer conv5
I1020 05:48:33.411582 11102 net.cpp:100] Creating Layer conv5
I1020 05:48:33.411584 11102 net.cpp:434] conv5 <- relu4
I1020 05:48:33.411587 11102 net.cpp:408] conv5 -> conv5
I1020 05:48:33.413472 11102 net.cpp:150] Setting up conv5
I1020 05:48:33.413480 11102 net.cpp:157] Top shape: 100 260 4 4 (416000)
I1020 05:48:33.413482 11102 net.cpp:165] Memory required for data: 203866800
I1020 05:48:33.413489 11102 layer_factory.hpp:77] Creating layer relu5
I1020 05:48:33.413493 11102 net.cpp:100] Creating Layer relu5
I1020 05:48:33.413496 11102 net.cpp:434] relu5 <- conv5
I1020 05:48:33.413498 11102 net.cpp:408] relu5 -> relu5
I1020 05:48:33.413617 11102 net.cpp:150] Setting up relu5
I1020 05:48:33.413624 11102 net.cpp:157] Top shape: 100 260 4 4 (416000)
I1020 05:48:33.413625 11102 net.cpp:165] Memory required for data: 205530800
I1020 05:48:33.413626 11102 layer_factory.hpp:77] Creating layer drop3
I1020 05:48:33.413631 11102 net.cpp:100] Creating Layer drop3
I1020 05:48:33.413633 11102 net.cpp:434] drop3 <- relu5
I1020 05:48:33.413636 11102 net.cpp:408] drop3 -> drop3
I1020 05:48:33.413661 11102 net.cpp:150] Setting up drop3
I1020 05:48:33.413666 11102 net.cpp:157] Top shape: 100 260 4 4 (416000)
I1020 05:48:33.413666 11102 net.cpp:165] Memory required for data: 207194800
I1020 05:48:33.413668 11102 layer_factory.hpp:77] Creating layer pool3
I1020 05:48:33.413671 11102 net.cpp:100] Creating Layer pool3
I1020 05:48:33.413673 11102 net.cpp:434] pool3 <- drop3
I1020 05:48:33.413676 11102 net.cpp:408] pool3 -> pool3
I1020 05:48:33.413698 11102 net.cpp:150] Setting up pool3
I1020 05:48:33.413702 11102 net.cpp:157] Top shape: 100 260 2 2 (104000)
I1020 05:48:33.413704 11102 net.cpp:165] Memory required for data: 207610800
I1020 05:48:33.413705 11102 layer_factory.hpp:77] Creating layer conv6
I1020 05:48:33.413709 11102 net.cpp:100] Creating Layer conv6
I1020 05:48:33.413710 11102 net.cpp:434] conv6 <- pool3
I1020 05:48:33.413714 11102 net.cpp:408] conv6 -> conv6
I1020 05:48:33.414858 11102 net.cpp:150] Setting up conv6
I1020 05:48:33.414866 11102 net.cpp:157] Top shape: 100 260 2 2 (104000)
I1020 05:48:33.414868 11102 net.cpp:165] Memory required for data: 208026800
I1020 05:48:33.414872 11102 layer_factory.hpp:77] Creating layer relu6
I1020 05:48:33.414878 11102 net.cpp:100] Creating Layer relu6
I1020 05:48:33.414880 11102 net.cpp:434] relu6 <- conv6
I1020 05:48:33.414882 11102 net.cpp:408] relu6 -> relu6
I1020 05:48:33.415076 11102 net.cpp:150] Setting up relu6
I1020 05:48:33.415084 11102 net.cpp:157] Top shape: 100 260 2 2 (104000)
I1020 05:48:33.415086 11102 net.cpp:165] Memory required for data: 208442800
I1020 05:48:33.415088 11102 layer_factory.hpp:77] Creating layer conv7
I1020 05:48:33.415093 11102 net.cpp:100] Creating Layer conv7
I1020 05:48:33.415096 11102 net.cpp:434] conv7 <- relu6
I1020 05:48:33.415099 11102 net.cpp:408] conv7 -> conv7
I1020 05:48:33.418393 11102 net.cpp:150] Setting up conv7
I1020 05:48:33.418409 11102 net.cpp:157] Top shape: 100 280 1 1 (28000)
I1020 05:48:33.418411 11102 net.cpp:165] Memory required for data: 208554800
I1020 05:48:33.418416 11102 layer_factory.hpp:77] Creating layer relu7
I1020 05:48:33.418422 11102 net.cpp:100] Creating Layer relu7
I1020 05:48:33.418426 11102 net.cpp:434] relu7 <- conv7
I1020 05:48:33.418431 11102 net.cpp:408] relu7 -> relu7
I1020 05:48:33.418555 11102 net.cpp:150] Setting up relu7
I1020 05:48:33.418561 11102 net.cpp:157] Top shape: 100 280 1 1 (28000)
I1020 05:48:33.418572 11102 net.cpp:165] Memory required for data: 208666800
I1020 05:48:33.418576 11102 layer_factory.hpp:77] Creating layer drop4
I1020 05:48:33.418578 11102 net.cpp:100] Creating Layer drop4
I1020 05:48:33.418581 11102 net.cpp:434] drop4 <- relu7
I1020 05:48:33.418583 11102 net.cpp:408] drop4 -> drop4
I1020 05:48:33.418611 11102 net.cpp:150] Setting up drop4
I1020 05:48:33.418613 11102 net.cpp:157] Top shape: 100 280 1 1 (28000)
I1020 05:48:33.418614 11102 net.cpp:165] Memory required for data: 208778800
I1020 05:48:33.418617 11102 layer_factory.hpp:77] Creating layer pool4
I1020 05:48:33.418622 11102 net.cpp:100] Creating Layer pool4
I1020 05:48:33.418623 11102 net.cpp:434] pool4 <- drop4
I1020 05:48:33.418625 11102 net.cpp:408] pool4 -> pool4
I1020 05:48:33.418650 11102 net.cpp:150] Setting up pool4
I1020 05:48:33.418654 11102 net.cpp:157] Top shape: 100 280 1 1 (28000)
I1020 05:48:33.418655 11102 net.cpp:165] Memory required for data: 208890800
I1020 05:48:33.418658 11102 layer_factory.hpp:77] Creating layer conv8
I1020 05:48:33.418663 11102 net.cpp:100] Creating Layer conv8
I1020 05:48:33.418664 11102 net.cpp:434] conv8 <- pool4
I1020 05:48:33.418668 11102 net.cpp:408] conv8 -> conv8
I1020 05:48:33.419800 11102 net.cpp:150] Setting up conv8
I1020 05:48:33.419808 11102 net.cpp:157] Top shape: 100 280 1 1 (28000)
I1020 05:48:33.419811 11102 net.cpp:165] Memory required for data: 209002800
I1020 05:48:33.419814 11102 layer_factory.hpp:77] Creating layer relu8
I1020 05:48:33.419817 11102 net.cpp:100] Creating Layer relu8
I1020 05:48:33.419819 11102 net.cpp:434] relu8 <- conv8
I1020 05:48:33.419823 11102 net.cpp:408] relu8 -> relu8
I1020 05:48:33.419942 11102 net.cpp:150] Setting up relu8
I1020 05:48:33.419948 11102 net.cpp:157] Top shape: 100 280 1 1 (28000)
I1020 05:48:33.419950 11102 net.cpp:165] Memory required for data: 209114800
I1020 05:48:33.419952 11102 layer_factory.hpp:77] Creating layer drop5
I1020 05:48:33.419955 11102 net.cpp:100] Creating Layer drop5
I1020 05:48:33.419956 11102 net.cpp:434] drop5 <- relu8
I1020 05:48:33.419960 11102 net.cpp:408] drop5 -> drop5
I1020 05:48:33.419984 11102 net.cpp:150] Setting up drop5
I1020 05:48:33.419987 11102 net.cpp:157] Top shape: 100 280 1 1 (28000)
I1020 05:48:33.419989 11102 net.cpp:165] Memory required for data: 209226800
I1020 05:48:33.419992 11102 layer_factory.hpp:77] Creating layer pool5
I1020 05:48:33.419996 11102 net.cpp:100] Creating Layer pool5
I1020 05:48:33.419998 11102 net.cpp:434] pool5 <- drop5
I1020 05:48:33.420001 11102 net.cpp:408] pool5 -> pool5
I1020 05:48:33.420024 11102 net.cpp:150] Setting up pool5
I1020 05:48:33.420028 11102 net.cpp:157] Top shape: 100 280 1 1 (28000)
I1020 05:48:33.420030 11102 net.cpp:165] Memory required for data: 209338800
I1020 05:48:33.420032 11102 layer_factory.hpp:77] Creating layer conv10
I1020 05:48:33.420037 11102 net.cpp:100] Creating Layer conv10
I1020 05:48:33.420038 11102 net.cpp:434] conv10 <- pool5
I1020 05:48:33.420042 11102 net.cpp:408] conv10 -> conv10
I1020 05:48:33.421013 11102 net.cpp:150] Setting up conv10
I1020 05:48:33.421021 11102 net.cpp:157] Top shape: 100 300 1 1 (30000)
I1020 05:48:33.421023 11102 net.cpp:165] Memory required for data: 209458800
I1020 05:48:33.421030 11102 layer_factory.hpp:77] Creating layer relu10
I1020 05:48:33.421035 11102 net.cpp:100] Creating Layer relu10
I1020 05:48:33.421037 11102 net.cpp:434] relu10 <- conv10
I1020 05:48:33.421039 11102 net.cpp:408] relu10 -> relu10
I1020 05:48:33.421233 11102 net.cpp:150] Setting up relu10
I1020 05:48:33.421241 11102 net.cpp:157] Top shape: 100 300 1 1 (30000)
I1020 05:48:33.421244 11102 net.cpp:165] Memory required for data: 209578800
I1020 05:48:33.421247 11102 layer_factory.hpp:77] Creating layer drop6
I1020 05:48:33.421249 11102 net.cpp:100] Creating Layer drop6
I1020 05:48:33.421252 11102 net.cpp:434] drop6 <- relu10
I1020 05:48:33.421254 11102 net.cpp:408] drop6 -> drop6
I1020 05:48:33.421283 11102 net.cpp:150] Setting up drop6
I1020 05:48:33.421288 11102 net.cpp:157] Top shape: 100 300 1 1 (30000)
I1020 05:48:33.421295 11102 net.cpp:165] Memory required for data: 209698800
I1020 05:48:33.421298 11102 layer_factory.hpp:77] Creating layer pool6
I1020 05:48:33.421301 11102 net.cpp:100] Creating Layer pool6
I1020 05:48:33.421303 11102 net.cpp:434] pool6 <- drop6
I1020 05:48:33.421306 11102 net.cpp:408] pool6 -> pool6
I1020 05:48:33.421330 11102 net.cpp:150] Setting up pool6
I1020 05:48:33.421335 11102 net.cpp:157] Top shape: 100 300 1 1 (30000)
I1020 05:48:33.421337 11102 net.cpp:165] Memory required for data: 209818800
I1020 05:48:33.421339 11102 layer_factory.hpp:77] Creating layer conv11
I1020 05:48:33.421346 11102 net.cpp:100] Creating Layer conv11
I1020 05:48:33.421349 11102 net.cpp:434] conv11 <- pool6
I1020 05:48:33.421351 11102 net.cpp:408] conv11 -> conv11
I1020 05:48:33.422123 11102 net.cpp:150] Setting up conv11
I1020 05:48:33.422130 11102 net.cpp:157] Top shape: 100 100 1 1 (10000)
I1020 05:48:33.422133 11102 net.cpp:165] Memory required for data: 209858800
I1020 05:48:33.422137 11102 layer_factory.hpp:77] Creating layer relu11
I1020 05:48:33.422142 11102 net.cpp:100] Creating Layer relu11
I1020 05:48:33.422145 11102 net.cpp:434] relu11 <- conv11
I1020 05:48:33.422148 11102 net.cpp:408] relu11 -> relu11
I1020 05:48:33.422272 11102 net.cpp:150] Setting up relu11
I1020 05:48:33.422277 11102 net.cpp:157] Top shape: 100 100 1 1 (10000)
I1020 05:48:33.422281 11102 net.cpp:165] Memory required for data: 209898800
I1020 05:48:33.422282 11102 layer_factory.hpp:77] Creating layer drop7
I1020 05:48:33.422286 11102 net.cpp:100] Creating Layer drop7
I1020 05:48:33.422287 11102 net.cpp:434] drop7 <- relu11
I1020 05:48:33.422291 11102 net.cpp:408] drop7 -> drop7
I1020 05:48:33.422317 11102 net.cpp:150] Setting up drop7
I1020 05:48:33.422322 11102 net.cpp:157] Top shape: 100 100 1 1 (10000)
I1020 05:48:33.422323 11102 net.cpp:165] Memory required for data: 209938800
I1020 05:48:33.422325 11102 layer_factory.hpp:77] Creating layer pool7
I1020 05:48:33.422328 11102 net.cpp:100] Creating Layer pool7
I1020 05:48:33.422330 11102 net.cpp:434] pool7 <- drop7
I1020 05:48:33.422333 11102 net.cpp:408] pool7 -> pool7
I1020 05:48:33.422356 11102 net.cpp:150] Setting up pool7
I1020 05:48:33.422360 11102 net.cpp:157] Top shape: 100 100 1 1 (10000)
I1020 05:48:33.422363 11102 net.cpp:165] Memory required for data: 209978800
I1020 05:48:33.422363 11102 layer_factory.hpp:77] Creating layer score
I1020 05:48:33.422369 11102 net.cpp:100] Creating Layer score
I1020 05:48:33.422371 11102 net.cpp:434] score <- pool7
I1020 05:48:33.422374 11102 net.cpp:408] score -> score
I1020 05:48:33.422462 11102 net.cpp:150] Setting up score
I1020 05:48:33.422466 11102 net.cpp:157] Top shape: 100 10 (1000)
I1020 05:48:33.422469 11102 net.cpp:165] Memory required for data: 209982800
I1020 05:48:33.422472 11102 layer_factory.hpp:77] Creating layer score_score_0_split
I1020 05:48:33.422477 11102 net.cpp:100] Creating Layer score_score_0_split
I1020 05:48:33.422478 11102 net.cpp:434] score_score_0_split <- score
I1020 05:48:33.422482 11102 net.cpp:408] score_score_0_split -> score_score_0_split_0
I1020 05:48:33.422485 11102 net.cpp:408] score_score_0_split -> score_score_0_split_1
I1020 05:48:33.422509 11102 net.cpp:150] Setting up score_score_0_split
I1020 05:48:33.422513 11102 net.cpp:157] Top shape: 100 10 (1000)
I1020 05:48:33.422515 11102 net.cpp:157] Top shape: 100 10 (1000)
I1020 05:48:33.422518 11102 net.cpp:165] Memory required for data: 209990800
I1020 05:48:33.422519 11102 layer_factory.hpp:77] Creating layer accuracy
I1020 05:48:33.422523 11102 net.cpp:100] Creating Layer accuracy
I1020 05:48:33.422525 11102 net.cpp:434] accuracy <- score_score_0_split_0
I1020 05:48:33.422528 11102 net.cpp:434] accuracy <- label_data_1_split_0
I1020 05:48:33.422531 11102 net.cpp:408] accuracy -> accuracy
…
