…
  stage: ""
}
type: "AdaGrad"
I1018 19:09:39.119741  4691 solver.cpp:81] Creating training net from train_net file: /home/adam/Honours/Honours-Project/mnist_pooling/max/leakyrelu/poolcnn_leakyrelu_train.prototxt
I1018 19:09:39.120054  4691 net.cpp:58] Initializing net from parameters: 
state {
  phase: TRAIN
  level: 0
  stage: ""
}
layer {
  name: "data"
  type: "Data"
  top: "data"
  top: "label"
  transform_param {
    scale: 0.0039215689
  }
  data_param {
    source: "../../../../data/mnist/mnist_train_lmdb"
    batch_size: 64
    backend: LMDB
  }
}
layer {
  name: "conv1"
  type: "Convolution"
  bottom: "data"
  top: "conv1"
  convolution_param {
    num_output: 192
    kernel_size: 5
    weight_filler {
      type: "xavier"
    }
  }
}
layer {
  name: "pool1"
  type: "Pooling"
  bottom: "conv1"
  top: "pool1"
  pooling_param {
    pool: MAX
    kernel_size: 2
    stride: 2
  }
}
layer {
  name: "drop1"
  type: "Dropout"
  bottom: "pool1"
  top: "drop1"
  dropout_param {
    dropout_ratio: 0
  }
}
layer {
  name: "relu1"
  type: "ReLU"
  bottom: "drop1"
  top: "relu1"
  relu_param {
    negative_slope: 0.01
  }
}
layer {
  name: "conv2"
  type: "Convolution"
  bottom: "relu1"
  top: "conv2"
  convolution_param {
    num_output: 192
    kernel_size: 1
    weight_filler {
      type: "xavier"
    }
  }
}
layer {
  name: "conv3"
  type: "Convolution"
  bottom: "conv2"
  top: "conv3"
  convolution_param {
    num_output: 240
    kernel_size: 3
    weight_filler {
      type: "xavier"
    }
  }
}
layer {
  name: "pool2"
  type: "Pooling"
  bottom: "conv3"
  top: "pool2"
  pooling_param {
    pool: MAX
    kernel_size: 2
    stride: 2
  }
}
layer {
  name: "drop2"
  type: "Dropout"
  bottom: "pool2"
  top: "drop2"
  dropout_param {
    dropout_ratio: 0.1
  }
}
layer {
  name: "relu2"
  type: "ReLU"
  bottom: "drop2"
  top: "relu2"
  relu_param {
    negative_slope: 0.01
  }
}
layer {
  name: "conv4"
  type: "Convolution"
  bottom: "relu2"
  top: "conv4"
  convolution_param {
    num_output: 240
    kernel_size: 1
    weight_filler {
      type: "xavier"
    }
  }
}
layer {
  name: "conv5"
  type: "Convolution"
  bottom: "conv4"
  top: "conv5"
  convolution_param {
    num_output: 260
    kernel_size: 2
    weight_filler {
      type: "xavier"
    }
  }
}
layer {
  name: "pool3"
  type: "Pooling"
  bottom: "conv5"
  top: "pool3"
  pooling_param {
    pool: MAX
    kernel_size: 2
    stride: 2
  }
}
layer {
  name: "drop3"
  type: "Dropout"
  bottom: "pool3"
  top: "drop3"
  dropout_param {
    dropout_ratio: 0.2
  }
}
layer {
  name: "relu3"
  type: "ReLU"
  bottom: "drop3"
  top: "relu3"
  relu_param {
    negative_slope: 0.01
  }
}
layer {
  name: "conv6"
  type: "Convolution"
  bottom: "relu3"
  top: "conv6"
  convolution_param {
    num_output: 260
    kernel_size: 1
    weight_filler {
      type: "xavier"
    }
  }
}
layer {
  name: "conv7"
  type: "Convolution"
  bottom: "conv6"
  top: "conv7"
  convolution_param {
    num_output: 280
    kernel_size: 2
    weight_filler {
      type: "xavier"
    }
  }
}
layer {
  name: "pool4"
  type: "Pooling"
  bottom: "conv7"
  top: "pool4"
  pooling_param {
    pool: MAX
    kernel_size: 2
    stride: 2
  }
}
layer {
  name: "drop4"
  type: "Dropout"
  bottom: "pool4"
  top: "drop4"
  dropout_param {
    dropout_ratio: 0.3
  }
}
layer {
  name: "relu4"
  type: "ReLU"
  bottom: "drop4"
  top: "relu4"
  relu_param {
    negative_slope: 0.01
  }
}
layer {
  name: "conv8"
  type: "Convolution"
  bottom: "relu4"
  top: "conv8"
  convolution_param {
    num_output: 280
    kernel_size: 1
    weight_filler {
      type: "xavier"
    }
  }
}
layer {
  name: "pool5"
  type: "Pooling"
  bottom: "conv8"
  top: "pool5"
  pooling_param {
    pool: MAX
    kernel_size: 2
    stride: 2
  }
}
layer {
  name: "drop5"
  type: "Dropout"
  bottom: "pool5"
  top: "drop5"
  dropout_param {
    dropout_ratio: 0.4
  }
}
layer {
  name: "relu5"
  type: "ReLU"
  bottom: "drop5"
  top: "relu5"
  relu_param {
    negative_slope: 0.01
  }
}
layer {
  name: "conv10"
  type: "Convolution"
  bottom: "relu5"
  top: "conv10"
  convolution_param {
    num_output: 300
    kernel_size: 1
    weight_filler {
      type: "xavier"
    }
  }
}
layer {
  name: "pool6"
  type: "Pooling"
  bottom: "conv10"
  top: "pool6"
  pooling_param {
    pool: MAX
    kernel_size: 2
    stride: 2
  }
}
layer {
  name: "drop6"
  type: "Dropout"
  bottom: "pool6"
  top: "drop6"
  dropout_param {
    dropout_ratio: 0.5
  }
}
layer {
  name: "relu6"
  type: "ReLU"
  bottom: "drop6"
  top: "relu6"
  relu_param {
    negative_slope: 0.01
  }
}
layer {
  name: "conv11"
  type: "Convolution"
  bottom: "relu6"
  top: "conv11"
  convolution_param {
    num_output: 100
    kernel_size: 1
    weight_filler {
      type: "xavier"
    }
  }
}
layer {
  name: "pool7"
  type: "Pooling"
  bottom: "conv11"
  top: "pool7"
  pooling_param {
    pool: MAX
    kernel_size: 2
    stride: 2
  }
}
layer {
  name: "drop7"
  type: "Dropout"
  bottom: "pool7"
  top: "drop7"
  dropout_param {
    dropout_ratio: 0
  }
}
layer {
  name: "relu7"
  type: "ReLU"
  bottom: "drop7"
  top: "relu7"
  relu_param {
    negative_slope: 0.01
  }
}
layer {
  name: "pool"
  type: "Pooling"
  bottom: "relu7"
  top: "pool"
  pooling_param {
    pool: AVE
    global_pooling: true
  }
}
layer {
  name: "flatten"
  type: "Flatten"
  bottom: "pool"
  top: "flatten"
}
layer {
  name: "score"
  type: "InnerProduct"
  bottom: "flatten"
  top: "score"
  inner_product_param {
    num_output: 10
    weight_filler {
      type: "gaussian"
    }
  }
}
layer {
  name: "accuracy"
  type: "Accuracy"
  bottom: "score"
  bottom: "label"
  top: "accuracy"
}
layer {
  name: "loss"
  type: "SoftmaxWithLoss"
  bottom: "score"
  bottom: "label"
  top: "loss"
}
I1018 19:09:39.120157  4691 layer_factory.hpp:77] Creating layer data
I1018 19:09:39.120532  4691 net.cpp:100] Creating Layer data
I1018 19:09:39.120538  4691 net.cpp:408] data -> data
I1018 19:09:39.120553  4691 net.cpp:408] data -> label
I1018 19:09:39.121112  4697 db_lmdb.cpp:35] Opened lmdb ../../../../data/mnist/mnist_train_lmdb
I1018 19:09:39.126713  4691 data_layer.cpp:41] output data size: 64,1,28,28
I1018 19:09:39.127396  4691 net.cpp:150] Setting up data
I1018 19:09:39.127409  4691 net.cpp:157] Top shape: 64 1 28 28 (50176)
I1018 19:09:39.127413  4691 net.cpp:157] Top shape: 64 (64)
I1018 19:09:39.127415  4691 net.cpp:165] Memory required for data: 200960
I1018 19:09:39.127424  4691 layer_factory.hpp:77] Creating layer label_data_1_split
I1018 19:09:39.127436  4691 net.cpp:100] Creating Layer label_data_1_split
I1018 19:09:39.127441  4691 net.cpp:434] label_data_1_split <- label
I1018 19:09:39.127451  4691 net.cpp:408] label_data_1_split -> label_data_1_split_0
I1018 19:09:39.127460  4691 net.cpp:408] label_data_1_split -> label_data_1_split_1
I1018 19:09:39.127496  4691 net.cpp:150] Setting up label_data_1_split
I1018 19:09:39.127502  4691 net.cpp:157] Top shape: 64 (64)
I1018 19:09:39.127504  4691 net.cpp:157] Top shape: 64 (64)
I1018 19:09:39.127506  4691 net.cpp:165] Memory required for data: 201472
I1018 19:09:39.127507  4691 layer_factory.hpp:77] Creating layer conv1
I1018 19:09:39.127521  4691 net.cpp:100] Creating Layer conv1
I1018 19:09:39.127522  4691 net.cpp:434] conv1 <- data
I1018 19:09:39.127526  4691 net.cpp:408] conv1 -> conv1
I1018 19:09:39.246857  4691 net.cpp:150] Setting up conv1
I1018 19:09:39.246881  4691 net.cpp:157] Top shape: 64 192 24 24 (7077888)
I1018 19:09:39.246883  4691 net.cpp:165] Memory required for data: 28513024
I1018 19:09:39.246917  4691 layer_factory.hpp:77] Creating layer pool1
I1018 19:09:39.246927  4691 net.cpp:100] Creating Layer pool1
I1018 19:09:39.246930  4691 net.cpp:434] pool1 <- conv1
I1018 19:09:39.246935  4691 net.cpp:408] pool1 -> pool1
I1018 19:09:39.246973  4691 net.cpp:150] Setting up pool1
I1018 19:09:39.246978  4691 net.cpp:157] Top shape: 64 192 12 12 (1769472)
I1018 19:09:39.246978  4691 net.cpp:165] Memory required for data: 35590912
I1018 19:09:39.246981  4691 layer_factory.hpp:77] Creating layer drop1
I1018 19:09:39.246986  4691 net.cpp:100] Creating Layer drop1
I1018 19:09:39.246989  4691 net.cpp:434] drop1 <- pool1
I1018 19:09:39.246990  4691 net.cpp:408] drop1 -> drop1
I1018 19:09:39.247015  4691 net.cpp:150] Setting up drop1
I1018 19:09:39.247018  4691 net.cpp:157] Top shape: 64 192 12 12 (1769472)
I1018 19:09:39.247020  4691 net.cpp:165] Memory required for data: 42668800
I1018 19:09:39.247021  4691 layer_factory.hpp:77] Creating layer relu1
I1018 19:09:39.247025  4691 net.cpp:100] Creating Layer relu1
I1018 19:09:39.247027  4691 net.cpp:434] relu1 <- drop1
I1018 19:09:39.247030  4691 net.cpp:408] relu1 -> relu1
I1018 19:09:39.247153  4691 net.cpp:150] Setting up relu1
I1018 19:09:39.247158  4691 net.cpp:157] Top shape: 64 192 12 12 (1769472)
I1018 19:09:39.247159  4691 net.cpp:165] Memory required for data: 49746688
I1018 19:09:39.247161  4691 layer_factory.hpp:77] Creating layer conv2
I1018 19:09:39.247169  4691 net.cpp:100] Creating Layer conv2
I1018 19:09:39.247170  4691 net.cpp:434] conv2 <- relu1
I1018 19:09:39.247174  4691 net.cpp:408] conv2 -> conv2
I1018 19:09:39.247994  4691 net.cpp:150] Setting up conv2
I1018 19:09:39.248003  4691 net.cpp:157] Top shape: 64 192 12 12 (1769472)
I1018 19:09:39.248005  4691 net.cpp:165] Memory required for data: 56824576
I1018 19:09:39.248010  4691 layer_factory.hpp:77] Creating layer conv3
I1018 19:09:39.248015  4691 net.cpp:100] Creating Layer conv3
I1018 19:09:39.248018  4691 net.cpp:434] conv3 <- conv2
I1018 19:09:39.248021  4691 net.cpp:408] conv3 -> conv3
I1018 19:09:39.250445  4691 net.cpp:150] Setting up conv3
I1018 19:09:39.250453  4691 net.cpp:157] Top shape: 64 240 10 10 (1536000)
I1018 19:09:39.250455  4691 net.cpp:165] Memory required for data: 62968576
I1018 19:09:39.250461  4691 layer_factory.hpp:77] Creating layer pool2
I1018 19:09:39.250468  4691 net.cpp:100] Creating Layer pool2
I1018 19:09:39.250470  4691 net.cpp:434] pool2 <- conv3
I1018 19:09:39.250473  4691 net.cpp:408] pool2 -> pool2
I1018 19:09:39.250499  4691 net.cpp:150] Setting up pool2
I1018 19:09:39.250504  4691 net.cpp:157] Top shape: 64 240 5 5 (384000)
I1018 19:09:39.250504  4691 net.cpp:165] Memory required for data: 64504576
I1018 19:09:39.250506  4691 layer_factory.hpp:77] Creating layer drop2
I1018 19:09:39.250509  4691 net.cpp:100] Creating Layer drop2
I1018 19:09:39.250511  4691 net.cpp:434] drop2 <- pool2
I1018 19:09:39.250514  4691 net.cpp:408] drop2 -> drop2
I1018 19:09:39.250535  4691 net.cpp:150] Setting up drop2
I1018 19:09:39.250538  4691 net.cpp:157] Top shape: 64 240 5 5 (384000)
I1018 19:09:39.250540  4691 net.cpp:165] Memory required for data: 66040576
I1018 19:09:39.250541  4691 layer_factory.hpp:77] Creating layer relu2
I1018 19:09:39.250545  4691 net.cpp:100] Creating Layer relu2
I1018 19:09:39.250546  4691 net.cpp:434] relu2 <- drop2
I1018 19:09:39.250548  4691 net.cpp:408] relu2 -> relu2
I1018 19:09:39.250658  4691 net.cpp:150] Setting up relu2
I1018 19:09:39.250663  4691 net.cpp:157] Top shape: 64 240 5 5 (384000)
I1018 19:09:39.250665  4691 net.cpp:165] Memory required for data: 67576576
I1018 19:09:39.250666  4691 layer_factory.hpp:77] Creating layer conv4
I1018 19:09:39.250671  4691 net.cpp:100] Creating Layer conv4
I1018 19:09:39.250674  4691 net.cpp:434] conv4 <- relu2
I1018 19:09:39.250679  4691 net.cpp:408] conv4 -> conv4
I1018 19:09:39.251504  4691 net.cpp:150] Setting up conv4
I1018 19:09:39.251513  4691 net.cpp:157] Top shape: 64 240 5 5 (384000)
I1018 19:09:39.251514  4691 net.cpp:165] Memory required for data: 69112576
I1018 19:09:39.251518  4691 layer_factory.hpp:77] Creating layer conv5
I1018 19:09:39.251531  4691 net.cpp:100] Creating Layer conv5
I1018 19:09:39.251534  4691 net.cpp:434] conv5 <- conv4
I1018 19:09:39.251538  4691 net.cpp:408] conv5 -> conv5
I1018 19:09:39.253281  4691 net.cpp:150] Setting up conv5
I1018 19:09:39.253290  4691 net.cpp:157] Top shape: 64 260 4 4 (266240)
I1018 19:09:39.253293  4691 net.cpp:165] Memory required for data: 70177536
I1018 19:09:39.253298  4691 layer_factory.hpp:77] Creating layer pool3
I1018 19:09:39.253303  4691 net.cpp:100] Creating Layer pool3
I1018 19:09:39.253304  4691 net.cpp:434] pool3 <- conv5
I1018 19:09:39.253307  4691 net.cpp:408] pool3 -> pool3
I1018 19:09:39.253331  4691 net.cpp:150] Setting up pool3
I1018 19:09:39.253335  4691 net.cpp:157] Top shape: 64 260 2 2 (66560)
I1018 19:09:39.253337  4691 net.cpp:165] Memory required for data: 70443776
I1018 19:09:39.253339  4691 layer_factory.hpp:77] Creating layer drop3
I1018 19:09:39.253341  4691 net.cpp:100] Creating Layer drop3
I1018 19:09:39.253343  4691 net.cpp:434] drop3 <- pool3
I1018 19:09:39.253347  4691 net.cpp:408] drop3 -> drop3
I1018 19:09:39.253368  4691 net.cpp:150] Setting up drop3
I1018 19:09:39.253372  4691 net.cpp:157] Top shape: 64 260 2 2 (66560)
I1018 19:09:39.253374  4691 net.cpp:165] Memory required for data: 70710016
I1018 19:09:39.253376  4691 layer_factory.hpp:77] Creating layer relu3
I1018 19:09:39.253378  4691 net.cpp:100] Creating Layer relu3
I1018 19:09:39.253381  4691 net.cpp:434] relu3 <- drop3
I1018 19:09:39.253384  4691 net.cpp:408] relu3 -> relu3
I1018 19:09:39.253499  4691 net.cpp:150] Setting up relu3
I1018 19:09:39.253504  4691 net.cpp:157] Top shape: 64 260 2 2 (66560)
I1018 19:09:39.253505  4691 net.cpp:165] Memory required for data: 70976256
I1018 19:09:39.253507  4691 layer_factory.hpp:77] Creating layer conv6
I1018 19:09:39.253514  4691 net.cpp:100] Creating Layer conv6
I1018 19:09:39.253515  4691 net.cpp:434] conv6 <- relu3
I1018 19:09:39.253518  4691 net.cpp:408] conv6 -> conv6
I1018 19:09:39.254619  4691 net.cpp:150] Setting up conv6
I1018 19:09:39.254626  4691 net.cpp:157] Top shape: 64 260 2 2 (66560)
I1018 19:09:39.254628  4691 net.cpp:165] Memory required for data: 71242496
I1018 19:09:39.254632  4691 layer_factory.hpp:77] Creating layer conv7
I1018 19:09:39.254637  4691 net.cpp:100] Creating Layer conv7
I1018 19:09:39.254639  4691 net.cpp:434] conv7 <- conv6
I1018 19:09:39.254643  4691 net.cpp:408] conv7 -> conv7
I1018 19:09:39.256562  4691 net.cpp:150] Setting up conv7
I1018 19:09:39.256570  4691 net.cpp:157] Top shape: 64 280 1 1 (17920)
I1018 19:09:39.256572  4691 net.cpp:165] Memory required for data: 71314176
I1018 19:09:39.256577  4691 layer_factory.hpp:77] Creating layer pool4
I1018 19:09:39.256580  4691 net.cpp:100] Creating Layer pool4
I1018 19:09:39.256582  4691 net.cpp:434] pool4 <- conv7
I1018 19:09:39.256587  4691 net.cpp:408] pool4 -> pool4
I1018 19:09:39.256610  4691 net.cpp:150] Setting up pool4
I1018 19:09:39.256614  4691 net.cpp:157] Top shape: 64 280 1 1 (17920)
I1018 19:09:39.256616  4691 net.cpp:165] Memory required for data: 71385856
I1018 19:09:39.256618  4691 layer_factory.hpp:77] Creating layer drop4
I1018 19:09:39.256621  4691 net.cpp:100] Creating Layer drop4
I1018 19:09:39.256624  4691 net.cpp:434] drop4 <- pool4
I1018 19:09:39.256628  4691 net.cpp:408] drop4 -> drop4
I1018 19:09:39.256649  4691 net.cpp:150] Setting up drop4
I1018 19:09:39.256654  4691 net.cpp:157] Top shape: 64 280 1 1 (17920)
I1018 19:09:39.256655  4691 net.cpp:165] Memory required for data: 71457536
I1018 19:09:39.256656  4691 layer_factory.hpp:77] Creating layer relu4
I1018 19:09:39.256660  4691 net.cpp:100] Creating Layer relu4
I1018 19:09:39.256662  4691 net.cpp:434] relu4 <- drop4
I1018 19:09:39.256664  4691 net.cpp:408] relu4 -> relu4
I1018 19:09:39.256851  4691 net.cpp:150] Setting up relu4
I1018 19:09:39.256860  4691 net.cpp:157] Top shape: 64 280 1 1 (17920)
I1018 19:09:39.256861  4691 net.cpp:165] Memory required for data: 71529216
I1018 19:09:39.256863  4691 layer_factory.hpp:77] Creating layer conv8
I1018 19:09:39.256875  4691 net.cpp:100] Creating Layer conv8
I1018 19:09:39.256877  4691 net.cpp:434] conv8 <- relu4
I1018 19:09:39.256882  4691 net.cpp:408] conv8 -> conv8
I1018 19:09:39.257719  4691 net.cpp:150] Setting up conv8
I1018 19:09:39.257726  4691 net.cpp:157] Top shape: 64 280 1 1 (17920)
I1018 19:09:39.257727  4691 net.cpp:165] Memory required for data: 71600896
I1018 19:09:39.257732  4691 layer_factory.hpp:77] Creating layer pool5
I1018 19:09:39.257736  4691 net.cpp:100] Creating Layer pool5
I1018 19:09:39.257738  4691 net.cpp:434] pool5 <- conv8
I1018 19:09:39.257740  4691 net.cpp:408] pool5 -> pool5
I1018 19:09:39.257766  4691 net.cpp:150] Setting up pool5
I1018 19:09:39.257771  4691 net.cpp:157] Top shape: 64 280 1 1 (17920)
I1018 19:09:39.257772  4691 net.cpp:165] Memory required for data: 71672576
I1018 19:09:39.257773  4691 layer_factory.hpp:77] Creating layer drop5
I1018 19:09:39.257776  4691 net.cpp:100] Creating Layer drop5
I1018 19:09:39.257778  4691 net.cpp:434] drop5 <- pool5
I1018 19:09:39.257781  4691 net.cpp:408] drop5 -> drop5
I1018 19:09:39.257802  4691 net.cpp:150] Setting up drop5
I1018 19:09:39.257805  4691 net.cpp:157] Top shape: 64 280 1 1 (17920)
I1018 19:09:39.257807  4691 net.cpp:165] Memory required for data: 71744256
I1018 19:09:39.257808  4691 layer_factory.hpp:77] Creating layer relu5
I1018 19:09:39.257812  4691 net.cpp:100] Creating Layer relu5
I1018 19:09:39.257814  4691 net.cpp:434] relu5 <- drop5
I1018 19:09:39.257817  4691 net.cpp:408] relu5 -> relu5
I1018 19:09:39.258080  4691 net.cpp:150] Setting up relu5
I1018 19:09:39.258086  4691 net.cpp:157] Top shape: 64 280 1 1 (17920)
I1018 19:09:39.258090  4691 net.cpp:165] Memory required for data: 71815936
I1018 19:09:39.258090  4691 layer_factory.hpp:77] Creating layer conv10
I1018 19:09:39.258095  4691 net.cpp:100] Creating Layer conv10
I1018 19:09:39.258097  4691 net.cpp:434] conv10 <- relu5
I1018 19:09:39.258102  4691 net.cpp:408] conv10 -> conv10
I1018 19:09:39.259057  4691 net.cpp:150] Setting up conv10
I1018 19:09:39.259066  4691 net.cpp:157] Top shape: 64 300 1 1 (19200)
I1018 19:09:39.259068  4691 net.cpp:165] Memory required for data: 71892736
I1018 19:09:39.259078  4691 layer_factory.hpp:77] Creating layer pool6
I1018 19:09:39.259083  4691 net.cpp:100] Creating Layer pool6
I1018 19:09:39.259084  4691 net.cpp:434] pool6 <- conv10
I1018 19:09:39.259088  4691 net.cpp:408] pool6 -> pool6
I1018 19:09:39.259115  4691 net.cpp:150] Setting up pool6
I1018 19:09:39.259119  4691 net.cpp:157] Top shape: 64 300 1 1 (19200)
I1018 19:09:39.259121  4691 net.cpp:165] Memory required for data: 71969536
I1018 19:09:39.259122  4691 layer_factory.hpp:77] Creating layer drop6
I1018 19:09:39.259126  4691 net.cpp:100] Creating Layer drop6
I1018 19:09:39.259127  4691 net.cpp:434] drop6 <- pool6
I1018 19:09:39.259130  4691 net.cpp:408] drop6 -> drop6
I1018 19:09:39.259152  4691 net.cpp:150] Setting up drop6
I1018 19:09:39.259156  4691 net.cpp:157] Top shape: 64 300 1 1 (19200)
I1018 19:09:39.259157  4691 net.cpp:165] Memory required for data: 72046336
I1018 19:09:39.259160  4691 layer_factory.hpp:77] Creating layer relu6
I1018 19:09:39.259162  4691 net.cpp:100] Creating Layer relu6
I1018 19:09:39.259165  4691 net.cpp:434] relu6 <- drop6
I1018 19:09:39.259167  4691 net.cpp:408] relu6 -> relu6
I1018 19:09:39.259284  4691 net.cpp:150] Setting up relu6
I1018 19:09:39.259290  4691 net.cpp:157] Top shape: 64 300 1 1 (19200)
I1018 19:09:39.259292  4691 net.cpp:165] Memory required for data: 72123136
I1018 19:09:39.259294  4691 layer_factory.hpp:77] Creating layer conv11
I1018 19:09:39.259299  4691 net.cpp:100] Creating Layer conv11
I1018 19:09:39.259300  4691 net.cpp:434] conv11 <- relu6
I1018 19:09:39.259304  4691 net.cpp:408] conv11 -> conv11
I1018 19:09:39.260313  4691 net.cpp:150] Setting up conv11
I1018 19:09:39.260319  4691 net.cpp:157] Top shape: 64 100 1 1 (6400)
I1018 19:09:39.260321  4691 net.cpp:165] Memory required for data: 72148736
I1018 19:09:39.260325  4691 layer_factory.hpp:77] Creating layer pool7
I1018 19:09:39.260329  4691 net.cpp:100] Creating Layer pool7
I1018 19:09:39.260339  4691 net.cpp:434] pool7 <- conv11
I1018 19:09:39.260344  4691 net.cpp:408] pool7 -> pool7
I1018 19:09:39.260371  4691 net.cpp:150] Setting up pool7
I1018 19:09:39.260376  4691 net.cpp:157] Top shape: 64 100 1 1 (6400)
I1018 19:09:39.260378  4691 net.cpp:165] Memory required for data: 72174336
I1018 19:09:39.260380  4691 layer_factory.hpp:77] Creating layer drop7
I1018 19:09:39.260383  4691 net.cpp:100] Creating Layer drop7
I1018 19:09:39.260385  4691 net.cpp:434] drop7 <- pool7
I1018 19:09:39.260388  4691 net.cpp:408] drop7 -> drop7
I1018 19:09:39.260411  4691 net.cpp:150] Setting up drop7
I1018 19:09:39.260413  4691 net.cpp:157] Top shape: 64 100 1 1 (6400)
I1018 19:09:39.260416  4691 net.cpp:165] Memory required for data: 72199936
I1018 19:09:39.260416  4691 layer_factory.hpp:77] Creating layer relu7
I1018 19:09:39.260424  4691 net.cpp:100] Creating Layer relu7
I1018 19:09:39.260427  4691 net.cpp:434] relu7 <- drop7
I1018 19:09:39.260431  4691 net.cpp:408] relu7 -> relu7
I1018 19:09:39.260620  4691 net.cpp:150] Setting up relu7
I1018 19:09:39.260627  4691 net.cpp:157] Top shape: 64 100 1 1 (6400)
I1018 19:09:39.260629  4691 net.cpp:165] Memory required for data: 72225536
I1018 19:09:39.260632  4691 layer_factory.hpp:77] Creating layer pool
I1018 19:09:39.260634  4691 net.cpp:100] Creating Layer pool
I1018 19:09:39.260637  4691 net.cpp:434] pool <- relu7
I1018 19:09:39.260639  4691 net.cpp:408] pool -> pool
I1018 19:09:39.260762  4691 net.cpp:150] Setting up pool
I1018 19:09:39.260767  4691 net.cpp:157] Top shape: 64 100 1 1 (6400)
I1018 19:09:39.260769  4691 net.cpp:165] Memory required for data: 72251136
I1018 19:09:39.260771  4691 layer_factory.hpp:77] Creating layer flatten
I1018 19:09:39.260774  4691 net.cpp:100] Creating Layer flatten
I1018 19:09:39.260776  4691 net.cpp:434] flatten <- pool
I1018 19:09:39.260779  4691 net.cpp:408] flatten -> flatten
I1018 19:09:39.260795  4691 net.cpp:150] Setting up flatten
I1018 19:09:39.260798  4691 net.cpp:157] Top shape: 64 100 (6400)
I1018 19:09:39.260800  4691 net.cpp:165] Memory required for data: 72276736
I1018 19:09:39.260802  4691 layer_factory.hpp:77] Creating layer score
I1018 19:09:39.260805  4691 net.cpp:100] Creating Layer score
I1018 19:09:39.260808  4691 net.cpp:434] score <- flatten
I1018 19:09:39.260812  4691 net.cpp:408] score -> score
I1018 19:09:39.260910  4691 net.cpp:150] Setting up score
I1018 19:09:39.260913  4691 net.cpp:157] Top shape: 64 10 (640)
I1018 19:09:39.260915  4691 net.cpp:165] Memory required for data: 72279296
I1018 19:09:39.260920  4691 layer_factory.hpp:77] Creating layer score_score_0_split
I1018 19:09:39.260923  4691 net.cpp:100] Creating Layer score_score_0_split
I1018 19:09:39.260924  4691 net.cpp:434] score_score_0_split <- score
I1018 19:09:39.260928  4691 net.cpp:408] score_score_0_split -> score_score_0_split_0
I1018 19:09:39.260932  4691 net.cpp:408] score_score_0_split -> score_score_0_split_1
I1018 19:09:39.260953  4691 net.cpp:150] Setting up score_score_0_split
I1018 19:09:39.260957  4691 net.cpp:157] Top shape: 64 10 (640)
I1018 19:09:39.260960  4691 net.cpp:157] Top shape: 64 10 (640)
I1018 19:09:39.260962  4691 net.cpp:165] Memory required for data: 72284416
I1018 19:09:39.260963  4691 layer_factory.hpp:77] Creating layer accuracy
I1018 19:09:39.260967  4691 net.cpp:100] Creating Layer accuracy
I1018 19:09:39.260968  4691 net.cpp:434] accuracy <- score_score_0_split_0
I1018 19:09:39.260972  4691 net.cpp:434] accuracy <- label_data_1_split_0
I1018 19:09:39.260974  4691 net.cpp:408] accuracy -> accuracy
…
I1018 19:09:39.261378  4691 net.cpp:283] Network initialization done.
I1018 19:09:39.261567  4691 solver.cpp:181] Creating test net (#0) specified by test_net file: /home/adam/Honours/Honours-Project/mnist_pooling/max/leakyrelu/poolcnn_leakyrelu_test.prototxt
I1018 19:09:39.261685  4691 net.cpp:58] Initializing net from parameters: 
state {
  phase: TEST
}
layer {
  name: "data"
  type: "Data"
  top: "data"
  top: "label"
  transform_param {
    scale: 0.0039215689
  }
  data_param {
    source: "../../../../data/mnist/mnist_test_lmdb"
    batch_size: 100
    backend: LMDB
  }
}
layer {
  name: "conv1"
  type: "Convolution"
  bottom: "data"
  top: "conv1"
  convolution_param {
    num_output: 192
    kernel_size: 5
    weight_filler {
      type: "xavier"
    }
  }
}
layer {
  name: "pool1"
  type: "Pooling"
  bottom: "conv1"
  top: "pool1"
  pooling_param {
    pool: MAX
    kernel_size: 2
    stride: 2
  }
}
layer {
  name: "drop1"
  type: "Dropout"
  bottom: "pool1"
  top: "drop1"
  dropout_param {
    dropout_ratio: 0
  }
}
layer {
  name: "relu1"
  type: "ReLU"
  bottom: "drop1"
  top: "relu1"
  relu_param {
    negative_slope: 0.01
  }
}
layer {
  name: "conv2"
  type: "Convolution"
  bottom: "relu1"
  top: "conv2"
  convolution_param {
    num_output: 192
    kernel_size: 1
    weight_filler {
      type: "xavier"
    }
  }
}
layer {
  name: "conv3"
  type: "Convolution"
  bottom: "conv2"
  top: "conv3"
  convolution_param {
    num_output: 240
    kernel_size: 3
    weight_filler {
      type: "xavier"
    }
  }
}
layer {
  name: "pool2"
  type: "Pooling"
  bottom: "conv3"
  top: "pool2"
  pooling_param {
    pool: MAX
    kernel_size: 2
    stride: 2
  }
}
layer {
  name: "drop2"
  type: "Dropout"
  bottom: "pool2"
  top: "drop2"
  dropout_param {
    dropout_ratio: 0.1
  }
}
layer {
  name: "relu2"
  type: "ReLU"
  bottom: "drop2"
  top: "relu2"
  relu_param {
    negative_slope: 0.01
  }
}
layer {
  name: "conv4"
  type: "Convolution"
  bottom: "relu2"
  top: "conv4"
  convolution_param {
    num_output: 240
    kernel_size: 1
    weight_filler {
      type: "xavier"
    }
  }
}
layer {
  name: "conv5"
  type: "Convolution"
  bottom: "conv4"
  top: "conv5"
  convolution_param {
    num_output: 260
    kernel_size: 2
    weight_filler {
      type: "xavier"
    }
  }
}
layer {
  name: "pool3"
  type: "Pooling"
  bottom: "conv5"
  top: "pool3"
  pooling_param {
    pool: MAX
    kernel_size: 2
    stride: 2
  }
}
layer {
  name: "drop3"
  type: "Dropout"
  bottom: "pool3"
  top: "drop3"
  dropout_param {
    dropout_ratio: 0.2
  }
}
layer {
  name: "relu3"
  type: "ReLU"
  bottom: "drop3"
  top: "relu3"
  relu_param {
    negative_slope: 0.01
  }
}
layer {
  name: "conv6"
  type: "Convolution"
  bottom: "relu3"
  top: "conv6"
  convolution_param {
    num_output: 260
    kernel_size: 1
    weight_filler {
      type: "xavier"
    }
  }
}
layer {
  name: "conv7"
  type: "Convolution"
  bottom: "conv6"
  top: "conv7"
  convolution_param {
    num_output: 280
    kernel_size: 2
    weight_filler {
      type: "xavier"
    }
  }
}
layer {
  name: "pool4"
  type: "Pooling"
  bottom: "conv7"
  top: "pool4"
  pooling_param {
    pool: MAX
    kernel_size: 2
    stride: 2
  }
}
layer {
  name: "drop4"
  type: "Dropout"
  bottom: "pool4"
  top: "drop4"
  dropout_param {
    dropout_ratio: 0.3
  }
}
layer {
  name: "relu4"
  type: "ReLU"
  bottom: "drop4"
  top: "relu4"
  relu_param {
    negative_slope: 0.01
  }
}
layer {
  name: "conv8"
  type: "Convolution"
  bottom: "relu4"
  top: "conv8"
  convolution_param {
    num_output: 280
    kernel_size: 1
    weight_filler {
      type: "xavier"
    }
  }
}
layer {
  name: "pool5"
  type: "Pooling"
  bottom: "conv8"
  top: "pool5"
  pooling_param {
    pool: MAX
    kernel_size: 2
    stride: 2
  }
}
layer {
  name: "drop5"
  type: "Dropout"
  bottom: "pool5"
  top: "drop5"
  dropout_param {
    dropout_ratio: 0.4
  }
}
layer {
  name: "relu5"
  type: "ReLU"
  bottom: "drop5"
  top: "relu5"
  relu_param {
    negative_slope: 0.01
  }
}
layer {
  name: "conv10"
  type: "Convolution"
  bottom: "relu5"
  top: "conv10"
  convolution_param {
    num_output: 300
    kernel_size: 1
    weight_filler {
      type: "xavier"
    }
  }
}
layer {
  name: "pool6"
  type: "Pooling"
  bottom: "conv10"
  top: "pool6"
  pooling_param {
    pool: MAX
    kernel_size: 2
    stride: 2
  }
}
layer {
  name: "drop6"
  type: "Dropout"
  bottom: "pool6"
  top: "drop6"
  dropout_param {
    dropout_ratio: 0.5
  }
}
layer {
  name: "relu6"
  type: "ReLU"
  bottom: "drop6"
  top: "relu6"
  relu_param {
    negative_slope: 0.01
  }
}
layer {
  name: "conv11"
  type: "Convolution"
  bottom: "relu6"
  top: "conv11"
  convolution_param {
    num_output: 100
    kernel_size: 1
    weight_filler {
      type: "xavier"
    }
  }
}
layer {
  name: "pool7"
  type: "Pooling"
  bottom: "conv11"
  top: "pool7"
  pooling_param {
    pool: MAX
    kernel_size: 2
    stride: 2
  }
}
layer {
  name: "drop7"
  type: "Dropout"
  bottom: "pool7"
  top: "drop7"
  dropout_param {
    dropout_ratio: 0
  }
}
layer {
  name: "relu7"
  type: "ReLU"
  bottom: "drop7"
  top: "relu7"
  relu_param {
    negative_slope: 0.01
  }
}
layer {
  name: "pool"
  type: "Pooling"
  bottom: "relu7"
  top: "pool"
  pooling_param {
    pool: AVE
    global_pooling: true
  }
}
layer {
  name: "flatten"
  type: "Flatten"
  bottom: "pool"
  top: "flatten"
}
layer {
  name: "score"
  type: "InnerProduct"
  bottom: "flatten"
  top: "score"
  inner_product_param {
    num_output: 10
    weight_filler {
      type: "gaussian"
    }
  }
}
layer {
  name: "accuracy"
  type: "Accuracy"
  bottom: "score"
  bottom: "label"
  top: "accuracy"
}
layer {
  name: "loss"
  type: "SoftmaxWithLoss"
  bottom: "score"
  bottom: "label"
  top: "loss"
}
I1018 19:09:39.261764  4691 layer_factory.hpp:77] Creating layer data
I1018 19:09:39.261838  4691 net.cpp:100] Creating Layer data
I1018 19:09:39.261843  4691 net.cpp:408] data -> data
I1018 19:09:39.261849  4691 net.cpp:408] data -> label
I1018 19:09:39.262408  4699 db_lmdb.cpp:35] Opened lmdb ../../../../data/mnist/mnist_test_lmdb
I1018 19:09:39.262536  4691 data_layer.cpp:41] output data size: 100,1,28,28
I1018 19:09:39.263253  4691 net.cpp:150] Setting up data
I1018 19:09:39.263262  4691 net.cpp:157] Top shape: 100 1 28 28 (78400)
I1018 19:09:39.263265  4691 net.cpp:157] Top shape: 100 (100)
I1018 19:09:39.263267  4691 net.cpp:165] Memory required for data: 314000
I1018 19:09:39.263270  4691 layer_factory.hpp:77] Creating layer label_data_1_split
I1018 19:09:39.263274  4691 net.cpp:100] Creating Layer label_data_1_split
I1018 19:09:39.263278  4691 net.cpp:434] label_data_1_split <- label
I1018 19:09:39.263281  4691 net.cpp:408] label_data_1_split -> label_data_1_split_0
I1018 19:09:39.263286  4691 net.cpp:408] label_data_1_split -> label_data_1_split_1
I1018 19:09:39.263340  4691 net.cpp:150] Setting up label_data_1_split
I1018 19:09:39.263346  4691 net.cpp:157] Top shape: 100 (100)
I1018 19:09:39.263348  4691 net.cpp:157] Top shape: 100 (100)
I1018 19:09:39.263350  4691 net.cpp:165] Memory required for data: 314800
I1018 19:09:39.263351  4691 layer_factory.hpp:77] Creating layer conv1
I1018 19:09:39.263360  4691 net.cpp:100] Creating Layer conv1
I1018 19:09:39.263362  4691 net.cpp:434] conv1 <- data
I1018 19:09:39.263365  4691 net.cpp:408] conv1 -> conv1
I1018 19:09:39.264093  4691 net.cpp:150] Setting up conv1
I1018 19:09:39.264102  4691 net.cpp:157] Top shape: 100 192 24 24 (11059200)
I1018 19:09:39.264106  4691 net.cpp:165] Memory required for data: 44551600
I1018 19:09:39.264113  4691 layer_factory.hpp:77] Creating layer pool1
I1018 19:09:39.264118  4691 net.cpp:100] Creating Layer pool1
I1018 19:09:39.264122  4691 net.cpp:434] pool1 <- conv1
I1018 19:09:39.264125  4691 net.cpp:408] pool1 -> pool1
I1018 19:09:39.264160  4691 net.cpp:150] Setting up pool1
I1018 19:09:39.264166  4691 net.cpp:157] Top shape: 100 192 12 12 (2764800)
I1018 19:09:39.264173  4691 net.cpp:165] Memory required for data: 55610800
I1018 19:09:39.264178  4691 layer_factory.hpp:77] Creating layer drop1
I1018 19:09:39.264186  4691 net.cpp:100] Creating Layer drop1
I1018 19:09:39.264190  4691 net.cpp:434] drop1 <- pool1
I1018 19:09:39.264196  4691 net.cpp:408] drop1 -> drop1
I1018 19:09:39.264228  4691 net.cpp:150] Setting up drop1
I1018 19:09:39.264235  4691 net.cpp:157] Top shape: 100 192 12 12 (2764800)
I1018 19:09:39.264240  4691 net.cpp:165] Memory required for data: 66670000
I1018 19:09:39.264243  4691 layer_factory.hpp:77] Creating layer relu1
I1018 19:09:39.264250  4691 net.cpp:100] Creating Layer relu1
I1018 19:09:39.264256  4691 net.cpp:434] relu1 <- drop1
I1018 19:09:39.264261  4691 net.cpp:408] relu1 -> relu1
I1018 19:09:39.264474  4691 net.cpp:150] Setting up relu1
I1018 19:09:39.264492  4691 net.cpp:157] Top shape: 100 192 12 12 (2764800)
I1018 19:09:39.264497  4691 net.cpp:165] Memory required for data: 77729200
I1018 19:09:39.264499  4691 layer_factory.hpp:77] Creating layer conv2
I1018 19:09:39.264506  4691 net.cpp:100] Creating Layer conv2
I1018 19:09:39.264511  4691 net.cpp:434] conv2 <- relu1
I1018 19:09:39.264518  4691 net.cpp:408] conv2 -> conv2
I1018 19:09:39.265439  4691 net.cpp:150] Setting up conv2
I1018 19:09:39.265447  4691 net.cpp:157] Top shape: 100 192 12 12 (2764800)
I1018 19:09:39.265451  4691 net.cpp:165] Memory required for data: 88788400
I1018 19:09:39.265460  4691 layer_factory.hpp:77] Creating layer conv3
I1018 19:09:39.265471  4691 net.cpp:100] Creating Layer conv3
I1018 19:09:39.265475  4691 net.cpp:434] conv3 <- conv2
I1018 19:09:39.265483  4691 net.cpp:408] conv3 -> conv3
I1018 19:09:39.267978  4691 net.cpp:150] Setting up conv3
I1018 19:09:39.267987  4691 net.cpp:157] Top shape: 100 240 10 10 (2400000)
I1018 19:09:39.267989  4691 net.cpp:165] Memory required for data: 98388400
I1018 19:09:39.267997  4691 layer_factory.hpp:77] Creating layer pool2
I1018 19:09:39.268005  4691 net.cpp:100] Creating Layer pool2
I1018 19:09:39.268010  4691 net.cpp:434] pool2 <- conv3
I1018 19:09:39.268016  4691 net.cpp:408] pool2 -> pool2
I1018 19:09:39.268051  4691 net.cpp:150] Setting up pool2
I1018 19:09:39.268056  4691 net.cpp:157] Top shape: 100 240 5 5 (600000)
I1018 19:09:39.268059  4691 net.cpp:165] Memory required for data: 100788400
I1018 19:09:39.268062  4691 layer_factory.hpp:77] Creating layer drop2
I1018 19:09:39.268069  4691 net.cpp:100] Creating Layer drop2
I1018 19:09:39.268074  4691 net.cpp:434] drop2 <- pool2
I1018 19:09:39.268080  4691 net.cpp:408] drop2 -> drop2
I1018 19:09:39.268110  4691 net.cpp:150] Setting up drop2
I1018 19:09:39.268117  4691 net.cpp:157] Top shape: 100 240 5 5 (600000)
I1018 19:09:39.268121  4691 net.cpp:165] Memory required for data: 103188400
I1018 19:09:39.268126  4691 layer_factory.hpp:77] Creating layer relu2
I1018 19:09:39.268132  4691 net.cpp:100] Creating Layer relu2
I1018 19:09:39.268136  4691 net.cpp:434] relu2 <- drop2
I1018 19:09:39.268143  4691 net.cpp:408] relu2 -> relu2
I1018 19:09:39.268270  4691 net.cpp:150] Setting up relu2
I1018 19:09:39.268276  4691 net.cpp:157] Top shape: 100 240 5 5 (600000)
I1018 19:09:39.268280  4691 net.cpp:165] Memory required for data: 105588400
I1018 19:09:39.268282  4691 layer_factory.hpp:77] Creating layer conv4
I1018 19:09:39.268291  4691 net.cpp:100] Creating Layer conv4
I1018 19:09:39.268296  4691 net.cpp:434] conv4 <- relu2
I1018 19:09:39.268303  4691 net.cpp:408] conv4 -> conv4
I1018 19:09:39.269165  4691 net.cpp:150] Setting up conv4
I1018 19:09:39.269172  4691 net.cpp:157] Top shape: 100 240 5 5 (600000)
I1018 19:09:39.269176  4691 net.cpp:165] Memory required for data: 107988400
I1018 19:09:39.269181  4691 layer_factory.hpp:77] Creating layer conv5
I1018 19:09:39.269191  4691 net.cpp:100] Creating Layer conv5
I1018 19:09:39.269194  4691 net.cpp:434] conv5 <- conv4
I1018 19:09:39.269201  4691 net.cpp:408] conv5 -> conv5
I1018 19:09:39.270990  4691 net.cpp:150] Setting up conv5
I1018 19:09:39.270998  4691 net.cpp:157] Top shape: 100 260 4 4 (416000)
I1018 19:09:39.271000  4691 net.cpp:165] Memory required for data: 109652400
I1018 19:09:39.271009  4691 layer_factory.hpp:77] Creating layer pool3
I1018 19:09:39.271018  4691 net.cpp:100] Creating Layer pool3
I1018 19:09:39.271023  4691 net.cpp:434] pool3 <- conv5
I1018 19:09:39.271028  4691 net.cpp:408] pool3 -> pool3
I1018 19:09:39.271064  4691 net.cpp:150] Setting up pool3
I1018 19:09:39.271069  4691 net.cpp:157] Top shape: 100 260 2 2 (104000)
I1018 19:09:39.271071  4691 net.cpp:165] Memory required for data: 110068400
I1018 19:09:39.271075  4691 layer_factory.hpp:77] Creating layer drop3
I1018 19:09:39.271081  4691 net.cpp:100] Creating Layer drop3
I1018 19:09:39.271085  4691 net.cpp:434] drop3 <- pool3
I1018 19:09:39.271091  4691 net.cpp:408] drop3 -> drop3
I1018 19:09:39.271126  4691 net.cpp:150] Setting up drop3
I1018 19:09:39.271139  4691 net.cpp:157] Top shape: 100 260 2 2 (104000)
I1018 19:09:39.271142  4691 net.cpp:165] Memory required for data: 110484400
I1018 19:09:39.271145  4691 layer_factory.hpp:77] Creating layer relu3
I1018 19:09:39.271152  4691 net.cpp:100] Creating Layer relu3
I1018 19:09:39.271157  4691 net.cpp:434] relu3 <- drop3
I1018 19:09:39.271163  4691 net.cpp:408] relu3 -> relu3
I1018 19:09:39.271292  4691 net.cpp:150] Setting up relu3
I1018 19:09:39.271298  4691 net.cpp:157] Top shape: 100 260 2 2 (104000)
I1018 19:09:39.271302  4691 net.cpp:165] Memory required for data: 110900400
I1018 19:09:39.271306  4691 layer_factory.hpp:77] Creating layer conv6
I1018 19:09:39.271314  4691 net.cpp:100] Creating Layer conv6
I1018 19:09:39.271318  4691 net.cpp:434] conv6 <- relu3
I1018 19:09:39.271323  4691 net.cpp:408] conv6 -> conv6
I1018 19:09:39.272569  4691 net.cpp:150] Setting up conv6
I1018 19:09:39.272579  4691 net.cpp:157] Top shape: 100 260 2 2 (104000)
I1018 19:09:39.272581  4691 net.cpp:165] Memory required for data: 111316400
I1018 19:09:39.272588  4691 layer_factory.hpp:77] Creating layer conv7
I1018 19:09:39.272598  4691 net.cpp:100] Creating Layer conv7
I1018 19:09:39.272603  4691 net.cpp:434] conv7 <- conv6
I1018 19:09:39.272608  4691 net.cpp:408] conv7 -> conv7
I1018 19:09:39.275090  4691 net.cpp:150] Setting up conv7
I1018 19:09:39.275101  4691 net.cpp:157] Top shape: 100 280 1 1 (28000)
I1018 19:09:39.275104  4691 net.cpp:165] Memory required for data: 111428400
I1018 19:09:39.275110  4691 layer_factory.hpp:77] Creating layer pool4
I1018 19:09:39.275118  4691 net.cpp:100] Creating Layer pool4
I1018 19:09:39.275122  4691 net.cpp:434] pool4 <- conv7
I1018 19:09:39.275127  4691 net.cpp:408] pool4 -> pool4
I1018 19:09:39.275164  4691 net.cpp:150] Setting up pool4
I1018 19:09:39.275171  4691 net.cpp:157] Top shape: 100 280 1 1 (28000)
I1018 19:09:39.275174  4691 net.cpp:165] Memory required for data: 111540400
I1018 19:09:39.275177  4691 layer_factory.hpp:77] Creating layer drop4
I1018 19:09:39.275183  4691 net.cpp:100] Creating Layer drop4
I1018 19:09:39.275187  4691 net.cpp:434] drop4 <- pool4
I1018 19:09:39.275192  4691 net.cpp:408] drop4 -> drop4
I1018 19:09:39.275225  4691 net.cpp:150] Setting up drop4
I1018 19:09:39.275231  4691 net.cpp:157] Top shape: 100 280 1 1 (28000)
I1018 19:09:39.275235  4691 net.cpp:165] Memory required for data: 111652400
I1018 19:09:39.275238  4691 layer_factory.hpp:77] Creating layer relu4
I1018 19:09:39.275244  4691 net.cpp:100] Creating Layer relu4
I1018 19:09:39.275249  4691 net.cpp:434] relu4 <- drop4
I1018 19:09:39.275254  4691 net.cpp:408] relu4 -> relu4
I1018 19:09:39.275420  4691 net.cpp:150] Setting up relu4
I1018 19:09:39.275429  4691 net.cpp:157] Top shape: 100 280 1 1 (28000)
I1018 19:09:39.275431  4691 net.cpp:165] Memory required for data: 111764400
I1018 19:09:39.275436  4691 layer_factory.hpp:77] Creating layer conv8
I1018 19:09:39.275444  4691 net.cpp:100] Creating Layer conv8
I1018 19:09:39.275449  4691 net.cpp:434] conv8 <- relu4
I1018 19:09:39.275454  4691 net.cpp:408] conv8 -> conv8
I1018 19:09:39.276906  4691 net.cpp:150] Setting up conv8
I1018 19:09:39.276917  4691 net.cpp:157] Top shape: 100 280 1 1 (28000)
I1018 19:09:39.276921  4691 net.cpp:165] Memory required for data: 111876400
I1018 19:09:39.276926  4691 layer_factory.hpp:77] Creating layer pool5
I1018 19:09:39.276935  4691 net.cpp:100] Creating Layer pool5
I1018 19:09:39.276939  4691 net.cpp:434] pool5 <- conv8
I1018 19:09:39.276943  4691 net.cpp:408] pool5 -> pool5
I1018 19:09:39.276984  4691 net.cpp:150] Setting up pool5
I1018 19:09:39.276993  4691 net.cpp:157] Top shape: 100 280 1 1 (28000)
I1018 19:09:39.276996  4691 net.cpp:165] Memory required for data: 111988400
I1018 19:09:39.276999  4691 layer_factory.hpp:77] Creating layer drop5
I1018 19:09:39.277004  4691 net.cpp:100] Creating Layer drop5
I1018 19:09:39.277007  4691 net.cpp:434] drop5 <- pool5
I1018 19:09:39.277014  4691 net.cpp:408] drop5 -> drop5
I1018 19:09:39.277048  4691 net.cpp:150] Setting up drop5
I1018 19:09:39.277065  4691 net.cpp:157] Top shape: 100 280 1 1 (28000)
I1018 19:09:39.277070  4691 net.cpp:165] Memory required for data: 112100400
I1018 19:09:39.277073  4691 layer_factory.hpp:77] Creating layer relu5
I1018 19:09:39.277081  4691 net.cpp:100] Creating Layer relu5
I1018 19:09:39.277084  4691 net.cpp:434] relu5 <- drop5
I1018 19:09:39.277089  4691 net.cpp:408] relu5 -> relu5
I1018 19:09:39.277354  4691 net.cpp:150] Setting up relu5
I1018 19:09:39.277364  4691 net.cpp:157] Top shape: 100 280 1 1 (28000)
I1018 19:09:39.277369  4691 net.cpp:165] Memory required for data: 112212400
I1018 19:09:39.277371  4691 layer_factory.hpp:77] Creating layer conv10
I1018 19:09:39.277380  4691 net.cpp:100] Creating Layer conv10
I1018 19:09:39.277385  4691 net.cpp:434] conv10 <- relu5
I1018 19:09:39.277391  4691 net.cpp:408] conv10 -> conv10
I1018 19:09:39.279726  4691 net.cpp:150] Setting up conv10
I1018 19:09:39.279736  4691 net.cpp:157] Top shape: 100 300 1 1 (30000)
I1018 19:09:39.279739  4691 net.cpp:165] Memory required for data: 112332400
I1018 19:09:39.279748  4691 layer_factory.hpp:77] Creating layer pool6
I1018 19:09:39.279757  4691 net.cpp:100] Creating Layer pool6
I1018 19:09:39.279762  4691 net.cpp:434] pool6 <- conv10
I1018 19:09:39.279768  4691 net.cpp:408] pool6 -> pool6
I1018 19:09:39.279804  4691 net.cpp:150] Setting up pool6
I1018 19:09:39.279810  4691 net.cpp:157] Top shape: 100 300 1 1 (30000)
I1018 19:09:39.279814  4691 net.cpp:165] Memory required for data: 112452400
I1018 19:09:39.279817  4691 layer_factory.hpp:77] Creating layer drop6
I1018 19:09:39.279824  4691 net.cpp:100] Creating Layer drop6
I1018 19:09:39.279827  4691 net.cpp:434] drop6 <- pool6
I1018 19:09:39.279834  4691 net.cpp:408] drop6 -> drop6
I1018 19:09:39.279865  4691 net.cpp:150] Setting up drop6
I1018 19:09:39.279871  4691 net.cpp:157] Top shape: 100 300 1 1 (30000)
I1018 19:09:39.279875  4691 net.cpp:165] Memory required for data: 112572400
I1018 19:09:39.279877  4691 layer_factory.hpp:77] Creating layer relu6
I1018 19:09:39.279883  4691 net.cpp:100] Creating Layer relu6
I1018 19:09:39.279887  4691 net.cpp:434] relu6 <- drop6
I1018 19:09:39.279893  4691 net.cpp:408] relu6 -> relu6
I1018 19:09:39.280022  4691 net.cpp:150] Setting up relu6
I1018 19:09:39.280028  4691 net.cpp:157] Top shape: 100 300 1 1 (30000)
I1018 19:09:39.280031  4691 net.cpp:165] Memory required for data: 112692400
I1018 19:09:39.280035  4691 layer_factory.hpp:77] Creating layer conv11
I1018 19:09:39.280042  4691 net.cpp:100] Creating Layer conv11
I1018 19:09:39.280047  4691 net.cpp:434] conv11 <- relu6
I1018 19:09:39.280053  4691 net.cpp:408] conv11 -> conv11
I1018 19:09:39.280832  4691 net.cpp:150] Setting up conv11
I1018 19:09:39.280839  4691 net.cpp:157] Top shape: 100 100 1 1 (10000)
I1018 19:09:39.280843  4691 net.cpp:165] Memory required for data: 112732400
I1018 19:09:39.280848  4691 layer_factory.hpp:77] Creating layer pool7
I1018 19:09:39.280854  4691 net.cpp:100] Creating Layer pool7
I1018 19:09:39.280859  4691 net.cpp:434] pool7 <- conv11
I1018 19:09:39.280866  4691 net.cpp:408] pool7 -> pool7
I1018 19:09:39.280902  4691 net.cpp:150] Setting up pool7
I1018 19:09:39.280910  4691 net.cpp:157] Top shape: 100 100 1 1 (10000)
I1018 19:09:39.280913  4691 net.cpp:165] Memory required for data: 112772400
I1018 19:09:39.280916  4691 layer_factory.hpp:77] Creating layer drop7
I1018 19:09:39.280922  4691 net.cpp:100] Creating Layer drop7
I1018 19:09:39.280927  4691 net.cpp:434] drop7 <- pool7
I1018 19:09:39.280932  4691 net.cpp:408] drop7 -> drop7
I1018 19:09:39.280962  4691 net.cpp:150] Setting up drop7
I1018 19:09:39.280967  4691 net.cpp:157] Top shape: 100 100 1 1 (10000)
I1018 19:09:39.280971  4691 net.cpp:165] Memory required for data: 112812400
I1018 19:09:39.280973  4691 layer_factory.hpp:77] Creating layer relu7
I1018 19:09:39.280983  4691 net.cpp:100] Creating Layer relu7
I1018 19:09:39.280987  4691 net.cpp:434] relu7 <- drop7
I1018 19:09:39.280993  4691 net.cpp:408] relu7 -> relu7
I1018 19:09:39.281121  4691 net.cpp:150] Setting up relu7
I1018 19:09:39.281126  4691 net.cpp:157] Top shape: 100 100 1 1 (10000)
I1018 19:09:39.281138  4691 net.cpp:165] Memory required for data: 112852400
I1018 19:09:39.281143  4691 layer_factory.hpp:77] Creating layer pool
I1018 19:09:39.281152  4691 net.cpp:100] Creating Layer pool
I1018 19:09:39.281155  4691 net.cpp:434] pool <- relu7
I1018 19:09:39.281162  4691 net.cpp:408] pool -> pool
I1018 19:09:39.281368  4691 net.cpp:150] Setting up pool
I1018 19:09:39.281376  4691 net.cpp:157] Top shape: 100 100 1 1 (10000)
I1018 19:09:39.281379  4691 net.cpp:165] Memory required for data: 112892400
I1018 19:09:39.281383  4691 layer_factory.hpp:77] Creating layer flatten
I1018 19:09:39.281389  4691 net.cpp:100] Creating Layer flatten
I1018 19:09:39.281394  4691 net.cpp:434] flatten <- pool
I1018 19:09:39.281400  4691 net.cpp:408] flatten -> flatten
I1018 19:09:39.281424  4691 net.cpp:150] Setting up flatten
I1018 19:09:39.281429  4691 net.cpp:157] Top shape: 100 100 (10000)
I1018 19:09:39.281430  4691 net.cpp:165] Memory required for data: 112932400
I1018 19:09:39.281433  4691 layer_factory.hpp:77] Creating layer score
I1018 19:09:39.281440  4691 net.cpp:100] Creating Layer score
I1018 19:09:39.281443  4691 net.cpp:434] score <- flatten
I1018 19:09:39.281450  4691 net.cpp:408] score -> score
I1018 19:09:39.281546  4691 net.cpp:150] Setting up score
I1018 19:09:39.281551  4691 net.cpp:157] Top shape: 100 10 (1000)
I1018 19:09:39.281553  4691 net.cpp:165] Memory required for data: 112936400
I1018 19:09:39.281558  4691 layer_factory.hpp:77] Creating layer score_score_0_split
I1018 19:09:39.281564  4691 net.cpp:100] Creating Layer score_score_0_split
I1018 19:09:39.281569  4691 net.cpp:434] score_score_0_split <- score
I1018 19:09:39.281576  4691 net.cpp:408] score_score_0_split -> score_score_0_split_0
I1018 19:09:39.281584  4691 net.cpp:408] score_score_0_split -> score_score_0_split_1
I1018 19:09:39.281615  4691 net.cpp:150] Setting up score_score_0_split
I1018 19:09:39.281618  4691 net.cpp:157] Top shape: 100 10 (1000)
I1018 19:09:39.281621  4691 net.cpp:157] Top shape: 100 10 (1000)
I1018 19:09:39.281625  4691 net.cpp:165] Memory required for data: 112944400
I1018 19:09:39.281627  4691 layer_factory.hpp:77] Creating layer accuracy
I1018 19:09:39.281635  4691 net.cpp:100] Creating Layer accuracy
I1018 19:09:39.281639  4691 net.cpp:434] accuracy <- score_score_0_split_0
I1018 19:09:39.281644  4691 net.cpp:434] accuracy <- label_data_1_split_0
I1018 19:09:39.281651  4691 net.cpp:408] accuracy -> accuracy
…
