…
  level: 0
  stage: ""
}
type: "Nesterov"
I1018 20:14:39.382983  5775 solver.cpp:81] Creating training net from train_net file: /home/adam/Honours/Honours-Project/mnist_pooling/max/relu/poolcnn_relu_train.prototxt
I1018 20:14:39.383347  5775 net.cpp:58] Initializing net from parameters: 
state {
  phase: TRAIN
  level: 0
  stage: ""
}
layer {
  name: "data"
  type: "Data"
  top: "data"
  top: "label"
  transform_param {
    scale: 0.0039215689
  }
  data_param {
    source: "../../../../data/mnist/mnist_train_lmdb"
    batch_size: 64
    backend: LMDB
  }
}
layer {
  name: "conv1"
  type: "Convolution"
  bottom: "data"
  top: "conv1"
  convolution_param {
    num_output: 192
    kernel_size: 5
    weight_filler {
      type: "xavier"
    }
  }
}
layer {
  name: "pool1"
  type: "Pooling"
  bottom: "conv1"
  top: "pool1"
  pooling_param {
    pool: MAX
    kernel_size: 2
    stride: 2
  }
}
layer {
  name: "drop1"
  type: "Dropout"
  bottom: "pool1"
  top: "drop1"
  dropout_param {
    dropout_ratio: 0
  }
}
layer {
  name: "relu1"
  type: "ReLU"
  bottom: "drop1"
  top: "relu1"
}
layer {
  name: "conv2"
  type: "Convolution"
  bottom: "relu1"
  top: "conv2"
  convolution_param {
    num_output: 192
    kernel_size: 1
    weight_filler {
      type: "xavier"
    }
  }
}
layer {
  name: "conv3"
  type: "Convolution"
  bottom: "conv2"
  top: "conv3"
  convolution_param {
    num_output: 240
    kernel_size: 3
    weight_filler {
      type: "xavier"
    }
  }
}
layer {
  name: "pool2"
  type: "Pooling"
  bottom: "conv3"
  top: "pool2"
  pooling_param {
    pool: MAX
    kernel_size: 2
    stride: 2
  }
}
layer {
  name: "drop2"
  type: "Dropout"
  bottom: "pool2"
  top: "drop2"
  dropout_param {
    dropout_ratio: 0.1
  }
}
layer {
  name: "relu2"
  type: "ReLU"
  bottom: "drop2"
  top: "relu2"
}
layer {
  name: "conv4"
  type: "Convolution"
  bottom: "relu2"
  top: "conv4"
  convolution_param {
    num_output: 240
    kernel_size: 1
    weight_filler {
      type: "xavier"
    }
  }
}
layer {
  name: "conv5"
  type: "Convolution"
  bottom: "conv4"
  top: "conv5"
  convolution_param {
    num_output: 260
    kernel_size: 2
    weight_filler {
      type: "xavier"
    }
  }
}
layer {
  name: "pool3"
  type: "Pooling"
  bottom: "conv5"
  top: "pool3"
  pooling_param {
    pool: MAX
    kernel_size: 2
    stride: 2
  }
}
layer {
  name: "drop3"
  type: "Dropout"
  bottom: "pool3"
  top: "drop3"
  dropout_param {
    dropout_ratio: 0.2
  }
}
layer {
  name: "relu3"
  type: "ReLU"
  bottom: "drop3"
  top: "relu3"
}
layer {
  name: "conv6"
  type: "Convolution"
  bottom: "relu3"
  top: "conv6"
  convolution_param {
    num_output: 260
    kernel_size: 1
    weight_filler {
      type: "xavier"
    }
  }
}
layer {
  name: "conv7"
  type: "Convolution"
  bottom: "conv6"
  top: "conv7"
  convolution_param {
    num_output: 280
    kernel_size: 2
    weight_filler {
      type: "xavier"
    }
  }
}
layer {
  name: "pool4"
  type: "Pooling"
  bottom: "conv7"
  top: "pool4"
  pooling_param {
    pool: MAX
    kernel_size: 2
    stride: 2
  }
}
layer {
  name: "drop4"
  type: "Dropout"
  bottom: "pool4"
  top: "drop4"
  dropout_param {
    dropout_ratio: 0.3
  }
}
layer {
  name: "relu4"
  type: "ReLU"
  bottom: "drop4"
  top: "relu4"
}
layer {
  name: "conv8"
  type: "Convolution"
  bottom: "relu4"
  top: "conv8"
  convolution_param {
    num_output: 280
    kernel_size: 1
    weight_filler {
      type: "xavier"
    }
  }
}
layer {
  name: "pool5"
  type: "Pooling"
  bottom: "conv8"
  top: "pool5"
  pooling_param {
    pool: MAX
    kernel_size: 2
    stride: 2
  }
}
layer {
  name: "drop5"
  type: "Dropout"
  bottom: "pool5"
  top: "drop5"
  dropout_param {
    dropout_ratio: 0.4
  }
}
layer {
  name: "relu5"
  type: "ReLU"
  bottom: "drop5"
  top: "relu5"
}
layer {
  name: "conv10"
  type: "Convolution"
  bottom: "relu5"
  top: "conv10"
  convolution_param {
    num_output: 300
    kernel_size: 1
    weight_filler {
      type: "xavier"
    }
  }
}
layer {
  name: "pool6"
  type: "Pooling"
  bottom: "conv10"
  top: "pool6"
  pooling_param {
    pool: MAX
    kernel_size: 2
    stride: 2
  }
}
layer {
  name: "drop6"
  type: "Dropout"
  bottom: "pool6"
  top: "drop6"
  dropout_param {
    dropout_ratio: 0.5
  }
}
layer {
  name: "relu6"
  type: "ReLU"
  bottom: "drop6"
  top: "relu6"
}
layer {
  name: "conv11"
  type: "Convolution"
  bottom: "relu6"
  top: "conv11"
  convolution_param {
    num_output: 100
    kernel_size: 1
    weight_filler {
      type: "xavier"
    }
  }
}
layer {
  name: "pool7"
  type: "Pooling"
  bottom: "conv11"
  top: "pool7"
  pooling_param {
    pool: MAX
    kernel_size: 2
    stride: 2
  }
}
layer {
  name: "drop7"
  type: "Dropout"
  bottom: "pool7"
  top: "drop7"
  dropout_param {
    dropout_ratio: 0
  }
}
layer {
  name: "relu7"
  type: "ReLU"
  bottom: "drop7"
  top: "relu7"
}
layer {
  name: "pool"
  type: "Pooling"
  bottom: "relu7"
  top: "pool"
  pooling_param {
    pool: AVE
    global_pooling: true
  }
}
layer {
  name: "flatten"
  type: "Flatten"
  bottom: "pool"
  top: "flatten"
}
layer {
  name: "score"
  type: "InnerProduct"
  bottom: "flatten"
  top: "score"
  inner_product_param {
    num_output: 10
    weight_filler {
      type: "gaussian"
    }
  }
}
layer {
  name: "accuracy"
  type: "Accuracy"
  bottom: "score"
  bottom: "label"
  top: "accuracy"
}
layer {
  name: "loss"
  type: "SoftmaxWithLoss"
  bottom: "score"
  bottom: "label"
  top: "loss"
}
I1018 20:14:39.383467  5775 layer_factory.hpp:77] Creating layer data
I1018 20:14:39.383868  5775 net.cpp:100] Creating Layer data
I1018 20:14:39.383877  5775 net.cpp:408] data -> data
I1018 20:14:39.383893  5775 net.cpp:408] data -> label
I1018 20:14:39.384450  5781 db_lmdb.cpp:35] Opened lmdb ../../../../data/mnist/mnist_train_lmdb
I1018 20:14:39.389998  5775 data_layer.cpp:41] output data size: 64,1,28,28
I1018 20:14:39.390566  5775 net.cpp:150] Setting up data
I1018 20:14:39.390578  5775 net.cpp:157] Top shape: 64 1 28 28 (50176)
I1018 20:14:39.390581  5775 net.cpp:157] Top shape: 64 (64)
I1018 20:14:39.390583  5775 net.cpp:165] Memory required for data: 200960
I1018 20:14:39.390590  5775 layer_factory.hpp:77] Creating layer label_data_1_split
I1018 20:14:39.390599  5775 net.cpp:100] Creating Layer label_data_1_split
I1018 20:14:39.390604  5775 net.cpp:434] label_data_1_split <- label
I1018 20:14:39.390615  5775 net.cpp:408] label_data_1_split -> label_data_1_split_0
I1018 20:14:39.390625  5775 net.cpp:408] label_data_1_split -> label_data_1_split_1
I1018 20:14:39.390647  5775 net.cpp:150] Setting up label_data_1_split
I1018 20:14:39.390650  5775 net.cpp:157] Top shape: 64 (64)
I1018 20:14:39.390653  5775 net.cpp:157] Top shape: 64 (64)
I1018 20:14:39.390655  5775 net.cpp:165] Memory required for data: 201472
I1018 20:14:39.390656  5775 layer_factory.hpp:77] Creating layer conv1
I1018 20:14:39.390668  5775 net.cpp:100] Creating Layer conv1
I1018 20:14:39.390671  5775 net.cpp:434] conv1 <- data
I1018 20:14:39.390676  5775 net.cpp:408] conv1 -> conv1
I1018 20:14:39.510324  5775 net.cpp:150] Setting up conv1
I1018 20:14:39.510352  5775 net.cpp:157] Top shape: 64 192 24 24 (7077888)
I1018 20:14:39.510355  5775 net.cpp:165] Memory required for data: 28513024
I1018 20:14:39.510372  5775 layer_factory.hpp:77] Creating layer pool1
I1018 20:14:39.510380  5775 net.cpp:100] Creating Layer pool1
I1018 20:14:39.510383  5775 net.cpp:434] pool1 <- conv1
I1018 20:14:39.510388  5775 net.cpp:408] pool1 -> pool1
I1018 20:14:39.510428  5775 net.cpp:150] Setting up pool1
I1018 20:14:39.510433  5775 net.cpp:157] Top shape: 64 192 12 12 (1769472)
I1018 20:14:39.510448  5775 net.cpp:165] Memory required for data: 35590912
I1018 20:14:39.510452  5775 layer_factory.hpp:77] Creating layer drop1
I1018 20:14:39.510457  5775 net.cpp:100] Creating Layer drop1
I1018 20:14:39.510459  5775 net.cpp:434] drop1 <- pool1
I1018 20:14:39.510462  5775 net.cpp:408] drop1 -> drop1
I1018 20:14:39.510489  5775 net.cpp:150] Setting up drop1
I1018 20:14:39.510493  5775 net.cpp:157] Top shape: 64 192 12 12 (1769472)
I1018 20:14:39.510495  5775 net.cpp:165] Memory required for data: 42668800
I1018 20:14:39.510498  5775 layer_factory.hpp:77] Creating layer relu1
I1018 20:14:39.510500  5775 net.cpp:100] Creating Layer relu1
I1018 20:14:39.510502  5775 net.cpp:434] relu1 <- drop1
I1018 20:14:39.510505  5775 net.cpp:408] relu1 -> relu1
I1018 20:14:39.510620  5775 net.cpp:150] Setting up relu1
I1018 20:14:39.510627  5775 net.cpp:157] Top shape: 64 192 12 12 (1769472)
I1018 20:14:39.510628  5775 net.cpp:165] Memory required for data: 49746688
I1018 20:14:39.510629  5775 layer_factory.hpp:77] Creating layer conv2
I1018 20:14:39.510635  5775 net.cpp:100] Creating Layer conv2
I1018 20:14:39.510638  5775 net.cpp:434] conv2 <- relu1
I1018 20:14:39.510642  5775 net.cpp:408] conv2 -> conv2
I1018 20:14:39.511417  5775 net.cpp:150] Setting up conv2
I1018 20:14:39.511425  5775 net.cpp:157] Top shape: 64 192 12 12 (1769472)
I1018 20:14:39.511427  5775 net.cpp:165] Memory required for data: 56824576
I1018 20:14:39.511433  5775 layer_factory.hpp:77] Creating layer conv3
I1018 20:14:39.511437  5775 net.cpp:100] Creating Layer conv3
I1018 20:14:39.511440  5775 net.cpp:434] conv3 <- conv2
I1018 20:14:39.511443  5775 net.cpp:408] conv3 -> conv3
I1018 20:14:39.514096  5775 net.cpp:150] Setting up conv3
I1018 20:14:39.514106  5775 net.cpp:157] Top shape: 64 240 10 10 (1536000)
I1018 20:14:39.514107  5775 net.cpp:165] Memory required for data: 62968576
I1018 20:14:39.514112  5775 layer_factory.hpp:77] Creating layer pool2
I1018 20:14:39.514117  5775 net.cpp:100] Creating Layer pool2
I1018 20:14:39.514119  5775 net.cpp:434] pool2 <- conv3
I1018 20:14:39.514122  5775 net.cpp:408] pool2 -> pool2
I1018 20:14:39.514150  5775 net.cpp:150] Setting up pool2
I1018 20:14:39.514156  5775 net.cpp:157] Top shape: 64 240 5 5 (384000)
I1018 20:14:39.514158  5775 net.cpp:165] Memory required for data: 64504576
I1018 20:14:39.514159  5775 layer_factory.hpp:77] Creating layer drop2
I1018 20:14:39.514163  5775 net.cpp:100] Creating Layer drop2
I1018 20:14:39.514168  5775 net.cpp:434] drop2 <- pool2
I1018 20:14:39.514171  5775 net.cpp:408] drop2 -> drop2
I1018 20:14:39.514194  5775 net.cpp:150] Setting up drop2
I1018 20:14:39.514199  5775 net.cpp:157] Top shape: 64 240 5 5 (384000)
I1018 20:14:39.514200  5775 net.cpp:165] Memory required for data: 66040576
I1018 20:14:39.514202  5775 layer_factory.hpp:77] Creating layer relu2
I1018 20:14:39.514205  5775 net.cpp:100] Creating Layer relu2
I1018 20:14:39.514207  5775 net.cpp:434] relu2 <- drop2
I1018 20:14:39.514209  5775 net.cpp:408] relu2 -> relu2
I1018 20:14:39.514317  5775 net.cpp:150] Setting up relu2
I1018 20:14:39.514322  5775 net.cpp:157] Top shape: 64 240 5 5 (384000)
I1018 20:14:39.514323  5775 net.cpp:165] Memory required for data: 67576576
I1018 20:14:39.514324  5775 layer_factory.hpp:77] Creating layer conv4
I1018 20:14:39.514329  5775 net.cpp:100] Creating Layer conv4
I1018 20:14:39.514331  5775 net.cpp:434] conv4 <- relu2
I1018 20:14:39.514334  5775 net.cpp:408] conv4 -> conv4
I1018 20:14:39.515142  5775 net.cpp:150] Setting up conv4
I1018 20:14:39.515149  5775 net.cpp:157] Top shape: 64 240 5 5 (384000)
I1018 20:14:39.515151  5775 net.cpp:165] Memory required for data: 69112576
I1018 20:14:39.515156  5775 layer_factory.hpp:77] Creating layer conv5
I1018 20:14:39.515161  5775 net.cpp:100] Creating Layer conv5
I1018 20:14:39.515162  5775 net.cpp:434] conv5 <- conv4
I1018 20:14:39.515166  5775 net.cpp:408] conv5 -> conv5
I1018 20:14:39.516909  5775 net.cpp:150] Setting up conv5
I1018 20:14:39.516917  5775 net.cpp:157] Top shape: 64 260 4 4 (266240)
I1018 20:14:39.516929  5775 net.cpp:165] Memory required for data: 70177536
I1018 20:14:39.516937  5775 layer_factory.hpp:77] Creating layer pool3
I1018 20:14:39.516944  5775 net.cpp:100] Creating Layer pool3
I1018 20:14:39.516952  5775 net.cpp:434] pool3 <- conv5
I1018 20:14:39.516955  5775 net.cpp:408] pool3 -> pool3
I1018 20:14:39.516984  5775 net.cpp:150] Setting up pool3
I1018 20:14:39.516989  5775 net.cpp:157] Top shape: 64 260 2 2 (66560)
I1018 20:14:39.516993  5775 net.cpp:165] Memory required for data: 70443776
I1018 20:14:39.516993  5775 layer_factory.hpp:77] Creating layer drop3
I1018 20:14:39.516996  5775 net.cpp:100] Creating Layer drop3
I1018 20:14:39.516999  5775 net.cpp:434] drop3 <- pool3
I1018 20:14:39.517002  5775 net.cpp:408] drop3 -> drop3
I1018 20:14:39.517024  5775 net.cpp:150] Setting up drop3
I1018 20:14:39.517029  5775 net.cpp:157] Top shape: 64 260 2 2 (66560)
I1018 20:14:39.517030  5775 net.cpp:165] Memory required for data: 70710016
I1018 20:14:39.517032  5775 layer_factory.hpp:77] Creating layer relu3
I1018 20:14:39.517035  5775 net.cpp:100] Creating Layer relu3
I1018 20:14:39.517037  5775 net.cpp:434] relu3 <- drop3
I1018 20:14:39.517040  5775 net.cpp:408] relu3 -> relu3
I1018 20:14:39.517153  5775 net.cpp:150] Setting up relu3
I1018 20:14:39.517158  5775 net.cpp:157] Top shape: 64 260 2 2 (66560)
I1018 20:14:39.517159  5775 net.cpp:165] Memory required for data: 70976256
I1018 20:14:39.517160  5775 layer_factory.hpp:77] Creating layer conv6
I1018 20:14:39.517168  5775 net.cpp:100] Creating Layer conv6
I1018 20:14:39.517169  5775 net.cpp:434] conv6 <- relu3
I1018 20:14:39.517173  5775 net.cpp:408] conv6 -> conv6
I1018 20:14:39.518276  5775 net.cpp:150] Setting up conv6
I1018 20:14:39.518285  5775 net.cpp:157] Top shape: 64 260 2 2 (66560)
I1018 20:14:39.518286  5775 net.cpp:165] Memory required for data: 71242496
I1018 20:14:39.518290  5775 layer_factory.hpp:77] Creating layer conv7
I1018 20:14:39.518295  5775 net.cpp:100] Creating Layer conv7
I1018 20:14:39.518297  5775 net.cpp:434] conv7 <- conv6
I1018 20:14:39.518301  5775 net.cpp:408] conv7 -> conv7
I1018 20:14:39.520256  5775 net.cpp:150] Setting up conv7
I1018 20:14:39.520267  5775 net.cpp:157] Top shape: 64 280 1 1 (17920)
I1018 20:14:39.520270  5775 net.cpp:165] Memory required for data: 71314176
I1018 20:14:39.520275  5775 layer_factory.hpp:77] Creating layer pool4
I1018 20:14:39.520282  5775 net.cpp:100] Creating Layer pool4
I1018 20:14:39.520285  5775 net.cpp:434] pool4 <- conv7
I1018 20:14:39.520292  5775 net.cpp:408] pool4 -> pool4
I1018 20:14:39.520323  5775 net.cpp:150] Setting up pool4
I1018 20:14:39.520328  5775 net.cpp:157] Top shape: 64 280 1 1 (17920)
I1018 20:14:39.520331  5775 net.cpp:165] Memory required for data: 71385856
I1018 20:14:39.520334  5775 layer_factory.hpp:77] Creating layer drop4
I1018 20:14:39.520339  5775 net.cpp:100] Creating Layer drop4
I1018 20:14:39.520340  5775 net.cpp:434] drop4 <- pool4
I1018 20:14:39.520345  5775 net.cpp:408] drop4 -> drop4
I1018 20:14:39.520375  5775 net.cpp:150] Setting up drop4
I1018 20:14:39.520380  5775 net.cpp:157] Top shape: 64 280 1 1 (17920)
I1018 20:14:39.520388  5775 net.cpp:165] Memory required for data: 71457536
I1018 20:14:39.520392  5775 layer_factory.hpp:77] Creating layer relu4
I1018 20:14:39.520398  5775 net.cpp:100] Creating Layer relu4
I1018 20:14:39.520402  5775 net.cpp:434] relu4 <- drop4
I1018 20:14:39.520406  5775 net.cpp:408] relu4 -> relu4
I1018 20:14:39.520659  5775 net.cpp:150] Setting up relu4
I1018 20:14:39.520671  5775 net.cpp:157] Top shape: 64 280 1 1 (17920)
I1018 20:14:39.520674  5775 net.cpp:165] Memory required for data: 71529216
I1018 20:14:39.520678  5775 layer_factory.hpp:77] Creating layer conv8
I1018 20:14:39.520685  5775 net.cpp:100] Creating Layer conv8
I1018 20:14:39.520690  5775 net.cpp:434] conv8 <- relu4
I1018 20:14:39.520695  5775 net.cpp:408] conv8 -> conv8
I1018 20:14:39.522080  5775 net.cpp:150] Setting up conv8
I1018 20:14:39.522091  5775 net.cpp:157] Top shape: 64 280 1 1 (17920)
I1018 20:14:39.522095  5775 net.cpp:165] Memory required for data: 71600896
I1018 20:14:39.522114  5775 layer_factory.hpp:77] Creating layer pool5
I1018 20:14:39.522121  5775 net.cpp:100] Creating Layer pool5
I1018 20:14:39.522125  5775 net.cpp:434] pool5 <- conv8
I1018 20:14:39.522130  5775 net.cpp:408] pool5 -> pool5
I1018 20:14:39.522168  5775 net.cpp:150] Setting up pool5
I1018 20:14:39.522174  5775 net.cpp:157] Top shape: 64 280 1 1 (17920)
I1018 20:14:39.522177  5775 net.cpp:165] Memory required for data: 71672576
I1018 20:14:39.522181  5775 layer_factory.hpp:77] Creating layer drop5
I1018 20:14:39.522184  5775 net.cpp:100] Creating Layer drop5
I1018 20:14:39.522187  5775 net.cpp:434] drop5 <- pool5
I1018 20:14:39.522192  5775 net.cpp:408] drop5 -> drop5
I1018 20:14:39.522224  5775 net.cpp:150] Setting up drop5
I1018 20:14:39.522231  5775 net.cpp:157] Top shape: 64 280 1 1 (17920)
I1018 20:14:39.522234  5775 net.cpp:165] Memory required for data: 71744256
I1018 20:14:39.522238  5775 layer_factory.hpp:77] Creating layer relu5
I1018 20:14:39.522241  5775 net.cpp:100] Creating Layer relu5
I1018 20:14:39.522244  5775 net.cpp:434] relu5 <- drop5
I1018 20:14:39.522248  5775 net.cpp:408] relu5 -> relu5
I1018 20:14:39.522604  5775 net.cpp:150] Setting up relu5
I1018 20:14:39.522616  5775 net.cpp:157] Top shape: 64 280 1 1 (17920)
I1018 20:14:39.522620  5775 net.cpp:165] Memory required for data: 71815936
I1018 20:14:39.522624  5775 layer_factory.hpp:77] Creating layer conv10
I1018 20:14:39.522630  5775 net.cpp:100] Creating Layer conv10
I1018 20:14:39.522634  5775 net.cpp:434] conv10 <- relu5
I1018 20:14:39.522640  5775 net.cpp:408] conv10 -> conv10
I1018 20:14:39.524003  5775 net.cpp:150] Setting up conv10
I1018 20:14:39.524015  5775 net.cpp:157] Top shape: 64 300 1 1 (19200)
I1018 20:14:39.524019  5775 net.cpp:165] Memory required for data: 71892736
I1018 20:14:39.524029  5775 layer_factory.hpp:77] Creating layer pool6
I1018 20:14:39.524035  5775 net.cpp:100] Creating Layer pool6
I1018 20:14:39.524039  5775 net.cpp:434] pool6 <- conv10
I1018 20:14:39.524045  5775 net.cpp:408] pool6 -> pool6
I1018 20:14:39.524081  5775 net.cpp:150] Setting up pool6
I1018 20:14:39.524090  5775 net.cpp:157] Top shape: 64 300 1 1 (19200)
I1018 20:14:39.524092  5775 net.cpp:165] Memory required for data: 71969536
I1018 20:14:39.524096  5775 layer_factory.hpp:77] Creating layer drop6
I1018 20:14:39.524102  5775 net.cpp:100] Creating Layer drop6
I1018 20:14:39.524106  5775 net.cpp:434] drop6 <- pool6
I1018 20:14:39.524111  5775 net.cpp:408] drop6 -> drop6
I1018 20:14:39.524142  5775 net.cpp:150] Setting up drop6
I1018 20:14:39.524150  5775 net.cpp:157] Top shape: 64 300 1 1 (19200)
I1018 20:14:39.524152  5775 net.cpp:165] Memory required for data: 72046336
I1018 20:14:39.524155  5775 layer_factory.hpp:77] Creating layer relu6
I1018 20:14:39.524160  5775 net.cpp:100] Creating Layer relu6
I1018 20:14:39.524164  5775 net.cpp:434] relu6 <- drop6
I1018 20:14:39.524168  5775 net.cpp:408] relu6 -> relu6
I1018 20:14:39.524318  5775 net.cpp:150] Setting up relu6
I1018 20:14:39.524327  5775 net.cpp:157] Top shape: 64 300 1 1 (19200)
I1018 20:14:39.524328  5775 net.cpp:165] Memory required for data: 72123136
I1018 20:14:39.524330  5775 layer_factory.hpp:77] Creating layer conv11
I1018 20:14:39.524335  5775 net.cpp:100] Creating Layer conv11
I1018 20:14:39.524338  5775 net.cpp:434] conv11 <- relu6
I1018 20:14:39.524341  5775 net.cpp:408] conv11 -> conv11
I1018 20:14:39.525375  5775 net.cpp:150] Setting up conv11
I1018 20:14:39.525384  5775 net.cpp:157] Top shape: 64 100 1 1 (6400)
I1018 20:14:39.525387  5775 net.cpp:165] Memory required for data: 72148736
I1018 20:14:39.525390  5775 layer_factory.hpp:77] Creating layer pool7
I1018 20:14:39.525394  5775 net.cpp:100] Creating Layer pool7
I1018 20:14:39.525396  5775 net.cpp:434] pool7 <- conv11
I1018 20:14:39.525399  5775 net.cpp:408] pool7 -> pool7
I1018 20:14:39.525429  5775 net.cpp:150] Setting up pool7
I1018 20:14:39.525434  5775 net.cpp:157] Top shape: 64 100 1 1 (6400)
I1018 20:14:39.525435  5775 net.cpp:165] Memory required for data: 72174336
I1018 20:14:39.525445  5775 layer_factory.hpp:77] Creating layer drop7
I1018 20:14:39.525449  5775 net.cpp:100] Creating Layer drop7
I1018 20:14:39.525451  5775 net.cpp:434] drop7 <- pool7
I1018 20:14:39.525455  5775 net.cpp:408] drop7 -> drop7
I1018 20:14:39.525476  5775 net.cpp:150] Setting up drop7
I1018 20:14:39.525483  5775 net.cpp:157] Top shape: 64 100 1 1 (6400)
I1018 20:14:39.525485  5775 net.cpp:165] Memory required for data: 72199936
I1018 20:14:39.525487  5775 layer_factory.hpp:77] Creating layer relu7
I1018 20:14:39.525496  5775 net.cpp:100] Creating Layer relu7
I1018 20:14:39.525498  5775 net.cpp:434] relu7 <- drop7
I1018 20:14:39.525501  5775 net.cpp:408] relu7 -> relu7
I1018 20:14:39.525692  5775 net.cpp:150] Setting up relu7
I1018 20:14:39.525699  5775 net.cpp:157] Top shape: 64 100 1 1 (6400)
I1018 20:14:39.525702  5775 net.cpp:165] Memory required for data: 72225536
I1018 20:14:39.525703  5775 layer_factory.hpp:77] Creating layer pool
I1018 20:14:39.525707  5775 net.cpp:100] Creating Layer pool
I1018 20:14:39.525708  5775 net.cpp:434] pool <- relu7
I1018 20:14:39.525712  5775 net.cpp:408] pool -> pool
I1018 20:14:39.525836  5775 net.cpp:150] Setting up pool
I1018 20:14:39.525841  5775 net.cpp:157] Top shape: 64 100 1 1 (6400)
I1018 20:14:39.525843  5775 net.cpp:165] Memory required for data: 72251136
I1018 20:14:39.525846  5775 layer_factory.hpp:77] Creating layer flatten
I1018 20:14:39.525848  5775 net.cpp:100] Creating Layer flatten
I1018 20:14:39.525851  5775 net.cpp:434] flatten <- pool
I1018 20:14:39.525856  5775 net.cpp:408] flatten -> flatten
I1018 20:14:39.525871  5775 net.cpp:150] Setting up flatten
I1018 20:14:39.525876  5775 net.cpp:157] Top shape: 64 100 (6400)
I1018 20:14:39.525879  5775 net.cpp:165] Memory required for data: 72276736
I1018 20:14:39.525882  5775 layer_factory.hpp:77] Creating layer score
I1018 20:14:39.525887  5775 net.cpp:100] Creating Layer score
I1018 20:14:39.525890  5775 net.cpp:434] score <- flatten
I1018 20:14:39.525893  5775 net.cpp:408] score -> score
I1018 20:14:39.525990  5775 net.cpp:150] Setting up score
I1018 20:14:39.525993  5775 net.cpp:157] Top shape: 64 10 (640)
I1018 20:14:39.525995  5775 net.cpp:165] Memory required for data: 72279296
I1018 20:14:39.525998  5775 layer_factory.hpp:77] Creating layer score_score_0_split
I1018 20:14:39.526001  5775 net.cpp:100] Creating Layer score_score_0_split
I1018 20:14:39.526003  5775 net.cpp:434] score_score_0_split <- score
I1018 20:14:39.526007  5775 net.cpp:408] score_score_0_split -> score_score_0_split_0
I1018 20:14:39.526010  5775 net.cpp:408] score_score_0_split -> score_score_0_split_1
I1018 20:14:39.526033  5775 net.cpp:150] Setting up score_score_0_split
I1018 20:14:39.526037  5775 net.cpp:157] Top shape: 64 10 (640)
I1018 20:14:39.526041  5775 net.cpp:157] Top shape: 64 10 (640)
I1018 20:14:39.526044  5775 net.cpp:165] Memory required for data: 72284416
I1018 20:14:39.526046  5775 layer_factory.hpp:77] Creating layer accuracy
I1018 20:14:39.526052  5775 net.cpp:100] Creating Layer accuracy
I1018 20:14:39.526056  5775 net.cpp:434] accuracy <- score_score_0_split_0
I1018 20:14:39.526058  5775 net.cpp:434] accuracy <- label_data_1_split_0
I1018 20:14:39.526064  5775 net.cpp:408] accuracy -> accuracy
…
I1018 20:14:39.526513  5775 net.cpp:283] Network initialization done.
I1018 20:14:39.526693  5775 solver.cpp:181] Creating test net (#0) specified by test_net file: /home/adam/Honours/Honours-Project/mnist_pooling/max/relu/poolcnn_relu_test.prototxt
I1018 20:14:39.526806  5775 net.cpp:58] Initializing net from parameters: 
state {
  phase: TEST
}
layer {
  name: "data"
  type: "Data"
  top: "data"
  top: "label"
  transform_param {
    scale: 0.0039215689
  }
  data_param {
    source: "../../../../data/mnist/mnist_test_lmdb"
    batch_size: 100
    backend: LMDB
  }
}
layer {
  name: "conv1"
  type: "Convolution"
  bottom: "data"
  top: "conv1"
  convolution_param {
    num_output: 192
    kernel_size: 5
    weight_filler {
      type: "xavier"
    }
  }
}
layer {
  name: "pool1"
  type: "Pooling"
  bottom: "conv1"
  top: "pool1"
  pooling_param {
    pool: MAX
    kernel_size: 2
    stride: 2
  }
}
layer {
  name: "drop1"
  type: "Dropout"
  bottom: "pool1"
  top: "drop1"
  dropout_param {
    dropout_ratio: 0
  }
}
layer {
  name: "relu1"
  type: "ReLU"
  bottom: "drop1"
  top: "relu1"
}
layer {
  name: "conv2"
  type: "Convolution"
  bottom: "relu1"
  top: "conv2"
  convolution_param {
    num_output: 192
    kernel_size: 1
    weight_filler {
      type: "xavier"
    }
  }
}
layer {
  name: "conv3"
  type: "Convolution"
  bottom: "conv2"
  top: "conv3"
  convolution_param {
    num_output: 240
    kernel_size: 3
    weight_filler {
      type: "xavier"
    }
  }
}
layer {
  name: "pool2"
  type: "Pooling"
  bottom: "conv3"
  top: "pool2"
  pooling_param {
    pool: MAX
    kernel_size: 2
    stride: 2
  }
}
layer {
  name: "drop2"
  type: "Dropout"
  bottom: "pool2"
  top: "drop2"
  dropout_param {
    dropout_ratio: 0.1
  }
}
layer {
  name: "relu2"
  type: "ReLU"
  bottom: "drop2"
  top: "relu2"
}
layer {
  name: "conv4"
  type: "Convolution"
  bottom: "relu2"
  top: "conv4"
  convolution_param {
    num_output: 240
    kernel_size: 1
    weight_filler {
      type: "xavier"
    }
  }
}
layer {
  name: "conv5"
  type: "Convolution"
  bottom: "conv4"
  top: "conv5"
  convolution_param {
    num_output: 260
    kernel_size: 2
    weight_filler {
      type: "xavier"
    }
  }
}
layer {
  name: "pool3"
  type: "Pooling"
  bottom: "conv5"
  top: "pool3"
  pooling_param {
    pool: MAX
    kernel_size: 2
    stride: 2
  }
}
layer {
  name: "drop3"
  type: "Dropout"
  bottom: "pool3"
  top: "drop3"
  dropout_param {
    dropout_ratio: 0.2
  }
}
layer {
  name: "relu3"
  type: "ReLU"
  bottom: "drop3"
  top: "relu3"
}
layer {
  name: "conv6"
  type: "Convolution"
  bottom: "relu3"
  top: "conv6"
  convolution_param {
    num_output: 260
    kernel_size: 1
    weight_filler {
      type: "xavier"
    }
  }
}
layer {
  name: "conv7"
  type: "Convolution"
  bottom: "conv6"
  top: "conv7"
  convolution_param {
    num_output: 280
    kernel_size: 2
    weight_filler {
      type: "xavier"
    }
  }
}
layer {
  name: "pool4"
  type: "Pooling"
  bottom: "conv7"
  top: "pool4"
  pooling_param {
    pool: MAX
    kernel_size: 2
    stride: 2
  }
}
layer {
  name: "drop4"
  type: "Dropout"
  bottom: "pool4"
  top: "drop4"
  dropout_param {
    dropout_ratio: 0.3
  }
}
layer {
  name: "relu4"
  type: "ReLU"
  bottom: "drop4"
  top: "relu4"
}
layer {
  name: "conv8"
  type: "Convolution"
  bottom: "relu4"
  top: "conv8"
  convolution_param {
    num_output: 280
    kernel_size: 1
    weight_filler {
      type: "xavier"
    }
  }
}
layer {
  name: "pool5"
  type: "Pooling"
  bottom: "conv8"
  top: "pool5"
  pooling_param {
    pool: MAX
    kernel_size: 2
    stride: 2
  }
}
layer {
  name: "drop5"
  type: "Dropout"
  bottom: "pool5"
  top: "drop5"
  dropout_param {
    dropout_ratio: 0.4
  }
}
layer {
  name: "relu5"
  type: "ReLU"
  bottom: "drop5"
  top: "relu5"
}
layer {
  name: "conv10"
  type: "Convolution"
  bottom: "relu5"
  top: "conv10"
  convolution_param {
    num_output: 300
    kernel_size: 1
    weight_filler {
      type: "xavier"
    }
  }
}
layer {
  name: "pool6"
  type: "Pooling"
  bottom: "conv10"
  top: "pool6"
  pooling_param {
    pool: MAX
    kernel_size: 2
    stride: 2
  }
}
layer {
  name: "drop6"
  type: "Dropout"
  bottom: "pool6"
  top: "drop6"
  dropout_param {
    dropout_ratio: 0.5
  }
}
layer {
  name: "relu6"
  type: "ReLU"
  bottom: "drop6"
  top: "relu6"
}
layer {
  name: "conv11"
  type: "Convolution"
  bottom: "relu6"
  top: "conv11"
  convolution_param {
    num_output: 100
    kernel_size: 1
    weight_filler {
      type: "xavier"
    }
  }
}
layer {
  name: "pool7"
  type: "Pooling"
  bottom: "conv11"
  top: "pool7"
  pooling_param {
    pool: MAX
    kernel_size: 2
    stride: 2
  }
}
layer {
  name: "drop7"
  type: "Dropout"
  bottom: "pool7"
  top: "drop7"
  dropout_param {
    dropout_ratio: 0
  }
}
layer {
  name: "relu7"
  type: "ReLU"
  bottom: "drop7"
  top: "relu7"
}
layer {
  name: "pool"
  type: "Pooling"
  bottom: "relu7"
  top: "pool"
  pooling_param {
    pool: AVE
    global_pooling: true
  }
}
layer {
  name: "flatten"
  type: "Flatten"
  bottom: "pool"
  top: "flatten"
}
layer {
  name: "score"
  type: "InnerProduct"
  bottom: "flatten"
  top: "score"
  inner_product_param {
    num_output: 10
    weight_filler {
      type: "gaussian"
    }
  }
}
layer {
  name: "accuracy"
  type: "Accuracy"
  bottom: "score"
  bottom: "label"
  top: "accuracy"
}
layer {
  name: "loss"
  type: "SoftmaxWithLoss"
  bottom: "score"
  bottom: "label"
  top: "loss"
}
I1018 20:14:39.526903  5775 layer_factory.hpp:77] Creating layer data
I1018 20:14:39.526983  5775 net.cpp:100] Creating Layer data
I1018 20:14:39.526989  5775 net.cpp:408] data -> data
I1018 20:14:39.526995  5775 net.cpp:408] data -> label
I1018 20:14:39.527565  5783 db_lmdb.cpp:35] Opened lmdb ../../../../data/mnist/mnist_test_lmdb
I1018 20:14:39.527643  5775 data_layer.cpp:41] output data size: 100,1,28,28
I1018 20:14:39.528262  5775 net.cpp:150] Setting up data
I1018 20:14:39.528270  5775 net.cpp:157] Top shape: 100 1 28 28 (78400)
I1018 20:14:39.528272  5775 net.cpp:157] Top shape: 100 (100)
I1018 20:14:39.528275  5775 net.cpp:165] Memory required for data: 314000
I1018 20:14:39.528276  5775 layer_factory.hpp:77] Creating layer label_data_1_split
I1018 20:14:39.528280  5775 net.cpp:100] Creating Layer label_data_1_split
I1018 20:14:39.528282  5775 net.cpp:434] label_data_1_split <- label
I1018 20:14:39.528290  5775 net.cpp:408] label_data_1_split -> label_data_1_split_0
I1018 20:14:39.528296  5775 net.cpp:408] label_data_1_split -> label_data_1_split_1
I1018 20:14:39.528326  5775 net.cpp:150] Setting up label_data_1_split
I1018 20:14:39.528331  5775 net.cpp:157] Top shape: 100 (100)
I1018 20:14:39.528332  5775 net.cpp:157] Top shape: 100 (100)
I1018 20:14:39.528334  5775 net.cpp:165] Memory required for data: 314800
I1018 20:14:39.528336  5775 layer_factory.hpp:77] Creating layer conv1
I1018 20:14:39.528342  5775 net.cpp:100] Creating Layer conv1
I1018 20:14:39.528343  5775 net.cpp:434] conv1 <- data
I1018 20:14:39.528347  5775 net.cpp:408] conv1 -> conv1
I1018 20:14:39.529032  5775 net.cpp:150] Setting up conv1
I1018 20:14:39.529041  5775 net.cpp:157] Top shape: 100 192 24 24 (11059200)
I1018 20:14:39.529042  5775 net.cpp:165] Memory required for data: 44551600
I1018 20:14:39.529047  5775 layer_factory.hpp:77] Creating layer pool1
I1018 20:14:39.529052  5775 net.cpp:100] Creating Layer pool1
I1018 20:14:39.529055  5775 net.cpp:434] pool1 <- conv1
I1018 20:14:39.529058  5775 net.cpp:408] pool1 -> pool1
I1018 20:14:39.529084  5775 net.cpp:150] Setting up pool1
I1018 20:14:39.529088  5775 net.cpp:157] Top shape: 100 192 12 12 (2764800)
I1018 20:14:39.529090  5775 net.cpp:165] Memory required for data: 55610800
I1018 20:14:39.529093  5775 layer_factory.hpp:77] Creating layer drop1
I1018 20:14:39.529096  5775 net.cpp:100] Creating Layer drop1
I1018 20:14:39.529098  5775 net.cpp:434] drop1 <- pool1
I1018 20:14:39.529101  5775 net.cpp:408] drop1 -> drop1
I1018 20:14:39.529124  5775 net.cpp:150] Setting up drop1
I1018 20:14:39.529129  5775 net.cpp:157] Top shape: 100 192 12 12 (2764800)
I1018 20:14:39.529130  5775 net.cpp:165] Memory required for data: 66670000
I1018 20:14:39.529132  5775 layer_factory.hpp:77] Creating layer relu1
I1018 20:14:39.529137  5775 net.cpp:100] Creating Layer relu1
I1018 20:14:39.529141  5775 net.cpp:434] relu1 <- drop1
I1018 20:14:39.529145  5775 net.cpp:408] relu1 -> relu1
I1018 20:14:39.529412  5775 net.cpp:150] Setting up relu1
I1018 20:14:39.529419  5775 net.cpp:157] Top shape: 100 192 12 12 (2764800)
I1018 20:14:39.529423  5775 net.cpp:165] Memory required for data: 77729200
I1018 20:14:39.529425  5775 layer_factory.hpp:77] Creating layer conv2
I1018 20:14:39.529431  5775 net.cpp:100] Creating Layer conv2
I1018 20:14:39.529434  5775 net.cpp:434] conv2 <- relu1
I1018 20:14:39.529438  5775 net.cpp:408] conv2 -> conv2
I1018 20:14:39.530278  5775 net.cpp:150] Setting up conv2
I1018 20:14:39.530287  5775 net.cpp:157] Top shape: 100 192 12 12 (2764800)
I1018 20:14:39.530289  5775 net.cpp:165] Memory required for data: 88788400
I1018 20:14:39.530302  5775 layer_factory.hpp:77] Creating layer conv3
I1018 20:14:39.530308  5775 net.cpp:100] Creating Layer conv3
I1018 20:14:39.530310  5775 net.cpp:434] conv3 <- conv2
I1018 20:14:39.530314  5775 net.cpp:408] conv3 -> conv3
I1018 20:14:39.532804  5775 net.cpp:150] Setting up conv3
I1018 20:14:39.532812  5775 net.cpp:157] Top shape: 100 240 10 10 (2400000)
I1018 20:14:39.532815  5775 net.cpp:165] Memory required for data: 98388400
I1018 20:14:39.532824  5775 layer_factory.hpp:77] Creating layer pool2
I1018 20:14:39.532832  5775 net.cpp:100] Creating Layer pool2
I1018 20:14:39.532835  5775 net.cpp:434] pool2 <- conv3
I1018 20:14:39.532838  5775 net.cpp:408] pool2 -> pool2
I1018 20:14:39.532865  5775 net.cpp:150] Setting up pool2
I1018 20:14:39.532868  5775 net.cpp:157] Top shape: 100 240 5 5 (600000)
I1018 20:14:39.532869  5775 net.cpp:165] Memory required for data: 100788400
I1018 20:14:39.532871  5775 layer_factory.hpp:77] Creating layer drop2
I1018 20:14:39.532876  5775 net.cpp:100] Creating Layer drop2
I1018 20:14:39.532876  5775 net.cpp:434] drop2 <- pool2
I1018 20:14:39.532879  5775 net.cpp:408] drop2 -> drop2
I1018 20:14:39.532904  5775 net.cpp:150] Setting up drop2
I1018 20:14:39.532908  5775 net.cpp:157] Top shape: 100 240 5 5 (600000)
I1018 20:14:39.532910  5775 net.cpp:165] Memory required for data: 103188400
I1018 20:14:39.532912  5775 layer_factory.hpp:77] Creating layer relu2
I1018 20:14:39.532914  5775 net.cpp:100] Creating Layer relu2
I1018 20:14:39.532917  5775 net.cpp:434] relu2 <- drop2
I1018 20:14:39.532918  5775 net.cpp:408] relu2 -> relu2
I1018 20:14:39.533037  5775 net.cpp:150] Setting up relu2
I1018 20:14:39.533043  5775 net.cpp:157] Top shape: 100 240 5 5 (600000)
I1018 20:14:39.533046  5775 net.cpp:165] Memory required for data: 105588400
I1018 20:14:39.533047  5775 layer_factory.hpp:77] Creating layer conv4
I1018 20:14:39.533054  5775 net.cpp:100] Creating Layer conv4
I1018 20:14:39.533058  5775 net.cpp:434] conv4 <- relu2
I1018 20:14:39.533063  5775 net.cpp:408] conv4 -> conv4
I1018 20:14:39.533916  5775 net.cpp:150] Setting up conv4
I1018 20:14:39.533924  5775 net.cpp:157] Top shape: 100 240 5 5 (600000)
I1018 20:14:39.533927  5775 net.cpp:165] Memory required for data: 107988400
I1018 20:14:39.533934  5775 layer_factory.hpp:77] Creating layer conv5
I1018 20:14:39.533941  5775 net.cpp:100] Creating Layer conv5
I1018 20:14:39.533946  5775 net.cpp:434] conv5 <- conv4
I1018 20:14:39.533951  5775 net.cpp:408] conv5 -> conv5
I1018 20:14:39.535744  5775 net.cpp:150] Setting up conv5
I1018 20:14:39.535753  5775 net.cpp:157] Top shape: 100 260 4 4 (416000)
I1018 20:14:39.535756  5775 net.cpp:165] Memory required for data: 109652400
I1018 20:14:39.535764  5775 layer_factory.hpp:77] Creating layer pool3
I1018 20:14:39.535773  5775 net.cpp:100] Creating Layer pool3
I1018 20:14:39.535775  5775 net.cpp:434] pool3 <- conv5
I1018 20:14:39.535781  5775 net.cpp:408] pool3 -> pool3
I1018 20:14:39.535812  5775 net.cpp:150] Setting up pool3
I1018 20:14:39.535818  5775 net.cpp:157] Top shape: 100 260 2 2 (104000)
I1018 20:14:39.535820  5775 net.cpp:165] Memory required for data: 110068400
I1018 20:14:39.535823  5775 layer_factory.hpp:77] Creating layer drop3
I1018 20:14:39.535828  5775 net.cpp:100] Creating Layer drop3
I1018 20:14:39.535832  5775 net.cpp:434] drop3 <- pool3
I1018 20:14:39.535837  5775 net.cpp:408] drop3 -> drop3
I1018 20:14:39.535866  5775 net.cpp:150] Setting up drop3
I1018 20:14:39.535871  5775 net.cpp:157] Top shape: 100 260 2 2 (104000)
I1018 20:14:39.535876  5775 net.cpp:165] Memory required for data: 110484400
I1018 20:14:39.535878  5775 layer_factory.hpp:77] Creating layer relu3
I1018 20:14:39.535882  5775 net.cpp:100] Creating Layer relu3
I1018 20:14:39.535887  5775 net.cpp:434] relu3 <- drop3
I1018 20:14:39.535892  5775 net.cpp:408] relu3 -> relu3
I1018 20:14:39.536011  5775 net.cpp:150] Setting up relu3
I1018 20:14:39.536017  5775 net.cpp:157] Top shape: 100 260 2 2 (104000)
I1018 20:14:39.536020  5775 net.cpp:165] Memory required for data: 110900400
I1018 20:14:39.536025  5775 layer_factory.hpp:77] Creating layer conv6
I1018 20:14:39.536041  5775 net.cpp:100] Creating Layer conv6
I1018 20:14:39.536043  5775 net.cpp:434] conv6 <- relu3
I1018 20:14:39.536049  5775 net.cpp:408] conv6 -> conv6
I1018 20:14:39.537283  5775 net.cpp:150] Setting up conv6
I1018 20:14:39.537293  5775 net.cpp:157] Top shape: 100 260 2 2 (104000)
I1018 20:14:39.537297  5775 net.cpp:165] Memory required for data: 111316400
I1018 20:14:39.537302  5775 layer_factory.hpp:77] Creating layer conv7
I1018 20:14:39.537309  5775 net.cpp:100] Creating Layer conv7
I1018 20:14:39.537313  5775 net.cpp:434] conv7 <- conv6
I1018 20:14:39.537319  5775 net.cpp:408] conv7 -> conv7
I1018 20:14:39.539288  5775 net.cpp:150] Setting up conv7
I1018 20:14:39.539296  5775 net.cpp:157] Top shape: 100 280 1 1 (28000)
I1018 20:14:39.539299  5775 net.cpp:165] Memory required for data: 111428400
I1018 20:14:39.539305  5775 layer_factory.hpp:77] Creating layer pool4
I1018 20:14:39.539311  5775 net.cpp:100] Creating Layer pool4
I1018 20:14:39.539315  5775 net.cpp:434] pool4 <- conv7
I1018 20:14:39.539321  5775 net.cpp:408] pool4 -> pool4
I1018 20:14:39.539353  5775 net.cpp:150] Setting up pool4
I1018 20:14:39.539358  5775 net.cpp:157] Top shape: 100 280 1 1 (28000)
I1018 20:14:39.539362  5775 net.cpp:165] Memory required for data: 111540400
I1018 20:14:39.539366  5775 layer_factory.hpp:77] Creating layer drop4
I1018 20:14:39.539369  5775 net.cpp:100] Creating Layer drop4
I1018 20:14:39.539373  5775 net.cpp:434] drop4 <- pool4
I1018 20:14:39.539379  5775 net.cpp:408] drop4 -> drop4
I1018 20:14:39.539407  5775 net.cpp:150] Setting up drop4
I1018 20:14:39.539412  5775 net.cpp:157] Top shape: 100 280 1 1 (28000)
I1018 20:14:39.539414  5775 net.cpp:165] Memory required for data: 111652400
I1018 20:14:39.539418  5775 layer_factory.hpp:77] Creating layer relu4
I1018 20:14:39.539424  5775 net.cpp:100] Creating Layer relu4
I1018 20:14:39.539427  5775 net.cpp:434] relu4 <- drop4
I1018 20:14:39.539432  5775 net.cpp:408] relu4 -> relu4
I1018 20:14:39.539561  5775 net.cpp:150] Setting up relu4
I1018 20:14:39.539567  5775 net.cpp:157] Top shape: 100 280 1 1 (28000)
I1018 20:14:39.539569  5775 net.cpp:165] Memory required for data: 111764400
I1018 20:14:39.539572  5775 layer_factory.hpp:77] Creating layer conv8
I1018 20:14:39.539580  5775 net.cpp:100] Creating Layer conv8
I1018 20:14:39.539584  5775 net.cpp:434] conv8 <- relu4
I1018 20:14:39.539588  5775 net.cpp:408] conv8 -> conv8
I1018 20:14:39.540524  5775 net.cpp:150] Setting up conv8
I1018 20:14:39.540534  5775 net.cpp:157] Top shape: 100 280 1 1 (28000)
I1018 20:14:39.540536  5775 net.cpp:165] Memory required for data: 111876400
I1018 20:14:39.540542  5775 layer_factory.hpp:77] Creating layer pool5
I1018 20:14:39.540549  5775 net.cpp:100] Creating Layer pool5
I1018 20:14:39.540551  5775 net.cpp:434] pool5 <- conv8
I1018 20:14:39.540557  5775 net.cpp:408] pool5 -> pool5
I1018 20:14:39.540590  5775 net.cpp:150] Setting up pool5
I1018 20:14:39.540594  5775 net.cpp:157] Top shape: 100 280 1 1 (28000)
I1018 20:14:39.540597  5775 net.cpp:165] Memory required for data: 111988400
I1018 20:14:39.540601  5775 layer_factory.hpp:77] Creating layer drop5
I1018 20:14:39.540606  5775 net.cpp:100] Creating Layer drop5
I1018 20:14:39.540609  5775 net.cpp:434] drop5 <- pool5
I1018 20:14:39.540616  5775 net.cpp:408] drop5 -> drop5
I1018 20:14:39.540642  5775 net.cpp:150] Setting up drop5
I1018 20:14:39.540648  5775 net.cpp:157] Top shape: 100 280 1 1 (28000)
I1018 20:14:39.540652  5775 net.cpp:165] Memory required for data: 112100400
I1018 20:14:39.540653  5775 layer_factory.hpp:77] Creating layer relu5
I1018 20:14:39.540659  5775 net.cpp:100] Creating Layer relu5
I1018 20:14:39.540663  5775 net.cpp:434] relu5 <- drop5
I1018 20:14:39.540666  5775 net.cpp:408] relu5 -> relu5
I1018 20:14:39.540865  5775 net.cpp:150] Setting up relu5
I1018 20:14:39.540874  5775 net.cpp:157] Top shape: 100 280 1 1 (28000)
I1018 20:14:39.540876  5775 net.cpp:165] Memory required for data: 112212400
I1018 20:14:39.540879  5775 layer_factory.hpp:77] Creating layer conv10
I1018 20:14:39.540895  5775 net.cpp:100] Creating Layer conv10
I1018 20:14:39.540899  5775 net.cpp:434] conv10 <- relu5
I1018 20:14:39.540905  5775 net.cpp:408] conv10 -> conv10
I1018 20:14:39.541858  5775 net.cpp:150] Setting up conv10
I1018 20:14:39.541867  5775 net.cpp:157] Top shape: 100 300 1 1 (30000)
I1018 20:14:39.541868  5775 net.cpp:165] Memory required for data: 112332400
I1018 20:14:39.541879  5775 layer_factory.hpp:77] Creating layer pool6
I1018 20:14:39.541887  5775 net.cpp:100] Creating Layer pool6
I1018 20:14:39.541889  5775 net.cpp:434] pool6 <- conv10
I1018 20:14:39.541894  5775 net.cpp:408] pool6 -> pool6
I1018 20:14:39.541926  5775 net.cpp:150] Setting up pool6
I1018 20:14:39.541931  5775 net.cpp:157] Top shape: 100 300 1 1 (30000)
I1018 20:14:39.541934  5775 net.cpp:165] Memory required for data: 112452400
I1018 20:14:39.541937  5775 layer_factory.hpp:77] Creating layer drop6
I1018 20:14:39.541944  5775 net.cpp:100] Creating Layer drop6
I1018 20:14:39.541946  5775 net.cpp:434] drop6 <- pool6
I1018 20:14:39.541950  5775 net.cpp:408] drop6 -> drop6
I1018 20:14:39.541978  5775 net.cpp:150] Setting up drop6
I1018 20:14:39.541985  5775 net.cpp:157] Top shape: 100 300 1 1 (30000)
I1018 20:14:39.541987  5775 net.cpp:165] Memory required for data: 112572400
I1018 20:14:39.541990  5775 layer_factory.hpp:77] Creating layer relu6
I1018 20:14:39.541993  5775 net.cpp:100] Creating Layer relu6
I1018 20:14:39.541997  5775 net.cpp:434] relu6 <- drop6
I1018 20:14:39.542002  5775 net.cpp:408] relu6 -> relu6
I1018 20:14:39.542122  5775 net.cpp:150] Setting up relu6
I1018 20:14:39.542129  5775 net.cpp:157] Top shape: 100 300 1 1 (30000)
I1018 20:14:39.542135  5775 net.cpp:165] Memory required for data: 112692400
I1018 20:14:39.542137  5775 layer_factory.hpp:77] Creating layer conv11
I1018 20:14:39.542143  5775 net.cpp:100] Creating Layer conv11
I1018 20:14:39.542146  5775 net.cpp:434] conv11 <- relu6
I1018 20:14:39.542152  5775 net.cpp:408] conv11 -> conv11
I1018 20:14:39.542912  5775 net.cpp:150] Setting up conv11
I1018 20:14:39.542922  5775 net.cpp:157] Top shape: 100 100 1 1 (10000)
I1018 20:14:39.542924  5775 net.cpp:165] Memory required for data: 112732400
I1018 20:14:39.542930  5775 layer_factory.hpp:77] Creating layer pool7
I1018 20:14:39.542937  5775 net.cpp:100] Creating Layer pool7
I1018 20:14:39.542940  5775 net.cpp:434] pool7 <- conv11
I1018 20:14:39.542945  5775 net.cpp:408] pool7 -> pool7
I1018 20:14:39.542979  5775 net.cpp:150] Setting up pool7
I1018 20:14:39.542984  5775 net.cpp:157] Top shape: 100 100 1 1 (10000)
I1018 20:14:39.542989  5775 net.cpp:165] Memory required for data: 112772400
I1018 20:14:39.542991  5775 layer_factory.hpp:77] Creating layer drop7
I1018 20:14:39.542997  5775 net.cpp:100] Creating Layer drop7
I1018 20:14:39.543000  5775 net.cpp:434] drop7 <- pool7
I1018 20:14:39.543004  5775 net.cpp:408] drop7 -> drop7
I1018 20:14:39.543032  5775 net.cpp:150] Setting up drop7
I1018 20:14:39.543038  5775 net.cpp:157] Top shape: 100 100 1 1 (10000)
I1018 20:14:39.543042  5775 net.cpp:165] Memory required for data: 112812400
I1018 20:14:39.543045  5775 layer_factory.hpp:77] Creating layer relu7
I1018 20:14:39.543052  5775 net.cpp:100] Creating Layer relu7
I1018 20:14:39.543056  5775 net.cpp:434] relu7 <- drop7
I1018 20:14:39.543061  5775 net.cpp:408] relu7 -> relu7
I1018 20:14:39.543180  5775 net.cpp:150] Setting up relu7
I1018 20:14:39.543186  5775 net.cpp:157] Top shape: 100 100 1 1 (10000)
I1018 20:14:39.543190  5775 net.cpp:165] Memory required for data: 112852400
I1018 20:14:39.543192  5775 layer_factory.hpp:77] Creating layer pool
I1018 20:14:39.543197  5775 net.cpp:100] Creating Layer pool
I1018 20:14:39.543200  5775 net.cpp:434] pool <- relu7
I1018 20:14:39.543206  5775 net.cpp:408] pool -> pool
I1018 20:14:39.543407  5775 net.cpp:150] Setting up pool
I1018 20:14:39.543414  5775 net.cpp:157] Top shape: 100 100 1 1 (10000)
I1018 20:14:39.543417  5775 net.cpp:165] Memory required for data: 112892400
I1018 20:14:39.543421  5775 layer_factory.hpp:77] Creating layer flatten
I1018 20:14:39.543431  5775 net.cpp:100] Creating Layer flatten
I1018 20:14:39.543436  5775 net.cpp:434] flatten <- pool
I1018 20:14:39.543442  5775 net.cpp:408] flatten -> flatten
I1018 20:14:39.543463  5775 net.cpp:150] Setting up flatten
I1018 20:14:39.543468  5775 net.cpp:157] Top shape: 100 100 (10000)
I1018 20:14:39.543470  5775 net.cpp:165] Memory required for data: 112932400
I1018 20:14:39.543473  5775 layer_factory.hpp:77] Creating layer score
I1018 20:14:39.543483  5775 net.cpp:100] Creating Layer score
I1018 20:14:39.543488  5775 net.cpp:434] score <- flatten
I1018 20:14:39.543493  5775 net.cpp:408] score -> score
I1018 20:14:39.543582  5775 net.cpp:150] Setting up score
I1018 20:14:39.543587  5775 net.cpp:157] Top shape: 100 10 (1000)
I1018 20:14:39.543591  5775 net.cpp:165] Memory required for data: 112936400
I1018 20:14:39.543596  5775 layer_factory.hpp:77] Creating layer score_score_0_split
I1018 20:14:39.543602  5775 net.cpp:100] Creating Layer score_score_0_split
I1018 20:14:39.543606  5775 net.cpp:434] score_score_0_split <- score
I1018 20:14:39.543612  5775 net.cpp:408] score_score_0_split -> score_score_0_split_0
I1018 20:14:39.543618  5775 net.cpp:408] score_score_0_split -> score_score_0_split_1
I1018 20:14:39.543647  5775 net.cpp:150] Setting up score_score_0_split
I1018 20:14:39.543650  5775 net.cpp:157] Top shape: 100 10 (1000)
I1018 20:14:39.543654  5775 net.cpp:157] Top shape: 100 10 (1000)
I1018 20:14:39.543658  5775 net.cpp:165] Memory required for data: 112944400
I1018 20:14:39.543660  5775 layer_factory.hpp:77] Creating layer accuracy
I1018 20:14:39.543666  5775 net.cpp:100] Creating Layer accuracy
I1018 20:14:39.543670  5775 net.cpp:434] accuracy <- score_score_0_split_0
I1018 20:14:39.543674  5775 net.cpp:434] accuracy <- label_data_1_split_0
I1018 20:14:39.543680  5775 net.cpp:408] accuracy -> accuracy
…
