…
  level: 0
  stage: ""
}
type: "Adam"
I1018 17:35:06.374940  3856 solver.cpp:81] Creating training net from train_net file: /home/adam/Honours/Honours-Project/mnist_pooling/max/elu/poolcnn_elu_train.prototxt
I1018 17:35:06.375246  3856 net.cpp:58] Initializing net from parameters: 
state {
  phase: TRAIN
  level: 0
  stage: ""
}
layer {
  name: "data"
  type: "Data"
  top: "data"
  top: "label"
  transform_param {
    scale: 0.0039215689
  }
  data_param {
    source: "../../../../data/mnist/mnist_train_lmdb"
    batch_size: 64
    backend: LMDB
  }
}
layer {
  name: "conv1"
  type: "Convolution"
  bottom: "data"
  top: "conv1"
  convolution_param {
    num_output: 192
    kernel_size: 5
    weight_filler {
      type: "xavier"
    }
  }
}
layer {
  name: "pool1"
  type: "Pooling"
  bottom: "conv1"
  top: "pool1"
  pooling_param {
    pool: MAX
    kernel_size: 2
    stride: 2
  }
}
layer {
  name: "drop1"
  type: "Dropout"
  bottom: "pool1"
  top: "drop1"
  dropout_param {
    dropout_ratio: 0
  }
}
layer {
  name: "elu1"
  type: "ELU"
  bottom: "drop1"
  top: "elu1"
}
layer {
  name: "conv2"
  type: "Convolution"
  bottom: "elu1"
  top: "conv2"
  convolution_param {
    num_output: 192
    kernel_size: 1
    weight_filler {
      type: "xavier"
    }
  }
}
layer {
  name: "conv3"
  type: "Convolution"
  bottom: "conv2"
  top: "conv3"
  convolution_param {
    num_output: 240
    kernel_size: 3
    weight_filler {
      type: "xavier"
    }
  }
}
layer {
  name: "pool2"
  type: "Pooling"
  bottom: "conv3"
  top: "pool2"
  pooling_param {
    pool: MAX
    kernel_size: 2
    stride: 2
  }
}
layer {
  name: "drop2"
  type: "Dropout"
  bottom: "pool2"
  top: "drop2"
  dropout_param {
    dropout_ratio: 0.1
  }
}
layer {
  name: "elu2"
  type: "ELU"
  bottom: "drop2"
  top: "elu2"
}
layer {
  name: "conv4"
  type: "Convolution"
  bottom: "elu2"
  top: "conv4"
  convolution_param {
    num_output: 240
    kernel_size: 1
    weight_filler {
      type: "xavier"
    }
  }
}
layer {
  name: "conv5"
  type: "Convolution"
  bottom: "conv4"
  top: "conv5"
  convolution_param {
    num_output: 260
    kernel_size: 2
    weight_filler {
      type: "xavier"
    }
  }
}
layer {
  name: "pool3"
  type: "Pooling"
  bottom: "conv5"
  top: "pool3"
  pooling_param {
    pool: MAX
    kernel_size: 2
    stride: 2
  }
}
layer {
  name: "drop3"
  type: "Dropout"
  bottom: "pool3"
  top: "drop3"
  dropout_param {
    dropout_ratio: 0.2
  }
}
layer {
  name: "elu3"
  type: "ELU"
  bottom: "drop3"
  top: "elu3"
}
layer {
  name: "conv6"
  type: "Convolution"
  bottom: "elu3"
  top: "conv6"
  convolution_param {
    num_output: 260
    kernel_size: 1
    weight_filler {
      type: "xavier"
    }
  }
}
layer {
  name: "conv7"
  type: "Convolution"
  bottom: "conv6"
  top: "conv7"
  convolution_param {
    num_output: 280
    kernel_size: 2
    weight_filler {
      type: "xavier"
    }
  }
}
layer {
  name: "pool4"
  type: "Pooling"
  bottom: "conv7"
  top: "pool4"
  pooling_param {
    pool: MAX
    kernel_size: 2
    stride: 2
  }
}
layer {
  name: "drop4"
  type: "Dropout"
  bottom: "pool4"
  top: "drop4"
  dropout_param {
    dropout_ratio: 0.3
  }
}
layer {
  name: "elu4"
  type: "ELU"
  bottom: "drop4"
  top: "elu4"
}
layer {
  name: "conv8"
  type: "Convolution"
  bottom: "elu4"
  top: "conv8"
  convolution_param {
    num_output: 280
    kernel_size: 1
    weight_filler {
      type: "xavier"
    }
  }
}
layer {
  name: "pool5"
  type: "Pooling"
  bottom: "conv8"
  top: "pool5"
  pooling_param {
    pool: MAX
    kernel_size: 2
    stride: 2
  }
}
layer {
  name: "drop5"
  type: "Dropout"
  bottom: "pool5"
  top: "drop5"
  dropout_param {
    dropout_ratio: 0.4
  }
}
layer {
  name: "elu5"
  type: "ELU"
  bottom: "drop5"
  top: "elu5"
}
layer {
  name: "conv10"
  type: "Convolution"
  bottom: "elu5"
  top: "conv10"
  convolution_param {
    num_output: 300
    kernel_size: 1
    weight_filler {
      type: "xavier"
    }
  }
}
layer {
  name: "pool6"
  type: "Pooling"
  bottom: "conv10"
  top: "pool6"
  pooling_param {
    pool: MAX
    kernel_size: 2
    stride: 2
  }
}
layer {
  name: "drop6"
  type: "Dropout"
  bottom: "pool6"
  top: "drop6"
  dropout_param {
    dropout_ratio: 0.5
  }
}
layer {
  name: "elu6"
  type: "ELU"
  bottom: "drop6"
  top: "elu6"
}
layer {
  name: "conv11"
  type: "Convolution"
  bottom: "elu6"
  top: "conv11"
  convolution_param {
    num_output: 100
    kernel_size: 1
    weight_filler {
      type: "xavier"
    }
  }
}
layer {
  name: "pool7"
  type: "Pooling"
  bottom: "conv11"
  top: "pool7"
  pooling_param {
    pool: MAX
    kernel_size: 2
    stride: 2
  }
}
layer {
  name: "drop7"
  type: "Dropout"
  bottom: "pool7"
  top: "drop7"
  dropout_param {
    dropout_ratio: 0
  }
}
layer {
  name: "elu7"
  type: "ELU"
  bottom: "drop7"
  top: "elu7"
}
layer {
  name: "pool"
  type: "Pooling"
  bottom: "elu7"
  top: "pool"
  pooling_param {
    pool: AVE
    global_pooling: true
  }
}
layer {
  name: "flatten"
  type: "Flatten"
  bottom: "pool"
  top: "flatten"
}
layer {
  name: "score"
  type: "InnerProduct"
  bottom: "flatten"
  top: "score"
  inner_product_param {
    num_output: 10
    weight_filler {
      type: "gaussian"
    }
  }
}
layer {
  name: "accuracy"
  type: "Accuracy"
  bottom: "score"
  bottom: "label"
  top: "accuracy"
}
layer {
  name: "loss"
  type: "SoftmaxWithLoss"
  bottom: "score"
  bottom: "label"
  top: "loss"
}
I1018 17:35:06.375349  3856 layer_factory.hpp:77] Creating layer data
I1018 17:35:06.375735  3856 net.cpp:100] Creating Layer data
I1018 17:35:06.375742  3856 net.cpp:408] data -> data
I1018 17:35:06.375757  3856 net.cpp:408] data -> label
I1018 17:35:06.376365  3862 db_lmdb.cpp:35] Opened lmdb ../../../../data/mnist/mnist_train_lmdb
I1018 17:35:06.381850  3856 data_layer.cpp:41] output data size: 64,1,28,28
I1018 17:35:06.382397  3856 net.cpp:150] Setting up data
I1018 17:35:06.382408  3856 net.cpp:157] Top shape: 64 1 28 28 (50176)
I1018 17:35:06.382411  3856 net.cpp:157] Top shape: 64 (64)
I1018 17:35:06.382412  3856 net.cpp:165] Memory required for data: 200960
I1018 17:35:06.382419  3856 layer_factory.hpp:77] Creating layer label_data_1_split
I1018 17:35:06.382427  3856 net.cpp:100] Creating Layer label_data_1_split
I1018 17:35:06.382432  3856 net.cpp:434] label_data_1_split <- label
I1018 17:35:06.382443  3856 net.cpp:408] label_data_1_split -> label_data_1_split_0
I1018 17:35:06.382449  3856 net.cpp:408] label_data_1_split -> label_data_1_split_1
I1018 17:35:06.382477  3856 net.cpp:150] Setting up label_data_1_split
I1018 17:35:06.382480  3856 net.cpp:157] Top shape: 64 (64)
I1018 17:35:06.382483  3856 net.cpp:157] Top shape: 64 (64)
I1018 17:35:06.382484  3856 net.cpp:165] Memory required for data: 201472
I1018 17:35:06.382485  3856 layer_factory.hpp:77] Creating layer conv1
I1018 17:35:06.382499  3856 net.cpp:100] Creating Layer conv1
I1018 17:35:06.382501  3856 net.cpp:434] conv1 <- data
I1018 17:35:06.382504  3856 net.cpp:408] conv1 -> conv1
I1018 17:35:06.503741  3856 net.cpp:150] Setting up conv1
I1018 17:35:06.503765  3856 net.cpp:157] Top shape: 64 192 24 24 (7077888)
I1018 17:35:06.503768  3856 net.cpp:165] Memory required for data: 28513024
I1018 17:35:06.503785  3856 layer_factory.hpp:77] Creating layer pool1
I1018 17:35:06.503794  3856 net.cpp:100] Creating Layer pool1
I1018 17:35:06.503798  3856 net.cpp:434] pool1 <- conv1
I1018 17:35:06.503803  3856 net.cpp:408] pool1 -> pool1
I1018 17:35:06.503849  3856 net.cpp:150] Setting up pool1
I1018 17:35:06.503855  3856 net.cpp:157] Top shape: 64 192 12 12 (1769472)
I1018 17:35:06.504297  3856 net.cpp:165] Memory required for data: 35590912
I1018 17:35:06.504302  3856 layer_factory.hpp:77] Creating layer drop1
I1018 17:35:06.504307  3856 net.cpp:100] Creating Layer drop1
I1018 17:35:06.504308  3856 net.cpp:434] drop1 <- pool1
I1018 17:35:06.504312  3856 net.cpp:408] drop1 -> drop1
I1018 17:35:06.504343  3856 net.cpp:150] Setting up drop1
I1018 17:35:06.504346  3856 net.cpp:157] Top shape: 64 192 12 12 (1769472)
I1018 17:35:06.504348  3856 net.cpp:165] Memory required for data: 42668800
I1018 17:35:06.504349  3856 layer_factory.hpp:77] Creating layer elu1
I1018 17:35:06.504354  3856 net.cpp:100] Creating Layer elu1
I1018 17:35:06.504354  3856 net.cpp:434] elu1 <- drop1
I1018 17:35:06.504357  3856 net.cpp:408] elu1 -> elu1
I1018 17:35:06.504369  3856 net.cpp:150] Setting up elu1
I1018 17:35:06.504371  3856 net.cpp:157] Top shape: 64 192 12 12 (1769472)
I1018 17:35:06.504372  3856 net.cpp:165] Memory required for data: 49746688
I1018 17:35:06.504374  3856 layer_factory.hpp:77] Creating layer conv2
I1018 17:35:06.504380  3856 net.cpp:100] Creating Layer conv2
I1018 17:35:06.504382  3856 net.cpp:434] conv2 <- elu1
I1018 17:35:06.504385  3856 net.cpp:408] conv2 -> conv2
I1018 17:35:06.505112  3856 net.cpp:150] Setting up conv2
I1018 17:35:06.505120  3856 net.cpp:157] Top shape: 64 192 12 12 (1769472)
I1018 17:35:06.505123  3856 net.cpp:165] Memory required for data: 56824576
I1018 17:35:06.505128  3856 layer_factory.hpp:77] Creating layer conv3
I1018 17:35:06.505132  3856 net.cpp:100] Creating Layer conv3
I1018 17:35:06.505134  3856 net.cpp:434] conv3 <- conv2
I1018 17:35:06.505138  3856 net.cpp:408] conv3 -> conv3
I1018 17:35:06.507553  3856 net.cpp:150] Setting up conv3
I1018 17:35:06.507561  3856 net.cpp:157] Top shape: 64 240 10 10 (1536000)
I1018 17:35:06.507563  3856 net.cpp:165] Memory required for data: 62968576
I1018 17:35:06.507570  3856 layer_factory.hpp:77] Creating layer pool2
I1018 17:35:06.507575  3856 net.cpp:100] Creating Layer pool2
I1018 17:35:06.507577  3856 net.cpp:434] pool2 <- conv3
I1018 17:35:06.507580  3856 net.cpp:408] pool2 -> pool2
I1018 17:35:06.507603  3856 net.cpp:150] Setting up pool2
I1018 17:35:06.507608  3856 net.cpp:157] Top shape: 64 240 5 5 (384000)
I1018 17:35:06.507609  3856 net.cpp:165] Memory required for data: 64504576
I1018 17:35:06.507611  3856 layer_factory.hpp:77] Creating layer drop2
I1018 17:35:06.507616  3856 net.cpp:100] Creating Layer drop2
I1018 17:35:06.507617  3856 net.cpp:434] drop2 <- pool2
I1018 17:35:06.507619  3856 net.cpp:408] drop2 -> drop2
I1018 17:35:06.507640  3856 net.cpp:150] Setting up drop2
I1018 17:35:06.507643  3856 net.cpp:157] Top shape: 64 240 5 5 (384000)
I1018 17:35:06.507645  3856 net.cpp:165] Memory required for data: 66040576
I1018 17:35:06.507647  3856 layer_factory.hpp:77] Creating layer elu2
I1018 17:35:06.507649  3856 net.cpp:100] Creating Layer elu2
I1018 17:35:06.507650  3856 net.cpp:434] elu2 <- drop2
I1018 17:35:06.507654  3856 net.cpp:408] elu2 -> elu2
I1018 17:35:06.507665  3856 net.cpp:150] Setting up elu2
I1018 17:35:06.507668  3856 net.cpp:157] Top shape: 64 240 5 5 (384000)
I1018 17:35:06.507670  3856 net.cpp:165] Memory required for data: 67576576
I1018 17:35:06.507673  3856 layer_factory.hpp:77] Creating layer conv4
I1018 17:35:06.507676  3856 net.cpp:100] Creating Layer conv4
I1018 17:35:06.507679  3856 net.cpp:434] conv4 <- elu2
I1018 17:35:06.507683  3856 net.cpp:408] conv4 -> conv4
I1018 17:35:06.508500  3856 net.cpp:150] Setting up conv4
I1018 17:35:06.508507  3856 net.cpp:157] Top shape: 64 240 5 5 (384000)
I1018 17:35:06.508509  3856 net.cpp:165] Memory required for data: 69112576
I1018 17:35:06.508512  3856 layer_factory.hpp:77] Creating layer conv5
I1018 17:35:06.508518  3856 net.cpp:100] Creating Layer conv5
I1018 17:35:06.508520  3856 net.cpp:434] conv5 <- conv4
I1018 17:35:06.508524  3856 net.cpp:408] conv5 -> conv5
I1018 17:35:06.510257  3856 net.cpp:150] Setting up conv5
I1018 17:35:06.510267  3856 net.cpp:157] Top shape: 64 260 4 4 (266240)
I1018 17:35:06.510268  3856 net.cpp:165] Memory required for data: 70177536
I1018 17:35:06.510282  3856 layer_factory.hpp:77] Creating layer pool3
I1018 17:35:06.510285  3856 net.cpp:100] Creating Layer pool3
I1018 17:35:06.510288  3856 net.cpp:434] pool3 <- conv5
I1018 17:35:06.510291  3856 net.cpp:408] pool3 -> pool3
I1018 17:35:06.510314  3856 net.cpp:150] Setting up pool3
I1018 17:35:06.510318  3856 net.cpp:157] Top shape: 64 260 2 2 (66560)
I1018 17:35:06.510320  3856 net.cpp:165] Memory required for data: 70443776
I1018 17:35:06.510323  3856 layer_factory.hpp:77] Creating layer drop3
I1018 17:35:06.510326  3856 net.cpp:100] Creating Layer drop3
I1018 17:35:06.510327  3856 net.cpp:434] drop3 <- pool3
I1018 17:35:06.510330  3856 net.cpp:408] drop3 -> drop3
I1018 17:35:06.510352  3856 net.cpp:150] Setting up drop3
I1018 17:35:06.510355  3856 net.cpp:157] Top shape: 64 260 2 2 (66560)
I1018 17:35:06.510357  3856 net.cpp:165] Memory required for data: 70710016
I1018 17:35:06.510360  3856 layer_factory.hpp:77] Creating layer elu3
I1018 17:35:06.510362  3856 net.cpp:100] Creating Layer elu3
I1018 17:35:06.510365  3856 net.cpp:434] elu3 <- drop3
I1018 17:35:06.510366  3856 net.cpp:408] elu3 -> elu3
I1018 17:35:06.510380  3856 net.cpp:150] Setting up elu3
I1018 17:35:06.510382  3856 net.cpp:157] Top shape: 64 260 2 2 (66560)
I1018 17:35:06.510385  3856 net.cpp:165] Memory required for data: 70976256
I1018 17:35:06.510385  3856 layer_factory.hpp:77] Creating layer conv6
I1018 17:35:06.510392  3856 net.cpp:100] Creating Layer conv6
I1018 17:35:06.510395  3856 net.cpp:434] conv6 <- elu3
I1018 17:35:06.510397  3856 net.cpp:408] conv6 -> conv6
I1018 17:35:06.511492  3856 net.cpp:150] Setting up conv6
I1018 17:35:06.511502  3856 net.cpp:157] Top shape: 64 260 2 2 (66560)
I1018 17:35:06.511503  3856 net.cpp:165] Memory required for data: 71242496
I1018 17:35:06.511507  3856 layer_factory.hpp:77] Creating layer conv7
I1018 17:35:06.511512  3856 net.cpp:100] Creating Layer conv7
I1018 17:35:06.511513  3856 net.cpp:434] conv7 <- conv6
I1018 17:35:06.511518  3856 net.cpp:408] conv7 -> conv7
I1018 17:35:06.513334  3856 net.cpp:150] Setting up conv7
I1018 17:35:06.513342  3856 net.cpp:157] Top shape: 64 280 1 1 (17920)
I1018 17:35:06.513345  3856 net.cpp:165] Memory required for data: 71314176
I1018 17:35:06.513348  3856 layer_factory.hpp:77] Creating layer pool4
I1018 17:35:06.513352  3856 net.cpp:100] Creating Layer pool4
I1018 17:35:06.513355  3856 net.cpp:434] pool4 <- conv7
I1018 17:35:06.513358  3856 net.cpp:408] pool4 -> pool4
I1018 17:35:06.513382  3856 net.cpp:150] Setting up pool4
I1018 17:35:06.513386  3856 net.cpp:157] Top shape: 64 280 1 1 (17920)
I1018 17:35:06.513387  3856 net.cpp:165] Memory required for data: 71385856
I1018 17:35:06.513389  3856 layer_factory.hpp:77] Creating layer drop4
I1018 17:35:06.513392  3856 net.cpp:100] Creating Layer drop4
I1018 17:35:06.513394  3856 net.cpp:434] drop4 <- pool4
I1018 17:35:06.513397  3856 net.cpp:408] drop4 -> drop4
I1018 17:35:06.513417  3856 net.cpp:150] Setting up drop4
I1018 17:35:06.513422  3856 net.cpp:157] Top shape: 64 280 1 1 (17920)
I1018 17:35:06.513423  3856 net.cpp:165] Memory required for data: 71457536
I1018 17:35:06.513424  3856 layer_factory.hpp:77] Creating layer elu4
I1018 17:35:06.513427  3856 net.cpp:100] Creating Layer elu4
I1018 17:35:06.513429  3856 net.cpp:434] elu4 <- drop4
I1018 17:35:06.513432  3856 net.cpp:408] elu4 -> elu4
I1018 17:35:06.513443  3856 net.cpp:150] Setting up elu4
I1018 17:35:06.513447  3856 net.cpp:157] Top shape: 64 280 1 1 (17920)
I1018 17:35:06.513448  3856 net.cpp:165] Memory required for data: 71529216
I1018 17:35:06.513449  3856 layer_factory.hpp:77] Creating layer conv8
I1018 17:35:06.513454  3856 net.cpp:100] Creating Layer conv8
I1018 17:35:06.513458  3856 net.cpp:434] conv8 <- elu4
I1018 17:35:06.513461  3856 net.cpp:408] conv8 -> conv8
I1018 17:35:06.514353  3856 net.cpp:150] Setting up conv8
I1018 17:35:06.514360  3856 net.cpp:157] Top shape: 64 280 1 1 (17920)
I1018 17:35:06.514363  3856 net.cpp:165] Memory required for data: 71600896
I1018 17:35:06.514366  3856 layer_factory.hpp:77] Creating layer pool5
I1018 17:35:06.514377  3856 net.cpp:100] Creating Layer pool5
I1018 17:35:06.514379  3856 net.cpp:434] pool5 <- conv8
I1018 17:35:06.514384  3856 net.cpp:408] pool5 -> pool5
I1018 17:35:06.514407  3856 net.cpp:150] Setting up pool5
I1018 17:35:06.514411  3856 net.cpp:157] Top shape: 64 280 1 1 (17920)
I1018 17:35:06.514412  3856 net.cpp:165] Memory required for data: 71672576
I1018 17:35:06.514415  3856 layer_factory.hpp:77] Creating layer drop5
I1018 17:35:06.514418  3856 net.cpp:100] Creating Layer drop5
I1018 17:35:06.514420  3856 net.cpp:434] drop5 <- pool5
I1018 17:35:06.514422  3856 net.cpp:408] drop5 -> drop5
I1018 17:35:06.514443  3856 net.cpp:150] Setting up drop5
I1018 17:35:06.514446  3856 net.cpp:157] Top shape: 64 280 1 1 (17920)
I1018 17:35:06.514447  3856 net.cpp:165] Memory required for data: 71744256
I1018 17:35:06.514449  3856 layer_factory.hpp:77] Creating layer elu5
I1018 17:35:06.514452  3856 net.cpp:100] Creating Layer elu5
I1018 17:35:06.514453  3856 net.cpp:434] elu5 <- drop5
I1018 17:35:06.514457  3856 net.cpp:408] elu5 -> elu5
I1018 17:35:06.514468  3856 net.cpp:150] Setting up elu5
I1018 17:35:06.514473  3856 net.cpp:157] Top shape: 64 280 1 1 (17920)
I1018 17:35:06.514475  3856 net.cpp:165] Memory required for data: 71815936
I1018 17:35:06.514477  3856 layer_factory.hpp:77] Creating layer conv10
I1018 17:35:06.514480  3856 net.cpp:100] Creating Layer conv10
I1018 17:35:06.514483  3856 net.cpp:434] conv10 <- elu5
I1018 17:35:06.514487  3856 net.cpp:408] conv10 -> conv10
I1018 17:35:06.515410  3856 net.cpp:150] Setting up conv10
I1018 17:35:06.515419  3856 net.cpp:157] Top shape: 64 300 1 1 (19200)
I1018 17:35:06.515420  3856 net.cpp:165] Memory required for data: 71892736
I1018 17:35:06.515427  3856 layer_factory.hpp:77] Creating layer pool6
I1018 17:35:06.515431  3856 net.cpp:100] Creating Layer pool6
I1018 17:35:06.515434  3856 net.cpp:434] pool6 <- conv10
I1018 17:35:06.515436  3856 net.cpp:408] pool6 -> pool6
I1018 17:35:06.515461  3856 net.cpp:150] Setting up pool6
I1018 17:35:06.515465  3856 net.cpp:157] Top shape: 64 300 1 1 (19200)
I1018 17:35:06.515466  3856 net.cpp:165] Memory required for data: 71969536
I1018 17:35:06.515468  3856 layer_factory.hpp:77] Creating layer drop6
I1018 17:35:06.515471  3856 net.cpp:100] Creating Layer drop6
I1018 17:35:06.515472  3856 net.cpp:434] drop6 <- pool6
I1018 17:35:06.515480  3856 net.cpp:408] drop6 -> drop6
I1018 17:35:06.515506  3856 net.cpp:150] Setting up drop6
I1018 17:35:06.515508  3856 net.cpp:157] Top shape: 64 300 1 1 (19200)
I1018 17:35:06.515511  3856 net.cpp:165] Memory required for data: 72046336
I1018 17:35:06.515511  3856 layer_factory.hpp:77] Creating layer elu6
I1018 17:35:06.515517  3856 net.cpp:100] Creating Layer elu6
I1018 17:35:06.515519  3856 net.cpp:434] elu6 <- drop6
I1018 17:35:06.515522  3856 net.cpp:408] elu6 -> elu6
I1018 17:35:06.515535  3856 net.cpp:150] Setting up elu6
I1018 17:35:06.515539  3856 net.cpp:157] Top shape: 64 300 1 1 (19200)
I1018 17:35:06.515540  3856 net.cpp:165] Memory required for data: 72123136
I1018 17:35:06.515542  3856 layer_factory.hpp:77] Creating layer conv11
I1018 17:35:06.515547  3856 net.cpp:100] Creating Layer conv11
I1018 17:35:06.515549  3856 net.cpp:434] conv11 <- elu6
I1018 17:35:06.515552  3856 net.cpp:408] conv11 -> conv11
I1018 17:35:06.516757  3856 net.cpp:150] Setting up conv11
I1018 17:35:06.516769  3856 net.cpp:157] Top shape: 64 100 1 1 (6400)
I1018 17:35:06.516772  3856 net.cpp:165] Memory required for data: 72148736
I1018 17:35:06.516777  3856 layer_factory.hpp:77] Creating layer pool7
I1018 17:35:06.516782  3856 net.cpp:100] Creating Layer pool7
I1018 17:35:06.516784  3856 net.cpp:434] pool7 <- conv11
I1018 17:35:06.516789  3856 net.cpp:408] pool7 -> pool7
I1018 17:35:06.516819  3856 net.cpp:150] Setting up pool7
I1018 17:35:06.516824  3856 net.cpp:157] Top shape: 64 100 1 1 (6400)
I1018 17:35:06.516825  3856 net.cpp:165] Memory required for data: 72174336
I1018 17:35:06.516827  3856 layer_factory.hpp:77] Creating layer drop7
I1018 17:35:06.516841  3856 net.cpp:100] Creating Layer drop7
I1018 17:35:06.516844  3856 net.cpp:434] drop7 <- pool7
I1018 17:35:06.516847  3856 net.cpp:408] drop7 -> drop7
I1018 17:35:06.516870  3856 net.cpp:150] Setting up drop7
I1018 17:35:06.516875  3856 net.cpp:157] Top shape: 64 100 1 1 (6400)
I1018 17:35:06.516876  3856 net.cpp:165] Memory required for data: 72199936
I1018 17:35:06.516878  3856 layer_factory.hpp:77] Creating layer elu7
I1018 17:35:06.516885  3856 net.cpp:100] Creating Layer elu7
I1018 17:35:06.516887  3856 net.cpp:434] elu7 <- drop7
I1018 17:35:06.516891  3856 net.cpp:408] elu7 -> elu7
I1018 17:35:06.516902  3856 net.cpp:150] Setting up elu7
I1018 17:35:06.516906  3856 net.cpp:157] Top shape: 64 100 1 1 (6400)
I1018 17:35:06.516908  3856 net.cpp:165] Memory required for data: 72225536
I1018 17:35:06.516909  3856 layer_factory.hpp:77] Creating layer pool
I1018 17:35:06.516913  3856 net.cpp:100] Creating Layer pool
I1018 17:35:06.516916  3856 net.cpp:434] pool <- elu7
I1018 17:35:06.516919  3856 net.cpp:408] pool -> pool
I1018 17:35:06.517498  3856 net.cpp:150] Setting up pool
I1018 17:35:06.517504  3856 net.cpp:157] Top shape: 64 100 1 1 (6400)
I1018 17:35:06.517506  3856 net.cpp:165] Memory required for data: 72251136
I1018 17:35:06.517508  3856 layer_factory.hpp:77] Creating layer flatten
I1018 17:35:06.517511  3856 net.cpp:100] Creating Layer flatten
I1018 17:35:06.517514  3856 net.cpp:434] flatten <- pool
I1018 17:35:06.517518  3856 net.cpp:408] flatten -> flatten
I1018 17:35:06.517536  3856 net.cpp:150] Setting up flatten
I1018 17:35:06.517544  3856 net.cpp:157] Top shape: 64 100 (6400)
I1018 17:35:06.517547  3856 net.cpp:165] Memory required for data: 72276736
I1018 17:35:06.517550  3856 layer_factory.hpp:77] Creating layer score
I1018 17:35:06.517557  3856 net.cpp:100] Creating Layer score
I1018 17:35:06.517560  3856 net.cpp:434] score <- flatten
I1018 17:35:06.517565  3856 net.cpp:408] score -> score
I1018 17:35:06.517702  3856 net.cpp:150] Setting up score
I1018 17:35:06.517710  3856 net.cpp:157] Top shape: 64 10 (640)
I1018 17:35:06.517714  3856 net.cpp:165] Memory required for data: 72279296
I1018 17:35:06.517720  3856 layer_factory.hpp:77] Creating layer score_score_0_split
I1018 17:35:06.517729  3856 net.cpp:100] Creating Layer score_score_0_split
I1018 17:35:06.517734  3856 net.cpp:434] score_score_0_split <- score
I1018 17:35:06.517740  3856 net.cpp:408] score_score_0_split -> score_score_0_split_0
I1018 17:35:06.517746  3856 net.cpp:408] score_score_0_split -> score_score_0_split_1
I1018 17:35:06.517778  3856 net.cpp:150] Setting up score_score_0_split
I1018 17:35:06.517786  3856 net.cpp:157] Top shape: 64 10 (640)
I1018 17:35:06.517789  3856 net.cpp:157] Top shape: 64 10 (640)
I1018 17:35:06.517792  3856 net.cpp:165] Memory required for data: 72284416
I1018 17:35:06.517796  3856 layer_factory.hpp:77] Creating layer accuracy
I1018 17:35:06.517803  3856 net.cpp:100] Creating Layer accuracy
I1018 17:35:06.517807  3856 net.cpp:434] accuracy <- score_score_0_split_0
I1018 17:35:06.517812  3856 net.cpp:434] accuracy <- label_data_1_split_0
I1018 17:35:06.517818  3856 net.cpp:408] accuracy -> accuracy
…
I1018 17:35:06.518375  3856 net.cpp:283] Network initialization done.
I1018 17:35:06.518560  3856 solver.cpp:181] Creating test net (#0) specified by test_net file: /home/adam/Honours/Honours-Project/mnist_pooling/max/elu/poolcnn_elu_test.prototxt
I1018 17:35:06.518673  3856 net.cpp:58] Initializing net from parameters: 
state {
  phase: TEST
}
layer {
  name: "data"
  type: "Data"
  top: "data"
  top: "label"
  transform_param {
    scale: 0.0039215689
  }
  data_param {
    source: "../../../../data/mnist/mnist_test_lmdb"
    batch_size: 100
    backend: LMDB
  }
}
layer {
  name: "conv1"
  type: "Convolution"
  bottom: "data"
  top: "conv1"
  convolution_param {
    num_output: 192
    kernel_size: 5
    weight_filler {
      type: "xavier"
    }
  }
}
layer {
  name: "pool1"
  type: "Pooling"
  bottom: "conv1"
  top: "pool1"
  pooling_param {
    pool: MAX
    kernel_size: 2
    stride: 2
  }
}
layer {
  name: "drop1"
  type: "Dropout"
  bottom: "pool1"
  top: "drop1"
  dropout_param {
    dropout_ratio: 0
  }
}
layer {
  name: "elu1"
  type: "ELU"
  bottom: "drop1"
  top: "elu1"
}
layer {
  name: "conv2"
  type: "Convolution"
  bottom: "elu1"
  top: "conv2"
  convolution_param {
    num_output: 192
    kernel_size: 1
    weight_filler {
      type: "xavier"
    }
  }
}
layer {
  name: "conv3"
  type: "Convolution"
  bottom: "conv2"
  top: "conv3"
  convolution_param {
    num_output: 240
    kernel_size: 3
    weight_filler {
      type: "xavier"
    }
  }
}
layer {
  name: "pool2"
  type: "Pooling"
  bottom: "conv3"
  top: "pool2"
  pooling_param {
    pool: MAX
    kernel_size: 2
    stride: 2
  }
}
layer {
  name: "drop2"
  type: "Dropout"
  bottom: "pool2"
  top: "drop2"
  dropout_param {
    dropout_ratio: 0.1
  }
}
layer {
  name: "elu2"
  type: "ELU"
  bottom: "drop2"
  top: "elu2"
}
layer {
  name: "conv4"
  type: "Convolution"
  bottom: "elu2"
  top: "conv4"
  convolution_param {
    num_output: 240
    kernel_size: 1
    weight_filler {
      type: "xavier"
    }
  }
}
layer {
  name: "conv5"
  type: "Convolution"
  bottom: "conv4"
  top: "conv5"
  convolution_param {
    num_output: 260
    kernel_size: 2
    weight_filler {
      type: "xavier"
    }
  }
}
layer {
  name: "pool3"
  type: "Pooling"
  bottom: "conv5"
  top: "pool3"
  pooling_param {
    pool: MAX
    kernel_size: 2
    stride: 2
  }
}
layer {
  name: "drop3"
  type: "Dropout"
  bottom: "pool3"
  top: "drop3"
  dropout_param {
    dropout_ratio: 0.2
  }
}
layer {
  name: "elu3"
  type: "ELU"
  bottom: "drop3"
  top: "elu3"
}
layer {
  name: "conv6"
  type: "Convolution"
  bottom: "elu3"
  top: "conv6"
  convolution_param {
    num_output: 260
    kernel_size: 1
    weight_filler {
      type: "xavier"
    }
  }
}
layer {
  name: "conv7"
  type: "Convolution"
  bottom: "conv6"
  top: "conv7"
  convolution_param {
    num_output: 280
    kernel_size: 2
    weight_filler {
      type: "xavier"
    }
  }
}
layer {
  name: "pool4"
  type: "Pooling"
  bottom: "conv7"
  top: "pool4"
  pooling_param {
    pool: MAX
    kernel_size: 2
    stride: 2
  }
}
layer {
  name: "drop4"
  type: "Dropout"
  bottom: "pool4"
  top: "drop4"
  dropout_param {
    dropout_ratio: 0.3
  }
}
layer {
  name: "elu4"
  type: "ELU"
  bottom: "drop4"
  top: "elu4"
}
layer {
  name: "conv8"
  type: "Convolution"
  bottom: "elu4"
  top: "conv8"
  convolution_param {
    num_output: 280
    kernel_size: 1
    weight_filler {
      type: "xavier"
    }
  }
}
layer {
  name: "pool5"
  type: "Pooling"
  bottom: "conv8"
  top: "pool5"
  pooling_param {
    pool: MAX
    kernel_size: 2
    stride: 2
  }
}
layer {
  name: "drop5"
  type: "Dropout"
  bottom: "pool5"
  top: "drop5"
  dropout_param {
    dropout_ratio: 0.4
  }
}
layer {
  name: "elu5"
  type: "ELU"
  bottom: "drop5"
  top: "elu5"
}
layer {
  name: "conv10"
  type: "Convolution"
  bottom: "elu5"
  top: "conv10"
  convolution_param {
    num_output: 300
    kernel_size: 1
    weight_filler {
      type: "xavier"
    }
  }
}
layer {
  name: "pool6"
  type: "Pooling"
  bottom: "conv10"
  top: "pool6"
  pooling_param {
    pool: MAX
    kernel_size: 2
    stride: 2
  }
}
layer {
  name: "drop6"
  type: "Dropout"
  bottom: "pool6"
  top: "drop6"
  dropout_param {
    dropout_ratio: 0.5
  }
}
layer {
  name: "elu6"
  type: "ELU"
  bottom: "drop6"
  top: "elu6"
}
layer {
  name: "conv11"
  type: "Convolution"
  bottom: "elu6"
  top: "conv11"
  convolution_param {
    num_output: 100
    kernel_size: 1
    weight_filler {
      type: "xavier"
    }
  }
}
layer {
  name: "pool7"
  type: "Pooling"
  bottom: "conv11"
  top: "pool7"
  pooling_param {
    pool: MAX
    kernel_size: 2
    stride: 2
  }
}
layer {
  name: "drop7"
  type: "Dropout"
  bottom: "pool7"
  top: "drop7"
  dropout_param {
    dropout_ratio: 0
  }
}
layer {
  name: "elu7"
  type: "ELU"
  bottom: "drop7"
  top: "elu7"
}
layer {
  name: "pool"
  type: "Pooling"
  bottom: "elu7"
  top: "pool"
  pooling_param {
    pool: AVE
    global_pooling: true
  }
}
layer {
  name: "flatten"
  type: "Flatten"
  bottom: "pool"
  top: "flatten"
}
layer {
  name: "score"
  type: "InnerProduct"
  bottom: "flatten"
  top: "score"
  inner_product_param {
    num_output: 10
    weight_filler {
      type: "gaussian"
    }
  }
}
layer {
  name: "accuracy"
  type: "Accuracy"
  bottom: "score"
  bottom: "label"
  top: "accuracy"
}
layer {
  name: "loss"
  type: "SoftmaxWithLoss"
  bottom: "score"
  bottom: "label"
  top: "loss"
}
I1018 17:35:06.518750  3856 layer_factory.hpp:77] Creating layer data
I1018 17:35:06.518919  3856 net.cpp:100] Creating Layer data
I1018 17:35:06.518924  3856 net.cpp:408] data -> data
I1018 17:35:06.518929  3856 net.cpp:408] data -> label
I1018 17:35:06.519522  3864 db_lmdb.cpp:35] Opened lmdb ../../../../data/mnist/mnist_test_lmdb
I1018 17:35:06.519642  3856 data_layer.cpp:41] output data size: 100,1,28,28
I1018 17:35:06.520323  3856 net.cpp:150] Setting up data
I1018 17:35:06.520333  3856 net.cpp:157] Top shape: 100 1 28 28 (78400)
I1018 17:35:06.520336  3856 net.cpp:157] Top shape: 100 (100)
I1018 17:35:06.520339  3856 net.cpp:165] Memory required for data: 314000
I1018 17:35:06.520340  3856 layer_factory.hpp:77] Creating layer label_data_1_split
I1018 17:35:06.520346  3856 net.cpp:100] Creating Layer label_data_1_split
I1018 17:35:06.520349  3856 net.cpp:434] label_data_1_split <- label
I1018 17:35:06.520351  3856 net.cpp:408] label_data_1_split -> label_data_1_split_0
I1018 17:35:06.520356  3856 net.cpp:408] label_data_1_split -> label_data_1_split_1
I1018 17:35:06.520448  3856 net.cpp:150] Setting up label_data_1_split
I1018 17:35:06.520458  3856 net.cpp:157] Top shape: 100 (100)
I1018 17:35:06.520462  3856 net.cpp:157] Top shape: 100 (100)
I1018 17:35:06.520463  3856 net.cpp:165] Memory required for data: 314800
I1018 17:35:06.520467  3856 layer_factory.hpp:77] Creating layer conv1
I1018 17:35:06.520473  3856 net.cpp:100] Creating Layer conv1
I1018 17:35:06.520476  3856 net.cpp:434] conv1 <- data
I1018 17:35:06.520479  3856 net.cpp:408] conv1 -> conv1
I1018 17:35:06.521324  3856 net.cpp:150] Setting up conv1
I1018 17:35:06.521337  3856 net.cpp:157] Top shape: 100 192 24 24 (11059200)
I1018 17:35:06.521339  3856 net.cpp:165] Memory required for data: 44551600
I1018 17:35:06.521347  3856 layer_factory.hpp:77] Creating layer pool1
I1018 17:35:06.521358  3856 net.cpp:100] Creating Layer pool1
I1018 17:35:06.521363  3856 net.cpp:434] pool1 <- conv1
I1018 17:35:06.521368  3856 net.cpp:408] pool1 -> pool1
I1018 17:35:06.521409  3856 net.cpp:150] Setting up pool1
I1018 17:35:06.521414  3856 net.cpp:157] Top shape: 100 192 12 12 (2764800)
I1018 17:35:06.521417  3856 net.cpp:165] Memory required for data: 55610800
I1018 17:35:06.521420  3856 layer_factory.hpp:77] Creating layer drop1
I1018 17:35:06.521425  3856 net.cpp:100] Creating Layer drop1
I1018 17:35:06.521426  3856 net.cpp:434] drop1 <- pool1
I1018 17:35:06.521430  3856 net.cpp:408] drop1 -> drop1
I1018 17:35:06.521466  3856 net.cpp:150] Setting up drop1
I1018 17:35:06.521471  3856 net.cpp:157] Top shape: 100 192 12 12 (2764800)
I1018 17:35:06.521473  3856 net.cpp:165] Memory required for data: 66670000
I1018 17:35:06.521476  3856 layer_factory.hpp:77] Creating layer elu1
I1018 17:35:06.521479  3856 net.cpp:100] Creating Layer elu1
I1018 17:35:06.521481  3856 net.cpp:434] elu1 <- drop1
I1018 17:35:06.521484  3856 net.cpp:408] elu1 -> elu1
I1018 17:35:06.521498  3856 net.cpp:150] Setting up elu1
I1018 17:35:06.521503  3856 net.cpp:157] Top shape: 100 192 12 12 (2764800)
I1018 17:35:06.521505  3856 net.cpp:165] Memory required for data: 77729200
I1018 17:35:06.521507  3856 layer_factory.hpp:77] Creating layer conv2
I1018 17:35:06.521512  3856 net.cpp:100] Creating Layer conv2
I1018 17:35:06.521518  3856 net.cpp:434] conv2 <- elu1
I1018 17:35:06.521522  3856 net.cpp:408] conv2 -> conv2
I1018 17:35:06.522384  3856 net.cpp:150] Setting up conv2
I1018 17:35:06.522395  3856 net.cpp:157] Top shape: 100 192 12 12 (2764800)
I1018 17:35:06.522398  3856 net.cpp:165] Memory required for data: 88788400
I1018 17:35:06.522404  3856 layer_factory.hpp:77] Creating layer conv3
I1018 17:35:06.522410  3856 net.cpp:100] Creating Layer conv3
I1018 17:35:06.522415  3856 net.cpp:434] conv3 <- conv2
I1018 17:35:06.522428  3856 net.cpp:408] conv3 -> conv3
I1018 17:35:06.524865  3856 net.cpp:150] Setting up conv3
I1018 17:35:06.524874  3856 net.cpp:157] Top shape: 100 240 10 10 (2400000)
I1018 17:35:06.524878  3856 net.cpp:165] Memory required for data: 98388400
I1018 17:35:06.524884  3856 layer_factory.hpp:77] Creating layer pool2
I1018 17:35:06.524890  3856 net.cpp:100] Creating Layer pool2
I1018 17:35:06.524893  3856 net.cpp:434] pool2 <- conv3
I1018 17:35:06.524896  3856 net.cpp:408] pool2 -> pool2
I1018 17:35:06.524924  3856 net.cpp:150] Setting up pool2
I1018 17:35:06.524929  3856 net.cpp:157] Top shape: 100 240 5 5 (600000)
I1018 17:35:06.524930  3856 net.cpp:165] Memory required for data: 100788400
I1018 17:35:06.524932  3856 layer_factory.hpp:77] Creating layer drop2
I1018 17:35:06.524935  3856 net.cpp:100] Creating Layer drop2
I1018 17:35:06.524937  3856 net.cpp:434] drop2 <- pool2
I1018 17:35:06.524941  3856 net.cpp:408] drop2 -> drop2
I1018 17:35:06.524965  3856 net.cpp:150] Setting up drop2
I1018 17:35:06.524968  3856 net.cpp:157] Top shape: 100 240 5 5 (600000)
I1018 17:35:06.524971  3856 net.cpp:165] Memory required for data: 103188400
I1018 17:35:06.524972  3856 layer_factory.hpp:77] Creating layer elu2
I1018 17:35:06.524976  3856 net.cpp:100] Creating Layer elu2
I1018 17:35:06.524977  3856 net.cpp:434] elu2 <- drop2
I1018 17:35:06.524981  3856 net.cpp:408] elu2 -> elu2
I1018 17:35:06.524993  3856 net.cpp:150] Setting up elu2
I1018 17:35:06.524997  3856 net.cpp:157] Top shape: 100 240 5 5 (600000)
I1018 17:35:06.524999  3856 net.cpp:165] Memory required for data: 105588400
I1018 17:35:06.525002  3856 layer_factory.hpp:77] Creating layer conv4
I1018 17:35:06.525005  3856 net.cpp:100] Creating Layer conv4
I1018 17:35:06.525008  3856 net.cpp:434] conv4 <- elu2
I1018 17:35:06.525012  3856 net.cpp:408] conv4 -> conv4
I1018 17:35:06.525858  3856 net.cpp:150] Setting up conv4
I1018 17:35:06.525866  3856 net.cpp:157] Top shape: 100 240 5 5 (600000)
I1018 17:35:06.525868  3856 net.cpp:165] Memory required for data: 107988400
I1018 17:35:06.525872  3856 layer_factory.hpp:77] Creating layer conv5
I1018 17:35:06.525878  3856 net.cpp:100] Creating Layer conv5
I1018 17:35:06.525882  3856 net.cpp:434] conv5 <- conv4
I1018 17:35:06.525885  3856 net.cpp:408] conv5 -> conv5
I1018 17:35:06.527667  3856 net.cpp:150] Setting up conv5
I1018 17:35:06.527675  3856 net.cpp:157] Top shape: 100 260 4 4 (416000)
I1018 17:35:06.527678  3856 net.cpp:165] Memory required for data: 109652400
I1018 17:35:06.527684  3856 layer_factory.hpp:77] Creating layer pool3
I1018 17:35:06.527689  3856 net.cpp:100] Creating Layer pool3
I1018 17:35:06.527691  3856 net.cpp:434] pool3 <- conv5
I1018 17:35:06.527694  3856 net.cpp:408] pool3 -> pool3
I1018 17:35:06.527724  3856 net.cpp:150] Setting up pool3
I1018 17:35:06.527727  3856 net.cpp:157] Top shape: 100 260 2 2 (104000)
I1018 17:35:06.527729  3856 net.cpp:165] Memory required for data: 110068400
I1018 17:35:06.527730  3856 layer_factory.hpp:77] Creating layer drop3
I1018 17:35:06.527734  3856 net.cpp:100] Creating Layer drop3
I1018 17:35:06.527736  3856 net.cpp:434] drop3 <- pool3
I1018 17:35:06.527740  3856 net.cpp:408] drop3 -> drop3
I1018 17:35:06.527765  3856 net.cpp:150] Setting up drop3
I1018 17:35:06.527768  3856 net.cpp:157] Top shape: 100 260 2 2 (104000)
I1018 17:35:06.527770  3856 net.cpp:165] Memory required for data: 110484400
I1018 17:35:06.527771  3856 layer_factory.hpp:77] Creating layer elu3
I1018 17:35:06.527775  3856 net.cpp:100] Creating Layer elu3
I1018 17:35:06.527776  3856 net.cpp:434] elu3 <- drop3
I1018 17:35:06.527779  3856 net.cpp:408] elu3 -> elu3
I1018 17:35:06.527792  3856 net.cpp:150] Setting up elu3
I1018 17:35:06.527796  3856 net.cpp:157] Top shape: 100 260 2 2 (104000)
I1018 17:35:06.527797  3856 net.cpp:165] Memory required for data: 110900400
I1018 17:35:06.527799  3856 layer_factory.hpp:77] Creating layer conv6
I1018 17:35:06.527806  3856 net.cpp:100] Creating Layer conv6
I1018 17:35:06.527808  3856 net.cpp:434] conv6 <- elu3
I1018 17:35:06.527819  3856 net.cpp:408] conv6 -> conv6
I1018 17:35:06.528941  3856 net.cpp:150] Setting up conv6
I1018 17:35:06.528949  3856 net.cpp:157] Top shape: 100 260 2 2 (104000)
I1018 17:35:06.528951  3856 net.cpp:165] Memory required for data: 111316400
I1018 17:35:06.528956  3856 layer_factory.hpp:77] Creating layer conv7
I1018 17:35:06.528961  3856 net.cpp:100] Creating Layer conv7
I1018 17:35:06.528964  3856 net.cpp:434] conv7 <- conv6
I1018 17:35:06.528969  3856 net.cpp:408] conv7 -> conv7
I1018 17:35:06.530900  3856 net.cpp:150] Setting up conv7
I1018 17:35:06.530908  3856 net.cpp:157] Top shape: 100 280 1 1 (28000)
I1018 17:35:06.530911  3856 net.cpp:165] Memory required for data: 111428400
I1018 17:35:06.530915  3856 layer_factory.hpp:77] Creating layer pool4
I1018 17:35:06.530920  3856 net.cpp:100] Creating Layer pool4
I1018 17:35:06.530922  3856 net.cpp:434] pool4 <- conv7
I1018 17:35:06.530925  3856 net.cpp:408] pool4 -> pool4
I1018 17:35:06.530952  3856 net.cpp:150] Setting up pool4
I1018 17:35:06.530957  3856 net.cpp:157] Top shape: 100 280 1 1 (28000)
I1018 17:35:06.530959  3856 net.cpp:165] Memory required for data: 111540400
I1018 17:35:06.530961  3856 layer_factory.hpp:77] Creating layer drop4
I1018 17:35:06.530964  3856 net.cpp:100] Creating Layer drop4
I1018 17:35:06.530966  3856 net.cpp:434] drop4 <- pool4
I1018 17:35:06.530969  3856 net.cpp:408] drop4 -> drop4
I1018 17:35:06.530992  3856 net.cpp:150] Setting up drop4
I1018 17:35:06.530997  3856 net.cpp:157] Top shape: 100 280 1 1 (28000)
I1018 17:35:06.530999  3856 net.cpp:165] Memory required for data: 111652400
I1018 17:35:06.531000  3856 layer_factory.hpp:77] Creating layer elu4
I1018 17:35:06.531003  3856 net.cpp:100] Creating Layer elu4
I1018 17:35:06.531004  3856 net.cpp:434] elu4 <- drop4
I1018 17:35:06.531008  3856 net.cpp:408] elu4 -> elu4
I1018 17:35:06.531021  3856 net.cpp:150] Setting up elu4
I1018 17:35:06.531026  3856 net.cpp:157] Top shape: 100 280 1 1 (28000)
I1018 17:35:06.531028  3856 net.cpp:165] Memory required for data: 111764400
I1018 17:35:06.531029  3856 layer_factory.hpp:77] Creating layer conv8
I1018 17:35:06.531033  3856 net.cpp:100] Creating Layer conv8
I1018 17:35:06.531036  3856 net.cpp:434] conv8 <- elu4
I1018 17:35:06.531039  3856 net.cpp:408] conv8 -> conv8
I1018 17:35:06.531900  3856 net.cpp:150] Setting up conv8
I1018 17:35:06.531908  3856 net.cpp:157] Top shape: 100 280 1 1 (28000)
I1018 17:35:06.531911  3856 net.cpp:165] Memory required for data: 111876400
I1018 17:35:06.531915  3856 layer_factory.hpp:77] Creating layer pool5
I1018 17:35:06.531919  3856 net.cpp:100] Creating Layer pool5
I1018 17:35:06.531922  3856 net.cpp:434] pool5 <- conv8
I1018 17:35:06.531925  3856 net.cpp:408] pool5 -> pool5
I1018 17:35:06.531952  3856 net.cpp:150] Setting up pool5
I1018 17:35:06.531956  3856 net.cpp:157] Top shape: 100 280 1 1 (28000)
I1018 17:35:06.531958  3856 net.cpp:165] Memory required for data: 111988400
I1018 17:35:06.531960  3856 layer_factory.hpp:77] Creating layer drop5
I1018 17:35:06.531962  3856 net.cpp:100] Creating Layer drop5
I1018 17:35:06.531965  3856 net.cpp:434] drop5 <- pool5
I1018 17:35:06.531968  3856 net.cpp:408] drop5 -> drop5
I1018 17:35:06.531991  3856 net.cpp:150] Setting up drop5
I1018 17:35:06.531996  3856 net.cpp:157] Top shape: 100 280 1 1 (28000)
I1018 17:35:06.531998  3856 net.cpp:165] Memory required for data: 112100400
I1018 17:35:06.532001  3856 layer_factory.hpp:77] Creating layer elu5
I1018 17:35:06.532003  3856 net.cpp:100] Creating Layer elu5
I1018 17:35:06.532006  3856 net.cpp:434] elu5 <- drop5
I1018 17:35:06.532007  3856 net.cpp:408] elu5 -> elu5
I1018 17:35:06.532021  3856 net.cpp:150] Setting up elu5
I1018 17:35:06.532024  3856 net.cpp:157] Top shape: 100 280 1 1 (28000)
I1018 17:35:06.532027  3856 net.cpp:165] Memory required for data: 112212400
I1018 17:35:06.532028  3856 layer_factory.hpp:77] Creating layer conv10
I1018 17:35:06.532034  3856 net.cpp:100] Creating Layer conv10
I1018 17:35:06.532037  3856 net.cpp:434] conv10 <- elu5
I1018 17:35:06.532040  3856 net.cpp:408] conv10 -> conv10
I1018 17:35:06.534476  3856 net.cpp:150] Setting up conv10
I1018 17:35:06.534487  3856 net.cpp:157] Top shape: 100 300 1 1 (30000)
I1018 17:35:06.534490  3856 net.cpp:165] Memory required for data: 112332400
I1018 17:35:06.534502  3856 layer_factory.hpp:77] Creating layer pool6
I1018 17:35:06.534510  3856 net.cpp:100] Creating Layer pool6
I1018 17:35:06.534514  3856 net.cpp:434] pool6 <- conv10
I1018 17:35:06.534518  3856 net.cpp:408] pool6 -> pool6
I1018 17:35:06.534548  3856 net.cpp:150] Setting up pool6
I1018 17:35:06.534553  3856 net.cpp:157] Top shape: 100 300 1 1 (30000)
I1018 17:35:06.534554  3856 net.cpp:165] Memory required for data: 112452400
I1018 17:35:06.534555  3856 layer_factory.hpp:77] Creating layer drop6
I1018 17:35:06.534559  3856 net.cpp:100] Creating Layer drop6
I1018 17:35:06.534562  3856 net.cpp:434] drop6 <- pool6
I1018 17:35:06.534565  3856 net.cpp:408] drop6 -> drop6
I1018 17:35:06.534590  3856 net.cpp:150] Setting up drop6
I1018 17:35:06.534593  3856 net.cpp:157] Top shape: 100 300 1 1 (30000)
I1018 17:35:06.534595  3856 net.cpp:165] Memory required for data: 112572400
I1018 17:35:06.534596  3856 layer_factory.hpp:77] Creating layer elu6
I1018 17:35:06.534600  3856 net.cpp:100] Creating Layer elu6
I1018 17:35:06.534601  3856 net.cpp:434] elu6 <- drop6
I1018 17:35:06.534605  3856 net.cpp:408] elu6 -> elu6
I1018 17:35:06.534617  3856 net.cpp:150] Setting up elu6
I1018 17:35:06.534621  3856 net.cpp:157] Top shape: 100 300 1 1 (30000)
I1018 17:35:06.534623  3856 net.cpp:165] Memory required for data: 112692400
I1018 17:35:06.534626  3856 layer_factory.hpp:77] Creating layer conv11
I1018 17:35:06.534631  3856 net.cpp:100] Creating Layer conv11
I1018 17:35:06.534633  3856 net.cpp:434] conv11 <- elu6
I1018 17:35:06.534636  3856 net.cpp:408] conv11 -> conv11
I1018 17:35:06.536037  3856 net.cpp:150] Setting up conv11
I1018 17:35:06.536046  3856 net.cpp:157] Top shape: 100 100 1 1 (10000)
I1018 17:35:06.536049  3856 net.cpp:165] Memory required for data: 112732400
I1018 17:35:06.536053  3856 layer_factory.hpp:77] Creating layer pool7
I1018 17:35:06.536058  3856 net.cpp:100] Creating Layer pool7
I1018 17:35:06.536062  3856 net.cpp:434] pool7 <- conv11
I1018 17:35:06.536067  3856 net.cpp:408] pool7 -> pool7
I1018 17:35:06.536095  3856 net.cpp:150] Setting up pool7
I1018 17:35:06.536100  3856 net.cpp:157] Top shape: 100 100 1 1 (10000)
I1018 17:35:06.536103  3856 net.cpp:165] Memory required for data: 112772400
I1018 17:35:06.536104  3856 layer_factory.hpp:77] Creating layer drop7
I1018 17:35:06.536108  3856 net.cpp:100] Creating Layer drop7
I1018 17:35:06.536109  3856 net.cpp:434] drop7 <- pool7
I1018 17:35:06.536113  3856 net.cpp:408] drop7 -> drop7
I1018 17:35:06.536137  3856 net.cpp:150] Setting up drop7
I1018 17:35:06.536142  3856 net.cpp:157] Top shape: 100 100 1 1 (10000)
I1018 17:35:06.536144  3856 net.cpp:165] Memory required for data: 112812400
I1018 17:35:06.536146  3856 layer_factory.hpp:77] Creating layer elu7
I1018 17:35:06.536152  3856 net.cpp:100] Creating Layer elu7
I1018 17:35:06.536154  3856 net.cpp:434] elu7 <- drop7
I1018 17:35:06.536157  3856 net.cpp:408] elu7 -> elu7
I1018 17:35:06.536171  3856 net.cpp:150] Setting up elu7
I1018 17:35:06.536175  3856 net.cpp:157] Top shape: 100 100 1 1 (10000)
I1018 17:35:06.536176  3856 net.cpp:165] Memory required for data: 112852400
I1018 17:35:06.536177  3856 layer_factory.hpp:77] Creating layer pool
I1018 17:35:06.536181  3856 net.cpp:100] Creating Layer pool
I1018 17:35:06.536183  3856 net.cpp:434] pool <- elu7
I1018 17:35:06.536186  3856 net.cpp:408] pool -> pool
I1018 17:35:06.536303  3856 net.cpp:150] Setting up pool
I1018 17:35:06.536309  3856 net.cpp:157] Top shape: 100 100 1 1 (10000)
I1018 17:35:06.536310  3856 net.cpp:165] Memory required for data: 112892400
I1018 17:35:06.536312  3856 layer_factory.hpp:77] Creating layer flatten
I1018 17:35:06.536315  3856 net.cpp:100] Creating Layer flatten
I1018 17:35:06.536319  3856 net.cpp:434] flatten <- pool
I1018 17:35:06.536321  3856 net.cpp:408] flatten -> flatten
I1018 17:35:06.536347  3856 net.cpp:150] Setting up flatten
I1018 17:35:06.536351  3856 net.cpp:157] Top shape: 100 100 (10000)
I1018 17:35:06.536353  3856 net.cpp:165] Memory required for data: 112932400
I1018 17:35:06.536355  3856 layer_factory.hpp:77] Creating layer score
I1018 17:35:06.536360  3856 net.cpp:100] Creating Layer score
I1018 17:35:06.536362  3856 net.cpp:434] score <- flatten
I1018 17:35:06.536365  3856 net.cpp:408] score -> score
I1018 17:35:06.536449  3856 net.cpp:150] Setting up score
I1018 17:35:06.536453  3856 net.cpp:157] Top shape: 100 10 (1000)
I1018 17:35:06.536455  3856 net.cpp:165] Memory required for data: 112936400
I1018 17:35:06.536458  3856 layer_factory.hpp:77] Creating layer score_score_0_split
I1018 17:35:06.536464  3856 net.cpp:100] Creating Layer score_score_0_split
I1018 17:35:06.536466  3856 net.cpp:434] score_score_0_split <- score
I1018 17:35:06.536469  3856 net.cpp:408] score_score_0_split -> score_score_0_split_0
I1018 17:35:06.536473  3856 net.cpp:408] score_score_0_split -> score_score_0_split_1
I1018 17:35:06.536497  3856 net.cpp:150] Setting up score_score_0_split
I1018 17:35:06.536501  3856 net.cpp:157] Top shape: 100 10 (1000)
I1018 17:35:06.536504  3856 net.cpp:157] Top shape: 100 10 (1000)
I1018 17:35:06.536505  3856 net.cpp:165] Memory required for data: 112944400
I1018 17:35:06.536506  3856 layer_factory.hpp:77] Creating layer accuracy
I1018 17:35:06.536511  3856 net.cpp:100] Creating Layer accuracy
I1018 17:35:06.536514  3856 net.cpp:434] accuracy <- score_score_0_split_0
I1018 17:35:06.536516  3856 net.cpp:434] accuracy <- label_data_1_split_0
I1018 17:35:06.536520  3856 net.cpp:408] accuracy -> accuracy
…
