…
  level: 0
  stage: ""
}
type: "SGD"
I1018 20:30:18.767220  5864 solver.cpp:81] Creating training net from train_net file: /home/adam/Honours/Honours-Project/mnist_pooling/max/relu/poolcnn_relu_train.prototxt
I1018 20:30:18.767540  5864 net.cpp:58] Initializing net from parameters: 
state {
  phase: TRAIN
  level: 0
  stage: ""
}
layer {
  name: "data"
  type: "Data"
  top: "data"
  top: "label"
  transform_param {
    scale: 0.0039215689
  }
  data_param {
    source: "../../../../data/mnist/mnist_train_lmdb"
    batch_size: 64
    backend: LMDB
  }
}
layer {
  name: "conv1"
  type: "Convolution"
  bottom: "data"
  top: "conv1"
  convolution_param {
    num_output: 192
    kernel_size: 5
    weight_filler {
      type: "xavier"
    }
  }
}
layer {
  name: "pool1"
  type: "Pooling"
  bottom: "conv1"
  top: "pool1"
  pooling_param {
    pool: MAX
    kernel_size: 2
    stride: 2
  }
}
layer {
  name: "drop1"
  type: "Dropout"
  bottom: "pool1"
  top: "drop1"
  dropout_param {
    dropout_ratio: 0
  }
}
layer {
  name: "relu1"
  type: "ReLU"
  bottom: "drop1"
  top: "relu1"
}
layer {
  name: "conv2"
  type: "Convolution"
  bottom: "relu1"
  top: "conv2"
  convolution_param {
    num_output: 192
    kernel_size: 1
    weight_filler {
      type: "xavier"
    }
  }
}
layer {
  name: "conv3"
  type: "Convolution"
  bottom: "conv2"
  top: "conv3"
  convolution_param {
    num_output: 240
    kernel_size: 3
    weight_filler {
      type: "xavier"
    }
  }
}
layer {
  name: "pool2"
  type: "Pooling"
  bottom: "conv3"
  top: "pool2"
  pooling_param {
    pool: MAX
    kernel_size: 2
    stride: 2
  }
}
layer {
  name: "drop2"
  type: "Dropout"
  bottom: "pool2"
  top: "drop2"
  dropout_param {
    dropout_ratio: 0.1
  }
}
layer {
  name: "relu2"
  type: "ReLU"
  bottom: "drop2"
  top: "relu2"
}
layer {
  name: "conv4"
  type: "Convolution"
  bottom: "relu2"
  top: "conv4"
  convolution_param {
    num_output: 240
    kernel_size: 1
    weight_filler {
      type: "xavier"
    }
  }
}
layer {
  name: "conv5"
  type: "Convolution"
  bottom: "conv4"
  top: "conv5"
  convolution_param {
    num_output: 260
    kernel_size: 2
    weight_filler {
      type: "xavier"
    }
  }
}
layer {
  name: "pool3"
  type: "Pooling"
  bottom: "conv5"
  top: "pool3"
  pooling_param {
    pool: MAX
    kernel_size: 2
    stride: 2
  }
}
layer {
  name: "drop3"
  type: "Dropout"
  bottom: "pool3"
  top: "drop3"
  dropout_param {
    dropout_ratio: 0.2
  }
}
layer {
  name: "relu3"
  type: "ReLU"
  bottom: "drop3"
  top: "relu3"
}
layer {
  name: "conv6"
  type: "Convolution"
  bottom: "relu3"
  top: "conv6"
  convolution_param {
    num_output: 260
    kernel_size: 1
    weight_filler {
      type: "xavier"
    }
  }
}
layer {
  name: "conv7"
  type: "Convolution"
  bottom: "conv6"
  top: "conv7"
  convolution_param {
    num_output: 280
    kernel_size: 2
    weight_filler {
      type: "xavier"
    }
  }
}
layer {
  name: "pool4"
  type: "Pooling"
  bottom: "conv7"
  top: "pool4"
  pooling_param {
    pool: MAX
    kernel_size: 2
    stride: 2
  }
}
layer {
  name: "drop4"
  type: "Dropout"
  bottom: "pool4"
  top: "drop4"
  dropout_param {
    dropout_ratio: 0.3
  }
}
layer {
  name: "relu4"
  type: "ReLU"
  bottom: "drop4"
  top: "relu4"
}
layer {
  name: "conv8"
  type: "Convolution"
  bottom: "relu4"
  top: "conv8"
  convolution_param {
    num_output: 280
    kernel_size: 1
    weight_filler {
      type: "xavier"
    }
  }
}
layer {
  name: "pool5"
  type: "Pooling"
  bottom: "conv8"
  top: "pool5"
  pooling_param {
    pool: MAX
    kernel_size: 2
    stride: 2
  }
}
layer {
  name: "drop5"
  type: "Dropout"
  bottom: "pool5"
  top: "drop5"
  dropout_param {
    dropout_ratio: 0.4
  }
}
layer {
  name: "relu5"
  type: "ReLU"
  bottom: "drop5"
  top: "relu5"
}
layer {
  name: "conv10"
  type: "Convolution"
  bottom: "relu5"
  top: "conv10"
  convolution_param {
    num_output: 300
    kernel_size: 1
    weight_filler {
      type: "xavier"
    }
  }
}
layer {
  name: "pool6"
  type: "Pooling"
  bottom: "conv10"
  top: "pool6"
  pooling_param {
    pool: MAX
    kernel_size: 2
    stride: 2
  }
}
layer {
  name: "drop6"
  type: "Dropout"
  bottom: "pool6"
  top: "drop6"
  dropout_param {
    dropout_ratio: 0.5
  }
}
layer {
  name: "relu6"
  type: "ReLU"
  bottom: "drop6"
  top: "relu6"
}
layer {
  name: "conv11"
  type: "Convolution"
  bottom: "relu6"
  top: "conv11"
  convolution_param {
    num_output: 100
    kernel_size: 1
    weight_filler {
      type: "xavier"
    }
  }
}
layer {
  name: "pool7"
  type: "Pooling"
  bottom: "conv11"
  top: "pool7"
  pooling_param {
    pool: MAX
    kernel_size: 2
    stride: 2
  }
}
layer {
  name: "drop7"
  type: "Dropout"
  bottom: "pool7"
  top: "drop7"
  dropout_param {
    dropout_ratio: 0
  }
}
layer {
  name: "relu7"
  type: "ReLU"
  bottom: "drop7"
  top: "relu7"
}
layer {
  name: "pool"
  type: "Pooling"
  bottom: "relu7"
  top: "pool"
  pooling_param {
    pool: AVE
    global_pooling: true
  }
}
layer {
  name: "flatten"
  type: "Flatten"
  bottom: "pool"
  top: "flatten"
}
layer {
  name: "score"
  type: "InnerProduct"
  bottom: "flatten"
  top: "score"
  inner_product_param {
    num_output: 10
    weight_filler {
      type: "gaussian"
    }
  }
}
layer {
  name: "accuracy"
  type: "Accuracy"
  bottom: "score"
  bottom: "label"
  top: "accuracy"
}
layer {
  name: "loss"
  type: "SoftmaxWithLoss"
  bottom: "score"
  bottom: "label"
  top: "loss"
}
I1018 20:30:18.767673  5864 layer_factory.hpp:77] Creating layer data
I1018 20:30:18.768057  5864 net.cpp:100] Creating Layer data
I1018 20:30:18.768065  5864 net.cpp:408] data -> data
I1018 20:30:18.768082  5864 net.cpp:408] data -> label
I1018 20:30:18.768640  5870 db_lmdb.cpp:35] Opened lmdb ../../../../data/mnist/mnist_train_lmdb
I1018 20:30:18.774144  5864 data_layer.cpp:41] output data size: 64,1,28,28
I1018 20:30:18.774710  5864 net.cpp:150] Setting up data
I1018 20:30:18.774724  5864 net.cpp:157] Top shape: 64 1 28 28 (50176)
I1018 20:30:18.774729  5864 net.cpp:157] Top shape: 64 (64)
I1018 20:30:18.774732  5864 net.cpp:165] Memory required for data: 200960
I1018 20:30:18.774742  5864 layer_factory.hpp:77] Creating layer label_data_1_split
I1018 20:30:18.774755  5864 net.cpp:100] Creating Layer label_data_1_split
I1018 20:30:18.774760  5864 net.cpp:434] label_data_1_split <- label
I1018 20:30:18.774776  5864 net.cpp:408] label_data_1_split -> label_data_1_split_0
I1018 20:30:18.774785  5864 net.cpp:408] label_data_1_split -> label_data_1_split_1
I1018 20:30:18.774812  5864 net.cpp:150] Setting up label_data_1_split
I1018 20:30:18.774818  5864 net.cpp:157] Top shape: 64 (64)
I1018 20:30:18.774822  5864 net.cpp:157] Top shape: 64 (64)
I1018 20:30:18.774827  5864 net.cpp:165] Memory required for data: 201472
I1018 20:30:18.774829  5864 layer_factory.hpp:77] Creating layer conv1
I1018 20:30:18.774844  5864 net.cpp:100] Creating Layer conv1
I1018 20:30:18.774847  5864 net.cpp:434] conv1 <- data
I1018 20:30:18.774852  5864 net.cpp:408] conv1 -> conv1
I1018 20:30:18.893132  5864 net.cpp:150] Setting up conv1
I1018 20:30:18.893160  5864 net.cpp:157] Top shape: 64 192 24 24 (7077888)
I1018 20:30:18.893163  5864 net.cpp:165] Memory required for data: 28513024
I1018 20:30:18.893187  5864 layer_factory.hpp:77] Creating layer pool1
I1018 20:30:18.893199  5864 net.cpp:100] Creating Layer pool1
I1018 20:30:18.893204  5864 net.cpp:434] pool1 <- conv1
I1018 20:30:18.893210  5864 net.cpp:408] pool1 -> pool1
I1018 20:30:18.893254  5864 net.cpp:150] Setting up pool1
I1018 20:30:18.893260  5864 net.cpp:157] Top shape: 64 192 12 12 (1769472)
I1018 20:30:18.893275  5864 net.cpp:165] Memory required for data: 35590912
I1018 20:30:18.893277  5864 layer_factory.hpp:77] Creating layer drop1
I1018 20:30:18.893286  5864 net.cpp:100] Creating Layer drop1
I1018 20:30:18.893290  5864 net.cpp:434] drop1 <- pool1
I1018 20:30:18.893296  5864 net.cpp:408] drop1 -> drop1
I1018 20:30:18.893326  5864 net.cpp:150] Setting up drop1
I1018 20:30:18.893331  5864 net.cpp:157] Top shape: 64 192 12 12 (1769472)
I1018 20:30:18.893333  5864 net.cpp:165] Memory required for data: 42668800
I1018 20:30:18.893337  5864 layer_factory.hpp:77] Creating layer relu1
I1018 20:30:18.893342  5864 net.cpp:100] Creating Layer relu1
I1018 20:30:18.893345  5864 net.cpp:434] relu1 <- drop1
I1018 20:30:18.893350  5864 net.cpp:408] relu1 -> relu1
I1018 20:30:18.893474  5864 net.cpp:150] Setting up relu1
I1018 20:30:18.893481  5864 net.cpp:157] Top shape: 64 192 12 12 (1769472)
I1018 20:30:18.893486  5864 net.cpp:165] Memory required for data: 49746688
I1018 20:30:18.893489  5864 layer_factory.hpp:77] Creating layer conv2
I1018 20:30:18.893497  5864 net.cpp:100] Creating Layer conv2
I1018 20:30:18.893501  5864 net.cpp:434] conv2 <- relu1
I1018 20:30:18.893507  5864 net.cpp:408] conv2 -> conv2
I1018 20:30:18.894325  5864 net.cpp:150] Setting up conv2
I1018 20:30:18.894337  5864 net.cpp:157] Top shape: 64 192 12 12 (1769472)
I1018 20:30:18.894341  5864 net.cpp:165] Memory required for data: 56824576
I1018 20:30:18.894350  5864 layer_factory.hpp:77] Creating layer conv3
I1018 20:30:18.894356  5864 net.cpp:100] Creating Layer conv3
I1018 20:30:18.894361  5864 net.cpp:434] conv3 <- conv2
I1018 20:30:18.894367  5864 net.cpp:408] conv3 -> conv3
I1018 20:30:18.896807  5864 net.cpp:150] Setting up conv3
I1018 20:30:18.896816  5864 net.cpp:157] Top shape: 64 240 10 10 (1536000)
I1018 20:30:18.896821  5864 net.cpp:165] Memory required for data: 62968576
I1018 20:30:18.896829  5864 layer_factory.hpp:77] Creating layer pool2
I1018 20:30:18.896837  5864 net.cpp:100] Creating Layer pool2
I1018 20:30:18.896842  5864 net.cpp:434] pool2 <- conv3
I1018 20:30:18.896847  5864 net.cpp:408] pool2 -> pool2
I1018 20:30:18.896875  5864 net.cpp:150] Setting up pool2
I1018 20:30:18.896881  5864 net.cpp:157] Top shape: 64 240 5 5 (384000)
I1018 20:30:18.896885  5864 net.cpp:165] Memory required for data: 64504576
I1018 20:30:18.896889  5864 layer_factory.hpp:77] Creating layer drop2
I1018 20:30:18.896893  5864 net.cpp:100] Creating Layer drop2
I1018 20:30:18.896898  5864 net.cpp:434] drop2 <- pool2
I1018 20:30:18.896901  5864 net.cpp:408] drop2 -> drop2
I1018 20:30:18.896927  5864 net.cpp:150] Setting up drop2
I1018 20:30:18.896932  5864 net.cpp:157] Top shape: 64 240 5 5 (384000)
I1018 20:30:18.896935  5864 net.cpp:165] Memory required for data: 66040576
I1018 20:30:18.896937  5864 layer_factory.hpp:77] Creating layer relu2
I1018 20:30:18.896944  5864 net.cpp:100] Creating Layer relu2
I1018 20:30:18.896946  5864 net.cpp:434] relu2 <- drop2
I1018 20:30:18.896952  5864 net.cpp:408] relu2 -> relu2
I1018 20:30:18.897064  5864 net.cpp:150] Setting up relu2
I1018 20:30:18.897070  5864 net.cpp:157] Top shape: 64 240 5 5 (384000)
I1018 20:30:18.897073  5864 net.cpp:165] Memory required for data: 67576576
I1018 20:30:18.897076  5864 layer_factory.hpp:77] Creating layer conv4
I1018 20:30:18.897084  5864 net.cpp:100] Creating Layer conv4
I1018 20:30:18.897088  5864 net.cpp:434] conv4 <- relu2
I1018 20:30:18.897094  5864 net.cpp:408] conv4 -> conv4
I1018 20:30:18.897917  5864 net.cpp:150] Setting up conv4
I1018 20:30:18.897925  5864 net.cpp:157] Top shape: 64 240 5 5 (384000)
I1018 20:30:18.897929  5864 net.cpp:165] Memory required for data: 69112576
I1018 20:30:18.897935  5864 layer_factory.hpp:77] Creating layer conv5
I1018 20:30:18.897943  5864 net.cpp:100] Creating Layer conv5
I1018 20:30:18.897946  5864 net.cpp:434] conv5 <- conv4
I1018 20:30:18.897953  5864 net.cpp:408] conv5 -> conv5
I1018 20:30:18.899730  5864 net.cpp:150] Setting up conv5
I1018 20:30:18.899741  5864 net.cpp:157] Top shape: 64 260 4 4 (266240)
I1018 20:30:18.899755  5864 net.cpp:165] Memory required for data: 70177536
I1018 20:30:18.899765  5864 layer_factory.hpp:77] Creating layer pool3
I1018 20:30:18.899770  5864 net.cpp:100] Creating Layer pool3
I1018 20:30:18.899772  5864 net.cpp:434] pool3 <- conv5
I1018 20:30:18.899775  5864 net.cpp:408] pool3 -> pool3
I1018 20:30:18.899802  5864 net.cpp:150] Setting up pool3
I1018 20:30:18.899806  5864 net.cpp:157] Top shape: 64 260 2 2 (66560)
I1018 20:30:18.899808  5864 net.cpp:165] Memory required for data: 70443776
I1018 20:30:18.899811  5864 layer_factory.hpp:77] Creating layer drop3
I1018 20:30:18.899813  5864 net.cpp:100] Creating Layer drop3
I1018 20:30:18.899816  5864 net.cpp:434] drop3 <- pool3
I1018 20:30:18.899818  5864 net.cpp:408] drop3 -> drop3
I1018 20:30:18.899840  5864 net.cpp:150] Setting up drop3
I1018 20:30:18.899844  5864 net.cpp:157] Top shape: 64 260 2 2 (66560)
I1018 20:30:18.899845  5864 net.cpp:165] Memory required for data: 70710016
I1018 20:30:18.899847  5864 layer_factory.hpp:77] Creating layer relu3
I1018 20:30:18.899850  5864 net.cpp:100] Creating Layer relu3
I1018 20:30:18.899854  5864 net.cpp:434] relu3 <- drop3
I1018 20:30:18.899857  5864 net.cpp:408] relu3 -> relu3
I1018 20:30:18.899969  5864 net.cpp:150] Setting up relu3
I1018 20:30:18.899974  5864 net.cpp:157] Top shape: 64 260 2 2 (66560)
I1018 20:30:18.899976  5864 net.cpp:165] Memory required for data: 70976256
I1018 20:30:18.899978  5864 layer_factory.hpp:77] Creating layer conv6
I1018 20:30:18.899984  5864 net.cpp:100] Creating Layer conv6
I1018 20:30:18.899986  5864 net.cpp:434] conv6 <- relu3
I1018 20:30:18.899989  5864 net.cpp:408] conv6 -> conv6
I1018 20:30:18.901084  5864 net.cpp:150] Setting up conv6
I1018 20:30:18.901093  5864 net.cpp:157] Top shape: 64 260 2 2 (66560)
I1018 20:30:18.901094  5864 net.cpp:165] Memory required for data: 71242496
I1018 20:30:18.901099  5864 layer_factory.hpp:77] Creating layer conv7
I1018 20:30:18.901104  5864 net.cpp:100] Creating Layer conv7
I1018 20:30:18.901106  5864 net.cpp:434] conv7 <- conv6
I1018 20:30:18.901109  5864 net.cpp:408] conv7 -> conv7
I1018 20:30:18.903014  5864 net.cpp:150] Setting up conv7
I1018 20:30:18.903023  5864 net.cpp:157] Top shape: 64 280 1 1 (17920)
I1018 20:30:18.903024  5864 net.cpp:165] Memory required for data: 71314176
I1018 20:30:18.903028  5864 layer_factory.hpp:77] Creating layer pool4
I1018 20:30:18.903033  5864 net.cpp:100] Creating Layer pool4
I1018 20:30:18.903034  5864 net.cpp:434] pool4 <- conv7
I1018 20:30:18.903038  5864 net.cpp:408] pool4 -> pool4
I1018 20:30:18.903061  5864 net.cpp:150] Setting up pool4
I1018 20:30:18.903066  5864 net.cpp:157] Top shape: 64 280 1 1 (17920)
I1018 20:30:18.903067  5864 net.cpp:165] Memory required for data: 71385856
I1018 20:30:18.903069  5864 layer_factory.hpp:77] Creating layer drop4
I1018 20:30:18.903074  5864 net.cpp:100] Creating Layer drop4
I1018 20:30:18.903075  5864 net.cpp:434] drop4 <- pool4
I1018 20:30:18.903077  5864 net.cpp:408] drop4 -> drop4
I1018 20:30:18.903101  5864 net.cpp:150] Setting up drop4
I1018 20:30:18.903105  5864 net.cpp:157] Top shape: 64 280 1 1 (17920)
I1018 20:30:18.903106  5864 net.cpp:165] Memory required for data: 71457536
I1018 20:30:18.903108  5864 layer_factory.hpp:77] Creating layer relu4
I1018 20:30:18.903111  5864 net.cpp:100] Creating Layer relu4
I1018 20:30:18.903112  5864 net.cpp:434] relu4 <- drop4
I1018 20:30:18.903116  5864 net.cpp:408] relu4 -> relu4
I1018 20:30:18.903303  5864 net.cpp:150] Setting up relu4
I1018 20:30:18.903311  5864 net.cpp:157] Top shape: 64 280 1 1 (17920)
I1018 20:30:18.903311  5864 net.cpp:165] Memory required for data: 71529216
I1018 20:30:18.903313  5864 layer_factory.hpp:77] Creating layer conv8
I1018 20:30:18.903321  5864 net.cpp:100] Creating Layer conv8
I1018 20:30:18.903322  5864 net.cpp:434] conv8 <- relu4
I1018 20:30:18.903326  5864 net.cpp:408] conv8 -> conv8
I1018 20:30:18.904160  5864 net.cpp:150] Setting up conv8
I1018 20:30:18.904168  5864 net.cpp:157] Top shape: 64 280 1 1 (17920)
I1018 20:30:18.904170  5864 net.cpp:165] Memory required for data: 71600896
I1018 20:30:18.904182  5864 layer_factory.hpp:77] Creating layer pool5
I1018 20:30:18.904187  5864 net.cpp:100] Creating Layer pool5
I1018 20:30:18.904189  5864 net.cpp:434] pool5 <- conv8
I1018 20:30:18.904192  5864 net.cpp:408] pool5 -> pool5
I1018 20:30:18.904217  5864 net.cpp:150] Setting up pool5
I1018 20:30:18.904222  5864 net.cpp:157] Top shape: 64 280 1 1 (17920)
I1018 20:30:18.904224  5864 net.cpp:165] Memory required for data: 71672576
I1018 20:30:18.904225  5864 layer_factory.hpp:77] Creating layer drop5
I1018 20:30:18.904229  5864 net.cpp:100] Creating Layer drop5
I1018 20:30:18.904232  5864 net.cpp:434] drop5 <- pool5
I1018 20:30:18.904233  5864 net.cpp:408] drop5 -> drop5
I1018 20:30:18.904255  5864 net.cpp:150] Setting up drop5
I1018 20:30:18.904259  5864 net.cpp:157] Top shape: 64 280 1 1 (17920)
I1018 20:30:18.904261  5864 net.cpp:165] Memory required for data: 71744256
I1018 20:30:18.904263  5864 layer_factory.hpp:77] Creating layer relu5
I1018 20:30:18.904264  5864 net.cpp:100] Creating Layer relu5
I1018 20:30:18.904266  5864 net.cpp:434] relu5 <- drop5
I1018 20:30:18.904270  5864 net.cpp:408] relu5 -> relu5
I1018 20:30:18.904536  5864 net.cpp:150] Setting up relu5
I1018 20:30:18.904543  5864 net.cpp:157] Top shape: 64 280 1 1 (17920)
I1018 20:30:18.904544  5864 net.cpp:165] Memory required for data: 71815936
I1018 20:30:18.904547  5864 layer_factory.hpp:77] Creating layer conv10
I1018 20:30:18.904552  5864 net.cpp:100] Creating Layer conv10
I1018 20:30:18.904553  5864 net.cpp:434] conv10 <- relu5
I1018 20:30:18.904557  5864 net.cpp:408] conv10 -> conv10
I1018 20:30:18.905490  5864 net.cpp:150] Setting up conv10
I1018 20:30:18.905498  5864 net.cpp:157] Top shape: 64 300 1 1 (19200)
I1018 20:30:18.905500  5864 net.cpp:165] Memory required for data: 71892736
I1018 20:30:18.905508  5864 layer_factory.hpp:77] Creating layer pool6
I1018 20:30:18.905511  5864 net.cpp:100] Creating Layer pool6
I1018 20:30:18.905514  5864 net.cpp:434] pool6 <- conv10
I1018 20:30:18.905516  5864 net.cpp:408] pool6 -> pool6
I1018 20:30:18.905541  5864 net.cpp:150] Setting up pool6
I1018 20:30:18.905545  5864 net.cpp:157] Top shape: 64 300 1 1 (19200)
I1018 20:30:18.905547  5864 net.cpp:165] Memory required for data: 71969536
I1018 20:30:18.905550  5864 layer_factory.hpp:77] Creating layer drop6
I1018 20:30:18.905552  5864 net.cpp:100] Creating Layer drop6
I1018 20:30:18.905555  5864 net.cpp:434] drop6 <- pool6
I1018 20:30:18.905560  5864 net.cpp:408] drop6 -> drop6
I1018 20:30:18.905581  5864 net.cpp:150] Setting up drop6
I1018 20:30:18.905586  5864 net.cpp:157] Top shape: 64 300 1 1 (19200)
I1018 20:30:18.905587  5864 net.cpp:165] Memory required for data: 72046336
I1018 20:30:18.905589  5864 layer_factory.hpp:77] Creating layer relu6
I1018 20:30:18.905591  5864 net.cpp:100] Creating Layer relu6
I1018 20:30:18.905593  5864 net.cpp:434] relu6 <- drop6
I1018 20:30:18.905596  5864 net.cpp:408] relu6 -> relu6
I1018 20:30:18.905707  5864 net.cpp:150] Setting up relu6
I1018 20:30:18.905712  5864 net.cpp:157] Top shape: 64 300 1 1 (19200)
I1018 20:30:18.905714  5864 net.cpp:165] Memory required for data: 72123136
I1018 20:30:18.905715  5864 layer_factory.hpp:77] Creating layer conv11
I1018 20:30:18.905720  5864 net.cpp:100] Creating Layer conv11
I1018 20:30:18.905722  5864 net.cpp:434] conv11 <- relu6
I1018 20:30:18.905725  5864 net.cpp:408] conv11 -> conv11
I1018 20:30:18.906713  5864 net.cpp:150] Setting up conv11
I1018 20:30:18.906721  5864 net.cpp:157] Top shape: 64 100 1 1 (6400)
I1018 20:30:18.906723  5864 net.cpp:165] Memory required for data: 72148736
I1018 20:30:18.906726  5864 layer_factory.hpp:77] Creating layer pool7
I1018 20:30:18.906730  5864 net.cpp:100] Creating Layer pool7
I1018 20:30:18.906733  5864 net.cpp:434] pool7 <- conv11
I1018 20:30:18.906736  5864 net.cpp:408] pool7 -> pool7
I1018 20:30:18.906764  5864 net.cpp:150] Setting up pool7
I1018 20:30:18.906769  5864 net.cpp:157] Top shape: 64 100 1 1 (6400)
I1018 20:30:18.906770  5864 net.cpp:165] Memory required for data: 72174336
I1018 20:30:18.906779  5864 layer_factory.hpp:77] Creating layer drop7
I1018 20:30:18.906782  5864 net.cpp:100] Creating Layer drop7
I1018 20:30:18.906785  5864 net.cpp:434] drop7 <- pool7
I1018 20:30:18.906787  5864 net.cpp:408] drop7 -> drop7
I1018 20:30:18.906810  5864 net.cpp:150] Setting up drop7
I1018 20:30:18.906813  5864 net.cpp:157] Top shape: 64 100 1 1 (6400)
I1018 20:30:18.906816  5864 net.cpp:165] Memory required for data: 72199936
I1018 20:30:18.906816  5864 layer_factory.hpp:77] Creating layer relu7
I1018 20:30:18.906823  5864 net.cpp:100] Creating Layer relu7
I1018 20:30:18.906826  5864 net.cpp:434] relu7 <- drop7
I1018 20:30:18.906828  5864 net.cpp:408] relu7 -> relu7
I1018 20:30:18.907016  5864 net.cpp:150] Setting up relu7
I1018 20:30:18.907023  5864 net.cpp:157] Top shape: 64 100 1 1 (6400)
I1018 20:30:18.907025  5864 net.cpp:165] Memory required for data: 72225536
I1018 20:30:18.907028  5864 layer_factory.hpp:77] Creating layer pool
I1018 20:30:18.907032  5864 net.cpp:100] Creating Layer pool
I1018 20:30:18.907034  5864 net.cpp:434] pool <- relu7
I1018 20:30:18.907039  5864 net.cpp:408] pool -> pool
I1018 20:30:18.907160  5864 net.cpp:150] Setting up pool
I1018 20:30:18.907166  5864 net.cpp:157] Top shape: 64 100 1 1 (6400)
I1018 20:30:18.907167  5864 net.cpp:165] Memory required for data: 72251136
I1018 20:30:18.907168  5864 layer_factory.hpp:77] Creating layer flatten
I1018 20:30:18.907174  5864 net.cpp:100] Creating Layer flatten
I1018 20:30:18.907176  5864 net.cpp:434] flatten <- pool
I1018 20:30:18.907179  5864 net.cpp:408] flatten -> flatten
I1018 20:30:18.907196  5864 net.cpp:150] Setting up flatten
I1018 20:30:18.907199  5864 net.cpp:157] Top shape: 64 100 (6400)
I1018 20:30:18.907202  5864 net.cpp:165] Memory required for data: 72276736
I1018 20:30:18.907202  5864 layer_factory.hpp:77] Creating layer score
I1018 20:30:18.907207  5864 net.cpp:100] Creating Layer score
I1018 20:30:18.907210  5864 net.cpp:434] score <- flatten
I1018 20:30:18.907213  5864 net.cpp:408] score -> score
I1018 20:30:18.907305  5864 net.cpp:150] Setting up score
I1018 20:30:18.907310  5864 net.cpp:157] Top shape: 64 10 (640)
I1018 20:30:18.907312  5864 net.cpp:165] Memory required for data: 72279296
I1018 20:30:18.907315  5864 layer_factory.hpp:77] Creating layer score_score_0_split
I1018 20:30:18.907320  5864 net.cpp:100] Creating Layer score_score_0_split
I1018 20:30:18.907322  5864 net.cpp:434] score_score_0_split <- score
I1018 20:30:18.907326  5864 net.cpp:408] score_score_0_split -> score_score_0_split_0
I1018 20:30:18.907330  5864 net.cpp:408] score_score_0_split -> score_score_0_split_1
I1018 20:30:18.907352  5864 net.cpp:150] Setting up score_score_0_split
I1018 20:30:18.907356  5864 net.cpp:157] Top shape: 64 10 (640)
I1018 20:30:18.907358  5864 net.cpp:157] Top shape: 64 10 (640)
I1018 20:30:18.907359  5864 net.cpp:165] Memory required for data: 72284416
I1018 20:30:18.907361  5864 layer_factory.hpp:77] Creating layer accuracy
I1018 20:30:18.907364  5864 net.cpp:100] Creating Layer accuracy
I1018 20:30:18.907367  5864 net.cpp:434] accuracy <- score_score_0_split_0
I1018 20:30:18.907369  5864 net.cpp:434] accuracy <- label_data_1_split_0
I1018 20:30:18.907373  5864 net.cpp:408] accuracy -> accuracy
…
I1018 20:30:18.907783  5864 net.cpp:283] Network initialization done.
I1018 20:30:18.907966  5864 solver.cpp:181] Creating test net (#0) specified by test_net file: /home/adam/Honours/Honours-Project/mnist_pooling/max/relu/poolcnn_relu_test.prototxt
I1018 20:30:18.908080  5864 net.cpp:58] Initializing net from parameters: 
state {
  phase: TEST
}
layer {
  name: "data"
  type: "Data"
  top: "data"
  top: "label"
  transform_param {
    scale: 0.0039215689
  }
  data_param {
    source: "../../../../data/mnist/mnist_test_lmdb"
    batch_size: 100
    backend: LMDB
  }
}
layer {
  name: "conv1"
  type: "Convolution"
  bottom: "data"
  top: "conv1"
  convolution_param {
    num_output: 192
    kernel_size: 5
    weight_filler {
      type: "xavier"
    }
  }
}
layer {
  name: "pool1"
  type: "Pooling"
  bottom: "conv1"
  top: "pool1"
  pooling_param {
    pool: MAX
    kernel_size: 2
    stride: 2
  }
}
layer {
  name: "drop1"
  type: "Dropout"
  bottom: "pool1"
  top: "drop1"
  dropout_param {
    dropout_ratio: 0
  }
}
layer {
  name: "relu1"
  type: "ReLU"
  bottom: "drop1"
  top: "relu1"
}
layer {
  name: "conv2"
  type: "Convolution"
  bottom: "relu1"
  top: "conv2"
  convolution_param {
    num_output: 192
    kernel_size: 1
    weight_filler {
      type: "xavier"
    }
  }
}
layer {
  name: "conv3"
  type: "Convolution"
  bottom: "conv2"
  top: "conv3"
  convolution_param {
    num_output: 240
    kernel_size: 3
    weight_filler {
      type: "xavier"
    }
  }
}
layer {
  name: "pool2"
  type: "Pooling"
  bottom: "conv3"
  top: "pool2"
  pooling_param {
    pool: MAX
    kernel_size: 2
    stride: 2
  }
}
layer {
  name: "drop2"
  type: "Dropout"
  bottom: "pool2"
  top: "drop2"
  dropout_param {
    dropout_ratio: 0.1
  }
}
layer {
  name: "relu2"
  type: "ReLU"
  bottom: "drop2"
  top: "relu2"
}
layer {
  name: "conv4"
  type: "Convolution"
  bottom: "relu2"
  top: "conv4"
  convolution_param {
    num_output: 240
    kernel_size: 1
    weight_filler {
      type: "xavier"
    }
  }
}
layer {
  name: "conv5"
  type: "Convolution"
  bottom: "conv4"
  top: "conv5"
  convolution_param {
    num_output: 260
    kernel_size: 2
    weight_filler {
      type: "xavier"
    }
  }
}
layer {
  name: "pool3"
  type: "Pooling"
  bottom: "conv5"
  top: "pool3"
  pooling_param {
    pool: MAX
    kernel_size: 2
    stride: 2
  }
}
layer {
  name: "drop3"
  type: "Dropout"
  bottom: "pool3"
  top: "drop3"
  dropout_param {
    dropout_ratio: 0.2
  }
}
layer {
  name: "relu3"
  type: "ReLU"
  bottom: "drop3"
  top: "relu3"
}
layer {
  name: "conv6"
  type: "Convolution"
  bottom: "relu3"
  top: "conv6"
  convolution_param {
    num_output: 260
    kernel_size: 1
    weight_filler {
      type: "xavier"
    }
  }
}
layer {
  name: "conv7"
  type: "Convolution"
  bottom: "conv6"
  top: "conv7"
  convolution_param {
    num_output: 280
    kernel_size: 2
    weight_filler {
      type: "xavier"
    }
  }
}
layer {
  name: "pool4"
  type: "Pooling"
  bottom: "conv7"
  top: "pool4"
  pooling_param {
    pool: MAX
    kernel_size: 2
    stride: 2
  }
}
layer {
  name: "drop4"
  type: "Dropout"
  bottom: "pool4"
  top: "drop4"
  dropout_param {
    dropout_ratio: 0.3
  }
}
layer {
  name: "relu4"
  type: "ReLU"
  bottom: "drop4"
  top: "relu4"
}
layer {
  name: "conv8"
  type: "Convolution"
  bottom: "relu4"
  top: "conv8"
  convolution_param {
    num_output: 280
    kernel_size: 1
    weight_filler {
      type: "xavier"
    }
  }
}
layer {
  name: "pool5"
  type: "Pooling"
  bottom: "conv8"
  top: "pool5"
  pooling_param {
    pool: MAX
    kernel_size: 2
    stride: 2
  }
}
layer {
  name: "drop5"
  type: "Dropout"
  bottom: "pool5"
  top: "drop5"
  dropout_param {
    dropout_ratio: 0.4
  }
}
layer {
  name: "relu5"
  type: "ReLU"
  bottom: "drop5"
  top: "relu5"
}
layer {
  name: "conv10"
  type: "Convolution"
  bottom: "relu5"
  top: "conv10"
  convolution_param {
    num_output: 300
    kernel_size: 1
    weight_filler {
      type: "xavier"
    }
  }
}
layer {
  name: "pool6"
  type: "Pooling"
  bottom: "conv10"
  top: "pool6"
  pooling_param {
    pool: MAX
    kernel_size: 2
    stride: 2
  }
}
layer {
  name: "drop6"
  type: "Dropout"
  bottom: "pool6"
  top: "drop6"
  dropout_param {
    dropout_ratio: 0.5
  }
}
layer {
  name: "relu6"
  type: "ReLU"
  bottom: "drop6"
  top: "relu6"
}
layer {
  name: "conv11"
  type: "Convolution"
  bottom: "relu6"
  top: "conv11"
  convolution_param {
    num_output: 100
    kernel_size: 1
    weight_filler {
      type: "xavier"
    }
  }
}
layer {
  name: "pool7"
  type: "Pooling"
  bottom: "conv11"
  top: "pool7"
  pooling_param {
    pool: MAX
    kernel_size: 2
    stride: 2
  }
}
layer {
  name: "drop7"
  type: "Dropout"
  bottom: "pool7"
  top: "drop7"
  dropout_param {
    dropout_ratio: 0
  }
}
layer {
  name: "relu7"
  type: "ReLU"
  bottom: "drop7"
  top: "relu7"
}
layer {
  name: "pool"
  type: "Pooling"
  bottom: "relu7"
  top: "pool"
  pooling_param {
    pool: AVE
    global_pooling: true
  }
}
layer {
  name: "flatten"
  type: "Flatten"
  bottom: "pool"
  top: "flatten"
}
layer {
  name: "score"
  type: "InnerProduct"
  bottom: "flatten"
  top: "score"
  inner_product_param {
    num_output: 10
    weight_filler {
      type: "gaussian"
    }
  }
}
layer {
  name: "accuracy"
  type: "Accuracy"
  bottom: "score"
  bottom: "label"
  top: "accuracy"
}
layer {
  name: "loss"
  type: "SoftmaxWithLoss"
  bottom: "score"
  bottom: "label"
  top: "loss"
}
I1018 20:30:18.908157  5864 layer_factory.hpp:77] Creating layer data
I1018 20:30:18.908234  5864 net.cpp:100] Creating Layer data
I1018 20:30:18.908238  5864 net.cpp:408] data -> data
I1018 20:30:18.908248  5864 net.cpp:408] data -> label
I1018 20:30:18.908816  5872 db_lmdb.cpp:35] Opened lmdb ../../../../data/mnist/mnist_test_lmdb
I1018 20:30:18.908892  5864 data_layer.cpp:41] output data size: 100,1,28,28
I1018 20:30:18.909596  5864 net.cpp:150] Setting up data
I1018 20:30:18.909605  5864 net.cpp:157] Top shape: 100 1 28 28 (78400)
I1018 20:30:18.909607  5864 net.cpp:157] Top shape: 100 (100)
I1018 20:30:18.909608  5864 net.cpp:165] Memory required for data: 314000
I1018 20:30:18.909611  5864 layer_factory.hpp:77] Creating layer label_data_1_split
I1018 20:30:18.909616  5864 net.cpp:100] Creating Layer label_data_1_split
I1018 20:30:18.909618  5864 net.cpp:434] label_data_1_split <- label
I1018 20:30:18.909622  5864 net.cpp:408] label_data_1_split -> label_data_1_split_0
I1018 20:30:18.909626  5864 net.cpp:408] label_data_1_split -> label_data_1_split_1
I1018 20:30:18.909677  5864 net.cpp:150] Setting up label_data_1_split
I1018 20:30:18.909680  5864 net.cpp:157] Top shape: 100 (100)
I1018 20:30:18.909682  5864 net.cpp:157] Top shape: 100 (100)
I1018 20:30:18.909684  5864 net.cpp:165] Memory required for data: 314800
I1018 20:30:18.909685  5864 layer_factory.hpp:77] Creating layer conv1
I1018 20:30:18.909692  5864 net.cpp:100] Creating Layer conv1
I1018 20:30:18.909693  5864 net.cpp:434] conv1 <- data
I1018 20:30:18.909698  5864 net.cpp:408] conv1 -> conv1
I1018 20:30:18.910409  5864 net.cpp:150] Setting up conv1
I1018 20:30:18.910418  5864 net.cpp:157] Top shape: 100 192 24 24 (11059200)
I1018 20:30:18.910419  5864 net.cpp:165] Memory required for data: 44551600
I1018 20:30:18.910426  5864 layer_factory.hpp:77] Creating layer pool1
I1018 20:30:18.910431  5864 net.cpp:100] Creating Layer pool1
I1018 20:30:18.910434  5864 net.cpp:434] pool1 <- conv1
I1018 20:30:18.910437  5864 net.cpp:408] pool1 -> pool1
I1018 20:30:18.910465  5864 net.cpp:150] Setting up pool1
I1018 20:30:18.910468  5864 net.cpp:157] Top shape: 100 192 12 12 (2764800)
I1018 20:30:18.910470  5864 net.cpp:165] Memory required for data: 55610800
I1018 20:30:18.910472  5864 layer_factory.hpp:77] Creating layer drop1
I1018 20:30:18.910477  5864 net.cpp:100] Creating Layer drop1
I1018 20:30:18.910480  5864 net.cpp:434] drop1 <- pool1
I1018 20:30:18.910482  5864 net.cpp:408] drop1 -> drop1
I1018 20:30:18.910506  5864 net.cpp:150] Setting up drop1
I1018 20:30:18.910509  5864 net.cpp:157] Top shape: 100 192 12 12 (2764800)
I1018 20:30:18.910511  5864 net.cpp:165] Memory required for data: 66670000
I1018 20:30:18.910513  5864 layer_factory.hpp:77] Creating layer relu1
I1018 20:30:18.910516  5864 net.cpp:100] Creating Layer relu1
I1018 20:30:18.910518  5864 net.cpp:434] relu1 <- drop1
I1018 20:30:18.910526  5864 net.cpp:408] relu1 -> relu1
I1018 20:30:18.910727  5864 net.cpp:150] Setting up relu1
I1018 20:30:18.910733  5864 net.cpp:157] Top shape: 100 192 12 12 (2764800)
I1018 20:30:18.910735  5864 net.cpp:165] Memory required for data: 77729200
I1018 20:30:18.910737  5864 layer_factory.hpp:77] Creating layer conv2
I1018 20:30:18.910743  5864 net.cpp:100] Creating Layer conv2
I1018 20:30:18.910745  5864 net.cpp:434] conv2 <- relu1
I1018 20:30:18.910749  5864 net.cpp:408] conv2 -> conv2
I1018 20:30:18.911630  5864 net.cpp:150] Setting up conv2
I1018 20:30:18.911639  5864 net.cpp:157] Top shape: 100 192 12 12 (2764800)
I1018 20:30:18.911641  5864 net.cpp:165] Memory required for data: 88788400
I1018 20:30:18.911656  5864 layer_factory.hpp:77] Creating layer conv3
I1018 20:30:18.911662  5864 net.cpp:100] Creating Layer conv3
I1018 20:30:18.911666  5864 net.cpp:434] conv3 <- conv2
I1018 20:30:18.911669  5864 net.cpp:408] conv3 -> conv3
I1018 20:30:18.914180  5864 net.cpp:150] Setting up conv3
I1018 20:30:18.914193  5864 net.cpp:157] Top shape: 100 240 10 10 (2400000)
I1018 20:30:18.914196  5864 net.cpp:165] Memory required for data: 98388400
I1018 20:30:18.914203  5864 layer_factory.hpp:77] Creating layer pool2
I1018 20:30:18.914211  5864 net.cpp:100] Creating Layer pool2
I1018 20:30:18.914213  5864 net.cpp:434] pool2 <- conv3
I1018 20:30:18.914218  5864 net.cpp:408] pool2 -> pool2
I1018 20:30:18.914248  5864 net.cpp:150] Setting up pool2
I1018 20:30:18.914252  5864 net.cpp:157] Top shape: 100 240 5 5 (600000)
I1018 20:30:18.914254  5864 net.cpp:165] Memory required for data: 100788400
I1018 20:30:18.914257  5864 layer_factory.hpp:77] Creating layer drop2
I1018 20:30:18.914260  5864 net.cpp:100] Creating Layer drop2
I1018 20:30:18.914263  5864 net.cpp:434] drop2 <- pool2
I1018 20:30:18.914265  5864 net.cpp:408] drop2 -> drop2
I1018 20:30:18.914290  5864 net.cpp:150] Setting up drop2
I1018 20:30:18.914294  5864 net.cpp:157] Top shape: 100 240 5 5 (600000)
I1018 20:30:18.914295  5864 net.cpp:165] Memory required for data: 103188400
I1018 20:30:18.914297  5864 layer_factory.hpp:77] Creating layer relu2
I1018 20:30:18.914300  5864 net.cpp:100] Creating Layer relu2
I1018 20:30:18.914304  5864 net.cpp:434] relu2 <- drop2
I1018 20:30:18.914306  5864 net.cpp:408] relu2 -> relu2
I1018 20:30:18.914420  5864 net.cpp:150] Setting up relu2
I1018 20:30:18.914427  5864 net.cpp:157] Top shape: 100 240 5 5 (600000)
I1018 20:30:18.914428  5864 net.cpp:165] Memory required for data: 105588400
I1018 20:30:18.914430  5864 layer_factory.hpp:77] Creating layer conv4
I1018 20:30:18.914435  5864 net.cpp:100] Creating Layer conv4
I1018 20:30:18.914438  5864 net.cpp:434] conv4 <- relu2
I1018 20:30:18.914443  5864 net.cpp:408] conv4 -> conv4
I1018 20:30:18.915304  5864 net.cpp:150] Setting up conv4
I1018 20:30:18.915312  5864 net.cpp:157] Top shape: 100 240 5 5 (600000)
I1018 20:30:18.915314  5864 net.cpp:165] Memory required for data: 107988400
I1018 20:30:18.915318  5864 layer_factory.hpp:77] Creating layer conv5
I1018 20:30:18.915324  5864 net.cpp:100] Creating Layer conv5
I1018 20:30:18.915328  5864 net.cpp:434] conv5 <- conv4
I1018 20:30:18.915331  5864 net.cpp:408] conv5 -> conv5
I1018 20:30:18.917165  5864 net.cpp:150] Setting up conv5
I1018 20:30:18.917173  5864 net.cpp:157] Top shape: 100 260 4 4 (416000)
I1018 20:30:18.917176  5864 net.cpp:165] Memory required for data: 109652400
I1018 20:30:18.917181  5864 layer_factory.hpp:77] Creating layer pool3
I1018 20:30:18.917187  5864 net.cpp:100] Creating Layer pool3
I1018 20:30:18.917191  5864 net.cpp:434] pool3 <- conv5
I1018 20:30:18.917193  5864 net.cpp:408] pool3 -> pool3
I1018 20:30:18.917223  5864 net.cpp:150] Setting up pool3
I1018 20:30:18.917227  5864 net.cpp:157] Top shape: 100 260 2 2 (104000)
I1018 20:30:18.917228  5864 net.cpp:165] Memory required for data: 110068400
I1018 20:30:18.917230  5864 layer_factory.hpp:77] Creating layer drop3
I1018 20:30:18.917234  5864 net.cpp:100] Creating Layer drop3
I1018 20:30:18.917237  5864 net.cpp:434] drop3 <- pool3
I1018 20:30:18.917239  5864 net.cpp:408] drop3 -> drop3
I1018 20:30:18.917264  5864 net.cpp:150] Setting up drop3
I1018 20:30:18.917268  5864 net.cpp:157] Top shape: 100 260 2 2 (104000)
I1018 20:30:18.917270  5864 net.cpp:165] Memory required for data: 110484400
I1018 20:30:18.917273  5864 layer_factory.hpp:77] Creating layer relu3
I1018 20:30:18.917274  5864 net.cpp:100] Creating Layer relu3
I1018 20:30:18.917278  5864 net.cpp:434] relu3 <- drop3
I1018 20:30:18.917281  5864 net.cpp:408] relu3 -> relu3
I1018 20:30:18.917395  5864 net.cpp:150] Setting up relu3
I1018 20:30:18.917402  5864 net.cpp:157] Top shape: 100 260 2 2 (104000)
I1018 20:30:18.917404  5864 net.cpp:165] Memory required for data: 110900400
I1018 20:30:18.917405  5864 layer_factory.hpp:77] Creating layer conv6
I1018 20:30:18.917420  5864 net.cpp:100] Creating Layer conv6
I1018 20:30:18.917423  5864 net.cpp:434] conv6 <- relu3
I1018 20:30:18.917428  5864 net.cpp:408] conv6 -> conv6
I1018 20:30:18.918658  5864 net.cpp:150] Setting up conv6
I1018 20:30:18.918665  5864 net.cpp:157] Top shape: 100 260 2 2 (104000)
I1018 20:30:18.918668  5864 net.cpp:165] Memory required for data: 111316400
I1018 20:30:18.918673  5864 layer_factory.hpp:77] Creating layer conv7
I1018 20:30:18.918678  5864 net.cpp:100] Creating Layer conv7
I1018 20:30:18.918681  5864 net.cpp:434] conv7 <- conv6
I1018 20:30:18.918684  5864 net.cpp:408] conv7 -> conv7
I1018 20:30:18.921030  5864 net.cpp:150] Setting up conv7
I1018 20:30:18.921039  5864 net.cpp:157] Top shape: 100 280 1 1 (28000)
I1018 20:30:18.921041  5864 net.cpp:165] Memory required for data: 111428400
I1018 20:30:18.921046  5864 layer_factory.hpp:77] Creating layer pool4
I1018 20:30:18.921051  5864 net.cpp:100] Creating Layer pool4
I1018 20:30:18.921052  5864 net.cpp:434] pool4 <- conv7
I1018 20:30:18.921056  5864 net.cpp:408] pool4 -> pool4
I1018 20:30:18.921085  5864 net.cpp:150] Setting up pool4
I1018 20:30:18.921089  5864 net.cpp:157] Top shape: 100 280 1 1 (28000)
I1018 20:30:18.921092  5864 net.cpp:165] Memory required for data: 111540400
I1018 20:30:18.921093  5864 layer_factory.hpp:77] Creating layer drop4
I1018 20:30:18.921097  5864 net.cpp:100] Creating Layer drop4
I1018 20:30:18.921099  5864 net.cpp:434] drop4 <- pool4
I1018 20:30:18.921103  5864 net.cpp:408] drop4 -> drop4
I1018 20:30:18.921128  5864 net.cpp:150] Setting up drop4
I1018 20:30:18.921133  5864 net.cpp:157] Top shape: 100 280 1 1 (28000)
I1018 20:30:18.921135  5864 net.cpp:165] Memory required for data: 111652400
I1018 20:30:18.921136  5864 layer_factory.hpp:77] Creating layer relu4
I1018 20:30:18.921139  5864 net.cpp:100] Creating Layer relu4
I1018 20:30:18.921141  5864 net.cpp:434] relu4 <- drop4
I1018 20:30:18.921146  5864 net.cpp:408] relu4 -> relu4
I1018 20:30:18.921263  5864 net.cpp:150] Setting up relu4
I1018 20:30:18.921268  5864 net.cpp:157] Top shape: 100 280 1 1 (28000)
I1018 20:30:18.921270  5864 net.cpp:165] Memory required for data: 111764400
I1018 20:30:18.921272  5864 layer_factory.hpp:77] Creating layer conv8
I1018 20:30:18.921278  5864 net.cpp:100] Creating Layer conv8
I1018 20:30:18.921280  5864 net.cpp:434] conv8 <- relu4
I1018 20:30:18.921284  5864 net.cpp:408] conv8 -> conv8
I1018 20:30:18.922222  5864 net.cpp:150] Setting up conv8
I1018 20:30:18.922230  5864 net.cpp:157] Top shape: 100 280 1 1 (28000)
I1018 20:30:18.922233  5864 net.cpp:165] Memory required for data: 111876400
I1018 20:30:18.922237  5864 layer_factory.hpp:77] Creating layer pool5
I1018 20:30:18.922241  5864 net.cpp:100] Creating Layer pool5
I1018 20:30:18.922245  5864 net.cpp:434] pool5 <- conv8
I1018 20:30:18.922247  5864 net.cpp:408] pool5 -> pool5
I1018 20:30:18.922276  5864 net.cpp:150] Setting up pool5
I1018 20:30:18.922279  5864 net.cpp:157] Top shape: 100 280 1 1 (28000)
I1018 20:30:18.922281  5864 net.cpp:165] Memory required for data: 111988400
I1018 20:30:18.922284  5864 layer_factory.hpp:77] Creating layer drop5
I1018 20:30:18.922287  5864 net.cpp:100] Creating Layer drop5
I1018 20:30:18.922289  5864 net.cpp:434] drop5 <- pool5
I1018 20:30:18.922293  5864 net.cpp:408] drop5 -> drop5
I1018 20:30:18.922317  5864 net.cpp:150] Setting up drop5
I1018 20:30:18.922322  5864 net.cpp:157] Top shape: 100 280 1 1 (28000)
I1018 20:30:18.922324  5864 net.cpp:165] Memory required for data: 112100400
I1018 20:30:18.922327  5864 layer_factory.hpp:77] Creating layer relu5
I1018 20:30:18.922328  5864 net.cpp:100] Creating Layer relu5
I1018 20:30:18.922332  5864 net.cpp:434] relu5 <- drop5
I1018 20:30:18.922334  5864 net.cpp:408] relu5 -> relu5
I1018 20:30:18.922529  5864 net.cpp:150] Setting up relu5
I1018 20:30:18.922536  5864 net.cpp:157] Top shape: 100 280 1 1 (28000)
I1018 20:30:18.922538  5864 net.cpp:165] Memory required for data: 112212400
I1018 20:30:18.922540  5864 layer_factory.hpp:77] Creating layer conv10
I1018 20:30:18.922555  5864 net.cpp:100] Creating Layer conv10
I1018 20:30:18.922559  5864 net.cpp:434] conv10 <- relu5
I1018 20:30:18.922561  5864 net.cpp:408] conv10 -> conv10
I1018 20:30:18.923530  5864 net.cpp:150] Setting up conv10
I1018 20:30:18.923538  5864 net.cpp:157] Top shape: 100 300 1 1 (30000)
I1018 20:30:18.923540  5864 net.cpp:165] Memory required for data: 112332400
I1018 20:30:18.923547  5864 layer_factory.hpp:77] Creating layer pool6
I1018 20:30:18.923552  5864 net.cpp:100] Creating Layer pool6
I1018 20:30:18.923555  5864 net.cpp:434] pool6 <- conv10
I1018 20:30:18.923558  5864 net.cpp:408] pool6 -> pool6
I1018 20:30:18.923586  5864 net.cpp:150] Setting up pool6
I1018 20:30:18.923590  5864 net.cpp:157] Top shape: 100 300 1 1 (30000)
I1018 20:30:18.923593  5864 net.cpp:165] Memory required for data: 112452400
I1018 20:30:18.923593  5864 layer_factory.hpp:77] Creating layer drop6
I1018 20:30:18.923596  5864 net.cpp:100] Creating Layer drop6
I1018 20:30:18.923600  5864 net.cpp:434] drop6 <- pool6
I1018 20:30:18.923604  5864 net.cpp:408] drop6 -> drop6
I1018 20:30:18.923625  5864 net.cpp:150] Setting up drop6
I1018 20:30:18.923630  5864 net.cpp:157] Top shape: 100 300 1 1 (30000)
I1018 20:30:18.923634  5864 net.cpp:165] Memory required for data: 112572400
I1018 20:30:18.923635  5864 layer_factory.hpp:77] Creating layer relu6
I1018 20:30:18.923637  5864 net.cpp:100] Creating Layer relu6
I1018 20:30:18.923640  5864 net.cpp:434] relu6 <- drop6
I1018 20:30:18.923642  5864 net.cpp:408] relu6 -> relu6
I1018 20:30:18.923758  5864 net.cpp:150] Setting up relu6
I1018 20:30:18.923764  5864 net.cpp:157] Top shape: 100 300 1 1 (30000)
I1018 20:30:18.923765  5864 net.cpp:165] Memory required for data: 112692400
I1018 20:30:18.923768  5864 layer_factory.hpp:77] Creating layer conv11
I1018 20:30:18.923773  5864 net.cpp:100] Creating Layer conv11
I1018 20:30:18.923775  5864 net.cpp:434] conv11 <- relu6
I1018 20:30:18.923779  5864 net.cpp:408] conv11 -> conv11
I1018 20:30:18.924540  5864 net.cpp:150] Setting up conv11
I1018 20:30:18.924548  5864 net.cpp:157] Top shape: 100 100 1 1 (10000)
I1018 20:30:18.924551  5864 net.cpp:165] Memory required for data: 112732400
I1018 20:30:18.924554  5864 layer_factory.hpp:77] Creating layer pool7
I1018 20:30:18.924559  5864 net.cpp:100] Creating Layer pool7
I1018 20:30:18.924562  5864 net.cpp:434] pool7 <- conv11
I1018 20:30:18.924566  5864 net.cpp:408] pool7 -> pool7
I1018 20:30:18.924595  5864 net.cpp:150] Setting up pool7
I1018 20:30:18.924602  5864 net.cpp:157] Top shape: 100 100 1 1 (10000)
I1018 20:30:18.924603  5864 net.cpp:165] Memory required for data: 112772400
I1018 20:30:18.924605  5864 layer_factory.hpp:77] Creating layer drop7
I1018 20:30:18.924608  5864 net.cpp:100] Creating Layer drop7
I1018 20:30:18.924610  5864 net.cpp:434] drop7 <- pool7
I1018 20:30:18.924613  5864 net.cpp:408] drop7 -> drop7
I1018 20:30:18.924638  5864 net.cpp:150] Setting up drop7
I1018 20:30:18.924641  5864 net.cpp:157] Top shape: 100 100 1 1 (10000)
I1018 20:30:18.924644  5864 net.cpp:165] Memory required for data: 112812400
I1018 20:30:18.924646  5864 layer_factory.hpp:77] Creating layer relu7
I1018 20:30:18.924651  5864 net.cpp:100] Creating Layer relu7
I1018 20:30:18.924654  5864 net.cpp:434] relu7 <- drop7
I1018 20:30:18.924657  5864 net.cpp:408] relu7 -> relu7
I1018 20:30:18.924772  5864 net.cpp:150] Setting up relu7
I1018 20:30:18.924777  5864 net.cpp:157] Top shape: 100 100 1 1 (10000)
I1018 20:30:18.924779  5864 net.cpp:165] Memory required for data: 112852400
I1018 20:30:18.924782  5864 layer_factory.hpp:77] Creating layer pool
I1018 20:30:18.924785  5864 net.cpp:100] Creating Layer pool
I1018 20:30:18.924787  5864 net.cpp:434] pool <- relu7
I1018 20:30:18.924790  5864 net.cpp:408] pool -> pool
I1018 20:30:18.924983  5864 net.cpp:150] Setting up pool
I1018 20:30:18.924991  5864 net.cpp:157] Top shape: 100 100 1 1 (10000)
I1018 20:30:18.924993  5864 net.cpp:165] Memory required for data: 112892400
I1018 20:30:18.924995  5864 layer_factory.hpp:77] Creating layer flatten
I1018 20:30:18.925005  5864 net.cpp:100] Creating Layer flatten
I1018 20:30:18.925009  5864 net.cpp:434] flatten <- pool
I1018 20:30:18.925011  5864 net.cpp:408] flatten -> flatten
I1018 20:30:18.925030  5864 net.cpp:150] Setting up flatten
I1018 20:30:18.925034  5864 net.cpp:157] Top shape: 100 100 (10000)
I1018 20:30:18.925035  5864 net.cpp:165] Memory required for data: 112932400
I1018 20:30:18.925037  5864 layer_factory.hpp:77] Creating layer score
I1018 20:30:18.925042  5864 net.cpp:100] Creating Layer score
I1018 20:30:18.925045  5864 net.cpp:434] score <- flatten
I1018 20:30:18.925047  5864 net.cpp:408] score -> score
I1018 20:30:18.925132  5864 net.cpp:150] Setting up score
I1018 20:30:18.925135  5864 net.cpp:157] Top shape: 100 10 (1000)
I1018 20:30:18.925138  5864 net.cpp:165] Memory required for data: 112936400
I1018 20:30:18.925142  5864 layer_factory.hpp:77] Creating layer score_score_0_split
I1018 20:30:18.925146  5864 net.cpp:100] Creating Layer score_score_0_split
I1018 20:30:18.925148  5864 net.cpp:434] score_score_0_split <- score
I1018 20:30:18.925151  5864 net.cpp:408] score_score_0_split -> score_score_0_split_0
I1018 20:30:18.925155  5864 net.cpp:408] score_score_0_split -> score_score_0_split_1
I1018 20:30:18.925180  5864 net.cpp:150] Setting up score_score_0_split
I1018 20:30:18.925184  5864 net.cpp:157] Top shape: 100 10 (1000)
I1018 20:30:18.925186  5864 net.cpp:157] Top shape: 100 10 (1000)
I1018 20:30:18.925189  5864 net.cpp:165] Memory required for data: 112944400
I1018 20:30:18.925190  5864 layer_factory.hpp:77] Creating layer accuracy
I1018 20:30:18.925194  5864 net.cpp:100] Creating Layer accuracy
I1018 20:30:18.925196  5864 net.cpp:434] accuracy <- score_score_0_split_0
I1018 20:30:18.925199  5864 net.cpp:434] accuracy <- label_data_1_split_0
I1018 20:30:18.925204  5864 net.cpp:408] accuracy -> accuracy
…
