…
  level: 0
  stage: ""
}
type: "SGD"
I1018 17:58:43.780156  4265 solver.cpp:81] Creating training net from train_net file: /home/adam/Honours/Honours-Project/mnist_pooling/max/elu/poolcnn_elu_train.prototxt
I1018 17:58:43.780462  4265 net.cpp:58] Initializing net from parameters: 
state {
  phase: TRAIN
  level: 0
  stage: ""
}
layer {
  name: "data"
  type: "Data"
  top: "data"
  top: "label"
  transform_param {
    scale: 0.0039215689
  }
  data_param {
    source: "../../../../data/mnist/mnist_train_lmdb"
    batch_size: 64
    backend: LMDB
  }
}
layer {
  name: "conv1"
  type: "Convolution"
  bottom: "data"
  top: "conv1"
  convolution_param {
    num_output: 192
    kernel_size: 5
    weight_filler {
      type: "xavier"
    }
  }
}
layer {
  name: "pool1"
  type: "Pooling"
  bottom: "conv1"
  top: "pool1"
  pooling_param {
    pool: MAX
    kernel_size: 2
    stride: 2
  }
}
layer {
  name: "drop1"
  type: "Dropout"
  bottom: "pool1"
  top: "drop1"
  dropout_param {
    dropout_ratio: 0
  }
}
layer {
  name: "elu1"
  type: "ELU"
  bottom: "drop1"
  top: "elu1"
}
layer {
  name: "conv2"
  type: "Convolution"
  bottom: "elu1"
  top: "conv2"
  convolution_param {
    num_output: 192
    kernel_size: 1
    weight_filler {
      type: "xavier"
    }
  }
}
layer {
  name: "conv3"
  type: "Convolution"
  bottom: "conv2"
  top: "conv3"
  convolution_param {
    num_output: 240
    kernel_size: 3
    weight_filler {
      type: "xavier"
    }
  }
}
layer {
  name: "pool2"
  type: "Pooling"
  bottom: "conv3"
  top: "pool2"
  pooling_param {
    pool: MAX
    kernel_size: 2
    stride: 2
  }
}
layer {
  name: "drop2"
  type: "Dropout"
  bottom: "pool2"
  top: "drop2"
  dropout_param {
    dropout_ratio: 0.1
  }
}
layer {
  name: "elu2"
  type: "ELU"
  bottom: "drop2"
  top: "elu2"
}
layer {
  name: "conv4"
  type: "Convolution"
  bottom: "elu2"
  top: "conv4"
  convolution_param {
    num_output: 240
    kernel_size: 1
    weight_filler {
      type: "xavier"
    }
  }
}
layer {
  name: "conv5"
  type: "Convolution"
  bottom: "conv4"
  top: "conv5"
  convolution_param {
    num_output: 260
    kernel_size: 2
    weight_filler {
      type: "xavier"
    }
  }
}
layer {
  name: "pool3"
  type: "Pooling"
  bottom: "conv5"
  top: "pool3"
  pooling_param {
    pool: MAX
    kernel_size: 2
    stride: 2
  }
}
layer {
  name: "drop3"
  type: "Dropout"
  bottom: "pool3"
  top: "drop3"
  dropout_param {
    dropout_ratio: 0.2
  }
}
layer {
  name: "elu3"
  type: "ELU"
  bottom: "drop3"
  top: "elu3"
}
layer {
  name: "conv6"
  type: "Convolution"
  bottom: "elu3"
  top: "conv6"
  convolution_param {
    num_output: 260
    kernel_size: 1
    weight_filler {
      type: "xavier"
    }
  }
}
layer {
  name: "conv7"
  type: "Convolution"
  bottom: "conv6"
  top: "conv7"
  convolution_param {
    num_output: 280
    kernel_size: 2
    weight_filler {
      type: "xavier"
    }
  }
}
layer {
  name: "pool4"
  type: "Pooling"
  bottom: "conv7"
  top: "pool4"
  pooling_param {
    pool: MAX
    kernel_size: 2
    stride: 2
  }
}
layer {
  name: "drop4"
  type: "Dropout"
  bottom: "pool4"
  top: "drop4"
  dropout_param {
    dropout_ratio: 0.3
  }
}
layer {
  name: "elu4"
  type: "ELU"
  bottom: "drop4"
  top: "elu4"
}
layer {
  name: "conv8"
  type: "Convolution"
  bottom: "elu4"
  top: "conv8"
  convolution_param {
    num_output: 280
    kernel_size: 1
    weight_filler {
      type: "xavier"
    }
  }
}
layer {
  name: "pool5"
  type: "Pooling"
  bottom: "conv8"
  top: "pool5"
  pooling_param {
    pool: MAX
    kernel_size: 2
    stride: 2
  }
}
layer {
  name: "drop5"
  type: "Dropout"
  bottom: "pool5"
  top: "drop5"
  dropout_param {
    dropout_ratio: 0.4
  }
}
layer {
  name: "elu5"
  type: "ELU"
  bottom: "drop5"
  top: "elu5"
}
layer {
  name: "conv10"
  type: "Convolution"
  bottom: "elu5"
  top: "conv10"
  convolution_param {
    num_output: 300
    kernel_size: 1
    weight_filler {
      type: "xavier"
    }
  }
}
layer {
  name: "pool6"
  type: "Pooling"
  bottom: "conv10"
  top: "pool6"
  pooling_param {
    pool: MAX
    kernel_size: 2
    stride: 2
  }
}
layer {
  name: "drop6"
  type: "Dropout"
  bottom: "pool6"
  top: "drop6"
  dropout_param {
    dropout_ratio: 0.5
  }
}
layer {
  name: "elu6"
  type: "ELU"
  bottom: "drop6"
  top: "elu6"
}
layer {
  name: "conv11"
  type: "Convolution"
  bottom: "elu6"
  top: "conv11"
  convolution_param {
    num_output: 100
    kernel_size: 1
    weight_filler {
      type: "xavier"
    }
  }
}
layer {
  name: "pool7"
  type: "Pooling"
  bottom: "conv11"
  top: "pool7"
  pooling_param {
    pool: MAX
    kernel_size: 2
    stride: 2
  }
}
layer {
  name: "drop7"
  type: "Dropout"
  bottom: "pool7"
  top: "drop7"
  dropout_param {
    dropout_ratio: 0
  }
}
layer {
  name: "elu7"
  type: "ELU"
  bottom: "drop7"
  top: "elu7"
}
layer {
  name: "pool"
  type: "Pooling"
  bottom: "elu7"
  top: "pool"
  pooling_param {
    pool: AVE
    global_pooling: true
  }
}
layer {
  name: "flatten"
  type: "Flatten"
  bottom: "pool"
  top: "flatten"
}
layer {
  name: "score"
  type: "InnerProduct"
  bottom: "flatten"
  top: "score"
  inner_product_param {
    num_output: 10
    weight_filler {
      type: "gaussian"
    }
  }
}
layer {
  name: "accuracy"
  type: "Accuracy"
  bottom: "score"
  bottom: "label"
  top: "accuracy"
}
layer {
  name: "loss"
  type: "SoftmaxWithLoss"
  bottom: "score"
  bottom: "label"
  top: "loss"
}
I1018 17:58:43.780586  4265 layer_factory.hpp:77] Creating layer data
I1018 17:58:43.780974  4265 net.cpp:100] Creating Layer data
I1018 17:58:43.780982  4265 net.cpp:408] data -> data
I1018 17:58:43.780997  4265 net.cpp:408] data -> label
I1018 17:58:43.781585  4271 db_lmdb.cpp:35] Opened lmdb ../../../../data/mnist/mnist_train_lmdb
I1018 17:58:43.787243  4265 data_layer.cpp:41] output data size: 64,1,28,28
I1018 17:58:43.787834  4265 net.cpp:150] Setting up data
I1018 17:58:43.787847  4265 net.cpp:157] Top shape: 64 1 28 28 (50176)
I1018 17:58:43.787849  4265 net.cpp:157] Top shape: 64 (64)
I1018 17:58:43.787850  4265 net.cpp:165] Memory required for data: 200960
I1018 17:58:43.787858  4265 layer_factory.hpp:77] Creating layer label_data_1_split
I1018 17:58:43.787873  4265 net.cpp:100] Creating Layer label_data_1_split
I1018 17:58:43.787878  4265 net.cpp:434] label_data_1_split <- label
I1018 17:58:43.787890  4265 net.cpp:408] label_data_1_split -> label_data_1_split_0
I1018 17:58:43.787899  4265 net.cpp:408] label_data_1_split -> label_data_1_split_1
I1018 17:58:43.787924  4265 net.cpp:150] Setting up label_data_1_split
I1018 17:58:43.787928  4265 net.cpp:157] Top shape: 64 (64)
I1018 17:58:43.787931  4265 net.cpp:157] Top shape: 64 (64)
I1018 17:58:43.787935  4265 net.cpp:165] Memory required for data: 201472
I1018 17:58:43.787937  4265 layer_factory.hpp:77] Creating layer conv1
I1018 17:58:43.787952  4265 net.cpp:100] Creating Layer conv1
I1018 17:58:43.787955  4265 net.cpp:434] conv1 <- data
I1018 17:58:43.787961  4265 net.cpp:408] conv1 -> conv1
I1018 17:58:43.909318  4265 net.cpp:150] Setting up conv1
I1018 17:58:43.909342  4265 net.cpp:157] Top shape: 64 192 24 24 (7077888)
I1018 17:58:43.909344  4265 net.cpp:165] Memory required for data: 28513024
I1018 17:58:43.909361  4265 layer_factory.hpp:77] Creating layer pool1
I1018 17:58:43.909370  4265 net.cpp:100] Creating Layer pool1
I1018 17:58:43.909373  4265 net.cpp:434] pool1 <- conv1
I1018 17:58:43.909378  4265 net.cpp:408] pool1 -> pool1
I1018 17:58:43.909415  4265 net.cpp:150] Setting up pool1
I1018 17:58:43.909420  4265 net.cpp:157] Top shape: 64 192 12 12 (1769472)
I1018 17:58:43.909433  4265 net.cpp:165] Memory required for data: 35590912
I1018 17:58:43.909436  4265 layer_factory.hpp:77] Creating layer drop1
I1018 17:58:43.909442  4265 net.cpp:100] Creating Layer drop1
I1018 17:58:43.909445  4265 net.cpp:434] drop1 <- pool1
I1018 17:58:43.909447  4265 net.cpp:408] drop1 -> drop1
I1018 17:58:43.909473  4265 net.cpp:150] Setting up drop1
I1018 17:58:43.909477  4265 net.cpp:157] Top shape: 64 192 12 12 (1769472)
I1018 17:58:43.909479  4265 net.cpp:165] Memory required for data: 42668800
I1018 17:58:43.909481  4265 layer_factory.hpp:77] Creating layer elu1
I1018 17:58:43.909483  4265 net.cpp:100] Creating Layer elu1
I1018 17:58:43.909485  4265 net.cpp:434] elu1 <- drop1
I1018 17:58:43.909487  4265 net.cpp:408] elu1 -> elu1
I1018 17:58:43.909498  4265 net.cpp:150] Setting up elu1
I1018 17:58:43.909502  4265 net.cpp:157] Top shape: 64 192 12 12 (1769472)
I1018 17:58:43.909503  4265 net.cpp:165] Memory required for data: 49746688
I1018 17:58:43.909504  4265 layer_factory.hpp:77] Creating layer conv2
I1018 17:58:43.909510  4265 net.cpp:100] Creating Layer conv2
I1018 17:58:43.909512  4265 net.cpp:434] conv2 <- elu1
I1018 17:58:43.909517  4265 net.cpp:408] conv2 -> conv2
I1018 17:58:43.910238  4265 net.cpp:150] Setting up conv2
I1018 17:58:43.910245  4265 net.cpp:157] Top shape: 64 192 12 12 (1769472)
I1018 17:58:43.910248  4265 net.cpp:165] Memory required for data: 56824576
I1018 17:58:43.910253  4265 layer_factory.hpp:77] Creating layer conv3
I1018 17:58:43.910257  4265 net.cpp:100] Creating Layer conv3
I1018 17:58:43.910259  4265 net.cpp:434] conv3 <- conv2
I1018 17:58:43.910264  4265 net.cpp:408] conv3 -> conv3
I1018 17:58:43.912678  4265 net.cpp:150] Setting up conv3
I1018 17:58:43.912685  4265 net.cpp:157] Top shape: 64 240 10 10 (1536000)
I1018 17:58:43.912688  4265 net.cpp:165] Memory required for data: 62968576
I1018 17:58:43.912693  4265 layer_factory.hpp:77] Creating layer pool2
I1018 17:58:43.912698  4265 net.cpp:100] Creating Layer pool2
I1018 17:58:43.912700  4265 net.cpp:434] pool2 <- conv3
I1018 17:58:43.912703  4265 net.cpp:408] pool2 -> pool2
I1018 17:58:43.912729  4265 net.cpp:150] Setting up pool2
I1018 17:58:43.912734  4265 net.cpp:157] Top shape: 64 240 5 5 (384000)
I1018 17:58:43.912735  4265 net.cpp:165] Memory required for data: 64504576
I1018 17:58:43.912737  4265 layer_factory.hpp:77] Creating layer drop2
I1018 17:58:43.912740  4265 net.cpp:100] Creating Layer drop2
I1018 17:58:43.912742  4265 net.cpp:434] drop2 <- pool2
I1018 17:58:43.912745  4265 net.cpp:408] drop2 -> drop2
I1018 17:58:43.912766  4265 net.cpp:150] Setting up drop2
I1018 17:58:43.912770  4265 net.cpp:157] Top shape: 64 240 5 5 (384000)
I1018 17:58:43.912771  4265 net.cpp:165] Memory required for data: 66040576
I1018 17:58:43.912773  4265 layer_factory.hpp:77] Creating layer elu2
I1018 17:58:43.912775  4265 net.cpp:100] Creating Layer elu2
I1018 17:58:43.912777  4265 net.cpp:434] elu2 <- drop2
I1018 17:58:43.912781  4265 net.cpp:408] elu2 -> elu2
I1018 17:58:43.912796  4265 net.cpp:150] Setting up elu2
I1018 17:58:43.912801  4265 net.cpp:157] Top shape: 64 240 5 5 (384000)
I1018 17:58:43.912803  4265 net.cpp:165] Memory required for data: 67576576
I1018 17:58:43.912806  4265 layer_factory.hpp:77] Creating layer conv4
I1018 17:58:43.912811  4265 net.cpp:100] Creating Layer conv4
I1018 17:58:43.912813  4265 net.cpp:434] conv4 <- elu2
I1018 17:58:43.912817  4265 net.cpp:408] conv4 -> conv4
I1018 17:58:43.913640  4265 net.cpp:150] Setting up conv4
I1018 17:58:43.913648  4265 net.cpp:157] Top shape: 64 240 5 5 (384000)
I1018 17:58:43.913650  4265 net.cpp:165] Memory required for data: 69112576
I1018 17:58:43.913656  4265 layer_factory.hpp:77] Creating layer conv5
I1018 17:58:43.913662  4265 net.cpp:100] Creating Layer conv5
I1018 17:58:43.913664  4265 net.cpp:434] conv5 <- conv4
I1018 17:58:43.913668  4265 net.cpp:408] conv5 -> conv5
I1018 17:58:43.915421  4265 net.cpp:150] Setting up conv5
I1018 17:58:43.915428  4265 net.cpp:157] Top shape: 64 260 4 4 (266240)
I1018 17:58:43.915431  4265 net.cpp:165] Memory required for data: 70177536
I1018 17:58:43.915446  4265 layer_factory.hpp:77] Creating layer pool3
I1018 17:58:43.915452  4265 net.cpp:100] Creating Layer pool3
I1018 17:58:43.915454  4265 net.cpp:434] pool3 <- conv5
I1018 17:58:43.915457  4265 net.cpp:408] pool3 -> pool3
I1018 17:58:43.915488  4265 net.cpp:150] Setting up pool3
I1018 17:58:43.915493  4265 net.cpp:157] Top shape: 64 260 2 2 (66560)
I1018 17:58:43.915494  4265 net.cpp:165] Memory required for data: 70443776
I1018 17:58:43.915496  4265 layer_factory.hpp:77] Creating layer drop3
I1018 17:58:43.915500  4265 net.cpp:100] Creating Layer drop3
I1018 17:58:43.915503  4265 net.cpp:434] drop3 <- pool3
I1018 17:58:43.915505  4265 net.cpp:408] drop3 -> drop3
I1018 17:58:43.915530  4265 net.cpp:150] Setting up drop3
I1018 17:58:43.915534  4265 net.cpp:157] Top shape: 64 260 2 2 (66560)
I1018 17:58:43.915537  4265 net.cpp:165] Memory required for data: 70710016
I1018 17:58:43.915539  4265 layer_factory.hpp:77] Creating layer elu3
I1018 17:58:43.915541  4265 net.cpp:100] Creating Layer elu3
I1018 17:58:43.915544  4265 net.cpp:434] elu3 <- drop3
I1018 17:58:43.915547  4265 net.cpp:408] elu3 -> elu3
I1018 17:58:43.915558  4265 net.cpp:150] Setting up elu3
I1018 17:58:43.915561  4265 net.cpp:157] Top shape: 64 260 2 2 (66560)
I1018 17:58:43.915563  4265 net.cpp:165] Memory required for data: 70976256
I1018 17:58:43.915566  4265 layer_factory.hpp:77] Creating layer conv6
I1018 17:58:43.915573  4265 net.cpp:100] Creating Layer conv6
I1018 17:58:43.915575  4265 net.cpp:434] conv6 <- elu3
I1018 17:58:43.915578  4265 net.cpp:408] conv6 -> conv6
I1018 17:58:43.916673  4265 net.cpp:150] Setting up conv6
I1018 17:58:43.916682  4265 net.cpp:157] Top shape: 64 260 2 2 (66560)
I1018 17:58:43.916683  4265 net.cpp:165] Memory required for data: 71242496
I1018 17:58:43.916687  4265 layer_factory.hpp:77] Creating layer conv7
I1018 17:58:43.916693  4265 net.cpp:100] Creating Layer conv7
I1018 17:58:43.916697  4265 net.cpp:434] conv7 <- conv6
I1018 17:58:43.916699  4265 net.cpp:408] conv7 -> conv7
I1018 17:58:43.918534  4265 net.cpp:150] Setting up conv7
I1018 17:58:43.918542  4265 net.cpp:157] Top shape: 64 280 1 1 (17920)
I1018 17:58:43.918545  4265 net.cpp:165] Memory required for data: 71314176
I1018 17:58:43.918548  4265 layer_factory.hpp:77] Creating layer pool4
I1018 17:58:43.918552  4265 net.cpp:100] Creating Layer pool4
I1018 17:58:43.918555  4265 net.cpp:434] pool4 <- conv7
I1018 17:58:43.918560  4265 net.cpp:408] pool4 -> pool4
I1018 17:58:43.918583  4265 net.cpp:150] Setting up pool4
I1018 17:58:43.918587  4265 net.cpp:157] Top shape: 64 280 1 1 (17920)
I1018 17:58:43.918588  4265 net.cpp:165] Memory required for data: 71385856
I1018 17:58:43.918591  4265 layer_factory.hpp:77] Creating layer drop4
I1018 17:58:43.918596  4265 net.cpp:100] Creating Layer drop4
I1018 17:58:43.918598  4265 net.cpp:434] drop4 <- pool4
I1018 17:58:43.918602  4265 net.cpp:408] drop4 -> drop4
I1018 17:58:43.918624  4265 net.cpp:150] Setting up drop4
I1018 17:58:43.918628  4265 net.cpp:157] Top shape: 64 280 1 1 (17920)
I1018 17:58:43.918629  4265 net.cpp:165] Memory required for data: 71457536
I1018 17:58:43.918632  4265 layer_factory.hpp:77] Creating layer elu4
I1018 17:58:43.918637  4265 net.cpp:100] Creating Layer elu4
I1018 17:58:43.918639  4265 net.cpp:434] elu4 <- drop4
I1018 17:58:43.918642  4265 net.cpp:408] elu4 -> elu4
I1018 17:58:43.918656  4265 net.cpp:150] Setting up elu4
I1018 17:58:43.918660  4265 net.cpp:157] Top shape: 64 280 1 1 (17920)
I1018 17:58:43.918661  4265 net.cpp:165] Memory required for data: 71529216
I1018 17:58:43.918663  4265 layer_factory.hpp:77] Creating layer conv8
I1018 17:58:43.918669  4265 net.cpp:100] Creating Layer conv8
I1018 17:58:43.918671  4265 net.cpp:434] conv8 <- elu4
I1018 17:58:43.918674  4265 net.cpp:408] conv8 -> conv8
I1018 17:58:43.919579  4265 net.cpp:150] Setting up conv8
I1018 17:58:43.919585  4265 net.cpp:157] Top shape: 64 280 1 1 (17920)
I1018 17:58:43.919589  4265 net.cpp:165] Memory required for data: 71600896
I1018 17:58:43.919595  4265 layer_factory.hpp:77] Creating layer pool5
I1018 17:58:43.919606  4265 net.cpp:100] Creating Layer pool5
I1018 17:58:43.919610  4265 net.cpp:434] pool5 <- conv8
I1018 17:58:43.919613  4265 net.cpp:408] pool5 -> pool5
I1018 17:58:43.919639  4265 net.cpp:150] Setting up pool5
I1018 17:58:43.919642  4265 net.cpp:157] Top shape: 64 280 1 1 (17920)
I1018 17:58:43.919644  4265 net.cpp:165] Memory required for data: 71672576
I1018 17:58:43.919646  4265 layer_factory.hpp:77] Creating layer drop5
I1018 17:58:43.919649  4265 net.cpp:100] Creating Layer drop5
I1018 17:58:43.919651  4265 net.cpp:434] drop5 <- pool5
I1018 17:58:43.919656  4265 net.cpp:408] drop5 -> drop5
I1018 17:58:43.919677  4265 net.cpp:150] Setting up drop5
I1018 17:58:43.919682  4265 net.cpp:157] Top shape: 64 280 1 1 (17920)
I1018 17:58:43.919685  4265 net.cpp:165] Memory required for data: 71744256
I1018 17:58:43.919687  4265 layer_factory.hpp:77] Creating layer elu5
I1018 17:58:43.919690  4265 net.cpp:100] Creating Layer elu5
I1018 17:58:43.919692  4265 net.cpp:434] elu5 <- drop5
I1018 17:58:43.919694  4265 net.cpp:408] elu5 -> elu5
I1018 17:58:43.919708  4265 net.cpp:150] Setting up elu5
I1018 17:58:43.919711  4265 net.cpp:157] Top shape: 64 280 1 1 (17920)
I1018 17:58:43.919713  4265 net.cpp:165] Memory required for data: 71815936
I1018 17:58:43.919714  4265 layer_factory.hpp:77] Creating layer conv10
I1018 17:58:43.919720  4265 net.cpp:100] Creating Layer conv10
I1018 17:58:43.919723  4265 net.cpp:434] conv10 <- elu5
I1018 17:58:43.919728  4265 net.cpp:408] conv10 -> conv10
I1018 17:58:43.920658  4265 net.cpp:150] Setting up conv10
I1018 17:58:43.920665  4265 net.cpp:157] Top shape: 64 300 1 1 (19200)
I1018 17:58:43.920668  4265 net.cpp:165] Memory required for data: 71892736
I1018 17:58:43.920675  4265 layer_factory.hpp:77] Creating layer pool6
I1018 17:58:43.920678  4265 net.cpp:100] Creating Layer pool6
I1018 17:58:43.920680  4265 net.cpp:434] pool6 <- conv10
I1018 17:58:43.920684  4265 net.cpp:408] pool6 -> pool6
I1018 17:58:43.920709  4265 net.cpp:150] Setting up pool6
I1018 17:58:43.920714  4265 net.cpp:157] Top shape: 64 300 1 1 (19200)
I1018 17:58:43.920716  4265 net.cpp:165] Memory required for data: 71969536
I1018 17:58:43.920717  4265 layer_factory.hpp:77] Creating layer drop6
I1018 17:58:43.920722  4265 net.cpp:100] Creating Layer drop6
I1018 17:58:43.920723  4265 net.cpp:434] drop6 <- pool6
I1018 17:58:43.920725  4265 net.cpp:408] drop6 -> drop6
I1018 17:58:43.920748  4265 net.cpp:150] Setting up drop6
I1018 17:58:43.920753  4265 net.cpp:157] Top shape: 64 300 1 1 (19200)
I1018 17:58:43.920753  4265 net.cpp:165] Memory required for data: 72046336
I1018 17:58:43.920755  4265 layer_factory.hpp:77] Creating layer elu6
I1018 17:58:43.920758  4265 net.cpp:100] Creating Layer elu6
I1018 17:58:43.920759  4265 net.cpp:434] elu6 <- drop6
I1018 17:58:43.920763  4265 net.cpp:408] elu6 -> elu6
I1018 17:58:43.920775  4265 net.cpp:150] Setting up elu6
I1018 17:58:43.920778  4265 net.cpp:157] Top shape: 64 300 1 1 (19200)
I1018 17:58:43.920779  4265 net.cpp:165] Memory required for data: 72123136
I1018 17:58:43.920781  4265 layer_factory.hpp:77] Creating layer conv11
I1018 17:58:43.920785  4265 net.cpp:100] Creating Layer conv11
I1018 17:58:43.920789  4265 net.cpp:434] conv11 <- elu6
I1018 17:58:43.920792  4265 net.cpp:408] conv11 -> conv11
I1018 17:58:43.921933  4265 net.cpp:150] Setting up conv11
I1018 17:58:43.921944  4265 net.cpp:157] Top shape: 64 100 1 1 (6400)
I1018 17:58:43.921947  4265 net.cpp:165] Memory required for data: 72148736
I1018 17:58:43.921955  4265 layer_factory.hpp:77] Creating layer pool7
I1018 17:58:43.921962  4265 net.cpp:100] Creating Layer pool7
I1018 17:58:43.921964  4265 net.cpp:434] pool7 <- conv11
I1018 17:58:43.921969  4265 net.cpp:408] pool7 -> pool7
I1018 17:58:43.921999  4265 net.cpp:150] Setting up pool7
I1018 17:58:43.922003  4265 net.cpp:157] Top shape: 64 100 1 1 (6400)
I1018 17:58:43.922005  4265 net.cpp:165] Memory required for data: 72174336
I1018 17:58:43.922008  4265 layer_factory.hpp:77] Creating layer drop7
I1018 17:58:43.922022  4265 net.cpp:100] Creating Layer drop7
I1018 17:58:43.922026  4265 net.cpp:434] drop7 <- pool7
I1018 17:58:43.922029  4265 net.cpp:408] drop7 -> drop7
I1018 17:58:43.922052  4265 net.cpp:150] Setting up drop7
I1018 17:58:43.922056  4265 net.cpp:157] Top shape: 64 100 1 1 (6400)
I1018 17:58:43.922058  4265 net.cpp:165] Memory required for data: 72199936
I1018 17:58:43.922060  4265 layer_factory.hpp:77] Creating layer elu7
I1018 17:58:43.922068  4265 net.cpp:100] Creating Layer elu7
I1018 17:58:43.922071  4265 net.cpp:434] elu7 <- drop7
I1018 17:58:43.922073  4265 net.cpp:408] elu7 -> elu7
I1018 17:58:43.922086  4265 net.cpp:150] Setting up elu7
I1018 17:58:43.922091  4265 net.cpp:157] Top shape: 64 100 1 1 (6400)
I1018 17:58:43.922092  4265 net.cpp:165] Memory required for data: 72225536
I1018 17:58:43.922094  4265 layer_factory.hpp:77] Creating layer pool
I1018 17:58:43.922097  4265 net.cpp:100] Creating Layer pool
I1018 17:58:43.922101  4265 net.cpp:434] pool <- elu7
I1018 17:58:43.922104  4265 net.cpp:408] pool -> pool
I1018 17:58:43.922230  4265 net.cpp:150] Setting up pool
I1018 17:58:43.922235  4265 net.cpp:157] Top shape: 64 100 1 1 (6400)
I1018 17:58:43.922238  4265 net.cpp:165] Memory required for data: 72251136
I1018 17:58:43.922240  4265 layer_factory.hpp:77] Creating layer flatten
I1018 17:58:43.922245  4265 net.cpp:100] Creating Layer flatten
I1018 17:58:43.922245  4265 net.cpp:434] flatten <- pool
I1018 17:58:43.922248  4265 net.cpp:408] flatten -> flatten
I1018 17:58:43.922264  4265 net.cpp:150] Setting up flatten
I1018 17:58:43.922267  4265 net.cpp:157] Top shape: 64 100 (6400)
I1018 17:58:43.922269  4265 net.cpp:165] Memory required for data: 72276736
I1018 17:58:43.922271  4265 layer_factory.hpp:77] Creating layer score
I1018 17:58:43.922276  4265 net.cpp:100] Creating Layer score
I1018 17:58:43.922279  4265 net.cpp:434] score <- flatten
I1018 17:58:43.922282  4265 net.cpp:408] score -> score
I1018 17:58:43.922382  4265 net.cpp:150] Setting up score
I1018 17:58:43.922386  4265 net.cpp:157] Top shape: 64 10 (640)
I1018 17:58:43.922387  4265 net.cpp:165] Memory required for data: 72279296
I1018 17:58:43.922392  4265 layer_factory.hpp:77] Creating layer score_score_0_split
I1018 17:58:43.922397  4265 net.cpp:100] Creating Layer score_score_0_split
I1018 17:58:43.922400  4265 net.cpp:434] score_score_0_split <- score
I1018 17:58:43.922402  4265 net.cpp:408] score_score_0_split -> score_score_0_split_0
I1018 17:58:43.922406  4265 net.cpp:408] score_score_0_split -> score_score_0_split_1
I1018 17:58:43.922430  4265 net.cpp:150] Setting up score_score_0_split
I1018 17:58:43.922433  4265 net.cpp:157] Top shape: 64 10 (640)
I1018 17:58:43.922435  4265 net.cpp:157] Top shape: 64 10 (640)
I1018 17:58:43.922437  4265 net.cpp:165] Memory required for data: 72284416
I1018 17:58:43.922440  4265 layer_factory.hpp:77] Creating layer accuracy
I1018 17:58:43.922442  4265 net.cpp:100] Creating Layer accuracy
I1018 17:58:43.922444  4265 net.cpp:434] accuracy <- score_score_0_split_0
I1018 17:58:43.922448  4265 net.cpp:434] accuracy <- label_data_1_split_0
I1018 17:58:43.922452  4265 net.cpp:408] accuracy -> accuracy
…
I1018 17:58:43.923133  4265 net.cpp:283] Network initialization done.
I1018 17:58:43.923323  4265 solver.cpp:181] Creating test net (#0) specified by test_net file: /home/adam/Honours/Honours-Project/mnist_pooling/max/elu/poolcnn_elu_test.prototxt
I1018 17:58:43.923439  4265 net.cpp:58] Initializing net from parameters: 
state {
  phase: TEST
}
layer {
  name: "data"
  type: "Data"
  top: "data"
  top: "label"
  transform_param {
    scale: 0.0039215689
  }
  data_param {
    source: "../../../../data/mnist/mnist_test_lmdb"
    batch_size: 100
    backend: LMDB
  }
}
layer {
  name: "conv1"
  type: "Convolution"
  bottom: "data"
  top: "conv1"
  convolution_param {
    num_output: 192
    kernel_size: 5
    weight_filler {
      type: "xavier"
    }
  }
}
layer {
  name: "pool1"
  type: "Pooling"
  bottom: "conv1"
  top: "pool1"
  pooling_param {
    pool: MAX
    kernel_size: 2
    stride: 2
  }
}
layer {
  name: "drop1"
  type: "Dropout"
  bottom: "pool1"
  top: "drop1"
  dropout_param {
    dropout_ratio: 0
  }
}
layer {
  name: "elu1"
  type: "ELU"
  bottom: "drop1"
  top: "elu1"
}
layer {
  name: "conv2"
  type: "Convolution"
  bottom: "elu1"
  top: "conv2"
  convolution_param {
    num_output: 192
    kernel_size: 1
    weight_filler {
      type: "xavier"
    }
  }
}
layer {
  name: "conv3"
  type: "Convolution"
  bottom: "conv2"
  top: "conv3"
  convolution_param {
    num_output: 240
    kernel_size: 3
    weight_filler {
      type: "xavier"
    }
  }
}
layer {
  name: "pool2"
  type: "Pooling"
  bottom: "conv3"
  top: "pool2"
  pooling_param {
    pool: MAX
    kernel_size: 2
    stride: 2
  }
}
layer {
  name: "drop2"
  type: "Dropout"
  bottom: "pool2"
  top: "drop2"
  dropout_param {
    dropout_ratio: 0.1
  }
}
layer {
  name: "elu2"
  type: "ELU"
  bottom: "drop2"
  top: "elu2"
}
layer {
  name: "conv4"
  type: "Convolution"
  bottom: "elu2"
  top: "conv4"
  convolution_param {
    num_output: 240
    kernel_size: 1
    weight_filler {
      type: "xavier"
    }
  }
}
layer {
  name: "conv5"
  type: "Convolution"
  bottom: "conv4"
  top: "conv5"
  convolution_param {
    num_output: 260
    kernel_size: 2
    weight_filler {
      type: "xavier"
    }
  }
}
layer {
  name: "pool3"
  type: "Pooling"
  bottom: "conv5"
  top: "pool3"
  pooling_param {
    pool: MAX
    kernel_size: 2
    stride: 2
  }
}
layer {
  name: "drop3"
  type: "Dropout"
  bottom: "pool3"
  top: "drop3"
  dropout_param {
    dropout_ratio: 0.2
  }
}
layer {
  name: "elu3"
  type: "ELU"
  bottom: "drop3"
  top: "elu3"
}
layer {
  name: "conv6"
  type: "Convolution"
  bottom: "elu3"
  top: "conv6"
  convolution_param {
    num_output: 260
    kernel_size: 1
    weight_filler {
      type: "xavier"
    }
  }
}
layer {
  name: "conv7"
  type: "Convolution"
  bottom: "conv6"
  top: "conv7"
  convolution_param {
    num_output: 280
    kernel_size: 2
    weight_filler {
      type: "xavier"
    }
  }
}
layer {
  name: "pool4"
  type: "Pooling"
  bottom: "conv7"
  top: "pool4"
  pooling_param {
    pool: MAX
    kernel_size: 2
    stride: 2
  }
}
layer {
  name: "drop4"
  type: "Dropout"
  bottom: "pool4"
  top: "drop4"
  dropout_param {
    dropout_ratio: 0.3
  }
}
layer {
  name: "elu4"
  type: "ELU"
  bottom: "drop4"
  top: "elu4"
}
layer {
  name: "conv8"
  type: "Convolution"
  bottom: "elu4"
  top: "conv8"
  convolution_param {
    num_output: 280
    kernel_size: 1
    weight_filler {
      type: "xavier"
    }
  }
}
layer {
  name: "pool5"
  type: "Pooling"
  bottom: "conv8"
  top: "pool5"
  pooling_param {
    pool: MAX
    kernel_size: 2
    stride: 2
  }
}
layer {
  name: "drop5"
  type: "Dropout"
  bottom: "pool5"
  top: "drop5"
  dropout_param {
    dropout_ratio: 0.4
  }
}
layer {
  name: "elu5"
  type: "ELU"
  bottom: "drop5"
  top: "elu5"
}
layer {
  name: "conv10"
  type: "Convolution"
  bottom: "elu5"
  top: "conv10"
  convolution_param {
    num_output: 300
    kernel_size: 1
    weight_filler {
      type: "xavier"
    }
  }
}
layer {
  name: "pool6"
  type: "Pooling"
  bottom: "conv10"
  top: "pool6"
  pooling_param {
    pool: MAX
    kernel_size: 2
    stride: 2
  }
}
layer {
  name: "drop6"
  type: "Dropout"
  bottom: "pool6"
  top: "drop6"
  dropout_param {
    dropout_ratio: 0.5
  }
}
layer {
  name: "elu6"
  type: "ELU"
  bottom: "drop6"
  top: "elu6"
}
layer {
  name: "conv11"
  type: "Convolution"
  bottom: "elu6"
  top: "conv11"
  convolution_param {
    num_output: 100
    kernel_size: 1
    weight_filler {
      type: "xavier"
    }
  }
}
layer {
  name: "pool7"
  type: "Pooling"
  bottom: "conv11"
  top: "pool7"
  pooling_param {
    pool: MAX
    kernel_size: 2
    stride: 2
  }
}
layer {
  name: "drop7"
  type: "Dropout"
  bottom: "pool7"
  top: "drop7"
  dropout_param {
    dropout_ratio: 0
  }
}
layer {
  name: "elu7"
  type: "ELU"
  bottom: "drop7"
  top: "elu7"
}
layer {
  name: "pool"
  type: "Pooling"
  bottom: "elu7"
  top: "pool"
  pooling_param {
    pool: AVE
    global_pooling: true
  }
}
layer {
  name: "flatten"
  type: "Flatten"
  bottom: "pool"
  top: "flatten"
}
layer {
  name: "score"
  type: "InnerProduct"
  bottom: "flatten"
  top: "score"
  inner_product_param {
    num_output: 10
    weight_filler {
      type: "gaussian"
    }
  }
}
layer {
  name: "accuracy"
  type: "Accuracy"
  bottom: "score"
  bottom: "label"
  top: "accuracy"
}
layer {
  name: "loss"
  type: "SoftmaxWithLoss"
  bottom: "score"
  bottom: "label"
  top: "loss"
}
I1018 17:58:43.923548  4265 layer_factory.hpp:77] Creating layer data
I1018 17:58:43.923723  4265 net.cpp:100] Creating Layer data
I1018 17:58:43.923738  4265 net.cpp:408] data -> data
I1018 17:58:43.923745  4265 net.cpp:408] data -> label
I1018 17:58:43.924317  4273 db_lmdb.cpp:35] Opened lmdb ../../../../data/mnist/mnist_test_lmdb
I1018 17:58:43.924392  4265 data_layer.cpp:41] output data size: 100,1,28,28
I1018 17:58:43.925045  4265 net.cpp:150] Setting up data
I1018 17:58:43.925052  4265 net.cpp:157] Top shape: 100 1 28 28 (78400)
I1018 17:58:43.925057  4265 net.cpp:157] Top shape: 100 (100)
I1018 17:58:43.925060  4265 net.cpp:165] Memory required for data: 314000
I1018 17:58:43.925062  4265 layer_factory.hpp:77] Creating layer label_data_1_split
I1018 17:58:43.925070  4265 net.cpp:100] Creating Layer label_data_1_split
I1018 17:58:43.925072  4265 net.cpp:434] label_data_1_split <- label
I1018 17:58:43.925076  4265 net.cpp:408] label_data_1_split -> label_data_1_split_0
I1018 17:58:43.925082  4265 net.cpp:408] label_data_1_split -> label_data_1_split_1
I1018 17:58:43.925124  4265 net.cpp:150] Setting up label_data_1_split
I1018 17:58:43.925128  4265 net.cpp:157] Top shape: 100 (100)
I1018 17:58:43.925130  4265 net.cpp:157] Top shape: 100 (100)
I1018 17:58:43.925132  4265 net.cpp:165] Memory required for data: 314800
I1018 17:58:43.925134  4265 layer_factory.hpp:77] Creating layer conv1
I1018 17:58:43.925142  4265 net.cpp:100] Creating Layer conv1
I1018 17:58:43.925143  4265 net.cpp:434] conv1 <- data
I1018 17:58:43.925148  4265 net.cpp:408] conv1 -> conv1
I1018 17:58:43.925950  4265 net.cpp:150] Setting up conv1
I1018 17:58:43.925958  4265 net.cpp:157] Top shape: 100 192 24 24 (11059200)
I1018 17:58:43.925961  4265 net.cpp:165] Memory required for data: 44551600
I1018 17:58:43.925973  4265 layer_factory.hpp:77] Creating layer pool1
I1018 17:58:43.925986  4265 net.cpp:100] Creating Layer pool1
I1018 17:58:43.925990  4265 net.cpp:434] pool1 <- conv1
I1018 17:58:43.925997  4265 net.cpp:408] pool1 -> pool1
I1018 17:58:43.926030  4265 net.cpp:150] Setting up pool1
I1018 17:58:43.926036  4265 net.cpp:157] Top shape: 100 192 12 12 (2764800)
I1018 17:58:43.926039  4265 net.cpp:165] Memory required for data: 55610800
I1018 17:58:43.926041  4265 layer_factory.hpp:77] Creating layer drop1
I1018 17:58:43.926050  4265 net.cpp:100] Creating Layer drop1
I1018 17:58:43.926055  4265 net.cpp:434] drop1 <- pool1
I1018 17:58:43.926061  4265 net.cpp:408] drop1 -> drop1
I1018 17:58:43.926091  4265 net.cpp:150] Setting up drop1
I1018 17:58:43.926097  4265 net.cpp:157] Top shape: 100 192 12 12 (2764800)
I1018 17:58:43.926100  4265 net.cpp:165] Memory required for data: 66670000
I1018 17:58:43.926103  4265 layer_factory.hpp:77] Creating layer elu1
I1018 17:58:43.926110  4265 net.cpp:100] Creating Layer elu1
I1018 17:58:43.926116  4265 net.cpp:434] elu1 <- drop1
I1018 17:58:43.926122  4265 net.cpp:408] elu1 -> elu1
I1018 17:58:43.926143  4265 net.cpp:150] Setting up elu1
I1018 17:58:43.926147  4265 net.cpp:157] Top shape: 100 192 12 12 (2764800)
I1018 17:58:43.926151  4265 net.cpp:165] Memory required for data: 77729200
I1018 17:58:43.926156  4265 layer_factory.hpp:77] Creating layer conv2
I1018 17:58:43.926164  4265 net.cpp:100] Creating Layer conv2
I1018 17:58:43.926168  4265 net.cpp:434] conv2 <- elu1
I1018 17:58:43.926174  4265 net.cpp:408] conv2 -> conv2
I1018 17:58:43.927013  4265 net.cpp:150] Setting up conv2
I1018 17:58:43.927021  4265 net.cpp:157] Top shape: 100 192 12 12 (2764800)
I1018 17:58:43.927026  4265 net.cpp:165] Memory required for data: 88788400
I1018 17:58:43.927033  4265 layer_factory.hpp:77] Creating layer conv3
I1018 17:58:43.927043  4265 net.cpp:100] Creating Layer conv3
I1018 17:58:43.927058  4265 net.cpp:434] conv3 <- conv2
I1018 17:58:43.927067  4265 net.cpp:408] conv3 -> conv3
I1018 17:58:43.929507  4265 net.cpp:150] Setting up conv3
I1018 17:58:43.929518  4265 net.cpp:157] Top shape: 100 240 10 10 (2400000)
I1018 17:58:43.929520  4265 net.cpp:165] Memory required for data: 98388400
I1018 17:58:43.929527  4265 layer_factory.hpp:77] Creating layer pool2
I1018 17:58:43.929538  4265 net.cpp:100] Creating Layer pool2
I1018 17:58:43.929541  4265 net.cpp:434] pool2 <- conv3
I1018 17:58:43.929548  4265 net.cpp:408] pool2 -> pool2
I1018 17:58:43.929581  4265 net.cpp:150] Setting up pool2
I1018 17:58:43.929586  4265 net.cpp:157] Top shape: 100 240 5 5 (600000)
I1018 17:58:43.929589  4265 net.cpp:165] Memory required for data: 100788400
I1018 17:58:43.929591  4265 layer_factory.hpp:77] Creating layer drop2
I1018 17:58:43.929596  4265 net.cpp:100] Creating Layer drop2
I1018 17:58:43.929601  4265 net.cpp:434] drop2 <- pool2
I1018 17:58:43.929605  4265 net.cpp:408] drop2 -> drop2
I1018 17:58:43.929635  4265 net.cpp:150] Setting up drop2
I1018 17:58:43.929638  4265 net.cpp:157] Top shape: 100 240 5 5 (600000)
I1018 17:58:43.929642  4265 net.cpp:165] Memory required for data: 103188400
I1018 17:58:43.929646  4265 layer_factory.hpp:77] Creating layer elu2
I1018 17:58:43.929649  4265 net.cpp:100] Creating Layer elu2
I1018 17:58:43.929652  4265 net.cpp:434] elu2 <- drop2
I1018 17:58:43.929659  4265 net.cpp:408] elu2 -> elu2
I1018 17:58:43.929678  4265 net.cpp:150] Setting up elu2
I1018 17:58:43.929683  4265 net.cpp:157] Top shape: 100 240 5 5 (600000)
I1018 17:58:43.929687  4265 net.cpp:165] Memory required for data: 105588400
I1018 17:58:43.929690  4265 layer_factory.hpp:77] Creating layer conv4
I1018 17:58:43.929697  4265 net.cpp:100] Creating Layer conv4
I1018 17:58:43.929702  4265 net.cpp:434] conv4 <- elu2
I1018 17:58:43.929708  4265 net.cpp:408] conv4 -> conv4
I1018 17:58:43.930559  4265 net.cpp:150] Setting up conv4
I1018 17:58:43.930567  4265 net.cpp:157] Top shape: 100 240 5 5 (600000)
I1018 17:58:43.930570  4265 net.cpp:165] Memory required for data: 107988400
I1018 17:58:43.930577  4265 layer_factory.hpp:77] Creating layer conv5
I1018 17:58:43.930585  4265 net.cpp:100] Creating Layer conv5
I1018 17:58:43.930590  4265 net.cpp:434] conv5 <- conv4
I1018 17:58:43.930598  4265 net.cpp:408] conv5 -> conv5
I1018 17:58:43.932404  4265 net.cpp:150] Setting up conv5
I1018 17:58:43.932411  4265 net.cpp:157] Top shape: 100 260 4 4 (416000)
I1018 17:58:43.932413  4265 net.cpp:165] Memory required for data: 109652400
I1018 17:58:43.932421  4265 layer_factory.hpp:77] Creating layer pool3
I1018 17:58:43.932430  4265 net.cpp:100] Creating Layer pool3
I1018 17:58:43.932435  4265 net.cpp:434] pool3 <- conv5
I1018 17:58:43.932440  4265 net.cpp:408] pool3 -> pool3
I1018 17:58:43.932474  4265 net.cpp:150] Setting up pool3
I1018 17:58:43.932478  4265 net.cpp:157] Top shape: 100 260 2 2 (104000)
I1018 17:58:43.932482  4265 net.cpp:165] Memory required for data: 110068400
I1018 17:58:43.932485  4265 layer_factory.hpp:77] Creating layer drop3
I1018 17:58:43.932492  4265 net.cpp:100] Creating Layer drop3
I1018 17:58:43.932495  4265 net.cpp:434] drop3 <- pool3
I1018 17:58:43.932502  4265 net.cpp:408] drop3 -> drop3
I1018 17:58:43.932533  4265 net.cpp:150] Setting up drop3
I1018 17:58:43.932538  4265 net.cpp:157] Top shape: 100 260 2 2 (104000)
I1018 17:58:43.932540  4265 net.cpp:165] Memory required for data: 110484400
I1018 17:58:43.932545  4265 layer_factory.hpp:77] Creating layer elu3
I1018 17:58:43.932549  4265 net.cpp:100] Creating Layer elu3
I1018 17:58:43.932554  4265 net.cpp:434] elu3 <- drop3
I1018 17:58:43.932559  4265 net.cpp:408] elu3 -> elu3
I1018 17:58:43.932581  4265 net.cpp:150] Setting up elu3
I1018 17:58:43.932585  4265 net.cpp:157] Top shape: 100 260 2 2 (104000)
I1018 17:58:43.932587  4265 net.cpp:165] Memory required for data: 110900400
I1018 17:58:43.932590  4265 layer_factory.hpp:77] Creating layer conv6
I1018 17:58:43.932601  4265 net.cpp:100] Creating Layer conv6
I1018 17:58:43.932605  4265 net.cpp:434] conv6 <- elu3
I1018 17:58:43.932621  4265 net.cpp:408] conv6 -> conv6
I1018 17:58:43.933800  4265 net.cpp:150] Setting up conv6
I1018 17:58:43.933809  4265 net.cpp:157] Top shape: 100 260 2 2 (104000)
I1018 17:58:43.933812  4265 net.cpp:165] Memory required for data: 111316400
I1018 17:58:43.933817  4265 layer_factory.hpp:77] Creating layer conv7
I1018 17:58:43.933826  4265 net.cpp:100] Creating Layer conv7
I1018 17:58:43.933831  4265 net.cpp:434] conv7 <- conv6
I1018 17:58:43.933840  4265 net.cpp:408] conv7 -> conv7
I1018 17:58:43.936280  4265 net.cpp:150] Setting up conv7
I1018 17:58:43.936290  4265 net.cpp:157] Top shape: 100 280 1 1 (28000)
I1018 17:58:43.936293  4265 net.cpp:165] Memory required for data: 111428400
I1018 17:58:43.936300  4265 layer_factory.hpp:77] Creating layer pool4
I1018 17:58:43.936306  4265 net.cpp:100] Creating Layer pool4
I1018 17:58:43.936309  4265 net.cpp:434] pool4 <- conv7
I1018 17:58:43.936316  4265 net.cpp:408] pool4 -> pool4
I1018 17:58:43.936352  4265 net.cpp:150] Setting up pool4
I1018 17:58:43.936358  4265 net.cpp:157] Top shape: 100 280 1 1 (28000)
I1018 17:58:43.936362  4265 net.cpp:165] Memory required for data: 111540400
I1018 17:58:43.936365  4265 layer_factory.hpp:77] Creating layer drop4
I1018 17:58:43.936372  4265 net.cpp:100] Creating Layer drop4
I1018 17:58:43.936377  4265 net.cpp:434] drop4 <- pool4
I1018 17:58:43.936380  4265 net.cpp:408] drop4 -> drop4
I1018 17:58:43.936413  4265 net.cpp:150] Setting up drop4
I1018 17:58:43.936419  4265 net.cpp:157] Top shape: 100 280 1 1 (28000)
I1018 17:58:43.936421  4265 net.cpp:165] Memory required for data: 111652400
I1018 17:58:43.936424  4265 layer_factory.hpp:77] Creating layer elu4
I1018 17:58:43.936429  4265 net.cpp:100] Creating Layer elu4
I1018 17:58:43.936434  4265 net.cpp:434] elu4 <- drop4
I1018 17:58:43.936439  4265 net.cpp:408] elu4 -> elu4
I1018 17:58:43.936457  4265 net.cpp:150] Setting up elu4
I1018 17:58:43.936463  4265 net.cpp:157] Top shape: 100 280 1 1 (28000)
I1018 17:58:43.936467  4265 net.cpp:165] Memory required for data: 111764400
I1018 17:58:43.936470  4265 layer_factory.hpp:77] Creating layer conv8
I1018 17:58:43.936478  4265 net.cpp:100] Creating Layer conv8
I1018 17:58:43.936482  4265 net.cpp:434] conv8 <- elu4
I1018 17:58:43.936487  4265 net.cpp:408] conv8 -> conv8
I1018 17:58:43.937841  4265 net.cpp:150] Setting up conv8
I1018 17:58:43.937852  4265 net.cpp:157] Top shape: 100 280 1 1 (28000)
I1018 17:58:43.937856  4265 net.cpp:165] Memory required for data: 111876400
I1018 17:58:43.937862  4265 layer_factory.hpp:77] Creating layer pool5
I1018 17:58:43.937870  4265 net.cpp:100] Creating Layer pool5
I1018 17:58:43.937872  4265 net.cpp:434] pool5 <- conv8
I1018 17:58:43.937878  4265 net.cpp:408] pool5 -> pool5
I1018 17:58:43.937916  4265 net.cpp:150] Setting up pool5
I1018 17:58:43.937921  4265 net.cpp:157] Top shape: 100 280 1 1 (28000)
I1018 17:58:43.937923  4265 net.cpp:165] Memory required for data: 111988400
I1018 17:58:43.937927  4265 layer_factory.hpp:77] Creating layer drop5
I1018 17:58:43.937933  4265 net.cpp:100] Creating Layer drop5
I1018 17:58:43.937937  4265 net.cpp:434] drop5 <- pool5
I1018 17:58:43.937940  4265 net.cpp:408] drop5 -> drop5
I1018 17:58:43.937974  4265 net.cpp:150] Setting up drop5
I1018 17:58:43.937980  4265 net.cpp:157] Top shape: 100 280 1 1 (28000)
I1018 17:58:43.937984  4265 net.cpp:165] Memory required for data: 112100400
I1018 17:58:43.937986  4265 layer_factory.hpp:77] Creating layer elu5
I1018 17:58:43.937993  4265 net.cpp:100] Creating Layer elu5
I1018 17:58:43.937995  4265 net.cpp:434] elu5 <- drop5
I1018 17:58:43.937999  4265 net.cpp:408] elu5 -> elu5
I1018 17:58:43.938019  4265 net.cpp:150] Setting up elu5
I1018 17:58:43.938025  4265 net.cpp:157] Top shape: 100 280 1 1 (28000)
I1018 17:58:43.938030  4265 net.cpp:165] Memory required for data: 112212400
I1018 17:58:43.938032  4265 layer_factory.hpp:77] Creating layer conv10
I1018 17:58:43.938040  4265 net.cpp:100] Creating Layer conv10
I1018 17:58:43.938045  4265 net.cpp:434] conv10 <- elu5
I1018 17:58:43.938051  4265 net.cpp:408] conv10 -> conv10
I1018 17:58:43.940301  4265 net.cpp:150] Setting up conv10
I1018 17:58:43.940310  4265 net.cpp:157] Top shape: 100 300 1 1 (30000)
I1018 17:58:43.940312  4265 net.cpp:165] Memory required for data: 112332400
I1018 17:58:43.940321  4265 layer_factory.hpp:77] Creating layer pool6
I1018 17:58:43.940326  4265 net.cpp:100] Creating Layer pool6
I1018 17:58:43.940331  4265 net.cpp:434] pool6 <- conv10
I1018 17:58:43.940338  4265 net.cpp:408] pool6 -> pool6
I1018 17:58:43.940372  4265 net.cpp:150] Setting up pool6
I1018 17:58:43.940378  4265 net.cpp:157] Top shape: 100 300 1 1 (30000)
I1018 17:58:43.940381  4265 net.cpp:165] Memory required for data: 112452400
I1018 17:58:43.940382  4265 layer_factory.hpp:77] Creating layer drop6
I1018 17:58:43.940387  4265 net.cpp:100] Creating Layer drop6
I1018 17:58:43.940390  4265 net.cpp:434] drop6 <- pool6
I1018 17:58:43.940395  4265 net.cpp:408] drop6 -> drop6
I1018 17:58:43.940428  4265 net.cpp:150] Setting up drop6
I1018 17:58:43.940433  4265 net.cpp:157] Top shape: 100 300 1 1 (30000)
I1018 17:58:43.940433  4265 net.cpp:165] Memory required for data: 112572400
I1018 17:58:43.940435  4265 layer_factory.hpp:77] Creating layer elu6
I1018 17:58:43.940441  4265 net.cpp:100] Creating Layer elu6
I1018 17:58:43.940445  4265 net.cpp:434] elu6 <- drop6
I1018 17:58:43.940451  4265 net.cpp:408] elu6 -> elu6
I1018 17:58:43.940471  4265 net.cpp:150] Setting up elu6
I1018 17:58:43.940476  4265 net.cpp:157] Top shape: 100 300 1 1 (30000)
I1018 17:58:43.940479  4265 net.cpp:165] Memory required for data: 112692400
I1018 17:58:43.940481  4265 layer_factory.hpp:77] Creating layer conv11
I1018 17:58:43.940490  4265 net.cpp:100] Creating Layer conv11
I1018 17:58:43.940495  4265 net.cpp:434] conv11 <- elu6
I1018 17:58:43.940498  4265 net.cpp:408] conv11 -> conv11
I1018 17:58:43.941978  4265 net.cpp:150] Setting up conv11
I1018 17:58:43.941987  4265 net.cpp:157] Top shape: 100 100 1 1 (10000)
I1018 17:58:43.941989  4265 net.cpp:165] Memory required for data: 112732400
I1018 17:58:43.941993  4265 layer_factory.hpp:77] Creating layer pool7
I1018 17:58:43.941999  4265 net.cpp:100] Creating Layer pool7
I1018 17:58:43.942003  4265 net.cpp:434] pool7 <- conv11
I1018 17:58:43.942010  4265 net.cpp:408] pool7 -> pool7
I1018 17:58:43.942045  4265 net.cpp:150] Setting up pool7
I1018 17:58:43.942051  4265 net.cpp:157] Top shape: 100 100 1 1 (10000)
I1018 17:58:43.942055  4265 net.cpp:165] Memory required for data: 112772400
I1018 17:58:43.942059  4265 layer_factory.hpp:77] Creating layer drop7
I1018 17:58:43.942065  4265 net.cpp:100] Creating Layer drop7
I1018 17:58:43.942068  4265 net.cpp:434] drop7 <- pool7
I1018 17:58:43.942075  4265 net.cpp:408] drop7 -> drop7
I1018 17:58:43.942106  4265 net.cpp:150] Setting up drop7
I1018 17:58:43.942111  4265 net.cpp:157] Top shape: 100 100 1 1 (10000)
I1018 17:58:43.942112  4265 net.cpp:165] Memory required for data: 112812400
I1018 17:58:43.942116  4265 layer_factory.hpp:77] Creating layer elu7
I1018 17:58:43.942126  4265 net.cpp:100] Creating Layer elu7
I1018 17:58:43.942131  4265 net.cpp:434] elu7 <- drop7
I1018 17:58:43.942134  4265 net.cpp:408] elu7 -> elu7
I1018 17:58:43.942153  4265 net.cpp:150] Setting up elu7
I1018 17:58:43.942157  4265 net.cpp:157] Top shape: 100 100 1 1 (10000)
I1018 17:58:43.942159  4265 net.cpp:165] Memory required for data: 112852400
I1018 17:58:43.942162  4265 layer_factory.hpp:77] Creating layer pool
I1018 17:58:43.942168  4265 net.cpp:100] Creating Layer pool
I1018 17:58:43.942173  4265 net.cpp:434] pool <- elu7
I1018 17:58:43.942178  4265 net.cpp:408] pool -> pool
I1018 17:58:43.942306  4265 net.cpp:150] Setting up pool
I1018 17:58:43.942312  4265 net.cpp:157] Top shape: 100 100 1 1 (10000)
I1018 17:58:43.942314  4265 net.cpp:165] Memory required for data: 112892400
I1018 17:58:43.942317  4265 layer_factory.hpp:77] Creating layer flatten
I1018 17:58:43.942323  4265 net.cpp:100] Creating Layer flatten
I1018 17:58:43.942327  4265 net.cpp:434] flatten <- pool
I1018 17:58:43.942333  4265 net.cpp:408] flatten -> flatten
I1018 17:58:43.942364  4265 net.cpp:150] Setting up flatten
I1018 17:58:43.942369  4265 net.cpp:157] Top shape: 100 100 (10000)
I1018 17:58:43.942370  4265 net.cpp:165] Memory required for data: 112932400
I1018 17:58:43.942374  4265 layer_factory.hpp:77] Creating layer score
I1018 17:58:43.942383  4265 net.cpp:100] Creating Layer score
I1018 17:58:43.942386  4265 net.cpp:434] score <- flatten
I1018 17:58:43.942392  4265 net.cpp:408] score -> score
I1018 17:58:43.942486  4265 net.cpp:150] Setting up score
I1018 17:58:43.942490  4265 net.cpp:157] Top shape: 100 10 (1000)
I1018 17:58:43.942493  4265 net.cpp:165] Memory required for data: 112936400
I1018 17:58:43.942499  4265 layer_factory.hpp:77] Creating layer score_score_0_split
I1018 17:58:43.942507  4265 net.cpp:100] Creating Layer score_score_0_split
I1018 17:58:43.942510  4265 net.cpp:434] score_score_0_split <- score
I1018 17:58:43.942515  4265 net.cpp:408] score_score_0_split -> score_score_0_split_0
I1018 17:58:43.942523  4265 net.cpp:408] score_score_0_split -> score_score_0_split_1
I1018 17:58:43.942555  4265 net.cpp:150] Setting up score_score_0_split
I1018 17:58:43.942559  4265 net.cpp:157] Top shape: 100 10 (1000)
I1018 17:58:43.942561  4265 net.cpp:157] Top shape: 100 10 (1000)
I1018 17:58:43.942564  4265 net.cpp:165] Memory required for data: 112944400
I1018 17:58:43.942567  4265 layer_factory.hpp:77] Creating layer accuracy
I1018 17:58:43.942575  4265 net.cpp:100] Creating Layer accuracy
I1018 17:58:43.942579  4265 net.cpp:434] accuracy <- score_score_0_split_0
I1018 17:58:43.942584  4265 net.cpp:434] accuracy <- label_data_1_split_0
I1018 17:58:43.942589  4265 net.cpp:408] accuracy -> accuracy
…
