…
  level: 0
  stage: ""
}
type: "SGD"
I1020 05:09:01.421700 10880 solver.cpp:81] Creating training net from train_net file: /home/adam/Honours/Honours-Project/mnist_pooling/max/elu/poolcnn_elu_train.prototxt
I1020 05:09:01.422021 10880 net.cpp:58] Initializing net from parameters: 
state {
  phase: TRAIN
  level: 0
  stage: ""
}
layer {
  name: "data"
  type: "Data"
  top: "data"
  top: "label"
  transform_param {
    scale: 0.0039215689
  }
  data_param {
    source: "../../../../data/mnist/mnist_train_lmdb"
    batch_size: 64
    backend: LMDB
  }
}
layer {
  name: "conv1"
  type: "Convolution"
  bottom: "data"
  top: "conv1"
  convolution_param {
    num_output: 192
    kernel_size: 5
    weight_filler {
      type: "xavier"
    }
  }
}
layer {
  name: "elu1"
  type: "ELU"
  bottom: "conv1"
  top: "elu1"
}
layer {
  name: "drop1"
  type: "Dropout"
  bottom: "elu1"
  top: "drop1"
  dropout_param {
    dropout_ratio: 0
  }
}
layer {
  name: "pool1"
  type: "Pooling"
  bottom: "drop1"
  top: "pool1"
  pooling_param {
    pool: MAX
    kernel_size: 2
    stride: 2
  }
}
layer {
  name: "conv2"
  type: "Convolution"
  bottom: "pool1"
  top: "conv2"
  convolution_param {
    num_output: 192
    kernel_size: 1
    weight_filler {
      type: "xavier"
    }
  }
}
layer {
  name: "elu2"
  type: "ELU"
  bottom: "conv2"
  top: "elu2"
}
layer {
  name: "conv3"
  type: "Convolution"
  bottom: "elu2"
  top: "conv3"
  convolution_param {
    num_output: 240
    kernel_size: 3
    weight_filler {
      type: "xavier"
    }
  }
}
layer {
  name: "elu3"
  type: "ELU"
  bottom: "conv3"
  top: "elu3"
}
layer {
  name: "drop2"
  type: "Dropout"
  bottom: "elu3"
  top: "drop2"
  dropout_param {
    dropout_ratio: 0.1
  }
}
layer {
  name: "pool2"
  type: "Pooling"
  bottom: "drop2"
  top: "pool2"
  pooling_param {
    pool: MAX
    kernel_size: 2
    stride: 2
  }
}
layer {
  name: "conv4"
  type: "Convolution"
  bottom: "pool2"
  top: "conv4"
  convolution_param {
    num_output: 240
    kernel_size: 1
    weight_filler {
      type: "xavier"
    }
  }
}
layer {
  name: "elu4"
  type: "ELU"
  bottom: "conv4"
  top: "elu4"
}
layer {
  name: "conv5"
  type: "Convolution"
  bottom: "elu4"
  top: "conv5"
  convolution_param {
    num_output: 260
    kernel_size: 2
    weight_filler {
      type: "xavier"
    }
  }
}
layer {
  name: "elu5"
  type: "ELU"
  bottom: "conv5"
  top: "elu5"
}
layer {
  name: "drop3"
  type: "Dropout"
  bottom: "elu5"
  top: "drop3"
  dropout_param {
    dropout_ratio: 0.2
  }
}
layer {
  name: "pool3"
  type: "Pooling"
  bottom: "drop3"
  top: "pool3"
  pooling_param {
    pool: MAX
    kernel_size: 2
    stride: 2
  }
}
layer {
  name: "conv6"
  type: "Convolution"
  bottom: "pool3"
  top: "conv6"
  convolution_param {
    num_output: 260
    kernel_size: 1
    weight_filler {
      type: "xavier"
    }
  }
}
layer {
  name: "elu6"
  type: "ELU"
  bottom: "conv6"
  top: "elu6"
}
layer {
  name: "conv7"
  type: "Convolution"
  bottom: "elu6"
  top: "conv7"
  convolution_param {
    num_output: 280
    kernel_size: 2
    weight_filler {
      type: "xavier"
    }
  }
}
layer {
  name: "elu7"
  type: "ELU"
  bottom: "conv7"
  top: "elu7"
}
layer {
  name: "drop4"
  type: "Dropout"
  bottom: "elu7"
  top: "drop4"
  dropout_param {
    dropout_ratio: 0.3
  }
}
layer {
  name: "pool4"
  type: "Pooling"
  bottom: "drop4"
  top: "pool4"
  pooling_param {
    pool: MAX
    kernel_size: 2
    stride: 2
  }
}
layer {
  name: "conv8"
  type: "Convolution"
  bottom: "pool4"
  top: "conv8"
  convolution_param {
    num_output: 280
    kernel_size: 1
    weight_filler {
      type: "xavier"
    }
  }
}
layer {
  name: "elu8"
  type: "ELU"
  bottom: "conv8"
  top: "elu8"
}
layer {
  name: "drop5"
  type: "Dropout"
  bottom: "elu8"
  top: "drop5"
  dropout_param {
    dropout_ratio: 0.4
  }
}
layer {
  name: "pool5"
  type: "Pooling"
  bottom: "drop5"
  top: "pool5"
  pooling_param {
    pool: MAX
    kernel_size: 2
    stride: 2
  }
}
layer {
  name: "conv10"
  type: "Convolution"
  bottom: "pool5"
  top: "conv10"
  convolution_param {
    num_output: 300
    kernel_size: 1
    weight_filler {
      type: "xavier"
    }
  }
}
layer {
  name: "elu10"
  type: "ELU"
  bottom: "conv10"
  top: "elu10"
}
layer {
  name: "drop6"
  type: "Dropout"
  bottom: "elu10"
  top: "drop6"
  dropout_param {
    dropout_ratio: 0.5
  }
}
layer {
  name: "pool6"
  type: "Pooling"
  bottom: "drop6"
  top: "pool6"
  pooling_param {
    pool: MAX
    kernel_size: 2
    stride: 2
  }
}
layer {
  name: "conv11"
  type: "Convolution"
  bottom: "pool6"
  top: "conv11"
  convolution_param {
    num_output: 100
    kernel_size: 1
    weight_filler {
      type: "xavier"
    }
  }
}
layer {
  name: "elu11"
  type: "ELU"
  bottom: "conv11"
  top: "elu11"
}
layer {
  name: "drop7"
  type: "Dropout"
  bottom: "elu11"
  top: "drop7"
  dropout_param {
    dropout_ratio: 0
  }
}
layer {
  name: "pool7"
  type: "Pooling"
  bottom: "drop7"
  top: "pool7"
  pooling_param {
    pool: MAX
    kernel_size: 2
    stride: 2
  }
}
layer {
  name: "score"
  type: "InnerProduct"
  bottom: "pool7"
  top: "score"
  inner_product_param {
    num_output: 10
    weight_filler {
      type: "gaussian"
    }
  }
}
layer {
  name: "accuracy"
  type: "Accuracy"
  bottom: "score"
  bottom: "label"
  top: "accuracy"
}
layer {
  name: "loss"
  type: "SoftmaxWithLoss"
  bottom: "score"
  bottom: "label"
  top: "loss"
}
I1020 05:09:01.422138 10880 layer_factory.hpp:77] Creating layer data
I1020 05:09:01.422544 10880 net.cpp:100] Creating Layer data
I1020 05:09:01.422550 10880 net.cpp:408] data -> data
I1020 05:09:01.422564 10880 net.cpp:408] data -> label
I1020 05:09:01.423198 10885 db_lmdb.cpp:35] Opened lmdb ../../../../data/mnist/mnist_train_lmdb
I1020 05:09:01.429258 10880 data_layer.cpp:41] output data size: 64,1,28,28
I1020 05:09:01.429932 10880 net.cpp:150] Setting up data
I1020 05:09:01.429950 10880 net.cpp:157] Top shape: 64 1 28 28 (50176)
I1020 05:09:01.429954 10880 net.cpp:157] Top shape: 64 (64)
I1020 05:09:01.429955 10880 net.cpp:165] Memory required for data: 200960
I1020 05:09:01.429970 10880 layer_factory.hpp:77] Creating layer label_data_1_split
I1020 05:09:01.429985 10880 net.cpp:100] Creating Layer label_data_1_split
I1020 05:09:01.429993 10880 net.cpp:434] label_data_1_split <- label
I1020 05:09:01.430011 10880 net.cpp:408] label_data_1_split -> label_data_1_split_0
I1020 05:09:01.430022 10880 net.cpp:408] label_data_1_split -> label_data_1_split_1
I1020 05:09:01.430111 10880 net.cpp:150] Setting up label_data_1_split
I1020 05:09:01.430122 10880 net.cpp:157] Top shape: 64 (64)
I1020 05:09:01.430125 10880 net.cpp:157] Top shape: 64 (64)
I1020 05:09:01.430127 10880 net.cpp:165] Memory required for data: 201472
I1020 05:09:01.430130 10880 layer_factory.hpp:77] Creating layer conv1
I1020 05:09:01.430148 10880 net.cpp:100] Creating Layer conv1
I1020 05:09:01.430152 10880 net.cpp:434] conv1 <- data
I1020 05:09:01.430156 10880 net.cpp:408] conv1 -> conv1
I1020 05:09:01.560986 10880 net.cpp:150] Setting up conv1
I1020 05:09:01.561012 10880 net.cpp:157] Top shape: 64 192 24 24 (7077888)
I1020 05:09:01.561015 10880 net.cpp:165] Memory required for data: 28513024
I1020 05:09:01.561034 10880 layer_factory.hpp:77] Creating layer elu1
I1020 05:09:01.561043 10880 net.cpp:100] Creating Layer elu1
I1020 05:09:01.561045 10880 net.cpp:434] elu1 <- conv1
I1020 05:09:01.561050 10880 net.cpp:408] elu1 -> elu1
I1020 05:09:01.561071 10880 net.cpp:150] Setting up elu1
I1020 05:09:01.561075 10880 net.cpp:157] Top shape: 64 192 24 24 (7077888)
I1020 05:09:01.561091 10880 net.cpp:165] Memory required for data: 56824576
I1020 05:09:01.561094 10880 layer_factory.hpp:77] Creating layer drop1
I1020 05:09:01.561100 10880 net.cpp:100] Creating Layer drop1
I1020 05:09:01.561101 10880 net.cpp:434] drop1 <- elu1
I1020 05:09:01.561105 10880 net.cpp:408] drop1 -> drop1
I1020 05:09:01.561131 10880 net.cpp:150] Setting up drop1
I1020 05:09:01.561134 10880 net.cpp:157] Top shape: 64 192 24 24 (7077888)
I1020 05:09:01.561136 10880 net.cpp:165] Memory required for data: 85136128
I1020 05:09:01.561137 10880 layer_factory.hpp:77] Creating layer pool1
I1020 05:09:01.561142 10880 net.cpp:100] Creating Layer pool1
I1020 05:09:01.561144 10880 net.cpp:434] pool1 <- drop1
I1020 05:09:01.561147 10880 net.cpp:408] pool1 -> pool1
I1020 05:09:01.561174 10880 net.cpp:150] Setting up pool1
I1020 05:09:01.561179 10880 net.cpp:157] Top shape: 64 192 12 12 (1769472)
I1020 05:09:01.561182 10880 net.cpp:165] Memory required for data: 92214016
I1020 05:09:01.561182 10880 layer_factory.hpp:77] Creating layer conv2
I1020 05:09:01.561188 10880 net.cpp:100] Creating Layer conv2
I1020 05:09:01.561192 10880 net.cpp:434] conv2 <- pool1
I1020 05:09:01.561194 10880 net.cpp:408] conv2 -> conv2
I1020 05:09:01.561959 10880 net.cpp:150] Setting up conv2
I1020 05:09:01.561969 10880 net.cpp:157] Top shape: 64 192 12 12 (1769472)
I1020 05:09:01.561970 10880 net.cpp:165] Memory required for data: 99291904
I1020 05:09:01.561976 10880 layer_factory.hpp:77] Creating layer elu2
I1020 05:09:01.561980 10880 net.cpp:100] Creating Layer elu2
I1020 05:09:01.561981 10880 net.cpp:434] elu2 <- conv2
I1020 05:09:01.561985 10880 net.cpp:408] elu2 -> elu2
I1020 05:09:01.562000 10880 net.cpp:150] Setting up elu2
I1020 05:09:01.562005 10880 net.cpp:157] Top shape: 64 192 12 12 (1769472)
I1020 05:09:01.562007 10880 net.cpp:165] Memory required for data: 106369792
I1020 05:09:01.562011 10880 layer_factory.hpp:77] Creating layer conv3
I1020 05:09:01.562016 10880 net.cpp:100] Creating Layer conv3
I1020 05:09:01.562018 10880 net.cpp:434] conv3 <- elu2
I1020 05:09:01.562021 10880 net.cpp:408] conv3 -> conv3
I1020 05:09:01.564759 10880 net.cpp:150] Setting up conv3
I1020 05:09:01.564779 10880 net.cpp:157] Top shape: 64 240 10 10 (1536000)
I1020 05:09:01.564782 10880 net.cpp:165] Memory required for data: 112513792
I1020 05:09:01.564795 10880 layer_factory.hpp:77] Creating layer elu3
I1020 05:09:01.564802 10880 net.cpp:100] Creating Layer elu3
I1020 05:09:01.564805 10880 net.cpp:434] elu3 <- conv3
I1020 05:09:01.564810 10880 net.cpp:408] elu3 -> elu3
I1020 05:09:01.564829 10880 net.cpp:150] Setting up elu3
I1020 05:09:01.564833 10880 net.cpp:157] Top shape: 64 240 10 10 (1536000)
I1020 05:09:01.564836 10880 net.cpp:165] Memory required for data: 118657792
I1020 05:09:01.564837 10880 layer_factory.hpp:77] Creating layer drop2
I1020 05:09:01.564841 10880 net.cpp:100] Creating Layer drop2
I1020 05:09:01.564844 10880 net.cpp:434] drop2 <- elu3
I1020 05:09:01.564848 10880 net.cpp:408] drop2 -> drop2
I1020 05:09:01.564870 10880 net.cpp:150] Setting up drop2
I1020 05:09:01.564874 10880 net.cpp:157] Top shape: 64 240 10 10 (1536000)
I1020 05:09:01.564877 10880 net.cpp:165] Memory required for data: 124801792
I1020 05:09:01.564879 10880 layer_factory.hpp:77] Creating layer pool2
I1020 05:09:01.564884 10880 net.cpp:100] Creating Layer pool2
I1020 05:09:01.564887 10880 net.cpp:434] pool2 <- drop2
I1020 05:09:01.564889 10880 net.cpp:408] pool2 -> pool2
I1020 05:09:01.564910 10880 net.cpp:150] Setting up pool2
I1020 05:09:01.564914 10880 net.cpp:157] Top shape: 64 240 5 5 (384000)
I1020 05:09:01.564916 10880 net.cpp:165] Memory required for data: 126337792
I1020 05:09:01.564919 10880 layer_factory.hpp:77] Creating layer conv4
I1020 05:09:01.564924 10880 net.cpp:100] Creating Layer conv4
I1020 05:09:01.564927 10880 net.cpp:434] conv4 <- pool2
I1020 05:09:01.564930 10880 net.cpp:408] conv4 -> conv4
I1020 05:09:01.565933 10880 net.cpp:150] Setting up conv4
I1020 05:09:01.565946 10880 net.cpp:157] Top shape: 64 240 5 5 (384000)
I1020 05:09:01.565950 10880 net.cpp:165] Memory required for data: 127873792
I1020 05:09:01.565973 10880 layer_factory.hpp:77] Creating layer elu4
I1020 05:09:01.565979 10880 net.cpp:100] Creating Layer elu4
I1020 05:09:01.565984 10880 net.cpp:434] elu4 <- conv4
I1020 05:09:01.565987 10880 net.cpp:408] elu4 -> elu4
I1020 05:09:01.566009 10880 net.cpp:150] Setting up elu4
I1020 05:09:01.566015 10880 net.cpp:157] Top shape: 64 240 5 5 (384000)
I1020 05:09:01.566017 10880 net.cpp:165] Memory required for data: 129409792
I1020 05:09:01.566021 10880 layer_factory.hpp:77] Creating layer conv5
I1020 05:09:01.566030 10880 net.cpp:100] Creating Layer conv5
I1020 05:09:01.566035 10880 net.cpp:434] conv5 <- elu4
I1020 05:09:01.566040 10880 net.cpp:408] conv5 -> conv5
I1020 05:09:01.568037 10880 net.cpp:150] Setting up conv5
I1020 05:09:01.568048 10880 net.cpp:157] Top shape: 64 260 4 4 (266240)
I1020 05:09:01.568049 10880 net.cpp:165] Memory required for data: 130474752
I1020 05:09:01.568056 10880 layer_factory.hpp:77] Creating layer elu5
I1020 05:09:01.568059 10880 net.cpp:100] Creating Layer elu5
I1020 05:09:01.568063 10880 net.cpp:434] elu5 <- conv5
I1020 05:09:01.568065 10880 net.cpp:408] elu5 -> elu5
I1020 05:09:01.568081 10880 net.cpp:150] Setting up elu5
I1020 05:09:01.568086 10880 net.cpp:157] Top shape: 64 260 4 4 (266240)
I1020 05:09:01.568089 10880 net.cpp:165] Memory required for data: 131539712
I1020 05:09:01.568090 10880 layer_factory.hpp:77] Creating layer drop3
I1020 05:09:01.568097 10880 net.cpp:100] Creating Layer drop3
I1020 05:09:01.568100 10880 net.cpp:434] drop3 <- elu5
I1020 05:09:01.568104 10880 net.cpp:408] drop3 -> drop3
I1020 05:09:01.568125 10880 net.cpp:150] Setting up drop3
I1020 05:09:01.568130 10880 net.cpp:157] Top shape: 64 260 4 4 (266240)
I1020 05:09:01.568132 10880 net.cpp:165] Memory required for data: 132604672
I1020 05:09:01.568135 10880 layer_factory.hpp:77] Creating layer pool3
I1020 05:09:01.568137 10880 net.cpp:100] Creating Layer pool3
I1020 05:09:01.568140 10880 net.cpp:434] pool3 <- drop3
I1020 05:09:01.568143 10880 net.cpp:408] pool3 -> pool3
I1020 05:09:01.568166 10880 net.cpp:150] Setting up pool3
I1020 05:09:01.568169 10880 net.cpp:157] Top shape: 64 260 2 2 (66560)
I1020 05:09:01.568172 10880 net.cpp:165] Memory required for data: 132870912
I1020 05:09:01.568173 10880 layer_factory.hpp:77] Creating layer conv6
I1020 05:09:01.568178 10880 net.cpp:100] Creating Layer conv6
I1020 05:09:01.568181 10880 net.cpp:434] conv6 <- pool3
I1020 05:09:01.568183 10880 net.cpp:408] conv6 -> conv6
I1020 05:09:01.569341 10880 net.cpp:150] Setting up conv6
I1020 05:09:01.569350 10880 net.cpp:157] Top shape: 64 260 2 2 (66560)
I1020 05:09:01.569353 10880 net.cpp:165] Memory required for data: 133137152
I1020 05:09:01.569358 10880 layer_factory.hpp:77] Creating layer elu6
I1020 05:09:01.569362 10880 net.cpp:100] Creating Layer elu6
I1020 05:09:01.569365 10880 net.cpp:434] elu6 <- conv6
I1020 05:09:01.569368 10880 net.cpp:408] elu6 -> elu6
I1020 05:09:01.569386 10880 net.cpp:150] Setting up elu6
I1020 05:09:01.569389 10880 net.cpp:157] Top shape: 64 260 2 2 (66560)
I1020 05:09:01.569391 10880 net.cpp:165] Memory required for data: 133403392
I1020 05:09:01.569392 10880 layer_factory.hpp:77] Creating layer conv7
I1020 05:09:01.569397 10880 net.cpp:100] Creating Layer conv7
I1020 05:09:01.569401 10880 net.cpp:434] conv7 <- elu6
I1020 05:09:01.569403 10880 net.cpp:408] conv7 -> conv7
I1020 05:09:01.571342 10880 net.cpp:150] Setting up conv7
I1020 05:09:01.571352 10880 net.cpp:157] Top shape: 64 280 1 1 (17920)
I1020 05:09:01.571354 10880 net.cpp:165] Memory required for data: 133475072
I1020 05:09:01.571358 10880 layer_factory.hpp:77] Creating layer elu7
I1020 05:09:01.571362 10880 net.cpp:100] Creating Layer elu7
I1020 05:09:01.571365 10880 net.cpp:434] elu7 <- conv7
I1020 05:09:01.571368 10880 net.cpp:408] elu7 -> elu7
I1020 05:09:01.571385 10880 net.cpp:150] Setting up elu7
I1020 05:09:01.571389 10880 net.cpp:157] Top shape: 64 280 1 1 (17920)
I1020 05:09:01.571393 10880 net.cpp:165] Memory required for data: 133546752
I1020 05:09:01.571405 10880 layer_factory.hpp:77] Creating layer drop4
I1020 05:09:01.571409 10880 net.cpp:100] Creating Layer drop4
I1020 05:09:01.571411 10880 net.cpp:434] drop4 <- elu7
I1020 05:09:01.571414 10880 net.cpp:408] drop4 -> drop4
I1020 05:09:01.571437 10880 net.cpp:150] Setting up drop4
I1020 05:09:01.571441 10880 net.cpp:157] Top shape: 64 280 1 1 (17920)
I1020 05:09:01.571444 10880 net.cpp:165] Memory required for data: 133618432
I1020 05:09:01.571445 10880 layer_factory.hpp:77] Creating layer pool4
I1020 05:09:01.571449 10880 net.cpp:100] Creating Layer pool4
I1020 05:09:01.571451 10880 net.cpp:434] pool4 <- drop4
I1020 05:09:01.571455 10880 net.cpp:408] pool4 -> pool4
I1020 05:09:01.571475 10880 net.cpp:150] Setting up pool4
I1020 05:09:01.571480 10880 net.cpp:157] Top shape: 64 280 1 1 (17920)
I1020 05:09:01.571481 10880 net.cpp:165] Memory required for data: 133690112
I1020 05:09:01.571483 10880 layer_factory.hpp:77] Creating layer conv8
I1020 05:09:01.571487 10880 net.cpp:100] Creating Layer conv8
I1020 05:09:01.571491 10880 net.cpp:434] conv8 <- pool4
I1020 05:09:01.571493 10880 net.cpp:408] conv8 -> conv8
I1020 05:09:01.572469 10880 net.cpp:150] Setting up conv8
I1020 05:09:01.572479 10880 net.cpp:157] Top shape: 64 280 1 1 (17920)
I1020 05:09:01.572482 10880 net.cpp:165] Memory required for data: 133761792
I1020 05:09:01.572486 10880 layer_factory.hpp:77] Creating layer elu8
I1020 05:09:01.572490 10880 net.cpp:100] Creating Layer elu8
I1020 05:09:01.572494 10880 net.cpp:434] elu8 <- conv8
I1020 05:09:01.572499 10880 net.cpp:408] elu8 -> elu8
I1020 05:09:01.572515 10880 net.cpp:150] Setting up elu8
I1020 05:09:01.572520 10880 net.cpp:157] Top shape: 64 280 1 1 (17920)
I1020 05:09:01.572521 10880 net.cpp:165] Memory required for data: 133833472
I1020 05:09:01.572523 10880 layer_factory.hpp:77] Creating layer drop5
I1020 05:09:01.572526 10880 net.cpp:100] Creating Layer drop5
I1020 05:09:01.572530 10880 net.cpp:434] drop5 <- elu8
I1020 05:09:01.572532 10880 net.cpp:408] drop5 -> drop5
I1020 05:09:01.572554 10880 net.cpp:150] Setting up drop5
I1020 05:09:01.572558 10880 net.cpp:157] Top shape: 64 280 1 1 (17920)
I1020 05:09:01.572561 10880 net.cpp:165] Memory required for data: 133905152
I1020 05:09:01.572561 10880 layer_factory.hpp:77] Creating layer pool5
I1020 05:09:01.572566 10880 net.cpp:100] Creating Layer pool5
I1020 05:09:01.572568 10880 net.cpp:434] pool5 <- drop5
I1020 05:09:01.572571 10880 net.cpp:408] pool5 -> pool5
I1020 05:09:01.572592 10880 net.cpp:150] Setting up pool5
I1020 05:09:01.572597 10880 net.cpp:157] Top shape: 64 280 1 1 (17920)
I1020 05:09:01.572598 10880 net.cpp:165] Memory required for data: 133976832
I1020 05:09:01.572600 10880 layer_factory.hpp:77] Creating layer conv10
I1020 05:09:01.572604 10880 net.cpp:100] Creating Layer conv10
I1020 05:09:01.572607 10880 net.cpp:434] conv10 <- pool5
I1020 05:09:01.572610 10880 net.cpp:408] conv10 -> conv10
I1020 05:09:01.573575 10880 net.cpp:150] Setting up conv10
I1020 05:09:01.573585 10880 net.cpp:157] Top shape: 64 300 1 1 (19200)
I1020 05:09:01.573587 10880 net.cpp:165] Memory required for data: 134053632
I1020 05:09:01.573595 10880 layer_factory.hpp:77] Creating layer elu10
I1020 05:09:01.573598 10880 net.cpp:100] Creating Layer elu10
I1020 05:09:01.573601 10880 net.cpp:434] elu10 <- conv10
I1020 05:09:01.573606 10880 net.cpp:408] elu10 -> elu10
I1020 05:09:01.573621 10880 net.cpp:150] Setting up elu10
I1020 05:09:01.573626 10880 net.cpp:157] Top shape: 64 300 1 1 (19200)
I1020 05:09:01.573627 10880 net.cpp:165] Memory required for data: 134130432
I1020 05:09:01.573631 10880 layer_factory.hpp:77] Creating layer drop6
I1020 05:09:01.573633 10880 net.cpp:100] Creating Layer drop6
I1020 05:09:01.573635 10880 net.cpp:434] drop6 <- elu10
I1020 05:09:01.573638 10880 net.cpp:408] drop6 -> drop6
I1020 05:09:01.573663 10880 net.cpp:150] Setting up drop6
I1020 05:09:01.573668 10880 net.cpp:157] Top shape: 64 300 1 1 (19200)
I1020 05:09:01.573669 10880 net.cpp:165] Memory required for data: 134207232
I1020 05:09:01.573671 10880 layer_factory.hpp:77] Creating layer pool6
I1020 05:09:01.573683 10880 net.cpp:100] Creating Layer pool6
I1020 05:09:01.573686 10880 net.cpp:434] pool6 <- drop6
I1020 05:09:01.573689 10880 net.cpp:408] pool6 -> pool6
I1020 05:09:01.573711 10880 net.cpp:150] Setting up pool6
I1020 05:09:01.573715 10880 net.cpp:157] Top shape: 64 300 1 1 (19200)
I1020 05:09:01.573717 10880 net.cpp:165] Memory required for data: 134284032
I1020 05:09:01.573719 10880 layer_factory.hpp:77] Creating layer conv11
I1020 05:09:01.573725 10880 net.cpp:100] Creating Layer conv11
I1020 05:09:01.573729 10880 net.cpp:434] conv11 <- pool6
I1020 05:09:01.573731 10880 net.cpp:408] conv11 -> conv11
I1020 05:09:01.574828 10880 net.cpp:150] Setting up conv11
I1020 05:09:01.574837 10880 net.cpp:157] Top shape: 64 100 1 1 (6400)
I1020 05:09:01.574841 10880 net.cpp:165] Memory required for data: 134309632
I1020 05:09:01.574846 10880 layer_factory.hpp:77] Creating layer elu11
I1020 05:09:01.574849 10880 net.cpp:100] Creating Layer elu11
I1020 05:09:01.574851 10880 net.cpp:434] elu11 <- conv11
I1020 05:09:01.574856 10880 net.cpp:408] elu11 -> elu11
I1020 05:09:01.574872 10880 net.cpp:150] Setting up elu11
I1020 05:09:01.574875 10880 net.cpp:157] Top shape: 64 100 1 1 (6400)
I1020 05:09:01.574877 10880 net.cpp:165] Memory required for data: 134335232
I1020 05:09:01.574880 10880 layer_factory.hpp:77] Creating layer drop7
I1020 05:09:01.574883 10880 net.cpp:100] Creating Layer drop7
I1020 05:09:01.574885 10880 net.cpp:434] drop7 <- elu11
I1020 05:09:01.574888 10880 net.cpp:408] drop7 -> drop7
I1020 05:09:01.574911 10880 net.cpp:150] Setting up drop7
I1020 05:09:01.574915 10880 net.cpp:157] Top shape: 64 100 1 1 (6400)
I1020 05:09:01.574916 10880 net.cpp:165] Memory required for data: 134360832
I1020 05:09:01.574918 10880 layer_factory.hpp:77] Creating layer pool7
I1020 05:09:01.574921 10880 net.cpp:100] Creating Layer pool7
I1020 05:09:01.574924 10880 net.cpp:434] pool7 <- drop7
I1020 05:09:01.574928 10880 net.cpp:408] pool7 -> pool7
I1020 05:09:01.574949 10880 net.cpp:150] Setting up pool7
I1020 05:09:01.574954 10880 net.cpp:157] Top shape: 64 100 1 1 (6400)
I1020 05:09:01.574954 10880 net.cpp:165] Memory required for data: 134386432
I1020 05:09:01.574956 10880 layer_factory.hpp:77] Creating layer score
I1020 05:09:01.574960 10880 net.cpp:100] Creating Layer score
I1020 05:09:01.574964 10880 net.cpp:434] score <- pool7
I1020 05:09:01.574965 10880 net.cpp:408] score -> score
I1020 05:09:01.575059 10880 net.cpp:150] Setting up score
I1020 05:09:01.575064 10880 net.cpp:157] Top shape: 64 10 (640)
I1020 05:09:01.575067 10880 net.cpp:165] Memory required for data: 134388992
I1020 05:09:01.575069 10880 layer_factory.hpp:77] Creating layer score_score_0_split
I1020 05:09:01.575074 10880 net.cpp:100] Creating Layer score_score_0_split
I1020 05:09:01.575076 10880 net.cpp:434] score_score_0_split <- score
I1020 05:09:01.575079 10880 net.cpp:408] score_score_0_split -> score_score_0_split_0
I1020 05:09:01.575083 10880 net.cpp:408] score_score_0_split -> score_score_0_split_1
I1020 05:09:01.575106 10880 net.cpp:150] Setting up score_score_0_split
I1020 05:09:01.575109 10880 net.cpp:157] Top shape: 64 10 (640)
I1020 05:09:01.575112 10880 net.cpp:157] Top shape: 64 10 (640)
I1020 05:09:01.575114 10880 net.cpp:165] Memory required for data: 134394112
I1020 05:09:01.575116 10880 layer_factory.hpp:77] Creating layer accuracy
I1020 05:09:01.575120 10880 net.cpp:100] Creating Layer accuracy
I1020 05:09:01.575124 10880 net.cpp:434] accuracy <- score_score_0_split_0
I1020 05:09:01.575125 10880 net.cpp:434] accuracy <- label_data_1_split_0
I1020 05:09:01.575129 10880 net.cpp:408] accuracy -> accuracy
…
I1020 05:09:01.575472 10880 net.cpp:283] Network initialization done.
I1020 05:09:01.575664 10880 solver.cpp:181] Creating test net (#0) specified by test_net file: /home/adam/Honours/Honours-Project/mnist_pooling/max/elu/poolcnn_elu_test.prototxt
I1020 05:09:01.575786 10880 net.cpp:58] Initializing net from parameters: 
state {
  phase: TEST
}
layer {
  name: "data"
  type: "Data"
  top: "data"
  top: "label"
  transform_param {
    scale: 0.0039215689
  }
  data_param {
    source: "../../../../data/mnist/mnist_test_lmdb"
    batch_size: 100
    backend: LMDB
  }
}
layer {
  name: "conv1"
  type: "Convolution"
  bottom: "data"
  top: "conv1"
  convolution_param {
    num_output: 192
    kernel_size: 5
    weight_filler {
      type: "xavier"
    }
  }
}
layer {
  name: "elu1"
  type: "ELU"
  bottom: "conv1"
  top: "elu1"
}
layer {
  name: "drop1"
  type: "Dropout"
  bottom: "elu1"
  top: "drop1"
  dropout_param {
    dropout_ratio: 0
  }
}
layer {
  name: "pool1"
  type: "Pooling"
  bottom: "drop1"
  top: "pool1"
  pooling_param {
    pool: MAX
    kernel_size: 2
    stride: 2
  }
}
layer {
  name: "conv2"
  type: "Convolution"
  bottom: "pool1"
  top: "conv2"
  convolution_param {
    num_output: 192
    kernel_size: 1
    weight_filler {
      type: "xavier"
    }
  }
}
layer {
  name: "elu2"
  type: "ELU"
  bottom: "conv2"
  top: "elu2"
}
layer {
  name: "conv3"
  type: "Convolution"
  bottom: "elu2"
  top: "conv3"
  convolution_param {
    num_output: 240
    kernel_size: 3
    weight_filler {
      type: "xavier"
    }
  }
}
layer {
  name: "elu3"
  type: "ELU"
  bottom: "conv3"
  top: "elu3"
}
layer {
  name: "drop2"
  type: "Dropout"
  bottom: "elu3"
  top: "drop2"
  dropout_param {
    dropout_ratio: 0.1
  }
}
layer {
  name: "pool2"
  type: "Pooling"
  bottom: "drop2"
  top: "pool2"
  pooling_param {
    pool: MAX
    kernel_size: 2
    stride: 2
  }
}
layer {
  name: "conv4"
  type: "Convolution"
  bottom: "pool2"
  top: "conv4"
  convolution_param {
    num_output: 240
    kernel_size: 1
    weight_filler {
      type: "xavier"
    }
  }
}
layer {
  name: "elu4"
  type: "ELU"
  bottom: "conv4"
  top: "elu4"
}
layer {
  name: "conv5"
  type: "Convolution"
  bottom: "elu4"
  top: "conv5"
  convolution_param {
    num_output: 260
    kernel_size: 2
    weight_filler {
      type: "xavier"
    }
  }
}
layer {
  name: "elu5"
  type: "ELU"
  bottom: "conv5"
  top: "elu5"
}
layer {
  name: "drop3"
  type: "Dropout"
  bottom: "elu5"
  top: "drop3"
  dropout_param {
    dropout_ratio: 0.2
  }
}
layer {
  name: "pool3"
  type: "Pooling"
  bottom: "drop3"
  top: "pool3"
  pooling_param {
    pool: MAX
    kernel_size: 2
    stride: 2
  }
}
layer {
  name: "conv6"
  type: "Convolution"
  bottom: "pool3"
  top: "conv6"
  convolution_param {
    num_output: 260
    kernel_size: 1
    weight_filler {
      type: "xavier"
    }
  }
}
layer {
  name: "elu6"
  type: "ELU"
  bottom: "conv6"
  top: "elu6"
}
layer {
  name: "conv7"
  type: "Convolution"
  bottom: "elu6"
  top: "conv7"
  convolution_param {
    num_output: 280
    kernel_size: 2
    weight_filler {
      type: "xavier"
    }
  }
}
layer {
  name: "elu7"
  type: "ELU"
  bottom: "conv7"
  top: "elu7"
}
layer {
  name: "drop4"
  type: "Dropout"
  bottom: "elu7"
  top: "drop4"
  dropout_param {
    dropout_ratio: 0.3
  }
}
layer {
  name: "pool4"
  type: "Pooling"
  bottom: "drop4"
  top: "pool4"
  pooling_param {
    pool: MAX
    kernel_size: 2
    stride: 2
  }
}
layer {
  name: "conv8"
  type: "Convolution"
  bottom: "pool4"
  top: "conv8"
  convolution_param {
    num_output: 280
    kernel_size: 1
    weight_filler {
      type: "xavier"
    }
  }
}
layer {
  name: "elu8"
  type: "ELU"
  bottom: "conv8"
  top: "elu8"
}
layer {
  name: "drop5"
  type: "Dropout"
  bottom: "elu8"
  top: "drop5"
  dropout_param {
    dropout_ratio: 0.4
  }
}
layer {
  name: "pool5"
  type: "Pooling"
  bottom: "drop5"
  top: "pool5"
  pooling_param {
    pool: MAX
    kernel_size: 2
    stride: 2
  }
}
layer {
  name: "conv10"
  type: "Convolution"
  bottom: "pool5"
  top: "conv10"
  convolution_param {
    num_output: 300
    kernel_size: 1
    weight_filler {
      type: "xavier"
    }
  }
}
layer {
  name: "elu10"
  type: "ELU"
  bottom: "conv10"
  top: "elu10"
}
layer {
  name: "drop6"
  type: "Dropout"
  bottom: "elu10"
  top: "drop6"
  dropout_param {
    dropout_ratio: 0.5
  }
}
layer {
  name: "pool6"
  type: "Pooling"
  bottom: "drop6"
  top: "pool6"
  pooling_param {
    pool: MAX
    kernel_size: 2
    stride: 2
  }
}
layer {
  name: "conv11"
  type: "Convolution"
  bottom: "pool6"
  top: "conv11"
  convolution_param {
    num_output: 100
    kernel_size: 1
    weight_filler {
      type: "xavier"
    }
  }
}
layer {
  name: "elu11"
  type: "ELU"
  bottom: "conv11"
  top: "elu11"
}
layer {
  name: "drop7"
  type: "Dropout"
  bottom: "elu11"
  top: "drop7"
  dropout_param {
    dropout_ratio: 0
  }
}
layer {
  name: "pool7"
  type: "Pooling"
  bottom: "drop7"
  top: "pool7"
  pooling_param {
    pool: MAX
    kernel_size: 2
    stride: 2
  }
}
layer {
  name: "score"
  type: "InnerProduct"
  bottom: "pool7"
  top: "score"
  inner_product_param {
    num_output: 10
    weight_filler {
      type: "gaussian"
    }
  }
}
layer {
  name: "accuracy"
  type: "Accuracy"
  bottom: "score"
  bottom: "label"
  top: "accuracy"
}
layer {
  name: "loss"
  type: "SoftmaxWithLoss"
  bottom: "score"
  bottom: "label"
  top: "loss"
}
I1020 05:09:01.575865 10880 layer_factory.hpp:77] Creating layer data
I1020 05:09:01.575942 10880 net.cpp:100] Creating Layer data
I1020 05:09:01.575947 10880 net.cpp:408] data -> data
I1020 05:09:01.575954 10880 net.cpp:408] data -> label
I1020 05:09:01.576545 10887 db_lmdb.cpp:35] Opened lmdb ../../../../data/mnist/mnist_test_lmdb
I1020 05:09:01.576622 10880 data_layer.cpp:41] output data size: 100,1,28,28
I1020 05:09:01.577270 10880 net.cpp:150] Setting up data
I1020 05:09:01.577278 10880 net.cpp:157] Top shape: 100 1 28 28 (78400)
I1020 05:09:01.577281 10880 net.cpp:157] Top shape: 100 (100)
I1020 05:09:01.577283 10880 net.cpp:165] Memory required for data: 314000
I1020 05:09:01.577286 10880 layer_factory.hpp:77] Creating layer label_data_1_split
I1020 05:09:01.577291 10880 net.cpp:100] Creating Layer label_data_1_split
I1020 05:09:01.577292 10880 net.cpp:434] label_data_1_split <- label
I1020 05:09:01.577296 10880 net.cpp:408] label_data_1_split -> label_data_1_split_0
I1020 05:09:01.577301 10880 net.cpp:408] label_data_1_split -> label_data_1_split_1
I1020 05:09:01.577342 10880 net.cpp:150] Setting up label_data_1_split
I1020 05:09:01.577347 10880 net.cpp:157] Top shape: 100 (100)
I1020 05:09:01.577349 10880 net.cpp:157] Top shape: 100 (100)
I1020 05:09:01.577350 10880 net.cpp:165] Memory required for data: 314800
I1020 05:09:01.577353 10880 layer_factory.hpp:77] Creating layer conv1
I1020 05:09:01.577358 10880 net.cpp:100] Creating Layer conv1
I1020 05:09:01.577360 10880 net.cpp:434] conv1 <- data
I1020 05:09:01.577363 10880 net.cpp:408] conv1 -> conv1
I1020 05:09:01.578136 10880 net.cpp:150] Setting up conv1
I1020 05:09:01.578145 10880 net.cpp:157] Top shape: 100 192 24 24 (11059200)
I1020 05:09:01.578147 10880 net.cpp:165] Memory required for data: 44551600
I1020 05:09:01.578155 10880 layer_factory.hpp:77] Creating layer elu1
I1020 05:09:01.578161 10880 net.cpp:100] Creating Layer elu1
I1020 05:09:01.578162 10880 net.cpp:434] elu1 <- conv1
I1020 05:09:01.578166 10880 net.cpp:408] elu1 -> elu1
I1020 05:09:01.578181 10880 net.cpp:150] Setting up elu1
I1020 05:09:01.578186 10880 net.cpp:157] Top shape: 100 192 24 24 (11059200)
I1020 05:09:01.578187 10880 net.cpp:165] Memory required for data: 88788400
I1020 05:09:01.578189 10880 layer_factory.hpp:77] Creating layer drop1
I1020 05:09:01.578193 10880 net.cpp:100] Creating Layer drop1
I1020 05:09:01.578197 10880 net.cpp:434] drop1 <- elu1
I1020 05:09:01.578199 10880 net.cpp:408] drop1 -> drop1
I1020 05:09:01.578222 10880 net.cpp:150] Setting up drop1
I1020 05:09:01.578227 10880 net.cpp:157] Top shape: 100 192 24 24 (11059200)
I1020 05:09:01.578232 10880 net.cpp:165] Memory required for data: 133025200
I1020 05:09:01.578233 10880 layer_factory.hpp:77] Creating layer pool1
I1020 05:09:01.578236 10880 net.cpp:100] Creating Layer pool1
I1020 05:09:01.578240 10880 net.cpp:434] pool1 <- drop1
I1020 05:09:01.578243 10880 net.cpp:408] pool1 -> pool1
I1020 05:09:01.578266 10880 net.cpp:150] Setting up pool1
I1020 05:09:01.578271 10880 net.cpp:157] Top shape: 100 192 12 12 (2764800)
I1020 05:09:01.578274 10880 net.cpp:165] Memory required for data: 144084400
I1020 05:09:01.578275 10880 layer_factory.hpp:77] Creating layer conv2
I1020 05:09:01.578289 10880 net.cpp:100] Creating Layer conv2
I1020 05:09:01.578296 10880 net.cpp:434] conv2 <- pool1
I1020 05:09:01.578299 10880 net.cpp:408] conv2 -> conv2
I1020 05:09:01.579170 10880 net.cpp:150] Setting up conv2
I1020 05:09:01.579180 10880 net.cpp:157] Top shape: 100 192 12 12 (2764800)
I1020 05:09:01.579182 10880 net.cpp:165] Memory required for data: 155143600
I1020 05:09:01.579187 10880 layer_factory.hpp:77] Creating layer elu2
I1020 05:09:01.579191 10880 net.cpp:100] Creating Layer elu2
I1020 05:09:01.579195 10880 net.cpp:434] elu2 <- conv2
I1020 05:09:01.579197 10880 net.cpp:408] elu2 -> elu2
I1020 05:09:01.579215 10880 net.cpp:150] Setting up elu2
I1020 05:09:01.579219 10880 net.cpp:157] Top shape: 100 192 12 12 (2764800)
I1020 05:09:01.579222 10880 net.cpp:165] Memory required for data: 166202800
I1020 05:09:01.579224 10880 layer_factory.hpp:77] Creating layer conv3
I1020 05:09:01.579229 10880 net.cpp:100] Creating Layer conv3
I1020 05:09:01.579233 10880 net.cpp:434] conv3 <- elu2
I1020 05:09:01.579236 10880 net.cpp:408] conv3 -> conv3
I1020 05:09:01.581876 10880 net.cpp:150] Setting up conv3
I1020 05:09:01.581884 10880 net.cpp:157] Top shape: 100 240 10 10 (2400000)
I1020 05:09:01.581887 10880 net.cpp:165] Memory required for data: 175802800
I1020 05:09:01.581893 10880 layer_factory.hpp:77] Creating layer elu3
I1020 05:09:01.581897 10880 net.cpp:100] Creating Layer elu3
I1020 05:09:01.581898 10880 net.cpp:434] elu3 <- conv3
I1020 05:09:01.581902 10880 net.cpp:408] elu3 -> elu3
I1020 05:09:01.581919 10880 net.cpp:150] Setting up elu3
I1020 05:09:01.581924 10880 net.cpp:157] Top shape: 100 240 10 10 (2400000)
I1020 05:09:01.581926 10880 net.cpp:165] Memory required for data: 185402800
I1020 05:09:01.581928 10880 layer_factory.hpp:77] Creating layer drop2
I1020 05:09:01.581931 10880 net.cpp:100] Creating Layer drop2
I1020 05:09:01.581933 10880 net.cpp:434] drop2 <- elu3
I1020 05:09:01.581936 10880 net.cpp:408] drop2 -> drop2
I1020 05:09:01.581959 10880 net.cpp:150] Setting up drop2
I1020 05:09:01.581964 10880 net.cpp:157] Top shape: 100 240 10 10 (2400000)
I1020 05:09:01.581965 10880 net.cpp:165] Memory required for data: 195002800
I1020 05:09:01.581967 10880 layer_factory.hpp:77] Creating layer pool2
I1020 05:09:01.581971 10880 net.cpp:100] Creating Layer pool2
I1020 05:09:01.581972 10880 net.cpp:434] pool2 <- drop2
I1020 05:09:01.581975 10880 net.cpp:408] pool2 -> pool2
I1020 05:09:01.581998 10880 net.cpp:150] Setting up pool2
I1020 05:09:01.582001 10880 net.cpp:157] Top shape: 100 240 5 5 (600000)
I1020 05:09:01.582003 10880 net.cpp:165] Memory required for data: 197402800
I1020 05:09:01.582005 10880 layer_factory.hpp:77] Creating layer conv4
I1020 05:09:01.582010 10880 net.cpp:100] Creating Layer conv4
I1020 05:09:01.582012 10880 net.cpp:434] conv4 <- pool2
I1020 05:09:01.582015 10880 net.cpp:408] conv4 -> conv4
I1020 05:09:01.582896 10880 net.cpp:150] Setting up conv4
I1020 05:09:01.582904 10880 net.cpp:157] Top shape: 100 240 5 5 (600000)
I1020 05:09:01.582907 10880 net.cpp:165] Memory required for data: 199802800
I1020 05:09:01.582911 10880 layer_factory.hpp:77] Creating layer elu4
I1020 05:09:01.582914 10880 net.cpp:100] Creating Layer elu4
I1020 05:09:01.582916 10880 net.cpp:434] elu4 <- conv4
I1020 05:09:01.582921 10880 net.cpp:408] elu4 -> elu4
I1020 05:09:01.582937 10880 net.cpp:150] Setting up elu4
I1020 05:09:01.582939 10880 net.cpp:157] Top shape: 100 240 5 5 (600000)
I1020 05:09:01.582942 10880 net.cpp:165] Memory required for data: 202202800
I1020 05:09:01.582943 10880 layer_factory.hpp:77] Creating layer conv5
I1020 05:09:01.582948 10880 net.cpp:100] Creating Layer conv5
I1020 05:09:01.582950 10880 net.cpp:434] conv5 <- elu4
I1020 05:09:01.582953 10880 net.cpp:408] conv5 -> conv5
I1020 05:09:01.584779 10880 net.cpp:150] Setting up conv5
I1020 05:09:01.584789 10880 net.cpp:157] Top shape: 100 260 4 4 (416000)
I1020 05:09:01.584790 10880 net.cpp:165] Memory required for data: 203866800
I1020 05:09:01.584796 10880 layer_factory.hpp:77] Creating layer elu5
I1020 05:09:01.584810 10880 net.cpp:100] Creating Layer elu5
I1020 05:09:01.584812 10880 net.cpp:434] elu5 <- conv5
I1020 05:09:01.584815 10880 net.cpp:408] elu5 -> elu5
I1020 05:09:01.584834 10880 net.cpp:150] Setting up elu5
I1020 05:09:01.584839 10880 net.cpp:157] Top shape: 100 260 4 4 (416000)
I1020 05:09:01.584841 10880 net.cpp:165] Memory required for data: 205530800
I1020 05:09:01.584842 10880 layer_factory.hpp:77] Creating layer drop3
I1020 05:09:01.584851 10880 net.cpp:100] Creating Layer drop3
I1020 05:09:01.584853 10880 net.cpp:434] drop3 <- elu5
I1020 05:09:01.584857 10880 net.cpp:408] drop3 -> drop3
I1020 05:09:01.584882 10880 net.cpp:150] Setting up drop3
I1020 05:09:01.584887 10880 net.cpp:157] Top shape: 100 260 4 4 (416000)
I1020 05:09:01.584888 10880 net.cpp:165] Memory required for data: 207194800
I1020 05:09:01.584890 10880 layer_factory.hpp:77] Creating layer pool3
I1020 05:09:01.584893 10880 net.cpp:100] Creating Layer pool3
I1020 05:09:01.584895 10880 net.cpp:434] pool3 <- drop3
I1020 05:09:01.584899 10880 net.cpp:408] pool3 -> pool3
I1020 05:09:01.584923 10880 net.cpp:150] Setting up pool3
I1020 05:09:01.584926 10880 net.cpp:157] Top shape: 100 260 2 2 (104000)
I1020 05:09:01.584928 10880 net.cpp:165] Memory required for data: 207610800
I1020 05:09:01.584930 10880 layer_factory.hpp:77] Creating layer conv6
I1020 05:09:01.584935 10880 net.cpp:100] Creating Layer conv6
I1020 05:09:01.584936 10880 net.cpp:434] conv6 <- pool3
I1020 05:09:01.584940 10880 net.cpp:408] conv6 -> conv6
I1020 05:09:01.586145 10880 net.cpp:150] Setting up conv6
I1020 05:09:01.586155 10880 net.cpp:157] Top shape: 100 260 2 2 (104000)
I1020 05:09:01.586158 10880 net.cpp:165] Memory required for data: 208026800
I1020 05:09:01.586161 10880 layer_factory.hpp:77] Creating layer elu6
I1020 05:09:01.586165 10880 net.cpp:100] Creating Layer elu6
I1020 05:09:01.586168 10880 net.cpp:434] elu6 <- conv6
I1020 05:09:01.586170 10880 net.cpp:408] elu6 -> elu6
I1020 05:09:01.586187 10880 net.cpp:150] Setting up elu6
I1020 05:09:01.586192 10880 net.cpp:157] Top shape: 100 260 2 2 (104000)
I1020 05:09:01.586194 10880 net.cpp:165] Memory required for data: 208442800
I1020 05:09:01.586195 10880 layer_factory.hpp:77] Creating layer conv7
I1020 05:09:01.586200 10880 net.cpp:100] Creating Layer conv7
I1020 05:09:01.586204 10880 net.cpp:434] conv7 <- elu6
I1020 05:09:01.586206 10880 net.cpp:408] conv7 -> conv7
I1020 05:09:01.588304 10880 net.cpp:150] Setting up conv7
I1020 05:09:01.588312 10880 net.cpp:157] Top shape: 100 280 1 1 (28000)
I1020 05:09:01.588315 10880 net.cpp:165] Memory required for data: 208554800
I1020 05:09:01.588320 10880 layer_factory.hpp:77] Creating layer elu7
I1020 05:09:01.588322 10880 net.cpp:100] Creating Layer elu7
I1020 05:09:01.588325 10880 net.cpp:434] elu7 <- conv7
I1020 05:09:01.588330 10880 net.cpp:408] elu7 -> elu7
I1020 05:09:01.588347 10880 net.cpp:150] Setting up elu7
I1020 05:09:01.588352 10880 net.cpp:157] Top shape: 100 280 1 1 (28000)
I1020 05:09:01.588353 10880 net.cpp:165] Memory required for data: 208666800
I1020 05:09:01.588356 10880 layer_factory.hpp:77] Creating layer drop4
I1020 05:09:01.588361 10880 net.cpp:100] Creating Layer drop4
I1020 05:09:01.588363 10880 net.cpp:434] drop4 <- elu7
I1020 05:09:01.588366 10880 net.cpp:408] drop4 -> drop4
I1020 05:09:01.588392 10880 net.cpp:150] Setting up drop4
I1020 05:09:01.588395 10880 net.cpp:157] Top shape: 100 280 1 1 (28000)
I1020 05:09:01.588397 10880 net.cpp:165] Memory required for data: 208778800
I1020 05:09:01.588399 10880 layer_factory.hpp:77] Creating layer pool4
I1020 05:09:01.588404 10880 net.cpp:100] Creating Layer pool4
I1020 05:09:01.588407 10880 net.cpp:434] pool4 <- drop4
I1020 05:09:01.588409 10880 net.cpp:408] pool4 -> pool4
I1020 05:09:01.588434 10880 net.cpp:150] Setting up pool4
I1020 05:09:01.588439 10880 net.cpp:157] Top shape: 100 280 1 1 (28000)
I1020 05:09:01.588440 10880 net.cpp:165] Memory required for data: 208890800
I1020 05:09:01.588443 10880 layer_factory.hpp:77] Creating layer conv8
I1020 05:09:01.588448 10880 net.cpp:100] Creating Layer conv8
I1020 05:09:01.588457 10880 net.cpp:434] conv8 <- pool4
I1020 05:09:01.588460 10880 net.cpp:408] conv8 -> conv8
I1020 05:09:01.589593 10880 net.cpp:150] Setting up conv8
I1020 05:09:01.589610 10880 net.cpp:157] Top shape: 100 280 1 1 (28000)
I1020 05:09:01.589614 10880 net.cpp:165] Memory required for data: 209002800
I1020 05:09:01.589622 10880 layer_factory.hpp:77] Creating layer elu8
I1020 05:09:01.589630 10880 net.cpp:100] Creating Layer elu8
I1020 05:09:01.589635 10880 net.cpp:434] elu8 <- conv8
I1020 05:09:01.589644 10880 net.cpp:408] elu8 -> elu8
I1020 05:09:01.589673 10880 net.cpp:150] Setting up elu8
I1020 05:09:01.589679 10880 net.cpp:157] Top shape: 100 280 1 1 (28000)
I1020 05:09:01.589684 10880 net.cpp:165] Memory required for data: 209114800
I1020 05:09:01.589689 10880 layer_factory.hpp:77] Creating layer drop5
I1020 05:09:01.589694 10880 net.cpp:100] Creating Layer drop5
I1020 05:09:01.589699 10880 net.cpp:434] drop5 <- elu8
I1020 05:09:01.589706 10880 net.cpp:408] drop5 -> drop5
I1020 05:09:01.589745 10880 net.cpp:150] Setting up drop5
I1020 05:09:01.589751 10880 net.cpp:157] Top shape: 100 280 1 1 (28000)
I1020 05:09:01.589756 10880 net.cpp:165] Memory required for data: 209226800
I1020 05:09:01.589759 10880 layer_factory.hpp:77] Creating layer pool5
I1020 05:09:01.589767 10880 net.cpp:100] Creating Layer pool5
I1020 05:09:01.589771 10880 net.cpp:434] pool5 <- drop5
I1020 05:09:01.589776 10880 net.cpp:408] pool5 -> pool5
I1020 05:09:01.589814 10880 net.cpp:150] Setting up pool5
I1020 05:09:01.589823 10880 net.cpp:157] Top shape: 100 280 1 1 (28000)
I1020 05:09:01.589826 10880 net.cpp:165] Memory required for data: 209338800
I1020 05:09:01.589830 10880 layer_factory.hpp:77] Creating layer conv10
I1020 05:09:01.589838 10880 net.cpp:100] Creating Layer conv10
I1020 05:09:01.589843 10880 net.cpp:434] conv10 <- pool5
I1020 05:09:01.589849 10880 net.cpp:408] conv10 -> conv10
I1020 05:09:01.591322 10880 net.cpp:150] Setting up conv10
I1020 05:09:01.591331 10880 net.cpp:157] Top shape: 100 300 1 1 (30000)
I1020 05:09:01.591334 10880 net.cpp:165] Memory required for data: 209458800
I1020 05:09:01.591342 10880 layer_factory.hpp:77] Creating layer elu10
I1020 05:09:01.591347 10880 net.cpp:100] Creating Layer elu10
I1020 05:09:01.591349 10880 net.cpp:434] elu10 <- conv10
I1020 05:09:01.591353 10880 net.cpp:408] elu10 -> elu10
I1020 05:09:01.591372 10880 net.cpp:150] Setting up elu10
I1020 05:09:01.591377 10880 net.cpp:157] Top shape: 100 300 1 1 (30000)
I1020 05:09:01.591379 10880 net.cpp:165] Memory required for data: 209578800
I1020 05:09:01.591382 10880 layer_factory.hpp:77] Creating layer drop6
I1020 05:09:01.591384 10880 net.cpp:100] Creating Layer drop6
I1020 05:09:01.591387 10880 net.cpp:434] drop6 <- elu10
I1020 05:09:01.591390 10880 net.cpp:408] drop6 -> drop6
I1020 05:09:01.591419 10880 net.cpp:150] Setting up drop6
I1020 05:09:01.591425 10880 net.cpp:157] Top shape: 100 300 1 1 (30000)
I1020 05:09:01.591428 10880 net.cpp:165] Memory required for data: 209698800
I1020 05:09:01.591429 10880 layer_factory.hpp:77] Creating layer pool6
I1020 05:09:01.591434 10880 net.cpp:100] Creating Layer pool6
I1020 05:09:01.591435 10880 net.cpp:434] pool6 <- drop6
I1020 05:09:01.591437 10880 net.cpp:408] pool6 -> pool6
I1020 05:09:01.591464 10880 net.cpp:150] Setting up pool6
I1020 05:09:01.591467 10880 net.cpp:157] Top shape: 100 300 1 1 (30000)
I1020 05:09:01.591470 10880 net.cpp:165] Memory required for data: 209818800
I1020 05:09:01.591470 10880 layer_factory.hpp:77] Creating layer conv11
I1020 05:09:01.591478 10880 net.cpp:100] Creating Layer conv11
I1020 05:09:01.591482 10880 net.cpp:434] conv11 <- pool6
I1020 05:09:01.591485 10880 net.cpp:408] conv11 -> conv11
I1020 05:09:01.592316 10880 net.cpp:150] Setting up conv11
I1020 05:09:01.592327 10880 net.cpp:157] Top shape: 100 100 1 1 (10000)
I1020 05:09:01.592332 10880 net.cpp:165] Memory required for data: 209858800
I1020 05:09:01.592339 10880 layer_factory.hpp:77] Creating layer elu11
I1020 05:09:01.592345 10880 net.cpp:100] Creating Layer elu11
I1020 05:09:01.592360 10880 net.cpp:434] elu11 <- conv11
I1020 05:09:01.592368 10880 net.cpp:408] elu11 -> elu11
I1020 05:09:01.592391 10880 net.cpp:150] Setting up elu11
I1020 05:09:01.592394 10880 net.cpp:157] Top shape: 100 100 1 1 (10000)
I1020 05:09:01.592396 10880 net.cpp:165] Memory required for data: 209898800
I1020 05:09:01.592398 10880 layer_factory.hpp:77] Creating layer drop7
I1020 05:09:01.592401 10880 net.cpp:100] Creating Layer drop7
I1020 05:09:01.592403 10880 net.cpp:434] drop7 <- elu11
I1020 05:09:01.592407 10880 net.cpp:408] drop7 -> drop7
I1020 05:09:01.592433 10880 net.cpp:150] Setting up drop7
I1020 05:09:01.592438 10880 net.cpp:157] Top shape: 100 100 1 1 (10000)
I1020 05:09:01.592442 10880 net.cpp:165] Memory required for data: 209938800
I1020 05:09:01.592442 10880 layer_factory.hpp:77] Creating layer pool7
I1020 05:09:01.592447 10880 net.cpp:100] Creating Layer pool7
I1020 05:09:01.592448 10880 net.cpp:434] pool7 <- drop7
I1020 05:09:01.592452 10880 net.cpp:408] pool7 -> pool7
I1020 05:09:01.592476 10880 net.cpp:150] Setting up pool7
I1020 05:09:01.592481 10880 net.cpp:157] Top shape: 100 100 1 1 (10000)
I1020 05:09:01.592483 10880 net.cpp:165] Memory required for data: 209978800
I1020 05:09:01.592484 10880 layer_factory.hpp:77] Creating layer score
I1020 05:09:01.592489 10880 net.cpp:100] Creating Layer score
I1020 05:09:01.592491 10880 net.cpp:434] score <- pool7
I1020 05:09:01.592494 10880 net.cpp:408] score -> score
I1020 05:09:01.592582 10880 net.cpp:150] Setting up score
I1020 05:09:01.592586 10880 net.cpp:157] Top shape: 100 10 (1000)
I1020 05:09:01.592588 10880 net.cpp:165] Memory required for data: 209982800
I1020 05:09:01.592592 10880 layer_factory.hpp:77] Creating layer score_score_0_split
I1020 05:09:01.592595 10880 net.cpp:100] Creating Layer score_score_0_split
I1020 05:09:01.592599 10880 net.cpp:434] score_score_0_split <- score
I1020 05:09:01.592602 10880 net.cpp:408] score_score_0_split -> score_score_0_split_0
I1020 05:09:01.592607 10880 net.cpp:408] score_score_0_split -> score_score_0_split_1
I1020 05:09:01.592631 10880 net.cpp:150] Setting up score_score_0_split
I1020 05:09:01.592635 10880 net.cpp:157] Top shape: 100 10 (1000)
I1020 05:09:01.592638 10880 net.cpp:157] Top shape: 100 10 (1000)
I1020 05:09:01.592639 10880 net.cpp:165] Memory required for data: 209990800
I1020 05:09:01.592641 10880 layer_factory.hpp:77] Creating layer accuracy
I1020 05:09:01.592644 10880 net.cpp:100] Creating Layer accuracy
I1020 05:09:01.592648 10880 net.cpp:434] accuracy <- score_score_0_split_0
I1020 05:09:01.592649 10880 net.cpp:434] accuracy <- label_data_1_split_0
I1020 05:09:01.592653 10880 net.cpp:408] accuracy -> accuracy
…
