…
  stage: ""
}
type: "Adam"
I1018 19:17:29.161558  4743 solver.cpp:81] Creating training net from train_net file: /home/adam/Honours/Honours-Project/mnist_pooling/max/leakyrelu/poolcnn_leakyrelu_train.prototxt
I1018 19:17:29.161881  4743 net.cpp:58] Initializing net from parameters: 
state {
  phase: TRAIN
  level: 0
  stage: ""
}
layer {
  name: "data"
  type: "Data"
  top: "data"
  top: "label"
  transform_param {
    scale: 0.0039215689
  }
  data_param {
    source: "../../../../data/mnist/mnist_train_lmdb"
    batch_size: 64
    backend: LMDB
  }
}
layer {
  name: "conv1"
  type: "Convolution"
  bottom: "data"
  top: "conv1"
  convolution_param {
    num_output: 192
    kernel_size: 5
    weight_filler {
      type: "xavier"
    }
  }
}
layer {
  name: "pool1"
  type: "Pooling"
  bottom: "conv1"
  top: "pool1"
  pooling_param {
    pool: MAX
    kernel_size: 2
    stride: 2
  }
}
layer {
  name: "drop1"
  type: "Dropout"
  bottom: "pool1"
  top: "drop1"
  dropout_param {
    dropout_ratio: 0
  }
}
layer {
  name: "relu1"
  type: "ReLU"
  bottom: "drop1"
  top: "relu1"
  relu_param {
    negative_slope: 0.01
  }
}
layer {
  name: "conv2"
  type: "Convolution"
  bottom: "relu1"
  top: "conv2"
  convolution_param {
    num_output: 192
    kernel_size: 1
    weight_filler {
      type: "xavier"
    }
  }
}
layer {
  name: "conv3"
  type: "Convolution"
  bottom: "conv2"
  top: "conv3"
  convolution_param {
    num_output: 240
    kernel_size: 3
    weight_filler {
      type: "xavier"
    }
  }
}
layer {
  name: "pool2"
  type: "Pooling"
  bottom: "conv3"
  top: "pool2"
  pooling_param {
    pool: MAX
    kernel_size: 2
    stride: 2
  }
}
layer {
  name: "drop2"
  type: "Dropout"
  bottom: "pool2"
  top: "drop2"
  dropout_param {
    dropout_ratio: 0.1
  }
}
layer {
  name: "relu2"
  type: "ReLU"
  bottom: "drop2"
  top: "relu2"
  relu_param {
    negative_slope: 0.01
  }
}
layer {
  name: "conv4"
  type: "Convolution"
  bottom: "relu2"
  top: "conv4"
  convolution_param {
    num_output: 240
    kernel_size: 1
    weight_filler {
      type: "xavier"
    }
  }
}
layer {
  name: "conv5"
  type: "Convolution"
  bottom: "conv4"
  top: "conv5"
  convolution_param {
    num_output: 260
    kernel_size: 2
    weight_filler {
      type: "xavier"
    }
  }
}
layer {
  name: "pool3"
  type: "Pooling"
  bottom: "conv5"
  top: "pool3"
  pooling_param {
    pool: MAX
    kernel_size: 2
    stride: 2
  }
}
layer {
  name: "drop3"
  type: "Dropout"
  bottom: "pool3"
  top: "drop3"
  dropout_param {
    dropout_ratio: 0.2
  }
}
layer {
  name: "relu3"
  type: "ReLU"
  bottom: "drop3"
  top: "relu3"
  relu_param {
    negative_slope: 0.01
  }
}
layer {
  name: "conv6"
  type: "Convolution"
  bottom: "relu3"
  top: "conv6"
  convolution_param {
    num_output: 260
    kernel_size: 1
    weight_filler {
      type: "xavier"
    }
  }
}
layer {
  name: "conv7"
  type: "Convolution"
  bottom: "conv6"
  top: "conv7"
  convolution_param {
    num_output: 280
    kernel_size: 2
    weight_filler {
      type: "xavier"
    }
  }
}
layer {
  name: "pool4"
  type: "Pooling"
  bottom: "conv7"
  top: "pool4"
  pooling_param {
    pool: MAX
    kernel_size: 2
    stride: 2
  }
}
layer {
  name: "drop4"
  type: "Dropout"
  bottom: "pool4"
  top: "drop4"
  dropout_param {
    dropout_ratio: 0.3
  }
}
layer {
  name: "relu4"
  type: "ReLU"
  bottom: "drop4"
  top: "relu4"
  relu_param {
    negative_slope: 0.01
  }
}
layer {
  name: "conv8"
  type: "Convolution"
  bottom: "relu4"
  top: "conv8"
  convolution_param {
    num_output: 280
    kernel_size: 1
    weight_filler {
      type: "xavier"
    }
  }
}
layer {
  name: "pool5"
  type: "Pooling"
  bottom: "conv8"
  top: "pool5"
  pooling_param {
    pool: MAX
    kernel_size: 2
    stride: 2
  }
}
layer {
  name: "drop5"
  type: "Dropout"
  bottom: "pool5"
  top: "drop5"
  dropout_param {
    dropout_ratio: 0.4
  }
}
layer {
  name: "relu5"
  type: "ReLU"
  bottom: "drop5"
  top: "relu5"
  relu_param {
    negative_slope: 0.01
  }
}
layer {
  name: "conv10"
  type: "Convolution"
  bottom: "relu5"
  top: "conv10"
  convolution_param {
    num_output: 300
    kernel_size: 1
    weight_filler {
      type: "xavier"
    }
  }
}
layer {
  name: "pool6"
  type: "Pooling"
  bottom: "conv10"
  top: "pool6"
  pooling_param {
    pool: MAX
    kernel_size: 2
    stride: 2
  }
}
layer {
  name: "drop6"
  type: "Dropout"
  bottom: "pool6"
  top: "drop6"
  dropout_param {
    dropout_ratio: 0.5
  }
}
layer {
  name: "relu6"
  type: "ReLU"
  bottom: "drop6"
  top: "relu6"
  relu_param {
    negative_slope: 0.01
  }
}
layer {
  name: "conv11"
  type: "Convolution"
  bottom: "relu6"
  top: "conv11"
  convolution_param {
    num_output: 100
    kernel_size: 1
    weight_filler {
      type: "xavier"
    }
  }
}
layer {
  name: "pool7"
  type: "Pooling"
  bottom: "conv11"
  top: "pool7"
  pooling_param {
    pool: MAX
    kernel_size: 2
    stride: 2
  }
}
layer {
  name: "drop7"
  type: "Dropout"
  bottom: "pool7"
  top: "drop7"
  dropout_param {
    dropout_ratio: 0
  }
}
layer {
  name: "relu7"
  type: "ReLU"
  bottom: "drop7"
  top: "relu7"
  relu_param {
    negative_slope: 0.01
  }
}
layer {
  name: "pool"
  type: "Pooling"
  bottom: "relu7"
  top: "pool"
  pooling_param {
    pool: AVE
    global_pooling: true
  }
}
layer {
  name: "flatten"
  type: "Flatten"
  bottom: "pool"
  top: "flatten"
}
layer {
  name: "score"
  type: "InnerProduct"
  bottom: "flatten"
  top: "score"
  inner_product_param {
    num_output: 10
    weight_filler {
      type: "gaussian"
    }
  }
}
layer {
  name: "accuracy"
  type: "Accuracy"
  bottom: "score"
  bottom: "label"
  top: "accuracy"
}
layer {
  name: "loss"
  type: "SoftmaxWithLoss"
  bottom: "score"
  bottom: "label"
  top: "loss"
}
I1018 19:17:29.162001  4743 layer_factory.hpp:77] Creating layer data
I1018 19:17:29.162380  4743 net.cpp:100] Creating Layer data
I1018 19:17:29.162386  4743 net.cpp:408] data -> data
I1018 19:17:29.162405  4743 net.cpp:408] data -> label
I1018 19:17:29.162974  4749 db_lmdb.cpp:35] Opened lmdb ../../../../data/mnist/mnist_train_lmdb
I1018 19:17:29.168467  4743 data_layer.cpp:41] output data size: 64,1,28,28
I1018 19:17:29.169033  4743 net.cpp:150] Setting up data
I1018 19:17:29.169042  4743 net.cpp:157] Top shape: 64 1 28 28 (50176)
I1018 19:17:29.169045  4743 net.cpp:157] Top shape: 64 (64)
I1018 19:17:29.169047  4743 net.cpp:165] Memory required for data: 200960
I1018 19:17:29.169054  4743 layer_factory.hpp:77] Creating layer label_data_1_split
I1018 19:17:29.169061  4743 net.cpp:100] Creating Layer label_data_1_split
I1018 19:17:29.169066  4743 net.cpp:434] label_data_1_split <- label
I1018 19:17:29.169075  4743 net.cpp:408] label_data_1_split -> label_data_1_split_0
I1018 19:17:29.169081  4743 net.cpp:408] label_data_1_split -> label_data_1_split_1
I1018 19:17:29.169114  4743 net.cpp:150] Setting up label_data_1_split
I1018 19:17:29.169118  4743 net.cpp:157] Top shape: 64 (64)
I1018 19:17:29.169121  4743 net.cpp:157] Top shape: 64 (64)
I1018 19:17:29.169121  4743 net.cpp:165] Memory required for data: 201472
I1018 19:17:29.169123  4743 layer_factory.hpp:77] Creating layer conv1
I1018 19:17:29.169134  4743 net.cpp:100] Creating Layer conv1
I1018 19:17:29.169137  4743 net.cpp:434] conv1 <- data
I1018 19:17:29.169139  4743 net.cpp:408] conv1 -> conv1
I1018 19:17:29.289007  4743 net.cpp:150] Setting up conv1
I1018 19:17:29.289036  4743 net.cpp:157] Top shape: 64 192 24 24 (7077888)
I1018 19:17:29.289038  4743 net.cpp:165] Memory required for data: 28513024
I1018 19:17:29.289088  4743 layer_factory.hpp:77] Creating layer pool1
I1018 19:17:29.289099  4743 net.cpp:100] Creating Layer pool1
I1018 19:17:29.289103  4743 net.cpp:434] pool1 <- conv1
I1018 19:17:29.289109  4743 net.cpp:408] pool1 -> pool1
I1018 19:17:29.289152  4743 net.cpp:150] Setting up pool1
I1018 19:17:29.289156  4743 net.cpp:157] Top shape: 64 192 12 12 (1769472)
I1018 19:17:29.289158  4743 net.cpp:165] Memory required for data: 35590912
I1018 19:17:29.289160  4743 layer_factory.hpp:77] Creating layer drop1
I1018 19:17:29.289165  4743 net.cpp:100] Creating Layer drop1
I1018 19:17:29.289166  4743 net.cpp:434] drop1 <- pool1
I1018 19:17:29.289170  4743 net.cpp:408] drop1 -> drop1
I1018 19:17:29.289192  4743 net.cpp:150] Setting up drop1
I1018 19:17:29.289196  4743 net.cpp:157] Top shape: 64 192 12 12 (1769472)
I1018 19:17:29.289196  4743 net.cpp:165] Memory required for data: 42668800
I1018 19:17:29.289198  4743 layer_factory.hpp:77] Creating layer relu1
I1018 19:17:29.289201  4743 net.cpp:100] Creating Layer relu1
I1018 19:17:29.289203  4743 net.cpp:434] relu1 <- drop1
I1018 19:17:29.289206  4743 net.cpp:408] relu1 -> relu1
I1018 19:17:29.289317  4743 net.cpp:150] Setting up relu1
I1018 19:17:29.289321  4743 net.cpp:157] Top shape: 64 192 12 12 (1769472)
I1018 19:17:29.289324  4743 net.cpp:165] Memory required for data: 49746688
I1018 19:17:29.289324  4743 layer_factory.hpp:77] Creating layer conv2
I1018 19:17:29.289331  4743 net.cpp:100] Creating Layer conv2
I1018 19:17:29.289333  4743 net.cpp:434] conv2 <- relu1
I1018 19:17:29.289336  4743 net.cpp:408] conv2 -> conv2
I1018 19:17:29.290133  4743 net.cpp:150] Setting up conv2
I1018 19:17:29.290143  4743 net.cpp:157] Top shape: 64 192 12 12 (1769472)
I1018 19:17:29.290146  4743 net.cpp:165] Memory required for data: 56824576
I1018 19:17:29.290154  4743 layer_factory.hpp:77] Creating layer conv3
I1018 19:17:29.290161  4743 net.cpp:100] Creating Layer conv3
I1018 19:17:29.290165  4743 net.cpp:434] conv3 <- conv2
I1018 19:17:29.290170  4743 net.cpp:408] conv3 -> conv3
I1018 19:17:29.292562  4743 net.cpp:150] Setting up conv3
I1018 19:17:29.292570  4743 net.cpp:157] Top shape: 64 240 10 10 (1536000)
I1018 19:17:29.292574  4743 net.cpp:165] Memory required for data: 62968576
I1018 19:17:29.292582  4743 layer_factory.hpp:77] Creating layer pool2
I1018 19:17:29.292589  4743 net.cpp:100] Creating Layer pool2
I1018 19:17:29.292593  4743 net.cpp:434] pool2 <- conv3
I1018 19:17:29.292599  4743 net.cpp:408] pool2 -> pool2
I1018 19:17:29.292626  4743 net.cpp:150] Setting up pool2
I1018 19:17:29.292631  4743 net.cpp:157] Top shape: 64 240 5 5 (384000)
I1018 19:17:29.292635  4743 net.cpp:165] Memory required for data: 64504576
I1018 19:17:29.292640  4743 layer_factory.hpp:77] Creating layer drop2
I1018 19:17:29.292644  4743 net.cpp:100] Creating Layer drop2
I1018 19:17:29.292649  4743 net.cpp:434] drop2 <- pool2
I1018 19:17:29.292652  4743 net.cpp:408] drop2 -> drop2
I1018 19:17:29.292675  4743 net.cpp:150] Setting up drop2
I1018 19:17:29.292680  4743 net.cpp:157] Top shape: 64 240 5 5 (384000)
I1018 19:17:29.292682  4743 net.cpp:165] Memory required for data: 66040576
I1018 19:17:29.292685  4743 layer_factory.hpp:77] Creating layer relu2
I1018 19:17:29.292690  4743 net.cpp:100] Creating Layer relu2
I1018 19:17:29.292693  4743 net.cpp:434] relu2 <- drop2
I1018 19:17:29.292697  4743 net.cpp:408] relu2 -> relu2
I1018 19:17:29.292803  4743 net.cpp:150] Setting up relu2
I1018 19:17:29.292809  4743 net.cpp:157] Top shape: 64 240 5 5 (384000)
I1018 19:17:29.292812  4743 net.cpp:165] Memory required for data: 67576576
I1018 19:17:29.292816  4743 layer_factory.hpp:77] Creating layer conv4
I1018 19:17:29.292824  4743 net.cpp:100] Creating Layer conv4
I1018 19:17:29.292826  4743 net.cpp:434] conv4 <- relu2
I1018 19:17:29.292831  4743 net.cpp:408] conv4 -> conv4
I1018 19:17:29.293608  4743 net.cpp:150] Setting up conv4
I1018 19:17:29.293617  4743 net.cpp:157] Top shape: 64 240 5 5 (384000)
I1018 19:17:29.293620  4743 net.cpp:165] Memory required for data: 69112576
I1018 19:17:29.293627  4743 layer_factory.hpp:77] Creating layer conv5
I1018 19:17:29.293640  4743 net.cpp:100] Creating Layer conv5
I1018 19:17:29.293644  4743 net.cpp:434] conv5 <- conv4
I1018 19:17:29.293650  4743 net.cpp:408] conv5 -> conv5
I1018 19:17:29.295372  4743 net.cpp:150] Setting up conv5
I1018 19:17:29.295382  4743 net.cpp:157] Top shape: 64 260 4 4 (266240)
I1018 19:17:29.295384  4743 net.cpp:165] Memory required for data: 70177536
I1018 19:17:29.295393  4743 layer_factory.hpp:77] Creating layer pool3
I1018 19:17:29.295399  4743 net.cpp:100] Creating Layer pool3
I1018 19:17:29.295403  4743 net.cpp:434] pool3 <- conv5
I1018 19:17:29.295408  4743 net.cpp:408] pool3 -> pool3
I1018 19:17:29.295435  4743 net.cpp:150] Setting up pool3
I1018 19:17:29.295440  4743 net.cpp:157] Top shape: 64 260 2 2 (66560)
I1018 19:17:29.295444  4743 net.cpp:165] Memory required for data: 70443776
I1018 19:17:29.295446  4743 layer_factory.hpp:77] Creating layer drop3
I1018 19:17:29.295452  4743 net.cpp:100] Creating Layer drop3
I1018 19:17:29.295456  4743 net.cpp:434] drop3 <- pool3
I1018 19:17:29.295460  4743 net.cpp:408] drop3 -> drop3
I1018 19:17:29.295488  4743 net.cpp:150] Setting up drop3
I1018 19:17:29.295495  4743 net.cpp:157] Top shape: 64 260 2 2 (66560)
I1018 19:17:29.295497  4743 net.cpp:165] Memory required for data: 70710016
I1018 19:17:29.295500  4743 layer_factory.hpp:77] Creating layer relu3
I1018 19:17:29.295506  4743 net.cpp:100] Creating Layer relu3
I1018 19:17:29.295509  4743 net.cpp:434] relu3 <- drop3
I1018 19:17:29.295514  4743 net.cpp:408] relu3 -> relu3
I1018 19:17:29.295621  4743 net.cpp:150] Setting up relu3
I1018 19:17:29.295627  4743 net.cpp:157] Top shape: 64 260 2 2 (66560)
I1018 19:17:29.295630  4743 net.cpp:165] Memory required for data: 70976256
I1018 19:17:29.295634  4743 layer_factory.hpp:77] Creating layer conv6
I1018 19:17:29.295642  4743 net.cpp:100] Creating Layer conv6
I1018 19:17:29.295644  4743 net.cpp:434] conv6 <- relu3
I1018 19:17:29.295651  4743 net.cpp:408] conv6 -> conv6
I1018 19:17:29.296712  4743 net.cpp:150] Setting up conv6
I1018 19:17:29.296721  4743 net.cpp:157] Top shape: 64 260 2 2 (66560)
I1018 19:17:29.296725  4743 net.cpp:165] Memory required for data: 71242496
I1018 19:17:29.296731  4743 layer_factory.hpp:77] Creating layer conv7
I1018 19:17:29.296738  4743 net.cpp:100] Creating Layer conv7
I1018 19:17:29.296741  4743 net.cpp:434] conv7 <- conv6
I1018 19:17:29.296746  4743 net.cpp:408] conv7 -> conv7
I1018 19:17:29.298619  4743 net.cpp:150] Setting up conv7
I1018 19:17:29.298626  4743 net.cpp:157] Top shape: 64 280 1 1 (17920)
I1018 19:17:29.298630  4743 net.cpp:165] Memory required for data: 71314176
I1018 19:17:29.298636  4743 layer_factory.hpp:77] Creating layer pool4
I1018 19:17:29.298642  4743 net.cpp:100] Creating Layer pool4
I1018 19:17:29.298646  4743 net.cpp:434] pool4 <- conv7
I1018 19:17:29.298652  4743 net.cpp:408] pool4 -> pool4
I1018 19:17:29.298678  4743 net.cpp:150] Setting up pool4
I1018 19:17:29.298683  4743 net.cpp:157] Top shape: 64 280 1 1 (17920)
I1018 19:17:29.298686  4743 net.cpp:165] Memory required for data: 71385856
I1018 19:17:29.298691  4743 layer_factory.hpp:77] Creating layer drop4
I1018 19:17:29.298694  4743 net.cpp:100] Creating Layer drop4
I1018 19:17:29.298698  4743 net.cpp:434] drop4 <- pool4
I1018 19:17:29.298702  4743 net.cpp:408] drop4 -> drop4
I1018 19:17:29.298725  4743 net.cpp:150] Setting up drop4
I1018 19:17:29.298729  4743 net.cpp:157] Top shape: 64 280 1 1 (17920)
I1018 19:17:29.298733  4743 net.cpp:165] Memory required for data: 71457536
I1018 19:17:29.298738  4743 layer_factory.hpp:77] Creating layer relu4
I1018 19:17:29.298743  4743 net.cpp:100] Creating Layer relu4
I1018 19:17:29.298746  4743 net.cpp:434] relu4 <- drop4
I1018 19:17:29.298751  4743 net.cpp:408] relu4 -> relu4
I1018 19:17:29.298934  4743 net.cpp:150] Setting up relu4
I1018 19:17:29.298941  4743 net.cpp:157] Top shape: 64 280 1 1 (17920)
I1018 19:17:29.298944  4743 net.cpp:165] Memory required for data: 71529216
I1018 19:17:29.298949  4743 layer_factory.hpp:77] Creating layer conv8
I1018 19:17:29.298964  4743 net.cpp:100] Creating Layer conv8
I1018 19:17:29.298969  4743 net.cpp:434] conv8 <- relu4
I1018 19:17:29.298974  4743 net.cpp:408] conv8 -> conv8
I1018 19:17:29.299777  4743 net.cpp:150] Setting up conv8
I1018 19:17:29.299785  4743 net.cpp:157] Top shape: 64 280 1 1 (17920)
I1018 19:17:29.299788  4743 net.cpp:165] Memory required for data: 71600896
I1018 19:17:29.299794  4743 layer_factory.hpp:77] Creating layer pool5
I1018 19:17:29.299800  4743 net.cpp:100] Creating Layer pool5
I1018 19:17:29.299804  4743 net.cpp:434] pool5 <- conv8
I1018 19:17:29.299809  4743 net.cpp:408] pool5 -> pool5
I1018 19:17:29.299837  4743 net.cpp:150] Setting up pool5
I1018 19:17:29.299842  4743 net.cpp:157] Top shape: 64 280 1 1 (17920)
I1018 19:17:29.299845  4743 net.cpp:165] Memory required for data: 71672576
I1018 19:17:29.299849  4743 layer_factory.hpp:77] Creating layer drop5
I1018 19:17:29.299854  4743 net.cpp:100] Creating Layer drop5
I1018 19:17:29.299859  4743 net.cpp:434] drop5 <- pool5
I1018 19:17:29.299862  4743 net.cpp:408] drop5 -> drop5
I1018 19:17:29.299885  4743 net.cpp:150] Setting up drop5
I1018 19:17:29.299890  4743 net.cpp:157] Top shape: 64 280 1 1 (17920)
I1018 19:17:29.299895  4743 net.cpp:165] Memory required for data: 71744256
I1018 19:17:29.299898  4743 layer_factory.hpp:77] Creating layer relu5
I1018 19:17:29.299903  4743 net.cpp:100] Creating Layer relu5
I1018 19:17:29.299906  4743 net.cpp:434] relu5 <- drop5
I1018 19:17:29.299912  4743 net.cpp:408] relu5 -> relu5
I1018 19:17:29.300169  4743 net.cpp:150] Setting up relu5
I1018 19:17:29.300176  4743 net.cpp:157] Top shape: 64 280 1 1 (17920)
I1018 19:17:29.300179  4743 net.cpp:165] Memory required for data: 71815936
I1018 19:17:29.300184  4743 layer_factory.hpp:77] Creating layer conv10
I1018 19:17:29.300191  4743 net.cpp:100] Creating Layer conv10
I1018 19:17:29.300194  4743 net.cpp:434] conv10 <- relu5
I1018 19:17:29.300199  4743 net.cpp:408] conv10 -> conv10
I1018 19:17:29.301102  4743 net.cpp:150] Setting up conv10
I1018 19:17:29.301111  4743 net.cpp:157] Top shape: 64 300 1 1 (19200)
I1018 19:17:29.301115  4743 net.cpp:165] Memory required for data: 71892736
I1018 19:17:29.301125  4743 layer_factory.hpp:77] Creating layer pool6
I1018 19:17:29.301131  4743 net.cpp:100] Creating Layer pool6
I1018 19:17:29.301134  4743 net.cpp:434] pool6 <- conv10
I1018 19:17:29.301139  4743 net.cpp:408] pool6 -> pool6
I1018 19:17:29.301167  4743 net.cpp:150] Setting up pool6
I1018 19:17:29.301172  4743 net.cpp:157] Top shape: 64 300 1 1 (19200)
I1018 19:17:29.301175  4743 net.cpp:165] Memory required for data: 71969536
I1018 19:17:29.301178  4743 layer_factory.hpp:77] Creating layer drop6
I1018 19:17:29.301183  4743 net.cpp:100] Creating Layer drop6
I1018 19:17:29.301187  4743 net.cpp:434] drop6 <- pool6
I1018 19:17:29.301192  4743 net.cpp:408] drop6 -> drop6
I1018 19:17:29.301218  4743 net.cpp:150] Setting up drop6
I1018 19:17:29.301223  4743 net.cpp:157] Top shape: 64 300 1 1 (19200)
I1018 19:17:29.301226  4743 net.cpp:165] Memory required for data: 72046336
I1018 19:17:29.301229  4743 layer_factory.hpp:77] Creating layer relu6
I1018 19:17:29.301234  4743 net.cpp:100] Creating Layer relu6
I1018 19:17:29.301236  4743 net.cpp:434] relu6 <- drop6
I1018 19:17:29.301241  4743 net.cpp:408] relu6 -> relu6
I1018 19:17:29.301391  4743 net.cpp:150] Setting up relu6
I1018 19:17:29.301398  4743 net.cpp:157] Top shape: 64 300 1 1 (19200)
I1018 19:17:29.301401  4743 net.cpp:165] Memory required for data: 72123136
I1018 19:17:29.301404  4743 layer_factory.hpp:77] Creating layer conv11
I1018 19:17:29.301412  4743 net.cpp:100] Creating Layer conv11
I1018 19:17:29.301415  4743 net.cpp:434] conv11 <- relu6
I1018 19:17:29.301420  4743 net.cpp:408] conv11 -> conv11
I1018 19:17:29.302412  4743 net.cpp:150] Setting up conv11
I1018 19:17:29.302422  4743 net.cpp:157] Top shape: 64 100 1 1 (6400)
I1018 19:17:29.302424  4743 net.cpp:165] Memory required for data: 72148736
I1018 19:17:29.302430  4743 layer_factory.hpp:77] Creating layer pool7
I1018 19:17:29.302438  4743 net.cpp:100] Creating Layer pool7
I1018 19:17:29.302450  4743 net.cpp:434] pool7 <- conv11
I1018 19:17:29.302456  4743 net.cpp:408] pool7 -> pool7
I1018 19:17:29.302487  4743 net.cpp:150] Setting up pool7
I1018 19:17:29.302494  4743 net.cpp:157] Top shape: 64 100 1 1 (6400)
I1018 19:17:29.302496  4743 net.cpp:165] Memory required for data: 72174336
I1018 19:17:29.302500  4743 layer_factory.hpp:77] Creating layer drop7
I1018 19:17:29.302505  4743 net.cpp:100] Creating Layer drop7
I1018 19:17:29.302508  4743 net.cpp:434] drop7 <- pool7
I1018 19:17:29.302513  4743 net.cpp:408] drop7 -> drop7
I1018 19:17:29.302538  4743 net.cpp:150] Setting up drop7
I1018 19:17:29.302543  4743 net.cpp:157] Top shape: 64 100 1 1 (6400)
I1018 19:17:29.302547  4743 net.cpp:165] Memory required for data: 72199936
I1018 19:17:29.302551  4743 layer_factory.hpp:77] Creating layer relu7
I1018 19:17:29.302557  4743 net.cpp:100] Creating Layer relu7
I1018 19:17:29.302561  4743 net.cpp:434] relu7 <- drop7
I1018 19:17:29.302567  4743 net.cpp:408] relu7 -> relu7
I1018 19:17:29.303022  4743 net.cpp:150] Setting up relu7
I1018 19:17:29.303030  4743 net.cpp:157] Top shape: 64 100 1 1 (6400)
I1018 19:17:29.303033  4743 net.cpp:165] Memory required for data: 72225536
I1018 19:17:29.303037  4743 layer_factory.hpp:77] Creating layer pool
I1018 19:17:29.303043  4743 net.cpp:100] Creating Layer pool
I1018 19:17:29.303046  4743 net.cpp:434] pool <- relu7
I1018 19:17:29.303052  4743 net.cpp:408] pool -> pool
I1018 19:17:29.303182  4743 net.cpp:150] Setting up pool
I1018 19:17:29.303190  4743 net.cpp:157] Top shape: 64 100 1 1 (6400)
I1018 19:17:29.303194  4743 net.cpp:165] Memory required for data: 72251136
I1018 19:17:29.303197  4743 layer_factory.hpp:77] Creating layer flatten
I1018 19:17:29.303203  4743 net.cpp:100] Creating Layer flatten
I1018 19:17:29.303206  4743 net.cpp:434] flatten <- pool
I1018 19:17:29.303211  4743 net.cpp:408] flatten -> flatten
I1018 19:17:29.303231  4743 net.cpp:150] Setting up flatten
I1018 19:17:29.303236  4743 net.cpp:157] Top shape: 64 100 (6400)
I1018 19:17:29.303238  4743 net.cpp:165] Memory required for data: 72276736
I1018 19:17:29.303241  4743 layer_factory.hpp:77] Creating layer score
I1018 19:17:29.303248  4743 net.cpp:100] Creating Layer score
I1018 19:17:29.303251  4743 net.cpp:434] score <- flatten
I1018 19:17:29.303256  4743 net.cpp:408] score -> score
I1018 19:17:29.303369  4743 net.cpp:150] Setting up score
I1018 19:17:29.303375  4743 net.cpp:157] Top shape: 64 10 (640)
I1018 19:17:29.303377  4743 net.cpp:165] Memory required for data: 72279296
I1018 19:17:29.303383  4743 layer_factory.hpp:77] Creating layer score_score_0_split
I1018 19:17:29.303390  4743 net.cpp:100] Creating Layer score_score_0_split
I1018 19:17:29.303393  4743 net.cpp:434] score_score_0_split <- score
I1018 19:17:29.303398  4743 net.cpp:408] score_score_0_split -> score_score_0_split_0
I1018 19:17:29.303406  4743 net.cpp:408] score_score_0_split -> score_score_0_split_1
I1018 19:17:29.303432  4743 net.cpp:150] Setting up score_score_0_split
I1018 19:17:29.303436  4743 net.cpp:157] Top shape: 64 10 (640)
I1018 19:17:29.303442  4743 net.cpp:157] Top shape: 64 10 (640)
I1018 19:17:29.303444  4743 net.cpp:165] Memory required for data: 72284416
I1018 19:17:29.303447  4743 layer_factory.hpp:77] Creating layer accuracy
I1018 19:17:29.303452  4743 net.cpp:100] Creating Layer accuracy
I1018 19:17:29.303457  4743 net.cpp:434] accuracy <- score_score_0_split_0
I1018 19:17:29.303460  4743 net.cpp:434] accuracy <- label_data_1_split_0
I1018 19:17:29.303467  4743 net.cpp:408] accuracy -> accuracy
…
I1018 19:17:29.304008  4743 net.cpp:283] Network initialization done.
I1018 19:17:29.304195  4743 solver.cpp:181] Creating test net (#0) specified by test_net file: /home/adam/Honours/Honours-Project/mnist_pooling/max/leakyrelu/poolcnn_leakyrelu_test.prototxt
I1018 19:17:29.304316  4743 net.cpp:58] Initializing net from parameters: 
state {
  phase: TEST
}
layer {
  name: "data"
  type: "Data"
  top: "data"
  top: "label"
  transform_param {
    scale: 0.0039215689
  }
  data_param {
    source: "../../../../data/mnist/mnist_test_lmdb"
    batch_size: 100
    backend: LMDB
  }
}
layer {
  name: "conv1"
  type: "Convolution"
  bottom: "data"
  top: "conv1"
  convolution_param {
    num_output: 192
    kernel_size: 5
    weight_filler {
      type: "xavier"
    }
  }
}
layer {
  name: "pool1"
  type: "Pooling"
  bottom: "conv1"
  top: "pool1"
  pooling_param {
    pool: MAX
    kernel_size: 2
    stride: 2
  }
}
layer {
  name: "drop1"
  type: "Dropout"
  bottom: "pool1"
  top: "drop1"
  dropout_param {
    dropout_ratio: 0
  }
}
layer {
  name: "relu1"
  type: "ReLU"
  bottom: "drop1"
  top: "relu1"
  relu_param {
    negative_slope: 0.01
  }
}
layer {
  name: "conv2"
  type: "Convolution"
  bottom: "relu1"
  top: "conv2"
  convolution_param {
    num_output: 192
    kernel_size: 1
    weight_filler {
      type: "xavier"
    }
  }
}
layer {
  name: "conv3"
  type: "Convolution"
  bottom: "conv2"
  top: "conv3"
  convolution_param {
    num_output: 240
    kernel_size: 3
    weight_filler {
      type: "xavier"
    }
  }
}
layer {
  name: "pool2"
  type: "Pooling"
  bottom: "conv3"
  top: "pool2"
  pooling_param {
    pool: MAX
    kernel_size: 2
    stride: 2
  }
}
layer {
  name: "drop2"
  type: "Dropout"
  bottom: "pool2"
  top: "drop2"
  dropout_param {
    dropout_ratio: 0.1
  }
}
layer {
  name: "relu2"
  type: "ReLU"
  bottom: "drop2"
  top: "relu2"
  relu_param {
    negative_slope: 0.01
  }
}
layer {
  name: "conv4"
  type: "Convolution"
  bottom: "relu2"
  top: "conv4"
  convolution_param {
    num_output: 240
    kernel_size: 1
    weight_filler {
      type: "xavier"
    }
  }
}
layer {
  name: "conv5"
  type: "Convolution"
  bottom: "conv4"
  top: "conv5"
  convolution_param {
    num_output: 260
    kernel_size: 2
    weight_filler {
      type: "xavier"
    }
  }
}
layer {
  name: "pool3"
  type: "Pooling"
  bottom: "conv5"
  top: "pool3"
  pooling_param {
    pool: MAX
    kernel_size: 2
    stride: 2
  }
}
layer {
  name: "drop3"
  type: "Dropout"
  bottom: "pool3"
  top: "drop3"
  dropout_param {
    dropout_ratio: 0.2
  }
}
layer {
  name: "relu3"
  type: "ReLU"
  bottom: "drop3"
  top: "relu3"
  relu_param {
    negative_slope: 0.01
  }
}
layer {
  name: "conv6"
  type: "Convolution"
  bottom: "relu3"
  top: "conv6"
  convolution_param {
    num_output: 260
    kernel_size: 1
    weight_filler {
      type: "xavier"
    }
  }
}
layer {
  name: "conv7"
  type: "Convolution"
  bottom: "conv6"
  top: "conv7"
  convolution_param {
    num_output: 280
    kernel_size: 2
    weight_filler {
      type: "xavier"
    }
  }
}
layer {
  name: "pool4"
  type: "Pooling"
  bottom: "conv7"
  top: "pool4"
  pooling_param {
    pool: MAX
    kernel_size: 2
    stride: 2
  }
}
layer {
  name: "drop4"
  type: "Dropout"
  bottom: "pool4"
  top: "drop4"
  dropout_param {
    dropout_ratio: 0.3
  }
}
layer {
  name: "relu4"
  type: "ReLU"
  bottom: "drop4"
  top: "relu4"
  relu_param {
    negative_slope: 0.01
  }
}
layer {
  name: "conv8"
  type: "Convolution"
  bottom: "relu4"
  top: "conv8"
  convolution_param {
    num_output: 280
    kernel_size: 1
    weight_filler {
      type: "xavier"
    }
  }
}
layer {
  name: "pool5"
  type: "Pooling"
  bottom: "conv8"
  top: "pool5"
  pooling_param {
    pool: MAX
    kernel_size: 2
    stride: 2
  }
}
layer {
  name: "drop5"
  type: "Dropout"
  bottom: "pool5"
  top: "drop5"
  dropout_param {
    dropout_ratio: 0.4
  }
}
layer {
  name: "relu5"
  type: "ReLU"
  bottom: "drop5"
  top: "relu5"
  relu_param {
    negative_slope: 0.01
  }
}
layer {
  name: "conv10"
  type: "Convolution"
  bottom: "relu5"
  top: "conv10"
  convolution_param {
    num_output: 300
    kernel_size: 1
    weight_filler {
      type: "xavier"
    }
  }
}
layer {
  name: "pool6"
  type: "Pooling"
  bottom: "conv10"
  top: "pool6"
  pooling_param {
    pool: MAX
    kernel_size: 2
    stride: 2
  }
}
layer {
  name: "drop6"
  type: "Dropout"
  bottom: "pool6"
  top: "drop6"
  dropout_param {
    dropout_ratio: 0.5
  }
}
layer {
  name: "relu6"
  type: "ReLU"
  bottom: "drop6"
  top: "relu6"
  relu_param {
    negative_slope: 0.01
  }
}
layer {
  name: "conv11"
  type: "Convolution"
  bottom: "relu6"
  top: "conv11"
  convolution_param {
    num_output: 100
    kernel_size: 1
    weight_filler {
      type: "xavier"
    }
  }
}
layer {
  name: "pool7"
  type: "Pooling"
  bottom: "conv11"
  top: "pool7"
  pooling_param {
    pool: MAX
    kernel_size: 2
    stride: 2
  }
}
layer {
  name: "drop7"
  type: "Dropout"
  bottom: "pool7"
  top: "drop7"
  dropout_param {
    dropout_ratio: 0
  }
}
layer {
  name: "relu7"
  type: "ReLU"
  bottom: "drop7"
  top: "relu7"
  relu_param {
    negative_slope: 0.01
  }
}
layer {
  name: "pool"
  type: "Pooling"
  bottom: "relu7"
  top: "pool"
  pooling_param {
    pool: AVE
    global_pooling: true
  }
}
layer {
  name: "flatten"
  type: "Flatten"
  bottom: "pool"
  top: "flatten"
}
layer {
  name: "score"
  type: "InnerProduct"
  bottom: "flatten"
  top: "score"
  inner_product_param {
    num_output: 10
    weight_filler {
      type: "gaussian"
    }
  }
}
layer {
  name: "accuracy"
  type: "Accuracy"
  bottom: "score"
  bottom: "label"
  top: "accuracy"
}
layer {
  name: "loss"
  type: "SoftmaxWithLoss"
  bottom: "score"
  bottom: "label"
  top: "loss"
}
I1018 19:17:29.304417  4743 layer_factory.hpp:77] Creating layer data
I1018 19:17:29.304507  4743 net.cpp:100] Creating Layer data
I1018 19:17:29.304512  4743 net.cpp:408] data -> data
I1018 19:17:29.304519  4743 net.cpp:408] data -> label
I1018 19:17:29.305169  4751 db_lmdb.cpp:35] Opened lmdb ../../../../data/mnist/mnist_test_lmdb
I1018 19:17:29.305248  4743 data_layer.cpp:41] output data size: 100,1,28,28
I1018 19:17:29.305912  4743 net.cpp:150] Setting up data
I1018 19:17:29.305922  4743 net.cpp:157] Top shape: 100 1 28 28 (78400)
I1018 19:17:29.305927  4743 net.cpp:157] Top shape: 100 (100)
I1018 19:17:29.305929  4743 net.cpp:165] Memory required for data: 314000
I1018 19:17:29.305933  4743 layer_factory.hpp:77] Creating layer label_data_1_split
I1018 19:17:29.305943  4743 net.cpp:100] Creating Layer label_data_1_split
I1018 19:17:29.305948  4743 net.cpp:434] label_data_1_split <- label
I1018 19:17:29.305953  4743 net.cpp:408] label_data_1_split -> label_data_1_split_0
I1018 19:17:29.305960  4743 net.cpp:408] label_data_1_split -> label_data_1_split_1
I1018 19:17:29.306001  4743 net.cpp:150] Setting up label_data_1_split
I1018 19:17:29.306007  4743 net.cpp:157] Top shape: 100 (100)
I1018 19:17:29.306010  4743 net.cpp:157] Top shape: 100 (100)
I1018 19:17:29.306013  4743 net.cpp:165] Memory required for data: 314800
I1018 19:17:29.306015  4743 layer_factory.hpp:77] Creating layer conv1
I1018 19:17:29.306025  4743 net.cpp:100] Creating Layer conv1
I1018 19:17:29.306028  4743 net.cpp:434] conv1 <- data
I1018 19:17:29.306035  4743 net.cpp:408] conv1 -> conv1
I1018 19:17:29.306751  4743 net.cpp:150] Setting up conv1
I1018 19:17:29.306761  4743 net.cpp:157] Top shape: 100 192 24 24 (11059200)
I1018 19:17:29.306766  4743 net.cpp:165] Memory required for data: 44551600
I1018 19:17:29.306776  4743 layer_factory.hpp:77] Creating layer pool1
I1018 19:17:29.306782  4743 net.cpp:100] Creating Layer pool1
I1018 19:17:29.306787  4743 net.cpp:434] pool1 <- conv1
I1018 19:17:29.306792  4743 net.cpp:408] pool1 -> pool1
I1018 19:17:29.306821  4743 net.cpp:150] Setting up pool1
I1018 19:17:29.306826  4743 net.cpp:157] Top shape: 100 192 12 12 (2764800)
I1018 19:17:29.306831  4743 net.cpp:165] Memory required for data: 55610800
I1018 19:17:29.306834  4743 layer_factory.hpp:77] Creating layer drop1
I1018 19:17:29.306843  4743 net.cpp:100] Creating Layer drop1
I1018 19:17:29.306845  4743 net.cpp:434] drop1 <- pool1
I1018 19:17:29.306851  4743 net.cpp:408] drop1 -> drop1
I1018 19:17:29.306881  4743 net.cpp:150] Setting up drop1
I1018 19:17:29.306890  4743 net.cpp:157] Top shape: 100 192 12 12 (2764800)
I1018 19:17:29.306892  4743 net.cpp:165] Memory required for data: 66670000
I1018 19:17:29.306895  4743 layer_factory.hpp:77] Creating layer relu1
I1018 19:17:29.306900  4743 net.cpp:100] Creating Layer relu1
I1018 19:17:29.306902  4743 net.cpp:434] relu1 <- drop1
I1018 19:17:29.306905  4743 net.cpp:408] relu1 -> relu1
I1018 19:17:29.307124  4743 net.cpp:150] Setting up relu1
I1018 19:17:29.307142  4743 net.cpp:157] Top shape: 100 192 12 12 (2764800)
I1018 19:17:29.307144  4743 net.cpp:165] Memory required for data: 77729200
I1018 19:17:29.307147  4743 layer_factory.hpp:77] Creating layer conv2
I1018 19:17:29.307152  4743 net.cpp:100] Creating Layer conv2
I1018 19:17:29.307154  4743 net.cpp:434] conv2 <- relu1
I1018 19:17:29.307158  4743 net.cpp:408] conv2 -> conv2
I1018 19:17:29.308003  4743 net.cpp:150] Setting up conv2
I1018 19:17:29.308013  4743 net.cpp:157] Top shape: 100 192 12 12 (2764800)
I1018 19:17:29.308017  4743 net.cpp:165] Memory required for data: 88788400
I1018 19:17:29.308022  4743 layer_factory.hpp:77] Creating layer conv3
I1018 19:17:29.308027  4743 net.cpp:100] Creating Layer conv3
I1018 19:17:29.308030  4743 net.cpp:434] conv3 <- conv2
I1018 19:17:29.308035  4743 net.cpp:408] conv3 -> conv3
I1018 19:17:29.310472  4743 net.cpp:150] Setting up conv3
I1018 19:17:29.310479  4743 net.cpp:157] Top shape: 100 240 10 10 (2400000)
I1018 19:17:29.310482  4743 net.cpp:165] Memory required for data: 98388400
I1018 19:17:29.310488  4743 layer_factory.hpp:77] Creating layer pool2
I1018 19:17:29.310493  4743 net.cpp:100] Creating Layer pool2
I1018 19:17:29.310497  4743 net.cpp:434] pool2 <- conv3
I1018 19:17:29.310500  4743 net.cpp:408] pool2 -> pool2
I1018 19:17:29.310528  4743 net.cpp:150] Setting up pool2
I1018 19:17:29.310531  4743 net.cpp:157] Top shape: 100 240 5 5 (600000)
I1018 19:17:29.310534  4743 net.cpp:165] Memory required for data: 100788400
I1018 19:17:29.310535  4743 layer_factory.hpp:77] Creating layer drop2
I1018 19:17:29.310539  4743 net.cpp:100] Creating Layer drop2
I1018 19:17:29.310542  4743 net.cpp:434] drop2 <- pool2
I1018 19:17:29.310545  4743 net.cpp:408] drop2 -> drop2
I1018 19:17:29.310569  4743 net.cpp:150] Setting up drop2
I1018 19:17:29.310573  4743 net.cpp:157] Top shape: 100 240 5 5 (600000)
I1018 19:17:29.310575  4743 net.cpp:165] Memory required for data: 103188400
I1018 19:17:29.310576  4743 layer_factory.hpp:77] Creating layer relu2
I1018 19:17:29.310580  4743 net.cpp:100] Creating Layer relu2
I1018 19:17:29.310582  4743 net.cpp:434] relu2 <- drop2
I1018 19:17:29.310585  4743 net.cpp:408] relu2 -> relu2
I1018 19:17:29.310695  4743 net.cpp:150] Setting up relu2
I1018 19:17:29.310700  4743 net.cpp:157] Top shape: 100 240 5 5 (600000)
I1018 19:17:29.310703  4743 net.cpp:165] Memory required for data: 105588400
I1018 19:17:29.310704  4743 layer_factory.hpp:77] Creating layer conv4
I1018 19:17:29.310709  4743 net.cpp:100] Creating Layer conv4
I1018 19:17:29.310711  4743 net.cpp:434] conv4 <- relu2
I1018 19:17:29.310716  4743 net.cpp:408] conv4 -> conv4
I1018 19:17:29.311553  4743 net.cpp:150] Setting up conv4
I1018 19:17:29.311560  4743 net.cpp:157] Top shape: 100 240 5 5 (600000)
I1018 19:17:29.311563  4743 net.cpp:165] Memory required for data: 107988400
I1018 19:17:29.311568  4743 layer_factory.hpp:77] Creating layer conv5
I1018 19:17:29.311573  4743 net.cpp:100] Creating Layer conv5
I1018 19:17:29.311575  4743 net.cpp:434] conv5 <- conv4
I1018 19:17:29.311579  4743 net.cpp:408] conv5 -> conv5
I1018 19:17:29.313334  4743 net.cpp:150] Setting up conv5
I1018 19:17:29.313343  4743 net.cpp:157] Top shape: 100 260 4 4 (416000)
I1018 19:17:29.313344  4743 net.cpp:165] Memory required for data: 109652400
I1018 19:17:29.313349  4743 layer_factory.hpp:77] Creating layer pool3
I1018 19:17:29.313354  4743 net.cpp:100] Creating Layer pool3
I1018 19:17:29.313357  4743 net.cpp:434] pool3 <- conv5
I1018 19:17:29.313360  4743 net.cpp:408] pool3 -> pool3
I1018 19:17:29.313387  4743 net.cpp:150] Setting up pool3
I1018 19:17:29.313392  4743 net.cpp:157] Top shape: 100 260 2 2 (104000)
I1018 19:17:29.313393  4743 net.cpp:165] Memory required for data: 110068400
I1018 19:17:29.313395  4743 layer_factory.hpp:77] Creating layer drop3
I1018 19:17:29.313398  4743 net.cpp:100] Creating Layer drop3
I1018 19:17:29.313401  4743 net.cpp:434] drop3 <- pool3
I1018 19:17:29.313405  4743 net.cpp:408] drop3 -> drop3
I1018 19:17:29.313428  4743 net.cpp:150] Setting up drop3
I1018 19:17:29.313439  4743 net.cpp:157] Top shape: 100 260 2 2 (104000)
I1018 19:17:29.313441  4743 net.cpp:165] Memory required for data: 110484400
I1018 19:17:29.313443  4743 layer_factory.hpp:77] Creating layer relu3
I1018 19:17:29.313446  4743 net.cpp:100] Creating Layer relu3
I1018 19:17:29.313449  4743 net.cpp:434] relu3 <- drop3
I1018 19:17:29.313452  4743 net.cpp:408] relu3 -> relu3
I1018 19:17:29.313567  4743 net.cpp:150] Setting up relu3
I1018 19:17:29.313573  4743 net.cpp:157] Top shape: 100 260 2 2 (104000)
I1018 19:17:29.313575  4743 net.cpp:165] Memory required for data: 110900400
I1018 19:17:29.313577  4743 layer_factory.hpp:77] Creating layer conv6
I1018 19:17:29.313583  4743 net.cpp:100] Creating Layer conv6
I1018 19:17:29.313586  4743 net.cpp:434] conv6 <- relu3
I1018 19:17:29.313590  4743 net.cpp:408] conv6 -> conv6
I1018 19:17:29.314787  4743 net.cpp:150] Setting up conv6
I1018 19:17:29.314796  4743 net.cpp:157] Top shape: 100 260 2 2 (104000)
I1018 19:17:29.314798  4743 net.cpp:165] Memory required for data: 111316400
I1018 19:17:29.314803  4743 layer_factory.hpp:77] Creating layer conv7
I1018 19:17:29.314808  4743 net.cpp:100] Creating Layer conv7
I1018 19:17:29.314811  4743 net.cpp:434] conv7 <- conv6
I1018 19:17:29.314815  4743 net.cpp:408] conv7 -> conv7
I1018 19:17:29.316781  4743 net.cpp:150] Setting up conv7
I1018 19:17:29.316790  4743 net.cpp:157] Top shape: 100 280 1 1 (28000)
I1018 19:17:29.316792  4743 net.cpp:165] Memory required for data: 111428400
I1018 19:17:29.316797  4743 layer_factory.hpp:77] Creating layer pool4
I1018 19:17:29.316802  4743 net.cpp:100] Creating Layer pool4
I1018 19:17:29.316804  4743 net.cpp:434] pool4 <- conv7
I1018 19:17:29.316807  4743 net.cpp:408] pool4 -> pool4
I1018 19:17:29.316834  4743 net.cpp:150] Setting up pool4
I1018 19:17:29.316839  4743 net.cpp:157] Top shape: 100 280 1 1 (28000)
I1018 19:17:29.316841  4743 net.cpp:165] Memory required for data: 111540400
I1018 19:17:29.316843  4743 layer_factory.hpp:77] Creating layer drop4
I1018 19:17:29.316845  4743 net.cpp:100] Creating Layer drop4
I1018 19:17:29.316848  4743 net.cpp:434] drop4 <- pool4
I1018 19:17:29.316853  4743 net.cpp:408] drop4 -> drop4
I1018 19:17:29.316876  4743 net.cpp:150] Setting up drop4
I1018 19:17:29.316879  4743 net.cpp:157] Top shape: 100 280 1 1 (28000)
I1018 19:17:29.316882  4743 net.cpp:165] Memory required for data: 111652400
I1018 19:17:29.316884  4743 layer_factory.hpp:77] Creating layer relu4
I1018 19:17:29.316887  4743 net.cpp:100] Creating Layer relu4
I1018 19:17:29.316890  4743 net.cpp:434] relu4 <- drop4
I1018 19:17:29.316892  4743 net.cpp:408] relu4 -> relu4
I1018 19:17:29.317006  4743 net.cpp:150] Setting up relu4
I1018 19:17:29.317011  4743 net.cpp:157] Top shape: 100 280 1 1 (28000)
I1018 19:17:29.317013  4743 net.cpp:165] Memory required for data: 111764400
I1018 19:17:29.317015  4743 layer_factory.hpp:77] Creating layer conv8
I1018 19:17:29.317020  4743 net.cpp:100] Creating Layer conv8
I1018 19:17:29.317023  4743 net.cpp:434] conv8 <- relu4
I1018 19:17:29.317025  4743 net.cpp:408] conv8 -> conv8
I1018 19:17:29.317953  4743 net.cpp:150] Setting up conv8
I1018 19:17:29.317960  4743 net.cpp:157] Top shape: 100 280 1 1 (28000)
I1018 19:17:29.317962  4743 net.cpp:165] Memory required for data: 111876400
I1018 19:17:29.317966  4743 layer_factory.hpp:77] Creating layer pool5
I1018 19:17:29.317972  4743 net.cpp:100] Creating Layer pool5
I1018 19:17:29.317975  4743 net.cpp:434] pool5 <- conv8
I1018 19:17:29.317977  4743 net.cpp:408] pool5 -> pool5
I1018 19:17:29.318004  4743 net.cpp:150] Setting up pool5
I1018 19:17:29.318008  4743 net.cpp:157] Top shape: 100 280 1 1 (28000)
I1018 19:17:29.318011  4743 net.cpp:165] Memory required for data: 111988400
I1018 19:17:29.318012  4743 layer_factory.hpp:77] Creating layer drop5
I1018 19:17:29.318016  4743 net.cpp:100] Creating Layer drop5
I1018 19:17:29.318018  4743 net.cpp:434] drop5 <- pool5
I1018 19:17:29.318022  4743 net.cpp:408] drop5 -> drop5
I1018 19:17:29.318044  4743 net.cpp:150] Setting up drop5
I1018 19:17:29.318056  4743 net.cpp:157] Top shape: 100 280 1 1 (28000)
I1018 19:17:29.318060  4743 net.cpp:165] Memory required for data: 112100400
I1018 19:17:29.318061  4743 layer_factory.hpp:77] Creating layer relu5
I1018 19:17:29.318065  4743 net.cpp:100] Creating Layer relu5
I1018 19:17:29.318066  4743 net.cpp:434] relu5 <- drop5
I1018 19:17:29.318070  4743 net.cpp:408] relu5 -> relu5
I1018 19:17:29.318265  4743 net.cpp:150] Setting up relu5
I1018 19:17:29.318272  4743 net.cpp:157] Top shape: 100 280 1 1 (28000)
I1018 19:17:29.318274  4743 net.cpp:165] Memory required for data: 112212400
I1018 19:17:29.318277  4743 layer_factory.hpp:77] Creating layer conv10
I1018 19:17:29.318281  4743 net.cpp:100] Creating Layer conv10
I1018 19:17:29.318284  4743 net.cpp:434] conv10 <- relu5
I1018 19:17:29.318289  4743 net.cpp:408] conv10 -> conv10
I1018 19:17:29.320574  4743 net.cpp:150] Setting up conv10
I1018 19:17:29.320583  4743 net.cpp:157] Top shape: 100 300 1 1 (30000)
I1018 19:17:29.320585  4743 net.cpp:165] Memory required for data: 112332400
I1018 19:17:29.320593  4743 layer_factory.hpp:77] Creating layer pool6
I1018 19:17:29.320598  4743 net.cpp:100] Creating Layer pool6
I1018 19:17:29.320601  4743 net.cpp:434] pool6 <- conv10
I1018 19:17:29.320605  4743 net.cpp:408] pool6 -> pool6
I1018 19:17:29.320633  4743 net.cpp:150] Setting up pool6
I1018 19:17:29.320637  4743 net.cpp:157] Top shape: 100 300 1 1 (30000)
I1018 19:17:29.320639  4743 net.cpp:165] Memory required for data: 112452400
I1018 19:17:29.320641  4743 layer_factory.hpp:77] Creating layer drop6
I1018 19:17:29.320643  4743 net.cpp:100] Creating Layer drop6
I1018 19:17:29.320646  4743 net.cpp:434] drop6 <- pool6
I1018 19:17:29.320649  4743 net.cpp:408] drop6 -> drop6
I1018 19:17:29.320672  4743 net.cpp:150] Setting up drop6
I1018 19:17:29.320675  4743 net.cpp:157] Top shape: 100 300 1 1 (30000)
I1018 19:17:29.320678  4743 net.cpp:165] Memory required for data: 112572400
I1018 19:17:29.320680  4743 layer_factory.hpp:77] Creating layer relu6
I1018 19:17:29.320683  4743 net.cpp:100] Creating Layer relu6
I1018 19:17:29.320685  4743 net.cpp:434] relu6 <- drop6
I1018 19:17:29.320688  4743 net.cpp:408] relu6 -> relu6
I1018 19:17:29.320802  4743 net.cpp:150] Setting up relu6
I1018 19:17:29.320807  4743 net.cpp:157] Top shape: 100 300 1 1 (30000)
I1018 19:17:29.320809  4743 net.cpp:165] Memory required for data: 112692400
I1018 19:17:29.320811  4743 layer_factory.hpp:77] Creating layer conv11
I1018 19:17:29.320817  4743 net.cpp:100] Creating Layer conv11
I1018 19:17:29.320819  4743 net.cpp:434] conv11 <- relu6
I1018 19:17:29.320822  4743 net.cpp:408] conv11 -> conv11
I1018 19:17:29.321990  4743 net.cpp:150] Setting up conv11
I1018 19:17:29.321997  4743 net.cpp:157] Top shape: 100 100 1 1 (10000)
I1018 19:17:29.322000  4743 net.cpp:165] Memory required for data: 112732400
I1018 19:17:29.322003  4743 layer_factory.hpp:77] Creating layer pool7
I1018 19:17:29.322006  4743 net.cpp:100] Creating Layer pool7
I1018 19:17:29.322008  4743 net.cpp:434] pool7 <- conv11
I1018 19:17:29.322012  4743 net.cpp:408] pool7 -> pool7
I1018 19:17:29.322041  4743 net.cpp:150] Setting up pool7
I1018 19:17:29.322046  4743 net.cpp:157] Top shape: 100 100 1 1 (10000)
I1018 19:17:29.322048  4743 net.cpp:165] Memory required for data: 112772400
I1018 19:17:29.322051  4743 layer_factory.hpp:77] Creating layer drop7
I1018 19:17:29.322053  4743 net.cpp:100] Creating Layer drop7
I1018 19:17:29.322054  4743 net.cpp:434] drop7 <- pool7
I1018 19:17:29.322057  4743 net.cpp:408] drop7 -> drop7
I1018 19:17:29.322082  4743 net.cpp:150] Setting up drop7
I1018 19:17:29.322087  4743 net.cpp:157] Top shape: 100 100 1 1 (10000)
I1018 19:17:29.322088  4743 net.cpp:165] Memory required for data: 112812400
I1018 19:17:29.322090  4743 layer_factory.hpp:77] Creating layer relu7
I1018 19:17:29.322095  4743 net.cpp:100] Creating Layer relu7
I1018 19:17:29.322098  4743 net.cpp:434] relu7 <- drop7
I1018 19:17:29.322100  4743 net.cpp:408] relu7 -> relu7
I1018 19:17:29.322213  4743 net.cpp:150] Setting up relu7
I1018 19:17:29.322218  4743 net.cpp:157] Top shape: 100 100 1 1 (10000)
I1018 19:17:29.322228  4743 net.cpp:165] Memory required for data: 112852400
I1018 19:17:29.322230  4743 layer_factory.hpp:77] Creating layer pool
I1018 19:17:29.322235  4743 net.cpp:100] Creating Layer pool
I1018 19:17:29.322238  4743 net.cpp:434] pool <- relu7
I1018 19:17:29.322242  4743 net.cpp:408] pool -> pool
I1018 19:17:29.322438  4743 net.cpp:150] Setting up pool
I1018 19:17:29.322444  4743 net.cpp:157] Top shape: 100 100 1 1 (10000)
I1018 19:17:29.322446  4743 net.cpp:165] Memory required for data: 112892400
I1018 19:17:29.322448  4743 layer_factory.hpp:77] Creating layer flatten
I1018 19:17:29.322453  4743 net.cpp:100] Creating Layer flatten
I1018 19:17:29.322454  4743 net.cpp:434] flatten <- pool
I1018 19:17:29.322458  4743 net.cpp:408] flatten -> flatten
I1018 19:17:29.322474  4743 net.cpp:150] Setting up flatten
I1018 19:17:29.322477  4743 net.cpp:157] Top shape: 100 100 (10000)
I1018 19:17:29.322479  4743 net.cpp:165] Memory required for data: 112932400
I1018 19:17:29.322481  4743 layer_factory.hpp:77] Creating layer score
I1018 19:17:29.322484  4743 net.cpp:100] Creating Layer score
I1018 19:17:29.322487  4743 net.cpp:434] score <- flatten
I1018 19:17:29.322491  4743 net.cpp:408] score -> score
I1018 19:17:29.322577  4743 net.cpp:150] Setting up score
I1018 19:17:29.322582  4743 net.cpp:157] Top shape: 100 10 (1000)
I1018 19:17:29.322583  4743 net.cpp:165] Memory required for data: 112936400
I1018 19:17:29.322587  4743 layer_factory.hpp:77] Creating layer score_score_0_split
I1018 19:17:29.322592  4743 net.cpp:100] Creating Layer score_score_0_split
I1018 19:17:29.322594  4743 net.cpp:434] score_score_0_split <- score
I1018 19:17:29.322597  4743 net.cpp:408] score_score_0_split -> score_score_0_split_0
I1018 19:17:29.322602  4743 net.cpp:408] score_score_0_split -> score_score_0_split_1
I1018 19:17:29.322626  4743 net.cpp:150] Setting up score_score_0_split
I1018 19:17:29.322629  4743 net.cpp:157] Top shape: 100 10 (1000)
I1018 19:17:29.322631  4743 net.cpp:157] Top shape: 100 10 (1000)
I1018 19:17:29.322634  4743 net.cpp:165] Memory required for data: 112944400
I1018 19:17:29.322635  4743 layer_factory.hpp:77] Creating layer accuracy
I1018 19:17:29.322639  4743 net.cpp:100] Creating Layer accuracy
I1018 19:17:29.322641  4743 net.cpp:434] accuracy <- score_score_0_split_0
I1018 19:17:29.322644  4743 net.cpp:434] accuracy <- label_data_1_split_0
I1018 19:17:29.322649  4743 net.cpp:408] accuracy -> accuracy
…
