…
  level: 0
  stage: ""
}
type: "RMSProp"
I1020 04:58:40.155966 10834 solver.cpp:81] Creating training net from train_net file: /home/adam/Honours/Honours-Project/mnist_pooling/max/elu/poolcnn_elu_train.prototxt
I1020 04:58:40.156276 10834 net.cpp:58] Initializing net from parameters: 
state {
  phase: TRAIN
  level: 0
  stage: ""
}
layer {
  name: "data"
  type: "Data"
  top: "data"
  top: "label"
  transform_param {
    scale: 0.0039215689
  }
  data_param {
    source: "../../../../data/mnist/mnist_train_lmdb"
    batch_size: 64
    backend: LMDB
  }
}
layer {
  name: "conv1"
  type: "Convolution"
  bottom: "data"
  top: "conv1"
  convolution_param {
    num_output: 192
    kernel_size: 5
    weight_filler {
      type: "xavier"
    }
  }
}
layer {
  name: "elu1"
  type: "ELU"
  bottom: "conv1"
  top: "elu1"
}
layer {
  name: "drop1"
  type: "Dropout"
  bottom: "elu1"
  top: "drop1"
  dropout_param {
    dropout_ratio: 0
  }
}
layer {
  name: "pool1"
  type: "Pooling"
  bottom: "drop1"
  top: "pool1"
  pooling_param {
    pool: MAX
    kernel_size: 2
    stride: 2
  }
}
layer {
  name: "conv2"
  type: "Convolution"
  bottom: "pool1"
  top: "conv2"
  convolution_param {
    num_output: 192
    kernel_size: 1
    weight_filler {
      type: "xavier"
    }
  }
}
layer {
  name: "elu2"
  type: "ELU"
  bottom: "conv2"
  top: "elu2"
}
layer {
  name: "conv3"
  type: "Convolution"
  bottom: "elu2"
  top: "conv3"
  convolution_param {
    num_output: 240
    kernel_size: 3
    weight_filler {
      type: "xavier"
    }
  }
}
layer {
  name: "elu3"
  type: "ELU"
  bottom: "conv3"
  top: "elu3"
}
layer {
  name: "drop2"
  type: "Dropout"
  bottom: "elu3"
  top: "drop2"
  dropout_param {
    dropout_ratio: 0.1
  }
}
layer {
  name: "pool2"
  type: "Pooling"
  bottom: "drop2"
  top: "pool2"
  pooling_param {
    pool: MAX
    kernel_size: 2
    stride: 2
  }
}
layer {
  name: "conv4"
  type: "Convolution"
  bottom: "pool2"
  top: "conv4"
  convolution_param {
    num_output: 240
    kernel_size: 1
    weight_filler {
      type: "xavier"
    }
  }
}
layer {
  name: "elu4"
  type: "ELU"
  bottom: "conv4"
  top: "elu4"
}
layer {
  name: "conv5"
  type: "Convolution"
  bottom: "elu4"
  top: "conv5"
  convolution_param {
    num_output: 260
    kernel_size: 2
    weight_filler {
      type: "xavier"
    }
  }
}
layer {
  name: "elu5"
  type: "ELU"
  bottom: "conv5"
  top: "elu5"
}
layer {
  name: "drop3"
  type: "Dropout"
  bottom: "elu5"
  top: "drop3"
  dropout_param {
    dropout_ratio: 0.2
  }
}
layer {
  name: "pool3"
  type: "Pooling"
  bottom: "drop3"
  top: "pool3"
  pooling_param {
    pool: MAX
    kernel_size: 2
    stride: 2
  }
}
layer {
  name: "conv6"
  type: "Convolution"
  bottom: "pool3"
  top: "conv6"
  convolution_param {
    num_output: 260
    kernel_size: 1
    weight_filler {
      type: "xavier"
    }
  }
}
layer {
  name: "elu6"
  type: "ELU"
  bottom: "conv6"
  top: "elu6"
}
layer {
  name: "conv7"
  type: "Convolution"
  bottom: "elu6"
  top: "conv7"
  convolution_param {
    num_output: 280
    kernel_size: 2
    weight_filler {
      type: "xavier"
    }
  }
}
layer {
  name: "elu7"
  type: "ELU"
  bottom: "conv7"
  top: "elu7"
}
layer {
  name: "drop4"
  type: "Dropout"
  bottom: "elu7"
  top: "drop4"
  dropout_param {
    dropout_ratio: 0.3
  }
}
layer {
  name: "pool4"
  type: "Pooling"
  bottom: "drop4"
  top: "pool4"
  pooling_param {
    pool: MAX
    kernel_size: 2
    stride: 2
  }
}
layer {
  name: "conv8"
  type: "Convolution"
  bottom: "pool4"
  top: "conv8"
  convolution_param {
    num_output: 280
    kernel_size: 1
    weight_filler {
      type: "xavier"
    }
  }
}
layer {
  name: "elu8"
  type: "ELU"
  bottom: "conv8"
  top: "elu8"
}
layer {
  name: "drop5"
  type: "Dropout"
  bottom: "elu8"
  top: "drop5"
  dropout_param {
    dropout_ratio: 0.4
  }
}
layer {
  name: "pool5"
  type: "Pooling"
  bottom: "drop5"
  top: "pool5"
  pooling_param {
    pool: MAX
    kernel_size: 2
    stride: 2
  }
}
layer {
  name: "conv10"
  type: "Convolution"
  bottom: "pool5"
  top: "conv10"
  convolution_param {
    num_output: 300
    kernel_size: 1
    weight_filler {
      type: "xavier"
    }
  }
}
layer {
  name: "elu10"
  type: "ELU"
  bottom: "conv10"
  top: "elu10"
}
layer {
  name: "drop6"
  type: "Dropout"
  bottom: "elu10"
  top: "drop6"
  dropout_param {
    dropout_ratio: 0.5
  }
}
layer {
  name: "pool6"
  type: "Pooling"
  bottom: "drop6"
  top: "pool6"
  pooling_param {
    pool: MAX
    kernel_size: 2
    stride: 2
  }
}
layer {
  name: "conv11"
  type: "Convolution"
  bottom: "pool6"
  top: "conv11"
  convolution_param {
    num_output: 100
    kernel_size: 1
    weight_filler {
      type: "xavier"
    }
  }
}
layer {
  name: "elu11"
  type: "ELU"
  bottom: "conv11"
  top: "elu11"
}
layer {
  name: "drop7"
  type: "Dropout"
  bottom: "elu11"
  top: "drop7"
  dropout_param {
    dropout_ratio: 0
  }
}
layer {
  name: "pool7"
  type: "Pooling"
  bottom: "drop7"
  top: "pool7"
  pooling_param {
    pool: MAX
    kernel_size: 2
    stride: 2
  }
}
layer {
  name: "score"
  type: "InnerProduct"
  bottom: "pool7"
  top: "score"
  inner_product_param {
    num_output: 10
    weight_filler {
      type: "gaussian"
    }
  }
}
layer {
  name: "accuracy"
  type: "Accuracy"
  bottom: "score"
  bottom: "label"
  top: "accuracy"
}
layer {
  name: "loss"
  type: "SoftmaxWithLoss"
  bottom: "score"
  bottom: "label"
  top: "loss"
}
I1020 04:58:40.156410 10834 layer_factory.hpp:77] Creating layer data
I1020 04:58:40.156815 10834 net.cpp:100] Creating Layer data
I1020 04:58:40.156821 10834 net.cpp:408] data -> data
I1020 04:58:40.156836 10834 net.cpp:408] data -> label
I1020 04:58:40.157462 10839 db_lmdb.cpp:35] Opened lmdb ../../../../data/mnist/mnist_train_lmdb
I1020 04:58:40.163385 10834 data_layer.cpp:41] output data size: 64,1,28,28
I1020 04:58:40.164000 10834 net.cpp:150] Setting up data
I1020 04:58:40.164012 10834 net.cpp:157] Top shape: 64 1 28 28 (50176)
I1020 04:58:40.164016 10834 net.cpp:157] Top shape: 64 (64)
I1020 04:58:40.164017 10834 net.cpp:165] Memory required for data: 200960
I1020 04:58:40.164026 10834 layer_factory.hpp:77] Creating layer label_data_1_split
I1020 04:58:40.164036 10834 net.cpp:100] Creating Layer label_data_1_split
I1020 04:58:40.164041 10834 net.cpp:434] label_data_1_split <- label
I1020 04:58:40.164055 10834 net.cpp:408] label_data_1_split -> label_data_1_split_0
I1020 04:58:40.164064 10834 net.cpp:408] label_data_1_split -> label_data_1_split_1
I1020 04:58:40.164113 10834 net.cpp:150] Setting up label_data_1_split
I1020 04:58:40.164119 10834 net.cpp:157] Top shape: 64 (64)
I1020 04:58:40.164120 10834 net.cpp:157] Top shape: 64 (64)
I1020 04:58:40.164122 10834 net.cpp:165] Memory required for data: 201472
I1020 04:58:40.164124 10834 layer_factory.hpp:77] Creating layer conv1
I1020 04:58:40.164139 10834 net.cpp:100] Creating Layer conv1
I1020 04:58:40.164142 10834 net.cpp:434] conv1 <- data
I1020 04:58:40.164147 10834 net.cpp:408] conv1 -> conv1
I1020 04:58:40.294915 10834 net.cpp:150] Setting up conv1
I1020 04:58:40.294941 10834 net.cpp:157] Top shape: 64 192 24 24 (7077888)
I1020 04:58:40.294944 10834 net.cpp:165] Memory required for data: 28513024
I1020 04:58:40.294970 10834 layer_factory.hpp:77] Creating layer elu1
I1020 04:58:40.294981 10834 net.cpp:100] Creating Layer elu1
I1020 04:58:40.294986 10834 net.cpp:434] elu1 <- conv1
I1020 04:58:40.294991 10834 net.cpp:408] elu1 -> elu1
I1020 04:58:40.295017 10834 net.cpp:150] Setting up elu1
I1020 04:58:40.295022 10834 net.cpp:157] Top shape: 64 192 24 24 (7077888)
I1020 04:58:40.295037 10834 net.cpp:165] Memory required for data: 56824576
I1020 04:58:40.295038 10834 layer_factory.hpp:77] Creating layer drop1
I1020 04:58:40.295044 10834 net.cpp:100] Creating Layer drop1
I1020 04:58:40.295047 10834 net.cpp:434] drop1 <- elu1
I1020 04:58:40.295052 10834 net.cpp:408] drop1 -> drop1
I1020 04:58:40.295078 10834 net.cpp:150] Setting up drop1
I1020 04:58:40.295083 10834 net.cpp:157] Top shape: 64 192 24 24 (7077888)
I1020 04:58:40.295085 10834 net.cpp:165] Memory required for data: 85136128
I1020 04:58:40.295089 10834 layer_factory.hpp:77] Creating layer pool1
I1020 04:58:40.295092 10834 net.cpp:100] Creating Layer pool1
I1020 04:58:40.295094 10834 net.cpp:434] pool1 <- drop1
I1020 04:58:40.295099 10834 net.cpp:408] pool1 -> pool1
I1020 04:58:40.295130 10834 net.cpp:150] Setting up pool1
I1020 04:58:40.295133 10834 net.cpp:157] Top shape: 64 192 12 12 (1769472)
I1020 04:58:40.295135 10834 net.cpp:165] Memory required for data: 92214016
I1020 04:58:40.295136 10834 layer_factory.hpp:77] Creating layer conv2
I1020 04:58:40.295145 10834 net.cpp:100] Creating Layer conv2
I1020 04:58:40.295147 10834 net.cpp:434] conv2 <- pool1
I1020 04:58:40.295152 10834 net.cpp:408] conv2 -> conv2
I1020 04:58:40.295963 10834 net.cpp:150] Setting up conv2
I1020 04:58:40.295972 10834 net.cpp:157] Top shape: 64 192 12 12 (1769472)
I1020 04:58:40.295974 10834 net.cpp:165] Memory required for data: 99291904
I1020 04:58:40.295981 10834 layer_factory.hpp:77] Creating layer elu2
I1020 04:58:40.295987 10834 net.cpp:100] Creating Layer elu2
I1020 04:58:40.295991 10834 net.cpp:434] elu2 <- conv2
I1020 04:58:40.295999 10834 net.cpp:408] elu2 -> elu2
I1020 04:58:40.296017 10834 net.cpp:150] Setting up elu2
I1020 04:58:40.296023 10834 net.cpp:157] Top shape: 64 192 12 12 (1769472)
I1020 04:58:40.296027 10834 net.cpp:165] Memory required for data: 106369792
I1020 04:58:40.296030 10834 layer_factory.hpp:77] Creating layer conv3
I1020 04:58:40.296037 10834 net.cpp:100] Creating Layer conv3
I1020 04:58:40.296041 10834 net.cpp:434] conv3 <- elu2
I1020 04:58:40.296046 10834 net.cpp:408] conv3 -> conv3
I1020 04:58:40.298915 10834 net.cpp:150] Setting up conv3
I1020 04:58:40.298930 10834 net.cpp:157] Top shape: 64 240 10 10 (1536000)
I1020 04:58:40.298933 10834 net.cpp:165] Memory required for data: 112513792
I1020 04:58:40.298941 10834 layer_factory.hpp:77] Creating layer elu3
I1020 04:58:40.298946 10834 net.cpp:100] Creating Layer elu3
I1020 04:58:40.298949 10834 net.cpp:434] elu3 <- conv3
I1020 04:58:40.298952 10834 net.cpp:408] elu3 -> elu3
I1020 04:58:40.298970 10834 net.cpp:150] Setting up elu3
I1020 04:58:40.298974 10834 net.cpp:157] Top shape: 64 240 10 10 (1536000)
I1020 04:58:40.298976 10834 net.cpp:165] Memory required for data: 118657792
I1020 04:58:40.298979 10834 layer_factory.hpp:77] Creating layer drop2
I1020 04:58:40.298985 10834 net.cpp:100] Creating Layer drop2
I1020 04:58:40.298986 10834 net.cpp:434] drop2 <- elu3
I1020 04:58:40.298990 10834 net.cpp:408] drop2 -> drop2
I1020 04:58:40.299015 10834 net.cpp:150] Setting up drop2
I1020 04:58:40.299020 10834 net.cpp:157] Top shape: 64 240 10 10 (1536000)
I1020 04:58:40.299021 10834 net.cpp:165] Memory required for data: 124801792
I1020 04:58:40.299022 10834 layer_factory.hpp:77] Creating layer pool2
I1020 04:58:40.299026 10834 net.cpp:100] Creating Layer pool2
I1020 04:58:40.299028 10834 net.cpp:434] pool2 <- drop2
I1020 04:58:40.299032 10834 net.cpp:408] pool2 -> pool2
I1020 04:58:40.299057 10834 net.cpp:150] Setting up pool2
I1020 04:58:40.299062 10834 net.cpp:157] Top shape: 64 240 5 5 (384000)
I1020 04:58:40.299064 10834 net.cpp:165] Memory required for data: 126337792
I1020 04:58:40.299068 10834 layer_factory.hpp:77] Creating layer conv4
I1020 04:58:40.299075 10834 net.cpp:100] Creating Layer conv4
I1020 04:58:40.299078 10834 net.cpp:434] conv4 <- pool2
I1020 04:58:40.299082 10834 net.cpp:408] conv4 -> conv4
I1020 04:58:40.299964 10834 net.cpp:150] Setting up conv4
I1020 04:58:40.299973 10834 net.cpp:157] Top shape: 64 240 5 5 (384000)
I1020 04:58:40.299975 10834 net.cpp:165] Memory required for data: 127873792
I1020 04:58:40.299993 10834 layer_factory.hpp:77] Creating layer elu4
I1020 04:58:40.300000 10834 net.cpp:100] Creating Layer elu4
I1020 04:58:40.300004 10834 net.cpp:434] elu4 <- conv4
I1020 04:58:40.300007 10834 net.cpp:408] elu4 -> elu4
I1020 04:58:40.300027 10834 net.cpp:150] Setting up elu4
I1020 04:58:40.300032 10834 net.cpp:157] Top shape: 64 240 5 5 (384000)
I1020 04:58:40.300036 10834 net.cpp:165] Memory required for data: 129409792
I1020 04:58:40.300038 10834 layer_factory.hpp:77] Creating layer conv5
I1020 04:58:40.300047 10834 net.cpp:100] Creating Layer conv5
I1020 04:58:40.300050 10834 net.cpp:434] conv5 <- elu4
I1020 04:58:40.300056 10834 net.cpp:408] conv5 -> conv5
I1020 04:58:40.301951 10834 net.cpp:150] Setting up conv5
I1020 04:58:40.301961 10834 net.cpp:157] Top shape: 64 260 4 4 (266240)
I1020 04:58:40.301964 10834 net.cpp:165] Memory required for data: 130474752
I1020 04:58:40.301970 10834 layer_factory.hpp:77] Creating layer elu5
I1020 04:58:40.301975 10834 net.cpp:100] Creating Layer elu5
I1020 04:58:40.301977 10834 net.cpp:434] elu5 <- conv5
I1020 04:58:40.301981 10834 net.cpp:408] elu5 -> elu5
I1020 04:58:40.301996 10834 net.cpp:150] Setting up elu5
I1020 04:58:40.302003 10834 net.cpp:157] Top shape: 64 260 4 4 (266240)
I1020 04:58:40.302006 10834 net.cpp:165] Memory required for data: 131539712
I1020 04:58:40.302007 10834 layer_factory.hpp:77] Creating layer drop3
I1020 04:58:40.302013 10834 net.cpp:100] Creating Layer drop3
I1020 04:58:40.302016 10834 net.cpp:434] drop3 <- elu5
I1020 04:58:40.302019 10834 net.cpp:408] drop3 -> drop3
I1020 04:58:40.302040 10834 net.cpp:150] Setting up drop3
I1020 04:58:40.302044 10834 net.cpp:157] Top shape: 64 260 4 4 (266240)
I1020 04:58:40.302047 10834 net.cpp:165] Memory required for data: 132604672
I1020 04:58:40.302049 10834 layer_factory.hpp:77] Creating layer pool3
I1020 04:58:40.302053 10834 net.cpp:100] Creating Layer pool3
I1020 04:58:40.302055 10834 net.cpp:434] pool3 <- drop3
I1020 04:58:40.302058 10834 net.cpp:408] pool3 -> pool3
I1020 04:58:40.302081 10834 net.cpp:150] Setting up pool3
I1020 04:58:40.302085 10834 net.cpp:157] Top shape: 64 260 2 2 (66560)
I1020 04:58:40.302088 10834 net.cpp:165] Memory required for data: 132870912
I1020 04:58:40.302089 10834 layer_factory.hpp:77] Creating layer conv6
I1020 04:58:40.302094 10834 net.cpp:100] Creating Layer conv6
I1020 04:58:40.302098 10834 net.cpp:434] conv6 <- pool3
I1020 04:58:40.302101 10834 net.cpp:408] conv6 -> conv6
I1020 04:58:40.303273 10834 net.cpp:150] Setting up conv6
I1020 04:58:40.303282 10834 net.cpp:157] Top shape: 64 260 2 2 (66560)
I1020 04:58:40.303284 10834 net.cpp:165] Memory required for data: 133137152
I1020 04:58:40.303289 10834 layer_factory.hpp:77] Creating layer elu6
I1020 04:58:40.303293 10834 net.cpp:100] Creating Layer elu6
I1020 04:58:40.303297 10834 net.cpp:434] elu6 <- conv6
I1020 04:58:40.303299 10834 net.cpp:408] elu6 -> elu6
I1020 04:58:40.303316 10834 net.cpp:150] Setting up elu6
I1020 04:58:40.303321 10834 net.cpp:157] Top shape: 64 260 2 2 (66560)
I1020 04:58:40.303323 10834 net.cpp:165] Memory required for data: 133403392
I1020 04:58:40.303325 10834 layer_factory.hpp:77] Creating layer conv7
I1020 04:58:40.303329 10834 net.cpp:100] Creating Layer conv7
I1020 04:58:40.303333 10834 net.cpp:434] conv7 <- elu6
I1020 04:58:40.303336 10834 net.cpp:408] conv7 -> conv7
I1020 04:58:40.305321 10834 net.cpp:150] Setting up conv7
I1020 04:58:40.305330 10834 net.cpp:157] Top shape: 64 280 1 1 (17920)
I1020 04:58:40.305332 10834 net.cpp:165] Memory required for data: 133475072
I1020 04:58:40.305338 10834 layer_factory.hpp:77] Creating layer elu7
I1020 04:58:40.305342 10834 net.cpp:100] Creating Layer elu7
I1020 04:58:40.305344 10834 net.cpp:434] elu7 <- conv7
I1020 04:58:40.305347 10834 net.cpp:408] elu7 -> elu7
I1020 04:58:40.305364 10834 net.cpp:150] Setting up elu7
I1020 04:58:40.305369 10834 net.cpp:157] Top shape: 64 280 1 1 (17920)
I1020 04:58:40.305371 10834 net.cpp:165] Memory required for data: 133546752
I1020 04:58:40.305373 10834 layer_factory.hpp:77] Creating layer drop4
I1020 04:58:40.305385 10834 net.cpp:100] Creating Layer drop4
I1020 04:58:40.305388 10834 net.cpp:434] drop4 <- elu7
I1020 04:58:40.305392 10834 net.cpp:408] drop4 -> drop4
I1020 04:58:40.305415 10834 net.cpp:150] Setting up drop4
I1020 04:58:40.305419 10834 net.cpp:157] Top shape: 64 280 1 1 (17920)
I1020 04:58:40.305423 10834 net.cpp:165] Memory required for data: 133618432
I1020 04:58:40.305423 10834 layer_factory.hpp:77] Creating layer pool4
I1020 04:58:40.305428 10834 net.cpp:100] Creating Layer pool4
I1020 04:58:40.305430 10834 net.cpp:434] pool4 <- drop4
I1020 04:58:40.305433 10834 net.cpp:408] pool4 -> pool4
I1020 04:58:40.305456 10834 net.cpp:150] Setting up pool4
I1020 04:58:40.305460 10834 net.cpp:157] Top shape: 64 280 1 1 (17920)
I1020 04:58:40.305464 10834 net.cpp:165] Memory required for data: 133690112
I1020 04:58:40.305464 10834 layer_factory.hpp:77] Creating layer conv8
I1020 04:58:40.305471 10834 net.cpp:100] Creating Layer conv8
I1020 04:58:40.305474 10834 net.cpp:434] conv8 <- pool4
I1020 04:58:40.305479 10834 net.cpp:408] conv8 -> conv8
I1020 04:58:40.306442 10834 net.cpp:150] Setting up conv8
I1020 04:58:40.306450 10834 net.cpp:157] Top shape: 64 280 1 1 (17920)
I1020 04:58:40.306452 10834 net.cpp:165] Memory required for data: 133761792
I1020 04:58:40.306457 10834 layer_factory.hpp:77] Creating layer elu8
I1020 04:58:40.306462 10834 net.cpp:100] Creating Layer elu8
I1020 04:58:40.306463 10834 net.cpp:434] elu8 <- conv8
I1020 04:58:40.306468 10834 net.cpp:408] elu8 -> elu8
I1020 04:58:40.306484 10834 net.cpp:150] Setting up elu8
I1020 04:58:40.306488 10834 net.cpp:157] Top shape: 64 280 1 1 (17920)
I1020 04:58:40.306489 10834 net.cpp:165] Memory required for data: 133833472
I1020 04:58:40.306491 10834 layer_factory.hpp:77] Creating layer drop5
I1020 04:58:40.306499 10834 net.cpp:100] Creating Layer drop5
I1020 04:58:40.306501 10834 net.cpp:434] drop5 <- elu8
I1020 04:58:40.306504 10834 net.cpp:408] drop5 -> drop5
I1020 04:58:40.306529 10834 net.cpp:150] Setting up drop5
I1020 04:58:40.306532 10834 net.cpp:157] Top shape: 64 280 1 1 (17920)
I1020 04:58:40.306535 10834 net.cpp:165] Memory required for data: 133905152
I1020 04:58:40.306536 10834 layer_factory.hpp:77] Creating layer pool5
I1020 04:58:40.306540 10834 net.cpp:100] Creating Layer pool5
I1020 04:58:40.306543 10834 net.cpp:434] pool5 <- drop5
I1020 04:58:40.306546 10834 net.cpp:408] pool5 -> pool5
I1020 04:58:40.306569 10834 net.cpp:150] Setting up pool5
I1020 04:58:40.306573 10834 net.cpp:157] Top shape: 64 280 1 1 (17920)
I1020 04:58:40.306576 10834 net.cpp:165] Memory required for data: 133976832
I1020 04:58:40.306578 10834 layer_factory.hpp:77] Creating layer conv10
I1020 04:58:40.306582 10834 net.cpp:100] Creating Layer conv10
I1020 04:58:40.306586 10834 net.cpp:434] conv10 <- pool5
I1020 04:58:40.306589 10834 net.cpp:408] conv10 -> conv10
I1020 04:58:40.307588 10834 net.cpp:150] Setting up conv10
I1020 04:58:40.307596 10834 net.cpp:157] Top shape: 64 300 1 1 (19200)
I1020 04:58:40.307600 10834 net.cpp:165] Memory required for data: 134053632
I1020 04:58:40.307612 10834 layer_factory.hpp:77] Creating layer elu10
I1020 04:58:40.307617 10834 net.cpp:100] Creating Layer elu10
I1020 04:58:40.307621 10834 net.cpp:434] elu10 <- conv10
I1020 04:58:40.307626 10834 net.cpp:408] elu10 -> elu10
I1020 04:58:40.307646 10834 net.cpp:150] Setting up elu10
I1020 04:58:40.307651 10834 net.cpp:157] Top shape: 64 300 1 1 (19200)
I1020 04:58:40.307654 10834 net.cpp:165] Memory required for data: 134130432
I1020 04:58:40.307657 10834 layer_factory.hpp:77] Creating layer drop6
I1020 04:58:40.307662 10834 net.cpp:100] Creating Layer drop6
I1020 04:58:40.307667 10834 net.cpp:434] drop6 <- elu10
I1020 04:58:40.307672 10834 net.cpp:408] drop6 -> drop6
I1020 04:58:40.307700 10834 net.cpp:150] Setting up drop6
I1020 04:58:40.307706 10834 net.cpp:157] Top shape: 64 300 1 1 (19200)
I1020 04:58:40.307710 10834 net.cpp:165] Memory required for data: 134207232
I1020 04:58:40.307713 10834 layer_factory.hpp:77] Creating layer pool6
I1020 04:58:40.307726 10834 net.cpp:100] Creating Layer pool6
I1020 04:58:40.307731 10834 net.cpp:434] pool6 <- drop6
I1020 04:58:40.307735 10834 net.cpp:408] pool6 -> pool6
I1020 04:58:40.307762 10834 net.cpp:150] Setting up pool6
I1020 04:58:40.307766 10834 net.cpp:157] Top shape: 64 300 1 1 (19200)
I1020 04:58:40.307771 10834 net.cpp:165] Memory required for data: 134284032
I1020 04:58:40.307773 10834 layer_factory.hpp:77] Creating layer conv11
I1020 04:58:40.307783 10834 net.cpp:100] Creating Layer conv11
I1020 04:58:40.307786 10834 net.cpp:434] conv11 <- pool6
I1020 04:58:40.307791 10834 net.cpp:408] conv11 -> conv11
I1020 04:58:40.308930 10834 net.cpp:150] Setting up conv11
I1020 04:58:40.308939 10834 net.cpp:157] Top shape: 64 100 1 1 (6400)
I1020 04:58:40.308941 10834 net.cpp:165] Memory required for data: 134309632
I1020 04:58:40.308946 10834 layer_factory.hpp:77] Creating layer elu11
I1020 04:58:40.308950 10834 net.cpp:100] Creating Layer elu11
I1020 04:58:40.308953 10834 net.cpp:434] elu11 <- conv11
I1020 04:58:40.308956 10834 net.cpp:408] elu11 -> elu11
I1020 04:58:40.308974 10834 net.cpp:150] Setting up elu11
I1020 04:58:40.308977 10834 net.cpp:157] Top shape: 64 100 1 1 (6400)
I1020 04:58:40.308980 10834 net.cpp:165] Memory required for data: 134335232
I1020 04:58:40.308981 10834 layer_factory.hpp:77] Creating layer drop7
I1020 04:58:40.308987 10834 net.cpp:100] Creating Layer drop7
I1020 04:58:40.308990 10834 net.cpp:434] drop7 <- elu11
I1020 04:58:40.308992 10834 net.cpp:408] drop7 -> drop7
I1020 04:58:40.309016 10834 net.cpp:150] Setting up drop7
I1020 04:58:40.309021 10834 net.cpp:157] Top shape: 64 100 1 1 (6400)
I1020 04:58:40.309023 10834 net.cpp:165] Memory required for data: 134360832
I1020 04:58:40.309026 10834 layer_factory.hpp:77] Creating layer pool7
I1020 04:58:40.309029 10834 net.cpp:100] Creating Layer pool7
I1020 04:58:40.309033 10834 net.cpp:434] pool7 <- drop7
I1020 04:58:40.309039 10834 net.cpp:408] pool7 -> pool7
I1020 04:58:40.309067 10834 net.cpp:150] Setting up pool7
I1020 04:58:40.309072 10834 net.cpp:157] Top shape: 64 100 1 1 (6400)
I1020 04:58:40.309075 10834 net.cpp:165] Memory required for data: 134386432
I1020 04:58:40.309079 10834 layer_factory.hpp:77] Creating layer score
I1020 04:58:40.309085 10834 net.cpp:100] Creating Layer score
I1020 04:58:40.309088 10834 net.cpp:434] score <- pool7
I1020 04:58:40.309092 10834 net.cpp:408] score -> score
I1020 04:58:40.309201 10834 net.cpp:150] Setting up score
I1020 04:58:40.309206 10834 net.cpp:157] Top shape: 64 10 (640)
I1020 04:58:40.309206 10834 net.cpp:165] Memory required for data: 134388992
I1020 04:58:40.309211 10834 layer_factory.hpp:77] Creating layer score_score_0_split
I1020 04:58:40.309214 10834 net.cpp:100] Creating Layer score_score_0_split
I1020 04:58:40.309217 10834 net.cpp:434] score_score_0_split <- score
I1020 04:58:40.309221 10834 net.cpp:408] score_score_0_split -> score_score_0_split_0
I1020 04:58:40.309224 10834 net.cpp:408] score_score_0_split -> score_score_0_split_1
I1020 04:58:40.309249 10834 net.cpp:150] Setting up score_score_0_split
I1020 04:58:40.309252 10834 net.cpp:157] Top shape: 64 10 (640)
I1020 04:58:40.309254 10834 net.cpp:157] Top shape: 64 10 (640)
I1020 04:58:40.309257 10834 net.cpp:165] Memory required for data: 134394112
I1020 04:58:40.309259 10834 layer_factory.hpp:77] Creating layer accuracy
I1020 04:58:40.309263 10834 net.cpp:100] Creating Layer accuracy
I1020 04:58:40.309265 10834 net.cpp:434] accuracy <- score_score_0_split_0
I1020 04:58:40.309268 10834 net.cpp:434] accuracy <- label_data_1_split_0
I1020 04:58:40.309273 10834 net.cpp:408] accuracy -> accuracy
…
I1020 04:58:40.309679 10834 net.cpp:283] Network initialization done.
I1020 04:58:40.309873 10834 solver.cpp:181] Creating test net (#0) specified by test_net file: /home/adam/Honours/Honours-Project/mnist_pooling/max/elu/poolcnn_elu_test.prototxt
I1020 04:58:40.309994 10834 net.cpp:58] Initializing net from parameters: 
state {
  phase: TEST
}
layer {
  name: "data"
  type: "Data"
  top: "data"
  top: "label"
  transform_param {
    scale: 0.0039215689
  }
  data_param {
    source: "../../../../data/mnist/mnist_test_lmdb"
    batch_size: 100
    backend: LMDB
  }
}
layer {
  name: "conv1"
  type: "Convolution"
  bottom: "data"
  top: "conv1"
  convolution_param {
    num_output: 192
    kernel_size: 5
    weight_filler {
      type: "xavier"
    }
  }
}
layer {
  name: "elu1"
  type: "ELU"
  bottom: "conv1"
  top: "elu1"
}
layer {
  name: "drop1"
  type: "Dropout"
  bottom: "elu1"
  top: "drop1"
  dropout_param {
    dropout_ratio: 0
  }
}
layer {
  name: "pool1"
  type: "Pooling"
  bottom: "drop1"
  top: "pool1"
  pooling_param {
    pool: MAX
    kernel_size: 2
    stride: 2
  }
}
layer {
  name: "conv2"
  type: "Convolution"
  bottom: "pool1"
  top: "conv2"
  convolution_param {
    num_output: 192
    kernel_size: 1
    weight_filler {
      type: "xavier"
    }
  }
}
layer {
  name: "elu2"
  type: "ELU"
  bottom: "conv2"
  top: "elu2"
}
layer {
  name: "conv3"
  type: "Convolution"
  bottom: "elu2"
  top: "conv3"
  convolution_param {
    num_output: 240
    kernel_size: 3
    weight_filler {
      type: "xavier"
    }
  }
}
layer {
  name: "elu3"
  type: "ELU"
  bottom: "conv3"
  top: "elu3"
}
layer {
  name: "drop2"
  type: "Dropout"
  bottom: "elu3"
  top: "drop2"
  dropout_param {
    dropout_ratio: 0.1
  }
}
layer {
  name: "pool2"
  type: "Pooling"
  bottom: "drop2"
  top: "pool2"
  pooling_param {
    pool: MAX
    kernel_size: 2
    stride: 2
  }
}
layer {
  name: "conv4"
  type: "Convolution"
  bottom: "pool2"
  top: "conv4"
  convolution_param {
    num_output: 240
    kernel_size: 1
    weight_filler {
      type: "xavier"
    }
  }
}
layer {
  name: "elu4"
  type: "ELU"
  bottom: "conv4"
  top: "elu4"
}
layer {
  name: "conv5"
  type: "Convolution"
  bottom: "elu4"
  top: "conv5"
  convolution_param {
    num_output: 260
    kernel_size: 2
    weight_filler {
      type: "xavier"
    }
  }
}
layer {
  name: "elu5"
  type: "ELU"
  bottom: "conv5"
  top: "elu5"
}
layer {
  name: "drop3"
  type: "Dropout"
  bottom: "elu5"
  top: "drop3"
  dropout_param {
    dropout_ratio: 0.2
  }
}
layer {
  name: "pool3"
  type: "Pooling"
  bottom: "drop3"
  top: "pool3"
  pooling_param {
    pool: MAX
    kernel_size: 2
    stride: 2
  }
}
layer {
  name: "conv6"
  type: "Convolution"
  bottom: "pool3"
  top: "conv6"
  convolution_param {
    num_output: 260
    kernel_size: 1
    weight_filler {
      type: "xavier"
    }
  }
}
layer {
  name: "elu6"
  type: "ELU"
  bottom: "conv6"
  top: "elu6"
}
layer {
  name: "conv7"
  type: "Convolution"
  bottom: "elu6"
  top: "conv7"
  convolution_param {
    num_output: 280
    kernel_size: 2
    weight_filler {
      type: "xavier"
    }
  }
}
layer {
  name: "elu7"
  type: "ELU"
  bottom: "conv7"
  top: "elu7"
}
layer {
  name: "drop4"
  type: "Dropout"
  bottom: "elu7"
  top: "drop4"
  dropout_param {
    dropout_ratio: 0.3
  }
}
layer {
  name: "pool4"
  type: "Pooling"
  bottom: "drop4"
  top: "pool4"
  pooling_param {
    pool: MAX
    kernel_size: 2
    stride: 2
  }
}
layer {
  name: "conv8"
  type: "Convolution"
  bottom: "pool4"
  top: "conv8"
  convolution_param {
    num_output: 280
    kernel_size: 1
    weight_filler {
      type: "xavier"
    }
  }
}
layer {
  name: "elu8"
  type: "ELU"
  bottom: "conv8"
  top: "elu8"
}
layer {
  name: "drop5"
  type: "Dropout"
  bottom: "elu8"
  top: "drop5"
  dropout_param {
    dropout_ratio: 0.4
  }
}
layer {
  name: "pool5"
  type: "Pooling"
  bottom: "drop5"
  top: "pool5"
  pooling_param {
    pool: MAX
    kernel_size: 2
    stride: 2
  }
}
layer {
  name: "conv10"
  type: "Convolution"
  bottom: "pool5"
  top: "conv10"
  convolution_param {
    num_output: 300
    kernel_size: 1
    weight_filler {
      type: "xavier"
    }
  }
}
layer {
  name: "elu10"
  type: "ELU"
  bottom: "conv10"
  top: "elu10"
}
layer {
  name: "drop6"
  type: "Dropout"
  bottom: "elu10"
  top: "drop6"
  dropout_param {
    dropout_ratio: 0.5
  }
}
layer {
  name: "pool6"
  type: "Pooling"
  bottom: "drop6"
  top: "pool6"
  pooling_param {
    pool: MAX
    kernel_size: 2
    stride: 2
  }
}
layer {
  name: "conv11"
  type: "Convolution"
  bottom: "pool6"
  top: "conv11"
  convolution_param {
    num_output: 100
    kernel_size: 1
    weight_filler {
      type: "xavier"
    }
  }
}
layer {
  name: "elu11"
  type: "ELU"
  bottom: "conv11"
  top: "elu11"
}
layer {
  name: "drop7"
  type: "Dropout"
  bottom: "elu11"
  top: "drop7"
  dropout_param {
    dropout_ratio: 0
  }
}
layer {
  name: "pool7"
  type: "Pooling"
  bottom: "drop7"
  top: "pool7"
  pooling_param {
    pool: MAX
    kernel_size: 2
    stride: 2
  }
}
layer {
  name: "score"
  type: "InnerProduct"
  bottom: "pool7"
  top: "score"
  inner_product_param {
    num_output: 10
    weight_filler {
      type: "gaussian"
    }
  }
}
layer {
  name: "accuracy"
  type: "Accuracy"
  bottom: "score"
  bottom: "label"
  top: "accuracy"
}
layer {
  name: "loss"
  type: "SoftmaxWithLoss"
  bottom: "score"
  bottom: "label"
  top: "loss"
}
I1020 04:58:40.310092 10834 layer_factory.hpp:77] Creating layer data
I1020 04:58:40.310178 10834 net.cpp:100] Creating Layer data
I1020 04:58:40.310189 10834 net.cpp:408] data -> data
I1020 04:58:40.310196 10834 net.cpp:408] data -> label
I1020 04:58:40.310781 10846 db_lmdb.cpp:35] Opened lmdb ../../../../data/mnist/mnist_test_lmdb
I1020 04:58:40.310863 10834 data_layer.cpp:41] output data size: 100,1,28,28
I1020 04:58:40.311520 10834 net.cpp:150] Setting up data
I1020 04:58:40.311528 10834 net.cpp:157] Top shape: 100 1 28 28 (78400)
I1020 04:58:40.311534 10834 net.cpp:157] Top shape: 100 (100)
I1020 04:58:40.311537 10834 net.cpp:165] Memory required for data: 314000
I1020 04:58:40.311540 10834 layer_factory.hpp:77] Creating layer label_data_1_split
I1020 04:58:40.311548 10834 net.cpp:100] Creating Layer label_data_1_split
I1020 04:58:40.311552 10834 net.cpp:434] label_data_1_split <- label
I1020 04:58:40.311555 10834 net.cpp:408] label_data_1_split -> label_data_1_split_0
I1020 04:58:40.311563 10834 net.cpp:408] label_data_1_split -> label_data_1_split_1
I1020 04:58:40.311611 10834 net.cpp:150] Setting up label_data_1_split
I1020 04:58:40.311619 10834 net.cpp:157] Top shape: 100 (100)
I1020 04:58:40.311621 10834 net.cpp:157] Top shape: 100 (100)
I1020 04:58:40.311622 10834 net.cpp:165] Memory required for data: 314800
I1020 04:58:40.311625 10834 layer_factory.hpp:77] Creating layer conv1
I1020 04:58:40.311630 10834 net.cpp:100] Creating Layer conv1
I1020 04:58:40.311632 10834 net.cpp:434] conv1 <- data
I1020 04:58:40.311638 10834 net.cpp:408] conv1 -> conv1
I1020 04:58:40.312487 10834 net.cpp:150] Setting up conv1
I1020 04:58:40.312496 10834 net.cpp:157] Top shape: 100 192 24 24 (11059200)
I1020 04:58:40.312500 10834 net.cpp:165] Memory required for data: 44551600
I1020 04:58:40.312508 10834 layer_factory.hpp:77] Creating layer elu1
I1020 04:58:40.312515 10834 net.cpp:100] Creating Layer elu1
I1020 04:58:40.312516 10834 net.cpp:434] elu1 <- conv1
I1020 04:58:40.312520 10834 net.cpp:408] elu1 -> elu1
I1020 04:58:40.312538 10834 net.cpp:150] Setting up elu1
I1020 04:58:40.312547 10834 net.cpp:157] Top shape: 100 192 24 24 (11059200)
I1020 04:58:40.312549 10834 net.cpp:165] Memory required for data: 88788400
I1020 04:58:40.312556 10834 layer_factory.hpp:77] Creating layer drop1
I1020 04:58:40.312562 10834 net.cpp:100] Creating Layer drop1
I1020 04:58:40.312566 10834 net.cpp:434] drop1 <- elu1
I1020 04:58:40.312569 10834 net.cpp:408] drop1 -> drop1
I1020 04:58:40.312599 10834 net.cpp:150] Setting up drop1
I1020 04:58:40.312603 10834 net.cpp:157] Top shape: 100 192 24 24 (11059200)
I1020 04:58:40.312608 10834 net.cpp:165] Memory required for data: 133025200
I1020 04:58:40.312610 10834 layer_factory.hpp:77] Creating layer pool1
I1020 04:58:40.312616 10834 net.cpp:100] Creating Layer pool1
I1020 04:58:40.312620 10834 net.cpp:434] pool1 <- drop1
I1020 04:58:40.312626 10834 net.cpp:408] pool1 -> pool1
I1020 04:58:40.312654 10834 net.cpp:150] Setting up pool1
I1020 04:58:40.312659 10834 net.cpp:157] Top shape: 100 192 12 12 (2764800)
I1020 04:58:40.312664 10834 net.cpp:165] Memory required for data: 144084400
I1020 04:58:40.312667 10834 layer_factory.hpp:77] Creating layer conv2
I1020 04:58:40.312685 10834 net.cpp:100] Creating Layer conv2
I1020 04:58:40.312688 10834 net.cpp:434] conv2 <- pool1
I1020 04:58:40.312692 10834 net.cpp:408] conv2 -> conv2
I1020 04:58:40.313602 10834 net.cpp:150] Setting up conv2
I1020 04:58:40.313611 10834 net.cpp:157] Top shape: 100 192 12 12 (2764800)
I1020 04:58:40.313616 10834 net.cpp:165] Memory required for data: 155143600
I1020 04:58:40.313624 10834 layer_factory.hpp:77] Creating layer elu2
I1020 04:58:40.313628 10834 net.cpp:100] Creating Layer elu2
I1020 04:58:40.313632 10834 net.cpp:434] elu2 <- conv2
I1020 04:58:40.313637 10834 net.cpp:408] elu2 -> elu2
I1020 04:58:40.313654 10834 net.cpp:150] Setting up elu2
I1020 04:58:40.313658 10834 net.cpp:157] Top shape: 100 192 12 12 (2764800)
I1020 04:58:40.313660 10834 net.cpp:165] Memory required for data: 166202800
I1020 04:58:40.313663 10834 layer_factory.hpp:77] Creating layer conv3
I1020 04:58:40.313669 10834 net.cpp:100] Creating Layer conv3
I1020 04:58:40.313671 10834 net.cpp:434] conv3 <- elu2
I1020 04:58:40.313675 10834 net.cpp:408] conv3 -> conv3
I1020 04:58:40.316326 10834 net.cpp:150] Setting up conv3
I1020 04:58:40.316335 10834 net.cpp:157] Top shape: 100 240 10 10 (2400000)
I1020 04:58:40.316337 10834 net.cpp:165] Memory required for data: 175802800
I1020 04:58:40.316344 10834 layer_factory.hpp:77] Creating layer elu3
I1020 04:58:40.316347 10834 net.cpp:100] Creating Layer elu3
I1020 04:58:40.316350 10834 net.cpp:434] elu3 <- conv3
I1020 04:58:40.316354 10834 net.cpp:408] elu3 -> elu3
I1020 04:58:40.316373 10834 net.cpp:150] Setting up elu3
I1020 04:58:40.316378 10834 net.cpp:157] Top shape: 100 240 10 10 (2400000)
I1020 04:58:40.316380 10834 net.cpp:165] Memory required for data: 185402800
I1020 04:58:40.316381 10834 layer_factory.hpp:77] Creating layer drop2
I1020 04:58:40.316385 10834 net.cpp:100] Creating Layer drop2
I1020 04:58:40.316387 10834 net.cpp:434] drop2 <- elu3
I1020 04:58:40.316390 10834 net.cpp:408] drop2 -> drop2
I1020 04:58:40.316413 10834 net.cpp:150] Setting up drop2
I1020 04:58:40.316417 10834 net.cpp:157] Top shape: 100 240 10 10 (2400000)
I1020 04:58:40.316421 10834 net.cpp:165] Memory required for data: 195002800
I1020 04:58:40.316421 10834 layer_factory.hpp:77] Creating layer pool2
I1020 04:58:40.316426 10834 net.cpp:100] Creating Layer pool2
I1020 04:58:40.316427 10834 net.cpp:434] pool2 <- drop2
I1020 04:58:40.316431 10834 net.cpp:408] pool2 -> pool2
I1020 04:58:40.316455 10834 net.cpp:150] Setting up pool2
I1020 04:58:40.316459 10834 net.cpp:157] Top shape: 100 240 5 5 (600000)
I1020 04:58:40.316462 10834 net.cpp:165] Memory required for data: 197402800
I1020 04:58:40.316463 10834 layer_factory.hpp:77] Creating layer conv4
I1020 04:58:40.316468 10834 net.cpp:100] Creating Layer conv4
I1020 04:58:40.316470 10834 net.cpp:434] conv4 <- pool2
I1020 04:58:40.316473 10834 net.cpp:408] conv4 -> conv4
I1020 04:58:40.317374 10834 net.cpp:150] Setting up conv4
I1020 04:58:40.317384 10834 net.cpp:157] Top shape: 100 240 5 5 (600000)
I1020 04:58:40.317386 10834 net.cpp:165] Memory required for data: 199802800
I1020 04:58:40.317390 10834 layer_factory.hpp:77] Creating layer elu4
I1020 04:58:40.317394 10834 net.cpp:100] Creating Layer elu4
I1020 04:58:40.317396 10834 net.cpp:434] elu4 <- conv4
I1020 04:58:40.317399 10834 net.cpp:408] elu4 -> elu4
I1020 04:58:40.317417 10834 net.cpp:150] Setting up elu4
I1020 04:58:40.317422 10834 net.cpp:157] Top shape: 100 240 5 5 (600000)
I1020 04:58:40.317425 10834 net.cpp:165] Memory required for data: 202202800
I1020 04:58:40.317425 10834 layer_factory.hpp:77] Creating layer conv5
I1020 04:58:40.317430 10834 net.cpp:100] Creating Layer conv5
I1020 04:58:40.317433 10834 net.cpp:434] conv5 <- elu4
I1020 04:58:40.317437 10834 net.cpp:408] conv5 -> conv5
I1020 04:58:40.319365 10834 net.cpp:150] Setting up conv5
I1020 04:58:40.319375 10834 net.cpp:157] Top shape: 100 260 4 4 (416000)
I1020 04:58:40.319377 10834 net.cpp:165] Memory required for data: 203866800
I1020 04:58:40.319383 10834 layer_factory.hpp:77] Creating layer elu5
I1020 04:58:40.319396 10834 net.cpp:100] Creating Layer elu5
I1020 04:58:40.319399 10834 net.cpp:434] elu5 <- conv5
I1020 04:58:40.319403 10834 net.cpp:408] elu5 -> elu5
I1020 04:58:40.319422 10834 net.cpp:150] Setting up elu5
I1020 04:58:40.319427 10834 net.cpp:157] Top shape: 100 260 4 4 (416000)
I1020 04:58:40.319428 10834 net.cpp:165] Memory required for data: 205530800
I1020 04:58:40.319430 10834 layer_factory.hpp:77] Creating layer drop3
I1020 04:58:40.319437 10834 net.cpp:100] Creating Layer drop3
I1020 04:58:40.319440 10834 net.cpp:434] drop3 <- elu5
I1020 04:58:40.319443 10834 net.cpp:408] drop3 -> drop3
I1020 04:58:40.319469 10834 net.cpp:150] Setting up drop3
I1020 04:58:40.319473 10834 net.cpp:157] Top shape: 100 260 4 4 (416000)
I1020 04:58:40.319475 10834 net.cpp:165] Memory required for data: 207194800
I1020 04:58:40.319476 10834 layer_factory.hpp:77] Creating layer pool3
I1020 04:58:40.319480 10834 net.cpp:100] Creating Layer pool3
I1020 04:58:40.319481 10834 net.cpp:434] pool3 <- drop3
I1020 04:58:40.319485 10834 net.cpp:408] pool3 -> pool3
I1020 04:58:40.319509 10834 net.cpp:150] Setting up pool3
I1020 04:58:40.319514 10834 net.cpp:157] Top shape: 100 260 2 2 (104000)
I1020 04:58:40.319515 10834 net.cpp:165] Memory required for data: 207610800
I1020 04:58:40.319517 10834 layer_factory.hpp:77] Creating layer conv6
I1020 04:58:40.319524 10834 net.cpp:100] Creating Layer conv6
I1020 04:58:40.319526 10834 net.cpp:434] conv6 <- pool3
I1020 04:58:40.319530 10834 net.cpp:408] conv6 -> conv6
I1020 04:58:40.320773 10834 net.cpp:150] Setting up conv6
I1020 04:58:40.320782 10834 net.cpp:157] Top shape: 100 260 2 2 (104000)
I1020 04:58:40.320785 10834 net.cpp:165] Memory required for data: 208026800
I1020 04:58:40.320789 10834 layer_factory.hpp:77] Creating layer elu6
I1020 04:58:40.320793 10834 net.cpp:100] Creating Layer elu6
I1020 04:58:40.320796 10834 net.cpp:434] elu6 <- conv6
I1020 04:58:40.320801 10834 net.cpp:408] elu6 -> elu6
I1020 04:58:40.320819 10834 net.cpp:150] Setting up elu6
I1020 04:58:40.320823 10834 net.cpp:157] Top shape: 100 260 2 2 (104000)
I1020 04:58:40.320825 10834 net.cpp:165] Memory required for data: 208442800
I1020 04:58:40.320827 10834 layer_factory.hpp:77] Creating layer conv7
I1020 04:58:40.320832 10834 net.cpp:100] Creating Layer conv7
I1020 04:58:40.320834 10834 net.cpp:434] conv7 <- elu6
I1020 04:58:40.320838 10834 net.cpp:408] conv7 -> conv7
I1020 04:58:40.322927 10834 net.cpp:150] Setting up conv7
I1020 04:58:40.322937 10834 net.cpp:157] Top shape: 100 280 1 1 (28000)
I1020 04:58:40.322938 10834 net.cpp:165] Memory required for data: 208554800
I1020 04:58:40.322942 10834 layer_factory.hpp:77] Creating layer elu7
I1020 04:58:40.322947 10834 net.cpp:100] Creating Layer elu7
I1020 04:58:40.322949 10834 net.cpp:434] elu7 <- conv7
I1020 04:58:40.322953 10834 net.cpp:408] elu7 -> elu7
I1020 04:58:40.322971 10834 net.cpp:150] Setting up elu7
I1020 04:58:40.322976 10834 net.cpp:157] Top shape: 100 280 1 1 (28000)
I1020 04:58:40.322979 10834 net.cpp:165] Memory required for data: 208666800
I1020 04:58:40.322980 10834 layer_factory.hpp:77] Creating layer drop4
I1020 04:58:40.322983 10834 net.cpp:100] Creating Layer drop4
I1020 04:58:40.322986 10834 net.cpp:434] drop4 <- elu7
I1020 04:58:40.322989 10834 net.cpp:408] drop4 -> drop4
I1020 04:58:40.323014 10834 net.cpp:150] Setting up drop4
I1020 04:58:40.323019 10834 net.cpp:157] Top shape: 100 280 1 1 (28000)
I1020 04:58:40.323020 10834 net.cpp:165] Memory required for data: 208778800
I1020 04:58:40.323022 10834 layer_factory.hpp:77] Creating layer pool4
I1020 04:58:40.323025 10834 net.cpp:100] Creating Layer pool4
I1020 04:58:40.323027 10834 net.cpp:434] pool4 <- drop4
I1020 04:58:40.323031 10834 net.cpp:408] pool4 -> pool4
I1020 04:58:40.323057 10834 net.cpp:150] Setting up pool4
I1020 04:58:40.323061 10834 net.cpp:157] Top shape: 100 280 1 1 (28000)
I1020 04:58:40.323063 10834 net.cpp:165] Memory required for data: 208890800
I1020 04:58:40.323065 10834 layer_factory.hpp:77] Creating layer conv8
I1020 04:58:40.323071 10834 net.cpp:100] Creating Layer conv8
I1020 04:58:40.323081 10834 net.cpp:434] conv8 <- pool4
I1020 04:58:40.323086 10834 net.cpp:408] conv8 -> conv8
I1020 04:58:40.324098 10834 net.cpp:150] Setting up conv8
I1020 04:58:40.324106 10834 net.cpp:157] Top shape: 100 280 1 1 (28000)
I1020 04:58:40.324108 10834 net.cpp:165] Memory required for data: 209002800
I1020 04:58:40.324112 10834 layer_factory.hpp:77] Creating layer elu8
I1020 04:58:40.324116 10834 net.cpp:100] Creating Layer elu8
I1020 04:58:40.324120 10834 net.cpp:434] elu8 <- conv8
I1020 04:58:40.324122 10834 net.cpp:408] elu8 -> elu8
I1020 04:58:40.324141 10834 net.cpp:150] Setting up elu8
I1020 04:58:40.324144 10834 net.cpp:157] Top shape: 100 280 1 1 (28000)
I1020 04:58:40.324146 10834 net.cpp:165] Memory required for data: 209114800
I1020 04:58:40.324147 10834 layer_factory.hpp:77] Creating layer drop5
I1020 04:58:40.324151 10834 net.cpp:100] Creating Layer drop5
I1020 04:58:40.324153 10834 net.cpp:434] drop5 <- elu8
I1020 04:58:40.324157 10834 net.cpp:408] drop5 -> drop5
I1020 04:58:40.324182 10834 net.cpp:150] Setting up drop5
I1020 04:58:40.324187 10834 net.cpp:157] Top shape: 100 280 1 1 (28000)
I1020 04:58:40.324190 10834 net.cpp:165] Memory required for data: 209226800
I1020 04:58:40.324193 10834 layer_factory.hpp:77] Creating layer pool5
I1020 04:58:40.324195 10834 net.cpp:100] Creating Layer pool5
I1020 04:58:40.324198 10834 net.cpp:434] pool5 <- drop5
I1020 04:58:40.324200 10834 net.cpp:408] pool5 -> pool5
I1020 04:58:40.324225 10834 net.cpp:150] Setting up pool5
I1020 04:58:40.324229 10834 net.cpp:157] Top shape: 100 280 1 1 (28000)
I1020 04:58:40.324231 10834 net.cpp:165] Memory required for data: 209338800
I1020 04:58:40.324234 10834 layer_factory.hpp:77] Creating layer conv10
I1020 04:58:40.324239 10834 net.cpp:100] Creating Layer conv10
I1020 04:58:40.324240 10834 net.cpp:434] conv10 <- pool5
I1020 04:58:40.324244 10834 net.cpp:408] conv10 -> conv10
I1020 04:58:40.325367 10834 net.cpp:150] Setting up conv10
I1020 04:58:40.325376 10834 net.cpp:157] Top shape: 100 300 1 1 (30000)
I1020 04:58:40.325379 10834 net.cpp:165] Memory required for data: 209458800
I1020 04:58:40.325389 10834 layer_factory.hpp:77] Creating layer elu10
I1020 04:58:40.325394 10834 net.cpp:100] Creating Layer elu10
I1020 04:58:40.325399 10834 net.cpp:434] elu10 <- conv10
I1020 04:58:40.325403 10834 net.cpp:408] elu10 -> elu10
I1020 04:58:40.325423 10834 net.cpp:150] Setting up elu10
I1020 04:58:40.325428 10834 net.cpp:157] Top shape: 100 300 1 1 (30000)
I1020 04:58:40.325433 10834 net.cpp:165] Memory required for data: 209578800
I1020 04:58:40.325434 10834 layer_factory.hpp:77] Creating layer drop6
I1020 04:58:40.325441 10834 net.cpp:100] Creating Layer drop6
I1020 04:58:40.325445 10834 net.cpp:434] drop6 <- elu10
I1020 04:58:40.325448 10834 net.cpp:408] drop6 -> drop6
I1020 04:58:40.325479 10834 net.cpp:150] Setting up drop6
I1020 04:58:40.325484 10834 net.cpp:157] Top shape: 100 300 1 1 (30000)
I1020 04:58:40.325487 10834 net.cpp:165] Memory required for data: 209698800
I1020 04:58:40.325489 10834 layer_factory.hpp:77] Creating layer pool6
I1020 04:58:40.325494 10834 net.cpp:100] Creating Layer pool6
I1020 04:58:40.325495 10834 net.cpp:434] pool6 <- drop6
I1020 04:58:40.325498 10834 net.cpp:408] pool6 -> pool6
I1020 04:58:40.325525 10834 net.cpp:150] Setting up pool6
I1020 04:58:40.325528 10834 net.cpp:157] Top shape: 100 300 1 1 (30000)
I1020 04:58:40.325531 10834 net.cpp:165] Memory required for data: 209818800
I1020 04:58:40.325532 10834 layer_factory.hpp:77] Creating layer conv11
I1020 04:58:40.325541 10834 net.cpp:100] Creating Layer conv11
I1020 04:58:40.325542 10834 net.cpp:434] conv11 <- pool6
I1020 04:58:40.325546 10834 net.cpp:408] conv11 -> conv11
I1020 04:58:40.326293 10834 net.cpp:150] Setting up conv11
I1020 04:58:40.326303 10834 net.cpp:157] Top shape: 100 100 1 1 (10000)
I1020 04:58:40.326305 10834 net.cpp:165] Memory required for data: 209858800
I1020 04:58:40.326308 10834 layer_factory.hpp:77] Creating layer elu11
I1020 04:58:40.326313 10834 net.cpp:100] Creating Layer elu11
I1020 04:58:40.326323 10834 net.cpp:434] elu11 <- conv11
I1020 04:58:40.326326 10834 net.cpp:408] elu11 -> elu11
I1020 04:58:40.326344 10834 net.cpp:150] Setting up elu11
I1020 04:58:40.326349 10834 net.cpp:157] Top shape: 100 100 1 1 (10000)
I1020 04:58:40.326351 10834 net.cpp:165] Memory required for data: 209898800
I1020 04:58:40.326352 10834 layer_factory.hpp:77] Creating layer drop7
I1020 04:58:40.326355 10834 net.cpp:100] Creating Layer drop7
I1020 04:58:40.326359 10834 net.cpp:434] drop7 <- elu11
I1020 04:58:40.326361 10834 net.cpp:408] drop7 -> drop7
I1020 04:58:40.326386 10834 net.cpp:150] Setting up drop7
I1020 04:58:40.326391 10834 net.cpp:157] Top shape: 100 100 1 1 (10000)
I1020 04:58:40.326393 10834 net.cpp:165] Memory required for data: 209938800
I1020 04:58:40.326395 10834 layer_factory.hpp:77] Creating layer pool7
I1020 04:58:40.326398 10834 net.cpp:100] Creating Layer pool7
I1020 04:58:40.326400 10834 net.cpp:434] pool7 <- drop7
I1020 04:58:40.326403 10834 net.cpp:408] pool7 -> pool7
I1020 04:58:40.326428 10834 net.cpp:150] Setting up pool7
I1020 04:58:40.326433 10834 net.cpp:157] Top shape: 100 100 1 1 (10000)
I1020 04:58:40.326434 10834 net.cpp:165] Memory required for data: 209978800
I1020 04:58:40.326436 10834 layer_factory.hpp:77] Creating layer score
I1020 04:58:40.326442 10834 net.cpp:100] Creating Layer score
I1020 04:58:40.326443 10834 net.cpp:434] score <- pool7
I1020 04:58:40.326447 10834 net.cpp:408] score -> score
I1020 04:58:40.326550 10834 net.cpp:150] Setting up score
I1020 04:58:40.326553 10834 net.cpp:157] Top shape: 100 10 (1000)
I1020 04:58:40.326555 10834 net.cpp:165] Memory required for data: 209982800
I1020 04:58:40.326558 10834 layer_factory.hpp:77] Creating layer score_score_0_split
I1020 04:58:40.326562 10834 net.cpp:100] Creating Layer score_score_0_split
I1020 04:58:40.326565 10834 net.cpp:434] score_score_0_split <- score
I1020 04:58:40.326568 10834 net.cpp:408] score_score_0_split -> score_score_0_split_0
I1020 04:58:40.326573 10834 net.cpp:408] score_score_0_split -> score_score_0_split_1
I1020 04:58:40.326602 10834 net.cpp:150] Setting up score_score_0_split
I1020 04:58:40.326606 10834 net.cpp:157] Top shape: 100 10 (1000)
I1020 04:58:40.326611 10834 net.cpp:157] Top shape: 100 10 (1000)
I1020 04:58:40.326613 10834 net.cpp:165] Memory required for data: 209990800
I1020 04:58:40.326617 10834 layer_factory.hpp:77] Creating layer accuracy
I1020 04:58:40.326622 10834 net.cpp:100] Creating Layer accuracy
I1020 04:58:40.326624 10834 net.cpp:434] accuracy <- score_score_0_split_0
I1020 04:58:40.326627 10834 net.cpp:434] accuracy <- label_data_1_split_0
I1020 04:58:40.326633 10834 net.cpp:408] accuracy -> accuracy
…
