…
  stage: ""
}
type: "AdaDelta"
I1018 19:01:46.600198  4507 solver.cpp:81] Creating training net from train_net file: /home/adam/Honours/Honours-Project/mnist_pooling/max/leakyrelu/poolcnn_leakyrelu_train.prototxt
I1018 19:01:46.600564  4507 net.cpp:58] Initializing net from parameters: 
state {
  phase: TRAIN
  level: 0
  stage: ""
}
layer {
  name: "data"
  type: "Data"
  top: "data"
  top: "label"
  transform_param {
    scale: 0.0039215689
  }
  data_param {
    source: "../../../../data/mnist/mnist_train_lmdb"
    batch_size: 64
    backend: LMDB
  }
}
layer {
  name: "conv1"
  type: "Convolution"
  bottom: "data"
  top: "conv1"
  convolution_param {
    num_output: 192
    kernel_size: 5
    weight_filler {
      type: "xavier"
    }
  }
}
layer {
  name: "pool1"
  type: "Pooling"
  bottom: "conv1"
  top: "pool1"
  pooling_param {
    pool: MAX
    kernel_size: 2
    stride: 2
  }
}
layer {
  name: "drop1"
  type: "Dropout"
  bottom: "pool1"
  top: "drop1"
  dropout_param {
    dropout_ratio: 0
  }
}
layer {
  name: "relu1"
  type: "ReLU"
  bottom: "drop1"
  top: "relu1"
  relu_param {
    negative_slope: 0.01
  }
}
layer {
  name: "conv2"
  type: "Convolution"
  bottom: "relu1"
  top: "conv2"
  convolution_param {
    num_output: 192
    kernel_size: 1
    weight_filler {
      type: "xavier"
    }
  }
}
layer {
  name: "conv3"
  type: "Convolution"
  bottom: "conv2"
  top: "conv3"
  convolution_param {
    num_output: 240
    kernel_size: 3
    weight_filler {
      type: "xavier"
    }
  }
}
layer {
  name: "pool2"
  type: "Pooling"
  bottom: "conv3"
  top: "pool2"
  pooling_param {
    pool: MAX
    kernel_size: 2
    stride: 2
  }
}
layer {
  name: "drop2"
  type: "Dropout"
  bottom: "pool2"
  top: "drop2"
  dropout_param {
    dropout_ratio: 0.1
  }
}
layer {
  name: "relu2"
  type: "ReLU"
  bottom: "drop2"
  top: "relu2"
  relu_param {
    negative_slope: 0.01
  }
}
layer {
  name: "conv4"
  type: "Convolution"
  bottom: "relu2"
  top: "conv4"
  convolution_param {
    num_output: 240
    kernel_size: 1
    weight_filler {
      type: "xavier"
    }
  }
}
layer {
  name: "conv5"
  type: "Convolution"
  bottom: "conv4"
  top: "conv5"
  convolution_param {
    num_output: 260
    kernel_size: 2
    weight_filler {
      type: "xavier"
    }
  }
}
layer {
  name: "pool3"
  type: "Pooling"
  bottom: "conv5"
  top: "pool3"
  pooling_param {
    pool: MAX
    kernel_size: 2
    stride: 2
  }
}
layer {
  name: "drop3"
  type: "Dropout"
  bottom: "pool3"
  top: "drop3"
  dropout_param {
    dropout_ratio: 0.2
  }
}
layer {
  name: "relu3"
  type: "ReLU"
  bottom: "drop3"
  top: "relu3"
  relu_param {
    negative_slope: 0.01
  }
}
layer {
  name: "conv6"
  type: "Convolution"
  bottom: "relu3"
  top: "conv6"
  convolution_param {
    num_output: 260
    kernel_size: 1
    weight_filler {
      type: "xavier"
    }
  }
}
layer {
  name: "conv7"
  type: "Convolution"
  bottom: "conv6"
  top: "conv7"
  convolution_param {
    num_output: 280
    kernel_size: 2
    weight_filler {
      type: "xavier"
    }
  }
}
layer {
  name: "pool4"
  type: "Pooling"
  bottom: "conv7"
  top: "pool4"
  pooling_param {
    pool: MAX
    kernel_size: 2
    stride: 2
  }
}
layer {
  name: "drop4"
  type: "Dropout"
  bottom: "pool4"
  top: "drop4"
  dropout_param {
    dropout_ratio: 0.3
  }
}
layer {
  name: "relu4"
  type: "ReLU"
  bottom: "drop4"
  top: "relu4"
  relu_param {
    negative_slope: 0.01
  }
}
layer {
  name: "conv8"
  type: "Convolution"
  bottom: "relu4"
  top: "conv8"
  convolution_param {
    num_output: 280
    kernel_size: 1
    weight_filler {
      type: "xavier"
    }
  }
}
layer {
  name: "pool5"
  type: "Pooling"
  bottom: "conv8"
  top: "pool5"
  pooling_param {
    pool: MAX
    kernel_size: 2
    stride: 2
  }
}
layer {
  name: "drop5"
  type: "Dropout"
  bottom: "pool5"
  top: "drop5"
  dropout_param {
    dropout_ratio: 0.4
  }
}
layer {
  name: "relu5"
  type: "ReLU"
  bottom: "drop5"
  top: "relu5"
  relu_param {
    negative_slope: 0.01
  }
}
layer {
  name: "conv10"
  type: "Convolution"
  bottom: "relu5"
  top: "conv10"
  convolution_param {
    num_output: 300
    kernel_size: 1
    weight_filler {
      type: "xavier"
    }
  }
}
layer {
  name: "pool6"
  type: "Pooling"
  bottom: "conv10"
  top: "pool6"
  pooling_param {
    pool: MAX
    kernel_size: 2
    stride: 2
  }
}
layer {
  name: "drop6"
  type: "Dropout"
  bottom: "pool6"
  top: "drop6"
  dropout_param {
    dropout_ratio: 0.5
  }
}
layer {
  name: "relu6"
  type: "ReLU"
  bottom: "drop6"
  top: "relu6"
  relu_param {
    negative_slope: 0.01
  }
}
layer {
  name: "conv11"
  type: "Convolution"
  bottom: "relu6"
  top: "conv11"
  convolution_param {
    num_output: 100
    kernel_size: 1
    weight_filler {
      type: "xavier"
    }
  }
}
layer {
  name: "pool7"
  type: "Pooling"
  bottom: "conv11"
  top: "pool7"
  pooling_param {
    pool: MAX
    kernel_size: 2
    stride: 2
  }
}
layer {
  name: "drop7"
  type: "Dropout"
  bottom: "pool7"
  top: "drop7"
  dropout_param {
    dropout_ratio: 0
  }
}
layer {
  name: "relu7"
  type: "ReLU"
  bottom: "drop7"
  top: "relu7"
  relu_param {
    negative_slope: 0.01
  }
}
layer {
  name: "pool"
  type: "Pooling"
  bottom: "relu7"
  top: "pool"
  pooling_param {
    pool: AVE
    global_pooling: true
  }
}
layer {
  name: "flatten"
  type: "Flatten"
  bottom: "pool"
  top: "flatten"
}
layer {
  name: "score"
  type: "InnerProduct"
  bottom: "flatten"
  top: "score"
  inner_product_param {
    num_output: 10
    weight_filler {
      type: "gaussian"
    }
  }
}
layer {
  name: "accuracy"
  type: "Accuracy"
  bottom: "score"
  bottom: "label"
  top: "accuracy"
}
layer {
  name: "loss"
  type: "SoftmaxWithLoss"
  bottom: "score"
  bottom: "label"
  top: "loss"
}
I1018 19:01:46.600669  4507 layer_factory.hpp:77] Creating layer data
I1018 19:01:46.601047  4507 net.cpp:100] Creating Layer data
I1018 19:01:46.601054  4507 net.cpp:408] data -> data
I1018 19:01:46.601068  4507 net.cpp:408] data -> label
I1018 19:01:46.601663  4513 db_lmdb.cpp:35] Opened lmdb ../../../../data/mnist/mnist_train_lmdb
I1018 19:01:46.607306  4507 data_layer.cpp:41] output data size: 64,1,28,28
I1018 19:01:46.607889  4507 net.cpp:150] Setting up data
I1018 19:01:46.607903  4507 net.cpp:157] Top shape: 64 1 28 28 (50176)
I1018 19:01:46.607908  4507 net.cpp:157] Top shape: 64 (64)
I1018 19:01:46.607911  4507 net.cpp:165] Memory required for data: 200960
I1018 19:01:46.607923  4507 layer_factory.hpp:77] Creating layer label_data_1_split
I1018 19:01:46.607938  4507 net.cpp:100] Creating Layer label_data_1_split
I1018 19:01:46.607942  4507 net.cpp:434] label_data_1_split <- label
I1018 19:01:46.607959  4507 net.cpp:408] label_data_1_split -> label_data_1_split_0
I1018 19:01:46.607969  4507 net.cpp:408] label_data_1_split -> label_data_1_split_1
I1018 19:01:46.608002  4507 net.cpp:150] Setting up label_data_1_split
I1018 19:01:46.608008  4507 net.cpp:157] Top shape: 64 (64)
I1018 19:01:46.608013  4507 net.cpp:157] Top shape: 64 (64)
I1018 19:01:46.608016  4507 net.cpp:165] Memory required for data: 201472
I1018 19:01:46.608021  4507 layer_factory.hpp:77] Creating layer conv1
I1018 19:01:46.608034  4507 net.cpp:100] Creating Layer conv1
I1018 19:01:46.608038  4507 net.cpp:434] conv1 <- data
I1018 19:01:46.608045  4507 net.cpp:408] conv1 -> conv1
I1018 19:01:46.731811  4507 net.cpp:150] Setting up conv1
I1018 19:01:46.731837  4507 net.cpp:157] Top shape: 64 192 24 24 (7077888)
I1018 19:01:46.731840  4507 net.cpp:165] Memory required for data: 28513024
I1018 19:01:46.731880  4507 layer_factory.hpp:77] Creating layer pool1
I1018 19:01:46.731892  4507 net.cpp:100] Creating Layer pool1
I1018 19:01:46.731896  4507 net.cpp:434] pool1 <- conv1
I1018 19:01:46.731904  4507 net.cpp:408] pool1 -> pool1
I1018 19:01:46.731945  4507 net.cpp:150] Setting up pool1
I1018 19:01:46.731950  4507 net.cpp:157] Top shape: 64 192 12 12 (1769472)
I1018 19:01:46.731953  4507 net.cpp:165] Memory required for data: 35590912
I1018 19:01:46.731956  4507 layer_factory.hpp:77] Creating layer drop1
I1018 19:01:46.731964  4507 net.cpp:100] Creating Layer drop1
I1018 19:01:46.731967  4507 net.cpp:434] drop1 <- pool1
I1018 19:01:46.731972  4507 net.cpp:408] drop1 -> drop1
I1018 19:01:46.731999  4507 net.cpp:150] Setting up drop1
I1018 19:01:46.732003  4507 net.cpp:157] Top shape: 64 192 12 12 (1769472)
I1018 19:01:46.732007  4507 net.cpp:165] Memory required for data: 42668800
I1018 19:01:46.732012  4507 layer_factory.hpp:77] Creating layer relu1
I1018 19:01:46.732017  4507 net.cpp:100] Creating Layer relu1
I1018 19:01:46.732020  4507 net.cpp:434] relu1 <- drop1
I1018 19:01:46.732024  4507 net.cpp:408] relu1 -> relu1
I1018 19:01:46.732149  4507 net.cpp:150] Setting up relu1
I1018 19:01:46.732156  4507 net.cpp:157] Top shape: 64 192 12 12 (1769472)
I1018 19:01:46.732158  4507 net.cpp:165] Memory required for data: 49746688
I1018 19:01:46.732162  4507 layer_factory.hpp:77] Creating layer conv2
I1018 19:01:46.732172  4507 net.cpp:100] Creating Layer conv2
I1018 19:01:46.732175  4507 net.cpp:434] conv2 <- relu1
I1018 19:01:46.732180  4507 net.cpp:408] conv2 -> conv2
I1018 19:01:46.732981  4507 net.cpp:150] Setting up conv2
I1018 19:01:46.732990  4507 net.cpp:157] Top shape: 64 192 12 12 (1769472)
I1018 19:01:46.732993  4507 net.cpp:165] Memory required for data: 56824576
I1018 19:01:46.733003  4507 layer_factory.hpp:77] Creating layer conv3
I1018 19:01:46.733011  4507 net.cpp:100] Creating Layer conv3
I1018 19:01:46.733013  4507 net.cpp:434] conv3 <- conv2
I1018 19:01:46.733019  4507 net.cpp:408] conv3 -> conv3
I1018 19:01:46.735443  4507 net.cpp:150] Setting up conv3
I1018 19:01:46.735452  4507 net.cpp:157] Top shape: 64 240 10 10 (1536000)
I1018 19:01:46.735455  4507 net.cpp:165] Memory required for data: 62968576
I1018 19:01:46.735465  4507 layer_factory.hpp:77] Creating layer pool2
I1018 19:01:46.735473  4507 net.cpp:100] Creating Layer pool2
I1018 19:01:46.735483  4507 net.cpp:434] pool2 <- conv3
I1018 19:01:46.735488  4507 net.cpp:408] pool2 -> pool2
I1018 19:01:46.735517  4507 net.cpp:150] Setting up pool2
I1018 19:01:46.735522  4507 net.cpp:157] Top shape: 64 240 5 5 (384000)
I1018 19:01:46.735525  4507 net.cpp:165] Memory required for data: 64504576
I1018 19:01:46.735529  4507 layer_factory.hpp:77] Creating layer drop2
I1018 19:01:46.735537  4507 net.cpp:100] Creating Layer drop2
I1018 19:01:46.735539  4507 net.cpp:434] drop2 <- pool2
I1018 19:01:46.735543  4507 net.cpp:408] drop2 -> drop2
I1018 19:01:46.735568  4507 net.cpp:150] Setting up drop2
I1018 19:01:46.735574  4507 net.cpp:157] Top shape: 64 240 5 5 (384000)
I1018 19:01:46.735576  4507 net.cpp:165] Memory required for data: 66040576
I1018 19:01:46.735579  4507 layer_factory.hpp:77] Creating layer relu2
I1018 19:01:46.735584  4507 net.cpp:100] Creating Layer relu2
I1018 19:01:46.735587  4507 net.cpp:434] relu2 <- drop2
I1018 19:01:46.735592  4507 net.cpp:408] relu2 -> relu2
I1018 19:01:46.735707  4507 net.cpp:150] Setting up relu2
I1018 19:01:46.735713  4507 net.cpp:157] Top shape: 64 240 5 5 (384000)
I1018 19:01:46.735718  4507 net.cpp:165] Memory required for data: 67576576
I1018 19:01:46.735721  4507 layer_factory.hpp:77] Creating layer conv4
I1018 19:01:46.735729  4507 net.cpp:100] Creating Layer conv4
I1018 19:01:46.735733  4507 net.cpp:434] conv4 <- relu2
I1018 19:01:46.735738  4507 net.cpp:408] conv4 -> conv4
I1018 19:01:46.736574  4507 net.cpp:150] Setting up conv4
I1018 19:01:46.736582  4507 net.cpp:157] Top shape: 64 240 5 5 (384000)
I1018 19:01:46.736585  4507 net.cpp:165] Memory required for data: 69112576
I1018 19:01:46.736605  4507 layer_factory.hpp:77] Creating layer conv5
I1018 19:01:46.736615  4507 net.cpp:100] Creating Layer conv5
I1018 19:01:46.736619  4507 net.cpp:434] conv5 <- conv4
I1018 19:01:46.736624  4507 net.cpp:408] conv5 -> conv5
I1018 19:01:46.738370  4507 net.cpp:150] Setting up conv5
I1018 19:01:46.738379  4507 net.cpp:157] Top shape: 64 260 4 4 (266240)
I1018 19:01:46.738382  4507 net.cpp:165] Memory required for data: 70177536
I1018 19:01:46.738390  4507 layer_factory.hpp:77] Creating layer pool3
I1018 19:01:46.738396  4507 net.cpp:100] Creating Layer pool3
I1018 19:01:46.738400  4507 net.cpp:434] pool3 <- conv5
I1018 19:01:46.738405  4507 net.cpp:408] pool3 -> pool3
I1018 19:01:46.738431  4507 net.cpp:150] Setting up pool3
I1018 19:01:46.738437  4507 net.cpp:157] Top shape: 64 260 2 2 (66560)
I1018 19:01:46.738441  4507 net.cpp:165] Memory required for data: 70443776
I1018 19:01:46.738445  4507 layer_factory.hpp:77] Creating layer drop3
I1018 19:01:46.738448  4507 net.cpp:100] Creating Layer drop3
I1018 19:01:46.738452  4507 net.cpp:434] drop3 <- pool3
I1018 19:01:46.738457  4507 net.cpp:408] drop3 -> drop3
I1018 19:01:46.738481  4507 net.cpp:150] Setting up drop3
I1018 19:01:46.738487  4507 net.cpp:157] Top shape: 64 260 2 2 (66560)
I1018 19:01:46.738489  4507 net.cpp:165] Memory required for data: 70710016
I1018 19:01:46.738493  4507 layer_factory.hpp:77] Creating layer relu3
I1018 19:01:46.738497  4507 net.cpp:100] Creating Layer relu3
I1018 19:01:46.738500  4507 net.cpp:434] relu3 <- drop3
I1018 19:01:46.738505  4507 net.cpp:408] relu3 -> relu3
I1018 19:01:46.738617  4507 net.cpp:150] Setting up relu3
I1018 19:01:46.738623  4507 net.cpp:157] Top shape: 64 260 2 2 (66560)
I1018 19:01:46.738626  4507 net.cpp:165] Memory required for data: 70976256
I1018 19:01:46.738628  4507 layer_factory.hpp:77] Creating layer conv6
I1018 19:01:46.738637  4507 net.cpp:100] Creating Layer conv6
I1018 19:01:46.738641  4507 net.cpp:434] conv6 <- relu3
I1018 19:01:46.738646  4507 net.cpp:408] conv6 -> conv6
I1018 19:01:46.739727  4507 net.cpp:150] Setting up conv6
I1018 19:01:46.739737  4507 net.cpp:157] Top shape: 64 260 2 2 (66560)
I1018 19:01:46.739740  4507 net.cpp:165] Memory required for data: 71242496
I1018 19:01:46.739747  4507 layer_factory.hpp:77] Creating layer conv7
I1018 19:01:46.739754  4507 net.cpp:100] Creating Layer conv7
I1018 19:01:46.739758  4507 net.cpp:434] conv7 <- conv6
I1018 19:01:46.739763  4507 net.cpp:408] conv7 -> conv7
I1018 19:01:46.741680  4507 net.cpp:150] Setting up conv7
I1018 19:01:46.741690  4507 net.cpp:157] Top shape: 64 280 1 1 (17920)
I1018 19:01:46.741694  4507 net.cpp:165] Memory required for data: 71314176
I1018 19:01:46.741700  4507 layer_factory.hpp:77] Creating layer pool4
I1018 19:01:46.741708  4507 net.cpp:100] Creating Layer pool4
I1018 19:01:46.741710  4507 net.cpp:434] pool4 <- conv7
I1018 19:01:46.741717  4507 net.cpp:408] pool4 -> pool4
I1018 19:01:46.741745  4507 net.cpp:150] Setting up pool4
I1018 19:01:46.741750  4507 net.cpp:157] Top shape: 64 280 1 1 (17920)
I1018 19:01:46.741753  4507 net.cpp:165] Memory required for data: 71385856
I1018 19:01:46.741757  4507 layer_factory.hpp:77] Creating layer drop4
I1018 19:01:46.741762  4507 net.cpp:100] Creating Layer drop4
I1018 19:01:46.741765  4507 net.cpp:434] drop4 <- pool4
I1018 19:01:46.741770  4507 net.cpp:408] drop4 -> drop4
I1018 19:01:46.741794  4507 net.cpp:150] Setting up drop4
I1018 19:01:46.741799  4507 net.cpp:157] Top shape: 64 280 1 1 (17920)
I1018 19:01:46.741801  4507 net.cpp:165] Memory required for data: 71457536
I1018 19:01:46.741804  4507 layer_factory.hpp:77] Creating layer relu4
I1018 19:01:46.741811  4507 net.cpp:100] Creating Layer relu4
I1018 19:01:46.741813  4507 net.cpp:434] relu4 <- drop4
I1018 19:01:46.741817  4507 net.cpp:408] relu4 -> relu4
I1018 19:01:46.742008  4507 net.cpp:150] Setting up relu4
I1018 19:01:46.742017  4507 net.cpp:157] Top shape: 64 280 1 1 (17920)
I1018 19:01:46.742019  4507 net.cpp:165] Memory required for data: 71529216
I1018 19:01:46.742022  4507 layer_factory.hpp:77] Creating layer conv8
I1018 19:01:46.742038  4507 net.cpp:100] Creating Layer conv8
I1018 19:01:46.742043  4507 net.cpp:434] conv8 <- relu4
I1018 19:01:46.742048  4507 net.cpp:408] conv8 -> conv8
I1018 19:01:46.742871  4507 net.cpp:150] Setting up conv8
I1018 19:01:46.742878  4507 net.cpp:157] Top shape: 64 280 1 1 (17920)
I1018 19:01:46.742882  4507 net.cpp:165] Memory required for data: 71600896
I1018 19:01:46.742888  4507 layer_factory.hpp:77] Creating layer pool5
I1018 19:01:46.742894  4507 net.cpp:100] Creating Layer pool5
I1018 19:01:46.742898  4507 net.cpp:434] pool5 <- conv8
I1018 19:01:46.742904  4507 net.cpp:408] pool5 -> pool5
I1018 19:01:46.742933  4507 net.cpp:150] Setting up pool5
I1018 19:01:46.742979  4507 net.cpp:157] Top shape: 64 280 1 1 (17920)
I1018 19:01:46.742985  4507 net.cpp:165] Memory required for data: 71672576
I1018 19:01:46.742987  4507 layer_factory.hpp:77] Creating layer drop5
I1018 19:01:46.742992  4507 net.cpp:100] Creating Layer drop5
I1018 19:01:46.742995  4507 net.cpp:434] drop5 <- pool5
I1018 19:01:46.743000  4507 net.cpp:408] drop5 -> drop5
I1018 19:01:46.743028  4507 net.cpp:150] Setting up drop5
I1018 19:01:46.743033  4507 net.cpp:157] Top shape: 64 280 1 1 (17920)
I1018 19:01:46.743037  4507 net.cpp:165] Memory required for data: 71744256
I1018 19:01:46.743039  4507 layer_factory.hpp:77] Creating layer relu5
I1018 19:01:46.743043  4507 net.cpp:100] Creating Layer relu5
I1018 19:01:46.743047  4507 net.cpp:434] relu5 <- drop5
I1018 19:01:46.743051  4507 net.cpp:408] relu5 -> relu5
I1018 19:01:46.743398  4507 net.cpp:150] Setting up relu5
I1018 19:01:46.743407  4507 net.cpp:157] Top shape: 64 280 1 1 (17920)
I1018 19:01:46.743409  4507 net.cpp:165] Memory required for data: 71815936
I1018 19:01:46.743412  4507 layer_factory.hpp:77] Creating layer conv10
I1018 19:01:46.743417  4507 net.cpp:100] Creating Layer conv10
I1018 19:01:46.743419  4507 net.cpp:434] conv10 <- relu5
I1018 19:01:46.743423  4507 net.cpp:408] conv10 -> conv10
I1018 19:01:46.744653  4507 net.cpp:150] Setting up conv10
I1018 19:01:46.744668  4507 net.cpp:157] Top shape: 64 300 1 1 (19200)
I1018 19:01:46.744670  4507 net.cpp:165] Memory required for data: 71892736
I1018 19:01:46.744680  4507 layer_factory.hpp:77] Creating layer pool6
I1018 19:01:46.744688  4507 net.cpp:100] Creating Layer pool6
I1018 19:01:46.744689  4507 net.cpp:434] pool6 <- conv10
I1018 19:01:46.744693  4507 net.cpp:408] pool6 -> pool6
I1018 19:01:46.744720  4507 net.cpp:150] Setting up pool6
I1018 19:01:46.744724  4507 net.cpp:157] Top shape: 64 300 1 1 (19200)
I1018 19:01:46.744725  4507 net.cpp:165] Memory required for data: 71969536
I1018 19:01:46.744727  4507 layer_factory.hpp:77] Creating layer drop6
I1018 19:01:46.744731  4507 net.cpp:100] Creating Layer drop6
I1018 19:01:46.744734  4507 net.cpp:434] drop6 <- pool6
I1018 19:01:46.744736  4507 net.cpp:408] drop6 -> drop6
I1018 19:01:46.744760  4507 net.cpp:150] Setting up drop6
I1018 19:01:46.744762  4507 net.cpp:157] Top shape: 64 300 1 1 (19200)
I1018 19:01:46.744765  4507 net.cpp:165] Memory required for data: 72046336
I1018 19:01:46.744766  4507 layer_factory.hpp:77] Creating layer relu6
I1018 19:01:46.744770  4507 net.cpp:100] Creating Layer relu6
I1018 19:01:46.744771  4507 net.cpp:434] relu6 <- drop6
I1018 19:01:46.744773  4507 net.cpp:408] relu6 -> relu6
I1018 19:01:46.744884  4507 net.cpp:150] Setting up relu6
I1018 19:01:46.744889  4507 net.cpp:157] Top shape: 64 300 1 1 (19200)
I1018 19:01:46.744890  4507 net.cpp:165] Memory required for data: 72123136
I1018 19:01:46.744892  4507 layer_factory.hpp:77] Creating layer conv11
I1018 19:01:46.744897  4507 net.cpp:100] Creating Layer conv11
I1018 19:01:46.744900  4507 net.cpp:434] conv11 <- relu6
I1018 19:01:46.744904  4507 net.cpp:408] conv11 -> conv11
I1018 19:01:46.745877  4507 net.cpp:150] Setting up conv11
I1018 19:01:46.745885  4507 net.cpp:157] Top shape: 64 100 1 1 (6400)
I1018 19:01:46.745888  4507 net.cpp:165] Memory required for data: 72148736
I1018 19:01:46.745893  4507 layer_factory.hpp:77] Creating layer pool7
I1018 19:01:46.745896  4507 net.cpp:100] Creating Layer pool7
I1018 19:01:46.745908  4507 net.cpp:434] pool7 <- conv11
I1018 19:01:46.745913  4507 net.cpp:408] pool7 -> pool7
I1018 19:01:46.745939  4507 net.cpp:150] Setting up pool7
I1018 19:01:46.745944  4507 net.cpp:157] Top shape: 64 100 1 1 (6400)
I1018 19:01:46.745946  4507 net.cpp:165] Memory required for data: 72174336
I1018 19:01:46.745949  4507 layer_factory.hpp:77] Creating layer drop7
I1018 19:01:46.745951  4507 net.cpp:100] Creating Layer drop7
I1018 19:01:46.745954  4507 net.cpp:434] drop7 <- pool7
I1018 19:01:46.745955  4507 net.cpp:408] drop7 -> drop7
I1018 19:01:46.745977  4507 net.cpp:150] Setting up drop7
I1018 19:01:46.745980  4507 net.cpp:157] Top shape: 64 100 1 1 (6400)
I1018 19:01:46.745982  4507 net.cpp:165] Memory required for data: 72199936
I1018 19:01:46.745983  4507 layer_factory.hpp:77] Creating layer relu7
I1018 19:01:46.745990  4507 net.cpp:100] Creating Layer relu7
I1018 19:01:46.745991  4507 net.cpp:434] relu7 <- drop7
I1018 19:01:46.745995  4507 net.cpp:408] relu7 -> relu7
I1018 19:01:46.746178  4507 net.cpp:150] Setting up relu7
I1018 19:01:46.746186  4507 net.cpp:157] Top shape: 64 100 1 1 (6400)
I1018 19:01:46.746187  4507 net.cpp:165] Memory required for data: 72225536
I1018 19:01:46.746189  4507 layer_factory.hpp:77] Creating layer pool
I1018 19:01:46.746192  4507 net.cpp:100] Creating Layer pool
I1018 19:01:46.746196  4507 net.cpp:434] pool <- relu7
I1018 19:01:46.746198  4507 net.cpp:408] pool -> pool
I1018 19:01:46.746310  4507 net.cpp:150] Setting up pool
I1018 19:01:46.746315  4507 net.cpp:157] Top shape: 64 100 1 1 (6400)
I1018 19:01:46.746318  4507 net.cpp:165] Memory required for data: 72251136
I1018 19:01:46.746320  4507 layer_factory.hpp:77] Creating layer flatten
I1018 19:01:46.746323  4507 net.cpp:100] Creating Layer flatten
I1018 19:01:46.746325  4507 net.cpp:434] flatten <- pool
I1018 19:01:46.746328  4507 net.cpp:408] flatten -> flatten
I1018 19:01:46.746343  4507 net.cpp:150] Setting up flatten
I1018 19:01:46.746346  4507 net.cpp:157] Top shape: 64 100 (6400)
I1018 19:01:46.746348  4507 net.cpp:165] Memory required for data: 72276736
I1018 19:01:46.746351  4507 layer_factory.hpp:77] Creating layer score
I1018 19:01:46.746354  4507 net.cpp:100] Creating Layer score
I1018 19:01:46.746356  4507 net.cpp:434] score <- flatten
I1018 19:01:46.746359  4507 net.cpp:408] score -> score
I1018 19:01:46.746451  4507 net.cpp:150] Setting up score
I1018 19:01:46.746455  4507 net.cpp:157] Top shape: 64 10 (640)
I1018 19:01:46.746457  4507 net.cpp:165] Memory required for data: 72279296
I1018 19:01:46.746460  4507 layer_factory.hpp:77] Creating layer score_score_0_split
I1018 19:01:46.746465  4507 net.cpp:100] Creating Layer score_score_0_split
I1018 19:01:46.746467  4507 net.cpp:434] score_score_0_split <- score
I1018 19:01:46.746470  4507 net.cpp:408] score_score_0_split -> score_score_0_split_0
I1018 19:01:46.746474  4507 net.cpp:408] score_score_0_split -> score_score_0_split_1
I1018 19:01:46.746495  4507 net.cpp:150] Setting up score_score_0_split
I1018 19:01:46.746498  4507 net.cpp:157] Top shape: 64 10 (640)
I1018 19:01:46.746500  4507 net.cpp:157] Top shape: 64 10 (640)
I1018 19:01:46.746502  4507 net.cpp:165] Memory required for data: 72284416
I1018 19:01:46.746505  4507 layer_factory.hpp:77] Creating layer accuracy
I1018 19:01:46.746507  4507 net.cpp:100] Creating Layer accuracy
I1018 19:01:46.746510  4507 net.cpp:434] accuracy <- score_score_0_split_0
I1018 19:01:46.746512  4507 net.cpp:434] accuracy <- label_data_1_split_0
I1018 19:01:46.746515  4507 net.cpp:408] accuracy -> accuracy
…
I1018 19:01:46.746908  4507 net.cpp:283] Network initialization done.
I1018 19:01:46.747100  4507 solver.cpp:181] Creating test net (#0) specified by test_net file: /home/adam/Honours/Honours-Project/mnist_pooling/max/leakyrelu/poolcnn_leakyrelu_test.prototxt
I1018 19:01:46.747218  4507 net.cpp:58] Initializing net from parameters: 
state {
  phase: TEST
}
layer {
  name: "data"
  type: "Data"
  top: "data"
  top: "label"
  transform_param {
    scale: 0.0039215689
  }
  data_param {
    source: "../../../../data/mnist/mnist_test_lmdb"
    batch_size: 100
    backend: LMDB
  }
}
layer {
  name: "conv1"
  type: "Convolution"
  bottom: "data"
  top: "conv1"
  convolution_param {
    num_output: 192
    kernel_size: 5
    weight_filler {
      type: "xavier"
    }
  }
}
layer {
  name: "pool1"
  type: "Pooling"
  bottom: "conv1"
  top: "pool1"
  pooling_param {
    pool: MAX
    kernel_size: 2
    stride: 2
  }
}
layer {
  name: "drop1"
  type: "Dropout"
  bottom: "pool1"
  top: "drop1"
  dropout_param {
    dropout_ratio: 0
  }
}
layer {
  name: "relu1"
  type: "ReLU"
  bottom: "drop1"
  top: "relu1"
  relu_param {
    negative_slope: 0.01
  }
}
layer {
  name: "conv2"
  type: "Convolution"
  bottom: "relu1"
  top: "conv2"
  convolution_param {
    num_output: 192
    kernel_size: 1
    weight_filler {
      type: "xavier"
    }
  }
}
layer {
  name: "conv3"
  type: "Convolution"
  bottom: "conv2"
  top: "conv3"
  convolution_param {
    num_output: 240
    kernel_size: 3
    weight_filler {
      type: "xavier"
    }
  }
}
layer {
  name: "pool2"
  type: "Pooling"
  bottom: "conv3"
  top: "pool2"
  pooling_param {
    pool: MAX
    kernel_size: 2
    stride: 2
  }
}
layer {
  name: "drop2"
  type: "Dropout"
  bottom: "pool2"
  top: "drop2"
  dropout_param {
    dropout_ratio: 0.1
  }
}
layer {
  name: "relu2"
  type: "ReLU"
  bottom: "drop2"
  top: "relu2"
  relu_param {
    negative_slope: 0.01
  }
}
layer {
  name: "conv4"
  type: "Convolution"
  bottom: "relu2"
  top: "conv4"
  convolution_param {
    num_output: 240
    kernel_size: 1
    weight_filler {
      type: "xavier"
    }
  }
}
layer {
  name: "conv5"
  type: "Convolution"
  bottom: "conv4"
  top: "conv5"
  convolution_param {
    num_output: 260
    kernel_size: 2
    weight_filler {
      type: "xavier"
    }
  }
}
layer {
  name: "pool3"
  type: "Pooling"
  bottom: "conv5"
  top: "pool3"
  pooling_param {
    pool: MAX
    kernel_size: 2
    stride: 2
  }
}
layer {
  name: "drop3"
  type: "Dropout"
  bottom: "pool3"
  top: "drop3"
  dropout_param {
    dropout_ratio: 0.2
  }
}
layer {
  name: "relu3"
  type: "ReLU"
  bottom: "drop3"
  top: "relu3"
  relu_param {
    negative_slope: 0.01
  }
}
layer {
  name: "conv6"
  type: "Convolution"
  bottom: "relu3"
  top: "conv6"
  convolution_param {
    num_output: 260
    kernel_size: 1
    weight_filler {
      type: "xavier"
    }
  }
}
layer {
  name: "conv7"
  type: "Convolution"
  bottom: "conv6"
  top: "conv7"
  convolution_param {
    num_output: 280
    kernel_size: 2
    weight_filler {
      type: "xavier"
    }
  }
}
layer {
  name: "pool4"
  type: "Pooling"
  bottom: "conv7"
  top: "pool4"
  pooling_param {
    pool: MAX
    kernel_size: 2
    stride: 2
  }
}
layer {
  name: "drop4"
  type: "Dropout"
  bottom: "pool4"
  top: "drop4"
  dropout_param {
    dropout_ratio: 0.3
  }
}
layer {
  name: "relu4"
  type: "ReLU"
  bottom: "drop4"
  top: "relu4"
  relu_param {
    negative_slope: 0.01
  }
}
layer {
  name: "conv8"
  type: "Convolution"
  bottom: "relu4"
  top: "conv8"
  convolution_param {
    num_output: 280
    kernel_size: 1
    weight_filler {
      type: "xavier"
    }
  }
}
layer {
  name: "pool5"
  type: "Pooling"
  bottom: "conv8"
  top: "pool5"
  pooling_param {
    pool: MAX
    kernel_size: 2
    stride: 2
  }
}
layer {
  name: "drop5"
  type: "Dropout"
  bottom: "pool5"
  top: "drop5"
  dropout_param {
    dropout_ratio: 0.4
  }
}
layer {
  name: "relu5"
  type: "ReLU"
  bottom: "drop5"
  top: "relu5"
  relu_param {
    negative_slope: 0.01
  }
}
layer {
  name: "conv10"
  type: "Convolution"
  bottom: "relu5"
  top: "conv10"
  convolution_param {
    num_output: 300
    kernel_size: 1
    weight_filler {
      type: "xavier"
    }
  }
}
layer {
  name: "pool6"
  type: "Pooling"
  bottom: "conv10"
  top: "pool6"
  pooling_param {
    pool: MAX
    kernel_size: 2
    stride: 2
  }
}
layer {
  name: "drop6"
  type: "Dropout"
  bottom: "pool6"
  top: "drop6"
  dropout_param {
    dropout_ratio: 0.5
  }
}
layer {
  name: "relu6"
  type: "ReLU"
  bottom: "drop6"
  top: "relu6"
  relu_param {
    negative_slope: 0.01
  }
}
layer {
  name: "conv11"
  type: "Convolution"
  bottom: "relu6"
  top: "conv11"
  convolution_param {
    num_output: 100
    kernel_size: 1
    weight_filler {
      type: "xavier"
    }
  }
}
layer {
  name: "pool7"
  type: "Pooling"
  bottom: "conv11"
  top: "pool7"
  pooling_param {
    pool: MAX
    kernel_size: 2
    stride: 2
  }
}
layer {
  name: "drop7"
  type: "Dropout"
  bottom: "pool7"
  top: "drop7"
  dropout_param {
    dropout_ratio: 0
  }
}
layer {
  name: "relu7"
  type: "ReLU"
  bottom: "drop7"
  top: "relu7"
  relu_param {
    negative_slope: 0.01
  }
}
layer {
  name: "pool"
  type: "Pooling"
  bottom: "relu7"
  top: "pool"
  pooling_param {
    pool: AVE
    global_pooling: true
  }
}
layer {
  name: "flatten"
  type: "Flatten"
  bottom: "pool"
  top: "flatten"
}
layer {
  name: "score"
  type: "InnerProduct"
  bottom: "flatten"
  top: "score"
  inner_product_param {
    num_output: 10
    weight_filler {
      type: "gaussian"
    }
  }
}
layer {
  name: "accuracy"
  type: "Accuracy"
  bottom: "score"
  bottom: "label"
  top: "accuracy"
}
layer {
  name: "loss"
  type: "SoftmaxWithLoss"
  bottom: "score"
  bottom: "label"
  top: "loss"
}
I1018 19:01:46.747290  4507 layer_factory.hpp:77] Creating layer data
I1018 19:01:46.747454  4507 net.cpp:100] Creating Layer data
I1018 19:01:46.747460  4507 net.cpp:408] data -> data
I1018 19:01:46.747465  4507 net.cpp:408] data -> label
I1018 19:01:46.748051  4515 db_lmdb.cpp:35] Opened lmdb ../../../../data/mnist/mnist_test_lmdb
I1018 19:01:46.748126  4507 data_layer.cpp:41] output data size: 100,1,28,28
I1018 19:01:46.748809  4507 net.cpp:150] Setting up data
I1018 19:01:46.748818  4507 net.cpp:157] Top shape: 100 1 28 28 (78400)
I1018 19:01:46.748821  4507 net.cpp:157] Top shape: 100 (100)
I1018 19:01:46.748823  4507 net.cpp:165] Memory required for data: 314000
I1018 19:01:46.748826  4507 layer_factory.hpp:77] Creating layer label_data_1_split
I1018 19:01:46.748832  4507 net.cpp:100] Creating Layer label_data_1_split
I1018 19:01:46.748834  4507 net.cpp:434] label_data_1_split <- label
I1018 19:01:46.748839  4507 net.cpp:408] label_data_1_split -> label_data_1_split_0
I1018 19:01:46.748844  4507 net.cpp:408] label_data_1_split -> label_data_1_split_1
I1018 19:01:46.748886  4507 net.cpp:150] Setting up label_data_1_split
I1018 19:01:46.748891  4507 net.cpp:157] Top shape: 100 (100)
I1018 19:01:46.748893  4507 net.cpp:157] Top shape: 100 (100)
I1018 19:01:46.748895  4507 net.cpp:165] Memory required for data: 314800
I1018 19:01:46.748898  4507 layer_factory.hpp:77] Creating layer conv1
I1018 19:01:46.748904  4507 net.cpp:100] Creating Layer conv1
I1018 19:01:46.748905  4507 net.cpp:434] conv1 <- data
I1018 19:01:46.748909  4507 net.cpp:408] conv1 -> conv1
I1018 19:01:46.749516  4507 net.cpp:150] Setting up conv1
I1018 19:01:46.749524  4507 net.cpp:157] Top shape: 100 192 24 24 (11059200)
I1018 19:01:46.749526  4507 net.cpp:165] Memory required for data: 44551600
I1018 19:01:46.749533  4507 layer_factory.hpp:77] Creating layer pool1
I1018 19:01:46.749538  4507 net.cpp:100] Creating Layer pool1
I1018 19:01:46.749541  4507 net.cpp:434] pool1 <- conv1
I1018 19:01:46.749543  4507 net.cpp:408] pool1 -> pool1
I1018 19:01:46.749588  4507 net.cpp:150] Setting up pool1
I1018 19:01:46.749593  4507 net.cpp:157] Top shape: 100 192 12 12 (2764800)
I1018 19:01:46.749595  4507 net.cpp:165] Memory required for data: 55610800
I1018 19:01:46.749596  4507 layer_factory.hpp:77] Creating layer drop1
I1018 19:01:46.749601  4507 net.cpp:100] Creating Layer drop1
I1018 19:01:46.749603  4507 net.cpp:434] drop1 <- pool1
I1018 19:01:46.749606  4507 net.cpp:408] drop1 -> drop1
I1018 19:01:46.749629  4507 net.cpp:150] Setting up drop1
I1018 19:01:46.749634  4507 net.cpp:157] Top shape: 100 192 12 12 (2764800)
I1018 19:01:46.749635  4507 net.cpp:165] Memory required for data: 66670000
I1018 19:01:46.749636  4507 layer_factory.hpp:77] Creating layer relu1
I1018 19:01:46.749640  4507 net.cpp:100] Creating Layer relu1
I1018 19:01:46.749642  4507 net.cpp:434] relu1 <- drop1
I1018 19:01:46.749645  4507 net.cpp:408] relu1 -> relu1
I1018 19:01:46.749845  4507 net.cpp:150] Setting up relu1
I1018 19:01:46.749851  4507 net.cpp:157] Top shape: 100 192 12 12 (2764800)
I1018 19:01:46.749856  4507 net.cpp:165] Memory required for data: 77729200
I1018 19:01:46.749858  4507 layer_factory.hpp:77] Creating layer conv2
I1018 19:01:46.749866  4507 net.cpp:100] Creating Layer conv2
I1018 19:01:46.749867  4507 net.cpp:434] conv2 <- relu1
I1018 19:01:46.749871  4507 net.cpp:408] conv2 -> conv2
I1018 19:01:46.750668  4507 net.cpp:150] Setting up conv2
I1018 19:01:46.750675  4507 net.cpp:157] Top shape: 100 192 12 12 (2764800)
I1018 19:01:46.750701  4507 net.cpp:165] Memory required for data: 88788400
I1018 19:01:46.750708  4507 layer_factory.hpp:77] Creating layer conv3
I1018 19:01:46.750713  4507 net.cpp:100] Creating Layer conv3
I1018 19:01:46.750717  4507 net.cpp:434] conv3 <- conv2
I1018 19:01:46.750721  4507 net.cpp:408] conv3 -> conv3
I1018 19:01:46.753181  4507 net.cpp:150] Setting up conv3
I1018 19:01:46.753192  4507 net.cpp:157] Top shape: 100 240 10 10 (2400000)
I1018 19:01:46.753196  4507 net.cpp:165] Memory required for data: 98388400
I1018 19:01:46.753201  4507 layer_factory.hpp:77] Creating layer pool2
I1018 19:01:46.753207  4507 net.cpp:100] Creating Layer pool2
I1018 19:01:46.753211  4507 net.cpp:434] pool2 <- conv3
I1018 19:01:46.753213  4507 net.cpp:408] pool2 -> pool2
I1018 19:01:46.753240  4507 net.cpp:150] Setting up pool2
I1018 19:01:46.753244  4507 net.cpp:157] Top shape: 100 240 5 5 (600000)
I1018 19:01:46.753247  4507 net.cpp:165] Memory required for data: 100788400
I1018 19:01:46.753248  4507 layer_factory.hpp:77] Creating layer drop2
I1018 19:01:46.753252  4507 net.cpp:100] Creating Layer drop2
I1018 19:01:46.753257  4507 net.cpp:434] drop2 <- pool2
I1018 19:01:46.753258  4507 net.cpp:408] drop2 -> drop2
I1018 19:01:46.753279  4507 net.cpp:150] Setting up drop2
I1018 19:01:46.753283  4507 net.cpp:157] Top shape: 100 240 5 5 (600000)
I1018 19:01:46.753286  4507 net.cpp:165] Memory required for data: 103188400
I1018 19:01:46.753288  4507 layer_factory.hpp:77] Creating layer relu2
I1018 19:01:46.753290  4507 net.cpp:100] Creating Layer relu2
I1018 19:01:46.753293  4507 net.cpp:434] relu2 <- drop2
I1018 19:01:46.753295  4507 net.cpp:408] relu2 -> relu2
I1018 19:01:46.753402  4507 net.cpp:150] Setting up relu2
I1018 19:01:46.753407  4507 net.cpp:157] Top shape: 100 240 5 5 (600000)
I1018 19:01:46.753410  4507 net.cpp:165] Memory required for data: 105588400
I1018 19:01:46.753412  4507 layer_factory.hpp:77] Creating layer conv4
I1018 19:01:46.753417  4507 net.cpp:100] Creating Layer conv4
I1018 19:01:46.753420  4507 net.cpp:434] conv4 <- relu2
I1018 19:01:46.753422  4507 net.cpp:408] conv4 -> conv4
I1018 19:01:46.754227  4507 net.cpp:150] Setting up conv4
I1018 19:01:46.754235  4507 net.cpp:157] Top shape: 100 240 5 5 (600000)
I1018 19:01:46.754236  4507 net.cpp:165] Memory required for data: 107988400
I1018 19:01:46.754240  4507 layer_factory.hpp:77] Creating layer conv5
I1018 19:01:46.754245  4507 net.cpp:100] Creating Layer conv5
I1018 19:01:46.754248  4507 net.cpp:434] conv5 <- conv4
I1018 19:01:46.754251  4507 net.cpp:408] conv5 -> conv5
I1018 19:01:46.755990  4507 net.cpp:150] Setting up conv5
I1018 19:01:46.755997  4507 net.cpp:157] Top shape: 100 260 4 4 (416000)
I1018 19:01:46.756000  4507 net.cpp:165] Memory required for data: 109652400
I1018 19:01:46.756006  4507 layer_factory.hpp:77] Creating layer pool3
I1018 19:01:46.756009  4507 net.cpp:100] Creating Layer pool3
I1018 19:01:46.756013  4507 net.cpp:434] pool3 <- conv5
I1018 19:01:46.756016  4507 net.cpp:408] pool3 -> pool3
I1018 19:01:46.756042  4507 net.cpp:150] Setting up pool3
I1018 19:01:46.756045  4507 net.cpp:157] Top shape: 100 260 2 2 (104000)
I1018 19:01:46.756047  4507 net.cpp:165] Memory required for data: 110068400
I1018 19:01:46.756049  4507 layer_factory.hpp:77] Creating layer drop3
I1018 19:01:46.756052  4507 net.cpp:100] Creating Layer drop3
I1018 19:01:46.756053  4507 net.cpp:434] drop3 <- pool3
I1018 19:01:46.756057  4507 net.cpp:408] drop3 -> drop3
I1018 19:01:46.756079  4507 net.cpp:150] Setting up drop3
I1018 19:01:46.756093  4507 net.cpp:157] Top shape: 100 260 2 2 (104000)
I1018 19:01:46.756095  4507 net.cpp:165] Memory required for data: 110484400
I1018 19:01:46.756098  4507 layer_factory.hpp:77] Creating layer relu3
I1018 19:01:46.756100  4507 net.cpp:100] Creating Layer relu3
I1018 19:01:46.756103  4507 net.cpp:434] relu3 <- drop3
I1018 19:01:46.756104  4507 net.cpp:408] relu3 -> relu3
I1018 19:01:46.756214  4507 net.cpp:150] Setting up relu3
I1018 19:01:46.756219  4507 net.cpp:157] Top shape: 100 260 2 2 (104000)
I1018 19:01:46.756222  4507 net.cpp:165] Memory required for data: 110900400
I1018 19:01:46.756222  4507 layer_factory.hpp:77] Creating layer conv6
I1018 19:01:46.756228  4507 net.cpp:100] Creating Layer conv6
I1018 19:01:46.756232  4507 net.cpp:434] conv6 <- relu3
I1018 19:01:46.756234  4507 net.cpp:408] conv6 -> conv6
I1018 19:01:46.757433  4507 net.cpp:150] Setting up conv6
I1018 19:01:46.757443  4507 net.cpp:157] Top shape: 100 260 2 2 (104000)
I1018 19:01:46.757446  4507 net.cpp:165] Memory required for data: 111316400
I1018 19:01:46.757448  4507 layer_factory.hpp:77] Creating layer conv7
I1018 19:01:46.757454  4507 net.cpp:100] Creating Layer conv7
I1018 19:01:46.757457  4507 net.cpp:434] conv7 <- conv6
I1018 19:01:46.757460  4507 net.cpp:408] conv7 -> conv7
I1018 19:01:46.759831  4507 net.cpp:150] Setting up conv7
I1018 19:01:46.759843  4507 net.cpp:157] Top shape: 100 280 1 1 (28000)
I1018 19:01:46.759846  4507 net.cpp:165] Memory required for data: 111428400
I1018 19:01:46.759851  4507 layer_factory.hpp:77] Creating layer pool4
I1018 19:01:46.759896  4507 net.cpp:100] Creating Layer pool4
I1018 19:01:46.759898  4507 net.cpp:434] pool4 <- conv7
I1018 19:01:46.759902  4507 net.cpp:408] pool4 -> pool4
I1018 19:01:46.759929  4507 net.cpp:150] Setting up pool4
I1018 19:01:46.759933  4507 net.cpp:157] Top shape: 100 280 1 1 (28000)
I1018 19:01:46.759935  4507 net.cpp:165] Memory required for data: 111540400
I1018 19:01:46.759938  4507 layer_factory.hpp:77] Creating layer drop4
I1018 19:01:46.759941  4507 net.cpp:100] Creating Layer drop4
I1018 19:01:46.759943  4507 net.cpp:434] drop4 <- pool4
I1018 19:01:46.759946  4507 net.cpp:408] drop4 -> drop4
I1018 19:01:46.759968  4507 net.cpp:150] Setting up drop4
I1018 19:01:46.759973  4507 net.cpp:157] Top shape: 100 280 1 1 (28000)
I1018 19:01:46.759974  4507 net.cpp:165] Memory required for data: 111652400
I1018 19:01:46.759975  4507 layer_factory.hpp:77] Creating layer relu4
I1018 19:01:46.759979  4507 net.cpp:100] Creating Layer relu4
I1018 19:01:46.759981  4507 net.cpp:434] relu4 <- drop4
I1018 19:01:46.759984  4507 net.cpp:408] relu4 -> relu4
I1018 19:01:46.760097  4507 net.cpp:150] Setting up relu4
I1018 19:01:46.760103  4507 net.cpp:157] Top shape: 100 280 1 1 (28000)
I1018 19:01:46.760105  4507 net.cpp:165] Memory required for data: 111764400
I1018 19:01:46.760107  4507 layer_factory.hpp:77] Creating layer conv8
I1018 19:01:46.760114  4507 net.cpp:100] Creating Layer conv8
I1018 19:01:46.760118  4507 net.cpp:434] conv8 <- relu4
I1018 19:01:46.760123  4507 net.cpp:408] conv8 -> conv8
I1018 19:01:46.761375  4507 net.cpp:150] Setting up conv8
I1018 19:01:46.761387  4507 net.cpp:157] Top shape: 100 280 1 1 (28000)
I1018 19:01:46.761389  4507 net.cpp:165] Memory required for data: 111876400
I1018 19:01:46.761394  4507 layer_factory.hpp:77] Creating layer pool5
I1018 19:01:46.761399  4507 net.cpp:100] Creating Layer pool5
I1018 19:01:46.761401  4507 net.cpp:434] pool5 <- conv8
I1018 19:01:46.761405  4507 net.cpp:408] pool5 -> pool5
I1018 19:01:46.761432  4507 net.cpp:150] Setting up pool5
I1018 19:01:46.761436  4507 net.cpp:157] Top shape: 100 280 1 1 (28000)
I1018 19:01:46.761438  4507 net.cpp:165] Memory required for data: 111988400
I1018 19:01:46.761440  4507 layer_factory.hpp:77] Creating layer drop5
I1018 19:01:46.761443  4507 net.cpp:100] Creating Layer drop5
I1018 19:01:46.761445  4507 net.cpp:434] drop5 <- pool5
I1018 19:01:46.761447  4507 net.cpp:408] drop5 -> drop5
I1018 19:01:46.761471  4507 net.cpp:150] Setting up drop5
I1018 19:01:46.761484  4507 net.cpp:157] Top shape: 100 280 1 1 (28000)
I1018 19:01:46.761487  4507 net.cpp:165] Memory required for data: 112100400
I1018 19:01:46.761487  4507 layer_factory.hpp:77] Creating layer relu5
I1018 19:01:46.761492  4507 net.cpp:100] Creating Layer relu5
I1018 19:01:46.761493  4507 net.cpp:434] relu5 <- drop5
I1018 19:01:46.761495  4507 net.cpp:408] relu5 -> relu5
I1018 19:01:46.761682  4507 net.cpp:150] Setting up relu5
I1018 19:01:46.761688  4507 net.cpp:157] Top shape: 100 280 1 1 (28000)
I1018 19:01:46.761690  4507 net.cpp:165] Memory required for data: 112212400
I1018 19:01:46.761693  4507 layer_factory.hpp:77] Creating layer conv10
I1018 19:01:46.761698  4507 net.cpp:100] Creating Layer conv10
I1018 19:01:46.761699  4507 net.cpp:434] conv10 <- relu5
I1018 19:01:46.761703  4507 net.cpp:408] conv10 -> conv10
I1018 19:01:46.762614  4507 net.cpp:150] Setting up conv10
I1018 19:01:46.762620  4507 net.cpp:157] Top shape: 100 300 1 1 (30000)
I1018 19:01:46.762622  4507 net.cpp:165] Memory required for data: 112332400
I1018 19:01:46.762629  4507 layer_factory.hpp:77] Creating layer pool6
I1018 19:01:46.762634  4507 net.cpp:100] Creating Layer pool6
I1018 19:01:46.762635  4507 net.cpp:434] pool6 <- conv10
I1018 19:01:46.762639  4507 net.cpp:408] pool6 -> pool6
I1018 19:01:46.762662  4507 net.cpp:150] Setting up pool6
I1018 19:01:46.762666  4507 net.cpp:157] Top shape: 100 300 1 1 (30000)
I1018 19:01:46.762667  4507 net.cpp:165] Memory required for data: 112452400
I1018 19:01:46.762670  4507 layer_factory.hpp:77] Creating layer drop6
I1018 19:01:46.762672  4507 net.cpp:100] Creating Layer drop6
I1018 19:01:46.762675  4507 net.cpp:434] drop6 <- pool6
I1018 19:01:46.762677  4507 net.cpp:408] drop6 -> drop6
I1018 19:01:46.762698  4507 net.cpp:150] Setting up drop6
I1018 19:01:46.762702  4507 net.cpp:157] Top shape: 100 300 1 1 (30000)
I1018 19:01:46.762703  4507 net.cpp:165] Memory required for data: 112572400
I1018 19:01:46.762706  4507 layer_factory.hpp:77] Creating layer relu6
I1018 19:01:46.762708  4507 net.cpp:100] Creating Layer relu6
I1018 19:01:46.762711  4507 net.cpp:434] relu6 <- drop6
I1018 19:01:46.762712  4507 net.cpp:408] relu6 -> relu6
I1018 19:01:46.762817  4507 net.cpp:150] Setting up relu6
I1018 19:01:46.762822  4507 net.cpp:157] Top shape: 100 300 1 1 (30000)
I1018 19:01:46.762825  4507 net.cpp:165] Memory required for data: 112692400
I1018 19:01:46.762826  4507 layer_factory.hpp:77] Creating layer conv11
I1018 19:01:46.762830  4507 net.cpp:100] Creating Layer conv11
I1018 19:01:46.762832  4507 net.cpp:434] conv11 <- relu6
I1018 19:01:46.762835  4507 net.cpp:408] conv11 -> conv11
I1018 19:01:46.763551  4507 net.cpp:150] Setting up conv11
I1018 19:01:46.763559  4507 net.cpp:157] Top shape: 100 100 1 1 (10000)
I1018 19:01:46.763561  4507 net.cpp:165] Memory required for data: 112732400
I1018 19:01:46.763566  4507 layer_factory.hpp:77] Creating layer pool7
I1018 19:01:46.763569  4507 net.cpp:100] Creating Layer pool7
I1018 19:01:46.763572  4507 net.cpp:434] pool7 <- conv11
I1018 19:01:46.763576  4507 net.cpp:408] pool7 -> pool7
I1018 19:01:46.763602  4507 net.cpp:150] Setting up pool7
I1018 19:01:46.763607  4507 net.cpp:157] Top shape: 100 100 1 1 (10000)
I1018 19:01:46.763607  4507 net.cpp:165] Memory required for data: 112772400
I1018 19:01:46.763610  4507 layer_factory.hpp:77] Creating layer drop7
I1018 19:01:46.763612  4507 net.cpp:100] Creating Layer drop7
I1018 19:01:46.763614  4507 net.cpp:434] drop7 <- pool7
I1018 19:01:46.763617  4507 net.cpp:408] drop7 -> drop7
I1018 19:01:46.763638  4507 net.cpp:150] Setting up drop7
I1018 19:01:46.763641  4507 net.cpp:157] Top shape: 100 100 1 1 (10000)
I1018 19:01:46.763643  4507 net.cpp:165] Memory required for data: 112812400
I1018 19:01:46.763645  4507 layer_factory.hpp:77] Creating layer relu7
I1018 19:01:46.763650  4507 net.cpp:100] Creating Layer relu7
I1018 19:01:46.763653  4507 net.cpp:434] relu7 <- drop7
I1018 19:01:46.763656  4507 net.cpp:408] relu7 -> relu7
I1018 19:01:46.763762  4507 net.cpp:150] Setting up relu7
I1018 19:01:46.763775  4507 net.cpp:157] Top shape: 100 100 1 1 (10000)
I1018 19:01:46.763777  4507 net.cpp:165] Memory required for data: 112852400
I1018 19:01:46.763778  4507 layer_factory.hpp:77] Creating layer pool
I1018 19:01:46.763782  4507 net.cpp:100] Creating Layer pool
I1018 19:01:46.763784  4507 net.cpp:434] pool <- relu7
I1018 19:01:46.763787  4507 net.cpp:408] pool -> pool
I1018 19:01:46.763969  4507 net.cpp:150] Setting up pool
I1018 19:01:46.763977  4507 net.cpp:157] Top shape: 100 100 1 1 (10000)
I1018 19:01:46.763978  4507 net.cpp:165] Memory required for data: 112892400
I1018 19:01:46.763980  4507 layer_factory.hpp:77] Creating layer flatten
I1018 19:01:46.763983  4507 net.cpp:100] Creating Layer flatten
I1018 19:01:46.763985  4507 net.cpp:434] flatten <- pool
I1018 19:01:46.763988  4507 net.cpp:408] flatten -> flatten
I1018 19:01:46.764003  4507 net.cpp:150] Setting up flatten
I1018 19:01:46.764008  4507 net.cpp:157] Top shape: 100 100 (10000)
I1018 19:01:46.764008  4507 net.cpp:165] Memory required for data: 112932400
I1018 19:01:46.764010  4507 layer_factory.hpp:77] Creating layer score
I1018 19:01:46.764014  4507 net.cpp:100] Creating Layer score
I1018 19:01:46.764015  4507 net.cpp:434] score <- flatten
I1018 19:01:46.764019  4507 net.cpp:408] score -> score
I1018 19:01:46.764099  4507 net.cpp:150] Setting up score
I1018 19:01:46.764102  4507 net.cpp:157] Top shape: 100 10 (1000)
I1018 19:01:46.764104  4507 net.cpp:165] Memory required for data: 112936400
I1018 19:01:46.764107  4507 layer_factory.hpp:77] Creating layer score_score_0_split
I1018 19:01:46.764111  4507 net.cpp:100] Creating Layer score_score_0_split
I1018 19:01:46.764114  4507 net.cpp:434] score_score_0_split <- score
I1018 19:01:46.764117  4507 net.cpp:408] score_score_0_split -> score_score_0_split_0
I1018 19:01:46.764120  4507 net.cpp:408] score_score_0_split -> score_score_0_split_1
I1018 19:01:46.764142  4507 net.cpp:150] Setting up score_score_0_split
I1018 19:01:46.764145  4507 net.cpp:157] Top shape: 100 10 (1000)
I1018 19:01:46.764147  4507 net.cpp:157] Top shape: 100 10 (1000)
I1018 19:01:46.764149  4507 net.cpp:165] Memory required for data: 112944400
I1018 19:01:46.764152  4507 layer_factory.hpp:77] Creating layer accuracy
I1018 19:01:46.764154  4507 net.cpp:100] Creating Layer accuracy
I1018 19:01:46.764156  4507 net.cpp:434] accuracy <- score_score_0_split_0
I1018 19:01:46.764158  4507 net.cpp:434] accuracy <- label_data_1_split_0
I1018 19:01:46.764163  4507 net.cpp:408] accuracy -> accuracy
…
