…
  level: 0
  stage: ""
}
type: "AdaGrad"
I1018 19:58:17.794591  5661 solver.cpp:81] Creating training net from train_net file: /home/adam/Honours/Honours-Project/mnist_pooling/max/relu/poolcnn_relu_train.prototxt
I1018 19:58:17.794898  5661 net.cpp:58] Initializing net from parameters: 
state {
  phase: TRAIN
  level: 0
  stage: ""
}
layer {
  name: "data"
  type: "Data"
  top: "data"
  top: "label"
  transform_param {
    scale: 0.0039215689
  }
  data_param {
    source: "../../../../data/mnist/mnist_train_lmdb"
    batch_size: 64
    backend: LMDB
  }
}
layer {
  name: "conv1"
  type: "Convolution"
  bottom: "data"
  top: "conv1"
  convolution_param {
    num_output: 192
    kernel_size: 5
    weight_filler {
      type: "xavier"
    }
  }
}
layer {
  name: "pool1"
  type: "Pooling"
  bottom: "conv1"
  top: "pool1"
  pooling_param {
    pool: MAX
    kernel_size: 2
    stride: 2
  }
}
layer {
  name: "drop1"
  type: "Dropout"
  bottom: "pool1"
  top: "drop1"
  dropout_param {
    dropout_ratio: 0
  }
}
layer {
  name: "relu1"
  type: "ReLU"
  bottom: "drop1"
  top: "relu1"
}
layer {
  name: "conv2"
  type: "Convolution"
  bottom: "relu1"
  top: "conv2"
  convolution_param {
    num_output: 192
    kernel_size: 1
    weight_filler {
      type: "xavier"
    }
  }
}
layer {
  name: "conv3"
  type: "Convolution"
  bottom: "conv2"
  top: "conv3"
  convolution_param {
    num_output: 240
    kernel_size: 3
    weight_filler {
      type: "xavier"
    }
  }
}
layer {
  name: "pool2"
  type: "Pooling"
  bottom: "conv3"
  top: "pool2"
  pooling_param {
    pool: MAX
    kernel_size: 2
    stride: 2
  }
}
layer {
  name: "drop2"
  type: "Dropout"
  bottom: "pool2"
  top: "drop2"
  dropout_param {
    dropout_ratio: 0.1
  }
}
layer {
  name: "relu2"
  type: "ReLU"
  bottom: "drop2"
  top: "relu2"
}
layer {
  name: "conv4"
  type: "Convolution"
  bottom: "relu2"
  top: "conv4"
  convolution_param {
    num_output: 240
    kernel_size: 1
    weight_filler {
      type: "xavier"
    }
  }
}
layer {
  name: "conv5"
  type: "Convolution"
  bottom: "conv4"
  top: "conv5"
  convolution_param {
    num_output: 260
    kernel_size: 2
    weight_filler {
      type: "xavier"
    }
  }
}
layer {
  name: "pool3"
  type: "Pooling"
  bottom: "conv5"
  top: "pool3"
  pooling_param {
    pool: MAX
    kernel_size: 2
    stride: 2
  }
}
layer {
  name: "drop3"
  type: "Dropout"
  bottom: "pool3"
  top: "drop3"
  dropout_param {
    dropout_ratio: 0.2
  }
}
layer {
  name: "relu3"
  type: "ReLU"
  bottom: "drop3"
  top: "relu3"
}
layer {
  name: "conv6"
  type: "Convolution"
  bottom: "relu3"
  top: "conv6"
  convolution_param {
    num_output: 260
    kernel_size: 1
    weight_filler {
      type: "xavier"
    }
  }
}
layer {
  name: "conv7"
  type: "Convolution"
  bottom: "conv6"
  top: "conv7"
  convolution_param {
    num_output: 280
    kernel_size: 2
    weight_filler {
      type: "xavier"
    }
  }
}
layer {
  name: "pool4"
  type: "Pooling"
  bottom: "conv7"
  top: "pool4"
  pooling_param {
    pool: MAX
    kernel_size: 2
    stride: 2
  }
}
layer {
  name: "drop4"
  type: "Dropout"
  bottom: "pool4"
  top: "drop4"
  dropout_param {
    dropout_ratio: 0.3
  }
}
layer {
  name: "relu4"
  type: "ReLU"
  bottom: "drop4"
  top: "relu4"
}
layer {
  name: "conv8"
  type: "Convolution"
  bottom: "relu4"
  top: "conv8"
  convolution_param {
    num_output: 280
    kernel_size: 1
    weight_filler {
      type: "xavier"
    }
  }
}
layer {
  name: "pool5"
  type: "Pooling"
  bottom: "conv8"
  top: "pool5"
  pooling_param {
    pool: MAX
    kernel_size: 2
    stride: 2
  }
}
layer {
  name: "drop5"
  type: "Dropout"
  bottom: "pool5"
  top: "drop5"
  dropout_param {
    dropout_ratio: 0.4
  }
}
layer {
  name: "relu5"
  type: "ReLU"
  bottom: "drop5"
  top: "relu5"
}
layer {
  name: "conv10"
  type: "Convolution"
  bottom: "relu5"
  top: "conv10"
  convolution_param {
    num_output: 300
    kernel_size: 1
    weight_filler {
      type: "xavier"
    }
  }
}
layer {
  name: "pool6"
  type: "Pooling"
  bottom: "conv10"
  top: "pool6"
  pooling_param {
    pool: MAX
    kernel_size: 2
    stride: 2
  }
}
layer {
  name: "drop6"
  type: "Dropout"
  bottom: "pool6"
  top: "drop6"
  dropout_param {
    dropout_ratio: 0.5
  }
}
layer {
  name: "relu6"
  type: "ReLU"
  bottom: "drop6"
  top: "relu6"
}
layer {
  name: "conv11"
  type: "Convolution"
  bottom: "relu6"
  top: "conv11"
  convolution_param {
    num_output: 100
    kernel_size: 1
    weight_filler {
      type: "xavier"
    }
  }
}
layer {
  name: "pool7"
  type: "Pooling"
  bottom: "conv11"
  top: "pool7"
  pooling_param {
    pool: MAX
    kernel_size: 2
    stride: 2
  }
}
layer {
  name: "drop7"
  type: "Dropout"
  bottom: "pool7"
  top: "drop7"
  dropout_param {
    dropout_ratio: 0
  }
}
layer {
  name: "relu7"
  type: "ReLU"
  bottom: "drop7"
  top: "relu7"
}
layer {
  name: "pool"
  type: "Pooling"
  bottom: "relu7"
  top: "pool"
  pooling_param {
    pool: AVE
    global_pooling: true
  }
}
layer {
  name: "flatten"
  type: "Flatten"
  bottom: "pool"
  top: "flatten"
}
layer {
  name: "score"
  type: "InnerProduct"
  bottom: "flatten"
  top: "score"
  inner_product_param {
    num_output: 10
    weight_filler {
      type: "gaussian"
    }
  }
}
layer {
  name: "accuracy"
  type: "Accuracy"
  bottom: "score"
  bottom: "label"
  top: "accuracy"
}
layer {
  name: "loss"
  type: "SoftmaxWithLoss"
  bottom: "score"
  bottom: "label"
  top: "loss"
}
I1018 19:58:17.794999  5661 layer_factory.hpp:77] Creating layer data
I1018 19:58:17.795377  5661 net.cpp:100] Creating Layer data
I1018 19:58:17.795383  5661 net.cpp:408] data -> data
I1018 19:58:17.795400  5661 net.cpp:408] data -> label
I1018 19:58:17.795954  5667 db_lmdb.cpp:35] Opened lmdb ../../../../data/mnist/mnist_train_lmdb
I1018 19:58:17.801457  5661 data_layer.cpp:41] output data size: 64,1,28,28
I1018 19:58:17.802013  5661 net.cpp:150] Setting up data
I1018 19:58:17.802026  5661 net.cpp:157] Top shape: 64 1 28 28 (50176)
I1018 19:58:17.802028  5661 net.cpp:157] Top shape: 64 (64)
I1018 19:58:17.802031  5661 net.cpp:165] Memory required for data: 200960
I1018 19:58:17.802037  5661 layer_factory.hpp:77] Creating layer label_data_1_split
I1018 19:58:17.802044  5661 net.cpp:100] Creating Layer label_data_1_split
I1018 19:58:17.802048  5661 net.cpp:434] label_data_1_split <- label
I1018 19:58:17.802059  5661 net.cpp:408] label_data_1_split -> label_data_1_split_0
I1018 19:58:17.802067  5661 net.cpp:408] label_data_1_split -> label_data_1_split_1
I1018 19:58:17.802093  5661 net.cpp:150] Setting up label_data_1_split
I1018 19:58:17.802096  5661 net.cpp:157] Top shape: 64 (64)
I1018 19:58:17.802098  5661 net.cpp:157] Top shape: 64 (64)
I1018 19:58:17.802100  5661 net.cpp:165] Memory required for data: 201472
I1018 19:58:17.802101  5661 layer_factory.hpp:77] Creating layer conv1
I1018 19:58:17.802112  5661 net.cpp:100] Creating Layer conv1
I1018 19:58:17.802114  5661 net.cpp:434] conv1 <- data
I1018 19:58:17.802117  5661 net.cpp:408] conv1 -> conv1
I1018 19:58:17.919641  5661 net.cpp:150] Setting up conv1
I1018 19:58:17.919667  5661 net.cpp:157] Top shape: 64 192 24 24 (7077888)
I1018 19:58:17.919669  5661 net.cpp:165] Memory required for data: 28513024
I1018 19:58:17.919687  5661 layer_factory.hpp:77] Creating layer pool1
I1018 19:58:17.919695  5661 net.cpp:100] Creating Layer pool1
I1018 19:58:17.919698  5661 net.cpp:434] pool1 <- conv1
I1018 19:58:17.919703  5661 net.cpp:408] pool1 -> pool1
I1018 19:58:17.919740  5661 net.cpp:150] Setting up pool1
I1018 19:58:17.919744  5661 net.cpp:157] Top shape: 64 192 12 12 (1769472)
I1018 19:58:17.919757  5661 net.cpp:165] Memory required for data: 35590912
I1018 19:58:17.919759  5661 layer_factory.hpp:77] Creating layer drop1
I1018 19:58:17.919765  5661 net.cpp:100] Creating Layer drop1
I1018 19:58:17.919766  5661 net.cpp:434] drop1 <- pool1
I1018 19:58:17.919770  5661 net.cpp:408] drop1 -> drop1
I1018 19:58:17.919793  5661 net.cpp:150] Setting up drop1
I1018 19:58:17.919797  5661 net.cpp:157] Top shape: 64 192 12 12 (1769472)
I1018 19:58:17.919800  5661 net.cpp:165] Memory required for data: 42668800
I1018 19:58:17.919801  5661 layer_factory.hpp:77] Creating layer relu1
I1018 19:58:17.919805  5661 net.cpp:100] Creating Layer relu1
I1018 19:58:17.919807  5661 net.cpp:434] relu1 <- drop1
I1018 19:58:17.919809  5661 net.cpp:408] relu1 -> relu1
I1018 19:58:17.919924  5661 net.cpp:150] Setting up relu1
I1018 19:58:17.919929  5661 net.cpp:157] Top shape: 64 192 12 12 (1769472)
I1018 19:58:17.919930  5661 net.cpp:165] Memory required for data: 49746688
I1018 19:58:17.919932  5661 layer_factory.hpp:77] Creating layer conv2
I1018 19:58:17.919939  5661 net.cpp:100] Creating Layer conv2
I1018 19:58:17.919940  5661 net.cpp:434] conv2 <- relu1
I1018 19:58:17.919944  5661 net.cpp:408] conv2 -> conv2
I1018 19:58:17.920719  5661 net.cpp:150] Setting up conv2
I1018 19:58:17.920727  5661 net.cpp:157] Top shape: 64 192 12 12 (1769472)
I1018 19:58:17.920729  5661 net.cpp:165] Memory required for data: 56824576
I1018 19:58:17.920735  5661 layer_factory.hpp:77] Creating layer conv3
I1018 19:58:17.920740  5661 net.cpp:100] Creating Layer conv3
I1018 19:58:17.920742  5661 net.cpp:434] conv3 <- conv2
I1018 19:58:17.920745  5661 net.cpp:408] conv3 -> conv3
I1018 19:58:17.923118  5661 net.cpp:150] Setting up conv3
I1018 19:58:17.923126  5661 net.cpp:157] Top shape: 64 240 10 10 (1536000)
I1018 19:58:17.923130  5661 net.cpp:165] Memory required for data: 62968576
I1018 19:58:17.923135  5661 layer_factory.hpp:77] Creating layer pool2
I1018 19:58:17.923138  5661 net.cpp:100] Creating Layer pool2
I1018 19:58:17.923141  5661 net.cpp:434] pool2 <- conv3
I1018 19:58:17.923143  5661 net.cpp:408] pool2 -> pool2
I1018 19:58:17.923166  5661 net.cpp:150] Setting up pool2
I1018 19:58:17.923171  5661 net.cpp:157] Top shape: 64 240 5 5 (384000)
I1018 19:58:17.923172  5661 net.cpp:165] Memory required for data: 64504576
I1018 19:58:17.923174  5661 layer_factory.hpp:77] Creating layer drop2
I1018 19:58:17.923177  5661 net.cpp:100] Creating Layer drop2
I1018 19:58:17.923178  5661 net.cpp:434] drop2 <- pool2
I1018 19:58:17.923182  5661 net.cpp:408] drop2 -> drop2
I1018 19:58:17.923199  5661 net.cpp:150] Setting up drop2
I1018 19:58:17.923202  5661 net.cpp:157] Top shape: 64 240 5 5 (384000)
I1018 19:58:17.923203  5661 net.cpp:165] Memory required for data: 66040576
I1018 19:58:17.923205  5661 layer_factory.hpp:77] Creating layer relu2
I1018 19:58:17.923208  5661 net.cpp:100] Creating Layer relu2
I1018 19:58:17.923209  5661 net.cpp:434] relu2 <- drop2
I1018 19:58:17.923212  5661 net.cpp:408] relu2 -> relu2
I1018 19:58:17.923313  5661 net.cpp:150] Setting up relu2
I1018 19:58:17.923318  5661 net.cpp:157] Top shape: 64 240 5 5 (384000)
I1018 19:58:17.923321  5661 net.cpp:165] Memory required for data: 67576576
I1018 19:58:17.923321  5661 layer_factory.hpp:77] Creating layer conv4
I1018 19:58:17.923326  5661 net.cpp:100] Creating Layer conv4
I1018 19:58:17.923328  5661 net.cpp:434] conv4 <- relu2
I1018 19:58:17.923331  5661 net.cpp:408] conv4 -> conv4
I1018 19:58:17.924123  5661 net.cpp:150] Setting up conv4
I1018 19:58:17.924130  5661 net.cpp:157] Top shape: 64 240 5 5 (384000)
I1018 19:58:17.924132  5661 net.cpp:165] Memory required for data: 69112576
I1018 19:58:17.924136  5661 layer_factory.hpp:77] Creating layer conv5
I1018 19:58:17.924140  5661 net.cpp:100] Creating Layer conv5
I1018 19:58:17.924142  5661 net.cpp:434] conv5 <- conv4
I1018 19:58:17.924145  5661 net.cpp:408] conv5 -> conv5
I1018 19:58:17.925833  5661 net.cpp:150] Setting up conv5
I1018 19:58:17.925842  5661 net.cpp:157] Top shape: 64 260 4 4 (266240)
I1018 19:58:17.925851  5661 net.cpp:165] Memory required for data: 70177536
I1018 19:58:17.925858  5661 layer_factory.hpp:77] Creating layer pool3
I1018 19:58:17.925861  5661 net.cpp:100] Creating Layer pool3
I1018 19:58:17.925863  5661 net.cpp:434] pool3 <- conv5
I1018 19:58:17.925865  5661 net.cpp:408] pool3 -> pool3
I1018 19:58:17.925889  5661 net.cpp:150] Setting up pool3
I1018 19:58:17.925894  5661 net.cpp:157] Top shape: 64 260 2 2 (66560)
I1018 19:58:17.925895  5661 net.cpp:165] Memory required for data: 70443776
I1018 19:58:17.925896  5661 layer_factory.hpp:77] Creating layer drop3
I1018 19:58:17.925900  5661 net.cpp:100] Creating Layer drop3
I1018 19:58:17.925901  5661 net.cpp:434] drop3 <- pool3
I1018 19:58:17.925904  5661 net.cpp:408] drop3 -> drop3
I1018 19:58:17.925925  5661 net.cpp:150] Setting up drop3
I1018 19:58:17.925927  5661 net.cpp:157] Top shape: 64 260 2 2 (66560)
I1018 19:58:17.925930  5661 net.cpp:165] Memory required for data: 70710016
I1018 19:58:17.925931  5661 layer_factory.hpp:77] Creating layer relu3
I1018 19:58:17.925933  5661 net.cpp:100] Creating Layer relu3
I1018 19:58:17.925935  5661 net.cpp:434] relu3 <- drop3
I1018 19:58:17.925937  5661 net.cpp:408] relu3 -> relu3
I1018 19:58:17.926043  5661 net.cpp:150] Setting up relu3
I1018 19:58:17.926048  5661 net.cpp:157] Top shape: 64 260 2 2 (66560)
I1018 19:58:17.926049  5661 net.cpp:165] Memory required for data: 70976256
I1018 19:58:17.926051  5661 layer_factory.hpp:77] Creating layer conv6
I1018 19:58:17.926056  5661 net.cpp:100] Creating Layer conv6
I1018 19:58:17.926059  5661 net.cpp:434] conv6 <- relu3
I1018 19:58:17.926061  5661 net.cpp:408] conv6 -> conv6
I1018 19:58:17.927134  5661 net.cpp:150] Setting up conv6
I1018 19:58:17.927141  5661 net.cpp:157] Top shape: 64 260 2 2 (66560)
I1018 19:58:17.927144  5661 net.cpp:165] Memory required for data: 71242496
I1018 19:58:17.927147  5661 layer_factory.hpp:77] Creating layer conv7
I1018 19:58:17.927152  5661 net.cpp:100] Creating Layer conv7
I1018 19:58:17.927155  5661 net.cpp:434] conv7 <- conv6
I1018 19:58:17.927157  5661 net.cpp:408] conv7 -> conv7
I1018 19:58:17.929052  5661 net.cpp:150] Setting up conv7
I1018 19:58:17.929060  5661 net.cpp:157] Top shape: 64 280 1 1 (17920)
I1018 19:58:17.929062  5661 net.cpp:165] Memory required for data: 71314176
I1018 19:58:17.929066  5661 layer_factory.hpp:77] Creating layer pool4
I1018 19:58:17.929072  5661 net.cpp:100] Creating Layer pool4
I1018 19:58:17.929075  5661 net.cpp:434] pool4 <- conv7
I1018 19:58:17.929077  5661 net.cpp:408] pool4 -> pool4
I1018 19:58:17.929100  5661 net.cpp:150] Setting up pool4
I1018 19:58:17.929105  5661 net.cpp:157] Top shape: 64 280 1 1 (17920)
I1018 19:58:17.929106  5661 net.cpp:165] Memory required for data: 71385856
I1018 19:58:17.929108  5661 layer_factory.hpp:77] Creating layer drop4
I1018 19:58:17.929111  5661 net.cpp:100] Creating Layer drop4
I1018 19:58:17.929113  5661 net.cpp:434] drop4 <- pool4
I1018 19:58:17.929116  5661 net.cpp:408] drop4 -> drop4
I1018 19:58:17.929136  5661 net.cpp:150] Setting up drop4
I1018 19:58:17.929139  5661 net.cpp:157] Top shape: 64 280 1 1 (17920)
I1018 19:58:17.929141  5661 net.cpp:165] Memory required for data: 71457536
I1018 19:58:17.929143  5661 layer_factory.hpp:77] Creating layer relu4
I1018 19:58:17.929146  5661 net.cpp:100] Creating Layer relu4
I1018 19:58:17.929147  5661 net.cpp:434] relu4 <- drop4
I1018 19:58:17.929150  5661 net.cpp:408] relu4 -> relu4
I1018 19:58:17.929334  5661 net.cpp:150] Setting up relu4
I1018 19:58:17.929342  5661 net.cpp:157] Top shape: 64 280 1 1 (17920)
I1018 19:58:17.929343  5661 net.cpp:165] Memory required for data: 71529216
I1018 19:58:17.929347  5661 layer_factory.hpp:77] Creating layer conv8
I1018 19:58:17.929352  5661 net.cpp:100] Creating Layer conv8
I1018 19:58:17.929352  5661 net.cpp:434] conv8 <- relu4
I1018 19:58:17.929355  5661 net.cpp:408] conv8 -> conv8
I1018 19:58:17.930176  5661 net.cpp:150] Setting up conv8
I1018 19:58:17.930184  5661 net.cpp:157] Top shape: 64 280 1 1 (17920)
I1018 19:58:17.930186  5661 net.cpp:165] Memory required for data: 71600896
I1018 19:58:17.930199  5661 layer_factory.hpp:77] Creating layer pool5
I1018 19:58:17.930203  5661 net.cpp:100] Creating Layer pool5
I1018 19:58:17.930205  5661 net.cpp:434] pool5 <- conv8
I1018 19:58:17.930208  5661 net.cpp:408] pool5 -> pool5
I1018 19:58:17.930233  5661 net.cpp:150] Setting up pool5
I1018 19:58:17.930238  5661 net.cpp:157] Top shape: 64 280 1 1 (17920)
I1018 19:58:17.930239  5661 net.cpp:165] Memory required for data: 71672576
I1018 19:58:17.930240  5661 layer_factory.hpp:77] Creating layer drop5
I1018 19:58:17.930243  5661 net.cpp:100] Creating Layer drop5
I1018 19:58:17.930245  5661 net.cpp:434] drop5 <- pool5
I1018 19:58:17.930248  5661 net.cpp:408] drop5 -> drop5
I1018 19:58:17.930269  5661 net.cpp:150] Setting up drop5
I1018 19:58:17.930272  5661 net.cpp:157] Top shape: 64 280 1 1 (17920)
I1018 19:58:17.930274  5661 net.cpp:165] Memory required for data: 71744256
I1018 19:58:17.930275  5661 layer_factory.hpp:77] Creating layer relu5
I1018 19:58:17.930277  5661 net.cpp:100] Creating Layer relu5
I1018 19:58:17.930279  5661 net.cpp:434] relu5 <- drop5
I1018 19:58:17.930282  5661 net.cpp:408] relu5 -> relu5
I1018 19:58:17.930547  5661 net.cpp:150] Setting up relu5
I1018 19:58:17.930554  5661 net.cpp:157] Top shape: 64 280 1 1 (17920)
I1018 19:58:17.930557  5661 net.cpp:165] Memory required for data: 71815936
I1018 19:58:17.930558  5661 layer_factory.hpp:77] Creating layer conv10
I1018 19:58:17.930562  5661 net.cpp:100] Creating Layer conv10
I1018 19:58:17.930564  5661 net.cpp:434] conv10 <- relu5
I1018 19:58:17.930568  5661 net.cpp:408] conv10 -> conv10
I1018 19:58:17.931510  5661 net.cpp:150] Setting up conv10
I1018 19:58:17.931519  5661 net.cpp:157] Top shape: 64 300 1 1 (19200)
I1018 19:58:17.931521  5661 net.cpp:165] Memory required for data: 71892736
I1018 19:58:17.931529  5661 layer_factory.hpp:77] Creating layer pool6
I1018 19:58:17.931532  5661 net.cpp:100] Creating Layer pool6
I1018 19:58:17.931535  5661 net.cpp:434] pool6 <- conv10
I1018 19:58:17.931540  5661 net.cpp:408] pool6 -> pool6
I1018 19:58:17.931566  5661 net.cpp:150] Setting up pool6
I1018 19:58:17.931571  5661 net.cpp:157] Top shape: 64 300 1 1 (19200)
I1018 19:58:17.931572  5661 net.cpp:165] Memory required for data: 71969536
I1018 19:58:17.931574  5661 layer_factory.hpp:77] Creating layer drop6
I1018 19:58:17.931577  5661 net.cpp:100] Creating Layer drop6
I1018 19:58:17.931581  5661 net.cpp:434] drop6 <- pool6
I1018 19:58:17.931584  5661 net.cpp:408] drop6 -> drop6
I1018 19:58:17.931607  5661 net.cpp:150] Setting up drop6
I1018 19:58:17.931609  5661 net.cpp:157] Top shape: 64 300 1 1 (19200)
I1018 19:58:17.931612  5661 net.cpp:165] Memory required for data: 72046336
I1018 19:58:17.931613  5661 layer_factory.hpp:77] Creating layer relu6
I1018 19:58:17.931617  5661 net.cpp:100] Creating Layer relu6
I1018 19:58:17.931619  5661 net.cpp:434] relu6 <- drop6
I1018 19:58:17.931622  5661 net.cpp:408] relu6 -> relu6
I1018 19:58:17.931735  5661 net.cpp:150] Setting up relu6
I1018 19:58:17.931740  5661 net.cpp:157] Top shape: 64 300 1 1 (19200)
I1018 19:58:17.931742  5661 net.cpp:165] Memory required for data: 72123136
I1018 19:58:17.931745  5661 layer_factory.hpp:77] Creating layer conv11
I1018 19:58:17.931749  5661 net.cpp:100] Creating Layer conv11
I1018 19:58:17.931751  5661 net.cpp:434] conv11 <- relu6
I1018 19:58:17.931754  5661 net.cpp:408] conv11 -> conv11
I1018 19:58:17.932760  5661 net.cpp:150] Setting up conv11
I1018 19:58:17.932770  5661 net.cpp:157] Top shape: 64 100 1 1 (6400)
I1018 19:58:17.932771  5661 net.cpp:165] Memory required for data: 72148736
I1018 19:58:17.932775  5661 layer_factory.hpp:77] Creating layer pool7
I1018 19:58:17.932780  5661 net.cpp:100] Creating Layer pool7
I1018 19:58:17.932781  5661 net.cpp:434] pool7 <- conv11
I1018 19:58:17.932785  5661 net.cpp:408] pool7 -> pool7
I1018 19:58:17.932811  5661 net.cpp:150] Setting up pool7
I1018 19:58:17.932816  5661 net.cpp:157] Top shape: 64 100 1 1 (6400)
I1018 19:58:17.932817  5661 net.cpp:165] Memory required for data: 72174336
I1018 19:58:17.932828  5661 layer_factory.hpp:77] Creating layer drop7
I1018 19:58:17.932832  5661 net.cpp:100] Creating Layer drop7
I1018 19:58:17.932834  5661 net.cpp:434] drop7 <- pool7
I1018 19:58:17.932837  5661 net.cpp:408] drop7 -> drop7
I1018 19:58:17.932860  5661 net.cpp:150] Setting up drop7
I1018 19:58:17.932864  5661 net.cpp:157] Top shape: 64 100 1 1 (6400)
I1018 19:58:17.932867  5661 net.cpp:165] Memory required for data: 72199936
I1018 19:58:17.932868  5661 layer_factory.hpp:77] Creating layer relu7
I1018 19:58:17.932874  5661 net.cpp:100] Creating Layer relu7
I1018 19:58:17.932876  5661 net.cpp:434] relu7 <- drop7
I1018 19:58:17.932879  5661 net.cpp:408] relu7 -> relu7
I1018 19:58:17.933068  5661 net.cpp:150] Setting up relu7
I1018 19:58:17.933075  5661 net.cpp:157] Top shape: 64 100 1 1 (6400)
I1018 19:58:17.933078  5661 net.cpp:165] Memory required for data: 72225536
I1018 19:58:17.933080  5661 layer_factory.hpp:77] Creating layer pool
I1018 19:58:17.933084  5661 net.cpp:100] Creating Layer pool
I1018 19:58:17.933085  5661 net.cpp:434] pool <- relu7
I1018 19:58:17.933089  5661 net.cpp:408] pool -> pool
I1018 19:58:17.933207  5661 net.cpp:150] Setting up pool
I1018 19:58:17.933212  5661 net.cpp:157] Top shape: 64 100 1 1 (6400)
I1018 19:58:17.933214  5661 net.cpp:165] Memory required for data: 72251136
I1018 19:58:17.933217  5661 layer_factory.hpp:77] Creating layer flatten
I1018 19:58:17.933220  5661 net.cpp:100] Creating Layer flatten
I1018 19:58:17.933223  5661 net.cpp:434] flatten <- pool
I1018 19:58:17.933225  5661 net.cpp:408] flatten -> flatten
I1018 19:58:17.933241  5661 net.cpp:150] Setting up flatten
I1018 19:58:17.933245  5661 net.cpp:157] Top shape: 64 100 (6400)
I1018 19:58:17.933248  5661 net.cpp:165] Memory required for data: 72276736
I1018 19:58:17.933250  5661 layer_factory.hpp:77] Creating layer score
I1018 19:58:17.933254  5661 net.cpp:100] Creating Layer score
I1018 19:58:17.933256  5661 net.cpp:434] score <- flatten
I1018 19:58:17.933259  5661 net.cpp:408] score -> score
I1018 19:58:17.933357  5661 net.cpp:150] Setting up score
I1018 19:58:17.933362  5661 net.cpp:157] Top shape: 64 10 (640)
I1018 19:58:17.933363  5661 net.cpp:165] Memory required for data: 72279296
I1018 19:58:17.933367  5661 layer_factory.hpp:77] Creating layer score_score_0_split
I1018 19:58:17.933370  5661 net.cpp:100] Creating Layer score_score_0_split
I1018 19:58:17.933373  5661 net.cpp:434] score_score_0_split <- score
I1018 19:58:17.933377  5661 net.cpp:408] score_score_0_split -> score_score_0_split_0
I1018 19:58:17.933382  5661 net.cpp:408] score_score_0_split -> score_score_0_split_1
I1018 19:58:17.933403  5661 net.cpp:150] Setting up score_score_0_split
I1018 19:58:17.933405  5661 net.cpp:157] Top shape: 64 10 (640)
I1018 19:58:17.933408  5661 net.cpp:157] Top shape: 64 10 (640)
I1018 19:58:17.933409  5661 net.cpp:165] Memory required for data: 72284416
I1018 19:58:17.933411  5661 layer_factory.hpp:77] Creating layer accuracy
I1018 19:58:17.933416  5661 net.cpp:100] Creating Layer accuracy
I1018 19:58:17.933419  5661 net.cpp:434] accuracy <- score_score_0_split_0
I1018 19:58:17.933421  5661 net.cpp:434] accuracy <- label_data_1_split_0
I1018 19:58:17.933425  5661 net.cpp:408] accuracy -> accuracy
…
I1018 19:58:17.933828  5661 net.cpp:283] Network initialization done.
I1018 19:58:17.934015  5661 solver.cpp:181] Creating test net (#0) specified by test_net file: /home/adam/Honours/Honours-Project/mnist_pooling/max/relu/poolcnn_relu_test.prototxt
I1018 19:58:17.934126  5661 net.cpp:58] Initializing net from parameters: 
state {
  phase: TEST
}
layer {
  name: "data"
  type: "Data"
  top: "data"
  top: "label"
  transform_param {
    scale: 0.0039215689
  }
  data_param {
    source: "../../../../data/mnist/mnist_test_lmdb"
    batch_size: 100
    backend: LMDB
  }
}
layer {
  name: "conv1"
  type: "Convolution"
  bottom: "data"
  top: "conv1"
  convolution_param {
    num_output: 192
    kernel_size: 5
    weight_filler {
      type: "xavier"
    }
  }
}
layer {
  name: "pool1"
  type: "Pooling"
  bottom: "conv1"
  top: "pool1"
  pooling_param {
    pool: MAX
    kernel_size: 2
    stride: 2
  }
}
layer {
  name: "drop1"
  type: "Dropout"
  bottom: "pool1"
  top: "drop1"
  dropout_param {
    dropout_ratio: 0
  }
}
layer {
  name: "relu1"
  type: "ReLU"
  bottom: "drop1"
  top: "relu1"
}
layer {
  name: "conv2"
  type: "Convolution"
  bottom: "relu1"
  top: "conv2"
  convolution_param {
    num_output: 192
    kernel_size: 1
    weight_filler {
      type: "xavier"
    }
  }
}
layer {
  name: "conv3"
  type: "Convolution"
  bottom: "conv2"
  top: "conv3"
  convolution_param {
    num_output: 240
    kernel_size: 3
    weight_filler {
      type: "xavier"
    }
  }
}
layer {
  name: "pool2"
  type: "Pooling"
  bottom: "conv3"
  top: "pool2"
  pooling_param {
    pool: MAX
    kernel_size: 2
    stride: 2
  }
}
layer {
  name: "drop2"
  type: "Dropout"
  bottom: "pool2"
  top: "drop2"
  dropout_param {
    dropout_ratio: 0.1
  }
}
layer {
  name: "relu2"
  type: "ReLU"
  bottom: "drop2"
  top: "relu2"
}
layer {
  name: "conv4"
  type: "Convolution"
  bottom: "relu2"
  top: "conv4"
  convolution_param {
    num_output: 240
    kernel_size: 1
    weight_filler {
      type: "xavier"
    }
  }
}
layer {
  name: "conv5"
  type: "Convolution"
  bottom: "conv4"
  top: "conv5"
  convolution_param {
    num_output: 260
    kernel_size: 2
    weight_filler {
      type: "xavier"
    }
  }
}
layer {
  name: "pool3"
  type: "Pooling"
  bottom: "conv5"
  top: "pool3"
  pooling_param {
    pool: MAX
    kernel_size: 2
    stride: 2
  }
}
layer {
  name: "drop3"
  type: "Dropout"
  bottom: "pool3"
  top: "drop3"
  dropout_param {
    dropout_ratio: 0.2
  }
}
layer {
  name: "relu3"
  type: "ReLU"
  bottom: "drop3"
  top: "relu3"
}
layer {
  name: "conv6"
  type: "Convolution"
  bottom: "relu3"
  top: "conv6"
  convolution_param {
    num_output: 260
    kernel_size: 1
    weight_filler {
      type: "xavier"
    }
  }
}
layer {
  name: "conv7"
  type: "Convolution"
  bottom: "conv6"
  top: "conv7"
  convolution_param {
    num_output: 280
    kernel_size: 2
    weight_filler {
      type: "xavier"
    }
  }
}
layer {
  name: "pool4"
  type: "Pooling"
  bottom: "conv7"
  top: "pool4"
  pooling_param {
    pool: MAX
    kernel_size: 2
    stride: 2
  }
}
layer {
  name: "drop4"
  type: "Dropout"
  bottom: "pool4"
  top: "drop4"
  dropout_param {
    dropout_ratio: 0.3
  }
}
layer {
  name: "relu4"
  type: "ReLU"
  bottom: "drop4"
  top: "relu4"
}
layer {
  name: "conv8"
  type: "Convolution"
  bottom: "relu4"
  top: "conv8"
  convolution_param {
    num_output: 280
    kernel_size: 1
    weight_filler {
      type: "xavier"
    }
  }
}
layer {
  name: "pool5"
  type: "Pooling"
  bottom: "conv8"
  top: "pool5"
  pooling_param {
    pool: MAX
    kernel_size: 2
    stride: 2
  }
}
layer {
  name: "drop5"
  type: "Dropout"
  bottom: "pool5"
  top: "drop5"
  dropout_param {
    dropout_ratio: 0.4
  }
}
layer {
  name: "relu5"
  type: "ReLU"
  bottom: "drop5"
  top: "relu5"
}
layer {
  name: "conv10"
  type: "Convolution"
  bottom: "relu5"
  top: "conv10"
  convolution_param {
    num_output: 300
    kernel_size: 1
    weight_filler {
      type: "xavier"
    }
  }
}
layer {
  name: "pool6"
  type: "Pooling"
  bottom: "conv10"
  top: "pool6"
  pooling_param {
    pool: MAX
    kernel_size: 2
    stride: 2
  }
}
layer {
  name: "drop6"
  type: "Dropout"
  bottom: "pool6"
  top: "drop6"
  dropout_param {
    dropout_ratio: 0.5
  }
}
layer {
  name: "relu6"
  type: "ReLU"
  bottom: "drop6"
  top: "relu6"
}
layer {
  name: "conv11"
  type: "Convolution"
  bottom: "relu6"
  top: "conv11"
  convolution_param {
    num_output: 100
    kernel_size: 1
    weight_filler {
      type: "xavier"
    }
  }
}
layer {
  name: "pool7"
  type: "Pooling"
  bottom: "conv11"
  top: "pool7"
  pooling_param {
    pool: MAX
    kernel_size: 2
    stride: 2
  }
}
layer {
  name: "drop7"
  type: "Dropout"
  bottom: "pool7"
  top: "drop7"
  dropout_param {
    dropout_ratio: 0
  }
}
layer {
  name: "relu7"
  type: "ReLU"
  bottom: "drop7"
  top: "relu7"
}
layer {
  name: "pool"
  type: "Pooling"
  bottom: "relu7"
  top: "pool"
  pooling_param {
    pool: AVE
    global_pooling: true
  }
}
layer {
  name: "flatten"
  type: "Flatten"
  bottom: "pool"
  top: "flatten"
}
layer {
  name: "score"
  type: "InnerProduct"
  bottom: "flatten"
  top: "score"
  inner_product_param {
    num_output: 10
    weight_filler {
      type: "gaussian"
    }
  }
}
layer {
  name: "accuracy"
  type: "Accuracy"
  bottom: "score"
  bottom: "label"
  top: "accuracy"
}
layer {
  name: "loss"
  type: "SoftmaxWithLoss"
  bottom: "score"
  bottom: "label"
  top: "loss"
}
I1018 19:58:17.934204  5661 layer_factory.hpp:77] Creating layer data
I1018 19:58:17.934279  5661 net.cpp:100] Creating Layer data
I1018 19:58:17.934284  5661 net.cpp:408] data -> data
I1018 19:58:17.934289  5661 net.cpp:408] data -> label
I1018 19:58:17.934877  5669 db_lmdb.cpp:35] Opened lmdb ../../../../data/mnist/mnist_test_lmdb
I1018 19:58:17.934993  5661 data_layer.cpp:41] output data size: 100,1,28,28
I1018 19:58:17.935639  5661 net.cpp:150] Setting up data
I1018 19:58:17.935647  5661 net.cpp:157] Top shape: 100 1 28 28 (78400)
I1018 19:58:17.935652  5661 net.cpp:157] Top shape: 100 (100)
I1018 19:58:17.935652  5661 net.cpp:165] Memory required for data: 314000
I1018 19:58:17.935655  5661 layer_factory.hpp:77] Creating layer label_data_1_split
I1018 19:58:17.935660  5661 net.cpp:100] Creating Layer label_data_1_split
I1018 19:58:17.935663  5661 net.cpp:434] label_data_1_split <- label
I1018 19:58:17.935667  5661 net.cpp:408] label_data_1_split -> label_data_1_split_0
I1018 19:58:17.935673  5661 net.cpp:408] label_data_1_split -> label_data_1_split_1
I1018 19:58:17.935755  5661 net.cpp:150] Setting up label_data_1_split
I1018 19:58:17.935765  5661 net.cpp:157] Top shape: 100 (100)
I1018 19:58:17.935768  5661 net.cpp:157] Top shape: 100 (100)
I1018 19:58:17.935770  5661 net.cpp:165] Memory required for data: 314800
I1018 19:58:17.935772  5661 layer_factory.hpp:77] Creating layer conv1
I1018 19:58:17.935780  5661 net.cpp:100] Creating Layer conv1
I1018 19:58:17.935782  5661 net.cpp:434] conv1 <- data
I1018 19:58:17.935786  5661 net.cpp:408] conv1 -> conv1
I1018 19:58:17.936524  5661 net.cpp:150] Setting up conv1
I1018 19:58:17.936537  5661 net.cpp:157] Top shape: 100 192 24 24 (11059200)
I1018 19:58:17.936540  5661 net.cpp:165] Memory required for data: 44551600
I1018 19:58:17.936549  5661 layer_factory.hpp:77] Creating layer pool1
I1018 19:58:17.936554  5661 net.cpp:100] Creating Layer pool1
I1018 19:58:17.936563  5661 net.cpp:434] pool1 <- conv1
I1018 19:58:17.936565  5661 net.cpp:408] pool1 -> pool1
I1018 19:58:17.936592  5661 net.cpp:150] Setting up pool1
I1018 19:58:17.936596  5661 net.cpp:157] Top shape: 100 192 12 12 (2764800)
I1018 19:58:17.936599  5661 net.cpp:165] Memory required for data: 55610800
I1018 19:58:17.936609  5661 layer_factory.hpp:77] Creating layer drop1
I1018 19:58:17.936612  5661 net.cpp:100] Creating Layer drop1
I1018 19:58:17.936615  5661 net.cpp:434] drop1 <- pool1
I1018 19:58:17.936619  5661 net.cpp:408] drop1 -> drop1
I1018 19:58:17.936641  5661 net.cpp:150] Setting up drop1
I1018 19:58:17.936646  5661 net.cpp:157] Top shape: 100 192 12 12 (2764800)
I1018 19:58:17.936648  5661 net.cpp:165] Memory required for data: 66670000
I1018 19:58:17.936651  5661 layer_factory.hpp:77] Creating layer relu1
I1018 19:58:17.936653  5661 net.cpp:100] Creating Layer relu1
I1018 19:58:17.936655  5661 net.cpp:434] relu1 <- drop1
I1018 19:58:17.936658  5661 net.cpp:408] relu1 -> relu1
I1018 19:58:17.936934  5661 net.cpp:150] Setting up relu1
I1018 19:58:17.936945  5661 net.cpp:157] Top shape: 100 192 12 12 (2764800)
I1018 19:58:17.936949  5661 net.cpp:165] Memory required for data: 77729200
I1018 19:58:17.936950  5661 layer_factory.hpp:77] Creating layer conv2
I1018 19:58:17.936956  5661 net.cpp:100] Creating Layer conv2
I1018 19:58:17.936959  5661 net.cpp:434] conv2 <- relu1
I1018 19:58:17.936964  5661 net.cpp:408] conv2 -> conv2
I1018 19:58:17.937768  5661 net.cpp:150] Setting up conv2
I1018 19:58:17.937777  5661 net.cpp:157] Top shape: 100 192 12 12 (2764800)
I1018 19:58:17.937778  5661 net.cpp:165] Memory required for data: 88788400
I1018 19:58:17.937784  5661 layer_factory.hpp:77] Creating layer conv3
I1018 19:58:17.937798  5661 net.cpp:100] Creating Layer conv3
I1018 19:58:17.937801  5661 net.cpp:434] conv3 <- conv2
I1018 19:58:17.937805  5661 net.cpp:408] conv3 -> conv3
I1018 19:58:17.940258  5661 net.cpp:150] Setting up conv3
I1018 19:58:17.940266  5661 net.cpp:157] Top shape: 100 240 10 10 (2400000)
I1018 19:58:17.940269  5661 net.cpp:165] Memory required for data: 98388400
I1018 19:58:17.940274  5661 layer_factory.hpp:77] Creating layer pool2
I1018 19:58:17.940280  5661 net.cpp:100] Creating Layer pool2
I1018 19:58:17.940284  5661 net.cpp:434] pool2 <- conv3
I1018 19:58:17.940287  5661 net.cpp:408] pool2 -> pool2
I1018 19:58:17.940315  5661 net.cpp:150] Setting up pool2
I1018 19:58:17.940318  5661 net.cpp:157] Top shape: 100 240 5 5 (600000)
I1018 19:58:17.940320  5661 net.cpp:165] Memory required for data: 100788400
I1018 19:58:17.940322  5661 layer_factory.hpp:77] Creating layer drop2
I1018 19:58:17.940325  5661 net.cpp:100] Creating Layer drop2
I1018 19:58:17.940327  5661 net.cpp:434] drop2 <- pool2
I1018 19:58:17.940330  5661 net.cpp:408] drop2 -> drop2
I1018 19:58:17.940353  5661 net.cpp:150] Setting up drop2
I1018 19:58:17.940357  5661 net.cpp:157] Top shape: 100 240 5 5 (600000)
I1018 19:58:17.940358  5661 net.cpp:165] Memory required for data: 103188400
I1018 19:58:17.940361  5661 layer_factory.hpp:77] Creating layer relu2
I1018 19:58:17.940364  5661 net.cpp:100] Creating Layer relu2
I1018 19:58:17.940366  5661 net.cpp:434] relu2 <- drop2
I1018 19:58:17.940368  5661 net.cpp:408] relu2 -> relu2
I1018 19:58:17.940482  5661 net.cpp:150] Setting up relu2
I1018 19:58:17.940490  5661 net.cpp:157] Top shape: 100 240 5 5 (600000)
I1018 19:58:17.940491  5661 net.cpp:165] Memory required for data: 105588400
I1018 19:58:17.940493  5661 layer_factory.hpp:77] Creating layer conv4
I1018 19:58:17.940498  5661 net.cpp:100] Creating Layer conv4
I1018 19:58:17.940501  5661 net.cpp:434] conv4 <- relu2
I1018 19:58:17.940505  5661 net.cpp:408] conv4 -> conv4
I1018 19:58:17.941341  5661 net.cpp:150] Setting up conv4
I1018 19:58:17.941349  5661 net.cpp:157] Top shape: 100 240 5 5 (600000)
I1018 19:58:17.941352  5661 net.cpp:165] Memory required for data: 107988400
I1018 19:58:17.941355  5661 layer_factory.hpp:77] Creating layer conv5
I1018 19:58:17.941361  5661 net.cpp:100] Creating Layer conv5
I1018 19:58:17.941365  5661 net.cpp:434] conv5 <- conv4
I1018 19:58:17.941368  5661 net.cpp:408] conv5 -> conv5
I1018 19:58:17.943130  5661 net.cpp:150] Setting up conv5
I1018 19:58:17.943137  5661 net.cpp:157] Top shape: 100 260 4 4 (416000)
I1018 19:58:17.943140  5661 net.cpp:165] Memory required for data: 109652400
I1018 19:58:17.943146  5661 layer_factory.hpp:77] Creating layer pool3
I1018 19:58:17.943150  5661 net.cpp:100] Creating Layer pool3
I1018 19:58:17.943152  5661 net.cpp:434] pool3 <- conv5
I1018 19:58:17.943156  5661 net.cpp:408] pool3 -> pool3
I1018 19:58:17.943182  5661 net.cpp:150] Setting up pool3
I1018 19:58:17.943186  5661 net.cpp:157] Top shape: 100 260 2 2 (104000)
I1018 19:58:17.943188  5661 net.cpp:165] Memory required for data: 110068400
I1018 19:58:17.943191  5661 layer_factory.hpp:77] Creating layer drop3
I1018 19:58:17.943194  5661 net.cpp:100] Creating Layer drop3
I1018 19:58:17.943197  5661 net.cpp:434] drop3 <- pool3
I1018 19:58:17.943198  5661 net.cpp:408] drop3 -> drop3
I1018 19:58:17.943222  5661 net.cpp:150] Setting up drop3
I1018 19:58:17.943226  5661 net.cpp:157] Top shape: 100 260 2 2 (104000)
I1018 19:58:17.943228  5661 net.cpp:165] Memory required for data: 110484400
I1018 19:58:17.943230  5661 layer_factory.hpp:77] Creating layer relu3
I1018 19:58:17.943233  5661 net.cpp:100] Creating Layer relu3
I1018 19:58:17.943236  5661 net.cpp:434] relu3 <- drop3
I1018 19:58:17.943238  5661 net.cpp:408] relu3 -> relu3
I1018 19:58:17.943354  5661 net.cpp:150] Setting up relu3
I1018 19:58:17.943361  5661 net.cpp:157] Top shape: 100 260 2 2 (104000)
I1018 19:58:17.943363  5661 net.cpp:165] Memory required for data: 110900400
I1018 19:58:17.943364  5661 layer_factory.hpp:77] Creating layer conv6
I1018 19:58:17.943377  5661 net.cpp:100] Creating Layer conv6
I1018 19:58:17.943380  5661 net.cpp:434] conv6 <- relu3
I1018 19:58:17.943387  5661 net.cpp:408] conv6 -> conv6
I1018 19:58:17.944602  5661 net.cpp:150] Setting up conv6
I1018 19:58:17.944609  5661 net.cpp:157] Top shape: 100 260 2 2 (104000)
I1018 19:58:17.944612  5661 net.cpp:165] Memory required for data: 111316400
I1018 19:58:17.944615  5661 layer_factory.hpp:77] Creating layer conv7
I1018 19:58:17.944622  5661 net.cpp:100] Creating Layer conv7
I1018 19:58:17.944623  5661 net.cpp:434] conv7 <- conv6
I1018 19:58:17.944627  5661 net.cpp:408] conv7 -> conv7
I1018 19:58:17.946559  5661 net.cpp:150] Setting up conv7
I1018 19:58:17.946568  5661 net.cpp:157] Top shape: 100 280 1 1 (28000)
I1018 19:58:17.946570  5661 net.cpp:165] Memory required for data: 111428400
I1018 19:58:17.946573  5661 layer_factory.hpp:77] Creating layer pool4
I1018 19:58:17.946578  5661 net.cpp:100] Creating Layer pool4
I1018 19:58:17.946580  5661 net.cpp:434] pool4 <- conv7
I1018 19:58:17.946583  5661 net.cpp:408] pool4 -> pool4
I1018 19:58:17.946611  5661 net.cpp:150] Setting up pool4
I1018 19:58:17.946616  5661 net.cpp:157] Top shape: 100 280 1 1 (28000)
I1018 19:58:17.946617  5661 net.cpp:165] Memory required for data: 111540400
I1018 19:58:17.946619  5661 layer_factory.hpp:77] Creating layer drop4
I1018 19:58:17.946624  5661 net.cpp:100] Creating Layer drop4
I1018 19:58:17.946625  5661 net.cpp:434] drop4 <- pool4
I1018 19:58:17.946629  5661 net.cpp:408] drop4 -> drop4
I1018 19:58:17.946652  5661 net.cpp:150] Setting up drop4
I1018 19:58:17.946656  5661 net.cpp:157] Top shape: 100 280 1 1 (28000)
I1018 19:58:17.946660  5661 net.cpp:165] Memory required for data: 111652400
I1018 19:58:17.946660  5661 layer_factory.hpp:77] Creating layer relu4
I1018 19:58:17.946663  5661 net.cpp:100] Creating Layer relu4
I1018 19:58:17.946666  5661 net.cpp:434] relu4 <- drop4
I1018 19:58:17.946671  5661 net.cpp:408] relu4 -> relu4
I1018 19:58:17.946784  5661 net.cpp:150] Setting up relu4
I1018 19:58:17.946789  5661 net.cpp:157] Top shape: 100 280 1 1 (28000)
I1018 19:58:17.946792  5661 net.cpp:165] Memory required for data: 111764400
I1018 19:58:17.946794  5661 layer_factory.hpp:77] Creating layer conv8
I1018 19:58:17.946799  5661 net.cpp:100] Creating Layer conv8
I1018 19:58:17.946801  5661 net.cpp:434] conv8 <- relu4
I1018 19:58:17.946805  5661 net.cpp:408] conv8 -> conv8
I1018 19:58:17.948123  5661 net.cpp:150] Setting up conv8
I1018 19:58:17.948132  5661 net.cpp:157] Top shape: 100 280 1 1 (28000)
I1018 19:58:17.948134  5661 net.cpp:165] Memory required for data: 111876400
I1018 19:58:17.948138  5661 layer_factory.hpp:77] Creating layer pool5
I1018 19:58:17.948143  5661 net.cpp:100] Creating Layer pool5
I1018 19:58:17.948144  5661 net.cpp:434] pool5 <- conv8
I1018 19:58:17.948148  5661 net.cpp:408] pool5 -> pool5
I1018 19:58:17.948176  5661 net.cpp:150] Setting up pool5
I1018 19:58:17.948181  5661 net.cpp:157] Top shape: 100 280 1 1 (28000)
I1018 19:58:17.948182  5661 net.cpp:165] Memory required for data: 111988400
I1018 19:58:17.948184  5661 layer_factory.hpp:77] Creating layer drop5
I1018 19:58:17.948189  5661 net.cpp:100] Creating Layer drop5
I1018 19:58:17.948190  5661 net.cpp:434] drop5 <- pool5
I1018 19:58:17.948194  5661 net.cpp:408] drop5 -> drop5
I1018 19:58:17.948216  5661 net.cpp:150] Setting up drop5
I1018 19:58:17.948220  5661 net.cpp:157] Top shape: 100 280 1 1 (28000)
I1018 19:58:17.948222  5661 net.cpp:165] Memory required for data: 112100400
I1018 19:58:17.948225  5661 layer_factory.hpp:77] Creating layer relu5
I1018 19:58:17.948226  5661 net.cpp:100] Creating Layer relu5
I1018 19:58:17.948228  5661 net.cpp:434] relu5 <- drop5
I1018 19:58:17.948232  5661 net.cpp:408] relu5 -> relu5
I1018 19:58:17.948433  5661 net.cpp:150] Setting up relu5
I1018 19:58:17.948441  5661 net.cpp:157] Top shape: 100 280 1 1 (28000)
I1018 19:58:17.948442  5661 net.cpp:165] Memory required for data: 112212400
I1018 19:58:17.948446  5661 layer_factory.hpp:77] Creating layer conv10
I1018 19:58:17.948460  5661 net.cpp:100] Creating Layer conv10
I1018 19:58:17.948463  5661 net.cpp:434] conv10 <- relu5
I1018 19:58:17.948467  5661 net.cpp:408] conv10 -> conv10
I1018 19:58:17.949422  5661 net.cpp:150] Setting up conv10
I1018 19:58:17.949430  5661 net.cpp:157] Top shape: 100 300 1 1 (30000)
I1018 19:58:17.949432  5661 net.cpp:165] Memory required for data: 112332400
I1018 19:58:17.949439  5661 layer_factory.hpp:77] Creating layer pool6
I1018 19:58:17.949445  5661 net.cpp:100] Creating Layer pool6
I1018 19:58:17.949447  5661 net.cpp:434] pool6 <- conv10
I1018 19:58:17.949451  5661 net.cpp:408] pool6 -> pool6
I1018 19:58:17.949479  5661 net.cpp:150] Setting up pool6
I1018 19:58:17.949484  5661 net.cpp:157] Top shape: 100 300 1 1 (30000)
I1018 19:58:17.949486  5661 net.cpp:165] Memory required for data: 112452400
I1018 19:58:17.949487  5661 layer_factory.hpp:77] Creating layer drop6
I1018 19:58:17.949491  5661 net.cpp:100] Creating Layer drop6
I1018 19:58:17.949494  5661 net.cpp:434] drop6 <- pool6
I1018 19:58:17.949496  5661 net.cpp:408] drop6 -> drop6
I1018 19:58:17.949520  5661 net.cpp:150] Setting up drop6
I1018 19:58:17.949523  5661 net.cpp:157] Top shape: 100 300 1 1 (30000)
I1018 19:58:17.949527  5661 net.cpp:165] Memory required for data: 112572400
I1018 19:58:17.949527  5661 layer_factory.hpp:77] Creating layer relu6
I1018 19:58:17.949530  5661 net.cpp:100] Creating Layer relu6
I1018 19:58:17.949532  5661 net.cpp:434] relu6 <- drop6
I1018 19:58:17.949535  5661 net.cpp:408] relu6 -> relu6
I1018 19:58:17.949650  5661 net.cpp:150] Setting up relu6
I1018 19:58:17.949654  5661 net.cpp:157] Top shape: 100 300 1 1 (30000)
I1018 19:58:17.949656  5661 net.cpp:165] Memory required for data: 112692400
I1018 19:58:17.949658  5661 layer_factory.hpp:77] Creating layer conv11
I1018 19:58:17.949663  5661 net.cpp:100] Creating Layer conv11
I1018 19:58:17.949666  5661 net.cpp:434] conv11 <- relu6
I1018 19:58:17.949669  5661 net.cpp:408] conv11 -> conv11
I1018 19:58:17.950428  5661 net.cpp:150] Setting up conv11
I1018 19:58:17.950434  5661 net.cpp:157] Top shape: 100 100 1 1 (10000)
I1018 19:58:17.950438  5661 net.cpp:165] Memory required for data: 112732400
I1018 19:58:17.950440  5661 layer_factory.hpp:77] Creating layer pool7
I1018 19:58:17.950445  5661 net.cpp:100] Creating Layer pool7
I1018 19:58:17.950448  5661 net.cpp:434] pool7 <- conv11
I1018 19:58:17.950451  5661 net.cpp:408] pool7 -> pool7
I1018 19:58:17.950479  5661 net.cpp:150] Setting up pool7
I1018 19:58:17.950484  5661 net.cpp:157] Top shape: 100 100 1 1 (10000)
I1018 19:58:17.950486  5661 net.cpp:165] Memory required for data: 112772400
I1018 19:58:17.950489  5661 layer_factory.hpp:77] Creating layer drop7
I1018 19:58:17.950490  5661 net.cpp:100] Creating Layer drop7
I1018 19:58:17.950492  5661 net.cpp:434] drop7 <- pool7
I1018 19:58:17.950496  5661 net.cpp:408] drop7 -> drop7
I1018 19:58:17.950520  5661 net.cpp:150] Setting up drop7
I1018 19:58:17.950523  5661 net.cpp:157] Top shape: 100 100 1 1 (10000)
I1018 19:58:17.950525  5661 net.cpp:165] Memory required for data: 112812400
I1018 19:58:17.950527  5661 layer_factory.hpp:77] Creating layer relu7
I1018 19:58:17.950533  5661 net.cpp:100] Creating Layer relu7
I1018 19:58:17.950536  5661 net.cpp:434] relu7 <- drop7
I1018 19:58:17.950538  5661 net.cpp:408] relu7 -> relu7
I1018 19:58:17.950654  5661 net.cpp:150] Setting up relu7
I1018 19:58:17.950659  5661 net.cpp:157] Top shape: 100 100 1 1 (10000)
I1018 19:58:17.950662  5661 net.cpp:165] Memory required for data: 112852400
I1018 19:58:17.950664  5661 layer_factory.hpp:77] Creating layer pool
I1018 19:58:17.950667  5661 net.cpp:100] Creating Layer pool
I1018 19:58:17.950670  5661 net.cpp:434] pool <- relu7
I1018 19:58:17.950672  5661 net.cpp:408] pool -> pool
I1018 19:58:17.950868  5661 net.cpp:150] Setting up pool
I1018 19:58:17.950875  5661 net.cpp:157] Top shape: 100 100 1 1 (10000)
I1018 19:58:17.950877  5661 net.cpp:165] Memory required for data: 112892400
I1018 19:58:17.950880  5661 layer_factory.hpp:77] Creating layer flatten
I1018 19:58:17.950889  5661 net.cpp:100] Creating Layer flatten
I1018 19:58:17.950891  5661 net.cpp:434] flatten <- pool
I1018 19:58:17.950896  5661 net.cpp:408] flatten -> flatten
I1018 19:58:17.950912  5661 net.cpp:150] Setting up flatten
I1018 19:58:17.950917  5661 net.cpp:157] Top shape: 100 100 (10000)
I1018 19:58:17.950918  5661 net.cpp:165] Memory required for data: 112932400
I1018 19:58:17.950919  5661 layer_factory.hpp:77] Creating layer score
I1018 19:58:17.950924  5661 net.cpp:100] Creating Layer score
I1018 19:58:17.950927  5661 net.cpp:434] score <- flatten
I1018 19:58:17.950929  5661 net.cpp:408] score -> score
I1018 19:58:17.951014  5661 net.cpp:150] Setting up score
I1018 19:58:17.951017  5661 net.cpp:157] Top shape: 100 10 (1000)
I1018 19:58:17.951020  5661 net.cpp:165] Memory required for data: 112936400
I1018 19:58:17.951022  5661 layer_factory.hpp:77] Creating layer score_score_0_split
I1018 19:58:17.951026  5661 net.cpp:100] Creating Layer score_score_0_split
I1018 19:58:17.951028  5661 net.cpp:434] score_score_0_split <- score
I1018 19:58:17.951031  5661 net.cpp:408] score_score_0_split -> score_score_0_split_0
I1018 19:58:17.951035  5661 net.cpp:408] score_score_0_split -> score_score_0_split_1
I1018 19:58:17.951059  5661 net.cpp:150] Setting up score_score_0_split
I1018 19:58:17.951062  5661 net.cpp:157] Top shape: 100 10 (1000)
I1018 19:58:17.951066  5661 net.cpp:157] Top shape: 100 10 (1000)
I1018 19:58:17.951066  5661 net.cpp:165] Memory required for data: 112944400
I1018 19:58:17.951068  5661 layer_factory.hpp:77] Creating layer accuracy
I1018 19:58:17.951071  5661 net.cpp:100] Creating Layer accuracy
I1018 19:58:17.951073  5661 net.cpp:434] accuracy <- score_score_0_split_0
I1018 19:58:17.951076  5661 net.cpp:434] accuracy <- label_data_1_split_0
I1018 19:58:17.951081  5661 net.cpp:408] accuracy -> accuracy
…
