…
  level: 0
  stage: ""
}
type: "RMSProp"
I1018 17:50:51.861536  4234 solver.cpp:81] Creating training net from train_net file: /home/adam/Honours/Honours-Project/mnist_pooling/max/elu/poolcnn_elu_train.prototxt
I1018 17:50:51.861888  4234 net.cpp:58] Initializing net from parameters: 
state {
  phase: TRAIN
  level: 0
  stage: ""
}
layer {
  name: "data"
  type: "Data"
  top: "data"
  top: "label"
  transform_param {
    scale: 0.0039215689
  }
  data_param {
    source: "../../../../data/mnist/mnist_train_lmdb"
    batch_size: 64
    backend: LMDB
  }
}
layer {
  name: "conv1"
  type: "Convolution"
  bottom: "data"
  top: "conv1"
  convolution_param {
    num_output: 192
    kernel_size: 5
    weight_filler {
      type: "xavier"
    }
  }
}
layer {
  name: "pool1"
  type: "Pooling"
  bottom: "conv1"
  top: "pool1"
  pooling_param {
    pool: MAX
    kernel_size: 2
    stride: 2
  }
}
layer {
  name: "drop1"
  type: "Dropout"
  bottom: "pool1"
  top: "drop1"
  dropout_param {
    dropout_ratio: 0
  }
}
layer {
  name: "elu1"
  type: "ELU"
  bottom: "drop1"
  top: "elu1"
}
layer {
  name: "conv2"
  type: "Convolution"
  bottom: "elu1"
  top: "conv2"
  convolution_param {
    num_output: 192
    kernel_size: 1
    weight_filler {
      type: "xavier"
    }
  }
}
layer {
  name: "conv3"
  type: "Convolution"
  bottom: "conv2"
  top: "conv3"
  convolution_param {
    num_output: 240
    kernel_size: 3
    weight_filler {
      type: "xavier"
    }
  }
}
layer {
  name: "pool2"
  type: "Pooling"
  bottom: "conv3"
  top: "pool2"
  pooling_param {
    pool: MAX
    kernel_size: 2
    stride: 2
  }
}
layer {
  name: "drop2"
  type: "Dropout"
  bottom: "pool2"
  top: "drop2"
  dropout_param {
    dropout_ratio: 0.1
  }
}
layer {
  name: "elu2"
  type: "ELU"
  bottom: "drop2"
  top: "elu2"
}
layer {
  name: "conv4"
  type: "Convolution"
  bottom: "elu2"
  top: "conv4"
  convolution_param {
    num_output: 240
    kernel_size: 1
    weight_filler {
      type: "xavier"
    }
  }
}
layer {
  name: "conv5"
  type: "Convolution"
  bottom: "conv4"
  top: "conv5"
  convolution_param {
    num_output: 260
    kernel_size: 2
    weight_filler {
      type: "xavier"
    }
  }
}
layer {
  name: "pool3"
  type: "Pooling"
  bottom: "conv5"
  top: "pool3"
  pooling_param {
    pool: MAX
    kernel_size: 2
    stride: 2
  }
}
layer {
  name: "drop3"
  type: "Dropout"
  bottom: "pool3"
  top: "drop3"
  dropout_param {
    dropout_ratio: 0.2
  }
}
layer {
  name: "elu3"
  type: "ELU"
  bottom: "drop3"
  top: "elu3"
}
layer {
  name: "conv6"
  type: "Convolution"
  bottom: "elu3"
  top: "conv6"
  convolution_param {
    num_output: 260
    kernel_size: 1
    weight_filler {
      type: "xavier"
    }
  }
}
layer {
  name: "conv7"
  type: "Convolution"
  bottom: "conv6"
  top: "conv7"
  convolution_param {
    num_output: 280
    kernel_size: 2
    weight_filler {
      type: "xavier"
    }
  }
}
layer {
  name: "pool4"
  type: "Pooling"
  bottom: "conv7"
  top: "pool4"
  pooling_param {
    pool: MAX
    kernel_size: 2
    stride: 2
  }
}
layer {
  name: "drop4"
  type: "Dropout"
  bottom: "pool4"
  top: "drop4"
  dropout_param {
    dropout_ratio: 0.3
  }
}
layer {
  name: "elu4"
  type: "ELU"
  bottom: "drop4"
  top: "elu4"
}
layer {
  name: "conv8"
  type: "Convolution"
  bottom: "elu4"
  top: "conv8"
  convolution_param {
    num_output: 280
    kernel_size: 1
    weight_filler {
      type: "xavier"
    }
  }
}
layer {
  name: "pool5"
  type: "Pooling"
  bottom: "conv8"
  top: "pool5"
  pooling_param {
    pool: MAX
    kernel_size: 2
    stride: 2
  }
}
layer {
  name: "drop5"
  type: "Dropout"
  bottom: "pool5"
  top: "drop5"
  dropout_param {
    dropout_ratio: 0.4
  }
}
layer {
  name: "elu5"
  type: "ELU"
  bottom: "drop5"
  top: "elu5"
}
layer {
  name: "conv10"
  type: "Convolution"
  bottom: "elu5"
  top: "conv10"
  convolution_param {
    num_output: 300
    kernel_size: 1
    weight_filler {
      type: "xavier"
    }
  }
}
layer {
  name: "pool6"
  type: "Pooling"
  bottom: "conv10"
  top: "pool6"
  pooling_param {
    pool: MAX
    kernel_size: 2
    stride: 2
  }
}
layer {
  name: "drop6"
  type: "Dropout"
  bottom: "pool6"
  top: "drop6"
  dropout_param {
    dropout_ratio: 0.5
  }
}
layer {
  name: "elu6"
  type: "ELU"
  bottom: "drop6"
  top: "elu6"
}
layer {
  name: "conv11"
  type: "Convolution"
  bottom: "elu6"
  top: "conv11"
  convolution_param {
    num_output: 100
    kernel_size: 1
    weight_filler {
      type: "xavier"
    }
  }
}
layer {
  name: "pool7"
  type: "Pooling"
  bottom: "conv11"
  top: "pool7"
  pooling_param {
    pool: MAX
    kernel_size: 2
    stride: 2
  }
}
layer {
  name: "drop7"
  type: "Dropout"
  bottom: "pool7"
  top: "drop7"
  dropout_param {
    dropout_ratio: 0
  }
}
layer {
  name: "elu7"
  type: "ELU"
  bottom: "drop7"
  top: "elu7"
}
layer {
  name: "pool"
  type: "Pooling"
  bottom: "elu7"
  top: "pool"
  pooling_param {
    pool: AVE
    global_pooling: true
  }
}
layer {
  name: "flatten"
  type: "Flatten"
  bottom: "pool"
  top: "flatten"
}
layer {
  name: "score"
  type: "InnerProduct"
  bottom: "flatten"
  top: "score"
  inner_product_param {
    num_output: 10
    weight_filler {
      type: "gaussian"
    }
  }
}
layer {
  name: "accuracy"
  type: "Accuracy"
  bottom: "score"
  bottom: "label"
  top: "accuracy"
}
layer {
  name: "loss"
  type: "SoftmaxWithLoss"
  bottom: "score"
  bottom: "label"
  top: "loss"
}
I1018 17:50:51.861994  4234 layer_factory.hpp:77] Creating layer data
I1018 17:50:51.862373  4234 net.cpp:100] Creating Layer data
I1018 17:50:51.862381  4234 net.cpp:408] data -> data
I1018 17:50:51.862396  4234 net.cpp:408] data -> label
I1018 17:50:51.862934  4240 db_lmdb.cpp:35] Opened lmdb ../../../../data/mnist/mnist_train_lmdb
I1018 17:50:51.868463  4234 data_layer.cpp:41] output data size: 64,1,28,28
I1018 17:50:51.869128  4234 net.cpp:150] Setting up data
I1018 17:50:51.869140  4234 net.cpp:157] Top shape: 64 1 28 28 (50176)
I1018 17:50:51.869143  4234 net.cpp:157] Top shape: 64 (64)
I1018 17:50:51.869145  4234 net.cpp:165] Memory required for data: 200960
I1018 17:50:51.869154  4234 layer_factory.hpp:77] Creating layer label_data_1_split
I1018 17:50:51.869163  4234 net.cpp:100] Creating Layer label_data_1_split
I1018 17:50:51.869168  4234 net.cpp:434] label_data_1_split <- label
I1018 17:50:51.869177  4234 net.cpp:408] label_data_1_split -> label_data_1_split_0
I1018 17:50:51.869185  4234 net.cpp:408] label_data_1_split -> label_data_1_split_1
I1018 17:50:51.869210  4234 net.cpp:150] Setting up label_data_1_split
I1018 17:50:51.869212  4234 net.cpp:157] Top shape: 64 (64)
I1018 17:50:51.869215  4234 net.cpp:157] Top shape: 64 (64)
I1018 17:50:51.869216  4234 net.cpp:165] Memory required for data: 201472
I1018 17:50:51.869218  4234 layer_factory.hpp:77] Creating layer conv1
I1018 17:50:51.869230  4234 net.cpp:100] Creating Layer conv1
I1018 17:50:51.869232  4234 net.cpp:434] conv1 <- data
I1018 17:50:51.869238  4234 net.cpp:408] conv1 -> conv1
I1018 17:50:51.990535  4234 net.cpp:150] Setting up conv1
I1018 17:50:51.990559  4234 net.cpp:157] Top shape: 64 192 24 24 (7077888)
I1018 17:50:51.990561  4234 net.cpp:165] Memory required for data: 28513024
I1018 17:50:51.990579  4234 layer_factory.hpp:77] Creating layer pool1
I1018 17:50:51.990588  4234 net.cpp:100] Creating Layer pool1
I1018 17:50:51.990592  4234 net.cpp:434] pool1 <- conv1
I1018 17:50:51.990595  4234 net.cpp:408] pool1 -> pool1
I1018 17:50:51.990633  4234 net.cpp:150] Setting up pool1
I1018 17:50:51.990638  4234 net.cpp:157] Top shape: 64 192 12 12 (1769472)
I1018 17:50:51.990651  4234 net.cpp:165] Memory required for data: 35590912
I1018 17:50:51.990653  4234 layer_factory.hpp:77] Creating layer drop1
I1018 17:50:51.990660  4234 net.cpp:100] Creating Layer drop1
I1018 17:50:51.990663  4234 net.cpp:434] drop1 <- pool1
I1018 17:50:51.990664  4234 net.cpp:408] drop1 -> drop1
I1018 17:50:51.990689  4234 net.cpp:150] Setting up drop1
I1018 17:50:51.990694  4234 net.cpp:157] Top shape: 64 192 12 12 (1769472)
I1018 17:50:51.990695  4234 net.cpp:165] Memory required for data: 42668800
I1018 17:50:51.990696  4234 layer_factory.hpp:77] Creating layer elu1
I1018 17:50:51.990700  4234 net.cpp:100] Creating Layer elu1
I1018 17:50:51.990701  4234 net.cpp:434] elu1 <- drop1
I1018 17:50:51.990705  4234 net.cpp:408] elu1 -> elu1
I1018 17:50:51.990715  4234 net.cpp:150] Setting up elu1
I1018 17:50:51.990717  4234 net.cpp:157] Top shape: 64 192 12 12 (1769472)
I1018 17:50:51.990720  4234 net.cpp:165] Memory required for data: 49746688
I1018 17:50:51.990720  4234 layer_factory.hpp:77] Creating layer conv2
I1018 17:50:51.990727  4234 net.cpp:100] Creating Layer conv2
I1018 17:50:51.990728  4234 net.cpp:434] conv2 <- elu1
I1018 17:50:51.990731  4234 net.cpp:408] conv2 -> conv2
I1018 17:50:51.991469  4234 net.cpp:150] Setting up conv2
I1018 17:50:51.991482  4234 net.cpp:157] Top shape: 64 192 12 12 (1769472)
I1018 17:50:51.991484  4234 net.cpp:165] Memory required for data: 56824576
I1018 17:50:51.991492  4234 layer_factory.hpp:77] Creating layer conv3
I1018 17:50:51.991497  4234 net.cpp:100] Creating Layer conv3
I1018 17:50:51.991498  4234 net.cpp:434] conv3 <- conv2
I1018 17:50:51.991502  4234 net.cpp:408] conv3 -> conv3
I1018 17:50:51.993935  4234 net.cpp:150] Setting up conv3
I1018 17:50:51.993943  4234 net.cpp:157] Top shape: 64 240 10 10 (1536000)
I1018 17:50:51.993945  4234 net.cpp:165] Memory required for data: 62968576
I1018 17:50:51.993950  4234 layer_factory.hpp:77] Creating layer pool2
I1018 17:50:51.993957  4234 net.cpp:100] Creating Layer pool2
I1018 17:50:51.993958  4234 net.cpp:434] pool2 <- conv3
I1018 17:50:51.993962  4234 net.cpp:408] pool2 -> pool2
I1018 17:50:51.993985  4234 net.cpp:150] Setting up pool2
I1018 17:50:51.993990  4234 net.cpp:157] Top shape: 64 240 5 5 (384000)
I1018 17:50:51.993991  4234 net.cpp:165] Memory required for data: 64504576
I1018 17:50:51.993993  4234 layer_factory.hpp:77] Creating layer drop2
I1018 17:50:51.993995  4234 net.cpp:100] Creating Layer drop2
I1018 17:50:51.993999  4234 net.cpp:434] drop2 <- pool2
I1018 17:50:51.994001  4234 net.cpp:408] drop2 -> drop2
I1018 17:50:51.994020  4234 net.cpp:150] Setting up drop2
I1018 17:50:51.994024  4234 net.cpp:157] Top shape: 64 240 5 5 (384000)
I1018 17:50:51.994025  4234 net.cpp:165] Memory required for data: 66040576
I1018 17:50:51.994026  4234 layer_factory.hpp:77] Creating layer elu2
I1018 17:50:51.994030  4234 net.cpp:100] Creating Layer elu2
I1018 17:50:51.994031  4234 net.cpp:434] elu2 <- drop2
I1018 17:50:51.994035  4234 net.cpp:408] elu2 -> elu2
I1018 17:50:51.994045  4234 net.cpp:150] Setting up elu2
I1018 17:50:51.994050  4234 net.cpp:157] Top shape: 64 240 5 5 (384000)
I1018 17:50:51.994050  4234 net.cpp:165] Memory required for data: 67576576
I1018 17:50:51.994052  4234 layer_factory.hpp:77] Creating layer conv4
I1018 17:50:51.994057  4234 net.cpp:100] Creating Layer conv4
I1018 17:50:51.994060  4234 net.cpp:434] conv4 <- elu2
I1018 17:50:51.994062  4234 net.cpp:408] conv4 -> conv4
I1018 17:50:51.994874  4234 net.cpp:150] Setting up conv4
I1018 17:50:51.994882  4234 net.cpp:157] Top shape: 64 240 5 5 (384000)
I1018 17:50:51.994884  4234 net.cpp:165] Memory required for data: 69112576
I1018 17:50:51.994887  4234 layer_factory.hpp:77] Creating layer conv5
I1018 17:50:51.994892  4234 net.cpp:100] Creating Layer conv5
I1018 17:50:51.994894  4234 net.cpp:434] conv5 <- conv4
I1018 17:50:51.994897  4234 net.cpp:408] conv5 -> conv5
I1018 17:50:51.996641  4234 net.cpp:150] Setting up conv5
I1018 17:50:51.996650  4234 net.cpp:157] Top shape: 64 260 4 4 (266240)
I1018 17:50:51.996652  4234 net.cpp:165] Memory required for data: 70177536
I1018 17:50:51.996665  4234 layer_factory.hpp:77] Creating layer pool3
I1018 17:50:51.996670  4234 net.cpp:100] Creating Layer pool3
I1018 17:50:51.996672  4234 net.cpp:434] pool3 <- conv5
I1018 17:50:51.996676  4234 net.cpp:408] pool3 -> pool3
I1018 17:50:51.996701  4234 net.cpp:150] Setting up pool3
I1018 17:50:51.996706  4234 net.cpp:157] Top shape: 64 260 2 2 (66560)
I1018 17:50:51.996707  4234 net.cpp:165] Memory required for data: 70443776
I1018 17:50:51.996709  4234 layer_factory.hpp:77] Creating layer drop3
I1018 17:50:51.996712  4234 net.cpp:100] Creating Layer drop3
I1018 17:50:51.996713  4234 net.cpp:434] drop3 <- pool3
I1018 17:50:51.996717  4234 net.cpp:408] drop3 -> drop3
I1018 17:50:51.996738  4234 net.cpp:150] Setting up drop3
I1018 17:50:51.996742  4234 net.cpp:157] Top shape: 64 260 2 2 (66560)
I1018 17:50:51.996744  4234 net.cpp:165] Memory required for data: 70710016
I1018 17:50:51.996747  4234 layer_factory.hpp:77] Creating layer elu3
I1018 17:50:51.996748  4234 net.cpp:100] Creating Layer elu3
I1018 17:50:51.996750  4234 net.cpp:434] elu3 <- drop3
I1018 17:50:51.996753  4234 net.cpp:408] elu3 -> elu3
I1018 17:50:51.996767  4234 net.cpp:150] Setting up elu3
I1018 17:50:51.996769  4234 net.cpp:157] Top shape: 64 260 2 2 (66560)
I1018 17:50:51.996772  4234 net.cpp:165] Memory required for data: 70976256
I1018 17:50:51.996773  4234 layer_factory.hpp:77] Creating layer conv6
I1018 17:50:51.996779  4234 net.cpp:100] Creating Layer conv6
I1018 17:50:51.996781  4234 net.cpp:434] conv6 <- elu3
I1018 17:50:51.996784  4234 net.cpp:408] conv6 -> conv6
I1018 17:50:51.997869  4234 net.cpp:150] Setting up conv6
I1018 17:50:51.997877  4234 net.cpp:157] Top shape: 64 260 2 2 (66560)
I1018 17:50:51.997880  4234 net.cpp:165] Memory required for data: 71242496
I1018 17:50:51.997884  4234 layer_factory.hpp:77] Creating layer conv7
I1018 17:50:51.997887  4234 net.cpp:100] Creating Layer conv7
I1018 17:50:51.997890  4234 net.cpp:434] conv7 <- conv6
I1018 17:50:51.997894  4234 net.cpp:408] conv7 -> conv7
I1018 17:50:51.999882  4234 net.cpp:150] Setting up conv7
I1018 17:50:51.999894  4234 net.cpp:157] Top shape: 64 280 1 1 (17920)
I1018 17:50:51.999898  4234 net.cpp:165] Memory required for data: 71314176
I1018 17:50:51.999904  4234 layer_factory.hpp:77] Creating layer pool4
I1018 17:50:51.999910  4234 net.cpp:100] Creating Layer pool4
I1018 17:50:51.999913  4234 net.cpp:434] pool4 <- conv7
I1018 17:50:51.999920  4234 net.cpp:408] pool4 -> pool4
I1018 17:50:51.999956  4234 net.cpp:150] Setting up pool4
I1018 17:50:51.999964  4234 net.cpp:157] Top shape: 64 280 1 1 (17920)
I1018 17:50:51.999968  4234 net.cpp:165] Memory required for data: 71385856
I1018 17:50:51.999970  4234 layer_factory.hpp:77] Creating layer drop4
I1018 17:50:51.999977  4234 net.cpp:100] Creating Layer drop4
I1018 17:50:51.999980  4234 net.cpp:434] drop4 <- pool4
I1018 17:50:51.999985  4234 net.cpp:408] drop4 -> drop4
I1018 17:50:52.000023  4234 net.cpp:150] Setting up drop4
I1018 17:50:52.000030  4234 net.cpp:157] Top shape: 64 280 1 1 (17920)
I1018 17:50:52.000033  4234 net.cpp:165] Memory required for data: 71457536
I1018 17:50:52.000036  4234 layer_factory.hpp:77] Creating layer elu4
I1018 17:50:52.000041  4234 net.cpp:100] Creating Layer elu4
I1018 17:50:52.000044  4234 net.cpp:434] elu4 <- drop4
I1018 17:50:52.000049  4234 net.cpp:408] elu4 -> elu4
I1018 17:50:52.000069  4234 net.cpp:150] Setting up elu4
I1018 17:50:52.000077  4234 net.cpp:157] Top shape: 64 280 1 1 (17920)
I1018 17:50:52.000080  4234 net.cpp:165] Memory required for data: 71529216
I1018 17:50:52.000083  4234 layer_factory.hpp:77] Creating layer conv8
I1018 17:50:52.000093  4234 net.cpp:100] Creating Layer conv8
I1018 17:50:52.000098  4234 net.cpp:434] conv8 <- elu4
I1018 17:50:52.000103  4234 net.cpp:408] conv8 -> conv8
I1018 17:50:52.001566  4234 net.cpp:150] Setting up conv8
I1018 17:50:52.001577  4234 net.cpp:157] Top shape: 64 280 1 1 (17920)
I1018 17:50:52.001581  4234 net.cpp:165] Memory required for data: 71600896
I1018 17:50:52.001587  4234 layer_factory.hpp:77] Creating layer pool5
I1018 17:50:52.001605  4234 net.cpp:100] Creating Layer pool5
I1018 17:50:52.001608  4234 net.cpp:434] pool5 <- conv8
I1018 17:50:52.001613  4234 net.cpp:408] pool5 -> pool5
I1018 17:50:52.001652  4234 net.cpp:150] Setting up pool5
I1018 17:50:52.001659  4234 net.cpp:157] Top shape: 64 280 1 1 (17920)
I1018 17:50:52.001662  4234 net.cpp:165] Memory required for data: 71672576
I1018 17:50:52.001665  4234 layer_factory.hpp:77] Creating layer drop5
I1018 17:50:52.001669  4234 net.cpp:100] Creating Layer drop5
I1018 17:50:52.001672  4234 net.cpp:434] drop5 <- pool5
I1018 17:50:52.001677  4234 net.cpp:408] drop5 -> drop5
I1018 17:50:52.001708  4234 net.cpp:150] Setting up drop5
I1018 17:50:52.001715  4234 net.cpp:157] Top shape: 64 280 1 1 (17920)
I1018 17:50:52.001718  4234 net.cpp:165] Memory required for data: 71744256
I1018 17:50:52.001720  4234 layer_factory.hpp:77] Creating layer elu5
I1018 17:50:52.001727  4234 net.cpp:100] Creating Layer elu5
I1018 17:50:52.001731  4234 net.cpp:434] elu5 <- drop5
I1018 17:50:52.001735  4234 net.cpp:408] elu5 -> elu5
I1018 17:50:52.001755  4234 net.cpp:150] Setting up elu5
I1018 17:50:52.001762  4234 net.cpp:157] Top shape: 64 280 1 1 (17920)
I1018 17:50:52.001765  4234 net.cpp:165] Memory required for data: 71815936
I1018 17:50:52.001767  4234 layer_factory.hpp:77] Creating layer conv10
I1018 17:50:52.001775  4234 net.cpp:100] Creating Layer conv10
I1018 17:50:52.001778  4234 net.cpp:434] conv10 <- elu5
I1018 17:50:52.001783  4234 net.cpp:408] conv10 -> conv10
I1018 17:50:52.003175  4234 net.cpp:150] Setting up conv10
I1018 17:50:52.003192  4234 net.cpp:157] Top shape: 64 300 1 1 (19200)
I1018 17:50:52.003196  4234 net.cpp:165] Memory required for data: 71892736
I1018 17:50:52.003208  4234 layer_factory.hpp:77] Creating layer pool6
I1018 17:50:52.003217  4234 net.cpp:100] Creating Layer pool6
I1018 17:50:52.003221  4234 net.cpp:434] pool6 <- conv10
I1018 17:50:52.003228  4234 net.cpp:408] pool6 -> pool6
I1018 17:50:52.003267  4234 net.cpp:150] Setting up pool6
I1018 17:50:52.003274  4234 net.cpp:157] Top shape: 64 300 1 1 (19200)
I1018 17:50:52.003278  4234 net.cpp:165] Memory required for data: 71969536
I1018 17:50:52.003280  4234 layer_factory.hpp:77] Creating layer drop6
I1018 17:50:52.003288  4234 net.cpp:100] Creating Layer drop6
I1018 17:50:52.003293  4234 net.cpp:434] drop6 <- pool6
I1018 17:50:52.003298  4234 net.cpp:408] drop6 -> drop6
I1018 17:50:52.003332  4234 net.cpp:150] Setting up drop6
I1018 17:50:52.003340  4234 net.cpp:157] Top shape: 64 300 1 1 (19200)
I1018 17:50:52.003343  4234 net.cpp:165] Memory required for data: 72046336
I1018 17:50:52.003346  4234 layer_factory.hpp:77] Creating layer elu6
I1018 17:50:52.003350  4234 net.cpp:100] Creating Layer elu6
I1018 17:50:52.003355  4234 net.cpp:434] elu6 <- drop6
I1018 17:50:52.003360  4234 net.cpp:408] elu6 -> elu6
I1018 17:50:52.003379  4234 net.cpp:150] Setting up elu6
I1018 17:50:52.003387  4234 net.cpp:157] Top shape: 64 300 1 1 (19200)
I1018 17:50:52.003392  4234 net.cpp:165] Memory required for data: 72123136
I1018 17:50:52.003396  4234 layer_factory.hpp:77] Creating layer conv11
I1018 17:50:52.003403  4234 net.cpp:100] Creating Layer conv11
I1018 17:50:52.003407  4234 net.cpp:434] conv11 <- elu6
I1018 17:50:52.003415  4234 net.cpp:408] conv11 -> conv11
I1018 17:50:52.005025  4234 net.cpp:150] Setting up conv11
I1018 17:50:52.005041  4234 net.cpp:157] Top shape: 64 100 1 1 (6400)
I1018 17:50:52.005043  4234 net.cpp:165] Memory required for data: 72148736
I1018 17:50:52.005048  4234 layer_factory.hpp:77] Creating layer pool7
I1018 17:50:52.005056  4234 net.cpp:100] Creating Layer pool7
I1018 17:50:52.005060  4234 net.cpp:434] pool7 <- conv11
I1018 17:50:52.005065  4234 net.cpp:408] pool7 -> pool7
I1018 17:50:52.005103  4234 net.cpp:150] Setting up pool7
I1018 17:50:52.005108  4234 net.cpp:157] Top shape: 64 100 1 1 (6400)
I1018 17:50:52.005110  4234 net.cpp:165] Memory required for data: 72174336
I1018 17:50:52.005111  4234 layer_factory.hpp:77] Creating layer drop7
I1018 17:50:52.005128  4234 net.cpp:100] Creating Layer drop7
I1018 17:50:52.005131  4234 net.cpp:434] drop7 <- pool7
I1018 17:50:52.005136  4234 net.cpp:408] drop7 -> drop7
I1018 17:50:52.005162  4234 net.cpp:150] Setting up drop7
I1018 17:50:52.005169  4234 net.cpp:157] Top shape: 64 100 1 1 (6400)
I1018 17:50:52.005172  4234 net.cpp:165] Memory required for data: 72199936
I1018 17:50:52.005172  4234 layer_factory.hpp:77] Creating layer elu7
I1018 17:50:52.005178  4234 net.cpp:100] Creating Layer elu7
I1018 17:50:52.005182  4234 net.cpp:434] elu7 <- drop7
I1018 17:50:52.005184  4234 net.cpp:408] elu7 -> elu7
I1018 17:50:52.005201  4234 net.cpp:150] Setting up elu7
I1018 17:50:52.005205  4234 net.cpp:157] Top shape: 64 100 1 1 (6400)
I1018 17:50:52.005208  4234 net.cpp:165] Memory required for data: 72225536
I1018 17:50:52.005209  4234 layer_factory.hpp:77] Creating layer pool
I1018 17:50:52.005214  4234 net.cpp:100] Creating Layer pool
I1018 17:50:52.005218  4234 net.cpp:434] pool <- elu7
I1018 17:50:52.005221  4234 net.cpp:408] pool -> pool
I1018 17:50:52.005364  4234 net.cpp:150] Setting up pool
I1018 17:50:52.005372  4234 net.cpp:157] Top shape: 64 100 1 1 (6400)
I1018 17:50:52.005373  4234 net.cpp:165] Memory required for data: 72251136
I1018 17:50:52.005375  4234 layer_factory.hpp:77] Creating layer flatten
I1018 17:50:52.005379  4234 net.cpp:100] Creating Layer flatten
I1018 17:50:52.005381  4234 net.cpp:434] flatten <- pool
I1018 17:50:52.005384  4234 net.cpp:408] flatten -> flatten
I1018 17:50:52.005405  4234 net.cpp:150] Setting up flatten
I1018 17:50:52.005410  4234 net.cpp:157] Top shape: 64 100 (6400)
I1018 17:50:52.005411  4234 net.cpp:165] Memory required for data: 72276736
I1018 17:50:52.005414  4234 layer_factory.hpp:77] Creating layer score
I1018 17:50:52.005419  4234 net.cpp:100] Creating Layer score
I1018 17:50:52.005422  4234 net.cpp:434] score <- flatten
I1018 17:50:52.005427  4234 net.cpp:408] score -> score
I1018 17:50:52.005547  4234 net.cpp:150] Setting up score
I1018 17:50:52.005551  4234 net.cpp:157] Top shape: 64 10 (640)
I1018 17:50:52.005553  4234 net.cpp:165] Memory required for data: 72279296
I1018 17:50:52.005556  4234 layer_factory.hpp:77] Creating layer score_score_0_split
I1018 17:50:52.005560  4234 net.cpp:100] Creating Layer score_score_0_split
I1018 17:50:52.005563  4234 net.cpp:434] score_score_0_split <- score
I1018 17:50:52.005565  4234 net.cpp:408] score_score_0_split -> score_score_0_split_0
I1018 17:50:52.005569  4234 net.cpp:408] score_score_0_split -> score_score_0_split_1
I1018 17:50:52.005591  4234 net.cpp:150] Setting up score_score_0_split
I1018 17:50:52.005595  4234 net.cpp:157] Top shape: 64 10 (640)
I1018 17:50:52.005597  4234 net.cpp:157] Top shape: 64 10 (640)
I1018 17:50:52.005599  4234 net.cpp:165] Memory required for data: 72284416
I1018 17:50:52.005600  4234 layer_factory.hpp:77] Creating layer accuracy
I1018 17:50:52.005604  4234 net.cpp:100] Creating Layer accuracy
I1018 17:50:52.005606  4234 net.cpp:434] accuracy <- score_score_0_split_0
I1018 17:50:52.005609  4234 net.cpp:434] accuracy <- label_data_1_split_0
I1018 17:50:52.005611  4234 net.cpp:408] accuracy -> accuracy
…
I1018 17:50:52.006026  4234 net.cpp:283] Network initialization done.
I1018 17:50:52.006209  4234 solver.cpp:181] Creating test net (#0) specified by test_net file: /home/adam/Honours/Honours-Project/mnist_pooling/max/elu/poolcnn_elu_test.prototxt
I1018 17:50:52.006322  4234 net.cpp:58] Initializing net from parameters: 
state {
  phase: TEST
}
layer {
  name: "data"
  type: "Data"
  top: "data"
  top: "label"
  transform_param {
    scale: 0.0039215689
  }
  data_param {
    source: "../../../../data/mnist/mnist_test_lmdb"
    batch_size: 100
    backend: LMDB
  }
}
layer {
  name: "conv1"
  type: "Convolution"
  bottom: "data"
  top: "conv1"
  convolution_param {
    num_output: 192
    kernel_size: 5
    weight_filler {
      type: "xavier"
    }
  }
}
layer {
  name: "pool1"
  type: "Pooling"
  bottom: "conv1"
  top: "pool1"
  pooling_param {
    pool: MAX
    kernel_size: 2
    stride: 2
  }
}
layer {
  name: "drop1"
  type: "Dropout"
  bottom: "pool1"
  top: "drop1"
  dropout_param {
    dropout_ratio: 0
  }
}
layer {
  name: "elu1"
  type: "ELU"
  bottom: "drop1"
  top: "elu1"
}
layer {
  name: "conv2"
  type: "Convolution"
  bottom: "elu1"
  top: "conv2"
  convolution_param {
    num_output: 192
    kernel_size: 1
    weight_filler {
      type: "xavier"
    }
  }
}
layer {
  name: "conv3"
  type: "Convolution"
  bottom: "conv2"
  top: "conv3"
  convolution_param {
    num_output: 240
    kernel_size: 3
    weight_filler {
      type: "xavier"
    }
  }
}
layer {
  name: "pool2"
  type: "Pooling"
  bottom: "conv3"
  top: "pool2"
  pooling_param {
    pool: MAX
    kernel_size: 2
    stride: 2
  }
}
layer {
  name: "drop2"
  type: "Dropout"
  bottom: "pool2"
  top: "drop2"
  dropout_param {
    dropout_ratio: 0.1
  }
}
layer {
  name: "elu2"
  type: "ELU"
  bottom: "drop2"
  top: "elu2"
}
layer {
  name: "conv4"
  type: "Convolution"
  bottom: "elu2"
  top: "conv4"
  convolution_param {
    num_output: 240
    kernel_size: 1
    weight_filler {
      type: "xavier"
    }
  }
}
layer {
  name: "conv5"
  type: "Convolution"
  bottom: "conv4"
  top: "conv5"
  convolution_param {
    num_output: 260
    kernel_size: 2
    weight_filler {
      type: "xavier"
    }
  }
}
layer {
  name: "pool3"
  type: "Pooling"
  bottom: "conv5"
  top: "pool3"
  pooling_param {
    pool: MAX
    kernel_size: 2
    stride: 2
  }
}
layer {
  name: "drop3"
  type: "Dropout"
  bottom: "pool3"
  top: "drop3"
  dropout_param {
    dropout_ratio: 0.2
  }
}
layer {
  name: "elu3"
  type: "ELU"
  bottom: "drop3"
  top: "elu3"
}
layer {
  name: "conv6"
  type: "Convolution"
  bottom: "elu3"
  top: "conv6"
  convolution_param {
    num_output: 260
    kernel_size: 1
    weight_filler {
      type: "xavier"
    }
  }
}
layer {
  name: "conv7"
  type: "Convolution"
  bottom: "conv6"
  top: "conv7"
  convolution_param {
    num_output: 280
    kernel_size: 2
    weight_filler {
      type: "xavier"
    }
  }
}
layer {
  name: "pool4"
  type: "Pooling"
  bottom: "conv7"
  top: "pool4"
  pooling_param {
    pool: MAX
    kernel_size: 2
    stride: 2
  }
}
layer {
  name: "drop4"
  type: "Dropout"
  bottom: "pool4"
  top: "drop4"
  dropout_param {
    dropout_ratio: 0.3
  }
}
layer {
  name: "elu4"
  type: "ELU"
  bottom: "drop4"
  top: "elu4"
}
layer {
  name: "conv8"
  type: "Convolution"
  bottom: "elu4"
  top: "conv8"
  convolution_param {
    num_output: 280
    kernel_size: 1
    weight_filler {
      type: "xavier"
    }
  }
}
layer {
  name: "pool5"
  type: "Pooling"
  bottom: "conv8"
  top: "pool5"
  pooling_param {
    pool: MAX
    kernel_size: 2
    stride: 2
  }
}
layer {
  name: "drop5"
  type: "Dropout"
  bottom: "pool5"
  top: "drop5"
  dropout_param {
    dropout_ratio: 0.4
  }
}
layer {
  name: "elu5"
  type: "ELU"
  bottom: "drop5"
  top: "elu5"
}
layer {
  name: "conv10"
  type: "Convolution"
  bottom: "elu5"
  top: "conv10"
  convolution_param {
    num_output: 300
    kernel_size: 1
    weight_filler {
      type: "xavier"
    }
  }
}
layer {
  name: "pool6"
  type: "Pooling"
  bottom: "conv10"
  top: "pool6"
  pooling_param {
    pool: MAX
    kernel_size: 2
    stride: 2
  }
}
layer {
  name: "drop6"
  type: "Dropout"
  bottom: "pool6"
  top: "drop6"
  dropout_param {
    dropout_ratio: 0.5
  }
}
layer {
  name: "elu6"
  type: "ELU"
  bottom: "drop6"
  top: "elu6"
}
layer {
  name: "conv11"
  type: "Convolution"
  bottom: "elu6"
  top: "conv11"
  convolution_param {
    num_output: 100
    kernel_size: 1
    weight_filler {
      type: "xavier"
    }
  }
}
layer {
  name: "pool7"
  type: "Pooling"
  bottom: "conv11"
  top: "pool7"
  pooling_param {
    pool: MAX
    kernel_size: 2
    stride: 2
  }
}
layer {
  name: "drop7"
  type: "Dropout"
  bottom: "pool7"
  top: "drop7"
  dropout_param {
    dropout_ratio: 0
  }
}
layer {
  name: "elu7"
  type: "ELU"
  bottom: "drop7"
  top: "elu7"
}
layer {
  name: "pool"
  type: "Pooling"
  bottom: "elu7"
  top: "pool"
  pooling_param {
    pool: AVE
    global_pooling: true
  }
}
layer {
  name: "flatten"
  type: "Flatten"
  bottom: "pool"
  top: "flatten"
}
layer {
  name: "score"
  type: "InnerProduct"
  bottom: "flatten"
  top: "score"
  inner_product_param {
    num_output: 10
    weight_filler {
      type: "gaussian"
    }
  }
}
layer {
  name: "accuracy"
  type: "Accuracy"
  bottom: "score"
  bottom: "label"
  top: "accuracy"
}
layer {
  name: "loss"
  type: "SoftmaxWithLoss"
  bottom: "score"
  bottom: "label"
  top: "loss"
}
I1018 17:50:52.006399  4234 layer_factory.hpp:77] Creating layer data
I1018 17:50:52.006476  4234 net.cpp:100] Creating Layer data
I1018 17:50:52.006481  4234 net.cpp:408] data -> data
I1018 17:50:52.006489  4234 net.cpp:408] data -> label
I1018 17:50:52.007045  4242 db_lmdb.cpp:35] Opened lmdb ../../../../data/mnist/mnist_test_lmdb
I1018 17:50:52.007119  4234 data_layer.cpp:41] output data size: 100,1,28,28
I1018 17:50:52.007756  4234 net.cpp:150] Setting up data
I1018 17:50:52.007764  4234 net.cpp:157] Top shape: 100 1 28 28 (78400)
I1018 17:50:52.007767  4234 net.cpp:157] Top shape: 100 (100)
I1018 17:50:52.007768  4234 net.cpp:165] Memory required for data: 314000
I1018 17:50:52.007771  4234 layer_factory.hpp:77] Creating layer label_data_1_split
I1018 17:50:52.007776  4234 net.cpp:100] Creating Layer label_data_1_split
I1018 17:50:52.007777  4234 net.cpp:434] label_data_1_split <- label
I1018 17:50:52.007781  4234 net.cpp:408] label_data_1_split -> label_data_1_split_0
I1018 17:50:52.007784  4234 net.cpp:408] label_data_1_split -> label_data_1_split_1
I1018 17:50:52.007825  4234 net.cpp:150] Setting up label_data_1_split
I1018 17:50:52.007829  4234 net.cpp:157] Top shape: 100 (100)
I1018 17:50:52.007832  4234 net.cpp:157] Top shape: 100 (100)
I1018 17:50:52.007833  4234 net.cpp:165] Memory required for data: 314800
I1018 17:50:52.007834  4234 layer_factory.hpp:77] Creating layer conv1
I1018 17:50:52.007841  4234 net.cpp:100] Creating Layer conv1
I1018 17:50:52.007843  4234 net.cpp:434] conv1 <- data
I1018 17:50:52.007848  4234 net.cpp:408] conv1 -> conv1
I1018 17:50:52.008607  4234 net.cpp:150] Setting up conv1
I1018 17:50:52.008616  4234 net.cpp:157] Top shape: 100 192 24 24 (11059200)
I1018 17:50:52.008622  4234 net.cpp:165] Memory required for data: 44551600
I1018 17:50:52.008628  4234 layer_factory.hpp:77] Creating layer pool1
I1018 17:50:52.008632  4234 net.cpp:100] Creating Layer pool1
I1018 17:50:52.008635  4234 net.cpp:434] pool1 <- conv1
I1018 17:50:52.008641  4234 net.cpp:408] pool1 -> pool1
I1018 17:50:52.008671  4234 net.cpp:150] Setting up pool1
I1018 17:50:52.008676  4234 net.cpp:157] Top shape: 100 192 12 12 (2764800)
I1018 17:50:52.008677  4234 net.cpp:165] Memory required for data: 55610800
I1018 17:50:52.008678  4234 layer_factory.hpp:77] Creating layer drop1
I1018 17:50:52.008683  4234 net.cpp:100] Creating Layer drop1
I1018 17:50:52.008685  4234 net.cpp:434] drop1 <- pool1
I1018 17:50:52.008688  4234 net.cpp:408] drop1 -> drop1
I1018 17:50:52.008713  4234 net.cpp:150] Setting up drop1
I1018 17:50:52.008718  4234 net.cpp:157] Top shape: 100 192 12 12 (2764800)
I1018 17:50:52.008720  4234 net.cpp:165] Memory required for data: 66670000
I1018 17:50:52.008724  4234 layer_factory.hpp:77] Creating layer elu1
I1018 17:50:52.008728  4234 net.cpp:100] Creating Layer elu1
I1018 17:50:52.008733  4234 net.cpp:434] elu1 <- drop1
I1018 17:50:52.008736  4234 net.cpp:408] elu1 -> elu1
I1018 17:50:52.008751  4234 net.cpp:150] Setting up elu1
I1018 17:50:52.008756  4234 net.cpp:157] Top shape: 100 192 12 12 (2764800)
I1018 17:50:52.008757  4234 net.cpp:165] Memory required for data: 77729200
I1018 17:50:52.008759  4234 layer_factory.hpp:77] Creating layer conv2
I1018 17:50:52.008765  4234 net.cpp:100] Creating Layer conv2
I1018 17:50:52.008767  4234 net.cpp:434] conv2 <- elu1
I1018 17:50:52.008770  4234 net.cpp:408] conv2 -> conv2
I1018 17:50:52.009639  4234 net.cpp:150] Setting up conv2
I1018 17:50:52.009646  4234 net.cpp:157] Top shape: 100 192 12 12 (2764800)
I1018 17:50:52.009649  4234 net.cpp:165] Memory required for data: 88788400
I1018 17:50:52.009654  4234 layer_factory.hpp:77] Creating layer conv3
I1018 17:50:52.009660  4234 net.cpp:100] Creating Layer conv3
I1018 17:50:52.009668  4234 net.cpp:434] conv3 <- conv2
I1018 17:50:52.009673  4234 net.cpp:408] conv3 -> conv3
I1018 17:50:52.012089  4234 net.cpp:150] Setting up conv3
I1018 17:50:52.012099  4234 net.cpp:157] Top shape: 100 240 10 10 (2400000)
I1018 17:50:52.012101  4234 net.cpp:165] Memory required for data: 98388400
I1018 17:50:52.012106  4234 layer_factory.hpp:77] Creating layer pool2
I1018 17:50:52.012111  4234 net.cpp:100] Creating Layer pool2
I1018 17:50:52.012114  4234 net.cpp:434] pool2 <- conv3
I1018 17:50:52.012117  4234 net.cpp:408] pool2 -> pool2
I1018 17:50:52.012145  4234 net.cpp:150] Setting up pool2
I1018 17:50:52.012148  4234 net.cpp:157] Top shape: 100 240 5 5 (600000)
I1018 17:50:52.012151  4234 net.cpp:165] Memory required for data: 100788400
I1018 17:50:52.012151  4234 layer_factory.hpp:77] Creating layer drop2
I1018 17:50:52.012156  4234 net.cpp:100] Creating Layer drop2
I1018 17:50:52.012157  4234 net.cpp:434] drop2 <- pool2
I1018 17:50:52.012161  4234 net.cpp:408] drop2 -> drop2
I1018 17:50:52.012182  4234 net.cpp:150] Setting up drop2
I1018 17:50:52.012187  4234 net.cpp:157] Top shape: 100 240 5 5 (600000)
I1018 17:50:52.012187  4234 net.cpp:165] Memory required for data: 103188400
I1018 17:50:52.012189  4234 layer_factory.hpp:77] Creating layer elu2
I1018 17:50:52.012192  4234 net.cpp:100] Creating Layer elu2
I1018 17:50:52.012193  4234 net.cpp:434] elu2 <- drop2
I1018 17:50:52.012199  4234 net.cpp:408] elu2 -> elu2
I1018 17:50:52.012213  4234 net.cpp:150] Setting up elu2
I1018 17:50:52.012217  4234 net.cpp:157] Top shape: 100 240 5 5 (600000)
I1018 17:50:52.012218  4234 net.cpp:165] Memory required for data: 105588400
I1018 17:50:52.012220  4234 layer_factory.hpp:77] Creating layer conv4
I1018 17:50:52.012225  4234 net.cpp:100] Creating Layer conv4
I1018 17:50:52.012228  4234 net.cpp:434] conv4 <- elu2
I1018 17:50:52.012229  4234 net.cpp:408] conv4 -> conv4
I1018 17:50:52.013083  4234 net.cpp:150] Setting up conv4
I1018 17:50:52.013092  4234 net.cpp:157] Top shape: 100 240 5 5 (600000)
I1018 17:50:52.013094  4234 net.cpp:165] Memory required for data: 107988400
I1018 17:50:52.013098  4234 layer_factory.hpp:77] Creating layer conv5
I1018 17:50:52.013103  4234 net.cpp:100] Creating Layer conv5
I1018 17:50:52.013106  4234 net.cpp:434] conv5 <- conv4
I1018 17:50:52.013111  4234 net.cpp:408] conv5 -> conv5
I1018 17:50:52.014879  4234 net.cpp:150] Setting up conv5
I1018 17:50:52.014888  4234 net.cpp:157] Top shape: 100 260 4 4 (416000)
I1018 17:50:52.014891  4234 net.cpp:165] Memory required for data: 109652400
I1018 17:50:52.014896  4234 layer_factory.hpp:77] Creating layer pool3
I1018 17:50:52.014900  4234 net.cpp:100] Creating Layer pool3
I1018 17:50:52.014904  4234 net.cpp:434] pool3 <- conv5
I1018 17:50:52.014907  4234 net.cpp:408] pool3 -> pool3
I1018 17:50:52.014935  4234 net.cpp:150] Setting up pool3
I1018 17:50:52.014940  4234 net.cpp:157] Top shape: 100 260 2 2 (104000)
I1018 17:50:52.014940  4234 net.cpp:165] Memory required for data: 110068400
I1018 17:50:52.014943  4234 layer_factory.hpp:77] Creating layer drop3
I1018 17:50:52.014947  4234 net.cpp:100] Creating Layer drop3
I1018 17:50:52.014950  4234 net.cpp:434] drop3 <- pool3
I1018 17:50:52.014952  4234 net.cpp:408] drop3 -> drop3
I1018 17:50:52.014977  4234 net.cpp:150] Setting up drop3
I1018 17:50:52.014982  4234 net.cpp:157] Top shape: 100 260 2 2 (104000)
I1018 17:50:52.014984  4234 net.cpp:165] Memory required for data: 110484400
I1018 17:50:52.014986  4234 layer_factory.hpp:77] Creating layer elu3
I1018 17:50:52.014988  4234 net.cpp:100] Creating Layer elu3
I1018 17:50:52.014991  4234 net.cpp:434] elu3 <- drop3
I1018 17:50:52.014993  4234 net.cpp:408] elu3 -> elu3
I1018 17:50:52.015007  4234 net.cpp:150] Setting up elu3
I1018 17:50:52.015012  4234 net.cpp:157] Top shape: 100 260 2 2 (104000)
I1018 17:50:52.015012  4234 net.cpp:165] Memory required for data: 110900400
I1018 17:50:52.015014  4234 layer_factory.hpp:77] Creating layer conv6
I1018 17:50:52.015022  4234 net.cpp:100] Creating Layer conv6
I1018 17:50:52.015024  4234 net.cpp:434] conv6 <- elu3
I1018 17:50:52.015034  4234 net.cpp:408] conv6 -> conv6
I1018 17:50:52.016165  4234 net.cpp:150] Setting up conv6
I1018 17:50:52.016175  4234 net.cpp:157] Top shape: 100 260 2 2 (104000)
I1018 17:50:52.016177  4234 net.cpp:165] Memory required for data: 111316400
I1018 17:50:52.016181  4234 layer_factory.hpp:77] Creating layer conv7
I1018 17:50:52.016187  4234 net.cpp:100] Creating Layer conv7
I1018 17:50:52.016190  4234 net.cpp:434] conv7 <- conv6
I1018 17:50:52.016193  4234 net.cpp:408] conv7 -> conv7
I1018 17:50:52.018147  4234 net.cpp:150] Setting up conv7
I1018 17:50:52.018156  4234 net.cpp:157] Top shape: 100 280 1 1 (28000)
I1018 17:50:52.018157  4234 net.cpp:165] Memory required for data: 111428400
I1018 17:50:52.018162  4234 layer_factory.hpp:77] Creating layer pool4
I1018 17:50:52.018167  4234 net.cpp:100] Creating Layer pool4
I1018 17:50:52.018170  4234 net.cpp:434] pool4 <- conv7
I1018 17:50:52.018173  4234 net.cpp:408] pool4 -> pool4
I1018 17:50:52.018201  4234 net.cpp:150] Setting up pool4
I1018 17:50:52.018205  4234 net.cpp:157] Top shape: 100 280 1 1 (28000)
I1018 17:50:52.018206  4234 net.cpp:165] Memory required for data: 111540400
I1018 17:50:52.018208  4234 layer_factory.hpp:77] Creating layer drop4
I1018 17:50:52.018211  4234 net.cpp:100] Creating Layer drop4
I1018 17:50:52.018215  4234 net.cpp:434] drop4 <- pool4
I1018 17:50:52.018218  4234 net.cpp:408] drop4 -> drop4
I1018 17:50:52.018241  4234 net.cpp:150] Setting up drop4
I1018 17:50:52.018246  4234 net.cpp:157] Top shape: 100 280 1 1 (28000)
I1018 17:50:52.018247  4234 net.cpp:165] Memory required for data: 111652400
I1018 17:50:52.018249  4234 layer_factory.hpp:77] Creating layer elu4
I1018 17:50:52.018252  4234 net.cpp:100] Creating Layer elu4
I1018 17:50:52.018255  4234 net.cpp:434] elu4 <- drop4
I1018 17:50:52.018257  4234 net.cpp:408] elu4 -> elu4
I1018 17:50:52.018273  4234 net.cpp:150] Setting up elu4
I1018 17:50:52.018277  4234 net.cpp:157] Top shape: 100 280 1 1 (28000)
I1018 17:50:52.018280  4234 net.cpp:165] Memory required for data: 111764400
I1018 17:50:52.018281  4234 layer_factory.hpp:77] Creating layer conv8
I1018 17:50:52.018286  4234 net.cpp:100] Creating Layer conv8
I1018 17:50:52.018288  4234 net.cpp:434] conv8 <- elu4
I1018 17:50:52.018292  4234 net.cpp:408] conv8 -> conv8
I1018 17:50:52.019148  4234 net.cpp:150] Setting up conv8
I1018 17:50:52.019155  4234 net.cpp:157] Top shape: 100 280 1 1 (28000)
I1018 17:50:52.019157  4234 net.cpp:165] Memory required for data: 111876400
I1018 17:50:52.019161  4234 layer_factory.hpp:77] Creating layer pool5
I1018 17:50:52.019165  4234 net.cpp:100] Creating Layer pool5
I1018 17:50:52.019167  4234 net.cpp:434] pool5 <- conv8
I1018 17:50:52.019171  4234 net.cpp:408] pool5 -> pool5
I1018 17:50:52.019198  4234 net.cpp:150] Setting up pool5
I1018 17:50:52.019202  4234 net.cpp:157] Top shape: 100 280 1 1 (28000)
I1018 17:50:52.019204  4234 net.cpp:165] Memory required for data: 111988400
I1018 17:50:52.019206  4234 layer_factory.hpp:77] Creating layer drop5
I1018 17:50:52.019209  4234 net.cpp:100] Creating Layer drop5
I1018 17:50:52.019212  4234 net.cpp:434] drop5 <- pool5
I1018 17:50:52.019214  4234 net.cpp:408] drop5 -> drop5
I1018 17:50:52.019237  4234 net.cpp:150] Setting up drop5
I1018 17:50:52.019242  4234 net.cpp:157] Top shape: 100 280 1 1 (28000)
I1018 17:50:52.019243  4234 net.cpp:165] Memory required for data: 112100400
I1018 17:50:52.019245  4234 layer_factory.hpp:77] Creating layer elu5
I1018 17:50:52.019248  4234 net.cpp:100] Creating Layer elu5
I1018 17:50:52.019249  4234 net.cpp:434] elu5 <- drop5
I1018 17:50:52.019253  4234 net.cpp:408] elu5 -> elu5
I1018 17:50:52.019265  4234 net.cpp:150] Setting up elu5
I1018 17:50:52.019269  4234 net.cpp:157] Top shape: 100 280 1 1 (28000)
I1018 17:50:52.019273  4234 net.cpp:165] Memory required for data: 112212400
I1018 17:50:52.019273  4234 layer_factory.hpp:77] Creating layer conv10
I1018 17:50:52.019280  4234 net.cpp:100] Creating Layer conv10
I1018 17:50:52.019282  4234 net.cpp:434] conv10 <- elu5
I1018 17:50:52.019286  4234 net.cpp:408] conv10 -> conv10
I1018 17:50:52.021373  4234 net.cpp:150] Setting up conv10
I1018 17:50:52.021384  4234 net.cpp:157] Top shape: 100 300 1 1 (30000)
I1018 17:50:52.021385  4234 net.cpp:165] Memory required for data: 112332400
I1018 17:50:52.021394  4234 layer_factory.hpp:77] Creating layer pool6
I1018 17:50:52.021401  4234 net.cpp:100] Creating Layer pool6
I1018 17:50:52.021404  4234 net.cpp:434] pool6 <- conv10
I1018 17:50:52.021406  4234 net.cpp:408] pool6 -> pool6
I1018 17:50:52.021435  4234 net.cpp:150] Setting up pool6
I1018 17:50:52.021438  4234 net.cpp:157] Top shape: 100 300 1 1 (30000)
I1018 17:50:52.021440  4234 net.cpp:165] Memory required for data: 112452400
I1018 17:50:52.021442  4234 layer_factory.hpp:77] Creating layer drop6
I1018 17:50:52.021446  4234 net.cpp:100] Creating Layer drop6
I1018 17:50:52.021450  4234 net.cpp:434] drop6 <- pool6
I1018 17:50:52.021456  4234 net.cpp:408] drop6 -> drop6
I1018 17:50:52.021484  4234 net.cpp:150] Setting up drop6
I1018 17:50:52.021489  4234 net.cpp:157] Top shape: 100 300 1 1 (30000)
I1018 17:50:52.021492  4234 net.cpp:165] Memory required for data: 112572400
I1018 17:50:52.021492  4234 layer_factory.hpp:77] Creating layer elu6
I1018 17:50:52.021497  4234 net.cpp:100] Creating Layer elu6
I1018 17:50:52.021498  4234 net.cpp:434] elu6 <- drop6
I1018 17:50:52.021500  4234 net.cpp:408] elu6 -> elu6
I1018 17:50:52.021514  4234 net.cpp:150] Setting up elu6
I1018 17:50:52.021517  4234 net.cpp:157] Top shape: 100 300 1 1 (30000)
I1018 17:50:52.021519  4234 net.cpp:165] Memory required for data: 112692400
I1018 17:50:52.021522  4234 layer_factory.hpp:77] Creating layer conv11
I1018 17:50:52.021528  4234 net.cpp:100] Creating Layer conv11
I1018 17:50:52.021533  4234 net.cpp:434] conv11 <- elu6
I1018 17:50:52.021535  4234 net.cpp:408] conv11 -> conv11
I1018 17:50:52.022979  4234 net.cpp:150] Setting up conv11
I1018 17:50:52.022987  4234 net.cpp:157] Top shape: 100 100 1 1 (10000)
I1018 17:50:52.022989  4234 net.cpp:165] Memory required for data: 112732400
I1018 17:50:52.022994  4234 layer_factory.hpp:77] Creating layer pool7
I1018 17:50:52.022999  4234 net.cpp:100] Creating Layer pool7
I1018 17:50:52.023000  4234 net.cpp:434] pool7 <- conv11
I1018 17:50:52.023003  4234 net.cpp:408] pool7 -> pool7
I1018 17:50:52.023036  4234 net.cpp:150] Setting up pool7
I1018 17:50:52.023041  4234 net.cpp:157] Top shape: 100 100 1 1 (10000)
I1018 17:50:52.023043  4234 net.cpp:165] Memory required for data: 112772400
I1018 17:50:52.023044  4234 layer_factory.hpp:77] Creating layer drop7
I1018 17:50:52.023048  4234 net.cpp:100] Creating Layer drop7
I1018 17:50:52.023051  4234 net.cpp:434] drop7 <- pool7
I1018 17:50:52.023053  4234 net.cpp:408] drop7 -> drop7
I1018 17:50:52.023078  4234 net.cpp:150] Setting up drop7
I1018 17:50:52.023083  4234 net.cpp:157] Top shape: 100 100 1 1 (10000)
I1018 17:50:52.023087  4234 net.cpp:165] Memory required for data: 112812400
I1018 17:50:52.023089  4234 layer_factory.hpp:77] Creating layer elu7
I1018 17:50:52.023097  4234 net.cpp:100] Creating Layer elu7
I1018 17:50:52.023099  4234 net.cpp:434] elu7 <- drop7
I1018 17:50:52.023104  4234 net.cpp:408] elu7 -> elu7
I1018 17:50:52.023121  4234 net.cpp:150] Setting up elu7
I1018 17:50:52.023126  4234 net.cpp:157] Top shape: 100 100 1 1 (10000)
I1018 17:50:52.023129  4234 net.cpp:165] Memory required for data: 112852400
I1018 17:50:52.023133  4234 layer_factory.hpp:77] Creating layer pool
I1018 17:50:52.023138  4234 net.cpp:100] Creating Layer pool
I1018 17:50:52.023141  4234 net.cpp:434] pool <- elu7
I1018 17:50:52.023145  4234 net.cpp:408] pool -> pool
I1018 17:50:52.023267  4234 net.cpp:150] Setting up pool
I1018 17:50:52.023272  4234 net.cpp:157] Top shape: 100 100 1 1 (10000)
I1018 17:50:52.023277  4234 net.cpp:165] Memory required for data: 112892400
I1018 17:50:52.023279  4234 layer_factory.hpp:77] Creating layer flatten
I1018 17:50:52.023284  4234 net.cpp:100] Creating Layer flatten
I1018 17:50:52.023288  4234 net.cpp:434] flatten <- pool
I1018 17:50:52.023293  4234 net.cpp:408] flatten -> flatten
I1018 17:50:52.023320  4234 net.cpp:150] Setting up flatten
I1018 17:50:52.023324  4234 net.cpp:157] Top shape: 100 100 (10000)
I1018 17:50:52.023329  4234 net.cpp:165] Memory required for data: 112932400
I1018 17:50:52.023330  4234 layer_factory.hpp:77] Creating layer score
I1018 17:50:52.023336  4234 net.cpp:100] Creating Layer score
I1018 17:50:52.023340  4234 net.cpp:434] score <- flatten
I1018 17:50:52.023345  4234 net.cpp:408] score -> score
I1018 17:50:52.023437  4234 net.cpp:150] Setting up score
I1018 17:50:52.023440  4234 net.cpp:157] Top shape: 100 10 (1000)
I1018 17:50:52.023444  4234 net.cpp:165] Memory required for data: 112936400
I1018 17:50:52.023449  4234 layer_factory.hpp:77] Creating layer score_score_0_split
I1018 17:50:52.023454  4234 net.cpp:100] Creating Layer score_score_0_split
I1018 17:50:52.023458  4234 net.cpp:434] score_score_0_split <- score
I1018 17:50:52.023463  4234 net.cpp:408] score_score_0_split -> score_score_0_split_0
I1018 17:50:52.023468  4234 net.cpp:408] score_score_0_split -> score_score_0_split_1
I1018 17:50:52.023499  4234 net.cpp:150] Setting up score_score_0_split
I1018 17:50:52.023504  4234 net.cpp:157] Top shape: 100 10 (1000)
I1018 17:50:52.023509  4234 net.cpp:157] Top shape: 100 10 (1000)
I1018 17:50:52.023512  4234 net.cpp:165] Memory required for data: 112944400
I1018 17:50:52.023515  4234 layer_factory.hpp:77] Creating layer accuracy
I1018 17:50:52.023520  4234 net.cpp:100] Creating Layer accuracy
I1018 17:50:52.023524  4234 net.cpp:434] accuracy <- score_score_0_split_0
I1018 17:50:52.023525  4234 net.cpp:434] accuracy <- label_data_1_split_0
I1018 17:50:52.023530  4234 net.cpp:408] accuracy -> accuracy
…
