…
  stage: ""
}
type: "RMSProp"
I1018 19:33:26.092751  5095 solver.cpp:81] Creating training net from train_net file: /home/adam/Honours/Honours-Project/mnist_pooling/max/leakyrelu/poolcnn_leakyrelu_train.prototxt
I1018 19:33:26.093094  5095 net.cpp:58] Initializing net from parameters: 
state {
  phase: TRAIN
  level: 0
  stage: ""
}
layer {
  name: "data"
  type: "Data"
  top: "data"
  top: "label"
  transform_param {
    scale: 0.0039215689
  }
  data_param {
    source: "../../../../data/mnist/mnist_train_lmdb"
    batch_size: 64
    backend: LMDB
  }
}
layer {
  name: "conv1"
  type: "Convolution"
  bottom: "data"
  top: "conv1"
  convolution_param {
    num_output: 192
    kernel_size: 5
    weight_filler {
      type: "xavier"
    }
  }
}
layer {
  name: "pool1"
  type: "Pooling"
  bottom: "conv1"
  top: "pool1"
  pooling_param {
    pool: MAX
    kernel_size: 2
    stride: 2
  }
}
layer {
  name: "drop1"
  type: "Dropout"
  bottom: "pool1"
  top: "drop1"
  dropout_param {
    dropout_ratio: 0
  }
}
layer {
  name: "relu1"
  type: "ReLU"
  bottom: "drop1"
  top: "relu1"
  relu_param {
    negative_slope: 0.01
  }
}
layer {
  name: "conv2"
  type: "Convolution"
  bottom: "relu1"
  top: "conv2"
  convolution_param {
    num_output: 192
    kernel_size: 1
    weight_filler {
      type: "xavier"
    }
  }
}
layer {
  name: "conv3"
  type: "Convolution"
  bottom: "conv2"
  top: "conv3"
  convolution_param {
    num_output: 240
    kernel_size: 3
    weight_filler {
      type: "xavier"
    }
  }
}
layer {
  name: "pool2"
  type: "Pooling"
  bottom: "conv3"
  top: "pool2"
  pooling_param {
    pool: MAX
    kernel_size: 2
    stride: 2
  }
}
layer {
  name: "drop2"
  type: "Dropout"
  bottom: "pool2"
  top: "drop2"
  dropout_param {
    dropout_ratio: 0.1
  }
}
layer {
  name: "relu2"
  type: "ReLU"
  bottom: "drop2"
  top: "relu2"
  relu_param {
    negative_slope: 0.01
  }
}
layer {
  name: "conv4"
  type: "Convolution"
  bottom: "relu2"
  top: "conv4"
  convolution_param {
    num_output: 240
    kernel_size: 1
    weight_filler {
      type: "xavier"
    }
  }
}
layer {
  name: "conv5"
  type: "Convolution"
  bottom: "conv4"
  top: "conv5"
  convolution_param {
    num_output: 260
    kernel_size: 2
    weight_filler {
      type: "xavier"
    }
  }
}
layer {
  name: "pool3"
  type: "Pooling"
  bottom: "conv5"
  top: "pool3"
  pooling_param {
    pool: MAX
    kernel_size: 2
    stride: 2
  }
}
layer {
  name: "drop3"
  type: "Dropout"
  bottom: "pool3"
  top: "drop3"
  dropout_param {
    dropout_ratio: 0.2
  }
}
layer {
  name: "relu3"
  type: "ReLU"
  bottom: "drop3"
  top: "relu3"
  relu_param {
    negative_slope: 0.01
  }
}
layer {
  name: "conv6"
  type: "Convolution"
  bottom: "relu3"
  top: "conv6"
  convolution_param {
    num_output: 260
    kernel_size: 1
    weight_filler {
      type: "xavier"
    }
  }
}
layer {
  name: "conv7"
  type: "Convolution"
  bottom: "conv6"
  top: "conv7"
  convolution_param {
    num_output: 280
    kernel_size: 2
    weight_filler {
      type: "xavier"
    }
  }
}
layer {
  name: "pool4"
  type: "Pooling"
  bottom: "conv7"
  top: "pool4"
  pooling_param {
    pool: MAX
    kernel_size: 2
    stride: 2
  }
}
layer {
  name: "drop4"
  type: "Dropout"
  bottom: "pool4"
  top: "drop4"
  dropout_param {
    dropout_ratio: 0.3
  }
}
layer {
  name: "relu4"
  type: "ReLU"
  bottom: "drop4"
  top: "relu4"
  relu_param {
    negative_slope: 0.01
  }
}
layer {
  name: "conv8"
  type: "Convolution"
  bottom: "relu4"
  top: "conv8"
  convolution_param {
    num_output: 280
    kernel_size: 1
    weight_filler {
      type: "xavier"
    }
  }
}
layer {
  name: "pool5"
  type: "Pooling"
  bottom: "conv8"
  top: "pool5"
  pooling_param {
    pool: MAX
    kernel_size: 2
    stride: 2
  }
}
layer {
  name: "drop5"
  type: "Dropout"
  bottom: "pool5"
  top: "drop5"
  dropout_param {
    dropout_ratio: 0.4
  }
}
layer {
  name: "relu5"
  type: "ReLU"
  bottom: "drop5"
  top: "relu5"
  relu_param {
    negative_slope: 0.01
  }
}
layer {
  name: "conv10"
  type: "Convolution"
  bottom: "relu5"
  top: "conv10"
  convolution_param {
    num_output: 300
    kernel_size: 1
    weight_filler {
      type: "xavier"
    }
  }
}
layer {
  name: "pool6"
  type: "Pooling"
  bottom: "conv10"
  top: "pool6"
  pooling_param {
    pool: MAX
    kernel_size: 2
    stride: 2
  }
}
layer {
  name: "drop6"
  type: "Dropout"
  bottom: "pool6"
  top: "drop6"
  dropout_param {
    dropout_ratio: 0.5
  }
}
layer {
  name: "relu6"
  type: "ReLU"
  bottom: "drop6"
  top: "relu6"
  relu_param {
    negative_slope: 0.01
  }
}
layer {
  name: "conv11"
  type: "Convolution"
  bottom: "relu6"
  top: "conv11"
  convolution_param {
    num_output: 100
    kernel_size: 1
    weight_filler {
      type: "xavier"
    }
  }
}
layer {
  name: "pool7"
  type: "Pooling"
  bottom: "conv11"
  top: "pool7"
  pooling_param {
    pool: MAX
    kernel_size: 2
    stride: 2
  }
}
layer {
  name: "drop7"
  type: "Dropout"
  bottom: "pool7"
  top: "drop7"
  dropout_param {
    dropout_ratio: 0
  }
}
layer {
  name: "relu7"
  type: "ReLU"
  bottom: "drop7"
  top: "relu7"
  relu_param {
    negative_slope: 0.01
  }
}
layer {
  name: "pool"
  type: "Pooling"
  bottom: "relu7"
  top: "pool"
  pooling_param {
    pool: AVE
    global_pooling: true
  }
}
layer {
  name: "flatten"
  type: "Flatten"
  bottom: "pool"
  top: "flatten"
}
layer {
  name: "score"
  type: "InnerProduct"
  bottom: "flatten"
  top: "score"
  inner_product_param {
    num_output: 10
    weight_filler {
      type: "gaussian"
    }
  }
}
layer {
  name: "accuracy"
  type: "Accuracy"
  bottom: "score"
  bottom: "label"
  top: "accuracy"
}
layer {
  name: "loss"
  type: "SoftmaxWithLoss"
  bottom: "score"
  bottom: "label"
  top: "loss"
}
I1018 19:33:26.093196  5095 layer_factory.hpp:77] Creating layer data
I1018 19:33:26.093674  5095 net.cpp:100] Creating Layer data
I1018 19:33:26.093688  5095 net.cpp:408] data -> data
I1018 19:33:26.093706  5095 net.cpp:408] data -> label
I1018 19:33:26.094244  5101 db_lmdb.cpp:35] Opened lmdb ../../../../data/mnist/mnist_train_lmdb
I1018 19:33:26.099751  5095 data_layer.cpp:41] output data size: 64,1,28,28
I1018 19:33:26.100306  5095 net.cpp:150] Setting up data
I1018 19:33:26.100317  5095 net.cpp:157] Top shape: 64 1 28 28 (50176)
I1018 19:33:26.100319  5095 net.cpp:157] Top shape: 64 (64)
I1018 19:33:26.100322  5095 net.cpp:165] Memory required for data: 200960
I1018 19:33:26.100330  5095 layer_factory.hpp:77] Creating layer label_data_1_split
I1018 19:33:26.100347  5095 net.cpp:100] Creating Layer label_data_1_split
I1018 19:33:26.100353  5095 net.cpp:434] label_data_1_split <- label
I1018 19:33:26.100363  5095 net.cpp:408] label_data_1_split -> label_data_1_split_0
I1018 19:33:26.100371  5095 net.cpp:408] label_data_1_split -> label_data_1_split_1
I1018 19:33:26.100436  5095 net.cpp:150] Setting up label_data_1_split
I1018 19:33:26.100446  5095 net.cpp:157] Top shape: 64 (64)
I1018 19:33:26.100450  5095 net.cpp:157] Top shape: 64 (64)
I1018 19:33:26.100451  5095 net.cpp:165] Memory required for data: 201472
I1018 19:33:26.100453  5095 layer_factory.hpp:77] Creating layer conv1
I1018 19:33:26.100466  5095 net.cpp:100] Creating Layer conv1
I1018 19:33:26.100469  5095 net.cpp:434] conv1 <- data
I1018 19:33:26.100476  5095 net.cpp:408] conv1 -> conv1
I1018 19:33:26.218296  5095 net.cpp:150] Setting up conv1
I1018 19:33:26.218322  5095 net.cpp:157] Top shape: 64 192 24 24 (7077888)
I1018 19:33:26.218324  5095 net.cpp:165] Memory required for data: 28513024
I1018 19:33:26.218365  5095 layer_factory.hpp:77] Creating layer pool1
I1018 19:33:26.218375  5095 net.cpp:100] Creating Layer pool1
I1018 19:33:26.218379  5095 net.cpp:434] pool1 <- conv1
I1018 19:33:26.218384  5095 net.cpp:408] pool1 -> pool1
I1018 19:33:26.218428  5095 net.cpp:150] Setting up pool1
I1018 19:33:26.218432  5095 net.cpp:157] Top shape: 64 192 12 12 (1769472)
I1018 19:33:26.218435  5095 net.cpp:165] Memory required for data: 35590912
I1018 19:33:26.218436  5095 layer_factory.hpp:77] Creating layer drop1
I1018 19:33:26.218443  5095 net.cpp:100] Creating Layer drop1
I1018 19:33:26.218444  5095 net.cpp:434] drop1 <- pool1
I1018 19:33:26.218447  5095 net.cpp:408] drop1 -> drop1
I1018 19:33:26.218472  5095 net.cpp:150] Setting up drop1
I1018 19:33:26.218475  5095 net.cpp:157] Top shape: 64 192 12 12 (1769472)
I1018 19:33:26.218477  5095 net.cpp:165] Memory required for data: 42668800
I1018 19:33:26.218478  5095 layer_factory.hpp:77] Creating layer relu1
I1018 19:33:26.218482  5095 net.cpp:100] Creating Layer relu1
I1018 19:33:26.218483  5095 net.cpp:434] relu1 <- drop1
I1018 19:33:26.218487  5095 net.cpp:408] relu1 -> relu1
I1018 19:33:26.218603  5095 net.cpp:150] Setting up relu1
I1018 19:33:26.218608  5095 net.cpp:157] Top shape: 64 192 12 12 (1769472)
I1018 19:33:26.218611  5095 net.cpp:165] Memory required for data: 49746688
I1018 19:33:26.218612  5095 layer_factory.hpp:77] Creating layer conv2
I1018 19:33:26.218617  5095 net.cpp:100] Creating Layer conv2
I1018 19:33:26.218619  5095 net.cpp:434] conv2 <- relu1
I1018 19:33:26.218623  5095 net.cpp:408] conv2 -> conv2
I1018 19:33:26.219409  5095 net.cpp:150] Setting up conv2
I1018 19:33:26.219418  5095 net.cpp:157] Top shape: 64 192 12 12 (1769472)
I1018 19:33:26.219419  5095 net.cpp:165] Memory required for data: 56824576
I1018 19:33:26.219424  5095 layer_factory.hpp:77] Creating layer conv3
I1018 19:33:26.219429  5095 net.cpp:100] Creating Layer conv3
I1018 19:33:26.219431  5095 net.cpp:434] conv3 <- conv2
I1018 19:33:26.219435  5095 net.cpp:408] conv3 -> conv3
I1018 19:33:26.221822  5095 net.cpp:150] Setting up conv3
I1018 19:33:26.221832  5095 net.cpp:157] Top shape: 64 240 10 10 (1536000)
I1018 19:33:26.221833  5095 net.cpp:165] Memory required for data: 62968576
I1018 19:33:26.221838  5095 layer_factory.hpp:77] Creating layer pool2
I1018 19:33:26.221843  5095 net.cpp:100] Creating Layer pool2
I1018 19:33:26.221845  5095 net.cpp:434] pool2 <- conv3
I1018 19:33:26.221848  5095 net.cpp:408] pool2 -> pool2
I1018 19:33:26.221871  5095 net.cpp:150] Setting up pool2
I1018 19:33:26.221876  5095 net.cpp:157] Top shape: 64 240 5 5 (384000)
I1018 19:33:26.221878  5095 net.cpp:165] Memory required for data: 64504576
I1018 19:33:26.221879  5095 layer_factory.hpp:77] Creating layer drop2
I1018 19:33:26.221882  5095 net.cpp:100] Creating Layer drop2
I1018 19:33:26.221884  5095 net.cpp:434] drop2 <- pool2
I1018 19:33:26.221886  5095 net.cpp:408] drop2 -> drop2
I1018 19:33:26.221905  5095 net.cpp:150] Setting up drop2
I1018 19:33:26.221909  5095 net.cpp:157] Top shape: 64 240 5 5 (384000)
I1018 19:33:26.221910  5095 net.cpp:165] Memory required for data: 66040576
I1018 19:33:26.221911  5095 layer_factory.hpp:77] Creating layer relu2
I1018 19:33:26.221915  5095 net.cpp:100] Creating Layer relu2
I1018 19:33:26.221915  5095 net.cpp:434] relu2 <- drop2
I1018 19:33:26.221918  5095 net.cpp:408] relu2 -> relu2
I1018 19:33:26.222021  5095 net.cpp:150] Setting up relu2
I1018 19:33:26.222026  5095 net.cpp:157] Top shape: 64 240 5 5 (384000)
I1018 19:33:26.222028  5095 net.cpp:165] Memory required for data: 67576576
I1018 19:33:26.222030  5095 layer_factory.hpp:77] Creating layer conv4
I1018 19:33:26.222034  5095 net.cpp:100] Creating Layer conv4
I1018 19:33:26.222036  5095 net.cpp:434] conv4 <- relu2
I1018 19:33:26.222039  5095 net.cpp:408] conv4 -> conv4
I1018 19:33:26.222846  5095 net.cpp:150] Setting up conv4
I1018 19:33:26.222853  5095 net.cpp:157] Top shape: 64 240 5 5 (384000)
I1018 19:33:26.222854  5095 net.cpp:165] Memory required for data: 69112576
I1018 19:33:26.222858  5095 layer_factory.hpp:77] Creating layer conv5
I1018 19:33:26.222872  5095 net.cpp:100] Creating Layer conv5
I1018 19:33:26.222873  5095 net.cpp:434] conv5 <- conv4
I1018 19:33:26.222877  5095 net.cpp:408] conv5 -> conv5
I1018 19:33:26.224611  5095 net.cpp:150] Setting up conv5
I1018 19:33:26.224620  5095 net.cpp:157] Top shape: 64 260 4 4 (266240)
I1018 19:33:26.224622  5095 net.cpp:165] Memory required for data: 70177536
I1018 19:33:26.224628  5095 layer_factory.hpp:77] Creating layer pool3
I1018 19:33:26.224632  5095 net.cpp:100] Creating Layer pool3
I1018 19:33:26.224634  5095 net.cpp:434] pool3 <- conv5
I1018 19:33:26.224637  5095 net.cpp:408] pool3 -> pool3
I1018 19:33:26.224661  5095 net.cpp:150] Setting up pool3
I1018 19:33:26.224665  5095 net.cpp:157] Top shape: 64 260 2 2 (66560)
I1018 19:33:26.224668  5095 net.cpp:165] Memory required for data: 70443776
I1018 19:33:26.224669  5095 layer_factory.hpp:77] Creating layer drop3
I1018 19:33:26.224673  5095 net.cpp:100] Creating Layer drop3
I1018 19:33:26.224674  5095 net.cpp:434] drop3 <- pool3
I1018 19:33:26.224678  5095 net.cpp:408] drop3 -> drop3
I1018 19:33:26.224699  5095 net.cpp:150] Setting up drop3
I1018 19:33:26.224701  5095 net.cpp:157] Top shape: 64 260 2 2 (66560)
I1018 19:33:26.224704  5095 net.cpp:165] Memory required for data: 70710016
I1018 19:33:26.224705  5095 layer_factory.hpp:77] Creating layer relu3
I1018 19:33:26.224709  5095 net.cpp:100] Creating Layer relu3
I1018 19:33:26.224709  5095 net.cpp:434] relu3 <- drop3
I1018 19:33:26.224714  5095 net.cpp:408] relu3 -> relu3
I1018 19:33:26.224823  5095 net.cpp:150] Setting up relu3
I1018 19:33:26.224828  5095 net.cpp:157] Top shape: 64 260 2 2 (66560)
I1018 19:33:26.224830  5095 net.cpp:165] Memory required for data: 70976256
I1018 19:33:26.224833  5095 layer_factory.hpp:77] Creating layer conv6
I1018 19:33:26.224838  5095 net.cpp:100] Creating Layer conv6
I1018 19:33:26.224840  5095 net.cpp:434] conv6 <- relu3
I1018 19:33:26.224843  5095 net.cpp:408] conv6 -> conv6
I1018 19:33:26.225965  5095 net.cpp:150] Setting up conv6
I1018 19:33:26.225975  5095 net.cpp:157] Top shape: 64 260 2 2 (66560)
I1018 19:33:26.225977  5095 net.cpp:165] Memory required for data: 71242496
I1018 19:33:26.225981  5095 layer_factory.hpp:77] Creating layer conv7
I1018 19:33:26.225986  5095 net.cpp:100] Creating Layer conv7
I1018 19:33:26.225988  5095 net.cpp:434] conv7 <- conv6
I1018 19:33:26.225992  5095 net.cpp:408] conv7 -> conv7
I1018 19:33:26.227917  5095 net.cpp:150] Setting up conv7
I1018 19:33:26.227927  5095 net.cpp:157] Top shape: 64 280 1 1 (17920)
I1018 19:33:26.227929  5095 net.cpp:165] Memory required for data: 71314176
I1018 19:33:26.227933  5095 layer_factory.hpp:77] Creating layer pool4
I1018 19:33:26.227936  5095 net.cpp:100] Creating Layer pool4
I1018 19:33:26.227938  5095 net.cpp:434] pool4 <- conv7
I1018 19:33:26.227942  5095 net.cpp:408] pool4 -> pool4
I1018 19:33:26.227967  5095 net.cpp:150] Setting up pool4
I1018 19:33:26.227970  5095 net.cpp:157] Top shape: 64 280 1 1 (17920)
I1018 19:33:26.227972  5095 net.cpp:165] Memory required for data: 71385856
I1018 19:33:26.227974  5095 layer_factory.hpp:77] Creating layer drop4
I1018 19:33:26.227978  5095 net.cpp:100] Creating Layer drop4
I1018 19:33:26.227979  5095 net.cpp:434] drop4 <- pool4
I1018 19:33:26.227982  5095 net.cpp:408] drop4 -> drop4
I1018 19:33:26.228004  5095 net.cpp:150] Setting up drop4
I1018 19:33:26.228008  5095 net.cpp:157] Top shape: 64 280 1 1 (17920)
I1018 19:33:26.228008  5095 net.cpp:165] Memory required for data: 71457536
I1018 19:33:26.228010  5095 layer_factory.hpp:77] Creating layer relu4
I1018 19:33:26.228013  5095 net.cpp:100] Creating Layer relu4
I1018 19:33:26.228015  5095 net.cpp:434] relu4 <- drop4
I1018 19:33:26.228018  5095 net.cpp:408] relu4 -> relu4
I1018 19:33:26.228207  5095 net.cpp:150] Setting up relu4
I1018 19:33:26.228214  5095 net.cpp:157] Top shape: 64 280 1 1 (17920)
I1018 19:33:26.228216  5095 net.cpp:165] Memory required for data: 71529216
I1018 19:33:26.228219  5095 layer_factory.hpp:77] Creating layer conv8
I1018 19:33:26.228231  5095 net.cpp:100] Creating Layer conv8
I1018 19:33:26.228233  5095 net.cpp:434] conv8 <- relu4
I1018 19:33:26.228237  5095 net.cpp:408] conv8 -> conv8
I1018 19:33:26.229069  5095 net.cpp:150] Setting up conv8
I1018 19:33:26.229077  5095 net.cpp:157] Top shape: 64 280 1 1 (17920)
I1018 19:33:26.229080  5095 net.cpp:165] Memory required for data: 71600896
I1018 19:33:26.229084  5095 layer_factory.hpp:77] Creating layer pool5
I1018 19:33:26.229087  5095 net.cpp:100] Creating Layer pool5
I1018 19:33:26.229089  5095 net.cpp:434] pool5 <- conv8
I1018 19:33:26.229094  5095 net.cpp:408] pool5 -> pool5
I1018 19:33:26.229117  5095 net.cpp:150] Setting up pool5
I1018 19:33:26.229121  5095 net.cpp:157] Top shape: 64 280 1 1 (17920)
I1018 19:33:26.229122  5095 net.cpp:165] Memory required for data: 71672576
I1018 19:33:26.229125  5095 layer_factory.hpp:77] Creating layer drop5
I1018 19:33:26.229128  5095 net.cpp:100] Creating Layer drop5
I1018 19:33:26.229130  5095 net.cpp:434] drop5 <- pool5
I1018 19:33:26.229132  5095 net.cpp:408] drop5 -> drop5
I1018 19:33:26.229154  5095 net.cpp:150] Setting up drop5
I1018 19:33:26.229158  5095 net.cpp:157] Top shape: 64 280 1 1 (17920)
I1018 19:33:26.229159  5095 net.cpp:165] Memory required for data: 71744256
I1018 19:33:26.229161  5095 layer_factory.hpp:77] Creating layer relu5
I1018 19:33:26.229166  5095 net.cpp:100] Creating Layer relu5
I1018 19:33:26.229168  5095 net.cpp:434] relu5 <- drop5
I1018 19:33:26.229172  5095 net.cpp:408] relu5 -> relu5
I1018 19:33:26.229439  5095 net.cpp:150] Setting up relu5
I1018 19:33:26.229446  5095 net.cpp:157] Top shape: 64 280 1 1 (17920)
I1018 19:33:26.229449  5095 net.cpp:165] Memory required for data: 71815936
I1018 19:33:26.229449  5095 layer_factory.hpp:77] Creating layer conv10
I1018 19:33:26.229454  5095 net.cpp:100] Creating Layer conv10
I1018 19:33:26.229457  5095 net.cpp:434] conv10 <- relu5
I1018 19:33:26.229460  5095 net.cpp:408] conv10 -> conv10
I1018 19:33:26.230404  5095 net.cpp:150] Setting up conv10
I1018 19:33:26.230412  5095 net.cpp:157] Top shape: 64 300 1 1 (19200)
I1018 19:33:26.230415  5095 net.cpp:165] Memory required for data: 71892736
I1018 19:33:26.230422  5095 layer_factory.hpp:77] Creating layer pool6
I1018 19:33:26.230427  5095 net.cpp:100] Creating Layer pool6
I1018 19:33:26.230428  5095 net.cpp:434] pool6 <- conv10
I1018 19:33:26.230432  5095 net.cpp:408] pool6 -> pool6
I1018 19:33:26.230456  5095 net.cpp:150] Setting up pool6
I1018 19:33:26.230460  5095 net.cpp:157] Top shape: 64 300 1 1 (19200)
I1018 19:33:26.230463  5095 net.cpp:165] Memory required for data: 71969536
I1018 19:33:26.230464  5095 layer_factory.hpp:77] Creating layer drop6
I1018 19:33:26.230468  5095 net.cpp:100] Creating Layer drop6
I1018 19:33:26.230470  5095 net.cpp:434] drop6 <- pool6
I1018 19:33:26.230473  5095 net.cpp:408] drop6 -> drop6
I1018 19:33:26.230494  5095 net.cpp:150] Setting up drop6
I1018 19:33:26.230497  5095 net.cpp:157] Top shape: 64 300 1 1 (19200)
I1018 19:33:26.230499  5095 net.cpp:165] Memory required for data: 72046336
I1018 19:33:26.230501  5095 layer_factory.hpp:77] Creating layer relu6
I1018 19:33:26.230504  5095 net.cpp:100] Creating Layer relu6
I1018 19:33:26.230506  5095 net.cpp:434] relu6 <- drop6
I1018 19:33:26.230509  5095 net.cpp:408] relu6 -> relu6
I1018 19:33:26.230623  5095 net.cpp:150] Setting up relu6
I1018 19:33:26.230629  5095 net.cpp:157] Top shape: 64 300 1 1 (19200)
I1018 19:33:26.230630  5095 net.cpp:165] Memory required for data: 72123136
I1018 19:33:26.230633  5095 layer_factory.hpp:77] Creating layer conv11
I1018 19:33:26.230636  5095 net.cpp:100] Creating Layer conv11
I1018 19:33:26.230639  5095 net.cpp:434] conv11 <- relu6
I1018 19:33:26.230643  5095 net.cpp:408] conv11 -> conv11
I1018 19:33:26.231631  5095 net.cpp:150] Setting up conv11
I1018 19:33:26.231640  5095 net.cpp:157] Top shape: 64 100 1 1 (6400)
I1018 19:33:26.231643  5095 net.cpp:165] Memory required for data: 72148736
I1018 19:33:26.231647  5095 layer_factory.hpp:77] Creating layer pool7
I1018 19:33:26.231652  5095 net.cpp:100] Creating Layer pool7
I1018 19:33:26.231662  5095 net.cpp:434] pool7 <- conv11
I1018 19:33:26.231665  5095 net.cpp:408] pool7 -> pool7
I1018 19:33:26.231693  5095 net.cpp:150] Setting up pool7
I1018 19:33:26.231698  5095 net.cpp:157] Top shape: 64 100 1 1 (6400)
I1018 19:33:26.231699  5095 net.cpp:165] Memory required for data: 72174336
I1018 19:33:26.231701  5095 layer_factory.hpp:77] Creating layer drop7
I1018 19:33:26.231705  5095 net.cpp:100] Creating Layer drop7
I1018 19:33:26.231708  5095 net.cpp:434] drop7 <- pool7
I1018 19:33:26.231710  5095 net.cpp:408] drop7 -> drop7
I1018 19:33:26.231732  5095 net.cpp:150] Setting up drop7
I1018 19:33:26.231736  5095 net.cpp:157] Top shape: 64 100 1 1 (6400)
I1018 19:33:26.231739  5095 net.cpp:165] Memory required for data: 72199936
I1018 19:33:26.231740  5095 layer_factory.hpp:77] Creating layer relu7
I1018 19:33:26.231747  5095 net.cpp:100] Creating Layer relu7
I1018 19:33:26.231750  5095 net.cpp:434] relu7 <- drop7
I1018 19:33:26.231752  5095 net.cpp:408] relu7 -> relu7
I1018 19:33:26.231945  5095 net.cpp:150] Setting up relu7
I1018 19:33:26.231953  5095 net.cpp:157] Top shape: 64 100 1 1 (6400)
I1018 19:33:26.231955  5095 net.cpp:165] Memory required for data: 72225536
I1018 19:33:26.231956  5095 layer_factory.hpp:77] Creating layer pool
I1018 19:33:26.231961  5095 net.cpp:100] Creating Layer pool
I1018 19:33:26.231963  5095 net.cpp:434] pool <- relu7
I1018 19:33:26.231966  5095 net.cpp:408] pool -> pool
I1018 19:33:26.232089  5095 net.cpp:150] Setting up pool
I1018 19:33:26.232095  5095 net.cpp:157] Top shape: 64 100 1 1 (6400)
I1018 19:33:26.232097  5095 net.cpp:165] Memory required for data: 72251136
I1018 19:33:26.232100  5095 layer_factory.hpp:77] Creating layer flatten
I1018 19:33:26.232102  5095 net.cpp:100] Creating Layer flatten
I1018 19:33:26.232103  5095 net.cpp:434] flatten <- pool
I1018 19:33:26.232106  5095 net.cpp:408] flatten -> flatten
I1018 19:33:26.232122  5095 net.cpp:150] Setting up flatten
I1018 19:33:26.232125  5095 net.cpp:157] Top shape: 64 100 (6400)
I1018 19:33:26.232126  5095 net.cpp:165] Memory required for data: 72276736
I1018 19:33:26.232128  5095 layer_factory.hpp:77] Creating layer score
I1018 19:33:26.232132  5095 net.cpp:100] Creating Layer score
I1018 19:33:26.232136  5095 net.cpp:434] score <- flatten
I1018 19:33:26.232138  5095 net.cpp:408] score -> score
I1018 19:33:26.232233  5095 net.cpp:150] Setting up score
I1018 19:33:26.232236  5095 net.cpp:157] Top shape: 64 10 (640)
I1018 19:33:26.232239  5095 net.cpp:165] Memory required for data: 72279296
I1018 19:33:26.232241  5095 layer_factory.hpp:77] Creating layer score_score_0_split
I1018 19:33:26.232245  5095 net.cpp:100] Creating Layer score_score_0_split
I1018 19:33:26.232247  5095 net.cpp:434] score_score_0_split <- score
I1018 19:33:26.232251  5095 net.cpp:408] score_score_0_split -> score_score_0_split_0
I1018 19:33:26.232255  5095 net.cpp:408] score_score_0_split -> score_score_0_split_1
I1018 19:33:26.232277  5095 net.cpp:150] Setting up score_score_0_split
I1018 19:33:26.232281  5095 net.cpp:157] Top shape: 64 10 (640)
I1018 19:33:26.232283  5095 net.cpp:157] Top shape: 64 10 (640)
I1018 19:33:26.232285  5095 net.cpp:165] Memory required for data: 72284416
I1018 19:33:26.232287  5095 layer_factory.hpp:77] Creating layer accuracy
I1018 19:33:26.232291  5095 net.cpp:100] Creating Layer accuracy
I1018 19:33:26.232295  5095 net.cpp:434] accuracy <- score_score_0_split_0
I1018 19:33:26.232296  5095 net.cpp:434] accuracy <- label_data_1_split_0
I1018 19:33:26.232301  5095 net.cpp:408] accuracy -> accuracy
…
I1018 19:33:26.232717  5095 net.cpp:283] Network initialization done.
I1018 19:33:26.232916  5095 solver.cpp:181] Creating test net (#0) specified by test_net file: /home/adam/Honours/Honours-Project/mnist_pooling/max/leakyrelu/poolcnn_leakyrelu_test.prototxt
I1018 19:33:26.233057  5095 net.cpp:58] Initializing net from parameters: 
state {
  phase: TEST
}
layer {
  name: "data"
  type: "Data"
  top: "data"
  top: "label"
  transform_param {
    scale: 0.0039215689
  }
  data_param {
    source: "../../../../data/mnist/mnist_test_lmdb"
    batch_size: 100
    backend: LMDB
  }
}
layer {
  name: "conv1"
  type: "Convolution"
  bottom: "data"
  top: "conv1"
  convolution_param {
    num_output: 192
    kernel_size: 5
    weight_filler {
      type: "xavier"
    }
  }
}
layer {
  name: "pool1"
  type: "Pooling"
  bottom: "conv1"
  top: "pool1"
  pooling_param {
    pool: MAX
    kernel_size: 2
    stride: 2
  }
}
layer {
  name: "drop1"
  type: "Dropout"
  bottom: "pool1"
  top: "drop1"
  dropout_param {
    dropout_ratio: 0
  }
}
layer {
  name: "relu1"
  type: "ReLU"
  bottom: "drop1"
  top: "relu1"
  relu_param {
    negative_slope: 0.01
  }
}
layer {
  name: "conv2"
  type: "Convolution"
  bottom: "relu1"
  top: "conv2"
  convolution_param {
    num_output: 192
    kernel_size: 1
    weight_filler {
      type: "xavier"
    }
  }
}
layer {
  name: "conv3"
  type: "Convolution"
  bottom: "conv2"
  top: "conv3"
  convolution_param {
    num_output: 240
    kernel_size: 3
    weight_filler {
      type: "xavier"
    }
  }
}
layer {
  name: "pool2"
  type: "Pooling"
  bottom: "conv3"
  top: "pool2"
  pooling_param {
    pool: MAX
    kernel_size: 2
    stride: 2
  }
}
layer {
  name: "drop2"
  type: "Dropout"
  bottom: "pool2"
  top: "drop2"
  dropout_param {
    dropout_ratio: 0.1
  }
}
layer {
  name: "relu2"
  type: "ReLU"
  bottom: "drop2"
  top: "relu2"
  relu_param {
    negative_slope: 0.01
  }
}
layer {
  name: "conv4"
  type: "Convolution"
  bottom: "relu2"
  top: "conv4"
  convolution_param {
    num_output: 240
    kernel_size: 1
    weight_filler {
      type: "xavier"
    }
  }
}
layer {
  name: "conv5"
  type: "Convolution"
  bottom: "conv4"
  top: "conv5"
  convolution_param {
    num_output: 260
    kernel_size: 2
    weight_filler {
      type: "xavier"
    }
  }
}
layer {
  name: "pool3"
  type: "Pooling"
  bottom: "conv5"
  top: "pool3"
  pooling_param {
    pool: MAX
    kernel_size: 2
    stride: 2
  }
}
layer {
  name: "drop3"
  type: "Dropout"
  bottom: "pool3"
  top: "drop3"
  dropout_param {
    dropout_ratio: 0.2
  }
}
layer {
  name: "relu3"
  type: "ReLU"
  bottom: "drop3"
  top: "relu3"
  relu_param {
    negative_slope: 0.01
  }
}
layer {
  name: "conv6"
  type: "Convolution"
  bottom: "relu3"
  top: "conv6"
  convolution_param {
    num_output: 260
    kernel_size: 1
    weight_filler {
      type: "xavier"
    }
  }
}
layer {
  name: "conv7"
  type: "Convolution"
  bottom: "conv6"
  top: "conv7"
  convolution_param {
    num_output: 280
    kernel_size: 2
    weight_filler {
      type: "xavier"
    }
  }
}
layer {
  name: "pool4"
  type: "Pooling"
  bottom: "conv7"
  top: "pool4"
  pooling_param {
    pool: MAX
    kernel_size: 2
    stride: 2
  }
}
layer {
  name: "drop4"
  type: "Dropout"
  bottom: "pool4"
  top: "drop4"
  dropout_param {
    dropout_ratio: 0.3
  }
}
layer {
  name: "relu4"
  type: "ReLU"
  bottom: "drop4"
  top: "relu4"
  relu_param {
    negative_slope: 0.01
  }
}
layer {
  name: "conv8"
  type: "Convolution"
  bottom: "relu4"
  top: "conv8"
  convolution_param {
    num_output: 280
    kernel_size: 1
    weight_filler {
      type: "xavier"
    }
  }
}
layer {
  name: "pool5"
  type: "Pooling"
  bottom: "conv8"
  top: "pool5"
  pooling_param {
    pool: MAX
    kernel_size: 2
    stride: 2
  }
}
layer {
  name: "drop5"
  type: "Dropout"
  bottom: "pool5"
  top: "drop5"
  dropout_param {
    dropout_ratio: 0.4
  }
}
layer {
  name: "relu5"
  type: "ReLU"
  bottom: "drop5"
  top: "relu5"
  relu_param {
    negative_slope: 0.01
  }
}
layer {
  name: "conv10"
  type: "Convolution"
  bottom: "relu5"
  top: "conv10"
  convolution_param {
    num_output: 300
    kernel_size: 1
    weight_filler {
      type: "xavier"
    }
  }
}
layer {
  name: "pool6"
  type: "Pooling"
  bottom: "conv10"
  top: "pool6"
  pooling_param {
    pool: MAX
    kernel_size: 2
    stride: 2
  }
}
layer {
  name: "drop6"
  type: "Dropout"
  bottom: "pool6"
  top: "drop6"
  dropout_param {
    dropout_ratio: 0.5
  }
}
layer {
  name: "relu6"
  type: "ReLU"
  bottom: "drop6"
  top: "relu6"
  relu_param {
    negative_slope: 0.01
  }
}
layer {
  name: "conv11"
  type: "Convolution"
  bottom: "relu6"
  top: "conv11"
  convolution_param {
    num_output: 100
    kernel_size: 1
    weight_filler {
      type: "xavier"
    }
  }
}
layer {
  name: "pool7"
  type: "Pooling"
  bottom: "conv11"
  top: "pool7"
  pooling_param {
    pool: MAX
    kernel_size: 2
    stride: 2
  }
}
layer {
  name: "drop7"
  type: "Dropout"
  bottom: "pool7"
  top: "drop7"
  dropout_param {
    dropout_ratio: 0
  }
}
layer {
  name: "relu7"
  type: "ReLU"
  bottom: "drop7"
  top: "relu7"
  relu_param {
    negative_slope: 0.01
  }
}
layer {
  name: "pool"
  type: "Pooling"
  bottom: "relu7"
  top: "pool"
  pooling_param {
    pool: AVE
    global_pooling: true
  }
}
layer {
  name: "flatten"
  type: "Flatten"
  bottom: "pool"
  top: "flatten"
}
layer {
  name: "score"
  type: "InnerProduct"
  bottom: "flatten"
  top: "score"
  inner_product_param {
    num_output: 10
    weight_filler {
      type: "gaussian"
    }
  }
}
layer {
  name: "accuracy"
  type: "Accuracy"
  bottom: "score"
  bottom: "label"
  top: "accuracy"
}
layer {
  name: "loss"
  type: "SoftmaxWithLoss"
  bottom: "score"
  bottom: "label"
  top: "loss"
}
I1018 19:33:26.233144  5095 layer_factory.hpp:77] Creating layer data
I1018 19:33:26.233222  5095 net.cpp:100] Creating Layer data
I1018 19:33:26.233232  5095 net.cpp:408] data -> data
I1018 19:33:26.233237  5095 net.cpp:408] data -> label
I1018 19:33:26.233803  5103 db_lmdb.cpp:35] Opened lmdb ../../../../data/mnist/mnist_test_lmdb
I1018 19:33:26.233878  5095 data_layer.cpp:41] output data size: 100,1,28,28
I1018 19:33:26.234598  5095 net.cpp:150] Setting up data
I1018 19:33:26.234607  5095 net.cpp:157] Top shape: 100 1 28 28 (78400)
I1018 19:33:26.234611  5095 net.cpp:157] Top shape: 100 (100)
I1018 19:33:26.234611  5095 net.cpp:165] Memory required for data: 314000
I1018 19:33:26.234614  5095 layer_factory.hpp:77] Creating layer label_data_1_split
I1018 19:33:26.234621  5095 net.cpp:100] Creating Layer label_data_1_split
I1018 19:33:26.234623  5095 net.cpp:434] label_data_1_split <- label
I1018 19:33:26.234627  5095 net.cpp:408] label_data_1_split -> label_data_1_split_0
I1018 19:33:26.234632  5095 net.cpp:408] label_data_1_split -> label_data_1_split_1
I1018 19:33:26.234663  5095 net.cpp:150] Setting up label_data_1_split
I1018 19:33:26.234668  5095 net.cpp:157] Top shape: 100 (100)
I1018 19:33:26.234669  5095 net.cpp:157] Top shape: 100 (100)
I1018 19:33:26.234671  5095 net.cpp:165] Memory required for data: 314800
I1018 19:33:26.234673  5095 layer_factory.hpp:77] Creating layer conv1
I1018 19:33:26.234678  5095 net.cpp:100] Creating Layer conv1
I1018 19:33:26.234680  5095 net.cpp:434] conv1 <- data
I1018 19:33:26.234684  5095 net.cpp:408] conv1 -> conv1
I1018 19:33:26.235395  5095 net.cpp:150] Setting up conv1
I1018 19:33:26.235404  5095 net.cpp:157] Top shape: 100 192 24 24 (11059200)
I1018 19:33:26.235406  5095 net.cpp:165] Memory required for data: 44551600
I1018 19:33:26.235416  5095 layer_factory.hpp:77] Creating layer pool1
I1018 19:33:26.235421  5095 net.cpp:100] Creating Layer pool1
I1018 19:33:26.235427  5095 net.cpp:434] pool1 <- conv1
I1018 19:33:26.235430  5095 net.cpp:408] pool1 -> pool1
I1018 19:33:26.235460  5095 net.cpp:150] Setting up pool1
I1018 19:33:26.235465  5095 net.cpp:157] Top shape: 100 192 12 12 (2764800)
I1018 19:33:26.235468  5095 net.cpp:165] Memory required for data: 55610800
I1018 19:33:26.235471  5095 layer_factory.hpp:77] Creating layer drop1
I1018 19:33:26.235476  5095 net.cpp:100] Creating Layer drop1
I1018 19:33:26.235492  5095 net.cpp:434] drop1 <- pool1
I1018 19:33:26.235501  5095 net.cpp:408] drop1 -> drop1
I1018 19:33:26.235525  5095 net.cpp:150] Setting up drop1
I1018 19:33:26.235530  5095 net.cpp:157] Top shape: 100 192 12 12 (2764800)
I1018 19:33:26.235537  5095 net.cpp:165] Memory required for data: 66670000
I1018 19:33:26.235538  5095 layer_factory.hpp:77] Creating layer relu1
I1018 19:33:26.235543  5095 net.cpp:100] Creating Layer relu1
I1018 19:33:26.235545  5095 net.cpp:434] relu1 <- drop1
I1018 19:33:26.235548  5095 net.cpp:408] relu1 -> relu1
I1018 19:33:26.235771  5095 net.cpp:150] Setting up relu1
I1018 19:33:26.235786  5095 net.cpp:157] Top shape: 100 192 12 12 (2764800)
I1018 19:33:26.235790  5095 net.cpp:165] Memory required for data: 77729200
I1018 19:33:26.235792  5095 layer_factory.hpp:77] Creating layer conv2
I1018 19:33:26.235798  5095 net.cpp:100] Creating Layer conv2
I1018 19:33:26.235802  5095 net.cpp:434] conv2 <- relu1
I1018 19:33:26.235805  5095 net.cpp:408] conv2 -> conv2
I1018 19:33:26.236661  5095 net.cpp:150] Setting up conv2
I1018 19:33:26.236670  5095 net.cpp:157] Top shape: 100 192 12 12 (2764800)
I1018 19:33:26.236673  5095 net.cpp:165] Memory required for data: 88788400
I1018 19:33:26.236680  5095 layer_factory.hpp:77] Creating layer conv3
I1018 19:33:26.236686  5095 net.cpp:100] Creating Layer conv3
I1018 19:33:26.236690  5095 net.cpp:434] conv3 <- conv2
I1018 19:33:26.236696  5095 net.cpp:408] conv3 -> conv3
I1018 19:33:26.239171  5095 net.cpp:150] Setting up conv3
I1018 19:33:26.239179  5095 net.cpp:157] Top shape: 100 240 10 10 (2400000)
I1018 19:33:26.239183  5095 net.cpp:165] Memory required for data: 98388400
I1018 19:33:26.239190  5095 layer_factory.hpp:77] Creating layer pool2
I1018 19:33:26.239197  5095 net.cpp:100] Creating Layer pool2
I1018 19:33:26.239198  5095 net.cpp:434] pool2 <- conv3
I1018 19:33:26.239204  5095 net.cpp:408] pool2 -> pool2
I1018 19:33:26.239233  5095 net.cpp:150] Setting up pool2
I1018 19:33:26.239236  5095 net.cpp:157] Top shape: 100 240 5 5 (600000)
I1018 19:33:26.239238  5095 net.cpp:165] Memory required for data: 100788400
I1018 19:33:26.239241  5095 layer_factory.hpp:77] Creating layer drop2
I1018 19:33:26.239246  5095 net.cpp:100] Creating Layer drop2
I1018 19:33:26.239249  5095 net.cpp:434] drop2 <- pool2
I1018 19:33:26.239253  5095 net.cpp:408] drop2 -> drop2
I1018 19:33:26.239276  5095 net.cpp:150] Setting up drop2
I1018 19:33:26.239280  5095 net.cpp:157] Top shape: 100 240 5 5 (600000)
I1018 19:33:26.239282  5095 net.cpp:165] Memory required for data: 103188400
I1018 19:33:26.239284  5095 layer_factory.hpp:77] Creating layer relu2
I1018 19:33:26.239289  5095 net.cpp:100] Creating Layer relu2
I1018 19:33:26.239291  5095 net.cpp:434] relu2 <- drop2
I1018 19:33:26.239295  5095 net.cpp:408] relu2 -> relu2
I1018 19:33:26.239413  5095 net.cpp:150] Setting up relu2
I1018 19:33:26.239418  5095 net.cpp:157] Top shape: 100 240 5 5 (600000)
I1018 19:33:26.239420  5095 net.cpp:165] Memory required for data: 105588400
I1018 19:33:26.239423  5095 layer_factory.hpp:77] Creating layer conv4
I1018 19:33:26.239429  5095 net.cpp:100] Creating Layer conv4
I1018 19:33:26.239433  5095 net.cpp:434] conv4 <- relu2
I1018 19:33:26.239436  5095 net.cpp:408] conv4 -> conv4
I1018 19:33:26.240294  5095 net.cpp:150] Setting up conv4
I1018 19:33:26.240303  5095 net.cpp:157] Top shape: 100 240 5 5 (600000)
I1018 19:33:26.240305  5095 net.cpp:165] Memory required for data: 107988400
I1018 19:33:26.240310  5095 layer_factory.hpp:77] Creating layer conv5
I1018 19:33:26.240316  5095 net.cpp:100] Creating Layer conv5
I1018 19:33:26.240320  5095 net.cpp:434] conv5 <- conv4
I1018 19:33:26.240324  5095 net.cpp:408] conv5 -> conv5
I1018 19:33:26.242151  5095 net.cpp:150] Setting up conv5
I1018 19:33:26.242161  5095 net.cpp:157] Top shape: 100 260 4 4 (416000)
I1018 19:33:26.242162  5095 net.cpp:165] Memory required for data: 109652400
I1018 19:33:26.242169  5095 layer_factory.hpp:77] Creating layer pool3
I1018 19:33:26.242173  5095 net.cpp:100] Creating Layer pool3
I1018 19:33:26.242175  5095 net.cpp:434] pool3 <- conv5
I1018 19:33:26.242178  5095 net.cpp:408] pool3 -> pool3
I1018 19:33:26.242208  5095 net.cpp:150] Setting up pool3
I1018 19:33:26.242211  5095 net.cpp:157] Top shape: 100 260 2 2 (104000)
I1018 19:33:26.242213  5095 net.cpp:165] Memory required for data: 110068400
I1018 19:33:26.242215  5095 layer_factory.hpp:77] Creating layer drop3
I1018 19:33:26.242218  5095 net.cpp:100] Creating Layer drop3
I1018 19:33:26.242220  5095 net.cpp:434] drop3 <- pool3
I1018 19:33:26.242223  5095 net.cpp:408] drop3 -> drop3
I1018 19:33:26.242247  5095 net.cpp:150] Setting up drop3
I1018 19:33:26.242259  5095 net.cpp:157] Top shape: 100 260 2 2 (104000)
I1018 19:33:26.242261  5095 net.cpp:165] Memory required for data: 110484400
I1018 19:33:26.242264  5095 layer_factory.hpp:77] Creating layer relu3
I1018 19:33:26.242266  5095 net.cpp:100] Creating Layer relu3
I1018 19:33:26.242269  5095 net.cpp:434] relu3 <- drop3
I1018 19:33:26.242271  5095 net.cpp:408] relu3 -> relu3
I1018 19:33:26.242390  5095 net.cpp:150] Setting up relu3
I1018 19:33:26.242396  5095 net.cpp:157] Top shape: 100 260 2 2 (104000)
I1018 19:33:26.242398  5095 net.cpp:165] Memory required for data: 110900400
I1018 19:33:26.242399  5095 layer_factory.hpp:77] Creating layer conv6
I1018 19:33:26.242406  5095 net.cpp:100] Creating Layer conv6
I1018 19:33:26.242408  5095 net.cpp:434] conv6 <- relu3
I1018 19:33:26.242411  5095 net.cpp:408] conv6 -> conv6
I1018 19:33:26.243645  5095 net.cpp:150] Setting up conv6
I1018 19:33:26.243654  5095 net.cpp:157] Top shape: 100 260 2 2 (104000)
I1018 19:33:26.243656  5095 net.cpp:165] Memory required for data: 111316400
I1018 19:33:26.243660  5095 layer_factory.hpp:77] Creating layer conv7
I1018 19:33:26.243664  5095 net.cpp:100] Creating Layer conv7
I1018 19:33:26.243666  5095 net.cpp:434] conv7 <- conv6
I1018 19:33:26.243670  5095 net.cpp:408] conv7 -> conv7
I1018 19:33:26.245616  5095 net.cpp:150] Setting up conv7
I1018 19:33:26.245625  5095 net.cpp:157] Top shape: 100 280 1 1 (28000)
I1018 19:33:26.245626  5095 net.cpp:165] Memory required for data: 111428400
I1018 19:33:26.245630  5095 layer_factory.hpp:77] Creating layer pool4
I1018 19:33:26.245635  5095 net.cpp:100] Creating Layer pool4
I1018 19:33:26.245637  5095 net.cpp:434] pool4 <- conv7
I1018 19:33:26.245640  5095 net.cpp:408] pool4 -> pool4
I1018 19:33:26.245666  5095 net.cpp:150] Setting up pool4
I1018 19:33:26.245671  5095 net.cpp:157] Top shape: 100 280 1 1 (28000)
I1018 19:33:26.245673  5095 net.cpp:165] Memory required for data: 111540400
I1018 19:33:26.245674  5095 layer_factory.hpp:77] Creating layer drop4
I1018 19:33:26.245677  5095 net.cpp:100] Creating Layer drop4
I1018 19:33:26.245679  5095 net.cpp:434] drop4 <- pool4
I1018 19:33:26.245683  5095 net.cpp:408] drop4 -> drop4
I1018 19:33:26.245707  5095 net.cpp:150] Setting up drop4
I1018 19:33:26.245710  5095 net.cpp:157] Top shape: 100 280 1 1 (28000)
I1018 19:33:26.245712  5095 net.cpp:165] Memory required for data: 111652400
I1018 19:33:26.245714  5095 layer_factory.hpp:77] Creating layer relu4
I1018 19:33:26.245717  5095 net.cpp:100] Creating Layer relu4
I1018 19:33:26.245718  5095 net.cpp:434] relu4 <- drop4
I1018 19:33:26.245721  5095 net.cpp:408] relu4 -> relu4
I1018 19:33:26.245839  5095 net.cpp:150] Setting up relu4
I1018 19:33:26.245844  5095 net.cpp:157] Top shape: 100 280 1 1 (28000)
I1018 19:33:26.245846  5095 net.cpp:165] Memory required for data: 111764400
I1018 19:33:26.245848  5095 layer_factory.hpp:77] Creating layer conv8
I1018 19:33:26.245853  5095 net.cpp:100] Creating Layer conv8
I1018 19:33:26.245857  5095 net.cpp:434] conv8 <- relu4
I1018 19:33:26.245859  5095 net.cpp:408] conv8 -> conv8
I1018 19:33:26.246796  5095 net.cpp:150] Setting up conv8
I1018 19:33:26.246804  5095 net.cpp:157] Top shape: 100 280 1 1 (28000)
I1018 19:33:26.246806  5095 net.cpp:165] Memory required for data: 111876400
I1018 19:33:26.246809  5095 layer_factory.hpp:77] Creating layer pool5
I1018 19:33:26.246814  5095 net.cpp:100] Creating Layer pool5
I1018 19:33:26.246816  5095 net.cpp:434] pool5 <- conv8
I1018 19:33:26.246819  5095 net.cpp:408] pool5 -> pool5
I1018 19:33:26.246846  5095 net.cpp:150] Setting up pool5
I1018 19:33:26.246850  5095 net.cpp:157] Top shape: 100 280 1 1 (28000)
I1018 19:33:26.246852  5095 net.cpp:165] Memory required for data: 111988400
I1018 19:33:26.246855  5095 layer_factory.hpp:77] Creating layer drop5
I1018 19:33:26.246856  5095 net.cpp:100] Creating Layer drop5
I1018 19:33:26.246858  5095 net.cpp:434] drop5 <- pool5
I1018 19:33:26.246862  5095 net.cpp:408] drop5 -> drop5
I1018 19:33:26.246884  5095 net.cpp:150] Setting up drop5
I1018 19:33:26.246896  5095 net.cpp:157] Top shape: 100 280 1 1 (28000)
I1018 19:33:26.246899  5095 net.cpp:165] Memory required for data: 112100400
I1018 19:33:26.246902  5095 layer_factory.hpp:77] Creating layer relu5
I1018 19:33:26.246906  5095 net.cpp:100] Creating Layer relu5
I1018 19:33:26.246907  5095 net.cpp:434] relu5 <- drop5
I1018 19:33:26.246909  5095 net.cpp:408] relu5 -> relu5
I1018 19:33:26.247110  5095 net.cpp:150] Setting up relu5
I1018 19:33:26.247119  5095 net.cpp:157] Top shape: 100 280 1 1 (28000)
I1018 19:33:26.247120  5095 net.cpp:165] Memory required for data: 112212400
I1018 19:33:26.247123  5095 layer_factory.hpp:77] Creating layer conv10
I1018 19:33:26.247128  5095 net.cpp:100] Creating Layer conv10
I1018 19:33:26.247130  5095 net.cpp:434] conv10 <- relu5
I1018 19:33:26.247133  5095 net.cpp:408] conv10 -> conv10
I1018 19:33:26.249047  5095 net.cpp:150] Setting up conv10
I1018 19:33:26.249056  5095 net.cpp:157] Top shape: 100 300 1 1 (30000)
I1018 19:33:26.249058  5095 net.cpp:165] Memory required for data: 112332400
I1018 19:33:26.249064  5095 layer_factory.hpp:77] Creating layer pool6
I1018 19:33:26.249069  5095 net.cpp:100] Creating Layer pool6
I1018 19:33:26.249070  5095 net.cpp:434] pool6 <- conv10
I1018 19:33:26.249073  5095 net.cpp:408] pool6 -> pool6
I1018 19:33:26.249100  5095 net.cpp:150] Setting up pool6
I1018 19:33:26.249105  5095 net.cpp:157] Top shape: 100 300 1 1 (30000)
I1018 19:33:26.249106  5095 net.cpp:165] Memory required for data: 112452400
I1018 19:33:26.249109  5095 layer_factory.hpp:77] Creating layer drop6
I1018 19:33:26.249111  5095 net.cpp:100] Creating Layer drop6
I1018 19:33:26.249114  5095 net.cpp:434] drop6 <- pool6
I1018 19:33:26.249116  5095 net.cpp:408] drop6 -> drop6
I1018 19:33:26.249140  5095 net.cpp:150] Setting up drop6
I1018 19:33:26.249142  5095 net.cpp:157] Top shape: 100 300 1 1 (30000)
I1018 19:33:26.249145  5095 net.cpp:165] Memory required for data: 112572400
I1018 19:33:26.249146  5095 layer_factory.hpp:77] Creating layer relu6
I1018 19:33:26.249150  5095 net.cpp:100] Creating Layer relu6
I1018 19:33:26.249152  5095 net.cpp:434] relu6 <- drop6
I1018 19:33:26.249156  5095 net.cpp:408] relu6 -> relu6
I1018 19:33:26.249272  5095 net.cpp:150] Setting up relu6
I1018 19:33:26.249277  5095 net.cpp:157] Top shape: 100 300 1 1 (30000)
I1018 19:33:26.249279  5095 net.cpp:165] Memory required for data: 112692400
I1018 19:33:26.249281  5095 layer_factory.hpp:77] Creating layer conv11
I1018 19:33:26.249286  5095 net.cpp:100] Creating Layer conv11
I1018 19:33:26.249289  5095 net.cpp:434] conv11 <- relu6
I1018 19:33:26.249291  5095 net.cpp:408] conv11 -> conv11
I1018 19:33:26.250056  5095 net.cpp:150] Setting up conv11
I1018 19:33:26.250062  5095 net.cpp:157] Top shape: 100 100 1 1 (10000)
I1018 19:33:26.250064  5095 net.cpp:165] Memory required for data: 112732400
I1018 19:33:26.250067  5095 layer_factory.hpp:77] Creating layer pool7
I1018 19:33:26.250072  5095 net.cpp:100] Creating Layer pool7
I1018 19:33:26.250073  5095 net.cpp:434] pool7 <- conv11
I1018 19:33:26.250077  5095 net.cpp:408] pool7 -> pool7
I1018 19:33:26.250107  5095 net.cpp:150] Setting up pool7
I1018 19:33:26.250111  5095 net.cpp:157] Top shape: 100 100 1 1 (10000)
I1018 19:33:26.250113  5095 net.cpp:165] Memory required for data: 112772400
I1018 19:33:26.250115  5095 layer_factory.hpp:77] Creating layer drop7
I1018 19:33:26.250118  5095 net.cpp:100] Creating Layer drop7
I1018 19:33:26.250121  5095 net.cpp:434] drop7 <- pool7
I1018 19:33:26.250124  5095 net.cpp:408] drop7 -> drop7
I1018 19:33:26.250149  5095 net.cpp:150] Setting up drop7
I1018 19:33:26.250151  5095 net.cpp:157] Top shape: 100 100 1 1 (10000)
I1018 19:33:26.250154  5095 net.cpp:165] Memory required for data: 112812400
I1018 19:33:26.250155  5095 layer_factory.hpp:77] Creating layer relu7
I1018 19:33:26.250161  5095 net.cpp:100] Creating Layer relu7
I1018 19:33:26.250164  5095 net.cpp:434] relu7 <- drop7
I1018 19:33:26.250166  5095 net.cpp:408] relu7 -> relu7
I1018 19:33:26.250284  5095 net.cpp:150] Setting up relu7
I1018 19:33:26.250290  5095 net.cpp:157] Top shape: 100 100 1 1 (10000)
I1018 19:33:26.250298  5095 net.cpp:165] Memory required for data: 112852400
I1018 19:33:26.250300  5095 layer_factory.hpp:77] Creating layer pool
I1018 19:33:26.250304  5095 net.cpp:100] Creating Layer pool
I1018 19:33:26.250306  5095 net.cpp:434] pool <- relu7
I1018 19:33:26.250309  5095 net.cpp:408] pool -> pool
I1018 19:33:26.250505  5095 net.cpp:150] Setting up pool
I1018 19:33:26.250512  5095 net.cpp:157] Top shape: 100 100 1 1 (10000)
I1018 19:33:26.250514  5095 net.cpp:165] Memory required for data: 112892400
I1018 19:33:26.250516  5095 layer_factory.hpp:77] Creating layer flatten
I1018 19:33:26.250520  5095 net.cpp:100] Creating Layer flatten
I1018 19:33:26.250522  5095 net.cpp:434] flatten <- pool
I1018 19:33:26.250524  5095 net.cpp:408] flatten -> flatten
I1018 19:33:26.250541  5095 net.cpp:150] Setting up flatten
I1018 19:33:26.250545  5095 net.cpp:157] Top shape: 100 100 (10000)
I1018 19:33:26.250546  5095 net.cpp:165] Memory required for data: 112932400
I1018 19:33:26.250548  5095 layer_factory.hpp:77] Creating layer score
I1018 19:33:26.250551  5095 net.cpp:100] Creating Layer score
I1018 19:33:26.250555  5095 net.cpp:434] score <- flatten
I1018 19:33:26.250558  5095 net.cpp:408] score -> score
I1018 19:33:26.250640  5095 net.cpp:150] Setting up score
I1018 19:33:26.250644  5095 net.cpp:157] Top shape: 100 10 (1000)
I1018 19:33:26.250646  5095 net.cpp:165] Memory required for data: 112936400
I1018 19:33:26.250650  5095 layer_factory.hpp:77] Creating layer score_score_0_split
I1018 19:33:26.250653  5095 net.cpp:100] Creating Layer score_score_0_split
I1018 19:33:26.250655  5095 net.cpp:434] score_score_0_split <- score
I1018 19:33:26.250658  5095 net.cpp:408] score_score_0_split -> score_score_0_split_0
I1018 19:33:26.250663  5095 net.cpp:408] score_score_0_split -> score_score_0_split_1
I1018 19:33:26.250686  5095 net.cpp:150] Setting up score_score_0_split
I1018 19:33:26.250689  5095 net.cpp:157] Top shape: 100 10 (1000)
I1018 19:33:26.250692  5095 net.cpp:157] Top shape: 100 10 (1000)
I1018 19:33:26.250694  5095 net.cpp:165] Memory required for data: 112944400
I1018 19:33:26.250695  5095 layer_factory.hpp:77] Creating layer accuracy
I1018 19:33:26.250699  5095 net.cpp:100] Creating Layer accuracy
I1018 19:33:26.250700  5095 net.cpp:434] accuracy <- score_score_0_split_0
I1018 19:33:26.250704  5095 net.cpp:434] accuracy <- label_data_1_split_0
I1018 19:33:26.250706  5095 net.cpp:408] accuracy -> accuracy
…
