…
  stage: ""
}
type: "AdaDelta"
I1020 05:19:20.676122 10951 solver.cpp:81] Creating training net from train_net file: /home/adam/Honours/Honours-Project/mnist_pooling/max/leakyrelu/poolcnn_leakyrelu_train.prototxt
I1020 05:19:20.676441 10951 net.cpp:58] Initializing net from parameters: 
state {
  phase: TRAIN
  level: 0
  stage: ""
}
layer {
  name: "data"
  type: "Data"
  top: "data"
  top: "label"
  transform_param {
    scale: 0.0039215689
  }
  data_param {
    source: "../../../../data/mnist/mnist_train_lmdb"
    batch_size: 64
    backend: LMDB
  }
}
layer {
  name: "conv1"
  type: "Convolution"
  bottom: "data"
  top: "conv1"
  convolution_param {
    num_output: 192
    kernel_size: 5
    weight_filler {
      type: "xavier"
    }
  }
}
layer {
  name: "relu1"
  type: "ReLU"
  bottom: "conv1"
  top: "relu1"
  relu_param {
    negative_slope: 0.1
  }
}
layer {
  name: "drop1"
  type: "Dropout"
  bottom: "relu1"
  top: "drop1"
  dropout_param {
    dropout_ratio: 0
  }
}
layer {
  name: "pool1"
  type: "Pooling"
  bottom: "drop1"
  top: "pool1"
  pooling_param {
    pool: MAX
    kernel_size: 2
    stride: 2
  }
}
layer {
  name: "conv2"
  type: "Convolution"
  bottom: "pool1"
  top: "conv2"
  convolution_param {
    num_output: 192
    kernel_size: 1
    weight_filler {
      type: "xavier"
    }
  }
}
layer {
  name: "relu2"
  type: "ReLU"
  bottom: "conv2"
  top: "relu2"
  relu_param {
    negative_slope: 0.1
  }
}
layer {
  name: "conv3"
  type: "Convolution"
  bottom: "relu2"
  top: "conv3"
  convolution_param {
    num_output: 240
    kernel_size: 3
    weight_filler {
      type: "xavier"
    }
  }
}
layer {
  name: "relu3"
  type: "ReLU"
  bottom: "conv3"
  top: "relu3"
  relu_param {
    negative_slope: 0.1
  }
}
layer {
  name: "drop2"
  type: "Dropout"
  bottom: "relu3"
  top: "drop2"
  dropout_param {
    dropout_ratio: 0.1
  }
}
layer {
  name: "pool2"
  type: "Pooling"
  bottom: "drop2"
  top: "pool2"
  pooling_param {
    pool: MAX
    kernel_size: 2
    stride: 2
  }
}
layer {
  name: "conv4"
  type: "Convolution"
  bottom: "pool2"
  top: "conv4"
  convolution_param {
    num_output: 240
    kernel_size: 1
    weight_filler {
      type: "xavier"
    }
  }
}
layer {
  name: "relu4"
  type: "ReLU"
  bottom: "conv4"
  top: "relu4"
  relu_param {
    negative_slope: 0.1
  }
}
layer {
  name: "conv5"
  type: "Convolution"
  bottom: "relu4"
  top: "conv5"
  convolution_param {
    num_output: 260
    kernel_size: 2
    weight_filler {
      type: "xavier"
    }
  }
}
layer {
  name: "relu5"
  type: "ReLU"
  bottom: "conv5"
  top: "relu5"
  relu_param {
    negative_slope: 0.1
  }
}
layer {
  name: "drop3"
  type: "Dropout"
  bottom: "relu5"
  top: "drop3"
  dropout_param {
    dropout_ratio: 0.2
  }
}
layer {
  name: "pool3"
  type: "Pooling"
  bottom: "drop3"
  top: "pool3"
  pooling_param {
    pool: MAX
    kernel_size: 2
    stride: 2
  }
}
layer {
  name: "conv6"
  type: "Convolution"
  bottom: "pool3"
  top: "conv6"
  convolution_param {
    num_output: 260
    kernel_size: 1
    weight_filler {
      type: "xavier"
    }
  }
}
layer {
  name: "relu6"
  type: "ReLU"
  bottom: "conv6"
  top: "relu6"
  relu_param {
    negative_slope: 0.1
  }
}
layer {
  name: "conv7"
  type: "Convolution"
  bottom: "relu6"
  top: "conv7"
  convolution_param {
    num_output: 280
    kernel_size: 2
    weight_filler {
      type: "xavier"
    }
  }
}
layer {
  name: "relu7"
  type: "ReLU"
  bottom: "conv7"
  top: "relu7"
  relu_param {
    negative_slope: 0.1
  }
}
layer {
  name: "drop4"
  type: "Dropout"
  bottom: "relu7"
  top: "drop4"
  dropout_param {
    dropout_ratio: 0.3
  }
}
layer {
  name: "pool4"
  type: "Pooling"
  bottom: "drop4"
  top: "pool4"
  pooling_param {
    pool: MAX
    kernel_size: 2
    stride: 2
  }
}
layer {
  name: "conv8"
  type: "Convolution"
  bottom: "pool4"
  top: "conv8"
  convolution_param {
    num_output: 280
    kernel_size: 1
    weight_filler {
      type: "xavier"
    }
  }
}
layer {
  name: "relu8"
  type: "ReLU"
  bottom: "conv8"
  top: "relu8"
  relu_param {
    negative_slope: 0.1
  }
}
layer {
  name: "drop5"
  type: "Dropout"
  bottom: "relu8"
  top: "drop5"
  dropout_param {
    dropout_ratio: 0.4
  }
}
layer {
  name: "pool5"
  type: "Pooling"
  bottom: "drop5"
  top: "pool5"
  pooling_param {
    pool: MAX
    kernel_size: 2
    stride: 2
  }
}
layer {
  name: "conv10"
  type: "Convolution"
  bottom: "pool5"
  top: "conv10"
  convolution_param {
    num_output: 300
    kernel_size: 1
    weight_filler {
      type: "xavier"
    }
  }
}
layer {
  name: "relu10"
  type: "ReLU"
  bottom: "conv10"
  top: "relu10"
  relu_param {
    negative_slope: 0.1
  }
}
layer {
  name: "drop6"
  type: "Dropout"
  bottom: "relu10"
  top: "drop6"
  dropout_param {
    dropout_ratio: 0.5
  }
}
layer {
  name: "pool6"
  type: "Pooling"
  bottom: "drop6"
  top: "pool6"
  pooling_param {
    pool: MAX
    kernel_size: 2
    stride: 2
  }
}
layer {
  name: "conv11"
  type: "Convolution"
  bottom: "pool6"
  top: "conv11"
  convolution_param {
    num_output: 100
    kernel_size: 1
    weight_filler {
      type: "xavier"
    }
  }
}
layer {
  name: "relu11"
  type: "ReLU"
  bottom: "conv11"
  top: "relu11"
  relu_param {
    negative_slope: 0.1
  }
}
layer {
  name: "drop7"
  type: "Dropout"
  bottom: "relu11"
  top: "drop7"
  dropout_param {
    dropout_ratio: 0
  }
}
layer {
  name: "pool7"
  type: "Pooling"
  bottom: "drop7"
  top: "pool7"
  pooling_param {
    pool: MAX
    kernel_size: 2
    stride: 2
  }
}
layer {
  name: "score"
  type: "InnerProduct"
  bottom: "pool7"
  top: "score"
  inner_product_param {
    num_output: 10
    weight_filler {
      type: "gaussian"
    }
  }
}
layer {
  name: "accuracy"
  type: "Accuracy"
  bottom: "score"
  bottom: "label"
  top: "accuracy"
}
layer {
  name: "loss"
  type: "SoftmaxWithLoss"
  bottom: "score"
  bottom: "label"
  top: "loss"
}
I1020 05:19:20.676628 10951 layer_factory.hpp:77] Creating layer data
I1020 05:19:20.677011 10951 net.cpp:100] Creating Layer data
I1020 05:19:20.677021 10951 net.cpp:408] data -> data
I1020 05:19:20.677036 10951 net.cpp:408] data -> label
I1020 05:19:20.677590 10956 db_lmdb.cpp:35] Opened lmdb ../../../../data/mnist/mnist_train_lmdb
I1020 05:19:20.683171 10951 data_layer.cpp:41] output data size: 64,1,28,28
I1020 05:19:20.683825 10951 net.cpp:150] Setting up data
I1020 05:19:20.683841 10951 net.cpp:157] Top shape: 64 1 28 28 (50176)
I1020 05:19:20.683845 10951 net.cpp:157] Top shape: 64 (64)
I1020 05:19:20.683846 10951 net.cpp:165] Memory required for data: 200960
I1020 05:19:20.683861 10951 layer_factory.hpp:77] Creating layer label_data_1_split
I1020 05:19:20.683878 10951 net.cpp:100] Creating Layer label_data_1_split
I1020 05:19:20.683886 10951 net.cpp:434] label_data_1_split <- label
I1020 05:19:20.683923 10951 net.cpp:408] label_data_1_split -> label_data_1_split_0
I1020 05:19:20.683931 10951 net.cpp:408] label_data_1_split -> label_data_1_split_1
I1020 05:19:20.683960 10951 net.cpp:150] Setting up label_data_1_split
I1020 05:19:20.683964 10951 net.cpp:157] Top shape: 64 (64)
I1020 05:19:20.683965 10951 net.cpp:157] Top shape: 64 (64)
I1020 05:19:20.683966 10951 net.cpp:165] Memory required for data: 201472
I1020 05:19:20.683969 10951 layer_factory.hpp:77] Creating layer conv1
I1020 05:19:20.683981 10951 net.cpp:100] Creating Layer conv1
I1020 05:19:20.683984 10951 net.cpp:434] conv1 <- data
I1020 05:19:20.683989 10951 net.cpp:408] conv1 -> conv1
I1020 05:19:20.807519 10951 net.cpp:150] Setting up conv1
I1020 05:19:20.807559 10951 net.cpp:157] Top shape: 64 192 24 24 (7077888)
I1020 05:19:20.807561 10951 net.cpp:165] Memory required for data: 28513024
I1020 05:19:20.807579 10951 layer_factory.hpp:77] Creating layer relu1
I1020 05:19:20.807587 10951 net.cpp:100] Creating Layer relu1
I1020 05:19:20.807590 10951 net.cpp:434] relu1 <- conv1
I1020 05:19:20.807593 10951 net.cpp:408] relu1 -> relu1
I1020 05:19:20.807715 10951 net.cpp:150] Setting up relu1
I1020 05:19:20.807721 10951 net.cpp:157] Top shape: 64 192 24 24 (7077888)
I1020 05:19:20.807723 10951 net.cpp:165] Memory required for data: 56824576
I1020 05:19:20.807725 10951 layer_factory.hpp:77] Creating layer drop1
I1020 05:19:20.807730 10951 net.cpp:100] Creating Layer drop1
I1020 05:19:20.807732 10951 net.cpp:434] drop1 <- relu1
I1020 05:19:20.807735 10951 net.cpp:408] drop1 -> drop1
I1020 05:19:20.807760 10951 net.cpp:150] Setting up drop1
I1020 05:19:20.807763 10951 net.cpp:157] Top shape: 64 192 24 24 (7077888)
I1020 05:19:20.807765 10951 net.cpp:165] Memory required for data: 85136128
I1020 05:19:20.807767 10951 layer_factory.hpp:77] Creating layer pool1
I1020 05:19:20.807770 10951 net.cpp:100] Creating Layer pool1
I1020 05:19:20.807772 10951 net.cpp:434] pool1 <- drop1
I1020 05:19:20.807775 10951 net.cpp:408] pool1 -> pool1
I1020 05:19:20.807802 10951 net.cpp:150] Setting up pool1
I1020 05:19:20.807806 10951 net.cpp:157] Top shape: 64 192 12 12 (1769472)
I1020 05:19:20.807807 10951 net.cpp:165] Memory required for data: 92214016
I1020 05:19:20.807809 10951 layer_factory.hpp:77] Creating layer conv2
I1020 05:19:20.807816 10951 net.cpp:100] Creating Layer conv2
I1020 05:19:20.807816 10951 net.cpp:434] conv2 <- pool1
I1020 05:19:20.807819 10951 net.cpp:408] conv2 -> conv2
I1020 05:19:20.808625 10951 net.cpp:150] Setting up conv2
I1020 05:19:20.808634 10951 net.cpp:157] Top shape: 64 192 12 12 (1769472)
I1020 05:19:20.808636 10951 net.cpp:165] Memory required for data: 99291904
I1020 05:19:20.808641 10951 layer_factory.hpp:77] Creating layer relu2
I1020 05:19:20.808645 10951 net.cpp:100] Creating Layer relu2
I1020 05:19:20.808647 10951 net.cpp:434] relu2 <- conv2
I1020 05:19:20.808650 10951 net.cpp:408] relu2 -> relu2
I1020 05:19:20.808763 10951 net.cpp:150] Setting up relu2
I1020 05:19:20.808769 10951 net.cpp:157] Top shape: 64 192 12 12 (1769472)
I1020 05:19:20.808771 10951 net.cpp:165] Memory required for data: 106369792
I1020 05:19:20.808773 10951 layer_factory.hpp:77] Creating layer conv3
I1020 05:19:20.808779 10951 net.cpp:100] Creating Layer conv3
I1020 05:19:20.808781 10951 net.cpp:434] conv3 <- relu2
I1020 05:19:20.808784 10951 net.cpp:408] conv3 -> conv3
I1020 05:19:20.811205 10951 net.cpp:150] Setting up conv3
I1020 05:19:20.811213 10951 net.cpp:157] Top shape: 64 240 10 10 (1536000)
I1020 05:19:20.811215 10951 net.cpp:165] Memory required for data: 112513792
I1020 05:19:20.811220 10951 layer_factory.hpp:77] Creating layer relu3
I1020 05:19:20.811224 10951 net.cpp:100] Creating Layer relu3
I1020 05:19:20.811226 10951 net.cpp:434] relu3 <- conv3
I1020 05:19:20.811229 10951 net.cpp:408] relu3 -> relu3
I1020 05:19:20.811419 10951 net.cpp:150] Setting up relu3
I1020 05:19:20.811425 10951 net.cpp:157] Top shape: 64 240 10 10 (1536000)
I1020 05:19:20.811427 10951 net.cpp:165] Memory required for data: 118657792
I1020 05:19:20.811429 10951 layer_factory.hpp:77] Creating layer drop2
I1020 05:19:20.811432 10951 net.cpp:100] Creating Layer drop2
I1020 05:19:20.811434 10951 net.cpp:434] drop2 <- relu3
I1020 05:19:20.811439 10951 net.cpp:408] drop2 -> drop2
I1020 05:19:20.811460 10951 net.cpp:150] Setting up drop2
I1020 05:19:20.811465 10951 net.cpp:157] Top shape: 64 240 10 10 (1536000)
I1020 05:19:20.811466 10951 net.cpp:165] Memory required for data: 124801792
I1020 05:19:20.811468 10951 layer_factory.hpp:77] Creating layer pool2
I1020 05:19:20.811470 10951 net.cpp:100] Creating Layer pool2
I1020 05:19:20.811472 10951 net.cpp:434] pool2 <- drop2
I1020 05:19:20.811475 10951 net.cpp:408] pool2 -> pool2
I1020 05:19:20.811496 10951 net.cpp:150] Setting up pool2
I1020 05:19:20.811506 10951 net.cpp:157] Top shape: 64 240 5 5 (384000)
I1020 05:19:20.811508 10951 net.cpp:165] Memory required for data: 126337792
I1020 05:19:20.811511 10951 layer_factory.hpp:77] Creating layer conv4
I1020 05:19:20.811514 10951 net.cpp:100] Creating Layer conv4
I1020 05:19:20.811517 10951 net.cpp:434] conv4 <- pool2
I1020 05:19:20.811520 10951 net.cpp:408] conv4 -> conv4
I1020 05:19:20.812352 10951 net.cpp:150] Setting up conv4
I1020 05:19:20.812360 10951 net.cpp:157] Top shape: 64 240 5 5 (384000)
I1020 05:19:20.812361 10951 net.cpp:165] Memory required for data: 127873792
I1020 05:19:20.812366 10951 layer_factory.hpp:77] Creating layer relu4
I1020 05:19:20.812369 10951 net.cpp:100] Creating Layer relu4
I1020 05:19:20.812371 10951 net.cpp:434] relu4 <- conv4
I1020 05:19:20.812374 10951 net.cpp:408] relu4 -> relu4
I1020 05:19:20.812489 10951 net.cpp:150] Setting up relu4
I1020 05:19:20.812494 10951 net.cpp:157] Top shape: 64 240 5 5 (384000)
I1020 05:19:20.812495 10951 net.cpp:165] Memory required for data: 129409792
I1020 05:19:20.812497 10951 layer_factory.hpp:77] Creating layer conv5
I1020 05:19:20.812502 10951 net.cpp:100] Creating Layer conv5
I1020 05:19:20.812503 10951 net.cpp:434] conv5 <- relu4
I1020 05:19:20.812507 10951 net.cpp:408] conv5 -> conv5
I1020 05:19:20.814374 10951 net.cpp:150] Setting up conv5
I1020 05:19:20.814384 10951 net.cpp:157] Top shape: 64 260 4 4 (266240)
I1020 05:19:20.814386 10951 net.cpp:165] Memory required for data: 130474752
I1020 05:19:20.814393 10951 layer_factory.hpp:77] Creating layer relu5
I1020 05:19:20.814396 10951 net.cpp:100] Creating Layer relu5
I1020 05:19:20.814399 10951 net.cpp:434] relu5 <- conv5
I1020 05:19:20.814402 10951 net.cpp:408] relu5 -> relu5
I1020 05:19:20.814514 10951 net.cpp:150] Setting up relu5
I1020 05:19:20.814520 10951 net.cpp:157] Top shape: 64 260 4 4 (266240)
I1020 05:19:20.814522 10951 net.cpp:165] Memory required for data: 131539712
I1020 05:19:20.814524 10951 layer_factory.hpp:77] Creating layer drop3
I1020 05:19:20.814529 10951 net.cpp:100] Creating Layer drop3
I1020 05:19:20.814532 10951 net.cpp:434] drop3 <- relu5
I1020 05:19:20.814535 10951 net.cpp:408] drop3 -> drop3
I1020 05:19:20.814556 10951 net.cpp:150] Setting up drop3
I1020 05:19:20.814560 10951 net.cpp:157] Top shape: 64 260 4 4 (266240)
I1020 05:19:20.814563 10951 net.cpp:165] Memory required for data: 132604672
I1020 05:19:20.814564 10951 layer_factory.hpp:77] Creating layer pool3
I1020 05:19:20.814568 10951 net.cpp:100] Creating Layer pool3
I1020 05:19:20.814568 10951 net.cpp:434] pool3 <- drop3
I1020 05:19:20.814571 10951 net.cpp:408] pool3 -> pool3
I1020 05:19:20.814592 10951 net.cpp:150] Setting up pool3
I1020 05:19:20.814595 10951 net.cpp:157] Top shape: 64 260 2 2 (66560)
I1020 05:19:20.814597 10951 net.cpp:165] Memory required for data: 132870912
I1020 05:19:20.814599 10951 layer_factory.hpp:77] Creating layer conv6
I1020 05:19:20.814604 10951 net.cpp:100] Creating Layer conv6
I1020 05:19:20.814605 10951 net.cpp:434] conv6 <- pool3
I1020 05:19:20.814609 10951 net.cpp:408] conv6 -> conv6
I1020 05:19:20.815716 10951 net.cpp:150] Setting up conv6
I1020 05:19:20.815724 10951 net.cpp:157] Top shape: 64 260 2 2 (66560)
I1020 05:19:20.815726 10951 net.cpp:165] Memory required for data: 133137152
I1020 05:19:20.815731 10951 layer_factory.hpp:77] Creating layer relu6
I1020 05:19:20.815733 10951 net.cpp:100] Creating Layer relu6
I1020 05:19:20.815735 10951 net.cpp:434] relu6 <- conv6
I1020 05:19:20.815739 10951 net.cpp:408] relu6 -> relu6
I1020 05:19:20.815930 10951 net.cpp:150] Setting up relu6
I1020 05:19:20.815937 10951 net.cpp:157] Top shape: 64 260 2 2 (66560)
I1020 05:19:20.815939 10951 net.cpp:165] Memory required for data: 133403392
I1020 05:19:20.815942 10951 layer_factory.hpp:77] Creating layer conv7
I1020 05:19:20.815946 10951 net.cpp:100] Creating Layer conv7
I1020 05:19:20.815948 10951 net.cpp:434] conv7 <- relu6
I1020 05:19:20.815951 10951 net.cpp:408] conv7 -> conv7
I1020 05:19:20.817873 10951 net.cpp:150] Setting up conv7
I1020 05:19:20.817881 10951 net.cpp:157] Top shape: 64 280 1 1 (17920)
I1020 05:19:20.817894 10951 net.cpp:165] Memory required for data: 133475072
I1020 05:19:20.817899 10951 layer_factory.hpp:77] Creating layer relu7
I1020 05:19:20.817903 10951 net.cpp:100] Creating Layer relu7
I1020 05:19:20.817904 10951 net.cpp:434] relu7 <- conv7
I1020 05:19:20.817909 10951 net.cpp:408] relu7 -> relu7
I1020 05:19:20.818024 10951 net.cpp:150] Setting up relu7
I1020 05:19:20.818030 10951 net.cpp:157] Top shape: 64 280 1 1 (17920)
I1020 05:19:20.818032 10951 net.cpp:165] Memory required for data: 133546752
I1020 05:19:20.818033 10951 layer_factory.hpp:77] Creating layer drop4
I1020 05:19:20.818037 10951 net.cpp:100] Creating Layer drop4
I1020 05:19:20.818039 10951 net.cpp:434] drop4 <- relu7
I1020 05:19:20.818042 10951 net.cpp:408] drop4 -> drop4
I1020 05:19:20.818065 10951 net.cpp:150] Setting up drop4
I1020 05:19:20.818069 10951 net.cpp:157] Top shape: 64 280 1 1 (17920)
I1020 05:19:20.818071 10951 net.cpp:165] Memory required for data: 133618432
I1020 05:19:20.818073 10951 layer_factory.hpp:77] Creating layer pool4
I1020 05:19:20.818075 10951 net.cpp:100] Creating Layer pool4
I1020 05:19:20.818078 10951 net.cpp:434] pool4 <- drop4
I1020 05:19:20.818080 10951 net.cpp:408] pool4 -> pool4
I1020 05:19:20.818102 10951 net.cpp:150] Setting up pool4
I1020 05:19:20.818106 10951 net.cpp:157] Top shape: 64 280 1 1 (17920)
I1020 05:19:20.818109 10951 net.cpp:165] Memory required for data: 133690112
I1020 05:19:20.818110 10951 layer_factory.hpp:77] Creating layer conv8
I1020 05:19:20.818115 10951 net.cpp:100] Creating Layer conv8
I1020 05:19:20.818116 10951 net.cpp:434] conv8 <- pool4
I1020 05:19:20.818120 10951 net.cpp:408] conv8 -> conv8
I1020 05:19:20.819149 10951 net.cpp:150] Setting up conv8
I1020 05:19:20.819157 10951 net.cpp:157] Top shape: 64 280 1 1 (17920)
I1020 05:19:20.819159 10951 net.cpp:165] Memory required for data: 133761792
I1020 05:19:20.819164 10951 layer_factory.hpp:77] Creating layer relu8
I1020 05:19:20.819167 10951 net.cpp:100] Creating Layer relu8
I1020 05:19:20.819169 10951 net.cpp:434] relu8 <- conv8
I1020 05:19:20.819172 10951 net.cpp:408] relu8 -> relu8
I1020 05:19:20.819288 10951 net.cpp:150] Setting up relu8
I1020 05:19:20.819294 10951 net.cpp:157] Top shape: 64 280 1 1 (17920)
I1020 05:19:20.819296 10951 net.cpp:165] Memory required for data: 133833472
I1020 05:19:20.819298 10951 layer_factory.hpp:77] Creating layer drop5
I1020 05:19:20.819303 10951 net.cpp:100] Creating Layer drop5
I1020 05:19:20.819305 10951 net.cpp:434] drop5 <- relu8
I1020 05:19:20.819309 10951 net.cpp:408] drop5 -> drop5
I1020 05:19:20.819336 10951 net.cpp:150] Setting up drop5
I1020 05:19:20.819340 10951 net.cpp:157] Top shape: 64 280 1 1 (17920)
I1020 05:19:20.819342 10951 net.cpp:165] Memory required for data: 133905152
I1020 05:19:20.819344 10951 layer_factory.hpp:77] Creating layer pool5
I1020 05:19:20.819347 10951 net.cpp:100] Creating Layer pool5
I1020 05:19:20.819350 10951 net.cpp:434] pool5 <- drop5
I1020 05:19:20.819353 10951 net.cpp:408] pool5 -> pool5
I1020 05:19:20.819375 10951 net.cpp:150] Setting up pool5
I1020 05:19:20.819380 10951 net.cpp:157] Top shape: 64 280 1 1 (17920)
I1020 05:19:20.819382 10951 net.cpp:165] Memory required for data: 133976832
I1020 05:19:20.819383 10951 layer_factory.hpp:77] Creating layer conv10
I1020 05:19:20.819387 10951 net.cpp:100] Creating Layer conv10
I1020 05:19:20.819391 10951 net.cpp:434] conv10 <- pool5
I1020 05:19:20.819394 10951 net.cpp:408] conv10 -> conv10
I1020 05:19:20.820358 10951 net.cpp:150] Setting up conv10
I1020 05:19:20.820366 10951 net.cpp:157] Top shape: 64 300 1 1 (19200)
I1020 05:19:20.820369 10951 net.cpp:165] Memory required for data: 134053632
I1020 05:19:20.820376 10951 layer_factory.hpp:77] Creating layer relu10
I1020 05:19:20.820380 10951 net.cpp:100] Creating Layer relu10
I1020 05:19:20.820382 10951 net.cpp:434] relu10 <- conv10
I1020 05:19:20.820386 10951 net.cpp:408] relu10 -> relu10
I1020 05:19:20.820590 10951 net.cpp:150] Setting up relu10
I1020 05:19:20.820596 10951 net.cpp:157] Top shape: 64 300 1 1 (19200)
I1020 05:19:20.820606 10951 net.cpp:165] Memory required for data: 134130432
I1020 05:19:20.820608 10951 layer_factory.hpp:77] Creating layer drop6
I1020 05:19:20.820613 10951 net.cpp:100] Creating Layer drop6
I1020 05:19:20.820616 10951 net.cpp:434] drop6 <- relu10
I1020 05:19:20.820618 10951 net.cpp:408] drop6 -> drop6
I1020 05:19:20.820647 10951 net.cpp:150] Setting up drop6
I1020 05:19:20.820650 10951 net.cpp:157] Top shape: 64 300 1 1 (19200)
I1020 05:19:20.820652 10951 net.cpp:165] Memory required for data: 134207232
I1020 05:19:20.820654 10951 layer_factory.hpp:77] Creating layer pool6
I1020 05:19:20.820658 10951 net.cpp:100] Creating Layer pool6
I1020 05:19:20.820660 10951 net.cpp:434] pool6 <- drop6
I1020 05:19:20.820663 10951 net.cpp:408] pool6 -> pool6
I1020 05:19:20.820686 10951 net.cpp:150] Setting up pool6
I1020 05:19:20.820690 10951 net.cpp:157] Top shape: 64 300 1 1 (19200)
I1020 05:19:20.820693 10951 net.cpp:165] Memory required for data: 134284032
I1020 05:19:20.820694 10951 layer_factory.hpp:77] Creating layer conv11
I1020 05:19:20.820701 10951 net.cpp:100] Creating Layer conv11
I1020 05:19:20.820704 10951 net.cpp:434] conv11 <- pool6
I1020 05:19:20.820708 10951 net.cpp:408] conv11 -> conv11
I1020 05:19:20.821709 10951 net.cpp:150] Setting up conv11
I1020 05:19:20.821717 10951 net.cpp:157] Top shape: 64 100 1 1 (6400)
I1020 05:19:20.821720 10951 net.cpp:165] Memory required for data: 134309632
I1020 05:19:20.821724 10951 layer_factory.hpp:77] Creating layer relu11
I1020 05:19:20.821727 10951 net.cpp:100] Creating Layer relu11
I1020 05:19:20.821730 10951 net.cpp:434] relu11 <- conv11
I1020 05:19:20.821734 10951 net.cpp:408] relu11 -> relu11
I1020 05:19:20.821849 10951 net.cpp:150] Setting up relu11
I1020 05:19:20.821856 10951 net.cpp:157] Top shape: 64 100 1 1 (6400)
I1020 05:19:20.821857 10951 net.cpp:165] Memory required for data: 134335232
I1020 05:19:20.821859 10951 layer_factory.hpp:77] Creating layer drop7
I1020 05:19:20.821863 10951 net.cpp:100] Creating Layer drop7
I1020 05:19:20.821866 10951 net.cpp:434] drop7 <- relu11
I1020 05:19:20.821868 10951 net.cpp:408] drop7 -> drop7
I1020 05:19:20.821893 10951 net.cpp:150] Setting up drop7
I1020 05:19:20.821897 10951 net.cpp:157] Top shape: 64 100 1 1 (6400)
I1020 05:19:20.821900 10951 net.cpp:165] Memory required for data: 134360832
I1020 05:19:20.821902 10951 layer_factory.hpp:77] Creating layer pool7
I1020 05:19:20.821904 10951 net.cpp:100] Creating Layer pool7
I1020 05:19:20.821907 10951 net.cpp:434] pool7 <- drop7
I1020 05:19:20.821910 10951 net.cpp:408] pool7 -> pool7
I1020 05:19:20.821933 10951 net.cpp:150] Setting up pool7
I1020 05:19:20.821936 10951 net.cpp:157] Top shape: 64 100 1 1 (6400)
I1020 05:19:20.821939 10951 net.cpp:165] Memory required for data: 134386432
I1020 05:19:20.821940 10951 layer_factory.hpp:77] Creating layer score
I1020 05:19:20.821945 10951 net.cpp:100] Creating Layer score
I1020 05:19:20.821948 10951 net.cpp:434] score <- pool7
I1020 05:19:20.821951 10951 net.cpp:408] score -> score
I1020 05:19:20.822052 10951 net.cpp:150] Setting up score
I1020 05:19:20.822055 10951 net.cpp:157] Top shape: 64 10 (640)
I1020 05:19:20.822057 10951 net.cpp:165] Memory required for data: 134388992
I1020 05:19:20.822060 10951 layer_factory.hpp:77] Creating layer score_score_0_split
I1020 05:19:20.822064 10951 net.cpp:100] Creating Layer score_score_0_split
I1020 05:19:20.822067 10951 net.cpp:434] score_score_0_split <- score
I1020 05:19:20.822073 10951 net.cpp:408] score_score_0_split -> score_score_0_split_0
I1020 05:19:20.822078 10951 net.cpp:408] score_score_0_split -> score_score_0_split_1
I1020 05:19:20.822099 10951 net.cpp:150] Setting up score_score_0_split
I1020 05:19:20.822103 10951 net.cpp:157] Top shape: 64 10 (640)
I1020 05:19:20.822105 10951 net.cpp:157] Top shape: 64 10 (640)
I1020 05:19:20.822108 10951 net.cpp:165] Memory required for data: 134394112
I1020 05:19:20.822109 10951 layer_factory.hpp:77] Creating layer accuracy
I1020 05:19:20.822113 10951 net.cpp:100] Creating Layer accuracy
I1020 05:19:20.822116 10951 net.cpp:434] accuracy <- score_score_0_split_0
I1020 05:19:20.822125 10951 net.cpp:434] accuracy <- label_data_1_split_0
I1020 05:19:20.822129 10951 net.cpp:408] accuracy -> accuracy
…
I1020 05:19:20.822608 10951 net.cpp:283] Network initialization done.
I1020 05:19:20.822805 10951 solver.cpp:181] Creating test net (#0) specified by test_net file: /home/adam/Honours/Honours-Project/mnist_pooling/max/leakyrelu/poolcnn_leakyrelu_test.prototxt
I1020 05:19:20.822926 10951 net.cpp:58] Initializing net from parameters: 
state {
  phase: TEST
}
layer {
  name: "data"
  type: "Data"
  top: "data"
  top: "label"
  transform_param {
    scale: 0.0039215689
  }
  data_param {
    source: "../../../../data/mnist/mnist_test_lmdb"
    batch_size: 100
    backend: LMDB
  }
}
layer {
  name: "conv1"
  type: "Convolution"
  bottom: "data"
  top: "conv1"
  convolution_param {
    num_output: 192
    kernel_size: 5
    weight_filler {
      type: "xavier"
    }
  }
}
layer {
  name: "relu1"
  type: "ReLU"
  bottom: "conv1"
  top: "relu1"
  relu_param {
    negative_slope: 0.1
  }
}
layer {
  name: "drop1"
  type: "Dropout"
  bottom: "relu1"
  top: "drop1"
  dropout_param {
    dropout_ratio: 0
  }
}
layer {
  name: "pool1"
  type: "Pooling"
  bottom: "drop1"
  top: "pool1"
  pooling_param {
    pool: MAX
    kernel_size: 2
    stride: 2
  }
}
layer {
  name: "conv2"
  type: "Convolution"
  bottom: "pool1"
  top: "conv2"
  convolution_param {
    num_output: 192
    kernel_size: 1
    weight_filler {
      type: "xavier"
    }
  }
}
layer {
  name: "relu2"
  type: "ReLU"
  bottom: "conv2"
  top: "relu2"
  relu_param {
    negative_slope: 0.1
  }
}
layer {
  name: "conv3"
  type: "Convolution"
  bottom: "relu2"
  top: "conv3"
  convolution_param {
    num_output: 240
    kernel_size: 3
    weight_filler {
      type: "xavier"
    }
  }
}
layer {
  name: "relu3"
  type: "ReLU"
  bottom: "conv3"
  top: "relu3"
  relu_param {
    negative_slope: 0.1
  }
}
layer {
  name: "drop2"
  type: "Dropout"
  bottom: "relu3"
  top: "drop2"
  dropout_param {
    dropout_ratio: 0.1
  }
}
layer {
  name: "pool2"
  type: "Pooling"
  bottom: "drop2"
  top: "pool2"
  pooling_param {
    pool: MAX
    kernel_size: 2
    stride: 2
  }
}
layer {
  name: "conv4"
  type: "Convolution"
  bottom: "pool2"
  top: "conv4"
  convolution_param {
    num_output: 240
    kernel_size: 1
    weight_filler {
      type: "xavier"
    }
  }
}
layer {
  name: "relu4"
  type: "ReLU"
  bottom: "conv4"
  top: "relu4"
  relu_param {
    negative_slope: 0.1
  }
}
layer {
  name: "conv5"
  type: "Convolution"
  bottom: "relu4"
  top: "conv5"
  convolution_param {
    num_output: 260
    kernel_size: 2
    weight_filler {
      type: "xavier"
    }
  }
}
layer {
  name: "relu5"
  type: "ReLU"
  bottom: "conv5"
  top: "relu5"
  relu_param {
    negative_slope: 0.1
  }
}
layer {
  name: "drop3"
  type: "Dropout"
  bottom: "relu5"
  top: "drop3"
  dropout_param {
    dropout_ratio: 0.2
  }
}
layer {
  name: "pool3"
  type: "Pooling"
  bottom: "drop3"
  top: "pool3"
  pooling_param {
    pool: MAX
    kernel_size: 2
    stride: 2
  }
}
layer {
  name: "conv6"
  type: "Convolution"
  bottom: "pool3"
  top: "conv6"
  convolution_param {
    num_output: 260
    kernel_size: 1
    weight_filler {
      type: "xavier"
    }
  }
}
layer {
  name: "relu6"
  type: "ReLU"
  bottom: "conv6"
  top: "relu6"
  relu_param {
    negative_slope: 0.1
  }
}
layer {
  name: "conv7"
  type: "Convolution"
  bottom: "relu6"
  top: "conv7"
  convolution_param {
    num_output: 280
    kernel_size: 2
    weight_filler {
      type: "xavier"
    }
  }
}
layer {
  name: "relu7"
  type: "ReLU"
  bottom: "conv7"
  top: "relu7"
  relu_param {
    negative_slope: 0.1
  }
}
layer {
  name: "drop4"
  type: "Dropout"
  bottom: "relu7"
  top: "drop4"
  dropout_param {
    dropout_ratio: 0.3
  }
}
layer {
  name: "pool4"
  type: "Pooling"
  bottom: "drop4"
  top: "pool4"
  pooling_param {
    pool: MAX
    kernel_size: 2
    stride: 2
  }
}
layer {
  name: "conv8"
  type: "Convolution"
  bottom: "pool4"
  top: "conv8"
  convolution_param {
    num_output: 280
    kernel_size: 1
    weight_filler {
      type: "xavier"
    }
  }
}
layer {
  name: "relu8"
  type: "ReLU"
  bottom: "conv8"
  top: "relu8"
  relu_param {
    negative_slope: 0.1
  }
}
layer {
  name: "drop5"
  type: "Dropout"
  bottom: "relu8"
  top: "drop5"
  dropout_param {
    dropout_ratio: 0.4
  }
}
layer {
  name: "pool5"
  type: "Pooling"
  bottom: "drop5"
  top: "pool5"
  pooling_param {
    pool: MAX
    kernel_size: 2
    stride: 2
  }
}
layer {
  name: "conv10"
  type: "Convolution"
  bottom: "pool5"
  top: "conv10"
  convolution_param {
    num_output: 300
    kernel_size: 1
    weight_filler {
      type: "xavier"
    }
  }
}
layer {
  name: "relu10"
  type: "ReLU"
  bottom: "conv10"
  top: "relu10"
  relu_param {
    negative_slope: 0.1
  }
}
layer {
  name: "drop6"
  type: "Dropout"
  bottom: "relu10"
  top: "drop6"
  dropout_param {
    dropout_ratio: 0.5
  }
}
layer {
  name: "pool6"
  type: "Pooling"
  bottom: "drop6"
  top: "pool6"
  pooling_param {
    pool: MAX
    kernel_size: 2
    stride: 2
  }
}
layer {
  name: "conv11"
  type: "Convolution"
  bottom: "pool6"
  top: "conv11"
  convolution_param {
    num_output: 100
    kernel_size: 1
    weight_filler {
      type: "xavier"
    }
  }
}
layer {
  name: "relu11"
  type: "ReLU"
  bottom: "conv11"
  top: "relu11"
  relu_param {
    negative_slope: 0.1
  }
}
layer {
  name: "drop7"
  type: "Dropout"
  bottom: "relu11"
  top: "drop7"
  dropout_param {
    dropout_ratio: 0
  }
}
layer {
  name: "pool7"
  type: "Pooling"
  bottom: "drop7"
  top: "pool7"
  pooling_param {
    pool: MAX
    kernel_size: 2
    stride: 2
  }
}
layer {
  name: "score"
  type: "InnerProduct"
  bottom: "pool7"
  top: "score"
  inner_product_param {
    num_output: 10
    weight_filler {
      type: "gaussian"
    }
  }
}
layer {
  name: "accuracy"
  type: "Accuracy"
  bottom: "score"
  bottom: "label"
  top: "accuracy"
}
layer {
  name: "loss"
  type: "SoftmaxWithLoss"
  bottom: "score"
  bottom: "label"
  top: "loss"
}
I1020 05:19:20.823004 10951 layer_factory.hpp:77] Creating layer data
I1020 05:19:20.823077 10951 net.cpp:100] Creating Layer data
I1020 05:19:20.823082 10951 net.cpp:408] data -> data
I1020 05:19:20.823086 10951 net.cpp:408] data -> label
I1020 05:19:20.823638 10958 db_lmdb.cpp:35] Opened lmdb ../../../../data/mnist/mnist_test_lmdb
I1020 05:19:20.823719 10951 data_layer.cpp:41] output data size: 100,1,28,28
I1020 05:19:20.824355 10951 net.cpp:150] Setting up data
I1020 05:19:20.824363 10951 net.cpp:157] Top shape: 100 1 28 28 (78400)
I1020 05:19:20.824367 10951 net.cpp:157] Top shape: 100 (100)
I1020 05:19:20.824368 10951 net.cpp:165] Memory required for data: 314000
I1020 05:19:20.824369 10951 layer_factory.hpp:77] Creating layer label_data_1_split
I1020 05:19:20.824373 10951 net.cpp:100] Creating Layer label_data_1_split
I1020 05:19:20.824376 10951 net.cpp:434] label_data_1_split <- label
I1020 05:19:20.824380 10951 net.cpp:408] label_data_1_split -> label_data_1_split_0
I1020 05:19:20.824385 10951 net.cpp:408] label_data_1_split -> label_data_1_split_1
I1020 05:19:20.824414 10951 net.cpp:150] Setting up label_data_1_split
I1020 05:19:20.824419 10951 net.cpp:157] Top shape: 100 (100)
I1020 05:19:20.824420 10951 net.cpp:157] Top shape: 100 (100)
I1020 05:19:20.824422 10951 net.cpp:165] Memory required for data: 314800
I1020 05:19:20.824424 10951 layer_factory.hpp:77] Creating layer conv1
I1020 05:19:20.824430 10951 net.cpp:100] Creating Layer conv1
I1020 05:19:20.824432 10951 net.cpp:434] conv1 <- data
I1020 05:19:20.824435 10951 net.cpp:408] conv1 -> conv1
I1020 05:19:20.825150 10951 net.cpp:150] Setting up conv1
I1020 05:19:20.825157 10951 net.cpp:157] Top shape: 100 192 24 24 (11059200)
I1020 05:19:20.825160 10951 net.cpp:165] Memory required for data: 44551600
I1020 05:19:20.825166 10951 layer_factory.hpp:77] Creating layer relu1
I1020 05:19:20.825171 10951 net.cpp:100] Creating Layer relu1
I1020 05:19:20.825175 10951 net.cpp:434] relu1 <- conv1
I1020 05:19:20.825177 10951 net.cpp:408] relu1 -> relu1
I1020 05:19:20.825449 10951 net.cpp:150] Setting up relu1
I1020 05:19:20.825464 10951 net.cpp:157] Top shape: 100 192 24 24 (11059200)
I1020 05:19:20.825467 10951 net.cpp:165] Memory required for data: 88788400
I1020 05:19:20.825470 10951 layer_factory.hpp:77] Creating layer drop1
I1020 05:19:20.825475 10951 net.cpp:100] Creating Layer drop1
I1020 05:19:20.825479 10951 net.cpp:434] drop1 <- relu1
I1020 05:19:20.825482 10951 net.cpp:408] drop1 -> drop1
I1020 05:19:20.825508 10951 net.cpp:150] Setting up drop1
I1020 05:19:20.825512 10951 net.cpp:157] Top shape: 100 192 24 24 (11059200)
I1020 05:19:20.825515 10951 net.cpp:165] Memory required for data: 133025200
I1020 05:19:20.825516 10951 layer_factory.hpp:77] Creating layer pool1
I1020 05:19:20.825520 10951 net.cpp:100] Creating Layer pool1
I1020 05:19:20.825522 10951 net.cpp:434] pool1 <- drop1
I1020 05:19:20.825525 10951 net.cpp:408] pool1 -> pool1
I1020 05:19:20.825548 10951 net.cpp:150] Setting up pool1
I1020 05:19:20.825552 10951 net.cpp:157] Top shape: 100 192 12 12 (2764800)
I1020 05:19:20.825554 10951 net.cpp:165] Memory required for data: 144084400
I1020 05:19:20.825556 10951 layer_factory.hpp:77] Creating layer conv2
I1020 05:19:20.825561 10951 net.cpp:100] Creating Layer conv2
I1020 05:19:20.825563 10951 net.cpp:434] conv2 <- pool1
I1020 05:19:20.825568 10951 net.cpp:408] conv2 -> conv2
I1020 05:19:20.826421 10951 net.cpp:150] Setting up conv2
I1020 05:19:20.826431 10951 net.cpp:157] Top shape: 100 192 12 12 (2764800)
I1020 05:19:20.826434 10951 net.cpp:165] Memory required for data: 155143600
I1020 05:19:20.826439 10951 layer_factory.hpp:77] Creating layer relu2
I1020 05:19:20.826444 10951 net.cpp:100] Creating Layer relu2
I1020 05:19:20.826447 10951 net.cpp:434] relu2 <- conv2
I1020 05:19:20.826450 10951 net.cpp:408] relu2 -> relu2
I1020 05:19:20.826570 10951 net.cpp:150] Setting up relu2
I1020 05:19:20.826575 10951 net.cpp:157] Top shape: 100 192 12 12 (2764800)
I1020 05:19:20.826578 10951 net.cpp:165] Memory required for data: 166202800
I1020 05:19:20.826581 10951 layer_factory.hpp:77] Creating layer conv3
I1020 05:19:20.826587 10951 net.cpp:100] Creating Layer conv3
I1020 05:19:20.826591 10951 net.cpp:434] conv3 <- relu2
I1020 05:19:20.826593 10951 net.cpp:408] conv3 -> conv3
I1020 05:19:20.829098 10951 net.cpp:150] Setting up conv3
I1020 05:19:20.829108 10951 net.cpp:157] Top shape: 100 240 10 10 (2400000)
I1020 05:19:20.829110 10951 net.cpp:165] Memory required for data: 175802800
I1020 05:19:20.829115 10951 layer_factory.hpp:77] Creating layer relu3
I1020 05:19:20.829119 10951 net.cpp:100] Creating Layer relu3
I1020 05:19:20.829123 10951 net.cpp:434] relu3 <- conv3
I1020 05:19:20.829126 10951 net.cpp:408] relu3 -> relu3
I1020 05:19:20.829321 10951 net.cpp:150] Setting up relu3
I1020 05:19:20.829329 10951 net.cpp:157] Top shape: 100 240 10 10 (2400000)
I1020 05:19:20.829331 10951 net.cpp:165] Memory required for data: 185402800
I1020 05:19:20.829334 10951 layer_factory.hpp:77] Creating layer drop2
I1020 05:19:20.829336 10951 net.cpp:100] Creating Layer drop2
I1020 05:19:20.829339 10951 net.cpp:434] drop2 <- relu3
I1020 05:19:20.829342 10951 net.cpp:408] drop2 -> drop2
I1020 05:19:20.829367 10951 net.cpp:150] Setting up drop2
I1020 05:19:20.829372 10951 net.cpp:157] Top shape: 100 240 10 10 (2400000)
I1020 05:19:20.829375 10951 net.cpp:165] Memory required for data: 195002800
I1020 05:19:20.829376 10951 layer_factory.hpp:77] Creating layer pool2
I1020 05:19:20.829380 10951 net.cpp:100] Creating Layer pool2
I1020 05:19:20.829381 10951 net.cpp:434] pool2 <- drop2
I1020 05:19:20.829385 10951 net.cpp:408] pool2 -> pool2
I1020 05:19:20.829407 10951 net.cpp:150] Setting up pool2
I1020 05:19:20.829411 10951 net.cpp:157] Top shape: 100 240 5 5 (600000)
I1020 05:19:20.829412 10951 net.cpp:165] Memory required for data: 197402800
I1020 05:19:20.829414 10951 layer_factory.hpp:77] Creating layer conv4
I1020 05:19:20.829419 10951 net.cpp:100] Creating Layer conv4
I1020 05:19:20.829421 10951 net.cpp:434] conv4 <- pool2
I1020 05:19:20.829426 10951 net.cpp:408] conv4 -> conv4
I1020 05:19:20.830279 10951 net.cpp:150] Setting up conv4
I1020 05:19:20.830294 10951 net.cpp:157] Top shape: 100 240 5 5 (600000)
I1020 05:19:20.830296 10951 net.cpp:165] Memory required for data: 199802800
I1020 05:19:20.830299 10951 layer_factory.hpp:77] Creating layer relu4
I1020 05:19:20.830303 10951 net.cpp:100] Creating Layer relu4
I1020 05:19:20.830307 10951 net.cpp:434] relu4 <- conv4
I1020 05:19:20.830310 10951 net.cpp:408] relu4 -> relu4
I1020 05:19:20.830431 10951 net.cpp:150] Setting up relu4
I1020 05:19:20.830438 10951 net.cpp:157] Top shape: 100 240 5 5 (600000)
I1020 05:19:20.830441 10951 net.cpp:165] Memory required for data: 202202800
I1020 05:19:20.830442 10951 layer_factory.hpp:77] Creating layer conv5
I1020 05:19:20.830447 10951 net.cpp:100] Creating Layer conv5
I1020 05:19:20.830448 10951 net.cpp:434] conv5 <- relu4
I1020 05:19:20.830453 10951 net.cpp:408] conv5 -> conv5
I1020 05:19:20.832473 10951 net.cpp:150] Setting up conv5
I1020 05:19:20.832481 10951 net.cpp:157] Top shape: 100 260 4 4 (416000)
I1020 05:19:20.832484 10951 net.cpp:165] Memory required for data: 203866800
I1020 05:19:20.832489 10951 layer_factory.hpp:77] Creating layer relu5
I1020 05:19:20.832494 10951 net.cpp:100] Creating Layer relu5
I1020 05:19:20.832496 10951 net.cpp:434] relu5 <- conv5
I1020 05:19:20.832500 10951 net.cpp:408] relu5 -> relu5
I1020 05:19:20.832695 10951 net.cpp:150] Setting up relu5
I1020 05:19:20.832701 10951 net.cpp:157] Top shape: 100 260 4 4 (416000)
I1020 05:19:20.832703 10951 net.cpp:165] Memory required for data: 205530800
I1020 05:19:20.832705 10951 layer_factory.hpp:77] Creating layer drop3
I1020 05:19:20.832711 10951 net.cpp:100] Creating Layer drop3
I1020 05:19:20.832715 10951 net.cpp:434] drop3 <- relu5
I1020 05:19:20.832717 10951 net.cpp:408] drop3 -> drop3
I1020 05:19:20.832742 10951 net.cpp:150] Setting up drop3
I1020 05:19:20.832747 10951 net.cpp:157] Top shape: 100 260 4 4 (416000)
I1020 05:19:20.832751 10951 net.cpp:165] Memory required for data: 207194800
I1020 05:19:20.832751 10951 layer_factory.hpp:77] Creating layer pool3
I1020 05:19:20.832754 10951 net.cpp:100] Creating Layer pool3
I1020 05:19:20.832757 10951 net.cpp:434] pool3 <- drop3
I1020 05:19:20.832761 10951 net.cpp:408] pool3 -> pool3
I1020 05:19:20.832784 10951 net.cpp:150] Setting up pool3
I1020 05:19:20.832788 10951 net.cpp:157] Top shape: 100 260 2 2 (104000)
I1020 05:19:20.832789 10951 net.cpp:165] Memory required for data: 207610800
I1020 05:19:20.832792 10951 layer_factory.hpp:77] Creating layer conv6
I1020 05:19:20.832797 10951 net.cpp:100] Creating Layer conv6
I1020 05:19:20.832798 10951 net.cpp:434] conv6 <- pool3
I1020 05:19:20.832803 10951 net.cpp:408] conv6 -> conv6
I1020 05:19:20.833961 10951 net.cpp:150] Setting up conv6
I1020 05:19:20.833968 10951 net.cpp:157] Top shape: 100 260 2 2 (104000)
I1020 05:19:20.833971 10951 net.cpp:165] Memory required for data: 208026800
I1020 05:19:20.833974 10951 layer_factory.hpp:77] Creating layer relu6
I1020 05:19:20.833979 10951 net.cpp:100] Creating Layer relu6
I1020 05:19:20.833982 10951 net.cpp:434] relu6 <- conv6
I1020 05:19:20.833986 10951 net.cpp:408] relu6 -> relu6
I1020 05:19:20.834184 10951 net.cpp:150] Setting up relu6
I1020 05:19:20.834192 10951 net.cpp:157] Top shape: 100 260 2 2 (104000)
I1020 05:19:20.834193 10951 net.cpp:165] Memory required for data: 208442800
I1020 05:19:20.834195 10951 layer_factory.hpp:77] Creating layer conv7
I1020 05:19:20.834200 10951 net.cpp:100] Creating Layer conv7
I1020 05:19:20.834203 10951 net.cpp:434] conv7 <- relu6
I1020 05:19:20.834208 10951 net.cpp:408] conv7 -> conv7
I1020 05:19:20.836624 10951 net.cpp:150] Setting up conv7
I1020 05:19:20.836639 10951 net.cpp:157] Top shape: 100 280 1 1 (28000)
I1020 05:19:20.836642 10951 net.cpp:165] Memory required for data: 208554800
I1020 05:19:20.836647 10951 layer_factory.hpp:77] Creating layer relu7
I1020 05:19:20.836653 10951 net.cpp:100] Creating Layer relu7
I1020 05:19:20.836657 10951 net.cpp:434] relu7 <- conv7
I1020 05:19:20.836661 10951 net.cpp:408] relu7 -> relu7
I1020 05:19:20.836786 10951 net.cpp:150] Setting up relu7
I1020 05:19:20.836791 10951 net.cpp:157] Top shape: 100 280 1 1 (28000)
I1020 05:19:20.836803 10951 net.cpp:165] Memory required for data: 208666800
I1020 05:19:20.836805 10951 layer_factory.hpp:77] Creating layer drop4
I1020 05:19:20.836810 10951 net.cpp:100] Creating Layer drop4
I1020 05:19:20.836812 10951 net.cpp:434] drop4 <- relu7
I1020 05:19:20.836815 10951 net.cpp:408] drop4 -> drop4
I1020 05:19:20.836843 10951 net.cpp:150] Setting up drop4
I1020 05:19:20.836848 10951 net.cpp:157] Top shape: 100 280 1 1 (28000)
I1020 05:19:20.836849 10951 net.cpp:165] Memory required for data: 208778800
I1020 05:19:20.836850 10951 layer_factory.hpp:77] Creating layer pool4
I1020 05:19:20.836855 10951 net.cpp:100] Creating Layer pool4
I1020 05:19:20.836858 10951 net.cpp:434] pool4 <- drop4
I1020 05:19:20.836860 10951 net.cpp:408] pool4 -> pool4
I1020 05:19:20.836886 10951 net.cpp:150] Setting up pool4
I1020 05:19:20.836890 10951 net.cpp:157] Top shape: 100 280 1 1 (28000)
I1020 05:19:20.836892 10951 net.cpp:165] Memory required for data: 208890800
I1020 05:19:20.836894 10951 layer_factory.hpp:77] Creating layer conv8
I1020 05:19:20.836899 10951 net.cpp:100] Creating Layer conv8
I1020 05:19:20.836902 10951 net.cpp:434] conv8 <- pool4
I1020 05:19:20.836906 10951 net.cpp:408] conv8 -> conv8
I1020 05:19:20.837859 10951 net.cpp:150] Setting up conv8
I1020 05:19:20.837867 10951 net.cpp:157] Top shape: 100 280 1 1 (28000)
I1020 05:19:20.837869 10951 net.cpp:165] Memory required for data: 209002800
I1020 05:19:20.837873 10951 layer_factory.hpp:77] Creating layer relu8
I1020 05:19:20.837877 10951 net.cpp:100] Creating Layer relu8
I1020 05:19:20.837879 10951 net.cpp:434] relu8 <- conv8
I1020 05:19:20.837883 10951 net.cpp:408] relu8 -> relu8
I1020 05:19:20.838004 10951 net.cpp:150] Setting up relu8
I1020 05:19:20.838009 10951 net.cpp:157] Top shape: 100 280 1 1 (28000)
I1020 05:19:20.838011 10951 net.cpp:165] Memory required for data: 209114800
I1020 05:19:20.838014 10951 layer_factory.hpp:77] Creating layer drop5
I1020 05:19:20.838017 10951 net.cpp:100] Creating Layer drop5
I1020 05:19:20.838021 10951 net.cpp:434] drop5 <- relu8
I1020 05:19:20.838023 10951 net.cpp:408] drop5 -> drop5
I1020 05:19:20.838050 10951 net.cpp:150] Setting up drop5
I1020 05:19:20.838053 10951 net.cpp:157] Top shape: 100 280 1 1 (28000)
I1020 05:19:20.838055 10951 net.cpp:165] Memory required for data: 209226800
I1020 05:19:20.838057 10951 layer_factory.hpp:77] Creating layer pool5
I1020 05:19:20.838060 10951 net.cpp:100] Creating Layer pool5
I1020 05:19:20.838063 10951 net.cpp:434] pool5 <- drop5
I1020 05:19:20.838066 10951 net.cpp:408] pool5 -> pool5
I1020 05:19:20.838091 10951 net.cpp:150] Setting up pool5
I1020 05:19:20.838095 10951 net.cpp:157] Top shape: 100 280 1 1 (28000)
I1020 05:19:20.838099 10951 net.cpp:165] Memory required for data: 209338800
I1020 05:19:20.838100 10951 layer_factory.hpp:77] Creating layer conv10
I1020 05:19:20.838105 10951 net.cpp:100] Creating Layer conv10
I1020 05:19:20.838107 10951 net.cpp:434] conv10 <- pool5
I1020 05:19:20.838111 10951 net.cpp:408] conv10 -> conv10
I1020 05:19:20.839087 10951 net.cpp:150] Setting up conv10
I1020 05:19:20.839094 10951 net.cpp:157] Top shape: 100 300 1 1 (30000)
I1020 05:19:20.839097 10951 net.cpp:165] Memory required for data: 209458800
I1020 05:19:20.839103 10951 layer_factory.hpp:77] Creating layer relu10
I1020 05:19:20.839108 10951 net.cpp:100] Creating Layer relu10
I1020 05:19:20.839112 10951 net.cpp:434] relu10 <- conv10
I1020 05:19:20.839114 10951 net.cpp:408] relu10 -> relu10
I1020 05:19:20.839313 10951 net.cpp:150] Setting up relu10
I1020 05:19:20.839320 10951 net.cpp:157] Top shape: 100 300 1 1 (30000)
I1020 05:19:20.839323 10951 net.cpp:165] Memory required for data: 209578800
I1020 05:19:20.839324 10951 layer_factory.hpp:77] Creating layer drop6
I1020 05:19:20.839328 10951 net.cpp:100] Creating Layer drop6
I1020 05:19:20.839329 10951 net.cpp:434] drop6 <- relu10
I1020 05:19:20.839334 10951 net.cpp:408] drop6 -> drop6
I1020 05:19:20.839362 10951 net.cpp:150] Setting up drop6
I1020 05:19:20.839367 10951 net.cpp:157] Top shape: 100 300 1 1 (30000)
I1020 05:19:20.839376 10951 net.cpp:165] Memory required for data: 209698800
I1020 05:19:20.839378 10951 layer_factory.hpp:77] Creating layer pool6
I1020 05:19:20.839381 10951 net.cpp:100] Creating Layer pool6
I1020 05:19:20.839383 10951 net.cpp:434] pool6 <- drop6
I1020 05:19:20.839386 10951 net.cpp:408] pool6 -> pool6
I1020 05:19:20.839411 10951 net.cpp:150] Setting up pool6
I1020 05:19:20.839416 10951 net.cpp:157] Top shape: 100 300 1 1 (30000)
I1020 05:19:20.839417 10951 net.cpp:165] Memory required for data: 209818800
I1020 05:19:20.839419 10951 layer_factory.hpp:77] Creating layer conv11
I1020 05:19:20.839427 10951 net.cpp:100] Creating Layer conv11
I1020 05:19:20.839429 10951 net.cpp:434] conv11 <- pool6
I1020 05:19:20.839432 10951 net.cpp:408] conv11 -> conv11
I1020 05:19:20.840209 10951 net.cpp:150] Setting up conv11
I1020 05:19:20.840216 10951 net.cpp:157] Top shape: 100 100 1 1 (10000)
I1020 05:19:20.840219 10951 net.cpp:165] Memory required for data: 209858800
I1020 05:19:20.840221 10951 layer_factory.hpp:77] Creating layer relu11
I1020 05:19:20.840226 10951 net.cpp:100] Creating Layer relu11
I1020 05:19:20.840229 10951 net.cpp:434] relu11 <- conv11
I1020 05:19:20.840232 10951 net.cpp:408] relu11 -> relu11
I1020 05:19:20.840363 10951 net.cpp:150] Setting up relu11
I1020 05:19:20.840370 10951 net.cpp:157] Top shape: 100 100 1 1 (10000)
I1020 05:19:20.840373 10951 net.cpp:165] Memory required for data: 209898800
I1020 05:19:20.840375 10951 layer_factory.hpp:77] Creating layer drop7
I1020 05:19:20.840378 10951 net.cpp:100] Creating Layer drop7
I1020 05:19:20.840380 10951 net.cpp:434] drop7 <- relu11
I1020 05:19:20.840384 10951 net.cpp:408] drop7 -> drop7
I1020 05:19:20.840411 10951 net.cpp:150] Setting up drop7
I1020 05:19:20.840415 10951 net.cpp:157] Top shape: 100 100 1 1 (10000)
I1020 05:19:20.840417 10951 net.cpp:165] Memory required for data: 209938800
I1020 05:19:20.840420 10951 layer_factory.hpp:77] Creating layer pool7
I1020 05:19:20.840422 10951 net.cpp:100] Creating Layer pool7
I1020 05:19:20.840425 10951 net.cpp:434] pool7 <- drop7
I1020 05:19:20.840428 10951 net.cpp:408] pool7 -> pool7
I1020 05:19:20.840454 10951 net.cpp:150] Setting up pool7
I1020 05:19:20.840457 10951 net.cpp:157] Top shape: 100 100 1 1 (10000)
I1020 05:19:20.840459 10951 net.cpp:165] Memory required for data: 209978800
I1020 05:19:20.840461 10951 layer_factory.hpp:77] Creating layer score
I1020 05:19:20.840464 10951 net.cpp:100] Creating Layer score
I1020 05:19:20.840466 10951 net.cpp:434] score <- pool7
I1020 05:19:20.840469 10951 net.cpp:408] score -> score
I1020 05:19:20.840553 10951 net.cpp:150] Setting up score
I1020 05:19:20.840559 10951 net.cpp:157] Top shape: 100 10 (1000)
I1020 05:19:20.840559 10951 net.cpp:165] Memory required for data: 209982800
I1020 05:19:20.840562 10951 layer_factory.hpp:77] Creating layer score_score_0_split
I1020 05:19:20.840566 10951 net.cpp:100] Creating Layer score_score_0_split
I1020 05:19:20.840569 10951 net.cpp:434] score_score_0_split <- score
I1020 05:19:20.840574 10951 net.cpp:408] score_score_0_split -> score_score_0_split_0
I1020 05:19:20.840579 10951 net.cpp:408] score_score_0_split -> score_score_0_split_1
I1020 05:19:20.840601 10951 net.cpp:150] Setting up score_score_0_split
I1020 05:19:20.840605 10951 net.cpp:157] Top shape: 100 10 (1000)
I1020 05:19:20.840607 10951 net.cpp:157] Top shape: 100 10 (1000)
I1020 05:19:20.840608 10951 net.cpp:165] Memory required for data: 209990800
I1020 05:19:20.840610 10951 layer_factory.hpp:77] Creating layer accuracy
I1020 05:19:20.840615 10951 net.cpp:100] Creating Layer accuracy
I1020 05:19:20.840617 10951 net.cpp:434] accuracy <- score_score_0_split_0
I1020 05:19:20.840620 10951 net.cpp:434] accuracy <- label_data_1_split_0
I1020 05:19:20.840622 10951 net.cpp:408] accuracy -> accuracy
…
