…
  level: 0
  stage: ""
}
type: "AdaDelta"
I1020 04:17:15.614028 10370 solver.cpp:81] Creating training net from train_net file: /home/adam/Honours/Honours-Project/mnist_pooling/max/elu/poolcnn_elu_train.prototxt
I1020 04:17:15.614315 10370 net.cpp:58] Initializing net from parameters: 
state {
  phase: TRAIN
  level: 0
  stage: ""
}
layer {
  name: "data"
  type: "Data"
  top: "data"
  top: "label"
  transform_param {
    scale: 0.0039215689
  }
  data_param {
    source: "../../../../data/mnist/mnist_train_lmdb"
    batch_size: 64
    backend: LMDB
  }
}
layer {
  name: "conv1"
  type: "Convolution"
  bottom: "data"
  top: "conv1"
  convolution_param {
    num_output: 192
    kernel_size: 5
    weight_filler {
      type: "xavier"
    }
  }
}
layer {
  name: "elu1"
  type: "ELU"
  bottom: "conv1"
  top: "elu1"
}
layer {
  name: "drop1"
  type: "Dropout"
  bottom: "elu1"
  top: "drop1"
  dropout_param {
    dropout_ratio: 0
  }
}
layer {
  name: "pool1"
  type: "Pooling"
  bottom: "drop1"
  top: "pool1"
  pooling_param {
    pool: MAX
    kernel_size: 2
    stride: 2
  }
}
layer {
  name: "conv2"
  type: "Convolution"
  bottom: "pool1"
  top: "conv2"
  convolution_param {
    num_output: 192
    kernel_size: 1
    weight_filler {
      type: "xavier"
    }
  }
}
layer {
  name: "elu2"
  type: "ELU"
  bottom: "conv2"
  top: "elu2"
}
layer {
  name: "conv3"
  type: "Convolution"
  bottom: "elu2"
  top: "conv3"
  convolution_param {
    num_output: 240
    kernel_size: 3
    weight_filler {
      type: "xavier"
    }
  }
}
layer {
  name: "elu3"
  type: "ELU"
  bottom: "conv3"
  top: "elu3"
}
layer {
  name: "drop2"
  type: "Dropout"
  bottom: "elu3"
  top: "drop2"
  dropout_param {
    dropout_ratio: 0.1
  }
}
layer {
  name: "pool2"
  type: "Pooling"
  bottom: "drop2"
  top: "pool2"
  pooling_param {
    pool: MAX
    kernel_size: 2
    stride: 2
  }
}
layer {
  name: "conv4"
  type: "Convolution"
  bottom: "pool2"
  top: "conv4"
  convolution_param {
    num_output: 240
    kernel_size: 1
    weight_filler {
      type: "xavier"
    }
  }
}
layer {
  name: "elu4"
  type: "ELU"
  bottom: "conv4"
  top: "elu4"
}
layer {
  name: "conv5"
  type: "Convolution"
  bottom: "elu4"
  top: "conv5"
  convolution_param {
    num_output: 260
    kernel_size: 2
    weight_filler {
      type: "xavier"
    }
  }
}
layer {
  name: "elu5"
  type: "ELU"
  bottom: "conv5"
  top: "elu5"
}
layer {
  name: "drop3"
  type: "Dropout"
  bottom: "elu5"
  top: "drop3"
  dropout_param {
    dropout_ratio: 0.2
  }
}
layer {
  name: "pool3"
  type: "Pooling"
  bottom: "drop3"
  top: "pool3"
  pooling_param {
    pool: MAX
    kernel_size: 2
    stride: 2
  }
}
layer {
  name: "conv6"
  type: "Convolution"
  bottom: "pool3"
  top: "conv6"
  convolution_param {
    num_output: 260
    kernel_size: 1
    weight_filler {
      type: "xavier"
    }
  }
}
layer {
  name: "elu6"
  type: "ELU"
  bottom: "conv6"
  top: "elu6"
}
layer {
  name: "conv7"
  type: "Convolution"
  bottom: "elu6"
  top: "conv7"
  convolution_param {
    num_output: 280
    kernel_size: 2
    weight_filler {
      type: "xavier"
    }
  }
}
layer {
  name: "elu7"
  type: "ELU"
  bottom: "conv7"
  top: "elu7"
}
layer {
  name: "drop4"
  type: "Dropout"
  bottom: "elu7"
  top: "drop4"
  dropout_param {
    dropout_ratio: 0.3
  }
}
layer {
  name: "pool4"
  type: "Pooling"
  bottom: "drop4"
  top: "pool4"
  pooling_param {
    pool: MAX
    kernel_size: 2
    stride: 2
  }
}
layer {
  name: "conv8"
  type: "Convolution"
  bottom: "pool4"
  top: "conv8"
  convolution_param {
    num_output: 280
    kernel_size: 1
    weight_filler {
      type: "xavier"
    }
  }
}
layer {
  name: "elu8"
  type: "ELU"
  bottom: "conv8"
  top: "elu8"
}
layer {
  name: "drop5"
  type: "Dropout"
  bottom: "elu8"
  top: "drop5"
  dropout_param {
    dropout_ratio: 0.4
  }
}
layer {
  name: "pool5"
  type: "Pooling"
  bottom: "drop5"
  top: "pool5"
  pooling_param {
    pool: MAX
    kernel_size: 2
    stride: 2
  }
}
layer {
  name: "conv10"
  type: "Convolution"
  bottom: "pool5"
  top: "conv10"
  convolution_param {
    num_output: 300
    kernel_size: 1
    weight_filler {
      type: "xavier"
    }
  }
}
layer {
  name: "elu10"
  type: "ELU"
  bottom: "conv10"
  top: "elu10"
}
layer {
  name: "drop6"
  type: "Dropout"
  bottom: "elu10"
  top: "drop6"
  dropout_param {
    dropout_ratio: 0.5
  }
}
layer {
  name: "pool6"
  type: "Pooling"
  bottom: "drop6"
  top: "pool6"
  pooling_param {
    pool: MAX
    kernel_size: 2
    stride: 2
  }
}
layer {
  name: "conv11"
  type: "Convolution"
  bottom: "pool6"
  top: "conv11"
  convolution_param {
    num_output: 100
    kernel_size: 1
    weight_filler {
      type: "xavier"
    }
  }
}
layer {
  name: "elu11"
  type: "ELU"
  bottom: "conv11"
  top: "elu11"
}
layer {
  name: "drop7"
  type: "Dropout"
  bottom: "elu11"
  top: "drop7"
  dropout_param {
    dropout_ratio: 0
  }
}
layer {
  name: "pool7"
  type: "Pooling"
  bottom: "drop7"
  top: "pool7"
  pooling_param {
    pool: MAX
    kernel_size: 2
    stride: 2
  }
}
layer {
  name: "score"
  type: "InnerProduct"
  bottom: "pool7"
  top: "score"
  inner_product_param {
    num_output: 10
    weight_filler {
      type: "gaussian"
    }
  }
}
layer {
  name: "accuracy"
  type: "Accuracy"
  bottom: "score"
  bottom: "label"
  top: "accuracy"
}
layer {
  name: "loss"
  type: "SoftmaxWithLoss"
  bottom: "score"
  bottom: "label"
  top: "loss"
}
I1020 04:17:15.614435 10370 layer_factory.hpp:77] Creating layer data
I1020 04:17:15.614909 10370 net.cpp:100] Creating Layer data
I1020 04:17:15.614917 10370 net.cpp:408] data -> data
I1020 04:17:15.614933 10370 net.cpp:408] data -> label
I1020 04:17:15.615551 10375 db_lmdb.cpp:35] Opened lmdb ../../../../data/mnist/mnist_train_lmdb
I1020 04:17:15.621690 10370 data_layer.cpp:41] output data size: 64,1,28,28
I1020 04:17:15.622335 10370 net.cpp:150] Setting up data
I1020 04:17:15.622349 10370 net.cpp:157] Top shape: 64 1 28 28 (50176)
I1020 04:17:15.622351 10370 net.cpp:157] Top shape: 64 (64)
I1020 04:17:15.622354 10370 net.cpp:165] Memory required for data: 200960
I1020 04:17:15.622364 10370 layer_factory.hpp:77] Creating layer label_data_1_split
I1020 04:17:15.622375 10370 net.cpp:100] Creating Layer label_data_1_split
I1020 04:17:15.622380 10370 net.cpp:434] label_data_1_split <- label
I1020 04:17:15.622397 10370 net.cpp:408] label_data_1_split -> label_data_1_split_0
I1020 04:17:15.622408 10370 net.cpp:408] label_data_1_split -> label_data_1_split_1
I1020 04:17:15.622447 10370 net.cpp:150] Setting up label_data_1_split
I1020 04:17:15.622453 10370 net.cpp:157] Top shape: 64 (64)
I1020 04:17:15.622458 10370 net.cpp:157] Top shape: 64 (64)
I1020 04:17:15.622462 10370 net.cpp:165] Memory required for data: 201472
I1020 04:17:15.622465 10370 layer_factory.hpp:77] Creating layer conv1
I1020 04:17:15.622481 10370 net.cpp:100] Creating Layer conv1
I1020 04:17:15.622485 10370 net.cpp:434] conv1 <- data
I1020 04:17:15.622488 10370 net.cpp:408] conv1 -> conv1
I1020 04:17:15.744135 10370 net.cpp:150] Setting up conv1
I1020 04:17:15.744161 10370 net.cpp:157] Top shape: 64 192 24 24 (7077888)
I1020 04:17:15.744164 10370 net.cpp:165] Memory required for data: 28513024
I1020 04:17:15.744181 10370 layer_factory.hpp:77] Creating layer elu1
I1020 04:17:15.744191 10370 net.cpp:100] Creating Layer elu1
I1020 04:17:15.744194 10370 net.cpp:434] elu1 <- conv1
I1020 04:17:15.744199 10370 net.cpp:408] elu1 -> elu1
I1020 04:17:15.744221 10370 net.cpp:150] Setting up elu1
I1020 04:17:15.744227 10370 net.cpp:157] Top shape: 64 192 24 24 (7077888)
I1020 04:17:15.744243 10370 net.cpp:165] Memory required for data: 56824576
I1020 04:17:15.744247 10370 layer_factory.hpp:77] Creating layer drop1
I1020 04:17:15.744254 10370 net.cpp:100] Creating Layer drop1
I1020 04:17:15.744258 10370 net.cpp:434] drop1 <- elu1
I1020 04:17:15.744264 10370 net.cpp:408] drop1 -> drop1
I1020 04:17:15.744300 10370 net.cpp:150] Setting up drop1
I1020 04:17:15.744305 10370 net.cpp:157] Top shape: 64 192 24 24 (7077888)
I1020 04:17:15.744307 10370 net.cpp:165] Memory required for data: 85136128
I1020 04:17:15.744310 10370 layer_factory.hpp:77] Creating layer pool1
I1020 04:17:15.744316 10370 net.cpp:100] Creating Layer pool1
I1020 04:17:15.744320 10370 net.cpp:434] pool1 <- drop1
I1020 04:17:15.744326 10370 net.cpp:408] pool1 -> pool1
I1020 04:17:15.744360 10370 net.cpp:150] Setting up pool1
I1020 04:17:15.744365 10370 net.cpp:157] Top shape: 64 192 12 12 (1769472)
I1020 04:17:15.744369 10370 net.cpp:165] Memory required for data: 92214016
I1020 04:17:15.744370 10370 layer_factory.hpp:77] Creating layer conv2
I1020 04:17:15.744379 10370 net.cpp:100] Creating Layer conv2
I1020 04:17:15.744385 10370 net.cpp:434] conv2 <- pool1
I1020 04:17:15.744388 10370 net.cpp:408] conv2 -> conv2
I1020 04:17:15.745120 10370 net.cpp:150] Setting up conv2
I1020 04:17:15.745127 10370 net.cpp:157] Top shape: 64 192 12 12 (1769472)
I1020 04:17:15.745131 10370 net.cpp:165] Memory required for data: 99291904
I1020 04:17:15.745139 10370 layer_factory.hpp:77] Creating layer elu2
I1020 04:17:15.745144 10370 net.cpp:100] Creating Layer elu2
I1020 04:17:15.745149 10370 net.cpp:434] elu2 <- conv2
I1020 04:17:15.745156 10370 net.cpp:408] elu2 -> elu2
I1020 04:17:15.745174 10370 net.cpp:150] Setting up elu2
I1020 04:17:15.745179 10370 net.cpp:157] Top shape: 64 192 12 12 (1769472)
I1020 04:17:15.745182 10370 net.cpp:165] Memory required for data: 106369792
I1020 04:17:15.745185 10370 layer_factory.hpp:77] Creating layer conv3
I1020 04:17:15.745193 10370 net.cpp:100] Creating Layer conv3
I1020 04:17:15.745198 10370 net.cpp:434] conv3 <- elu2
I1020 04:17:15.745203 10370 net.cpp:408] conv3 -> conv3
I1020 04:17:15.747617 10370 net.cpp:150] Setting up conv3
I1020 04:17:15.747624 10370 net.cpp:157] Top shape: 64 240 10 10 (1536000)
I1020 04:17:15.747627 10370 net.cpp:165] Memory required for data: 112513792
I1020 04:17:15.747635 10370 layer_factory.hpp:77] Creating layer elu3
I1020 04:17:15.747642 10370 net.cpp:100] Creating Layer elu3
I1020 04:17:15.747647 10370 net.cpp:434] elu3 <- conv3
I1020 04:17:15.747651 10370 net.cpp:408] elu3 -> elu3
I1020 04:17:15.747671 10370 net.cpp:150] Setting up elu3
I1020 04:17:15.747676 10370 net.cpp:157] Top shape: 64 240 10 10 (1536000)
I1020 04:17:15.747679 10370 net.cpp:165] Memory required for data: 118657792
I1020 04:17:15.747681 10370 layer_factory.hpp:77] Creating layer drop2
I1020 04:17:15.747687 10370 net.cpp:100] Creating Layer drop2
I1020 04:17:15.747691 10370 net.cpp:434] drop2 <- elu3
I1020 04:17:15.747697 10370 net.cpp:408] drop2 -> drop2
I1020 04:17:15.747723 10370 net.cpp:150] Setting up drop2
I1020 04:17:15.747728 10370 net.cpp:157] Top shape: 64 240 10 10 (1536000)
I1020 04:17:15.747731 10370 net.cpp:165] Memory required for data: 124801792
I1020 04:17:15.747735 10370 layer_factory.hpp:77] Creating layer pool2
I1020 04:17:15.747738 10370 net.cpp:100] Creating Layer pool2
I1020 04:17:15.747742 10370 net.cpp:434] pool2 <- drop2
I1020 04:17:15.747748 10370 net.cpp:408] pool2 -> pool2
I1020 04:17:15.747774 10370 net.cpp:150] Setting up pool2
I1020 04:17:15.747778 10370 net.cpp:157] Top shape: 64 240 5 5 (384000)
I1020 04:17:15.747781 10370 net.cpp:165] Memory required for data: 126337792
I1020 04:17:15.747786 10370 layer_factory.hpp:77] Creating layer conv4
I1020 04:17:15.747792 10370 net.cpp:100] Creating Layer conv4
I1020 04:17:15.747797 10370 net.cpp:434] conv4 <- pool2
I1020 04:17:15.747802 10370 net.cpp:408] conv4 -> conv4
I1020 04:17:15.748605 10370 net.cpp:150] Setting up conv4
I1020 04:17:15.748613 10370 net.cpp:157] Top shape: 64 240 5 5 (384000)
I1020 04:17:15.748615 10370 net.cpp:165] Memory required for data: 127873792
I1020 04:17:15.748633 10370 layer_factory.hpp:77] Creating layer elu4
I1020 04:17:15.748641 10370 net.cpp:100] Creating Layer elu4
I1020 04:17:15.748646 10370 net.cpp:434] elu4 <- conv4
I1020 04:17:15.748649 10370 net.cpp:408] elu4 -> elu4
I1020 04:17:15.748669 10370 net.cpp:150] Setting up elu4
I1020 04:17:15.748674 10370 net.cpp:157] Top shape: 64 240 5 5 (384000)
I1020 04:17:15.748677 10370 net.cpp:165] Memory required for data: 129409792
I1020 04:17:15.748678 10370 layer_factory.hpp:77] Creating layer conv5
I1020 04:17:15.748687 10370 net.cpp:100] Creating Layer conv5
I1020 04:17:15.748690 10370 net.cpp:434] conv5 <- elu4
I1020 04:17:15.748697 10370 net.cpp:408] conv5 -> conv5
I1020 04:17:15.750442 10370 net.cpp:150] Setting up conv5
I1020 04:17:15.750452 10370 net.cpp:157] Top shape: 64 260 4 4 (266240)
I1020 04:17:15.750455 10370 net.cpp:165] Memory required for data: 130474752
I1020 04:17:15.750464 10370 layer_factory.hpp:77] Creating layer elu5
I1020 04:17:15.750469 10370 net.cpp:100] Creating Layer elu5
I1020 04:17:15.750473 10370 net.cpp:434] elu5 <- conv5
I1020 04:17:15.750478 10370 net.cpp:408] elu5 -> elu5
I1020 04:17:15.750500 10370 net.cpp:150] Setting up elu5
I1020 04:17:15.750509 10370 net.cpp:157] Top shape: 64 260 4 4 (266240)
I1020 04:17:15.750511 10370 net.cpp:165] Memory required for data: 131539712
I1020 04:17:15.750514 10370 layer_factory.hpp:77] Creating layer drop3
I1020 04:17:15.750520 10370 net.cpp:100] Creating Layer drop3
I1020 04:17:15.750522 10370 net.cpp:434] drop3 <- elu5
I1020 04:17:15.750526 10370 net.cpp:408] drop3 -> drop3
I1020 04:17:15.750548 10370 net.cpp:150] Setting up drop3
I1020 04:17:15.750552 10370 net.cpp:157] Top shape: 64 260 4 4 (266240)
I1020 04:17:15.750555 10370 net.cpp:165] Memory required for data: 132604672
I1020 04:17:15.750555 10370 layer_factory.hpp:77] Creating layer pool3
I1020 04:17:15.750558 10370 net.cpp:100] Creating Layer pool3
I1020 04:17:15.750561 10370 net.cpp:434] pool3 <- drop3
I1020 04:17:15.750563 10370 net.cpp:408] pool3 -> pool3
I1020 04:17:15.750582 10370 net.cpp:150] Setting up pool3
I1020 04:17:15.750586 10370 net.cpp:157] Top shape: 64 260 2 2 (66560)
I1020 04:17:15.750588 10370 net.cpp:165] Memory required for data: 132870912
I1020 04:17:15.750589 10370 layer_factory.hpp:77] Creating layer conv6
I1020 04:17:15.750593 10370 net.cpp:100] Creating Layer conv6
I1020 04:17:15.750597 10370 net.cpp:434] conv6 <- pool3
I1020 04:17:15.750599 10370 net.cpp:408] conv6 -> conv6
I1020 04:17:15.751776 10370 net.cpp:150] Setting up conv6
I1020 04:17:15.751788 10370 net.cpp:157] Top shape: 64 260 2 2 (66560)
I1020 04:17:15.751791 10370 net.cpp:165] Memory required for data: 133137152
I1020 04:17:15.751796 10370 layer_factory.hpp:77] Creating layer elu6
I1020 04:17:15.751801 10370 net.cpp:100] Creating Layer elu6
I1020 04:17:15.751802 10370 net.cpp:434] elu6 <- conv6
I1020 04:17:15.751806 10370 net.cpp:408] elu6 -> elu6
I1020 04:17:15.751823 10370 net.cpp:150] Setting up elu6
I1020 04:17:15.751827 10370 net.cpp:157] Top shape: 64 260 2 2 (66560)
I1020 04:17:15.751827 10370 net.cpp:165] Memory required for data: 133403392
I1020 04:17:15.751829 10370 layer_factory.hpp:77] Creating layer conv7
I1020 04:17:15.751837 10370 net.cpp:100] Creating Layer conv7
I1020 04:17:15.751838 10370 net.cpp:434] conv7 <- elu6
I1020 04:17:15.751842 10370 net.cpp:408] conv7 -> conv7
I1020 04:17:15.753757 10370 net.cpp:150] Setting up conv7
I1020 04:17:15.753772 10370 net.cpp:157] Top shape: 64 280 1 1 (17920)
I1020 04:17:15.753772 10370 net.cpp:165] Memory required for data: 133475072
I1020 04:17:15.753777 10370 layer_factory.hpp:77] Creating layer elu7
I1020 04:17:15.753780 10370 net.cpp:100] Creating Layer elu7
I1020 04:17:15.753783 10370 net.cpp:434] elu7 <- conv7
I1020 04:17:15.753787 10370 net.cpp:408] elu7 -> elu7
I1020 04:17:15.753803 10370 net.cpp:150] Setting up elu7
I1020 04:17:15.753806 10370 net.cpp:157] Top shape: 64 280 1 1 (17920)
I1020 04:17:15.753808 10370 net.cpp:165] Memory required for data: 133546752
I1020 04:17:15.753821 10370 layer_factory.hpp:77] Creating layer drop4
I1020 04:17:15.753825 10370 net.cpp:100] Creating Layer drop4
I1020 04:17:15.753828 10370 net.cpp:434] drop4 <- elu7
I1020 04:17:15.753831 10370 net.cpp:408] drop4 -> drop4
I1020 04:17:15.753854 10370 net.cpp:150] Setting up drop4
I1020 04:17:15.753856 10370 net.cpp:157] Top shape: 64 280 1 1 (17920)
I1020 04:17:15.753859 10370 net.cpp:165] Memory required for data: 133618432
I1020 04:17:15.753861 10370 layer_factory.hpp:77] Creating layer pool4
I1020 04:17:15.753865 10370 net.cpp:100] Creating Layer pool4
I1020 04:17:15.753866 10370 net.cpp:434] pool4 <- drop4
I1020 04:17:15.753868 10370 net.cpp:408] pool4 -> pool4
I1020 04:17:15.753892 10370 net.cpp:150] Setting up pool4
I1020 04:17:15.753895 10370 net.cpp:157] Top shape: 64 280 1 1 (17920)
I1020 04:17:15.753897 10370 net.cpp:165] Memory required for data: 133690112
I1020 04:17:15.753898 10370 layer_factory.hpp:77] Creating layer conv8
I1020 04:17:15.753904 10370 net.cpp:100] Creating Layer conv8
I1020 04:17:15.753906 10370 net.cpp:434] conv8 <- pool4
I1020 04:17:15.753909 10370 net.cpp:408] conv8 -> conv8
I1020 04:17:15.754824 10370 net.cpp:150] Setting up conv8
I1020 04:17:15.754832 10370 net.cpp:157] Top shape: 64 280 1 1 (17920)
I1020 04:17:15.754834 10370 net.cpp:165] Memory required for data: 133761792
I1020 04:17:15.754837 10370 layer_factory.hpp:77] Creating layer elu8
I1020 04:17:15.754842 10370 net.cpp:100] Creating Layer elu8
I1020 04:17:15.754843 10370 net.cpp:434] elu8 <- conv8
I1020 04:17:15.754847 10370 net.cpp:408] elu8 -> elu8
I1020 04:17:15.754861 10370 net.cpp:150] Setting up elu8
I1020 04:17:15.754864 10370 net.cpp:157] Top shape: 64 280 1 1 (17920)
I1020 04:17:15.754866 10370 net.cpp:165] Memory required for data: 133833472
I1020 04:17:15.754868 10370 layer_factory.hpp:77] Creating layer drop5
I1020 04:17:15.754870 10370 net.cpp:100] Creating Layer drop5
I1020 04:17:15.754873 10370 net.cpp:434] drop5 <- elu8
I1020 04:17:15.754876 10370 net.cpp:408] drop5 -> drop5
I1020 04:17:15.754899 10370 net.cpp:150] Setting up drop5
I1020 04:17:15.754904 10370 net.cpp:157] Top shape: 64 280 1 1 (17920)
I1020 04:17:15.754904 10370 net.cpp:165] Memory required for data: 133905152
I1020 04:17:15.754906 10370 layer_factory.hpp:77] Creating layer pool5
I1020 04:17:15.754909 10370 net.cpp:100] Creating Layer pool5
I1020 04:17:15.754910 10370 net.cpp:434] pool5 <- drop5
I1020 04:17:15.754914 10370 net.cpp:408] pool5 -> pool5
I1020 04:17:15.754935 10370 net.cpp:150] Setting up pool5
I1020 04:17:15.754938 10370 net.cpp:157] Top shape: 64 280 1 1 (17920)
I1020 04:17:15.754940 10370 net.cpp:165] Memory required for data: 133976832
I1020 04:17:15.754941 10370 layer_factory.hpp:77] Creating layer conv10
I1020 04:17:15.754947 10370 net.cpp:100] Creating Layer conv10
I1020 04:17:15.754951 10370 net.cpp:434] conv10 <- pool5
I1020 04:17:15.754953 10370 net.cpp:408] conv10 -> conv10
I1020 04:17:15.755885 10370 net.cpp:150] Setting up conv10
I1020 04:17:15.755893 10370 net.cpp:157] Top shape: 64 300 1 1 (19200)
I1020 04:17:15.755894 10370 net.cpp:165] Memory required for data: 134053632
I1020 04:17:15.755903 10370 layer_factory.hpp:77] Creating layer elu10
I1020 04:17:15.755905 10370 net.cpp:100] Creating Layer elu10
I1020 04:17:15.755908 10370 net.cpp:434] elu10 <- conv10
I1020 04:17:15.755911 10370 net.cpp:408] elu10 -> elu10
I1020 04:17:15.755925 10370 net.cpp:150] Setting up elu10
I1020 04:17:15.755930 10370 net.cpp:157] Top shape: 64 300 1 1 (19200)
I1020 04:17:15.755934 10370 net.cpp:165] Memory required for data: 134130432
I1020 04:17:15.755934 10370 layer_factory.hpp:77] Creating layer drop6
I1020 04:17:15.755937 10370 net.cpp:100] Creating Layer drop6
I1020 04:17:15.755940 10370 net.cpp:434] drop6 <- elu10
I1020 04:17:15.755944 10370 net.cpp:408] drop6 -> drop6
I1020 04:17:15.755969 10370 net.cpp:150] Setting up drop6
I1020 04:17:15.755973 10370 net.cpp:157] Top shape: 64 300 1 1 (19200)
I1020 04:17:15.755975 10370 net.cpp:165] Memory required for data: 134207232
I1020 04:17:15.755977 10370 layer_factory.hpp:77] Creating layer pool6
I1020 04:17:15.755987 10370 net.cpp:100] Creating Layer pool6
I1020 04:17:15.755990 10370 net.cpp:434] pool6 <- drop6
I1020 04:17:15.755993 10370 net.cpp:408] pool6 -> pool6
I1020 04:17:15.756016 10370 net.cpp:150] Setting up pool6
I1020 04:17:15.756021 10370 net.cpp:157] Top shape: 64 300 1 1 (19200)
I1020 04:17:15.756022 10370 net.cpp:165] Memory required for data: 134284032
I1020 04:17:15.756024 10370 layer_factory.hpp:77] Creating layer conv11
I1020 04:17:15.756033 10370 net.cpp:100] Creating Layer conv11
I1020 04:17:15.756036 10370 net.cpp:434] conv11 <- pool6
I1020 04:17:15.756039 10370 net.cpp:408] conv11 -> conv11
I1020 04:17:15.757150 10370 net.cpp:150] Setting up conv11
I1020 04:17:15.757159 10370 net.cpp:157] Top shape: 64 100 1 1 (6400)
I1020 04:17:15.757161 10370 net.cpp:165] Memory required for data: 134309632
I1020 04:17:15.757164 10370 layer_factory.hpp:77] Creating layer elu11
I1020 04:17:15.757169 10370 net.cpp:100] Creating Layer elu11
I1020 04:17:15.757172 10370 net.cpp:434] elu11 <- conv11
I1020 04:17:15.757175 10370 net.cpp:408] elu11 -> elu11
I1020 04:17:15.757191 10370 net.cpp:150] Setting up elu11
I1020 04:17:15.757194 10370 net.cpp:157] Top shape: 64 100 1 1 (6400)
I1020 04:17:15.757197 10370 net.cpp:165] Memory required for data: 134335232
I1020 04:17:15.757200 10370 layer_factory.hpp:77] Creating layer drop7
I1020 04:17:15.757202 10370 net.cpp:100] Creating Layer drop7
I1020 04:17:15.757205 10370 net.cpp:434] drop7 <- elu11
I1020 04:17:15.757208 10370 net.cpp:408] drop7 -> drop7
I1020 04:17:15.757231 10370 net.cpp:150] Setting up drop7
I1020 04:17:15.757236 10370 net.cpp:157] Top shape: 64 100 1 1 (6400)
I1020 04:17:15.757237 10370 net.cpp:165] Memory required for data: 134360832
I1020 04:17:15.757239 10370 layer_factory.hpp:77] Creating layer pool7
I1020 04:17:15.757242 10370 net.cpp:100] Creating Layer pool7
I1020 04:17:15.757244 10370 net.cpp:434] pool7 <- drop7
I1020 04:17:15.757247 10370 net.cpp:408] pool7 -> pool7
I1020 04:17:15.757271 10370 net.cpp:150] Setting up pool7
I1020 04:17:15.757274 10370 net.cpp:157] Top shape: 64 100 1 1 (6400)
I1020 04:17:15.757275 10370 net.cpp:165] Memory required for data: 134386432
I1020 04:17:15.757277 10370 layer_factory.hpp:77] Creating layer score
I1020 04:17:15.757282 10370 net.cpp:100] Creating Layer score
I1020 04:17:15.757284 10370 net.cpp:434] score <- pool7
I1020 04:17:15.757287 10370 net.cpp:408] score -> score
I1020 04:17:15.757383 10370 net.cpp:150] Setting up score
I1020 04:17:15.757387 10370 net.cpp:157] Top shape: 64 10 (640)
I1020 04:17:15.757390 10370 net.cpp:165] Memory required for data: 134388992
I1020 04:17:15.757392 10370 layer_factory.hpp:77] Creating layer score_score_0_split
I1020 04:17:15.757397 10370 net.cpp:100] Creating Layer score_score_0_split
I1020 04:17:15.757400 10370 net.cpp:434] score_score_0_split <- score
I1020 04:17:15.757403 10370 net.cpp:408] score_score_0_split -> score_score_0_split_0
I1020 04:17:15.757406 10370 net.cpp:408] score_score_0_split -> score_score_0_split_1
I1020 04:17:15.757428 10370 net.cpp:150] Setting up score_score_0_split
I1020 04:17:15.757432 10370 net.cpp:157] Top shape: 64 10 (640)
I1020 04:17:15.757434 10370 net.cpp:157] Top shape: 64 10 (640)
I1020 04:17:15.757436 10370 net.cpp:165] Memory required for data: 134394112
I1020 04:17:15.757437 10370 layer_factory.hpp:77] Creating layer accuracy
I1020 04:17:15.757441 10370 net.cpp:100] Creating Layer accuracy
I1020 04:17:15.757443 10370 net.cpp:434] accuracy <- score_score_0_split_0
I1020 04:17:15.757447 10370 net.cpp:434] accuracy <- label_data_1_split_0
I1020 04:17:15.757449 10370 net.cpp:408] accuracy -> accuracy
…
I1020 04:17:15.757783 10370 net.cpp:283] Network initialization done.
I1020 04:17:15.757968 10370 solver.cpp:181] Creating test net (#0) specified by test_net file: /home/adam/Honours/Honours-Project/mnist_pooling/max/elu/poolcnn_elu_test.prototxt
I1020 04:17:15.758081 10370 net.cpp:58] Initializing net from parameters: 
state {
  phase: TEST
}
layer {
  name: "data"
  type: "Data"
  top: "data"
  top: "label"
  transform_param {
    scale: 0.0039215689
  }
  data_param {
    source: "../../../../data/mnist/mnist_test_lmdb"
    batch_size: 100
    backend: LMDB
  }
}
layer {
  name: "conv1"
  type: "Convolution"
  bottom: "data"
  top: "conv1"
  convolution_param {
    num_output: 192
    kernel_size: 5
    weight_filler {
      type: "xavier"
    }
  }
}
layer {
  name: "elu1"
  type: "ELU"
  bottom: "conv1"
  top: "elu1"
}
layer {
  name: "drop1"
  type: "Dropout"
  bottom: "elu1"
  top: "drop1"
  dropout_param {
    dropout_ratio: 0
  }
}
layer {
  name: "pool1"
  type: "Pooling"
  bottom: "drop1"
  top: "pool1"
  pooling_param {
    pool: MAX
    kernel_size: 2
    stride: 2
  }
}
layer {
  name: "conv2"
  type: "Convolution"
  bottom: "pool1"
  top: "conv2"
  convolution_param {
    num_output: 192
    kernel_size: 1
    weight_filler {
      type: "xavier"
    }
  }
}
layer {
  name: "elu2"
  type: "ELU"
  bottom: "conv2"
  top: "elu2"
}
layer {
  name: "conv3"
  type: "Convolution"
  bottom: "elu2"
  top: "conv3"
  convolution_param {
    num_output: 240
    kernel_size: 3
    weight_filler {
      type: "xavier"
    }
  }
}
layer {
  name: "elu3"
  type: "ELU"
  bottom: "conv3"
  top: "elu3"
}
layer {
  name: "drop2"
  type: "Dropout"
  bottom: "elu3"
  top: "drop2"
  dropout_param {
    dropout_ratio: 0.1
  }
}
layer {
  name: "pool2"
  type: "Pooling"
  bottom: "drop2"
  top: "pool2"
  pooling_param {
    pool: MAX
    kernel_size: 2
    stride: 2
  }
}
layer {
  name: "conv4"
  type: "Convolution"
  bottom: "pool2"
  top: "conv4"
  convolution_param {
    num_output: 240
    kernel_size: 1
    weight_filler {
      type: "xavier"
    }
  }
}
layer {
  name: "elu4"
  type: "ELU"
  bottom: "conv4"
  top: "elu4"
}
layer {
  name: "conv5"
  type: "Convolution"
  bottom: "elu4"
  top: "conv5"
  convolution_param {
    num_output: 260
    kernel_size: 2
    weight_filler {
      type: "xavier"
    }
  }
}
layer {
  name: "elu5"
  type: "ELU"
  bottom: "conv5"
  top: "elu5"
}
layer {
  name: "drop3"
  type: "Dropout"
  bottom: "elu5"
  top: "drop3"
  dropout_param {
    dropout_ratio: 0.2
  }
}
layer {
  name: "pool3"
  type: "Pooling"
  bottom: "drop3"
  top: "pool3"
  pooling_param {
    pool: MAX
    kernel_size: 2
    stride: 2
  }
}
layer {
  name: "conv6"
  type: "Convolution"
  bottom: "pool3"
  top: "conv6"
  convolution_param {
    num_output: 260
    kernel_size: 1
    weight_filler {
      type: "xavier"
    }
  }
}
layer {
  name: "elu6"
  type: "ELU"
  bottom: "conv6"
  top: "elu6"
}
layer {
  name: "conv7"
  type: "Convolution"
  bottom: "elu6"
  top: "conv7"
  convolution_param {
    num_output: 280
    kernel_size: 2
    weight_filler {
      type: "xavier"
    }
  }
}
layer {
  name: "elu7"
  type: "ELU"
  bottom: "conv7"
  top: "elu7"
}
layer {
  name: "drop4"
  type: "Dropout"
  bottom: "elu7"
  top: "drop4"
  dropout_param {
    dropout_ratio: 0.3
  }
}
layer {
  name: "pool4"
  type: "Pooling"
  bottom: "drop4"
  top: "pool4"
  pooling_param {
    pool: MAX
    kernel_size: 2
    stride: 2
  }
}
layer {
  name: "conv8"
  type: "Convolution"
  bottom: "pool4"
  top: "conv8"
  convolution_param {
    num_output: 280
    kernel_size: 1
    weight_filler {
      type: "xavier"
    }
  }
}
layer {
  name: "elu8"
  type: "ELU"
  bottom: "conv8"
  top: "elu8"
}
layer {
  name: "drop5"
  type: "Dropout"
  bottom: "elu8"
  top: "drop5"
  dropout_param {
    dropout_ratio: 0.4
  }
}
layer {
  name: "pool5"
  type: "Pooling"
  bottom: "drop5"
  top: "pool5"
  pooling_param {
    pool: MAX
    kernel_size: 2
    stride: 2
  }
}
layer {
  name: "conv10"
  type: "Convolution"
  bottom: "pool5"
  top: "conv10"
  convolution_param {
    num_output: 300
    kernel_size: 1
    weight_filler {
      type: "xavier"
    }
  }
}
layer {
  name: "elu10"
  type: "ELU"
  bottom: "conv10"
  top: "elu10"
}
layer {
  name: "drop6"
  type: "Dropout"
  bottom: "elu10"
  top: "drop6"
  dropout_param {
    dropout_ratio: 0.5
  }
}
layer {
  name: "pool6"
  type: "Pooling"
  bottom: "drop6"
  top: "pool6"
  pooling_param {
    pool: MAX
    kernel_size: 2
    stride: 2
  }
}
layer {
  name: "conv11"
  type: "Convolution"
  bottom: "pool6"
  top: "conv11"
  convolution_param {
    num_output: 100
    kernel_size: 1
    weight_filler {
      type: "xavier"
    }
  }
}
layer {
  name: "elu11"
  type: "ELU"
  bottom: "conv11"
  top: "elu11"
}
layer {
  name: "drop7"
  type: "Dropout"
  bottom: "elu11"
  top: "drop7"
  dropout_param {
    dropout_ratio: 0
  }
}
layer {
  name: "pool7"
  type: "Pooling"
  bottom: "drop7"
  top: "pool7"
  pooling_param {
    pool: MAX
    kernel_size: 2
    stride: 2
  }
}
layer {
  name: "score"
  type: "InnerProduct"
  bottom: "pool7"
  top: "score"
  inner_product_param {
    num_output: 10
    weight_filler {
      type: "gaussian"
    }
  }
}
layer {
  name: "accuracy"
  type: "Accuracy"
  bottom: "score"
  bottom: "label"
  top: "accuracy"
}
layer {
  name: "loss"
  type: "SoftmaxWithLoss"
  bottom: "score"
  bottom: "label"
  top: "loss"
}
I1020 04:17:15.758157 10370 layer_factory.hpp:77] Creating layer data
I1020 04:17:15.758235 10370 net.cpp:100] Creating Layer data
I1020 04:17:15.758239 10370 net.cpp:408] data -> data
I1020 04:17:15.758244 10370 net.cpp:408] data -> label
I1020 04:17:15.758817 10377 db_lmdb.cpp:35] Opened lmdb ../../../../data/mnist/mnist_test_lmdb
I1020 04:17:15.758891 10370 data_layer.cpp:41] output data size: 100,1,28,28
I1020 04:17:15.759610 10370 net.cpp:150] Setting up data
I1020 04:17:15.759618 10370 net.cpp:157] Top shape: 100 1 28 28 (78400)
I1020 04:17:15.759621 10370 net.cpp:157] Top shape: 100 (100)
I1020 04:17:15.759624 10370 net.cpp:165] Memory required for data: 314000
I1020 04:17:15.759626 10370 layer_factory.hpp:77] Creating layer label_data_1_split
I1020 04:17:15.759631 10370 net.cpp:100] Creating Layer label_data_1_split
I1020 04:17:15.759634 10370 net.cpp:434] label_data_1_split <- label
I1020 04:17:15.759639 10370 net.cpp:408] label_data_1_split -> label_data_1_split_0
I1020 04:17:15.759644 10370 net.cpp:408] label_data_1_split -> label_data_1_split_1
I1020 04:17:15.759676 10370 net.cpp:150] Setting up label_data_1_split
I1020 04:17:15.759680 10370 net.cpp:157] Top shape: 100 (100)
I1020 04:17:15.759682 10370 net.cpp:157] Top shape: 100 (100)
I1020 04:17:15.759685 10370 net.cpp:165] Memory required for data: 314800
I1020 04:17:15.759685 10370 layer_factory.hpp:77] Creating layer conv1
I1020 04:17:15.759691 10370 net.cpp:100] Creating Layer conv1
I1020 04:17:15.759693 10370 net.cpp:434] conv1 <- data
I1020 04:17:15.759696 10370 net.cpp:408] conv1 -> conv1
I1020 04:17:15.760529 10370 net.cpp:150] Setting up conv1
I1020 04:17:15.760536 10370 net.cpp:157] Top shape: 100 192 24 24 (11059200)
I1020 04:17:15.760538 10370 net.cpp:165] Memory required for data: 44551600
I1020 04:17:15.760545 10370 layer_factory.hpp:77] Creating layer elu1
I1020 04:17:15.760548 10370 net.cpp:100] Creating Layer elu1
I1020 04:17:15.760550 10370 net.cpp:434] elu1 <- conv1
I1020 04:17:15.760553 10370 net.cpp:408] elu1 -> elu1
I1020 04:17:15.760570 10370 net.cpp:150] Setting up elu1
I1020 04:17:15.760572 10370 net.cpp:157] Top shape: 100 192 24 24 (11059200)
I1020 04:17:15.760573 10370 net.cpp:165] Memory required for data: 88788400
I1020 04:17:15.760576 10370 layer_factory.hpp:77] Creating layer drop1
I1020 04:17:15.760581 10370 net.cpp:100] Creating Layer drop1
I1020 04:17:15.760584 10370 net.cpp:434] drop1 <- elu1
I1020 04:17:15.760587 10370 net.cpp:408] drop1 -> drop1
I1020 04:17:15.760610 10370 net.cpp:150] Setting up drop1
I1020 04:17:15.760614 10370 net.cpp:157] Top shape: 100 192 24 24 (11059200)
I1020 04:17:15.760615 10370 net.cpp:165] Memory required for data: 133025200
I1020 04:17:15.760617 10370 layer_factory.hpp:77] Creating layer pool1
I1020 04:17:15.760620 10370 net.cpp:100] Creating Layer pool1
I1020 04:17:15.760623 10370 net.cpp:434] pool1 <- drop1
I1020 04:17:15.760625 10370 net.cpp:408] pool1 -> pool1
I1020 04:17:15.760648 10370 net.cpp:150] Setting up pool1
I1020 04:17:15.760651 10370 net.cpp:157] Top shape: 100 192 12 12 (2764800)
I1020 04:17:15.760653 10370 net.cpp:165] Memory required for data: 144084400
I1020 04:17:15.760654 10370 layer_factory.hpp:77] Creating layer conv2
I1020 04:17:15.760669 10370 net.cpp:100] Creating Layer conv2
I1020 04:17:15.760673 10370 net.cpp:434] conv2 <- pool1
I1020 04:17:15.760676 10370 net.cpp:408] conv2 -> conv2
I1020 04:17:15.761560 10370 net.cpp:150] Setting up conv2
I1020 04:17:15.761569 10370 net.cpp:157] Top shape: 100 192 12 12 (2764800)
I1020 04:17:15.761571 10370 net.cpp:165] Memory required for data: 155143600
I1020 04:17:15.761576 10370 layer_factory.hpp:77] Creating layer elu2
I1020 04:17:15.761580 10370 net.cpp:100] Creating Layer elu2
I1020 04:17:15.761584 10370 net.cpp:434] elu2 <- conv2
I1020 04:17:15.761586 10370 net.cpp:408] elu2 -> elu2
I1020 04:17:15.761603 10370 net.cpp:150] Setting up elu2
I1020 04:17:15.761607 10370 net.cpp:157] Top shape: 100 192 12 12 (2764800)
I1020 04:17:15.761610 10370 net.cpp:165] Memory required for data: 166202800
I1020 04:17:15.761612 10370 layer_factory.hpp:77] Creating layer conv3
I1020 04:17:15.761620 10370 net.cpp:100] Creating Layer conv3
I1020 04:17:15.761621 10370 net.cpp:434] conv3 <- elu2
I1020 04:17:15.761625 10370 net.cpp:408] conv3 -> conv3
I1020 04:17:15.764089 10370 net.cpp:150] Setting up conv3
I1020 04:17:15.764098 10370 net.cpp:157] Top shape: 100 240 10 10 (2400000)
I1020 04:17:15.764101 10370 net.cpp:165] Memory required for data: 175802800
I1020 04:17:15.764107 10370 layer_factory.hpp:77] Creating layer elu3
I1020 04:17:15.764111 10370 net.cpp:100] Creating Layer elu3
I1020 04:17:15.764114 10370 net.cpp:434] elu3 <- conv3
I1020 04:17:15.764117 10370 net.cpp:408] elu3 -> elu3
I1020 04:17:15.764134 10370 net.cpp:150] Setting up elu3
I1020 04:17:15.764137 10370 net.cpp:157] Top shape: 100 240 10 10 (2400000)
I1020 04:17:15.764140 10370 net.cpp:165] Memory required for data: 185402800
I1020 04:17:15.764142 10370 layer_factory.hpp:77] Creating layer drop2
I1020 04:17:15.764144 10370 net.cpp:100] Creating Layer drop2
I1020 04:17:15.764147 10370 net.cpp:434] drop2 <- elu3
I1020 04:17:15.764150 10370 net.cpp:408] drop2 -> drop2
I1020 04:17:15.764173 10370 net.cpp:150] Setting up drop2
I1020 04:17:15.764176 10370 net.cpp:157] Top shape: 100 240 10 10 (2400000)
I1020 04:17:15.764179 10370 net.cpp:165] Memory required for data: 195002800
I1020 04:17:15.764181 10370 layer_factory.hpp:77] Creating layer pool2
I1020 04:17:15.764184 10370 net.cpp:100] Creating Layer pool2
I1020 04:17:15.764186 10370 net.cpp:434] pool2 <- drop2
I1020 04:17:15.764189 10370 net.cpp:408] pool2 -> pool2
I1020 04:17:15.764211 10370 net.cpp:150] Setting up pool2
I1020 04:17:15.764215 10370 net.cpp:157] Top shape: 100 240 5 5 (600000)
I1020 04:17:15.764217 10370 net.cpp:165] Memory required for data: 197402800
I1020 04:17:15.764219 10370 layer_factory.hpp:77] Creating layer conv4
I1020 04:17:15.764223 10370 net.cpp:100] Creating Layer conv4
I1020 04:17:15.764225 10370 net.cpp:434] conv4 <- pool2
I1020 04:17:15.764228 10370 net.cpp:408] conv4 -> conv4
I1020 04:17:15.765085 10370 net.cpp:150] Setting up conv4
I1020 04:17:15.765094 10370 net.cpp:157] Top shape: 100 240 5 5 (600000)
I1020 04:17:15.765096 10370 net.cpp:165] Memory required for data: 199802800
I1020 04:17:15.765100 10370 layer_factory.hpp:77] Creating layer elu4
I1020 04:17:15.765103 10370 net.cpp:100] Creating Layer elu4
I1020 04:17:15.765105 10370 net.cpp:434] elu4 <- conv4
I1020 04:17:15.765110 10370 net.cpp:408] elu4 -> elu4
I1020 04:17:15.765126 10370 net.cpp:150] Setting up elu4
I1020 04:17:15.765131 10370 net.cpp:157] Top shape: 100 240 5 5 (600000)
I1020 04:17:15.765133 10370 net.cpp:165] Memory required for data: 202202800
I1020 04:17:15.765136 10370 layer_factory.hpp:77] Creating layer conv5
I1020 04:17:15.765139 10370 net.cpp:100] Creating Layer conv5
I1020 04:17:15.765141 10370 net.cpp:434] conv5 <- elu4
I1020 04:17:15.765146 10370 net.cpp:408] conv5 -> conv5
I1020 04:17:15.766849 10370 net.cpp:150] Setting up conv5
I1020 04:17:15.766856 10370 net.cpp:157] Top shape: 100 260 4 4 (416000)
I1020 04:17:15.766858 10370 net.cpp:165] Memory required for data: 203866800
I1020 04:17:15.766865 10370 layer_factory.hpp:77] Creating layer elu5
I1020 04:17:15.766875 10370 net.cpp:100] Creating Layer elu5
I1020 04:17:15.766878 10370 net.cpp:434] elu5 <- conv5
I1020 04:17:15.766881 10370 net.cpp:408] elu5 -> elu5
I1020 04:17:15.766898 10370 net.cpp:150] Setting up elu5
I1020 04:17:15.766902 10370 net.cpp:157] Top shape: 100 260 4 4 (416000)
I1020 04:17:15.766904 10370 net.cpp:165] Memory required for data: 205530800
I1020 04:17:15.766906 10370 layer_factory.hpp:77] Creating layer drop3
I1020 04:17:15.766911 10370 net.cpp:100] Creating Layer drop3
I1020 04:17:15.766914 10370 net.cpp:434] drop3 <- elu5
I1020 04:17:15.766916 10370 net.cpp:408] drop3 -> drop3
I1020 04:17:15.766939 10370 net.cpp:150] Setting up drop3
I1020 04:17:15.766943 10370 net.cpp:157] Top shape: 100 260 4 4 (416000)
I1020 04:17:15.766945 10370 net.cpp:165] Memory required for data: 207194800
I1020 04:17:15.766947 10370 layer_factory.hpp:77] Creating layer pool3
I1020 04:17:15.766952 10370 net.cpp:100] Creating Layer pool3
I1020 04:17:15.766952 10370 net.cpp:434] pool3 <- drop3
I1020 04:17:15.766955 10370 net.cpp:408] pool3 -> pool3
I1020 04:17:15.766978 10370 net.cpp:150] Setting up pool3
I1020 04:17:15.766983 10370 net.cpp:157] Top shape: 100 260 2 2 (104000)
I1020 04:17:15.766984 10370 net.cpp:165] Memory required for data: 207610800
I1020 04:17:15.766986 10370 layer_factory.hpp:77] Creating layer conv6
I1020 04:17:15.766990 10370 net.cpp:100] Creating Layer conv6
I1020 04:17:15.766993 10370 net.cpp:434] conv6 <- pool3
I1020 04:17:15.766995 10370 net.cpp:408] conv6 -> conv6
I1020 04:17:15.768123 10370 net.cpp:150] Setting up conv6
I1020 04:17:15.768131 10370 net.cpp:157] Top shape: 100 260 2 2 (104000)
I1020 04:17:15.768133 10370 net.cpp:165] Memory required for data: 208026800
I1020 04:17:15.768137 10370 layer_factory.hpp:77] Creating layer elu6
I1020 04:17:15.768141 10370 net.cpp:100] Creating Layer elu6
I1020 04:17:15.768143 10370 net.cpp:434] elu6 <- conv6
I1020 04:17:15.768148 10370 net.cpp:408] elu6 -> elu6
I1020 04:17:15.768164 10370 net.cpp:150] Setting up elu6
I1020 04:17:15.768168 10370 net.cpp:157] Top shape: 100 260 2 2 (104000)
I1020 04:17:15.768170 10370 net.cpp:165] Memory required for data: 208442800
I1020 04:17:15.768172 10370 layer_factory.hpp:77] Creating layer conv7
I1020 04:17:15.768177 10370 net.cpp:100] Creating Layer conv7
I1020 04:17:15.768180 10370 net.cpp:434] conv7 <- elu6
I1020 04:17:15.768183 10370 net.cpp:408] conv7 -> conv7
I1020 04:17:15.770153 10370 net.cpp:150] Setting up conv7
I1020 04:17:15.770161 10370 net.cpp:157] Top shape: 100 280 1 1 (28000)
I1020 04:17:15.770164 10370 net.cpp:165] Memory required for data: 208554800
I1020 04:17:15.770169 10370 layer_factory.hpp:77] Creating layer elu7
I1020 04:17:15.770172 10370 net.cpp:100] Creating Layer elu7
I1020 04:17:15.770174 10370 net.cpp:434] elu7 <- conv7
I1020 04:17:15.770177 10370 net.cpp:408] elu7 -> elu7
I1020 04:17:15.770195 10370 net.cpp:150] Setting up elu7
I1020 04:17:15.770198 10370 net.cpp:157] Top shape: 100 280 1 1 (28000)
I1020 04:17:15.770200 10370 net.cpp:165] Memory required for data: 208666800
I1020 04:17:15.770201 10370 layer_factory.hpp:77] Creating layer drop4
I1020 04:17:15.770205 10370 net.cpp:100] Creating Layer drop4
I1020 04:17:15.770207 10370 net.cpp:434] drop4 <- elu7
I1020 04:17:15.770210 10370 net.cpp:408] drop4 -> drop4
I1020 04:17:15.770233 10370 net.cpp:150] Setting up drop4
I1020 04:17:15.770238 10370 net.cpp:157] Top shape: 100 280 1 1 (28000)
I1020 04:17:15.770239 10370 net.cpp:165] Memory required for data: 208778800
I1020 04:17:15.770241 10370 layer_factory.hpp:77] Creating layer pool4
I1020 04:17:15.770244 10370 net.cpp:100] Creating Layer pool4
I1020 04:17:15.770246 10370 net.cpp:434] pool4 <- drop4
I1020 04:17:15.770248 10370 net.cpp:408] pool4 -> pool4
I1020 04:17:15.770272 10370 net.cpp:150] Setting up pool4
I1020 04:17:15.770275 10370 net.cpp:157] Top shape: 100 280 1 1 (28000)
I1020 04:17:15.770277 10370 net.cpp:165] Memory required for data: 208890800
I1020 04:17:15.770279 10370 layer_factory.hpp:77] Creating layer conv8
I1020 04:17:15.770284 10370 net.cpp:100] Creating Layer conv8
I1020 04:17:15.770293 10370 net.cpp:434] conv8 <- pool4
I1020 04:17:15.770298 10370 net.cpp:408] conv8 -> conv8
I1020 04:17:15.771235 10370 net.cpp:150] Setting up conv8
I1020 04:17:15.771244 10370 net.cpp:157] Top shape: 100 280 1 1 (28000)
I1020 04:17:15.771245 10370 net.cpp:165] Memory required for data: 209002800
I1020 04:17:15.771250 10370 layer_factory.hpp:77] Creating layer elu8
I1020 04:17:15.771252 10370 net.cpp:100] Creating Layer elu8
I1020 04:17:15.771255 10370 net.cpp:434] elu8 <- conv8
I1020 04:17:15.771257 10370 net.cpp:408] elu8 -> elu8
I1020 04:17:15.771275 10370 net.cpp:150] Setting up elu8
I1020 04:17:15.771278 10370 net.cpp:157] Top shape: 100 280 1 1 (28000)
I1020 04:17:15.771280 10370 net.cpp:165] Memory required for data: 209114800
I1020 04:17:15.771281 10370 layer_factory.hpp:77] Creating layer drop5
I1020 04:17:15.771284 10370 net.cpp:100] Creating Layer drop5
I1020 04:17:15.771286 10370 net.cpp:434] drop5 <- elu8
I1020 04:17:15.771289 10370 net.cpp:408] drop5 -> drop5
I1020 04:17:15.771312 10370 net.cpp:150] Setting up drop5
I1020 04:17:15.771319 10370 net.cpp:157] Top shape: 100 280 1 1 (28000)
I1020 04:17:15.771320 10370 net.cpp:165] Memory required for data: 209226800
I1020 04:17:15.771322 10370 layer_factory.hpp:77] Creating layer pool5
I1020 04:17:15.771325 10370 net.cpp:100] Creating Layer pool5
I1020 04:17:15.771328 10370 net.cpp:434] pool5 <- drop5
I1020 04:17:15.771332 10370 net.cpp:408] pool5 -> pool5
I1020 04:17:15.771353 10370 net.cpp:150] Setting up pool5
I1020 04:17:15.771358 10370 net.cpp:157] Top shape: 100 280 1 1 (28000)
I1020 04:17:15.771361 10370 net.cpp:165] Memory required for data: 209338800
I1020 04:17:15.771363 10370 layer_factory.hpp:77] Creating layer conv10
I1020 04:17:15.771366 10370 net.cpp:100] Creating Layer conv10
I1020 04:17:15.771368 10370 net.cpp:434] conv10 <- pool5
I1020 04:17:15.771373 10370 net.cpp:408] conv10 -> conv10
I1020 04:17:15.772647 10370 net.cpp:150] Setting up conv10
I1020 04:17:15.772656 10370 net.cpp:157] Top shape: 100 300 1 1 (30000)
I1020 04:17:15.772658 10370 net.cpp:165] Memory required for data: 209458800
I1020 04:17:15.772667 10370 layer_factory.hpp:77] Creating layer elu10
I1020 04:17:15.772671 10370 net.cpp:100] Creating Layer elu10
I1020 04:17:15.772673 10370 net.cpp:434] elu10 <- conv10
I1020 04:17:15.772677 10370 net.cpp:408] elu10 -> elu10
I1020 04:17:15.772692 10370 net.cpp:150] Setting up elu10
I1020 04:17:15.772696 10370 net.cpp:157] Top shape: 100 300 1 1 (30000)
I1020 04:17:15.772697 10370 net.cpp:165] Memory required for data: 209578800
I1020 04:17:15.772699 10370 layer_factory.hpp:77] Creating layer drop6
I1020 04:17:15.772703 10370 net.cpp:100] Creating Layer drop6
I1020 04:17:15.772704 10370 net.cpp:434] drop6 <- elu10
I1020 04:17:15.772707 10370 net.cpp:408] drop6 -> drop6
I1020 04:17:15.772734 10370 net.cpp:150] Setting up drop6
I1020 04:17:15.772738 10370 net.cpp:157] Top shape: 100 300 1 1 (30000)
I1020 04:17:15.772740 10370 net.cpp:165] Memory required for data: 209698800
I1020 04:17:15.772742 10370 layer_factory.hpp:77] Creating layer pool6
I1020 04:17:15.772744 10370 net.cpp:100] Creating Layer pool6
I1020 04:17:15.772747 10370 net.cpp:434] pool6 <- drop6
I1020 04:17:15.772750 10370 net.cpp:408] pool6 -> pool6
I1020 04:17:15.772773 10370 net.cpp:150] Setting up pool6
I1020 04:17:15.772778 10370 net.cpp:157] Top shape: 100 300 1 1 (30000)
I1020 04:17:15.772780 10370 net.cpp:165] Memory required for data: 209818800
I1020 04:17:15.772783 10370 layer_factory.hpp:77] Creating layer conv11
I1020 04:17:15.772791 10370 net.cpp:100] Creating Layer conv11
I1020 04:17:15.772794 10370 net.cpp:434] conv11 <- pool6
I1020 04:17:15.772797 10370 net.cpp:408] conv11 -> conv11
I1020 04:17:15.773499 10370 net.cpp:150] Setting up conv11
I1020 04:17:15.773507 10370 net.cpp:157] Top shape: 100 100 1 1 (10000)
I1020 04:17:15.773510 10370 net.cpp:165] Memory required for data: 209858800
I1020 04:17:15.773514 10370 layer_factory.hpp:77] Creating layer elu11
I1020 04:17:15.773517 10370 net.cpp:100] Creating Layer elu11
I1020 04:17:15.773526 10370 net.cpp:434] elu11 <- conv11
I1020 04:17:15.773530 10370 net.cpp:408] elu11 -> elu11
I1020 04:17:15.773546 10370 net.cpp:150] Setting up elu11
I1020 04:17:15.773550 10370 net.cpp:157] Top shape: 100 100 1 1 (10000)
I1020 04:17:15.773552 10370 net.cpp:165] Memory required for data: 209898800
I1020 04:17:15.773555 10370 layer_factory.hpp:77] Creating layer drop7
I1020 04:17:15.773558 10370 net.cpp:100] Creating Layer drop7
I1020 04:17:15.773561 10370 net.cpp:434] drop7 <- elu11
I1020 04:17:15.773563 10370 net.cpp:408] drop7 -> drop7
I1020 04:17:15.773587 10370 net.cpp:150] Setting up drop7
I1020 04:17:15.773591 10370 net.cpp:157] Top shape: 100 100 1 1 (10000)
I1020 04:17:15.773593 10370 net.cpp:165] Memory required for data: 209938800
I1020 04:17:15.773594 10370 layer_factory.hpp:77] Creating layer pool7
I1020 04:17:15.773597 10370 net.cpp:100] Creating Layer pool7
I1020 04:17:15.773602 10370 net.cpp:434] pool7 <- drop7
I1020 04:17:15.773603 10370 net.cpp:408] pool7 -> pool7
I1020 04:17:15.773627 10370 net.cpp:150] Setting up pool7
I1020 04:17:15.773630 10370 net.cpp:157] Top shape: 100 100 1 1 (10000)
I1020 04:17:15.773633 10370 net.cpp:165] Memory required for data: 209978800
I1020 04:17:15.773634 10370 layer_factory.hpp:77] Creating layer score
I1020 04:17:15.773638 10370 net.cpp:100] Creating Layer score
I1020 04:17:15.773640 10370 net.cpp:434] score <- pool7
I1020 04:17:15.773643 10370 net.cpp:408] score -> score
I1020 04:17:15.773741 10370 net.cpp:150] Setting up score
I1020 04:17:15.773744 10370 net.cpp:157] Top shape: 100 10 (1000)
I1020 04:17:15.773746 10370 net.cpp:165] Memory required for data: 209982800
I1020 04:17:15.773748 10370 layer_factory.hpp:77] Creating layer score_score_0_split
I1020 04:17:15.773753 10370 net.cpp:100] Creating Layer score_score_0_split
I1020 04:17:15.773756 10370 net.cpp:434] score_score_0_split <- score
I1020 04:17:15.773758 10370 net.cpp:408] score_score_0_split -> score_score_0_split_0
I1020 04:17:15.773762 10370 net.cpp:408] score_score_0_split -> score_score_0_split_1
I1020 04:17:15.773785 10370 net.cpp:150] Setting up score_score_0_split
I1020 04:17:15.773789 10370 net.cpp:157] Top shape: 100 10 (1000)
I1020 04:17:15.773792 10370 net.cpp:157] Top shape: 100 10 (1000)
I1020 04:17:15.773792 10370 net.cpp:165] Memory required for data: 209990800
I1020 04:17:15.773794 10370 layer_factory.hpp:77] Creating layer accuracy
I1020 04:17:15.773798 10370 net.cpp:100] Creating Layer accuracy
I1020 04:17:15.773800 10370 net.cpp:434] accuracy <- score_score_0_split_0
I1020 04:17:15.773803 10370 net.cpp:434] accuracy <- label_data_1_split_0
I1020 04:17:15.773807 10370 net.cpp:408] accuracy -> accuracy
…
