…
  level: 0
  stage: ""
}
type: "AdaGrad"
I1018 17:27:14.658169  3806 solver.cpp:81] Creating training net from train_net file: /home/adam/Honours/Honours-Project/mnist_pooling/max/elu/poolcnn_elu_train.prototxt
I1018 17:27:14.658516  3806 net.cpp:58] Initializing net from parameters: 
state {
  phase: TRAIN
  level: 0
  stage: ""
}
layer {
  name: "data"
  type: "Data"
  top: "data"
  top: "label"
  transform_param {
    scale: 0.0039215689
  }
  data_param {
    source: "../../../../data/mnist/mnist_train_lmdb"
    batch_size: 64
    backend: LMDB
  }
}
layer {
  name: "conv1"
  type: "Convolution"
  bottom: "data"
  top: "conv1"
  convolution_param {
    num_output: 192
    kernel_size: 5
    weight_filler {
      type: "xavier"
    }
  }
}
layer {
  name: "pool1"
  type: "Pooling"
  bottom: "conv1"
  top: "pool1"
  pooling_param {
    pool: MAX
    kernel_size: 2
    stride: 2
  }
}
layer {
  name: "drop1"
  type: "Dropout"
  bottom: "pool1"
  top: "drop1"
  dropout_param {
    dropout_ratio: 0
  }
}
layer {
  name: "elu1"
  type: "ELU"
  bottom: "drop1"
  top: "elu1"
}
layer {
  name: "conv2"
  type: "Convolution"
  bottom: "elu1"
  top: "conv2"
  convolution_param {
    num_output: 192
    kernel_size: 1
    weight_filler {
      type: "xavier"
    }
  }
}
layer {
  name: "conv3"
  type: "Convolution"
  bottom: "conv2"
  top: "conv3"
  convolution_param {
    num_output: 240
    kernel_size: 3
    weight_filler {
      type: "xavier"
    }
  }
}
layer {
  name: "pool2"
  type: "Pooling"
  bottom: "conv3"
  top: "pool2"
  pooling_param {
    pool: MAX
    kernel_size: 2
    stride: 2
  }
}
layer {
  name: "drop2"
  type: "Dropout"
  bottom: "pool2"
  top: "drop2"
  dropout_param {
    dropout_ratio: 0.1
  }
}
layer {
  name: "elu2"
  type: "ELU"
  bottom: "drop2"
  top: "elu2"
}
layer {
  name: "conv4"
  type: "Convolution"
  bottom: "elu2"
  top: "conv4"
  convolution_param {
    num_output: 240
    kernel_size: 1
    weight_filler {
      type: "xavier"
    }
  }
}
layer {
  name: "conv5"
  type: "Convolution"
  bottom: "conv4"
  top: "conv5"
  convolution_param {
    num_output: 260
    kernel_size: 2
    weight_filler {
      type: "xavier"
    }
  }
}
layer {
  name: "pool3"
  type: "Pooling"
  bottom: "conv5"
  top: "pool3"
  pooling_param {
    pool: MAX
    kernel_size: 2
    stride: 2
  }
}
layer {
  name: "drop3"
  type: "Dropout"
  bottom: "pool3"
  top: "drop3"
  dropout_param {
    dropout_ratio: 0.2
  }
}
layer {
  name: "elu3"
  type: "ELU"
  bottom: "drop3"
  top: "elu3"
}
layer {
  name: "conv6"
  type: "Convolution"
  bottom: "elu3"
  top: "conv6"
  convolution_param {
    num_output: 260
    kernel_size: 1
    weight_filler {
      type: "xavier"
    }
  }
}
layer {
  name: "conv7"
  type: "Convolution"
  bottom: "conv6"
  top: "conv7"
  convolution_param {
    num_output: 280
    kernel_size: 2
    weight_filler {
      type: "xavier"
    }
  }
}
layer {
  name: "pool4"
  type: "Pooling"
  bottom: "conv7"
  top: "pool4"
  pooling_param {
    pool: MAX
    kernel_size: 2
    stride: 2
  }
}
layer {
  name: "drop4"
  type: "Dropout"
  bottom: "pool4"
  top: "drop4"
  dropout_param {
    dropout_ratio: 0.3
  }
}
layer {
  name: "elu4"
  type: "ELU"
  bottom: "drop4"
  top: "elu4"
}
layer {
  name: "conv8"
  type: "Convolution"
  bottom: "elu4"
  top: "conv8"
  convolution_param {
    num_output: 280
    kernel_size: 1
    weight_filler {
      type: "xavier"
    }
  }
}
layer {
  name: "pool5"
  type: "Pooling"
  bottom: "conv8"
  top: "pool5"
  pooling_param {
    pool: MAX
    kernel_size: 2
    stride: 2
  }
}
layer {
  name: "drop5"
  type: "Dropout"
  bottom: "pool5"
  top: "drop5"
  dropout_param {
    dropout_ratio: 0.4
  }
}
layer {
  name: "elu5"
  type: "ELU"
  bottom: "drop5"
  top: "elu5"
}
layer {
  name: "conv10"
  type: "Convolution"
  bottom: "elu5"
  top: "conv10"
  convolution_param {
    num_output: 300
    kernel_size: 1
    weight_filler {
      type: "xavier"
    }
  }
}
layer {
  name: "pool6"
  type: "Pooling"
  bottom: "conv10"
  top: "pool6"
  pooling_param {
    pool: MAX
    kernel_size: 2
    stride: 2
  }
}
layer {
  name: "drop6"
  type: "Dropout"
  bottom: "pool6"
  top: "drop6"
  dropout_param {
    dropout_ratio: 0.5
  }
}
layer {
  name: "elu6"
  type: "ELU"
  bottom: "drop6"
  top: "elu6"
}
layer {
  name: "conv11"
  type: "Convolution"
  bottom: "elu6"
  top: "conv11"
  convolution_param {
    num_output: 100
    kernel_size: 1
    weight_filler {
      type: "xavier"
    }
  }
}
layer {
  name: "pool7"
  type: "Pooling"
  bottom: "conv11"
  top: "pool7"
  pooling_param {
    pool: MAX
    kernel_size: 2
    stride: 2
  }
}
layer {
  name: "drop7"
  type: "Dropout"
  bottom: "pool7"
  top: "drop7"
  dropout_param {
    dropout_ratio: 0
  }
}
layer {
  name: "elu7"
  type: "ELU"
  bottom: "drop7"
  top: "elu7"
}
layer {
  name: "pool"
  type: "Pooling"
  bottom: "elu7"
  top: "pool"
  pooling_param {
    pool: AVE
    global_pooling: true
  }
}
layer {
  name: "flatten"
  type: "Flatten"
  bottom: "pool"
  top: "flatten"
}
layer {
  name: "score"
  type: "InnerProduct"
  bottom: "flatten"
  top: "score"
  inner_product_param {
    num_output: 10
    weight_filler {
      type: "gaussian"
    }
  }
}
layer {
  name: "accuracy"
  type: "Accuracy"
  bottom: "score"
  bottom: "label"
  top: "accuracy"
}
layer {
  name: "loss"
  type: "SoftmaxWithLoss"
  bottom: "score"
  bottom: "label"
  top: "loss"
}
I1018 17:27:14.658622  3806 layer_factory.hpp:77] Creating layer data
I1018 17:27:14.659010  3806 net.cpp:100] Creating Layer data
I1018 17:27:14.659016  3806 net.cpp:408] data -> data
I1018 17:27:14.659031  3806 net.cpp:408] data -> label
I1018 17:27:14.659634  3812 db_lmdb.cpp:35] Opened lmdb ../../../../data/mnist/mnist_train_lmdb
I1018 17:27:14.665046  3806 data_layer.cpp:41] output data size: 64,1,28,28
I1018 17:27:14.665588  3806 net.cpp:150] Setting up data
I1018 17:27:14.665599  3806 net.cpp:157] Top shape: 64 1 28 28 (50176)
I1018 17:27:14.665602  3806 net.cpp:157] Top shape: 64 (64)
I1018 17:27:14.665604  3806 net.cpp:165] Memory required for data: 200960
I1018 17:27:14.665611  3806 layer_factory.hpp:77] Creating layer label_data_1_split
I1018 17:27:14.665618  3806 net.cpp:100] Creating Layer label_data_1_split
I1018 17:27:14.665622  3806 net.cpp:434] label_data_1_split <- label
I1018 17:27:14.665632  3806 net.cpp:408] label_data_1_split -> label_data_1_split_0
I1018 17:27:14.665638  3806 net.cpp:408] label_data_1_split -> label_data_1_split_1
I1018 17:27:14.665676  3806 net.cpp:150] Setting up label_data_1_split
I1018 17:27:14.665683  3806 net.cpp:157] Top shape: 64 (64)
I1018 17:27:14.665684  3806 net.cpp:157] Top shape: 64 (64)
I1018 17:27:14.665685  3806 net.cpp:165] Memory required for data: 201472
I1018 17:27:14.665688  3806 layer_factory.hpp:77] Creating layer conv1
I1018 17:27:14.665699  3806 net.cpp:100] Creating Layer conv1
I1018 17:27:14.665700  3806 net.cpp:434] conv1 <- data
I1018 17:27:14.665704  3806 net.cpp:408] conv1 -> conv1
I1018 17:27:14.784648  3806 net.cpp:150] Setting up conv1
I1018 17:27:14.784674  3806 net.cpp:157] Top shape: 64 192 24 24 (7077888)
I1018 17:27:14.784677  3806 net.cpp:165] Memory required for data: 28513024
I1018 17:27:14.784698  3806 layer_factory.hpp:77] Creating layer pool1
I1018 17:27:14.784708  3806 net.cpp:100] Creating Layer pool1
I1018 17:27:14.784710  3806 net.cpp:434] pool1 <- conv1
I1018 17:27:14.784714  3806 net.cpp:408] pool1 -> pool1
I1018 17:27:14.784754  3806 net.cpp:150] Setting up pool1
I1018 17:27:14.784759  3806 net.cpp:157] Top shape: 64 192 12 12 (1769472)
I1018 17:27:14.784775  3806 net.cpp:165] Memory required for data: 35590912
I1018 17:27:14.784776  3806 layer_factory.hpp:77] Creating layer drop1
I1018 17:27:14.784783  3806 net.cpp:100] Creating Layer drop1
I1018 17:27:14.784785  3806 net.cpp:434] drop1 <- pool1
I1018 17:27:14.784788  3806 net.cpp:408] drop1 -> drop1
I1018 17:27:14.784811  3806 net.cpp:150] Setting up drop1
I1018 17:27:14.784816  3806 net.cpp:157] Top shape: 64 192 12 12 (1769472)
I1018 17:27:14.784817  3806 net.cpp:165] Memory required for data: 42668800
I1018 17:27:14.784819  3806 layer_factory.hpp:77] Creating layer elu1
I1018 17:27:14.784822  3806 net.cpp:100] Creating Layer elu1
I1018 17:27:14.784824  3806 net.cpp:434] elu1 <- drop1
I1018 17:27:14.784826  3806 net.cpp:408] elu1 -> elu1
I1018 17:27:14.784838  3806 net.cpp:150] Setting up elu1
I1018 17:27:14.784842  3806 net.cpp:157] Top shape: 64 192 12 12 (1769472)
I1018 17:27:14.784843  3806 net.cpp:165] Memory required for data: 49746688
I1018 17:27:14.784844  3806 layer_factory.hpp:77] Creating layer conv2
I1018 17:27:14.784852  3806 net.cpp:100] Creating Layer conv2
I1018 17:27:14.784853  3806 net.cpp:434] conv2 <- elu1
I1018 17:27:14.784857  3806 net.cpp:408] conv2 -> conv2
I1018 17:27:14.785570  3806 net.cpp:150] Setting up conv2
I1018 17:27:14.785578  3806 net.cpp:157] Top shape: 64 192 12 12 (1769472)
I1018 17:27:14.785581  3806 net.cpp:165] Memory required for data: 56824576
I1018 17:27:14.785586  3806 layer_factory.hpp:77] Creating layer conv3
I1018 17:27:14.785591  3806 net.cpp:100] Creating Layer conv3
I1018 17:27:14.785594  3806 net.cpp:434] conv3 <- conv2
I1018 17:27:14.785598  3806 net.cpp:408] conv3 -> conv3
I1018 17:27:14.788022  3806 net.cpp:150] Setting up conv3
I1018 17:27:14.788033  3806 net.cpp:157] Top shape: 64 240 10 10 (1536000)
I1018 17:27:14.788035  3806 net.cpp:165] Memory required for data: 62968576
I1018 17:27:14.788041  3806 layer_factory.hpp:77] Creating layer pool2
I1018 17:27:14.788048  3806 net.cpp:100] Creating Layer pool2
I1018 17:27:14.788050  3806 net.cpp:434] pool2 <- conv3
I1018 17:27:14.788054  3806 net.cpp:408] pool2 -> pool2
I1018 17:27:14.788079  3806 net.cpp:150] Setting up pool2
I1018 17:27:14.788082  3806 net.cpp:157] Top shape: 64 240 5 5 (384000)
I1018 17:27:14.788085  3806 net.cpp:165] Memory required for data: 64504576
I1018 17:27:14.788087  3806 layer_factory.hpp:77] Creating layer drop2
I1018 17:27:14.788090  3806 net.cpp:100] Creating Layer drop2
I1018 17:27:14.788092  3806 net.cpp:434] drop2 <- pool2
I1018 17:27:14.788095  3806 net.cpp:408] drop2 -> drop2
I1018 17:27:14.788115  3806 net.cpp:150] Setting up drop2
I1018 17:27:14.788118  3806 net.cpp:157] Top shape: 64 240 5 5 (384000)
I1018 17:27:14.788120  3806 net.cpp:165] Memory required for data: 66040576
I1018 17:27:14.788121  3806 layer_factory.hpp:77] Creating layer elu2
I1018 17:27:14.788125  3806 net.cpp:100] Creating Layer elu2
I1018 17:27:14.788126  3806 net.cpp:434] elu2 <- drop2
I1018 17:27:14.788128  3806 net.cpp:408] elu2 -> elu2
I1018 17:27:14.788139  3806 net.cpp:150] Setting up elu2
I1018 17:27:14.788143  3806 net.cpp:157] Top shape: 64 240 5 5 (384000)
I1018 17:27:14.788144  3806 net.cpp:165] Memory required for data: 67576576
I1018 17:27:14.788146  3806 layer_factory.hpp:77] Creating layer conv4
I1018 17:27:14.788151  3806 net.cpp:100] Creating Layer conv4
I1018 17:27:14.788153  3806 net.cpp:434] conv4 <- elu2
I1018 17:27:14.788156  3806 net.cpp:408] conv4 -> conv4
I1018 17:27:14.788938  3806 net.cpp:150] Setting up conv4
I1018 17:27:14.788945  3806 net.cpp:157] Top shape: 64 240 5 5 (384000)
I1018 17:27:14.788949  3806 net.cpp:165] Memory required for data: 69112576
I1018 17:27:14.788952  3806 layer_factory.hpp:77] Creating layer conv5
I1018 17:27:14.788956  3806 net.cpp:100] Creating Layer conv5
I1018 17:27:14.788959  3806 net.cpp:434] conv5 <- conv4
I1018 17:27:14.788964  3806 net.cpp:408] conv5 -> conv5
I1018 17:27:14.790678  3806 net.cpp:150] Setting up conv5
I1018 17:27:14.790686  3806 net.cpp:157] Top shape: 64 260 4 4 (266240)
I1018 17:27:14.790688  3806 net.cpp:165] Memory required for data: 70177536
I1018 17:27:14.790705  3806 layer_factory.hpp:77] Creating layer pool3
I1018 17:27:14.790710  3806 net.cpp:100] Creating Layer pool3
I1018 17:27:14.790712  3806 net.cpp:434] pool3 <- conv5
I1018 17:27:14.790716  3806 net.cpp:408] pool3 -> pool3
I1018 17:27:14.790740  3806 net.cpp:150] Setting up pool3
I1018 17:27:14.790743  3806 net.cpp:157] Top shape: 64 260 2 2 (66560)
I1018 17:27:14.790745  3806 net.cpp:165] Memory required for data: 70443776
I1018 17:27:14.790747  3806 layer_factory.hpp:77] Creating layer drop3
I1018 17:27:14.790750  3806 net.cpp:100] Creating Layer drop3
I1018 17:27:14.790752  3806 net.cpp:434] drop3 <- pool3
I1018 17:27:14.790755  3806 net.cpp:408] drop3 -> drop3
I1018 17:27:14.790776  3806 net.cpp:150] Setting up drop3
I1018 17:27:14.790779  3806 net.cpp:157] Top shape: 64 260 2 2 (66560)
I1018 17:27:14.790781  3806 net.cpp:165] Memory required for data: 70710016
I1018 17:27:14.790783  3806 layer_factory.hpp:77] Creating layer elu3
I1018 17:27:14.790786  3806 net.cpp:100] Creating Layer elu3
I1018 17:27:14.790787  3806 net.cpp:434] elu3 <- drop3
I1018 17:27:14.790791  3806 net.cpp:408] elu3 -> elu3
I1018 17:27:14.790802  3806 net.cpp:150] Setting up elu3
I1018 17:27:14.790804  3806 net.cpp:157] Top shape: 64 260 2 2 (66560)
I1018 17:27:14.790807  3806 net.cpp:165] Memory required for data: 70976256
I1018 17:27:14.790809  3806 layer_factory.hpp:77] Creating layer conv6
I1018 17:27:14.790814  3806 net.cpp:100] Creating Layer conv6
I1018 17:27:14.790817  3806 net.cpp:434] conv6 <- elu3
I1018 17:27:14.790820  3806 net.cpp:408] conv6 -> conv6
I1018 17:27:14.791906  3806 net.cpp:150] Setting up conv6
I1018 17:27:14.791916  3806 net.cpp:157] Top shape: 64 260 2 2 (66560)
I1018 17:27:14.791918  3806 net.cpp:165] Memory required for data: 71242496
I1018 17:27:14.791923  3806 layer_factory.hpp:77] Creating layer conv7
I1018 17:27:14.791927  3806 net.cpp:100] Creating Layer conv7
I1018 17:27:14.791930  3806 net.cpp:434] conv7 <- conv6
I1018 17:27:14.791934  3806 net.cpp:408] conv7 -> conv7
I1018 17:27:14.793732  3806 net.cpp:150] Setting up conv7
I1018 17:27:14.793740  3806 net.cpp:157] Top shape: 64 280 1 1 (17920)
I1018 17:27:14.793742  3806 net.cpp:165] Memory required for data: 71314176
I1018 17:27:14.793745  3806 layer_factory.hpp:77] Creating layer pool4
I1018 17:27:14.793751  3806 net.cpp:100] Creating Layer pool4
I1018 17:27:14.793752  3806 net.cpp:434] pool4 <- conv7
I1018 17:27:14.793756  3806 net.cpp:408] pool4 -> pool4
I1018 17:27:14.793779  3806 net.cpp:150] Setting up pool4
I1018 17:27:14.793783  3806 net.cpp:157] Top shape: 64 280 1 1 (17920)
I1018 17:27:14.793786  3806 net.cpp:165] Memory required for data: 71385856
I1018 17:27:14.793787  3806 layer_factory.hpp:77] Creating layer drop4
I1018 17:27:14.793790  3806 net.cpp:100] Creating Layer drop4
I1018 17:27:14.793792  3806 net.cpp:434] drop4 <- pool4
I1018 17:27:14.793795  3806 net.cpp:408] drop4 -> drop4
I1018 17:27:14.793814  3806 net.cpp:150] Setting up drop4
I1018 17:27:14.793818  3806 net.cpp:157] Top shape: 64 280 1 1 (17920)
I1018 17:27:14.793820  3806 net.cpp:165] Memory required for data: 71457536
I1018 17:27:14.793823  3806 layer_factory.hpp:77] Creating layer elu4
I1018 17:27:14.793824  3806 net.cpp:100] Creating Layer elu4
I1018 17:27:14.793826  3806 net.cpp:434] elu4 <- drop4
I1018 17:27:14.793829  3806 net.cpp:408] elu4 -> elu4
I1018 17:27:14.793840  3806 net.cpp:150] Setting up elu4
I1018 17:27:14.793844  3806 net.cpp:157] Top shape: 64 280 1 1 (17920)
I1018 17:27:14.793845  3806 net.cpp:165] Memory required for data: 71529216
I1018 17:27:14.793848  3806 layer_factory.hpp:77] Creating layer conv8
I1018 17:27:14.793851  3806 net.cpp:100] Creating Layer conv8
I1018 17:27:14.793854  3806 net.cpp:434] conv8 <- elu4
I1018 17:27:14.793858  3806 net.cpp:408] conv8 -> conv8
I1018 17:27:14.794716  3806 net.cpp:150] Setting up conv8
I1018 17:27:14.794723  3806 net.cpp:157] Top shape: 64 280 1 1 (17920)
I1018 17:27:14.794725  3806 net.cpp:165] Memory required for data: 71600896
I1018 17:27:14.794729  3806 layer_factory.hpp:77] Creating layer pool5
I1018 17:27:14.794742  3806 net.cpp:100] Creating Layer pool5
I1018 17:27:14.794745  3806 net.cpp:434] pool5 <- conv8
I1018 17:27:14.794749  3806 net.cpp:408] pool5 -> pool5
I1018 17:27:14.794770  3806 net.cpp:150] Setting up pool5
I1018 17:27:14.794775  3806 net.cpp:157] Top shape: 64 280 1 1 (17920)
I1018 17:27:14.794776  3806 net.cpp:165] Memory required for data: 71672576
I1018 17:27:14.794778  3806 layer_factory.hpp:77] Creating layer drop5
I1018 17:27:14.794781  3806 net.cpp:100] Creating Layer drop5
I1018 17:27:14.794783  3806 net.cpp:434] drop5 <- pool5
I1018 17:27:14.794786  3806 net.cpp:408] drop5 -> drop5
I1018 17:27:14.794806  3806 net.cpp:150] Setting up drop5
I1018 17:27:14.794809  3806 net.cpp:157] Top shape: 64 280 1 1 (17920)
I1018 17:27:14.794811  3806 net.cpp:165] Memory required for data: 71744256
I1018 17:27:14.794812  3806 layer_factory.hpp:77] Creating layer elu5
I1018 17:27:14.794816  3806 net.cpp:100] Creating Layer elu5
I1018 17:27:14.794817  3806 net.cpp:434] elu5 <- drop5
I1018 17:27:14.794821  3806 net.cpp:408] elu5 -> elu5
I1018 17:27:14.794831  3806 net.cpp:150] Setting up elu5
I1018 17:27:14.794836  3806 net.cpp:157] Top shape: 64 280 1 1 (17920)
I1018 17:27:14.794836  3806 net.cpp:165] Memory required for data: 71815936
I1018 17:27:14.794838  3806 layer_factory.hpp:77] Creating layer conv10
I1018 17:27:14.794843  3806 net.cpp:100] Creating Layer conv10
I1018 17:27:14.794845  3806 net.cpp:434] conv10 <- elu5
I1018 17:27:14.794848  3806 net.cpp:408] conv10 -> conv10
I1018 17:27:14.795773  3806 net.cpp:150] Setting up conv10
I1018 17:27:14.795781  3806 net.cpp:157] Top shape: 64 300 1 1 (19200)
I1018 17:27:14.795783  3806 net.cpp:165] Memory required for data: 71892736
I1018 17:27:14.795789  3806 layer_factory.hpp:77] Creating layer pool6
I1018 17:27:14.795794  3806 net.cpp:100] Creating Layer pool6
I1018 17:27:14.795797  3806 net.cpp:434] pool6 <- conv10
I1018 17:27:14.795800  3806 net.cpp:408] pool6 -> pool6
I1018 17:27:14.795825  3806 net.cpp:150] Setting up pool6
I1018 17:27:14.795828  3806 net.cpp:157] Top shape: 64 300 1 1 (19200)
I1018 17:27:14.795830  3806 net.cpp:165] Memory required for data: 71969536
I1018 17:27:14.795831  3806 layer_factory.hpp:77] Creating layer drop6
I1018 17:27:14.795835  3806 net.cpp:100] Creating Layer drop6
I1018 17:27:14.795836  3806 net.cpp:434] drop6 <- pool6
I1018 17:27:14.795840  3806 net.cpp:408] drop6 -> drop6
I1018 17:27:14.795860  3806 net.cpp:150] Setting up drop6
I1018 17:27:14.795862  3806 net.cpp:157] Top shape: 64 300 1 1 (19200)
I1018 17:27:14.795866  3806 net.cpp:165] Memory required for data: 72046336
I1018 17:27:14.795867  3806 layer_factory.hpp:77] Creating layer elu6
I1018 17:27:14.795869  3806 net.cpp:100] Creating Layer elu6
I1018 17:27:14.795871  3806 net.cpp:434] elu6 <- drop6
I1018 17:27:14.795874  3806 net.cpp:408] elu6 -> elu6
I1018 17:27:14.795886  3806 net.cpp:150] Setting up elu6
I1018 17:27:14.795889  3806 net.cpp:157] Top shape: 64 300 1 1 (19200)
I1018 17:27:14.795891  3806 net.cpp:165] Memory required for data: 72123136
I1018 17:27:14.795892  3806 layer_factory.hpp:77] Creating layer conv11
I1018 17:27:14.795897  3806 net.cpp:100] Creating Layer conv11
I1018 17:27:14.795899  3806 net.cpp:434] conv11 <- elu6
I1018 17:27:14.795902  3806 net.cpp:408] conv11 -> conv11
I1018 17:27:14.796957  3806 net.cpp:150] Setting up conv11
I1018 17:27:14.796965  3806 net.cpp:157] Top shape: 64 100 1 1 (6400)
I1018 17:27:14.796967  3806 net.cpp:165] Memory required for data: 72148736
I1018 17:27:14.796972  3806 layer_factory.hpp:77] Creating layer pool7
I1018 17:27:14.796977  3806 net.cpp:100] Creating Layer pool7
I1018 17:27:14.796978  3806 net.cpp:434] pool7 <- conv11
I1018 17:27:14.796982  3806 net.cpp:408] pool7 -> pool7
I1018 17:27:14.797006  3806 net.cpp:150] Setting up pool7
I1018 17:27:14.797011  3806 net.cpp:157] Top shape: 64 100 1 1 (6400)
I1018 17:27:14.797014  3806 net.cpp:165] Memory required for data: 72174336
I1018 17:27:14.797016  3806 layer_factory.hpp:77] Creating layer drop7
I1018 17:27:14.797029  3806 net.cpp:100] Creating Layer drop7
I1018 17:27:14.797032  3806 net.cpp:434] drop7 <- pool7
I1018 17:27:14.797035  3806 net.cpp:408] drop7 -> drop7
I1018 17:27:14.797056  3806 net.cpp:150] Setting up drop7
I1018 17:27:14.797060  3806 net.cpp:157] Top shape: 64 100 1 1 (6400)
I1018 17:27:14.797063  3806 net.cpp:165] Memory required for data: 72199936
I1018 17:27:14.797065  3806 layer_factory.hpp:77] Creating layer elu7
I1018 17:27:14.797070  3806 net.cpp:100] Creating Layer elu7
I1018 17:27:14.797072  3806 net.cpp:434] elu7 <- drop7
I1018 17:27:14.797075  3806 net.cpp:408] elu7 -> elu7
I1018 17:27:14.797088  3806 net.cpp:150] Setting up elu7
I1018 17:27:14.797091  3806 net.cpp:157] Top shape: 64 100 1 1 (6400)
I1018 17:27:14.797093  3806 net.cpp:165] Memory required for data: 72225536
I1018 17:27:14.797096  3806 layer_factory.hpp:77] Creating layer pool
I1018 17:27:14.797098  3806 net.cpp:100] Creating Layer pool
I1018 17:27:14.797101  3806 net.cpp:434] pool <- elu7
I1018 17:27:14.797102  3806 net.cpp:408] pool -> pool
I1018 17:27:14.797226  3806 net.cpp:150] Setting up pool
I1018 17:27:14.797231  3806 net.cpp:157] Top shape: 64 100 1 1 (6400)
I1018 17:27:14.797232  3806 net.cpp:165] Memory required for data: 72251136
I1018 17:27:14.797235  3806 layer_factory.hpp:77] Creating layer flatten
I1018 17:27:14.797238  3806 net.cpp:100] Creating Layer flatten
I1018 17:27:14.797240  3806 net.cpp:434] flatten <- pool
I1018 17:27:14.797243  3806 net.cpp:408] flatten -> flatten
I1018 17:27:14.797257  3806 net.cpp:150] Setting up flatten
I1018 17:27:14.797261  3806 net.cpp:157] Top shape: 64 100 (6400)
I1018 17:27:14.797263  3806 net.cpp:165] Memory required for data: 72276736
I1018 17:27:14.797264  3806 layer_factory.hpp:77] Creating layer score
I1018 17:27:14.797269  3806 net.cpp:100] Creating Layer score
I1018 17:27:14.797271  3806 net.cpp:434] score <- flatten
I1018 17:27:14.797274  3806 net.cpp:408] score -> score
I1018 17:27:14.797368  3806 net.cpp:150] Setting up score
I1018 17:27:14.797370  3806 net.cpp:157] Top shape: 64 10 (640)
I1018 17:27:14.797374  3806 net.cpp:165] Memory required for data: 72279296
I1018 17:27:14.797376  3806 layer_factory.hpp:77] Creating layer score_score_0_split
I1018 17:27:14.797381  3806 net.cpp:100] Creating Layer score_score_0_split
I1018 17:27:14.797384  3806 net.cpp:434] score_score_0_split <- score
I1018 17:27:14.797387  3806 net.cpp:408] score_score_0_split -> score_score_0_split_0
I1018 17:27:14.797391  3806 net.cpp:408] score_score_0_split -> score_score_0_split_1
I1018 17:27:14.797412  3806 net.cpp:150] Setting up score_score_0_split
I1018 17:27:14.797415  3806 net.cpp:157] Top shape: 64 10 (640)
I1018 17:27:14.797418  3806 net.cpp:157] Top shape: 64 10 (640)
I1018 17:27:14.797420  3806 net.cpp:165] Memory required for data: 72284416
I1018 17:27:14.797421  3806 layer_factory.hpp:77] Creating layer accuracy
I1018 17:27:14.797425  3806 net.cpp:100] Creating Layer accuracy
I1018 17:27:14.797428  3806 net.cpp:434] accuracy <- score_score_0_split_0
I1018 17:27:14.797430  3806 net.cpp:434] accuracy <- label_data_1_split_0
I1018 17:27:14.797433  3806 net.cpp:408] accuracy -> accuracy
…
I1018 17:27:14.797956  3806 net.cpp:283] Network initialization done.
I1018 17:27:14.798230  3806 solver.cpp:181] Creating test net (#0) specified by test_net file: /home/adam/Honours/Honours-Project/mnist_pooling/max/elu/poolcnn_elu_test.prototxt
I1018 17:27:14.798408  3806 net.cpp:58] Initializing net from parameters: 
state {
  phase: TEST
}
layer {
  name: "data"
  type: "Data"
  top: "data"
  top: "label"
  transform_param {
    scale: 0.0039215689
  }
  data_param {
    source: "../../../../data/mnist/mnist_test_lmdb"
    batch_size: 100
    backend: LMDB
  }
}
layer {
  name: "conv1"
  type: "Convolution"
  bottom: "data"
  top: "conv1"
  convolution_param {
    num_output: 192
    kernel_size: 5
    weight_filler {
      type: "xavier"
    }
  }
}
layer {
  name: "pool1"
  type: "Pooling"
  bottom: "conv1"
  top: "pool1"
  pooling_param {
    pool: MAX
    kernel_size: 2
    stride: 2
  }
}
layer {
  name: "drop1"
  type: "Dropout"
  bottom: "pool1"
  top: "drop1"
  dropout_param {
    dropout_ratio: 0
  }
}
layer {
  name: "elu1"
  type: "ELU"
  bottom: "drop1"
  top: "elu1"
}
layer {
  name: "conv2"
  type: "Convolution"
  bottom: "elu1"
  top: "conv2"
  convolution_param {
    num_output: 192
    kernel_size: 1
    weight_filler {
      type: "xavier"
    }
  }
}
layer {
  name: "conv3"
  type: "Convolution"
  bottom: "conv2"
  top: "conv3"
  convolution_param {
    num_output: 240
    kernel_size: 3
    weight_filler {
      type: "xavier"
    }
  }
}
layer {
  name: "pool2"
  type: "Pooling"
  bottom: "conv3"
  top: "pool2"
  pooling_param {
    pool: MAX
    kernel_size: 2
    stride: 2
  }
}
layer {
  name: "drop2"
  type: "Dropout"
  bottom: "pool2"
  top: "drop2"
  dropout_param {
    dropout_ratio: 0.1
  }
}
layer {
  name: "elu2"
  type: "ELU"
  bottom: "drop2"
  top: "elu2"
}
layer {
  name: "conv4"
  type: "Convolution"
  bottom: "elu2"
  top: "conv4"
  convolution_param {
    num_output: 240
    kernel_size: 1
    weight_filler {
      type: "xavier"
    }
  }
}
layer {
  name: "conv5"
  type: "Convolution"
  bottom: "conv4"
  top: "conv5"
  convolution_param {
    num_output: 260
    kernel_size: 2
    weight_filler {
      type: "xavier"
    }
  }
}
layer {
  name: "pool3"
  type: "Pooling"
  bottom: "conv5"
  top: "pool3"
  pooling_param {
    pool: MAX
    kernel_size: 2
    stride: 2
  }
}
layer {
  name: "drop3"
  type: "Dropout"
  bottom: "pool3"
  top: "drop3"
  dropout_param {
    dropout_ratio: 0.2
  }
}
layer {
  name: "elu3"
  type: "ELU"
  bottom: "drop3"
  top: "elu3"
}
layer {
  name: "conv6"
  type: "Convolution"
  bottom: "elu3"
  top: "conv6"
  convolution_param {
    num_output: 260
    kernel_size: 1
    weight_filler {
      type: "xavier"
    }
  }
}
layer {
  name: "conv7"
  type: "Convolution"
  bottom: "conv6"
  top: "conv7"
  convolution_param {
    num_output: 280
    kernel_size: 2
    weight_filler {
      type: "xavier"
    }
  }
}
layer {
  name: "pool4"
  type: "Pooling"
  bottom: "conv7"
  top: "pool4"
  pooling_param {
    pool: MAX
    kernel_size: 2
    stride: 2
  }
}
layer {
  name: "drop4"
  type: "Dropout"
  bottom: "pool4"
  top: "drop4"
  dropout_param {
    dropout_ratio: 0.3
  }
}
layer {
  name: "elu4"
  type: "ELU"
  bottom: "drop4"
  top: "elu4"
}
layer {
  name: "conv8"
  type: "Convolution"
  bottom: "elu4"
  top: "conv8"
  convolution_param {
    num_output: 280
    kernel_size: 1
    weight_filler {
      type: "xavier"
    }
  }
}
layer {
  name: "pool5"
  type: "Pooling"
  bottom: "conv8"
  top: "pool5"
  pooling_param {
    pool: MAX
    kernel_size: 2
    stride: 2
  }
}
layer {
  name: "drop5"
  type: "Dropout"
  bottom: "pool5"
  top: "drop5"
  dropout_param {
    dropout_ratio: 0.4
  }
}
layer {
  name: "elu5"
  type: "ELU"
  bottom: "drop5"
  top: "elu5"
}
layer {
  name: "conv10"
  type: "Convolution"
  bottom: "elu5"
  top: "conv10"
  convolution_param {
    num_output: 300
    kernel_size: 1
    weight_filler {
      type: "xavier"
    }
  }
}
layer {
  name: "pool6"
  type: "Pooling"
  bottom: "conv10"
  top: "pool6"
  pooling_param {
    pool: MAX
    kernel_size: 2
    stride: 2
  }
}
layer {
  name: "drop6"
  type: "Dropout"
  bottom: "pool6"
  top: "drop6"
  dropout_param {
    dropout_ratio: 0.5
  }
}
layer {
  name: "elu6"
  type: "ELU"
  bottom: "drop6"
  top: "elu6"
}
layer {
  name: "conv11"
  type: "Convolution"
  bottom: "elu6"
  top: "conv11"
  convolution_param {
    num_output: 100
    kernel_size: 1
    weight_filler {
      type: "xavier"
    }
  }
}
layer {
  name: "pool7"
  type: "Pooling"
  bottom: "conv11"
  top: "pool7"
  pooling_param {
    pool: MAX
    kernel_size: 2
    stride: 2
  }
}
layer {
  name: "drop7"
  type: "Dropout"
  bottom: "pool7"
  top: "drop7"
  dropout_param {
    dropout_ratio: 0
  }
}
layer {
  name: "elu7"
  type: "ELU"
  bottom: "drop7"
  top: "elu7"
}
layer {
  name: "pool"
  type: "Pooling"
  bottom: "elu7"
  top: "pool"
  pooling_param {
    pool: AVE
    global_pooling: true
  }
}
layer {
  name: "flatten"
  type: "Flatten"
  bottom: "pool"
  top: "flatten"
}
layer {
  name: "score"
  type: "InnerProduct"
  bottom: "flatten"
  top: "score"
  inner_product_param {
    num_output: 10
    weight_filler {
      type: "gaussian"
    }
  }
}
layer {
  name: "accuracy"
  type: "Accuracy"
  bottom: "score"
  bottom: "label"
  top: "accuracy"
}
layer {
  name: "loss"
  type: "SoftmaxWithLoss"
  bottom: "score"
  bottom: "label"
  top: "loss"
}
I1018 17:27:14.798516  3806 layer_factory.hpp:77] Creating layer data
I1018 17:27:14.798611  3806 net.cpp:100] Creating Layer data
I1018 17:27:14.798620  3806 net.cpp:408] data -> data
I1018 17:27:14.798629  3806 net.cpp:408] data -> label
I1018 17:27:14.799248  3814 db_lmdb.cpp:35] Opened lmdb ../../../../data/mnist/mnist_test_lmdb
I1018 17:27:14.799361  3806 data_layer.cpp:41] output data size: 100,1,28,28
I1018 17:27:14.800287  3806 net.cpp:150] Setting up data
I1018 17:27:14.800302  3806 net.cpp:157] Top shape: 100 1 28 28 (78400)
I1018 17:27:14.800307  3806 net.cpp:157] Top shape: 100 (100)
I1018 17:27:14.800310  3806 net.cpp:165] Memory required for data: 314000
I1018 17:27:14.800317  3806 layer_factory.hpp:77] Creating layer label_data_1_split
I1018 17:27:14.800328  3806 net.cpp:100] Creating Layer label_data_1_split
I1018 17:27:14.800331  3806 net.cpp:434] label_data_1_split <- label
I1018 17:27:14.800338  3806 net.cpp:408] label_data_1_split -> label_data_1_split_0
I1018 17:27:14.800348  3806 net.cpp:408] label_data_1_split -> label_data_1_split_1
I1018 17:27:14.800389  3806 net.cpp:150] Setting up label_data_1_split
I1018 17:27:14.800395  3806 net.cpp:157] Top shape: 100 (100)
I1018 17:27:14.800398  3806 net.cpp:157] Top shape: 100 (100)
I1018 17:27:14.800401  3806 net.cpp:165] Memory required for data: 314800
I1018 17:27:14.800405  3806 layer_factory.hpp:77] Creating layer conv1
I1018 17:27:14.800415  3806 net.cpp:100] Creating Layer conv1
I1018 17:27:14.800420  3806 net.cpp:434] conv1 <- data
I1018 17:27:14.800426  3806 net.cpp:408] conv1 -> conv1
I1018 17:27:14.801141  3806 net.cpp:150] Setting up conv1
I1018 17:27:14.801149  3806 net.cpp:157] Top shape: 100 192 24 24 (11059200)
I1018 17:27:14.801152  3806 net.cpp:165] Memory required for data: 44551600
I1018 17:27:14.801163  3806 layer_factory.hpp:77] Creating layer pool1
I1018 17:27:14.801172  3806 net.cpp:100] Creating Layer pool1
I1018 17:27:14.801175  3806 net.cpp:434] pool1 <- conv1
I1018 17:27:14.801182  3806 net.cpp:408] pool1 -> pool1
I1018 17:27:14.801237  3806 net.cpp:150] Setting up pool1
I1018 17:27:14.801244  3806 net.cpp:157] Top shape: 100 192 12 12 (2764800)
I1018 17:27:14.801249  3806 net.cpp:165] Memory required for data: 55610800
I1018 17:27:14.801251  3806 layer_factory.hpp:77] Creating layer drop1
I1018 17:27:14.801257  3806 net.cpp:100] Creating Layer drop1
I1018 17:27:14.801261  3806 net.cpp:434] drop1 <- pool1
I1018 17:27:14.801266  3806 net.cpp:408] drop1 -> drop1
I1018 17:27:14.801295  3806 net.cpp:150] Setting up drop1
I1018 17:27:14.801300  3806 net.cpp:157] Top shape: 100 192 12 12 (2764800)
I1018 17:27:14.801303  3806 net.cpp:165] Memory required for data: 66670000
I1018 17:27:14.801308  3806 layer_factory.hpp:77] Creating layer elu1
I1018 17:27:14.801313  3806 net.cpp:100] Creating Layer elu1
I1018 17:27:14.801318  3806 net.cpp:434] elu1 <- drop1
I1018 17:27:14.801322  3806 net.cpp:408] elu1 -> elu1
I1018 17:27:14.801340  3806 net.cpp:150] Setting up elu1
I1018 17:27:14.801347  3806 net.cpp:157] Top shape: 100 192 12 12 (2764800)
I1018 17:27:14.801350  3806 net.cpp:165] Memory required for data: 77729200
I1018 17:27:14.801353  3806 layer_factory.hpp:77] Creating layer conv2
I1018 17:27:14.801362  3806 net.cpp:100] Creating Layer conv2
I1018 17:27:14.801367  3806 net.cpp:434] conv2 <- elu1
I1018 17:27:14.801373  3806 net.cpp:408] conv2 -> conv2
I1018 17:27:14.802223  3806 net.cpp:150] Setting up conv2
I1018 17:27:14.802233  3806 net.cpp:157] Top shape: 100 192 12 12 (2764800)
I1018 17:27:14.802237  3806 net.cpp:165] Memory required for data: 88788400
I1018 17:27:14.802248  3806 layer_factory.hpp:77] Creating layer conv3
I1018 17:27:14.802258  3806 net.cpp:100] Creating Layer conv3
I1018 17:27:14.802284  3806 net.cpp:434] conv3 <- conv2
I1018 17:27:14.802292  3806 net.cpp:408] conv3 -> conv3
I1018 17:27:14.804785  3806 net.cpp:150] Setting up conv3
I1018 17:27:14.804800  3806 net.cpp:157] Top shape: 100 240 10 10 (2400000)
I1018 17:27:14.804802  3806 net.cpp:165] Memory required for data: 98388400
I1018 17:27:14.804813  3806 layer_factory.hpp:77] Creating layer pool2
I1018 17:27:14.804822  3806 net.cpp:100] Creating Layer pool2
I1018 17:27:14.804827  3806 net.cpp:434] pool2 <- conv3
I1018 17:27:14.804833  3806 net.cpp:408] pool2 -> pool2
I1018 17:27:14.804867  3806 net.cpp:150] Setting up pool2
I1018 17:27:14.804872  3806 net.cpp:157] Top shape: 100 240 5 5 (600000)
I1018 17:27:14.804875  3806 net.cpp:165] Memory required for data: 100788400
I1018 17:27:14.804878  3806 layer_factory.hpp:77] Creating layer drop2
I1018 17:27:14.804884  3806 net.cpp:100] Creating Layer drop2
I1018 17:27:14.804888  3806 net.cpp:434] drop2 <- pool2
I1018 17:27:14.804893  3806 net.cpp:408] drop2 -> drop2
I1018 17:27:14.804918  3806 net.cpp:150] Setting up drop2
I1018 17:27:14.804924  3806 net.cpp:157] Top shape: 100 240 5 5 (600000)
I1018 17:27:14.804926  3806 net.cpp:165] Memory required for data: 103188400
I1018 17:27:14.804929  3806 layer_factory.hpp:77] Creating layer elu2
I1018 17:27:14.804934  3806 net.cpp:100] Creating Layer elu2
I1018 17:27:14.804937  3806 net.cpp:434] elu2 <- drop2
I1018 17:27:14.804941  3806 net.cpp:408] elu2 -> elu2
I1018 17:27:14.804958  3806 net.cpp:150] Setting up elu2
I1018 17:27:14.804963  3806 net.cpp:157] Top shape: 100 240 5 5 (600000)
I1018 17:27:14.804967  3806 net.cpp:165] Memory required for data: 105588400
I1018 17:27:14.804970  3806 layer_factory.hpp:77] Creating layer conv4
I1018 17:27:14.804976  3806 net.cpp:100] Creating Layer conv4
I1018 17:27:14.804980  3806 net.cpp:434] conv4 <- elu2
I1018 17:27:14.804986  3806 net.cpp:408] conv4 -> conv4
I1018 17:27:14.805809  3806 net.cpp:150] Setting up conv4
I1018 17:27:14.805819  3806 net.cpp:157] Top shape: 100 240 5 5 (600000)
I1018 17:27:14.805821  3806 net.cpp:165] Memory required for data: 107988400
I1018 17:27:14.805827  3806 layer_factory.hpp:77] Creating layer conv5
I1018 17:27:14.805835  3806 net.cpp:100] Creating Layer conv5
I1018 17:27:14.805838  3806 net.cpp:434] conv5 <- conv4
I1018 17:27:14.805843  3806 net.cpp:408] conv5 -> conv5
I1018 17:27:14.807606  3806 net.cpp:150] Setting up conv5
I1018 17:27:14.807616  3806 net.cpp:157] Top shape: 100 260 4 4 (416000)
I1018 17:27:14.807620  3806 net.cpp:165] Memory required for data: 109652400
I1018 17:27:14.807628  3806 layer_factory.hpp:77] Creating layer pool3
I1018 17:27:14.807636  3806 net.cpp:100] Creating Layer pool3
I1018 17:27:14.807641  3806 net.cpp:434] pool3 <- conv5
I1018 17:27:14.807646  3806 net.cpp:408] pool3 -> pool3
I1018 17:27:14.807675  3806 net.cpp:150] Setting up pool3
I1018 17:27:14.807682  3806 net.cpp:157] Top shape: 100 260 2 2 (104000)
I1018 17:27:14.807684  3806 net.cpp:165] Memory required for data: 110068400
I1018 17:27:14.807687  3806 layer_factory.hpp:77] Creating layer drop3
I1018 17:27:14.807692  3806 net.cpp:100] Creating Layer drop3
I1018 17:27:14.807695  3806 net.cpp:434] drop3 <- pool3
I1018 17:27:14.807700  3806 net.cpp:408] drop3 -> drop3
I1018 17:27:14.807728  3806 net.cpp:150] Setting up drop3
I1018 17:27:14.807732  3806 net.cpp:157] Top shape: 100 260 2 2 (104000)
I1018 17:27:14.807736  3806 net.cpp:165] Memory required for data: 110484400
I1018 17:27:14.807739  3806 layer_factory.hpp:77] Creating layer elu3
I1018 17:27:14.807744  3806 net.cpp:100] Creating Layer elu3
I1018 17:27:14.807747  3806 net.cpp:434] elu3 <- drop3
I1018 17:27:14.807751  3806 net.cpp:408] elu3 -> elu3
I1018 17:27:14.807768  3806 net.cpp:150] Setting up elu3
I1018 17:27:14.807773  3806 net.cpp:157] Top shape: 100 260 2 2 (104000)
I1018 17:27:14.807776  3806 net.cpp:165] Memory required for data: 110900400
I1018 17:27:14.807780  3806 layer_factory.hpp:77] Creating layer conv6
I1018 17:27:14.807787  3806 net.cpp:100] Creating Layer conv6
I1018 17:27:14.807791  3806 net.cpp:434] conv6 <- elu3
I1018 17:27:14.807806  3806 net.cpp:408] conv6 -> conv6
I1018 17:27:14.808907  3806 net.cpp:150] Setting up conv6
I1018 17:27:14.808917  3806 net.cpp:157] Top shape: 100 260 2 2 (104000)
I1018 17:27:14.808919  3806 net.cpp:165] Memory required for data: 111316400
I1018 17:27:14.808925  3806 layer_factory.hpp:77] Creating layer conv7
I1018 17:27:14.808933  3806 net.cpp:100] Creating Layer conv7
I1018 17:27:14.808938  3806 net.cpp:434] conv7 <- conv6
I1018 17:27:14.808943  3806 net.cpp:408] conv7 -> conv7
I1018 17:27:14.810858  3806 net.cpp:150] Setting up conv7
I1018 17:27:14.810868  3806 net.cpp:157] Top shape: 100 280 1 1 (28000)
I1018 17:27:14.810871  3806 net.cpp:165] Memory required for data: 111428400
I1018 17:27:14.810878  3806 layer_factory.hpp:77] Creating layer pool4
I1018 17:27:14.810884  3806 net.cpp:100] Creating Layer pool4
I1018 17:27:14.810889  3806 net.cpp:434] pool4 <- conv7
I1018 17:27:14.810894  3806 net.cpp:408] pool4 -> pool4
I1018 17:27:14.810922  3806 net.cpp:150] Setting up pool4
I1018 17:27:14.810927  3806 net.cpp:157] Top shape: 100 280 1 1 (28000)
I1018 17:27:14.810931  3806 net.cpp:165] Memory required for data: 111540400
I1018 17:27:14.810935  3806 layer_factory.hpp:77] Creating layer drop4
I1018 17:27:14.810940  3806 net.cpp:100] Creating Layer drop4
I1018 17:27:14.810942  3806 net.cpp:434] drop4 <- pool4
I1018 17:27:14.810947  3806 net.cpp:408] drop4 -> drop4
I1018 17:27:14.810974  3806 net.cpp:150] Setting up drop4
I1018 17:27:14.810979  3806 net.cpp:157] Top shape: 100 280 1 1 (28000)
I1018 17:27:14.810982  3806 net.cpp:165] Memory required for data: 111652400
I1018 17:27:14.810986  3806 layer_factory.hpp:77] Creating layer elu4
I1018 17:27:14.810991  3806 net.cpp:100] Creating Layer elu4
I1018 17:27:14.810994  3806 net.cpp:434] elu4 <- drop4
I1018 17:27:14.810998  3806 net.cpp:408] elu4 -> elu4
I1018 17:27:14.811015  3806 net.cpp:150] Setting up elu4
I1018 17:27:14.811020  3806 net.cpp:157] Top shape: 100 280 1 1 (28000)
I1018 17:27:14.811023  3806 net.cpp:165] Memory required for data: 111764400
I1018 17:27:14.811027  3806 layer_factory.hpp:77] Creating layer conv8
I1018 17:27:14.811033  3806 net.cpp:100] Creating Layer conv8
I1018 17:27:14.811036  3806 net.cpp:434] conv8 <- elu4
I1018 17:27:14.811041  3806 net.cpp:408] conv8 -> conv8
I1018 17:27:14.811892  3806 net.cpp:150] Setting up conv8
I1018 17:27:14.811900  3806 net.cpp:157] Top shape: 100 280 1 1 (28000)
I1018 17:27:14.811903  3806 net.cpp:165] Memory required for data: 111876400
I1018 17:27:14.811909  3806 layer_factory.hpp:77] Creating layer pool5
I1018 17:27:14.811915  3806 net.cpp:100] Creating Layer pool5
I1018 17:27:14.811920  3806 net.cpp:434] pool5 <- conv8
I1018 17:27:14.811924  3806 net.cpp:408] pool5 -> pool5
I1018 17:27:14.811952  3806 net.cpp:150] Setting up pool5
I1018 17:27:14.811957  3806 net.cpp:157] Top shape: 100 280 1 1 (28000)
I1018 17:27:14.811962  3806 net.cpp:165] Memory required for data: 111988400
I1018 17:27:14.811965  3806 layer_factory.hpp:77] Creating layer drop5
I1018 17:27:14.811969  3806 net.cpp:100] Creating Layer drop5
I1018 17:27:14.811974  3806 net.cpp:434] drop5 <- pool5
I1018 17:27:14.811978  3806 net.cpp:408] drop5 -> drop5
I1018 17:27:14.812003  3806 net.cpp:150] Setting up drop5
I1018 17:27:14.812008  3806 net.cpp:157] Top shape: 100 280 1 1 (28000)
I1018 17:27:14.812011  3806 net.cpp:165] Memory required for data: 112100400
I1018 17:27:14.812014  3806 layer_factory.hpp:77] Creating layer elu5
I1018 17:27:14.812019  3806 net.cpp:100] Creating Layer elu5
I1018 17:27:14.812022  3806 net.cpp:434] elu5 <- drop5
I1018 17:27:14.812026  3806 net.cpp:408] elu5 -> elu5
I1018 17:27:14.812044  3806 net.cpp:150] Setting up elu5
I1018 17:27:14.812049  3806 net.cpp:157] Top shape: 100 280 1 1 (28000)
I1018 17:27:14.812052  3806 net.cpp:165] Memory required for data: 112212400
I1018 17:27:14.812054  3806 layer_factory.hpp:77] Creating layer conv10
I1018 17:27:14.812062  3806 net.cpp:100] Creating Layer conv10
I1018 17:27:14.812065  3806 net.cpp:434] conv10 <- elu5
I1018 17:27:14.812069  3806 net.cpp:408] conv10 -> conv10
I1018 17:27:14.813089  3806 net.cpp:150] Setting up conv10
I1018 17:27:14.813098  3806 net.cpp:157] Top shape: 100 300 1 1 (30000)
I1018 17:27:14.813102  3806 net.cpp:165] Memory required for data: 112332400
I1018 17:27:14.813113  3806 layer_factory.hpp:77] Creating layer pool6
I1018 17:27:14.813119  3806 net.cpp:100] Creating Layer pool6
I1018 17:27:14.813123  3806 net.cpp:434] pool6 <- conv10
I1018 17:27:14.813128  3806 net.cpp:408] pool6 -> pool6
I1018 17:27:14.813156  3806 net.cpp:150] Setting up pool6
I1018 17:27:14.813163  3806 net.cpp:157] Top shape: 100 300 1 1 (30000)
I1018 17:27:14.813166  3806 net.cpp:165] Memory required for data: 112452400
I1018 17:27:14.813169  3806 layer_factory.hpp:77] Creating layer drop6
I1018 17:27:14.813174  3806 net.cpp:100] Creating Layer drop6
I1018 17:27:14.813177  3806 net.cpp:434] drop6 <- pool6
I1018 17:27:14.813182  3806 net.cpp:408] drop6 -> drop6
I1018 17:27:14.813207  3806 net.cpp:150] Setting up drop6
I1018 17:27:14.813212  3806 net.cpp:157] Top shape: 100 300 1 1 (30000)
I1018 17:27:14.813215  3806 net.cpp:165] Memory required for data: 112572400
I1018 17:27:14.813220  3806 layer_factory.hpp:77] Creating layer elu6
I1018 17:27:14.813223  3806 net.cpp:100] Creating Layer elu6
I1018 17:27:14.813227  3806 net.cpp:434] elu6 <- drop6
I1018 17:27:14.813231  3806 net.cpp:408] elu6 -> elu6
I1018 17:27:14.813248  3806 net.cpp:150] Setting up elu6
I1018 17:27:14.813253  3806 net.cpp:157] Top shape: 100 300 1 1 (30000)
I1018 17:27:14.813256  3806 net.cpp:165] Memory required for data: 112692400
I1018 17:27:14.813258  3806 layer_factory.hpp:77] Creating layer conv11
I1018 17:27:14.813266  3806 net.cpp:100] Creating Layer conv11
I1018 17:27:14.813269  3806 net.cpp:434] conv11 <- elu6
I1018 17:27:14.813273  3806 net.cpp:408] conv11 -> conv11
I1018 17:27:14.814033  3806 net.cpp:150] Setting up conv11
I1018 17:27:14.814043  3806 net.cpp:157] Top shape: 100 100 1 1 (10000)
I1018 17:27:14.814045  3806 net.cpp:165] Memory required for data: 112732400
I1018 17:27:14.814051  3806 layer_factory.hpp:77] Creating layer pool7
I1018 17:27:14.814057  3806 net.cpp:100] Creating Layer pool7
I1018 17:27:14.814062  3806 net.cpp:434] pool7 <- conv11
I1018 17:27:14.814069  3806 net.cpp:408] pool7 -> pool7
I1018 17:27:14.814101  3806 net.cpp:150] Setting up pool7
I1018 17:27:14.814107  3806 net.cpp:157] Top shape: 100 100 1 1 (10000)
I1018 17:27:14.814111  3806 net.cpp:165] Memory required for data: 112772400
I1018 17:27:14.814115  3806 layer_factory.hpp:77] Creating layer drop7
I1018 17:27:14.814121  3806 net.cpp:100] Creating Layer drop7
I1018 17:27:14.814123  3806 net.cpp:434] drop7 <- pool7
I1018 17:27:14.814128  3806 net.cpp:408] drop7 -> drop7
I1018 17:27:14.814157  3806 net.cpp:150] Setting up drop7
I1018 17:27:14.814162  3806 net.cpp:157] Top shape: 100 100 1 1 (10000)
I1018 17:27:14.814163  3806 net.cpp:165] Memory required for data: 112812400
I1018 17:27:14.814167  3806 layer_factory.hpp:77] Creating layer elu7
I1018 17:27:14.814175  3806 net.cpp:100] Creating Layer elu7
I1018 17:27:14.814178  3806 net.cpp:434] elu7 <- drop7
I1018 17:27:14.814183  3806 net.cpp:408] elu7 -> elu7
I1018 17:27:14.814201  3806 net.cpp:150] Setting up elu7
I1018 17:27:14.814206  3806 net.cpp:157] Top shape: 100 100 1 1 (10000)
I1018 17:27:14.814208  3806 net.cpp:165] Memory required for data: 112852400
I1018 17:27:14.814211  3806 layer_factory.hpp:77] Creating layer pool
I1018 17:27:14.814218  3806 net.cpp:100] Creating Layer pool
I1018 17:27:14.814221  3806 net.cpp:434] pool <- elu7
I1018 17:27:14.814226  3806 net.cpp:408] pool -> pool
I1018 17:27:14.814345  3806 net.cpp:150] Setting up pool
I1018 17:27:14.814353  3806 net.cpp:157] Top shape: 100 100 1 1 (10000)
I1018 17:27:14.814357  3806 net.cpp:165] Memory required for data: 112892400
I1018 17:27:14.814359  3806 layer_factory.hpp:77] Creating layer flatten
I1018 17:27:14.814364  3806 net.cpp:100] Creating Layer flatten
I1018 17:27:14.814368  3806 net.cpp:434] flatten <- pool
I1018 17:27:14.814373  3806 net.cpp:408] flatten -> flatten
I1018 17:27:14.814399  3806 net.cpp:150] Setting up flatten
I1018 17:27:14.814404  3806 net.cpp:157] Top shape: 100 100 (10000)
I1018 17:27:14.814407  3806 net.cpp:165] Memory required for data: 112932400
I1018 17:27:14.814410  3806 layer_factory.hpp:77] Creating layer score
I1018 17:27:14.814417  3806 net.cpp:100] Creating Layer score
I1018 17:27:14.814421  3806 net.cpp:434] score <- flatten
I1018 17:27:14.814426  3806 net.cpp:408] score -> score
I1018 17:27:14.814513  3806 net.cpp:150] Setting up score
I1018 17:27:14.814518  3806 net.cpp:157] Top shape: 100 10 (1000)
I1018 17:27:14.814520  3806 net.cpp:165] Memory required for data: 112936400
I1018 17:27:14.814527  3806 layer_factory.hpp:77] Creating layer score_score_0_split
I1018 17:27:14.814533  3806 net.cpp:100] Creating Layer score_score_0_split
I1018 17:27:14.814538  3806 net.cpp:434] score_score_0_split <- score
I1018 17:27:14.814541  3806 net.cpp:408] score_score_0_split -> score_score_0_split_0
I1018 17:27:14.814548  3806 net.cpp:408] score_score_0_split -> score_score_0_split_1
I1018 17:27:14.814577  3806 net.cpp:150] Setting up score_score_0_split
I1018 17:27:14.814581  3806 net.cpp:157] Top shape: 100 10 (1000)
I1018 17:27:14.814585  3806 net.cpp:157] Top shape: 100 10 (1000)
I1018 17:27:14.814589  3806 net.cpp:165] Memory required for data: 112944400
I1018 17:27:14.814591  3806 layer_factory.hpp:77] Creating layer accuracy
I1018 17:27:14.814599  3806 net.cpp:100] Creating Layer accuracy
I1018 17:27:14.814601  3806 net.cpp:434] accuracy <- score_score_0_split_0
I1018 17:27:14.814606  3806 net.cpp:434] accuracy <- label_data_1_split_0
I1018 17:27:14.814611  3806 net.cpp:408] accuracy -> accuracy
…
