…
  level: 0
  stage: ""
}
type: "AdaGrad"
I1020 04:27:38.060255 10409 solver.cpp:81] Creating training net from train_net file: /home/adam/Honours/Honours-Project/mnist_pooling/max/elu/poolcnn_elu_train.prototxt
I1020 04:27:38.060572 10409 net.cpp:58] Initializing net from parameters: 
state {
  phase: TRAIN
  level: 0
  stage: ""
}
layer {
  name: "data"
  type: "Data"
  top: "data"
  top: "label"
  transform_param {
    scale: 0.0039215689
  }
  data_param {
    source: "../../../../data/mnist/mnist_train_lmdb"
    batch_size: 64
    backend: LMDB
  }
}
layer {
  name: "conv1"
  type: "Convolution"
  bottom: "data"
  top: "conv1"
  convolution_param {
    num_output: 192
    kernel_size: 5
    weight_filler {
      type: "xavier"
    }
  }
}
layer {
  name: "elu1"
  type: "ELU"
  bottom: "conv1"
  top: "elu1"
}
layer {
  name: "drop1"
  type: "Dropout"
  bottom: "elu1"
  top: "drop1"
  dropout_param {
    dropout_ratio: 0
  }
}
layer {
  name: "pool1"
  type: "Pooling"
  bottom: "drop1"
  top: "pool1"
  pooling_param {
    pool: MAX
    kernel_size: 2
    stride: 2
  }
}
layer {
  name: "conv2"
  type: "Convolution"
  bottom: "pool1"
  top: "conv2"
  convolution_param {
    num_output: 192
    kernel_size: 1
    weight_filler {
      type: "xavier"
    }
  }
}
layer {
  name: "elu2"
  type: "ELU"
  bottom: "conv2"
  top: "elu2"
}
layer {
  name: "conv3"
  type: "Convolution"
  bottom: "elu2"
  top: "conv3"
  convolution_param {
    num_output: 240
    kernel_size: 3
    weight_filler {
      type: "xavier"
    }
  }
}
layer {
  name: "elu3"
  type: "ELU"
  bottom: "conv3"
  top: "elu3"
}
layer {
  name: "drop2"
  type: "Dropout"
  bottom: "elu3"
  top: "drop2"
  dropout_param {
    dropout_ratio: 0.1
  }
}
layer {
  name: "pool2"
  type: "Pooling"
  bottom: "drop2"
  top: "pool2"
  pooling_param {
    pool: MAX
    kernel_size: 2
    stride: 2
  }
}
layer {
  name: "conv4"
  type: "Convolution"
  bottom: "pool2"
  top: "conv4"
  convolution_param {
    num_output: 240
    kernel_size: 1
    weight_filler {
      type: "xavier"
    }
  }
}
layer {
  name: "elu4"
  type: "ELU"
  bottom: "conv4"
  top: "elu4"
}
layer {
  name: "conv5"
  type: "Convolution"
  bottom: "elu4"
  top: "conv5"
  convolution_param {
    num_output: 260
    kernel_size: 2
    weight_filler {
      type: "xavier"
    }
  }
}
layer {
  name: "elu5"
  type: "ELU"
  bottom: "conv5"
  top: "elu5"
}
layer {
  name: "drop3"
  type: "Dropout"
  bottom: "elu5"
  top: "drop3"
  dropout_param {
    dropout_ratio: 0.2
  }
}
layer {
  name: "pool3"
  type: "Pooling"
  bottom: "drop3"
  top: "pool3"
  pooling_param {
    pool: MAX
    kernel_size: 2
    stride: 2
  }
}
layer {
  name: "conv6"
  type: "Convolution"
  bottom: "pool3"
  top: "conv6"
  convolution_param {
    num_output: 260
    kernel_size: 1
    weight_filler {
      type: "xavier"
    }
  }
}
layer {
  name: "elu6"
  type: "ELU"
  bottom: "conv6"
  top: "elu6"
}
layer {
  name: "conv7"
  type: "Convolution"
  bottom: "elu6"
  top: "conv7"
  convolution_param {
    num_output: 280
    kernel_size: 2
    weight_filler {
      type: "xavier"
    }
  }
}
layer {
  name: "elu7"
  type: "ELU"
  bottom: "conv7"
  top: "elu7"
}
layer {
  name: "drop4"
  type: "Dropout"
  bottom: "elu7"
  top: "drop4"
  dropout_param {
    dropout_ratio: 0.3
  }
}
layer {
  name: "pool4"
  type: "Pooling"
  bottom: "drop4"
  top: "pool4"
  pooling_param {
    pool: MAX
    kernel_size: 2
    stride: 2
  }
}
layer {
  name: "conv8"
  type: "Convolution"
  bottom: "pool4"
  top: "conv8"
  convolution_param {
    num_output: 280
    kernel_size: 1
    weight_filler {
      type: "xavier"
    }
  }
}
layer {
  name: "elu8"
  type: "ELU"
  bottom: "conv8"
  top: "elu8"
}
layer {
  name: "drop5"
  type: "Dropout"
  bottom: "elu8"
  top: "drop5"
  dropout_param {
    dropout_ratio: 0.4
  }
}
layer {
  name: "pool5"
  type: "Pooling"
  bottom: "drop5"
  top: "pool5"
  pooling_param {
    pool: MAX
    kernel_size: 2
    stride: 2
  }
}
layer {
  name: "conv10"
  type: "Convolution"
  bottom: "pool5"
  top: "conv10"
  convolution_param {
    num_output: 300
    kernel_size: 1
    weight_filler {
      type: "xavier"
    }
  }
}
layer {
  name: "elu10"
  type: "ELU"
  bottom: "conv10"
  top: "elu10"
}
layer {
  name: "drop6"
  type: "Dropout"
  bottom: "elu10"
  top: "drop6"
  dropout_param {
    dropout_ratio: 0.5
  }
}
layer {
  name: "pool6"
  type: "Pooling"
  bottom: "drop6"
  top: "pool6"
  pooling_param {
    pool: MAX
    kernel_size: 2
    stride: 2
  }
}
layer {
  name: "conv11"
  type: "Convolution"
  bottom: "pool6"
  top: "conv11"
  convolution_param {
    num_output: 100
    kernel_size: 1
    weight_filler {
      type: "xavier"
    }
  }
}
layer {
  name: "elu11"
  type: "ELU"
  bottom: "conv11"
  top: "elu11"
}
layer {
  name: "drop7"
  type: "Dropout"
  bottom: "elu11"
  top: "drop7"
  dropout_param {
    dropout_ratio: 0
  }
}
layer {
  name: "pool7"
  type: "Pooling"
  bottom: "drop7"
  top: "pool7"
  pooling_param {
    pool: MAX
    kernel_size: 2
    stride: 2
  }
}
layer {
  name: "score"
  type: "InnerProduct"
  bottom: "pool7"
  top: "score"
  inner_product_param {
    num_output: 10
    weight_filler {
      type: "gaussian"
    }
  }
}
layer {
  name: "accuracy"
  type: "Accuracy"
  bottom: "score"
  bottom: "label"
  top: "accuracy"
}
layer {
  name: "loss"
  type: "SoftmaxWithLoss"
  bottom: "score"
  bottom: "label"
  top: "loss"
}
I1020 04:27:38.060704 10409 layer_factory.hpp:77] Creating layer data
I1020 04:27:38.061106 10409 net.cpp:100] Creating Layer data
I1020 04:27:38.061113 10409 net.cpp:408] data -> data
I1020 04:27:38.061128 10409 net.cpp:408] data -> label
I1020 04:27:38.061745 10415 db_lmdb.cpp:35] Opened lmdb ../../../../data/mnist/mnist_train_lmdb
I1020 04:27:38.067673 10409 data_layer.cpp:41] output data size: 64,1,28,28
I1020 04:27:38.068264 10409 net.cpp:150] Setting up data
I1020 04:27:38.068276 10409 net.cpp:157] Top shape: 64 1 28 28 (50176)
I1020 04:27:38.068279 10409 net.cpp:157] Top shape: 64 (64)
I1020 04:27:38.068281 10409 net.cpp:165] Memory required for data: 200960
I1020 04:27:38.068295 10409 layer_factory.hpp:77] Creating layer label_data_1_split
I1020 04:27:38.068306 10409 net.cpp:100] Creating Layer label_data_1_split
I1020 04:27:38.068311 10409 net.cpp:434] label_data_1_split <- label
I1020 04:27:38.068323 10409 net.cpp:408] label_data_1_split -> label_data_1_split_0
I1020 04:27:38.068331 10409 net.cpp:408] label_data_1_split -> label_data_1_split_1
I1020 04:27:38.068366 10409 net.cpp:150] Setting up label_data_1_split
I1020 04:27:38.068370 10409 net.cpp:157] Top shape: 64 (64)
I1020 04:27:38.068373 10409 net.cpp:157] Top shape: 64 (64)
I1020 04:27:38.068374 10409 net.cpp:165] Memory required for data: 201472
I1020 04:27:38.068377 10409 layer_factory.hpp:77] Creating layer conv1
I1020 04:27:38.068389 10409 net.cpp:100] Creating Layer conv1
I1020 04:27:38.068392 10409 net.cpp:434] conv1 <- data
I1020 04:27:38.068394 10409 net.cpp:408] conv1 -> conv1
I1020 04:27:38.198036 10409 net.cpp:150] Setting up conv1
I1020 04:27:38.198060 10409 net.cpp:157] Top shape: 64 192 24 24 (7077888)
I1020 04:27:38.198062 10409 net.cpp:165] Memory required for data: 28513024
I1020 04:27:38.198081 10409 layer_factory.hpp:77] Creating layer elu1
I1020 04:27:38.198088 10409 net.cpp:100] Creating Layer elu1
I1020 04:27:38.198091 10409 net.cpp:434] elu1 <- conv1
I1020 04:27:38.198096 10409 net.cpp:408] elu1 -> elu1
I1020 04:27:38.198117 10409 net.cpp:150] Setting up elu1
I1020 04:27:38.198120 10409 net.cpp:157] Top shape: 64 192 24 24 (7077888)
I1020 04:27:38.198137 10409 net.cpp:165] Memory required for data: 56824576
I1020 04:27:38.198139 10409 layer_factory.hpp:77] Creating layer drop1
I1020 04:27:38.198144 10409 net.cpp:100] Creating Layer drop1
I1020 04:27:38.198146 10409 net.cpp:434] drop1 <- elu1
I1020 04:27:38.198148 10409 net.cpp:408] drop1 -> drop1
I1020 04:27:38.198175 10409 net.cpp:150] Setting up drop1
I1020 04:27:38.198179 10409 net.cpp:157] Top shape: 64 192 24 24 (7077888)
I1020 04:27:38.198181 10409 net.cpp:165] Memory required for data: 85136128
I1020 04:27:38.198182 10409 layer_factory.hpp:77] Creating layer pool1
I1020 04:27:38.198187 10409 net.cpp:100] Creating Layer pool1
I1020 04:27:38.198189 10409 net.cpp:434] pool1 <- drop1
I1020 04:27:38.198191 10409 net.cpp:408] pool1 -> pool1
I1020 04:27:38.198220 10409 net.cpp:150] Setting up pool1
I1020 04:27:38.198225 10409 net.cpp:157] Top shape: 64 192 12 12 (1769472)
I1020 04:27:38.198225 10409 net.cpp:165] Memory required for data: 92214016
I1020 04:27:38.198227 10409 layer_factory.hpp:77] Creating layer conv2
I1020 04:27:38.198233 10409 net.cpp:100] Creating Layer conv2
I1020 04:27:38.198236 10409 net.cpp:434] conv2 <- pool1
I1020 04:27:38.198240 10409 net.cpp:408] conv2 -> conv2
I1020 04:27:38.199031 10409 net.cpp:150] Setting up conv2
I1020 04:27:38.199039 10409 net.cpp:157] Top shape: 64 192 12 12 (1769472)
I1020 04:27:38.199043 10409 net.cpp:165] Memory required for data: 99291904
I1020 04:27:38.199048 10409 layer_factory.hpp:77] Creating layer elu2
I1020 04:27:38.199053 10409 net.cpp:100] Creating Layer elu2
I1020 04:27:38.199054 10409 net.cpp:434] elu2 <- conv2
I1020 04:27:38.199057 10409 net.cpp:408] elu2 -> elu2
I1020 04:27:38.199074 10409 net.cpp:150] Setting up elu2
I1020 04:27:38.199077 10409 net.cpp:157] Top shape: 64 192 12 12 (1769472)
I1020 04:27:38.199079 10409 net.cpp:165] Memory required for data: 106369792
I1020 04:27:38.199082 10409 layer_factory.hpp:77] Creating layer conv3
I1020 04:27:38.199089 10409 net.cpp:100] Creating Layer conv3
I1020 04:27:38.199090 10409 net.cpp:434] conv3 <- elu2
I1020 04:27:38.199095 10409 net.cpp:408] conv3 -> conv3
I1020 04:27:38.201786 10409 net.cpp:150] Setting up conv3
I1020 04:27:38.201795 10409 net.cpp:157] Top shape: 64 240 10 10 (1536000)
I1020 04:27:38.201798 10409 net.cpp:165] Memory required for data: 112513792
I1020 04:27:38.201804 10409 layer_factory.hpp:77] Creating layer elu3
I1020 04:27:38.201808 10409 net.cpp:100] Creating Layer elu3
I1020 04:27:38.201810 10409 net.cpp:434] elu3 <- conv3
I1020 04:27:38.201813 10409 net.cpp:408] elu3 -> elu3
I1020 04:27:38.201830 10409 net.cpp:150] Setting up elu3
I1020 04:27:38.201833 10409 net.cpp:157] Top shape: 64 240 10 10 (1536000)
I1020 04:27:38.201836 10409 net.cpp:165] Memory required for data: 118657792
I1020 04:27:38.201838 10409 layer_factory.hpp:77] Creating layer drop2
I1020 04:27:38.201841 10409 net.cpp:100] Creating Layer drop2
I1020 04:27:38.201845 10409 net.cpp:434] drop2 <- elu3
I1020 04:27:38.201848 10409 net.cpp:408] drop2 -> drop2
I1020 04:27:38.201869 10409 net.cpp:150] Setting up drop2
I1020 04:27:38.201875 10409 net.cpp:157] Top shape: 64 240 10 10 (1536000)
I1020 04:27:38.201879 10409 net.cpp:165] Memory required for data: 124801792
I1020 04:27:38.201879 10409 layer_factory.hpp:77] Creating layer pool2
I1020 04:27:38.201884 10409 net.cpp:100] Creating Layer pool2
I1020 04:27:38.201884 10409 net.cpp:434] pool2 <- drop2
I1020 04:27:38.201889 10409 net.cpp:408] pool2 -> pool2
I1020 04:27:38.201910 10409 net.cpp:150] Setting up pool2
I1020 04:27:38.201913 10409 net.cpp:157] Top shape: 64 240 5 5 (384000)
I1020 04:27:38.201915 10409 net.cpp:165] Memory required for data: 126337792
I1020 04:27:38.201917 10409 layer_factory.hpp:77] Creating layer conv4
I1020 04:27:38.201921 10409 net.cpp:100] Creating Layer conv4
I1020 04:27:38.201923 10409 net.cpp:434] conv4 <- pool2
I1020 04:27:38.201927 10409 net.cpp:408] conv4 -> conv4
I1020 04:27:38.202795 10409 net.cpp:150] Setting up conv4
I1020 04:27:38.202802 10409 net.cpp:157] Top shape: 64 240 5 5 (384000)
I1020 04:27:38.202805 10409 net.cpp:165] Memory required for data: 127873792
I1020 04:27:38.202817 10409 layer_factory.hpp:77] Creating layer elu4
I1020 04:27:38.202821 10409 net.cpp:100] Creating Layer elu4
I1020 04:27:38.202823 10409 net.cpp:434] elu4 <- conv4
I1020 04:27:38.202827 10409 net.cpp:408] elu4 -> elu4
I1020 04:27:38.202843 10409 net.cpp:150] Setting up elu4
I1020 04:27:38.202848 10409 net.cpp:157] Top shape: 64 240 5 5 (384000)
I1020 04:27:38.202850 10409 net.cpp:165] Memory required for data: 129409792
I1020 04:27:38.202852 10409 layer_factory.hpp:77] Creating layer conv5
I1020 04:27:38.202857 10409 net.cpp:100] Creating Layer conv5
I1020 04:27:38.202859 10409 net.cpp:434] conv5 <- elu4
I1020 04:27:38.202862 10409 net.cpp:408] conv5 -> conv5
I1020 04:27:38.204845 10409 net.cpp:150] Setting up conv5
I1020 04:27:38.204859 10409 net.cpp:157] Top shape: 64 260 4 4 (266240)
I1020 04:27:38.204861 10409 net.cpp:165] Memory required for data: 130474752
I1020 04:27:38.204870 10409 layer_factory.hpp:77] Creating layer elu5
I1020 04:27:38.204874 10409 net.cpp:100] Creating Layer elu5
I1020 04:27:38.204876 10409 net.cpp:434] elu5 <- conv5
I1020 04:27:38.204881 10409 net.cpp:408] elu5 -> elu5
I1020 04:27:38.204900 10409 net.cpp:150] Setting up elu5
I1020 04:27:38.204905 10409 net.cpp:157] Top shape: 64 260 4 4 (266240)
I1020 04:27:38.204906 10409 net.cpp:165] Memory required for data: 131539712
I1020 04:27:38.204908 10409 layer_factory.hpp:77] Creating layer drop3
I1020 04:27:38.204915 10409 net.cpp:100] Creating Layer drop3
I1020 04:27:38.204917 10409 net.cpp:434] drop3 <- elu5
I1020 04:27:38.204921 10409 net.cpp:408] drop3 -> drop3
I1020 04:27:38.204948 10409 net.cpp:150] Setting up drop3
I1020 04:27:38.204953 10409 net.cpp:157] Top shape: 64 260 4 4 (266240)
I1020 04:27:38.204954 10409 net.cpp:165] Memory required for data: 132604672
I1020 04:27:38.204957 10409 layer_factory.hpp:77] Creating layer pool3
I1020 04:27:38.204960 10409 net.cpp:100] Creating Layer pool3
I1020 04:27:38.204962 10409 net.cpp:434] pool3 <- drop3
I1020 04:27:38.204965 10409 net.cpp:408] pool3 -> pool3
I1020 04:27:38.204990 10409 net.cpp:150] Setting up pool3
I1020 04:27:38.204995 10409 net.cpp:157] Top shape: 64 260 2 2 (66560)
I1020 04:27:38.204999 10409 net.cpp:165] Memory required for data: 132870912
I1020 04:27:38.205001 10409 layer_factory.hpp:77] Creating layer conv6
I1020 04:27:38.205013 10409 net.cpp:100] Creating Layer conv6
I1020 04:27:38.205015 10409 net.cpp:434] conv6 <- pool3
I1020 04:27:38.205019 10409 net.cpp:408] conv6 -> conv6
I1020 04:27:38.206215 10409 net.cpp:150] Setting up conv6
I1020 04:27:38.206224 10409 net.cpp:157] Top shape: 64 260 2 2 (66560)
I1020 04:27:38.206226 10409 net.cpp:165] Memory required for data: 133137152
I1020 04:27:38.206230 10409 layer_factory.hpp:77] Creating layer elu6
I1020 04:27:38.206235 10409 net.cpp:100] Creating Layer elu6
I1020 04:27:38.206238 10409 net.cpp:434] elu6 <- conv6
I1020 04:27:38.206243 10409 net.cpp:408] elu6 -> elu6
I1020 04:27:38.206259 10409 net.cpp:150] Setting up elu6
I1020 04:27:38.206264 10409 net.cpp:157] Top shape: 64 260 2 2 (66560)
I1020 04:27:38.206265 10409 net.cpp:165] Memory required for data: 133403392
I1020 04:27:38.206267 10409 layer_factory.hpp:77] Creating layer conv7
I1020 04:27:38.206274 10409 net.cpp:100] Creating Layer conv7
I1020 04:27:38.206275 10409 net.cpp:434] conv7 <- elu6
I1020 04:27:38.206279 10409 net.cpp:408] conv7 -> conv7
I1020 04:27:38.208254 10409 net.cpp:150] Setting up conv7
I1020 04:27:38.208263 10409 net.cpp:157] Top shape: 64 280 1 1 (17920)
I1020 04:27:38.208267 10409 net.cpp:165] Memory required for data: 133475072
I1020 04:27:38.208273 10409 layer_factory.hpp:77] Creating layer elu7
I1020 04:27:38.208281 10409 net.cpp:100] Creating Layer elu7
I1020 04:27:38.208284 10409 net.cpp:434] elu7 <- conv7
I1020 04:27:38.208293 10409 net.cpp:408] elu7 -> elu7
I1020 04:27:38.208315 10409 net.cpp:150] Setting up elu7
I1020 04:27:38.208322 10409 net.cpp:157] Top shape: 64 280 1 1 (17920)
I1020 04:27:38.208325 10409 net.cpp:165] Memory required for data: 133546752
I1020 04:27:38.208328 10409 layer_factory.hpp:77] Creating layer drop4
I1020 04:27:38.208343 10409 net.cpp:100] Creating Layer drop4
I1020 04:27:38.208348 10409 net.cpp:434] drop4 <- elu7
I1020 04:27:38.208353 10409 net.cpp:408] drop4 -> drop4
I1020 04:27:38.208379 10409 net.cpp:150] Setting up drop4
I1020 04:27:38.208384 10409 net.cpp:157] Top shape: 64 280 1 1 (17920)
I1020 04:27:38.208389 10409 net.cpp:165] Memory required for data: 133618432
I1020 04:27:38.208391 10409 layer_factory.hpp:77] Creating layer pool4
I1020 04:27:38.208395 10409 net.cpp:100] Creating Layer pool4
I1020 04:27:38.208400 10409 net.cpp:434] pool4 <- drop4
I1020 04:27:38.208403 10409 net.cpp:408] pool4 -> pool4
I1020 04:27:38.208431 10409 net.cpp:150] Setting up pool4
I1020 04:27:38.208436 10409 net.cpp:157] Top shape: 64 280 1 1 (17920)
I1020 04:27:38.208438 10409 net.cpp:165] Memory required for data: 133690112
I1020 04:27:38.208442 10409 layer_factory.hpp:77] Creating layer conv8
I1020 04:27:38.208449 10409 net.cpp:100] Creating Layer conv8
I1020 04:27:38.208452 10409 net.cpp:434] conv8 <- pool4
I1020 04:27:38.208457 10409 net.cpp:408] conv8 -> conv8
I1020 04:27:38.209426 10409 net.cpp:150] Setting up conv8
I1020 04:27:38.209436 10409 net.cpp:157] Top shape: 64 280 1 1 (17920)
I1020 04:27:38.209439 10409 net.cpp:165] Memory required for data: 133761792
I1020 04:27:38.209442 10409 layer_factory.hpp:77] Creating layer elu8
I1020 04:27:38.209446 10409 net.cpp:100] Creating Layer elu8
I1020 04:27:38.209448 10409 net.cpp:434] elu8 <- conv8
I1020 04:27:38.209451 10409 net.cpp:408] elu8 -> elu8
I1020 04:27:38.209468 10409 net.cpp:150] Setting up elu8
I1020 04:27:38.209475 10409 net.cpp:157] Top shape: 64 280 1 1 (17920)
I1020 04:27:38.209478 10409 net.cpp:165] Memory required for data: 133833472
I1020 04:27:38.209481 10409 layer_factory.hpp:77] Creating layer drop5
I1020 04:27:38.209487 10409 net.cpp:100] Creating Layer drop5
I1020 04:27:38.209491 10409 net.cpp:434] drop5 <- elu8
I1020 04:27:38.209493 10409 net.cpp:408] drop5 -> drop5
I1020 04:27:38.209517 10409 net.cpp:150] Setting up drop5
I1020 04:27:38.209520 10409 net.cpp:157] Top shape: 64 280 1 1 (17920)
I1020 04:27:38.209522 10409 net.cpp:165] Memory required for data: 133905152
I1020 04:27:38.209524 10409 layer_factory.hpp:77] Creating layer pool5
I1020 04:27:38.209527 10409 net.cpp:100] Creating Layer pool5
I1020 04:27:38.209530 10409 net.cpp:434] pool5 <- drop5
I1020 04:27:38.209537 10409 net.cpp:408] pool5 -> pool5
I1020 04:27:38.209561 10409 net.cpp:150] Setting up pool5
I1020 04:27:38.209568 10409 net.cpp:157] Top shape: 64 280 1 1 (17920)
I1020 04:27:38.209570 10409 net.cpp:165] Memory required for data: 133976832
I1020 04:27:38.209574 10409 layer_factory.hpp:77] Creating layer conv10
I1020 04:27:38.209580 10409 net.cpp:100] Creating Layer conv10
I1020 04:27:38.209584 10409 net.cpp:434] conv10 <- pool5
I1020 04:27:38.209590 10409 net.cpp:408] conv10 -> conv10
I1020 04:27:38.210587 10409 net.cpp:150] Setting up conv10
I1020 04:27:38.210597 10409 net.cpp:157] Top shape: 64 300 1 1 (19200)
I1020 04:27:38.210598 10409 net.cpp:165] Memory required for data: 134053632
I1020 04:27:38.210605 10409 layer_factory.hpp:77] Creating layer elu10
I1020 04:27:38.210609 10409 net.cpp:100] Creating Layer elu10
I1020 04:27:38.210611 10409 net.cpp:434] elu10 <- conv10
I1020 04:27:38.210615 10409 net.cpp:408] elu10 -> elu10
I1020 04:27:38.210633 10409 net.cpp:150] Setting up elu10
I1020 04:27:38.210638 10409 net.cpp:157] Top shape: 64 300 1 1 (19200)
I1020 04:27:38.210640 10409 net.cpp:165] Memory required for data: 134130432
I1020 04:27:38.210641 10409 layer_factory.hpp:77] Creating layer drop6
I1020 04:27:38.210645 10409 net.cpp:100] Creating Layer drop6
I1020 04:27:38.210649 10409 net.cpp:434] drop6 <- elu10
I1020 04:27:38.210655 10409 net.cpp:408] drop6 -> drop6
I1020 04:27:38.210685 10409 net.cpp:150] Setting up drop6
I1020 04:27:38.210690 10409 net.cpp:157] Top shape: 64 300 1 1 (19200)
I1020 04:27:38.210695 10409 net.cpp:165] Memory required for data: 134207232
I1020 04:27:38.210697 10409 layer_factory.hpp:77] Creating layer pool6
I1020 04:27:38.210712 10409 net.cpp:100] Creating Layer pool6
I1020 04:27:38.210717 10409 net.cpp:434] pool6 <- drop6
I1020 04:27:38.210721 10409 net.cpp:408] pool6 -> pool6
I1020 04:27:38.210748 10409 net.cpp:150] Setting up pool6
I1020 04:27:38.210752 10409 net.cpp:157] Top shape: 64 300 1 1 (19200)
I1020 04:27:38.210757 10409 net.cpp:165] Memory required for data: 134284032
I1020 04:27:38.210760 10409 layer_factory.hpp:77] Creating layer conv11
I1020 04:27:38.210770 10409 net.cpp:100] Creating Layer conv11
I1020 04:27:38.210773 10409 net.cpp:434] conv11 <- pool6
I1020 04:27:38.210777 10409 net.cpp:408] conv11 -> conv11
I1020 04:27:38.211905 10409 net.cpp:150] Setting up conv11
I1020 04:27:38.211915 10409 net.cpp:157] Top shape: 64 100 1 1 (6400)
I1020 04:27:38.211920 10409 net.cpp:165] Memory required for data: 134309632
I1020 04:27:38.211925 10409 layer_factory.hpp:77] Creating layer elu11
I1020 04:27:38.211930 10409 net.cpp:100] Creating Layer elu11
I1020 04:27:38.211935 10409 net.cpp:434] elu11 <- conv11
I1020 04:27:38.211940 10409 net.cpp:408] elu11 -> elu11
I1020 04:27:38.211959 10409 net.cpp:150] Setting up elu11
I1020 04:27:38.211964 10409 net.cpp:157] Top shape: 64 100 1 1 (6400)
I1020 04:27:38.211967 10409 net.cpp:165] Memory required for data: 134335232
I1020 04:27:38.211971 10409 layer_factory.hpp:77] Creating layer drop7
I1020 04:27:38.211976 10409 net.cpp:100] Creating Layer drop7
I1020 04:27:38.211980 10409 net.cpp:434] drop7 <- elu11
I1020 04:27:38.211985 10409 net.cpp:408] drop7 -> drop7
I1020 04:27:38.212013 10409 net.cpp:150] Setting up drop7
I1020 04:27:38.212018 10409 net.cpp:157] Top shape: 64 100 1 1 (6400)
I1020 04:27:38.212021 10409 net.cpp:165] Memory required for data: 134360832
I1020 04:27:38.212024 10409 layer_factory.hpp:77] Creating layer pool7
I1020 04:27:38.212029 10409 net.cpp:100] Creating Layer pool7
I1020 04:27:38.212033 10409 net.cpp:434] pool7 <- drop7
I1020 04:27:38.212038 10409 net.cpp:408] pool7 -> pool7
I1020 04:27:38.212065 10409 net.cpp:150] Setting up pool7
I1020 04:27:38.212069 10409 net.cpp:157] Top shape: 64 100 1 1 (6400)
I1020 04:27:38.212074 10409 net.cpp:165] Memory required for data: 134386432
I1020 04:27:38.212076 10409 layer_factory.hpp:77] Creating layer score
I1020 04:27:38.212083 10409 net.cpp:100] Creating Layer score
I1020 04:27:38.212087 10409 net.cpp:434] score <- pool7
I1020 04:27:38.212091 10409 net.cpp:408] score -> score
I1020 04:27:38.212196 10409 net.cpp:150] Setting up score
I1020 04:27:38.212201 10409 net.cpp:157] Top shape: 64 10 (640)
I1020 04:27:38.212204 10409 net.cpp:165] Memory required for data: 134388992
I1020 04:27:38.212210 10409 layer_factory.hpp:77] Creating layer score_score_0_split
I1020 04:27:38.212216 10409 net.cpp:100] Creating Layer score_score_0_split
I1020 04:27:38.212220 10409 net.cpp:434] score_score_0_split <- score
I1020 04:27:38.212224 10409 net.cpp:408] score_score_0_split -> score_score_0_split_0
I1020 04:27:38.212230 10409 net.cpp:408] score_score_0_split -> score_score_0_split_1
I1020 04:27:38.212256 10409 net.cpp:150] Setting up score_score_0_split
I1020 04:27:38.212261 10409 net.cpp:157] Top shape: 64 10 (640)
I1020 04:27:38.212265 10409 net.cpp:157] Top shape: 64 10 (640)
I1020 04:27:38.212267 10409 net.cpp:165] Memory required for data: 134394112
I1020 04:27:38.212270 10409 layer_factory.hpp:77] Creating layer accuracy
I1020 04:27:38.212275 10409 net.cpp:100] Creating Layer accuracy
I1020 04:27:38.212277 10409 net.cpp:434] accuracy <- score_score_0_split_0
I1020 04:27:38.212280 10409 net.cpp:434] accuracy <- label_data_1_split_0
I1020 04:27:38.212282 10409 net.cpp:408] accuracy -> accuracy
…
I1020 04:27:38.212669 10409 net.cpp:283] Network initialization done.
I1020 04:27:38.212883 10409 solver.cpp:181] Creating test net (#0) specified by test_net file: /home/adam/Honours/Honours-Project/mnist_pooling/max/elu/poolcnn_elu_test.prototxt
I1020 04:27:38.213017 10409 net.cpp:58] Initializing net from parameters: 
state {
  phase: TEST
}
layer {
  name: "data"
  type: "Data"
  top: "data"
  top: "label"
  transform_param {
    scale: 0.0039215689
  }
  data_param {
    source: "../../../../data/mnist/mnist_test_lmdb"
    batch_size: 100
    backend: LMDB
  }
}
layer {
  name: "conv1"
  type: "Convolution"
  bottom: "data"
  top: "conv1"
  convolution_param {
    num_output: 192
    kernel_size: 5
    weight_filler {
      type: "xavier"
    }
  }
}
layer {
  name: "elu1"
  type: "ELU"
  bottom: "conv1"
  top: "elu1"
}
layer {
  name: "drop1"
  type: "Dropout"
  bottom: "elu1"
  top: "drop1"
  dropout_param {
    dropout_ratio: 0
  }
}
layer {
  name: "pool1"
  type: "Pooling"
  bottom: "drop1"
  top: "pool1"
  pooling_param {
    pool: MAX
    kernel_size: 2
    stride: 2
  }
}
layer {
  name: "conv2"
  type: "Convolution"
  bottom: "pool1"
  top: "conv2"
  convolution_param {
    num_output: 192
    kernel_size: 1
    weight_filler {
      type: "xavier"
    }
  }
}
layer {
  name: "elu2"
  type: "ELU"
  bottom: "conv2"
  top: "elu2"
}
layer {
  name: "conv3"
  type: "Convolution"
  bottom: "elu2"
  top: "conv3"
  convolution_param {
    num_output: 240
    kernel_size: 3
    weight_filler {
      type: "xavier"
    }
  }
}
layer {
  name: "elu3"
  type: "ELU"
  bottom: "conv3"
  top: "elu3"
}
layer {
  name: "drop2"
  type: "Dropout"
  bottom: "elu3"
  top: "drop2"
  dropout_param {
    dropout_ratio: 0.1
  }
}
layer {
  name: "pool2"
  type: "Pooling"
  bottom: "drop2"
  top: "pool2"
  pooling_param {
    pool: MAX
    kernel_size: 2
    stride: 2
  }
}
layer {
  name: "conv4"
  type: "Convolution"
  bottom: "pool2"
  top: "conv4"
  convolution_param {
    num_output: 240
    kernel_size: 1
    weight_filler {
      type: "xavier"
    }
  }
}
layer {
  name: "elu4"
  type: "ELU"
  bottom: "conv4"
  top: "elu4"
}
layer {
  name: "conv5"
  type: "Convolution"
  bottom: "elu4"
  top: "conv5"
  convolution_param {
    num_output: 260
    kernel_size: 2
    weight_filler {
      type: "xavier"
    }
  }
}
layer {
  name: "elu5"
  type: "ELU"
  bottom: "conv5"
  top: "elu5"
}
layer {
  name: "drop3"
  type: "Dropout"
  bottom: "elu5"
  top: "drop3"
  dropout_param {
    dropout_ratio: 0.2
  }
}
layer {
  name: "pool3"
  type: "Pooling"
  bottom: "drop3"
  top: "pool3"
  pooling_param {
    pool: MAX
    kernel_size: 2
    stride: 2
  }
}
layer {
  name: "conv6"
  type: "Convolution"
  bottom: "pool3"
  top: "conv6"
  convolution_param {
    num_output: 260
    kernel_size: 1
    weight_filler {
      type: "xavier"
    }
  }
}
layer {
  name: "elu6"
  type: "ELU"
  bottom: "conv6"
  top: "elu6"
}
layer {
  name: "conv7"
  type: "Convolution"
  bottom: "elu6"
  top: "conv7"
  convolution_param {
    num_output: 280
    kernel_size: 2
    weight_filler {
      type: "xavier"
    }
  }
}
layer {
  name: "elu7"
  type: "ELU"
  bottom: "conv7"
  top: "elu7"
}
layer {
  name: "drop4"
  type: "Dropout"
  bottom: "elu7"
  top: "drop4"
  dropout_param {
    dropout_ratio: 0.3
  }
}
layer {
  name: "pool4"
  type: "Pooling"
  bottom: "drop4"
  top: "pool4"
  pooling_param {
    pool: MAX
    kernel_size: 2
    stride: 2
  }
}
layer {
  name: "conv8"
  type: "Convolution"
  bottom: "pool4"
  top: "conv8"
  convolution_param {
    num_output: 280
    kernel_size: 1
    weight_filler {
      type: "xavier"
    }
  }
}
layer {
  name: "elu8"
  type: "ELU"
  bottom: "conv8"
  top: "elu8"
}
layer {
  name: "drop5"
  type: "Dropout"
  bottom: "elu8"
  top: "drop5"
  dropout_param {
    dropout_ratio: 0.4
  }
}
layer {
  name: "pool5"
  type: "Pooling"
  bottom: "drop5"
  top: "pool5"
  pooling_param {
    pool: MAX
    kernel_size: 2
    stride: 2
  }
}
layer {
  name: "conv10"
  type: "Convolution"
  bottom: "pool5"
  top: "conv10"
  convolution_param {
    num_output: 300
    kernel_size: 1
    weight_filler {
      type: "xavier"
    }
  }
}
layer {
  name: "elu10"
  type: "ELU"
  bottom: "conv10"
  top: "elu10"
}
layer {
  name: "drop6"
  type: "Dropout"
  bottom: "elu10"
  top: "drop6"
  dropout_param {
    dropout_ratio: 0.5
  }
}
layer {
  name: "pool6"
  type: "Pooling"
  bottom: "drop6"
  top: "pool6"
  pooling_param {
    pool: MAX
    kernel_size: 2
    stride: 2
  }
}
layer {
  name: "conv11"
  type: "Convolution"
  bottom: "pool6"
  top: "conv11"
  convolution_param {
    num_output: 100
    kernel_size: 1
    weight_filler {
      type: "xavier"
    }
  }
}
layer {
  name: "elu11"
  type: "ELU"
  bottom: "conv11"
  top: "elu11"
}
layer {
  name: "drop7"
  type: "Dropout"
  bottom: "elu11"
  top: "drop7"
  dropout_param {
    dropout_ratio: 0
  }
}
layer {
  name: "pool7"
  type: "Pooling"
  bottom: "drop7"
  top: "pool7"
  pooling_param {
    pool: MAX
    kernel_size: 2
    stride: 2
  }
}
layer {
  name: "score"
  type: "InnerProduct"
  bottom: "pool7"
  top: "score"
  inner_product_param {
    num_output: 10
    weight_filler {
      type: "gaussian"
    }
  }
}
layer {
  name: "accuracy"
  type: "Accuracy"
  bottom: "score"
  bottom: "label"
  top: "accuracy"
}
layer {
  name: "loss"
  type: "SoftmaxWithLoss"
  bottom: "score"
  bottom: "label"
  top: "loss"
}
I1020 04:27:38.213115 10409 layer_factory.hpp:77] Creating layer data
I1020 04:27:38.213204 10409 net.cpp:100] Creating Layer data
I1020 04:27:38.213210 10409 net.cpp:408] data -> data
I1020 04:27:38.213219 10409 net.cpp:408] data -> label
I1020 04:27:38.213799 10417 db_lmdb.cpp:35] Opened lmdb ../../../../data/mnist/mnist_test_lmdb
I1020 04:27:38.213877 10409 data_layer.cpp:41] output data size: 100,1,28,28
I1020 04:27:38.214537 10409 net.cpp:150] Setting up data
I1020 04:27:38.214545 10409 net.cpp:157] Top shape: 100 1 28 28 (78400)
I1020 04:27:38.214550 10409 net.cpp:157] Top shape: 100 (100)
I1020 04:27:38.214553 10409 net.cpp:165] Memory required for data: 314000
I1020 04:27:38.214558 10409 layer_factory.hpp:77] Creating layer label_data_1_split
I1020 04:27:38.214563 10409 net.cpp:100] Creating Layer label_data_1_split
I1020 04:27:38.214566 10409 net.cpp:434] label_data_1_split <- label
I1020 04:27:38.214572 10409 net.cpp:408] label_data_1_split -> label_data_1_split_0
I1020 04:27:38.214578 10409 net.cpp:408] label_data_1_split -> label_data_1_split_1
I1020 04:27:38.214623 10409 net.cpp:150] Setting up label_data_1_split
I1020 04:27:38.214628 10409 net.cpp:157] Top shape: 100 (100)
I1020 04:27:38.214630 10409 net.cpp:157] Top shape: 100 (100)
I1020 04:27:38.214634 10409 net.cpp:165] Memory required for data: 314800
I1020 04:27:38.214637 10409 layer_factory.hpp:77] Creating layer conv1
I1020 04:27:38.214646 10409 net.cpp:100] Creating Layer conv1
I1020 04:27:38.214650 10409 net.cpp:434] conv1 <- data
I1020 04:27:38.214654 10409 net.cpp:408] conv1 -> conv1
I1020 04:27:38.215441 10409 net.cpp:150] Setting up conv1
I1020 04:27:38.215451 10409 net.cpp:157] Top shape: 100 192 24 24 (11059200)
I1020 04:27:38.215454 10409 net.cpp:165] Memory required for data: 44551600
I1020 04:27:38.215464 10409 layer_factory.hpp:77] Creating layer elu1
I1020 04:27:38.215471 10409 net.cpp:100] Creating Layer elu1
I1020 04:27:38.215474 10409 net.cpp:434] elu1 <- conv1
I1020 04:27:38.215479 10409 net.cpp:408] elu1 -> elu1
I1020 04:27:38.215499 10409 net.cpp:150] Setting up elu1
I1020 04:27:38.215504 10409 net.cpp:157] Top shape: 100 192 24 24 (11059200)
I1020 04:27:38.215508 10409 net.cpp:165] Memory required for data: 88788400
I1020 04:27:38.215512 10409 layer_factory.hpp:77] Creating layer drop1
I1020 04:27:38.215520 10409 net.cpp:100] Creating Layer drop1
I1020 04:27:38.215525 10409 net.cpp:434] drop1 <- elu1
I1020 04:27:38.215529 10409 net.cpp:408] drop1 -> drop1
I1020 04:27:38.215558 10409 net.cpp:150] Setting up drop1
I1020 04:27:38.215564 10409 net.cpp:157] Top shape: 100 192 24 24 (11059200)
I1020 04:27:38.215569 10409 net.cpp:165] Memory required for data: 133025200
I1020 04:27:38.215570 10409 layer_factory.hpp:77] Creating layer pool1
I1020 04:27:38.215575 10409 net.cpp:100] Creating Layer pool1
I1020 04:27:38.215579 10409 net.cpp:434] pool1 <- drop1
I1020 04:27:38.215584 10409 net.cpp:408] pool1 -> pool1
I1020 04:27:38.215610 10409 net.cpp:150] Setting up pool1
I1020 04:27:38.215613 10409 net.cpp:157] Top shape: 100 192 12 12 (2764800)
I1020 04:27:38.215616 10409 net.cpp:165] Memory required for data: 144084400
I1020 04:27:38.215618 10409 layer_factory.hpp:77] Creating layer conv2
I1020 04:27:38.215631 10409 net.cpp:100] Creating Layer conv2
I1020 04:27:38.215636 10409 net.cpp:434] conv2 <- pool1
I1020 04:27:38.215641 10409 net.cpp:408] conv2 -> conv2
I1020 04:27:38.216575 10409 net.cpp:150] Setting up conv2
I1020 04:27:38.216584 10409 net.cpp:157] Top shape: 100 192 12 12 (2764800)
I1020 04:27:38.216588 10409 net.cpp:165] Memory required for data: 155143600
I1020 04:27:38.216594 10409 layer_factory.hpp:77] Creating layer elu2
I1020 04:27:38.216598 10409 net.cpp:100] Creating Layer elu2
I1020 04:27:38.216601 10409 net.cpp:434] elu2 <- conv2
I1020 04:27:38.216614 10409 net.cpp:408] elu2 -> elu2
I1020 04:27:38.216632 10409 net.cpp:150] Setting up elu2
I1020 04:27:38.216637 10409 net.cpp:157] Top shape: 100 192 12 12 (2764800)
I1020 04:27:38.216640 10409 net.cpp:165] Memory required for data: 166202800
I1020 04:27:38.216642 10409 layer_factory.hpp:77] Creating layer conv3
I1020 04:27:38.216650 10409 net.cpp:100] Creating Layer conv3
I1020 04:27:38.216655 10409 net.cpp:434] conv3 <- elu2
I1020 04:27:38.216660 10409 net.cpp:408] conv3 -> conv3
I1020 04:27:38.220346 10409 net.cpp:150] Setting up conv3
I1020 04:27:38.220369 10409 net.cpp:157] Top shape: 100 240 10 10 (2400000)
I1020 04:27:38.220371 10409 net.cpp:165] Memory required for data: 175802800
I1020 04:27:38.220381 10409 layer_factory.hpp:77] Creating layer elu3
I1020 04:27:38.220388 10409 net.cpp:100] Creating Layer elu3
I1020 04:27:38.220391 10409 net.cpp:434] elu3 <- conv3
I1020 04:27:38.220396 10409 net.cpp:408] elu3 -> elu3
I1020 04:27:38.220418 10409 net.cpp:150] Setting up elu3
I1020 04:27:38.220422 10409 net.cpp:157] Top shape: 100 240 10 10 (2400000)
I1020 04:27:38.220423 10409 net.cpp:165] Memory required for data: 185402800
I1020 04:27:38.220425 10409 layer_factory.hpp:77] Creating layer drop2
I1020 04:27:38.220434 10409 net.cpp:100] Creating Layer drop2
I1020 04:27:38.220438 10409 net.cpp:434] drop2 <- elu3
I1020 04:27:38.220443 10409 net.cpp:408] drop2 -> drop2
I1020 04:27:38.220466 10409 net.cpp:150] Setting up drop2
I1020 04:27:38.220470 10409 net.cpp:157] Top shape: 100 240 10 10 (2400000)
I1020 04:27:38.220471 10409 net.cpp:165] Memory required for data: 195002800
I1020 04:27:38.220474 10409 layer_factory.hpp:77] Creating layer pool2
I1020 04:27:38.220479 10409 net.cpp:100] Creating Layer pool2
I1020 04:27:38.220480 10409 net.cpp:434] pool2 <- drop2
I1020 04:27:38.220484 10409 net.cpp:408] pool2 -> pool2
I1020 04:27:38.220509 10409 net.cpp:150] Setting up pool2
I1020 04:27:38.220513 10409 net.cpp:157] Top shape: 100 240 5 5 (600000)
I1020 04:27:38.220515 10409 net.cpp:165] Memory required for data: 197402800
I1020 04:27:38.220516 10409 layer_factory.hpp:77] Creating layer conv4
I1020 04:27:38.220525 10409 net.cpp:100] Creating Layer conv4
I1020 04:27:38.220527 10409 net.cpp:434] conv4 <- pool2
I1020 04:27:38.220530 10409 net.cpp:408] conv4 -> conv4
I1020 04:27:38.221482 10409 net.cpp:150] Setting up conv4
I1020 04:27:38.221493 10409 net.cpp:157] Top shape: 100 240 5 5 (600000)
I1020 04:27:38.221496 10409 net.cpp:165] Memory required for data: 199802800
I1020 04:27:38.221500 10409 layer_factory.hpp:77] Creating layer elu4
I1020 04:27:38.221504 10409 net.cpp:100] Creating Layer elu4
I1020 04:27:38.221508 10409 net.cpp:434] elu4 <- conv4
I1020 04:27:38.221511 10409 net.cpp:408] elu4 -> elu4
I1020 04:27:38.221531 10409 net.cpp:150] Setting up elu4
I1020 04:27:38.221536 10409 net.cpp:157] Top shape: 100 240 5 5 (600000)
I1020 04:27:38.221539 10409 net.cpp:165] Memory required for data: 202202800
I1020 04:27:38.221540 10409 layer_factory.hpp:77] Creating layer conv5
I1020 04:27:38.221546 10409 net.cpp:100] Creating Layer conv5
I1020 04:27:38.221549 10409 net.cpp:434] conv5 <- elu4
I1020 04:27:38.221554 10409 net.cpp:408] conv5 -> conv5
I1020 04:27:38.223397 10409 net.cpp:150] Setting up conv5
I1020 04:27:38.223407 10409 net.cpp:157] Top shape: 100 260 4 4 (416000)
I1020 04:27:38.223412 10409 net.cpp:165] Memory required for data: 203866800
I1020 04:27:38.223423 10409 layer_factory.hpp:77] Creating layer elu5
I1020 04:27:38.223438 10409 net.cpp:100] Creating Layer elu5
I1020 04:27:38.223441 10409 net.cpp:434] elu5 <- conv5
I1020 04:27:38.223446 10409 net.cpp:408] elu5 -> elu5
I1020 04:27:38.223470 10409 net.cpp:150] Setting up elu5
I1020 04:27:38.223475 10409 net.cpp:157] Top shape: 100 260 4 4 (416000)
I1020 04:27:38.223479 10409 net.cpp:165] Memory required for data: 205530800
I1020 04:27:38.223484 10409 layer_factory.hpp:77] Creating layer drop3
I1020 04:27:38.223492 10409 net.cpp:100] Creating Layer drop3
I1020 04:27:38.223495 10409 net.cpp:434] drop3 <- elu5
I1020 04:27:38.223500 10409 net.cpp:408] drop3 -> drop3
I1020 04:27:38.223528 10409 net.cpp:150] Setting up drop3
I1020 04:27:38.223533 10409 net.cpp:157] Top shape: 100 260 4 4 (416000)
I1020 04:27:38.223537 10409 net.cpp:165] Memory required for data: 207194800
I1020 04:27:38.223539 10409 layer_factory.hpp:77] Creating layer pool3
I1020 04:27:38.223544 10409 net.cpp:100] Creating Layer pool3
I1020 04:27:38.223548 10409 net.cpp:434] pool3 <- drop3
I1020 04:27:38.223553 10409 net.cpp:408] pool3 -> pool3
I1020 04:27:38.223582 10409 net.cpp:150] Setting up pool3
I1020 04:27:38.223585 10409 net.cpp:157] Top shape: 100 260 2 2 (104000)
I1020 04:27:38.223590 10409 net.cpp:165] Memory required for data: 207610800
I1020 04:27:38.223592 10409 layer_factory.hpp:77] Creating layer conv6
I1020 04:27:38.223600 10409 net.cpp:100] Creating Layer conv6
I1020 04:27:38.223603 10409 net.cpp:434] conv6 <- pool3
I1020 04:27:38.223608 10409 net.cpp:408] conv6 -> conv6
I1020 04:27:38.224828 10409 net.cpp:150] Setting up conv6
I1020 04:27:38.224838 10409 net.cpp:157] Top shape: 100 260 2 2 (104000)
I1020 04:27:38.224840 10409 net.cpp:165] Memory required for data: 208026800
I1020 04:27:38.224845 10409 layer_factory.hpp:77] Creating layer elu6
I1020 04:27:38.224849 10409 net.cpp:100] Creating Layer elu6
I1020 04:27:38.224851 10409 net.cpp:434] elu6 <- conv6
I1020 04:27:38.224856 10409 net.cpp:408] elu6 -> elu6
I1020 04:27:38.224874 10409 net.cpp:150] Setting up elu6
I1020 04:27:38.224879 10409 net.cpp:157] Top shape: 100 260 2 2 (104000)
I1020 04:27:38.224880 10409 net.cpp:165] Memory required for data: 208442800
I1020 04:27:38.224881 10409 layer_factory.hpp:77] Creating layer conv7
I1020 04:27:38.224887 10409 net.cpp:100] Creating Layer conv7
I1020 04:27:38.224890 10409 net.cpp:434] conv7 <- elu6
I1020 04:27:38.224894 10409 net.cpp:408] conv7 -> conv7
I1020 04:27:38.227063 10409 net.cpp:150] Setting up conv7
I1020 04:27:38.227077 10409 net.cpp:157] Top shape: 100 280 1 1 (28000)
I1020 04:27:38.227079 10409 net.cpp:165] Memory required for data: 208554800
I1020 04:27:38.227085 10409 layer_factory.hpp:77] Creating layer elu7
I1020 04:27:38.227089 10409 net.cpp:100] Creating Layer elu7
I1020 04:27:38.227093 10409 net.cpp:434] elu7 <- conv7
I1020 04:27:38.227098 10409 net.cpp:408] elu7 -> elu7
I1020 04:27:38.227116 10409 net.cpp:150] Setting up elu7
I1020 04:27:38.227120 10409 net.cpp:157] Top shape: 100 280 1 1 (28000)
I1020 04:27:38.227123 10409 net.cpp:165] Memory required for data: 208666800
I1020 04:27:38.227125 10409 layer_factory.hpp:77] Creating layer drop4
I1020 04:27:38.227129 10409 net.cpp:100] Creating Layer drop4
I1020 04:27:38.227131 10409 net.cpp:434] drop4 <- elu7
I1020 04:27:38.227135 10409 net.cpp:408] drop4 -> drop4
I1020 04:27:38.227161 10409 net.cpp:150] Setting up drop4
I1020 04:27:38.227165 10409 net.cpp:157] Top shape: 100 280 1 1 (28000)
I1020 04:27:38.227167 10409 net.cpp:165] Memory required for data: 208778800
I1020 04:27:38.227169 10409 layer_factory.hpp:77] Creating layer pool4
I1020 04:27:38.227174 10409 net.cpp:100] Creating Layer pool4
I1020 04:27:38.227176 10409 net.cpp:434] pool4 <- drop4
I1020 04:27:38.227180 10409 net.cpp:408] pool4 -> pool4
I1020 04:27:38.227206 10409 net.cpp:150] Setting up pool4
I1020 04:27:38.227211 10409 net.cpp:157] Top shape: 100 280 1 1 (28000)
I1020 04:27:38.227212 10409 net.cpp:165] Memory required for data: 208890800
I1020 04:27:38.227215 10409 layer_factory.hpp:77] Creating layer conv8
I1020 04:27:38.227219 10409 net.cpp:100] Creating Layer conv8
I1020 04:27:38.227231 10409 net.cpp:434] conv8 <- pool4
I1020 04:27:38.227236 10409 net.cpp:408] conv8 -> conv8
I1020 04:27:38.228236 10409 net.cpp:150] Setting up conv8
I1020 04:27:38.228245 10409 net.cpp:157] Top shape: 100 280 1 1 (28000)
I1020 04:27:38.228247 10409 net.cpp:165] Memory required for data: 209002800
I1020 04:27:38.228251 10409 layer_factory.hpp:77] Creating layer elu8
I1020 04:27:38.228255 10409 net.cpp:100] Creating Layer elu8
I1020 04:27:38.228260 10409 net.cpp:434] elu8 <- conv8
I1020 04:27:38.228263 10409 net.cpp:408] elu8 -> elu8
I1020 04:27:38.228281 10409 net.cpp:150] Setting up elu8
I1020 04:27:38.228286 10409 net.cpp:157] Top shape: 100 280 1 1 (28000)
I1020 04:27:38.228296 10409 net.cpp:165] Memory required for data: 209114800
I1020 04:27:38.228297 10409 layer_factory.hpp:77] Creating layer drop5
I1020 04:27:38.228301 10409 net.cpp:100] Creating Layer drop5
I1020 04:27:38.228302 10409 net.cpp:434] drop5 <- elu8
I1020 04:27:38.228307 10409 net.cpp:408] drop5 -> drop5
I1020 04:27:38.228332 10409 net.cpp:150] Setting up drop5
I1020 04:27:38.228337 10409 net.cpp:157] Top shape: 100 280 1 1 (28000)
I1020 04:27:38.228338 10409 net.cpp:165] Memory required for data: 209226800
I1020 04:27:38.228340 10409 layer_factory.hpp:77] Creating layer pool5
I1020 04:27:38.228343 10409 net.cpp:100] Creating Layer pool5
I1020 04:27:38.228346 10409 net.cpp:434] pool5 <- drop5
I1020 04:27:38.228349 10409 net.cpp:408] pool5 -> pool5
I1020 04:27:38.228374 10409 net.cpp:150] Setting up pool5
I1020 04:27:38.228379 10409 net.cpp:157] Top shape: 100 280 1 1 (28000)
I1020 04:27:38.228379 10409 net.cpp:165] Memory required for data: 209338800
I1020 04:27:38.228381 10409 layer_factory.hpp:77] Creating layer conv10
I1020 04:27:38.228386 10409 net.cpp:100] Creating Layer conv10
I1020 04:27:38.228389 10409 net.cpp:434] conv10 <- pool5
I1020 04:27:38.228394 10409 net.cpp:408] conv10 -> conv10
I1020 04:27:38.229504 10409 net.cpp:150] Setting up conv10
I1020 04:27:38.229513 10409 net.cpp:157] Top shape: 100 300 1 1 (30000)
I1020 04:27:38.229517 10409 net.cpp:165] Memory required for data: 209458800
I1020 04:27:38.229527 10409 layer_factory.hpp:77] Creating layer elu10
I1020 04:27:38.229532 10409 net.cpp:100] Creating Layer elu10
I1020 04:27:38.229537 10409 net.cpp:434] elu10 <- conv10
I1020 04:27:38.229542 10409 net.cpp:408] elu10 -> elu10
I1020 04:27:38.229559 10409 net.cpp:150] Setting up elu10
I1020 04:27:38.229563 10409 net.cpp:157] Top shape: 100 300 1 1 (30000)
I1020 04:27:38.229568 10409 net.cpp:165] Memory required for data: 209578800
I1020 04:27:38.229568 10409 layer_factory.hpp:77] Creating layer drop6
I1020 04:27:38.229573 10409 net.cpp:100] Creating Layer drop6
I1020 04:27:38.229574 10409 net.cpp:434] drop6 <- elu10
I1020 04:27:38.229578 10409 net.cpp:408] drop6 -> drop6
I1020 04:27:38.229606 10409 net.cpp:150] Setting up drop6
I1020 04:27:38.229612 10409 net.cpp:157] Top shape: 100 300 1 1 (30000)
I1020 04:27:38.229614 10409 net.cpp:165] Memory required for data: 209698800
I1020 04:27:38.229616 10409 layer_factory.hpp:77] Creating layer pool6
I1020 04:27:38.229619 10409 net.cpp:100] Creating Layer pool6
I1020 04:27:38.229621 10409 net.cpp:434] pool6 <- drop6
I1020 04:27:38.229624 10409 net.cpp:408] pool6 -> pool6
I1020 04:27:38.229651 10409 net.cpp:150] Setting up pool6
I1020 04:27:38.229656 10409 net.cpp:157] Top shape: 100 300 1 1 (30000)
I1020 04:27:38.229657 10409 net.cpp:165] Memory required for data: 209818800
I1020 04:27:38.229660 10409 layer_factory.hpp:77] Creating layer conv11
I1020 04:27:38.229667 10409 net.cpp:100] Creating Layer conv11
I1020 04:27:38.229671 10409 net.cpp:434] conv11 <- pool6
I1020 04:27:38.229673 10409 net.cpp:408] conv11 -> conv11
I1020 04:27:38.230420 10409 net.cpp:150] Setting up conv11
I1020 04:27:38.230429 10409 net.cpp:157] Top shape: 100 100 1 1 (10000)
I1020 04:27:38.230432 10409 net.cpp:165] Memory required for data: 209858800
I1020 04:27:38.230437 10409 layer_factory.hpp:77] Creating layer elu11
I1020 04:27:38.230440 10409 net.cpp:100] Creating Layer elu11
I1020 04:27:38.230450 10409 net.cpp:434] elu11 <- conv11
I1020 04:27:38.230454 10409 net.cpp:408] elu11 -> elu11
I1020 04:27:38.230473 10409 net.cpp:150] Setting up elu11
I1020 04:27:38.230478 10409 net.cpp:157] Top shape: 100 100 1 1 (10000)
I1020 04:27:38.230480 10409 net.cpp:165] Memory required for data: 209898800
I1020 04:27:38.230481 10409 layer_factory.hpp:77] Creating layer drop7
I1020 04:27:38.230485 10409 net.cpp:100] Creating Layer drop7
I1020 04:27:38.230487 10409 net.cpp:434] drop7 <- elu11
I1020 04:27:38.230492 10409 net.cpp:408] drop7 -> drop7
I1020 04:27:38.230518 10409 net.cpp:150] Setting up drop7
I1020 04:27:38.230523 10409 net.cpp:157] Top shape: 100 100 1 1 (10000)
I1020 04:27:38.230525 10409 net.cpp:165] Memory required for data: 209938800
I1020 04:27:38.230527 10409 layer_factory.hpp:77] Creating layer pool7
I1020 04:27:38.230530 10409 net.cpp:100] Creating Layer pool7
I1020 04:27:38.230532 10409 net.cpp:434] pool7 <- drop7
I1020 04:27:38.230535 10409 net.cpp:408] pool7 -> pool7
I1020 04:27:38.230561 10409 net.cpp:150] Setting up pool7
I1020 04:27:38.230566 10409 net.cpp:157] Top shape: 100 100 1 1 (10000)
I1020 04:27:38.230568 10409 net.cpp:165] Memory required for data: 209978800
I1020 04:27:38.230571 10409 layer_factory.hpp:77] Creating layer score
I1020 04:27:38.230574 10409 net.cpp:100] Creating Layer score
I1020 04:27:38.230576 10409 net.cpp:434] score <- pool7
I1020 04:27:38.230578 10409 net.cpp:408] score -> score
I1020 04:27:38.230665 10409 net.cpp:150] Setting up score
I1020 04:27:38.230669 10409 net.cpp:157] Top shape: 100 10 (1000)
I1020 04:27:38.230671 10409 net.cpp:165] Memory required for data: 209982800
I1020 04:27:38.230674 10409 layer_factory.hpp:77] Creating layer score_score_0_split
I1020 04:27:38.230679 10409 net.cpp:100] Creating Layer score_score_0_split
I1020 04:27:38.230682 10409 net.cpp:434] score_score_0_split <- score
I1020 04:27:38.230685 10409 net.cpp:408] score_score_0_split -> score_score_0_split_0
I1020 04:27:38.230690 10409 net.cpp:408] score_score_0_split -> score_score_0_split_1
I1020 04:27:38.230715 10409 net.cpp:150] Setting up score_score_0_split
I1020 04:27:38.230718 10409 net.cpp:157] Top shape: 100 10 (1000)
I1020 04:27:38.230720 10409 net.cpp:157] Top shape: 100 10 (1000)
I1020 04:27:38.230722 10409 net.cpp:165] Memory required for data: 209990800
I1020 04:27:38.230723 10409 layer_factory.hpp:77] Creating layer accuracy
I1020 04:27:38.230727 10409 net.cpp:100] Creating Layer accuracy
I1020 04:27:38.230729 10409 net.cpp:434] accuracy <- score_score_0_split_0
I1020 04:27:38.230732 10409 net.cpp:434] accuracy <- label_data_1_split_0
I1020 04:27:38.230734 10409 net.cpp:408] accuracy -> accuracy
…
