…
  stage: ""
}
type: "AdaGrad"
I1020 05:29:30.795040 11015 solver.cpp:81] Creating training net from train_net file: /home/adam/Honours/Honours-Project/mnist_pooling/max/leakyrelu/poolcnn_leakyrelu_train.prototxt
I1020 05:29:30.795332 11015 net.cpp:58] Initializing net from parameters: 
state {
  phase: TRAIN
  level: 0
  stage: ""
}
layer {
  name: "data"
  type: "Data"
  top: "data"
  top: "label"
  transform_param {
    scale: 0.0039215689
  }
  data_param {
    source: "../../../../data/mnist/mnist_train_lmdb"
    batch_size: 64
    backend: LMDB
  }
}
layer {
  name: "conv1"
  type: "Convolution"
  bottom: "data"
  top: "conv1"
  convolution_param {
    num_output: 192
    kernel_size: 5
    weight_filler {
      type: "xavier"
    }
  }
}
layer {
  name: "relu1"
  type: "ReLU"
  bottom: "conv1"
  top: "relu1"
  relu_param {
    negative_slope: 0.1
  }
}
layer {
  name: "drop1"
  type: "Dropout"
  bottom: "relu1"
  top: "drop1"
  dropout_param {
    dropout_ratio: 0
  }
}
layer {
  name: "pool1"
  type: "Pooling"
  bottom: "drop1"
  top: "pool1"
  pooling_param {
    pool: MAX
    kernel_size: 2
    stride: 2
  }
}
layer {
  name: "conv2"
  type: "Convolution"
  bottom: "pool1"
  top: "conv2"
  convolution_param {
    num_output: 192
    kernel_size: 1
    weight_filler {
      type: "xavier"
    }
  }
}
layer {
  name: "relu2"
  type: "ReLU"
  bottom: "conv2"
  top: "relu2"
  relu_param {
    negative_slope: 0.1
  }
}
layer {
  name: "conv3"
  type: "Convolution"
  bottom: "relu2"
  top: "conv3"
  convolution_param {
    num_output: 240
    kernel_size: 3
    weight_filler {
      type: "xavier"
    }
  }
}
layer {
  name: "relu3"
  type: "ReLU"
  bottom: "conv3"
  top: "relu3"
  relu_param {
    negative_slope: 0.1
  }
}
layer {
  name: "drop2"
  type: "Dropout"
  bottom: "relu3"
  top: "drop2"
  dropout_param {
    dropout_ratio: 0.1
  }
}
layer {
  name: "pool2"
  type: "Pooling"
  bottom: "drop2"
  top: "pool2"
  pooling_param {
    pool: MAX
    kernel_size: 2
    stride: 2
  }
}
layer {
  name: "conv4"
  type: "Convolution"
  bottom: "pool2"
  top: "conv4"
  convolution_param {
    num_output: 240
    kernel_size: 1
    weight_filler {
      type: "xavier"
    }
  }
}
layer {
  name: "relu4"
  type: "ReLU"
  bottom: "conv4"
  top: "relu4"
  relu_param {
    negative_slope: 0.1
  }
}
layer {
  name: "conv5"
  type: "Convolution"
  bottom: "relu4"
  top: "conv5"
  convolution_param {
    num_output: 260
    kernel_size: 2
    weight_filler {
      type: "xavier"
    }
  }
}
layer {
  name: "relu5"
  type: "ReLU"
  bottom: "conv5"
  top: "relu5"
  relu_param {
    negative_slope: 0.1
  }
}
layer {
  name: "drop3"
  type: "Dropout"
  bottom: "relu5"
  top: "drop3"
  dropout_param {
    dropout_ratio: 0.2
  }
}
layer {
  name: "pool3"
  type: "Pooling"
  bottom: "drop3"
  top: "pool3"
  pooling_param {
    pool: MAX
    kernel_size: 2
    stride: 2
  }
}
layer {
  name: "conv6"
  type: "Convolution"
  bottom: "pool3"
  top: "conv6"
  convolution_param {
    num_output: 260
    kernel_size: 1
    weight_filler {
      type: "xavier"
    }
  }
}
layer {
  name: "relu6"
  type: "ReLU"
  bottom: "conv6"
  top: "relu6"
  relu_param {
    negative_slope: 0.1
  }
}
layer {
  name: "conv7"
  type: "Convolution"
  bottom: "relu6"
  top: "conv7"
  convolution_param {
    num_output: 280
    kernel_size: 2
    weight_filler {
      type: "xavier"
    }
  }
}
layer {
  name: "relu7"
  type: "ReLU"
  bottom: "conv7"
  top: "relu7"
  relu_param {
    negative_slope: 0.1
  }
}
layer {
  name: "drop4"
  type: "Dropout"
  bottom: "relu7"
  top: "drop4"
  dropout_param {
    dropout_ratio: 0.3
  }
}
layer {
  name: "pool4"
  type: "Pooling"
  bottom: "drop4"
  top: "pool4"
  pooling_param {
    pool: MAX
    kernel_size: 2
    stride: 2
  }
}
layer {
  name: "conv8"
  type: "Convolution"
  bottom: "pool4"
  top: "conv8"
  convolution_param {
    num_output: 280
    kernel_size: 1
    weight_filler {
      type: "xavier"
    }
  }
}
layer {
  name: "relu8"
  type: "ReLU"
  bottom: "conv8"
  top: "relu8"
  relu_param {
    negative_slope: 0.1
  }
}
layer {
  name: "drop5"
  type: "Dropout"
  bottom: "relu8"
  top: "drop5"
  dropout_param {
    dropout_ratio: 0.4
  }
}
layer {
  name: "pool5"
  type: "Pooling"
  bottom: "drop5"
  top: "pool5"
  pooling_param {
    pool: MAX
    kernel_size: 2
    stride: 2
  }
}
layer {
  name: "conv10"
  type: "Convolution"
  bottom: "pool5"
  top: "conv10"
  convolution_param {
    num_output: 300
    kernel_size: 1
    weight_filler {
      type: "xavier"
    }
  }
}
layer {
  name: "relu10"
  type: "ReLU"
  bottom: "conv10"
  top: "relu10"
  relu_param {
    negative_slope: 0.1
  }
}
layer {
  name: "drop6"
  type: "Dropout"
  bottom: "relu10"
  top: "drop6"
  dropout_param {
    dropout_ratio: 0.5
  }
}
layer {
  name: "pool6"
  type: "Pooling"
  bottom: "drop6"
  top: "pool6"
  pooling_param {
    pool: MAX
    kernel_size: 2
    stride: 2
  }
}
layer {
  name: "conv11"
  type: "Convolution"
  bottom: "pool6"
  top: "conv11"
  convolution_param {
    num_output: 100
    kernel_size: 1
    weight_filler {
      type: "xavier"
    }
  }
}
layer {
  name: "relu11"
  type: "ReLU"
  bottom: "conv11"
  top: "relu11"
  relu_param {
    negative_slope: 0.1
  }
}
layer {
  name: "drop7"
  type: "Dropout"
  bottom: "relu11"
  top: "drop7"
  dropout_param {
    dropout_ratio: 0
  }
}
layer {
  name: "pool7"
  type: "Pooling"
  bottom: "drop7"
  top: "pool7"
  pooling_param {
    pool: MAX
    kernel_size: 2
    stride: 2
  }
}
layer {
  name: "score"
  type: "InnerProduct"
  bottom: "pool7"
  top: "score"
  inner_product_param {
    num_output: 10
    weight_filler {
      type: "gaussian"
    }
  }
}
layer {
  name: "accuracy"
  type: "Accuracy"
  bottom: "score"
  bottom: "label"
  top: "accuracy"
}
layer {
  name: "loss"
  type: "SoftmaxWithLoss"
  bottom: "score"
  bottom: "label"
  top: "loss"
}
I1020 05:29:30.795441 11015 layer_factory.hpp:77] Creating layer data
I1020 05:29:30.795824 11015 net.cpp:100] Creating Layer data
I1020 05:29:30.795830 11015 net.cpp:408] data -> data
I1020 05:29:30.795845 11015 net.cpp:408] data -> label
I1020 05:29:30.796435 11020 db_lmdb.cpp:35] Opened lmdb ../../../../data/mnist/mnist_train_lmdb
I1020 05:29:30.802000 11015 data_layer.cpp:41] output data size: 64,1,28,28
I1020 05:29:30.802569 11015 net.cpp:150] Setting up data
I1020 05:29:30.802582 11015 net.cpp:157] Top shape: 64 1 28 28 (50176)
I1020 05:29:30.802584 11015 net.cpp:157] Top shape: 64 (64)
I1020 05:29:30.802587 11015 net.cpp:165] Memory required for data: 200960
I1020 05:29:30.802593 11015 layer_factory.hpp:77] Creating layer label_data_1_split
I1020 05:29:30.802603 11015 net.cpp:100] Creating Layer label_data_1_split
I1020 05:29:30.802609 11015 net.cpp:434] label_data_1_split <- label
I1020 05:29:30.802620 11015 net.cpp:408] label_data_1_split -> label_data_1_split_0
I1020 05:29:30.802628 11015 net.cpp:408] label_data_1_split -> label_data_1_split_1
I1020 05:29:30.802654 11015 net.cpp:150] Setting up label_data_1_split
I1020 05:29:30.802656 11015 net.cpp:157] Top shape: 64 (64)
I1020 05:29:30.802659 11015 net.cpp:157] Top shape: 64 (64)
I1020 05:29:30.802659 11015 net.cpp:165] Memory required for data: 201472
I1020 05:29:30.802661 11015 layer_factory.hpp:77] Creating layer conv1
I1020 05:29:30.802673 11015 net.cpp:100] Creating Layer conv1
I1020 05:29:30.802676 11015 net.cpp:434] conv1 <- data
I1020 05:29:30.802682 11015 net.cpp:408] conv1 -> conv1
I1020 05:29:30.926007 11015 net.cpp:150] Setting up conv1
I1020 05:29:30.926035 11015 net.cpp:157] Top shape: 64 192 24 24 (7077888)
I1020 05:29:30.926054 11015 net.cpp:165] Memory required for data: 28513024
I1020 05:29:30.926074 11015 layer_factory.hpp:77] Creating layer relu1
I1020 05:29:30.926086 11015 net.cpp:100] Creating Layer relu1
I1020 05:29:30.926090 11015 net.cpp:434] relu1 <- conv1
I1020 05:29:30.926098 11015 net.cpp:408] relu1 -> relu1
I1020 05:29:30.926224 11015 net.cpp:150] Setting up relu1
I1020 05:29:30.926230 11015 net.cpp:157] Top shape: 64 192 24 24 (7077888)
I1020 05:29:30.926232 11015 net.cpp:165] Memory required for data: 56824576
I1020 05:29:30.926234 11015 layer_factory.hpp:77] Creating layer drop1
I1020 05:29:30.926239 11015 net.cpp:100] Creating Layer drop1
I1020 05:29:30.926241 11015 net.cpp:434] drop1 <- relu1
I1020 05:29:30.926244 11015 net.cpp:408] drop1 -> drop1
I1020 05:29:30.926270 11015 net.cpp:150] Setting up drop1
I1020 05:29:30.926275 11015 net.cpp:157] Top shape: 64 192 24 24 (7077888)
I1020 05:29:30.926276 11015 net.cpp:165] Memory required for data: 85136128
I1020 05:29:30.926278 11015 layer_factory.hpp:77] Creating layer pool1
I1020 05:29:30.926281 11015 net.cpp:100] Creating Layer pool1
I1020 05:29:30.926283 11015 net.cpp:434] pool1 <- drop1
I1020 05:29:30.926285 11015 net.cpp:408] pool1 -> pool1
I1020 05:29:30.926312 11015 net.cpp:150] Setting up pool1
I1020 05:29:30.926316 11015 net.cpp:157] Top shape: 64 192 12 12 (1769472)
I1020 05:29:30.926317 11015 net.cpp:165] Memory required for data: 92214016
I1020 05:29:30.926318 11015 layer_factory.hpp:77] Creating layer conv2
I1020 05:29:30.926326 11015 net.cpp:100] Creating Layer conv2
I1020 05:29:30.926326 11015 net.cpp:434] conv2 <- pool1
I1020 05:29:30.926329 11015 net.cpp:408] conv2 -> conv2
I1020 05:29:30.927119 11015 net.cpp:150] Setting up conv2
I1020 05:29:30.927127 11015 net.cpp:157] Top shape: 64 192 12 12 (1769472)
I1020 05:29:30.927129 11015 net.cpp:165] Memory required for data: 99291904
I1020 05:29:30.927134 11015 layer_factory.hpp:77] Creating layer relu2
I1020 05:29:30.927139 11015 net.cpp:100] Creating Layer relu2
I1020 05:29:30.927140 11015 net.cpp:434] relu2 <- conv2
I1020 05:29:30.927144 11015 net.cpp:408] relu2 -> relu2
I1020 05:29:30.927255 11015 net.cpp:150] Setting up relu2
I1020 05:29:30.927260 11015 net.cpp:157] Top shape: 64 192 12 12 (1769472)
I1020 05:29:30.927263 11015 net.cpp:165] Memory required for data: 106369792
I1020 05:29:30.927264 11015 layer_factory.hpp:77] Creating layer conv3
I1020 05:29:30.927270 11015 net.cpp:100] Creating Layer conv3
I1020 05:29:30.927273 11015 net.cpp:434] conv3 <- relu2
I1020 05:29:30.927275 11015 net.cpp:408] conv3 -> conv3
I1020 05:29:30.929680 11015 net.cpp:150] Setting up conv3
I1020 05:29:30.929689 11015 net.cpp:157] Top shape: 64 240 10 10 (1536000)
I1020 05:29:30.929692 11015 net.cpp:165] Memory required for data: 112513792
I1020 05:29:30.929697 11015 layer_factory.hpp:77] Creating layer relu3
I1020 05:29:30.929700 11015 net.cpp:100] Creating Layer relu3
I1020 05:29:30.929702 11015 net.cpp:434] relu3 <- conv3
I1020 05:29:30.929705 11015 net.cpp:408] relu3 -> relu3
I1020 05:29:30.929888 11015 net.cpp:150] Setting up relu3
I1020 05:29:30.929894 11015 net.cpp:157] Top shape: 64 240 10 10 (1536000)
I1020 05:29:30.929896 11015 net.cpp:165] Memory required for data: 118657792
I1020 05:29:30.929898 11015 layer_factory.hpp:77] Creating layer drop2
I1020 05:29:30.929903 11015 net.cpp:100] Creating Layer drop2
I1020 05:29:30.929904 11015 net.cpp:434] drop2 <- relu3
I1020 05:29:30.929908 11015 net.cpp:408] drop2 -> drop2
I1020 05:29:30.929929 11015 net.cpp:150] Setting up drop2
I1020 05:29:30.929934 11015 net.cpp:157] Top shape: 64 240 10 10 (1536000)
I1020 05:29:30.929936 11015 net.cpp:165] Memory required for data: 124801792
I1020 05:29:30.929939 11015 layer_factory.hpp:77] Creating layer pool2
I1020 05:29:30.929944 11015 net.cpp:100] Creating Layer pool2
I1020 05:29:30.929945 11015 net.cpp:434] pool2 <- drop2
I1020 05:29:30.929949 11015 net.cpp:408] pool2 -> pool2
I1020 05:29:30.929970 11015 net.cpp:150] Setting up pool2
I1020 05:29:30.929973 11015 net.cpp:157] Top shape: 64 240 5 5 (384000)
I1020 05:29:30.929982 11015 net.cpp:165] Memory required for data: 126337792
I1020 05:29:30.929985 11015 layer_factory.hpp:77] Creating layer conv4
I1020 05:29:30.929989 11015 net.cpp:100] Creating Layer conv4
I1020 05:29:30.929991 11015 net.cpp:434] conv4 <- pool2
I1020 05:29:30.929993 11015 net.cpp:408] conv4 -> conv4
I1020 05:29:30.930789 11015 net.cpp:150] Setting up conv4
I1020 05:29:30.930796 11015 net.cpp:157] Top shape: 64 240 5 5 (384000)
I1020 05:29:30.930799 11015 net.cpp:165] Memory required for data: 127873792
I1020 05:29:30.930802 11015 layer_factory.hpp:77] Creating layer relu4
I1020 05:29:30.930806 11015 net.cpp:100] Creating Layer relu4
I1020 05:29:30.930809 11015 net.cpp:434] relu4 <- conv4
I1020 05:29:30.930810 11015 net.cpp:408] relu4 -> relu4
I1020 05:29:30.930918 11015 net.cpp:150] Setting up relu4
I1020 05:29:30.930923 11015 net.cpp:157] Top shape: 64 240 5 5 (384000)
I1020 05:29:30.930925 11015 net.cpp:165] Memory required for data: 129409792
I1020 05:29:30.930927 11015 layer_factory.hpp:77] Creating layer conv5
I1020 05:29:30.930932 11015 net.cpp:100] Creating Layer conv5
I1020 05:29:30.930934 11015 net.cpp:434] conv5 <- relu4
I1020 05:29:30.930938 11015 net.cpp:408] conv5 -> conv5
I1020 05:29:30.932723 11015 net.cpp:150] Setting up conv5
I1020 05:29:30.932731 11015 net.cpp:157] Top shape: 64 260 4 4 (266240)
I1020 05:29:30.932734 11015 net.cpp:165] Memory required for data: 130474752
I1020 05:29:30.932739 11015 layer_factory.hpp:77] Creating layer relu5
I1020 05:29:30.932744 11015 net.cpp:100] Creating Layer relu5
I1020 05:29:30.932746 11015 net.cpp:434] relu5 <- conv5
I1020 05:29:30.932749 11015 net.cpp:408] relu5 -> relu5
I1020 05:29:30.932864 11015 net.cpp:150] Setting up relu5
I1020 05:29:30.932870 11015 net.cpp:157] Top shape: 64 260 4 4 (266240)
I1020 05:29:30.932873 11015 net.cpp:165] Memory required for data: 131539712
I1020 05:29:30.932874 11015 layer_factory.hpp:77] Creating layer drop3
I1020 05:29:30.932879 11015 net.cpp:100] Creating Layer drop3
I1020 05:29:30.932881 11015 net.cpp:434] drop3 <- relu5
I1020 05:29:30.932884 11015 net.cpp:408] drop3 -> drop3
I1020 05:29:30.932909 11015 net.cpp:150] Setting up drop3
I1020 05:29:30.932912 11015 net.cpp:157] Top shape: 64 260 4 4 (266240)
I1020 05:29:30.932914 11015 net.cpp:165] Memory required for data: 132604672
I1020 05:29:30.932916 11015 layer_factory.hpp:77] Creating layer pool3
I1020 05:29:30.932919 11015 net.cpp:100] Creating Layer pool3
I1020 05:29:30.932921 11015 net.cpp:434] pool3 <- drop3
I1020 05:29:30.932924 11015 net.cpp:408] pool3 -> pool3
I1020 05:29:30.932945 11015 net.cpp:150] Setting up pool3
I1020 05:29:30.932948 11015 net.cpp:157] Top shape: 64 260 2 2 (66560)
I1020 05:29:30.932950 11015 net.cpp:165] Memory required for data: 132870912
I1020 05:29:30.932951 11015 layer_factory.hpp:77] Creating layer conv6
I1020 05:29:30.932956 11015 net.cpp:100] Creating Layer conv6
I1020 05:29:30.932957 11015 net.cpp:434] conv6 <- pool3
I1020 05:29:30.932961 11015 net.cpp:408] conv6 -> conv6
I1020 05:29:30.934070 11015 net.cpp:150] Setting up conv6
I1020 05:29:30.934078 11015 net.cpp:157] Top shape: 64 260 2 2 (66560)
I1020 05:29:30.934080 11015 net.cpp:165] Memory required for data: 133137152
I1020 05:29:30.934084 11015 layer_factory.hpp:77] Creating layer relu6
I1020 05:29:30.934087 11015 net.cpp:100] Creating Layer relu6
I1020 05:29:30.934089 11015 net.cpp:434] relu6 <- conv6
I1020 05:29:30.934092 11015 net.cpp:408] relu6 -> relu6
I1020 05:29:30.934284 11015 net.cpp:150] Setting up relu6
I1020 05:29:30.934291 11015 net.cpp:157] Top shape: 64 260 2 2 (66560)
I1020 05:29:30.934293 11015 net.cpp:165] Memory required for data: 133403392
I1020 05:29:30.934294 11015 layer_factory.hpp:77] Creating layer conv7
I1020 05:29:30.934301 11015 net.cpp:100] Creating Layer conv7
I1020 05:29:30.934303 11015 net.cpp:434] conv7 <- relu6
I1020 05:29:30.934306 11015 net.cpp:408] conv7 -> conv7
I1020 05:29:30.936480 11015 net.cpp:150] Setting up conv7
I1020 05:29:30.936489 11015 net.cpp:157] Top shape: 64 280 1 1 (17920)
I1020 05:29:30.936501 11015 net.cpp:165] Memory required for data: 133475072
I1020 05:29:30.936504 11015 layer_factory.hpp:77] Creating layer relu7
I1020 05:29:30.936509 11015 net.cpp:100] Creating Layer relu7
I1020 05:29:30.936511 11015 net.cpp:434] relu7 <- conv7
I1020 05:29:30.936514 11015 net.cpp:408] relu7 -> relu7
I1020 05:29:30.936636 11015 net.cpp:150] Setting up relu7
I1020 05:29:30.936642 11015 net.cpp:157] Top shape: 64 280 1 1 (17920)
I1020 05:29:30.936645 11015 net.cpp:165] Memory required for data: 133546752
I1020 05:29:30.936646 11015 layer_factory.hpp:77] Creating layer drop4
I1020 05:29:30.936650 11015 net.cpp:100] Creating Layer drop4
I1020 05:29:30.936651 11015 net.cpp:434] drop4 <- relu7
I1020 05:29:30.936655 11015 net.cpp:408] drop4 -> drop4
I1020 05:29:30.936679 11015 net.cpp:150] Setting up drop4
I1020 05:29:30.936684 11015 net.cpp:157] Top shape: 64 280 1 1 (17920)
I1020 05:29:30.936686 11015 net.cpp:165] Memory required for data: 133618432
I1020 05:29:30.936687 11015 layer_factory.hpp:77] Creating layer pool4
I1020 05:29:30.936691 11015 net.cpp:100] Creating Layer pool4
I1020 05:29:30.936692 11015 net.cpp:434] pool4 <- drop4
I1020 05:29:30.936695 11015 net.cpp:408] pool4 -> pool4
I1020 05:29:30.936717 11015 net.cpp:150] Setting up pool4
I1020 05:29:30.936720 11015 net.cpp:157] Top shape: 64 280 1 1 (17920)
I1020 05:29:30.936722 11015 net.cpp:165] Memory required for data: 133690112
I1020 05:29:30.936724 11015 layer_factory.hpp:77] Creating layer conv8
I1020 05:29:30.936730 11015 net.cpp:100] Creating Layer conv8
I1020 05:29:30.936734 11015 net.cpp:434] conv8 <- pool4
I1020 05:29:30.936738 11015 net.cpp:408] conv8 -> conv8
I1020 05:29:30.937742 11015 net.cpp:150] Setting up conv8
I1020 05:29:30.937750 11015 net.cpp:157] Top shape: 64 280 1 1 (17920)
I1020 05:29:30.937752 11015 net.cpp:165] Memory required for data: 133761792
I1020 05:29:30.937757 11015 layer_factory.hpp:77] Creating layer relu8
I1020 05:29:30.937759 11015 net.cpp:100] Creating Layer relu8
I1020 05:29:30.937762 11015 net.cpp:434] relu8 <- conv8
I1020 05:29:30.937765 11015 net.cpp:408] relu8 -> relu8
I1020 05:29:30.937881 11015 net.cpp:150] Setting up relu8
I1020 05:29:30.937888 11015 net.cpp:157] Top shape: 64 280 1 1 (17920)
I1020 05:29:30.937889 11015 net.cpp:165] Memory required for data: 133833472
I1020 05:29:30.937892 11015 layer_factory.hpp:77] Creating layer drop5
I1020 05:29:30.937894 11015 net.cpp:100] Creating Layer drop5
I1020 05:29:30.937896 11015 net.cpp:434] drop5 <- relu8
I1020 05:29:30.937899 11015 net.cpp:408] drop5 -> drop5
I1020 05:29:30.937925 11015 net.cpp:150] Setting up drop5
I1020 05:29:30.937929 11015 net.cpp:157] Top shape: 64 280 1 1 (17920)
I1020 05:29:30.937932 11015 net.cpp:165] Memory required for data: 133905152
I1020 05:29:30.937932 11015 layer_factory.hpp:77] Creating layer pool5
I1020 05:29:30.937937 11015 net.cpp:100] Creating Layer pool5
I1020 05:29:30.937938 11015 net.cpp:434] pool5 <- drop5
I1020 05:29:30.937940 11015 net.cpp:408] pool5 -> pool5
I1020 05:29:30.937963 11015 net.cpp:150] Setting up pool5
I1020 05:29:30.937966 11015 net.cpp:157] Top shape: 64 280 1 1 (17920)
I1020 05:29:30.937968 11015 net.cpp:165] Memory required for data: 133976832
I1020 05:29:30.937969 11015 layer_factory.hpp:77] Creating layer conv10
I1020 05:29:30.937973 11015 net.cpp:100] Creating Layer conv10
I1020 05:29:30.937975 11015 net.cpp:434] conv10 <- pool5
I1020 05:29:30.937978 11015 net.cpp:408] conv10 -> conv10
I1020 05:29:30.939028 11015 net.cpp:150] Setting up conv10
I1020 05:29:30.939041 11015 net.cpp:157] Top shape: 64 300 1 1 (19200)
I1020 05:29:30.939044 11015 net.cpp:165] Memory required for data: 134053632
I1020 05:29:30.939054 11015 layer_factory.hpp:77] Creating layer relu10
I1020 05:29:30.939059 11015 net.cpp:100] Creating Layer relu10
I1020 05:29:30.939061 11015 net.cpp:434] relu10 <- conv10
I1020 05:29:30.939065 11015 net.cpp:408] relu10 -> relu10
I1020 05:29:30.939268 11015 net.cpp:150] Setting up relu10
I1020 05:29:30.939275 11015 net.cpp:157] Top shape: 64 300 1 1 (19200)
I1020 05:29:30.939290 11015 net.cpp:165] Memory required for data: 134130432
I1020 05:29:30.939292 11015 layer_factory.hpp:77] Creating layer drop6
I1020 05:29:30.939296 11015 net.cpp:100] Creating Layer drop6
I1020 05:29:30.939298 11015 net.cpp:434] drop6 <- relu10
I1020 05:29:30.939301 11015 net.cpp:408] drop6 -> drop6
I1020 05:29:30.939329 11015 net.cpp:150] Setting up drop6
I1020 05:29:30.939333 11015 net.cpp:157] Top shape: 64 300 1 1 (19200)
I1020 05:29:30.939335 11015 net.cpp:165] Memory required for data: 134207232
I1020 05:29:30.939337 11015 layer_factory.hpp:77] Creating layer pool6
I1020 05:29:30.939340 11015 net.cpp:100] Creating Layer pool6
I1020 05:29:30.939342 11015 net.cpp:434] pool6 <- drop6
I1020 05:29:30.939345 11015 net.cpp:408] pool6 -> pool6
I1020 05:29:30.939368 11015 net.cpp:150] Setting up pool6
I1020 05:29:30.939373 11015 net.cpp:157] Top shape: 64 300 1 1 (19200)
I1020 05:29:30.939374 11015 net.cpp:165] Memory required for data: 134284032
I1020 05:29:30.939376 11015 layer_factory.hpp:77] Creating layer conv11
I1020 05:29:30.939385 11015 net.cpp:100] Creating Layer conv11
I1020 05:29:30.939388 11015 net.cpp:434] conv11 <- pool6
I1020 05:29:30.939391 11015 net.cpp:408] conv11 -> conv11
I1020 05:29:30.940430 11015 net.cpp:150] Setting up conv11
I1020 05:29:30.940439 11015 net.cpp:157] Top shape: 64 100 1 1 (6400)
I1020 05:29:30.940441 11015 net.cpp:165] Memory required for data: 134309632
I1020 05:29:30.940445 11015 layer_factory.hpp:77] Creating layer relu11
I1020 05:29:30.940451 11015 net.cpp:100] Creating Layer relu11
I1020 05:29:30.940454 11015 net.cpp:434] relu11 <- conv11
I1020 05:29:30.940456 11015 net.cpp:408] relu11 -> relu11
I1020 05:29:30.940573 11015 net.cpp:150] Setting up relu11
I1020 05:29:30.940578 11015 net.cpp:157] Top shape: 64 100 1 1 (6400)
I1020 05:29:30.940582 11015 net.cpp:165] Memory required for data: 134335232
I1020 05:29:30.940582 11015 layer_factory.hpp:77] Creating layer drop7
I1020 05:29:30.940587 11015 net.cpp:100] Creating Layer drop7
I1020 05:29:30.940590 11015 net.cpp:434] drop7 <- relu11
I1020 05:29:30.940595 11015 net.cpp:408] drop7 -> drop7
I1020 05:29:30.940623 11015 net.cpp:150] Setting up drop7
I1020 05:29:30.940629 11015 net.cpp:157] Top shape: 64 100 1 1 (6400)
I1020 05:29:30.940631 11015 net.cpp:165] Memory required for data: 134360832
I1020 05:29:30.940634 11015 layer_factory.hpp:77] Creating layer pool7
I1020 05:29:30.940640 11015 net.cpp:100] Creating Layer pool7
I1020 05:29:30.940644 11015 net.cpp:434] pool7 <- drop7
I1020 05:29:30.940649 11015 net.cpp:408] pool7 -> pool7
I1020 05:29:30.940675 11015 net.cpp:150] Setting up pool7
I1020 05:29:30.940678 11015 net.cpp:157] Top shape: 64 100 1 1 (6400)
I1020 05:29:30.940682 11015 net.cpp:165] Memory required for data: 134386432
I1020 05:29:30.940686 11015 layer_factory.hpp:77] Creating layer score
I1020 05:29:30.940691 11015 net.cpp:100] Creating Layer score
I1020 05:29:30.940695 11015 net.cpp:434] score <- pool7
I1020 05:29:30.940698 11015 net.cpp:408] score -> score
I1020 05:29:30.940801 11015 net.cpp:150] Setting up score
I1020 05:29:30.940805 11015 net.cpp:157] Top shape: 64 10 (640)
I1020 05:29:30.940807 11015 net.cpp:165] Memory required for data: 134388992
I1020 05:29:30.940810 11015 layer_factory.hpp:77] Creating layer score_score_0_split
I1020 05:29:30.940814 11015 net.cpp:100] Creating Layer score_score_0_split
I1020 05:29:30.940816 11015 net.cpp:434] score_score_0_split <- score
I1020 05:29:30.940820 11015 net.cpp:408] score_score_0_split -> score_score_0_split_0
I1020 05:29:30.940824 11015 net.cpp:408] score_score_0_split -> score_score_0_split_1
I1020 05:29:30.940847 11015 net.cpp:150] Setting up score_score_0_split
I1020 05:29:30.940851 11015 net.cpp:157] Top shape: 64 10 (640)
I1020 05:29:30.940853 11015 net.cpp:157] Top shape: 64 10 (640)
I1020 05:29:30.940855 11015 net.cpp:165] Memory required for data: 134394112
I1020 05:29:30.940856 11015 layer_factory.hpp:77] Creating layer accuracy
I1020 05:29:30.940860 11015 net.cpp:100] Creating Layer accuracy
I1020 05:29:30.940862 11015 net.cpp:434] accuracy <- score_score_0_split_0
I1020 05:29:30.940873 11015 net.cpp:434] accuracy <- label_data_1_split_0
I1020 05:29:30.940877 11015 net.cpp:408] accuracy -> accuracy
…
I1020 05:29:30.941287 11015 net.cpp:283] Network initialization done.
I1020 05:29:30.941474 11015 solver.cpp:181] Creating test net (#0) specified by test_net file: /home/adam/Honours/Honours-Project/mnist_pooling/max/leakyrelu/poolcnn_leakyrelu_test.prototxt
I1020 05:29:30.941594 11015 net.cpp:58] Initializing net from parameters: 
state {
  phase: TEST
}
layer {
  name: "data"
  type: "Data"
  top: "data"
  top: "label"
  transform_param {
    scale: 0.0039215689
  }
  data_param {
    source: "../../../../data/mnist/mnist_test_lmdb"
    batch_size: 100
    backend: LMDB
  }
}
layer {
  name: "conv1"
  type: "Convolution"
  bottom: "data"
  top: "conv1"
  convolution_param {
    num_output: 192
    kernel_size: 5
    weight_filler {
      type: "xavier"
    }
  }
}
layer {
  name: "relu1"
  type: "ReLU"
  bottom: "conv1"
  top: "relu1"
  relu_param {
    negative_slope: 0.1
  }
}
layer {
  name: "drop1"
  type: "Dropout"
  bottom: "relu1"
  top: "drop1"
  dropout_param {
    dropout_ratio: 0
  }
}
layer {
  name: "pool1"
  type: "Pooling"
  bottom: "drop1"
  top: "pool1"
  pooling_param {
    pool: MAX
    kernel_size: 2
    stride: 2
  }
}
layer {
  name: "conv2"
  type: "Convolution"
  bottom: "pool1"
  top: "conv2"
  convolution_param {
    num_output: 192
    kernel_size: 1
    weight_filler {
      type: "xavier"
    }
  }
}
layer {
  name: "relu2"
  type: "ReLU"
  bottom: "conv2"
  top: "relu2"
  relu_param {
    negative_slope: 0.1
  }
}
layer {
  name: "conv3"
  type: "Convolution"
  bottom: "relu2"
  top: "conv3"
  convolution_param {
    num_output: 240
    kernel_size: 3
    weight_filler {
      type: "xavier"
    }
  }
}
layer {
  name: "relu3"
  type: "ReLU"
  bottom: "conv3"
  top: "relu3"
  relu_param {
    negative_slope: 0.1
  }
}
layer {
  name: "drop2"
  type: "Dropout"
  bottom: "relu3"
  top: "drop2"
  dropout_param {
    dropout_ratio: 0.1
  }
}
layer {
  name: "pool2"
  type: "Pooling"
  bottom: "drop2"
  top: "pool2"
  pooling_param {
    pool: MAX
    kernel_size: 2
    stride: 2
  }
}
layer {
  name: "conv4"
  type: "Convolution"
  bottom: "pool2"
  top: "conv4"
  convolution_param {
    num_output: 240
    kernel_size: 1
    weight_filler {
      type: "xavier"
    }
  }
}
layer {
  name: "relu4"
  type: "ReLU"
  bottom: "conv4"
  top: "relu4"
  relu_param {
    negative_slope: 0.1
  }
}
layer {
  name: "conv5"
  type: "Convolution"
  bottom: "relu4"
  top: "conv5"
  convolution_param {
    num_output: 260
    kernel_size: 2
    weight_filler {
      type: "xavier"
    }
  }
}
layer {
  name: "relu5"
  type: "ReLU"
  bottom: "conv5"
  top: "relu5"
  relu_param {
    negative_slope: 0.1
  }
}
layer {
  name: "drop3"
  type: "Dropout"
  bottom: "relu5"
  top: "drop3"
  dropout_param {
    dropout_ratio: 0.2
  }
}
layer {
  name: "pool3"
  type: "Pooling"
  bottom: "drop3"
  top: "pool3"
  pooling_param {
    pool: MAX
    kernel_size: 2
    stride: 2
  }
}
layer {
  name: "conv6"
  type: "Convolution"
  bottom: "pool3"
  top: "conv6"
  convolution_param {
    num_output: 260
    kernel_size: 1
    weight_filler {
      type: "xavier"
    }
  }
}
layer {
  name: "relu6"
  type: "ReLU"
  bottom: "conv6"
  top: "relu6"
  relu_param {
    negative_slope: 0.1
  }
}
layer {
  name: "conv7"
  type: "Convolution"
  bottom: "relu6"
  top: "conv7"
  convolution_param {
    num_output: 280
    kernel_size: 2
    weight_filler {
      type: "xavier"
    }
  }
}
layer {
  name: "relu7"
  type: "ReLU"
  bottom: "conv7"
  top: "relu7"
  relu_param {
    negative_slope: 0.1
  }
}
layer {
  name: "drop4"
  type: "Dropout"
  bottom: "relu7"
  top: "drop4"
  dropout_param {
    dropout_ratio: 0.3
  }
}
layer {
  name: "pool4"
  type: "Pooling"
  bottom: "drop4"
  top: "pool4"
  pooling_param {
    pool: MAX
    kernel_size: 2
    stride: 2
  }
}
layer {
  name: "conv8"
  type: "Convolution"
  bottom: "pool4"
  top: "conv8"
  convolution_param {
    num_output: 280
    kernel_size: 1
    weight_filler {
      type: "xavier"
    }
  }
}
layer {
  name: "relu8"
  type: "ReLU"
  bottom: "conv8"
  top: "relu8"
  relu_param {
    negative_slope: 0.1
  }
}
layer {
  name: "drop5"
  type: "Dropout"
  bottom: "relu8"
  top: "drop5"
  dropout_param {
    dropout_ratio: 0.4
  }
}
layer {
  name: "pool5"
  type: "Pooling"
  bottom: "drop5"
  top: "pool5"
  pooling_param {
    pool: MAX
    kernel_size: 2
    stride: 2
  }
}
layer {
  name: "conv10"
  type: "Convolution"
  bottom: "pool5"
  top: "conv10"
  convolution_param {
    num_output: 300
    kernel_size: 1
    weight_filler {
      type: "xavier"
    }
  }
}
layer {
  name: "relu10"
  type: "ReLU"
  bottom: "conv10"
  top: "relu10"
  relu_param {
    negative_slope: 0.1
  }
}
layer {
  name: "drop6"
  type: "Dropout"
  bottom: "relu10"
  top: "drop6"
  dropout_param {
    dropout_ratio: 0.5
  }
}
layer {
  name: "pool6"
  type: "Pooling"
  bottom: "drop6"
  top: "pool6"
  pooling_param {
    pool: MAX
    kernel_size: 2
    stride: 2
  }
}
layer {
  name: "conv11"
  type: "Convolution"
  bottom: "pool6"
  top: "conv11"
  convolution_param {
    num_output: 100
    kernel_size: 1
    weight_filler {
      type: "xavier"
    }
  }
}
layer {
  name: "relu11"
  type: "ReLU"
  bottom: "conv11"
  top: "relu11"
  relu_param {
    negative_slope: 0.1
  }
}
layer {
  name: "drop7"
  type: "Dropout"
  bottom: "relu11"
  top: "drop7"
  dropout_param {
    dropout_ratio: 0
  }
}
layer {
  name: "pool7"
  type: "Pooling"
  bottom: "drop7"
  top: "pool7"
  pooling_param {
    pool: MAX
    kernel_size: 2
    stride: 2
  }
}
layer {
  name: "score"
  type: "InnerProduct"
  bottom: "pool7"
  top: "score"
  inner_product_param {
    num_output: 10
    weight_filler {
      type: "gaussian"
    }
  }
}
layer {
  name: "accuracy"
  type: "Accuracy"
  bottom: "score"
  bottom: "label"
  top: "accuracy"
}
layer {
  name: "loss"
  type: "SoftmaxWithLoss"
  bottom: "score"
  bottom: "label"
  top: "loss"
}
I1020 05:29:30.941691 11015 layer_factory.hpp:77] Creating layer data
I1020 05:29:30.941769 11015 net.cpp:100] Creating Layer data
I1020 05:29:30.941786 11015 net.cpp:408] data -> data
I1020 05:29:30.941792 11015 net.cpp:408] data -> label
I1020 05:29:30.942340 11022 db_lmdb.cpp:35] Opened lmdb ../../../../data/mnist/mnist_test_lmdb
I1020 05:29:30.942414 11015 data_layer.cpp:41] output data size: 100,1,28,28
I1020 05:29:30.943032 11015 net.cpp:150] Setting up data
I1020 05:29:30.943039 11015 net.cpp:157] Top shape: 100 1 28 28 (78400)
I1020 05:29:30.943044 11015 net.cpp:157] Top shape: 100 (100)
I1020 05:29:30.943048 11015 net.cpp:165] Memory required for data: 314000
I1020 05:29:30.943049 11015 layer_factory.hpp:77] Creating layer label_data_1_split
I1020 05:29:30.943055 11015 net.cpp:100] Creating Layer label_data_1_split
I1020 05:29:30.943059 11015 net.cpp:434] label_data_1_split <- label
I1020 05:29:30.943063 11015 net.cpp:408] label_data_1_split -> label_data_1_split_0
I1020 05:29:30.943068 11015 net.cpp:408] label_data_1_split -> label_data_1_split_1
I1020 05:29:30.943104 11015 net.cpp:150] Setting up label_data_1_split
I1020 05:29:30.943109 11015 net.cpp:157] Top shape: 100 (100)
I1020 05:29:30.943110 11015 net.cpp:157] Top shape: 100 (100)
I1020 05:29:30.943111 11015 net.cpp:165] Memory required for data: 314800
I1020 05:29:30.943114 11015 layer_factory.hpp:77] Creating layer conv1
I1020 05:29:30.943120 11015 net.cpp:100] Creating Layer conv1
I1020 05:29:30.943121 11015 net.cpp:434] conv1 <- data
I1020 05:29:30.943125 11015 net.cpp:408] conv1 -> conv1
I1020 05:29:30.943886 11015 net.cpp:150] Setting up conv1
I1020 05:29:30.943895 11015 net.cpp:157] Top shape: 100 192 24 24 (11059200)
I1020 05:29:30.943898 11015 net.cpp:165] Memory required for data: 44551600
I1020 05:29:30.943907 11015 layer_factory.hpp:77] Creating layer relu1
I1020 05:29:30.943912 11015 net.cpp:100] Creating Layer relu1
I1020 05:29:30.943914 11015 net.cpp:434] relu1 <- conv1
I1020 05:29:30.943919 11015 net.cpp:408] relu1 -> relu1
I1020 05:29:30.944041 11015 net.cpp:150] Setting up relu1
I1020 05:29:30.944046 11015 net.cpp:157] Top shape: 100 192 24 24 (11059200)
I1020 05:29:30.944056 11015 net.cpp:165] Memory required for data: 88788400
I1020 05:29:30.944058 11015 layer_factory.hpp:77] Creating layer drop1
I1020 05:29:30.944063 11015 net.cpp:100] Creating Layer drop1
I1020 05:29:30.944067 11015 net.cpp:434] drop1 <- relu1
I1020 05:29:30.944069 11015 net.cpp:408] drop1 -> drop1
I1020 05:29:30.944097 11015 net.cpp:150] Setting up drop1
I1020 05:29:30.944102 11015 net.cpp:157] Top shape: 100 192 24 24 (11059200)
I1020 05:29:30.944103 11015 net.cpp:165] Memory required for data: 133025200
I1020 05:29:30.944105 11015 layer_factory.hpp:77] Creating layer pool1
I1020 05:29:30.944108 11015 net.cpp:100] Creating Layer pool1
I1020 05:29:30.944110 11015 net.cpp:434] pool1 <- drop1
I1020 05:29:30.944113 11015 net.cpp:408] pool1 -> pool1
I1020 05:29:30.944142 11015 net.cpp:150] Setting up pool1
I1020 05:29:30.944147 11015 net.cpp:157] Top shape: 100 192 12 12 (2764800)
I1020 05:29:30.944149 11015 net.cpp:165] Memory required for data: 144084400
I1020 05:29:30.944150 11015 layer_factory.hpp:77] Creating layer conv2
I1020 05:29:30.944159 11015 net.cpp:100] Creating Layer conv2
I1020 05:29:30.944162 11015 net.cpp:434] conv2 <- pool1
I1020 05:29:30.944165 11015 net.cpp:408] conv2 -> conv2
I1020 05:29:30.945039 11015 net.cpp:150] Setting up conv2
I1020 05:29:30.945046 11015 net.cpp:157] Top shape: 100 192 12 12 (2764800)
I1020 05:29:30.945050 11015 net.cpp:165] Memory required for data: 155143600
I1020 05:29:30.945058 11015 layer_factory.hpp:77] Creating layer relu2
I1020 05:29:30.945065 11015 net.cpp:100] Creating Layer relu2
I1020 05:29:30.945068 11015 net.cpp:434] relu2 <- conv2
I1020 05:29:30.945071 11015 net.cpp:408] relu2 -> relu2
I1020 05:29:30.945190 11015 net.cpp:150] Setting up relu2
I1020 05:29:30.945196 11015 net.cpp:157] Top shape: 100 192 12 12 (2764800)
I1020 05:29:30.945199 11015 net.cpp:165] Memory required for data: 166202800
I1020 05:29:30.945201 11015 layer_factory.hpp:77] Creating layer conv3
I1020 05:29:30.945207 11015 net.cpp:100] Creating Layer conv3
I1020 05:29:30.945210 11015 net.cpp:434] conv3 <- relu2
I1020 05:29:30.945214 11015 net.cpp:408] conv3 -> conv3
I1020 05:29:30.947677 11015 net.cpp:150] Setting up conv3
I1020 05:29:30.947685 11015 net.cpp:157] Top shape: 100 240 10 10 (2400000)
I1020 05:29:30.947688 11015 net.cpp:165] Memory required for data: 175802800
I1020 05:29:30.947693 11015 layer_factory.hpp:77] Creating layer relu3
I1020 05:29:30.947697 11015 net.cpp:100] Creating Layer relu3
I1020 05:29:30.947700 11015 net.cpp:434] relu3 <- conv3
I1020 05:29:30.947703 11015 net.cpp:408] relu3 -> relu3
I1020 05:29:30.947896 11015 net.cpp:150] Setting up relu3
I1020 05:29:30.947902 11015 net.cpp:157] Top shape: 100 240 10 10 (2400000)
I1020 05:29:30.947906 11015 net.cpp:165] Memory required for data: 185402800
I1020 05:29:30.947906 11015 layer_factory.hpp:77] Creating layer drop2
I1020 05:29:30.947911 11015 net.cpp:100] Creating Layer drop2
I1020 05:29:30.947912 11015 net.cpp:434] drop2 <- relu3
I1020 05:29:30.947916 11015 net.cpp:408] drop2 -> drop2
I1020 05:29:30.947939 11015 net.cpp:150] Setting up drop2
I1020 05:29:30.947944 11015 net.cpp:157] Top shape: 100 240 10 10 (2400000)
I1020 05:29:30.947947 11015 net.cpp:165] Memory required for data: 195002800
I1020 05:29:30.947949 11015 layer_factory.hpp:77] Creating layer pool2
I1020 05:29:30.947952 11015 net.cpp:100] Creating Layer pool2
I1020 05:29:30.947953 11015 net.cpp:434] pool2 <- drop2
I1020 05:29:30.947957 11015 net.cpp:408] pool2 -> pool2
I1020 05:29:30.947980 11015 net.cpp:150] Setting up pool2
I1020 05:29:30.947984 11015 net.cpp:157] Top shape: 100 240 5 5 (600000)
I1020 05:29:30.947985 11015 net.cpp:165] Memory required for data: 197402800
I1020 05:29:30.947988 11015 layer_factory.hpp:77] Creating layer conv4
I1020 05:29:30.947993 11015 net.cpp:100] Creating Layer conv4
I1020 05:29:30.947994 11015 net.cpp:434] conv4 <- pool2
I1020 05:29:30.947999 11015 net.cpp:408] conv4 -> conv4
I1020 05:29:30.948858 11015 net.cpp:150] Setting up conv4
I1020 05:29:30.948869 11015 net.cpp:157] Top shape: 100 240 5 5 (600000)
I1020 05:29:30.948882 11015 net.cpp:165] Memory required for data: 199802800
I1020 05:29:30.948889 11015 layer_factory.hpp:77] Creating layer relu4
I1020 05:29:30.948894 11015 net.cpp:100] Creating Layer relu4
I1020 05:29:30.948896 11015 net.cpp:434] relu4 <- conv4
I1020 05:29:30.948901 11015 net.cpp:408] relu4 -> relu4
I1020 05:29:30.949041 11015 net.cpp:150] Setting up relu4
I1020 05:29:30.949048 11015 net.cpp:157] Top shape: 100 240 5 5 (600000)
I1020 05:29:30.949049 11015 net.cpp:165] Memory required for data: 202202800
I1020 05:29:30.949051 11015 layer_factory.hpp:77] Creating layer conv5
I1020 05:29:30.949056 11015 net.cpp:100] Creating Layer conv5
I1020 05:29:30.949059 11015 net.cpp:434] conv5 <- relu4
I1020 05:29:30.949062 11015 net.cpp:408] conv5 -> conv5
I1020 05:29:30.951062 11015 net.cpp:150] Setting up conv5
I1020 05:29:30.951076 11015 net.cpp:157] Top shape: 100 260 4 4 (416000)
I1020 05:29:30.951078 11015 net.cpp:165] Memory required for data: 203866800
I1020 05:29:30.951084 11015 layer_factory.hpp:77] Creating layer relu5
I1020 05:29:30.951089 11015 net.cpp:100] Creating Layer relu5
I1020 05:29:30.951092 11015 net.cpp:434] relu5 <- conv5
I1020 05:29:30.951097 11015 net.cpp:408] relu5 -> relu5
I1020 05:29:30.951216 11015 net.cpp:150] Setting up relu5
I1020 05:29:30.951222 11015 net.cpp:157] Top shape: 100 260 4 4 (416000)
I1020 05:29:30.951223 11015 net.cpp:165] Memory required for data: 205530800
I1020 05:29:30.951226 11015 layer_factory.hpp:77] Creating layer drop3
I1020 05:29:30.951232 11015 net.cpp:100] Creating Layer drop3
I1020 05:29:30.951236 11015 net.cpp:434] drop3 <- relu5
I1020 05:29:30.951238 11015 net.cpp:408] drop3 -> drop3
I1020 05:29:30.951264 11015 net.cpp:150] Setting up drop3
I1020 05:29:30.951267 11015 net.cpp:157] Top shape: 100 260 4 4 (416000)
I1020 05:29:30.951268 11015 net.cpp:165] Memory required for data: 207194800
I1020 05:29:30.951270 11015 layer_factory.hpp:77] Creating layer pool3
I1020 05:29:30.951274 11015 net.cpp:100] Creating Layer pool3
I1020 05:29:30.951277 11015 net.cpp:434] pool3 <- drop3
I1020 05:29:30.951279 11015 net.cpp:408] pool3 -> pool3
I1020 05:29:30.951303 11015 net.cpp:150] Setting up pool3
I1020 05:29:30.951308 11015 net.cpp:157] Top shape: 100 260 2 2 (104000)
I1020 05:29:30.951308 11015 net.cpp:165] Memory required for data: 207610800
I1020 05:29:30.951310 11015 layer_factory.hpp:77] Creating layer conv6
I1020 05:29:30.951315 11015 net.cpp:100] Creating Layer conv6
I1020 05:29:30.951318 11015 net.cpp:434] conv6 <- pool3
I1020 05:29:30.951320 11015 net.cpp:408] conv6 -> conv6
I1020 05:29:30.952548 11015 net.cpp:150] Setting up conv6
I1020 05:29:30.952558 11015 net.cpp:157] Top shape: 100 260 2 2 (104000)
I1020 05:29:30.952561 11015 net.cpp:165] Memory required for data: 208026800
I1020 05:29:30.952565 11015 layer_factory.hpp:77] Creating layer relu6
I1020 05:29:30.952569 11015 net.cpp:100] Creating Layer relu6
I1020 05:29:30.952570 11015 net.cpp:434] relu6 <- conv6
I1020 05:29:30.952575 11015 net.cpp:408] relu6 -> relu6
I1020 05:29:30.952775 11015 net.cpp:150] Setting up relu6
I1020 05:29:30.952781 11015 net.cpp:157] Top shape: 100 260 2 2 (104000)
I1020 05:29:30.952783 11015 net.cpp:165] Memory required for data: 208442800
I1020 05:29:30.952786 11015 layer_factory.hpp:77] Creating layer conv7
I1020 05:29:30.952791 11015 net.cpp:100] Creating Layer conv7
I1020 05:29:30.952793 11015 net.cpp:434] conv7 <- relu6
I1020 05:29:30.952797 11015 net.cpp:408] conv7 -> conv7
I1020 05:29:30.954783 11015 net.cpp:150] Setting up conv7
I1020 05:29:30.954794 11015 net.cpp:157] Top shape: 100 280 1 1 (28000)
I1020 05:29:30.954797 11015 net.cpp:165] Memory required for data: 208554800
I1020 05:29:30.954799 11015 layer_factory.hpp:77] Creating layer relu7
I1020 05:29:30.954804 11015 net.cpp:100] Creating Layer relu7
I1020 05:29:30.954807 11015 net.cpp:434] relu7 <- conv7
I1020 05:29:30.954809 11015 net.cpp:408] relu7 -> relu7
I1020 05:29:30.954926 11015 net.cpp:150] Setting up relu7
I1020 05:29:30.954932 11015 net.cpp:157] Top shape: 100 280 1 1 (28000)
I1020 05:29:30.954943 11015 net.cpp:165] Memory required for data: 208666800
I1020 05:29:30.954946 11015 layer_factory.hpp:77] Creating layer drop4
I1020 05:29:30.954949 11015 net.cpp:100] Creating Layer drop4
I1020 05:29:30.954952 11015 net.cpp:434] drop4 <- relu7
I1020 05:29:30.954954 11015 net.cpp:408] drop4 -> drop4
I1020 05:29:30.954980 11015 net.cpp:150] Setting up drop4
I1020 05:29:30.954984 11015 net.cpp:157] Top shape: 100 280 1 1 (28000)
I1020 05:29:30.954987 11015 net.cpp:165] Memory required for data: 208778800
I1020 05:29:30.954988 11015 layer_factory.hpp:77] Creating layer pool4
I1020 05:29:30.954991 11015 net.cpp:100] Creating Layer pool4
I1020 05:29:30.954994 11015 net.cpp:434] pool4 <- drop4
I1020 05:29:30.954998 11015 net.cpp:408] pool4 -> pool4
I1020 05:29:30.955023 11015 net.cpp:150] Setting up pool4
I1020 05:29:30.955026 11015 net.cpp:157] Top shape: 100 280 1 1 (28000)
I1020 05:29:30.955027 11015 net.cpp:165] Memory required for data: 208890800
I1020 05:29:30.955030 11015 layer_factory.hpp:77] Creating layer conv8
I1020 05:29:30.955034 11015 net.cpp:100] Creating Layer conv8
I1020 05:29:30.955036 11015 net.cpp:434] conv8 <- pool4
I1020 05:29:30.955039 11015 net.cpp:408] conv8 -> conv8
I1020 05:29:30.955976 11015 net.cpp:150] Setting up conv8
I1020 05:29:30.955983 11015 net.cpp:157] Top shape: 100 280 1 1 (28000)
I1020 05:29:30.955986 11015 net.cpp:165] Memory required for data: 209002800
I1020 05:29:30.955988 11015 layer_factory.hpp:77] Creating layer relu8
I1020 05:29:30.955992 11015 net.cpp:100] Creating Layer relu8
I1020 05:29:30.955994 11015 net.cpp:434] relu8 <- conv8
I1020 05:29:30.955998 11015 net.cpp:408] relu8 -> relu8
I1020 05:29:30.956115 11015 net.cpp:150] Setting up relu8
I1020 05:29:30.956120 11015 net.cpp:157] Top shape: 100 280 1 1 (28000)
I1020 05:29:30.956121 11015 net.cpp:165] Memory required for data: 209114800
I1020 05:29:30.956122 11015 layer_factory.hpp:77] Creating layer drop5
I1020 05:29:30.956126 11015 net.cpp:100] Creating Layer drop5
I1020 05:29:30.956128 11015 net.cpp:434] drop5 <- relu8
I1020 05:29:30.956131 11015 net.cpp:408] drop5 -> drop5
I1020 05:29:30.956157 11015 net.cpp:150] Setting up drop5
I1020 05:29:30.956161 11015 net.cpp:157] Top shape: 100 280 1 1 (28000)
I1020 05:29:30.956162 11015 net.cpp:165] Memory required for data: 209226800
I1020 05:29:30.956163 11015 layer_factory.hpp:77] Creating layer pool5
I1020 05:29:30.956166 11015 net.cpp:100] Creating Layer pool5
I1020 05:29:30.956168 11015 net.cpp:434] pool5 <- drop5
I1020 05:29:30.956172 11015 net.cpp:408] pool5 -> pool5
I1020 05:29:30.956197 11015 net.cpp:150] Setting up pool5
I1020 05:29:30.956202 11015 net.cpp:157] Top shape: 100 280 1 1 (28000)
I1020 05:29:30.956202 11015 net.cpp:165] Memory required for data: 209338800
I1020 05:29:30.956204 11015 layer_factory.hpp:77] Creating layer conv10
I1020 05:29:30.956209 11015 net.cpp:100] Creating Layer conv10
I1020 05:29:30.956210 11015 net.cpp:434] conv10 <- pool5
I1020 05:29:30.956214 11015 net.cpp:408] conv10 -> conv10
I1020 05:29:30.957183 11015 net.cpp:150] Setting up conv10
I1020 05:29:30.957190 11015 net.cpp:157] Top shape: 100 300 1 1 (30000)
I1020 05:29:30.957192 11015 net.cpp:165] Memory required for data: 209458800
I1020 05:29:30.957200 11015 layer_factory.hpp:77] Creating layer relu10
I1020 05:29:30.957204 11015 net.cpp:100] Creating Layer relu10
I1020 05:29:30.957206 11015 net.cpp:434] relu10 <- conv10
I1020 05:29:30.957209 11015 net.cpp:408] relu10 -> relu10
I1020 05:29:30.957404 11015 net.cpp:150] Setting up relu10
I1020 05:29:30.957412 11015 net.cpp:157] Top shape: 100 300 1 1 (30000)
I1020 05:29:30.957413 11015 net.cpp:165] Memory required for data: 209578800
I1020 05:29:30.957415 11015 layer_factory.hpp:77] Creating layer drop6
I1020 05:29:30.957418 11015 net.cpp:100] Creating Layer drop6
I1020 05:29:30.957422 11015 net.cpp:434] drop6 <- relu10
I1020 05:29:30.957424 11015 net.cpp:408] drop6 -> drop6
I1020 05:29:30.957453 11015 net.cpp:150] Setting up drop6
I1020 05:29:30.957458 11015 net.cpp:157] Top shape: 100 300 1 1 (30000)
I1020 05:29:30.957468 11015 net.cpp:165] Memory required for data: 209698800
I1020 05:29:30.957468 11015 layer_factory.hpp:77] Creating layer pool6
I1020 05:29:30.957471 11015 net.cpp:100] Creating Layer pool6
I1020 05:29:30.957473 11015 net.cpp:434] pool6 <- drop6
I1020 05:29:30.957476 11015 net.cpp:408] pool6 -> pool6
I1020 05:29:30.957501 11015 net.cpp:150] Setting up pool6
I1020 05:29:30.957505 11015 net.cpp:157] Top shape: 100 300 1 1 (30000)
I1020 05:29:30.957506 11015 net.cpp:165] Memory required for data: 209818800
I1020 05:29:30.957509 11015 layer_factory.hpp:77] Creating layer conv11
I1020 05:29:30.957517 11015 net.cpp:100] Creating Layer conv11
I1020 05:29:30.957520 11015 net.cpp:434] conv11 <- pool6
I1020 05:29:30.957522 11015 net.cpp:408] conv11 -> conv11
I1020 05:29:30.958287 11015 net.cpp:150] Setting up conv11
I1020 05:29:30.958293 11015 net.cpp:157] Top shape: 100 100 1 1 (10000)
I1020 05:29:30.958295 11015 net.cpp:165] Memory required for data: 209858800
I1020 05:29:30.958298 11015 layer_factory.hpp:77] Creating layer relu11
I1020 05:29:30.958302 11015 net.cpp:100] Creating Layer relu11
I1020 05:29:30.958304 11015 net.cpp:434] relu11 <- conv11
I1020 05:29:30.958307 11015 net.cpp:408] relu11 -> relu11
I1020 05:29:30.958425 11015 net.cpp:150] Setting up relu11
I1020 05:29:30.958431 11015 net.cpp:157] Top shape: 100 100 1 1 (10000)
I1020 05:29:30.958433 11015 net.cpp:165] Memory required for data: 209898800
I1020 05:29:30.958436 11015 layer_factory.hpp:77] Creating layer drop7
I1020 05:29:30.958438 11015 net.cpp:100] Creating Layer drop7
I1020 05:29:30.958441 11015 net.cpp:434] drop7 <- relu11
I1020 05:29:30.958443 11015 net.cpp:408] drop7 -> drop7
I1020 05:29:30.958469 11015 net.cpp:150] Setting up drop7
I1020 05:29:30.958473 11015 net.cpp:157] Top shape: 100 100 1 1 (10000)
I1020 05:29:30.958475 11015 net.cpp:165] Memory required for data: 209938800
I1020 05:29:30.958477 11015 layer_factory.hpp:77] Creating layer pool7
I1020 05:29:30.958479 11015 net.cpp:100] Creating Layer pool7
I1020 05:29:30.958482 11015 net.cpp:434] pool7 <- drop7
I1020 05:29:30.958484 11015 net.cpp:408] pool7 -> pool7
I1020 05:29:30.958508 11015 net.cpp:150] Setting up pool7
I1020 05:29:30.958510 11015 net.cpp:157] Top shape: 100 100 1 1 (10000)
I1020 05:29:30.958513 11015 net.cpp:165] Memory required for data: 209978800
I1020 05:29:30.958514 11015 layer_factory.hpp:77] Creating layer score
I1020 05:29:30.958518 11015 net.cpp:100] Creating Layer score
I1020 05:29:30.958520 11015 net.cpp:434] score <- pool7
I1020 05:29:30.958523 11015 net.cpp:408] score -> score
I1020 05:29:30.958607 11015 net.cpp:150] Setting up score
I1020 05:29:30.958611 11015 net.cpp:157] Top shape: 100 10 (1000)
I1020 05:29:30.958612 11015 net.cpp:165] Memory required for data: 209982800
I1020 05:29:30.958616 11015 layer_factory.hpp:77] Creating layer score_score_0_split
I1020 05:29:30.958619 11015 net.cpp:100] Creating Layer score_score_0_split
I1020 05:29:30.958621 11015 net.cpp:434] score_score_0_split <- score
I1020 05:29:30.958623 11015 net.cpp:408] score_score_0_split -> score_score_0_split_0
I1020 05:29:30.958627 11015 net.cpp:408] score_score_0_split -> score_score_0_split_1
I1020 05:29:30.958650 11015 net.cpp:150] Setting up score_score_0_split
I1020 05:29:30.958654 11015 net.cpp:157] Top shape: 100 10 (1000)
I1020 05:29:30.958657 11015 net.cpp:157] Top shape: 100 10 (1000)
I1020 05:29:30.958658 11015 net.cpp:165] Memory required for data: 209990800
I1020 05:29:30.958660 11015 layer_factory.hpp:77] Creating layer accuracy
I1020 05:29:30.958665 11015 net.cpp:100] Creating Layer accuracy
I1020 05:29:30.958668 11015 net.cpp:434] accuracy <- score_score_0_split_0
I1020 05:29:30.958670 11015 net.cpp:434] accuracy <- label_data_1_split_0
I1020 05:29:30.958673 11015 net.cpp:408] accuracy -> accuracy
…
