…
  stage: ""
}
type: "Adam"
I1020 05:39:09.353647 11071 solver.cpp:81] Creating training net from train_net file: /home/adam/Honours/Honours-Project/mnist_pooling/max/leakyrelu/poolcnn_leakyrelu_train.prototxt
I1020 05:39:09.353941 11071 net.cpp:58] Initializing net from parameters: 
state {
  phase: TRAIN
  level: 0
  stage: ""
}
layer {
  name: "data"
  type: "Data"
  top: "data"
  top: "label"
  transform_param {
    scale: 0.0039215689
  }
  data_param {
    source: "../../../../data/mnist/mnist_train_lmdb"
    batch_size: 64
    backend: LMDB
  }
}
layer {
  name: "conv1"
  type: "Convolution"
  bottom: "data"
  top: "conv1"
  convolution_param {
    num_output: 192
    kernel_size: 5
    weight_filler {
      type: "xavier"
    }
  }
}
layer {
  name: "relu1"
  type: "ReLU"
  bottom: "conv1"
  top: "relu1"
  relu_param {
    negative_slope: 0.1
  }
}
layer {
  name: "drop1"
  type: "Dropout"
  bottom: "relu1"
  top: "drop1"
  dropout_param {
    dropout_ratio: 0
  }
}
layer {
  name: "pool1"
  type: "Pooling"
  bottom: "drop1"
  top: "pool1"
  pooling_param {
    pool: MAX
    kernel_size: 2
    stride: 2
  }
}
layer {
  name: "conv2"
  type: "Convolution"
  bottom: "pool1"
  top: "conv2"
  convolution_param {
    num_output: 192
    kernel_size: 1
    weight_filler {
      type: "xavier"
    }
  }
}
layer {
  name: "relu2"
  type: "ReLU"
  bottom: "conv2"
  top: "relu2"
  relu_param {
    negative_slope: 0.1
  }
}
layer {
  name: "conv3"
  type: "Convolution"
  bottom: "relu2"
  top: "conv3"
  convolution_param {
    num_output: 240
    kernel_size: 3
    weight_filler {
      type: "xavier"
    }
  }
}
layer {
  name: "relu3"
  type: "ReLU"
  bottom: "conv3"
  top: "relu3"
  relu_param {
    negative_slope: 0.1
  }
}
layer {
  name: "drop2"
  type: "Dropout"
  bottom: "relu3"
  top: "drop2"
  dropout_param {
    dropout_ratio: 0.1
  }
}
layer {
  name: "pool2"
  type: "Pooling"
  bottom: "drop2"
  top: "pool2"
  pooling_param {
    pool: MAX
    kernel_size: 2
    stride: 2
  }
}
layer {
  name: "conv4"
  type: "Convolution"
  bottom: "pool2"
  top: "conv4"
  convolution_param {
    num_output: 240
    kernel_size: 1
    weight_filler {
      type: "xavier"
    }
  }
}
layer {
  name: "relu4"
  type: "ReLU"
  bottom: "conv4"
  top: "relu4"
  relu_param {
    negative_slope: 0.1
  }
}
layer {
  name: "conv5"
  type: "Convolution"
  bottom: "relu4"
  top: "conv5"
  convolution_param {
    num_output: 260
    kernel_size: 2
    weight_filler {
      type: "xavier"
    }
  }
}
layer {
  name: "relu5"
  type: "ReLU"
  bottom: "conv5"
  top: "relu5"
  relu_param {
    negative_slope: 0.1
  }
}
layer {
  name: "drop3"
  type: "Dropout"
  bottom: "relu5"
  top: "drop3"
  dropout_param {
    dropout_ratio: 0.2
  }
}
layer {
  name: "pool3"
  type: "Pooling"
  bottom: "drop3"
  top: "pool3"
  pooling_param {
    pool: MAX
    kernel_size: 2
    stride: 2
  }
}
layer {
  name: "conv6"
  type: "Convolution"
  bottom: "pool3"
  top: "conv6"
  convolution_param {
    num_output: 260
    kernel_size: 1
    weight_filler {
      type: "xavier"
    }
  }
}
layer {
  name: "relu6"
  type: "ReLU"
  bottom: "conv6"
  top: "relu6"
  relu_param {
    negative_slope: 0.1
  }
}
layer {
  name: "conv7"
  type: "Convolution"
  bottom: "relu6"
  top: "conv7"
  convolution_param {
    num_output: 280
    kernel_size: 2
    weight_filler {
      type: "xavier"
    }
  }
}
layer {
  name: "relu7"
  type: "ReLU"
  bottom: "conv7"
  top: "relu7"
  relu_param {
    negative_slope: 0.1
  }
}
layer {
  name: "drop4"
  type: "Dropout"
  bottom: "relu7"
  top: "drop4"
  dropout_param {
    dropout_ratio: 0.3
  }
}
layer {
  name: "pool4"
  type: "Pooling"
  bottom: "drop4"
  top: "pool4"
  pooling_param {
    pool: MAX
    kernel_size: 2
    stride: 2
  }
}
layer {
  name: "conv8"
  type: "Convolution"
  bottom: "pool4"
  top: "conv8"
  convolution_param {
    num_output: 280
    kernel_size: 1
    weight_filler {
      type: "xavier"
    }
  }
}
layer {
  name: "relu8"
  type: "ReLU"
  bottom: "conv8"
  top: "relu8"
  relu_param {
    negative_slope: 0.1
  }
}
layer {
  name: "drop5"
  type: "Dropout"
  bottom: "relu8"
  top: "drop5"
  dropout_param {
    dropout_ratio: 0.4
  }
}
layer {
  name: "pool5"
  type: "Pooling"
  bottom: "drop5"
  top: "pool5"
  pooling_param {
    pool: MAX
    kernel_size: 2
    stride: 2
  }
}
layer {
  name: "conv10"
  type: "Convolution"
  bottom: "pool5"
  top: "conv10"
  convolution_param {
    num_output: 300
    kernel_size: 1
    weight_filler {
      type: "xavier"
    }
  }
}
layer {
  name: "relu10"
  type: "ReLU"
  bottom: "conv10"
  top: "relu10"
  relu_param {
    negative_slope: 0.1
  }
}
layer {
  name: "drop6"
  type: "Dropout"
  bottom: "relu10"
  top: "drop6"
  dropout_param {
    dropout_ratio: 0.5
  }
}
layer {
  name: "pool6"
  type: "Pooling"
  bottom: "drop6"
  top: "pool6"
  pooling_param {
    pool: MAX
    kernel_size: 2
    stride: 2
  }
}
layer {
  name: "conv11"
  type: "Convolution"
  bottom: "pool6"
  top: "conv11"
  convolution_param {
    num_output: 100
    kernel_size: 1
    weight_filler {
      type: "xavier"
    }
  }
}
layer {
  name: "relu11"
  type: "ReLU"
  bottom: "conv11"
  top: "relu11"
  relu_param {
    negative_slope: 0.1
  }
}
layer {
  name: "drop7"
  type: "Dropout"
  bottom: "relu11"
  top: "drop7"
  dropout_param {
    dropout_ratio: 0
  }
}
layer {
  name: "pool7"
  type: "Pooling"
  bottom: "drop7"
  top: "pool7"
  pooling_param {
    pool: MAX
    kernel_size: 2
    stride: 2
  }
}
layer {
  name: "score"
  type: "InnerProduct"
  bottom: "pool7"
  top: "score"
  inner_product_param {
    num_output: 10
    weight_filler {
      type: "gaussian"
    }
  }
}
layer {
  name: "accuracy"
  type: "Accuracy"
  bottom: "score"
  bottom: "label"
  top: "accuracy"
}
layer {
  name: "loss"
  type: "SoftmaxWithLoss"
  bottom: "score"
  bottom: "label"
  top: "loss"
}
I1020 05:39:09.354046 11071 layer_factory.hpp:77] Creating layer data
I1020 05:39:09.354426 11071 net.cpp:100] Creating Layer data
I1020 05:39:09.354434 11071 net.cpp:408] data -> data
I1020 05:39:09.354449 11071 net.cpp:408] data -> label
I1020 05:39:09.355031 11076 db_lmdb.cpp:35] Opened lmdb ../../../../data/mnist/mnist_train_lmdb
I1020 05:39:09.360633 11071 data_layer.cpp:41] output data size: 64,1,28,28
I1020 05:39:09.361202 11071 net.cpp:150] Setting up data
I1020 05:39:09.361214 11071 net.cpp:157] Top shape: 64 1 28 28 (50176)
I1020 05:39:09.361217 11071 net.cpp:157] Top shape: 64 (64)
I1020 05:39:09.361219 11071 net.cpp:165] Memory required for data: 200960
I1020 05:39:09.361227 11071 layer_factory.hpp:77] Creating layer label_data_1_split
I1020 05:39:09.361243 11071 net.cpp:100] Creating Layer label_data_1_split
I1020 05:39:09.361248 11071 net.cpp:434] label_data_1_split <- label
I1020 05:39:09.361258 11071 net.cpp:408] label_data_1_split -> label_data_1_split_0
I1020 05:39:09.361266 11071 net.cpp:408] label_data_1_split -> label_data_1_split_1
I1020 05:39:09.361354 11071 net.cpp:150] Setting up label_data_1_split
I1020 05:39:09.361364 11071 net.cpp:157] Top shape: 64 (64)
I1020 05:39:09.361367 11071 net.cpp:157] Top shape: 64 (64)
I1020 05:39:09.361368 11071 net.cpp:165] Memory required for data: 201472
I1020 05:39:09.361371 11071 layer_factory.hpp:77] Creating layer conv1
I1020 05:39:09.361384 11071 net.cpp:100] Creating Layer conv1
I1020 05:39:09.361387 11071 net.cpp:434] conv1 <- data
I1020 05:39:09.361392 11071 net.cpp:408] conv1 -> conv1
I1020 05:39:09.483425 11071 net.cpp:150] Setting up conv1
I1020 05:39:09.483458 11071 net.cpp:157] Top shape: 64 192 24 24 (7077888)
I1020 05:39:09.483510 11071 net.cpp:165] Memory required for data: 28513024
I1020 05:39:09.483536 11071 layer_factory.hpp:77] Creating layer relu1
I1020 05:39:09.483543 11071 net.cpp:100] Creating Layer relu1
I1020 05:39:09.483547 11071 net.cpp:434] relu1 <- conv1
I1020 05:39:09.483552 11071 net.cpp:408] relu1 -> relu1
I1020 05:39:09.483695 11071 net.cpp:150] Setting up relu1
I1020 05:39:09.483701 11071 net.cpp:157] Top shape: 64 192 24 24 (7077888)
I1020 05:39:09.483705 11071 net.cpp:165] Memory required for data: 56824576
I1020 05:39:09.483706 11071 layer_factory.hpp:77] Creating layer drop1
I1020 05:39:09.483711 11071 net.cpp:100] Creating Layer drop1
I1020 05:39:09.483713 11071 net.cpp:434] drop1 <- relu1
I1020 05:39:09.483717 11071 net.cpp:408] drop1 -> drop1
I1020 05:39:09.483742 11071 net.cpp:150] Setting up drop1
I1020 05:39:09.483747 11071 net.cpp:157] Top shape: 64 192 24 24 (7077888)
I1020 05:39:09.483747 11071 net.cpp:165] Memory required for data: 85136128
I1020 05:39:09.483749 11071 layer_factory.hpp:77] Creating layer pool1
I1020 05:39:09.483753 11071 net.cpp:100] Creating Layer pool1
I1020 05:39:09.483755 11071 net.cpp:434] pool1 <- drop1
I1020 05:39:09.483758 11071 net.cpp:408] pool1 -> pool1
I1020 05:39:09.483788 11071 net.cpp:150] Setting up pool1
I1020 05:39:09.483790 11071 net.cpp:157] Top shape: 64 192 12 12 (1769472)
I1020 05:39:09.483793 11071 net.cpp:165] Memory required for data: 92214016
I1020 05:39:09.483793 11071 layer_factory.hpp:77] Creating layer conv2
I1020 05:39:09.483799 11071 net.cpp:100] Creating Layer conv2
I1020 05:39:09.483803 11071 net.cpp:434] conv2 <- pool1
I1020 05:39:09.483805 11071 net.cpp:408] conv2 -> conv2
I1020 05:39:09.484695 11071 net.cpp:150] Setting up conv2
I1020 05:39:09.484704 11071 net.cpp:157] Top shape: 64 192 12 12 (1769472)
I1020 05:39:09.484706 11071 net.cpp:165] Memory required for data: 99291904
I1020 05:39:09.484712 11071 layer_factory.hpp:77] Creating layer relu2
I1020 05:39:09.484716 11071 net.cpp:100] Creating Layer relu2
I1020 05:39:09.484719 11071 net.cpp:434] relu2 <- conv2
I1020 05:39:09.484724 11071 net.cpp:408] relu2 -> relu2
I1020 05:39:09.484844 11071 net.cpp:150] Setting up relu2
I1020 05:39:09.484849 11071 net.cpp:157] Top shape: 64 192 12 12 (1769472)
I1020 05:39:09.484851 11071 net.cpp:165] Memory required for data: 106369792
I1020 05:39:09.484853 11071 layer_factory.hpp:77] Creating layer conv3
I1020 05:39:09.484860 11071 net.cpp:100] Creating Layer conv3
I1020 05:39:09.484863 11071 net.cpp:434] conv3 <- relu2
I1020 05:39:09.484865 11071 net.cpp:408] conv3 -> conv3
I1020 05:39:09.487304 11071 net.cpp:150] Setting up conv3
I1020 05:39:09.487313 11071 net.cpp:157] Top shape: 64 240 10 10 (1536000)
I1020 05:39:09.487315 11071 net.cpp:165] Memory required for data: 112513792
I1020 05:39:09.487321 11071 layer_factory.hpp:77] Creating layer relu3
I1020 05:39:09.487325 11071 net.cpp:100] Creating Layer relu3
I1020 05:39:09.487327 11071 net.cpp:434] relu3 <- conv3
I1020 05:39:09.487330 11071 net.cpp:408] relu3 -> relu3
I1020 05:39:09.487517 11071 net.cpp:150] Setting up relu3
I1020 05:39:09.487524 11071 net.cpp:157] Top shape: 64 240 10 10 (1536000)
I1020 05:39:09.487525 11071 net.cpp:165] Memory required for data: 118657792
I1020 05:39:09.487527 11071 layer_factory.hpp:77] Creating layer drop2
I1020 05:39:09.487531 11071 net.cpp:100] Creating Layer drop2
I1020 05:39:09.487534 11071 net.cpp:434] drop2 <- relu3
I1020 05:39:09.487536 11071 net.cpp:408] drop2 -> drop2
I1020 05:39:09.487557 11071 net.cpp:150] Setting up drop2
I1020 05:39:09.487563 11071 net.cpp:157] Top shape: 64 240 10 10 (1536000)
I1020 05:39:09.487565 11071 net.cpp:165] Memory required for data: 124801792
I1020 05:39:09.487566 11071 layer_factory.hpp:77] Creating layer pool2
I1020 05:39:09.487571 11071 net.cpp:100] Creating Layer pool2
I1020 05:39:09.487573 11071 net.cpp:434] pool2 <- drop2
I1020 05:39:09.487576 11071 net.cpp:408] pool2 -> pool2
I1020 05:39:09.487597 11071 net.cpp:150] Setting up pool2
I1020 05:39:09.487601 11071 net.cpp:157] Top shape: 64 240 5 5 (384000)
I1020 05:39:09.487612 11071 net.cpp:165] Memory required for data: 126337792
I1020 05:39:09.487613 11071 layer_factory.hpp:77] Creating layer conv4
I1020 05:39:09.487619 11071 net.cpp:100] Creating Layer conv4
I1020 05:39:09.487622 11071 net.cpp:434] conv4 <- pool2
I1020 05:39:09.487625 11071 net.cpp:408] conv4 -> conv4
I1020 05:39:09.488456 11071 net.cpp:150] Setting up conv4
I1020 05:39:09.488464 11071 net.cpp:157] Top shape: 64 240 5 5 (384000)
I1020 05:39:09.488466 11071 net.cpp:165] Memory required for data: 127873792
I1020 05:39:09.488471 11071 layer_factory.hpp:77] Creating layer relu4
I1020 05:39:09.488474 11071 net.cpp:100] Creating Layer relu4
I1020 05:39:09.488476 11071 net.cpp:434] relu4 <- conv4
I1020 05:39:09.488479 11071 net.cpp:408] relu4 -> relu4
I1020 05:39:09.488593 11071 net.cpp:150] Setting up relu4
I1020 05:39:09.488598 11071 net.cpp:157] Top shape: 64 240 5 5 (384000)
I1020 05:39:09.488600 11071 net.cpp:165] Memory required for data: 129409792
I1020 05:39:09.488602 11071 layer_factory.hpp:77] Creating layer conv5
I1020 05:39:09.488607 11071 net.cpp:100] Creating Layer conv5
I1020 05:39:09.488610 11071 net.cpp:434] conv5 <- relu4
I1020 05:39:09.488612 11071 net.cpp:408] conv5 -> conv5
I1020 05:39:09.490360 11071 net.cpp:150] Setting up conv5
I1020 05:39:09.490370 11071 net.cpp:157] Top shape: 64 260 4 4 (266240)
I1020 05:39:09.490372 11071 net.cpp:165] Memory required for data: 130474752
I1020 05:39:09.490378 11071 layer_factory.hpp:77] Creating layer relu5
I1020 05:39:09.490381 11071 net.cpp:100] Creating Layer relu5
I1020 05:39:09.490384 11071 net.cpp:434] relu5 <- conv5
I1020 05:39:09.490387 11071 net.cpp:408] relu5 -> relu5
I1020 05:39:09.490499 11071 net.cpp:150] Setting up relu5
I1020 05:39:09.490504 11071 net.cpp:157] Top shape: 64 260 4 4 (266240)
I1020 05:39:09.490507 11071 net.cpp:165] Memory required for data: 131539712
I1020 05:39:09.490509 11071 layer_factory.hpp:77] Creating layer drop3
I1020 05:39:09.490514 11071 net.cpp:100] Creating Layer drop3
I1020 05:39:09.490516 11071 net.cpp:434] drop3 <- relu5
I1020 05:39:09.490520 11071 net.cpp:408] drop3 -> drop3
I1020 05:39:09.490540 11071 net.cpp:150] Setting up drop3
I1020 05:39:09.490545 11071 net.cpp:157] Top shape: 64 260 4 4 (266240)
I1020 05:39:09.490546 11071 net.cpp:165] Memory required for data: 132604672
I1020 05:39:09.490548 11071 layer_factory.hpp:77] Creating layer pool3
I1020 05:39:09.490551 11071 net.cpp:100] Creating Layer pool3
I1020 05:39:09.490553 11071 net.cpp:434] pool3 <- drop3
I1020 05:39:09.490556 11071 net.cpp:408] pool3 -> pool3
I1020 05:39:09.490578 11071 net.cpp:150] Setting up pool3
I1020 05:39:09.490582 11071 net.cpp:157] Top shape: 64 260 2 2 (66560)
I1020 05:39:09.490584 11071 net.cpp:165] Memory required for data: 132870912
I1020 05:39:09.490586 11071 layer_factory.hpp:77] Creating layer conv6
I1020 05:39:09.490592 11071 net.cpp:100] Creating Layer conv6
I1020 05:39:09.490593 11071 net.cpp:434] conv6 <- pool3
I1020 05:39:09.490597 11071 net.cpp:408] conv6 -> conv6
I1020 05:39:09.491698 11071 net.cpp:150] Setting up conv6
I1020 05:39:09.491708 11071 net.cpp:157] Top shape: 64 260 2 2 (66560)
I1020 05:39:09.491710 11071 net.cpp:165] Memory required for data: 133137152
I1020 05:39:09.491714 11071 layer_factory.hpp:77] Creating layer relu6
I1020 05:39:09.491719 11071 net.cpp:100] Creating Layer relu6
I1020 05:39:09.491720 11071 net.cpp:434] relu6 <- conv6
I1020 05:39:09.491724 11071 net.cpp:408] relu6 -> relu6
I1020 05:39:09.491911 11071 net.cpp:150] Setting up relu6
I1020 05:39:09.491919 11071 net.cpp:157] Top shape: 64 260 2 2 (66560)
I1020 05:39:09.491921 11071 net.cpp:165] Memory required for data: 133403392
I1020 05:39:09.491924 11071 layer_factory.hpp:77] Creating layer conv7
I1020 05:39:09.491928 11071 net.cpp:100] Creating Layer conv7
I1020 05:39:09.491930 11071 net.cpp:434] conv7 <- relu6
I1020 05:39:09.491935 11071 net.cpp:408] conv7 -> conv7
I1020 05:39:09.493870 11071 net.cpp:150] Setting up conv7
I1020 05:39:09.493880 11071 net.cpp:157] Top shape: 64 280 1 1 (17920)
I1020 05:39:09.493891 11071 net.cpp:165] Memory required for data: 133475072
I1020 05:39:09.493896 11071 layer_factory.hpp:77] Creating layer relu7
I1020 05:39:09.493899 11071 net.cpp:100] Creating Layer relu7
I1020 05:39:09.493901 11071 net.cpp:434] relu7 <- conv7
I1020 05:39:09.493906 11071 net.cpp:408] relu7 -> relu7
I1020 05:39:09.494026 11071 net.cpp:150] Setting up relu7
I1020 05:39:09.494031 11071 net.cpp:157] Top shape: 64 280 1 1 (17920)
I1020 05:39:09.494035 11071 net.cpp:165] Memory required for data: 133546752
I1020 05:39:09.494036 11071 layer_factory.hpp:77] Creating layer drop4
I1020 05:39:09.494040 11071 net.cpp:100] Creating Layer drop4
I1020 05:39:09.494043 11071 net.cpp:434] drop4 <- relu7
I1020 05:39:09.494045 11071 net.cpp:408] drop4 -> drop4
I1020 05:39:09.494068 11071 net.cpp:150] Setting up drop4
I1020 05:39:09.494072 11071 net.cpp:157] Top shape: 64 280 1 1 (17920)
I1020 05:39:09.494074 11071 net.cpp:165] Memory required for data: 133618432
I1020 05:39:09.494076 11071 layer_factory.hpp:77] Creating layer pool4
I1020 05:39:09.494079 11071 net.cpp:100] Creating Layer pool4
I1020 05:39:09.494081 11071 net.cpp:434] pool4 <- drop4
I1020 05:39:09.494084 11071 net.cpp:408] pool4 -> pool4
I1020 05:39:09.494107 11071 net.cpp:150] Setting up pool4
I1020 05:39:09.494109 11071 net.cpp:157] Top shape: 64 280 1 1 (17920)
I1020 05:39:09.494112 11071 net.cpp:165] Memory required for data: 133690112
I1020 05:39:09.494114 11071 layer_factory.hpp:77] Creating layer conv8
I1020 05:39:09.494118 11071 net.cpp:100] Creating Layer conv8
I1020 05:39:09.494122 11071 net.cpp:434] conv8 <- pool4
I1020 05:39:09.494125 11071 net.cpp:408] conv8 -> conv8
I1020 05:39:09.495126 11071 net.cpp:150] Setting up conv8
I1020 05:39:09.495133 11071 net.cpp:157] Top shape: 64 280 1 1 (17920)
I1020 05:39:09.495136 11071 net.cpp:165] Memory required for data: 133761792
I1020 05:39:09.495141 11071 layer_factory.hpp:77] Creating layer relu8
I1020 05:39:09.495143 11071 net.cpp:100] Creating Layer relu8
I1020 05:39:09.495146 11071 net.cpp:434] relu8 <- conv8
I1020 05:39:09.495149 11071 net.cpp:408] relu8 -> relu8
I1020 05:39:09.495265 11071 net.cpp:150] Setting up relu8
I1020 05:39:09.495271 11071 net.cpp:157] Top shape: 64 280 1 1 (17920)
I1020 05:39:09.495272 11071 net.cpp:165] Memory required for data: 133833472
I1020 05:39:09.495275 11071 layer_factory.hpp:77] Creating layer drop5
I1020 05:39:09.495277 11071 net.cpp:100] Creating Layer drop5
I1020 05:39:09.495280 11071 net.cpp:434] drop5 <- relu8
I1020 05:39:09.495283 11071 net.cpp:408] drop5 -> drop5
I1020 05:39:09.495307 11071 net.cpp:150] Setting up drop5
I1020 05:39:09.495312 11071 net.cpp:157] Top shape: 64 280 1 1 (17920)
I1020 05:39:09.495313 11071 net.cpp:165] Memory required for data: 133905152
I1020 05:39:09.495316 11071 layer_factory.hpp:77] Creating layer pool5
I1020 05:39:09.495318 11071 net.cpp:100] Creating Layer pool5
I1020 05:39:09.495321 11071 net.cpp:434] pool5 <- drop5
I1020 05:39:09.495323 11071 net.cpp:408] pool5 -> pool5
I1020 05:39:09.495345 11071 net.cpp:150] Setting up pool5
I1020 05:39:09.495348 11071 net.cpp:157] Top shape: 64 280 1 1 (17920)
I1020 05:39:09.495350 11071 net.cpp:165] Memory required for data: 133976832
I1020 05:39:09.495352 11071 layer_factory.hpp:77] Creating layer conv10
I1020 05:39:09.495357 11071 net.cpp:100] Creating Layer conv10
I1020 05:39:09.495359 11071 net.cpp:434] conv10 <- pool5
I1020 05:39:09.495363 11071 net.cpp:408] conv10 -> conv10
I1020 05:39:09.496305 11071 net.cpp:150] Setting up conv10
I1020 05:39:09.496314 11071 net.cpp:157] Top shape: 64 300 1 1 (19200)
I1020 05:39:09.496315 11071 net.cpp:165] Memory required for data: 134053632
I1020 05:39:09.496323 11071 layer_factory.hpp:77] Creating layer relu10
I1020 05:39:09.496327 11071 net.cpp:100] Creating Layer relu10
I1020 05:39:09.496330 11071 net.cpp:434] relu10 <- conv10
I1020 05:39:09.496335 11071 net.cpp:408] relu10 -> relu10
I1020 05:39:09.496529 11071 net.cpp:150] Setting up relu10
I1020 05:39:09.496536 11071 net.cpp:157] Top shape: 64 300 1 1 (19200)
I1020 05:39:09.496538 11071 net.cpp:165] Memory required for data: 134130432
I1020 05:39:09.496548 11071 layer_factory.hpp:77] Creating layer drop6
I1020 05:39:09.496552 11071 net.cpp:100] Creating Layer drop6
I1020 05:39:09.496556 11071 net.cpp:434] drop6 <- relu10
I1020 05:39:09.496559 11071 net.cpp:408] drop6 -> drop6
I1020 05:39:09.496587 11071 net.cpp:150] Setting up drop6
I1020 05:39:09.496590 11071 net.cpp:157] Top shape: 64 300 1 1 (19200)
I1020 05:39:09.496593 11071 net.cpp:165] Memory required for data: 134207232
I1020 05:39:09.496595 11071 layer_factory.hpp:77] Creating layer pool6
I1020 05:39:09.496598 11071 net.cpp:100] Creating Layer pool6
I1020 05:39:09.496601 11071 net.cpp:434] pool6 <- drop6
I1020 05:39:09.496604 11071 net.cpp:408] pool6 -> pool6
I1020 05:39:09.496626 11071 net.cpp:150] Setting up pool6
I1020 05:39:09.496630 11071 net.cpp:157] Top shape: 64 300 1 1 (19200)
I1020 05:39:09.496632 11071 net.cpp:165] Memory required for data: 134284032
I1020 05:39:09.496634 11071 layer_factory.hpp:77] Creating layer conv11
I1020 05:39:09.496642 11071 net.cpp:100] Creating Layer conv11
I1020 05:39:09.496644 11071 net.cpp:434] conv11 <- pool6
I1020 05:39:09.496649 11071 net.cpp:408] conv11 -> conv11
I1020 05:39:09.497633 11071 net.cpp:150] Setting up conv11
I1020 05:39:09.497640 11071 net.cpp:157] Top shape: 64 100 1 1 (6400)
I1020 05:39:09.497642 11071 net.cpp:165] Memory required for data: 134309632
I1020 05:39:09.497648 11071 layer_factory.hpp:77] Creating layer relu11
I1020 05:39:09.497651 11071 net.cpp:100] Creating Layer relu11
I1020 05:39:09.497653 11071 net.cpp:434] relu11 <- conv11
I1020 05:39:09.497658 11071 net.cpp:408] relu11 -> relu11
I1020 05:39:09.497773 11071 net.cpp:150] Setting up relu11
I1020 05:39:09.497778 11071 net.cpp:157] Top shape: 64 100 1 1 (6400)
I1020 05:39:09.497781 11071 net.cpp:165] Memory required for data: 134335232
I1020 05:39:09.497782 11071 layer_factory.hpp:77] Creating layer drop7
I1020 05:39:09.497787 11071 net.cpp:100] Creating Layer drop7
I1020 05:39:09.497791 11071 net.cpp:434] drop7 <- relu11
I1020 05:39:09.497792 11071 net.cpp:408] drop7 -> drop7
I1020 05:39:09.497817 11071 net.cpp:150] Setting up drop7
I1020 05:39:09.497820 11071 net.cpp:157] Top shape: 64 100 1 1 (6400)
I1020 05:39:09.497822 11071 net.cpp:165] Memory required for data: 134360832
I1020 05:39:09.497824 11071 layer_factory.hpp:77] Creating layer pool7
I1020 05:39:09.497828 11071 net.cpp:100] Creating Layer pool7
I1020 05:39:09.497830 11071 net.cpp:434] pool7 <- drop7
I1020 05:39:09.497833 11071 net.cpp:408] pool7 -> pool7
I1020 05:39:09.497856 11071 net.cpp:150] Setting up pool7
I1020 05:39:09.497860 11071 net.cpp:157] Top shape: 64 100 1 1 (6400)
I1020 05:39:09.497862 11071 net.cpp:165] Memory required for data: 134386432
I1020 05:39:09.497864 11071 layer_factory.hpp:77] Creating layer score
I1020 05:39:09.497869 11071 net.cpp:100] Creating Layer score
I1020 05:39:09.497871 11071 net.cpp:434] score <- pool7
I1020 05:39:09.497875 11071 net.cpp:408] score -> score
I1020 05:39:09.497974 11071 net.cpp:150] Setting up score
I1020 05:39:09.497979 11071 net.cpp:157] Top shape: 64 10 (640)
I1020 05:39:09.497982 11071 net.cpp:165] Memory required for data: 134388992
I1020 05:39:09.497984 11071 layer_factory.hpp:77] Creating layer score_score_0_split
I1020 05:39:09.497989 11071 net.cpp:100] Creating Layer score_score_0_split
I1020 05:39:09.497992 11071 net.cpp:434] score_score_0_split <- score
I1020 05:39:09.497994 11071 net.cpp:408] score_score_0_split -> score_score_0_split_0
I1020 05:39:09.497998 11071 net.cpp:408] score_score_0_split -> score_score_0_split_1
I1020 05:39:09.498020 11071 net.cpp:150] Setting up score_score_0_split
I1020 05:39:09.498023 11071 net.cpp:157] Top shape: 64 10 (640)
I1020 05:39:09.498025 11071 net.cpp:157] Top shape: 64 10 (640)
I1020 05:39:09.498028 11071 net.cpp:165] Memory required for data: 134394112
I1020 05:39:09.498029 11071 layer_factory.hpp:77] Creating layer accuracy
I1020 05:39:09.498034 11071 net.cpp:100] Creating Layer accuracy
I1020 05:39:09.498035 11071 net.cpp:434] accuracy <- score_score_0_split_0
I1020 05:39:09.498045 11071 net.cpp:434] accuracy <- label_data_1_split_0
I1020 05:39:09.498049 11071 net.cpp:408] accuracy -> accuracy
…
I1020 05:39:09.498455 11071 net.cpp:283] Network initialization done.
I1020 05:39:09.498647 11071 solver.cpp:181] Creating test net (#0) specified by test_net file: /home/adam/Honours/Honours-Project/mnist_pooling/max/leakyrelu/poolcnn_leakyrelu_test.prototxt
I1020 05:39:09.498766 11071 net.cpp:58] Initializing net from parameters: 
state {
  phase: TEST
}
layer {
  name: "data"
  type: "Data"
  top: "data"
  top: "label"
  transform_param {
    scale: 0.0039215689
  }
  data_param {
    source: "../../../../data/mnist/mnist_test_lmdb"
    batch_size: 100
    backend: LMDB
  }
}
layer {
  name: "conv1"
  type: "Convolution"
  bottom: "data"
  top: "conv1"
  convolution_param {
    num_output: 192
    kernel_size: 5
    weight_filler {
      type: "xavier"
    }
  }
}
layer {
  name: "relu1"
  type: "ReLU"
  bottom: "conv1"
  top: "relu1"
  relu_param {
    negative_slope: 0.1
  }
}
layer {
  name: "drop1"
  type: "Dropout"
  bottom: "relu1"
  top: "drop1"
  dropout_param {
    dropout_ratio: 0
  }
}
layer {
  name: "pool1"
  type: "Pooling"
  bottom: "drop1"
  top: "pool1"
  pooling_param {
    pool: MAX
    kernel_size: 2
    stride: 2
  }
}
layer {
  name: "conv2"
  type: "Convolution"
  bottom: "pool1"
  top: "conv2"
  convolution_param {
    num_output: 192
    kernel_size: 1
    weight_filler {
      type: "xavier"
    }
  }
}
layer {
  name: "relu2"
  type: "ReLU"
  bottom: "conv2"
  top: "relu2"
  relu_param {
    negative_slope: 0.1
  }
}
layer {
  name: "conv3"
  type: "Convolution"
  bottom: "relu2"
  top: "conv3"
  convolution_param {
    num_output: 240
    kernel_size: 3
    weight_filler {
      type: "xavier"
    }
  }
}
layer {
  name: "relu3"
  type: "ReLU"
  bottom: "conv3"
  top: "relu3"
  relu_param {
    negative_slope: 0.1
  }
}
layer {
  name: "drop2"
  type: "Dropout"
  bottom: "relu3"
  top: "drop2"
  dropout_param {
    dropout_ratio: 0.1
  }
}
layer {
  name: "pool2"
  type: "Pooling"
  bottom: "drop2"
  top: "pool2"
  pooling_param {
    pool: MAX
    kernel_size: 2
    stride: 2
  }
}
layer {
  name: "conv4"
  type: "Convolution"
  bottom: "pool2"
  top: "conv4"
  convolution_param {
    num_output: 240
    kernel_size: 1
    weight_filler {
      type: "xavier"
    }
  }
}
layer {
  name: "relu4"
  type: "ReLU"
  bottom: "conv4"
  top: "relu4"
  relu_param {
    negative_slope: 0.1
  }
}
layer {
  name: "conv5"
  type: "Convolution"
  bottom: "relu4"
  top: "conv5"
  convolution_param {
    num_output: 260
    kernel_size: 2
    weight_filler {
      type: "xavier"
    }
  }
}
layer {
  name: "relu5"
  type: "ReLU"
  bottom: "conv5"
  top: "relu5"
  relu_param {
    negative_slope: 0.1
  }
}
layer {
  name: "drop3"
  type: "Dropout"
  bottom: "relu5"
  top: "drop3"
  dropout_param {
    dropout_ratio: 0.2
  }
}
layer {
  name: "pool3"
  type: "Pooling"
  bottom: "drop3"
  top: "pool3"
  pooling_param {
    pool: MAX
    kernel_size: 2
    stride: 2
  }
}
layer {
  name: "conv6"
  type: "Convolution"
  bottom: "pool3"
  top: "conv6"
  convolution_param {
    num_output: 260
    kernel_size: 1
    weight_filler {
      type: "xavier"
    }
  }
}
layer {
  name: "relu6"
  type: "ReLU"
  bottom: "conv6"
  top: "relu6"
  relu_param {
    negative_slope: 0.1
  }
}
layer {
  name: "conv7"
  type: "Convolution"
  bottom: "relu6"
  top: "conv7"
  convolution_param {
    num_output: 280
    kernel_size: 2
    weight_filler {
      type: "xavier"
    }
  }
}
layer {
  name: "relu7"
  type: "ReLU"
  bottom: "conv7"
  top: "relu7"
  relu_param {
    negative_slope: 0.1
  }
}
layer {
  name: "drop4"
  type: "Dropout"
  bottom: "relu7"
  top: "drop4"
  dropout_param {
    dropout_ratio: 0.3
  }
}
layer {
  name: "pool4"
  type: "Pooling"
  bottom: "drop4"
  top: "pool4"
  pooling_param {
    pool: MAX
    kernel_size: 2
    stride: 2
  }
}
layer {
  name: "conv8"
  type: "Convolution"
  bottom: "pool4"
  top: "conv8"
  convolution_param {
    num_output: 280
    kernel_size: 1
    weight_filler {
      type: "xavier"
    }
  }
}
layer {
  name: "relu8"
  type: "ReLU"
  bottom: "conv8"
  top: "relu8"
  relu_param {
    negative_slope: 0.1
  }
}
layer {
  name: "drop5"
  type: "Dropout"
  bottom: "relu8"
  top: "drop5"
  dropout_param {
    dropout_ratio: 0.4
  }
}
layer {
  name: "pool5"
  type: "Pooling"
  bottom: "drop5"
  top: "pool5"
  pooling_param {
    pool: MAX
    kernel_size: 2
    stride: 2
  }
}
layer {
  name: "conv10"
  type: "Convolution"
  bottom: "pool5"
  top: "conv10"
  convolution_param {
    num_output: 300
    kernel_size: 1
    weight_filler {
      type: "xavier"
    }
  }
}
layer {
  name: "relu10"
  type: "ReLU"
  bottom: "conv10"
  top: "relu10"
  relu_param {
    negative_slope: 0.1
  }
}
layer {
  name: "drop6"
  type: "Dropout"
  bottom: "relu10"
  top: "drop6"
  dropout_param {
    dropout_ratio: 0.5
  }
}
layer {
  name: "pool6"
  type: "Pooling"
  bottom: "drop6"
  top: "pool6"
  pooling_param {
    pool: MAX
    kernel_size: 2
    stride: 2
  }
}
layer {
  name: "conv11"
  type: "Convolution"
  bottom: "pool6"
  top: "conv11"
  convolution_param {
    num_output: 100
    kernel_size: 1
    weight_filler {
      type: "xavier"
    }
  }
}
layer {
  name: "relu11"
  type: "ReLU"
  bottom: "conv11"
  top: "relu11"
  relu_param {
    negative_slope: 0.1
  }
}
layer {
  name: "drop7"
  type: "Dropout"
  bottom: "relu11"
  top: "drop7"
  dropout_param {
    dropout_ratio: 0
  }
}
layer {
  name: "pool7"
  type: "Pooling"
  bottom: "drop7"
  top: "pool7"
  pooling_param {
    pool: MAX
    kernel_size: 2
    stride: 2
  }
}
layer {
  name: "score"
  type: "InnerProduct"
  bottom: "pool7"
  top: "score"
  inner_product_param {
    num_output: 10
    weight_filler {
      type: "gaussian"
    }
  }
}
layer {
  name: "accuracy"
  type: "Accuracy"
  bottom: "score"
  bottom: "label"
  top: "accuracy"
}
layer {
  name: "loss"
  type: "SoftmaxWithLoss"
  bottom: "score"
  bottom: "label"
  top: "loss"
}
I1020 05:39:09.498843 11071 layer_factory.hpp:77] Creating layer data
I1020 05:39:09.498920 11071 net.cpp:100] Creating Layer data
I1020 05:39:09.498925 11071 net.cpp:408] data -> data
I1020 05:39:09.498930 11071 net.cpp:408] data -> label
I1020 05:39:09.499482 11078 db_lmdb.cpp:35] Opened lmdb ../../../../data/mnist/mnist_test_lmdb
I1020 05:39:09.499557 11071 data_layer.cpp:41] output data size: 100,1,28,28
I1020 05:39:09.500224 11071 net.cpp:150] Setting up data
I1020 05:39:09.500232 11071 net.cpp:157] Top shape: 100 1 28 28 (78400)
I1020 05:39:09.500236 11071 net.cpp:157] Top shape: 100 (100)
I1020 05:39:09.500237 11071 net.cpp:165] Memory required for data: 314000
I1020 05:39:09.500239 11071 layer_factory.hpp:77] Creating layer label_data_1_split
I1020 05:39:09.500246 11071 net.cpp:100] Creating Layer label_data_1_split
I1020 05:39:09.500248 11071 net.cpp:434] label_data_1_split <- label
I1020 05:39:09.500252 11071 net.cpp:408] label_data_1_split -> label_data_1_split_0
I1020 05:39:09.500257 11071 net.cpp:408] label_data_1_split -> label_data_1_split_1
I1020 05:39:09.500301 11071 net.cpp:150] Setting up label_data_1_split
I1020 05:39:09.500306 11071 net.cpp:157] Top shape: 100 (100)
I1020 05:39:09.500308 11071 net.cpp:157] Top shape: 100 (100)
I1020 05:39:09.500309 11071 net.cpp:165] Memory required for data: 314800
I1020 05:39:09.500311 11071 layer_factory.hpp:77] Creating layer conv1
I1020 05:39:09.500318 11071 net.cpp:100] Creating Layer conv1
I1020 05:39:09.500319 11071 net.cpp:434] conv1 <- data
I1020 05:39:09.500322 11071 net.cpp:408] conv1 -> conv1
I1020 05:39:09.501123 11071 net.cpp:150] Setting up conv1
I1020 05:39:09.501132 11071 net.cpp:157] Top shape: 100 192 24 24 (11059200)
I1020 05:39:09.501133 11071 net.cpp:165] Memory required for data: 44551600
I1020 05:39:09.501140 11071 layer_factory.hpp:77] Creating layer relu1
I1020 05:39:09.501145 11071 net.cpp:100] Creating Layer relu1
I1020 05:39:09.501148 11071 net.cpp:434] relu1 <- conv1
I1020 05:39:09.501152 11071 net.cpp:408] relu1 -> relu1
I1020 05:39:09.501276 11071 net.cpp:150] Setting up relu1
I1020 05:39:09.501281 11071 net.cpp:157] Top shape: 100 192 24 24 (11059200)
I1020 05:39:09.501291 11071 net.cpp:165] Memory required for data: 88788400
I1020 05:39:09.501294 11071 layer_factory.hpp:77] Creating layer drop1
I1020 05:39:09.501299 11071 net.cpp:100] Creating Layer drop1
I1020 05:39:09.501302 11071 net.cpp:434] drop1 <- relu1
I1020 05:39:09.501304 11071 net.cpp:408] drop1 -> drop1
I1020 05:39:09.501330 11071 net.cpp:150] Setting up drop1
I1020 05:39:09.501335 11071 net.cpp:157] Top shape: 100 192 24 24 (11059200)
I1020 05:39:09.501338 11071 net.cpp:165] Memory required for data: 133025200
I1020 05:39:09.501339 11071 layer_factory.hpp:77] Creating layer pool1
I1020 05:39:09.501343 11071 net.cpp:100] Creating Layer pool1
I1020 05:39:09.501344 11071 net.cpp:434] pool1 <- drop1
I1020 05:39:09.501348 11071 net.cpp:408] pool1 -> pool1
I1020 05:39:09.501372 11071 net.cpp:150] Setting up pool1
I1020 05:39:09.501379 11071 net.cpp:157] Top shape: 100 192 12 12 (2764800)
I1020 05:39:09.501384 11071 net.cpp:165] Memory required for data: 144084400
I1020 05:39:09.501386 11071 layer_factory.hpp:77] Creating layer conv2
I1020 05:39:09.501394 11071 net.cpp:100] Creating Layer conv2
I1020 05:39:09.501399 11071 net.cpp:434] conv2 <- pool1
I1020 05:39:09.501404 11071 net.cpp:408] conv2 -> conv2
I1020 05:39:09.502301 11071 net.cpp:150] Setting up conv2
I1020 05:39:09.502310 11071 net.cpp:157] Top shape: 100 192 12 12 (2764800)
I1020 05:39:09.502315 11071 net.cpp:165] Memory required for data: 155143600
I1020 05:39:09.502322 11071 layer_factory.hpp:77] Creating layer relu2
I1020 05:39:09.502329 11071 net.cpp:100] Creating Layer relu2
I1020 05:39:09.502334 11071 net.cpp:434] relu2 <- conv2
I1020 05:39:09.502339 11071 net.cpp:408] relu2 -> relu2
I1020 05:39:09.502468 11071 net.cpp:150] Setting up relu2
I1020 05:39:09.502475 11071 net.cpp:157] Top shape: 100 192 12 12 (2764800)
I1020 05:39:09.502478 11071 net.cpp:165] Memory required for data: 166202800
I1020 05:39:09.502481 11071 layer_factory.hpp:77] Creating layer conv3
I1020 05:39:09.502490 11071 net.cpp:100] Creating Layer conv3
I1020 05:39:09.502493 11071 net.cpp:434] conv3 <- relu2
I1020 05:39:09.502498 11071 net.cpp:408] conv3 -> conv3
I1020 05:39:09.505007 11071 net.cpp:150] Setting up conv3
I1020 05:39:09.505017 11071 net.cpp:157] Top shape: 100 240 10 10 (2400000)
I1020 05:39:09.505020 11071 net.cpp:165] Memory required for data: 175802800
I1020 05:39:09.505028 11071 layer_factory.hpp:77] Creating layer relu3
I1020 05:39:09.505036 11071 net.cpp:100] Creating Layer relu3
I1020 05:39:09.505041 11071 net.cpp:434] relu3 <- conv3
I1020 05:39:09.505046 11071 net.cpp:408] relu3 -> relu3
I1020 05:39:09.505245 11071 net.cpp:150] Setting up relu3
I1020 05:39:09.505254 11071 net.cpp:157] Top shape: 100 240 10 10 (2400000)
I1020 05:39:09.505257 11071 net.cpp:165] Memory required for data: 185402800
I1020 05:39:09.505260 11071 layer_factory.hpp:77] Creating layer drop2
I1020 05:39:09.505267 11071 net.cpp:100] Creating Layer drop2
I1020 05:39:09.505271 11071 net.cpp:434] drop2 <- relu3
I1020 05:39:09.505276 11071 net.cpp:408] drop2 -> drop2
I1020 05:39:09.505306 11071 net.cpp:150] Setting up drop2
I1020 05:39:09.505311 11071 net.cpp:157] Top shape: 100 240 10 10 (2400000)
I1020 05:39:09.505314 11071 net.cpp:165] Memory required for data: 195002800
I1020 05:39:09.505317 11071 layer_factory.hpp:77] Creating layer pool2
I1020 05:39:09.505322 11071 net.cpp:100] Creating Layer pool2
I1020 05:39:09.505326 11071 net.cpp:434] pool2 <- drop2
I1020 05:39:09.505331 11071 net.cpp:408] pool2 -> pool2
I1020 05:39:09.505362 11071 net.cpp:150] Setting up pool2
I1020 05:39:09.505367 11071 net.cpp:157] Top shape: 100 240 5 5 (600000)
I1020 05:39:09.505369 11071 net.cpp:165] Memory required for data: 197402800
I1020 05:39:09.505373 11071 layer_factory.hpp:77] Creating layer conv4
I1020 05:39:09.505381 11071 net.cpp:100] Creating Layer conv4
I1020 05:39:09.505384 11071 net.cpp:434] conv4 <- pool2
I1020 05:39:09.505389 11071 net.cpp:408] conv4 -> conv4
I1020 05:39:09.506256 11071 net.cpp:150] Setting up conv4
I1020 05:39:09.506265 11071 net.cpp:157] Top shape: 100 240 5 5 (600000)
I1020 05:39:09.506278 11071 net.cpp:165] Memory required for data: 199802800
I1020 05:39:09.506284 11071 layer_factory.hpp:77] Creating layer relu4
I1020 05:39:09.506290 11071 net.cpp:100] Creating Layer relu4
I1020 05:39:09.506294 11071 net.cpp:434] relu4 <- conv4
I1020 05:39:09.506300 11071 net.cpp:408] relu4 -> relu4
I1020 05:39:09.506428 11071 net.cpp:150] Setting up relu4
I1020 05:39:09.506435 11071 net.cpp:157] Top shape: 100 240 5 5 (600000)
I1020 05:39:09.506439 11071 net.cpp:165] Memory required for data: 202202800
I1020 05:39:09.506443 11071 layer_factory.hpp:77] Creating layer conv5
I1020 05:39:09.506450 11071 net.cpp:100] Creating Layer conv5
I1020 05:39:09.506453 11071 net.cpp:434] conv5 <- relu4
I1020 05:39:09.506459 11071 net.cpp:408] conv5 -> conv5
I1020 05:39:09.508357 11071 net.cpp:150] Setting up conv5
I1020 05:39:09.508366 11071 net.cpp:157] Top shape: 100 260 4 4 (416000)
I1020 05:39:09.508369 11071 net.cpp:165] Memory required for data: 203866800
I1020 05:39:09.508378 11071 layer_factory.hpp:77] Creating layer relu5
I1020 05:39:09.508384 11071 net.cpp:100] Creating Layer relu5
I1020 05:39:09.508388 11071 net.cpp:434] relu5 <- conv5
I1020 05:39:09.508393 11071 net.cpp:408] relu5 -> relu5
I1020 05:39:09.508517 11071 net.cpp:150] Setting up relu5
I1020 05:39:09.508525 11071 net.cpp:157] Top shape: 100 260 4 4 (416000)
I1020 05:39:09.508528 11071 net.cpp:165] Memory required for data: 205530800
I1020 05:39:09.508532 11071 layer_factory.hpp:77] Creating layer drop3
I1020 05:39:09.508540 11071 net.cpp:100] Creating Layer drop3
I1020 05:39:09.508543 11071 net.cpp:434] drop3 <- relu5
I1020 05:39:09.508548 11071 net.cpp:408] drop3 -> drop3
I1020 05:39:09.508577 11071 net.cpp:150] Setting up drop3
I1020 05:39:09.508584 11071 net.cpp:157] Top shape: 100 260 4 4 (416000)
I1020 05:39:09.508587 11071 net.cpp:165] Memory required for data: 207194800
I1020 05:39:09.508590 11071 layer_factory.hpp:77] Creating layer pool3
I1020 05:39:09.508594 11071 net.cpp:100] Creating Layer pool3
I1020 05:39:09.508599 11071 net.cpp:434] pool3 <- drop3
I1020 05:39:09.508605 11071 net.cpp:408] pool3 -> pool3
I1020 05:39:09.508631 11071 net.cpp:150] Setting up pool3
I1020 05:39:09.508637 11071 net.cpp:157] Top shape: 100 260 2 2 (104000)
I1020 05:39:09.508641 11071 net.cpp:165] Memory required for data: 207610800
I1020 05:39:09.508644 11071 layer_factory.hpp:77] Creating layer conv6
I1020 05:39:09.508651 11071 net.cpp:100] Creating Layer conv6
I1020 05:39:09.508654 11071 net.cpp:434] conv6 <- pool3
I1020 05:39:09.508661 11071 net.cpp:408] conv6 -> conv6
I1020 05:39:09.509814 11071 net.cpp:150] Setting up conv6
I1020 05:39:09.509824 11071 net.cpp:157] Top shape: 100 260 2 2 (104000)
I1020 05:39:09.509826 11071 net.cpp:165] Memory required for data: 208026800
I1020 05:39:09.509834 11071 layer_factory.hpp:77] Creating layer relu6
I1020 05:39:09.509841 11071 net.cpp:100] Creating Layer relu6
I1020 05:39:09.509845 11071 net.cpp:434] relu6 <- conv6
I1020 05:39:09.509850 11071 net.cpp:408] relu6 -> relu6
I1020 05:39:09.510053 11071 net.cpp:150] Setting up relu6
I1020 05:39:09.510061 11071 net.cpp:157] Top shape: 100 260 2 2 (104000)
I1020 05:39:09.510066 11071 net.cpp:165] Memory required for data: 208442800
I1020 05:39:09.510071 11071 layer_factory.hpp:77] Creating layer conv7
I1020 05:39:09.510078 11071 net.cpp:100] Creating Layer conv7
I1020 05:39:09.510082 11071 net.cpp:434] conv7 <- relu6
I1020 05:39:09.510088 11071 net.cpp:408] conv7 -> conv7
I1020 05:39:09.512444 11071 net.cpp:150] Setting up conv7
I1020 05:39:09.512456 11071 net.cpp:157] Top shape: 100 280 1 1 (28000)
I1020 05:39:09.512459 11071 net.cpp:165] Memory required for data: 208554800
I1020 05:39:09.512465 11071 layer_factory.hpp:77] Creating layer relu7
I1020 05:39:09.512472 11071 net.cpp:100] Creating Layer relu7
I1020 05:39:09.512476 11071 net.cpp:434] relu7 <- conv7
I1020 05:39:09.512483 11071 net.cpp:408] relu7 -> relu7
I1020 05:39:09.512610 11071 net.cpp:150] Setting up relu7
I1020 05:39:09.512617 11071 net.cpp:157] Top shape: 100 280 1 1 (28000)
I1020 05:39:09.512631 11071 net.cpp:165] Memory required for data: 208666800
I1020 05:39:09.512634 11071 layer_factory.hpp:77] Creating layer drop4
I1020 05:39:09.512641 11071 net.cpp:100] Creating Layer drop4
I1020 05:39:09.512645 11071 net.cpp:434] drop4 <- relu7
I1020 05:39:09.512650 11071 net.cpp:408] drop4 -> drop4
I1020 05:39:09.512681 11071 net.cpp:150] Setting up drop4
I1020 05:39:09.512686 11071 net.cpp:157] Top shape: 100 280 1 1 (28000)
I1020 05:39:09.512688 11071 net.cpp:165] Memory required for data: 208778800
I1020 05:39:09.512692 11071 layer_factory.hpp:77] Creating layer pool4
I1020 05:39:09.512696 11071 net.cpp:100] Creating Layer pool4
I1020 05:39:09.512701 11071 net.cpp:434] pool4 <- drop4
I1020 05:39:09.512706 11071 net.cpp:408] pool4 -> pool4
I1020 05:39:09.512735 11071 net.cpp:150] Setting up pool4
I1020 05:39:09.512740 11071 net.cpp:157] Top shape: 100 280 1 1 (28000)
I1020 05:39:09.512743 11071 net.cpp:165] Memory required for data: 208890800
I1020 05:39:09.512747 11071 layer_factory.hpp:77] Creating layer conv8
I1020 05:39:09.512754 11071 net.cpp:100] Creating Layer conv8
I1020 05:39:09.512758 11071 net.cpp:434] conv8 <- pool4
I1020 05:39:09.512763 11071 net.cpp:408] conv8 -> conv8
I1020 05:39:09.513712 11071 net.cpp:150] Setting up conv8
I1020 05:39:09.513721 11071 net.cpp:157] Top shape: 100 280 1 1 (28000)
I1020 05:39:09.513725 11071 net.cpp:165] Memory required for data: 209002800
I1020 05:39:09.513731 11071 layer_factory.hpp:77] Creating layer relu8
I1020 05:39:09.513736 11071 net.cpp:100] Creating Layer relu8
I1020 05:39:09.513741 11071 net.cpp:434] relu8 <- conv8
I1020 05:39:09.513746 11071 net.cpp:408] relu8 -> relu8
I1020 05:39:09.513870 11071 net.cpp:150] Setting up relu8
I1020 05:39:09.513876 11071 net.cpp:157] Top shape: 100 280 1 1 (28000)
I1020 05:39:09.513880 11071 net.cpp:165] Memory required for data: 209114800
I1020 05:39:09.513882 11071 layer_factory.hpp:77] Creating layer drop5
I1020 05:39:09.513890 11071 net.cpp:100] Creating Layer drop5
I1020 05:39:09.513893 11071 net.cpp:434] drop5 <- relu8
I1020 05:39:09.513898 11071 net.cpp:408] drop5 -> drop5
I1020 05:39:09.513928 11071 net.cpp:150] Setting up drop5
I1020 05:39:09.513933 11071 net.cpp:157] Top shape: 100 280 1 1 (28000)
I1020 05:39:09.513936 11071 net.cpp:165] Memory required for data: 209226800
I1020 05:39:09.513941 11071 layer_factory.hpp:77] Creating layer pool5
I1020 05:39:09.513947 11071 net.cpp:100] Creating Layer pool5
I1020 05:39:09.513950 11071 net.cpp:434] pool5 <- drop5
I1020 05:39:09.513954 11071 net.cpp:408] pool5 -> pool5
I1020 05:39:09.513983 11071 net.cpp:150] Setting up pool5
I1020 05:39:09.513988 11071 net.cpp:157] Top shape: 100 280 1 1 (28000)
I1020 05:39:09.513991 11071 net.cpp:165] Memory required for data: 209338800
I1020 05:39:09.513994 11071 layer_factory.hpp:77] Creating layer conv10
I1020 05:39:09.514003 11071 net.cpp:100] Creating Layer conv10
I1020 05:39:09.514005 11071 net.cpp:434] conv10 <- pool5
I1020 05:39:09.514010 11071 net.cpp:408] conv10 -> conv10
I1020 05:39:09.514981 11071 net.cpp:150] Setting up conv10
I1020 05:39:09.514991 11071 net.cpp:157] Top shape: 100 300 1 1 (30000)
I1020 05:39:09.514993 11071 net.cpp:165] Memory required for data: 209458800
I1020 05:39:09.515002 11071 layer_factory.hpp:77] Creating layer relu10
I1020 05:39:09.515009 11071 net.cpp:100] Creating Layer relu10
I1020 05:39:09.515013 11071 net.cpp:434] relu10 <- conv10
I1020 05:39:09.515018 11071 net.cpp:408] relu10 -> relu10
I1020 05:39:09.515223 11071 net.cpp:150] Setting up relu10
I1020 05:39:09.515230 11071 net.cpp:157] Top shape: 100 300 1 1 (30000)
I1020 05:39:09.515233 11071 net.cpp:165] Memory required for data: 209578800
I1020 05:39:09.515238 11071 layer_factory.hpp:77] Creating layer drop6
I1020 05:39:09.515244 11071 net.cpp:100] Creating Layer drop6
I1020 05:39:09.515247 11071 net.cpp:434] drop6 <- relu10
I1020 05:39:09.515251 11071 net.cpp:408] drop6 -> drop6
I1020 05:39:09.515285 11071 net.cpp:150] Setting up drop6
I1020 05:39:09.515291 11071 net.cpp:157] Top shape: 100 300 1 1 (30000)
I1020 05:39:09.515301 11071 net.cpp:165] Memory required for data: 209698800
I1020 05:39:09.515305 11071 layer_factory.hpp:77] Creating layer pool6
I1020 05:39:09.515311 11071 net.cpp:100] Creating Layer pool6
I1020 05:39:09.515313 11071 net.cpp:434] pool6 <- drop6
I1020 05:39:09.515319 11071 net.cpp:408] pool6 -> pool6
I1020 05:39:09.515348 11071 net.cpp:150] Setting up pool6
I1020 05:39:09.515354 11071 net.cpp:157] Top shape: 100 300 1 1 (30000)
I1020 05:39:09.515358 11071 net.cpp:165] Memory required for data: 209818800
I1020 05:39:09.515362 11071 layer_factory.hpp:77] Creating layer conv11
I1020 05:39:09.515370 11071 net.cpp:100] Creating Layer conv11
I1020 05:39:09.515373 11071 net.cpp:434] conv11 <- pool6
I1020 05:39:09.515378 11071 net.cpp:408] conv11 -> conv11
I1020 05:39:09.516160 11071 net.cpp:150] Setting up conv11
I1020 05:39:09.516167 11071 net.cpp:157] Top shape: 100 100 1 1 (10000)
I1020 05:39:09.516171 11071 net.cpp:165] Memory required for data: 209858800
I1020 05:39:09.516176 11071 layer_factory.hpp:77] Creating layer relu11
I1020 05:39:09.516183 11071 net.cpp:100] Creating Layer relu11
I1020 05:39:09.516188 11071 net.cpp:434] relu11 <- conv11
I1020 05:39:09.516193 11071 net.cpp:408] relu11 -> relu11
I1020 05:39:09.516330 11071 net.cpp:150] Setting up relu11
I1020 05:39:09.516338 11071 net.cpp:157] Top shape: 100 100 1 1 (10000)
I1020 05:39:09.516341 11071 net.cpp:165] Memory required for data: 209898800
I1020 05:39:09.516346 11071 layer_factory.hpp:77] Creating layer drop7
I1020 05:39:09.516350 11071 net.cpp:100] Creating Layer drop7
I1020 05:39:09.516355 11071 net.cpp:434] drop7 <- relu11
I1020 05:39:09.516360 11071 net.cpp:408] drop7 -> drop7
I1020 05:39:09.516391 11071 net.cpp:150] Setting up drop7
I1020 05:39:09.516396 11071 net.cpp:157] Top shape: 100 100 1 1 (10000)
I1020 05:39:09.516398 11071 net.cpp:165] Memory required for data: 209938800
I1020 05:39:09.516402 11071 layer_factory.hpp:77] Creating layer pool7
I1020 05:39:09.516408 11071 net.cpp:100] Creating Layer pool7
I1020 05:39:09.516412 11071 net.cpp:434] pool7 <- drop7
I1020 05:39:09.516417 11071 net.cpp:408] pool7 -> pool7
I1020 05:39:09.516444 11071 net.cpp:150] Setting up pool7
I1020 05:39:09.516450 11071 net.cpp:157] Top shape: 100 100 1 1 (10000)
I1020 05:39:09.516453 11071 net.cpp:165] Memory required for data: 209978800
I1020 05:39:09.516455 11071 layer_factory.hpp:77] Creating layer score
I1020 05:39:09.516461 11071 net.cpp:100] Creating Layer score
I1020 05:39:09.516465 11071 net.cpp:434] score <- pool7
I1020 05:39:09.516472 11071 net.cpp:408] score -> score
I1020 05:39:09.516564 11071 net.cpp:150] Setting up score
I1020 05:39:09.516582 11071 net.cpp:157] Top shape: 100 10 (1000)
I1020 05:39:09.516592 11071 net.cpp:165] Memory required for data: 209982800
I1020 05:39:09.516598 11071 layer_factory.hpp:77] Creating layer score_score_0_split
I1020 05:39:09.516607 11071 net.cpp:100] Creating Layer score_score_0_split
I1020 05:39:09.516609 11071 net.cpp:434] score_score_0_split <- score
I1020 05:39:09.516614 11071 net.cpp:408] score_score_0_split -> score_score_0_split_0
I1020 05:39:09.516621 11071 net.cpp:408] score_score_0_split -> score_score_0_split_1
I1020 05:39:09.516657 11071 net.cpp:150] Setting up score_score_0_split
I1020 05:39:09.516662 11071 net.cpp:157] Top shape: 100 10 (1000)
I1020 05:39:09.516666 11071 net.cpp:157] Top shape: 100 10 (1000)
I1020 05:39:09.516670 11071 net.cpp:165] Memory required for data: 209990800
I1020 05:39:09.516674 11071 layer_factory.hpp:77] Creating layer accuracy
I1020 05:39:09.516680 11071 net.cpp:100] Creating Layer accuracy
I1020 05:39:09.516682 11071 net.cpp:434] accuracy <- score_score_0_split_0
I1020 05:39:09.516688 11071 net.cpp:434] accuracy <- label_data_1_split_0
I1020 05:39:09.516695 11071 net.cpp:408] accuracy -> accuracy
…
