…
  stage: ""
}
type: "SGD"
I1020 06:07:15.155652 11175 solver.cpp:81] Creating training net from train_net file: /home/adam/Honours/Honours-Project/mnist_pooling/max/leakyrelu/poolcnn_leakyrelu_train.prototxt
I1020 06:07:15.155959 11175 net.cpp:58] Initializing net from parameters: 
state {
  phase: TRAIN
  level: 0
  stage: ""
}
layer {
  name: "data"
  type: "Data"
  top: "data"
  top: "label"
  transform_param {
    scale: 0.0039215689
  }
  data_param {
    source: "../../../../data/mnist/mnist_train_lmdb"
    batch_size: 64
    backend: LMDB
  }
}
layer {
  name: "conv1"
  type: "Convolution"
  bottom: "data"
  top: "conv1"
  convolution_param {
    num_output: 192
    kernel_size: 5
    weight_filler {
      type: "xavier"
    }
  }
}
layer {
  name: "relu1"
  type: "ReLU"
  bottom: "conv1"
  top: "relu1"
  relu_param {
    negative_slope: 0.1
  }
}
layer {
  name: "drop1"
  type: "Dropout"
  bottom: "relu1"
  top: "drop1"
  dropout_param {
    dropout_ratio: 0
  }
}
layer {
  name: "pool1"
  type: "Pooling"
  bottom: "drop1"
  top: "pool1"
  pooling_param {
    pool: MAX
    kernel_size: 2
    stride: 2
  }
}
layer {
  name: "conv2"
  type: "Convolution"
  bottom: "pool1"
  top: "conv2"
  convolution_param {
    num_output: 192
    kernel_size: 1
    weight_filler {
      type: "xavier"
    }
  }
}
layer {
  name: "relu2"
  type: "ReLU"
  bottom: "conv2"
  top: "relu2"
  relu_param {
    negative_slope: 0.1
  }
}
layer {
  name: "conv3"
  type: "Convolution"
  bottom: "relu2"
  top: "conv3"
  convolution_param {
    num_output: 240
    kernel_size: 3
    weight_filler {
      type: "xavier"
    }
  }
}
layer {
  name: "relu3"
  type: "ReLU"
  bottom: "conv3"
  top: "relu3"
  relu_param {
    negative_slope: 0.1
  }
}
layer {
  name: "drop2"
  type: "Dropout"
  bottom: "relu3"
  top: "drop2"
  dropout_param {
    dropout_ratio: 0.1
  }
}
layer {
  name: "pool2"
  type: "Pooling"
  bottom: "drop2"
  top: "pool2"
  pooling_param {
    pool: MAX
    kernel_size: 2
    stride: 2
  }
}
layer {
  name: "conv4"
  type: "Convolution"
  bottom: "pool2"
  top: "conv4"
  convolution_param {
    num_output: 240
    kernel_size: 1
    weight_filler {
      type: "xavier"
    }
  }
}
layer {
  name: "relu4"
  type: "ReLU"
  bottom: "conv4"
  top: "relu4"
  relu_param {
    negative_slope: 0.1
  }
}
layer {
  name: "conv5"
  type: "Convolution"
  bottom: "relu4"
  top: "conv5"
  convolution_param {
    num_output: 260
    kernel_size: 2
    weight_filler {
      type: "xavier"
    }
  }
}
layer {
  name: "relu5"
  type: "ReLU"
  bottom: "conv5"
  top: "relu5"
  relu_param {
    negative_slope: 0.1
  }
}
layer {
  name: "drop3"
  type: "Dropout"
  bottom: "relu5"
  top: "drop3"
  dropout_param {
    dropout_ratio: 0.2
  }
}
layer {
  name: "pool3"
  type: "Pooling"
  bottom: "drop3"
  top: "pool3"
  pooling_param {
    pool: MAX
    kernel_size: 2
    stride: 2
  }
}
layer {
  name: "conv6"
  type: "Convolution"
  bottom: "pool3"
  top: "conv6"
  convolution_param {
    num_output: 260
    kernel_size: 1
    weight_filler {
      type: "xavier"
    }
  }
}
layer {
  name: "relu6"
  type: "ReLU"
  bottom: "conv6"
  top: "relu6"
  relu_param {
    negative_slope: 0.1
  }
}
layer {
  name: "conv7"
  type: "Convolution"
  bottom: "relu6"
  top: "conv7"
  convolution_param {
    num_output: 280
    kernel_size: 2
    weight_filler {
      type: "xavier"
    }
  }
}
layer {
  name: "relu7"
  type: "ReLU"
  bottom: "conv7"
  top: "relu7"
  relu_param {
    negative_slope: 0.1
  }
}
layer {
  name: "drop4"
  type: "Dropout"
  bottom: "relu7"
  top: "drop4"
  dropout_param {
    dropout_ratio: 0.3
  }
}
layer {
  name: "pool4"
  type: "Pooling"
  bottom: "drop4"
  top: "pool4"
  pooling_param {
    pool: MAX
    kernel_size: 2
    stride: 2
  }
}
layer {
  name: "conv8"
  type: "Convolution"
  bottom: "pool4"
  top: "conv8"
  convolution_param {
    num_output: 280
    kernel_size: 1
    weight_filler {
      type: "xavier"
    }
  }
}
layer {
  name: "relu8"
  type: "ReLU"
  bottom: "conv8"
  top: "relu8"
  relu_param {
    negative_slope: 0.1
  }
}
layer {
  name: "drop5"
  type: "Dropout"
  bottom: "relu8"
  top: "drop5"
  dropout_param {
    dropout_ratio: 0.4
  }
}
layer {
  name: "pool5"
  type: "Pooling"
  bottom: "drop5"
  top: "pool5"
  pooling_param {
    pool: MAX
    kernel_size: 2
    stride: 2
  }
}
layer {
  name: "conv10"
  type: "Convolution"
  bottom: "pool5"
  top: "conv10"
  convolution_param {
    num_output: 300
    kernel_size: 1
    weight_filler {
      type: "xavier"
    }
  }
}
layer {
  name: "relu10"
  type: "ReLU"
  bottom: "conv10"
  top: "relu10"
  relu_param {
    negative_slope: 0.1
  }
}
layer {
  name: "drop6"
  type: "Dropout"
  bottom: "relu10"
  top: "drop6"
  dropout_param {
    dropout_ratio: 0.5
  }
}
layer {
  name: "pool6"
  type: "Pooling"
  bottom: "drop6"
  top: "pool6"
  pooling_param {
    pool: MAX
    kernel_size: 2
    stride: 2
  }
}
layer {
  name: "conv11"
  type: "Convolution"
  bottom: "pool6"
  top: "conv11"
  convolution_param {
    num_output: 100
    kernel_size: 1
    weight_filler {
      type: "xavier"
    }
  }
}
layer {
  name: "relu11"
  type: "ReLU"
  bottom: "conv11"
  top: "relu11"
  relu_param {
    negative_slope: 0.1
  }
}
layer {
  name: "drop7"
  type: "Dropout"
  bottom: "relu11"
  top: "drop7"
  dropout_param {
    dropout_ratio: 0
  }
}
layer {
  name: "pool7"
  type: "Pooling"
  bottom: "drop7"
  top: "pool7"
  pooling_param {
    pool: MAX
    kernel_size: 2
    stride: 2
  }
}
layer {
  name: "score"
  type: "InnerProduct"
  bottom: "pool7"
  top: "score"
  inner_product_param {
    num_output: 10
    weight_filler {
      type: "gaussian"
    }
  }
}
layer {
  name: "accuracy"
  type: "Accuracy"
  bottom: "score"
  bottom: "label"
  top: "accuracy"
}
layer {
  name: "loss"
  type: "SoftmaxWithLoss"
  bottom: "score"
  bottom: "label"
  top: "loss"
}
I1020 06:07:15.156062 11175 layer_factory.hpp:77] Creating layer data
I1020 06:07:15.156450 11175 net.cpp:100] Creating Layer data
I1020 06:07:15.156458 11175 net.cpp:408] data -> data
I1020 06:07:15.156473 11175 net.cpp:408] data -> label
I1020 06:07:15.157049 11181 db_lmdb.cpp:35] Opened lmdb ../../../../data/mnist/mnist_train_lmdb
I1020 06:07:15.162578 11175 data_layer.cpp:41] output data size: 64,1,28,28
I1020 06:07:15.163136 11175 net.cpp:150] Setting up data
I1020 06:07:15.163146 11175 net.cpp:157] Top shape: 64 1 28 28 (50176)
I1020 06:07:15.163148 11175 net.cpp:157] Top shape: 64 (64)
I1020 06:07:15.163151 11175 net.cpp:165] Memory required for data: 200960
I1020 06:07:15.163157 11175 layer_factory.hpp:77] Creating layer label_data_1_split
I1020 06:07:15.163166 11175 net.cpp:100] Creating Layer label_data_1_split
I1020 06:07:15.163170 11175 net.cpp:434] label_data_1_split <- label
I1020 06:07:15.163179 11175 net.cpp:408] label_data_1_split -> label_data_1_split_0
I1020 06:07:15.163187 11175 net.cpp:408] label_data_1_split -> label_data_1_split_1
I1020 06:07:15.163213 11175 net.cpp:150] Setting up label_data_1_split
I1020 06:07:15.163218 11175 net.cpp:157] Top shape: 64 (64)
I1020 06:07:15.163219 11175 net.cpp:157] Top shape: 64 (64)
I1020 06:07:15.163220 11175 net.cpp:165] Memory required for data: 201472
I1020 06:07:15.163223 11175 layer_factory.hpp:77] Creating layer conv1
I1020 06:07:15.163234 11175 net.cpp:100] Creating Layer conv1
I1020 06:07:15.163236 11175 net.cpp:434] conv1 <- data
I1020 06:07:15.163239 11175 net.cpp:408] conv1 -> conv1
I1020 06:07:15.282320 11175 net.cpp:150] Setting up conv1
I1020 06:07:15.282346 11175 net.cpp:157] Top shape: 64 192 24 24 (7077888)
I1020 06:07:15.282366 11175 net.cpp:165] Memory required for data: 28513024
I1020 06:07:15.282387 11175 layer_factory.hpp:77] Creating layer relu1
I1020 06:07:15.282394 11175 net.cpp:100] Creating Layer relu1
I1020 06:07:15.282398 11175 net.cpp:434] relu1 <- conv1
I1020 06:07:15.282402 11175 net.cpp:408] relu1 -> relu1
I1020 06:07:15.282531 11175 net.cpp:150] Setting up relu1
I1020 06:07:15.282537 11175 net.cpp:157] Top shape: 64 192 24 24 (7077888)
I1020 06:07:15.282539 11175 net.cpp:165] Memory required for data: 56824576
I1020 06:07:15.282541 11175 layer_factory.hpp:77] Creating layer drop1
I1020 06:07:15.282547 11175 net.cpp:100] Creating Layer drop1
I1020 06:07:15.282548 11175 net.cpp:434] drop1 <- relu1
I1020 06:07:15.282552 11175 net.cpp:408] drop1 -> drop1
I1020 06:07:15.282577 11175 net.cpp:150] Setting up drop1
I1020 06:07:15.282579 11175 net.cpp:157] Top shape: 64 192 24 24 (7077888)
I1020 06:07:15.282582 11175 net.cpp:165] Memory required for data: 85136128
I1020 06:07:15.282583 11175 layer_factory.hpp:77] Creating layer pool1
I1020 06:07:15.282588 11175 net.cpp:100] Creating Layer pool1
I1020 06:07:15.282588 11175 net.cpp:434] pool1 <- drop1
I1020 06:07:15.282591 11175 net.cpp:408] pool1 -> pool1
I1020 06:07:15.282618 11175 net.cpp:150] Setting up pool1
I1020 06:07:15.282622 11175 net.cpp:157] Top shape: 64 192 12 12 (1769472)
I1020 06:07:15.282624 11175 net.cpp:165] Memory required for data: 92214016
I1020 06:07:15.282626 11175 layer_factory.hpp:77] Creating layer conv2
I1020 06:07:15.282632 11175 net.cpp:100] Creating Layer conv2
I1020 06:07:15.282634 11175 net.cpp:434] conv2 <- pool1
I1020 06:07:15.282637 11175 net.cpp:408] conv2 -> conv2
I1020 06:07:15.283421 11175 net.cpp:150] Setting up conv2
I1020 06:07:15.283429 11175 net.cpp:157] Top shape: 64 192 12 12 (1769472)
I1020 06:07:15.283432 11175 net.cpp:165] Memory required for data: 99291904
I1020 06:07:15.283437 11175 layer_factory.hpp:77] Creating layer relu2
I1020 06:07:15.283440 11175 net.cpp:100] Creating Layer relu2
I1020 06:07:15.283443 11175 net.cpp:434] relu2 <- conv2
I1020 06:07:15.283447 11175 net.cpp:408] relu2 -> relu2
I1020 06:07:15.283555 11175 net.cpp:150] Setting up relu2
I1020 06:07:15.283560 11175 net.cpp:157] Top shape: 64 192 12 12 (1769472)
I1020 06:07:15.283561 11175 net.cpp:165] Memory required for data: 106369792
I1020 06:07:15.283563 11175 layer_factory.hpp:77] Creating layer conv3
I1020 06:07:15.283568 11175 net.cpp:100] Creating Layer conv3
I1020 06:07:15.283571 11175 net.cpp:434] conv3 <- relu2
I1020 06:07:15.283574 11175 net.cpp:408] conv3 -> conv3
I1020 06:07:15.285938 11175 net.cpp:150] Setting up conv3
I1020 06:07:15.285948 11175 net.cpp:157] Top shape: 64 240 10 10 (1536000)
I1020 06:07:15.285949 11175 net.cpp:165] Memory required for data: 112513792
I1020 06:07:15.285955 11175 layer_factory.hpp:77] Creating layer relu3
I1020 06:07:15.285959 11175 net.cpp:100] Creating Layer relu3
I1020 06:07:15.285961 11175 net.cpp:434] relu3 <- conv3
I1020 06:07:15.285964 11175 net.cpp:408] relu3 -> relu3
I1020 06:07:15.286140 11175 net.cpp:150] Setting up relu3
I1020 06:07:15.286146 11175 net.cpp:157] Top shape: 64 240 10 10 (1536000)
I1020 06:07:15.286149 11175 net.cpp:165] Memory required for data: 118657792
I1020 06:07:15.286150 11175 layer_factory.hpp:77] Creating layer drop2
I1020 06:07:15.286154 11175 net.cpp:100] Creating Layer drop2
I1020 06:07:15.286156 11175 net.cpp:434] drop2 <- relu3
I1020 06:07:15.286159 11175 net.cpp:408] drop2 -> drop2
I1020 06:07:15.286180 11175 net.cpp:150] Setting up drop2
I1020 06:07:15.286185 11175 net.cpp:157] Top shape: 64 240 10 10 (1536000)
I1020 06:07:15.286185 11175 net.cpp:165] Memory required for data: 124801792
I1020 06:07:15.286187 11175 layer_factory.hpp:77] Creating layer pool2
I1020 06:07:15.286190 11175 net.cpp:100] Creating Layer pool2
I1020 06:07:15.286192 11175 net.cpp:434] pool2 <- drop2
I1020 06:07:15.286195 11175 net.cpp:408] pool2 -> pool2
I1020 06:07:15.286213 11175 net.cpp:150] Setting up pool2
I1020 06:07:15.286216 11175 net.cpp:157] Top shape: 64 240 5 5 (384000)
I1020 06:07:15.286226 11175 net.cpp:165] Memory required for data: 126337792
I1020 06:07:15.286228 11175 layer_factory.hpp:77] Creating layer conv4
I1020 06:07:15.286232 11175 net.cpp:100] Creating Layer conv4
I1020 06:07:15.286234 11175 net.cpp:434] conv4 <- pool2
I1020 06:07:15.286238 11175 net.cpp:408] conv4 -> conv4
I1020 06:07:15.287006 11175 net.cpp:150] Setting up conv4
I1020 06:07:15.287014 11175 net.cpp:157] Top shape: 64 240 5 5 (384000)
I1020 06:07:15.287016 11175 net.cpp:165] Memory required for data: 127873792
I1020 06:07:15.287020 11175 layer_factory.hpp:77] Creating layer relu4
I1020 06:07:15.287024 11175 net.cpp:100] Creating Layer relu4
I1020 06:07:15.287026 11175 net.cpp:434] relu4 <- conv4
I1020 06:07:15.287029 11175 net.cpp:408] relu4 -> relu4
I1020 06:07:15.287130 11175 net.cpp:150] Setting up relu4
I1020 06:07:15.287135 11175 net.cpp:157] Top shape: 64 240 5 5 (384000)
I1020 06:07:15.287137 11175 net.cpp:165] Memory required for data: 129409792
I1020 06:07:15.287139 11175 layer_factory.hpp:77] Creating layer conv5
I1020 06:07:15.287145 11175 net.cpp:100] Creating Layer conv5
I1020 06:07:15.287147 11175 net.cpp:434] conv5 <- relu4
I1020 06:07:15.287150 11175 net.cpp:408] conv5 -> conv5
I1020 06:07:15.288842 11175 net.cpp:150] Setting up conv5
I1020 06:07:15.288851 11175 net.cpp:157] Top shape: 64 260 4 4 (266240)
I1020 06:07:15.288854 11175 net.cpp:165] Memory required for data: 130474752
I1020 06:07:15.288859 11175 layer_factory.hpp:77] Creating layer relu5
I1020 06:07:15.288863 11175 net.cpp:100] Creating Layer relu5
I1020 06:07:15.288866 11175 net.cpp:434] relu5 <- conv5
I1020 06:07:15.288868 11175 net.cpp:408] relu5 -> relu5
I1020 06:07:15.288972 11175 net.cpp:150] Setting up relu5
I1020 06:07:15.288977 11175 net.cpp:157] Top shape: 64 260 4 4 (266240)
I1020 06:07:15.288978 11175 net.cpp:165] Memory required for data: 131539712
I1020 06:07:15.288981 11175 layer_factory.hpp:77] Creating layer drop3
I1020 06:07:15.288986 11175 net.cpp:100] Creating Layer drop3
I1020 06:07:15.288988 11175 net.cpp:434] drop3 <- relu5
I1020 06:07:15.288990 11175 net.cpp:408] drop3 -> drop3
I1020 06:07:15.289012 11175 net.cpp:150] Setting up drop3
I1020 06:07:15.289016 11175 net.cpp:157] Top shape: 64 260 4 4 (266240)
I1020 06:07:15.289017 11175 net.cpp:165] Memory required for data: 132604672
I1020 06:07:15.289019 11175 layer_factory.hpp:77] Creating layer pool3
I1020 06:07:15.289023 11175 net.cpp:100] Creating Layer pool3
I1020 06:07:15.289026 11175 net.cpp:434] pool3 <- drop3
I1020 06:07:15.289027 11175 net.cpp:408] pool3 -> pool3
I1020 06:07:15.289047 11175 net.cpp:150] Setting up pool3
I1020 06:07:15.289052 11175 net.cpp:157] Top shape: 64 260 2 2 (66560)
I1020 06:07:15.289053 11175 net.cpp:165] Memory required for data: 132870912
I1020 06:07:15.289055 11175 layer_factory.hpp:77] Creating layer conv6
I1020 06:07:15.289059 11175 net.cpp:100] Creating Layer conv6
I1020 06:07:15.289062 11175 net.cpp:434] conv6 <- pool3
I1020 06:07:15.289064 11175 net.cpp:408] conv6 -> conv6
I1020 06:07:15.290150 11175 net.cpp:150] Setting up conv6
I1020 06:07:15.290158 11175 net.cpp:157] Top shape: 64 260 2 2 (66560)
I1020 06:07:15.290160 11175 net.cpp:165] Memory required for data: 133137152
I1020 06:07:15.290164 11175 layer_factory.hpp:77] Creating layer relu6
I1020 06:07:15.290168 11175 net.cpp:100] Creating Layer relu6
I1020 06:07:15.290169 11175 net.cpp:434] relu6 <- conv6
I1020 06:07:15.290174 11175 net.cpp:408] relu6 -> relu6
I1020 06:07:15.290359 11175 net.cpp:150] Setting up relu6
I1020 06:07:15.290367 11175 net.cpp:157] Top shape: 64 260 2 2 (66560)
I1020 06:07:15.290369 11175 net.cpp:165] Memory required for data: 133403392
I1020 06:07:15.290371 11175 layer_factory.hpp:77] Creating layer conv7
I1020 06:07:15.290375 11175 net.cpp:100] Creating Layer conv7
I1020 06:07:15.290377 11175 net.cpp:434] conv7 <- relu6
I1020 06:07:15.290380 11175 net.cpp:408] conv7 -> conv7
I1020 06:07:15.292393 11175 net.cpp:150] Setting up conv7
I1020 06:07:15.292402 11175 net.cpp:157] Top shape: 64 280 1 1 (17920)
I1020 06:07:15.292412 11175 net.cpp:165] Memory required for data: 133475072
I1020 06:07:15.292417 11175 layer_factory.hpp:77] Creating layer relu7
I1020 06:07:15.292420 11175 net.cpp:100] Creating Layer relu7
I1020 06:07:15.292423 11175 net.cpp:434] relu7 <- conv7
I1020 06:07:15.292425 11175 net.cpp:408] relu7 -> relu7
I1020 06:07:15.292538 11175 net.cpp:150] Setting up relu7
I1020 06:07:15.292544 11175 net.cpp:157] Top shape: 64 280 1 1 (17920)
I1020 06:07:15.292546 11175 net.cpp:165] Memory required for data: 133546752
I1020 06:07:15.292547 11175 layer_factory.hpp:77] Creating layer drop4
I1020 06:07:15.292551 11175 net.cpp:100] Creating Layer drop4
I1020 06:07:15.292553 11175 net.cpp:434] drop4 <- relu7
I1020 06:07:15.292557 11175 net.cpp:408] drop4 -> drop4
I1020 06:07:15.292577 11175 net.cpp:150] Setting up drop4
I1020 06:07:15.292582 11175 net.cpp:157] Top shape: 64 280 1 1 (17920)
I1020 06:07:15.292584 11175 net.cpp:165] Memory required for data: 133618432
I1020 06:07:15.292587 11175 layer_factory.hpp:77] Creating layer pool4
I1020 06:07:15.292588 11175 net.cpp:100] Creating Layer pool4
I1020 06:07:15.292592 11175 net.cpp:434] pool4 <- drop4
I1020 06:07:15.292593 11175 net.cpp:408] pool4 -> pool4
I1020 06:07:15.292615 11175 net.cpp:150] Setting up pool4
I1020 06:07:15.292619 11175 net.cpp:157] Top shape: 64 280 1 1 (17920)
I1020 06:07:15.292620 11175 net.cpp:165] Memory required for data: 133690112
I1020 06:07:15.292623 11175 layer_factory.hpp:77] Creating layer conv8
I1020 06:07:15.292628 11175 net.cpp:100] Creating Layer conv8
I1020 06:07:15.292629 11175 net.cpp:434] conv8 <- pool4
I1020 06:07:15.292631 11175 net.cpp:408] conv8 -> conv8
I1020 06:07:15.293679 11175 net.cpp:150] Setting up conv8
I1020 06:07:15.293690 11175 net.cpp:157] Top shape: 64 280 1 1 (17920)
I1020 06:07:15.293692 11175 net.cpp:165] Memory required for data: 133761792
I1020 06:07:15.293697 11175 layer_factory.hpp:77] Creating layer relu8
I1020 06:07:15.293702 11175 net.cpp:100] Creating Layer relu8
I1020 06:07:15.293705 11175 net.cpp:434] relu8 <- conv8
I1020 06:07:15.293709 11175 net.cpp:408] relu8 -> relu8
I1020 06:07:15.293855 11175 net.cpp:150] Setting up relu8
I1020 06:07:15.293864 11175 net.cpp:157] Top shape: 64 280 1 1 (17920)
I1020 06:07:15.293867 11175 net.cpp:165] Memory required for data: 133833472
I1020 06:07:15.293869 11175 layer_factory.hpp:77] Creating layer drop5
I1020 06:07:15.293874 11175 net.cpp:100] Creating Layer drop5
I1020 06:07:15.293879 11175 net.cpp:434] drop5 <- relu8
I1020 06:07:15.293884 11175 net.cpp:408] drop5 -> drop5
I1020 06:07:15.293915 11175 net.cpp:150] Setting up drop5
I1020 06:07:15.293920 11175 net.cpp:157] Top shape: 64 280 1 1 (17920)
I1020 06:07:15.293922 11175 net.cpp:165] Memory required for data: 133905152
I1020 06:07:15.293925 11175 layer_factory.hpp:77] Creating layer pool5
I1020 06:07:15.293928 11175 net.cpp:100] Creating Layer pool5
I1020 06:07:15.293931 11175 net.cpp:434] pool5 <- drop5
I1020 06:07:15.293933 11175 net.cpp:408] pool5 -> pool5
I1020 06:07:15.293994 11175 net.cpp:150] Setting up pool5
I1020 06:07:15.293999 11175 net.cpp:157] Top shape: 64 280 1 1 (17920)
I1020 06:07:15.294000 11175 net.cpp:165] Memory required for data: 133976832
I1020 06:07:15.294003 11175 layer_factory.hpp:77] Creating layer conv10
I1020 06:07:15.294008 11175 net.cpp:100] Creating Layer conv10
I1020 06:07:15.294010 11175 net.cpp:434] conv10 <- pool5
I1020 06:07:15.294013 11175 net.cpp:408] conv10 -> conv10
I1020 06:07:15.295953 11175 net.cpp:150] Setting up conv10
I1020 06:07:15.295961 11175 net.cpp:157] Top shape: 64 300 1 1 (19200)
I1020 06:07:15.295964 11175 net.cpp:165] Memory required for data: 134053632
I1020 06:07:15.295971 11175 layer_factory.hpp:77] Creating layer relu10
I1020 06:07:15.295975 11175 net.cpp:100] Creating Layer relu10
I1020 06:07:15.295977 11175 net.cpp:434] relu10 <- conv10
I1020 06:07:15.295981 11175 net.cpp:408] relu10 -> relu10
I1020 06:07:15.296177 11175 net.cpp:150] Setting up relu10
I1020 06:07:15.296185 11175 net.cpp:157] Top shape: 64 300 1 1 (19200)
I1020 06:07:15.296196 11175 net.cpp:165] Memory required for data: 134130432
I1020 06:07:15.296198 11175 layer_factory.hpp:77] Creating layer drop6
I1020 06:07:15.296202 11175 net.cpp:100] Creating Layer drop6
I1020 06:07:15.296203 11175 net.cpp:434] drop6 <- relu10
I1020 06:07:15.296208 11175 net.cpp:408] drop6 -> drop6
I1020 06:07:15.296234 11175 net.cpp:150] Setting up drop6
I1020 06:07:15.296238 11175 net.cpp:157] Top shape: 64 300 1 1 (19200)
I1020 06:07:15.296241 11175 net.cpp:165] Memory required for data: 134207232
I1020 06:07:15.296242 11175 layer_factory.hpp:77] Creating layer pool6
I1020 06:07:15.296246 11175 net.cpp:100] Creating Layer pool6
I1020 06:07:15.296247 11175 net.cpp:434] pool6 <- drop6
I1020 06:07:15.296250 11175 net.cpp:408] pool6 -> pool6
I1020 06:07:15.296272 11175 net.cpp:150] Setting up pool6
I1020 06:07:15.296277 11175 net.cpp:157] Top shape: 64 300 1 1 (19200)
I1020 06:07:15.296279 11175 net.cpp:165] Memory required for data: 134284032
I1020 06:07:15.296280 11175 layer_factory.hpp:77] Creating layer conv11
I1020 06:07:15.296293 11175 net.cpp:100] Creating Layer conv11
I1020 06:07:15.296296 11175 net.cpp:434] conv11 <- pool6
I1020 06:07:15.296299 11175 net.cpp:408] conv11 -> conv11
I1020 06:07:15.297291 11175 net.cpp:150] Setting up conv11
I1020 06:07:15.297300 11175 net.cpp:157] Top shape: 64 100 1 1 (6400)
I1020 06:07:15.297302 11175 net.cpp:165] Memory required for data: 134309632
I1020 06:07:15.297307 11175 layer_factory.hpp:77] Creating layer relu11
I1020 06:07:15.297309 11175 net.cpp:100] Creating Layer relu11
I1020 06:07:15.297312 11175 net.cpp:434] relu11 <- conv11
I1020 06:07:15.297315 11175 net.cpp:408] relu11 -> relu11
I1020 06:07:15.297427 11175 net.cpp:150] Setting up relu11
I1020 06:07:15.297432 11175 net.cpp:157] Top shape: 64 100 1 1 (6400)
I1020 06:07:15.297435 11175 net.cpp:165] Memory required for data: 134335232
I1020 06:07:15.297435 11175 layer_factory.hpp:77] Creating layer drop7
I1020 06:07:15.297438 11175 net.cpp:100] Creating Layer drop7
I1020 06:07:15.297441 11175 net.cpp:434] drop7 <- relu11
I1020 06:07:15.297444 11175 net.cpp:408] drop7 -> drop7
I1020 06:07:15.297468 11175 net.cpp:150] Setting up drop7
I1020 06:07:15.297473 11175 net.cpp:157] Top shape: 64 100 1 1 (6400)
I1020 06:07:15.297475 11175 net.cpp:165] Memory required for data: 134360832
I1020 06:07:15.297477 11175 layer_factory.hpp:77] Creating layer pool7
I1020 06:07:15.297480 11175 net.cpp:100] Creating Layer pool7
I1020 06:07:15.297482 11175 net.cpp:434] pool7 <- drop7
I1020 06:07:15.297484 11175 net.cpp:408] pool7 -> pool7
I1020 06:07:15.297508 11175 net.cpp:150] Setting up pool7
I1020 06:07:15.297511 11175 net.cpp:157] Top shape: 64 100 1 1 (6400)
I1020 06:07:15.297513 11175 net.cpp:165] Memory required for data: 134386432
I1020 06:07:15.297514 11175 layer_factory.hpp:77] Creating layer score
I1020 06:07:15.297519 11175 net.cpp:100] Creating Layer score
I1020 06:07:15.297521 11175 net.cpp:434] score <- pool7
I1020 06:07:15.297523 11175 net.cpp:408] score -> score
I1020 06:07:15.297619 11175 net.cpp:150] Setting up score
I1020 06:07:15.297623 11175 net.cpp:157] Top shape: 64 10 (640)
I1020 06:07:15.297626 11175 net.cpp:165] Memory required for data: 134388992
I1020 06:07:15.297628 11175 layer_factory.hpp:77] Creating layer score_score_0_split
I1020 06:07:15.297632 11175 net.cpp:100] Creating Layer score_score_0_split
I1020 06:07:15.297636 11175 net.cpp:434] score_score_0_split <- score
I1020 06:07:15.297638 11175 net.cpp:408] score_score_0_split -> score_score_0_split_0
I1020 06:07:15.297641 11175 net.cpp:408] score_score_0_split -> score_score_0_split_1
I1020 06:07:15.297664 11175 net.cpp:150] Setting up score_score_0_split
I1020 06:07:15.297668 11175 net.cpp:157] Top shape: 64 10 (640)
I1020 06:07:15.297670 11175 net.cpp:157] Top shape: 64 10 (640)
I1020 06:07:15.297672 11175 net.cpp:165] Memory required for data: 134394112
I1020 06:07:15.297673 11175 layer_factory.hpp:77] Creating layer accuracy
I1020 06:07:15.297677 11175 net.cpp:100] Creating Layer accuracy
I1020 06:07:15.297679 11175 net.cpp:434] accuracy <- score_score_0_split_0
I1020 06:07:15.297689 11175 net.cpp:434] accuracy <- label_data_1_split_0
I1020 06:07:15.297693 11175 net.cpp:408] accuracy -> accuracy
…
I1020 06:07:15.298100 11175 net.cpp:283] Network initialization done.
I1020 06:07:15.298293 11175 solver.cpp:181] Creating test net (#0) specified by test_net file: /home/adam/Honours/Honours-Project/mnist_pooling/max/leakyrelu/poolcnn_leakyrelu_test.prototxt
I1020 06:07:15.298414 11175 net.cpp:58] Initializing net from parameters: 
state {
  phase: TEST
}
layer {
  name: "data"
  type: "Data"
  top: "data"
  top: "label"
  transform_param {
    scale: 0.0039215689
  }
  data_param {
    source: "../../../../data/mnist/mnist_test_lmdb"
    batch_size: 100
    backend: LMDB
  }
}
layer {
  name: "conv1"
  type: "Convolution"
  bottom: "data"
  top: "conv1"
  convolution_param {
    num_output: 192
    kernel_size: 5
    weight_filler {
      type: "xavier"
    }
  }
}
layer {
  name: "relu1"
  type: "ReLU"
  bottom: "conv1"
  top: "relu1"
  relu_param {
    negative_slope: 0.1
  }
}
layer {
  name: "drop1"
  type: "Dropout"
  bottom: "relu1"
  top: "drop1"
  dropout_param {
    dropout_ratio: 0
  }
}
layer {
  name: "pool1"
  type: "Pooling"
  bottom: "drop1"
  top: "pool1"
  pooling_param {
    pool: MAX
    kernel_size: 2
    stride: 2
  }
}
layer {
  name: "conv2"
  type: "Convolution"
  bottom: "pool1"
  top: "conv2"
  convolution_param {
    num_output: 192
    kernel_size: 1
    weight_filler {
      type: "xavier"
    }
  }
}
layer {
  name: "relu2"
  type: "ReLU"
  bottom: "conv2"
  top: "relu2"
  relu_param {
    negative_slope: 0.1
  }
}
layer {
  name: "conv3"
  type: "Convolution"
  bottom: "relu2"
  top: "conv3"
  convolution_param {
    num_output: 240
    kernel_size: 3
    weight_filler {
      type: "xavier"
    }
  }
}
layer {
  name: "relu3"
  type: "ReLU"
  bottom: "conv3"
  top: "relu3"
  relu_param {
    negative_slope: 0.1
  }
}
layer {
  name: "drop2"
  type: "Dropout"
  bottom: "relu3"
  top: "drop2"
  dropout_param {
    dropout_ratio: 0.1
  }
}
layer {
  name: "pool2"
  type: "Pooling"
  bottom: "drop2"
  top: "pool2"
  pooling_param {
    pool: MAX
    kernel_size: 2
    stride: 2
  }
}
layer {
  name: "conv4"
  type: "Convolution"
  bottom: "pool2"
  top: "conv4"
  convolution_param {
    num_output: 240
    kernel_size: 1
    weight_filler {
      type: "xavier"
    }
  }
}
layer {
  name: "relu4"
  type: "ReLU"
  bottom: "conv4"
  top: "relu4"
  relu_param {
    negative_slope: 0.1
  }
}
layer {
  name: "conv5"
  type: "Convolution"
  bottom: "relu4"
  top: "conv5"
  convolution_param {
    num_output: 260
    kernel_size: 2
    weight_filler {
      type: "xavier"
    }
  }
}
layer {
  name: "relu5"
  type: "ReLU"
  bottom: "conv5"
  top: "relu5"
  relu_param {
    negative_slope: 0.1
  }
}
layer {
  name: "drop3"
  type: "Dropout"
  bottom: "relu5"
  top: "drop3"
  dropout_param {
    dropout_ratio: 0.2
  }
}
layer {
  name: "pool3"
  type: "Pooling"
  bottom: "drop3"
  top: "pool3"
  pooling_param {
    pool: MAX
    kernel_size: 2
    stride: 2
  }
}
layer {
  name: "conv6"
  type: "Convolution"
  bottom: "pool3"
  top: "conv6"
  convolution_param {
    num_output: 260
    kernel_size: 1
    weight_filler {
      type: "xavier"
    }
  }
}
layer {
  name: "relu6"
  type: "ReLU"
  bottom: "conv6"
  top: "relu6"
  relu_param {
    negative_slope: 0.1
  }
}
layer {
  name: "conv7"
  type: "Convolution"
  bottom: "relu6"
  top: "conv7"
  convolution_param {
    num_output: 280
    kernel_size: 2
    weight_filler {
      type: "xavier"
    }
  }
}
layer {
  name: "relu7"
  type: "ReLU"
  bottom: "conv7"
  top: "relu7"
  relu_param {
    negative_slope: 0.1
  }
}
layer {
  name: "drop4"
  type: "Dropout"
  bottom: "relu7"
  top: "drop4"
  dropout_param {
    dropout_ratio: 0.3
  }
}
layer {
  name: "pool4"
  type: "Pooling"
  bottom: "drop4"
  top: "pool4"
  pooling_param {
    pool: MAX
    kernel_size: 2
    stride: 2
  }
}
layer {
  name: "conv8"
  type: "Convolution"
  bottom: "pool4"
  top: "conv8"
  convolution_param {
    num_output: 280
    kernel_size: 1
    weight_filler {
      type: "xavier"
    }
  }
}
layer {
  name: "relu8"
  type: "ReLU"
  bottom: "conv8"
  top: "relu8"
  relu_param {
    negative_slope: 0.1
  }
}
layer {
  name: "drop5"
  type: "Dropout"
  bottom: "relu8"
  top: "drop5"
  dropout_param {
    dropout_ratio: 0.4
  }
}
layer {
  name: "pool5"
  type: "Pooling"
  bottom: "drop5"
  top: "pool5"
  pooling_param {
    pool: MAX
    kernel_size: 2
    stride: 2
  }
}
layer {
  name: "conv10"
  type: "Convolution"
  bottom: "pool5"
  top: "conv10"
  convolution_param {
    num_output: 300
    kernel_size: 1
    weight_filler {
      type: "xavier"
    }
  }
}
layer {
  name: "relu10"
  type: "ReLU"
  bottom: "conv10"
  top: "relu10"
  relu_param {
    negative_slope: 0.1
  }
}
layer {
  name: "drop6"
  type: "Dropout"
  bottom: "relu10"
  top: "drop6"
  dropout_param {
    dropout_ratio: 0.5
  }
}
layer {
  name: "pool6"
  type: "Pooling"
  bottom: "drop6"
  top: "pool6"
  pooling_param {
    pool: MAX
    kernel_size: 2
    stride: 2
  }
}
layer {
  name: "conv11"
  type: "Convolution"
  bottom: "pool6"
  top: "conv11"
  convolution_param {
    num_output: 100
    kernel_size: 1
    weight_filler {
      type: "xavier"
    }
  }
}
layer {
  name: "relu11"
  type: "ReLU"
  bottom: "conv11"
  top: "relu11"
  relu_param {
    negative_slope: 0.1
  }
}
layer {
  name: "drop7"
  type: "Dropout"
  bottom: "relu11"
  top: "drop7"
  dropout_param {
    dropout_ratio: 0
  }
}
layer {
  name: "pool7"
  type: "Pooling"
  bottom: "drop7"
  top: "pool7"
  pooling_param {
    pool: MAX
    kernel_size: 2
    stride: 2
  }
}
layer {
  name: "score"
  type: "InnerProduct"
  bottom: "pool7"
  top: "score"
  inner_product_param {
    num_output: 10
    weight_filler {
      type: "gaussian"
    }
  }
}
layer {
  name: "accuracy"
  type: "Accuracy"
  bottom: "score"
  bottom: "label"
  top: "accuracy"
}
layer {
  name: "loss"
  type: "SoftmaxWithLoss"
  bottom: "score"
  bottom: "label"
  top: "loss"
}
I1020 06:07:15.298490 11175 layer_factory.hpp:77] Creating layer data
I1020 06:07:15.298564 11175 net.cpp:100] Creating Layer data
I1020 06:07:15.298571 11175 net.cpp:408] data -> data
I1020 06:07:15.298575 11175 net.cpp:408] data -> label
I1020 06:07:15.299116 11183 db_lmdb.cpp:35] Opened lmdb ../../../../data/mnist/mnist_test_lmdb
I1020 06:07:15.299226 11175 data_layer.cpp:41] output data size: 100,1,28,28
I1020 06:07:15.299962 11175 net.cpp:150] Setting up data
I1020 06:07:15.299971 11175 net.cpp:157] Top shape: 100 1 28 28 (78400)
I1020 06:07:15.299974 11175 net.cpp:157] Top shape: 100 (100)
I1020 06:07:15.299975 11175 net.cpp:165] Memory required for data: 314000
I1020 06:07:15.299978 11175 layer_factory.hpp:77] Creating layer label_data_1_split
I1020 06:07:15.299983 11175 net.cpp:100] Creating Layer label_data_1_split
I1020 06:07:15.299985 11175 net.cpp:434] label_data_1_split <- label
I1020 06:07:15.299988 11175 net.cpp:408] label_data_1_split -> label_data_1_split_0
I1020 06:07:15.299994 11175 net.cpp:408] label_data_1_split -> label_data_1_split_1
I1020 06:07:15.300068 11175 net.cpp:150] Setting up label_data_1_split
I1020 06:07:15.300078 11175 net.cpp:157] Top shape: 100 (100)
I1020 06:07:15.300083 11175 net.cpp:157] Top shape: 100 (100)
I1020 06:07:15.300086 11175 net.cpp:165] Memory required for data: 314800
I1020 06:07:15.300089 11175 layer_factory.hpp:77] Creating layer conv1
I1020 06:07:15.300099 11175 net.cpp:100] Creating Layer conv1
I1020 06:07:15.300102 11175 net.cpp:434] conv1 <- data
I1020 06:07:15.300107 11175 net.cpp:408] conv1 -> conv1
I1020 06:07:15.301102 11175 net.cpp:150] Setting up conv1
I1020 06:07:15.301115 11175 net.cpp:157] Top shape: 100 192 24 24 (11059200)
I1020 06:07:15.301117 11175 net.cpp:165] Memory required for data: 44551600
I1020 06:07:15.301126 11175 layer_factory.hpp:77] Creating layer relu1
I1020 06:07:15.301132 11175 net.cpp:100] Creating Layer relu1
I1020 06:07:15.301136 11175 net.cpp:434] relu1 <- conv1
I1020 06:07:15.301141 11175 net.cpp:408] relu1 -> relu1
I1020 06:07:15.301321 11175 net.cpp:150] Setting up relu1
I1020 06:07:15.301328 11175 net.cpp:157] Top shape: 100 192 24 24 (11059200)
I1020 06:07:15.301342 11175 net.cpp:165] Memory required for data: 88788400
I1020 06:07:15.301345 11175 layer_factory.hpp:77] Creating layer drop1
I1020 06:07:15.301353 11175 net.cpp:100] Creating Layer drop1
I1020 06:07:15.301357 11175 net.cpp:434] drop1 <- relu1
I1020 06:07:15.301362 11175 net.cpp:408] drop1 -> drop1
I1020 06:07:15.301405 11175 net.cpp:150] Setting up drop1
I1020 06:07:15.301412 11175 net.cpp:157] Top shape: 100 192 24 24 (11059200)
I1020 06:07:15.301415 11175 net.cpp:165] Memory required for data: 133025200
I1020 06:07:15.301419 11175 layer_factory.hpp:77] Creating layer pool1
I1020 06:07:15.301425 11175 net.cpp:100] Creating Layer pool1
I1020 06:07:15.301429 11175 net.cpp:434] pool1 <- drop1
I1020 06:07:15.301434 11175 net.cpp:408] pool1 -> pool1
I1020 06:07:15.301472 11175 net.cpp:150] Setting up pool1
I1020 06:07:15.301478 11175 net.cpp:157] Top shape: 100 192 12 12 (2764800)
I1020 06:07:15.301482 11175 net.cpp:165] Memory required for data: 144084400
I1020 06:07:15.301486 11175 layer_factory.hpp:77] Creating layer conv2
I1020 06:07:15.301492 11175 net.cpp:100] Creating Layer conv2
I1020 06:07:15.301496 11175 net.cpp:434] conv2 <- pool1
I1020 06:07:15.301501 11175 net.cpp:408] conv2 -> conv2
I1020 06:07:15.302661 11175 net.cpp:150] Setting up conv2
I1020 06:07:15.302670 11175 net.cpp:157] Top shape: 100 192 12 12 (2764800)
I1020 06:07:15.302675 11175 net.cpp:165] Memory required for data: 155143600
I1020 06:07:15.302683 11175 layer_factory.hpp:77] Creating layer relu2
I1020 06:07:15.302690 11175 net.cpp:100] Creating Layer relu2
I1020 06:07:15.302693 11175 net.cpp:434] relu2 <- conv2
I1020 06:07:15.302698 11175 net.cpp:408] relu2 -> relu2
I1020 06:07:15.302853 11175 net.cpp:150] Setting up relu2
I1020 06:07:15.302860 11175 net.cpp:157] Top shape: 100 192 12 12 (2764800)
I1020 06:07:15.302861 11175 net.cpp:165] Memory required for data: 166202800
I1020 06:07:15.302863 11175 layer_factory.hpp:77] Creating layer conv3
I1020 06:07:15.302870 11175 net.cpp:100] Creating Layer conv3
I1020 06:07:15.302872 11175 net.cpp:434] conv3 <- relu2
I1020 06:07:15.302875 11175 net.cpp:408] conv3 -> conv3
I1020 06:07:15.305361 11175 net.cpp:150] Setting up conv3
I1020 06:07:15.305371 11175 net.cpp:157] Top shape: 100 240 10 10 (2400000)
I1020 06:07:15.305372 11175 net.cpp:165] Memory required for data: 175802800
I1020 06:07:15.305377 11175 layer_factory.hpp:77] Creating layer relu3
I1020 06:07:15.305382 11175 net.cpp:100] Creating Layer relu3
I1020 06:07:15.305383 11175 net.cpp:434] relu3 <- conv3
I1020 06:07:15.305387 11175 net.cpp:408] relu3 -> relu3
I1020 06:07:15.305582 11175 net.cpp:150] Setting up relu3
I1020 06:07:15.305588 11175 net.cpp:157] Top shape: 100 240 10 10 (2400000)
I1020 06:07:15.305590 11175 net.cpp:165] Memory required for data: 185402800
I1020 06:07:15.305593 11175 layer_factory.hpp:77] Creating layer drop2
I1020 06:07:15.305596 11175 net.cpp:100] Creating Layer drop2
I1020 06:07:15.305598 11175 net.cpp:434] drop2 <- relu3
I1020 06:07:15.305601 11175 net.cpp:408] drop2 -> drop2
I1020 06:07:15.305626 11175 net.cpp:150] Setting up drop2
I1020 06:07:15.305630 11175 net.cpp:157] Top shape: 100 240 10 10 (2400000)
I1020 06:07:15.305632 11175 net.cpp:165] Memory required for data: 195002800
I1020 06:07:15.305634 11175 layer_factory.hpp:77] Creating layer pool2
I1020 06:07:15.305636 11175 net.cpp:100] Creating Layer pool2
I1020 06:07:15.305639 11175 net.cpp:434] pool2 <- drop2
I1020 06:07:15.305642 11175 net.cpp:408] pool2 -> pool2
I1020 06:07:15.305666 11175 net.cpp:150] Setting up pool2
I1020 06:07:15.305670 11175 net.cpp:157] Top shape: 100 240 5 5 (600000)
I1020 06:07:15.305671 11175 net.cpp:165] Memory required for data: 197402800
I1020 06:07:15.305673 11175 layer_factory.hpp:77] Creating layer conv4
I1020 06:07:15.305678 11175 net.cpp:100] Creating Layer conv4
I1020 06:07:15.305680 11175 net.cpp:434] conv4 <- pool2
I1020 06:07:15.305683 11175 net.cpp:408] conv4 -> conv4
I1020 06:07:15.306524 11175 net.cpp:150] Setting up conv4
I1020 06:07:15.306540 11175 net.cpp:157] Top shape: 100 240 5 5 (600000)
I1020 06:07:15.306542 11175 net.cpp:165] Memory required for data: 199802800
I1020 06:07:15.306545 11175 layer_factory.hpp:77] Creating layer relu4
I1020 06:07:15.306550 11175 net.cpp:100] Creating Layer relu4
I1020 06:07:15.306552 11175 net.cpp:434] relu4 <- conv4
I1020 06:07:15.306557 11175 net.cpp:408] relu4 -> relu4
I1020 06:07:15.306677 11175 net.cpp:150] Setting up relu4
I1020 06:07:15.306684 11175 net.cpp:157] Top shape: 100 240 5 5 (600000)
I1020 06:07:15.306686 11175 net.cpp:165] Memory required for data: 202202800
I1020 06:07:15.306689 11175 layer_factory.hpp:77] Creating layer conv5
I1020 06:07:15.306694 11175 net.cpp:100] Creating Layer conv5
I1020 06:07:15.306696 11175 net.cpp:434] conv5 <- relu4
I1020 06:07:15.306699 11175 net.cpp:408] conv5 -> conv5
I1020 06:07:15.308591 11175 net.cpp:150] Setting up conv5
I1020 06:07:15.308600 11175 net.cpp:157] Top shape: 100 260 4 4 (416000)
I1020 06:07:15.308601 11175 net.cpp:165] Memory required for data: 203866800
I1020 06:07:15.308609 11175 layer_factory.hpp:77] Creating layer relu5
I1020 06:07:15.308614 11175 net.cpp:100] Creating Layer relu5
I1020 06:07:15.308615 11175 net.cpp:434] relu5 <- conv5
I1020 06:07:15.308619 11175 net.cpp:408] relu5 -> relu5
I1020 06:07:15.308737 11175 net.cpp:150] Setting up relu5
I1020 06:07:15.308745 11175 net.cpp:157] Top shape: 100 260 4 4 (416000)
I1020 06:07:15.308748 11175 net.cpp:165] Memory required for data: 205530800
I1020 06:07:15.308749 11175 layer_factory.hpp:77] Creating layer drop3
I1020 06:07:15.308754 11175 net.cpp:100] Creating Layer drop3
I1020 06:07:15.308758 11175 net.cpp:434] drop3 <- relu5
I1020 06:07:15.308759 11175 net.cpp:408] drop3 -> drop3
I1020 06:07:15.308784 11175 net.cpp:150] Setting up drop3
I1020 06:07:15.308789 11175 net.cpp:157] Top shape: 100 260 4 4 (416000)
I1020 06:07:15.308790 11175 net.cpp:165] Memory required for data: 207194800
I1020 06:07:15.308792 11175 layer_factory.hpp:77] Creating layer pool3
I1020 06:07:15.308795 11175 net.cpp:100] Creating Layer pool3
I1020 06:07:15.308796 11175 net.cpp:434] pool3 <- drop3
I1020 06:07:15.308800 11175 net.cpp:408] pool3 -> pool3
I1020 06:07:15.308823 11175 net.cpp:150] Setting up pool3
I1020 06:07:15.308827 11175 net.cpp:157] Top shape: 100 260 2 2 (104000)
I1020 06:07:15.308828 11175 net.cpp:165] Memory required for data: 207610800
I1020 06:07:15.308830 11175 layer_factory.hpp:77] Creating layer conv6
I1020 06:07:15.308835 11175 net.cpp:100] Creating Layer conv6
I1020 06:07:15.308837 11175 net.cpp:434] conv6 <- pool3
I1020 06:07:15.308841 11175 net.cpp:408] conv6 -> conv6
I1020 06:07:15.309978 11175 net.cpp:150] Setting up conv6
I1020 06:07:15.309986 11175 net.cpp:157] Top shape: 100 260 2 2 (104000)
I1020 06:07:15.309988 11175 net.cpp:165] Memory required for data: 208026800
I1020 06:07:15.309991 11175 layer_factory.hpp:77] Creating layer relu6
I1020 06:07:15.309996 11175 net.cpp:100] Creating Layer relu6
I1020 06:07:15.309998 11175 net.cpp:434] relu6 <- conv6
I1020 06:07:15.310001 11175 net.cpp:408] relu6 -> relu6
I1020 06:07:15.310199 11175 net.cpp:150] Setting up relu6
I1020 06:07:15.310205 11175 net.cpp:157] Top shape: 100 260 2 2 (104000)
I1020 06:07:15.310207 11175 net.cpp:165] Memory required for data: 208442800
I1020 06:07:15.310209 11175 layer_factory.hpp:77] Creating layer conv7
I1020 06:07:15.310214 11175 net.cpp:100] Creating Layer conv7
I1020 06:07:15.310217 11175 net.cpp:434] conv7 <- relu6
I1020 06:07:15.310221 11175 net.cpp:408] conv7 -> conv7
I1020 06:07:15.312679 11175 net.cpp:150] Setting up conv7
I1020 06:07:15.312690 11175 net.cpp:157] Top shape: 100 280 1 1 (28000)
I1020 06:07:15.312690 11175 net.cpp:165] Memory required for data: 208554800
I1020 06:07:15.312695 11175 layer_factory.hpp:77] Creating layer relu7
I1020 06:07:15.312698 11175 net.cpp:100] Creating Layer relu7
I1020 06:07:15.312700 11175 net.cpp:434] relu7 <- conv7
I1020 06:07:15.312705 11175 net.cpp:408] relu7 -> relu7
I1020 06:07:15.312825 11175 net.cpp:150] Setting up relu7
I1020 06:07:15.312830 11175 net.cpp:157] Top shape: 100 280 1 1 (28000)
I1020 06:07:15.312842 11175 net.cpp:165] Memory required for data: 208666800
I1020 06:07:15.312844 11175 layer_factory.hpp:77] Creating layer drop4
I1020 06:07:15.312849 11175 net.cpp:100] Creating Layer drop4
I1020 06:07:15.312851 11175 net.cpp:434] drop4 <- relu7
I1020 06:07:15.312855 11175 net.cpp:408] drop4 -> drop4
I1020 06:07:15.312881 11175 net.cpp:150] Setting up drop4
I1020 06:07:15.312885 11175 net.cpp:157] Top shape: 100 280 1 1 (28000)
I1020 06:07:15.312887 11175 net.cpp:165] Memory required for data: 208778800
I1020 06:07:15.312888 11175 layer_factory.hpp:77] Creating layer pool4
I1020 06:07:15.312891 11175 net.cpp:100] Creating Layer pool4
I1020 06:07:15.312893 11175 net.cpp:434] pool4 <- drop4
I1020 06:07:15.312896 11175 net.cpp:408] pool4 -> pool4
I1020 06:07:15.312921 11175 net.cpp:150] Setting up pool4
I1020 06:07:15.312927 11175 net.cpp:157] Top shape: 100 280 1 1 (28000)
I1020 06:07:15.312928 11175 net.cpp:165] Memory required for data: 208890800
I1020 06:07:15.312929 11175 layer_factory.hpp:77] Creating layer conv8
I1020 06:07:15.312934 11175 net.cpp:100] Creating Layer conv8
I1020 06:07:15.312937 11175 net.cpp:434] conv8 <- pool4
I1020 06:07:15.312939 11175 net.cpp:408] conv8 -> conv8
I1020 06:07:15.314321 11175 net.cpp:150] Setting up conv8
I1020 06:07:15.314329 11175 net.cpp:157] Top shape: 100 280 1 1 (28000)
I1020 06:07:15.314330 11175 net.cpp:165] Memory required for data: 209002800
I1020 06:07:15.314334 11175 layer_factory.hpp:77] Creating layer relu8
I1020 06:07:15.314337 11175 net.cpp:100] Creating Layer relu8
I1020 06:07:15.314339 11175 net.cpp:434] relu8 <- conv8
I1020 06:07:15.314342 11175 net.cpp:408] relu8 -> relu8
I1020 06:07:15.314461 11175 net.cpp:150] Setting up relu8
I1020 06:07:15.314466 11175 net.cpp:157] Top shape: 100 280 1 1 (28000)
I1020 06:07:15.314468 11175 net.cpp:165] Memory required for data: 209114800
I1020 06:07:15.314471 11175 layer_factory.hpp:77] Creating layer drop5
I1020 06:07:15.314474 11175 net.cpp:100] Creating Layer drop5
I1020 06:07:15.314476 11175 net.cpp:434] drop5 <- relu8
I1020 06:07:15.314478 11175 net.cpp:408] drop5 -> drop5
I1020 06:07:15.314504 11175 net.cpp:150] Setting up drop5
I1020 06:07:15.314509 11175 net.cpp:157] Top shape: 100 280 1 1 (28000)
I1020 06:07:15.314510 11175 net.cpp:165] Memory required for data: 209226800
I1020 06:07:15.314512 11175 layer_factory.hpp:77] Creating layer pool5
I1020 06:07:15.314514 11175 net.cpp:100] Creating Layer pool5
I1020 06:07:15.314517 11175 net.cpp:434] pool5 <- drop5
I1020 06:07:15.314520 11175 net.cpp:408] pool5 -> pool5
I1020 06:07:15.314543 11175 net.cpp:150] Setting up pool5
I1020 06:07:15.314546 11175 net.cpp:157] Top shape: 100 280 1 1 (28000)
I1020 06:07:15.314548 11175 net.cpp:165] Memory required for data: 209338800
I1020 06:07:15.314550 11175 layer_factory.hpp:77] Creating layer conv10
I1020 06:07:15.314554 11175 net.cpp:100] Creating Layer conv10
I1020 06:07:15.314556 11175 net.cpp:434] conv10 <- pool5
I1020 06:07:15.314559 11175 net.cpp:408] conv10 -> conv10
I1020 06:07:15.315515 11175 net.cpp:150] Setting up conv10
I1020 06:07:15.315523 11175 net.cpp:157] Top shape: 100 300 1 1 (30000)
I1020 06:07:15.315524 11175 net.cpp:165] Memory required for data: 209458800
I1020 06:07:15.315531 11175 layer_factory.hpp:77] Creating layer relu10
I1020 06:07:15.315536 11175 net.cpp:100] Creating Layer relu10
I1020 06:07:15.315537 11175 net.cpp:434] relu10 <- conv10
I1020 06:07:15.315541 11175 net.cpp:408] relu10 -> relu10
I1020 06:07:15.315735 11175 net.cpp:150] Setting up relu10
I1020 06:07:15.315742 11175 net.cpp:157] Top shape: 100 300 1 1 (30000)
I1020 06:07:15.315743 11175 net.cpp:165] Memory required for data: 209578800
I1020 06:07:15.315745 11175 layer_factory.hpp:77] Creating layer drop6
I1020 06:07:15.315750 11175 net.cpp:100] Creating Layer drop6
I1020 06:07:15.315752 11175 net.cpp:434] drop6 <- relu10
I1020 06:07:15.315754 11175 net.cpp:408] drop6 -> drop6
I1020 06:07:15.315783 11175 net.cpp:150] Setting up drop6
I1020 06:07:15.315788 11175 net.cpp:157] Top shape: 100 300 1 1 (30000)
I1020 06:07:15.315798 11175 net.cpp:165] Memory required for data: 209698800
I1020 06:07:15.315799 11175 layer_factory.hpp:77] Creating layer pool6
I1020 06:07:15.315803 11175 net.cpp:100] Creating Layer pool6
I1020 06:07:15.315805 11175 net.cpp:434] pool6 <- drop6
I1020 06:07:15.315809 11175 net.cpp:408] pool6 -> pool6
I1020 06:07:15.315834 11175 net.cpp:150] Setting up pool6
I1020 06:07:15.315839 11175 net.cpp:157] Top shape: 100 300 1 1 (30000)
I1020 06:07:15.315840 11175 net.cpp:165] Memory required for data: 209818800
I1020 06:07:15.315842 11175 layer_factory.hpp:77] Creating layer conv11
I1020 06:07:15.315850 11175 net.cpp:100] Creating Layer conv11
I1020 06:07:15.315860 11175 net.cpp:434] conv11 <- pool6
I1020 06:07:15.315862 11175 net.cpp:408] conv11 -> conv11
I1020 06:07:15.316643 11175 net.cpp:150] Setting up conv11
I1020 06:07:15.316651 11175 net.cpp:157] Top shape: 100 100 1 1 (10000)
I1020 06:07:15.316653 11175 net.cpp:165] Memory required for data: 209858800
I1020 06:07:15.316658 11175 layer_factory.hpp:77] Creating layer relu11
I1020 06:07:15.316663 11175 net.cpp:100] Creating Layer relu11
I1020 06:07:15.316664 11175 net.cpp:434] relu11 <- conv11
I1020 06:07:15.316668 11175 net.cpp:408] relu11 -> relu11
I1020 06:07:15.316783 11175 net.cpp:150] Setting up relu11
I1020 06:07:15.316789 11175 net.cpp:157] Top shape: 100 100 1 1 (10000)
I1020 06:07:15.316790 11175 net.cpp:165] Memory required for data: 209898800
I1020 06:07:15.316792 11175 layer_factory.hpp:77] Creating layer drop7
I1020 06:07:15.316795 11175 net.cpp:100] Creating Layer drop7
I1020 06:07:15.316797 11175 net.cpp:434] drop7 <- relu11
I1020 06:07:15.316800 11175 net.cpp:408] drop7 -> drop7
I1020 06:07:15.316825 11175 net.cpp:150] Setting up drop7
I1020 06:07:15.316829 11175 net.cpp:157] Top shape: 100 100 1 1 (10000)
I1020 06:07:15.316831 11175 net.cpp:165] Memory required for data: 209938800
I1020 06:07:15.316833 11175 layer_factory.hpp:77] Creating layer pool7
I1020 06:07:15.316836 11175 net.cpp:100] Creating Layer pool7
I1020 06:07:15.316839 11175 net.cpp:434] pool7 <- drop7
I1020 06:07:15.316841 11175 net.cpp:408] pool7 -> pool7
I1020 06:07:15.316866 11175 net.cpp:150] Setting up pool7
I1020 06:07:15.316869 11175 net.cpp:157] Top shape: 100 100 1 1 (10000)
I1020 06:07:15.316871 11175 net.cpp:165] Memory required for data: 209978800
I1020 06:07:15.316874 11175 layer_factory.hpp:77] Creating layer score
I1020 06:07:15.316876 11175 net.cpp:100] Creating Layer score
I1020 06:07:15.316879 11175 net.cpp:434] score <- pool7
I1020 06:07:15.316881 11175 net.cpp:408] score -> score
I1020 06:07:15.316964 11175 net.cpp:150] Setting up score
I1020 06:07:15.316968 11175 net.cpp:157] Top shape: 100 10 (1000)
I1020 06:07:15.316970 11175 net.cpp:165] Memory required for data: 209982800
I1020 06:07:15.316973 11175 layer_factory.hpp:77] Creating layer score_score_0_split
I1020 06:07:15.316977 11175 net.cpp:100] Creating Layer score_score_0_split
I1020 06:07:15.316979 11175 net.cpp:434] score_score_0_split <- score
I1020 06:07:15.316982 11175 net.cpp:408] score_score_0_split -> score_score_0_split_0
I1020 06:07:15.316987 11175 net.cpp:408] score_score_0_split -> score_score_0_split_1
I1020 06:07:15.317013 11175 net.cpp:150] Setting up score_score_0_split
I1020 06:07:15.317016 11175 net.cpp:157] Top shape: 100 10 (1000)
I1020 06:07:15.317018 11175 net.cpp:157] Top shape: 100 10 (1000)
I1020 06:07:15.317020 11175 net.cpp:165] Memory required for data: 209990800
I1020 06:07:15.317021 11175 layer_factory.hpp:77] Creating layer accuracy
I1020 06:07:15.317025 11175 net.cpp:100] Creating Layer accuracy
I1020 06:07:15.317028 11175 net.cpp:434] accuracy <- score_score_0_split_0
I1020 06:07:15.317030 11175 net.cpp:434] accuracy <- label_data_1_split_0
I1020 06:07:15.317035 11175 net.cpp:408] accuracy -> accuracy
…
