…
  level: 0
  stage: ""
}
type: "Nesterov"
I1020 04:48:20.442903 10803 solver.cpp:81] Creating training net from train_net file: /home/adam/Honours/Honours-Project/mnist_pooling/max/elu/poolcnn_elu_train.prototxt
I1020 04:48:20.443192 10803 net.cpp:58] Initializing net from parameters: 
state {
  phase: TRAIN
  level: 0
  stage: ""
}
layer {
  name: "data"
  type: "Data"
  top: "data"
  top: "label"
  transform_param {
    scale: 0.0039215689
  }
  data_param {
    source: "../../../../data/mnist/mnist_train_lmdb"
    batch_size: 64
    backend: LMDB
  }
}
layer {
  name: "conv1"
  type: "Convolution"
  bottom: "data"
  top: "conv1"
  convolution_param {
    num_output: 192
    kernel_size: 5
    weight_filler {
      type: "xavier"
    }
  }
}
layer {
  name: "elu1"
  type: "ELU"
  bottom: "conv1"
  top: "elu1"
}
layer {
  name: "drop1"
  type: "Dropout"
  bottom: "elu1"
  top: "drop1"
  dropout_param {
    dropout_ratio: 0
  }
}
layer {
  name: "pool1"
  type: "Pooling"
  bottom: "drop1"
  top: "pool1"
  pooling_param {
    pool: MAX
    kernel_size: 2
    stride: 2
  }
}
layer {
  name: "conv2"
  type: "Convolution"
  bottom: "pool1"
  top: "conv2"
  convolution_param {
    num_output: 192
    kernel_size: 1
    weight_filler {
      type: "xavier"
    }
  }
}
layer {
  name: "elu2"
  type: "ELU"
  bottom: "conv2"
  top: "elu2"
}
layer {
  name: "conv3"
  type: "Convolution"
  bottom: "elu2"
  top: "conv3"
  convolution_param {
    num_output: 240
    kernel_size: 3
    weight_filler {
      type: "xavier"
    }
  }
}
layer {
  name: "elu3"
  type: "ELU"
  bottom: "conv3"
  top: "elu3"
}
layer {
  name: "drop2"
  type: "Dropout"
  bottom: "elu3"
  top: "drop2"
  dropout_param {
    dropout_ratio: 0.1
  }
}
layer {
  name: "pool2"
  type: "Pooling"
  bottom: "drop2"
  top: "pool2"
  pooling_param {
    pool: MAX
    kernel_size: 2
    stride: 2
  }
}
layer {
  name: "conv4"
  type: "Convolution"
  bottom: "pool2"
  top: "conv4"
  convolution_param {
    num_output: 240
    kernel_size: 1
    weight_filler {
      type: "xavier"
    }
  }
}
layer {
  name: "elu4"
  type: "ELU"
  bottom: "conv4"
  top: "elu4"
}
layer {
  name: "conv5"
  type: "Convolution"
  bottom: "elu4"
  top: "conv5"
  convolution_param {
    num_output: 260
    kernel_size: 2
    weight_filler {
      type: "xavier"
    }
  }
}
layer {
  name: "elu5"
  type: "ELU"
  bottom: "conv5"
  top: "elu5"
}
layer {
  name: "drop3"
  type: "Dropout"
  bottom: "elu5"
  top: "drop3"
  dropout_param {
    dropout_ratio: 0.2
  }
}
layer {
  name: "pool3"
  type: "Pooling"
  bottom: "drop3"
  top: "pool3"
  pooling_param {
    pool: MAX
    kernel_size: 2
    stride: 2
  }
}
layer {
  name: "conv6"
  type: "Convolution"
  bottom: "pool3"
  top: "conv6"
  convolution_param {
    num_output: 260
    kernel_size: 1
    weight_filler {
      type: "xavier"
    }
  }
}
layer {
  name: "elu6"
  type: "ELU"
  bottom: "conv6"
  top: "elu6"
}
layer {
  name: "conv7"
  type: "Convolution"
  bottom: "elu6"
  top: "conv7"
  convolution_param {
    num_output: 280
    kernel_size: 2
    weight_filler {
      type: "xavier"
    }
  }
}
layer {
  name: "elu7"
  type: "ELU"
  bottom: "conv7"
  top: "elu7"
}
layer {
  name: "drop4"
  type: "Dropout"
  bottom: "elu7"
  top: "drop4"
  dropout_param {
    dropout_ratio: 0.3
  }
}
layer {
  name: "pool4"
  type: "Pooling"
  bottom: "drop4"
  top: "pool4"
  pooling_param {
    pool: MAX
    kernel_size: 2
    stride: 2
  }
}
layer {
  name: "conv8"
  type: "Convolution"
  bottom: "pool4"
  top: "conv8"
  convolution_param {
    num_output: 280
    kernel_size: 1
    weight_filler {
      type: "xavier"
    }
  }
}
layer {
  name: "elu8"
  type: "ELU"
  bottom: "conv8"
  top: "elu8"
}
layer {
  name: "drop5"
  type: "Dropout"
  bottom: "elu8"
  top: "drop5"
  dropout_param {
    dropout_ratio: 0.4
  }
}
layer {
  name: "pool5"
  type: "Pooling"
  bottom: "drop5"
  top: "pool5"
  pooling_param {
    pool: MAX
    kernel_size: 2
    stride: 2
  }
}
layer {
  name: "conv10"
  type: "Convolution"
  bottom: "pool5"
  top: "conv10"
  convolution_param {
    num_output: 300
    kernel_size: 1
    weight_filler {
      type: "xavier"
    }
  }
}
layer {
  name: "elu10"
  type: "ELU"
  bottom: "conv10"
  top: "elu10"
}
layer {
  name: "drop6"
  type: "Dropout"
  bottom: "elu10"
  top: "drop6"
  dropout_param {
    dropout_ratio: 0.5
  }
}
layer {
  name: "pool6"
  type: "Pooling"
  bottom: "drop6"
  top: "pool6"
  pooling_param {
    pool: MAX
    kernel_size: 2
    stride: 2
  }
}
layer {
  name: "conv11"
  type: "Convolution"
  bottom: "pool6"
  top: "conv11"
  convolution_param {
    num_output: 100
    kernel_size: 1
    weight_filler {
      type: "xavier"
    }
  }
}
layer {
  name: "elu11"
  type: "ELU"
  bottom: "conv11"
  top: "elu11"
}
layer {
  name: "drop7"
  type: "Dropout"
  bottom: "elu11"
  top: "drop7"
  dropout_param {
    dropout_ratio: 0
  }
}
layer {
  name: "pool7"
  type: "Pooling"
  bottom: "drop7"
  top: "pool7"
  pooling_param {
    pool: MAX
    kernel_size: 2
    stride: 2
  }
}
layer {
  name: "score"
  type: "InnerProduct"
  bottom: "pool7"
  top: "score"
  inner_product_param {
    num_output: 10
    weight_filler {
      type: "gaussian"
    }
  }
}
layer {
  name: "accuracy"
  type: "Accuracy"
  bottom: "score"
  bottom: "label"
  top: "accuracy"
}
layer {
  name: "loss"
  type: "SoftmaxWithLoss"
  bottom: "score"
  bottom: "label"
  top: "loss"
}
I1020 04:48:20.443295 10803 layer_factory.hpp:77] Creating layer data
I1020 04:48:20.443771 10803 net.cpp:100] Creating Layer data
I1020 04:48:20.443778 10803 net.cpp:408] data -> data
I1020 04:48:20.443794 10803 net.cpp:408] data -> label
I1020 04:48:20.444399 10808 db_lmdb.cpp:35] Opened lmdb ../../../../data/mnist/mnist_train_lmdb
I1020 04:48:20.450129 10803 data_layer.cpp:41] output data size: 64,1,28,28
I1020 04:48:20.450700 10803 net.cpp:150] Setting up data
I1020 04:48:20.450711 10803 net.cpp:157] Top shape: 64 1 28 28 (50176)
I1020 04:48:20.450713 10803 net.cpp:157] Top shape: 64 (64)
I1020 04:48:20.450716 10803 net.cpp:165] Memory required for data: 200960
I1020 04:48:20.450723 10803 layer_factory.hpp:77] Creating layer label_data_1_split
I1020 04:48:20.450732 10803 net.cpp:100] Creating Layer label_data_1_split
I1020 04:48:20.450737 10803 net.cpp:434] label_data_1_split <- label
I1020 04:48:20.450747 10803 net.cpp:408] label_data_1_split -> label_data_1_split_0
I1020 04:48:20.450754 10803 net.cpp:408] label_data_1_split -> label_data_1_split_1
I1020 04:48:20.450778 10803 net.cpp:150] Setting up label_data_1_split
I1020 04:48:20.450783 10803 net.cpp:157] Top shape: 64 (64)
I1020 04:48:20.450785 10803 net.cpp:157] Top shape: 64 (64)
I1020 04:48:20.450786 10803 net.cpp:165] Memory required for data: 201472
I1020 04:48:20.450788 10803 layer_factory.hpp:77] Creating layer conv1
I1020 04:48:20.450800 10803 net.cpp:100] Creating Layer conv1
I1020 04:48:20.450803 10803 net.cpp:434] conv1 <- data
I1020 04:48:20.450805 10803 net.cpp:408] conv1 -> conv1
I1020 04:48:20.573928 10803 net.cpp:150] Setting up conv1
I1020 04:48:20.573956 10803 net.cpp:157] Top shape: 64 192 24 24 (7077888)
I1020 04:48:20.573957 10803 net.cpp:165] Memory required for data: 28513024
I1020 04:48:20.573976 10803 layer_factory.hpp:77] Creating layer elu1
I1020 04:48:20.573983 10803 net.cpp:100] Creating Layer elu1
I1020 04:48:20.573987 10803 net.cpp:434] elu1 <- conv1
I1020 04:48:20.573990 10803 net.cpp:408] elu1 -> elu1
I1020 04:48:20.574009 10803 net.cpp:150] Setting up elu1
I1020 04:48:20.574014 10803 net.cpp:157] Top shape: 64 192 24 24 (7077888)
I1020 04:48:20.574028 10803 net.cpp:165] Memory required for data: 56824576
I1020 04:48:20.574030 10803 layer_factory.hpp:77] Creating layer drop1
I1020 04:48:20.574036 10803 net.cpp:100] Creating Layer drop1
I1020 04:48:20.574038 10803 net.cpp:434] drop1 <- elu1
I1020 04:48:20.574041 10803 net.cpp:408] drop1 -> drop1
I1020 04:48:20.574065 10803 net.cpp:150] Setting up drop1
I1020 04:48:20.574069 10803 net.cpp:157] Top shape: 64 192 24 24 (7077888)
I1020 04:48:20.574070 10803 net.cpp:165] Memory required for data: 85136128
I1020 04:48:20.574072 10803 layer_factory.hpp:77] Creating layer pool1
I1020 04:48:20.574076 10803 net.cpp:100] Creating Layer pool1
I1020 04:48:20.574079 10803 net.cpp:434] pool1 <- drop1
I1020 04:48:20.574082 10803 net.cpp:408] pool1 -> pool1
I1020 04:48:20.574110 10803 net.cpp:150] Setting up pool1
I1020 04:48:20.574113 10803 net.cpp:157] Top shape: 64 192 12 12 (1769472)
I1020 04:48:20.574115 10803 net.cpp:165] Memory required for data: 92214016
I1020 04:48:20.574116 10803 layer_factory.hpp:77] Creating layer conv2
I1020 04:48:20.574123 10803 net.cpp:100] Creating Layer conv2
I1020 04:48:20.574126 10803 net.cpp:434] conv2 <- pool1
I1020 04:48:20.574127 10803 net.cpp:408] conv2 -> conv2
I1020 04:48:20.574843 10803 net.cpp:150] Setting up conv2
I1020 04:48:20.574852 10803 net.cpp:157] Top shape: 64 192 12 12 (1769472)
I1020 04:48:20.574853 10803 net.cpp:165] Memory required for data: 99291904
I1020 04:48:20.574859 10803 layer_factory.hpp:77] Creating layer elu2
I1020 04:48:20.574862 10803 net.cpp:100] Creating Layer elu2
I1020 04:48:20.574864 10803 net.cpp:434] elu2 <- conv2
I1020 04:48:20.574867 10803 net.cpp:408] elu2 -> elu2
I1020 04:48:20.574882 10803 net.cpp:150] Setting up elu2
I1020 04:48:20.574885 10803 net.cpp:157] Top shape: 64 192 12 12 (1769472)
I1020 04:48:20.574887 10803 net.cpp:165] Memory required for data: 106369792
I1020 04:48:20.574890 10803 layer_factory.hpp:77] Creating layer conv3
I1020 04:48:20.574897 10803 net.cpp:100] Creating Layer conv3
I1020 04:48:20.574898 10803 net.cpp:434] conv3 <- elu2
I1020 04:48:20.574901 10803 net.cpp:408] conv3 -> conv3
I1020 04:48:20.577540 10803 net.cpp:150] Setting up conv3
I1020 04:48:20.577555 10803 net.cpp:157] Top shape: 64 240 10 10 (1536000)
I1020 04:48:20.577558 10803 net.cpp:165] Memory required for data: 112513792
I1020 04:48:20.577565 10803 layer_factory.hpp:77] Creating layer elu3
I1020 04:48:20.577570 10803 net.cpp:100] Creating Layer elu3
I1020 04:48:20.577572 10803 net.cpp:434] elu3 <- conv3
I1020 04:48:20.577576 10803 net.cpp:408] elu3 -> elu3
I1020 04:48:20.577594 10803 net.cpp:150] Setting up elu3
I1020 04:48:20.577597 10803 net.cpp:157] Top shape: 64 240 10 10 (1536000)
I1020 04:48:20.577600 10803 net.cpp:165] Memory required for data: 118657792
I1020 04:48:20.577600 10803 layer_factory.hpp:77] Creating layer drop2
I1020 04:48:20.577605 10803 net.cpp:100] Creating Layer drop2
I1020 04:48:20.577607 10803 net.cpp:434] drop2 <- elu3
I1020 04:48:20.577610 10803 net.cpp:408] drop2 -> drop2
I1020 04:48:20.577630 10803 net.cpp:150] Setting up drop2
I1020 04:48:20.577635 10803 net.cpp:157] Top shape: 64 240 10 10 (1536000)
I1020 04:48:20.577636 10803 net.cpp:165] Memory required for data: 124801792
I1020 04:48:20.577637 10803 layer_factory.hpp:77] Creating layer pool2
I1020 04:48:20.577641 10803 net.cpp:100] Creating Layer pool2
I1020 04:48:20.577643 10803 net.cpp:434] pool2 <- drop2
I1020 04:48:20.577646 10803 net.cpp:408] pool2 -> pool2
I1020 04:48:20.577666 10803 net.cpp:150] Setting up pool2
I1020 04:48:20.577669 10803 net.cpp:157] Top shape: 64 240 5 5 (384000)
I1020 04:48:20.577672 10803 net.cpp:165] Memory required for data: 126337792
I1020 04:48:20.577673 10803 layer_factory.hpp:77] Creating layer conv4
I1020 04:48:20.577677 10803 net.cpp:100] Creating Layer conv4
I1020 04:48:20.577680 10803 net.cpp:434] conv4 <- pool2
I1020 04:48:20.577683 10803 net.cpp:408] conv4 -> conv4
I1020 04:48:20.578474 10803 net.cpp:150] Setting up conv4
I1020 04:48:20.578482 10803 net.cpp:157] Top shape: 64 240 5 5 (384000)
I1020 04:48:20.578485 10803 net.cpp:165] Memory required for data: 127873792
I1020 04:48:20.578498 10803 layer_factory.hpp:77] Creating layer elu4
I1020 04:48:20.578502 10803 net.cpp:100] Creating Layer elu4
I1020 04:48:20.578505 10803 net.cpp:434] elu4 <- conv4
I1020 04:48:20.578508 10803 net.cpp:408] elu4 -> elu4
I1020 04:48:20.578523 10803 net.cpp:150] Setting up elu4
I1020 04:48:20.578527 10803 net.cpp:157] Top shape: 64 240 5 5 (384000)
I1020 04:48:20.578529 10803 net.cpp:165] Memory required for data: 129409792
I1020 04:48:20.578531 10803 layer_factory.hpp:77] Creating layer conv5
I1020 04:48:20.578536 10803 net.cpp:100] Creating Layer conv5
I1020 04:48:20.578538 10803 net.cpp:434] conv5 <- elu4
I1020 04:48:20.578541 10803 net.cpp:408] conv5 -> conv5
I1020 04:48:20.580442 10803 net.cpp:150] Setting up conv5
I1020 04:48:20.580464 10803 net.cpp:157] Top shape: 64 260 4 4 (266240)
I1020 04:48:20.580466 10803 net.cpp:165] Memory required for data: 130474752
I1020 04:48:20.580476 10803 layer_factory.hpp:77] Creating layer elu5
I1020 04:48:20.580482 10803 net.cpp:100] Creating Layer elu5
I1020 04:48:20.580485 10803 net.cpp:434] elu5 <- conv5
I1020 04:48:20.580492 10803 net.cpp:408] elu5 -> elu5
I1020 04:48:20.580509 10803 net.cpp:150] Setting up elu5
I1020 04:48:20.580514 10803 net.cpp:157] Top shape: 64 260 4 4 (266240)
I1020 04:48:20.580516 10803 net.cpp:165] Memory required for data: 131539712
I1020 04:48:20.580518 10803 layer_factory.hpp:77] Creating layer drop3
I1020 04:48:20.580523 10803 net.cpp:100] Creating Layer drop3
I1020 04:48:20.580525 10803 net.cpp:434] drop3 <- elu5
I1020 04:48:20.580528 10803 net.cpp:408] drop3 -> drop3
I1020 04:48:20.580550 10803 net.cpp:150] Setting up drop3
I1020 04:48:20.580554 10803 net.cpp:157] Top shape: 64 260 4 4 (266240)
I1020 04:48:20.580554 10803 net.cpp:165] Memory required for data: 132604672
I1020 04:48:20.580556 10803 layer_factory.hpp:77] Creating layer pool3
I1020 04:48:20.580561 10803 net.cpp:100] Creating Layer pool3
I1020 04:48:20.580564 10803 net.cpp:434] pool3 <- drop3
I1020 04:48:20.580566 10803 net.cpp:408] pool3 -> pool3
I1020 04:48:20.580590 10803 net.cpp:150] Setting up pool3
I1020 04:48:20.580593 10803 net.cpp:157] Top shape: 64 260 2 2 (66560)
I1020 04:48:20.580595 10803 net.cpp:165] Memory required for data: 132870912
I1020 04:48:20.580596 10803 layer_factory.hpp:77] Creating layer conv6
I1020 04:48:20.580602 10803 net.cpp:100] Creating Layer conv6
I1020 04:48:20.580605 10803 net.cpp:434] conv6 <- pool3
I1020 04:48:20.580607 10803 net.cpp:408] conv6 -> conv6
I1020 04:48:20.581856 10803 net.cpp:150] Setting up conv6
I1020 04:48:20.581866 10803 net.cpp:157] Top shape: 64 260 2 2 (66560)
I1020 04:48:20.581868 10803 net.cpp:165] Memory required for data: 133137152
I1020 04:48:20.581872 10803 layer_factory.hpp:77] Creating layer elu6
I1020 04:48:20.581876 10803 net.cpp:100] Creating Layer elu6
I1020 04:48:20.581878 10803 net.cpp:434] elu6 <- conv6
I1020 04:48:20.581881 10803 net.cpp:408] elu6 -> elu6
I1020 04:48:20.581898 10803 net.cpp:150] Setting up elu6
I1020 04:48:20.581902 10803 net.cpp:157] Top shape: 64 260 2 2 (66560)
I1020 04:48:20.581904 10803 net.cpp:165] Memory required for data: 133403392
I1020 04:48:20.581905 10803 layer_factory.hpp:77] Creating layer conv7
I1020 04:48:20.581910 10803 net.cpp:100] Creating Layer conv7
I1020 04:48:20.581912 10803 net.cpp:434] conv7 <- elu6
I1020 04:48:20.581917 10803 net.cpp:408] conv7 -> conv7
I1020 04:48:20.583796 10803 net.cpp:150] Setting up conv7
I1020 04:48:20.583806 10803 net.cpp:157] Top shape: 64 280 1 1 (17920)
I1020 04:48:20.583807 10803 net.cpp:165] Memory required for data: 133475072
I1020 04:48:20.583811 10803 layer_factory.hpp:77] Creating layer elu7
I1020 04:48:20.583814 10803 net.cpp:100] Creating Layer elu7
I1020 04:48:20.583817 10803 net.cpp:434] elu7 <- conv7
I1020 04:48:20.583819 10803 net.cpp:408] elu7 -> elu7
I1020 04:48:20.583835 10803 net.cpp:150] Setting up elu7
I1020 04:48:20.583839 10803 net.cpp:157] Top shape: 64 280 1 1 (17920)
I1020 04:48:20.583840 10803 net.cpp:165] Memory required for data: 133546752
I1020 04:48:20.583855 10803 layer_factory.hpp:77] Creating layer drop4
I1020 04:48:20.583860 10803 net.cpp:100] Creating Layer drop4
I1020 04:48:20.583863 10803 net.cpp:434] drop4 <- elu7
I1020 04:48:20.583864 10803 net.cpp:408] drop4 -> drop4
I1020 04:48:20.583886 10803 net.cpp:150] Setting up drop4
I1020 04:48:20.583891 10803 net.cpp:157] Top shape: 64 280 1 1 (17920)
I1020 04:48:20.583892 10803 net.cpp:165] Memory required for data: 133618432
I1020 04:48:20.583894 10803 layer_factory.hpp:77] Creating layer pool4
I1020 04:48:20.583897 10803 net.cpp:100] Creating Layer pool4
I1020 04:48:20.583900 10803 net.cpp:434] pool4 <- drop4
I1020 04:48:20.583904 10803 net.cpp:408] pool4 -> pool4
I1020 04:48:20.583925 10803 net.cpp:150] Setting up pool4
I1020 04:48:20.583930 10803 net.cpp:157] Top shape: 64 280 1 1 (17920)
I1020 04:48:20.583931 10803 net.cpp:165] Memory required for data: 133690112
I1020 04:48:20.583932 10803 layer_factory.hpp:77] Creating layer conv8
I1020 04:48:20.583938 10803 net.cpp:100] Creating Layer conv8
I1020 04:48:20.583941 10803 net.cpp:434] conv8 <- pool4
I1020 04:48:20.583945 10803 net.cpp:408] conv8 -> conv8
I1020 04:48:20.584847 10803 net.cpp:150] Setting up conv8
I1020 04:48:20.584856 10803 net.cpp:157] Top shape: 64 280 1 1 (17920)
I1020 04:48:20.584856 10803 net.cpp:165] Memory required for data: 133761792
I1020 04:48:20.584861 10803 layer_factory.hpp:77] Creating layer elu8
I1020 04:48:20.584864 10803 net.cpp:100] Creating Layer elu8
I1020 04:48:20.584867 10803 net.cpp:434] elu8 <- conv8
I1020 04:48:20.584870 10803 net.cpp:408] elu8 -> elu8
I1020 04:48:20.584885 10803 net.cpp:150] Setting up elu8
I1020 04:48:20.584889 10803 net.cpp:157] Top shape: 64 280 1 1 (17920)
I1020 04:48:20.584890 10803 net.cpp:165] Memory required for data: 133833472
I1020 04:48:20.584892 10803 layer_factory.hpp:77] Creating layer drop5
I1020 04:48:20.584897 10803 net.cpp:100] Creating Layer drop5
I1020 04:48:20.584898 10803 net.cpp:434] drop5 <- elu8
I1020 04:48:20.584902 10803 net.cpp:408] drop5 -> drop5
I1020 04:48:20.584923 10803 net.cpp:150] Setting up drop5
I1020 04:48:20.584926 10803 net.cpp:157] Top shape: 64 280 1 1 (17920)
I1020 04:48:20.584928 10803 net.cpp:165] Memory required for data: 133905152
I1020 04:48:20.584930 10803 layer_factory.hpp:77] Creating layer pool5
I1020 04:48:20.584933 10803 net.cpp:100] Creating Layer pool5
I1020 04:48:20.584936 10803 net.cpp:434] pool5 <- drop5
I1020 04:48:20.584939 10803 net.cpp:408] pool5 -> pool5
I1020 04:48:20.584959 10803 net.cpp:150] Setting up pool5
I1020 04:48:20.584964 10803 net.cpp:157] Top shape: 64 280 1 1 (17920)
I1020 04:48:20.584966 10803 net.cpp:165] Memory required for data: 133976832
I1020 04:48:20.584969 10803 layer_factory.hpp:77] Creating layer conv10
I1020 04:48:20.584975 10803 net.cpp:100] Creating Layer conv10
I1020 04:48:20.584976 10803 net.cpp:434] conv10 <- pool5
I1020 04:48:20.584980 10803 net.cpp:408] conv10 -> conv10
I1020 04:48:20.585893 10803 net.cpp:150] Setting up conv10
I1020 04:48:20.585901 10803 net.cpp:157] Top shape: 64 300 1 1 (19200)
I1020 04:48:20.585902 10803 net.cpp:165] Memory required for data: 134053632
I1020 04:48:20.585909 10803 layer_factory.hpp:77] Creating layer elu10
I1020 04:48:20.585914 10803 net.cpp:100] Creating Layer elu10
I1020 04:48:20.585916 10803 net.cpp:434] elu10 <- conv10
I1020 04:48:20.585919 10803 net.cpp:408] elu10 -> elu10
I1020 04:48:20.585935 10803 net.cpp:150] Setting up elu10
I1020 04:48:20.585939 10803 net.cpp:157] Top shape: 64 300 1 1 (19200)
I1020 04:48:20.585942 10803 net.cpp:165] Memory required for data: 134130432
I1020 04:48:20.585942 10803 layer_factory.hpp:77] Creating layer drop6
I1020 04:48:20.585947 10803 net.cpp:100] Creating Layer drop6
I1020 04:48:20.585948 10803 net.cpp:434] drop6 <- elu10
I1020 04:48:20.585952 10803 net.cpp:408] drop6 -> drop6
I1020 04:48:20.585974 10803 net.cpp:150] Setting up drop6
I1020 04:48:20.585979 10803 net.cpp:157] Top shape: 64 300 1 1 (19200)
I1020 04:48:20.585981 10803 net.cpp:165] Memory required for data: 134207232
I1020 04:48:20.585983 10803 layer_factory.hpp:77] Creating layer pool6
I1020 04:48:20.585994 10803 net.cpp:100] Creating Layer pool6
I1020 04:48:20.585997 10803 net.cpp:434] pool6 <- drop6
I1020 04:48:20.586000 10803 net.cpp:408] pool6 -> pool6
I1020 04:48:20.586022 10803 net.cpp:150] Setting up pool6
I1020 04:48:20.586026 10803 net.cpp:157] Top shape: 64 300 1 1 (19200)
I1020 04:48:20.586028 10803 net.cpp:165] Memory required for data: 134284032
I1020 04:48:20.586030 10803 layer_factory.hpp:77] Creating layer conv11
I1020 04:48:20.586038 10803 net.cpp:100] Creating Layer conv11
I1020 04:48:20.586041 10803 net.cpp:434] conv11 <- pool6
I1020 04:48:20.586045 10803 net.cpp:408] conv11 -> conv11
I1020 04:48:20.587133 10803 net.cpp:150] Setting up conv11
I1020 04:48:20.587141 10803 net.cpp:157] Top shape: 64 100 1 1 (6400)
I1020 04:48:20.587143 10803 net.cpp:165] Memory required for data: 134309632
I1020 04:48:20.587149 10803 layer_factory.hpp:77] Creating layer elu11
I1020 04:48:20.587152 10803 net.cpp:100] Creating Layer elu11
I1020 04:48:20.587155 10803 net.cpp:434] elu11 <- conv11
I1020 04:48:20.587158 10803 net.cpp:408] elu11 -> elu11
I1020 04:48:20.587175 10803 net.cpp:150] Setting up elu11
I1020 04:48:20.587179 10803 net.cpp:157] Top shape: 64 100 1 1 (6400)
I1020 04:48:20.587182 10803 net.cpp:165] Memory required for data: 134335232
I1020 04:48:20.587182 10803 layer_factory.hpp:77] Creating layer drop7
I1020 04:48:20.587188 10803 net.cpp:100] Creating Layer drop7
I1020 04:48:20.587189 10803 net.cpp:434] drop7 <- elu11
I1020 04:48:20.587193 10803 net.cpp:408] drop7 -> drop7
I1020 04:48:20.587214 10803 net.cpp:150] Setting up drop7
I1020 04:48:20.587218 10803 net.cpp:157] Top shape: 64 100 1 1 (6400)
I1020 04:48:20.587220 10803 net.cpp:165] Memory required for data: 134360832
I1020 04:48:20.587221 10803 layer_factory.hpp:77] Creating layer pool7
I1020 04:48:20.587225 10803 net.cpp:100] Creating Layer pool7
I1020 04:48:20.587229 10803 net.cpp:434] pool7 <- drop7
I1020 04:48:20.587230 10803 net.cpp:408] pool7 -> pool7
I1020 04:48:20.587255 10803 net.cpp:150] Setting up pool7
I1020 04:48:20.587257 10803 net.cpp:157] Top shape: 64 100 1 1 (6400)
I1020 04:48:20.587260 10803 net.cpp:165] Memory required for data: 134386432
I1020 04:48:20.587262 10803 layer_factory.hpp:77] Creating layer score
I1020 04:48:20.587265 10803 net.cpp:100] Creating Layer score
I1020 04:48:20.587267 10803 net.cpp:434] score <- pool7
I1020 04:48:20.587272 10803 net.cpp:408] score -> score
I1020 04:48:20.587368 10803 net.cpp:150] Setting up score
I1020 04:48:20.587373 10803 net.cpp:157] Top shape: 64 10 (640)
I1020 04:48:20.587374 10803 net.cpp:165] Memory required for data: 134388992
I1020 04:48:20.587378 10803 layer_factory.hpp:77] Creating layer score_score_0_split
I1020 04:48:20.587383 10803 net.cpp:100] Creating Layer score_score_0_split
I1020 04:48:20.587384 10803 net.cpp:434] score_score_0_split <- score
I1020 04:48:20.587388 10803 net.cpp:408] score_score_0_split -> score_score_0_split_0
I1020 04:48:20.587391 10803 net.cpp:408] score_score_0_split -> score_score_0_split_1
I1020 04:48:20.587414 10803 net.cpp:150] Setting up score_score_0_split
I1020 04:48:20.587417 10803 net.cpp:157] Top shape: 64 10 (640)
I1020 04:48:20.587419 10803 net.cpp:157] Top shape: 64 10 (640)
I1020 04:48:20.587421 10803 net.cpp:165] Memory required for data: 134394112
I1020 04:48:20.587424 10803 layer_factory.hpp:77] Creating layer accuracy
I1020 04:48:20.587426 10803 net.cpp:100] Creating Layer accuracy
I1020 04:48:20.587429 10803 net.cpp:434] accuracy <- score_score_0_split_0
I1020 04:48:20.587431 10803 net.cpp:434] accuracy <- label_data_1_split_0
I1020 04:48:20.587435 10803 net.cpp:408] accuracy -> accuracy
…
I1020 04:48:20.587765 10803 net.cpp:283] Network initialization done.
I1020 04:48:20.587949 10803 solver.cpp:181] Creating test net (#0) specified by test_net file: /home/adam/Honours/Honours-Project/mnist_pooling/max/elu/poolcnn_elu_test.prototxt
I1020 04:48:20.588060 10803 net.cpp:58] Initializing net from parameters: 
state {
  phase: TEST
}
layer {
  name: "data"
  type: "Data"
  top: "data"
  top: "label"
  transform_param {
    scale: 0.0039215689
  }
  data_param {
    source: "../../../../data/mnist/mnist_test_lmdb"
    batch_size: 100
    backend: LMDB
  }
}
layer {
  name: "conv1"
  type: "Convolution"
  bottom: "data"
  top: "conv1"
  convolution_param {
    num_output: 192
    kernel_size: 5
    weight_filler {
      type: "xavier"
    }
  }
}
layer {
  name: "elu1"
  type: "ELU"
  bottom: "conv1"
  top: "elu1"
}
layer {
  name: "drop1"
  type: "Dropout"
  bottom: "elu1"
  top: "drop1"
  dropout_param {
    dropout_ratio: 0
  }
}
layer {
  name: "pool1"
  type: "Pooling"
  bottom: "drop1"
  top: "pool1"
  pooling_param {
    pool: MAX
    kernel_size: 2
    stride: 2
  }
}
layer {
  name: "conv2"
  type: "Convolution"
  bottom: "pool1"
  top: "conv2"
  convolution_param {
    num_output: 192
    kernel_size: 1
    weight_filler {
      type: "xavier"
    }
  }
}
layer {
  name: "elu2"
  type: "ELU"
  bottom: "conv2"
  top: "elu2"
}
layer {
  name: "conv3"
  type: "Convolution"
  bottom: "elu2"
  top: "conv3"
  convolution_param {
    num_output: 240
    kernel_size: 3
    weight_filler {
      type: "xavier"
    }
  }
}
layer {
  name: "elu3"
  type: "ELU"
  bottom: "conv3"
  top: "elu3"
}
layer {
  name: "drop2"
  type: "Dropout"
  bottom: "elu3"
  top: "drop2"
  dropout_param {
    dropout_ratio: 0.1
  }
}
layer {
  name: "pool2"
  type: "Pooling"
  bottom: "drop2"
  top: "pool2"
  pooling_param {
    pool: MAX
    kernel_size: 2
    stride: 2
  }
}
layer {
  name: "conv4"
  type: "Convolution"
  bottom: "pool2"
  top: "conv4"
  convolution_param {
    num_output: 240
    kernel_size: 1
    weight_filler {
      type: "xavier"
    }
  }
}
layer {
  name: "elu4"
  type: "ELU"
  bottom: "conv4"
  top: "elu4"
}
layer {
  name: "conv5"
  type: "Convolution"
  bottom: "elu4"
  top: "conv5"
  convolution_param {
    num_output: 260
    kernel_size: 2
    weight_filler {
      type: "xavier"
    }
  }
}
layer {
  name: "elu5"
  type: "ELU"
  bottom: "conv5"
  top: "elu5"
}
layer {
  name: "drop3"
  type: "Dropout"
  bottom: "elu5"
  top: "drop3"
  dropout_param {
    dropout_ratio: 0.2
  }
}
layer {
  name: "pool3"
  type: "Pooling"
  bottom: "drop3"
  top: "pool3"
  pooling_param {
    pool: MAX
    kernel_size: 2
    stride: 2
  }
}
layer {
  name: "conv6"
  type: "Convolution"
  bottom: "pool3"
  top: "conv6"
  convolution_param {
    num_output: 260
    kernel_size: 1
    weight_filler {
      type: "xavier"
    }
  }
}
layer {
  name: "elu6"
  type: "ELU"
  bottom: "conv6"
  top: "elu6"
}
layer {
  name: "conv7"
  type: "Convolution"
  bottom: "elu6"
  top: "conv7"
  convolution_param {
    num_output: 280
    kernel_size: 2
    weight_filler {
      type: "xavier"
    }
  }
}
layer {
  name: "elu7"
  type: "ELU"
  bottom: "conv7"
  top: "elu7"
}
layer {
  name: "drop4"
  type: "Dropout"
  bottom: "elu7"
  top: "drop4"
  dropout_param {
    dropout_ratio: 0.3
  }
}
layer {
  name: "pool4"
  type: "Pooling"
  bottom: "drop4"
  top: "pool4"
  pooling_param {
    pool: MAX
    kernel_size: 2
    stride: 2
  }
}
layer {
  name: "conv8"
  type: "Convolution"
  bottom: "pool4"
  top: "conv8"
  convolution_param {
    num_output: 280
    kernel_size: 1
    weight_filler {
      type: "xavier"
    }
  }
}
layer {
  name: "elu8"
  type: "ELU"
  bottom: "conv8"
  top: "elu8"
}
layer {
  name: "drop5"
  type: "Dropout"
  bottom: "elu8"
  top: "drop5"
  dropout_param {
    dropout_ratio: 0.4
  }
}
layer {
  name: "pool5"
  type: "Pooling"
  bottom: "drop5"
  top: "pool5"
  pooling_param {
    pool: MAX
    kernel_size: 2
    stride: 2
  }
}
layer {
  name: "conv10"
  type: "Convolution"
  bottom: "pool5"
  top: "conv10"
  convolution_param {
    num_output: 300
    kernel_size: 1
    weight_filler {
      type: "xavier"
    }
  }
}
layer {
  name: "elu10"
  type: "ELU"
  bottom: "conv10"
  top: "elu10"
}
layer {
  name: "drop6"
  type: "Dropout"
  bottom: "elu10"
  top: "drop6"
  dropout_param {
    dropout_ratio: 0.5
  }
}
layer {
  name: "pool6"
  type: "Pooling"
  bottom: "drop6"
  top: "pool6"
  pooling_param {
    pool: MAX
    kernel_size: 2
    stride: 2
  }
}
layer {
  name: "conv11"
  type: "Convolution"
  bottom: "pool6"
  top: "conv11"
  convolution_param {
    num_output: 100
    kernel_size: 1
    weight_filler {
      type: "xavier"
    }
  }
}
layer {
  name: "elu11"
  type: "ELU"
  bottom: "conv11"
  top: "elu11"
}
layer {
  name: "drop7"
  type: "Dropout"
  bottom: "elu11"
  top: "drop7"
  dropout_param {
    dropout_ratio: 0
  }
}
layer {
  name: "pool7"
  type: "Pooling"
  bottom: "drop7"
  top: "pool7"
  pooling_param {
    pool: MAX
    kernel_size: 2
    stride: 2
  }
}
layer {
  name: "score"
  type: "InnerProduct"
  bottom: "pool7"
  top: "score"
  inner_product_param {
    num_output: 10
    weight_filler {
      type: "gaussian"
    }
  }
}
layer {
  name: "accuracy"
  type: "Accuracy"
  bottom: "score"
  bottom: "label"
  top: "accuracy"
}
layer {
  name: "loss"
  type: "SoftmaxWithLoss"
  bottom: "score"
  bottom: "label"
  top: "loss"
}
I1020 04:48:20.588138 10803 layer_factory.hpp:77] Creating layer data
I1020 04:48:20.588214 10803 net.cpp:100] Creating Layer data
I1020 04:48:20.588227 10803 net.cpp:408] data -> data
I1020 04:48:20.588232 10803 net.cpp:408] data -> label
I1020 04:48:20.588788 10810 db_lmdb.cpp:35] Opened lmdb ../../../../data/mnist/mnist_test_lmdb
I1020 04:48:20.588889 10803 data_layer.cpp:41] output data size: 100,1,28,28
I1020 04:48:20.589514 10803 net.cpp:150] Setting up data
I1020 04:48:20.589522 10803 net.cpp:157] Top shape: 100 1 28 28 (78400)
I1020 04:48:20.589525 10803 net.cpp:157] Top shape: 100 (100)
I1020 04:48:20.589527 10803 net.cpp:165] Memory required for data: 314000
I1020 04:48:20.589530 10803 layer_factory.hpp:77] Creating layer label_data_1_split
I1020 04:48:20.589536 10803 net.cpp:100] Creating Layer label_data_1_split
I1020 04:48:20.589540 10803 net.cpp:434] label_data_1_split <- label
I1020 04:48:20.589542 10803 net.cpp:408] label_data_1_split -> label_data_1_split_0
I1020 04:48:20.589547 10803 net.cpp:408] label_data_1_split -> label_data_1_split_1
I1020 04:48:20.589597 10803 net.cpp:150] Setting up label_data_1_split
I1020 04:48:20.589603 10803 net.cpp:157] Top shape: 100 (100)
I1020 04:48:20.589606 10803 net.cpp:157] Top shape: 100 (100)
I1020 04:48:20.589607 10803 net.cpp:165] Memory required for data: 314800
I1020 04:48:20.589610 10803 layer_factory.hpp:77] Creating layer conv1
I1020 04:48:20.589617 10803 net.cpp:100] Creating Layer conv1
I1020 04:48:20.589618 10803 net.cpp:434] conv1 <- data
I1020 04:48:20.589624 10803 net.cpp:408] conv1 -> conv1
I1020 04:48:20.590384 10803 net.cpp:150] Setting up conv1
I1020 04:48:20.590394 10803 net.cpp:157] Top shape: 100 192 24 24 (11059200)
I1020 04:48:20.590399 10803 net.cpp:165] Memory required for data: 44551600
I1020 04:48:20.590406 10803 layer_factory.hpp:77] Creating layer elu1
I1020 04:48:20.590411 10803 net.cpp:100] Creating Layer elu1
I1020 04:48:20.590414 10803 net.cpp:434] elu1 <- conv1
I1020 04:48:20.590417 10803 net.cpp:408] elu1 -> elu1
I1020 04:48:20.590435 10803 net.cpp:150] Setting up elu1
I1020 04:48:20.590440 10803 net.cpp:157] Top shape: 100 192 24 24 (11059200)
I1020 04:48:20.590442 10803 net.cpp:165] Memory required for data: 88788400
I1020 04:48:20.590445 10803 layer_factory.hpp:77] Creating layer drop1
I1020 04:48:20.590451 10803 net.cpp:100] Creating Layer drop1
I1020 04:48:20.590452 10803 net.cpp:434] drop1 <- elu1
I1020 04:48:20.590456 10803 net.cpp:408] drop1 -> drop1
I1020 04:48:20.590478 10803 net.cpp:150] Setting up drop1
I1020 04:48:20.590482 10803 net.cpp:157] Top shape: 100 192 24 24 (11059200)
I1020 04:48:20.590487 10803 net.cpp:165] Memory required for data: 133025200
I1020 04:48:20.590488 10803 layer_factory.hpp:77] Creating layer pool1
I1020 04:48:20.590492 10803 net.cpp:100] Creating Layer pool1
I1020 04:48:20.590493 10803 net.cpp:434] pool1 <- drop1
I1020 04:48:20.590497 10803 net.cpp:408] pool1 -> pool1
I1020 04:48:20.590524 10803 net.cpp:150] Setting up pool1
I1020 04:48:20.590529 10803 net.cpp:157] Top shape: 100 192 12 12 (2764800)
I1020 04:48:20.590533 10803 net.cpp:165] Memory required for data: 144084400
I1020 04:48:20.590535 10803 layer_factory.hpp:77] Creating layer conv2
I1020 04:48:20.590553 10803 net.cpp:100] Creating Layer conv2
I1020 04:48:20.590556 10803 net.cpp:434] conv2 <- pool1
I1020 04:48:20.590562 10803 net.cpp:408] conv2 -> conv2
I1020 04:48:20.591467 10803 net.cpp:150] Setting up conv2
I1020 04:48:20.591477 10803 net.cpp:157] Top shape: 100 192 12 12 (2764800)
I1020 04:48:20.591480 10803 net.cpp:165] Memory required for data: 155143600
I1020 04:48:20.591485 10803 layer_factory.hpp:77] Creating layer elu2
I1020 04:48:20.591490 10803 net.cpp:100] Creating Layer elu2
I1020 04:48:20.591492 10803 net.cpp:434] elu2 <- conv2
I1020 04:48:20.591495 10803 net.cpp:408] elu2 -> elu2
I1020 04:48:20.591513 10803 net.cpp:150] Setting up elu2
I1020 04:48:20.591518 10803 net.cpp:157] Top shape: 100 192 12 12 (2764800)
I1020 04:48:20.591521 10803 net.cpp:165] Memory required for data: 166202800
I1020 04:48:20.591522 10803 layer_factory.hpp:77] Creating layer conv3
I1020 04:48:20.591528 10803 net.cpp:100] Creating Layer conv3
I1020 04:48:20.591531 10803 net.cpp:434] conv3 <- elu2
I1020 04:48:20.591534 10803 net.cpp:408] conv3 -> conv3
I1020 04:48:20.593989 10803 net.cpp:150] Setting up conv3
I1020 04:48:20.593998 10803 net.cpp:157] Top shape: 100 240 10 10 (2400000)
I1020 04:48:20.594000 10803 net.cpp:165] Memory required for data: 175802800
I1020 04:48:20.594007 10803 layer_factory.hpp:77] Creating layer elu3
I1020 04:48:20.594012 10803 net.cpp:100] Creating Layer elu3
I1020 04:48:20.594014 10803 net.cpp:434] elu3 <- conv3
I1020 04:48:20.594018 10803 net.cpp:408] elu3 -> elu3
I1020 04:48:20.594038 10803 net.cpp:150] Setting up elu3
I1020 04:48:20.594041 10803 net.cpp:157] Top shape: 100 240 10 10 (2400000)
I1020 04:48:20.594044 10803 net.cpp:165] Memory required for data: 185402800
I1020 04:48:20.594046 10803 layer_factory.hpp:77] Creating layer drop2
I1020 04:48:20.594049 10803 net.cpp:100] Creating Layer drop2
I1020 04:48:20.594051 10803 net.cpp:434] drop2 <- elu3
I1020 04:48:20.594054 10803 net.cpp:408] drop2 -> drop2
I1020 04:48:20.594077 10803 net.cpp:150] Setting up drop2
I1020 04:48:20.594082 10803 net.cpp:157] Top shape: 100 240 10 10 (2400000)
I1020 04:48:20.594084 10803 net.cpp:165] Memory required for data: 195002800
I1020 04:48:20.594085 10803 layer_factory.hpp:77] Creating layer pool2
I1020 04:48:20.594089 10803 net.cpp:100] Creating Layer pool2
I1020 04:48:20.594090 10803 net.cpp:434] pool2 <- drop2
I1020 04:48:20.594094 10803 net.cpp:408] pool2 -> pool2
I1020 04:48:20.594116 10803 net.cpp:150] Setting up pool2
I1020 04:48:20.594120 10803 net.cpp:157] Top shape: 100 240 5 5 (600000)
I1020 04:48:20.594122 10803 net.cpp:165] Memory required for data: 197402800
I1020 04:48:20.594123 10803 layer_factory.hpp:77] Creating layer conv4
I1020 04:48:20.594128 10803 net.cpp:100] Creating Layer conv4
I1020 04:48:20.594131 10803 net.cpp:434] conv4 <- pool2
I1020 04:48:20.594135 10803 net.cpp:408] conv4 -> conv4
I1020 04:48:20.594974 10803 net.cpp:150] Setting up conv4
I1020 04:48:20.594982 10803 net.cpp:157] Top shape: 100 240 5 5 (600000)
I1020 04:48:20.594985 10803 net.cpp:165] Memory required for data: 199802800
I1020 04:48:20.594990 10803 layer_factory.hpp:77] Creating layer elu4
I1020 04:48:20.594992 10803 net.cpp:100] Creating Layer elu4
I1020 04:48:20.594995 10803 net.cpp:434] elu4 <- conv4
I1020 04:48:20.595002 10803 net.cpp:408] elu4 -> elu4
I1020 04:48:20.595022 10803 net.cpp:150] Setting up elu4
I1020 04:48:20.595026 10803 net.cpp:157] Top shape: 100 240 5 5 (600000)
I1020 04:48:20.595031 10803 net.cpp:165] Memory required for data: 202202800
I1020 04:48:20.595032 10803 layer_factory.hpp:77] Creating layer conv5
I1020 04:48:20.595036 10803 net.cpp:100] Creating Layer conv5
I1020 04:48:20.595039 10803 net.cpp:434] conv5 <- elu4
I1020 04:48:20.595042 10803 net.cpp:408] conv5 -> conv5
I1020 04:48:20.596781 10803 net.cpp:150] Setting up conv5
I1020 04:48:20.596791 10803 net.cpp:157] Top shape: 100 260 4 4 (416000)
I1020 04:48:20.596792 10803 net.cpp:165] Memory required for data: 203866800
I1020 04:48:20.596798 10803 layer_factory.hpp:77] Creating layer elu5
I1020 04:48:20.596812 10803 net.cpp:100] Creating Layer elu5
I1020 04:48:20.596814 10803 net.cpp:434] elu5 <- conv5
I1020 04:48:20.596818 10803 net.cpp:408] elu5 -> elu5
I1020 04:48:20.596837 10803 net.cpp:150] Setting up elu5
I1020 04:48:20.596840 10803 net.cpp:157] Top shape: 100 260 4 4 (416000)
I1020 04:48:20.596842 10803 net.cpp:165] Memory required for data: 205530800
I1020 04:48:20.596843 10803 layer_factory.hpp:77] Creating layer drop3
I1020 04:48:20.596850 10803 net.cpp:100] Creating Layer drop3
I1020 04:48:20.596853 10803 net.cpp:434] drop3 <- elu5
I1020 04:48:20.596855 10803 net.cpp:408] drop3 -> drop3
I1020 04:48:20.596879 10803 net.cpp:150] Setting up drop3
I1020 04:48:20.596884 10803 net.cpp:157] Top shape: 100 260 4 4 (416000)
I1020 04:48:20.596885 10803 net.cpp:165] Memory required for data: 207194800
I1020 04:48:20.596887 10803 layer_factory.hpp:77] Creating layer pool3
I1020 04:48:20.596891 10803 net.cpp:100] Creating Layer pool3
I1020 04:48:20.596894 10803 net.cpp:434] pool3 <- drop3
I1020 04:48:20.596896 10803 net.cpp:408] pool3 -> pool3
I1020 04:48:20.596920 10803 net.cpp:150] Setting up pool3
I1020 04:48:20.596925 10803 net.cpp:157] Top shape: 100 260 2 2 (104000)
I1020 04:48:20.596926 10803 net.cpp:165] Memory required for data: 207610800
I1020 04:48:20.596928 10803 layer_factory.hpp:77] Creating layer conv6
I1020 04:48:20.596933 10803 net.cpp:100] Creating Layer conv6
I1020 04:48:20.596935 10803 net.cpp:434] conv6 <- pool3
I1020 04:48:20.596940 10803 net.cpp:408] conv6 -> conv6
I1020 04:48:20.598070 10803 net.cpp:150] Setting up conv6
I1020 04:48:20.598078 10803 net.cpp:157] Top shape: 100 260 2 2 (104000)
I1020 04:48:20.598080 10803 net.cpp:165] Memory required for data: 208026800
I1020 04:48:20.598084 10803 layer_factory.hpp:77] Creating layer elu6
I1020 04:48:20.598088 10803 net.cpp:100] Creating Layer elu6
I1020 04:48:20.598090 10803 net.cpp:434] elu6 <- conv6
I1020 04:48:20.598094 10803 net.cpp:408] elu6 -> elu6
I1020 04:48:20.598111 10803 net.cpp:150] Setting up elu6
I1020 04:48:20.598115 10803 net.cpp:157] Top shape: 100 260 2 2 (104000)
I1020 04:48:20.598117 10803 net.cpp:165] Memory required for data: 208442800
I1020 04:48:20.598119 10803 layer_factory.hpp:77] Creating layer conv7
I1020 04:48:20.598125 10803 net.cpp:100] Creating Layer conv7
I1020 04:48:20.598127 10803 net.cpp:434] conv7 <- elu6
I1020 04:48:20.598130 10803 net.cpp:408] conv7 -> conv7
I1020 04:48:20.600075 10803 net.cpp:150] Setting up conv7
I1020 04:48:20.600082 10803 net.cpp:157] Top shape: 100 280 1 1 (28000)
I1020 04:48:20.600085 10803 net.cpp:165] Memory required for data: 208554800
I1020 04:48:20.600088 10803 layer_factory.hpp:77] Creating layer elu7
I1020 04:48:20.600092 10803 net.cpp:100] Creating Layer elu7
I1020 04:48:20.600095 10803 net.cpp:434] elu7 <- conv7
I1020 04:48:20.600098 10803 net.cpp:408] elu7 -> elu7
I1020 04:48:20.600116 10803 net.cpp:150] Setting up elu7
I1020 04:48:20.600119 10803 net.cpp:157] Top shape: 100 280 1 1 (28000)
I1020 04:48:20.600121 10803 net.cpp:165] Memory required for data: 208666800
I1020 04:48:20.600123 10803 layer_factory.hpp:77] Creating layer drop4
I1020 04:48:20.600126 10803 net.cpp:100] Creating Layer drop4
I1020 04:48:20.600128 10803 net.cpp:434] drop4 <- elu7
I1020 04:48:20.600132 10803 net.cpp:408] drop4 -> drop4
I1020 04:48:20.600157 10803 net.cpp:150] Setting up drop4
I1020 04:48:20.600160 10803 net.cpp:157] Top shape: 100 280 1 1 (28000)
I1020 04:48:20.600162 10803 net.cpp:165] Memory required for data: 208778800
I1020 04:48:20.600164 10803 layer_factory.hpp:77] Creating layer pool4
I1020 04:48:20.600167 10803 net.cpp:100] Creating Layer pool4
I1020 04:48:20.600169 10803 net.cpp:434] pool4 <- drop4
I1020 04:48:20.600172 10803 net.cpp:408] pool4 -> pool4
I1020 04:48:20.600196 10803 net.cpp:150] Setting up pool4
I1020 04:48:20.600200 10803 net.cpp:157] Top shape: 100 280 1 1 (28000)
I1020 04:48:20.600201 10803 net.cpp:165] Memory required for data: 208890800
I1020 04:48:20.600203 10803 layer_factory.hpp:77] Creating layer conv8
I1020 04:48:20.600208 10803 net.cpp:100] Creating Layer conv8
I1020 04:48:20.600217 10803 net.cpp:434] conv8 <- pool4
I1020 04:48:20.600224 10803 net.cpp:408] conv8 -> conv8
I1020 04:48:20.601156 10803 net.cpp:150] Setting up conv8
I1020 04:48:20.601166 10803 net.cpp:157] Top shape: 100 280 1 1 (28000)
I1020 04:48:20.601167 10803 net.cpp:165] Memory required for data: 209002800
I1020 04:48:20.601171 10803 layer_factory.hpp:77] Creating layer elu8
I1020 04:48:20.601174 10803 net.cpp:100] Creating Layer elu8
I1020 04:48:20.601177 10803 net.cpp:434] elu8 <- conv8
I1020 04:48:20.601181 10803 net.cpp:408] elu8 -> elu8
I1020 04:48:20.601197 10803 net.cpp:150] Setting up elu8
I1020 04:48:20.601202 10803 net.cpp:157] Top shape: 100 280 1 1 (28000)
I1020 04:48:20.601204 10803 net.cpp:165] Memory required for data: 209114800
I1020 04:48:20.601205 10803 layer_factory.hpp:77] Creating layer drop5
I1020 04:48:20.601209 10803 net.cpp:100] Creating Layer drop5
I1020 04:48:20.601212 10803 net.cpp:434] drop5 <- elu8
I1020 04:48:20.601215 10803 net.cpp:408] drop5 -> drop5
I1020 04:48:20.601239 10803 net.cpp:150] Setting up drop5
I1020 04:48:20.601243 10803 net.cpp:157] Top shape: 100 280 1 1 (28000)
I1020 04:48:20.601244 10803 net.cpp:165] Memory required for data: 209226800
I1020 04:48:20.601246 10803 layer_factory.hpp:77] Creating layer pool5
I1020 04:48:20.601249 10803 net.cpp:100] Creating Layer pool5
I1020 04:48:20.601253 10803 net.cpp:434] pool5 <- drop5
I1020 04:48:20.601255 10803 net.cpp:408] pool5 -> pool5
I1020 04:48:20.601279 10803 net.cpp:150] Setting up pool5
I1020 04:48:20.601284 10803 net.cpp:157] Top shape: 100 280 1 1 (28000)
I1020 04:48:20.601285 10803 net.cpp:165] Memory required for data: 209338800
I1020 04:48:20.601287 10803 layer_factory.hpp:77] Creating layer conv10
I1020 04:48:20.601291 10803 net.cpp:100] Creating Layer conv10
I1020 04:48:20.601294 10803 net.cpp:434] conv10 <- pool5
I1020 04:48:20.601297 10803 net.cpp:408] conv10 -> conv10
I1020 04:48:20.602330 10803 net.cpp:150] Setting up conv10
I1020 04:48:20.602339 10803 net.cpp:157] Top shape: 100 300 1 1 (30000)
I1020 04:48:20.602340 10803 net.cpp:165] Memory required for data: 209458800
I1020 04:48:20.602347 10803 layer_factory.hpp:77] Creating layer elu10
I1020 04:48:20.602352 10803 net.cpp:100] Creating Layer elu10
I1020 04:48:20.602355 10803 net.cpp:434] elu10 <- conv10
I1020 04:48:20.602358 10803 net.cpp:408] elu10 -> elu10
I1020 04:48:20.602375 10803 net.cpp:150] Setting up elu10
I1020 04:48:20.602378 10803 net.cpp:157] Top shape: 100 300 1 1 (30000)
I1020 04:48:20.602380 10803 net.cpp:165] Memory required for data: 209578800
I1020 04:48:20.602382 10803 layer_factory.hpp:77] Creating layer drop6
I1020 04:48:20.602385 10803 net.cpp:100] Creating Layer drop6
I1020 04:48:20.602388 10803 net.cpp:434] drop6 <- elu10
I1020 04:48:20.602391 10803 net.cpp:408] drop6 -> drop6
I1020 04:48:20.602419 10803 net.cpp:150] Setting up drop6
I1020 04:48:20.602423 10803 net.cpp:157] Top shape: 100 300 1 1 (30000)
I1020 04:48:20.602426 10803 net.cpp:165] Memory required for data: 209698800
I1020 04:48:20.602427 10803 layer_factory.hpp:77] Creating layer pool6
I1020 04:48:20.602430 10803 net.cpp:100] Creating Layer pool6
I1020 04:48:20.602432 10803 net.cpp:434] pool6 <- drop6
I1020 04:48:20.602435 10803 net.cpp:408] pool6 -> pool6
I1020 04:48:20.602458 10803 net.cpp:150] Setting up pool6
I1020 04:48:20.602463 10803 net.cpp:157] Top shape: 100 300 1 1 (30000)
I1020 04:48:20.602464 10803 net.cpp:165] Memory required for data: 209818800
I1020 04:48:20.602465 10803 layer_factory.hpp:77] Creating layer conv11
I1020 04:48:20.602473 10803 net.cpp:100] Creating Layer conv11
I1020 04:48:20.602475 10803 net.cpp:434] conv11 <- pool6
I1020 04:48:20.602478 10803 net.cpp:408] conv11 -> conv11
I1020 04:48:20.603173 10803 net.cpp:150] Setting up conv11
I1020 04:48:20.603180 10803 net.cpp:157] Top shape: 100 100 1 1 (10000)
I1020 04:48:20.603183 10803 net.cpp:165] Memory required for data: 209858800
I1020 04:48:20.603186 10803 layer_factory.hpp:77] Creating layer elu11
I1020 04:48:20.603189 10803 net.cpp:100] Creating Layer elu11
I1020 04:48:20.603199 10803 net.cpp:434] elu11 <- conv11
I1020 04:48:20.603204 10803 net.cpp:408] elu11 -> elu11
I1020 04:48:20.603219 10803 net.cpp:150] Setting up elu11
I1020 04:48:20.603224 10803 net.cpp:157] Top shape: 100 100 1 1 (10000)
I1020 04:48:20.603225 10803 net.cpp:165] Memory required for data: 209898800
I1020 04:48:20.603227 10803 layer_factory.hpp:77] Creating layer drop7
I1020 04:48:20.603232 10803 net.cpp:100] Creating Layer drop7
I1020 04:48:20.603235 10803 net.cpp:434] drop7 <- elu11
I1020 04:48:20.603238 10803 net.cpp:408] drop7 -> drop7
I1020 04:48:20.603261 10803 net.cpp:150] Setting up drop7
I1020 04:48:20.603266 10803 net.cpp:157] Top shape: 100 100 1 1 (10000)
I1020 04:48:20.603267 10803 net.cpp:165] Memory required for data: 209938800
I1020 04:48:20.603269 10803 layer_factory.hpp:77] Creating layer pool7
I1020 04:48:20.603274 10803 net.cpp:100] Creating Layer pool7
I1020 04:48:20.603276 10803 net.cpp:434] pool7 <- drop7
I1020 04:48:20.603279 10803 net.cpp:408] pool7 -> pool7
I1020 04:48:20.603303 10803 net.cpp:150] Setting up pool7
I1020 04:48:20.603307 10803 net.cpp:157] Top shape: 100 100 1 1 (10000)
I1020 04:48:20.603309 10803 net.cpp:165] Memory required for data: 209978800
I1020 04:48:20.603310 10803 layer_factory.hpp:77] Creating layer score
I1020 04:48:20.603314 10803 net.cpp:100] Creating Layer score
I1020 04:48:20.603317 10803 net.cpp:434] score <- pool7
I1020 04:48:20.603320 10803 net.cpp:408] score -> score
I1020 04:48:20.603401 10803 net.cpp:150] Setting up score
I1020 04:48:20.603405 10803 net.cpp:157] Top shape: 100 10 (1000)
I1020 04:48:20.603407 10803 net.cpp:165] Memory required for data: 209982800
I1020 04:48:20.603411 10803 layer_factory.hpp:77] Creating layer score_score_0_split
I1020 04:48:20.603415 10803 net.cpp:100] Creating Layer score_score_0_split
I1020 04:48:20.603418 10803 net.cpp:434] score_score_0_split <- score
I1020 04:48:20.603421 10803 net.cpp:408] score_score_0_split -> score_score_0_split_0
I1020 04:48:20.603425 10803 net.cpp:408] score_score_0_split -> score_score_0_split_1
I1020 04:48:20.603448 10803 net.cpp:150] Setting up score_score_0_split
I1020 04:48:20.603451 10803 net.cpp:157] Top shape: 100 10 (1000)
I1020 04:48:20.603454 10803 net.cpp:157] Top shape: 100 10 (1000)
I1020 04:48:20.603456 10803 net.cpp:165] Memory required for data: 209990800
I1020 04:48:20.603457 10803 layer_factory.hpp:77] Creating layer accuracy
I1020 04:48:20.603461 10803 net.cpp:100] Creating Layer accuracy
I1020 04:48:20.603462 10803 net.cpp:434] accuracy <- score_score_0_split_0
I1020 04:48:20.603464 10803 net.cpp:434] accuracy <- label_data_1_split_0
I1020 04:48:20.603468 10803 net.cpp:408] accuracy -> accuracy
…
