…
  level: 0
  stage: ""
}
type: "SGD"
I1020 04:06:57.085954 10313 solver.cpp:81] Creating training net from train_net file: /home/adam/Honours/Honours-Project/mnist_pooling/max/relu/poolcnn_relu_train.prototxt
I1020 04:06:57.086261 10313 net.cpp:58] Initializing net from parameters: 
state {
  phase: TRAIN
  level: 0
  stage: ""
}
layer {
  name: "data"
  type: "Data"
  top: "data"
  top: "label"
  transform_param {
    scale: 0.0039215689
  }
  data_param {
    source: "../../../../data/mnist/mnist_train_lmdb"
    batch_size: 64
    backend: LMDB
  }
}
layer {
  name: "conv1"
  type: "Convolution"
  bottom: "data"
  top: "conv1"
  convolution_param {
    num_output: 192
    kernel_size: 5
    weight_filler {
      type: "xavier"
    }
  }
}
layer {
  name: "relu1"
  type: "ReLU"
  bottom: "conv1"
  top: "relu1"
}
layer {
  name: "drop1"
  type: "Dropout"
  bottom: "relu1"
  top: "drop1"
  dropout_param {
    dropout_ratio: 0
  }
}
layer {
  name: "pool1"
  type: "Pooling"
  bottom: "drop1"
  top: "pool1"
  pooling_param {
    pool: MAX
    kernel_size: 2
    stride: 2
  }
}
layer {
  name: "conv2"
  type: "Convolution"
  bottom: "pool1"
  top: "conv2"
  convolution_param {
    num_output: 192
    kernel_size: 1
    weight_filler {
      type: "xavier"
    }
  }
}
layer {
  name: "relu2"
  type: "ReLU"
  bottom: "conv2"
  top: "relu2"
}
layer {
  name: "conv3"
  type: "Convolution"
  bottom: "relu2"
  top: "conv3"
  convolution_param {
    num_output: 240
    kernel_size: 3
    weight_filler {
      type: "xavier"
    }
  }
}
layer {
  name: "relu3"
  type: "ReLU"
  bottom: "conv3"
  top: "relu3"
}
layer {
  name: "drop2"
  type: "Dropout"
  bottom: "relu3"
  top: "drop2"
  dropout_param {
    dropout_ratio: 0.1
  }
}
layer {
  name: "pool2"
  type: "Pooling"
  bottom: "drop2"
  top: "pool2"
  pooling_param {
    pool: MAX
    kernel_size: 2
    stride: 2
  }
}
layer {
  name: "conv4"
  type: "Convolution"
  bottom: "pool2"
  top: "conv4"
  convolution_param {
    num_output: 240
    kernel_size: 1
    weight_filler {
      type: "xavier"
    }
  }
}
layer {
  name: "relu4"
  type: "ReLU"
  bottom: "conv4"
  top: "relu4"
}
layer {
  name: "conv5"
  type: "Convolution"
  bottom: "relu4"
  top: "conv5"
  convolution_param {
    num_output: 260
    kernel_size: 2
    weight_filler {
      type: "xavier"
    }
  }
}
layer {
  name: "relu5"
  type: "ReLU"
  bottom: "conv5"
  top: "relu5"
}
layer {
  name: "drop3"
  type: "Dropout"
  bottom: "relu5"
  top: "drop3"
  dropout_param {
    dropout_ratio: 0.2
  }
}
layer {
  name: "pool3"
  type: "Pooling"
  bottom: "drop3"
  top: "pool3"
  pooling_param {
    pool: MAX
    kernel_size: 2
    stride: 2
  }
}
layer {
  name: "conv6"
  type: "Convolution"
  bottom: "pool3"
  top: "conv6"
  convolution_param {
    num_output: 260
    kernel_size: 1
    weight_filler {
      type: "xavier"
    }
  }
}
layer {
  name: "relu6"
  type: "ReLU"
  bottom: "conv6"
  top: "relu6"
}
layer {
  name: "conv7"
  type: "Convolution"
  bottom: "relu6"
  top: "conv7"
  convolution_param {
    num_output: 280
    kernel_size: 2
    weight_filler {
      type: "xavier"
    }
  }
}
layer {
  name: "relu7"
  type: "ReLU"
  bottom: "conv7"
  top: "relu7"
}
layer {
  name: "drop4"
  type: "Dropout"
  bottom: "relu7"
  top: "drop4"
  dropout_param {
    dropout_ratio: 0.3
  }
}
layer {
  name: "pool4"
  type: "Pooling"
  bottom: "drop4"
  top: "pool4"
  pooling_param {
    pool: MAX
    kernel_size: 2
    stride: 2
  }
}
layer {
  name: "conv8"
  type: "Convolution"
  bottom: "pool4"
  top: "conv8"
  convolution_param {
    num_output: 280
    kernel_size: 1
    weight_filler {
      type: "xavier"
    }
  }
}
layer {
  name: "relu8"
  type: "ReLU"
  bottom: "conv8"
  top: "relu8"
}
layer {
  name: "drop5"
  type: "Dropout"
  bottom: "relu8"
  top: "drop5"
  dropout_param {
    dropout_ratio: 0.4
  }
}
layer {
  name: "pool5"
  type: "Pooling"
  bottom: "drop5"
  top: "pool5"
  pooling_param {
    pool: MAX
    kernel_size: 2
    stride: 2
  }
}
layer {
  name: "conv10"
  type: "Convolution"
  bottom: "pool5"
  top: "conv10"
  convolution_param {
    num_output: 300
    kernel_size: 1
    weight_filler {
      type: "xavier"
    }
  }
}
layer {
  name: "relu10"
  type: "ReLU"
  bottom: "conv10"
  top: "relu10"
}
layer {
  name: "drop6"
  type: "Dropout"
  bottom: "relu10"
  top: "drop6"
  dropout_param {
    dropout_ratio: 0.5
  }
}
layer {
  name: "pool6"
  type: "Pooling"
  bottom: "drop6"
  top: "pool6"
  pooling_param {
    pool: MAX
    kernel_size: 2
    stride: 2
  }
}
layer {
  name: "conv11"
  type: "Convolution"
  bottom: "pool6"
  top: "conv11"
  convolution_param {
    num_output: 100
    kernel_size: 1
    weight_filler {
      type: "xavier"
    }
  }
}
layer {
  name: "relu11"
  type: "ReLU"
  bottom: "conv11"
  top: "relu11"
}
layer {
  name: "drop7"
  type: "Dropout"
  bottom: "relu11"
  top: "drop7"
  dropout_param {
    dropout_ratio: 0
  }
}
layer {
  name: "pool7"
  type: "Pooling"
  bottom: "drop7"
  top: "pool7"
  pooling_param {
    pool: MAX
    kernel_size: 2
    stride: 2
  }
}
layer {
  name: "score"
  type: "InnerProduct"
  bottom: "pool7"
  top: "score"
  inner_product_param {
    num_output: 10
    weight_filler {
      type: "gaussian"
    }
  }
}
layer {
  name: "accuracy"
  type: "Accuracy"
  bottom: "score"
  bottom: "label"
  top: "accuracy"
}
layer {
  name: "loss"
  type: "SoftmaxWithLoss"
  bottom: "score"
  bottom: "label"
  top: "loss"
}
I1020 04:06:57.086393 10313 layer_factory.hpp:77] Creating layer data
I1020 04:06:57.086905 10313 net.cpp:100] Creating Layer data
I1020 04:06:57.086912 10313 net.cpp:408] data -> data
I1020 04:06:57.086932 10313 net.cpp:408] data -> label
I1020 04:06:57.087527 10318 db_lmdb.cpp:35] Opened lmdb ../../../../data/mnist/mnist_train_lmdb
I1020 04:06:57.093133 10313 data_layer.cpp:41] output data size: 64,1,28,28
I1020 04:06:57.093714 10313 net.cpp:150] Setting up data
I1020 04:06:57.093727 10313 net.cpp:157] Top shape: 64 1 28 28 (50176)
I1020 04:06:57.093734 10313 net.cpp:157] Top shape: 64 (64)
I1020 04:06:57.093739 10313 net.cpp:165] Memory required for data: 200960
I1020 04:06:57.093749 10313 layer_factory.hpp:77] Creating layer label_data_1_split
I1020 04:06:57.093762 10313 net.cpp:100] Creating Layer label_data_1_split
I1020 04:06:57.093768 10313 net.cpp:434] label_data_1_split <- label
I1020 04:06:57.093780 10313 net.cpp:408] label_data_1_split -> label_data_1_split_0
I1020 04:06:57.093788 10313 net.cpp:408] label_data_1_split -> label_data_1_split_1
I1020 04:06:57.093822 10313 net.cpp:150] Setting up label_data_1_split
I1020 04:06:57.093828 10313 net.cpp:157] Top shape: 64 (64)
I1020 04:06:57.093832 10313 net.cpp:157] Top shape: 64 (64)
I1020 04:06:57.093837 10313 net.cpp:165] Memory required for data: 201472
I1020 04:06:57.093839 10313 layer_factory.hpp:77] Creating layer conv1
I1020 04:06:57.093852 10313 net.cpp:100] Creating Layer conv1
I1020 04:06:57.093855 10313 net.cpp:434] conv1 <- data
I1020 04:06:57.093863 10313 net.cpp:408] conv1 -> conv1
I1020 04:06:57.215240 10313 net.cpp:150] Setting up conv1
I1020 04:06:57.215266 10313 net.cpp:157] Top shape: 64 192 24 24 (7077888)
I1020 04:06:57.215270 10313 net.cpp:165] Memory required for data: 28513024
I1020 04:06:57.215294 10313 layer_factory.hpp:77] Creating layer relu1
I1020 04:06:57.215306 10313 net.cpp:100] Creating Layer relu1
I1020 04:06:57.215312 10313 net.cpp:434] relu1 <- conv1
I1020 04:06:57.215317 10313 net.cpp:408] relu1 -> relu1
I1020 04:06:57.215443 10313 net.cpp:150] Setting up relu1
I1020 04:06:57.215451 10313 net.cpp:157] Top shape: 64 192 24 24 (7077888)
I1020 04:06:57.215466 10313 net.cpp:165] Memory required for data: 56824576
I1020 04:06:57.215468 10313 layer_factory.hpp:77] Creating layer drop1
I1020 04:06:57.215478 10313 net.cpp:100] Creating Layer drop1
I1020 04:06:57.215481 10313 net.cpp:434] drop1 <- relu1
I1020 04:06:57.215487 10313 net.cpp:408] drop1 -> drop1
I1020 04:06:57.215512 10313 net.cpp:150] Setting up drop1
I1020 04:06:57.215517 10313 net.cpp:157] Top shape: 64 192 24 24 (7077888)
I1020 04:06:57.215520 10313 net.cpp:165] Memory required for data: 85136128
I1020 04:06:57.215524 10313 layer_factory.hpp:77] Creating layer pool1
I1020 04:06:57.215529 10313 net.cpp:100] Creating Layer pool1
I1020 04:06:57.215533 10313 net.cpp:434] pool1 <- drop1
I1020 04:06:57.215538 10313 net.cpp:408] pool1 -> pool1
I1020 04:06:57.215569 10313 net.cpp:150] Setting up pool1
I1020 04:06:57.215574 10313 net.cpp:157] Top shape: 64 192 12 12 (1769472)
I1020 04:06:57.215577 10313 net.cpp:165] Memory required for data: 92214016
I1020 04:06:57.215580 10313 layer_factory.hpp:77] Creating layer conv2
I1020 04:06:57.215590 10313 net.cpp:100] Creating Layer conv2
I1020 04:06:57.215592 10313 net.cpp:434] conv2 <- pool1
I1020 04:06:57.215596 10313 net.cpp:408] conv2 -> conv2
I1020 04:06:57.216411 10313 net.cpp:150] Setting up conv2
I1020 04:06:57.216423 10313 net.cpp:157] Top shape: 64 192 12 12 (1769472)
I1020 04:06:57.216425 10313 net.cpp:165] Memory required for data: 99291904
I1020 04:06:57.216434 10313 layer_factory.hpp:77] Creating layer relu2
I1020 04:06:57.216439 10313 net.cpp:100] Creating Layer relu2
I1020 04:06:57.216442 10313 net.cpp:434] relu2 <- conv2
I1020 04:06:57.216447 10313 net.cpp:408] relu2 -> relu2
I1020 04:06:57.216568 10313 net.cpp:150] Setting up relu2
I1020 04:06:57.216575 10313 net.cpp:157] Top shape: 64 192 12 12 (1769472)
I1020 04:06:57.216578 10313 net.cpp:165] Memory required for data: 106369792
I1020 04:06:57.216581 10313 layer_factory.hpp:77] Creating layer conv3
I1020 04:06:57.216590 10313 net.cpp:100] Creating Layer conv3
I1020 04:06:57.216594 10313 net.cpp:434] conv3 <- relu2
I1020 04:06:57.216601 10313 net.cpp:408] conv3 -> conv3
I1020 04:06:57.219036 10313 net.cpp:150] Setting up conv3
I1020 04:06:57.219045 10313 net.cpp:157] Top shape: 64 240 10 10 (1536000)
I1020 04:06:57.219048 10313 net.cpp:165] Memory required for data: 112513792
I1020 04:06:57.219058 10313 layer_factory.hpp:77] Creating layer relu3
I1020 04:06:57.219063 10313 net.cpp:100] Creating Layer relu3
I1020 04:06:57.219068 10313 net.cpp:434] relu3 <- conv3
I1020 04:06:57.219072 10313 net.cpp:408] relu3 -> relu3
I1020 04:06:57.219264 10313 net.cpp:150] Setting up relu3
I1020 04:06:57.219271 10313 net.cpp:157] Top shape: 64 240 10 10 (1536000)
I1020 04:06:57.219274 10313 net.cpp:165] Memory required for data: 118657792
I1020 04:06:57.219277 10313 layer_factory.hpp:77] Creating layer drop2
I1020 04:06:57.219285 10313 net.cpp:100] Creating Layer drop2
I1020 04:06:57.219288 10313 net.cpp:434] drop2 <- relu3
I1020 04:06:57.219292 10313 net.cpp:408] drop2 -> drop2
I1020 04:06:57.219319 10313 net.cpp:150] Setting up drop2
I1020 04:06:57.219324 10313 net.cpp:157] Top shape: 64 240 10 10 (1536000)
I1020 04:06:57.219327 10313 net.cpp:165] Memory required for data: 124801792
I1020 04:06:57.219329 10313 layer_factory.hpp:77] Creating layer pool2
I1020 04:06:57.219334 10313 net.cpp:100] Creating Layer pool2
I1020 04:06:57.219338 10313 net.cpp:434] pool2 <- drop2
I1020 04:06:57.219344 10313 net.cpp:408] pool2 -> pool2
I1020 04:06:57.219369 10313 net.cpp:150] Setting up pool2
I1020 04:06:57.219375 10313 net.cpp:157] Top shape: 64 240 5 5 (384000)
I1020 04:06:57.219379 10313 net.cpp:165] Memory required for data: 126337792
I1020 04:06:57.219383 10313 layer_factory.hpp:77] Creating layer conv4
I1020 04:06:57.219388 10313 net.cpp:100] Creating Layer conv4
I1020 04:06:57.219391 10313 net.cpp:434] conv4 <- pool2
I1020 04:06:57.219398 10313 net.cpp:408] conv4 -> conv4
I1020 04:06:57.220235 10313 net.cpp:150] Setting up conv4
I1020 04:06:57.220244 10313 net.cpp:157] Top shape: 64 240 5 5 (384000)
I1020 04:06:57.220255 10313 net.cpp:165] Memory required for data: 127873792
I1020 04:06:57.220263 10313 layer_factory.hpp:77] Creating layer relu4
I1020 04:06:57.220269 10313 net.cpp:100] Creating Layer relu4
I1020 04:06:57.220273 10313 net.cpp:434] relu4 <- conv4
I1020 04:06:57.220278 10313 net.cpp:408] relu4 -> relu4
I1020 04:06:57.220402 10313 net.cpp:150] Setting up relu4
I1020 04:06:57.220409 10313 net.cpp:157] Top shape: 64 240 5 5 (384000)
I1020 04:06:57.220412 10313 net.cpp:165] Memory required for data: 129409792
I1020 04:06:57.220415 10313 layer_factory.hpp:77] Creating layer conv5
I1020 04:06:57.220423 10313 net.cpp:100] Creating Layer conv5
I1020 04:06:57.220427 10313 net.cpp:434] conv5 <- relu4
I1020 04:06:57.220432 10313 net.cpp:408] conv5 -> conv5
I1020 04:06:57.222183 10313 net.cpp:150] Setting up conv5
I1020 04:06:57.222193 10313 net.cpp:157] Top shape: 64 260 4 4 (266240)
I1020 04:06:57.222196 10313 net.cpp:165] Memory required for data: 130474752
I1020 04:06:57.222205 10313 layer_factory.hpp:77] Creating layer relu5
I1020 04:06:57.222211 10313 net.cpp:100] Creating Layer relu5
I1020 04:06:57.222214 10313 net.cpp:434] relu5 <- conv5
I1020 04:06:57.222220 10313 net.cpp:408] relu5 -> relu5
I1020 04:06:57.222337 10313 net.cpp:150] Setting up relu5
I1020 04:06:57.222344 10313 net.cpp:157] Top shape: 64 260 4 4 (266240)
I1020 04:06:57.222347 10313 net.cpp:165] Memory required for data: 131539712
I1020 04:06:57.222350 10313 layer_factory.hpp:77] Creating layer drop3
I1020 04:06:57.222358 10313 net.cpp:100] Creating Layer drop3
I1020 04:06:57.222362 10313 net.cpp:434] drop3 <- relu5
I1020 04:06:57.222368 10313 net.cpp:408] drop3 -> drop3
I1020 04:06:57.222393 10313 net.cpp:150] Setting up drop3
I1020 04:06:57.222398 10313 net.cpp:157] Top shape: 64 260 4 4 (266240)
I1020 04:06:57.222401 10313 net.cpp:165] Memory required for data: 132604672
I1020 04:06:57.222404 10313 layer_factory.hpp:77] Creating layer pool3
I1020 04:06:57.222409 10313 net.cpp:100] Creating Layer pool3
I1020 04:06:57.222414 10313 net.cpp:434] pool3 <- drop3
I1020 04:06:57.222419 10313 net.cpp:408] pool3 -> pool3
I1020 04:06:57.222443 10313 net.cpp:150] Setting up pool3
I1020 04:06:57.222450 10313 net.cpp:157] Top shape: 64 260 2 2 (66560)
I1020 04:06:57.222453 10313 net.cpp:165] Memory required for data: 132870912
I1020 04:06:57.222456 10313 layer_factory.hpp:77] Creating layer conv6
I1020 04:06:57.222461 10313 net.cpp:100] Creating Layer conv6
I1020 04:06:57.222465 10313 net.cpp:434] conv6 <- pool3
I1020 04:06:57.222472 10313 net.cpp:408] conv6 -> conv6
I1020 04:06:57.223572 10313 net.cpp:150] Setting up conv6
I1020 04:06:57.223582 10313 net.cpp:157] Top shape: 64 260 2 2 (66560)
I1020 04:06:57.223585 10313 net.cpp:165] Memory required for data: 133137152
I1020 04:06:57.223592 10313 layer_factory.hpp:77] Creating layer relu6
I1020 04:06:57.223597 10313 net.cpp:100] Creating Layer relu6
I1020 04:06:57.223600 10313 net.cpp:434] relu6 <- conv6
I1020 04:06:57.223608 10313 net.cpp:408] relu6 -> relu6
I1020 04:06:57.223801 10313 net.cpp:150] Setting up relu6
I1020 04:06:57.223809 10313 net.cpp:157] Top shape: 64 260 2 2 (66560)
I1020 04:06:57.223811 10313 net.cpp:165] Memory required for data: 133403392
I1020 04:06:57.223815 10313 layer_factory.hpp:77] Creating layer conv7
I1020 04:06:57.223822 10313 net.cpp:100] Creating Layer conv7
I1020 04:06:57.223826 10313 net.cpp:434] conv7 <- relu6
I1020 04:06:57.223831 10313 net.cpp:408] conv7 -> conv7
I1020 04:06:57.225774 10313 net.cpp:150] Setting up conv7
I1020 04:06:57.225782 10313 net.cpp:157] Top shape: 64 280 1 1 (17920)
I1020 04:06:57.225785 10313 net.cpp:165] Memory required for data: 133475072
I1020 04:06:57.225792 10313 layer_factory.hpp:77] Creating layer relu7
I1020 04:06:57.225798 10313 net.cpp:100] Creating Layer relu7
I1020 04:06:57.225802 10313 net.cpp:434] relu7 <- conv7
I1020 04:06:57.225808 10313 net.cpp:408] relu7 -> relu7
I1020 04:06:57.225930 10313 net.cpp:150] Setting up relu7
I1020 04:06:57.225937 10313 net.cpp:157] Top shape: 64 280 1 1 (17920)
I1020 04:06:57.225949 10313 net.cpp:165] Memory required for data: 133546752
I1020 04:06:57.225951 10313 layer_factory.hpp:77] Creating layer drop4
I1020 04:06:57.225957 10313 net.cpp:100] Creating Layer drop4
I1020 04:06:57.225962 10313 net.cpp:434] drop4 <- relu7
I1020 04:06:57.225966 10313 net.cpp:408] drop4 -> drop4
I1020 04:06:57.225994 10313 net.cpp:150] Setting up drop4
I1020 04:06:57.225999 10313 net.cpp:157] Top shape: 64 280 1 1 (17920)
I1020 04:06:57.226003 10313 net.cpp:165] Memory required for data: 133618432
I1020 04:06:57.226006 10313 layer_factory.hpp:77] Creating layer pool4
I1020 04:06:57.226011 10313 net.cpp:100] Creating Layer pool4
I1020 04:06:57.226016 10313 net.cpp:434] pool4 <- drop4
I1020 04:06:57.226021 10313 net.cpp:408] pool4 -> pool4
I1020 04:06:57.226047 10313 net.cpp:150] Setting up pool4
I1020 04:06:57.226052 10313 net.cpp:157] Top shape: 64 280 1 1 (17920)
I1020 04:06:57.226055 10313 net.cpp:165] Memory required for data: 133690112
I1020 04:06:57.226059 10313 layer_factory.hpp:77] Creating layer conv8
I1020 04:06:57.226068 10313 net.cpp:100] Creating Layer conv8
I1020 04:06:57.226070 10313 net.cpp:434] conv8 <- pool4
I1020 04:06:57.226075 10313 net.cpp:408] conv8 -> conv8
I1020 04:06:57.227077 10313 net.cpp:150] Setting up conv8
I1020 04:06:57.227087 10313 net.cpp:157] Top shape: 64 280 1 1 (17920)
I1020 04:06:57.227089 10313 net.cpp:165] Memory required for data: 133761792
I1020 04:06:57.227095 10313 layer_factory.hpp:77] Creating layer relu8
I1020 04:06:57.227102 10313 net.cpp:100] Creating Layer relu8
I1020 04:06:57.227107 10313 net.cpp:434] relu8 <- conv8
I1020 04:06:57.227113 10313 net.cpp:408] relu8 -> relu8
I1020 04:06:57.227231 10313 net.cpp:150] Setting up relu8
I1020 04:06:57.227238 10313 net.cpp:157] Top shape: 64 280 1 1 (17920)
I1020 04:06:57.227242 10313 net.cpp:165] Memory required for data: 133833472
I1020 04:06:57.227246 10313 layer_factory.hpp:77] Creating layer drop5
I1020 04:06:57.227250 10313 net.cpp:100] Creating Layer drop5
I1020 04:06:57.227254 10313 net.cpp:434] drop5 <- relu8
I1020 04:06:57.227258 10313 net.cpp:408] drop5 -> drop5
I1020 04:06:57.227288 10313 net.cpp:150] Setting up drop5
I1020 04:06:57.227293 10313 net.cpp:157] Top shape: 64 280 1 1 (17920)
I1020 04:06:57.227296 10313 net.cpp:165] Memory required for data: 133905152
I1020 04:06:57.227299 10313 layer_factory.hpp:77] Creating layer pool5
I1020 04:06:57.227303 10313 net.cpp:100] Creating Layer pool5
I1020 04:06:57.227308 10313 net.cpp:434] pool5 <- drop5
I1020 04:06:57.227313 10313 net.cpp:408] pool5 -> pool5
I1020 04:06:57.227339 10313 net.cpp:150] Setting up pool5
I1020 04:06:57.227344 10313 net.cpp:157] Top shape: 64 280 1 1 (17920)
I1020 04:06:57.227346 10313 net.cpp:165] Memory required for data: 133976832
I1020 04:06:57.227350 10313 layer_factory.hpp:77] Creating layer conv10
I1020 04:06:57.227358 10313 net.cpp:100] Creating Layer conv10
I1020 04:06:57.227361 10313 net.cpp:434] conv10 <- pool5
I1020 04:06:57.227366 10313 net.cpp:408] conv10 -> conv10
I1020 04:06:57.228348 10313 net.cpp:150] Setting up conv10
I1020 04:06:57.228358 10313 net.cpp:157] Top shape: 64 300 1 1 (19200)
I1020 04:06:57.228363 10313 net.cpp:165] Memory required for data: 134053632
I1020 04:06:57.228373 10313 layer_factory.hpp:77] Creating layer relu10
I1020 04:06:57.228379 10313 net.cpp:100] Creating Layer relu10
I1020 04:06:57.228382 10313 net.cpp:434] relu10 <- conv10
I1020 04:06:57.228387 10313 net.cpp:408] relu10 -> relu10
I1020 04:06:57.228586 10313 net.cpp:150] Setting up relu10
I1020 04:06:57.228595 10313 net.cpp:157] Top shape: 64 300 1 1 (19200)
I1020 04:06:57.228597 10313 net.cpp:165] Memory required for data: 134130432
I1020 04:06:57.228600 10313 layer_factory.hpp:77] Creating layer drop6
I1020 04:06:57.228607 10313 net.cpp:100] Creating Layer drop6
I1020 04:06:57.228611 10313 net.cpp:434] drop6 <- relu10
I1020 04:06:57.228616 10313 net.cpp:408] drop6 -> drop6
I1020 04:06:57.228646 10313 net.cpp:150] Setting up drop6
I1020 04:06:57.228652 10313 net.cpp:157] Top shape: 64 300 1 1 (19200)
I1020 04:06:57.228657 10313 net.cpp:165] Memory required for data: 134207232
I1020 04:06:57.228667 10313 layer_factory.hpp:77] Creating layer pool6
I1020 04:06:57.228673 10313 net.cpp:100] Creating Layer pool6
I1020 04:06:57.228677 10313 net.cpp:434] pool6 <- drop6
I1020 04:06:57.228682 10313 net.cpp:408] pool6 -> pool6
I1020 04:06:57.228709 10313 net.cpp:150] Setting up pool6
I1020 04:06:57.228714 10313 net.cpp:157] Top shape: 64 300 1 1 (19200)
I1020 04:06:57.228718 10313 net.cpp:165] Memory required for data: 134284032
I1020 04:06:57.228721 10313 layer_factory.hpp:77] Creating layer conv11
I1020 04:06:57.228731 10313 net.cpp:100] Creating Layer conv11
I1020 04:06:57.228734 10313 net.cpp:434] conv11 <- pool6
I1020 04:06:57.228739 10313 net.cpp:408] conv11 -> conv11
I1020 04:06:57.229749 10313 net.cpp:150] Setting up conv11
I1020 04:06:57.229758 10313 net.cpp:157] Top shape: 64 100 1 1 (6400)
I1020 04:06:57.229761 10313 net.cpp:165] Memory required for data: 134309632
I1020 04:06:57.229766 10313 layer_factory.hpp:77] Creating layer relu11
I1020 04:06:57.229773 10313 net.cpp:100] Creating Layer relu11
I1020 04:06:57.229778 10313 net.cpp:434] relu11 <- conv11
I1020 04:06:57.229784 10313 net.cpp:408] relu11 -> relu11
I1020 04:06:57.229905 10313 net.cpp:150] Setting up relu11
I1020 04:06:57.229912 10313 net.cpp:157] Top shape: 64 100 1 1 (6400)
I1020 04:06:57.229917 10313 net.cpp:165] Memory required for data: 134335232
I1020 04:06:57.229920 10313 layer_factory.hpp:77] Creating layer drop7
I1020 04:06:57.229925 10313 net.cpp:100] Creating Layer drop7
I1020 04:06:57.229929 10313 net.cpp:434] drop7 <- relu11
I1020 04:06:57.229933 10313 net.cpp:408] drop7 -> drop7
I1020 04:06:57.229961 10313 net.cpp:150] Setting up drop7
I1020 04:06:57.229966 10313 net.cpp:157] Top shape: 64 100 1 1 (6400)
I1020 04:06:57.229970 10313 net.cpp:165] Memory required for data: 134360832
I1020 04:06:57.229974 10313 layer_factory.hpp:77] Creating layer pool7
I1020 04:06:57.229979 10313 net.cpp:100] Creating Layer pool7
I1020 04:06:57.229982 10313 net.cpp:434] pool7 <- drop7
I1020 04:06:57.229987 10313 net.cpp:408] pool7 -> pool7
I1020 04:06:57.230015 10313 net.cpp:150] Setting up pool7
I1020 04:06:57.230020 10313 net.cpp:157] Top shape: 64 100 1 1 (6400)
I1020 04:06:57.230022 10313 net.cpp:165] Memory required for data: 134386432
I1020 04:06:57.230026 10313 layer_factory.hpp:77] Creating layer score
I1020 04:06:57.230032 10313 net.cpp:100] Creating Layer score
I1020 04:06:57.230036 10313 net.cpp:434] score <- pool7
I1020 04:06:57.230041 10313 net.cpp:408] score -> score
I1020 04:06:57.230144 10313 net.cpp:150] Setting up score
I1020 04:06:57.230150 10313 net.cpp:157] Top shape: 64 10 (640)
I1020 04:06:57.230152 10313 net.cpp:165] Memory required for data: 134388992
I1020 04:06:57.230159 10313 layer_factory.hpp:77] Creating layer score_score_0_split
I1020 04:06:57.230165 10313 net.cpp:100] Creating Layer score_score_0_split
I1020 04:06:57.230168 10313 net.cpp:434] score_score_0_split <- score
I1020 04:06:57.230172 10313 net.cpp:408] score_score_0_split -> score_score_0_split_0
I1020 04:06:57.230178 10313 net.cpp:408] score_score_0_split -> score_score_0_split_1
I1020 04:06:57.230206 10313 net.cpp:150] Setting up score_score_0_split
I1020 04:06:57.230209 10313 net.cpp:157] Top shape: 64 10 (640)
I1020 04:06:57.230213 10313 net.cpp:157] Top shape: 64 10 (640)
I1020 04:06:57.230216 10313 net.cpp:165] Memory required for data: 134394112
I1020 04:06:57.230221 10313 layer_factory.hpp:77] Creating layer accuracy
I1020 04:06:57.230226 10313 net.cpp:100] Creating Layer accuracy
I1020 04:06:57.230228 10313 net.cpp:434] accuracy <- score_score_0_split_0
I1020 04:06:57.230233 10313 net.cpp:434] accuracy <- label_data_1_split_0
I1020 04:06:57.230238 10313 net.cpp:408] accuracy -> accuracy
…
I1020 04:06:57.230746 10313 net.cpp:283] Network initialization done.
I1020 04:06:57.230936 10313 solver.cpp:181] Creating test net (#0) specified by test_net file: /home/adam/Honours/Honours-Project/mnist_pooling/max/relu/poolcnn_relu_test.prototxt
I1020 04:06:57.231050 10313 net.cpp:58] Initializing net from parameters: 
state {
  phase: TEST
}
layer {
  name: "data"
  type: "Data"
  top: "data"
  top: "label"
  transform_param {
    scale: 0.0039215689
  }
  data_param {
    source: "../../../../data/mnist/mnist_test_lmdb"
    batch_size: 100
    backend: LMDB
  }
}
layer {
  name: "conv1"
  type: "Convolution"
  bottom: "data"
  top: "conv1"
  convolution_param {
    num_output: 192
    kernel_size: 5
    weight_filler {
      type: "xavier"
    }
  }
}
layer {
  name: "relu1"
  type: "ReLU"
  bottom: "conv1"
  top: "relu1"
}
layer {
  name: "drop1"
  type: "Dropout"
  bottom: "relu1"
  top: "drop1"
  dropout_param {
    dropout_ratio: 0
  }
}
layer {
  name: "pool1"
  type: "Pooling"
  bottom: "drop1"
  top: "pool1"
  pooling_param {
    pool: MAX
    kernel_size: 2
    stride: 2
  }
}
layer {
  name: "conv2"
  type: "Convolution"
  bottom: "pool1"
  top: "conv2"
  convolution_param {
    num_output: 192
    kernel_size: 1
    weight_filler {
      type: "xavier"
    }
  }
}
layer {
  name: "relu2"
  type: "ReLU"
  bottom: "conv2"
  top: "relu2"
}
layer {
  name: "conv3"
  type: "Convolution"
  bottom: "relu2"
  top: "conv3"
  convolution_param {
    num_output: 240
    kernel_size: 3
    weight_filler {
      type: "xavier"
    }
  }
}
layer {
  name: "relu3"
  type: "ReLU"
  bottom: "conv3"
  top: "relu3"
}
layer {
  name: "drop2"
  type: "Dropout"
  bottom: "relu3"
  top: "drop2"
  dropout_param {
    dropout_ratio: 0.1
  }
}
layer {
  name: "pool2"
  type: "Pooling"
  bottom: "drop2"
  top: "pool2"
  pooling_param {
    pool: MAX
    kernel_size: 2
    stride: 2
  }
}
layer {
  name: "conv4"
  type: "Convolution"
  bottom: "pool2"
  top: "conv4"
  convolution_param {
    num_output: 240
    kernel_size: 1
    weight_filler {
      type: "xavier"
    }
  }
}
layer {
  name: "relu4"
  type: "ReLU"
  bottom: "conv4"
  top: "relu4"
}
layer {
  name: "conv5"
  type: "Convolution"
  bottom: "relu4"
  top: "conv5"
  convolution_param {
    num_output: 260
    kernel_size: 2
    weight_filler {
      type: "xavier"
    }
  }
}
layer {
  name: "relu5"
  type: "ReLU"
  bottom: "conv5"
  top: "relu5"
}
layer {
  name: "drop3"
  type: "Dropout"
  bottom: "relu5"
  top: "drop3"
  dropout_param {
    dropout_ratio: 0.2
  }
}
layer {
  name: "pool3"
  type: "Pooling"
  bottom: "drop3"
  top: "pool3"
  pooling_param {
    pool: MAX
    kernel_size: 2
    stride: 2
  }
}
layer {
  name: "conv6"
  type: "Convolution"
  bottom: "pool3"
  top: "conv6"
  convolution_param {
    num_output: 260
    kernel_size: 1
    weight_filler {
      type: "xavier"
    }
  }
}
layer {
  name: "relu6"
  type: "ReLU"
  bottom: "conv6"
  top: "relu6"
}
layer {
  name: "conv7"
  type: "Convolution"
  bottom: "relu6"
  top: "conv7"
  convolution_param {
    num_output: 280
    kernel_size: 2
    weight_filler {
      type: "xavier"
    }
  }
}
layer {
  name: "relu7"
  type: "ReLU"
  bottom: "conv7"
  top: "relu7"
}
layer {
  name: "drop4"
  type: "Dropout"
  bottom: "relu7"
  top: "drop4"
  dropout_param {
    dropout_ratio: 0.3
  }
}
layer {
  name: "pool4"
  type: "Pooling"
  bottom: "drop4"
  top: "pool4"
  pooling_param {
    pool: MAX
    kernel_size: 2
    stride: 2
  }
}
layer {
  name: "conv8"
  type: "Convolution"
  bottom: "pool4"
  top: "conv8"
  convolution_param {
    num_output: 280
    kernel_size: 1
    weight_filler {
      type: "xavier"
    }
  }
}
layer {
  name: "relu8"
  type: "ReLU"
  bottom: "conv8"
  top: "relu8"
}
layer {
  name: "drop5"
  type: "Dropout"
  bottom: "relu8"
  top: "drop5"
  dropout_param {
    dropout_ratio: 0.4
  }
}
layer {
  name: "pool5"
  type: "Pooling"
  bottom: "drop5"
  top: "pool5"
  pooling_param {
    pool: MAX
    kernel_size: 2
    stride: 2
  }
}
layer {
  name: "conv10"
  type: "Convolution"
  bottom: "pool5"
  top: "conv10"
  convolution_param {
    num_output: 300
    kernel_size: 1
    weight_filler {
      type: "xavier"
    }
  }
}
layer {
  name: "relu10"
  type: "ReLU"
  bottom: "conv10"
  top: "relu10"
}
layer {
  name: "drop6"
  type: "Dropout"
  bottom: "relu10"
  top: "drop6"
  dropout_param {
    dropout_ratio: 0.5
  }
}
layer {
  name: "pool6"
  type: "Pooling"
  bottom: "drop6"
  top: "pool6"
  pooling_param {
    pool: MAX
    kernel_size: 2
    stride: 2
  }
}
layer {
  name: "conv11"
  type: "Convolution"
  bottom: "pool6"
  top: "conv11"
  convolution_param {
    num_output: 100
    kernel_size: 1
    weight_filler {
      type: "xavier"
    }
  }
}
layer {
  name: "relu11"
  type: "ReLU"
  bottom: "conv11"
  top: "relu11"
}
layer {
  name: "drop7"
  type: "Dropout"
  bottom: "relu11"
  top: "drop7"
  dropout_param {
    dropout_ratio: 0
  }
}
layer {
  name: "pool7"
  type: "Pooling"
  bottom: "drop7"
  top: "pool7"
  pooling_param {
    pool: MAX
    kernel_size: 2
    stride: 2
  }
}
layer {
  name: "score"
  type: "InnerProduct"
  bottom: "pool7"
  top: "score"
  inner_product_param {
    num_output: 10
    weight_filler {
      type: "gaussian"
    }
  }
}
layer {
  name: "accuracy"
  type: "Accuracy"
  bottom: "score"
  bottom: "label"
  top: "accuracy"
}
layer {
  name: "loss"
  type: "SoftmaxWithLoss"
  bottom: "score"
  bottom: "label"
  top: "loss"
}
I1020 04:06:57.231153 10313 layer_factory.hpp:77] Creating layer data
I1020 04:06:57.231242 10313 net.cpp:100] Creating Layer data
I1020 04:06:57.231248 10313 net.cpp:408] data -> data
I1020 04:06:57.231256 10313 net.cpp:408] data -> label
I1020 04:06:57.231815 10320 db_lmdb.cpp:35] Opened lmdb ../../../../data/mnist/mnist_test_lmdb
I1020 04:06:57.231892 10313 data_layer.cpp:41] output data size: 100,1,28,28
I1020 04:06:57.232623 10313 net.cpp:150] Setting up data
I1020 04:06:57.232633 10313 net.cpp:157] Top shape: 100 1 28 28 (78400)
I1020 04:06:57.232637 10313 net.cpp:157] Top shape: 100 (100)
I1020 04:06:57.232640 10313 net.cpp:165] Memory required for data: 314000
I1020 04:06:57.232645 10313 layer_factory.hpp:77] Creating layer label_data_1_split
I1020 04:06:57.232652 10313 net.cpp:100] Creating Layer label_data_1_split
I1020 04:06:57.232656 10313 net.cpp:434] label_data_1_split <- label
I1020 04:06:57.232661 10313 net.cpp:408] label_data_1_split -> label_data_1_split_0
I1020 04:06:57.232671 10313 net.cpp:408] label_data_1_split -> label_data_1_split_1
I1020 04:06:57.232707 10313 net.cpp:150] Setting up label_data_1_split
I1020 04:06:57.232712 10313 net.cpp:157] Top shape: 100 (100)
I1020 04:06:57.232717 10313 net.cpp:157] Top shape: 100 (100)
I1020 04:06:57.232719 10313 net.cpp:165] Memory required for data: 314800
I1020 04:06:57.232722 10313 layer_factory.hpp:77] Creating layer conv1
I1020 04:06:57.232731 10313 net.cpp:100] Creating Layer conv1
I1020 04:06:57.232735 10313 net.cpp:434] conv1 <- data
I1020 04:06:57.232741 10313 net.cpp:408] conv1 -> conv1
I1020 04:06:57.233525 10313 net.cpp:150] Setting up conv1
I1020 04:06:57.233536 10313 net.cpp:157] Top shape: 100 192 24 24 (11059200)
I1020 04:06:57.233541 10313 net.cpp:165] Memory required for data: 44551600
I1020 04:06:57.233551 10313 layer_factory.hpp:77] Creating layer relu1
I1020 04:06:57.233556 10313 net.cpp:100] Creating Layer relu1
I1020 04:06:57.233561 10313 net.cpp:434] relu1 <- conv1
I1020 04:06:57.233569 10313 net.cpp:408] relu1 -> relu1
I1020 04:06:57.233696 10313 net.cpp:150] Setting up relu1
I1020 04:06:57.233703 10313 net.cpp:157] Top shape: 100 192 24 24 (11059200)
I1020 04:06:57.233708 10313 net.cpp:165] Memory required for data: 88788400
I1020 04:06:57.233712 10313 layer_factory.hpp:77] Creating layer drop1
I1020 04:06:57.233719 10313 net.cpp:100] Creating Layer drop1
I1020 04:06:57.233723 10313 net.cpp:434] drop1 <- relu1
I1020 04:06:57.233732 10313 net.cpp:408] drop1 -> drop1
I1020 04:06:57.233762 10313 net.cpp:150] Setting up drop1
I1020 04:06:57.233768 10313 net.cpp:157] Top shape: 100 192 24 24 (11059200)
I1020 04:06:57.233772 10313 net.cpp:165] Memory required for data: 133025200
I1020 04:06:57.233777 10313 layer_factory.hpp:77] Creating layer pool1
I1020 04:06:57.233784 10313 net.cpp:100] Creating Layer pool1
I1020 04:06:57.233788 10313 net.cpp:434] pool1 <- drop1
I1020 04:06:57.233793 10313 net.cpp:408] pool1 -> pool1
I1020 04:06:57.233826 10313 net.cpp:150] Setting up pool1
I1020 04:06:57.233842 10313 net.cpp:157] Top shape: 100 192 12 12 (2764800)
I1020 04:06:57.233846 10313 net.cpp:165] Memory required for data: 144084400
I1020 04:06:57.233850 10313 layer_factory.hpp:77] Creating layer conv2
I1020 04:06:57.233856 10313 net.cpp:100] Creating Layer conv2
I1020 04:06:57.233860 10313 net.cpp:434] conv2 <- pool1
I1020 04:06:57.233865 10313 net.cpp:408] conv2 -> conv2
I1020 04:06:57.234756 10313 net.cpp:150] Setting up conv2
I1020 04:06:57.234766 10313 net.cpp:157] Top shape: 100 192 12 12 (2764800)
I1020 04:06:57.234771 10313 net.cpp:165] Memory required for data: 155143600
I1020 04:06:57.234779 10313 layer_factory.hpp:77] Creating layer relu2
I1020 04:06:57.234784 10313 net.cpp:100] Creating Layer relu2
I1020 04:06:57.234788 10313 net.cpp:434] relu2 <- conv2
I1020 04:06:57.234797 10313 net.cpp:408] relu2 -> relu2
I1020 04:06:57.234932 10313 net.cpp:150] Setting up relu2
I1020 04:06:57.234940 10313 net.cpp:157] Top shape: 100 192 12 12 (2764800)
I1020 04:06:57.234942 10313 net.cpp:165] Memory required for data: 166202800
I1020 04:06:57.234946 10313 layer_factory.hpp:77] Creating layer conv3
I1020 04:06:57.234956 10313 net.cpp:100] Creating Layer conv3
I1020 04:06:57.234959 10313 net.cpp:434] conv3 <- relu2
I1020 04:06:57.234964 10313 net.cpp:408] conv3 -> conv3
I1020 04:06:57.237444 10313 net.cpp:150] Setting up conv3
I1020 04:06:57.237454 10313 net.cpp:157] Top shape: 100 240 10 10 (2400000)
I1020 04:06:57.237458 10313 net.cpp:165] Memory required for data: 175802800
I1020 04:06:57.237467 10313 layer_factory.hpp:77] Creating layer relu3
I1020 04:06:57.237473 10313 net.cpp:100] Creating Layer relu3
I1020 04:06:57.237476 10313 net.cpp:434] relu3 <- conv3
I1020 04:06:57.237481 10313 net.cpp:408] relu3 -> relu3
I1020 04:06:57.237679 10313 net.cpp:150] Setting up relu3
I1020 04:06:57.237689 10313 net.cpp:157] Top shape: 100 240 10 10 (2400000)
I1020 04:06:57.237691 10313 net.cpp:165] Memory required for data: 185402800
I1020 04:06:57.237694 10313 layer_factory.hpp:77] Creating layer drop2
I1020 04:06:57.237700 10313 net.cpp:100] Creating Layer drop2
I1020 04:06:57.237705 10313 net.cpp:434] drop2 <- relu3
I1020 04:06:57.237711 10313 net.cpp:408] drop2 -> drop2
I1020 04:06:57.237740 10313 net.cpp:150] Setting up drop2
I1020 04:06:57.237745 10313 net.cpp:157] Top shape: 100 240 10 10 (2400000)
I1020 04:06:57.237749 10313 net.cpp:165] Memory required for data: 195002800
I1020 04:06:57.237752 10313 layer_factory.hpp:77] Creating layer pool2
I1020 04:06:57.237759 10313 net.cpp:100] Creating Layer pool2
I1020 04:06:57.237762 10313 net.cpp:434] pool2 <- drop2
I1020 04:06:57.237767 10313 net.cpp:408] pool2 -> pool2
I1020 04:06:57.237795 10313 net.cpp:150] Setting up pool2
I1020 04:06:57.237802 10313 net.cpp:157] Top shape: 100 240 5 5 (600000)
I1020 04:06:57.237803 10313 net.cpp:165] Memory required for data: 197402800
I1020 04:06:57.237807 10313 layer_factory.hpp:77] Creating layer conv4
I1020 04:06:57.237814 10313 net.cpp:100] Creating Layer conv4
I1020 04:06:57.237818 10313 net.cpp:434] conv4 <- pool2
I1020 04:06:57.237823 10313 net.cpp:408] conv4 -> conv4
I1020 04:06:57.238675 10313 net.cpp:150] Setting up conv4
I1020 04:06:57.238685 10313 net.cpp:157] Top shape: 100 240 5 5 (600000)
I1020 04:06:57.238688 10313 net.cpp:165] Memory required for data: 199802800
I1020 04:06:57.238694 10313 layer_factory.hpp:77] Creating layer relu4
I1020 04:06:57.238699 10313 net.cpp:100] Creating Layer relu4
I1020 04:06:57.238704 10313 net.cpp:434] relu4 <- conv4
I1020 04:06:57.238709 10313 net.cpp:408] relu4 -> relu4
I1020 04:06:57.238833 10313 net.cpp:150] Setting up relu4
I1020 04:06:57.238840 10313 net.cpp:157] Top shape: 100 240 5 5 (600000)
I1020 04:06:57.238843 10313 net.cpp:165] Memory required for data: 202202800
I1020 04:06:57.238848 10313 layer_factory.hpp:77] Creating layer conv5
I1020 04:06:57.238855 10313 net.cpp:100] Creating Layer conv5
I1020 04:06:57.238858 10313 net.cpp:434] conv5 <- relu4
I1020 04:06:57.238864 10313 net.cpp:408] conv5 -> conv5
I1020 04:06:57.240756 10313 net.cpp:150] Setting up conv5
I1020 04:06:57.240774 10313 net.cpp:157] Top shape: 100 260 4 4 (416000)
I1020 04:06:57.240777 10313 net.cpp:165] Memory required for data: 203866800
I1020 04:06:57.240787 10313 layer_factory.hpp:77] Creating layer relu5
I1020 04:06:57.240793 10313 net.cpp:100] Creating Layer relu5
I1020 04:06:57.240797 10313 net.cpp:434] relu5 <- conv5
I1020 04:06:57.240803 10313 net.cpp:408] relu5 -> relu5
I1020 04:06:57.240927 10313 net.cpp:150] Setting up relu5
I1020 04:06:57.240933 10313 net.cpp:157] Top shape: 100 260 4 4 (416000)
I1020 04:06:57.240936 10313 net.cpp:165] Memory required for data: 205530800
I1020 04:06:57.240939 10313 layer_factory.hpp:77] Creating layer drop3
I1020 04:06:57.240947 10313 net.cpp:100] Creating Layer drop3
I1020 04:06:57.240952 10313 net.cpp:434] drop3 <- relu5
I1020 04:06:57.240955 10313 net.cpp:408] drop3 -> drop3
I1020 04:06:57.240985 10313 net.cpp:150] Setting up drop3
I1020 04:06:57.240990 10313 net.cpp:157] Top shape: 100 260 4 4 (416000)
I1020 04:06:57.240993 10313 net.cpp:165] Memory required for data: 207194800
I1020 04:06:57.240996 10313 layer_factory.hpp:77] Creating layer pool3
I1020 04:06:57.241001 10313 net.cpp:100] Creating Layer pool3
I1020 04:06:57.241005 10313 net.cpp:434] pool3 <- drop3
I1020 04:06:57.241010 10313 net.cpp:408] pool3 -> pool3
I1020 04:06:57.241039 10313 net.cpp:150] Setting up pool3
I1020 04:06:57.241044 10313 net.cpp:157] Top shape: 100 260 2 2 (104000)
I1020 04:06:57.241047 10313 net.cpp:165] Memory required for data: 207610800
I1020 04:06:57.241050 10313 layer_factory.hpp:77] Creating layer conv6
I1020 04:06:57.241058 10313 net.cpp:100] Creating Layer conv6
I1020 04:06:57.241061 10313 net.cpp:434] conv6 <- pool3
I1020 04:06:57.241067 10313 net.cpp:408] conv6 -> conv6
I1020 04:06:57.242219 10313 net.cpp:150] Setting up conv6
I1020 04:06:57.242228 10313 net.cpp:157] Top shape: 100 260 2 2 (104000)
I1020 04:06:57.242231 10313 net.cpp:165] Memory required for data: 208026800
I1020 04:06:57.242238 10313 layer_factory.hpp:77] Creating layer relu6
I1020 04:06:57.242244 10313 net.cpp:100] Creating Layer relu6
I1020 04:06:57.242247 10313 net.cpp:434] relu6 <- conv6
I1020 04:06:57.242252 10313 net.cpp:408] relu6 -> relu6
I1020 04:06:57.242460 10313 net.cpp:150] Setting up relu6
I1020 04:06:57.242467 10313 net.cpp:157] Top shape: 100 260 2 2 (104000)
I1020 04:06:57.242471 10313 net.cpp:165] Memory required for data: 208442800
I1020 04:06:57.242475 10313 layer_factory.hpp:77] Creating layer conv7
I1020 04:06:57.242483 10313 net.cpp:100] Creating Layer conv7
I1020 04:06:57.242486 10313 net.cpp:434] conv7 <- relu6
I1020 04:06:57.242491 10313 net.cpp:408] conv7 -> conv7
I1020 04:06:57.244516 10313 net.cpp:150] Setting up conv7
I1020 04:06:57.244532 10313 net.cpp:157] Top shape: 100 280 1 1 (28000)
I1020 04:06:57.244535 10313 net.cpp:165] Memory required for data: 208554800
I1020 04:06:57.244544 10313 layer_factory.hpp:77] Creating layer relu7
I1020 04:06:57.244551 10313 net.cpp:100] Creating Layer relu7
I1020 04:06:57.244556 10313 net.cpp:434] relu7 <- conv7
I1020 04:06:57.244562 10313 net.cpp:408] relu7 -> relu7
I1020 04:06:57.244693 10313 net.cpp:150] Setting up relu7
I1020 04:06:57.244700 10313 net.cpp:157] Top shape: 100 280 1 1 (28000)
I1020 04:06:57.244704 10313 net.cpp:165] Memory required for data: 208666800
I1020 04:06:57.244706 10313 layer_factory.hpp:77] Creating layer drop4
I1020 04:06:57.244712 10313 net.cpp:100] Creating Layer drop4
I1020 04:06:57.244715 10313 net.cpp:434] drop4 <- relu7
I1020 04:06:57.244721 10313 net.cpp:408] drop4 -> drop4
I1020 04:06:57.244751 10313 net.cpp:150] Setting up drop4
I1020 04:06:57.244757 10313 net.cpp:157] Top shape: 100 280 1 1 (28000)
I1020 04:06:57.244760 10313 net.cpp:165] Memory required for data: 208778800
I1020 04:06:57.244763 10313 layer_factory.hpp:77] Creating layer pool4
I1020 04:06:57.244771 10313 net.cpp:100] Creating Layer pool4
I1020 04:06:57.244773 10313 net.cpp:434] pool4 <- drop4
I1020 04:06:57.244778 10313 net.cpp:408] pool4 -> pool4
I1020 04:06:57.244807 10313 net.cpp:150] Setting up pool4
I1020 04:06:57.244812 10313 net.cpp:157] Top shape: 100 280 1 1 (28000)
I1020 04:06:57.244824 10313 net.cpp:165] Memory required for data: 208890800
I1020 04:06:57.244828 10313 layer_factory.hpp:77] Creating layer conv8
I1020 04:06:57.244837 10313 net.cpp:100] Creating Layer conv8
I1020 04:06:57.244840 10313 net.cpp:434] conv8 <- pool4
I1020 04:06:57.244845 10313 net.cpp:408] conv8 -> conv8
I1020 04:06:57.245803 10313 net.cpp:150] Setting up conv8
I1020 04:06:57.245812 10313 net.cpp:157] Top shape: 100 280 1 1 (28000)
I1020 04:06:57.245815 10313 net.cpp:165] Memory required for data: 209002800
I1020 04:06:57.245821 10313 layer_factory.hpp:77] Creating layer relu8
I1020 04:06:57.245828 10313 net.cpp:100] Creating Layer relu8
I1020 04:06:57.245832 10313 net.cpp:434] relu8 <- conv8
I1020 04:06:57.245836 10313 net.cpp:408] relu8 -> relu8
I1020 04:06:57.245962 10313 net.cpp:150] Setting up relu8
I1020 04:06:57.245968 10313 net.cpp:157] Top shape: 100 280 1 1 (28000)
I1020 04:06:57.245971 10313 net.cpp:165] Memory required for data: 209114800
I1020 04:06:57.245975 10313 layer_factory.hpp:77] Creating layer drop5
I1020 04:06:57.245981 10313 net.cpp:100] Creating Layer drop5
I1020 04:06:57.245985 10313 net.cpp:434] drop5 <- relu8
I1020 04:06:57.245991 10313 net.cpp:408] drop5 -> drop5
I1020 04:06:57.246021 10313 net.cpp:150] Setting up drop5
I1020 04:06:57.246026 10313 net.cpp:157] Top shape: 100 280 1 1 (28000)
I1020 04:06:57.246028 10313 net.cpp:165] Memory required for data: 209226800
I1020 04:06:57.246031 10313 layer_factory.hpp:77] Creating layer pool5
I1020 04:06:57.246038 10313 net.cpp:100] Creating Layer pool5
I1020 04:06:57.246042 10313 net.cpp:434] pool5 <- drop5
I1020 04:06:57.246047 10313 net.cpp:408] pool5 -> pool5
I1020 04:06:57.246075 10313 net.cpp:150] Setting up pool5
I1020 04:06:57.246081 10313 net.cpp:157] Top shape: 100 280 1 1 (28000)
I1020 04:06:57.246084 10313 net.cpp:165] Memory required for data: 209338800
I1020 04:06:57.246086 10313 layer_factory.hpp:77] Creating layer conv10
I1020 04:06:57.246095 10313 net.cpp:100] Creating Layer conv10
I1020 04:06:57.246099 10313 net.cpp:434] conv10 <- pool5
I1020 04:06:57.246104 10313 net.cpp:408] conv10 -> conv10
I1020 04:06:57.247072 10313 net.cpp:150] Setting up conv10
I1020 04:06:57.247081 10313 net.cpp:157] Top shape: 100 300 1 1 (30000)
I1020 04:06:57.247086 10313 net.cpp:165] Memory required for data: 209458800
I1020 04:06:57.247095 10313 layer_factory.hpp:77] Creating layer relu10
I1020 04:06:57.247100 10313 net.cpp:100] Creating Layer relu10
I1020 04:06:57.247104 10313 net.cpp:434] relu10 <- conv10
I1020 04:06:57.247110 10313 net.cpp:408] relu10 -> relu10
I1020 04:06:57.247315 10313 net.cpp:150] Setting up relu10
I1020 04:06:57.247323 10313 net.cpp:157] Top shape: 100 300 1 1 (30000)
I1020 04:06:57.247328 10313 net.cpp:165] Memory required for data: 209578800
I1020 04:06:57.247330 10313 layer_factory.hpp:77] Creating layer drop6
I1020 04:06:57.247336 10313 net.cpp:100] Creating Layer drop6
I1020 04:06:57.247340 10313 net.cpp:434] drop6 <- relu10
I1020 04:06:57.247345 10313 net.cpp:408] drop6 -> drop6
I1020 04:06:57.247377 10313 net.cpp:150] Setting up drop6
I1020 04:06:57.247383 10313 net.cpp:157] Top shape: 100 300 1 1 (30000)
I1020 04:06:57.247386 10313 net.cpp:165] Memory required for data: 209698800
I1020 04:06:57.247390 10313 layer_factory.hpp:77] Creating layer pool6
I1020 04:06:57.247395 10313 net.cpp:100] Creating Layer pool6
I1020 04:06:57.247398 10313 net.cpp:434] pool6 <- drop6
I1020 04:06:57.247405 10313 net.cpp:408] pool6 -> pool6
I1020 04:06:57.247431 10313 net.cpp:150] Setting up pool6
I1020 04:06:57.247437 10313 net.cpp:157] Top shape: 100 300 1 1 (30000)
I1020 04:06:57.247440 10313 net.cpp:165] Memory required for data: 209818800
I1020 04:06:57.247443 10313 layer_factory.hpp:77] Creating layer conv11
I1020 04:06:57.247453 10313 net.cpp:100] Creating Layer conv11
I1020 04:06:57.247457 10313 net.cpp:434] conv11 <- pool6
I1020 04:06:57.247462 10313 net.cpp:408] conv11 -> conv11
I1020 04:06:57.248232 10313 net.cpp:150] Setting up conv11
I1020 04:06:57.248241 10313 net.cpp:157] Top shape: 100 100 1 1 (10000)
I1020 04:06:57.248251 10313 net.cpp:165] Memory required for data: 209858800
I1020 04:06:57.248258 10313 layer_factory.hpp:77] Creating layer relu11
I1020 04:06:57.248263 10313 net.cpp:100] Creating Layer relu11
I1020 04:06:57.248267 10313 net.cpp:434] relu11 <- conv11
I1020 04:06:57.248273 10313 net.cpp:408] relu11 -> relu11
I1020 04:06:57.248407 10313 net.cpp:150] Setting up relu11
I1020 04:06:57.248414 10313 net.cpp:157] Top shape: 100 100 1 1 (10000)
I1020 04:06:57.248417 10313 net.cpp:165] Memory required for data: 209898800
I1020 04:06:57.248421 10313 layer_factory.hpp:77] Creating layer drop7
I1020 04:06:57.248425 10313 net.cpp:100] Creating Layer drop7
I1020 04:06:57.248430 10313 net.cpp:434] drop7 <- relu11
I1020 04:06:57.248435 10313 net.cpp:408] drop7 -> drop7
I1020 04:06:57.248464 10313 net.cpp:150] Setting up drop7
I1020 04:06:57.248469 10313 net.cpp:157] Top shape: 100 100 1 1 (10000)
I1020 04:06:57.248472 10313 net.cpp:165] Memory required for data: 209938800
I1020 04:06:57.248476 10313 layer_factory.hpp:77] Creating layer pool7
I1020 04:06:57.248482 10313 net.cpp:100] Creating Layer pool7
I1020 04:06:57.248486 10313 net.cpp:434] pool7 <- drop7
I1020 04:06:57.248491 10313 net.cpp:408] pool7 -> pool7
I1020 04:06:57.248518 10313 net.cpp:150] Setting up pool7
I1020 04:06:57.248524 10313 net.cpp:157] Top shape: 100 100 1 1 (10000)
I1020 04:06:57.248528 10313 net.cpp:165] Memory required for data: 209978800
I1020 04:06:57.248530 10313 layer_factory.hpp:77] Creating layer score
I1020 04:06:57.248536 10313 net.cpp:100] Creating Layer score
I1020 04:06:57.248540 10313 net.cpp:434] score <- pool7
I1020 04:06:57.248544 10313 net.cpp:408] score -> score
I1020 04:06:57.248633 10313 net.cpp:150] Setting up score
I1020 04:06:57.248638 10313 net.cpp:157] Top shape: 100 10 (1000)
I1020 04:06:57.248641 10313 net.cpp:165] Memory required for data: 209982800
I1020 04:06:57.248647 10313 layer_factory.hpp:77] Creating layer score_score_0_split
I1020 04:06:57.248653 10313 net.cpp:100] Creating Layer score_score_0_split
I1020 04:06:57.248656 10313 net.cpp:434] score_score_0_split <- score
I1020 04:06:57.248663 10313 net.cpp:408] score_score_0_split -> score_score_0_split_0
I1020 04:06:57.248669 10313 net.cpp:408] score_score_0_split -> score_score_0_split_1
I1020 04:06:57.248697 10313 net.cpp:150] Setting up score_score_0_split
I1020 04:06:57.248703 10313 net.cpp:157] Top shape: 100 10 (1000)
I1020 04:06:57.248706 10313 net.cpp:157] Top shape: 100 10 (1000)
I1020 04:06:57.248709 10313 net.cpp:165] Memory required for data: 209990800
I1020 04:06:57.248713 10313 layer_factory.hpp:77] Creating layer accuracy
I1020 04:06:57.248718 10313 net.cpp:100] Creating Layer accuracy
I1020 04:06:57.248721 10313 net.cpp:434] accuracy <- score_score_0_split_0
I1020 04:06:57.248725 10313 net.cpp:434] accuracy <- label_data_1_split_0
I1020 04:06:57.248731 10313 net.cpp:408] accuracy -> accuracy
…
