…
  level: 0
  stage: ""
}
type: "AdaDelta"
I1018 17:19:20.411232  3765 solver.cpp:81] Creating training net from train_net file: /home/adam/Honours/Honours-Project/mnist_pooling/max/elu/poolcnn_elu_train.prototxt
I1018 17:19:20.411593  3765 net.cpp:58] Initializing net from parameters: 
state {
  phase: TRAIN
  level: 0
  stage: ""
}
layer {
  name: "data"
  type: "Data"
  top: "data"
  top: "label"
  transform_param {
    scale: 0.0039215689
  }
  data_param {
    source: "../../../../data/mnist/mnist_train_lmdb"
    batch_size: 64
    backend: LMDB
  }
}
layer {
  name: "conv1"
  type: "Convolution"
  bottom: "data"
  top: "conv1"
  convolution_param {
    num_output: 192
    kernel_size: 5
    weight_filler {
      type: "xavier"
    }
  }
}
layer {
  name: "pool1"
  type: "Pooling"
  bottom: "conv1"
  top: "pool1"
  pooling_param {
    pool: MAX
    kernel_size: 2
    stride: 2
  }
}
layer {
  name: "drop1"
  type: "Dropout"
  bottom: "pool1"
  top: "drop1"
  dropout_param {
    dropout_ratio: 0
  }
}
layer {
  name: "elu1"
  type: "ELU"
  bottom: "drop1"
  top: "elu1"
}
layer {
  name: "conv2"
  type: "Convolution"
  bottom: "elu1"
  top: "conv2"
  convolution_param {
    num_output: 192
    kernel_size: 1
    weight_filler {
      type: "xavier"
    }
  }
}
layer {
  name: "conv3"
  type: "Convolution"
  bottom: "conv2"
  top: "conv3"
  convolution_param {
    num_output: 240
    kernel_size: 3
    weight_filler {
      type: "xavier"
    }
  }
}
layer {
  name: "pool2"
  type: "Pooling"
  bottom: "conv3"
  top: "pool2"
  pooling_param {
    pool: MAX
    kernel_size: 2
    stride: 2
  }
}
layer {
  name: "drop2"
  type: "Dropout"
  bottom: "pool2"
  top: "drop2"
  dropout_param {
    dropout_ratio: 0.1
  }
}
layer {
  name: "elu2"
  type: "ELU"
  bottom: "drop2"
  top: "elu2"
}
layer {
  name: "conv4"
  type: "Convolution"
  bottom: "elu2"
  top: "conv4"
  convolution_param {
    num_output: 240
    kernel_size: 1
    weight_filler {
      type: "xavier"
    }
  }
}
layer {
  name: "conv5"
  type: "Convolution"
  bottom: "conv4"
  top: "conv5"
  convolution_param {
    num_output: 260
    kernel_size: 2
    weight_filler {
      type: "xavier"
    }
  }
}
layer {
  name: "pool3"
  type: "Pooling"
  bottom: "conv5"
  top: "pool3"
  pooling_param {
    pool: MAX
    kernel_size: 2
    stride: 2
  }
}
layer {
  name: "drop3"
  type: "Dropout"
  bottom: "pool3"
  top: "drop3"
  dropout_param {
    dropout_ratio: 0.2
  }
}
layer {
  name: "elu3"
  type: "ELU"
  bottom: "drop3"
  top: "elu3"
}
layer {
  name: "conv6"
  type: "Convolution"
  bottom: "elu3"
  top: "conv6"
  convolution_param {
    num_output: 260
    kernel_size: 1
    weight_filler {
      type: "xavier"
    }
  }
}
layer {
  name: "conv7"
  type: "Convolution"
  bottom: "conv6"
  top: "conv7"
  convolution_param {
    num_output: 280
    kernel_size: 2
    weight_filler {
      type: "xavier"
    }
  }
}
layer {
  name: "pool4"
  type: "Pooling"
  bottom: "conv7"
  top: "pool4"
  pooling_param {
    pool: MAX
    kernel_size: 2
    stride: 2
  }
}
layer {
  name: "drop4"
  type: "Dropout"
  bottom: "pool4"
  top: "drop4"
  dropout_param {
    dropout_ratio: 0.3
  }
}
layer {
  name: "elu4"
  type: "ELU"
  bottom: "drop4"
  top: "elu4"
}
layer {
  name: "conv8"
  type: "Convolution"
  bottom: "elu4"
  top: "conv8"
  convolution_param {
    num_output: 280
    kernel_size: 1
    weight_filler {
      type: "xavier"
    }
  }
}
layer {
  name: "pool5"
  type: "Pooling"
  bottom: "conv8"
  top: "pool5"
  pooling_param {
    pool: MAX
    kernel_size: 2
    stride: 2
  }
}
layer {
  name: "drop5"
  type: "Dropout"
  bottom: "pool5"
  top: "drop5"
  dropout_param {
    dropout_ratio: 0.4
  }
}
layer {
  name: "elu5"
  type: "ELU"
  bottom: "drop5"
  top: "elu5"
}
layer {
  name: "conv10"
  type: "Convolution"
  bottom: "elu5"
  top: "conv10"
  convolution_param {
    num_output: 300
    kernel_size: 1
    weight_filler {
      type: "xavier"
    }
  }
}
layer {
  name: "pool6"
  type: "Pooling"
  bottom: "conv10"
  top: "pool6"
  pooling_param {
    pool: MAX
    kernel_size: 2
    stride: 2
  }
}
layer {
  name: "drop6"
  type: "Dropout"
  bottom: "pool6"
  top: "drop6"
  dropout_param {
    dropout_ratio: 0.5
  }
}
layer {
  name: "elu6"
  type: "ELU"
  bottom: "drop6"
  top: "elu6"
}
layer {
  name: "conv11"
  type: "Convolution"
  bottom: "elu6"
  top: "conv11"
  convolution_param {
    num_output: 100
    kernel_size: 1
    weight_filler {
      type: "xavier"
    }
  }
}
layer {
  name: "pool7"
  type: "Pooling"
  bottom: "conv11"
  top: "pool7"
  pooling_param {
    pool: MAX
    kernel_size: 2
    stride: 2
  }
}
layer {
  name: "drop7"
  type: "Dropout"
  bottom: "pool7"
  top: "drop7"
  dropout_param {
    dropout_ratio: 0
  }
}
layer {
  name: "elu7"
  type: "ELU"
  bottom: "drop7"
  top: "elu7"
}
layer {
  name: "pool"
  type: "Pooling"
  bottom: "elu7"
  top: "pool"
  pooling_param {
    pool: AVE
    global_pooling: true
  }
}
layer {
  name: "flatten"
  type: "Flatten"
  bottom: "pool"
  top: "flatten"
}
layer {
  name: "score"
  type: "InnerProduct"
  bottom: "flatten"
  top: "score"
  inner_product_param {
    num_output: 10
    weight_filler {
      type: "gaussian"
    }
  }
}
layer {
  name: "accuracy"
  type: "Accuracy"
  bottom: "score"
  bottom: "label"
  top: "accuracy"
}
layer {
  name: "loss"
  type: "SoftmaxWithLoss"
  bottom: "score"
  bottom: "label"
  top: "loss"
}
I1018 17:19:20.411725  3765 layer_factory.hpp:77] Creating layer data
I1018 17:19:20.412214  3765 net.cpp:100] Creating Layer data
I1018 17:19:20.412227  3765 net.cpp:408] data -> data
I1018 17:19:20.412248  3765 net.cpp:408] data -> label
I1018 17:19:20.412788  3770 db_lmdb.cpp:35] Opened lmdb ../../../../data/mnist/mnist_train_lmdb
I1018 17:19:20.418190  3765 data_layer.cpp:41] output data size: 64,1,28,28
I1018 17:19:20.418741  3765 net.cpp:150] Setting up data
I1018 17:19:20.418754  3765 net.cpp:157] Top shape: 64 1 28 28 (50176)
I1018 17:19:20.418761  3765 net.cpp:157] Top shape: 64 (64)
I1018 17:19:20.418764  3765 net.cpp:165] Memory required for data: 200960
I1018 17:19:20.418776  3765 layer_factory.hpp:77] Creating layer label_data_1_split
I1018 17:19:20.418789  3765 net.cpp:100] Creating Layer label_data_1_split
I1018 17:19:20.418795  3765 net.cpp:434] label_data_1_split <- label
I1018 17:19:20.418807  3765 net.cpp:408] label_data_1_split -> label_data_1_split_0
I1018 17:19:20.418817  3765 net.cpp:408] label_data_1_split -> label_data_1_split_1
I1018 17:19:20.418846  3765 net.cpp:150] Setting up label_data_1_split
I1018 17:19:20.418851  3765 net.cpp:157] Top shape: 64 (64)
I1018 17:19:20.418855  3765 net.cpp:157] Top shape: 64 (64)
I1018 17:19:20.418859  3765 net.cpp:165] Memory required for data: 201472
I1018 17:19:20.418861  3765 layer_factory.hpp:77] Creating layer conv1
I1018 17:19:20.418875  3765 net.cpp:100] Creating Layer conv1
I1018 17:19:20.418879  3765 net.cpp:434] conv1 <- data
I1018 17:19:20.418885  3765 net.cpp:408] conv1 -> conv1
I1018 17:19:20.537092  3765 net.cpp:150] Setting up conv1
I1018 17:19:20.537120  3765 net.cpp:157] Top shape: 64 192 24 24 (7077888)
I1018 17:19:20.537123  3765 net.cpp:165] Memory required for data: 28513024
I1018 17:19:20.537148  3765 layer_factory.hpp:77] Creating layer pool1
I1018 17:19:20.537160  3765 net.cpp:100] Creating Layer pool1
I1018 17:19:20.537164  3765 net.cpp:434] pool1 <- conv1
I1018 17:19:20.537171  3765 net.cpp:408] pool1 -> pool1
I1018 17:19:20.537215  3765 net.cpp:150] Setting up pool1
I1018 17:19:20.537221  3765 net.cpp:157] Top shape: 64 192 12 12 (1769472)
I1018 17:19:20.537235  3765 net.cpp:165] Memory required for data: 35590912
I1018 17:19:20.537237  3765 layer_factory.hpp:77] Creating layer drop1
I1018 17:19:20.537245  3765 net.cpp:100] Creating Layer drop1
I1018 17:19:20.537248  3765 net.cpp:434] drop1 <- pool1
I1018 17:19:20.537253  3765 net.cpp:408] drop1 -> drop1
I1018 17:19:20.537279  3765 net.cpp:150] Setting up drop1
I1018 17:19:20.537284  3765 net.cpp:157] Top shape: 64 192 12 12 (1769472)
I1018 17:19:20.537287  3765 net.cpp:165] Memory required for data: 42668800
I1018 17:19:20.537291  3765 layer_factory.hpp:77] Creating layer elu1
I1018 17:19:20.537295  3765 net.cpp:100] Creating Layer elu1
I1018 17:19:20.537299  3765 net.cpp:434] elu1 <- drop1
I1018 17:19:20.537303  3765 net.cpp:408] elu1 -> elu1
I1018 17:19:20.537319  3765 net.cpp:150] Setting up elu1
I1018 17:19:20.537324  3765 net.cpp:157] Top shape: 64 192 12 12 (1769472)
I1018 17:19:20.537327  3765 net.cpp:165] Memory required for data: 49746688
I1018 17:19:20.537330  3765 layer_factory.hpp:77] Creating layer conv2
I1018 17:19:20.537339  3765 net.cpp:100] Creating Layer conv2
I1018 17:19:20.537343  3765 net.cpp:434] conv2 <- elu1
I1018 17:19:20.537348  3765 net.cpp:408] conv2 -> conv2
I1018 17:19:20.538074  3765 net.cpp:150] Setting up conv2
I1018 17:19:20.538084  3765 net.cpp:157] Top shape: 64 192 12 12 (1769472)
I1018 17:19:20.538086  3765 net.cpp:165] Memory required for data: 56824576
I1018 17:19:20.538094  3765 layer_factory.hpp:77] Creating layer conv3
I1018 17:19:20.538101  3765 net.cpp:100] Creating Layer conv3
I1018 17:19:20.538105  3765 net.cpp:434] conv3 <- conv2
I1018 17:19:20.538110  3765 net.cpp:408] conv3 -> conv3
I1018 17:19:20.540505  3765 net.cpp:150] Setting up conv3
I1018 17:19:20.540514  3765 net.cpp:157] Top shape: 64 240 10 10 (1536000)
I1018 17:19:20.540518  3765 net.cpp:165] Memory required for data: 62968576
I1018 17:19:20.540526  3765 layer_factory.hpp:77] Creating layer pool2
I1018 17:19:20.540534  3765 net.cpp:100] Creating Layer pool2
I1018 17:19:20.540537  3765 net.cpp:434] pool2 <- conv3
I1018 17:19:20.540542  3765 net.cpp:408] pool2 -> pool2
I1018 17:19:20.540568  3765 net.cpp:150] Setting up pool2
I1018 17:19:20.540575  3765 net.cpp:157] Top shape: 64 240 5 5 (384000)
I1018 17:19:20.540576  3765 net.cpp:165] Memory required for data: 64504576
I1018 17:19:20.540580  3765 layer_factory.hpp:77] Creating layer drop2
I1018 17:19:20.540585  3765 net.cpp:100] Creating Layer drop2
I1018 17:19:20.540590  3765 net.cpp:434] drop2 <- pool2
I1018 17:19:20.540593  3765 net.cpp:408] drop2 -> drop2
I1018 17:19:20.540616  3765 net.cpp:150] Setting up drop2
I1018 17:19:20.540621  3765 net.cpp:157] Top shape: 64 240 5 5 (384000)
I1018 17:19:20.540624  3765 net.cpp:165] Memory required for data: 66040576
I1018 17:19:20.540627  3765 layer_factory.hpp:77] Creating layer elu2
I1018 17:19:20.540632  3765 net.cpp:100] Creating Layer elu2
I1018 17:19:20.540635  3765 net.cpp:434] elu2 <- drop2
I1018 17:19:20.540640  3765 net.cpp:408] elu2 -> elu2
I1018 17:19:20.540655  3765 net.cpp:150] Setting up elu2
I1018 17:19:20.540660  3765 net.cpp:157] Top shape: 64 240 5 5 (384000)
I1018 17:19:20.540664  3765 net.cpp:165] Memory required for data: 67576576
I1018 17:19:20.540668  3765 layer_factory.hpp:77] Creating layer conv4
I1018 17:19:20.540673  3765 net.cpp:100] Creating Layer conv4
I1018 17:19:20.540676  3765 net.cpp:434] conv4 <- elu2
I1018 17:19:20.540681  3765 net.cpp:408] conv4 -> conv4
I1018 17:19:20.541467  3765 net.cpp:150] Setting up conv4
I1018 17:19:20.541476  3765 net.cpp:157] Top shape: 64 240 5 5 (384000)
I1018 17:19:20.541478  3765 net.cpp:165] Memory required for data: 69112576
I1018 17:19:20.541486  3765 layer_factory.hpp:77] Creating layer conv5
I1018 17:19:20.541492  3765 net.cpp:100] Creating Layer conv5
I1018 17:19:20.541496  3765 net.cpp:434] conv5 <- conv4
I1018 17:19:20.541501  3765 net.cpp:408] conv5 -> conv5
I1018 17:19:20.543200  3765 net.cpp:150] Setting up conv5
I1018 17:19:20.543208  3765 net.cpp:157] Top shape: 64 260 4 4 (266240)
I1018 17:19:20.543211  3765 net.cpp:165] Memory required for data: 70177536
I1018 17:19:20.543228  3765 layer_factory.hpp:77] Creating layer pool3
I1018 17:19:20.543234  3765 net.cpp:100] Creating Layer pool3
I1018 17:19:20.543238  3765 net.cpp:434] pool3 <- conv5
I1018 17:19:20.543242  3765 net.cpp:408] pool3 -> pool3
I1018 17:19:20.543267  3765 net.cpp:150] Setting up pool3
I1018 17:19:20.543272  3765 net.cpp:157] Top shape: 64 260 2 2 (66560)
I1018 17:19:20.543275  3765 net.cpp:165] Memory required for data: 70443776
I1018 17:19:20.543278  3765 layer_factory.hpp:77] Creating layer drop3
I1018 17:19:20.543283  3765 net.cpp:100] Creating Layer drop3
I1018 17:19:20.543287  3765 net.cpp:434] drop3 <- pool3
I1018 17:19:20.543292  3765 net.cpp:408] drop3 -> drop3
I1018 17:19:20.543314  3765 net.cpp:150] Setting up drop3
I1018 17:19:20.543319  3765 net.cpp:157] Top shape: 64 260 2 2 (66560)
I1018 17:19:20.543323  3765 net.cpp:165] Memory required for data: 70710016
I1018 17:19:20.543326  3765 layer_factory.hpp:77] Creating layer elu3
I1018 17:19:20.543330  3765 net.cpp:100] Creating Layer elu3
I1018 17:19:20.543334  3765 net.cpp:434] elu3 <- drop3
I1018 17:19:20.543339  3765 net.cpp:408] elu3 -> elu3
I1018 17:19:20.543354  3765 net.cpp:150] Setting up elu3
I1018 17:19:20.543359  3765 net.cpp:157] Top shape: 64 260 2 2 (66560)
I1018 17:19:20.543361  3765 net.cpp:165] Memory required for data: 70976256
I1018 17:19:20.543365  3765 layer_factory.hpp:77] Creating layer conv6
I1018 17:19:20.543373  3765 net.cpp:100] Creating Layer conv6
I1018 17:19:20.543376  3765 net.cpp:434] conv6 <- elu3
I1018 17:19:20.543381  3765 net.cpp:408] conv6 -> conv6
I1018 17:19:20.544443  3765 net.cpp:150] Setting up conv6
I1018 17:19:20.544452  3765 net.cpp:157] Top shape: 64 260 2 2 (66560)
I1018 17:19:20.544456  3765 net.cpp:165] Memory required for data: 71242496
I1018 17:19:20.544461  3765 layer_factory.hpp:77] Creating layer conv7
I1018 17:19:20.544469  3765 net.cpp:100] Creating Layer conv7
I1018 17:19:20.544473  3765 net.cpp:434] conv7 <- conv6
I1018 17:19:20.544478  3765 net.cpp:408] conv7 -> conv7
I1018 17:19:20.546272  3765 net.cpp:150] Setting up conv7
I1018 17:19:20.546280  3765 net.cpp:157] Top shape: 64 280 1 1 (17920)
I1018 17:19:20.546284  3765 net.cpp:165] Memory required for data: 71314176
I1018 17:19:20.546290  3765 layer_factory.hpp:77] Creating layer pool4
I1018 17:19:20.546296  3765 net.cpp:100] Creating Layer pool4
I1018 17:19:20.546300  3765 net.cpp:434] pool4 <- conv7
I1018 17:19:20.546305  3765 net.cpp:408] pool4 -> pool4
I1018 17:19:20.546331  3765 net.cpp:150] Setting up pool4
I1018 17:19:20.546336  3765 net.cpp:157] Top shape: 64 280 1 1 (17920)
I1018 17:19:20.546339  3765 net.cpp:165] Memory required for data: 71385856
I1018 17:19:20.546344  3765 layer_factory.hpp:77] Creating layer drop4
I1018 17:19:20.546347  3765 net.cpp:100] Creating Layer drop4
I1018 17:19:20.546351  3765 net.cpp:434] drop4 <- pool4
I1018 17:19:20.546355  3765 net.cpp:408] drop4 -> drop4
I1018 17:19:20.546380  3765 net.cpp:150] Setting up drop4
I1018 17:19:20.546385  3765 net.cpp:157] Top shape: 64 280 1 1 (17920)
I1018 17:19:20.546388  3765 net.cpp:165] Memory required for data: 71457536
I1018 17:19:20.546391  3765 layer_factory.hpp:77] Creating layer elu4
I1018 17:19:20.546396  3765 net.cpp:100] Creating Layer elu4
I1018 17:19:20.546398  3765 net.cpp:434] elu4 <- drop4
I1018 17:19:20.546402  3765 net.cpp:408] elu4 -> elu4
I1018 17:19:20.546418  3765 net.cpp:150] Setting up elu4
I1018 17:19:20.546423  3765 net.cpp:157] Top shape: 64 280 1 1 (17920)
I1018 17:19:20.546427  3765 net.cpp:165] Memory required for data: 71529216
I1018 17:19:20.546429  3765 layer_factory.hpp:77] Creating layer conv8
I1018 17:19:20.546435  3765 net.cpp:100] Creating Layer conv8
I1018 17:19:20.546439  3765 net.cpp:434] conv8 <- elu4
I1018 17:19:20.546444  3765 net.cpp:408] conv8 -> conv8
I1018 17:19:20.547299  3765 net.cpp:150] Setting up conv8
I1018 17:19:20.547307  3765 net.cpp:157] Top shape: 64 280 1 1 (17920)
I1018 17:19:20.547312  3765 net.cpp:165] Memory required for data: 71600896
I1018 17:19:20.547325  3765 layer_factory.hpp:77] Creating layer pool5
I1018 17:19:20.547332  3765 net.cpp:100] Creating Layer pool5
I1018 17:19:20.547335  3765 net.cpp:434] pool5 <- conv8
I1018 17:19:20.547340  3765 net.cpp:408] pool5 -> pool5
I1018 17:19:20.547368  3765 net.cpp:150] Setting up pool5
I1018 17:19:20.547372  3765 net.cpp:157] Top shape: 64 280 1 1 (17920)
I1018 17:19:20.547375  3765 net.cpp:165] Memory required for data: 71672576
I1018 17:19:20.547379  3765 layer_factory.hpp:77] Creating layer drop5
I1018 17:19:20.547384  3765 net.cpp:100] Creating Layer drop5
I1018 17:19:20.547387  3765 net.cpp:434] drop5 <- pool5
I1018 17:19:20.547392  3765 net.cpp:408] drop5 -> drop5
I1018 17:19:20.547415  3765 net.cpp:150] Setting up drop5
I1018 17:19:20.547420  3765 net.cpp:157] Top shape: 64 280 1 1 (17920)
I1018 17:19:20.547425  3765 net.cpp:165] Memory required for data: 71744256
I1018 17:19:20.547427  3765 layer_factory.hpp:77] Creating layer elu5
I1018 17:19:20.547432  3765 net.cpp:100] Creating Layer elu5
I1018 17:19:20.547436  3765 net.cpp:434] elu5 <- drop5
I1018 17:19:20.547441  3765 net.cpp:408] elu5 -> elu5
I1018 17:19:20.547456  3765 net.cpp:150] Setting up elu5
I1018 17:19:20.547461  3765 net.cpp:157] Top shape: 64 280 1 1 (17920)
I1018 17:19:20.547463  3765 net.cpp:165] Memory required for data: 71815936
I1018 17:19:20.547466  3765 layer_factory.hpp:77] Creating layer conv10
I1018 17:19:20.547473  3765 net.cpp:100] Creating Layer conv10
I1018 17:19:20.547480  3765 net.cpp:434] conv10 <- elu5
I1018 17:19:20.547487  3765 net.cpp:408] conv10 -> conv10
I1018 17:19:20.548374  3765 net.cpp:150] Setting up conv10
I1018 17:19:20.548382  3765 net.cpp:157] Top shape: 64 300 1 1 (19200)
I1018 17:19:20.548387  3765 net.cpp:165] Memory required for data: 71892736
I1018 17:19:20.548395  3765 layer_factory.hpp:77] Creating layer pool6
I1018 17:19:20.548401  3765 net.cpp:100] Creating Layer pool6
I1018 17:19:20.548405  3765 net.cpp:434] pool6 <- conv10
I1018 17:19:20.548411  3765 net.cpp:408] pool6 -> pool6
I1018 17:19:20.548439  3765 net.cpp:150] Setting up pool6
I1018 17:19:20.548444  3765 net.cpp:157] Top shape: 64 300 1 1 (19200)
I1018 17:19:20.548446  3765 net.cpp:165] Memory required for data: 71969536
I1018 17:19:20.548450  3765 layer_factory.hpp:77] Creating layer drop6
I1018 17:19:20.548454  3765 net.cpp:100] Creating Layer drop6
I1018 17:19:20.548457  3765 net.cpp:434] drop6 <- pool6
I1018 17:19:20.548462  3765 net.cpp:408] drop6 -> drop6
I1018 17:19:20.548487  3765 net.cpp:150] Setting up drop6
I1018 17:19:20.548492  3765 net.cpp:157] Top shape: 64 300 1 1 (19200)
I1018 17:19:20.548496  3765 net.cpp:165] Memory required for data: 72046336
I1018 17:19:20.548497  3765 layer_factory.hpp:77] Creating layer elu6
I1018 17:19:20.548502  3765 net.cpp:100] Creating Layer elu6
I1018 17:19:20.548506  3765 net.cpp:434] elu6 <- drop6
I1018 17:19:20.548511  3765 net.cpp:408] elu6 -> elu6
I1018 17:19:20.548562  3765 net.cpp:150] Setting up elu6
I1018 17:19:20.548568  3765 net.cpp:157] Top shape: 64 300 1 1 (19200)
I1018 17:19:20.548570  3765 net.cpp:165] Memory required for data: 72123136
I1018 17:19:20.548573  3765 layer_factory.hpp:77] Creating layer conv11
I1018 17:19:20.548579  3765 net.cpp:100] Creating Layer conv11
I1018 17:19:20.548583  3765 net.cpp:434] conv11 <- elu6
I1018 17:19:20.548588  3765 net.cpp:408] conv11 -> conv11
I1018 17:19:20.549646  3765 net.cpp:150] Setting up conv11
I1018 17:19:20.549654  3765 net.cpp:157] Top shape: 64 100 1 1 (6400)
I1018 17:19:20.549659  3765 net.cpp:165] Memory required for data: 72148736
I1018 17:19:20.549665  3765 layer_factory.hpp:77] Creating layer pool7
I1018 17:19:20.549671  3765 net.cpp:100] Creating Layer pool7
I1018 17:19:20.549675  3765 net.cpp:434] pool7 <- conv11
I1018 17:19:20.549680  3765 net.cpp:408] pool7 -> pool7
I1018 17:19:20.549710  3765 net.cpp:150] Setting up pool7
I1018 17:19:20.549715  3765 net.cpp:157] Top shape: 64 100 1 1 (6400)
I1018 17:19:20.549720  3765 net.cpp:165] Memory required for data: 72174336
I1018 17:19:20.549722  3765 layer_factory.hpp:77] Creating layer drop7
I1018 17:19:20.549736  3765 net.cpp:100] Creating Layer drop7
I1018 17:19:20.549741  3765 net.cpp:434] drop7 <- pool7
I1018 17:19:20.549746  3765 net.cpp:408] drop7 -> drop7
I1018 17:19:20.549770  3765 net.cpp:150] Setting up drop7
I1018 17:19:20.549775  3765 net.cpp:157] Top shape: 64 100 1 1 (6400)
I1018 17:19:20.549778  3765 net.cpp:165] Memory required for data: 72199936
I1018 17:19:20.549780  3765 layer_factory.hpp:77] Creating layer elu7
I1018 17:19:20.549788  3765 net.cpp:100] Creating Layer elu7
I1018 17:19:20.549793  3765 net.cpp:434] elu7 <- drop7
I1018 17:19:20.549796  3765 net.cpp:408] elu7 -> elu7
I1018 17:19:20.549813  3765 net.cpp:150] Setting up elu7
I1018 17:19:20.549818  3765 net.cpp:157] Top shape: 64 100 1 1 (6400)
I1018 17:19:20.549821  3765 net.cpp:165] Memory required for data: 72225536
I1018 17:19:20.549824  3765 layer_factory.hpp:77] Creating layer pool
I1018 17:19:20.549829  3765 net.cpp:100] Creating Layer pool
I1018 17:19:20.549834  3765 net.cpp:434] pool <- elu7
I1018 17:19:20.549837  3765 net.cpp:408] pool -> pool
I1018 17:19:20.549957  3765 net.cpp:150] Setting up pool
I1018 17:19:20.549962  3765 net.cpp:157] Top shape: 64 100 1 1 (6400)
I1018 17:19:20.549967  3765 net.cpp:165] Memory required for data: 72251136
I1018 17:19:20.549969  3765 layer_factory.hpp:77] Creating layer flatten
I1018 17:19:20.549974  3765 net.cpp:100] Creating Layer flatten
I1018 17:19:20.549978  3765 net.cpp:434] flatten <- pool
I1018 17:19:20.549983  3765 net.cpp:408] flatten -> flatten
I1018 17:19:20.550001  3765 net.cpp:150] Setting up flatten
I1018 17:19:20.550005  3765 net.cpp:157] Top shape: 64 100 (6400)
I1018 17:19:20.550009  3765 net.cpp:165] Memory required for data: 72276736
I1018 17:19:20.550011  3765 layer_factory.hpp:77] Creating layer score
I1018 17:19:20.550017  3765 net.cpp:100] Creating Layer score
I1018 17:19:20.550020  3765 net.cpp:434] score <- flatten
I1018 17:19:20.550025  3765 net.cpp:408] score -> score
I1018 17:19:20.550114  3765 net.cpp:150] Setting up score
I1018 17:19:20.550119  3765 net.cpp:157] Top shape: 64 10 (640)
I1018 17:19:20.550122  3765 net.cpp:165] Memory required for data: 72279296
I1018 17:19:20.550127  3765 layer_factory.hpp:77] Creating layer score_score_0_split
I1018 17:19:20.550134  3765 net.cpp:100] Creating Layer score_score_0_split
I1018 17:19:20.550137  3765 net.cpp:434] score_score_0_split <- score
I1018 17:19:20.550143  3765 net.cpp:408] score_score_0_split -> score_score_0_split_0
I1018 17:19:20.550148  3765 net.cpp:408] score_score_0_split -> score_score_0_split_1
I1018 17:19:20.550173  3765 net.cpp:150] Setting up score_score_0_split
I1018 17:19:20.550178  3765 net.cpp:157] Top shape: 64 10 (640)
I1018 17:19:20.550181  3765 net.cpp:157] Top shape: 64 10 (640)
I1018 17:19:20.550184  3765 net.cpp:165] Memory required for data: 72284416
I1018 17:19:20.550187  3765 layer_factory.hpp:77] Creating layer accuracy
I1018 17:19:20.550192  3765 net.cpp:100] Creating Layer accuracy
I1018 17:19:20.550196  3765 net.cpp:434] accuracy <- score_score_0_split_0
I1018 17:19:20.550200  3765 net.cpp:434] accuracy <- label_data_1_split_0
I1018 17:19:20.550206  3765 net.cpp:408] accuracy -> accuracy
…
I1018 17:19:20.550688  3765 net.cpp:283] Network initialization done.
I1018 17:19:20.550873  3765 solver.cpp:181] Creating test net (#0) specified by test_net file: /home/adam/Honours/Honours-Project/mnist_pooling/max/elu/poolcnn_elu_test.prototxt
I1018 17:19:20.550989  3765 net.cpp:58] Initializing net from parameters: 
state {
  phase: TEST
}
layer {
  name: "data"
  type: "Data"
  top: "data"
  top: "label"
  transform_param {
    scale: 0.0039215689
  }
  data_param {
    source: "../../../../data/mnist/mnist_test_lmdb"
    batch_size: 100
    backend: LMDB
  }
}
layer {
  name: "conv1"
  type: "Convolution"
  bottom: "data"
  top: "conv1"
  convolution_param {
    num_output: 192
    kernel_size: 5
    weight_filler {
      type: "xavier"
    }
  }
}
layer {
  name: "pool1"
  type: "Pooling"
  bottom: "conv1"
  top: "pool1"
  pooling_param {
    pool: MAX
    kernel_size: 2
    stride: 2
  }
}
layer {
  name: "drop1"
  type: "Dropout"
  bottom: "pool1"
  top: "drop1"
  dropout_param {
    dropout_ratio: 0
  }
}
layer {
  name: "elu1"
  type: "ELU"
  bottom: "drop1"
  top: "elu1"
}
layer {
  name: "conv2"
  type: "Convolution"
  bottom: "elu1"
  top: "conv2"
  convolution_param {
    num_output: 192
    kernel_size: 1
    weight_filler {
      type: "xavier"
    }
  }
}
layer {
  name: "conv3"
  type: "Convolution"
  bottom: "conv2"
  top: "conv3"
  convolution_param {
    num_output: 240
    kernel_size: 3
    weight_filler {
      type: "xavier"
    }
  }
}
layer {
  name: "pool2"
  type: "Pooling"
  bottom: "conv3"
  top: "pool2"
  pooling_param {
    pool: MAX
    kernel_size: 2
    stride: 2
  }
}
layer {
  name: "drop2"
  type: "Dropout"
  bottom: "pool2"
  top: "drop2"
  dropout_param {
    dropout_ratio: 0.1
  }
}
layer {
  name: "elu2"
  type: "ELU"
  bottom: "drop2"
  top: "elu2"
}
layer {
  name: "conv4"
  type: "Convolution"
  bottom: "elu2"
  top: "conv4"
  convolution_param {
    num_output: 240
    kernel_size: 1
    weight_filler {
      type: "xavier"
    }
  }
}
layer {
  name: "conv5"
  type: "Convolution"
  bottom: "conv4"
  top: "conv5"
  convolution_param {
    num_output: 260
    kernel_size: 2
    weight_filler {
      type: "xavier"
    }
  }
}
layer {
  name: "pool3"
  type: "Pooling"
  bottom: "conv5"
  top: "pool3"
  pooling_param {
    pool: MAX
    kernel_size: 2
    stride: 2
  }
}
layer {
  name: "drop3"
  type: "Dropout"
  bottom: "pool3"
  top: "drop3"
  dropout_param {
    dropout_ratio: 0.2
  }
}
layer {
  name: "elu3"
  type: "ELU"
  bottom: "drop3"
  top: "elu3"
}
layer {
  name: "conv6"
  type: "Convolution"
  bottom: "elu3"
  top: "conv6"
  convolution_param {
    num_output: 260
    kernel_size: 1
    weight_filler {
      type: "xavier"
    }
  }
}
layer {
  name: "conv7"
  type: "Convolution"
  bottom: "conv6"
  top: "conv7"
  convolution_param {
    num_output: 280
    kernel_size: 2
    weight_filler {
      type: "xavier"
    }
  }
}
layer {
  name: "pool4"
  type: "Pooling"
  bottom: "conv7"
  top: "pool4"
  pooling_param {
    pool: MAX
    kernel_size: 2
    stride: 2
  }
}
layer {
  name: "drop4"
  type: "Dropout"
  bottom: "pool4"
  top: "drop4"
  dropout_param {
    dropout_ratio: 0.3
  }
}
layer {
  name: "elu4"
  type: "ELU"
  bottom: "drop4"
  top: "elu4"
}
layer {
  name: "conv8"
  type: "Convolution"
  bottom: "elu4"
  top: "conv8"
  convolution_param {
    num_output: 280
    kernel_size: 1
    weight_filler {
      type: "xavier"
    }
  }
}
layer {
  name: "pool5"
  type: "Pooling"
  bottom: "conv8"
  top: "pool5"
  pooling_param {
    pool: MAX
    kernel_size: 2
    stride: 2
  }
}
layer {
  name: "drop5"
  type: "Dropout"
  bottom: "pool5"
  top: "drop5"
  dropout_param {
    dropout_ratio: 0.4
  }
}
layer {
  name: "elu5"
  type: "ELU"
  bottom: "drop5"
  top: "elu5"
}
layer {
  name: "conv10"
  type: "Convolution"
  bottom: "elu5"
  top: "conv10"
  convolution_param {
    num_output: 300
    kernel_size: 1
    weight_filler {
      type: "xavier"
    }
  }
}
layer {
  name: "pool6"
  type: "Pooling"
  bottom: "conv10"
  top: "pool6"
  pooling_param {
    pool: MAX
    kernel_size: 2
    stride: 2
  }
}
layer {
  name: "drop6"
  type: "Dropout"
  bottom: "pool6"
  top: "drop6"
  dropout_param {
    dropout_ratio: 0.5
  }
}
layer {
  name: "elu6"
  type: "ELU"
  bottom: "drop6"
  top: "elu6"
}
layer {
  name: "conv11"
  type: "Convolution"
  bottom: "elu6"
  top: "conv11"
  convolution_param {
    num_output: 100
    kernel_size: 1
    weight_filler {
      type: "xavier"
    }
  }
}
layer {
  name: "pool7"
  type: "Pooling"
  bottom: "conv11"
  top: "pool7"
  pooling_param {
    pool: MAX
    kernel_size: 2
    stride: 2
  }
}
layer {
  name: "drop7"
  type: "Dropout"
  bottom: "pool7"
  top: "drop7"
  dropout_param {
    dropout_ratio: 0
  }
}
layer {
  name: "elu7"
  type: "ELU"
  bottom: "drop7"
  top: "elu7"
}
layer {
  name: "pool"
  type: "Pooling"
  bottom: "elu7"
  top: "pool"
  pooling_param {
    pool: AVE
    global_pooling: true
  }
}
layer {
  name: "flatten"
  type: "Flatten"
  bottom: "pool"
  top: "flatten"
}
layer {
  name: "score"
  type: "InnerProduct"
  bottom: "flatten"
  top: "score"
  inner_product_param {
    num_output: 10
    weight_filler {
      type: "gaussian"
    }
  }
}
layer {
  name: "accuracy"
  type: "Accuracy"
  bottom: "score"
  bottom: "label"
  top: "accuracy"
}
layer {
  name: "loss"
  type: "SoftmaxWithLoss"
  bottom: "score"
  bottom: "label"
  top: "loss"
}
I1018 17:19:20.551082  3765 layer_factory.hpp:77] Creating layer data
I1018 17:19:20.551169  3765 net.cpp:100] Creating Layer data
I1018 17:19:20.551175  3765 net.cpp:408] data -> data
I1018 17:19:20.551182  3765 net.cpp:408] data -> label
I1018 17:19:20.584359  3772 db_lmdb.cpp:35] Opened lmdb ../../../../data/mnist/mnist_test_lmdb
I1018 17:19:20.592661  3765 data_layer.cpp:41] output data size: 100,1,28,28
I1018 17:19:20.593390  3765 net.cpp:150] Setting up data
I1018 17:19:20.593400  3765 net.cpp:157] Top shape: 100 1 28 28 (78400)
I1018 17:19:20.593402  3765 net.cpp:157] Top shape: 100 (100)
I1018 17:19:20.593405  3765 net.cpp:165] Memory required for data: 314000
I1018 17:19:20.593407  3765 layer_factory.hpp:77] Creating layer label_data_1_split
I1018 17:19:20.593415  3765 net.cpp:100] Creating Layer label_data_1_split
I1018 17:19:20.593416  3765 net.cpp:434] label_data_1_split <- label
I1018 17:19:20.593420  3765 net.cpp:408] label_data_1_split -> label_data_1_split_0
I1018 17:19:20.593426  3765 net.cpp:408] label_data_1_split -> label_data_1_split_1
I1018 17:19:20.593457  3765 net.cpp:150] Setting up label_data_1_split
I1018 17:19:20.593461  3765 net.cpp:157] Top shape: 100 (100)
I1018 17:19:20.593463  3765 net.cpp:157] Top shape: 100 (100)
I1018 17:19:20.593464  3765 net.cpp:165] Memory required for data: 314800
I1018 17:19:20.593466  3765 layer_factory.hpp:77] Creating layer conv1
I1018 17:19:20.593473  3765 net.cpp:100] Creating Layer conv1
I1018 17:19:20.593475  3765 net.cpp:434] conv1 <- data
I1018 17:19:20.593478  3765 net.cpp:408] conv1 -> conv1
I1018 17:19:20.594350  3765 net.cpp:150] Setting up conv1
I1018 17:19:20.594362  3765 net.cpp:157] Top shape: 100 192 24 24 (11059200)
I1018 17:19:20.594365  3765 net.cpp:165] Memory required for data: 44551600
I1018 17:19:20.594373  3765 layer_factory.hpp:77] Creating layer pool1
I1018 17:19:20.594379  3765 net.cpp:100] Creating Layer pool1
I1018 17:19:20.594382  3765 net.cpp:434] pool1 <- conv1
I1018 17:19:20.594385  3765 net.cpp:408] pool1 -> pool1
I1018 17:19:20.594419  3765 net.cpp:150] Setting up pool1
I1018 17:19:20.594425  3765 net.cpp:157] Top shape: 100 192 12 12 (2764800)
I1018 17:19:20.594427  3765 net.cpp:165] Memory required for data: 55610800
I1018 17:19:20.594429  3765 layer_factory.hpp:77] Creating layer drop1
I1018 17:19:20.594439  3765 net.cpp:100] Creating Layer drop1
I1018 17:19:20.594444  3765 net.cpp:434] drop1 <- pool1
I1018 17:19:20.594445  3765 net.cpp:408] drop1 -> drop1
I1018 17:19:20.594445  3773 blocking_queue.cpp:50] Waiting for data
I1018 17:19:20.594470  3765 net.cpp:150] Setting up drop1
I1018 17:19:20.594475  3765 net.cpp:157] Top shape: 100 192 12 12 (2764800)
I1018 17:19:20.594475  3765 net.cpp:165] Memory required for data: 66670000
I1018 17:19:20.594477  3765 layer_factory.hpp:77] Creating layer elu1
I1018 17:19:20.594480  3765 net.cpp:100] Creating Layer elu1
I1018 17:19:20.594483  3765 net.cpp:434] elu1 <- drop1
I1018 17:19:20.594485  3765 net.cpp:408] elu1 -> elu1
I1018 17:19:20.594498  3765 net.cpp:150] Setting up elu1
I1018 17:19:20.594502  3765 net.cpp:157] Top shape: 100 192 12 12 (2764800)
I1018 17:19:20.594506  3765 net.cpp:165] Memory required for data: 77729200
I1018 17:19:20.594507  3765 layer_factory.hpp:77] Creating layer conv2
I1018 17:19:20.594511  3765 net.cpp:100] Creating Layer conv2
I1018 17:19:20.594514  3765 net.cpp:434] conv2 <- elu1
I1018 17:19:20.594517  3765 net.cpp:408] conv2 -> conv2
I1018 17:19:20.595371  3765 net.cpp:150] Setting up conv2
I1018 17:19:20.595381  3765 net.cpp:157] Top shape: 100 192 12 12 (2764800)
I1018 17:19:20.595383  3765 net.cpp:165] Memory required for data: 88788400
I1018 17:19:20.595389  3765 layer_factory.hpp:77] Creating layer conv3
I1018 17:19:20.595407  3765 net.cpp:100] Creating Layer conv3
I1018 17:19:20.595410  3765 net.cpp:434] conv3 <- conv2
I1018 17:19:20.595413  3765 net.cpp:408] conv3 -> conv3
I1018 17:19:20.598268  3765 net.cpp:150] Setting up conv3
I1018 17:19:20.598284  3765 net.cpp:157] Top shape: 100 240 10 10 (2400000)
I1018 17:19:20.598286  3765 net.cpp:165] Memory required for data: 98388400
I1018 17:19:20.598294  3765 layer_factory.hpp:77] Creating layer pool2
I1018 17:19:20.598301  3765 net.cpp:100] Creating Layer pool2
I1018 17:19:20.598304  3765 net.cpp:434] pool2 <- conv3
I1018 17:19:20.598309  3765 net.cpp:408] pool2 -> pool2
I1018 17:19:20.598340  3765 net.cpp:150] Setting up pool2
I1018 17:19:20.598345  3765 net.cpp:157] Top shape: 100 240 5 5 (600000)
I1018 17:19:20.598347  3765 net.cpp:165] Memory required for data: 100788400
I1018 17:19:20.598350  3765 layer_factory.hpp:77] Creating layer drop2
I1018 17:19:20.598353  3765 net.cpp:100] Creating Layer drop2
I1018 17:19:20.598356  3765 net.cpp:434] drop2 <- pool2
I1018 17:19:20.598361  3765 net.cpp:408] drop2 -> drop2
I1018 17:19:20.598386  3765 net.cpp:150] Setting up drop2
I1018 17:19:20.598389  3765 net.cpp:157] Top shape: 100 240 5 5 (600000)
I1018 17:19:20.598392  3765 net.cpp:165] Memory required for data: 103188400
I1018 17:19:20.598393  3765 layer_factory.hpp:77] Creating layer elu2
I1018 17:19:20.598397  3765 net.cpp:100] Creating Layer elu2
I1018 17:19:20.598399  3765 net.cpp:434] elu2 <- drop2
I1018 17:19:20.598402  3765 net.cpp:408] elu2 -> elu2
I1018 17:19:20.598417  3765 net.cpp:150] Setting up elu2
I1018 17:19:20.598422  3765 net.cpp:157] Top shape: 100 240 5 5 (600000)
I1018 17:19:20.598423  3765 net.cpp:165] Memory required for data: 105588400
I1018 17:19:20.598425  3765 layer_factory.hpp:77] Creating layer conv4
I1018 17:19:20.598431  3765 net.cpp:100] Creating Layer conv4
I1018 17:19:20.598434  3765 net.cpp:434] conv4 <- elu2
I1018 17:19:20.598438  3765 net.cpp:408] conv4 -> conv4
I1018 17:19:20.599360  3765 net.cpp:150] Setting up conv4
I1018 17:19:20.599370  3765 net.cpp:157] Top shape: 100 240 5 5 (600000)
I1018 17:19:20.599372  3765 net.cpp:165] Memory required for data: 107988400
I1018 17:19:20.599377  3765 layer_factory.hpp:77] Creating layer conv5
I1018 17:19:20.599385  3765 net.cpp:100] Creating Layer conv5
I1018 17:19:20.599387  3765 net.cpp:434] conv5 <- conv4
I1018 17:19:20.599390  3765 net.cpp:408] conv5 -> conv5
I1018 17:19:20.601402  3765 net.cpp:150] Setting up conv5
I1018 17:19:20.601413  3765 net.cpp:157] Top shape: 100 260 4 4 (416000)
I1018 17:19:20.601414  3765 net.cpp:165] Memory required for data: 109652400
I1018 17:19:20.601421  3765 layer_factory.hpp:77] Creating layer pool3
I1018 17:19:20.601428  3765 net.cpp:100] Creating Layer pool3
I1018 17:19:20.601430  3765 net.cpp:434] pool3 <- conv5
I1018 17:19:20.601434  3765 net.cpp:408] pool3 -> pool3
I1018 17:19:20.601464  3765 net.cpp:150] Setting up pool3
I1018 17:19:20.601467  3765 net.cpp:157] Top shape: 100 260 2 2 (104000)
I1018 17:19:20.601470  3765 net.cpp:165] Memory required for data: 110068400
I1018 17:19:20.601472  3765 layer_factory.hpp:77] Creating layer drop3
I1018 17:19:20.601476  3765 net.cpp:100] Creating Layer drop3
I1018 17:19:20.601480  3765 net.cpp:434] drop3 <- pool3
I1018 17:19:20.601482  3765 net.cpp:408] drop3 -> drop3
I1018 17:19:20.601508  3765 net.cpp:150] Setting up drop3
I1018 17:19:20.601513  3765 net.cpp:157] Top shape: 100 260 2 2 (104000)
I1018 17:19:20.601516  3765 net.cpp:165] Memory required for data: 110484400
I1018 17:19:20.601518  3765 layer_factory.hpp:77] Creating layer elu3
I1018 17:19:20.601522  3765 net.cpp:100] Creating Layer elu3
I1018 17:19:20.601524  3765 net.cpp:434] elu3 <- drop3
I1018 17:19:20.601527  3765 net.cpp:408] elu3 -> elu3
I1018 17:19:20.601542  3765 net.cpp:150] Setting up elu3
I1018 17:19:20.601547  3765 net.cpp:157] Top shape: 100 260 2 2 (104000)
I1018 17:19:20.601548  3765 net.cpp:165] Memory required for data: 110900400
I1018 17:19:20.601550  3765 layer_factory.hpp:77] Creating layer conv6
I1018 17:19:20.601558  3765 net.cpp:100] Creating Layer conv6
I1018 17:19:20.601572  3765 net.cpp:434] conv6 <- elu3
I1018 17:19:20.601575  3765 net.cpp:408] conv6 -> conv6
I1018 17:19:20.603024  3765 net.cpp:150] Setting up conv6
I1018 17:19:20.603034  3765 net.cpp:157] Top shape: 100 260 2 2 (104000)
I1018 17:19:20.603037  3765 net.cpp:165] Memory required for data: 111316400
I1018 17:19:20.603041  3765 layer_factory.hpp:77] Creating layer conv7
I1018 17:19:20.603047  3765 net.cpp:100] Creating Layer conv7
I1018 17:19:20.603051  3765 net.cpp:434] conv7 <- conv6
I1018 17:19:20.603055  3765 net.cpp:408] conv7 -> conv7
I1018 17:19:20.605468  3765 net.cpp:150] Setting up conv7
I1018 17:19:20.605479  3765 net.cpp:157] Top shape: 100 280 1 1 (28000)
I1018 17:19:20.605482  3765 net.cpp:165] Memory required for data: 111428400
I1018 17:19:20.605486  3765 layer_factory.hpp:77] Creating layer pool4
I1018 17:19:20.605492  3765 net.cpp:100] Creating Layer pool4
I1018 17:19:20.605495  3765 net.cpp:434] pool4 <- conv7
I1018 17:19:20.605499  3765 net.cpp:408] pool4 -> pool4
I1018 17:19:20.605528  3765 net.cpp:150] Setting up pool4
I1018 17:19:20.605533  3765 net.cpp:157] Top shape: 100 280 1 1 (28000)
I1018 17:19:20.605535  3765 net.cpp:165] Memory required for data: 111540400
I1018 17:19:20.605537  3765 layer_factory.hpp:77] Creating layer drop4
I1018 17:19:20.605541  3765 net.cpp:100] Creating Layer drop4
I1018 17:19:20.605543  3765 net.cpp:434] drop4 <- pool4
I1018 17:19:20.605546  3765 net.cpp:408] drop4 -> drop4
I1018 17:19:20.605571  3765 net.cpp:150] Setting up drop4
I1018 17:19:20.605576  3765 net.cpp:157] Top shape: 100 280 1 1 (28000)
I1018 17:19:20.605577  3765 net.cpp:165] Memory required for data: 111652400
I1018 17:19:20.605579  3765 layer_factory.hpp:77] Creating layer elu4
I1018 17:19:20.605583  3765 net.cpp:100] Creating Layer elu4
I1018 17:19:20.605586  3765 net.cpp:434] elu4 <- drop4
I1018 17:19:20.605588  3765 net.cpp:408] elu4 -> elu4
I1018 17:19:20.605604  3765 net.cpp:150] Setting up elu4
I1018 17:19:20.605608  3765 net.cpp:157] Top shape: 100 280 1 1 (28000)
I1018 17:19:20.605610  3765 net.cpp:165] Memory required for data: 111764400
I1018 17:19:20.605612  3765 layer_factory.hpp:77] Creating layer conv8
I1018 17:19:20.605618  3765 net.cpp:100] Creating Layer conv8
I1018 17:19:20.605620  3765 net.cpp:434] conv8 <- elu4
I1018 17:19:20.605623  3765 net.cpp:408] conv8 -> conv8
I1018 17:19:20.606638  3765 net.cpp:150] Setting up conv8
I1018 17:19:20.606648  3765 net.cpp:157] Top shape: 100 280 1 1 (28000)
I1018 17:19:20.606652  3765 net.cpp:165] Memory required for data: 111876400
I1018 17:19:20.606657  3765 layer_factory.hpp:77] Creating layer pool5
I1018 17:19:20.606662  3765 net.cpp:100] Creating Layer pool5
I1018 17:19:20.606664  3765 net.cpp:434] pool5 <- conv8
I1018 17:19:20.606668  3765 net.cpp:408] pool5 -> pool5
I1018 17:19:20.606698  3765 net.cpp:150] Setting up pool5
I1018 17:19:20.606701  3765 net.cpp:157] Top shape: 100 280 1 1 (28000)
I1018 17:19:20.606703  3765 net.cpp:165] Memory required for data: 111988400
I1018 17:19:20.606705  3765 layer_factory.hpp:77] Creating layer drop5
I1018 17:19:20.606709  3765 net.cpp:100] Creating Layer drop5
I1018 17:19:20.606711  3765 net.cpp:434] drop5 <- pool5
I1018 17:19:20.606714  3765 net.cpp:408] drop5 -> drop5
I1018 17:19:20.606739  3765 net.cpp:150] Setting up drop5
I1018 17:19:20.606744  3765 net.cpp:157] Top shape: 100 280 1 1 (28000)
I1018 17:19:20.606745  3765 net.cpp:165] Memory required for data: 112100400
I1018 17:19:20.606747  3765 layer_factory.hpp:77] Creating layer elu5
I1018 17:19:20.606751  3765 net.cpp:100] Creating Layer elu5
I1018 17:19:20.606753  3765 net.cpp:434] elu5 <- drop5
I1018 17:19:20.606756  3765 net.cpp:408] elu5 -> elu5
I1018 17:19:20.606771  3765 net.cpp:150] Setting up elu5
I1018 17:19:20.606776  3765 net.cpp:157] Top shape: 100 280 1 1 (28000)
I1018 17:19:20.606778  3765 net.cpp:165] Memory required for data: 112212400
I1018 17:19:20.606781  3765 layer_factory.hpp:77] Creating layer conv10
I1018 17:19:20.606784  3765 net.cpp:100] Creating Layer conv10
I1018 17:19:20.606796  3765 net.cpp:434] conv10 <- elu5
I1018 17:19:20.606801  3765 net.cpp:408] conv10 -> conv10
I1018 17:19:20.608029  3765 net.cpp:150] Setting up conv10
I1018 17:19:20.608039  3765 net.cpp:157] Top shape: 100 300 1 1 (30000)
I1018 17:19:20.608042  3765 net.cpp:165] Memory required for data: 112332400
I1018 17:19:20.608050  3765 layer_factory.hpp:77] Creating layer pool6
I1018 17:19:20.608055  3765 net.cpp:100] Creating Layer pool6
I1018 17:19:20.608058  3765 net.cpp:434] pool6 <- conv10
I1018 17:19:20.608062  3765 net.cpp:408] pool6 -> pool6
I1018 17:19:20.608093  3765 net.cpp:150] Setting up pool6
I1018 17:19:20.608096  3765 net.cpp:157] Top shape: 100 300 1 1 (30000)
I1018 17:19:20.608100  3765 net.cpp:165] Memory required for data: 112452400
I1018 17:19:20.608103  3765 layer_factory.hpp:77] Creating layer drop6
I1018 17:19:20.608108  3765 net.cpp:100] Creating Layer drop6
I1018 17:19:20.608109  3765 net.cpp:434] drop6 <- pool6
I1018 17:19:20.608113  3765 net.cpp:408] drop6 -> drop6
I1018 17:19:20.608139  3765 net.cpp:150] Setting up drop6
I1018 17:19:20.608144  3765 net.cpp:157] Top shape: 100 300 1 1 (30000)
I1018 17:19:20.608145  3765 net.cpp:165] Memory required for data: 112572400
I1018 17:19:20.608147  3765 layer_factory.hpp:77] Creating layer elu6
I1018 17:19:20.608152  3765 net.cpp:100] Creating Layer elu6
I1018 17:19:20.608155  3765 net.cpp:434] elu6 <- drop6
I1018 17:19:20.608157  3765 net.cpp:408] elu6 -> elu6
I1018 17:19:20.608172  3765 net.cpp:150] Setting up elu6
I1018 17:19:20.608180  3765 net.cpp:157] Top shape: 100 300 1 1 (30000)
I1018 17:19:20.608183  3765 net.cpp:165] Memory required for data: 112692400
I1018 17:19:20.608186  3765 layer_factory.hpp:77] Creating layer conv11
I1018 17:19:20.608191  3765 net.cpp:100] Creating Layer conv11
I1018 17:19:20.608193  3765 net.cpp:434] conv11 <- elu6
I1018 17:19:20.608196  3765 net.cpp:408] conv11 -> conv11
I1018 17:19:20.609037  3765 net.cpp:150] Setting up conv11
I1018 17:19:20.609046  3765 net.cpp:157] Top shape: 100 100 1 1 (10000)
I1018 17:19:20.609050  3765 net.cpp:165] Memory required for data: 112732400
I1018 17:19:20.609055  3765 layer_factory.hpp:77] Creating layer pool7
I1018 17:19:20.609058  3765 net.cpp:100] Creating Layer pool7
I1018 17:19:20.609061  3765 net.cpp:434] pool7 <- conv11
I1018 17:19:20.609066  3765 net.cpp:408] pool7 -> pool7
I1018 17:19:20.609097  3765 net.cpp:150] Setting up pool7
I1018 17:19:20.609102  3765 net.cpp:157] Top shape: 100 100 1 1 (10000)
I1018 17:19:20.609105  3765 net.cpp:165] Memory required for data: 112772400
I1018 17:19:20.609107  3765 layer_factory.hpp:77] Creating layer drop7
I1018 17:19:20.609112  3765 net.cpp:100] Creating Layer drop7
I1018 17:19:20.609113  3765 net.cpp:434] drop7 <- pool7
I1018 17:19:20.609117  3765 net.cpp:408] drop7 -> drop7
I1018 17:19:20.609143  3765 net.cpp:150] Setting up drop7
I1018 17:19:20.609146  3765 net.cpp:157] Top shape: 100 100 1 1 (10000)
I1018 17:19:20.609148  3765 net.cpp:165] Memory required for data: 112812400
I1018 17:19:20.609150  3765 layer_factory.hpp:77] Creating layer elu7
I1018 17:19:20.609156  3765 net.cpp:100] Creating Layer elu7
I1018 17:19:20.609158  3765 net.cpp:434] elu7 <- drop7
I1018 17:19:20.609161  3765 net.cpp:408] elu7 -> elu7
I1018 17:19:20.609176  3765 net.cpp:150] Setting up elu7
I1018 17:19:20.609181  3765 net.cpp:157] Top shape: 100 100 1 1 (10000)
I1018 17:19:20.609184  3765 net.cpp:165] Memory required for data: 112852400
I1018 17:19:20.609185  3765 layer_factory.hpp:77] Creating layer pool
I1018 17:19:20.609189  3765 net.cpp:100] Creating Layer pool
I1018 17:19:20.609191  3765 net.cpp:434] pool <- elu7
I1018 17:19:20.609194  3765 net.cpp:408] pool -> pool
I1018 17:19:20.609321  3765 net.cpp:150] Setting up pool
I1018 17:19:20.609328  3765 net.cpp:157] Top shape: 100 100 1 1 (10000)
I1018 17:19:20.609330  3765 net.cpp:165] Memory required for data: 112892400
I1018 17:19:20.609333  3765 layer_factory.hpp:77] Creating layer flatten
I1018 17:19:20.609336  3765 net.cpp:100] Creating Layer flatten
I1018 17:19:20.609339  3765 net.cpp:434] flatten <- pool
I1018 17:19:20.609351  3765 net.cpp:408] flatten -> flatten
I1018 17:19:20.609370  3765 net.cpp:150] Setting up flatten
I1018 17:19:20.609375  3765 net.cpp:157] Top shape: 100 100 (10000)
I1018 17:19:20.609376  3765 net.cpp:165] Memory required for data: 112932400
I1018 17:19:20.609378  3765 layer_factory.hpp:77] Creating layer score
I1018 17:19:20.609382  3765 net.cpp:100] Creating Layer score
I1018 17:19:20.609385  3765 net.cpp:434] score <- flatten
I1018 17:19:20.609388  3765 net.cpp:408] score -> score
I1018 17:19:20.609479  3765 net.cpp:150] Setting up score
I1018 17:19:20.609484  3765 net.cpp:157] Top shape: 100 10 (1000)
I1018 17:19:20.609485  3765 net.cpp:165] Memory required for data: 112936400
I1018 17:19:20.609489  3765 layer_factory.hpp:77] Creating layer score_score_0_split
I1018 17:19:20.609494  3765 net.cpp:100] Creating Layer score_score_0_split
I1018 17:19:20.609498  3765 net.cpp:434] score_score_0_split <- score
I1018 17:19:20.609500  3765 net.cpp:408] score_score_0_split -> score_score_0_split_0
I1018 17:19:20.609505  3765 net.cpp:408] score_score_0_split -> score_score_0_split_1
I1018 17:19:20.609531  3765 net.cpp:150] Setting up score_score_0_split
I1018 17:19:20.609535  3765 net.cpp:157] Top shape: 100 10 (1000)
I1018 17:19:20.609539  3765 net.cpp:157] Top shape: 100 10 (1000)
I1018 17:19:20.609540  3765 net.cpp:165] Memory required for data: 112944400
I1018 17:19:20.609542  3765 layer_factory.hpp:77] Creating layer accuracy
I1018 17:19:20.609546  3765 net.cpp:100] Creating Layer accuracy
I1018 17:19:20.609549  3765 net.cpp:434] accuracy <- score_score_0_split_0
I1018 17:19:20.609551  3765 net.cpp:434] accuracy <- label_data_1_split_0
I1018 17:19:20.609555  3765 net.cpp:408] accuracy -> accuracy
…
