…
  stage: ""
}
type: "RMSProp"
I1020 05:57:53.965355 11146 solver.cpp:81] Creating training net from train_net file: /home/adam/Honours/Honours-Project/mnist_pooling/max/leakyrelu/poolcnn_leakyrelu_train.prototxt
I1020 05:57:53.965663 11146 net.cpp:58] Initializing net from parameters: 
state {
  phase: TRAIN
  level: 0
  stage: ""
}
layer {
  name: "data"
  type: "Data"
  top: "data"
  top: "label"
  transform_param {
    scale: 0.0039215689
  }
  data_param {
    source: "../../../../data/mnist/mnist_train_lmdb"
    batch_size: 64
    backend: LMDB
  }
}
layer {
  name: "conv1"
  type: "Convolution"
  bottom: "data"
  top: "conv1"
  convolution_param {
    num_output: 192
    kernel_size: 5
    weight_filler {
      type: "xavier"
    }
  }
}
layer {
  name: "relu1"
  type: "ReLU"
  bottom: "conv1"
  top: "relu1"
  relu_param {
    negative_slope: 0.1
  }
}
layer {
  name: "drop1"
  type: "Dropout"
  bottom: "relu1"
  top: "drop1"
  dropout_param {
    dropout_ratio: 0
  }
}
layer {
  name: "pool1"
  type: "Pooling"
  bottom: "drop1"
  top: "pool1"
  pooling_param {
    pool: MAX
    kernel_size: 2
    stride: 2
  }
}
layer {
  name: "conv2"
  type: "Convolution"
  bottom: "pool1"
  top: "conv2"
  convolution_param {
    num_output: 192
    kernel_size: 1
    weight_filler {
      type: "xavier"
    }
  }
}
layer {
  name: "relu2"
  type: "ReLU"
  bottom: "conv2"
  top: "relu2"
  relu_param {
    negative_slope: 0.1
  }
}
layer {
  name: "conv3"
  type: "Convolution"
  bottom: "relu2"
  top: "conv3"
  convolution_param {
    num_output: 240
    kernel_size: 3
    weight_filler {
      type: "xavier"
    }
  }
}
layer {
  name: "relu3"
  type: "ReLU"
  bottom: "conv3"
  top: "relu3"
  relu_param {
    negative_slope: 0.1
  }
}
layer {
  name: "drop2"
  type: "Dropout"
  bottom: "relu3"
  top: "drop2"
  dropout_param {
    dropout_ratio: 0.1
  }
}
layer {
  name: "pool2"
  type: "Pooling"
  bottom: "drop2"
  top: "pool2"
  pooling_param {
    pool: MAX
    kernel_size: 2
    stride: 2
  }
}
layer {
  name: "conv4"
  type: "Convolution"
  bottom: "pool2"
  top: "conv4"
  convolution_param {
    num_output: 240
    kernel_size: 1
    weight_filler {
      type: "xavier"
    }
  }
}
layer {
  name: "relu4"
  type: "ReLU"
  bottom: "conv4"
  top: "relu4"
  relu_param {
    negative_slope: 0.1
  }
}
layer {
  name: "conv5"
  type: "Convolution"
  bottom: "relu4"
  top: "conv5"
  convolution_param {
    num_output: 260
    kernel_size: 2
    weight_filler {
      type: "xavier"
    }
  }
}
layer {
  name: "relu5"
  type: "ReLU"
  bottom: "conv5"
  top: "relu5"
  relu_param {
    negative_slope: 0.1
  }
}
layer {
  name: "drop3"
  type: "Dropout"
  bottom: "relu5"
  top: "drop3"
  dropout_param {
    dropout_ratio: 0.2
  }
}
layer {
  name: "pool3"
  type: "Pooling"
  bottom: "drop3"
  top: "pool3"
  pooling_param {
    pool: MAX
    kernel_size: 2
    stride: 2
  }
}
layer {
  name: "conv6"
  type: "Convolution"
  bottom: "pool3"
  top: "conv6"
  convolution_param {
    num_output: 260
    kernel_size: 1
    weight_filler {
      type: "xavier"
    }
  }
}
layer {
  name: "relu6"
  type: "ReLU"
  bottom: "conv6"
  top: "relu6"
  relu_param {
    negative_slope: 0.1
  }
}
layer {
  name: "conv7"
  type: "Convolution"
  bottom: "relu6"
  top: "conv7"
  convolution_param {
    num_output: 280
    kernel_size: 2
    weight_filler {
      type: "xavier"
    }
  }
}
layer {
  name: "relu7"
  type: "ReLU"
  bottom: "conv7"
  top: "relu7"
  relu_param {
    negative_slope: 0.1
  }
}
layer {
  name: "drop4"
  type: "Dropout"
  bottom: "relu7"
  top: "drop4"
  dropout_param {
    dropout_ratio: 0.3
  }
}
layer {
  name: "pool4"
  type: "Pooling"
  bottom: "drop4"
  top: "pool4"
  pooling_param {
    pool: MAX
    kernel_size: 2
    stride: 2
  }
}
layer {
  name: "conv8"
  type: "Convolution"
  bottom: "pool4"
  top: "conv8"
  convolution_param {
    num_output: 280
    kernel_size: 1
    weight_filler {
      type: "xavier"
    }
  }
}
layer {
  name: "relu8"
  type: "ReLU"
  bottom: "conv8"
  top: "relu8"
  relu_param {
    negative_slope: 0.1
  }
}
layer {
  name: "drop5"
  type: "Dropout"
  bottom: "relu8"
  top: "drop5"
  dropout_param {
    dropout_ratio: 0.4
  }
}
layer {
  name: "pool5"
  type: "Pooling"
  bottom: "drop5"
  top: "pool5"
  pooling_param {
    pool: MAX
    kernel_size: 2
    stride: 2
  }
}
layer {
  name: "conv10"
  type: "Convolution"
  bottom: "pool5"
  top: "conv10"
  convolution_param {
    num_output: 300
    kernel_size: 1
    weight_filler {
      type: "xavier"
    }
  }
}
layer {
  name: "relu10"
  type: "ReLU"
  bottom: "conv10"
  top: "relu10"
  relu_param {
    negative_slope: 0.1
  }
}
layer {
  name: "drop6"
  type: "Dropout"
  bottom: "relu10"
  top: "drop6"
  dropout_param {
    dropout_ratio: 0.5
  }
}
layer {
  name: "pool6"
  type: "Pooling"
  bottom: "drop6"
  top: "pool6"
  pooling_param {
    pool: MAX
    kernel_size: 2
    stride: 2
  }
}
layer {
  name: "conv11"
  type: "Convolution"
  bottom: "pool6"
  top: "conv11"
  convolution_param {
    num_output: 100
    kernel_size: 1
    weight_filler {
      type: "xavier"
    }
  }
}
layer {
  name: "relu11"
  type: "ReLU"
  bottom: "conv11"
  top: "relu11"
  relu_param {
    negative_slope: 0.1
  }
}
layer {
  name: "drop7"
  type: "Dropout"
  bottom: "relu11"
  top: "drop7"
  dropout_param {
    dropout_ratio: 0
  }
}
layer {
  name: "pool7"
  type: "Pooling"
  bottom: "drop7"
  top: "pool7"
  pooling_param {
    pool: MAX
    kernel_size: 2
    stride: 2
  }
}
layer {
  name: "score"
  type: "InnerProduct"
  bottom: "pool7"
  top: "score"
  inner_product_param {
    num_output: 10
    weight_filler {
      type: "gaussian"
    }
  }
}
layer {
  name: "accuracy"
  type: "Accuracy"
  bottom: "score"
  bottom: "label"
  top: "accuracy"
}
layer {
  name: "loss"
  type: "SoftmaxWithLoss"
  bottom: "score"
  bottom: "label"
  top: "loss"
}
I1020 05:57:53.965798 11146 layer_factory.hpp:77] Creating layer data
I1020 05:57:53.966183 11146 net.cpp:100] Creating Layer data
I1020 05:57:53.966197 11146 net.cpp:408] data -> data
I1020 05:57:53.966217 11146 net.cpp:408] data -> label
I1020 05:57:53.966790 11151 db_lmdb.cpp:35] Opened lmdb ../../../../data/mnist/mnist_train_lmdb
I1020 05:57:53.972306 11146 data_layer.cpp:41] output data size: 64,1,28,28
I1020 05:57:53.972877 11146 net.cpp:150] Setting up data
I1020 05:57:53.972889 11146 net.cpp:157] Top shape: 64 1 28 28 (50176)
I1020 05:57:53.972895 11146 net.cpp:157] Top shape: 64 (64)
I1020 05:57:53.972899 11146 net.cpp:165] Memory required for data: 200960
I1020 05:57:53.972909 11146 layer_factory.hpp:77] Creating layer label_data_1_split
I1020 05:57:53.972923 11146 net.cpp:100] Creating Layer label_data_1_split
I1020 05:57:53.972929 11146 net.cpp:434] label_data_1_split <- label
I1020 05:57:53.972939 11146 net.cpp:408] label_data_1_split -> label_data_1_split_0
I1020 05:57:53.972947 11146 net.cpp:408] label_data_1_split -> label_data_1_split_1
I1020 05:57:53.972978 11146 net.cpp:150] Setting up label_data_1_split
I1020 05:57:53.972985 11146 net.cpp:157] Top shape: 64 (64)
I1020 05:57:53.972988 11146 net.cpp:157] Top shape: 64 (64)
I1020 05:57:53.972990 11146 net.cpp:165] Memory required for data: 201472
I1020 05:57:53.972995 11146 layer_factory.hpp:77] Creating layer conv1
I1020 05:57:53.973008 11146 net.cpp:100] Creating Layer conv1
I1020 05:57:53.973012 11146 net.cpp:434] conv1 <- data
I1020 05:57:53.973019 11146 net.cpp:408] conv1 -> conv1
I1020 05:57:54.093439 11146 net.cpp:150] Setting up conv1
I1020 05:57:54.093466 11146 net.cpp:157] Top shape: 64 192 24 24 (7077888)
I1020 05:57:54.093490 11146 net.cpp:165] Memory required for data: 28513024
I1020 05:57:54.093513 11146 layer_factory.hpp:77] Creating layer relu1
I1020 05:57:54.093524 11146 net.cpp:100] Creating Layer relu1
I1020 05:57:54.093529 11146 net.cpp:434] relu1 <- conv1
I1020 05:57:54.093535 11146 net.cpp:408] relu1 -> relu1
I1020 05:57:54.093659 11146 net.cpp:150] Setting up relu1
I1020 05:57:54.093667 11146 net.cpp:157] Top shape: 64 192 24 24 (7077888)
I1020 05:57:54.093672 11146 net.cpp:165] Memory required for data: 56824576
I1020 05:57:54.093674 11146 layer_factory.hpp:77] Creating layer drop1
I1020 05:57:54.093683 11146 net.cpp:100] Creating Layer drop1
I1020 05:57:54.093685 11146 net.cpp:434] drop1 <- relu1
I1020 05:57:54.093690 11146 net.cpp:408] drop1 -> drop1
I1020 05:57:54.093716 11146 net.cpp:150] Setting up drop1
I1020 05:57:54.093721 11146 net.cpp:157] Top shape: 64 192 24 24 (7077888)
I1020 05:57:54.093724 11146 net.cpp:165] Memory required for data: 85136128
I1020 05:57:54.093727 11146 layer_factory.hpp:77] Creating layer pool1
I1020 05:57:54.093734 11146 net.cpp:100] Creating Layer pool1
I1020 05:57:54.093736 11146 net.cpp:434] pool1 <- drop1
I1020 05:57:54.093740 11146 net.cpp:408] pool1 -> pool1
I1020 05:57:54.093771 11146 net.cpp:150] Setting up pool1
I1020 05:57:54.093776 11146 net.cpp:157] Top shape: 64 192 12 12 (1769472)
I1020 05:57:54.093778 11146 net.cpp:165] Memory required for data: 92214016
I1020 05:57:54.093782 11146 layer_factory.hpp:77] Creating layer conv2
I1020 05:57:54.093794 11146 net.cpp:100] Creating Layer conv2
I1020 05:57:54.093798 11146 net.cpp:434] conv2 <- pool1
I1020 05:57:54.093803 11146 net.cpp:408] conv2 -> conv2
I1020 05:57:54.094614 11146 net.cpp:150] Setting up conv2
I1020 05:57:54.094622 11146 net.cpp:157] Top shape: 64 192 12 12 (1769472)
I1020 05:57:54.094625 11146 net.cpp:165] Memory required for data: 99291904
I1020 05:57:54.094633 11146 layer_factory.hpp:77] Creating layer relu2
I1020 05:57:54.094638 11146 net.cpp:100] Creating Layer relu2
I1020 05:57:54.094643 11146 net.cpp:434] relu2 <- conv2
I1020 05:57:54.094650 11146 net.cpp:408] relu2 -> relu2
I1020 05:57:54.094772 11146 net.cpp:150] Setting up relu2
I1020 05:57:54.094779 11146 net.cpp:157] Top shape: 64 192 12 12 (1769472)
I1020 05:57:54.094784 11146 net.cpp:165] Memory required for data: 106369792
I1020 05:57:54.094786 11146 layer_factory.hpp:77] Creating layer conv3
I1020 05:57:54.094796 11146 net.cpp:100] Creating Layer conv3
I1020 05:57:54.094799 11146 net.cpp:434] conv3 <- relu2
I1020 05:57:54.094806 11146 net.cpp:408] conv3 -> conv3
I1020 05:57:54.097239 11146 net.cpp:150] Setting up conv3
I1020 05:57:54.097249 11146 net.cpp:157] Top shape: 64 240 10 10 (1536000)
I1020 05:57:54.097254 11146 net.cpp:165] Memory required for data: 112513792
I1020 05:57:54.097261 11146 layer_factory.hpp:77] Creating layer relu3
I1020 05:57:54.097267 11146 net.cpp:100] Creating Layer relu3
I1020 05:57:54.097271 11146 net.cpp:434] relu3 <- conv3
I1020 05:57:54.097277 11146 net.cpp:408] relu3 -> relu3
I1020 05:57:54.097471 11146 net.cpp:150] Setting up relu3
I1020 05:57:54.097479 11146 net.cpp:157] Top shape: 64 240 10 10 (1536000)
I1020 05:57:54.097482 11146 net.cpp:165] Memory required for data: 118657792
I1020 05:57:54.097486 11146 layer_factory.hpp:77] Creating layer drop2
I1020 05:57:54.097491 11146 net.cpp:100] Creating Layer drop2
I1020 05:57:54.097494 11146 net.cpp:434] drop2 <- relu3
I1020 05:57:54.097501 11146 net.cpp:408] drop2 -> drop2
I1020 05:57:54.097525 11146 net.cpp:150] Setting up drop2
I1020 05:57:54.097532 11146 net.cpp:157] Top shape: 64 240 10 10 (1536000)
I1020 05:57:54.097534 11146 net.cpp:165] Memory required for data: 124801792
I1020 05:57:54.097538 11146 layer_factory.hpp:77] Creating layer pool2
I1020 05:57:54.097544 11146 net.cpp:100] Creating Layer pool2
I1020 05:57:54.097548 11146 net.cpp:434] pool2 <- drop2
I1020 05:57:54.097553 11146 net.cpp:408] pool2 -> pool2
I1020 05:57:54.097578 11146 net.cpp:150] Setting up pool2
I1020 05:57:54.097582 11146 net.cpp:157] Top shape: 64 240 5 5 (384000)
I1020 05:57:54.097592 11146 net.cpp:165] Memory required for data: 126337792
I1020 05:57:54.097596 11146 layer_factory.hpp:77] Creating layer conv4
I1020 05:57:54.097605 11146 net.cpp:100] Creating Layer conv4
I1020 05:57:54.097609 11146 net.cpp:434] conv4 <- pool2
I1020 05:57:54.097615 11146 net.cpp:408] conv4 -> conv4
I1020 05:57:54.098440 11146 net.cpp:150] Setting up conv4
I1020 05:57:54.098449 11146 net.cpp:157] Top shape: 64 240 5 5 (384000)
I1020 05:57:54.098453 11146 net.cpp:165] Memory required for data: 127873792
I1020 05:57:54.098460 11146 layer_factory.hpp:77] Creating layer relu4
I1020 05:57:54.098465 11146 net.cpp:100] Creating Layer relu4
I1020 05:57:54.098469 11146 net.cpp:434] relu4 <- conv4
I1020 05:57:54.098475 11146 net.cpp:408] relu4 -> relu4
I1020 05:57:54.098590 11146 net.cpp:150] Setting up relu4
I1020 05:57:54.098598 11146 net.cpp:157] Top shape: 64 240 5 5 (384000)
I1020 05:57:54.098600 11146 net.cpp:165] Memory required for data: 129409792
I1020 05:57:54.098603 11146 layer_factory.hpp:77] Creating layer conv5
I1020 05:57:54.098613 11146 net.cpp:100] Creating Layer conv5
I1020 05:57:54.098615 11146 net.cpp:434] conv5 <- relu4
I1020 05:57:54.098619 11146 net.cpp:408] conv5 -> conv5
I1020 05:57:54.100385 11146 net.cpp:150] Setting up conv5
I1020 05:57:54.100397 11146 net.cpp:157] Top shape: 64 260 4 4 (266240)
I1020 05:57:54.100400 11146 net.cpp:165] Memory required for data: 130474752
I1020 05:57:54.100409 11146 layer_factory.hpp:77] Creating layer relu5
I1020 05:57:54.100414 11146 net.cpp:100] Creating Layer relu5
I1020 05:57:54.100419 11146 net.cpp:434] relu5 <- conv5
I1020 05:57:54.100425 11146 net.cpp:408] relu5 -> relu5
I1020 05:57:54.100543 11146 net.cpp:150] Setting up relu5
I1020 05:57:54.100550 11146 net.cpp:157] Top shape: 64 260 4 4 (266240)
I1020 05:57:54.100554 11146 net.cpp:165] Memory required for data: 131539712
I1020 05:57:54.100558 11146 layer_factory.hpp:77] Creating layer drop3
I1020 05:57:54.100566 11146 net.cpp:100] Creating Layer drop3
I1020 05:57:54.100569 11146 net.cpp:434] drop3 <- relu5
I1020 05:57:54.100574 11146 net.cpp:408] drop3 -> drop3
I1020 05:57:54.100603 11146 net.cpp:150] Setting up drop3
I1020 05:57:54.100608 11146 net.cpp:157] Top shape: 64 260 4 4 (266240)
I1020 05:57:54.100611 11146 net.cpp:165] Memory required for data: 132604672
I1020 05:57:54.100615 11146 layer_factory.hpp:77] Creating layer pool3
I1020 05:57:54.100622 11146 net.cpp:100] Creating Layer pool3
I1020 05:57:54.100625 11146 net.cpp:434] pool3 <- drop3
I1020 05:57:54.100630 11146 net.cpp:408] pool3 -> pool3
I1020 05:57:54.100654 11146 net.cpp:150] Setting up pool3
I1020 05:57:54.100659 11146 net.cpp:157] Top shape: 64 260 2 2 (66560)
I1020 05:57:54.100662 11146 net.cpp:165] Memory required for data: 132870912
I1020 05:57:54.100666 11146 layer_factory.hpp:77] Creating layer conv6
I1020 05:57:54.100673 11146 net.cpp:100] Creating Layer conv6
I1020 05:57:54.100677 11146 net.cpp:434] conv6 <- pool3
I1020 05:57:54.100682 11146 net.cpp:408] conv6 -> conv6
I1020 05:57:54.101788 11146 net.cpp:150] Setting up conv6
I1020 05:57:54.101799 11146 net.cpp:157] Top shape: 64 260 2 2 (66560)
I1020 05:57:54.101801 11146 net.cpp:165] Memory required for data: 133137152
I1020 05:57:54.101807 11146 layer_factory.hpp:77] Creating layer relu6
I1020 05:57:54.101812 11146 net.cpp:100] Creating Layer relu6
I1020 05:57:54.101816 11146 net.cpp:434] relu6 <- conv6
I1020 05:57:54.101821 11146 net.cpp:408] relu6 -> relu6
I1020 05:57:54.102017 11146 net.cpp:150] Setting up relu6
I1020 05:57:54.102026 11146 net.cpp:157] Top shape: 64 260 2 2 (66560)
I1020 05:57:54.102031 11146 net.cpp:165] Memory required for data: 133403392
I1020 05:57:54.102035 11146 layer_factory.hpp:77] Creating layer conv7
I1020 05:57:54.102043 11146 net.cpp:100] Creating Layer conv7
I1020 05:57:54.102046 11146 net.cpp:434] conv7 <- relu6
I1020 05:57:54.102052 11146 net.cpp:408] conv7 -> conv7
I1020 05:57:54.103970 11146 net.cpp:150] Setting up conv7
I1020 05:57:54.103978 11146 net.cpp:157] Top shape: 64 280 1 1 (17920)
I1020 05:57:54.103991 11146 net.cpp:165] Memory required for data: 133475072
I1020 05:57:54.103997 11146 layer_factory.hpp:77] Creating layer relu7
I1020 05:57:54.104003 11146 net.cpp:100] Creating Layer relu7
I1020 05:57:54.104007 11146 net.cpp:434] relu7 <- conv7
I1020 05:57:54.104012 11146 net.cpp:408] relu7 -> relu7
I1020 05:57:54.104133 11146 net.cpp:150] Setting up relu7
I1020 05:57:54.104140 11146 net.cpp:157] Top shape: 64 280 1 1 (17920)
I1020 05:57:54.104143 11146 net.cpp:165] Memory required for data: 133546752
I1020 05:57:54.104146 11146 layer_factory.hpp:77] Creating layer drop4
I1020 05:57:54.104151 11146 net.cpp:100] Creating Layer drop4
I1020 05:57:54.104156 11146 net.cpp:434] drop4 <- relu7
I1020 05:57:54.104161 11146 net.cpp:408] drop4 -> drop4
I1020 05:57:54.104187 11146 net.cpp:150] Setting up drop4
I1020 05:57:54.104193 11146 net.cpp:157] Top shape: 64 280 1 1 (17920)
I1020 05:57:54.104197 11146 net.cpp:165] Memory required for data: 133618432
I1020 05:57:54.104200 11146 layer_factory.hpp:77] Creating layer pool4
I1020 05:57:54.104204 11146 net.cpp:100] Creating Layer pool4
I1020 05:57:54.104207 11146 net.cpp:434] pool4 <- drop4
I1020 05:57:54.104214 11146 net.cpp:408] pool4 -> pool4
I1020 05:57:54.104239 11146 net.cpp:150] Setting up pool4
I1020 05:57:54.104244 11146 net.cpp:157] Top shape: 64 280 1 1 (17920)
I1020 05:57:54.104248 11146 net.cpp:165] Memory required for data: 133690112
I1020 05:57:54.104251 11146 layer_factory.hpp:77] Creating layer conv8
I1020 05:57:54.104257 11146 net.cpp:100] Creating Layer conv8
I1020 05:57:54.104260 11146 net.cpp:434] conv8 <- pool4
I1020 05:57:54.104266 11146 net.cpp:408] conv8 -> conv8
I1020 05:57:54.105271 11146 net.cpp:150] Setting up conv8
I1020 05:57:54.105281 11146 net.cpp:157] Top shape: 64 280 1 1 (17920)
I1020 05:57:54.105284 11146 net.cpp:165] Memory required for data: 133761792
I1020 05:57:54.105290 11146 layer_factory.hpp:77] Creating layer relu8
I1020 05:57:54.105296 11146 net.cpp:100] Creating Layer relu8
I1020 05:57:54.105300 11146 net.cpp:434] relu8 <- conv8
I1020 05:57:54.105305 11146 net.cpp:408] relu8 -> relu8
I1020 05:57:54.105428 11146 net.cpp:150] Setting up relu8
I1020 05:57:54.105435 11146 net.cpp:157] Top shape: 64 280 1 1 (17920)
I1020 05:57:54.105438 11146 net.cpp:165] Memory required for data: 133833472
I1020 05:57:54.105442 11146 layer_factory.hpp:77] Creating layer drop5
I1020 05:57:54.105445 11146 net.cpp:100] Creating Layer drop5
I1020 05:57:54.105449 11146 net.cpp:434] drop5 <- relu8
I1020 05:57:54.105455 11146 net.cpp:408] drop5 -> drop5
I1020 05:57:54.105520 11146 net.cpp:150] Setting up drop5
I1020 05:57:54.105526 11146 net.cpp:157] Top shape: 64 280 1 1 (17920)
I1020 05:57:54.105530 11146 net.cpp:165] Memory required for data: 133905152
I1020 05:57:54.105533 11146 layer_factory.hpp:77] Creating layer pool5
I1020 05:57:54.105537 11146 net.cpp:100] Creating Layer pool5
I1020 05:57:54.105540 11146 net.cpp:434] pool5 <- drop5
I1020 05:57:54.105546 11146 net.cpp:408] pool5 -> pool5
I1020 05:57:54.105573 11146 net.cpp:150] Setting up pool5
I1020 05:57:54.105579 11146 net.cpp:157] Top shape: 64 280 1 1 (17920)
I1020 05:57:54.105581 11146 net.cpp:165] Memory required for data: 133976832
I1020 05:57:54.105586 11146 layer_factory.hpp:77] Creating layer conv10
I1020 05:57:54.105592 11146 net.cpp:100] Creating Layer conv10
I1020 05:57:54.105595 11146 net.cpp:434] conv10 <- pool5
I1020 05:57:54.105602 11146 net.cpp:408] conv10 -> conv10
I1020 05:57:54.107261 11146 net.cpp:150] Setting up conv10
I1020 05:57:54.107270 11146 net.cpp:157] Top shape: 64 300 1 1 (19200)
I1020 05:57:54.107273 11146 net.cpp:165] Memory required for data: 134053632
I1020 05:57:54.107285 11146 layer_factory.hpp:77] Creating layer relu10
I1020 05:57:54.107290 11146 net.cpp:100] Creating Layer relu10
I1020 05:57:54.107293 11146 net.cpp:434] relu10 <- conv10
I1020 05:57:54.107300 11146 net.cpp:408] relu10 -> relu10
I1020 05:57:54.107499 11146 net.cpp:150] Setting up relu10
I1020 05:57:54.107507 11146 net.cpp:157] Top shape: 64 300 1 1 (19200)
I1020 05:57:54.107522 11146 net.cpp:165] Memory required for data: 134130432
I1020 05:57:54.107524 11146 layer_factory.hpp:77] Creating layer drop6
I1020 05:57:54.107529 11146 net.cpp:100] Creating Layer drop6
I1020 05:57:54.107534 11146 net.cpp:434] drop6 <- relu10
I1020 05:57:54.107540 11146 net.cpp:408] drop6 -> drop6
I1020 05:57:54.107570 11146 net.cpp:150] Setting up drop6
I1020 05:57:54.107576 11146 net.cpp:157] Top shape: 64 300 1 1 (19200)
I1020 05:57:54.107580 11146 net.cpp:165] Memory required for data: 134207232
I1020 05:57:54.107583 11146 layer_factory.hpp:77] Creating layer pool6
I1020 05:57:54.107589 11146 net.cpp:100] Creating Layer pool6
I1020 05:57:54.107591 11146 net.cpp:434] pool6 <- drop6
I1020 05:57:54.107596 11146 net.cpp:408] pool6 -> pool6
I1020 05:57:54.107625 11146 net.cpp:150] Setting up pool6
I1020 05:57:54.107630 11146 net.cpp:157] Top shape: 64 300 1 1 (19200)
I1020 05:57:54.107632 11146 net.cpp:165] Memory required for data: 134284032
I1020 05:57:54.107636 11146 layer_factory.hpp:77] Creating layer conv11
I1020 05:57:54.107645 11146 net.cpp:100] Creating Layer conv11
I1020 05:57:54.107648 11146 net.cpp:434] conv11 <- pool6
I1020 05:57:54.107653 11146 net.cpp:408] conv11 -> conv11
I1020 05:57:54.108675 11146 net.cpp:150] Setting up conv11
I1020 05:57:54.108683 11146 net.cpp:157] Top shape: 64 100 1 1 (6400)
I1020 05:57:54.108686 11146 net.cpp:165] Memory required for data: 134309632
I1020 05:57:54.108692 11146 layer_factory.hpp:77] Creating layer relu11
I1020 05:57:54.108698 11146 net.cpp:100] Creating Layer relu11
I1020 05:57:54.108702 11146 net.cpp:434] relu11 <- conv11
I1020 05:57:54.108707 11146 net.cpp:408] relu11 -> relu11
I1020 05:57:54.108826 11146 net.cpp:150] Setting up relu11
I1020 05:57:54.108834 11146 net.cpp:157] Top shape: 64 100 1 1 (6400)
I1020 05:57:54.108836 11146 net.cpp:165] Memory required for data: 134335232
I1020 05:57:54.108839 11146 layer_factory.hpp:77] Creating layer drop7
I1020 05:57:54.108844 11146 net.cpp:100] Creating Layer drop7
I1020 05:57:54.108849 11146 net.cpp:434] drop7 <- relu11
I1020 05:57:54.108853 11146 net.cpp:408] drop7 -> drop7
I1020 05:57:54.108880 11146 net.cpp:150] Setting up drop7
I1020 05:57:54.108886 11146 net.cpp:157] Top shape: 64 100 1 1 (6400)
I1020 05:57:54.108891 11146 net.cpp:165] Memory required for data: 134360832
I1020 05:57:54.108893 11146 layer_factory.hpp:77] Creating layer pool7
I1020 05:57:54.108897 11146 net.cpp:100] Creating Layer pool7
I1020 05:57:54.108901 11146 net.cpp:434] pool7 <- drop7
I1020 05:57:54.108907 11146 net.cpp:408] pool7 -> pool7
I1020 05:57:54.108934 11146 net.cpp:150] Setting up pool7
I1020 05:57:54.108939 11146 net.cpp:157] Top shape: 64 100 1 1 (6400)
I1020 05:57:54.108942 11146 net.cpp:165] Memory required for data: 134386432
I1020 05:57:54.108947 11146 layer_factory.hpp:77] Creating layer score
I1020 05:57:54.108952 11146 net.cpp:100] Creating Layer score
I1020 05:57:54.108955 11146 net.cpp:434] score <- pool7
I1020 05:57:54.108959 11146 net.cpp:408] score -> score
I1020 05:57:54.109062 11146 net.cpp:150] Setting up score
I1020 05:57:54.109067 11146 net.cpp:157] Top shape: 64 10 (640)
I1020 05:57:54.109071 11146 net.cpp:165] Memory required for data: 134388992
I1020 05:57:54.109076 11146 layer_factory.hpp:77] Creating layer score_score_0_split
I1020 05:57:54.109084 11146 net.cpp:100] Creating Layer score_score_0_split
I1020 05:57:54.109087 11146 net.cpp:434] score_score_0_split <- score
I1020 05:57:54.109091 11146 net.cpp:408] score_score_0_split -> score_score_0_split_0
I1020 05:57:54.109098 11146 net.cpp:408] score_score_0_split -> score_score_0_split_1
I1020 05:57:54.109125 11146 net.cpp:150] Setting up score_score_0_split
I1020 05:57:54.109129 11146 net.cpp:157] Top shape: 64 10 (640)
I1020 05:57:54.109133 11146 net.cpp:157] Top shape: 64 10 (640)
I1020 05:57:54.109136 11146 net.cpp:165] Memory required for data: 134394112
I1020 05:57:54.109139 11146 layer_factory.hpp:77] Creating layer accuracy
I1020 05:57:54.109145 11146 net.cpp:100] Creating Layer accuracy
I1020 05:57:54.109148 11146 net.cpp:434] accuracy <- score_score_0_split_0
I1020 05:57:54.109161 11146 net.cpp:434] accuracy <- label_data_1_split_0
I1020 05:57:54.109169 11146 net.cpp:408] accuracy -> accuracy
…
I1020 05:57:54.109668 11146 net.cpp:283] Network initialization done.
I1020 05:57:54.109861 11146 solver.cpp:181] Creating test net (#0) specified by test_net file: /home/adam/Honours/Honours-Project/mnist_pooling/max/leakyrelu/poolcnn_leakyrelu_test.prototxt
I1020 05:57:54.109982 11146 net.cpp:58] Initializing net from parameters: 
state {
  phase: TEST
}
layer {
  name: "data"
  type: "Data"
  top: "data"
  top: "label"
  transform_param {
    scale: 0.0039215689
  }
  data_param {
    source: "../../../../data/mnist/mnist_test_lmdb"
    batch_size: 100
    backend: LMDB
  }
}
layer {
  name: "conv1"
  type: "Convolution"
  bottom: "data"
  top: "conv1"
  convolution_param {
    num_output: 192
    kernel_size: 5
    weight_filler {
      type: "xavier"
    }
  }
}
layer {
  name: "relu1"
  type: "ReLU"
  bottom: "conv1"
  top: "relu1"
  relu_param {
    negative_slope: 0.1
  }
}
layer {
  name: "drop1"
  type: "Dropout"
  bottom: "relu1"
  top: "drop1"
  dropout_param {
    dropout_ratio: 0
  }
}
layer {
  name: "pool1"
  type: "Pooling"
  bottom: "drop1"
  top: "pool1"
  pooling_param {
    pool: MAX
    kernel_size: 2
    stride: 2
  }
}
layer {
  name: "conv2"
  type: "Convolution"
  bottom: "pool1"
  top: "conv2"
  convolution_param {
    num_output: 192
    kernel_size: 1
    weight_filler {
      type: "xavier"
    }
  }
}
layer {
  name: "relu2"
  type: "ReLU"
  bottom: "conv2"
  top: "relu2"
  relu_param {
    negative_slope: 0.1
  }
}
layer {
  name: "conv3"
  type: "Convolution"
  bottom: "relu2"
  top: "conv3"
  convolution_param {
    num_output: 240
    kernel_size: 3
    weight_filler {
      type: "xavier"
    }
  }
}
layer {
  name: "relu3"
  type: "ReLU"
  bottom: "conv3"
  top: "relu3"
  relu_param {
    negative_slope: 0.1
  }
}
layer {
  name: "drop2"
  type: "Dropout"
  bottom: "relu3"
  top: "drop2"
  dropout_param {
    dropout_ratio: 0.1
  }
}
layer {
  name: "pool2"
  type: "Pooling"
  bottom: "drop2"
  top: "pool2"
  pooling_param {
    pool: MAX
    kernel_size: 2
    stride: 2
  }
}
layer {
  name: "conv4"
  type: "Convolution"
  bottom: "pool2"
  top: "conv4"
  convolution_param {
    num_output: 240
    kernel_size: 1
    weight_filler {
      type: "xavier"
    }
  }
}
layer {
  name: "relu4"
  type: "ReLU"
  bottom: "conv4"
  top: "relu4"
  relu_param {
    negative_slope: 0.1
  }
}
layer {
  name: "conv5"
  type: "Convolution"
  bottom: "relu4"
  top: "conv5"
  convolution_param {
    num_output: 260
    kernel_size: 2
    weight_filler {
      type: "xavier"
    }
  }
}
layer {
  name: "relu5"
  type: "ReLU"
  bottom: "conv5"
  top: "relu5"
  relu_param {
    negative_slope: 0.1
  }
}
layer {
  name: "drop3"
  type: "Dropout"
  bottom: "relu5"
  top: "drop3"
  dropout_param {
    dropout_ratio: 0.2
  }
}
layer {
  name: "pool3"
  type: "Pooling"
  bottom: "drop3"
  top: "pool3"
  pooling_param {
    pool: MAX
    kernel_size: 2
    stride: 2
  }
}
layer {
  name: "conv6"
  type: "Convolution"
  bottom: "pool3"
  top: "conv6"
  convolution_param {
    num_output: 260
    kernel_size: 1
    weight_filler {
      type: "xavier"
    }
  }
}
layer {
  name: "relu6"
  type: "ReLU"
  bottom: "conv6"
  top: "relu6"
  relu_param {
    negative_slope: 0.1
  }
}
layer {
  name: "conv7"
  type: "Convolution"
  bottom: "relu6"
  top: "conv7"
  convolution_param {
    num_output: 280
    kernel_size: 2
    weight_filler {
      type: "xavier"
    }
  }
}
layer {
  name: "relu7"
  type: "ReLU"
  bottom: "conv7"
  top: "relu7"
  relu_param {
    negative_slope: 0.1
  }
}
layer {
  name: "drop4"
  type: "Dropout"
  bottom: "relu7"
  top: "drop4"
  dropout_param {
    dropout_ratio: 0.3
  }
}
layer {
  name: "pool4"
  type: "Pooling"
  bottom: "drop4"
  top: "pool4"
  pooling_param {
    pool: MAX
    kernel_size: 2
    stride: 2
  }
}
layer {
  name: "conv8"
  type: "Convolution"
  bottom: "pool4"
  top: "conv8"
  convolution_param {
    num_output: 280
    kernel_size: 1
    weight_filler {
      type: "xavier"
    }
  }
}
layer {
  name: "relu8"
  type: "ReLU"
  bottom: "conv8"
  top: "relu8"
  relu_param {
    negative_slope: 0.1
  }
}
layer {
  name: "drop5"
  type: "Dropout"
  bottom: "relu8"
  top: "drop5"
  dropout_param {
    dropout_ratio: 0.4
  }
}
layer {
  name: "pool5"
  type: "Pooling"
  bottom: "drop5"
  top: "pool5"
  pooling_param {
    pool: MAX
    kernel_size: 2
    stride: 2
  }
}
layer {
  name: "conv10"
  type: "Convolution"
  bottom: "pool5"
  top: "conv10"
  convolution_param {
    num_output: 300
    kernel_size: 1
    weight_filler {
      type: "xavier"
    }
  }
}
layer {
  name: "relu10"
  type: "ReLU"
  bottom: "conv10"
  top: "relu10"
  relu_param {
    negative_slope: 0.1
  }
}
layer {
  name: "drop6"
  type: "Dropout"
  bottom: "relu10"
  top: "drop6"
  dropout_param {
    dropout_ratio: 0.5
  }
}
layer {
  name: "pool6"
  type: "Pooling"
  bottom: "drop6"
  top: "pool6"
  pooling_param {
    pool: MAX
    kernel_size: 2
    stride: 2
  }
}
layer {
  name: "conv11"
  type: "Convolution"
  bottom: "pool6"
  top: "conv11"
  convolution_param {
    num_output: 100
    kernel_size: 1
    weight_filler {
      type: "xavier"
    }
  }
}
layer {
  name: "relu11"
  type: "ReLU"
  bottom: "conv11"
  top: "relu11"
  relu_param {
    negative_slope: 0.1
  }
}
layer {
  name: "drop7"
  type: "Dropout"
  bottom: "relu11"
  top: "drop7"
  dropout_param {
    dropout_ratio: 0
  }
}
layer {
  name: "pool7"
  type: "Pooling"
  bottom: "drop7"
  top: "pool7"
  pooling_param {
    pool: MAX
    kernel_size: 2
    stride: 2
  }
}
layer {
  name: "score"
  type: "InnerProduct"
  bottom: "pool7"
  top: "score"
  inner_product_param {
    num_output: 10
    weight_filler {
      type: "gaussian"
    }
  }
}
layer {
  name: "accuracy"
  type: "Accuracy"
  bottom: "score"
  bottom: "label"
  top: "accuracy"
}
layer {
  name: "loss"
  type: "SoftmaxWithLoss"
  bottom: "score"
  bottom: "label"
  top: "loss"
}
I1020 05:57:54.110081 11146 layer_factory.hpp:77] Creating layer data
I1020 05:57:54.110172 11146 net.cpp:100] Creating Layer data
I1020 05:57:54.110177 11146 net.cpp:408] data -> data
I1020 05:57:54.110183 11146 net.cpp:408] data -> label
I1020 05:57:54.110736 11153 db_lmdb.cpp:35] Opened lmdb ../../../../data/mnist/mnist_test_lmdb
I1020 05:57:54.110811 11146 data_layer.cpp:41] output data size: 100,1,28,28
I1020 05:57:54.111433 11146 net.cpp:150] Setting up data
I1020 05:57:54.111443 11146 net.cpp:157] Top shape: 100 1 28 28 (78400)
I1020 05:57:54.111446 11146 net.cpp:157] Top shape: 100 (100)
I1020 05:57:54.111450 11146 net.cpp:165] Memory required for data: 314000
I1020 05:57:54.111454 11146 layer_factory.hpp:77] Creating layer label_data_1_split
I1020 05:57:54.111460 11146 net.cpp:100] Creating Layer label_data_1_split
I1020 05:57:54.111464 11146 net.cpp:434] label_data_1_split <- label
I1020 05:57:54.111469 11146 net.cpp:408] label_data_1_split -> label_data_1_split_0
I1020 05:57:54.111477 11146 net.cpp:408] label_data_1_split -> label_data_1_split_1
I1020 05:57:54.111512 11146 net.cpp:150] Setting up label_data_1_split
I1020 05:57:54.111517 11146 net.cpp:157] Top shape: 100 (100)
I1020 05:57:54.111521 11146 net.cpp:157] Top shape: 100 (100)
I1020 05:57:54.111523 11146 net.cpp:165] Memory required for data: 314800
I1020 05:57:54.111526 11146 layer_factory.hpp:77] Creating layer conv1
I1020 05:57:54.111534 11146 net.cpp:100] Creating Layer conv1
I1020 05:57:54.111537 11146 net.cpp:434] conv1 <- data
I1020 05:57:54.111542 11146 net.cpp:408] conv1 -> conv1
I1020 05:57:54.112315 11146 net.cpp:150] Setting up conv1
I1020 05:57:54.112324 11146 net.cpp:157] Top shape: 100 192 24 24 (11059200)
I1020 05:57:54.112329 11146 net.cpp:165] Memory required for data: 44551600
I1020 05:57:54.112339 11146 layer_factory.hpp:77] Creating layer relu1
I1020 05:57:54.112344 11146 net.cpp:100] Creating Layer relu1
I1020 05:57:54.112349 11146 net.cpp:434] relu1 <- conv1
I1020 05:57:54.112354 11146 net.cpp:408] relu1 -> relu1
I1020 05:57:54.112484 11146 net.cpp:150] Setting up relu1
I1020 05:57:54.112493 11146 net.cpp:157] Top shape: 100 192 24 24 (11059200)
I1020 05:57:54.112504 11146 net.cpp:165] Memory required for data: 88788400
I1020 05:57:54.112509 11146 layer_factory.hpp:77] Creating layer drop1
I1020 05:57:54.112515 11146 net.cpp:100] Creating Layer drop1
I1020 05:57:54.112519 11146 net.cpp:434] drop1 <- relu1
I1020 05:57:54.112524 11146 net.cpp:408] drop1 -> drop1
I1020 05:57:54.112557 11146 net.cpp:150] Setting up drop1
I1020 05:57:54.112563 11146 net.cpp:157] Top shape: 100 192 24 24 (11059200)
I1020 05:57:54.112565 11146 net.cpp:165] Memory required for data: 133025200
I1020 05:57:54.112568 11146 layer_factory.hpp:77] Creating layer pool1
I1020 05:57:54.112576 11146 net.cpp:100] Creating Layer pool1
I1020 05:57:54.112579 11146 net.cpp:434] pool1 <- drop1
I1020 05:57:54.112583 11146 net.cpp:408] pool1 -> pool1
I1020 05:57:54.112617 11146 net.cpp:150] Setting up pool1
I1020 05:57:54.112622 11146 net.cpp:157] Top shape: 100 192 12 12 (2764800)
I1020 05:57:54.112625 11146 net.cpp:165] Memory required for data: 144084400
I1020 05:57:54.112627 11146 layer_factory.hpp:77] Creating layer conv2
I1020 05:57:54.112635 11146 net.cpp:100] Creating Layer conv2
I1020 05:57:54.112638 11146 net.cpp:434] conv2 <- pool1
I1020 05:57:54.112643 11146 net.cpp:408] conv2 -> conv2
I1020 05:57:54.113494 11146 net.cpp:150] Setting up conv2
I1020 05:57:54.113504 11146 net.cpp:157] Top shape: 100 192 12 12 (2764800)
I1020 05:57:54.113510 11146 net.cpp:165] Memory required for data: 155143600
I1020 05:57:54.113519 11146 layer_factory.hpp:77] Creating layer relu2
I1020 05:57:54.113524 11146 net.cpp:100] Creating Layer relu2
I1020 05:57:54.113528 11146 net.cpp:434] relu2 <- conv2
I1020 05:57:54.113534 11146 net.cpp:408] relu2 -> relu2
I1020 05:57:54.113669 11146 net.cpp:150] Setting up relu2
I1020 05:57:54.113677 11146 net.cpp:157] Top shape: 100 192 12 12 (2764800)
I1020 05:57:54.113679 11146 net.cpp:165] Memory required for data: 166202800
I1020 05:57:54.113683 11146 layer_factory.hpp:77] Creating layer conv3
I1020 05:57:54.113692 11146 net.cpp:100] Creating Layer conv3
I1020 05:57:54.113695 11146 net.cpp:434] conv3 <- relu2
I1020 05:57:54.113701 11146 net.cpp:408] conv3 -> conv3
I1020 05:57:54.116165 11146 net.cpp:150] Setting up conv3
I1020 05:57:54.116174 11146 net.cpp:157] Top shape: 100 240 10 10 (2400000)
I1020 05:57:54.116178 11146 net.cpp:165] Memory required for data: 175802800
I1020 05:57:54.116185 11146 layer_factory.hpp:77] Creating layer relu3
I1020 05:57:54.116191 11146 net.cpp:100] Creating Layer relu3
I1020 05:57:54.116195 11146 net.cpp:434] relu3 <- conv3
I1020 05:57:54.116200 11146 net.cpp:408] relu3 -> relu3
I1020 05:57:54.116410 11146 net.cpp:150] Setting up relu3
I1020 05:57:54.116418 11146 net.cpp:157] Top shape: 100 240 10 10 (2400000)
I1020 05:57:54.116421 11146 net.cpp:165] Memory required for data: 185402800
I1020 05:57:54.116425 11146 layer_factory.hpp:77] Creating layer drop2
I1020 05:57:54.116430 11146 net.cpp:100] Creating Layer drop2
I1020 05:57:54.116435 11146 net.cpp:434] drop2 <- relu3
I1020 05:57:54.116439 11146 net.cpp:408] drop2 -> drop2
I1020 05:57:54.116467 11146 net.cpp:150] Setting up drop2
I1020 05:57:54.116473 11146 net.cpp:157] Top shape: 100 240 10 10 (2400000)
I1020 05:57:54.116477 11146 net.cpp:165] Memory required for data: 195002800
I1020 05:57:54.116480 11146 layer_factory.hpp:77] Creating layer pool2
I1020 05:57:54.116484 11146 net.cpp:100] Creating Layer pool2
I1020 05:57:54.116488 11146 net.cpp:434] pool2 <- drop2
I1020 05:57:54.116494 11146 net.cpp:408] pool2 -> pool2
I1020 05:57:54.116521 11146 net.cpp:150] Setting up pool2
I1020 05:57:54.116528 11146 net.cpp:157] Top shape: 100 240 5 5 (600000)
I1020 05:57:54.116531 11146 net.cpp:165] Memory required for data: 197402800
I1020 05:57:54.116534 11146 layer_factory.hpp:77] Creating layer conv4
I1020 05:57:54.116540 11146 net.cpp:100] Creating Layer conv4
I1020 05:57:54.116544 11146 net.cpp:434] conv4 <- pool2
I1020 05:57:54.116549 11146 net.cpp:408] conv4 -> conv4
I1020 05:57:54.117403 11146 net.cpp:150] Setting up conv4
I1020 05:57:54.117411 11146 net.cpp:157] Top shape: 100 240 5 5 (600000)
I1020 05:57:54.117422 11146 net.cpp:165] Memory required for data: 199802800
I1020 05:57:54.117429 11146 layer_factory.hpp:77] Creating layer relu4
I1020 05:57:54.117435 11146 net.cpp:100] Creating Layer relu4
I1020 05:57:54.117439 11146 net.cpp:434] relu4 <- conv4
I1020 05:57:54.117444 11146 net.cpp:408] relu4 -> relu4
I1020 05:57:54.117570 11146 net.cpp:150] Setting up relu4
I1020 05:57:54.117578 11146 net.cpp:157] Top shape: 100 240 5 5 (600000)
I1020 05:57:54.117580 11146 net.cpp:165] Memory required for data: 202202800
I1020 05:57:54.117583 11146 layer_factory.hpp:77] Creating layer conv5
I1020 05:57:54.117590 11146 net.cpp:100] Creating Layer conv5
I1020 05:57:54.117594 11146 net.cpp:434] conv5 <- relu4
I1020 05:57:54.117599 11146 net.cpp:408] conv5 -> conv5
I1020 05:57:54.119477 11146 net.cpp:150] Setting up conv5
I1020 05:57:54.119485 11146 net.cpp:157] Top shape: 100 260 4 4 (416000)
I1020 05:57:54.119489 11146 net.cpp:165] Memory required for data: 203866800
I1020 05:57:54.119498 11146 layer_factory.hpp:77] Creating layer relu5
I1020 05:57:54.119504 11146 net.cpp:100] Creating Layer relu5
I1020 05:57:54.119508 11146 net.cpp:434] relu5 <- conv5
I1020 05:57:54.119514 11146 net.cpp:408] relu5 -> relu5
I1020 05:57:54.119638 11146 net.cpp:150] Setting up relu5
I1020 05:57:54.119645 11146 net.cpp:157] Top shape: 100 260 4 4 (416000)
I1020 05:57:54.119648 11146 net.cpp:165] Memory required for data: 205530800
I1020 05:57:54.119652 11146 layer_factory.hpp:77] Creating layer drop3
I1020 05:57:54.119660 11146 net.cpp:100] Creating Layer drop3
I1020 05:57:54.119663 11146 net.cpp:434] drop3 <- relu5
I1020 05:57:54.119668 11146 net.cpp:408] drop3 -> drop3
I1020 05:57:54.119696 11146 net.cpp:150] Setting up drop3
I1020 05:57:54.119702 11146 net.cpp:157] Top shape: 100 260 4 4 (416000)
I1020 05:57:54.119704 11146 net.cpp:165] Memory required for data: 207194800
I1020 05:57:54.119707 11146 layer_factory.hpp:77] Creating layer pool3
I1020 05:57:54.119712 11146 net.cpp:100] Creating Layer pool3
I1020 05:57:54.119716 11146 net.cpp:434] pool3 <- drop3
I1020 05:57:54.119721 11146 net.cpp:408] pool3 -> pool3
I1020 05:57:54.119748 11146 net.cpp:150] Setting up pool3
I1020 05:57:54.119753 11146 net.cpp:157] Top shape: 100 260 2 2 (104000)
I1020 05:57:54.119756 11146 net.cpp:165] Memory required for data: 207610800
I1020 05:57:54.119760 11146 layer_factory.hpp:77] Creating layer conv6
I1020 05:57:54.119766 11146 net.cpp:100] Creating Layer conv6
I1020 05:57:54.119770 11146 net.cpp:434] conv6 <- pool3
I1020 05:57:54.119776 11146 net.cpp:408] conv6 -> conv6
I1020 05:57:54.120929 11146 net.cpp:150] Setting up conv6
I1020 05:57:54.120939 11146 net.cpp:157] Top shape: 100 260 2 2 (104000)
I1020 05:57:54.120942 11146 net.cpp:165] Memory required for data: 208026800
I1020 05:57:54.120949 11146 layer_factory.hpp:77] Creating layer relu6
I1020 05:57:54.120954 11146 net.cpp:100] Creating Layer relu6
I1020 05:57:54.120957 11146 net.cpp:434] relu6 <- conv6
I1020 05:57:54.120962 11146 net.cpp:408] relu6 -> relu6
I1020 05:57:54.121162 11146 net.cpp:150] Setting up relu6
I1020 05:57:54.121170 11146 net.cpp:157] Top shape: 100 260 2 2 (104000)
I1020 05:57:54.121173 11146 net.cpp:165] Memory required for data: 208442800
I1020 05:57:54.121177 11146 layer_factory.hpp:77] Creating layer conv7
I1020 05:57:54.121184 11146 net.cpp:100] Creating Layer conv7
I1020 05:57:54.121191 11146 net.cpp:434] conv7 <- relu6
I1020 05:57:54.121196 11146 net.cpp:408] conv7 -> conv7
I1020 05:57:54.124303 11146 net.cpp:150] Setting up conv7
I1020 05:57:54.124317 11146 net.cpp:157] Top shape: 100 280 1 1 (28000)
I1020 05:57:54.124320 11146 net.cpp:165] Memory required for data: 208554800
I1020 05:57:54.124326 11146 layer_factory.hpp:77] Creating layer relu7
I1020 05:57:54.124333 11146 net.cpp:100] Creating Layer relu7
I1020 05:57:54.124338 11146 net.cpp:434] relu7 <- conv7
I1020 05:57:54.124344 11146 net.cpp:408] relu7 -> relu7
I1020 05:57:54.124475 11146 net.cpp:150] Setting up relu7
I1020 05:57:54.124483 11146 net.cpp:157] Top shape: 100 280 1 1 (28000)
I1020 05:57:54.124495 11146 net.cpp:165] Memory required for data: 208666800
I1020 05:57:54.124498 11146 layer_factory.hpp:77] Creating layer drop4
I1020 05:57:54.124505 11146 net.cpp:100] Creating Layer drop4
I1020 05:57:54.124508 11146 net.cpp:434] drop4 <- relu7
I1020 05:57:54.124513 11146 net.cpp:408] drop4 -> drop4
I1020 05:57:54.124546 11146 net.cpp:150] Setting up drop4
I1020 05:57:54.124550 11146 net.cpp:157] Top shape: 100 280 1 1 (28000)
I1020 05:57:54.124554 11146 net.cpp:165] Memory required for data: 208778800
I1020 05:57:54.124558 11146 layer_factory.hpp:77] Creating layer pool4
I1020 05:57:54.124563 11146 net.cpp:100] Creating Layer pool4
I1020 05:57:54.124567 11146 net.cpp:434] pool4 <- drop4
I1020 05:57:54.124573 11146 net.cpp:408] pool4 -> pool4
I1020 05:57:54.124601 11146 net.cpp:150] Setting up pool4
I1020 05:57:54.124606 11146 net.cpp:157] Top shape: 100 280 1 1 (28000)
I1020 05:57:54.124609 11146 net.cpp:165] Memory required for data: 208890800
I1020 05:57:54.124613 11146 layer_factory.hpp:77] Creating layer conv8
I1020 05:57:54.124622 11146 net.cpp:100] Creating Layer conv8
I1020 05:57:54.124625 11146 net.cpp:434] conv8 <- pool4
I1020 05:57:54.124630 11146 net.cpp:408] conv8 -> conv8
I1020 05:57:54.125982 11146 net.cpp:150] Setting up conv8
I1020 05:57:54.125990 11146 net.cpp:157] Top shape: 100 280 1 1 (28000)
I1020 05:57:54.125994 11146 net.cpp:165] Memory required for data: 209002800
I1020 05:57:54.125999 11146 layer_factory.hpp:77] Creating layer relu8
I1020 05:57:54.126008 11146 net.cpp:100] Creating Layer relu8
I1020 05:57:54.126010 11146 net.cpp:434] relu8 <- conv8
I1020 05:57:54.126015 11146 net.cpp:408] relu8 -> relu8
I1020 05:57:54.126140 11146 net.cpp:150] Setting up relu8
I1020 05:57:54.126148 11146 net.cpp:157] Top shape: 100 280 1 1 (28000)
I1020 05:57:54.126152 11146 net.cpp:165] Memory required for data: 209114800
I1020 05:57:54.126157 11146 layer_factory.hpp:77] Creating layer drop5
I1020 05:57:54.126162 11146 net.cpp:100] Creating Layer drop5
I1020 05:57:54.126165 11146 net.cpp:434] drop5 <- relu8
I1020 05:57:54.126169 11146 net.cpp:408] drop5 -> drop5
I1020 05:57:54.126199 11146 net.cpp:150] Setting up drop5
I1020 05:57:54.126204 11146 net.cpp:157] Top shape: 100 280 1 1 (28000)
I1020 05:57:54.126207 11146 net.cpp:165] Memory required for data: 209226800
I1020 05:57:54.126211 11146 layer_factory.hpp:77] Creating layer pool5
I1020 05:57:54.126215 11146 net.cpp:100] Creating Layer pool5
I1020 05:57:54.126219 11146 net.cpp:434] pool5 <- drop5
I1020 05:57:54.126225 11146 net.cpp:408] pool5 -> pool5
I1020 05:57:54.126255 11146 net.cpp:150] Setting up pool5
I1020 05:57:54.126260 11146 net.cpp:157] Top shape: 100 280 1 1 (28000)
I1020 05:57:54.126262 11146 net.cpp:165] Memory required for data: 209338800
I1020 05:57:54.126266 11146 layer_factory.hpp:77] Creating layer conv10
I1020 05:57:54.126273 11146 net.cpp:100] Creating Layer conv10
I1020 05:57:54.126276 11146 net.cpp:434] conv10 <- pool5
I1020 05:57:54.126281 11146 net.cpp:408] conv10 -> conv10
I1020 05:57:54.127250 11146 net.cpp:150] Setting up conv10
I1020 05:57:54.127259 11146 net.cpp:157] Top shape: 100 300 1 1 (30000)
I1020 05:57:54.127262 11146 net.cpp:165] Memory required for data: 209458800
I1020 05:57:54.127274 11146 layer_factory.hpp:77] Creating layer relu10
I1020 05:57:54.127279 11146 net.cpp:100] Creating Layer relu10
I1020 05:57:54.127282 11146 net.cpp:434] relu10 <- conv10
I1020 05:57:54.127287 11146 net.cpp:408] relu10 -> relu10
I1020 05:57:54.127492 11146 net.cpp:150] Setting up relu10
I1020 05:57:54.127501 11146 net.cpp:157] Top shape: 100 300 1 1 (30000)
I1020 05:57:54.127504 11146 net.cpp:165] Memory required for data: 209578800
I1020 05:57:54.127507 11146 layer_factory.hpp:77] Creating layer drop6
I1020 05:57:54.127513 11146 net.cpp:100] Creating Layer drop6
I1020 05:57:54.127517 11146 net.cpp:434] drop6 <- relu10
I1020 05:57:54.127522 11146 net.cpp:408] drop6 -> drop6
I1020 05:57:54.127554 11146 net.cpp:150] Setting up drop6
I1020 05:57:54.127560 11146 net.cpp:157] Top shape: 100 300 1 1 (30000)
I1020 05:57:54.127570 11146 net.cpp:165] Memory required for data: 209698800
I1020 05:57:54.127573 11146 layer_factory.hpp:77] Creating layer pool6
I1020 05:57:54.127578 11146 net.cpp:100] Creating Layer pool6
I1020 05:57:54.127583 11146 net.cpp:434] pool6 <- drop6
I1020 05:57:54.127588 11146 net.cpp:408] pool6 -> pool6
I1020 05:57:54.127616 11146 net.cpp:150] Setting up pool6
I1020 05:57:54.127621 11146 net.cpp:157] Top shape: 100 300 1 1 (30000)
I1020 05:57:54.127624 11146 net.cpp:165] Memory required for data: 209818800
I1020 05:57:54.127629 11146 layer_factory.hpp:77] Creating layer conv11
I1020 05:57:54.127637 11146 net.cpp:100] Creating Layer conv11
I1020 05:57:54.127640 11146 net.cpp:434] conv11 <- pool6
I1020 05:57:54.127645 11146 net.cpp:408] conv11 -> conv11
I1020 05:57:54.128425 11146 net.cpp:150] Setting up conv11
I1020 05:57:54.128434 11146 net.cpp:157] Top shape: 100 100 1 1 (10000)
I1020 05:57:54.128438 11146 net.cpp:165] Memory required for data: 209858800
I1020 05:57:54.128444 11146 layer_factory.hpp:77] Creating layer relu11
I1020 05:57:54.128450 11146 net.cpp:100] Creating Layer relu11
I1020 05:57:54.128454 11146 net.cpp:434] relu11 <- conv11
I1020 05:57:54.128458 11146 net.cpp:408] relu11 -> relu11
I1020 05:57:54.128584 11146 net.cpp:150] Setting up relu11
I1020 05:57:54.128592 11146 net.cpp:157] Top shape: 100 100 1 1 (10000)
I1020 05:57:54.128594 11146 net.cpp:165] Memory required for data: 209898800
I1020 05:57:54.128597 11146 layer_factory.hpp:77] Creating layer drop7
I1020 05:57:54.128602 11146 net.cpp:100] Creating Layer drop7
I1020 05:57:54.128607 11146 net.cpp:434] drop7 <- relu11
I1020 05:57:54.128612 11146 net.cpp:408] drop7 -> drop7
I1020 05:57:54.128643 11146 net.cpp:150] Setting up drop7
I1020 05:57:54.128648 11146 net.cpp:157] Top shape: 100 100 1 1 (10000)
I1020 05:57:54.128651 11146 net.cpp:165] Memory required for data: 209938800
I1020 05:57:54.128654 11146 layer_factory.hpp:77] Creating layer pool7
I1020 05:57:54.128660 11146 net.cpp:100] Creating Layer pool7
I1020 05:57:54.128664 11146 net.cpp:434] pool7 <- drop7
I1020 05:57:54.128669 11146 net.cpp:408] pool7 -> pool7
I1020 05:57:54.128696 11146 net.cpp:150] Setting up pool7
I1020 05:57:54.128701 11146 net.cpp:157] Top shape: 100 100 1 1 (10000)
I1020 05:57:54.128705 11146 net.cpp:165] Memory required for data: 209978800
I1020 05:57:54.128710 11146 layer_factory.hpp:77] Creating layer score
I1020 05:57:54.128716 11146 net.cpp:100] Creating Layer score
I1020 05:57:54.128720 11146 net.cpp:434] score <- pool7
I1020 05:57:54.128723 11146 net.cpp:408] score -> score
I1020 05:57:54.128814 11146 net.cpp:150] Setting up score
I1020 05:57:54.128819 11146 net.cpp:157] Top shape: 100 10 (1000)
I1020 05:57:54.128821 11146 net.cpp:165] Memory required for data: 209982800
I1020 05:57:54.128828 11146 layer_factory.hpp:77] Creating layer score_score_0_split
I1020 05:57:54.128834 11146 net.cpp:100] Creating Layer score_score_0_split
I1020 05:57:54.128836 11146 net.cpp:434] score_score_0_split <- score
I1020 05:57:54.128844 11146 net.cpp:408] score_score_0_split -> score_score_0_split_0
I1020 05:57:54.128849 11146 net.cpp:408] score_score_0_split -> score_score_0_split_1
I1020 05:57:54.128877 11146 net.cpp:150] Setting up score_score_0_split
I1020 05:57:54.128882 11146 net.cpp:157] Top shape: 100 10 (1000)
I1020 05:57:54.128885 11146 net.cpp:157] Top shape: 100 10 (1000)
I1020 05:57:54.128890 11146 net.cpp:165] Memory required for data: 209990800
I1020 05:57:54.128892 11146 layer_factory.hpp:77] Creating layer accuracy
I1020 05:57:54.128898 11146 net.cpp:100] Creating Layer accuracy
I1020 05:57:54.128902 11146 net.cpp:434] accuracy <- score_score_0_split_0
I1020 05:57:54.128906 11146 net.cpp:434] accuracy <- label_data_1_split_0
I1020 05:57:54.128911 11146 net.cpp:408] accuracy -> accuracy
…
