…
  level: 0
  stage: ""
}
type: "RMSProp"
I1018 20:22:28.675012  5818 solver.cpp:81] Creating training net from train_net file: /home/adam/Honours/Honours-Project/mnist_pooling/max/relu/poolcnn_relu_train.prototxt
I1018 20:22:28.675313  5818 net.cpp:58] Initializing net from parameters: 
state {
  phase: TRAIN
  level: 0
  stage: ""
}
layer {
  name: "data"
  type: "Data"
  top: "data"
  top: "label"
  transform_param {
    scale: 0.0039215689
  }
  data_param {
    source: "../../../../data/mnist/mnist_train_lmdb"
    batch_size: 64
    backend: LMDB
  }
}
layer {
  name: "conv1"
  type: "Convolution"
  bottom: "data"
  top: "conv1"
  convolution_param {
    num_output: 192
    kernel_size: 5
    weight_filler {
      type: "xavier"
    }
  }
}
layer {
  name: "pool1"
  type: "Pooling"
  bottom: "conv1"
  top: "pool1"
  pooling_param {
    pool: MAX
    kernel_size: 2
    stride: 2
  }
}
layer {
  name: "drop1"
  type: "Dropout"
  bottom: "pool1"
  top: "drop1"
  dropout_param {
    dropout_ratio: 0
  }
}
layer {
  name: "relu1"
  type: "ReLU"
  bottom: "drop1"
  top: "relu1"
}
layer {
  name: "conv2"
  type: "Convolution"
  bottom: "relu1"
  top: "conv2"
  convolution_param {
    num_output: 192
    kernel_size: 1
    weight_filler {
      type: "xavier"
    }
  }
}
layer {
  name: "conv3"
  type: "Convolution"
  bottom: "conv2"
  top: "conv3"
  convolution_param {
    num_output: 240
    kernel_size: 3
    weight_filler {
      type: "xavier"
    }
  }
}
layer {
  name: "pool2"
  type: "Pooling"
  bottom: "conv3"
  top: "pool2"
  pooling_param {
    pool: MAX
    kernel_size: 2
    stride: 2
  }
}
layer {
  name: "drop2"
  type: "Dropout"
  bottom: "pool2"
  top: "drop2"
  dropout_param {
    dropout_ratio: 0.1
  }
}
layer {
  name: "relu2"
  type: "ReLU"
  bottom: "drop2"
  top: "relu2"
}
layer {
  name: "conv4"
  type: "Convolution"
  bottom: "relu2"
  top: "conv4"
  convolution_param {
    num_output: 240
    kernel_size: 1
    weight_filler {
      type: "xavier"
    }
  }
}
layer {
  name: "conv5"
  type: "Convolution"
  bottom: "conv4"
  top: "conv5"
  convolution_param {
    num_output: 260
    kernel_size: 2
    weight_filler {
      type: "xavier"
    }
  }
}
layer {
  name: "pool3"
  type: "Pooling"
  bottom: "conv5"
  top: "pool3"
  pooling_param {
    pool: MAX
    kernel_size: 2
    stride: 2
  }
}
layer {
  name: "drop3"
  type: "Dropout"
  bottom: "pool3"
  top: "drop3"
  dropout_param {
    dropout_ratio: 0.2
  }
}
layer {
  name: "relu3"
  type: "ReLU"
  bottom: "drop3"
  top: "relu3"
}
layer {
  name: "conv6"
  type: "Convolution"
  bottom: "relu3"
  top: "conv6"
  convolution_param {
    num_output: 260
    kernel_size: 1
    weight_filler {
      type: "xavier"
    }
  }
}
layer {
  name: "conv7"
  type: "Convolution"
  bottom: "conv6"
  top: "conv7"
  convolution_param {
    num_output: 280
    kernel_size: 2
    weight_filler {
      type: "xavier"
    }
  }
}
layer {
  name: "pool4"
  type: "Pooling"
  bottom: "conv7"
  top: "pool4"
  pooling_param {
    pool: MAX
    kernel_size: 2
    stride: 2
  }
}
layer {
  name: "drop4"
  type: "Dropout"
  bottom: "pool4"
  top: "drop4"
  dropout_param {
    dropout_ratio: 0.3
  }
}
layer {
  name: "relu4"
  type: "ReLU"
  bottom: "drop4"
  top: "relu4"
}
layer {
  name: "conv8"
  type: "Convolution"
  bottom: "relu4"
  top: "conv8"
  convolution_param {
    num_output: 280
    kernel_size: 1
    weight_filler {
      type: "xavier"
    }
  }
}
layer {
  name: "pool5"
  type: "Pooling"
  bottom: "conv8"
  top: "pool5"
  pooling_param {
    pool: MAX
    kernel_size: 2
    stride: 2
  }
}
layer {
  name: "drop5"
  type: "Dropout"
  bottom: "pool5"
  top: "drop5"
  dropout_param {
    dropout_ratio: 0.4
  }
}
layer {
  name: "relu5"
  type: "ReLU"
  bottom: "drop5"
  top: "relu5"
}
layer {
  name: "conv10"
  type: "Convolution"
  bottom: "relu5"
  top: "conv10"
  convolution_param {
    num_output: 300
    kernel_size: 1
    weight_filler {
      type: "xavier"
    }
  }
}
layer {
  name: "pool6"
  type: "Pooling"
  bottom: "conv10"
  top: "pool6"
  pooling_param {
    pool: MAX
    kernel_size: 2
    stride: 2
  }
}
layer {
  name: "drop6"
  type: "Dropout"
  bottom: "pool6"
  top: "drop6"
  dropout_param {
    dropout_ratio: 0.5
  }
}
layer {
  name: "relu6"
  type: "ReLU"
  bottom: "drop6"
  top: "relu6"
}
layer {
  name: "conv11"
  type: "Convolution"
  bottom: "relu6"
  top: "conv11"
  convolution_param {
    num_output: 100
    kernel_size: 1
    weight_filler {
      type: "xavier"
    }
  }
}
layer {
  name: "pool7"
  type: "Pooling"
  bottom: "conv11"
  top: "pool7"
  pooling_param {
    pool: MAX
    kernel_size: 2
    stride: 2
  }
}
layer {
  name: "drop7"
  type: "Dropout"
  bottom: "pool7"
  top: "drop7"
  dropout_param {
    dropout_ratio: 0
  }
}
layer {
  name: "relu7"
  type: "ReLU"
  bottom: "drop7"
  top: "relu7"
}
layer {
  name: "pool"
  type: "Pooling"
  bottom: "relu7"
  top: "pool"
  pooling_param {
    pool: AVE
    global_pooling: true
  }
}
layer {
  name: "flatten"
  type: "Flatten"
  bottom: "pool"
  top: "flatten"
}
layer {
  name: "score"
  type: "InnerProduct"
  bottom: "flatten"
  top: "score"
  inner_product_param {
    num_output: 10
    weight_filler {
      type: "gaussian"
    }
  }
}
layer {
  name: "accuracy"
  type: "Accuracy"
  bottom: "score"
  bottom: "label"
  top: "accuracy"
}
layer {
  name: "loss"
  type: "SoftmaxWithLoss"
  bottom: "score"
  bottom: "label"
  top: "loss"
}
I1018 20:22:28.675434  5818 layer_factory.hpp:77] Creating layer data
I1018 20:22:28.675828  5818 net.cpp:100] Creating Layer data
I1018 20:22:28.675835  5818 net.cpp:408] data -> data
I1018 20:22:28.675849  5818 net.cpp:408] data -> label
I1018 20:22:28.676488  5824 db_lmdb.cpp:35] Opened lmdb ../../../../data/mnist/mnist_train_lmdb
I1018 20:22:28.682019  5818 data_layer.cpp:41] output data size: 64,1,28,28
I1018 20:22:28.682593  5818 net.cpp:150] Setting up data
I1018 20:22:28.682605  5818 net.cpp:157] Top shape: 64 1 28 28 (50176)
I1018 20:22:28.682607  5818 net.cpp:157] Top shape: 64 (64)
I1018 20:22:28.682610  5818 net.cpp:165] Memory required for data: 200960
I1018 20:22:28.682616  5818 layer_factory.hpp:77] Creating layer label_data_1_split
I1018 20:22:28.682627  5818 net.cpp:100] Creating Layer label_data_1_split
I1018 20:22:28.682631  5818 net.cpp:434] label_data_1_split <- label
I1018 20:22:28.682642  5818 net.cpp:408] label_data_1_split -> label_data_1_split_0
I1018 20:22:28.682653  5818 net.cpp:408] label_data_1_split -> label_data_1_split_1
I1018 20:22:28.682679  5818 net.cpp:150] Setting up label_data_1_split
I1018 20:22:28.682683  5818 net.cpp:157] Top shape: 64 (64)
I1018 20:22:28.682685  5818 net.cpp:157] Top shape: 64 (64)
I1018 20:22:28.682687  5818 net.cpp:165] Memory required for data: 201472
I1018 20:22:28.682688  5818 layer_factory.hpp:77] Creating layer conv1
I1018 20:22:28.682701  5818 net.cpp:100] Creating Layer conv1
I1018 20:22:28.682704  5818 net.cpp:434] conv1 <- data
I1018 20:22:28.682711  5818 net.cpp:408] conv1 -> conv1
I1018 20:22:28.802095  5818 net.cpp:150] Setting up conv1
I1018 20:22:28.802119  5818 net.cpp:157] Top shape: 64 192 24 24 (7077888)
I1018 20:22:28.802122  5818 net.cpp:165] Memory required for data: 28513024
I1018 20:22:28.802140  5818 layer_factory.hpp:77] Creating layer pool1
I1018 20:22:28.802148  5818 net.cpp:100] Creating Layer pool1
I1018 20:22:28.802151  5818 net.cpp:434] pool1 <- conv1
I1018 20:22:28.802155  5818 net.cpp:408] pool1 -> pool1
I1018 20:22:28.802197  5818 net.cpp:150] Setting up pool1
I1018 20:22:28.802202  5818 net.cpp:157] Top shape: 64 192 12 12 (1769472)
I1018 20:22:28.802217  5818 net.cpp:165] Memory required for data: 35590912
I1018 20:22:28.802218  5818 layer_factory.hpp:77] Creating layer drop1
I1018 20:22:28.802225  5818 net.cpp:100] Creating Layer drop1
I1018 20:22:28.802227  5818 net.cpp:434] drop1 <- pool1
I1018 20:22:28.802230  5818 net.cpp:408] drop1 -> drop1
I1018 20:22:28.802256  5818 net.cpp:150] Setting up drop1
I1018 20:22:28.802260  5818 net.cpp:157] Top shape: 64 192 12 12 (1769472)
I1018 20:22:28.802263  5818 net.cpp:165] Memory required for data: 42668800
I1018 20:22:28.802264  5818 layer_factory.hpp:77] Creating layer relu1
I1018 20:22:28.802268  5818 net.cpp:100] Creating Layer relu1
I1018 20:22:28.802268  5818 net.cpp:434] relu1 <- drop1
I1018 20:22:28.802271  5818 net.cpp:408] relu1 -> relu1
I1018 20:22:28.802400  5818 net.cpp:150] Setting up relu1
I1018 20:22:28.802407  5818 net.cpp:157] Top shape: 64 192 12 12 (1769472)
I1018 20:22:28.802408  5818 net.cpp:165] Memory required for data: 49746688
I1018 20:22:28.802409  5818 layer_factory.hpp:77] Creating layer conv2
I1018 20:22:28.802417  5818 net.cpp:100] Creating Layer conv2
I1018 20:22:28.802417  5818 net.cpp:434] conv2 <- relu1
I1018 20:22:28.802423  5818 net.cpp:408] conv2 -> conv2
I1018 20:22:28.803246  5818 net.cpp:150] Setting up conv2
I1018 20:22:28.803254  5818 net.cpp:157] Top shape: 64 192 12 12 (1769472)
I1018 20:22:28.803258  5818 net.cpp:165] Memory required for data: 56824576
I1018 20:22:28.803267  5818 layer_factory.hpp:77] Creating layer conv3
I1018 20:22:28.803274  5818 net.cpp:100] Creating Layer conv3
I1018 20:22:28.803278  5818 net.cpp:434] conv3 <- conv2
I1018 20:22:28.803284  5818 net.cpp:408] conv3 -> conv3
I1018 20:22:28.805722  5818 net.cpp:150] Setting up conv3
I1018 20:22:28.805732  5818 net.cpp:157] Top shape: 64 240 10 10 (1536000)
I1018 20:22:28.805735  5818 net.cpp:165] Memory required for data: 62968576
I1018 20:22:28.805742  5818 layer_factory.hpp:77] Creating layer pool2
I1018 20:22:28.805750  5818 net.cpp:100] Creating Layer pool2
I1018 20:22:28.805753  5818 net.cpp:434] pool2 <- conv3
I1018 20:22:28.805759  5818 net.cpp:408] pool2 -> pool2
I1018 20:22:28.805785  5818 net.cpp:150] Setting up pool2
I1018 20:22:28.805790  5818 net.cpp:157] Top shape: 64 240 5 5 (384000)
I1018 20:22:28.805794  5818 net.cpp:165] Memory required for data: 64504576
I1018 20:22:28.805797  5818 layer_factory.hpp:77] Creating layer drop2
I1018 20:22:28.805804  5818 net.cpp:100] Creating Layer drop2
I1018 20:22:28.805806  5818 net.cpp:434] drop2 <- pool2
I1018 20:22:28.805809  5818 net.cpp:408] drop2 -> drop2
I1018 20:22:28.805833  5818 net.cpp:150] Setting up drop2
I1018 20:22:28.805837  5818 net.cpp:157] Top shape: 64 240 5 5 (384000)
I1018 20:22:28.805840  5818 net.cpp:165] Memory required for data: 66040576
I1018 20:22:28.805841  5818 layer_factory.hpp:77] Creating layer relu2
I1018 20:22:28.805845  5818 net.cpp:100] Creating Layer relu2
I1018 20:22:28.805847  5818 net.cpp:434] relu2 <- drop2
I1018 20:22:28.805850  5818 net.cpp:408] relu2 -> relu2
I1018 20:22:28.805960  5818 net.cpp:150] Setting up relu2
I1018 20:22:28.805965  5818 net.cpp:157] Top shape: 64 240 5 5 (384000)
I1018 20:22:28.805968  5818 net.cpp:165] Memory required for data: 67576576
I1018 20:22:28.805970  5818 layer_factory.hpp:77] Creating layer conv4
I1018 20:22:28.805975  5818 net.cpp:100] Creating Layer conv4
I1018 20:22:28.805979  5818 net.cpp:434] conv4 <- relu2
I1018 20:22:28.805982  5818 net.cpp:408] conv4 -> conv4
I1018 20:22:28.806807  5818 net.cpp:150] Setting up conv4
I1018 20:22:28.806815  5818 net.cpp:157] Top shape: 64 240 5 5 (384000)
I1018 20:22:28.806818  5818 net.cpp:165] Memory required for data: 69112576
I1018 20:22:28.806823  5818 layer_factory.hpp:77] Creating layer conv5
I1018 20:22:28.806828  5818 net.cpp:100] Creating Layer conv5
I1018 20:22:28.806829  5818 net.cpp:434] conv5 <- conv4
I1018 20:22:28.806834  5818 net.cpp:408] conv5 -> conv5
I1018 20:22:28.808583  5818 net.cpp:150] Setting up conv5
I1018 20:22:28.808591  5818 net.cpp:157] Top shape: 64 260 4 4 (266240)
I1018 20:22:28.808603  5818 net.cpp:165] Memory required for data: 70177536
I1018 20:22:28.808609  5818 layer_factory.hpp:77] Creating layer pool3
I1018 20:22:28.808614  5818 net.cpp:100] Creating Layer pool3
I1018 20:22:28.808615  5818 net.cpp:434] pool3 <- conv5
I1018 20:22:28.808619  5818 net.cpp:408] pool3 -> pool3
I1018 20:22:28.808643  5818 net.cpp:150] Setting up pool3
I1018 20:22:28.808647  5818 net.cpp:157] Top shape: 64 260 2 2 (66560)
I1018 20:22:28.808650  5818 net.cpp:165] Memory required for data: 70443776
I1018 20:22:28.808651  5818 layer_factory.hpp:77] Creating layer drop3
I1018 20:22:28.808655  5818 net.cpp:100] Creating Layer drop3
I1018 20:22:28.808656  5818 net.cpp:434] drop3 <- pool3
I1018 20:22:28.808660  5818 net.cpp:408] drop3 -> drop3
I1018 20:22:28.808681  5818 net.cpp:150] Setting up drop3
I1018 20:22:28.808684  5818 net.cpp:157] Top shape: 64 260 2 2 (66560)
I1018 20:22:28.808686  5818 net.cpp:165] Memory required for data: 70710016
I1018 20:22:28.808687  5818 layer_factory.hpp:77] Creating layer relu3
I1018 20:22:28.808689  5818 net.cpp:100] Creating Layer relu3
I1018 20:22:28.808691  5818 net.cpp:434] relu3 <- drop3
I1018 20:22:28.808696  5818 net.cpp:408] relu3 -> relu3
I1018 20:22:28.808809  5818 net.cpp:150] Setting up relu3
I1018 20:22:28.808815  5818 net.cpp:157] Top shape: 64 260 2 2 (66560)
I1018 20:22:28.808817  5818 net.cpp:165] Memory required for data: 70976256
I1018 20:22:28.808818  5818 layer_factory.hpp:77] Creating layer conv6
I1018 20:22:28.808825  5818 net.cpp:100] Creating Layer conv6
I1018 20:22:28.808827  5818 net.cpp:434] conv6 <- relu3
I1018 20:22:28.808830  5818 net.cpp:408] conv6 -> conv6
I1018 20:22:28.809936  5818 net.cpp:150] Setting up conv6
I1018 20:22:28.809943  5818 net.cpp:157] Top shape: 64 260 2 2 (66560)
I1018 20:22:28.809945  5818 net.cpp:165] Memory required for data: 71242496
I1018 20:22:28.809949  5818 layer_factory.hpp:77] Creating layer conv7
I1018 20:22:28.809954  5818 net.cpp:100] Creating Layer conv7
I1018 20:22:28.809957  5818 net.cpp:434] conv7 <- conv6
I1018 20:22:28.809960  5818 net.cpp:408] conv7 -> conv7
I1018 20:22:28.811878  5818 net.cpp:150] Setting up conv7
I1018 20:22:28.811887  5818 net.cpp:157] Top shape: 64 280 1 1 (17920)
I1018 20:22:28.811889  5818 net.cpp:165] Memory required for data: 71314176
I1018 20:22:28.811892  5818 layer_factory.hpp:77] Creating layer pool4
I1018 20:22:28.811897  5818 net.cpp:100] Creating Layer pool4
I1018 20:22:28.811898  5818 net.cpp:434] pool4 <- conv7
I1018 20:22:28.811902  5818 net.cpp:408] pool4 -> pool4
I1018 20:22:28.811925  5818 net.cpp:150] Setting up pool4
I1018 20:22:28.811929  5818 net.cpp:157] Top shape: 64 280 1 1 (17920)
I1018 20:22:28.811931  5818 net.cpp:165] Memory required for data: 71385856
I1018 20:22:28.811933  5818 layer_factory.hpp:77] Creating layer drop4
I1018 20:22:28.811935  5818 net.cpp:100] Creating Layer drop4
I1018 20:22:28.811938  5818 net.cpp:434] drop4 <- pool4
I1018 20:22:28.811941  5818 net.cpp:408] drop4 -> drop4
I1018 20:22:28.811962  5818 net.cpp:150] Setting up drop4
I1018 20:22:28.811966  5818 net.cpp:157] Top shape: 64 280 1 1 (17920)
I1018 20:22:28.811969  5818 net.cpp:165] Memory required for data: 71457536
I1018 20:22:28.811969  5818 layer_factory.hpp:77] Creating layer relu4
I1018 20:22:28.811972  5818 net.cpp:100] Creating Layer relu4
I1018 20:22:28.811975  5818 net.cpp:434] relu4 <- drop4
I1018 20:22:28.811977  5818 net.cpp:408] relu4 -> relu4
I1018 20:22:28.812165  5818 net.cpp:150] Setting up relu4
I1018 20:22:28.812172  5818 net.cpp:157] Top shape: 64 280 1 1 (17920)
I1018 20:22:28.812173  5818 net.cpp:165] Memory required for data: 71529216
I1018 20:22:28.812176  5818 layer_factory.hpp:77] Creating layer conv8
I1018 20:22:28.812181  5818 net.cpp:100] Creating Layer conv8
I1018 20:22:28.812183  5818 net.cpp:434] conv8 <- relu4
I1018 20:22:28.812186  5818 net.cpp:408] conv8 -> conv8
I1018 20:22:28.813021  5818 net.cpp:150] Setting up conv8
I1018 20:22:28.813030  5818 net.cpp:157] Top shape: 64 280 1 1 (17920)
I1018 20:22:28.813031  5818 net.cpp:165] Memory required for data: 71600896
I1018 20:22:28.813043  5818 layer_factory.hpp:77] Creating layer pool5
I1018 20:22:28.813047  5818 net.cpp:100] Creating Layer pool5
I1018 20:22:28.813050  5818 net.cpp:434] pool5 <- conv8
I1018 20:22:28.813052  5818 net.cpp:408] pool5 -> pool5
I1018 20:22:28.813076  5818 net.cpp:150] Setting up pool5
I1018 20:22:28.813081  5818 net.cpp:157] Top shape: 64 280 1 1 (17920)
I1018 20:22:28.813082  5818 net.cpp:165] Memory required for data: 71672576
I1018 20:22:28.813084  5818 layer_factory.hpp:77] Creating layer drop5
I1018 20:22:28.813087  5818 net.cpp:100] Creating Layer drop5
I1018 20:22:28.813089  5818 net.cpp:434] drop5 <- pool5
I1018 20:22:28.813092  5818 net.cpp:408] drop5 -> drop5
I1018 20:22:28.813115  5818 net.cpp:150] Setting up drop5
I1018 20:22:28.813119  5818 net.cpp:157] Top shape: 64 280 1 1 (17920)
I1018 20:22:28.813122  5818 net.cpp:165] Memory required for data: 71744256
I1018 20:22:28.813123  5818 layer_factory.hpp:77] Creating layer relu5
I1018 20:22:28.813127  5818 net.cpp:100] Creating Layer relu5
I1018 20:22:28.813127  5818 net.cpp:434] relu5 <- drop5
I1018 20:22:28.813132  5818 net.cpp:408] relu5 -> relu5
I1018 20:22:28.813395  5818 net.cpp:150] Setting up relu5
I1018 20:22:28.813402  5818 net.cpp:157] Top shape: 64 280 1 1 (17920)
I1018 20:22:28.813405  5818 net.cpp:165] Memory required for data: 71815936
I1018 20:22:28.813406  5818 layer_factory.hpp:77] Creating layer conv10
I1018 20:22:28.813411  5818 net.cpp:100] Creating Layer conv10
I1018 20:22:28.813415  5818 net.cpp:434] conv10 <- relu5
I1018 20:22:28.813417  5818 net.cpp:408] conv10 -> conv10
I1018 20:22:28.814353  5818 net.cpp:150] Setting up conv10
I1018 20:22:28.814363  5818 net.cpp:157] Top shape: 64 300 1 1 (19200)
I1018 20:22:28.814364  5818 net.cpp:165] Memory required for data: 71892736
I1018 20:22:28.814370  5818 layer_factory.hpp:77] Creating layer pool6
I1018 20:22:28.814374  5818 net.cpp:100] Creating Layer pool6
I1018 20:22:28.814376  5818 net.cpp:434] pool6 <- conv10
I1018 20:22:28.814379  5818 net.cpp:408] pool6 -> pool6
I1018 20:22:28.814404  5818 net.cpp:150] Setting up pool6
I1018 20:22:28.814409  5818 net.cpp:157] Top shape: 64 300 1 1 (19200)
I1018 20:22:28.814410  5818 net.cpp:165] Memory required for data: 71969536
I1018 20:22:28.814412  5818 layer_factory.hpp:77] Creating layer drop6
I1018 20:22:28.814414  5818 net.cpp:100] Creating Layer drop6
I1018 20:22:28.814416  5818 net.cpp:434] drop6 <- pool6
I1018 20:22:28.814420  5818 net.cpp:408] drop6 -> drop6
I1018 20:22:28.814441  5818 net.cpp:150] Setting up drop6
I1018 20:22:28.814445  5818 net.cpp:157] Top shape: 64 300 1 1 (19200)
I1018 20:22:28.814447  5818 net.cpp:165] Memory required for data: 72046336
I1018 20:22:28.814450  5818 layer_factory.hpp:77] Creating layer relu6
I1018 20:22:28.814452  5818 net.cpp:100] Creating Layer relu6
I1018 20:22:28.814455  5818 net.cpp:434] relu6 <- drop6
I1018 20:22:28.814457  5818 net.cpp:408] relu6 -> relu6
I1018 20:22:28.814568  5818 net.cpp:150] Setting up relu6
I1018 20:22:28.814574  5818 net.cpp:157] Top shape: 64 300 1 1 (19200)
I1018 20:22:28.814576  5818 net.cpp:165] Memory required for data: 72123136
I1018 20:22:28.814579  5818 layer_factory.hpp:77] Creating layer conv11
I1018 20:22:28.814584  5818 net.cpp:100] Creating Layer conv11
I1018 20:22:28.814586  5818 net.cpp:434] conv11 <- relu6
I1018 20:22:28.814589  5818 net.cpp:408] conv11 -> conv11
I1018 20:22:28.815577  5818 net.cpp:150] Setting up conv11
I1018 20:22:28.815585  5818 net.cpp:157] Top shape: 64 100 1 1 (6400)
I1018 20:22:28.815588  5818 net.cpp:165] Memory required for data: 72148736
I1018 20:22:28.815592  5818 layer_factory.hpp:77] Creating layer pool7
I1018 20:22:28.815596  5818 net.cpp:100] Creating Layer pool7
I1018 20:22:28.815599  5818 net.cpp:434] pool7 <- conv11
I1018 20:22:28.815603  5818 net.cpp:408] pool7 -> pool7
I1018 20:22:28.815629  5818 net.cpp:150] Setting up pool7
I1018 20:22:28.815634  5818 net.cpp:157] Top shape: 64 100 1 1 (6400)
I1018 20:22:28.815637  5818 net.cpp:165] Memory required for data: 72174336
I1018 20:22:28.815646  5818 layer_factory.hpp:77] Creating layer drop7
I1018 20:22:28.815650  5818 net.cpp:100] Creating Layer drop7
I1018 20:22:28.815651  5818 net.cpp:434] drop7 <- pool7
I1018 20:22:28.815654  5818 net.cpp:408] drop7 -> drop7
I1018 20:22:28.815677  5818 net.cpp:150] Setting up drop7
I1018 20:22:28.815681  5818 net.cpp:157] Top shape: 64 100 1 1 (6400)
I1018 20:22:28.815685  5818 net.cpp:165] Memory required for data: 72199936
I1018 20:22:28.815685  5818 layer_factory.hpp:77] Creating layer relu7
I1018 20:22:28.815692  5818 net.cpp:100] Creating Layer relu7
I1018 20:22:28.815696  5818 net.cpp:434] relu7 <- drop7
I1018 20:22:28.815697  5818 net.cpp:408] relu7 -> relu7
I1018 20:22:28.815891  5818 net.cpp:150] Setting up relu7
I1018 20:22:28.815899  5818 net.cpp:157] Top shape: 64 100 1 1 (6400)
I1018 20:22:28.815902  5818 net.cpp:165] Memory required for data: 72225536
I1018 20:22:28.815907  5818 layer_factory.hpp:77] Creating layer pool
I1018 20:22:28.815912  5818 net.cpp:100] Creating Layer pool
I1018 20:22:28.815917  5818 net.cpp:434] pool <- relu7
I1018 20:22:28.815922  5818 net.cpp:408] pool -> pool
I1018 20:22:28.816046  5818 net.cpp:150] Setting up pool
I1018 20:22:28.816051  5818 net.cpp:157] Top shape: 64 100 1 1 (6400)
I1018 20:22:28.816054  5818 net.cpp:165] Memory required for data: 72251136
I1018 20:22:28.816056  5818 layer_factory.hpp:77] Creating layer flatten
I1018 20:22:28.816059  5818 net.cpp:100] Creating Layer flatten
I1018 20:22:28.816062  5818 net.cpp:434] flatten <- pool
I1018 20:22:28.816066  5818 net.cpp:408] flatten -> flatten
I1018 20:22:28.816083  5818 net.cpp:150] Setting up flatten
I1018 20:22:28.816087  5818 net.cpp:157] Top shape: 64 100 (6400)
I1018 20:22:28.816088  5818 net.cpp:165] Memory required for data: 72276736
I1018 20:22:28.816090  5818 layer_factory.hpp:77] Creating layer score
I1018 20:22:28.816094  5818 net.cpp:100] Creating Layer score
I1018 20:22:28.816097  5818 net.cpp:434] score <- flatten
I1018 20:22:28.816100  5818 net.cpp:408] score -> score
I1018 20:22:28.816193  5818 net.cpp:150] Setting up score
I1018 20:22:28.816197  5818 net.cpp:157] Top shape: 64 10 (640)
I1018 20:22:28.816200  5818 net.cpp:165] Memory required for data: 72279296
I1018 20:22:28.816202  5818 layer_factory.hpp:77] Creating layer score_score_0_split
I1018 20:22:28.816207  5818 net.cpp:100] Creating Layer score_score_0_split
I1018 20:22:28.816210  5818 net.cpp:434] score_score_0_split <- score
I1018 20:22:28.816212  5818 net.cpp:408] score_score_0_split -> score_score_0_split_0
I1018 20:22:28.816216  5818 net.cpp:408] score_score_0_split -> score_score_0_split_1
I1018 20:22:28.816239  5818 net.cpp:150] Setting up score_score_0_split
I1018 20:22:28.816243  5818 net.cpp:157] Top shape: 64 10 (640)
I1018 20:22:28.816246  5818 net.cpp:157] Top shape: 64 10 (640)
I1018 20:22:28.816246  5818 net.cpp:165] Memory required for data: 72284416
I1018 20:22:28.816248  5818 layer_factory.hpp:77] Creating layer accuracy
I1018 20:22:28.816252  5818 net.cpp:100] Creating Layer accuracy
I1018 20:22:28.816254  5818 net.cpp:434] accuracy <- score_score_0_split_0
I1018 20:22:28.816256  5818 net.cpp:434] accuracy <- label_data_1_split_0
I1018 20:22:28.816260  5818 net.cpp:408] accuracy -> accuracy
…
I1018 20:22:28.816663  5818 net.cpp:283] Network initialization done.
I1018 20:22:28.816845  5818 solver.cpp:181] Creating test net (#0) specified by test_net file: /home/adam/Honours/Honours-Project/mnist_pooling/max/relu/poolcnn_relu_test.prototxt
I1018 20:22:28.816962  5818 net.cpp:58] Initializing net from parameters: 
state {
  phase: TEST
}
layer {
  name: "data"
  type: "Data"
  top: "data"
  top: "label"
  transform_param {
    scale: 0.0039215689
  }
  data_param {
    source: "../../../../data/mnist/mnist_test_lmdb"
    batch_size: 100
    backend: LMDB
  }
}
layer {
  name: "conv1"
  type: "Convolution"
  bottom: "data"
  top: "conv1"
  convolution_param {
    num_output: 192
    kernel_size: 5
    weight_filler {
      type: "xavier"
    }
  }
}
layer {
  name: "pool1"
  type: "Pooling"
  bottom: "conv1"
  top: "pool1"
  pooling_param {
    pool: MAX
    kernel_size: 2
    stride: 2
  }
}
layer {
  name: "drop1"
  type: "Dropout"
  bottom: "pool1"
  top: "drop1"
  dropout_param {
    dropout_ratio: 0
  }
}
layer {
  name: "relu1"
  type: "ReLU"
  bottom: "drop1"
  top: "relu1"
}
layer {
  name: "conv2"
  type: "Convolution"
  bottom: "relu1"
  top: "conv2"
  convolution_param {
    num_output: 192
    kernel_size: 1
    weight_filler {
      type: "xavier"
    }
  }
}
layer {
  name: "conv3"
  type: "Convolution"
  bottom: "conv2"
  top: "conv3"
  convolution_param {
    num_output: 240
    kernel_size: 3
    weight_filler {
      type: "xavier"
    }
  }
}
layer {
  name: "pool2"
  type: "Pooling"
  bottom: "conv3"
  top: "pool2"
  pooling_param {
    pool: MAX
    kernel_size: 2
    stride: 2
  }
}
layer {
  name: "drop2"
  type: "Dropout"
  bottom: "pool2"
  top: "drop2"
  dropout_param {
    dropout_ratio: 0.1
  }
}
layer {
  name: "relu2"
  type: "ReLU"
  bottom: "drop2"
  top: "relu2"
}
layer {
  name: "conv4"
  type: "Convolution"
  bottom: "relu2"
  top: "conv4"
  convolution_param {
    num_output: 240
    kernel_size: 1
    weight_filler {
      type: "xavier"
    }
  }
}
layer {
  name: "conv5"
  type: "Convolution"
  bottom: "conv4"
  top: "conv5"
  convolution_param {
    num_output: 260
    kernel_size: 2
    weight_filler {
      type: "xavier"
    }
  }
}
layer {
  name: "pool3"
  type: "Pooling"
  bottom: "conv5"
  top: "pool3"
  pooling_param {
    pool: MAX
    kernel_size: 2
    stride: 2
  }
}
layer {
  name: "drop3"
  type: "Dropout"
  bottom: "pool3"
  top: "drop3"
  dropout_param {
    dropout_ratio: 0.2
  }
}
layer {
  name: "relu3"
  type: "ReLU"
  bottom: "drop3"
  top: "relu3"
}
layer {
  name: "conv6"
  type: "Convolution"
  bottom: "relu3"
  top: "conv6"
  convolution_param {
    num_output: 260
    kernel_size: 1
    weight_filler {
      type: "xavier"
    }
  }
}
layer {
  name: "conv7"
  type: "Convolution"
  bottom: "conv6"
  top: "conv7"
  convolution_param {
    num_output: 280
    kernel_size: 2
    weight_filler {
      type: "xavier"
    }
  }
}
layer {
  name: "pool4"
  type: "Pooling"
  bottom: "conv7"
  top: "pool4"
  pooling_param {
    pool: MAX
    kernel_size: 2
    stride: 2
  }
}
layer {
  name: "drop4"
  type: "Dropout"
  bottom: "pool4"
  top: "drop4"
  dropout_param {
    dropout_ratio: 0.3
  }
}
layer {
  name: "relu4"
  type: "ReLU"
  bottom: "drop4"
  top: "relu4"
}
layer {
  name: "conv8"
  type: "Convolution"
  bottom: "relu4"
  top: "conv8"
  convolution_param {
    num_output: 280
    kernel_size: 1
    weight_filler {
      type: "xavier"
    }
  }
}
layer {
  name: "pool5"
  type: "Pooling"
  bottom: "conv8"
  top: "pool5"
  pooling_param {
    pool: MAX
    kernel_size: 2
    stride: 2
  }
}
layer {
  name: "drop5"
  type: "Dropout"
  bottom: "pool5"
  top: "drop5"
  dropout_param {
    dropout_ratio: 0.4
  }
}
layer {
  name: "relu5"
  type: "ReLU"
  bottom: "drop5"
  top: "relu5"
}
layer {
  name: "conv10"
  type: "Convolution"
  bottom: "relu5"
  top: "conv10"
  convolution_param {
    num_output: 300
    kernel_size: 1
    weight_filler {
      type: "xavier"
    }
  }
}
layer {
  name: "pool6"
  type: "Pooling"
  bottom: "conv10"
  top: "pool6"
  pooling_param {
    pool: MAX
    kernel_size: 2
    stride: 2
  }
}
layer {
  name: "drop6"
  type: "Dropout"
  bottom: "pool6"
  top: "drop6"
  dropout_param {
    dropout_ratio: 0.5
  }
}
layer {
  name: "relu6"
  type: "ReLU"
  bottom: "drop6"
  top: "relu6"
}
layer {
  name: "conv11"
  type: "Convolution"
  bottom: "relu6"
  top: "conv11"
  convolution_param {
    num_output: 100
    kernel_size: 1
    weight_filler {
      type: "xavier"
    }
  }
}
layer {
  name: "pool7"
  type: "Pooling"
  bottom: "conv11"
  top: "pool7"
  pooling_param {
    pool: MAX
    kernel_size: 2
    stride: 2
  }
}
layer {
  name: "drop7"
  type: "Dropout"
  bottom: "pool7"
  top: "drop7"
  dropout_param {
    dropout_ratio: 0
  }
}
layer {
  name: "relu7"
  type: "ReLU"
  bottom: "drop7"
  top: "relu7"
}
layer {
  name: "pool"
  type: "Pooling"
  bottom: "relu7"
  top: "pool"
  pooling_param {
    pool: AVE
    global_pooling: true
  }
}
layer {
  name: "flatten"
  type: "Flatten"
  bottom: "pool"
  top: "flatten"
}
layer {
  name: "score"
  type: "InnerProduct"
  bottom: "flatten"
  top: "score"
  inner_product_param {
    num_output: 10
    weight_filler {
      type: "gaussian"
    }
  }
}
layer {
  name: "accuracy"
  type: "Accuracy"
  bottom: "score"
  bottom: "label"
  top: "accuracy"
}
layer {
  name: "loss"
  type: "SoftmaxWithLoss"
  bottom: "score"
  bottom: "label"
  top: "loss"
}
I1018 20:22:28.817059  5818 layer_factory.hpp:77] Creating layer data
I1018 20:22:28.817139  5818 net.cpp:100] Creating Layer data
I1018 20:22:28.817145  5818 net.cpp:408] data -> data
I1018 20:22:28.817158  5818 net.cpp:408] data -> label
I1018 20:22:28.817718  5826 db_lmdb.cpp:35] Opened lmdb ../../../../data/mnist/mnist_test_lmdb
I1018 20:22:28.817792  5818 data_layer.cpp:41] output data size: 100,1,28,28
I1018 20:22:28.818411  5818 net.cpp:150] Setting up data
I1018 20:22:28.818419  5818 net.cpp:157] Top shape: 100 1 28 28 (78400)
I1018 20:22:28.818424  5818 net.cpp:157] Top shape: 100 (100)
I1018 20:22:28.818428  5818 net.cpp:165] Memory required for data: 314000
I1018 20:22:28.818433  5818 layer_factory.hpp:77] Creating layer label_data_1_split
I1018 20:22:28.818439  5818 net.cpp:100] Creating Layer label_data_1_split
I1018 20:22:28.818442  5818 net.cpp:434] label_data_1_split <- label
I1018 20:22:28.818446  5818 net.cpp:408] label_data_1_split -> label_data_1_split_0
I1018 20:22:28.818454  5818 net.cpp:408] label_data_1_split -> label_data_1_split_1
I1018 20:22:28.818495  5818 net.cpp:150] Setting up label_data_1_split
I1018 20:22:28.818500  5818 net.cpp:157] Top shape: 100 (100)
I1018 20:22:28.818503  5818 net.cpp:157] Top shape: 100 (100)
I1018 20:22:28.818507  5818 net.cpp:165] Memory required for data: 314800
I1018 20:22:28.818509  5818 layer_factory.hpp:77] Creating layer conv1
I1018 20:22:28.818517  5818 net.cpp:100] Creating Layer conv1
I1018 20:22:28.818521  5818 net.cpp:434] conv1 <- data
I1018 20:22:28.818526  5818 net.cpp:408] conv1 -> conv1
I1018 20:22:28.819216  5818 net.cpp:150] Setting up conv1
I1018 20:22:28.819224  5818 net.cpp:157] Top shape: 100 192 24 24 (11059200)
I1018 20:22:28.819226  5818 net.cpp:165] Memory required for data: 44551600
I1018 20:22:28.819236  5818 layer_factory.hpp:77] Creating layer pool1
I1018 20:22:28.819241  5818 net.cpp:100] Creating Layer pool1
I1018 20:22:28.819242  5818 net.cpp:434] pool1 <- conv1
I1018 20:22:28.819245  5818 net.cpp:408] pool1 -> pool1
I1018 20:22:28.819273  5818 net.cpp:150] Setting up pool1
I1018 20:22:28.819278  5818 net.cpp:157] Top shape: 100 192 12 12 (2764800)
I1018 20:22:28.819280  5818 net.cpp:165] Memory required for data: 55610800
I1018 20:22:28.819283  5818 layer_factory.hpp:77] Creating layer drop1
I1018 20:22:28.819288  5818 net.cpp:100] Creating Layer drop1
I1018 20:22:28.819291  5818 net.cpp:434] drop1 <- pool1
I1018 20:22:28.819293  5818 net.cpp:408] drop1 -> drop1
I1018 20:22:28.819320  5818 net.cpp:150] Setting up drop1
I1018 20:22:28.819325  5818 net.cpp:157] Top shape: 100 192 12 12 (2764800)
I1018 20:22:28.819327  5818 net.cpp:165] Memory required for data: 66670000
I1018 20:22:28.819329  5818 layer_factory.hpp:77] Creating layer relu1
I1018 20:22:28.819334  5818 net.cpp:100] Creating Layer relu1
I1018 20:22:28.819339  5818 net.cpp:434] relu1 <- drop1
I1018 20:22:28.819344  5818 net.cpp:408] relu1 -> relu1
I1018 20:22:28.819555  5818 net.cpp:150] Setting up relu1
I1018 20:22:28.819563  5818 net.cpp:157] Top shape: 100 192 12 12 (2764800)
I1018 20:22:28.819567  5818 net.cpp:165] Memory required for data: 77729200
I1018 20:22:28.819569  5818 layer_factory.hpp:77] Creating layer conv2
I1018 20:22:28.819578  5818 net.cpp:100] Creating Layer conv2
I1018 20:22:28.819581  5818 net.cpp:434] conv2 <- relu1
I1018 20:22:28.819584  5818 net.cpp:408] conv2 -> conv2
I1018 20:22:28.820422  5818 net.cpp:150] Setting up conv2
I1018 20:22:28.820430  5818 net.cpp:157] Top shape: 100 192 12 12 (2764800)
I1018 20:22:28.820436  5818 net.cpp:165] Memory required for data: 88788400
I1018 20:22:28.820443  5818 layer_factory.hpp:77] Creating layer conv3
I1018 20:22:28.820456  5818 net.cpp:100] Creating Layer conv3
I1018 20:22:28.820458  5818 net.cpp:434] conv3 <- conv2
I1018 20:22:28.820463  5818 net.cpp:408] conv3 -> conv3
I1018 20:22:28.822923  5818 net.cpp:150] Setting up conv3
I1018 20:22:28.822932  5818 net.cpp:157] Top shape: 100 240 10 10 (2400000)
I1018 20:22:28.822934  5818 net.cpp:165] Memory required for data: 98388400
I1018 20:22:28.822939  5818 layer_factory.hpp:77] Creating layer pool2
I1018 20:22:28.822944  5818 net.cpp:100] Creating Layer pool2
I1018 20:22:28.822947  5818 net.cpp:434] pool2 <- conv3
I1018 20:22:28.822950  5818 net.cpp:408] pool2 -> pool2
I1018 20:22:28.822979  5818 net.cpp:150] Setting up pool2
I1018 20:22:28.822984  5818 net.cpp:157] Top shape: 100 240 5 5 (600000)
I1018 20:22:28.822986  5818 net.cpp:165] Memory required for data: 100788400
I1018 20:22:28.822988  5818 layer_factory.hpp:77] Creating layer drop2
I1018 20:22:28.822993  5818 net.cpp:100] Creating Layer drop2
I1018 20:22:28.822994  5818 net.cpp:434] drop2 <- pool2
I1018 20:22:28.822998  5818 net.cpp:408] drop2 -> drop2
I1018 20:22:28.823020  5818 net.cpp:150] Setting up drop2
I1018 20:22:28.823024  5818 net.cpp:157] Top shape: 100 240 5 5 (600000)
I1018 20:22:28.823026  5818 net.cpp:165] Memory required for data: 103188400
I1018 20:22:28.823029  5818 layer_factory.hpp:77] Creating layer relu2
I1018 20:22:28.823035  5818 net.cpp:100] Creating Layer relu2
I1018 20:22:28.823038  5818 net.cpp:434] relu2 <- drop2
I1018 20:22:28.823042  5818 net.cpp:408] relu2 -> relu2
I1018 20:22:28.823161  5818 net.cpp:150] Setting up relu2
I1018 20:22:28.823168  5818 net.cpp:157] Top shape: 100 240 5 5 (600000)
I1018 20:22:28.823170  5818 net.cpp:165] Memory required for data: 105588400
I1018 20:22:28.823173  5818 layer_factory.hpp:77] Creating layer conv4
I1018 20:22:28.823179  5818 net.cpp:100] Creating Layer conv4
I1018 20:22:28.823182  5818 net.cpp:434] conv4 <- relu2
I1018 20:22:28.823187  5818 net.cpp:408] conv4 -> conv4
I1018 20:22:28.824043  5818 net.cpp:150] Setting up conv4
I1018 20:22:28.824051  5818 net.cpp:157] Top shape: 100 240 5 5 (600000)
I1018 20:22:28.824054  5818 net.cpp:165] Memory required for data: 107988400
I1018 20:22:28.824059  5818 layer_factory.hpp:77] Creating layer conv5
I1018 20:22:28.824065  5818 net.cpp:100] Creating Layer conv5
I1018 20:22:28.824067  5818 net.cpp:434] conv5 <- conv4
I1018 20:22:28.824071  5818 net.cpp:408] conv5 -> conv5
I1018 20:22:28.825863  5818 net.cpp:150] Setting up conv5
I1018 20:22:28.825872  5818 net.cpp:157] Top shape: 100 260 4 4 (416000)
I1018 20:22:28.825876  5818 net.cpp:165] Memory required for data: 109652400
I1018 20:22:28.825886  5818 layer_factory.hpp:77] Creating layer pool3
I1018 20:22:28.825891  5818 net.cpp:100] Creating Layer pool3
I1018 20:22:28.825896  5818 net.cpp:434] pool3 <- conv5
I1018 20:22:28.825899  5818 net.cpp:408] pool3 -> pool3
I1018 20:22:28.825930  5818 net.cpp:150] Setting up pool3
I1018 20:22:28.825934  5818 net.cpp:157] Top shape: 100 260 2 2 (104000)
I1018 20:22:28.825938  5818 net.cpp:165] Memory required for data: 110068400
I1018 20:22:28.825942  5818 layer_factory.hpp:77] Creating layer drop3
I1018 20:22:28.825947  5818 net.cpp:100] Creating Layer drop3
I1018 20:22:28.825950  5818 net.cpp:434] drop3 <- pool3
I1018 20:22:28.825954  5818 net.cpp:408] drop3 -> drop3
I1018 20:22:28.825981  5818 net.cpp:150] Setting up drop3
I1018 20:22:28.825986  5818 net.cpp:157] Top shape: 100 260 2 2 (104000)
I1018 20:22:28.825989  5818 net.cpp:165] Memory required for data: 110484400
I1018 20:22:28.825990  5818 layer_factory.hpp:77] Creating layer relu3
I1018 20:22:28.825994  5818 net.cpp:100] Creating Layer relu3
I1018 20:22:28.825997  5818 net.cpp:434] relu3 <- drop3
I1018 20:22:28.826002  5818 net.cpp:408] relu3 -> relu3
I1018 20:22:28.826122  5818 net.cpp:150] Setting up relu3
I1018 20:22:28.826127  5818 net.cpp:157] Top shape: 100 260 2 2 (104000)
I1018 20:22:28.826129  5818 net.cpp:165] Memory required for data: 110900400
I1018 20:22:28.826131  5818 layer_factory.hpp:77] Creating layer conv6
I1018 20:22:28.826148  5818 net.cpp:100] Creating Layer conv6
I1018 20:22:28.826151  5818 net.cpp:434] conv6 <- relu3
I1018 20:22:28.826156  5818 net.cpp:408] conv6 -> conv6
I1018 20:22:28.827378  5818 net.cpp:150] Setting up conv6
I1018 20:22:28.827386  5818 net.cpp:157] Top shape: 100 260 2 2 (104000)
I1018 20:22:28.827389  5818 net.cpp:165] Memory required for data: 111316400
I1018 20:22:28.827394  5818 layer_factory.hpp:77] Creating layer conv7
I1018 20:22:28.827399  5818 net.cpp:100] Creating Layer conv7
I1018 20:22:28.827402  5818 net.cpp:434] conv7 <- conv6
I1018 20:22:28.827405  5818 net.cpp:408] conv7 -> conv7
I1018 20:22:28.829371  5818 net.cpp:150] Setting up conv7
I1018 20:22:28.829381  5818 net.cpp:157] Top shape: 100 280 1 1 (28000)
I1018 20:22:28.829383  5818 net.cpp:165] Memory required for data: 111428400
I1018 20:22:28.829387  5818 layer_factory.hpp:77] Creating layer pool4
I1018 20:22:28.829396  5818 net.cpp:100] Creating Layer pool4
I1018 20:22:28.829399  5818 net.cpp:434] pool4 <- conv7
I1018 20:22:28.829403  5818 net.cpp:408] pool4 -> pool4
I1018 20:22:28.829434  5818 net.cpp:150] Setting up pool4
I1018 20:22:28.829439  5818 net.cpp:157] Top shape: 100 280 1 1 (28000)
I1018 20:22:28.829443  5818 net.cpp:165] Memory required for data: 111540400
I1018 20:22:28.829445  5818 layer_factory.hpp:77] Creating layer drop4
I1018 20:22:28.829452  5818 net.cpp:100] Creating Layer drop4
I1018 20:22:28.829455  5818 net.cpp:434] drop4 <- pool4
I1018 20:22:28.829459  5818 net.cpp:408] drop4 -> drop4
I1018 20:22:28.829486  5818 net.cpp:150] Setting up drop4
I1018 20:22:28.829491  5818 net.cpp:157] Top shape: 100 280 1 1 (28000)
I1018 20:22:28.829494  5818 net.cpp:165] Memory required for data: 111652400
I1018 20:22:28.829496  5818 layer_factory.hpp:77] Creating layer relu4
I1018 20:22:28.829499  5818 net.cpp:100] Creating Layer relu4
I1018 20:22:28.829501  5818 net.cpp:434] relu4 <- drop4
I1018 20:22:28.829504  5818 net.cpp:408] relu4 -> relu4
I1018 20:22:28.829625  5818 net.cpp:150] Setting up relu4
I1018 20:22:28.829630  5818 net.cpp:157] Top shape: 100 280 1 1 (28000)
I1018 20:22:28.829632  5818 net.cpp:165] Memory required for data: 111764400
I1018 20:22:28.829634  5818 layer_factory.hpp:77] Creating layer conv8
I1018 20:22:28.829640  5818 net.cpp:100] Creating Layer conv8
I1018 20:22:28.829643  5818 net.cpp:434] conv8 <- relu4
I1018 20:22:28.829645  5818 net.cpp:408] conv8 -> conv8
I1018 20:22:28.830587  5818 net.cpp:150] Setting up conv8
I1018 20:22:28.830595  5818 net.cpp:157] Top shape: 100 280 1 1 (28000)
I1018 20:22:28.830600  5818 net.cpp:165] Memory required for data: 111876400
I1018 20:22:28.830603  5818 layer_factory.hpp:77] Creating layer pool5
I1018 20:22:28.830607  5818 net.cpp:100] Creating Layer pool5
I1018 20:22:28.830610  5818 net.cpp:434] pool5 <- conv8
I1018 20:22:28.830612  5818 net.cpp:408] pool5 -> pool5
I1018 20:22:28.830641  5818 net.cpp:150] Setting up pool5
I1018 20:22:28.830644  5818 net.cpp:157] Top shape: 100 280 1 1 (28000)
I1018 20:22:28.830646  5818 net.cpp:165] Memory required for data: 111988400
I1018 20:22:28.830649  5818 layer_factory.hpp:77] Creating layer drop5
I1018 20:22:28.830652  5818 net.cpp:100] Creating Layer drop5
I1018 20:22:28.830656  5818 net.cpp:434] drop5 <- pool5
I1018 20:22:28.830658  5818 net.cpp:408] drop5 -> drop5
I1018 20:22:28.830682  5818 net.cpp:150] Setting up drop5
I1018 20:22:28.830687  5818 net.cpp:157] Top shape: 100 280 1 1 (28000)
I1018 20:22:28.830689  5818 net.cpp:165] Memory required for data: 112100400
I1018 20:22:28.830691  5818 layer_factory.hpp:77] Creating layer relu5
I1018 20:22:28.830693  5818 net.cpp:100] Creating Layer relu5
I1018 20:22:28.830695  5818 net.cpp:434] relu5 <- drop5
I1018 20:22:28.830698  5818 net.cpp:408] relu5 -> relu5
I1018 20:22:28.830895  5818 net.cpp:150] Setting up relu5
I1018 20:22:28.830902  5818 net.cpp:157] Top shape: 100 280 1 1 (28000)
I1018 20:22:28.830905  5818 net.cpp:165] Memory required for data: 112212400
I1018 20:22:28.830907  5818 layer_factory.hpp:77] Creating layer conv10
I1018 20:22:28.830921  5818 net.cpp:100] Creating Layer conv10
I1018 20:22:28.830924  5818 net.cpp:434] conv10 <- relu5
I1018 20:22:28.830927  5818 net.cpp:408] conv10 -> conv10
I1018 20:22:28.831889  5818 net.cpp:150] Setting up conv10
I1018 20:22:28.831898  5818 net.cpp:157] Top shape: 100 300 1 1 (30000)
I1018 20:22:28.831902  5818 net.cpp:165] Memory required for data: 112332400
I1018 20:22:28.831907  5818 layer_factory.hpp:77] Creating layer pool6
I1018 20:22:28.831912  5818 net.cpp:100] Creating Layer pool6
I1018 20:22:28.831915  5818 net.cpp:434] pool6 <- conv10
I1018 20:22:28.831919  5818 net.cpp:408] pool6 -> pool6
I1018 20:22:28.831948  5818 net.cpp:150] Setting up pool6
I1018 20:22:28.831953  5818 net.cpp:157] Top shape: 100 300 1 1 (30000)
I1018 20:22:28.831954  5818 net.cpp:165] Memory required for data: 112452400
I1018 20:22:28.831956  5818 layer_factory.hpp:77] Creating layer drop6
I1018 20:22:28.831960  5818 net.cpp:100] Creating Layer drop6
I1018 20:22:28.831964  5818 net.cpp:434] drop6 <- pool6
I1018 20:22:28.831966  5818 net.cpp:408] drop6 -> drop6
I1018 20:22:28.831990  5818 net.cpp:150] Setting up drop6
I1018 20:22:28.831995  5818 net.cpp:157] Top shape: 100 300 1 1 (30000)
I1018 20:22:28.831998  5818 net.cpp:165] Memory required for data: 112572400
I1018 20:22:28.832001  5818 layer_factory.hpp:77] Creating layer relu6
I1018 20:22:28.832006  5818 net.cpp:100] Creating Layer relu6
I1018 20:22:28.832008  5818 net.cpp:434] relu6 <- drop6
I1018 20:22:28.832012  5818 net.cpp:408] relu6 -> relu6
I1018 20:22:28.832134  5818 net.cpp:150] Setting up relu6
I1018 20:22:28.832139  5818 net.cpp:157] Top shape: 100 300 1 1 (30000)
I1018 20:22:28.832142  5818 net.cpp:165] Memory required for data: 112692400
I1018 20:22:28.832145  5818 layer_factory.hpp:77] Creating layer conv11
I1018 20:22:28.832152  5818 net.cpp:100] Creating Layer conv11
I1018 20:22:28.832156  5818 net.cpp:434] conv11 <- relu6
I1018 20:22:28.832160  5818 net.cpp:408] conv11 -> conv11
I1018 20:22:28.832923  5818 net.cpp:150] Setting up conv11
I1018 20:22:28.832931  5818 net.cpp:157] Top shape: 100 100 1 1 (10000)
I1018 20:22:28.832933  5818 net.cpp:165] Memory required for data: 112732400
I1018 20:22:28.832937  5818 layer_factory.hpp:77] Creating layer pool7
I1018 20:22:28.832942  5818 net.cpp:100] Creating Layer pool7
I1018 20:22:28.832943  5818 net.cpp:434] pool7 <- conv11
I1018 20:22:28.832948  5818 net.cpp:408] pool7 -> pool7
I1018 20:22:28.832978  5818 net.cpp:150] Setting up pool7
I1018 20:22:28.832983  5818 net.cpp:157] Top shape: 100 100 1 1 (10000)
I1018 20:22:28.832984  5818 net.cpp:165] Memory required for data: 112772400
I1018 20:22:28.832986  5818 layer_factory.hpp:77] Creating layer drop7
I1018 20:22:28.832990  5818 net.cpp:100] Creating Layer drop7
I1018 20:22:28.832993  5818 net.cpp:434] drop7 <- pool7
I1018 20:22:28.832995  5818 net.cpp:408] drop7 -> drop7
I1018 20:22:28.833019  5818 net.cpp:150] Setting up drop7
I1018 20:22:28.833024  5818 net.cpp:157] Top shape: 100 100 1 1 (10000)
I1018 20:22:28.833025  5818 net.cpp:165] Memory required for data: 112812400
I1018 20:22:28.833026  5818 layer_factory.hpp:77] Creating layer relu7
I1018 20:22:28.833034  5818 net.cpp:100] Creating Layer relu7
I1018 20:22:28.833037  5818 net.cpp:434] relu7 <- drop7
I1018 20:22:28.833040  5818 net.cpp:408] relu7 -> relu7
I1018 20:22:28.833159  5818 net.cpp:150] Setting up relu7
I1018 20:22:28.833164  5818 net.cpp:157] Top shape: 100 100 1 1 (10000)
I1018 20:22:28.833166  5818 net.cpp:165] Memory required for data: 112852400
I1018 20:22:28.833168  5818 layer_factory.hpp:77] Creating layer pool
I1018 20:22:28.833173  5818 net.cpp:100] Creating Layer pool
I1018 20:22:28.833175  5818 net.cpp:434] pool <- relu7
I1018 20:22:28.833178  5818 net.cpp:408] pool -> pool
I1018 20:22:28.833376  5818 net.cpp:150] Setting up pool
I1018 20:22:28.833382  5818 net.cpp:157] Top shape: 100 100 1 1 (10000)
I1018 20:22:28.833385  5818 net.cpp:165] Memory required for data: 112892400
I1018 20:22:28.833387  5818 layer_factory.hpp:77] Creating layer flatten
I1018 20:22:28.833398  5818 net.cpp:100] Creating Layer flatten
I1018 20:22:28.833400  5818 net.cpp:434] flatten <- pool
I1018 20:22:28.833405  5818 net.cpp:408] flatten -> flatten
I1018 20:22:28.833421  5818 net.cpp:150] Setting up flatten
I1018 20:22:28.833425  5818 net.cpp:157] Top shape: 100 100 (10000)
I1018 20:22:28.833427  5818 net.cpp:165] Memory required for data: 112932400
I1018 20:22:28.833430  5818 layer_factory.hpp:77] Creating layer score
I1018 20:22:28.833432  5818 net.cpp:100] Creating Layer score
I1018 20:22:28.833436  5818 net.cpp:434] score <- flatten
I1018 20:22:28.833438  5818 net.cpp:408] score -> score
I1018 20:22:28.833535  5818 net.cpp:150] Setting up score
I1018 20:22:28.833540  5818 net.cpp:157] Top shape: 100 10 (1000)
I1018 20:22:28.833541  5818 net.cpp:165] Memory required for data: 112936400
I1018 20:22:28.833544  5818 layer_factory.hpp:77] Creating layer score_score_0_split
I1018 20:22:28.833549  5818 net.cpp:100] Creating Layer score_score_0_split
I1018 20:22:28.833551  5818 net.cpp:434] score_score_0_split <- score
I1018 20:22:28.833555  5818 net.cpp:408] score_score_0_split -> score_score_0_split_0
I1018 20:22:28.833559  5818 net.cpp:408] score_score_0_split -> score_score_0_split_1
I1018 20:22:28.833585  5818 net.cpp:150] Setting up score_score_0_split
I1018 20:22:28.833587  5818 net.cpp:157] Top shape: 100 10 (1000)
I1018 20:22:28.833590  5818 net.cpp:157] Top shape: 100 10 (1000)
I1018 20:22:28.833591  5818 net.cpp:165] Memory required for data: 112944400
I1018 20:22:28.833593  5818 layer_factory.hpp:77] Creating layer accuracy
I1018 20:22:28.833596  5818 net.cpp:100] Creating Layer accuracy
I1018 20:22:28.833600  5818 net.cpp:434] accuracy <- score_score_0_split_0
I1018 20:22:28.833601  5818 net.cpp:434] accuracy <- label_data_1_split_0
I1018 20:22:28.833606  5818 net.cpp:408] accuracy -> accuracy
…
