…
  level: 0
  stage: ""
}
type: "AdaDelta"
I1018 19:50:14.649641  5601 solver.cpp:81] Creating training net from train_net file: /home/adam/Honours/Honours-Project/mnist_pooling/max/relu/poolcnn_relu_train.prototxt
I1018 19:50:14.649940  5601 net.cpp:58] Initializing net from parameters: 
state {
  phase: TRAIN
  level: 0
  stage: ""
}
layer {
  name: "data"
  type: "Data"
  top: "data"
  top: "label"
  transform_param {
    scale: 0.0039215689
  }
  data_param {
    source: "../../../../data/mnist/mnist_train_lmdb"
    batch_size: 64
    backend: LMDB
  }
}
layer {
  name: "conv1"
  type: "Convolution"
  bottom: "data"
  top: "conv1"
  convolution_param {
    num_output: 192
    kernel_size: 5
    weight_filler {
      type: "xavier"
    }
  }
}
layer {
  name: "pool1"
  type: "Pooling"
  bottom: "conv1"
  top: "pool1"
  pooling_param {
    pool: MAX
    kernel_size: 2
    stride: 2
  }
}
layer {
  name: "drop1"
  type: "Dropout"
  bottom: "pool1"
  top: "drop1"
  dropout_param {
    dropout_ratio: 0
  }
}
layer {
  name: "relu1"
  type: "ReLU"
  bottom: "drop1"
  top: "relu1"
}
layer {
  name: "conv2"
  type: "Convolution"
  bottom: "relu1"
  top: "conv2"
  convolution_param {
    num_output: 192
    kernel_size: 1
    weight_filler {
      type: "xavier"
    }
  }
}
layer {
  name: "conv3"
  type: "Convolution"
  bottom: "conv2"
  top: "conv3"
  convolution_param {
    num_output: 240
    kernel_size: 3
    weight_filler {
      type: "xavier"
    }
  }
}
layer {
  name: "pool2"
  type: "Pooling"
  bottom: "conv3"
  top: "pool2"
  pooling_param {
    pool: MAX
    kernel_size: 2
    stride: 2
  }
}
layer {
  name: "drop2"
  type: "Dropout"
  bottom: "pool2"
  top: "drop2"
  dropout_param {
    dropout_ratio: 0.1
  }
}
layer {
  name: "relu2"
  type: "ReLU"
  bottom: "drop2"
  top: "relu2"
}
layer {
  name: "conv4"
  type: "Convolution"
  bottom: "relu2"
  top: "conv4"
  convolution_param {
    num_output: 240
    kernel_size: 1
    weight_filler {
      type: "xavier"
    }
  }
}
layer {
  name: "conv5"
  type: "Convolution"
  bottom: "conv4"
  top: "conv5"
  convolution_param {
    num_output: 260
    kernel_size: 2
    weight_filler {
      type: "xavier"
    }
  }
}
layer {
  name: "pool3"
  type: "Pooling"
  bottom: "conv5"
  top: "pool3"
  pooling_param {
    pool: MAX
    kernel_size: 2
    stride: 2
  }
}
layer {
  name: "drop3"
  type: "Dropout"
  bottom: "pool3"
  top: "drop3"
  dropout_param {
    dropout_ratio: 0.2
  }
}
layer {
  name: "relu3"
  type: "ReLU"
  bottom: "drop3"
  top: "relu3"
}
layer {
  name: "conv6"
  type: "Convolution"
  bottom: "relu3"
  top: "conv6"
  convolution_param {
    num_output: 260
    kernel_size: 1
    weight_filler {
      type: "xavier"
    }
  }
}
layer {
  name: "conv7"
  type: "Convolution"
  bottom: "conv6"
  top: "conv7"
  convolution_param {
    num_output: 280
    kernel_size: 2
    weight_filler {
      type: "xavier"
    }
  }
}
layer {
  name: "pool4"
  type: "Pooling"
  bottom: "conv7"
  top: "pool4"
  pooling_param {
    pool: MAX
    kernel_size: 2
    stride: 2
  }
}
layer {
  name: "drop4"
  type: "Dropout"
  bottom: "pool4"
  top: "drop4"
  dropout_param {
    dropout_ratio: 0.3
  }
}
layer {
  name: "relu4"
  type: "ReLU"
  bottom: "drop4"
  top: "relu4"
}
layer {
  name: "conv8"
  type: "Convolution"
  bottom: "relu4"
  top: "conv8"
  convolution_param {
    num_output: 280
    kernel_size: 1
    weight_filler {
      type: "xavier"
    }
  }
}
layer {
  name: "pool5"
  type: "Pooling"
  bottom: "conv8"
  top: "pool5"
  pooling_param {
    pool: MAX
    kernel_size: 2
    stride: 2
  }
}
layer {
  name: "drop5"
  type: "Dropout"
  bottom: "pool5"
  top: "drop5"
  dropout_param {
    dropout_ratio: 0.4
  }
}
layer {
  name: "relu5"
  type: "ReLU"
  bottom: "drop5"
  top: "relu5"
}
layer {
  name: "conv10"
  type: "Convolution"
  bottom: "relu5"
  top: "conv10"
  convolution_param {
    num_output: 300
    kernel_size: 1
    weight_filler {
      type: "xavier"
    }
  }
}
layer {
  name: "pool6"
  type: "Pooling"
  bottom: "conv10"
  top: "pool6"
  pooling_param {
    pool: MAX
    kernel_size: 2
    stride: 2
  }
}
layer {
  name: "drop6"
  type: "Dropout"
  bottom: "pool6"
  top: "drop6"
  dropout_param {
    dropout_ratio: 0.5
  }
}
layer {
  name: "relu6"
  type: "ReLU"
  bottom: "drop6"
  top: "relu6"
}
layer {
  name: "conv11"
  type: "Convolution"
  bottom: "relu6"
  top: "conv11"
  convolution_param {
    num_output: 100
    kernel_size: 1
    weight_filler {
      type: "xavier"
    }
  }
}
layer {
  name: "pool7"
  type: "Pooling"
  bottom: "conv11"
  top: "pool7"
  pooling_param {
    pool: MAX
    kernel_size: 2
    stride: 2
  }
}
layer {
  name: "drop7"
  type: "Dropout"
  bottom: "pool7"
  top: "drop7"
  dropout_param {
    dropout_ratio: 0
  }
}
layer {
  name: "relu7"
  type: "ReLU"
  bottom: "drop7"
  top: "relu7"
}
layer {
  name: "pool"
  type: "Pooling"
  bottom: "relu7"
  top: "pool"
  pooling_param {
    pool: AVE
    global_pooling: true
  }
}
layer {
  name: "flatten"
  type: "Flatten"
  bottom: "pool"
  top: "flatten"
}
layer {
  name: "score"
  type: "InnerProduct"
  bottom: "flatten"
  top: "score"
  inner_product_param {
    num_output: 10
    weight_filler {
      type: "gaussian"
    }
  }
}
layer {
  name: "accuracy"
  type: "Accuracy"
  bottom: "score"
  bottom: "label"
  top: "accuracy"
}
layer {
  name: "loss"
  type: "SoftmaxWithLoss"
  bottom: "score"
  bottom: "label"
  top: "loss"
}
I1018 19:50:14.650049  5601 layer_factory.hpp:77] Creating layer data
I1018 19:50:14.650532  5601 net.cpp:100] Creating Layer data
I1018 19:50:14.650539  5601 net.cpp:408] data -> data
I1018 19:50:14.650554  5601 net.cpp:408] data -> label
I1018 19:50:14.651136  5607 db_lmdb.cpp:35] Opened lmdb ../../../../data/mnist/mnist_train_lmdb
I1018 19:50:14.656713  5601 data_layer.cpp:41] output data size: 64,1,28,28
I1018 19:50:14.657265  5601 net.cpp:150] Setting up data
I1018 19:50:14.657276  5601 net.cpp:157] Top shape: 64 1 28 28 (50176)
I1018 19:50:14.657280  5601 net.cpp:157] Top shape: 64 (64)
I1018 19:50:14.657281  5601 net.cpp:165] Memory required for data: 200960
I1018 19:50:14.657289  5601 layer_factory.hpp:77] Creating layer label_data_1_split
I1018 19:50:14.657296  5601 net.cpp:100] Creating Layer label_data_1_split
I1018 19:50:14.657300  5601 net.cpp:434] label_data_1_split <- label
I1018 19:50:14.657310  5601 net.cpp:408] label_data_1_split -> label_data_1_split_0
I1018 19:50:14.657316  5601 net.cpp:408] label_data_1_split -> label_data_1_split_1
I1018 19:50:14.657342  5601 net.cpp:150] Setting up label_data_1_split
I1018 19:50:14.657347  5601 net.cpp:157] Top shape: 64 (64)
I1018 19:50:14.657348  5601 net.cpp:157] Top shape: 64 (64)
I1018 19:50:14.657351  5601 net.cpp:165] Memory required for data: 201472
I1018 19:50:14.657351  5601 layer_factory.hpp:77] Creating layer conv1
I1018 19:50:14.657363  5601 net.cpp:100] Creating Layer conv1
I1018 19:50:14.657366  5601 net.cpp:434] conv1 <- data
I1018 19:50:14.657368  5601 net.cpp:408] conv1 -> conv1
I1018 19:50:14.776177  5601 net.cpp:150] Setting up conv1
I1018 19:50:14.776202  5601 net.cpp:157] Top shape: 64 192 24 24 (7077888)
I1018 19:50:14.776204  5601 net.cpp:165] Memory required for data: 28513024
I1018 19:50:14.776222  5601 layer_factory.hpp:77] Creating layer pool1
I1018 19:50:14.776232  5601 net.cpp:100] Creating Layer pool1
I1018 19:50:14.776234  5601 net.cpp:434] pool1 <- conv1
I1018 19:50:14.776238  5601 net.cpp:408] pool1 -> pool1
I1018 19:50:14.776276  5601 net.cpp:150] Setting up pool1
I1018 19:50:14.776281  5601 net.cpp:157] Top shape: 64 192 12 12 (1769472)
I1018 19:50:14.776295  5601 net.cpp:165] Memory required for data: 35590912
I1018 19:50:14.776298  5601 layer_factory.hpp:77] Creating layer drop1
I1018 19:50:14.776304  5601 net.cpp:100] Creating Layer drop1
I1018 19:50:14.776304  5601 net.cpp:434] drop1 <- pool1
I1018 19:50:14.776307  5601 net.cpp:408] drop1 -> drop1
I1018 19:50:14.776332  5601 net.cpp:150] Setting up drop1
I1018 19:50:14.776336  5601 net.cpp:157] Top shape: 64 192 12 12 (1769472)
I1018 19:50:14.776337  5601 net.cpp:165] Memory required for data: 42668800
I1018 19:50:14.776340  5601 layer_factory.hpp:77] Creating layer relu1
I1018 19:50:14.776342  5601 net.cpp:100] Creating Layer relu1
I1018 19:50:14.776345  5601 net.cpp:434] relu1 <- drop1
I1018 19:50:14.776346  5601 net.cpp:408] relu1 -> relu1
I1018 19:50:14.776463  5601 net.cpp:150] Setting up relu1
I1018 19:50:14.776468  5601 net.cpp:157] Top shape: 64 192 12 12 (1769472)
I1018 19:50:14.776469  5601 net.cpp:165] Memory required for data: 49746688
I1018 19:50:14.776471  5601 layer_factory.hpp:77] Creating layer conv2
I1018 19:50:14.776478  5601 net.cpp:100] Creating Layer conv2
I1018 19:50:14.776479  5601 net.cpp:434] conv2 <- relu1
I1018 19:50:14.776482  5601 net.cpp:408] conv2 -> conv2
I1018 19:50:14.777268  5601 net.cpp:150] Setting up conv2
I1018 19:50:14.777276  5601 net.cpp:157] Top shape: 64 192 12 12 (1769472)
I1018 19:50:14.777278  5601 net.cpp:165] Memory required for data: 56824576
I1018 19:50:14.777284  5601 layer_factory.hpp:77] Creating layer conv3
I1018 19:50:14.777288  5601 net.cpp:100] Creating Layer conv3
I1018 19:50:14.777290  5601 net.cpp:434] conv3 <- conv2
I1018 19:50:14.777294  5601 net.cpp:408] conv3 -> conv3
I1018 19:50:14.779711  5601 net.cpp:150] Setting up conv3
I1018 19:50:14.779719  5601 net.cpp:157] Top shape: 64 240 10 10 (1536000)
I1018 19:50:14.779721  5601 net.cpp:165] Memory required for data: 62968576
I1018 19:50:14.779727  5601 layer_factory.hpp:77] Creating layer pool2
I1018 19:50:14.779732  5601 net.cpp:100] Creating Layer pool2
I1018 19:50:14.779734  5601 net.cpp:434] pool2 <- conv3
I1018 19:50:14.779739  5601 net.cpp:408] pool2 -> pool2
I1018 19:50:14.779764  5601 net.cpp:150] Setting up pool2
I1018 19:50:14.779769  5601 net.cpp:157] Top shape: 64 240 5 5 (384000)
I1018 19:50:14.779770  5601 net.cpp:165] Memory required for data: 64504576
I1018 19:50:14.779772  5601 layer_factory.hpp:77] Creating layer drop2
I1018 19:50:14.779777  5601 net.cpp:100] Creating Layer drop2
I1018 19:50:14.779778  5601 net.cpp:434] drop2 <- pool2
I1018 19:50:14.779780  5601 net.cpp:408] drop2 -> drop2
I1018 19:50:14.779800  5601 net.cpp:150] Setting up drop2
I1018 19:50:14.779804  5601 net.cpp:157] Top shape: 64 240 5 5 (384000)
I1018 19:50:14.779806  5601 net.cpp:165] Memory required for data: 66040576
I1018 19:50:14.779808  5601 layer_factory.hpp:77] Creating layer relu2
I1018 19:50:14.779810  5601 net.cpp:100] Creating Layer relu2
I1018 19:50:14.779813  5601 net.cpp:434] relu2 <- drop2
I1018 19:50:14.779815  5601 net.cpp:408] relu2 -> relu2
I1018 19:50:14.779922  5601 net.cpp:150] Setting up relu2
I1018 19:50:14.779927  5601 net.cpp:157] Top shape: 64 240 5 5 (384000)
I1018 19:50:14.779929  5601 net.cpp:165] Memory required for data: 67576576
I1018 19:50:14.779930  5601 layer_factory.hpp:77] Creating layer conv4
I1018 19:50:14.779935  5601 net.cpp:100] Creating Layer conv4
I1018 19:50:14.779937  5601 net.cpp:434] conv4 <- relu2
I1018 19:50:14.779942  5601 net.cpp:408] conv4 -> conv4
I1018 19:50:14.780763  5601 net.cpp:150] Setting up conv4
I1018 19:50:14.780771  5601 net.cpp:157] Top shape: 64 240 5 5 (384000)
I1018 19:50:14.780772  5601 net.cpp:165] Memory required for data: 69112576
I1018 19:50:14.780776  5601 layer_factory.hpp:77] Creating layer conv5
I1018 19:50:14.780781  5601 net.cpp:100] Creating Layer conv5
I1018 19:50:14.780783  5601 net.cpp:434] conv5 <- conv4
I1018 19:50:14.780786  5601 net.cpp:408] conv5 -> conv5
I1018 19:50:14.782541  5601 net.cpp:150] Setting up conv5
I1018 19:50:14.782551  5601 net.cpp:157] Top shape: 64 260 4 4 (266240)
I1018 19:50:14.782562  5601 net.cpp:165] Memory required for data: 70177536
I1018 19:50:14.782569  5601 layer_factory.hpp:77] Creating layer pool3
I1018 19:50:14.782574  5601 net.cpp:100] Creating Layer pool3
I1018 19:50:14.782577  5601 net.cpp:434] pool3 <- conv5
I1018 19:50:14.782579  5601 net.cpp:408] pool3 -> pool3
I1018 19:50:14.782603  5601 net.cpp:150] Setting up pool3
I1018 19:50:14.782608  5601 net.cpp:157] Top shape: 64 260 2 2 (66560)
I1018 19:50:14.782610  5601 net.cpp:165] Memory required for data: 70443776
I1018 19:50:14.782611  5601 layer_factory.hpp:77] Creating layer drop3
I1018 19:50:14.782614  5601 net.cpp:100] Creating Layer drop3
I1018 19:50:14.782618  5601 net.cpp:434] drop3 <- pool3
I1018 19:50:14.782620  5601 net.cpp:408] drop3 -> drop3
I1018 19:50:14.782641  5601 net.cpp:150] Setting up drop3
I1018 19:50:14.782645  5601 net.cpp:157] Top shape: 64 260 2 2 (66560)
I1018 19:50:14.782649  5601 net.cpp:165] Memory required for data: 70710016
I1018 19:50:14.782650  5601 layer_factory.hpp:77] Creating layer relu3
I1018 19:50:14.782654  5601 net.cpp:100] Creating Layer relu3
I1018 19:50:14.782655  5601 net.cpp:434] relu3 <- drop3
I1018 19:50:14.782660  5601 net.cpp:408] relu3 -> relu3
I1018 19:50:14.782766  5601 net.cpp:150] Setting up relu3
I1018 19:50:14.782771  5601 net.cpp:157] Top shape: 64 260 2 2 (66560)
I1018 19:50:14.782773  5601 net.cpp:165] Memory required for data: 70976256
I1018 19:50:14.782775  5601 layer_factory.hpp:77] Creating layer conv6
I1018 19:50:14.782783  5601 net.cpp:100] Creating Layer conv6
I1018 19:50:14.782784  5601 net.cpp:434] conv6 <- relu3
I1018 19:50:14.782786  5601 net.cpp:408] conv6 -> conv6
I1018 19:50:14.783913  5601 net.cpp:150] Setting up conv6
I1018 19:50:14.783922  5601 net.cpp:157] Top shape: 64 260 2 2 (66560)
I1018 19:50:14.783924  5601 net.cpp:165] Memory required for data: 71242496
I1018 19:50:14.783928  5601 layer_factory.hpp:77] Creating layer conv7
I1018 19:50:14.783936  5601 net.cpp:100] Creating Layer conv7
I1018 19:50:14.783937  5601 net.cpp:434] conv7 <- conv6
I1018 19:50:14.783941  5601 net.cpp:408] conv7 -> conv7
I1018 19:50:14.785856  5601 net.cpp:150] Setting up conv7
I1018 19:50:14.785864  5601 net.cpp:157] Top shape: 64 280 1 1 (17920)
I1018 19:50:14.785867  5601 net.cpp:165] Memory required for data: 71314176
I1018 19:50:14.785871  5601 layer_factory.hpp:77] Creating layer pool4
I1018 19:50:14.785876  5601 net.cpp:100] Creating Layer pool4
I1018 19:50:14.785878  5601 net.cpp:434] pool4 <- conv7
I1018 19:50:14.785882  5601 net.cpp:408] pool4 -> pool4
I1018 19:50:14.785907  5601 net.cpp:150] Setting up pool4
I1018 19:50:14.785910  5601 net.cpp:157] Top shape: 64 280 1 1 (17920)
I1018 19:50:14.785913  5601 net.cpp:165] Memory required for data: 71385856
I1018 19:50:14.785915  5601 layer_factory.hpp:77] Creating layer drop4
I1018 19:50:14.785918  5601 net.cpp:100] Creating Layer drop4
I1018 19:50:14.785920  5601 net.cpp:434] drop4 <- pool4
I1018 19:50:14.785924  5601 net.cpp:408] drop4 -> drop4
I1018 19:50:14.785945  5601 net.cpp:150] Setting up drop4
I1018 19:50:14.785949  5601 net.cpp:157] Top shape: 64 280 1 1 (17920)
I1018 19:50:14.785951  5601 net.cpp:165] Memory required for data: 71457536
I1018 19:50:14.785953  5601 layer_factory.hpp:77] Creating layer relu4
I1018 19:50:14.785956  5601 net.cpp:100] Creating Layer relu4
I1018 19:50:14.785959  5601 net.cpp:434] relu4 <- drop4
I1018 19:50:14.785961  5601 net.cpp:408] relu4 -> relu4
I1018 19:50:14.786145  5601 net.cpp:150] Setting up relu4
I1018 19:50:14.786152  5601 net.cpp:157] Top shape: 64 280 1 1 (17920)
I1018 19:50:14.786155  5601 net.cpp:165] Memory required for data: 71529216
I1018 19:50:14.786157  5601 layer_factory.hpp:77] Creating layer conv8
I1018 19:50:14.786162  5601 net.cpp:100] Creating Layer conv8
I1018 19:50:14.786164  5601 net.cpp:434] conv8 <- relu4
I1018 19:50:14.786169  5601 net.cpp:408] conv8 -> conv8
I1018 19:50:14.786988  5601 net.cpp:150] Setting up conv8
I1018 19:50:14.786996  5601 net.cpp:157] Top shape: 64 280 1 1 (17920)
I1018 19:50:14.786998  5601 net.cpp:165] Memory required for data: 71600896
I1018 19:50:14.787011  5601 layer_factory.hpp:77] Creating layer pool5
I1018 19:50:14.787016  5601 net.cpp:100] Creating Layer pool5
I1018 19:50:14.787019  5601 net.cpp:434] pool5 <- conv8
I1018 19:50:14.787021  5601 net.cpp:408] pool5 -> pool5
I1018 19:50:14.787047  5601 net.cpp:150] Setting up pool5
I1018 19:50:14.787051  5601 net.cpp:157] Top shape: 64 280 1 1 (17920)
I1018 19:50:14.787055  5601 net.cpp:165] Memory required for data: 71672576
I1018 19:50:14.787055  5601 layer_factory.hpp:77] Creating layer drop5
I1018 19:50:14.787058  5601 net.cpp:100] Creating Layer drop5
I1018 19:50:14.787060  5601 net.cpp:434] drop5 <- pool5
I1018 19:50:14.787063  5601 net.cpp:408] drop5 -> drop5
I1018 19:50:14.787084  5601 net.cpp:150] Setting up drop5
I1018 19:50:14.787089  5601 net.cpp:157] Top shape: 64 280 1 1 (17920)
I1018 19:50:14.787091  5601 net.cpp:165] Memory required for data: 71744256
I1018 19:50:14.787093  5601 layer_factory.hpp:77] Creating layer relu5
I1018 19:50:14.787096  5601 net.cpp:100] Creating Layer relu5
I1018 19:50:14.787097  5601 net.cpp:434] relu5 <- drop5
I1018 19:50:14.787101  5601 net.cpp:408] relu5 -> relu5
I1018 19:50:14.787361  5601 net.cpp:150] Setting up relu5
I1018 19:50:14.787369  5601 net.cpp:157] Top shape: 64 280 1 1 (17920)
I1018 19:50:14.787371  5601 net.cpp:165] Memory required for data: 71815936
I1018 19:50:14.787374  5601 layer_factory.hpp:77] Creating layer conv10
I1018 19:50:14.787377  5601 net.cpp:100] Creating Layer conv10
I1018 19:50:14.787380  5601 net.cpp:434] conv10 <- relu5
I1018 19:50:14.787384  5601 net.cpp:408] conv10 -> conv10
I1018 19:50:14.788413  5601 net.cpp:150] Setting up conv10
I1018 19:50:14.788422  5601 net.cpp:157] Top shape: 64 300 1 1 (19200)
I1018 19:50:14.788424  5601 net.cpp:165] Memory required for data: 71892736
I1018 19:50:14.788431  5601 layer_factory.hpp:77] Creating layer pool6
I1018 19:50:14.788436  5601 net.cpp:100] Creating Layer pool6
I1018 19:50:14.788439  5601 net.cpp:434] pool6 <- conv10
I1018 19:50:14.788441  5601 net.cpp:408] pool6 -> pool6
I1018 19:50:14.788467  5601 net.cpp:150] Setting up pool6
I1018 19:50:14.788472  5601 net.cpp:157] Top shape: 64 300 1 1 (19200)
I1018 19:50:14.788473  5601 net.cpp:165] Memory required for data: 71969536
I1018 19:50:14.788475  5601 layer_factory.hpp:77] Creating layer drop6
I1018 19:50:14.788478  5601 net.cpp:100] Creating Layer drop6
I1018 19:50:14.788480  5601 net.cpp:434] drop6 <- pool6
I1018 19:50:14.788483  5601 net.cpp:408] drop6 -> drop6
I1018 19:50:14.788508  5601 net.cpp:150] Setting up drop6
I1018 19:50:14.788514  5601 net.cpp:157] Top shape: 64 300 1 1 (19200)
I1018 19:50:14.788517  5601 net.cpp:165] Memory required for data: 72046336
I1018 19:50:14.788519  5601 layer_factory.hpp:77] Creating layer relu6
I1018 19:50:14.788523  5601 net.cpp:100] Creating Layer relu6
I1018 19:50:14.788527  5601 net.cpp:434] relu6 <- drop6
I1018 19:50:14.788529  5601 net.cpp:408] relu6 -> relu6
I1018 19:50:14.788678  5601 net.cpp:150] Setting up relu6
I1018 19:50:14.788687  5601 net.cpp:157] Top shape: 64 300 1 1 (19200)
I1018 19:50:14.788691  5601 net.cpp:165] Memory required for data: 72123136
I1018 19:50:14.788694  5601 layer_factory.hpp:77] Creating layer conv11
I1018 19:50:14.788702  5601 net.cpp:100] Creating Layer conv11
I1018 19:50:14.788705  5601 net.cpp:434] conv11 <- relu6
I1018 19:50:14.788710  5601 net.cpp:408] conv11 -> conv11
I1018 19:50:14.789896  5601 net.cpp:150] Setting up conv11
I1018 19:50:14.789904  5601 net.cpp:157] Top shape: 64 100 1 1 (6400)
I1018 19:50:14.789906  5601 net.cpp:165] Memory required for data: 72148736
I1018 19:50:14.789911  5601 layer_factory.hpp:77] Creating layer pool7
I1018 19:50:14.789914  5601 net.cpp:100] Creating Layer pool7
I1018 19:50:14.789916  5601 net.cpp:434] pool7 <- conv11
I1018 19:50:14.789921  5601 net.cpp:408] pool7 -> pool7
I1018 19:50:14.789948  5601 net.cpp:150] Setting up pool7
I1018 19:50:14.789953  5601 net.cpp:157] Top shape: 64 100 1 1 (6400)
I1018 19:50:14.789955  5601 net.cpp:165] Memory required for data: 72174336
I1018 19:50:14.789965  5601 layer_factory.hpp:77] Creating layer drop7
I1018 19:50:14.789970  5601 net.cpp:100] Creating Layer drop7
I1018 19:50:14.789973  5601 net.cpp:434] drop7 <- pool7
I1018 19:50:14.789975  5601 net.cpp:408] drop7 -> drop7
I1018 19:50:14.789999  5601 net.cpp:150] Setting up drop7
I1018 19:50:14.790002  5601 net.cpp:157] Top shape: 64 100 1 1 (6400)
I1018 19:50:14.790004  5601 net.cpp:165] Memory required for data: 72199936
I1018 19:50:14.790006  5601 layer_factory.hpp:77] Creating layer relu7
I1018 19:50:14.790012  5601 net.cpp:100] Creating Layer relu7
I1018 19:50:14.790014  5601 net.cpp:434] relu7 <- drop7
I1018 19:50:14.790017  5601 net.cpp:408] relu7 -> relu7
I1018 19:50:14.790206  5601 net.cpp:150] Setting up relu7
I1018 19:50:14.790213  5601 net.cpp:157] Top shape: 64 100 1 1 (6400)
I1018 19:50:14.790215  5601 net.cpp:165] Memory required for data: 72225536
I1018 19:50:14.790217  5601 layer_factory.hpp:77] Creating layer pool
I1018 19:50:14.790220  5601 net.cpp:100] Creating Layer pool
I1018 19:50:14.790222  5601 net.cpp:434] pool <- relu7
I1018 19:50:14.790226  5601 net.cpp:408] pool -> pool
I1018 19:50:14.790346  5601 net.cpp:150] Setting up pool
I1018 19:50:14.790351  5601 net.cpp:157] Top shape: 64 100 1 1 (6400)
I1018 19:50:14.790354  5601 net.cpp:165] Memory required for data: 72251136
I1018 19:50:14.790355  5601 layer_factory.hpp:77] Creating layer flatten
I1018 19:50:14.790360  5601 net.cpp:100] Creating Layer flatten
I1018 19:50:14.790362  5601 net.cpp:434] flatten <- pool
I1018 19:50:14.790365  5601 net.cpp:408] flatten -> flatten
I1018 19:50:14.790380  5601 net.cpp:150] Setting up flatten
I1018 19:50:14.790385  5601 net.cpp:157] Top shape: 64 100 (6400)
I1018 19:50:14.790386  5601 net.cpp:165] Memory required for data: 72276736
I1018 19:50:14.790387  5601 layer_factory.hpp:77] Creating layer score
I1018 19:50:14.790391  5601 net.cpp:100] Creating Layer score
I1018 19:50:14.790393  5601 net.cpp:434] score <- flatten
I1018 19:50:14.790396  5601 net.cpp:408] score -> score
I1018 19:50:14.790489  5601 net.cpp:150] Setting up score
I1018 19:50:14.790493  5601 net.cpp:157] Top shape: 64 10 (640)
I1018 19:50:14.790495  5601 net.cpp:165] Memory required for data: 72279296
I1018 19:50:14.790498  5601 layer_factory.hpp:77] Creating layer score_score_0_split
I1018 19:50:14.790501  5601 net.cpp:100] Creating Layer score_score_0_split
I1018 19:50:14.790503  5601 net.cpp:434] score_score_0_split <- score
I1018 19:50:14.790508  5601 net.cpp:408] score_score_0_split -> score_score_0_split_0
I1018 19:50:14.790510  5601 net.cpp:408] score_score_0_split -> score_score_0_split_1
I1018 19:50:14.790531  5601 net.cpp:150] Setting up score_score_0_split
I1018 19:50:14.790535  5601 net.cpp:157] Top shape: 64 10 (640)
I1018 19:50:14.790537  5601 net.cpp:157] Top shape: 64 10 (640)
I1018 19:50:14.790539  5601 net.cpp:165] Memory required for data: 72284416
I1018 19:50:14.790540  5601 layer_factory.hpp:77] Creating layer accuracy
I1018 19:50:14.790544  5601 net.cpp:100] Creating Layer accuracy
I1018 19:50:14.790547  5601 net.cpp:434] accuracy <- score_score_0_split_0
I1018 19:50:14.790549  5601 net.cpp:434] accuracy <- label_data_1_split_0
I1018 19:50:14.790554  5601 net.cpp:408] accuracy -> accuracy
…
I1018 19:50:14.790947  5601 net.cpp:283] Network initialization done.
I1018 19:50:14.791136  5601 solver.cpp:181] Creating test net (#0) specified by test_net file: /home/adam/Honours/Honours-Project/mnist_pooling/max/relu/poolcnn_relu_test.prototxt
I1018 19:50:14.791249  5601 net.cpp:58] Initializing net from parameters: 
state {
  phase: TEST
}
layer {
  name: "data"
  type: "Data"
  top: "data"
  top: "label"
  transform_param {
    scale: 0.0039215689
  }
  data_param {
    source: "../../../../data/mnist/mnist_test_lmdb"
    batch_size: 100
    backend: LMDB
  }
}
layer {
  name: "conv1"
  type: "Convolution"
  bottom: "data"
  top: "conv1"
  convolution_param {
    num_output: 192
    kernel_size: 5
    weight_filler {
      type: "xavier"
    }
  }
}
layer {
  name: "pool1"
  type: "Pooling"
  bottom: "conv1"
  top: "pool1"
  pooling_param {
    pool: MAX
    kernel_size: 2
    stride: 2
  }
}
layer {
  name: "drop1"
  type: "Dropout"
  bottom: "pool1"
  top: "drop1"
  dropout_param {
    dropout_ratio: 0
  }
}
layer {
  name: "relu1"
  type: "ReLU"
  bottom: "drop1"
  top: "relu1"
}
layer {
  name: "conv2"
  type: "Convolution"
  bottom: "relu1"
  top: "conv2"
  convolution_param {
    num_output: 192
    kernel_size: 1
    weight_filler {
      type: "xavier"
    }
  }
}
layer {
  name: "conv3"
  type: "Convolution"
  bottom: "conv2"
  top: "conv3"
  convolution_param {
    num_output: 240
    kernel_size: 3
    weight_filler {
      type: "xavier"
    }
  }
}
layer {
  name: "pool2"
  type: "Pooling"
  bottom: "conv3"
  top: "pool2"
  pooling_param {
    pool: MAX
    kernel_size: 2
    stride: 2
  }
}
layer {
  name: "drop2"
  type: "Dropout"
  bottom: "pool2"
  top: "drop2"
  dropout_param {
    dropout_ratio: 0.1
  }
}
layer {
  name: "relu2"
  type: "ReLU"
  bottom: "drop2"
  top: "relu2"
}
layer {
  name: "conv4"
  type: "Convolution"
  bottom: "relu2"
  top: "conv4"
  convolution_param {
    num_output: 240
    kernel_size: 1
    weight_filler {
      type: "xavier"
    }
  }
}
layer {
  name: "conv5"
  type: "Convolution"
  bottom: "conv4"
  top: "conv5"
  convolution_param {
    num_output: 260
    kernel_size: 2
    weight_filler {
      type: "xavier"
    }
  }
}
layer {
  name: "pool3"
  type: "Pooling"
  bottom: "conv5"
  top: "pool3"
  pooling_param {
    pool: MAX
    kernel_size: 2
    stride: 2
  }
}
layer {
  name: "drop3"
  type: "Dropout"
  bottom: "pool3"
  top: "drop3"
  dropout_param {
    dropout_ratio: 0.2
  }
}
layer {
  name: "relu3"
  type: "ReLU"
  bottom: "drop3"
  top: "relu3"
}
layer {
  name: "conv6"
  type: "Convolution"
  bottom: "relu3"
  top: "conv6"
  convolution_param {
    num_output: 260
    kernel_size: 1
    weight_filler {
      type: "xavier"
    }
  }
}
layer {
  name: "conv7"
  type: "Convolution"
  bottom: "conv6"
  top: "conv7"
  convolution_param {
    num_output: 280
    kernel_size: 2
    weight_filler {
      type: "xavier"
    }
  }
}
layer {
  name: "pool4"
  type: "Pooling"
  bottom: "conv7"
  top: "pool4"
  pooling_param {
    pool: MAX
    kernel_size: 2
    stride: 2
  }
}
layer {
  name: "drop4"
  type: "Dropout"
  bottom: "pool4"
  top: "drop4"
  dropout_param {
    dropout_ratio: 0.3
  }
}
layer {
  name: "relu4"
  type: "ReLU"
  bottom: "drop4"
  top: "relu4"
}
layer {
  name: "conv8"
  type: "Convolution"
  bottom: "relu4"
  top: "conv8"
  convolution_param {
    num_output: 280
    kernel_size: 1
    weight_filler {
      type: "xavier"
    }
  }
}
layer {
  name: "pool5"
  type: "Pooling"
  bottom: "conv8"
  top: "pool5"
  pooling_param {
    pool: MAX
    kernel_size: 2
    stride: 2
  }
}
layer {
  name: "drop5"
  type: "Dropout"
  bottom: "pool5"
  top: "drop5"
  dropout_param {
    dropout_ratio: 0.4
  }
}
layer {
  name: "relu5"
  type: "ReLU"
  bottom: "drop5"
  top: "relu5"
}
layer {
  name: "conv10"
  type: "Convolution"
  bottom: "relu5"
  top: "conv10"
  convolution_param {
    num_output: 300
    kernel_size: 1
    weight_filler {
      type: "xavier"
    }
  }
}
layer {
  name: "pool6"
  type: "Pooling"
  bottom: "conv10"
  top: "pool6"
  pooling_param {
    pool: MAX
    kernel_size: 2
    stride: 2
  }
}
layer {
  name: "drop6"
  type: "Dropout"
  bottom: "pool6"
  top: "drop6"
  dropout_param {
    dropout_ratio: 0.5
  }
}
layer {
  name: "relu6"
  type: "ReLU"
  bottom: "drop6"
  top: "relu6"
}
layer {
  name: "conv11"
  type: "Convolution"
  bottom: "relu6"
  top: "conv11"
  convolution_param {
    num_output: 100
    kernel_size: 1
    weight_filler {
      type: "xavier"
    }
  }
}
layer {
  name: "pool7"
  type: "Pooling"
  bottom: "conv11"
  top: "pool7"
  pooling_param {
    pool: MAX
    kernel_size: 2
    stride: 2
  }
}
layer {
  name: "drop7"
  type: "Dropout"
  bottom: "pool7"
  top: "drop7"
  dropout_param {
    dropout_ratio: 0
  }
}
layer {
  name: "relu7"
  type: "ReLU"
  bottom: "drop7"
  top: "relu7"
}
layer {
  name: "pool"
  type: "Pooling"
  bottom: "relu7"
  top: "pool"
  pooling_param {
    pool: AVE
    global_pooling: true
  }
}
layer {
  name: "flatten"
  type: "Flatten"
  bottom: "pool"
  top: "flatten"
}
layer {
  name: "score"
  type: "InnerProduct"
  bottom: "flatten"
  top: "score"
  inner_product_param {
    num_output: 10
    weight_filler {
      type: "gaussian"
    }
  }
}
layer {
  name: "accuracy"
  type: "Accuracy"
  bottom: "score"
  bottom: "label"
  top: "accuracy"
}
layer {
  name: "loss"
  type: "SoftmaxWithLoss"
  bottom: "score"
  bottom: "label"
  top: "loss"
}
I1018 19:50:14.791326  5601 layer_factory.hpp:77] Creating layer data
I1018 19:50:14.791404  5601 net.cpp:100] Creating Layer data
I1018 19:50:14.791409  5601 net.cpp:408] data -> data
I1018 19:50:14.791414  5601 net.cpp:408] data -> label
I1018 19:50:14.791980  5609 db_lmdb.cpp:35] Opened lmdb ../../../../data/mnist/mnist_test_lmdb
I1018 19:50:14.792054  5601 data_layer.cpp:41] output data size: 100,1,28,28
I1018 19:50:14.792685  5601 net.cpp:150] Setting up data
I1018 19:50:14.792692  5601 net.cpp:157] Top shape: 100 1 28 28 (78400)
I1018 19:50:14.792696  5601 net.cpp:157] Top shape: 100 (100)
I1018 19:50:14.792698  5601 net.cpp:165] Memory required for data: 314000
I1018 19:50:14.792701  5601 layer_factory.hpp:77] Creating layer label_data_1_split
I1018 19:50:14.792704  5601 net.cpp:100] Creating Layer label_data_1_split
I1018 19:50:14.792706  5601 net.cpp:434] label_data_1_split <- label
I1018 19:50:14.792712  5601 net.cpp:408] label_data_1_split -> label_data_1_split_0
I1018 19:50:14.792717  5601 net.cpp:408] label_data_1_split -> label_data_1_split_1
I1018 19:50:14.792773  5601 net.cpp:150] Setting up label_data_1_split
I1018 19:50:14.792776  5601 net.cpp:157] Top shape: 100 (100)
I1018 19:50:14.792778  5601 net.cpp:157] Top shape: 100 (100)
I1018 19:50:14.792779  5601 net.cpp:165] Memory required for data: 314800
I1018 19:50:14.792781  5601 layer_factory.hpp:77] Creating layer conv1
I1018 19:50:14.792788  5601 net.cpp:100] Creating Layer conv1
I1018 19:50:14.792789  5601 net.cpp:434] conv1 <- data
I1018 19:50:14.792793  5601 net.cpp:408] conv1 -> conv1
I1018 19:50:14.793464  5601 net.cpp:150] Setting up conv1
I1018 19:50:14.793473  5601 net.cpp:157] Top shape: 100 192 24 24 (11059200)
I1018 19:50:14.793475  5601 net.cpp:165] Memory required for data: 44551600
I1018 19:50:14.793483  5601 layer_factory.hpp:77] Creating layer pool1
I1018 19:50:14.793488  5601 net.cpp:100] Creating Layer pool1
I1018 19:50:14.793490  5601 net.cpp:434] pool1 <- conv1
I1018 19:50:14.793493  5601 net.cpp:408] pool1 -> pool1
I1018 19:50:14.793519  5601 net.cpp:150] Setting up pool1
I1018 19:50:14.793524  5601 net.cpp:157] Top shape: 100 192 12 12 (2764800)
I1018 19:50:14.793527  5601 net.cpp:165] Memory required for data: 55610800
I1018 19:50:14.793529  5601 layer_factory.hpp:77] Creating layer drop1
I1018 19:50:14.793534  5601 net.cpp:100] Creating Layer drop1
I1018 19:50:14.793536  5601 net.cpp:434] drop1 <- pool1
I1018 19:50:14.793541  5601 net.cpp:408] drop1 -> drop1
I1018 19:50:14.793565  5601 net.cpp:150] Setting up drop1
I1018 19:50:14.793568  5601 net.cpp:157] Top shape: 100 192 12 12 (2764800)
I1018 19:50:14.793571  5601 net.cpp:165] Memory required for data: 66670000
I1018 19:50:14.793577  5601 layer_factory.hpp:77] Creating layer relu1
I1018 19:50:14.793581  5601 net.cpp:100] Creating Layer relu1
I1018 19:50:14.793583  5601 net.cpp:434] relu1 <- drop1
I1018 19:50:14.793586  5601 net.cpp:408] relu1 -> relu1
I1018 19:50:14.793781  5601 net.cpp:150] Setting up relu1
I1018 19:50:14.793790  5601 net.cpp:157] Top shape: 100 192 12 12 (2764800)
I1018 19:50:14.793792  5601 net.cpp:165] Memory required for data: 77729200
I1018 19:50:14.793794  5601 layer_factory.hpp:77] Creating layer conv2
I1018 19:50:14.793800  5601 net.cpp:100] Creating Layer conv2
I1018 19:50:14.793803  5601 net.cpp:434] conv2 <- relu1
I1018 19:50:14.793807  5601 net.cpp:408] conv2 -> conv2
I1018 19:50:14.794646  5601 net.cpp:150] Setting up conv2
I1018 19:50:14.794653  5601 net.cpp:157] Top shape: 100 192 12 12 (2764800)
I1018 19:50:14.794658  5601 net.cpp:165] Memory required for data: 88788400
I1018 19:50:14.794673  5601 layer_factory.hpp:77] Creating layer conv3
I1018 19:50:14.794679  5601 net.cpp:100] Creating Layer conv3
I1018 19:50:14.794682  5601 net.cpp:434] conv3 <- conv2
I1018 19:50:14.794687  5601 net.cpp:408] conv3 -> conv3
I1018 19:50:14.797159  5601 net.cpp:150] Setting up conv3
I1018 19:50:14.797168  5601 net.cpp:157] Top shape: 100 240 10 10 (2400000)
I1018 19:50:14.797171  5601 net.cpp:165] Memory required for data: 98388400
I1018 19:50:14.797176  5601 layer_factory.hpp:77] Creating layer pool2
I1018 19:50:14.797183  5601 net.cpp:100] Creating Layer pool2
I1018 19:50:14.797185  5601 net.cpp:434] pool2 <- conv3
I1018 19:50:14.797190  5601 net.cpp:408] pool2 -> pool2
I1018 19:50:14.797216  5601 net.cpp:150] Setting up pool2
I1018 19:50:14.797220  5601 net.cpp:157] Top shape: 100 240 5 5 (600000)
I1018 19:50:14.797222  5601 net.cpp:165] Memory required for data: 100788400
I1018 19:50:14.797224  5601 layer_factory.hpp:77] Creating layer drop2
I1018 19:50:14.797229  5601 net.cpp:100] Creating Layer drop2
I1018 19:50:14.797231  5601 net.cpp:434] drop2 <- pool2
I1018 19:50:14.797235  5601 net.cpp:408] drop2 -> drop2
I1018 19:50:14.797257  5601 net.cpp:150] Setting up drop2
I1018 19:50:14.797260  5601 net.cpp:157] Top shape: 100 240 5 5 (600000)
I1018 19:50:14.797262  5601 net.cpp:165] Memory required for data: 103188400
I1018 19:50:14.797264  5601 layer_factory.hpp:77] Creating layer relu2
I1018 19:50:14.797268  5601 net.cpp:100] Creating Layer relu2
I1018 19:50:14.797271  5601 net.cpp:434] relu2 <- drop2
I1018 19:50:14.797274  5601 net.cpp:408] relu2 -> relu2
I1018 19:50:14.797386  5601 net.cpp:150] Setting up relu2
I1018 19:50:14.797392  5601 net.cpp:157] Top shape: 100 240 5 5 (600000)
I1018 19:50:14.797394  5601 net.cpp:165] Memory required for data: 105588400
I1018 19:50:14.797396  5601 layer_factory.hpp:77] Creating layer conv4
I1018 19:50:14.797401  5601 net.cpp:100] Creating Layer conv4
I1018 19:50:14.797405  5601 net.cpp:434] conv4 <- relu2
I1018 19:50:14.797408  5601 net.cpp:408] conv4 -> conv4
I1018 19:50:14.798264  5601 net.cpp:150] Setting up conv4
I1018 19:50:14.798270  5601 net.cpp:157] Top shape: 100 240 5 5 (600000)
I1018 19:50:14.798274  5601 net.cpp:165] Memory required for data: 107988400
I1018 19:50:14.798277  5601 layer_factory.hpp:77] Creating layer conv5
I1018 19:50:14.798283  5601 net.cpp:100] Creating Layer conv5
I1018 19:50:14.798285  5601 net.cpp:434] conv5 <- conv4
I1018 19:50:14.798290  5601 net.cpp:408] conv5 -> conv5
I1018 19:50:14.800068  5601 net.cpp:150] Setting up conv5
I1018 19:50:14.800076  5601 net.cpp:157] Top shape: 100 260 4 4 (416000)
I1018 19:50:14.800078  5601 net.cpp:165] Memory required for data: 109652400
I1018 19:50:14.800084  5601 layer_factory.hpp:77] Creating layer pool3
I1018 19:50:14.800089  5601 net.cpp:100] Creating Layer pool3
I1018 19:50:14.800092  5601 net.cpp:434] pool3 <- conv5
I1018 19:50:14.800096  5601 net.cpp:408] pool3 -> pool3
I1018 19:50:14.800122  5601 net.cpp:150] Setting up pool3
I1018 19:50:14.800127  5601 net.cpp:157] Top shape: 100 260 2 2 (104000)
I1018 19:50:14.800128  5601 net.cpp:165] Memory required for data: 110068400
I1018 19:50:14.800129  5601 layer_factory.hpp:77] Creating layer drop3
I1018 19:50:14.800133  5601 net.cpp:100] Creating Layer drop3
I1018 19:50:14.800135  5601 net.cpp:434] drop3 <- pool3
I1018 19:50:14.800138  5601 net.cpp:408] drop3 -> drop3
I1018 19:50:14.800163  5601 net.cpp:150] Setting up drop3
I1018 19:50:14.800168  5601 net.cpp:157] Top shape: 100 260 2 2 (104000)
I1018 19:50:14.800169  5601 net.cpp:165] Memory required for data: 110484400
I1018 19:50:14.800171  5601 layer_factory.hpp:77] Creating layer relu3
I1018 19:50:14.800173  5601 net.cpp:100] Creating Layer relu3
I1018 19:50:14.800176  5601 net.cpp:434] relu3 <- drop3
I1018 19:50:14.800179  5601 net.cpp:408] relu3 -> relu3
I1018 19:50:14.800294  5601 net.cpp:150] Setting up relu3
I1018 19:50:14.800299  5601 net.cpp:157] Top shape: 100 260 2 2 (104000)
I1018 19:50:14.800302  5601 net.cpp:165] Memory required for data: 110900400
I1018 19:50:14.800303  5601 layer_factory.hpp:77] Creating layer conv6
I1018 19:50:14.800318  5601 net.cpp:100] Creating Layer conv6
I1018 19:50:14.800323  5601 net.cpp:434] conv6 <- relu3
I1018 19:50:14.800328  5601 net.cpp:408] conv6 -> conv6
I1018 19:50:14.801623  5601 net.cpp:150] Setting up conv6
I1018 19:50:14.801633  5601 net.cpp:157] Top shape: 100 260 2 2 (104000)
I1018 19:50:14.801635  5601 net.cpp:165] Memory required for data: 111316400
I1018 19:50:14.801640  5601 layer_factory.hpp:77] Creating layer conv7
I1018 19:50:14.801645  5601 net.cpp:100] Creating Layer conv7
I1018 19:50:14.801647  5601 net.cpp:434] conv7 <- conv6
I1018 19:50:14.801651  5601 net.cpp:408] conv7 -> conv7
I1018 19:50:14.803606  5601 net.cpp:150] Setting up conv7
I1018 19:50:14.803614  5601 net.cpp:157] Top shape: 100 280 1 1 (28000)
I1018 19:50:14.803617  5601 net.cpp:165] Memory required for data: 111428400
I1018 19:50:14.803620  5601 layer_factory.hpp:77] Creating layer pool4
I1018 19:50:14.803627  5601 net.cpp:100] Creating Layer pool4
I1018 19:50:14.803630  5601 net.cpp:434] pool4 <- conv7
I1018 19:50:14.803633  5601 net.cpp:408] pool4 -> pool4
I1018 19:50:14.803663  5601 net.cpp:150] Setting up pool4
I1018 19:50:14.803668  5601 net.cpp:157] Top shape: 100 280 1 1 (28000)
I1018 19:50:14.803670  5601 net.cpp:165] Memory required for data: 111540400
I1018 19:50:14.803671  5601 layer_factory.hpp:77] Creating layer drop4
I1018 19:50:14.803674  5601 net.cpp:100] Creating Layer drop4
I1018 19:50:14.803676  5601 net.cpp:434] drop4 <- pool4
I1018 19:50:14.803680  5601 net.cpp:408] drop4 -> drop4
I1018 19:50:14.803705  5601 net.cpp:150] Setting up drop4
I1018 19:50:14.803710  5601 net.cpp:157] Top shape: 100 280 1 1 (28000)
I1018 19:50:14.803714  5601 net.cpp:165] Memory required for data: 111652400
I1018 19:50:14.803715  5601 layer_factory.hpp:77] Creating layer relu4
I1018 19:50:14.803717  5601 net.cpp:100] Creating Layer relu4
I1018 19:50:14.803719  5601 net.cpp:434] relu4 <- drop4
I1018 19:50:14.803722  5601 net.cpp:408] relu4 -> relu4
I1018 19:50:14.803838  5601 net.cpp:150] Setting up relu4
I1018 19:50:14.803843  5601 net.cpp:157] Top shape: 100 280 1 1 (28000)
I1018 19:50:14.803844  5601 net.cpp:165] Memory required for data: 111764400
I1018 19:50:14.803846  5601 layer_factory.hpp:77] Creating layer conv8
I1018 19:50:14.803851  5601 net.cpp:100] Creating Layer conv8
I1018 19:50:14.803853  5601 net.cpp:434] conv8 <- relu4
I1018 19:50:14.803856  5601 net.cpp:408] conv8 -> conv8
I1018 19:50:14.805181  5601 net.cpp:150] Setting up conv8
I1018 19:50:14.805189  5601 net.cpp:157] Top shape: 100 280 1 1 (28000)
I1018 19:50:14.805191  5601 net.cpp:165] Memory required for data: 111876400
I1018 19:50:14.805197  5601 layer_factory.hpp:77] Creating layer pool5
I1018 19:50:14.805202  5601 net.cpp:100] Creating Layer pool5
I1018 19:50:14.805204  5601 net.cpp:434] pool5 <- conv8
I1018 19:50:14.805207  5601 net.cpp:408] pool5 -> pool5
I1018 19:50:14.805236  5601 net.cpp:150] Setting up pool5
I1018 19:50:14.805241  5601 net.cpp:157] Top shape: 100 280 1 1 (28000)
I1018 19:50:14.805244  5601 net.cpp:165] Memory required for data: 111988400
I1018 19:50:14.805246  5601 layer_factory.hpp:77] Creating layer drop5
I1018 19:50:14.805249  5601 net.cpp:100] Creating Layer drop5
I1018 19:50:14.805251  5601 net.cpp:434] drop5 <- pool5
I1018 19:50:14.805255  5601 net.cpp:408] drop5 -> drop5
I1018 19:50:14.805281  5601 net.cpp:150] Setting up drop5
I1018 19:50:14.805287  5601 net.cpp:157] Top shape: 100 280 1 1 (28000)
I1018 19:50:14.805290  5601 net.cpp:165] Memory required for data: 112100400
I1018 19:50:14.805294  5601 layer_factory.hpp:77] Creating layer relu5
I1018 19:50:14.805297  5601 net.cpp:100] Creating Layer relu5
I1018 19:50:14.805300  5601 net.cpp:434] relu5 <- drop5
I1018 19:50:14.805304  5601 net.cpp:408] relu5 -> relu5
I1018 19:50:14.805558  5601 net.cpp:150] Setting up relu5
I1018 19:50:14.805568  5601 net.cpp:157] Top shape: 100 280 1 1 (28000)
I1018 19:50:14.805572  5601 net.cpp:165] Memory required for data: 112212400
I1018 19:50:14.805574  5601 layer_factory.hpp:77] Creating layer conv10
I1018 19:50:14.805594  5601 net.cpp:100] Creating Layer conv10
I1018 19:50:14.805600  5601 net.cpp:434] conv10 <- relu5
I1018 19:50:14.805606  5601 net.cpp:408] conv10 -> conv10
I1018 19:50:14.806743  5601 net.cpp:150] Setting up conv10
I1018 19:50:14.806752  5601 net.cpp:157] Top shape: 100 300 1 1 (30000)
I1018 19:50:14.806756  5601 net.cpp:165] Memory required for data: 112332400
I1018 19:50:14.806762  5601 layer_factory.hpp:77] Creating layer pool6
I1018 19:50:14.806768  5601 net.cpp:100] Creating Layer pool6
I1018 19:50:14.806771  5601 net.cpp:434] pool6 <- conv10
I1018 19:50:14.806776  5601 net.cpp:408] pool6 -> pool6
I1018 19:50:14.806807  5601 net.cpp:150] Setting up pool6
I1018 19:50:14.806810  5601 net.cpp:157] Top shape: 100 300 1 1 (30000)
I1018 19:50:14.806813  5601 net.cpp:165] Memory required for data: 112452400
I1018 19:50:14.806814  5601 layer_factory.hpp:77] Creating layer drop6
I1018 19:50:14.806818  5601 net.cpp:100] Creating Layer drop6
I1018 19:50:14.806820  5601 net.cpp:434] drop6 <- pool6
I1018 19:50:14.806823  5601 net.cpp:408] drop6 -> drop6
I1018 19:50:14.806849  5601 net.cpp:150] Setting up drop6
I1018 19:50:14.806851  5601 net.cpp:157] Top shape: 100 300 1 1 (30000)
I1018 19:50:14.806854  5601 net.cpp:165] Memory required for data: 112572400
I1018 19:50:14.806855  5601 layer_factory.hpp:77] Creating layer relu6
I1018 19:50:14.806860  5601 net.cpp:100] Creating Layer relu6
I1018 19:50:14.806864  5601 net.cpp:434] relu6 <- drop6
I1018 19:50:14.806865  5601 net.cpp:408] relu6 -> relu6
I1018 19:50:14.806982  5601 net.cpp:150] Setting up relu6
I1018 19:50:14.806988  5601 net.cpp:157] Top shape: 100 300 1 1 (30000)
I1018 19:50:14.806990  5601 net.cpp:165] Memory required for data: 112692400
I1018 19:50:14.806991  5601 layer_factory.hpp:77] Creating layer conv11
I1018 19:50:14.806996  5601 net.cpp:100] Creating Layer conv11
I1018 19:50:14.806999  5601 net.cpp:434] conv11 <- relu6
I1018 19:50:14.807003  5601 net.cpp:408] conv11 -> conv11
I1018 19:50:14.807773  5601 net.cpp:150] Setting up conv11
I1018 19:50:14.807781  5601 net.cpp:157] Top shape: 100 100 1 1 (10000)
I1018 19:50:14.807785  5601 net.cpp:165] Memory required for data: 112732400
I1018 19:50:14.807788  5601 layer_factory.hpp:77] Creating layer pool7
I1018 19:50:14.807791  5601 net.cpp:100] Creating Layer pool7
I1018 19:50:14.807795  5601 net.cpp:434] pool7 <- conv11
I1018 19:50:14.807798  5601 net.cpp:408] pool7 -> pool7
I1018 19:50:14.807828  5601 net.cpp:150] Setting up pool7
I1018 19:50:14.807832  5601 net.cpp:157] Top shape: 100 100 1 1 (10000)
I1018 19:50:14.807834  5601 net.cpp:165] Memory required for data: 112772400
I1018 19:50:14.807837  5601 layer_factory.hpp:77] Creating layer drop7
I1018 19:50:14.807840  5601 net.cpp:100] Creating Layer drop7
I1018 19:50:14.807842  5601 net.cpp:434] drop7 <- pool7
I1018 19:50:14.807845  5601 net.cpp:408] drop7 -> drop7
I1018 19:50:14.807870  5601 net.cpp:150] Setting up drop7
I1018 19:50:14.807874  5601 net.cpp:157] Top shape: 100 100 1 1 (10000)
I1018 19:50:14.807876  5601 net.cpp:165] Memory required for data: 112812400
I1018 19:50:14.807878  5601 layer_factory.hpp:77] Creating layer relu7
I1018 19:50:14.807885  5601 net.cpp:100] Creating Layer relu7
I1018 19:50:14.807888  5601 net.cpp:434] relu7 <- drop7
I1018 19:50:14.807890  5601 net.cpp:408] relu7 -> relu7
I1018 19:50:14.808006  5601 net.cpp:150] Setting up relu7
I1018 19:50:14.808012  5601 net.cpp:157] Top shape: 100 100 1 1 (10000)
I1018 19:50:14.808013  5601 net.cpp:165] Memory required for data: 112852400
I1018 19:50:14.808014  5601 layer_factory.hpp:77] Creating layer pool
I1018 19:50:14.808017  5601 net.cpp:100] Creating Layer pool
I1018 19:50:14.808020  5601 net.cpp:434] pool <- relu7
I1018 19:50:14.808024  5601 net.cpp:408] pool -> pool
I1018 19:50:14.808221  5601 net.cpp:150] Setting up pool
I1018 19:50:14.808228  5601 net.cpp:157] Top shape: 100 100 1 1 (10000)
I1018 19:50:14.808229  5601 net.cpp:165] Memory required for data: 112892400
I1018 19:50:14.808231  5601 layer_factory.hpp:77] Creating layer flatten
I1018 19:50:14.808243  5601 net.cpp:100] Creating Layer flatten
I1018 19:50:14.808246  5601 net.cpp:434] flatten <- pool
I1018 19:50:14.808249  5601 net.cpp:408] flatten -> flatten
I1018 19:50:14.808267  5601 net.cpp:150] Setting up flatten
I1018 19:50:14.808271  5601 net.cpp:157] Top shape: 100 100 (10000)
I1018 19:50:14.808274  5601 net.cpp:165] Memory required for data: 112932400
I1018 19:50:14.808275  5601 layer_factory.hpp:77] Creating layer score
I1018 19:50:14.808279  5601 net.cpp:100] Creating Layer score
I1018 19:50:14.808281  5601 net.cpp:434] score <- flatten
I1018 19:50:14.808284  5601 net.cpp:408] score -> score
I1018 19:50:14.808382  5601 net.cpp:150] Setting up score
I1018 19:50:14.808387  5601 net.cpp:157] Top shape: 100 10 (1000)
I1018 19:50:14.808388  5601 net.cpp:165] Memory required for data: 112936400
I1018 19:50:14.808393  5601 layer_factory.hpp:77] Creating layer score_score_0_split
I1018 19:50:14.808396  5601 net.cpp:100] Creating Layer score_score_0_split
I1018 19:50:14.808399  5601 net.cpp:434] score_score_0_split <- score
I1018 19:50:14.808403  5601 net.cpp:408] score_score_0_split -> score_score_0_split_0
I1018 19:50:14.808406  5601 net.cpp:408] score_score_0_split -> score_score_0_split_1
I1018 19:50:14.808431  5601 net.cpp:150] Setting up score_score_0_split
I1018 19:50:14.808434  5601 net.cpp:157] Top shape: 100 10 (1000)
I1018 19:50:14.808436  5601 net.cpp:157] Top shape: 100 10 (1000)
I1018 19:50:14.808439  5601 net.cpp:165] Memory required for data: 112944400
I1018 19:50:14.808440  5601 layer_factory.hpp:77] Creating layer accuracy
I1018 19:50:14.808444  5601 net.cpp:100] Creating Layer accuracy
I1018 19:50:14.808447  5601 net.cpp:434] accuracy <- score_score_0_split_0
I1018 19:50:14.808449  5601 net.cpp:434] accuracy <- label_data_1_split_0
I1018 19:50:14.808454  5601 net.cpp:408] accuracy -> accuracy
…
